#loc = loc("/NHNHOME/WORKSPACE/26msit001_A/jinhyeok/loop_TTT/lact/.cache_inductor_llm/nr/cnrnfzd5u3yjk2y5achjncppvbsvl4zjc33wkc4abnuddmftkmhu.py":18:0)
#loc30 = loc("/NHNHOME/WORKSPACE/26msit001_A/jinhyeok/TTT_camera_embedding/.venv_llm/lib/python3.12/site-packages/triton/language/standard.py":285:0)
#loc32 = loc(unknown)
#loc35 = loc("/NHNHOME/WORKSPACE/26msit001_A/jinhyeok/TTT_camera_embedding/.venv_llm/lib/python3.12/site-packages/triton/language/standard.py":260:0)
#loc39 = loc("in_ptr0"(#loc))
#loc40 = loc("out_ptr0"(#loc))
#loc41 = loc("out_ptr1"(#loc))
#loc42 = loc("xnumel"(#loc))
#loc43 = loc("r0_numel"(#loc))
#loc65 = loc("input"(#loc30))
#loc66 = loc("a"(#loc35))
#loc67 = loc("b"(#loc35))
module {
  tt.func public @triton_per_fused__to_copy_linalg_vector_norm_transpose_1(%in_ptr0: !tt.ptr<f32> {tt.divisibility = 16 : i32} loc("in_ptr0"(#loc)), %out_ptr0: !tt.ptr<f32> {tt.divisibility = 16 : i32} loc("out_ptr0"(#loc)), %out_ptr1: !tt.ptr<bf16> {tt.divisibility = 16 : i32} loc("out_ptr1"(#loc)), %xnumel: i32 {tt.divisibility = 16 : i32} loc("xnumel"(#loc)), %r0_numel: i32 {tt.divisibility = 16 : i32} loc("r0_numel"(#loc))) attributes {noinline = false} {
    %r0_numel_0 = arith.constant 192 : i32 loc(#loc44)
    %xoffset = tt.get_program_id x : i32 loc(#loc45)
    %xoffset_1 = arith.constant 1 : i32 loc(#loc46)
    %xoffset_2 = arith.constant 1 : i32 loc(#loc46)
    %xoffset_3 = arith.muli %xoffset, %xoffset_2 : i32 loc(#loc46)
    %xindex = tt.make_range {end = 1 : i32, start = 0 : i32} : tensor<1xi32> loc(#loc47)
    %xindex_4 = tt.expand_dims %xindex {axis = 1 : i32} : tensor<1xi32> -> tensor<1x1xi32> loc(#loc48)
    %xindex_5 = tt.splat %xoffset_3 : i32 -> tensor<1x1xi32> loc(#loc49)
    %xindex_6 = arith.addi %xindex_5, %xindex_4 : tensor<1x1xi32> loc(#loc49)
    %xmask = tt.splat %xnumel : i32 -> tensor<1x1xi32> loc(#loc50)
    %xmask_7 = arith.cmpi slt, %xindex_6, %xmask : tensor<1x1xi32> loc(#loc50)
    %r0_index = tt.make_range {end = 256 : i32, start = 0 : i32} : tensor<256xi32> loc(#loc51)
    %r0_index_8 = tt.expand_dims %r0_index {axis = 0 : i32} : tensor<256xi32> -> tensor<1x256xi32> loc(#loc52)
    %r0_offset = arith.constant 0 : i32 loc(#loc53)
    %r0_mask = arith.constant dense<192> : tensor<1x256xi32> loc(#loc54)
    %r0_mask_9 = arith.cmpi slt, %r0_index_8, %r0_mask : tensor<1x256xi32> loc(#loc54)
    %tmp0 = arith.constant 192 : i32 loc(#loc55)
    %tmp0_10 = arith.constant 192 : i32 loc(#loc55)
    %tmp0_11 = arith.constant dense<192> : tensor<1x1xi32> loc(#loc55)
    %tmp0_12 = arith.muli %tmp0_11, %xindex_6 : tensor<1x1xi32> loc(#loc55)
    %tmp0_13 = tt.broadcast %tmp0_12 : tensor<1x1xi32> -> tensor<1x256xi32> loc(#loc56)
    %tmp0_14 = arith.addi %r0_index_8, %tmp0_13 : tensor<1x256xi32> loc(#loc56)
    %tmp0_15 = tt.splat %in_ptr0 : !tt.ptr<f32> -> tensor<1x256x!tt.ptr<f32>> loc(#loc57)
    %tmp0_16 = tt.addptr %tmp0_15, %tmp0_14 : tensor<1x256x!tt.ptr<f32>>, tensor<1x256xi32> loc(#loc57)
    %tmp0_17 = tt.broadcast %xmask_7 : tensor<1x1xi1> -> tensor<1x256xi1> loc(#loc58)
    %tmp0_18 = arith.andi %r0_mask_9, %tmp0_17 : tensor<1x256xi1> loc(#loc58)
    %tmp0_19 = arith.constant 0.000000e+00 : f32 loc(#loc59)
    %tmp0_20 = arith.constant dense<0.000000e+00> : tensor<1x256xf32> loc(#loc59)
    %tmp0_21 = tt.load %tmp0_16, %tmp0_18, %tmp0_20 : tensor<1x256x!tt.ptr<f32>> loc(#loc59)
    %tmp1 = arith.mulf %tmp0_21, %tmp0_21 : tensor<1x256xf32> loc(#loc60)
    %tmp4 = tt.broadcast %xmask_7 : tensor<1x1xi1> -> tensor<1x256xi1> loc(#loc61)
    %tmp4_22 = arith.andi %r0_mask_9, %tmp4 : tensor<1x256xi1> loc(#loc61)
    %tmp4_23 = arith.constant 0 : i32 loc(#loc62)
    %tmp4_24 = arith.constant 0.000000e+00 : f32 loc(#loc62)
    %tmp4_25 = arith.constant dense<0.000000e+00> : tensor<1x256xf32> loc(#loc62)
    %tmp4_26 = arith.select %tmp4_22, %tmp1, %tmp4_25 : tensor<1x256xi1>, tensor<1x256xf32> loc(#loc62)
    %tmp5 = tt.call @"triton.language.standard.sum__fp32S1_256S__(1,)cconstexpr_1__(2,)cconstexpr_False__(3,)cNone"(%tmp4_26) : (tensor<1x256xf32>) -> tensor<1xf32> loc(#loc63)
    %tmp5_27 = tt.expand_dims %tmp5 {axis = 1 : i32} : tensor<1xf32> -> tensor<1x1xf32> loc(#loc64)
    %c192_i32 = arith.constant 192 : i32 loc(#loc22)
    %c192_i32_28 = arith.constant 192 : i32 loc(#loc22)
    %cst = arith.constant dense<192> : tensor<1x1xi32> loc(#loc22)
    %0 = arith.muli %cst, %xindex_6 : tensor<1x1xi32> loc(#loc22)
    %1 = tt.broadcast %0 : tensor<1x1xi32> -> tensor<1x256xi32> loc(#loc23)
    %2 = arith.addi %r0_index_8, %1 : tensor<1x256xi32> loc(#loc23)
    %3 = tt.splat %out_ptr1 : !tt.ptr<bf16> -> tensor<1x256x!tt.ptr<bf16>> loc(#loc24)
    %4 = tt.addptr %3, %2 : tensor<1x256x!tt.ptr<bf16>>, tensor<1x256xi32> loc(#loc24)
    %5 = tt.broadcast %xmask_7 : tensor<1x1xi1> -> tensor<1x256xi1> loc(#loc25)
    %6 = arith.andi %r0_mask_9, %5 : tensor<1x256xi1> loc(#loc25)
    %7 = arith.truncf %tmp0_21 : tensor<1x256xf32> to tensor<1x256xbf16> loc(#loc26)
    tt.store %4, %7, %6 : tensor<1x256x!tt.ptr<bf16>> loc(#loc26)
    %8 = tt.splat %out_ptr0 : !tt.ptr<f32> -> tensor<1x1x!tt.ptr<f32>> loc(#loc27)
    %9 = tt.addptr %8, %xindex_6 : tensor<1x1x!tt.ptr<f32>>, tensor<1x1xi32> loc(#loc27)
    tt.store %9, %tmp5_27, %xmask_7 : tensor<1x1x!tt.ptr<f32>> loc(#loc28)
    tt.return loc(#loc29)
  } loc(#loc)
  tt.func private @"triton.language.standard.sum__fp32S1_256S__(1,)cconstexpr_1__(2,)cconstexpr_False__(3,)cNone"(%input: tensor<1x256xf32> loc("input"(#loc30))) -> tensor<1xf32> attributes {noinline = false} {
    %0 = "tt.reduce"(%input) <{axis = 1 : i32}> ({
    ^bb0(%arg1: f32 loc(unknown), %arg2: f32 loc(unknown)):
      %2 = tt.call @triton.language.standard._sum_combine__fp32_fp32__(%arg1, %arg2) : (f32, f32) -> f32 loc(#loc31)
      tt.reduce.return %2 : f32 loc(#loc31)
    }) : (tensor<1x256xf32>) -> tensor<1xf32> loc(#loc31)
    tt.return %0 : tensor<1xf32> loc(#loc33)
  ^bb1:  // no predecessors
    %1 = ub.poison : tensor<1xf32> loc(#loc34)
    tt.return %1 : tensor<1xf32> loc(#loc34)
  } loc(#loc30)
  tt.func private @triton.language.standard._sum_combine__fp32_fp32__(%a: f32 loc("a"(#loc35)), %b: f32 loc("b"(#loc35))) -> f32 attributes {noinline = false} {
    %0 = arith.addf %a, %b : f32 loc(#loc36)
    tt.return %0 : f32 loc(#loc37)
  ^bb1:  // no predecessors
    %1 = ub.poison : f32 loc(#loc38)
    tt.return %1 : f32 loc(#loc38)
  } loc(#loc35)
} loc(#loc)
#loc1 = loc("/NHNHOME/WORKSPACE/26msit001_A/jinhyeok/loop_TTT/lact/.cache_inductor_llm/nr/cnrnfzd5u3yjk2y5achjncppvbsvl4zjc33wkc4abnuddmftkmhu.py":19:15)
#loc2 = loc("/NHNHOME/WORKSPACE/26msit001_A/jinhyeok/loop_TTT/lact/.cache_inductor_llm/nr/cnrnfzd5u3yjk2y5achjncppvbsvl4zjc33wkc4abnuddmftkmhu.py":23:28)
#loc3 = loc("/NHNHOME/WORKSPACE/26msit001_A/jinhyeok/loop_TTT/lact/.cache_inductor_llm/nr/cnrnfzd5u3yjk2y5achjncppvbsvl4zjc33wkc4abnuddmftkmhu.py":23:33)
#loc4 = loc("/NHNHOME/WORKSPACE/26msit001_A/jinhyeok/loop_TTT/lact/.cache_inductor_llm/nr/cnrnfzd5u3yjk2y5achjncppvbsvl4zjc33wkc4abnuddmftkmhu.py":24:36)
#loc5 = loc("/NHNHOME/WORKSPACE/26msit001_A/jinhyeok/loop_TTT/lact/.cache_inductor_llm/nr/cnrnfzd5u3yjk2y5achjncppvbsvl4zjc33wkc4abnuddmftkmhu.py":24:44)
#loc6 = loc("/NHNHOME/WORKSPACE/26msit001_A/jinhyeok/loop_TTT/lact/.cache_inductor_llm/nr/cnrnfzd5u3yjk2y5achjncppvbsvl4zjc33wkc4abnuddmftkmhu.py":24:23)
#loc7 = loc("/NHNHOME/WORKSPACE/26msit001_A/jinhyeok/loop_TTT/lact/.cache_inductor_llm/nr/cnrnfzd5u3yjk2y5achjncppvbsvl4zjc33wkc4abnuddmftkmhu.py":25:21)
#loc8 = loc("/NHNHOME/WORKSPACE/26msit001_A/jinhyeok/loop_TTT/lact/.cache_inductor_llm/nr/cnrnfzd5u3yjk2y5achjncppvbsvl4zjc33wkc4abnuddmftkmhu.py":26:28)
#loc9 = loc("/NHNHOME/WORKSPACE/26msit001_A/jinhyeok/loop_TTT/lact/.cache_inductor_llm/nr/cnrnfzd5u3yjk2y5achjncppvbsvl4zjc33wkc4abnuddmftkmhu.py":26:38)
#loc10 = loc("/NHNHOME/WORKSPACE/26msit001_A/jinhyeok/loop_TTT/lact/.cache_inductor_llm/nr/cnrnfzd5u3yjk2y5achjncppvbsvl4zjc33wkc4abnuddmftkmhu.py":27:16)
#loc11 = loc("/NHNHOME/WORKSPACE/26msit001_A/jinhyeok/loop_TTT/lact/.cache_inductor_llm/nr/cnrnfzd5u3yjk2y5achjncppvbsvl4zjc33wkc4abnuddmftkmhu.py":28:25)
#loc12 = loc("/NHNHOME/WORKSPACE/26msit001_A/jinhyeok/loop_TTT/lact/.cache_inductor_llm/nr/cnrnfzd5u3yjk2y5achjncppvbsvl4zjc33wkc4abnuddmftkmhu.py":33:41)
#loc13 = loc("/NHNHOME/WORKSPACE/26msit001_A/jinhyeok/loop_TTT/lact/.cache_inductor_llm/nr/cnrnfzd5u3yjk2y5achjncppvbsvl4zjc33wkc4abnuddmftkmhu.py":33:37)
#loc14 = loc("/NHNHOME/WORKSPACE/26msit001_A/jinhyeok/loop_TTT/lact/.cache_inductor_llm/nr/cnrnfzd5u3yjk2y5achjncppvbsvl4zjc33wkc4abnuddmftkmhu.py":33:30)
#loc15 = loc("/NHNHOME/WORKSPACE/26msit001_A/jinhyeok/loop_TTT/lact/.cache_inductor_llm/nr/cnrnfzd5u3yjk2y5achjncppvbsvl4zjc33wkc4abnuddmftkmhu.py":33:56)
#loc16 = loc("/NHNHOME/WORKSPACE/26msit001_A/jinhyeok/loop_TTT/lact/.cache_inductor_llm/nr/cnrnfzd5u3yjk2y5achjncppvbsvl4zjc33wkc4abnuddmftkmhu.py":33:46)
#loc17 = loc("/NHNHOME/WORKSPACE/26msit001_A/jinhyeok/loop_TTT/lact/.cache_inductor_llm/nr/cnrnfzd5u3yjk2y5achjncppvbsvl4zjc33wkc4abnuddmftkmhu.py":34:18)
#loc18 = loc("/NHNHOME/WORKSPACE/26msit001_A/jinhyeok/loop_TTT/lact/.cache_inductor_llm/nr/cnrnfzd5u3yjk2y5achjncppvbsvl4zjc33wkc4abnuddmftkmhu.py":36:30)
#loc19 = loc("/NHNHOME/WORKSPACE/26msit001_A/jinhyeok/loop_TTT/lact/.cache_inductor_llm/nr/cnrnfzd5u3yjk2y5achjncppvbsvl4zjc33wkc4abnuddmftkmhu.py":36:43)
#loc20 = loc("/NHNHOME/WORKSPACE/26msit001_A/jinhyeok/loop_TTT/lact/.cache_inductor_llm/nr/cnrnfzd5u3yjk2y5achjncppvbsvl4zjc33wkc4abnuddmftkmhu.py":37:24)
#loc21 = loc("/NHNHOME/WORKSPACE/26msit001_A/jinhyeok/loop_TTT/lact/.cache_inductor_llm/nr/cnrnfzd5u3yjk2y5achjncppvbsvl4zjc33wkc4abnuddmftkmhu.py":37:27)
#loc22 = loc("/NHNHOME/WORKSPACE/26msit001_A/jinhyeok/loop_TTT/lact/.cache_inductor_llm/nr/cnrnfzd5u3yjk2y5achjncppvbsvl4zjc33wkc4abnuddmftkmhu.py":39:36)
#loc23 = loc("/NHNHOME/WORKSPACE/26msit001_A/jinhyeok/loop_TTT/lact/.cache_inductor_llm/nr/cnrnfzd5u3yjk2y5achjncppvbsvl4zjc33wkc4abnuddmftkmhu.py":39:32)
#loc24 = loc("/NHNHOME/WORKSPACE/26msit001_A/jinhyeok/loop_TTT/lact/.cache_inductor_llm/nr/cnrnfzd5u3yjk2y5achjncppvbsvl4zjc33wkc4abnuddmftkmhu.py":39:25)
#loc25 = loc("/NHNHOME/WORKSPACE/26msit001_A/jinhyeok/loop_TTT/lact/.cache_inductor_llm/nr/cnrnfzd5u3yjk2y5achjncppvbsvl4zjc33wkc4abnuddmftkmhu.py":39:57)
#loc26 = loc("/NHNHOME/WORKSPACE/26msit001_A/jinhyeok/loop_TTT/lact/.cache_inductor_llm/nr/cnrnfzd5u3yjk2y5achjncppvbsvl4zjc33wkc4abnuddmftkmhu.py":39:47)
#loc27 = loc("/NHNHOME/WORKSPACE/26msit001_A/jinhyeok/loop_TTT/lact/.cache_inductor_llm/nr/cnrnfzd5u3yjk2y5achjncppvbsvl4zjc33wkc4abnuddmftkmhu.py":40:25)
#loc28 = loc("/NHNHOME/WORKSPACE/26msit001_A/jinhyeok/loop_TTT/lact/.cache_inductor_llm/nr/cnrnfzd5u3yjk2y5achjncppvbsvl4zjc33wkc4abnuddmftkmhu.py":40:36)
#loc29 = loc("/NHNHOME/WORKSPACE/26msit001_A/jinhyeok/loop_TTT/lact/.cache_inductor_llm/nr/cnrnfzd5u3yjk2y5achjncppvbsvl4zjc33wkc4abnuddmftkmhu.py":40:4)
#loc31 = loc("/NHNHOME/WORKSPACE/26msit001_A/jinhyeok/TTT_camera_embedding/.venv_llm/lib/python3.12/site-packages/triton/language/standard.py":291:36)
#loc33 = loc("/NHNHOME/WORKSPACE/26msit001_A/jinhyeok/TTT_camera_embedding/.venv_llm/lib/python3.12/site-packages/triton/language/standard.py":291:11)
#loc34 = loc("/NHNHOME/WORKSPACE/26msit001_A/jinhyeok/TTT_camera_embedding/.venv_llm/lib/python3.12/site-packages/triton/language/standard.py":291:4)
#loc36 = loc("/NHNHOME/WORKSPACE/26msit001_A/jinhyeok/TTT_camera_embedding/.venv_llm/lib/python3.12/site-packages/triton/language/standard.py":261:15)
#loc37 = loc("/NHNHOME/WORKSPACE/26msit001_A/jinhyeok/TTT_camera_embedding/.venv_llm/lib/python3.12/site-packages/triton/language/standard.py":261:11)
#loc38 = loc("/NHNHOME/WORKSPACE/26msit001_A/jinhyeok/TTT_camera_embedding/.venv_llm/lib/python3.12/site-packages/triton/language/standard.py":261:4)
#loc44 = loc("r0_numel"(#loc1))
#loc45 = loc("xoffset"(#loc2))
#loc46 = loc("xoffset"(#loc3))
#loc47 = loc("xindex"(#loc4))
#loc48 = loc("xindex"(#loc5))
#loc49 = loc("xindex"(#loc6))
#loc50 = loc("xmask"(#loc7))
#loc51 = loc("r0_index"(#loc8))
#loc52 = loc("r0_index"(#loc9))
#loc53 = loc("r0_offset"(#loc10))
#loc54 = loc("r0_mask"(#loc11))
#loc55 = loc("tmp0"(#loc12))
#loc56 = loc("tmp0"(#loc13))
#loc57 = loc("tmp0"(#loc14))
#loc58 = loc("tmp0"(#loc15))
#loc59 = loc("tmp0"(#loc16))
#loc60 = loc("tmp1"(#loc17))
#loc61 = loc("tmp4"(#loc18))
#loc62 = loc("tmp4"(#loc19))
#loc63 = loc("tmp5"(#loc20))
#loc64 = loc("tmp5"(#loc21))
