#loc = loc("/NHNHOME/WORKSPACE/26msit001_A/jinhyeok/loop_TTT/lact/.cache_inductor_llm/nr/cnrnfzd5u3yjk2y5achjncppvbsvl4zjc33wkc4abnuddmftkmhu.py":18:0)
#loc1 = loc(unknown)
#loc15 = loc("/NHNHOME/WORKSPACE/26msit001_A/jinhyeok/loop_TTT/lact/.cache_inductor_llm/nr/cnrnfzd5u3yjk2y5achjncppvbsvl4zjc33wkc4abnuddmftkmhu.py":37:24)
#loc23 = loc("in_ptr0"(#loc))
#loc24 = loc("out_ptr0"(#loc))
#loc25 = loc("out_ptr1"(#loc))
#loc26 = loc("xnumel"(#loc))
#loc27 = loc("r0_numel"(#loc))
#loc40 = loc("tmp5"(#loc15))
#loc45 = loc(callsite(#loc1 at #loc40))
module {
  tt.func public @triton_per_fused__to_copy_linalg_vector_norm_transpose_1(%in_ptr0: !tt.ptr<f32> {tt.divisibility = 16 : i32} loc("in_ptr0"(#loc)), %out_ptr0: !tt.ptr<f32> {tt.divisibility = 16 : i32} loc("out_ptr0"(#loc)), %out_ptr1: !tt.ptr<bf16> {tt.divisibility = 16 : i32} loc("out_ptr1"(#loc)), %xnumel: i32 {tt.divisibility = 16 : i32} loc("xnumel"(#loc)), %r0_numel: i32 {tt.divisibility = 16 : i32} loc("r0_numel"(#loc))) attributes {noinline = false} {
    %c192_i32 = arith.constant 192 : i32 loc(#loc1)
    %cst = arith.constant dense<0.000000e+00> : tensor<1x256xf32> loc(#loc1)
    %r0_mask = arith.constant dense<192> : tensor<1x256xi32> loc(#loc28)
    %xoffset = tt.get_program_id x : i32 loc(#loc29)
    %xmask = arith.cmpi slt, %xoffset, %xnumel : i32 loc(#loc30)
    %xmask_0 = tt.splat %xmask : i1 -> tensor<1x1xi1> loc(#loc30)
    %r0_index = tt.make_range {end = 256 : i32, start = 0 : i32} : tensor<256xi32> loc(#loc31)
    %r0_index_1 = tt.expand_dims %r0_index {axis = 0 : i32} : tensor<256xi32> -> tensor<1x256xi32> loc(#loc32)
    %r0_mask_2 = arith.cmpi slt, %r0_index_1, %r0_mask : tensor<1x256xi32> loc(#loc28)
    %tmp0 = arith.muli %xoffset, %c192_i32 : i32 loc(#loc33)
    %tmp0_3 = tt.splat %tmp0 : i32 -> tensor<1x256xi32> loc(#loc42)
    %tmp0_4 = arith.addi %r0_index_1, %tmp0_3 : tensor<1x256xi32> loc(#loc34)
    %tmp0_5 = tt.splat %in_ptr0 : !tt.ptr<f32> -> tensor<1x256x!tt.ptr<f32>> loc(#loc35)
    %tmp0_6 = tt.addptr %tmp0_5, %tmp0_4 : tensor<1x256x!tt.ptr<f32>>, tensor<1x256xi32> loc(#loc35)
    %tmp0_7 = tt.splat %xmask : i1 -> tensor<1x256xi1> loc(#loc43)
    %tmp0_8 = arith.andi %r0_mask_2, %tmp0_7 : tensor<1x256xi1> loc(#loc36)
    %tmp0_9 = tt.load %tmp0_6, %tmp0_8, %cst : tensor<1x256x!tt.ptr<f32>> loc(#loc37)
    %tmp1 = arith.mulf %tmp0_9, %tmp0_9 : tensor<1x256xf32> loc(#loc38)
    %tmp4 = arith.select %tmp0_8, %tmp1, %cst : tensor<1x256xi1>, tensor<1x256xf32> loc(#loc39)
    %tmp5 = "tt.reduce"(%tmp4) <{axis = 1 : i32}> ({
    ^bb0(%tmp5_11: f32 loc(callsite(#loc1 at #loc40)), %tmp5_12: f32 loc(callsite(#loc1 at #loc40))):
      %tmp5_13 = arith.addf %tmp5_11, %tmp5_12 : f32 loc(#loc46)
      tt.reduce.return %tmp5_13 : f32 loc(#loc44)
    }) : (tensor<1x256xf32>) -> tensor<1xf32> loc(#loc44)
    %tmp5_10 = tt.expand_dims %tmp5 {axis = 1 : i32} : tensor<1xf32> -> tensor<1x1xf32> loc(#loc41)
    %0 = tt.splat %out_ptr1 : !tt.ptr<bf16> -> tensor<1x256x!tt.ptr<bf16>> loc(#loc18)
    %1 = tt.addptr %0, %tmp0_4 : tensor<1x256x!tt.ptr<bf16>>, tensor<1x256xi32> loc(#loc18)
    %2 = arith.truncf %tmp0_9 : tensor<1x256xf32> to tensor<1x256xbf16> loc(#loc19)
    tt.store %1, %2, %tmp0_8 : tensor<1x256x!tt.ptr<bf16>> loc(#loc19)
    %3 = tt.addptr %out_ptr0, %xoffset : !tt.ptr<f32>, i32 loc(#loc20)
    %4 = tt.splat %3 : !tt.ptr<f32> -> tensor<1x1x!tt.ptr<f32>> loc(#loc20)
    tt.store %4, %tmp5_10, %xmask_0 : tensor<1x1x!tt.ptr<f32>> loc(#loc21)
    tt.return loc(#loc22)
  } loc(#loc)
} loc(#loc)
#loc2 = loc("/NHNHOME/WORKSPACE/26msit001_A/jinhyeok/loop_TTT/lact/.cache_inductor_llm/nr/cnrnfzd5u3yjk2y5achjncppvbsvl4zjc33wkc4abnuddmftkmhu.py":28:25)
#loc3 = loc("/NHNHOME/WORKSPACE/26msit001_A/jinhyeok/loop_TTT/lact/.cache_inductor_llm/nr/cnrnfzd5u3yjk2y5achjncppvbsvl4zjc33wkc4abnuddmftkmhu.py":23:28)
#loc4 = loc("/NHNHOME/WORKSPACE/26msit001_A/jinhyeok/loop_TTT/lact/.cache_inductor_llm/nr/cnrnfzd5u3yjk2y5achjncppvbsvl4zjc33wkc4abnuddmftkmhu.py":25:21)
#loc5 = loc("/NHNHOME/WORKSPACE/26msit001_A/jinhyeok/loop_TTT/lact/.cache_inductor_llm/nr/cnrnfzd5u3yjk2y5achjncppvbsvl4zjc33wkc4abnuddmftkmhu.py":26:28)
#loc6 = loc("/NHNHOME/WORKSPACE/26msit001_A/jinhyeok/loop_TTT/lact/.cache_inductor_llm/nr/cnrnfzd5u3yjk2y5achjncppvbsvl4zjc33wkc4abnuddmftkmhu.py":26:38)
#loc7 = loc("/NHNHOME/WORKSPACE/26msit001_A/jinhyeok/loop_TTT/lact/.cache_inductor_llm/nr/cnrnfzd5u3yjk2y5achjncppvbsvl4zjc33wkc4abnuddmftkmhu.py":33:41)
#loc8 = loc("/NHNHOME/WORKSPACE/26msit001_A/jinhyeok/loop_TTT/lact/.cache_inductor_llm/nr/cnrnfzd5u3yjk2y5achjncppvbsvl4zjc33wkc4abnuddmftkmhu.py":33:37)
#loc9 = loc("/NHNHOME/WORKSPACE/26msit001_A/jinhyeok/loop_TTT/lact/.cache_inductor_llm/nr/cnrnfzd5u3yjk2y5achjncppvbsvl4zjc33wkc4abnuddmftkmhu.py":33:30)
#loc10 = loc("/NHNHOME/WORKSPACE/26msit001_A/jinhyeok/loop_TTT/lact/.cache_inductor_llm/nr/cnrnfzd5u3yjk2y5achjncppvbsvl4zjc33wkc4abnuddmftkmhu.py":33:56)
#loc11 = loc("/NHNHOME/WORKSPACE/26msit001_A/jinhyeok/loop_TTT/lact/.cache_inductor_llm/nr/cnrnfzd5u3yjk2y5achjncppvbsvl4zjc33wkc4abnuddmftkmhu.py":33:46)
#loc12 = loc("/NHNHOME/WORKSPACE/26msit001_A/jinhyeok/loop_TTT/lact/.cache_inductor_llm/nr/cnrnfzd5u3yjk2y5achjncppvbsvl4zjc33wkc4abnuddmftkmhu.py":34:18)
#loc13 = loc("/NHNHOME/WORKSPACE/26msit001_A/jinhyeok/loop_TTT/lact/.cache_inductor_llm/nr/cnrnfzd5u3yjk2y5achjncppvbsvl4zjc33wkc4abnuddmftkmhu.py":36:43)
#loc14 = loc("/NHNHOME/WORKSPACE/26msit001_A/jinhyeok/TTT_camera_embedding/.venv_llm/lib/python3.12/site-packages/triton/language/standard.py":291:36)
#loc16 = loc("/NHNHOME/WORKSPACE/26msit001_A/jinhyeok/TTT_camera_embedding/.venv_llm/lib/python3.12/site-packages/triton/language/standard.py":261:15)
#loc17 = loc("/NHNHOME/WORKSPACE/26msit001_A/jinhyeok/loop_TTT/lact/.cache_inductor_llm/nr/cnrnfzd5u3yjk2y5achjncppvbsvl4zjc33wkc4abnuddmftkmhu.py":37:27)
#loc18 = loc("/NHNHOME/WORKSPACE/26msit001_A/jinhyeok/loop_TTT/lact/.cache_inductor_llm/nr/cnrnfzd5u3yjk2y5achjncppvbsvl4zjc33wkc4abnuddmftkmhu.py":39:25)
#loc19 = loc("/NHNHOME/WORKSPACE/26msit001_A/jinhyeok/loop_TTT/lact/.cache_inductor_llm/nr/cnrnfzd5u3yjk2y5achjncppvbsvl4zjc33wkc4abnuddmftkmhu.py":39:47)
#loc20 = loc("/NHNHOME/WORKSPACE/26msit001_A/jinhyeok/loop_TTT/lact/.cache_inductor_llm/nr/cnrnfzd5u3yjk2y5achjncppvbsvl4zjc33wkc4abnuddmftkmhu.py":40:25)
#loc21 = loc("/NHNHOME/WORKSPACE/26msit001_A/jinhyeok/loop_TTT/lact/.cache_inductor_llm/nr/cnrnfzd5u3yjk2y5achjncppvbsvl4zjc33wkc4abnuddmftkmhu.py":40:36)
#loc22 = loc("/NHNHOME/WORKSPACE/26msit001_A/jinhyeok/loop_TTT/lact/.cache_inductor_llm/nr/cnrnfzd5u3yjk2y5achjncppvbsvl4zjc33wkc4abnuddmftkmhu.py":40:4)
#loc28 = loc("r0_mask"(#loc2))
#loc29 = loc("xoffset"(#loc3))
#loc30 = loc("xmask"(#loc4))
#loc31 = loc("r0_index"(#loc5))
#loc32 = loc("r0_index"(#loc6))
#loc33 = loc("tmp0"(#loc7))
#loc34 = loc("tmp0"(#loc8))
#loc35 = loc("tmp0"(#loc9))
#loc36 = loc("tmp0"(#loc10))
#loc37 = loc("tmp0"(#loc11))
#loc38 = loc("tmp1"(#loc12))
#loc39 = loc("tmp4"(#loc13))
#loc41 = loc("tmp5"(#loc17))
#loc42 = loc(fused[#loc34, #loc33])
#loc43 = loc(fused[#loc36, #loc30])
#loc44 = loc(callsite(#loc14 at #loc40))
#loc46 = loc(callsite(#loc16 at #loc44))
