#loc = loc("/NHNHOME/WORKSPACE/26msit001_A/jinhyeok/TTT_camera_embedding/lact_llm/.cache_inductor/hv/chvei5pphgs2nlzco3cqmio65mvyutdmcjqmxalpvjkcviycfnh5.py":18:0)
#loc132 = loc("in_ptr0"(#loc))
#loc133 = loc("in_ptr1"(#loc))
#loc134 = loc("in_ptr2"(#loc))
#loc135 = loc("in_ptr3"(#loc))
#loc136 = loc("in_ptr4"(#loc))
#loc137 = loc("in_ptr5"(#loc))
#loc138 = loc("out_ptr0"(#loc))
#loc139 = loc("out_ptr1"(#loc))
#loc140 = loc("xnumel"(#loc))
module {
  tt.func public @triton_poi_fused__to_copy_add_mul_select_silu_slice_stack_sub_unsqueeze_view_1(%in_ptr0: !tt.ptr<bf16> {tt.divisibility = 16 : i32} loc("in_ptr0"(#loc)), %in_ptr1: !tt.ptr<bf16> {tt.divisibility = 16 : i32} loc("in_ptr1"(#loc)), %in_ptr2: !tt.ptr<f32> {tt.divisibility = 16 : i32} loc("in_ptr2"(#loc)), %in_ptr3: !tt.ptr<f32> {tt.divisibility = 16 : i32} loc("in_ptr3"(#loc)), %in_ptr4: !tt.ptr<bf16> {tt.divisibility = 16 : i32} loc("in_ptr4"(#loc)), %in_ptr5: !tt.ptr<bf16> {tt.divisibility = 16 : i32} loc("in_ptr5"(#loc)), %out_ptr0: !tt.ptr<f32> {tt.divisibility = 16 : i32} loc("out_ptr0"(#loc)), %out_ptr1: !tt.ptr<f32> {tt.divisibility = 16 : i32} loc("out_ptr1"(#loc)), %xnumel: i32 {tt.divisibility = 16 : i32} loc("xnumel"(#loc))) attributes {noinline = false} {
    %cst = arith.constant dense<1.000000e+00> : tensor<512xf32> loc(#loc1)
    %cst_0 = arith.constant dense<0.000000e+00> : tensor<512xbf16> loc(#loc1)
    %cst_1 = arith.constant dense<-1024> : tensor<512xi32> loc(#loc1)
    %cst_2 = arith.constant dense<1024> : tensor<512xi32> loc(#loc1)
    %cst_3 = arith.constant dense<4096> : tensor<512xi32> loc(#loc1)
    %cst_4 = arith.constant dense<0.000000e+00> : tensor<512xf32> loc(#loc1)
    %cst_5 = arith.constant dense<196608> : tensor<512xi32> loc(#loc1)
    %cst_6 = arith.constant dense<1024> : tensor<512xi64> loc(#loc1)
    %x2 = arith.constant dense<98304> : tensor<512xi32> loc(#loc141)
    %x1 = arith.constant dense<48> : tensor<512xi32> loc(#loc142)
    %cst_7 = arith.constant dense<2048> : tensor<512xi32> loc(#loc1)
    %c512_i32 = arith.constant 512 : i32 loc(#loc1)
    %xoffset = tt.get_program_id x : i32 loc(#loc143)
    %xoffset_8 = arith.muli %xoffset, %c512_i32 : i32 loc(#loc144)
    %xindex = tt.make_range {end = 512 : i32, start = 0 : i32} : tensor<512xi32> loc(#loc145)
    %xindex_9 = tt.splat %xoffset_8 : i32 -> tensor<512xi32> loc(#loc146)
    %xindex_10 = arith.addi %xindex_9, %xindex : tensor<512xi32> loc(#loc146)
    %x0 = arith.remsi %xindex_10, %cst_7 : tensor<512xi32> loc(#loc147)
    %x1_11 = arith.divsi %xindex_10, %cst_7 : tensor<512xi32> loc(#loc148)
    %x1_12 = arith.remsi %x1_11, %x1 : tensor<512xi32> loc(#loc142)
    %x2_13 = arith.divsi %xindex_10, %x2 : tensor<512xi32> loc(#loc141)
    %tmp4 = arith.extsi %x0 : tensor<512xi32> to tensor<512xi64> loc(#loc149)
    %tmp4_14 = arith.cmpi slt, %tmp4, %cst_6 : tensor<512xi64> loc(#loc149)
    %tmp5 = arith.muli %x1_12, %cst_7 : tensor<512xi32> loc(#loc150)
    %tmp5_15 = arith.muli %x2_13, %cst_5 : tensor<512xi32> loc(#loc151)
    %tmp5_16 = arith.addi %tmp5, %tmp5_15 : tensor<512xi32> loc(#loc152)
    %tmp5_17 = arith.addi %tmp5_16, %x0 : tensor<512xi32> loc(#loc153)
    %tmp5_18 = tt.splat %in_ptr0 : !tt.ptr<bf16> -> tensor<512x!tt.ptr<bf16>> loc(#loc154)
    %tmp5_19 = tt.addptr %tmp5_18, %tmp5_17 : tensor<512x!tt.ptr<bf16>>, tensor<512xi32> loc(#loc154)
    %tmp5_20 = tt.load %tmp5_19, %tmp4_14, %cst_0 evictionPolicy = evict_last : tensor<512x!tt.ptr<bf16>> loc(#loc155)
    %tmp5_21 = arith.extf %tmp5_20 : tensor<512xbf16> to tensor<512xf32> loc(#loc156)
    %tmp7 = arith.subf %cst_4, %tmp5_21 : tensor<512xf32> loc(#loc262)
    %tmp7_22 = math.exp %tmp7 : tensor<512xf32> loc(#loc263)
    %tmp7_23 = arith.addf %tmp7_22, %cst : tensor<512xf32> loc(#loc264)
    %tmp7_24 = arith.divf %cst, %tmp7_23 : tensor<512xf32> loc(#loc265)
    %tmp8 = arith.mulf %tmp5_21, %tmp7_24 : tensor<512xf32> loc(#loc158)
    %tmp10 = tt.splat %in_ptr1 : !tt.ptr<bf16> -> tensor<512x!tt.ptr<bf16>> loc(#loc159)
    %tmp10_25 = tt.addptr %tmp10, %tmp5_17 : tensor<512x!tt.ptr<bf16>>, tensor<512xi32> loc(#loc159)
    %tmp10_26 = tt.load %tmp10_25, %tmp4_14, %cst_0 evictionPolicy = evict_last : tensor<512x!tt.ptr<bf16>> loc(#loc160)
    %tmp10_27 = arith.extf %tmp10_26 : tensor<512xbf16> to tensor<512xf32> loc(#loc161)
    %tmp11 = arith.mulf %tmp8, %tmp10_27 : tensor<512xf32> loc(#loc162)
    %tmp13 = arith.muli %x1_12, %cst_3 : tensor<512xi32> loc(#loc163)
    %tmp13_28 = arith.addi %tmp13, %x0 : tensor<512xi32> loc(#loc164)
    %tmp13_29 = tt.splat %in_ptr2 : !tt.ptr<f32> -> tensor<512x!tt.ptr<f32>> loc(#loc165)
    %tmp13_30 = tt.addptr %tmp13_29, %tmp13_28 : tensor<512x!tt.ptr<f32>>, tensor<512xi32> loc(#loc165)
    %tmp13_31 = tt.load %tmp13_30, %tmp4_14, %cst_4 evictionPolicy = evict_last : tensor<512x!tt.ptr<f32>> loc(#loc166)
    %tmp14 = arith.mulf %tmp11, %tmp13_31 : tensor<512xf32> loc(#loc167)
    %tmp15 = arith.addi %tmp5, %cst_2 : tensor<512xi32> loc(#loc168)
    %tmp15_32 = arith.addi %tmp15, %tmp5_15 : tensor<512xi32> loc(#loc169)
    %tmp15_33 = arith.addi %tmp15_32, %x0 : tensor<512xi32> loc(#loc170)
    %tmp15_34 = tt.addptr %tmp5_18, %tmp15_33 : tensor<512x!tt.ptr<bf16>>, tensor<512xi32> loc(#loc171)
    %tmp15_35 = tt.load %tmp15_34, %tmp4_14, %cst_0 evictionPolicy = evict_last : tensor<512x!tt.ptr<bf16>> loc(#loc172)
    %tmp15_36 = arith.extf %tmp15_35 : tensor<512xbf16> to tensor<512xf32> loc(#loc173)
    %tmp17 = arith.subf %cst_4, %tmp15_36 : tensor<512xf32> loc(#loc266)
    %tmp17_37 = math.exp %tmp17 : tensor<512xf32> loc(#loc267)
    %tmp17_38 = arith.addf %tmp17_37, %cst : tensor<512xf32> loc(#loc268)
    %tmp17_39 = arith.divf %cst, %tmp17_38 : tensor<512xf32> loc(#loc269)
    %tmp18 = arith.mulf %tmp15_36, %tmp17_39 : tensor<512xf32> loc(#loc175)
    %tmp20 = tt.addptr %tmp10, %tmp15_33 : tensor<512x!tt.ptr<bf16>>, tensor<512xi32> loc(#loc176)
    %tmp20_40 = tt.load %tmp20, %tmp4_14, %cst_0 evictionPolicy = evict_last : tensor<512x!tt.ptr<bf16>> loc(#loc177)
    %tmp20_41 = arith.extf %tmp20_40 : tensor<512xbf16> to tensor<512xf32> loc(#loc178)
    %tmp21 = arith.mulf %tmp18, %tmp20_41 : tensor<512xf32> loc(#loc179)
    %tmp23 = tt.splat %in_ptr3 : !tt.ptr<f32> -> tensor<512x!tt.ptr<f32>> loc(#loc180)
    %tmp23_42 = tt.addptr %tmp23, %tmp13_28 : tensor<512x!tt.ptr<f32>>, tensor<512xi32> loc(#loc180)
    %tmp23_43 = tt.load %tmp23_42, %tmp4_14, %cst_4 evictionPolicy = evict_last : tensor<512x!tt.ptr<f32>> loc(#loc181)
    %tmp24 = arith.mulf %tmp21, %tmp23_43 : tensor<512xf32> loc(#loc182)
    %tmp25 = arith.subf %tmp14, %tmp24 : tensor<512xf32> loc(#loc183)
    %tmp28 = arith.cmpi sge, %tmp4, %cst_6 : tensor<512xi64> loc(#loc184)
    %tmp31 = arith.addi %x0, %cst_1 : tensor<512xi32> loc(#loc185)
    %tmp31_44 = arith.addi %tmp5_16, %tmp31 : tensor<512xi32> loc(#loc186)
    %tmp31_45 = tt.addptr %tmp5_18, %tmp31_44 : tensor<512x!tt.ptr<bf16>>, tensor<512xi32> loc(#loc187)
    %tmp31_46 = tt.load %tmp31_45, %tmp28, %cst_0 evictionPolicy = evict_last : tensor<512x!tt.ptr<bf16>> loc(#loc188)
    %tmp31_47 = arith.extf %tmp31_46 : tensor<512xbf16> to tensor<512xf32> loc(#loc189)
    %tmp33 = arith.subf %cst_4, %tmp31_47 : tensor<512xf32> loc(#loc270)
    %tmp33_48 = math.exp %tmp33 : tensor<512xf32> loc(#loc271)
    %tmp33_49 = arith.addf %tmp33_48, %cst : tensor<512xf32> loc(#loc272)
    %tmp33_50 = arith.divf %cst, %tmp33_49 : tensor<512xf32> loc(#loc273)
    %tmp34 = arith.mulf %tmp31_47, %tmp33_50 : tensor<512xf32> loc(#loc191)
    %tmp36 = tt.addptr %tmp10, %tmp31_44 : tensor<512x!tt.ptr<bf16>>, tensor<512xi32> loc(#loc192)
    %tmp36_51 = tt.load %tmp36, %tmp28, %cst_0 evictionPolicy = evict_last : tensor<512x!tt.ptr<bf16>> loc(#loc193)
    %tmp36_52 = arith.extf %tmp36_51 : tensor<512xbf16> to tensor<512xf32> loc(#loc194)
    %tmp37 = arith.mulf %tmp34, %tmp36_52 : tensor<512xf32> loc(#loc195)
    %tmp39 = arith.addi %tmp13, %tmp31 : tensor<512xi32> loc(#loc196)
    %tmp39_53 = tt.addptr %tmp23, %tmp39 : tensor<512x!tt.ptr<f32>>, tensor<512xi32> loc(#loc197)
    %tmp39_54 = tt.load %tmp39_53, %tmp28, %cst_4 evictionPolicy = evict_last : tensor<512x!tt.ptr<f32>> loc(#loc198)
    %tmp40 = arith.mulf %tmp37, %tmp39_54 : tensor<512xf32> loc(#loc199)
    %tmp41 = arith.addi %tmp15_32, %tmp31 : tensor<512xi32> loc(#loc200)
    %tmp41_55 = tt.addptr %tmp5_18, %tmp41 : tensor<512x!tt.ptr<bf16>>, tensor<512xi32> loc(#loc201)
    %tmp41_56 = tt.load %tmp41_55, %tmp28, %cst_0 evictionPolicy = evict_last : tensor<512x!tt.ptr<bf16>> loc(#loc202)
    %tmp41_57 = arith.extf %tmp41_56 : tensor<512xbf16> to tensor<512xf32> loc(#loc203)
    %tmp43 = arith.subf %cst_4, %tmp41_57 : tensor<512xf32> loc(#loc274)
    %tmp43_58 = math.exp %tmp43 : tensor<512xf32> loc(#loc275)
    %tmp43_59 = arith.addf %tmp43_58, %cst : tensor<512xf32> loc(#loc276)
    %tmp43_60 = arith.divf %cst, %tmp43_59 : tensor<512xf32> loc(#loc277)
    %tmp44 = arith.mulf %tmp41_57, %tmp43_60 : tensor<512xf32> loc(#loc205)
    %tmp46 = tt.addptr %tmp10, %tmp41 : tensor<512x!tt.ptr<bf16>>, tensor<512xi32> loc(#loc206)
    %tmp46_61 = tt.load %tmp46, %tmp28, %cst_0 evictionPolicy = evict_last : tensor<512x!tt.ptr<bf16>> loc(#loc207)
    %tmp46_62 = arith.extf %tmp46_61 : tensor<512xbf16> to tensor<512xf32> loc(#loc208)
    %tmp47 = arith.mulf %tmp44, %tmp46_62 : tensor<512xf32> loc(#loc209)
    %tmp49 = tt.addptr %tmp13_29, %tmp39 : tensor<512x!tt.ptr<f32>>, tensor<512xi32> loc(#loc210)
    %tmp49_63 = tt.load %tmp49, %tmp28, %cst_4 evictionPolicy = evict_last : tensor<512x!tt.ptr<f32>> loc(#loc211)
    %tmp50 = arith.mulf %tmp47, %tmp49_63 : tensor<512xf32> loc(#loc212)
    %tmp51 = arith.addf %tmp40, %tmp50 : tensor<512xf32> loc(#loc213)
    %tmp53 = arith.select %tmp28, %tmp51, %cst_4 : tensor<512xi1>, tensor<512xf32> loc(#loc214)
    %tmp54 = arith.select %tmp4_14, %tmp25, %tmp53 : tensor<512xi1>, tensor<512xf32> loc(#loc278)
    %tmp55 = tt.splat %in_ptr4 : !tt.ptr<bf16> -> tensor<512x!tt.ptr<bf16>> loc(#loc217)
    %tmp55_64 = tt.addptr %tmp55, %tmp5_17 : tensor<512x!tt.ptr<bf16>>, tensor<512xi32> loc(#loc217)
    %tmp55_65 = tt.load %tmp55_64, %tmp4_14, %cst_0 evictionPolicy = evict_last : tensor<512x!tt.ptr<bf16>> loc(#loc218)
    %tmp55_66 = arith.extf %tmp55_65 : tensor<512xbf16> to tensor<512xf32> loc(#loc219)
    %tmp57 = arith.subf %cst_4, %tmp55_66 : tensor<512xf32> loc(#loc279)
    %tmp57_67 = math.exp %tmp57 : tensor<512xf32> loc(#loc280)
    %tmp57_68 = arith.addf %tmp57_67, %cst : tensor<512xf32> loc(#loc281)
    %tmp57_69 = arith.divf %cst, %tmp57_68 : tensor<512xf32> loc(#loc282)
    %tmp58 = arith.mulf %tmp55_66, %tmp57_69 : tensor<512xf32> loc(#loc221)
    %tmp60 = tt.splat %in_ptr5 : !tt.ptr<bf16> -> tensor<512x!tt.ptr<bf16>> loc(#loc222)
    %tmp60_70 = tt.addptr %tmp60, %tmp5_17 : tensor<512x!tt.ptr<bf16>>, tensor<512xi32> loc(#loc222)
    %tmp60_71 = tt.load %tmp60_70, %tmp4_14, %cst_0 evictionPolicy = evict_last : tensor<512x!tt.ptr<bf16>> loc(#loc223)
    %tmp60_72 = arith.extf %tmp60_71 : tensor<512xbf16> to tensor<512xf32> loc(#loc224)
    %tmp61 = arith.mulf %tmp58, %tmp60_72 : tensor<512xf32> loc(#loc225)
    %tmp63 = arith.mulf %tmp61, %tmp13_31 : tensor<512xf32> loc(#loc226)
    %tmp64 = tt.addptr %tmp55, %tmp15_33 : tensor<512x!tt.ptr<bf16>>, tensor<512xi32> loc(#loc227)
    %tmp64_73 = tt.load %tmp64, %tmp4_14, %cst_0 evictionPolicy = evict_last : tensor<512x!tt.ptr<bf16>> loc(#loc228)
    %tmp64_74 = arith.extf %tmp64_73 : tensor<512xbf16> to tensor<512xf32> loc(#loc229)
    %tmp66 = arith.subf %cst_4, %tmp64_74 : tensor<512xf32> loc(#loc283)
    %tmp66_75 = math.exp %tmp66 : tensor<512xf32> loc(#loc284)
    %tmp66_76 = arith.addf %tmp66_75, %cst : tensor<512xf32> loc(#loc285)
    %tmp66_77 = arith.divf %cst, %tmp66_76 : tensor<512xf32> loc(#loc286)
    %tmp67 = arith.mulf %tmp64_74, %tmp66_77 : tensor<512xf32> loc(#loc231)
    %tmp69 = tt.addptr %tmp60, %tmp15_33 : tensor<512x!tt.ptr<bf16>>, tensor<512xi32> loc(#loc232)
    %tmp69_78 = tt.load %tmp69, %tmp4_14, %cst_0 evictionPolicy = evict_last : tensor<512x!tt.ptr<bf16>> loc(#loc233)
    %tmp69_79 = arith.extf %tmp69_78 : tensor<512xbf16> to tensor<512xf32> loc(#loc234)
    %tmp70 = arith.mulf %tmp67, %tmp69_79 : tensor<512xf32> loc(#loc235)
    %tmp72 = arith.mulf %tmp70, %tmp23_43 : tensor<512xf32> loc(#loc236)
    %tmp73 = arith.subf %tmp63, %tmp72 : tensor<512xf32> loc(#loc237)
    %tmp76 = tt.addptr %tmp55, %tmp31_44 : tensor<512x!tt.ptr<bf16>>, tensor<512xi32> loc(#loc238)
    %tmp76_80 = tt.load %tmp76, %tmp28, %cst_0 evictionPolicy = evict_last : tensor<512x!tt.ptr<bf16>> loc(#loc239)
    %tmp76_81 = arith.extf %tmp76_80 : tensor<512xbf16> to tensor<512xf32> loc(#loc240)
    %tmp78 = arith.subf %cst_4, %tmp76_81 : tensor<512xf32> loc(#loc287)
    %tmp78_82 = math.exp %tmp78 : tensor<512xf32> loc(#loc288)
    %tmp78_83 = arith.addf %tmp78_82, %cst : tensor<512xf32> loc(#loc289)
    %tmp78_84 = arith.divf %cst, %tmp78_83 : tensor<512xf32> loc(#loc290)
    %tmp79 = arith.mulf %tmp76_81, %tmp78_84 : tensor<512xf32> loc(#loc242)
    %tmp81 = tt.addptr %tmp60, %tmp31_44 : tensor<512x!tt.ptr<bf16>>, tensor<512xi32> loc(#loc243)
    %tmp81_85 = tt.load %tmp81, %tmp28, %cst_0 evictionPolicy = evict_last : tensor<512x!tt.ptr<bf16>> loc(#loc244)
    %tmp81_86 = arith.extf %tmp81_85 : tensor<512xbf16> to tensor<512xf32> loc(#loc245)
    %tmp82 = arith.mulf %tmp79, %tmp81_86 : tensor<512xf32> loc(#loc246)
    %tmp84 = arith.mulf %tmp82, %tmp39_54 : tensor<512xf32> loc(#loc247)
    %tmp85 = tt.addptr %tmp55, %tmp41 : tensor<512x!tt.ptr<bf16>>, tensor<512xi32> loc(#loc248)
    %tmp85_87 = tt.load %tmp85, %tmp28, %cst_0 evictionPolicy = evict_last : tensor<512x!tt.ptr<bf16>> loc(#loc249)
    %tmp85_88 = arith.extf %tmp85_87 : tensor<512xbf16> to tensor<512xf32> loc(#loc250)
    %tmp87 = arith.subf %cst_4, %tmp85_88 : tensor<512xf32> loc(#loc291)
    %tmp87_89 = math.exp %tmp87 : tensor<512xf32> loc(#loc292)
    %tmp87_90 = arith.addf %tmp87_89, %cst : tensor<512xf32> loc(#loc293)
    %tmp87_91 = arith.divf %cst, %tmp87_90 : tensor<512xf32> loc(#loc294)
    %tmp88 = arith.mulf %tmp85_88, %tmp87_91 : tensor<512xf32> loc(#loc252)
    %tmp90 = tt.addptr %tmp60, %tmp41 : tensor<512x!tt.ptr<bf16>>, tensor<512xi32> loc(#loc253)
    %tmp90_92 = tt.load %tmp90, %tmp28, %cst_0 evictionPolicy = evict_last : tensor<512x!tt.ptr<bf16>> loc(#loc254)
    %tmp90_93 = arith.extf %tmp90_92 : tensor<512xbf16> to tensor<512xf32> loc(#loc255)
    %tmp91 = arith.mulf %tmp88, %tmp90_93 : tensor<512xf32> loc(#loc256)
    %tmp93 = arith.mulf %tmp91, %tmp49_63 : tensor<512xf32> loc(#loc257)
    %tmp94 = arith.addf %tmp84, %tmp93 : tensor<512xf32> loc(#loc258)
    %tmp96 = arith.select %tmp28, %tmp94, %cst_4 : tensor<512xi1>, tensor<512xf32> loc(#loc259)
    %tmp97 = arith.select %tmp4_14, %tmp73, %tmp96 : tensor<512xi1>, tensor<512xf32> loc(#loc295)
    %0 = tt.splat %out_ptr0 : !tt.ptr<f32> -> tensor<512x!tt.ptr<f32>> loc(#loc127)
    %1 = tt.addptr %0, %xindex_10 : tensor<512x!tt.ptr<f32>>, tensor<512xi32> loc(#loc127)
    tt.store %1, %tmp54 : tensor<512x!tt.ptr<f32>> loc(#loc128)
    %2 = tt.splat %out_ptr1 : !tt.ptr<f32> -> tensor<512x!tt.ptr<f32>> loc(#loc129)
    %3 = tt.addptr %2, %xindex_10 : tensor<512x!tt.ptr<f32>>, tensor<512xi32> loc(#loc129)
    tt.store %3, %tmp97 : tensor<512x!tt.ptr<f32>> loc(#loc130)
    tt.return loc(#loc131)
  } loc(#loc)
} loc(#loc)
#loc1 = loc(unknown)
#loc2 = loc("/NHNHOME/WORKSPACE/26msit001_A/jinhyeok/TTT_camera_embedding/lact_llm/.cache_inductor/hv/chvei5pphgs2nlzco3cqmio65mvyutdmcjqmxalpvjkcviycfnh5.py":25:19)
#loc3 = loc("/NHNHOME/WORKSPACE/26msit001_A/jinhyeok/TTT_camera_embedding/lact_llm/.cache_inductor/hv/chvei5pphgs2nlzco3cqmio65mvyutdmcjqmxalpvjkcviycfnh5.py":24:29)
#loc4 = loc("/NHNHOME/WORKSPACE/26msit001_A/jinhyeok/TTT_camera_embedding/lact_llm/.cache_inductor/hv/chvei5pphgs2nlzco3cqmio65mvyutdmcjqmxalpvjkcviycfnh5.py":20:28)
#loc5 = loc("/NHNHOME/WORKSPACE/26msit001_A/jinhyeok/TTT_camera_embedding/lact_llm/.cache_inductor/hv/chvei5pphgs2nlzco3cqmio65mvyutdmcjqmxalpvjkcviycfnh5.py":20:33)
#loc6 = loc("/NHNHOME/WORKSPACE/26msit001_A/jinhyeok/TTT_camera_embedding/lact_llm/.cache_inductor/hv/chvei5pphgs2nlzco3cqmio65mvyutdmcjqmxalpvjkcviycfnh5.py":21:36)
#loc7 = loc("/NHNHOME/WORKSPACE/26msit001_A/jinhyeok/TTT_camera_embedding/lact_llm/.cache_inductor/hv/chvei5pphgs2nlzco3cqmio65mvyutdmcjqmxalpvjkcviycfnh5.py":21:23)
#loc8 = loc("/NHNHOME/WORKSPACE/26msit001_A/jinhyeok/TTT_camera_embedding/lact_llm/.cache_inductor/hv/chvei5pphgs2nlzco3cqmio65mvyutdmcjqmxalpvjkcviycfnh5.py":23:19)
#loc9 = loc("/NHNHOME/WORKSPACE/26msit001_A/jinhyeok/TTT_camera_embedding/lact_llm/.cache_inductor/hv/chvei5pphgs2nlzco3cqmio65mvyutdmcjqmxalpvjkcviycfnh5.py":24:21)
#loc10 = loc("/NHNHOME/WORKSPACE/26msit001_A/jinhyeok/TTT_camera_embedding/lact_llm/.cache_inductor/hv/chvei5pphgs2nlzco3cqmio65mvyutdmcjqmxalpvjkcviycfnh5.py":31:18)
#loc11 = loc("/NHNHOME/WORKSPACE/26msit001_A/jinhyeok/TTT_camera_embedding/lact_llm/.cache_inductor/hv/chvei5pphgs2nlzco3cqmio65mvyutdmcjqmxalpvjkcviycfnh5.py":32:35)
#loc12 = loc("/NHNHOME/WORKSPACE/26msit001_A/jinhyeok/TTT_camera_embedding/lact_llm/.cache_inductor/hv/chvei5pphgs2nlzco3cqmio65mvyutdmcjqmxalpvjkcviycfnh5.py":32:47)
#loc13 = loc("/NHNHOME/WORKSPACE/26msit001_A/jinhyeok/TTT_camera_embedding/lact_llm/.cache_inductor/hv/chvei5pphgs2nlzco3cqmio65mvyutdmcjqmxalpvjkcviycfnh5.py":32:40)
#loc14 = loc("/NHNHOME/WORKSPACE/26msit001_A/jinhyeok/TTT_camera_embedding/lact_llm/.cache_inductor/hv/chvei5pphgs2nlzco3cqmio65mvyutdmcjqmxalpvjkcviycfnh5.py":32:53)
#loc15 = loc("/NHNHOME/WORKSPACE/26msit001_A/jinhyeok/TTT_camera_embedding/lact_llm/.cache_inductor/hv/chvei5pphgs2nlzco3cqmio65mvyutdmcjqmxalpvjkcviycfnh5.py":32:30)
#loc16 = loc("/NHNHOME/WORKSPACE/26msit001_A/jinhyeok/TTT_camera_embedding/lact_llm/.cache_inductor/hv/chvei5pphgs2nlzco3cqmio65mvyutdmcjqmxalpvjkcviycfnh5.py":32:59)
#loc17 = loc("/NHNHOME/WORKSPACE/26msit001_A/jinhyeok/TTT_camera_embedding/lact_llm/.cache_inductor/hv/chvei5pphgs2nlzco3cqmio65mvyutdmcjqmxalpvjkcviycfnh5.py":32:109)
#loc18 = loc("/NHNHOME/WORKSPACE/26msit001_A/jinhyeok/TTT_camera_embedding/.venv_llm/lib/python3.12/site-packages/triton/language/standard.py":48:30)
#loc19 = loc("/NHNHOME/WORKSPACE/26msit001_A/jinhyeok/TTT_camera_embedding/lact_llm/.cache_inductor/hv/chvei5pphgs2nlzco3cqmio65mvyutdmcjqmxalpvjkcviycfnh5.py":34:22)
#loc20 = loc("/NHNHOME/WORKSPACE/26msit001_A/jinhyeok/TTT_camera_embedding/.venv_llm/lib/python3.12/site-packages/triton/language/standard.py":48:29)
#loc21 = loc("/NHNHOME/WORKSPACE/26msit001_A/jinhyeok/TTT_camera_embedding/.venv_llm/lib/python3.12/site-packages/triton/language/standard.py":48:20)
#loc22 = loc("/NHNHOME/WORKSPACE/26msit001_A/jinhyeok/TTT_camera_embedding/.venv_llm/lib/python3.12/site-packages/triton/language/standard.py":48:16)
#loc23 = loc("/NHNHOME/WORKSPACE/26msit001_A/jinhyeok/TTT_camera_embedding/lact_llm/.cache_inductor/hv/chvei5pphgs2nlzco3cqmio65mvyutdmcjqmxalpvjkcviycfnh5.py":35:18)
#loc24 = loc("/NHNHOME/WORKSPACE/26msit001_A/jinhyeok/TTT_camera_embedding/lact_llm/.cache_inductor/hv/chvei5pphgs2nlzco3cqmio65mvyutdmcjqmxalpvjkcviycfnh5.py":37:31)
#loc25 = loc("/NHNHOME/WORKSPACE/26msit001_A/jinhyeok/TTT_camera_embedding/lact_llm/.cache_inductor/hv/chvei5pphgs2nlzco3cqmio65mvyutdmcjqmxalpvjkcviycfnh5.py":37:60)
#loc26 = loc("/NHNHOME/WORKSPACE/26msit001_A/jinhyeok/TTT_camera_embedding/lact_llm/.cache_inductor/hv/chvei5pphgs2nlzco3cqmio65mvyutdmcjqmxalpvjkcviycfnh5.py":37:110)
#loc27 = loc("/NHNHOME/WORKSPACE/26msit001_A/jinhyeok/TTT_camera_embedding/lact_llm/.cache_inductor/hv/chvei5pphgs2nlzco3cqmio65mvyutdmcjqmxalpvjkcviycfnh5.py":38:19)
#loc28 = loc("/NHNHOME/WORKSPACE/26msit001_A/jinhyeok/TTT_camera_embedding/lact_llm/.cache_inductor/hv/chvei5pphgs2nlzco3cqmio65mvyutdmcjqmxalpvjkcviycfnh5.py":40:36)
#loc29 = loc("/NHNHOME/WORKSPACE/26msit001_A/jinhyeok/TTT_camera_embedding/lact_llm/.cache_inductor/hv/chvei5pphgs2nlzco3cqmio65mvyutdmcjqmxalpvjkcviycfnh5.py":40:42)
#loc30 = loc("/NHNHOME/WORKSPACE/26msit001_A/jinhyeok/TTT_camera_embedding/lact_llm/.cache_inductor/hv/chvei5pphgs2nlzco3cqmio65mvyutdmcjqmxalpvjkcviycfnh5.py":40:31)
#loc31 = loc("/NHNHOME/WORKSPACE/26msit001_A/jinhyeok/TTT_camera_embedding/lact_llm/.cache_inductor/hv/chvei5pphgs2nlzco3cqmio65mvyutdmcjqmxalpvjkcviycfnh5.py":40:48)
#loc32 = loc("/NHNHOME/WORKSPACE/26msit001_A/jinhyeok/TTT_camera_embedding/lact_llm/.cache_inductor/hv/chvei5pphgs2nlzco3cqmio65mvyutdmcjqmxalpvjkcviycfnh5.py":41:20)
#loc33 = loc("/NHNHOME/WORKSPACE/26msit001_A/jinhyeok/TTT_camera_embedding/lact_llm/.cache_inductor/hv/chvei5pphgs2nlzco3cqmio65mvyutdmcjqmxalpvjkcviycfnh5.py":42:38)
#loc34 = loc("/NHNHOME/WORKSPACE/26msit001_A/jinhyeok/TTT_camera_embedding/lact_llm/.cache_inductor/hv/chvei5pphgs2nlzco3cqmio65mvyutdmcjqmxalpvjkcviycfnh5.py":42:48)
#loc35 = loc("/NHNHOME/WORKSPACE/26msit001_A/jinhyeok/TTT_camera_embedding/lact_llm/.cache_inductor/hv/chvei5pphgs2nlzco3cqmio65mvyutdmcjqmxalpvjkcviycfnh5.py":42:61)
#loc36 = loc("/NHNHOME/WORKSPACE/26msit001_A/jinhyeok/TTT_camera_embedding/lact_llm/.cache_inductor/hv/chvei5pphgs2nlzco3cqmio65mvyutdmcjqmxalpvjkcviycfnh5.py":42:31)
#loc37 = loc("/NHNHOME/WORKSPACE/26msit001_A/jinhyeok/TTT_camera_embedding/lact_llm/.cache_inductor/hv/chvei5pphgs2nlzco3cqmio65mvyutdmcjqmxalpvjkcviycfnh5.py":42:67)
#loc38 = loc("/NHNHOME/WORKSPACE/26msit001_A/jinhyeok/TTT_camera_embedding/lact_llm/.cache_inductor/hv/chvei5pphgs2nlzco3cqmio65mvyutdmcjqmxalpvjkcviycfnh5.py":42:117)
#loc39 = loc("/NHNHOME/WORKSPACE/26msit001_A/jinhyeok/TTT_camera_embedding/lact_llm/.cache_inductor/hv/chvei5pphgs2nlzco3cqmio65mvyutdmcjqmxalpvjkcviycfnh5.py":44:23)
#loc40 = loc("/NHNHOME/WORKSPACE/26msit001_A/jinhyeok/TTT_camera_embedding/lact_llm/.cache_inductor/hv/chvei5pphgs2nlzco3cqmio65mvyutdmcjqmxalpvjkcviycfnh5.py":45:20)
#loc41 = loc("/NHNHOME/WORKSPACE/26msit001_A/jinhyeok/TTT_camera_embedding/lact_llm/.cache_inductor/hv/chvei5pphgs2nlzco3cqmio65mvyutdmcjqmxalpvjkcviycfnh5.py":47:31)
#loc42 = loc("/NHNHOME/WORKSPACE/26msit001_A/jinhyeok/TTT_camera_embedding/lact_llm/.cache_inductor/hv/chvei5pphgs2nlzco3cqmio65mvyutdmcjqmxalpvjkcviycfnh5.py":47:67)
#loc43 = loc("/NHNHOME/WORKSPACE/26msit001_A/jinhyeok/TTT_camera_embedding/lact_llm/.cache_inductor/hv/chvei5pphgs2nlzco3cqmio65mvyutdmcjqmxalpvjkcviycfnh5.py":47:117)
#loc44 = loc("/NHNHOME/WORKSPACE/26msit001_A/jinhyeok/TTT_camera_embedding/lact_llm/.cache_inductor/hv/chvei5pphgs2nlzco3cqmio65mvyutdmcjqmxalpvjkcviycfnh5.py":48:20)
#loc45 = loc("/NHNHOME/WORKSPACE/26msit001_A/jinhyeok/TTT_camera_embedding/lact_llm/.cache_inductor/hv/chvei5pphgs2nlzco3cqmio65mvyutdmcjqmxalpvjkcviycfnh5.py":50:31)
#loc46 = loc("/NHNHOME/WORKSPACE/26msit001_A/jinhyeok/TTT_camera_embedding/lact_llm/.cache_inductor/hv/chvei5pphgs2nlzco3cqmio65mvyutdmcjqmxalpvjkcviycfnh5.py":50:48)
#loc47 = loc("/NHNHOME/WORKSPACE/26msit001_A/jinhyeok/TTT_camera_embedding/lact_llm/.cache_inductor/hv/chvei5pphgs2nlzco3cqmio65mvyutdmcjqmxalpvjkcviycfnh5.py":51:20)
#loc48 = loc("/NHNHOME/WORKSPACE/26msit001_A/jinhyeok/TTT_camera_embedding/lact_llm/.cache_inductor/hv/chvei5pphgs2nlzco3cqmio65mvyutdmcjqmxalpvjkcviycfnh5.py":52:20)
#loc49 = loc("/NHNHOME/WORKSPACE/26msit001_A/jinhyeok/TTT_camera_embedding/lact_llm/.cache_inductor/hv/chvei5pphgs2nlzco3cqmio65mvyutdmcjqmxalpvjkcviycfnh5.py":55:20)
#loc50 = loc("/NHNHOME/WORKSPACE/26msit001_A/jinhyeok/TTT_camera_embedding/lact_llm/.cache_inductor/hv/chvei5pphgs2nlzco3cqmio65mvyutdmcjqmxalpvjkcviycfnh5.py":58:64)
#loc51 = loc("/NHNHOME/WORKSPACE/26msit001_A/jinhyeok/TTT_camera_embedding/lact_llm/.cache_inductor/hv/chvei5pphgs2nlzco3cqmio65mvyutdmcjqmxalpvjkcviycfnh5.py":58:54)
#loc52 = loc("/NHNHOME/WORKSPACE/26msit001_A/jinhyeok/TTT_camera_embedding/lact_llm/.cache_inductor/hv/chvei5pphgs2nlzco3cqmio65mvyutdmcjqmxalpvjkcviycfnh5.py":58:31)
#loc53 = loc("/NHNHOME/WORKSPACE/26msit001_A/jinhyeok/TTT_camera_embedding/lact_llm/.cache_inductor/hv/chvei5pphgs2nlzco3cqmio65mvyutdmcjqmxalpvjkcviycfnh5.py":58:70)
#loc54 = loc("/NHNHOME/WORKSPACE/26msit001_A/jinhyeok/TTT_camera_embedding/lact_llm/.cache_inductor/hv/chvei5pphgs2nlzco3cqmio65mvyutdmcjqmxalpvjkcviycfnh5.py":58:121)
#loc55 = loc("/NHNHOME/WORKSPACE/26msit001_A/jinhyeok/TTT_camera_embedding/lact_llm/.cache_inductor/hv/chvei5pphgs2nlzco3cqmio65mvyutdmcjqmxalpvjkcviycfnh5.py":60:23)
#loc56 = loc("/NHNHOME/WORKSPACE/26msit001_A/jinhyeok/TTT_camera_embedding/lact_llm/.cache_inductor/hv/chvei5pphgs2nlzco3cqmio65mvyutdmcjqmxalpvjkcviycfnh5.py":61:20)
#loc57 = loc("/NHNHOME/WORKSPACE/26msit001_A/jinhyeok/TTT_camera_embedding/lact_llm/.cache_inductor/hv/chvei5pphgs2nlzco3cqmio65mvyutdmcjqmxalpvjkcviycfnh5.py":63:31)
#loc58 = loc("/NHNHOME/WORKSPACE/26msit001_A/jinhyeok/TTT_camera_embedding/lact_llm/.cache_inductor/hv/chvei5pphgs2nlzco3cqmio65mvyutdmcjqmxalpvjkcviycfnh5.py":63:70)
#loc59 = loc("/NHNHOME/WORKSPACE/26msit001_A/jinhyeok/TTT_camera_embedding/lact_llm/.cache_inductor/hv/chvei5pphgs2nlzco3cqmio65mvyutdmcjqmxalpvjkcviycfnh5.py":63:121)
#loc60 = loc("/NHNHOME/WORKSPACE/26msit001_A/jinhyeok/TTT_camera_embedding/lact_llm/.cache_inductor/hv/chvei5pphgs2nlzco3cqmio65mvyutdmcjqmxalpvjkcviycfnh5.py":64:20)
#loc61 = loc("/NHNHOME/WORKSPACE/26msit001_A/jinhyeok/TTT_camera_embedding/lact_llm/.cache_inductor/hv/chvei5pphgs2nlzco3cqmio65mvyutdmcjqmxalpvjkcviycfnh5.py":66:42)
#loc62 = loc("/NHNHOME/WORKSPACE/26msit001_A/jinhyeok/TTT_camera_embedding/lact_llm/.cache_inductor/hv/chvei5pphgs2nlzco3cqmio65mvyutdmcjqmxalpvjkcviycfnh5.py":66:31)
#loc63 = loc("/NHNHOME/WORKSPACE/26msit001_A/jinhyeok/TTT_camera_embedding/lact_llm/.cache_inductor/hv/chvei5pphgs2nlzco3cqmio65mvyutdmcjqmxalpvjkcviycfnh5.py":66:58)
#loc64 = loc("/NHNHOME/WORKSPACE/26msit001_A/jinhyeok/TTT_camera_embedding/lact_llm/.cache_inductor/hv/chvei5pphgs2nlzco3cqmio65mvyutdmcjqmxalpvjkcviycfnh5.py":67:20)
#loc65 = loc("/NHNHOME/WORKSPACE/26msit001_A/jinhyeok/TTT_camera_embedding/lact_llm/.cache_inductor/hv/chvei5pphgs2nlzco3cqmio65mvyutdmcjqmxalpvjkcviycfnh5.py":68:61)
#loc66 = loc("/NHNHOME/WORKSPACE/26msit001_A/jinhyeok/TTT_camera_embedding/lact_llm/.cache_inductor/hv/chvei5pphgs2nlzco3cqmio65mvyutdmcjqmxalpvjkcviycfnh5.py":68:31)
#loc67 = loc("/NHNHOME/WORKSPACE/26msit001_A/jinhyeok/TTT_camera_embedding/lact_llm/.cache_inductor/hv/chvei5pphgs2nlzco3cqmio65mvyutdmcjqmxalpvjkcviycfnh5.py":68:77)
#loc68 = loc("/NHNHOME/WORKSPACE/26msit001_A/jinhyeok/TTT_camera_embedding/lact_llm/.cache_inductor/hv/chvei5pphgs2nlzco3cqmio65mvyutdmcjqmxalpvjkcviycfnh5.py":68:128)
#loc69 = loc("/NHNHOME/WORKSPACE/26msit001_A/jinhyeok/TTT_camera_embedding/lact_llm/.cache_inductor/hv/chvei5pphgs2nlzco3cqmio65mvyutdmcjqmxalpvjkcviycfnh5.py":70:23)
#loc70 = loc("/NHNHOME/WORKSPACE/26msit001_A/jinhyeok/TTT_camera_embedding/lact_llm/.cache_inductor/hv/chvei5pphgs2nlzco3cqmio65mvyutdmcjqmxalpvjkcviycfnh5.py":71:20)
#loc71 = loc("/NHNHOME/WORKSPACE/26msit001_A/jinhyeok/TTT_camera_embedding/lact_llm/.cache_inductor/hv/chvei5pphgs2nlzco3cqmio65mvyutdmcjqmxalpvjkcviycfnh5.py":73:31)
#loc72 = loc("/NHNHOME/WORKSPACE/26msit001_A/jinhyeok/TTT_camera_embedding/lact_llm/.cache_inductor/hv/chvei5pphgs2nlzco3cqmio65mvyutdmcjqmxalpvjkcviycfnh5.py":73:77)
#loc73 = loc("/NHNHOME/WORKSPACE/26msit001_A/jinhyeok/TTT_camera_embedding/lact_llm/.cache_inductor/hv/chvei5pphgs2nlzco3cqmio65mvyutdmcjqmxalpvjkcviycfnh5.py":73:128)
#loc74 = loc("/NHNHOME/WORKSPACE/26msit001_A/jinhyeok/TTT_camera_embedding/lact_llm/.cache_inductor/hv/chvei5pphgs2nlzco3cqmio65mvyutdmcjqmxalpvjkcviycfnh5.py":74:20)
#loc75 = loc("/NHNHOME/WORKSPACE/26msit001_A/jinhyeok/TTT_camera_embedding/lact_llm/.cache_inductor/hv/chvei5pphgs2nlzco3cqmio65mvyutdmcjqmxalpvjkcviycfnh5.py":76:31)
#loc76 = loc("/NHNHOME/WORKSPACE/26msit001_A/jinhyeok/TTT_camera_embedding/lact_llm/.cache_inductor/hv/chvei5pphgs2nlzco3cqmio65mvyutdmcjqmxalpvjkcviycfnh5.py":76:58)
#loc77 = loc("/NHNHOME/WORKSPACE/26msit001_A/jinhyeok/TTT_camera_embedding/lact_llm/.cache_inductor/hv/chvei5pphgs2nlzco3cqmio65mvyutdmcjqmxalpvjkcviycfnh5.py":77:20)
#loc78 = loc("/NHNHOME/WORKSPACE/26msit001_A/jinhyeok/TTT_camera_embedding/lact_llm/.cache_inductor/hv/chvei5pphgs2nlzco3cqmio65mvyutdmcjqmxalpvjkcviycfnh5.py":78:20)
#loc79 = loc("/NHNHOME/WORKSPACE/26msit001_A/jinhyeok/TTT_camera_embedding/lact_llm/.cache_inductor/hv/chvei5pphgs2nlzco3cqmio65mvyutdmcjqmxalpvjkcviycfnh5.py":80:35)
#loc80 = loc("/NHNHOME/WORKSPACE/26msit001_A/jinhyeok/TTT_camera_embedding/lact_llm/.cache_inductor/hv/chvei5pphgs2nlzco3cqmio65mvyutdmcjqmxalpvjkcviycfnh5.py":81:34)
#loc81 = loc("/NHNHOME/WORKSPACE/26msit001_A/jinhyeok/TTT_camera_embedding/lact_llm/.cache_inductor/hv/chvei5pphgs2nlzco3cqmio65mvyutdmcjqmxalpvjkcviycfnh5.py":54:34)
#loc82 = loc("/NHNHOME/WORKSPACE/26msit001_A/jinhyeok/TTT_camera_embedding/lact_llm/.cache_inductor/hv/chvei5pphgs2nlzco3cqmio65mvyutdmcjqmxalpvjkcviycfnh5.py":82:31)
#loc83 = loc("/NHNHOME/WORKSPACE/26msit001_A/jinhyeok/TTT_camera_embedding/lact_llm/.cache_inductor/hv/chvei5pphgs2nlzco3cqmio65mvyutdmcjqmxalpvjkcviycfnh5.py":82:60)
#loc84 = loc("/NHNHOME/WORKSPACE/26msit001_A/jinhyeok/TTT_camera_embedding/lact_llm/.cache_inductor/hv/chvei5pphgs2nlzco3cqmio65mvyutdmcjqmxalpvjkcviycfnh5.py":82:110)
#loc85 = loc("/NHNHOME/WORKSPACE/26msit001_A/jinhyeok/TTT_camera_embedding/lact_llm/.cache_inductor/hv/chvei5pphgs2nlzco3cqmio65mvyutdmcjqmxalpvjkcviycfnh5.py":84:23)
#loc86 = loc("/NHNHOME/WORKSPACE/26msit001_A/jinhyeok/TTT_camera_embedding/lact_llm/.cache_inductor/hv/chvei5pphgs2nlzco3cqmio65mvyutdmcjqmxalpvjkcviycfnh5.py":85:20)
#loc87 = loc("/NHNHOME/WORKSPACE/26msit001_A/jinhyeok/TTT_camera_embedding/lact_llm/.cache_inductor/hv/chvei5pphgs2nlzco3cqmio65mvyutdmcjqmxalpvjkcviycfnh5.py":87:31)
#loc88 = loc("/NHNHOME/WORKSPACE/26msit001_A/jinhyeok/TTT_camera_embedding/lact_llm/.cache_inductor/hv/chvei5pphgs2nlzco3cqmio65mvyutdmcjqmxalpvjkcviycfnh5.py":87:60)
#loc89 = loc("/NHNHOME/WORKSPACE/26msit001_A/jinhyeok/TTT_camera_embedding/lact_llm/.cache_inductor/hv/chvei5pphgs2nlzco3cqmio65mvyutdmcjqmxalpvjkcviycfnh5.py":87:110)
#loc90 = loc("/NHNHOME/WORKSPACE/26msit001_A/jinhyeok/TTT_camera_embedding/lact_llm/.cache_inductor/hv/chvei5pphgs2nlzco3cqmio65mvyutdmcjqmxalpvjkcviycfnh5.py":88:20)
#loc91 = loc("/NHNHOME/WORKSPACE/26msit001_A/jinhyeok/TTT_camera_embedding/lact_llm/.cache_inductor/hv/chvei5pphgs2nlzco3cqmio65mvyutdmcjqmxalpvjkcviycfnh5.py":90:20)
#loc92 = loc("/NHNHOME/WORKSPACE/26msit001_A/jinhyeok/TTT_camera_embedding/lact_llm/.cache_inductor/hv/chvei5pphgs2nlzco3cqmio65mvyutdmcjqmxalpvjkcviycfnh5.py":91:31)
#loc93 = loc("/NHNHOME/WORKSPACE/26msit001_A/jinhyeok/TTT_camera_embedding/lact_llm/.cache_inductor/hv/chvei5pphgs2nlzco3cqmio65mvyutdmcjqmxalpvjkcviycfnh5.py":91:67)
#loc94 = loc("/NHNHOME/WORKSPACE/26msit001_A/jinhyeok/TTT_camera_embedding/lact_llm/.cache_inductor/hv/chvei5pphgs2nlzco3cqmio65mvyutdmcjqmxalpvjkcviycfnh5.py":91:117)
#loc95 = loc("/NHNHOME/WORKSPACE/26msit001_A/jinhyeok/TTT_camera_embedding/lact_llm/.cache_inductor/hv/chvei5pphgs2nlzco3cqmio65mvyutdmcjqmxalpvjkcviycfnh5.py":93:23)
#loc96 = loc("/NHNHOME/WORKSPACE/26msit001_A/jinhyeok/TTT_camera_embedding/lact_llm/.cache_inductor/hv/chvei5pphgs2nlzco3cqmio65mvyutdmcjqmxalpvjkcviycfnh5.py":94:20)
#loc97 = loc("/NHNHOME/WORKSPACE/26msit001_A/jinhyeok/TTT_camera_embedding/lact_llm/.cache_inductor/hv/chvei5pphgs2nlzco3cqmio65mvyutdmcjqmxalpvjkcviycfnh5.py":96:31)
#loc98 = loc("/NHNHOME/WORKSPACE/26msit001_A/jinhyeok/TTT_camera_embedding/lact_llm/.cache_inductor/hv/chvei5pphgs2nlzco3cqmio65mvyutdmcjqmxalpvjkcviycfnh5.py":96:67)
#loc99 = loc("/NHNHOME/WORKSPACE/26msit001_A/jinhyeok/TTT_camera_embedding/lact_llm/.cache_inductor/hv/chvei5pphgs2nlzco3cqmio65mvyutdmcjqmxalpvjkcviycfnh5.py":96:117)
#loc100 = loc("/NHNHOME/WORKSPACE/26msit001_A/jinhyeok/TTT_camera_embedding/lact_llm/.cache_inductor/hv/chvei5pphgs2nlzco3cqmio65mvyutdmcjqmxalpvjkcviycfnh5.py":97:20)
#loc101 = loc("/NHNHOME/WORKSPACE/26msit001_A/jinhyeok/TTT_camera_embedding/lact_llm/.cache_inductor/hv/chvei5pphgs2nlzco3cqmio65mvyutdmcjqmxalpvjkcviycfnh5.py":99:20)
#loc102 = loc("/NHNHOME/WORKSPACE/26msit001_A/jinhyeok/TTT_camera_embedding/lact_llm/.cache_inductor/hv/chvei5pphgs2nlzco3cqmio65mvyutdmcjqmxalpvjkcviycfnh5.py":100:20)
#loc103 = loc("/NHNHOME/WORKSPACE/26msit001_A/jinhyeok/TTT_camera_embedding/lact_llm/.cache_inductor/hv/chvei5pphgs2nlzco3cqmio65mvyutdmcjqmxalpvjkcviycfnh5.py":103:31)
#loc104 = loc("/NHNHOME/WORKSPACE/26msit001_A/jinhyeok/TTT_camera_embedding/lact_llm/.cache_inductor/hv/chvei5pphgs2nlzco3cqmio65mvyutdmcjqmxalpvjkcviycfnh5.py":103:70)
#loc105 = loc("/NHNHOME/WORKSPACE/26msit001_A/jinhyeok/TTT_camera_embedding/lact_llm/.cache_inductor/hv/chvei5pphgs2nlzco3cqmio65mvyutdmcjqmxalpvjkcviycfnh5.py":103:121)
#loc106 = loc("/NHNHOME/WORKSPACE/26msit001_A/jinhyeok/TTT_camera_embedding/lact_llm/.cache_inductor/hv/chvei5pphgs2nlzco3cqmio65mvyutdmcjqmxalpvjkcviycfnh5.py":105:23)
#loc107 = loc("/NHNHOME/WORKSPACE/26msit001_A/jinhyeok/TTT_camera_embedding/lact_llm/.cache_inductor/hv/chvei5pphgs2nlzco3cqmio65mvyutdmcjqmxalpvjkcviycfnh5.py":106:20)
#loc108 = loc("/NHNHOME/WORKSPACE/26msit001_A/jinhyeok/TTT_camera_embedding/lact_llm/.cache_inductor/hv/chvei5pphgs2nlzco3cqmio65mvyutdmcjqmxalpvjkcviycfnh5.py":108:31)
#loc109 = loc("/NHNHOME/WORKSPACE/26msit001_A/jinhyeok/TTT_camera_embedding/lact_llm/.cache_inductor/hv/chvei5pphgs2nlzco3cqmio65mvyutdmcjqmxalpvjkcviycfnh5.py":108:70)
#loc110 = loc("/NHNHOME/WORKSPACE/26msit001_A/jinhyeok/TTT_camera_embedding/lact_llm/.cache_inductor/hv/chvei5pphgs2nlzco3cqmio65mvyutdmcjqmxalpvjkcviycfnh5.py":108:121)
#loc111 = loc("/NHNHOME/WORKSPACE/26msit001_A/jinhyeok/TTT_camera_embedding/lact_llm/.cache_inductor/hv/chvei5pphgs2nlzco3cqmio65mvyutdmcjqmxalpvjkcviycfnh5.py":109:20)
#loc112 = loc("/NHNHOME/WORKSPACE/26msit001_A/jinhyeok/TTT_camera_embedding/lact_llm/.cache_inductor/hv/chvei5pphgs2nlzco3cqmio65mvyutdmcjqmxalpvjkcviycfnh5.py":111:20)
#loc113 = loc("/NHNHOME/WORKSPACE/26msit001_A/jinhyeok/TTT_camera_embedding/lact_llm/.cache_inductor/hv/chvei5pphgs2nlzco3cqmio65mvyutdmcjqmxalpvjkcviycfnh5.py":112:31)
#loc114 = loc("/NHNHOME/WORKSPACE/26msit001_A/jinhyeok/TTT_camera_embedding/lact_llm/.cache_inductor/hv/chvei5pphgs2nlzco3cqmio65mvyutdmcjqmxalpvjkcviycfnh5.py":112:77)
#loc115 = loc("/NHNHOME/WORKSPACE/26msit001_A/jinhyeok/TTT_camera_embedding/lact_llm/.cache_inductor/hv/chvei5pphgs2nlzco3cqmio65mvyutdmcjqmxalpvjkcviycfnh5.py":112:128)
#loc116 = loc("/NHNHOME/WORKSPACE/26msit001_A/jinhyeok/TTT_camera_embedding/lact_llm/.cache_inductor/hv/chvei5pphgs2nlzco3cqmio65mvyutdmcjqmxalpvjkcviycfnh5.py":114:23)
#loc117 = loc("/NHNHOME/WORKSPACE/26msit001_A/jinhyeok/TTT_camera_embedding/lact_llm/.cache_inductor/hv/chvei5pphgs2nlzco3cqmio65mvyutdmcjqmxalpvjkcviycfnh5.py":115:20)
#loc118 = loc("/NHNHOME/WORKSPACE/26msit001_A/jinhyeok/TTT_camera_embedding/lact_llm/.cache_inductor/hv/chvei5pphgs2nlzco3cqmio65mvyutdmcjqmxalpvjkcviycfnh5.py":117:31)
#loc119 = loc("/NHNHOME/WORKSPACE/26msit001_A/jinhyeok/TTT_camera_embedding/lact_llm/.cache_inductor/hv/chvei5pphgs2nlzco3cqmio65mvyutdmcjqmxalpvjkcviycfnh5.py":117:77)
#loc120 = loc("/NHNHOME/WORKSPACE/26msit001_A/jinhyeok/TTT_camera_embedding/lact_llm/.cache_inductor/hv/chvei5pphgs2nlzco3cqmio65mvyutdmcjqmxalpvjkcviycfnh5.py":117:128)
#loc121 = loc("/NHNHOME/WORKSPACE/26msit001_A/jinhyeok/TTT_camera_embedding/lact_llm/.cache_inductor/hv/chvei5pphgs2nlzco3cqmio65mvyutdmcjqmxalpvjkcviycfnh5.py":118:20)
#loc122 = loc("/NHNHOME/WORKSPACE/26msit001_A/jinhyeok/TTT_camera_embedding/lact_llm/.cache_inductor/hv/chvei5pphgs2nlzco3cqmio65mvyutdmcjqmxalpvjkcviycfnh5.py":120:20)
#loc123 = loc("/NHNHOME/WORKSPACE/26msit001_A/jinhyeok/TTT_camera_embedding/lact_llm/.cache_inductor/hv/chvei5pphgs2nlzco3cqmio65mvyutdmcjqmxalpvjkcviycfnh5.py":121:20)
#loc124 = loc("/NHNHOME/WORKSPACE/26msit001_A/jinhyeok/TTT_camera_embedding/lact_llm/.cache_inductor/hv/chvei5pphgs2nlzco3cqmio65mvyutdmcjqmxalpvjkcviycfnh5.py":123:35)
#loc125 = loc("/NHNHOME/WORKSPACE/26msit001_A/jinhyeok/TTT_camera_embedding/lact_llm/.cache_inductor/hv/chvei5pphgs2nlzco3cqmio65mvyutdmcjqmxalpvjkcviycfnh5.py":124:34)
#loc126 = loc("/NHNHOME/WORKSPACE/26msit001_A/jinhyeok/TTT_camera_embedding/lact_llm/.cache_inductor/hv/chvei5pphgs2nlzco3cqmio65mvyutdmcjqmxalpvjkcviycfnh5.py":102:34)
#loc127 = loc("/NHNHOME/WORKSPACE/26msit001_A/jinhyeok/TTT_camera_embedding/lact_llm/.cache_inductor/hv/chvei5pphgs2nlzco3cqmio65mvyutdmcjqmxalpvjkcviycfnh5.py":125:25)
#loc128 = loc("/NHNHOME/WORKSPACE/26msit001_A/jinhyeok/TTT_camera_embedding/lact_llm/.cache_inductor/hv/chvei5pphgs2nlzco3cqmio65mvyutdmcjqmxalpvjkcviycfnh5.py":125:37)
#loc129 = loc("/NHNHOME/WORKSPACE/26msit001_A/jinhyeok/TTT_camera_embedding/lact_llm/.cache_inductor/hv/chvei5pphgs2nlzco3cqmio65mvyutdmcjqmxalpvjkcviycfnh5.py":126:25)
#loc130 = loc("/NHNHOME/WORKSPACE/26msit001_A/jinhyeok/TTT_camera_embedding/lact_llm/.cache_inductor/hv/chvei5pphgs2nlzco3cqmio65mvyutdmcjqmxalpvjkcviycfnh5.py":126:37)
#loc131 = loc("/NHNHOME/WORKSPACE/26msit001_A/jinhyeok/TTT_camera_embedding/lact_llm/.cache_inductor/hv/chvei5pphgs2nlzco3cqmio65mvyutdmcjqmxalpvjkcviycfnh5.py":126:4)
#loc141 = loc("x2"(#loc2))
#loc142 = loc("x1"(#loc3))
#loc143 = loc("xoffset"(#loc4))
#loc144 = loc("xoffset"(#loc5))
#loc145 = loc("xindex"(#loc6))
#loc146 = loc("xindex"(#loc7))
#loc147 = loc("x0"(#loc8))
#loc148 = loc("x1"(#loc9))
#loc149 = loc("tmp4"(#loc10))
#loc150 = loc("tmp5"(#loc11))
#loc151 = loc("tmp5"(#loc12))
#loc152 = loc("tmp5"(#loc13))
#loc153 = loc("tmp5"(#loc14))
#loc154 = loc("tmp5"(#loc15))
#loc155 = loc("tmp5"(#loc16))
#loc156 = loc("tmp5"(#loc17))
#loc157 = loc("tmp7"(#loc19))
#loc158 = loc("tmp8"(#loc23))
#loc159 = loc("tmp10"(#loc24))
#loc160 = loc("tmp10"(#loc25))
#loc161 = loc("tmp10"(#loc26))
#loc162 = loc("tmp11"(#loc27))
#loc163 = loc("tmp13"(#loc28))
#loc164 = loc("tmp13"(#loc29))
#loc165 = loc("tmp13"(#loc30))
#loc166 = loc("tmp13"(#loc31))
#loc167 = loc("tmp14"(#loc32))
#loc168 = loc("tmp15"(#loc33))
#loc169 = loc("tmp15"(#loc34))
#loc170 = loc("tmp15"(#loc35))
#loc171 = loc("tmp15"(#loc36))
#loc172 = loc("tmp15"(#loc37))
#loc173 = loc("tmp15"(#loc38))
#loc174 = loc("tmp17"(#loc39))
#loc175 = loc("tmp18"(#loc40))
#loc176 = loc("tmp20"(#loc41))
#loc177 = loc("tmp20"(#loc42))
#loc178 = loc("tmp20"(#loc43))
#loc179 = loc("tmp21"(#loc44))
#loc180 = loc("tmp23"(#loc45))
#loc181 = loc("tmp23"(#loc46))
#loc182 = loc("tmp24"(#loc47))
#loc183 = loc("tmp25"(#loc48))
#loc184 = loc("tmp28"(#loc49))
#loc185 = loc("tmp31"(#loc50))
#loc186 = loc("tmp31"(#loc51))
#loc187 = loc("tmp31"(#loc52))
#loc188 = loc("tmp31"(#loc53))
#loc189 = loc("tmp31"(#loc54))
#loc190 = loc("tmp33"(#loc55))
#loc191 = loc("tmp34"(#loc56))
#loc192 = loc("tmp36"(#loc57))
#loc193 = loc("tmp36"(#loc58))
#loc194 = loc("tmp36"(#loc59))
#loc195 = loc("tmp37"(#loc60))
#loc196 = loc("tmp39"(#loc61))
#loc197 = loc("tmp39"(#loc62))
#loc198 = loc("tmp39"(#loc63))
#loc199 = loc("tmp40"(#loc64))
#loc200 = loc("tmp41"(#loc65))
#loc201 = loc("tmp41"(#loc66))
#loc202 = loc("tmp41"(#loc67))
#loc203 = loc("tmp41"(#loc68))
#loc204 = loc("tmp43"(#loc69))
#loc205 = loc("tmp44"(#loc70))
#loc206 = loc("tmp46"(#loc71))
#loc207 = loc("tmp46"(#loc72))
#loc208 = loc("tmp46"(#loc73))
#loc209 = loc("tmp47"(#loc74))
#loc210 = loc("tmp49"(#loc75))
#loc211 = loc("tmp49"(#loc76))
#loc212 = loc("tmp50"(#loc77))
#loc213 = loc("tmp51"(#loc78))
#loc214 = loc("tmp53"(#loc79))
#loc215 = loc("tmp54"(#loc80))
#loc216 = loc("tmp27"(#loc81))
#loc217 = loc("tmp55"(#loc82))
#loc218 = loc("tmp55"(#loc83))
#loc219 = loc("tmp55"(#loc84))
#loc220 = loc("tmp57"(#loc85))
#loc221 = loc("tmp58"(#loc86))
#loc222 = loc("tmp60"(#loc87))
#loc223 = loc("tmp60"(#loc88))
#loc224 = loc("tmp60"(#loc89))
#loc225 = loc("tmp61"(#loc90))
#loc226 = loc("tmp63"(#loc91))
#loc227 = loc("tmp64"(#loc92))
#loc228 = loc("tmp64"(#loc93))
#loc229 = loc("tmp64"(#loc94))
#loc230 = loc("tmp66"(#loc95))
#loc231 = loc("tmp67"(#loc96))
#loc232 = loc("tmp69"(#loc97))
#loc233 = loc("tmp69"(#loc98))
#loc234 = loc("tmp69"(#loc99))
#loc235 = loc("tmp70"(#loc100))
#loc236 = loc("tmp72"(#loc101))
#loc237 = loc("tmp73"(#loc102))
#loc238 = loc("tmp76"(#loc103))
#loc239 = loc("tmp76"(#loc104))
#loc240 = loc("tmp76"(#loc105))
#loc241 = loc("tmp78"(#loc106))
#loc242 = loc("tmp79"(#loc107))
#loc243 = loc("tmp81"(#loc108))
#loc244 = loc("tmp81"(#loc109))
#loc245 = loc("tmp81"(#loc110))
#loc246 = loc("tmp82"(#loc111))
#loc247 = loc("tmp84"(#loc112))
#loc248 = loc("tmp85"(#loc113))
#loc249 = loc("tmp85"(#loc114))
#loc250 = loc("tmp85"(#loc115))
#loc251 = loc("tmp87"(#loc116))
#loc252 = loc("tmp88"(#loc117))
#loc253 = loc("tmp90"(#loc118))
#loc254 = loc("tmp90"(#loc119))
#loc255 = loc("tmp90"(#loc120))
#loc256 = loc("tmp91"(#loc121))
#loc257 = loc("tmp93"(#loc122))
#loc258 = loc("tmp94"(#loc123))
#loc259 = loc("tmp96"(#loc124))
#loc260 = loc("tmp97"(#loc125))
#loc261 = loc("tmp75"(#loc126))
#loc262 = loc(callsite(#loc18 at #loc157))
#loc263 = loc(callsite(#loc20 at #loc157))
#loc264 = loc(callsite(#loc21 at #loc157))
#loc265 = loc(callsite(#loc22 at #loc157))
#loc266 = loc(callsite(#loc18 at #loc174))
#loc267 = loc(callsite(#loc20 at #loc174))
#loc268 = loc(callsite(#loc21 at #loc174))
#loc269 = loc(callsite(#loc22 at #loc174))
#loc270 = loc(callsite(#loc18 at #loc190))
#loc271 = loc(callsite(#loc20 at #loc190))
#loc272 = loc(callsite(#loc21 at #loc190))
#loc273 = loc(callsite(#loc22 at #loc190))
#loc274 = loc(callsite(#loc18 at #loc204))
#loc275 = loc(callsite(#loc20 at #loc204))
#loc276 = loc(callsite(#loc21 at #loc204))
#loc277 = loc(callsite(#loc22 at #loc204))
#loc278 = loc(fused[#loc215, #loc216])
#loc279 = loc(callsite(#loc18 at #loc220))
#loc280 = loc(callsite(#loc20 at #loc220))
#loc281 = loc(callsite(#loc21 at #loc220))
#loc282 = loc(callsite(#loc22 at #loc220))
#loc283 = loc(callsite(#loc18 at #loc230))
#loc284 = loc(callsite(#loc20 at #loc230))
#loc285 = loc(callsite(#loc21 at #loc230))
#loc286 = loc(callsite(#loc22 at #loc230))
#loc287 = loc(callsite(#loc18 at #loc241))
#loc288 = loc(callsite(#loc20 at #loc241))
#loc289 = loc(callsite(#loc21 at #loc241))
#loc290 = loc(callsite(#loc22 at #loc241))
#loc291 = loc(callsite(#loc18 at #loc251))
#loc292 = loc(callsite(#loc20 at #loc251))
#loc293 = loc(callsite(#loc21 at #loc251))
#loc294 = loc(callsite(#loc22 at #loc251))
#loc295 = loc(fused[#loc260, #loc261])
