#loc = loc("/NHNHOME/WORKSPACE/26msit001_A/jinhyeok/loop_TTT/lact/.cache_inductor_llm/hq/chqvusmy6htxhzcufgmpgbx5pqofmhcbljocwo5n7zjxvrpd3ibj.py":18:0)
#loc43 = loc("in_ptr0"(#loc))
#loc44 = loc("in_ptr1"(#loc))
#loc45 = loc("out_ptr0"(#loc))
#loc46 = loc("out_ptr1"(#loc))
#loc47 = loc("out_ptr2"(#loc))
#loc48 = loc("ynumel"(#loc))
#loc49 = loc("xnumel"(#loc))
module {
  tt.func public @triton_poi_fused__to_copy_add_div_linalg_vector_norm_transpose_50(%in_ptr0: !tt.ptr<bf16> {tt.divisibility = 16 : i32} loc("in_ptr0"(#loc)), %in_ptr1: !tt.ptr<f32> {tt.divisibility = 16 : i32} loc("in_ptr1"(#loc)), %out_ptr0: !tt.ptr<bf16> {tt.divisibility = 16 : i32} loc("out_ptr0"(#loc)), %out_ptr1: !tt.ptr<bf16> {tt.divisibility = 16 : i32} loc("out_ptr1"(#loc)), %out_ptr2: !tt.ptr<bf16> {tt.divisibility = 16 : i32} loc("out_ptr2"(#loc)), %ynumel: i32 {tt.divisibility = 16 : i32} loc("ynumel"(#loc)), %xnumel: i32 {tt.divisibility = 16 : i32} loc("xnumel"(#loc))) attributes {noinline = false} {
    %c192_i32 = arith.constant 192 : i32 loc(#loc1)
    %tmp5 = arith.constant dense<1.000000e-07> : tensor<1024x1xf32> loc(#loc50)
    %tmp8 = arith.constant dense<36864> : tensor<1024x1xi32> loc(#loc51)
    %cst = arith.constant dense<192> : tensor<1024x1xi32> loc(#loc1)
    %c1024_i32 = arith.constant 1024 : i32 loc(#loc1)
    %yoffset = tt.get_program_id y : i32 loc(#loc52)
    %yoffset_0 = tt.get_program_id z : i32 loc(#loc53)
    %yoffset_1 = tt.get_num_programs y : i32 loc(#loc54)
    %yoffset_2 = arith.muli %yoffset_0, %yoffset_1 : i32 loc(#loc55)
    %yoffset_3 = arith.addi %yoffset, %yoffset_2 : i32 loc(#loc56)
    %yoffset_4 = arith.muli %yoffset_3, %c1024_i32 : i32 loc(#loc57)
    %yindex = tt.make_range {end = 1024 : i32, start = 0 : i32} : tensor<1024xi32> loc(#loc58)
    %yindex_5 = tt.expand_dims %yindex {axis = 1 : i32} : tensor<1024xi32> -> tensor<1024x1xi32> loc(#loc59)
    %yindex_6 = tt.splat %yoffset_4 : i32 -> tensor<1024x1xi32> loc(#loc60)
    %yindex_7 = arith.addi %yindex_6, %yindex_5 : tensor<1024x1xi32> loc(#loc60)
    %ymask = tt.splat %ynumel : i32 -> tensor<1024x1xi32> loc(#loc61)
    %ymask_8 = arith.cmpi slt, %yindex_7, %ymask : tensor<1024x1xi32> loc(#loc61)
    %xoffset = tt.get_program_id x : i32 loc(#loc62)
    %xmask = arith.cmpi slt, %xoffset, %c192_i32 : i32 loc(#loc63)
    %y1 = arith.divsi %yindex_7, %cst : tensor<1024x1xi32> loc(#loc64)
    %y0 = arith.remsi %yindex_7, %cst : tensor<1024x1xi32> loc(#loc65)
    %tmp0 = arith.muli %yindex_7, %cst : tensor<1024x1xi32> loc(#loc66)
    %tmp0_9 = tt.splat %xoffset : i32 -> tensor<1024x1xi32> loc(#loc84)
    %tmp0_10 = arith.addi %tmp0_9, %tmp0 : tensor<1024x1xi32> loc(#loc67)
    %tmp0_11 = tt.splat %in_ptr0 : !tt.ptr<bf16> -> tensor<1024x1x!tt.ptr<bf16>> loc(#loc69)
    %tmp0_12 = tt.addptr %tmp0_11, %tmp0_10 : tensor<1024x1x!tt.ptr<bf16>>, tensor<1024x1xi32> loc(#loc69)
    %tmp0_13 = tt.splat %xmask : i1 -> tensor<1024x1xi1> loc(#loc85)
    %tmp0_14 = arith.andi %tmp0_13, %ymask_8 : tensor<1024x1xi1> loc(#loc70)
    %tmp0_15 = tt.load %tmp0_12, %tmp0_14 evictionPolicy = evict_last : tensor<1024x1x!tt.ptr<bf16>> loc(#loc71)
    %tmp0_16 = arith.extf %tmp0_15 : tensor<1024x1xbf16> to tensor<1024x1xf32> loc(#loc72)
    %tmp2 = tt.splat %in_ptr1 : !tt.ptr<f32> -> tensor<1024x1x!tt.ptr<f32>> loc(#loc73)
    %tmp2_17 = tt.addptr %tmp2, %y1 : tensor<1024x1x!tt.ptr<f32>>, tensor<1024x1xi32> loc(#loc73)
    %tmp2_18 = tt.load %tmp2_17, %ymask_8 evictionPolicy = evict_last : tensor<1024x1x!tt.ptr<f32>> loc(#loc74)
    %tmp8_19 = arith.muli %xoffset, %c192_i32 : i32 loc(#loc75)
    %tmp8_20 = tt.splat %tmp8_19 : i32 -> tensor<1024x1xi32> loc(#loc86)
    %tmp8_21 = arith.addi %y0, %tmp8_20 : tensor<1024x1xi32> loc(#loc76)
    %tmp8_22 = arith.muli %y1, %tmp8 : tensor<1024x1xi32> loc(#loc51)
    %tmp8_23 = arith.addi %tmp8_21, %tmp8_22 : tensor<1024x1xi32> loc(#loc77)
    %tmp8_24 = tt.addptr %tmp0_11, %tmp8_23 : tensor<1024x1x!tt.ptr<bf16>>, tensor<1024x1xi32> loc(#loc78)
    %tmp8_25 = tt.load %tmp8_24, %tmp0_14 evictionPolicy = evict_last : tensor<1024x1x!tt.ptr<bf16>> loc(#loc79)
    %tmp8_26 = arith.extf %tmp8_25 : tensor<1024x1xbf16> to tensor<1024x1xf32> loc(#loc80)
    %tmp3 = tt.extern_elementwise %tmp2_18 {libname = "", libpath = "", pure = true, symbol = "__nv_sqrtf"} : (tensor<1024x1xf32>) -> tensor<1024x1xf32> loc(#loc81)
    %tmp5_27 = arith.addf %tmp3, %tmp5 : tensor<1024x1xf32> loc(#loc50)
    %tmp6 = arith.divf %tmp0_16, %tmp5_27 : tensor<1024x1xf32> loc(#loc82)
    %tmp10 = arith.divf %tmp8_26, %tmp5_27 : tensor<1024x1xf32> loc(#loc83)
    %0 = tt.splat %out_ptr0 : !tt.ptr<bf16> -> tensor<1024x1x!tt.ptr<bf16>> loc(#loc36)
    %1 = tt.addptr %0, %tmp0_10 : tensor<1024x1x!tt.ptr<bf16>>, tensor<1024x1xi32> loc(#loc36)
    %2 = arith.truncf %tmp6 : tensor<1024x1xf32> to tensor<1024x1xbf16> loc(#loc37)
    tt.store %1, %2, %tmp0_14 : tensor<1024x1x!tt.ptr<bf16>> loc(#loc37)
    %3 = tt.splat %out_ptr1 : !tt.ptr<bf16> -> tensor<1024x1x!tt.ptr<bf16>> loc(#loc38)
    %4 = tt.addptr %3, %tmp0_10 : tensor<1024x1x!tt.ptr<bf16>>, tensor<1024x1xi32> loc(#loc38)
    tt.store %4, %2, %tmp0_14 : tensor<1024x1x!tt.ptr<bf16>> loc(#loc39)
    %5 = tt.splat %out_ptr2 : !tt.ptr<bf16> -> tensor<1024x1x!tt.ptr<bf16>> loc(#loc40)
    %6 = tt.addptr %5, %tmp0_10 : tensor<1024x1x!tt.ptr<bf16>>, tensor<1024x1xi32> loc(#loc40)
    %7 = arith.truncf %tmp10 : tensor<1024x1xf32> to tensor<1024x1xbf16> loc(#loc41)
    tt.store %6, %7, %tmp0_14 : tensor<1024x1x!tt.ptr<bf16>> loc(#loc41)
    tt.return loc(#loc42)
  } loc(#loc)
} loc(#loc)
#loc1 = loc(unknown)
#loc2 = loc("/NHNHOME/WORKSPACE/26msit001_A/jinhyeok/loop_TTT/lact/.cache_inductor_llm/hq/chqvusmy6htxhzcufgmpgbx5pqofmhcbljocwo5n7zjxvrpd3ibj.py":36:18)
#loc3 = loc("/NHNHOME/WORKSPACE/26msit001_A/jinhyeok/loop_TTT/lact/.cache_inductor_llm/hq/chqvusmy6htxhzcufgmpgbx5pqofmhcbljocwo5n7zjxvrpd3ibj.py":32:50)
#loc4 = loc("/NHNHOME/WORKSPACE/26msit001_A/jinhyeok/loop_TTT/lact/.cache_inductor_llm/hq/chqvusmy6htxhzcufgmpgbx5pqofmhcbljocwo5n7zjxvrpd3ibj.py":20:29)
#loc5 = loc("/NHNHOME/WORKSPACE/26msit001_A/jinhyeok/loop_TTT/lact/.cache_inductor_llm/hq/chqvusmy6htxhzcufgmpgbx5pqofmhcbljocwo5n7zjxvrpd3ibj.py":20:48)
#loc6 = loc("/NHNHOME/WORKSPACE/26msit001_A/jinhyeok/loop_TTT/lact/.cache_inductor_llm/hq/chqvusmy6htxhzcufgmpgbx5pqofmhcbljocwo5n7zjxvrpd3ibj.py":20:69)
#loc7 = loc("/NHNHOME/WORKSPACE/26msit001_A/jinhyeok/loop_TTT/lact/.cache_inductor_llm/hq/chqvusmy6htxhzcufgmpgbx5pqofmhcbljocwo5n7zjxvrpd3ibj.py":20:53)
#loc8 = loc("/NHNHOME/WORKSPACE/26msit001_A/jinhyeok/loop_TTT/lact/.cache_inductor_llm/hq/chqvusmy6htxhzcufgmpgbx5pqofmhcbljocwo5n7zjxvrpd3ibj.py":20:34)
#loc9 = loc("/NHNHOME/WORKSPACE/26msit001_A/jinhyeok/loop_TTT/lact/.cache_inductor_llm/hq/chqvusmy6htxhzcufgmpgbx5pqofmhcbljocwo5n7zjxvrpd3ibj.py":20:75)
#loc10 = loc("/NHNHOME/WORKSPACE/26msit001_A/jinhyeok/loop_TTT/lact/.cache_inductor_llm/hq/chqvusmy6htxhzcufgmpgbx5pqofmhcbljocwo5n7zjxvrpd3ibj.py":21:36)
#loc11 = loc("/NHNHOME/WORKSPACE/26msit001_A/jinhyeok/loop_TTT/lact/.cache_inductor_llm/hq/chqvusmy6htxhzcufgmpgbx5pqofmhcbljocwo5n7zjxvrpd3ibj.py":21:44)
#loc12 = loc("/NHNHOME/WORKSPACE/26msit001_A/jinhyeok/loop_TTT/lact/.cache_inductor_llm/hq/chqvusmy6htxhzcufgmpgbx5pqofmhcbljocwo5n7zjxvrpd3ibj.py":21:23)
#loc13 = loc("/NHNHOME/WORKSPACE/26msit001_A/jinhyeok/loop_TTT/lact/.cache_inductor_llm/hq/chqvusmy6htxhzcufgmpgbx5pqofmhcbljocwo5n7zjxvrpd3ibj.py":22:21)
#loc14 = loc("/NHNHOME/WORKSPACE/26msit001_A/jinhyeok/loop_TTT/lact/.cache_inductor_llm/hq/chqvusmy6htxhzcufgmpgbx5pqofmhcbljocwo5n7zjxvrpd3ibj.py":23:28)
#loc15 = loc("/NHNHOME/WORKSPACE/26msit001_A/jinhyeok/loop_TTT/lact/.cache_inductor_llm/hq/chqvusmy6htxhzcufgmpgbx5pqofmhcbljocwo5n7zjxvrpd3ibj.py":25:21)
#loc16 = loc("/NHNHOME/WORKSPACE/26msit001_A/jinhyeok/loop_TTT/lact/.cache_inductor_llm/hq/chqvusmy6htxhzcufgmpgbx5pqofmhcbljocwo5n7zjxvrpd3ibj.py":28:19)
#loc17 = loc("/NHNHOME/WORKSPACE/26msit001_A/jinhyeok/loop_TTT/lact/.cache_inductor_llm/hq/chqvusmy6htxhzcufgmpgbx5pqofmhcbljocwo5n7zjxvrpd3ibj.py":29:19)
#loc18 = loc("/NHNHOME/WORKSPACE/26msit001_A/jinhyeok/loop_TTT/lact/.cache_inductor_llm/hq/chqvusmy6htxhzcufgmpgbx5pqofmhcbljocwo5n7zjxvrpd3ibj.py":30:39)
#loc19 = loc("/NHNHOME/WORKSPACE/26msit001_A/jinhyeok/loop_TTT/lact/.cache_inductor_llm/hq/chqvusmy6htxhzcufgmpgbx5pqofmhcbljocwo5n7zjxvrpd3ibj.py":30:35)
#loc20 = loc("/NHNHOME/WORKSPACE/26msit001_A/jinhyeok/loop_TTT/lact/.cache_inductor_llm/hq/chqvusmy6htxhzcufgmpgbx5pqofmhcbljocwo5n7zjxvrpd3ibj.py":24:23)
#loc21 = loc("/NHNHOME/WORKSPACE/26msit001_A/jinhyeok/loop_TTT/lact/.cache_inductor_llm/hq/chqvusmy6htxhzcufgmpgbx5pqofmhcbljocwo5n7zjxvrpd3ibj.py":30:30)
#loc22 = loc("/NHNHOME/WORKSPACE/26msit001_A/jinhyeok/loop_TTT/lact/.cache_inductor_llm/hq/chqvusmy6htxhzcufgmpgbx5pqofmhcbljocwo5n7zjxvrpd3ibj.py":30:52)
#loc23 = loc("/NHNHOME/WORKSPACE/26msit001_A/jinhyeok/loop_TTT/lact/.cache_inductor_llm/hq/chqvusmy6htxhzcufgmpgbx5pqofmhcbljocwo5n7zjxvrpd3ibj.py":30:44)
#loc24 = loc("/NHNHOME/WORKSPACE/26msit001_A/jinhyeok/loop_TTT/lact/.cache_inductor_llm/hq/chqvusmy6htxhzcufgmpgbx5pqofmhcbljocwo5n7zjxvrpd3ibj.py":30:92)
#loc25 = loc("/NHNHOME/WORKSPACE/26msit001_A/jinhyeok/loop_TTT/lact/.cache_inductor_llm/hq/chqvusmy6htxhzcufgmpgbx5pqofmhcbljocwo5n7zjxvrpd3ibj.py":31:30)
#loc26 = loc("/NHNHOME/WORKSPACE/26msit001_A/jinhyeok/loop_TTT/lact/.cache_inductor_llm/hq/chqvusmy6htxhzcufgmpgbx5pqofmhcbljocwo5n7zjxvrpd3ibj.py":31:35)
#loc27 = loc("/NHNHOME/WORKSPACE/26msit001_A/jinhyeok/loop_TTT/lact/.cache_inductor_llm/hq/chqvusmy6htxhzcufgmpgbx5pqofmhcbljocwo5n7zjxvrpd3ibj.py":32:39)
#loc28 = loc("/NHNHOME/WORKSPACE/26msit001_A/jinhyeok/loop_TTT/lact/.cache_inductor_llm/hq/chqvusmy6htxhzcufgmpgbx5pqofmhcbljocwo5n7zjxvrpd3ibj.py":32:35)
#loc29 = loc("/NHNHOME/WORKSPACE/26msit001_A/jinhyeok/loop_TTT/lact/.cache_inductor_llm/hq/chqvusmy6htxhzcufgmpgbx5pqofmhcbljocwo5n7zjxvrpd3ibj.py":32:44)
#loc30 = loc("/NHNHOME/WORKSPACE/26msit001_A/jinhyeok/loop_TTT/lact/.cache_inductor_llm/hq/chqvusmy6htxhzcufgmpgbx5pqofmhcbljocwo5n7zjxvrpd3ibj.py":32:30)
#loc31 = loc("/NHNHOME/WORKSPACE/26msit001_A/jinhyeok/loop_TTT/lact/.cache_inductor_llm/hq/chqvusmy6htxhzcufgmpgbx5pqofmhcbljocwo5n7zjxvrpd3ibj.py":32:55)
#loc32 = loc("/NHNHOME/WORKSPACE/26msit001_A/jinhyeok/loop_TTT/lact/.cache_inductor_llm/hq/chqvusmy6htxhzcufgmpgbx5pqofmhcbljocwo5n7zjxvrpd3ibj.py":32:103)
#loc33 = loc("/NHNHOME/WORKSPACE/26msit001_A/jinhyeok/loop_TTT/lact/.cache_inductor_llm/hq/chqvusmy6htxhzcufgmpgbx5pqofmhcbljocwo5n7zjxvrpd3ibj.py":34:26)
#loc34 = loc("/NHNHOME/WORKSPACE/26msit001_A/jinhyeok/loop_TTT/lact/.cache_inductor_llm/hq/chqvusmy6htxhzcufgmpgbx5pqofmhcbljocwo5n7zjxvrpd3ibj.py":37:19)
#loc35 = loc("/NHNHOME/WORKSPACE/26msit001_A/jinhyeok/loop_TTT/lact/.cache_inductor_llm/hq/chqvusmy6htxhzcufgmpgbx5pqofmhcbljocwo5n7zjxvrpd3ibj.py":40:20)
#loc36 = loc("/NHNHOME/WORKSPACE/26msit001_A/jinhyeok/loop_TTT/lact/.cache_inductor_llm/hq/chqvusmy6htxhzcufgmpgbx5pqofmhcbljocwo5n7zjxvrpd3ibj.py":42:25)
#loc37 = loc("/NHNHOME/WORKSPACE/26msit001_A/jinhyeok/loop_TTT/lact/.cache_inductor_llm/hq/chqvusmy6htxhzcufgmpgbx5pqofmhcbljocwo5n7zjxvrpd3ibj.py":42:45)
#loc38 = loc("/NHNHOME/WORKSPACE/26msit001_A/jinhyeok/loop_TTT/lact/.cache_inductor_llm/hq/chqvusmy6htxhzcufgmpgbx5pqofmhcbljocwo5n7zjxvrpd3ibj.py":43:25)
#loc39 = loc("/NHNHOME/WORKSPACE/26msit001_A/jinhyeok/loop_TTT/lact/.cache_inductor_llm/hq/chqvusmy6htxhzcufgmpgbx5pqofmhcbljocwo5n7zjxvrpd3ibj.py":43:45)
#loc40 = loc("/NHNHOME/WORKSPACE/26msit001_A/jinhyeok/loop_TTT/lact/.cache_inductor_llm/hq/chqvusmy6htxhzcufgmpgbx5pqofmhcbljocwo5n7zjxvrpd3ibj.py":44:25)
#loc41 = loc("/NHNHOME/WORKSPACE/26msit001_A/jinhyeok/loop_TTT/lact/.cache_inductor_llm/hq/chqvusmy6htxhzcufgmpgbx5pqofmhcbljocwo5n7zjxvrpd3ibj.py":44:46)
#loc42 = loc("/NHNHOME/WORKSPACE/26msit001_A/jinhyeok/loop_TTT/lact/.cache_inductor_llm/hq/chqvusmy6htxhzcufgmpgbx5pqofmhcbljocwo5n7zjxvrpd3ibj.py":44:4)
#loc50 = loc("tmp5"(#loc2))
#loc51 = loc("tmp8"(#loc3))
#loc52 = loc("yoffset"(#loc4))
#loc53 = loc("yoffset"(#loc5))
#loc54 = loc("yoffset"(#loc6))
#loc55 = loc("yoffset"(#loc7))
#loc56 = loc("yoffset"(#loc8))
#loc57 = loc("yoffset"(#loc9))
#loc58 = loc("yindex"(#loc10))
#loc59 = loc("yindex"(#loc11))
#loc60 = loc("yindex"(#loc12))
#loc61 = loc("ymask"(#loc13))
#loc62 = loc("xoffset"(#loc14))
#loc63 = loc("xmask"(#loc15))
#loc64 = loc("y1"(#loc16))
#loc65 = loc("y0"(#loc17))
#loc66 = loc("tmp0"(#loc18))
#loc67 = loc("tmp0"(#loc19))
#loc68 = loc("xindex"(#loc20))
#loc69 = loc("tmp0"(#loc21))
#loc70 = loc("tmp0"(#loc22))
#loc71 = loc("tmp0"(#loc23))
#loc72 = loc("tmp0"(#loc24))
#loc73 = loc("tmp2"(#loc25))
#loc74 = loc("tmp2"(#loc26))
#loc75 = loc("tmp8"(#loc27))
#loc76 = loc("tmp8"(#loc28))
#loc77 = loc("tmp8"(#loc29))
#loc78 = loc("tmp8"(#loc30))
#loc79 = loc("tmp8"(#loc31))
#loc80 = loc("tmp8"(#loc32))
#loc81 = loc("tmp3"(#loc33))
#loc82 = loc("tmp6"(#loc34))
#loc83 = loc("tmp10"(#loc35))
#loc84 = loc(fused[#loc67, #loc68])
#loc85 = loc(fused[#loc70, #loc63])
#loc86 = loc(fused[#loc76, #loc75])
