#loc = loc("/NHNHOME/WORKSPACE/26msit001_A/jinhyeok/TTT_camera_embedding/lact_llm/.cache_inductor/yl/cylzsyi4wbqlc66nprompxqujethhuzfiasqduu77lzdmradvxoa.py":18:0)
#loc43 = loc("in_ptr0"(#loc))
#loc44 = loc("in_ptr1"(#loc))
#loc45 = loc("in_ptr2"(#loc))
#loc46 = loc("in_ptr3"(#loc))
#loc47 = loc("in_ptr4"(#loc))
#loc48 = loc("out_ptr0"(#loc))
#loc49 = loc("out_ptr1"(#loc))
#loc50 = loc("out_ptr2"(#loc))
#loc51 = loc("out_ptr3"(#loc))
#loc52 = loc("xnumel"(#loc))
module {
  tt.func public @triton_poi_fused__to_copy_add_div_linalg_vector_norm_mul_transpose_11(%in_ptr0: !tt.ptr<f32> {tt.divisibility = 16 : i32} loc("in_ptr0"(#loc)), %in_ptr1: !tt.ptr<f32> {tt.divisibility = 16 : i32} loc("in_ptr1"(#loc)), %in_ptr2: !tt.ptr<bf16> {tt.divisibility = 16 : i32} loc("in_ptr2"(#loc)), %in_ptr3: !tt.ptr<bf16> {tt.divisibility = 16 : i32} loc("in_ptr3"(#loc)), %in_ptr4: !tt.ptr<bf16> {tt.divisibility = 16 : i32} loc("in_ptr4"(#loc)), %out_ptr0: !tt.ptr<f32> {tt.divisibility = 16 : i32} loc("out_ptr0"(#loc)), %out_ptr1: !tt.ptr<bf16> {tt.divisibility = 16 : i32} loc("out_ptr1"(#loc)), %out_ptr2: !tt.ptr<bf16> {tt.divisibility = 16 : i32} loc("out_ptr2"(#loc)), %out_ptr3: !tt.ptr<bf16> {tt.divisibility = 16 : i32} loc("out_ptr3"(#loc)), %xnumel: i32 {tt.divisibility = 16 : i32} loc("xnumel"(#loc))) attributes {noinline = false} {
    %xnumel_0 = arith.constant 1179648 : i32 loc(#loc53)
    %xoffset = tt.get_program_id x : i32 loc(#loc54)
    %xoffset_1 = arith.constant 512 : i32 loc(#loc55)
    %xoffset_2 = arith.constant 512 : i32 loc(#loc55)
    %xoffset_3 = arith.muli %xoffset, %xoffset_2 : i32 loc(#loc55)
    %xindex = tt.make_range {end = 512 : i32, start = 0 : i32} : tensor<512xi32> loc(#loc56)
    %xindex_4 = tt.splat %xoffset_3 : i32 -> tensor<512xi32> loc(#loc57)
    %xindex_5 = arith.addi %xindex_4, %xindex : tensor<512xi32> loc(#loc57)
    %xmask = arith.constant true loc(#loc58)
    %xmask_6 = arith.constant dense<true> : tensor<512xi1> loc(#loc58)
    %x1 = arith.constant 36864 : i32 loc(#loc59)
    %x1_7 = arith.constant 36864 : i32 loc(#loc59)
    %x1_8 = arith.constant dense<36864> : tensor<512xi32> loc(#loc59)
    %x1_9 = arith.divsi %xindex_5, %x1_8 : tensor<512xi32> loc(#loc59)
    %tmp0 = tt.splat %in_ptr0 : !tt.ptr<f32> -> tensor<512x!tt.ptr<f32>> loc(#loc60)
    %tmp0_10 = tt.addptr %tmp0, %xindex_5 : tensor<512x!tt.ptr<f32>>, tensor<512xi32> loc(#loc60)
    %tmp0_11 = tt.load %tmp0_10 : tensor<512x!tt.ptr<f32>> loc(#loc61)
    %tmp3 = tt.splat %in_ptr1 : !tt.ptr<f32> -> tensor<512x!tt.ptr<f32>> loc(#loc62)
    %tmp3_12 = tt.addptr %tmp3, %x1_9 : tensor<512x!tt.ptr<f32>>, tensor<512xi32> loc(#loc62)
    %tmp3_13 = tt.load %tmp3_12 evictionPolicy = evict_last : tensor<512x!tt.ptr<f32>> loc(#loc63)
    %tmp10 = tt.splat %in_ptr2 : !tt.ptr<bf16> -> tensor<512x!tt.ptr<bf16>> loc(#loc64)
    %tmp10_14 = tt.addptr %tmp10, %xindex_5 : tensor<512x!tt.ptr<bf16>>, tensor<512xi32> loc(#loc64)
    %tmp10_15 = tt.load %tmp10_14 : tensor<512x!tt.ptr<bf16>> loc(#loc65)
    %tmp10_16 = arith.extf %tmp10_15 : tensor<512xbf16> to tensor<512xf32> loc(#loc66)
    %tmp15 = tt.splat %in_ptr3 : !tt.ptr<bf16> -> tensor<512x!tt.ptr<bf16>> loc(#loc67)
    %tmp15_17 = tt.addptr %tmp15, %xindex_5 : tensor<512x!tt.ptr<bf16>>, tensor<512xi32> loc(#loc67)
    %tmp15_18 = tt.load %tmp15_17 : tensor<512x!tt.ptr<bf16>> loc(#loc68)
    %tmp15_19 = arith.extf %tmp15_18 : tensor<512xbf16> to tensor<512xf32> loc(#loc69)
    %tmp20 = tt.splat %in_ptr4 : !tt.ptr<bf16> -> tensor<512x!tt.ptr<bf16>> loc(#loc70)
    %tmp20_20 = tt.addptr %tmp20, %xindex_5 : tensor<512x!tt.ptr<bf16>>, tensor<512xi32> loc(#loc70)
    %tmp20_21 = tt.load %tmp20_20 : tensor<512x!tt.ptr<bf16>> loc(#loc71)
    %tmp20_22 = arith.extf %tmp20_21 : tensor<512xbf16> to tensor<512xf32> loc(#loc72)
    %tmp4 = tt.extern_elementwise %tmp3_13 {libname = "", libpath = "", pure = true, symbol = "__nv_sqrtf"} : (tensor<512xf32>) -> tensor<512xf32> loc(#loc73)
    %tmp5 = arith.constant 1.000000e-07 : f32 loc(#loc74)
    %tmp6 = arith.constant dense<1.000000e-07> : tensor<512xf32> loc(#loc75)
    %tmp6_23 = arith.addf %tmp4, %tmp6 : tensor<512xf32> loc(#loc75)
    %tmp7 = arith.divf %tmp0_11, %tmp6_23 : tensor<512xf32> loc(#loc76)
    %tmp8 = arith.constant 4.084800e+00 : f32 loc(#loc77)
    %tmp9 = arith.constant dense<4.084800e+00> : tensor<512xf32> loc(#loc78)
    %tmp9_24 = arith.mulf %tmp7, %tmp9 : tensor<512xf32> loc(#loc78)
    %tmp12 = arith.addf %tmp9_24, %tmp10_16 : tensor<512xf32> loc(#loc79)
    %tmp13 = arith.constant 3.950500e+00 : f32 loc(#loc80)
    %tmp14 = arith.constant dense<3.950500e+00> : tensor<512xf32> loc(#loc81)
    %tmp14_25 = arith.mulf %tmp12, %tmp14 : tensor<512xf32> loc(#loc81)
    %tmp17 = arith.addf %tmp14_25, %tmp15_19 : tensor<512xf32> loc(#loc82)
    %tmp18 = arith.constant 3.741800e+00 : f32 loc(#loc83)
    %tmp19 = arith.constant dense<3.741800e+00> : tensor<512xf32> loc(#loc84)
    %tmp19_26 = arith.mulf %tmp17, %tmp19 : tensor<512xf32> loc(#loc84)
    %tmp22 = arith.addf %tmp19_26, %tmp20_22 : tensor<512xf32> loc(#loc85)
    %0 = tt.splat %out_ptr0 : !tt.ptr<f32> -> tensor<512x!tt.ptr<f32>> loc(#loc34)
    %1 = tt.addptr %0, %xindex_5 : tensor<512x!tt.ptr<f32>>, tensor<512xi32> loc(#loc34)
    tt.store %1, %tmp22 : tensor<512x!tt.ptr<f32>> loc(#loc35)
    %2 = tt.splat %out_ptr1 : !tt.ptr<bf16> -> tensor<512x!tt.ptr<bf16>> loc(#loc36)
    %3 = tt.addptr %2, %xindex_5 : tensor<512x!tt.ptr<bf16>>, tensor<512xi32> loc(#loc36)
    %4 = arith.truncf %tmp22 : tensor<512xf32> to tensor<512xbf16> loc(#loc37)
    tt.store %3, %4 : tensor<512x!tt.ptr<bf16>> loc(#loc37)
    %5 = tt.splat %out_ptr2 : !tt.ptr<bf16> -> tensor<512x!tt.ptr<bf16>> loc(#loc38)
    %6 = tt.addptr %5, %xindex_5 : tensor<512x!tt.ptr<bf16>>, tensor<512xi32> loc(#loc38)
    %7 = arith.truncf %tmp22 : tensor<512xf32> to tensor<512xbf16> loc(#loc39)
    tt.store %6, %7 : tensor<512x!tt.ptr<bf16>> loc(#loc39)
    %8 = tt.splat %out_ptr3 : !tt.ptr<bf16> -> tensor<512x!tt.ptr<bf16>> loc(#loc40)
    %9 = tt.addptr %8, %xindex_5 : tensor<512x!tt.ptr<bf16>>, tensor<512xi32> loc(#loc40)
    %10 = arith.truncf %tmp22 : tensor<512xf32> to tensor<512xbf16> loc(#loc41)
    tt.store %9, %10 : tensor<512x!tt.ptr<bf16>> loc(#loc41)
    tt.return loc(#loc42)
  } loc(#loc)
} loc(#loc)
#loc1 = loc("/NHNHOME/WORKSPACE/26msit001_A/jinhyeok/TTT_camera_embedding/lact_llm/.cache_inductor/yl/cylzsyi4wbqlc66nprompxqujethhuzfiasqduu77lzdmradvxoa.py":19:13)
#loc2 = loc("/NHNHOME/WORKSPACE/26msit001_A/jinhyeok/TTT_camera_embedding/lact_llm/.cache_inductor/yl/cylzsyi4wbqlc66nprompxqujethhuzfiasqduu77lzdmradvxoa.py":20:28)
#loc3 = loc("/NHNHOME/WORKSPACE/26msit001_A/jinhyeok/TTT_camera_embedding/lact_llm/.cache_inductor/yl/cylzsyi4wbqlc66nprompxqujethhuzfiasqduu77lzdmradvxoa.py":20:33)
#loc4 = loc("/NHNHOME/WORKSPACE/26msit001_A/jinhyeok/TTT_camera_embedding/lact_llm/.cache_inductor/yl/cylzsyi4wbqlc66nprompxqujethhuzfiasqduu77lzdmradvxoa.py":21:36)
#loc5 = loc("/NHNHOME/WORKSPACE/26msit001_A/jinhyeok/TTT_camera_embedding/lact_llm/.cache_inductor/yl/cylzsyi4wbqlc66nprompxqujethhuzfiasqduu77lzdmradvxoa.py":21:23)
#loc6 = loc("/NHNHOME/WORKSPACE/26msit001_A/jinhyeok/TTT_camera_embedding/lact_llm/.cache_inductor/yl/cylzsyi4wbqlc66nprompxqujethhuzfiasqduu77lzdmradvxoa.py":22:36)
#loc7 = loc("/NHNHOME/WORKSPACE/26msit001_A/jinhyeok/TTT_camera_embedding/lact_llm/.cache_inductor/yl/cylzsyi4wbqlc66nprompxqujethhuzfiasqduu77lzdmradvxoa.py":24:19)
#loc8 = loc("/NHNHOME/WORKSPACE/26msit001_A/jinhyeok/TTT_camera_embedding/lact_llm/.cache_inductor/yl/cylzsyi4wbqlc66nprompxqujethhuzfiasqduu77lzdmradvxoa.py":25:30)
#loc9 = loc("/NHNHOME/WORKSPACE/26msit001_A/jinhyeok/TTT_camera_embedding/lact_llm/.cache_inductor/yl/cylzsyi4wbqlc66nprompxqujethhuzfiasqduu77lzdmradvxoa.py":25:35)
#loc10 = loc("/NHNHOME/WORKSPACE/26msit001_A/jinhyeok/TTT_camera_embedding/lact_llm/.cache_inductor/yl/cylzsyi4wbqlc66nprompxqujethhuzfiasqduu77lzdmradvxoa.py":26:30)
#loc11 = loc("/NHNHOME/WORKSPACE/26msit001_A/jinhyeok/TTT_camera_embedding/lact_llm/.cache_inductor/yl/cylzsyi4wbqlc66nprompxqujethhuzfiasqduu77lzdmradvxoa.py":26:35)
#loc12 = loc("/NHNHOME/WORKSPACE/26msit001_A/jinhyeok/TTT_camera_embedding/lact_llm/.cache_inductor/yl/cylzsyi4wbqlc66nprompxqujethhuzfiasqduu77lzdmradvxoa.py":27:31)
#loc13 = loc("/NHNHOME/WORKSPACE/26msit001_A/jinhyeok/TTT_camera_embedding/lact_llm/.cache_inductor/yl/cylzsyi4wbqlc66nprompxqujethhuzfiasqduu77lzdmradvxoa.py":27:36)
#loc14 = loc("/NHNHOME/WORKSPACE/26msit001_A/jinhyeok/TTT_camera_embedding/lact_llm/.cache_inductor/yl/cylzsyi4wbqlc66nprompxqujethhuzfiasqduu77lzdmradvxoa.py":27:45)
#loc15 = loc("/NHNHOME/WORKSPACE/26msit001_A/jinhyeok/TTT_camera_embedding/lact_llm/.cache_inductor/yl/cylzsyi4wbqlc66nprompxqujethhuzfiasqduu77lzdmradvxoa.py":28:31)
#loc16 = loc("/NHNHOME/WORKSPACE/26msit001_A/jinhyeok/TTT_camera_embedding/lact_llm/.cache_inductor/yl/cylzsyi4wbqlc66nprompxqujethhuzfiasqduu77lzdmradvxoa.py":28:36)
#loc17 = loc("/NHNHOME/WORKSPACE/26msit001_A/jinhyeok/TTT_camera_embedding/lact_llm/.cache_inductor/yl/cylzsyi4wbqlc66nprompxqujethhuzfiasqduu77lzdmradvxoa.py":28:45)
#loc18 = loc("/NHNHOME/WORKSPACE/26msit001_A/jinhyeok/TTT_camera_embedding/lact_llm/.cache_inductor/yl/cylzsyi4wbqlc66nprompxqujethhuzfiasqduu77lzdmradvxoa.py":29:31)
#loc19 = loc("/NHNHOME/WORKSPACE/26msit001_A/jinhyeok/TTT_camera_embedding/lact_llm/.cache_inductor/yl/cylzsyi4wbqlc66nprompxqujethhuzfiasqduu77lzdmradvxoa.py":29:36)
#loc20 = loc("/NHNHOME/WORKSPACE/26msit001_A/jinhyeok/TTT_camera_embedding/lact_llm/.cache_inductor/yl/cylzsyi4wbqlc66nprompxqujethhuzfiasqduu77lzdmradvxoa.py":29:45)
#loc21 = loc("/NHNHOME/WORKSPACE/26msit001_A/jinhyeok/TTT_camera_embedding/lact_llm/.cache_inductor/yl/cylzsyi4wbqlc66nprompxqujethhuzfiasqduu77lzdmradvxoa.py":32:26)
#loc22 = loc("/NHNHOME/WORKSPACE/26msit001_A/jinhyeok/TTT_camera_embedding/lact_llm/.cache_inductor/yl/cylzsyi4wbqlc66nprompxqujethhuzfiasqduu77lzdmradvxoa.py":33:11)
#loc23 = loc("/NHNHOME/WORKSPACE/26msit001_A/jinhyeok/TTT_camera_embedding/lact_llm/.cache_inductor/yl/cylzsyi4wbqlc66nprompxqujethhuzfiasqduu77lzdmradvxoa.py":34:18)
#loc24 = loc("/NHNHOME/WORKSPACE/26msit001_A/jinhyeok/TTT_camera_embedding/lact_llm/.cache_inductor/yl/cylzsyi4wbqlc66nprompxqujethhuzfiasqduu77lzdmradvxoa.py":35:19)
#loc25 = loc("/NHNHOME/WORKSPACE/26msit001_A/jinhyeok/TTT_camera_embedding/lact_llm/.cache_inductor/yl/cylzsyi4wbqlc66nprompxqujethhuzfiasqduu77lzdmradvxoa.py":36:11)
#loc26 = loc("/NHNHOME/WORKSPACE/26msit001_A/jinhyeok/TTT_camera_embedding/lact_llm/.cache_inductor/yl/cylzsyi4wbqlc66nprompxqujethhuzfiasqduu77lzdmradvxoa.py":37:18)
#loc27 = loc("/NHNHOME/WORKSPACE/26msit001_A/jinhyeok/TTT_camera_embedding/lact_llm/.cache_inductor/yl/cylzsyi4wbqlc66nprompxqujethhuzfiasqduu77lzdmradvxoa.py":39:19)
#loc28 = loc("/NHNHOME/WORKSPACE/26msit001_A/jinhyeok/TTT_camera_embedding/lact_llm/.cache_inductor/yl/cylzsyi4wbqlc66nprompxqujethhuzfiasqduu77lzdmradvxoa.py":40:12)
#loc29 = loc("/NHNHOME/WORKSPACE/26msit001_A/jinhyeok/TTT_camera_embedding/lact_llm/.cache_inductor/yl/cylzsyi4wbqlc66nprompxqujethhuzfiasqduu77lzdmradvxoa.py":41:20)
#loc30 = loc("/NHNHOME/WORKSPACE/26msit001_A/jinhyeok/TTT_camera_embedding/lact_llm/.cache_inductor/yl/cylzsyi4wbqlc66nprompxqujethhuzfiasqduu77lzdmradvxoa.py":43:20)
#loc31 = loc("/NHNHOME/WORKSPACE/26msit001_A/jinhyeok/TTT_camera_embedding/lact_llm/.cache_inductor/yl/cylzsyi4wbqlc66nprompxqujethhuzfiasqduu77lzdmradvxoa.py":44:12)
#loc32 = loc("/NHNHOME/WORKSPACE/26msit001_A/jinhyeok/TTT_camera_embedding/lact_llm/.cache_inductor/yl/cylzsyi4wbqlc66nprompxqujethhuzfiasqduu77lzdmradvxoa.py":45:20)
#loc33 = loc("/NHNHOME/WORKSPACE/26msit001_A/jinhyeok/TTT_camera_embedding/lact_llm/.cache_inductor/yl/cylzsyi4wbqlc66nprompxqujethhuzfiasqduu77lzdmradvxoa.py":47:20)
#loc34 = loc("/NHNHOME/WORKSPACE/26msit001_A/jinhyeok/TTT_camera_embedding/lact_llm/.cache_inductor/yl/cylzsyi4wbqlc66nprompxqujethhuzfiasqduu77lzdmradvxoa.py":49:25)
#loc35 = loc("/NHNHOME/WORKSPACE/26msit001_A/jinhyeok/TTT_camera_embedding/lact_llm/.cache_inductor/yl/cylzsyi4wbqlc66nprompxqujethhuzfiasqduu77lzdmradvxoa.py":49:37)
#loc36 = loc("/NHNHOME/WORKSPACE/26msit001_A/jinhyeok/TTT_camera_embedding/lact_llm/.cache_inductor/yl/cylzsyi4wbqlc66nprompxqujethhuzfiasqduu77lzdmradvxoa.py":50:25)
#loc37 = loc("/NHNHOME/WORKSPACE/26msit001_A/jinhyeok/TTT_camera_embedding/lact_llm/.cache_inductor/yl/cylzsyi4wbqlc66nprompxqujethhuzfiasqduu77lzdmradvxoa.py":50:37)
#loc38 = loc("/NHNHOME/WORKSPACE/26msit001_A/jinhyeok/TTT_camera_embedding/lact_llm/.cache_inductor/yl/cylzsyi4wbqlc66nprompxqujethhuzfiasqduu77lzdmradvxoa.py":51:25)
#loc39 = loc("/NHNHOME/WORKSPACE/26msit001_A/jinhyeok/TTT_camera_embedding/lact_llm/.cache_inductor/yl/cylzsyi4wbqlc66nprompxqujethhuzfiasqduu77lzdmradvxoa.py":51:37)
#loc40 = loc("/NHNHOME/WORKSPACE/26msit001_A/jinhyeok/TTT_camera_embedding/lact_llm/.cache_inductor/yl/cylzsyi4wbqlc66nprompxqujethhuzfiasqduu77lzdmradvxoa.py":52:25)
#loc41 = loc("/NHNHOME/WORKSPACE/26msit001_A/jinhyeok/TTT_camera_embedding/lact_llm/.cache_inductor/yl/cylzsyi4wbqlc66nprompxqujethhuzfiasqduu77lzdmradvxoa.py":52:37)
#loc42 = loc("/NHNHOME/WORKSPACE/26msit001_A/jinhyeok/TTT_camera_embedding/lact_llm/.cache_inductor/yl/cylzsyi4wbqlc66nprompxqujethhuzfiasqduu77lzdmradvxoa.py":52:4)
#loc53 = loc("xnumel"(#loc1))
#loc54 = loc("xoffset"(#loc2))
#loc55 = loc("xoffset"(#loc3))
#loc56 = loc("xindex"(#loc4))
#loc57 = loc("xindex"(#loc5))
#loc58 = loc("xmask"(#loc6))
#loc59 = loc("x1"(#loc7))
#loc60 = loc("tmp0"(#loc8))
#loc61 = loc("tmp0"(#loc9))
#loc62 = loc("tmp3"(#loc10))
#loc63 = loc("tmp3"(#loc11))
#loc64 = loc("tmp10"(#loc12))
#loc65 = loc("tmp10"(#loc13))
#loc66 = loc("tmp10"(#loc14))
#loc67 = loc("tmp15"(#loc15))
#loc68 = loc("tmp15"(#loc16))
#loc69 = loc("tmp15"(#loc17))
#loc70 = loc("tmp20"(#loc18))
#loc71 = loc("tmp20"(#loc19))
#loc72 = loc("tmp20"(#loc20))
#loc73 = loc("tmp4"(#loc21))
#loc74 = loc("tmp5"(#loc22))
#loc75 = loc("tmp6"(#loc23))
#loc76 = loc("tmp7"(#loc24))
#loc77 = loc("tmp8"(#loc25))
#loc78 = loc("tmp9"(#loc26))
#loc79 = loc("tmp12"(#loc27))
#loc80 = loc("tmp13"(#loc28))
#loc81 = loc("tmp14"(#loc29))
#loc82 = loc("tmp17"(#loc30))
#loc83 = loc("tmp18"(#loc31))
#loc84 = loc("tmp19"(#loc32))
#loc85 = loc("tmp22"(#loc33))
