#loc = loc("/NHNHOME/WORKSPACE/26msit001_A/jinhyeok/loop_TTT/lact/.cache_inductor_llm/td/ctdk3lsek23jdbam3ps56kph5vhx3asomb3iboimd42r23kgdb7j.py":18:0)
#loc41 = loc("in_ptr0"(#loc))
#loc42 = loc("out_ptr0"(#loc))
#loc43 = loc("xnumel"(#loc))
module {
  tt.func public @triton_poi_fused_clone_copy_slice_transpose_zeros_like_29(%in_ptr0: !tt.ptr<bf16> {tt.divisibility = 16 : i32} loc("in_ptr0"(#loc)), %out_ptr0: !tt.ptr<bf16> {tt.divisibility = 16 : i32} loc("out_ptr0"(#loc)), %xnumel: i32 {tt.divisibility = 16 : i32} loc("xnumel"(#loc))) attributes {noinline = false} {
    %xnumel_0 = arith.constant 6291456 : i32 loc(#loc44)
    %xoffset = tt.get_program_id x : i32 loc(#loc45)
    %xoffset_1 = arith.constant 1024 : i32 loc(#loc46)
    %xoffset_2 = arith.constant 1024 : i32 loc(#loc46)
    %xoffset_3 = arith.muli %xoffset, %xoffset_2 : i32 loc(#loc46)
    %xindex = tt.make_range {end = 1024 : i32, start = 0 : i32} : tensor<1024xi32> loc(#loc47)
    %xindex_4 = tt.splat %xoffset_3 : i32 -> tensor<1024xi32> loc(#loc48)
    %xindex_5 = arith.addi %xindex_4, %xindex : tensor<1024xi32> loc(#loc48)
    %xmask = arith.constant true loc(#loc49)
    %xmask_6 = arith.constant dense<true> : tensor<1024xi1> loc(#loc49)
    %x1 = arith.constant 192 : i32 loc(#loc50)
    %x1_7 = arith.constant 192 : i32 loc(#loc50)
    %x1_8 = arith.constant dense<192> : tensor<1024xi32> loc(#loc50)
    %x1_9 = arith.divsi %xindex_5, %x1_8 : tensor<1024xi32> loc(#loc50)
    %x1_10 = arith.constant 1024 : i32 loc(#loc51)
    %x1_11 = arith.constant 1024 : i32 loc(#loc51)
    %x1_12 = arith.constant dense<1024> : tensor<1024xi32> loc(#loc51)
    %x1_13 = arith.remsi %x1_9, %x1_12 : tensor<1024xi32> loc(#loc51)
    %x2 = arith.constant 196608 : i32 loc(#loc52)
    %x2_14 = arith.constant 196608 : i32 loc(#loc52)
    %x2_15 = arith.constant dense<196608> : tensor<1024xi32> loc(#loc52)
    %x2_16 = arith.divsi %xindex_5, %x2_15 : tensor<1024xi32> loc(#loc52)
    %x3 = arith.constant 196608 : i32 loc(#loc53)
    %x3_17 = arith.constant 196608 : i32 loc(#loc53)
    %x3_18 = arith.constant dense<196608> : tensor<1024xi32> loc(#loc53)
    %x3_19 = arith.remsi %xindex_5, %x3_18 : tensor<1024xi32> loc(#loc53)
    %tmp20 = arith.constant 786432 : i32 loc(#loc54)
    %tmp20_20 = arith.constant 786432 : i32 loc(#loc54)
    %tmp20_21 = arith.constant dense<786432> : tensor<1024xi32> loc(#loc54)
    %tmp20_22 = arith.muli %tmp20_21, %x2_16 : tensor<1024xi32> loc(#loc54)
    %tmp20_23 = arith.addi %x3_19, %tmp20_22 : tensor<1024xi32> loc(#loc55)
    %tmp20_24 = tt.splat %in_ptr0 : !tt.ptr<bf16> -> tensor<1024x!tt.ptr<bf16>> loc(#loc56)
    %tmp20_25 = tt.addptr %tmp20_24, %tmp20_23 : tensor<1024x!tt.ptr<bf16>>, tensor<1024xi32> loc(#loc56)
    %tmp20_26 = tt.load %tmp20_25 : tensor<1024x!tt.ptr<bf16>> loc(#loc57)
    %tmp20_27 = arith.extf %tmp20_26 : tensor<1024xbf16> to tensor<1024xf32> loc(#loc58)
    %tmp1 = arith.constant 1024 : i64 loc(#loc59)
    %tmp1_28 = arith.constant dense<1024> : tensor<1xi64> loc(#loc59)
    %tmp2 = arith.extsi %x1_13 : tensor<1024xi32> to tensor<1024xi64> loc(#loc60)
    %tmp2_29 = arith.constant dense<1024> : tensor<1024xi64> loc(#loc60)
    %tmp2_30 = arith.cmpi sge, %tmp2, %tmp2_29 : tensor<1024xi64> loc(#loc60)
    %tmp3 = arith.constant 2048 : i64 loc(#loc61)
    %tmp3_31 = arith.constant dense<2048> : tensor<1xi64> loc(#loc61)
    %tmp4 = arith.extsi %x1_13 : tensor<1024xi32> to tensor<1024xi64> loc(#loc62)
    %tmp4_32 = arith.constant dense<2048> : tensor<1024xi64> loc(#loc62)
    %tmp4_33 = arith.cmpi slt, %tmp4, %tmp4_32 : tensor<1024xi64> loc(#loc62)
    %tmp5 = arith.andi %tmp2_30, %tmp4_33 : tensor<1024xi1> loc(#loc63)
    %tmp6 = arith.constant 0.000000e+00 : f32 loc(#loc64)
    %tmp7 = arith.constant 0.000000e+00 : f32 loc(#loc65)
    %tmp8 = arith.constant dense<0.000000e+00> : tensor<1024xf32> loc(#loc66)
    %tmp8_34 = arith.constant dense<0.000000e+00> : tensor<1024xf32> loc(#loc66)
    %tmp8_35 = arith.select %tmp5, %tmp8, %tmp8_34 : tensor<1024xi1>, tensor<1024xf32> loc(#loc66)
    %tmp9 = arith.extsi %x1_13 : tensor<1024xi32> to tensor<1024xi64> loc(#loc67)
    %tmp9_36 = arith.constant dense<2048> : tensor<1024xi64> loc(#loc67)
    %tmp9_37 = arith.cmpi sge, %tmp9, %tmp9_36 : tensor<1024xi64> loc(#loc67)
    %tmp10 = arith.constant 3072 : i64 loc(#loc68)
    %tmp10_38 = arith.constant dense<3072> : tensor<1xi64> loc(#loc68)
    %tmp11 = arith.extsi %x1_13 : tensor<1024xi32> to tensor<1024xi64> loc(#loc69)
    %tmp11_39 = arith.constant dense<3072> : tensor<1024xi64> loc(#loc69)
    %tmp11_40 = arith.cmpi slt, %tmp11, %tmp11_39 : tensor<1024xi64> loc(#loc69)
    %tmp12 = arith.andi %tmp9_37, %tmp11_40 : tensor<1024xi1> loc(#loc70)
    %tmp13 = arith.constant 0.000000e+00 : f32 loc(#loc71)
    %tmp14 = arith.constant 0.000000e+00 : f32 loc(#loc72)
    %tmp15 = arith.constant dense<0.000000e+00> : tensor<1024xf32> loc(#loc73)
    %tmp15_41 = arith.constant dense<0.000000e+00> : tensor<1024xf32> loc(#loc73)
    %tmp15_42 = arith.select %tmp12, %tmp15, %tmp15_41 : tensor<1024xi1>, tensor<1024xf32> loc(#loc73)
    %tmp16 = arith.extsi %x1_13 : tensor<1024xi32> to tensor<1024xi64> loc(#loc74)
    %tmp16_43 = arith.constant dense<3072> : tensor<1024xi64> loc(#loc74)
    %tmp16_44 = arith.cmpi sge, %tmp16, %tmp16_43 : tensor<1024xi64> loc(#loc74)
    %tmp17 = arith.constant 0.000000e+00 : f32 loc(#loc75)
    %tmp18 = arith.constant 0.000000e+00 : f32 loc(#loc76)
    %tmp19 = arith.constant dense<0.000000e+00> : tensor<1024xf32> loc(#loc77)
    %tmp19_45 = arith.constant dense<0.000000e+00> : tensor<1024xf32> loc(#loc77)
    %tmp19_46 = arith.select %tmp16_44, %tmp19, %tmp19_45 : tensor<1024xi1>, tensor<1024xf32> loc(#loc77)
    %tmp21 = arith.select %tmp16_44, %tmp19_46, %tmp20_27 : tensor<1024xi1>, tensor<1024xf32> loc(#loc78)
    %tmp22 = arith.select %tmp12, %tmp15_42, %tmp21 : tensor<1024xi1>, tensor<1024xf32> loc(#loc79)
    %tmp23 = arith.select %tmp5, %tmp8_35, %tmp22 : tensor<1024xi1>, tensor<1024xf32> loc(#loc80)
    %0 = tt.splat %out_ptr0 : !tt.ptr<bf16> -> tensor<1024x!tt.ptr<bf16>> loc(#loc38)
    %1 = tt.addptr %0, %xindex_5 : tensor<1024x!tt.ptr<bf16>>, tensor<1024xi32> loc(#loc38)
    %2 = arith.truncf %tmp23 : tensor<1024xf32> to tensor<1024xbf16> loc(#loc39)
    tt.store %1, %2 : tensor<1024x!tt.ptr<bf16>> loc(#loc39)
    tt.return loc(#loc40)
  } loc(#loc)
} loc(#loc)
#loc1 = loc("/NHNHOME/WORKSPACE/26msit001_A/jinhyeok/loop_TTT/lact/.cache_inductor_llm/td/ctdk3lsek23jdbam3ps56kph5vhx3asomb3iboimd42r23kgdb7j.py":19:13)
#loc2 = loc("/NHNHOME/WORKSPACE/26msit001_A/jinhyeok/loop_TTT/lact/.cache_inductor_llm/td/ctdk3lsek23jdbam3ps56kph5vhx3asomb3iboimd42r23kgdb7j.py":20:28)
#loc3 = loc("/NHNHOME/WORKSPACE/26msit001_A/jinhyeok/loop_TTT/lact/.cache_inductor_llm/td/ctdk3lsek23jdbam3ps56kph5vhx3asomb3iboimd42r23kgdb7j.py":20:33)
#loc4 = loc("/NHNHOME/WORKSPACE/26msit001_A/jinhyeok/loop_TTT/lact/.cache_inductor_llm/td/ctdk3lsek23jdbam3ps56kph5vhx3asomb3iboimd42r23kgdb7j.py":21:36)
#loc5 = loc("/NHNHOME/WORKSPACE/26msit001_A/jinhyeok/loop_TTT/lact/.cache_inductor_llm/td/ctdk3lsek23jdbam3ps56kph5vhx3asomb3iboimd42r23kgdb7j.py":21:23)
#loc6 = loc("/NHNHOME/WORKSPACE/26msit001_A/jinhyeok/loop_TTT/lact/.cache_inductor_llm/td/ctdk3lsek23jdbam3ps56kph5vhx3asomb3iboimd42r23kgdb7j.py":22:36)
#loc7 = loc("/NHNHOME/WORKSPACE/26msit001_A/jinhyeok/loop_TTT/lact/.cache_inductor_llm/td/ctdk3lsek23jdbam3ps56kph5vhx3asomb3iboimd42r23kgdb7j.py":23:21)
#loc8 = loc("/NHNHOME/WORKSPACE/26msit001_A/jinhyeok/loop_TTT/lact/.cache_inductor_llm/td/ctdk3lsek23jdbam3ps56kph5vhx3asomb3iboimd42r23kgdb7j.py":23:28)
#loc9 = loc("/NHNHOME/WORKSPACE/26msit001_A/jinhyeok/loop_TTT/lact/.cache_inductor_llm/td/ctdk3lsek23jdbam3ps56kph5vhx3asomb3iboimd42r23kgdb7j.py":24:19)
#loc10 = loc("/NHNHOME/WORKSPACE/26msit001_A/jinhyeok/loop_TTT/lact/.cache_inductor_llm/td/ctdk3lsek23jdbam3ps56kph5vhx3asomb3iboimd42r23kgdb7j.py":25:19)
#loc11 = loc("/NHNHOME/WORKSPACE/26msit001_A/jinhyeok/loop_TTT/lact/.cache_inductor_llm/td/ctdk3lsek23jdbam3ps56kph5vhx3asomb3iboimd42r23kgdb7j.py":27:43)
#loc12 = loc("/NHNHOME/WORKSPACE/26msit001_A/jinhyeok/loop_TTT/lact/.cache_inductor_llm/td/ctdk3lsek23jdbam3ps56kph5vhx3asomb3iboimd42r23kgdb7j.py":27:36)
#loc13 = loc("/NHNHOME/WORKSPACE/26msit001_A/jinhyeok/loop_TTT/lact/.cache_inductor_llm/td/ctdk3lsek23jdbam3ps56kph5vhx3asomb3iboimd42r23kgdb7j.py":27:31)
#loc14 = loc("/NHNHOME/WORKSPACE/26msit001_A/jinhyeok/loop_TTT/lact/.cache_inductor_llm/td/ctdk3lsek23jdbam3ps56kph5vhx3asomb3iboimd42r23kgdb7j.py":27:48)
#loc15 = loc("/NHNHOME/WORKSPACE/26msit001_A/jinhyeok/loop_TTT/lact/.cache_inductor_llm/td/ctdk3lsek23jdbam3ps56kph5vhx3asomb3iboimd42r23kgdb7j.py":27:57)
#loc16 = loc("/NHNHOME/WORKSPACE/26msit001_A/jinhyeok/loop_TTT/lact/.cache_inductor_llm/td/ctdk3lsek23jdbam3ps56kph5vhx3asomb3iboimd42r23kgdb7j.py":29:30)
#loc17 = loc("/NHNHOME/WORKSPACE/26msit001_A/jinhyeok/loop_TTT/lact/.cache_inductor_llm/td/ctdk3lsek23jdbam3ps56kph5vhx3asomb3iboimd42r23kgdb7j.py":30:19)
#loc18 = loc("/NHNHOME/WORKSPACE/26msit001_A/jinhyeok/loop_TTT/lact/.cache_inductor_llm/td/ctdk3lsek23jdbam3ps56kph5vhx3asomb3iboimd42r23kgdb7j.py":31:30)
#loc19 = loc("/NHNHOME/WORKSPACE/26msit001_A/jinhyeok/loop_TTT/lact/.cache_inductor_llm/td/ctdk3lsek23jdbam3ps56kph5vhx3asomb3iboimd42r23kgdb7j.py":32:18)
#loc20 = loc("/NHNHOME/WORKSPACE/26msit001_A/jinhyeok/loop_TTT/lact/.cache_inductor_llm/td/ctdk3lsek23jdbam3ps56kph5vhx3asomb3iboimd42r23kgdb7j.py":33:18)
#loc21 = loc("/NHNHOME/WORKSPACE/26msit001_A/jinhyeok/loop_TTT/lact/.cache_inductor_llm/td/ctdk3lsek23jdbam3ps56kph5vhx3asomb3iboimd42r23kgdb7j.py":34:11)
#loc22 = loc("/NHNHOME/WORKSPACE/26msit001_A/jinhyeok/loop_TTT/lact/.cache_inductor_llm/td/ctdk3lsek23jdbam3ps56kph5vhx3asomb3iboimd42r23kgdb7j.py":35:36)
#loc23 = loc("/NHNHOME/WORKSPACE/26msit001_A/jinhyeok/loop_TTT/lact/.cache_inductor_llm/td/ctdk3lsek23jdbam3ps56kph5vhx3asomb3iboimd42r23kgdb7j.py":36:32)
#loc24 = loc("/NHNHOME/WORKSPACE/26msit001_A/jinhyeok/loop_TTT/lact/.cache_inductor_llm/td/ctdk3lsek23jdbam3ps56kph5vhx3asomb3iboimd42r23kgdb7j.py":37:19)
#loc25 = loc("/NHNHOME/WORKSPACE/26msit001_A/jinhyeok/loop_TTT/lact/.cache_inductor_llm/td/ctdk3lsek23jdbam3ps56kph5vhx3asomb3iboimd42r23kgdb7j.py":38:31)
#loc26 = loc("/NHNHOME/WORKSPACE/26msit001_A/jinhyeok/loop_TTT/lact/.cache_inductor_llm/td/ctdk3lsek23jdbam3ps56kph5vhx3asomb3iboimd42r23kgdb7j.py":39:19)
#loc27 = loc("/NHNHOME/WORKSPACE/26msit001_A/jinhyeok/loop_TTT/lact/.cache_inductor_llm/td/ctdk3lsek23jdbam3ps56kph5vhx3asomb3iboimd42r23kgdb7j.py":40:19)
#loc28 = loc("/NHNHOME/WORKSPACE/26msit001_A/jinhyeok/loop_TTT/lact/.cache_inductor_llm/td/ctdk3lsek23jdbam3ps56kph5vhx3asomb3iboimd42r23kgdb7j.py":41:12)
#loc29 = loc("/NHNHOME/WORKSPACE/26msit001_A/jinhyeok/loop_TTT/lact/.cache_inductor_llm/td/ctdk3lsek23jdbam3ps56kph5vhx3asomb3iboimd42r23kgdb7j.py":42:38)
#loc30 = loc("/NHNHOME/WORKSPACE/26msit001_A/jinhyeok/loop_TTT/lact/.cache_inductor_llm/td/ctdk3lsek23jdbam3ps56kph5vhx3asomb3iboimd42r23kgdb7j.py":43:35)
#loc31 = loc("/NHNHOME/WORKSPACE/26msit001_A/jinhyeok/loop_TTT/lact/.cache_inductor_llm/td/ctdk3lsek23jdbam3ps56kph5vhx3asomb3iboimd42r23kgdb7j.py":44:20)
#loc32 = loc("/NHNHOME/WORKSPACE/26msit001_A/jinhyeok/loop_TTT/lact/.cache_inductor_llm/td/ctdk3lsek23jdbam3ps56kph5vhx3asomb3iboimd42r23kgdb7j.py":45:12)
#loc33 = loc("/NHNHOME/WORKSPACE/26msit001_A/jinhyeok/loop_TTT/lact/.cache_inductor_llm/td/ctdk3lsek23jdbam3ps56kph5vhx3asomb3iboimd42r23kgdb7j.py":46:38)
#loc34 = loc("/NHNHOME/WORKSPACE/26msit001_A/jinhyeok/loop_TTT/lact/.cache_inductor_llm/td/ctdk3lsek23jdbam3ps56kph5vhx3asomb3iboimd42r23kgdb7j.py":47:35)
#loc35 = loc("/NHNHOME/WORKSPACE/26msit001_A/jinhyeok/loop_TTT/lact/.cache_inductor_llm/td/ctdk3lsek23jdbam3ps56kph5vhx3asomb3iboimd42r23kgdb7j.py":48:35)
#loc36 = loc("/NHNHOME/WORKSPACE/26msit001_A/jinhyeok/loop_TTT/lact/.cache_inductor_llm/td/ctdk3lsek23jdbam3ps56kph5vhx3asomb3iboimd42r23kgdb7j.py":49:35)
#loc37 = loc("/NHNHOME/WORKSPACE/26msit001_A/jinhyeok/loop_TTT/lact/.cache_inductor_llm/td/ctdk3lsek23jdbam3ps56kph5vhx3asomb3iboimd42r23kgdb7j.py":50:33)
#loc38 = loc("/NHNHOME/WORKSPACE/26msit001_A/jinhyeok/loop_TTT/lact/.cache_inductor_llm/td/ctdk3lsek23jdbam3ps56kph5vhx3asomb3iboimd42r23kgdb7j.py":51:25)
#loc39 = loc("/NHNHOME/WORKSPACE/26msit001_A/jinhyeok/loop_TTT/lact/.cache_inductor_llm/td/ctdk3lsek23jdbam3ps56kph5vhx3asomb3iboimd42r23kgdb7j.py":51:37)
#loc40 = loc("/NHNHOME/WORKSPACE/26msit001_A/jinhyeok/loop_TTT/lact/.cache_inductor_llm/td/ctdk3lsek23jdbam3ps56kph5vhx3asomb3iboimd42r23kgdb7j.py":51:4)
#loc44 = loc("xnumel"(#loc1))
#loc45 = loc("xoffset"(#loc2))
#loc46 = loc("xoffset"(#loc3))
#loc47 = loc("xindex"(#loc4))
#loc48 = loc("xindex"(#loc5))
#loc49 = loc("xmask"(#loc6))
#loc50 = loc("x1"(#loc7))
#loc51 = loc("x1"(#loc8))
#loc52 = loc("x2"(#loc9))
#loc53 = loc("x3"(#loc10))
#loc54 = loc("tmp20"(#loc11))
#loc55 = loc("tmp20"(#loc12))
#loc56 = loc("tmp20"(#loc13))
#loc57 = loc("tmp20"(#loc14))
#loc58 = loc("tmp20"(#loc15))
#loc59 = loc("tmp1"(#loc16))
#loc60 = loc("tmp2"(#loc17))
#loc61 = loc("tmp3"(#loc18))
#loc62 = loc("tmp4"(#loc19))
#loc63 = loc("tmp5"(#loc20))
#loc64 = loc("tmp6"(#loc21))
#loc65 = loc("tmp7"(#loc22))
#loc66 = loc("tmp8"(#loc23))
#loc67 = loc("tmp9"(#loc24))
#loc68 = loc("tmp10"(#loc25))
#loc69 = loc("tmp11"(#loc26))
#loc70 = loc("tmp12"(#loc27))
#loc71 = loc("tmp13"(#loc28))
#loc72 = loc("tmp14"(#loc29))
#loc73 = loc("tmp15"(#loc30))
#loc74 = loc("tmp16"(#loc31))
#loc75 = loc("tmp17"(#loc32))
#loc76 = loc("tmp18"(#loc33))
#loc77 = loc("tmp19"(#loc34))
#loc78 = loc("tmp21"(#loc35))
#loc79 = loc("tmp22"(#loc36))
#loc80 = loc("tmp23"(#loc37))
