#loc = loc("/NHNHOME/WORKSPACE/26msit001_A/jinhyeok/loop_TTT/lact/.cache_inductor_llm/jf/cjf2rymzbzb3gfpmrbchguz4wgt47u5kfubzlu5to7svh6sy6zpl.py":18:0)
#loc211 = loc("in_out_ptr0"(#loc))
#loc212 = loc("in_ptr0"(#loc))
#loc213 = loc("in_ptr1"(#loc))
#loc214 = loc("in_ptr2"(#loc))
#loc215 = loc("in_ptr3"(#loc))
#loc216 = loc("in_ptr4"(#loc))
#loc217 = loc("in_ptr5"(#loc))
#loc218 = loc("in_ptr6"(#loc))
#loc219 = loc("in_ptr7"(#loc))
#loc220 = loc("in_ptr8"(#loc))
#loc221 = loc("in_ptr9"(#loc))
#loc222 = loc("in_ptr10"(#loc))
#loc223 = loc("in_ptr11"(#loc))
#loc224 = loc("in_ptr12"(#loc))
#loc225 = loc("in_ptr13"(#loc))
#loc226 = loc("ynumel"(#loc))
#loc227 = loc("xnumel"(#loc))
module {
  tt.func public @triton_poi_fused__to_copy_add_mul_slice_slice_backward_transpose_43(%in_out_ptr0: !tt.ptr<f32> {tt.divisibility = 16 : i32} loc("in_out_ptr0"(#loc)), %in_ptr0: !tt.ptr<bf16> {tt.divisibility = 16 : i32} loc("in_ptr0"(#loc)), %in_ptr1: !tt.ptr<f32> loc("in_ptr1"(#loc)), %in_ptr2: !tt.ptr<bf16> {tt.divisibility = 16 : i32} loc("in_ptr2"(#loc)), %in_ptr3: !tt.ptr<f32> {tt.divisibility = 16 : i32} loc("in_ptr3"(#loc)), %in_ptr4: !tt.ptr<bf16> {tt.divisibility = 16 : i32} loc("in_ptr4"(#loc)), %in_ptr5: !tt.ptr<bf16> {tt.divisibility = 16 : i32} loc("in_ptr5"(#loc)), %in_ptr6: !tt.ptr<bf16> {tt.divisibility = 16 : i32} loc("in_ptr6"(#loc)), %in_ptr7: !tt.ptr<bf16> {tt.divisibility = 16 : i32} loc("in_ptr7"(#loc)), %in_ptr8: !tt.ptr<bf16> {tt.divisibility = 16 : i32} loc("in_ptr8"(#loc)), %in_ptr9: !tt.ptr<bf16> {tt.divisibility = 16 : i32} loc("in_ptr9"(#loc)), %in_ptr10: !tt.ptr<bf16> {tt.divisibility = 16 : i32} loc("in_ptr10"(#loc)), %in_ptr11: !tt.ptr<bf16> {tt.divisibility = 16 : i32} loc("in_ptr11"(#loc)), %in_ptr12: !tt.ptr<bf16> {tt.divisibility = 16 : i32} loc("in_ptr12"(#loc)), %in_ptr13: !tt.ptr<bf16> {tt.divisibility = 16 : i32} loc("in_ptr13"(#loc)), %ynumel: i32 {tt.divisibility = 16 : i32} loc("ynumel"(#loc)), %xnumel: i32 {tt.divisibility = 16 : i32} loc("xnumel"(#loc))) attributes {noinline = false} {
    %ynumel_0 = arith.constant 131072 : i32 loc(#loc228)
    %xnumel_1 = arith.constant 192 : i32 loc(#loc229)
    %yoffset = tt.get_program_id y : i32 loc(#loc230)
    %yoffset_2 = tt.get_program_id z : i32 loc(#loc231)
    %yoffset_3 = tt.get_num_programs y : i32 loc(#loc232)
    %yoffset_4 = arith.muli %yoffset_2, %yoffset_3 : i32 loc(#loc233)
    %yoffset_5 = arith.addi %yoffset, %yoffset_4 : i32 loc(#loc234)
    %yoffset_6 = arith.constant 1024 : i32 loc(#loc235)
    %yoffset_7 = arith.constant 1024 : i32 loc(#loc235)
    %yoffset_8 = arith.muli %yoffset_5, %yoffset_7 : i32 loc(#loc235)
    %yindex = tt.make_range {end = 1024 : i32, start = 0 : i32} : tensor<1024xi32> loc(#loc236)
    %yindex_9 = tt.expand_dims %yindex {axis = 1 : i32} : tensor<1024xi32> -> tensor<1024x1xi32> loc(#loc237)
    %yindex_10 = tt.splat %yoffset_8 : i32 -> tensor<1024x1xi32> loc(#loc238)
    %yindex_11 = arith.addi %yindex_10, %yindex_9 : tensor<1024x1xi32> loc(#loc238)
    %ymask = arith.constant dense<131072> : tensor<1024x1xi32> loc(#loc239)
    %ymask_12 = arith.cmpi slt, %yindex_11, %ymask : tensor<1024x1xi32> loc(#loc239)
    %xoffset = tt.get_program_id x : i32 loc(#loc240)
    %xoffset_13 = arith.constant 1 : i32 loc(#loc241)
    %xoffset_14 = arith.constant 1 : i32 loc(#loc241)
    %xoffset_15 = arith.muli %xoffset, %xoffset_14 : i32 loc(#loc241)
    %xindex = tt.make_range {end = 1 : i32, start = 0 : i32} : tensor<1xi32> loc(#loc242)
    %xindex_16 = tt.expand_dims %xindex {axis = 0 : i32} : tensor<1xi32> -> tensor<1x1xi32> loc(#loc243)
    %xindex_17 = tt.splat %xoffset_15 : i32 -> tensor<1x1xi32> loc(#loc244)
    %xindex_18 = arith.addi %xindex_17, %xindex_16 : tensor<1x1xi32> loc(#loc244)
    %xmask = arith.constant dense<192> : tensor<1x1xi32> loc(#loc245)
    %xmask_19 = arith.cmpi slt, %xindex_18, %xmask : tensor<1x1xi32> loc(#loc245)
    %y0 = arith.constant 4096 : i32 loc(#loc246)
    %y0_20 = arith.constant 4096 : i32 loc(#loc246)
    %y0_21 = arith.constant dense<4096> : tensor<1024x1xi32> loc(#loc246)
    %y0_22 = arith.remsi %yindex_11, %y0_21 : tensor<1024x1xi32> loc(#loc246)
    %y1 = arith.constant 4096 : i32 loc(#loc247)
    %y1_23 = arith.constant 4096 : i32 loc(#loc247)
    %y1_24 = arith.constant dense<4096> : tensor<1024x1xi32> loc(#loc247)
    %y1_25 = arith.divsi %yindex_11, %y1_24 : tensor<1024x1xi32> loc(#loc247)
    %tmp1 = arith.constant 2048 : i64 loc(#loc248)
    %tmp1_26 = arith.constant dense<2048> : tensor<1x1xi64> loc(#loc248)
    %tmp2 = arith.extsi %y0_22 : tensor<1024x1xi32> to tensor<1024x1xi64> loc(#loc249)
    %tmp2_27 = arith.constant dense<2048> : tensor<1024x1xi64> loc(#loc249)
    %tmp2_28 = arith.cmpi sge, %tmp2, %tmp2_27 : tensor<1024x1xi64> loc(#loc249)
    %tmp3 = arith.constant 3072 : i64 loc(#loc250)
    %tmp3_29 = arith.constant dense<3072> : tensor<1x1xi64> loc(#loc250)
    %tmp4 = arith.extsi %y0_22 : tensor<1024x1xi32> to tensor<1024x1xi64> loc(#loc251)
    %tmp4_30 = arith.constant dense<3072> : tensor<1024x1xi64> loc(#loc251)
    %tmp4_31 = arith.cmpi slt, %tmp4, %tmp4_30 : tensor<1024x1xi64> loc(#loc251)
    %tmp5 = arith.andi %tmp2_28, %tmp4_31 : tensor<1024x1xi1> loc(#loc252)
    %tmp6 = arith.constant -393216 : i32 loc(#loc253)
    %tmp6_32 = arith.constant -393216 : i32 loc(#loc253)
    %tmp6_33 = arith.constant dense<-393216> : tensor<1x1xi32> loc(#loc253)
    %tmp6_34 = arith.addi %tmp6_33, %xindex_18 : tensor<1x1xi32> loc(#loc253)
    %tmp6_35 = arith.constant 192 : i32 loc(#loc254)
    %tmp6_36 = arith.constant 192 : i32 loc(#loc254)
    %tmp6_37 = arith.constant dense<192> : tensor<1024x1xi32> loc(#loc254)
    %tmp6_38 = arith.muli %tmp6_37, %y0_22 : tensor<1024x1xi32> loc(#loc254)
    %tmp6_39 = tt.broadcast %tmp6_34 : tensor<1x1xi32> -> tensor<1024x1xi32> loc(#loc255)
    %tmp6_40 = arith.addi %tmp6_39, %tmp6_38 : tensor<1024x1xi32> loc(#loc255)
    %tmp6_41 = arith.constant 196608 : i32 loc(#loc256)
    %tmp6_42 = arith.constant 196608 : i32 loc(#loc256)
    %tmp6_43 = arith.constant dense<196608> : tensor<1024x1xi32> loc(#loc256)
    %tmp6_44 = arith.muli %tmp6_43, %y1_25 : tensor<1024x1xi32> loc(#loc256)
    %tmp6_45 = arith.addi %tmp6_40, %tmp6_44 : tensor<1024x1xi32> loc(#loc257)
    %tmp6_46 = tt.splat %in_ptr0 : !tt.ptr<bf16> -> tensor<1024x1x!tt.ptr<bf16>> loc(#loc258)
    %tmp6_47 = tt.addptr %tmp6_46, %tmp6_45 : tensor<1024x1x!tt.ptr<bf16>>, tensor<1024x1xi32> loc(#loc258)
    %tmp6_48 = tt.broadcast %xmask_19 : tensor<1x1xi1> -> tensor<1024x1xi1> loc(#loc259)
    %tmp6_49 = arith.andi %tmp5, %tmp6_48 : tensor<1024x1xi1> loc(#loc259)
    %tmp6_50 = arith.andi %tmp6_49, %ymask_12 : tensor<1024x1xi1> loc(#loc260)
    %tmp6_51 = arith.constant 0.000000e+00 : f32 loc(#loc261)
    %tmp6_52 = arith.constant dense<0.000000e+00> : tensor<1024x1xf32> loc(#loc261)
    %tmp6_53 = arith.truncf %tmp6_52 : tensor<1024x1xf32> to tensor<1024x1xbf16> loc(#loc261)
    %tmp6_54 = tt.load %tmp6_47, %tmp6_50, %tmp6_53 evictionPolicy = evict_last : tensor<1024x1x!tt.ptr<bf16>> loc(#loc261)
    %tmp6_55 = arith.extf %tmp6_54 : tensor<1024x1xbf16> to tensor<1024x1xf32> loc(#loc262)
    %tmp8 = arith.constant 3 : i32 loc(#loc263)
    %tmp8_56 = arith.constant 3 : i32 loc(#loc263)
    %tmp8_57 = arith.constant dense<3> : tensor<1024x1xi32> loc(#loc263)
    %tmp8_58 = arith.muli %tmp8_57, %yindex_11 : tensor<1024x1xi32> loc(#loc263)
    %tmp8_59 = tt.splat %in_ptr1 : !tt.ptr<f32> -> tensor<1024x1x!tt.ptr<f32>> loc(#loc264)
    %tmp8_60 = tt.addptr %tmp8_59, %tmp8_58 : tensor<1024x1x!tt.ptr<f32>>, tensor<1024x1xi32> loc(#loc264)
    %tmp8_61 = tt.broadcast %xmask_19 : tensor<1x1xi1> -> tensor<1024x1xi1> loc(#loc265)
    %tmp8_62 = arith.andi %tmp5, %tmp8_61 : tensor<1024x1xi1> loc(#loc265)
    %tmp8_63 = arith.andi %tmp8_62, %ymask_12 : tensor<1024x1xi1> loc(#loc266)
    %tmp8_64 = arith.constant 0.000000e+00 : f32 loc(#loc267)
    %tmp8_65 = arith.constant dense<0.000000e+00> : tensor<1024x1xf32> loc(#loc267)
    %tmp8_66 = tt.load %tmp8_60, %tmp8_63, %tmp8_65 evictionPolicy = evict_last : tensor<1024x1x!tt.ptr<f32>> loc(#loc267)
    %tmp9 = arith.mulf %tmp6_55, %tmp8_66 : tensor<1024x1xf32> loc(#loc268)
    %tmp10 = arith.constant -393216 : i32 loc(#loc269)
    %tmp10_67 = arith.constant -393216 : i32 loc(#loc269)
    %tmp10_68 = arith.constant dense<-393216> : tensor<1x1xi32> loc(#loc269)
    %tmp10_69 = arith.addi %tmp10_68, %xindex_18 : tensor<1x1xi32> loc(#loc269)
    %tmp10_70 = arith.constant 192 : i32 loc(#loc270)
    %tmp10_71 = arith.constant 192 : i32 loc(#loc270)
    %tmp10_72 = arith.constant dense<192> : tensor<1024x1xi32> loc(#loc270)
    %tmp10_73 = arith.muli %tmp10_72, %y0_22 : tensor<1024x1xi32> loc(#loc270)
    %tmp10_74 = tt.broadcast %tmp10_69 : tensor<1x1xi32> -> tensor<1024x1xi32> loc(#loc271)
    %tmp10_75 = arith.addi %tmp10_74, %tmp10_73 : tensor<1024x1xi32> loc(#loc271)
    %tmp10_76 = arith.constant 196608 : i32 loc(#loc272)
    %tmp10_77 = arith.constant 196608 : i32 loc(#loc272)
    %tmp10_78 = arith.constant dense<196608> : tensor<1024x1xi32> loc(#loc272)
    %tmp10_79 = arith.muli %tmp10_78, %y1_25 : tensor<1024x1xi32> loc(#loc272)
    %tmp10_80 = arith.addi %tmp10_75, %tmp10_79 : tensor<1024x1xi32> loc(#loc273)
    %tmp10_81 = tt.splat %in_ptr2 : !tt.ptr<bf16> -> tensor<1024x1x!tt.ptr<bf16>> loc(#loc274)
    %tmp10_82 = tt.addptr %tmp10_81, %tmp10_80 : tensor<1024x1x!tt.ptr<bf16>>, tensor<1024x1xi32> loc(#loc274)
    %tmp10_83 = tt.broadcast %xmask_19 : tensor<1x1xi1> -> tensor<1024x1xi1> loc(#loc275)
    %tmp10_84 = arith.andi %tmp5, %tmp10_83 : tensor<1024x1xi1> loc(#loc275)
    %tmp10_85 = arith.andi %tmp10_84, %ymask_12 : tensor<1024x1xi1> loc(#loc276)
    %tmp10_86 = arith.constant 0.000000e+00 : f32 loc(#loc277)
    %tmp10_87 = arith.constant dense<0.000000e+00> : tensor<1024x1xf32> loc(#loc277)
    %tmp10_88 = arith.truncf %tmp10_87 : tensor<1024x1xf32> to tensor<1024x1xbf16> loc(#loc277)
    %tmp10_89 = tt.load %tmp10_82, %tmp10_85, %tmp10_88 evictionPolicy = evict_last : tensor<1024x1x!tt.ptr<bf16>> loc(#loc277)
    %tmp10_90 = arith.extf %tmp10_89 : tensor<1024x1xbf16> to tensor<1024x1xf32> loc(#loc278)
    %tmp12 = arith.constant 3 : i32 loc(#loc279)
    %tmp12_91 = arith.constant 3 : i32 loc(#loc279)
    %tmp12_92 = arith.constant dense<3> : tensor<1024x1xi32> loc(#loc279)
    %tmp12_93 = arith.muli %tmp12_92, %yindex_11 : tensor<1024x1xi32> loc(#loc279)
    %tmp12_94 = tt.splat %in_ptr3 : !tt.ptr<f32> -> tensor<1024x1x!tt.ptr<f32>> loc(#loc280)
    %tmp12_95 = tt.addptr %tmp12_94, %tmp12_93 : tensor<1024x1x!tt.ptr<f32>>, tensor<1024x1xi32> loc(#loc280)
    %tmp12_96 = tt.broadcast %xmask_19 : tensor<1x1xi1> -> tensor<1024x1xi1> loc(#loc281)
    %tmp12_97 = arith.andi %tmp5, %tmp12_96 : tensor<1024x1xi1> loc(#loc281)
    %tmp12_98 = arith.andi %tmp12_97, %ymask_12 : tensor<1024x1xi1> loc(#loc282)
    %tmp12_99 = arith.constant 0.000000e+00 : f32 loc(#loc283)
    %tmp12_100 = arith.constant dense<0.000000e+00> : tensor<1024x1xf32> loc(#loc283)
    %tmp12_101 = tt.load %tmp12_95, %tmp12_98, %tmp12_100 evictionPolicy = evict_last : tensor<1024x1x!tt.ptr<f32>> loc(#loc283)
    %tmp13 = arith.mulf %tmp10_90, %tmp12_101 : tensor<1024x1xf32> loc(#loc284)
    %tmp14 = arith.addf %tmp9, %tmp13 : tensor<1024x1xf32> loc(#loc285)
    %tmp15 = arith.constant -2048 : i32 loc(#loc286)
    %tmp15_102 = arith.constant -2048 : i32 loc(#loc286)
    %tmp15_103 = arith.constant dense<-2048> : tensor<1024x1xi32> loc(#loc286)
    %tmp15_104 = arith.addi %tmp15_103, %y0_22 : tensor<1024x1xi32> loc(#loc286)
    %tmp15_105 = arith.constant 1024 : i32 loc(#loc287)
    %tmp15_106 = arith.constant 1024 : i32 loc(#loc287)
    %tmp15_107 = arith.constant dense<1024> : tensor<1x1xi32> loc(#loc287)
    %tmp15_108 = arith.muli %tmp15_107, %xindex_18 : tensor<1x1xi32> loc(#loc287)
    %tmp15_109 = tt.broadcast %tmp15_108 : tensor<1x1xi32> -> tensor<1024x1xi32> loc(#loc288)
    %tmp15_110 = arith.addi %tmp15_104, %tmp15_109 : tensor<1024x1xi32> loc(#loc288)
    %tmp15_111 = arith.constant 196608 : i32 loc(#loc289)
    %tmp15_112 = arith.constant 196608 : i32 loc(#loc289)
    %tmp15_113 = arith.constant dense<196608> : tensor<1024x1xi32> loc(#loc289)
    %tmp15_114 = arith.muli %tmp15_113, %y1_25 : tensor<1024x1xi32> loc(#loc289)
    %tmp15_115 = arith.addi %tmp15_110, %tmp15_114 : tensor<1024x1xi32> loc(#loc290)
    %tmp15_116 = tt.splat %in_ptr4 : !tt.ptr<bf16> -> tensor<1024x1x!tt.ptr<bf16>> loc(#loc291)
    %tmp15_117 = tt.addptr %tmp15_116, %tmp15_115 : tensor<1024x1x!tt.ptr<bf16>>, tensor<1024x1xi32> loc(#loc291)
    %tmp15_118 = tt.broadcast %xmask_19 : tensor<1x1xi1> -> tensor<1024x1xi1> loc(#loc292)
    %tmp15_119 = arith.andi %tmp5, %tmp15_118 : tensor<1024x1xi1> loc(#loc292)
    %tmp15_120 = arith.andi %tmp15_119, %ymask_12 : tensor<1024x1xi1> loc(#loc293)
    %tmp15_121 = arith.constant 0.000000e+00 : f32 loc(#loc294)
    %tmp15_122 = arith.constant dense<0.000000e+00> : tensor<1024x1xf32> loc(#loc294)
    %tmp15_123 = arith.truncf %tmp15_122 : tensor<1024x1xf32> to tensor<1024x1xbf16> loc(#loc294)
    %tmp15_124 = tt.load %tmp15_117, %tmp15_120, %tmp15_123 evictionPolicy = evict_last : tensor<1024x1x!tt.ptr<bf16>> loc(#loc294)
    %tmp15_125 = arith.extf %tmp15_124 : tensor<1024x1xbf16> to tensor<1024x1xf32> loc(#loc295)
    %tmp17 = arith.addf %tmp14, %tmp15_125 : tensor<1024x1xf32> loc(#loc296)
    %tmp18 = arith.constant -2048 : i32 loc(#loc297)
    %tmp18_126 = arith.constant -2048 : i32 loc(#loc297)
    %tmp18_127 = arith.constant dense<-2048> : tensor<1024x1xi32> loc(#loc297)
    %tmp18_128 = arith.addi %tmp18_127, %y0_22 : tensor<1024x1xi32> loc(#loc297)
    %tmp18_129 = arith.constant 1024 : i32 loc(#loc298)
    %tmp18_130 = arith.constant 1024 : i32 loc(#loc298)
    %tmp18_131 = arith.constant dense<1024> : tensor<1x1xi32> loc(#loc298)
    %tmp18_132 = arith.muli %tmp18_131, %xindex_18 : tensor<1x1xi32> loc(#loc298)
    %tmp18_133 = tt.broadcast %tmp18_132 : tensor<1x1xi32> -> tensor<1024x1xi32> loc(#loc299)
    %tmp18_134 = arith.addi %tmp18_128, %tmp18_133 : tensor<1024x1xi32> loc(#loc299)
    %tmp18_135 = arith.constant 196608 : i32 loc(#loc300)
    %tmp18_136 = arith.constant 196608 : i32 loc(#loc300)
    %tmp18_137 = arith.constant dense<196608> : tensor<1024x1xi32> loc(#loc300)
    %tmp18_138 = arith.muli %tmp18_137, %y1_25 : tensor<1024x1xi32> loc(#loc300)
    %tmp18_139 = arith.addi %tmp18_134, %tmp18_138 : tensor<1024x1xi32> loc(#loc301)
    %tmp18_140 = tt.splat %in_ptr5 : !tt.ptr<bf16> -> tensor<1024x1x!tt.ptr<bf16>> loc(#loc302)
    %tmp18_141 = tt.addptr %tmp18_140, %tmp18_139 : tensor<1024x1x!tt.ptr<bf16>>, tensor<1024x1xi32> loc(#loc302)
    %tmp18_142 = tt.broadcast %xmask_19 : tensor<1x1xi1> -> tensor<1024x1xi1> loc(#loc303)
    %tmp18_143 = arith.andi %tmp5, %tmp18_142 : tensor<1024x1xi1> loc(#loc303)
    %tmp18_144 = arith.andi %tmp18_143, %ymask_12 : tensor<1024x1xi1> loc(#loc304)
    %tmp18_145 = arith.constant 0.000000e+00 : f32 loc(#loc305)
    %tmp18_146 = arith.constant dense<0.000000e+00> : tensor<1024x1xf32> loc(#loc305)
    %tmp18_147 = arith.truncf %tmp18_146 : tensor<1024x1xf32> to tensor<1024x1xbf16> loc(#loc305)
    %tmp18_148 = tt.load %tmp18_141, %tmp18_144, %tmp18_147 evictionPolicy = evict_last : tensor<1024x1x!tt.ptr<bf16>> loc(#loc305)
    %tmp18_149 = arith.extf %tmp18_148 : tensor<1024x1xbf16> to tensor<1024x1xf32> loc(#loc306)
    %tmp20 = arith.addf %tmp17, %tmp18_149 : tensor<1024x1xf32> loc(#loc307)
    %tmp21 = arith.constant 0.000000e+00 : f32 loc(#loc308)
    %tmp21_150 = arith.constant dense<0.000000e+00> : tensor<1024x1xf32> loc(#loc308)
    %tmp22 = arith.select %tmp5, %tmp20, %tmp21_150 : tensor<1024x1xi1>, tensor<1024x1xf32> loc(#loc309)
    %tmp23 = arith.constant 0.000000e+00 : f32 loc(#loc310)
    %tmp24 = arith.constant dense<0.000000e+00> : tensor<1024x1xf32> loc(#loc311)
    %tmp24_151 = arith.select %tmp5, %tmp22, %tmp24 : tensor<1024x1xi1>, tensor<1024x1xf32> loc(#loc311)
    %tmp25 = arith.constant 1024 : i64 loc(#loc312)
    %tmp25_152 = arith.constant dense<1024> : tensor<1x1xi64> loc(#loc312)
    %tmp26 = arith.extsi %y0_22 : tensor<1024x1xi32> to tensor<1024x1xi64> loc(#loc313)
    %tmp26_153 = arith.constant dense<1024> : tensor<1024x1xi64> loc(#loc313)
    %tmp26_154 = arith.cmpi sge, %tmp26, %tmp26_153 : tensor<1024x1xi64> loc(#loc313)
    %tmp27 = arith.extsi %y0_22 : tensor<1024x1xi32> to tensor<1024x1xi64> loc(#loc314)
    %tmp27_155 = arith.constant dense<2048> : tensor<1024x1xi64> loc(#loc314)
    %tmp27_156 = arith.cmpi slt, %tmp27, %tmp27_155 : tensor<1024x1xi64> loc(#loc314)
    %tmp28 = arith.andi %tmp26_154, %tmp27_156 : tensor<1024x1xi1> loc(#loc315)
    %tmp29 = arith.constant -196608 : i32 loc(#loc316)
    %tmp29_157 = arith.constant -196608 : i32 loc(#loc316)
    %tmp29_158 = arith.constant dense<-196608> : tensor<1x1xi32> loc(#loc316)
    %tmp29_159 = arith.addi %tmp29_158, %xindex_18 : tensor<1x1xi32> loc(#loc316)
    %tmp29_160 = arith.constant 192 : i32 loc(#loc317)
    %tmp29_161 = arith.constant 192 : i32 loc(#loc317)
    %tmp29_162 = arith.constant dense<192> : tensor<1024x1xi32> loc(#loc317)
    %tmp29_163 = arith.muli %tmp29_162, %y0_22 : tensor<1024x1xi32> loc(#loc317)
    %tmp29_164 = tt.broadcast %tmp29_159 : tensor<1x1xi32> -> tensor<1024x1xi32> loc(#loc318)
    %tmp29_165 = arith.addi %tmp29_164, %tmp29_163 : tensor<1024x1xi32> loc(#loc318)
    %tmp29_166 = arith.constant 196608 : i32 loc(#loc319)
    %tmp29_167 = arith.constant 196608 : i32 loc(#loc319)
    %tmp29_168 = arith.constant dense<196608> : tensor<1024x1xi32> loc(#loc319)
    %tmp29_169 = arith.muli %tmp29_168, %y1_25 : tensor<1024x1xi32> loc(#loc319)
    %tmp29_170 = arith.addi %tmp29_165, %tmp29_169 : tensor<1024x1xi32> loc(#loc320)
    %tmp29_171 = tt.splat %in_ptr6 : !tt.ptr<bf16> -> tensor<1024x1x!tt.ptr<bf16>> loc(#loc321)
    %tmp29_172 = tt.addptr %tmp29_171, %tmp29_170 : tensor<1024x1x!tt.ptr<bf16>>, tensor<1024x1xi32> loc(#loc321)
    %tmp29_173 = tt.broadcast %xmask_19 : tensor<1x1xi1> -> tensor<1024x1xi1> loc(#loc322)
    %tmp29_174 = arith.andi %tmp28, %tmp29_173 : tensor<1024x1xi1> loc(#loc322)
    %tmp29_175 = arith.andi %tmp29_174, %ymask_12 : tensor<1024x1xi1> loc(#loc323)
    %tmp29_176 = arith.constant 0.000000e+00 : f32 loc(#loc324)
    %tmp29_177 = arith.constant dense<0.000000e+00> : tensor<1024x1xf32> loc(#loc324)
    %tmp29_178 = arith.truncf %tmp29_177 : tensor<1024x1xf32> to tensor<1024x1xbf16> loc(#loc324)
    %tmp29_179 = tt.load %tmp29_172, %tmp29_175, %tmp29_178 evictionPolicy = evict_last : tensor<1024x1x!tt.ptr<bf16>> loc(#loc324)
    %tmp29_180 = arith.extf %tmp29_179 : tensor<1024x1xbf16> to tensor<1024x1xf32> loc(#loc325)
    %tmp31 = arith.constant 3 : i32 loc(#loc326)
    %tmp31_181 = arith.constant 3 : i32 loc(#loc326)
    %tmp31_182 = arith.constant dense<3> : tensor<1024x1xi32> loc(#loc326)
    %tmp31_183 = arith.muli %tmp31_182, %yindex_11 : tensor<1024x1xi32> loc(#loc326)
    %tmp31_184 = tt.splat %in_ptr1 : !tt.ptr<f32> -> tensor<1024x1x!tt.ptr<f32>> loc(#loc327)
    %tmp31_185 = tt.addptr %tmp31_184, %tmp31_183 : tensor<1024x1x!tt.ptr<f32>>, tensor<1024x1xi32> loc(#loc327)
    %tmp31_186 = tt.broadcast %xmask_19 : tensor<1x1xi1> -> tensor<1024x1xi1> loc(#loc328)
    %tmp31_187 = arith.andi %tmp28, %tmp31_186 : tensor<1024x1xi1> loc(#loc328)
    %tmp31_188 = arith.andi %tmp31_187, %ymask_12 : tensor<1024x1xi1> loc(#loc329)
    %tmp31_189 = arith.constant 0.000000e+00 : f32 loc(#loc330)
    %tmp31_190 = arith.constant dense<0.000000e+00> : tensor<1024x1xf32> loc(#loc330)
    %tmp31_191 = tt.load %tmp31_185, %tmp31_188, %tmp31_190 evictionPolicy = evict_last : tensor<1024x1x!tt.ptr<f32>> loc(#loc330)
    %tmp32 = arith.mulf %tmp29_180, %tmp31_191 : tensor<1024x1xf32> loc(#loc331)
    %tmp33 = arith.constant -196608 : i32 loc(#loc332)
    %tmp33_192 = arith.constant -196608 : i32 loc(#loc332)
    %tmp33_193 = arith.constant dense<-196608> : tensor<1x1xi32> loc(#loc332)
    %tmp33_194 = arith.addi %tmp33_193, %xindex_18 : tensor<1x1xi32> loc(#loc332)
    %tmp33_195 = arith.constant 192 : i32 loc(#loc333)
    %tmp33_196 = arith.constant 192 : i32 loc(#loc333)
    %tmp33_197 = arith.constant dense<192> : tensor<1024x1xi32> loc(#loc333)
    %tmp33_198 = arith.muli %tmp33_197, %y0_22 : tensor<1024x1xi32> loc(#loc333)
    %tmp33_199 = tt.broadcast %tmp33_194 : tensor<1x1xi32> -> tensor<1024x1xi32> loc(#loc334)
    %tmp33_200 = arith.addi %tmp33_199, %tmp33_198 : tensor<1024x1xi32> loc(#loc334)
    %tmp33_201 = arith.constant 196608 : i32 loc(#loc335)
    %tmp33_202 = arith.constant 196608 : i32 loc(#loc335)
    %tmp33_203 = arith.constant dense<196608> : tensor<1024x1xi32> loc(#loc335)
    %tmp33_204 = arith.muli %tmp33_203, %y1_25 : tensor<1024x1xi32> loc(#loc335)
    %tmp33_205 = arith.addi %tmp33_200, %tmp33_204 : tensor<1024x1xi32> loc(#loc336)
    %tmp33_206 = tt.splat %in_ptr7 : !tt.ptr<bf16> -> tensor<1024x1x!tt.ptr<bf16>> loc(#loc337)
    %tmp33_207 = tt.addptr %tmp33_206, %tmp33_205 : tensor<1024x1x!tt.ptr<bf16>>, tensor<1024x1xi32> loc(#loc337)
    %tmp33_208 = tt.broadcast %xmask_19 : tensor<1x1xi1> -> tensor<1024x1xi1> loc(#loc338)
    %tmp33_209 = arith.andi %tmp28, %tmp33_208 : tensor<1024x1xi1> loc(#loc338)
    %tmp33_210 = arith.andi %tmp33_209, %ymask_12 : tensor<1024x1xi1> loc(#loc339)
    %tmp33_211 = arith.constant 0.000000e+00 : f32 loc(#loc340)
    %tmp33_212 = arith.constant dense<0.000000e+00> : tensor<1024x1xf32> loc(#loc340)
    %tmp33_213 = arith.truncf %tmp33_212 : tensor<1024x1xf32> to tensor<1024x1xbf16> loc(#loc340)
    %tmp33_214 = tt.load %tmp33_207, %tmp33_210, %tmp33_213 evictionPolicy = evict_last : tensor<1024x1x!tt.ptr<bf16>> loc(#loc340)
    %tmp33_215 = arith.extf %tmp33_214 : tensor<1024x1xbf16> to tensor<1024x1xf32> loc(#loc341)
    %tmp35 = arith.constant 3 : i32 loc(#loc342)
    %tmp35_216 = arith.constant 3 : i32 loc(#loc342)
    %tmp35_217 = arith.constant dense<3> : tensor<1024x1xi32> loc(#loc342)
    %tmp35_218 = arith.muli %tmp35_217, %yindex_11 : tensor<1024x1xi32> loc(#loc342)
    %tmp35_219 = tt.splat %in_ptr3 : !tt.ptr<f32> -> tensor<1024x1x!tt.ptr<f32>> loc(#loc343)
    %tmp35_220 = tt.addptr %tmp35_219, %tmp35_218 : tensor<1024x1x!tt.ptr<f32>>, tensor<1024x1xi32> loc(#loc343)
    %tmp35_221 = tt.broadcast %xmask_19 : tensor<1x1xi1> -> tensor<1024x1xi1> loc(#loc344)
    %tmp35_222 = arith.andi %tmp28, %tmp35_221 : tensor<1024x1xi1> loc(#loc344)
    %tmp35_223 = arith.andi %tmp35_222, %ymask_12 : tensor<1024x1xi1> loc(#loc345)
    %tmp35_224 = arith.constant 0.000000e+00 : f32 loc(#loc346)
    %tmp35_225 = arith.constant dense<0.000000e+00> : tensor<1024x1xf32> loc(#loc346)
    %tmp35_226 = tt.load %tmp35_220, %tmp35_223, %tmp35_225 evictionPolicy = evict_last : tensor<1024x1x!tt.ptr<f32>> loc(#loc346)
    %tmp36 = arith.mulf %tmp33_215, %tmp35_226 : tensor<1024x1xf32> loc(#loc347)
    %tmp37 = arith.addf %tmp32, %tmp36 : tensor<1024x1xf32> loc(#loc348)
    %tmp38 = arith.constant -1024 : i32 loc(#loc349)
    %tmp38_227 = arith.constant -1024 : i32 loc(#loc349)
    %tmp38_228 = arith.constant dense<-1024> : tensor<1024x1xi32> loc(#loc349)
    %tmp38_229 = arith.addi %tmp38_228, %y0_22 : tensor<1024x1xi32> loc(#loc349)
    %tmp38_230 = arith.constant 1024 : i32 loc(#loc350)
    %tmp38_231 = arith.constant 1024 : i32 loc(#loc350)
    %tmp38_232 = arith.constant dense<1024> : tensor<1x1xi32> loc(#loc350)
    %tmp38_233 = arith.muli %tmp38_232, %xindex_18 : tensor<1x1xi32> loc(#loc350)
    %tmp38_234 = tt.broadcast %tmp38_233 : tensor<1x1xi32> -> tensor<1024x1xi32> loc(#loc351)
    %tmp38_235 = arith.addi %tmp38_229, %tmp38_234 : tensor<1024x1xi32> loc(#loc351)
    %tmp38_236 = arith.constant 196608 : i32 loc(#loc352)
    %tmp38_237 = arith.constant 196608 : i32 loc(#loc352)
    %tmp38_238 = arith.constant dense<196608> : tensor<1024x1xi32> loc(#loc352)
    %tmp38_239 = arith.muli %tmp38_238, %y1_25 : tensor<1024x1xi32> loc(#loc352)
    %tmp38_240 = arith.addi %tmp38_235, %tmp38_239 : tensor<1024x1xi32> loc(#loc353)
    %tmp38_241 = tt.splat %in_ptr8 : !tt.ptr<bf16> -> tensor<1024x1x!tt.ptr<bf16>> loc(#loc354)
    %tmp38_242 = tt.addptr %tmp38_241, %tmp38_240 : tensor<1024x1x!tt.ptr<bf16>>, tensor<1024x1xi32> loc(#loc354)
    %tmp38_243 = tt.broadcast %xmask_19 : tensor<1x1xi1> -> tensor<1024x1xi1> loc(#loc355)
    %tmp38_244 = arith.andi %tmp28, %tmp38_243 : tensor<1024x1xi1> loc(#loc355)
    %tmp38_245 = arith.andi %tmp38_244, %ymask_12 : tensor<1024x1xi1> loc(#loc356)
    %tmp38_246 = arith.constant 0.000000e+00 : f32 loc(#loc357)
    %tmp38_247 = arith.constant dense<0.000000e+00> : tensor<1024x1xf32> loc(#loc357)
    %tmp38_248 = arith.truncf %tmp38_247 : tensor<1024x1xf32> to tensor<1024x1xbf16> loc(#loc357)
    %tmp38_249 = tt.load %tmp38_242, %tmp38_245, %tmp38_248 evictionPolicy = evict_last : tensor<1024x1x!tt.ptr<bf16>> loc(#loc357)
    %tmp38_250 = arith.extf %tmp38_249 : tensor<1024x1xbf16> to tensor<1024x1xf32> loc(#loc358)
    %tmp40 = arith.addf %tmp37, %tmp38_250 : tensor<1024x1xf32> loc(#loc359)
    %tmp41 = arith.constant -1024 : i32 loc(#loc360)
    %tmp41_251 = arith.constant -1024 : i32 loc(#loc360)
    %tmp41_252 = arith.constant dense<-1024> : tensor<1024x1xi32> loc(#loc360)
    %tmp41_253 = arith.addi %tmp41_252, %y0_22 : tensor<1024x1xi32> loc(#loc360)
    %tmp41_254 = arith.constant 1024 : i32 loc(#loc361)
    %tmp41_255 = arith.constant 1024 : i32 loc(#loc361)
    %tmp41_256 = arith.constant dense<1024> : tensor<1x1xi32> loc(#loc361)
    %tmp41_257 = arith.muli %tmp41_256, %xindex_18 : tensor<1x1xi32> loc(#loc361)
    %tmp41_258 = tt.broadcast %tmp41_257 : tensor<1x1xi32> -> tensor<1024x1xi32> loc(#loc362)
    %tmp41_259 = arith.addi %tmp41_253, %tmp41_258 : tensor<1024x1xi32> loc(#loc362)
    %tmp41_260 = arith.constant 196608 : i32 loc(#loc363)
    %tmp41_261 = arith.constant 196608 : i32 loc(#loc363)
    %tmp41_262 = arith.constant dense<196608> : tensor<1024x1xi32> loc(#loc363)
    %tmp41_263 = arith.muli %tmp41_262, %y1_25 : tensor<1024x1xi32> loc(#loc363)
    %tmp41_264 = arith.addi %tmp41_259, %tmp41_263 : tensor<1024x1xi32> loc(#loc364)
    %tmp41_265 = tt.splat %in_ptr9 : !tt.ptr<bf16> -> tensor<1024x1x!tt.ptr<bf16>> loc(#loc365)
    %tmp41_266 = tt.addptr %tmp41_265, %tmp41_264 : tensor<1024x1x!tt.ptr<bf16>>, tensor<1024x1xi32> loc(#loc365)
    %tmp41_267 = tt.broadcast %xmask_19 : tensor<1x1xi1> -> tensor<1024x1xi1> loc(#loc366)
    %tmp41_268 = arith.andi %tmp28, %tmp41_267 : tensor<1024x1xi1> loc(#loc366)
    %tmp41_269 = arith.andi %tmp41_268, %ymask_12 : tensor<1024x1xi1> loc(#loc367)
    %tmp41_270 = arith.constant 0.000000e+00 : f32 loc(#loc368)
    %tmp41_271 = arith.constant dense<0.000000e+00> : tensor<1024x1xf32> loc(#loc368)
    %tmp41_272 = arith.truncf %tmp41_271 : tensor<1024x1xf32> to tensor<1024x1xbf16> loc(#loc368)
    %tmp41_273 = tt.load %tmp41_266, %tmp41_269, %tmp41_272 evictionPolicy = evict_last : tensor<1024x1x!tt.ptr<bf16>> loc(#loc368)
    %tmp41_274 = arith.extf %tmp41_273 : tensor<1024x1xbf16> to tensor<1024x1xf32> loc(#loc369)
    %tmp43 = arith.addf %tmp40, %tmp41_274 : tensor<1024x1xf32> loc(#loc370)
    %tmp44 = arith.constant 0.000000e+00 : f32 loc(#loc371)
    %tmp44_275 = arith.constant dense<0.000000e+00> : tensor<1024x1xf32> loc(#loc371)
    %tmp45 = arith.select %tmp28, %tmp43, %tmp44_275 : tensor<1024x1xi1>, tensor<1024x1xf32> loc(#loc372)
    %tmp46 = arith.constant dense<0.000000e+00> : tensor<1024x1xf32> loc(#loc373)
    %tmp46_276 = arith.select %tmp28, %tmp45, %tmp46 : tensor<1024x1xi1>, tensor<1024x1xf32> loc(#loc373)
    %tmp47 = arith.addf %tmp24_151, %tmp46_276 : tensor<1024x1xf32> loc(#loc374)
    %tmp48 = arith.extsi %y0_22 : tensor<1024x1xi32> to tensor<1024x1xi64> loc(#loc375)
    %tmp48_277 = arith.constant dense<1024> : tensor<1024x1xi64> loc(#loc375)
    %tmp48_278 = arith.cmpi slt, %tmp48, %tmp48_277 : tensor<1024x1xi64> loc(#loc375)
    %tmp49 = arith.constant 192 : i32 loc(#loc376)
    %tmp49_279 = arith.constant 192 : i32 loc(#loc376)
    %tmp49_280 = arith.constant dense<192> : tensor<1024x1xi32> loc(#loc376)
    %tmp49_281 = arith.muli %tmp49_280, %y0_22 : tensor<1024x1xi32> loc(#loc376)
    %tmp49_282 = tt.broadcast %xindex_18 : tensor<1x1xi32> -> tensor<1024x1xi32> loc(#loc377)
    %tmp49_283 = arith.addi %tmp49_282, %tmp49_281 : tensor<1024x1xi32> loc(#loc377)
    %tmp49_284 = arith.constant 196608 : i32 loc(#loc378)
    %tmp49_285 = arith.constant 196608 : i32 loc(#loc378)
    %tmp49_286 = arith.constant dense<196608> : tensor<1024x1xi32> loc(#loc378)
    %tmp49_287 = arith.muli %tmp49_286, %y1_25 : tensor<1024x1xi32> loc(#loc378)
    %tmp49_288 = arith.addi %tmp49_283, %tmp49_287 : tensor<1024x1xi32> loc(#loc379)
    %tmp49_289 = tt.splat %in_ptr10 : !tt.ptr<bf16> -> tensor<1024x1x!tt.ptr<bf16>> loc(#loc380)
    %tmp49_290 = tt.addptr %tmp49_289, %tmp49_288 : tensor<1024x1x!tt.ptr<bf16>>, tensor<1024x1xi32> loc(#loc380)
    %tmp49_291 = tt.broadcast %xmask_19 : tensor<1x1xi1> -> tensor<1024x1xi1> loc(#loc381)
    %tmp49_292 = arith.andi %tmp48_278, %tmp49_291 : tensor<1024x1xi1> loc(#loc381)
    %tmp49_293 = arith.andi %tmp49_292, %ymask_12 : tensor<1024x1xi1> loc(#loc382)
    %tmp49_294 = arith.constant 0.000000e+00 : f32 loc(#loc383)
    %tmp49_295 = arith.constant dense<0.000000e+00> : tensor<1024x1xf32> loc(#loc383)
    %tmp49_296 = arith.truncf %tmp49_295 : tensor<1024x1xf32> to tensor<1024x1xbf16> loc(#loc383)
    %tmp49_297 = tt.load %tmp49_290, %tmp49_293, %tmp49_296 evictionPolicy = evict_last : tensor<1024x1x!tt.ptr<bf16>> loc(#loc383)
    %tmp49_298 = arith.extf %tmp49_297 : tensor<1024x1xbf16> to tensor<1024x1xf32> loc(#loc384)
    %tmp51 = arith.constant 3 : i32 loc(#loc385)
    %tmp51_299 = arith.constant 3 : i32 loc(#loc385)
    %tmp51_300 = arith.constant dense<3> : tensor<1024x1xi32> loc(#loc385)
    %tmp51_301 = arith.muli %tmp51_300, %yindex_11 : tensor<1024x1xi32> loc(#loc385)
    %tmp51_302 = tt.splat %in_ptr1 : !tt.ptr<f32> -> tensor<1024x1x!tt.ptr<f32>> loc(#loc386)
    %tmp51_303 = tt.addptr %tmp51_302, %tmp51_301 : tensor<1024x1x!tt.ptr<f32>>, tensor<1024x1xi32> loc(#loc386)
    %tmp51_304 = tt.broadcast %xmask_19 : tensor<1x1xi1> -> tensor<1024x1xi1> loc(#loc387)
    %tmp51_305 = arith.andi %tmp48_278, %tmp51_304 : tensor<1024x1xi1> loc(#loc387)
    %tmp51_306 = arith.andi %tmp51_305, %ymask_12 : tensor<1024x1xi1> loc(#loc388)
    %tmp51_307 = arith.constant 0.000000e+00 : f32 loc(#loc389)
    %tmp51_308 = arith.constant dense<0.000000e+00> : tensor<1024x1xf32> loc(#loc389)
    %tmp51_309 = tt.load %tmp51_303, %tmp51_306, %tmp51_308 evictionPolicy = evict_last : tensor<1024x1x!tt.ptr<f32>> loc(#loc389)
    %tmp52 = arith.mulf %tmp49_298, %tmp51_309 : tensor<1024x1xf32> loc(#loc390)
    %tmp53 = arith.constant 192 : i32 loc(#loc391)
    %tmp53_310 = arith.constant 192 : i32 loc(#loc391)
    %tmp53_311 = arith.constant dense<192> : tensor<1024x1xi32> loc(#loc391)
    %tmp53_312 = arith.muli %tmp53_311, %y0_22 : tensor<1024x1xi32> loc(#loc391)
    %tmp53_313 = tt.broadcast %xindex_18 : tensor<1x1xi32> -> tensor<1024x1xi32> loc(#loc392)
    %tmp53_314 = arith.addi %tmp53_313, %tmp53_312 : tensor<1024x1xi32> loc(#loc392)
    %tmp53_315 = arith.constant 196608 : i32 loc(#loc393)
    %tmp53_316 = arith.constant 196608 : i32 loc(#loc393)
    %tmp53_317 = arith.constant dense<196608> : tensor<1024x1xi32> loc(#loc393)
    %tmp53_318 = arith.muli %tmp53_317, %y1_25 : tensor<1024x1xi32> loc(#loc393)
    %tmp53_319 = arith.addi %tmp53_314, %tmp53_318 : tensor<1024x1xi32> loc(#loc394)
    %tmp53_320 = tt.splat %in_ptr11 : !tt.ptr<bf16> -> tensor<1024x1x!tt.ptr<bf16>> loc(#loc395)
    %tmp53_321 = tt.addptr %tmp53_320, %tmp53_319 : tensor<1024x1x!tt.ptr<bf16>>, tensor<1024x1xi32> loc(#loc395)
    %tmp53_322 = tt.broadcast %xmask_19 : tensor<1x1xi1> -> tensor<1024x1xi1> loc(#loc396)
    %tmp53_323 = arith.andi %tmp48_278, %tmp53_322 : tensor<1024x1xi1> loc(#loc396)
    %tmp53_324 = arith.andi %tmp53_323, %ymask_12 : tensor<1024x1xi1> loc(#loc397)
    %tmp53_325 = arith.constant 0.000000e+00 : f32 loc(#loc398)
    %tmp53_326 = arith.constant dense<0.000000e+00> : tensor<1024x1xf32> loc(#loc398)
    %tmp53_327 = arith.truncf %tmp53_326 : tensor<1024x1xf32> to tensor<1024x1xbf16> loc(#loc398)
    %tmp53_328 = tt.load %tmp53_321, %tmp53_324, %tmp53_327 evictionPolicy = evict_last : tensor<1024x1x!tt.ptr<bf16>> loc(#loc398)
    %tmp53_329 = arith.extf %tmp53_328 : tensor<1024x1xbf16> to tensor<1024x1xf32> loc(#loc399)
    %tmp55 = arith.constant 3 : i32 loc(#loc400)
    %tmp55_330 = arith.constant 3 : i32 loc(#loc400)
    %tmp55_331 = arith.constant dense<3> : tensor<1024x1xi32> loc(#loc400)
    %tmp55_332 = arith.muli %tmp55_331, %yindex_11 : tensor<1024x1xi32> loc(#loc400)
    %tmp55_333 = tt.splat %in_ptr3 : !tt.ptr<f32> -> tensor<1024x1x!tt.ptr<f32>> loc(#loc401)
    %tmp55_334 = tt.addptr %tmp55_333, %tmp55_332 : tensor<1024x1x!tt.ptr<f32>>, tensor<1024x1xi32> loc(#loc401)
    %tmp55_335 = tt.broadcast %xmask_19 : tensor<1x1xi1> -> tensor<1024x1xi1> loc(#loc402)
    %tmp55_336 = arith.andi %tmp48_278, %tmp55_335 : tensor<1024x1xi1> loc(#loc402)
    %tmp55_337 = arith.andi %tmp55_336, %ymask_12 : tensor<1024x1xi1> loc(#loc403)
    %tmp55_338 = arith.constant 0.000000e+00 : f32 loc(#loc404)
    %tmp55_339 = arith.constant dense<0.000000e+00> : tensor<1024x1xf32> loc(#loc404)
    %tmp55_340 = tt.load %tmp55_334, %tmp55_337, %tmp55_339 evictionPolicy = evict_last : tensor<1024x1x!tt.ptr<f32>> loc(#loc404)
    %tmp56 = arith.mulf %tmp53_329, %tmp55_340 : tensor<1024x1xf32> loc(#loc405)
    %tmp57 = arith.addf %tmp52, %tmp56 : tensor<1024x1xf32> loc(#loc406)
    %tmp58 = arith.constant 1024 : i32 loc(#loc407)
    %tmp58_341 = arith.constant 1024 : i32 loc(#loc407)
    %tmp58_342 = arith.constant dense<1024> : tensor<1x1xi32> loc(#loc407)
    %tmp58_343 = arith.muli %tmp58_342, %xindex_18 : tensor<1x1xi32> loc(#loc407)
    %tmp58_344 = tt.broadcast %tmp58_343 : tensor<1x1xi32> -> tensor<1024x1xi32> loc(#loc408)
    %tmp58_345 = arith.addi %y0_22, %tmp58_344 : tensor<1024x1xi32> loc(#loc408)
    %tmp58_346 = arith.constant 196608 : i32 loc(#loc409)
    %tmp58_347 = arith.constant 196608 : i32 loc(#loc409)
    %tmp58_348 = arith.constant dense<196608> : tensor<1024x1xi32> loc(#loc409)
    %tmp58_349 = arith.muli %tmp58_348, %y1_25 : tensor<1024x1xi32> loc(#loc409)
    %tmp58_350 = arith.addi %tmp58_345, %tmp58_349 : tensor<1024x1xi32> loc(#loc410)
    %tmp58_351 = tt.splat %in_ptr12 : !tt.ptr<bf16> -> tensor<1024x1x!tt.ptr<bf16>> loc(#loc411)
    %tmp58_352 = tt.addptr %tmp58_351, %tmp58_350 : tensor<1024x1x!tt.ptr<bf16>>, tensor<1024x1xi32> loc(#loc411)
    %tmp58_353 = tt.broadcast %xmask_19 : tensor<1x1xi1> -> tensor<1024x1xi1> loc(#loc412)
    %tmp58_354 = arith.andi %tmp48_278, %tmp58_353 : tensor<1024x1xi1> loc(#loc412)
    %tmp58_355 = arith.andi %tmp58_354, %ymask_12 : tensor<1024x1xi1> loc(#loc413)
    %tmp58_356 = arith.constant 0.000000e+00 : f32 loc(#loc414)
    %tmp58_357 = arith.constant dense<0.000000e+00> : tensor<1024x1xf32> loc(#loc414)
    %tmp58_358 = arith.truncf %tmp58_357 : tensor<1024x1xf32> to tensor<1024x1xbf16> loc(#loc414)
    %tmp58_359 = tt.load %tmp58_352, %tmp58_355, %tmp58_358 evictionPolicy = evict_last : tensor<1024x1x!tt.ptr<bf16>> loc(#loc414)
    %tmp58_360 = arith.extf %tmp58_359 : tensor<1024x1xbf16> to tensor<1024x1xf32> loc(#loc415)
    %tmp60 = arith.addf %tmp57, %tmp58_360 : tensor<1024x1xf32> loc(#loc416)
    %tmp61 = arith.constant 1024 : i32 loc(#loc417)
    %tmp61_361 = arith.constant 1024 : i32 loc(#loc417)
    %tmp61_362 = arith.constant dense<1024> : tensor<1x1xi32> loc(#loc417)
    %tmp61_363 = arith.muli %tmp61_362, %xindex_18 : tensor<1x1xi32> loc(#loc417)
    %tmp61_364 = tt.broadcast %tmp61_363 : tensor<1x1xi32> -> tensor<1024x1xi32> loc(#loc418)
    %tmp61_365 = arith.addi %y0_22, %tmp61_364 : tensor<1024x1xi32> loc(#loc418)
    %tmp61_366 = arith.constant 196608 : i32 loc(#loc419)
    %tmp61_367 = arith.constant 196608 : i32 loc(#loc419)
    %tmp61_368 = arith.constant dense<196608> : tensor<1024x1xi32> loc(#loc419)
    %tmp61_369 = arith.muli %tmp61_368, %y1_25 : tensor<1024x1xi32> loc(#loc419)
    %tmp61_370 = arith.addi %tmp61_365, %tmp61_369 : tensor<1024x1xi32> loc(#loc420)
    %tmp61_371 = tt.splat %in_ptr13 : !tt.ptr<bf16> -> tensor<1024x1x!tt.ptr<bf16>> loc(#loc421)
    %tmp61_372 = tt.addptr %tmp61_371, %tmp61_370 : tensor<1024x1x!tt.ptr<bf16>>, tensor<1024x1xi32> loc(#loc421)
    %tmp61_373 = tt.broadcast %xmask_19 : tensor<1x1xi1> -> tensor<1024x1xi1> loc(#loc422)
    %tmp61_374 = arith.andi %tmp48_278, %tmp61_373 : tensor<1024x1xi1> loc(#loc422)
    %tmp61_375 = arith.andi %tmp61_374, %ymask_12 : tensor<1024x1xi1> loc(#loc423)
    %tmp61_376 = arith.constant 0.000000e+00 : f32 loc(#loc424)
    %tmp61_377 = arith.constant dense<0.000000e+00> : tensor<1024x1xf32> loc(#loc424)
    %tmp61_378 = arith.truncf %tmp61_377 : tensor<1024x1xf32> to tensor<1024x1xbf16> loc(#loc424)
    %tmp61_379 = tt.load %tmp61_372, %tmp61_375, %tmp61_378 evictionPolicy = evict_last : tensor<1024x1x!tt.ptr<bf16>> loc(#loc424)
    %tmp61_380 = arith.extf %tmp61_379 : tensor<1024x1xbf16> to tensor<1024x1xf32> loc(#loc425)
    %tmp63 = arith.addf %tmp60, %tmp61_380 : tensor<1024x1xf32> loc(#loc426)
    %tmp64 = arith.constant 0.000000e+00 : f32 loc(#loc427)
    %tmp64_381 = arith.constant dense<0.000000e+00> : tensor<1024x1xf32> loc(#loc427)
    %tmp65 = arith.select %tmp48_278, %tmp63, %tmp64_381 : tensor<1024x1xi1>, tensor<1024x1xf32> loc(#loc428)
    %tmp66 = arith.constant dense<0.000000e+00> : tensor<1024x1xf32> loc(#loc429)
    %tmp66_382 = arith.select %tmp48_278, %tmp65, %tmp66 : tensor<1024x1xi1>, tensor<1024x1xf32> loc(#loc429)
    %tmp67 = arith.addf %tmp47, %tmp66_382 : tensor<1024x1xf32> loc(#loc430)
    gpu.barrier loc(#loc204)
    %c192_i32 = arith.constant 192 : i32 loc(#loc205)
    %c192_i32_383 = arith.constant 192 : i32 loc(#loc205)
    %cst = arith.constant dense<192> : tensor<1024x1xi32> loc(#loc205)
    %0 = arith.muli %cst, %yindex_11 : tensor<1024x1xi32> loc(#loc205)
    %1 = tt.broadcast %xindex_18 : tensor<1x1xi32> -> tensor<1024x1xi32> loc(#loc206)
    %2 = arith.addi %1, %0 : tensor<1024x1xi32> loc(#loc206)
    %3 = tt.splat %in_out_ptr0 : !tt.ptr<f32> -> tensor<1024x1x!tt.ptr<f32>> loc(#loc207)
    %4 = tt.addptr %3, %2 : tensor<1024x1x!tt.ptr<f32>>, tensor<1024x1xi32> loc(#loc207)
    %5 = tt.broadcast %xmask_19 : tensor<1x1xi1> -> tensor<1024x1xi1> loc(#loc208)
    %6 = arith.andi %5, %ymask_12 : tensor<1024x1xi1> loc(#loc208)
    tt.store %4, %tmp67, %6 : tensor<1024x1x!tt.ptr<f32>> loc(#loc209)
    tt.return loc(#loc210)
  } loc(#loc)
} loc(#loc)
#loc1 = loc("/NHNHOME/WORKSPACE/26msit001_A/jinhyeok/loop_TTT/lact/.cache_inductor_llm/jf/cjf2rymzbzb3gfpmrbchguz4wgt47u5kfubzlu5to7svh6sy6zpl.py":19:13)
#loc2 = loc("/NHNHOME/WORKSPACE/26msit001_A/jinhyeok/loop_TTT/lact/.cache_inductor_llm/jf/cjf2rymzbzb3gfpmrbchguz4wgt47u5kfubzlu5to7svh6sy6zpl.py":20:13)
#loc3 = loc("/NHNHOME/WORKSPACE/26msit001_A/jinhyeok/loop_TTT/lact/.cache_inductor_llm/jf/cjf2rymzbzb3gfpmrbchguz4wgt47u5kfubzlu5to7svh6sy6zpl.py":21:29)
#loc4 = loc("/NHNHOME/WORKSPACE/26msit001_A/jinhyeok/loop_TTT/lact/.cache_inductor_llm/jf/cjf2rymzbzb3gfpmrbchguz4wgt47u5kfubzlu5to7svh6sy6zpl.py":21:48)
#loc5 = loc("/NHNHOME/WORKSPACE/26msit001_A/jinhyeok/loop_TTT/lact/.cache_inductor_llm/jf/cjf2rymzbzb3gfpmrbchguz4wgt47u5kfubzlu5to7svh6sy6zpl.py":21:69)
#loc6 = loc("/NHNHOME/WORKSPACE/26msit001_A/jinhyeok/loop_TTT/lact/.cache_inductor_llm/jf/cjf2rymzbzb3gfpmrbchguz4wgt47u5kfubzlu5to7svh6sy6zpl.py":21:53)
#loc7 = loc("/NHNHOME/WORKSPACE/26msit001_A/jinhyeok/loop_TTT/lact/.cache_inductor_llm/jf/cjf2rymzbzb3gfpmrbchguz4wgt47u5kfubzlu5to7svh6sy6zpl.py":21:34)
#loc8 = loc("/NHNHOME/WORKSPACE/26msit001_A/jinhyeok/loop_TTT/lact/.cache_inductor_llm/jf/cjf2rymzbzb3gfpmrbchguz4wgt47u5kfubzlu5to7svh6sy6zpl.py":21:75)
#loc9 = loc("/NHNHOME/WORKSPACE/26msit001_A/jinhyeok/loop_TTT/lact/.cache_inductor_llm/jf/cjf2rymzbzb3gfpmrbchguz4wgt47u5kfubzlu5to7svh6sy6zpl.py":22:36)
#loc10 = loc("/NHNHOME/WORKSPACE/26msit001_A/jinhyeok/loop_TTT/lact/.cache_inductor_llm/jf/cjf2rymzbzb3gfpmrbchguz4wgt47u5kfubzlu5to7svh6sy6zpl.py":22:44)
#loc11 = loc("/NHNHOME/WORKSPACE/26msit001_A/jinhyeok/loop_TTT/lact/.cache_inductor_llm/jf/cjf2rymzbzb3gfpmrbchguz4wgt47u5kfubzlu5to7svh6sy6zpl.py":22:23)
#loc12 = loc("/NHNHOME/WORKSPACE/26msit001_A/jinhyeok/loop_TTT/lact/.cache_inductor_llm/jf/cjf2rymzbzb3gfpmrbchguz4wgt47u5kfubzlu5to7svh6sy6zpl.py":23:21)
#loc13 = loc("/NHNHOME/WORKSPACE/26msit001_A/jinhyeok/loop_TTT/lact/.cache_inductor_llm/jf/cjf2rymzbzb3gfpmrbchguz4wgt47u5kfubzlu5to7svh6sy6zpl.py":24:28)
#loc14 = loc("/NHNHOME/WORKSPACE/26msit001_A/jinhyeok/loop_TTT/lact/.cache_inductor_llm/jf/cjf2rymzbzb3gfpmrbchguz4wgt47u5kfubzlu5to7svh6sy6zpl.py":24:33)
#loc15 = loc("/NHNHOME/WORKSPACE/26msit001_A/jinhyeok/loop_TTT/lact/.cache_inductor_llm/jf/cjf2rymzbzb3gfpmrbchguz4wgt47u5kfubzlu5to7svh6sy6zpl.py":25:36)
#loc16 = loc("/NHNHOME/WORKSPACE/26msit001_A/jinhyeok/loop_TTT/lact/.cache_inductor_llm/jf/cjf2rymzbzb3gfpmrbchguz4wgt47u5kfubzlu5to7svh6sy6zpl.py":25:44)
#loc17 = loc("/NHNHOME/WORKSPACE/26msit001_A/jinhyeok/loop_TTT/lact/.cache_inductor_llm/jf/cjf2rymzbzb3gfpmrbchguz4wgt47u5kfubzlu5to7svh6sy6zpl.py":25:23)
#loc18 = loc("/NHNHOME/WORKSPACE/26msit001_A/jinhyeok/loop_TTT/lact/.cache_inductor_llm/jf/cjf2rymzbzb3gfpmrbchguz4wgt47u5kfubzlu5to7svh6sy6zpl.py":26:21)
#loc19 = loc("/NHNHOME/WORKSPACE/26msit001_A/jinhyeok/loop_TTT/lact/.cache_inductor_llm/jf/cjf2rymzbzb3gfpmrbchguz4wgt47u5kfubzlu5to7svh6sy6zpl.py":27:19)
#loc20 = loc("/NHNHOME/WORKSPACE/26msit001_A/jinhyeok/loop_TTT/lact/.cache_inductor_llm/jf/cjf2rymzbzb3gfpmrbchguz4wgt47u5kfubzlu5to7svh6sy6zpl.py":29:19)
#loc21 = loc("/NHNHOME/WORKSPACE/26msit001_A/jinhyeok/loop_TTT/lact/.cache_inductor_llm/jf/cjf2rymzbzb3gfpmrbchguz4wgt47u5kfubzlu5to7svh6sy6zpl.py":32:33)
#loc22 = loc("/NHNHOME/WORKSPACE/26msit001_A/jinhyeok/loop_TTT/lact/.cache_inductor_llm/jf/cjf2rymzbzb3gfpmrbchguz4wgt47u5kfubzlu5to7svh6sy6zpl.py":33:19)
#loc23 = loc("/NHNHOME/WORKSPACE/26msit001_A/jinhyeok/loop_TTT/lact/.cache_inductor_llm/jf/cjf2rymzbzb3gfpmrbchguz4wgt47u5kfubzlu5to7svh6sy6zpl.py":34:33)
#loc24 = loc("/NHNHOME/WORKSPACE/26msit001_A/jinhyeok/loop_TTT/lact/.cache_inductor_llm/jf/cjf2rymzbzb3gfpmrbchguz4wgt47u5kfubzlu5to7svh6sy6zpl.py":35:18)
#loc25 = loc("/NHNHOME/WORKSPACE/26msit001_A/jinhyeok/loop_TTT/lact/.cache_inductor_llm/jf/cjf2rymzbzb3gfpmrbchguz4wgt47u5kfubzlu5to7svh6sy6zpl.py":36:18)
#loc26 = loc("/NHNHOME/WORKSPACE/26msit001_A/jinhyeok/loop_TTT/lact/.cache_inductor_llm/jf/cjf2rymzbzb3gfpmrbchguz4wgt47u5kfubzlu5to7svh6sy6zpl.py":37:42)
#loc27 = loc("/NHNHOME/WORKSPACE/26msit001_A/jinhyeok/loop_TTT/lact/.cache_inductor_llm/jf/cjf2rymzbzb3gfpmrbchguz4wgt47u5kfubzlu5to7svh6sy6zpl.py":37:51)
#loc28 = loc("/NHNHOME/WORKSPACE/26msit001_A/jinhyeok/loop_TTT/lact/.cache_inductor_llm/jf/cjf2rymzbzb3gfpmrbchguz4wgt47u5kfubzlu5to7svh6sy6zpl.py":37:47)
#loc29 = loc("/NHNHOME/WORKSPACE/26msit001_A/jinhyeok/loop_TTT/lact/.cache_inductor_llm/jf/cjf2rymzbzb3gfpmrbchguz4wgt47u5kfubzlu5to7svh6sy6zpl.py":37:63)
#loc30 = loc("/NHNHOME/WORKSPACE/26msit001_A/jinhyeok/loop_TTT/lact/.cache_inductor_llm/jf/cjf2rymzbzb3gfpmrbchguz4wgt47u5kfubzlu5to7svh6sy6zpl.py":37:56)
#loc31 = loc("/NHNHOME/WORKSPACE/26msit001_A/jinhyeok/loop_TTT/lact/.cache_inductor_llm/jf/cjf2rymzbzb3gfpmrbchguz4wgt47u5kfubzlu5to7svh6sy6zpl.py":37:30)
#loc32 = loc("/NHNHOME/WORKSPACE/26msit001_A/jinhyeok/loop_TTT/lact/.cache_inductor_llm/jf/cjf2rymzbzb3gfpmrbchguz4wgt47u5kfubzlu5to7svh6sy6zpl.py":37:75)
#loc33 = loc("/NHNHOME/WORKSPACE/26msit001_A/jinhyeok/loop_TTT/lact/.cache_inductor_llm/jf/cjf2rymzbzb3gfpmrbchguz4wgt47u5kfubzlu5to7svh6sy6zpl.py":37:83)
#loc34 = loc("/NHNHOME/WORKSPACE/26msit001_A/jinhyeok/loop_TTT/lact/.cache_inductor_llm/jf/cjf2rymzbzb3gfpmrbchguz4wgt47u5kfubzlu5to7svh6sy6zpl.py":37:68)
#loc35 = loc("/NHNHOME/WORKSPACE/26msit001_A/jinhyeok/loop_TTT/lact/.cache_inductor_llm/jf/cjf2rymzbzb3gfpmrbchguz4wgt47u5kfubzlu5to7svh6sy6zpl.py":37:134)
#loc36 = loc("/NHNHOME/WORKSPACE/26msit001_A/jinhyeok/loop_TTT/lact/.cache_inductor_llm/jf/cjf2rymzbzb3gfpmrbchguz4wgt47u5kfubzlu5to7svh6sy6zpl.py":39:48)
#loc37 = loc("/NHNHOME/WORKSPACE/26msit001_A/jinhyeok/loop_TTT/lact/.cache_inductor_llm/jf/cjf2rymzbzb3gfpmrbchguz4wgt47u5kfubzlu5to7svh6sy6zpl.py":39:30)
#loc38 = loc("/NHNHOME/WORKSPACE/26msit001_A/jinhyeok/loop_TTT/lact/.cache_inductor_llm/jf/cjf2rymzbzb3gfpmrbchguz4wgt47u5kfubzlu5to7svh6sy6zpl.py":39:79)
#loc39 = loc("/NHNHOME/WORKSPACE/26msit001_A/jinhyeok/loop_TTT/lact/.cache_inductor_llm/jf/cjf2rymzbzb3gfpmrbchguz4wgt47u5kfubzlu5to7svh6sy6zpl.py":39:87)
#loc40 = loc("/NHNHOME/WORKSPACE/26msit001_A/jinhyeok/loop_TTT/lact/.cache_inductor_llm/jf/cjf2rymzbzb3gfpmrbchguz4wgt47u5kfubzlu5to7svh6sy6zpl.py":39:72)
#loc41 = loc("/NHNHOME/WORKSPACE/26msit001_A/jinhyeok/loop_TTT/lact/.cache_inductor_llm/jf/cjf2rymzbzb3gfpmrbchguz4wgt47u5kfubzlu5to7svh6sy6zpl.py":40:18)
#loc42 = loc("/NHNHOME/WORKSPACE/26msit001_A/jinhyeok/loop_TTT/lact/.cache_inductor_llm/jf/cjf2rymzbzb3gfpmrbchguz4wgt47u5kfubzlu5to7svh6sy6zpl.py":41:43)
#loc43 = loc("/NHNHOME/WORKSPACE/26msit001_A/jinhyeok/loop_TTT/lact/.cache_inductor_llm/jf/cjf2rymzbzb3gfpmrbchguz4wgt47u5kfubzlu5to7svh6sy6zpl.py":41:52)
#loc44 = loc("/NHNHOME/WORKSPACE/26msit001_A/jinhyeok/loop_TTT/lact/.cache_inductor_llm/jf/cjf2rymzbzb3gfpmrbchguz4wgt47u5kfubzlu5to7svh6sy6zpl.py":41:48)
#loc45 = loc("/NHNHOME/WORKSPACE/26msit001_A/jinhyeok/loop_TTT/lact/.cache_inductor_llm/jf/cjf2rymzbzb3gfpmrbchguz4wgt47u5kfubzlu5to7svh6sy6zpl.py":41:64)
#loc46 = loc("/NHNHOME/WORKSPACE/26msit001_A/jinhyeok/loop_TTT/lact/.cache_inductor_llm/jf/cjf2rymzbzb3gfpmrbchguz4wgt47u5kfubzlu5to7svh6sy6zpl.py":41:57)
#loc47 = loc("/NHNHOME/WORKSPACE/26msit001_A/jinhyeok/loop_TTT/lact/.cache_inductor_llm/jf/cjf2rymzbzb3gfpmrbchguz4wgt47u5kfubzlu5to7svh6sy6zpl.py":41:31)
#loc48 = loc("/NHNHOME/WORKSPACE/26msit001_A/jinhyeok/loop_TTT/lact/.cache_inductor_llm/jf/cjf2rymzbzb3gfpmrbchguz4wgt47u5kfubzlu5to7svh6sy6zpl.py":41:76)
#loc49 = loc("/NHNHOME/WORKSPACE/26msit001_A/jinhyeok/loop_TTT/lact/.cache_inductor_llm/jf/cjf2rymzbzb3gfpmrbchguz4wgt47u5kfubzlu5to7svh6sy6zpl.py":41:84)
#loc50 = loc("/NHNHOME/WORKSPACE/26msit001_A/jinhyeok/loop_TTT/lact/.cache_inductor_llm/jf/cjf2rymzbzb3gfpmrbchguz4wgt47u5kfubzlu5to7svh6sy6zpl.py":41:69)
#loc51 = loc("/NHNHOME/WORKSPACE/26msit001_A/jinhyeok/loop_TTT/lact/.cache_inductor_llm/jf/cjf2rymzbzb3gfpmrbchguz4wgt47u5kfubzlu5to7svh6sy6zpl.py":41:135)
#loc52 = loc("/NHNHOME/WORKSPACE/26msit001_A/jinhyeok/loop_TTT/lact/.cache_inductor_llm/jf/cjf2rymzbzb3gfpmrbchguz4wgt47u5kfubzlu5to7svh6sy6zpl.py":43:49)
#loc53 = loc("/NHNHOME/WORKSPACE/26msit001_A/jinhyeok/loop_TTT/lact/.cache_inductor_llm/jf/cjf2rymzbzb3gfpmrbchguz4wgt47u5kfubzlu5to7svh6sy6zpl.py":43:31)
#loc54 = loc("/NHNHOME/WORKSPACE/26msit001_A/jinhyeok/loop_TTT/lact/.cache_inductor_llm/jf/cjf2rymzbzb3gfpmrbchguz4wgt47u5kfubzlu5to7svh6sy6zpl.py":43:80)
#loc55 = loc("/NHNHOME/WORKSPACE/26msit001_A/jinhyeok/loop_TTT/lact/.cache_inductor_llm/jf/cjf2rymzbzb3gfpmrbchguz4wgt47u5kfubzlu5to7svh6sy6zpl.py":43:88)
#loc56 = loc("/NHNHOME/WORKSPACE/26msit001_A/jinhyeok/loop_TTT/lact/.cache_inductor_llm/jf/cjf2rymzbzb3gfpmrbchguz4wgt47u5kfubzlu5to7svh6sy6zpl.py":43:73)
#loc57 = loc("/NHNHOME/WORKSPACE/26msit001_A/jinhyeok/loop_TTT/lact/.cache_inductor_llm/jf/cjf2rymzbzb3gfpmrbchguz4wgt47u5kfubzlu5to7svh6sy6zpl.py":44:20)
#loc58 = loc("/NHNHOME/WORKSPACE/26msit001_A/jinhyeok/loop_TTT/lact/.cache_inductor_llm/jf/cjf2rymzbzb3gfpmrbchguz4wgt47u5kfubzlu5to7svh6sy6zpl.py":45:19)
#loc59 = loc("/NHNHOME/WORKSPACE/26msit001_A/jinhyeok/loop_TTT/lact/.cache_inductor_llm/jf/cjf2rymzbzb3gfpmrbchguz4wgt47u5kfubzlu5to7svh6sy6zpl.py":46:41)
#loc60 = loc("/NHNHOME/WORKSPACE/26msit001_A/jinhyeok/loop_TTT/lact/.cache_inductor_llm/jf/cjf2rymzbzb3gfpmrbchguz4wgt47u5kfubzlu5to7svh6sy6zpl.py":46:51)
#loc61 = loc("/NHNHOME/WORKSPACE/26msit001_A/jinhyeok/loop_TTT/lact/.cache_inductor_llm/jf/cjf2rymzbzb3gfpmrbchguz4wgt47u5kfubzlu5to7svh6sy6zpl.py":46:46)
#loc62 = loc("/NHNHOME/WORKSPACE/26msit001_A/jinhyeok/loop_TTT/lact/.cache_inductor_llm/jf/cjf2rymzbzb3gfpmrbchguz4wgt47u5kfubzlu5to7svh6sy6zpl.py":46:63)
#loc63 = loc("/NHNHOME/WORKSPACE/26msit001_A/jinhyeok/loop_TTT/lact/.cache_inductor_llm/jf/cjf2rymzbzb3gfpmrbchguz4wgt47u5kfubzlu5to7svh6sy6zpl.py":46:56)
#loc64 = loc("/NHNHOME/WORKSPACE/26msit001_A/jinhyeok/loop_TTT/lact/.cache_inductor_llm/jf/cjf2rymzbzb3gfpmrbchguz4wgt47u5kfubzlu5to7svh6sy6zpl.py":46:31)
#loc65 = loc("/NHNHOME/WORKSPACE/26msit001_A/jinhyeok/loop_TTT/lact/.cache_inductor_llm/jf/cjf2rymzbzb3gfpmrbchguz4wgt47u5kfubzlu5to7svh6sy6zpl.py":46:75)
#loc66 = loc("/NHNHOME/WORKSPACE/26msit001_A/jinhyeok/loop_TTT/lact/.cache_inductor_llm/jf/cjf2rymzbzb3gfpmrbchguz4wgt47u5kfubzlu5to7svh6sy6zpl.py":46:83)
#loc67 = loc("/NHNHOME/WORKSPACE/26msit001_A/jinhyeok/loop_TTT/lact/.cache_inductor_llm/jf/cjf2rymzbzb3gfpmrbchguz4wgt47u5kfubzlu5to7svh6sy6zpl.py":46:68)
#loc68 = loc("/NHNHOME/WORKSPACE/26msit001_A/jinhyeok/loop_TTT/lact/.cache_inductor_llm/jf/cjf2rymzbzb3gfpmrbchguz4wgt47u5kfubzlu5to7svh6sy6zpl.py":46:134)
#loc69 = loc("/NHNHOME/WORKSPACE/26msit001_A/jinhyeok/loop_TTT/lact/.cache_inductor_llm/jf/cjf2rymzbzb3gfpmrbchguz4wgt47u5kfubzlu5to7svh6sy6zpl.py":48:20)
#loc70 = loc("/NHNHOME/WORKSPACE/26msit001_A/jinhyeok/loop_TTT/lact/.cache_inductor_llm/jf/cjf2rymzbzb3gfpmrbchguz4wgt47u5kfubzlu5to7svh6sy6zpl.py":49:41)
#loc71 = loc("/NHNHOME/WORKSPACE/26msit001_A/jinhyeok/loop_TTT/lact/.cache_inductor_llm/jf/cjf2rymzbzb3gfpmrbchguz4wgt47u5kfubzlu5to7svh6sy6zpl.py":49:51)
#loc72 = loc("/NHNHOME/WORKSPACE/26msit001_A/jinhyeok/loop_TTT/lact/.cache_inductor_llm/jf/cjf2rymzbzb3gfpmrbchguz4wgt47u5kfubzlu5to7svh6sy6zpl.py":49:46)
#loc73 = loc("/NHNHOME/WORKSPACE/26msit001_A/jinhyeok/loop_TTT/lact/.cache_inductor_llm/jf/cjf2rymzbzb3gfpmrbchguz4wgt47u5kfubzlu5to7svh6sy6zpl.py":49:63)
#loc74 = loc("/NHNHOME/WORKSPACE/26msit001_A/jinhyeok/loop_TTT/lact/.cache_inductor_llm/jf/cjf2rymzbzb3gfpmrbchguz4wgt47u5kfubzlu5to7svh6sy6zpl.py":49:56)
#loc75 = loc("/NHNHOME/WORKSPACE/26msit001_A/jinhyeok/loop_TTT/lact/.cache_inductor_llm/jf/cjf2rymzbzb3gfpmrbchguz4wgt47u5kfubzlu5to7svh6sy6zpl.py":49:31)
#loc76 = loc("/NHNHOME/WORKSPACE/26msit001_A/jinhyeok/loop_TTT/lact/.cache_inductor_llm/jf/cjf2rymzbzb3gfpmrbchguz4wgt47u5kfubzlu5to7svh6sy6zpl.py":49:75)
#loc77 = loc("/NHNHOME/WORKSPACE/26msit001_A/jinhyeok/loop_TTT/lact/.cache_inductor_llm/jf/cjf2rymzbzb3gfpmrbchguz4wgt47u5kfubzlu5to7svh6sy6zpl.py":49:83)
#loc78 = loc("/NHNHOME/WORKSPACE/26msit001_A/jinhyeok/loop_TTT/lact/.cache_inductor_llm/jf/cjf2rymzbzb3gfpmrbchguz4wgt47u5kfubzlu5to7svh6sy6zpl.py":49:68)
#loc79 = loc("/NHNHOME/WORKSPACE/26msit001_A/jinhyeok/loop_TTT/lact/.cache_inductor_llm/jf/cjf2rymzbzb3gfpmrbchguz4wgt47u5kfubzlu5to7svh6sy6zpl.py":49:134)
#loc80 = loc("/NHNHOME/WORKSPACE/26msit001_A/jinhyeok/loop_TTT/lact/.cache_inductor_llm/jf/cjf2rymzbzb3gfpmrbchguz4wgt47u5kfubzlu5to7svh6sy6zpl.py":51:20)
#loc81 = loc("/NHNHOME/WORKSPACE/26msit001_A/jinhyeok/loop_TTT/lact/.cache_inductor_llm/jf/cjf2rymzbzb3gfpmrbchguz4wgt47u5kfubzlu5to7svh6sy6zpl.py":52:38)
#loc82 = loc("/NHNHOME/WORKSPACE/26msit001_A/jinhyeok/loop_TTT/lact/.cache_inductor_llm/jf/cjf2rymzbzb3gfpmrbchguz4wgt47u5kfubzlu5to7svh6sy6zpl.py":53:34)
#loc83 = loc("/NHNHOME/WORKSPACE/26msit001_A/jinhyeok/loop_TTT/lact/.cache_inductor_llm/jf/cjf2rymzbzb3gfpmrbchguz4wgt47u5kfubzlu5to7svh6sy6zpl.py":54:12)
#loc84 = loc("/NHNHOME/WORKSPACE/26msit001_A/jinhyeok/loop_TTT/lact/.cache_inductor_llm/jf/cjf2rymzbzb3gfpmrbchguz4wgt47u5kfubzlu5to7svh6sy6zpl.py":55:34)
#loc85 = loc("/NHNHOME/WORKSPACE/26msit001_A/jinhyeok/loop_TTT/lact/.cache_inductor_llm/jf/cjf2rymzbzb3gfpmrbchguz4wgt47u5kfubzlu5to7svh6sy6zpl.py":56:34)
#loc86 = loc("/NHNHOME/WORKSPACE/26msit001_A/jinhyeok/loop_TTT/lact/.cache_inductor_llm/jf/cjf2rymzbzb3gfpmrbchguz4wgt47u5kfubzlu5to7svh6sy6zpl.py":57:20)
#loc87 = loc("/NHNHOME/WORKSPACE/26msit001_A/jinhyeok/loop_TTT/lact/.cache_inductor_llm/jf/cjf2rymzbzb3gfpmrbchguz4wgt47u5kfubzlu5to7svh6sy6zpl.py":58:19)
#loc88 = loc("/NHNHOME/WORKSPACE/26msit001_A/jinhyeok/loop_TTT/lact/.cache_inductor_llm/jf/cjf2rymzbzb3gfpmrbchguz4wgt47u5kfubzlu5to7svh6sy6zpl.py":59:20)
#loc89 = loc("/NHNHOME/WORKSPACE/26msit001_A/jinhyeok/loop_TTT/lact/.cache_inductor_llm/jf/cjf2rymzbzb3gfpmrbchguz4wgt47u5kfubzlu5to7svh6sy6zpl.py":60:43)
#loc90 = loc("/NHNHOME/WORKSPACE/26msit001_A/jinhyeok/loop_TTT/lact/.cache_inductor_llm/jf/cjf2rymzbzb3gfpmrbchguz4wgt47u5kfubzlu5to7svh6sy6zpl.py":60:52)
#loc91 = loc("/NHNHOME/WORKSPACE/26msit001_A/jinhyeok/loop_TTT/lact/.cache_inductor_llm/jf/cjf2rymzbzb3gfpmrbchguz4wgt47u5kfubzlu5to7svh6sy6zpl.py":60:48)
#loc92 = loc("/NHNHOME/WORKSPACE/26msit001_A/jinhyeok/loop_TTT/lact/.cache_inductor_llm/jf/cjf2rymzbzb3gfpmrbchguz4wgt47u5kfubzlu5to7svh6sy6zpl.py":60:64)
#loc93 = loc("/NHNHOME/WORKSPACE/26msit001_A/jinhyeok/loop_TTT/lact/.cache_inductor_llm/jf/cjf2rymzbzb3gfpmrbchguz4wgt47u5kfubzlu5to7svh6sy6zpl.py":60:57)
#loc94 = loc("/NHNHOME/WORKSPACE/26msit001_A/jinhyeok/loop_TTT/lact/.cache_inductor_llm/jf/cjf2rymzbzb3gfpmrbchguz4wgt47u5kfubzlu5to7svh6sy6zpl.py":60:31)
#loc95 = loc("/NHNHOME/WORKSPACE/26msit001_A/jinhyeok/loop_TTT/lact/.cache_inductor_llm/jf/cjf2rymzbzb3gfpmrbchguz4wgt47u5kfubzlu5to7svh6sy6zpl.py":60:77)
#loc96 = loc("/NHNHOME/WORKSPACE/26msit001_A/jinhyeok/loop_TTT/lact/.cache_inductor_llm/jf/cjf2rymzbzb3gfpmrbchguz4wgt47u5kfubzlu5to7svh6sy6zpl.py":60:85)
#loc97 = loc("/NHNHOME/WORKSPACE/26msit001_A/jinhyeok/loop_TTT/lact/.cache_inductor_llm/jf/cjf2rymzbzb3gfpmrbchguz4wgt47u5kfubzlu5to7svh6sy6zpl.py":60:69)
#loc98 = loc("/NHNHOME/WORKSPACE/26msit001_A/jinhyeok/loop_TTT/lact/.cache_inductor_llm/jf/cjf2rymzbzb3gfpmrbchguz4wgt47u5kfubzlu5to7svh6sy6zpl.py":60:136)
#loc99 = loc("/NHNHOME/WORKSPACE/26msit001_A/jinhyeok/loop_TTT/lact/.cache_inductor_llm/jf/cjf2rymzbzb3gfpmrbchguz4wgt47u5kfubzlu5to7svh6sy6zpl.py":62:49)
#loc100 = loc("/NHNHOME/WORKSPACE/26msit001_A/jinhyeok/loop_TTT/lact/.cache_inductor_llm/jf/cjf2rymzbzb3gfpmrbchguz4wgt47u5kfubzlu5to7svh6sy6zpl.py":62:31)
#loc101 = loc("/NHNHOME/WORKSPACE/26msit001_A/jinhyeok/loop_TTT/lact/.cache_inductor_llm/jf/cjf2rymzbzb3gfpmrbchguz4wgt47u5kfubzlu5to7svh6sy6zpl.py":62:81)
#loc102 = loc("/NHNHOME/WORKSPACE/26msit001_A/jinhyeok/loop_TTT/lact/.cache_inductor_llm/jf/cjf2rymzbzb3gfpmrbchguz4wgt47u5kfubzlu5to7svh6sy6zpl.py":62:89)
#loc103 = loc("/NHNHOME/WORKSPACE/26msit001_A/jinhyeok/loop_TTT/lact/.cache_inductor_llm/jf/cjf2rymzbzb3gfpmrbchguz4wgt47u5kfubzlu5to7svh6sy6zpl.py":62:73)
#loc104 = loc("/NHNHOME/WORKSPACE/26msit001_A/jinhyeok/loop_TTT/lact/.cache_inductor_llm/jf/cjf2rymzbzb3gfpmrbchguz4wgt47u5kfubzlu5to7svh6sy6zpl.py":63:20)
#loc105 = loc("/NHNHOME/WORKSPACE/26msit001_A/jinhyeok/loop_TTT/lact/.cache_inductor_llm/jf/cjf2rymzbzb3gfpmrbchguz4wgt47u5kfubzlu5to7svh6sy6zpl.py":64:43)
#loc106 = loc("/NHNHOME/WORKSPACE/26msit001_A/jinhyeok/loop_TTT/lact/.cache_inductor_llm/jf/cjf2rymzbzb3gfpmrbchguz4wgt47u5kfubzlu5to7svh6sy6zpl.py":64:52)
#loc107 = loc("/NHNHOME/WORKSPACE/26msit001_A/jinhyeok/loop_TTT/lact/.cache_inductor_llm/jf/cjf2rymzbzb3gfpmrbchguz4wgt47u5kfubzlu5to7svh6sy6zpl.py":64:48)
#loc108 = loc("/NHNHOME/WORKSPACE/26msit001_A/jinhyeok/loop_TTT/lact/.cache_inductor_llm/jf/cjf2rymzbzb3gfpmrbchguz4wgt47u5kfubzlu5to7svh6sy6zpl.py":64:64)
#loc109 = loc("/NHNHOME/WORKSPACE/26msit001_A/jinhyeok/loop_TTT/lact/.cache_inductor_llm/jf/cjf2rymzbzb3gfpmrbchguz4wgt47u5kfubzlu5to7svh6sy6zpl.py":64:57)
#loc110 = loc("/NHNHOME/WORKSPACE/26msit001_A/jinhyeok/loop_TTT/lact/.cache_inductor_llm/jf/cjf2rymzbzb3gfpmrbchguz4wgt47u5kfubzlu5to7svh6sy6zpl.py":64:31)
#loc111 = loc("/NHNHOME/WORKSPACE/26msit001_A/jinhyeok/loop_TTT/lact/.cache_inductor_llm/jf/cjf2rymzbzb3gfpmrbchguz4wgt47u5kfubzlu5to7svh6sy6zpl.py":64:77)
#loc112 = loc("/NHNHOME/WORKSPACE/26msit001_A/jinhyeok/loop_TTT/lact/.cache_inductor_llm/jf/cjf2rymzbzb3gfpmrbchguz4wgt47u5kfubzlu5to7svh6sy6zpl.py":64:85)
#loc113 = loc("/NHNHOME/WORKSPACE/26msit001_A/jinhyeok/loop_TTT/lact/.cache_inductor_llm/jf/cjf2rymzbzb3gfpmrbchguz4wgt47u5kfubzlu5to7svh6sy6zpl.py":64:69)
#loc114 = loc("/NHNHOME/WORKSPACE/26msit001_A/jinhyeok/loop_TTT/lact/.cache_inductor_llm/jf/cjf2rymzbzb3gfpmrbchguz4wgt47u5kfubzlu5to7svh6sy6zpl.py":64:136)
#loc115 = loc("/NHNHOME/WORKSPACE/26msit001_A/jinhyeok/loop_TTT/lact/.cache_inductor_llm/jf/cjf2rymzbzb3gfpmrbchguz4wgt47u5kfubzlu5to7svh6sy6zpl.py":66:49)
#loc116 = loc("/NHNHOME/WORKSPACE/26msit001_A/jinhyeok/loop_TTT/lact/.cache_inductor_llm/jf/cjf2rymzbzb3gfpmrbchguz4wgt47u5kfubzlu5to7svh6sy6zpl.py":66:31)
#loc117 = loc("/NHNHOME/WORKSPACE/26msit001_A/jinhyeok/loop_TTT/lact/.cache_inductor_llm/jf/cjf2rymzbzb3gfpmrbchguz4wgt47u5kfubzlu5to7svh6sy6zpl.py":66:81)
#loc118 = loc("/NHNHOME/WORKSPACE/26msit001_A/jinhyeok/loop_TTT/lact/.cache_inductor_llm/jf/cjf2rymzbzb3gfpmrbchguz4wgt47u5kfubzlu5to7svh6sy6zpl.py":66:89)
#loc119 = loc("/NHNHOME/WORKSPACE/26msit001_A/jinhyeok/loop_TTT/lact/.cache_inductor_llm/jf/cjf2rymzbzb3gfpmrbchguz4wgt47u5kfubzlu5to7svh6sy6zpl.py":66:73)
#loc120 = loc("/NHNHOME/WORKSPACE/26msit001_A/jinhyeok/loop_TTT/lact/.cache_inductor_llm/jf/cjf2rymzbzb3gfpmrbchguz4wgt47u5kfubzlu5to7svh6sy6zpl.py":67:20)
#loc121 = loc("/NHNHOME/WORKSPACE/26msit001_A/jinhyeok/loop_TTT/lact/.cache_inductor_llm/jf/cjf2rymzbzb3gfpmrbchguz4wgt47u5kfubzlu5to7svh6sy6zpl.py":68:20)
#loc122 = loc("/NHNHOME/WORKSPACE/26msit001_A/jinhyeok/loop_TTT/lact/.cache_inductor_llm/jf/cjf2rymzbzb3gfpmrbchguz4wgt47u5kfubzlu5to7svh6sy6zpl.py":69:41)
#loc123 = loc("/NHNHOME/WORKSPACE/26msit001_A/jinhyeok/loop_TTT/lact/.cache_inductor_llm/jf/cjf2rymzbzb3gfpmrbchguz4wgt47u5kfubzlu5to7svh6sy6zpl.py":69:51)
#loc124 = loc("/NHNHOME/WORKSPACE/26msit001_A/jinhyeok/loop_TTT/lact/.cache_inductor_llm/jf/cjf2rymzbzb3gfpmrbchguz4wgt47u5kfubzlu5to7svh6sy6zpl.py":69:46)
#loc125 = loc("/NHNHOME/WORKSPACE/26msit001_A/jinhyeok/loop_TTT/lact/.cache_inductor_llm/jf/cjf2rymzbzb3gfpmrbchguz4wgt47u5kfubzlu5to7svh6sy6zpl.py":69:63)
#loc126 = loc("/NHNHOME/WORKSPACE/26msit001_A/jinhyeok/loop_TTT/lact/.cache_inductor_llm/jf/cjf2rymzbzb3gfpmrbchguz4wgt47u5kfubzlu5to7svh6sy6zpl.py":69:56)
#loc127 = loc("/NHNHOME/WORKSPACE/26msit001_A/jinhyeok/loop_TTT/lact/.cache_inductor_llm/jf/cjf2rymzbzb3gfpmrbchguz4wgt47u5kfubzlu5to7svh6sy6zpl.py":69:31)
#loc128 = loc("/NHNHOME/WORKSPACE/26msit001_A/jinhyeok/loop_TTT/lact/.cache_inductor_llm/jf/cjf2rymzbzb3gfpmrbchguz4wgt47u5kfubzlu5to7svh6sy6zpl.py":69:76)
#loc129 = loc("/NHNHOME/WORKSPACE/26msit001_A/jinhyeok/loop_TTT/lact/.cache_inductor_llm/jf/cjf2rymzbzb3gfpmrbchguz4wgt47u5kfubzlu5to7svh6sy6zpl.py":69:84)
#loc130 = loc("/NHNHOME/WORKSPACE/26msit001_A/jinhyeok/loop_TTT/lact/.cache_inductor_llm/jf/cjf2rymzbzb3gfpmrbchguz4wgt47u5kfubzlu5to7svh6sy6zpl.py":69:68)
#loc131 = loc("/NHNHOME/WORKSPACE/26msit001_A/jinhyeok/loop_TTT/lact/.cache_inductor_llm/jf/cjf2rymzbzb3gfpmrbchguz4wgt47u5kfubzlu5to7svh6sy6zpl.py":69:135)
#loc132 = loc("/NHNHOME/WORKSPACE/26msit001_A/jinhyeok/loop_TTT/lact/.cache_inductor_llm/jf/cjf2rymzbzb3gfpmrbchguz4wgt47u5kfubzlu5to7svh6sy6zpl.py":71:20)
#loc133 = loc("/NHNHOME/WORKSPACE/26msit001_A/jinhyeok/loop_TTT/lact/.cache_inductor_llm/jf/cjf2rymzbzb3gfpmrbchguz4wgt47u5kfubzlu5to7svh6sy6zpl.py":72:41)
#loc134 = loc("/NHNHOME/WORKSPACE/26msit001_A/jinhyeok/loop_TTT/lact/.cache_inductor_llm/jf/cjf2rymzbzb3gfpmrbchguz4wgt47u5kfubzlu5to7svh6sy6zpl.py":72:51)
#loc135 = loc("/NHNHOME/WORKSPACE/26msit001_A/jinhyeok/loop_TTT/lact/.cache_inductor_llm/jf/cjf2rymzbzb3gfpmrbchguz4wgt47u5kfubzlu5to7svh6sy6zpl.py":72:46)
#loc136 = loc("/NHNHOME/WORKSPACE/26msit001_A/jinhyeok/loop_TTT/lact/.cache_inductor_llm/jf/cjf2rymzbzb3gfpmrbchguz4wgt47u5kfubzlu5to7svh6sy6zpl.py":72:63)
#loc137 = loc("/NHNHOME/WORKSPACE/26msit001_A/jinhyeok/loop_TTT/lact/.cache_inductor_llm/jf/cjf2rymzbzb3gfpmrbchguz4wgt47u5kfubzlu5to7svh6sy6zpl.py":72:56)
#loc138 = loc("/NHNHOME/WORKSPACE/26msit001_A/jinhyeok/loop_TTT/lact/.cache_inductor_llm/jf/cjf2rymzbzb3gfpmrbchguz4wgt47u5kfubzlu5to7svh6sy6zpl.py":72:31)
#loc139 = loc("/NHNHOME/WORKSPACE/26msit001_A/jinhyeok/loop_TTT/lact/.cache_inductor_llm/jf/cjf2rymzbzb3gfpmrbchguz4wgt47u5kfubzlu5to7svh6sy6zpl.py":72:76)
#loc140 = loc("/NHNHOME/WORKSPACE/26msit001_A/jinhyeok/loop_TTT/lact/.cache_inductor_llm/jf/cjf2rymzbzb3gfpmrbchguz4wgt47u5kfubzlu5to7svh6sy6zpl.py":72:84)
#loc141 = loc("/NHNHOME/WORKSPACE/26msit001_A/jinhyeok/loop_TTT/lact/.cache_inductor_llm/jf/cjf2rymzbzb3gfpmrbchguz4wgt47u5kfubzlu5to7svh6sy6zpl.py":72:68)
#loc142 = loc("/NHNHOME/WORKSPACE/26msit001_A/jinhyeok/loop_TTT/lact/.cache_inductor_llm/jf/cjf2rymzbzb3gfpmrbchguz4wgt47u5kfubzlu5to7svh6sy6zpl.py":72:135)
#loc143 = loc("/NHNHOME/WORKSPACE/26msit001_A/jinhyeok/loop_TTT/lact/.cache_inductor_llm/jf/cjf2rymzbzb3gfpmrbchguz4wgt47u5kfubzlu5to7svh6sy6zpl.py":74:20)
#loc144 = loc("/NHNHOME/WORKSPACE/26msit001_A/jinhyeok/loop_TTT/lact/.cache_inductor_llm/jf/cjf2rymzbzb3gfpmrbchguz4wgt47u5kfubzlu5to7svh6sy6zpl.py":75:38)
#loc145 = loc("/NHNHOME/WORKSPACE/26msit001_A/jinhyeok/loop_TTT/lact/.cache_inductor_llm/jf/cjf2rymzbzb3gfpmrbchguz4wgt47u5kfubzlu5to7svh6sy6zpl.py":76:35)
#loc146 = loc("/NHNHOME/WORKSPACE/26msit001_A/jinhyeok/loop_TTT/lact/.cache_inductor_llm/jf/cjf2rymzbzb3gfpmrbchguz4wgt47u5kfubzlu5to7svh6sy6zpl.py":77:35)
#loc147 = loc("/NHNHOME/WORKSPACE/26msit001_A/jinhyeok/loop_TTT/lact/.cache_inductor_llm/jf/cjf2rymzbzb3gfpmrbchguz4wgt47u5kfubzlu5to7svh6sy6zpl.py":78:20)
#loc148 = loc("/NHNHOME/WORKSPACE/26msit001_A/jinhyeok/loop_TTT/lact/.cache_inductor_llm/jf/cjf2rymzbzb3gfpmrbchguz4wgt47u5kfubzlu5to7svh6sy6zpl.py":79:19)
#loc149 = loc("/NHNHOME/WORKSPACE/26msit001_A/jinhyeok/loop_TTT/lact/.cache_inductor_llm/jf/cjf2rymzbzb3gfpmrbchguz4wgt47u5kfubzlu5to7svh6sy6zpl.py":80:41)
#loc150 = loc("/NHNHOME/WORKSPACE/26msit001_A/jinhyeok/loop_TTT/lact/.cache_inductor_llm/jf/cjf2rymzbzb3gfpmrbchguz4wgt47u5kfubzlu5to7svh6sy6zpl.py":80:37)
#loc151 = loc("/NHNHOME/WORKSPACE/26msit001_A/jinhyeok/loop_TTT/lact/.cache_inductor_llm/jf/cjf2rymzbzb3gfpmrbchguz4wgt47u5kfubzlu5to7svh6sy6zpl.py":80:53)
#loc152 = loc("/NHNHOME/WORKSPACE/26msit001_A/jinhyeok/loop_TTT/lact/.cache_inductor_llm/jf/cjf2rymzbzb3gfpmrbchguz4wgt47u5kfubzlu5to7svh6sy6zpl.py":80:46)
#loc153 = loc("/NHNHOME/WORKSPACE/26msit001_A/jinhyeok/loop_TTT/lact/.cache_inductor_llm/jf/cjf2rymzbzb3gfpmrbchguz4wgt47u5kfubzlu5to7svh6sy6zpl.py":80:32)
#loc154 = loc("/NHNHOME/WORKSPACE/26msit001_A/jinhyeok/loop_TTT/lact/.cache_inductor_llm/jf/cjf2rymzbzb3gfpmrbchguz4wgt47u5kfubzlu5to7svh6sy6zpl.py":80:66)
#loc155 = loc("/NHNHOME/WORKSPACE/26msit001_A/jinhyeok/loop_TTT/lact/.cache_inductor_llm/jf/cjf2rymzbzb3gfpmrbchguz4wgt47u5kfubzlu5to7svh6sy6zpl.py":80:74)
#loc156 = loc("/NHNHOME/WORKSPACE/26msit001_A/jinhyeok/loop_TTT/lact/.cache_inductor_llm/jf/cjf2rymzbzb3gfpmrbchguz4wgt47u5kfubzlu5to7svh6sy6zpl.py":80:58)
#loc157 = loc("/NHNHOME/WORKSPACE/26msit001_A/jinhyeok/loop_TTT/lact/.cache_inductor_llm/jf/cjf2rymzbzb3gfpmrbchguz4wgt47u5kfubzlu5to7svh6sy6zpl.py":80:125)
#loc158 = loc("/NHNHOME/WORKSPACE/26msit001_A/jinhyeok/loop_TTT/lact/.cache_inductor_llm/jf/cjf2rymzbzb3gfpmrbchguz4wgt47u5kfubzlu5to7svh6sy6zpl.py":82:49)
#loc159 = loc("/NHNHOME/WORKSPACE/26msit001_A/jinhyeok/loop_TTT/lact/.cache_inductor_llm/jf/cjf2rymzbzb3gfpmrbchguz4wgt47u5kfubzlu5to7svh6sy6zpl.py":82:31)
#loc160 = loc("/NHNHOME/WORKSPACE/26msit001_A/jinhyeok/loop_TTT/lact/.cache_inductor_llm/jf/cjf2rymzbzb3gfpmrbchguz4wgt47u5kfubzlu5to7svh6sy6zpl.py":82:81)
#loc161 = loc("/NHNHOME/WORKSPACE/26msit001_A/jinhyeok/loop_TTT/lact/.cache_inductor_llm/jf/cjf2rymzbzb3gfpmrbchguz4wgt47u5kfubzlu5to7svh6sy6zpl.py":82:89)
#loc162 = loc("/NHNHOME/WORKSPACE/26msit001_A/jinhyeok/loop_TTT/lact/.cache_inductor_llm/jf/cjf2rymzbzb3gfpmrbchguz4wgt47u5kfubzlu5to7svh6sy6zpl.py":82:73)
#loc163 = loc("/NHNHOME/WORKSPACE/26msit001_A/jinhyeok/loop_TTT/lact/.cache_inductor_llm/jf/cjf2rymzbzb3gfpmrbchguz4wgt47u5kfubzlu5to7svh6sy6zpl.py":83:20)
#loc164 = loc("/NHNHOME/WORKSPACE/26msit001_A/jinhyeok/loop_TTT/lact/.cache_inductor_llm/jf/cjf2rymzbzb3gfpmrbchguz4wgt47u5kfubzlu5to7svh6sy6zpl.py":84:41)
#loc165 = loc("/NHNHOME/WORKSPACE/26msit001_A/jinhyeok/loop_TTT/lact/.cache_inductor_llm/jf/cjf2rymzbzb3gfpmrbchguz4wgt47u5kfubzlu5to7svh6sy6zpl.py":84:37)
#loc166 = loc("/NHNHOME/WORKSPACE/26msit001_A/jinhyeok/loop_TTT/lact/.cache_inductor_llm/jf/cjf2rymzbzb3gfpmrbchguz4wgt47u5kfubzlu5to7svh6sy6zpl.py":84:53)
#loc167 = loc("/NHNHOME/WORKSPACE/26msit001_A/jinhyeok/loop_TTT/lact/.cache_inductor_llm/jf/cjf2rymzbzb3gfpmrbchguz4wgt47u5kfubzlu5to7svh6sy6zpl.py":84:46)
#loc168 = loc("/NHNHOME/WORKSPACE/26msit001_A/jinhyeok/loop_TTT/lact/.cache_inductor_llm/jf/cjf2rymzbzb3gfpmrbchguz4wgt47u5kfubzlu5to7svh6sy6zpl.py":84:32)
#loc169 = loc("/NHNHOME/WORKSPACE/26msit001_A/jinhyeok/loop_TTT/lact/.cache_inductor_llm/jf/cjf2rymzbzb3gfpmrbchguz4wgt47u5kfubzlu5to7svh6sy6zpl.py":84:66)
#loc170 = loc("/NHNHOME/WORKSPACE/26msit001_A/jinhyeok/loop_TTT/lact/.cache_inductor_llm/jf/cjf2rymzbzb3gfpmrbchguz4wgt47u5kfubzlu5to7svh6sy6zpl.py":84:74)
#loc171 = loc("/NHNHOME/WORKSPACE/26msit001_A/jinhyeok/loop_TTT/lact/.cache_inductor_llm/jf/cjf2rymzbzb3gfpmrbchguz4wgt47u5kfubzlu5to7svh6sy6zpl.py":84:58)
#loc172 = loc("/NHNHOME/WORKSPACE/26msit001_A/jinhyeok/loop_TTT/lact/.cache_inductor_llm/jf/cjf2rymzbzb3gfpmrbchguz4wgt47u5kfubzlu5to7svh6sy6zpl.py":84:125)
#loc173 = loc("/NHNHOME/WORKSPACE/26msit001_A/jinhyeok/loop_TTT/lact/.cache_inductor_llm/jf/cjf2rymzbzb3gfpmrbchguz4wgt47u5kfubzlu5to7svh6sy6zpl.py":86:49)
#loc174 = loc("/NHNHOME/WORKSPACE/26msit001_A/jinhyeok/loop_TTT/lact/.cache_inductor_llm/jf/cjf2rymzbzb3gfpmrbchguz4wgt47u5kfubzlu5to7svh6sy6zpl.py":86:31)
#loc175 = loc("/NHNHOME/WORKSPACE/26msit001_A/jinhyeok/loop_TTT/lact/.cache_inductor_llm/jf/cjf2rymzbzb3gfpmrbchguz4wgt47u5kfubzlu5to7svh6sy6zpl.py":86:81)
#loc176 = loc("/NHNHOME/WORKSPACE/26msit001_A/jinhyeok/loop_TTT/lact/.cache_inductor_llm/jf/cjf2rymzbzb3gfpmrbchguz4wgt47u5kfubzlu5to7svh6sy6zpl.py":86:89)
#loc177 = loc("/NHNHOME/WORKSPACE/26msit001_A/jinhyeok/loop_TTT/lact/.cache_inductor_llm/jf/cjf2rymzbzb3gfpmrbchguz4wgt47u5kfubzlu5to7svh6sy6zpl.py":86:73)
#loc178 = loc("/NHNHOME/WORKSPACE/26msit001_A/jinhyeok/loop_TTT/lact/.cache_inductor_llm/jf/cjf2rymzbzb3gfpmrbchguz4wgt47u5kfubzlu5to7svh6sy6zpl.py":87:20)
#loc179 = loc("/NHNHOME/WORKSPACE/26msit001_A/jinhyeok/loop_TTT/lact/.cache_inductor_llm/jf/cjf2rymzbzb3gfpmrbchguz4wgt47u5kfubzlu5to7svh6sy6zpl.py":88:20)
#loc180 = loc("/NHNHOME/WORKSPACE/26msit001_A/jinhyeok/loop_TTT/lact/.cache_inductor_llm/jf/cjf2rymzbzb3gfpmrbchguz4wgt47u5kfubzlu5to7svh6sy6zpl.py":89:42)
#loc181 = loc("/NHNHOME/WORKSPACE/26msit001_A/jinhyeok/loop_TTT/lact/.cache_inductor_llm/jf/cjf2rymzbzb3gfpmrbchguz4wgt47u5kfubzlu5to7svh6sy6zpl.py":89:37)
#loc182 = loc("/NHNHOME/WORKSPACE/26msit001_A/jinhyeok/loop_TTT/lact/.cache_inductor_llm/jf/cjf2rymzbzb3gfpmrbchguz4wgt47u5kfubzlu5to7svh6sy6zpl.py":89:54)
#loc183 = loc("/NHNHOME/WORKSPACE/26msit001_A/jinhyeok/loop_TTT/lact/.cache_inductor_llm/jf/cjf2rymzbzb3gfpmrbchguz4wgt47u5kfubzlu5to7svh6sy6zpl.py":89:47)
#loc184 = loc("/NHNHOME/WORKSPACE/26msit001_A/jinhyeok/loop_TTT/lact/.cache_inductor_llm/jf/cjf2rymzbzb3gfpmrbchguz4wgt47u5kfubzlu5to7svh6sy6zpl.py":89:32)
#loc185 = loc("/NHNHOME/WORKSPACE/26msit001_A/jinhyeok/loop_TTT/lact/.cache_inductor_llm/jf/cjf2rymzbzb3gfpmrbchguz4wgt47u5kfubzlu5to7svh6sy6zpl.py":89:67)
#loc186 = loc("/NHNHOME/WORKSPACE/26msit001_A/jinhyeok/loop_TTT/lact/.cache_inductor_llm/jf/cjf2rymzbzb3gfpmrbchguz4wgt47u5kfubzlu5to7svh6sy6zpl.py":89:75)
#loc187 = loc("/NHNHOME/WORKSPACE/26msit001_A/jinhyeok/loop_TTT/lact/.cache_inductor_llm/jf/cjf2rymzbzb3gfpmrbchguz4wgt47u5kfubzlu5to7svh6sy6zpl.py":89:59)
#loc188 = loc("/NHNHOME/WORKSPACE/26msit001_A/jinhyeok/loop_TTT/lact/.cache_inductor_llm/jf/cjf2rymzbzb3gfpmrbchguz4wgt47u5kfubzlu5to7svh6sy6zpl.py":89:126)
#loc189 = loc("/NHNHOME/WORKSPACE/26msit001_A/jinhyeok/loop_TTT/lact/.cache_inductor_llm/jf/cjf2rymzbzb3gfpmrbchguz4wgt47u5kfubzlu5to7svh6sy6zpl.py":91:20)
#loc190 = loc("/NHNHOME/WORKSPACE/26msit001_A/jinhyeok/loop_TTT/lact/.cache_inductor_llm/jf/cjf2rymzbzb3gfpmrbchguz4wgt47u5kfubzlu5to7svh6sy6zpl.py":92:42)
#loc191 = loc("/NHNHOME/WORKSPACE/26msit001_A/jinhyeok/loop_TTT/lact/.cache_inductor_llm/jf/cjf2rymzbzb3gfpmrbchguz4wgt47u5kfubzlu5to7svh6sy6zpl.py":92:37)
#loc192 = loc("/NHNHOME/WORKSPACE/26msit001_A/jinhyeok/loop_TTT/lact/.cache_inductor_llm/jf/cjf2rymzbzb3gfpmrbchguz4wgt47u5kfubzlu5to7svh6sy6zpl.py":92:54)
#loc193 = loc("/NHNHOME/WORKSPACE/26msit001_A/jinhyeok/loop_TTT/lact/.cache_inductor_llm/jf/cjf2rymzbzb3gfpmrbchguz4wgt47u5kfubzlu5to7svh6sy6zpl.py":92:47)
#loc194 = loc("/NHNHOME/WORKSPACE/26msit001_A/jinhyeok/loop_TTT/lact/.cache_inductor_llm/jf/cjf2rymzbzb3gfpmrbchguz4wgt47u5kfubzlu5to7svh6sy6zpl.py":92:32)
#loc195 = loc("/NHNHOME/WORKSPACE/26msit001_A/jinhyeok/loop_TTT/lact/.cache_inductor_llm/jf/cjf2rymzbzb3gfpmrbchguz4wgt47u5kfubzlu5to7svh6sy6zpl.py":92:67)
#loc196 = loc("/NHNHOME/WORKSPACE/26msit001_A/jinhyeok/loop_TTT/lact/.cache_inductor_llm/jf/cjf2rymzbzb3gfpmrbchguz4wgt47u5kfubzlu5to7svh6sy6zpl.py":92:75)
#loc197 = loc("/NHNHOME/WORKSPACE/26msit001_A/jinhyeok/loop_TTT/lact/.cache_inductor_llm/jf/cjf2rymzbzb3gfpmrbchguz4wgt47u5kfubzlu5to7svh6sy6zpl.py":92:59)
#loc198 = loc("/NHNHOME/WORKSPACE/26msit001_A/jinhyeok/loop_TTT/lact/.cache_inductor_llm/jf/cjf2rymzbzb3gfpmrbchguz4wgt47u5kfubzlu5to7svh6sy6zpl.py":92:126)
#loc199 = loc("/NHNHOME/WORKSPACE/26msit001_A/jinhyeok/loop_TTT/lact/.cache_inductor_llm/jf/cjf2rymzbzb3gfpmrbchguz4wgt47u5kfubzlu5to7svh6sy6zpl.py":94:20)
#loc200 = loc("/NHNHOME/WORKSPACE/26msit001_A/jinhyeok/loop_TTT/lact/.cache_inductor_llm/jf/cjf2rymzbzb3gfpmrbchguz4wgt47u5kfubzlu5to7svh6sy6zpl.py":95:38)
#loc201 = loc("/NHNHOME/WORKSPACE/26msit001_A/jinhyeok/loop_TTT/lact/.cache_inductor_llm/jf/cjf2rymzbzb3gfpmrbchguz4wgt47u5kfubzlu5to7svh6sy6zpl.py":96:35)
#loc202 = loc("/NHNHOME/WORKSPACE/26msit001_A/jinhyeok/loop_TTT/lact/.cache_inductor_llm/jf/cjf2rymzbzb3gfpmrbchguz4wgt47u5kfubzlu5to7svh6sy6zpl.py":97:35)
#loc203 = loc("/NHNHOME/WORKSPACE/26msit001_A/jinhyeok/loop_TTT/lact/.cache_inductor_llm/jf/cjf2rymzbzb3gfpmrbchguz4wgt47u5kfubzlu5to7svh6sy6zpl.py":98:20)
#loc204 = loc("/NHNHOME/WORKSPACE/26msit001_A/jinhyeok/loop_TTT/lact/.cache_inductor_llm/jf/cjf2rymzbzb3gfpmrbchguz4wgt47u5kfubzlu5to7svh6sy6zpl.py":99:4)
#loc205 = loc("/NHNHOME/WORKSPACE/26msit001_A/jinhyeok/loop_TTT/lact/.cache_inductor_llm/jf/cjf2rymzbzb3gfpmrbchguz4wgt47u5kfubzlu5to7svh6sy6zpl.py":100:37)
#loc206 = loc("/NHNHOME/WORKSPACE/26msit001_A/jinhyeok/loop_TTT/lact/.cache_inductor_llm/jf/cjf2rymzbzb3gfpmrbchguz4wgt47u5kfubzlu5to7svh6sy6zpl.py":100:33)
#loc207 = loc("/NHNHOME/WORKSPACE/26msit001_A/jinhyeok/loop_TTT/lact/.cache_inductor_llm/jf/cjf2rymzbzb3gfpmrbchguz4wgt47u5kfubzlu5to7svh6sy6zpl.py":100:28)
#loc208 = loc("/NHNHOME/WORKSPACE/26msit001_A/jinhyeok/loop_TTT/lact/.cache_inductor_llm/jf/cjf2rymzbzb3gfpmrbchguz4wgt47u5kfubzlu5to7svh6sy6zpl.py":100:57)
#loc209 = loc("/NHNHOME/WORKSPACE/26msit001_A/jinhyeok/loop_TTT/lact/.cache_inductor_llm/jf/cjf2rymzbzb3gfpmrbchguz4wgt47u5kfubzlu5to7svh6sy6zpl.py":100:49)
#loc210 = loc("/NHNHOME/WORKSPACE/26msit001_A/jinhyeok/loop_TTT/lact/.cache_inductor_llm/jf/cjf2rymzbzb3gfpmrbchguz4wgt47u5kfubzlu5to7svh6sy6zpl.py":100:4)
#loc228 = loc("ynumel"(#loc1))
#loc229 = loc("xnumel"(#loc2))
#loc230 = loc("yoffset"(#loc3))
#loc231 = loc("yoffset"(#loc4))
#loc232 = loc("yoffset"(#loc5))
#loc233 = loc("yoffset"(#loc6))
#loc234 = loc("yoffset"(#loc7))
#loc235 = loc("yoffset"(#loc8))
#loc236 = loc("yindex"(#loc9))
#loc237 = loc("yindex"(#loc10))
#loc238 = loc("yindex"(#loc11))
#loc239 = loc("ymask"(#loc12))
#loc240 = loc("xoffset"(#loc13))
#loc241 = loc("xoffset"(#loc14))
#loc242 = loc("xindex"(#loc15))
#loc243 = loc("xindex"(#loc16))
#loc244 = loc("xindex"(#loc17))
#loc245 = loc("xmask"(#loc18))
#loc246 = loc("y0"(#loc19))
#loc247 = loc("y1"(#loc20))
#loc248 = loc("tmp1"(#loc21))
#loc249 = loc("tmp2"(#loc22))
#loc250 = loc("tmp3"(#loc23))
#loc251 = loc("tmp4"(#loc24))
#loc252 = loc("tmp5"(#loc25))
#loc253 = loc("tmp6"(#loc26))
#loc254 = loc("tmp6"(#loc27))
#loc255 = loc("tmp6"(#loc28))
#loc256 = loc("tmp6"(#loc29))
#loc257 = loc("tmp6"(#loc30))
#loc258 = loc("tmp6"(#loc31))
#loc259 = loc("tmp6"(#loc32))
#loc260 = loc("tmp6"(#loc33))
#loc261 = loc("tmp6"(#loc34))
#loc262 = loc("tmp6"(#loc35))
#loc263 = loc("tmp8"(#loc36))
#loc264 = loc("tmp8"(#loc37))
#loc265 = loc("tmp8"(#loc38))
#loc266 = loc("tmp8"(#loc39))
#loc267 = loc("tmp8"(#loc40))
#loc268 = loc("tmp9"(#loc41))
#loc269 = loc("tmp10"(#loc42))
#loc270 = loc("tmp10"(#loc43))
#loc271 = loc("tmp10"(#loc44))
#loc272 = loc("tmp10"(#loc45))
#loc273 = loc("tmp10"(#loc46))
#loc274 = loc("tmp10"(#loc47))
#loc275 = loc("tmp10"(#loc48))
#loc276 = loc("tmp10"(#loc49))
#loc277 = loc("tmp10"(#loc50))
#loc278 = loc("tmp10"(#loc51))
#loc279 = loc("tmp12"(#loc52))
#loc280 = loc("tmp12"(#loc53))
#loc281 = loc("tmp12"(#loc54))
#loc282 = loc("tmp12"(#loc55))
#loc283 = loc("tmp12"(#loc56))
#loc284 = loc("tmp13"(#loc57))
#loc285 = loc("tmp14"(#loc58))
#loc286 = loc("tmp15"(#loc59))
#loc287 = loc("tmp15"(#loc60))
#loc288 = loc("tmp15"(#loc61))
#loc289 = loc("tmp15"(#loc62))
#loc290 = loc("tmp15"(#loc63))
#loc291 = loc("tmp15"(#loc64))
#loc292 = loc("tmp15"(#loc65))
#loc293 = loc("tmp15"(#loc66))
#loc294 = loc("tmp15"(#loc67))
#loc295 = loc("tmp15"(#loc68))
#loc296 = loc("tmp17"(#loc69))
#loc297 = loc("tmp18"(#loc70))
#loc298 = loc("tmp18"(#loc71))
#loc299 = loc("tmp18"(#loc72))
#loc300 = loc("tmp18"(#loc73))
#loc301 = loc("tmp18"(#loc74))
#loc302 = loc("tmp18"(#loc75))
#loc303 = loc("tmp18"(#loc76))
#loc304 = loc("tmp18"(#loc77))
#loc305 = loc("tmp18"(#loc78))
#loc306 = loc("tmp18"(#loc79))
#loc307 = loc("tmp20"(#loc80))
#loc308 = loc("tmp21"(#loc81))
#loc309 = loc("tmp22"(#loc82))
#loc310 = loc("tmp23"(#loc83))
#loc311 = loc("tmp24"(#loc84))
#loc312 = loc("tmp25"(#loc85))
#loc313 = loc("tmp26"(#loc86))
#loc314 = loc("tmp27"(#loc87))
#loc315 = loc("tmp28"(#loc88))
#loc316 = loc("tmp29"(#loc89))
#loc317 = loc("tmp29"(#loc90))
#loc318 = loc("tmp29"(#loc91))
#loc319 = loc("tmp29"(#loc92))
#loc320 = loc("tmp29"(#loc93))
#loc321 = loc("tmp29"(#loc94))
#loc322 = loc("tmp29"(#loc95))
#loc323 = loc("tmp29"(#loc96))
#loc324 = loc("tmp29"(#loc97))
#loc325 = loc("tmp29"(#loc98))
#loc326 = loc("tmp31"(#loc99))
#loc327 = loc("tmp31"(#loc100))
#loc328 = loc("tmp31"(#loc101))
#loc329 = loc("tmp31"(#loc102))
#loc330 = loc("tmp31"(#loc103))
#loc331 = loc("tmp32"(#loc104))
#loc332 = loc("tmp33"(#loc105))
#loc333 = loc("tmp33"(#loc106))
#loc334 = loc("tmp33"(#loc107))
#loc335 = loc("tmp33"(#loc108))
#loc336 = loc("tmp33"(#loc109))
#loc337 = loc("tmp33"(#loc110))
#loc338 = loc("tmp33"(#loc111))
#loc339 = loc("tmp33"(#loc112))
#loc340 = loc("tmp33"(#loc113))
#loc341 = loc("tmp33"(#loc114))
#loc342 = loc("tmp35"(#loc115))
#loc343 = loc("tmp35"(#loc116))
#loc344 = loc("tmp35"(#loc117))
#loc345 = loc("tmp35"(#loc118))
#loc346 = loc("tmp35"(#loc119))
#loc347 = loc("tmp36"(#loc120))
#loc348 = loc("tmp37"(#loc121))
#loc349 = loc("tmp38"(#loc122))
#loc350 = loc("tmp38"(#loc123))
#loc351 = loc("tmp38"(#loc124))
#loc352 = loc("tmp38"(#loc125))
#loc353 = loc("tmp38"(#loc126))
#loc354 = loc("tmp38"(#loc127))
#loc355 = loc("tmp38"(#loc128))
#loc356 = loc("tmp38"(#loc129))
#loc357 = loc("tmp38"(#loc130))
#loc358 = loc("tmp38"(#loc131))
#loc359 = loc("tmp40"(#loc132))
#loc360 = loc("tmp41"(#loc133))
#loc361 = loc("tmp41"(#loc134))
#loc362 = loc("tmp41"(#loc135))
#loc363 = loc("tmp41"(#loc136))
#loc364 = loc("tmp41"(#loc137))
#loc365 = loc("tmp41"(#loc138))
#loc366 = loc("tmp41"(#loc139))
#loc367 = loc("tmp41"(#loc140))
#loc368 = loc("tmp41"(#loc141))
#loc369 = loc("tmp41"(#loc142))
#loc370 = loc("tmp43"(#loc143))
#loc371 = loc("tmp44"(#loc144))
#loc372 = loc("tmp45"(#loc145))
#loc373 = loc("tmp46"(#loc146))
#loc374 = loc("tmp47"(#loc147))
#loc375 = loc("tmp48"(#loc148))
#loc376 = loc("tmp49"(#loc149))
#loc377 = loc("tmp49"(#loc150))
#loc378 = loc("tmp49"(#loc151))
#loc379 = loc("tmp49"(#loc152))
#loc380 = loc("tmp49"(#loc153))
#loc381 = loc("tmp49"(#loc154))
#loc382 = loc("tmp49"(#loc155))
#loc383 = loc("tmp49"(#loc156))
#loc384 = loc("tmp49"(#loc157))
#loc385 = loc("tmp51"(#loc158))
#loc386 = loc("tmp51"(#loc159))
#loc387 = loc("tmp51"(#loc160))
#loc388 = loc("tmp51"(#loc161))
#loc389 = loc("tmp51"(#loc162))
#loc390 = loc("tmp52"(#loc163))
#loc391 = loc("tmp53"(#loc164))
#loc392 = loc("tmp53"(#loc165))
#loc393 = loc("tmp53"(#loc166))
#loc394 = loc("tmp53"(#loc167))
#loc395 = loc("tmp53"(#loc168))
#loc396 = loc("tmp53"(#loc169))
#loc397 = loc("tmp53"(#loc170))
#loc398 = loc("tmp53"(#loc171))
#loc399 = loc("tmp53"(#loc172))
#loc400 = loc("tmp55"(#loc173))
#loc401 = loc("tmp55"(#loc174))
#loc402 = loc("tmp55"(#loc175))
#loc403 = loc("tmp55"(#loc176))
#loc404 = loc("tmp55"(#loc177))
#loc405 = loc("tmp56"(#loc178))
#loc406 = loc("tmp57"(#loc179))
#loc407 = loc("tmp58"(#loc180))
#loc408 = loc("tmp58"(#loc181))
#loc409 = loc("tmp58"(#loc182))
#loc410 = loc("tmp58"(#loc183))
#loc411 = loc("tmp58"(#loc184))
#loc412 = loc("tmp58"(#loc185))
#loc413 = loc("tmp58"(#loc186))
#loc414 = loc("tmp58"(#loc187))
#loc415 = loc("tmp58"(#loc188))
#loc416 = loc("tmp60"(#loc189))
#loc417 = loc("tmp61"(#loc190))
#loc418 = loc("tmp61"(#loc191))
#loc419 = loc("tmp61"(#loc192))
#loc420 = loc("tmp61"(#loc193))
#loc421 = loc("tmp61"(#loc194))
#loc422 = loc("tmp61"(#loc195))
#loc423 = loc("tmp61"(#loc196))
#loc424 = loc("tmp61"(#loc197))
#loc425 = loc("tmp61"(#loc198))
#loc426 = loc("tmp63"(#loc199))
#loc427 = loc("tmp64"(#loc200))
#loc428 = loc("tmp65"(#loc201))
#loc429 = loc("tmp66"(#loc202))
#loc430 = loc("tmp67"(#loc203))
