#loc = loc("/NHNHOME/WORKSPACE/26msit001_A/jinhyeok/loop_TTT/lact/.cache_inductor_llm/ca/ccagyici3ypcqydb37g6n47u7efs5jrmame6x4mffohan7flekjf.py":18:0)
#loc44 = loc("/NHNHOME/WORKSPACE/26msit001_A/jinhyeok/TTT_camera_embedding/.venv_llm/lib/python3.12/site-packages/triton/language/standard.py":285:0)
#loc46 = loc(unknown)
#loc49 = loc("/NHNHOME/WORKSPACE/26msit001_A/jinhyeok/TTT_camera_embedding/.venv_llm/lib/python3.12/site-packages/triton/language/standard.py":260:0)
#loc53 = loc("in_ptr0"(#loc))
#loc54 = loc("in_ptr1"(#loc))
#loc55 = loc("in_ptr2"(#loc))
#loc56 = loc("out_ptr0"(#loc))
#loc57 = loc("out_ptr1"(#loc))
#loc58 = loc("xnumel"(#loc))
#loc59 = loc("r0_numel"(#loc))
#loc98 = loc("input"(#loc44))
#loc99 = loc("a"(#loc49))
#loc100 = loc("b"(#loc49))
module {
  tt.func public @triton_per_fused__to_copy_mul_slice_sum_36(%in_ptr0: !tt.ptr<bf16> {tt.divisibility = 16 : i32} loc("in_ptr0"(#loc)), %in_ptr1: !tt.ptr<f32> {tt.divisibility = 16 : i32} loc("in_ptr1"(#loc)), %in_ptr2: !tt.ptr<bf16> {tt.divisibility = 16 : i32} loc("in_ptr2"(#loc)), %out_ptr0: !tt.ptr<f32> {tt.divisibility = 16 : i32} loc("out_ptr0"(#loc)), %out_ptr1: !tt.ptr<f32> {tt.divisibility = 16 : i32} loc("out_ptr1"(#loc)), %xnumel: i32 {tt.divisibility = 16 : i32} loc("xnumel"(#loc)), %r0_numel: i32 {tt.divisibility = 16 : i32} loc("r0_numel"(#loc))) attributes {noinline = false} {
    %xnumel_0 = arith.constant 8192 : i32 loc(#loc60)
    %r0_numel_1 = arith.constant 192 : i32 loc(#loc61)
    %xoffset = tt.get_program_id x : i32 loc(#loc62)
    %xoffset_2 = arith.constant 1 : i32 loc(#loc63)
    %xoffset_3 = arith.constant 1 : i32 loc(#loc63)
    %xoffset_4 = arith.muli %xoffset, %xoffset_3 : i32 loc(#loc63)
    %xindex = tt.make_range {end = 1 : i32, start = 0 : i32} : tensor<1xi32> loc(#loc64)
    %xindex_5 = tt.expand_dims %xindex {axis = 1 : i32} : tensor<1xi32> -> tensor<1x1xi32> loc(#loc65)
    %xindex_6 = tt.splat %xoffset_4 : i32 -> tensor<1x1xi32> loc(#loc66)
    %xindex_7 = arith.addi %xindex_6, %xindex_5 : tensor<1x1xi32> loc(#loc66)
    %xmask = arith.constant true loc(#loc67)
    %xmask_8 = arith.constant dense<true> : tensor<1x256xi1> loc(#loc67)
    %r0_index = tt.make_range {end = 256 : i32, start = 0 : i32} : tensor<256xi32> loc(#loc68)
    %r0_index_9 = tt.expand_dims %r0_index {axis = 0 : i32} : tensor<256xi32> -> tensor<1x256xi32> loc(#loc69)
    %r0_offset = arith.constant 0 : i32 loc(#loc70)
    %r0_mask = arith.constant dense<192> : tensor<1x256xi32> loc(#loc71)
    %r0_mask_10 = arith.cmpi slt, %r0_index_9, %r0_mask : tensor<1x256xi32> loc(#loc71)
    %x0 = arith.constant 1024 : i32 loc(#loc72)
    %x0_11 = arith.constant 1024 : i32 loc(#loc72)
    %x0_12 = arith.constant dense<1024> : tensor<1x1xi32> loc(#loc72)
    %x0_13 = arith.remsi %xindex_7, %x0_12 : tensor<1x1xi32> loc(#loc72)
    %x1 = arith.constant 1024 : i32 loc(#loc73)
    %x1_14 = arith.constant 1024 : i32 loc(#loc73)
    %x1_15 = arith.constant dense<1024> : tensor<1x1xi32> loc(#loc73)
    %x1_16 = arith.divsi %xindex_7, %x1_15 : tensor<1x1xi32> loc(#loc73)
    %tmp0 = arith.constant 192 : i32 loc(#loc74)
    %tmp0_17 = arith.constant 192 : i32 loc(#loc74)
    %tmp0_18 = arith.constant dense<192> : tensor<1x1xi32> loc(#loc74)
    %tmp0_19 = arith.muli %tmp0_18, %xindex_7 : tensor<1x1xi32> loc(#loc74)
    %tmp0_20 = tt.broadcast %tmp0_19 : tensor<1x1xi32> -> tensor<1x256xi32> loc(#loc75)
    %tmp0_21 = arith.addi %r0_index_9, %tmp0_20 : tensor<1x256xi32> loc(#loc75)
    %tmp0_22 = tt.splat %in_ptr0 : !tt.ptr<bf16> -> tensor<1x256x!tt.ptr<bf16>> loc(#loc76)
    %tmp0_23 = tt.addptr %tmp0_22, %tmp0_21 : tensor<1x256x!tt.ptr<bf16>>, tensor<1x256xi32> loc(#loc76)
    %tmp0_24 = arith.constant 0.000000e+00 : f32 loc(#loc77)
    %tmp0_25 = arith.constant dense<0.000000e+00> : tensor<1x256xf32> loc(#loc77)
    %tmp0_26 = arith.truncf %tmp0_25 : tensor<1x256xf32> to tensor<1x256xbf16> loc(#loc77)
    %tmp0_27 = tt.load %tmp0_23, %r0_mask_10, %tmp0_26 : tensor<1x256x!tt.ptr<bf16>> loc(#loc77)
    %tmp0_28 = arith.extf %tmp0_27 : tensor<1x256xbf16> to tensor<1x256xf32> loc(#loc78)
    %tmp2 = arith.constant 192 : i32 loc(#loc79)
    %tmp2_29 = arith.constant 192 : i32 loc(#loc79)
    %tmp2_30 = arith.constant dense<192> : tensor<1x1xi32> loc(#loc79)
    %tmp2_31 = arith.muli %tmp2_30, %x0_13 : tensor<1x1xi32> loc(#loc79)
    %tmp2_32 = tt.broadcast %tmp2_31 : tensor<1x1xi32> -> tensor<1x256xi32> loc(#loc80)
    %tmp2_33 = arith.addi %r0_index_9, %tmp2_32 : tensor<1x256xi32> loc(#loc80)
    %tmp2_34 = arith.constant 786432 : i32 loc(#loc81)
    %tmp2_35 = arith.constant 786432 : i32 loc(#loc81)
    %tmp2_36 = arith.constant dense<786432> : tensor<1x1xi32> loc(#loc81)
    %tmp2_37 = arith.muli %tmp2_36, %x1_16 : tensor<1x1xi32> loc(#loc81)
    %tmp2_38 = tt.broadcast %tmp2_37 : tensor<1x1xi32> -> tensor<1x256xi32> loc(#loc82)
    %tmp2_39 = arith.addi %tmp2_33, %tmp2_38 : tensor<1x256xi32> loc(#loc82)
    %tmp2_40 = tt.splat %in_ptr1 : !tt.ptr<f32> -> tensor<1x256x!tt.ptr<f32>> loc(#loc83)
    %tmp2_41 = tt.addptr %tmp2_40, %tmp2_39 : tensor<1x256x!tt.ptr<f32>>, tensor<1x256xi32> loc(#loc83)
    %tmp2_42 = arith.constant 0.000000e+00 : f32 loc(#loc84)
    %tmp2_43 = arith.constant dense<0.000000e+00> : tensor<1x256xf32> loc(#loc84)
    %tmp2_44 = tt.load %tmp2_41, %r0_mask_10, %tmp2_43 : tensor<1x256x!tt.ptr<f32>> loc(#loc84)
    %tmp8 = arith.constant 192 : i32 loc(#loc85)
    %tmp8_45 = arith.constant 192 : i32 loc(#loc85)
    %tmp8_46 = arith.constant dense<192> : tensor<1x1xi32> loc(#loc85)
    %tmp8_47 = arith.muli %tmp8_46, %xindex_7 : tensor<1x1xi32> loc(#loc85)
    %tmp8_48 = tt.broadcast %tmp8_47 : tensor<1x1xi32> -> tensor<1x256xi32> loc(#loc86)
    %tmp8_49 = arith.addi %r0_index_9, %tmp8_48 : tensor<1x256xi32> loc(#loc86)
    %tmp8_50 = tt.splat %in_ptr2 : !tt.ptr<bf16> -> tensor<1x256x!tt.ptr<bf16>> loc(#loc87)
    %tmp8_51 = tt.addptr %tmp8_50, %tmp8_49 : tensor<1x256x!tt.ptr<bf16>>, tensor<1x256xi32> loc(#loc87)
    %tmp8_52 = arith.constant 0.000000e+00 : f32 loc(#loc88)
    %tmp8_53 = arith.constant dense<0.000000e+00> : tensor<1x256xf32> loc(#loc88)
    %tmp8_54 = arith.truncf %tmp8_53 : tensor<1x256xf32> to tensor<1x256xbf16> loc(#loc88)
    %tmp8_55 = tt.load %tmp8_51, %r0_mask_10, %tmp8_54 : tensor<1x256x!tt.ptr<bf16>> loc(#loc88)
    %tmp8_56 = arith.extf %tmp8_55 : tensor<1x256xbf16> to tensor<1x256xf32> loc(#loc89)
    %tmp3 = arith.mulf %tmp0_28, %tmp2_44 : tensor<1x256xf32> loc(#loc90)
    %tmp6 = arith.constant 0 : i32 loc(#loc91)
    %tmp6_57 = arith.constant 0.000000e+00 : f32 loc(#loc91)
    %tmp6_58 = arith.constant dense<0.000000e+00> : tensor<1x256xf32> loc(#loc91)
    %tmp6_59 = arith.select %r0_mask_10, %tmp3, %tmp6_58 : tensor<1x256xi1>, tensor<1x256xf32> loc(#loc91)
    %tmp7 = tt.call @"triton.language.standard.sum__fp32S1_256S__(1,)cconstexpr_1__(2,)cconstexpr_False__(3,)cNone"(%tmp6_59) : (tensor<1x256xf32>) -> tensor<1xf32> loc(#loc92)
    %tmp7_60 = tt.expand_dims %tmp7 {axis = 1 : i32} : tensor<1xf32> -> tensor<1x1xf32> loc(#loc93)
    %tmp10 = arith.mulf %tmp8_56, %tmp2_44 : tensor<1x256xf32> loc(#loc94)
    %tmp13 = arith.constant 0 : i32 loc(#loc95)
    %tmp13_61 = arith.constant 0.000000e+00 : f32 loc(#loc95)
    %tmp13_62 = arith.constant dense<0.000000e+00> : tensor<1x256xf32> loc(#loc95)
    %tmp13_63 = arith.select %r0_mask_10, %tmp10, %tmp13_62 : tensor<1x256xi1>, tensor<1x256xf32> loc(#loc95)
    %tmp14 = tt.call @"triton.language.standard.sum__fp32S1_256S__(1,)cconstexpr_1__(2,)cconstexpr_False__(3,)cNone"(%tmp13_63) : (tensor<1x256xf32>) -> tensor<1xf32> loc(#loc96)
    %tmp14_64 = tt.expand_dims %tmp14 {axis = 1 : i32} : tensor<1xf32> -> tensor<1x1xf32> loc(#loc97)
    %0 = tt.splat %out_ptr0 : !tt.ptr<f32> -> tensor<1x1x!tt.ptr<f32>> loc(#loc39)
    %1 = tt.addptr %0, %xindex_7 : tensor<1x1x!tt.ptr<f32>>, tensor<1x1xi32> loc(#loc39)
    tt.store %1, %tmp7_60 : tensor<1x1x!tt.ptr<f32>> loc(#loc40)
    %2 = tt.splat %out_ptr1 : !tt.ptr<f32> -> tensor<1x1x!tt.ptr<f32>> loc(#loc41)
    %3 = tt.addptr %2, %xindex_7 : tensor<1x1x!tt.ptr<f32>>, tensor<1x1xi32> loc(#loc41)
    tt.store %3, %tmp14_64 : tensor<1x1x!tt.ptr<f32>> loc(#loc42)
    tt.return loc(#loc43)
  } loc(#loc)
  tt.func private @"triton.language.standard.sum__fp32S1_256S__(1,)cconstexpr_1__(2,)cconstexpr_False__(3,)cNone"(%input: tensor<1x256xf32> loc("input"(#loc44))) -> tensor<1xf32> attributes {noinline = false} {
    %0 = "tt.reduce"(%input) <{axis = 1 : i32}> ({
    ^bb0(%arg1: f32 loc(unknown), %arg2: f32 loc(unknown)):
      %2 = tt.call @triton.language.standard._sum_combine__fp32_fp32__(%arg1, %arg2) : (f32, f32) -> f32 loc(#loc45)
      tt.reduce.return %2 : f32 loc(#loc45)
    }) : (tensor<1x256xf32>) -> tensor<1xf32> loc(#loc45)
    tt.return %0 : tensor<1xf32> loc(#loc47)
  ^bb1:  // no predecessors
    %1 = ub.poison : tensor<1xf32> loc(#loc48)
    tt.return %1 : tensor<1xf32> loc(#loc48)
  } loc(#loc44)
  tt.func private @triton.language.standard._sum_combine__fp32_fp32__(%a: f32 loc("a"(#loc49)), %b: f32 loc("b"(#loc49))) -> f32 attributes {noinline = false} {
    %0 = arith.addf %a, %b : f32 loc(#loc50)
    tt.return %0 : f32 loc(#loc51)
  ^bb1:  // no predecessors
    %1 = ub.poison : f32 loc(#loc52)
    tt.return %1 : f32 loc(#loc52)
  } loc(#loc49)
} loc(#loc)
#loc1 = loc("/NHNHOME/WORKSPACE/26msit001_A/jinhyeok/loop_TTT/lact/.cache_inductor_llm/ca/ccagyici3ypcqydb37g6n47u7efs5jrmame6x4mffohan7flekjf.py":19:13)
#loc2 = loc("/NHNHOME/WORKSPACE/26msit001_A/jinhyeok/loop_TTT/lact/.cache_inductor_llm/ca/ccagyici3ypcqydb37g6n47u7efs5jrmame6x4mffohan7flekjf.py":20:15)
#loc3 = loc("/NHNHOME/WORKSPACE/26msit001_A/jinhyeok/loop_TTT/lact/.cache_inductor_llm/ca/ccagyici3ypcqydb37g6n47u7efs5jrmame6x4mffohan7flekjf.py":24:28)
#loc4 = loc("/NHNHOME/WORKSPACE/26msit001_A/jinhyeok/loop_TTT/lact/.cache_inductor_llm/ca/ccagyici3ypcqydb37g6n47u7efs5jrmame6x4mffohan7flekjf.py":24:33)
#loc5 = loc("/NHNHOME/WORKSPACE/26msit001_A/jinhyeok/loop_TTT/lact/.cache_inductor_llm/ca/ccagyici3ypcqydb37g6n47u7efs5jrmame6x4mffohan7flekjf.py":25:36)
#loc6 = loc("/NHNHOME/WORKSPACE/26msit001_A/jinhyeok/loop_TTT/lact/.cache_inductor_llm/ca/ccagyici3ypcqydb37g6n47u7efs5jrmame6x4mffohan7flekjf.py":25:44)
#loc7 = loc("/NHNHOME/WORKSPACE/26msit001_A/jinhyeok/loop_TTT/lact/.cache_inductor_llm/ca/ccagyici3ypcqydb37g6n47u7efs5jrmame6x4mffohan7flekjf.py":25:23)
#loc8 = loc("/NHNHOME/WORKSPACE/26msit001_A/jinhyeok/loop_TTT/lact/.cache_inductor_llm/ca/ccagyici3ypcqydb37g6n47u7efs5jrmame6x4mffohan7flekjf.py":26:46)
#loc9 = loc("/NHNHOME/WORKSPACE/26msit001_A/jinhyeok/loop_TTT/lact/.cache_inductor_llm/ca/ccagyici3ypcqydb37g6n47u7efs5jrmame6x4mffohan7flekjf.py":27:28)
#loc10 = loc("/NHNHOME/WORKSPACE/26msit001_A/jinhyeok/loop_TTT/lact/.cache_inductor_llm/ca/ccagyici3ypcqydb37g6n47u7efs5jrmame6x4mffohan7flekjf.py":27:38)
#loc11 = loc("/NHNHOME/WORKSPACE/26msit001_A/jinhyeok/loop_TTT/lact/.cache_inductor_llm/ca/ccagyici3ypcqydb37g6n47u7efs5jrmame6x4mffohan7flekjf.py":28:16)
#loc12 = loc("/NHNHOME/WORKSPACE/26msit001_A/jinhyeok/loop_TTT/lact/.cache_inductor_llm/ca/ccagyici3ypcqydb37g6n47u7efs5jrmame6x4mffohan7flekjf.py":29:25)
#loc13 = loc("/NHNHOME/WORKSPACE/26msit001_A/jinhyeok/loop_TTT/lact/.cache_inductor_llm/ca/ccagyici3ypcqydb37g6n47u7efs5jrmame6x4mffohan7flekjf.py":34:19)
#loc14 = loc("/NHNHOME/WORKSPACE/26msit001_A/jinhyeok/loop_TTT/lact/.cache_inductor_llm/ca/ccagyici3ypcqydb37g6n47u7efs5jrmame6x4mffohan7flekjf.py":35:19)
#loc15 = loc("/NHNHOME/WORKSPACE/26msit001_A/jinhyeok/loop_TTT/lact/.cache_inductor_llm/ca/ccagyici3ypcqydb37g6n47u7efs5jrmame6x4mffohan7flekjf.py":36:41)
#loc16 = loc("/NHNHOME/WORKSPACE/26msit001_A/jinhyeok/loop_TTT/lact/.cache_inductor_llm/ca/ccagyici3ypcqydb37g6n47u7efs5jrmame6x4mffohan7flekjf.py":36:37)
#loc17 = loc("/NHNHOME/WORKSPACE/26msit001_A/jinhyeok/loop_TTT/lact/.cache_inductor_llm/ca/ccagyici3ypcqydb37g6n47u7efs5jrmame6x4mffohan7flekjf.py":36:30)
#loc18 = loc("/NHNHOME/WORKSPACE/26msit001_A/jinhyeok/loop_TTT/lact/.cache_inductor_llm/ca/ccagyici3ypcqydb37g6n47u7efs5jrmame6x4mffohan7flekjf.py":36:46)
#loc19 = loc("/NHNHOME/WORKSPACE/26msit001_A/jinhyeok/loop_TTT/lact/.cache_inductor_llm/ca/ccagyici3ypcqydb37g6n47u7efs5jrmame6x4mffohan7flekjf.py":36:69)
#loc20 = loc("/NHNHOME/WORKSPACE/26msit001_A/jinhyeok/loop_TTT/lact/.cache_inductor_llm/ca/ccagyici3ypcqydb37g6n47u7efs5jrmame6x4mffohan7flekjf.py":37:41)
#loc21 = loc("/NHNHOME/WORKSPACE/26msit001_A/jinhyeok/loop_TTT/lact/.cache_inductor_llm/ca/ccagyici3ypcqydb37g6n47u7efs5jrmame6x4mffohan7flekjf.py":37:37)
#loc22 = loc("/NHNHOME/WORKSPACE/26msit001_A/jinhyeok/loop_TTT/lact/.cache_inductor_llm/ca/ccagyici3ypcqydb37g6n47u7efs5jrmame6x4mffohan7flekjf.py":37:53)
#loc23 = loc("/NHNHOME/WORKSPACE/26msit001_A/jinhyeok/loop_TTT/lact/.cache_inductor_llm/ca/ccagyici3ypcqydb37g6n47u7efs5jrmame6x4mffohan7flekjf.py":37:46)
#loc24 = loc("/NHNHOME/WORKSPACE/26msit001_A/jinhyeok/loop_TTT/lact/.cache_inductor_llm/ca/ccagyici3ypcqydb37g6n47u7efs5jrmame6x4mffohan7flekjf.py":37:30)
#loc25 = loc("/NHNHOME/WORKSPACE/26msit001_A/jinhyeok/loop_TTT/lact/.cache_inductor_llm/ca/ccagyici3ypcqydb37g6n47u7efs5jrmame6x4mffohan7flekjf.py":37:58)
#loc26 = loc("/NHNHOME/WORKSPACE/26msit001_A/jinhyeok/loop_TTT/lact/.cache_inductor_llm/ca/ccagyici3ypcqydb37g6n47u7efs5jrmame6x4mffohan7flekjf.py":38:41)
#loc27 = loc("/NHNHOME/WORKSPACE/26msit001_A/jinhyeok/loop_TTT/lact/.cache_inductor_llm/ca/ccagyici3ypcqydb37g6n47u7efs5jrmame6x4mffohan7flekjf.py":38:37)
#loc28 = loc("/NHNHOME/WORKSPACE/26msit001_A/jinhyeok/loop_TTT/lact/.cache_inductor_llm/ca/ccagyici3ypcqydb37g6n47u7efs5jrmame6x4mffohan7flekjf.py":38:30)
#loc29 = loc("/NHNHOME/WORKSPACE/26msit001_A/jinhyeok/loop_TTT/lact/.cache_inductor_llm/ca/ccagyici3ypcqydb37g6n47u7efs5jrmame6x4mffohan7flekjf.py":38:46)
#loc30 = loc("/NHNHOME/WORKSPACE/26msit001_A/jinhyeok/loop_TTT/lact/.cache_inductor_llm/ca/ccagyici3ypcqydb37g6n47u7efs5jrmame6x4mffohan7flekjf.py":38:69)
#loc31 = loc("/NHNHOME/WORKSPACE/26msit001_A/jinhyeok/loop_TTT/lact/.cache_inductor_llm/ca/ccagyici3ypcqydb37g6n47u7efs5jrmame6x4mffohan7flekjf.py":40:18)
#loc32 = loc("/NHNHOME/WORKSPACE/26msit001_A/jinhyeok/loop_TTT/lact/.cache_inductor_llm/ca/ccagyici3ypcqydb37g6n47u7efs5jrmame6x4mffohan7flekjf.py":42:35)
#loc33 = loc("/NHNHOME/WORKSPACE/26msit001_A/jinhyeok/loop_TTT/lact/.cache_inductor_llm/ca/ccagyici3ypcqydb37g6n47u7efs5jrmame6x4mffohan7flekjf.py":43:24)
#loc34 = loc("/NHNHOME/WORKSPACE/26msit001_A/jinhyeok/loop_TTT/lact/.cache_inductor_llm/ca/ccagyici3ypcqydb37g6n47u7efs5jrmame6x4mffohan7flekjf.py":43:27)
#loc35 = loc("/NHNHOME/WORKSPACE/26msit001_A/jinhyeok/loop_TTT/lact/.cache_inductor_llm/ca/ccagyici3ypcqydb37g6n47u7efs5jrmame6x4mffohan7flekjf.py":45:19)
#loc36 = loc("/NHNHOME/WORKSPACE/26msit001_A/jinhyeok/loop_TTT/lact/.cache_inductor_llm/ca/ccagyici3ypcqydb37g6n47u7efs5jrmame6x4mffohan7flekjf.py":47:37)
#loc37 = loc("/NHNHOME/WORKSPACE/26msit001_A/jinhyeok/loop_TTT/lact/.cache_inductor_llm/ca/ccagyici3ypcqydb37g6n47u7efs5jrmame6x4mffohan7flekjf.py":48:26)
#loc38 = loc("/NHNHOME/WORKSPACE/26msit001_A/jinhyeok/loop_TTT/lact/.cache_inductor_llm/ca/ccagyici3ypcqydb37g6n47u7efs5jrmame6x4mffohan7flekjf.py":48:29)
#loc39 = loc("/NHNHOME/WORKSPACE/26msit001_A/jinhyeok/loop_TTT/lact/.cache_inductor_llm/ca/ccagyici3ypcqydb37g6n47u7efs5jrmame6x4mffohan7flekjf.py":49:25)
#loc40 = loc("/NHNHOME/WORKSPACE/26msit001_A/jinhyeok/loop_TTT/lact/.cache_inductor_llm/ca/ccagyici3ypcqydb37g6n47u7efs5jrmame6x4mffohan7flekjf.py":49:36)
#loc41 = loc("/NHNHOME/WORKSPACE/26msit001_A/jinhyeok/loop_TTT/lact/.cache_inductor_llm/ca/ccagyici3ypcqydb37g6n47u7efs5jrmame6x4mffohan7flekjf.py":50:25)
#loc42 = loc("/NHNHOME/WORKSPACE/26msit001_A/jinhyeok/loop_TTT/lact/.cache_inductor_llm/ca/ccagyici3ypcqydb37g6n47u7efs5jrmame6x4mffohan7flekjf.py":50:37)
#loc43 = loc("/NHNHOME/WORKSPACE/26msit001_A/jinhyeok/loop_TTT/lact/.cache_inductor_llm/ca/ccagyici3ypcqydb37g6n47u7efs5jrmame6x4mffohan7flekjf.py":50:4)
#loc45 = loc("/NHNHOME/WORKSPACE/26msit001_A/jinhyeok/TTT_camera_embedding/.venv_llm/lib/python3.12/site-packages/triton/language/standard.py":291:36)
#loc47 = loc("/NHNHOME/WORKSPACE/26msit001_A/jinhyeok/TTT_camera_embedding/.venv_llm/lib/python3.12/site-packages/triton/language/standard.py":291:11)
#loc48 = loc("/NHNHOME/WORKSPACE/26msit001_A/jinhyeok/TTT_camera_embedding/.venv_llm/lib/python3.12/site-packages/triton/language/standard.py":291:4)
#loc50 = loc("/NHNHOME/WORKSPACE/26msit001_A/jinhyeok/TTT_camera_embedding/.venv_llm/lib/python3.12/site-packages/triton/language/standard.py":261:15)
#loc51 = loc("/NHNHOME/WORKSPACE/26msit001_A/jinhyeok/TTT_camera_embedding/.venv_llm/lib/python3.12/site-packages/triton/language/standard.py":261:11)
#loc52 = loc("/NHNHOME/WORKSPACE/26msit001_A/jinhyeok/TTT_camera_embedding/.venv_llm/lib/python3.12/site-packages/triton/language/standard.py":261:4)
#loc60 = loc("xnumel"(#loc1))
#loc61 = loc("r0_numel"(#loc2))
#loc62 = loc("xoffset"(#loc3))
#loc63 = loc("xoffset"(#loc4))
#loc64 = loc("xindex"(#loc5))
#loc65 = loc("xindex"(#loc6))
#loc66 = loc("xindex"(#loc7))
#loc67 = loc("xmask"(#loc8))
#loc68 = loc("r0_index"(#loc9))
#loc69 = loc("r0_index"(#loc10))
#loc70 = loc("r0_offset"(#loc11))
#loc71 = loc("r0_mask"(#loc12))
#loc72 = loc("x0"(#loc13))
#loc73 = loc("x1"(#loc14))
#loc74 = loc("tmp0"(#loc15))
#loc75 = loc("tmp0"(#loc16))
#loc76 = loc("tmp0"(#loc17))
#loc77 = loc("tmp0"(#loc18))
#loc78 = loc("tmp0"(#loc19))
#loc79 = loc("tmp2"(#loc20))
#loc80 = loc("tmp2"(#loc21))
#loc81 = loc("tmp2"(#loc22))
#loc82 = loc("tmp2"(#loc23))
#loc83 = loc("tmp2"(#loc24))
#loc84 = loc("tmp2"(#loc25))
#loc85 = loc("tmp8"(#loc26))
#loc86 = loc("tmp8"(#loc27))
#loc87 = loc("tmp8"(#loc28))
#loc88 = loc("tmp8"(#loc29))
#loc89 = loc("tmp8"(#loc30))
#loc90 = loc("tmp3"(#loc31))
#loc91 = loc("tmp6"(#loc32))
#loc92 = loc("tmp7"(#loc33))
#loc93 = loc("tmp7"(#loc34))
#loc94 = loc("tmp10"(#loc35))
#loc95 = loc("tmp13"(#loc36))
#loc96 = loc("tmp14"(#loc37))
#loc97 = loc("tmp14"(#loc38))
