#loc = loc("/NHNHOME/WORKSPACE/26msit001_A/jinhyeok/loop_TTT/lact/.cache_inductor_llm/oz/cozve4gxl76736bfmfpnpcyli75pjedubnyq7loufv4vheccw66y.py":18:0)
#loc61 = loc("in_ptr0"(#loc))
#loc62 = loc("in_ptr1"(#loc))
#loc63 = loc("in_ptr2"(#loc))
#loc64 = loc("out_ptr0"(#loc))
#loc65 = loc("out_ptr1"(#loc))
#loc66 = loc("out_ptr2"(#loc))
#loc67 = loc("ynumel"(#loc))
#loc68 = loc("xnumel"(#loc))
module {
  tt.func public @triton_poi_fused__to_copy_add_mul_transpose_20(%in_ptr0: !tt.ptr<f32> {tt.divisibility = 16 : i32} loc("in_ptr0"(#loc)), %in_ptr1: !tt.ptr<bf16> {tt.divisibility = 16 : i32} loc("in_ptr1"(#loc)), %in_ptr2: !tt.ptr<bf16> {tt.divisibility = 16 : i32} loc("in_ptr2"(#loc)), %out_ptr0: !tt.ptr<bf16> {tt.divisibility = 16 : i32} loc("out_ptr0"(#loc)), %out_ptr1: !tt.ptr<bf16> {tt.divisibility = 16 : i32} loc("out_ptr1"(#loc)), %out_ptr2: !tt.ptr<bf16> {tt.divisibility = 16 : i32} loc("out_ptr2"(#loc)), %ynumel: i32 {tt.divisibility = 16 : i32} loc("ynumel"(#loc)), %xnumel: i32 {tt.divisibility = 16 : i32} loc("xnumel"(#loc))) attributes {noinline = false} {
    %xnumel_0 = arith.constant 192 : i32 loc(#loc69)
    %yoffset = tt.get_program_id y : i32 loc(#loc70)
    %yoffset_1 = tt.get_program_id z : i32 loc(#loc71)
    %yoffset_2 = tt.get_num_programs y : i32 loc(#loc72)
    %yoffset_3 = arith.muli %yoffset_1, %yoffset_2 : i32 loc(#loc73)
    %yoffset_4 = arith.addi %yoffset, %yoffset_3 : i32 loc(#loc74)
    %yoffset_5 = arith.constant 4 : i32 loc(#loc75)
    %yoffset_6 = arith.constant 4 : i32 loc(#loc75)
    %yoffset_7 = arith.muli %yoffset_4, %yoffset_6 : i32 loc(#loc75)
    %yindex = tt.make_range {end = 4 : i32, start = 0 : i32} : tensor<4xi32> loc(#loc76)
    %yindex_8 = tt.expand_dims %yindex {axis = 1 : i32} : tensor<4xi32> -> tensor<4x1xi32> loc(#loc77)
    %yindex_9 = tt.splat %yoffset_7 : i32 -> tensor<4x1xi32> loc(#loc78)
    %yindex_10 = arith.addi %yindex_9, %yindex_8 : tensor<4x1xi32> loc(#loc78)
    %ymask = tt.splat %ynumel : i32 -> tensor<4x1xi32> loc(#loc79)
    %ymask_11 = arith.cmpi slt, %yindex_10, %ymask : tensor<4x1xi32> loc(#loc79)
    %xoffset = tt.get_program_id x : i32 loc(#loc80)
    %xoffset_12 = arith.constant 256 : i32 loc(#loc81)
    %xoffset_13 = arith.constant 256 : i32 loc(#loc81)
    %xoffset_14 = arith.muli %xoffset, %xoffset_13 : i32 loc(#loc81)
    %xindex = tt.make_range {end = 256 : i32, start = 0 : i32} : tensor<256xi32> loc(#loc82)
    %xindex_15 = tt.expand_dims %xindex {axis = 0 : i32} : tensor<256xi32> -> tensor<1x256xi32> loc(#loc83)
    %xindex_16 = tt.splat %xoffset_14 : i32 -> tensor<1x256xi32> loc(#loc84)
    %xindex_17 = arith.addi %xindex_16, %xindex_15 : tensor<1x256xi32> loc(#loc84)
    %xmask = arith.constant dense<192> : tensor<1x256xi32> loc(#loc85)
    %xmask_18 = arith.cmpi slt, %xindex_17, %xmask : tensor<1x256xi32> loc(#loc85)
    %y2 = arith.constant 192 : i32 loc(#loc86)
    %y2_19 = arith.constant 192 : i32 loc(#loc86)
    %y2_20 = arith.constant dense<192> : tensor<4x1xi32> loc(#loc86)
    %y2_21 = arith.remsi %yindex_10, %y2_20 : tensor<4x1xi32> loc(#loc86)
    %y3 = arith.constant 192 : i32 loc(#loc87)
    %y3_22 = arith.constant 192 : i32 loc(#loc87)
    %y3_23 = arith.constant dense<192> : tensor<4x1xi32> loc(#loc87)
    %y3_24 = arith.divsi %yindex_10, %y3_23 : tensor<4x1xi32> loc(#loc87)
    %tmp0 = arith.constant 192 : i32 loc(#loc88)
    %tmp0_25 = arith.constant 192 : i32 loc(#loc88)
    %tmp0_26 = arith.constant dense<192> : tensor<4x1xi32> loc(#loc88)
    %tmp0_27 = arith.muli %tmp0_26, %yindex_10 : tensor<4x1xi32> loc(#loc88)
    %tmp0_28 = tt.broadcast %xindex_17 : tensor<1x256xi32> -> tensor<4x256xi32> loc(#loc89)
    %tmp0_29 = tt.broadcast %tmp0_27 : tensor<4x1xi32> -> tensor<4x256xi32> loc(#loc89)
    %tmp0_30 = arith.addi %tmp0_28, %tmp0_29 : tensor<4x256xi32> loc(#loc89)
    %tmp0_31 = tt.splat %in_ptr0 : !tt.ptr<f32> -> tensor<4x256x!tt.ptr<f32>> loc(#loc90)
    %tmp0_32 = tt.addptr %tmp0_31, %tmp0_30 : tensor<4x256x!tt.ptr<f32>>, tensor<4x256xi32> loc(#loc90)
    %tmp0_33 = tt.broadcast %xmask_18 : tensor<1x256xi1> -> tensor<4x256xi1> loc(#loc91)
    %tmp0_34 = tt.broadcast %ymask_11 : tensor<4x1xi1> -> tensor<4x256xi1> loc(#loc91)
    %tmp0_35 = arith.andi %tmp0_33, %tmp0_34 : tensor<4x256xi1> loc(#loc91)
    %tmp0_36 = tt.load %tmp0_32, %tmp0_35 evictionPolicy = evict_last : tensor<4x256x!tt.ptr<f32>> loc(#loc92)
    %tmp3 = arith.constant 192 : i32 loc(#loc93)
    %tmp3_37 = arith.constant 192 : i32 loc(#loc93)
    %tmp3_38 = arith.constant dense<192> : tensor<4x1xi32> loc(#loc93)
    %tmp3_39 = arith.muli %tmp3_38, %yindex_10 : tensor<4x1xi32> loc(#loc93)
    %tmp3_40 = tt.broadcast %xindex_17 : tensor<1x256xi32> -> tensor<4x256xi32> loc(#loc94)
    %tmp3_41 = tt.broadcast %tmp3_39 : tensor<4x1xi32> -> tensor<4x256xi32> loc(#loc94)
    %tmp3_42 = arith.addi %tmp3_40, %tmp3_41 : tensor<4x256xi32> loc(#loc94)
    %tmp3_43 = tt.splat %in_ptr1 : !tt.ptr<bf16> -> tensor<4x256x!tt.ptr<bf16>> loc(#loc95)
    %tmp3_44 = tt.addptr %tmp3_43, %tmp3_42 : tensor<4x256x!tt.ptr<bf16>>, tensor<4x256xi32> loc(#loc95)
    %tmp3_45 = tt.broadcast %xmask_18 : tensor<1x256xi1> -> tensor<4x256xi1> loc(#loc96)
    %tmp3_46 = tt.broadcast %ymask_11 : tensor<4x1xi1> -> tensor<4x256xi1> loc(#loc96)
    %tmp3_47 = arith.andi %tmp3_45, %tmp3_46 : tensor<4x256xi1> loc(#loc96)
    %tmp3_48 = tt.load %tmp3_44, %tmp3_47 evictionPolicy = evict_last : tensor<4x256x!tt.ptr<bf16>> loc(#loc97)
    %tmp3_49 = arith.extf %tmp3_48 : tensor<4x256xbf16> to tensor<4x256xf32> loc(#loc98)
    %tmp8 = arith.constant 192 : i32 loc(#loc99)
    %tmp8_50 = arith.constant 192 : i32 loc(#loc99)
    %tmp8_51 = arith.constant dense<192> : tensor<4x1xi32> loc(#loc99)
    %tmp8_52 = arith.muli %tmp8_51, %yindex_10 : tensor<4x1xi32> loc(#loc99)
    %tmp8_53 = tt.broadcast %xindex_17 : tensor<1x256xi32> -> tensor<4x256xi32> loc(#loc100)
    %tmp8_54 = tt.broadcast %tmp8_52 : tensor<4x1xi32> -> tensor<4x256xi32> loc(#loc100)
    %tmp8_55 = arith.addi %tmp8_53, %tmp8_54 : tensor<4x256xi32> loc(#loc100)
    %tmp8_56 = tt.splat %in_ptr2 : !tt.ptr<bf16> -> tensor<4x256x!tt.ptr<bf16>> loc(#loc101)
    %tmp8_57 = tt.addptr %tmp8_56, %tmp8_55 : tensor<4x256x!tt.ptr<bf16>>, tensor<4x256xi32> loc(#loc101)
    %tmp8_58 = tt.broadcast %xmask_18 : tensor<1x256xi1> -> tensor<4x256xi1> loc(#loc102)
    %tmp8_59 = tt.broadcast %ymask_11 : tensor<4x1xi1> -> tensor<4x256xi1> loc(#loc102)
    %tmp8_60 = arith.andi %tmp8_58, %tmp8_59 : tensor<4x256xi1> loc(#loc102)
    %tmp8_61 = tt.load %tmp8_57, %tmp8_60 evictionPolicy = evict_last : tensor<4x256x!tt.ptr<bf16>> loc(#loc103)
    %tmp8_62 = arith.extf %tmp8_61 : tensor<4x256xbf16> to tensor<4x256xf32> loc(#loc104)
    %tmp1 = arith.constant 3.741800e+00 : f32 loc(#loc105)
    %tmp2 = arith.constant dense<3.741800e+00> : tensor<4x256xf32> loc(#loc106)
    %tmp2_63 = arith.mulf %tmp0_36, %tmp2 : tensor<4x256xf32> loc(#loc106)
    %tmp5 = arith.addf %tmp2_63, %tmp3_49 : tensor<4x256xf32> loc(#loc107)
    %tmp6 = arith.constant 2.876900e+00 : f32 loc(#loc108)
    %tmp7 = arith.constant dense<2.876900e+00> : tensor<4x256xf32> loc(#loc109)
    %tmp7_64 = arith.mulf %tmp5, %tmp7 : tensor<4x256xf32> loc(#loc109)
    %tmp10 = arith.addf %tmp7_64, %tmp8_62 : tensor<4x256xf32> loc(#loc110)
    %c192_i32 = arith.constant 192 : i32 loc(#loc43)
    %c192_i32_65 = arith.constant 192 : i32 loc(#loc43)
    %cst = arith.constant dense<192> : tensor<4x1xi32> loc(#loc43)
    %0 = arith.muli %cst, %yindex_10 : tensor<4x1xi32> loc(#loc43)
    %1 = tt.broadcast %xindex_17 : tensor<1x256xi32> -> tensor<4x256xi32> loc(#loc44)
    %2 = tt.broadcast %0 : tensor<4x1xi32> -> tensor<4x256xi32> loc(#loc44)
    %3 = arith.addi %1, %2 : tensor<4x256xi32> loc(#loc44)
    %4 = tt.splat %out_ptr0 : !tt.ptr<bf16> -> tensor<4x256x!tt.ptr<bf16>> loc(#loc45)
    %5 = tt.addptr %4, %3 : tensor<4x256x!tt.ptr<bf16>>, tensor<4x256xi32> loc(#loc45)
    %6 = tt.broadcast %xmask_18 : tensor<1x256xi1> -> tensor<4x256xi1> loc(#loc46)
    %7 = tt.broadcast %ymask_11 : tensor<4x1xi1> -> tensor<4x256xi1> loc(#loc46)
    %8 = arith.andi %6, %7 : tensor<4x256xi1> loc(#loc46)
    %9 = arith.truncf %tmp10 : tensor<4x256xf32> to tensor<4x256xbf16> loc(#loc47)
    tt.store %5, %9, %8 : tensor<4x256x!tt.ptr<bf16>> loc(#loc47)
    %c192_i32_66 = arith.constant 192 : i32 loc(#loc48)
    %c192_i32_67 = arith.constant 192 : i32 loc(#loc48)
    %cst_68 = arith.constant dense<192> : tensor<1x256xi32> loc(#loc48)
    %10 = arith.muli %cst_68, %xindex_17 : tensor<1x256xi32> loc(#loc48)
    %11 = tt.broadcast %y2_21 : tensor<4x1xi32> -> tensor<4x256xi32> loc(#loc49)
    %12 = tt.broadcast %10 : tensor<1x256xi32> -> tensor<4x256xi32> loc(#loc49)
    %13 = arith.addi %11, %12 : tensor<4x256xi32> loc(#loc49)
    %c36864_i32 = arith.constant 36864 : i32 loc(#loc50)
    %c36864_i32_69 = arith.constant 36864 : i32 loc(#loc50)
    %cst_70 = arith.constant dense<36864> : tensor<4x1xi32> loc(#loc50)
    %14 = arith.muli %cst_70, %y3_24 : tensor<4x1xi32> loc(#loc50)
    %15 = tt.broadcast %14 : tensor<4x1xi32> -> tensor<4x256xi32> loc(#loc51)
    %16 = arith.addi %13, %15 : tensor<4x256xi32> loc(#loc51)
    %17 = tt.splat %out_ptr1 : !tt.ptr<bf16> -> tensor<4x256x!tt.ptr<bf16>> loc(#loc52)
    %18 = tt.addptr %17, %16 : tensor<4x256x!tt.ptr<bf16>>, tensor<4x256xi32> loc(#loc52)
    %19 = tt.broadcast %xmask_18 : tensor<1x256xi1> -> tensor<4x256xi1> loc(#loc53)
    %20 = tt.broadcast %ymask_11 : tensor<4x1xi1> -> tensor<4x256xi1> loc(#loc53)
    %21 = arith.andi %19, %20 : tensor<4x256xi1> loc(#loc53)
    %22 = arith.truncf %tmp10 : tensor<4x256xf32> to tensor<4x256xbf16> loc(#loc54)
    tt.store %18, %22, %21 : tensor<4x256x!tt.ptr<bf16>> loc(#loc54)
    %c192_i32_71 = arith.constant 192 : i32 loc(#loc55)
    %c192_i32_72 = arith.constant 192 : i32 loc(#loc55)
    %cst_73 = arith.constant dense<192> : tensor<4x1xi32> loc(#loc55)
    %23 = arith.muli %cst_73, %yindex_10 : tensor<4x1xi32> loc(#loc55)
    %24 = tt.broadcast %xindex_17 : tensor<1x256xi32> -> tensor<4x256xi32> loc(#loc56)
    %25 = tt.broadcast %23 : tensor<4x1xi32> -> tensor<4x256xi32> loc(#loc56)
    %26 = arith.addi %24, %25 : tensor<4x256xi32> loc(#loc56)
    %27 = tt.splat %out_ptr2 : !tt.ptr<bf16> -> tensor<4x256x!tt.ptr<bf16>> loc(#loc57)
    %28 = tt.addptr %27, %26 : tensor<4x256x!tt.ptr<bf16>>, tensor<4x256xi32> loc(#loc57)
    %29 = tt.broadcast %xmask_18 : tensor<1x256xi1> -> tensor<4x256xi1> loc(#loc58)
    %30 = tt.broadcast %ymask_11 : tensor<4x1xi1> -> tensor<4x256xi1> loc(#loc58)
    %31 = arith.andi %29, %30 : tensor<4x256xi1> loc(#loc58)
    %32 = arith.truncf %tmp10 : tensor<4x256xf32> to tensor<4x256xbf16> loc(#loc59)
    tt.store %28, %32, %31 : tensor<4x256x!tt.ptr<bf16>> loc(#loc59)
    tt.return loc(#loc60)
  } loc(#loc)
} loc(#loc)
#loc1 = loc("/NHNHOME/WORKSPACE/26msit001_A/jinhyeok/loop_TTT/lact/.cache_inductor_llm/oz/cozve4gxl76736bfmfpnpcyli75pjedubnyq7loufv4vheccw66y.py":19:13)
#loc2 = loc("/NHNHOME/WORKSPACE/26msit001_A/jinhyeok/loop_TTT/lact/.cache_inductor_llm/oz/cozve4gxl76736bfmfpnpcyli75pjedubnyq7loufv4vheccw66y.py":20:29)
#loc3 = loc("/NHNHOME/WORKSPACE/26msit001_A/jinhyeok/loop_TTT/lact/.cache_inductor_llm/oz/cozve4gxl76736bfmfpnpcyli75pjedubnyq7loufv4vheccw66y.py":20:48)
#loc4 = loc("/NHNHOME/WORKSPACE/26msit001_A/jinhyeok/loop_TTT/lact/.cache_inductor_llm/oz/cozve4gxl76736bfmfpnpcyli75pjedubnyq7loufv4vheccw66y.py":20:69)
#loc5 = loc("/NHNHOME/WORKSPACE/26msit001_A/jinhyeok/loop_TTT/lact/.cache_inductor_llm/oz/cozve4gxl76736bfmfpnpcyli75pjedubnyq7loufv4vheccw66y.py":20:53)
#loc6 = loc("/NHNHOME/WORKSPACE/26msit001_A/jinhyeok/loop_TTT/lact/.cache_inductor_llm/oz/cozve4gxl76736bfmfpnpcyli75pjedubnyq7loufv4vheccw66y.py":20:34)
#loc7 = loc("/NHNHOME/WORKSPACE/26msit001_A/jinhyeok/loop_TTT/lact/.cache_inductor_llm/oz/cozve4gxl76736bfmfpnpcyli75pjedubnyq7loufv4vheccw66y.py":20:75)
#loc8 = loc("/NHNHOME/WORKSPACE/26msit001_A/jinhyeok/loop_TTT/lact/.cache_inductor_llm/oz/cozve4gxl76736bfmfpnpcyli75pjedubnyq7loufv4vheccw66y.py":21:36)
#loc9 = loc("/NHNHOME/WORKSPACE/26msit001_A/jinhyeok/loop_TTT/lact/.cache_inductor_llm/oz/cozve4gxl76736bfmfpnpcyli75pjedubnyq7loufv4vheccw66y.py":21:44)
#loc10 = loc("/NHNHOME/WORKSPACE/26msit001_A/jinhyeok/loop_TTT/lact/.cache_inductor_llm/oz/cozve4gxl76736bfmfpnpcyli75pjedubnyq7loufv4vheccw66y.py":21:23)
#loc11 = loc("/NHNHOME/WORKSPACE/26msit001_A/jinhyeok/loop_TTT/lact/.cache_inductor_llm/oz/cozve4gxl76736bfmfpnpcyli75pjedubnyq7loufv4vheccw66y.py":22:21)
#loc12 = loc("/NHNHOME/WORKSPACE/26msit001_A/jinhyeok/loop_TTT/lact/.cache_inductor_llm/oz/cozve4gxl76736bfmfpnpcyli75pjedubnyq7loufv4vheccw66y.py":23:28)
#loc13 = loc("/NHNHOME/WORKSPACE/26msit001_A/jinhyeok/loop_TTT/lact/.cache_inductor_llm/oz/cozve4gxl76736bfmfpnpcyli75pjedubnyq7loufv4vheccw66y.py":23:33)
#loc14 = loc("/NHNHOME/WORKSPACE/26msit001_A/jinhyeok/loop_TTT/lact/.cache_inductor_llm/oz/cozve4gxl76736bfmfpnpcyli75pjedubnyq7loufv4vheccw66y.py":24:36)
#loc15 = loc("/NHNHOME/WORKSPACE/26msit001_A/jinhyeok/loop_TTT/lact/.cache_inductor_llm/oz/cozve4gxl76736bfmfpnpcyli75pjedubnyq7loufv4vheccw66y.py":24:44)
#loc16 = loc("/NHNHOME/WORKSPACE/26msit001_A/jinhyeok/loop_TTT/lact/.cache_inductor_llm/oz/cozve4gxl76736bfmfpnpcyli75pjedubnyq7loufv4vheccw66y.py":24:23)
#loc17 = loc("/NHNHOME/WORKSPACE/26msit001_A/jinhyeok/loop_TTT/lact/.cache_inductor_llm/oz/cozve4gxl76736bfmfpnpcyli75pjedubnyq7loufv4vheccw66y.py":25:21)
#loc18 = loc("/NHNHOME/WORKSPACE/26msit001_A/jinhyeok/loop_TTT/lact/.cache_inductor_llm/oz/cozve4gxl76736bfmfpnpcyli75pjedubnyq7loufv4vheccw66y.py":28:19)
#loc19 = loc("/NHNHOME/WORKSPACE/26msit001_A/jinhyeok/loop_TTT/lact/.cache_inductor_llm/oz/cozve4gxl76736bfmfpnpcyli75pjedubnyq7loufv4vheccw66y.py":29:19)
#loc20 = loc("/NHNHOME/WORKSPACE/26msit001_A/jinhyeok/loop_TTT/lact/.cache_inductor_llm/oz/cozve4gxl76736bfmfpnpcyli75pjedubnyq7loufv4vheccw66y.py":30:39)
#loc21 = loc("/NHNHOME/WORKSPACE/26msit001_A/jinhyeok/loop_TTT/lact/.cache_inductor_llm/oz/cozve4gxl76736bfmfpnpcyli75pjedubnyq7loufv4vheccw66y.py":30:35)
#loc22 = loc("/NHNHOME/WORKSPACE/26msit001_A/jinhyeok/loop_TTT/lact/.cache_inductor_llm/oz/cozve4gxl76736bfmfpnpcyli75pjedubnyq7loufv4vheccw66y.py":30:30)
#loc23 = loc("/NHNHOME/WORKSPACE/26msit001_A/jinhyeok/loop_TTT/lact/.cache_inductor_llm/oz/cozve4gxl76736bfmfpnpcyli75pjedubnyq7loufv4vheccw66y.py":30:52)
#loc24 = loc("/NHNHOME/WORKSPACE/26msit001_A/jinhyeok/loop_TTT/lact/.cache_inductor_llm/oz/cozve4gxl76736bfmfpnpcyli75pjedubnyq7loufv4vheccw66y.py":30:44)
#loc25 = loc("/NHNHOME/WORKSPACE/26msit001_A/jinhyeok/loop_TTT/lact/.cache_inductor_llm/oz/cozve4gxl76736bfmfpnpcyli75pjedubnyq7loufv4vheccw66y.py":31:39)
#loc26 = loc("/NHNHOME/WORKSPACE/26msit001_A/jinhyeok/loop_TTT/lact/.cache_inductor_llm/oz/cozve4gxl76736bfmfpnpcyli75pjedubnyq7loufv4vheccw66y.py":31:35)
#loc27 = loc("/NHNHOME/WORKSPACE/26msit001_A/jinhyeok/loop_TTT/lact/.cache_inductor_llm/oz/cozve4gxl76736bfmfpnpcyli75pjedubnyq7loufv4vheccw66y.py":31:30)
#loc28 = loc("/NHNHOME/WORKSPACE/26msit001_A/jinhyeok/loop_TTT/lact/.cache_inductor_llm/oz/cozve4gxl76736bfmfpnpcyli75pjedubnyq7loufv4vheccw66y.py":31:52)
#loc29 = loc("/NHNHOME/WORKSPACE/26msit001_A/jinhyeok/loop_TTT/lact/.cache_inductor_llm/oz/cozve4gxl76736bfmfpnpcyli75pjedubnyq7loufv4vheccw66y.py":31:44)
#loc30 = loc("/NHNHOME/WORKSPACE/26msit001_A/jinhyeok/loop_TTT/lact/.cache_inductor_llm/oz/cozve4gxl76736bfmfpnpcyli75pjedubnyq7loufv4vheccw66y.py":31:92)
#loc31 = loc("/NHNHOME/WORKSPACE/26msit001_A/jinhyeok/loop_TTT/lact/.cache_inductor_llm/oz/cozve4gxl76736bfmfpnpcyli75pjedubnyq7loufv4vheccw66y.py":32:39)
#loc32 = loc("/NHNHOME/WORKSPACE/26msit001_A/jinhyeok/loop_TTT/lact/.cache_inductor_llm/oz/cozve4gxl76736bfmfpnpcyli75pjedubnyq7loufv4vheccw66y.py":32:35)
#loc33 = loc("/NHNHOME/WORKSPACE/26msit001_A/jinhyeok/loop_TTT/lact/.cache_inductor_llm/oz/cozve4gxl76736bfmfpnpcyli75pjedubnyq7loufv4vheccw66y.py":32:30)
#loc34 = loc("/NHNHOME/WORKSPACE/26msit001_A/jinhyeok/loop_TTT/lact/.cache_inductor_llm/oz/cozve4gxl76736bfmfpnpcyli75pjedubnyq7loufv4vheccw66y.py":32:52)
#loc35 = loc("/NHNHOME/WORKSPACE/26msit001_A/jinhyeok/loop_TTT/lact/.cache_inductor_llm/oz/cozve4gxl76736bfmfpnpcyli75pjedubnyq7loufv4vheccw66y.py":32:44)
#loc36 = loc("/NHNHOME/WORKSPACE/26msit001_A/jinhyeok/loop_TTT/lact/.cache_inductor_llm/oz/cozve4gxl76736bfmfpnpcyli75pjedubnyq7loufv4vheccw66y.py":32:92)
#loc37 = loc("/NHNHOME/WORKSPACE/26msit001_A/jinhyeok/loop_TTT/lact/.cache_inductor_llm/oz/cozve4gxl76736bfmfpnpcyli75pjedubnyq7loufv4vheccw66y.py":33:11)
#loc38 = loc("/NHNHOME/WORKSPACE/26msit001_A/jinhyeok/loop_TTT/lact/.cache_inductor_llm/oz/cozve4gxl76736bfmfpnpcyli75pjedubnyq7loufv4vheccw66y.py":34:18)
#loc39 = loc("/NHNHOME/WORKSPACE/26msit001_A/jinhyeok/loop_TTT/lact/.cache_inductor_llm/oz/cozve4gxl76736bfmfpnpcyli75pjedubnyq7loufv4vheccw66y.py":36:18)
#loc40 = loc("/NHNHOME/WORKSPACE/26msit001_A/jinhyeok/loop_TTT/lact/.cache_inductor_llm/oz/cozve4gxl76736bfmfpnpcyli75pjedubnyq7loufv4vheccw66y.py":37:11)
#loc41 = loc("/NHNHOME/WORKSPACE/26msit001_A/jinhyeok/loop_TTT/lact/.cache_inductor_llm/oz/cozve4gxl76736bfmfpnpcyli75pjedubnyq7loufv4vheccw66y.py":38:18)
#loc42 = loc("/NHNHOME/WORKSPACE/26msit001_A/jinhyeok/loop_TTT/lact/.cache_inductor_llm/oz/cozve4gxl76736bfmfpnpcyli75pjedubnyq7loufv4vheccw66y.py":40:19)
#loc43 = loc("/NHNHOME/WORKSPACE/26msit001_A/jinhyeok/loop_TTT/lact/.cache_inductor_llm/oz/cozve4gxl76736bfmfpnpcyli75pjedubnyq7loufv4vheccw66y.py":42:34)
#loc44 = loc("/NHNHOME/WORKSPACE/26msit001_A/jinhyeok/loop_TTT/lact/.cache_inductor_llm/oz/cozve4gxl76736bfmfpnpcyli75pjedubnyq7loufv4vheccw66y.py":42:30)
#loc45 = loc("/NHNHOME/WORKSPACE/26msit001_A/jinhyeok/loop_TTT/lact/.cache_inductor_llm/oz/cozve4gxl76736bfmfpnpcyli75pjedubnyq7loufv4vheccw66y.py":42:25)
#loc46 = loc("/NHNHOME/WORKSPACE/26msit001_A/jinhyeok/loop_TTT/lact/.cache_inductor_llm/oz/cozve4gxl76736bfmfpnpcyli75pjedubnyq7loufv4vheccw66y.py":42:54)
#loc47 = loc("/NHNHOME/WORKSPACE/26msit001_A/jinhyeok/loop_TTT/lact/.cache_inductor_llm/oz/cozve4gxl76736bfmfpnpcyli75pjedubnyq7loufv4vheccw66y.py":42:46)
#loc48 = loc("/NHNHOME/WORKSPACE/26msit001_A/jinhyeok/loop_TTT/lact/.cache_inductor_llm/oz/cozve4gxl76736bfmfpnpcyli75pjedubnyq7loufv4vheccw66y.py":43:34)
#loc49 = loc("/NHNHOME/WORKSPACE/26msit001_A/jinhyeok/loop_TTT/lact/.cache_inductor_llm/oz/cozve4gxl76736bfmfpnpcyli75pjedubnyq7loufv4vheccw66y.py":43:30)
#loc50 = loc("/NHNHOME/WORKSPACE/26msit001_A/jinhyeok/loop_TTT/lact/.cache_inductor_llm/oz/cozve4gxl76736bfmfpnpcyli75pjedubnyq7loufv4vheccw66y.py":43:45)
#loc51 = loc("/NHNHOME/WORKSPACE/26msit001_A/jinhyeok/loop_TTT/lact/.cache_inductor_llm/oz/cozve4gxl76736bfmfpnpcyli75pjedubnyq7loufv4vheccw66y.py":43:39)
#loc52 = loc("/NHNHOME/WORKSPACE/26msit001_A/jinhyeok/loop_TTT/lact/.cache_inductor_llm/oz/cozve4gxl76736bfmfpnpcyli75pjedubnyq7loufv4vheccw66y.py":43:25)
#loc53 = loc("/NHNHOME/WORKSPACE/26msit001_A/jinhyeok/loop_TTT/lact/.cache_inductor_llm/oz/cozve4gxl76736bfmfpnpcyli75pjedubnyq7loufv4vheccw66y.py":43:65)
#loc54 = loc("/NHNHOME/WORKSPACE/26msit001_A/jinhyeok/loop_TTT/lact/.cache_inductor_llm/oz/cozve4gxl76736bfmfpnpcyli75pjedubnyq7loufv4vheccw66y.py":43:57)
#loc55 = loc("/NHNHOME/WORKSPACE/26msit001_A/jinhyeok/loop_TTT/lact/.cache_inductor_llm/oz/cozve4gxl76736bfmfpnpcyli75pjedubnyq7loufv4vheccw66y.py":44:34)
#loc56 = loc("/NHNHOME/WORKSPACE/26msit001_A/jinhyeok/loop_TTT/lact/.cache_inductor_llm/oz/cozve4gxl76736bfmfpnpcyli75pjedubnyq7loufv4vheccw66y.py":44:30)
#loc57 = loc("/NHNHOME/WORKSPACE/26msit001_A/jinhyeok/loop_TTT/lact/.cache_inductor_llm/oz/cozve4gxl76736bfmfpnpcyli75pjedubnyq7loufv4vheccw66y.py":44:25)
#loc58 = loc("/NHNHOME/WORKSPACE/26msit001_A/jinhyeok/loop_TTT/lact/.cache_inductor_llm/oz/cozve4gxl76736bfmfpnpcyli75pjedubnyq7loufv4vheccw66y.py":44:54)
#loc59 = loc("/NHNHOME/WORKSPACE/26msit001_A/jinhyeok/loop_TTT/lact/.cache_inductor_llm/oz/cozve4gxl76736bfmfpnpcyli75pjedubnyq7loufv4vheccw66y.py":44:46)
#loc60 = loc("/NHNHOME/WORKSPACE/26msit001_A/jinhyeok/loop_TTT/lact/.cache_inductor_llm/oz/cozve4gxl76736bfmfpnpcyli75pjedubnyq7loufv4vheccw66y.py":44:4)
#loc69 = loc("xnumel"(#loc1))
#loc70 = loc("yoffset"(#loc2))
#loc71 = loc("yoffset"(#loc3))
#loc72 = loc("yoffset"(#loc4))
#loc73 = loc("yoffset"(#loc5))
#loc74 = loc("yoffset"(#loc6))
#loc75 = loc("yoffset"(#loc7))
#loc76 = loc("yindex"(#loc8))
#loc77 = loc("yindex"(#loc9))
#loc78 = loc("yindex"(#loc10))
#loc79 = loc("ymask"(#loc11))
#loc80 = loc("xoffset"(#loc12))
#loc81 = loc("xoffset"(#loc13))
#loc82 = loc("xindex"(#loc14))
#loc83 = loc("xindex"(#loc15))
#loc84 = loc("xindex"(#loc16))
#loc85 = loc("xmask"(#loc17))
#loc86 = loc("y2"(#loc18))
#loc87 = loc("y3"(#loc19))
#loc88 = loc("tmp0"(#loc20))
#loc89 = loc("tmp0"(#loc21))
#loc90 = loc("tmp0"(#loc22))
#loc91 = loc("tmp0"(#loc23))
#loc92 = loc("tmp0"(#loc24))
#loc93 = loc("tmp3"(#loc25))
#loc94 = loc("tmp3"(#loc26))
#loc95 = loc("tmp3"(#loc27))
#loc96 = loc("tmp3"(#loc28))
#loc97 = loc("tmp3"(#loc29))
#loc98 = loc("tmp3"(#loc30))
#loc99 = loc("tmp8"(#loc31))
#loc100 = loc("tmp8"(#loc32))
#loc101 = loc("tmp8"(#loc33))
#loc102 = loc("tmp8"(#loc34))
#loc103 = loc("tmp8"(#loc35))
#loc104 = loc("tmp8"(#loc36))
#loc105 = loc("tmp1"(#loc37))
#loc106 = loc("tmp2"(#loc38))
#loc107 = loc("tmp5"(#loc39))
#loc108 = loc("tmp6"(#loc40))
#loc109 = loc("tmp7"(#loc41))
#loc110 = loc("tmp10"(#loc42))
