#loc = loc("/NHNHOME/WORKSPACE/26msit001_A/jinhyeok/TTT_camera_embedding/lact_llm/.cache_inductor/l6/cl6zbpwb63mkvvqybkubrtd2pzacvleuur5k62i6xlmk2alegeop.py":18:0)
#loc22 = loc("in_ptr0"(#loc))
#loc23 = loc("in_ptr1"(#loc))
#loc24 = loc("out_ptr0"(#loc))
#loc25 = loc("out_ptr1"(#loc))
#loc26 = loc("out_ptr2"(#loc))
#loc27 = loc("xnumel"(#loc))
module {
  tt.func public @triton_poi_fused__to_copy_add_mul_transpose_16(%in_ptr0: !tt.ptr<f32> {tt.divisibility = 16 : i32} loc("in_ptr0"(#loc)), %in_ptr1: !tt.ptr<bf16> {tt.divisibility = 16 : i32} loc("in_ptr1"(#loc)), %out_ptr0: !tt.ptr<bf16> {tt.divisibility = 16 : i32} loc("out_ptr0"(#loc)), %out_ptr1: !tt.ptr<bf16> {tt.divisibility = 16 : i32} loc("out_ptr1"(#loc)), %out_ptr2: !tt.ptr<bf16> {tt.divisibility = 16 : i32} loc("out_ptr2"(#loc)), %xnumel: i32 {tt.divisibility = 16 : i32} loc("xnumel"(#loc))) attributes {noinline = false} {
    %xnumel_0 = arith.constant 1179648 : i32 loc(#loc28)
    %xoffset = tt.get_program_id x : i32 loc(#loc29)
    %xoffset_1 = arith.constant 512 : i32 loc(#loc30)
    %xoffset_2 = arith.constant 512 : i32 loc(#loc30)
    %xoffset_3 = arith.muli %xoffset, %xoffset_2 : i32 loc(#loc30)
    %xindex = tt.make_range {end = 512 : i32, start = 0 : i32} : tensor<512xi32> loc(#loc31)
    %xindex_4 = tt.splat %xoffset_3 : i32 -> tensor<512xi32> loc(#loc32)
    %xindex_5 = arith.addi %xindex_4, %xindex : tensor<512xi32> loc(#loc32)
    %xmask = arith.constant true loc(#loc33)
    %xmask_6 = arith.constant dense<true> : tensor<512xi1> loc(#loc33)
    %tmp0 = tt.splat %in_ptr0 : !tt.ptr<f32> -> tensor<512x!tt.ptr<f32>> loc(#loc34)
    %tmp0_7 = tt.addptr %tmp0, %xindex_5 : tensor<512x!tt.ptr<f32>>, tensor<512xi32> loc(#loc34)
    %tmp0_8 = tt.load %tmp0_7 : tensor<512x!tt.ptr<f32>> loc(#loc35)
    %tmp3 = tt.splat %in_ptr1 : !tt.ptr<bf16> -> tensor<512x!tt.ptr<bf16>> loc(#loc36)
    %tmp3_9 = tt.addptr %tmp3, %xindex_5 : tensor<512x!tt.ptr<bf16>>, tensor<512xi32> loc(#loc36)
    %tmp3_10 = tt.load %tmp3_9 : tensor<512x!tt.ptr<bf16>> loc(#loc37)
    %tmp3_11 = arith.extf %tmp3_10 : tensor<512xbf16> to tensor<512xf32> loc(#loc38)
    %tmp1 = arith.constant 3.741800e+00 : f32 loc(#loc39)
    %tmp2 = arith.constant dense<3.741800e+00> : tensor<512xf32> loc(#loc40)
    %tmp2_12 = arith.mulf %tmp0_8, %tmp2 : tensor<512xf32> loc(#loc40)
    %tmp5 = arith.addf %tmp2_12, %tmp3_11 : tensor<512xf32> loc(#loc41)
    %0 = tt.splat %out_ptr0 : !tt.ptr<bf16> -> tensor<512x!tt.ptr<bf16>> loc(#loc15)
    %1 = tt.addptr %0, %xindex_5 : tensor<512x!tt.ptr<bf16>>, tensor<512xi32> loc(#loc15)
    %2 = arith.truncf %tmp5 : tensor<512xf32> to tensor<512xbf16> loc(#loc16)
    tt.store %1, %2 : tensor<512x!tt.ptr<bf16>> loc(#loc16)
    %3 = tt.splat %out_ptr1 : !tt.ptr<bf16> -> tensor<512x!tt.ptr<bf16>> loc(#loc17)
    %4 = tt.addptr %3, %xindex_5 : tensor<512x!tt.ptr<bf16>>, tensor<512xi32> loc(#loc17)
    %5 = arith.truncf %tmp5 : tensor<512xf32> to tensor<512xbf16> loc(#loc18)
    tt.store %4, %5 : tensor<512x!tt.ptr<bf16>> loc(#loc18)
    %6 = tt.splat %out_ptr2 : !tt.ptr<bf16> -> tensor<512x!tt.ptr<bf16>> loc(#loc19)
    %7 = tt.addptr %6, %xindex_5 : tensor<512x!tt.ptr<bf16>>, tensor<512xi32> loc(#loc19)
    %8 = arith.truncf %tmp5 : tensor<512xf32> to tensor<512xbf16> loc(#loc20)
    tt.store %7, %8 : tensor<512x!tt.ptr<bf16>> loc(#loc20)
    tt.return loc(#loc21)
  } loc(#loc)
} loc(#loc)
#loc1 = loc("/NHNHOME/WORKSPACE/26msit001_A/jinhyeok/TTT_camera_embedding/lact_llm/.cache_inductor/l6/cl6zbpwb63mkvvqybkubrtd2pzacvleuur5k62i6xlmk2alegeop.py":19:13)
#loc2 = loc("/NHNHOME/WORKSPACE/26msit001_A/jinhyeok/TTT_camera_embedding/lact_llm/.cache_inductor/l6/cl6zbpwb63mkvvqybkubrtd2pzacvleuur5k62i6xlmk2alegeop.py":20:28)
#loc3 = loc("/NHNHOME/WORKSPACE/26msit001_A/jinhyeok/TTT_camera_embedding/lact_llm/.cache_inductor/l6/cl6zbpwb63mkvvqybkubrtd2pzacvleuur5k62i6xlmk2alegeop.py":20:33)
#loc4 = loc("/NHNHOME/WORKSPACE/26msit001_A/jinhyeok/TTT_camera_embedding/lact_llm/.cache_inductor/l6/cl6zbpwb63mkvvqybkubrtd2pzacvleuur5k62i6xlmk2alegeop.py":21:36)
#loc5 = loc("/NHNHOME/WORKSPACE/26msit001_A/jinhyeok/TTT_camera_embedding/lact_llm/.cache_inductor/l6/cl6zbpwb63mkvvqybkubrtd2pzacvleuur5k62i6xlmk2alegeop.py":21:23)
#loc6 = loc("/NHNHOME/WORKSPACE/26msit001_A/jinhyeok/TTT_camera_embedding/lact_llm/.cache_inductor/l6/cl6zbpwb63mkvvqybkubrtd2pzacvleuur5k62i6xlmk2alegeop.py":22:36)
#loc7 = loc("/NHNHOME/WORKSPACE/26msit001_A/jinhyeok/TTT_camera_embedding/lact_llm/.cache_inductor/l6/cl6zbpwb63mkvvqybkubrtd2pzacvleuur5k62i6xlmk2alegeop.py":24:30)
#loc8 = loc("/NHNHOME/WORKSPACE/26msit001_A/jinhyeok/TTT_camera_embedding/lact_llm/.cache_inductor/l6/cl6zbpwb63mkvvqybkubrtd2pzacvleuur5k62i6xlmk2alegeop.py":24:35)
#loc9 = loc("/NHNHOME/WORKSPACE/26msit001_A/jinhyeok/TTT_camera_embedding/lact_llm/.cache_inductor/l6/cl6zbpwb63mkvvqybkubrtd2pzacvleuur5k62i6xlmk2alegeop.py":25:30)
#loc10 = loc("/NHNHOME/WORKSPACE/26msit001_A/jinhyeok/TTT_camera_embedding/lact_llm/.cache_inductor/l6/cl6zbpwb63mkvvqybkubrtd2pzacvleuur5k62i6xlmk2alegeop.py":25:35)
#loc11 = loc("/NHNHOME/WORKSPACE/26msit001_A/jinhyeok/TTT_camera_embedding/lact_llm/.cache_inductor/l6/cl6zbpwb63mkvvqybkubrtd2pzacvleuur5k62i6xlmk2alegeop.py":25:44)
#loc12 = loc("/NHNHOME/WORKSPACE/26msit001_A/jinhyeok/TTT_camera_embedding/lact_llm/.cache_inductor/l6/cl6zbpwb63mkvvqybkubrtd2pzacvleuur5k62i6xlmk2alegeop.py":26:11)
#loc13 = loc("/NHNHOME/WORKSPACE/26msit001_A/jinhyeok/TTT_camera_embedding/lact_llm/.cache_inductor/l6/cl6zbpwb63mkvvqybkubrtd2pzacvleuur5k62i6xlmk2alegeop.py":27:18)
#loc14 = loc("/NHNHOME/WORKSPACE/26msit001_A/jinhyeok/TTT_camera_embedding/lact_llm/.cache_inductor/l6/cl6zbpwb63mkvvqybkubrtd2pzacvleuur5k62i6xlmk2alegeop.py":29:18)
#loc15 = loc("/NHNHOME/WORKSPACE/26msit001_A/jinhyeok/TTT_camera_embedding/lact_llm/.cache_inductor/l6/cl6zbpwb63mkvvqybkubrtd2pzacvleuur5k62i6xlmk2alegeop.py":31:25)
#loc16 = loc("/NHNHOME/WORKSPACE/26msit001_A/jinhyeok/TTT_camera_embedding/lact_llm/.cache_inductor/l6/cl6zbpwb63mkvvqybkubrtd2pzacvleuur5k62i6xlmk2alegeop.py":31:36)
#loc17 = loc("/NHNHOME/WORKSPACE/26msit001_A/jinhyeok/TTT_camera_embedding/lact_llm/.cache_inductor/l6/cl6zbpwb63mkvvqybkubrtd2pzacvleuur5k62i6xlmk2alegeop.py":32:25)
#loc18 = loc("/NHNHOME/WORKSPACE/26msit001_A/jinhyeok/TTT_camera_embedding/lact_llm/.cache_inductor/l6/cl6zbpwb63mkvvqybkubrtd2pzacvleuur5k62i6xlmk2alegeop.py":32:36)
#loc19 = loc("/NHNHOME/WORKSPACE/26msit001_A/jinhyeok/TTT_camera_embedding/lact_llm/.cache_inductor/l6/cl6zbpwb63mkvvqybkubrtd2pzacvleuur5k62i6xlmk2alegeop.py":33:25)
#loc20 = loc("/NHNHOME/WORKSPACE/26msit001_A/jinhyeok/TTT_camera_embedding/lact_llm/.cache_inductor/l6/cl6zbpwb63mkvvqybkubrtd2pzacvleuur5k62i6xlmk2alegeop.py":33:36)
#loc21 = loc("/NHNHOME/WORKSPACE/26msit001_A/jinhyeok/TTT_camera_embedding/lact_llm/.cache_inductor/l6/cl6zbpwb63mkvvqybkubrtd2pzacvleuur5k62i6xlmk2alegeop.py":33:4)
#loc28 = loc("xnumel"(#loc1))
#loc29 = loc("xoffset"(#loc2))
#loc30 = loc("xoffset"(#loc3))
#loc31 = loc("xindex"(#loc4))
#loc32 = loc("xindex"(#loc5))
#loc33 = loc("xmask"(#loc6))
#loc34 = loc("tmp0"(#loc7))
#loc35 = loc("tmp0"(#loc8))
#loc36 = loc("tmp3"(#loc9))
#loc37 = loc("tmp3"(#loc10))
#loc38 = loc("tmp3"(#loc11))
#loc39 = loc("tmp1"(#loc12))
#loc40 = loc("tmp2"(#loc13))
#loc41 = loc("tmp5"(#loc14))
