#loc = loc("/NHNHOME/WORKSPACE/26msit001_A/jinhyeok/loop_TTT/lact/.cache_inductor_llm/7n/c7n4ufgjueefrv3s3pkjsoe47rqgpmz23onnvd7a4ksjjaq4rjcd.py":18:0)
#loc27 = loc("/NHNHOME/WORKSPACE/26msit001_A/jinhyeok/TTT_camera_embedding/.venv_llm/lib/python3.12/site-packages/triton/language/standard.py":285:0)
#loc29 = loc(unknown)
#loc32 = loc("/NHNHOME/WORKSPACE/26msit001_A/jinhyeok/TTT_camera_embedding/.venv_llm/lib/python3.12/site-packages/triton/language/standard.py":260:0)
#loc36 = loc("in_out_ptr0"(#loc))
#loc37 = loc("in_ptr0"(#loc))
#loc38 = loc("xnumel"(#loc))
#loc39 = loc("r0_numel"(#loc))
#loc62 = loc("input"(#loc27))
#loc63 = loc("a"(#loc32))
#loc64 = loc("b"(#loc32))
module {
  tt.func public @triton_per_fused__to_copy_add_linalg_vector_norm_mul_zeros_like_5(%in_out_ptr0: !tt.ptr<f32> {tt.divisibility = 16 : i32} loc("in_out_ptr0"(#loc)), %in_ptr0: !tt.ptr<f32> {tt.divisibility = 16 : i32} loc("in_ptr0"(#loc)), %xnumel: i32 {tt.divisibility = 16 : i32} loc("xnumel"(#loc)), %r0_numel: i32 loc("r0_numel"(#loc))) attributes {noinline = false} {
    %xnumel_0 = arith.constant 96 : i32 loc(#loc40)
    %r0_numel_1 = arith.constant 5 : i32 loc(#loc41)
    %xoffset = tt.get_program_id x : i32 loc(#loc42)
    %xoffset_2 = arith.constant 8 : i32 loc(#loc43)
    %xoffset_3 = arith.constant 8 : i32 loc(#loc43)
    %xoffset_4 = arith.muli %xoffset, %xoffset_3 : i32 loc(#loc43)
    %xindex = tt.make_range {end = 8 : i32, start = 0 : i32} : tensor<8xi32> loc(#loc44)
    %xindex_5 = tt.expand_dims %xindex {axis = 1 : i32} : tensor<8xi32> -> tensor<8x1xi32> loc(#loc45)
    %xindex_6 = tt.splat %xoffset_4 : i32 -> tensor<8x1xi32> loc(#loc46)
    %xindex_7 = arith.addi %xindex_6, %xindex_5 : tensor<8x1xi32> loc(#loc46)
    %xmask = arith.constant dense<96> : tensor<8x1xi32> loc(#loc47)
    %xmask_8 = arith.cmpi slt, %xindex_7, %xmask : tensor<8x1xi32> loc(#loc47)
    %r0_index = tt.make_range {end = 8 : i32, start = 0 : i32} : tensor<8xi32> loc(#loc48)
    %r0_index_9 = tt.expand_dims %r0_index {axis = 0 : i32} : tensor<8xi32> -> tensor<1x8xi32> loc(#loc49)
    %r0_offset = arith.constant 0 : i32 loc(#loc50)
    %r0_mask = arith.constant dense<5> : tensor<1x8xi32> loc(#loc51)
    %r0_mask_10 = arith.cmpi slt, %r0_index_9, %r0_mask : tensor<1x8xi32> loc(#loc51)
    %tmp0 = arith.constant 5 : i32 loc(#loc52)
    %tmp0_11 = arith.constant 5 : i32 loc(#loc52)
    %tmp0_12 = arith.constant dense<5> : tensor<8x1xi32> loc(#loc52)
    %tmp0_13 = arith.muli %tmp0_12, %xindex_7 : tensor<8x1xi32> loc(#loc52)
    %tmp0_14 = tt.broadcast %r0_index_9 : tensor<1x8xi32> -> tensor<8x8xi32> loc(#loc53)
    %tmp0_15 = tt.broadcast %tmp0_13 : tensor<8x1xi32> -> tensor<8x8xi32> loc(#loc53)
    %tmp0_16 = arith.addi %tmp0_14, %tmp0_15 : tensor<8x8xi32> loc(#loc53)
    %tmp0_17 = tt.splat %in_ptr0 : !tt.ptr<f32> -> tensor<8x8x!tt.ptr<f32>> loc(#loc54)
    %tmp0_18 = tt.addptr %tmp0_17, %tmp0_16 : tensor<8x8x!tt.ptr<f32>>, tensor<8x8xi32> loc(#loc54)
    %tmp0_19 = tt.broadcast %r0_mask_10 : tensor<1x8xi1> -> tensor<8x8xi1> loc(#loc55)
    %tmp0_20 = tt.broadcast %xmask_8 : tensor<8x1xi1> -> tensor<8x8xi1> loc(#loc55)
    %tmp0_21 = arith.andi %tmp0_19, %tmp0_20 : tensor<8x8xi1> loc(#loc55)
    %tmp0_22 = arith.constant 0.000000e+00 : f32 loc(#loc56)
    %tmp0_23 = arith.constant dense<0.000000e+00> : tensor<8x8xf32> loc(#loc56)
    %tmp0_24 = tt.load %tmp0_18, %tmp0_21, %tmp0_23 : tensor<8x8x!tt.ptr<f32>> loc(#loc56)
    %tmp3 = tt.broadcast %r0_mask_10 : tensor<1x8xi1> -> tensor<8x8xi1> loc(#loc57)
    %tmp3_25 = tt.broadcast %xmask_8 : tensor<8x1xi1> -> tensor<8x8xi1> loc(#loc57)
    %tmp3_26 = arith.andi %tmp3, %tmp3_25 : tensor<8x8xi1> loc(#loc57)
    %tmp3_27 = arith.constant 0 : i32 loc(#loc58)
    %tmp3_28 = arith.constant 0.000000e+00 : f32 loc(#loc58)
    %tmp3_29 = arith.constant dense<0.000000e+00> : tensor<8x8xf32> loc(#loc58)
    %tmp3_30 = arith.select %tmp3_26, %tmp0_24, %tmp3_29 : tensor<8x8xi1>, tensor<8x8xf32> loc(#loc58)
    %tmp4 = tt.call @"triton.language.standard.sum__fp32S8_8S__(1,)cconstexpr_1__(2,)cconstexpr_False__(3,)cNone"(%tmp3_30) : (tensor<8x8xf32>) -> tensor<8xf32> loc(#loc59)
    %tmp4_31 = tt.expand_dims %tmp4 {axis = 1 : i32} : tensor<8xf32> -> tensor<8x1xf32> loc(#loc60)
    %tmp5 = tt.extern_elementwise %tmp4_31 {libname = "", libpath = "", pure = true, symbol = "__nv_sqrtf"} : (tensor<8x1xf32>) -> tensor<8x1xf32> loc(#loc61)
    gpu.barrier loc(#loc23)
    %0 = tt.splat %in_out_ptr0 : !tt.ptr<f32> -> tensor<8x1x!tt.ptr<f32>> loc(#loc24)
    %1 = tt.addptr %0, %xindex_7 : tensor<8x1x!tt.ptr<f32>>, tensor<8x1xi32> loc(#loc24)
    tt.store %1, %tmp5, %xmask_8 : tensor<8x1x!tt.ptr<f32>> loc(#loc25)
    tt.return loc(#loc26)
  } loc(#loc)
  tt.func private @"triton.language.standard.sum__fp32S8_8S__(1,)cconstexpr_1__(2,)cconstexpr_False__(3,)cNone"(%input: tensor<8x8xf32> loc("input"(#loc27))) -> tensor<8xf32> attributes {noinline = false} {
    %0 = "tt.reduce"(%input) <{axis = 1 : i32}> ({
    ^bb0(%arg1: f32 loc(unknown), %arg2: f32 loc(unknown)):
      %2 = tt.call @triton.language.standard._sum_combine__fp32_fp32__(%arg1, %arg2) : (f32, f32) -> f32 loc(#loc28)
      tt.reduce.return %2 : f32 loc(#loc28)
    }) : (tensor<8x8xf32>) -> tensor<8xf32> loc(#loc28)
    tt.return %0 : tensor<8xf32> loc(#loc30)
  ^bb1:  // no predecessors
    %1 = ub.poison : tensor<8xf32> loc(#loc31)
    tt.return %1 : tensor<8xf32> loc(#loc31)
  } loc(#loc27)
  tt.func private @triton.language.standard._sum_combine__fp32_fp32__(%a: f32 loc("a"(#loc32)), %b: f32 loc("b"(#loc32))) -> f32 attributes {noinline = false} {
    %0 = arith.addf %a, %b : f32 loc(#loc33)
    tt.return %0 : f32 loc(#loc34)
  ^bb1:  // no predecessors
    %1 = ub.poison : f32 loc(#loc35)
    tt.return %1 : f32 loc(#loc35)
  } loc(#loc32)
} loc(#loc)
#loc1 = loc("/NHNHOME/WORKSPACE/26msit001_A/jinhyeok/loop_TTT/lact/.cache_inductor_llm/7n/c7n4ufgjueefrv3s3pkjsoe47rqgpmz23onnvd7a4ksjjaq4rjcd.py":19:13)
#loc2 = loc("/NHNHOME/WORKSPACE/26msit001_A/jinhyeok/loop_TTT/lact/.cache_inductor_llm/7n/c7n4ufgjueefrv3s3pkjsoe47rqgpmz23onnvd7a4ksjjaq4rjcd.py":20:15)
#loc3 = loc("/NHNHOME/WORKSPACE/26msit001_A/jinhyeok/loop_TTT/lact/.cache_inductor_llm/7n/c7n4ufgjueefrv3s3pkjsoe47rqgpmz23onnvd7a4ksjjaq4rjcd.py":24:28)
#loc4 = loc("/NHNHOME/WORKSPACE/26msit001_A/jinhyeok/loop_TTT/lact/.cache_inductor_llm/7n/c7n4ufgjueefrv3s3pkjsoe47rqgpmz23onnvd7a4ksjjaq4rjcd.py":24:33)
#loc5 = loc("/NHNHOME/WORKSPACE/26msit001_A/jinhyeok/loop_TTT/lact/.cache_inductor_llm/7n/c7n4ufgjueefrv3s3pkjsoe47rqgpmz23onnvd7a4ksjjaq4rjcd.py":25:36)
#loc6 = loc("/NHNHOME/WORKSPACE/26msit001_A/jinhyeok/loop_TTT/lact/.cache_inductor_llm/7n/c7n4ufgjueefrv3s3pkjsoe47rqgpmz23onnvd7a4ksjjaq4rjcd.py":25:44)
#loc7 = loc("/NHNHOME/WORKSPACE/26msit001_A/jinhyeok/loop_TTT/lact/.cache_inductor_llm/7n/c7n4ufgjueefrv3s3pkjsoe47rqgpmz23onnvd7a4ksjjaq4rjcd.py":25:23)
#loc8 = loc("/NHNHOME/WORKSPACE/26msit001_A/jinhyeok/loop_TTT/lact/.cache_inductor_llm/7n/c7n4ufgjueefrv3s3pkjsoe47rqgpmz23onnvd7a4ksjjaq4rjcd.py":26:21)
#loc9 = loc("/NHNHOME/WORKSPACE/26msit001_A/jinhyeok/loop_TTT/lact/.cache_inductor_llm/7n/c7n4ufgjueefrv3s3pkjsoe47rqgpmz23onnvd7a4ksjjaq4rjcd.py":27:28)
#loc10 = loc("/NHNHOME/WORKSPACE/26msit001_A/jinhyeok/loop_TTT/lact/.cache_inductor_llm/7n/c7n4ufgjueefrv3s3pkjsoe47rqgpmz23onnvd7a4ksjjaq4rjcd.py":27:38)
#loc11 = loc("/NHNHOME/WORKSPACE/26msit001_A/jinhyeok/loop_TTT/lact/.cache_inductor_llm/7n/c7n4ufgjueefrv3s3pkjsoe47rqgpmz23onnvd7a4ksjjaq4rjcd.py":28:16)
#loc12 = loc("/NHNHOME/WORKSPACE/26msit001_A/jinhyeok/loop_TTT/lact/.cache_inductor_llm/7n/c7n4ufgjueefrv3s3pkjsoe47rqgpmz23onnvd7a4ksjjaq4rjcd.py":29:25)
#loc13 = loc("/NHNHOME/WORKSPACE/26msit001_A/jinhyeok/loop_TTT/lact/.cache_inductor_llm/7n/c7n4ufgjueefrv3s3pkjsoe47rqgpmz23onnvd7a4ksjjaq4rjcd.py":34:39)
#loc14 = loc("/NHNHOME/WORKSPACE/26msit001_A/jinhyeok/loop_TTT/lact/.cache_inductor_llm/7n/c7n4ufgjueefrv3s3pkjsoe47rqgpmz23onnvd7a4ksjjaq4rjcd.py":34:37)
#loc15 = loc("/NHNHOME/WORKSPACE/26msit001_A/jinhyeok/loop_TTT/lact/.cache_inductor_llm/7n/c7n4ufgjueefrv3s3pkjsoe47rqgpmz23onnvd7a4ksjjaq4rjcd.py":34:30)
#loc16 = loc("/NHNHOME/WORKSPACE/26msit001_A/jinhyeok/loop_TTT/lact/.cache_inductor_llm/7n/c7n4ufgjueefrv3s3pkjsoe47rqgpmz23onnvd7a4ksjjaq4rjcd.py":34:54)
#loc17 = loc("/NHNHOME/WORKSPACE/26msit001_A/jinhyeok/loop_TTT/lact/.cache_inductor_llm/7n/c7n4ufgjueefrv3s3pkjsoe47rqgpmz23onnvd7a4ksjjaq4rjcd.py":34:44)
#loc18 = loc("/NHNHOME/WORKSPACE/26msit001_A/jinhyeok/loop_TTT/lact/.cache_inductor_llm/7n/c7n4ufgjueefrv3s3pkjsoe47rqgpmz23onnvd7a4ksjjaq4rjcd.py":36:30)
#loc19 = loc("/NHNHOME/WORKSPACE/26msit001_A/jinhyeok/loop_TTT/lact/.cache_inductor_llm/7n/c7n4ufgjueefrv3s3pkjsoe47rqgpmz23onnvd7a4ksjjaq4rjcd.py":36:43)
#loc20 = loc("/NHNHOME/WORKSPACE/26msit001_A/jinhyeok/loop_TTT/lact/.cache_inductor_llm/7n/c7n4ufgjueefrv3s3pkjsoe47rqgpmz23onnvd7a4ksjjaq4rjcd.py":37:24)
#loc21 = loc("/NHNHOME/WORKSPACE/26msit001_A/jinhyeok/loop_TTT/lact/.cache_inductor_llm/7n/c7n4ufgjueefrv3s3pkjsoe47rqgpmz23onnvd7a4ksjjaq4rjcd.py":37:27)
#loc22 = loc("/NHNHOME/WORKSPACE/26msit001_A/jinhyeok/loop_TTT/lact/.cache_inductor_llm/7n/c7n4ufgjueefrv3s3pkjsoe47rqgpmz23onnvd7a4ksjjaq4rjcd.py":38:26)
#loc23 = loc("/NHNHOME/WORKSPACE/26msit001_A/jinhyeok/loop_TTT/lact/.cache_inductor_llm/7n/c7n4ufgjueefrv3s3pkjsoe47rqgpmz23onnvd7a4ksjjaq4rjcd.py":39:4)
#loc24 = loc("/NHNHOME/WORKSPACE/26msit001_A/jinhyeok/loop_TTT/lact/.cache_inductor_llm/7n/c7n4ufgjueefrv3s3pkjsoe47rqgpmz23onnvd7a4ksjjaq4rjcd.py":40:28)
#loc25 = loc("/NHNHOME/WORKSPACE/26msit001_A/jinhyeok/loop_TTT/lact/.cache_inductor_llm/7n/c7n4ufgjueefrv3s3pkjsoe47rqgpmz23onnvd7a4ksjjaq4rjcd.py":40:39)
#loc26 = loc("/NHNHOME/WORKSPACE/26msit001_A/jinhyeok/loop_TTT/lact/.cache_inductor_llm/7n/c7n4ufgjueefrv3s3pkjsoe47rqgpmz23onnvd7a4ksjjaq4rjcd.py":40:4)
#loc28 = loc("/NHNHOME/WORKSPACE/26msit001_A/jinhyeok/TTT_camera_embedding/.venv_llm/lib/python3.12/site-packages/triton/language/standard.py":291:36)
#loc30 = loc("/NHNHOME/WORKSPACE/26msit001_A/jinhyeok/TTT_camera_embedding/.venv_llm/lib/python3.12/site-packages/triton/language/standard.py":291:11)
#loc31 = loc("/NHNHOME/WORKSPACE/26msit001_A/jinhyeok/TTT_camera_embedding/.venv_llm/lib/python3.12/site-packages/triton/language/standard.py":291:4)
#loc33 = loc("/NHNHOME/WORKSPACE/26msit001_A/jinhyeok/TTT_camera_embedding/.venv_llm/lib/python3.12/site-packages/triton/language/standard.py":261:15)
#loc34 = loc("/NHNHOME/WORKSPACE/26msit001_A/jinhyeok/TTT_camera_embedding/.venv_llm/lib/python3.12/site-packages/triton/language/standard.py":261:11)
#loc35 = loc("/NHNHOME/WORKSPACE/26msit001_A/jinhyeok/TTT_camera_embedding/.venv_llm/lib/python3.12/site-packages/triton/language/standard.py":261:4)
#loc40 = loc("xnumel"(#loc1))
#loc41 = loc("r0_numel"(#loc2))
#loc42 = loc("xoffset"(#loc3))
#loc43 = loc("xoffset"(#loc4))
#loc44 = loc("xindex"(#loc5))
#loc45 = loc("xindex"(#loc6))
#loc46 = loc("xindex"(#loc7))
#loc47 = loc("xmask"(#loc8))
#loc48 = loc("r0_index"(#loc9))
#loc49 = loc("r0_index"(#loc10))
#loc50 = loc("r0_offset"(#loc11))
#loc51 = loc("r0_mask"(#loc12))
#loc52 = loc("tmp0"(#loc13))
#loc53 = loc("tmp0"(#loc14))
#loc54 = loc("tmp0"(#loc15))
#loc55 = loc("tmp0"(#loc16))
#loc56 = loc("tmp0"(#loc17))
#loc57 = loc("tmp3"(#loc18))
#loc58 = loc("tmp3"(#loc19))
#loc59 = loc("tmp4"(#loc20))
#loc60 = loc("tmp4"(#loc21))
#loc61 = loc("tmp5"(#loc22))
