#loc = loc("/NHNHOME/WORKSPACE/26msit001_A/jinhyeok/loop_TTT/lact/.cache_inductor_llm/rz/crz57mvsfkmic2m3hocwglkdzwrc3qvfp3iduwupyfjmkcaw3ucb.py":18:0)
#loc19 = loc("in_ptr0"(#loc))
#loc20 = loc("out_ptr0"(#loc))
#loc21 = loc("out_ptr1"(#loc))
#loc22 = loc("xnumel"(#loc))
module {
  tt.func public @triton_poi_fused__to_copy_slice_transpose_27(%in_ptr0: !tt.ptr<f32> {tt.divisibility = 16 : i32} loc("in_ptr0"(#loc)), %out_ptr0: !tt.ptr<bf16> {tt.divisibility = 16 : i32} loc("out_ptr0"(#loc)), %out_ptr1: !tt.ptr<bf16> {tt.divisibility = 16 : i32} loc("out_ptr1"(#loc)), %xnumel: i32 {tt.divisibility = 16 : i32} loc("xnumel"(#loc))) attributes {noinline = false} {
    %xnumel_0 = arith.constant 6291456 : i32 loc(#loc23)
    %xoffset = tt.get_program_id x : i32 loc(#loc24)
    %xoffset_1 = arith.constant 512 : i32 loc(#loc25)
    %xoffset_2 = arith.constant 512 : i32 loc(#loc25)
    %xoffset_3 = arith.muli %xoffset, %xoffset_2 : i32 loc(#loc25)
    %xindex = tt.make_range {end = 512 : i32, start = 0 : i32} : tensor<512xi32> loc(#loc26)
    %xindex_4 = tt.splat %xoffset_3 : i32 -> tensor<512xi32> loc(#loc27)
    %xindex_5 = arith.addi %xindex_4, %xindex : tensor<512xi32> loc(#loc27)
    %xmask = arith.constant true loc(#loc28)
    %xmask_6 = arith.constant dense<true> : tensor<512xi1> loc(#loc28)
    %x0 = arith.constant 196608 : i32 loc(#loc29)
    %x0_7 = arith.constant 196608 : i32 loc(#loc29)
    %x0_8 = arith.constant dense<196608> : tensor<512xi32> loc(#loc29)
    %x0_9 = arith.remsi %xindex_5, %x0_8 : tensor<512xi32> loc(#loc29)
    %x1 = arith.constant 196608 : i32 loc(#loc30)
    %x1_10 = arith.constant 196608 : i32 loc(#loc30)
    %x1_11 = arith.constant dense<196608> : tensor<512xi32> loc(#loc30)
    %x1_12 = arith.divsi %xindex_5, %x1_11 : tensor<512xi32> loc(#loc30)
    %tmp0 = arith.constant 196608 : i32 loc(#loc31)
    %tmp0_13 = arith.constant 196608 : i32 loc(#loc31)
    %tmp0_14 = arith.constant dense<196608> : tensor<512xi32> loc(#loc31)
    %tmp0_15 = arith.addi %tmp0_14, %x0_9 : tensor<512xi32> loc(#loc31)
    %tmp0_16 = arith.constant 786432 : i32 loc(#loc32)
    %tmp0_17 = arith.constant 786432 : i32 loc(#loc32)
    %tmp0_18 = arith.constant dense<786432> : tensor<512xi32> loc(#loc32)
    %tmp0_19 = arith.muli %tmp0_18, %x1_12 : tensor<512xi32> loc(#loc32)
    %tmp0_20 = arith.addi %tmp0_15, %tmp0_19 : tensor<512xi32> loc(#loc33)
    %tmp0_21 = tt.splat %in_ptr0 : !tt.ptr<f32> -> tensor<512x!tt.ptr<f32>> loc(#loc34)
    %tmp0_22 = tt.addptr %tmp0_21, %tmp0_20 : tensor<512x!tt.ptr<f32>>, tensor<512xi32> loc(#loc34)
    %tmp0_23 = tt.load %tmp0_22 : tensor<512x!tt.ptr<f32>> loc(#loc35)
    %0 = tt.splat %out_ptr0 : !tt.ptr<bf16> -> tensor<512x!tt.ptr<bf16>> loc(#loc14)
    %1 = tt.addptr %0, %xindex_5 : tensor<512x!tt.ptr<bf16>>, tensor<512xi32> loc(#loc14)
    %2 = arith.truncf %tmp0_23 : tensor<512xf32> to tensor<512xbf16> loc(#loc15)
    tt.store %1, %2 : tensor<512x!tt.ptr<bf16>> loc(#loc15)
    %3 = tt.splat %out_ptr1 : !tt.ptr<bf16> -> tensor<512x!tt.ptr<bf16>> loc(#loc16)
    %4 = tt.addptr %3, %xindex_5 : tensor<512x!tt.ptr<bf16>>, tensor<512xi32> loc(#loc16)
    %5 = arith.truncf %tmp0_23 : tensor<512xf32> to tensor<512xbf16> loc(#loc17)
    tt.store %4, %5 : tensor<512x!tt.ptr<bf16>> loc(#loc17)
    tt.return loc(#loc18)
  } loc(#loc)
} loc(#loc)
#loc1 = loc("/NHNHOME/WORKSPACE/26msit001_A/jinhyeok/loop_TTT/lact/.cache_inductor_llm/rz/crz57mvsfkmic2m3hocwglkdzwrc3qvfp3iduwupyfjmkcaw3ucb.py":19:13)
#loc2 = loc("/NHNHOME/WORKSPACE/26msit001_A/jinhyeok/loop_TTT/lact/.cache_inductor_llm/rz/crz57mvsfkmic2m3hocwglkdzwrc3qvfp3iduwupyfjmkcaw3ucb.py":20:28)
#loc3 = loc("/NHNHOME/WORKSPACE/26msit001_A/jinhyeok/loop_TTT/lact/.cache_inductor_llm/rz/crz57mvsfkmic2m3hocwglkdzwrc3qvfp3iduwupyfjmkcaw3ucb.py":20:33)
#loc4 = loc("/NHNHOME/WORKSPACE/26msit001_A/jinhyeok/loop_TTT/lact/.cache_inductor_llm/rz/crz57mvsfkmic2m3hocwglkdzwrc3qvfp3iduwupyfjmkcaw3ucb.py":21:36)
#loc5 = loc("/NHNHOME/WORKSPACE/26msit001_A/jinhyeok/loop_TTT/lact/.cache_inductor_llm/rz/crz57mvsfkmic2m3hocwglkdzwrc3qvfp3iduwupyfjmkcaw3ucb.py":21:23)
#loc6 = loc("/NHNHOME/WORKSPACE/26msit001_A/jinhyeok/loop_TTT/lact/.cache_inductor_llm/rz/crz57mvsfkmic2m3hocwglkdzwrc3qvfp3iduwupyfjmkcaw3ucb.py":22:36)
#loc7 = loc("/NHNHOME/WORKSPACE/26msit001_A/jinhyeok/loop_TTT/lact/.cache_inductor_llm/rz/crz57mvsfkmic2m3hocwglkdzwrc3qvfp3iduwupyfjmkcaw3ucb.py":23:19)
#loc8 = loc("/NHNHOME/WORKSPACE/26msit001_A/jinhyeok/loop_TTT/lact/.cache_inductor_llm/rz/crz57mvsfkmic2m3hocwglkdzwrc3qvfp3iduwupyfjmkcaw3ucb.py":24:19)
#loc9 = loc("/NHNHOME/WORKSPACE/26msit001_A/jinhyeok/loop_TTT/lact/.cache_inductor_llm/rz/crz57mvsfkmic2m3hocwglkdzwrc3qvfp3iduwupyfjmkcaw3ucb.py":26:39)
#loc10 = loc("/NHNHOME/WORKSPACE/26msit001_A/jinhyeok/loop_TTT/lact/.cache_inductor_llm/rz/crz57mvsfkmic2m3hocwglkdzwrc3qvfp3iduwupyfjmkcaw3ucb.py":26:51)
#loc11 = loc("/NHNHOME/WORKSPACE/26msit001_A/jinhyeok/loop_TTT/lact/.cache_inductor_llm/rz/crz57mvsfkmic2m3hocwglkdzwrc3qvfp3iduwupyfjmkcaw3ucb.py":26:44)
#loc12 = loc("/NHNHOME/WORKSPACE/26msit001_A/jinhyeok/loop_TTT/lact/.cache_inductor_llm/rz/crz57mvsfkmic2m3hocwglkdzwrc3qvfp3iduwupyfjmkcaw3ucb.py":26:30)
#loc13 = loc("/NHNHOME/WORKSPACE/26msit001_A/jinhyeok/loop_TTT/lact/.cache_inductor_llm/rz/crz57mvsfkmic2m3hocwglkdzwrc3qvfp3iduwupyfjmkcaw3ucb.py":26:56)
#loc14 = loc("/NHNHOME/WORKSPACE/26msit001_A/jinhyeok/loop_TTT/lact/.cache_inductor_llm/rz/crz57mvsfkmic2m3hocwglkdzwrc3qvfp3iduwupyfjmkcaw3ucb.py":28:25)
#loc15 = loc("/NHNHOME/WORKSPACE/26msit001_A/jinhyeok/loop_TTT/lact/.cache_inductor_llm/rz/crz57mvsfkmic2m3hocwglkdzwrc3qvfp3iduwupyfjmkcaw3ucb.py":28:36)
#loc16 = loc("/NHNHOME/WORKSPACE/26msit001_A/jinhyeok/loop_TTT/lact/.cache_inductor_llm/rz/crz57mvsfkmic2m3hocwglkdzwrc3qvfp3iduwupyfjmkcaw3ucb.py":29:25)
#loc17 = loc("/NHNHOME/WORKSPACE/26msit001_A/jinhyeok/loop_TTT/lact/.cache_inductor_llm/rz/crz57mvsfkmic2m3hocwglkdzwrc3qvfp3iduwupyfjmkcaw3ucb.py":29:36)
#loc18 = loc("/NHNHOME/WORKSPACE/26msit001_A/jinhyeok/loop_TTT/lact/.cache_inductor_llm/rz/crz57mvsfkmic2m3hocwglkdzwrc3qvfp3iduwupyfjmkcaw3ucb.py":29:4)
#loc23 = loc("xnumel"(#loc1))
#loc24 = loc("xoffset"(#loc2))
#loc25 = loc("xoffset"(#loc3))
#loc26 = loc("xindex"(#loc4))
#loc27 = loc("xindex"(#loc5))
#loc28 = loc("xmask"(#loc6))
#loc29 = loc("x0"(#loc7))
#loc30 = loc("x1"(#loc8))
#loc31 = loc("tmp0"(#loc9))
#loc32 = loc("tmp0"(#loc10))
#loc33 = loc("tmp0"(#loc11))
#loc34 = loc("tmp0"(#loc12))
#loc35 = loc("tmp0"(#loc13))
