#loc = loc("/NHNHOME/WORKSPACE/26msit001_A/jinhyeok/loop_TTT/lact/.cache_inductor_llm/7r/c7r66264rq36jpf6nhokjtq4gy46ie7u4en5447mfzmcutylwrpl.py":18:0)
#loc2 = loc(unknown)
#loc26 = loc("/NHNHOME/WORKSPACE/26msit001_A/jinhyeok/loop_TTT/lact/.cache_inductor_llm/7r/c7r66264rq36jpf6nhokjtq4gy46ie7u4en5447mfzmcutylwrpl.py":43:24)
#loc31 = loc("/NHNHOME/WORKSPACE/26msit001_A/jinhyeok/loop_TTT/lact/.cache_inductor_llm/7r/c7r66264rq36jpf6nhokjtq4gy46ie7u4en5447mfzmcutylwrpl.py":48:26)
#loc38 = loc("in_ptr0"(#loc))
#loc39 = loc("in_ptr1"(#loc))
#loc40 = loc("in_ptr2"(#loc))
#loc41 = loc("out_ptr0"(#loc))
#loc42 = loc("out_ptr1"(#loc))
#loc43 = loc("xnumel"(#loc))
#loc44 = loc("r0_numel"(#loc))
#loc68 = loc("tmp7"(#loc26))
#loc72 = loc("tmp14"(#loc31))
#loc78 = loc(callsite(#loc2 at #loc68))
#loc80 = loc(callsite(#loc2 at #loc72))
module {
  tt.func public @triton_per_fused__to_copy_mul_slice_sum_27(%in_ptr0: !tt.ptr<bf16> {tt.divisibility = 16 : i32} loc("in_ptr0"(#loc)), %in_ptr1: !tt.ptr<f32> {tt.divisibility = 16 : i32} loc("in_ptr1"(#loc)), %in_ptr2: !tt.ptr<bf16> {tt.divisibility = 16 : i32} loc("in_ptr2"(#loc)), %out_ptr0: !tt.ptr<f32> {tt.divisibility = 16 : i32} loc("out_ptr0"(#loc)), %out_ptr1: !tt.ptr<f32> {tt.divisibility = 16 : i32} loc("out_ptr1"(#loc)), %xnumel: i32 {tt.divisibility = 16 : i32} loc("xnumel"(#loc)), %r0_numel: i32 {tt.divisibility = 16 : i32} loc("r0_numel"(#loc))) attributes {noinline = false} {
    %tmp2 = arith.constant 786432 : i32 loc(#loc45)
    %c192_i32 = arith.constant 192 : i32 loc(#loc2)
    %c1024_i32 = arith.constant 1024 : i32 loc(#loc2)
    %cst = arith.constant dense<0.000000e+00> : tensor<1x256xbf16> loc(#loc2)
    %tmp2_0 = arith.constant dense<196608> : tensor<1x256xi32> loc(#loc46)
    %cst_1 = arith.constant dense<0.000000e+00> : tensor<1x256xf32> loc(#loc2)
    %r0_mask = arith.constant dense<192> : tensor<1x256xi32> loc(#loc47)
    %xoffset = tt.get_program_id x : i32 loc(#loc48)
    %r0_index = tt.make_range {end = 256 : i32, start = 0 : i32} : tensor<256xi32> loc(#loc49)
    %r0_index_2 = tt.expand_dims %r0_index {axis = 0 : i32} : tensor<256xi32> -> tensor<1x256xi32> loc(#loc50)
    %r0_mask_3 = arith.cmpi slt, %r0_index_2, %r0_mask : tensor<1x256xi32> loc(#loc47)
    %x0 = arith.remsi %xoffset, %c1024_i32 : i32 loc(#loc51)
    %x1 = arith.divsi %xoffset, %c1024_i32 : i32 loc(#loc52)
    %tmp0 = arith.muli %xoffset, %c192_i32 : i32 loc(#loc53)
    %tmp0_4 = tt.splat %tmp0 : i32 -> tensor<1x256xi32> loc(#loc74)
    %tmp0_5 = arith.addi %r0_index_2, %tmp0_4 : tensor<1x256xi32> loc(#loc54)
    %tmp0_6 = tt.splat %in_ptr0 : !tt.ptr<bf16> -> tensor<1x256x!tt.ptr<bf16>> loc(#loc55)
    %tmp0_7 = tt.addptr %tmp0_6, %tmp0_5 : tensor<1x256x!tt.ptr<bf16>>, tensor<1x256xi32> loc(#loc55)
    %tmp0_8 = tt.load %tmp0_7, %r0_mask_3, %cst : tensor<1x256x!tt.ptr<bf16>> loc(#loc56)
    %tmp0_9 = arith.extf %tmp0_8 : tensor<1x256xbf16> to tensor<1x256xf32> loc(#loc57)
    %tmp2_10 = arith.addi %r0_index_2, %tmp2_0 : tensor<1x256xi32> loc(#loc46)
    %tmp2_11 = arith.muli %x0, %c192_i32 : i32 loc(#loc58)
    %tmp2_12 = tt.splat %tmp2_11 : i32 -> tensor<1x256xi32> loc(#loc75)
    %tmp2_13 = arith.addi %tmp2_10, %tmp2_12 : tensor<1x256xi32> loc(#loc59)
    %tmp2_14 = arith.muli %x1, %tmp2 : i32 loc(#loc45)
    %tmp2_15 = tt.splat %tmp2_14 : i32 -> tensor<1x256xi32> loc(#loc76)
    %tmp2_16 = arith.addi %tmp2_13, %tmp2_15 : tensor<1x256xi32> loc(#loc60)
    %tmp2_17 = tt.splat %in_ptr1 : !tt.ptr<f32> -> tensor<1x256x!tt.ptr<f32>> loc(#loc61)
    %tmp2_18 = tt.addptr %tmp2_17, %tmp2_16 : tensor<1x256x!tt.ptr<f32>>, tensor<1x256xi32> loc(#loc61)
    %tmp2_19 = tt.load %tmp2_18, %r0_mask_3, %cst_1 : tensor<1x256x!tt.ptr<f32>> loc(#loc62)
    %tmp8 = tt.splat %in_ptr2 : !tt.ptr<bf16> -> tensor<1x256x!tt.ptr<bf16>> loc(#loc63)
    %tmp8_20 = tt.addptr %tmp8, %tmp0_5 : tensor<1x256x!tt.ptr<bf16>>, tensor<1x256xi32> loc(#loc63)
    %tmp8_21 = tt.load %tmp8_20, %r0_mask_3, %cst : tensor<1x256x!tt.ptr<bf16>> loc(#loc64)
    %tmp8_22 = arith.extf %tmp8_21 : tensor<1x256xbf16> to tensor<1x256xf32> loc(#loc65)
    %tmp3 = arith.mulf %tmp0_9, %tmp2_19 : tensor<1x256xf32> loc(#loc66)
    %tmp6 = arith.select %r0_mask_3, %tmp3, %cst_1 : tensor<1x256xi1>, tensor<1x256xf32> loc(#loc67)
    %tmp7 = "tt.reduce"(%tmp6) <{axis = 1 : i32}> ({
    ^bb0(%tmp7_25: f32 loc(callsite(#loc2 at #loc68)), %tmp7_26: f32 loc(callsite(#loc2 at #loc68))):
      %tmp7_27 = arith.addf %tmp7_25, %tmp7_26 : f32 loc(#loc81)
      tt.reduce.return %tmp7_27 : f32 loc(#loc77)
    }) : (tensor<1x256xf32>) -> tensor<1xf32> loc(#loc77)
    %tmp7_23 = tt.expand_dims %tmp7 {axis = 1 : i32} : tensor<1xf32> -> tensor<1x1xf32> loc(#loc69)
    %tmp10 = arith.mulf %tmp8_22, %tmp2_19 : tensor<1x256xf32> loc(#loc70)
    %tmp13 = arith.select %r0_mask_3, %tmp10, %cst_1 : tensor<1x256xi1>, tensor<1x256xf32> loc(#loc71)
    %tmp14 = "tt.reduce"(%tmp13) <{axis = 1 : i32}> ({
    ^bb0(%tmp14_25: f32 loc(callsite(#loc2 at #loc72)), %tmp14_26: f32 loc(callsite(#loc2 at #loc72))):
      %tmp14_27 = arith.addf %tmp14_25, %tmp14_26 : f32 loc(#loc82)
      tt.reduce.return %tmp14_27 : f32 loc(#loc79)
    }) : (tensor<1x256xf32>) -> tensor<1xf32> loc(#loc79)
    %tmp14_24 = tt.expand_dims %tmp14 {axis = 1 : i32} : tensor<1xf32> -> tensor<1x1xf32> loc(#loc73)
    %0 = tt.addptr %out_ptr0, %xoffset : !tt.ptr<f32>, i32 loc(#loc33)
    %1 = tt.splat %0 : !tt.ptr<f32> -> tensor<1x1x!tt.ptr<f32>> loc(#loc33)
    tt.store %1, %tmp7_23 : tensor<1x1x!tt.ptr<f32>> loc(#loc34)
    %2 = tt.addptr %out_ptr1, %xoffset : !tt.ptr<f32>, i32 loc(#loc35)
    %3 = tt.splat %2 : !tt.ptr<f32> -> tensor<1x1x!tt.ptr<f32>> loc(#loc35)
    tt.store %3, %tmp14_24 : tensor<1x1x!tt.ptr<f32>> loc(#loc36)
    tt.return loc(#loc37)
  } loc(#loc)
} loc(#loc)
#loc1 = loc("/NHNHOME/WORKSPACE/26msit001_A/jinhyeok/loop_TTT/lact/.cache_inductor_llm/7r/c7r66264rq36jpf6nhokjtq4gy46ie7u4en5447mfzmcutylwrpl.py":37:62)
#loc3 = loc("/NHNHOME/WORKSPACE/26msit001_A/jinhyeok/loop_TTT/lact/.cache_inductor_llm/7r/c7r66264rq36jpf6nhokjtq4gy46ie7u4en5447mfzmcutylwrpl.py":37:39)
#loc4 = loc("/NHNHOME/WORKSPACE/26msit001_A/jinhyeok/loop_TTT/lact/.cache_inductor_llm/7r/c7r66264rq36jpf6nhokjtq4gy46ie7u4en5447mfzmcutylwrpl.py":29:25)
#loc5 = loc("/NHNHOME/WORKSPACE/26msit001_A/jinhyeok/loop_TTT/lact/.cache_inductor_llm/7r/c7r66264rq36jpf6nhokjtq4gy46ie7u4en5447mfzmcutylwrpl.py":24:28)
#loc6 = loc("/NHNHOME/WORKSPACE/26msit001_A/jinhyeok/loop_TTT/lact/.cache_inductor_llm/7r/c7r66264rq36jpf6nhokjtq4gy46ie7u4en5447mfzmcutylwrpl.py":27:28)
#loc7 = loc("/NHNHOME/WORKSPACE/26msit001_A/jinhyeok/loop_TTT/lact/.cache_inductor_llm/7r/c7r66264rq36jpf6nhokjtq4gy46ie7u4en5447mfzmcutylwrpl.py":27:38)
#loc8 = loc("/NHNHOME/WORKSPACE/26msit001_A/jinhyeok/loop_TTT/lact/.cache_inductor_llm/7r/c7r66264rq36jpf6nhokjtq4gy46ie7u4en5447mfzmcutylwrpl.py":34:19)
#loc9 = loc("/NHNHOME/WORKSPACE/26msit001_A/jinhyeok/loop_TTT/lact/.cache_inductor_llm/7r/c7r66264rq36jpf6nhokjtq4gy46ie7u4en5447mfzmcutylwrpl.py":35:19)
#loc10 = loc("/NHNHOME/WORKSPACE/26msit001_A/jinhyeok/loop_TTT/lact/.cache_inductor_llm/7r/c7r66264rq36jpf6nhokjtq4gy46ie7u4en5447mfzmcutylwrpl.py":36:41)
#loc11 = loc("/NHNHOME/WORKSPACE/26msit001_A/jinhyeok/loop_TTT/lact/.cache_inductor_llm/7r/c7r66264rq36jpf6nhokjtq4gy46ie7u4en5447mfzmcutylwrpl.py":36:37)
#loc12 = loc("/NHNHOME/WORKSPACE/26msit001_A/jinhyeok/loop_TTT/lact/.cache_inductor_llm/7r/c7r66264rq36jpf6nhokjtq4gy46ie7u4en5447mfzmcutylwrpl.py":36:30)
#loc13 = loc("/NHNHOME/WORKSPACE/26msit001_A/jinhyeok/loop_TTT/lact/.cache_inductor_llm/7r/c7r66264rq36jpf6nhokjtq4gy46ie7u4en5447mfzmcutylwrpl.py":36:46)
#loc14 = loc("/NHNHOME/WORKSPACE/26msit001_A/jinhyeok/loop_TTT/lact/.cache_inductor_llm/7r/c7r66264rq36jpf6nhokjtq4gy46ie7u4en5447mfzmcutylwrpl.py":36:69)
#loc15 = loc("/NHNHOME/WORKSPACE/26msit001_A/jinhyeok/loop_TTT/lact/.cache_inductor_llm/7r/c7r66264rq36jpf6nhokjtq4gy46ie7u4en5447mfzmcutylwrpl.py":37:50)
#loc16 = loc("/NHNHOME/WORKSPACE/26msit001_A/jinhyeok/loop_TTT/lact/.cache_inductor_llm/7r/c7r66264rq36jpf6nhokjtq4gy46ie7u4en5447mfzmcutylwrpl.py":37:46)
#loc17 = loc("/NHNHOME/WORKSPACE/26msit001_A/jinhyeok/loop_TTT/lact/.cache_inductor_llm/7r/c7r66264rq36jpf6nhokjtq4gy46ie7u4en5447mfzmcutylwrpl.py":37:55)
#loc18 = loc("/NHNHOME/WORKSPACE/26msit001_A/jinhyeok/loop_TTT/lact/.cache_inductor_llm/7r/c7r66264rq36jpf6nhokjtq4gy46ie7u4en5447mfzmcutylwrpl.py":37:30)
#loc19 = loc("/NHNHOME/WORKSPACE/26msit001_A/jinhyeok/loop_TTT/lact/.cache_inductor_llm/7r/c7r66264rq36jpf6nhokjtq4gy46ie7u4en5447mfzmcutylwrpl.py":37:67)
#loc20 = loc("/NHNHOME/WORKSPACE/26msit001_A/jinhyeok/loop_TTT/lact/.cache_inductor_llm/7r/c7r66264rq36jpf6nhokjtq4gy46ie7u4en5447mfzmcutylwrpl.py":38:30)
#loc21 = loc("/NHNHOME/WORKSPACE/26msit001_A/jinhyeok/loop_TTT/lact/.cache_inductor_llm/7r/c7r66264rq36jpf6nhokjtq4gy46ie7u4en5447mfzmcutylwrpl.py":38:46)
#loc22 = loc("/NHNHOME/WORKSPACE/26msit001_A/jinhyeok/loop_TTT/lact/.cache_inductor_llm/7r/c7r66264rq36jpf6nhokjtq4gy46ie7u4en5447mfzmcutylwrpl.py":38:69)
#loc23 = loc("/NHNHOME/WORKSPACE/26msit001_A/jinhyeok/loop_TTT/lact/.cache_inductor_llm/7r/c7r66264rq36jpf6nhokjtq4gy46ie7u4en5447mfzmcutylwrpl.py":40:18)
#loc24 = loc("/NHNHOME/WORKSPACE/26msit001_A/jinhyeok/loop_TTT/lact/.cache_inductor_llm/7r/c7r66264rq36jpf6nhokjtq4gy46ie7u4en5447mfzmcutylwrpl.py":42:35)
#loc25 = loc("/NHNHOME/WORKSPACE/26msit001_A/jinhyeok/TTT_camera_embedding/.venv_llm/lib/python3.12/site-packages/triton/language/standard.py":291:36)
#loc27 = loc("/NHNHOME/WORKSPACE/26msit001_A/jinhyeok/TTT_camera_embedding/.venv_llm/lib/python3.12/site-packages/triton/language/standard.py":261:15)
#loc28 = loc("/NHNHOME/WORKSPACE/26msit001_A/jinhyeok/loop_TTT/lact/.cache_inductor_llm/7r/c7r66264rq36jpf6nhokjtq4gy46ie7u4en5447mfzmcutylwrpl.py":43:27)
#loc29 = loc("/NHNHOME/WORKSPACE/26msit001_A/jinhyeok/loop_TTT/lact/.cache_inductor_llm/7r/c7r66264rq36jpf6nhokjtq4gy46ie7u4en5447mfzmcutylwrpl.py":45:19)
#loc30 = loc("/NHNHOME/WORKSPACE/26msit001_A/jinhyeok/loop_TTT/lact/.cache_inductor_llm/7r/c7r66264rq36jpf6nhokjtq4gy46ie7u4en5447mfzmcutylwrpl.py":47:37)
#loc32 = loc("/NHNHOME/WORKSPACE/26msit001_A/jinhyeok/loop_TTT/lact/.cache_inductor_llm/7r/c7r66264rq36jpf6nhokjtq4gy46ie7u4en5447mfzmcutylwrpl.py":48:29)
#loc33 = loc("/NHNHOME/WORKSPACE/26msit001_A/jinhyeok/loop_TTT/lact/.cache_inductor_llm/7r/c7r66264rq36jpf6nhokjtq4gy46ie7u4en5447mfzmcutylwrpl.py":49:25)
#loc34 = loc("/NHNHOME/WORKSPACE/26msit001_A/jinhyeok/loop_TTT/lact/.cache_inductor_llm/7r/c7r66264rq36jpf6nhokjtq4gy46ie7u4en5447mfzmcutylwrpl.py":49:36)
#loc35 = loc("/NHNHOME/WORKSPACE/26msit001_A/jinhyeok/loop_TTT/lact/.cache_inductor_llm/7r/c7r66264rq36jpf6nhokjtq4gy46ie7u4en5447mfzmcutylwrpl.py":50:25)
#loc36 = loc("/NHNHOME/WORKSPACE/26msit001_A/jinhyeok/loop_TTT/lact/.cache_inductor_llm/7r/c7r66264rq36jpf6nhokjtq4gy46ie7u4en5447mfzmcutylwrpl.py":50:37)
#loc37 = loc("/NHNHOME/WORKSPACE/26msit001_A/jinhyeok/loop_TTT/lact/.cache_inductor_llm/7r/c7r66264rq36jpf6nhokjtq4gy46ie7u4en5447mfzmcutylwrpl.py":50:4)
#loc45 = loc("tmp2"(#loc1))
#loc46 = loc("tmp2"(#loc3))
#loc47 = loc("r0_mask"(#loc4))
#loc48 = loc("xoffset"(#loc5))
#loc49 = loc("r0_index"(#loc6))
#loc50 = loc("r0_index"(#loc7))
#loc51 = loc("x0"(#loc8))
#loc52 = loc("x1"(#loc9))
#loc53 = loc("tmp0"(#loc10))
#loc54 = loc("tmp0"(#loc11))
#loc55 = loc("tmp0"(#loc12))
#loc56 = loc("tmp0"(#loc13))
#loc57 = loc("tmp0"(#loc14))
#loc58 = loc("tmp2"(#loc15))
#loc59 = loc("tmp2"(#loc16))
#loc60 = loc("tmp2"(#loc17))
#loc61 = loc("tmp2"(#loc18))
#loc62 = loc("tmp2"(#loc19))
#loc63 = loc("tmp8"(#loc20))
#loc64 = loc("tmp8"(#loc21))
#loc65 = loc("tmp8"(#loc22))
#loc66 = loc("tmp3"(#loc23))
#loc67 = loc("tmp6"(#loc24))
#loc69 = loc("tmp7"(#loc28))
#loc70 = loc("tmp10"(#loc29))
#loc71 = loc("tmp13"(#loc30))
#loc73 = loc("tmp14"(#loc32))
#loc74 = loc(fused[#loc54, #loc53])
#loc75 = loc(fused[#loc59, #loc58])
#loc76 = loc(fused[#loc60, #loc45])
#loc77 = loc(callsite(#loc25 at #loc68))
#loc79 = loc(callsite(#loc25 at #loc72))
#loc81 = loc(callsite(#loc27 at #loc77))
#loc82 = loc(callsite(#loc27 at #loc79))
