#loc = loc("/NHNHOME/WORKSPACE/26msit001_A/jinhyeok/loop_TTT/lact/.cache_inductor_llm/lf/clfsv4bt7sli5fdbzcy6xaeej6fiidkhhizkv7jgluvo7dlami7l.py":18:0)
#loc1 = loc(unknown)
#loc36 = loc("/NHNHOME/WORKSPACE/26msit001_A/jinhyeok/loop_TTT/lact/.cache_inductor_llm/lf/clfsv4bt7sli5fdbzcy6xaeej6fiidkhhizkv7jgluvo7dlami7l.py":56:26)
#loc51 = loc("in_out_ptr0"(#loc))
#loc52 = loc("in_ptr0"(#loc))
#loc53 = loc("in_ptr1"(#loc))
#loc54 = loc("in_ptr2"(#loc))
#loc55 = loc("in_ptr3"(#loc))
#loc56 = loc("in_ptr4"(#loc))
#loc57 = loc("out_ptr0"(#loc))
#loc58 = loc("out_ptr2"(#loc))
#loc59 = loc("out_ptr3"(#loc))
#loc60 = loc("xnumel"(#loc))
#loc61 = loc("r0_numel"(#loc))
#loc95 = loc("tmp23"(#loc36))
#loc104 = loc(callsite(#loc1 at #loc95))
module {
  tt.func public @triton_per_fused__to_copy_add_div_linalg_vector_norm_mul_transpose_23(%in_out_ptr0: !tt.ptr<f32> {tt.divisibility = 16 : i32} loc("in_out_ptr0"(#loc)), %in_ptr0: !tt.ptr<f32> {tt.divisibility = 16 : i32} loc("in_ptr0"(#loc)), %in_ptr1: !tt.ptr<bf16> {tt.divisibility = 16 : i32} loc("in_ptr1"(#loc)), %in_ptr2: !tt.ptr<bf16> {tt.divisibility = 16 : i32} loc("in_ptr2"(#loc)), %in_ptr3: !tt.ptr<bf16> {tt.divisibility = 16 : i32} loc("in_ptr3"(#loc)), %in_ptr4: !tt.ptr<f32> {tt.divisibility = 16 : i32} loc("in_ptr4"(#loc)), %out_ptr0: !tt.ptr<bf16> {tt.divisibility = 16 : i32} loc("out_ptr0"(#loc)), %out_ptr2: !tt.ptr<bf16> {tt.divisibility = 16 : i32} loc("out_ptr2"(#loc)), %out_ptr3: !tt.ptr<bf16> {tt.divisibility = 16 : i32} loc("out_ptr3"(#loc)), %xnumel: i32 {tt.divisibility = 16 : i32} loc("xnumel"(#loc)), %r0_numel: i32 {tt.divisibility = 16 : i32} loc("r0_numel"(#loc))) attributes {noinline = false} {
    %c192_i32 = arith.constant 192 : i32 loc(#loc1)
    %cst = arith.constant dense<0.000000e+00> : tensor<1x256xbf16> loc(#loc1)
    %tmp26 = arith.constant dense<9.99999974E-6> : tensor<1x1xf32> loc(#loc62)
    %tmp14 = arith.constant dense<2.836600e+00> : tensor<1x256xf32> loc(#loc63)
    %tmp9 = arith.constant dense<2.876900e+00> : tensor<1x256xf32> loc(#loc64)
    %tmp4 = arith.constant dense<3.741800e+00> : tensor<1x256xf32> loc(#loc65)
    %cst_0 = arith.constant dense<0.000000e+00> : tensor<1x256xf32> loc(#loc1)
    %r0_mask = arith.constant dense<192> : tensor<1x256xi32> loc(#loc66)
    %xoffset = tt.get_program_id x : i32 loc(#loc67)
    %xmask = arith.cmpi slt, %xoffset, %xnumel : i32 loc(#loc68)
    %xmask_1 = tt.splat %xmask : i1 -> tensor<1x1xi1> loc(#loc68)
    %r0_index = tt.make_range {end = 256 : i32, start = 0 : i32} : tensor<256xi32> loc(#loc69)
    %r0_index_2 = tt.expand_dims %r0_index {axis = 0 : i32} : tensor<256xi32> -> tensor<1x256xi32> loc(#loc70)
    %r0_mask_3 = arith.cmpi slt, %r0_index_2, %r0_mask : tensor<1x256xi32> loc(#loc66)
    %tmp0 = arith.muli %xoffset, %c192_i32 : i32 loc(#loc71)
    %tmp0_4 = tt.splat %tmp0 : i32 -> tensor<1x256xi32> loc(#loc101)
    %tmp0_5 = arith.addi %r0_index_2, %tmp0_4 : tensor<1x256xi32> loc(#loc72)
    %tmp0_6 = tt.splat %in_ptr0 : !tt.ptr<f32> -> tensor<1x256x!tt.ptr<f32>> loc(#loc73)
    %tmp0_7 = tt.addptr %tmp0_6, %tmp0_5 : tensor<1x256x!tt.ptr<f32>>, tensor<1x256xi32> loc(#loc73)
    %tmp0_8 = tt.splat %xmask : i1 -> tensor<1x256xi1> loc(#loc102)
    %tmp0_9 = arith.andi %r0_mask_3, %tmp0_8 : tensor<1x256xi1> loc(#loc74)
    %tmp0_10 = tt.load %tmp0_7, %tmp0_9, %cst_0 : tensor<1x256x!tt.ptr<f32>> loc(#loc75)
    %tmp2 = tt.splat %in_out_ptr0 : !tt.ptr<f32> -> tensor<1x256x!tt.ptr<f32>> loc(#loc76)
    %tmp2_11 = tt.addptr %tmp2, %tmp0_5 : tensor<1x256x!tt.ptr<f32>>, tensor<1x256xi32> loc(#loc76)
    %tmp2_12 = tt.load %tmp2_11, %tmp0_9, %cst_0 : tensor<1x256x!tt.ptr<f32>> loc(#loc77)
    %tmp5 = tt.splat %in_ptr1 : !tt.ptr<bf16> -> tensor<1x256x!tt.ptr<bf16>> loc(#loc78)
    %tmp5_13 = tt.addptr %tmp5, %tmp0_5 : tensor<1x256x!tt.ptr<bf16>>, tensor<1x256xi32> loc(#loc78)
    %tmp5_14 = tt.load %tmp5_13, %tmp0_9, %cst : tensor<1x256x!tt.ptr<bf16>> loc(#loc79)
    %tmp5_15 = arith.extf %tmp5_14 : tensor<1x256xbf16> to tensor<1x256xf32> loc(#loc80)
    %tmp10 = tt.splat %in_ptr2 : !tt.ptr<bf16> -> tensor<1x256x!tt.ptr<bf16>> loc(#loc81)
    %tmp10_16 = tt.addptr %tmp10, %tmp0_5 : tensor<1x256x!tt.ptr<bf16>>, tensor<1x256xi32> loc(#loc81)
    %tmp10_17 = tt.load %tmp10_16, %tmp0_9, %cst : tensor<1x256x!tt.ptr<bf16>> loc(#loc82)
    %tmp10_18 = arith.extf %tmp10_17 : tensor<1x256xbf16> to tensor<1x256xf32> loc(#loc83)
    %tmp15 = tt.splat %in_ptr3 : !tt.ptr<bf16> -> tensor<1x256x!tt.ptr<bf16>> loc(#loc84)
    %tmp15_19 = tt.addptr %tmp15, %tmp0_5 : tensor<1x256x!tt.ptr<bf16>>, tensor<1x256xi32> loc(#loc84)
    %tmp15_20 = tt.load %tmp15_19, %tmp0_9, %cst : tensor<1x256x!tt.ptr<bf16>> loc(#loc85)
    %tmp15_21 = arith.extf %tmp15_20 : tensor<1x256xbf16> to tensor<1x256xf32> loc(#loc86)
    %tmp28 = tt.addptr %in_ptr4, %xoffset : !tt.ptr<f32>, i32 loc(#loc87)
    %tmp28_22 = tt.splat %tmp28 : !tt.ptr<f32> -> tensor<1x1x!tt.ptr<f32>> loc(#loc87)
    %tmp28_23 = tt.load %tmp28_22, %xmask_1 evictionPolicy = evict_last : tensor<1x1x!tt.ptr<f32>> loc(#loc88)
    %tmp4_24 = arith.mulf %tmp2_12, %tmp4 : tensor<1x256xf32> loc(#loc65)
    %tmp7 = arith.addf %tmp4_24, %tmp5_15 : tensor<1x256xf32> loc(#loc89)
    %tmp9_25 = arith.mulf %tmp7, %tmp9 : tensor<1x256xf32> loc(#loc64)
    %tmp12 = arith.addf %tmp9_25, %tmp10_18 : tensor<1x256xf32> loc(#loc90)
    %tmp14_26 = arith.mulf %tmp12, %tmp14 : tensor<1x256xf32> loc(#loc63)
    %tmp17 = arith.addf %tmp14_26, %tmp15_21 : tensor<1x256xf32> loc(#loc91)
    %tmp18 = arith.addf %tmp0_10, %tmp17 : tensor<1x256xf32> loc(#loc92)
    %tmp19 = arith.mulf %tmp18, %tmp18 : tensor<1x256xf32> loc(#loc93)
    %tmp22 = arith.select %tmp0_9, %tmp19, %cst_0 : tensor<1x256xi1>, tensor<1x256xf32> loc(#loc94)
    %tmp23 = "tt.reduce"(%tmp22) <{axis = 1 : i32}> ({
    ^bb0(%tmp23_31: f32 loc(callsite(#loc1 at #loc95)), %tmp23_32: f32 loc(callsite(#loc1 at #loc95))):
      %tmp23_33 = arith.addf %tmp23_31, %tmp23_32 : f32 loc(#loc105)
      tt.reduce.return %tmp23_33 : f32 loc(#loc103)
    }) : (tensor<1x256xf32>) -> tensor<1xf32> loc(#loc103)
    %tmp23_27 = tt.expand_dims %tmp23 {axis = 1 : i32} : tensor<1xf32> -> tensor<1x1xf32> loc(#loc96)
    %tmp24 = tt.extern_elementwise %tmp23_27 {libname = "", libpath = "", pure = true, symbol = "__nv_sqrtf"} : (tensor<1x1xf32>) -> tensor<1x1xf32> loc(#loc97)
    %tmp26_28 = arith.addf %tmp24, %tmp26 : tensor<1x1xf32> loc(#loc62)
    %tmp27 = tt.broadcast %tmp26_28 : tensor<1x1xf32> -> tensor<1x256xf32> loc(#loc98)
    %tmp27_29 = arith.divf %tmp18, %tmp27 : tensor<1x256xf32> loc(#loc98)
    %tmp29 = tt.extern_elementwise %tmp28_23 {libname = "", libpath = "", pure = true, symbol = "__nv_sqrtf"} : (tensor<1x1xf32>) -> tensor<1x1xf32> loc(#loc99)
    %tmp30 = tt.broadcast %tmp29 : tensor<1x1xf32> -> tensor<1x256xf32> loc(#loc100)
    %tmp30_30 = arith.mulf %tmp27_29, %tmp30 : tensor<1x256xf32> loc(#loc100)
    %0 = tt.splat %out_ptr0 : !tt.ptr<bf16> -> tensor<1x256x!tt.ptr<bf16>> loc(#loc43)
    %1 = tt.addptr %0, %tmp0_5 : tensor<1x256x!tt.ptr<bf16>>, tensor<1x256xi32> loc(#loc43)
    %2 = arith.truncf %tmp0_10 : tensor<1x256xf32> to tensor<1x256xbf16> loc(#loc44)
    tt.store %1, %2, %tmp0_9 : tensor<1x256x!tt.ptr<bf16>> loc(#loc44)
    tt.store %tmp2_11, %tmp18, %tmp0_9 : tensor<1x256x!tt.ptr<f32>> loc(#loc45)
    %3 = tt.splat %out_ptr2 : !tt.ptr<bf16> -> tensor<1x256x!tt.ptr<bf16>> loc(#loc46)
    %4 = tt.addptr %3, %tmp0_5 : tensor<1x256x!tt.ptr<bf16>>, tensor<1x256xi32> loc(#loc46)
    %5 = arith.truncf %tmp30_30 : tensor<1x256xf32> to tensor<1x256xbf16> loc(#loc47)
    tt.store %4, %5, %tmp0_9 : tensor<1x256x!tt.ptr<bf16>> loc(#loc47)
    %6 = tt.splat %out_ptr3 : !tt.ptr<bf16> -> tensor<1x256x!tt.ptr<bf16>> loc(#loc48)
    %7 = tt.addptr %6, %tmp0_5 : tensor<1x256x!tt.ptr<bf16>>, tensor<1x256xi32> loc(#loc48)
    tt.store %7, %5, %tmp0_9 : tensor<1x256x!tt.ptr<bf16>> loc(#loc49)
    tt.return loc(#loc50)
  } loc(#loc)
} loc(#loc)
#loc2 = loc("/NHNHOME/WORKSPACE/26msit001_A/jinhyeok/loop_TTT/lact/.cache_inductor_llm/lf/clfsv4bt7sli5fdbzcy6xaeej6fiidkhhizkv7jgluvo7dlami7l.py":59:20)
#loc3 = loc("/NHNHOME/WORKSPACE/26msit001_A/jinhyeok/loop_TTT/lact/.cache_inductor_llm/lf/clfsv4bt7sli5fdbzcy6xaeej6fiidkhhizkv7jgluvo7dlami7l.py":49:20)
#loc4 = loc("/NHNHOME/WORKSPACE/26msit001_A/jinhyeok/loop_TTT/lact/.cache_inductor_llm/lf/clfsv4bt7sli5fdbzcy6xaeej6fiidkhhizkv7jgluvo7dlami7l.py":45:18)
#loc5 = loc("/NHNHOME/WORKSPACE/26msit001_A/jinhyeok/loop_TTT/lact/.cache_inductor_llm/lf/clfsv4bt7sli5fdbzcy6xaeej6fiidkhhizkv7jgluvo7dlami7l.py":41:18)
#loc6 = loc("/NHNHOME/WORKSPACE/26msit001_A/jinhyeok/loop_TTT/lact/.cache_inductor_llm/lf/clfsv4bt7sli5fdbzcy6xaeej6fiidkhhizkv7jgluvo7dlami7l.py":28:25)
#loc7 = loc("/NHNHOME/WORKSPACE/26msit001_A/jinhyeok/loop_TTT/lact/.cache_inductor_llm/lf/clfsv4bt7sli5fdbzcy6xaeej6fiidkhhizkv7jgluvo7dlami7l.py":23:28)
#loc8 = loc("/NHNHOME/WORKSPACE/26msit001_A/jinhyeok/loop_TTT/lact/.cache_inductor_llm/lf/clfsv4bt7sli5fdbzcy6xaeej6fiidkhhizkv7jgluvo7dlami7l.py":25:21)
#loc9 = loc("/NHNHOME/WORKSPACE/26msit001_A/jinhyeok/loop_TTT/lact/.cache_inductor_llm/lf/clfsv4bt7sli5fdbzcy6xaeej6fiidkhhizkv7jgluvo7dlami7l.py":26:28)
#loc10 = loc("/NHNHOME/WORKSPACE/26msit001_A/jinhyeok/loop_TTT/lact/.cache_inductor_llm/lf/clfsv4bt7sli5fdbzcy6xaeej6fiidkhhizkv7jgluvo7dlami7l.py":26:38)
#loc11 = loc("/NHNHOME/WORKSPACE/26msit001_A/jinhyeok/loop_TTT/lact/.cache_inductor_llm/lf/clfsv4bt7sli5fdbzcy6xaeej6fiidkhhizkv7jgluvo7dlami7l.py":33:41)
#loc12 = loc("/NHNHOME/WORKSPACE/26msit001_A/jinhyeok/loop_TTT/lact/.cache_inductor_llm/lf/clfsv4bt7sli5fdbzcy6xaeej6fiidkhhizkv7jgluvo7dlami7l.py":33:37)
#loc13 = loc("/NHNHOME/WORKSPACE/26msit001_A/jinhyeok/loop_TTT/lact/.cache_inductor_llm/lf/clfsv4bt7sli5fdbzcy6xaeej6fiidkhhizkv7jgluvo7dlami7l.py":33:30)
#loc14 = loc("/NHNHOME/WORKSPACE/26msit001_A/jinhyeok/loop_TTT/lact/.cache_inductor_llm/lf/clfsv4bt7sli5fdbzcy6xaeej6fiidkhhizkv7jgluvo7dlami7l.py":33:56)
#loc15 = loc("/NHNHOME/WORKSPACE/26msit001_A/jinhyeok/loop_TTT/lact/.cache_inductor_llm/lf/clfsv4bt7sli5fdbzcy6xaeej6fiidkhhizkv7jgluvo7dlami7l.py":33:46)
#loc16 = loc("/NHNHOME/WORKSPACE/26msit001_A/jinhyeok/loop_TTT/lact/.cache_inductor_llm/lf/clfsv4bt7sli5fdbzcy6xaeej6fiidkhhizkv7jgluvo7dlami7l.py":34:34)
#loc17 = loc("/NHNHOME/WORKSPACE/26msit001_A/jinhyeok/loop_TTT/lact/.cache_inductor_llm/lf/clfsv4bt7sli5fdbzcy6xaeej6fiidkhhizkv7jgluvo7dlami7l.py":34:50)
#loc18 = loc("/NHNHOME/WORKSPACE/26msit001_A/jinhyeok/loop_TTT/lact/.cache_inductor_llm/lf/clfsv4bt7sli5fdbzcy6xaeej6fiidkhhizkv7jgluvo7dlami7l.py":35:30)
#loc19 = loc("/NHNHOME/WORKSPACE/26msit001_A/jinhyeok/loop_TTT/lact/.cache_inductor_llm/lf/clfsv4bt7sli5fdbzcy6xaeej6fiidkhhizkv7jgluvo7dlami7l.py":35:46)
#loc20 = loc("/NHNHOME/WORKSPACE/26msit001_A/jinhyeok/loop_TTT/lact/.cache_inductor_llm/lf/clfsv4bt7sli5fdbzcy6xaeej6fiidkhhizkv7jgluvo7dlami7l.py":35:77)
#loc21 = loc("/NHNHOME/WORKSPACE/26msit001_A/jinhyeok/loop_TTT/lact/.cache_inductor_llm/lf/clfsv4bt7sli5fdbzcy6xaeej6fiidkhhizkv7jgluvo7dlami7l.py":36:31)
#loc22 = loc("/NHNHOME/WORKSPACE/26msit001_A/jinhyeok/loop_TTT/lact/.cache_inductor_llm/lf/clfsv4bt7sli5fdbzcy6xaeej6fiidkhhizkv7jgluvo7dlami7l.py":36:47)
#loc23 = loc("/NHNHOME/WORKSPACE/26msit001_A/jinhyeok/loop_TTT/lact/.cache_inductor_llm/lf/clfsv4bt7sli5fdbzcy6xaeej6fiidkhhizkv7jgluvo7dlami7l.py":36:78)
#loc24 = loc("/NHNHOME/WORKSPACE/26msit001_A/jinhyeok/loop_TTT/lact/.cache_inductor_llm/lf/clfsv4bt7sli5fdbzcy6xaeej6fiidkhhizkv7jgluvo7dlami7l.py":37:31)
#loc25 = loc("/NHNHOME/WORKSPACE/26msit001_A/jinhyeok/loop_TTT/lact/.cache_inductor_llm/lf/clfsv4bt7sli5fdbzcy6xaeej6fiidkhhizkv7jgluvo7dlami7l.py":37:47)
#loc26 = loc("/NHNHOME/WORKSPACE/26msit001_A/jinhyeok/loop_TTT/lact/.cache_inductor_llm/lf/clfsv4bt7sli5fdbzcy6xaeej6fiidkhhizkv7jgluvo7dlami7l.py":37:78)
#loc27 = loc("/NHNHOME/WORKSPACE/26msit001_A/jinhyeok/loop_TTT/lact/.cache_inductor_llm/lf/clfsv4bt7sli5fdbzcy6xaeej6fiidkhhizkv7jgluvo7dlami7l.py":38:31)
#loc28 = loc("/NHNHOME/WORKSPACE/26msit001_A/jinhyeok/loop_TTT/lact/.cache_inductor_llm/lf/clfsv4bt7sli5fdbzcy6xaeej6fiidkhhizkv7jgluvo7dlami7l.py":38:36)
#loc29 = loc("/NHNHOME/WORKSPACE/26msit001_A/jinhyeok/loop_TTT/lact/.cache_inductor_llm/lf/clfsv4bt7sli5fdbzcy6xaeej6fiidkhhizkv7jgluvo7dlami7l.py":43:18)
#loc30 = loc("/NHNHOME/WORKSPACE/26msit001_A/jinhyeok/loop_TTT/lact/.cache_inductor_llm/lf/clfsv4bt7sli5fdbzcy6xaeej6fiidkhhizkv7jgluvo7dlami7l.py":47:19)
#loc31 = loc("/NHNHOME/WORKSPACE/26msit001_A/jinhyeok/loop_TTT/lact/.cache_inductor_llm/lf/clfsv4bt7sli5fdbzcy6xaeej6fiidkhhizkv7jgluvo7dlami7l.py":51:20)
#loc32 = loc("/NHNHOME/WORKSPACE/26msit001_A/jinhyeok/loop_TTT/lact/.cache_inductor_llm/lf/clfsv4bt7sli5fdbzcy6xaeej6fiidkhhizkv7jgluvo7dlami7l.py":52:19)
#loc33 = loc("/NHNHOME/WORKSPACE/26msit001_A/jinhyeok/loop_TTT/lact/.cache_inductor_llm/lf/clfsv4bt7sli5fdbzcy6xaeej6fiidkhhizkv7jgluvo7dlami7l.py":53:20)
#loc34 = loc("/NHNHOME/WORKSPACE/26msit001_A/jinhyeok/loop_TTT/lact/.cache_inductor_llm/lf/clfsv4bt7sli5fdbzcy6xaeej6fiidkhhizkv7jgluvo7dlami7l.py":55:45)
#loc35 = loc("/NHNHOME/WORKSPACE/26msit001_A/jinhyeok/TTT_camera_embedding/.venv_llm/lib/python3.12/site-packages/triton/language/standard.py":291:36)
#loc37 = loc("/NHNHOME/WORKSPACE/26msit001_A/jinhyeok/TTT_camera_embedding/.venv_llm/lib/python3.12/site-packages/triton/language/standard.py":261:15)
#loc38 = loc("/NHNHOME/WORKSPACE/26msit001_A/jinhyeok/loop_TTT/lact/.cache_inductor_llm/lf/clfsv4bt7sli5fdbzcy6xaeej6fiidkhhizkv7jgluvo7dlami7l.py":56:29)
#loc39 = loc("/NHNHOME/WORKSPACE/26msit001_A/jinhyeok/loop_TTT/lact/.cache_inductor_llm/lf/clfsv4bt7sli5fdbzcy6xaeej6fiidkhhizkv7jgluvo7dlami7l.py":57:27)
#loc40 = loc("/NHNHOME/WORKSPACE/26msit001_A/jinhyeok/loop_TTT/lact/.cache_inductor_llm/lf/clfsv4bt7sli5fdbzcy6xaeej6fiidkhhizkv7jgluvo7dlami7l.py":60:21)
#loc41 = loc("/NHNHOME/WORKSPACE/26msit001_A/jinhyeok/loop_TTT/lact/.cache_inductor_llm/lf/clfsv4bt7sli5fdbzcy6xaeej6fiidkhhizkv7jgluvo7dlami7l.py":61:27)
#loc42 = loc("/NHNHOME/WORKSPACE/26msit001_A/jinhyeok/loop_TTT/lact/.cache_inductor_llm/lf/clfsv4bt7sli5fdbzcy6xaeej6fiidkhhizkv7jgluvo7dlami7l.py":62:20)
#loc43 = loc("/NHNHOME/WORKSPACE/26msit001_A/jinhyeok/loop_TTT/lact/.cache_inductor_llm/lf/clfsv4bt7sli5fdbzcy6xaeej6fiidkhhizkv7jgluvo7dlami7l.py":64:25)
#loc44 = loc("/NHNHOME/WORKSPACE/26msit001_A/jinhyeok/loop_TTT/lact/.cache_inductor_llm/lf/clfsv4bt7sli5fdbzcy6xaeej6fiidkhhizkv7jgluvo7dlami7l.py":64:47)
#loc45 = loc("/NHNHOME/WORKSPACE/26msit001_A/jinhyeok/loop_TTT/lact/.cache_inductor_llm/lf/clfsv4bt7sli5fdbzcy6xaeej6fiidkhhizkv7jgluvo7dlami7l.py":65:51)
#loc46 = loc("/NHNHOME/WORKSPACE/26msit001_A/jinhyeok/loop_TTT/lact/.cache_inductor_llm/lf/clfsv4bt7sli5fdbzcy6xaeej6fiidkhhizkv7jgluvo7dlami7l.py":66:25)
#loc47 = loc("/NHNHOME/WORKSPACE/26msit001_A/jinhyeok/loop_TTT/lact/.cache_inductor_llm/lf/clfsv4bt7sli5fdbzcy6xaeej6fiidkhhizkv7jgluvo7dlami7l.py":66:48)
#loc48 = loc("/NHNHOME/WORKSPACE/26msit001_A/jinhyeok/loop_TTT/lact/.cache_inductor_llm/lf/clfsv4bt7sli5fdbzcy6xaeej6fiidkhhizkv7jgluvo7dlami7l.py":67:25)
#loc49 = loc("/NHNHOME/WORKSPACE/26msit001_A/jinhyeok/loop_TTT/lact/.cache_inductor_llm/lf/clfsv4bt7sli5fdbzcy6xaeej6fiidkhhizkv7jgluvo7dlami7l.py":67:48)
#loc50 = loc("/NHNHOME/WORKSPACE/26msit001_A/jinhyeok/loop_TTT/lact/.cache_inductor_llm/lf/clfsv4bt7sli5fdbzcy6xaeej6fiidkhhizkv7jgluvo7dlami7l.py":67:4)
#loc62 = loc("tmp26"(#loc2))
#loc63 = loc("tmp14"(#loc3))
#loc64 = loc("tmp9"(#loc4))
#loc65 = loc("tmp4"(#loc5))
#loc66 = loc("r0_mask"(#loc6))
#loc67 = loc("xoffset"(#loc7))
#loc68 = loc("xmask"(#loc8))
#loc69 = loc("r0_index"(#loc9))
#loc70 = loc("r0_index"(#loc10))
#loc71 = loc("tmp0"(#loc11))
#loc72 = loc("tmp0"(#loc12))
#loc73 = loc("tmp0"(#loc13))
#loc74 = loc("tmp0"(#loc14))
#loc75 = loc("tmp0"(#loc15))
#loc76 = loc("tmp2"(#loc16))
#loc77 = loc("tmp2"(#loc17))
#loc78 = loc("tmp5"(#loc18))
#loc79 = loc("tmp5"(#loc19))
#loc80 = loc("tmp5"(#loc20))
#loc81 = loc("tmp10"(#loc21))
#loc82 = loc("tmp10"(#loc22))
#loc83 = loc("tmp10"(#loc23))
#loc84 = loc("tmp15"(#loc24))
#loc85 = loc("tmp15"(#loc25))
#loc86 = loc("tmp15"(#loc26))
#loc87 = loc("tmp28"(#loc27))
#loc88 = loc("tmp28"(#loc28))
#loc89 = loc("tmp7"(#loc29))
#loc90 = loc("tmp12"(#loc30))
#loc91 = loc("tmp17"(#loc31))
#loc92 = loc("tmp18"(#loc32))
#loc93 = loc("tmp19"(#loc33))
#loc94 = loc("tmp22"(#loc34))
#loc96 = loc("tmp23"(#loc38))
#loc97 = loc("tmp24"(#loc39))
#loc98 = loc("tmp27"(#loc40))
#loc99 = loc("tmp29"(#loc41))
#loc100 = loc("tmp30"(#loc42))
#loc101 = loc(fused[#loc72, #loc71])
#loc102 = loc(fused[#loc74, #loc68])
#loc103 = loc(callsite(#loc35 at #loc95))
#loc105 = loc(callsite(#loc37 at #loc103))
