#loc = loc("/NHNHOME/WORKSPACE/26msit001_A/jinhyeok/loop_TTT/lact/.cache_inductor_llm/lf/clfsv4bt7sli5fdbzcy6xaeej6fiidkhhizkv7jgluvo7dlami7l.py":18:0)
#loc84 = loc("/NHNHOME/WORKSPACE/26msit001_A/jinhyeok/TTT_camera_embedding/.venv_llm/lib/python3.12/site-packages/triton/language/standard.py":285:0)
#loc86 = loc(unknown)
#loc89 = loc("/NHNHOME/WORKSPACE/26msit001_A/jinhyeok/TTT_camera_embedding/.venv_llm/lib/python3.12/site-packages/triton/language/standard.py":260:0)
#loc93 = loc("in_out_ptr0"(#loc))
#loc94 = loc("in_ptr0"(#loc))
#loc95 = loc("in_ptr1"(#loc))
#loc96 = loc("in_ptr2"(#loc))
#loc97 = loc("in_ptr3"(#loc))
#loc98 = loc("in_ptr4"(#loc))
#loc99 = loc("out_ptr0"(#loc))
#loc100 = loc("out_ptr2"(#loc))
#loc101 = loc("out_ptr3"(#loc))
#loc102 = loc("xnumel"(#loc))
#loc103 = loc("r0_numel"(#loc))
#loc166 = loc("input"(#loc84))
#loc167 = loc("a"(#loc89))
#loc168 = loc("b"(#loc89))
module {
  tt.func public @triton_per_fused__to_copy_add_div_linalg_vector_norm_mul_transpose_23(%in_out_ptr0: !tt.ptr<f32> {tt.divisibility = 16 : i32} loc("in_out_ptr0"(#loc)), %in_ptr0: !tt.ptr<f32> {tt.divisibility = 16 : i32} loc("in_ptr0"(#loc)), %in_ptr1: !tt.ptr<bf16> {tt.divisibility = 16 : i32} loc("in_ptr1"(#loc)), %in_ptr2: !tt.ptr<bf16> {tt.divisibility = 16 : i32} loc("in_ptr2"(#loc)), %in_ptr3: !tt.ptr<bf16> {tt.divisibility = 16 : i32} loc("in_ptr3"(#loc)), %in_ptr4: !tt.ptr<f32> {tt.divisibility = 16 : i32} loc("in_ptr4"(#loc)), %out_ptr0: !tt.ptr<bf16> {tt.divisibility = 16 : i32} loc("out_ptr0"(#loc)), %out_ptr2: !tt.ptr<bf16> {tt.divisibility = 16 : i32} loc("out_ptr2"(#loc)), %out_ptr3: !tt.ptr<bf16> {tt.divisibility = 16 : i32} loc("out_ptr3"(#loc)), %xnumel: i32 {tt.divisibility = 16 : i32} loc("xnumel"(#loc)), %r0_numel: i32 {tt.divisibility = 16 : i32} loc("r0_numel"(#loc))) attributes {noinline = false} {
    %r0_numel_0 = arith.constant 192 : i32 loc(#loc104)
    %xoffset = tt.get_program_id x : i32 loc(#loc105)
    %xoffset_1 = arith.constant 1 : i32 loc(#loc106)
    %xoffset_2 = arith.constant 1 : i32 loc(#loc106)
    %xoffset_3 = arith.muli %xoffset, %xoffset_2 : i32 loc(#loc106)
    %xindex = tt.make_range {end = 1 : i32, start = 0 : i32} : tensor<1xi32> loc(#loc107)
    %xindex_4 = tt.expand_dims %xindex {axis = 1 : i32} : tensor<1xi32> -> tensor<1x1xi32> loc(#loc108)
    %xindex_5 = tt.splat %xoffset_3 : i32 -> tensor<1x1xi32> loc(#loc109)
    %xindex_6 = arith.addi %xindex_5, %xindex_4 : tensor<1x1xi32> loc(#loc109)
    %xmask = tt.splat %xnumel : i32 -> tensor<1x1xi32> loc(#loc110)
    %xmask_7 = arith.cmpi slt, %xindex_6, %xmask : tensor<1x1xi32> loc(#loc110)
    %r0_index = tt.make_range {end = 256 : i32, start = 0 : i32} : tensor<256xi32> loc(#loc111)
    %r0_index_8 = tt.expand_dims %r0_index {axis = 0 : i32} : tensor<256xi32> -> tensor<1x256xi32> loc(#loc112)
    %r0_offset = arith.constant 0 : i32 loc(#loc113)
    %r0_mask = arith.constant dense<192> : tensor<1x256xi32> loc(#loc114)
    %r0_mask_9 = arith.cmpi slt, %r0_index_8, %r0_mask : tensor<1x256xi32> loc(#loc114)
    %tmp0 = arith.constant 192 : i32 loc(#loc115)
    %tmp0_10 = arith.constant 192 : i32 loc(#loc115)
    %tmp0_11 = arith.constant dense<192> : tensor<1x1xi32> loc(#loc115)
    %tmp0_12 = arith.muli %tmp0_11, %xindex_6 : tensor<1x1xi32> loc(#loc115)
    %tmp0_13 = tt.broadcast %tmp0_12 : tensor<1x1xi32> -> tensor<1x256xi32> loc(#loc116)
    %tmp0_14 = arith.addi %r0_index_8, %tmp0_13 : tensor<1x256xi32> loc(#loc116)
    %tmp0_15 = tt.splat %in_ptr0 : !tt.ptr<f32> -> tensor<1x256x!tt.ptr<f32>> loc(#loc117)
    %tmp0_16 = tt.addptr %tmp0_15, %tmp0_14 : tensor<1x256x!tt.ptr<f32>>, tensor<1x256xi32> loc(#loc117)
    %tmp0_17 = tt.broadcast %xmask_7 : tensor<1x1xi1> -> tensor<1x256xi1> loc(#loc118)
    %tmp0_18 = arith.andi %r0_mask_9, %tmp0_17 : tensor<1x256xi1> loc(#loc118)
    %tmp0_19 = arith.constant 0.000000e+00 : f32 loc(#loc119)
    %tmp0_20 = arith.constant dense<0.000000e+00> : tensor<1x256xf32> loc(#loc119)
    %tmp0_21 = tt.load %tmp0_16, %tmp0_18, %tmp0_20 : tensor<1x256x!tt.ptr<f32>> loc(#loc119)
    %tmp2 = arith.constant 192 : i32 loc(#loc120)
    %tmp2_22 = arith.constant 192 : i32 loc(#loc120)
    %tmp2_23 = arith.constant dense<192> : tensor<1x1xi32> loc(#loc120)
    %tmp2_24 = arith.muli %tmp2_23, %xindex_6 : tensor<1x1xi32> loc(#loc120)
    %tmp2_25 = tt.broadcast %tmp2_24 : tensor<1x1xi32> -> tensor<1x256xi32> loc(#loc121)
    %tmp2_26 = arith.addi %r0_index_8, %tmp2_25 : tensor<1x256xi32> loc(#loc121)
    %tmp2_27 = tt.splat %in_out_ptr0 : !tt.ptr<f32> -> tensor<1x256x!tt.ptr<f32>> loc(#loc122)
    %tmp2_28 = tt.addptr %tmp2_27, %tmp2_26 : tensor<1x256x!tt.ptr<f32>>, tensor<1x256xi32> loc(#loc122)
    %tmp2_29 = tt.broadcast %xmask_7 : tensor<1x1xi1> -> tensor<1x256xi1> loc(#loc123)
    %tmp2_30 = arith.andi %r0_mask_9, %tmp2_29 : tensor<1x256xi1> loc(#loc123)
    %tmp2_31 = arith.constant 0.000000e+00 : f32 loc(#loc124)
    %tmp2_32 = arith.constant dense<0.000000e+00> : tensor<1x256xf32> loc(#loc124)
    %tmp2_33 = tt.load %tmp2_28, %tmp2_30, %tmp2_32 : tensor<1x256x!tt.ptr<f32>> loc(#loc124)
    %tmp5 = arith.constant 192 : i32 loc(#loc125)
    %tmp5_34 = arith.constant 192 : i32 loc(#loc125)
    %tmp5_35 = arith.constant dense<192> : tensor<1x1xi32> loc(#loc125)
    %tmp5_36 = arith.muli %tmp5_35, %xindex_6 : tensor<1x1xi32> loc(#loc125)
    %tmp5_37 = tt.broadcast %tmp5_36 : tensor<1x1xi32> -> tensor<1x256xi32> loc(#loc126)
    %tmp5_38 = arith.addi %r0_index_8, %tmp5_37 : tensor<1x256xi32> loc(#loc126)
    %tmp5_39 = tt.splat %in_ptr1 : !tt.ptr<bf16> -> tensor<1x256x!tt.ptr<bf16>> loc(#loc127)
    %tmp5_40 = tt.addptr %tmp5_39, %tmp5_38 : tensor<1x256x!tt.ptr<bf16>>, tensor<1x256xi32> loc(#loc127)
    %tmp5_41 = tt.broadcast %xmask_7 : tensor<1x1xi1> -> tensor<1x256xi1> loc(#loc128)
    %tmp5_42 = arith.andi %r0_mask_9, %tmp5_41 : tensor<1x256xi1> loc(#loc128)
    %tmp5_43 = arith.constant 0.000000e+00 : f32 loc(#loc129)
    %tmp5_44 = arith.constant dense<0.000000e+00> : tensor<1x256xf32> loc(#loc129)
    %tmp5_45 = arith.truncf %tmp5_44 : tensor<1x256xf32> to tensor<1x256xbf16> loc(#loc129)
    %tmp5_46 = tt.load %tmp5_40, %tmp5_42, %tmp5_45 : tensor<1x256x!tt.ptr<bf16>> loc(#loc129)
    %tmp5_47 = arith.extf %tmp5_46 : tensor<1x256xbf16> to tensor<1x256xf32> loc(#loc130)
    %tmp10 = arith.constant 192 : i32 loc(#loc131)
    %tmp10_48 = arith.constant 192 : i32 loc(#loc131)
    %tmp10_49 = arith.constant dense<192> : tensor<1x1xi32> loc(#loc131)
    %tmp10_50 = arith.muli %tmp10_49, %xindex_6 : tensor<1x1xi32> loc(#loc131)
    %tmp10_51 = tt.broadcast %tmp10_50 : tensor<1x1xi32> -> tensor<1x256xi32> loc(#loc132)
    %tmp10_52 = arith.addi %r0_index_8, %tmp10_51 : tensor<1x256xi32> loc(#loc132)
    %tmp10_53 = tt.splat %in_ptr2 : !tt.ptr<bf16> -> tensor<1x256x!tt.ptr<bf16>> loc(#loc133)
    %tmp10_54 = tt.addptr %tmp10_53, %tmp10_52 : tensor<1x256x!tt.ptr<bf16>>, tensor<1x256xi32> loc(#loc133)
    %tmp10_55 = tt.broadcast %xmask_7 : tensor<1x1xi1> -> tensor<1x256xi1> loc(#loc134)
    %tmp10_56 = arith.andi %r0_mask_9, %tmp10_55 : tensor<1x256xi1> loc(#loc134)
    %tmp10_57 = arith.constant 0.000000e+00 : f32 loc(#loc135)
    %tmp10_58 = arith.constant dense<0.000000e+00> : tensor<1x256xf32> loc(#loc135)
    %tmp10_59 = arith.truncf %tmp10_58 : tensor<1x256xf32> to tensor<1x256xbf16> loc(#loc135)
    %tmp10_60 = tt.load %tmp10_54, %tmp10_56, %tmp10_59 : tensor<1x256x!tt.ptr<bf16>> loc(#loc135)
    %tmp10_61 = arith.extf %tmp10_60 : tensor<1x256xbf16> to tensor<1x256xf32> loc(#loc136)
    %tmp15 = arith.constant 192 : i32 loc(#loc137)
    %tmp15_62 = arith.constant 192 : i32 loc(#loc137)
    %tmp15_63 = arith.constant dense<192> : tensor<1x1xi32> loc(#loc137)
    %tmp15_64 = arith.muli %tmp15_63, %xindex_6 : tensor<1x1xi32> loc(#loc137)
    %tmp15_65 = tt.broadcast %tmp15_64 : tensor<1x1xi32> -> tensor<1x256xi32> loc(#loc138)
    %tmp15_66 = arith.addi %r0_index_8, %tmp15_65 : tensor<1x256xi32> loc(#loc138)
    %tmp15_67 = tt.splat %in_ptr3 : !tt.ptr<bf16> -> tensor<1x256x!tt.ptr<bf16>> loc(#loc139)
    %tmp15_68 = tt.addptr %tmp15_67, %tmp15_66 : tensor<1x256x!tt.ptr<bf16>>, tensor<1x256xi32> loc(#loc139)
    %tmp15_69 = tt.broadcast %xmask_7 : tensor<1x1xi1> -> tensor<1x256xi1> loc(#loc140)
    %tmp15_70 = arith.andi %r0_mask_9, %tmp15_69 : tensor<1x256xi1> loc(#loc140)
    %tmp15_71 = arith.constant 0.000000e+00 : f32 loc(#loc141)
    %tmp15_72 = arith.constant dense<0.000000e+00> : tensor<1x256xf32> loc(#loc141)
    %tmp15_73 = arith.truncf %tmp15_72 : tensor<1x256xf32> to tensor<1x256xbf16> loc(#loc141)
    %tmp15_74 = tt.load %tmp15_68, %tmp15_70, %tmp15_73 : tensor<1x256x!tt.ptr<bf16>> loc(#loc141)
    %tmp15_75 = arith.extf %tmp15_74 : tensor<1x256xbf16> to tensor<1x256xf32> loc(#loc142)
    %tmp28 = tt.splat %in_ptr4 : !tt.ptr<f32> -> tensor<1x1x!tt.ptr<f32>> loc(#loc143)
    %tmp28_76 = tt.addptr %tmp28, %xindex_6 : tensor<1x1x!tt.ptr<f32>>, tensor<1x1xi32> loc(#loc143)
    %tmp28_77 = tt.load %tmp28_76, %xmask_7 evictionPolicy = evict_last : tensor<1x1x!tt.ptr<f32>> loc(#loc144)
    %tmp3 = arith.constant 3.741800e+00 : f32 loc(#loc145)
    %tmp4 = arith.constant dense<3.741800e+00> : tensor<1x256xf32> loc(#loc146)
    %tmp4_78 = arith.mulf %tmp2_33, %tmp4 : tensor<1x256xf32> loc(#loc146)
    %tmp7 = arith.addf %tmp4_78, %tmp5_47 : tensor<1x256xf32> loc(#loc147)
    %tmp8 = arith.constant 2.876900e+00 : f32 loc(#loc148)
    %tmp9 = arith.constant dense<2.876900e+00> : tensor<1x256xf32> loc(#loc149)
    %tmp9_79 = arith.mulf %tmp7, %tmp9 : tensor<1x256xf32> loc(#loc149)
    %tmp12 = arith.addf %tmp9_79, %tmp10_61 : tensor<1x256xf32> loc(#loc150)
    %tmp13 = arith.constant 2.836600e+00 : f32 loc(#loc151)
    %tmp14 = arith.constant dense<2.836600e+00> : tensor<1x256xf32> loc(#loc152)
    %tmp14_80 = arith.mulf %tmp12, %tmp14 : tensor<1x256xf32> loc(#loc152)
    %tmp17 = arith.addf %tmp14_80, %tmp15_75 : tensor<1x256xf32> loc(#loc153)
    %tmp18 = arith.addf %tmp0_21, %tmp17 : tensor<1x256xf32> loc(#loc154)
    %tmp19 = arith.mulf %tmp18, %tmp18 : tensor<1x256xf32> loc(#loc155)
    %tmp22 = tt.broadcast %xmask_7 : tensor<1x1xi1> -> tensor<1x256xi1> loc(#loc156)
    %tmp22_81 = arith.andi %r0_mask_9, %tmp22 : tensor<1x256xi1> loc(#loc156)
    %tmp22_82 = arith.constant 0 : i32 loc(#loc157)
    %tmp22_83 = arith.constant 0.000000e+00 : f32 loc(#loc157)
    %tmp22_84 = arith.constant dense<0.000000e+00> : tensor<1x256xf32> loc(#loc157)
    %tmp22_85 = arith.select %tmp22_81, %tmp19, %tmp22_84 : tensor<1x256xi1>, tensor<1x256xf32> loc(#loc157)
    %tmp23 = tt.call @"triton.language.standard.sum__fp32S1_256S__(1,)cconstexpr_1__(2,)cconstexpr_False__(3,)cNone"(%tmp22_85) : (tensor<1x256xf32>) -> tensor<1xf32> loc(#loc158)
    %tmp23_86 = tt.expand_dims %tmp23 {axis = 1 : i32} : tensor<1xf32> -> tensor<1x1xf32> loc(#loc159)
    %tmp24 = tt.extern_elementwise %tmp23_86 {libname = "", libpath = "", pure = true, symbol = "__nv_sqrtf"} : (tensor<1x1xf32>) -> tensor<1x1xf32> loc(#loc160)
    %tmp25 = arith.constant 9.99999974E-6 : f32 loc(#loc161)
    %tmp26 = arith.constant dense<9.99999974E-6> : tensor<1x1xf32> loc(#loc162)
    %tmp26_87 = arith.addf %tmp24, %tmp26 : tensor<1x1xf32> loc(#loc162)
    %tmp27 = tt.broadcast %tmp26_87 : tensor<1x1xf32> -> tensor<1x256xf32> loc(#loc163)
    %tmp27_88 = arith.divf %tmp18, %tmp27 : tensor<1x256xf32> loc(#loc163)
    %tmp29 = tt.extern_elementwise %tmp28_77 {libname = "", libpath = "", pure = true, symbol = "__nv_sqrtf"} : (tensor<1x1xf32>) -> tensor<1x1xf32> loc(#loc164)
    %tmp30 = tt.broadcast %tmp29 : tensor<1x1xf32> -> tensor<1x256xf32> loc(#loc165)
    %tmp30_89 = arith.mulf %tmp27_88, %tmp30 : tensor<1x256xf32> loc(#loc165)
    %c192_i32 = arith.constant 192 : i32 loc(#loc63)
    %c192_i32_90 = arith.constant 192 : i32 loc(#loc63)
    %cst = arith.constant dense<192> : tensor<1x1xi32> loc(#loc63)
    %0 = arith.muli %cst, %xindex_6 : tensor<1x1xi32> loc(#loc63)
    %1 = tt.broadcast %0 : tensor<1x1xi32> -> tensor<1x256xi32> loc(#loc64)
    %2 = arith.addi %r0_index_8, %1 : tensor<1x256xi32> loc(#loc64)
    %3 = tt.splat %out_ptr0 : !tt.ptr<bf16> -> tensor<1x256x!tt.ptr<bf16>> loc(#loc65)
    %4 = tt.addptr %3, %2 : tensor<1x256x!tt.ptr<bf16>>, tensor<1x256xi32> loc(#loc65)
    %5 = tt.broadcast %xmask_7 : tensor<1x1xi1> -> tensor<1x256xi1> loc(#loc66)
    %6 = arith.andi %r0_mask_9, %5 : tensor<1x256xi1> loc(#loc66)
    %7 = arith.truncf %tmp0_21 : tensor<1x256xf32> to tensor<1x256xbf16> loc(#loc67)
    tt.store %4, %7, %6 : tensor<1x256x!tt.ptr<bf16>> loc(#loc67)
    %c192_i32_91 = arith.constant 192 : i32 loc(#loc68)
    %c192_i32_92 = arith.constant 192 : i32 loc(#loc68)
    %cst_93 = arith.constant dense<192> : tensor<1x1xi32> loc(#loc68)
    %8 = arith.muli %cst_93, %xindex_6 : tensor<1x1xi32> loc(#loc68)
    %9 = tt.broadcast %8 : tensor<1x1xi32> -> tensor<1x256xi32> loc(#loc69)
    %10 = arith.addi %r0_index_8, %9 : tensor<1x256xi32> loc(#loc69)
    %11 = tt.splat %in_out_ptr0 : !tt.ptr<f32> -> tensor<1x256x!tt.ptr<f32>> loc(#loc70)
    %12 = tt.addptr %11, %10 : tensor<1x256x!tt.ptr<f32>>, tensor<1x256xi32> loc(#loc70)
    %13 = tt.broadcast %xmask_7 : tensor<1x1xi1> -> tensor<1x256xi1> loc(#loc71)
    %14 = arith.andi %r0_mask_9, %13 : tensor<1x256xi1> loc(#loc71)
    tt.store %12, %tmp18, %14 : tensor<1x256x!tt.ptr<f32>> loc(#loc72)
    %c192_i32_94 = arith.constant 192 : i32 loc(#loc73)
    %c192_i32_95 = arith.constant 192 : i32 loc(#loc73)
    %cst_96 = arith.constant dense<192> : tensor<1x1xi32> loc(#loc73)
    %15 = arith.muli %cst_96, %xindex_6 : tensor<1x1xi32> loc(#loc73)
    %16 = tt.broadcast %15 : tensor<1x1xi32> -> tensor<1x256xi32> loc(#loc74)
    %17 = arith.addi %r0_index_8, %16 : tensor<1x256xi32> loc(#loc74)
    %18 = tt.splat %out_ptr2 : !tt.ptr<bf16> -> tensor<1x256x!tt.ptr<bf16>> loc(#loc75)
    %19 = tt.addptr %18, %17 : tensor<1x256x!tt.ptr<bf16>>, tensor<1x256xi32> loc(#loc75)
    %20 = tt.broadcast %xmask_7 : tensor<1x1xi1> -> tensor<1x256xi1> loc(#loc76)
    %21 = arith.andi %r0_mask_9, %20 : tensor<1x256xi1> loc(#loc76)
    %22 = arith.truncf %tmp30_89 : tensor<1x256xf32> to tensor<1x256xbf16> loc(#loc77)
    tt.store %19, %22, %21 : tensor<1x256x!tt.ptr<bf16>> loc(#loc77)
    %c192_i32_97 = arith.constant 192 : i32 loc(#loc78)
    %c192_i32_98 = arith.constant 192 : i32 loc(#loc78)
    %cst_99 = arith.constant dense<192> : tensor<1x1xi32> loc(#loc78)
    %23 = arith.muli %cst_99, %xindex_6 : tensor<1x1xi32> loc(#loc78)
    %24 = tt.broadcast %23 : tensor<1x1xi32> -> tensor<1x256xi32> loc(#loc79)
    %25 = arith.addi %r0_index_8, %24 : tensor<1x256xi32> loc(#loc79)
    %26 = tt.splat %out_ptr3 : !tt.ptr<bf16> -> tensor<1x256x!tt.ptr<bf16>> loc(#loc80)
    %27 = tt.addptr %26, %25 : tensor<1x256x!tt.ptr<bf16>>, tensor<1x256xi32> loc(#loc80)
    %28 = tt.broadcast %xmask_7 : tensor<1x1xi1> -> tensor<1x256xi1> loc(#loc81)
    %29 = arith.andi %r0_mask_9, %28 : tensor<1x256xi1> loc(#loc81)
    %30 = arith.truncf %tmp30_89 : tensor<1x256xf32> to tensor<1x256xbf16> loc(#loc82)
    tt.store %27, %30, %29 : tensor<1x256x!tt.ptr<bf16>> loc(#loc82)
    tt.return loc(#loc83)
  } loc(#loc)
  tt.func private @"triton.language.standard.sum__fp32S1_256S__(1,)cconstexpr_1__(2,)cconstexpr_False__(3,)cNone"(%input: tensor<1x256xf32> loc("input"(#loc84))) -> tensor<1xf32> attributes {noinline = false} {
    %0 = "tt.reduce"(%input) <{axis = 1 : i32}> ({
    ^bb0(%arg1: f32 loc(unknown), %arg2: f32 loc(unknown)):
      %2 = tt.call @triton.language.standard._sum_combine__fp32_fp32__(%arg1, %arg2) : (f32, f32) -> f32 loc(#loc85)
      tt.reduce.return %2 : f32 loc(#loc85)
    }) : (tensor<1x256xf32>) -> tensor<1xf32> loc(#loc85)
    tt.return %0 : tensor<1xf32> loc(#loc87)
  ^bb1:  // no predecessors
    %1 = ub.poison : tensor<1xf32> loc(#loc88)
    tt.return %1 : tensor<1xf32> loc(#loc88)
  } loc(#loc84)
  tt.func private @triton.language.standard._sum_combine__fp32_fp32__(%a: f32 loc("a"(#loc89)), %b: f32 loc("b"(#loc89))) -> f32 attributes {noinline = false} {
    %0 = arith.addf %a, %b : f32 loc(#loc90)
    tt.return %0 : f32 loc(#loc91)
  ^bb1:  // no predecessors
    %1 = ub.poison : f32 loc(#loc92)
    tt.return %1 : f32 loc(#loc92)
  } loc(#loc89)
} loc(#loc)
#loc1 = loc("/NHNHOME/WORKSPACE/26msit001_A/jinhyeok/loop_TTT/lact/.cache_inductor_llm/lf/clfsv4bt7sli5fdbzcy6xaeej6fiidkhhizkv7jgluvo7dlami7l.py":19:15)
#loc2 = loc("/NHNHOME/WORKSPACE/26msit001_A/jinhyeok/loop_TTT/lact/.cache_inductor_llm/lf/clfsv4bt7sli5fdbzcy6xaeej6fiidkhhizkv7jgluvo7dlami7l.py":23:28)
#loc3 = loc("/NHNHOME/WORKSPACE/26msit001_A/jinhyeok/loop_TTT/lact/.cache_inductor_llm/lf/clfsv4bt7sli5fdbzcy6xaeej6fiidkhhizkv7jgluvo7dlami7l.py":23:33)
#loc4 = loc("/NHNHOME/WORKSPACE/26msit001_A/jinhyeok/loop_TTT/lact/.cache_inductor_llm/lf/clfsv4bt7sli5fdbzcy6xaeej6fiidkhhizkv7jgluvo7dlami7l.py":24:36)
#loc5 = loc("/NHNHOME/WORKSPACE/26msit001_A/jinhyeok/loop_TTT/lact/.cache_inductor_llm/lf/clfsv4bt7sli5fdbzcy6xaeej6fiidkhhizkv7jgluvo7dlami7l.py":24:44)
#loc6 = loc("/NHNHOME/WORKSPACE/26msit001_A/jinhyeok/loop_TTT/lact/.cache_inductor_llm/lf/clfsv4bt7sli5fdbzcy6xaeej6fiidkhhizkv7jgluvo7dlami7l.py":24:23)
#loc7 = loc("/NHNHOME/WORKSPACE/26msit001_A/jinhyeok/loop_TTT/lact/.cache_inductor_llm/lf/clfsv4bt7sli5fdbzcy6xaeej6fiidkhhizkv7jgluvo7dlami7l.py":25:21)
#loc8 = loc("/NHNHOME/WORKSPACE/26msit001_A/jinhyeok/loop_TTT/lact/.cache_inductor_llm/lf/clfsv4bt7sli5fdbzcy6xaeej6fiidkhhizkv7jgluvo7dlami7l.py":26:28)
#loc9 = loc("/NHNHOME/WORKSPACE/26msit001_A/jinhyeok/loop_TTT/lact/.cache_inductor_llm/lf/clfsv4bt7sli5fdbzcy6xaeej6fiidkhhizkv7jgluvo7dlami7l.py":26:38)
#loc10 = loc("/NHNHOME/WORKSPACE/26msit001_A/jinhyeok/loop_TTT/lact/.cache_inductor_llm/lf/clfsv4bt7sli5fdbzcy6xaeej6fiidkhhizkv7jgluvo7dlami7l.py":27:16)
#loc11 = loc("/NHNHOME/WORKSPACE/26msit001_A/jinhyeok/loop_TTT/lact/.cache_inductor_llm/lf/clfsv4bt7sli5fdbzcy6xaeej6fiidkhhizkv7jgluvo7dlami7l.py":28:25)
#loc12 = loc("/NHNHOME/WORKSPACE/26msit001_A/jinhyeok/loop_TTT/lact/.cache_inductor_llm/lf/clfsv4bt7sli5fdbzcy6xaeej6fiidkhhizkv7jgluvo7dlami7l.py":33:41)
#loc13 = loc("/NHNHOME/WORKSPACE/26msit001_A/jinhyeok/loop_TTT/lact/.cache_inductor_llm/lf/clfsv4bt7sli5fdbzcy6xaeej6fiidkhhizkv7jgluvo7dlami7l.py":33:37)
#loc14 = loc("/NHNHOME/WORKSPACE/26msit001_A/jinhyeok/loop_TTT/lact/.cache_inductor_llm/lf/clfsv4bt7sli5fdbzcy6xaeej6fiidkhhizkv7jgluvo7dlami7l.py":33:30)
#loc15 = loc("/NHNHOME/WORKSPACE/26msit001_A/jinhyeok/loop_TTT/lact/.cache_inductor_llm/lf/clfsv4bt7sli5fdbzcy6xaeej6fiidkhhizkv7jgluvo7dlami7l.py":33:56)
#loc16 = loc("/NHNHOME/WORKSPACE/26msit001_A/jinhyeok/loop_TTT/lact/.cache_inductor_llm/lf/clfsv4bt7sli5fdbzcy6xaeej6fiidkhhizkv7jgluvo7dlami7l.py":33:46)
#loc17 = loc("/NHNHOME/WORKSPACE/26msit001_A/jinhyeok/loop_TTT/lact/.cache_inductor_llm/lf/clfsv4bt7sli5fdbzcy6xaeej6fiidkhhizkv7jgluvo7dlami7l.py":34:45)
#loc18 = loc("/NHNHOME/WORKSPACE/26msit001_A/jinhyeok/loop_TTT/lact/.cache_inductor_llm/lf/clfsv4bt7sli5fdbzcy6xaeej6fiidkhhizkv7jgluvo7dlami7l.py":34:41)
#loc19 = loc("/NHNHOME/WORKSPACE/26msit001_A/jinhyeok/loop_TTT/lact/.cache_inductor_llm/lf/clfsv4bt7sli5fdbzcy6xaeej6fiidkhhizkv7jgluvo7dlami7l.py":34:34)
#loc20 = loc("/NHNHOME/WORKSPACE/26msit001_A/jinhyeok/loop_TTT/lact/.cache_inductor_llm/lf/clfsv4bt7sli5fdbzcy6xaeej6fiidkhhizkv7jgluvo7dlami7l.py":34:60)
#loc21 = loc("/NHNHOME/WORKSPACE/26msit001_A/jinhyeok/loop_TTT/lact/.cache_inductor_llm/lf/clfsv4bt7sli5fdbzcy6xaeej6fiidkhhizkv7jgluvo7dlami7l.py":34:50)
#loc22 = loc("/NHNHOME/WORKSPACE/26msit001_A/jinhyeok/loop_TTT/lact/.cache_inductor_llm/lf/clfsv4bt7sli5fdbzcy6xaeej6fiidkhhizkv7jgluvo7dlami7l.py":35:41)
#loc23 = loc("/NHNHOME/WORKSPACE/26msit001_A/jinhyeok/loop_TTT/lact/.cache_inductor_llm/lf/clfsv4bt7sli5fdbzcy6xaeej6fiidkhhizkv7jgluvo7dlami7l.py":35:37)
#loc24 = loc("/NHNHOME/WORKSPACE/26msit001_A/jinhyeok/loop_TTT/lact/.cache_inductor_llm/lf/clfsv4bt7sli5fdbzcy6xaeej6fiidkhhizkv7jgluvo7dlami7l.py":35:30)
#loc25 = loc("/NHNHOME/WORKSPACE/26msit001_A/jinhyeok/loop_TTT/lact/.cache_inductor_llm/lf/clfsv4bt7sli5fdbzcy6xaeej6fiidkhhizkv7jgluvo7dlami7l.py":35:56)
#loc26 = loc("/NHNHOME/WORKSPACE/26msit001_A/jinhyeok/loop_TTT/lact/.cache_inductor_llm/lf/clfsv4bt7sli5fdbzcy6xaeej6fiidkhhizkv7jgluvo7dlami7l.py":35:46)
#loc27 = loc("/NHNHOME/WORKSPACE/26msit001_A/jinhyeok/loop_TTT/lact/.cache_inductor_llm/lf/clfsv4bt7sli5fdbzcy6xaeej6fiidkhhizkv7jgluvo7dlami7l.py":35:77)
#loc28 = loc("/NHNHOME/WORKSPACE/26msit001_A/jinhyeok/loop_TTT/lact/.cache_inductor_llm/lf/clfsv4bt7sli5fdbzcy6xaeej6fiidkhhizkv7jgluvo7dlami7l.py":36:42)
#loc29 = loc("/NHNHOME/WORKSPACE/26msit001_A/jinhyeok/loop_TTT/lact/.cache_inductor_llm/lf/clfsv4bt7sli5fdbzcy6xaeej6fiidkhhizkv7jgluvo7dlami7l.py":36:38)
#loc30 = loc("/NHNHOME/WORKSPACE/26msit001_A/jinhyeok/loop_TTT/lact/.cache_inductor_llm/lf/clfsv4bt7sli5fdbzcy6xaeej6fiidkhhizkv7jgluvo7dlami7l.py":36:31)
#loc31 = loc("/NHNHOME/WORKSPACE/26msit001_A/jinhyeok/loop_TTT/lact/.cache_inductor_llm/lf/clfsv4bt7sli5fdbzcy6xaeej6fiidkhhizkv7jgluvo7dlami7l.py":36:57)
#loc32 = loc("/NHNHOME/WORKSPACE/26msit001_A/jinhyeok/loop_TTT/lact/.cache_inductor_llm/lf/clfsv4bt7sli5fdbzcy6xaeej6fiidkhhizkv7jgluvo7dlami7l.py":36:47)
#loc33 = loc("/NHNHOME/WORKSPACE/26msit001_A/jinhyeok/loop_TTT/lact/.cache_inductor_llm/lf/clfsv4bt7sli5fdbzcy6xaeej6fiidkhhizkv7jgluvo7dlami7l.py":36:78)
#loc34 = loc("/NHNHOME/WORKSPACE/26msit001_A/jinhyeok/loop_TTT/lact/.cache_inductor_llm/lf/clfsv4bt7sli5fdbzcy6xaeej6fiidkhhizkv7jgluvo7dlami7l.py":37:42)
#loc35 = loc("/NHNHOME/WORKSPACE/26msit001_A/jinhyeok/loop_TTT/lact/.cache_inductor_llm/lf/clfsv4bt7sli5fdbzcy6xaeej6fiidkhhizkv7jgluvo7dlami7l.py":37:38)
#loc36 = loc("/NHNHOME/WORKSPACE/26msit001_A/jinhyeok/loop_TTT/lact/.cache_inductor_llm/lf/clfsv4bt7sli5fdbzcy6xaeej6fiidkhhizkv7jgluvo7dlami7l.py":37:31)
#loc37 = loc("/NHNHOME/WORKSPACE/26msit001_A/jinhyeok/loop_TTT/lact/.cache_inductor_llm/lf/clfsv4bt7sli5fdbzcy6xaeej6fiidkhhizkv7jgluvo7dlami7l.py":37:57)
#loc38 = loc("/NHNHOME/WORKSPACE/26msit001_A/jinhyeok/loop_TTT/lact/.cache_inductor_llm/lf/clfsv4bt7sli5fdbzcy6xaeej6fiidkhhizkv7jgluvo7dlami7l.py":37:47)
#loc39 = loc("/NHNHOME/WORKSPACE/26msit001_A/jinhyeok/loop_TTT/lact/.cache_inductor_llm/lf/clfsv4bt7sli5fdbzcy6xaeej6fiidkhhizkv7jgluvo7dlami7l.py":37:78)
#loc40 = loc("/NHNHOME/WORKSPACE/26msit001_A/jinhyeok/loop_TTT/lact/.cache_inductor_llm/lf/clfsv4bt7sli5fdbzcy6xaeej6fiidkhhizkv7jgluvo7dlami7l.py":38:31)
#loc41 = loc("/NHNHOME/WORKSPACE/26msit001_A/jinhyeok/loop_TTT/lact/.cache_inductor_llm/lf/clfsv4bt7sli5fdbzcy6xaeej6fiidkhhizkv7jgluvo7dlami7l.py":38:36)
#loc42 = loc("/NHNHOME/WORKSPACE/26msit001_A/jinhyeok/loop_TTT/lact/.cache_inductor_llm/lf/clfsv4bt7sli5fdbzcy6xaeej6fiidkhhizkv7jgluvo7dlami7l.py":40:11)
#loc43 = loc("/NHNHOME/WORKSPACE/26msit001_A/jinhyeok/loop_TTT/lact/.cache_inductor_llm/lf/clfsv4bt7sli5fdbzcy6xaeej6fiidkhhizkv7jgluvo7dlami7l.py":41:18)
#loc44 = loc("/NHNHOME/WORKSPACE/26msit001_A/jinhyeok/loop_TTT/lact/.cache_inductor_llm/lf/clfsv4bt7sli5fdbzcy6xaeej6fiidkhhizkv7jgluvo7dlami7l.py":43:18)
#loc45 = loc("/NHNHOME/WORKSPACE/26msit001_A/jinhyeok/loop_TTT/lact/.cache_inductor_llm/lf/clfsv4bt7sli5fdbzcy6xaeej6fiidkhhizkv7jgluvo7dlami7l.py":44:11)
#loc46 = loc("/NHNHOME/WORKSPACE/26msit001_A/jinhyeok/loop_TTT/lact/.cache_inductor_llm/lf/clfsv4bt7sli5fdbzcy6xaeej6fiidkhhizkv7jgluvo7dlami7l.py":45:18)
#loc47 = loc("/NHNHOME/WORKSPACE/26msit001_A/jinhyeok/loop_TTT/lact/.cache_inductor_llm/lf/clfsv4bt7sli5fdbzcy6xaeej6fiidkhhizkv7jgluvo7dlami7l.py":47:19)
#loc48 = loc("/NHNHOME/WORKSPACE/26msit001_A/jinhyeok/loop_TTT/lact/.cache_inductor_llm/lf/clfsv4bt7sli5fdbzcy6xaeej6fiidkhhizkv7jgluvo7dlami7l.py":48:12)
#loc49 = loc("/NHNHOME/WORKSPACE/26msit001_A/jinhyeok/loop_TTT/lact/.cache_inductor_llm/lf/clfsv4bt7sli5fdbzcy6xaeej6fiidkhhizkv7jgluvo7dlami7l.py":49:20)
#loc50 = loc("/NHNHOME/WORKSPACE/26msit001_A/jinhyeok/loop_TTT/lact/.cache_inductor_llm/lf/clfsv4bt7sli5fdbzcy6xaeej6fiidkhhizkv7jgluvo7dlami7l.py":51:20)
#loc51 = loc("/NHNHOME/WORKSPACE/26msit001_A/jinhyeok/loop_TTT/lact/.cache_inductor_llm/lf/clfsv4bt7sli5fdbzcy6xaeej6fiidkhhizkv7jgluvo7dlami7l.py":52:19)
#loc52 = loc("/NHNHOME/WORKSPACE/26msit001_A/jinhyeok/loop_TTT/lact/.cache_inductor_llm/lf/clfsv4bt7sli5fdbzcy6xaeej6fiidkhhizkv7jgluvo7dlami7l.py":53:20)
#loc53 = loc("/NHNHOME/WORKSPACE/26msit001_A/jinhyeok/loop_TTT/lact/.cache_inductor_llm/lf/clfsv4bt7sli5fdbzcy6xaeej6fiidkhhizkv7jgluvo7dlami7l.py":55:31)
#loc54 = loc("/NHNHOME/WORKSPACE/26msit001_A/jinhyeok/loop_TTT/lact/.cache_inductor_llm/lf/clfsv4bt7sli5fdbzcy6xaeej6fiidkhhizkv7jgluvo7dlami7l.py":55:45)
#loc55 = loc("/NHNHOME/WORKSPACE/26msit001_A/jinhyeok/loop_TTT/lact/.cache_inductor_llm/lf/clfsv4bt7sli5fdbzcy6xaeej6fiidkhhizkv7jgluvo7dlami7l.py":56:26)
#loc56 = loc("/NHNHOME/WORKSPACE/26msit001_A/jinhyeok/loop_TTT/lact/.cache_inductor_llm/lf/clfsv4bt7sli5fdbzcy6xaeej6fiidkhhizkv7jgluvo7dlami7l.py":56:29)
#loc57 = loc("/NHNHOME/WORKSPACE/26msit001_A/jinhyeok/loop_TTT/lact/.cache_inductor_llm/lf/clfsv4bt7sli5fdbzcy6xaeej6fiidkhhizkv7jgluvo7dlami7l.py":57:27)
#loc58 = loc("/NHNHOME/WORKSPACE/26msit001_A/jinhyeok/loop_TTT/lact/.cache_inductor_llm/lf/clfsv4bt7sli5fdbzcy6xaeej6fiidkhhizkv7jgluvo7dlami7l.py":58:12)
#loc59 = loc("/NHNHOME/WORKSPACE/26msit001_A/jinhyeok/loop_TTT/lact/.cache_inductor_llm/lf/clfsv4bt7sli5fdbzcy6xaeej6fiidkhhizkv7jgluvo7dlami7l.py":59:20)
#loc60 = loc("/NHNHOME/WORKSPACE/26msit001_A/jinhyeok/loop_TTT/lact/.cache_inductor_llm/lf/clfsv4bt7sli5fdbzcy6xaeej6fiidkhhizkv7jgluvo7dlami7l.py":60:21)
#loc61 = loc("/NHNHOME/WORKSPACE/26msit001_A/jinhyeok/loop_TTT/lact/.cache_inductor_llm/lf/clfsv4bt7sli5fdbzcy6xaeej6fiidkhhizkv7jgluvo7dlami7l.py":61:27)
#loc62 = loc("/NHNHOME/WORKSPACE/26msit001_A/jinhyeok/loop_TTT/lact/.cache_inductor_llm/lf/clfsv4bt7sli5fdbzcy6xaeej6fiidkhhizkv7jgluvo7dlami7l.py":62:20)
#loc63 = loc("/NHNHOME/WORKSPACE/26msit001_A/jinhyeok/loop_TTT/lact/.cache_inductor_llm/lf/clfsv4bt7sli5fdbzcy6xaeej6fiidkhhizkv7jgluvo7dlami7l.py":64:36)
#loc64 = loc("/NHNHOME/WORKSPACE/26msit001_A/jinhyeok/loop_TTT/lact/.cache_inductor_llm/lf/clfsv4bt7sli5fdbzcy6xaeej6fiidkhhizkv7jgluvo7dlami7l.py":64:32)
#loc65 = loc("/NHNHOME/WORKSPACE/26msit001_A/jinhyeok/loop_TTT/lact/.cache_inductor_llm/lf/clfsv4bt7sli5fdbzcy6xaeej6fiidkhhizkv7jgluvo7dlami7l.py":64:25)
#loc66 = loc("/NHNHOME/WORKSPACE/26msit001_A/jinhyeok/loop_TTT/lact/.cache_inductor_llm/lf/clfsv4bt7sli5fdbzcy6xaeej6fiidkhhizkv7jgluvo7dlami7l.py":64:57)
#loc67 = loc("/NHNHOME/WORKSPACE/26msit001_A/jinhyeok/loop_TTT/lact/.cache_inductor_llm/lf/clfsv4bt7sli5fdbzcy6xaeej6fiidkhhizkv7jgluvo7dlami7l.py":64:47)
#loc68 = loc("/NHNHOME/WORKSPACE/26msit001_A/jinhyeok/loop_TTT/lact/.cache_inductor_llm/lf/clfsv4bt7sli5fdbzcy6xaeej6fiidkhhizkv7jgluvo7dlami7l.py":65:39)
#loc69 = loc("/NHNHOME/WORKSPACE/26msit001_A/jinhyeok/loop_TTT/lact/.cache_inductor_llm/lf/clfsv4bt7sli5fdbzcy6xaeej6fiidkhhizkv7jgluvo7dlami7l.py":65:35)
#loc70 = loc("/NHNHOME/WORKSPACE/26msit001_A/jinhyeok/loop_TTT/lact/.cache_inductor_llm/lf/clfsv4bt7sli5fdbzcy6xaeej6fiidkhhizkv7jgluvo7dlami7l.py":65:28)
#loc71 = loc("/NHNHOME/WORKSPACE/26msit001_A/jinhyeok/loop_TTT/lact/.cache_inductor_llm/lf/clfsv4bt7sli5fdbzcy6xaeej6fiidkhhizkv7jgluvo7dlami7l.py":65:61)
#loc72 = loc("/NHNHOME/WORKSPACE/26msit001_A/jinhyeok/loop_TTT/lact/.cache_inductor_llm/lf/clfsv4bt7sli5fdbzcy6xaeej6fiidkhhizkv7jgluvo7dlami7l.py":65:51)
#loc73 = loc("/NHNHOME/WORKSPACE/26msit001_A/jinhyeok/loop_TTT/lact/.cache_inductor_llm/lf/clfsv4bt7sli5fdbzcy6xaeej6fiidkhhizkv7jgluvo7dlami7l.py":66:36)
#loc74 = loc("/NHNHOME/WORKSPACE/26msit001_A/jinhyeok/loop_TTT/lact/.cache_inductor_llm/lf/clfsv4bt7sli5fdbzcy6xaeej6fiidkhhizkv7jgluvo7dlami7l.py":66:32)
#loc75 = loc("/NHNHOME/WORKSPACE/26msit001_A/jinhyeok/loop_TTT/lact/.cache_inductor_llm/lf/clfsv4bt7sli5fdbzcy6xaeej6fiidkhhizkv7jgluvo7dlami7l.py":66:25)
#loc76 = loc("/NHNHOME/WORKSPACE/26msit001_A/jinhyeok/loop_TTT/lact/.cache_inductor_llm/lf/clfsv4bt7sli5fdbzcy6xaeej6fiidkhhizkv7jgluvo7dlami7l.py":66:58)
#loc77 = loc("/NHNHOME/WORKSPACE/26msit001_A/jinhyeok/loop_TTT/lact/.cache_inductor_llm/lf/clfsv4bt7sli5fdbzcy6xaeej6fiidkhhizkv7jgluvo7dlami7l.py":66:48)
#loc78 = loc("/NHNHOME/WORKSPACE/26msit001_A/jinhyeok/loop_TTT/lact/.cache_inductor_llm/lf/clfsv4bt7sli5fdbzcy6xaeej6fiidkhhizkv7jgluvo7dlami7l.py":67:36)
#loc79 = loc("/NHNHOME/WORKSPACE/26msit001_A/jinhyeok/loop_TTT/lact/.cache_inductor_llm/lf/clfsv4bt7sli5fdbzcy6xaeej6fiidkhhizkv7jgluvo7dlami7l.py":67:32)
#loc80 = loc("/NHNHOME/WORKSPACE/26msit001_A/jinhyeok/loop_TTT/lact/.cache_inductor_llm/lf/clfsv4bt7sli5fdbzcy6xaeej6fiidkhhizkv7jgluvo7dlami7l.py":67:25)
#loc81 = loc("/NHNHOME/WORKSPACE/26msit001_A/jinhyeok/loop_TTT/lact/.cache_inductor_llm/lf/clfsv4bt7sli5fdbzcy6xaeej6fiidkhhizkv7jgluvo7dlami7l.py":67:58)
#loc82 = loc("/NHNHOME/WORKSPACE/26msit001_A/jinhyeok/loop_TTT/lact/.cache_inductor_llm/lf/clfsv4bt7sli5fdbzcy6xaeej6fiidkhhizkv7jgluvo7dlami7l.py":67:48)
#loc83 = loc("/NHNHOME/WORKSPACE/26msit001_A/jinhyeok/loop_TTT/lact/.cache_inductor_llm/lf/clfsv4bt7sli5fdbzcy6xaeej6fiidkhhizkv7jgluvo7dlami7l.py":67:4)
#loc85 = loc("/NHNHOME/WORKSPACE/26msit001_A/jinhyeok/TTT_camera_embedding/.venv_llm/lib/python3.12/site-packages/triton/language/standard.py":291:36)
#loc87 = loc("/NHNHOME/WORKSPACE/26msit001_A/jinhyeok/TTT_camera_embedding/.venv_llm/lib/python3.12/site-packages/triton/language/standard.py":291:11)
#loc88 = loc("/NHNHOME/WORKSPACE/26msit001_A/jinhyeok/TTT_camera_embedding/.venv_llm/lib/python3.12/site-packages/triton/language/standard.py":291:4)
#loc90 = loc("/NHNHOME/WORKSPACE/26msit001_A/jinhyeok/TTT_camera_embedding/.venv_llm/lib/python3.12/site-packages/triton/language/standard.py":261:15)
#loc91 = loc("/NHNHOME/WORKSPACE/26msit001_A/jinhyeok/TTT_camera_embedding/.venv_llm/lib/python3.12/site-packages/triton/language/standard.py":261:11)
#loc92 = loc("/NHNHOME/WORKSPACE/26msit001_A/jinhyeok/TTT_camera_embedding/.venv_llm/lib/python3.12/site-packages/triton/language/standard.py":261:4)
#loc104 = loc("r0_numel"(#loc1))
#loc105 = loc("xoffset"(#loc2))
#loc106 = loc("xoffset"(#loc3))
#loc107 = loc("xindex"(#loc4))
#loc108 = loc("xindex"(#loc5))
#loc109 = loc("xindex"(#loc6))
#loc110 = loc("xmask"(#loc7))
#loc111 = loc("r0_index"(#loc8))
#loc112 = loc("r0_index"(#loc9))
#loc113 = loc("r0_offset"(#loc10))
#loc114 = loc("r0_mask"(#loc11))
#loc115 = loc("tmp0"(#loc12))
#loc116 = loc("tmp0"(#loc13))
#loc117 = loc("tmp0"(#loc14))
#loc118 = loc("tmp0"(#loc15))
#loc119 = loc("tmp0"(#loc16))
#loc120 = loc("tmp2"(#loc17))
#loc121 = loc("tmp2"(#loc18))
#loc122 = loc("tmp2"(#loc19))
#loc123 = loc("tmp2"(#loc20))
#loc124 = loc("tmp2"(#loc21))
#loc125 = loc("tmp5"(#loc22))
#loc126 = loc("tmp5"(#loc23))
#loc127 = loc("tmp5"(#loc24))
#loc128 = loc("tmp5"(#loc25))
#loc129 = loc("tmp5"(#loc26))
#loc130 = loc("tmp5"(#loc27))
#loc131 = loc("tmp10"(#loc28))
#loc132 = loc("tmp10"(#loc29))
#loc133 = loc("tmp10"(#loc30))
#loc134 = loc("tmp10"(#loc31))
#loc135 = loc("tmp10"(#loc32))
#loc136 = loc("tmp10"(#loc33))
#loc137 = loc("tmp15"(#loc34))
#loc138 = loc("tmp15"(#loc35))
#loc139 = loc("tmp15"(#loc36))
#loc140 = loc("tmp15"(#loc37))
#loc141 = loc("tmp15"(#loc38))
#loc142 = loc("tmp15"(#loc39))
#loc143 = loc("tmp28"(#loc40))
#loc144 = loc("tmp28"(#loc41))
#loc145 = loc("tmp3"(#loc42))
#loc146 = loc("tmp4"(#loc43))
#loc147 = loc("tmp7"(#loc44))
#loc148 = loc("tmp8"(#loc45))
#loc149 = loc("tmp9"(#loc46))
#loc150 = loc("tmp12"(#loc47))
#loc151 = loc("tmp13"(#loc48))
#loc152 = loc("tmp14"(#loc49))
#loc153 = loc("tmp17"(#loc50))
#loc154 = loc("tmp18"(#loc51))
#loc155 = loc("tmp19"(#loc52))
#loc156 = loc("tmp22"(#loc53))
#loc157 = loc("tmp22"(#loc54))
#loc158 = loc("tmp23"(#loc55))
#loc159 = loc("tmp23"(#loc56))
#loc160 = loc("tmp24"(#loc57))
#loc161 = loc("tmp25"(#loc58))
#loc162 = loc("tmp26"(#loc59))
#loc163 = loc("tmp27"(#loc60))
#loc164 = loc("tmp29"(#loc61))
#loc165 = loc("tmp30"(#loc62))
