#loc = loc("/NHNHOME/WORKSPACE/26msit001_A/jinhyeok/loop_TTT/lact/.cache_inductor_llm/fg/cfgp3sjmecafzqpgknk6ccy5zo7rneoeeiszopuysxnvvthszaiz.py":18:0)
#loc41 = loc("in_ptr0"(#loc))
#loc42 = loc("in_ptr1"(#loc))
#loc43 = loc("out_ptr0"(#loc))
#loc44 = loc("out_ptr1"(#loc))
#loc45 = loc("out_ptr2"(#loc))
#loc46 = loc("ynumel"(#loc))
#loc47 = loc("xnumel"(#loc))
module {
  tt.func public @triton_poi_fused__to_copy_add_mul_transpose_35(%in_ptr0: !tt.ptr<f32> {tt.divisibility = 16 : i32} loc("in_ptr0"(#loc)), %in_ptr1: !tt.ptr<bf16> {tt.divisibility = 16 : i32} loc("in_ptr1"(#loc)), %out_ptr0: !tt.ptr<bf16> {tt.divisibility = 16 : i32} loc("out_ptr0"(#loc)), %out_ptr1: !tt.ptr<bf16> {tt.divisibility = 16 : i32} loc("out_ptr1"(#loc)), %out_ptr2: !tt.ptr<bf16> {tt.divisibility = 16 : i32} loc("out_ptr2"(#loc)), %ynumel: i32 {tt.divisibility = 16 : i32} loc("ynumel"(#loc)), %xnumel: i32 {tt.divisibility = 16 : i32} loc("xnumel"(#loc))) attributes {noinline = false} {
    %cst = arith.constant dense<36864> : tensor<256x1xi32> loc(#loc1)
    %tmp2 = arith.constant dense<4.084800e+00> : tensor<256x16xf32> loc(#loc48)
    %cst_0 = arith.constant dense<192> : tensor<256x1xi32> loc(#loc3)
    %cst_1 = arith.constant dense<192> : tensor<1x16xi32> loc(#loc3)
    %c16_i32 = arith.constant 16 : i32 loc(#loc3)
    %c256_i32 = arith.constant 256 : i32 loc(#loc3)
    %yoffset = tt.get_program_id y : i32 loc(#loc49)
    %yoffset_2 = tt.get_program_id z : i32 loc(#loc50)
    %yoffset_3 = tt.get_num_programs y : i32 loc(#loc51)
    %yoffset_4 = arith.muli %yoffset_2, %yoffset_3 : i32 loc(#loc52)
    %yoffset_5 = arith.addi %yoffset, %yoffset_4 : i32 loc(#loc53)
    %yoffset_6 = arith.muli %yoffset_5, %c256_i32 : i32 loc(#loc54)
    %yindex = tt.make_range {end = 256 : i32, start = 0 : i32} : tensor<256xi32> loc(#loc55)
    %yindex_7 = tt.expand_dims %yindex {axis = 1 : i32} : tensor<256xi32> -> tensor<256x1xi32> loc(#loc56)
    %yindex_8 = tt.splat %yoffset_6 : i32 -> tensor<256x1xi32> loc(#loc57)
    %yindex_9 = arith.addi %yindex_8, %yindex_7 : tensor<256x1xi32> loc(#loc57)
    %ymask = tt.splat %ynumel : i32 -> tensor<256x1xi32> loc(#loc58)
    %ymask_10 = arith.cmpi slt, %yindex_9, %ymask : tensor<256x1xi32> loc(#loc58)
    %xoffset = tt.get_program_id x : i32 loc(#loc59)
    %xoffset_11 = arith.muli %xoffset, %c16_i32 : i32 loc(#loc60)
    %xindex = tt.make_range {end = 16 : i32, start = 0 : i32} : tensor<16xi32> loc(#loc61)
    %xindex_12 = tt.expand_dims %xindex {axis = 0 : i32} : tensor<16xi32> -> tensor<1x16xi32> loc(#loc62)
    %xindex_13 = tt.splat %xoffset_11 : i32 -> tensor<1x16xi32> loc(#loc63)
    %xindex_14 = arith.addi %xindex_13, %xindex_12 : tensor<1x16xi32> loc(#loc63)
    %xmask = arith.cmpi slt, %xindex_14, %cst_1 : tensor<1x16xi32> loc(#loc64)
    %y2 = arith.remsi %yindex_9, %cst_0 : tensor<256x1xi32> loc(#loc65)
    %y3 = arith.divsi %yindex_9, %cst_0 : tensor<256x1xi32> loc(#loc66)
    %tmp0 = arith.muli %yindex_9, %cst_0 : tensor<256x1xi32> loc(#loc67)
    %tmp0_15 = tt.broadcast %xindex_14 : tensor<1x16xi32> -> tensor<256x16xi32> loc(#loc68)
    %tmp0_16 = tt.broadcast %tmp0 : tensor<256x1xi32> -> tensor<256x16xi32> loc(#loc68)
    %tmp0_17 = arith.addi %tmp0_15, %tmp0_16 : tensor<256x16xi32> loc(#loc68)
    %tmp0_18 = tt.splat %in_ptr0 : !tt.ptr<f32> -> tensor<256x16x!tt.ptr<f32>> loc(#loc69)
    %tmp0_19 = tt.addptr %tmp0_18, %tmp0_17 : tensor<256x16x!tt.ptr<f32>>, tensor<256x16xi32> loc(#loc69)
    %tmp0_20 = tt.broadcast %xmask : tensor<1x16xi1> -> tensor<256x16xi1> loc(#loc70)
    %tmp0_21 = tt.broadcast %ymask_10 : tensor<256x1xi1> -> tensor<256x16xi1> loc(#loc70)
    %tmp0_22 = arith.andi %tmp0_20, %tmp0_21 : tensor<256x16xi1> loc(#loc70)
    %tmp0_23 = tt.load %tmp0_19, %tmp0_22 evictionPolicy = evict_last : tensor<256x16x!tt.ptr<f32>> loc(#loc71)
    %tmp3 = tt.splat %in_ptr1 : !tt.ptr<bf16> -> tensor<256x16x!tt.ptr<bf16>> loc(#loc72)
    %tmp3_24 = tt.addptr %tmp3, %tmp0_17 : tensor<256x16x!tt.ptr<bf16>>, tensor<256x16xi32> loc(#loc72)
    %tmp3_25 = tt.load %tmp3_24, %tmp0_22 evictionPolicy = evict_last : tensor<256x16x!tt.ptr<bf16>> loc(#loc73)
    %tmp3_26 = arith.extf %tmp3_25 : tensor<256x16xbf16> to tensor<256x16xf32> loc(#loc74)
    %tmp2_27 = arith.mulf %tmp0_23, %tmp2 : tensor<256x16xf32> loc(#loc48)
    %tmp5 = arith.addf %tmp2_27, %tmp3_26 : tensor<256x16xf32> loc(#loc75)
    %0 = tt.splat %out_ptr0 : !tt.ptr<bf16> -> tensor<256x16x!tt.ptr<bf16>> loc(#loc31)
    %1 = tt.addptr %0, %tmp0_17 : tensor<256x16x!tt.ptr<bf16>>, tensor<256x16xi32> loc(#loc31)
    %2 = arith.truncf %tmp5 : tensor<256x16xf32> to tensor<256x16xbf16> loc(#loc32)
    tt.store %1, %2, %tmp0_22 : tensor<256x16x!tt.ptr<bf16>> loc(#loc32)
    %3 = arith.muli %xindex_14, %cst_1 : tensor<1x16xi32> loc(#loc33)
    %4 = tt.broadcast %y2 : tensor<256x1xi32> -> tensor<256x16xi32> loc(#loc34)
    %5 = tt.broadcast %3 : tensor<1x16xi32> -> tensor<256x16xi32> loc(#loc34)
    %6 = arith.addi %4, %5 : tensor<256x16xi32> loc(#loc34)
    %7 = arith.muli %y3, %cst : tensor<256x1xi32> loc(#loc1)
    %8 = tt.broadcast %7 : tensor<256x1xi32> -> tensor<256x16xi32> loc(#loc35)
    %9 = arith.addi %6, %8 : tensor<256x16xi32> loc(#loc35)
    %10 = tt.splat %out_ptr1 : !tt.ptr<bf16> -> tensor<256x16x!tt.ptr<bf16>> loc(#loc36)
    %11 = tt.addptr %10, %9 : tensor<256x16x!tt.ptr<bf16>>, tensor<256x16xi32> loc(#loc36)
    tt.store %11, %2, %tmp0_22 : tensor<256x16x!tt.ptr<bf16>> loc(#loc37)
    %12 = tt.splat %out_ptr2 : !tt.ptr<bf16> -> tensor<256x16x!tt.ptr<bf16>> loc(#loc38)
    %13 = tt.addptr %12, %tmp0_17 : tensor<256x16x!tt.ptr<bf16>>, tensor<256x16xi32> loc(#loc38)
    tt.store %13, %2, %tmp0_22 : tensor<256x16x!tt.ptr<bf16>> loc(#loc39)
    tt.return loc(#loc40)
  } loc(#loc)
} loc(#loc)
#loc1 = loc("/NHNHOME/WORKSPACE/26msit001_A/jinhyeok/loop_TTT/lact/.cache_inductor_llm/fg/cfgp3sjmecafzqpgknk6ccy5zo7rneoeeiszopuysxnvvthszaiz.py":38:45)
#loc2 = loc("/NHNHOME/WORKSPACE/26msit001_A/jinhyeok/loop_TTT/lact/.cache_inductor_llm/fg/cfgp3sjmecafzqpgknk6ccy5zo7rneoeeiszopuysxnvvthszaiz.py":33:18)
#loc3 = loc(unknown)
#loc4 = loc("/NHNHOME/WORKSPACE/26msit001_A/jinhyeok/loop_TTT/lact/.cache_inductor_llm/fg/cfgp3sjmecafzqpgknk6ccy5zo7rneoeeiszopuysxnvvthszaiz.py":20:29)
#loc5 = loc("/NHNHOME/WORKSPACE/26msit001_A/jinhyeok/loop_TTT/lact/.cache_inductor_llm/fg/cfgp3sjmecafzqpgknk6ccy5zo7rneoeeiszopuysxnvvthszaiz.py":20:48)
#loc6 = loc("/NHNHOME/WORKSPACE/26msit001_A/jinhyeok/loop_TTT/lact/.cache_inductor_llm/fg/cfgp3sjmecafzqpgknk6ccy5zo7rneoeeiszopuysxnvvthszaiz.py":20:69)
#loc7 = loc("/NHNHOME/WORKSPACE/26msit001_A/jinhyeok/loop_TTT/lact/.cache_inductor_llm/fg/cfgp3sjmecafzqpgknk6ccy5zo7rneoeeiszopuysxnvvthszaiz.py":20:53)
#loc8 = loc("/NHNHOME/WORKSPACE/26msit001_A/jinhyeok/loop_TTT/lact/.cache_inductor_llm/fg/cfgp3sjmecafzqpgknk6ccy5zo7rneoeeiszopuysxnvvthszaiz.py":20:34)
#loc9 = loc("/NHNHOME/WORKSPACE/26msit001_A/jinhyeok/loop_TTT/lact/.cache_inductor_llm/fg/cfgp3sjmecafzqpgknk6ccy5zo7rneoeeiszopuysxnvvthszaiz.py":20:75)
#loc10 = loc("/NHNHOME/WORKSPACE/26msit001_A/jinhyeok/loop_TTT/lact/.cache_inductor_llm/fg/cfgp3sjmecafzqpgknk6ccy5zo7rneoeeiszopuysxnvvthszaiz.py":21:36)
#loc11 = loc("/NHNHOME/WORKSPACE/26msit001_A/jinhyeok/loop_TTT/lact/.cache_inductor_llm/fg/cfgp3sjmecafzqpgknk6ccy5zo7rneoeeiszopuysxnvvthszaiz.py":21:44)
#loc12 = loc("/NHNHOME/WORKSPACE/26msit001_A/jinhyeok/loop_TTT/lact/.cache_inductor_llm/fg/cfgp3sjmecafzqpgknk6ccy5zo7rneoeeiszopuysxnvvthszaiz.py":21:23)
#loc13 = loc("/NHNHOME/WORKSPACE/26msit001_A/jinhyeok/loop_TTT/lact/.cache_inductor_llm/fg/cfgp3sjmecafzqpgknk6ccy5zo7rneoeeiszopuysxnvvthszaiz.py":22:21)
#loc14 = loc("/NHNHOME/WORKSPACE/26msit001_A/jinhyeok/loop_TTT/lact/.cache_inductor_llm/fg/cfgp3sjmecafzqpgknk6ccy5zo7rneoeeiszopuysxnvvthszaiz.py":23:28)
#loc15 = loc("/NHNHOME/WORKSPACE/26msit001_A/jinhyeok/loop_TTT/lact/.cache_inductor_llm/fg/cfgp3sjmecafzqpgknk6ccy5zo7rneoeeiszopuysxnvvthszaiz.py":23:33)
#loc16 = loc("/NHNHOME/WORKSPACE/26msit001_A/jinhyeok/loop_TTT/lact/.cache_inductor_llm/fg/cfgp3sjmecafzqpgknk6ccy5zo7rneoeeiszopuysxnvvthszaiz.py":24:36)
#loc17 = loc("/NHNHOME/WORKSPACE/26msit001_A/jinhyeok/loop_TTT/lact/.cache_inductor_llm/fg/cfgp3sjmecafzqpgknk6ccy5zo7rneoeeiszopuysxnvvthszaiz.py":24:44)
#loc18 = loc("/NHNHOME/WORKSPACE/26msit001_A/jinhyeok/loop_TTT/lact/.cache_inductor_llm/fg/cfgp3sjmecafzqpgknk6ccy5zo7rneoeeiszopuysxnvvthszaiz.py":24:23)
#loc19 = loc("/NHNHOME/WORKSPACE/26msit001_A/jinhyeok/loop_TTT/lact/.cache_inductor_llm/fg/cfgp3sjmecafzqpgknk6ccy5zo7rneoeeiszopuysxnvvthszaiz.py":25:21)
#loc20 = loc("/NHNHOME/WORKSPACE/26msit001_A/jinhyeok/loop_TTT/lact/.cache_inductor_llm/fg/cfgp3sjmecafzqpgknk6ccy5zo7rneoeeiszopuysxnvvthszaiz.py":28:19)
#loc21 = loc("/NHNHOME/WORKSPACE/26msit001_A/jinhyeok/loop_TTT/lact/.cache_inductor_llm/fg/cfgp3sjmecafzqpgknk6ccy5zo7rneoeeiszopuysxnvvthszaiz.py":29:19)
#loc22 = loc("/NHNHOME/WORKSPACE/26msit001_A/jinhyeok/loop_TTT/lact/.cache_inductor_llm/fg/cfgp3sjmecafzqpgknk6ccy5zo7rneoeeiszopuysxnvvthszaiz.py":30:39)
#loc23 = loc("/NHNHOME/WORKSPACE/26msit001_A/jinhyeok/loop_TTT/lact/.cache_inductor_llm/fg/cfgp3sjmecafzqpgknk6ccy5zo7rneoeeiszopuysxnvvthszaiz.py":30:35)
#loc24 = loc("/NHNHOME/WORKSPACE/26msit001_A/jinhyeok/loop_TTT/lact/.cache_inductor_llm/fg/cfgp3sjmecafzqpgknk6ccy5zo7rneoeeiszopuysxnvvthszaiz.py":30:30)
#loc25 = loc("/NHNHOME/WORKSPACE/26msit001_A/jinhyeok/loop_TTT/lact/.cache_inductor_llm/fg/cfgp3sjmecafzqpgknk6ccy5zo7rneoeeiszopuysxnvvthszaiz.py":30:52)
#loc26 = loc("/NHNHOME/WORKSPACE/26msit001_A/jinhyeok/loop_TTT/lact/.cache_inductor_llm/fg/cfgp3sjmecafzqpgknk6ccy5zo7rneoeeiszopuysxnvvthszaiz.py":30:44)
#loc27 = loc("/NHNHOME/WORKSPACE/26msit001_A/jinhyeok/loop_TTT/lact/.cache_inductor_llm/fg/cfgp3sjmecafzqpgknk6ccy5zo7rneoeeiszopuysxnvvthszaiz.py":31:30)
#loc28 = loc("/NHNHOME/WORKSPACE/26msit001_A/jinhyeok/loop_TTT/lact/.cache_inductor_llm/fg/cfgp3sjmecafzqpgknk6ccy5zo7rneoeeiszopuysxnvvthszaiz.py":31:44)
#loc29 = loc("/NHNHOME/WORKSPACE/26msit001_A/jinhyeok/loop_TTT/lact/.cache_inductor_llm/fg/cfgp3sjmecafzqpgknk6ccy5zo7rneoeeiszopuysxnvvthszaiz.py":31:92)
#loc30 = loc("/NHNHOME/WORKSPACE/26msit001_A/jinhyeok/loop_TTT/lact/.cache_inductor_llm/fg/cfgp3sjmecafzqpgknk6ccy5zo7rneoeeiszopuysxnvvthszaiz.py":35:18)
#loc31 = loc("/NHNHOME/WORKSPACE/26msit001_A/jinhyeok/loop_TTT/lact/.cache_inductor_llm/fg/cfgp3sjmecafzqpgknk6ccy5zo7rneoeeiszopuysxnvvthszaiz.py":37:25)
#loc32 = loc("/NHNHOME/WORKSPACE/26msit001_A/jinhyeok/loop_TTT/lact/.cache_inductor_llm/fg/cfgp3sjmecafzqpgknk6ccy5zo7rneoeeiszopuysxnvvthszaiz.py":37:45)
#loc33 = loc("/NHNHOME/WORKSPACE/26msit001_A/jinhyeok/loop_TTT/lact/.cache_inductor_llm/fg/cfgp3sjmecafzqpgknk6ccy5zo7rneoeeiszopuysxnvvthszaiz.py":38:34)
#loc34 = loc("/NHNHOME/WORKSPACE/26msit001_A/jinhyeok/loop_TTT/lact/.cache_inductor_llm/fg/cfgp3sjmecafzqpgknk6ccy5zo7rneoeeiszopuysxnvvthszaiz.py":38:30)
#loc35 = loc("/NHNHOME/WORKSPACE/26msit001_A/jinhyeok/loop_TTT/lact/.cache_inductor_llm/fg/cfgp3sjmecafzqpgknk6ccy5zo7rneoeeiszopuysxnvvthszaiz.py":38:39)
#loc36 = loc("/NHNHOME/WORKSPACE/26msit001_A/jinhyeok/loop_TTT/lact/.cache_inductor_llm/fg/cfgp3sjmecafzqpgknk6ccy5zo7rneoeeiszopuysxnvvthszaiz.py":38:25)
#loc37 = loc("/NHNHOME/WORKSPACE/26msit001_A/jinhyeok/loop_TTT/lact/.cache_inductor_llm/fg/cfgp3sjmecafzqpgknk6ccy5zo7rneoeeiszopuysxnvvthszaiz.py":38:56)
#loc38 = loc("/NHNHOME/WORKSPACE/26msit001_A/jinhyeok/loop_TTT/lact/.cache_inductor_llm/fg/cfgp3sjmecafzqpgknk6ccy5zo7rneoeeiszopuysxnvvthszaiz.py":39:25)
#loc39 = loc("/NHNHOME/WORKSPACE/26msit001_A/jinhyeok/loop_TTT/lact/.cache_inductor_llm/fg/cfgp3sjmecafzqpgknk6ccy5zo7rneoeeiszopuysxnvvthszaiz.py":39:45)
#loc40 = loc("/NHNHOME/WORKSPACE/26msit001_A/jinhyeok/loop_TTT/lact/.cache_inductor_llm/fg/cfgp3sjmecafzqpgknk6ccy5zo7rneoeeiszopuysxnvvthszaiz.py":39:4)
#loc48 = loc("tmp2"(#loc2))
#loc49 = loc("yoffset"(#loc4))
#loc50 = loc("yoffset"(#loc5))
#loc51 = loc("yoffset"(#loc6))
#loc52 = loc("yoffset"(#loc7))
#loc53 = loc("yoffset"(#loc8))
#loc54 = loc("yoffset"(#loc9))
#loc55 = loc("yindex"(#loc10))
#loc56 = loc("yindex"(#loc11))
#loc57 = loc("yindex"(#loc12))
#loc58 = loc("ymask"(#loc13))
#loc59 = loc("xoffset"(#loc14))
#loc60 = loc("xoffset"(#loc15))
#loc61 = loc("xindex"(#loc16))
#loc62 = loc("xindex"(#loc17))
#loc63 = loc("xindex"(#loc18))
#loc64 = loc("xmask"(#loc19))
#loc65 = loc("y2"(#loc20))
#loc66 = loc("y3"(#loc21))
#loc67 = loc("tmp0"(#loc22))
#loc68 = loc("tmp0"(#loc23))
#loc69 = loc("tmp0"(#loc24))
#loc70 = loc("tmp0"(#loc25))
#loc71 = loc("tmp0"(#loc26))
#loc72 = loc("tmp3"(#loc27))
#loc73 = loc("tmp3"(#loc28))
#loc74 = loc("tmp3"(#loc29))
#loc75 = loc("tmp5"(#loc30))
