#loc = loc("/NHNHOME/WORKSPACE/26msit001_A/jinhyeok/loop_TTT/lact/.cache_inductor_llm/sj/csjnyhiap3nhu4mi6jet2n4w33p4vjx3vgsmvjmvrgxueyho54a2.py":18:0)
#loc1 = loc(unknown)
#loc27 = loc("/NHNHOME/WORKSPACE/26msit001_A/jinhyeok/loop_TTT/lact/.cache_inductor_llm/sj/csjnyhiap3nhu4mi6jet2n4w33p4vjx3vgsmvjmvrgxueyho54a2.py":42:24)
#loc36 = loc("/NHNHOME/WORKSPACE/26msit001_A/jinhyeok/loop_TTT/lact/.cache_inductor_llm/sj/csjnyhiap3nhu4mi6jet2n4w33p4vjx3vgsmvjmvrgxueyho54a2.py":56:26)
#loc51 = loc("in_out_ptr0"(#loc))
#loc52 = loc("in_out_ptr1"(#loc))
#loc53 = loc("in_out_ptr2"(#loc))
#loc54 = loc("in_ptr0"(#loc))
#loc55 = loc("in_ptr1"(#loc))
#loc56 = loc("in_ptr2"(#loc))
#loc57 = loc("out_ptr0"(#loc))
#loc58 = loc("xnumel"(#loc))
#loc59 = loc("r0_numel"(#loc))
#loc84 = loc("tmp6"(#loc27))
#loc92 = loc("tmp24"(#loc36))
#loc100 = loc(callsite(#loc1 at #loc84))
#loc102 = loc(callsite(#loc1 at #loc92))
module {
  tt.func public @triton_per_fused__to_copy_add_div_linalg_vector_norm_mul_29(%in_out_ptr0: !tt.ptr<f32> {tt.divisibility = 16 : i32} loc("in_out_ptr0"(#loc)), %in_out_ptr1: !tt.ptr<f32> {tt.divisibility = 16 : i32} loc("in_out_ptr1"(#loc)), %in_out_ptr2: !tt.ptr<f32> {tt.divisibility = 16 : i32} loc("in_out_ptr2"(#loc)), %in_ptr0: !tt.ptr<bf16> {tt.divisibility = 16 : i32} loc("in_ptr0"(#loc)), %in_ptr1: !tt.ptr<bf16> {tt.divisibility = 16 : i32} loc("in_ptr1"(#loc)), %in_ptr2: !tt.ptr<bf16> {tt.divisibility = 16 : i32} loc("in_ptr2"(#loc)), %out_ptr0: !tt.ptr<bf16> {tt.divisibility = 16 : i32} loc("out_ptr0"(#loc)), %xnumel: i32 {tt.divisibility = 16 : i32} loc("xnumel"(#loc)), %r0_numel: i32 {tt.divisibility = 16 : i32} loc("r0_numel"(#loc))) attributes {noinline = false} {
    %c192_i32 = arith.constant 192 : i32 loc(#loc1)
    %xmask = arith.constant 18432 : i32 loc(#loc60)
    %cst = arith.constant dense<0.000000e+00> : tensor<1x256xbf16> loc(#loc1)
    %tmp27 = arith.constant dense<9.99999974E-6> : tensor<1x1xf32> loc(#loc61)
    %tmp15 = arith.constant dense<2.836600e+00> : tensor<1x256xf32> loc(#loc62)
    %tmp10 = arith.constant dense<2.876900e+00> : tensor<1x256xf32> loc(#loc63)
    %cst_0 = arith.constant dense<0.000000e+00> : tensor<1x256xf32> loc(#loc1)
    %r0_mask = arith.constant dense<192> : tensor<1x256xi32> loc(#loc64)
    %xoffset = tt.get_program_id x : i32 loc(#loc65)
    %xmask_1 = arith.cmpi slt, %xoffset, %xmask : i32 loc(#loc60)
    %xmask_2 = tt.splat %xmask_1 : i1 -> tensor<1x1xi1> loc(#loc60)
    %r0_index = tt.make_range {end = 256 : i32, start = 0 : i32} : tensor<256xi32> loc(#loc66)
    %r0_index_3 = tt.expand_dims %r0_index {axis = 0 : i32} : tensor<256xi32> -> tensor<1x256xi32> loc(#loc67)
    %r0_mask_4 = arith.cmpi slt, %r0_index_3, %r0_mask : tensor<1x256xi32> loc(#loc64)
    %tmp0 = arith.muli %xoffset, %c192_i32 : i32 loc(#loc68)
    %tmp0_5 = tt.splat %tmp0 : i32 -> tensor<1x256xi32> loc(#loc97)
    %tmp0_6 = arith.addi %r0_index_3, %tmp0_5 : tensor<1x256xi32> loc(#loc69)
    %tmp0_7 = tt.splat %in_ptr0 : !tt.ptr<bf16> -> tensor<1x256x!tt.ptr<bf16>> loc(#loc70)
    %tmp0_8 = tt.addptr %tmp0_7, %tmp0_6 : tensor<1x256x!tt.ptr<bf16>>, tensor<1x256xi32> loc(#loc70)
    %tmp0_9 = tt.splat %xmask_1 : i1 -> tensor<1x256xi1> loc(#loc98)
    %tmp0_10 = arith.andi %r0_mask_4, %tmp0_9 : tensor<1x256xi1> loc(#loc71)
    %tmp0_11 = tt.load %tmp0_8, %tmp0_10, %cst : tensor<1x256x!tt.ptr<bf16>> loc(#loc72)
    %tmp0_12 = arith.extf %tmp0_11 : tensor<1x256xbf16> to tensor<1x256xf32> loc(#loc73)
    %tmp8 = tt.splat %in_out_ptr1 : !tt.ptr<f32> -> tensor<1x256x!tt.ptr<f32>> loc(#loc74)
    %tmp8_13 = tt.addptr %tmp8, %tmp0_6 : tensor<1x256x!tt.ptr<f32>>, tensor<1x256xi32> loc(#loc74)
    %tmp8_14 = tt.load %tmp8_13, %tmp0_10, %cst_0 : tensor<1x256x!tt.ptr<f32>> loc(#loc75)
    %tmp11 = tt.splat %in_ptr1 : !tt.ptr<bf16> -> tensor<1x256x!tt.ptr<bf16>> loc(#loc76)
    %tmp11_15 = tt.addptr %tmp11, %tmp0_6 : tensor<1x256x!tt.ptr<bf16>>, tensor<1x256xi32> loc(#loc76)
    %tmp11_16 = tt.load %tmp11_15, %tmp0_10, %cst : tensor<1x256x!tt.ptr<bf16>> loc(#loc77)
    %tmp11_17 = arith.extf %tmp11_16 : tensor<1x256xbf16> to tensor<1x256xf32> loc(#loc78)
    %tmp16 = tt.splat %in_ptr2 : !tt.ptr<bf16> -> tensor<1x256x!tt.ptr<bf16>> loc(#loc79)
    %tmp16_18 = tt.addptr %tmp16, %tmp0_6 : tensor<1x256x!tt.ptr<bf16>>, tensor<1x256xi32> loc(#loc79)
    %tmp16_19 = tt.load %tmp16_18, %tmp0_10, %cst : tensor<1x256x!tt.ptr<bf16>> loc(#loc80)
    %tmp16_20 = arith.extf %tmp16_19 : tensor<1x256xbf16> to tensor<1x256xf32> loc(#loc81)
    %tmp2 = arith.mulf %tmp0_12, %tmp0_12 : tensor<1x256xf32> loc(#loc82)
    %tmp5 = arith.select %tmp0_10, %tmp2, %cst_0 : tensor<1x256xi1>, tensor<1x256xf32> loc(#loc83)
    %tmp6 = "tt.reduce"(%tmp5) <{axis = 1 : i32}> ({
    ^bb0(%tmp6_28: f32 loc(callsite(#loc1 at #loc84)), %tmp6_29: f32 loc(callsite(#loc1 at #loc84))):
      %tmp6_30 = arith.addf %tmp6_28, %tmp6_29 : f32 loc(#loc103)
      tt.reduce.return %tmp6_30 : f32 loc(#loc99)
    }) : (tensor<1x256xf32>) -> tensor<1xf32> loc(#loc99)
    %tmp6_21 = tt.expand_dims %tmp6 {axis = 1 : i32} : tensor<1xf32> -> tensor<1x1xf32> loc(#loc85)
    %tmp7 = tt.extern_elementwise %tmp6_21 {libname = "", libpath = "", pure = true, symbol = "__nv_sqrtf"} : (tensor<1x1xf32>) -> tensor<1x1xf32> loc(#loc86)
    %tmp10_22 = arith.mulf %tmp8_14, %tmp10 : tensor<1x256xf32> loc(#loc63)
    %tmp13 = arith.addf %tmp10_22, %tmp11_17 : tensor<1x256xf32> loc(#loc87)
    %tmp15_23 = arith.mulf %tmp13, %tmp15 : tensor<1x256xf32> loc(#loc62)
    %tmp18 = arith.addf %tmp15_23, %tmp16_20 : tensor<1x256xf32> loc(#loc88)
    %tmp19 = arith.addf %tmp0_12, %tmp18 : tensor<1x256xf32> loc(#loc89)
    %tmp20 = arith.mulf %tmp19, %tmp19 : tensor<1x256xf32> loc(#loc90)
    %tmp23 = arith.select %tmp0_10, %tmp20, %cst_0 : tensor<1x256xi1>, tensor<1x256xf32> loc(#loc91)
    %tmp24 = "tt.reduce"(%tmp23) <{axis = 1 : i32}> ({
    ^bb0(%tmp24_28: f32 loc(callsite(#loc1 at #loc92)), %tmp24_29: f32 loc(callsite(#loc1 at #loc92))):
      %tmp24_30 = arith.addf %tmp24_28, %tmp24_29 : f32 loc(#loc104)
      tt.reduce.return %tmp24_30 : f32 loc(#loc101)
    }) : (tensor<1x256xf32>) -> tensor<1xf32> loc(#loc101)
    %tmp24_24 = tt.expand_dims %tmp24 {axis = 1 : i32} : tensor<1xf32> -> tensor<1x1xf32> loc(#loc93)
    %tmp25 = tt.extern_elementwise %tmp24_24 {libname = "", libpath = "", pure = true, symbol = "__nv_sqrtf"} : (tensor<1x1xf32>) -> tensor<1x1xf32> loc(#loc94)
    %tmp27_25 = arith.addf %tmp25, %tmp27 : tensor<1x1xf32> loc(#loc61)
    %tmp28 = tt.broadcast %tmp27_25 : tensor<1x1xf32> -> tensor<1x256xf32> loc(#loc95)
    %tmp28_26 = arith.divf %tmp19, %tmp28 : tensor<1x256xf32> loc(#loc95)
    %tmp29 = tt.broadcast %tmp7 : tensor<1x1xf32> -> tensor<1x256xf32> loc(#loc96)
    %tmp29_27 = arith.mulf %tmp28_26, %tmp29 : tensor<1x256xf32> loc(#loc96)
    gpu.barrier loc(#loc41)
    %0 = tt.addptr %in_out_ptr0, %xoffset : !tt.ptr<f32>, i32 loc(#loc42)
    %1 = tt.splat %0 : !tt.ptr<f32> -> tensor<1x1x!tt.ptr<f32>> loc(#loc42)
    tt.store %1, %tmp7, %xmask_2 : tensor<1x1x!tt.ptr<f32>> loc(#loc43)
    tt.store %tmp8_13, %tmp19, %tmp0_10 : tensor<1x256x!tt.ptr<f32>> loc(#loc44)
    gpu.barrier loc(#loc45)
    %2 = tt.addptr %in_out_ptr2, %xoffset : !tt.ptr<f32>, i32 loc(#loc46)
    %3 = tt.splat %2 : !tt.ptr<f32> -> tensor<1x1x!tt.ptr<f32>> loc(#loc46)
    tt.store %3, %tmp25, %xmask_2 : tensor<1x1x!tt.ptr<f32>> loc(#loc47)
    %4 = tt.splat %out_ptr0 : !tt.ptr<bf16> -> tensor<1x256x!tt.ptr<bf16>> loc(#loc48)
    %5 = tt.addptr %4, %tmp0_6 : tensor<1x256x!tt.ptr<bf16>>, tensor<1x256xi32> loc(#loc48)
    %6 = arith.truncf %tmp29_27 : tensor<1x256xf32> to tensor<1x256xbf16> loc(#loc49)
    tt.store %5, %6, %tmp0_10 : tensor<1x256x!tt.ptr<bf16>> loc(#loc49)
    tt.return loc(#loc50)
  } loc(#loc)
} loc(#loc)
#loc2 = loc("/NHNHOME/WORKSPACE/26msit001_A/jinhyeok/loop_TTT/lact/.cache_inductor_llm/sj/csjnyhiap3nhu4mi6jet2n4w33p4vjx3vgsmvjmvrgxueyho54a2.py":26:21)
#loc3 = loc("/NHNHOME/WORKSPACE/26msit001_A/jinhyeok/loop_TTT/lact/.cache_inductor_llm/sj/csjnyhiap3nhu4mi6jet2n4w33p4vjx3vgsmvjmvrgxueyho54a2.py":59:20)
#loc4 = loc("/NHNHOME/WORKSPACE/26msit001_A/jinhyeok/loop_TTT/lact/.cache_inductor_llm/sj/csjnyhiap3nhu4mi6jet2n4w33p4vjx3vgsmvjmvrgxueyho54a2.py":49:20)
#loc5 = loc("/NHNHOME/WORKSPACE/26msit001_A/jinhyeok/loop_TTT/lact/.cache_inductor_llm/sj/csjnyhiap3nhu4mi6jet2n4w33p4vjx3vgsmvjmvrgxueyho54a2.py":45:19)
#loc6 = loc("/NHNHOME/WORKSPACE/26msit001_A/jinhyeok/loop_TTT/lact/.cache_inductor_llm/sj/csjnyhiap3nhu4mi6jet2n4w33p4vjx3vgsmvjmvrgxueyho54a2.py":29:25)
#loc7 = loc("/NHNHOME/WORKSPACE/26msit001_A/jinhyeok/loop_TTT/lact/.cache_inductor_llm/sj/csjnyhiap3nhu4mi6jet2n4w33p4vjx3vgsmvjmvrgxueyho54a2.py":24:28)
#loc8 = loc("/NHNHOME/WORKSPACE/26msit001_A/jinhyeok/loop_TTT/lact/.cache_inductor_llm/sj/csjnyhiap3nhu4mi6jet2n4w33p4vjx3vgsmvjmvrgxueyho54a2.py":27:28)
#loc9 = loc("/NHNHOME/WORKSPACE/26msit001_A/jinhyeok/loop_TTT/lact/.cache_inductor_llm/sj/csjnyhiap3nhu4mi6jet2n4w33p4vjx3vgsmvjmvrgxueyho54a2.py":27:38)
#loc10 = loc("/NHNHOME/WORKSPACE/26msit001_A/jinhyeok/loop_TTT/lact/.cache_inductor_llm/sj/csjnyhiap3nhu4mi6jet2n4w33p4vjx3vgsmvjmvrgxueyho54a2.py":34:41)
#loc11 = loc("/NHNHOME/WORKSPACE/26msit001_A/jinhyeok/loop_TTT/lact/.cache_inductor_llm/sj/csjnyhiap3nhu4mi6jet2n4w33p4vjx3vgsmvjmvrgxueyho54a2.py":34:37)
#loc12 = loc("/NHNHOME/WORKSPACE/26msit001_A/jinhyeok/loop_TTT/lact/.cache_inductor_llm/sj/csjnyhiap3nhu4mi6jet2n4w33p4vjx3vgsmvjmvrgxueyho54a2.py":34:30)
#loc13 = loc("/NHNHOME/WORKSPACE/26msit001_A/jinhyeok/loop_TTT/lact/.cache_inductor_llm/sj/csjnyhiap3nhu4mi6jet2n4w33p4vjx3vgsmvjmvrgxueyho54a2.py":34:56)
#loc14 = loc("/NHNHOME/WORKSPACE/26msit001_A/jinhyeok/loop_TTT/lact/.cache_inductor_llm/sj/csjnyhiap3nhu4mi6jet2n4w33p4vjx3vgsmvjmvrgxueyho54a2.py":34:46)
#loc15 = loc("/NHNHOME/WORKSPACE/26msit001_A/jinhyeok/loop_TTT/lact/.cache_inductor_llm/sj/csjnyhiap3nhu4mi6jet2n4w33p4vjx3vgsmvjmvrgxueyho54a2.py":34:77)
#loc16 = loc("/NHNHOME/WORKSPACE/26msit001_A/jinhyeok/loop_TTT/lact/.cache_inductor_llm/sj/csjnyhiap3nhu4mi6jet2n4w33p4vjx3vgsmvjmvrgxueyho54a2.py":35:34)
#loc17 = loc("/NHNHOME/WORKSPACE/26msit001_A/jinhyeok/loop_TTT/lact/.cache_inductor_llm/sj/csjnyhiap3nhu4mi6jet2n4w33p4vjx3vgsmvjmvrgxueyho54a2.py":35:50)
#loc18 = loc("/NHNHOME/WORKSPACE/26msit001_A/jinhyeok/loop_TTT/lact/.cache_inductor_llm/sj/csjnyhiap3nhu4mi6jet2n4w33p4vjx3vgsmvjmvrgxueyho54a2.py":36:31)
#loc19 = loc("/NHNHOME/WORKSPACE/26msit001_A/jinhyeok/loop_TTT/lact/.cache_inductor_llm/sj/csjnyhiap3nhu4mi6jet2n4w33p4vjx3vgsmvjmvrgxueyho54a2.py":36:47)
#loc20 = loc("/NHNHOME/WORKSPACE/26msit001_A/jinhyeok/loop_TTT/lact/.cache_inductor_llm/sj/csjnyhiap3nhu4mi6jet2n4w33p4vjx3vgsmvjmvrgxueyho54a2.py":36:78)
#loc21 = loc("/NHNHOME/WORKSPACE/26msit001_A/jinhyeok/loop_TTT/lact/.cache_inductor_llm/sj/csjnyhiap3nhu4mi6jet2n4w33p4vjx3vgsmvjmvrgxueyho54a2.py":37:31)
#loc22 = loc("/NHNHOME/WORKSPACE/26msit001_A/jinhyeok/loop_TTT/lact/.cache_inductor_llm/sj/csjnyhiap3nhu4mi6jet2n4w33p4vjx3vgsmvjmvrgxueyho54a2.py":37:47)
#loc23 = loc("/NHNHOME/WORKSPACE/26msit001_A/jinhyeok/loop_TTT/lact/.cache_inductor_llm/sj/csjnyhiap3nhu4mi6jet2n4w33p4vjx3vgsmvjmvrgxueyho54a2.py":37:78)
#loc24 = loc("/NHNHOME/WORKSPACE/26msit001_A/jinhyeok/loop_TTT/lact/.cache_inductor_llm/sj/csjnyhiap3nhu4mi6jet2n4w33p4vjx3vgsmvjmvrgxueyho54a2.py":39:18)
#loc25 = loc("/NHNHOME/WORKSPACE/26msit001_A/jinhyeok/loop_TTT/lact/.cache_inductor_llm/sj/csjnyhiap3nhu4mi6jet2n4w33p4vjx3vgsmvjmvrgxueyho54a2.py":41:43)
#loc26 = loc("/NHNHOME/WORKSPACE/26msit001_A/jinhyeok/TTT_camera_embedding/.venv_llm/lib/python3.12/site-packages/triton/language/standard.py":291:36)
#loc28 = loc("/NHNHOME/WORKSPACE/26msit001_A/jinhyeok/TTT_camera_embedding/.venv_llm/lib/python3.12/site-packages/triton/language/standard.py":261:15)
#loc29 = loc("/NHNHOME/WORKSPACE/26msit001_A/jinhyeok/loop_TTT/lact/.cache_inductor_llm/sj/csjnyhiap3nhu4mi6jet2n4w33p4vjx3vgsmvjmvrgxueyho54a2.py":42:27)
#loc30 = loc("/NHNHOME/WORKSPACE/26msit001_A/jinhyeok/loop_TTT/lact/.cache_inductor_llm/sj/csjnyhiap3nhu4mi6jet2n4w33p4vjx3vgsmvjmvrgxueyho54a2.py":43:26)
#loc31 = loc("/NHNHOME/WORKSPACE/26msit001_A/jinhyeok/loop_TTT/lact/.cache_inductor_llm/sj/csjnyhiap3nhu4mi6jet2n4w33p4vjx3vgsmvjmvrgxueyho54a2.py":47:20)
#loc32 = loc("/NHNHOME/WORKSPACE/26msit001_A/jinhyeok/loop_TTT/lact/.cache_inductor_llm/sj/csjnyhiap3nhu4mi6jet2n4w33p4vjx3vgsmvjmvrgxueyho54a2.py":51:20)
#loc33 = loc("/NHNHOME/WORKSPACE/26msit001_A/jinhyeok/loop_TTT/lact/.cache_inductor_llm/sj/csjnyhiap3nhu4mi6jet2n4w33p4vjx3vgsmvjmvrgxueyho54a2.py":52:19)
#loc34 = loc("/NHNHOME/WORKSPACE/26msit001_A/jinhyeok/loop_TTT/lact/.cache_inductor_llm/sj/csjnyhiap3nhu4mi6jet2n4w33p4vjx3vgsmvjmvrgxueyho54a2.py":53:20)
#loc35 = loc("/NHNHOME/WORKSPACE/26msit001_A/jinhyeok/loop_TTT/lact/.cache_inductor_llm/sj/csjnyhiap3nhu4mi6jet2n4w33p4vjx3vgsmvjmvrgxueyho54a2.py":55:45)
#loc37 = loc("/NHNHOME/WORKSPACE/26msit001_A/jinhyeok/loop_TTT/lact/.cache_inductor_llm/sj/csjnyhiap3nhu4mi6jet2n4w33p4vjx3vgsmvjmvrgxueyho54a2.py":56:29)
#loc38 = loc("/NHNHOME/WORKSPACE/26msit001_A/jinhyeok/loop_TTT/lact/.cache_inductor_llm/sj/csjnyhiap3nhu4mi6jet2n4w33p4vjx3vgsmvjmvrgxueyho54a2.py":57:27)
#loc39 = loc("/NHNHOME/WORKSPACE/26msit001_A/jinhyeok/loop_TTT/lact/.cache_inductor_llm/sj/csjnyhiap3nhu4mi6jet2n4w33p4vjx3vgsmvjmvrgxueyho54a2.py":60:21)
#loc40 = loc("/NHNHOME/WORKSPACE/26msit001_A/jinhyeok/loop_TTT/lact/.cache_inductor_llm/sj/csjnyhiap3nhu4mi6jet2n4w33p4vjx3vgsmvjmvrgxueyho54a2.py":61:20)
#loc41 = loc("/NHNHOME/WORKSPACE/26msit001_A/jinhyeok/loop_TTT/lact/.cache_inductor_llm/sj/csjnyhiap3nhu4mi6jet2n4w33p4vjx3vgsmvjmvrgxueyho54a2.py":63:4)
#loc42 = loc("/NHNHOME/WORKSPACE/26msit001_A/jinhyeok/loop_TTT/lact/.cache_inductor_llm/sj/csjnyhiap3nhu4mi6jet2n4w33p4vjx3vgsmvjmvrgxueyho54a2.py":64:28)
#loc43 = loc("/NHNHOME/WORKSPACE/26msit001_A/jinhyeok/loop_TTT/lact/.cache_inductor_llm/sj/csjnyhiap3nhu4mi6jet2n4w33p4vjx3vgsmvjmvrgxueyho54a2.py":64:39)
#loc44 = loc("/NHNHOME/WORKSPACE/26msit001_A/jinhyeok/loop_TTT/lact/.cache_inductor_llm/sj/csjnyhiap3nhu4mi6jet2n4w33p4vjx3vgsmvjmvrgxueyho54a2.py":65:51)
#loc45 = loc("/NHNHOME/WORKSPACE/26msit001_A/jinhyeok/loop_TTT/lact/.cache_inductor_llm/sj/csjnyhiap3nhu4mi6jet2n4w33p4vjx3vgsmvjmvrgxueyho54a2.py":66:4)
#loc46 = loc("/NHNHOME/WORKSPACE/26msit001_A/jinhyeok/loop_TTT/lact/.cache_inductor_llm/sj/csjnyhiap3nhu4mi6jet2n4w33p4vjx3vgsmvjmvrgxueyho54a2.py":67:28)
#loc47 = loc("/NHNHOME/WORKSPACE/26msit001_A/jinhyeok/loop_TTT/lact/.cache_inductor_llm/sj/csjnyhiap3nhu4mi6jet2n4w33p4vjx3vgsmvjmvrgxueyho54a2.py":67:40)
#loc48 = loc("/NHNHOME/WORKSPACE/26msit001_A/jinhyeok/loop_TTT/lact/.cache_inductor_llm/sj/csjnyhiap3nhu4mi6jet2n4w33p4vjx3vgsmvjmvrgxueyho54a2.py":68:25)
#loc49 = loc("/NHNHOME/WORKSPACE/26msit001_A/jinhyeok/loop_TTT/lact/.cache_inductor_llm/sj/csjnyhiap3nhu4mi6jet2n4w33p4vjx3vgsmvjmvrgxueyho54a2.py":68:48)
#loc50 = loc("/NHNHOME/WORKSPACE/26msit001_A/jinhyeok/loop_TTT/lact/.cache_inductor_llm/sj/csjnyhiap3nhu4mi6jet2n4w33p4vjx3vgsmvjmvrgxueyho54a2.py":68:4)
#loc60 = loc("xmask"(#loc2))
#loc61 = loc("tmp27"(#loc3))
#loc62 = loc("tmp15"(#loc4))
#loc63 = loc("tmp10"(#loc5))
#loc64 = loc("r0_mask"(#loc6))
#loc65 = loc("xoffset"(#loc7))
#loc66 = loc("r0_index"(#loc8))
#loc67 = loc("r0_index"(#loc9))
#loc68 = loc("tmp0"(#loc10))
#loc69 = loc("tmp0"(#loc11))
#loc70 = loc("tmp0"(#loc12))
#loc71 = loc("tmp0"(#loc13))
#loc72 = loc("tmp0"(#loc14))
#loc73 = loc("tmp0"(#loc15))
#loc74 = loc("tmp8"(#loc16))
#loc75 = loc("tmp8"(#loc17))
#loc76 = loc("tmp11"(#loc18))
#loc77 = loc("tmp11"(#loc19))
#loc78 = loc("tmp11"(#loc20))
#loc79 = loc("tmp16"(#loc21))
#loc80 = loc("tmp16"(#loc22))
#loc81 = loc("tmp16"(#loc23))
#loc82 = loc("tmp2"(#loc24))
#loc83 = loc("tmp5"(#loc25))
#loc85 = loc("tmp6"(#loc29))
#loc86 = loc("tmp7"(#loc30))
#loc87 = loc("tmp13"(#loc31))
#loc88 = loc("tmp18"(#loc32))
#loc89 = loc("tmp19"(#loc33))
#loc90 = loc("tmp20"(#loc34))
#loc91 = loc("tmp23"(#loc35))
#loc93 = loc("tmp24"(#loc37))
#loc94 = loc("tmp25"(#loc38))
#loc95 = loc("tmp28"(#loc39))
#loc96 = loc("tmp29"(#loc40))
#loc97 = loc(fused[#loc69, #loc68])
#loc98 = loc(fused[#loc71, #loc60])
#loc99 = loc(callsite(#loc26 at #loc84))
#loc101 = loc(callsite(#loc26 at #loc92))
#loc103 = loc(callsite(#loc28 at #loc99))
#loc104 = loc(callsite(#loc28 at #loc101))
