#loc = loc("/NHNHOME/WORKSPACE/26msit001_A/jinhyeok/TTT_camera_embedding/.venv_llm/lib/python3.12/site-packages/fla/modules/layernorm.py":195:0)
#loc2 = loc(unknown)
#loc16 = loc("/NHNHOME/WORKSPACE/26msit001_A/jinhyeok/TTT_camera_embedding/.venv_llm/lib/python3.12/site-packages/fla/modules/layernorm.py":240:23)
#loc29 = loc("x"(#loc))
#loc30 = loc("y"(#loc))
#loc31 = loc("w"(#loc))
#loc32 = loc("rstd"(#loc))
#loc33 = loc("eps"(#loc))
#loc34 = loc("T"(#loc))
#loc47 = loc("b_var"(#loc16))
#loc57 = loc(callsite(#loc2 at #loc47))
module {
  tt.func public @layer_norm_fwd_kernel(%x: !tt.ptr<bf16> {tt.divisibility = 16 : i32} loc("x"(#loc)), %y: !tt.ptr<bf16> {tt.divisibility = 16 : i32} loc("y"(#loc)), %w: !tt.ptr<f32> {tt.divisibility = 16 : i32} loc("w"(#loc)), %rstd: !tt.ptr<f32> {tt.divisibility = 16 : i32} loc("rstd"(#loc)), %eps: f32 loc("eps"(#loc)), %T: i32 {tt.divisibility = 16 : i32} loc("T"(#loc))) attributes {noinline = false} {
    %cst = arith.constant dense<0> : tensor<32xi64> loc(#loc1)
    %cst_0 = arith.constant dense<192> : tensor<1x256xi64> loc(#loc2)
    %cst_1 = arith.constant dense<0> : tensor<1x256xi64> loc(#loc2)
    %cst_2 = arith.constant dense<0> : tensor<32x1xi64> loc(#loc2)
    %cst_3 = arith.constant dense<192> : tensor<32x1xi64> loc(#loc2)
    %b_rstd = arith.constant dense<1.000000e+00> : tensor<32xf32> loc(#loc35)
    %b_var = arith.constant dense<1.920000e+02> : tensor<32xf32> loc(#loc36)
    %b_xbar = arith.constant dense<0.000000e+00> : tensor<32x256xf32> loc(#loc37)
    %m_d = arith.constant dense<192> : tensor<256xi32> loc(#loc38)
    %c32_i32 = arith.constant 32 : i32 loc(#loc2)
    %i_t = tt.get_program_id x : i32 loc(#loc39)
    %o_d = tt.make_range {end = 256 : i32, start = 0 : i32} : tensor<256xi32> loc(#loc40)
    %m_d_4 = arith.cmpi slt, %o_d, %m_d : tensor<256xi32> loc(#loc38)
    %p_x = arith.muli %i_t, %c32_i32 : i32 loc(#loc41)
    %p_x_5 = arith.extsi %T : i32 to i64 loc(#loc42)
    %p_x_6 = arith.extsi %p_x : i32 to i64 loc(#loc42)
    %b_x = tt.splat %x : !tt.ptr<bf16> -> tensor<32x256x!tt.ptr<bf16>> loc(#loc43)
    %b_x_7 = tt.splat %p_x_6 : i64 -> tensor<32xi64> loc(#loc43)
    %b_x_8 = tt.make_range {end = 32 : i32, start = 0 : i32} : tensor<32xi32> loc(#loc43)
    %b_x_9 = arith.extsi %b_x_8 : tensor<32xi32> to tensor<32xi64> loc(#loc43)
    %b_x_10 = arith.addi %b_x_7, %b_x_9 : tensor<32xi64> loc(#loc43)
    %b_x_11 = tt.expand_dims %b_x_10 {axis = 1 : i32} : tensor<32xi64> -> tensor<32x1xi64> loc(#loc43)
    %b_x_12 = arith.muli %b_x_11, %cst_3 : tensor<32x1xi64> loc(#loc43)
    %b_x_13 = tt.broadcast %b_x_12 : tensor<32x1xi64> -> tensor<32x256xi64> loc(#loc43)
    %b_x_14 = arith.extsi %o_d : tensor<256xi32> to tensor<256xi64> loc(#loc43)
    %b_x_15 = tt.expand_dims %b_x_14 {axis = 0 : i32} : tensor<256xi64> -> tensor<1x256xi64> loc(#loc43)
    %b_x_16 = tt.broadcast %b_x_15 : tensor<1x256xi64> -> tensor<32x256xi64> loc(#loc43)
    %b_x_17 = arith.addi %b_x_13, %b_x_16 : tensor<32x256xi64> loc(#loc43)
    %b_x_18 = tt.addptr %b_x, %b_x_17 : tensor<32x256x!tt.ptr<bf16>>, tensor<32x256xi64> loc(#loc43)
    %b_x_19 = arith.cmpi sge, %b_x_11, %cst_2 : tensor<32x1xi64> loc(#loc43)
    %b_x_20 = tt.splat %p_x_5 : i64 -> tensor<32x1xi64> loc(#loc43)
    %b_x_21 = arith.cmpi slt, %b_x_11, %b_x_20 : tensor<32x1xi64> loc(#loc43)
    %b_x_22 = arith.andi %b_x_19, %b_x_21 : tensor<32x1xi1> loc(#loc43)
    %b_x_23 = tt.broadcast %b_x_22 : tensor<32x1xi1> -> tensor<32x256xi1> loc(#loc43)
    %b_x_24 = arith.cmpi sge, %b_x_15, %cst_1 : tensor<1x256xi64> loc(#loc43)
    %b_x_25 = arith.cmpi slt, %b_x_15, %cst_0 : tensor<1x256xi64> loc(#loc43)
    %b_x_26 = arith.andi %b_x_24, %b_x_25 : tensor<1x256xi1> loc(#loc43)
    %b_x_27 = tt.broadcast %b_x_26 : tensor<1x256xi1> -> tensor<32x256xi1> loc(#loc43)
    %b_x_28 = arith.andi %b_x_23, %b_x_27 : tensor<32x256xi1> loc(#loc43)
    %b_x_29 = tt.load %b_x_18, %b_x_28 : tensor<32x256x!tt.ptr<bf16>> loc(#loc43)
    %b_x_30 = arith.extf %b_x_29 : tensor<32x256xbf16> to tensor<32x256xf32> loc(#loc44)
    %b_xbar_31 = tt.expand_dims %m_d_4 {axis = 0 : i32} : tensor<256xi1> -> tensor<1x256xi1> loc(#loc45)
    %b_xbar_32 = tt.broadcast %b_xbar_31 : tensor<1x256xi1> -> tensor<32x256xi1> loc(#loc37)
    %b_xbar_33 = arith.select %b_xbar_32, %b_x_30, %b_xbar : tensor<32x256xi1>, tensor<32x256xf32> loc(#loc37)
    %b_var_34 = arith.mulf %b_xbar_33, %b_xbar_33 : tensor<32x256xf32> loc(#loc46)
    %b_var_35 = "tt.reduce"(%b_var_34) <{axis = 1 : i32}> ({
    ^bb0(%b_var_47: f32 loc(callsite(#loc2 at #loc47)), %b_var_48: f32 loc(callsite(#loc2 at #loc47))):
      %b_var_49 = arith.addf %b_var_47, %b_var_48 : f32 loc(#loc58)
      tt.reduce.return %b_var_49 : f32 loc(#loc56)
    }) : (tensor<32x256xf32>) -> tensor<32xf32> loc(#loc56)
    %b_var_36 = arith.divf %b_var_35, %b_var : tensor<32xf32> loc(#loc36)
    %b_rstd_37 = tt.splat %eps : f32 -> tensor<32xf32> loc(#loc48)
    %b_rstd_38 = arith.addf %b_var_36, %b_rstd_37 : tensor<32xf32> loc(#loc48)
    %b_rstd_39 = math.sqrt %b_rstd_38 : tensor<32xf32> loc(#loc49)
    %b_rstd_40 = arith.divf %b_rstd, %b_rstd_39 : tensor<32xf32> loc(#loc35)
    %0 = tt.splat %rstd : !tt.ptr<f32> -> tensor<32x!tt.ptr<f32>> loc(#loc1)
    %1 = tt.addptr %0, %b_x_10 : tensor<32x!tt.ptr<f32>>, tensor<32xi64> loc(#loc1)
    %2 = arith.cmpi sge, %b_x_10, %cst : tensor<32xi64> loc(#loc1)
    %3 = tt.splat %p_x_5 : i64 -> tensor<32xi64> loc(#loc1)
    %4 = arith.cmpi slt, %b_x_10, %3 : tensor<32xi64> loc(#loc1)
    %5 = arith.andi %2, %4 : tensor<32xi1> loc(#loc1)
    tt.store %1, %b_rstd_40, %5 : tensor<32x!tt.ptr<f32>> loc(#loc1)
    %b_w = tt.expand_dims %o_d {axis = 0 : i32} : tensor<256xi32> -> tensor<1x256xi32> loc(#loc50)
    %b_w_41 = tt.splat %w : !tt.ptr<f32> -> tensor<1x256x!tt.ptr<f32>> loc(#loc51)
    %b_w_42 = tt.addptr %b_w_41, %b_w : tensor<1x256x!tt.ptr<f32>>, tensor<1x256xi32> loc(#loc51)
    %b_w_43 = tt.broadcast %b_w_42 : tensor<1x256x!tt.ptr<f32>> -> tensor<32x256x!tt.ptr<f32>> loc(#loc51)
    %b_w_44 = tt.load %b_w_43, %b_xbar_32 : tensor<32x256x!tt.ptr<f32>> loc(#loc52)
    %b_x_hat = tt.expand_dims %b_rstd_40 {axis = 1 : i32} : tensor<32xf32> -> tensor<32x1xf32> loc(#loc53)
    %b_x_hat_45 = tt.broadcast %b_x_hat : tensor<32x1xf32> -> tensor<32x256xf32> loc(#loc54)
    %b_x_hat_46 = arith.mulf %b_x_30, %b_x_hat_45 : tensor<32x256xf32> loc(#loc54)
    %b_y = arith.mulf %b_x_hat_46, %b_w_44 : tensor<32x256xf32> loc(#loc55)
    %6 = arith.truncf %b_y : tensor<32x256xf32> to tensor<32x256xbf16> loc(#loc26)
    %7 = tt.splat %y : !tt.ptr<bf16> -> tensor<32x256x!tt.ptr<bf16>> loc(#loc27)
    %8 = tt.addptr %7, %b_x_17 : tensor<32x256x!tt.ptr<bf16>>, tensor<32x256xi64> loc(#loc27)
    tt.store %8, %6, %b_x_28 : tensor<32x256x!tt.ptr<bf16>> loc(#loc27)
    tt.return loc(#loc28)
  } loc(#loc)
} loc(#loc)
#loc1 = loc("/NHNHOME/WORKSPACE/26msit001_A/jinhyeok/TTT_camera_embedding/.venv_llm/lib/python3.12/site-packages/fla/modules/layernorm.py":244:21)
#loc3 = loc("/NHNHOME/WORKSPACE/26msit001_A/jinhyeok/TTT_camera_embedding/.venv_llm/lib/python3.12/site-packages/fla/modules/layernorm.py":241:17)
#loc4 = loc("/NHNHOME/WORKSPACE/26msit001_A/jinhyeok/TTT_camera_embedding/.venv_llm/lib/python3.12/site-packages/fla/modules/layernorm.py":240:50)
#loc5 = loc("/NHNHOME/WORKSPACE/26msit001_A/jinhyeok/TTT_camera_embedding/.venv_llm/lib/python3.12/site-packages/fla/modules/layernorm.py":239:45)
#loc6 = loc("/NHNHOME/WORKSPACE/26msit001_A/jinhyeok/TTT_camera_embedding/.venv_llm/lib/python3.12/site-packages/fla/modules/layernorm.py":222:16)
#loc7 = loc("/NHNHOME/WORKSPACE/26msit001_A/jinhyeok/TTT_camera_embedding/.venv_llm/lib/python3.12/site-packages/fla/modules/layernorm.py":217:24)
#loc8 = loc("/NHNHOME/WORKSPACE/26msit001_A/jinhyeok/TTT_camera_embedding/.venv_llm/lib/python3.12/site-packages/fla/modules/layernorm.py":221:23)
#loc9 = loc("/NHNHOME/WORKSPACE/26msit001_A/jinhyeok/TTT_camera_embedding/.venv_llm/lib/python3.12/site-packages/fla/modules/layernorm.py":224:54)
#loc10 = loc("/NHNHOME/WORKSPACE/26msit001_A/jinhyeok/TTT_camera_embedding/.venv_llm/lib/python3.12/site-packages/fla/modules/layernorm.py":224:72)
#loc11 = loc("/NHNHOME/WORKSPACE/26msit001_A/jinhyeok/TTT_camera_embedding/.venv_llm/lib/python3.12/site-packages/fla/modules/layernorm.py":225:18)
#loc12 = loc("/NHNHOME/WORKSPACE/26msit001_A/jinhyeok/TTT_camera_embedding/.venv_llm/lib/python3.12/site-packages/fla/modules/layernorm.py":225:49)
#loc13 = loc("/NHNHOME/WORKSPACE/26msit001_A/jinhyeok/TTT_camera_embedding/.venv_llm/lib/python3.12/site-packages/fla/modules/layernorm.py":239:30)
#loc14 = loc("/NHNHOME/WORKSPACE/26msit001_A/jinhyeok/TTT_camera_embedding/.venv_llm/lib/python3.12/site-packages/fla/modules/layernorm.py":240:32)
#loc15 = loc("/NHNHOME/WORKSPACE/26msit001_A/jinhyeok/TTT_camera_embedding/.venv_llm/lib/python3.12/site-packages/triton/language/standard.py":291:36)
#loc17 = loc("/NHNHOME/WORKSPACE/26msit001_A/jinhyeok/TTT_camera_embedding/.venv_llm/lib/python3.12/site-packages/triton/language/standard.py":261:15)
#loc18 = loc("/NHNHOME/WORKSPACE/26msit001_A/jinhyeok/TTT_camera_embedding/.venv_llm/lib/python3.12/site-packages/fla/modules/layernorm.py":241:33)
#loc19 = loc("/NHNHOME/WORKSPACE/26msit001_A/jinhyeok/TTT_camera_embedding/.venv_llm/lib/python3.12/site-packages/fla/modules/layernorm.py":241:25)
#loc20 = loc("/NHNHOME/WORKSPACE/26msit001_A/jinhyeok/TTT_camera_embedding/.venv_llm/lib/python3.12/site-packages/fla/modules/layernorm.py":247:49)
#loc21 = loc("/NHNHOME/WORKSPACE/26msit001_A/jinhyeok/TTT_camera_embedding/.venv_llm/lib/python3.12/site-packages/fla/modules/layernorm.py":247:45)
#loc22 = loc("/NHNHOME/WORKSPACE/26msit001_A/jinhyeok/TTT_camera_embedding/.venv_llm/lib/python3.12/site-packages/fla/modules/layernorm.py":247:22)
#loc23 = loc("/NHNHOME/WORKSPACE/26msit001_A/jinhyeok/TTT_camera_embedding/.venv_llm/lib/python3.12/site-packages/fla/modules/layernorm.py":250:93)
#loc24 = loc("/NHNHOME/WORKSPACE/26msit001_A/jinhyeok/TTT_camera_embedding/.venv_llm/lib/python3.12/site-packages/fla/modules/layernorm.py":250:86)
#loc25 = loc("/NHNHOME/WORKSPACE/26msit001_A/jinhyeok/TTT_camera_embedding/.venv_llm/lib/python3.12/site-packages/fla/modules/layernorm.py":251:20)
#loc26 = loc("/NHNHOME/WORKSPACE/26msit001_A/jinhyeok/TTT_camera_embedding/.venv_llm/lib/python3.12/site-packages/fla/modules/layernorm.py":257:25)
#loc27 = loc("/NHNHOME/WORKSPACE/26msit001_A/jinhyeok/TTT_camera_embedding/.venv_llm/lib/python3.12/site-packages/fla/modules/layernorm.py":257:18)
#loc28 = loc("/NHNHOME/WORKSPACE/26msit001_A/jinhyeok/TTT_camera_embedding/.venv_llm/lib/python3.12/site-packages/fla/modules/layernorm.py":257:4)
#loc35 = loc("b_rstd"(#loc3))
#loc36 = loc("b_var"(#loc4))
#loc37 = loc("b_xbar"(#loc5))
#loc38 = loc("m_d"(#loc6))
#loc39 = loc("i_t"(#loc7))
#loc40 = loc("o_d"(#loc8))
#loc41 = loc("p_x"(#loc9))
#loc42 = loc("p_x"(#loc10))
#loc43 = loc("b_x"(#loc11))
#loc44 = loc("b_x"(#loc12))
#loc45 = loc("b_xbar"(#loc13))
#loc46 = loc("b_var"(#loc14))
#loc48 = loc("b_rstd"(#loc18))
#loc49 = loc("b_rstd"(#loc19))
#loc50 = loc("b_w"(#loc20))
#loc51 = loc("b_w"(#loc21))
#loc52 = loc("b_w"(#loc22))
#loc53 = loc("b_x_hat"(#loc23))
#loc54 = loc("b_x_hat"(#loc24))
#loc55 = loc("b_y"(#loc25))
#loc56 = loc(callsite(#loc15 at #loc47))
#loc58 = loc(callsite(#loc17 at #loc56))
