#loc = loc("/NHNHOME/WORKSPACE/26msit001_A/jinhyeok/loop_TTT/lact/.cache_inductor_llm/u2/cu2djg5mdze573ds4zdio2s23odwdahfenunkudxmm6c564bbagv.py":18:0)
#loc43 = loc("in_ptr0"(#loc))
#loc44 = loc("in_ptr1"(#loc))
#loc45 = loc("in_ptr2"(#loc))
#loc46 = loc("in_ptr3"(#loc))
#loc47 = loc("out_ptr0"(#loc))
#loc48 = loc("xnumel"(#loc))
module {
  tt.func public @triton_poi_fused_copy_slice_zeros_like_58(%in_ptr0: !tt.ptr<bf16> {tt.divisibility = 16 : i32} loc("in_ptr0"(#loc)), %in_ptr1: !tt.ptr<bf16> {tt.divisibility = 16 : i32} loc("in_ptr1"(#loc)), %in_ptr2: !tt.ptr<bf16> {tt.divisibility = 16 : i32} loc("in_ptr2"(#loc)), %in_ptr3: !tt.ptr<bf16> {tt.divisibility = 16 : i32} loc("in_ptr3"(#loc)), %out_ptr0: !tt.ptr<bf16> {tt.divisibility = 16 : i32} loc("out_ptr0"(#loc)), %xnumel: i32 {tt.divisibility = 16 : i32} loc("xnumel"(#loc))) attributes {noinline = false} {
    %cst = arith.constant dense<0.000000e+00> : tensor<1024xbf16> loc(#loc1)
    %tmp13 = arith.constant dense<-1024> : tensor<1024xi32> loc(#loc49)
    %cst_0 = arith.constant dense<1024> : tensor<1024xi64> loc(#loc1)
    %tmp8 = arith.constant dense<-2048> : tensor<1024xi32> loc(#loc50)
    %cst_1 = arith.constant dense<2048> : tensor<1024xi64> loc(#loc1)
    %cst_2 = arith.constant dense<0.000000e+00> : tensor<1024xf32> loc(#loc1)
    %cst_3 = arith.constant dense<1024> : tensor<1024xi32> loc(#loc1)
    %tmp3 = arith.constant dense<-3072> : tensor<1024xi32> loc(#loc51)
    %cst_4 = arith.constant dense<3072> : tensor<1024xi64> loc(#loc1)
    %cst_5 = arith.constant dense<4096> : tensor<1024xi32> loc(#loc1)
    %c1024_i32 = arith.constant 1024 : i32 loc(#loc1)
    %xoffset = tt.get_program_id x : i32 loc(#loc52)
    %xoffset_6 = arith.muli %xoffset, %c1024_i32 : i32 loc(#loc53)
    %xindex = tt.make_range {end = 1024 : i32, start = 0 : i32} : tensor<1024xi32> loc(#loc54)
    %xindex_7 = tt.splat %xoffset_6 : i32 -> tensor<1024xi32> loc(#loc55)
    %xindex_8 = arith.addi %xindex_7, %xindex : tensor<1024xi32> loc(#loc55)
    %x0 = arith.remsi %xindex_8, %cst_5 : tensor<1024xi32> loc(#loc56)
    %x1 = arith.divsi %xindex_8, %cst_5 : tensor<1024xi32> loc(#loc57)
    %tmp2 = arith.extsi %x0 : tensor<1024xi32> to tensor<1024xi64> loc(#loc58)
    %tmp2_9 = arith.cmpi sge, %tmp2, %cst_4 : tensor<1024xi64> loc(#loc58)
    %tmp3_10 = arith.addi %x0, %tmp3 : tensor<1024xi32> loc(#loc51)
    %tmp3_11 = arith.muli %x1, %cst_3 : tensor<1024xi32> loc(#loc59)
    %tmp3_12 = arith.addi %tmp3_10, %tmp3_11 : tensor<1024xi32> loc(#loc60)
    %tmp3_13 = tt.splat %in_ptr0 : !tt.ptr<bf16> -> tensor<1024x!tt.ptr<bf16>> loc(#loc61)
    %tmp3_14 = tt.addptr %tmp3_13, %tmp3_12 : tensor<1024x!tt.ptr<bf16>>, tensor<1024xi32> loc(#loc61)
    %tmp3_15 = tt.load %tmp3_14, %tmp2_9, %cst : tensor<1024x!tt.ptr<bf16>> loc(#loc62)
    %tmp3_16 = arith.extf %tmp3_15 : tensor<1024xbf16> to tensor<1024xf32> loc(#loc63)
    %tmp5 = arith.cmpi sge, %tmp2, %cst_1 : tensor<1024xi64> loc(#loc64)
    %tmp6 = arith.cmpi slt, %tmp2, %cst_4 : tensor<1024xi64> loc(#loc65)
    %tmp7 = arith.andi %tmp5, %tmp6 : tensor<1024xi1> loc(#loc66)
    %tmp8_17 = arith.addi %x0, %tmp8 : tensor<1024xi32> loc(#loc50)
    %tmp8_18 = arith.addi %tmp8_17, %tmp3_11 : tensor<1024xi32> loc(#loc67)
    %tmp8_19 = tt.splat %in_ptr1 : !tt.ptr<bf16> -> tensor<1024x!tt.ptr<bf16>> loc(#loc68)
    %tmp8_20 = tt.addptr %tmp8_19, %tmp8_18 : tensor<1024x!tt.ptr<bf16>>, tensor<1024xi32> loc(#loc68)
    %tmp8_21 = tt.load %tmp8_20, %tmp7, %cst : tensor<1024x!tt.ptr<bf16>> loc(#loc69)
    %tmp8_22 = arith.extf %tmp8_21 : tensor<1024xbf16> to tensor<1024xf32> loc(#loc70)
    %tmp10 = arith.cmpi sge, %tmp2, %cst_0 : tensor<1024xi64> loc(#loc71)
    %tmp11 = arith.cmpi slt, %tmp2, %cst_1 : tensor<1024xi64> loc(#loc72)
    %tmp12 = arith.andi %tmp10, %tmp11 : tensor<1024xi1> loc(#loc73)
    %tmp13_23 = arith.addi %x0, %tmp13 : tensor<1024xi32> loc(#loc49)
    %tmp13_24 = arith.addi %tmp13_23, %tmp3_11 : tensor<1024xi32> loc(#loc74)
    %tmp13_25 = tt.splat %in_ptr2 : !tt.ptr<bf16> -> tensor<1024x!tt.ptr<bf16>> loc(#loc75)
    %tmp13_26 = tt.addptr %tmp13_25, %tmp13_24 : tensor<1024x!tt.ptr<bf16>>, tensor<1024xi32> loc(#loc75)
    %tmp13_27 = tt.load %tmp13_26, %tmp12, %cst : tensor<1024x!tt.ptr<bf16>> loc(#loc76)
    %tmp13_28 = arith.extf %tmp13_27 : tensor<1024xbf16> to tensor<1024xf32> loc(#loc77)
    %tmp14 = arith.cmpi slt, %tmp2, %cst_0 : tensor<1024xi64> loc(#loc78)
    %tmp15 = arith.addi %x0, %tmp3_11 : tensor<1024xi32> loc(#loc79)
    %tmp15_29 = tt.splat %in_ptr3 : !tt.ptr<bf16> -> tensor<1024x!tt.ptr<bf16>> loc(#loc80)
    %tmp15_30 = tt.addptr %tmp15_29, %tmp15 : tensor<1024x!tt.ptr<bf16>>, tensor<1024xi32> loc(#loc80)
    %tmp15_31 = tt.load %tmp15_30, %tmp14, %cst : tensor<1024x!tt.ptr<bf16>> loc(#loc81)
    %tmp15_32 = arith.extf %tmp15_31 : tensor<1024xbf16> to tensor<1024xf32> loc(#loc82)
    %tmp17 = arith.select %tmp14, %tmp15_32, %cst_2 : tensor<1024xi1>, tensor<1024xf32> loc(#loc83)
    %tmp18 = arith.select %tmp12, %tmp13_28, %tmp17 : tensor<1024xi1>, tensor<1024xf32> loc(#loc84)
    %tmp19 = arith.select %tmp7, %tmp8_22, %tmp18 : tensor<1024xi1>, tensor<1024xf32> loc(#loc85)
    %tmp20 = arith.select %tmp2_9, %tmp3_16, %tmp19 : tensor<1024xi1>, tensor<1024xf32> loc(#loc86)
    %0 = tt.splat %out_ptr0 : !tt.ptr<bf16> -> tensor<1024x!tt.ptr<bf16>> loc(#loc40)
    %1 = tt.addptr %0, %xindex_8 : tensor<1024x!tt.ptr<bf16>>, tensor<1024xi32> loc(#loc40)
    %2 = arith.truncf %tmp20 : tensor<1024xf32> to tensor<1024xbf16> loc(#loc41)
    tt.store %1, %2 : tensor<1024x!tt.ptr<bf16>> loc(#loc41)
    tt.return loc(#loc42)
  } loc(#loc)
} loc(#loc)
#loc1 = loc(unknown)
#loc2 = loc("/NHNHOME/WORKSPACE/26msit001_A/jinhyeok/loop_TTT/lact/.cache_inductor_llm/u2/cu2djg5mdze573ds4zdio2s23odwdahfenunkudxmm6c564bbagv.py":38:41)
#loc3 = loc("/NHNHOME/WORKSPACE/26msit001_A/jinhyeok/loop_TTT/lact/.cache_inductor_llm/u2/cu2djg5mdze573ds4zdio2s23odwdahfenunkudxmm6c564bbagv.py":33:40)
#loc4 = loc("/NHNHOME/WORKSPACE/26msit001_A/jinhyeok/loop_TTT/lact/.cache_inductor_llm/u2/cu2djg5mdze573ds4zdio2s23odwdahfenunkudxmm6c564bbagv.py":28:40)
#loc5 = loc("/NHNHOME/WORKSPACE/26msit001_A/jinhyeok/loop_TTT/lact/.cache_inductor_llm/u2/cu2djg5mdze573ds4zdio2s23odwdahfenunkudxmm6c564bbagv.py":19:28)
#loc6 = loc("/NHNHOME/WORKSPACE/26msit001_A/jinhyeok/loop_TTT/lact/.cache_inductor_llm/u2/cu2djg5mdze573ds4zdio2s23odwdahfenunkudxmm6c564bbagv.py":19:33)
#loc7 = loc("/NHNHOME/WORKSPACE/26msit001_A/jinhyeok/loop_TTT/lact/.cache_inductor_llm/u2/cu2djg5mdze573ds4zdio2s23odwdahfenunkudxmm6c564bbagv.py":20:36)
#loc8 = loc("/NHNHOME/WORKSPACE/26msit001_A/jinhyeok/loop_TTT/lact/.cache_inductor_llm/u2/cu2djg5mdze573ds4zdio2s23odwdahfenunkudxmm6c564bbagv.py":20:23)
#loc9 = loc("/NHNHOME/WORKSPACE/26msit001_A/jinhyeok/loop_TTT/lact/.cache_inductor_llm/u2/cu2djg5mdze573ds4zdio2s23odwdahfenunkudxmm6c564bbagv.py":22:19)
#loc10 = loc("/NHNHOME/WORKSPACE/26msit001_A/jinhyeok/loop_TTT/lact/.cache_inductor_llm/u2/cu2djg5mdze573ds4zdio2s23odwdahfenunkudxmm6c564bbagv.py":23:19)
#loc11 = loc("/NHNHOME/WORKSPACE/26msit001_A/jinhyeok/loop_TTT/lact/.cache_inductor_llm/u2/cu2djg5mdze573ds4zdio2s23odwdahfenunkudxmm6c564bbagv.py":27:19)
#loc12 = loc("/NHNHOME/WORKSPACE/26msit001_A/jinhyeok/loop_TTT/lact/.cache_inductor_llm/u2/cu2djg5mdze573ds4zdio2s23odwdahfenunkudxmm6c564bbagv.py":28:50)
#loc13 = loc("/NHNHOME/WORKSPACE/26msit001_A/jinhyeok/loop_TTT/lact/.cache_inductor_llm/u2/cu2djg5mdze573ds4zdio2s23odwdahfenunkudxmm6c564bbagv.py":28:45)
#loc14 = loc("/NHNHOME/WORKSPACE/26msit001_A/jinhyeok/loop_TTT/lact/.cache_inductor_llm/u2/cu2djg5mdze573ds4zdio2s23odwdahfenunkudxmm6c564bbagv.py":28:30)
#loc15 = loc("/NHNHOME/WORKSPACE/26msit001_A/jinhyeok/loop_TTT/lact/.cache_inductor_llm/u2/cu2djg5mdze573ds4zdio2s23odwdahfenunkudxmm6c564bbagv.py":28:55)
#loc16 = loc("/NHNHOME/WORKSPACE/26msit001_A/jinhyeok/loop_TTT/lact/.cache_inductor_llm/u2/cu2djg5mdze573ds4zdio2s23odwdahfenunkudxmm6c564bbagv.py":28:75)
#loc17 = loc("/NHNHOME/WORKSPACE/26msit001_A/jinhyeok/loop_TTT/lact/.cache_inductor_llm/u2/cu2djg5mdze573ds4zdio2s23odwdahfenunkudxmm6c564bbagv.py":30:19)
#loc18 = loc("/NHNHOME/WORKSPACE/26msit001_A/jinhyeok/loop_TTT/lact/.cache_inductor_llm/u2/cu2djg5mdze573ds4zdio2s23odwdahfenunkudxmm6c564bbagv.py":31:18)
#loc19 = loc("/NHNHOME/WORKSPACE/26msit001_A/jinhyeok/loop_TTT/lact/.cache_inductor_llm/u2/cu2djg5mdze573ds4zdio2s23odwdahfenunkudxmm6c564bbagv.py":32:18)
#loc20 = loc("/NHNHOME/WORKSPACE/26msit001_A/jinhyeok/loop_TTT/lact/.cache_inductor_llm/u2/cu2djg5mdze573ds4zdio2s23odwdahfenunkudxmm6c564bbagv.py":33:45)
#loc21 = loc("/NHNHOME/WORKSPACE/26msit001_A/jinhyeok/loop_TTT/lact/.cache_inductor_llm/u2/cu2djg5mdze573ds4zdio2s23odwdahfenunkudxmm6c564bbagv.py":33:30)
#loc22 = loc("/NHNHOME/WORKSPACE/26msit001_A/jinhyeok/loop_TTT/lact/.cache_inductor_llm/u2/cu2djg5mdze573ds4zdio2s23odwdahfenunkudxmm6c564bbagv.py":33:55)
#loc23 = loc("/NHNHOME/WORKSPACE/26msit001_A/jinhyeok/loop_TTT/lact/.cache_inductor_llm/u2/cu2djg5mdze573ds4zdio2s23odwdahfenunkudxmm6c564bbagv.py":33:75)
#loc24 = loc("/NHNHOME/WORKSPACE/26msit001_A/jinhyeok/loop_TTT/lact/.cache_inductor_llm/u2/cu2djg5mdze573ds4zdio2s23odwdahfenunkudxmm6c564bbagv.py":35:20)
#loc25 = loc("/NHNHOME/WORKSPACE/26msit001_A/jinhyeok/loop_TTT/lact/.cache_inductor_llm/u2/cu2djg5mdze573ds4zdio2s23odwdahfenunkudxmm6c564bbagv.py":36:19)
#loc26 = loc("/NHNHOME/WORKSPACE/26msit001_A/jinhyeok/loop_TTT/lact/.cache_inductor_llm/u2/cu2djg5mdze573ds4zdio2s23odwdahfenunkudxmm6c564bbagv.py":37:20)
#loc27 = loc("/NHNHOME/WORKSPACE/26msit001_A/jinhyeok/loop_TTT/lact/.cache_inductor_llm/u2/cu2djg5mdze573ds4zdio2s23odwdahfenunkudxmm6c564bbagv.py":38:46)
#loc28 = loc("/NHNHOME/WORKSPACE/26msit001_A/jinhyeok/loop_TTT/lact/.cache_inductor_llm/u2/cu2djg5mdze573ds4zdio2s23odwdahfenunkudxmm6c564bbagv.py":38:31)
#loc29 = loc("/NHNHOME/WORKSPACE/26msit001_A/jinhyeok/loop_TTT/lact/.cache_inductor_llm/u2/cu2djg5mdze573ds4zdio2s23odwdahfenunkudxmm6c564bbagv.py":38:56)
#loc30 = loc("/NHNHOME/WORKSPACE/26msit001_A/jinhyeok/loop_TTT/lact/.cache_inductor_llm/u2/cu2djg5mdze573ds4zdio2s23odwdahfenunkudxmm6c564bbagv.py":38:77)
#loc31 = loc("/NHNHOME/WORKSPACE/26msit001_A/jinhyeok/loop_TTT/lact/.cache_inductor_llm/u2/cu2djg5mdze573ds4zdio2s23odwdahfenunkudxmm6c564bbagv.py":39:19)
#loc32 = loc("/NHNHOME/WORKSPACE/26msit001_A/jinhyeok/loop_TTT/lact/.cache_inductor_llm/u2/cu2djg5mdze573ds4zdio2s23odwdahfenunkudxmm6c564bbagv.py":40:36)
#loc33 = loc("/NHNHOME/WORKSPACE/26msit001_A/jinhyeok/loop_TTT/lact/.cache_inductor_llm/u2/cu2djg5mdze573ds4zdio2s23odwdahfenunkudxmm6c564bbagv.py":40:31)
#loc34 = loc("/NHNHOME/WORKSPACE/26msit001_A/jinhyeok/loop_TTT/lact/.cache_inductor_llm/u2/cu2djg5mdze573ds4zdio2s23odwdahfenunkudxmm6c564bbagv.py":40:46)
#loc35 = loc("/NHNHOME/WORKSPACE/26msit001_A/jinhyeok/loop_TTT/lact/.cache_inductor_llm/u2/cu2djg5mdze573ds4zdio2s23odwdahfenunkudxmm6c564bbagv.py":40:67)
#loc36 = loc("/NHNHOME/WORKSPACE/26msit001_A/jinhyeok/loop_TTT/lact/.cache_inductor_llm/u2/cu2djg5mdze573ds4zdio2s23odwdahfenunkudxmm6c564bbagv.py":42:35)
#loc37 = loc("/NHNHOME/WORKSPACE/26msit001_A/jinhyeok/loop_TTT/lact/.cache_inductor_llm/u2/cu2djg5mdze573ds4zdio2s23odwdahfenunkudxmm6c564bbagv.py":43:35)
#loc38 = loc("/NHNHOME/WORKSPACE/26msit001_A/jinhyeok/loop_TTT/lact/.cache_inductor_llm/u2/cu2djg5mdze573ds4zdio2s23odwdahfenunkudxmm6c564bbagv.py":44:33)
#loc39 = loc("/NHNHOME/WORKSPACE/26msit001_A/jinhyeok/loop_TTT/lact/.cache_inductor_llm/u2/cu2djg5mdze573ds4zdio2s23odwdahfenunkudxmm6c564bbagv.py":45:33)
#loc40 = loc("/NHNHOME/WORKSPACE/26msit001_A/jinhyeok/loop_TTT/lact/.cache_inductor_llm/u2/cu2djg5mdze573ds4zdio2s23odwdahfenunkudxmm6c564bbagv.py":46:25)
#loc41 = loc("/NHNHOME/WORKSPACE/26msit001_A/jinhyeok/loop_TTT/lact/.cache_inductor_llm/u2/cu2djg5mdze573ds4zdio2s23odwdahfenunkudxmm6c564bbagv.py":46:37)
#loc42 = loc("/NHNHOME/WORKSPACE/26msit001_A/jinhyeok/loop_TTT/lact/.cache_inductor_llm/u2/cu2djg5mdze573ds4zdio2s23odwdahfenunkudxmm6c564bbagv.py":46:4)
#loc49 = loc("tmp13"(#loc2))
#loc50 = loc("tmp8"(#loc3))
#loc51 = loc("tmp3"(#loc4))
#loc52 = loc("xoffset"(#loc5))
#loc53 = loc("xoffset"(#loc6))
#loc54 = loc("xindex"(#loc7))
#loc55 = loc("xindex"(#loc8))
#loc56 = loc("x0"(#loc9))
#loc57 = loc("x1"(#loc10))
#loc58 = loc("tmp2"(#loc11))
#loc59 = loc("tmp3"(#loc12))
#loc60 = loc("tmp3"(#loc13))
#loc61 = loc("tmp3"(#loc14))
#loc62 = loc("tmp3"(#loc15))
#loc63 = loc("tmp3"(#loc16))
#loc64 = loc("tmp5"(#loc17))
#loc65 = loc("tmp6"(#loc18))
#loc66 = loc("tmp7"(#loc19))
#loc67 = loc("tmp8"(#loc20))
#loc68 = loc("tmp8"(#loc21))
#loc69 = loc("tmp8"(#loc22))
#loc70 = loc("tmp8"(#loc23))
#loc71 = loc("tmp10"(#loc24))
#loc72 = loc("tmp11"(#loc25))
#loc73 = loc("tmp12"(#loc26))
#loc74 = loc("tmp13"(#loc27))
#loc75 = loc("tmp13"(#loc28))
#loc76 = loc("tmp13"(#loc29))
#loc77 = loc("tmp13"(#loc30))
#loc78 = loc("tmp14"(#loc31))
#loc79 = loc("tmp15"(#loc32))
#loc80 = loc("tmp15"(#loc33))
#loc81 = loc("tmp15"(#loc34))
#loc82 = loc("tmp15"(#loc35))
#loc83 = loc("tmp17"(#loc36))
#loc84 = loc("tmp18"(#loc37))
#loc85 = loc("tmp19"(#loc38))
#loc86 = loc("tmp20"(#loc39))
