#loc = loc("/NHNHOME/WORKSPACE/26msit001_A/jinhyeok/loop_TTT/lact/.cache_inductor_llm/id/cidms26uzyrp6nexxjbaaqeazj3z2vw6opr6wx45l33avok5zfdg.py":18:0)
#loc102 = loc("/NHNHOME/WORKSPACE/26msit001_A/jinhyeok/TTT_camera_embedding/.venv_llm/lib/python3.12/site-packages/triton/language/standard.py":285:0)
#loc104 = loc(unknown)
#loc107 = loc("/NHNHOME/WORKSPACE/26msit001_A/jinhyeok/TTT_camera_embedding/.venv_llm/lib/python3.12/site-packages/triton/language/standard.py":260:0)
#loc111 = loc("in_ptr0"(#loc))
#loc112 = loc("in_ptr1"(#loc))
#loc113 = loc("in_ptr2"(#loc))
#loc114 = loc("in_ptr3"(#loc))
#loc115 = loc("in_ptr4"(#loc))
#loc116 = loc("in_ptr5"(#loc))
#loc117 = loc("out_ptr0"(#loc))
#loc118 = loc("xnumel"(#loc))
#loc119 = loc("r0_numel"(#loc))
#loc217 = loc("input"(#loc102))
#loc218 = loc("a"(#loc107))
#loc219 = loc("b"(#loc107))
module {
  tt.func public @triton_red_fused__to_copy_add_div_mul_neg_sum_transpose_23(%in_ptr0: !tt.ptr<bf16> {tt.divisibility = 16 : i32} loc("in_ptr0"(#loc)), %in_ptr1: !tt.ptr<f32> {tt.divisibility = 16 : i32} loc("in_ptr1"(#loc)), %in_ptr2: !tt.ptr<bf16> {tt.divisibility = 16 : i32} loc("in_ptr2"(#loc)), %in_ptr3: !tt.ptr<bf16> {tt.divisibility = 16 : i32} loc("in_ptr3"(#loc)), %in_ptr4: !tt.ptr<f32> {tt.divisibility = 16 : i32} loc("in_ptr4"(#loc)), %in_ptr5: !tt.ptr<f32> {tt.divisibility = 16 : i32} loc("in_ptr5"(#loc)), %out_ptr0: !tt.ptr<f32> {tt.divisibility = 16 : i32} loc("out_ptr0"(#loc)), %xnumel: i32 {tt.divisibility = 16 : i32} loc("xnumel"(#loc)), %r0_numel: i32 loc("r0_numel"(#loc))) attributes {noinline = false} {
    %xnumel_0 = arith.constant 480 : i32 loc(#loc120)
    %r0_numel_1 = arith.constant 7373 : i32 loc(#loc121)
    %xoffset = tt.get_program_id x : i32 loc(#loc122)
    %xoffset_2 = arith.constant 1 : i32 loc(#loc123)
    %xoffset_3 = arith.constant 1 : i32 loc(#loc123)
    %xoffset_4 = arith.muli %xoffset, %xoffset_3 : i32 loc(#loc123)
    %xindex = tt.make_range {end = 1 : i32, start = 0 : i32} : tensor<1xi32> loc(#loc124)
    %xindex_5 = tt.expand_dims %xindex {axis = 1 : i32} : tensor<1xi32> -> tensor<1x1xi32> loc(#loc125)
    %xindex_6 = tt.splat %xoffset_4 : i32 -> tensor<1x1xi32> loc(#loc126)
    %xindex_7 = arith.addi %xindex_6, %xindex_5 : tensor<1x1xi32> loc(#loc126)
    %xmask = arith.constant dense<480> : tensor<1x1xi32> loc(#loc127)
    %xmask_8 = arith.cmpi slt, %xindex_7, %xmask : tensor<1x1xi32> loc(#loc127)
    %r0_base = tt.make_range {end = 1024 : i32, start = 0 : i32} : tensor<1024xi32> loc(#loc128)
    %r0_base_9 = tt.expand_dims %r0_base {axis = 0 : i32} : tensor<1024xi32> -> tensor<1x1024xi32> loc(#loc129)
    %x0 = arith.constant 5 : i32 loc(#loc130)
    %x0_10 = arith.constant 5 : i32 loc(#loc130)
    %x0_11 = arith.constant dense<5> : tensor<1x1xi32> loc(#loc130)
    %x0_12 = arith.remsi %xindex_7, %x0_11 : tensor<1x1xi32> loc(#loc130)
    %x1 = arith.constant 5 : i32 loc(#loc131)
    %x1_13 = arith.constant 5 : i32 loc(#loc131)
    %x1_14 = arith.constant dense<5> : tensor<1x1xi32> loc(#loc131)
    %x1_15 = arith.divsi %xindex_7, %x1_14 : tensor<1x1xi32> loc(#loc131)
    %_tmp28 = arith.constant 0.000000e+00 : f32 loc(#loc132)
    %_tmp28_16 = arith.constant dense<0.000000e+00> : tensor<1x1024xf32> loc(#loc132)
    %c0_i32 = arith.constant 0 : i32 loc(#loc14)
    %c1024_i32 = arith.constant 1024 : i32 loc(#loc14)
    %0 = arith.bitcast %c0_i32 : i32 to i32 loc(#loc14)
    %1 = arith.bitcast %r0_numel_1 : i32 to i32 loc(#loc14)
    %2 = arith.bitcast %c1024_i32 : i32 to i32 loc(#loc14)
    %3 = ub.poison : i32 loc(#loc14)
    %_tmp28_17 = scf.for %r0_offset = %0 to %1 step %2 iter_args(%_tmp28_19 = %_tmp28_16) -> (tensor<1x1024xf32>)  : i32 {
      %r0_index = tt.splat %r0_offset : i32 -> tensor<1x1024xi32> loc(#loc134)
      %r0_index_20 = arith.addi %r0_index, %r0_base_9 : tensor<1x1024xi32> loc(#loc134)
      %r0_mask = arith.constant dense<7373> : tensor<1x1024xi32> loc(#loc135)
      %r0_mask_21 = arith.cmpi slt, %r0_index_20, %r0_mask : tensor<1x1024xi32> loc(#loc135)
      %tmp0 = arith.constant 7373 : i32 loc(#loc136)
      %tmp0_22 = arith.constant 7373 : i32 loc(#loc136)
      %tmp0_23 = arith.constant dense<7373> : tensor<1x1xi32> loc(#loc136)
      %tmp0_24 = arith.muli %tmp0_23, %x0_12 : tensor<1x1xi32> loc(#loc136)
      %tmp0_25 = tt.broadcast %tmp0_24 : tensor<1x1xi32> -> tensor<1x1024xi32> loc(#loc137)
      %tmp0_26 = arith.addi %r0_index_20, %tmp0_25 : tensor<1x1024xi32> loc(#loc137)
      %tmp1 = arith.constant 36864 : i32 loc(#loc138)
      %tmp1_27 = arith.constant dense<36864> : tensor<1x1xi32> loc(#loc138)
      %tmp2 = arith.constant dense<36864> : tensor<1x1024xi32> loc(#loc139)
      %tmp2_28 = arith.cmpi slt, %tmp0_26, %tmp2 : tensor<1x1024xi32> loc(#loc139)
      %tmp3 = arith.constant 36864 : i32 loc(#loc140)
      %tmp3_29 = arith.constant 36864 : i32 loc(#loc140)
      %tmp3_30 = arith.constant dense<36864> : tensor<1x1xi32> loc(#loc140)
      %tmp3_31 = arith.muli %tmp3_30, %x1_15 : tensor<1x1xi32> loc(#loc140)
      %tmp3_32 = arith.constant 7373 : i32 loc(#loc141)
      %tmp3_33 = arith.constant 7373 : i32 loc(#loc141)
      %tmp3_34 = arith.constant dense<7373> : tensor<1x1xi32> loc(#loc141)
      %tmp3_35 = arith.muli %tmp3_34, %x0_12 : tensor<1x1xi32> loc(#loc141)
      %tmp3_36 = tt.broadcast %tmp3_35 : tensor<1x1xi32> -> tensor<1x1024xi32> loc(#loc142)
      %tmp3_37 = arith.addi %r0_index_20, %tmp3_36 : tensor<1x1024xi32> loc(#loc142)
      %tmp3_38 = arith.constant 36864 : i32 loc(#loc143)
      %tmp3_39 = arith.constant 36864 : i32 loc(#loc143)
      %tmp3_40 = arith.constant dense<36864> : tensor<1x1024xi32> loc(#loc143)
      %tmp3_41 = arith.remsi %tmp3_37, %tmp3_40 : tensor<1x1024xi32> loc(#loc143)
      %tmp3_42 = tt.broadcast %tmp3_31 : tensor<1x1xi32> -> tensor<1x1024xi32> loc(#loc144)
      %tmp3_43 = arith.addi %tmp3_42, %tmp3_41 : tensor<1x1024xi32> loc(#loc144)
      %tmp3_44 = tt.splat %in_ptr0 : !tt.ptr<bf16> -> tensor<1x1024x!tt.ptr<bf16>> loc(#loc145)
      %tmp3_45 = tt.addptr %tmp3_44, %tmp3_43 : tensor<1x1024x!tt.ptr<bf16>>, tensor<1x1024xi32> loc(#loc145)
      %tmp3_46 = arith.andi %r0_mask_21, %tmp2_28 : tensor<1x1024xi1> loc(#loc146)
      %tmp3_47 = tt.broadcast %xmask_8 : tensor<1x1xi1> -> tensor<1x1024xi1> loc(#loc147)
      %tmp3_48 = arith.andi %tmp3_46, %tmp3_47 : tensor<1x1024xi1> loc(#loc147)
      %tmp3_49 = arith.constant 0.000000e+00 : f32 loc(#loc148)
      %tmp3_50 = arith.constant dense<0.000000e+00> : tensor<1x1024xf32> loc(#loc148)
      %tmp3_51 = arith.truncf %tmp3_50 : tensor<1x1024xf32> to tensor<1x1024xbf16> loc(#loc148)
      %tmp3_52 = tt.load %tmp3_45, %tmp3_48, %tmp3_51 evictionPolicy = evict_last : tensor<1x1024x!tt.ptr<bf16>> loc(#loc148)
      %tmp3_53 = arith.extf %tmp3_52 : tensor<1x1024xbf16> to tensor<1x1024xf32> loc(#loc149)
      %tmp5 = arith.constant 36864 : i32 loc(#loc150)
      %tmp5_54 = arith.constant 36864 : i32 loc(#loc150)
      %tmp5_55 = arith.constant dense<36864> : tensor<1x1xi32> loc(#loc150)
      %tmp5_56 = arith.muli %tmp5_55, %x1_15 : tensor<1x1xi32> loc(#loc150)
      %tmp5_57 = arith.constant 7373 : i32 loc(#loc151)
      %tmp5_58 = arith.constant 7373 : i32 loc(#loc151)
      %tmp5_59 = arith.constant dense<7373> : tensor<1x1xi32> loc(#loc151)
      %tmp5_60 = arith.muli %tmp5_59, %x0_12 : tensor<1x1xi32> loc(#loc151)
      %tmp5_61 = tt.broadcast %tmp5_60 : tensor<1x1xi32> -> tensor<1x1024xi32> loc(#loc152)
      %tmp5_62 = arith.addi %r0_index_20, %tmp5_61 : tensor<1x1024xi32> loc(#loc152)
      %tmp5_63 = arith.constant 36864 : i32 loc(#loc153)
      %tmp5_64 = arith.constant 36864 : i32 loc(#loc153)
      %tmp5_65 = arith.constant dense<36864> : tensor<1x1024xi32> loc(#loc153)
      %tmp5_66 = arith.remsi %tmp5_62, %tmp5_65 : tensor<1x1024xi32> loc(#loc153)
      %tmp5_67 = tt.broadcast %tmp5_56 : tensor<1x1xi32> -> tensor<1x1024xi32> loc(#loc154)
      %tmp5_68 = arith.addi %tmp5_67, %tmp5_66 : tensor<1x1024xi32> loc(#loc154)
      %tmp5_69 = tt.splat %in_ptr1 : !tt.ptr<f32> -> tensor<1x1024x!tt.ptr<f32>> loc(#loc155)
      %tmp5_70 = tt.addptr %tmp5_69, %tmp5_68 : tensor<1x1024x!tt.ptr<f32>>, tensor<1x1024xi32> loc(#loc155)
      %tmp5_71 = arith.andi %r0_mask_21, %tmp2_28 : tensor<1x1024xi1> loc(#loc156)
      %tmp5_72 = tt.broadcast %xmask_8 : tensor<1x1xi1> -> tensor<1x1024xi1> loc(#loc157)
      %tmp5_73 = arith.andi %tmp5_71, %tmp5_72 : tensor<1x1024xi1> loc(#loc157)
      %tmp5_74 = arith.constant 0.000000e+00 : f32 loc(#loc158)
      %tmp5_75 = arith.constant dense<0.000000e+00> : tensor<1x1024xf32> loc(#loc158)
      %tmp5_76 = tt.load %tmp5_70, %tmp5_73, %tmp5_75 evictionPolicy = evict_last : tensor<1x1024x!tt.ptr<f32>> loc(#loc158)
      %tmp6 = arith.constant 4.084800e+00 : f32 loc(#loc159)
      %tmp7 = arith.constant dense<4.084800e+00> : tensor<1x1024xf32> loc(#loc160)
      %tmp7_77 = arith.mulf %tmp5_76, %tmp7 : tensor<1x1024xf32> loc(#loc160)
      %tmp8 = arith.addf %tmp3_53, %tmp7_77 : tensor<1x1024xf32> loc(#loc161)
      %tmp9 = arith.constant 36864 : i32 loc(#loc162)
      %tmp9_78 = arith.constant 36864 : i32 loc(#loc162)
      %tmp9_79 = arith.constant dense<36864> : tensor<1x1xi32> loc(#loc162)
      %tmp9_80 = arith.muli %tmp9_79, %x1_15 : tensor<1x1xi32> loc(#loc162)
      %tmp9_81 = arith.constant 7373 : i32 loc(#loc163)
      %tmp9_82 = arith.constant 7373 : i32 loc(#loc163)
      %tmp9_83 = arith.constant dense<7373> : tensor<1x1xi32> loc(#loc163)
      %tmp9_84 = arith.muli %tmp9_83, %x0_12 : tensor<1x1xi32> loc(#loc163)
      %tmp9_85 = tt.broadcast %tmp9_84 : tensor<1x1xi32> -> tensor<1x1024xi32> loc(#loc164)
      %tmp9_86 = arith.addi %r0_index_20, %tmp9_85 : tensor<1x1024xi32> loc(#loc164)
      %tmp9_87 = arith.constant 36864 : i32 loc(#loc165)
      %tmp9_88 = arith.constant 36864 : i32 loc(#loc165)
      %tmp9_89 = arith.constant dense<36864> : tensor<1x1024xi32> loc(#loc165)
      %tmp9_90 = arith.remsi %tmp9_86, %tmp9_89 : tensor<1x1024xi32> loc(#loc165)
      %tmp9_91 = tt.broadcast %tmp9_80 : tensor<1x1xi32> -> tensor<1x1024xi32> loc(#loc166)
      %tmp9_92 = arith.addi %tmp9_91, %tmp9_90 : tensor<1x1024xi32> loc(#loc166)
      %tmp9_93 = tt.splat %in_ptr2 : !tt.ptr<bf16> -> tensor<1x1024x!tt.ptr<bf16>> loc(#loc167)
      %tmp9_94 = tt.addptr %tmp9_93, %tmp9_92 : tensor<1x1024x!tt.ptr<bf16>>, tensor<1x1024xi32> loc(#loc167)
      %tmp9_95 = arith.andi %r0_mask_21, %tmp2_28 : tensor<1x1024xi1> loc(#loc168)
      %tmp9_96 = tt.broadcast %xmask_8 : tensor<1x1xi1> -> tensor<1x1024xi1> loc(#loc169)
      %tmp9_97 = arith.andi %tmp9_95, %tmp9_96 : tensor<1x1024xi1> loc(#loc169)
      %tmp9_98 = arith.constant 0.000000e+00 : f32 loc(#loc170)
      %tmp9_99 = arith.constant dense<0.000000e+00> : tensor<1x1024xf32> loc(#loc170)
      %tmp9_100 = arith.truncf %tmp9_99 : tensor<1x1024xf32> to tensor<1x1024xbf16> loc(#loc170)
      %tmp9_101 = tt.load %tmp9_94, %tmp9_97, %tmp9_100 evictionPolicy = evict_last : tensor<1x1024x!tt.ptr<bf16>> loc(#loc170)
      %tmp9_102 = arith.extf %tmp9_101 : tensor<1x1024xbf16> to tensor<1x1024xf32> loc(#loc171)
      %tmp11 = arith.addf %tmp8, %tmp9_102 : tensor<1x1024xf32> loc(#loc172)
      %tmp12 = arith.constant 7373 : i32 loc(#loc173)
      %tmp12_103 = arith.constant 7373 : i32 loc(#loc173)
      %tmp12_104 = arith.constant dense<7373> : tensor<1x1xi32> loc(#loc173)
      %tmp12_105 = arith.muli %tmp12_104, %x0_12 : tensor<1x1xi32> loc(#loc173)
      %tmp12_106 = tt.broadcast %tmp12_105 : tensor<1x1xi32> -> tensor<1x1024xi32> loc(#loc174)
      %tmp12_107 = arith.addi %r0_index_20, %tmp12_106 : tensor<1x1024xi32> loc(#loc174)
      %tmp12_108 = arith.constant 192 : i32 loc(#loc175)
      %tmp12_109 = arith.constant 192 : i32 loc(#loc175)
      %tmp12_110 = arith.constant dense<192> : tensor<1x1024xi32> loc(#loc175)
      %tmp12_111 = arith.remsi %tmp12_107, %tmp12_110 : tensor<1x1024xi32> loc(#loc175)
      %tmp12_112 = arith.constant 192 : i32 loc(#loc176)
      %tmp12_113 = arith.constant 192 : i32 loc(#loc176)
      %tmp12_114 = arith.constant dense<192> : tensor<1x1024xi32> loc(#loc176)
      %tmp12_115 = arith.muli %tmp12_114, %tmp12_111 : tensor<1x1024xi32> loc(#loc176)
      %tmp12_116 = arith.constant 36864 : i32 loc(#loc177)
      %tmp12_117 = arith.constant 36864 : i32 loc(#loc177)
      %tmp12_118 = arith.constant dense<36864> : tensor<1x1xi32> loc(#loc177)
      %tmp12_119 = arith.muli %tmp12_118, %x1_15 : tensor<1x1xi32> loc(#loc177)
      %tmp12_120 = tt.broadcast %tmp12_119 : tensor<1x1xi32> -> tensor<1x1024xi32> loc(#loc178)
      %tmp12_121 = arith.addi %tmp12_115, %tmp12_120 : tensor<1x1024xi32> loc(#loc178)
      %tmp12_122 = arith.constant 7373 : i32 loc(#loc179)
      %tmp12_123 = arith.constant 7373 : i32 loc(#loc179)
      %tmp12_124 = arith.constant dense<7373> : tensor<1x1xi32> loc(#loc179)
      %tmp12_125 = arith.muli %tmp12_124, %x0_12 : tensor<1x1xi32> loc(#loc179)
      %tmp12_126 = tt.broadcast %tmp12_125 : tensor<1x1xi32> -> tensor<1x1024xi32> loc(#loc180)
      %tmp12_127 = arith.addi %r0_index_20, %tmp12_126 : tensor<1x1024xi32> loc(#loc180)
      %tmp12_128 = arith.constant 192 : i32 loc(#loc181)
      %tmp12_129 = arith.constant 192 : i32 loc(#loc181)
      %tmp12_130 = arith.constant dense<192> : tensor<1x1024xi32> loc(#loc181)
      %tmp12_131 = arith.divsi %tmp12_127, %tmp12_130 : tensor<1x1024xi32> loc(#loc181)
      %tmp12_132 = arith.constant 192 : i32 loc(#loc182)
      %tmp12_133 = arith.constant 192 : i32 loc(#loc182)
      %tmp12_134 = arith.constant dense<192> : tensor<1x1024xi32> loc(#loc182)
      %tmp12_135 = arith.remsi %tmp12_131, %tmp12_134 : tensor<1x1024xi32> loc(#loc182)
      %tmp12_136 = arith.addi %tmp12_121, %tmp12_135 : tensor<1x1024xi32> loc(#loc183)
      %tmp12_137 = tt.splat %in_ptr3 : !tt.ptr<bf16> -> tensor<1x1024x!tt.ptr<bf16>> loc(#loc184)
      %tmp12_138 = tt.addptr %tmp12_137, %tmp12_136 : tensor<1x1024x!tt.ptr<bf16>>, tensor<1x1024xi32> loc(#loc184)
      %tmp12_139 = arith.andi %r0_mask_21, %tmp2_28 : tensor<1x1024xi1> loc(#loc185)
      %tmp12_140 = tt.broadcast %xmask_8 : tensor<1x1xi1> -> tensor<1x1024xi1> loc(#loc186)
      %tmp12_141 = arith.andi %tmp12_139, %tmp12_140 : tensor<1x1024xi1> loc(#loc186)
      %tmp12_142 = arith.constant 0.000000e+00 : f32 loc(#loc187)
      %tmp12_143 = arith.constant dense<0.000000e+00> : tensor<1x1024xf32> loc(#loc187)
      %tmp12_144 = arith.truncf %tmp12_143 : tensor<1x1024xf32> to tensor<1x1024xbf16> loc(#loc187)
      %tmp12_145 = tt.load %tmp12_138, %tmp12_141, %tmp12_144 evictionPolicy = evict_last : tensor<1x1024x!tt.ptr<bf16>> loc(#loc187)
      %tmp12_146 = arith.extf %tmp12_145 : tensor<1x1024xbf16> to tensor<1x1024xf32> loc(#loc188)
      %tmp14 = arith.addf %tmp11, %tmp12_146 : tensor<1x1024xf32> loc(#loc189)
      %tmp15 = arith.constant 0.000000e+00 : f32 loc(#loc190)
      %tmp15_147 = arith.constant dense<0.000000e+00> : tensor<1x1024xf32> loc(#loc190)
      %tmp15_148 = arith.subf %tmp15_147, %tmp14 : tensor<1x1024xf32> loc(#loc190)
      %tmp16 = arith.constant 36864 : i32 loc(#loc191)
      %tmp16_149 = arith.constant 36864 : i32 loc(#loc191)
      %tmp16_150 = arith.constant dense<36864> : tensor<1x1xi32> loc(#loc191)
      %tmp16_151 = arith.muli %tmp16_150, %x1_15 : tensor<1x1xi32> loc(#loc191)
      %tmp16_152 = arith.constant 7373 : i32 loc(#loc192)
      %tmp16_153 = arith.constant 7373 : i32 loc(#loc192)
      %tmp16_154 = arith.constant dense<7373> : tensor<1x1xi32> loc(#loc192)
      %tmp16_155 = arith.muli %tmp16_154, %x0_12 : tensor<1x1xi32> loc(#loc192)
      %tmp16_156 = tt.broadcast %tmp16_155 : tensor<1x1xi32> -> tensor<1x1024xi32> loc(#loc193)
      %tmp16_157 = arith.addi %r0_index_20, %tmp16_156 : tensor<1x1024xi32> loc(#loc193)
      %tmp16_158 = arith.constant 36864 : i32 loc(#loc194)
      %tmp16_159 = arith.constant 36864 : i32 loc(#loc194)
      %tmp16_160 = arith.constant dense<36864> : tensor<1x1024xi32> loc(#loc194)
      %tmp16_161 = arith.remsi %tmp16_157, %tmp16_160 : tensor<1x1024xi32> loc(#loc194)
      %tmp16_162 = tt.broadcast %tmp16_151 : tensor<1x1xi32> -> tensor<1x1024xi32> loc(#loc195)
      %tmp16_163 = arith.addi %tmp16_162, %tmp16_161 : tensor<1x1024xi32> loc(#loc195)
      %tmp16_164 = tt.splat %in_ptr4 : !tt.ptr<f32> -> tensor<1x1024x!tt.ptr<f32>> loc(#loc196)
      %tmp16_165 = tt.addptr %tmp16_164, %tmp16_163 : tensor<1x1024x!tt.ptr<f32>>, tensor<1x1024xi32> loc(#loc196)
      %tmp16_166 = arith.andi %r0_mask_21, %tmp2_28 : tensor<1x1024xi1> loc(#loc197)
      %tmp16_167 = tt.broadcast %xmask_8 : tensor<1x1xi1> -> tensor<1x1024xi1> loc(#loc198)
      %tmp16_168 = arith.andi %tmp16_166, %tmp16_167 : tensor<1x1024xi1> loc(#loc198)
      %tmp16_169 = arith.constant 0.000000e+00 : f32 loc(#loc199)
      %tmp16_170 = arith.constant dense<0.000000e+00> : tensor<1x1024xf32> loc(#loc199)
      %tmp16_171 = tt.load %tmp16_165, %tmp16_168, %tmp16_170 evictionPolicy = evict_last : tensor<1x1024x!tt.ptr<f32>> loc(#loc199)
      %tmp19 = tt.broadcast %x1_15 : tensor<1x1xi32> -> tensor<1x1024xi32> loc(#loc200)
      %tmp19_172 = tt.splat %in_ptr5 : !tt.ptr<f32> -> tensor<1x1024x!tt.ptr<f32>> loc(#loc201)
      %tmp19_173 = tt.addptr %tmp19_172, %tmp19 : tensor<1x1024x!tt.ptr<f32>>, tensor<1x1024xi32> loc(#loc201)
      %tmp19_174 = arith.andi %r0_mask_21, %tmp2_28 : tensor<1x1024xi1> loc(#loc202)
      %tmp19_175 = tt.broadcast %xmask_8 : tensor<1x1xi1> -> tensor<1x1024xi1> loc(#loc203)
      %tmp19_176 = arith.andi %tmp19_174, %tmp19_175 : tensor<1x1024xi1> loc(#loc203)
      %tmp19_177 = arith.constant 0.000000e+00 : f32 loc(#loc204)
      %tmp19_178 = arith.constant dense<0.000000e+00> : tensor<1x1024xf32> loc(#loc204)
      %tmp19_179 = tt.load %tmp19_173, %tmp19_176, %tmp19_178 evictionPolicy = evict_last : tensor<1x1024x!tt.ptr<f32>> loc(#loc204)
      %tmp20 = arith.constant 1.000000e-07 : f32 loc(#loc205)
      %tmp21 = arith.constant dense<1.000000e-07> : tensor<1x1024xf32> loc(#loc206)
      %tmp21_180 = arith.addf %tmp19_179, %tmp21 : tensor<1x1024xf32> loc(#loc206)
      %tmp22 = arith.divf %tmp16_171, %tmp21_180 : tensor<1x1024xf32> loc(#loc207)
      %tmp23 = arith.divf %tmp22, %tmp21_180 : tensor<1x1024xf32> loc(#loc208)
      %tmp24 = arith.mulf %tmp15_148, %tmp23 : tensor<1x1024xf32> loc(#loc209)
      %tmp25 = arith.constant 0.000000e+00 : f32 loc(#loc210)
      %tmp25_181 = arith.constant dense<0.000000e+00> : tensor<1x1024xf32> loc(#loc210)
      %tmp26 = arith.select %tmp2_28, %tmp24, %tmp25_181 : tensor<1x1024xi1>, tensor<1x1024xf32> loc(#loc211)
      %tmp29 = arith.addf %_tmp28_19, %tmp26 : tensor<1x1024xf32> loc(#loc212)
      %_tmp28_182 = tt.broadcast %xmask_8 : tensor<1x1xi1> -> tensor<1x1024xi1> loc(#loc213)
      %_tmp28_183 = arith.andi %r0_mask_21, %_tmp28_182 : tensor<1x1024xi1> loc(#loc213)
      %_tmp28_184 = arith.select %_tmp28_183, %tmp29, %_tmp28_19 : tensor<1x1024xi1>, tensor<1x1024xf32> loc(#loc214)
      scf.yield %_tmp28_184 : tensor<1x1024xf32> loc(#loc96)
    } loc(#loc133)
    %tmp28 = tt.call @"triton.language.standard.sum__fp32S1_1024S__(1,)cconstexpr_1__(2,)cconstexpr_False__(3,)cNone"(%_tmp28_17) : (tensor<1x1024xf32>) -> tensor<1xf32> loc(#loc215)
    %tmp28_18 = tt.expand_dims %tmp28 {axis = 1 : i32} : tensor<1xf32> -> tensor<1x1xf32> loc(#loc216)
    %4 = tt.splat %out_ptr0 : !tt.ptr<f32> -> tensor<1x1x!tt.ptr<f32>> loc(#loc99)
    %5 = tt.addptr %4, %xindex_7 : tensor<1x1x!tt.ptr<f32>>, tensor<1x1xi32> loc(#loc99)
    tt.store %5, %tmp28_18, %xmask_8 : tensor<1x1x!tt.ptr<f32>> loc(#loc100)
    tt.return loc(#loc101)
  } loc(#loc)
  tt.func private @"triton.language.standard.sum__fp32S1_1024S__(1,)cconstexpr_1__(2,)cconstexpr_False__(3,)cNone"(%input: tensor<1x1024xf32> loc("input"(#loc102))) -> tensor<1xf32> attributes {noinline = false} {
    %0 = "tt.reduce"(%input) <{axis = 1 : i32}> ({
    ^bb0(%arg1: f32 loc(unknown), %arg2: f32 loc(unknown)):
      %2 = tt.call @triton.language.standard._sum_combine__fp32_fp32__(%arg1, %arg2) : (f32, f32) -> f32 loc(#loc103)
      tt.reduce.return %2 : f32 loc(#loc103)
    }) : (tensor<1x1024xf32>) -> tensor<1xf32> loc(#loc103)
    tt.return %0 : tensor<1xf32> loc(#loc105)
  ^bb1:  // no predecessors
    %1 = ub.poison : tensor<1xf32> loc(#loc106)
    tt.return %1 : tensor<1xf32> loc(#loc106)
  } loc(#loc102)
  tt.func private @triton.language.standard._sum_combine__fp32_fp32__(%a: f32 loc("a"(#loc107)), %b: f32 loc("b"(#loc107))) -> f32 attributes {noinline = false} {
    %0 = arith.addf %a, %b : f32 loc(#loc108)
    tt.return %0 : f32 loc(#loc109)
  ^bb1:  // no predecessors
    %1 = ub.poison : f32 loc(#loc110)
    tt.return %1 : f32 loc(#loc110)
  } loc(#loc107)
} loc(#loc)
#loc1 = loc("/NHNHOME/WORKSPACE/26msit001_A/jinhyeok/loop_TTT/lact/.cache_inductor_llm/id/cidms26uzyrp6nexxjbaaqeazj3z2vw6opr6wx45l33avok5zfdg.py":19:13)
#loc2 = loc("/NHNHOME/WORKSPACE/26msit001_A/jinhyeok/loop_TTT/lact/.cache_inductor_llm/id/cidms26uzyrp6nexxjbaaqeazj3z2vw6opr6wx45l33avok5zfdg.py":20:15)
#loc3 = loc("/NHNHOME/WORKSPACE/26msit001_A/jinhyeok/loop_TTT/lact/.cache_inductor_llm/id/cidms26uzyrp6nexxjbaaqeazj3z2vw6opr6wx45l33avok5zfdg.py":23:28)
#loc4 = loc("/NHNHOME/WORKSPACE/26msit001_A/jinhyeok/loop_TTT/lact/.cache_inductor_llm/id/cidms26uzyrp6nexxjbaaqeazj3z2vw6opr6wx45l33avok5zfdg.py":23:33)
#loc5 = loc("/NHNHOME/WORKSPACE/26msit001_A/jinhyeok/loop_TTT/lact/.cache_inductor_llm/id/cidms26uzyrp6nexxjbaaqeazj3z2vw6opr6wx45l33avok5zfdg.py":24:36)
#loc6 = loc("/NHNHOME/WORKSPACE/26msit001_A/jinhyeok/loop_TTT/lact/.cache_inductor_llm/id/cidms26uzyrp6nexxjbaaqeazj3z2vw6opr6wx45l33avok5zfdg.py":24:44)
#loc7 = loc("/NHNHOME/WORKSPACE/26msit001_A/jinhyeok/loop_TTT/lact/.cache_inductor_llm/id/cidms26uzyrp6nexxjbaaqeazj3z2vw6opr6wx45l33avok5zfdg.py":24:23)
#loc8 = loc("/NHNHOME/WORKSPACE/26msit001_A/jinhyeok/loop_TTT/lact/.cache_inductor_llm/id/cidms26uzyrp6nexxjbaaqeazj3z2vw6opr6wx45l33avok5zfdg.py":25:21)
#loc9 = loc("/NHNHOME/WORKSPACE/26msit001_A/jinhyeok/loop_TTT/lact/.cache_inductor_llm/id/cidms26uzyrp6nexxjbaaqeazj3z2vw6opr6wx45l33avok5zfdg.py":26:27)
#loc10 = loc("/NHNHOME/WORKSPACE/26msit001_A/jinhyeok/loop_TTT/lact/.cache_inductor_llm/id/cidms26uzyrp6nexxjbaaqeazj3z2vw6opr6wx45l33avok5zfdg.py":26:37)
#loc11 = loc("/NHNHOME/WORKSPACE/26msit001_A/jinhyeok/loop_TTT/lact/.cache_inductor_llm/id/cidms26uzyrp6nexxjbaaqeazj3z2vw6opr6wx45l33avok5zfdg.py":28:19)
#loc12 = loc("/NHNHOME/WORKSPACE/26msit001_A/jinhyeok/loop_TTT/lact/.cache_inductor_llm/id/cidms26uzyrp6nexxjbaaqeazj3z2vw6opr6wx45l33avok5zfdg.py":29:19)
#loc13 = loc("/NHNHOME/WORKSPACE/26msit001_A/jinhyeok/loop_TTT/lact/.cache_inductor_llm/id/cidms26uzyrp6nexxjbaaqeazj3z2vw6opr6wx45l33avok5zfdg.py":30:44)
#loc14 = loc("/NHNHOME/WORKSPACE/26msit001_A/jinhyeok/loop_TTT/lact/.cache_inductor_llm/id/cidms26uzyrp6nexxjbaaqeazj3z2vw6opr6wx45l33avok5zfdg.py":32:40)
#loc15 = loc("/NHNHOME/WORKSPACE/26msit001_A/jinhyeok/loop_TTT/lact/.cache_inductor_llm/id/cidms26uzyrp6nexxjbaaqeazj3z2vw6opr6wx45l33avok5zfdg.py":33:31)
#loc16 = loc("/NHNHOME/WORKSPACE/26msit001_A/jinhyeok/loop_TTT/lact/.cache_inductor_llm/id/cidms26uzyrp6nexxjbaaqeazj3z2vw6opr6wx45l33avok5zfdg.py":34:29)
#loc17 = loc("/NHNHOME/WORKSPACE/26msit001_A/jinhyeok/loop_TTT/lact/.cache_inductor_llm/id/cidms26uzyrp6nexxjbaaqeazj3z2vw6opr6wx45l33avok5zfdg.py":38:27)
#loc18 = loc("/NHNHOME/WORKSPACE/26msit001_A/jinhyeok/loop_TTT/lact/.cache_inductor_llm/id/cidms26uzyrp6nexxjbaaqeazj3z2vw6opr6wx45l33avok5zfdg.py":38:22)
#loc19 = loc("/NHNHOME/WORKSPACE/26msit001_A/jinhyeok/loop_TTT/lact/.cache_inductor_llm/id/cidms26uzyrp6nexxjbaaqeazj3z2vw6opr6wx45l33avok5zfdg.py":39:38)
#loc20 = loc("/NHNHOME/WORKSPACE/26msit001_A/jinhyeok/loop_TTT/lact/.cache_inductor_llm/id/cidms26uzyrp6nexxjbaaqeazj3z2vw6opr6wx45l33avok5zfdg.py":40:22)
#loc21 = loc("/NHNHOME/WORKSPACE/26msit001_A/jinhyeok/loop_TTT/lact/.cache_inductor_llm/id/cidms26uzyrp6nexxjbaaqeazj3z2vw6opr6wx45l33avok5zfdg.py":41:40)
#loc22 = loc("/NHNHOME/WORKSPACE/26msit001_A/jinhyeok/loop_TTT/lact/.cache_inductor_llm/id/cidms26uzyrp6nexxjbaaqeazj3z2vw6opr6wx45l33avok5zfdg.py":41:60)
#loc23 = loc("/NHNHOME/WORKSPACE/26msit001_A/jinhyeok/loop_TTT/lact/.cache_inductor_llm/id/cidms26uzyrp6nexxjbaaqeazj3z2vw6opr6wx45l33avok5zfdg.py":41:55)
#loc24 = loc("/NHNHOME/WORKSPACE/26msit001_A/jinhyeok/loop_TTT/lact/.cache_inductor_llm/id/cidms26uzyrp6nexxjbaaqeazj3z2vw6opr6wx45l33avok5zfdg.py":41:66)
#loc25 = loc("/NHNHOME/WORKSPACE/26msit001_A/jinhyeok/loop_TTT/lact/.cache_inductor_llm/id/cidms26uzyrp6nexxjbaaqeazj3z2vw6opr6wx45l33avok5zfdg.py":41:47)
#loc26 = loc("/NHNHOME/WORKSPACE/26msit001_A/jinhyeok/loop_TTT/lact/.cache_inductor_llm/id/cidms26uzyrp6nexxjbaaqeazj3z2vw6opr6wx45l33avok5zfdg.py":41:34)
#loc27 = loc("/NHNHOME/WORKSPACE/26msit001_A/jinhyeok/loop_TTT/lact/.cache_inductor_llm/id/cidms26uzyrp6nexxjbaaqeazj3z2vw6opr6wx45l33avok5zfdg.py":41:86)
#loc28 = loc("/NHNHOME/WORKSPACE/26msit001_A/jinhyeok/loop_TTT/lact/.cache_inductor_llm/id/cidms26uzyrp6nexxjbaaqeazj3z2vw6opr6wx45l33avok5zfdg.py":41:93)
#loc29 = loc("/NHNHOME/WORKSPACE/26msit001_A/jinhyeok/loop_TTT/lact/.cache_inductor_llm/id/cidms26uzyrp6nexxjbaaqeazj3z2vw6opr6wx45l33avok5zfdg.py":41:76)
#loc30 = loc("/NHNHOME/WORKSPACE/26msit001_A/jinhyeok/loop_TTT/lact/.cache_inductor_llm/id/cidms26uzyrp6nexxjbaaqeazj3z2vw6opr6wx45l33avok5zfdg.py":41:144)
#loc31 = loc("/NHNHOME/WORKSPACE/26msit001_A/jinhyeok/loop_TTT/lact/.cache_inductor_llm/id/cidms26uzyrp6nexxjbaaqeazj3z2vw6opr6wx45l33avok5zfdg.py":43:40)
#loc32 = loc("/NHNHOME/WORKSPACE/26msit001_A/jinhyeok/loop_TTT/lact/.cache_inductor_llm/id/cidms26uzyrp6nexxjbaaqeazj3z2vw6opr6wx45l33avok5zfdg.py":43:60)
#loc33 = loc("/NHNHOME/WORKSPACE/26msit001_A/jinhyeok/loop_TTT/lact/.cache_inductor_llm/id/cidms26uzyrp6nexxjbaaqeazj3z2vw6opr6wx45l33avok5zfdg.py":43:55)
#loc34 = loc("/NHNHOME/WORKSPACE/26msit001_A/jinhyeok/loop_TTT/lact/.cache_inductor_llm/id/cidms26uzyrp6nexxjbaaqeazj3z2vw6opr6wx45l33avok5zfdg.py":43:66)
#loc35 = loc("/NHNHOME/WORKSPACE/26msit001_A/jinhyeok/loop_TTT/lact/.cache_inductor_llm/id/cidms26uzyrp6nexxjbaaqeazj3z2vw6opr6wx45l33avok5zfdg.py":43:47)
#loc36 = loc("/NHNHOME/WORKSPACE/26msit001_A/jinhyeok/loop_TTT/lact/.cache_inductor_llm/id/cidms26uzyrp6nexxjbaaqeazj3z2vw6opr6wx45l33avok5zfdg.py":43:34)
#loc37 = loc("/NHNHOME/WORKSPACE/26msit001_A/jinhyeok/loop_TTT/lact/.cache_inductor_llm/id/cidms26uzyrp6nexxjbaaqeazj3z2vw6opr6wx45l33avok5zfdg.py":43:86)
#loc38 = loc("/NHNHOME/WORKSPACE/26msit001_A/jinhyeok/loop_TTT/lact/.cache_inductor_llm/id/cidms26uzyrp6nexxjbaaqeazj3z2vw6opr6wx45l33avok5zfdg.py":43:93)
#loc39 = loc("/NHNHOME/WORKSPACE/26msit001_A/jinhyeok/loop_TTT/lact/.cache_inductor_llm/id/cidms26uzyrp6nexxjbaaqeazj3z2vw6opr6wx45l33avok5zfdg.py":43:76)
#loc40 = loc("/NHNHOME/WORKSPACE/26msit001_A/jinhyeok/loop_TTT/lact/.cache_inductor_llm/id/cidms26uzyrp6nexxjbaaqeazj3z2vw6opr6wx45l33avok5zfdg.py":44:15)
#loc41 = loc("/NHNHOME/WORKSPACE/26msit001_A/jinhyeok/loop_TTT/lact/.cache_inductor_llm/id/cidms26uzyrp6nexxjbaaqeazj3z2vw6opr6wx45l33avok5zfdg.py":45:22)
#loc42 = loc("/NHNHOME/WORKSPACE/26msit001_A/jinhyeok/loop_TTT/lact/.cache_inductor_llm/id/cidms26uzyrp6nexxjbaaqeazj3z2vw6opr6wx45l33avok5zfdg.py":46:22)
#loc43 = loc("/NHNHOME/WORKSPACE/26msit001_A/jinhyeok/loop_TTT/lact/.cache_inductor_llm/id/cidms26uzyrp6nexxjbaaqeazj3z2vw6opr6wx45l33avok5zfdg.py":47:40)
#loc44 = loc("/NHNHOME/WORKSPACE/26msit001_A/jinhyeok/loop_TTT/lact/.cache_inductor_llm/id/cidms26uzyrp6nexxjbaaqeazj3z2vw6opr6wx45l33avok5zfdg.py":47:60)
#loc45 = loc("/NHNHOME/WORKSPACE/26msit001_A/jinhyeok/loop_TTT/lact/.cache_inductor_llm/id/cidms26uzyrp6nexxjbaaqeazj3z2vw6opr6wx45l33avok5zfdg.py":47:55)
#loc46 = loc("/NHNHOME/WORKSPACE/26msit001_A/jinhyeok/loop_TTT/lact/.cache_inductor_llm/id/cidms26uzyrp6nexxjbaaqeazj3z2vw6opr6wx45l33avok5zfdg.py":47:66)
#loc47 = loc("/NHNHOME/WORKSPACE/26msit001_A/jinhyeok/loop_TTT/lact/.cache_inductor_llm/id/cidms26uzyrp6nexxjbaaqeazj3z2vw6opr6wx45l33avok5zfdg.py":47:47)
#loc48 = loc("/NHNHOME/WORKSPACE/26msit001_A/jinhyeok/loop_TTT/lact/.cache_inductor_llm/id/cidms26uzyrp6nexxjbaaqeazj3z2vw6opr6wx45l33avok5zfdg.py":47:34)
#loc49 = loc("/NHNHOME/WORKSPACE/26msit001_A/jinhyeok/loop_TTT/lact/.cache_inductor_llm/id/cidms26uzyrp6nexxjbaaqeazj3z2vw6opr6wx45l33avok5zfdg.py":47:86)
#loc50 = loc("/NHNHOME/WORKSPACE/26msit001_A/jinhyeok/loop_TTT/lact/.cache_inductor_llm/id/cidms26uzyrp6nexxjbaaqeazj3z2vw6opr6wx45l33avok5zfdg.py":47:93)
#loc51 = loc("/NHNHOME/WORKSPACE/26msit001_A/jinhyeok/loop_TTT/lact/.cache_inductor_llm/id/cidms26uzyrp6nexxjbaaqeazj3z2vw6opr6wx45l33avok5zfdg.py":47:76)
#loc52 = loc("/NHNHOME/WORKSPACE/26msit001_A/jinhyeok/loop_TTT/lact/.cache_inductor_llm/id/cidms26uzyrp6nexxjbaaqeazj3z2vw6opr6wx45l33avok5zfdg.py":47:144)
#loc53 = loc("/NHNHOME/WORKSPACE/26msit001_A/jinhyeok/loop_TTT/lact/.cache_inductor_llm/id/cidms26uzyrp6nexxjbaaqeazj3z2vw6opr6wx45l33avok5zfdg.py":49:23)
#loc54 = loc("/NHNHOME/WORKSPACE/26msit001_A/jinhyeok/loop_TTT/lact/.cache_inductor_llm/id/cidms26uzyrp6nexxjbaaqeazj3z2vw6opr6wx45l33avok5zfdg.py":50:54)
#loc55 = loc("/NHNHOME/WORKSPACE/26msit001_A/jinhyeok/loop_TTT/lact/.cache_inductor_llm/id/cidms26uzyrp6nexxjbaaqeazj3z2vw6opr6wx45l33avok5zfdg.py":50:49)
#loc56 = loc("/NHNHOME/WORKSPACE/26msit001_A/jinhyeok/loop_TTT/lact/.cache_inductor_llm/id/cidms26uzyrp6nexxjbaaqeazj3z2vw6opr6wx45l33avok5zfdg.py":50:60)
#loc57 = loc("/NHNHOME/WORKSPACE/26msit001_A/jinhyeok/loop_TTT/lact/.cache_inductor_llm/id/cidms26uzyrp6nexxjbaaqeazj3z2vw6opr6wx45l33avok5zfdg.py":50:41)
#loc58 = loc("/NHNHOME/WORKSPACE/26msit001_A/jinhyeok/loop_TTT/lact/.cache_inductor_llm/id/cidms26uzyrp6nexxjbaaqeazj3z2vw6opr6wx45l33avok5zfdg.py":50:74)
#loc59 = loc("/NHNHOME/WORKSPACE/26msit001_A/jinhyeok/loop_TTT/lact/.cache_inductor_llm/id/cidms26uzyrp6nexxjbaaqeazj3z2vw6opr6wx45l33avok5zfdg.py":50:68)
#loc60 = loc("/NHNHOME/WORKSPACE/26msit001_A/jinhyeok/loop_TTT/lact/.cache_inductor_llm/id/cidms26uzyrp6nexxjbaaqeazj3z2vw6opr6wx45l33avok5zfdg.py":50:95)
#loc61 = loc("/NHNHOME/WORKSPACE/26msit001_A/jinhyeok/loop_TTT/lact/.cache_inductor_llm/id/cidms26uzyrp6nexxjbaaqeazj3z2vw6opr6wx45l33avok5zfdg.py":50:90)
#loc62 = loc("/NHNHOME/WORKSPACE/26msit001_A/jinhyeok/loop_TTT/lact/.cache_inductor_llm/id/cidms26uzyrp6nexxjbaaqeazj3z2vw6opr6wx45l33avok5zfdg.py":50:102)
#loc63 = loc("/NHNHOME/WORKSPACE/26msit001_A/jinhyeok/loop_TTT/lact/.cache_inductor_llm/id/cidms26uzyrp6nexxjbaaqeazj3z2vw6opr6wx45l33avok5zfdg.py":50:109)
#loc64 = loc("/NHNHOME/WORKSPACE/26msit001_A/jinhyeok/loop_TTT/lact/.cache_inductor_llm/id/cidms26uzyrp6nexxjbaaqeazj3z2vw6opr6wx45l33avok5zfdg.py":50:81)
#loc65 = loc("/NHNHOME/WORKSPACE/26msit001_A/jinhyeok/loop_TTT/lact/.cache_inductor_llm/id/cidms26uzyrp6nexxjbaaqeazj3z2vw6opr6wx45l33avok5zfdg.py":50:35)
#loc66 = loc("/NHNHOME/WORKSPACE/26msit001_A/jinhyeok/loop_TTT/lact/.cache_inductor_llm/id/cidms26uzyrp6nexxjbaaqeazj3z2vw6opr6wx45l33avok5zfdg.py":50:127)
#loc67 = loc("/NHNHOME/WORKSPACE/26msit001_A/jinhyeok/loop_TTT/lact/.cache_inductor_llm/id/cidms26uzyrp6nexxjbaaqeazj3z2vw6opr6wx45l33avok5zfdg.py":50:134)
#loc68 = loc("/NHNHOME/WORKSPACE/26msit001_A/jinhyeok/loop_TTT/lact/.cache_inductor_llm/id/cidms26uzyrp6nexxjbaaqeazj3z2vw6opr6wx45l33avok5zfdg.py":50:117)
#loc69 = loc("/NHNHOME/WORKSPACE/26msit001_A/jinhyeok/loop_TTT/lact/.cache_inductor_llm/id/cidms26uzyrp6nexxjbaaqeazj3z2vw6opr6wx45l33avok5zfdg.py":50:185)
#loc70 = loc("/NHNHOME/WORKSPACE/26msit001_A/jinhyeok/loop_TTT/lact/.cache_inductor_llm/id/cidms26uzyrp6nexxjbaaqeazj3z2vw6opr6wx45l33avok5zfdg.py":52:24)
#loc71 = loc("/NHNHOME/WORKSPACE/26msit001_A/jinhyeok/loop_TTT/lact/.cache_inductor_llm/id/cidms26uzyrp6nexxjbaaqeazj3z2vw6opr6wx45l33avok5zfdg.py":53:17)
#loc72 = loc("/NHNHOME/WORKSPACE/26msit001_A/jinhyeok/loop_TTT/lact/.cache_inductor_llm/id/cidms26uzyrp6nexxjbaaqeazj3z2vw6opr6wx45l33avok5zfdg.py":54:41)
#loc73 = loc("/NHNHOME/WORKSPACE/26msit001_A/jinhyeok/loop_TTT/lact/.cache_inductor_llm/id/cidms26uzyrp6nexxjbaaqeazj3z2vw6opr6wx45l33avok5zfdg.py":54:61)
#loc74 = loc("/NHNHOME/WORKSPACE/26msit001_A/jinhyeok/loop_TTT/lact/.cache_inductor_llm/id/cidms26uzyrp6nexxjbaaqeazj3z2vw6opr6wx45l33avok5zfdg.py":54:56)
#loc75 = loc("/NHNHOME/WORKSPACE/26msit001_A/jinhyeok/loop_TTT/lact/.cache_inductor_llm/id/cidms26uzyrp6nexxjbaaqeazj3z2vw6opr6wx45l33avok5zfdg.py":54:67)
#loc76 = loc("/NHNHOME/WORKSPACE/26msit001_A/jinhyeok/loop_TTT/lact/.cache_inductor_llm/id/cidms26uzyrp6nexxjbaaqeazj3z2vw6opr6wx45l33avok5zfdg.py":54:48)
#loc77 = loc("/NHNHOME/WORKSPACE/26msit001_A/jinhyeok/loop_TTT/lact/.cache_inductor_llm/id/cidms26uzyrp6nexxjbaaqeazj3z2vw6opr6wx45l33avok5zfdg.py":54:35)
#loc78 = loc("/NHNHOME/WORKSPACE/26msit001_A/jinhyeok/loop_TTT/lact/.cache_inductor_llm/id/cidms26uzyrp6nexxjbaaqeazj3z2vw6opr6wx45l33avok5zfdg.py":54:87)
#loc79 = loc("/NHNHOME/WORKSPACE/26msit001_A/jinhyeok/loop_TTT/lact/.cache_inductor_llm/id/cidms26uzyrp6nexxjbaaqeazj3z2vw6opr6wx45l33avok5zfdg.py":54:94)
#loc80 = loc("/NHNHOME/WORKSPACE/26msit001_A/jinhyeok/loop_TTT/lact/.cache_inductor_llm/id/cidms26uzyrp6nexxjbaaqeazj3z2vw6opr6wx45l33avok5zfdg.py":54:77)
#loc81 = loc("/NHNHOME/WORKSPACE/26msit001_A/jinhyeok/loop_TTT/lact/.cache_inductor_llm/id/cidms26uzyrp6nexxjbaaqeazj3z2vw6opr6wx45l33avok5zfdg.py":57:55)
#loc82 = loc("/NHNHOME/WORKSPACE/26msit001_A/jinhyeok/loop_TTT/lact/.cache_inductor_llm/id/cidms26uzyrp6nexxjbaaqeazj3z2vw6opr6wx45l33avok5zfdg.py":57:35)
#loc83 = loc("/NHNHOME/WORKSPACE/26msit001_A/jinhyeok/loop_TTT/lact/.cache_inductor_llm/id/cidms26uzyrp6nexxjbaaqeazj3z2vw6opr6wx45l33avok5zfdg.py":57:87)
#loc84 = loc("/NHNHOME/WORKSPACE/26msit001_A/jinhyeok/loop_TTT/lact/.cache_inductor_llm/id/cidms26uzyrp6nexxjbaaqeazj3z2vw6opr6wx45l33avok5zfdg.py":57:94)
#loc85 = loc("/NHNHOME/WORKSPACE/26msit001_A/jinhyeok/loop_TTT/lact/.cache_inductor_llm/id/cidms26uzyrp6nexxjbaaqeazj3z2vw6opr6wx45l33avok5zfdg.py":57:77)
#loc86 = loc("/NHNHOME/WORKSPACE/26msit001_A/jinhyeok/loop_TTT/lact/.cache_inductor_llm/id/cidms26uzyrp6nexxjbaaqeazj3z2vw6opr6wx45l33avok5zfdg.py":58:16)
#loc87 = loc("/NHNHOME/WORKSPACE/26msit001_A/jinhyeok/loop_TTT/lact/.cache_inductor_llm/id/cidms26uzyrp6nexxjbaaqeazj3z2vw6opr6wx45l33avok5zfdg.py":59:24)
#loc88 = loc("/NHNHOME/WORKSPACE/26msit001_A/jinhyeok/loop_TTT/lact/.cache_inductor_llm/id/cidms26uzyrp6nexxjbaaqeazj3z2vw6opr6wx45l33avok5zfdg.py":60:25)
#loc89 = loc("/NHNHOME/WORKSPACE/26msit001_A/jinhyeok/loop_TTT/lact/.cache_inductor_llm/id/cidms26uzyrp6nexxjbaaqeazj3z2vw6opr6wx45l33avok5zfdg.py":61:25)
#loc90 = loc("/NHNHOME/WORKSPACE/26msit001_A/jinhyeok/loop_TTT/lact/.cache_inductor_llm/id/cidms26uzyrp6nexxjbaaqeazj3z2vw6opr6wx45l33avok5zfdg.py":62:24)
#loc91 = loc("/NHNHOME/WORKSPACE/26msit001_A/jinhyeok/loop_TTT/lact/.cache_inductor_llm/id/cidms26uzyrp6nexxjbaaqeazj3z2vw6opr6wx45l33avok5zfdg.py":63:40)
#loc92 = loc("/NHNHOME/WORKSPACE/26msit001_A/jinhyeok/loop_TTT/lact/.cache_inductor_llm/id/cidms26uzyrp6nexxjbaaqeazj3z2vw6opr6wx45l33avok5zfdg.py":64:38)
#loc93 = loc("/NHNHOME/WORKSPACE/26msit001_A/jinhyeok/loop_TTT/lact/.cache_inductor_llm/id/cidms26uzyrp6nexxjbaaqeazj3z2vw6opr6wx45l33avok5zfdg.py":66:25)
#loc94 = loc("/NHNHOME/WORKSPACE/26msit001_A/jinhyeok/loop_TTT/lact/.cache_inductor_llm/id/cidms26uzyrp6nexxjbaaqeazj3z2vw6opr6wx45l33avok5zfdg.py":67:36)
#loc95 = loc("/NHNHOME/WORKSPACE/26msit001_A/jinhyeok/loop_TTT/lact/.cache_inductor_llm/id/cidms26uzyrp6nexxjbaaqeazj3z2vw6opr6wx45l33avok5zfdg.py":67:50)
#loc96 = loc("/NHNHOME/WORKSPACE/26msit001_A/jinhyeok/loop_TTT/lact/.cache_inductor_llm/id/cidms26uzyrp6nexxjbaaqeazj3z2vw6opr6wx45l33avok5zfdg.py":67:8)
#loc97 = loc("/NHNHOME/WORKSPACE/26msit001_A/jinhyeok/loop_TTT/lact/.cache_inductor_llm/id/cidms26uzyrp6nexxjbaaqeazj3z2vw6opr6wx45l33avok5zfdg.py":68:27)
#loc98 = loc("/NHNHOME/WORKSPACE/26msit001_A/jinhyeok/loop_TTT/lact/.cache_inductor_llm/id/cidms26uzyrp6nexxjbaaqeazj3z2vw6opr6wx45l33avok5zfdg.py":68:30)
#loc99 = loc("/NHNHOME/WORKSPACE/26msit001_A/jinhyeok/loop_TTT/lact/.cache_inductor_llm/id/cidms26uzyrp6nexxjbaaqeazj3z2vw6opr6wx45l33avok5zfdg.py":69:25)
#loc100 = loc("/NHNHOME/WORKSPACE/26msit001_A/jinhyeok/loop_TTT/lact/.cache_inductor_llm/id/cidms26uzyrp6nexxjbaaqeazj3z2vw6opr6wx45l33avok5zfdg.py":69:37)
#loc101 = loc("/NHNHOME/WORKSPACE/26msit001_A/jinhyeok/loop_TTT/lact/.cache_inductor_llm/id/cidms26uzyrp6nexxjbaaqeazj3z2vw6opr6wx45l33avok5zfdg.py":69:4)
#loc103 = loc("/NHNHOME/WORKSPACE/26msit001_A/jinhyeok/TTT_camera_embedding/.venv_llm/lib/python3.12/site-packages/triton/language/standard.py":291:36)
#loc105 = loc("/NHNHOME/WORKSPACE/26msit001_A/jinhyeok/TTT_camera_embedding/.venv_llm/lib/python3.12/site-packages/triton/language/standard.py":291:11)
#loc106 = loc("/NHNHOME/WORKSPACE/26msit001_A/jinhyeok/TTT_camera_embedding/.venv_llm/lib/python3.12/site-packages/triton/language/standard.py":291:4)
#loc108 = loc("/NHNHOME/WORKSPACE/26msit001_A/jinhyeok/TTT_camera_embedding/.venv_llm/lib/python3.12/site-packages/triton/language/standard.py":261:15)
#loc109 = loc("/NHNHOME/WORKSPACE/26msit001_A/jinhyeok/TTT_camera_embedding/.venv_llm/lib/python3.12/site-packages/triton/language/standard.py":261:11)
#loc110 = loc("/NHNHOME/WORKSPACE/26msit001_A/jinhyeok/TTT_camera_embedding/.venv_llm/lib/python3.12/site-packages/triton/language/standard.py":261:4)
#loc120 = loc("xnumel"(#loc1))
#loc121 = loc("r0_numel"(#loc2))
#loc122 = loc("xoffset"(#loc3))
#loc123 = loc("xoffset"(#loc4))
#loc124 = loc("xindex"(#loc5))
#loc125 = loc("xindex"(#loc6))
#loc126 = loc("xindex"(#loc7))
#loc127 = loc("xmask"(#loc8))
#loc128 = loc("r0_base"(#loc9))
#loc129 = loc("r0_base"(#loc10))
#loc130 = loc("x0"(#loc11))
#loc131 = loc("x1"(#loc12))
#loc132 = loc("_tmp28"(#loc13))
#loc133 = loc("_tmp28"(#loc14))
#loc134 = loc("r0_index"(#loc15))
#loc135 = loc("r0_mask"(#loc16))
#loc136 = loc("tmp0"(#loc17))
#loc137 = loc("tmp0"(#loc18))
#loc138 = loc("tmp1"(#loc19))
#loc139 = loc("tmp2"(#loc20))
#loc140 = loc("tmp3"(#loc21))
#loc141 = loc("tmp3"(#loc22))
#loc142 = loc("tmp3"(#loc23))
#loc143 = loc("tmp3"(#loc24))
#loc144 = loc("tmp3"(#loc25))
#loc145 = loc("tmp3"(#loc26))
#loc146 = loc("tmp3"(#loc27))
#loc147 = loc("tmp3"(#loc28))
#loc148 = loc("tmp3"(#loc29))
#loc149 = loc("tmp3"(#loc30))
#loc150 = loc("tmp5"(#loc31))
#loc151 = loc("tmp5"(#loc32))
#loc152 = loc("tmp5"(#loc33))
#loc153 = loc("tmp5"(#loc34))
#loc154 = loc("tmp5"(#loc35))
#loc155 = loc("tmp5"(#loc36))
#loc156 = loc("tmp5"(#loc37))
#loc157 = loc("tmp5"(#loc38))
#loc158 = loc("tmp5"(#loc39))
#loc159 = loc("tmp6"(#loc40))
#loc160 = loc("tmp7"(#loc41))
#loc161 = loc("tmp8"(#loc42))
#loc162 = loc("tmp9"(#loc43))
#loc163 = loc("tmp9"(#loc44))
#loc164 = loc("tmp9"(#loc45))
#loc165 = loc("tmp9"(#loc46))
#loc166 = loc("tmp9"(#loc47))
#loc167 = loc("tmp9"(#loc48))
#loc168 = loc("tmp9"(#loc49))
#loc169 = loc("tmp9"(#loc50))
#loc170 = loc("tmp9"(#loc51))
#loc171 = loc("tmp9"(#loc52))
#loc172 = loc("tmp11"(#loc53))
#loc173 = loc("tmp12"(#loc54))
#loc174 = loc("tmp12"(#loc55))
#loc175 = loc("tmp12"(#loc56))
#loc176 = loc("tmp12"(#loc57))
#loc177 = loc("tmp12"(#loc58))
#loc178 = loc("tmp12"(#loc59))
#loc179 = loc("tmp12"(#loc60))
#loc180 = loc("tmp12"(#loc61))
#loc181 = loc("tmp12"(#loc62))
#loc182 = loc("tmp12"(#loc63))
#loc183 = loc("tmp12"(#loc64))
#loc184 = loc("tmp12"(#loc65))
#loc185 = loc("tmp12"(#loc66))
#loc186 = loc("tmp12"(#loc67))
#loc187 = loc("tmp12"(#loc68))
#loc188 = loc("tmp12"(#loc69))
#loc189 = loc("tmp14"(#loc70))
#loc190 = loc("tmp15"(#loc71))
#loc191 = loc("tmp16"(#loc72))
#loc192 = loc("tmp16"(#loc73))
#loc193 = loc("tmp16"(#loc74))
#loc194 = loc("tmp16"(#loc75))
#loc195 = loc("tmp16"(#loc76))
#loc196 = loc("tmp16"(#loc77))
#loc197 = loc("tmp16"(#loc78))
#loc198 = loc("tmp16"(#loc79))
#loc199 = loc("tmp16"(#loc80))
#loc200 = loc("tmp19"(#loc81))
#loc201 = loc("tmp19"(#loc82))
#loc202 = loc("tmp19"(#loc83))
#loc203 = loc("tmp19"(#loc84))
#loc204 = loc("tmp19"(#loc85))
#loc205 = loc("tmp20"(#loc86))
#loc206 = loc("tmp21"(#loc87))
#loc207 = loc("tmp22"(#loc88))
#loc208 = loc("tmp23"(#loc89))
#loc209 = loc("tmp24"(#loc90))
#loc210 = loc("tmp25"(#loc91))
#loc211 = loc("tmp26"(#loc92))
#loc212 = loc("tmp29"(#loc93))
#loc213 = loc("_tmp28"(#loc94))
#loc214 = loc("_tmp28"(#loc95))
#loc215 = loc("tmp28"(#loc97))
#loc216 = loc("tmp28"(#loc98))
