#loc = loc("/NHNHOME/WORKSPACE/26msit001_A/jinhyeok/loop_TTT/lact/.cache_inductor_llm/ke/ckeizmaycujj2vdfmaawmb4whqqwgq67j7d2f32xr7wk2gudukwr.py":18:0)
#loc26 = loc("in_ptr0"(#loc))
#loc27 = loc("out_ptr0"(#loc))
#loc28 = loc("xnumel"(#loc))
module {
  tt.func public @triton_poi_fused_clone_copy_slice_transpose_zeros_like_29(%in_ptr0: !tt.ptr<bf16> {tt.divisibility = 16 : i32} loc("in_ptr0"(#loc)), %out_ptr0: !tt.ptr<bf16> {tt.divisibility = 16 : i32} loc("out_ptr0"(#loc)), %xnumel: i32 {tt.divisibility = 16 : i32} loc("xnumel"(#loc))) attributes {noinline = false} {
    %cst = arith.constant dense<0.000000e+00> : tensor<512xf32> loc(#loc1)
    %cst_0 = arith.constant dense<3072> : tensor<512xi64> loc(#loc1)
    %tmp2 = arith.constant dense<2048> : tensor<512xi64> loc(#loc29)
    %tmp13 = arith.constant dense<786432> : tensor<512xi32> loc(#loc30)
    %cst_1 = arith.constant dense<196608> : tensor<512xi32> loc(#loc1)
    %cst_2 = arith.constant dense<1024> : tensor<512xi32> loc(#loc1)
    %x1 = arith.constant dense<192> : tensor<512xi32> loc(#loc31)
    %c512_i32 = arith.constant 512 : i32 loc(#loc1)
    %xoffset = tt.get_program_id x : i32 loc(#loc32)
    %xoffset_3 = arith.muli %xoffset, %c512_i32 : i32 loc(#loc33)
    %xindex = tt.make_range {end = 512 : i32, start = 0 : i32} : tensor<512xi32> loc(#loc34)
    %xindex_4 = tt.splat %xoffset_3 : i32 -> tensor<512xi32> loc(#loc35)
    %xindex_5 = arith.addi %xindex_4, %xindex : tensor<512xi32> loc(#loc35)
    %x1_6 = arith.divsi %xindex_5, %x1 : tensor<512xi32> loc(#loc31)
    %x1_7 = arith.remsi %x1_6, %cst_2 : tensor<512xi32> loc(#loc36)
    %x2 = arith.divsi %xindex_5, %cst_1 : tensor<512xi32> loc(#loc37)
    %x3 = arith.remsi %xindex_5, %cst_1 : tensor<512xi32> loc(#loc38)
    %tmp13_8 = arith.addi %x3, %cst_1 : tensor<512xi32> loc(#loc39)
    %tmp13_9 = arith.muli %x2, %tmp13 : tensor<512xi32> loc(#loc30)
    %tmp13_10 = arith.addi %tmp13_8, %tmp13_9 : tensor<512xi32> loc(#loc40)
    %tmp13_11 = tt.splat %in_ptr0 : !tt.ptr<bf16> -> tensor<512x!tt.ptr<bf16>> loc(#loc41)
    %tmp13_12 = tt.addptr %tmp13_11, %tmp13_10 : tensor<512x!tt.ptr<bf16>>, tensor<512xi32> loc(#loc41)
    %tmp13_13 = tt.load %tmp13_12 : tensor<512x!tt.ptr<bf16>> loc(#loc42)
    %tmp13_14 = arith.extf %tmp13_13 : tensor<512xbf16> to tensor<512xf32> loc(#loc43)
    %tmp0 = arith.addi %x1_7, %cst_2 : tensor<512xi32> loc(#loc44)
    %tmp2_15 = arith.extsi %tmp0 : tensor<512xi32> to tensor<512xi64> loc(#loc29)
    %tmp2_16 = arith.cmpi sge, %tmp2_15, %tmp2 : tensor<512xi64> loc(#loc29)
    %tmp4 = arith.cmpi slt, %tmp2_15, %cst_0 : tensor<512xi64> loc(#loc45)
    %tmp5 = arith.andi %tmp2_16, %tmp4 : tensor<512xi1> loc(#loc46)
    %tmp9 = arith.cmpi sge, %tmp2_15, %cst_0 : tensor<512xi64> loc(#loc47)
    %tmp14 = arith.select %tmp9, %cst, %tmp13_14 : tensor<512xi1>, tensor<512xf32> loc(#loc48)
    %tmp15 = arith.select %tmp5, %cst, %tmp14 : tensor<512xi1>, tensor<512xf32> loc(#loc49)
    %0 = tt.splat %out_ptr0 : !tt.ptr<bf16> -> tensor<512x!tt.ptr<bf16>> loc(#loc23)
    %1 = tt.addptr %0, %xindex_5 : tensor<512x!tt.ptr<bf16>>, tensor<512xi32> loc(#loc23)
    %2 = arith.truncf %tmp15 : tensor<512xf32> to tensor<512xbf16> loc(#loc24)
    tt.store %1, %2 : tensor<512x!tt.ptr<bf16>> loc(#loc24)
    tt.return loc(#loc25)
  } loc(#loc)
} loc(#loc)
#loc1 = loc(unknown)
#loc2 = loc("/NHNHOME/WORKSPACE/26msit001_A/jinhyeok/loop_TTT/lact/.cache_inductor_llm/ke/ckeizmaycujj2vdfmaawmb4whqqwgq67j7d2f32xr7wk2gudukwr.py":30:19)
#loc3 = loc("/NHNHOME/WORKSPACE/26msit001_A/jinhyeok/loop_TTT/lact/.cache_inductor_llm/ke/ckeizmaycujj2vdfmaawmb4whqqwgq67j7d2f32xr7wk2gudukwr.py":27:52)
#loc4 = loc("/NHNHOME/WORKSPACE/26msit001_A/jinhyeok/loop_TTT/lact/.cache_inductor_llm/ke/ckeizmaycujj2vdfmaawmb4whqqwgq67j7d2f32xr7wk2gudukwr.py":23:21)
#loc5 = loc("/NHNHOME/WORKSPACE/26msit001_A/jinhyeok/loop_TTT/lact/.cache_inductor_llm/ke/ckeizmaycujj2vdfmaawmb4whqqwgq67j7d2f32xr7wk2gudukwr.py":20:28)
#loc6 = loc("/NHNHOME/WORKSPACE/26msit001_A/jinhyeok/loop_TTT/lact/.cache_inductor_llm/ke/ckeizmaycujj2vdfmaawmb4whqqwgq67j7d2f32xr7wk2gudukwr.py":20:33)
#loc7 = loc("/NHNHOME/WORKSPACE/26msit001_A/jinhyeok/loop_TTT/lact/.cache_inductor_llm/ke/ckeizmaycujj2vdfmaawmb4whqqwgq67j7d2f32xr7wk2gudukwr.py":21:36)
#loc8 = loc("/NHNHOME/WORKSPACE/26msit001_A/jinhyeok/loop_TTT/lact/.cache_inductor_llm/ke/ckeizmaycujj2vdfmaawmb4whqqwgq67j7d2f32xr7wk2gudukwr.py":21:23)
#loc9 = loc("/NHNHOME/WORKSPACE/26msit001_A/jinhyeok/loop_TTT/lact/.cache_inductor_llm/ke/ckeizmaycujj2vdfmaawmb4whqqwgq67j7d2f32xr7wk2gudukwr.py":23:28)
#loc10 = loc("/NHNHOME/WORKSPACE/26msit001_A/jinhyeok/loop_TTT/lact/.cache_inductor_llm/ke/ckeizmaycujj2vdfmaawmb4whqqwgq67j7d2f32xr7wk2gudukwr.py":24:19)
#loc11 = loc("/NHNHOME/WORKSPACE/26msit001_A/jinhyeok/loop_TTT/lact/.cache_inductor_llm/ke/ckeizmaycujj2vdfmaawmb4whqqwgq67j7d2f32xr7wk2gudukwr.py":25:19)
#loc12 = loc("/NHNHOME/WORKSPACE/26msit001_A/jinhyeok/loop_TTT/lact/.cache_inductor_llm/ke/ckeizmaycujj2vdfmaawmb4whqqwgq67j7d2f32xr7wk2gudukwr.py":27:40)
#loc13 = loc("/NHNHOME/WORKSPACE/26msit001_A/jinhyeok/loop_TTT/lact/.cache_inductor_llm/ke/ckeizmaycujj2vdfmaawmb4whqqwgq67j7d2f32xr7wk2gudukwr.py":27:45)
#loc14 = loc("/NHNHOME/WORKSPACE/26msit001_A/jinhyeok/loop_TTT/lact/.cache_inductor_llm/ke/ckeizmaycujj2vdfmaawmb4whqqwgq67j7d2f32xr7wk2gudukwr.py":27:31)
#loc15 = loc("/NHNHOME/WORKSPACE/26msit001_A/jinhyeok/loop_TTT/lact/.cache_inductor_llm/ke/ckeizmaycujj2vdfmaawmb4whqqwgq67j7d2f32xr7wk2gudukwr.py":27:57)
#loc16 = loc("/NHNHOME/WORKSPACE/26msit001_A/jinhyeok/loop_TTT/lact/.cache_inductor_llm/ke/ckeizmaycujj2vdfmaawmb4whqqwgq67j7d2f32xr7wk2gudukwr.py":27:66)
#loc17 = loc("/NHNHOME/WORKSPACE/26msit001_A/jinhyeok/loop_TTT/lact/.cache_inductor_llm/ke/ckeizmaycujj2vdfmaawmb4whqqwgq67j7d2f32xr7wk2gudukwr.py":28:18)
#loc18 = loc("/NHNHOME/WORKSPACE/26msit001_A/jinhyeok/loop_TTT/lact/.cache_inductor_llm/ke/ckeizmaycujj2vdfmaawmb4whqqwgq67j7d2f32xr7wk2gudukwr.py":32:18)
#loc19 = loc("/NHNHOME/WORKSPACE/26msit001_A/jinhyeok/loop_TTT/lact/.cache_inductor_llm/ke/ckeizmaycujj2vdfmaawmb4whqqwgq67j7d2f32xr7wk2gudukwr.py":33:18)
#loc20 = loc("/NHNHOME/WORKSPACE/26msit001_A/jinhyeok/loop_TTT/lact/.cache_inductor_llm/ke/ckeizmaycujj2vdfmaawmb4whqqwgq67j7d2f32xr7wk2gudukwr.py":37:19)
#loc21 = loc("/NHNHOME/WORKSPACE/26msit001_A/jinhyeok/loop_TTT/lact/.cache_inductor_llm/ke/ckeizmaycujj2vdfmaawmb4whqqwgq67j7d2f32xr7wk2gudukwr.py":41:34)
#loc22 = loc("/NHNHOME/WORKSPACE/26msit001_A/jinhyeok/loop_TTT/lact/.cache_inductor_llm/ke/ckeizmaycujj2vdfmaawmb4whqqwgq67j7d2f32xr7wk2gudukwr.py":42:33)
#loc23 = loc("/NHNHOME/WORKSPACE/26msit001_A/jinhyeok/loop_TTT/lact/.cache_inductor_llm/ke/ckeizmaycujj2vdfmaawmb4whqqwgq67j7d2f32xr7wk2gudukwr.py":43:25)
#loc24 = loc("/NHNHOME/WORKSPACE/26msit001_A/jinhyeok/loop_TTT/lact/.cache_inductor_llm/ke/ckeizmaycujj2vdfmaawmb4whqqwgq67j7d2f32xr7wk2gudukwr.py":43:37)
#loc25 = loc("/NHNHOME/WORKSPACE/26msit001_A/jinhyeok/loop_TTT/lact/.cache_inductor_llm/ke/ckeizmaycujj2vdfmaawmb4whqqwgq67j7d2f32xr7wk2gudukwr.py":43:4)
#loc29 = loc("tmp2"(#loc2))
#loc30 = loc("tmp13"(#loc3))
#loc31 = loc("x1"(#loc4))
#loc32 = loc("xoffset"(#loc5))
#loc33 = loc("xoffset"(#loc6))
#loc34 = loc("xindex"(#loc7))
#loc35 = loc("xindex"(#loc8))
#loc36 = loc("x1"(#loc9))
#loc37 = loc("x2"(#loc10))
#loc38 = loc("x3"(#loc11))
#loc39 = loc("tmp13"(#loc12))
#loc40 = loc("tmp13"(#loc13))
#loc41 = loc("tmp13"(#loc14))
#loc42 = loc("tmp13"(#loc15))
#loc43 = loc("tmp13"(#loc16))
#loc44 = loc("tmp0"(#loc17))
#loc45 = loc("tmp4"(#loc18))
#loc46 = loc("tmp5"(#loc19))
#loc47 = loc("tmp9"(#loc20))
#loc48 = loc("tmp14"(#loc21))
#loc49 = loc("tmp15"(#loc22))
