#loc = loc("/NHNHOME/WORKSPACE/26msit001_A/jinhyeok/loop_TTT/lact/.cache_inductor_llm/jv/cjv4hin3b5k3sve3tmgmkiyhs7mr3jfhrx7iivfeiqfzrdamgraj.py":18:0)
#loc41 = loc("in_ptr0"(#loc))
#loc42 = loc("in_ptr1"(#loc))
#loc43 = loc("in_ptr2"(#loc))
#loc44 = loc("in_ptr3"(#loc))
#loc45 = loc("in_ptr4"(#loc))
#loc46 = loc("out_ptr0"(#loc))
#loc47 = loc("out_ptr1"(#loc))
#loc48 = loc("out_ptr2"(#loc))
#loc49 = loc("out_ptr3"(#loc))
#loc50 = loc("xnumel"(#loc))
module {
  tt.func public @triton_poi_fused__to_copy_add_div_linalg_vector_norm_mean_mul_slice_transpose_zeros_like_33(%in_ptr0: !tt.ptr<bf16> {tt.divisibility = 16 : i32} loc("in_ptr0"(#loc)), %in_ptr1: !tt.ptr<bf16> {tt.divisibility = 16 : i32} loc("in_ptr1"(#loc)), %in_ptr2: !tt.ptr<f32> {tt.divisibility = 16 : i32} loc("in_ptr2"(#loc)), %in_ptr3: !tt.ptr<f32> {tt.divisibility = 16 : i32} loc("in_ptr3"(#loc)), %in_ptr4: !tt.ptr<f32> {tt.divisibility = 16 : i32} loc("in_ptr4"(#loc)), %out_ptr0: !tt.ptr<f32> {tt.divisibility = 16 : i32} loc("out_ptr0"(#loc)), %out_ptr1: !tt.ptr<bf16> {tt.divisibility = 16 : i32} loc("out_ptr1"(#loc)), %out_ptr2: !tt.ptr<bf16> {tt.divisibility = 16 : i32} loc("out_ptr2"(#loc)), %out_ptr3: !tt.ptr<bf16> {tt.divisibility = 16 : i32} loc("out_ptr3"(#loc)), %xnumel: i32 {tt.divisibility = 16 : i32} loc("xnumel"(#loc))) attributes {noinline = false} {
    %xnumel_0 = arith.constant 1179648 : i32 loc(#loc51)
    %xoffset = tt.get_program_id x : i32 loc(#loc52)
    %xoffset_1 = arith.constant 512 : i32 loc(#loc53)
    %xoffset_2 = arith.constant 512 : i32 loc(#loc53)
    %xoffset_3 = arith.muli %xoffset, %xoffset_2 : i32 loc(#loc53)
    %xindex = tt.make_range {end = 512 : i32, start = 0 : i32} : tensor<512xi32> loc(#loc54)
    %xindex_4 = tt.splat %xoffset_3 : i32 -> tensor<512xi32> loc(#loc55)
    %xindex_5 = arith.addi %xindex_4, %xindex : tensor<512xi32> loc(#loc55)
    %xmask = arith.constant true loc(#loc56)
    %xmask_6 = arith.constant dense<true> : tensor<512xi1> loc(#loc56)
    %x1 = arith.constant 36864 : i32 loc(#loc57)
    %x1_7 = arith.constant 36864 : i32 loc(#loc57)
    %x1_8 = arith.constant dense<36864> : tensor<512xi32> loc(#loc57)
    %x1_9 = arith.divsi %xindex_5, %x1_8 : tensor<512xi32> loc(#loc57)
    %tmp0 = tt.splat %in_ptr0 : !tt.ptr<bf16> -> tensor<512x!tt.ptr<bf16>> loc(#loc58)
    %tmp0_10 = tt.addptr %tmp0, %xindex_5 : tensor<512x!tt.ptr<bf16>>, tensor<512xi32> loc(#loc58)
    %tmp0_11 = tt.load %tmp0_10 : tensor<512x!tt.ptr<bf16>> loc(#loc59)
    %tmp0_12 = arith.extf %tmp0_11 : tensor<512xbf16> to tensor<512xf32> loc(#loc60)
    %tmp2 = tt.splat %in_ptr1 : !tt.ptr<bf16> -> tensor<512x!tt.ptr<bf16>> loc(#loc61)
    %tmp2_13 = tt.addptr %tmp2, %xindex_5 : tensor<512x!tt.ptr<bf16>>, tensor<512xi32> loc(#loc61)
    %tmp2_14 = tt.load %tmp2_13 : tensor<512x!tt.ptr<bf16>> loc(#loc62)
    %tmp2_15 = arith.extf %tmp2_14 : tensor<512xbf16> to tensor<512xf32> loc(#loc63)
    %tmp4 = tt.splat %in_ptr2 : !tt.ptr<f32> -> tensor<512x!tt.ptr<f32>> loc(#loc64)
    %tmp4_16 = tt.addptr %tmp4, %x1_9 : tensor<512x!tt.ptr<f32>>, tensor<512xi32> loc(#loc64)
    %tmp4_17 = tt.load %tmp4_16 evictionPolicy = evict_last : tensor<512x!tt.ptr<f32>> loc(#loc65)
    %tmp10 = tt.splat %in_ptr3 : !tt.ptr<f32> -> tensor<512x!tt.ptr<f32>> loc(#loc66)
    %tmp10_18 = tt.addptr %tmp10, %x1_9 : tensor<512x!tt.ptr<f32>>, tensor<512xi32> loc(#loc66)
    %tmp10_19 = tt.load %tmp10_18 evictionPolicy = evict_last : tensor<512x!tt.ptr<f32>> loc(#loc67)
    %tmp16 = tt.splat %in_ptr4 : !tt.ptr<f32> -> tensor<512x!tt.ptr<f32>> loc(#loc68)
    %tmp16_20 = tt.addptr %tmp16, %x1_9 : tensor<512x!tt.ptr<f32>>, tensor<512xi32> loc(#loc68)
    %tmp16_21 = tt.load %tmp16_20 evictionPolicy = evict_last : tensor<512x!tt.ptr<f32>> loc(#loc69)
    %tmp5 = arith.constant 1.024000e+03 : f32 loc(#loc70)
    %tmp6 = arith.constant dense<1.024000e+03> : tensor<512xf32> loc(#loc71)
    %tmp6_22 = arith.divf %tmp4_17, %tmp6 : tensor<512xf32> loc(#loc71)
    %tmp7 = arith.constant 0.000000e+00 : f32 loc(#loc72)
    %tmp8 = arith.constant dense<0.000000e+00> : tensor<512xf32> loc(#loc73)
    %tmp8_23 = arith.mulf %tmp8, %tmp6_22 : tensor<512xf32> loc(#loc73)
    %tmp9 = arith.addf %tmp2_15, %tmp8_23 : tensor<512xf32> loc(#loc74)
    %tmp11 = arith.constant dense<1.024000e+03> : tensor<512xf32> loc(#loc75)
    %tmp11_24 = arith.divf %tmp10_19, %tmp11 : tensor<512xf32> loc(#loc75)
    %tmp12 = arith.mulf %tmp9, %tmp11_24 : tensor<512xf32> loc(#loc76)
    %tmp13 = arith.addf %tmp0_12, %tmp12 : tensor<512xf32> loc(#loc77)
    %tmp17 = tt.extern_elementwise %tmp16_21 {libname = "", libpath = "", pure = true, symbol = "__nv_sqrtf"} : (tensor<512xf32>) -> tensor<512xf32> loc(#loc78)
    %tmp18 = arith.constant 1.000000e-07 : f32 loc(#loc79)
    %tmp19 = arith.constant dense<1.000000e-07> : tensor<512xf32> loc(#loc80)
    %tmp19_25 = arith.addf %tmp17, %tmp19 : tensor<512xf32> loc(#loc80)
    %tmp20 = arith.divf %tmp13, %tmp19_25 : tensor<512xf32> loc(#loc81)
    %0 = tt.splat %out_ptr0 : !tt.ptr<f32> -> tensor<512x!tt.ptr<f32>> loc(#loc32)
    %1 = tt.addptr %0, %xindex_5 : tensor<512x!tt.ptr<f32>>, tensor<512xi32> loc(#loc32)
    tt.store %1, %tmp20 : tensor<512x!tt.ptr<f32>> loc(#loc33)
    %2 = tt.splat %out_ptr1 : !tt.ptr<bf16> -> tensor<512x!tt.ptr<bf16>> loc(#loc34)
    %3 = tt.addptr %2, %xindex_5 : tensor<512x!tt.ptr<bf16>>, tensor<512xi32> loc(#loc34)
    %4 = arith.truncf %tmp20 : tensor<512xf32> to tensor<512xbf16> loc(#loc35)
    tt.store %3, %4 : tensor<512x!tt.ptr<bf16>> loc(#loc35)
    %5 = tt.splat %out_ptr2 : !tt.ptr<bf16> -> tensor<512x!tt.ptr<bf16>> loc(#loc36)
    %6 = tt.addptr %5, %xindex_5 : tensor<512x!tt.ptr<bf16>>, tensor<512xi32> loc(#loc36)
    %7 = arith.truncf %tmp20 : tensor<512xf32> to tensor<512xbf16> loc(#loc37)
    tt.store %6, %7 : tensor<512x!tt.ptr<bf16>> loc(#loc37)
    %8 = tt.splat %out_ptr3 : !tt.ptr<bf16> -> tensor<512x!tt.ptr<bf16>> loc(#loc38)
    %9 = tt.addptr %8, %xindex_5 : tensor<512x!tt.ptr<bf16>>, tensor<512xi32> loc(#loc38)
    %10 = arith.truncf %tmp20 : tensor<512xf32> to tensor<512xbf16> loc(#loc39)
    tt.store %9, %10 : tensor<512x!tt.ptr<bf16>> loc(#loc39)
    tt.return loc(#loc40)
  } loc(#loc)
} loc(#loc)
#loc1 = loc("/NHNHOME/WORKSPACE/26msit001_A/jinhyeok/loop_TTT/lact/.cache_inductor_llm/jv/cjv4hin3b5k3sve3tmgmkiyhs7mr3jfhrx7iivfeiqfzrdamgraj.py":19:13)
#loc2 = loc("/NHNHOME/WORKSPACE/26msit001_A/jinhyeok/loop_TTT/lact/.cache_inductor_llm/jv/cjv4hin3b5k3sve3tmgmkiyhs7mr3jfhrx7iivfeiqfzrdamgraj.py":20:28)
#loc3 = loc("/NHNHOME/WORKSPACE/26msit001_A/jinhyeok/loop_TTT/lact/.cache_inductor_llm/jv/cjv4hin3b5k3sve3tmgmkiyhs7mr3jfhrx7iivfeiqfzrdamgraj.py":20:33)
#loc4 = loc("/NHNHOME/WORKSPACE/26msit001_A/jinhyeok/loop_TTT/lact/.cache_inductor_llm/jv/cjv4hin3b5k3sve3tmgmkiyhs7mr3jfhrx7iivfeiqfzrdamgraj.py":21:36)
#loc5 = loc("/NHNHOME/WORKSPACE/26msit001_A/jinhyeok/loop_TTT/lact/.cache_inductor_llm/jv/cjv4hin3b5k3sve3tmgmkiyhs7mr3jfhrx7iivfeiqfzrdamgraj.py":21:23)
#loc6 = loc("/NHNHOME/WORKSPACE/26msit001_A/jinhyeok/loop_TTT/lact/.cache_inductor_llm/jv/cjv4hin3b5k3sve3tmgmkiyhs7mr3jfhrx7iivfeiqfzrdamgraj.py":22:36)
#loc7 = loc("/NHNHOME/WORKSPACE/26msit001_A/jinhyeok/loop_TTT/lact/.cache_inductor_llm/jv/cjv4hin3b5k3sve3tmgmkiyhs7mr3jfhrx7iivfeiqfzrdamgraj.py":24:19)
#loc8 = loc("/NHNHOME/WORKSPACE/26msit001_A/jinhyeok/loop_TTT/lact/.cache_inductor_llm/jv/cjv4hin3b5k3sve3tmgmkiyhs7mr3jfhrx7iivfeiqfzrdamgraj.py":25:30)
#loc9 = loc("/NHNHOME/WORKSPACE/26msit001_A/jinhyeok/loop_TTT/lact/.cache_inductor_llm/jv/cjv4hin3b5k3sve3tmgmkiyhs7mr3jfhrx7iivfeiqfzrdamgraj.py":25:35)
#loc10 = loc("/NHNHOME/WORKSPACE/26msit001_A/jinhyeok/loop_TTT/lact/.cache_inductor_llm/jv/cjv4hin3b5k3sve3tmgmkiyhs7mr3jfhrx7iivfeiqfzrdamgraj.py":25:44)
#loc11 = loc("/NHNHOME/WORKSPACE/26msit001_A/jinhyeok/loop_TTT/lact/.cache_inductor_llm/jv/cjv4hin3b5k3sve3tmgmkiyhs7mr3jfhrx7iivfeiqfzrdamgraj.py":26:30)
#loc12 = loc("/NHNHOME/WORKSPACE/26msit001_A/jinhyeok/loop_TTT/lact/.cache_inductor_llm/jv/cjv4hin3b5k3sve3tmgmkiyhs7mr3jfhrx7iivfeiqfzrdamgraj.py":26:35)
#loc13 = loc("/NHNHOME/WORKSPACE/26msit001_A/jinhyeok/loop_TTT/lact/.cache_inductor_llm/jv/cjv4hin3b5k3sve3tmgmkiyhs7mr3jfhrx7iivfeiqfzrdamgraj.py":26:44)
#loc14 = loc("/NHNHOME/WORKSPACE/26msit001_A/jinhyeok/loop_TTT/lact/.cache_inductor_llm/jv/cjv4hin3b5k3sve3tmgmkiyhs7mr3jfhrx7iivfeiqfzrdamgraj.py":27:30)
#loc15 = loc("/NHNHOME/WORKSPACE/26msit001_A/jinhyeok/loop_TTT/lact/.cache_inductor_llm/jv/cjv4hin3b5k3sve3tmgmkiyhs7mr3jfhrx7iivfeiqfzrdamgraj.py":27:35)
#loc16 = loc("/NHNHOME/WORKSPACE/26msit001_A/jinhyeok/loop_TTT/lact/.cache_inductor_llm/jv/cjv4hin3b5k3sve3tmgmkiyhs7mr3jfhrx7iivfeiqfzrdamgraj.py":28:31)
#loc17 = loc("/NHNHOME/WORKSPACE/26msit001_A/jinhyeok/loop_TTT/lact/.cache_inductor_llm/jv/cjv4hin3b5k3sve3tmgmkiyhs7mr3jfhrx7iivfeiqfzrdamgraj.py":28:36)
#loc18 = loc("/NHNHOME/WORKSPACE/26msit001_A/jinhyeok/loop_TTT/lact/.cache_inductor_llm/jv/cjv4hin3b5k3sve3tmgmkiyhs7mr3jfhrx7iivfeiqfzrdamgraj.py":29:31)
#loc19 = loc("/NHNHOME/WORKSPACE/26msit001_A/jinhyeok/loop_TTT/lact/.cache_inductor_llm/jv/cjv4hin3b5k3sve3tmgmkiyhs7mr3jfhrx7iivfeiqfzrdamgraj.py":29:36)
#loc20 = loc("/NHNHOME/WORKSPACE/26msit001_A/jinhyeok/loop_TTT/lact/.cache_inductor_llm/jv/cjv4hin3b5k3sve3tmgmkiyhs7mr3jfhrx7iivfeiqfzrdamgraj.py":32:11)
#loc21 = loc("/NHNHOME/WORKSPACE/26msit001_A/jinhyeok/loop_TTT/lact/.cache_inductor_llm/jv/cjv4hin3b5k3sve3tmgmkiyhs7mr3jfhrx7iivfeiqfzrdamgraj.py":33:19)
#loc22 = loc("/NHNHOME/WORKSPACE/26msit001_A/jinhyeok/loop_TTT/lact/.cache_inductor_llm/jv/cjv4hin3b5k3sve3tmgmkiyhs7mr3jfhrx7iivfeiqfzrdamgraj.py":34:11)
#loc23 = loc("/NHNHOME/WORKSPACE/26msit001_A/jinhyeok/loop_TTT/lact/.cache_inductor_llm/jv/cjv4hin3b5k3sve3tmgmkiyhs7mr3jfhrx7iivfeiqfzrdamgraj.py":35:18)
#loc24 = loc("/NHNHOME/WORKSPACE/26msit001_A/jinhyeok/loop_TTT/lact/.cache_inductor_llm/jv/cjv4hin3b5k3sve3tmgmkiyhs7mr3jfhrx7iivfeiqfzrdamgraj.py":36:18)
#loc25 = loc("/NHNHOME/WORKSPACE/26msit001_A/jinhyeok/loop_TTT/lact/.cache_inductor_llm/jv/cjv4hin3b5k3sve3tmgmkiyhs7mr3jfhrx7iivfeiqfzrdamgraj.py":37:21)
#loc26 = loc("/NHNHOME/WORKSPACE/26msit001_A/jinhyeok/loop_TTT/lact/.cache_inductor_llm/jv/cjv4hin3b5k3sve3tmgmkiyhs7mr3jfhrx7iivfeiqfzrdamgraj.py":38:19)
#loc27 = loc("/NHNHOME/WORKSPACE/26msit001_A/jinhyeok/loop_TTT/lact/.cache_inductor_llm/jv/cjv4hin3b5k3sve3tmgmkiyhs7mr3jfhrx7iivfeiqfzrdamgraj.py":39:19)
#loc28 = loc("/NHNHOME/WORKSPACE/26msit001_A/jinhyeok/loop_TTT/lact/.cache_inductor_llm/jv/cjv4hin3b5k3sve3tmgmkiyhs7mr3jfhrx7iivfeiqfzrdamgraj.py":42:27)
#loc29 = loc("/NHNHOME/WORKSPACE/26msit001_A/jinhyeok/loop_TTT/lact/.cache_inductor_llm/jv/cjv4hin3b5k3sve3tmgmkiyhs7mr3jfhrx7iivfeiqfzrdamgraj.py":43:12)
#loc30 = loc("/NHNHOME/WORKSPACE/26msit001_A/jinhyeok/loop_TTT/lact/.cache_inductor_llm/jv/cjv4hin3b5k3sve3tmgmkiyhs7mr3jfhrx7iivfeiqfzrdamgraj.py":44:20)
#loc31 = loc("/NHNHOME/WORKSPACE/26msit001_A/jinhyeok/loop_TTT/lact/.cache_inductor_llm/jv/cjv4hin3b5k3sve3tmgmkiyhs7mr3jfhrx7iivfeiqfzrdamgraj.py":45:21)
#loc32 = loc("/NHNHOME/WORKSPACE/26msit001_A/jinhyeok/loop_TTT/lact/.cache_inductor_llm/jv/cjv4hin3b5k3sve3tmgmkiyhs7mr3jfhrx7iivfeiqfzrdamgraj.py":47:25)
#loc33 = loc("/NHNHOME/WORKSPACE/26msit001_A/jinhyeok/loop_TTT/lact/.cache_inductor_llm/jv/cjv4hin3b5k3sve3tmgmkiyhs7mr3jfhrx7iivfeiqfzrdamgraj.py":47:37)
#loc34 = loc("/NHNHOME/WORKSPACE/26msit001_A/jinhyeok/loop_TTT/lact/.cache_inductor_llm/jv/cjv4hin3b5k3sve3tmgmkiyhs7mr3jfhrx7iivfeiqfzrdamgraj.py":48:25)
#loc35 = loc("/NHNHOME/WORKSPACE/26msit001_A/jinhyeok/loop_TTT/lact/.cache_inductor_llm/jv/cjv4hin3b5k3sve3tmgmkiyhs7mr3jfhrx7iivfeiqfzrdamgraj.py":48:37)
#loc36 = loc("/NHNHOME/WORKSPACE/26msit001_A/jinhyeok/loop_TTT/lact/.cache_inductor_llm/jv/cjv4hin3b5k3sve3tmgmkiyhs7mr3jfhrx7iivfeiqfzrdamgraj.py":49:25)
#loc37 = loc("/NHNHOME/WORKSPACE/26msit001_A/jinhyeok/loop_TTT/lact/.cache_inductor_llm/jv/cjv4hin3b5k3sve3tmgmkiyhs7mr3jfhrx7iivfeiqfzrdamgraj.py":49:37)
#loc38 = loc("/NHNHOME/WORKSPACE/26msit001_A/jinhyeok/loop_TTT/lact/.cache_inductor_llm/jv/cjv4hin3b5k3sve3tmgmkiyhs7mr3jfhrx7iivfeiqfzrdamgraj.py":50:25)
#loc39 = loc("/NHNHOME/WORKSPACE/26msit001_A/jinhyeok/loop_TTT/lact/.cache_inductor_llm/jv/cjv4hin3b5k3sve3tmgmkiyhs7mr3jfhrx7iivfeiqfzrdamgraj.py":50:37)
#loc40 = loc("/NHNHOME/WORKSPACE/26msit001_A/jinhyeok/loop_TTT/lact/.cache_inductor_llm/jv/cjv4hin3b5k3sve3tmgmkiyhs7mr3jfhrx7iivfeiqfzrdamgraj.py":50:4)
#loc51 = loc("xnumel"(#loc1))
#loc52 = loc("xoffset"(#loc2))
#loc53 = loc("xoffset"(#loc3))
#loc54 = loc("xindex"(#loc4))
#loc55 = loc("xindex"(#loc5))
#loc56 = loc("xmask"(#loc6))
#loc57 = loc("x1"(#loc7))
#loc58 = loc("tmp0"(#loc8))
#loc59 = loc("tmp0"(#loc9))
#loc60 = loc("tmp0"(#loc10))
#loc61 = loc("tmp2"(#loc11))
#loc62 = loc("tmp2"(#loc12))
#loc63 = loc("tmp2"(#loc13))
#loc64 = loc("tmp4"(#loc14))
#loc65 = loc("tmp4"(#loc15))
#loc66 = loc("tmp10"(#loc16))
#loc67 = loc("tmp10"(#loc17))
#loc68 = loc("tmp16"(#loc18))
#loc69 = loc("tmp16"(#loc19))
#loc70 = loc("tmp5"(#loc20))
#loc71 = loc("tmp6"(#loc21))
#loc72 = loc("tmp7"(#loc22))
#loc73 = loc("tmp8"(#loc23))
#loc74 = loc("tmp9"(#loc24))
#loc75 = loc("tmp11"(#loc25))
#loc76 = loc("tmp12"(#loc26))
#loc77 = loc("tmp13"(#loc27))
#loc78 = loc("tmp17"(#loc28))
#loc79 = loc("tmp18"(#loc29))
#loc80 = loc("tmp19"(#loc30))
#loc81 = loc("tmp20"(#loc31))
