#loc = loc("/NHNHOME/WORKSPACE/26msit001_A/jinhyeok/loop_TTT/lact/.cache_inductor_llm/sq/csql4ki2eqwsbsx7j6k5tovbxatjr2eobzy7yzhfsvcrfx72ytxt.py":18:0)
#loc1 = loc(unknown)
#loc55 = loc("/NHNHOME/WORKSPACE/26msit001_A/jinhyeok/loop_TTT/lact/.cache_inductor_llm/sq/csql4ki2eqwsbsx7j6k5tovbxatjr2eobzy7yzhfsvcrfx72ytxt.py":76:27)
#loc58 = loc("/NHNHOME/WORKSPACE/26msit001_A/jinhyeok/loop_TTT/lact/.cache_inductor_llm/sq/csql4ki2eqwsbsx7j6k5tovbxatjr2eobzy7yzhfsvcrfx72ytxt.py":77:27)
#loc60 = loc("/NHNHOME/WORKSPACE/26msit001_A/jinhyeok/loop_TTT/lact/.cache_inductor_llm/sq/csql4ki2eqwsbsx7j6k5tovbxatjr2eobzy7yzhfsvcrfx72ytxt.py":78:27)
#loc69 = loc("in_ptr0"(#loc))
#loc70 = loc("in_ptr1"(#loc))
#loc71 = loc("in_ptr2"(#loc))
#loc72 = loc("in_ptr3"(#loc))
#loc73 = loc("in_ptr4"(#loc))
#loc74 = loc("in_ptr5"(#loc))
#loc75 = loc("in_ptr6"(#loc))
#loc76 = loc("out_ptr0"(#loc))
#loc77 = loc("out_ptr1"(#loc))
#loc78 = loc("out_ptr2"(#loc))
#loc79 = loc("xnumel"(#loc))
#loc80 = loc("r0_numel"(#loc))
#loc132 = loc("tmp14"(#loc55))
#loc134 = loc("tmp24"(#loc58))
#loc136 = loc("tmp34"(#loc60))
#loc143 = loc(callsite(#loc1 at #loc132))
#loc145 = loc(callsite(#loc1 at #loc134))
#loc147 = loc(callsite(#loc1 at #loc136))
module {
  tt.func public @triton_red_fused_add_mul_sum_zeros_like_25(%in_ptr0: !tt.ptr<f32> {tt.divisibility = 16 : i32} loc("in_ptr0"(#loc)), %in_ptr1: !tt.ptr<bf16> {tt.divisibility = 16 : i32} loc("in_ptr1"(#loc)), %in_ptr2: !tt.ptr<f32> {tt.divisibility = 16 : i32} loc("in_ptr2"(#loc)), %in_ptr3: !tt.ptr<f32> {tt.divisibility = 16 : i32} loc("in_ptr3"(#loc)), %in_ptr4: !tt.ptr<bf16> {tt.divisibility = 16 : i32} loc("in_ptr4"(#loc)), %in_ptr5: !tt.ptr<f32> {tt.divisibility = 16 : i32} loc("in_ptr5"(#loc)), %in_ptr6: !tt.ptr<bf16> {tt.divisibility = 16 : i32} loc("in_ptr6"(#loc)), %out_ptr0: !tt.ptr<f32> {tt.divisibility = 16 : i32} loc("out_ptr0"(#loc)), %out_ptr1: !tt.ptr<f32> {tt.divisibility = 16 : i32} loc("out_ptr1"(#loc)), %out_ptr2: !tt.ptr<f32> {tt.divisibility = 16 : i32} loc("out_ptr2"(#loc)), %xnumel: i32 {tt.divisibility = 16 : i32} loc("xnumel"(#loc)), %r0_numel: i32 loc("r0_numel"(#loc))) attributes {noinline = false} {
    %c36864_i32 = arith.constant 36864 : i32 loc(#loc1)
    %c5_i32 = arith.constant 5 : i32 loc(#loc1)
    %xmask = arith.constant 160 : i32 loc(#loc81)
    %cst = arith.constant dense<0.000000e+00> : tensor<1x2048xbf16> loc(#loc1)
    %c2048_i32 = arith.constant 2048 : i32 loc(#loc3)
    %c7373_i32 = arith.constant 7373 : i32 loc(#loc1)
    %c0_i32 = arith.constant 0 : i32 loc(#loc3)
    %cst_0 = arith.constant dense<36864> : tensor<1x2048xi32> loc(#loc1)
    %cst_1 = arith.constant dense<7373> : tensor<1x2048xi32> loc(#loc1)
    %cst_2 = arith.constant dense<0.000000e+00> : tensor<1x2048xf32> loc(#loc1)
    %xoffset = tt.get_program_id x : i32 loc(#loc82)
    %xmask_3 = arith.cmpi slt, %xoffset, %xmask : i32 loc(#loc81)
    %xmask_4 = tt.splat %xmask_3 : i1 -> tensor<1x1xi1> loc(#loc81)
    %r0_base = tt.make_range {end = 2048 : i32, start = 0 : i32} : tensor<2048xi32> loc(#loc83)
    %r0_base_5 = tt.expand_dims %r0_base {axis = 0 : i32} : tensor<2048xi32> -> tensor<1x2048xi32> loc(#loc84)
    %x0 = arith.remsi %xoffset, %c5_i32 : i32 loc(#loc85)
    %x1 = arith.divsi %xoffset, %c5_i32 : i32 loc(#loc86)
    %_tmp34:3 = scf.for %r0_offset = %c0_i32 to %c7373_i32 step %c2048_i32 iter_args(%_tmp14 = %cst_2, %_tmp24 = %cst_2, %_tmp34_9 = %cst_2) -> (tensor<1x2048xf32>, tensor<1x2048xf32>, tensor<1x2048xf32>)  : i32 {
      %r0_index = tt.splat %r0_offset : i32 -> tensor<1x2048xi32> loc(#loc88)
      %r0_index_10 = arith.addi %r0_index, %r0_base_5 : tensor<1x2048xi32> loc(#loc88)
      %r0_mask = arith.cmpi slt, %r0_index_10, %cst_1 : tensor<1x2048xi32> loc(#loc89)
      %tmp0 = arith.muli %x0, %c7373_i32 : i32 loc(#loc90)
      %tmp0_11 = tt.splat %tmp0 : i32 -> tensor<1x2048xi32> loc(#loc139)
      %tmp0_12 = arith.addi %r0_index_10, %tmp0_11 : tensor<1x2048xi32> loc(#loc91)
      %tmp2 = arith.cmpi slt, %tmp0_12, %cst_0 : tensor<1x2048xi32> loc(#loc92)
      %tmp3 = arith.muli %x1, %c36864_i32 : i32 loc(#loc93)
      %tmp3_13 = arith.remsi %tmp0_12, %cst_0 : tensor<1x2048xi32> loc(#loc94)
      %tmp3_14 = tt.splat %tmp3 : i32 -> tensor<1x2048xi32> loc(#loc140)
      %tmp3_15 = arith.addi %tmp3_14, %tmp3_13 : tensor<1x2048xi32> loc(#loc95)
      %tmp3_16 = tt.splat %in_ptr0 : !tt.ptr<f32> -> tensor<1x2048x!tt.ptr<f32>> loc(#loc96)
      %tmp3_17 = tt.addptr %tmp3_16, %tmp3_15 : tensor<1x2048x!tt.ptr<f32>>, tensor<1x2048xi32> loc(#loc96)
      %tmp3_18 = arith.andi %r0_mask, %tmp2 : tensor<1x2048xi1> loc(#loc97)
      %tmp3_19 = tt.splat %xmask_3 : i1 -> tensor<1x2048xi1> loc(#loc141)
      %tmp3_20 = arith.andi %tmp3_18, %tmp3_19 : tensor<1x2048xi1> loc(#loc98)
      %tmp3_21 = tt.load %tmp3_17, %tmp3_20, %cst_2 evictionPolicy = evict_last : tensor<1x2048x!tt.ptr<f32>> loc(#loc99)
      %tmp4 = tt.splat %in_ptr1 : !tt.ptr<bf16> -> tensor<1x2048x!tt.ptr<bf16>> loc(#loc100)
      %tmp4_22 = tt.addptr %tmp4, %tmp3_15 : tensor<1x2048x!tt.ptr<bf16>>, tensor<1x2048xi32> loc(#loc100)
      %tmp4_23 = tt.load %tmp4_22, %tmp3_20, %cst evictionPolicy = evict_last : tensor<1x2048x!tt.ptr<bf16>> loc(#loc101)
      %tmp4_24 = arith.extf %tmp4_23 : tensor<1x2048xbf16> to tensor<1x2048xf32> loc(#loc102)
      %tmp6 = tt.addptr %in_ptr2, %x1 : !tt.ptr<f32>, i32 loc(#loc103)
      %tmp6_25 = tt.splat %tmp6 : !tt.ptr<f32> -> tensor<1x2048x!tt.ptr<f32>> loc(#loc103)
      %tmp6_26 = tt.load %tmp6_25, %tmp3_20, %cst_2 evictionPolicy = evict_last : tensor<1x2048x!tt.ptr<f32>> loc(#loc104)
      %tmp8 = arith.mulf %tmp6_26, %cst_2 : tensor<1x2048xf32> loc(#loc105)
      %tmp9 = arith.addf %tmp4_24, %tmp8 : tensor<1x2048xf32> loc(#loc106)
      %tmp10 = arith.mulf %tmp3_21, %tmp9 : tensor<1x2048xf32> loc(#loc107)
      %tmp12 = arith.select %tmp2, %tmp10, %cst_2 : tensor<1x2048xi1>, tensor<1x2048xf32> loc(#loc108)
      %tmp15 = arith.addf %_tmp14, %tmp12 : tensor<1x2048xf32> loc(#loc109)
      %_tmp14_27 = arith.andi %r0_mask, %tmp3_19 : tensor<1x2048xi1> loc(#loc110)
      %_tmp14_28 = arith.select %_tmp14_27, %tmp15, %_tmp14 : tensor<1x2048xi1>, tensor<1x2048xf32> loc(#loc111)
      %tmp16 = tt.splat %in_ptr3 : !tt.ptr<f32> -> tensor<1x2048x!tt.ptr<f32>> loc(#loc112)
      %tmp16_29 = tt.addptr %tmp16, %tmp3_15 : tensor<1x2048x!tt.ptr<f32>>, tensor<1x2048xi32> loc(#loc112)
      %tmp16_30 = tt.load %tmp16_29, %tmp3_20, %cst_2 evictionPolicy = evict_last : tensor<1x2048x!tt.ptr<f32>> loc(#loc113)
      %tmp17 = tt.splat %in_ptr4 : !tt.ptr<bf16> -> tensor<1x2048x!tt.ptr<bf16>> loc(#loc114)
      %tmp17_31 = tt.addptr %tmp17, %tmp3_15 : tensor<1x2048x!tt.ptr<bf16>>, tensor<1x2048xi32> loc(#loc114)
      %tmp17_32 = tt.load %tmp17_31, %tmp3_20, %cst evictionPolicy = evict_last : tensor<1x2048x!tt.ptr<bf16>> loc(#loc115)
      %tmp17_33 = arith.extf %tmp17_32 : tensor<1x2048xbf16> to tensor<1x2048xf32> loc(#loc116)
      %tmp19 = arith.addf %tmp17_33, %tmp8 : tensor<1x2048xf32> loc(#loc117)
      %tmp20 = arith.mulf %tmp16_30, %tmp19 : tensor<1x2048xf32> loc(#loc118)
      %tmp22 = arith.select %tmp2, %tmp20, %cst_2 : tensor<1x2048xi1>, tensor<1x2048xf32> loc(#loc119)
      %tmp25 = arith.addf %_tmp24, %tmp22 : tensor<1x2048xf32> loc(#loc120)
      %_tmp24_34 = arith.select %_tmp14_27, %tmp25, %_tmp24 : tensor<1x2048xi1>, tensor<1x2048xf32> loc(#loc121)
      %tmp26 = tt.splat %in_ptr5 : !tt.ptr<f32> -> tensor<1x2048x!tt.ptr<f32>> loc(#loc122)
      %tmp26_35 = tt.addptr %tmp26, %tmp3_15 : tensor<1x2048x!tt.ptr<f32>>, tensor<1x2048xi32> loc(#loc122)
      %tmp26_36 = tt.load %tmp26_35, %tmp3_20, %cst_2 evictionPolicy = evict_last : tensor<1x2048x!tt.ptr<f32>> loc(#loc123)
      %tmp27 = tt.splat %in_ptr6 : !tt.ptr<bf16> -> tensor<1x2048x!tt.ptr<bf16>> loc(#loc124)
      %tmp27_37 = tt.addptr %tmp27, %tmp3_15 : tensor<1x2048x!tt.ptr<bf16>>, tensor<1x2048xi32> loc(#loc124)
      %tmp27_38 = tt.load %tmp27_37, %tmp3_20, %cst evictionPolicy = evict_last : tensor<1x2048x!tt.ptr<bf16>> loc(#loc125)
      %tmp27_39 = arith.extf %tmp27_38 : tensor<1x2048xbf16> to tensor<1x2048xf32> loc(#loc126)
      %tmp29 = arith.addf %tmp27_39, %tmp8 : tensor<1x2048xf32> loc(#loc127)
      %tmp30 = arith.mulf %tmp26_36, %tmp29 : tensor<1x2048xf32> loc(#loc128)
      %tmp32 = arith.select %tmp2, %tmp30, %cst_2 : tensor<1x2048xi1>, tensor<1x2048xf32> loc(#loc129)
      %tmp35 = arith.addf %_tmp34_9, %tmp32 : tensor<1x2048xf32> loc(#loc130)
      %_tmp34_40 = arith.select %_tmp14_27, %tmp35, %_tmp34_9 : tensor<1x2048xi1>, tensor<1x2048xf32> loc(#loc131)
      scf.yield %_tmp14_28, %_tmp24_34, %_tmp34_40 : tensor<1x2048xf32>, tensor<1x2048xf32>, tensor<1x2048xf32> loc(#loc53)
    } loc(#loc148)
    %tmp14 = "tt.reduce"(%_tmp34#0) <{axis = 1 : i32}> ({
    ^bb0(%tmp14_9: f32 loc(callsite(#loc1 at #loc132)), %tmp14_10: f32 loc(callsite(#loc1 at #loc132))):
      %tmp14_11 = arith.addf %tmp14_9, %tmp14_10 : f32 loc(#loc149)
      tt.reduce.return %tmp14_11 : f32 loc(#loc142)
    }) : (tensor<1x2048xf32>) -> tensor<1xf32> loc(#loc142)
    %tmp14_6 = tt.expand_dims %tmp14 {axis = 1 : i32} : tensor<1xf32> -> tensor<1x1xf32> loc(#loc133)
    %tmp24 = "tt.reduce"(%_tmp34#1) <{axis = 1 : i32}> ({
    ^bb0(%tmp24_9: f32 loc(callsite(#loc1 at #loc134)), %tmp24_10: f32 loc(callsite(#loc1 at #loc134))):
      %tmp24_11 = arith.addf %tmp24_9, %tmp24_10 : f32 loc(#loc150)
      tt.reduce.return %tmp24_11 : f32 loc(#loc144)
    }) : (tensor<1x2048xf32>) -> tensor<1xf32> loc(#loc144)
    %tmp24_7 = tt.expand_dims %tmp24 {axis = 1 : i32} : tensor<1xf32> -> tensor<1x1xf32> loc(#loc135)
    %tmp34 = "tt.reduce"(%_tmp34#2) <{axis = 1 : i32}> ({
    ^bb0(%tmp34_9: f32 loc(callsite(#loc1 at #loc136)), %tmp34_10: f32 loc(callsite(#loc1 at #loc136))):
      %tmp34_11 = arith.addf %tmp34_9, %tmp34_10 : f32 loc(#loc151)
      tt.reduce.return %tmp34_11 : f32 loc(#loc146)
    }) : (tensor<1x2048xf32>) -> tensor<1xf32> loc(#loc146)
    %tmp34_8 = tt.expand_dims %tmp34 {axis = 1 : i32} : tensor<1xf32> -> tensor<1x1xf32> loc(#loc137)
    %0 = tt.addptr %out_ptr0, %xoffset : !tt.ptr<f32>, i32 loc(#loc62)
    %1 = tt.splat %0 : !tt.ptr<f32> -> tensor<1x1x!tt.ptr<f32>> loc(#loc62)
    tt.store %1, %tmp14_6, %xmask_4 : tensor<1x1x!tt.ptr<f32>> loc(#loc63)
    %2 = tt.addptr %out_ptr1, %xoffset : !tt.ptr<f32>, i32 loc(#loc64)
    %3 = tt.splat %2 : !tt.ptr<f32> -> tensor<1x1x!tt.ptr<f32>> loc(#loc64)
    tt.store %3, %tmp24_7, %xmask_4 : tensor<1x1x!tt.ptr<f32>> loc(#loc65)
    %4 = tt.addptr %out_ptr2, %xoffset : !tt.ptr<f32>, i32 loc(#loc66)
    %5 = tt.splat %4 : !tt.ptr<f32> -> tensor<1x1x!tt.ptr<f32>> loc(#loc66)
    tt.store %5, %tmp34_8, %xmask_4 : tensor<1x1x!tt.ptr<f32>> loc(#loc67)
    tt.return loc(#loc68)
  } loc(#loc)
} loc(#loc)
#loc2 = loc("/NHNHOME/WORKSPACE/26msit001_A/jinhyeok/loop_TTT/lact/.cache_inductor_llm/sq/csql4ki2eqwsbsx7j6k5tovbxatjr2eobzy7yzhfsvcrfx72ytxt.py":25:21)
#loc3 = loc("/NHNHOME/WORKSPACE/26msit001_A/jinhyeok/loop_TTT/lact/.cache_inductor_llm/sq/csql4ki2eqwsbsx7j6k5tovbxatjr2eobzy7yzhfsvcrfx72ytxt.py":34:40)
#loc4 = loc("/NHNHOME/WORKSPACE/26msit001_A/jinhyeok/loop_TTT/lact/.cache_inductor_llm/sq/csql4ki2eqwsbsx7j6k5tovbxatjr2eobzy7yzhfsvcrfx72ytxt.py":23:28)
#loc5 = loc("/NHNHOME/WORKSPACE/26msit001_A/jinhyeok/loop_TTT/lact/.cache_inductor_llm/sq/csql4ki2eqwsbsx7j6k5tovbxatjr2eobzy7yzhfsvcrfx72ytxt.py":26:27)
#loc6 = loc("/NHNHOME/WORKSPACE/26msit001_A/jinhyeok/loop_TTT/lact/.cache_inductor_llm/sq/csql4ki2eqwsbsx7j6k5tovbxatjr2eobzy7yzhfsvcrfx72ytxt.py":26:37)
#loc7 = loc("/NHNHOME/WORKSPACE/26msit001_A/jinhyeok/loop_TTT/lact/.cache_inductor_llm/sq/csql4ki2eqwsbsx7j6k5tovbxatjr2eobzy7yzhfsvcrfx72ytxt.py":28:19)
#loc8 = loc("/NHNHOME/WORKSPACE/26msit001_A/jinhyeok/loop_TTT/lact/.cache_inductor_llm/sq/csql4ki2eqwsbsx7j6k5tovbxatjr2eobzy7yzhfsvcrfx72ytxt.py":29:19)
#loc9 = loc("/NHNHOME/WORKSPACE/26msit001_A/jinhyeok/loop_TTT/lact/.cache_inductor_llm/sq/csql4ki2eqwsbsx7j6k5tovbxatjr2eobzy7yzhfsvcrfx72ytxt.py":35:31)
#loc10 = loc("/NHNHOME/WORKSPACE/26msit001_A/jinhyeok/loop_TTT/lact/.cache_inductor_llm/sq/csql4ki2eqwsbsx7j6k5tovbxatjr2eobzy7yzhfsvcrfx72ytxt.py":36:29)
#loc11 = loc("/NHNHOME/WORKSPACE/26msit001_A/jinhyeok/loop_TTT/lact/.cache_inductor_llm/sq/csql4ki2eqwsbsx7j6k5tovbxatjr2eobzy7yzhfsvcrfx72ytxt.py":40:27)
#loc12 = loc("/NHNHOME/WORKSPACE/26msit001_A/jinhyeok/loop_TTT/lact/.cache_inductor_llm/sq/csql4ki2eqwsbsx7j6k5tovbxatjr2eobzy7yzhfsvcrfx72ytxt.py":40:22)
#loc13 = loc("/NHNHOME/WORKSPACE/26msit001_A/jinhyeok/loop_TTT/lact/.cache_inductor_llm/sq/csql4ki2eqwsbsx7j6k5tovbxatjr2eobzy7yzhfsvcrfx72ytxt.py":42:22)
#loc14 = loc("/NHNHOME/WORKSPACE/26msit001_A/jinhyeok/loop_TTT/lact/.cache_inductor_llm/sq/csql4ki2eqwsbsx7j6k5tovbxatjr2eobzy7yzhfsvcrfx72ytxt.py":43:40)
#loc15 = loc("/NHNHOME/WORKSPACE/26msit001_A/jinhyeok/loop_TTT/lact/.cache_inductor_llm/sq/csql4ki2eqwsbsx7j6k5tovbxatjr2eobzy7yzhfsvcrfx72ytxt.py":43:66)
#loc16 = loc("/NHNHOME/WORKSPACE/26msit001_A/jinhyeok/loop_TTT/lact/.cache_inductor_llm/sq/csql4ki2eqwsbsx7j6k5tovbxatjr2eobzy7yzhfsvcrfx72ytxt.py":43:47)
#loc17 = loc("/NHNHOME/WORKSPACE/26msit001_A/jinhyeok/loop_TTT/lact/.cache_inductor_llm/sq/csql4ki2eqwsbsx7j6k5tovbxatjr2eobzy7yzhfsvcrfx72ytxt.py":43:34)
#loc18 = loc("/NHNHOME/WORKSPACE/26msit001_A/jinhyeok/loop_TTT/lact/.cache_inductor_llm/sq/csql4ki2eqwsbsx7j6k5tovbxatjr2eobzy7yzhfsvcrfx72ytxt.py":43:86)
#loc19 = loc("/NHNHOME/WORKSPACE/26msit001_A/jinhyeok/loop_TTT/lact/.cache_inductor_llm/sq/csql4ki2eqwsbsx7j6k5tovbxatjr2eobzy7yzhfsvcrfx72ytxt.py":43:93)
#loc20 = loc("/NHNHOME/WORKSPACE/26msit001_A/jinhyeok/loop_TTT/lact/.cache_inductor_llm/sq/csql4ki2eqwsbsx7j6k5tovbxatjr2eobzy7yzhfsvcrfx72ytxt.py":43:76)
#loc21 = loc("/NHNHOME/WORKSPACE/26msit001_A/jinhyeok/loop_TTT/lact/.cache_inductor_llm/sq/csql4ki2eqwsbsx7j6k5tovbxatjr2eobzy7yzhfsvcrfx72ytxt.py":44:34)
#loc22 = loc("/NHNHOME/WORKSPACE/26msit001_A/jinhyeok/loop_TTT/lact/.cache_inductor_llm/sq/csql4ki2eqwsbsx7j6k5tovbxatjr2eobzy7yzhfsvcrfx72ytxt.py":44:76)
#loc23 = loc("/NHNHOME/WORKSPACE/26msit001_A/jinhyeok/loop_TTT/lact/.cache_inductor_llm/sq/csql4ki2eqwsbsx7j6k5tovbxatjr2eobzy7yzhfsvcrfx72ytxt.py":44:144)
#loc24 = loc("/NHNHOME/WORKSPACE/26msit001_A/jinhyeok/loop_TTT/lact/.cache_inductor_llm/sq/csql4ki2eqwsbsx7j6k5tovbxatjr2eobzy7yzhfsvcrfx72ytxt.py":46:34)
#loc25 = loc("/NHNHOME/WORKSPACE/26msit001_A/jinhyeok/loop_TTT/lact/.cache_inductor_llm/sq/csql4ki2eqwsbsx7j6k5tovbxatjr2eobzy7yzhfsvcrfx72ytxt.py":46:76)
#loc26 = loc("/NHNHOME/WORKSPACE/26msit001_A/jinhyeok/loop_TTT/lact/.cache_inductor_llm/sq/csql4ki2eqwsbsx7j6k5tovbxatjr2eobzy7yzhfsvcrfx72ytxt.py":48:22)
#loc27 = loc("/NHNHOME/WORKSPACE/26msit001_A/jinhyeok/loop_TTT/lact/.cache_inductor_llm/sq/csql4ki2eqwsbsx7j6k5tovbxatjr2eobzy7yzhfsvcrfx72ytxt.py":49:22)
#loc28 = loc("/NHNHOME/WORKSPACE/26msit001_A/jinhyeok/loop_TTT/lact/.cache_inductor_llm/sq/csql4ki2eqwsbsx7j6k5tovbxatjr2eobzy7yzhfsvcrfx72ytxt.py":50:23)
#loc29 = loc("/NHNHOME/WORKSPACE/26msit001_A/jinhyeok/loop_TTT/lact/.cache_inductor_llm/sq/csql4ki2eqwsbsx7j6k5tovbxatjr2eobzy7yzhfsvcrfx72ytxt.py":52:38)
#loc30 = loc("/NHNHOME/WORKSPACE/26msit001_A/jinhyeok/loop_TTT/lact/.cache_inductor_llm/sq/csql4ki2eqwsbsx7j6k5tovbxatjr2eobzy7yzhfsvcrfx72ytxt.py":54:25)
#loc31 = loc("/NHNHOME/WORKSPACE/26msit001_A/jinhyeok/loop_TTT/lact/.cache_inductor_llm/sq/csql4ki2eqwsbsx7j6k5tovbxatjr2eobzy7yzhfsvcrfx72ytxt.py":55:36)
#loc32 = loc("/NHNHOME/WORKSPACE/26msit001_A/jinhyeok/loop_TTT/lact/.cache_inductor_llm/sq/csql4ki2eqwsbsx7j6k5tovbxatjr2eobzy7yzhfsvcrfx72ytxt.py":55:50)
#loc33 = loc("/NHNHOME/WORKSPACE/26msit001_A/jinhyeok/loop_TTT/lact/.cache_inductor_llm/sq/csql4ki2eqwsbsx7j6k5tovbxatjr2eobzy7yzhfsvcrfx72ytxt.py":56:35)
#loc34 = loc("/NHNHOME/WORKSPACE/26msit001_A/jinhyeok/loop_TTT/lact/.cache_inductor_llm/sq/csql4ki2eqwsbsx7j6k5tovbxatjr2eobzy7yzhfsvcrfx72ytxt.py":56:77)
#loc35 = loc("/NHNHOME/WORKSPACE/26msit001_A/jinhyeok/loop_TTT/lact/.cache_inductor_llm/sq/csql4ki2eqwsbsx7j6k5tovbxatjr2eobzy7yzhfsvcrfx72ytxt.py":57:35)
#loc36 = loc("/NHNHOME/WORKSPACE/26msit001_A/jinhyeok/loop_TTT/lact/.cache_inductor_llm/sq/csql4ki2eqwsbsx7j6k5tovbxatjr2eobzy7yzhfsvcrfx72ytxt.py":57:77)
#loc37 = loc("/NHNHOME/WORKSPACE/26msit001_A/jinhyeok/loop_TTT/lact/.cache_inductor_llm/sq/csql4ki2eqwsbsx7j6k5tovbxatjr2eobzy7yzhfsvcrfx72ytxt.py":57:145)
#loc38 = loc("/NHNHOME/WORKSPACE/26msit001_A/jinhyeok/loop_TTT/lact/.cache_inductor_llm/sq/csql4ki2eqwsbsx7j6k5tovbxatjr2eobzy7yzhfsvcrfx72ytxt.py":59:24)
#loc39 = loc("/NHNHOME/WORKSPACE/26msit001_A/jinhyeok/loop_TTT/lact/.cache_inductor_llm/sq/csql4ki2eqwsbsx7j6k5tovbxatjr2eobzy7yzhfsvcrfx72ytxt.py":60:24)
#loc40 = loc("/NHNHOME/WORKSPACE/26msit001_A/jinhyeok/loop_TTT/lact/.cache_inductor_llm/sq/csql4ki2eqwsbsx7j6k5tovbxatjr2eobzy7yzhfsvcrfx72ytxt.py":62:38)
#loc41 = loc("/NHNHOME/WORKSPACE/26msit001_A/jinhyeok/loop_TTT/lact/.cache_inductor_llm/sq/csql4ki2eqwsbsx7j6k5tovbxatjr2eobzy7yzhfsvcrfx72ytxt.py":64:25)
#loc42 = loc("/NHNHOME/WORKSPACE/26msit001_A/jinhyeok/loop_TTT/lact/.cache_inductor_llm/sq/csql4ki2eqwsbsx7j6k5tovbxatjr2eobzy7yzhfsvcrfx72ytxt.py":65:50)
#loc43 = loc("/NHNHOME/WORKSPACE/26msit001_A/jinhyeok/loop_TTT/lact/.cache_inductor_llm/sq/csql4ki2eqwsbsx7j6k5tovbxatjr2eobzy7yzhfsvcrfx72ytxt.py":66:35)
#loc44 = loc("/NHNHOME/WORKSPACE/26msit001_A/jinhyeok/loop_TTT/lact/.cache_inductor_llm/sq/csql4ki2eqwsbsx7j6k5tovbxatjr2eobzy7yzhfsvcrfx72ytxt.py":66:77)
#loc45 = loc("/NHNHOME/WORKSPACE/26msit001_A/jinhyeok/loop_TTT/lact/.cache_inductor_llm/sq/csql4ki2eqwsbsx7j6k5tovbxatjr2eobzy7yzhfsvcrfx72ytxt.py":67:35)
#loc46 = loc("/NHNHOME/WORKSPACE/26msit001_A/jinhyeok/loop_TTT/lact/.cache_inductor_llm/sq/csql4ki2eqwsbsx7j6k5tovbxatjr2eobzy7yzhfsvcrfx72ytxt.py":67:77)
#loc47 = loc("/NHNHOME/WORKSPACE/26msit001_A/jinhyeok/loop_TTT/lact/.cache_inductor_llm/sq/csql4ki2eqwsbsx7j6k5tovbxatjr2eobzy7yzhfsvcrfx72ytxt.py":67:145)
#loc48 = loc("/NHNHOME/WORKSPACE/26msit001_A/jinhyeok/loop_TTT/lact/.cache_inductor_llm/sq/csql4ki2eqwsbsx7j6k5tovbxatjr2eobzy7yzhfsvcrfx72ytxt.py":69:24)
#loc49 = loc("/NHNHOME/WORKSPACE/26msit001_A/jinhyeok/loop_TTT/lact/.cache_inductor_llm/sq/csql4ki2eqwsbsx7j6k5tovbxatjr2eobzy7yzhfsvcrfx72ytxt.py":70:24)
#loc50 = loc("/NHNHOME/WORKSPACE/26msit001_A/jinhyeok/loop_TTT/lact/.cache_inductor_llm/sq/csql4ki2eqwsbsx7j6k5tovbxatjr2eobzy7yzhfsvcrfx72ytxt.py":72:38)
#loc51 = loc("/NHNHOME/WORKSPACE/26msit001_A/jinhyeok/loop_TTT/lact/.cache_inductor_llm/sq/csql4ki2eqwsbsx7j6k5tovbxatjr2eobzy7yzhfsvcrfx72ytxt.py":74:25)
#loc52 = loc("/NHNHOME/WORKSPACE/26msit001_A/jinhyeok/loop_TTT/lact/.cache_inductor_llm/sq/csql4ki2eqwsbsx7j6k5tovbxatjr2eobzy7yzhfsvcrfx72ytxt.py":75:50)
#loc53 = loc("/NHNHOME/WORKSPACE/26msit001_A/jinhyeok/loop_TTT/lact/.cache_inductor_llm/sq/csql4ki2eqwsbsx7j6k5tovbxatjr2eobzy7yzhfsvcrfx72ytxt.py":75:8)
#loc54 = loc("/NHNHOME/WORKSPACE/26msit001_A/jinhyeok/TTT_camera_embedding/.venv_llm/lib/python3.12/site-packages/triton/language/standard.py":291:36)
#loc56 = loc("/NHNHOME/WORKSPACE/26msit001_A/jinhyeok/TTT_camera_embedding/.venv_llm/lib/python3.12/site-packages/triton/language/standard.py":261:15)
#loc57 = loc("/NHNHOME/WORKSPACE/26msit001_A/jinhyeok/loop_TTT/lact/.cache_inductor_llm/sq/csql4ki2eqwsbsx7j6k5tovbxatjr2eobzy7yzhfsvcrfx72ytxt.py":76:30)
#loc59 = loc("/NHNHOME/WORKSPACE/26msit001_A/jinhyeok/loop_TTT/lact/.cache_inductor_llm/sq/csql4ki2eqwsbsx7j6k5tovbxatjr2eobzy7yzhfsvcrfx72ytxt.py":77:30)
#loc61 = loc("/NHNHOME/WORKSPACE/26msit001_A/jinhyeok/loop_TTT/lact/.cache_inductor_llm/sq/csql4ki2eqwsbsx7j6k5tovbxatjr2eobzy7yzhfsvcrfx72ytxt.py":78:30)
#loc62 = loc("/NHNHOME/WORKSPACE/26msit001_A/jinhyeok/loop_TTT/lact/.cache_inductor_llm/sq/csql4ki2eqwsbsx7j6k5tovbxatjr2eobzy7yzhfsvcrfx72ytxt.py":79:25)
#loc63 = loc("/NHNHOME/WORKSPACE/26msit001_A/jinhyeok/loop_TTT/lact/.cache_inductor_llm/sq/csql4ki2eqwsbsx7j6k5tovbxatjr2eobzy7yzhfsvcrfx72ytxt.py":79:37)
#loc64 = loc("/NHNHOME/WORKSPACE/26msit001_A/jinhyeok/loop_TTT/lact/.cache_inductor_llm/sq/csql4ki2eqwsbsx7j6k5tovbxatjr2eobzy7yzhfsvcrfx72ytxt.py":80:25)
#loc65 = loc("/NHNHOME/WORKSPACE/26msit001_A/jinhyeok/loop_TTT/lact/.cache_inductor_llm/sq/csql4ki2eqwsbsx7j6k5tovbxatjr2eobzy7yzhfsvcrfx72ytxt.py":80:37)
#loc66 = loc("/NHNHOME/WORKSPACE/26msit001_A/jinhyeok/loop_TTT/lact/.cache_inductor_llm/sq/csql4ki2eqwsbsx7j6k5tovbxatjr2eobzy7yzhfsvcrfx72ytxt.py":81:25)
#loc67 = loc("/NHNHOME/WORKSPACE/26msit001_A/jinhyeok/loop_TTT/lact/.cache_inductor_llm/sq/csql4ki2eqwsbsx7j6k5tovbxatjr2eobzy7yzhfsvcrfx72ytxt.py":81:37)
#loc68 = loc("/NHNHOME/WORKSPACE/26msit001_A/jinhyeok/loop_TTT/lact/.cache_inductor_llm/sq/csql4ki2eqwsbsx7j6k5tovbxatjr2eobzy7yzhfsvcrfx72ytxt.py":81:4)
#loc81 = loc("xmask"(#loc2))
#loc82 = loc("xoffset"(#loc4))
#loc83 = loc("r0_base"(#loc5))
#loc84 = loc("r0_base"(#loc6))
#loc85 = loc("x0"(#loc7))
#loc86 = loc("x1"(#loc8))
#loc87 = loc("_tmp14"(#loc3))
#loc88 = loc("r0_index"(#loc9))
#loc89 = loc("r0_mask"(#loc10))
#loc90 = loc("tmp0"(#loc11))
#loc91 = loc("tmp0"(#loc12))
#loc92 = loc("tmp2"(#loc13))
#loc93 = loc("tmp3"(#loc14))
#loc94 = loc("tmp3"(#loc15))
#loc95 = loc("tmp3"(#loc16))
#loc96 = loc("tmp3"(#loc17))
#loc97 = loc("tmp3"(#loc18))
#loc98 = loc("tmp3"(#loc19))
#loc99 = loc("tmp3"(#loc20))
#loc100 = loc("tmp4"(#loc21))
#loc101 = loc("tmp4"(#loc22))
#loc102 = loc("tmp4"(#loc23))
#loc103 = loc("tmp6"(#loc24))
#loc104 = loc("tmp6"(#loc25))
#loc105 = loc("tmp8"(#loc26))
#loc106 = loc("tmp9"(#loc27))
#loc107 = loc("tmp10"(#loc28))
#loc108 = loc("tmp12"(#loc29))
#loc109 = loc("tmp15"(#loc30))
#loc110 = loc("_tmp14"(#loc31))
#loc111 = loc("_tmp14"(#loc32))
#loc112 = loc("tmp16"(#loc33))
#loc113 = loc("tmp16"(#loc34))
#loc114 = loc("tmp17"(#loc35))
#loc115 = loc("tmp17"(#loc36))
#loc116 = loc("tmp17"(#loc37))
#loc117 = loc("tmp19"(#loc38))
#loc118 = loc("tmp20"(#loc39))
#loc119 = loc("tmp22"(#loc40))
#loc120 = loc("tmp25"(#loc41))
#loc121 = loc("_tmp24"(#loc42))
#loc122 = loc("tmp26"(#loc43))
#loc123 = loc("tmp26"(#loc44))
#loc124 = loc("tmp27"(#loc45))
#loc125 = loc("tmp27"(#loc46))
#loc126 = loc("tmp27"(#loc47))
#loc127 = loc("tmp29"(#loc48))
#loc128 = loc("tmp30"(#loc49))
#loc129 = loc("tmp32"(#loc50))
#loc130 = loc("tmp35"(#loc51))
#loc131 = loc("_tmp34"(#loc52))
#loc133 = loc("tmp14"(#loc57))
#loc135 = loc("tmp24"(#loc59))
#loc137 = loc("tmp34"(#loc61))
#loc138 = loc("_tmp24"(#loc87))
#loc139 = loc(fused[#loc91, #loc90])
#loc140 = loc(fused[#loc95, #loc93])
#loc141 = loc(fused[#loc98, #loc81])
#loc142 = loc(callsite(#loc54 at #loc132))
#loc144 = loc(callsite(#loc54 at #loc134))
#loc146 = loc(callsite(#loc54 at #loc136))
#loc148 = loc("_tmp34"(#loc138))
#loc149 = loc(callsite(#loc56 at #loc142))
#loc150 = loc(callsite(#loc56 at #loc144))
#loc151 = loc(callsite(#loc56 at #loc146))
