#loc = loc("/NHNHOME/WORKSPACE/26msit001_A/jinhyeok/loop_TTT/lact/.cache_inductor_llm/d6/cd6e3a5uqvywefumkpptfbq26cxolj4daffwqboprswjosvnxw4w.py":18:0)
#loc22 = loc("in_ptr0"(#loc))
#loc23 = loc("in_ptr1"(#loc))
#loc24 = loc("out_ptr0"(#loc))
#loc25 = loc("xnumel"(#loc))
module {
  tt.func public @triton_poi_fused_mul_silu_30(%in_ptr0: !tt.ptr<bf16> {tt.divisibility = 16 : i32} loc("in_ptr0"(#loc)), %in_ptr1: !tt.ptr<bf16> {tt.divisibility = 16 : i32} loc("in_ptr1"(#loc)), %out_ptr0: !tt.ptr<bf16> {tt.divisibility = 16 : i32} loc("out_ptr0"(#loc)), %xnumel: i32 {tt.divisibility = 16 : i32} loc("xnumel"(#loc))) attributes {noinline = false} {
    %tmp3 = arith.constant dense<0.000000e+00> : tensor<1024xf32> loc(#loc39)
    %tmp3_0 = arith.constant dense<1.000000e+00> : tensor<1024xf32> loc(#loc40)
    %c1024_i32 = arith.constant 1024 : i32 loc(#loc3)
    %xoffset = tt.get_program_id x : i32 loc(#loc27)
    %xoffset_1 = arith.muli %xoffset, %c1024_i32 : i32 loc(#loc28)
    %xindex = tt.make_range {end = 1024 : i32, start = 0 : i32} : tensor<1024xi32> loc(#loc29)
    %xindex_2 = tt.splat %xoffset_1 : i32 -> tensor<1024xi32> loc(#loc30)
    %xindex_3 = arith.addi %xindex_2, %xindex : tensor<1024xi32> loc(#loc30)
    %tmp0 = tt.splat %in_ptr0 : !tt.ptr<bf16> -> tensor<1024x!tt.ptr<bf16>> loc(#loc31)
    %tmp0_4 = tt.addptr %tmp0, %xindex_3 : tensor<1024x!tt.ptr<bf16>>, tensor<1024xi32> loc(#loc31)
    %tmp0_5 = tt.load %tmp0_4 : tensor<1024x!tt.ptr<bf16>> loc(#loc32)
    %tmp0_6 = arith.extf %tmp0_5 : tensor<1024xbf16> to tensor<1024xf32> loc(#loc33)
    %tmp1 = tt.splat %in_ptr1 : !tt.ptr<bf16> -> tensor<1024x!tt.ptr<bf16>> loc(#loc34)
    %tmp1_7 = tt.addptr %tmp1, %xindex_3 : tensor<1024x!tt.ptr<bf16>>, tensor<1024xi32> loc(#loc34)
    %tmp1_8 = tt.load %tmp1_7 : tensor<1024x!tt.ptr<bf16>> loc(#loc35)
    %tmp1_9 = arith.extf %tmp1_8 : tensor<1024xbf16> to tensor<1024xf32> loc(#loc36)
    %tmp3_10 = arith.subf %tmp3, %tmp1_9 : tensor<1024xf32> loc(#loc39)
    %tmp3_11 = math.exp %tmp3_10 : tensor<1024xf32> loc(#loc41)
    %tmp3_12 = arith.addf %tmp3_11, %tmp3_0 : tensor<1024xf32> loc(#loc42)
    %tmp3_13 = arith.divf %tmp3_0, %tmp3_12 : tensor<1024xf32> loc(#loc43)
    %tmp4 = arith.mulf %tmp1_9, %tmp3_13 : tensor<1024xf32> loc(#loc37)
    %tmp6 = arith.mulf %tmp0_6, %tmp4 : tensor<1024xf32> loc(#loc38)
    %0 = tt.splat %out_ptr0 : !tt.ptr<bf16> -> tensor<1024x!tt.ptr<bf16>> loc(#loc19)
    %1 = tt.addptr %0, %xindex_3 : tensor<1024x!tt.ptr<bf16>>, tensor<1024xi32> loc(#loc19)
    %2 = arith.truncf %tmp6 : tensor<1024xf32> to tensor<1024xbf16> loc(#loc20)
    tt.store %1, %2 : tensor<1024x!tt.ptr<bf16>> loc(#loc20)
    tt.return loc(#loc21)
  } loc(#loc)
} loc(#loc)
#loc1 = loc("/NHNHOME/WORKSPACE/26msit001_A/jinhyeok/TTT_camera_embedding/.venv_llm/lib/python3.12/site-packages/triton/language/standard.py":48:30)
#loc2 = loc("/NHNHOME/WORKSPACE/26msit001_A/jinhyeok/loop_TTT/lact/.cache_inductor_llm/d6/cd6e3a5uqvywefumkpptfbq26cxolj4daffwqboprswjosvnxw4w.py":27:22)
#loc3 = loc(unknown)
#loc4 = loc("/NHNHOME/WORKSPACE/26msit001_A/jinhyeok/loop_TTT/lact/.cache_inductor_llm/d6/cd6e3a5uqvywefumkpptfbq26cxolj4daffwqboprswjosvnxw4w.py":20:28)
#loc5 = loc("/NHNHOME/WORKSPACE/26msit001_A/jinhyeok/loop_TTT/lact/.cache_inductor_llm/d6/cd6e3a5uqvywefumkpptfbq26cxolj4daffwqboprswjosvnxw4w.py":20:33)
#loc6 = loc("/NHNHOME/WORKSPACE/26msit001_A/jinhyeok/loop_TTT/lact/.cache_inductor_llm/d6/cd6e3a5uqvywefumkpptfbq26cxolj4daffwqboprswjosvnxw4w.py":21:36)
#loc7 = loc("/NHNHOME/WORKSPACE/26msit001_A/jinhyeok/loop_TTT/lact/.cache_inductor_llm/d6/cd6e3a5uqvywefumkpptfbq26cxolj4daffwqboprswjosvnxw4w.py":21:23)
#loc8 = loc("/NHNHOME/WORKSPACE/26msit001_A/jinhyeok/loop_TTT/lact/.cache_inductor_llm/d6/cd6e3a5uqvywefumkpptfbq26cxolj4daffwqboprswjosvnxw4w.py":24:30)
#loc9 = loc("/NHNHOME/WORKSPACE/26msit001_A/jinhyeok/loop_TTT/lact/.cache_inductor_llm/d6/cd6e3a5uqvywefumkpptfbq26cxolj4daffwqboprswjosvnxw4w.py":24:35)
#loc10 = loc("/NHNHOME/WORKSPACE/26msit001_A/jinhyeok/loop_TTT/lact/.cache_inductor_llm/d6/cd6e3a5uqvywefumkpptfbq26cxolj4daffwqboprswjosvnxw4w.py":24:44)
#loc11 = loc("/NHNHOME/WORKSPACE/26msit001_A/jinhyeok/loop_TTT/lact/.cache_inductor_llm/d6/cd6e3a5uqvywefumkpptfbq26cxolj4daffwqboprswjosvnxw4w.py":25:30)
#loc12 = loc("/NHNHOME/WORKSPACE/26msit001_A/jinhyeok/loop_TTT/lact/.cache_inductor_llm/d6/cd6e3a5uqvywefumkpptfbq26cxolj4daffwqboprswjosvnxw4w.py":25:35)
#loc13 = loc("/NHNHOME/WORKSPACE/26msit001_A/jinhyeok/loop_TTT/lact/.cache_inductor_llm/d6/cd6e3a5uqvywefumkpptfbq26cxolj4daffwqboprswjosvnxw4w.py":25:44)
#loc14 = loc("/NHNHOME/WORKSPACE/26msit001_A/jinhyeok/TTT_camera_embedding/.venv_llm/lib/python3.12/site-packages/triton/language/standard.py":48:29)
#loc15 = loc("/NHNHOME/WORKSPACE/26msit001_A/jinhyeok/TTT_camera_embedding/.venv_llm/lib/python3.12/site-packages/triton/language/standard.py":48:20)
#loc16 = loc("/NHNHOME/WORKSPACE/26msit001_A/jinhyeok/TTT_camera_embedding/.venv_llm/lib/python3.12/site-packages/triton/language/standard.py":48:16)
#loc17 = loc("/NHNHOME/WORKSPACE/26msit001_A/jinhyeok/loop_TTT/lact/.cache_inductor_llm/d6/cd6e3a5uqvywefumkpptfbq26cxolj4daffwqboprswjosvnxw4w.py":28:18)
#loc18 = loc("/NHNHOME/WORKSPACE/26msit001_A/jinhyeok/loop_TTT/lact/.cache_inductor_llm/d6/cd6e3a5uqvywefumkpptfbq26cxolj4daffwqboprswjosvnxw4w.py":30:18)
#loc19 = loc("/NHNHOME/WORKSPACE/26msit001_A/jinhyeok/loop_TTT/lact/.cache_inductor_llm/d6/cd6e3a5uqvywefumkpptfbq26cxolj4daffwqboprswjosvnxw4w.py":31:25)
#loc20 = loc("/NHNHOME/WORKSPACE/26msit001_A/jinhyeok/loop_TTT/lact/.cache_inductor_llm/d6/cd6e3a5uqvywefumkpptfbq26cxolj4daffwqboprswjosvnxw4w.py":31:36)
#loc21 = loc("/NHNHOME/WORKSPACE/26msit001_A/jinhyeok/loop_TTT/lact/.cache_inductor_llm/d6/cd6e3a5uqvywefumkpptfbq26cxolj4daffwqboprswjosvnxw4w.py":31:4)
#loc26 = loc("tmp3"(#loc2))
#loc27 = loc("xoffset"(#loc4))
#loc28 = loc("xoffset"(#loc5))
#loc29 = loc("xindex"(#loc6))
#loc30 = loc("xindex"(#loc7))
#loc31 = loc("tmp0"(#loc8))
#loc32 = loc("tmp0"(#loc9))
#loc33 = loc("tmp0"(#loc10))
#loc34 = loc("tmp1"(#loc11))
#loc35 = loc("tmp1"(#loc12))
#loc36 = loc("tmp1"(#loc13))
#loc37 = loc("tmp4"(#loc17))
#loc38 = loc("tmp6"(#loc18))
#loc39 = loc(callsite(#loc1 at #loc26))
#loc40 = loc(callsite(#loc3 at #loc26))
#loc41 = loc(callsite(#loc14 at #loc26))
#loc42 = loc(callsite(#loc15 at #loc26))
#loc43 = loc(callsite(#loc16 at #loc26))
