#loc = loc("/NHNHOME/WORKSPACE/26msit001_A/jinhyeok/loop_TTT/lact/.cache_inductor_llm/gh/cgh3g3prvufv6aunpsyoszn6ehy3ioz5x6uy6q7y35hum3rf6niw.py":18:0)
#loc51 = loc("in_ptr0"(#loc))
#loc52 = loc("in_ptr1"(#loc))
#loc53 = loc("in_ptr2"(#loc))
#loc54 = loc("out_ptr0"(#loc))
#loc55 = loc("out_ptr1"(#loc))
#loc56 = loc("out_ptr2"(#loc))
#loc57 = loc("ynumel"(#loc))
#loc58 = loc("xnumel"(#loc))
module {
  tt.func public @triton_poi_fused__to_copy_add_div_linalg_vector_norm_mean_mul_slice_transpose_zeros_like_7(%in_ptr0: !tt.ptr<bf16> {tt.divisibility = 16 : i32} loc("in_ptr0"(#loc)), %in_ptr1: !tt.ptr<f32> {tt.divisibility = 16 : i32} loc("in_ptr1"(#loc)), %in_ptr2: !tt.ptr<f32> {tt.divisibility = 16 : i32} loc("in_ptr2"(#loc)), %out_ptr0: !tt.ptr<bf16> {tt.divisibility = 16 : i32} loc("out_ptr0"(#loc)), %out_ptr1: !tt.ptr<bf16> {tt.divisibility = 16 : i32} loc("out_ptr1"(#loc)), %out_ptr2: !tt.ptr<bf16> {tt.divisibility = 16 : i32} loc("out_ptr2"(#loc)), %ynumel: i32 {tt.divisibility = 16 : i32} loc("ynumel"(#loc)), %xnumel: i32 {tt.divisibility = 16 : i32} loc("xnumel"(#loc))) attributes {noinline = false} {
    %tmp13 = arith.constant dense<1.000000e-07> : tensor<64x1xf32> loc(#loc59)
    %tmp6 = arith.constant dense<0.000000e+00> : tensor<64x1xf32> loc(#loc60)
    %tmp4 = arith.constant dense<1.024000e+03> : tensor<64x1xf32> loc(#loc61)
    %tmp16 = arith.constant dense<36864> : tensor<64x1xi32> loc(#loc62)
    %cst = arith.constant dense<192> : tensor<64x1xi32> loc(#loc5)
    %cst_0 = arith.constant dense<192> : tensor<1x64xi32> loc(#loc5)
    %c64_i32 = arith.constant 64 : i32 loc(#loc5)
    %yoffset = tt.get_program_id y : i32 loc(#loc63)
    %yoffset_1 = tt.get_program_id z : i32 loc(#loc64)
    %yoffset_2 = tt.get_num_programs y : i32 loc(#loc65)
    %yoffset_3 = arith.muli %yoffset_1, %yoffset_2 : i32 loc(#loc66)
    %yoffset_4 = arith.addi %yoffset, %yoffset_3 : i32 loc(#loc67)
    %yoffset_5 = arith.muli %yoffset_4, %c64_i32 : i32 loc(#loc68)
    %yindex = tt.make_range {end = 64 : i32, start = 0 : i32} : tensor<64xi32> loc(#loc69)
    %yindex_6 = tt.expand_dims %yindex {axis = 1 : i32} : tensor<64xi32> -> tensor<64x1xi32> loc(#loc70)
    %yindex_7 = tt.splat %yoffset_5 : i32 -> tensor<64x1xi32> loc(#loc71)
    %yindex_8 = arith.addi %yindex_7, %yindex_6 : tensor<64x1xi32> loc(#loc71)
    %ymask = tt.splat %ynumel : i32 -> tensor<64x1xi32> loc(#loc72)
    %ymask_9 = arith.cmpi slt, %yindex_8, %ymask : tensor<64x1xi32> loc(#loc72)
    %xoffset = tt.get_program_id x : i32 loc(#loc73)
    %xoffset_10 = arith.muli %xoffset, %c64_i32 : i32 loc(#loc74)
    %xindex = tt.expand_dims %yindex {axis = 0 : i32} : tensor<64xi32> -> tensor<1x64xi32> loc(#loc75)
    %xindex_11 = tt.splat %xoffset_10 : i32 -> tensor<1x64xi32> loc(#loc76)
    %xindex_12 = arith.addi %xindex_11, %xindex : tensor<1x64xi32> loc(#loc76)
    %xmask = arith.cmpi slt, %xindex_12, %cst_0 : tensor<1x64xi32> loc(#loc77)
    %y1 = arith.divsi %yindex_8, %cst : tensor<64x1xi32> loc(#loc78)
    %y0 = arith.remsi %yindex_8, %cst : tensor<64x1xi32> loc(#loc79)
    %tmp0 = arith.muli %yindex_8, %cst : tensor<64x1xi32> loc(#loc80)
    %tmp0_13 = tt.broadcast %xindex_12 : tensor<1x64xi32> -> tensor<64x64xi32> loc(#loc81)
    %tmp0_14 = tt.broadcast %tmp0 : tensor<64x1xi32> -> tensor<64x64xi32> loc(#loc81)
    %tmp0_15 = arith.addi %tmp0_13, %tmp0_14 : tensor<64x64xi32> loc(#loc81)
    %tmp0_16 = tt.splat %in_ptr0 : !tt.ptr<bf16> -> tensor<64x64x!tt.ptr<bf16>> loc(#loc82)
    %tmp0_17 = tt.addptr %tmp0_16, %tmp0_15 : tensor<64x64x!tt.ptr<bf16>>, tensor<64x64xi32> loc(#loc82)
    %tmp0_18 = tt.broadcast %xmask : tensor<1x64xi1> -> tensor<64x64xi1> loc(#loc83)
    %tmp0_19 = tt.broadcast %ymask_9 : tensor<64x1xi1> -> tensor<64x64xi1> loc(#loc83)
    %tmp0_20 = arith.andi %tmp0_18, %tmp0_19 : tensor<64x64xi1> loc(#loc83)
    %tmp0_21 = tt.load %tmp0_17, %tmp0_20 evictionPolicy = evict_last : tensor<64x64x!tt.ptr<bf16>> loc(#loc84)
    %tmp0_22 = arith.extf %tmp0_21 : tensor<64x64xbf16> to tensor<64x64xf32> loc(#loc85)
    %tmp2 = tt.splat %in_ptr1 : !tt.ptr<f32> -> tensor<64x1x!tt.ptr<f32>> loc(#loc86)
    %tmp2_23 = tt.addptr %tmp2, %y1 : tensor<64x1x!tt.ptr<f32>>, tensor<64x1xi32> loc(#loc86)
    %tmp2_24 = tt.load %tmp2_23, %ymask_9 evictionPolicy = evict_last : tensor<64x1x!tt.ptr<f32>> loc(#loc87)
    %tmp10 = tt.splat %in_ptr2 : !tt.ptr<f32> -> tensor<64x1x!tt.ptr<f32>> loc(#loc88)
    %tmp10_25 = tt.addptr %tmp10, %y1 : tensor<64x1x!tt.ptr<f32>>, tensor<64x1xi32> loc(#loc88)
    %tmp10_26 = tt.load %tmp10_25, %ymask_9 evictionPolicy = evict_last : tensor<64x1x!tt.ptr<f32>> loc(#loc89)
    %tmp16_27 = arith.muli %xindex_12, %cst_0 : tensor<1x64xi32> loc(#loc90)
    %tmp16_28 = tt.broadcast %y0 : tensor<64x1xi32> -> tensor<64x64xi32> loc(#loc91)
    %tmp16_29 = tt.broadcast %tmp16_27 : tensor<1x64xi32> -> tensor<64x64xi32> loc(#loc91)
    %tmp16_30 = arith.addi %tmp16_28, %tmp16_29 : tensor<64x64xi32> loc(#loc91)
    %tmp16_31 = arith.muli %y1, %tmp16 : tensor<64x1xi32> loc(#loc62)
    %tmp16_32 = tt.broadcast %tmp16_31 : tensor<64x1xi32> -> tensor<64x64xi32> loc(#loc92)
    %tmp16_33 = arith.addi %tmp16_30, %tmp16_32 : tensor<64x64xi32> loc(#loc92)
    %tmp16_34 = tt.addptr %tmp0_16, %tmp16_33 : tensor<64x64x!tt.ptr<bf16>>, tensor<64x64xi32> loc(#loc93)
    %tmp16_35 = tt.load %tmp16_34, %tmp0_20 evictionPolicy = evict_last : tensor<64x64x!tt.ptr<bf16>> loc(#loc94)
    %tmp16_36 = arith.extf %tmp16_35 : tensor<64x64xbf16> to tensor<64x64xf32> loc(#loc95)
    %tmp4_37 = arith.divf %tmp2_24, %tmp4 : tensor<64x1xf32> loc(#loc61)
    %tmp6_38 = arith.mulf %tmp4_37, %tmp6 : tensor<64x1xf32> loc(#loc60)
    %tmp7 = tt.broadcast %tmp6_38 : tensor<64x1xf32> -> tensor<64x64xf32> loc(#loc96)
    %tmp7_39 = arith.addf %tmp0_22, %tmp7 : tensor<64x64xf32> loc(#loc96)
    %tmp11 = tt.extern_elementwise %tmp10_26 {libname = "", libpath = "", pure = true, symbol = "__nv_sqrtf"} : (tensor<64x1xf32>) -> tensor<64x1xf32> loc(#loc97)
    %tmp13_40 = arith.addf %tmp11, %tmp13 : tensor<64x1xf32> loc(#loc59)
    %tmp14 = tt.broadcast %tmp13_40 : tensor<64x1xf32> -> tensor<64x64xf32> loc(#loc98)
    %tmp14_41 = arith.divf %tmp7_39, %tmp14 : tensor<64x64xf32> loc(#loc98)
    %tmp18 = arith.addf %tmp16_36, %tmp7 : tensor<64x64xf32> loc(#loc99)
    %tmp21 = arith.divf %tmp18, %tmp14 : tensor<64x64xf32> loc(#loc100)
    %0 = tt.splat %out_ptr0 : !tt.ptr<bf16> -> tensor<64x64x!tt.ptr<bf16>> loc(#loc44)
    %1 = tt.addptr %0, %tmp0_15 : tensor<64x64x!tt.ptr<bf16>>, tensor<64x64xi32> loc(#loc44)
    %2 = arith.truncf %tmp14_41 : tensor<64x64xf32> to tensor<64x64xbf16> loc(#loc45)
    tt.store %1, %2, %tmp0_20 : tensor<64x64x!tt.ptr<bf16>> loc(#loc45)
    %3 = tt.splat %out_ptr1 : !tt.ptr<bf16> -> tensor<64x64x!tt.ptr<bf16>> loc(#loc46)
    %4 = tt.addptr %3, %tmp0_15 : tensor<64x64x!tt.ptr<bf16>>, tensor<64x64xi32> loc(#loc46)
    tt.store %4, %2, %tmp0_20 : tensor<64x64x!tt.ptr<bf16>> loc(#loc47)
    %5 = tt.splat %out_ptr2 : !tt.ptr<bf16> -> tensor<64x64x!tt.ptr<bf16>> loc(#loc48)
    %6 = tt.addptr %5, %tmp0_15 : tensor<64x64x!tt.ptr<bf16>>, tensor<64x64xi32> loc(#loc48)
    %7 = arith.truncf %tmp21 : tensor<64x64xf32> to tensor<64x64xbf16> loc(#loc49)
    tt.store %6, %7, %tmp0_20 : tensor<64x64x!tt.ptr<bf16>> loc(#loc49)
    tt.return loc(#loc50)
  } loc(#loc)
} loc(#loc)
#loc1 = loc("/NHNHOME/WORKSPACE/26msit001_A/jinhyeok/loop_TTT/lact/.cache_inductor_llm/gh/cgh3g3prvufv6aunpsyoszn6ehy3ioz5x6uy6q7y35hum3rf6niw.py":44:20)
#loc2 = loc("/NHNHOME/WORKSPACE/26msit001_A/jinhyeok/loop_TTT/lact/.cache_inductor_llm/gh/cgh3g3prvufv6aunpsyoszn6ehy3ioz5x6uy6q7y35hum3rf6niw.py":38:18)
#loc3 = loc("/NHNHOME/WORKSPACE/26msit001_A/jinhyeok/loop_TTT/lact/.cache_inductor_llm/gh/cgh3g3prvufv6aunpsyoszn6ehy3ioz5x6uy6q7y35hum3rf6niw.py":36:19)
#loc4 = loc("/NHNHOME/WORKSPACE/26msit001_A/jinhyeok/loop_TTT/lact/.cache_inductor_llm/gh/cgh3g3prvufv6aunpsyoszn6ehy3ioz5x6uy6q7y35hum3rf6niw.py":33:51)
#loc5 = loc(unknown)
#loc6 = loc("/NHNHOME/WORKSPACE/26msit001_A/jinhyeok/loop_TTT/lact/.cache_inductor_llm/gh/cgh3g3prvufv6aunpsyoszn6ehy3ioz5x6uy6q7y35hum3rf6niw.py":20:29)
#loc7 = loc("/NHNHOME/WORKSPACE/26msit001_A/jinhyeok/loop_TTT/lact/.cache_inductor_llm/gh/cgh3g3prvufv6aunpsyoszn6ehy3ioz5x6uy6q7y35hum3rf6niw.py":20:48)
#loc8 = loc("/NHNHOME/WORKSPACE/26msit001_A/jinhyeok/loop_TTT/lact/.cache_inductor_llm/gh/cgh3g3prvufv6aunpsyoszn6ehy3ioz5x6uy6q7y35hum3rf6niw.py":20:69)
#loc9 = loc("/NHNHOME/WORKSPACE/26msit001_A/jinhyeok/loop_TTT/lact/.cache_inductor_llm/gh/cgh3g3prvufv6aunpsyoszn6ehy3ioz5x6uy6q7y35hum3rf6niw.py":20:53)
#loc10 = loc("/NHNHOME/WORKSPACE/26msit001_A/jinhyeok/loop_TTT/lact/.cache_inductor_llm/gh/cgh3g3prvufv6aunpsyoszn6ehy3ioz5x6uy6q7y35hum3rf6niw.py":20:34)
#loc11 = loc("/NHNHOME/WORKSPACE/26msit001_A/jinhyeok/loop_TTT/lact/.cache_inductor_llm/gh/cgh3g3prvufv6aunpsyoszn6ehy3ioz5x6uy6q7y35hum3rf6niw.py":20:75)
#loc12 = loc("/NHNHOME/WORKSPACE/26msit001_A/jinhyeok/loop_TTT/lact/.cache_inductor_llm/gh/cgh3g3prvufv6aunpsyoszn6ehy3ioz5x6uy6q7y35hum3rf6niw.py":21:36)
#loc13 = loc("/NHNHOME/WORKSPACE/26msit001_A/jinhyeok/loop_TTT/lact/.cache_inductor_llm/gh/cgh3g3prvufv6aunpsyoszn6ehy3ioz5x6uy6q7y35hum3rf6niw.py":21:44)
#loc14 = loc("/NHNHOME/WORKSPACE/26msit001_A/jinhyeok/loop_TTT/lact/.cache_inductor_llm/gh/cgh3g3prvufv6aunpsyoszn6ehy3ioz5x6uy6q7y35hum3rf6niw.py":21:23)
#loc15 = loc("/NHNHOME/WORKSPACE/26msit001_A/jinhyeok/loop_TTT/lact/.cache_inductor_llm/gh/cgh3g3prvufv6aunpsyoszn6ehy3ioz5x6uy6q7y35hum3rf6niw.py":22:21)
#loc16 = loc("/NHNHOME/WORKSPACE/26msit001_A/jinhyeok/loop_TTT/lact/.cache_inductor_llm/gh/cgh3g3prvufv6aunpsyoszn6ehy3ioz5x6uy6q7y35hum3rf6niw.py":23:28)
#loc17 = loc("/NHNHOME/WORKSPACE/26msit001_A/jinhyeok/loop_TTT/lact/.cache_inductor_llm/gh/cgh3g3prvufv6aunpsyoszn6ehy3ioz5x6uy6q7y35hum3rf6niw.py":23:33)
#loc18 = loc("/NHNHOME/WORKSPACE/26msit001_A/jinhyeok/loop_TTT/lact/.cache_inductor_llm/gh/cgh3g3prvufv6aunpsyoszn6ehy3ioz5x6uy6q7y35hum3rf6niw.py":24:44)
#loc19 = loc("/NHNHOME/WORKSPACE/26msit001_A/jinhyeok/loop_TTT/lact/.cache_inductor_llm/gh/cgh3g3prvufv6aunpsyoszn6ehy3ioz5x6uy6q7y35hum3rf6niw.py":24:23)
#loc20 = loc("/NHNHOME/WORKSPACE/26msit001_A/jinhyeok/loop_TTT/lact/.cache_inductor_llm/gh/cgh3g3prvufv6aunpsyoszn6ehy3ioz5x6uy6q7y35hum3rf6niw.py":25:21)
#loc21 = loc("/NHNHOME/WORKSPACE/26msit001_A/jinhyeok/loop_TTT/lact/.cache_inductor_llm/gh/cgh3g3prvufv6aunpsyoszn6ehy3ioz5x6uy6q7y35hum3rf6niw.py":28:19)
#loc22 = loc("/NHNHOME/WORKSPACE/26msit001_A/jinhyeok/loop_TTT/lact/.cache_inductor_llm/gh/cgh3g3prvufv6aunpsyoszn6ehy3ioz5x6uy6q7y35hum3rf6niw.py":29:19)
#loc23 = loc("/NHNHOME/WORKSPACE/26msit001_A/jinhyeok/loop_TTT/lact/.cache_inductor_llm/gh/cgh3g3prvufv6aunpsyoszn6ehy3ioz5x6uy6q7y35hum3rf6niw.py":30:39)
#loc24 = loc("/NHNHOME/WORKSPACE/26msit001_A/jinhyeok/loop_TTT/lact/.cache_inductor_llm/gh/cgh3g3prvufv6aunpsyoszn6ehy3ioz5x6uy6q7y35hum3rf6niw.py":30:35)
#loc25 = loc("/NHNHOME/WORKSPACE/26msit001_A/jinhyeok/loop_TTT/lact/.cache_inductor_llm/gh/cgh3g3prvufv6aunpsyoszn6ehy3ioz5x6uy6q7y35hum3rf6niw.py":30:30)
#loc26 = loc("/NHNHOME/WORKSPACE/26msit001_A/jinhyeok/loop_TTT/lact/.cache_inductor_llm/gh/cgh3g3prvufv6aunpsyoszn6ehy3ioz5x6uy6q7y35hum3rf6niw.py":30:52)
#loc27 = loc("/NHNHOME/WORKSPACE/26msit001_A/jinhyeok/loop_TTT/lact/.cache_inductor_llm/gh/cgh3g3prvufv6aunpsyoszn6ehy3ioz5x6uy6q7y35hum3rf6niw.py":30:44)
#loc28 = loc("/NHNHOME/WORKSPACE/26msit001_A/jinhyeok/loop_TTT/lact/.cache_inductor_llm/gh/cgh3g3prvufv6aunpsyoszn6ehy3ioz5x6uy6q7y35hum3rf6niw.py":30:92)
#loc29 = loc("/NHNHOME/WORKSPACE/26msit001_A/jinhyeok/loop_TTT/lact/.cache_inductor_llm/gh/cgh3g3prvufv6aunpsyoszn6ehy3ioz5x6uy6q7y35hum3rf6niw.py":31:30)
#loc30 = loc("/NHNHOME/WORKSPACE/26msit001_A/jinhyeok/loop_TTT/lact/.cache_inductor_llm/gh/cgh3g3prvufv6aunpsyoszn6ehy3ioz5x6uy6q7y35hum3rf6niw.py":31:35)
#loc31 = loc("/NHNHOME/WORKSPACE/26msit001_A/jinhyeok/loop_TTT/lact/.cache_inductor_llm/gh/cgh3g3prvufv6aunpsyoszn6ehy3ioz5x6uy6q7y35hum3rf6niw.py":32:31)
#loc32 = loc("/NHNHOME/WORKSPACE/26msit001_A/jinhyeok/loop_TTT/lact/.cache_inductor_llm/gh/cgh3g3prvufv6aunpsyoszn6ehy3ioz5x6uy6q7y35hum3rf6niw.py":32:36)
#loc33 = loc("/NHNHOME/WORKSPACE/26msit001_A/jinhyeok/loop_TTT/lact/.cache_inductor_llm/gh/cgh3g3prvufv6aunpsyoszn6ehy3ioz5x6uy6q7y35hum3rf6niw.py":33:40)
#loc34 = loc("/NHNHOME/WORKSPACE/26msit001_A/jinhyeok/loop_TTT/lact/.cache_inductor_llm/gh/cgh3g3prvufv6aunpsyoszn6ehy3ioz5x6uy6q7y35hum3rf6niw.py":33:36)
#loc35 = loc("/NHNHOME/WORKSPACE/26msit001_A/jinhyeok/loop_TTT/lact/.cache_inductor_llm/gh/cgh3g3prvufv6aunpsyoszn6ehy3ioz5x6uy6q7y35hum3rf6niw.py":33:45)
#loc36 = loc("/NHNHOME/WORKSPACE/26msit001_A/jinhyeok/loop_TTT/lact/.cache_inductor_llm/gh/cgh3g3prvufv6aunpsyoszn6ehy3ioz5x6uy6q7y35hum3rf6niw.py":33:31)
#loc37 = loc("/NHNHOME/WORKSPACE/26msit001_A/jinhyeok/loop_TTT/lact/.cache_inductor_llm/gh/cgh3g3prvufv6aunpsyoszn6ehy3ioz5x6uy6q7y35hum3rf6niw.py":33:56)
#loc38 = loc("/NHNHOME/WORKSPACE/26msit001_A/jinhyeok/loop_TTT/lact/.cache_inductor_llm/gh/cgh3g3prvufv6aunpsyoszn6ehy3ioz5x6uy6q7y35hum3rf6niw.py":33:104)
#loc39 = loc("/NHNHOME/WORKSPACE/26msit001_A/jinhyeok/loop_TTT/lact/.cache_inductor_llm/gh/cgh3g3prvufv6aunpsyoszn6ehy3ioz5x6uy6q7y35hum3rf6niw.py":39:18)
#loc40 = loc("/NHNHOME/WORKSPACE/26msit001_A/jinhyeok/loop_TTT/lact/.cache_inductor_llm/gh/cgh3g3prvufv6aunpsyoszn6ehy3ioz5x6uy6q7y35hum3rf6niw.py":42:27)
#loc41 = loc("/NHNHOME/WORKSPACE/26msit001_A/jinhyeok/loop_TTT/lact/.cache_inductor_llm/gh/cgh3g3prvufv6aunpsyoszn6ehy3ioz5x6uy6q7y35hum3rf6niw.py":45:20)
#loc42 = loc("/NHNHOME/WORKSPACE/26msit001_A/jinhyeok/loop_TTT/lact/.cache_inductor_llm/gh/cgh3g3prvufv6aunpsyoszn6ehy3ioz5x6uy6q7y35hum3rf6niw.py":48:20)
#loc43 = loc("/NHNHOME/WORKSPACE/26msit001_A/jinhyeok/loop_TTT/lact/.cache_inductor_llm/gh/cgh3g3prvufv6aunpsyoszn6ehy3ioz5x6uy6q7y35hum3rf6niw.py":51:21)
#loc44 = loc("/NHNHOME/WORKSPACE/26msit001_A/jinhyeok/loop_TTT/lact/.cache_inductor_llm/gh/cgh3g3prvufv6aunpsyoszn6ehy3ioz5x6uy6q7y35hum3rf6niw.py":53:25)
#loc45 = loc("/NHNHOME/WORKSPACE/26msit001_A/jinhyeok/loop_TTT/lact/.cache_inductor_llm/gh/cgh3g3prvufv6aunpsyoszn6ehy3ioz5x6uy6q7y35hum3rf6niw.py":53:46)
#loc46 = loc("/NHNHOME/WORKSPACE/26msit001_A/jinhyeok/loop_TTT/lact/.cache_inductor_llm/gh/cgh3g3prvufv6aunpsyoszn6ehy3ioz5x6uy6q7y35hum3rf6niw.py":54:25)
#loc47 = loc("/NHNHOME/WORKSPACE/26msit001_A/jinhyeok/loop_TTT/lact/.cache_inductor_llm/gh/cgh3g3prvufv6aunpsyoszn6ehy3ioz5x6uy6q7y35hum3rf6niw.py":54:46)
#loc48 = loc("/NHNHOME/WORKSPACE/26msit001_A/jinhyeok/loop_TTT/lact/.cache_inductor_llm/gh/cgh3g3prvufv6aunpsyoszn6ehy3ioz5x6uy6q7y35hum3rf6niw.py":55:25)
#loc49 = loc("/NHNHOME/WORKSPACE/26msit001_A/jinhyeok/loop_TTT/lact/.cache_inductor_llm/gh/cgh3g3prvufv6aunpsyoszn6ehy3ioz5x6uy6q7y35hum3rf6niw.py":55:46)
#loc50 = loc("/NHNHOME/WORKSPACE/26msit001_A/jinhyeok/loop_TTT/lact/.cache_inductor_llm/gh/cgh3g3prvufv6aunpsyoszn6ehy3ioz5x6uy6q7y35hum3rf6niw.py":55:4)
#loc59 = loc("tmp13"(#loc1))
#loc60 = loc("tmp6"(#loc2))
#loc61 = loc("tmp4"(#loc3))
#loc62 = loc("tmp16"(#loc4))
#loc63 = loc("yoffset"(#loc6))
#loc64 = loc("yoffset"(#loc7))
#loc65 = loc("yoffset"(#loc8))
#loc66 = loc("yoffset"(#loc9))
#loc67 = loc("yoffset"(#loc10))
#loc68 = loc("yoffset"(#loc11))
#loc69 = loc("yindex"(#loc12))
#loc70 = loc("yindex"(#loc13))
#loc71 = loc("yindex"(#loc14))
#loc72 = loc("ymask"(#loc15))
#loc73 = loc("xoffset"(#loc16))
#loc74 = loc("xoffset"(#loc17))
#loc75 = loc("xindex"(#loc18))
#loc76 = loc("xindex"(#loc19))
#loc77 = loc("xmask"(#loc20))
#loc78 = loc("y1"(#loc21))
#loc79 = loc("y0"(#loc22))
#loc80 = loc("tmp0"(#loc23))
#loc81 = loc("tmp0"(#loc24))
#loc82 = loc("tmp0"(#loc25))
#loc83 = loc("tmp0"(#loc26))
#loc84 = loc("tmp0"(#loc27))
#loc85 = loc("tmp0"(#loc28))
#loc86 = loc("tmp2"(#loc29))
#loc87 = loc("tmp2"(#loc30))
#loc88 = loc("tmp10"(#loc31))
#loc89 = loc("tmp10"(#loc32))
#loc90 = loc("tmp16"(#loc33))
#loc91 = loc("tmp16"(#loc34))
#loc92 = loc("tmp16"(#loc35))
#loc93 = loc("tmp16"(#loc36))
#loc94 = loc("tmp16"(#loc37))
#loc95 = loc("tmp16"(#loc38))
#loc96 = loc("tmp7"(#loc39))
#loc97 = loc("tmp11"(#loc40))
#loc98 = loc("tmp14"(#loc41))
#loc99 = loc("tmp18"(#loc42))
#loc100 = loc("tmp21"(#loc43))
