#loc = loc("/NHNHOME/WORKSPACE/26msit001_A/jinhyeok/loop_TTT/lact/.cache_inductor_llm/gw/cgwb5dllk2zgksdlaprjmfxsakzvhptahlvljhxr3buy3m4g4chv.py":18:0)
#loc47 = loc("in_out_ptr0"(#loc))
#loc48 = loc("in_ptr0"(#loc))
#loc49 = loc("in_ptr1"(#loc))
#loc50 = loc("in_ptr2"(#loc))
#loc51 = loc("in_ptr3"(#loc))
#loc52 = loc("in_ptr4"(#loc))
#loc53 = loc("in_ptr5"(#loc))
#loc54 = loc("in_ptr6"(#loc))
#loc55 = loc("ynumel"(#loc))
#loc56 = loc("xnumel"(#loc))
module {
  tt.func public @triton_poi_fused__to_copy_add_div_eq_masked_fill_mul_42(%in_out_ptr0: !tt.ptr<bf16> {tt.divisibility = 16 : i32} loc("in_out_ptr0"(#loc)), %in_ptr0: !tt.ptr<bf16> {tt.divisibility = 16 : i32} loc("in_ptr0"(#loc)), %in_ptr1: !tt.ptr<bf16> {tt.divisibility = 16 : i32} loc("in_ptr1"(#loc)), %in_ptr2: !tt.ptr<f32> {tt.divisibility = 16 : i32} loc("in_ptr2"(#loc)), %in_ptr3: !tt.ptr<f32> {tt.divisibility = 16 : i32} loc("in_ptr3"(#loc)), %in_ptr4: !tt.ptr<f32> {tt.divisibility = 16 : i32} loc("in_ptr4"(#loc)), %in_ptr5: !tt.ptr<f32> {tt.divisibility = 16 : i32} loc("in_ptr5"(#loc)), %in_ptr6: !tt.ptr<bf16> {tt.divisibility = 16 : i32} loc("in_ptr6"(#loc)), %ynumel: i32 {tt.divisibility = 16 : i32} loc("ynumel"(#loc)), %xnumel: i32 {tt.divisibility = 16 : i32} loc("xnumel"(#loc))) attributes {noinline = false} {
    %tmp16 = arith.constant dense<0.000000e+00> : tensor<256x16xf32> loc(#loc57)
    %tmp12 = arith.constant dense<0.000000e+00> : tensor<256x1xf32> loc(#loc58)
    %cst = arith.constant dense<192> : tensor<256x1xi32> loc(#loc3)
    %xmask = arith.constant dense<192> : tensor<1x16xi32> loc(#loc59)
    %c16_i32 = arith.constant 16 : i32 loc(#loc3)
    %c256_i32 = arith.constant 256 : i32 loc(#loc3)
    %yoffset = tt.get_program_id y : i32 loc(#loc60)
    %yoffset_0 = arith.muli %yoffset, %c256_i32 : i32 loc(#loc61)
    %yindex = tt.make_range {end = 256 : i32, start = 0 : i32} : tensor<256xi32> loc(#loc62)
    %yindex_1 = tt.expand_dims %yindex {axis = 1 : i32} : tensor<256xi32> -> tensor<256x1xi32> loc(#loc63)
    %yindex_2 = tt.splat %yoffset_0 : i32 -> tensor<256x1xi32> loc(#loc64)
    %yindex_3 = arith.addi %yindex_2, %yindex_1 : tensor<256x1xi32> loc(#loc64)
    %xoffset = tt.get_program_id x : i32 loc(#loc65)
    %xoffset_4 = arith.muli %xoffset, %c16_i32 : i32 loc(#loc66)
    %xindex = tt.make_range {end = 16 : i32, start = 0 : i32} : tensor<16xi32> loc(#loc67)
    %xindex_5 = tt.expand_dims %xindex {axis = 0 : i32} : tensor<16xi32> -> tensor<1x16xi32> loc(#loc68)
    %xindex_6 = tt.splat %xoffset_4 : i32 -> tensor<1x16xi32> loc(#loc69)
    %xindex_7 = arith.addi %xindex_6, %xindex_5 : tensor<1x16xi32> loc(#loc69)
    %xmask_8 = arith.cmpi slt, %xindex_7, %xmask : tensor<1x16xi32> loc(#loc59)
    %tmp0 = arith.muli %yindex_3, %cst : tensor<256x1xi32> loc(#loc70)
    %tmp0_9 = tt.broadcast %xindex_7 : tensor<1x16xi32> -> tensor<256x16xi32> loc(#loc71)
    %tmp0_10 = tt.broadcast %tmp0 : tensor<256x1xi32> -> tensor<256x16xi32> loc(#loc71)
    %tmp0_11 = arith.addi %tmp0_9, %tmp0_10 : tensor<256x16xi32> loc(#loc71)
    %tmp0_12 = tt.splat %in_out_ptr0 : !tt.ptr<bf16> -> tensor<256x16x!tt.ptr<bf16>> loc(#loc72)
    %tmp0_13 = tt.addptr %tmp0_12, %tmp0_11 : tensor<256x16x!tt.ptr<bf16>>, tensor<256x16xi32> loc(#loc72)
    %tmp0_14 = tt.broadcast %xmask_8 : tensor<1x16xi1> -> tensor<256x16xi1> loc(#loc73)
    %tmp0_15 = tt.load %tmp0_13, %tmp0_14 evictionPolicy = evict_last : tensor<256x16x!tt.ptr<bf16>> loc(#loc73)
    %tmp0_16 = arith.extf %tmp0_15 : tensor<256x16xbf16> to tensor<256x16xf32> loc(#loc74)
    %tmp1 = tt.splat %in_ptr0 : !tt.ptr<bf16> -> tensor<256x16x!tt.ptr<bf16>> loc(#loc75)
    %tmp1_17 = tt.addptr %tmp1, %tmp0_11 : tensor<256x16x!tt.ptr<bf16>>, tensor<256x16xi32> loc(#loc75)
    %tmp1_18 = tt.load %tmp1_17, %tmp0_14 evictionPolicy = evict_last : tensor<256x16x!tt.ptr<bf16>> loc(#loc76)
    %tmp1_19 = arith.extf %tmp1_18 : tensor<256x16xbf16> to tensor<256x16xf32> loc(#loc77)
    %tmp3 = tt.splat %in_ptr1 : !tt.ptr<bf16> -> tensor<256x16x!tt.ptr<bf16>> loc(#loc78)
    %tmp3_20 = tt.addptr %tmp3, %tmp0_11 : tensor<256x16x!tt.ptr<bf16>>, tensor<256x16xi32> loc(#loc78)
    %tmp3_21 = tt.load %tmp3_20, %tmp0_14 evictionPolicy = evict_last : tensor<256x16x!tt.ptr<bf16>> loc(#loc79)
    %tmp3_22 = arith.extf %tmp3_21 : tensor<256x16xbf16> to tensor<256x16xf32> loc(#loc80)
    %tmp5 = tt.splat %in_ptr2 : !tt.ptr<f32> -> tensor<256x1x!tt.ptr<f32>> loc(#loc81)
    %tmp5_23 = tt.addptr %tmp5, %yindex_3 : tensor<256x1x!tt.ptr<f32>>, tensor<256x1xi32> loc(#loc81)
    %tmp5_24 = tt.load %tmp5_23 evictionPolicy = evict_last : tensor<256x1x!tt.ptr<f32>> loc(#loc82)
    %tmp6 = tt.splat %in_ptr3 : !tt.ptr<f32> -> tensor<256x1x!tt.ptr<f32>> loc(#loc83)
    %tmp6_25 = tt.addptr %tmp6, %yindex_3 : tensor<256x1x!tt.ptr<f32>>, tensor<256x1xi32> loc(#loc83)
    %tmp6_26 = tt.load %tmp6_25 evictionPolicy = evict_last : tensor<256x1x!tt.ptr<f32>> loc(#loc84)
    %tmp8 = tt.splat %in_ptr4 : !tt.ptr<f32> -> tensor<256x1x!tt.ptr<f32>> loc(#loc85)
    %tmp8_27 = tt.addptr %tmp8, %yindex_3 : tensor<256x1x!tt.ptr<f32>>, tensor<256x1xi32> loc(#loc85)
    %tmp8_28 = tt.load %tmp8_27 evictionPolicy = evict_last : tensor<256x1x!tt.ptr<f32>> loc(#loc86)
    %tmp10 = tt.splat %in_ptr5 : !tt.ptr<f32> -> tensor<256x1x!tt.ptr<f32>> loc(#loc87)
    %tmp10_29 = tt.addptr %tmp10, %yindex_3 : tensor<256x1x!tt.ptr<f32>>, tensor<256x1xi32> loc(#loc87)
    %tmp10_30 = tt.load %tmp10_29 evictionPolicy = evict_last : tensor<256x1x!tt.ptr<f32>> loc(#loc88)
    %tmp13 = tt.splat %in_ptr6 : !tt.ptr<bf16> -> tensor<256x16x!tt.ptr<bf16>> loc(#loc89)
    %tmp13_31 = tt.addptr %tmp13, %tmp0_11 : tensor<256x16x!tt.ptr<bf16>>, tensor<256x16xi32> loc(#loc89)
    %tmp13_32 = tt.load %tmp13_31, %tmp0_14 evictionPolicy = evict_last : tensor<256x16x!tt.ptr<bf16>> loc(#loc90)
    %tmp13_33 = arith.extf %tmp13_32 : tensor<256x16xbf16> to tensor<256x16xf32> loc(#loc91)
    %tmp2 = arith.addf %tmp0_16, %tmp1_19 : tensor<256x16xf32> loc(#loc92)
    %tmp4 = arith.addf %tmp2, %tmp3_22 : tensor<256x16xf32> loc(#loc93)
    %tmp7 = arith.addf %tmp5_24, %tmp6_26 : tensor<256x1xf32> loc(#loc94)
    %tmp9 = arith.addf %tmp7, %tmp8_28 : tensor<256x1xf32> loc(#loc95)
    %tmp12_34 = arith.cmpf oeq, %tmp10_30, %tmp12 : tensor<256x1xf32> loc(#loc58)
    %tmp15 = tt.broadcast %tmp10_30 : tensor<256x1xf32> -> tensor<256x16xf32> loc(#loc96)
    %tmp15_35 = arith.divf %tmp13_33, %tmp15 : tensor<256x16xf32> loc(#loc96)
    %tmp16_36 = tt.broadcast %tmp12_34 : tensor<256x1xi1> -> tensor<256x16xi1> loc(#loc57)
    %tmp16_37 = arith.select %tmp16_36, %tmp16, %tmp15_35 : tensor<256x16xi1>, tensor<256x16xf32> loc(#loc57)
    %tmp17 = tt.broadcast %tmp9 : tensor<256x1xf32> -> tensor<256x16xf32> loc(#loc97)
    %tmp17_38 = arith.mulf %tmp17, %tmp16_37 : tensor<256x16xf32> loc(#loc97)
    %tmp19 = arith.addf %tmp4, %tmp17_38 : tensor<256x16xf32> loc(#loc98)
    gpu.barrier loc(#loc44)
    %0 = arith.truncf %tmp19 : tensor<256x16xf32> to tensor<256x16xbf16> loc(#loc45)
    tt.store %tmp0_13, %0, %tmp0_14 : tensor<256x16x!tt.ptr<bf16>> loc(#loc45)
    tt.return loc(#loc46)
  } loc(#loc)
} loc(#loc)
#loc1 = loc("/NHNHOME/WORKSPACE/26msit001_A/jinhyeok/loop_TTT/lact/.cache_inductor_llm/gw/cgwb5dllk2zgksdlaprjmfxsakzvhptahlvljhxr3buy3m4g4chv.py":45:35)
#loc2 = loc("/NHNHOME/WORKSPACE/26msit001_A/jinhyeok/loop_TTT/lact/.cache_inductor_llm/gw/cgwb5dllk2zgksdlaprjmfxsakzvhptahlvljhxr3buy3m4g4chv.py":42:21)
#loc3 = loc(unknown)
#loc4 = loc("/NHNHOME/WORKSPACE/26msit001_A/jinhyeok/loop_TTT/lact/.cache_inductor_llm/gw/cgwb5dllk2zgksdlaprjmfxsakzvhptahlvljhxr3buy3m4g4chv.py":26:21)
#loc5 = loc("/NHNHOME/WORKSPACE/26msit001_A/jinhyeok/loop_TTT/lact/.cache_inductor_llm/gw/cgwb5dllk2zgksdlaprjmfxsakzvhptahlvljhxr3buy3m4g4chv.py":21:28)
#loc6 = loc("/NHNHOME/WORKSPACE/26msit001_A/jinhyeok/loop_TTT/lact/.cache_inductor_llm/gw/cgwb5dllk2zgksdlaprjmfxsakzvhptahlvljhxr3buy3m4g4chv.py":21:33)
#loc7 = loc("/NHNHOME/WORKSPACE/26msit001_A/jinhyeok/loop_TTT/lact/.cache_inductor_llm/gw/cgwb5dllk2zgksdlaprjmfxsakzvhptahlvljhxr3buy3m4g4chv.py":22:36)
#loc8 = loc("/NHNHOME/WORKSPACE/26msit001_A/jinhyeok/loop_TTT/lact/.cache_inductor_llm/gw/cgwb5dllk2zgksdlaprjmfxsakzvhptahlvljhxr3buy3m4g4chv.py":22:44)
#loc9 = loc("/NHNHOME/WORKSPACE/26msit001_A/jinhyeok/loop_TTT/lact/.cache_inductor_llm/gw/cgwb5dllk2zgksdlaprjmfxsakzvhptahlvljhxr3buy3m4g4chv.py":22:23)
#loc10 = loc("/NHNHOME/WORKSPACE/26msit001_A/jinhyeok/loop_TTT/lact/.cache_inductor_llm/gw/cgwb5dllk2zgksdlaprjmfxsakzvhptahlvljhxr3buy3m4g4chv.py":24:28)
#loc11 = loc("/NHNHOME/WORKSPACE/26msit001_A/jinhyeok/loop_TTT/lact/.cache_inductor_llm/gw/cgwb5dllk2zgksdlaprjmfxsakzvhptahlvljhxr3buy3m4g4chv.py":24:33)
#loc12 = loc("/NHNHOME/WORKSPACE/26msit001_A/jinhyeok/loop_TTT/lact/.cache_inductor_llm/gw/cgwb5dllk2zgksdlaprjmfxsakzvhptahlvljhxr3buy3m4g4chv.py":25:36)
#loc13 = loc("/NHNHOME/WORKSPACE/26msit001_A/jinhyeok/loop_TTT/lact/.cache_inductor_llm/gw/cgwb5dllk2zgksdlaprjmfxsakzvhptahlvljhxr3buy3m4g4chv.py":25:44)
#loc14 = loc("/NHNHOME/WORKSPACE/26msit001_A/jinhyeok/loop_TTT/lact/.cache_inductor_llm/gw/cgwb5dllk2zgksdlaprjmfxsakzvhptahlvljhxr3buy3m4g4chv.py":25:23)
#loc15 = loc("/NHNHOME/WORKSPACE/26msit001_A/jinhyeok/loop_TTT/lact/.cache_inductor_llm/gw/cgwb5dllk2zgksdlaprjmfxsakzvhptahlvljhxr3buy3m4g4chv.py":29:43)
#loc16 = loc("/NHNHOME/WORKSPACE/26msit001_A/jinhyeok/loop_TTT/lact/.cache_inductor_llm/gw/cgwb5dllk2zgksdlaprjmfxsakzvhptahlvljhxr3buy3m4g4chv.py":29:39)
#loc17 = loc("/NHNHOME/WORKSPACE/26msit001_A/jinhyeok/loop_TTT/lact/.cache_inductor_llm/gw/cgwb5dllk2zgksdlaprjmfxsakzvhptahlvljhxr3buy3m4g4chv.py":29:34)
#loc18 = loc("/NHNHOME/WORKSPACE/26msit001_A/jinhyeok/loop_TTT/lact/.cache_inductor_llm/gw/cgwb5dllk2zgksdlaprjmfxsakzvhptahlvljhxr3buy3m4g4chv.py":29:48)
#loc19 = loc("/NHNHOME/WORKSPACE/26msit001_A/jinhyeok/loop_TTT/lact/.cache_inductor_llm/gw/cgwb5dllk2zgksdlaprjmfxsakzvhptahlvljhxr3buy3m4g4chv.py":29:88)
#loc20 = loc("/NHNHOME/WORKSPACE/26msit001_A/jinhyeok/loop_TTT/lact/.cache_inductor_llm/gw/cgwb5dllk2zgksdlaprjmfxsakzvhptahlvljhxr3buy3m4g4chv.py":30:30)
#loc21 = loc("/NHNHOME/WORKSPACE/26msit001_A/jinhyeok/loop_TTT/lact/.cache_inductor_llm/gw/cgwb5dllk2zgksdlaprjmfxsakzvhptahlvljhxr3buy3m4g4chv.py":30:44)
#loc22 = loc("/NHNHOME/WORKSPACE/26msit001_A/jinhyeok/loop_TTT/lact/.cache_inductor_llm/gw/cgwb5dllk2zgksdlaprjmfxsakzvhptahlvljhxr3buy3m4g4chv.py":30:84)
#loc23 = loc("/NHNHOME/WORKSPACE/26msit001_A/jinhyeok/loop_TTT/lact/.cache_inductor_llm/gw/cgwb5dllk2zgksdlaprjmfxsakzvhptahlvljhxr3buy3m4g4chv.py":31:30)
#loc24 = loc("/NHNHOME/WORKSPACE/26msit001_A/jinhyeok/loop_TTT/lact/.cache_inductor_llm/gw/cgwb5dllk2zgksdlaprjmfxsakzvhptahlvljhxr3buy3m4g4chv.py":31:44)
#loc25 = loc("/NHNHOME/WORKSPACE/26msit001_A/jinhyeok/loop_TTT/lact/.cache_inductor_llm/gw/cgwb5dllk2zgksdlaprjmfxsakzvhptahlvljhxr3buy3m4g4chv.py":31:84)
#loc26 = loc("/NHNHOME/WORKSPACE/26msit001_A/jinhyeok/loop_TTT/lact/.cache_inductor_llm/gw/cgwb5dllk2zgksdlaprjmfxsakzvhptahlvljhxr3buy3m4g4chv.py":32:30)
#loc27 = loc("/NHNHOME/WORKSPACE/26msit001_A/jinhyeok/loop_TTT/lact/.cache_inductor_llm/gw/cgwb5dllk2zgksdlaprjmfxsakzvhptahlvljhxr3buy3m4g4chv.py":32:35)
#loc28 = loc("/NHNHOME/WORKSPACE/26msit001_A/jinhyeok/loop_TTT/lact/.cache_inductor_llm/gw/cgwb5dllk2zgksdlaprjmfxsakzvhptahlvljhxr3buy3m4g4chv.py":33:30)
#loc29 = loc("/NHNHOME/WORKSPACE/26msit001_A/jinhyeok/loop_TTT/lact/.cache_inductor_llm/gw/cgwb5dllk2zgksdlaprjmfxsakzvhptahlvljhxr3buy3m4g4chv.py":33:35)
#loc30 = loc("/NHNHOME/WORKSPACE/26msit001_A/jinhyeok/loop_TTT/lact/.cache_inductor_llm/gw/cgwb5dllk2zgksdlaprjmfxsakzvhptahlvljhxr3buy3m4g4chv.py":34:30)
#loc31 = loc("/NHNHOME/WORKSPACE/26msit001_A/jinhyeok/loop_TTT/lact/.cache_inductor_llm/gw/cgwb5dllk2zgksdlaprjmfxsakzvhptahlvljhxr3buy3m4g4chv.py":34:35)
#loc32 = loc("/NHNHOME/WORKSPACE/26msit001_A/jinhyeok/loop_TTT/lact/.cache_inductor_llm/gw/cgwb5dllk2zgksdlaprjmfxsakzvhptahlvljhxr3buy3m4g4chv.py":35:31)
#loc33 = loc("/NHNHOME/WORKSPACE/26msit001_A/jinhyeok/loop_TTT/lact/.cache_inductor_llm/gw/cgwb5dllk2zgksdlaprjmfxsakzvhptahlvljhxr3buy3m4g4chv.py":35:36)
#loc34 = loc("/NHNHOME/WORKSPACE/26msit001_A/jinhyeok/loop_TTT/lact/.cache_inductor_llm/gw/cgwb5dllk2zgksdlaprjmfxsakzvhptahlvljhxr3buy3m4g4chv.py":36:31)
#loc35 = loc("/NHNHOME/WORKSPACE/26msit001_A/jinhyeok/loop_TTT/lact/.cache_inductor_llm/gw/cgwb5dllk2zgksdlaprjmfxsakzvhptahlvljhxr3buy3m4g4chv.py":36:45)
#loc36 = loc("/NHNHOME/WORKSPACE/26msit001_A/jinhyeok/loop_TTT/lact/.cache_inductor_llm/gw/cgwb5dllk2zgksdlaprjmfxsakzvhptahlvljhxr3buy3m4g4chv.py":36:85)
#loc37 = loc("/NHNHOME/WORKSPACE/26msit001_A/jinhyeok/loop_TTT/lact/.cache_inductor_llm/gw/cgwb5dllk2zgksdlaprjmfxsakzvhptahlvljhxr3buy3m4g4chv.py":37:18)
#loc38 = loc("/NHNHOME/WORKSPACE/26msit001_A/jinhyeok/loop_TTT/lact/.cache_inductor_llm/gw/cgwb5dllk2zgksdlaprjmfxsakzvhptahlvljhxr3buy3m4g4chv.py":38:18)
#loc39 = loc("/NHNHOME/WORKSPACE/26msit001_A/jinhyeok/loop_TTT/lact/.cache_inductor_llm/gw/cgwb5dllk2zgksdlaprjmfxsakzvhptahlvljhxr3buy3m4g4chv.py":39:18)
#loc40 = loc("/NHNHOME/WORKSPACE/26msit001_A/jinhyeok/loop_TTT/lact/.cache_inductor_llm/gw/cgwb5dllk2zgksdlaprjmfxsakzvhptahlvljhxr3buy3m4g4chv.py":40:18)
#loc41 = loc("/NHNHOME/WORKSPACE/26msit001_A/jinhyeok/loop_TTT/lact/.cache_inductor_llm/gw/cgwb5dllk2zgksdlaprjmfxsakzvhptahlvljhxr3buy3m4g4chv.py":44:21)
#loc42 = loc("/NHNHOME/WORKSPACE/26msit001_A/jinhyeok/loop_TTT/lact/.cache_inductor_llm/gw/cgwb5dllk2zgksdlaprjmfxsakzvhptahlvljhxr3buy3m4g4chv.py":46:19)
#loc43 = loc("/NHNHOME/WORKSPACE/26msit001_A/jinhyeok/loop_TTT/lact/.cache_inductor_llm/gw/cgwb5dllk2zgksdlaprjmfxsakzvhptahlvljhxr3buy3m4g4chv.py":48:19)
#loc44 = loc("/NHNHOME/WORKSPACE/26msit001_A/jinhyeok/loop_TTT/lact/.cache_inductor_llm/gw/cgwb5dllk2zgksdlaprjmfxsakzvhptahlvljhxr3buy3m4g4chv.py":49:4)
#loc45 = loc("/NHNHOME/WORKSPACE/26msit001_A/jinhyeok/loop_TTT/lact/.cache_inductor_llm/gw/cgwb5dllk2zgksdlaprjmfxsakzvhptahlvljhxr3buy3m4g4chv.py":50:49)
#loc46 = loc("/NHNHOME/WORKSPACE/26msit001_A/jinhyeok/loop_TTT/lact/.cache_inductor_llm/gw/cgwb5dllk2zgksdlaprjmfxsakzvhptahlvljhxr3buy3m4g4chv.py":50:4)
#loc57 = loc("tmp16"(#loc1))
#loc58 = loc("tmp12"(#loc2))
#loc59 = loc("xmask"(#loc4))
#loc60 = loc("yoffset"(#loc5))
#loc61 = loc("yoffset"(#loc6))
#loc62 = loc("yindex"(#loc7))
#loc63 = loc("yindex"(#loc8))
#loc64 = loc("yindex"(#loc9))
#loc65 = loc("xoffset"(#loc10))
#loc66 = loc("xoffset"(#loc11))
#loc67 = loc("xindex"(#loc12))
#loc68 = loc("xindex"(#loc13))
#loc69 = loc("xindex"(#loc14))
#loc70 = loc("tmp0"(#loc15))
#loc71 = loc("tmp0"(#loc16))
#loc72 = loc("tmp0"(#loc17))
#loc73 = loc("tmp0"(#loc18))
#loc74 = loc("tmp0"(#loc19))
#loc75 = loc("tmp1"(#loc20))
#loc76 = loc("tmp1"(#loc21))
#loc77 = loc("tmp1"(#loc22))
#loc78 = loc("tmp3"(#loc23))
#loc79 = loc("tmp3"(#loc24))
#loc80 = loc("tmp3"(#loc25))
#loc81 = loc("tmp5"(#loc26))
#loc82 = loc("tmp5"(#loc27))
#loc83 = loc("tmp6"(#loc28))
#loc84 = loc("tmp6"(#loc29))
#loc85 = loc("tmp8"(#loc30))
#loc86 = loc("tmp8"(#loc31))
#loc87 = loc("tmp10"(#loc32))
#loc88 = loc("tmp10"(#loc33))
#loc89 = loc("tmp13"(#loc34))
#loc90 = loc("tmp13"(#loc35))
#loc91 = loc("tmp13"(#loc36))
#loc92 = loc("tmp2"(#loc37))
#loc93 = loc("tmp4"(#loc38))
#loc94 = loc("tmp7"(#loc39))
#loc95 = loc("tmp9"(#loc40))
#loc96 = loc("tmp15"(#loc41))
#loc97 = loc("tmp17"(#loc42))
#loc98 = loc("tmp19"(#loc43))
