#loc = loc("/NHNHOME/WORKSPACE/26msit001_A/jinhyeok/loop_TTT/lact/.cache_inductor_llm/qi/cqiz7324crjb3bpef5bmckmmi6yz6j2vq3cr4j5whdnepdu3ehws.py":18:0)
#loc35 = loc("in_ptr0"(#loc))
#loc36 = loc("in_ptr1"(#loc))
#loc37 = loc("in_ptr2"(#loc))
#loc38 = loc("out_ptr0"(#loc))
#loc39 = loc("out_ptr1"(#loc))
#loc40 = loc("xnumel"(#loc))
module {
  tt.func public @triton_poi_fused__to_copy_mul_slice_54(%in_ptr0: !tt.ptr<f32> {tt.divisibility = 16 : i32} loc("in_ptr0"(#loc)), %in_ptr1: !tt.ptr<f32> {tt.divisibility = 16 : i32} loc("in_ptr1"(#loc)), %in_ptr2: !tt.ptr<f32> loc("in_ptr2"(#loc)), %out_ptr0: !tt.ptr<bf16> {tt.divisibility = 16 : i32} loc("out_ptr0"(#loc)), %out_ptr1: !tt.ptr<bf16> {tt.divisibility = 16 : i32} loc("out_ptr1"(#loc)), %xnumel: i32 {tt.divisibility = 16 : i32} loc("xnumel"(#loc))) attributes {noinline = false} {
    %xnumel_0 = arith.constant 6291456 : i32 loc(#loc41)
    %xoffset = tt.get_program_id x : i32 loc(#loc42)
    %xoffset_1 = arith.constant 512 : i32 loc(#loc43)
    %xoffset_2 = arith.constant 512 : i32 loc(#loc43)
    %xoffset_3 = arith.muli %xoffset, %xoffset_2 : i32 loc(#loc43)
    %xindex = tt.make_range {end = 512 : i32, start = 0 : i32} : tensor<512xi32> loc(#loc44)
    %xindex_4 = tt.splat %xoffset_3 : i32 -> tensor<512xi32> loc(#loc45)
    %xindex_5 = arith.addi %xindex_4, %xindex : tensor<512xi32> loc(#loc45)
    %xmask = arith.constant true loc(#loc46)
    %xmask_6 = arith.constant dense<true> : tensor<512xi1> loc(#loc46)
    %x2 = arith.constant 196608 : i32 loc(#loc47)
    %x2_7 = arith.constant 196608 : i32 loc(#loc47)
    %x2_8 = arith.constant dense<196608> : tensor<512xi32> loc(#loc47)
    %x2_9 = arith.divsi %xindex_5, %x2_8 : tensor<512xi32> loc(#loc47)
    %x3 = arith.constant 196608 : i32 loc(#loc48)
    %x3_10 = arith.constant 196608 : i32 loc(#loc48)
    %x3_11 = arith.constant dense<196608> : tensor<512xi32> loc(#loc48)
    %x3_12 = arith.remsi %xindex_5, %x3_11 : tensor<512xi32> loc(#loc48)
    %x1 = arith.constant 192 : i32 loc(#loc49)
    %x1_13 = arith.constant 192 : i32 loc(#loc49)
    %x1_14 = arith.constant dense<192> : tensor<512xi32> loc(#loc49)
    %x1_15 = arith.divsi %xindex_5, %x1_14 : tensor<512xi32> loc(#loc49)
    %x1_16 = arith.constant 1024 : i32 loc(#loc50)
    %x1_17 = arith.constant 1024 : i32 loc(#loc50)
    %x1_18 = arith.constant dense<1024> : tensor<512xi32> loc(#loc50)
    %x1_19 = arith.remsi %x1_15, %x1_18 : tensor<512xi32> loc(#loc50)
    %tmp0 = arith.constant 393216 : i32 loc(#loc51)
    %tmp0_20 = arith.constant 393216 : i32 loc(#loc51)
    %tmp0_21 = arith.constant dense<393216> : tensor<512xi32> loc(#loc51)
    %tmp0_22 = arith.addi %tmp0_21, %x3_12 : tensor<512xi32> loc(#loc51)
    %tmp0_23 = arith.constant 786432 : i32 loc(#loc52)
    %tmp0_24 = arith.constant 786432 : i32 loc(#loc52)
    %tmp0_25 = arith.constant dense<786432> : tensor<512xi32> loc(#loc52)
    %tmp0_26 = arith.muli %tmp0_25, %x2_9 : tensor<512xi32> loc(#loc52)
    %tmp0_27 = arith.addi %tmp0_22, %tmp0_26 : tensor<512xi32> loc(#loc53)
    %tmp0_28 = tt.splat %in_ptr0 : !tt.ptr<f32> -> tensor<512x!tt.ptr<f32>> loc(#loc54)
    %tmp0_29 = tt.addptr %tmp0_28, %tmp0_27 : tensor<512x!tt.ptr<f32>>, tensor<512xi32> loc(#loc54)
    %tmp0_30 = tt.load %tmp0_29 : tensor<512x!tt.ptr<f32>> loc(#loc55)
    %tmp1 = arith.constant 3 : i32 loc(#loc56)
    %tmp1_31 = arith.constant 3 : i32 loc(#loc56)
    %tmp1_32 = arith.constant dense<3> : tensor<512xi32> loc(#loc56)
    %tmp1_33 = arith.muli %tmp1_32, %x1_19 : tensor<512xi32> loc(#loc56)
    %tmp1_34 = arith.constant 6144 : i32 loc(#loc57)
    %tmp1_35 = arith.constant 6144 : i32 loc(#loc57)
    %tmp1_36 = arith.constant dense<6144> : tensor<512xi32> loc(#loc57)
    %tmp1_37 = arith.addi %tmp1_36, %tmp1_33 : tensor<512xi32> loc(#loc57)
    %tmp1_38 = arith.constant 12288 : i32 loc(#loc58)
    %tmp1_39 = arith.constant 12288 : i32 loc(#loc58)
    %tmp1_40 = arith.constant dense<12288> : tensor<512xi32> loc(#loc58)
    %tmp1_41 = arith.muli %tmp1_40, %x2_9 : tensor<512xi32> loc(#loc58)
    %tmp1_42 = arith.addi %tmp1_37, %tmp1_41 : tensor<512xi32> loc(#loc59)
    %tmp1_43 = tt.splat %in_ptr1 : !tt.ptr<f32> -> tensor<512x!tt.ptr<f32>> loc(#loc60)
    %tmp1_44 = tt.addptr %tmp1_43, %tmp1_42 : tensor<512x!tt.ptr<f32>>, tensor<512xi32> loc(#loc60)
    %tmp1_45 = tt.load %tmp1_44 evictionPolicy = evict_last : tensor<512x!tt.ptr<f32>> loc(#loc61)
    %tmp4 = arith.constant 3 : i32 loc(#loc62)
    %tmp4_46 = arith.constant 3 : i32 loc(#loc62)
    %tmp4_47 = arith.constant dense<3> : tensor<512xi32> loc(#loc62)
    %tmp4_48 = arith.muli %tmp4_47, %x1_19 : tensor<512xi32> loc(#loc62)
    %tmp4_49 = arith.constant 6144 : i32 loc(#loc63)
    %tmp4_50 = arith.constant 6144 : i32 loc(#loc63)
    %tmp4_51 = arith.constant dense<6144> : tensor<512xi32> loc(#loc63)
    %tmp4_52 = arith.addi %tmp4_51, %tmp4_48 : tensor<512xi32> loc(#loc63)
    %tmp4_53 = arith.constant 12288 : i32 loc(#loc64)
    %tmp4_54 = arith.constant 12288 : i32 loc(#loc64)
    %tmp4_55 = arith.constant dense<12288> : tensor<512xi32> loc(#loc64)
    %tmp4_56 = arith.muli %tmp4_55, %x2_9 : tensor<512xi32> loc(#loc64)
    %tmp4_57 = arith.addi %tmp4_52, %tmp4_56 : tensor<512xi32> loc(#loc65)
    %tmp4_58 = tt.splat %in_ptr2 : !tt.ptr<f32> -> tensor<512x!tt.ptr<f32>> loc(#loc66)
    %tmp4_59 = tt.addptr %tmp4_58, %tmp4_57 : tensor<512x!tt.ptr<f32>>, tensor<512xi32> loc(#loc66)
    %tmp4_60 = tt.load %tmp4_59 evictionPolicy = evict_last : tensor<512x!tt.ptr<f32>> loc(#loc67)
    %tmp2 = arith.mulf %tmp0_30, %tmp1_45 : tensor<512xf32> loc(#loc68)
    %tmp5 = arith.mulf %tmp0_30, %tmp4_60 : tensor<512xf32> loc(#loc69)
    %0 = tt.splat %out_ptr0 : !tt.ptr<bf16> -> tensor<512x!tt.ptr<bf16>> loc(#loc30)
    %1 = tt.addptr %0, %xindex_5 : tensor<512x!tt.ptr<bf16>>, tensor<512xi32> loc(#loc30)
    %2 = arith.truncf %tmp2 : tensor<512xf32> to tensor<512xbf16> loc(#loc31)
    tt.store %1, %2 : tensor<512x!tt.ptr<bf16>> loc(#loc31)
    %3 = tt.splat %out_ptr1 : !tt.ptr<bf16> -> tensor<512x!tt.ptr<bf16>> loc(#loc32)
    %4 = tt.addptr %3, %xindex_5 : tensor<512x!tt.ptr<bf16>>, tensor<512xi32> loc(#loc32)
    %5 = arith.truncf %tmp5 : tensor<512xf32> to tensor<512xbf16> loc(#loc33)
    tt.store %4, %5 : tensor<512x!tt.ptr<bf16>> loc(#loc33)
    tt.return loc(#loc34)
  } loc(#loc)
} loc(#loc)
#loc1 = loc("/NHNHOME/WORKSPACE/26msit001_A/jinhyeok/loop_TTT/lact/.cache_inductor_llm/qi/cqiz7324crjb3bpef5bmckmmi6yz6j2vq3cr4j5whdnepdu3ehws.py":19:13)
#loc2 = loc("/NHNHOME/WORKSPACE/26msit001_A/jinhyeok/loop_TTT/lact/.cache_inductor_llm/qi/cqiz7324crjb3bpef5bmckmmi6yz6j2vq3cr4j5whdnepdu3ehws.py":20:28)
#loc3 = loc("/NHNHOME/WORKSPACE/26msit001_A/jinhyeok/loop_TTT/lact/.cache_inductor_llm/qi/cqiz7324crjb3bpef5bmckmmi6yz6j2vq3cr4j5whdnepdu3ehws.py":20:33)
#loc4 = loc("/NHNHOME/WORKSPACE/26msit001_A/jinhyeok/loop_TTT/lact/.cache_inductor_llm/qi/cqiz7324crjb3bpef5bmckmmi6yz6j2vq3cr4j5whdnepdu3ehws.py":21:36)
#loc5 = loc("/NHNHOME/WORKSPACE/26msit001_A/jinhyeok/loop_TTT/lact/.cache_inductor_llm/qi/cqiz7324crjb3bpef5bmckmmi6yz6j2vq3cr4j5whdnepdu3ehws.py":21:23)
#loc6 = loc("/NHNHOME/WORKSPACE/26msit001_A/jinhyeok/loop_TTT/lact/.cache_inductor_llm/qi/cqiz7324crjb3bpef5bmckmmi6yz6j2vq3cr4j5whdnepdu3ehws.py":22:36)
#loc7 = loc("/NHNHOME/WORKSPACE/26msit001_A/jinhyeok/loop_TTT/lact/.cache_inductor_llm/qi/cqiz7324crjb3bpef5bmckmmi6yz6j2vq3cr4j5whdnepdu3ehws.py":23:19)
#loc8 = loc("/NHNHOME/WORKSPACE/26msit001_A/jinhyeok/loop_TTT/lact/.cache_inductor_llm/qi/cqiz7324crjb3bpef5bmckmmi6yz6j2vq3cr4j5whdnepdu3ehws.py":24:19)
#loc9 = loc("/NHNHOME/WORKSPACE/26msit001_A/jinhyeok/loop_TTT/lact/.cache_inductor_llm/qi/cqiz7324crjb3bpef5bmckmmi6yz6j2vq3cr4j5whdnepdu3ehws.py":25:21)
#loc10 = loc("/NHNHOME/WORKSPACE/26msit001_A/jinhyeok/loop_TTT/lact/.cache_inductor_llm/qi/cqiz7324crjb3bpef5bmckmmi6yz6j2vq3cr4j5whdnepdu3ehws.py":25:28)
#loc11 = loc("/NHNHOME/WORKSPACE/26msit001_A/jinhyeok/loop_TTT/lact/.cache_inductor_llm/qi/cqiz7324crjb3bpef5bmckmmi6yz6j2vq3cr4j5whdnepdu3ehws.py":27:39)
#loc12 = loc("/NHNHOME/WORKSPACE/26msit001_A/jinhyeok/loop_TTT/lact/.cache_inductor_llm/qi/cqiz7324crjb3bpef5bmckmmi6yz6j2vq3cr4j5whdnepdu3ehws.py":27:51)
#loc13 = loc("/NHNHOME/WORKSPACE/26msit001_A/jinhyeok/loop_TTT/lact/.cache_inductor_llm/qi/cqiz7324crjb3bpef5bmckmmi6yz6j2vq3cr4j5whdnepdu3ehws.py":27:44)
#loc14 = loc("/NHNHOME/WORKSPACE/26msit001_A/jinhyeok/loop_TTT/lact/.cache_inductor_llm/qi/cqiz7324crjb3bpef5bmckmmi6yz6j2vq3cr4j5whdnepdu3ehws.py":27:30)
#loc15 = loc("/NHNHOME/WORKSPACE/26msit001_A/jinhyeok/loop_TTT/lact/.cache_inductor_llm/qi/cqiz7324crjb3bpef5bmckmmi6yz6j2vq3cr4j5whdnepdu3ehws.py":27:56)
#loc16 = loc("/NHNHOME/WORKSPACE/26msit001_A/jinhyeok/loop_TTT/lact/.cache_inductor_llm/qi/cqiz7324crjb3bpef5bmckmmi6yz6j2vq3cr4j5whdnepdu3ehws.py":28:39)
#loc17 = loc("/NHNHOME/WORKSPACE/26msit001_A/jinhyeok/loop_TTT/lact/.cache_inductor_llm/qi/cqiz7324crjb3bpef5bmckmmi6yz6j2vq3cr4j5whdnepdu3ehws.py":28:37)
#loc18 = loc("/NHNHOME/WORKSPACE/26msit001_A/jinhyeok/loop_TTT/lact/.cache_inductor_llm/qi/cqiz7324crjb3bpef5bmckmmi6yz6j2vq3cr4j5whdnepdu3ehws.py":28:50)
#loc19 = loc("/NHNHOME/WORKSPACE/26msit001_A/jinhyeok/loop_TTT/lact/.cache_inductor_llm/qi/cqiz7324crjb3bpef5bmckmmi6yz6j2vq3cr4j5whdnepdu3ehws.py":28:44)
#loc20 = loc("/NHNHOME/WORKSPACE/26msit001_A/jinhyeok/loop_TTT/lact/.cache_inductor_llm/qi/cqiz7324crjb3bpef5bmckmmi6yz6j2vq3cr4j5whdnepdu3ehws.py":28:30)
#loc21 = loc("/NHNHOME/WORKSPACE/26msit001_A/jinhyeok/loop_TTT/lact/.cache_inductor_llm/qi/cqiz7324crjb3bpef5bmckmmi6yz6j2vq3cr4j5whdnepdu3ehws.py":28:55)
#loc22 = loc("/NHNHOME/WORKSPACE/26msit001_A/jinhyeok/loop_TTT/lact/.cache_inductor_llm/qi/cqiz7324crjb3bpef5bmckmmi6yz6j2vq3cr4j5whdnepdu3ehws.py":29:39)
#loc23 = loc("/NHNHOME/WORKSPACE/26msit001_A/jinhyeok/loop_TTT/lact/.cache_inductor_llm/qi/cqiz7324crjb3bpef5bmckmmi6yz6j2vq3cr4j5whdnepdu3ehws.py":29:37)
#loc24 = loc("/NHNHOME/WORKSPACE/26msit001_A/jinhyeok/loop_TTT/lact/.cache_inductor_llm/qi/cqiz7324crjb3bpef5bmckmmi6yz6j2vq3cr4j5whdnepdu3ehws.py":29:50)
#loc25 = loc("/NHNHOME/WORKSPACE/26msit001_A/jinhyeok/loop_TTT/lact/.cache_inductor_llm/qi/cqiz7324crjb3bpef5bmckmmi6yz6j2vq3cr4j5whdnepdu3ehws.py":29:44)
#loc26 = loc("/NHNHOME/WORKSPACE/26msit001_A/jinhyeok/loop_TTT/lact/.cache_inductor_llm/qi/cqiz7324crjb3bpef5bmckmmi6yz6j2vq3cr4j5whdnepdu3ehws.py":29:30)
#loc27 = loc("/NHNHOME/WORKSPACE/26msit001_A/jinhyeok/loop_TTT/lact/.cache_inductor_llm/qi/cqiz7324crjb3bpef5bmckmmi6yz6j2vq3cr4j5whdnepdu3ehws.py":29:55)
#loc28 = loc("/NHNHOME/WORKSPACE/26msit001_A/jinhyeok/loop_TTT/lact/.cache_inductor_llm/qi/cqiz7324crjb3bpef5bmckmmi6yz6j2vq3cr4j5whdnepdu3ehws.py":30:18)
#loc29 = loc("/NHNHOME/WORKSPACE/26msit001_A/jinhyeok/loop_TTT/lact/.cache_inductor_llm/qi/cqiz7324crjb3bpef5bmckmmi6yz6j2vq3cr4j5whdnepdu3ehws.py":32:18)
#loc30 = loc("/NHNHOME/WORKSPACE/26msit001_A/jinhyeok/loop_TTT/lact/.cache_inductor_llm/qi/cqiz7324crjb3bpef5bmckmmi6yz6j2vq3cr4j5whdnepdu3ehws.py":34:25)
#loc31 = loc("/NHNHOME/WORKSPACE/26msit001_A/jinhyeok/loop_TTT/lact/.cache_inductor_llm/qi/cqiz7324crjb3bpef5bmckmmi6yz6j2vq3cr4j5whdnepdu3ehws.py":34:36)
#loc32 = loc("/NHNHOME/WORKSPACE/26msit001_A/jinhyeok/loop_TTT/lact/.cache_inductor_llm/qi/cqiz7324crjb3bpef5bmckmmi6yz6j2vq3cr4j5whdnepdu3ehws.py":35:25)
#loc33 = loc("/NHNHOME/WORKSPACE/26msit001_A/jinhyeok/loop_TTT/lact/.cache_inductor_llm/qi/cqiz7324crjb3bpef5bmckmmi6yz6j2vq3cr4j5whdnepdu3ehws.py":35:36)
#loc34 = loc("/NHNHOME/WORKSPACE/26msit001_A/jinhyeok/loop_TTT/lact/.cache_inductor_llm/qi/cqiz7324crjb3bpef5bmckmmi6yz6j2vq3cr4j5whdnepdu3ehws.py":35:4)
#loc41 = loc("xnumel"(#loc1))
#loc42 = loc("xoffset"(#loc2))
#loc43 = loc("xoffset"(#loc3))
#loc44 = loc("xindex"(#loc4))
#loc45 = loc("xindex"(#loc5))
#loc46 = loc("xmask"(#loc6))
#loc47 = loc("x2"(#loc7))
#loc48 = loc("x3"(#loc8))
#loc49 = loc("x1"(#loc9))
#loc50 = loc("x1"(#loc10))
#loc51 = loc("tmp0"(#loc11))
#loc52 = loc("tmp0"(#loc12))
#loc53 = loc("tmp0"(#loc13))
#loc54 = loc("tmp0"(#loc14))
#loc55 = loc("tmp0"(#loc15))
#loc56 = loc("tmp1"(#loc16))
#loc57 = loc("tmp1"(#loc17))
#loc58 = loc("tmp1"(#loc18))
#loc59 = loc("tmp1"(#loc19))
#loc60 = loc("tmp1"(#loc20))
#loc61 = loc("tmp1"(#loc21))
#loc62 = loc("tmp4"(#loc22))
#loc63 = loc("tmp4"(#loc23))
#loc64 = loc("tmp4"(#loc24))
#loc65 = loc("tmp4"(#loc25))
#loc66 = loc("tmp4"(#loc26))
#loc67 = loc("tmp4"(#loc27))
#loc68 = loc("tmp2"(#loc28))
#loc69 = loc("tmp5"(#loc29))
