#loc = loc("/NHNHOME/WORKSPACE/26msit001_A/jinhyeok/loop_TTT/lact/.cache_inductor_llm/os/coszab2tpgpwhu5vsvhearp56rhl2rbhs32xk4zocgpabk4mplfl.py":18:0)
#loc38 = loc("/NHNHOME/WORKSPACE/26msit001_A/jinhyeok/TTT_camera_embedding/.venv_llm/lib/python3.12/site-packages/triton/language/standard.py":285:0)
#loc40 = loc(unknown)
#loc43 = loc("/NHNHOME/WORKSPACE/26msit001_A/jinhyeok/TTT_camera_embedding/.venv_llm/lib/python3.12/site-packages/triton/language/standard.py":260:0)
#loc47 = loc("in_out_ptr0"(#loc))
#loc48 = loc("in_ptr0"(#loc))
#loc49 = loc("out_ptr0"(#loc))
#loc50 = loc("out_ptr1"(#loc))
#loc51 = loc("xnumel"(#loc))
#loc52 = loc("r0_numel"(#loc))
#loc76 = loc("input"(#loc38))
#loc77 = loc("a"(#loc43))
#loc78 = loc("b"(#loc43))
module {
  tt.func public @triton_per_fused__to_copy_linalg_vector_norm_transpose_1(%in_out_ptr0: !tt.ptr<f32> {tt.divisibility = 16 : i32} loc("in_out_ptr0"(#loc)), %in_ptr0: !tt.ptr<f32> {tt.divisibility = 16 : i32} loc("in_ptr0"(#loc)), %out_ptr0: !tt.ptr<bf16> {tt.divisibility = 16 : i32} loc("out_ptr0"(#loc)), %out_ptr1: !tt.ptr<bf16> {tt.divisibility = 16 : i32} loc("out_ptr1"(#loc)), %xnumel: i32 {tt.divisibility = 16 : i32} loc("xnumel"(#loc)), %r0_numel: i32 {tt.divisibility = 16 : i32} loc("r0_numel"(#loc))) attributes {noinline = false} {
    %xnumel_0 = arith.constant 18432 : i32 loc(#loc53)
    %r0_numel_1 = arith.constant 192 : i32 loc(#loc54)
    %xoffset = tt.get_program_id x : i32 loc(#loc55)
    %xoffset_2 = arith.constant 1 : i32 loc(#loc56)
    %xoffset_3 = arith.constant 1 : i32 loc(#loc56)
    %xoffset_4 = arith.muli %xoffset, %xoffset_3 : i32 loc(#loc56)
    %xindex = tt.make_range {end = 1 : i32, start = 0 : i32} : tensor<1xi32> loc(#loc57)
    %xindex_5 = tt.expand_dims %xindex {axis = 1 : i32} : tensor<1xi32> -> tensor<1x1xi32> loc(#loc58)
    %xindex_6 = tt.splat %xoffset_4 : i32 -> tensor<1x1xi32> loc(#loc59)
    %xindex_7 = arith.addi %xindex_6, %xindex_5 : tensor<1x1xi32> loc(#loc59)
    %xmask = arith.constant dense<18432> : tensor<1x1xi32> loc(#loc60)
    %xmask_8 = arith.cmpi slt, %xindex_7, %xmask : tensor<1x1xi32> loc(#loc60)
    %r0_index = tt.make_range {end = 256 : i32, start = 0 : i32} : tensor<256xi32> loc(#loc61)
    %r0_index_9 = tt.expand_dims %r0_index {axis = 0 : i32} : tensor<256xi32> -> tensor<1x256xi32> loc(#loc62)
    %r0_offset = arith.constant 0 : i32 loc(#loc63)
    %r0_mask = arith.constant dense<192> : tensor<1x256xi32> loc(#loc64)
    %r0_mask_10 = arith.cmpi slt, %r0_index_9, %r0_mask : tensor<1x256xi32> loc(#loc64)
    %tmp0 = arith.constant 192 : i32 loc(#loc65)
    %tmp0_11 = arith.constant 192 : i32 loc(#loc65)
    %tmp0_12 = arith.constant dense<192> : tensor<1x1xi32> loc(#loc65)
    %tmp0_13 = arith.muli %tmp0_12, %xindex_7 : tensor<1x1xi32> loc(#loc65)
    %tmp0_14 = tt.broadcast %tmp0_13 : tensor<1x1xi32> -> tensor<1x256xi32> loc(#loc66)
    %tmp0_15 = arith.addi %r0_index_9, %tmp0_14 : tensor<1x256xi32> loc(#loc66)
    %tmp0_16 = tt.splat %in_ptr0 : !tt.ptr<f32> -> tensor<1x256x!tt.ptr<f32>> loc(#loc67)
    %tmp0_17 = tt.addptr %tmp0_16, %tmp0_15 : tensor<1x256x!tt.ptr<f32>>, tensor<1x256xi32> loc(#loc67)
    %tmp0_18 = tt.broadcast %xmask_8 : tensor<1x1xi1> -> tensor<1x256xi1> loc(#loc68)
    %tmp0_19 = arith.andi %r0_mask_10, %tmp0_18 : tensor<1x256xi1> loc(#loc68)
    %tmp0_20 = arith.constant 0.000000e+00 : f32 loc(#loc69)
    %tmp0_21 = arith.constant dense<0.000000e+00> : tensor<1x256xf32> loc(#loc69)
    %tmp0_22 = tt.load %tmp0_17, %tmp0_19, %tmp0_21 : tensor<1x256x!tt.ptr<f32>> loc(#loc69)
    %tmp1 = arith.mulf %tmp0_22, %tmp0_22 : tensor<1x256xf32> loc(#loc70)
    %tmp4 = tt.broadcast %xmask_8 : tensor<1x1xi1> -> tensor<1x256xi1> loc(#loc71)
    %tmp4_23 = arith.andi %r0_mask_10, %tmp4 : tensor<1x256xi1> loc(#loc71)
    %tmp4_24 = arith.constant 0 : i32 loc(#loc72)
    %tmp4_25 = arith.constant 0.000000e+00 : f32 loc(#loc72)
    %tmp4_26 = arith.constant dense<0.000000e+00> : tensor<1x256xf32> loc(#loc72)
    %tmp4_27 = arith.select %tmp4_23, %tmp1, %tmp4_26 : tensor<1x256xi1>, tensor<1x256xf32> loc(#loc72)
    %tmp5 = tt.call @"triton.language.standard.sum__fp32S1_256S__(1,)cconstexpr_1__(2,)cconstexpr_False__(3,)cNone"(%tmp4_27) : (tensor<1x256xf32>) -> tensor<1xf32> loc(#loc73)
    %tmp5_28 = tt.expand_dims %tmp5 {axis = 1 : i32} : tensor<1xf32> -> tensor<1x1xf32> loc(#loc74)
    %tmp7 = tt.extern_elementwise %tmp5_28 {libname = "", libpath = "", pure = true, symbol = "__nv_sqrtf"} : (tensor<1x1xf32>) -> tensor<1x1xf32> loc(#loc75)
    %c192_i32 = arith.constant 192 : i32 loc(#loc24)
    %c192_i32_29 = arith.constant 192 : i32 loc(#loc24)
    %cst = arith.constant dense<192> : tensor<1x1xi32> loc(#loc24)
    %0 = arith.muli %cst, %xindex_7 : tensor<1x1xi32> loc(#loc24)
    %1 = tt.broadcast %0 : tensor<1x1xi32> -> tensor<1x256xi32> loc(#loc25)
    %2 = arith.addi %r0_index_9, %1 : tensor<1x256xi32> loc(#loc25)
    %3 = tt.splat %out_ptr0 : !tt.ptr<bf16> -> tensor<1x256x!tt.ptr<bf16>> loc(#loc26)
    %4 = tt.addptr %3, %2 : tensor<1x256x!tt.ptr<bf16>>, tensor<1x256xi32> loc(#loc26)
    %5 = tt.broadcast %xmask_8 : tensor<1x1xi1> -> tensor<1x256xi1> loc(#loc27)
    %6 = arith.andi %r0_mask_10, %5 : tensor<1x256xi1> loc(#loc27)
    %7 = arith.truncf %tmp0_22 : tensor<1x256xf32> to tensor<1x256xbf16> loc(#loc28)
    tt.store %4, %7, %6 : tensor<1x256x!tt.ptr<bf16>> loc(#loc28)
    %c192_i32_30 = arith.constant 192 : i32 loc(#loc29)
    %c192_i32_31 = arith.constant 192 : i32 loc(#loc29)
    %cst_32 = arith.constant dense<192> : tensor<1x1xi32> loc(#loc29)
    %8 = arith.muli %cst_32, %xindex_7 : tensor<1x1xi32> loc(#loc29)
    %9 = tt.broadcast %8 : tensor<1x1xi32> -> tensor<1x256xi32> loc(#loc30)
    %10 = arith.addi %r0_index_9, %9 : tensor<1x256xi32> loc(#loc30)
    %11 = tt.splat %out_ptr1 : !tt.ptr<bf16> -> tensor<1x256x!tt.ptr<bf16>> loc(#loc31)
    %12 = tt.addptr %11, %10 : tensor<1x256x!tt.ptr<bf16>>, tensor<1x256xi32> loc(#loc31)
    %13 = tt.broadcast %xmask_8 : tensor<1x1xi1> -> tensor<1x256xi1> loc(#loc32)
    %14 = arith.andi %r0_mask_10, %13 : tensor<1x256xi1> loc(#loc32)
    %15 = arith.truncf %tmp0_22 : tensor<1x256xf32> to tensor<1x256xbf16> loc(#loc33)
    tt.store %12, %15, %14 : tensor<1x256x!tt.ptr<bf16>> loc(#loc33)
    gpu.barrier loc(#loc34)
    %16 = tt.splat %in_out_ptr0 : !tt.ptr<f32> -> tensor<1x1x!tt.ptr<f32>> loc(#loc35)
    %17 = tt.addptr %16, %xindex_7 : tensor<1x1x!tt.ptr<f32>>, tensor<1x1xi32> loc(#loc35)
    tt.store %17, %tmp7, %xmask_8 : tensor<1x1x!tt.ptr<f32>> loc(#loc36)
    tt.return loc(#loc37)
  } loc(#loc)
  tt.func private @"triton.language.standard.sum__fp32S1_256S__(1,)cconstexpr_1__(2,)cconstexpr_False__(3,)cNone"(%input: tensor<1x256xf32> loc("input"(#loc38))) -> tensor<1xf32> attributes {noinline = false} {
    %0 = "tt.reduce"(%input) <{axis = 1 : i32}> ({
    ^bb0(%arg1: f32 loc(unknown), %arg2: f32 loc(unknown)):
      %2 = tt.call @triton.language.standard._sum_combine__fp32_fp32__(%arg1, %arg2) : (f32, f32) -> f32 loc(#loc39)
      tt.reduce.return %2 : f32 loc(#loc39)
    }) : (tensor<1x256xf32>) -> tensor<1xf32> loc(#loc39)
    tt.return %0 : tensor<1xf32> loc(#loc41)
  ^bb1:  // no predecessors
    %1 = ub.poison : tensor<1xf32> loc(#loc42)
    tt.return %1 : tensor<1xf32> loc(#loc42)
  } loc(#loc38)
  tt.func private @triton.language.standard._sum_combine__fp32_fp32__(%a: f32 loc("a"(#loc43)), %b: f32 loc("b"(#loc43))) -> f32 attributes {noinline = false} {
    %0 = arith.addf %a, %b : f32 loc(#loc44)
    tt.return %0 : f32 loc(#loc45)
  ^bb1:  // no predecessors
    %1 = ub.poison : f32 loc(#loc46)
    tt.return %1 : f32 loc(#loc46)
  } loc(#loc43)
} loc(#loc)
#loc1 = loc("/NHNHOME/WORKSPACE/26msit001_A/jinhyeok/loop_TTT/lact/.cache_inductor_llm/os/coszab2tpgpwhu5vsvhearp56rhl2rbhs32xk4zocgpabk4mplfl.py":19:13)
#loc2 = loc("/NHNHOME/WORKSPACE/26msit001_A/jinhyeok/loop_TTT/lact/.cache_inductor_llm/os/coszab2tpgpwhu5vsvhearp56rhl2rbhs32xk4zocgpabk4mplfl.py":20:15)
#loc3 = loc("/NHNHOME/WORKSPACE/26msit001_A/jinhyeok/loop_TTT/lact/.cache_inductor_llm/os/coszab2tpgpwhu5vsvhearp56rhl2rbhs32xk4zocgpabk4mplfl.py":24:28)
#loc4 = loc("/NHNHOME/WORKSPACE/26msit001_A/jinhyeok/loop_TTT/lact/.cache_inductor_llm/os/coszab2tpgpwhu5vsvhearp56rhl2rbhs32xk4zocgpabk4mplfl.py":24:33)
#loc5 = loc("/NHNHOME/WORKSPACE/26msit001_A/jinhyeok/loop_TTT/lact/.cache_inductor_llm/os/coszab2tpgpwhu5vsvhearp56rhl2rbhs32xk4zocgpabk4mplfl.py":25:36)
#loc6 = loc("/NHNHOME/WORKSPACE/26msit001_A/jinhyeok/loop_TTT/lact/.cache_inductor_llm/os/coszab2tpgpwhu5vsvhearp56rhl2rbhs32xk4zocgpabk4mplfl.py":25:44)
#loc7 = loc("/NHNHOME/WORKSPACE/26msit001_A/jinhyeok/loop_TTT/lact/.cache_inductor_llm/os/coszab2tpgpwhu5vsvhearp56rhl2rbhs32xk4zocgpabk4mplfl.py":25:23)
#loc8 = loc("/NHNHOME/WORKSPACE/26msit001_A/jinhyeok/loop_TTT/lact/.cache_inductor_llm/os/coszab2tpgpwhu5vsvhearp56rhl2rbhs32xk4zocgpabk4mplfl.py":26:21)
#loc9 = loc("/NHNHOME/WORKSPACE/26msit001_A/jinhyeok/loop_TTT/lact/.cache_inductor_llm/os/coszab2tpgpwhu5vsvhearp56rhl2rbhs32xk4zocgpabk4mplfl.py":27:28)
#loc10 = loc("/NHNHOME/WORKSPACE/26msit001_A/jinhyeok/loop_TTT/lact/.cache_inductor_llm/os/coszab2tpgpwhu5vsvhearp56rhl2rbhs32xk4zocgpabk4mplfl.py":27:38)
#loc11 = loc("/NHNHOME/WORKSPACE/26msit001_A/jinhyeok/loop_TTT/lact/.cache_inductor_llm/os/coszab2tpgpwhu5vsvhearp56rhl2rbhs32xk4zocgpabk4mplfl.py":28:16)
#loc12 = loc("/NHNHOME/WORKSPACE/26msit001_A/jinhyeok/loop_TTT/lact/.cache_inductor_llm/os/coszab2tpgpwhu5vsvhearp56rhl2rbhs32xk4zocgpabk4mplfl.py":29:25)
#loc13 = loc("/NHNHOME/WORKSPACE/26msit001_A/jinhyeok/loop_TTT/lact/.cache_inductor_llm/os/coszab2tpgpwhu5vsvhearp56rhl2rbhs32xk4zocgpabk4mplfl.py":34:41)
#loc14 = loc("/NHNHOME/WORKSPACE/26msit001_A/jinhyeok/loop_TTT/lact/.cache_inductor_llm/os/coszab2tpgpwhu5vsvhearp56rhl2rbhs32xk4zocgpabk4mplfl.py":34:37)
#loc15 = loc("/NHNHOME/WORKSPACE/26msit001_A/jinhyeok/loop_TTT/lact/.cache_inductor_llm/os/coszab2tpgpwhu5vsvhearp56rhl2rbhs32xk4zocgpabk4mplfl.py":34:30)
#loc16 = loc("/NHNHOME/WORKSPACE/26msit001_A/jinhyeok/loop_TTT/lact/.cache_inductor_llm/os/coszab2tpgpwhu5vsvhearp56rhl2rbhs32xk4zocgpabk4mplfl.py":34:56)
#loc17 = loc("/NHNHOME/WORKSPACE/26msit001_A/jinhyeok/loop_TTT/lact/.cache_inductor_llm/os/coszab2tpgpwhu5vsvhearp56rhl2rbhs32xk4zocgpabk4mplfl.py":34:46)
#loc18 = loc("/NHNHOME/WORKSPACE/26msit001_A/jinhyeok/loop_TTT/lact/.cache_inductor_llm/os/coszab2tpgpwhu5vsvhearp56rhl2rbhs32xk4zocgpabk4mplfl.py":35:18)
#loc19 = loc("/NHNHOME/WORKSPACE/26msit001_A/jinhyeok/loop_TTT/lact/.cache_inductor_llm/os/coszab2tpgpwhu5vsvhearp56rhl2rbhs32xk4zocgpabk4mplfl.py":37:30)
#loc20 = loc("/NHNHOME/WORKSPACE/26msit001_A/jinhyeok/loop_TTT/lact/.cache_inductor_llm/os/coszab2tpgpwhu5vsvhearp56rhl2rbhs32xk4zocgpabk4mplfl.py":37:43)
#loc21 = loc("/NHNHOME/WORKSPACE/26msit001_A/jinhyeok/loop_TTT/lact/.cache_inductor_llm/os/coszab2tpgpwhu5vsvhearp56rhl2rbhs32xk4zocgpabk4mplfl.py":38:24)
#loc22 = loc("/NHNHOME/WORKSPACE/26msit001_A/jinhyeok/loop_TTT/lact/.cache_inductor_llm/os/coszab2tpgpwhu5vsvhearp56rhl2rbhs32xk4zocgpabk4mplfl.py":38:27)
#loc23 = loc("/NHNHOME/WORKSPACE/26msit001_A/jinhyeok/loop_TTT/lact/.cache_inductor_llm/os/coszab2tpgpwhu5vsvhearp56rhl2rbhs32xk4zocgpabk4mplfl.py":40:26)
#loc24 = loc("/NHNHOME/WORKSPACE/26msit001_A/jinhyeok/loop_TTT/lact/.cache_inductor_llm/os/coszab2tpgpwhu5vsvhearp56rhl2rbhs32xk4zocgpabk4mplfl.py":41:36)
#loc25 = loc("/NHNHOME/WORKSPACE/26msit001_A/jinhyeok/loop_TTT/lact/.cache_inductor_llm/os/coszab2tpgpwhu5vsvhearp56rhl2rbhs32xk4zocgpabk4mplfl.py":41:32)
#loc26 = loc("/NHNHOME/WORKSPACE/26msit001_A/jinhyeok/loop_TTT/lact/.cache_inductor_llm/os/coszab2tpgpwhu5vsvhearp56rhl2rbhs32xk4zocgpabk4mplfl.py":41:25)
#loc27 = loc("/NHNHOME/WORKSPACE/26msit001_A/jinhyeok/loop_TTT/lact/.cache_inductor_llm/os/coszab2tpgpwhu5vsvhearp56rhl2rbhs32xk4zocgpabk4mplfl.py":41:57)
#loc28 = loc("/NHNHOME/WORKSPACE/26msit001_A/jinhyeok/loop_TTT/lact/.cache_inductor_llm/os/coszab2tpgpwhu5vsvhearp56rhl2rbhs32xk4zocgpabk4mplfl.py":41:47)
#loc29 = loc("/NHNHOME/WORKSPACE/26msit001_A/jinhyeok/loop_TTT/lact/.cache_inductor_llm/os/coszab2tpgpwhu5vsvhearp56rhl2rbhs32xk4zocgpabk4mplfl.py":42:36)
#loc30 = loc("/NHNHOME/WORKSPACE/26msit001_A/jinhyeok/loop_TTT/lact/.cache_inductor_llm/os/coszab2tpgpwhu5vsvhearp56rhl2rbhs32xk4zocgpabk4mplfl.py":42:32)
#loc31 = loc("/NHNHOME/WORKSPACE/26msit001_A/jinhyeok/loop_TTT/lact/.cache_inductor_llm/os/coszab2tpgpwhu5vsvhearp56rhl2rbhs32xk4zocgpabk4mplfl.py":42:25)
#loc32 = loc("/NHNHOME/WORKSPACE/26msit001_A/jinhyeok/loop_TTT/lact/.cache_inductor_llm/os/coszab2tpgpwhu5vsvhearp56rhl2rbhs32xk4zocgpabk4mplfl.py":42:57)
#loc33 = loc("/NHNHOME/WORKSPACE/26msit001_A/jinhyeok/loop_TTT/lact/.cache_inductor_llm/os/coszab2tpgpwhu5vsvhearp56rhl2rbhs32xk4zocgpabk4mplfl.py":42:47)
#loc34 = loc("/NHNHOME/WORKSPACE/26msit001_A/jinhyeok/loop_TTT/lact/.cache_inductor_llm/os/coszab2tpgpwhu5vsvhearp56rhl2rbhs32xk4zocgpabk4mplfl.py":43:4)
#loc35 = loc("/NHNHOME/WORKSPACE/26msit001_A/jinhyeok/loop_TTT/lact/.cache_inductor_llm/os/coszab2tpgpwhu5vsvhearp56rhl2rbhs32xk4zocgpabk4mplfl.py":44:28)
#loc36 = loc("/NHNHOME/WORKSPACE/26msit001_A/jinhyeok/loop_TTT/lact/.cache_inductor_llm/os/coszab2tpgpwhu5vsvhearp56rhl2rbhs32xk4zocgpabk4mplfl.py":44:39)
#loc37 = loc("/NHNHOME/WORKSPACE/26msit001_A/jinhyeok/loop_TTT/lact/.cache_inductor_llm/os/coszab2tpgpwhu5vsvhearp56rhl2rbhs32xk4zocgpabk4mplfl.py":44:4)
#loc39 = loc("/NHNHOME/WORKSPACE/26msit001_A/jinhyeok/TTT_camera_embedding/.venv_llm/lib/python3.12/site-packages/triton/language/standard.py":291:36)
#loc41 = loc("/NHNHOME/WORKSPACE/26msit001_A/jinhyeok/TTT_camera_embedding/.venv_llm/lib/python3.12/site-packages/triton/language/standard.py":291:11)
#loc42 = loc("/NHNHOME/WORKSPACE/26msit001_A/jinhyeok/TTT_camera_embedding/.venv_llm/lib/python3.12/site-packages/triton/language/standard.py":291:4)
#loc44 = loc("/NHNHOME/WORKSPACE/26msit001_A/jinhyeok/TTT_camera_embedding/.venv_llm/lib/python3.12/site-packages/triton/language/standard.py":261:15)
#loc45 = loc("/NHNHOME/WORKSPACE/26msit001_A/jinhyeok/TTT_camera_embedding/.venv_llm/lib/python3.12/site-packages/triton/language/standard.py":261:11)
#loc46 = loc("/NHNHOME/WORKSPACE/26msit001_A/jinhyeok/TTT_camera_embedding/.venv_llm/lib/python3.12/site-packages/triton/language/standard.py":261:4)
#loc53 = loc("xnumel"(#loc1))
#loc54 = loc("r0_numel"(#loc2))
#loc55 = loc("xoffset"(#loc3))
#loc56 = loc("xoffset"(#loc4))
#loc57 = loc("xindex"(#loc5))
#loc58 = loc("xindex"(#loc6))
#loc59 = loc("xindex"(#loc7))
#loc60 = loc("xmask"(#loc8))
#loc61 = loc("r0_index"(#loc9))
#loc62 = loc("r0_index"(#loc10))
#loc63 = loc("r0_offset"(#loc11))
#loc64 = loc("r0_mask"(#loc12))
#loc65 = loc("tmp0"(#loc13))
#loc66 = loc("tmp0"(#loc14))
#loc67 = loc("tmp0"(#loc15))
#loc68 = loc("tmp0"(#loc16))
#loc69 = loc("tmp0"(#loc17))
#loc70 = loc("tmp1"(#loc18))
#loc71 = loc("tmp4"(#loc19))
#loc72 = loc("tmp4"(#loc20))
#loc73 = loc("tmp5"(#loc21))
#loc74 = loc("tmp5"(#loc22))
#loc75 = loc("tmp7"(#loc23))
