#loc = loc("/NHNHOME/WORKSPACE/26msit001_A/jinhyeok/loop_TTT/lact/.cache_inductor_llm/gf/cgfsllihnt476r3747xr3yw2zuu4r4lydov47wyg7fsbwkmp4ctf.py":18:0)
#loc70 = loc("/NHNHOME/WORKSPACE/26msit001_A/jinhyeok/TTT_camera_embedding/.venv_llm/lib/python3.12/site-packages/triton/language/standard.py":285:0)
#loc72 = loc(unknown)
#loc75 = loc("/NHNHOME/WORKSPACE/26msit001_A/jinhyeok/TTT_camera_embedding/.venv_llm/lib/python3.12/site-packages/triton/language/standard.py":260:0)
#loc79 = loc("in_ptr0"(#loc))
#loc80 = loc("in_ptr1"(#loc))
#loc81 = loc("in_ptr2"(#loc))
#loc82 = loc("in_ptr3"(#loc))
#loc83 = loc("out_ptr0"(#loc))
#loc84 = loc("xnumel"(#loc))
#loc85 = loc("r0_numel"(#loc))
#loc151 = loc("input"(#loc70))
#loc152 = loc("a"(#loc75))
#loc153 = loc("b"(#loc75))
module {
  tt.func public @triton_red_fused__to_copy_add_linalg_vector_norm_mean_mul_slice_zeros_like_33(%in_ptr0: !tt.ptr<bf16> {tt.divisibility = 16 : i32} loc("in_ptr0"(#loc)), %in_ptr1: !tt.ptr<bf16> {tt.divisibility = 16 : i32} loc("in_ptr1"(#loc)), %in_ptr2: !tt.ptr<f32> {tt.divisibility = 16 : i32} loc("in_ptr2"(#loc)), %in_ptr3: !tt.ptr<f32> {tt.divisibility = 16 : i32} loc("in_ptr3"(#loc)), %out_ptr0: !tt.ptr<f32> {tt.divisibility = 16 : i32} loc("out_ptr0"(#loc)), %xnumel: i32 loc("xnumel"(#loc)), %r0_numel: i32 loc("r0_numel"(#loc))) attributes {noinline = false} {
    %r0_numel_0 = arith.constant 7373 : i32 loc(#loc86)
    %xoffset = tt.get_program_id x : i32 loc(#loc87)
    %xoffset_1 = arith.constant 1 : i32 loc(#loc88)
    %xoffset_2 = arith.constant 1 : i32 loc(#loc88)
    %xoffset_3 = arith.muli %xoffset, %xoffset_2 : i32 loc(#loc88)
    %xindex = tt.make_range {end = 1 : i32, start = 0 : i32} : tensor<1xi32> loc(#loc89)
    %xindex_4 = tt.expand_dims %xindex {axis = 1 : i32} : tensor<1xi32> -> tensor<1x1xi32> loc(#loc90)
    %xindex_5 = tt.splat %xoffset_3 : i32 -> tensor<1x1xi32> loc(#loc91)
    %xindex_6 = arith.addi %xindex_5, %xindex_4 : tensor<1x1xi32> loc(#loc91)
    %xmask = tt.splat %xnumel : i32 -> tensor<1x1xi32> loc(#loc92)
    %xmask_7 = arith.cmpi slt, %xindex_6, %xmask : tensor<1x1xi32> loc(#loc92)
    %r0_base = tt.make_range {end = 2048 : i32, start = 0 : i32} : tensor<2048xi32> loc(#loc93)
    %r0_base_8 = tt.expand_dims %r0_base {axis = 0 : i32} : tensor<2048xi32> -> tensor<1x2048xi32> loc(#loc94)
    %x0 = arith.constant 5 : i32 loc(#loc95)
    %x0_9 = arith.constant 5 : i32 loc(#loc95)
    %x0_10 = arith.constant dense<5> : tensor<1x1xi32> loc(#loc95)
    %x0_11 = arith.remsi %xindex_6, %x0_10 : tensor<1x1xi32> loc(#loc95)
    %x1 = arith.constant 5 : i32 loc(#loc96)
    %x1_12 = arith.constant 5 : i32 loc(#loc96)
    %x1_13 = arith.constant dense<5> : tensor<1x1xi32> loc(#loc96)
    %x1_14 = arith.divsi %xindex_6, %x1_13 : tensor<1x1xi32> loc(#loc96)
    %_tmp23 = arith.constant 0.000000e+00 : f32 loc(#loc97)
    %_tmp23_15 = arith.constant dense<0.000000e+00> : tensor<1x2048xf32> loc(#loc97)
    %c0_i32 = arith.constant 0 : i32 loc(#loc13)
    %c2048_i32 = arith.constant 2048 : i32 loc(#loc13)
    %0 = arith.bitcast %c0_i32 : i32 to i32 loc(#loc13)
    %1 = arith.bitcast %r0_numel_0 : i32 to i32 loc(#loc13)
    %2 = arith.bitcast %c2048_i32 : i32 to i32 loc(#loc13)
    %3 = ub.poison : i32 loc(#loc13)
    %_tmp23_16 = scf.for %r0_offset = %0 to %1 step %2 iter_args(%_tmp23_18 = %_tmp23_15) -> (tensor<1x2048xf32>)  : i32 {
      %r0_index = tt.splat %r0_offset : i32 -> tensor<1x2048xi32> loc(#loc99)
      %r0_index_19 = arith.addi %r0_index, %r0_base_8 : tensor<1x2048xi32> loc(#loc99)
      %r0_mask = arith.constant dense<7373> : tensor<1x2048xi32> loc(#loc100)
      %r0_mask_20 = arith.cmpi slt, %r0_index_19, %r0_mask : tensor<1x2048xi32> loc(#loc100)
      %tmp0 = arith.constant 7373 : i32 loc(#loc101)
      %tmp0_21 = arith.constant 7373 : i32 loc(#loc101)
      %tmp0_22 = arith.constant dense<7373> : tensor<1x1xi32> loc(#loc101)
      %tmp0_23 = arith.muli %tmp0_22, %x0_11 : tensor<1x1xi32> loc(#loc101)
      %tmp0_24 = tt.broadcast %tmp0_23 : tensor<1x1xi32> -> tensor<1x2048xi32> loc(#loc102)
      %tmp0_25 = arith.addi %r0_index_19, %tmp0_24 : tensor<1x2048xi32> loc(#loc102)
      %tmp1 = arith.constant 36864 : i32 loc(#loc103)
      %tmp1_26 = arith.constant dense<36864> : tensor<1x1xi32> loc(#loc103)
      %tmp2 = arith.constant dense<36864> : tensor<1x2048xi32> loc(#loc104)
      %tmp2_27 = arith.cmpi slt, %tmp0_25, %tmp2 : tensor<1x2048xi32> loc(#loc104)
      %tmp3 = arith.constant 36864 : i32 loc(#loc105)
      %tmp3_28 = arith.constant 36864 : i32 loc(#loc105)
      %tmp3_29 = arith.constant dense<36864> : tensor<1x1xi32> loc(#loc105)
      %tmp3_30 = arith.muli %tmp3_29, %x1_14 : tensor<1x1xi32> loc(#loc105)
      %tmp3_31 = arith.constant 7373 : i32 loc(#loc106)
      %tmp3_32 = arith.constant 7373 : i32 loc(#loc106)
      %tmp3_33 = arith.constant dense<7373> : tensor<1x1xi32> loc(#loc106)
      %tmp3_34 = arith.muli %tmp3_33, %x0_11 : tensor<1x1xi32> loc(#loc106)
      %tmp3_35 = tt.broadcast %tmp3_34 : tensor<1x1xi32> -> tensor<1x2048xi32> loc(#loc107)
      %tmp3_36 = arith.addi %r0_index_19, %tmp3_35 : tensor<1x2048xi32> loc(#loc107)
      %tmp3_37 = arith.constant 36864 : i32 loc(#loc108)
      %tmp3_38 = arith.constant 36864 : i32 loc(#loc108)
      %tmp3_39 = arith.constant dense<36864> : tensor<1x2048xi32> loc(#loc108)
      %tmp3_40 = arith.remsi %tmp3_36, %tmp3_39 : tensor<1x2048xi32> loc(#loc108)
      %tmp3_41 = tt.broadcast %tmp3_30 : tensor<1x1xi32> -> tensor<1x2048xi32> loc(#loc109)
      %tmp3_42 = arith.addi %tmp3_41, %tmp3_40 : tensor<1x2048xi32> loc(#loc109)
      %tmp3_43 = tt.splat %in_ptr0 : !tt.ptr<bf16> -> tensor<1x2048x!tt.ptr<bf16>> loc(#loc110)
      %tmp3_44 = tt.addptr %tmp3_43, %tmp3_42 : tensor<1x2048x!tt.ptr<bf16>>, tensor<1x2048xi32> loc(#loc110)
      %tmp3_45 = arith.andi %r0_mask_20, %tmp2_27 : tensor<1x2048xi1> loc(#loc111)
      %tmp3_46 = tt.broadcast %xmask_7 : tensor<1x1xi1> -> tensor<1x2048xi1> loc(#loc112)
      %tmp3_47 = arith.andi %tmp3_45, %tmp3_46 : tensor<1x2048xi1> loc(#loc112)
      %tmp3_48 = arith.constant 0.000000e+00 : f32 loc(#loc113)
      %tmp3_49 = arith.constant dense<0.000000e+00> : tensor<1x2048xf32> loc(#loc113)
      %tmp3_50 = arith.truncf %tmp3_49 : tensor<1x2048xf32> to tensor<1x2048xbf16> loc(#loc113)
      %tmp3_51 = tt.load %tmp3_44, %tmp3_47, %tmp3_50 evictionPolicy = evict_last : tensor<1x2048x!tt.ptr<bf16>> loc(#loc113)
      %tmp3_52 = arith.extf %tmp3_51 : tensor<1x2048xbf16> to tensor<1x2048xf32> loc(#loc114)
      %tmp5 = arith.constant 36864 : i32 loc(#loc115)
      %tmp5_53 = arith.constant 36864 : i32 loc(#loc115)
      %tmp5_54 = arith.constant dense<36864> : tensor<1x1xi32> loc(#loc115)
      %tmp5_55 = arith.muli %tmp5_54, %x1_14 : tensor<1x1xi32> loc(#loc115)
      %tmp5_56 = arith.constant 7373 : i32 loc(#loc116)
      %tmp5_57 = arith.constant 7373 : i32 loc(#loc116)
      %tmp5_58 = arith.constant dense<7373> : tensor<1x1xi32> loc(#loc116)
      %tmp5_59 = arith.muli %tmp5_58, %x0_11 : tensor<1x1xi32> loc(#loc116)
      %tmp5_60 = tt.broadcast %tmp5_59 : tensor<1x1xi32> -> tensor<1x2048xi32> loc(#loc117)
      %tmp5_61 = arith.addi %r0_index_19, %tmp5_60 : tensor<1x2048xi32> loc(#loc117)
      %tmp5_62 = arith.constant 36864 : i32 loc(#loc118)
      %tmp5_63 = arith.constant 36864 : i32 loc(#loc118)
      %tmp5_64 = arith.constant dense<36864> : tensor<1x2048xi32> loc(#loc118)
      %tmp5_65 = arith.remsi %tmp5_61, %tmp5_64 : tensor<1x2048xi32> loc(#loc118)
      %tmp5_66 = tt.broadcast %tmp5_55 : tensor<1x1xi32> -> tensor<1x2048xi32> loc(#loc119)
      %tmp5_67 = arith.addi %tmp5_66, %tmp5_65 : tensor<1x2048xi32> loc(#loc119)
      %tmp5_68 = tt.splat %in_ptr1 : !tt.ptr<bf16> -> tensor<1x2048x!tt.ptr<bf16>> loc(#loc120)
      %tmp5_69 = tt.addptr %tmp5_68, %tmp5_67 : tensor<1x2048x!tt.ptr<bf16>>, tensor<1x2048xi32> loc(#loc120)
      %tmp5_70 = arith.andi %r0_mask_20, %tmp2_27 : tensor<1x2048xi1> loc(#loc121)
      %tmp5_71 = tt.broadcast %xmask_7 : tensor<1x1xi1> -> tensor<1x2048xi1> loc(#loc122)
      %tmp5_72 = arith.andi %tmp5_70, %tmp5_71 : tensor<1x2048xi1> loc(#loc122)
      %tmp5_73 = arith.constant 0.000000e+00 : f32 loc(#loc123)
      %tmp5_74 = arith.constant dense<0.000000e+00> : tensor<1x2048xf32> loc(#loc123)
      %tmp5_75 = arith.truncf %tmp5_74 : tensor<1x2048xf32> to tensor<1x2048xbf16> loc(#loc123)
      %tmp5_76 = tt.load %tmp5_69, %tmp5_72, %tmp5_75 evictionPolicy = evict_last : tensor<1x2048x!tt.ptr<bf16>> loc(#loc123)
      %tmp5_77 = arith.extf %tmp5_76 : tensor<1x2048xbf16> to tensor<1x2048xf32> loc(#loc124)
      %tmp7 = tt.broadcast %x1_14 : tensor<1x1xi32> -> tensor<1x2048xi32> loc(#loc125)
      %tmp7_78 = tt.splat %in_ptr2 : !tt.ptr<f32> -> tensor<1x2048x!tt.ptr<f32>> loc(#loc126)
      %tmp7_79 = tt.addptr %tmp7_78, %tmp7 : tensor<1x2048x!tt.ptr<f32>>, tensor<1x2048xi32> loc(#loc126)
      %tmp7_80 = arith.andi %r0_mask_20, %tmp2_27 : tensor<1x2048xi1> loc(#loc127)
      %tmp7_81 = tt.broadcast %xmask_7 : tensor<1x1xi1> -> tensor<1x2048xi1> loc(#loc128)
      %tmp7_82 = arith.andi %tmp7_80, %tmp7_81 : tensor<1x2048xi1> loc(#loc128)
      %tmp7_83 = arith.constant 0.000000e+00 : f32 loc(#loc129)
      %tmp7_84 = arith.constant dense<0.000000e+00> : tensor<1x2048xf32> loc(#loc129)
      %tmp7_85 = tt.load %tmp7_79, %tmp7_82, %tmp7_84 evictionPolicy = evict_last : tensor<1x2048x!tt.ptr<f32>> loc(#loc129)
      %tmp8 = arith.constant 1.024000e+03 : f32 loc(#loc130)
      %tmp9 = arith.constant dense<1.024000e+03> : tensor<1x2048xf32> loc(#loc131)
      %tmp9_86 = arith.divf %tmp7_85, %tmp9 : tensor<1x2048xf32> loc(#loc131)
      %tmp10 = arith.constant 0.000000e+00 : f32 loc(#loc132)
      %tmp11 = arith.constant dense<0.000000e+00> : tensor<1x2048xf32> loc(#loc133)
      %tmp11_87 = arith.mulf %tmp11, %tmp9_86 : tensor<1x2048xf32> loc(#loc133)
      %tmp12 = arith.addf %tmp5_77, %tmp11_87 : tensor<1x2048xf32> loc(#loc134)
      %tmp13 = tt.broadcast %x1_14 : tensor<1x1xi32> -> tensor<1x2048xi32> loc(#loc135)
      %tmp13_88 = tt.splat %in_ptr3 : !tt.ptr<f32> -> tensor<1x2048x!tt.ptr<f32>> loc(#loc136)
      %tmp13_89 = tt.addptr %tmp13_88, %tmp13 : tensor<1x2048x!tt.ptr<f32>>, tensor<1x2048xi32> loc(#loc136)
      %tmp13_90 = arith.andi %r0_mask_20, %tmp2_27 : tensor<1x2048xi1> loc(#loc137)
      %tmp13_91 = tt.broadcast %xmask_7 : tensor<1x1xi1> -> tensor<1x2048xi1> loc(#loc138)
      %tmp13_92 = arith.andi %tmp13_90, %tmp13_91 : tensor<1x2048xi1> loc(#loc138)
      %tmp13_93 = arith.constant 0.000000e+00 : f32 loc(#loc139)
      %tmp13_94 = arith.constant dense<0.000000e+00> : tensor<1x2048xf32> loc(#loc139)
      %tmp13_95 = tt.load %tmp13_89, %tmp13_92, %tmp13_94 evictionPolicy = evict_last : tensor<1x2048x!tt.ptr<f32>> loc(#loc139)
      %tmp14 = arith.constant dense<1.024000e+03> : tensor<1x2048xf32> loc(#loc140)
      %tmp14_96 = arith.divf %tmp13_95, %tmp14 : tensor<1x2048xf32> loc(#loc140)
      %tmp15 = arith.mulf %tmp12, %tmp14_96 : tensor<1x2048xf32> loc(#loc141)
      %tmp16 = arith.addf %tmp3_52, %tmp15 : tensor<1x2048xf32> loc(#loc142)
      %tmp19 = arith.mulf %tmp16, %tmp16 : tensor<1x2048xf32> loc(#loc143)
      %tmp20 = arith.constant 0.000000e+00 : f32 loc(#loc144)
      %tmp20_97 = arith.constant dense<0.000000e+00> : tensor<1x2048xf32> loc(#loc144)
      %tmp21 = arith.select %tmp2_27, %tmp19, %tmp20_97 : tensor<1x2048xi1>, tensor<1x2048xf32> loc(#loc145)
      %tmp24 = arith.addf %_tmp23_18, %tmp21 : tensor<1x2048xf32> loc(#loc146)
      %_tmp23_98 = tt.broadcast %xmask_7 : tensor<1x1xi1> -> tensor<1x2048xi1> loc(#loc147)
      %_tmp23_99 = arith.andi %r0_mask_20, %_tmp23_98 : tensor<1x2048xi1> loc(#loc147)
      %_tmp23_100 = arith.select %_tmp23_99, %tmp24, %_tmp23_18 : tensor<1x2048xi1>, tensor<1x2048xf32> loc(#loc148)
      scf.yield %_tmp23_100 : tensor<1x2048xf32> loc(#loc64)
    } loc(#loc98)
    %tmp23 = tt.call @"triton.language.standard.sum__fp32S1_2048S__(1,)cconstexpr_1__(2,)cconstexpr_False__(3,)cNone"(%_tmp23_16) : (tensor<1x2048xf32>) -> tensor<1xf32> loc(#loc149)
    %tmp23_17 = tt.expand_dims %tmp23 {axis = 1 : i32} : tensor<1xf32> -> tensor<1x1xf32> loc(#loc150)
    %4 = tt.splat %out_ptr0 : !tt.ptr<f32> -> tensor<1x1x!tt.ptr<f32>> loc(#loc67)
    %5 = tt.addptr %4, %xindex_6 : tensor<1x1x!tt.ptr<f32>>, tensor<1x1xi32> loc(#loc67)
    tt.store %5, %tmp23_17, %xmask_7 : tensor<1x1x!tt.ptr<f32>> loc(#loc68)
    tt.return loc(#loc69)
  } loc(#loc)
  tt.func private @"triton.language.standard.sum__fp32S1_2048S__(1,)cconstexpr_1__(2,)cconstexpr_False__(3,)cNone"(%input: tensor<1x2048xf32> loc("input"(#loc70))) -> tensor<1xf32> attributes {noinline = false} {
    %0 = "tt.reduce"(%input) <{axis = 1 : i32}> ({
    ^bb0(%arg1: f32 loc(unknown), %arg2: f32 loc(unknown)):
      %2 = tt.call @triton.language.standard._sum_combine__fp32_fp32__(%arg1, %arg2) : (f32, f32) -> f32 loc(#loc71)
      tt.reduce.return %2 : f32 loc(#loc71)
    }) : (tensor<1x2048xf32>) -> tensor<1xf32> loc(#loc71)
    tt.return %0 : tensor<1xf32> loc(#loc73)
  ^bb1:  // no predecessors
    %1 = ub.poison : tensor<1xf32> loc(#loc74)
    tt.return %1 : tensor<1xf32> loc(#loc74)
  } loc(#loc70)
  tt.func private @triton.language.standard._sum_combine__fp32_fp32__(%a: f32 loc("a"(#loc75)), %b: f32 loc("b"(#loc75))) -> f32 attributes {noinline = false} {
    %0 = arith.addf %a, %b : f32 loc(#loc76)
    tt.return %0 : f32 loc(#loc77)
  ^bb1:  // no predecessors
    %1 = ub.poison : f32 loc(#loc78)
    tt.return %1 : f32 loc(#loc78)
  } loc(#loc75)
} loc(#loc)
#loc1 = loc("/NHNHOME/WORKSPACE/26msit001_A/jinhyeok/loop_TTT/lact/.cache_inductor_llm/gf/cgfsllihnt476r3747xr3yw2zuu4r4lydov47wyg7fsbwkmp4ctf.py":19:15)
#loc2 = loc("/NHNHOME/WORKSPACE/26msit001_A/jinhyeok/loop_TTT/lact/.cache_inductor_llm/gf/cgfsllihnt476r3747xr3yw2zuu4r4lydov47wyg7fsbwkmp4ctf.py":22:28)
#loc3 = loc("/NHNHOME/WORKSPACE/26msit001_A/jinhyeok/loop_TTT/lact/.cache_inductor_llm/gf/cgfsllihnt476r3747xr3yw2zuu4r4lydov47wyg7fsbwkmp4ctf.py":22:33)
#loc4 = loc("/NHNHOME/WORKSPACE/26msit001_A/jinhyeok/loop_TTT/lact/.cache_inductor_llm/gf/cgfsllihnt476r3747xr3yw2zuu4r4lydov47wyg7fsbwkmp4ctf.py":23:36)
#loc5 = loc("/NHNHOME/WORKSPACE/26msit001_A/jinhyeok/loop_TTT/lact/.cache_inductor_llm/gf/cgfsllihnt476r3747xr3yw2zuu4r4lydov47wyg7fsbwkmp4ctf.py":23:44)
#loc6 = loc("/NHNHOME/WORKSPACE/26msit001_A/jinhyeok/loop_TTT/lact/.cache_inductor_llm/gf/cgfsllihnt476r3747xr3yw2zuu4r4lydov47wyg7fsbwkmp4ctf.py":23:23)
#loc7 = loc("/NHNHOME/WORKSPACE/26msit001_A/jinhyeok/loop_TTT/lact/.cache_inductor_llm/gf/cgfsllihnt476r3747xr3yw2zuu4r4lydov47wyg7fsbwkmp4ctf.py":24:21)
#loc8 = loc("/NHNHOME/WORKSPACE/26msit001_A/jinhyeok/loop_TTT/lact/.cache_inductor_llm/gf/cgfsllihnt476r3747xr3yw2zuu4r4lydov47wyg7fsbwkmp4ctf.py":25:27)
#loc9 = loc("/NHNHOME/WORKSPACE/26msit001_A/jinhyeok/loop_TTT/lact/.cache_inductor_llm/gf/cgfsllihnt476r3747xr3yw2zuu4r4lydov47wyg7fsbwkmp4ctf.py":25:37)
#loc10 = loc("/NHNHOME/WORKSPACE/26msit001_A/jinhyeok/loop_TTT/lact/.cache_inductor_llm/gf/cgfsllihnt476r3747xr3yw2zuu4r4lydov47wyg7fsbwkmp4ctf.py":27:19)
#loc11 = loc("/NHNHOME/WORKSPACE/26msit001_A/jinhyeok/loop_TTT/lact/.cache_inductor_llm/gf/cgfsllihnt476r3747xr3yw2zuu4r4lydov47wyg7fsbwkmp4ctf.py":28:19)
#loc12 = loc("/NHNHOME/WORKSPACE/26msit001_A/jinhyeok/loop_TTT/lact/.cache_inductor_llm/gf/cgfsllihnt476r3747xr3yw2zuu4r4lydov47wyg7fsbwkmp4ctf.py":29:44)
#loc13 = loc("/NHNHOME/WORKSPACE/26msit001_A/jinhyeok/loop_TTT/lact/.cache_inductor_llm/gf/cgfsllihnt476r3747xr3yw2zuu4r4lydov47wyg7fsbwkmp4ctf.py":31:40)
#loc14 = loc("/NHNHOME/WORKSPACE/26msit001_A/jinhyeok/loop_TTT/lact/.cache_inductor_llm/gf/cgfsllihnt476r3747xr3yw2zuu4r4lydov47wyg7fsbwkmp4ctf.py":32:31)
#loc15 = loc("/NHNHOME/WORKSPACE/26msit001_A/jinhyeok/loop_TTT/lact/.cache_inductor_llm/gf/cgfsllihnt476r3747xr3yw2zuu4r4lydov47wyg7fsbwkmp4ctf.py":33:29)
#loc16 = loc("/NHNHOME/WORKSPACE/26msit001_A/jinhyeok/loop_TTT/lact/.cache_inductor_llm/gf/cgfsllihnt476r3747xr3yw2zuu4r4lydov47wyg7fsbwkmp4ctf.py":37:27)
#loc17 = loc("/NHNHOME/WORKSPACE/26msit001_A/jinhyeok/loop_TTT/lact/.cache_inductor_llm/gf/cgfsllihnt476r3747xr3yw2zuu4r4lydov47wyg7fsbwkmp4ctf.py":37:22)
#loc18 = loc("/NHNHOME/WORKSPACE/26msit001_A/jinhyeok/loop_TTT/lact/.cache_inductor_llm/gf/cgfsllihnt476r3747xr3yw2zuu4r4lydov47wyg7fsbwkmp4ctf.py":38:38)
#loc19 = loc("/NHNHOME/WORKSPACE/26msit001_A/jinhyeok/loop_TTT/lact/.cache_inductor_llm/gf/cgfsllihnt476r3747xr3yw2zuu4r4lydov47wyg7fsbwkmp4ctf.py":39:22)
#loc20 = loc("/NHNHOME/WORKSPACE/26msit001_A/jinhyeok/loop_TTT/lact/.cache_inductor_llm/gf/cgfsllihnt476r3747xr3yw2zuu4r4lydov47wyg7fsbwkmp4ctf.py":40:40)
#loc21 = loc("/NHNHOME/WORKSPACE/26msit001_A/jinhyeok/loop_TTT/lact/.cache_inductor_llm/gf/cgfsllihnt476r3747xr3yw2zuu4r4lydov47wyg7fsbwkmp4ctf.py":40:60)
#loc22 = loc("/NHNHOME/WORKSPACE/26msit001_A/jinhyeok/loop_TTT/lact/.cache_inductor_llm/gf/cgfsllihnt476r3747xr3yw2zuu4r4lydov47wyg7fsbwkmp4ctf.py":40:55)
#loc23 = loc("/NHNHOME/WORKSPACE/26msit001_A/jinhyeok/loop_TTT/lact/.cache_inductor_llm/gf/cgfsllihnt476r3747xr3yw2zuu4r4lydov47wyg7fsbwkmp4ctf.py":40:66)
#loc24 = loc("/NHNHOME/WORKSPACE/26msit001_A/jinhyeok/loop_TTT/lact/.cache_inductor_llm/gf/cgfsllihnt476r3747xr3yw2zuu4r4lydov47wyg7fsbwkmp4ctf.py":40:47)
#loc25 = loc("/NHNHOME/WORKSPACE/26msit001_A/jinhyeok/loop_TTT/lact/.cache_inductor_llm/gf/cgfsllihnt476r3747xr3yw2zuu4r4lydov47wyg7fsbwkmp4ctf.py":40:34)
#loc26 = loc("/NHNHOME/WORKSPACE/26msit001_A/jinhyeok/loop_TTT/lact/.cache_inductor_llm/gf/cgfsllihnt476r3747xr3yw2zuu4r4lydov47wyg7fsbwkmp4ctf.py":40:86)
#loc27 = loc("/NHNHOME/WORKSPACE/26msit001_A/jinhyeok/loop_TTT/lact/.cache_inductor_llm/gf/cgfsllihnt476r3747xr3yw2zuu4r4lydov47wyg7fsbwkmp4ctf.py":40:93)
#loc28 = loc("/NHNHOME/WORKSPACE/26msit001_A/jinhyeok/loop_TTT/lact/.cache_inductor_llm/gf/cgfsllihnt476r3747xr3yw2zuu4r4lydov47wyg7fsbwkmp4ctf.py":40:76)
#loc29 = loc("/NHNHOME/WORKSPACE/26msit001_A/jinhyeok/loop_TTT/lact/.cache_inductor_llm/gf/cgfsllihnt476r3747xr3yw2zuu4r4lydov47wyg7fsbwkmp4ctf.py":40:144)
#loc30 = loc("/NHNHOME/WORKSPACE/26msit001_A/jinhyeok/loop_TTT/lact/.cache_inductor_llm/gf/cgfsllihnt476r3747xr3yw2zuu4r4lydov47wyg7fsbwkmp4ctf.py":42:40)
#loc31 = loc("/NHNHOME/WORKSPACE/26msit001_A/jinhyeok/loop_TTT/lact/.cache_inductor_llm/gf/cgfsllihnt476r3747xr3yw2zuu4r4lydov47wyg7fsbwkmp4ctf.py":42:60)
#loc32 = loc("/NHNHOME/WORKSPACE/26msit001_A/jinhyeok/loop_TTT/lact/.cache_inductor_llm/gf/cgfsllihnt476r3747xr3yw2zuu4r4lydov47wyg7fsbwkmp4ctf.py":42:55)
#loc33 = loc("/NHNHOME/WORKSPACE/26msit001_A/jinhyeok/loop_TTT/lact/.cache_inductor_llm/gf/cgfsllihnt476r3747xr3yw2zuu4r4lydov47wyg7fsbwkmp4ctf.py":42:66)
#loc34 = loc("/NHNHOME/WORKSPACE/26msit001_A/jinhyeok/loop_TTT/lact/.cache_inductor_llm/gf/cgfsllihnt476r3747xr3yw2zuu4r4lydov47wyg7fsbwkmp4ctf.py":42:47)
#loc35 = loc("/NHNHOME/WORKSPACE/26msit001_A/jinhyeok/loop_TTT/lact/.cache_inductor_llm/gf/cgfsllihnt476r3747xr3yw2zuu4r4lydov47wyg7fsbwkmp4ctf.py":42:34)
#loc36 = loc("/NHNHOME/WORKSPACE/26msit001_A/jinhyeok/loop_TTT/lact/.cache_inductor_llm/gf/cgfsllihnt476r3747xr3yw2zuu4r4lydov47wyg7fsbwkmp4ctf.py":42:86)
#loc37 = loc("/NHNHOME/WORKSPACE/26msit001_A/jinhyeok/loop_TTT/lact/.cache_inductor_llm/gf/cgfsllihnt476r3747xr3yw2zuu4r4lydov47wyg7fsbwkmp4ctf.py":42:93)
#loc38 = loc("/NHNHOME/WORKSPACE/26msit001_A/jinhyeok/loop_TTT/lact/.cache_inductor_llm/gf/cgfsllihnt476r3747xr3yw2zuu4r4lydov47wyg7fsbwkmp4ctf.py":42:76)
#loc39 = loc("/NHNHOME/WORKSPACE/26msit001_A/jinhyeok/loop_TTT/lact/.cache_inductor_llm/gf/cgfsllihnt476r3747xr3yw2zuu4r4lydov47wyg7fsbwkmp4ctf.py":42:144)
#loc40 = loc("/NHNHOME/WORKSPACE/26msit001_A/jinhyeok/loop_TTT/lact/.cache_inductor_llm/gf/cgfsllihnt476r3747xr3yw2zuu4r4lydov47wyg7fsbwkmp4ctf.py":44:54)
#loc41 = loc("/NHNHOME/WORKSPACE/26msit001_A/jinhyeok/loop_TTT/lact/.cache_inductor_llm/gf/cgfsllihnt476r3747xr3yw2zuu4r4lydov47wyg7fsbwkmp4ctf.py":44:34)
#loc42 = loc("/NHNHOME/WORKSPACE/26msit001_A/jinhyeok/loop_TTT/lact/.cache_inductor_llm/gf/cgfsllihnt476r3747xr3yw2zuu4r4lydov47wyg7fsbwkmp4ctf.py":44:86)
#loc43 = loc("/NHNHOME/WORKSPACE/26msit001_A/jinhyeok/loop_TTT/lact/.cache_inductor_llm/gf/cgfsllihnt476r3747xr3yw2zuu4r4lydov47wyg7fsbwkmp4ctf.py":44:93)
#loc44 = loc("/NHNHOME/WORKSPACE/26msit001_A/jinhyeok/loop_TTT/lact/.cache_inductor_llm/gf/cgfsllihnt476r3747xr3yw2zuu4r4lydov47wyg7fsbwkmp4ctf.py":44:76)
#loc45 = loc("/NHNHOME/WORKSPACE/26msit001_A/jinhyeok/loop_TTT/lact/.cache_inductor_llm/gf/cgfsllihnt476r3747xr3yw2zuu4r4lydov47wyg7fsbwkmp4ctf.py":45:15)
#loc46 = loc("/NHNHOME/WORKSPACE/26msit001_A/jinhyeok/loop_TTT/lact/.cache_inductor_llm/gf/cgfsllihnt476r3747xr3yw2zuu4r4lydov47wyg7fsbwkmp4ctf.py":46:23)
#loc47 = loc("/NHNHOME/WORKSPACE/26msit001_A/jinhyeok/loop_TTT/lact/.cache_inductor_llm/gf/cgfsllihnt476r3747xr3yw2zuu4r4lydov47wyg7fsbwkmp4ctf.py":47:16)
#loc48 = loc("/NHNHOME/WORKSPACE/26msit001_A/jinhyeok/loop_TTT/lact/.cache_inductor_llm/gf/cgfsllihnt476r3747xr3yw2zuu4r4lydov47wyg7fsbwkmp4ctf.py":48:24)
#loc49 = loc("/NHNHOME/WORKSPACE/26msit001_A/jinhyeok/loop_TTT/lact/.cache_inductor_llm/gf/cgfsllihnt476r3747xr3yw2zuu4r4lydov47wyg7fsbwkmp4ctf.py":49:23)
#loc50 = loc("/NHNHOME/WORKSPACE/26msit001_A/jinhyeok/loop_TTT/lact/.cache_inductor_llm/gf/cgfsllihnt476r3747xr3yw2zuu4r4lydov47wyg7fsbwkmp4ctf.py":50:55)
#loc51 = loc("/NHNHOME/WORKSPACE/26msit001_A/jinhyeok/loop_TTT/lact/.cache_inductor_llm/gf/cgfsllihnt476r3747xr3yw2zuu4r4lydov47wyg7fsbwkmp4ctf.py":50:35)
#loc52 = loc("/NHNHOME/WORKSPACE/26msit001_A/jinhyeok/loop_TTT/lact/.cache_inductor_llm/gf/cgfsllihnt476r3747xr3yw2zuu4r4lydov47wyg7fsbwkmp4ctf.py":50:87)
#loc53 = loc("/NHNHOME/WORKSPACE/26msit001_A/jinhyeok/loop_TTT/lact/.cache_inductor_llm/gf/cgfsllihnt476r3747xr3yw2zuu4r4lydov47wyg7fsbwkmp4ctf.py":50:94)
#loc54 = loc("/NHNHOME/WORKSPACE/26msit001_A/jinhyeok/loop_TTT/lact/.cache_inductor_llm/gf/cgfsllihnt476r3747xr3yw2zuu4r4lydov47wyg7fsbwkmp4ctf.py":50:77)
#loc55 = loc("/NHNHOME/WORKSPACE/26msit001_A/jinhyeok/loop_TTT/lact/.cache_inductor_llm/gf/cgfsllihnt476r3747xr3yw2zuu4r4lydov47wyg7fsbwkmp4ctf.py":51:25)
#loc56 = loc("/NHNHOME/WORKSPACE/26msit001_A/jinhyeok/loop_TTT/lact/.cache_inductor_llm/gf/cgfsllihnt476r3747xr3yw2zuu4r4lydov47wyg7fsbwkmp4ctf.py":52:24)
#loc57 = loc("/NHNHOME/WORKSPACE/26msit001_A/jinhyeok/loop_TTT/lact/.cache_inductor_llm/gf/cgfsllihnt476r3747xr3yw2zuu4r4lydov47wyg7fsbwkmp4ctf.py":53:23)
#loc58 = loc("/NHNHOME/WORKSPACE/26msit001_A/jinhyeok/loop_TTT/lact/.cache_inductor_llm/gf/cgfsllihnt476r3747xr3yw2zuu4r4lydov47wyg7fsbwkmp4ctf.py":56:24)
#loc59 = loc("/NHNHOME/WORKSPACE/26msit001_A/jinhyeok/loop_TTT/lact/.cache_inductor_llm/gf/cgfsllihnt476r3747xr3yw2zuu4r4lydov47wyg7fsbwkmp4ctf.py":57:40)
#loc60 = loc("/NHNHOME/WORKSPACE/26msit001_A/jinhyeok/loop_TTT/lact/.cache_inductor_llm/gf/cgfsllihnt476r3747xr3yw2zuu4r4lydov47wyg7fsbwkmp4ctf.py":58:38)
#loc61 = loc("/NHNHOME/WORKSPACE/26msit001_A/jinhyeok/loop_TTT/lact/.cache_inductor_llm/gf/cgfsllihnt476r3747xr3yw2zuu4r4lydov47wyg7fsbwkmp4ctf.py":60:25)
#loc62 = loc("/NHNHOME/WORKSPACE/26msit001_A/jinhyeok/loop_TTT/lact/.cache_inductor_llm/gf/cgfsllihnt476r3747xr3yw2zuu4r4lydov47wyg7fsbwkmp4ctf.py":61:36)
#loc63 = loc("/NHNHOME/WORKSPACE/26msit001_A/jinhyeok/loop_TTT/lact/.cache_inductor_llm/gf/cgfsllihnt476r3747xr3yw2zuu4r4lydov47wyg7fsbwkmp4ctf.py":61:50)
#loc64 = loc("/NHNHOME/WORKSPACE/26msit001_A/jinhyeok/loop_TTT/lact/.cache_inductor_llm/gf/cgfsllihnt476r3747xr3yw2zuu4r4lydov47wyg7fsbwkmp4ctf.py":61:8)
#loc65 = loc("/NHNHOME/WORKSPACE/26msit001_A/jinhyeok/loop_TTT/lact/.cache_inductor_llm/gf/cgfsllihnt476r3747xr3yw2zuu4r4lydov47wyg7fsbwkmp4ctf.py":62:27)
#loc66 = loc("/NHNHOME/WORKSPACE/26msit001_A/jinhyeok/loop_TTT/lact/.cache_inductor_llm/gf/cgfsllihnt476r3747xr3yw2zuu4r4lydov47wyg7fsbwkmp4ctf.py":62:30)
#loc67 = loc("/NHNHOME/WORKSPACE/26msit001_A/jinhyeok/loop_TTT/lact/.cache_inductor_llm/gf/cgfsllihnt476r3747xr3yw2zuu4r4lydov47wyg7fsbwkmp4ctf.py":63:25)
#loc68 = loc("/NHNHOME/WORKSPACE/26msit001_A/jinhyeok/loop_TTT/lact/.cache_inductor_llm/gf/cgfsllihnt476r3747xr3yw2zuu4r4lydov47wyg7fsbwkmp4ctf.py":63:37)
#loc69 = loc("/NHNHOME/WORKSPACE/26msit001_A/jinhyeok/loop_TTT/lact/.cache_inductor_llm/gf/cgfsllihnt476r3747xr3yw2zuu4r4lydov47wyg7fsbwkmp4ctf.py":63:4)
#loc71 = loc("/NHNHOME/WORKSPACE/26msit001_A/jinhyeok/TTT_camera_embedding/.venv_llm/lib/python3.12/site-packages/triton/language/standard.py":291:36)
#loc73 = loc("/NHNHOME/WORKSPACE/26msit001_A/jinhyeok/TTT_camera_embedding/.venv_llm/lib/python3.12/site-packages/triton/language/standard.py":291:11)
#loc74 = loc("/NHNHOME/WORKSPACE/26msit001_A/jinhyeok/TTT_camera_embedding/.venv_llm/lib/python3.12/site-packages/triton/language/standard.py":291:4)
#loc76 = loc("/NHNHOME/WORKSPACE/26msit001_A/jinhyeok/TTT_camera_embedding/.venv_llm/lib/python3.12/site-packages/triton/language/standard.py":261:15)
#loc77 = loc("/NHNHOME/WORKSPACE/26msit001_A/jinhyeok/TTT_camera_embedding/.venv_llm/lib/python3.12/site-packages/triton/language/standard.py":261:11)
#loc78 = loc("/NHNHOME/WORKSPACE/26msit001_A/jinhyeok/TTT_camera_embedding/.venv_llm/lib/python3.12/site-packages/triton/language/standard.py":261:4)
#loc86 = loc("r0_numel"(#loc1))
#loc87 = loc("xoffset"(#loc2))
#loc88 = loc("xoffset"(#loc3))
#loc89 = loc("xindex"(#loc4))
#loc90 = loc("xindex"(#loc5))
#loc91 = loc("xindex"(#loc6))
#loc92 = loc("xmask"(#loc7))
#loc93 = loc("r0_base"(#loc8))
#loc94 = loc("r0_base"(#loc9))
#loc95 = loc("x0"(#loc10))
#loc96 = loc("x1"(#loc11))
#loc97 = loc("_tmp23"(#loc12))
#loc98 = loc("_tmp23"(#loc13))
#loc99 = loc("r0_index"(#loc14))
#loc100 = loc("r0_mask"(#loc15))
#loc101 = loc("tmp0"(#loc16))
#loc102 = loc("tmp0"(#loc17))
#loc103 = loc("tmp1"(#loc18))
#loc104 = loc("tmp2"(#loc19))
#loc105 = loc("tmp3"(#loc20))
#loc106 = loc("tmp3"(#loc21))
#loc107 = loc("tmp3"(#loc22))
#loc108 = loc("tmp3"(#loc23))
#loc109 = loc("tmp3"(#loc24))
#loc110 = loc("tmp3"(#loc25))
#loc111 = loc("tmp3"(#loc26))
#loc112 = loc("tmp3"(#loc27))
#loc113 = loc("tmp3"(#loc28))
#loc114 = loc("tmp3"(#loc29))
#loc115 = loc("tmp5"(#loc30))
#loc116 = loc("tmp5"(#loc31))
#loc117 = loc("tmp5"(#loc32))
#loc118 = loc("tmp5"(#loc33))
#loc119 = loc("tmp5"(#loc34))
#loc120 = loc("tmp5"(#loc35))
#loc121 = loc("tmp5"(#loc36))
#loc122 = loc("tmp5"(#loc37))
#loc123 = loc("tmp5"(#loc38))
#loc124 = loc("tmp5"(#loc39))
#loc125 = loc("tmp7"(#loc40))
#loc126 = loc("tmp7"(#loc41))
#loc127 = loc("tmp7"(#loc42))
#loc128 = loc("tmp7"(#loc43))
#loc129 = loc("tmp7"(#loc44))
#loc130 = loc("tmp8"(#loc45))
#loc131 = loc("tmp9"(#loc46))
#loc132 = loc("tmp10"(#loc47))
#loc133 = loc("tmp11"(#loc48))
#loc134 = loc("tmp12"(#loc49))
#loc135 = loc("tmp13"(#loc50))
#loc136 = loc("tmp13"(#loc51))
#loc137 = loc("tmp13"(#loc52))
#loc138 = loc("tmp13"(#loc53))
#loc139 = loc("tmp13"(#loc54))
#loc140 = loc("tmp14"(#loc55))
#loc141 = loc("tmp15"(#loc56))
#loc142 = loc("tmp16"(#loc57))
#loc143 = loc("tmp19"(#loc58))
#loc144 = loc("tmp20"(#loc59))
#loc145 = loc("tmp21"(#loc60))
#loc146 = loc("tmp24"(#loc61))
#loc147 = loc("_tmp23"(#loc62))
#loc148 = loc("_tmp23"(#loc63))
#loc149 = loc("tmp23"(#loc65))
#loc150 = loc("tmp23"(#loc66))
