#loc = loc("/NHNHOME/WORKSPACE/26msit001_A/jinhyeok/loop_TTT/lact/.cache_inductor_llm/5m/c5m7wwzc4qom3jtjlj453ig2usqfglpm2ptw2i6zvwnd2xkeofmh.py":18:0)
#loc110 = loc("in_ptr0"(#loc))
#loc111 = loc("in_ptr1"(#loc))
#loc112 = loc("in_ptr2"(#loc))
#loc113 = loc("in_ptr3"(#loc))
#loc114 = loc("in_ptr4"(#loc))
#loc115 = loc("in_ptr5"(#loc))
#loc116 = loc("in_ptr6"(#loc))
#loc117 = loc("out_ptr0"(#loc))
#loc118 = loc("out_ptr1"(#loc))
#loc119 = loc("out_ptr2"(#loc))
#loc120 = loc("out_ptr3"(#loc))
#loc121 = loc("out_ptr4"(#loc))
#loc122 = loc("out_ptr5"(#loc))
#loc123 = loc("ynumel"(#loc))
#loc124 = loc("xnumel"(#loc))
module {
  tt.func public @triton_poi_fused__to_copy_add_div_linalg_vector_norm_mean_mul_slice_transpose_zeros_like_13(%in_ptr0: !tt.ptr<bf16> {tt.divisibility = 16 : i32} loc("in_ptr0"(#loc)), %in_ptr1: !tt.ptr<f32> {tt.divisibility = 16 : i32} loc("in_ptr1"(#loc)), %in_ptr2: !tt.ptr<f32> {tt.divisibility = 16 : i32} loc("in_ptr2"(#loc)), %in_ptr3: !tt.ptr<bf16> {tt.divisibility = 16 : i32} loc("in_ptr3"(#loc)), %in_ptr4: !tt.ptr<bf16> {tt.divisibility = 16 : i32} loc("in_ptr4"(#loc)), %in_ptr5: !tt.ptr<bf16> {tt.divisibility = 16 : i32} loc("in_ptr5"(#loc)), %in_ptr6: !tt.ptr<f32> {tt.divisibility = 16 : i32} loc("in_ptr6"(#loc)), %out_ptr0: !tt.ptr<f32> {tt.divisibility = 16 : i32} loc("out_ptr0"(#loc)), %out_ptr1: !tt.ptr<bf16> {tt.divisibility = 16 : i32} loc("out_ptr1"(#loc)), %out_ptr2: !tt.ptr<bf16> {tt.divisibility = 16 : i32} loc("out_ptr2"(#loc)), %out_ptr3: !tt.ptr<bf16> {tt.divisibility = 16 : i32} loc("out_ptr3"(#loc)), %out_ptr4: !tt.ptr<bf16> {tt.divisibility = 16 : i32} loc("out_ptr4"(#loc)), %out_ptr5: !tt.ptr<bf16> {tt.divisibility = 16 : i32} loc("out_ptr5"(#loc)), %ynumel: i32 {tt.divisibility = 16 : i32} loc("ynumel"(#loc)), %xnumel: i32 {tt.divisibility = 16 : i32} loc("xnumel"(#loc))) attributes {noinline = false} {
    %xnumel_0 = arith.constant 192 : i32 loc(#loc125)
    %yoffset = tt.get_program_id y : i32 loc(#loc126)
    %yoffset_1 = tt.get_program_id z : i32 loc(#loc127)
    %yoffset_2 = tt.get_num_programs y : i32 loc(#loc128)
    %yoffset_3 = arith.muli %yoffset_1, %yoffset_2 : i32 loc(#loc129)
    %yoffset_4 = arith.addi %yoffset, %yoffset_3 : i32 loc(#loc130)
    %yoffset_5 = arith.constant 1024 : i32 loc(#loc131)
    %yoffset_6 = arith.constant 1024 : i32 loc(#loc131)
    %yoffset_7 = arith.muli %yoffset_4, %yoffset_6 : i32 loc(#loc131)
    %yindex = tt.make_range {end = 1024 : i32, start = 0 : i32} : tensor<1024xi32> loc(#loc132)
    %yindex_8 = tt.expand_dims %yindex {axis = 1 : i32} : tensor<1024xi32> -> tensor<1024x1xi32> loc(#loc133)
    %yindex_9 = tt.splat %yoffset_7 : i32 -> tensor<1024x1xi32> loc(#loc134)
    %yindex_10 = arith.addi %yindex_9, %yindex_8 : tensor<1024x1xi32> loc(#loc134)
    %ymask = tt.splat %ynumel : i32 -> tensor<1024x1xi32> loc(#loc135)
    %ymask_11 = arith.cmpi slt, %yindex_10, %ymask : tensor<1024x1xi32> loc(#loc135)
    %xoffset = tt.get_program_id x : i32 loc(#loc136)
    %xoffset_12 = arith.constant 1 : i32 loc(#loc137)
    %xoffset_13 = arith.constant 1 : i32 loc(#loc137)
    %xoffset_14 = arith.muli %xoffset, %xoffset_13 : i32 loc(#loc137)
    %xindex = tt.make_range {end = 1 : i32, start = 0 : i32} : tensor<1xi32> loc(#loc138)
    %xindex_15 = tt.expand_dims %xindex {axis = 0 : i32} : tensor<1xi32> -> tensor<1x1xi32> loc(#loc139)
    %xindex_16 = tt.splat %xoffset_14 : i32 -> tensor<1x1xi32> loc(#loc140)
    %xindex_17 = arith.addi %xindex_16, %xindex_15 : tensor<1x1xi32> loc(#loc140)
    %xmask = arith.constant dense<192> : tensor<1x1xi32> loc(#loc141)
    %xmask_18 = arith.cmpi slt, %xindex_17, %xmask : tensor<1x1xi32> loc(#loc141)
    %y1 = arith.constant 192 : i32 loc(#loc142)
    %y1_19 = arith.constant 192 : i32 loc(#loc142)
    %y1_20 = arith.constant dense<192> : tensor<1024x1xi32> loc(#loc142)
    %y1_21 = arith.divsi %yindex_10, %y1_20 : tensor<1024x1xi32> loc(#loc142)
    %y0 = arith.constant 192 : i32 loc(#loc143)
    %y0_22 = arith.constant 192 : i32 loc(#loc143)
    %y0_23 = arith.constant dense<192> : tensor<1024x1xi32> loc(#loc143)
    %y0_24 = arith.remsi %yindex_10, %y0_23 : tensor<1024x1xi32> loc(#loc143)
    %tmp0 = arith.constant 192 : i32 loc(#loc144)
    %tmp0_25 = arith.constant 192 : i32 loc(#loc144)
    %tmp0_26 = arith.constant dense<192> : tensor<1024x1xi32> loc(#loc144)
    %tmp0_27 = arith.muli %tmp0_26, %yindex_10 : tensor<1024x1xi32> loc(#loc144)
    %tmp0_28 = tt.broadcast %xindex_17 : tensor<1x1xi32> -> tensor<1024x1xi32> loc(#loc145)
    %tmp0_29 = arith.addi %tmp0_28, %tmp0_27 : tensor<1024x1xi32> loc(#loc145)
    %tmp0_30 = tt.splat %in_ptr0 : !tt.ptr<bf16> -> tensor<1024x1x!tt.ptr<bf16>> loc(#loc146)
    %tmp0_31 = tt.addptr %tmp0_30, %tmp0_29 : tensor<1024x1x!tt.ptr<bf16>>, tensor<1024x1xi32> loc(#loc146)
    %tmp0_32 = tt.broadcast %xmask_18 : tensor<1x1xi1> -> tensor<1024x1xi1> loc(#loc147)
    %tmp0_33 = arith.andi %tmp0_32, %ymask_11 : tensor<1024x1xi1> loc(#loc147)
    %tmp0_34 = tt.load %tmp0_31, %tmp0_33 evictionPolicy = evict_last : tensor<1024x1x!tt.ptr<bf16>> loc(#loc148)
    %tmp0_35 = arith.extf %tmp0_34 : tensor<1024x1xbf16> to tensor<1024x1xf32> loc(#loc149)
    %tmp2 = tt.splat %in_ptr1 : !tt.ptr<f32> -> tensor<1024x1x!tt.ptr<f32>> loc(#loc150)
    %tmp2_36 = tt.addptr %tmp2, %y1_21 : tensor<1024x1x!tt.ptr<f32>>, tensor<1024x1xi32> loc(#loc150)
    %tmp2_37 = tt.load %tmp2_36, %ymask_11 evictionPolicy = evict_last : tensor<1024x1x!tt.ptr<f32>> loc(#loc151)
    %tmp10 = tt.splat %in_ptr2 : !tt.ptr<f32> -> tensor<1024x1x!tt.ptr<f32>> loc(#loc152)
    %tmp10_38 = tt.addptr %tmp10, %y1_21 : tensor<1024x1x!tt.ptr<f32>>, tensor<1024x1xi32> loc(#loc152)
    %tmp10_39 = tt.load %tmp10_38, %ymask_11 evictionPolicy = evict_last : tensor<1024x1x!tt.ptr<f32>> loc(#loc153)
    %tmp17 = arith.constant 192 : i32 loc(#loc154)
    %tmp17_40 = arith.constant 192 : i32 loc(#loc154)
    %tmp17_41 = arith.constant dense<192> : tensor<1024x1xi32> loc(#loc154)
    %tmp17_42 = arith.muli %tmp17_41, %yindex_10 : tensor<1024x1xi32> loc(#loc154)
    %tmp17_43 = tt.broadcast %xindex_17 : tensor<1x1xi32> -> tensor<1024x1xi32> loc(#loc155)
    %tmp17_44 = arith.addi %tmp17_43, %tmp17_42 : tensor<1024x1xi32> loc(#loc155)
    %tmp17_45 = tt.splat %in_ptr3 : !tt.ptr<bf16> -> tensor<1024x1x!tt.ptr<bf16>> loc(#loc156)
    %tmp17_46 = tt.addptr %tmp17_45, %tmp17_44 : tensor<1024x1x!tt.ptr<bf16>>, tensor<1024x1xi32> loc(#loc156)
    %tmp17_47 = tt.broadcast %xmask_18 : tensor<1x1xi1> -> tensor<1024x1xi1> loc(#loc157)
    %tmp17_48 = arith.andi %tmp17_47, %ymask_11 : tensor<1024x1xi1> loc(#loc157)
    %tmp17_49 = tt.load %tmp17_46, %tmp17_48 evictionPolicy = evict_last : tensor<1024x1x!tt.ptr<bf16>> loc(#loc158)
    %tmp17_50 = arith.extf %tmp17_49 : tensor<1024x1xbf16> to tensor<1024x1xf32> loc(#loc159)
    %tmp22 = arith.constant 192 : i32 loc(#loc160)
    %tmp22_51 = arith.constant 192 : i32 loc(#loc160)
    %tmp22_52 = arith.constant dense<192> : tensor<1024x1xi32> loc(#loc160)
    %tmp22_53 = arith.muli %tmp22_52, %yindex_10 : tensor<1024x1xi32> loc(#loc160)
    %tmp22_54 = tt.broadcast %xindex_17 : tensor<1x1xi32> -> tensor<1024x1xi32> loc(#loc161)
    %tmp22_55 = arith.addi %tmp22_54, %tmp22_53 : tensor<1024x1xi32> loc(#loc161)
    %tmp22_56 = tt.splat %in_ptr4 : !tt.ptr<bf16> -> tensor<1024x1x!tt.ptr<bf16>> loc(#loc162)
    %tmp22_57 = tt.addptr %tmp22_56, %tmp22_55 : tensor<1024x1x!tt.ptr<bf16>>, tensor<1024x1xi32> loc(#loc162)
    %tmp22_58 = tt.broadcast %xmask_18 : tensor<1x1xi1> -> tensor<1024x1xi1> loc(#loc163)
    %tmp22_59 = arith.andi %tmp22_58, %ymask_11 : tensor<1024x1xi1> loc(#loc163)
    %tmp22_60 = tt.load %tmp22_57, %tmp22_59 evictionPolicy = evict_last : tensor<1024x1x!tt.ptr<bf16>> loc(#loc164)
    %tmp22_61 = arith.extf %tmp22_60 : tensor<1024x1xbf16> to tensor<1024x1xf32> loc(#loc165)
    %tmp26 = arith.constant 192 : i32 loc(#loc166)
    %tmp26_62 = arith.constant 192 : i32 loc(#loc166)
    %tmp26_63 = arith.constant dense<192> : tensor<1024x1xi32> loc(#loc166)
    %tmp26_64 = arith.muli %tmp26_63, %yindex_10 : tensor<1024x1xi32> loc(#loc166)
    %tmp26_65 = tt.broadcast %xindex_17 : tensor<1x1xi32> -> tensor<1024x1xi32> loc(#loc167)
    %tmp26_66 = arith.addi %tmp26_65, %tmp26_64 : tensor<1024x1xi32> loc(#loc167)
    %tmp26_67 = tt.splat %in_ptr5 : !tt.ptr<bf16> -> tensor<1024x1x!tt.ptr<bf16>> loc(#loc168)
    %tmp26_68 = tt.addptr %tmp26_67, %tmp26_66 : tensor<1024x1x!tt.ptr<bf16>>, tensor<1024x1xi32> loc(#loc168)
    %tmp26_69 = tt.broadcast %xmask_18 : tensor<1x1xi1> -> tensor<1024x1xi1> loc(#loc169)
    %tmp26_70 = arith.andi %tmp26_69, %ymask_11 : tensor<1024x1xi1> loc(#loc169)
    %tmp26_71 = tt.load %tmp26_68, %tmp26_70 evictionPolicy = evict_last : tensor<1024x1x!tt.ptr<bf16>> loc(#loc170)
    %tmp26_72 = arith.extf %tmp26_71 : tensor<1024x1xbf16> to tensor<1024x1xf32> loc(#loc171)
    %tmp31 = tt.splat %in_ptr6 : !tt.ptr<f32> -> tensor<1024x1x!tt.ptr<f32>> loc(#loc172)
    %tmp31_73 = tt.addptr %tmp31, %y1_21 : tensor<1024x1x!tt.ptr<f32>>, tensor<1024x1xi32> loc(#loc172)
    %tmp31_74 = tt.load %tmp31_73, %ymask_11 evictionPolicy = evict_last : tensor<1024x1x!tt.ptr<f32>> loc(#loc173)
    %tmp36 = arith.constant 192 : i32 loc(#loc174)
    %tmp36_75 = arith.constant 192 : i32 loc(#loc174)
    %tmp36_76 = arith.constant dense<192> : tensor<1x1xi32> loc(#loc174)
    %tmp36_77 = arith.muli %tmp36_76, %xindex_17 : tensor<1x1xi32> loc(#loc174)
    %tmp36_78 = tt.broadcast %tmp36_77 : tensor<1x1xi32> -> tensor<1024x1xi32> loc(#loc175)
    %tmp36_79 = arith.addi %y0_24, %tmp36_78 : tensor<1024x1xi32> loc(#loc175)
    %tmp36_80 = arith.constant 36864 : i32 loc(#loc176)
    %tmp36_81 = arith.constant 36864 : i32 loc(#loc176)
    %tmp36_82 = arith.constant dense<36864> : tensor<1024x1xi32> loc(#loc176)
    %tmp36_83 = arith.muli %tmp36_82, %y1_21 : tensor<1024x1xi32> loc(#loc176)
    %tmp36_84 = arith.addi %tmp36_79, %tmp36_83 : tensor<1024x1xi32> loc(#loc177)
    %tmp36_85 = tt.splat %in_ptr5 : !tt.ptr<bf16> -> tensor<1024x1x!tt.ptr<bf16>> loc(#loc178)
    %tmp36_86 = tt.addptr %tmp36_85, %tmp36_84 : tensor<1024x1x!tt.ptr<bf16>>, tensor<1024x1xi32> loc(#loc178)
    %tmp36_87 = tt.broadcast %xmask_18 : tensor<1x1xi1> -> tensor<1024x1xi1> loc(#loc179)
    %tmp36_88 = arith.andi %tmp36_87, %ymask_11 : tensor<1024x1xi1> loc(#loc179)
    %tmp36_89 = tt.load %tmp36_86, %tmp36_88 evictionPolicy = evict_last : tensor<1024x1x!tt.ptr<bf16>> loc(#loc180)
    %tmp36_90 = arith.extf %tmp36_89 : tensor<1024x1xbf16> to tensor<1024x1xf32> loc(#loc181)
    %tmp3 = arith.constant 1.024000e+03 : f32 loc(#loc182)
    %tmp4 = arith.constant dense<1.024000e+03> : tensor<1024x1xf32> loc(#loc183)
    %tmp4_91 = arith.divf %tmp2_37, %tmp4 : tensor<1024x1xf32> loc(#loc183)
    %tmp5 = arith.constant 0.000000e+00 : f32 loc(#loc184)
    %tmp6 = arith.constant dense<0.000000e+00> : tensor<1024x1xf32> loc(#loc185)
    %tmp6_92 = arith.mulf %tmp6, %tmp4_91 : tensor<1024x1xf32> loc(#loc185)
    %tmp7 = arith.addf %tmp0_35, %tmp6_92 : tensor<1024x1xf32> loc(#loc186)
    %tmp11 = tt.extern_elementwise %tmp10_39 {libname = "", libpath = "", pure = true, symbol = "__nv_sqrtf"} : (tensor<1024x1xf32>) -> tensor<1024x1xf32> loc(#loc187)
    %tmp12 = arith.constant 1.000000e-07 : f32 loc(#loc188)
    %tmp13 = arith.constant dense<1.000000e-07> : tensor<1024x1xf32> loc(#loc189)
    %tmp13_93 = arith.addf %tmp11, %tmp13 : tensor<1024x1xf32> loc(#loc189)
    %tmp14 = arith.divf %tmp7, %tmp13_93 : tensor<1024x1xf32> loc(#loc190)
    %tmp15 = arith.constant 4.084800e+00 : f32 loc(#loc191)
    %tmp16 = arith.constant dense<4.084800e+00> : tensor<1024x1xf32> loc(#loc192)
    %tmp16_94 = arith.mulf %tmp14, %tmp16 : tensor<1024x1xf32> loc(#loc192)
    %tmp19 = arith.addf %tmp16_94, %tmp17_50 : tensor<1024x1xf32> loc(#loc193)
    %tmp20 = arith.constant 3.950500e+00 : f32 loc(#loc194)
    %tmp21 = arith.constant dense<3.950500e+00> : tensor<1024x1xf32> loc(#loc195)
    %tmp21_95 = arith.mulf %tmp19, %tmp21 : tensor<1024x1xf32> loc(#loc195)
    %tmp24 = arith.addf %tmp21_95, %tmp22_61 : tensor<1024x1xf32> loc(#loc196)
    %tmp28 = arith.addf %tmp26_72, %tmp6_92 : tensor<1024x1xf32> loc(#loc197)
    %tmp32 = tt.extern_elementwise %tmp31_74 {libname = "", libpath = "", pure = true, symbol = "__nv_sqrtf"} : (tensor<1024x1xf32>) -> tensor<1024x1xf32> loc(#loc198)
    %tmp33 = arith.constant dense<1.000000e-07> : tensor<1024x1xf32> loc(#loc199)
    %tmp33_96 = arith.addf %tmp32, %tmp33 : tensor<1024x1xf32> loc(#loc199)
    %tmp34 = arith.divf %tmp28, %tmp33_96 : tensor<1024x1xf32> loc(#loc200)
    %tmp38 = arith.addf %tmp36_90, %tmp6_92 : tensor<1024x1xf32> loc(#loc201)
    %tmp41 = arith.divf %tmp38, %tmp33_96 : tensor<1024x1xf32> loc(#loc202)
    %c192_i32 = arith.constant 192 : i32 loc(#loc79)
    %c192_i32_97 = arith.constant 192 : i32 loc(#loc79)
    %cst = arith.constant dense<192> : tensor<1024x1xi32> loc(#loc79)
    %0 = arith.muli %cst, %yindex_10 : tensor<1024x1xi32> loc(#loc79)
    %1 = tt.broadcast %xindex_17 : tensor<1x1xi32> -> tensor<1024x1xi32> loc(#loc80)
    %2 = arith.addi %1, %0 : tensor<1024x1xi32> loc(#loc80)
    %3 = tt.splat %out_ptr0 : !tt.ptr<f32> -> tensor<1024x1x!tt.ptr<f32>> loc(#loc81)
    %4 = tt.addptr %3, %2 : tensor<1024x1x!tt.ptr<f32>>, tensor<1024x1xi32> loc(#loc81)
    %5 = tt.broadcast %xmask_18 : tensor<1x1xi1> -> tensor<1024x1xi1> loc(#loc82)
    %6 = arith.andi %5, %ymask_11 : tensor<1024x1xi1> loc(#loc82)
    tt.store %4, %tmp24, %6 : tensor<1024x1x!tt.ptr<f32>> loc(#loc83)
    %c192_i32_98 = arith.constant 192 : i32 loc(#loc84)
    %c192_i32_99 = arith.constant 192 : i32 loc(#loc84)
    %cst_100 = arith.constant dense<192> : tensor<1024x1xi32> loc(#loc84)
    %7 = arith.muli %cst_100, %yindex_10 : tensor<1024x1xi32> loc(#loc84)
    %8 = tt.broadcast %xindex_17 : tensor<1x1xi32> -> tensor<1024x1xi32> loc(#loc85)
    %9 = arith.addi %8, %7 : tensor<1024x1xi32> loc(#loc85)
    %10 = tt.splat %out_ptr1 : !tt.ptr<bf16> -> tensor<1024x1x!tt.ptr<bf16>> loc(#loc86)
    %11 = tt.addptr %10, %9 : tensor<1024x1x!tt.ptr<bf16>>, tensor<1024x1xi32> loc(#loc86)
    %12 = tt.broadcast %xmask_18 : tensor<1x1xi1> -> tensor<1024x1xi1> loc(#loc87)
    %13 = arith.andi %12, %ymask_11 : tensor<1024x1xi1> loc(#loc87)
    %14 = arith.truncf %tmp24 : tensor<1024x1xf32> to tensor<1024x1xbf16> loc(#loc88)
    tt.store %11, %14, %13 : tensor<1024x1x!tt.ptr<bf16>> loc(#loc88)
    %c192_i32_101 = arith.constant 192 : i32 loc(#loc89)
    %c192_i32_102 = arith.constant 192 : i32 loc(#loc89)
    %cst_103 = arith.constant dense<192> : tensor<1024x1xi32> loc(#loc89)
    %15 = arith.muli %cst_103, %yindex_10 : tensor<1024x1xi32> loc(#loc89)
    %16 = tt.broadcast %xindex_17 : tensor<1x1xi32> -> tensor<1024x1xi32> loc(#loc90)
    %17 = arith.addi %16, %15 : tensor<1024x1xi32> loc(#loc90)
    %18 = tt.splat %out_ptr2 : !tt.ptr<bf16> -> tensor<1024x1x!tt.ptr<bf16>> loc(#loc91)
    %19 = tt.addptr %18, %17 : tensor<1024x1x!tt.ptr<bf16>>, tensor<1024x1xi32> loc(#loc91)
    %20 = tt.broadcast %xmask_18 : tensor<1x1xi1> -> tensor<1024x1xi1> loc(#loc92)
    %21 = arith.andi %20, %ymask_11 : tensor<1024x1xi1> loc(#loc92)
    %22 = arith.truncf %tmp24 : tensor<1024x1xf32> to tensor<1024x1xbf16> loc(#loc93)
    tt.store %19, %22, %21 : tensor<1024x1x!tt.ptr<bf16>> loc(#loc93)
    %c192_i32_104 = arith.constant 192 : i32 loc(#loc94)
    %c192_i32_105 = arith.constant 192 : i32 loc(#loc94)
    %cst_106 = arith.constant dense<192> : tensor<1024x1xi32> loc(#loc94)
    %23 = arith.muli %cst_106, %yindex_10 : tensor<1024x1xi32> loc(#loc94)
    %24 = tt.broadcast %xindex_17 : tensor<1x1xi32> -> tensor<1024x1xi32> loc(#loc95)
    %25 = arith.addi %24, %23 : tensor<1024x1xi32> loc(#loc95)
    %26 = tt.splat %out_ptr3 : !tt.ptr<bf16> -> tensor<1024x1x!tt.ptr<bf16>> loc(#loc96)
    %27 = tt.addptr %26, %25 : tensor<1024x1x!tt.ptr<bf16>>, tensor<1024x1xi32> loc(#loc96)
    %28 = tt.broadcast %xmask_18 : tensor<1x1xi1> -> tensor<1024x1xi1> loc(#loc97)
    %29 = arith.andi %28, %ymask_11 : tensor<1024x1xi1> loc(#loc97)
    %30 = arith.truncf %tmp34 : tensor<1024x1xf32> to tensor<1024x1xbf16> loc(#loc98)
    tt.store %27, %30, %29 : tensor<1024x1x!tt.ptr<bf16>> loc(#loc98)
    %c192_i32_107 = arith.constant 192 : i32 loc(#loc99)
    %c192_i32_108 = arith.constant 192 : i32 loc(#loc99)
    %cst_109 = arith.constant dense<192> : tensor<1024x1xi32> loc(#loc99)
    %31 = arith.muli %cst_109, %yindex_10 : tensor<1024x1xi32> loc(#loc99)
    %32 = tt.broadcast %xindex_17 : tensor<1x1xi32> -> tensor<1024x1xi32> loc(#loc100)
    %33 = arith.addi %32, %31 : tensor<1024x1xi32> loc(#loc100)
    %34 = tt.splat %out_ptr4 : !tt.ptr<bf16> -> tensor<1024x1x!tt.ptr<bf16>> loc(#loc101)
    %35 = tt.addptr %34, %33 : tensor<1024x1x!tt.ptr<bf16>>, tensor<1024x1xi32> loc(#loc101)
    %36 = tt.broadcast %xmask_18 : tensor<1x1xi1> -> tensor<1024x1xi1> loc(#loc102)
    %37 = arith.andi %36, %ymask_11 : tensor<1024x1xi1> loc(#loc102)
    %38 = arith.truncf %tmp34 : tensor<1024x1xf32> to tensor<1024x1xbf16> loc(#loc103)
    tt.store %35, %38, %37 : tensor<1024x1x!tt.ptr<bf16>> loc(#loc103)
    %c192_i32_110 = arith.constant 192 : i32 loc(#loc104)
    %c192_i32_111 = arith.constant 192 : i32 loc(#loc104)
    %cst_112 = arith.constant dense<192> : tensor<1024x1xi32> loc(#loc104)
    %39 = arith.muli %cst_112, %yindex_10 : tensor<1024x1xi32> loc(#loc104)
    %40 = tt.broadcast %xindex_17 : tensor<1x1xi32> -> tensor<1024x1xi32> loc(#loc105)
    %41 = arith.addi %40, %39 : tensor<1024x1xi32> loc(#loc105)
    %42 = tt.splat %out_ptr5 : !tt.ptr<bf16> -> tensor<1024x1x!tt.ptr<bf16>> loc(#loc106)
    %43 = tt.addptr %42, %41 : tensor<1024x1x!tt.ptr<bf16>>, tensor<1024x1xi32> loc(#loc106)
    %44 = tt.broadcast %xmask_18 : tensor<1x1xi1> -> tensor<1024x1xi1> loc(#loc107)
    %45 = arith.andi %44, %ymask_11 : tensor<1024x1xi1> loc(#loc107)
    %46 = arith.truncf %tmp41 : tensor<1024x1xf32> to tensor<1024x1xbf16> loc(#loc108)
    tt.store %43, %46, %45 : tensor<1024x1x!tt.ptr<bf16>> loc(#loc108)
    tt.return loc(#loc109)
  } loc(#loc)
} loc(#loc)
#loc1 = loc("/NHNHOME/WORKSPACE/26msit001_A/jinhyeok/loop_TTT/lact/.cache_inductor_llm/5m/c5m7wwzc4qom3jtjlj453ig2usqfglpm2ptw2i6zvwnd2xkeofmh.py":19:13)
#loc2 = loc("/NHNHOME/WORKSPACE/26msit001_A/jinhyeok/loop_TTT/lact/.cache_inductor_llm/5m/c5m7wwzc4qom3jtjlj453ig2usqfglpm2ptw2i6zvwnd2xkeofmh.py":20:29)
#loc3 = loc("/NHNHOME/WORKSPACE/26msit001_A/jinhyeok/loop_TTT/lact/.cache_inductor_llm/5m/c5m7wwzc4qom3jtjlj453ig2usqfglpm2ptw2i6zvwnd2xkeofmh.py":20:48)
#loc4 = loc("/NHNHOME/WORKSPACE/26msit001_A/jinhyeok/loop_TTT/lact/.cache_inductor_llm/5m/c5m7wwzc4qom3jtjlj453ig2usqfglpm2ptw2i6zvwnd2xkeofmh.py":20:69)
#loc5 = loc("/NHNHOME/WORKSPACE/26msit001_A/jinhyeok/loop_TTT/lact/.cache_inductor_llm/5m/c5m7wwzc4qom3jtjlj453ig2usqfglpm2ptw2i6zvwnd2xkeofmh.py":20:53)
#loc6 = loc("/NHNHOME/WORKSPACE/26msit001_A/jinhyeok/loop_TTT/lact/.cache_inductor_llm/5m/c5m7wwzc4qom3jtjlj453ig2usqfglpm2ptw2i6zvwnd2xkeofmh.py":20:34)
#loc7 = loc("/NHNHOME/WORKSPACE/26msit001_A/jinhyeok/loop_TTT/lact/.cache_inductor_llm/5m/c5m7wwzc4qom3jtjlj453ig2usqfglpm2ptw2i6zvwnd2xkeofmh.py":20:75)
#loc8 = loc("/NHNHOME/WORKSPACE/26msit001_A/jinhyeok/loop_TTT/lact/.cache_inductor_llm/5m/c5m7wwzc4qom3jtjlj453ig2usqfglpm2ptw2i6zvwnd2xkeofmh.py":21:36)
#loc9 = loc("/NHNHOME/WORKSPACE/26msit001_A/jinhyeok/loop_TTT/lact/.cache_inductor_llm/5m/c5m7wwzc4qom3jtjlj453ig2usqfglpm2ptw2i6zvwnd2xkeofmh.py":21:44)
#loc10 = loc("/NHNHOME/WORKSPACE/26msit001_A/jinhyeok/loop_TTT/lact/.cache_inductor_llm/5m/c5m7wwzc4qom3jtjlj453ig2usqfglpm2ptw2i6zvwnd2xkeofmh.py":21:23)
#loc11 = loc("/NHNHOME/WORKSPACE/26msit001_A/jinhyeok/loop_TTT/lact/.cache_inductor_llm/5m/c5m7wwzc4qom3jtjlj453ig2usqfglpm2ptw2i6zvwnd2xkeofmh.py":22:21)
#loc12 = loc("/NHNHOME/WORKSPACE/26msit001_A/jinhyeok/loop_TTT/lact/.cache_inductor_llm/5m/c5m7wwzc4qom3jtjlj453ig2usqfglpm2ptw2i6zvwnd2xkeofmh.py":23:28)
#loc13 = loc("/NHNHOME/WORKSPACE/26msit001_A/jinhyeok/loop_TTT/lact/.cache_inductor_llm/5m/c5m7wwzc4qom3jtjlj453ig2usqfglpm2ptw2i6zvwnd2xkeofmh.py":23:33)
#loc14 = loc("/NHNHOME/WORKSPACE/26msit001_A/jinhyeok/loop_TTT/lact/.cache_inductor_llm/5m/c5m7wwzc4qom3jtjlj453ig2usqfglpm2ptw2i6zvwnd2xkeofmh.py":24:36)
#loc15 = loc("/NHNHOME/WORKSPACE/26msit001_A/jinhyeok/loop_TTT/lact/.cache_inductor_llm/5m/c5m7wwzc4qom3jtjlj453ig2usqfglpm2ptw2i6zvwnd2xkeofmh.py":24:44)
#loc16 = loc("/NHNHOME/WORKSPACE/26msit001_A/jinhyeok/loop_TTT/lact/.cache_inductor_llm/5m/c5m7wwzc4qom3jtjlj453ig2usqfglpm2ptw2i6zvwnd2xkeofmh.py":24:23)
#loc17 = loc("/NHNHOME/WORKSPACE/26msit001_A/jinhyeok/loop_TTT/lact/.cache_inductor_llm/5m/c5m7wwzc4qom3jtjlj453ig2usqfglpm2ptw2i6zvwnd2xkeofmh.py":25:21)
#loc18 = loc("/NHNHOME/WORKSPACE/26msit001_A/jinhyeok/loop_TTT/lact/.cache_inductor_llm/5m/c5m7wwzc4qom3jtjlj453ig2usqfglpm2ptw2i6zvwnd2xkeofmh.py":28:19)
#loc19 = loc("/NHNHOME/WORKSPACE/26msit001_A/jinhyeok/loop_TTT/lact/.cache_inductor_llm/5m/c5m7wwzc4qom3jtjlj453ig2usqfglpm2ptw2i6zvwnd2xkeofmh.py":29:19)
#loc20 = loc("/NHNHOME/WORKSPACE/26msit001_A/jinhyeok/loop_TTT/lact/.cache_inductor_llm/5m/c5m7wwzc4qom3jtjlj453ig2usqfglpm2ptw2i6zvwnd2xkeofmh.py":30:39)
#loc21 = loc("/NHNHOME/WORKSPACE/26msit001_A/jinhyeok/loop_TTT/lact/.cache_inductor_llm/5m/c5m7wwzc4qom3jtjlj453ig2usqfglpm2ptw2i6zvwnd2xkeofmh.py":30:35)
#loc22 = loc("/NHNHOME/WORKSPACE/26msit001_A/jinhyeok/loop_TTT/lact/.cache_inductor_llm/5m/c5m7wwzc4qom3jtjlj453ig2usqfglpm2ptw2i6zvwnd2xkeofmh.py":30:30)
#loc23 = loc("/NHNHOME/WORKSPACE/26msit001_A/jinhyeok/loop_TTT/lact/.cache_inductor_llm/5m/c5m7wwzc4qom3jtjlj453ig2usqfglpm2ptw2i6zvwnd2xkeofmh.py":30:52)
#loc24 = loc("/NHNHOME/WORKSPACE/26msit001_A/jinhyeok/loop_TTT/lact/.cache_inductor_llm/5m/c5m7wwzc4qom3jtjlj453ig2usqfglpm2ptw2i6zvwnd2xkeofmh.py":30:44)
#loc25 = loc("/NHNHOME/WORKSPACE/26msit001_A/jinhyeok/loop_TTT/lact/.cache_inductor_llm/5m/c5m7wwzc4qom3jtjlj453ig2usqfglpm2ptw2i6zvwnd2xkeofmh.py":30:92)
#loc26 = loc("/NHNHOME/WORKSPACE/26msit001_A/jinhyeok/loop_TTT/lact/.cache_inductor_llm/5m/c5m7wwzc4qom3jtjlj453ig2usqfglpm2ptw2i6zvwnd2xkeofmh.py":31:30)
#loc27 = loc("/NHNHOME/WORKSPACE/26msit001_A/jinhyeok/loop_TTT/lact/.cache_inductor_llm/5m/c5m7wwzc4qom3jtjlj453ig2usqfglpm2ptw2i6zvwnd2xkeofmh.py":31:35)
#loc28 = loc("/NHNHOME/WORKSPACE/26msit001_A/jinhyeok/loop_TTT/lact/.cache_inductor_llm/5m/c5m7wwzc4qom3jtjlj453ig2usqfglpm2ptw2i6zvwnd2xkeofmh.py":32:31)
#loc29 = loc("/NHNHOME/WORKSPACE/26msit001_A/jinhyeok/loop_TTT/lact/.cache_inductor_llm/5m/c5m7wwzc4qom3jtjlj453ig2usqfglpm2ptw2i6zvwnd2xkeofmh.py":32:36)
#loc30 = loc("/NHNHOME/WORKSPACE/26msit001_A/jinhyeok/loop_TTT/lact/.cache_inductor_llm/5m/c5m7wwzc4qom3jtjlj453ig2usqfglpm2ptw2i6zvwnd2xkeofmh.py":33:40)
#loc31 = loc("/NHNHOME/WORKSPACE/26msit001_A/jinhyeok/loop_TTT/lact/.cache_inductor_llm/5m/c5m7wwzc4qom3jtjlj453ig2usqfglpm2ptw2i6zvwnd2xkeofmh.py":33:36)
#loc32 = loc("/NHNHOME/WORKSPACE/26msit001_A/jinhyeok/loop_TTT/lact/.cache_inductor_llm/5m/c5m7wwzc4qom3jtjlj453ig2usqfglpm2ptw2i6zvwnd2xkeofmh.py":33:31)
#loc33 = loc("/NHNHOME/WORKSPACE/26msit001_A/jinhyeok/loop_TTT/lact/.cache_inductor_llm/5m/c5m7wwzc4qom3jtjlj453ig2usqfglpm2ptw2i6zvwnd2xkeofmh.py":33:53)
#loc34 = loc("/NHNHOME/WORKSPACE/26msit001_A/jinhyeok/loop_TTT/lact/.cache_inductor_llm/5m/c5m7wwzc4qom3jtjlj453ig2usqfglpm2ptw2i6zvwnd2xkeofmh.py":33:45)
#loc35 = loc("/NHNHOME/WORKSPACE/26msit001_A/jinhyeok/loop_TTT/lact/.cache_inductor_llm/5m/c5m7wwzc4qom3jtjlj453ig2usqfglpm2ptw2i6zvwnd2xkeofmh.py":33:93)
#loc36 = loc("/NHNHOME/WORKSPACE/26msit001_A/jinhyeok/loop_TTT/lact/.cache_inductor_llm/5m/c5m7wwzc4qom3jtjlj453ig2usqfglpm2ptw2i6zvwnd2xkeofmh.py":34:40)
#loc37 = loc("/NHNHOME/WORKSPACE/26msit001_A/jinhyeok/loop_TTT/lact/.cache_inductor_llm/5m/c5m7wwzc4qom3jtjlj453ig2usqfglpm2ptw2i6zvwnd2xkeofmh.py":34:36)
#loc38 = loc("/NHNHOME/WORKSPACE/26msit001_A/jinhyeok/loop_TTT/lact/.cache_inductor_llm/5m/c5m7wwzc4qom3jtjlj453ig2usqfglpm2ptw2i6zvwnd2xkeofmh.py":34:31)
#loc39 = loc("/NHNHOME/WORKSPACE/26msit001_A/jinhyeok/loop_TTT/lact/.cache_inductor_llm/5m/c5m7wwzc4qom3jtjlj453ig2usqfglpm2ptw2i6zvwnd2xkeofmh.py":34:53)
#loc40 = loc("/NHNHOME/WORKSPACE/26msit001_A/jinhyeok/loop_TTT/lact/.cache_inductor_llm/5m/c5m7wwzc4qom3jtjlj453ig2usqfglpm2ptw2i6zvwnd2xkeofmh.py":34:45)
#loc41 = loc("/NHNHOME/WORKSPACE/26msit001_A/jinhyeok/loop_TTT/lact/.cache_inductor_llm/5m/c5m7wwzc4qom3jtjlj453ig2usqfglpm2ptw2i6zvwnd2xkeofmh.py":34:93)
#loc42 = loc("/NHNHOME/WORKSPACE/26msit001_A/jinhyeok/loop_TTT/lact/.cache_inductor_llm/5m/c5m7wwzc4qom3jtjlj453ig2usqfglpm2ptw2i6zvwnd2xkeofmh.py":35:40)
#loc43 = loc("/NHNHOME/WORKSPACE/26msit001_A/jinhyeok/loop_TTT/lact/.cache_inductor_llm/5m/c5m7wwzc4qom3jtjlj453ig2usqfglpm2ptw2i6zvwnd2xkeofmh.py":35:36)
#loc44 = loc("/NHNHOME/WORKSPACE/26msit001_A/jinhyeok/loop_TTT/lact/.cache_inductor_llm/5m/c5m7wwzc4qom3jtjlj453ig2usqfglpm2ptw2i6zvwnd2xkeofmh.py":35:31)
#loc45 = loc("/NHNHOME/WORKSPACE/26msit001_A/jinhyeok/loop_TTT/lact/.cache_inductor_llm/5m/c5m7wwzc4qom3jtjlj453ig2usqfglpm2ptw2i6zvwnd2xkeofmh.py":35:53)
#loc46 = loc("/NHNHOME/WORKSPACE/26msit001_A/jinhyeok/loop_TTT/lact/.cache_inductor_llm/5m/c5m7wwzc4qom3jtjlj453ig2usqfglpm2ptw2i6zvwnd2xkeofmh.py":35:45)
#loc47 = loc("/NHNHOME/WORKSPACE/26msit001_A/jinhyeok/loop_TTT/lact/.cache_inductor_llm/5m/c5m7wwzc4qom3jtjlj453ig2usqfglpm2ptw2i6zvwnd2xkeofmh.py":35:93)
#loc48 = loc("/NHNHOME/WORKSPACE/26msit001_A/jinhyeok/loop_TTT/lact/.cache_inductor_llm/5m/c5m7wwzc4qom3jtjlj453ig2usqfglpm2ptw2i6zvwnd2xkeofmh.py":36:31)
#loc49 = loc("/NHNHOME/WORKSPACE/26msit001_A/jinhyeok/loop_TTT/lact/.cache_inductor_llm/5m/c5m7wwzc4qom3jtjlj453ig2usqfglpm2ptw2i6zvwnd2xkeofmh.py":36:36)
#loc50 = loc("/NHNHOME/WORKSPACE/26msit001_A/jinhyeok/loop_TTT/lact/.cache_inductor_llm/5m/c5m7wwzc4qom3jtjlj453ig2usqfglpm2ptw2i6zvwnd2xkeofmh.py":37:40)
#loc51 = loc("/NHNHOME/WORKSPACE/26msit001_A/jinhyeok/loop_TTT/lact/.cache_inductor_llm/5m/c5m7wwzc4qom3jtjlj453ig2usqfglpm2ptw2i6zvwnd2xkeofmh.py":37:36)
#loc52 = loc("/NHNHOME/WORKSPACE/26msit001_A/jinhyeok/loop_TTT/lact/.cache_inductor_llm/5m/c5m7wwzc4qom3jtjlj453ig2usqfglpm2ptw2i6zvwnd2xkeofmh.py":37:51)
#loc53 = loc("/NHNHOME/WORKSPACE/26msit001_A/jinhyeok/loop_TTT/lact/.cache_inductor_llm/5m/c5m7wwzc4qom3jtjlj453ig2usqfglpm2ptw2i6zvwnd2xkeofmh.py":37:45)
#loc54 = loc("/NHNHOME/WORKSPACE/26msit001_A/jinhyeok/loop_TTT/lact/.cache_inductor_llm/5m/c5m7wwzc4qom3jtjlj453ig2usqfglpm2ptw2i6zvwnd2xkeofmh.py":37:31)
#loc55 = loc("/NHNHOME/WORKSPACE/26msit001_A/jinhyeok/loop_TTT/lact/.cache_inductor_llm/5m/c5m7wwzc4qom3jtjlj453ig2usqfglpm2ptw2i6zvwnd2xkeofmh.py":37:64)
#loc56 = loc("/NHNHOME/WORKSPACE/26msit001_A/jinhyeok/loop_TTT/lact/.cache_inductor_llm/5m/c5m7wwzc4qom3jtjlj453ig2usqfglpm2ptw2i6zvwnd2xkeofmh.py":37:56)
#loc57 = loc("/NHNHOME/WORKSPACE/26msit001_A/jinhyeok/loop_TTT/lact/.cache_inductor_llm/5m/c5m7wwzc4qom3jtjlj453ig2usqfglpm2ptw2i6zvwnd2xkeofmh.py":37:104)
#loc58 = loc("/NHNHOME/WORKSPACE/26msit001_A/jinhyeok/loop_TTT/lact/.cache_inductor_llm/5m/c5m7wwzc4qom3jtjlj453ig2usqfglpm2ptw2i6zvwnd2xkeofmh.py":39:11)
#loc59 = loc("/NHNHOME/WORKSPACE/26msit001_A/jinhyeok/loop_TTT/lact/.cache_inductor_llm/5m/c5m7wwzc4qom3jtjlj453ig2usqfglpm2ptw2i6zvwnd2xkeofmh.py":40:19)
#loc60 = loc("/NHNHOME/WORKSPACE/26msit001_A/jinhyeok/loop_TTT/lact/.cache_inductor_llm/5m/c5m7wwzc4qom3jtjlj453ig2usqfglpm2ptw2i6zvwnd2xkeofmh.py":41:11)
#loc61 = loc("/NHNHOME/WORKSPACE/26msit001_A/jinhyeok/loop_TTT/lact/.cache_inductor_llm/5m/c5m7wwzc4qom3jtjlj453ig2usqfglpm2ptw2i6zvwnd2xkeofmh.py":42:18)
#loc62 = loc("/NHNHOME/WORKSPACE/26msit001_A/jinhyeok/loop_TTT/lact/.cache_inductor_llm/5m/c5m7wwzc4qom3jtjlj453ig2usqfglpm2ptw2i6zvwnd2xkeofmh.py":43:18)
#loc63 = loc("/NHNHOME/WORKSPACE/26msit001_A/jinhyeok/loop_TTT/lact/.cache_inductor_llm/5m/c5m7wwzc4qom3jtjlj453ig2usqfglpm2ptw2i6zvwnd2xkeofmh.py":46:27)
#loc64 = loc("/NHNHOME/WORKSPACE/26msit001_A/jinhyeok/loop_TTT/lact/.cache_inductor_llm/5m/c5m7wwzc4qom3jtjlj453ig2usqfglpm2ptw2i6zvwnd2xkeofmh.py":47:12)
#loc65 = loc("/NHNHOME/WORKSPACE/26msit001_A/jinhyeok/loop_TTT/lact/.cache_inductor_llm/5m/c5m7wwzc4qom3jtjlj453ig2usqfglpm2ptw2i6zvwnd2xkeofmh.py":48:20)
#loc66 = loc("/NHNHOME/WORKSPACE/26msit001_A/jinhyeok/loop_TTT/lact/.cache_inductor_llm/5m/c5m7wwzc4qom3jtjlj453ig2usqfglpm2ptw2i6zvwnd2xkeofmh.py":49:20)
#loc67 = loc("/NHNHOME/WORKSPACE/26msit001_A/jinhyeok/loop_TTT/lact/.cache_inductor_llm/5m/c5m7wwzc4qom3jtjlj453ig2usqfglpm2ptw2i6zvwnd2xkeofmh.py":50:12)
#loc68 = loc("/NHNHOME/WORKSPACE/26msit001_A/jinhyeok/loop_TTT/lact/.cache_inductor_llm/5m/c5m7wwzc4qom3jtjlj453ig2usqfglpm2ptw2i6zvwnd2xkeofmh.py":51:20)
#loc69 = loc("/NHNHOME/WORKSPACE/26msit001_A/jinhyeok/loop_TTT/lact/.cache_inductor_llm/5m/c5m7wwzc4qom3jtjlj453ig2usqfglpm2ptw2i6zvwnd2xkeofmh.py":53:20)
#loc70 = loc("/NHNHOME/WORKSPACE/26msit001_A/jinhyeok/loop_TTT/lact/.cache_inductor_llm/5m/c5m7wwzc4qom3jtjlj453ig2usqfglpm2ptw2i6zvwnd2xkeofmh.py":54:12)
#loc71 = loc("/NHNHOME/WORKSPACE/26msit001_A/jinhyeok/loop_TTT/lact/.cache_inductor_llm/5m/c5m7wwzc4qom3jtjlj453ig2usqfglpm2ptw2i6zvwnd2xkeofmh.py":55:20)
#loc72 = loc("/NHNHOME/WORKSPACE/26msit001_A/jinhyeok/loop_TTT/lact/.cache_inductor_llm/5m/c5m7wwzc4qom3jtjlj453ig2usqfglpm2ptw2i6zvwnd2xkeofmh.py":57:20)
#loc73 = loc("/NHNHOME/WORKSPACE/26msit001_A/jinhyeok/loop_TTT/lact/.cache_inductor_llm/5m/c5m7wwzc4qom3jtjlj453ig2usqfglpm2ptw2i6zvwnd2xkeofmh.py":60:20)
#loc74 = loc("/NHNHOME/WORKSPACE/26msit001_A/jinhyeok/loop_TTT/lact/.cache_inductor_llm/5m/c5m7wwzc4qom3jtjlj453ig2usqfglpm2ptw2i6zvwnd2xkeofmh.py":63:27)
#loc75 = loc("/NHNHOME/WORKSPACE/26msit001_A/jinhyeok/loop_TTT/lact/.cache_inductor_llm/5m/c5m7wwzc4qom3jtjlj453ig2usqfglpm2ptw2i6zvwnd2xkeofmh.py":64:20)
#loc76 = loc("/NHNHOME/WORKSPACE/26msit001_A/jinhyeok/loop_TTT/lact/.cache_inductor_llm/5m/c5m7wwzc4qom3jtjlj453ig2usqfglpm2ptw2i6zvwnd2xkeofmh.py":65:21)
#loc77 = loc("/NHNHOME/WORKSPACE/26msit001_A/jinhyeok/loop_TTT/lact/.cache_inductor_llm/5m/c5m7wwzc4qom3jtjlj453ig2usqfglpm2ptw2i6zvwnd2xkeofmh.py":68:20)
#loc78 = loc("/NHNHOME/WORKSPACE/26msit001_A/jinhyeok/loop_TTT/lact/.cache_inductor_llm/5m/c5m7wwzc4qom3jtjlj453ig2usqfglpm2ptw2i6zvwnd2xkeofmh.py":71:21)
#loc79 = loc("/NHNHOME/WORKSPACE/26msit001_A/jinhyeok/loop_TTT/lact/.cache_inductor_llm/5m/c5m7wwzc4qom3jtjlj453ig2usqfglpm2ptw2i6zvwnd2xkeofmh.py":73:34)
#loc80 = loc("/NHNHOME/WORKSPACE/26msit001_A/jinhyeok/loop_TTT/lact/.cache_inductor_llm/5m/c5m7wwzc4qom3jtjlj453ig2usqfglpm2ptw2i6zvwnd2xkeofmh.py":73:30)
#loc81 = loc("/NHNHOME/WORKSPACE/26msit001_A/jinhyeok/loop_TTT/lact/.cache_inductor_llm/5m/c5m7wwzc4qom3jtjlj453ig2usqfglpm2ptw2i6zvwnd2xkeofmh.py":73:25)
#loc82 = loc("/NHNHOME/WORKSPACE/26msit001_A/jinhyeok/loop_TTT/lact/.cache_inductor_llm/5m/c5m7wwzc4qom3jtjlj453ig2usqfglpm2ptw2i6zvwnd2xkeofmh.py":73:54)
#loc83 = loc("/NHNHOME/WORKSPACE/26msit001_A/jinhyeok/loop_TTT/lact/.cache_inductor_llm/5m/c5m7wwzc4qom3jtjlj453ig2usqfglpm2ptw2i6zvwnd2xkeofmh.py":73:46)
#loc84 = loc("/NHNHOME/WORKSPACE/26msit001_A/jinhyeok/loop_TTT/lact/.cache_inductor_llm/5m/c5m7wwzc4qom3jtjlj453ig2usqfglpm2ptw2i6zvwnd2xkeofmh.py":74:34)
#loc85 = loc("/NHNHOME/WORKSPACE/26msit001_A/jinhyeok/loop_TTT/lact/.cache_inductor_llm/5m/c5m7wwzc4qom3jtjlj453ig2usqfglpm2ptw2i6zvwnd2xkeofmh.py":74:30)
#loc86 = loc("/NHNHOME/WORKSPACE/26msit001_A/jinhyeok/loop_TTT/lact/.cache_inductor_llm/5m/c5m7wwzc4qom3jtjlj453ig2usqfglpm2ptw2i6zvwnd2xkeofmh.py":74:25)
#loc87 = loc("/NHNHOME/WORKSPACE/26msit001_A/jinhyeok/loop_TTT/lact/.cache_inductor_llm/5m/c5m7wwzc4qom3jtjlj453ig2usqfglpm2ptw2i6zvwnd2xkeofmh.py":74:54)
#loc88 = loc("/NHNHOME/WORKSPACE/26msit001_A/jinhyeok/loop_TTT/lact/.cache_inductor_llm/5m/c5m7wwzc4qom3jtjlj453ig2usqfglpm2ptw2i6zvwnd2xkeofmh.py":74:46)
#loc89 = loc("/NHNHOME/WORKSPACE/26msit001_A/jinhyeok/loop_TTT/lact/.cache_inductor_llm/5m/c5m7wwzc4qom3jtjlj453ig2usqfglpm2ptw2i6zvwnd2xkeofmh.py":75:34)
#loc90 = loc("/NHNHOME/WORKSPACE/26msit001_A/jinhyeok/loop_TTT/lact/.cache_inductor_llm/5m/c5m7wwzc4qom3jtjlj453ig2usqfglpm2ptw2i6zvwnd2xkeofmh.py":75:30)
#loc91 = loc("/NHNHOME/WORKSPACE/26msit001_A/jinhyeok/loop_TTT/lact/.cache_inductor_llm/5m/c5m7wwzc4qom3jtjlj453ig2usqfglpm2ptw2i6zvwnd2xkeofmh.py":75:25)
#loc92 = loc("/NHNHOME/WORKSPACE/26msit001_A/jinhyeok/loop_TTT/lact/.cache_inductor_llm/5m/c5m7wwzc4qom3jtjlj453ig2usqfglpm2ptw2i6zvwnd2xkeofmh.py":75:54)
#loc93 = loc("/NHNHOME/WORKSPACE/26msit001_A/jinhyeok/loop_TTT/lact/.cache_inductor_llm/5m/c5m7wwzc4qom3jtjlj453ig2usqfglpm2ptw2i6zvwnd2xkeofmh.py":75:46)
#loc94 = loc("/NHNHOME/WORKSPACE/26msit001_A/jinhyeok/loop_TTT/lact/.cache_inductor_llm/5m/c5m7wwzc4qom3jtjlj453ig2usqfglpm2ptw2i6zvwnd2xkeofmh.py":76:34)
#loc95 = loc("/NHNHOME/WORKSPACE/26msit001_A/jinhyeok/loop_TTT/lact/.cache_inductor_llm/5m/c5m7wwzc4qom3jtjlj453ig2usqfglpm2ptw2i6zvwnd2xkeofmh.py":76:30)
#loc96 = loc("/NHNHOME/WORKSPACE/26msit001_A/jinhyeok/loop_TTT/lact/.cache_inductor_llm/5m/c5m7wwzc4qom3jtjlj453ig2usqfglpm2ptw2i6zvwnd2xkeofmh.py":76:25)
#loc97 = loc("/NHNHOME/WORKSPACE/26msit001_A/jinhyeok/loop_TTT/lact/.cache_inductor_llm/5m/c5m7wwzc4qom3jtjlj453ig2usqfglpm2ptw2i6zvwnd2xkeofmh.py":76:54)
#loc98 = loc("/NHNHOME/WORKSPACE/26msit001_A/jinhyeok/loop_TTT/lact/.cache_inductor_llm/5m/c5m7wwzc4qom3jtjlj453ig2usqfglpm2ptw2i6zvwnd2xkeofmh.py":76:46)
#loc99 = loc("/NHNHOME/WORKSPACE/26msit001_A/jinhyeok/loop_TTT/lact/.cache_inductor_llm/5m/c5m7wwzc4qom3jtjlj453ig2usqfglpm2ptw2i6zvwnd2xkeofmh.py":77:34)
#loc100 = loc("/NHNHOME/WORKSPACE/26msit001_A/jinhyeok/loop_TTT/lact/.cache_inductor_llm/5m/c5m7wwzc4qom3jtjlj453ig2usqfglpm2ptw2i6zvwnd2xkeofmh.py":77:30)
#loc101 = loc("/NHNHOME/WORKSPACE/26msit001_A/jinhyeok/loop_TTT/lact/.cache_inductor_llm/5m/c5m7wwzc4qom3jtjlj453ig2usqfglpm2ptw2i6zvwnd2xkeofmh.py":77:25)
#loc102 = loc("/NHNHOME/WORKSPACE/26msit001_A/jinhyeok/loop_TTT/lact/.cache_inductor_llm/5m/c5m7wwzc4qom3jtjlj453ig2usqfglpm2ptw2i6zvwnd2xkeofmh.py":77:54)
#loc103 = loc("/NHNHOME/WORKSPACE/26msit001_A/jinhyeok/loop_TTT/lact/.cache_inductor_llm/5m/c5m7wwzc4qom3jtjlj453ig2usqfglpm2ptw2i6zvwnd2xkeofmh.py":77:46)
#loc104 = loc("/NHNHOME/WORKSPACE/26msit001_A/jinhyeok/loop_TTT/lact/.cache_inductor_llm/5m/c5m7wwzc4qom3jtjlj453ig2usqfglpm2ptw2i6zvwnd2xkeofmh.py":78:34)
#loc105 = loc("/NHNHOME/WORKSPACE/26msit001_A/jinhyeok/loop_TTT/lact/.cache_inductor_llm/5m/c5m7wwzc4qom3jtjlj453ig2usqfglpm2ptw2i6zvwnd2xkeofmh.py":78:30)
#loc106 = loc("/NHNHOME/WORKSPACE/26msit001_A/jinhyeok/loop_TTT/lact/.cache_inductor_llm/5m/c5m7wwzc4qom3jtjlj453ig2usqfglpm2ptw2i6zvwnd2xkeofmh.py":78:25)
#loc107 = loc("/NHNHOME/WORKSPACE/26msit001_A/jinhyeok/loop_TTT/lact/.cache_inductor_llm/5m/c5m7wwzc4qom3jtjlj453ig2usqfglpm2ptw2i6zvwnd2xkeofmh.py":78:54)
#loc108 = loc("/NHNHOME/WORKSPACE/26msit001_A/jinhyeok/loop_TTT/lact/.cache_inductor_llm/5m/c5m7wwzc4qom3jtjlj453ig2usqfglpm2ptw2i6zvwnd2xkeofmh.py":78:46)
#loc109 = loc("/NHNHOME/WORKSPACE/26msit001_A/jinhyeok/loop_TTT/lact/.cache_inductor_llm/5m/c5m7wwzc4qom3jtjlj453ig2usqfglpm2ptw2i6zvwnd2xkeofmh.py":78:4)
#loc125 = loc("xnumel"(#loc1))
#loc126 = loc("yoffset"(#loc2))
#loc127 = loc("yoffset"(#loc3))
#loc128 = loc("yoffset"(#loc4))
#loc129 = loc("yoffset"(#loc5))
#loc130 = loc("yoffset"(#loc6))
#loc131 = loc("yoffset"(#loc7))
#loc132 = loc("yindex"(#loc8))
#loc133 = loc("yindex"(#loc9))
#loc134 = loc("yindex"(#loc10))
#loc135 = loc("ymask"(#loc11))
#loc136 = loc("xoffset"(#loc12))
#loc137 = loc("xoffset"(#loc13))
#loc138 = loc("xindex"(#loc14))
#loc139 = loc("xindex"(#loc15))
#loc140 = loc("xindex"(#loc16))
#loc141 = loc("xmask"(#loc17))
#loc142 = loc("y1"(#loc18))
#loc143 = loc("y0"(#loc19))
#loc144 = loc("tmp0"(#loc20))
#loc145 = loc("tmp0"(#loc21))
#loc146 = loc("tmp0"(#loc22))
#loc147 = loc("tmp0"(#loc23))
#loc148 = loc("tmp0"(#loc24))
#loc149 = loc("tmp0"(#loc25))
#loc150 = loc("tmp2"(#loc26))
#loc151 = loc("tmp2"(#loc27))
#loc152 = loc("tmp10"(#loc28))
#loc153 = loc("tmp10"(#loc29))
#loc154 = loc("tmp17"(#loc30))
#loc155 = loc("tmp17"(#loc31))
#loc156 = loc("tmp17"(#loc32))
#loc157 = loc("tmp17"(#loc33))
#loc158 = loc("tmp17"(#loc34))
#loc159 = loc("tmp17"(#loc35))
#loc160 = loc("tmp22"(#loc36))
#loc161 = loc("tmp22"(#loc37))
#loc162 = loc("tmp22"(#loc38))
#loc163 = loc("tmp22"(#loc39))
#loc164 = loc("tmp22"(#loc40))
#loc165 = loc("tmp22"(#loc41))
#loc166 = loc("tmp26"(#loc42))
#loc167 = loc("tmp26"(#loc43))
#loc168 = loc("tmp26"(#loc44))
#loc169 = loc("tmp26"(#loc45))
#loc170 = loc("tmp26"(#loc46))
#loc171 = loc("tmp26"(#loc47))
#loc172 = loc("tmp31"(#loc48))
#loc173 = loc("tmp31"(#loc49))
#loc174 = loc("tmp36"(#loc50))
#loc175 = loc("tmp36"(#loc51))
#loc176 = loc("tmp36"(#loc52))
#loc177 = loc("tmp36"(#loc53))
#loc178 = loc("tmp36"(#loc54))
#loc179 = loc("tmp36"(#loc55))
#loc180 = loc("tmp36"(#loc56))
#loc181 = loc("tmp36"(#loc57))
#loc182 = loc("tmp3"(#loc58))
#loc183 = loc("tmp4"(#loc59))
#loc184 = loc("tmp5"(#loc60))
#loc185 = loc("tmp6"(#loc61))
#loc186 = loc("tmp7"(#loc62))
#loc187 = loc("tmp11"(#loc63))
#loc188 = loc("tmp12"(#loc64))
#loc189 = loc("tmp13"(#loc65))
#loc190 = loc("tmp14"(#loc66))
#loc191 = loc("tmp15"(#loc67))
#loc192 = loc("tmp16"(#loc68))
#loc193 = loc("tmp19"(#loc69))
#loc194 = loc("tmp20"(#loc70))
#loc195 = loc("tmp21"(#loc71))
#loc196 = loc("tmp24"(#loc72))
#loc197 = loc("tmp28"(#loc73))
#loc198 = loc("tmp32"(#loc74))
#loc199 = loc("tmp33"(#loc75))
#loc200 = loc("tmp34"(#loc76))
#loc201 = loc("tmp38"(#loc77))
#loc202 = loc("tmp41"(#loc78))
