#loc = loc("/NHNHOME/WORKSPACE/26msit001_A/jinhyeok/loop_TTT/lact/.cache_inductor_llm/42/c426xitwbriylvt6yplgukfab57o3dv7gtgcnifl34p3x5xurjyb.py":18:0)
#loc86 = loc("/NHNHOME/WORKSPACE/26msit001_A/jinhyeok/TTT_camera_embedding/.venv_llm/lib/python3.12/site-packages/triton/language/standard.py":285:0)
#loc88 = loc(unknown)
#loc91 = loc("/NHNHOME/WORKSPACE/26msit001_A/jinhyeok/TTT_camera_embedding/.venv_llm/lib/python3.12/site-packages/triton/language/standard.py":260:0)
#loc95 = loc("in_out_ptr0"(#loc))
#loc96 = loc("in_ptr0"(#loc))
#loc97 = loc("in_ptr1"(#loc))
#loc98 = loc("in_ptr2"(#loc))
#loc99 = loc("in_ptr3"(#loc))
#loc100 = loc("out_ptr0"(#loc))
#loc101 = loc("out_ptr2"(#loc))
#loc102 = loc("out_ptr3"(#loc))
#loc103 = loc("xnumel"(#loc))
#loc104 = loc("r0_numel"(#loc))
#loc172 = loc("input"(#loc86))
#loc173 = loc("a"(#loc91))
#loc174 = loc("b"(#loc91))
module {
  tt.func public @triton_per_fused__to_copy_add_div_linalg_vector_norm_mul_26(%in_out_ptr0: !tt.ptr<f32> {tt.divisibility = 16 : i32} loc("in_out_ptr0"(#loc)), %in_ptr0: !tt.ptr<bf16> {tt.divisibility = 16 : i32} loc("in_ptr0"(#loc)), %in_ptr1: !tt.ptr<bf16> {tt.divisibility = 16 : i32} loc("in_ptr1"(#loc)), %in_ptr2: !tt.ptr<bf16> {tt.divisibility = 16 : i32} loc("in_ptr2"(#loc)), %in_ptr3: !tt.ptr<bf16> {tt.divisibility = 16 : i32} loc("in_ptr3"(#loc)), %out_ptr0: !tt.ptr<f32> {tt.divisibility = 16 : i32} loc("out_ptr0"(#loc)), %out_ptr2: !tt.ptr<bf16> {tt.divisibility = 16 : i32} loc("out_ptr2"(#loc)), %out_ptr3: !tt.ptr<bf16> {tt.divisibility = 16 : i32} loc("out_ptr3"(#loc)), %xnumel: i32 {tt.divisibility = 16 : i32} loc("xnumel"(#loc)), %r0_numel: i32 {tt.divisibility = 16 : i32} loc("r0_numel"(#loc))) attributes {noinline = false} {
    %xnumel_0 = arith.constant 6144 : i32 loc(#loc105)
    %r0_numel_1 = arith.constant 192 : i32 loc(#loc106)
    %xoffset = tt.get_program_id x : i32 loc(#loc107)
    %xoffset_2 = arith.constant 1 : i32 loc(#loc108)
    %xoffset_3 = arith.constant 1 : i32 loc(#loc108)
    %xoffset_4 = arith.muli %xoffset, %xoffset_3 : i32 loc(#loc108)
    %xindex = tt.make_range {end = 1 : i32, start = 0 : i32} : tensor<1xi32> loc(#loc109)
    %xindex_5 = tt.expand_dims %xindex {axis = 1 : i32} : tensor<1xi32> -> tensor<1x1xi32> loc(#loc110)
    %xindex_6 = tt.splat %xoffset_4 : i32 -> tensor<1x1xi32> loc(#loc111)
    %xindex_7 = arith.addi %xindex_6, %xindex_5 : tensor<1x1xi32> loc(#loc111)
    %xmask = arith.constant dense<6144> : tensor<1x1xi32> loc(#loc112)
    %xmask_8 = arith.cmpi slt, %xindex_7, %xmask : tensor<1x1xi32> loc(#loc112)
    %r0_index = tt.make_range {end = 256 : i32, start = 0 : i32} : tensor<256xi32> loc(#loc113)
    %r0_index_9 = tt.expand_dims %r0_index {axis = 0 : i32} : tensor<256xi32> -> tensor<1x256xi32> loc(#loc114)
    %r0_offset = arith.constant 0 : i32 loc(#loc115)
    %r0_mask = arith.constant dense<192> : tensor<1x256xi32> loc(#loc116)
    %r0_mask_10 = arith.cmpi slt, %r0_index_9, %r0_mask : tensor<1x256xi32> loc(#loc116)
    %tmp0 = arith.constant 192 : i32 loc(#loc117)
    %tmp0_11 = arith.constant 192 : i32 loc(#loc117)
    %tmp0_12 = arith.constant dense<192> : tensor<1x1xi32> loc(#loc117)
    %tmp0_13 = arith.muli %tmp0_12, %xindex_7 : tensor<1x1xi32> loc(#loc117)
    %tmp0_14 = tt.broadcast %tmp0_13 : tensor<1x1xi32> -> tensor<1x256xi32> loc(#loc118)
    %tmp0_15 = arith.addi %r0_index_9, %tmp0_14 : tensor<1x256xi32> loc(#loc118)
    %tmp0_16 = tt.splat %in_ptr0 : !tt.ptr<bf16> -> tensor<1x256x!tt.ptr<bf16>> loc(#loc119)
    %tmp0_17 = tt.addptr %tmp0_16, %tmp0_15 : tensor<1x256x!tt.ptr<bf16>>, tensor<1x256xi32> loc(#loc119)
    %tmp0_18 = tt.broadcast %xmask_8 : tensor<1x1xi1> -> tensor<1x256xi1> loc(#loc120)
    %tmp0_19 = arith.andi %r0_mask_10, %tmp0_18 : tensor<1x256xi1> loc(#loc120)
    %tmp0_20 = arith.constant 0.000000e+00 : f32 loc(#loc121)
    %tmp0_21 = arith.constant dense<0.000000e+00> : tensor<1x256xf32> loc(#loc121)
    %tmp0_22 = arith.truncf %tmp0_21 : tensor<1x256xf32> to tensor<1x256xbf16> loc(#loc121)
    %tmp0_23 = tt.load %tmp0_17, %tmp0_19, %tmp0_22 : tensor<1x256x!tt.ptr<bf16>> loc(#loc121)
    %tmp0_24 = arith.extf %tmp0_23 : tensor<1x256xbf16> to tensor<1x256xf32> loc(#loc122)
    %tmp7 = arith.constant 192 : i32 loc(#loc123)
    %tmp7_25 = arith.constant 192 : i32 loc(#loc123)
    %tmp7_26 = arith.constant dense<192> : tensor<1x1xi32> loc(#loc123)
    %tmp7_27 = arith.muli %tmp7_26, %xindex_7 : tensor<1x1xi32> loc(#loc123)
    %tmp7_28 = tt.broadcast %tmp7_27 : tensor<1x1xi32> -> tensor<1x256xi32> loc(#loc124)
    %tmp7_29 = arith.addi %r0_index_9, %tmp7_28 : tensor<1x256xi32> loc(#loc124)
    %tmp7_30 = tt.splat %in_out_ptr0 : !tt.ptr<f32> -> tensor<1x256x!tt.ptr<f32>> loc(#loc125)
    %tmp7_31 = tt.addptr %tmp7_30, %tmp7_29 : tensor<1x256x!tt.ptr<f32>>, tensor<1x256xi32> loc(#loc125)
    %tmp7_32 = tt.broadcast %xmask_8 : tensor<1x1xi1> -> tensor<1x256xi1> loc(#loc126)
    %tmp7_33 = arith.andi %r0_mask_10, %tmp7_32 : tensor<1x256xi1> loc(#loc126)
    %tmp7_34 = arith.constant 0.000000e+00 : f32 loc(#loc127)
    %tmp7_35 = arith.constant dense<0.000000e+00> : tensor<1x256xf32> loc(#loc127)
    %tmp7_36 = tt.load %tmp7_31, %tmp7_33, %tmp7_35 : tensor<1x256x!tt.ptr<f32>> loc(#loc127)
    %tmp10 = arith.constant 192 : i32 loc(#loc128)
    %tmp10_37 = arith.constant 192 : i32 loc(#loc128)
    %tmp10_38 = arith.constant dense<192> : tensor<1x1xi32> loc(#loc128)
    %tmp10_39 = arith.muli %tmp10_38, %xindex_7 : tensor<1x1xi32> loc(#loc128)
    %tmp10_40 = tt.broadcast %tmp10_39 : tensor<1x1xi32> -> tensor<1x256xi32> loc(#loc129)
    %tmp10_41 = arith.addi %r0_index_9, %tmp10_40 : tensor<1x256xi32> loc(#loc129)
    %tmp10_42 = tt.splat %in_ptr1 : !tt.ptr<bf16> -> tensor<1x256x!tt.ptr<bf16>> loc(#loc130)
    %tmp10_43 = tt.addptr %tmp10_42, %tmp10_41 : tensor<1x256x!tt.ptr<bf16>>, tensor<1x256xi32> loc(#loc130)
    %tmp10_44 = tt.broadcast %xmask_8 : tensor<1x1xi1> -> tensor<1x256xi1> loc(#loc131)
    %tmp10_45 = arith.andi %r0_mask_10, %tmp10_44 : tensor<1x256xi1> loc(#loc131)
    %tmp10_46 = arith.constant 0.000000e+00 : f32 loc(#loc132)
    %tmp10_47 = arith.constant dense<0.000000e+00> : tensor<1x256xf32> loc(#loc132)
    %tmp10_48 = arith.truncf %tmp10_47 : tensor<1x256xf32> to tensor<1x256xbf16> loc(#loc132)
    %tmp10_49 = tt.load %tmp10_43, %tmp10_45, %tmp10_48 : tensor<1x256x!tt.ptr<bf16>> loc(#loc132)
    %tmp10_50 = arith.extf %tmp10_49 : tensor<1x256xbf16> to tensor<1x256xf32> loc(#loc133)
    %tmp15 = arith.constant 192 : i32 loc(#loc134)
    %tmp15_51 = arith.constant 192 : i32 loc(#loc134)
    %tmp15_52 = arith.constant dense<192> : tensor<1x1xi32> loc(#loc134)
    %tmp15_53 = arith.muli %tmp15_52, %xindex_7 : tensor<1x1xi32> loc(#loc134)
    %tmp15_54 = tt.broadcast %tmp15_53 : tensor<1x1xi32> -> tensor<1x256xi32> loc(#loc135)
    %tmp15_55 = arith.addi %r0_index_9, %tmp15_54 : tensor<1x256xi32> loc(#loc135)
    %tmp15_56 = tt.splat %in_ptr2 : !tt.ptr<bf16> -> tensor<1x256x!tt.ptr<bf16>> loc(#loc136)
    %tmp15_57 = tt.addptr %tmp15_56, %tmp15_55 : tensor<1x256x!tt.ptr<bf16>>, tensor<1x256xi32> loc(#loc136)
    %tmp15_58 = tt.broadcast %xmask_8 : tensor<1x1xi1> -> tensor<1x256xi1> loc(#loc137)
    %tmp15_59 = arith.andi %r0_mask_10, %tmp15_58 : tensor<1x256xi1> loc(#loc137)
    %tmp15_60 = arith.constant 0.000000e+00 : f32 loc(#loc138)
    %tmp15_61 = arith.constant dense<0.000000e+00> : tensor<1x256xf32> loc(#loc138)
    %tmp15_62 = arith.truncf %tmp15_61 : tensor<1x256xf32> to tensor<1x256xbf16> loc(#loc138)
    %tmp15_63 = tt.load %tmp15_57, %tmp15_59, %tmp15_62 : tensor<1x256x!tt.ptr<bf16>> loc(#loc138)
    %tmp15_64 = arith.extf %tmp15_63 : tensor<1x256xbf16> to tensor<1x256xf32> loc(#loc139)
    %tmp20 = arith.constant 192 : i32 loc(#loc140)
    %tmp20_65 = arith.constant 192 : i32 loc(#loc140)
    %tmp20_66 = arith.constant dense<192> : tensor<1x1xi32> loc(#loc140)
    %tmp20_67 = arith.muli %tmp20_66, %xindex_7 : tensor<1x1xi32> loc(#loc140)
    %tmp20_68 = tt.broadcast %tmp20_67 : tensor<1x1xi32> -> tensor<1x256xi32> loc(#loc141)
    %tmp20_69 = arith.addi %r0_index_9, %tmp20_68 : tensor<1x256xi32> loc(#loc141)
    %tmp20_70 = tt.splat %in_ptr3 : !tt.ptr<bf16> -> tensor<1x256x!tt.ptr<bf16>> loc(#loc142)
    %tmp20_71 = tt.addptr %tmp20_70, %tmp20_69 : tensor<1x256x!tt.ptr<bf16>>, tensor<1x256xi32> loc(#loc142)
    %tmp20_72 = tt.broadcast %xmask_8 : tensor<1x1xi1> -> tensor<1x256xi1> loc(#loc143)
    %tmp20_73 = arith.andi %r0_mask_10, %tmp20_72 : tensor<1x256xi1> loc(#loc143)
    %tmp20_74 = arith.constant 0.000000e+00 : f32 loc(#loc144)
    %tmp20_75 = arith.constant dense<0.000000e+00> : tensor<1x256xf32> loc(#loc144)
    %tmp20_76 = arith.truncf %tmp20_75 : tensor<1x256xf32> to tensor<1x256xbf16> loc(#loc144)
    %tmp20_77 = tt.load %tmp20_71, %tmp20_73, %tmp20_76 : tensor<1x256x!tt.ptr<bf16>> loc(#loc144)
    %tmp20_78 = arith.extf %tmp20_77 : tensor<1x256xbf16> to tensor<1x256xf32> loc(#loc145)
    %tmp2 = arith.mulf %tmp0_24, %tmp0_24 : tensor<1x256xf32> loc(#loc146)
    %tmp5 = tt.broadcast %xmask_8 : tensor<1x1xi1> -> tensor<1x256xi1> loc(#loc147)
    %tmp5_79 = arith.andi %r0_mask_10, %tmp5 : tensor<1x256xi1> loc(#loc147)
    %tmp5_80 = arith.constant 0 : i32 loc(#loc148)
    %tmp5_81 = arith.constant 0.000000e+00 : f32 loc(#loc148)
    %tmp5_82 = arith.constant dense<0.000000e+00> : tensor<1x256xf32> loc(#loc148)
    %tmp5_83 = arith.select %tmp5_79, %tmp2, %tmp5_82 : tensor<1x256xi1>, tensor<1x256xf32> loc(#loc148)
    %tmp6 = tt.call @"triton.language.standard.sum__fp32S1_256S__(1,)cconstexpr_1__(2,)cconstexpr_False__(3,)cNone"(%tmp5_83) : (tensor<1x256xf32>) -> tensor<1xf32> loc(#loc149)
    %tmp6_84 = tt.expand_dims %tmp6 {axis = 1 : i32} : tensor<1xf32> -> tensor<1x1xf32> loc(#loc150)
    %tmp8 = arith.constant 3.741800e+00 : f32 loc(#loc151)
    %tmp9 = arith.constant dense<3.741800e+00> : tensor<1x256xf32> loc(#loc152)
    %tmp9_85 = arith.mulf %tmp7_36, %tmp9 : tensor<1x256xf32> loc(#loc152)
    %tmp12 = arith.addf %tmp9_85, %tmp10_50 : tensor<1x256xf32> loc(#loc153)
    %tmp13 = arith.constant 2.876900e+00 : f32 loc(#loc154)
    %tmp14 = arith.constant dense<2.876900e+00> : tensor<1x256xf32> loc(#loc155)
    %tmp14_86 = arith.mulf %tmp12, %tmp14 : tensor<1x256xf32> loc(#loc155)
    %tmp17 = arith.addf %tmp14_86, %tmp15_64 : tensor<1x256xf32> loc(#loc156)
    %tmp18 = arith.constant 2.836600e+00 : f32 loc(#loc157)
    %tmp19 = arith.constant dense<2.836600e+00> : tensor<1x256xf32> loc(#loc158)
    %tmp19_87 = arith.mulf %tmp17, %tmp19 : tensor<1x256xf32> loc(#loc158)
    %tmp22 = arith.addf %tmp19_87, %tmp20_78 : tensor<1x256xf32> loc(#loc159)
    %tmp23 = arith.addf %tmp0_24, %tmp22 : tensor<1x256xf32> loc(#loc160)
    %tmp24 = arith.mulf %tmp23, %tmp23 : tensor<1x256xf32> loc(#loc161)
    %tmp27 = tt.broadcast %xmask_8 : tensor<1x1xi1> -> tensor<1x256xi1> loc(#loc162)
    %tmp27_88 = arith.andi %r0_mask_10, %tmp27 : tensor<1x256xi1> loc(#loc162)
    %tmp27_89 = arith.constant 0 : i32 loc(#loc163)
    %tmp27_90 = arith.constant 0.000000e+00 : f32 loc(#loc163)
    %tmp27_91 = arith.constant dense<0.000000e+00> : tensor<1x256xf32> loc(#loc163)
    %tmp27_92 = arith.select %tmp27_88, %tmp24, %tmp27_91 : tensor<1x256xi1>, tensor<1x256xf32> loc(#loc163)
    %tmp28 = tt.call @"triton.language.standard.sum__fp32S1_256S__(1,)cconstexpr_1__(2,)cconstexpr_False__(3,)cNone"(%tmp27_92) : (tensor<1x256xf32>) -> tensor<1xf32> loc(#loc164)
    %tmp28_93 = tt.expand_dims %tmp28 {axis = 1 : i32} : tensor<1xf32> -> tensor<1x1xf32> loc(#loc165)
    %tmp29 = tt.extern_elementwise %tmp28_93 {libname = "", libpath = "", pure = true, symbol = "__nv_sqrtf"} : (tensor<1x1xf32>) -> tensor<1x1xf32> loc(#loc166)
    %tmp30 = arith.constant 9.99999974E-6 : f32 loc(#loc167)
    %tmp31 = arith.constant dense<9.99999974E-6> : tensor<1x1xf32> loc(#loc168)
    %tmp31_94 = arith.addf %tmp29, %tmp31 : tensor<1x1xf32> loc(#loc168)
    %tmp32 = tt.broadcast %tmp31_94 : tensor<1x1xf32> -> tensor<1x256xf32> loc(#loc169)
    %tmp32_95 = arith.divf %tmp23, %tmp32 : tensor<1x256xf32> loc(#loc169)
    %tmp33 = tt.extern_elementwise %tmp6_84 {libname = "", libpath = "", pure = true, symbol = "__nv_sqrtf"} : (tensor<1x1xf32>) -> tensor<1x1xf32> loc(#loc170)
    %tmp34 = tt.broadcast %tmp33 : tensor<1x1xf32> -> tensor<1x256xf32> loc(#loc171)
    %tmp34_96 = arith.mulf %tmp32_95, %tmp34 : tensor<1x256xf32> loc(#loc171)
    %c192_i32 = arith.constant 192 : i32 loc(#loc68)
    %c192_i32_97 = arith.constant 192 : i32 loc(#loc68)
    %cst = arith.constant dense<192> : tensor<1x1xi32> loc(#loc68)
    %0 = arith.muli %cst, %xindex_7 : tensor<1x1xi32> loc(#loc68)
    %1 = tt.broadcast %0 : tensor<1x1xi32> -> tensor<1x256xi32> loc(#loc69)
    %2 = arith.addi %r0_index_9, %1 : tensor<1x256xi32> loc(#loc69)
    %3 = tt.splat %in_out_ptr0 : !tt.ptr<f32> -> tensor<1x256x!tt.ptr<f32>> loc(#loc70)
    %4 = tt.addptr %3, %2 : tensor<1x256x!tt.ptr<f32>>, tensor<1x256xi32> loc(#loc70)
    %5 = tt.broadcast %xmask_8 : tensor<1x1xi1> -> tensor<1x256xi1> loc(#loc71)
    %6 = arith.andi %r0_mask_10, %5 : tensor<1x256xi1> loc(#loc71)
    tt.store %4, %tmp23, %6 : tensor<1x256x!tt.ptr<f32>> loc(#loc72)
    %c192_i32_98 = arith.constant 192 : i32 loc(#loc73)
    %c192_i32_99 = arith.constant 192 : i32 loc(#loc73)
    %cst_100 = arith.constant dense<192> : tensor<1x1xi32> loc(#loc73)
    %7 = arith.muli %cst_100, %xindex_7 : tensor<1x1xi32> loc(#loc73)
    %8 = tt.broadcast %7 : tensor<1x1xi32> -> tensor<1x256xi32> loc(#loc74)
    %9 = arith.addi %r0_index_9, %8 : tensor<1x256xi32> loc(#loc74)
    %10 = tt.splat %out_ptr2 : !tt.ptr<bf16> -> tensor<1x256x!tt.ptr<bf16>> loc(#loc75)
    %11 = tt.addptr %10, %9 : tensor<1x256x!tt.ptr<bf16>>, tensor<1x256xi32> loc(#loc75)
    %12 = tt.broadcast %xmask_8 : tensor<1x1xi1> -> tensor<1x256xi1> loc(#loc76)
    %13 = arith.andi %r0_mask_10, %12 : tensor<1x256xi1> loc(#loc76)
    %14 = arith.truncf %tmp34_96 : tensor<1x256xf32> to tensor<1x256xbf16> loc(#loc77)
    tt.store %11, %14, %13 : tensor<1x256x!tt.ptr<bf16>> loc(#loc77)
    %c192_i32_101 = arith.constant 192 : i32 loc(#loc78)
    %c192_i32_102 = arith.constant 192 : i32 loc(#loc78)
    %cst_103 = arith.constant dense<192> : tensor<1x1xi32> loc(#loc78)
    %15 = arith.muli %cst_103, %xindex_7 : tensor<1x1xi32> loc(#loc78)
    %16 = tt.broadcast %15 : tensor<1x1xi32> -> tensor<1x256xi32> loc(#loc79)
    %17 = arith.addi %r0_index_9, %16 : tensor<1x256xi32> loc(#loc79)
    %18 = tt.splat %out_ptr3 : !tt.ptr<bf16> -> tensor<1x256x!tt.ptr<bf16>> loc(#loc80)
    %19 = tt.addptr %18, %17 : tensor<1x256x!tt.ptr<bf16>>, tensor<1x256xi32> loc(#loc80)
    %20 = tt.broadcast %xmask_8 : tensor<1x1xi1> -> tensor<1x256xi1> loc(#loc81)
    %21 = arith.andi %r0_mask_10, %20 : tensor<1x256xi1> loc(#loc81)
    %22 = arith.truncf %tmp34_96 : tensor<1x256xf32> to tensor<1x256xbf16> loc(#loc82)
    tt.store %19, %22, %21 : tensor<1x256x!tt.ptr<bf16>> loc(#loc82)
    %23 = tt.splat %out_ptr0 : !tt.ptr<f32> -> tensor<1x1x!tt.ptr<f32>> loc(#loc83)
    %24 = tt.addptr %23, %xindex_7 : tensor<1x1x!tt.ptr<f32>>, tensor<1x1xi32> loc(#loc83)
    tt.store %24, %tmp6_84, %xmask_8 : tensor<1x1x!tt.ptr<f32>> loc(#loc84)
    tt.return loc(#loc85)
  } loc(#loc)
  tt.func private @"triton.language.standard.sum__fp32S1_256S__(1,)cconstexpr_1__(2,)cconstexpr_False__(3,)cNone"(%input: tensor<1x256xf32> loc("input"(#loc86))) -> tensor<1xf32> attributes {noinline = false} {
    %0 = "tt.reduce"(%input) <{axis = 1 : i32}> ({
    ^bb0(%arg1: f32 loc(unknown), %arg2: f32 loc(unknown)):
      %2 = tt.call @triton.language.standard._sum_combine__fp32_fp32__(%arg1, %arg2) : (f32, f32) -> f32 loc(#loc87)
      tt.reduce.return %2 : f32 loc(#loc87)
    }) : (tensor<1x256xf32>) -> tensor<1xf32> loc(#loc87)
    tt.return %0 : tensor<1xf32> loc(#loc89)
  ^bb1:  // no predecessors
    %1 = ub.poison : tensor<1xf32> loc(#loc90)
    tt.return %1 : tensor<1xf32> loc(#loc90)
  } loc(#loc86)
  tt.func private @triton.language.standard._sum_combine__fp32_fp32__(%a: f32 loc("a"(#loc91)), %b: f32 loc("b"(#loc91))) -> f32 attributes {noinline = false} {
    %0 = arith.addf %a, %b : f32 loc(#loc92)
    tt.return %0 : f32 loc(#loc93)
  ^bb1:  // no predecessors
    %1 = ub.poison : f32 loc(#loc94)
    tt.return %1 : f32 loc(#loc94)
  } loc(#loc91)
} loc(#loc)
#loc1 = loc("/NHNHOME/WORKSPACE/26msit001_A/jinhyeok/loop_TTT/lact/.cache_inductor_llm/42/c426xitwbriylvt6yplgukfab57o3dv7gtgcnifl34p3x5xurjyb.py":19:13)
#loc2 = loc("/NHNHOME/WORKSPACE/26msit001_A/jinhyeok/loop_TTT/lact/.cache_inductor_llm/42/c426xitwbriylvt6yplgukfab57o3dv7gtgcnifl34p3x5xurjyb.py":20:15)
#loc3 = loc("/NHNHOME/WORKSPACE/26msit001_A/jinhyeok/loop_TTT/lact/.cache_inductor_llm/42/c426xitwbriylvt6yplgukfab57o3dv7gtgcnifl34p3x5xurjyb.py":24:28)
#loc4 = loc("/NHNHOME/WORKSPACE/26msit001_A/jinhyeok/loop_TTT/lact/.cache_inductor_llm/42/c426xitwbriylvt6yplgukfab57o3dv7gtgcnifl34p3x5xurjyb.py":24:33)
#loc5 = loc("/NHNHOME/WORKSPACE/26msit001_A/jinhyeok/loop_TTT/lact/.cache_inductor_llm/42/c426xitwbriylvt6yplgukfab57o3dv7gtgcnifl34p3x5xurjyb.py":25:36)
#loc6 = loc("/NHNHOME/WORKSPACE/26msit001_A/jinhyeok/loop_TTT/lact/.cache_inductor_llm/42/c426xitwbriylvt6yplgukfab57o3dv7gtgcnifl34p3x5xurjyb.py":25:44)
#loc7 = loc("/NHNHOME/WORKSPACE/26msit001_A/jinhyeok/loop_TTT/lact/.cache_inductor_llm/42/c426xitwbriylvt6yplgukfab57o3dv7gtgcnifl34p3x5xurjyb.py":25:23)
#loc8 = loc("/NHNHOME/WORKSPACE/26msit001_A/jinhyeok/loop_TTT/lact/.cache_inductor_llm/42/c426xitwbriylvt6yplgukfab57o3dv7gtgcnifl34p3x5xurjyb.py":26:21)
#loc9 = loc("/NHNHOME/WORKSPACE/26msit001_A/jinhyeok/loop_TTT/lact/.cache_inductor_llm/42/c426xitwbriylvt6yplgukfab57o3dv7gtgcnifl34p3x5xurjyb.py":27:28)
#loc10 = loc("/NHNHOME/WORKSPACE/26msit001_A/jinhyeok/loop_TTT/lact/.cache_inductor_llm/42/c426xitwbriylvt6yplgukfab57o3dv7gtgcnifl34p3x5xurjyb.py":27:38)
#loc11 = loc("/NHNHOME/WORKSPACE/26msit001_A/jinhyeok/loop_TTT/lact/.cache_inductor_llm/42/c426xitwbriylvt6yplgukfab57o3dv7gtgcnifl34p3x5xurjyb.py":28:16)
#loc12 = loc("/NHNHOME/WORKSPACE/26msit001_A/jinhyeok/loop_TTT/lact/.cache_inductor_llm/42/c426xitwbriylvt6yplgukfab57o3dv7gtgcnifl34p3x5xurjyb.py":29:25)
#loc13 = loc("/NHNHOME/WORKSPACE/26msit001_A/jinhyeok/loop_TTT/lact/.cache_inductor_llm/42/c426xitwbriylvt6yplgukfab57o3dv7gtgcnifl34p3x5xurjyb.py":34:41)
#loc14 = loc("/NHNHOME/WORKSPACE/26msit001_A/jinhyeok/loop_TTT/lact/.cache_inductor_llm/42/c426xitwbriylvt6yplgukfab57o3dv7gtgcnifl34p3x5xurjyb.py":34:37)
#loc15 = loc("/NHNHOME/WORKSPACE/26msit001_A/jinhyeok/loop_TTT/lact/.cache_inductor_llm/42/c426xitwbriylvt6yplgukfab57o3dv7gtgcnifl34p3x5xurjyb.py":34:30)
#loc16 = loc("/NHNHOME/WORKSPACE/26msit001_A/jinhyeok/loop_TTT/lact/.cache_inductor_llm/42/c426xitwbriylvt6yplgukfab57o3dv7gtgcnifl34p3x5xurjyb.py":34:56)
#loc17 = loc("/NHNHOME/WORKSPACE/26msit001_A/jinhyeok/loop_TTT/lact/.cache_inductor_llm/42/c426xitwbriylvt6yplgukfab57o3dv7gtgcnifl34p3x5xurjyb.py":34:46)
#loc18 = loc("/NHNHOME/WORKSPACE/26msit001_A/jinhyeok/loop_TTT/lact/.cache_inductor_llm/42/c426xitwbriylvt6yplgukfab57o3dv7gtgcnifl34p3x5xurjyb.py":34:77)
#loc19 = loc("/NHNHOME/WORKSPACE/26msit001_A/jinhyeok/loop_TTT/lact/.cache_inductor_llm/42/c426xitwbriylvt6yplgukfab57o3dv7gtgcnifl34p3x5xurjyb.py":35:45)
#loc20 = loc("/NHNHOME/WORKSPACE/26msit001_A/jinhyeok/loop_TTT/lact/.cache_inductor_llm/42/c426xitwbriylvt6yplgukfab57o3dv7gtgcnifl34p3x5xurjyb.py":35:41)
#loc21 = loc("/NHNHOME/WORKSPACE/26msit001_A/jinhyeok/loop_TTT/lact/.cache_inductor_llm/42/c426xitwbriylvt6yplgukfab57o3dv7gtgcnifl34p3x5xurjyb.py":35:34)
#loc22 = loc("/NHNHOME/WORKSPACE/26msit001_A/jinhyeok/loop_TTT/lact/.cache_inductor_llm/42/c426xitwbriylvt6yplgukfab57o3dv7gtgcnifl34p3x5xurjyb.py":35:60)
#loc23 = loc("/NHNHOME/WORKSPACE/26msit001_A/jinhyeok/loop_TTT/lact/.cache_inductor_llm/42/c426xitwbriylvt6yplgukfab57o3dv7gtgcnifl34p3x5xurjyb.py":35:50)
#loc24 = loc("/NHNHOME/WORKSPACE/26msit001_A/jinhyeok/loop_TTT/lact/.cache_inductor_llm/42/c426xitwbriylvt6yplgukfab57o3dv7gtgcnifl34p3x5xurjyb.py":36:42)
#loc25 = loc("/NHNHOME/WORKSPACE/26msit001_A/jinhyeok/loop_TTT/lact/.cache_inductor_llm/42/c426xitwbriylvt6yplgukfab57o3dv7gtgcnifl34p3x5xurjyb.py":36:38)
#loc26 = loc("/NHNHOME/WORKSPACE/26msit001_A/jinhyeok/loop_TTT/lact/.cache_inductor_llm/42/c426xitwbriylvt6yplgukfab57o3dv7gtgcnifl34p3x5xurjyb.py":36:31)
#loc27 = loc("/NHNHOME/WORKSPACE/26msit001_A/jinhyeok/loop_TTT/lact/.cache_inductor_llm/42/c426xitwbriylvt6yplgukfab57o3dv7gtgcnifl34p3x5xurjyb.py":36:57)
#loc28 = loc("/NHNHOME/WORKSPACE/26msit001_A/jinhyeok/loop_TTT/lact/.cache_inductor_llm/42/c426xitwbriylvt6yplgukfab57o3dv7gtgcnifl34p3x5xurjyb.py":36:47)
#loc29 = loc("/NHNHOME/WORKSPACE/26msit001_A/jinhyeok/loop_TTT/lact/.cache_inductor_llm/42/c426xitwbriylvt6yplgukfab57o3dv7gtgcnifl34p3x5xurjyb.py":36:78)
#loc30 = loc("/NHNHOME/WORKSPACE/26msit001_A/jinhyeok/loop_TTT/lact/.cache_inductor_llm/42/c426xitwbriylvt6yplgukfab57o3dv7gtgcnifl34p3x5xurjyb.py":37:42)
#loc31 = loc("/NHNHOME/WORKSPACE/26msit001_A/jinhyeok/loop_TTT/lact/.cache_inductor_llm/42/c426xitwbriylvt6yplgukfab57o3dv7gtgcnifl34p3x5xurjyb.py":37:38)
#loc32 = loc("/NHNHOME/WORKSPACE/26msit001_A/jinhyeok/loop_TTT/lact/.cache_inductor_llm/42/c426xitwbriylvt6yplgukfab57o3dv7gtgcnifl34p3x5xurjyb.py":37:31)
#loc33 = loc("/NHNHOME/WORKSPACE/26msit001_A/jinhyeok/loop_TTT/lact/.cache_inductor_llm/42/c426xitwbriylvt6yplgukfab57o3dv7gtgcnifl34p3x5xurjyb.py":37:57)
#loc34 = loc("/NHNHOME/WORKSPACE/26msit001_A/jinhyeok/loop_TTT/lact/.cache_inductor_llm/42/c426xitwbriylvt6yplgukfab57o3dv7gtgcnifl34p3x5xurjyb.py":37:47)
#loc35 = loc("/NHNHOME/WORKSPACE/26msit001_A/jinhyeok/loop_TTT/lact/.cache_inductor_llm/42/c426xitwbriylvt6yplgukfab57o3dv7gtgcnifl34p3x5xurjyb.py":37:78)
#loc36 = loc("/NHNHOME/WORKSPACE/26msit001_A/jinhyeok/loop_TTT/lact/.cache_inductor_llm/42/c426xitwbriylvt6yplgukfab57o3dv7gtgcnifl34p3x5xurjyb.py":38:42)
#loc37 = loc("/NHNHOME/WORKSPACE/26msit001_A/jinhyeok/loop_TTT/lact/.cache_inductor_llm/42/c426xitwbriylvt6yplgukfab57o3dv7gtgcnifl34p3x5xurjyb.py":38:38)
#loc38 = loc("/NHNHOME/WORKSPACE/26msit001_A/jinhyeok/loop_TTT/lact/.cache_inductor_llm/42/c426xitwbriylvt6yplgukfab57o3dv7gtgcnifl34p3x5xurjyb.py":38:31)
#loc39 = loc("/NHNHOME/WORKSPACE/26msit001_A/jinhyeok/loop_TTT/lact/.cache_inductor_llm/42/c426xitwbriylvt6yplgukfab57o3dv7gtgcnifl34p3x5xurjyb.py":38:57)
#loc40 = loc("/NHNHOME/WORKSPACE/26msit001_A/jinhyeok/loop_TTT/lact/.cache_inductor_llm/42/c426xitwbriylvt6yplgukfab57o3dv7gtgcnifl34p3x5xurjyb.py":38:47)
#loc41 = loc("/NHNHOME/WORKSPACE/26msit001_A/jinhyeok/loop_TTT/lact/.cache_inductor_llm/42/c426xitwbriylvt6yplgukfab57o3dv7gtgcnifl34p3x5xurjyb.py":38:78)
#loc42 = loc("/NHNHOME/WORKSPACE/26msit001_A/jinhyeok/loop_TTT/lact/.cache_inductor_llm/42/c426xitwbriylvt6yplgukfab57o3dv7gtgcnifl34p3x5xurjyb.py":40:18)
#loc43 = loc("/NHNHOME/WORKSPACE/26msit001_A/jinhyeok/loop_TTT/lact/.cache_inductor_llm/42/c426xitwbriylvt6yplgukfab57o3dv7gtgcnifl34p3x5xurjyb.py":42:30)
#loc44 = loc("/NHNHOME/WORKSPACE/26msit001_A/jinhyeok/loop_TTT/lact/.cache_inductor_llm/42/c426xitwbriylvt6yplgukfab57o3dv7gtgcnifl34p3x5xurjyb.py":42:43)
#loc45 = loc("/NHNHOME/WORKSPACE/26msit001_A/jinhyeok/loop_TTT/lact/.cache_inductor_llm/42/c426xitwbriylvt6yplgukfab57o3dv7gtgcnifl34p3x5xurjyb.py":43:24)
#loc46 = loc("/NHNHOME/WORKSPACE/26msit001_A/jinhyeok/loop_TTT/lact/.cache_inductor_llm/42/c426xitwbriylvt6yplgukfab57o3dv7gtgcnifl34p3x5xurjyb.py":43:27)
#loc47 = loc("/NHNHOME/WORKSPACE/26msit001_A/jinhyeok/loop_TTT/lact/.cache_inductor_llm/42/c426xitwbriylvt6yplgukfab57o3dv7gtgcnifl34p3x5xurjyb.py":44:11)
#loc48 = loc("/NHNHOME/WORKSPACE/26msit001_A/jinhyeok/loop_TTT/lact/.cache_inductor_llm/42/c426xitwbriylvt6yplgukfab57o3dv7gtgcnifl34p3x5xurjyb.py":45:18)
#loc49 = loc("/NHNHOME/WORKSPACE/26msit001_A/jinhyeok/loop_TTT/lact/.cache_inductor_llm/42/c426xitwbriylvt6yplgukfab57o3dv7gtgcnifl34p3x5xurjyb.py":47:19)
#loc50 = loc("/NHNHOME/WORKSPACE/26msit001_A/jinhyeok/loop_TTT/lact/.cache_inductor_llm/42/c426xitwbriylvt6yplgukfab57o3dv7gtgcnifl34p3x5xurjyb.py":48:12)
#loc51 = loc("/NHNHOME/WORKSPACE/26msit001_A/jinhyeok/loop_TTT/lact/.cache_inductor_llm/42/c426xitwbriylvt6yplgukfab57o3dv7gtgcnifl34p3x5xurjyb.py":49:20)
#loc52 = loc("/NHNHOME/WORKSPACE/26msit001_A/jinhyeok/loop_TTT/lact/.cache_inductor_llm/42/c426xitwbriylvt6yplgukfab57o3dv7gtgcnifl34p3x5xurjyb.py":51:20)
#loc53 = loc("/NHNHOME/WORKSPACE/26msit001_A/jinhyeok/loop_TTT/lact/.cache_inductor_llm/42/c426xitwbriylvt6yplgukfab57o3dv7gtgcnifl34p3x5xurjyb.py":52:12)
#loc54 = loc("/NHNHOME/WORKSPACE/26msit001_A/jinhyeok/loop_TTT/lact/.cache_inductor_llm/42/c426xitwbriylvt6yplgukfab57o3dv7gtgcnifl34p3x5xurjyb.py":53:20)
#loc55 = loc("/NHNHOME/WORKSPACE/26msit001_A/jinhyeok/loop_TTT/lact/.cache_inductor_llm/42/c426xitwbriylvt6yplgukfab57o3dv7gtgcnifl34p3x5xurjyb.py":55:20)
#loc56 = loc("/NHNHOME/WORKSPACE/26msit001_A/jinhyeok/loop_TTT/lact/.cache_inductor_llm/42/c426xitwbriylvt6yplgukfab57o3dv7gtgcnifl34p3x5xurjyb.py":56:19)
#loc57 = loc("/NHNHOME/WORKSPACE/26msit001_A/jinhyeok/loop_TTT/lact/.cache_inductor_llm/42/c426xitwbriylvt6yplgukfab57o3dv7gtgcnifl34p3x5xurjyb.py":57:20)
#loc58 = loc("/NHNHOME/WORKSPACE/26msit001_A/jinhyeok/loop_TTT/lact/.cache_inductor_llm/42/c426xitwbriylvt6yplgukfab57o3dv7gtgcnifl34p3x5xurjyb.py":59:31)
#loc59 = loc("/NHNHOME/WORKSPACE/26msit001_A/jinhyeok/loop_TTT/lact/.cache_inductor_llm/42/c426xitwbriylvt6yplgukfab57o3dv7gtgcnifl34p3x5xurjyb.py":59:45)
#loc60 = loc("/NHNHOME/WORKSPACE/26msit001_A/jinhyeok/loop_TTT/lact/.cache_inductor_llm/42/c426xitwbriylvt6yplgukfab57o3dv7gtgcnifl34p3x5xurjyb.py":60:26)
#loc61 = loc("/NHNHOME/WORKSPACE/26msit001_A/jinhyeok/loop_TTT/lact/.cache_inductor_llm/42/c426xitwbriylvt6yplgukfab57o3dv7gtgcnifl34p3x5xurjyb.py":60:29)
#loc62 = loc("/NHNHOME/WORKSPACE/26msit001_A/jinhyeok/loop_TTT/lact/.cache_inductor_llm/42/c426xitwbriylvt6yplgukfab57o3dv7gtgcnifl34p3x5xurjyb.py":61:27)
#loc63 = loc("/NHNHOME/WORKSPACE/26msit001_A/jinhyeok/loop_TTT/lact/.cache_inductor_llm/42/c426xitwbriylvt6yplgukfab57o3dv7gtgcnifl34p3x5xurjyb.py":62:12)
#loc64 = loc("/NHNHOME/WORKSPACE/26msit001_A/jinhyeok/loop_TTT/lact/.cache_inductor_llm/42/c426xitwbriylvt6yplgukfab57o3dv7gtgcnifl34p3x5xurjyb.py":63:20)
#loc65 = loc("/NHNHOME/WORKSPACE/26msit001_A/jinhyeok/loop_TTT/lact/.cache_inductor_llm/42/c426xitwbriylvt6yplgukfab57o3dv7gtgcnifl34p3x5xurjyb.py":64:21)
#loc66 = loc("/NHNHOME/WORKSPACE/26msit001_A/jinhyeok/loop_TTT/lact/.cache_inductor_llm/42/c426xitwbriylvt6yplgukfab57o3dv7gtgcnifl34p3x5xurjyb.py":65:27)
#loc67 = loc("/NHNHOME/WORKSPACE/26msit001_A/jinhyeok/loop_TTT/lact/.cache_inductor_llm/42/c426xitwbriylvt6yplgukfab57o3dv7gtgcnifl34p3x5xurjyb.py":66:20)
#loc68 = loc("/NHNHOME/WORKSPACE/26msit001_A/jinhyeok/loop_TTT/lact/.cache_inductor_llm/42/c426xitwbriylvt6yplgukfab57o3dv7gtgcnifl34p3x5xurjyb.py":68:39)
#loc69 = loc("/NHNHOME/WORKSPACE/26msit001_A/jinhyeok/loop_TTT/lact/.cache_inductor_llm/42/c426xitwbriylvt6yplgukfab57o3dv7gtgcnifl34p3x5xurjyb.py":68:35)
#loc70 = loc("/NHNHOME/WORKSPACE/26msit001_A/jinhyeok/loop_TTT/lact/.cache_inductor_llm/42/c426xitwbriylvt6yplgukfab57o3dv7gtgcnifl34p3x5xurjyb.py":68:28)
#loc71 = loc("/NHNHOME/WORKSPACE/26msit001_A/jinhyeok/loop_TTT/lact/.cache_inductor_llm/42/c426xitwbriylvt6yplgukfab57o3dv7gtgcnifl34p3x5xurjyb.py":68:61)
#loc72 = loc("/NHNHOME/WORKSPACE/26msit001_A/jinhyeok/loop_TTT/lact/.cache_inductor_llm/42/c426xitwbriylvt6yplgukfab57o3dv7gtgcnifl34p3x5xurjyb.py":68:51)
#loc73 = loc("/NHNHOME/WORKSPACE/26msit001_A/jinhyeok/loop_TTT/lact/.cache_inductor_llm/42/c426xitwbriylvt6yplgukfab57o3dv7gtgcnifl34p3x5xurjyb.py":69:36)
#loc74 = loc("/NHNHOME/WORKSPACE/26msit001_A/jinhyeok/loop_TTT/lact/.cache_inductor_llm/42/c426xitwbriylvt6yplgukfab57o3dv7gtgcnifl34p3x5xurjyb.py":69:32)
#loc75 = loc("/NHNHOME/WORKSPACE/26msit001_A/jinhyeok/loop_TTT/lact/.cache_inductor_llm/42/c426xitwbriylvt6yplgukfab57o3dv7gtgcnifl34p3x5xurjyb.py":69:25)
#loc76 = loc("/NHNHOME/WORKSPACE/26msit001_A/jinhyeok/loop_TTT/lact/.cache_inductor_llm/42/c426xitwbriylvt6yplgukfab57o3dv7gtgcnifl34p3x5xurjyb.py":69:58)
#loc77 = loc("/NHNHOME/WORKSPACE/26msit001_A/jinhyeok/loop_TTT/lact/.cache_inductor_llm/42/c426xitwbriylvt6yplgukfab57o3dv7gtgcnifl34p3x5xurjyb.py":69:48)
#loc78 = loc("/NHNHOME/WORKSPACE/26msit001_A/jinhyeok/loop_TTT/lact/.cache_inductor_llm/42/c426xitwbriylvt6yplgukfab57o3dv7gtgcnifl34p3x5xurjyb.py":70:36)
#loc79 = loc("/NHNHOME/WORKSPACE/26msit001_A/jinhyeok/loop_TTT/lact/.cache_inductor_llm/42/c426xitwbriylvt6yplgukfab57o3dv7gtgcnifl34p3x5xurjyb.py":70:32)
#loc80 = loc("/NHNHOME/WORKSPACE/26msit001_A/jinhyeok/loop_TTT/lact/.cache_inductor_llm/42/c426xitwbriylvt6yplgukfab57o3dv7gtgcnifl34p3x5xurjyb.py":70:25)
#loc81 = loc("/NHNHOME/WORKSPACE/26msit001_A/jinhyeok/loop_TTT/lact/.cache_inductor_llm/42/c426xitwbriylvt6yplgukfab57o3dv7gtgcnifl34p3x5xurjyb.py":70:58)
#loc82 = loc("/NHNHOME/WORKSPACE/26msit001_A/jinhyeok/loop_TTT/lact/.cache_inductor_llm/42/c426xitwbriylvt6yplgukfab57o3dv7gtgcnifl34p3x5xurjyb.py":70:48)
#loc83 = loc("/NHNHOME/WORKSPACE/26msit001_A/jinhyeok/loop_TTT/lact/.cache_inductor_llm/42/c426xitwbriylvt6yplgukfab57o3dv7gtgcnifl34p3x5xurjyb.py":71:25)
#loc84 = loc("/NHNHOME/WORKSPACE/26msit001_A/jinhyeok/loop_TTT/lact/.cache_inductor_llm/42/c426xitwbriylvt6yplgukfab57o3dv7gtgcnifl34p3x5xurjyb.py":71:36)
#loc85 = loc("/NHNHOME/WORKSPACE/26msit001_A/jinhyeok/loop_TTT/lact/.cache_inductor_llm/42/c426xitwbriylvt6yplgukfab57o3dv7gtgcnifl34p3x5xurjyb.py":71:4)
#loc87 = loc("/NHNHOME/WORKSPACE/26msit001_A/jinhyeok/TTT_camera_embedding/.venv_llm/lib/python3.12/site-packages/triton/language/standard.py":291:36)
#loc89 = loc("/NHNHOME/WORKSPACE/26msit001_A/jinhyeok/TTT_camera_embedding/.venv_llm/lib/python3.12/site-packages/triton/language/standard.py":291:11)
#loc90 = loc("/NHNHOME/WORKSPACE/26msit001_A/jinhyeok/TTT_camera_embedding/.venv_llm/lib/python3.12/site-packages/triton/language/standard.py":291:4)
#loc92 = loc("/NHNHOME/WORKSPACE/26msit001_A/jinhyeok/TTT_camera_embedding/.venv_llm/lib/python3.12/site-packages/triton/language/standard.py":261:15)
#loc93 = loc("/NHNHOME/WORKSPACE/26msit001_A/jinhyeok/TTT_camera_embedding/.venv_llm/lib/python3.12/site-packages/triton/language/standard.py":261:11)
#loc94 = loc("/NHNHOME/WORKSPACE/26msit001_A/jinhyeok/TTT_camera_embedding/.venv_llm/lib/python3.12/site-packages/triton/language/standard.py":261:4)
#loc105 = loc("xnumel"(#loc1))
#loc106 = loc("r0_numel"(#loc2))
#loc107 = loc("xoffset"(#loc3))
#loc108 = loc("xoffset"(#loc4))
#loc109 = loc("xindex"(#loc5))
#loc110 = loc("xindex"(#loc6))
#loc111 = loc("xindex"(#loc7))
#loc112 = loc("xmask"(#loc8))
#loc113 = loc("r0_index"(#loc9))
#loc114 = loc("r0_index"(#loc10))
#loc115 = loc("r0_offset"(#loc11))
#loc116 = loc("r0_mask"(#loc12))
#loc117 = loc("tmp0"(#loc13))
#loc118 = loc("tmp0"(#loc14))
#loc119 = loc("tmp0"(#loc15))
#loc120 = loc("tmp0"(#loc16))
#loc121 = loc("tmp0"(#loc17))
#loc122 = loc("tmp0"(#loc18))
#loc123 = loc("tmp7"(#loc19))
#loc124 = loc("tmp7"(#loc20))
#loc125 = loc("tmp7"(#loc21))
#loc126 = loc("tmp7"(#loc22))
#loc127 = loc("tmp7"(#loc23))
#loc128 = loc("tmp10"(#loc24))
#loc129 = loc("tmp10"(#loc25))
#loc130 = loc("tmp10"(#loc26))
#loc131 = loc("tmp10"(#loc27))
#loc132 = loc("tmp10"(#loc28))
#loc133 = loc("tmp10"(#loc29))
#loc134 = loc("tmp15"(#loc30))
#loc135 = loc("tmp15"(#loc31))
#loc136 = loc("tmp15"(#loc32))
#loc137 = loc("tmp15"(#loc33))
#loc138 = loc("tmp15"(#loc34))
#loc139 = loc("tmp15"(#loc35))
#loc140 = loc("tmp20"(#loc36))
#loc141 = loc("tmp20"(#loc37))
#loc142 = loc("tmp20"(#loc38))
#loc143 = loc("tmp20"(#loc39))
#loc144 = loc("tmp20"(#loc40))
#loc145 = loc("tmp20"(#loc41))
#loc146 = loc("tmp2"(#loc42))
#loc147 = loc("tmp5"(#loc43))
#loc148 = loc("tmp5"(#loc44))
#loc149 = loc("tmp6"(#loc45))
#loc150 = loc("tmp6"(#loc46))
#loc151 = loc("tmp8"(#loc47))
#loc152 = loc("tmp9"(#loc48))
#loc153 = loc("tmp12"(#loc49))
#loc154 = loc("tmp13"(#loc50))
#loc155 = loc("tmp14"(#loc51))
#loc156 = loc("tmp17"(#loc52))
#loc157 = loc("tmp18"(#loc53))
#loc158 = loc("tmp19"(#loc54))
#loc159 = loc("tmp22"(#loc55))
#loc160 = loc("tmp23"(#loc56))
#loc161 = loc("tmp24"(#loc57))
#loc162 = loc("tmp27"(#loc58))
#loc163 = loc("tmp27"(#loc59))
#loc164 = loc("tmp28"(#loc60))
#loc165 = loc("tmp28"(#loc61))
#loc166 = loc("tmp29"(#loc62))
#loc167 = loc("tmp30"(#loc63))
#loc168 = loc("tmp31"(#loc64))
#loc169 = loc("tmp32"(#loc65))
#loc170 = loc("tmp33"(#loc66))
#loc171 = loc("tmp34"(#loc67))
