#loc = loc("/NHNHOME/WORKSPACE/26msit001_A/jinhyeok/TTT_camera_embedding/.venv_llm/lib/python3.12/site-packages/fla/modules/layernorm.py":342:0)
#loc1 = loc(unknown)
#loc38 = loc("/NHNHOME/WORKSPACE/26msit001_A/jinhyeok/TTT_camera_embedding/.venv_llm/lib/python3.12/site-packages/fla/modules/layernorm.py":428:26)
#loc51 = loc("/NHNHOME/WORKSPACE/26msit001_A/jinhyeok/TTT_camera_embedding/.venv_llm/lib/python3.12/site-packages/fla/modules/layernorm.py":442:44)
#loc54 = loc("x"(#loc))
#loc55 = loc("w"(#loc))
#loc56 = loc("dy"(#loc))
#loc57 = loc("dx"(#loc))
#loc58 = loc("dw"(#loc))
#loc59 = loc("rstd"(#loc))
#loc60 = loc("T"(#loc))
#loc92 = loc("b_c1"(#loc38))
#loc99 = loc(callsite(#loc1 at #loc51))
#loc101 = loc(callsite(#loc1 at #loc92))
module {
  tt.func public @layer_norm_bwd_kernel(%x: !tt.ptr<bf16> {tt.divisibility = 16 : i32} loc("x"(#loc)), %w: !tt.ptr<f32> {tt.divisibility = 16 : i32} loc("w"(#loc)), %dy: !tt.ptr<bf16> {tt.divisibility = 16 : i32} loc("dy"(#loc)), %dx: !tt.ptr<bf16> {tt.divisibility = 16 : i32} loc("dx"(#loc)), %dw: !tt.ptr<f32> {tt.divisibility = 16 : i32} loc("dw"(#loc)), %rstd: !tt.ptr<f32> {tt.divisibility = 16 : i32} loc("rstd"(#loc)), %T: i32 {tt.divisibility = 16 : i32} loc("T"(#loc))) attributes {noinline = false} {
    %cst = arith.constant dense<0> : tensor<64xi64> loc(#loc1)
    %cst_0 = arith.constant dense<192> : tensor<1x256xi64> loc(#loc1)
    %cst_1 = arith.constant dense<0> : tensor<1x256xi64> loc(#loc1)
    %cst_2 = arith.constant dense<0> : tensor<64x1xi64> loc(#loc1)
    %cst_3 = arith.constant dense<192> : tensor<64x1xi64> loc(#loc1)
    %c64_i32 = arith.constant 64 : i32 loc(#loc2)
    %cst_4 = arith.constant dense<1.920000e+02> : tensor<64xf32> loc(#loc1)
    %cst_5 = arith.constant dense<0.000000e+00> : tensor<64x256xf32> loc(#loc1)
    %c222_i32 = arith.constant 222 : i32 loc(#loc1)
    %m_d = arith.constant dense<192> : tensor<256xi32> loc(#loc61)
    %c192_i32 = arith.constant 192 : i32 loc(#loc1)
    %c148_i32 = arith.constant 148 : i32 loc(#loc1)
    %i_s = tt.get_program_id x : i32 loc(#loc62)
    %0 = arith.divsi %i_s, %c148_i32 : i32 loc(#loc5)
    %1 = arith.remsi %i_s, %c148_i32 : i32 loc(#loc6)
    %o_d = tt.make_range {end = 256 : i32, start = 0 : i32} : tensor<256xi32> loc(#loc63)
    %m_d_6 = arith.cmpi slt, %o_d, %m_d : tensor<256xi32> loc(#loc61)
    %b_w = arith.muli %0, %c192_i32 : i32 loc(#loc64)
    %b_w_7 = tt.addptr %w, %b_w : !tt.ptr<f32>, i32 loc(#loc65)
    %b_w_8 = tt.splat %b_w_7 : !tt.ptr<f32> -> tensor<256x!tt.ptr<f32>> loc(#loc66)
    %b_w_9 = tt.addptr %b_w_8, %o_d : tensor<256x!tt.ptr<f32>>, tensor<256xi32> loc(#loc66)
    %b_w_10 = tt.load %b_w_9, %m_d_6 : tensor<256x!tt.ptr<f32>> loc(#loc67)
    %2 = arith.muli %1, %c222_i32 : i32 loc(#loc12)
    %3 = arith.addi %2, %c222_i32 : i32 loc(#loc13)
    %b_dw = scf.for %i_t = %2 to %3 step %c64_i32 iter_args(%b_dw_11 = %cst_5) -> (tensor<64x256xf32>)  : i32 {
      %p_x = tt.addptr %x, %b_w : !tt.ptr<bf16>, i32 loc(#loc69)
      %p_x_12 = arith.extsi %T : i32 to i64 loc(#loc70)
      %p_x_13 = arith.extsi %i_t : i32 to i64 loc(#loc70)
      %p_dy = tt.addptr %dy, %b_w : !tt.ptr<bf16>, i32 loc(#loc71)
      %p_dx = tt.addptr %dx, %b_w : !tt.ptr<bf16>, i32 loc(#loc72)
      %b_x = tt.splat %p_x : !tt.ptr<bf16> -> tensor<64x256x!tt.ptr<bf16>> loc(#loc73)
      %b_x_14 = tt.splat %p_x_13 : i64 -> tensor<64xi64> loc(#loc73)
      %b_x_15 = tt.make_range {end = 64 : i32, start = 0 : i32} : tensor<64xi32> loc(#loc73)
      %b_x_16 = arith.extsi %b_x_15 : tensor<64xi32> to tensor<64xi64> loc(#loc73)
      %b_x_17 = arith.addi %b_x_14, %b_x_16 : tensor<64xi64> loc(#loc73)
      %b_x_18 = tt.expand_dims %b_x_17 {axis = 1 : i32} : tensor<64xi64> -> tensor<64x1xi64> loc(#loc73)
      %b_x_19 = arith.muli %b_x_18, %cst_3 : tensor<64x1xi64> loc(#loc73)
      %b_x_20 = tt.broadcast %b_x_19 : tensor<64x1xi64> -> tensor<64x256xi64> loc(#loc73)
      %b_x_21 = arith.extsi %o_d : tensor<256xi32> to tensor<256xi64> loc(#loc73)
      %b_x_22 = tt.expand_dims %b_x_21 {axis = 0 : i32} : tensor<256xi64> -> tensor<1x256xi64> loc(#loc73)
      %b_x_23 = tt.broadcast %b_x_22 : tensor<1x256xi64> -> tensor<64x256xi64> loc(#loc73)
      %b_x_24 = arith.addi %b_x_20, %b_x_23 : tensor<64x256xi64> loc(#loc73)
      %b_x_25 = tt.addptr %b_x, %b_x_24 : tensor<64x256x!tt.ptr<bf16>>, tensor<64x256xi64> loc(#loc73)
      %b_x_26 = arith.cmpi sge, %b_x_18, %cst_2 : tensor<64x1xi64> loc(#loc73)
      %b_x_27 = tt.splat %p_x_12 : i64 -> tensor<64x1xi64> loc(#loc73)
      %b_x_28 = arith.cmpi slt, %b_x_18, %b_x_27 : tensor<64x1xi64> loc(#loc73)
      %b_x_29 = arith.andi %b_x_26, %b_x_28 : tensor<64x1xi1> loc(#loc73)
      %b_x_30 = tt.broadcast %b_x_29 : tensor<64x1xi1> -> tensor<64x256xi1> loc(#loc73)
      %b_x_31 = arith.cmpi sge, %b_x_22, %cst_1 : tensor<1x256xi64> loc(#loc73)
      %b_x_32 = arith.cmpi slt, %b_x_22, %cst_0 : tensor<1x256xi64> loc(#loc73)
      %b_x_33 = arith.andi %b_x_31, %b_x_32 : tensor<1x256xi1> loc(#loc73)
      %b_x_34 = tt.broadcast %b_x_33 : tensor<1x256xi1> -> tensor<64x256xi1> loc(#loc73)
      %b_x_35 = arith.andi %b_x_30, %b_x_34 : tensor<64x256xi1> loc(#loc73)
      %b_x_36 = tt.load %b_x_25, %b_x_35 : tensor<64x256x!tt.ptr<bf16>> loc(#loc73)
      %b_x_37 = arith.extf %b_x_36 : tensor<64x256xbf16> to tensor<64x256xf32> loc(#loc74)
      %b_dy = tt.splat %p_dy : !tt.ptr<bf16> -> tensor<64x256x!tt.ptr<bf16>> loc(#loc75)
      %b_dy_38 = tt.addptr %b_dy, %b_x_24 : tensor<64x256x!tt.ptr<bf16>>, tensor<64x256xi64> loc(#loc75)
      %b_dy_39 = tt.load %b_dy_38, %b_x_35 : tensor<64x256x!tt.ptr<bf16>> loc(#loc75)
      %b_dy_40 = arith.extf %b_dy_39 : tensor<64x256xbf16> to tensor<64x256xf32> loc(#loc76)
      %p_rstd = tt.addptr %rstd, %0 : !tt.ptr<f32>, i32 loc(#loc77)
      %b_rstd = tt.splat %p_rstd : !tt.ptr<f32> -> tensor<64x!tt.ptr<f32>> loc(#loc78)
      %b_rstd_41 = tt.addptr %b_rstd, %b_x_17 : tensor<64x!tt.ptr<f32>>, tensor<64xi64> loc(#loc78)
      %b_rstd_42 = arith.cmpi sge, %b_x_17, %cst : tensor<64xi64> loc(#loc78)
      %b_rstd_43 = tt.splat %p_x_12 : i64 -> tensor<64xi64> loc(#loc78)
      %b_rstd_44 = arith.cmpi slt, %b_x_17, %b_rstd_43 : tensor<64xi64> loc(#loc78)
      %b_rstd_45 = arith.andi %b_rstd_42, %b_rstd_44 : tensor<64xi1> loc(#loc78)
      %b_rstd_46 = tt.load %b_rstd_41, %b_rstd_45 : tensor<64x!tt.ptr<f32>> loc(#loc78)
      %b_xhat = tt.expand_dims %b_rstd_46 {axis = 1 : i32} : tensor<64xf32> -> tensor<64x1xf32> loc(#loc79)
      %b_xhat_47 = tt.broadcast %b_xhat : tensor<64x1xf32> -> tensor<64x256xf32> loc(#loc80)
      %b_xhat_48 = arith.mulf %b_x_37, %b_xhat_47 : tensor<64x256xf32> loc(#loc80)
      %b_xhat_49 = tt.expand_dims %m_d_6 {axis = 0 : i32} : tensor<256xi1> -> tensor<1x256xi1> loc(#loc81)
      %b_xhat_50 = tt.broadcast %b_xhat_49 : tensor<1x256xi1> -> tensor<64x256xi1> loc(#loc82)
      %b_xhat_51 = arith.select %b_xhat_50, %b_xhat_48, %cst_5 : tensor<64x256xi1>, tensor<64x256xf32> loc(#loc82)
      %m_t = tt.splat %i_t : i32 -> tensor<64xi32> loc(#loc83)
      %m_t_52 = arith.addi %m_t, %b_x_15 : tensor<64xi32> loc(#loc83)
      %m_t_53 = arith.minsi %3, %T : i32 loc(#loc84)
      %m_t_54 = tt.splat %m_t_53 : i32 -> tensor<64xi32> loc(#loc85)
      %m_t_55 = arith.cmpi slt, %m_t_52, %m_t_54 : tensor<64xi32> loc(#loc85)
      %b_wdy = tt.expand_dims %b_w_10 {axis = 0 : i32} : tensor<256xf32> -> tensor<1x256xf32> loc(#loc86)
      %b_wdy_56 = tt.broadcast %b_wdy : tensor<1x256xf32> -> tensor<64x256xf32> loc(#loc86)
      %b_wdy_57 = arith.mulf %b_dy_40, %b_wdy_56 : tensor<64x256xf32> loc(#loc86)
      %b_dw_58 = tt.expand_dims %m_t_55 {axis = 1 : i32} : tensor<64xi1> -> tensor<64x1xi1> loc(#loc87)
      %b_dw_59 = arith.mulf %b_dy_40, %b_xhat_51 : tensor<64x256xf32> loc(#loc88)
      %b_dw_60 = tt.broadcast %b_dw_58 : tensor<64x1xi1> -> tensor<64x256xi1> loc(#loc89)
      %b_dw_61 = arith.select %b_dw_60, %b_dw_59, %cst_5 : tensor<64x256xi1>, tensor<64x256xf32> loc(#loc89)
      %b_dw_62 = arith.addf %b_dw_11, %b_dw_61 : tensor<64x256xf32> loc(#loc90)
      %b_c1 = arith.mulf %b_xhat_51, %b_wdy_57 : tensor<64x256xf32> loc(#loc91)
      %b_c1_63 = "tt.reduce"(%b_c1) <{axis = 1 : i32}> ({
      ^bb0(%b_c1_69: f32 loc(callsite(#loc1 at #loc92)), %b_c1_70: f32 loc(callsite(#loc1 at #loc92))):
        %b_c1_71 = arith.addf %b_c1_69, %b_c1_70 : f32 loc(#loc103)
        tt.reduce.return %b_c1_71 : f32 loc(#loc100)
      }) : (tensor<64x256xf32>) -> tensor<64xf32> loc(#loc100)
      %b_c1_64 = arith.divf %b_c1_63, %cst_4 : tensor<64xf32> loc(#loc93)
      %b_dx = tt.expand_dims %b_c1_64 {axis = 1 : i32} : tensor<64xf32> -> tensor<64x1xf32> loc(#loc94)
      %b_dx_65 = tt.broadcast %b_dx : tensor<64x1xf32> -> tensor<64x256xf32> loc(#loc95)
      %b_dx_66 = arith.mulf %b_xhat_51, %b_dx_65 : tensor<64x256xf32> loc(#loc95)
      %b_dx_67 = arith.subf %b_wdy_57, %b_dx_66 : tensor<64x256xf32> loc(#loc96)
      %b_dx_68 = arith.mulf %b_dx_67, %b_xhat_47 : tensor<64x256xf32> loc(#loc97)
      %9 = arith.truncf %b_dx_68 : tensor<64x256xf32> to tensor<64x256xbf16> loc(#loc45)
      %10 = tt.splat %p_dx : !tt.ptr<bf16> -> tensor<64x256x!tt.ptr<bf16>> loc(#loc46)
      %11 = tt.addptr %10, %b_x_24 : tensor<64x256x!tt.ptr<bf16>>, tensor<64x256xi64> loc(#loc46)
      tt.store %11, %9, %b_x_35 : tensor<64x256x!tt.ptr<bf16>> loc(#loc46)
      scf.yield %b_dw_62 : tensor<64x256xf32> loc(#loc47)
    } loc(#loc68)
    %4 = arith.muli %i_s, %c192_i32 : i32 loc(#loc48)
    %5 = tt.addptr %dw, %4 : !tt.ptr<f32>, i32 loc(#loc49)
    %6 = tt.splat %5 : !tt.ptr<f32> -> tensor<256x!tt.ptr<f32>> loc(#loc50)
    %7 = tt.addptr %6, %o_d : tensor<256x!tt.ptr<f32>>, tensor<256xi32> loc(#loc50)
    %8 = "tt.reduce"(%b_dw) <{axis = 0 : i32}> ({
    ^bb0(%arg7: f32 loc(callsite(#loc1 at #loc51)), %arg8: f32 loc(callsite(#loc1 at #loc51))):
      %9 = arith.addf %arg7, %arg8 : f32 loc(#loc102)
      tt.reduce.return %9 : f32 loc(#loc98)
    }) : (tensor<64x256xf32>) -> tensor<256xf32> loc(#loc98)
    tt.store %7, %8, %m_d_6 : tensor<256x!tt.ptr<f32>> loc(#loc52)
    tt.return loc(#loc53)
  } loc(#loc)
} loc(#loc)
#loc2 = loc("/NHNHOME/WORKSPACE/26msit001_A/jinhyeok/TTT_camera_embedding/.venv_llm/lib/python3.12/site-packages/fla/modules/layernorm.py":388:48)
#loc3 = loc("/NHNHOME/WORKSPACE/26msit001_A/jinhyeok/TTT_camera_embedding/.venv_llm/lib/python3.12/site-packages/fla/modules/layernorm.py":374:16)
#loc4 = loc("/NHNHOME/WORKSPACE/26msit001_A/jinhyeok/TTT_camera_embedding/.venv_llm/lib/python3.12/site-packages/fla/modules/layernorm.py":370:24)
#loc5 = loc("/NHNHOME/WORKSPACE/26msit001_A/jinhyeok/TTT_camera_embedding/.venv_llm/lib/python3.12/site-packages/fla/modules/layernorm.py":371:23)
#loc6 = loc("/NHNHOME/WORKSPACE/26msit001_A/jinhyeok/TTT_camera_embedding/.venv_llm/lib/python3.12/site-packages/fla/modules/layernorm.py":371:33)
#loc7 = loc("/NHNHOME/WORKSPACE/26msit001_A/jinhyeok/TTT_camera_embedding/.venv_llm/lib/python3.12/site-packages/fla/modules/layernorm.py":373:23)
#loc8 = loc("/NHNHOME/WORKSPACE/26msit001_A/jinhyeok/TTT_camera_embedding/.venv_llm/lib/python3.12/site-packages/fla/modules/layernorm.py":376:32)
#loc9 = loc("/NHNHOME/WORKSPACE/26msit001_A/jinhyeok/TTT_camera_embedding/.venv_llm/lib/python3.12/site-packages/fla/modules/layernorm.py":376:26)
#loc10 = loc("/NHNHOME/WORKSPACE/26msit001_A/jinhyeok/TTT_camera_embedding/.venv_llm/lib/python3.12/site-packages/fla/modules/layernorm.py":376:36)
#loc11 = loc("/NHNHOME/WORKSPACE/26msit001_A/jinhyeok/TTT_camera_embedding/.venv_llm/lib/python3.12/site-packages/fla/modules/layernorm.py":376:22)
#loc12 = loc("/NHNHOME/WORKSPACE/26msit001_A/jinhyeok/TTT_camera_embedding/.venv_llm/lib/python3.12/site-packages/fla/modules/layernorm.py":388:28)
#loc13 = loc("/NHNHOME/WORKSPACE/26msit001_A/jinhyeok/TTT_camera_embedding/.venv_llm/lib/python3.12/site-packages/fla/modules/layernorm.py":388:44)
#loc14 = loc("/NHNHOME/WORKSPACE/26msit001_A/jinhyeok/TTT_camera_embedding/.venv_llm/lib/python3.12/site-packages/fla/modules/layernorm.py":389:36)
#loc15 = loc("/NHNHOME/WORKSPACE/26msit001_A/jinhyeok/TTT_camera_embedding/.venv_llm/lib/python3.12/site-packages/fla/modules/layernorm.py":389:84)
#loc16 = loc("/NHNHOME/WORKSPACE/26msit001_A/jinhyeok/TTT_camera_embedding/.venv_llm/lib/python3.12/site-packages/fla/modules/layernorm.py":390:38)
#loc17 = loc("/NHNHOME/WORKSPACE/26msit001_A/jinhyeok/TTT_camera_embedding/.venv_llm/lib/python3.12/site-packages/fla/modules/layernorm.py":391:38)
#loc18 = loc("/NHNHOME/WORKSPACE/26msit001_A/jinhyeok/TTT_camera_embedding/.venv_llm/lib/python3.12/site-packages/fla/modules/layernorm.py":393:22)
#loc19 = loc("/NHNHOME/WORKSPACE/26msit001_A/jinhyeok/TTT_camera_embedding/.venv_llm/lib/python3.12/site-packages/fla/modules/layernorm.py":393:53)
#loc20 = loc("/NHNHOME/WORKSPACE/26msit001_A/jinhyeok/TTT_camera_embedding/.venv_llm/lib/python3.12/site-packages/fla/modules/layernorm.py":394:23)
#loc21 = loc("/NHNHOME/WORKSPACE/26msit001_A/jinhyeok/TTT_camera_embedding/.venv_llm/lib/python3.12/site-packages/fla/modules/layernorm.py":394:55)
#loc22 = loc("/NHNHOME/WORKSPACE/26msit001_A/jinhyeok/TTT_camera_embedding/.venv_llm/lib/python3.12/site-packages/fla/modules/layernorm.py":399:42)
#loc23 = loc("/NHNHOME/WORKSPACE/26msit001_A/jinhyeok/TTT_camera_embedding/.venv_llm/lib/python3.12/site-packages/fla/modules/layernorm.py":400:25)
#loc24 = loc("/NHNHOME/WORKSPACE/26msit001_A/jinhyeok/TTT_camera_embedding/.venv_llm/lib/python3.12/site-packages/fla/modules/layernorm.py":402:96)
#loc25 = loc("/NHNHOME/WORKSPACE/26msit001_A/jinhyeok/TTT_camera_embedding/.venv_llm/lib/python3.12/site-packages/fla/modules/layernorm.py":402:89)
#loc26 = loc("/NHNHOME/WORKSPACE/26msit001_A/jinhyeok/TTT_camera_embedding/.venv_llm/lib/python3.12/site-packages/fla/modules/layernorm.py":403:30)
#loc27 = loc("/NHNHOME/WORKSPACE/26msit001_A/jinhyeok/TTT_camera_embedding/.venv_llm/lib/python3.12/site-packages/fla/modules/layernorm.py":403:48)
#loc28 = loc("/NHNHOME/WORKSPACE/26msit001_A/jinhyeok/TTT_camera_embedding/.venv_llm/lib/python3.12/site-packages/fla/modules/layernorm.py":417:25)
#loc29 = loc("/NHNHOME/WORKSPACE/26msit001_A/jinhyeok/TTT_camera_embedding/.venv_llm/lib/python3.12/site-packages/fla/modules/layernorm.py":417:65)
#loc30 = loc("/NHNHOME/WORKSPACE/26msit001_A/jinhyeok/TTT_camera_embedding/.venv_llm/lib/python3.12/site-packages/fla/modules/layernorm.py":417:45)
#loc31 = loc("/NHNHOME/WORKSPACE/26msit001_A/jinhyeok/TTT_camera_embedding/.venv_llm/lib/python3.12/site-packages/fla/modules/layernorm.py":419:27)
#loc32 = loc("/NHNHOME/WORKSPACE/26msit001_A/jinhyeok/TTT_camera_embedding/.venv_llm/lib/python3.12/site-packages/fla/modules/layernorm.py":420:33)
#loc33 = loc("/NHNHOME/WORKSPACE/26msit001_A/jinhyeok/TTT_camera_embedding/.venv_llm/lib/python3.12/site-packages/fla/modules/layernorm.py":420:50)
#loc34 = loc("/NHNHOME/WORKSPACE/26msit001_A/jinhyeok/TTT_camera_embedding/.venv_llm/lib/python3.12/site-packages/fla/modules/layernorm.py":420:58)
#loc35 = loc("/NHNHOME/WORKSPACE/26msit001_A/jinhyeok/TTT_camera_embedding/.venv_llm/lib/python3.12/site-packages/fla/modules/layernorm.py":420:20)
#loc36 = loc("/NHNHOME/WORKSPACE/26msit001_A/jinhyeok/TTT_camera_embedding/.venv_llm/lib/python3.12/site-packages/fla/modules/layernorm.py":428:35)
#loc37 = loc("/NHNHOME/WORKSPACE/26msit001_A/jinhyeok/TTT_camera_embedding/.venv_llm/lib/python3.12/site-packages/triton/language/standard.py":291:36)
#loc39 = loc("/NHNHOME/WORKSPACE/26msit001_A/jinhyeok/TTT_camera_embedding/.venv_llm/lib/python3.12/site-packages/triton/language/standard.py":261:15)
#loc40 = loc("/NHNHOME/WORKSPACE/26msit001_A/jinhyeok/TTT_camera_embedding/.venv_llm/lib/python3.12/site-packages/fla/modules/layernorm.py":428:52)
#loc41 = loc("/NHNHOME/WORKSPACE/26msit001_A/jinhyeok/TTT_camera_embedding/.venv_llm/lib/python3.12/site-packages/fla/modules/layernorm.py":429:42)
#loc42 = loc("/NHNHOME/WORKSPACE/26msit001_A/jinhyeok/TTT_camera_embedding/.venv_llm/lib/python3.12/site-packages/fla/modules/layernorm.py":429:37)
#loc43 = loc("/NHNHOME/WORKSPACE/26msit001_A/jinhyeok/TTT_camera_embedding/.venv_llm/lib/python3.12/site-packages/fla/modules/layernorm.py":429:28)
#loc44 = loc("/NHNHOME/WORKSPACE/26msit001_A/jinhyeok/TTT_camera_embedding/.venv_llm/lib/python3.12/site-packages/fla/modules/layernorm.py":429:54)
#loc45 = loc("/NHNHOME/WORKSPACE/26msit001_A/jinhyeok/TTT_camera_embedding/.venv_llm/lib/python3.12/site-packages/fla/modules/layernorm.py":439:31)
#loc46 = loc("/NHNHOME/WORKSPACE/26msit001_A/jinhyeok/TTT_camera_embedding/.venv_llm/lib/python3.12/site-packages/fla/modules/layernorm.py":439:23)
#loc47 = loc("/NHNHOME/WORKSPACE/26msit001_A/jinhyeok/TTT_camera_embedding/.venv_llm/lib/python3.12/site-packages/fla/modules/layernorm.py":439:8)
#loc48 = loc("/NHNHOME/WORKSPACE/26msit001_A/jinhyeok/TTT_camera_embedding/.venv_llm/lib/python3.12/site-packages/fla/modules/layernorm.py":442:28)
#loc49 = loc("/NHNHOME/WORKSPACE/26msit001_A/jinhyeok/TTT_camera_embedding/.venv_llm/lib/python3.12/site-packages/fla/modules/layernorm.py":442:22)
#loc50 = loc("/NHNHOME/WORKSPACE/26msit001_A/jinhyeok/TTT_camera_embedding/.venv_llm/lib/python3.12/site-packages/fla/modules/layernorm.py":442:32)
#loc52 = loc("/NHNHOME/WORKSPACE/26msit001_A/jinhyeok/TTT_camera_embedding/.venv_llm/lib/python3.12/site-packages/fla/modules/layernorm.py":442:37)
#loc53 = loc("/NHNHOME/WORKSPACE/26msit001_A/jinhyeok/TTT_camera_embedding/.venv_llm/lib/python3.12/site-packages/fla/modules/layernorm.py":443:4)
#loc61 = loc("m_d"(#loc3))
#loc62 = loc("i_s"(#loc4))
#loc63 = loc("o_d"(#loc7))
#loc64 = loc("b_w"(#loc8))
#loc65 = loc("b_w"(#loc9))
#loc66 = loc("b_w"(#loc10))
#loc67 = loc("b_w"(#loc11))
#loc68 = loc("b_dw"(#loc2))
#loc69 = loc("p_x"(#loc14))
#loc70 = loc("p_x"(#loc15))
#loc71 = loc("p_dy"(#loc16))
#loc72 = loc("p_dx"(#loc17))
#loc73 = loc("b_x"(#loc18))
#loc74 = loc("b_x"(#loc19))
#loc75 = loc("b_dy"(#loc20))
#loc76 = loc("b_dy"(#loc21))
#loc77 = loc("p_rstd"(#loc22))
#loc78 = loc("b_rstd"(#loc23))
#loc79 = loc("b_xhat"(#loc24))
#loc80 = loc("b_xhat"(#loc25))
#loc81 = loc("b_xhat"(#loc26))
#loc82 = loc("b_xhat"(#loc27))
#loc83 = loc("m_t"(#loc28))
#loc84 = loc("m_t"(#loc29))
#loc85 = loc("m_t"(#loc30))
#loc86 = loc("b_wdy"(#loc31))
#loc87 = loc("b_dw"(#loc32))
#loc88 = loc("b_dw"(#loc33))
#loc89 = loc("b_dw"(#loc34))
#loc90 = loc("b_dw"(#loc35))
#loc91 = loc("b_c1"(#loc36))
#loc93 = loc("b_c1"(#loc40))
#loc94 = loc("b_dx"(#loc41))
#loc95 = loc("b_dx"(#loc42))
#loc96 = loc("b_dx"(#loc43))
#loc97 = loc("b_dx"(#loc44))
#loc98 = loc(callsite(#loc37 at #loc51))
#loc100 = loc(callsite(#loc37 at #loc92))
#loc102 = loc(callsite(#loc39 at #loc98))
#loc103 = loc(callsite(#loc39 at #loc100))
