#loc = loc("/NHNHOME/WORKSPACE/26msit001_A/jinhyeok/loop_TTT/lact/.cache_inductor_llm/c7/cc7zodgg2mkwwxmvwbhqw2qrregc7dultqa3w5eb4iddakjcvm5g.py":18:0)
#loc74 = loc("/NHNHOME/WORKSPACE/26msit001_A/jinhyeok/TTT_camera_embedding/.venv_llm/lib/python3.12/site-packages/triton/language/standard.py":285:0)
#loc76 = loc(unknown)
#loc79 = loc("/NHNHOME/WORKSPACE/26msit001_A/jinhyeok/TTT_camera_embedding/.venv_llm/lib/python3.12/site-packages/triton/language/standard.py":260:0)
#loc83 = loc("in_out_ptr0"(#loc))
#loc84 = loc("in_ptr0"(#loc))
#loc85 = loc("in_ptr1"(#loc))
#loc86 = loc("in_ptr2"(#loc))
#loc87 = loc("in_ptr3"(#loc))
#loc88 = loc("in_ptr4"(#loc))
#loc89 = loc("in_ptr5"(#loc))
#loc90 = loc("out_ptr1"(#loc))
#loc91 = loc("xnumel"(#loc))
#loc92 = loc("r0_numel"(#loc))
#loc160 = loc("input"(#loc74))
#loc161 = loc("a"(#loc79))
#loc162 = loc("b"(#loc79))
module {
  tt.func public @triton_per_fused__to_copy_add_div_linalg_vector_norm_mul_55(%in_out_ptr0: !tt.ptr<f32> {tt.divisibility = 16 : i32} loc("in_out_ptr0"(#loc)), %in_ptr0: !tt.ptr<f32> {tt.divisibility = 16 : i32} loc("in_ptr0"(#loc)), %in_ptr1: !tt.ptr<bf16> {tt.divisibility = 16 : i32} loc("in_ptr1"(#loc)), %in_ptr2: !tt.ptr<f32> {tt.divisibility = 16 : i32} loc("in_ptr2"(#loc)), %in_ptr3: !tt.ptr<bf16> {tt.divisibility = 16 : i32} loc("in_ptr3"(#loc)), %in_ptr4: !tt.ptr<bf16> {tt.divisibility = 16 : i32} loc("in_ptr4"(#loc)), %in_ptr5: !tt.ptr<f32> {tt.divisibility = 16 : i32} loc("in_ptr5"(#loc)), %out_ptr1: !tt.ptr<bf16> {tt.divisibility = 16 : i32} loc("out_ptr1"(#loc)), %xnumel: i32 {tt.divisibility = 16 : i32} loc("xnumel"(#loc)), %r0_numel: i32 {tt.divisibility = 16 : i32} loc("r0_numel"(#loc))) attributes {noinline = false} {
    %r0_numel_0 = arith.constant 192 : i32 loc(#loc93)
    %xoffset = tt.get_program_id x : i32 loc(#loc94)
    %xoffset_1 = arith.constant 1 : i32 loc(#loc95)
    %xoffset_2 = arith.constant 1 : i32 loc(#loc95)
    %xoffset_3 = arith.muli %xoffset, %xoffset_2 : i32 loc(#loc95)
    %xindex = tt.make_range {end = 1 : i32, start = 0 : i32} : tensor<1xi32> loc(#loc96)
    %xindex_4 = tt.expand_dims %xindex {axis = 1 : i32} : tensor<1xi32> -> tensor<1x1xi32> loc(#loc97)
    %xindex_5 = tt.splat %xoffset_3 : i32 -> tensor<1x1xi32> loc(#loc98)
    %xindex_6 = arith.addi %xindex_5, %xindex_4 : tensor<1x1xi32> loc(#loc98)
    %xmask = tt.splat %xnumel : i32 -> tensor<1x1xi32> loc(#loc99)
    %xmask_7 = arith.cmpi slt, %xindex_6, %xmask : tensor<1x1xi32> loc(#loc99)
    %r0_index = tt.make_range {end = 256 : i32, start = 0 : i32} : tensor<256xi32> loc(#loc100)
    %r0_index_8 = tt.expand_dims %r0_index {axis = 0 : i32} : tensor<256xi32> -> tensor<1x256xi32> loc(#loc101)
    %r0_offset = arith.constant 0 : i32 loc(#loc102)
    %r0_mask = arith.constant dense<192> : tensor<1x256xi32> loc(#loc103)
    %r0_mask_9 = arith.cmpi slt, %r0_index_8, %r0_mask : tensor<1x256xi32> loc(#loc103)
    %tmp0 = arith.constant 192 : i32 loc(#loc104)
    %tmp0_10 = arith.constant 192 : i32 loc(#loc104)
    %tmp0_11 = arith.constant dense<192> : tensor<1x1xi32> loc(#loc104)
    %tmp0_12 = arith.muli %tmp0_11, %xindex_6 : tensor<1x1xi32> loc(#loc104)
    %tmp0_13 = tt.broadcast %tmp0_12 : tensor<1x1xi32> -> tensor<1x256xi32> loc(#loc105)
    %tmp0_14 = arith.addi %r0_index_8, %tmp0_13 : tensor<1x256xi32> loc(#loc105)
    %tmp0_15 = tt.splat %in_out_ptr0 : !tt.ptr<f32> -> tensor<1x256x!tt.ptr<f32>> loc(#loc106)
    %tmp0_16 = tt.addptr %tmp0_15, %tmp0_14 : tensor<1x256x!tt.ptr<f32>>, tensor<1x256xi32> loc(#loc106)
    %tmp0_17 = tt.broadcast %xmask_7 : tensor<1x1xi1> -> tensor<1x256xi1> loc(#loc107)
    %tmp0_18 = arith.andi %r0_mask_9, %tmp0_17 : tensor<1x256xi1> loc(#loc107)
    %tmp0_19 = arith.constant 0.000000e+00 : f32 loc(#loc108)
    %tmp0_20 = arith.constant dense<0.000000e+00> : tensor<1x256xf32> loc(#loc108)
    %tmp0_21 = tt.load %tmp0_16, %tmp0_18, %tmp0_20 : tensor<1x256x!tt.ptr<f32>> loc(#loc108)
    %tmp1 = arith.constant 192 : i32 loc(#loc109)
    %tmp1_22 = arith.constant 192 : i32 loc(#loc109)
    %tmp1_23 = arith.constant dense<192> : tensor<1x1xi32> loc(#loc109)
    %tmp1_24 = arith.muli %tmp1_23, %xindex_6 : tensor<1x1xi32> loc(#loc109)
    %tmp1_25 = tt.broadcast %tmp1_24 : tensor<1x1xi32> -> tensor<1x256xi32> loc(#loc110)
    %tmp1_26 = arith.addi %r0_index_8, %tmp1_25 : tensor<1x256xi32> loc(#loc110)
    %tmp1_27 = tt.splat %in_ptr0 : !tt.ptr<f32> -> tensor<1x256x!tt.ptr<f32>> loc(#loc111)
    %tmp1_28 = tt.addptr %tmp1_27, %tmp1_26 : tensor<1x256x!tt.ptr<f32>>, tensor<1x256xi32> loc(#loc111)
    %tmp1_29 = tt.broadcast %xmask_7 : tensor<1x1xi1> -> tensor<1x256xi1> loc(#loc112)
    %tmp1_30 = arith.andi %r0_mask_9, %tmp1_29 : tensor<1x256xi1> loc(#loc112)
    %tmp1_31 = arith.constant 0.000000e+00 : f32 loc(#loc113)
    %tmp1_32 = arith.constant dense<0.000000e+00> : tensor<1x256xf32> loc(#loc113)
    %tmp1_33 = tt.load %tmp1_28, %tmp1_30, %tmp1_32 : tensor<1x256x!tt.ptr<f32>> loc(#loc113)
    %tmp4 = arith.constant 192 : i32 loc(#loc114)
    %tmp4_34 = arith.constant 192 : i32 loc(#loc114)
    %tmp4_35 = arith.constant dense<192> : tensor<1x1xi32> loc(#loc114)
    %tmp4_36 = arith.muli %tmp4_35, %xindex_6 : tensor<1x1xi32> loc(#loc114)
    %tmp4_37 = tt.broadcast %tmp4_36 : tensor<1x1xi32> -> tensor<1x256xi32> loc(#loc115)
    %tmp4_38 = arith.addi %r0_index_8, %tmp4_37 : tensor<1x256xi32> loc(#loc115)
    %tmp4_39 = tt.splat %in_ptr1 : !tt.ptr<bf16> -> tensor<1x256x!tt.ptr<bf16>> loc(#loc116)
    %tmp4_40 = tt.addptr %tmp4_39, %tmp4_38 : tensor<1x256x!tt.ptr<bf16>>, tensor<1x256xi32> loc(#loc116)
    %tmp4_41 = tt.broadcast %xmask_7 : tensor<1x1xi1> -> tensor<1x256xi1> loc(#loc117)
    %tmp4_42 = arith.andi %r0_mask_9, %tmp4_41 : tensor<1x256xi1> loc(#loc117)
    %tmp4_43 = arith.constant 0.000000e+00 : f32 loc(#loc118)
    %tmp4_44 = arith.constant dense<0.000000e+00> : tensor<1x256xf32> loc(#loc118)
    %tmp4_45 = arith.truncf %tmp4_44 : tensor<1x256xf32> to tensor<1x256xbf16> loc(#loc118)
    %tmp4_46 = tt.load %tmp4_40, %tmp4_42, %tmp4_45 : tensor<1x256x!tt.ptr<bf16>> loc(#loc118)
    %tmp4_47 = arith.extf %tmp4_46 : tensor<1x256xbf16> to tensor<1x256xf32> loc(#loc119)
    %tmp8 = arith.constant 192 : i32 loc(#loc120)
    %tmp8_48 = arith.constant 192 : i32 loc(#loc120)
    %tmp8_49 = arith.constant dense<192> : tensor<1x1xi32> loc(#loc120)
    %tmp8_50 = arith.muli %tmp8_49, %xindex_6 : tensor<1x1xi32> loc(#loc120)
    %tmp8_51 = tt.broadcast %tmp8_50 : tensor<1x1xi32> -> tensor<1x256xi32> loc(#loc121)
    %tmp8_52 = arith.addi %r0_index_8, %tmp8_51 : tensor<1x256xi32> loc(#loc121)
    %tmp8_53 = tt.splat %in_ptr2 : !tt.ptr<f32> -> tensor<1x256x!tt.ptr<f32>> loc(#loc122)
    %tmp8_54 = tt.addptr %tmp8_53, %tmp8_52 : tensor<1x256x!tt.ptr<f32>>, tensor<1x256xi32> loc(#loc122)
    %tmp8_55 = tt.broadcast %xmask_7 : tensor<1x1xi1> -> tensor<1x256xi1> loc(#loc123)
    %tmp8_56 = arith.andi %r0_mask_9, %tmp8_55 : tensor<1x256xi1> loc(#loc123)
    %tmp8_57 = arith.constant 0.000000e+00 : f32 loc(#loc124)
    %tmp8_58 = arith.constant dense<0.000000e+00> : tensor<1x256xf32> loc(#loc124)
    %tmp8_59 = tt.load %tmp8_54, %tmp8_56, %tmp8_58 : tensor<1x256x!tt.ptr<f32>> loc(#loc124)
    %tmp11 = arith.constant 192 : i32 loc(#loc125)
    %tmp11_60 = arith.constant 192 : i32 loc(#loc125)
    %tmp11_61 = arith.constant dense<192> : tensor<1x1xi32> loc(#loc125)
    %tmp11_62 = arith.muli %tmp11_61, %xindex_6 : tensor<1x1xi32> loc(#loc125)
    %tmp11_63 = tt.broadcast %tmp11_62 : tensor<1x1xi32> -> tensor<1x256xi32> loc(#loc126)
    %tmp11_64 = arith.addi %r0_index_8, %tmp11_63 : tensor<1x256xi32> loc(#loc126)
    %tmp11_65 = tt.splat %in_ptr3 : !tt.ptr<bf16> -> tensor<1x256x!tt.ptr<bf16>> loc(#loc127)
    %tmp11_66 = tt.addptr %tmp11_65, %tmp11_64 : tensor<1x256x!tt.ptr<bf16>>, tensor<1x256xi32> loc(#loc127)
    %tmp11_67 = tt.broadcast %xmask_7 : tensor<1x1xi1> -> tensor<1x256xi1> loc(#loc128)
    %tmp11_68 = arith.andi %r0_mask_9, %tmp11_67 : tensor<1x256xi1> loc(#loc128)
    %tmp11_69 = arith.constant 0.000000e+00 : f32 loc(#loc129)
    %tmp11_70 = arith.constant dense<0.000000e+00> : tensor<1x256xf32> loc(#loc129)
    %tmp11_71 = arith.truncf %tmp11_70 : tensor<1x256xf32> to tensor<1x256xbf16> loc(#loc129)
    %tmp11_72 = tt.load %tmp11_66, %tmp11_68, %tmp11_71 : tensor<1x256x!tt.ptr<bf16>> loc(#loc129)
    %tmp11_73 = arith.extf %tmp11_72 : tensor<1x256xbf16> to tensor<1x256xf32> loc(#loc130)
    %tmp15 = arith.constant 192 : i32 loc(#loc131)
    %tmp15_74 = arith.constant 192 : i32 loc(#loc131)
    %tmp15_75 = arith.constant dense<192> : tensor<1x1xi32> loc(#loc131)
    %tmp15_76 = arith.muli %tmp15_75, %xindex_6 : tensor<1x1xi32> loc(#loc131)
    %tmp15_77 = tt.broadcast %tmp15_76 : tensor<1x1xi32> -> tensor<1x256xi32> loc(#loc132)
    %tmp15_78 = arith.addi %r0_index_8, %tmp15_77 : tensor<1x256xi32> loc(#loc132)
    %tmp15_79 = tt.splat %in_ptr4 : !tt.ptr<bf16> -> tensor<1x256x!tt.ptr<bf16>> loc(#loc133)
    %tmp15_80 = tt.addptr %tmp15_79, %tmp15_78 : tensor<1x256x!tt.ptr<bf16>>, tensor<1x256xi32> loc(#loc133)
    %tmp15_81 = tt.broadcast %xmask_7 : tensor<1x1xi1> -> tensor<1x256xi1> loc(#loc134)
    %tmp15_82 = arith.andi %r0_mask_9, %tmp15_81 : tensor<1x256xi1> loc(#loc134)
    %tmp15_83 = arith.constant 0.000000e+00 : f32 loc(#loc135)
    %tmp15_84 = arith.constant dense<0.000000e+00> : tensor<1x256xf32> loc(#loc135)
    %tmp15_85 = arith.truncf %tmp15_84 : tensor<1x256xf32> to tensor<1x256xbf16> loc(#loc135)
    %tmp15_86 = tt.load %tmp15_80, %tmp15_82, %tmp15_85 : tensor<1x256x!tt.ptr<bf16>> loc(#loc135)
    %tmp15_87 = arith.extf %tmp15_86 : tensor<1x256xbf16> to tensor<1x256xf32> loc(#loc136)
    %tmp28 = tt.splat %in_ptr5 : !tt.ptr<f32> -> tensor<1x1x!tt.ptr<f32>> loc(#loc137)
    %tmp28_88 = tt.addptr %tmp28, %xindex_6 : tensor<1x1x!tt.ptr<f32>>, tensor<1x1xi32> loc(#loc137)
    %tmp28_89 = tt.load %tmp28_88, %xmask_7 evictionPolicy = evict_last : tensor<1x1x!tt.ptr<f32>> loc(#loc138)
    %tmp2 = arith.constant 2.836600e+00 : f32 loc(#loc139)
    %tmp3 = arith.constant dense<2.836600e+00> : tensor<1x256xf32> loc(#loc140)
    %tmp3_90 = arith.mulf %tmp1_33, %tmp3 : tensor<1x256xf32> loc(#loc140)
    %tmp6 = arith.addf %tmp3_90, %tmp4_47 : tensor<1x256xf32> loc(#loc141)
    %tmp7 = arith.addf %tmp0_21, %tmp6 : tensor<1x256xf32> loc(#loc142)
    %tmp9 = arith.constant 2.876900e+00 : f32 loc(#loc143)
    %tmp10 = arith.constant dense<2.876900e+00> : tensor<1x256xf32> loc(#loc144)
    %tmp10_91 = arith.mulf %tmp8_59, %tmp10 : tensor<1x256xf32> loc(#loc144)
    %tmp13 = arith.addf %tmp10_91, %tmp11_73 : tensor<1x256xf32> loc(#loc145)
    %tmp14 = arith.constant dense<2.836600e+00> : tensor<1x256xf32> loc(#loc146)
    %tmp14_92 = arith.mulf %tmp13, %tmp14 : tensor<1x256xf32> loc(#loc146)
    %tmp17 = arith.addf %tmp14_92, %tmp15_87 : tensor<1x256xf32> loc(#loc147)
    %tmp18 = arith.addf %tmp7, %tmp17 : tensor<1x256xf32> loc(#loc148)
    %tmp19 = arith.mulf %tmp18, %tmp18 : tensor<1x256xf32> loc(#loc149)
    %tmp22 = tt.broadcast %xmask_7 : tensor<1x1xi1> -> tensor<1x256xi1> loc(#loc150)
    %tmp22_93 = arith.andi %r0_mask_9, %tmp22 : tensor<1x256xi1> loc(#loc150)
    %tmp22_94 = arith.constant 0 : i32 loc(#loc151)
    %tmp22_95 = arith.constant 0.000000e+00 : f32 loc(#loc151)
    %tmp22_96 = arith.constant dense<0.000000e+00> : tensor<1x256xf32> loc(#loc151)
    %tmp22_97 = arith.select %tmp22_93, %tmp19, %tmp22_96 : tensor<1x256xi1>, tensor<1x256xf32> loc(#loc151)
    %tmp23 = tt.call @"triton.language.standard.sum__fp32S1_256S__(1,)cconstexpr_1__(2,)cconstexpr_False__(3,)cNone"(%tmp22_97) : (tensor<1x256xf32>) -> tensor<1xf32> loc(#loc152)
    %tmp23_98 = tt.expand_dims %tmp23 {axis = 1 : i32} : tensor<1xf32> -> tensor<1x1xf32> loc(#loc153)
    %tmp24 = tt.extern_elementwise %tmp23_98 {libname = "", libpath = "", pure = true, symbol = "__nv_sqrtf"} : (tensor<1x1xf32>) -> tensor<1x1xf32> loc(#loc154)
    %tmp25 = arith.constant 9.99999974E-6 : f32 loc(#loc155)
    %tmp26 = arith.constant dense<9.99999974E-6> : tensor<1x1xf32> loc(#loc156)
    %tmp26_99 = arith.addf %tmp24, %tmp26 : tensor<1x1xf32> loc(#loc156)
    %tmp27 = tt.broadcast %tmp26_99 : tensor<1x1xf32> -> tensor<1x256xf32> loc(#loc157)
    %tmp27_100 = arith.divf %tmp18, %tmp27 : tensor<1x256xf32> loc(#loc157)
    %tmp29 = tt.extern_elementwise %tmp28_89 {libname = "", libpath = "", pure = true, symbol = "__nv_sqrtf"} : (tensor<1x1xf32>) -> tensor<1x1xf32> loc(#loc158)
    %tmp30 = tt.broadcast %tmp29 : tensor<1x1xf32> -> tensor<1x256xf32> loc(#loc159)
    %tmp30_101 = arith.mulf %tmp27_100, %tmp30 : tensor<1x256xf32> loc(#loc159)
    %c192_i32 = arith.constant 192 : i32 loc(#loc68)
    %c192_i32_102 = arith.constant 192 : i32 loc(#loc68)
    %cst = arith.constant dense<192> : tensor<1x1xi32> loc(#loc68)
    %0 = arith.muli %cst, %xindex_6 : tensor<1x1xi32> loc(#loc68)
    %1 = tt.broadcast %0 : tensor<1x1xi32> -> tensor<1x256xi32> loc(#loc69)
    %2 = arith.addi %r0_index_8, %1 : tensor<1x256xi32> loc(#loc69)
    %3 = tt.splat %out_ptr1 : !tt.ptr<bf16> -> tensor<1x256x!tt.ptr<bf16>> loc(#loc70)
    %4 = tt.addptr %3, %2 : tensor<1x256x!tt.ptr<bf16>>, tensor<1x256xi32> loc(#loc70)
    %5 = tt.broadcast %xmask_7 : tensor<1x1xi1> -> tensor<1x256xi1> loc(#loc71)
    %6 = arith.andi %r0_mask_9, %5 : tensor<1x256xi1> loc(#loc71)
    %7 = arith.truncf %tmp30_101 : tensor<1x256xf32> to tensor<1x256xbf16> loc(#loc72)
    tt.store %4, %7, %6 : tensor<1x256x!tt.ptr<bf16>> loc(#loc72)
    tt.return loc(#loc73)
  } loc(#loc)
  tt.func private @"triton.language.standard.sum__fp32S1_256S__(1,)cconstexpr_1__(2,)cconstexpr_False__(3,)cNone"(%input: tensor<1x256xf32> loc("input"(#loc74))) -> tensor<1xf32> attributes {noinline = false} {
    %0 = "tt.reduce"(%input) <{axis = 1 : i32}> ({
    ^bb0(%arg1: f32 loc(unknown), %arg2: f32 loc(unknown)):
      %2 = tt.call @triton.language.standard._sum_combine__fp32_fp32__(%arg1, %arg2) : (f32, f32) -> f32 loc(#loc75)
      tt.reduce.return %2 : f32 loc(#loc75)
    }) : (tensor<1x256xf32>) -> tensor<1xf32> loc(#loc75)
    tt.return %0 : tensor<1xf32> loc(#loc77)
  ^bb1:  // no predecessors
    %1 = ub.poison : tensor<1xf32> loc(#loc78)
    tt.return %1 : tensor<1xf32> loc(#loc78)
  } loc(#loc74)
  tt.func private @triton.language.standard._sum_combine__fp32_fp32__(%a: f32 loc("a"(#loc79)), %b: f32 loc("b"(#loc79))) -> f32 attributes {noinline = false} {
    %0 = arith.addf %a, %b : f32 loc(#loc80)
    tt.return %0 : f32 loc(#loc81)
  ^bb1:  // no predecessors
    %1 = ub.poison : f32 loc(#loc82)
    tt.return %1 : f32 loc(#loc82)
  } loc(#loc79)
} loc(#loc)
#loc1 = loc("/NHNHOME/WORKSPACE/26msit001_A/jinhyeok/loop_TTT/lact/.cache_inductor_llm/c7/cc7zodgg2mkwwxmvwbhqw2qrregc7dultqa3w5eb4iddakjcvm5g.py":19:15)
#loc2 = loc("/NHNHOME/WORKSPACE/26msit001_A/jinhyeok/loop_TTT/lact/.cache_inductor_llm/c7/cc7zodgg2mkwwxmvwbhqw2qrregc7dultqa3w5eb4iddakjcvm5g.py":23:28)
#loc3 = loc("/NHNHOME/WORKSPACE/26msit001_A/jinhyeok/loop_TTT/lact/.cache_inductor_llm/c7/cc7zodgg2mkwwxmvwbhqw2qrregc7dultqa3w5eb4iddakjcvm5g.py":23:33)
#loc4 = loc("/NHNHOME/WORKSPACE/26msit001_A/jinhyeok/loop_TTT/lact/.cache_inductor_llm/c7/cc7zodgg2mkwwxmvwbhqw2qrregc7dultqa3w5eb4iddakjcvm5g.py":24:36)
#loc5 = loc("/NHNHOME/WORKSPACE/26msit001_A/jinhyeok/loop_TTT/lact/.cache_inductor_llm/c7/cc7zodgg2mkwwxmvwbhqw2qrregc7dultqa3w5eb4iddakjcvm5g.py":24:44)
#loc6 = loc("/NHNHOME/WORKSPACE/26msit001_A/jinhyeok/loop_TTT/lact/.cache_inductor_llm/c7/cc7zodgg2mkwwxmvwbhqw2qrregc7dultqa3w5eb4iddakjcvm5g.py":24:23)
#loc7 = loc("/NHNHOME/WORKSPACE/26msit001_A/jinhyeok/loop_TTT/lact/.cache_inductor_llm/c7/cc7zodgg2mkwwxmvwbhqw2qrregc7dultqa3w5eb4iddakjcvm5g.py":25:21)
#loc8 = loc("/NHNHOME/WORKSPACE/26msit001_A/jinhyeok/loop_TTT/lact/.cache_inductor_llm/c7/cc7zodgg2mkwwxmvwbhqw2qrregc7dultqa3w5eb4iddakjcvm5g.py":26:28)
#loc9 = loc("/NHNHOME/WORKSPACE/26msit001_A/jinhyeok/loop_TTT/lact/.cache_inductor_llm/c7/cc7zodgg2mkwwxmvwbhqw2qrregc7dultqa3w5eb4iddakjcvm5g.py":26:38)
#loc10 = loc("/NHNHOME/WORKSPACE/26msit001_A/jinhyeok/loop_TTT/lact/.cache_inductor_llm/c7/cc7zodgg2mkwwxmvwbhqw2qrregc7dultqa3w5eb4iddakjcvm5g.py":27:16)
#loc11 = loc("/NHNHOME/WORKSPACE/26msit001_A/jinhyeok/loop_TTT/lact/.cache_inductor_llm/c7/cc7zodgg2mkwwxmvwbhqw2qrregc7dultqa3w5eb4iddakjcvm5g.py":28:25)
#loc12 = loc("/NHNHOME/WORKSPACE/26msit001_A/jinhyeok/loop_TTT/lact/.cache_inductor_llm/c7/cc7zodgg2mkwwxmvwbhqw2qrregc7dultqa3w5eb4iddakjcvm5g.py":33:45)
#loc13 = loc("/NHNHOME/WORKSPACE/26msit001_A/jinhyeok/loop_TTT/lact/.cache_inductor_llm/c7/cc7zodgg2mkwwxmvwbhqw2qrregc7dultqa3w5eb4iddakjcvm5g.py":33:41)
#loc14 = loc("/NHNHOME/WORKSPACE/26msit001_A/jinhyeok/loop_TTT/lact/.cache_inductor_llm/c7/cc7zodgg2mkwwxmvwbhqw2qrregc7dultqa3w5eb4iddakjcvm5g.py":33:34)
#loc15 = loc("/NHNHOME/WORKSPACE/26msit001_A/jinhyeok/loop_TTT/lact/.cache_inductor_llm/c7/cc7zodgg2mkwwxmvwbhqw2qrregc7dultqa3w5eb4iddakjcvm5g.py":33:60)
#loc16 = loc("/NHNHOME/WORKSPACE/26msit001_A/jinhyeok/loop_TTT/lact/.cache_inductor_llm/c7/cc7zodgg2mkwwxmvwbhqw2qrregc7dultqa3w5eb4iddakjcvm5g.py":33:50)
#loc17 = loc("/NHNHOME/WORKSPACE/26msit001_A/jinhyeok/loop_TTT/lact/.cache_inductor_llm/c7/cc7zodgg2mkwwxmvwbhqw2qrregc7dultqa3w5eb4iddakjcvm5g.py":34:41)
#loc18 = loc("/NHNHOME/WORKSPACE/26msit001_A/jinhyeok/loop_TTT/lact/.cache_inductor_llm/c7/cc7zodgg2mkwwxmvwbhqw2qrregc7dultqa3w5eb4iddakjcvm5g.py":34:37)
#loc19 = loc("/NHNHOME/WORKSPACE/26msit001_A/jinhyeok/loop_TTT/lact/.cache_inductor_llm/c7/cc7zodgg2mkwwxmvwbhqw2qrregc7dultqa3w5eb4iddakjcvm5g.py":34:30)
#loc20 = loc("/NHNHOME/WORKSPACE/26msit001_A/jinhyeok/loop_TTT/lact/.cache_inductor_llm/c7/cc7zodgg2mkwwxmvwbhqw2qrregc7dultqa3w5eb4iddakjcvm5g.py":34:56)
#loc21 = loc("/NHNHOME/WORKSPACE/26msit001_A/jinhyeok/loop_TTT/lact/.cache_inductor_llm/c7/cc7zodgg2mkwwxmvwbhqw2qrregc7dultqa3w5eb4iddakjcvm5g.py":34:46)
#loc22 = loc("/NHNHOME/WORKSPACE/26msit001_A/jinhyeok/loop_TTT/lact/.cache_inductor_llm/c7/cc7zodgg2mkwwxmvwbhqw2qrregc7dultqa3w5eb4iddakjcvm5g.py":35:41)
#loc23 = loc("/NHNHOME/WORKSPACE/26msit001_A/jinhyeok/loop_TTT/lact/.cache_inductor_llm/c7/cc7zodgg2mkwwxmvwbhqw2qrregc7dultqa3w5eb4iddakjcvm5g.py":35:37)
#loc24 = loc("/NHNHOME/WORKSPACE/26msit001_A/jinhyeok/loop_TTT/lact/.cache_inductor_llm/c7/cc7zodgg2mkwwxmvwbhqw2qrregc7dultqa3w5eb4iddakjcvm5g.py":35:30)
#loc25 = loc("/NHNHOME/WORKSPACE/26msit001_A/jinhyeok/loop_TTT/lact/.cache_inductor_llm/c7/cc7zodgg2mkwwxmvwbhqw2qrregc7dultqa3w5eb4iddakjcvm5g.py":35:56)
#loc26 = loc("/NHNHOME/WORKSPACE/26msit001_A/jinhyeok/loop_TTT/lact/.cache_inductor_llm/c7/cc7zodgg2mkwwxmvwbhqw2qrregc7dultqa3w5eb4iddakjcvm5g.py":35:46)
#loc27 = loc("/NHNHOME/WORKSPACE/26msit001_A/jinhyeok/loop_TTT/lact/.cache_inductor_llm/c7/cc7zodgg2mkwwxmvwbhqw2qrregc7dultqa3w5eb4iddakjcvm5g.py":35:77)
#loc28 = loc("/NHNHOME/WORKSPACE/26msit001_A/jinhyeok/loop_TTT/lact/.cache_inductor_llm/c7/cc7zodgg2mkwwxmvwbhqw2qrregc7dultqa3w5eb4iddakjcvm5g.py":36:41)
#loc29 = loc("/NHNHOME/WORKSPACE/26msit001_A/jinhyeok/loop_TTT/lact/.cache_inductor_llm/c7/cc7zodgg2mkwwxmvwbhqw2qrregc7dultqa3w5eb4iddakjcvm5g.py":36:37)
#loc30 = loc("/NHNHOME/WORKSPACE/26msit001_A/jinhyeok/loop_TTT/lact/.cache_inductor_llm/c7/cc7zodgg2mkwwxmvwbhqw2qrregc7dultqa3w5eb4iddakjcvm5g.py":36:30)
#loc31 = loc("/NHNHOME/WORKSPACE/26msit001_A/jinhyeok/loop_TTT/lact/.cache_inductor_llm/c7/cc7zodgg2mkwwxmvwbhqw2qrregc7dultqa3w5eb4iddakjcvm5g.py":36:56)
#loc32 = loc("/NHNHOME/WORKSPACE/26msit001_A/jinhyeok/loop_TTT/lact/.cache_inductor_llm/c7/cc7zodgg2mkwwxmvwbhqw2qrregc7dultqa3w5eb4iddakjcvm5g.py":36:46)
#loc33 = loc("/NHNHOME/WORKSPACE/26msit001_A/jinhyeok/loop_TTT/lact/.cache_inductor_llm/c7/cc7zodgg2mkwwxmvwbhqw2qrregc7dultqa3w5eb4iddakjcvm5g.py":37:42)
#loc34 = loc("/NHNHOME/WORKSPACE/26msit001_A/jinhyeok/loop_TTT/lact/.cache_inductor_llm/c7/cc7zodgg2mkwwxmvwbhqw2qrregc7dultqa3w5eb4iddakjcvm5g.py":37:38)
#loc35 = loc("/NHNHOME/WORKSPACE/26msit001_A/jinhyeok/loop_TTT/lact/.cache_inductor_llm/c7/cc7zodgg2mkwwxmvwbhqw2qrregc7dultqa3w5eb4iddakjcvm5g.py":37:31)
#loc36 = loc("/NHNHOME/WORKSPACE/26msit001_A/jinhyeok/loop_TTT/lact/.cache_inductor_llm/c7/cc7zodgg2mkwwxmvwbhqw2qrregc7dultqa3w5eb4iddakjcvm5g.py":37:57)
#loc37 = loc("/NHNHOME/WORKSPACE/26msit001_A/jinhyeok/loop_TTT/lact/.cache_inductor_llm/c7/cc7zodgg2mkwwxmvwbhqw2qrregc7dultqa3w5eb4iddakjcvm5g.py":37:47)
#loc38 = loc("/NHNHOME/WORKSPACE/26msit001_A/jinhyeok/loop_TTT/lact/.cache_inductor_llm/c7/cc7zodgg2mkwwxmvwbhqw2qrregc7dultqa3w5eb4iddakjcvm5g.py":37:78)
#loc39 = loc("/NHNHOME/WORKSPACE/26msit001_A/jinhyeok/loop_TTT/lact/.cache_inductor_llm/c7/cc7zodgg2mkwwxmvwbhqw2qrregc7dultqa3w5eb4iddakjcvm5g.py":38:42)
#loc40 = loc("/NHNHOME/WORKSPACE/26msit001_A/jinhyeok/loop_TTT/lact/.cache_inductor_llm/c7/cc7zodgg2mkwwxmvwbhqw2qrregc7dultqa3w5eb4iddakjcvm5g.py":38:38)
#loc41 = loc("/NHNHOME/WORKSPACE/26msit001_A/jinhyeok/loop_TTT/lact/.cache_inductor_llm/c7/cc7zodgg2mkwwxmvwbhqw2qrregc7dultqa3w5eb4iddakjcvm5g.py":38:31)
#loc42 = loc("/NHNHOME/WORKSPACE/26msit001_A/jinhyeok/loop_TTT/lact/.cache_inductor_llm/c7/cc7zodgg2mkwwxmvwbhqw2qrregc7dultqa3w5eb4iddakjcvm5g.py":38:57)
#loc43 = loc("/NHNHOME/WORKSPACE/26msit001_A/jinhyeok/loop_TTT/lact/.cache_inductor_llm/c7/cc7zodgg2mkwwxmvwbhqw2qrregc7dultqa3w5eb4iddakjcvm5g.py":38:47)
#loc44 = loc("/NHNHOME/WORKSPACE/26msit001_A/jinhyeok/loop_TTT/lact/.cache_inductor_llm/c7/cc7zodgg2mkwwxmvwbhqw2qrregc7dultqa3w5eb4iddakjcvm5g.py":38:78)
#loc45 = loc("/NHNHOME/WORKSPACE/26msit001_A/jinhyeok/loop_TTT/lact/.cache_inductor_llm/c7/cc7zodgg2mkwwxmvwbhqw2qrregc7dultqa3w5eb4iddakjcvm5g.py":39:31)
#loc46 = loc("/NHNHOME/WORKSPACE/26msit001_A/jinhyeok/loop_TTT/lact/.cache_inductor_llm/c7/cc7zodgg2mkwwxmvwbhqw2qrregc7dultqa3w5eb4iddakjcvm5g.py":39:36)
#loc47 = loc("/NHNHOME/WORKSPACE/26msit001_A/jinhyeok/loop_TTT/lact/.cache_inductor_llm/c7/cc7zodgg2mkwwxmvwbhqw2qrregc7dultqa3w5eb4iddakjcvm5g.py":40:11)
#loc48 = loc("/NHNHOME/WORKSPACE/26msit001_A/jinhyeok/loop_TTT/lact/.cache_inductor_llm/c7/cc7zodgg2mkwwxmvwbhqw2qrregc7dultqa3w5eb4iddakjcvm5g.py":41:18)
#loc49 = loc("/NHNHOME/WORKSPACE/26msit001_A/jinhyeok/loop_TTT/lact/.cache_inductor_llm/c7/cc7zodgg2mkwwxmvwbhqw2qrregc7dultqa3w5eb4iddakjcvm5g.py":43:18)
#loc50 = loc("/NHNHOME/WORKSPACE/26msit001_A/jinhyeok/loop_TTT/lact/.cache_inductor_llm/c7/cc7zodgg2mkwwxmvwbhqw2qrregc7dultqa3w5eb4iddakjcvm5g.py":44:18)
#loc51 = loc("/NHNHOME/WORKSPACE/26msit001_A/jinhyeok/loop_TTT/lact/.cache_inductor_llm/c7/cc7zodgg2mkwwxmvwbhqw2qrregc7dultqa3w5eb4iddakjcvm5g.py":45:11)
#loc52 = loc("/NHNHOME/WORKSPACE/26msit001_A/jinhyeok/loop_TTT/lact/.cache_inductor_llm/c7/cc7zodgg2mkwwxmvwbhqw2qrregc7dultqa3w5eb4iddakjcvm5g.py":46:19)
#loc53 = loc("/NHNHOME/WORKSPACE/26msit001_A/jinhyeok/loop_TTT/lact/.cache_inductor_llm/c7/cc7zodgg2mkwwxmvwbhqw2qrregc7dultqa3w5eb4iddakjcvm5g.py":48:20)
#loc54 = loc("/NHNHOME/WORKSPACE/26msit001_A/jinhyeok/loop_TTT/lact/.cache_inductor_llm/c7/cc7zodgg2mkwwxmvwbhqw2qrregc7dultqa3w5eb4iddakjcvm5g.py":49:20)
#loc55 = loc("/NHNHOME/WORKSPACE/26msit001_A/jinhyeok/loop_TTT/lact/.cache_inductor_llm/c7/cc7zodgg2mkwwxmvwbhqw2qrregc7dultqa3w5eb4iddakjcvm5g.py":51:20)
#loc56 = loc("/NHNHOME/WORKSPACE/26msit001_A/jinhyeok/loop_TTT/lact/.cache_inductor_llm/c7/cc7zodgg2mkwwxmvwbhqw2qrregc7dultqa3w5eb4iddakjcvm5g.py":52:19)
#loc57 = loc("/NHNHOME/WORKSPACE/26msit001_A/jinhyeok/loop_TTT/lact/.cache_inductor_llm/c7/cc7zodgg2mkwwxmvwbhqw2qrregc7dultqa3w5eb4iddakjcvm5g.py":53:20)
#loc58 = loc("/NHNHOME/WORKSPACE/26msit001_A/jinhyeok/loop_TTT/lact/.cache_inductor_llm/c7/cc7zodgg2mkwwxmvwbhqw2qrregc7dultqa3w5eb4iddakjcvm5g.py":55:31)
#loc59 = loc("/NHNHOME/WORKSPACE/26msit001_A/jinhyeok/loop_TTT/lact/.cache_inductor_llm/c7/cc7zodgg2mkwwxmvwbhqw2qrregc7dultqa3w5eb4iddakjcvm5g.py":55:45)
#loc60 = loc("/NHNHOME/WORKSPACE/26msit001_A/jinhyeok/loop_TTT/lact/.cache_inductor_llm/c7/cc7zodgg2mkwwxmvwbhqw2qrregc7dultqa3w5eb4iddakjcvm5g.py":56:26)
#loc61 = loc("/NHNHOME/WORKSPACE/26msit001_A/jinhyeok/loop_TTT/lact/.cache_inductor_llm/c7/cc7zodgg2mkwwxmvwbhqw2qrregc7dultqa3w5eb4iddakjcvm5g.py":56:29)
#loc62 = loc("/NHNHOME/WORKSPACE/26msit001_A/jinhyeok/loop_TTT/lact/.cache_inductor_llm/c7/cc7zodgg2mkwwxmvwbhqw2qrregc7dultqa3w5eb4iddakjcvm5g.py":57:27)
#loc63 = loc("/NHNHOME/WORKSPACE/26msit001_A/jinhyeok/loop_TTT/lact/.cache_inductor_llm/c7/cc7zodgg2mkwwxmvwbhqw2qrregc7dultqa3w5eb4iddakjcvm5g.py":58:12)
#loc64 = loc("/NHNHOME/WORKSPACE/26msit001_A/jinhyeok/loop_TTT/lact/.cache_inductor_llm/c7/cc7zodgg2mkwwxmvwbhqw2qrregc7dultqa3w5eb4iddakjcvm5g.py":59:20)
#loc65 = loc("/NHNHOME/WORKSPACE/26msit001_A/jinhyeok/loop_TTT/lact/.cache_inductor_llm/c7/cc7zodgg2mkwwxmvwbhqw2qrregc7dultqa3w5eb4iddakjcvm5g.py":60:21)
#loc66 = loc("/NHNHOME/WORKSPACE/26msit001_A/jinhyeok/loop_TTT/lact/.cache_inductor_llm/c7/cc7zodgg2mkwwxmvwbhqw2qrregc7dultqa3w5eb4iddakjcvm5g.py":61:27)
#loc67 = loc("/NHNHOME/WORKSPACE/26msit001_A/jinhyeok/loop_TTT/lact/.cache_inductor_llm/c7/cc7zodgg2mkwwxmvwbhqw2qrregc7dultqa3w5eb4iddakjcvm5g.py":62:20)
#loc68 = loc("/NHNHOME/WORKSPACE/26msit001_A/jinhyeok/loop_TTT/lact/.cache_inductor_llm/c7/cc7zodgg2mkwwxmvwbhqw2qrregc7dultqa3w5eb4iddakjcvm5g.py":64:36)
#loc69 = loc("/NHNHOME/WORKSPACE/26msit001_A/jinhyeok/loop_TTT/lact/.cache_inductor_llm/c7/cc7zodgg2mkwwxmvwbhqw2qrregc7dultqa3w5eb4iddakjcvm5g.py":64:32)
#loc70 = loc("/NHNHOME/WORKSPACE/26msit001_A/jinhyeok/loop_TTT/lact/.cache_inductor_llm/c7/cc7zodgg2mkwwxmvwbhqw2qrregc7dultqa3w5eb4iddakjcvm5g.py":64:25)
#loc71 = loc("/NHNHOME/WORKSPACE/26msit001_A/jinhyeok/loop_TTT/lact/.cache_inductor_llm/c7/cc7zodgg2mkwwxmvwbhqw2qrregc7dultqa3w5eb4iddakjcvm5g.py":64:58)
#loc72 = loc("/NHNHOME/WORKSPACE/26msit001_A/jinhyeok/loop_TTT/lact/.cache_inductor_llm/c7/cc7zodgg2mkwwxmvwbhqw2qrregc7dultqa3w5eb4iddakjcvm5g.py":64:48)
#loc73 = loc("/NHNHOME/WORKSPACE/26msit001_A/jinhyeok/loop_TTT/lact/.cache_inductor_llm/c7/cc7zodgg2mkwwxmvwbhqw2qrregc7dultqa3w5eb4iddakjcvm5g.py":64:4)
#loc75 = loc("/NHNHOME/WORKSPACE/26msit001_A/jinhyeok/TTT_camera_embedding/.venv_llm/lib/python3.12/site-packages/triton/language/standard.py":291:36)
#loc77 = loc("/NHNHOME/WORKSPACE/26msit001_A/jinhyeok/TTT_camera_embedding/.venv_llm/lib/python3.12/site-packages/triton/language/standard.py":291:11)
#loc78 = loc("/NHNHOME/WORKSPACE/26msit001_A/jinhyeok/TTT_camera_embedding/.venv_llm/lib/python3.12/site-packages/triton/language/standard.py":291:4)
#loc80 = loc("/NHNHOME/WORKSPACE/26msit001_A/jinhyeok/TTT_camera_embedding/.venv_llm/lib/python3.12/site-packages/triton/language/standard.py":261:15)
#loc81 = loc("/NHNHOME/WORKSPACE/26msit001_A/jinhyeok/TTT_camera_embedding/.venv_llm/lib/python3.12/site-packages/triton/language/standard.py":261:11)
#loc82 = loc("/NHNHOME/WORKSPACE/26msit001_A/jinhyeok/TTT_camera_embedding/.venv_llm/lib/python3.12/site-packages/triton/language/standard.py":261:4)
#loc93 = loc("r0_numel"(#loc1))
#loc94 = loc("xoffset"(#loc2))
#loc95 = loc("xoffset"(#loc3))
#loc96 = loc("xindex"(#loc4))
#loc97 = loc("xindex"(#loc5))
#loc98 = loc("xindex"(#loc6))
#loc99 = loc("xmask"(#loc7))
#loc100 = loc("r0_index"(#loc8))
#loc101 = loc("r0_index"(#loc9))
#loc102 = loc("r0_offset"(#loc10))
#loc103 = loc("r0_mask"(#loc11))
#loc104 = loc("tmp0"(#loc12))
#loc105 = loc("tmp0"(#loc13))
#loc106 = loc("tmp0"(#loc14))
#loc107 = loc("tmp0"(#loc15))
#loc108 = loc("tmp0"(#loc16))
#loc109 = loc("tmp1"(#loc17))
#loc110 = loc("tmp1"(#loc18))
#loc111 = loc("tmp1"(#loc19))
#loc112 = loc("tmp1"(#loc20))
#loc113 = loc("tmp1"(#loc21))
#loc114 = loc("tmp4"(#loc22))
#loc115 = loc("tmp4"(#loc23))
#loc116 = loc("tmp4"(#loc24))
#loc117 = loc("tmp4"(#loc25))
#loc118 = loc("tmp4"(#loc26))
#loc119 = loc("tmp4"(#loc27))
#loc120 = loc("tmp8"(#loc28))
#loc121 = loc("tmp8"(#loc29))
#loc122 = loc("tmp8"(#loc30))
#loc123 = loc("tmp8"(#loc31))
#loc124 = loc("tmp8"(#loc32))
#loc125 = loc("tmp11"(#loc33))
#loc126 = loc("tmp11"(#loc34))
#loc127 = loc("tmp11"(#loc35))
#loc128 = loc("tmp11"(#loc36))
#loc129 = loc("tmp11"(#loc37))
#loc130 = loc("tmp11"(#loc38))
#loc131 = loc("tmp15"(#loc39))
#loc132 = loc("tmp15"(#loc40))
#loc133 = loc("tmp15"(#loc41))
#loc134 = loc("tmp15"(#loc42))
#loc135 = loc("tmp15"(#loc43))
#loc136 = loc("tmp15"(#loc44))
#loc137 = loc("tmp28"(#loc45))
#loc138 = loc("tmp28"(#loc46))
#loc139 = loc("tmp2"(#loc47))
#loc140 = loc("tmp3"(#loc48))
#loc141 = loc("tmp6"(#loc49))
#loc142 = loc("tmp7"(#loc50))
#loc143 = loc("tmp9"(#loc51))
#loc144 = loc("tmp10"(#loc52))
#loc145 = loc("tmp13"(#loc53))
#loc146 = loc("tmp14"(#loc54))
#loc147 = loc("tmp17"(#loc55))
#loc148 = loc("tmp18"(#loc56))
#loc149 = loc("tmp19"(#loc57))
#loc150 = loc("tmp22"(#loc58))
#loc151 = loc("tmp22"(#loc59))
#loc152 = loc("tmp23"(#loc60))
#loc153 = loc("tmp23"(#loc61))
#loc154 = loc("tmp24"(#loc62))
#loc155 = loc("tmp25"(#loc63))
#loc156 = loc("tmp26"(#loc64))
#loc157 = loc("tmp27"(#loc65))
#loc158 = loc("tmp29"(#loc66))
#loc159 = loc("tmp30"(#loc67))
