#loc = loc("/NHNHOME/WORKSPACE/26msit001_A/jinhyeok/loop_TTT/lact/.cache_inductor_llm/tn/ctngevh5glenopofflakdizkbp3tkvai2uibg7nbqxyvkiunwnot.py":18:0)
#loc19 = loc("in_out_ptr0"(#loc))
#loc20 = loc("in_ptr0"(#loc))
#loc21 = loc("xnumel"(#loc))
module {
  tt.func public @triton_poi_fused_add_mul_8(%in_out_ptr0: !tt.ptr<bf16> {tt.divisibility = 16 : i32} loc("in_out_ptr0"(#loc)), %in_ptr0: !tt.ptr<bf16> {tt.divisibility = 16 : i32} loc("in_ptr0"(#loc)), %xnumel: i32 {tt.divisibility = 16 : i32} loc("xnumel"(#loc))) attributes {noinline = false} {
    %xnumel_0 = arith.constant 3538944 : i32 loc(#loc22)
    %xoffset = tt.get_program_id x : i32 loc(#loc23)
    %xoffset_1 = arith.constant 512 : i32 loc(#loc24)
    %xoffset_2 = arith.constant 512 : i32 loc(#loc24)
    %xoffset_3 = arith.muli %xoffset, %xoffset_2 : i32 loc(#loc24)
    %xindex = tt.make_range {end = 512 : i32, start = 0 : i32} : tensor<512xi32> loc(#loc25)
    %xindex_4 = tt.splat %xoffset_3 : i32 -> tensor<512xi32> loc(#loc26)
    %xindex_5 = arith.addi %xindex_4, %xindex : tensor<512xi32> loc(#loc26)
    %xmask = arith.constant true loc(#loc27)
    %xmask_6 = arith.constant dense<true> : tensor<512xi1> loc(#loc27)
    %tmp0 = tt.splat %in_ptr0 : !tt.ptr<bf16> -> tensor<512x!tt.ptr<bf16>> loc(#loc28)
    %tmp0_7 = tt.addptr %tmp0, %xindex_5 : tensor<512x!tt.ptr<bf16>>, tensor<512xi32> loc(#loc28)
    %tmp0_8 = tt.load %tmp0_7 : tensor<512x!tt.ptr<bf16>> loc(#loc29)
    %tmp0_9 = arith.extf %tmp0_8 : tensor<512xbf16> to tensor<512xf32> loc(#loc30)
    %tmp3 = tt.splat %in_out_ptr0 : !tt.ptr<bf16> -> tensor<512x!tt.ptr<bf16>> loc(#loc31)
    %tmp3_10 = tt.addptr %tmp3, %xindex_5 : tensor<512x!tt.ptr<bf16>>, tensor<512xi32> loc(#loc31)
    %tmp3_11 = tt.load %tmp3_10 : tensor<512x!tt.ptr<bf16>> loc(#loc32)
    %tmp3_12 = arith.extf %tmp3_11 : tensor<512xbf16> to tensor<512xf32> loc(#loc33)
    %tmp1 = arith.constant -6.89459991 : f32 loc(#loc34)
    %tmp2 = arith.constant dense<-6.89459991> : tensor<512xf32> loc(#loc35)
    %tmp2_13 = arith.mulf %tmp0_9, %tmp2 : tensor<512xf32> loc(#loc35)
    %tmp4 = arith.addf %tmp2_13, %tmp3_12 : tensor<512xf32> loc(#loc36)
    %0 = tt.splat %in_out_ptr0 : !tt.ptr<bf16> -> tensor<512x!tt.ptr<bf16>> loc(#loc16)
    %1 = tt.addptr %0, %xindex_5 : tensor<512x!tt.ptr<bf16>>, tensor<512xi32> loc(#loc16)
    %2 = arith.truncf %tmp4 : tensor<512xf32> to tensor<512xbf16> loc(#loc17)
    tt.store %1, %2 : tensor<512x!tt.ptr<bf16>> loc(#loc17)
    tt.return loc(#loc18)
  } loc(#loc)
} loc(#loc)
#loc1 = loc("/NHNHOME/WORKSPACE/26msit001_A/jinhyeok/loop_TTT/lact/.cache_inductor_llm/tn/ctngevh5glenopofflakdizkbp3tkvai2uibg7nbqxyvkiunwnot.py":19:13)
#loc2 = loc("/NHNHOME/WORKSPACE/26msit001_A/jinhyeok/loop_TTT/lact/.cache_inductor_llm/tn/ctngevh5glenopofflakdizkbp3tkvai2uibg7nbqxyvkiunwnot.py":20:28)
#loc3 = loc("/NHNHOME/WORKSPACE/26msit001_A/jinhyeok/loop_TTT/lact/.cache_inductor_llm/tn/ctngevh5glenopofflakdizkbp3tkvai2uibg7nbqxyvkiunwnot.py":20:33)
#loc4 = loc("/NHNHOME/WORKSPACE/26msit001_A/jinhyeok/loop_TTT/lact/.cache_inductor_llm/tn/ctngevh5glenopofflakdizkbp3tkvai2uibg7nbqxyvkiunwnot.py":21:36)
#loc5 = loc("/NHNHOME/WORKSPACE/26msit001_A/jinhyeok/loop_TTT/lact/.cache_inductor_llm/tn/ctngevh5glenopofflakdizkbp3tkvai2uibg7nbqxyvkiunwnot.py":21:23)
#loc6 = loc("/NHNHOME/WORKSPACE/26msit001_A/jinhyeok/loop_TTT/lact/.cache_inductor_llm/tn/ctngevh5glenopofflakdizkbp3tkvai2uibg7nbqxyvkiunwnot.py":22:36)
#loc7 = loc("/NHNHOME/WORKSPACE/26msit001_A/jinhyeok/loop_TTT/lact/.cache_inductor_llm/tn/ctngevh5glenopofflakdizkbp3tkvai2uibg7nbqxyvkiunwnot.py":24:30)
#loc8 = loc("/NHNHOME/WORKSPACE/26msit001_A/jinhyeok/loop_TTT/lact/.cache_inductor_llm/tn/ctngevh5glenopofflakdizkbp3tkvai2uibg7nbqxyvkiunwnot.py":24:35)
#loc9 = loc("/NHNHOME/WORKSPACE/26msit001_A/jinhyeok/loop_TTT/lact/.cache_inductor_llm/tn/ctngevh5glenopofflakdizkbp3tkvai2uibg7nbqxyvkiunwnot.py":24:44)
#loc10 = loc("/NHNHOME/WORKSPACE/26msit001_A/jinhyeok/loop_TTT/lact/.cache_inductor_llm/tn/ctngevh5glenopofflakdizkbp3tkvai2uibg7nbqxyvkiunwnot.py":25:34)
#loc11 = loc("/NHNHOME/WORKSPACE/26msit001_A/jinhyeok/loop_TTT/lact/.cache_inductor_llm/tn/ctngevh5glenopofflakdizkbp3tkvai2uibg7nbqxyvkiunwnot.py":25:39)
#loc12 = loc("/NHNHOME/WORKSPACE/26msit001_A/jinhyeok/loop_TTT/lact/.cache_inductor_llm/tn/ctngevh5glenopofflakdizkbp3tkvai2uibg7nbqxyvkiunwnot.py":25:48)
#loc13 = loc("/NHNHOME/WORKSPACE/26msit001_A/jinhyeok/loop_TTT/lact/.cache_inductor_llm/tn/ctngevh5glenopofflakdizkbp3tkvai2uibg7nbqxyvkiunwnot.py":26:11)
#loc14 = loc("/NHNHOME/WORKSPACE/26msit001_A/jinhyeok/loop_TTT/lact/.cache_inductor_llm/tn/ctngevh5glenopofflakdizkbp3tkvai2uibg7nbqxyvkiunwnot.py":27:18)
#loc15 = loc("/NHNHOME/WORKSPACE/26msit001_A/jinhyeok/loop_TTT/lact/.cache_inductor_llm/tn/ctngevh5glenopofflakdizkbp3tkvai2uibg7nbqxyvkiunwnot.py":28:18)
#loc16 = loc("/NHNHOME/WORKSPACE/26msit001_A/jinhyeok/loop_TTT/lact/.cache_inductor_llm/tn/ctngevh5glenopofflakdizkbp3tkvai2uibg7nbqxyvkiunwnot.py":29:28)
#loc17 = loc("/NHNHOME/WORKSPACE/26msit001_A/jinhyeok/loop_TTT/lact/.cache_inductor_llm/tn/ctngevh5glenopofflakdizkbp3tkvai2uibg7nbqxyvkiunwnot.py":29:39)
#loc18 = loc("/NHNHOME/WORKSPACE/26msit001_A/jinhyeok/loop_TTT/lact/.cache_inductor_llm/tn/ctngevh5glenopofflakdizkbp3tkvai2uibg7nbqxyvkiunwnot.py":29:4)
#loc22 = loc("xnumel"(#loc1))
#loc23 = loc("xoffset"(#loc2))
#loc24 = loc("xoffset"(#loc3))
#loc25 = loc("xindex"(#loc4))
#loc26 = loc("xindex"(#loc5))
#loc27 = loc("xmask"(#loc6))
#loc28 = loc("tmp0"(#loc7))
#loc29 = loc("tmp0"(#loc8))
#loc30 = loc("tmp0"(#loc9))
#loc31 = loc("tmp3"(#loc10))
#loc32 = loc("tmp3"(#loc11))
#loc33 = loc("tmp3"(#loc12))
#loc34 = loc("tmp1"(#loc13))
#loc35 = loc("tmp2"(#loc14))
#loc36 = loc("tmp4"(#loc15))
