#loc = loc("/NHNHOME/WORKSPACE/26msit001_A/jinhyeok/loop_TTT/lact/.cache_inductor_llm/3g/c3gbwzdhlxg4ytfl6zvpunhatkfcj4lpodpan5dunajrfr6khvej.py":18:0)
#loc28 = loc("in_ptr0"(#loc))
#loc29 = loc("in_ptr1"(#loc))
#loc30 = loc("in_ptr2"(#loc))
#loc31 = loc("in_ptr3"(#loc))
#loc32 = loc("out_ptr0"(#loc))
#loc33 = loc("out_ptr1"(#loc))
#loc34 = loc("xnumel"(#loc))
module {
  tt.func public @triton_poi_fused__to_copy_add_div_mul_transpose_42(%in_ptr0: !tt.ptr<f32> {tt.divisibility = 16 : i32} loc("in_ptr0"(#loc)), %in_ptr1: !tt.ptr<f32> {tt.divisibility = 16 : i32} loc("in_ptr1"(#loc)), %in_ptr2: !tt.ptr<bf16> {tt.divisibility = 16 : i32} loc("in_ptr2"(#loc)), %in_ptr3: !tt.ptr<bf16> {tt.divisibility = 16 : i32} loc("in_ptr3"(#loc)), %out_ptr0: !tt.ptr<bf16> {tt.divisibility = 16 : i32} loc("out_ptr0"(#loc)), %out_ptr1: !tt.ptr<bf16> {tt.divisibility = 16 : i32} loc("out_ptr1"(#loc)), %xnumel: i32 {tt.divisibility = 16 : i32} loc("xnumel"(#loc))) attributes {noinline = false} {
    %tmp13 = arith.constant dense<3.950500e+00> : tensor<1024xf32> loc(#loc35)
    %tmp8 = arith.constant dense<4.084800e+00> : tensor<1024xf32> loc(#loc36)
    %tmp5 = arith.constant dense<1.000000e-07> : tensor<1024xf32> loc(#loc37)
    %x1 = arith.constant dense<36864> : tensor<1024xi32> loc(#loc38)
    %c1024_i32 = arith.constant 1024 : i32 loc(#loc5)
    %xoffset = tt.get_program_id x : i32 loc(#loc39)
    %xoffset_0 = arith.muli %xoffset, %c1024_i32 : i32 loc(#loc40)
    %xindex = tt.make_range {end = 1024 : i32, start = 0 : i32} : tensor<1024xi32> loc(#loc41)
    %xindex_1 = tt.splat %xoffset_0 : i32 -> tensor<1024xi32> loc(#loc42)
    %xindex_2 = arith.addi %xindex_1, %xindex : tensor<1024xi32> loc(#loc42)
    %x1_3 = arith.divsi %xindex_2, %x1 : tensor<1024xi32> loc(#loc38)
    %tmp0 = tt.splat %in_ptr0 : !tt.ptr<f32> -> tensor<1024x!tt.ptr<f32>> loc(#loc43)
    %tmp0_4 = tt.addptr %tmp0, %xindex_2 : tensor<1024x!tt.ptr<f32>>, tensor<1024xi32> loc(#loc43)
    %tmp0_5 = tt.load %tmp0_4 : tensor<1024x!tt.ptr<f32>> loc(#loc44)
    %tmp3 = tt.splat %in_ptr1 : !tt.ptr<f32> -> tensor<1024x!tt.ptr<f32>> loc(#loc45)
    %tmp3_6 = tt.addptr %tmp3, %x1_3 : tensor<1024x!tt.ptr<f32>>, tensor<1024xi32> loc(#loc45)
    %tmp3_7 = tt.load %tmp3_6 evictionPolicy = evict_last : tensor<1024x!tt.ptr<f32>> loc(#loc46)
    %tmp9 = tt.splat %in_ptr2 : !tt.ptr<bf16> -> tensor<1024x!tt.ptr<bf16>> loc(#loc47)
    %tmp9_8 = tt.addptr %tmp9, %xindex_2 : tensor<1024x!tt.ptr<bf16>>, tensor<1024xi32> loc(#loc47)
    %tmp9_9 = tt.load %tmp9_8 : tensor<1024x!tt.ptr<bf16>> loc(#loc48)
    %tmp9_10 = arith.extf %tmp9_9 : tensor<1024xbf16> to tensor<1024xf32> loc(#loc49)
    %tmp14 = tt.splat %in_ptr3 : !tt.ptr<bf16> -> tensor<1024x!tt.ptr<bf16>> loc(#loc50)
    %tmp14_11 = tt.addptr %tmp14, %xindex_2 : tensor<1024x!tt.ptr<bf16>>, tensor<1024xi32> loc(#loc50)
    %tmp14_12 = tt.load %tmp14_11 : tensor<1024x!tt.ptr<bf16>> loc(#loc51)
    %tmp14_13 = arith.extf %tmp14_12 : tensor<1024xbf16> to tensor<1024xf32> loc(#loc52)
    %tmp5_14 = arith.addf %tmp3_7, %tmp5 : tensor<1024xf32> loc(#loc37)
    %tmp6 = arith.divf %tmp0_5, %tmp5_14 : tensor<1024xf32> loc(#loc53)
    %tmp8_15 = arith.mulf %tmp6, %tmp8 : tensor<1024xf32> loc(#loc36)
    %tmp11 = arith.addf %tmp8_15, %tmp9_10 : tensor<1024xf32> loc(#loc54)
    %tmp13_16 = arith.mulf %tmp11, %tmp13 : tensor<1024xf32> loc(#loc35)
    %tmp16 = arith.addf %tmp13_16, %tmp14_13 : tensor<1024xf32> loc(#loc55)
    %0 = tt.splat %out_ptr0 : !tt.ptr<bf16> -> tensor<1024x!tt.ptr<bf16>> loc(#loc23)
    %1 = tt.addptr %0, %xindex_2 : tensor<1024x!tt.ptr<bf16>>, tensor<1024xi32> loc(#loc23)
    %2 = arith.truncf %tmp16 : tensor<1024xf32> to tensor<1024xbf16> loc(#loc24)
    tt.store %1, %2 : tensor<1024x!tt.ptr<bf16>> loc(#loc24)
    %3 = tt.splat %out_ptr1 : !tt.ptr<bf16> -> tensor<1024x!tt.ptr<bf16>> loc(#loc25)
    %4 = tt.addptr %3, %xindex_2 : tensor<1024x!tt.ptr<bf16>>, tensor<1024xi32> loc(#loc25)
    tt.store %4, %2 : tensor<1024x!tt.ptr<bf16>> loc(#loc26)
    tt.return loc(#loc27)
  } loc(#loc)
} loc(#loc)
#loc1 = loc("/NHNHOME/WORKSPACE/26msit001_A/jinhyeok/loop_TTT/lact/.cache_inductor_llm/3g/c3gbwzdhlxg4ytfl6zvpunhatkfcj4lpodpan5dunajrfr6khvej.py":39:20)
#loc2 = loc("/NHNHOME/WORKSPACE/26msit001_A/jinhyeok/loop_TTT/lact/.cache_inductor_llm/3g/c3gbwzdhlxg4ytfl6zvpunhatkfcj4lpodpan5dunajrfr6khvej.py":35:18)
#loc3 = loc("/NHNHOME/WORKSPACE/26msit001_A/jinhyeok/loop_TTT/lact/.cache_inductor_llm/3g/c3gbwzdhlxg4ytfl6zvpunhatkfcj4lpodpan5dunajrfr6khvej.py":32:18)
#loc4 = loc("/NHNHOME/WORKSPACE/26msit001_A/jinhyeok/loop_TTT/lact/.cache_inductor_llm/3g/c3gbwzdhlxg4ytfl6zvpunhatkfcj4lpodpan5dunajrfr6khvej.py":24:19)
#loc5 = loc(unknown)
#loc6 = loc("/NHNHOME/WORKSPACE/26msit001_A/jinhyeok/loop_TTT/lact/.cache_inductor_llm/3g/c3gbwzdhlxg4ytfl6zvpunhatkfcj4lpodpan5dunajrfr6khvej.py":20:28)
#loc7 = loc("/NHNHOME/WORKSPACE/26msit001_A/jinhyeok/loop_TTT/lact/.cache_inductor_llm/3g/c3gbwzdhlxg4ytfl6zvpunhatkfcj4lpodpan5dunajrfr6khvej.py":20:33)
#loc8 = loc("/NHNHOME/WORKSPACE/26msit001_A/jinhyeok/loop_TTT/lact/.cache_inductor_llm/3g/c3gbwzdhlxg4ytfl6zvpunhatkfcj4lpodpan5dunajrfr6khvej.py":21:36)
#loc9 = loc("/NHNHOME/WORKSPACE/26msit001_A/jinhyeok/loop_TTT/lact/.cache_inductor_llm/3g/c3gbwzdhlxg4ytfl6zvpunhatkfcj4lpodpan5dunajrfr6khvej.py":21:23)
#loc10 = loc("/NHNHOME/WORKSPACE/26msit001_A/jinhyeok/loop_TTT/lact/.cache_inductor_llm/3g/c3gbwzdhlxg4ytfl6zvpunhatkfcj4lpodpan5dunajrfr6khvej.py":25:30)
#loc11 = loc("/NHNHOME/WORKSPACE/26msit001_A/jinhyeok/loop_TTT/lact/.cache_inductor_llm/3g/c3gbwzdhlxg4ytfl6zvpunhatkfcj4lpodpan5dunajrfr6khvej.py":25:35)
#loc12 = loc("/NHNHOME/WORKSPACE/26msit001_A/jinhyeok/loop_TTT/lact/.cache_inductor_llm/3g/c3gbwzdhlxg4ytfl6zvpunhatkfcj4lpodpan5dunajrfr6khvej.py":26:30)
#loc13 = loc("/NHNHOME/WORKSPACE/26msit001_A/jinhyeok/loop_TTT/lact/.cache_inductor_llm/3g/c3gbwzdhlxg4ytfl6zvpunhatkfcj4lpodpan5dunajrfr6khvej.py":26:35)
#loc14 = loc("/NHNHOME/WORKSPACE/26msit001_A/jinhyeok/loop_TTT/lact/.cache_inductor_llm/3g/c3gbwzdhlxg4ytfl6zvpunhatkfcj4lpodpan5dunajrfr6khvej.py":27:30)
#loc15 = loc("/NHNHOME/WORKSPACE/26msit001_A/jinhyeok/loop_TTT/lact/.cache_inductor_llm/3g/c3gbwzdhlxg4ytfl6zvpunhatkfcj4lpodpan5dunajrfr6khvej.py":27:35)
#loc16 = loc("/NHNHOME/WORKSPACE/26msit001_A/jinhyeok/loop_TTT/lact/.cache_inductor_llm/3g/c3gbwzdhlxg4ytfl6zvpunhatkfcj4lpodpan5dunajrfr6khvej.py":27:44)
#loc17 = loc("/NHNHOME/WORKSPACE/26msit001_A/jinhyeok/loop_TTT/lact/.cache_inductor_llm/3g/c3gbwzdhlxg4ytfl6zvpunhatkfcj4lpodpan5dunajrfr6khvej.py":28:31)
#loc18 = loc("/NHNHOME/WORKSPACE/26msit001_A/jinhyeok/loop_TTT/lact/.cache_inductor_llm/3g/c3gbwzdhlxg4ytfl6zvpunhatkfcj4lpodpan5dunajrfr6khvej.py":28:36)
#loc19 = loc("/NHNHOME/WORKSPACE/26msit001_A/jinhyeok/loop_TTT/lact/.cache_inductor_llm/3g/c3gbwzdhlxg4ytfl6zvpunhatkfcj4lpodpan5dunajrfr6khvej.py":28:45)
#loc20 = loc("/NHNHOME/WORKSPACE/26msit001_A/jinhyeok/loop_TTT/lact/.cache_inductor_llm/3g/c3gbwzdhlxg4ytfl6zvpunhatkfcj4lpodpan5dunajrfr6khvej.py":33:19)
#loc21 = loc("/NHNHOME/WORKSPACE/26msit001_A/jinhyeok/loop_TTT/lact/.cache_inductor_llm/3g/c3gbwzdhlxg4ytfl6zvpunhatkfcj4lpodpan5dunajrfr6khvej.py":37:19)
#loc22 = loc("/NHNHOME/WORKSPACE/26msit001_A/jinhyeok/loop_TTT/lact/.cache_inductor_llm/3g/c3gbwzdhlxg4ytfl6zvpunhatkfcj4lpodpan5dunajrfr6khvej.py":41:20)
#loc23 = loc("/NHNHOME/WORKSPACE/26msit001_A/jinhyeok/loop_TTT/lact/.cache_inductor_llm/3g/c3gbwzdhlxg4ytfl6zvpunhatkfcj4lpodpan5dunajrfr6khvej.py":43:25)
#loc24 = loc("/NHNHOME/WORKSPACE/26msit001_A/jinhyeok/loop_TTT/lact/.cache_inductor_llm/3g/c3gbwzdhlxg4ytfl6zvpunhatkfcj4lpodpan5dunajrfr6khvej.py":43:37)
#loc25 = loc("/NHNHOME/WORKSPACE/26msit001_A/jinhyeok/loop_TTT/lact/.cache_inductor_llm/3g/c3gbwzdhlxg4ytfl6zvpunhatkfcj4lpodpan5dunajrfr6khvej.py":44:25)
#loc26 = loc("/NHNHOME/WORKSPACE/26msit001_A/jinhyeok/loop_TTT/lact/.cache_inductor_llm/3g/c3gbwzdhlxg4ytfl6zvpunhatkfcj4lpodpan5dunajrfr6khvej.py":44:37)
#loc27 = loc("/NHNHOME/WORKSPACE/26msit001_A/jinhyeok/loop_TTT/lact/.cache_inductor_llm/3g/c3gbwzdhlxg4ytfl6zvpunhatkfcj4lpodpan5dunajrfr6khvej.py":44:4)
#loc35 = loc("tmp13"(#loc1))
#loc36 = loc("tmp8"(#loc2))
#loc37 = loc("tmp5"(#loc3))
#loc38 = loc("x1"(#loc4))
#loc39 = loc("xoffset"(#loc6))
#loc40 = loc("xoffset"(#loc7))
#loc41 = loc("xindex"(#loc8))
#loc42 = loc("xindex"(#loc9))
#loc43 = loc("tmp0"(#loc10))
#loc44 = loc("tmp0"(#loc11))
#loc45 = loc("tmp3"(#loc12))
#loc46 = loc("tmp3"(#loc13))
#loc47 = loc("tmp9"(#loc14))
#loc48 = loc("tmp9"(#loc15))
#loc49 = loc("tmp9"(#loc16))
#loc50 = loc("tmp14"(#loc17))
#loc51 = loc("tmp14"(#loc18))
#loc52 = loc("tmp14"(#loc19))
#loc53 = loc("tmp6"(#loc20))
#loc54 = loc("tmp11"(#loc21))
#loc55 = loc("tmp16"(#loc22))
