#loc = loc("/NHNHOME/WORKSPACE/26msit001_A/jinhyeok/loop_TTT/lact/.cache_inductor_llm/re/credyyhwn467kkq6xahho5emzccoikubz22zf25tbud5lfjfclgn.py":18:0)
#loc34 = loc("in_ptr0"(#loc))
#loc35 = loc("in_ptr1"(#loc))
#loc36 = loc("in_ptr2"(#loc))
#loc37 = loc("in_ptr3"(#loc))
#loc38 = loc("out_ptr0"(#loc))
#loc39 = loc("out_ptr1"(#loc))
#loc40 = loc("out_ptr2"(#loc))
#loc41 = loc("xnumel"(#loc))
module {
  tt.func public @triton_poi_fused__to_copy_add_mul_transpose_36(%in_ptr0: !tt.ptr<f32> {tt.divisibility = 16 : i32} loc("in_ptr0"(#loc)), %in_ptr1: !tt.ptr<bf16> {tt.divisibility = 16 : i32} loc("in_ptr1"(#loc)), %in_ptr2: !tt.ptr<bf16> {tt.divisibility = 16 : i32} loc("in_ptr2"(#loc)), %in_ptr3: !tt.ptr<bf16> {tt.divisibility = 16 : i32} loc("in_ptr3"(#loc)), %out_ptr0: !tt.ptr<bf16> {tt.divisibility = 16 : i32} loc("out_ptr0"(#loc)), %out_ptr1: !tt.ptr<bf16> {tt.divisibility = 16 : i32} loc("out_ptr1"(#loc)), %out_ptr2: !tt.ptr<bf16> {tt.divisibility = 16 : i32} loc("out_ptr2"(#loc)), %xnumel: i32 {tt.divisibility = 16 : i32} loc("xnumel"(#loc))) attributes {noinline = false} {
    %xnumel_0 = arith.constant 1179648 : i32 loc(#loc42)
    %xoffset = tt.get_program_id x : i32 loc(#loc43)
    %xoffset_1 = arith.constant 512 : i32 loc(#loc44)
    %xoffset_2 = arith.constant 512 : i32 loc(#loc44)
    %xoffset_3 = arith.muli %xoffset, %xoffset_2 : i32 loc(#loc44)
    %xindex = tt.make_range {end = 512 : i32, start = 0 : i32} : tensor<512xi32> loc(#loc45)
    %xindex_4 = tt.splat %xoffset_3 : i32 -> tensor<512xi32> loc(#loc46)
    %xindex_5 = arith.addi %xindex_4, %xindex : tensor<512xi32> loc(#loc46)
    %xmask = arith.constant true loc(#loc47)
    %xmask_6 = arith.constant dense<true> : tensor<512xi1> loc(#loc47)
    %tmp0 = tt.splat %in_ptr0 : !tt.ptr<f32> -> tensor<512x!tt.ptr<f32>> loc(#loc48)
    %tmp0_7 = tt.addptr %tmp0, %xindex_5 : tensor<512x!tt.ptr<f32>>, tensor<512xi32> loc(#loc48)
    %tmp0_8 = tt.load %tmp0_7 : tensor<512x!tt.ptr<f32>> loc(#loc49)
    %tmp3 = tt.splat %in_ptr1 : !tt.ptr<bf16> -> tensor<512x!tt.ptr<bf16>> loc(#loc50)
    %tmp3_9 = tt.addptr %tmp3, %xindex_5 : tensor<512x!tt.ptr<bf16>>, tensor<512xi32> loc(#loc50)
    %tmp3_10 = tt.load %tmp3_9 : tensor<512x!tt.ptr<bf16>> loc(#loc51)
    %tmp3_11 = arith.extf %tmp3_10 : tensor<512xbf16> to tensor<512xf32> loc(#loc52)
    %tmp8 = tt.splat %in_ptr2 : !tt.ptr<bf16> -> tensor<512x!tt.ptr<bf16>> loc(#loc53)
    %tmp8_12 = tt.addptr %tmp8, %xindex_5 : tensor<512x!tt.ptr<bf16>>, tensor<512xi32> loc(#loc53)
    %tmp8_13 = tt.load %tmp8_12 : tensor<512x!tt.ptr<bf16>> loc(#loc54)
    %tmp8_14 = arith.extf %tmp8_13 : tensor<512xbf16> to tensor<512xf32> loc(#loc55)
    %tmp13 = tt.splat %in_ptr3 : !tt.ptr<bf16> -> tensor<512x!tt.ptr<bf16>> loc(#loc56)
    %tmp13_15 = tt.addptr %tmp13, %xindex_5 : tensor<512x!tt.ptr<bf16>>, tensor<512xi32> loc(#loc56)
    %tmp13_16 = tt.load %tmp13_15 : tensor<512x!tt.ptr<bf16>> loc(#loc57)
    %tmp13_17 = arith.extf %tmp13_16 : tensor<512xbf16> to tensor<512xf32> loc(#loc58)
    %tmp1 = arith.constant 4.084800e+00 : f32 loc(#loc59)
    %tmp2 = arith.constant dense<4.084800e+00> : tensor<512xf32> loc(#loc60)
    %tmp2_18 = arith.mulf %tmp0_8, %tmp2 : tensor<512xf32> loc(#loc60)
    %tmp5 = arith.addf %tmp2_18, %tmp3_11 : tensor<512xf32> loc(#loc61)
    %tmp6 = arith.constant 3.950500e+00 : f32 loc(#loc62)
    %tmp7 = arith.constant dense<3.950500e+00> : tensor<512xf32> loc(#loc63)
    %tmp7_19 = arith.mulf %tmp5, %tmp7 : tensor<512xf32> loc(#loc63)
    %tmp10 = arith.addf %tmp7_19, %tmp8_14 : tensor<512xf32> loc(#loc64)
    %tmp11 = arith.constant 3.741800e+00 : f32 loc(#loc65)
    %tmp12 = arith.constant dense<3.741800e+00> : tensor<512xf32> loc(#loc66)
    %tmp12_20 = arith.mulf %tmp10, %tmp12 : tensor<512xf32> loc(#loc66)
    %tmp15 = arith.addf %tmp12_20, %tmp13_17 : tensor<512xf32> loc(#loc67)
    %0 = tt.splat %out_ptr0 : !tt.ptr<bf16> -> tensor<512x!tt.ptr<bf16>> loc(#loc27)
    %1 = tt.addptr %0, %xindex_5 : tensor<512x!tt.ptr<bf16>>, tensor<512xi32> loc(#loc27)
    %2 = arith.truncf %tmp15 : tensor<512xf32> to tensor<512xbf16> loc(#loc28)
    tt.store %1, %2 : tensor<512x!tt.ptr<bf16>> loc(#loc28)
    %3 = tt.splat %out_ptr1 : !tt.ptr<bf16> -> tensor<512x!tt.ptr<bf16>> loc(#loc29)
    %4 = tt.addptr %3, %xindex_5 : tensor<512x!tt.ptr<bf16>>, tensor<512xi32> loc(#loc29)
    %5 = arith.truncf %tmp15 : tensor<512xf32> to tensor<512xbf16> loc(#loc30)
    tt.store %4, %5 : tensor<512x!tt.ptr<bf16>> loc(#loc30)
    %6 = tt.splat %out_ptr2 : !tt.ptr<bf16> -> tensor<512x!tt.ptr<bf16>> loc(#loc31)
    %7 = tt.addptr %6, %xindex_5 : tensor<512x!tt.ptr<bf16>>, tensor<512xi32> loc(#loc31)
    %8 = arith.truncf %tmp15 : tensor<512xf32> to tensor<512xbf16> loc(#loc32)
    tt.store %7, %8 : tensor<512x!tt.ptr<bf16>> loc(#loc32)
    tt.return loc(#loc33)
  } loc(#loc)
} loc(#loc)
#loc1 = loc("/NHNHOME/WORKSPACE/26msit001_A/jinhyeok/loop_TTT/lact/.cache_inductor_llm/re/credyyhwn467kkq6xahho5emzccoikubz22zf25tbud5lfjfclgn.py":19:13)
#loc2 = loc("/NHNHOME/WORKSPACE/26msit001_A/jinhyeok/loop_TTT/lact/.cache_inductor_llm/re/credyyhwn467kkq6xahho5emzccoikubz22zf25tbud5lfjfclgn.py":20:28)
#loc3 = loc("/NHNHOME/WORKSPACE/26msit001_A/jinhyeok/loop_TTT/lact/.cache_inductor_llm/re/credyyhwn467kkq6xahho5emzccoikubz22zf25tbud5lfjfclgn.py":20:33)
#loc4 = loc("/NHNHOME/WORKSPACE/26msit001_A/jinhyeok/loop_TTT/lact/.cache_inductor_llm/re/credyyhwn467kkq6xahho5emzccoikubz22zf25tbud5lfjfclgn.py":21:36)
#loc5 = loc("/NHNHOME/WORKSPACE/26msit001_A/jinhyeok/loop_TTT/lact/.cache_inductor_llm/re/credyyhwn467kkq6xahho5emzccoikubz22zf25tbud5lfjfclgn.py":21:23)
#loc6 = loc("/NHNHOME/WORKSPACE/26msit001_A/jinhyeok/loop_TTT/lact/.cache_inductor_llm/re/credyyhwn467kkq6xahho5emzccoikubz22zf25tbud5lfjfclgn.py":22:36)
#loc7 = loc("/NHNHOME/WORKSPACE/26msit001_A/jinhyeok/loop_TTT/lact/.cache_inductor_llm/re/credyyhwn467kkq6xahho5emzccoikubz22zf25tbud5lfjfclgn.py":24:30)
#loc8 = loc("/NHNHOME/WORKSPACE/26msit001_A/jinhyeok/loop_TTT/lact/.cache_inductor_llm/re/credyyhwn467kkq6xahho5emzccoikubz22zf25tbud5lfjfclgn.py":24:35)
#loc9 = loc("/NHNHOME/WORKSPACE/26msit001_A/jinhyeok/loop_TTT/lact/.cache_inductor_llm/re/credyyhwn467kkq6xahho5emzccoikubz22zf25tbud5lfjfclgn.py":25:30)
#loc10 = loc("/NHNHOME/WORKSPACE/26msit001_A/jinhyeok/loop_TTT/lact/.cache_inductor_llm/re/credyyhwn467kkq6xahho5emzccoikubz22zf25tbud5lfjfclgn.py":25:35)
#loc11 = loc("/NHNHOME/WORKSPACE/26msit001_A/jinhyeok/loop_TTT/lact/.cache_inductor_llm/re/credyyhwn467kkq6xahho5emzccoikubz22zf25tbud5lfjfclgn.py":25:44)
#loc12 = loc("/NHNHOME/WORKSPACE/26msit001_A/jinhyeok/loop_TTT/lact/.cache_inductor_llm/re/credyyhwn467kkq6xahho5emzccoikubz22zf25tbud5lfjfclgn.py":26:30)
#loc13 = loc("/NHNHOME/WORKSPACE/26msit001_A/jinhyeok/loop_TTT/lact/.cache_inductor_llm/re/credyyhwn467kkq6xahho5emzccoikubz22zf25tbud5lfjfclgn.py":26:35)
#loc14 = loc("/NHNHOME/WORKSPACE/26msit001_A/jinhyeok/loop_TTT/lact/.cache_inductor_llm/re/credyyhwn467kkq6xahho5emzccoikubz22zf25tbud5lfjfclgn.py":26:44)
#loc15 = loc("/NHNHOME/WORKSPACE/26msit001_A/jinhyeok/loop_TTT/lact/.cache_inductor_llm/re/credyyhwn467kkq6xahho5emzccoikubz22zf25tbud5lfjfclgn.py":27:31)
#loc16 = loc("/NHNHOME/WORKSPACE/26msit001_A/jinhyeok/loop_TTT/lact/.cache_inductor_llm/re/credyyhwn467kkq6xahho5emzccoikubz22zf25tbud5lfjfclgn.py":27:36)
#loc17 = loc("/NHNHOME/WORKSPACE/26msit001_A/jinhyeok/loop_TTT/lact/.cache_inductor_llm/re/credyyhwn467kkq6xahho5emzccoikubz22zf25tbud5lfjfclgn.py":27:45)
#loc18 = loc("/NHNHOME/WORKSPACE/26msit001_A/jinhyeok/loop_TTT/lact/.cache_inductor_llm/re/credyyhwn467kkq6xahho5emzccoikubz22zf25tbud5lfjfclgn.py":28:11)
#loc19 = loc("/NHNHOME/WORKSPACE/26msit001_A/jinhyeok/loop_TTT/lact/.cache_inductor_llm/re/credyyhwn467kkq6xahho5emzccoikubz22zf25tbud5lfjfclgn.py":29:18)
#loc20 = loc("/NHNHOME/WORKSPACE/26msit001_A/jinhyeok/loop_TTT/lact/.cache_inductor_llm/re/credyyhwn467kkq6xahho5emzccoikubz22zf25tbud5lfjfclgn.py":31:18)
#loc21 = loc("/NHNHOME/WORKSPACE/26msit001_A/jinhyeok/loop_TTT/lact/.cache_inductor_llm/re/credyyhwn467kkq6xahho5emzccoikubz22zf25tbud5lfjfclgn.py":32:11)
#loc22 = loc("/NHNHOME/WORKSPACE/26msit001_A/jinhyeok/loop_TTT/lact/.cache_inductor_llm/re/credyyhwn467kkq6xahho5emzccoikubz22zf25tbud5lfjfclgn.py":33:18)
#loc23 = loc("/NHNHOME/WORKSPACE/26msit001_A/jinhyeok/loop_TTT/lact/.cache_inductor_llm/re/credyyhwn467kkq6xahho5emzccoikubz22zf25tbud5lfjfclgn.py":35:19)
#loc24 = loc("/NHNHOME/WORKSPACE/26msit001_A/jinhyeok/loop_TTT/lact/.cache_inductor_llm/re/credyyhwn467kkq6xahho5emzccoikubz22zf25tbud5lfjfclgn.py":36:12)
#loc25 = loc("/NHNHOME/WORKSPACE/26msit001_A/jinhyeok/loop_TTT/lact/.cache_inductor_llm/re/credyyhwn467kkq6xahho5emzccoikubz22zf25tbud5lfjfclgn.py":37:20)
#loc26 = loc("/NHNHOME/WORKSPACE/26msit001_A/jinhyeok/loop_TTT/lact/.cache_inductor_llm/re/credyyhwn467kkq6xahho5emzccoikubz22zf25tbud5lfjfclgn.py":39:20)
#loc27 = loc("/NHNHOME/WORKSPACE/26msit001_A/jinhyeok/loop_TTT/lact/.cache_inductor_llm/re/credyyhwn467kkq6xahho5emzccoikubz22zf25tbud5lfjfclgn.py":41:25)
#loc28 = loc("/NHNHOME/WORKSPACE/26msit001_A/jinhyeok/loop_TTT/lact/.cache_inductor_llm/re/credyyhwn467kkq6xahho5emzccoikubz22zf25tbud5lfjfclgn.py":41:37)
#loc29 = loc("/NHNHOME/WORKSPACE/26msit001_A/jinhyeok/loop_TTT/lact/.cache_inductor_llm/re/credyyhwn467kkq6xahho5emzccoikubz22zf25tbud5lfjfclgn.py":42:25)
#loc30 = loc("/NHNHOME/WORKSPACE/26msit001_A/jinhyeok/loop_TTT/lact/.cache_inductor_llm/re/credyyhwn467kkq6xahho5emzccoikubz22zf25tbud5lfjfclgn.py":42:37)
#loc31 = loc("/NHNHOME/WORKSPACE/26msit001_A/jinhyeok/loop_TTT/lact/.cache_inductor_llm/re/credyyhwn467kkq6xahho5emzccoikubz22zf25tbud5lfjfclgn.py":43:25)
#loc32 = loc("/NHNHOME/WORKSPACE/26msit001_A/jinhyeok/loop_TTT/lact/.cache_inductor_llm/re/credyyhwn467kkq6xahho5emzccoikubz22zf25tbud5lfjfclgn.py":43:37)
#loc33 = loc("/NHNHOME/WORKSPACE/26msit001_A/jinhyeok/loop_TTT/lact/.cache_inductor_llm/re/credyyhwn467kkq6xahho5emzccoikubz22zf25tbud5lfjfclgn.py":43:4)
#loc42 = loc("xnumel"(#loc1))
#loc43 = loc("xoffset"(#loc2))
#loc44 = loc("xoffset"(#loc3))
#loc45 = loc("xindex"(#loc4))
#loc46 = loc("xindex"(#loc5))
#loc47 = loc("xmask"(#loc6))
#loc48 = loc("tmp0"(#loc7))
#loc49 = loc("tmp0"(#loc8))
#loc50 = loc("tmp3"(#loc9))
#loc51 = loc("tmp3"(#loc10))
#loc52 = loc("tmp3"(#loc11))
#loc53 = loc("tmp8"(#loc12))
#loc54 = loc("tmp8"(#loc13))
#loc55 = loc("tmp8"(#loc14))
#loc56 = loc("tmp13"(#loc15))
#loc57 = loc("tmp13"(#loc16))
#loc58 = loc("tmp13"(#loc17))
#loc59 = loc("tmp1"(#loc18))
#loc60 = loc("tmp2"(#loc19))
#loc61 = loc("tmp5"(#loc20))
#loc62 = loc("tmp6"(#loc21))
#loc63 = loc("tmp7"(#loc22))
#loc64 = loc("tmp10"(#loc23))
#loc65 = loc("tmp11"(#loc24))
#loc66 = loc("tmp12"(#loc25))
#loc67 = loc("tmp15"(#loc26))
