#loc = loc("/NHNHOME/WORKSPACE/26msit001_A/jinhyeok/loop_TTT/lact/.cache_inductor_llm/ex/cexp4vq6meuv727uvtmnrumc4f4mosxtzirrmzk5stggja66wk4b.py":18:0)
#loc104 = loc("/NHNHOME/WORKSPACE/26msit001_A/jinhyeok/TTT_camera_embedding/.venv_llm/lib/python3.12/site-packages/triton/language/standard.py":285:0)
#loc106 = loc(unknown)
#loc109 = loc("/NHNHOME/WORKSPACE/26msit001_A/jinhyeok/TTT_camera_embedding/.venv_llm/lib/python3.12/site-packages/triton/language/standard.py":260:0)
#loc113 = loc("in_ptr0"(#loc))
#loc114 = loc("in_ptr1"(#loc))
#loc115 = loc("in_ptr2"(#loc))
#loc116 = loc("in_ptr3"(#loc))
#loc117 = loc("in_ptr4"(#loc))
#loc118 = loc("in_ptr5"(#loc))
#loc119 = loc("out_ptr0"(#loc))
#loc120 = loc("out_ptr1"(#loc))
#loc121 = loc("xnumel"(#loc))
#loc122 = loc("r0_numel"(#loc))
#loc220 = loc("input"(#loc104))
#loc221 = loc("a"(#loc109))
#loc222 = loc("b"(#loc109))
module {
  tt.func public @triton_red_fused__to_copy_add_linalg_vector_norm_mean_mul_slice_zeros_like_41(%in_ptr0: !tt.ptr<bf16> {tt.divisibility = 16 : i32} loc("in_ptr0"(#loc)), %in_ptr1: !tt.ptr<bf16> {tt.divisibility = 16 : i32} loc("in_ptr1"(#loc)), %in_ptr2: !tt.ptr<f32> {tt.divisibility = 16 : i32} loc("in_ptr2"(#loc)), %in_ptr3: !tt.ptr<f32> {tt.divisibility = 16 : i32} loc("in_ptr3"(#loc)), %in_ptr4: !tt.ptr<bf16> {tt.divisibility = 16 : i32} loc("in_ptr4"(#loc)), %in_ptr5: !tt.ptr<bf16> {tt.divisibility = 16 : i32} loc("in_ptr5"(#loc)), %out_ptr0: !tt.ptr<f32> {tt.divisibility = 16 : i32} loc("out_ptr0"(#loc)), %out_ptr1: !tt.ptr<f32> {tt.divisibility = 16 : i32} loc("out_ptr1"(#loc)), %xnumel: i32 loc("xnumel"(#loc)), %r0_numel: i32 loc("r0_numel"(#loc))) attributes {noinline = false} {
    %r0_numel_0 = arith.constant 7373 : i32 loc(#loc123)
    %xoffset = tt.get_program_id x : i32 loc(#loc124)
    %xoffset_1 = arith.constant 1 : i32 loc(#loc125)
    %xoffset_2 = arith.constant 1 : i32 loc(#loc125)
    %xoffset_3 = arith.muli %xoffset, %xoffset_2 : i32 loc(#loc125)
    %xindex = tt.make_range {end = 1 : i32, start = 0 : i32} : tensor<1xi32> loc(#loc126)
    %xindex_4 = tt.expand_dims %xindex {axis = 1 : i32} : tensor<1xi32> -> tensor<1x1xi32> loc(#loc127)
    %xindex_5 = tt.splat %xoffset_3 : i32 -> tensor<1x1xi32> loc(#loc128)
    %xindex_6 = arith.addi %xindex_5, %xindex_4 : tensor<1x1xi32> loc(#loc128)
    %xmask = tt.splat %xnumel : i32 -> tensor<1x1xi32> loc(#loc129)
    %xmask_7 = arith.cmpi slt, %xindex_6, %xmask : tensor<1x1xi32> loc(#loc129)
    %r0_base = tt.make_range {end = 2048 : i32, start = 0 : i32} : tensor<2048xi32> loc(#loc130)
    %r0_base_8 = tt.expand_dims %r0_base {axis = 0 : i32} : tensor<2048xi32> -> tensor<1x2048xi32> loc(#loc131)
    %x0 = arith.constant 5 : i32 loc(#loc132)
    %x0_9 = arith.constant 5 : i32 loc(#loc132)
    %x0_10 = arith.constant dense<5> : tensor<1x1xi32> loc(#loc132)
    %x0_11 = arith.remsi %xindex_6, %x0_10 : tensor<1x1xi32> loc(#loc132)
    %x1 = arith.constant 5 : i32 loc(#loc133)
    %x1_12 = arith.constant 5 : i32 loc(#loc133)
    %x1_13 = arith.constant dense<5> : tensor<1x1xi32> loc(#loc133)
    %x1_14 = arith.divsi %xindex_6, %x1_13 : tensor<1x1xi32> loc(#loc133)
    %_tmp23 = arith.constant 0.000000e+00 : f32 loc(#loc134)
    %_tmp23_15 = arith.constant dense<0.000000e+00> : tensor<1x2048xf32> loc(#loc134)
    %_tmp38 = arith.constant 0.000000e+00 : f32 loc(#loc135)
    %_tmp38_16 = arith.constant dense<0.000000e+00> : tensor<1x2048xf32> loc(#loc135)
    %c0_i32 = arith.constant 0 : i32 loc(#loc14)
    %c2048_i32 = arith.constant 2048 : i32 loc(#loc14)
    %0 = arith.bitcast %c0_i32 : i32 to i32 loc(#loc14)
    %1 = arith.bitcast %r0_numel_0 : i32 to i32 loc(#loc14)
    %2 = arith.bitcast %c2048_i32 : i32 to i32 loc(#loc14)
    %3 = ub.poison : i32 loc(#loc14)
    %_tmp38_17:2 = scf.for %r0_offset = %0 to %1 step %2 iter_args(%_tmp23_20 = %_tmp23_15, %_tmp38_21 = %_tmp38_16) -> (tensor<1x2048xf32>, tensor<1x2048xf32>)  : i32 {
      %r0_index = tt.splat %r0_offset : i32 -> tensor<1x2048xi32> loc(#loc137)
      %r0_index_22 = arith.addi %r0_index, %r0_base_8 : tensor<1x2048xi32> loc(#loc137)
      %r0_mask = arith.constant dense<7373> : tensor<1x2048xi32> loc(#loc138)
      %r0_mask_23 = arith.cmpi slt, %r0_index_22, %r0_mask : tensor<1x2048xi32> loc(#loc138)
      %tmp0 = arith.constant 7373 : i32 loc(#loc139)
      %tmp0_24 = arith.constant 7373 : i32 loc(#loc139)
      %tmp0_25 = arith.constant dense<7373> : tensor<1x1xi32> loc(#loc139)
      %tmp0_26 = arith.muli %tmp0_25, %x0_11 : tensor<1x1xi32> loc(#loc139)
      %tmp0_27 = tt.broadcast %tmp0_26 : tensor<1x1xi32> -> tensor<1x2048xi32> loc(#loc140)
      %tmp0_28 = arith.addi %r0_index_22, %tmp0_27 : tensor<1x2048xi32> loc(#loc140)
      %tmp1 = arith.constant 36864 : i32 loc(#loc141)
      %tmp1_29 = arith.constant dense<36864> : tensor<1x1xi32> loc(#loc141)
      %tmp2 = arith.constant dense<36864> : tensor<1x2048xi32> loc(#loc142)
      %tmp2_30 = arith.cmpi slt, %tmp0_28, %tmp2 : tensor<1x2048xi32> loc(#loc142)
      %tmp3 = arith.constant 36864 : i32 loc(#loc143)
      %tmp3_31 = arith.constant 36864 : i32 loc(#loc143)
      %tmp3_32 = arith.constant dense<36864> : tensor<1x1xi32> loc(#loc143)
      %tmp3_33 = arith.muli %tmp3_32, %x1_14 : tensor<1x1xi32> loc(#loc143)
      %tmp3_34 = arith.constant 7373 : i32 loc(#loc144)
      %tmp3_35 = arith.constant 7373 : i32 loc(#loc144)
      %tmp3_36 = arith.constant dense<7373> : tensor<1x1xi32> loc(#loc144)
      %tmp3_37 = arith.muli %tmp3_36, %x0_11 : tensor<1x1xi32> loc(#loc144)
      %tmp3_38 = tt.broadcast %tmp3_37 : tensor<1x1xi32> -> tensor<1x2048xi32> loc(#loc145)
      %tmp3_39 = arith.addi %r0_index_22, %tmp3_38 : tensor<1x2048xi32> loc(#loc145)
      %tmp3_40 = arith.constant 36864 : i32 loc(#loc146)
      %tmp3_41 = arith.constant 36864 : i32 loc(#loc146)
      %tmp3_42 = arith.constant dense<36864> : tensor<1x2048xi32> loc(#loc146)
      %tmp3_43 = arith.remsi %tmp3_39, %tmp3_42 : tensor<1x2048xi32> loc(#loc146)
      %tmp3_44 = tt.broadcast %tmp3_33 : tensor<1x1xi32> -> tensor<1x2048xi32> loc(#loc147)
      %tmp3_45 = arith.addi %tmp3_44, %tmp3_43 : tensor<1x2048xi32> loc(#loc147)
      %tmp3_46 = tt.splat %in_ptr0 : !tt.ptr<bf16> -> tensor<1x2048x!tt.ptr<bf16>> loc(#loc148)
      %tmp3_47 = tt.addptr %tmp3_46, %tmp3_45 : tensor<1x2048x!tt.ptr<bf16>>, tensor<1x2048xi32> loc(#loc148)
      %tmp3_48 = arith.andi %r0_mask_23, %tmp2_30 : tensor<1x2048xi1> loc(#loc149)
      %tmp3_49 = tt.broadcast %xmask_7 : tensor<1x1xi1> -> tensor<1x2048xi1> loc(#loc150)
      %tmp3_50 = arith.andi %tmp3_48, %tmp3_49 : tensor<1x2048xi1> loc(#loc150)
      %tmp3_51 = arith.constant 0.000000e+00 : f32 loc(#loc151)
      %tmp3_52 = arith.constant dense<0.000000e+00> : tensor<1x2048xf32> loc(#loc151)
      %tmp3_53 = arith.truncf %tmp3_52 : tensor<1x2048xf32> to tensor<1x2048xbf16> loc(#loc151)
      %tmp3_54 = tt.load %tmp3_47, %tmp3_50, %tmp3_53 evictionPolicy = evict_last : tensor<1x2048x!tt.ptr<bf16>> loc(#loc151)
      %tmp3_55 = arith.extf %tmp3_54 : tensor<1x2048xbf16> to tensor<1x2048xf32> loc(#loc152)
      %tmp5 = arith.constant 36864 : i32 loc(#loc153)
      %tmp5_56 = arith.constant 36864 : i32 loc(#loc153)
      %tmp5_57 = arith.constant dense<36864> : tensor<1x1xi32> loc(#loc153)
      %tmp5_58 = arith.muli %tmp5_57, %x1_14 : tensor<1x1xi32> loc(#loc153)
      %tmp5_59 = arith.constant 7373 : i32 loc(#loc154)
      %tmp5_60 = arith.constant 7373 : i32 loc(#loc154)
      %tmp5_61 = arith.constant dense<7373> : tensor<1x1xi32> loc(#loc154)
      %tmp5_62 = arith.muli %tmp5_61, %x0_11 : tensor<1x1xi32> loc(#loc154)
      %tmp5_63 = tt.broadcast %tmp5_62 : tensor<1x1xi32> -> tensor<1x2048xi32> loc(#loc155)
      %tmp5_64 = arith.addi %r0_index_22, %tmp5_63 : tensor<1x2048xi32> loc(#loc155)
      %tmp5_65 = arith.constant 36864 : i32 loc(#loc156)
      %tmp5_66 = arith.constant 36864 : i32 loc(#loc156)
      %tmp5_67 = arith.constant dense<36864> : tensor<1x2048xi32> loc(#loc156)
      %tmp5_68 = arith.remsi %tmp5_64, %tmp5_67 : tensor<1x2048xi32> loc(#loc156)
      %tmp5_69 = tt.broadcast %tmp5_58 : tensor<1x1xi32> -> tensor<1x2048xi32> loc(#loc157)
      %tmp5_70 = arith.addi %tmp5_69, %tmp5_68 : tensor<1x2048xi32> loc(#loc157)
      %tmp5_71 = tt.splat %in_ptr1 : !tt.ptr<bf16> -> tensor<1x2048x!tt.ptr<bf16>> loc(#loc158)
      %tmp5_72 = tt.addptr %tmp5_71, %tmp5_70 : tensor<1x2048x!tt.ptr<bf16>>, tensor<1x2048xi32> loc(#loc158)
      %tmp5_73 = arith.andi %r0_mask_23, %tmp2_30 : tensor<1x2048xi1> loc(#loc159)
      %tmp5_74 = tt.broadcast %xmask_7 : tensor<1x1xi1> -> tensor<1x2048xi1> loc(#loc160)
      %tmp5_75 = arith.andi %tmp5_73, %tmp5_74 : tensor<1x2048xi1> loc(#loc160)
      %tmp5_76 = arith.constant 0.000000e+00 : f32 loc(#loc161)
      %tmp5_77 = arith.constant dense<0.000000e+00> : tensor<1x2048xf32> loc(#loc161)
      %tmp5_78 = arith.truncf %tmp5_77 : tensor<1x2048xf32> to tensor<1x2048xbf16> loc(#loc161)
      %tmp5_79 = tt.load %tmp5_72, %tmp5_75, %tmp5_78 evictionPolicy = evict_last : tensor<1x2048x!tt.ptr<bf16>> loc(#loc161)
      %tmp5_80 = arith.extf %tmp5_79 : tensor<1x2048xbf16> to tensor<1x2048xf32> loc(#loc162)
      %tmp7 = tt.broadcast %x1_14 : tensor<1x1xi32> -> tensor<1x2048xi32> loc(#loc163)
      %tmp7_81 = tt.splat %in_ptr2 : !tt.ptr<f32> -> tensor<1x2048x!tt.ptr<f32>> loc(#loc164)
      %tmp7_82 = tt.addptr %tmp7_81, %tmp7 : tensor<1x2048x!tt.ptr<f32>>, tensor<1x2048xi32> loc(#loc164)
      %tmp7_83 = arith.andi %r0_mask_23, %tmp2_30 : tensor<1x2048xi1> loc(#loc165)
      %tmp7_84 = tt.broadcast %xmask_7 : tensor<1x1xi1> -> tensor<1x2048xi1> loc(#loc166)
      %tmp7_85 = arith.andi %tmp7_83, %tmp7_84 : tensor<1x2048xi1> loc(#loc166)
      %tmp7_86 = arith.constant 0.000000e+00 : f32 loc(#loc167)
      %tmp7_87 = arith.constant dense<0.000000e+00> : tensor<1x2048xf32> loc(#loc167)
      %tmp7_88 = tt.load %tmp7_82, %tmp7_85, %tmp7_87 evictionPolicy = evict_last : tensor<1x2048x!tt.ptr<f32>> loc(#loc167)
      %tmp8 = arith.constant 1.024000e+03 : f32 loc(#loc168)
      %tmp9 = arith.constant dense<1.024000e+03> : tensor<1x2048xf32> loc(#loc169)
      %tmp9_89 = arith.divf %tmp7_88, %tmp9 : tensor<1x2048xf32> loc(#loc169)
      %tmp10 = arith.constant 0.000000e+00 : f32 loc(#loc170)
      %tmp11 = arith.constant dense<0.000000e+00> : tensor<1x2048xf32> loc(#loc171)
      %tmp11_90 = arith.mulf %tmp11, %tmp9_89 : tensor<1x2048xf32> loc(#loc171)
      %tmp12 = arith.addf %tmp5_80, %tmp11_90 : tensor<1x2048xf32> loc(#loc172)
      %tmp13 = tt.broadcast %x1_14 : tensor<1x1xi32> -> tensor<1x2048xi32> loc(#loc173)
      %tmp13_91 = tt.splat %in_ptr3 : !tt.ptr<f32> -> tensor<1x2048x!tt.ptr<f32>> loc(#loc174)
      %tmp13_92 = tt.addptr %tmp13_91, %tmp13 : tensor<1x2048x!tt.ptr<f32>>, tensor<1x2048xi32> loc(#loc174)
      %tmp13_93 = arith.andi %r0_mask_23, %tmp2_30 : tensor<1x2048xi1> loc(#loc175)
      %tmp13_94 = tt.broadcast %xmask_7 : tensor<1x1xi1> -> tensor<1x2048xi1> loc(#loc176)
      %tmp13_95 = arith.andi %tmp13_93, %tmp13_94 : tensor<1x2048xi1> loc(#loc176)
      %tmp13_96 = arith.constant 0.000000e+00 : f32 loc(#loc177)
      %tmp13_97 = arith.constant dense<0.000000e+00> : tensor<1x2048xf32> loc(#loc177)
      %tmp13_98 = tt.load %tmp13_92, %tmp13_95, %tmp13_97 evictionPolicy = evict_last : tensor<1x2048x!tt.ptr<f32>> loc(#loc177)
      %tmp14 = arith.constant dense<1.024000e+03> : tensor<1x2048xf32> loc(#loc178)
      %tmp14_99 = arith.divf %tmp13_98, %tmp14 : tensor<1x2048xf32> loc(#loc178)
      %tmp15 = arith.mulf %tmp12, %tmp14_99 : tensor<1x2048xf32> loc(#loc179)
      %tmp16 = arith.addf %tmp3_55, %tmp15 : tensor<1x2048xf32> loc(#loc180)
      %tmp19 = arith.mulf %tmp16, %tmp16 : tensor<1x2048xf32> loc(#loc181)
      %tmp20 = arith.constant 0.000000e+00 : f32 loc(#loc182)
      %tmp20_100 = arith.constant dense<0.000000e+00> : tensor<1x2048xf32> loc(#loc182)
      %tmp21 = arith.select %tmp2_30, %tmp19, %tmp20_100 : tensor<1x2048xi1>, tensor<1x2048xf32> loc(#loc183)
      %tmp24 = arith.addf %_tmp23_20, %tmp21 : tensor<1x2048xf32> loc(#loc184)
      %_tmp23_101 = tt.broadcast %xmask_7 : tensor<1x1xi1> -> tensor<1x2048xi1> loc(#loc185)
      %_tmp23_102 = arith.andi %r0_mask_23, %_tmp23_101 : tensor<1x2048xi1> loc(#loc185)
      %_tmp23_103 = arith.select %_tmp23_102, %tmp24, %_tmp23_20 : tensor<1x2048xi1>, tensor<1x2048xf32> loc(#loc186)
      %tmp25 = arith.constant 36864 : i32 loc(#loc187)
      %tmp25_104 = arith.constant 36864 : i32 loc(#loc187)
      %tmp25_105 = arith.constant dense<36864> : tensor<1x1xi32> loc(#loc187)
      %tmp25_106 = arith.muli %tmp25_105, %x1_14 : tensor<1x1xi32> loc(#loc187)
      %tmp25_107 = arith.constant 7373 : i32 loc(#loc188)
      %tmp25_108 = arith.constant 7373 : i32 loc(#loc188)
      %tmp25_109 = arith.constant dense<7373> : tensor<1x1xi32> loc(#loc188)
      %tmp25_110 = arith.muli %tmp25_109, %x0_11 : tensor<1x1xi32> loc(#loc188)
      %tmp25_111 = tt.broadcast %tmp25_110 : tensor<1x1xi32> -> tensor<1x2048xi32> loc(#loc189)
      %tmp25_112 = arith.addi %r0_index_22, %tmp25_111 : tensor<1x2048xi32> loc(#loc189)
      %tmp25_113 = arith.constant 36864 : i32 loc(#loc190)
      %tmp25_114 = arith.constant 36864 : i32 loc(#loc190)
      %tmp25_115 = arith.constant dense<36864> : tensor<1x2048xi32> loc(#loc190)
      %tmp25_116 = arith.remsi %tmp25_112, %tmp25_115 : tensor<1x2048xi32> loc(#loc190)
      %tmp25_117 = tt.broadcast %tmp25_106 : tensor<1x1xi32> -> tensor<1x2048xi32> loc(#loc191)
      %tmp25_118 = arith.addi %tmp25_117, %tmp25_116 : tensor<1x2048xi32> loc(#loc191)
      %tmp25_119 = tt.splat %in_ptr4 : !tt.ptr<bf16> -> tensor<1x2048x!tt.ptr<bf16>> loc(#loc192)
      %tmp25_120 = tt.addptr %tmp25_119, %tmp25_118 : tensor<1x2048x!tt.ptr<bf16>>, tensor<1x2048xi32> loc(#loc192)
      %tmp25_121 = arith.andi %r0_mask_23, %tmp2_30 : tensor<1x2048xi1> loc(#loc193)
      %tmp25_122 = tt.broadcast %xmask_7 : tensor<1x1xi1> -> tensor<1x2048xi1> loc(#loc194)
      %tmp25_123 = arith.andi %tmp25_121, %tmp25_122 : tensor<1x2048xi1> loc(#loc194)
      %tmp25_124 = arith.constant 0.000000e+00 : f32 loc(#loc195)
      %tmp25_125 = arith.constant dense<0.000000e+00> : tensor<1x2048xf32> loc(#loc195)
      %tmp25_126 = arith.truncf %tmp25_125 : tensor<1x2048xf32> to tensor<1x2048xbf16> loc(#loc195)
      %tmp25_127 = tt.load %tmp25_120, %tmp25_123, %tmp25_126 evictionPolicy = evict_last : tensor<1x2048x!tt.ptr<bf16>> loc(#loc195)
      %tmp25_128 = arith.extf %tmp25_127 : tensor<1x2048xbf16> to tensor<1x2048xf32> loc(#loc196)
      %tmp27 = arith.constant 36864 : i32 loc(#loc197)
      %tmp27_129 = arith.constant 36864 : i32 loc(#loc197)
      %tmp27_130 = arith.constant dense<36864> : tensor<1x1xi32> loc(#loc197)
      %tmp27_131 = arith.muli %tmp27_130, %x1_14 : tensor<1x1xi32> loc(#loc197)
      %tmp27_132 = arith.constant 7373 : i32 loc(#loc198)
      %tmp27_133 = arith.constant 7373 : i32 loc(#loc198)
      %tmp27_134 = arith.constant dense<7373> : tensor<1x1xi32> loc(#loc198)
      %tmp27_135 = arith.muli %tmp27_134, %x0_11 : tensor<1x1xi32> loc(#loc198)
      %tmp27_136 = tt.broadcast %tmp27_135 : tensor<1x1xi32> -> tensor<1x2048xi32> loc(#loc199)
      %tmp27_137 = arith.addi %r0_index_22, %tmp27_136 : tensor<1x2048xi32> loc(#loc199)
      %tmp27_138 = arith.constant 36864 : i32 loc(#loc200)
      %tmp27_139 = arith.constant 36864 : i32 loc(#loc200)
      %tmp27_140 = arith.constant dense<36864> : tensor<1x2048xi32> loc(#loc200)
      %tmp27_141 = arith.remsi %tmp27_137, %tmp27_140 : tensor<1x2048xi32> loc(#loc200)
      %tmp27_142 = tt.broadcast %tmp27_131 : tensor<1x1xi32> -> tensor<1x2048xi32> loc(#loc201)
      %tmp27_143 = arith.addi %tmp27_142, %tmp27_141 : tensor<1x2048xi32> loc(#loc201)
      %tmp27_144 = tt.splat %in_ptr5 : !tt.ptr<bf16> -> tensor<1x2048x!tt.ptr<bf16>> loc(#loc202)
      %tmp27_145 = tt.addptr %tmp27_144, %tmp27_143 : tensor<1x2048x!tt.ptr<bf16>>, tensor<1x2048xi32> loc(#loc202)
      %tmp27_146 = arith.andi %r0_mask_23, %tmp2_30 : tensor<1x2048xi1> loc(#loc203)
      %tmp27_147 = tt.broadcast %xmask_7 : tensor<1x1xi1> -> tensor<1x2048xi1> loc(#loc204)
      %tmp27_148 = arith.andi %tmp27_146, %tmp27_147 : tensor<1x2048xi1> loc(#loc204)
      %tmp27_149 = arith.constant 0.000000e+00 : f32 loc(#loc205)
      %tmp27_150 = arith.constant dense<0.000000e+00> : tensor<1x2048xf32> loc(#loc205)
      %tmp27_151 = arith.truncf %tmp27_150 : tensor<1x2048xf32> to tensor<1x2048xbf16> loc(#loc205)
      %tmp27_152 = tt.load %tmp27_145, %tmp27_148, %tmp27_151 evictionPolicy = evict_last : tensor<1x2048x!tt.ptr<bf16>> loc(#loc205)
      %tmp27_153 = arith.extf %tmp27_152 : tensor<1x2048xbf16> to tensor<1x2048xf32> loc(#loc206)
      %tmp29 = arith.addf %tmp27_153, %tmp11_90 : tensor<1x2048xf32> loc(#loc207)
      %tmp30 = arith.mulf %tmp29, %tmp14_99 : tensor<1x2048xf32> loc(#loc208)
      %tmp31 = arith.addf %tmp25_128, %tmp30 : tensor<1x2048xf32> loc(#loc209)
      %tmp34 = arith.mulf %tmp31, %tmp31 : tensor<1x2048xf32> loc(#loc210)
      %tmp35 = arith.constant 0.000000e+00 : f32 loc(#loc211)
      %tmp35_154 = arith.constant dense<0.000000e+00> : tensor<1x2048xf32> loc(#loc211)
      %tmp36 = arith.select %tmp2_30, %tmp34, %tmp35_154 : tensor<1x2048xi1>, tensor<1x2048xf32> loc(#loc212)
      %tmp39 = arith.addf %_tmp38_21, %tmp36 : tensor<1x2048xf32> loc(#loc213)
      %_tmp38_155 = tt.broadcast %xmask_7 : tensor<1x1xi1> -> tensor<1x2048xi1> loc(#loc214)
      %_tmp38_156 = arith.andi %r0_mask_23, %_tmp38_155 : tensor<1x2048xi1> loc(#loc214)
      %_tmp38_157 = arith.select %_tmp38_156, %tmp39, %_tmp38_21 : tensor<1x2048xi1>, tensor<1x2048xf32> loc(#loc215)
      scf.yield %_tmp23_103, %_tmp38_157 : tensor<1x2048xf32>, tensor<1x2048xf32> loc(#loc94)
    } loc(#loc223)
    %tmp23 = tt.call @"triton.language.standard.sum__fp32S1_2048S__(1,)cconstexpr_1__(2,)cconstexpr_False__(3,)cNone"(%_tmp38_17#0) : (tensor<1x2048xf32>) -> tensor<1xf32> loc(#loc216)
    %tmp23_18 = tt.expand_dims %tmp23 {axis = 1 : i32} : tensor<1xf32> -> tensor<1x1xf32> loc(#loc217)
    %tmp38 = tt.call @"triton.language.standard.sum__fp32S1_2048S__(1,)cconstexpr_1__(2,)cconstexpr_False__(3,)cNone"(%_tmp38_17#1) : (tensor<1x2048xf32>) -> tensor<1xf32> loc(#loc218)
    %tmp38_19 = tt.expand_dims %tmp38 {axis = 1 : i32} : tensor<1xf32> -> tensor<1x1xf32> loc(#loc219)
    %4 = tt.splat %out_ptr0 : !tt.ptr<f32> -> tensor<1x1x!tt.ptr<f32>> loc(#loc99)
    %5 = tt.addptr %4, %xindex_6 : tensor<1x1x!tt.ptr<f32>>, tensor<1x1xi32> loc(#loc99)
    tt.store %5, %tmp23_18, %xmask_7 : tensor<1x1x!tt.ptr<f32>> loc(#loc100)
    %6 = tt.splat %out_ptr1 : !tt.ptr<f32> -> tensor<1x1x!tt.ptr<f32>> loc(#loc101)
    %7 = tt.addptr %6, %xindex_6 : tensor<1x1x!tt.ptr<f32>>, tensor<1x1xi32> loc(#loc101)
    tt.store %7, %tmp38_19, %xmask_7 : tensor<1x1x!tt.ptr<f32>> loc(#loc102)
    tt.return loc(#loc103)
  } loc(#loc)
  tt.func private @"triton.language.standard.sum__fp32S1_2048S__(1,)cconstexpr_1__(2,)cconstexpr_False__(3,)cNone"(%input: tensor<1x2048xf32> loc("input"(#loc104))) -> tensor<1xf32> attributes {noinline = false} {
    %0 = "tt.reduce"(%input) <{axis = 1 : i32}> ({
    ^bb0(%arg1: f32 loc(unknown), %arg2: f32 loc(unknown)):
      %2 = tt.call @triton.language.standard._sum_combine__fp32_fp32__(%arg1, %arg2) : (f32, f32) -> f32 loc(#loc105)
      tt.reduce.return %2 : f32 loc(#loc105)
    }) : (tensor<1x2048xf32>) -> tensor<1xf32> loc(#loc105)
    tt.return %0 : tensor<1xf32> loc(#loc107)
  ^bb1:  // no predecessors
    %1 = ub.poison : tensor<1xf32> loc(#loc108)
    tt.return %1 : tensor<1xf32> loc(#loc108)
  } loc(#loc104)
  tt.func private @triton.language.standard._sum_combine__fp32_fp32__(%a: f32 loc("a"(#loc109)), %b: f32 loc("b"(#loc109))) -> f32 attributes {noinline = false} {
    %0 = arith.addf %a, %b : f32 loc(#loc110)
    tt.return %0 : f32 loc(#loc111)
  ^bb1:  // no predecessors
    %1 = ub.poison : f32 loc(#loc112)
    tt.return %1 : f32 loc(#loc112)
  } loc(#loc109)
} loc(#loc)
#loc1 = loc("/NHNHOME/WORKSPACE/26msit001_A/jinhyeok/loop_TTT/lact/.cache_inductor_llm/ex/cexp4vq6meuv727uvtmnrumc4f4mosxtzirrmzk5stggja66wk4b.py":19:15)
#loc2 = loc("/NHNHOME/WORKSPACE/26msit001_A/jinhyeok/loop_TTT/lact/.cache_inductor_llm/ex/cexp4vq6meuv727uvtmnrumc4f4mosxtzirrmzk5stggja66wk4b.py":22:28)
#loc3 = loc("/NHNHOME/WORKSPACE/26msit001_A/jinhyeok/loop_TTT/lact/.cache_inductor_llm/ex/cexp4vq6meuv727uvtmnrumc4f4mosxtzirrmzk5stggja66wk4b.py":22:33)
#loc4 = loc("/NHNHOME/WORKSPACE/26msit001_A/jinhyeok/loop_TTT/lact/.cache_inductor_llm/ex/cexp4vq6meuv727uvtmnrumc4f4mosxtzirrmzk5stggja66wk4b.py":23:36)
#loc5 = loc("/NHNHOME/WORKSPACE/26msit001_A/jinhyeok/loop_TTT/lact/.cache_inductor_llm/ex/cexp4vq6meuv727uvtmnrumc4f4mosxtzirrmzk5stggja66wk4b.py":23:44)
#loc6 = loc("/NHNHOME/WORKSPACE/26msit001_A/jinhyeok/loop_TTT/lact/.cache_inductor_llm/ex/cexp4vq6meuv727uvtmnrumc4f4mosxtzirrmzk5stggja66wk4b.py":23:23)
#loc7 = loc("/NHNHOME/WORKSPACE/26msit001_A/jinhyeok/loop_TTT/lact/.cache_inductor_llm/ex/cexp4vq6meuv727uvtmnrumc4f4mosxtzirrmzk5stggja66wk4b.py":24:21)
#loc8 = loc("/NHNHOME/WORKSPACE/26msit001_A/jinhyeok/loop_TTT/lact/.cache_inductor_llm/ex/cexp4vq6meuv727uvtmnrumc4f4mosxtzirrmzk5stggja66wk4b.py":25:27)
#loc9 = loc("/NHNHOME/WORKSPACE/26msit001_A/jinhyeok/loop_TTT/lact/.cache_inductor_llm/ex/cexp4vq6meuv727uvtmnrumc4f4mosxtzirrmzk5stggja66wk4b.py":25:37)
#loc10 = loc("/NHNHOME/WORKSPACE/26msit001_A/jinhyeok/loop_TTT/lact/.cache_inductor_llm/ex/cexp4vq6meuv727uvtmnrumc4f4mosxtzirrmzk5stggja66wk4b.py":27:19)
#loc11 = loc("/NHNHOME/WORKSPACE/26msit001_A/jinhyeok/loop_TTT/lact/.cache_inductor_llm/ex/cexp4vq6meuv727uvtmnrumc4f4mosxtzirrmzk5stggja66wk4b.py":28:19)
#loc12 = loc("/NHNHOME/WORKSPACE/26msit001_A/jinhyeok/loop_TTT/lact/.cache_inductor_llm/ex/cexp4vq6meuv727uvtmnrumc4f4mosxtzirrmzk5stggja66wk4b.py":29:44)
#loc13 = loc("/NHNHOME/WORKSPACE/26msit001_A/jinhyeok/loop_TTT/lact/.cache_inductor_llm/ex/cexp4vq6meuv727uvtmnrumc4f4mosxtzirrmzk5stggja66wk4b.py":31:44)
#loc14 = loc("/NHNHOME/WORKSPACE/26msit001_A/jinhyeok/loop_TTT/lact/.cache_inductor_llm/ex/cexp4vq6meuv727uvtmnrumc4f4mosxtzirrmzk5stggja66wk4b.py":32:40)
#loc15 = loc("/NHNHOME/WORKSPACE/26msit001_A/jinhyeok/loop_TTT/lact/.cache_inductor_llm/ex/cexp4vq6meuv727uvtmnrumc4f4mosxtzirrmzk5stggja66wk4b.py":33:31)
#loc16 = loc("/NHNHOME/WORKSPACE/26msit001_A/jinhyeok/loop_TTT/lact/.cache_inductor_llm/ex/cexp4vq6meuv727uvtmnrumc4f4mosxtzirrmzk5stggja66wk4b.py":34:29)
#loc17 = loc("/NHNHOME/WORKSPACE/26msit001_A/jinhyeok/loop_TTT/lact/.cache_inductor_llm/ex/cexp4vq6meuv727uvtmnrumc4f4mosxtzirrmzk5stggja66wk4b.py":38:27)
#loc18 = loc("/NHNHOME/WORKSPACE/26msit001_A/jinhyeok/loop_TTT/lact/.cache_inductor_llm/ex/cexp4vq6meuv727uvtmnrumc4f4mosxtzirrmzk5stggja66wk4b.py":38:22)
#loc19 = loc("/NHNHOME/WORKSPACE/26msit001_A/jinhyeok/loop_TTT/lact/.cache_inductor_llm/ex/cexp4vq6meuv727uvtmnrumc4f4mosxtzirrmzk5stggja66wk4b.py":39:38)
#loc20 = loc("/NHNHOME/WORKSPACE/26msit001_A/jinhyeok/loop_TTT/lact/.cache_inductor_llm/ex/cexp4vq6meuv727uvtmnrumc4f4mosxtzirrmzk5stggja66wk4b.py":40:22)
#loc21 = loc("/NHNHOME/WORKSPACE/26msit001_A/jinhyeok/loop_TTT/lact/.cache_inductor_llm/ex/cexp4vq6meuv727uvtmnrumc4f4mosxtzirrmzk5stggja66wk4b.py":41:40)
#loc22 = loc("/NHNHOME/WORKSPACE/26msit001_A/jinhyeok/loop_TTT/lact/.cache_inductor_llm/ex/cexp4vq6meuv727uvtmnrumc4f4mosxtzirrmzk5stggja66wk4b.py":41:60)
#loc23 = loc("/NHNHOME/WORKSPACE/26msit001_A/jinhyeok/loop_TTT/lact/.cache_inductor_llm/ex/cexp4vq6meuv727uvtmnrumc4f4mosxtzirrmzk5stggja66wk4b.py":41:55)
#loc24 = loc("/NHNHOME/WORKSPACE/26msit001_A/jinhyeok/loop_TTT/lact/.cache_inductor_llm/ex/cexp4vq6meuv727uvtmnrumc4f4mosxtzirrmzk5stggja66wk4b.py":41:66)
#loc25 = loc("/NHNHOME/WORKSPACE/26msit001_A/jinhyeok/loop_TTT/lact/.cache_inductor_llm/ex/cexp4vq6meuv727uvtmnrumc4f4mosxtzirrmzk5stggja66wk4b.py":41:47)
#loc26 = loc("/NHNHOME/WORKSPACE/26msit001_A/jinhyeok/loop_TTT/lact/.cache_inductor_llm/ex/cexp4vq6meuv727uvtmnrumc4f4mosxtzirrmzk5stggja66wk4b.py":41:34)
#loc27 = loc("/NHNHOME/WORKSPACE/26msit001_A/jinhyeok/loop_TTT/lact/.cache_inductor_llm/ex/cexp4vq6meuv727uvtmnrumc4f4mosxtzirrmzk5stggja66wk4b.py":41:86)
#loc28 = loc("/NHNHOME/WORKSPACE/26msit001_A/jinhyeok/loop_TTT/lact/.cache_inductor_llm/ex/cexp4vq6meuv727uvtmnrumc4f4mosxtzirrmzk5stggja66wk4b.py":41:93)
#loc29 = loc("/NHNHOME/WORKSPACE/26msit001_A/jinhyeok/loop_TTT/lact/.cache_inductor_llm/ex/cexp4vq6meuv727uvtmnrumc4f4mosxtzirrmzk5stggja66wk4b.py":41:76)
#loc30 = loc("/NHNHOME/WORKSPACE/26msit001_A/jinhyeok/loop_TTT/lact/.cache_inductor_llm/ex/cexp4vq6meuv727uvtmnrumc4f4mosxtzirrmzk5stggja66wk4b.py":41:144)
#loc31 = loc("/NHNHOME/WORKSPACE/26msit001_A/jinhyeok/loop_TTT/lact/.cache_inductor_llm/ex/cexp4vq6meuv727uvtmnrumc4f4mosxtzirrmzk5stggja66wk4b.py":43:40)
#loc32 = loc("/NHNHOME/WORKSPACE/26msit001_A/jinhyeok/loop_TTT/lact/.cache_inductor_llm/ex/cexp4vq6meuv727uvtmnrumc4f4mosxtzirrmzk5stggja66wk4b.py":43:60)
#loc33 = loc("/NHNHOME/WORKSPACE/26msit001_A/jinhyeok/loop_TTT/lact/.cache_inductor_llm/ex/cexp4vq6meuv727uvtmnrumc4f4mosxtzirrmzk5stggja66wk4b.py":43:55)
#loc34 = loc("/NHNHOME/WORKSPACE/26msit001_A/jinhyeok/loop_TTT/lact/.cache_inductor_llm/ex/cexp4vq6meuv727uvtmnrumc4f4mosxtzirrmzk5stggja66wk4b.py":43:66)
#loc35 = loc("/NHNHOME/WORKSPACE/26msit001_A/jinhyeok/loop_TTT/lact/.cache_inductor_llm/ex/cexp4vq6meuv727uvtmnrumc4f4mosxtzirrmzk5stggja66wk4b.py":43:47)
#loc36 = loc("/NHNHOME/WORKSPACE/26msit001_A/jinhyeok/loop_TTT/lact/.cache_inductor_llm/ex/cexp4vq6meuv727uvtmnrumc4f4mosxtzirrmzk5stggja66wk4b.py":43:34)
#loc37 = loc("/NHNHOME/WORKSPACE/26msit001_A/jinhyeok/loop_TTT/lact/.cache_inductor_llm/ex/cexp4vq6meuv727uvtmnrumc4f4mosxtzirrmzk5stggja66wk4b.py":43:86)
#loc38 = loc("/NHNHOME/WORKSPACE/26msit001_A/jinhyeok/loop_TTT/lact/.cache_inductor_llm/ex/cexp4vq6meuv727uvtmnrumc4f4mosxtzirrmzk5stggja66wk4b.py":43:93)
#loc39 = loc("/NHNHOME/WORKSPACE/26msit001_A/jinhyeok/loop_TTT/lact/.cache_inductor_llm/ex/cexp4vq6meuv727uvtmnrumc4f4mosxtzirrmzk5stggja66wk4b.py":43:76)
#loc40 = loc("/NHNHOME/WORKSPACE/26msit001_A/jinhyeok/loop_TTT/lact/.cache_inductor_llm/ex/cexp4vq6meuv727uvtmnrumc4f4mosxtzirrmzk5stggja66wk4b.py":43:144)
#loc41 = loc("/NHNHOME/WORKSPACE/26msit001_A/jinhyeok/loop_TTT/lact/.cache_inductor_llm/ex/cexp4vq6meuv727uvtmnrumc4f4mosxtzirrmzk5stggja66wk4b.py":45:54)
#loc42 = loc("/NHNHOME/WORKSPACE/26msit001_A/jinhyeok/loop_TTT/lact/.cache_inductor_llm/ex/cexp4vq6meuv727uvtmnrumc4f4mosxtzirrmzk5stggja66wk4b.py":45:34)
#loc43 = loc("/NHNHOME/WORKSPACE/26msit001_A/jinhyeok/loop_TTT/lact/.cache_inductor_llm/ex/cexp4vq6meuv727uvtmnrumc4f4mosxtzirrmzk5stggja66wk4b.py":45:86)
#loc44 = loc("/NHNHOME/WORKSPACE/26msit001_A/jinhyeok/loop_TTT/lact/.cache_inductor_llm/ex/cexp4vq6meuv727uvtmnrumc4f4mosxtzirrmzk5stggja66wk4b.py":45:93)
#loc45 = loc("/NHNHOME/WORKSPACE/26msit001_A/jinhyeok/loop_TTT/lact/.cache_inductor_llm/ex/cexp4vq6meuv727uvtmnrumc4f4mosxtzirrmzk5stggja66wk4b.py":45:76)
#loc46 = loc("/NHNHOME/WORKSPACE/26msit001_A/jinhyeok/loop_TTT/lact/.cache_inductor_llm/ex/cexp4vq6meuv727uvtmnrumc4f4mosxtzirrmzk5stggja66wk4b.py":46:15)
#loc47 = loc("/NHNHOME/WORKSPACE/26msit001_A/jinhyeok/loop_TTT/lact/.cache_inductor_llm/ex/cexp4vq6meuv727uvtmnrumc4f4mosxtzirrmzk5stggja66wk4b.py":47:23)
#loc48 = loc("/NHNHOME/WORKSPACE/26msit001_A/jinhyeok/loop_TTT/lact/.cache_inductor_llm/ex/cexp4vq6meuv727uvtmnrumc4f4mosxtzirrmzk5stggja66wk4b.py":48:16)
#loc49 = loc("/NHNHOME/WORKSPACE/26msit001_A/jinhyeok/loop_TTT/lact/.cache_inductor_llm/ex/cexp4vq6meuv727uvtmnrumc4f4mosxtzirrmzk5stggja66wk4b.py":49:24)
#loc50 = loc("/NHNHOME/WORKSPACE/26msit001_A/jinhyeok/loop_TTT/lact/.cache_inductor_llm/ex/cexp4vq6meuv727uvtmnrumc4f4mosxtzirrmzk5stggja66wk4b.py":50:23)
#loc51 = loc("/NHNHOME/WORKSPACE/26msit001_A/jinhyeok/loop_TTT/lact/.cache_inductor_llm/ex/cexp4vq6meuv727uvtmnrumc4f4mosxtzirrmzk5stggja66wk4b.py":51:55)
#loc52 = loc("/NHNHOME/WORKSPACE/26msit001_A/jinhyeok/loop_TTT/lact/.cache_inductor_llm/ex/cexp4vq6meuv727uvtmnrumc4f4mosxtzirrmzk5stggja66wk4b.py":51:35)
#loc53 = loc("/NHNHOME/WORKSPACE/26msit001_A/jinhyeok/loop_TTT/lact/.cache_inductor_llm/ex/cexp4vq6meuv727uvtmnrumc4f4mosxtzirrmzk5stggja66wk4b.py":51:87)
#loc54 = loc("/NHNHOME/WORKSPACE/26msit001_A/jinhyeok/loop_TTT/lact/.cache_inductor_llm/ex/cexp4vq6meuv727uvtmnrumc4f4mosxtzirrmzk5stggja66wk4b.py":51:94)
#loc55 = loc("/NHNHOME/WORKSPACE/26msit001_A/jinhyeok/loop_TTT/lact/.cache_inductor_llm/ex/cexp4vq6meuv727uvtmnrumc4f4mosxtzirrmzk5stggja66wk4b.py":51:77)
#loc56 = loc("/NHNHOME/WORKSPACE/26msit001_A/jinhyeok/loop_TTT/lact/.cache_inductor_llm/ex/cexp4vq6meuv727uvtmnrumc4f4mosxtzirrmzk5stggja66wk4b.py":52:25)
#loc57 = loc("/NHNHOME/WORKSPACE/26msit001_A/jinhyeok/loop_TTT/lact/.cache_inductor_llm/ex/cexp4vq6meuv727uvtmnrumc4f4mosxtzirrmzk5stggja66wk4b.py":53:24)
#loc58 = loc("/NHNHOME/WORKSPACE/26msit001_A/jinhyeok/loop_TTT/lact/.cache_inductor_llm/ex/cexp4vq6meuv727uvtmnrumc4f4mosxtzirrmzk5stggja66wk4b.py":54:23)
#loc59 = loc("/NHNHOME/WORKSPACE/26msit001_A/jinhyeok/loop_TTT/lact/.cache_inductor_llm/ex/cexp4vq6meuv727uvtmnrumc4f4mosxtzirrmzk5stggja66wk4b.py":57:24)
#loc60 = loc("/NHNHOME/WORKSPACE/26msit001_A/jinhyeok/loop_TTT/lact/.cache_inductor_llm/ex/cexp4vq6meuv727uvtmnrumc4f4mosxtzirrmzk5stggja66wk4b.py":58:40)
#loc61 = loc("/NHNHOME/WORKSPACE/26msit001_A/jinhyeok/loop_TTT/lact/.cache_inductor_llm/ex/cexp4vq6meuv727uvtmnrumc4f4mosxtzirrmzk5stggja66wk4b.py":59:38)
#loc62 = loc("/NHNHOME/WORKSPACE/26msit001_A/jinhyeok/loop_TTT/lact/.cache_inductor_llm/ex/cexp4vq6meuv727uvtmnrumc4f4mosxtzirrmzk5stggja66wk4b.py":61:25)
#loc63 = loc("/NHNHOME/WORKSPACE/26msit001_A/jinhyeok/loop_TTT/lact/.cache_inductor_llm/ex/cexp4vq6meuv727uvtmnrumc4f4mosxtzirrmzk5stggja66wk4b.py":62:36)
#loc64 = loc("/NHNHOME/WORKSPACE/26msit001_A/jinhyeok/loop_TTT/lact/.cache_inductor_llm/ex/cexp4vq6meuv727uvtmnrumc4f4mosxtzirrmzk5stggja66wk4b.py":62:50)
#loc65 = loc("/NHNHOME/WORKSPACE/26msit001_A/jinhyeok/loop_TTT/lact/.cache_inductor_llm/ex/cexp4vq6meuv727uvtmnrumc4f4mosxtzirrmzk5stggja66wk4b.py":63:41)
#loc66 = loc("/NHNHOME/WORKSPACE/26msit001_A/jinhyeok/loop_TTT/lact/.cache_inductor_llm/ex/cexp4vq6meuv727uvtmnrumc4f4mosxtzirrmzk5stggja66wk4b.py":63:61)
#loc67 = loc("/NHNHOME/WORKSPACE/26msit001_A/jinhyeok/loop_TTT/lact/.cache_inductor_llm/ex/cexp4vq6meuv727uvtmnrumc4f4mosxtzirrmzk5stggja66wk4b.py":63:56)
#loc68 = loc("/NHNHOME/WORKSPACE/26msit001_A/jinhyeok/loop_TTT/lact/.cache_inductor_llm/ex/cexp4vq6meuv727uvtmnrumc4f4mosxtzirrmzk5stggja66wk4b.py":63:67)
#loc69 = loc("/NHNHOME/WORKSPACE/26msit001_A/jinhyeok/loop_TTT/lact/.cache_inductor_llm/ex/cexp4vq6meuv727uvtmnrumc4f4mosxtzirrmzk5stggja66wk4b.py":63:48)
#loc70 = loc("/NHNHOME/WORKSPACE/26msit001_A/jinhyeok/loop_TTT/lact/.cache_inductor_llm/ex/cexp4vq6meuv727uvtmnrumc4f4mosxtzirrmzk5stggja66wk4b.py":63:35)
#loc71 = loc("/NHNHOME/WORKSPACE/26msit001_A/jinhyeok/loop_TTT/lact/.cache_inductor_llm/ex/cexp4vq6meuv727uvtmnrumc4f4mosxtzirrmzk5stggja66wk4b.py":63:87)
#loc72 = loc("/NHNHOME/WORKSPACE/26msit001_A/jinhyeok/loop_TTT/lact/.cache_inductor_llm/ex/cexp4vq6meuv727uvtmnrumc4f4mosxtzirrmzk5stggja66wk4b.py":63:94)
#loc73 = loc("/NHNHOME/WORKSPACE/26msit001_A/jinhyeok/loop_TTT/lact/.cache_inductor_llm/ex/cexp4vq6meuv727uvtmnrumc4f4mosxtzirrmzk5stggja66wk4b.py":63:77)
#loc74 = loc("/NHNHOME/WORKSPACE/26msit001_A/jinhyeok/loop_TTT/lact/.cache_inductor_llm/ex/cexp4vq6meuv727uvtmnrumc4f4mosxtzirrmzk5stggja66wk4b.py":63:145)
#loc75 = loc("/NHNHOME/WORKSPACE/26msit001_A/jinhyeok/loop_TTT/lact/.cache_inductor_llm/ex/cexp4vq6meuv727uvtmnrumc4f4mosxtzirrmzk5stggja66wk4b.py":65:41)
#loc76 = loc("/NHNHOME/WORKSPACE/26msit001_A/jinhyeok/loop_TTT/lact/.cache_inductor_llm/ex/cexp4vq6meuv727uvtmnrumc4f4mosxtzirrmzk5stggja66wk4b.py":65:61)
#loc77 = loc("/NHNHOME/WORKSPACE/26msit001_A/jinhyeok/loop_TTT/lact/.cache_inductor_llm/ex/cexp4vq6meuv727uvtmnrumc4f4mosxtzirrmzk5stggja66wk4b.py":65:56)
#loc78 = loc("/NHNHOME/WORKSPACE/26msit001_A/jinhyeok/loop_TTT/lact/.cache_inductor_llm/ex/cexp4vq6meuv727uvtmnrumc4f4mosxtzirrmzk5stggja66wk4b.py":65:67)
#loc79 = loc("/NHNHOME/WORKSPACE/26msit001_A/jinhyeok/loop_TTT/lact/.cache_inductor_llm/ex/cexp4vq6meuv727uvtmnrumc4f4mosxtzirrmzk5stggja66wk4b.py":65:48)
#loc80 = loc("/NHNHOME/WORKSPACE/26msit001_A/jinhyeok/loop_TTT/lact/.cache_inductor_llm/ex/cexp4vq6meuv727uvtmnrumc4f4mosxtzirrmzk5stggja66wk4b.py":65:35)
#loc81 = loc("/NHNHOME/WORKSPACE/26msit001_A/jinhyeok/loop_TTT/lact/.cache_inductor_llm/ex/cexp4vq6meuv727uvtmnrumc4f4mosxtzirrmzk5stggja66wk4b.py":65:87)
#loc82 = loc("/NHNHOME/WORKSPACE/26msit001_A/jinhyeok/loop_TTT/lact/.cache_inductor_llm/ex/cexp4vq6meuv727uvtmnrumc4f4mosxtzirrmzk5stggja66wk4b.py":65:94)
#loc83 = loc("/NHNHOME/WORKSPACE/26msit001_A/jinhyeok/loop_TTT/lact/.cache_inductor_llm/ex/cexp4vq6meuv727uvtmnrumc4f4mosxtzirrmzk5stggja66wk4b.py":65:77)
#loc84 = loc("/NHNHOME/WORKSPACE/26msit001_A/jinhyeok/loop_TTT/lact/.cache_inductor_llm/ex/cexp4vq6meuv727uvtmnrumc4f4mosxtzirrmzk5stggja66wk4b.py":65:145)
#loc85 = loc("/NHNHOME/WORKSPACE/26msit001_A/jinhyeok/loop_TTT/lact/.cache_inductor_llm/ex/cexp4vq6meuv727uvtmnrumc4f4mosxtzirrmzk5stggja66wk4b.py":67:24)
#loc86 = loc("/NHNHOME/WORKSPACE/26msit001_A/jinhyeok/loop_TTT/lact/.cache_inductor_llm/ex/cexp4vq6meuv727uvtmnrumc4f4mosxtzirrmzk5stggja66wk4b.py":68:24)
#loc87 = loc("/NHNHOME/WORKSPACE/26msit001_A/jinhyeok/loop_TTT/lact/.cache_inductor_llm/ex/cexp4vq6meuv727uvtmnrumc4f4mosxtzirrmzk5stggja66wk4b.py":69:24)
#loc88 = loc("/NHNHOME/WORKSPACE/26msit001_A/jinhyeok/loop_TTT/lact/.cache_inductor_llm/ex/cexp4vq6meuv727uvtmnrumc4f4mosxtzirrmzk5stggja66wk4b.py":72:24)
#loc89 = loc("/NHNHOME/WORKSPACE/26msit001_A/jinhyeok/loop_TTT/lact/.cache_inductor_llm/ex/cexp4vq6meuv727uvtmnrumc4f4mosxtzirrmzk5stggja66wk4b.py":73:40)
#loc90 = loc("/NHNHOME/WORKSPACE/26msit001_A/jinhyeok/loop_TTT/lact/.cache_inductor_llm/ex/cexp4vq6meuv727uvtmnrumc4f4mosxtzirrmzk5stggja66wk4b.py":74:38)
#loc91 = loc("/NHNHOME/WORKSPACE/26msit001_A/jinhyeok/loop_TTT/lact/.cache_inductor_llm/ex/cexp4vq6meuv727uvtmnrumc4f4mosxtzirrmzk5stggja66wk4b.py":76:25)
#loc92 = loc("/NHNHOME/WORKSPACE/26msit001_A/jinhyeok/loop_TTT/lact/.cache_inductor_llm/ex/cexp4vq6meuv727uvtmnrumc4f4mosxtzirrmzk5stggja66wk4b.py":77:36)
#loc93 = loc("/NHNHOME/WORKSPACE/26msit001_A/jinhyeok/loop_TTT/lact/.cache_inductor_llm/ex/cexp4vq6meuv727uvtmnrumc4f4mosxtzirrmzk5stggja66wk4b.py":77:50)
#loc94 = loc("/NHNHOME/WORKSPACE/26msit001_A/jinhyeok/loop_TTT/lact/.cache_inductor_llm/ex/cexp4vq6meuv727uvtmnrumc4f4mosxtzirrmzk5stggja66wk4b.py":77:8)
#loc95 = loc("/NHNHOME/WORKSPACE/26msit001_A/jinhyeok/loop_TTT/lact/.cache_inductor_llm/ex/cexp4vq6meuv727uvtmnrumc4f4mosxtzirrmzk5stggja66wk4b.py":78:27)
#loc96 = loc("/NHNHOME/WORKSPACE/26msit001_A/jinhyeok/loop_TTT/lact/.cache_inductor_llm/ex/cexp4vq6meuv727uvtmnrumc4f4mosxtzirrmzk5stggja66wk4b.py":78:30)
#loc97 = loc("/NHNHOME/WORKSPACE/26msit001_A/jinhyeok/loop_TTT/lact/.cache_inductor_llm/ex/cexp4vq6meuv727uvtmnrumc4f4mosxtzirrmzk5stggja66wk4b.py":79:27)
#loc98 = loc("/NHNHOME/WORKSPACE/26msit001_A/jinhyeok/loop_TTT/lact/.cache_inductor_llm/ex/cexp4vq6meuv727uvtmnrumc4f4mosxtzirrmzk5stggja66wk4b.py":79:30)
#loc99 = loc("/NHNHOME/WORKSPACE/26msit001_A/jinhyeok/loop_TTT/lact/.cache_inductor_llm/ex/cexp4vq6meuv727uvtmnrumc4f4mosxtzirrmzk5stggja66wk4b.py":80:25)
#loc100 = loc("/NHNHOME/WORKSPACE/26msit001_A/jinhyeok/loop_TTT/lact/.cache_inductor_llm/ex/cexp4vq6meuv727uvtmnrumc4f4mosxtzirrmzk5stggja66wk4b.py":80:37)
#loc101 = loc("/NHNHOME/WORKSPACE/26msit001_A/jinhyeok/loop_TTT/lact/.cache_inductor_llm/ex/cexp4vq6meuv727uvtmnrumc4f4mosxtzirrmzk5stggja66wk4b.py":81:25)
#loc102 = loc("/NHNHOME/WORKSPACE/26msit001_A/jinhyeok/loop_TTT/lact/.cache_inductor_llm/ex/cexp4vq6meuv727uvtmnrumc4f4mosxtzirrmzk5stggja66wk4b.py":81:37)
#loc103 = loc("/NHNHOME/WORKSPACE/26msit001_A/jinhyeok/loop_TTT/lact/.cache_inductor_llm/ex/cexp4vq6meuv727uvtmnrumc4f4mosxtzirrmzk5stggja66wk4b.py":81:4)
#loc105 = loc("/NHNHOME/WORKSPACE/26msit001_A/jinhyeok/TTT_camera_embedding/.venv_llm/lib/python3.12/site-packages/triton/language/standard.py":291:36)
#loc107 = loc("/NHNHOME/WORKSPACE/26msit001_A/jinhyeok/TTT_camera_embedding/.venv_llm/lib/python3.12/site-packages/triton/language/standard.py":291:11)
#loc108 = loc("/NHNHOME/WORKSPACE/26msit001_A/jinhyeok/TTT_camera_embedding/.venv_llm/lib/python3.12/site-packages/triton/language/standard.py":291:4)
#loc110 = loc("/NHNHOME/WORKSPACE/26msit001_A/jinhyeok/TTT_camera_embedding/.venv_llm/lib/python3.12/site-packages/triton/language/standard.py":261:15)
#loc111 = loc("/NHNHOME/WORKSPACE/26msit001_A/jinhyeok/TTT_camera_embedding/.venv_llm/lib/python3.12/site-packages/triton/language/standard.py":261:11)
#loc112 = loc("/NHNHOME/WORKSPACE/26msit001_A/jinhyeok/TTT_camera_embedding/.venv_llm/lib/python3.12/site-packages/triton/language/standard.py":261:4)
#loc123 = loc("r0_numel"(#loc1))
#loc124 = loc("xoffset"(#loc2))
#loc125 = loc("xoffset"(#loc3))
#loc126 = loc("xindex"(#loc4))
#loc127 = loc("xindex"(#loc5))
#loc128 = loc("xindex"(#loc6))
#loc129 = loc("xmask"(#loc7))
#loc130 = loc("r0_base"(#loc8))
#loc131 = loc("r0_base"(#loc9))
#loc132 = loc("x0"(#loc10))
#loc133 = loc("x1"(#loc11))
#loc134 = loc("_tmp23"(#loc12))
#loc135 = loc("_tmp38"(#loc13))
#loc136 = loc("_tmp23"(#loc14))
#loc137 = loc("r0_index"(#loc15))
#loc138 = loc("r0_mask"(#loc16))
#loc139 = loc("tmp0"(#loc17))
#loc140 = loc("tmp0"(#loc18))
#loc141 = loc("tmp1"(#loc19))
#loc142 = loc("tmp2"(#loc20))
#loc143 = loc("tmp3"(#loc21))
#loc144 = loc("tmp3"(#loc22))
#loc145 = loc("tmp3"(#loc23))
#loc146 = loc("tmp3"(#loc24))
#loc147 = loc("tmp3"(#loc25))
#loc148 = loc("tmp3"(#loc26))
#loc149 = loc("tmp3"(#loc27))
#loc150 = loc("tmp3"(#loc28))
#loc151 = loc("tmp3"(#loc29))
#loc152 = loc("tmp3"(#loc30))
#loc153 = loc("tmp5"(#loc31))
#loc154 = loc("tmp5"(#loc32))
#loc155 = loc("tmp5"(#loc33))
#loc156 = loc("tmp5"(#loc34))
#loc157 = loc("tmp5"(#loc35))
#loc158 = loc("tmp5"(#loc36))
#loc159 = loc("tmp5"(#loc37))
#loc160 = loc("tmp5"(#loc38))
#loc161 = loc("tmp5"(#loc39))
#loc162 = loc("tmp5"(#loc40))
#loc163 = loc("tmp7"(#loc41))
#loc164 = loc("tmp7"(#loc42))
#loc165 = loc("tmp7"(#loc43))
#loc166 = loc("tmp7"(#loc44))
#loc167 = loc("tmp7"(#loc45))
#loc168 = loc("tmp8"(#loc46))
#loc169 = loc("tmp9"(#loc47))
#loc170 = loc("tmp10"(#loc48))
#loc171 = loc("tmp11"(#loc49))
#loc172 = loc("tmp12"(#loc50))
#loc173 = loc("tmp13"(#loc51))
#loc174 = loc("tmp13"(#loc52))
#loc175 = loc("tmp13"(#loc53))
#loc176 = loc("tmp13"(#loc54))
#loc177 = loc("tmp13"(#loc55))
#loc178 = loc("tmp14"(#loc56))
#loc179 = loc("tmp15"(#loc57))
#loc180 = loc("tmp16"(#loc58))
#loc181 = loc("tmp19"(#loc59))
#loc182 = loc("tmp20"(#loc60))
#loc183 = loc("tmp21"(#loc61))
#loc184 = loc("tmp24"(#loc62))
#loc185 = loc("_tmp23"(#loc63))
#loc186 = loc("_tmp23"(#loc64))
#loc187 = loc("tmp25"(#loc65))
#loc188 = loc("tmp25"(#loc66))
#loc189 = loc("tmp25"(#loc67))
#loc190 = loc("tmp25"(#loc68))
#loc191 = loc("tmp25"(#loc69))
#loc192 = loc("tmp25"(#loc70))
#loc193 = loc("tmp25"(#loc71))
#loc194 = loc("tmp25"(#loc72))
#loc195 = loc("tmp25"(#loc73))
#loc196 = loc("tmp25"(#loc74))
#loc197 = loc("tmp27"(#loc75))
#loc198 = loc("tmp27"(#loc76))
#loc199 = loc("tmp27"(#loc77))
#loc200 = loc("tmp27"(#loc78))
#loc201 = loc("tmp27"(#loc79))
#loc202 = loc("tmp27"(#loc80))
#loc203 = loc("tmp27"(#loc81))
#loc204 = loc("tmp27"(#loc82))
#loc205 = loc("tmp27"(#loc83))
#loc206 = loc("tmp27"(#loc84))
#loc207 = loc("tmp29"(#loc85))
#loc208 = loc("tmp30"(#loc86))
#loc209 = loc("tmp31"(#loc87))
#loc210 = loc("tmp34"(#loc88))
#loc211 = loc("tmp35"(#loc89))
#loc212 = loc("tmp36"(#loc90))
#loc213 = loc("tmp39"(#loc91))
#loc214 = loc("_tmp38"(#loc92))
#loc215 = loc("_tmp38"(#loc93))
#loc216 = loc("tmp23"(#loc95))
#loc217 = loc("tmp23"(#loc96))
#loc218 = loc("tmp38"(#loc97))
#loc219 = loc("tmp38"(#loc98))
#loc223 = loc("_tmp38"(#loc136))
