#loc = loc("/NHNHOME/WORKSPACE/26msit001_A/jinhyeok/loop_TTT/lact/.cache_inductor_llm/ja/cjatzpyccaqvwjujkkohxx7l4kbq7t2kpmrpclvrow4xem4cjya3.py":18:0)
#loc49 = loc("in_out_ptr0"(#loc))
#loc50 = loc("in_ptr0"(#loc))
#loc51 = loc("in_ptr1"(#loc))
#loc52 = loc("in_ptr2"(#loc))
#loc53 = loc("in_ptr3"(#loc))
#loc54 = loc("in_ptr4"(#loc))
#loc55 = loc("in_ptr5"(#loc))
#loc56 = loc("in_ptr6"(#loc))
#loc57 = loc("ynumel"(#loc))
#loc58 = loc("xnumel"(#loc))
module {
  tt.func public @triton_poi_fused__to_copy_add_div_eq_masked_fill_mul_43(%in_out_ptr0: !tt.ptr<bf16> {tt.divisibility = 16 : i32} loc("in_out_ptr0"(#loc)), %in_ptr0: !tt.ptr<bf16> {tt.divisibility = 16 : i32} loc("in_ptr0"(#loc)), %in_ptr1: !tt.ptr<bf16> {tt.divisibility = 16 : i32} loc("in_ptr1"(#loc)), %in_ptr2: !tt.ptr<f32> {tt.divisibility = 16 : i32} loc("in_ptr2"(#loc)), %in_ptr3: !tt.ptr<f32> {tt.divisibility = 16 : i32} loc("in_ptr3"(#loc)), %in_ptr4: !tt.ptr<f32> {tt.divisibility = 16 : i32} loc("in_ptr4"(#loc)), %in_ptr5: !tt.ptr<f32> {tt.divisibility = 16 : i32} loc("in_ptr5"(#loc)), %in_ptr6: !tt.ptr<bf16> {tt.divisibility = 16 : i32} loc("in_ptr6"(#loc)), %ynumel: i32 {tt.divisibility = 16 : i32} loc("ynumel"(#loc)), %xnumel: i32 {tt.divisibility = 16 : i32} loc("xnumel"(#loc))) attributes {noinline = false} {
    %tmp16 = arith.constant dense<0.000000e+00> : tensor<16x256xf32> loc(#loc59)
    %tmp12 = arith.constant dense<0.000000e+00> : tensor<16x1xf32> loc(#loc60)
    %cst = arith.constant dense<192> : tensor<16x1xi32> loc(#loc3)
    %xmask = arith.constant dense<192> : tensor<1x256xi32> loc(#loc61)
    %c256_i32 = arith.constant 256 : i32 loc(#loc3)
    %ymask = arith.constant dense<1536> : tensor<16x1xi32> loc(#loc62)
    %c16_i32 = arith.constant 16 : i32 loc(#loc3)
    %yoffset = tt.get_program_id y : i32 loc(#loc63)
    %yoffset_0 = arith.muli %yoffset, %c16_i32 : i32 loc(#loc64)
    %yindex = tt.make_range {end = 16 : i32, start = 0 : i32} : tensor<16xi32> loc(#loc65)
    %yindex_1 = tt.expand_dims %yindex {axis = 1 : i32} : tensor<16xi32> -> tensor<16x1xi32> loc(#loc66)
    %yindex_2 = tt.splat %yoffset_0 : i32 -> tensor<16x1xi32> loc(#loc67)
    %yindex_3 = arith.addi %yindex_2, %yindex_1 : tensor<16x1xi32> loc(#loc67)
    %ymask_4 = arith.cmpi slt, %yindex_3, %ymask : tensor<16x1xi32> loc(#loc62)
    %xoffset = tt.get_program_id x : i32 loc(#loc68)
    %xoffset_5 = arith.muli %xoffset, %c256_i32 : i32 loc(#loc69)
    %xindex = tt.make_range {end = 256 : i32, start = 0 : i32} : tensor<256xi32> loc(#loc70)
    %xindex_6 = tt.expand_dims %xindex {axis = 0 : i32} : tensor<256xi32> -> tensor<1x256xi32> loc(#loc71)
    %xindex_7 = tt.splat %xoffset_5 : i32 -> tensor<1x256xi32> loc(#loc72)
    %xindex_8 = arith.addi %xindex_7, %xindex_6 : tensor<1x256xi32> loc(#loc72)
    %xmask_9 = arith.cmpi slt, %xindex_8, %xmask : tensor<1x256xi32> loc(#loc61)
    %tmp0 = arith.muli %yindex_3, %cst : tensor<16x1xi32> loc(#loc73)
    %tmp0_10 = tt.broadcast %xindex_8 : tensor<1x256xi32> -> tensor<16x256xi32> loc(#loc74)
    %tmp0_11 = tt.broadcast %tmp0 : tensor<16x1xi32> -> tensor<16x256xi32> loc(#loc74)
    %tmp0_12 = arith.addi %tmp0_10, %tmp0_11 : tensor<16x256xi32> loc(#loc74)
    %tmp0_13 = tt.splat %in_out_ptr0 : !tt.ptr<bf16> -> tensor<16x256x!tt.ptr<bf16>> loc(#loc75)
    %tmp0_14 = tt.addptr %tmp0_13, %tmp0_12 : tensor<16x256x!tt.ptr<bf16>>, tensor<16x256xi32> loc(#loc75)
    %tmp0_15 = tt.broadcast %xmask_9 : tensor<1x256xi1> -> tensor<16x256xi1> loc(#loc76)
    %tmp0_16 = tt.broadcast %ymask_4 : tensor<16x1xi1> -> tensor<16x256xi1> loc(#loc76)
    %tmp0_17 = arith.andi %tmp0_15, %tmp0_16 : tensor<16x256xi1> loc(#loc76)
    %tmp0_18 = tt.load %tmp0_14, %tmp0_17 evictionPolicy = evict_last : tensor<16x256x!tt.ptr<bf16>> loc(#loc77)
    %tmp0_19 = arith.extf %tmp0_18 : tensor<16x256xbf16> to tensor<16x256xf32> loc(#loc78)
    %tmp1 = tt.splat %in_ptr0 : !tt.ptr<bf16> -> tensor<16x256x!tt.ptr<bf16>> loc(#loc79)
    %tmp1_20 = tt.addptr %tmp1, %tmp0_12 : tensor<16x256x!tt.ptr<bf16>>, tensor<16x256xi32> loc(#loc79)
    %tmp1_21 = tt.load %tmp1_20, %tmp0_17 evictionPolicy = evict_last : tensor<16x256x!tt.ptr<bf16>> loc(#loc80)
    %tmp1_22 = arith.extf %tmp1_21 : tensor<16x256xbf16> to tensor<16x256xf32> loc(#loc81)
    %tmp3 = tt.splat %in_ptr1 : !tt.ptr<bf16> -> tensor<16x256x!tt.ptr<bf16>> loc(#loc82)
    %tmp3_23 = tt.addptr %tmp3, %tmp0_12 : tensor<16x256x!tt.ptr<bf16>>, tensor<16x256xi32> loc(#loc82)
    %tmp3_24 = tt.load %tmp3_23, %tmp0_17 evictionPolicy = evict_last : tensor<16x256x!tt.ptr<bf16>> loc(#loc83)
    %tmp3_25 = arith.extf %tmp3_24 : tensor<16x256xbf16> to tensor<16x256xf32> loc(#loc84)
    %tmp5 = tt.splat %in_ptr2 : !tt.ptr<f32> -> tensor<16x1x!tt.ptr<f32>> loc(#loc85)
    %tmp5_26 = tt.addptr %tmp5, %yindex_3 : tensor<16x1x!tt.ptr<f32>>, tensor<16x1xi32> loc(#loc85)
    %tmp5_27 = tt.load %tmp5_26, %ymask_4 evictionPolicy = evict_last : tensor<16x1x!tt.ptr<f32>> loc(#loc86)
    %tmp6 = tt.splat %in_ptr3 : !tt.ptr<f32> -> tensor<16x1x!tt.ptr<f32>> loc(#loc87)
    %tmp6_28 = tt.addptr %tmp6, %yindex_3 : tensor<16x1x!tt.ptr<f32>>, tensor<16x1xi32> loc(#loc87)
    %tmp6_29 = tt.load %tmp6_28, %ymask_4 evictionPolicy = evict_last : tensor<16x1x!tt.ptr<f32>> loc(#loc88)
    %tmp8 = tt.splat %in_ptr4 : !tt.ptr<f32> -> tensor<16x1x!tt.ptr<f32>> loc(#loc89)
    %tmp8_30 = tt.addptr %tmp8, %yindex_3 : tensor<16x1x!tt.ptr<f32>>, tensor<16x1xi32> loc(#loc89)
    %tmp8_31 = tt.load %tmp8_30, %ymask_4 evictionPolicy = evict_last : tensor<16x1x!tt.ptr<f32>> loc(#loc90)
    %tmp10 = tt.splat %in_ptr5 : !tt.ptr<f32> -> tensor<16x1x!tt.ptr<f32>> loc(#loc91)
    %tmp10_32 = tt.addptr %tmp10, %yindex_3 : tensor<16x1x!tt.ptr<f32>>, tensor<16x1xi32> loc(#loc91)
    %tmp10_33 = tt.load %tmp10_32, %ymask_4 evictionPolicy = evict_last : tensor<16x1x!tt.ptr<f32>> loc(#loc92)
    %tmp13 = tt.splat %in_ptr6 : !tt.ptr<bf16> -> tensor<16x256x!tt.ptr<bf16>> loc(#loc93)
    %tmp13_34 = tt.addptr %tmp13, %tmp0_12 : tensor<16x256x!tt.ptr<bf16>>, tensor<16x256xi32> loc(#loc93)
    %tmp13_35 = tt.load %tmp13_34, %tmp0_17 evictionPolicy = evict_last : tensor<16x256x!tt.ptr<bf16>> loc(#loc94)
    %tmp13_36 = arith.extf %tmp13_35 : tensor<16x256xbf16> to tensor<16x256xf32> loc(#loc95)
    %tmp2 = arith.addf %tmp0_19, %tmp1_22 : tensor<16x256xf32> loc(#loc96)
    %tmp4 = arith.addf %tmp2, %tmp3_25 : tensor<16x256xf32> loc(#loc97)
    %tmp7 = arith.addf %tmp5_27, %tmp6_29 : tensor<16x1xf32> loc(#loc98)
    %tmp9 = arith.addf %tmp7, %tmp8_31 : tensor<16x1xf32> loc(#loc99)
    %tmp12_37 = arith.cmpf oeq, %tmp10_33, %tmp12 : tensor<16x1xf32> loc(#loc60)
    %tmp15 = tt.broadcast %tmp10_33 : tensor<16x1xf32> -> tensor<16x256xf32> loc(#loc100)
    %tmp15_38 = arith.divf %tmp13_36, %tmp15 : tensor<16x256xf32> loc(#loc100)
    %tmp16_39 = tt.broadcast %tmp12_37 : tensor<16x1xi1> -> tensor<16x256xi1> loc(#loc59)
    %tmp16_40 = arith.select %tmp16_39, %tmp16, %tmp15_38 : tensor<16x256xi1>, tensor<16x256xf32> loc(#loc59)
    %tmp17 = tt.broadcast %tmp9 : tensor<16x1xf32> -> tensor<16x256xf32> loc(#loc101)
    %tmp17_41 = arith.mulf %tmp17, %tmp16_40 : tensor<16x256xf32> loc(#loc101)
    %tmp19 = arith.addf %tmp4, %tmp17_41 : tensor<16x256xf32> loc(#loc102)
    gpu.barrier loc(#loc46)
    %0 = arith.truncf %tmp19 : tensor<16x256xf32> to tensor<16x256xbf16> loc(#loc47)
    tt.store %tmp0_14, %0, %tmp0_17 : tensor<16x256x!tt.ptr<bf16>> loc(#loc47)
    tt.return loc(#loc48)
  } loc(#loc)
} loc(#loc)
#loc1 = loc("/NHNHOME/WORKSPACE/26msit001_A/jinhyeok/loop_TTT/lact/.cache_inductor_llm/ja/cjatzpyccaqvwjujkkohxx7l4kbq7t2kpmrpclvrow4xem4cjya3.py":45:35)
#loc2 = loc("/NHNHOME/WORKSPACE/26msit001_A/jinhyeok/loop_TTT/lact/.cache_inductor_llm/ja/cjatzpyccaqvwjujkkohxx7l4kbq7t2kpmrpclvrow4xem4cjya3.py":42:21)
#loc3 = loc(unknown)
#loc4 = loc("/NHNHOME/WORKSPACE/26msit001_A/jinhyeok/loop_TTT/lact/.cache_inductor_llm/ja/cjatzpyccaqvwjujkkohxx7l4kbq7t2kpmrpclvrow4xem4cjya3.py":26:21)
#loc5 = loc("/NHNHOME/WORKSPACE/26msit001_A/jinhyeok/loop_TTT/lact/.cache_inductor_llm/ja/cjatzpyccaqvwjujkkohxx7l4kbq7t2kpmrpclvrow4xem4cjya3.py":23:21)
#loc6 = loc("/NHNHOME/WORKSPACE/26msit001_A/jinhyeok/loop_TTT/lact/.cache_inductor_llm/ja/cjatzpyccaqvwjujkkohxx7l4kbq7t2kpmrpclvrow4xem4cjya3.py":21:28)
#loc7 = loc("/NHNHOME/WORKSPACE/26msit001_A/jinhyeok/loop_TTT/lact/.cache_inductor_llm/ja/cjatzpyccaqvwjujkkohxx7l4kbq7t2kpmrpclvrow4xem4cjya3.py":21:33)
#loc8 = loc("/NHNHOME/WORKSPACE/26msit001_A/jinhyeok/loop_TTT/lact/.cache_inductor_llm/ja/cjatzpyccaqvwjujkkohxx7l4kbq7t2kpmrpclvrow4xem4cjya3.py":22:36)
#loc9 = loc("/NHNHOME/WORKSPACE/26msit001_A/jinhyeok/loop_TTT/lact/.cache_inductor_llm/ja/cjatzpyccaqvwjujkkohxx7l4kbq7t2kpmrpclvrow4xem4cjya3.py":22:44)
#loc10 = loc("/NHNHOME/WORKSPACE/26msit001_A/jinhyeok/loop_TTT/lact/.cache_inductor_llm/ja/cjatzpyccaqvwjujkkohxx7l4kbq7t2kpmrpclvrow4xem4cjya3.py":22:23)
#loc11 = loc("/NHNHOME/WORKSPACE/26msit001_A/jinhyeok/loop_TTT/lact/.cache_inductor_llm/ja/cjatzpyccaqvwjujkkohxx7l4kbq7t2kpmrpclvrow4xem4cjya3.py":24:28)
#loc12 = loc("/NHNHOME/WORKSPACE/26msit001_A/jinhyeok/loop_TTT/lact/.cache_inductor_llm/ja/cjatzpyccaqvwjujkkohxx7l4kbq7t2kpmrpclvrow4xem4cjya3.py":24:33)
#loc13 = loc("/NHNHOME/WORKSPACE/26msit001_A/jinhyeok/loop_TTT/lact/.cache_inductor_llm/ja/cjatzpyccaqvwjujkkohxx7l4kbq7t2kpmrpclvrow4xem4cjya3.py":25:36)
#loc14 = loc("/NHNHOME/WORKSPACE/26msit001_A/jinhyeok/loop_TTT/lact/.cache_inductor_llm/ja/cjatzpyccaqvwjujkkohxx7l4kbq7t2kpmrpclvrow4xem4cjya3.py":25:44)
#loc15 = loc("/NHNHOME/WORKSPACE/26msit001_A/jinhyeok/loop_TTT/lact/.cache_inductor_llm/ja/cjatzpyccaqvwjujkkohxx7l4kbq7t2kpmrpclvrow4xem4cjya3.py":25:23)
#loc16 = loc("/NHNHOME/WORKSPACE/26msit001_A/jinhyeok/loop_TTT/lact/.cache_inductor_llm/ja/cjatzpyccaqvwjujkkohxx7l4kbq7t2kpmrpclvrow4xem4cjya3.py":29:43)
#loc17 = loc("/NHNHOME/WORKSPACE/26msit001_A/jinhyeok/loop_TTT/lact/.cache_inductor_llm/ja/cjatzpyccaqvwjujkkohxx7l4kbq7t2kpmrpclvrow4xem4cjya3.py":29:39)
#loc18 = loc("/NHNHOME/WORKSPACE/26msit001_A/jinhyeok/loop_TTT/lact/.cache_inductor_llm/ja/cjatzpyccaqvwjujkkohxx7l4kbq7t2kpmrpclvrow4xem4cjya3.py":29:34)
#loc19 = loc("/NHNHOME/WORKSPACE/26msit001_A/jinhyeok/loop_TTT/lact/.cache_inductor_llm/ja/cjatzpyccaqvwjujkkohxx7l4kbq7t2kpmrpclvrow4xem4cjya3.py":29:56)
#loc20 = loc("/NHNHOME/WORKSPACE/26msit001_A/jinhyeok/loop_TTT/lact/.cache_inductor_llm/ja/cjatzpyccaqvwjujkkohxx7l4kbq7t2kpmrpclvrow4xem4cjya3.py":29:48)
#loc21 = loc("/NHNHOME/WORKSPACE/26msit001_A/jinhyeok/loop_TTT/lact/.cache_inductor_llm/ja/cjatzpyccaqvwjujkkohxx7l4kbq7t2kpmrpclvrow4xem4cjya3.py":29:96)
#loc22 = loc("/NHNHOME/WORKSPACE/26msit001_A/jinhyeok/loop_TTT/lact/.cache_inductor_llm/ja/cjatzpyccaqvwjujkkohxx7l4kbq7t2kpmrpclvrow4xem4cjya3.py":30:30)
#loc23 = loc("/NHNHOME/WORKSPACE/26msit001_A/jinhyeok/loop_TTT/lact/.cache_inductor_llm/ja/cjatzpyccaqvwjujkkohxx7l4kbq7t2kpmrpclvrow4xem4cjya3.py":30:44)
#loc24 = loc("/NHNHOME/WORKSPACE/26msit001_A/jinhyeok/loop_TTT/lact/.cache_inductor_llm/ja/cjatzpyccaqvwjujkkohxx7l4kbq7t2kpmrpclvrow4xem4cjya3.py":30:92)
#loc25 = loc("/NHNHOME/WORKSPACE/26msit001_A/jinhyeok/loop_TTT/lact/.cache_inductor_llm/ja/cjatzpyccaqvwjujkkohxx7l4kbq7t2kpmrpclvrow4xem4cjya3.py":31:30)
#loc26 = loc("/NHNHOME/WORKSPACE/26msit001_A/jinhyeok/loop_TTT/lact/.cache_inductor_llm/ja/cjatzpyccaqvwjujkkohxx7l4kbq7t2kpmrpclvrow4xem4cjya3.py":31:44)
#loc27 = loc("/NHNHOME/WORKSPACE/26msit001_A/jinhyeok/loop_TTT/lact/.cache_inductor_llm/ja/cjatzpyccaqvwjujkkohxx7l4kbq7t2kpmrpclvrow4xem4cjya3.py":31:92)
#loc28 = loc("/NHNHOME/WORKSPACE/26msit001_A/jinhyeok/loop_TTT/lact/.cache_inductor_llm/ja/cjatzpyccaqvwjujkkohxx7l4kbq7t2kpmrpclvrow4xem4cjya3.py":32:30)
#loc29 = loc("/NHNHOME/WORKSPACE/26msit001_A/jinhyeok/loop_TTT/lact/.cache_inductor_llm/ja/cjatzpyccaqvwjujkkohxx7l4kbq7t2kpmrpclvrow4xem4cjya3.py":32:35)
#loc30 = loc("/NHNHOME/WORKSPACE/26msit001_A/jinhyeok/loop_TTT/lact/.cache_inductor_llm/ja/cjatzpyccaqvwjujkkohxx7l4kbq7t2kpmrpclvrow4xem4cjya3.py":33:30)
#loc31 = loc("/NHNHOME/WORKSPACE/26msit001_A/jinhyeok/loop_TTT/lact/.cache_inductor_llm/ja/cjatzpyccaqvwjujkkohxx7l4kbq7t2kpmrpclvrow4xem4cjya3.py":33:35)
#loc32 = loc("/NHNHOME/WORKSPACE/26msit001_A/jinhyeok/loop_TTT/lact/.cache_inductor_llm/ja/cjatzpyccaqvwjujkkohxx7l4kbq7t2kpmrpclvrow4xem4cjya3.py":34:30)
#loc33 = loc("/NHNHOME/WORKSPACE/26msit001_A/jinhyeok/loop_TTT/lact/.cache_inductor_llm/ja/cjatzpyccaqvwjujkkohxx7l4kbq7t2kpmrpclvrow4xem4cjya3.py":34:35)
#loc34 = loc("/NHNHOME/WORKSPACE/26msit001_A/jinhyeok/loop_TTT/lact/.cache_inductor_llm/ja/cjatzpyccaqvwjujkkohxx7l4kbq7t2kpmrpclvrow4xem4cjya3.py":35:31)
#loc35 = loc("/NHNHOME/WORKSPACE/26msit001_A/jinhyeok/loop_TTT/lact/.cache_inductor_llm/ja/cjatzpyccaqvwjujkkohxx7l4kbq7t2kpmrpclvrow4xem4cjya3.py":35:36)
#loc36 = loc("/NHNHOME/WORKSPACE/26msit001_A/jinhyeok/loop_TTT/lact/.cache_inductor_llm/ja/cjatzpyccaqvwjujkkohxx7l4kbq7t2kpmrpclvrow4xem4cjya3.py":36:31)
#loc37 = loc("/NHNHOME/WORKSPACE/26msit001_A/jinhyeok/loop_TTT/lact/.cache_inductor_llm/ja/cjatzpyccaqvwjujkkohxx7l4kbq7t2kpmrpclvrow4xem4cjya3.py":36:45)
#loc38 = loc("/NHNHOME/WORKSPACE/26msit001_A/jinhyeok/loop_TTT/lact/.cache_inductor_llm/ja/cjatzpyccaqvwjujkkohxx7l4kbq7t2kpmrpclvrow4xem4cjya3.py":36:93)
#loc39 = loc("/NHNHOME/WORKSPACE/26msit001_A/jinhyeok/loop_TTT/lact/.cache_inductor_llm/ja/cjatzpyccaqvwjujkkohxx7l4kbq7t2kpmrpclvrow4xem4cjya3.py":37:18)
#loc40 = loc("/NHNHOME/WORKSPACE/26msit001_A/jinhyeok/loop_TTT/lact/.cache_inductor_llm/ja/cjatzpyccaqvwjujkkohxx7l4kbq7t2kpmrpclvrow4xem4cjya3.py":38:18)
#loc41 = loc("/NHNHOME/WORKSPACE/26msit001_A/jinhyeok/loop_TTT/lact/.cache_inductor_llm/ja/cjatzpyccaqvwjujkkohxx7l4kbq7t2kpmrpclvrow4xem4cjya3.py":39:18)
#loc42 = loc("/NHNHOME/WORKSPACE/26msit001_A/jinhyeok/loop_TTT/lact/.cache_inductor_llm/ja/cjatzpyccaqvwjujkkohxx7l4kbq7t2kpmrpclvrow4xem4cjya3.py":40:18)
#loc43 = loc("/NHNHOME/WORKSPACE/26msit001_A/jinhyeok/loop_TTT/lact/.cache_inductor_llm/ja/cjatzpyccaqvwjujkkohxx7l4kbq7t2kpmrpclvrow4xem4cjya3.py":44:21)
#loc44 = loc("/NHNHOME/WORKSPACE/26msit001_A/jinhyeok/loop_TTT/lact/.cache_inductor_llm/ja/cjatzpyccaqvwjujkkohxx7l4kbq7t2kpmrpclvrow4xem4cjya3.py":46:19)
#loc45 = loc("/NHNHOME/WORKSPACE/26msit001_A/jinhyeok/loop_TTT/lact/.cache_inductor_llm/ja/cjatzpyccaqvwjujkkohxx7l4kbq7t2kpmrpclvrow4xem4cjya3.py":48:19)
#loc46 = loc("/NHNHOME/WORKSPACE/26msit001_A/jinhyeok/loop_TTT/lact/.cache_inductor_llm/ja/cjatzpyccaqvwjujkkohxx7l4kbq7t2kpmrpclvrow4xem4cjya3.py":49:4)
#loc47 = loc("/NHNHOME/WORKSPACE/26msit001_A/jinhyeok/loop_TTT/lact/.cache_inductor_llm/ja/cjatzpyccaqvwjujkkohxx7l4kbq7t2kpmrpclvrow4xem4cjya3.py":50:49)
#loc48 = loc("/NHNHOME/WORKSPACE/26msit001_A/jinhyeok/loop_TTT/lact/.cache_inductor_llm/ja/cjatzpyccaqvwjujkkohxx7l4kbq7t2kpmrpclvrow4xem4cjya3.py":50:4)
#loc59 = loc("tmp16"(#loc1))
#loc60 = loc("tmp12"(#loc2))
#loc61 = loc("xmask"(#loc4))
#loc62 = loc("ymask"(#loc5))
#loc63 = loc("yoffset"(#loc6))
#loc64 = loc("yoffset"(#loc7))
#loc65 = loc("yindex"(#loc8))
#loc66 = loc("yindex"(#loc9))
#loc67 = loc("yindex"(#loc10))
#loc68 = loc("xoffset"(#loc11))
#loc69 = loc("xoffset"(#loc12))
#loc70 = loc("xindex"(#loc13))
#loc71 = loc("xindex"(#loc14))
#loc72 = loc("xindex"(#loc15))
#loc73 = loc("tmp0"(#loc16))
#loc74 = loc("tmp0"(#loc17))
#loc75 = loc("tmp0"(#loc18))
#loc76 = loc("tmp0"(#loc19))
#loc77 = loc("tmp0"(#loc20))
#loc78 = loc("tmp0"(#loc21))
#loc79 = loc("tmp1"(#loc22))
#loc80 = loc("tmp1"(#loc23))
#loc81 = loc("tmp1"(#loc24))
#loc82 = loc("tmp3"(#loc25))
#loc83 = loc("tmp3"(#loc26))
#loc84 = loc("tmp3"(#loc27))
#loc85 = loc("tmp5"(#loc28))
#loc86 = loc("tmp5"(#loc29))
#loc87 = loc("tmp6"(#loc30))
#loc88 = loc("tmp6"(#loc31))
#loc89 = loc("tmp8"(#loc32))
#loc90 = loc("tmp8"(#loc33))
#loc91 = loc("tmp10"(#loc34))
#loc92 = loc("tmp10"(#loc35))
#loc93 = loc("tmp13"(#loc36))
#loc94 = loc("tmp13"(#loc37))
#loc95 = loc("tmp13"(#loc38))
#loc96 = loc("tmp2"(#loc39))
#loc97 = loc("tmp4"(#loc40))
#loc98 = loc("tmp7"(#loc41))
#loc99 = loc("tmp9"(#loc42))
#loc100 = loc("tmp15"(#loc43))
#loc101 = loc("tmp17"(#loc44))
#loc102 = loc("tmp19"(#loc45))
