#loc = loc("/NHNHOME/WORKSPACE/26msit001_A/jinhyeok/loop_TTT/lact/.cache_inductor_llm/5m/c5m7wwzc4qom3jtjlj453ig2usqfglpm2ptw2i6zvwnd2xkeofmh.py":18:0)
#loc77 = loc("in_ptr0"(#loc))
#loc78 = loc("in_ptr1"(#loc))
#loc79 = loc("in_ptr2"(#loc))
#loc80 = loc("in_ptr3"(#loc))
#loc81 = loc("in_ptr4"(#loc))
#loc82 = loc("in_ptr5"(#loc))
#loc83 = loc("in_ptr6"(#loc))
#loc84 = loc("out_ptr0"(#loc))
#loc85 = loc("out_ptr1"(#loc))
#loc86 = loc("out_ptr2"(#loc))
#loc87 = loc("out_ptr3"(#loc))
#loc88 = loc("out_ptr4"(#loc))
#loc89 = loc("out_ptr5"(#loc))
#loc90 = loc("ynumel"(#loc))
#loc91 = loc("xnumel"(#loc))
module {
  tt.func public @triton_poi_fused__to_copy_add_div_linalg_vector_norm_mean_mul_slice_transpose_zeros_like_13(%in_ptr0: !tt.ptr<bf16> {tt.divisibility = 16 : i32} loc("in_ptr0"(#loc)), %in_ptr1: !tt.ptr<f32> {tt.divisibility = 16 : i32} loc("in_ptr1"(#loc)), %in_ptr2: !tt.ptr<f32> {tt.divisibility = 16 : i32} loc("in_ptr2"(#loc)), %in_ptr3: !tt.ptr<bf16> {tt.divisibility = 16 : i32} loc("in_ptr3"(#loc)), %in_ptr4: !tt.ptr<bf16> {tt.divisibility = 16 : i32} loc("in_ptr4"(#loc)), %in_ptr5: !tt.ptr<bf16> {tt.divisibility = 16 : i32} loc("in_ptr5"(#loc)), %in_ptr6: !tt.ptr<f32> {tt.divisibility = 16 : i32} loc("in_ptr6"(#loc)), %out_ptr0: !tt.ptr<f32> {tt.divisibility = 16 : i32} loc("out_ptr0"(#loc)), %out_ptr1: !tt.ptr<bf16> {tt.divisibility = 16 : i32} loc("out_ptr1"(#loc)), %out_ptr2: !tt.ptr<bf16> {tt.divisibility = 16 : i32} loc("out_ptr2"(#loc)), %out_ptr3: !tt.ptr<bf16> {tt.divisibility = 16 : i32} loc("out_ptr3"(#loc)), %out_ptr4: !tt.ptr<bf16> {tt.divisibility = 16 : i32} loc("out_ptr4"(#loc)), %out_ptr5: !tt.ptr<bf16> {tt.divisibility = 16 : i32} loc("out_ptr5"(#loc)), %ynumel: i32 {tt.divisibility = 16 : i32} loc("ynumel"(#loc)), %xnumel: i32 {tt.divisibility = 16 : i32} loc("xnumel"(#loc))) attributes {noinline = false} {
    %tmp21 = arith.constant dense<3.950500e+00> : tensor<16x256xf32> loc(#loc92)
    %tmp16 = arith.constant dense<4.084800e+00> : tensor<16x256xf32> loc(#loc93)
    %cst = arith.constant dense<1.000000e-07> : tensor<16x1xf32> loc(#loc3)
    %tmp6 = arith.constant dense<0.000000e+00> : tensor<16x1xf32> loc(#loc94)
    %tmp4 = arith.constant dense<1.024000e+03> : tensor<16x1xf32> loc(#loc95)
    %tmp36 = arith.constant dense<36864> : tensor<16x1xi32> loc(#loc96)
    %cst_0 = arith.constant dense<192> : tensor<16x1xi32> loc(#loc3)
    %cst_1 = arith.constant dense<192> : tensor<1x256xi32> loc(#loc3)
    %c256_i32 = arith.constant 256 : i32 loc(#loc3)
    %c16_i32 = arith.constant 16 : i32 loc(#loc3)
    %yoffset = tt.get_program_id y : i32 loc(#loc97)
    %yoffset_2 = tt.get_program_id z : i32 loc(#loc98)
    %yoffset_3 = tt.get_num_programs y : i32 loc(#loc99)
    %yoffset_4 = arith.muli %yoffset_2, %yoffset_3 : i32 loc(#loc100)
    %yoffset_5 = arith.addi %yoffset, %yoffset_4 : i32 loc(#loc101)
    %yoffset_6 = arith.muli %yoffset_5, %c16_i32 : i32 loc(#loc102)
    %yindex = tt.make_range {end = 16 : i32, start = 0 : i32} : tensor<16xi32> loc(#loc103)
    %yindex_7 = tt.expand_dims %yindex {axis = 1 : i32} : tensor<16xi32> -> tensor<16x1xi32> loc(#loc104)
    %yindex_8 = tt.splat %yoffset_6 : i32 -> tensor<16x1xi32> loc(#loc105)
    %yindex_9 = arith.addi %yindex_8, %yindex_7 : tensor<16x1xi32> loc(#loc105)
    %ymask = tt.splat %ynumel : i32 -> tensor<16x1xi32> loc(#loc106)
    %ymask_10 = arith.cmpi slt, %yindex_9, %ymask : tensor<16x1xi32> loc(#loc106)
    %xoffset = tt.get_program_id x : i32 loc(#loc107)
    %xoffset_11 = arith.muli %xoffset, %c256_i32 : i32 loc(#loc108)
    %xindex = tt.make_range {end = 256 : i32, start = 0 : i32} : tensor<256xi32> loc(#loc109)
    %xindex_12 = tt.expand_dims %xindex {axis = 0 : i32} : tensor<256xi32> -> tensor<1x256xi32> loc(#loc110)
    %xindex_13 = tt.splat %xoffset_11 : i32 -> tensor<1x256xi32> loc(#loc111)
    %xindex_14 = arith.addi %xindex_13, %xindex_12 : tensor<1x256xi32> loc(#loc111)
    %xmask = arith.cmpi slt, %xindex_14, %cst_1 : tensor<1x256xi32> loc(#loc112)
    %y1 = arith.divsi %yindex_9, %cst_0 : tensor<16x1xi32> loc(#loc113)
    %y0 = arith.remsi %yindex_9, %cst_0 : tensor<16x1xi32> loc(#loc114)
    %tmp0 = arith.muli %yindex_9, %cst_0 : tensor<16x1xi32> loc(#loc115)
    %tmp0_15 = tt.broadcast %xindex_14 : tensor<1x256xi32> -> tensor<16x256xi32> loc(#loc116)
    %tmp0_16 = tt.broadcast %tmp0 : tensor<16x1xi32> -> tensor<16x256xi32> loc(#loc116)
    %tmp0_17 = arith.addi %tmp0_15, %tmp0_16 : tensor<16x256xi32> loc(#loc116)
    %tmp0_18 = tt.splat %in_ptr0 : !tt.ptr<bf16> -> tensor<16x256x!tt.ptr<bf16>> loc(#loc117)
    %tmp0_19 = tt.addptr %tmp0_18, %tmp0_17 : tensor<16x256x!tt.ptr<bf16>>, tensor<16x256xi32> loc(#loc117)
    %tmp0_20 = tt.broadcast %xmask : tensor<1x256xi1> -> tensor<16x256xi1> loc(#loc118)
    %tmp0_21 = tt.broadcast %ymask_10 : tensor<16x1xi1> -> tensor<16x256xi1> loc(#loc118)
    %tmp0_22 = arith.andi %tmp0_20, %tmp0_21 : tensor<16x256xi1> loc(#loc118)
    %tmp0_23 = tt.load %tmp0_19, %tmp0_22 evictionPolicy = evict_last : tensor<16x256x!tt.ptr<bf16>> loc(#loc119)
    %tmp0_24 = arith.extf %tmp0_23 : tensor<16x256xbf16> to tensor<16x256xf32> loc(#loc120)
    %tmp2 = tt.splat %in_ptr1 : !tt.ptr<f32> -> tensor<16x1x!tt.ptr<f32>> loc(#loc121)
    %tmp2_25 = tt.addptr %tmp2, %y1 : tensor<16x1x!tt.ptr<f32>>, tensor<16x1xi32> loc(#loc121)
    %tmp2_26 = tt.load %tmp2_25, %ymask_10 evictionPolicy = evict_last : tensor<16x1x!tt.ptr<f32>> loc(#loc122)
    %tmp10 = tt.splat %in_ptr2 : !tt.ptr<f32> -> tensor<16x1x!tt.ptr<f32>> loc(#loc123)
    %tmp10_27 = tt.addptr %tmp10, %y1 : tensor<16x1x!tt.ptr<f32>>, tensor<16x1xi32> loc(#loc123)
    %tmp10_28 = tt.load %tmp10_27, %ymask_10 evictionPolicy = evict_last : tensor<16x1x!tt.ptr<f32>> loc(#loc124)
    %tmp17 = tt.splat %in_ptr3 : !tt.ptr<bf16> -> tensor<16x256x!tt.ptr<bf16>> loc(#loc125)
    %tmp17_29 = tt.addptr %tmp17, %tmp0_17 : tensor<16x256x!tt.ptr<bf16>>, tensor<16x256xi32> loc(#loc125)
    %tmp17_30 = tt.load %tmp17_29, %tmp0_22 evictionPolicy = evict_last : tensor<16x256x!tt.ptr<bf16>> loc(#loc126)
    %tmp17_31 = arith.extf %tmp17_30 : tensor<16x256xbf16> to tensor<16x256xf32> loc(#loc127)
    %tmp22 = tt.splat %in_ptr4 : !tt.ptr<bf16> -> tensor<16x256x!tt.ptr<bf16>> loc(#loc128)
    %tmp22_32 = tt.addptr %tmp22, %tmp0_17 : tensor<16x256x!tt.ptr<bf16>>, tensor<16x256xi32> loc(#loc128)
    %tmp22_33 = tt.load %tmp22_32, %tmp0_22 evictionPolicy = evict_last : tensor<16x256x!tt.ptr<bf16>> loc(#loc129)
    %tmp22_34 = arith.extf %tmp22_33 : tensor<16x256xbf16> to tensor<16x256xf32> loc(#loc130)
    %tmp26 = tt.splat %in_ptr5 : !tt.ptr<bf16> -> tensor<16x256x!tt.ptr<bf16>> loc(#loc131)
    %tmp26_35 = tt.addptr %tmp26, %tmp0_17 : tensor<16x256x!tt.ptr<bf16>>, tensor<16x256xi32> loc(#loc131)
    %tmp26_36 = tt.load %tmp26_35, %tmp0_22 evictionPolicy = evict_last : tensor<16x256x!tt.ptr<bf16>> loc(#loc132)
    %tmp26_37 = arith.extf %tmp26_36 : tensor<16x256xbf16> to tensor<16x256xf32> loc(#loc133)
    %tmp31 = tt.splat %in_ptr6 : !tt.ptr<f32> -> tensor<16x1x!tt.ptr<f32>> loc(#loc134)
    %tmp31_38 = tt.addptr %tmp31, %y1 : tensor<16x1x!tt.ptr<f32>>, tensor<16x1xi32> loc(#loc134)
    %tmp31_39 = tt.load %tmp31_38, %ymask_10 evictionPolicy = evict_last : tensor<16x1x!tt.ptr<f32>> loc(#loc135)
    %tmp36_40 = arith.muli %xindex_14, %cst_1 : tensor<1x256xi32> loc(#loc136)
    %tmp36_41 = tt.broadcast %y0 : tensor<16x1xi32> -> tensor<16x256xi32> loc(#loc137)
    %tmp36_42 = tt.broadcast %tmp36_40 : tensor<1x256xi32> -> tensor<16x256xi32> loc(#loc137)
    %tmp36_43 = arith.addi %tmp36_41, %tmp36_42 : tensor<16x256xi32> loc(#loc137)
    %tmp36_44 = arith.muli %y1, %tmp36 : tensor<16x1xi32> loc(#loc96)
    %tmp36_45 = tt.broadcast %tmp36_44 : tensor<16x1xi32> -> tensor<16x256xi32> loc(#loc138)
    %tmp36_46 = arith.addi %tmp36_43, %tmp36_45 : tensor<16x256xi32> loc(#loc138)
    %tmp36_47 = tt.addptr %tmp26, %tmp36_46 : tensor<16x256x!tt.ptr<bf16>>, tensor<16x256xi32> loc(#loc139)
    %tmp36_48 = tt.load %tmp36_47, %tmp0_22 evictionPolicy = evict_last : tensor<16x256x!tt.ptr<bf16>> loc(#loc140)
    %tmp36_49 = arith.extf %tmp36_48 : tensor<16x256xbf16> to tensor<16x256xf32> loc(#loc141)
    %tmp4_50 = arith.divf %tmp2_26, %tmp4 : tensor<16x1xf32> loc(#loc95)
    %tmp6_51 = arith.mulf %tmp4_50, %tmp6 : tensor<16x1xf32> loc(#loc94)
    %tmp7 = tt.broadcast %tmp6_51 : tensor<16x1xf32> -> tensor<16x256xf32> loc(#loc142)
    %tmp7_52 = arith.addf %tmp0_24, %tmp7 : tensor<16x256xf32> loc(#loc142)
    %tmp11 = tt.extern_elementwise %tmp10_28 {libname = "", libpath = "", pure = true, symbol = "__nv_sqrtf"} : (tensor<16x1xf32>) -> tensor<16x1xf32> loc(#loc143)
    %tmp13 = arith.addf %tmp11, %cst : tensor<16x1xf32> loc(#loc144)
    %tmp14 = tt.broadcast %tmp13 : tensor<16x1xf32> -> tensor<16x256xf32> loc(#loc145)
    %tmp14_53 = arith.divf %tmp7_52, %tmp14 : tensor<16x256xf32> loc(#loc145)
    %tmp16_54 = arith.mulf %tmp14_53, %tmp16 : tensor<16x256xf32> loc(#loc93)
    %tmp19 = arith.addf %tmp16_54, %tmp17_31 : tensor<16x256xf32> loc(#loc146)
    %tmp21_55 = arith.mulf %tmp19, %tmp21 : tensor<16x256xf32> loc(#loc92)
    %tmp24 = arith.addf %tmp21_55, %tmp22_34 : tensor<16x256xf32> loc(#loc147)
    %tmp28 = arith.addf %tmp26_37, %tmp7 : tensor<16x256xf32> loc(#loc148)
    %tmp32 = tt.extern_elementwise %tmp31_39 {libname = "", libpath = "", pure = true, symbol = "__nv_sqrtf"} : (tensor<16x1xf32>) -> tensor<16x1xf32> loc(#loc149)
    %tmp33 = arith.addf %tmp32, %cst : tensor<16x1xf32> loc(#loc150)
    %tmp34 = tt.broadcast %tmp33 : tensor<16x1xf32> -> tensor<16x256xf32> loc(#loc151)
    %tmp34_56 = arith.divf %tmp28, %tmp34 : tensor<16x256xf32> loc(#loc151)
    %tmp38 = arith.addf %tmp36_49, %tmp7 : tensor<16x256xf32> loc(#loc152)
    %tmp41 = arith.divf %tmp38, %tmp34 : tensor<16x256xf32> loc(#loc153)
    %0 = tt.splat %out_ptr0 : !tt.ptr<f32> -> tensor<16x256x!tt.ptr<f32>> loc(#loc64)
    %1 = tt.addptr %0, %tmp0_17 : tensor<16x256x!tt.ptr<f32>>, tensor<16x256xi32> loc(#loc64)
    tt.store %1, %tmp24, %tmp0_22 : tensor<16x256x!tt.ptr<f32>> loc(#loc65)
    %2 = tt.splat %out_ptr1 : !tt.ptr<bf16> -> tensor<16x256x!tt.ptr<bf16>> loc(#loc66)
    %3 = tt.addptr %2, %tmp0_17 : tensor<16x256x!tt.ptr<bf16>>, tensor<16x256xi32> loc(#loc66)
    %4 = arith.truncf %tmp24 : tensor<16x256xf32> to tensor<16x256xbf16> loc(#loc67)
    tt.store %3, %4, %tmp0_22 : tensor<16x256x!tt.ptr<bf16>> loc(#loc67)
    %5 = tt.splat %out_ptr2 : !tt.ptr<bf16> -> tensor<16x256x!tt.ptr<bf16>> loc(#loc68)
    %6 = tt.addptr %5, %tmp0_17 : tensor<16x256x!tt.ptr<bf16>>, tensor<16x256xi32> loc(#loc68)
    tt.store %6, %4, %tmp0_22 : tensor<16x256x!tt.ptr<bf16>> loc(#loc69)
    %7 = tt.splat %out_ptr3 : !tt.ptr<bf16> -> tensor<16x256x!tt.ptr<bf16>> loc(#loc70)
    %8 = tt.addptr %7, %tmp0_17 : tensor<16x256x!tt.ptr<bf16>>, tensor<16x256xi32> loc(#loc70)
    %9 = arith.truncf %tmp34_56 : tensor<16x256xf32> to tensor<16x256xbf16> loc(#loc71)
    tt.store %8, %9, %tmp0_22 : tensor<16x256x!tt.ptr<bf16>> loc(#loc71)
    %10 = tt.splat %out_ptr4 : !tt.ptr<bf16> -> tensor<16x256x!tt.ptr<bf16>> loc(#loc72)
    %11 = tt.addptr %10, %tmp0_17 : tensor<16x256x!tt.ptr<bf16>>, tensor<16x256xi32> loc(#loc72)
    tt.store %11, %9, %tmp0_22 : tensor<16x256x!tt.ptr<bf16>> loc(#loc73)
    %12 = tt.splat %out_ptr5 : !tt.ptr<bf16> -> tensor<16x256x!tt.ptr<bf16>> loc(#loc74)
    %13 = tt.addptr %12, %tmp0_17 : tensor<16x256x!tt.ptr<bf16>>, tensor<16x256xi32> loc(#loc74)
    %14 = arith.truncf %tmp41 : tensor<16x256xf32> to tensor<16x256xbf16> loc(#loc75)
    tt.store %13, %14, %tmp0_22 : tensor<16x256x!tt.ptr<bf16>> loc(#loc75)
    tt.return loc(#loc76)
  } loc(#loc)
} loc(#loc)
#loc1 = loc("/NHNHOME/WORKSPACE/26msit001_A/jinhyeok/loop_TTT/lact/.cache_inductor_llm/5m/c5m7wwzc4qom3jtjlj453ig2usqfglpm2ptw2i6zvwnd2xkeofmh.py":55:20)
#loc2 = loc("/NHNHOME/WORKSPACE/26msit001_A/jinhyeok/loop_TTT/lact/.cache_inductor_llm/5m/c5m7wwzc4qom3jtjlj453ig2usqfglpm2ptw2i6zvwnd2xkeofmh.py":51:20)
#loc3 = loc(unknown)
#loc4 = loc("/NHNHOME/WORKSPACE/26msit001_A/jinhyeok/loop_TTT/lact/.cache_inductor_llm/5m/c5m7wwzc4qom3jtjlj453ig2usqfglpm2ptw2i6zvwnd2xkeofmh.py":42:18)
#loc5 = loc("/NHNHOME/WORKSPACE/26msit001_A/jinhyeok/loop_TTT/lact/.cache_inductor_llm/5m/c5m7wwzc4qom3jtjlj453ig2usqfglpm2ptw2i6zvwnd2xkeofmh.py":40:19)
#loc6 = loc("/NHNHOME/WORKSPACE/26msit001_A/jinhyeok/loop_TTT/lact/.cache_inductor_llm/5m/c5m7wwzc4qom3jtjlj453ig2usqfglpm2ptw2i6zvwnd2xkeofmh.py":37:51)
#loc7 = loc("/NHNHOME/WORKSPACE/26msit001_A/jinhyeok/loop_TTT/lact/.cache_inductor_llm/5m/c5m7wwzc4qom3jtjlj453ig2usqfglpm2ptw2i6zvwnd2xkeofmh.py":20:29)
#loc8 = loc("/NHNHOME/WORKSPACE/26msit001_A/jinhyeok/loop_TTT/lact/.cache_inductor_llm/5m/c5m7wwzc4qom3jtjlj453ig2usqfglpm2ptw2i6zvwnd2xkeofmh.py":20:48)
#loc9 = loc("/NHNHOME/WORKSPACE/26msit001_A/jinhyeok/loop_TTT/lact/.cache_inductor_llm/5m/c5m7wwzc4qom3jtjlj453ig2usqfglpm2ptw2i6zvwnd2xkeofmh.py":20:69)
#loc10 = loc("/NHNHOME/WORKSPACE/26msit001_A/jinhyeok/loop_TTT/lact/.cache_inductor_llm/5m/c5m7wwzc4qom3jtjlj453ig2usqfglpm2ptw2i6zvwnd2xkeofmh.py":20:53)
#loc11 = loc("/NHNHOME/WORKSPACE/26msit001_A/jinhyeok/loop_TTT/lact/.cache_inductor_llm/5m/c5m7wwzc4qom3jtjlj453ig2usqfglpm2ptw2i6zvwnd2xkeofmh.py":20:34)
#loc12 = loc("/NHNHOME/WORKSPACE/26msit001_A/jinhyeok/loop_TTT/lact/.cache_inductor_llm/5m/c5m7wwzc4qom3jtjlj453ig2usqfglpm2ptw2i6zvwnd2xkeofmh.py":20:75)
#loc13 = loc("/NHNHOME/WORKSPACE/26msit001_A/jinhyeok/loop_TTT/lact/.cache_inductor_llm/5m/c5m7wwzc4qom3jtjlj453ig2usqfglpm2ptw2i6zvwnd2xkeofmh.py":21:36)
#loc14 = loc("/NHNHOME/WORKSPACE/26msit001_A/jinhyeok/loop_TTT/lact/.cache_inductor_llm/5m/c5m7wwzc4qom3jtjlj453ig2usqfglpm2ptw2i6zvwnd2xkeofmh.py":21:44)
#loc15 = loc("/NHNHOME/WORKSPACE/26msit001_A/jinhyeok/loop_TTT/lact/.cache_inductor_llm/5m/c5m7wwzc4qom3jtjlj453ig2usqfglpm2ptw2i6zvwnd2xkeofmh.py":21:23)
#loc16 = loc("/NHNHOME/WORKSPACE/26msit001_A/jinhyeok/loop_TTT/lact/.cache_inductor_llm/5m/c5m7wwzc4qom3jtjlj453ig2usqfglpm2ptw2i6zvwnd2xkeofmh.py":22:21)
#loc17 = loc("/NHNHOME/WORKSPACE/26msit001_A/jinhyeok/loop_TTT/lact/.cache_inductor_llm/5m/c5m7wwzc4qom3jtjlj453ig2usqfglpm2ptw2i6zvwnd2xkeofmh.py":23:28)
#loc18 = loc("/NHNHOME/WORKSPACE/26msit001_A/jinhyeok/loop_TTT/lact/.cache_inductor_llm/5m/c5m7wwzc4qom3jtjlj453ig2usqfglpm2ptw2i6zvwnd2xkeofmh.py":23:33)
#loc19 = loc("/NHNHOME/WORKSPACE/26msit001_A/jinhyeok/loop_TTT/lact/.cache_inductor_llm/5m/c5m7wwzc4qom3jtjlj453ig2usqfglpm2ptw2i6zvwnd2xkeofmh.py":24:36)
#loc20 = loc("/NHNHOME/WORKSPACE/26msit001_A/jinhyeok/loop_TTT/lact/.cache_inductor_llm/5m/c5m7wwzc4qom3jtjlj453ig2usqfglpm2ptw2i6zvwnd2xkeofmh.py":24:44)
#loc21 = loc("/NHNHOME/WORKSPACE/26msit001_A/jinhyeok/loop_TTT/lact/.cache_inductor_llm/5m/c5m7wwzc4qom3jtjlj453ig2usqfglpm2ptw2i6zvwnd2xkeofmh.py":24:23)
#loc22 = loc("/NHNHOME/WORKSPACE/26msit001_A/jinhyeok/loop_TTT/lact/.cache_inductor_llm/5m/c5m7wwzc4qom3jtjlj453ig2usqfglpm2ptw2i6zvwnd2xkeofmh.py":25:21)
#loc23 = loc("/NHNHOME/WORKSPACE/26msit001_A/jinhyeok/loop_TTT/lact/.cache_inductor_llm/5m/c5m7wwzc4qom3jtjlj453ig2usqfglpm2ptw2i6zvwnd2xkeofmh.py":28:19)
#loc24 = loc("/NHNHOME/WORKSPACE/26msit001_A/jinhyeok/loop_TTT/lact/.cache_inductor_llm/5m/c5m7wwzc4qom3jtjlj453ig2usqfglpm2ptw2i6zvwnd2xkeofmh.py":29:19)
#loc25 = loc("/NHNHOME/WORKSPACE/26msit001_A/jinhyeok/loop_TTT/lact/.cache_inductor_llm/5m/c5m7wwzc4qom3jtjlj453ig2usqfglpm2ptw2i6zvwnd2xkeofmh.py":30:39)
#loc26 = loc("/NHNHOME/WORKSPACE/26msit001_A/jinhyeok/loop_TTT/lact/.cache_inductor_llm/5m/c5m7wwzc4qom3jtjlj453ig2usqfglpm2ptw2i6zvwnd2xkeofmh.py":30:35)
#loc27 = loc("/NHNHOME/WORKSPACE/26msit001_A/jinhyeok/loop_TTT/lact/.cache_inductor_llm/5m/c5m7wwzc4qom3jtjlj453ig2usqfglpm2ptw2i6zvwnd2xkeofmh.py":30:30)
#loc28 = loc("/NHNHOME/WORKSPACE/26msit001_A/jinhyeok/loop_TTT/lact/.cache_inductor_llm/5m/c5m7wwzc4qom3jtjlj453ig2usqfglpm2ptw2i6zvwnd2xkeofmh.py":30:52)
#loc29 = loc("/NHNHOME/WORKSPACE/26msit001_A/jinhyeok/loop_TTT/lact/.cache_inductor_llm/5m/c5m7wwzc4qom3jtjlj453ig2usqfglpm2ptw2i6zvwnd2xkeofmh.py":30:44)
#loc30 = loc("/NHNHOME/WORKSPACE/26msit001_A/jinhyeok/loop_TTT/lact/.cache_inductor_llm/5m/c5m7wwzc4qom3jtjlj453ig2usqfglpm2ptw2i6zvwnd2xkeofmh.py":30:92)
#loc31 = loc("/NHNHOME/WORKSPACE/26msit001_A/jinhyeok/loop_TTT/lact/.cache_inductor_llm/5m/c5m7wwzc4qom3jtjlj453ig2usqfglpm2ptw2i6zvwnd2xkeofmh.py":31:30)
#loc32 = loc("/NHNHOME/WORKSPACE/26msit001_A/jinhyeok/loop_TTT/lact/.cache_inductor_llm/5m/c5m7wwzc4qom3jtjlj453ig2usqfglpm2ptw2i6zvwnd2xkeofmh.py":31:35)
#loc33 = loc("/NHNHOME/WORKSPACE/26msit001_A/jinhyeok/loop_TTT/lact/.cache_inductor_llm/5m/c5m7wwzc4qom3jtjlj453ig2usqfglpm2ptw2i6zvwnd2xkeofmh.py":32:31)
#loc34 = loc("/NHNHOME/WORKSPACE/26msit001_A/jinhyeok/loop_TTT/lact/.cache_inductor_llm/5m/c5m7wwzc4qom3jtjlj453ig2usqfglpm2ptw2i6zvwnd2xkeofmh.py":32:36)
#loc35 = loc("/NHNHOME/WORKSPACE/26msit001_A/jinhyeok/loop_TTT/lact/.cache_inductor_llm/5m/c5m7wwzc4qom3jtjlj453ig2usqfglpm2ptw2i6zvwnd2xkeofmh.py":33:31)
#loc36 = loc("/NHNHOME/WORKSPACE/26msit001_A/jinhyeok/loop_TTT/lact/.cache_inductor_llm/5m/c5m7wwzc4qom3jtjlj453ig2usqfglpm2ptw2i6zvwnd2xkeofmh.py":33:45)
#loc37 = loc("/NHNHOME/WORKSPACE/26msit001_A/jinhyeok/loop_TTT/lact/.cache_inductor_llm/5m/c5m7wwzc4qom3jtjlj453ig2usqfglpm2ptw2i6zvwnd2xkeofmh.py":33:93)
#loc38 = loc("/NHNHOME/WORKSPACE/26msit001_A/jinhyeok/loop_TTT/lact/.cache_inductor_llm/5m/c5m7wwzc4qom3jtjlj453ig2usqfglpm2ptw2i6zvwnd2xkeofmh.py":34:31)
#loc39 = loc("/NHNHOME/WORKSPACE/26msit001_A/jinhyeok/loop_TTT/lact/.cache_inductor_llm/5m/c5m7wwzc4qom3jtjlj453ig2usqfglpm2ptw2i6zvwnd2xkeofmh.py":34:45)
#loc40 = loc("/NHNHOME/WORKSPACE/26msit001_A/jinhyeok/loop_TTT/lact/.cache_inductor_llm/5m/c5m7wwzc4qom3jtjlj453ig2usqfglpm2ptw2i6zvwnd2xkeofmh.py":34:93)
#loc41 = loc("/NHNHOME/WORKSPACE/26msit001_A/jinhyeok/loop_TTT/lact/.cache_inductor_llm/5m/c5m7wwzc4qom3jtjlj453ig2usqfglpm2ptw2i6zvwnd2xkeofmh.py":35:31)
#loc42 = loc("/NHNHOME/WORKSPACE/26msit001_A/jinhyeok/loop_TTT/lact/.cache_inductor_llm/5m/c5m7wwzc4qom3jtjlj453ig2usqfglpm2ptw2i6zvwnd2xkeofmh.py":35:45)
#loc43 = loc("/NHNHOME/WORKSPACE/26msit001_A/jinhyeok/loop_TTT/lact/.cache_inductor_llm/5m/c5m7wwzc4qom3jtjlj453ig2usqfglpm2ptw2i6zvwnd2xkeofmh.py":35:93)
#loc44 = loc("/NHNHOME/WORKSPACE/26msit001_A/jinhyeok/loop_TTT/lact/.cache_inductor_llm/5m/c5m7wwzc4qom3jtjlj453ig2usqfglpm2ptw2i6zvwnd2xkeofmh.py":36:31)
#loc45 = loc("/NHNHOME/WORKSPACE/26msit001_A/jinhyeok/loop_TTT/lact/.cache_inductor_llm/5m/c5m7wwzc4qom3jtjlj453ig2usqfglpm2ptw2i6zvwnd2xkeofmh.py":36:36)
#loc46 = loc("/NHNHOME/WORKSPACE/26msit001_A/jinhyeok/loop_TTT/lact/.cache_inductor_llm/5m/c5m7wwzc4qom3jtjlj453ig2usqfglpm2ptw2i6zvwnd2xkeofmh.py":37:40)
#loc47 = loc("/NHNHOME/WORKSPACE/26msit001_A/jinhyeok/loop_TTT/lact/.cache_inductor_llm/5m/c5m7wwzc4qom3jtjlj453ig2usqfglpm2ptw2i6zvwnd2xkeofmh.py":37:36)
#loc48 = loc("/NHNHOME/WORKSPACE/26msit001_A/jinhyeok/loop_TTT/lact/.cache_inductor_llm/5m/c5m7wwzc4qom3jtjlj453ig2usqfglpm2ptw2i6zvwnd2xkeofmh.py":37:45)
#loc49 = loc("/NHNHOME/WORKSPACE/26msit001_A/jinhyeok/loop_TTT/lact/.cache_inductor_llm/5m/c5m7wwzc4qom3jtjlj453ig2usqfglpm2ptw2i6zvwnd2xkeofmh.py":37:31)
#loc50 = loc("/NHNHOME/WORKSPACE/26msit001_A/jinhyeok/loop_TTT/lact/.cache_inductor_llm/5m/c5m7wwzc4qom3jtjlj453ig2usqfglpm2ptw2i6zvwnd2xkeofmh.py":37:56)
#loc51 = loc("/NHNHOME/WORKSPACE/26msit001_A/jinhyeok/loop_TTT/lact/.cache_inductor_llm/5m/c5m7wwzc4qom3jtjlj453ig2usqfglpm2ptw2i6zvwnd2xkeofmh.py":37:104)
#loc52 = loc("/NHNHOME/WORKSPACE/26msit001_A/jinhyeok/loop_TTT/lact/.cache_inductor_llm/5m/c5m7wwzc4qom3jtjlj453ig2usqfglpm2ptw2i6zvwnd2xkeofmh.py":43:18)
#loc53 = loc("/NHNHOME/WORKSPACE/26msit001_A/jinhyeok/loop_TTT/lact/.cache_inductor_llm/5m/c5m7wwzc4qom3jtjlj453ig2usqfglpm2ptw2i6zvwnd2xkeofmh.py":46:27)
#loc54 = loc("/NHNHOME/WORKSPACE/26msit001_A/jinhyeok/loop_TTT/lact/.cache_inductor_llm/5m/c5m7wwzc4qom3jtjlj453ig2usqfglpm2ptw2i6zvwnd2xkeofmh.py":48:20)
#loc55 = loc("/NHNHOME/WORKSPACE/26msit001_A/jinhyeok/loop_TTT/lact/.cache_inductor_llm/5m/c5m7wwzc4qom3jtjlj453ig2usqfglpm2ptw2i6zvwnd2xkeofmh.py":49:20)
#loc56 = loc("/NHNHOME/WORKSPACE/26msit001_A/jinhyeok/loop_TTT/lact/.cache_inductor_llm/5m/c5m7wwzc4qom3jtjlj453ig2usqfglpm2ptw2i6zvwnd2xkeofmh.py":53:20)
#loc57 = loc("/NHNHOME/WORKSPACE/26msit001_A/jinhyeok/loop_TTT/lact/.cache_inductor_llm/5m/c5m7wwzc4qom3jtjlj453ig2usqfglpm2ptw2i6zvwnd2xkeofmh.py":57:20)
#loc58 = loc("/NHNHOME/WORKSPACE/26msit001_A/jinhyeok/loop_TTT/lact/.cache_inductor_llm/5m/c5m7wwzc4qom3jtjlj453ig2usqfglpm2ptw2i6zvwnd2xkeofmh.py":60:20)
#loc59 = loc("/NHNHOME/WORKSPACE/26msit001_A/jinhyeok/loop_TTT/lact/.cache_inductor_llm/5m/c5m7wwzc4qom3jtjlj453ig2usqfglpm2ptw2i6zvwnd2xkeofmh.py":63:27)
#loc60 = loc("/NHNHOME/WORKSPACE/26msit001_A/jinhyeok/loop_TTT/lact/.cache_inductor_llm/5m/c5m7wwzc4qom3jtjlj453ig2usqfglpm2ptw2i6zvwnd2xkeofmh.py":64:20)
#loc61 = loc("/NHNHOME/WORKSPACE/26msit001_A/jinhyeok/loop_TTT/lact/.cache_inductor_llm/5m/c5m7wwzc4qom3jtjlj453ig2usqfglpm2ptw2i6zvwnd2xkeofmh.py":65:21)
#loc62 = loc("/NHNHOME/WORKSPACE/26msit001_A/jinhyeok/loop_TTT/lact/.cache_inductor_llm/5m/c5m7wwzc4qom3jtjlj453ig2usqfglpm2ptw2i6zvwnd2xkeofmh.py":68:20)
#loc63 = loc("/NHNHOME/WORKSPACE/26msit001_A/jinhyeok/loop_TTT/lact/.cache_inductor_llm/5m/c5m7wwzc4qom3jtjlj453ig2usqfglpm2ptw2i6zvwnd2xkeofmh.py":71:21)
#loc64 = loc("/NHNHOME/WORKSPACE/26msit001_A/jinhyeok/loop_TTT/lact/.cache_inductor_llm/5m/c5m7wwzc4qom3jtjlj453ig2usqfglpm2ptw2i6zvwnd2xkeofmh.py":73:25)
#loc65 = loc("/NHNHOME/WORKSPACE/26msit001_A/jinhyeok/loop_TTT/lact/.cache_inductor_llm/5m/c5m7wwzc4qom3jtjlj453ig2usqfglpm2ptw2i6zvwnd2xkeofmh.py":73:46)
#loc66 = loc("/NHNHOME/WORKSPACE/26msit001_A/jinhyeok/loop_TTT/lact/.cache_inductor_llm/5m/c5m7wwzc4qom3jtjlj453ig2usqfglpm2ptw2i6zvwnd2xkeofmh.py":74:25)
#loc67 = loc("/NHNHOME/WORKSPACE/26msit001_A/jinhyeok/loop_TTT/lact/.cache_inductor_llm/5m/c5m7wwzc4qom3jtjlj453ig2usqfglpm2ptw2i6zvwnd2xkeofmh.py":74:46)
#loc68 = loc("/NHNHOME/WORKSPACE/26msit001_A/jinhyeok/loop_TTT/lact/.cache_inductor_llm/5m/c5m7wwzc4qom3jtjlj453ig2usqfglpm2ptw2i6zvwnd2xkeofmh.py":75:25)
#loc69 = loc("/NHNHOME/WORKSPACE/26msit001_A/jinhyeok/loop_TTT/lact/.cache_inductor_llm/5m/c5m7wwzc4qom3jtjlj453ig2usqfglpm2ptw2i6zvwnd2xkeofmh.py":75:46)
#loc70 = loc("/NHNHOME/WORKSPACE/26msit001_A/jinhyeok/loop_TTT/lact/.cache_inductor_llm/5m/c5m7wwzc4qom3jtjlj453ig2usqfglpm2ptw2i6zvwnd2xkeofmh.py":76:25)
#loc71 = loc("/NHNHOME/WORKSPACE/26msit001_A/jinhyeok/loop_TTT/lact/.cache_inductor_llm/5m/c5m7wwzc4qom3jtjlj453ig2usqfglpm2ptw2i6zvwnd2xkeofmh.py":76:46)
#loc72 = loc("/NHNHOME/WORKSPACE/26msit001_A/jinhyeok/loop_TTT/lact/.cache_inductor_llm/5m/c5m7wwzc4qom3jtjlj453ig2usqfglpm2ptw2i6zvwnd2xkeofmh.py":77:25)
#loc73 = loc("/NHNHOME/WORKSPACE/26msit001_A/jinhyeok/loop_TTT/lact/.cache_inductor_llm/5m/c5m7wwzc4qom3jtjlj453ig2usqfglpm2ptw2i6zvwnd2xkeofmh.py":77:46)
#loc74 = loc("/NHNHOME/WORKSPACE/26msit001_A/jinhyeok/loop_TTT/lact/.cache_inductor_llm/5m/c5m7wwzc4qom3jtjlj453ig2usqfglpm2ptw2i6zvwnd2xkeofmh.py":78:25)
#loc75 = loc("/NHNHOME/WORKSPACE/26msit001_A/jinhyeok/loop_TTT/lact/.cache_inductor_llm/5m/c5m7wwzc4qom3jtjlj453ig2usqfglpm2ptw2i6zvwnd2xkeofmh.py":78:46)
#loc76 = loc("/NHNHOME/WORKSPACE/26msit001_A/jinhyeok/loop_TTT/lact/.cache_inductor_llm/5m/c5m7wwzc4qom3jtjlj453ig2usqfglpm2ptw2i6zvwnd2xkeofmh.py":78:4)
#loc92 = loc("tmp21"(#loc1))
#loc93 = loc("tmp16"(#loc2))
#loc94 = loc("tmp6"(#loc4))
#loc95 = loc("tmp4"(#loc5))
#loc96 = loc("tmp36"(#loc6))
#loc97 = loc("yoffset"(#loc7))
#loc98 = loc("yoffset"(#loc8))
#loc99 = loc("yoffset"(#loc9))
#loc100 = loc("yoffset"(#loc10))
#loc101 = loc("yoffset"(#loc11))
#loc102 = loc("yoffset"(#loc12))
#loc103 = loc("yindex"(#loc13))
#loc104 = loc("yindex"(#loc14))
#loc105 = loc("yindex"(#loc15))
#loc106 = loc("ymask"(#loc16))
#loc107 = loc("xoffset"(#loc17))
#loc108 = loc("xoffset"(#loc18))
#loc109 = loc("xindex"(#loc19))
#loc110 = loc("xindex"(#loc20))
#loc111 = loc("xindex"(#loc21))
#loc112 = loc("xmask"(#loc22))
#loc113 = loc("y1"(#loc23))
#loc114 = loc("y0"(#loc24))
#loc115 = loc("tmp0"(#loc25))
#loc116 = loc("tmp0"(#loc26))
#loc117 = loc("tmp0"(#loc27))
#loc118 = loc("tmp0"(#loc28))
#loc119 = loc("tmp0"(#loc29))
#loc120 = loc("tmp0"(#loc30))
#loc121 = loc("tmp2"(#loc31))
#loc122 = loc("tmp2"(#loc32))
#loc123 = loc("tmp10"(#loc33))
#loc124 = loc("tmp10"(#loc34))
#loc125 = loc("tmp17"(#loc35))
#loc126 = loc("tmp17"(#loc36))
#loc127 = loc("tmp17"(#loc37))
#loc128 = loc("tmp22"(#loc38))
#loc129 = loc("tmp22"(#loc39))
#loc130 = loc("tmp22"(#loc40))
#loc131 = loc("tmp26"(#loc41))
#loc132 = loc("tmp26"(#loc42))
#loc133 = loc("tmp26"(#loc43))
#loc134 = loc("tmp31"(#loc44))
#loc135 = loc("tmp31"(#loc45))
#loc136 = loc("tmp36"(#loc46))
#loc137 = loc("tmp36"(#loc47))
#loc138 = loc("tmp36"(#loc48))
#loc139 = loc("tmp36"(#loc49))
#loc140 = loc("tmp36"(#loc50))
#loc141 = loc("tmp36"(#loc51))
#loc142 = loc("tmp7"(#loc52))
#loc143 = loc("tmp11"(#loc53))
#loc144 = loc("tmp13"(#loc54))
#loc145 = loc("tmp14"(#loc55))
#loc146 = loc("tmp19"(#loc56))
#loc147 = loc("tmp24"(#loc57))
#loc148 = loc("tmp28"(#loc58))
#loc149 = loc("tmp32"(#loc59))
#loc150 = loc("tmp33"(#loc60))
#loc151 = loc("tmp34"(#loc61))
#loc152 = loc("tmp38"(#loc62))
#loc153 = loc("tmp41"(#loc63))
