#loc = loc("/NHNHOME/WORKSPACE/26msit001_A/jinhyeok/TTT_camera_embedding/.venv_llm/lib/python3.12/site-packages/fla/modules/layernorm.py":269:0)
#loc3 = loc(unknown)
#loc15 = loc("/NHNHOME/WORKSPACE/26msit001_A/jinhyeok/TTT_camera_embedding/.venv_llm/lib/python3.12/site-packages/fla/modules/layernorm.py":312:23)
#loc28 = loc("x"(#loc))
#loc29 = loc("y"(#loc))
#loc30 = loc("w"(#loc))
#loc31 = loc("rstd"(#loc))
#loc32 = loc("eps"(#loc))
#loc45 = loc("b_var"(#loc15))
#loc53 = loc(callsite(#loc3 at #loc45))
module {
  tt.func public @layer_norm_fwd_kernel1(%x: !tt.ptr<f32> {tt.divisibility = 16 : i32} loc("x"(#loc)), %y: !tt.ptr<f32> {tt.divisibility = 16 : i32} loc("y"(#loc)), %w: !tt.ptr<f32> {tt.divisibility = 16 : i32} loc("w"(#loc)), %rstd: !tt.ptr<f32> {tt.divisibility = 16 : i32} loc("rstd"(#loc)), %eps: f32 loc("eps"(#loc))) attributes {noinline = false} {
    %b_rstd = arith.constant 1.000000e+00 : f32 loc(#loc33)
    %b_var = arith.constant 7.680000e+02 : f32 loc(#loc34)
    %cst = arith.constant dense<0.000000e+00> : tensor<1024xf32> loc(#loc3)
    %m_d = arith.constant dense<768> : tensor<1024xi32> loc(#loc35)
    %c768_i32 = arith.constant 768 : i32 loc(#loc3)
    %i_t = tt.get_program_id x : i32 loc(#loc36)
    %x_0 = arith.muli %i_t, %c768_i32 : i32 loc(#loc37)
    %x_1 = tt.addptr %x, %x_0 : !tt.ptr<f32>, i32 loc(#loc38)
    %y_2 = tt.addptr %y, %x_0 : !tt.ptr<f32>, i32 loc(#loc39)
    %o_d = tt.make_range {end = 1024 : i32, start = 0 : i32} : tensor<1024xi32> loc(#loc40)
    %m_d_3 = arith.cmpi slt, %o_d, %m_d : tensor<1024xi32> loc(#loc35)
    %b_x = tt.splat %x_1 : !tt.ptr<f32> -> tensor<1024x!tt.ptr<f32>> loc(#loc41)
    %b_x_4 = tt.addptr %b_x, %o_d : tensor<1024x!tt.ptr<f32>>, tensor<1024xi32> loc(#loc41)
    %b_x_5 = tt.load %b_x_4, %m_d_3, %cst : tensor<1024x!tt.ptr<f32>> loc(#loc42)
    %b_xbar = arith.select %m_d_3, %b_x_5, %cst : tensor<1024xi1>, tensor<1024xf32> loc(#loc43)
    %b_var_6 = arith.mulf %b_xbar, %b_xbar : tensor<1024xf32> loc(#loc44)
    %b_var_7 = "tt.reduce"(%b_var_6) <{axis = 0 : i32}> ({
    ^bb0(%b_var_15: f32 loc(callsite(#loc3 at #loc45)), %b_var_16: f32 loc(callsite(#loc3 at #loc45))):
      %b_var_17 = arith.addf %b_var_15, %b_var_16 : f32 loc(#loc54)
      tt.reduce.return %b_var_17 : f32 loc(#loc52)
    }) : (tensor<1024xf32>) -> f32 loc(#loc52)
    %b_var_8 = arith.divf %b_var_7, %b_var : f32 loc(#loc34)
    %b_rstd_9 = arith.addf %b_var_8, %eps : f32 loc(#loc46)
    %b_rstd_10 = math.sqrt %b_rstd_9 : f32 loc(#loc47)
    %b_rstd_11 = arith.divf %b_rstd, %b_rstd_10 : f32 loc(#loc33)
    %0 = tt.addptr %rstd, %i_t : !tt.ptr<f32>, i32 loc(#loc19)
    tt.store %0, %b_rstd_11 : !tt.ptr<f32> loc(#loc20)
    %b_w = tt.splat %w : !tt.ptr<f32> -> tensor<1024x!tt.ptr<f32>> loc(#loc48)
    %b_w_12 = tt.addptr %b_w, %o_d : tensor<1024x!tt.ptr<f32>>, tensor<1024xi32> loc(#loc48)
    %b_w_13 = tt.load %b_w_12, %m_d_3 : tensor<1024x!tt.ptr<f32>> loc(#loc49)
    %b_x_hat = tt.splat %b_rstd_11 : f32 -> tensor<1024xf32> loc(#loc50)
    %b_x_hat_14 = arith.mulf %b_x_5, %b_x_hat : tensor<1024xf32> loc(#loc50)
    %b_y = arith.mulf %b_x_hat_14, %b_w_13 : tensor<1024xf32> loc(#loc51)
    %1 = tt.splat %y_2 : !tt.ptr<f32> -> tensor<1024x!tt.ptr<f32>> loc(#loc25)
    %2 = tt.addptr %1, %o_d : tensor<1024x!tt.ptr<f32>>, tensor<1024xi32> loc(#loc25)
    tt.store %2, %b_y, %m_d_3 : tensor<1024x!tt.ptr<f32>> loc(#loc26)
    tt.return loc(#loc27)
  } loc(#loc)
} loc(#loc)
#loc1 = loc("/NHNHOME/WORKSPACE/26msit001_A/jinhyeok/TTT_camera_embedding/.venv_llm/lib/python3.12/site-packages/fla/modules/layernorm.py":313:17)
#loc2 = loc("/NHNHOME/WORKSPACE/26msit001_A/jinhyeok/TTT_camera_embedding/.venv_llm/lib/python3.12/site-packages/fla/modules/layernorm.py":312:50)
#loc4 = loc("/NHNHOME/WORKSPACE/26msit001_A/jinhyeok/TTT_camera_embedding/.venv_llm/lib/python3.12/site-packages/fla/modules/layernorm.py":299:16)
#loc5 = loc("/NHNHOME/WORKSPACE/26msit001_A/jinhyeok/TTT_camera_embedding/.venv_llm/lib/python3.12/site-packages/fla/modules/layernorm.py":288:24)
#loc6 = loc("/NHNHOME/WORKSPACE/26msit001_A/jinhyeok/TTT_camera_embedding/.venv_llm/lib/python3.12/site-packages/fla/modules/layernorm.py":291:15)
#loc7 = loc("/NHNHOME/WORKSPACE/26msit001_A/jinhyeok/TTT_camera_embedding/.venv_llm/lib/python3.12/site-packages/fla/modules/layernorm.py":291:9)
#loc8 = loc("/NHNHOME/WORKSPACE/26msit001_A/jinhyeok/TTT_camera_embedding/.venv_llm/lib/python3.12/site-packages/fla/modules/layernorm.py":292:9)
#loc9 = loc("/NHNHOME/WORKSPACE/26msit001_A/jinhyeok/TTT_camera_embedding/.venv_llm/lib/python3.12/site-packages/fla/modules/layernorm.py":298:23)
#loc10 = loc("/NHNHOME/WORKSPACE/26msit001_A/jinhyeok/TTT_camera_embedding/.venv_llm/lib/python3.12/site-packages/fla/modules/layernorm.py":300:22)
#loc11 = loc("/NHNHOME/WORKSPACE/26msit001_A/jinhyeok/TTT_camera_embedding/.venv_llm/lib/python3.12/site-packages/fla/modules/layernorm.py":300:18)
#loc12 = loc("/NHNHOME/WORKSPACE/26msit001_A/jinhyeok/TTT_camera_embedding/.venv_llm/lib/python3.12/site-packages/fla/modules/layernorm.py":311:36)
#loc13 = loc("/NHNHOME/WORKSPACE/26msit001_A/jinhyeok/TTT_camera_embedding/.venv_llm/lib/python3.12/site-packages/fla/modules/layernorm.py":312:32)
#loc14 = loc("/NHNHOME/WORKSPACE/26msit001_A/jinhyeok/TTT_camera_embedding/.venv_llm/lib/python3.12/site-packages/triton/language/standard.py":291:36)
#loc16 = loc("/NHNHOME/WORKSPACE/26msit001_A/jinhyeok/TTT_camera_embedding/.venv_llm/lib/python3.12/site-packages/triton/language/standard.py":261:15)
#loc17 = loc("/NHNHOME/WORKSPACE/26msit001_A/jinhyeok/TTT_camera_embedding/.venv_llm/lib/python3.12/site-packages/fla/modules/layernorm.py":313:33)
#loc18 = loc("/NHNHOME/WORKSPACE/26msit001_A/jinhyeok/TTT_camera_embedding/.venv_llm/lib/python3.12/site-packages/fla/modules/layernorm.py":313:25)
#loc19 = loc("/NHNHOME/WORKSPACE/26msit001_A/jinhyeok/TTT_camera_embedding/.venv_llm/lib/python3.12/site-packages/fla/modules/layernorm.py":314:20)
#loc20 = loc("/NHNHOME/WORKSPACE/26msit001_A/jinhyeok/TTT_camera_embedding/.venv_llm/lib/python3.12/site-packages/fla/modules/layernorm.py":314:25)
#loc21 = loc("/NHNHOME/WORKSPACE/26msit001_A/jinhyeok/TTT_camera_embedding/.venv_llm/lib/python3.12/site-packages/fla/modules/layernorm.py":317:36)
#loc22 = loc("/NHNHOME/WORKSPACE/26msit001_A/jinhyeok/TTT_camera_embedding/.venv_llm/lib/python3.12/site-packages/fla/modules/layernorm.py":317:22)
#loc23 = loc("/NHNHOME/WORKSPACE/26msit001_A/jinhyeok/TTT_camera_embedding/.venv_llm/lib/python3.12/site-packages/fla/modules/layernorm.py":320:68)
#loc24 = loc("/NHNHOME/WORKSPACE/26msit001_A/jinhyeok/TTT_camera_embedding/.venv_llm/lib/python3.12/site-packages/fla/modules/layernorm.py":321:20)
#loc25 = loc("/NHNHOME/WORKSPACE/26msit001_A/jinhyeok/TTT_camera_embedding/.venv_llm/lib/python3.12/site-packages/fla/modules/layernorm.py":326:17)
#loc26 = loc("/NHNHOME/WORKSPACE/26msit001_A/jinhyeok/TTT_camera_embedding/.venv_llm/lib/python3.12/site-packages/fla/modules/layernorm.py":326:22)
#loc27 = loc("/NHNHOME/WORKSPACE/26msit001_A/jinhyeok/TTT_camera_embedding/.venv_llm/lib/python3.12/site-packages/fla/modules/layernorm.py":326:4)
#loc33 = loc("b_rstd"(#loc1))
#loc34 = loc("b_var"(#loc2))
#loc35 = loc("m_d"(#loc4))
#loc36 = loc("i_t"(#loc5))
#loc37 = loc("x"(#loc6))
#loc38 = loc("x"(#loc7))
#loc39 = loc("y"(#loc8))
#loc40 = loc("o_d"(#loc9))
#loc41 = loc("b_x"(#loc10))
#loc42 = loc("b_x"(#loc11))
#loc43 = loc("b_xbar"(#loc12))
#loc44 = loc("b_var"(#loc13))
#loc46 = loc("b_rstd"(#loc17))
#loc47 = loc("b_rstd"(#loc18))
#loc48 = loc("b_w"(#loc21))
#loc49 = loc("b_w"(#loc22))
#loc50 = loc("b_x_hat"(#loc23))
#loc51 = loc("b_y"(#loc24))
#loc52 = loc(callsite(#loc14 at #loc45))
#loc54 = loc(callsite(#loc16 at #loc52))
