#loc = loc("/NHNHOME/WORKSPACE/26msit001_A/jinhyeok/TTT_camera_embedding/.venv_llm/lib/python3.12/site-packages/fla/modules/activations.py":571:0)
#loc33 = loc("x"(#loc))
#loc34 = loc("y"(#loc))
#loc35 = loc("z"(#loc))
#loc36 = loc("stride_x_row"(#loc))
#loc37 = loc("stride_y_row"(#loc))
#loc38 = loc("stride_z_row"(#loc))
#loc39 = loc("T"(#loc))
module {
  tt.func public @swiglu_fwd_kernel(%x: !tt.ptr<bf16> {tt.divisibility = 16 : i32} loc("x"(#loc)), %y: !tt.ptr<bf16> {tt.divisibility = 16 : i32} loc("y"(#loc)), %z: !tt.ptr<bf16> {tt.divisibility = 16 : i32} loc("z"(#loc)), %stride_x_row: i32 {tt.divisibility = 16 : i32} loc("stride_x_row"(#loc)), %stride_y_row: i32 {tt.divisibility = 16 : i32} loc("stride_y_row"(#loc)), %stride_z_row: i32 {tt.divisibility = 16 : i32} loc("stride_z_row"(#loc)), %T: i32 loc("T"(#loc))) attributes {noinline = false} {
    %b_z = arith.constant dense<0.000000e+00> : tensor<2048xf32> loc(#loc62)
    %b_z_0 = arith.constant dense<1.000000e+00> : tensor<2048xf32> loc(#loc63)
    %cst = arith.constant dense<0.000000e+00> : tensor<2048xbf16> loc(#loc3)
    %cst_1 = arith.constant dense<2048> : tensor<2048xi64> loc(#loc3)
    %c2048_i64 = arith.constant 2048 : i64 loc(#loc3)
    %i_n = tt.get_program_id x : i32 loc(#loc41)
    %i_n_2 = arith.extsi %i_n : i32 to i64 loc(#loc42)
    %offs = arith.muli %i_n_2, %c2048_i64 : i64 loc(#loc43)
    %offs_3 = tt.make_range {end = 2048 : i32, start = 0 : i32} : tensor<2048xi32> loc(#loc44)
    %offs_4 = arith.extsi %offs_3 : tensor<2048xi32> to tensor<2048xi64> loc(#loc45)
    %offs_5 = tt.splat %offs : i64 -> tensor<2048xi64> loc(#loc45)
    %offs_6 = arith.addi %offs_5, %offs_4 : tensor<2048xi64> loc(#loc45)
    %mask = arith.extsi %T : i32 to i64 loc(#loc46)
    %mask_7 = tt.splat %mask : i64 -> tensor<2048xi64> loc(#loc46)
    %mask_8 = arith.cmpi slt, %offs_6, %mask_7 : tensor<2048xi64> loc(#loc46)
    %row = arith.divsi %offs_6, %cst_1 : tensor<2048xi64> loc(#loc47)
    %col = arith.remsi %offs_6, %cst_1 : tensor<2048xi64> loc(#loc48)
    %b_x = arith.extsi %stride_x_row : i32 to i64 loc(#loc49)
    %b_x_9 = tt.splat %b_x : i64 -> tensor<2048xi64> loc(#loc49)
    %b_x_10 = arith.muli %row, %b_x_9 : tensor<2048xi64> loc(#loc49)
    %b_x_11 = tt.splat %x : !tt.ptr<bf16> -> tensor<2048x!tt.ptr<bf16>> loc(#loc50)
    %b_x_12 = arith.addi %b_x_10, %col : tensor<2048xi64> loc(#loc64)
    %b_x_13 = tt.addptr %b_x_11, %b_x_12 : tensor<2048x!tt.ptr<bf16>>, tensor<2048xi64> loc(#loc64)
    %b_x_14 = tt.load %b_x_13, %mask_8, %cst : tensor<2048x!tt.ptr<bf16>> loc(#loc52)
    %b_x_15 = arith.extf %b_x_14 : tensor<2048xbf16> to tensor<2048xf32> loc(#loc53)
    %b_y = arith.extsi %stride_y_row : i32 to i64 loc(#loc54)
    %b_y_16 = tt.splat %b_y : i64 -> tensor<2048xi64> loc(#loc54)
    %b_y_17 = arith.muli %row, %b_y_16 : tensor<2048xi64> loc(#loc54)
    %b_y_18 = tt.splat %y : !tt.ptr<bf16> -> tensor<2048x!tt.ptr<bf16>> loc(#loc55)
    %b_y_19 = arith.addi %b_y_17, %col : tensor<2048xi64> loc(#loc65)
    %b_y_20 = tt.addptr %b_y_18, %b_y_19 : tensor<2048x!tt.ptr<bf16>>, tensor<2048xi64> loc(#loc65)
    %b_y_21 = tt.load %b_y_20, %mask_8, %cst : tensor<2048x!tt.ptr<bf16>> loc(#loc57)
    %b_y_22 = arith.extf %b_y_21 : tensor<2048xbf16> to tensor<2048xf32> loc(#loc58)
    %b_z_23 = arith.subf %b_z, %b_x_15 : tensor<2048xf32> loc(#loc62)
    %b_z_24 = math.exp %b_z_23 : tensor<2048xf32> loc(#loc66)
    %b_z_25 = arith.addf %b_z_24, %b_z_0 : tensor<2048xf32> loc(#loc67)
    %b_z_26 = arith.divf %b_z_0, %b_z_25 : tensor<2048xf32> loc(#loc68)
    %b_z_27 = arith.mulf %b_x_15, %b_z_26 : tensor<2048xf32> loc(#loc59)
    %b_z_28 = arith.mulf %b_z_27, %b_y_22 : tensor<2048xf32> loc(#loc60)
    %0 = arith.extsi %stride_z_row : i32 to i64 loc(#loc27)
    %1 = tt.splat %0 : i64 -> tensor<2048xi64> loc(#loc27)
    %2 = arith.muli %row, %1 : tensor<2048xi64> loc(#loc27)
    %3 = tt.splat %z : !tt.ptr<bf16> -> tensor<2048x!tt.ptr<bf16>> loc(#loc28)
    %4 = arith.addi %2, %col : tensor<2048xi64> loc(#loc61)
    %5 = tt.addptr %3, %4 : tensor<2048x!tt.ptr<bf16>>, tensor<2048xi64> loc(#loc61)
    %6 = arith.truncf %b_z_28 : tensor<2048xf32> to tensor<2048xbf16> loc(#loc30)
    tt.store %5, %6, %mask_8 : tensor<2048x!tt.ptr<bf16>> loc(#loc31)
    tt.return loc(#loc32)
  } loc(#loc)
} loc(#loc)
#loc1 = loc("/NHNHOME/WORKSPACE/26msit001_A/jinhyeok/TTT_camera_embedding/.venv_llm/lib/python3.12/site-packages/triton/language/standard.py":48:30)
#loc2 = loc("/NHNHOME/WORKSPACE/26msit001_A/jinhyeok/TTT_camera_embedding/.venv_llm/lib/python3.12/site-packages/fla/modules/activations.py":587:27)
#loc3 = loc(unknown)
#loc4 = loc("/NHNHOME/WORKSPACE/26msit001_A/jinhyeok/TTT_camera_embedding/.venv_llm/lib/python3.12/site-packages/fla/modules/activations.py":580:24)
#loc5 = loc("/NHNHOME/WORKSPACE/26msit001_A/jinhyeok/TTT_camera_embedding/.venv_llm/lib/python3.12/site-packages/fla/modules/activations.py":580:30)
#loc6 = loc("/NHNHOME/WORKSPACE/26msit001_A/jinhyeok/TTT_camera_embedding/.venv_llm/lib/python3.12/site-packages/fla/modules/activations.py":581:17)
#loc7 = loc("/NHNHOME/WORKSPACE/26msit001_A/jinhyeok/TTT_camera_embedding/.venv_llm/lib/python3.12/site-packages/fla/modules/activations.py":581:34)
#loc8 = loc("/NHNHOME/WORKSPACE/26msit001_A/jinhyeok/TTT_camera_embedding/.venv_llm/lib/python3.12/site-packages/fla/modules/activations.py":581:21)
#loc9 = loc("/NHNHOME/WORKSPACE/26msit001_A/jinhyeok/TTT_camera_embedding/.venv_llm/lib/python3.12/site-packages/fla/modules/activations.py":582:18)
#loc10 = loc("/NHNHOME/WORKSPACE/26msit001_A/jinhyeok/TTT_camera_embedding/.venv_llm/lib/python3.12/site-packages/fla/modules/activations.py":583:18)
#loc11 = loc("/NHNHOME/WORKSPACE/26msit001_A/jinhyeok/TTT_camera_embedding/.venv_llm/lib/python3.12/site-packages/fla/modules/activations.py":584:17)
#loc12 = loc("/NHNHOME/WORKSPACE/26msit001_A/jinhyeok/TTT_camera_embedding/.venv_llm/lib/python3.12/site-packages/fla/modules/activations.py":585:28)
#loc13 = loc("/NHNHOME/WORKSPACE/26msit001_A/jinhyeok/TTT_camera_embedding/.venv_llm/lib/python3.12/site-packages/fla/modules/activations.py":585:22)
#loc14 = loc("/NHNHOME/WORKSPACE/26msit001_A/jinhyeok/TTT_camera_embedding/.venv_llm/lib/python3.12/site-packages/fla/modules/activations.py":585:43)
#loc15 = loc("/NHNHOME/WORKSPACE/26msit001_A/jinhyeok/TTT_camera_embedding/.venv_llm/lib/python3.12/site-packages/fla/modules/activations.py":585:18)
#loc16 = loc("/NHNHOME/WORKSPACE/26msit001_A/jinhyeok/TTT_camera_embedding/.venv_llm/lib/python3.12/site-packages/fla/modules/activations.py":585:72)
#loc17 = loc("/NHNHOME/WORKSPACE/26msit001_A/jinhyeok/TTT_camera_embedding/.venv_llm/lib/python3.12/site-packages/fla/modules/activations.py":586:28)
#loc18 = loc("/NHNHOME/WORKSPACE/26msit001_A/jinhyeok/TTT_camera_embedding/.venv_llm/lib/python3.12/site-packages/fla/modules/activations.py":586:22)
#loc19 = loc("/NHNHOME/WORKSPACE/26msit001_A/jinhyeok/TTT_camera_embedding/.venv_llm/lib/python3.12/site-packages/fla/modules/activations.py":586:43)
#loc20 = loc("/NHNHOME/WORKSPACE/26msit001_A/jinhyeok/TTT_camera_embedding/.venv_llm/lib/python3.12/site-packages/fla/modules/activations.py":586:18)
#loc21 = loc("/NHNHOME/WORKSPACE/26msit001_A/jinhyeok/TTT_camera_embedding/.venv_llm/lib/python3.12/site-packages/fla/modules/activations.py":586:72)
#loc22 = loc("/NHNHOME/WORKSPACE/26msit001_A/jinhyeok/TTT_camera_embedding/.venv_llm/lib/python3.12/site-packages/triton/language/standard.py":48:29)
#loc23 = loc("/NHNHOME/WORKSPACE/26msit001_A/jinhyeok/TTT_camera_embedding/.venv_llm/lib/python3.12/site-packages/triton/language/standard.py":48:20)
#loc24 = loc("/NHNHOME/WORKSPACE/26msit001_A/jinhyeok/TTT_camera_embedding/.venv_llm/lib/python3.12/site-packages/triton/language/standard.py":48:16)
#loc25 = loc("/NHNHOME/WORKSPACE/26msit001_A/jinhyeok/TTT_camera_embedding/.venv_llm/lib/python3.12/site-packages/fla/modules/activations.py":587:16)
#loc26 = loc("/NHNHOME/WORKSPACE/26msit001_A/jinhyeok/TTT_camera_embedding/.venv_llm/lib/python3.12/site-packages/fla/modules/activations.py":587:34)
#loc27 = loc("/NHNHOME/WORKSPACE/26msit001_A/jinhyeok/TTT_camera_embedding/.venv_llm/lib/python3.12/site-packages/fla/modules/activations.py":588:23)
#loc28 = loc("/NHNHOME/WORKSPACE/26msit001_A/jinhyeok/TTT_camera_embedding/.venv_llm/lib/python3.12/site-packages/fla/modules/activations.py":588:17)
#loc29 = loc("/NHNHOME/WORKSPACE/26msit001_A/jinhyeok/TTT_camera_embedding/.venv_llm/lib/python3.12/site-packages/fla/modules/activations.py":588:38)
#loc30 = loc("/NHNHOME/WORKSPACE/26msit001_A/jinhyeok/TTT_camera_embedding/.venv_llm/lib/python3.12/site-packages/fla/modules/activations.py":588:50)
#loc31 = loc("/NHNHOME/WORKSPACE/26msit001_A/jinhyeok/TTT_camera_embedding/.venv_llm/lib/python3.12/site-packages/fla/modules/activations.py":588:43)
#loc32 = loc("/NHNHOME/WORKSPACE/26msit001_A/jinhyeok/TTT_camera_embedding/.venv_llm/lib/python3.12/site-packages/fla/modules/activations.py":588:4)
#loc40 = loc("b_z"(#loc2))
#loc41 = loc("i_n"(#loc4))
#loc42 = loc("i_n"(#loc5))
#loc43 = loc("offs"(#loc6))
#loc44 = loc("offs"(#loc7))
#loc45 = loc("offs"(#loc8))
#loc46 = loc("mask"(#loc9))
#loc47 = loc("row"(#loc10))
#loc48 = loc("col"(#loc11))
#loc49 = loc("b_x"(#loc12))
#loc50 = loc("b_x"(#loc13))
#loc51 = loc("b_x"(#loc14))
#loc52 = loc("b_x"(#loc15))
#loc53 = loc("b_x"(#loc16))
#loc54 = loc("b_y"(#loc17))
#loc55 = loc("b_y"(#loc18))
#loc56 = loc("b_y"(#loc19))
#loc57 = loc("b_y"(#loc20))
#loc58 = loc("b_y"(#loc21))
#loc59 = loc("b_z"(#loc25))
#loc60 = loc("b_z"(#loc26))
#loc61 = loc(fused[#loc29, #loc28])
#loc62 = loc(callsite(#loc1 at #loc40))
#loc63 = loc(callsite(#loc3 at #loc40))
#loc64 = loc(fused[#loc51, #loc50])
#loc65 = loc(fused[#loc56, #loc55])
#loc66 = loc(callsite(#loc22 at #loc40))
#loc67 = loc(callsite(#loc23 at #loc40))
#loc68 = loc(callsite(#loc24 at #loc40))
