#loc = loc("/NHNHOME/WORKSPACE/26msit001_A/jinhyeok/TTT_camera_embedding/lact_llm/.cache_inductor/uj/cujnigyl75cmek5m3ddydpbtekxjsu6jw4gwxf3vzbcuaasn4d5w.py":18:0)
#loc1 = loc(unknown)
#loc42 = loc("/NHNHOME/WORKSPACE/26msit001_A/jinhyeok/TTT_camera_embedding/lact_llm/.cache_inductor/uj/cujnigyl75cmek5m3ddydpbtekxjsu6jw4gwxf3vzbcuaasn4d5w.py":63:27)
#loc48 = loc("in_ptr0"(#loc))
#loc49 = loc("in_ptr1"(#loc))
#loc50 = loc("in_ptr2"(#loc))
#loc51 = loc("in_ptr3"(#loc))
#loc52 = loc("out_ptr0"(#loc))
#loc53 = loc("xnumel"(#loc))
#loc54 = loc("r0_numel"(#loc))
#loc93 = loc("tmp23"(#loc42))
#loc99 = loc(callsite(#loc1 at #loc93))
module {
  tt.func public @triton_red_fused__to_copy_add_linalg_vector_norm_mean_mul_slice_zeros_like_32(%in_ptr0: !tt.ptr<bf16> {tt.divisibility = 16 : i32} loc("in_ptr0"(#loc)), %in_ptr1: !tt.ptr<bf16> {tt.divisibility = 16 : i32} loc("in_ptr1"(#loc)), %in_ptr2: !tt.ptr<f32> {tt.divisibility = 16 : i32} loc("in_ptr2"(#loc)), %in_ptr3: !tt.ptr<f32> {tt.divisibility = 16 : i32} loc("in_ptr3"(#loc)), %out_ptr0: !tt.ptr<f32> {tt.divisibility = 16 : i32} loc("out_ptr0"(#loc)), %xnumel: i32 {tt.divisibility = 16 : i32} loc("xnumel"(#loc)), %r0_numel: i32 loc("r0_numel"(#loc))) attributes {noinline = false} {
    %c36864_i32 = arith.constant 36864 : i32 loc(#loc1)
    %c5_i32 = arith.constant 5 : i32 loc(#loc1)
    %xmask = arith.constant 160 : i32 loc(#loc55)
    %cst = arith.constant dense<0.000000e+00> : tensor<1x2048xbf16> loc(#loc1)
    %c2048_i32 = arith.constant 2048 : i32 loc(#loc3)
    %c7373_i32 = arith.constant 7373 : i32 loc(#loc1)
    %c0_i32 = arith.constant 0 : i32 loc(#loc3)
    %cst_0 = arith.constant dense<1.024000e+03> : tensor<1x2048xf32> loc(#loc1)
    %cst_1 = arith.constant dense<36864> : tensor<1x2048xi32> loc(#loc1)
    %cst_2 = arith.constant dense<7373> : tensor<1x2048xi32> loc(#loc1)
    %cst_3 = arith.constant dense<0.000000e+00> : tensor<1x2048xf32> loc(#loc1)
    %xoffset = tt.get_program_id x : i32 loc(#loc56)
    %xmask_4 = arith.cmpi slt, %xoffset, %xmask : i32 loc(#loc55)
    %xmask_5 = tt.splat %xmask_4 : i1 -> tensor<1x1xi1> loc(#loc55)
    %r0_base = tt.make_range {end = 2048 : i32, start = 0 : i32} : tensor<2048xi32> loc(#loc57)
    %r0_base_6 = tt.expand_dims %r0_base {axis = 0 : i32} : tensor<2048xi32> -> tensor<1x2048xi32> loc(#loc58)
    %x0 = arith.remsi %xoffset, %c5_i32 : i32 loc(#loc59)
    %x1 = arith.divsi %xoffset, %c5_i32 : i32 loc(#loc60)
    %_tmp23 = scf.for %r0_offset = %c0_i32 to %c7373_i32 step %c2048_i32 iter_args(%_tmp23_8 = %cst_3) -> (tensor<1x2048xf32>)  : i32 {
      %r0_index = tt.splat %r0_offset : i32 -> tensor<1x2048xi32> loc(#loc62)
      %r0_index_9 = arith.addi %r0_index, %r0_base_6 : tensor<1x2048xi32> loc(#loc62)
      %r0_mask = arith.cmpi slt, %r0_index_9, %cst_2 : tensor<1x2048xi32> loc(#loc63)
      %tmp0 = arith.muli %x0, %c7373_i32 : i32 loc(#loc64)
      %tmp0_10 = tt.splat %tmp0 : i32 -> tensor<1x2048xi32> loc(#loc95)
      %tmp0_11 = arith.addi %r0_index_9, %tmp0_10 : tensor<1x2048xi32> loc(#loc65)
      %tmp2 = arith.cmpi slt, %tmp0_11, %cst_1 : tensor<1x2048xi32> loc(#loc66)
      %tmp3 = arith.muli %x1, %c36864_i32 : i32 loc(#loc67)
      %tmp3_12 = arith.remsi %tmp0_11, %cst_1 : tensor<1x2048xi32> loc(#loc68)
      %tmp3_13 = tt.splat %tmp3 : i32 -> tensor<1x2048xi32> loc(#loc96)
      %tmp3_14 = arith.addi %tmp3_13, %tmp3_12 : tensor<1x2048xi32> loc(#loc69)
      %tmp3_15 = tt.splat %in_ptr0 : !tt.ptr<bf16> -> tensor<1x2048x!tt.ptr<bf16>> loc(#loc70)
      %tmp3_16 = tt.addptr %tmp3_15, %tmp3_14 : tensor<1x2048x!tt.ptr<bf16>>, tensor<1x2048xi32> loc(#loc70)
      %tmp3_17 = arith.andi %r0_mask, %tmp2 : tensor<1x2048xi1> loc(#loc71)
      %tmp3_18 = tt.splat %xmask_4 : i1 -> tensor<1x2048xi1> loc(#loc97)
      %tmp3_19 = arith.andi %tmp3_17, %tmp3_18 : tensor<1x2048xi1> loc(#loc72)
      %tmp3_20 = tt.load %tmp3_16, %tmp3_19, %cst evictionPolicy = evict_last : tensor<1x2048x!tt.ptr<bf16>> loc(#loc73)
      %tmp3_21 = arith.extf %tmp3_20 : tensor<1x2048xbf16> to tensor<1x2048xf32> loc(#loc74)
      %tmp5 = tt.splat %in_ptr1 : !tt.ptr<bf16> -> tensor<1x2048x!tt.ptr<bf16>> loc(#loc75)
      %tmp5_22 = tt.addptr %tmp5, %tmp3_14 : tensor<1x2048x!tt.ptr<bf16>>, tensor<1x2048xi32> loc(#loc75)
      %tmp5_23 = tt.load %tmp5_22, %tmp3_19, %cst evictionPolicy = evict_last : tensor<1x2048x!tt.ptr<bf16>> loc(#loc76)
      %tmp5_24 = arith.extf %tmp5_23 : tensor<1x2048xbf16> to tensor<1x2048xf32> loc(#loc77)
      %tmp7 = tt.addptr %in_ptr2, %x1 : !tt.ptr<f32>, i32 loc(#loc78)
      %tmp7_25 = tt.splat %tmp7 : !tt.ptr<f32> -> tensor<1x2048x!tt.ptr<f32>> loc(#loc78)
      %tmp7_26 = tt.load %tmp7_25, %tmp3_19, %cst_3 evictionPolicy = evict_last : tensor<1x2048x!tt.ptr<f32>> loc(#loc79)
      %tmp9 = arith.divf %tmp7_26, %cst_0 : tensor<1x2048xf32> loc(#loc80)
      %tmp11 = arith.mulf %tmp9, %cst_3 : tensor<1x2048xf32> loc(#loc81)
      %tmp12 = arith.addf %tmp5_24, %tmp11 : tensor<1x2048xf32> loc(#loc82)
      %tmp13 = tt.addptr %in_ptr3, %x1 : !tt.ptr<f32>, i32 loc(#loc83)
      %tmp13_27 = tt.splat %tmp13 : !tt.ptr<f32> -> tensor<1x2048x!tt.ptr<f32>> loc(#loc83)
      %tmp13_28 = tt.load %tmp13_27, %tmp3_19, %cst_3 evictionPolicy = evict_last : tensor<1x2048x!tt.ptr<f32>> loc(#loc84)
      %tmp14 = arith.divf %tmp13_28, %cst_0 : tensor<1x2048xf32> loc(#loc85)
      %tmp15 = arith.mulf %tmp12, %tmp14 : tensor<1x2048xf32> loc(#loc86)
      %tmp16 = arith.addf %tmp3_21, %tmp15 : tensor<1x2048xf32> loc(#loc87)
      %tmp19 = arith.mulf %tmp16, %tmp16 : tensor<1x2048xf32> loc(#loc88)
      %tmp21 = arith.select %tmp2, %tmp19, %cst_3 : tensor<1x2048xi1>, tensor<1x2048xf32> loc(#loc89)
      %tmp24 = arith.addf %_tmp23_8, %tmp21 : tensor<1x2048xf32> loc(#loc90)
      %_tmp23_29 = arith.andi %r0_mask, %tmp3_18 : tensor<1x2048xi1> loc(#loc91)
      %_tmp23_30 = arith.select %_tmp23_29, %tmp24, %_tmp23_8 : tensor<1x2048xi1>, tensor<1x2048xf32> loc(#loc92)
      scf.yield %_tmp23_30 : tensor<1x2048xf32> loc(#loc40)
    } loc(#loc61)
    %tmp23 = "tt.reduce"(%_tmp23) <{axis = 1 : i32}> ({
    ^bb0(%tmp23_8: f32 loc(callsite(#loc1 at #loc93)), %tmp23_9: f32 loc(callsite(#loc1 at #loc93))):
      %tmp23_10 = arith.addf %tmp23_8, %tmp23_9 : f32 loc(#loc100)
      tt.reduce.return %tmp23_10 : f32 loc(#loc98)
    }) : (tensor<1x2048xf32>) -> tensor<1xf32> loc(#loc98)
    %tmp23_7 = tt.expand_dims %tmp23 {axis = 1 : i32} : tensor<1xf32> -> tensor<1x1xf32> loc(#loc94)
    %0 = tt.addptr %out_ptr0, %xoffset : !tt.ptr<f32>, i32 loc(#loc45)
    %1 = tt.splat %0 : !tt.ptr<f32> -> tensor<1x1x!tt.ptr<f32>> loc(#loc45)
    tt.store %1, %tmp23_7, %xmask_5 : tensor<1x1x!tt.ptr<f32>> loc(#loc46)
    tt.return loc(#loc47)
  } loc(#loc)
} loc(#loc)
#loc2 = loc("/NHNHOME/WORKSPACE/26msit001_A/jinhyeok/TTT_camera_embedding/lact_llm/.cache_inductor/uj/cujnigyl75cmek5m3ddydpbtekxjsu6jw4gwxf3vzbcuaasn4d5w.py":25:21)
#loc3 = loc("/NHNHOME/WORKSPACE/26msit001_A/jinhyeok/TTT_camera_embedding/lact_llm/.cache_inductor/uj/cujnigyl75cmek5m3ddydpbtekxjsu6jw4gwxf3vzbcuaasn4d5w.py":32:40)
#loc4 = loc("/NHNHOME/WORKSPACE/26msit001_A/jinhyeok/TTT_camera_embedding/lact_llm/.cache_inductor/uj/cujnigyl75cmek5m3ddydpbtekxjsu6jw4gwxf3vzbcuaasn4d5w.py":23:28)
#loc5 = loc("/NHNHOME/WORKSPACE/26msit001_A/jinhyeok/TTT_camera_embedding/lact_llm/.cache_inductor/uj/cujnigyl75cmek5m3ddydpbtekxjsu6jw4gwxf3vzbcuaasn4d5w.py":26:27)
#loc6 = loc("/NHNHOME/WORKSPACE/26msit001_A/jinhyeok/TTT_camera_embedding/lact_llm/.cache_inductor/uj/cujnigyl75cmek5m3ddydpbtekxjsu6jw4gwxf3vzbcuaasn4d5w.py":26:37)
#loc7 = loc("/NHNHOME/WORKSPACE/26msit001_A/jinhyeok/TTT_camera_embedding/lact_llm/.cache_inductor/uj/cujnigyl75cmek5m3ddydpbtekxjsu6jw4gwxf3vzbcuaasn4d5w.py":28:19)
#loc8 = loc("/NHNHOME/WORKSPACE/26msit001_A/jinhyeok/TTT_camera_embedding/lact_llm/.cache_inductor/uj/cujnigyl75cmek5m3ddydpbtekxjsu6jw4gwxf3vzbcuaasn4d5w.py":29:19)
#loc9 = loc("/NHNHOME/WORKSPACE/26msit001_A/jinhyeok/TTT_camera_embedding/lact_llm/.cache_inductor/uj/cujnigyl75cmek5m3ddydpbtekxjsu6jw4gwxf3vzbcuaasn4d5w.py":33:31)
#loc10 = loc("/NHNHOME/WORKSPACE/26msit001_A/jinhyeok/TTT_camera_embedding/lact_llm/.cache_inductor/uj/cujnigyl75cmek5m3ddydpbtekxjsu6jw4gwxf3vzbcuaasn4d5w.py":34:29)
#loc11 = loc("/NHNHOME/WORKSPACE/26msit001_A/jinhyeok/TTT_camera_embedding/lact_llm/.cache_inductor/uj/cujnigyl75cmek5m3ddydpbtekxjsu6jw4gwxf3vzbcuaasn4d5w.py":38:27)
#loc12 = loc("/NHNHOME/WORKSPACE/26msit001_A/jinhyeok/TTT_camera_embedding/lact_llm/.cache_inductor/uj/cujnigyl75cmek5m3ddydpbtekxjsu6jw4gwxf3vzbcuaasn4d5w.py":38:22)
#loc13 = loc("/NHNHOME/WORKSPACE/26msit001_A/jinhyeok/TTT_camera_embedding/lact_llm/.cache_inductor/uj/cujnigyl75cmek5m3ddydpbtekxjsu6jw4gwxf3vzbcuaasn4d5w.py":40:22)
#loc14 = loc("/NHNHOME/WORKSPACE/26msit001_A/jinhyeok/TTT_camera_embedding/lact_llm/.cache_inductor/uj/cujnigyl75cmek5m3ddydpbtekxjsu6jw4gwxf3vzbcuaasn4d5w.py":41:40)
#loc15 = loc("/NHNHOME/WORKSPACE/26msit001_A/jinhyeok/TTT_camera_embedding/lact_llm/.cache_inductor/uj/cujnigyl75cmek5m3ddydpbtekxjsu6jw4gwxf3vzbcuaasn4d5w.py":41:66)
#loc16 = loc("/NHNHOME/WORKSPACE/26msit001_A/jinhyeok/TTT_camera_embedding/lact_llm/.cache_inductor/uj/cujnigyl75cmek5m3ddydpbtekxjsu6jw4gwxf3vzbcuaasn4d5w.py":41:47)
#loc17 = loc("/NHNHOME/WORKSPACE/26msit001_A/jinhyeok/TTT_camera_embedding/lact_llm/.cache_inductor/uj/cujnigyl75cmek5m3ddydpbtekxjsu6jw4gwxf3vzbcuaasn4d5w.py":41:34)
#loc18 = loc("/NHNHOME/WORKSPACE/26msit001_A/jinhyeok/TTT_camera_embedding/lact_llm/.cache_inductor/uj/cujnigyl75cmek5m3ddydpbtekxjsu6jw4gwxf3vzbcuaasn4d5w.py":41:86)
#loc19 = loc("/NHNHOME/WORKSPACE/26msit001_A/jinhyeok/TTT_camera_embedding/lact_llm/.cache_inductor/uj/cujnigyl75cmek5m3ddydpbtekxjsu6jw4gwxf3vzbcuaasn4d5w.py":41:93)
#loc20 = loc("/NHNHOME/WORKSPACE/26msit001_A/jinhyeok/TTT_camera_embedding/lact_llm/.cache_inductor/uj/cujnigyl75cmek5m3ddydpbtekxjsu6jw4gwxf3vzbcuaasn4d5w.py":41:76)
#loc21 = loc("/NHNHOME/WORKSPACE/26msit001_A/jinhyeok/TTT_camera_embedding/lact_llm/.cache_inductor/uj/cujnigyl75cmek5m3ddydpbtekxjsu6jw4gwxf3vzbcuaasn4d5w.py":41:144)
#loc22 = loc("/NHNHOME/WORKSPACE/26msit001_A/jinhyeok/TTT_camera_embedding/lact_llm/.cache_inductor/uj/cujnigyl75cmek5m3ddydpbtekxjsu6jw4gwxf3vzbcuaasn4d5w.py":43:34)
#loc23 = loc("/NHNHOME/WORKSPACE/26msit001_A/jinhyeok/TTT_camera_embedding/lact_llm/.cache_inductor/uj/cujnigyl75cmek5m3ddydpbtekxjsu6jw4gwxf3vzbcuaasn4d5w.py":43:76)
#loc24 = loc("/NHNHOME/WORKSPACE/26msit001_A/jinhyeok/TTT_camera_embedding/lact_llm/.cache_inductor/uj/cujnigyl75cmek5m3ddydpbtekxjsu6jw4gwxf3vzbcuaasn4d5w.py":43:144)
#loc25 = loc("/NHNHOME/WORKSPACE/26msit001_A/jinhyeok/TTT_camera_embedding/lact_llm/.cache_inductor/uj/cujnigyl75cmek5m3ddydpbtekxjsu6jw4gwxf3vzbcuaasn4d5w.py":45:34)
#loc26 = loc("/NHNHOME/WORKSPACE/26msit001_A/jinhyeok/TTT_camera_embedding/lact_llm/.cache_inductor/uj/cujnigyl75cmek5m3ddydpbtekxjsu6jw4gwxf3vzbcuaasn4d5w.py":45:76)
#loc27 = loc("/NHNHOME/WORKSPACE/26msit001_A/jinhyeok/TTT_camera_embedding/lact_llm/.cache_inductor/uj/cujnigyl75cmek5m3ddydpbtekxjsu6jw4gwxf3vzbcuaasn4d5w.py":47:23)
#loc28 = loc("/NHNHOME/WORKSPACE/26msit001_A/jinhyeok/TTT_camera_embedding/lact_llm/.cache_inductor/uj/cujnigyl75cmek5m3ddydpbtekxjsu6jw4gwxf3vzbcuaasn4d5w.py":49:24)
#loc29 = loc("/NHNHOME/WORKSPACE/26msit001_A/jinhyeok/TTT_camera_embedding/lact_llm/.cache_inductor/uj/cujnigyl75cmek5m3ddydpbtekxjsu6jw4gwxf3vzbcuaasn4d5w.py":50:23)
#loc30 = loc("/NHNHOME/WORKSPACE/26msit001_A/jinhyeok/TTT_camera_embedding/lact_llm/.cache_inductor/uj/cujnigyl75cmek5m3ddydpbtekxjsu6jw4gwxf3vzbcuaasn4d5w.py":51:35)
#loc31 = loc("/NHNHOME/WORKSPACE/26msit001_A/jinhyeok/TTT_camera_embedding/lact_llm/.cache_inductor/uj/cujnigyl75cmek5m3ddydpbtekxjsu6jw4gwxf3vzbcuaasn4d5w.py":51:77)
#loc32 = loc("/NHNHOME/WORKSPACE/26msit001_A/jinhyeok/TTT_camera_embedding/lact_llm/.cache_inductor/uj/cujnigyl75cmek5m3ddydpbtekxjsu6jw4gwxf3vzbcuaasn4d5w.py":52:25)
#loc33 = loc("/NHNHOME/WORKSPACE/26msit001_A/jinhyeok/TTT_camera_embedding/lact_llm/.cache_inductor/uj/cujnigyl75cmek5m3ddydpbtekxjsu6jw4gwxf3vzbcuaasn4d5w.py":53:24)
#loc34 = loc("/NHNHOME/WORKSPACE/26msit001_A/jinhyeok/TTT_camera_embedding/lact_llm/.cache_inductor/uj/cujnigyl75cmek5m3ddydpbtekxjsu6jw4gwxf3vzbcuaasn4d5w.py":54:23)
#loc35 = loc("/NHNHOME/WORKSPACE/26msit001_A/jinhyeok/TTT_camera_embedding/lact_llm/.cache_inductor/uj/cujnigyl75cmek5m3ddydpbtekxjsu6jw4gwxf3vzbcuaasn4d5w.py":57:24)
#loc36 = loc("/NHNHOME/WORKSPACE/26msit001_A/jinhyeok/TTT_camera_embedding/lact_llm/.cache_inductor/uj/cujnigyl75cmek5m3ddydpbtekxjsu6jw4gwxf3vzbcuaasn4d5w.py":59:38)
#loc37 = loc("/NHNHOME/WORKSPACE/26msit001_A/jinhyeok/TTT_camera_embedding/lact_llm/.cache_inductor/uj/cujnigyl75cmek5m3ddydpbtekxjsu6jw4gwxf3vzbcuaasn4d5w.py":61:25)
#loc38 = loc("/NHNHOME/WORKSPACE/26msit001_A/jinhyeok/TTT_camera_embedding/lact_llm/.cache_inductor/uj/cujnigyl75cmek5m3ddydpbtekxjsu6jw4gwxf3vzbcuaasn4d5w.py":62:36)
#loc39 = loc("/NHNHOME/WORKSPACE/26msit001_A/jinhyeok/TTT_camera_embedding/lact_llm/.cache_inductor/uj/cujnigyl75cmek5m3ddydpbtekxjsu6jw4gwxf3vzbcuaasn4d5w.py":62:50)
#loc40 = loc("/NHNHOME/WORKSPACE/26msit001_A/jinhyeok/TTT_camera_embedding/lact_llm/.cache_inductor/uj/cujnigyl75cmek5m3ddydpbtekxjsu6jw4gwxf3vzbcuaasn4d5w.py":62:8)
#loc41 = loc("/NHNHOME/WORKSPACE/26msit001_A/jinhyeok/TTT_camera_embedding/.venv_llm/lib/python3.12/site-packages/triton/language/standard.py":291:36)
#loc43 = loc("/NHNHOME/WORKSPACE/26msit001_A/jinhyeok/TTT_camera_embedding/.venv_llm/lib/python3.12/site-packages/triton/language/standard.py":261:15)
#loc44 = loc("/NHNHOME/WORKSPACE/26msit001_A/jinhyeok/TTT_camera_embedding/lact_llm/.cache_inductor/uj/cujnigyl75cmek5m3ddydpbtekxjsu6jw4gwxf3vzbcuaasn4d5w.py":63:30)
#loc45 = loc("/NHNHOME/WORKSPACE/26msit001_A/jinhyeok/TTT_camera_embedding/lact_llm/.cache_inductor/uj/cujnigyl75cmek5m3ddydpbtekxjsu6jw4gwxf3vzbcuaasn4d5w.py":64:25)
#loc46 = loc("/NHNHOME/WORKSPACE/26msit001_A/jinhyeok/TTT_camera_embedding/lact_llm/.cache_inductor/uj/cujnigyl75cmek5m3ddydpbtekxjsu6jw4gwxf3vzbcuaasn4d5w.py":64:37)
#loc47 = loc("/NHNHOME/WORKSPACE/26msit001_A/jinhyeok/TTT_camera_embedding/lact_llm/.cache_inductor/uj/cujnigyl75cmek5m3ddydpbtekxjsu6jw4gwxf3vzbcuaasn4d5w.py":64:4)
#loc55 = loc("xmask"(#loc2))
#loc56 = loc("xoffset"(#loc4))
#loc57 = loc("r0_base"(#loc5))
#loc58 = loc("r0_base"(#loc6))
#loc59 = loc("x0"(#loc7))
#loc60 = loc("x1"(#loc8))
#loc61 = loc("_tmp23"(#loc3))
#loc62 = loc("r0_index"(#loc9))
#loc63 = loc("r0_mask"(#loc10))
#loc64 = loc("tmp0"(#loc11))
#loc65 = loc("tmp0"(#loc12))
#loc66 = loc("tmp2"(#loc13))
#loc67 = loc("tmp3"(#loc14))
#loc68 = loc("tmp3"(#loc15))
#loc69 = loc("tmp3"(#loc16))
#loc70 = loc("tmp3"(#loc17))
#loc71 = loc("tmp3"(#loc18))
#loc72 = loc("tmp3"(#loc19))
#loc73 = loc("tmp3"(#loc20))
#loc74 = loc("tmp3"(#loc21))
#loc75 = loc("tmp5"(#loc22))
#loc76 = loc("tmp5"(#loc23))
#loc77 = loc("tmp5"(#loc24))
#loc78 = loc("tmp7"(#loc25))
#loc79 = loc("tmp7"(#loc26))
#loc80 = loc("tmp9"(#loc27))
#loc81 = loc("tmp11"(#loc28))
#loc82 = loc("tmp12"(#loc29))
#loc83 = loc("tmp13"(#loc30))
#loc84 = loc("tmp13"(#loc31))
#loc85 = loc("tmp14"(#loc32))
#loc86 = loc("tmp15"(#loc33))
#loc87 = loc("tmp16"(#loc34))
#loc88 = loc("tmp19"(#loc35))
#loc89 = loc("tmp21"(#loc36))
#loc90 = loc("tmp24"(#loc37))
#loc91 = loc("_tmp23"(#loc38))
#loc92 = loc("_tmp23"(#loc39))
#loc94 = loc("tmp23"(#loc44))
#loc95 = loc(fused[#loc65, #loc64])
#loc96 = loc(fused[#loc69, #loc67])
#loc97 = loc(fused[#loc72, #loc55])
#loc98 = loc(callsite(#loc41 at #loc93))
#loc100 = loc(callsite(#loc43 at #loc98))
