#loc = loc("/NHNHOME/WORKSPACE/26msit001_A/jinhyeok/loop_TTT/lact/.cache_inductor_llm/c6/cc6azbiirob64wbhwlmbzkdphtvbm3tlfpbf74fjy3dxcomzja6i.py":18:0)
#loc26 = loc("/NHNHOME/WORKSPACE/26msit001_A/jinhyeok/TTT_camera_embedding/.venv_llm/lib/python3.12/site-packages/triton/language/standard.py":285:0)
#loc28 = loc(unknown)
#loc31 = loc("/NHNHOME/WORKSPACE/26msit001_A/jinhyeok/TTT_camera_embedding/.venv_llm/lib/python3.12/site-packages/triton/language/standard.py":260:0)
#loc35 = loc("in_out_ptr0"(#loc))
#loc36 = loc("in_ptr0"(#loc))
#loc37 = loc("xnumel"(#loc))
#loc38 = loc("r0_numel"(#loc))
#loc60 = loc("input"(#loc26))
#loc61 = loc("a"(#loc31))
#loc62 = loc("b"(#loc31))
module {
  tt.func public @triton_per_fused_mean_slice_3(%in_out_ptr0: !tt.ptr<f32> {tt.divisibility = 16 : i32} loc("in_out_ptr0"(#loc)), %in_ptr0: !tt.ptr<f32> {tt.divisibility = 16 : i32} loc("in_ptr0"(#loc)), %xnumel: i32 {tt.divisibility = 16 : i32} loc("xnumel"(#loc)), %r0_numel: i32 {tt.divisibility = 16 : i32} loc("r0_numel"(#loc))) attributes {noinline = false} {
    %xnumel_0 = arith.constant 96 : i32 loc(#loc39)
    %r0_numel_1 = arith.constant 1024 : i32 loc(#loc40)
    %xoffset = tt.get_program_id x : i32 loc(#loc41)
    %xoffset_2 = arith.constant 1 : i32 loc(#loc42)
    %xoffset_3 = arith.constant 1 : i32 loc(#loc42)
    %xoffset_4 = arith.muli %xoffset, %xoffset_3 : i32 loc(#loc42)
    %xindex = tt.make_range {end = 1 : i32, start = 0 : i32} : tensor<1xi32> loc(#loc43)
    %xindex_5 = tt.expand_dims %xindex {axis = 1 : i32} : tensor<1xi32> -> tensor<1x1xi32> loc(#loc44)
    %xindex_6 = tt.splat %xoffset_4 : i32 -> tensor<1x1xi32> loc(#loc45)
    %xindex_7 = arith.addi %xindex_6, %xindex_5 : tensor<1x1xi32> loc(#loc45)
    %xmask = arith.constant dense<96> : tensor<1x1xi32> loc(#loc46)
    %xmask_8 = arith.cmpi slt, %xindex_7, %xmask : tensor<1x1xi32> loc(#loc46)
    %r0_index = tt.make_range {end = 1024 : i32, start = 0 : i32} : tensor<1024xi32> loc(#loc47)
    %r0_index_9 = tt.expand_dims %r0_index {axis = 0 : i32} : tensor<1024xi32> -> tensor<1x1024xi32> loc(#loc48)
    %r0_offset = arith.constant 0 : i32 loc(#loc49)
    %r0_mask = arith.constant true loc(#loc50)
    %r0_mask_10 = arith.constant dense<true> : tensor<1x1024xi1> loc(#loc50)
    %tmp0 = arith.constant 4096 : i32 loc(#loc51)
    %tmp0_11 = arith.constant 4096 : i32 loc(#loc51)
    %tmp0_12 = arith.constant dense<4096> : tensor<1x1xi32> loc(#loc51)
    %tmp0_13 = arith.muli %tmp0_12, %xindex_7 : tensor<1x1xi32> loc(#loc51)
    %tmp0_14 = tt.broadcast %tmp0_13 : tensor<1x1xi32> -> tensor<1x1024xi32> loc(#loc52)
    %tmp0_15 = arith.addi %r0_index_9, %tmp0_14 : tensor<1x1024xi32> loc(#loc52)
    %tmp0_16 = tt.splat %in_ptr0 : !tt.ptr<f32> -> tensor<1x1024x!tt.ptr<f32>> loc(#loc53)
    %tmp0_17 = tt.addptr %tmp0_16, %tmp0_15 : tensor<1x1024x!tt.ptr<f32>>, tensor<1x1024xi32> loc(#loc53)
    %tmp0_18 = arith.constant 0.000000e+00 : f32 loc(#loc54)
    %tmp0_19 = tt.broadcast %xmask_8 : tensor<1x1xi1> -> tensor<1x1024xi1> loc(#loc54)
    %tmp0_20 = arith.constant dense<0.000000e+00> : tensor<1x1024xf32> loc(#loc54)
    %tmp0_21 = tt.load %tmp0_17, %tmp0_19, %tmp0_20 : tensor<1x1024x!tt.ptr<f32>> loc(#loc54)
    %tmp3 = arith.constant 0 : i32 loc(#loc55)
    %tmp3_22 = arith.constant 0.000000e+00 : f32 loc(#loc55)
    %tmp3_23 = arith.constant dense<0.000000e+00> : tensor<1x1024xf32> loc(#loc55)
    %tmp3_24 = tt.broadcast %xmask_8 : tensor<1x1xi1> -> tensor<1x1024xi1> loc(#loc55)
    %tmp3_25 = arith.select %tmp3_24, %tmp0_21, %tmp3_23 : tensor<1x1024xi1>, tensor<1x1024xf32> loc(#loc55)
    %tmp4 = tt.call @"triton.language.standard.sum__fp32S1_1024S__(1,)cconstexpr_1__(2,)cconstexpr_False__(3,)cNone"(%tmp3_25) : (tensor<1x1024xf32>) -> tensor<1xf32> loc(#loc56)
    %tmp4_26 = tt.expand_dims %tmp4 {axis = 1 : i32} : tensor<1xf32> -> tensor<1x1xf32> loc(#loc57)
    %tmp5 = arith.constant 1.024000e+03 : f32 loc(#loc58)
    %tmp6 = arith.constant dense<1.024000e+03> : tensor<1x1xf32> loc(#loc59)
    %tmp6_27 = arith.divf %tmp4_26, %tmp6 : tensor<1x1xf32> loc(#loc59)
    gpu.barrier loc(#loc22)
    %0 = tt.splat %in_out_ptr0 : !tt.ptr<f32> -> tensor<1x1x!tt.ptr<f32>> loc(#loc23)
    %1 = tt.addptr %0, %xindex_7 : tensor<1x1x!tt.ptr<f32>>, tensor<1x1xi32> loc(#loc23)
    tt.store %1, %tmp6_27, %xmask_8 : tensor<1x1x!tt.ptr<f32>> loc(#loc24)
    tt.return loc(#loc25)
  } loc(#loc)
  tt.func private @"triton.language.standard.sum__fp32S1_1024S__(1,)cconstexpr_1__(2,)cconstexpr_False__(3,)cNone"(%input: tensor<1x1024xf32> loc("input"(#loc26))) -> tensor<1xf32> attributes {noinline = false} {
    %0 = "tt.reduce"(%input) <{axis = 1 : i32}> ({
    ^bb0(%arg1: f32 loc(unknown), %arg2: f32 loc(unknown)):
      %2 = tt.call @triton.language.standard._sum_combine__fp32_fp32__(%arg1, %arg2) : (f32, f32) -> f32 loc(#loc27)
      tt.reduce.return %2 : f32 loc(#loc27)
    }) : (tensor<1x1024xf32>) -> tensor<1xf32> loc(#loc27)
    tt.return %0 : tensor<1xf32> loc(#loc29)
  ^bb1:  // no predecessors
    %1 = ub.poison : tensor<1xf32> loc(#loc30)
    tt.return %1 : tensor<1xf32> loc(#loc30)
  } loc(#loc26)
  tt.func private @triton.language.standard._sum_combine__fp32_fp32__(%a: f32 loc("a"(#loc31)), %b: f32 loc("b"(#loc31))) -> f32 attributes {noinline = false} {
    %0 = arith.addf %a, %b : f32 loc(#loc32)
    tt.return %0 : f32 loc(#loc33)
  ^bb1:  // no predecessors
    %1 = ub.poison : f32 loc(#loc34)
    tt.return %1 : f32 loc(#loc34)
  } loc(#loc31)
} loc(#loc)
#loc1 = loc("/NHNHOME/WORKSPACE/26msit001_A/jinhyeok/loop_TTT/lact/.cache_inductor_llm/c6/cc6azbiirob64wbhwlmbzkdphtvbm3tlfpbf74fjy3dxcomzja6i.py":19:13)
#loc2 = loc("/NHNHOME/WORKSPACE/26msit001_A/jinhyeok/loop_TTT/lact/.cache_inductor_llm/c6/cc6azbiirob64wbhwlmbzkdphtvbm3tlfpbf74fjy3dxcomzja6i.py":20:15)
#loc3 = loc("/NHNHOME/WORKSPACE/26msit001_A/jinhyeok/loop_TTT/lact/.cache_inductor_llm/c6/cc6azbiirob64wbhwlmbzkdphtvbm3tlfpbf74fjy3dxcomzja6i.py":24:28)
#loc4 = loc("/NHNHOME/WORKSPACE/26msit001_A/jinhyeok/loop_TTT/lact/.cache_inductor_llm/c6/cc6azbiirob64wbhwlmbzkdphtvbm3tlfpbf74fjy3dxcomzja6i.py":24:33)
#loc5 = loc("/NHNHOME/WORKSPACE/26msit001_A/jinhyeok/loop_TTT/lact/.cache_inductor_llm/c6/cc6azbiirob64wbhwlmbzkdphtvbm3tlfpbf74fjy3dxcomzja6i.py":25:36)
#loc6 = loc("/NHNHOME/WORKSPACE/26msit001_A/jinhyeok/loop_TTT/lact/.cache_inductor_llm/c6/cc6azbiirob64wbhwlmbzkdphtvbm3tlfpbf74fjy3dxcomzja6i.py":25:44)
#loc7 = loc("/NHNHOME/WORKSPACE/26msit001_A/jinhyeok/loop_TTT/lact/.cache_inductor_llm/c6/cc6azbiirob64wbhwlmbzkdphtvbm3tlfpbf74fjy3dxcomzja6i.py":25:23)
#loc8 = loc("/NHNHOME/WORKSPACE/26msit001_A/jinhyeok/loop_TTT/lact/.cache_inductor_llm/c6/cc6azbiirob64wbhwlmbzkdphtvbm3tlfpbf74fjy3dxcomzja6i.py":26:21)
#loc9 = loc("/NHNHOME/WORKSPACE/26msit001_A/jinhyeok/loop_TTT/lact/.cache_inductor_llm/c6/cc6azbiirob64wbhwlmbzkdphtvbm3tlfpbf74fjy3dxcomzja6i.py":27:28)
#loc10 = loc("/NHNHOME/WORKSPACE/26msit001_A/jinhyeok/loop_TTT/lact/.cache_inductor_llm/c6/cc6azbiirob64wbhwlmbzkdphtvbm3tlfpbf74fjy3dxcomzja6i.py":27:38)
#loc11 = loc("/NHNHOME/WORKSPACE/26msit001_A/jinhyeok/loop_TTT/lact/.cache_inductor_llm/c6/cc6azbiirob64wbhwlmbzkdphtvbm3tlfpbf74fjy3dxcomzja6i.py":28:16)
#loc12 = loc("/NHNHOME/WORKSPACE/26msit001_A/jinhyeok/loop_TTT/lact/.cache_inductor_llm/c6/cc6azbiirob64wbhwlmbzkdphtvbm3tlfpbf74fjy3dxcomzja6i.py":29:48)
#loc13 = loc("/NHNHOME/WORKSPACE/26msit001_A/jinhyeok/loop_TTT/lact/.cache_inductor_llm/c6/cc6azbiirob64wbhwlmbzkdphtvbm3tlfpbf74fjy3dxcomzja6i.py":34:42)
#loc14 = loc("/NHNHOME/WORKSPACE/26msit001_A/jinhyeok/loop_TTT/lact/.cache_inductor_llm/c6/cc6azbiirob64wbhwlmbzkdphtvbm3tlfpbf74fjy3dxcomzja6i.py":34:37)
#loc15 = loc("/NHNHOME/WORKSPACE/26msit001_A/jinhyeok/loop_TTT/lact/.cache_inductor_llm/c6/cc6azbiirob64wbhwlmbzkdphtvbm3tlfpbf74fjy3dxcomzja6i.py":34:30)
#loc16 = loc("/NHNHOME/WORKSPACE/26msit001_A/jinhyeok/loop_TTT/lact/.cache_inductor_llm/c6/cc6azbiirob64wbhwlmbzkdphtvbm3tlfpbf74fjy3dxcomzja6i.py":34:47)
#loc17 = loc("/NHNHOME/WORKSPACE/26msit001_A/jinhyeok/loop_TTT/lact/.cache_inductor_llm/c6/cc6azbiirob64wbhwlmbzkdphtvbm3tlfpbf74fjy3dxcomzja6i.py":36:33)
#loc18 = loc("/NHNHOME/WORKSPACE/26msit001_A/jinhyeok/loop_TTT/lact/.cache_inductor_llm/c6/cc6azbiirob64wbhwlmbzkdphtvbm3tlfpbf74fjy3dxcomzja6i.py":37:24)
#loc19 = loc("/NHNHOME/WORKSPACE/26msit001_A/jinhyeok/loop_TTT/lact/.cache_inductor_llm/c6/cc6azbiirob64wbhwlmbzkdphtvbm3tlfpbf74fjy3dxcomzja6i.py":37:27)
#loc20 = loc("/NHNHOME/WORKSPACE/26msit001_A/jinhyeok/loop_TTT/lact/.cache_inductor_llm/c6/cc6azbiirob64wbhwlmbzkdphtvbm3tlfpbf74fjy3dxcomzja6i.py":38:11)
#loc21 = loc("/NHNHOME/WORKSPACE/26msit001_A/jinhyeok/loop_TTT/lact/.cache_inductor_llm/c6/cc6azbiirob64wbhwlmbzkdphtvbm3tlfpbf74fjy3dxcomzja6i.py":39:19)
#loc22 = loc("/NHNHOME/WORKSPACE/26msit001_A/jinhyeok/loop_TTT/lact/.cache_inductor_llm/c6/cc6azbiirob64wbhwlmbzkdphtvbm3tlfpbf74fjy3dxcomzja6i.py":40:4)
#loc23 = loc("/NHNHOME/WORKSPACE/26msit001_A/jinhyeok/loop_TTT/lact/.cache_inductor_llm/c6/cc6azbiirob64wbhwlmbzkdphtvbm3tlfpbf74fjy3dxcomzja6i.py":41:28)
#loc24 = loc("/NHNHOME/WORKSPACE/26msit001_A/jinhyeok/loop_TTT/lact/.cache_inductor_llm/c6/cc6azbiirob64wbhwlmbzkdphtvbm3tlfpbf74fjy3dxcomzja6i.py":41:39)
#loc25 = loc("/NHNHOME/WORKSPACE/26msit001_A/jinhyeok/loop_TTT/lact/.cache_inductor_llm/c6/cc6azbiirob64wbhwlmbzkdphtvbm3tlfpbf74fjy3dxcomzja6i.py":41:4)
#loc27 = loc("/NHNHOME/WORKSPACE/26msit001_A/jinhyeok/TTT_camera_embedding/.venv_llm/lib/python3.12/site-packages/triton/language/standard.py":291:36)
#loc29 = loc("/NHNHOME/WORKSPACE/26msit001_A/jinhyeok/TTT_camera_embedding/.venv_llm/lib/python3.12/site-packages/triton/language/standard.py":291:11)
#loc30 = loc("/NHNHOME/WORKSPACE/26msit001_A/jinhyeok/TTT_camera_embedding/.venv_llm/lib/python3.12/site-packages/triton/language/standard.py":291:4)
#loc32 = loc("/NHNHOME/WORKSPACE/26msit001_A/jinhyeok/TTT_camera_embedding/.venv_llm/lib/python3.12/site-packages/triton/language/standard.py":261:15)
#loc33 = loc("/NHNHOME/WORKSPACE/26msit001_A/jinhyeok/TTT_camera_embedding/.venv_llm/lib/python3.12/site-packages/triton/language/standard.py":261:11)
#loc34 = loc("/NHNHOME/WORKSPACE/26msit001_A/jinhyeok/TTT_camera_embedding/.venv_llm/lib/python3.12/site-packages/triton/language/standard.py":261:4)
#loc39 = loc("xnumel"(#loc1))
#loc40 = loc("r0_numel"(#loc2))
#loc41 = loc("xoffset"(#loc3))
#loc42 = loc("xoffset"(#loc4))
#loc43 = loc("xindex"(#loc5))
#loc44 = loc("xindex"(#loc6))
#loc45 = loc("xindex"(#loc7))
#loc46 = loc("xmask"(#loc8))
#loc47 = loc("r0_index"(#loc9))
#loc48 = loc("r0_index"(#loc10))
#loc49 = loc("r0_offset"(#loc11))
#loc50 = loc("r0_mask"(#loc12))
#loc51 = loc("tmp0"(#loc13))
#loc52 = loc("tmp0"(#loc14))
#loc53 = loc("tmp0"(#loc15))
#loc54 = loc("tmp0"(#loc16))
#loc55 = loc("tmp3"(#loc17))
#loc56 = loc("tmp4"(#loc18))
#loc57 = loc("tmp4"(#loc19))
#loc58 = loc("tmp5"(#loc20))
#loc59 = loc("tmp6"(#loc21))
