#loc = loc("/NHNHOME/WORKSPACE/26msit001_A/jinhyeok/loop_TTT/lact/.cache_inductor_llm/ap/cap2gnd3f4abcdaqy52bv2rqo6ma3q45oroo24lxldhv5zcgga7s.py":18:0)
#loc54 = loc("in_ptr0"(#loc))
#loc55 = loc("in_ptr1"(#loc))
#loc56 = loc("in_ptr2"(#loc))
#loc57 = loc("in_ptr3"(#loc))
#loc58 = loc("in_ptr4"(#loc))
#loc59 = loc("in_ptr5"(#loc))
#loc60 = loc("in_ptr6"(#loc))
#loc61 = loc("out_ptr0"(#loc))
#loc62 = loc("out_ptr1"(#loc))
#loc63 = loc("out_ptr2"(#loc))
#loc64 = loc("out_ptr3"(#loc))
#loc65 = loc("out_ptr4"(#loc))
#loc66 = loc("out_ptr5"(#loc))
#loc67 = loc("out_ptr6"(#loc))
#loc68 = loc("xnumel"(#loc))
module {
  tt.func public @triton_poi_fused__to_copy_add_div_linalg_vector_norm_mean_mul_slice_transpose_zeros_like_13(%in_ptr0: !tt.ptr<bf16> {tt.divisibility = 16 : i32} loc("in_ptr0"(#loc)), %in_ptr1: !tt.ptr<f32> {tt.divisibility = 16 : i32} loc("in_ptr1"(#loc)), %in_ptr2: !tt.ptr<f32> {tt.divisibility = 16 : i32} loc("in_ptr2"(#loc)), %in_ptr3: !tt.ptr<bf16> {tt.divisibility = 16 : i32} loc("in_ptr3"(#loc)), %in_ptr4: !tt.ptr<bf16> {tt.divisibility = 16 : i32} loc("in_ptr4"(#loc)), %in_ptr5: !tt.ptr<bf16> {tt.divisibility = 16 : i32} loc("in_ptr5"(#loc)), %in_ptr6: !tt.ptr<f32> {tt.divisibility = 16 : i32} loc("in_ptr6"(#loc)), %out_ptr0: !tt.ptr<f32> {tt.divisibility = 16 : i32} loc("out_ptr0"(#loc)), %out_ptr1: !tt.ptr<bf16> {tt.divisibility = 16 : i32} loc("out_ptr1"(#loc)), %out_ptr2: !tt.ptr<bf16> {tt.divisibility = 16 : i32} loc("out_ptr2"(#loc)), %out_ptr3: !tt.ptr<bf16> {tt.divisibility = 16 : i32} loc("out_ptr3"(#loc)), %out_ptr4: !tt.ptr<bf16> {tt.divisibility = 16 : i32} loc("out_ptr4"(#loc)), %out_ptr5: !tt.ptr<bf16> {tt.divisibility = 16 : i32} loc("out_ptr5"(#loc)), %out_ptr6: !tt.ptr<bf16> {tt.divisibility = 16 : i32} loc("out_ptr6"(#loc)), %xnumel: i32 {tt.divisibility = 16 : i32} loc("xnumel"(#loc))) attributes {noinline = false} {
    %tmp21 = arith.constant dense<3.950500e+00> : tensor<1024xf32> loc(#loc69)
    %tmp16 = arith.constant dense<4.084800e+00> : tensor<1024xf32> loc(#loc70)
    %cst = arith.constant dense<1.000000e-07> : tensor<1024xf32> loc(#loc3)
    %tmp6 = arith.constant dense<0.000000e+00> : tensor<1024xf32> loc(#loc71)
    %tmp4 = arith.constant dense<1.024000e+03> : tensor<1024xf32> loc(#loc72)
    %x1 = arith.constant dense<36864> : tensor<1024xi32> loc(#loc73)
    %c1024_i32 = arith.constant 1024 : i32 loc(#loc3)
    %xoffset = tt.get_program_id x : i32 loc(#loc74)
    %xoffset_0 = arith.muli %xoffset, %c1024_i32 : i32 loc(#loc75)
    %xindex = tt.make_range {end = 1024 : i32, start = 0 : i32} : tensor<1024xi32> loc(#loc76)
    %xindex_1 = tt.splat %xoffset_0 : i32 -> tensor<1024xi32> loc(#loc77)
    %xindex_2 = arith.addi %xindex_1, %xindex : tensor<1024xi32> loc(#loc77)
    %x1_3 = arith.divsi %xindex_2, %x1 : tensor<1024xi32> loc(#loc73)
    %tmp0 = tt.splat %in_ptr0 : !tt.ptr<bf16> -> tensor<1024x!tt.ptr<bf16>> loc(#loc78)
    %tmp0_4 = tt.addptr %tmp0, %xindex_2 : tensor<1024x!tt.ptr<bf16>>, tensor<1024xi32> loc(#loc78)
    %tmp0_5 = tt.load %tmp0_4 : tensor<1024x!tt.ptr<bf16>> loc(#loc79)
    %tmp0_6 = arith.extf %tmp0_5 : tensor<1024xbf16> to tensor<1024xf32> loc(#loc80)
    %tmp2 = tt.splat %in_ptr1 : !tt.ptr<f32> -> tensor<1024x!tt.ptr<f32>> loc(#loc81)
    %tmp2_7 = tt.addptr %tmp2, %x1_3 : tensor<1024x!tt.ptr<f32>>, tensor<1024xi32> loc(#loc81)
    %tmp2_8 = tt.load %tmp2_7 evictionPolicy = evict_last : tensor<1024x!tt.ptr<f32>> loc(#loc82)
    %tmp10 = tt.splat %in_ptr2 : !tt.ptr<f32> -> tensor<1024x!tt.ptr<f32>> loc(#loc83)
    %tmp10_9 = tt.addptr %tmp10, %x1_3 : tensor<1024x!tt.ptr<f32>>, tensor<1024xi32> loc(#loc83)
    %tmp10_10 = tt.load %tmp10_9 evictionPolicy = evict_last : tensor<1024x!tt.ptr<f32>> loc(#loc84)
    %tmp17 = tt.splat %in_ptr3 : !tt.ptr<bf16> -> tensor<1024x!tt.ptr<bf16>> loc(#loc85)
    %tmp17_11 = tt.addptr %tmp17, %xindex_2 : tensor<1024x!tt.ptr<bf16>>, tensor<1024xi32> loc(#loc85)
    %tmp17_12 = tt.load %tmp17_11 : tensor<1024x!tt.ptr<bf16>> loc(#loc86)
    %tmp17_13 = arith.extf %tmp17_12 : tensor<1024xbf16> to tensor<1024xf32> loc(#loc87)
    %tmp22 = tt.splat %in_ptr4 : !tt.ptr<bf16> -> tensor<1024x!tt.ptr<bf16>> loc(#loc88)
    %tmp22_14 = tt.addptr %tmp22, %xindex_2 : tensor<1024x!tt.ptr<bf16>>, tensor<1024xi32> loc(#loc88)
    %tmp22_15 = tt.load %tmp22_14 : tensor<1024x!tt.ptr<bf16>> loc(#loc89)
    %tmp22_16 = arith.extf %tmp22_15 : tensor<1024xbf16> to tensor<1024xf32> loc(#loc90)
    %tmp26 = tt.splat %in_ptr5 : !tt.ptr<bf16> -> tensor<1024x!tt.ptr<bf16>> loc(#loc91)
    %tmp26_17 = tt.addptr %tmp26, %xindex_2 : tensor<1024x!tt.ptr<bf16>>, tensor<1024xi32> loc(#loc91)
    %tmp26_18 = tt.load %tmp26_17 : tensor<1024x!tt.ptr<bf16>> loc(#loc92)
    %tmp26_19 = arith.extf %tmp26_18 : tensor<1024xbf16> to tensor<1024xf32> loc(#loc93)
    %tmp31 = tt.splat %in_ptr6 : !tt.ptr<f32> -> tensor<1024x!tt.ptr<f32>> loc(#loc94)
    %tmp31_20 = tt.addptr %tmp31, %x1_3 : tensor<1024x!tt.ptr<f32>>, tensor<1024xi32> loc(#loc94)
    %tmp31_21 = tt.load %tmp31_20 evictionPolicy = evict_last : tensor<1024x!tt.ptr<f32>> loc(#loc95)
    %tmp4_22 = arith.divf %tmp2_8, %tmp4 : tensor<1024xf32> loc(#loc72)
    %tmp6_23 = arith.mulf %tmp4_22, %tmp6 : tensor<1024xf32> loc(#loc71)
    %tmp7 = arith.addf %tmp0_6, %tmp6_23 : tensor<1024xf32> loc(#loc96)
    %tmp11 = tt.extern_elementwise %tmp10_10 {libname = "", libpath = "", pure = true, symbol = "__nv_sqrtf"} : (tensor<1024xf32>) -> tensor<1024xf32> loc(#loc97)
    %tmp13 = arith.addf %tmp11, %cst : tensor<1024xf32> loc(#loc98)
    %tmp14 = arith.divf %tmp7, %tmp13 : tensor<1024xf32> loc(#loc99)
    %tmp16_24 = arith.mulf %tmp14, %tmp16 : tensor<1024xf32> loc(#loc70)
    %tmp19 = arith.addf %tmp16_24, %tmp17_13 : tensor<1024xf32> loc(#loc100)
    %tmp21_25 = arith.mulf %tmp19, %tmp21 : tensor<1024xf32> loc(#loc69)
    %tmp24 = arith.addf %tmp21_25, %tmp22_16 : tensor<1024xf32> loc(#loc101)
    %tmp28 = arith.addf %tmp26_19, %tmp6_23 : tensor<1024xf32> loc(#loc102)
    %tmp32 = tt.extern_elementwise %tmp31_21 {libname = "", libpath = "", pure = true, symbol = "__nv_sqrtf"} : (tensor<1024xf32>) -> tensor<1024xf32> loc(#loc103)
    %tmp33 = arith.addf %tmp32, %cst : tensor<1024xf32> loc(#loc104)
    %tmp34 = arith.divf %tmp28, %tmp33 : tensor<1024xf32> loc(#loc105)
    %0 = tt.splat %out_ptr0 : !tt.ptr<f32> -> tensor<1024x!tt.ptr<f32>> loc(#loc39)
    %1 = tt.addptr %0, %xindex_2 : tensor<1024x!tt.ptr<f32>>, tensor<1024xi32> loc(#loc39)
    tt.store %1, %tmp24 : tensor<1024x!tt.ptr<f32>> loc(#loc40)
    %2 = tt.splat %out_ptr1 : !tt.ptr<bf16> -> tensor<1024x!tt.ptr<bf16>> loc(#loc41)
    %3 = tt.addptr %2, %xindex_2 : tensor<1024x!tt.ptr<bf16>>, tensor<1024xi32> loc(#loc41)
    %4 = arith.truncf %tmp24 : tensor<1024xf32> to tensor<1024xbf16> loc(#loc42)
    tt.store %3, %4 : tensor<1024x!tt.ptr<bf16>> loc(#loc42)
    %5 = tt.splat %out_ptr2 : !tt.ptr<bf16> -> tensor<1024x!tt.ptr<bf16>> loc(#loc43)
    %6 = tt.addptr %5, %xindex_2 : tensor<1024x!tt.ptr<bf16>>, tensor<1024xi32> loc(#loc43)
    tt.store %6, %4 : tensor<1024x!tt.ptr<bf16>> loc(#loc44)
    %7 = tt.splat %out_ptr3 : !tt.ptr<bf16> -> tensor<1024x!tt.ptr<bf16>> loc(#loc45)
    %8 = tt.addptr %7, %xindex_2 : tensor<1024x!tt.ptr<bf16>>, tensor<1024xi32> loc(#loc45)
    tt.store %8, %4 : tensor<1024x!tt.ptr<bf16>> loc(#loc46)
    %9 = tt.splat %out_ptr4 : !tt.ptr<bf16> -> tensor<1024x!tt.ptr<bf16>> loc(#loc47)
    %10 = tt.addptr %9, %xindex_2 : tensor<1024x!tt.ptr<bf16>>, tensor<1024xi32> loc(#loc47)
    %11 = arith.truncf %tmp34 : tensor<1024xf32> to tensor<1024xbf16> loc(#loc48)
    tt.store %10, %11 : tensor<1024x!tt.ptr<bf16>> loc(#loc48)
    %12 = tt.splat %out_ptr5 : !tt.ptr<bf16> -> tensor<1024x!tt.ptr<bf16>> loc(#loc49)
    %13 = tt.addptr %12, %xindex_2 : tensor<1024x!tt.ptr<bf16>>, tensor<1024xi32> loc(#loc49)
    tt.store %13, %11 : tensor<1024x!tt.ptr<bf16>> loc(#loc50)
    %14 = tt.splat %out_ptr6 : !tt.ptr<bf16> -> tensor<1024x!tt.ptr<bf16>> loc(#loc51)
    %15 = tt.addptr %14, %xindex_2 : tensor<1024x!tt.ptr<bf16>>, tensor<1024xi32> loc(#loc51)
    tt.store %15, %11 : tensor<1024x!tt.ptr<bf16>> loc(#loc52)
    tt.return loc(#loc53)
  } loc(#loc)
} loc(#loc)
#loc1 = loc("/NHNHOME/WORKSPACE/26msit001_A/jinhyeok/loop_TTT/lact/.cache_inductor_llm/ap/cap2gnd3f4abcdaqy52bv2rqo6ma3q45oroo24lxldhv5zcgga7s.py":49:20)
#loc2 = loc("/NHNHOME/WORKSPACE/26msit001_A/jinhyeok/loop_TTT/lact/.cache_inductor_llm/ap/cap2gnd3f4abcdaqy52bv2rqo6ma3q45oroo24lxldhv5zcgga7s.py":45:20)
#loc3 = loc(unknown)
#loc4 = loc("/NHNHOME/WORKSPACE/26msit001_A/jinhyeok/loop_TTT/lact/.cache_inductor_llm/ap/cap2gnd3f4abcdaqy52bv2rqo6ma3q45oroo24lxldhv5zcgga7s.py":36:18)
#loc5 = loc("/NHNHOME/WORKSPACE/26msit001_A/jinhyeok/loop_TTT/lact/.cache_inductor_llm/ap/cap2gnd3f4abcdaqy52bv2rqo6ma3q45oroo24lxldhv5zcgga7s.py":34:19)
#loc6 = loc("/NHNHOME/WORKSPACE/26msit001_A/jinhyeok/loop_TTT/lact/.cache_inductor_llm/ap/cap2gnd3f4abcdaqy52bv2rqo6ma3q45oroo24lxldhv5zcgga7s.py":24:19)
#loc7 = loc("/NHNHOME/WORKSPACE/26msit001_A/jinhyeok/loop_TTT/lact/.cache_inductor_llm/ap/cap2gnd3f4abcdaqy52bv2rqo6ma3q45oroo24lxldhv5zcgga7s.py":20:28)
#loc8 = loc("/NHNHOME/WORKSPACE/26msit001_A/jinhyeok/loop_TTT/lact/.cache_inductor_llm/ap/cap2gnd3f4abcdaqy52bv2rqo6ma3q45oroo24lxldhv5zcgga7s.py":20:33)
#loc9 = loc("/NHNHOME/WORKSPACE/26msit001_A/jinhyeok/loop_TTT/lact/.cache_inductor_llm/ap/cap2gnd3f4abcdaqy52bv2rqo6ma3q45oroo24lxldhv5zcgga7s.py":21:36)
#loc10 = loc("/NHNHOME/WORKSPACE/26msit001_A/jinhyeok/loop_TTT/lact/.cache_inductor_llm/ap/cap2gnd3f4abcdaqy52bv2rqo6ma3q45oroo24lxldhv5zcgga7s.py":21:23)
#loc11 = loc("/NHNHOME/WORKSPACE/26msit001_A/jinhyeok/loop_TTT/lact/.cache_inductor_llm/ap/cap2gnd3f4abcdaqy52bv2rqo6ma3q45oroo24lxldhv5zcgga7s.py":25:30)
#loc12 = loc("/NHNHOME/WORKSPACE/26msit001_A/jinhyeok/loop_TTT/lact/.cache_inductor_llm/ap/cap2gnd3f4abcdaqy52bv2rqo6ma3q45oroo24lxldhv5zcgga7s.py":25:35)
#loc13 = loc("/NHNHOME/WORKSPACE/26msit001_A/jinhyeok/loop_TTT/lact/.cache_inductor_llm/ap/cap2gnd3f4abcdaqy52bv2rqo6ma3q45oroo24lxldhv5zcgga7s.py":25:44)
#loc14 = loc("/NHNHOME/WORKSPACE/26msit001_A/jinhyeok/loop_TTT/lact/.cache_inductor_llm/ap/cap2gnd3f4abcdaqy52bv2rqo6ma3q45oroo24lxldhv5zcgga7s.py":26:30)
#loc15 = loc("/NHNHOME/WORKSPACE/26msit001_A/jinhyeok/loop_TTT/lact/.cache_inductor_llm/ap/cap2gnd3f4abcdaqy52bv2rqo6ma3q45oroo24lxldhv5zcgga7s.py":26:35)
#loc16 = loc("/NHNHOME/WORKSPACE/26msit001_A/jinhyeok/loop_TTT/lact/.cache_inductor_llm/ap/cap2gnd3f4abcdaqy52bv2rqo6ma3q45oroo24lxldhv5zcgga7s.py":27:31)
#loc17 = loc("/NHNHOME/WORKSPACE/26msit001_A/jinhyeok/loop_TTT/lact/.cache_inductor_llm/ap/cap2gnd3f4abcdaqy52bv2rqo6ma3q45oroo24lxldhv5zcgga7s.py":27:36)
#loc18 = loc("/NHNHOME/WORKSPACE/26msit001_A/jinhyeok/loop_TTT/lact/.cache_inductor_llm/ap/cap2gnd3f4abcdaqy52bv2rqo6ma3q45oroo24lxldhv5zcgga7s.py":28:31)
#loc19 = loc("/NHNHOME/WORKSPACE/26msit001_A/jinhyeok/loop_TTT/lact/.cache_inductor_llm/ap/cap2gnd3f4abcdaqy52bv2rqo6ma3q45oroo24lxldhv5zcgga7s.py":28:36)
#loc20 = loc("/NHNHOME/WORKSPACE/26msit001_A/jinhyeok/loop_TTT/lact/.cache_inductor_llm/ap/cap2gnd3f4abcdaqy52bv2rqo6ma3q45oroo24lxldhv5zcgga7s.py":28:45)
#loc21 = loc("/NHNHOME/WORKSPACE/26msit001_A/jinhyeok/loop_TTT/lact/.cache_inductor_llm/ap/cap2gnd3f4abcdaqy52bv2rqo6ma3q45oroo24lxldhv5zcgga7s.py":29:31)
#loc22 = loc("/NHNHOME/WORKSPACE/26msit001_A/jinhyeok/loop_TTT/lact/.cache_inductor_llm/ap/cap2gnd3f4abcdaqy52bv2rqo6ma3q45oroo24lxldhv5zcgga7s.py":29:36)
#loc23 = loc("/NHNHOME/WORKSPACE/26msit001_A/jinhyeok/loop_TTT/lact/.cache_inductor_llm/ap/cap2gnd3f4abcdaqy52bv2rqo6ma3q45oroo24lxldhv5zcgga7s.py":29:45)
#loc24 = loc("/NHNHOME/WORKSPACE/26msit001_A/jinhyeok/loop_TTT/lact/.cache_inductor_llm/ap/cap2gnd3f4abcdaqy52bv2rqo6ma3q45oroo24lxldhv5zcgga7s.py":30:31)
#loc25 = loc("/NHNHOME/WORKSPACE/26msit001_A/jinhyeok/loop_TTT/lact/.cache_inductor_llm/ap/cap2gnd3f4abcdaqy52bv2rqo6ma3q45oroo24lxldhv5zcgga7s.py":30:36)
#loc26 = loc("/NHNHOME/WORKSPACE/26msit001_A/jinhyeok/loop_TTT/lact/.cache_inductor_llm/ap/cap2gnd3f4abcdaqy52bv2rqo6ma3q45oroo24lxldhv5zcgga7s.py":30:45)
#loc27 = loc("/NHNHOME/WORKSPACE/26msit001_A/jinhyeok/loop_TTT/lact/.cache_inductor_llm/ap/cap2gnd3f4abcdaqy52bv2rqo6ma3q45oroo24lxldhv5zcgga7s.py":31:31)
#loc28 = loc("/NHNHOME/WORKSPACE/26msit001_A/jinhyeok/loop_TTT/lact/.cache_inductor_llm/ap/cap2gnd3f4abcdaqy52bv2rqo6ma3q45oroo24lxldhv5zcgga7s.py":31:36)
#loc29 = loc("/NHNHOME/WORKSPACE/26msit001_A/jinhyeok/loop_TTT/lact/.cache_inductor_llm/ap/cap2gnd3f4abcdaqy52bv2rqo6ma3q45oroo24lxldhv5zcgga7s.py":37:18)
#loc30 = loc("/NHNHOME/WORKSPACE/26msit001_A/jinhyeok/loop_TTT/lact/.cache_inductor_llm/ap/cap2gnd3f4abcdaqy52bv2rqo6ma3q45oroo24lxldhv5zcgga7s.py":40:27)
#loc31 = loc("/NHNHOME/WORKSPACE/26msit001_A/jinhyeok/loop_TTT/lact/.cache_inductor_llm/ap/cap2gnd3f4abcdaqy52bv2rqo6ma3q45oroo24lxldhv5zcgga7s.py":42:20)
#loc32 = loc("/NHNHOME/WORKSPACE/26msit001_A/jinhyeok/loop_TTT/lact/.cache_inductor_llm/ap/cap2gnd3f4abcdaqy52bv2rqo6ma3q45oroo24lxldhv5zcgga7s.py":43:20)
#loc33 = loc("/NHNHOME/WORKSPACE/26msit001_A/jinhyeok/loop_TTT/lact/.cache_inductor_llm/ap/cap2gnd3f4abcdaqy52bv2rqo6ma3q45oroo24lxldhv5zcgga7s.py":47:20)
#loc34 = loc("/NHNHOME/WORKSPACE/26msit001_A/jinhyeok/loop_TTT/lact/.cache_inductor_llm/ap/cap2gnd3f4abcdaqy52bv2rqo6ma3q45oroo24lxldhv5zcgga7s.py":51:20)
#loc35 = loc("/NHNHOME/WORKSPACE/26msit001_A/jinhyeok/loop_TTT/lact/.cache_inductor_llm/ap/cap2gnd3f4abcdaqy52bv2rqo6ma3q45oroo24lxldhv5zcgga7s.py":54:20)
#loc36 = loc("/NHNHOME/WORKSPACE/26msit001_A/jinhyeok/loop_TTT/lact/.cache_inductor_llm/ap/cap2gnd3f4abcdaqy52bv2rqo6ma3q45oroo24lxldhv5zcgga7s.py":57:27)
#loc37 = loc("/NHNHOME/WORKSPACE/26msit001_A/jinhyeok/loop_TTT/lact/.cache_inductor_llm/ap/cap2gnd3f4abcdaqy52bv2rqo6ma3q45oroo24lxldhv5zcgga7s.py":58:20)
#loc38 = loc("/NHNHOME/WORKSPACE/26msit001_A/jinhyeok/loop_TTT/lact/.cache_inductor_llm/ap/cap2gnd3f4abcdaqy52bv2rqo6ma3q45oroo24lxldhv5zcgga7s.py":59:21)
#loc39 = loc("/NHNHOME/WORKSPACE/26msit001_A/jinhyeok/loop_TTT/lact/.cache_inductor_llm/ap/cap2gnd3f4abcdaqy52bv2rqo6ma3q45oroo24lxldhv5zcgga7s.py":61:25)
#loc40 = loc("/NHNHOME/WORKSPACE/26msit001_A/jinhyeok/loop_TTT/lact/.cache_inductor_llm/ap/cap2gnd3f4abcdaqy52bv2rqo6ma3q45oroo24lxldhv5zcgga7s.py":61:37)
#loc41 = loc("/NHNHOME/WORKSPACE/26msit001_A/jinhyeok/loop_TTT/lact/.cache_inductor_llm/ap/cap2gnd3f4abcdaqy52bv2rqo6ma3q45oroo24lxldhv5zcgga7s.py":62:25)
#loc42 = loc("/NHNHOME/WORKSPACE/26msit001_A/jinhyeok/loop_TTT/lact/.cache_inductor_llm/ap/cap2gnd3f4abcdaqy52bv2rqo6ma3q45oroo24lxldhv5zcgga7s.py":62:37)
#loc43 = loc("/NHNHOME/WORKSPACE/26msit001_A/jinhyeok/loop_TTT/lact/.cache_inductor_llm/ap/cap2gnd3f4abcdaqy52bv2rqo6ma3q45oroo24lxldhv5zcgga7s.py":63:25)
#loc44 = loc("/NHNHOME/WORKSPACE/26msit001_A/jinhyeok/loop_TTT/lact/.cache_inductor_llm/ap/cap2gnd3f4abcdaqy52bv2rqo6ma3q45oroo24lxldhv5zcgga7s.py":63:37)
#loc45 = loc("/NHNHOME/WORKSPACE/26msit001_A/jinhyeok/loop_TTT/lact/.cache_inductor_llm/ap/cap2gnd3f4abcdaqy52bv2rqo6ma3q45oroo24lxldhv5zcgga7s.py":64:25)
#loc46 = loc("/NHNHOME/WORKSPACE/26msit001_A/jinhyeok/loop_TTT/lact/.cache_inductor_llm/ap/cap2gnd3f4abcdaqy52bv2rqo6ma3q45oroo24lxldhv5zcgga7s.py":64:37)
#loc47 = loc("/NHNHOME/WORKSPACE/26msit001_A/jinhyeok/loop_TTT/lact/.cache_inductor_llm/ap/cap2gnd3f4abcdaqy52bv2rqo6ma3q45oroo24lxldhv5zcgga7s.py":65:25)
#loc48 = loc("/NHNHOME/WORKSPACE/26msit001_A/jinhyeok/loop_TTT/lact/.cache_inductor_llm/ap/cap2gnd3f4abcdaqy52bv2rqo6ma3q45oroo24lxldhv5zcgga7s.py":65:37)
#loc49 = loc("/NHNHOME/WORKSPACE/26msit001_A/jinhyeok/loop_TTT/lact/.cache_inductor_llm/ap/cap2gnd3f4abcdaqy52bv2rqo6ma3q45oroo24lxldhv5zcgga7s.py":66:25)
#loc50 = loc("/NHNHOME/WORKSPACE/26msit001_A/jinhyeok/loop_TTT/lact/.cache_inductor_llm/ap/cap2gnd3f4abcdaqy52bv2rqo6ma3q45oroo24lxldhv5zcgga7s.py":66:37)
#loc51 = loc("/NHNHOME/WORKSPACE/26msit001_A/jinhyeok/loop_TTT/lact/.cache_inductor_llm/ap/cap2gnd3f4abcdaqy52bv2rqo6ma3q45oroo24lxldhv5zcgga7s.py":67:25)
#loc52 = loc("/NHNHOME/WORKSPACE/26msit001_A/jinhyeok/loop_TTT/lact/.cache_inductor_llm/ap/cap2gnd3f4abcdaqy52bv2rqo6ma3q45oroo24lxldhv5zcgga7s.py":67:37)
#loc53 = loc("/NHNHOME/WORKSPACE/26msit001_A/jinhyeok/loop_TTT/lact/.cache_inductor_llm/ap/cap2gnd3f4abcdaqy52bv2rqo6ma3q45oroo24lxldhv5zcgga7s.py":67:4)
#loc69 = loc("tmp21"(#loc1))
#loc70 = loc("tmp16"(#loc2))
#loc71 = loc("tmp6"(#loc4))
#loc72 = loc("tmp4"(#loc5))
#loc73 = loc("x1"(#loc6))
#loc74 = loc("xoffset"(#loc7))
#loc75 = loc("xoffset"(#loc8))
#loc76 = loc("xindex"(#loc9))
#loc77 = loc("xindex"(#loc10))
#loc78 = loc("tmp0"(#loc11))
#loc79 = loc("tmp0"(#loc12))
#loc80 = loc("tmp0"(#loc13))
#loc81 = loc("tmp2"(#loc14))
#loc82 = loc("tmp2"(#loc15))
#loc83 = loc("tmp10"(#loc16))
#loc84 = loc("tmp10"(#loc17))
#loc85 = loc("tmp17"(#loc18))
#loc86 = loc("tmp17"(#loc19))
#loc87 = loc("tmp17"(#loc20))
#loc88 = loc("tmp22"(#loc21))
#loc89 = loc("tmp22"(#loc22))
#loc90 = loc("tmp22"(#loc23))
#loc91 = loc("tmp26"(#loc24))
#loc92 = loc("tmp26"(#loc25))
#loc93 = loc("tmp26"(#loc26))
#loc94 = loc("tmp31"(#loc27))
#loc95 = loc("tmp31"(#loc28))
#loc96 = loc("tmp7"(#loc29))
#loc97 = loc("tmp11"(#loc30))
#loc98 = loc("tmp13"(#loc31))
#loc99 = loc("tmp14"(#loc32))
#loc100 = loc("tmp19"(#loc33))
#loc101 = loc("tmp24"(#loc34))
#loc102 = loc("tmp28"(#loc35))
#loc103 = loc("tmp32"(#loc36))
#loc104 = loc("tmp33"(#loc37))
#loc105 = loc("tmp34"(#loc38))
