#loc = loc("/NHNHOME/WORKSPACE/26msit001_A/jinhyeok/loop_TTT/lact/.cache_inductor_llm/zp/czpmymb4fi4dgqojohpbcdzoqe43lkgkfcov6r2a2wvw33xzknlb.py":18:0)
#loc68 = loc("in_ptr0"(#loc))
#loc69 = loc("in_ptr1"(#loc))
#loc70 = loc("in_ptr2"(#loc))
#loc71 = loc("in_ptr3"(#loc))
#loc72 = loc("out_ptr0"(#loc))
#loc73 = loc("out_ptr1"(#loc))
#loc74 = loc("out_ptr2"(#loc))
#loc75 = loc("ynumel"(#loc))
#loc76 = loc("xnumel"(#loc))
module {
  tt.func public @triton_poi_fused__to_copy_add_div_linalg_vector_norm_mul_transpose_52(%in_ptr0: !tt.ptr<bf16> {tt.divisibility = 16 : i32} loc("in_ptr0"(#loc)), %in_ptr1: !tt.ptr<f32> {tt.divisibility = 16 : i32} loc("in_ptr1"(#loc)), %in_ptr2: !tt.ptr<bf16> {tt.divisibility = 16 : i32} loc("in_ptr2"(#loc)), %in_ptr3: !tt.ptr<bf16> {tt.divisibility = 16 : i32} loc("in_ptr3"(#loc)), %out_ptr0: !tt.ptr<bf16> {tt.divisibility = 16 : i32} loc("out_ptr0"(#loc)), %out_ptr1: !tt.ptr<bf16> {tt.divisibility = 16 : i32} loc("out_ptr1"(#loc)), %out_ptr2: !tt.ptr<bf16> {tt.divisibility = 16 : i32} loc("out_ptr2"(#loc)), %ynumel: i32 {tt.divisibility = 16 : i32} loc("ynumel"(#loc)), %xnumel: i32 {tt.divisibility = 16 : i32} loc("xnumel"(#loc))) attributes {noinline = false} {
    %xnumel_0 = arith.constant 192 : i32 loc(#loc77)
    %yoffset = tt.get_program_id y : i32 loc(#loc78)
    %yoffset_1 = tt.get_program_id z : i32 loc(#loc79)
    %yoffset_2 = tt.get_num_programs y : i32 loc(#loc80)
    %yoffset_3 = arith.muli %yoffset_1, %yoffset_2 : i32 loc(#loc81)
    %yoffset_4 = arith.addi %yoffset, %yoffset_3 : i32 loc(#loc82)
    %yoffset_5 = arith.constant 1024 : i32 loc(#loc83)
    %yoffset_6 = arith.constant 1024 : i32 loc(#loc83)
    %yoffset_7 = arith.muli %yoffset_4, %yoffset_6 : i32 loc(#loc83)
    %yindex = tt.make_range {end = 1024 : i32, start = 0 : i32} : tensor<1024xi32> loc(#loc84)
    %yindex_8 = tt.expand_dims %yindex {axis = 1 : i32} : tensor<1024xi32> -> tensor<1024x1xi32> loc(#loc85)
    %yindex_9 = tt.splat %yoffset_7 : i32 -> tensor<1024x1xi32> loc(#loc86)
    %yindex_10 = arith.addi %yindex_9, %yindex_8 : tensor<1024x1xi32> loc(#loc86)
    %ymask = tt.splat %ynumel : i32 -> tensor<1024x1xi32> loc(#loc87)
    %ymask_11 = arith.cmpi slt, %yindex_10, %ymask : tensor<1024x1xi32> loc(#loc87)
    %xoffset = tt.get_program_id x : i32 loc(#loc88)
    %xoffset_12 = arith.constant 1 : i32 loc(#loc89)
    %xoffset_13 = arith.constant 1 : i32 loc(#loc89)
    %xoffset_14 = arith.muli %xoffset, %xoffset_13 : i32 loc(#loc89)
    %xindex = tt.make_range {end = 1 : i32, start = 0 : i32} : tensor<1xi32> loc(#loc90)
    %xindex_15 = tt.expand_dims %xindex {axis = 0 : i32} : tensor<1xi32> -> tensor<1x1xi32> loc(#loc91)
    %xindex_16 = tt.splat %xoffset_14 : i32 -> tensor<1x1xi32> loc(#loc92)
    %xindex_17 = arith.addi %xindex_16, %xindex_15 : tensor<1x1xi32> loc(#loc92)
    %xmask = arith.constant dense<192> : tensor<1x1xi32> loc(#loc93)
    %xmask_18 = arith.cmpi slt, %xindex_17, %xmask : tensor<1x1xi32> loc(#loc93)
    %y1 = arith.constant 192 : i32 loc(#loc94)
    %y1_19 = arith.constant 192 : i32 loc(#loc94)
    %y1_20 = arith.constant dense<192> : tensor<1024x1xi32> loc(#loc94)
    %y1_21 = arith.divsi %yindex_10, %y1_20 : tensor<1024x1xi32> loc(#loc94)
    %y0 = arith.constant 192 : i32 loc(#loc95)
    %y0_22 = arith.constant 192 : i32 loc(#loc95)
    %y0_23 = arith.constant dense<192> : tensor<1024x1xi32> loc(#loc95)
    %y0_24 = arith.remsi %yindex_10, %y0_23 : tensor<1024x1xi32> loc(#loc95)
    %tmp0 = arith.constant 192 : i32 loc(#loc96)
    %tmp0_25 = arith.constant 192 : i32 loc(#loc96)
    %tmp0_26 = arith.constant dense<192> : tensor<1024x1xi32> loc(#loc96)
    %tmp0_27 = arith.muli %tmp0_26, %yindex_10 : tensor<1024x1xi32> loc(#loc96)
    %tmp0_28 = tt.broadcast %xindex_17 : tensor<1x1xi32> -> tensor<1024x1xi32> loc(#loc97)
    %tmp0_29 = arith.addi %tmp0_28, %tmp0_27 : tensor<1024x1xi32> loc(#loc97)
    %tmp0_30 = tt.splat %in_ptr0 : !tt.ptr<bf16> -> tensor<1024x1x!tt.ptr<bf16>> loc(#loc98)
    %tmp0_31 = tt.addptr %tmp0_30, %tmp0_29 : tensor<1024x1x!tt.ptr<bf16>>, tensor<1024x1xi32> loc(#loc98)
    %tmp0_32 = tt.broadcast %xmask_18 : tensor<1x1xi1> -> tensor<1024x1xi1> loc(#loc99)
    %tmp0_33 = arith.andi %tmp0_32, %ymask_11 : tensor<1024x1xi1> loc(#loc99)
    %tmp0_34 = tt.load %tmp0_31, %tmp0_33 evictionPolicy = evict_last : tensor<1024x1x!tt.ptr<bf16>> loc(#loc100)
    %tmp0_35 = arith.extf %tmp0_34 : tensor<1024x1xbf16> to tensor<1024x1xf32> loc(#loc101)
    %tmp2 = tt.splat %in_ptr1 : !tt.ptr<f32> -> tensor<1024x1x!tt.ptr<f32>> loc(#loc102)
    %tmp2_36 = tt.addptr %tmp2, %y1_21 : tensor<1024x1x!tt.ptr<f32>>, tensor<1024x1xi32> loc(#loc102)
    %tmp2_37 = tt.load %tmp2_36, %ymask_11 evictionPolicy = evict_last : tensor<1024x1x!tt.ptr<f32>> loc(#loc103)
    %tmp9 = arith.constant 192 : i32 loc(#loc104)
    %tmp9_38 = arith.constant 192 : i32 loc(#loc104)
    %tmp9_39 = arith.constant dense<192> : tensor<1024x1xi32> loc(#loc104)
    %tmp9_40 = arith.muli %tmp9_39, %yindex_10 : tensor<1024x1xi32> loc(#loc104)
    %tmp9_41 = tt.broadcast %xindex_17 : tensor<1x1xi32> -> tensor<1024x1xi32> loc(#loc105)
    %tmp9_42 = arith.addi %tmp9_41, %tmp9_40 : tensor<1024x1xi32> loc(#loc105)
    %tmp9_43 = tt.splat %in_ptr2 : !tt.ptr<bf16> -> tensor<1024x1x!tt.ptr<bf16>> loc(#loc106)
    %tmp9_44 = tt.addptr %tmp9_43, %tmp9_42 : tensor<1024x1x!tt.ptr<bf16>>, tensor<1024x1xi32> loc(#loc106)
    %tmp9_45 = tt.broadcast %xmask_18 : tensor<1x1xi1> -> tensor<1024x1xi1> loc(#loc107)
    %tmp9_46 = arith.andi %tmp9_45, %ymask_11 : tensor<1024x1xi1> loc(#loc107)
    %tmp9_47 = tt.load %tmp9_44, %tmp9_46 evictionPolicy = evict_last : tensor<1024x1x!tt.ptr<bf16>> loc(#loc108)
    %tmp9_48 = arith.extf %tmp9_47 : tensor<1024x1xbf16> to tensor<1024x1xf32> loc(#loc109)
    %tmp14 = arith.constant 192 : i32 loc(#loc110)
    %tmp14_49 = arith.constant 192 : i32 loc(#loc110)
    %tmp14_50 = arith.constant dense<192> : tensor<1024x1xi32> loc(#loc110)
    %tmp14_51 = arith.muli %tmp14_50, %yindex_10 : tensor<1024x1xi32> loc(#loc110)
    %tmp14_52 = tt.broadcast %xindex_17 : tensor<1x1xi32> -> tensor<1024x1xi32> loc(#loc111)
    %tmp14_53 = arith.addi %tmp14_52, %tmp14_51 : tensor<1024x1xi32> loc(#loc111)
    %tmp14_54 = tt.splat %in_ptr3 : !tt.ptr<bf16> -> tensor<1024x1x!tt.ptr<bf16>> loc(#loc112)
    %tmp14_55 = tt.addptr %tmp14_54, %tmp14_53 : tensor<1024x1x!tt.ptr<bf16>>, tensor<1024x1xi32> loc(#loc112)
    %tmp14_56 = tt.broadcast %xmask_18 : tensor<1x1xi1> -> tensor<1024x1xi1> loc(#loc113)
    %tmp14_57 = arith.andi %tmp14_56, %ymask_11 : tensor<1024x1xi1> loc(#loc113)
    %tmp14_58 = tt.load %tmp14_55, %tmp14_57 evictionPolicy = evict_last : tensor<1024x1x!tt.ptr<bf16>> loc(#loc114)
    %tmp14_59 = arith.extf %tmp14_58 : tensor<1024x1xbf16> to tensor<1024x1xf32> loc(#loc115)
    %tmp3 = tt.extern_elementwise %tmp2_37 {libname = "", libpath = "", pure = true, symbol = "__nv_sqrtf"} : (tensor<1024x1xf32>) -> tensor<1024x1xf32> loc(#loc116)
    %tmp4 = arith.constant 1.000000e-07 : f32 loc(#loc117)
    %tmp5 = arith.constant dense<1.000000e-07> : tensor<1024x1xf32> loc(#loc118)
    %tmp5_60 = arith.addf %tmp3, %tmp5 : tensor<1024x1xf32> loc(#loc118)
    %tmp6 = arith.divf %tmp0_35, %tmp5_60 : tensor<1024x1xf32> loc(#loc119)
    %tmp7 = arith.constant 4.084800e+00 : f32 loc(#loc120)
    %tmp8 = arith.constant dense<4.084800e+00> : tensor<1024x1xf32> loc(#loc121)
    %tmp8_61 = arith.mulf %tmp6, %tmp8 : tensor<1024x1xf32> loc(#loc121)
    %tmp11 = arith.addf %tmp8_61, %tmp9_48 : tensor<1024x1xf32> loc(#loc122)
    %tmp12 = arith.constant 3.950500e+00 : f32 loc(#loc123)
    %tmp13 = arith.constant dense<3.950500e+00> : tensor<1024x1xf32> loc(#loc124)
    %tmp13_62 = arith.mulf %tmp11, %tmp13 : tensor<1024x1xf32> loc(#loc124)
    %tmp16 = arith.addf %tmp13_62, %tmp14_59 : tensor<1024x1xf32> loc(#loc125)
    %c192_i32 = arith.constant 192 : i32 loc(#loc50)
    %c192_i32_63 = arith.constant 192 : i32 loc(#loc50)
    %cst = arith.constant dense<192> : tensor<1024x1xi32> loc(#loc50)
    %0 = arith.muli %cst, %yindex_10 : tensor<1024x1xi32> loc(#loc50)
    %1 = tt.broadcast %xindex_17 : tensor<1x1xi32> -> tensor<1024x1xi32> loc(#loc51)
    %2 = arith.addi %1, %0 : tensor<1024x1xi32> loc(#loc51)
    %3 = tt.splat %out_ptr0 : !tt.ptr<bf16> -> tensor<1024x1x!tt.ptr<bf16>> loc(#loc52)
    %4 = tt.addptr %3, %2 : tensor<1024x1x!tt.ptr<bf16>>, tensor<1024x1xi32> loc(#loc52)
    %5 = tt.broadcast %xmask_18 : tensor<1x1xi1> -> tensor<1024x1xi1> loc(#loc53)
    %6 = arith.andi %5, %ymask_11 : tensor<1024x1xi1> loc(#loc53)
    %7 = arith.truncf %tmp16 : tensor<1024x1xf32> to tensor<1024x1xbf16> loc(#loc54)
    tt.store %4, %7, %6 : tensor<1024x1x!tt.ptr<bf16>> loc(#loc54)
    %c192_i32_64 = arith.constant 192 : i32 loc(#loc55)
    %c192_i32_65 = arith.constant 192 : i32 loc(#loc55)
    %cst_66 = arith.constant dense<192> : tensor<1x1xi32> loc(#loc55)
    %8 = arith.muli %cst_66, %xindex_17 : tensor<1x1xi32> loc(#loc55)
    %9 = tt.broadcast %8 : tensor<1x1xi32> -> tensor<1024x1xi32> loc(#loc56)
    %10 = arith.addi %y0_24, %9 : tensor<1024x1xi32> loc(#loc56)
    %c36864_i32 = arith.constant 36864 : i32 loc(#loc57)
    %c36864_i32_67 = arith.constant 36864 : i32 loc(#loc57)
    %cst_68 = arith.constant dense<36864> : tensor<1024x1xi32> loc(#loc57)
    %11 = arith.muli %cst_68, %y1_21 : tensor<1024x1xi32> loc(#loc57)
    %12 = arith.addi %10, %11 : tensor<1024x1xi32> loc(#loc58)
    %13 = tt.splat %out_ptr1 : !tt.ptr<bf16> -> tensor<1024x1x!tt.ptr<bf16>> loc(#loc59)
    %14 = tt.addptr %13, %12 : tensor<1024x1x!tt.ptr<bf16>>, tensor<1024x1xi32> loc(#loc59)
    %15 = tt.broadcast %xmask_18 : tensor<1x1xi1> -> tensor<1024x1xi1> loc(#loc60)
    %16 = arith.andi %15, %ymask_11 : tensor<1024x1xi1> loc(#loc60)
    %17 = arith.truncf %tmp16 : tensor<1024x1xf32> to tensor<1024x1xbf16> loc(#loc61)
    tt.store %14, %17, %16 : tensor<1024x1x!tt.ptr<bf16>> loc(#loc61)
    %c192_i32_69 = arith.constant 192 : i32 loc(#loc62)
    %c192_i32_70 = arith.constant 192 : i32 loc(#loc62)
    %cst_71 = arith.constant dense<192> : tensor<1024x1xi32> loc(#loc62)
    %18 = arith.muli %cst_71, %yindex_10 : tensor<1024x1xi32> loc(#loc62)
    %19 = tt.broadcast %xindex_17 : tensor<1x1xi32> -> tensor<1024x1xi32> loc(#loc63)
    %20 = arith.addi %19, %18 : tensor<1024x1xi32> loc(#loc63)
    %21 = tt.splat %out_ptr2 : !tt.ptr<bf16> -> tensor<1024x1x!tt.ptr<bf16>> loc(#loc64)
    %22 = tt.addptr %21, %20 : tensor<1024x1x!tt.ptr<bf16>>, tensor<1024x1xi32> loc(#loc64)
    %23 = tt.broadcast %xmask_18 : tensor<1x1xi1> -> tensor<1024x1xi1> loc(#loc65)
    %24 = arith.andi %23, %ymask_11 : tensor<1024x1xi1> loc(#loc65)
    %25 = arith.truncf %tmp16 : tensor<1024x1xf32> to tensor<1024x1xbf16> loc(#loc66)
    tt.store %22, %25, %24 : tensor<1024x1x!tt.ptr<bf16>> loc(#loc66)
    tt.return loc(#loc67)
  } loc(#loc)
} loc(#loc)
#loc1 = loc("/NHNHOME/WORKSPACE/26msit001_A/jinhyeok/loop_TTT/lact/.cache_inductor_llm/zp/czpmymb4fi4dgqojohpbcdzoqe43lkgkfcov6r2a2wvw33xzknlb.py":19:13)
#loc2 = loc("/NHNHOME/WORKSPACE/26msit001_A/jinhyeok/loop_TTT/lact/.cache_inductor_llm/zp/czpmymb4fi4dgqojohpbcdzoqe43lkgkfcov6r2a2wvw33xzknlb.py":20:29)
#loc3 = loc("/NHNHOME/WORKSPACE/26msit001_A/jinhyeok/loop_TTT/lact/.cache_inductor_llm/zp/czpmymb4fi4dgqojohpbcdzoqe43lkgkfcov6r2a2wvw33xzknlb.py":20:48)
#loc4 = loc("/NHNHOME/WORKSPACE/26msit001_A/jinhyeok/loop_TTT/lact/.cache_inductor_llm/zp/czpmymb4fi4dgqojohpbcdzoqe43lkgkfcov6r2a2wvw33xzknlb.py":20:69)
#loc5 = loc("/NHNHOME/WORKSPACE/26msit001_A/jinhyeok/loop_TTT/lact/.cache_inductor_llm/zp/czpmymb4fi4dgqojohpbcdzoqe43lkgkfcov6r2a2wvw33xzknlb.py":20:53)
#loc6 = loc("/NHNHOME/WORKSPACE/26msit001_A/jinhyeok/loop_TTT/lact/.cache_inductor_llm/zp/czpmymb4fi4dgqojohpbcdzoqe43lkgkfcov6r2a2wvw33xzknlb.py":20:34)
#loc7 = loc("/NHNHOME/WORKSPACE/26msit001_A/jinhyeok/loop_TTT/lact/.cache_inductor_llm/zp/czpmymb4fi4dgqojohpbcdzoqe43lkgkfcov6r2a2wvw33xzknlb.py":20:75)
#loc8 = loc("/NHNHOME/WORKSPACE/26msit001_A/jinhyeok/loop_TTT/lact/.cache_inductor_llm/zp/czpmymb4fi4dgqojohpbcdzoqe43lkgkfcov6r2a2wvw33xzknlb.py":21:36)
#loc9 = loc("/NHNHOME/WORKSPACE/26msit001_A/jinhyeok/loop_TTT/lact/.cache_inductor_llm/zp/czpmymb4fi4dgqojohpbcdzoqe43lkgkfcov6r2a2wvw33xzknlb.py":21:44)
#loc10 = loc("/NHNHOME/WORKSPACE/26msit001_A/jinhyeok/loop_TTT/lact/.cache_inductor_llm/zp/czpmymb4fi4dgqojohpbcdzoqe43lkgkfcov6r2a2wvw33xzknlb.py":21:23)
#loc11 = loc("/NHNHOME/WORKSPACE/26msit001_A/jinhyeok/loop_TTT/lact/.cache_inductor_llm/zp/czpmymb4fi4dgqojohpbcdzoqe43lkgkfcov6r2a2wvw33xzknlb.py":22:21)
#loc12 = loc("/NHNHOME/WORKSPACE/26msit001_A/jinhyeok/loop_TTT/lact/.cache_inductor_llm/zp/czpmymb4fi4dgqojohpbcdzoqe43lkgkfcov6r2a2wvw33xzknlb.py":23:28)
#loc13 = loc("/NHNHOME/WORKSPACE/26msit001_A/jinhyeok/loop_TTT/lact/.cache_inductor_llm/zp/czpmymb4fi4dgqojohpbcdzoqe43lkgkfcov6r2a2wvw33xzknlb.py":23:33)
#loc14 = loc("/NHNHOME/WORKSPACE/26msit001_A/jinhyeok/loop_TTT/lact/.cache_inductor_llm/zp/czpmymb4fi4dgqojohpbcdzoqe43lkgkfcov6r2a2wvw33xzknlb.py":24:36)
#loc15 = loc("/NHNHOME/WORKSPACE/26msit001_A/jinhyeok/loop_TTT/lact/.cache_inductor_llm/zp/czpmymb4fi4dgqojohpbcdzoqe43lkgkfcov6r2a2wvw33xzknlb.py":24:44)
#loc16 = loc("/NHNHOME/WORKSPACE/26msit001_A/jinhyeok/loop_TTT/lact/.cache_inductor_llm/zp/czpmymb4fi4dgqojohpbcdzoqe43lkgkfcov6r2a2wvw33xzknlb.py":24:23)
#loc17 = loc("/NHNHOME/WORKSPACE/26msit001_A/jinhyeok/loop_TTT/lact/.cache_inductor_llm/zp/czpmymb4fi4dgqojohpbcdzoqe43lkgkfcov6r2a2wvw33xzknlb.py":25:21)
#loc18 = loc("/NHNHOME/WORKSPACE/26msit001_A/jinhyeok/loop_TTT/lact/.cache_inductor_llm/zp/czpmymb4fi4dgqojohpbcdzoqe43lkgkfcov6r2a2wvw33xzknlb.py":28:19)
#loc19 = loc("/NHNHOME/WORKSPACE/26msit001_A/jinhyeok/loop_TTT/lact/.cache_inductor_llm/zp/czpmymb4fi4dgqojohpbcdzoqe43lkgkfcov6r2a2wvw33xzknlb.py":29:19)
#loc20 = loc("/NHNHOME/WORKSPACE/26msit001_A/jinhyeok/loop_TTT/lact/.cache_inductor_llm/zp/czpmymb4fi4dgqojohpbcdzoqe43lkgkfcov6r2a2wvw33xzknlb.py":30:39)
#loc21 = loc("/NHNHOME/WORKSPACE/26msit001_A/jinhyeok/loop_TTT/lact/.cache_inductor_llm/zp/czpmymb4fi4dgqojohpbcdzoqe43lkgkfcov6r2a2wvw33xzknlb.py":30:35)
#loc22 = loc("/NHNHOME/WORKSPACE/26msit001_A/jinhyeok/loop_TTT/lact/.cache_inductor_llm/zp/czpmymb4fi4dgqojohpbcdzoqe43lkgkfcov6r2a2wvw33xzknlb.py":30:30)
#loc23 = loc("/NHNHOME/WORKSPACE/26msit001_A/jinhyeok/loop_TTT/lact/.cache_inductor_llm/zp/czpmymb4fi4dgqojohpbcdzoqe43lkgkfcov6r2a2wvw33xzknlb.py":30:52)
#loc24 = loc("/NHNHOME/WORKSPACE/26msit001_A/jinhyeok/loop_TTT/lact/.cache_inductor_llm/zp/czpmymb4fi4dgqojohpbcdzoqe43lkgkfcov6r2a2wvw33xzknlb.py":30:44)
#loc25 = loc("/NHNHOME/WORKSPACE/26msit001_A/jinhyeok/loop_TTT/lact/.cache_inductor_llm/zp/czpmymb4fi4dgqojohpbcdzoqe43lkgkfcov6r2a2wvw33xzknlb.py":30:92)
#loc26 = loc("/NHNHOME/WORKSPACE/26msit001_A/jinhyeok/loop_TTT/lact/.cache_inductor_llm/zp/czpmymb4fi4dgqojohpbcdzoqe43lkgkfcov6r2a2wvw33xzknlb.py":31:30)
#loc27 = loc("/NHNHOME/WORKSPACE/26msit001_A/jinhyeok/loop_TTT/lact/.cache_inductor_llm/zp/czpmymb4fi4dgqojohpbcdzoqe43lkgkfcov6r2a2wvw33xzknlb.py":31:35)
#loc28 = loc("/NHNHOME/WORKSPACE/26msit001_A/jinhyeok/loop_TTT/lact/.cache_inductor_llm/zp/czpmymb4fi4dgqojohpbcdzoqe43lkgkfcov6r2a2wvw33xzknlb.py":32:39)
#loc29 = loc("/NHNHOME/WORKSPACE/26msit001_A/jinhyeok/loop_TTT/lact/.cache_inductor_llm/zp/czpmymb4fi4dgqojohpbcdzoqe43lkgkfcov6r2a2wvw33xzknlb.py":32:35)
#loc30 = loc("/NHNHOME/WORKSPACE/26msit001_A/jinhyeok/loop_TTT/lact/.cache_inductor_llm/zp/czpmymb4fi4dgqojohpbcdzoqe43lkgkfcov6r2a2wvw33xzknlb.py":32:30)
#loc31 = loc("/NHNHOME/WORKSPACE/26msit001_A/jinhyeok/loop_TTT/lact/.cache_inductor_llm/zp/czpmymb4fi4dgqojohpbcdzoqe43lkgkfcov6r2a2wvw33xzknlb.py":32:52)
#loc32 = loc("/NHNHOME/WORKSPACE/26msit001_A/jinhyeok/loop_TTT/lact/.cache_inductor_llm/zp/czpmymb4fi4dgqojohpbcdzoqe43lkgkfcov6r2a2wvw33xzknlb.py":32:44)
#loc33 = loc("/NHNHOME/WORKSPACE/26msit001_A/jinhyeok/loop_TTT/lact/.cache_inductor_llm/zp/czpmymb4fi4dgqojohpbcdzoqe43lkgkfcov6r2a2wvw33xzknlb.py":32:92)
#loc34 = loc("/NHNHOME/WORKSPACE/26msit001_A/jinhyeok/loop_TTT/lact/.cache_inductor_llm/zp/czpmymb4fi4dgqojohpbcdzoqe43lkgkfcov6r2a2wvw33xzknlb.py":33:40)
#loc35 = loc("/NHNHOME/WORKSPACE/26msit001_A/jinhyeok/loop_TTT/lact/.cache_inductor_llm/zp/czpmymb4fi4dgqojohpbcdzoqe43lkgkfcov6r2a2wvw33xzknlb.py":33:36)
#loc36 = loc("/NHNHOME/WORKSPACE/26msit001_A/jinhyeok/loop_TTT/lact/.cache_inductor_llm/zp/czpmymb4fi4dgqojohpbcdzoqe43lkgkfcov6r2a2wvw33xzknlb.py":33:31)
#loc37 = loc("/NHNHOME/WORKSPACE/26msit001_A/jinhyeok/loop_TTT/lact/.cache_inductor_llm/zp/czpmymb4fi4dgqojohpbcdzoqe43lkgkfcov6r2a2wvw33xzknlb.py":33:53)
#loc38 = loc("/NHNHOME/WORKSPACE/26msit001_A/jinhyeok/loop_TTT/lact/.cache_inductor_llm/zp/czpmymb4fi4dgqojohpbcdzoqe43lkgkfcov6r2a2wvw33xzknlb.py":33:45)
#loc39 = loc("/NHNHOME/WORKSPACE/26msit001_A/jinhyeok/loop_TTT/lact/.cache_inductor_llm/zp/czpmymb4fi4dgqojohpbcdzoqe43lkgkfcov6r2a2wvw33xzknlb.py":33:93)
#loc40 = loc("/NHNHOME/WORKSPACE/26msit001_A/jinhyeok/loop_TTT/lact/.cache_inductor_llm/zp/czpmymb4fi4dgqojohpbcdzoqe43lkgkfcov6r2a2wvw33xzknlb.py":35:26)
#loc41 = loc("/NHNHOME/WORKSPACE/26msit001_A/jinhyeok/loop_TTT/lact/.cache_inductor_llm/zp/czpmymb4fi4dgqojohpbcdzoqe43lkgkfcov6r2a2wvw33xzknlb.py":36:11)
#loc42 = loc("/NHNHOME/WORKSPACE/26msit001_A/jinhyeok/loop_TTT/lact/.cache_inductor_llm/zp/czpmymb4fi4dgqojohpbcdzoqe43lkgkfcov6r2a2wvw33xzknlb.py":37:18)
#loc43 = loc("/NHNHOME/WORKSPACE/26msit001_A/jinhyeok/loop_TTT/lact/.cache_inductor_llm/zp/czpmymb4fi4dgqojohpbcdzoqe43lkgkfcov6r2a2wvw33xzknlb.py":38:19)
#loc44 = loc("/NHNHOME/WORKSPACE/26msit001_A/jinhyeok/loop_TTT/lact/.cache_inductor_llm/zp/czpmymb4fi4dgqojohpbcdzoqe43lkgkfcov6r2a2wvw33xzknlb.py":39:11)
#loc45 = loc("/NHNHOME/WORKSPACE/26msit001_A/jinhyeok/loop_TTT/lact/.cache_inductor_llm/zp/czpmymb4fi4dgqojohpbcdzoqe43lkgkfcov6r2a2wvw33xzknlb.py":40:18)
#loc46 = loc("/NHNHOME/WORKSPACE/26msit001_A/jinhyeok/loop_TTT/lact/.cache_inductor_llm/zp/czpmymb4fi4dgqojohpbcdzoqe43lkgkfcov6r2a2wvw33xzknlb.py":42:19)
#loc47 = loc("/NHNHOME/WORKSPACE/26msit001_A/jinhyeok/loop_TTT/lact/.cache_inductor_llm/zp/czpmymb4fi4dgqojohpbcdzoqe43lkgkfcov6r2a2wvw33xzknlb.py":43:12)
#loc48 = loc("/NHNHOME/WORKSPACE/26msit001_A/jinhyeok/loop_TTT/lact/.cache_inductor_llm/zp/czpmymb4fi4dgqojohpbcdzoqe43lkgkfcov6r2a2wvw33xzknlb.py":44:20)
#loc49 = loc("/NHNHOME/WORKSPACE/26msit001_A/jinhyeok/loop_TTT/lact/.cache_inductor_llm/zp/czpmymb4fi4dgqojohpbcdzoqe43lkgkfcov6r2a2wvw33xzknlb.py":46:20)
#loc50 = loc("/NHNHOME/WORKSPACE/26msit001_A/jinhyeok/loop_TTT/lact/.cache_inductor_llm/zp/czpmymb4fi4dgqojohpbcdzoqe43lkgkfcov6r2a2wvw33xzknlb.py":48:34)
#loc51 = loc("/NHNHOME/WORKSPACE/26msit001_A/jinhyeok/loop_TTT/lact/.cache_inductor_llm/zp/czpmymb4fi4dgqojohpbcdzoqe43lkgkfcov6r2a2wvw33xzknlb.py":48:30)
#loc52 = loc("/NHNHOME/WORKSPACE/26msit001_A/jinhyeok/loop_TTT/lact/.cache_inductor_llm/zp/czpmymb4fi4dgqojohpbcdzoqe43lkgkfcov6r2a2wvw33xzknlb.py":48:25)
#loc53 = loc("/NHNHOME/WORKSPACE/26msit001_A/jinhyeok/loop_TTT/lact/.cache_inductor_llm/zp/czpmymb4fi4dgqojohpbcdzoqe43lkgkfcov6r2a2wvw33xzknlb.py":48:54)
#loc54 = loc("/NHNHOME/WORKSPACE/26msit001_A/jinhyeok/loop_TTT/lact/.cache_inductor_llm/zp/czpmymb4fi4dgqojohpbcdzoqe43lkgkfcov6r2a2wvw33xzknlb.py":48:46)
#loc55 = loc("/NHNHOME/WORKSPACE/26msit001_A/jinhyeok/loop_TTT/lact/.cache_inductor_llm/zp/czpmymb4fi4dgqojohpbcdzoqe43lkgkfcov6r2a2wvw33xzknlb.py":49:34)
#loc56 = loc("/NHNHOME/WORKSPACE/26msit001_A/jinhyeok/loop_TTT/lact/.cache_inductor_llm/zp/czpmymb4fi4dgqojohpbcdzoqe43lkgkfcov6r2a2wvw33xzknlb.py":49:30)
#loc57 = loc("/NHNHOME/WORKSPACE/26msit001_A/jinhyeok/loop_TTT/lact/.cache_inductor_llm/zp/czpmymb4fi4dgqojohpbcdzoqe43lkgkfcov6r2a2wvw33xzknlb.py":49:45)
#loc58 = loc("/NHNHOME/WORKSPACE/26msit001_A/jinhyeok/loop_TTT/lact/.cache_inductor_llm/zp/czpmymb4fi4dgqojohpbcdzoqe43lkgkfcov6r2a2wvw33xzknlb.py":49:39)
#loc59 = loc("/NHNHOME/WORKSPACE/26msit001_A/jinhyeok/loop_TTT/lact/.cache_inductor_llm/zp/czpmymb4fi4dgqojohpbcdzoqe43lkgkfcov6r2a2wvw33xzknlb.py":49:25)
#loc60 = loc("/NHNHOME/WORKSPACE/26msit001_A/jinhyeok/loop_TTT/lact/.cache_inductor_llm/zp/czpmymb4fi4dgqojohpbcdzoqe43lkgkfcov6r2a2wvw33xzknlb.py":49:65)
#loc61 = loc("/NHNHOME/WORKSPACE/26msit001_A/jinhyeok/loop_TTT/lact/.cache_inductor_llm/zp/czpmymb4fi4dgqojohpbcdzoqe43lkgkfcov6r2a2wvw33xzknlb.py":49:57)
#loc62 = loc("/NHNHOME/WORKSPACE/26msit001_A/jinhyeok/loop_TTT/lact/.cache_inductor_llm/zp/czpmymb4fi4dgqojohpbcdzoqe43lkgkfcov6r2a2wvw33xzknlb.py":50:34)
#loc63 = loc("/NHNHOME/WORKSPACE/26msit001_A/jinhyeok/loop_TTT/lact/.cache_inductor_llm/zp/czpmymb4fi4dgqojohpbcdzoqe43lkgkfcov6r2a2wvw33xzknlb.py":50:30)
#loc64 = loc("/NHNHOME/WORKSPACE/26msit001_A/jinhyeok/loop_TTT/lact/.cache_inductor_llm/zp/czpmymb4fi4dgqojohpbcdzoqe43lkgkfcov6r2a2wvw33xzknlb.py":50:25)
#loc65 = loc("/NHNHOME/WORKSPACE/26msit001_A/jinhyeok/loop_TTT/lact/.cache_inductor_llm/zp/czpmymb4fi4dgqojohpbcdzoqe43lkgkfcov6r2a2wvw33xzknlb.py":50:54)
#loc66 = loc("/NHNHOME/WORKSPACE/26msit001_A/jinhyeok/loop_TTT/lact/.cache_inductor_llm/zp/czpmymb4fi4dgqojohpbcdzoqe43lkgkfcov6r2a2wvw33xzknlb.py":50:46)
#loc67 = loc("/NHNHOME/WORKSPACE/26msit001_A/jinhyeok/loop_TTT/lact/.cache_inductor_llm/zp/czpmymb4fi4dgqojohpbcdzoqe43lkgkfcov6r2a2wvw33xzknlb.py":50:4)
#loc77 = loc("xnumel"(#loc1))
#loc78 = loc("yoffset"(#loc2))
#loc79 = loc("yoffset"(#loc3))
#loc80 = loc("yoffset"(#loc4))
#loc81 = loc("yoffset"(#loc5))
#loc82 = loc("yoffset"(#loc6))
#loc83 = loc("yoffset"(#loc7))
#loc84 = loc("yindex"(#loc8))
#loc85 = loc("yindex"(#loc9))
#loc86 = loc("yindex"(#loc10))
#loc87 = loc("ymask"(#loc11))
#loc88 = loc("xoffset"(#loc12))
#loc89 = loc("xoffset"(#loc13))
#loc90 = loc("xindex"(#loc14))
#loc91 = loc("xindex"(#loc15))
#loc92 = loc("xindex"(#loc16))
#loc93 = loc("xmask"(#loc17))
#loc94 = loc("y1"(#loc18))
#loc95 = loc("y0"(#loc19))
#loc96 = loc("tmp0"(#loc20))
#loc97 = loc("tmp0"(#loc21))
#loc98 = loc("tmp0"(#loc22))
#loc99 = loc("tmp0"(#loc23))
#loc100 = loc("tmp0"(#loc24))
#loc101 = loc("tmp0"(#loc25))
#loc102 = loc("tmp2"(#loc26))
#loc103 = loc("tmp2"(#loc27))
#loc104 = loc("tmp9"(#loc28))
#loc105 = loc("tmp9"(#loc29))
#loc106 = loc("tmp9"(#loc30))
#loc107 = loc("tmp9"(#loc31))
#loc108 = loc("tmp9"(#loc32))
#loc109 = loc("tmp9"(#loc33))
#loc110 = loc("tmp14"(#loc34))
#loc111 = loc("tmp14"(#loc35))
#loc112 = loc("tmp14"(#loc36))
#loc113 = loc("tmp14"(#loc37))
#loc114 = loc("tmp14"(#loc38))
#loc115 = loc("tmp14"(#loc39))
#loc116 = loc("tmp3"(#loc40))
#loc117 = loc("tmp4"(#loc41))
#loc118 = loc("tmp5"(#loc42))
#loc119 = loc("tmp6"(#loc43))
#loc120 = loc("tmp7"(#loc44))
#loc121 = loc("tmp8"(#loc45))
#loc122 = loc("tmp11"(#loc46))
#loc123 = loc("tmp12"(#loc47))
#loc124 = loc("tmp13"(#loc48))
#loc125 = loc("tmp16"(#loc49))
