#loc = loc("/NHNHOME/WORKSPACE/26msit001_A/jinhyeok/loop_TTT/lact/.cache_inductor_llm/zv/czvyo5belxpecjka5iaxuopdcmemb5c2r5ov6s2uxgx4bojaa25w.py":18:0)
#loc32 = loc("/NHNHOME/WORKSPACE/26msit001_A/jinhyeok/TTT_camera_embedding/.venv_llm/lib/python3.12/site-packages/triton/language/standard.py":47:0)
#loc39 = loc("in_out_ptr0"(#loc))
#loc40 = loc("in_ptr0"(#loc))
#loc41 = loc("in_ptr1"(#loc))
#loc42 = loc("out_ptr0"(#loc))
#loc43 = loc("xnumel"(#loc))
#loc70 = loc("x"(#loc32))
module {
  tt.func public @triton_poi_fused_add_fill_mul_sigmoid_silu_sub_5(%in_out_ptr0: !tt.ptr<bf16> {tt.divisibility = 16 : i32} loc("in_out_ptr0"(#loc)), %in_ptr0: !tt.ptr<bf16> {tt.divisibility = 16 : i32} loc("in_ptr0"(#loc)), %in_ptr1: !tt.ptr<bf16> {tt.divisibility = 16 : i32} loc("in_ptr1"(#loc)), %out_ptr0: !tt.ptr<bf16> {tt.divisibility = 16 : i32} loc("out_ptr0"(#loc)), %xnumel: i32 {tt.divisibility = 16 : i32} loc("xnumel"(#loc))) attributes {noinline = false} {
    %xnumel_0 = arith.constant 6291456 : i32 loc(#loc44)
    %xoffset = tt.get_program_id x : i32 loc(#loc45)
    %xoffset_1 = arith.constant 512 : i32 loc(#loc46)
    %xoffset_2 = arith.constant 512 : i32 loc(#loc46)
    %xoffset_3 = arith.muli %xoffset, %xoffset_2 : i32 loc(#loc46)
    %xindex = tt.make_range {end = 512 : i32, start = 0 : i32} : tensor<512xi32> loc(#loc47)
    %xindex_4 = tt.splat %xoffset_3 : i32 -> tensor<512xi32> loc(#loc48)
    %xindex_5 = arith.addi %xindex_4, %xindex : tensor<512xi32> loc(#loc48)
    %xmask = arith.constant true loc(#loc49)
    %xmask_6 = arith.constant dense<true> : tensor<512xi1> loc(#loc49)
    %tmp0 = tt.splat %in_ptr0 : !tt.ptr<bf16> -> tensor<512x!tt.ptr<bf16>> loc(#loc50)
    %tmp0_7 = tt.addptr %tmp0, %xindex_5 : tensor<512x!tt.ptr<bf16>>, tensor<512xi32> loc(#loc50)
    %tmp0_8 = tt.load %tmp0_7 : tensor<512x!tt.ptr<bf16>> loc(#loc51)
    %tmp0_9 = arith.extf %tmp0_8 : tensor<512xbf16> to tensor<512xf32> loc(#loc52)
    %tmp1 = tt.splat %in_ptr1 : !tt.ptr<bf16> -> tensor<512x!tt.ptr<bf16>> loc(#loc53)
    %tmp1_10 = tt.addptr %tmp1, %xindex_5 : tensor<512x!tt.ptr<bf16>>, tensor<512xi32> loc(#loc53)
    %tmp1_11 = tt.load %tmp1_10 : tensor<512x!tt.ptr<bf16>> loc(#loc54)
    %tmp1_12 = arith.extf %tmp1_11 : tensor<512xbf16> to tensor<512xf32> loc(#loc55)
    %tmp7 = tt.splat %in_out_ptr0 : !tt.ptr<bf16> -> tensor<512x!tt.ptr<bf16>> loc(#loc56)
    %tmp7_13 = tt.addptr %tmp7, %xindex_5 : tensor<512x!tt.ptr<bf16>>, tensor<512xi32> loc(#loc56)
    %tmp7_14 = tt.load %tmp7_13 : tensor<512x!tt.ptr<bf16>> loc(#loc57)
    %tmp7_15 = arith.extf %tmp7_14 : tensor<512xbf16> to tensor<512xf32> loc(#loc58)
    %tmp3 = tt.call @triton.language.standard.sigmoid__fp32S512S__(%tmp1_12) : (tensor<512xf32>) -> tensor<512xf32> loc(#loc59)
    %tmp4 = arith.mulf %tmp1_12, %tmp3 : tensor<512xf32> loc(#loc60)
    %tmp6 = arith.mulf %tmp0_9, %tmp4 : tensor<512xf32> loc(#loc61)
    %tmp8 = arith.mulf %tmp0_9, %tmp7_15 : tensor<512xf32> loc(#loc62)
    %tmp9 = tt.call @triton.language.standard.sigmoid__fp32S512S__(%tmp1_12) : (tensor<512xf32>) -> tensor<512xf32> loc(#loc63)
    %tmp10 = arith.constant 1.000000e+00 : f32 loc(#loc64)
    %tmp11 = arith.constant dense<1.000000e+00> : tensor<512xf32> loc(#loc65)
    %tmp11_16 = arith.subf %tmp11, %tmp9 : tensor<512xf32> loc(#loc65)
    %tmp12 = arith.mulf %tmp1_12, %tmp11_16 : tensor<512xf32> loc(#loc66)
    %tmp13 = arith.constant dense<1.000000e+00> : tensor<512xf32> loc(#loc67)
    %tmp13_17 = arith.addf %tmp12, %tmp13 : tensor<512xf32> loc(#loc67)
    %tmp14 = arith.mulf %tmp9, %tmp13_17 : tensor<512xf32> loc(#loc68)
    %tmp15 = arith.mulf %tmp8, %tmp14 : tensor<512xf32> loc(#loc69)
    %0 = tt.splat %out_ptr0 : !tt.ptr<bf16> -> tensor<512x!tt.ptr<bf16>> loc(#loc27)
    %1 = tt.addptr %0, %xindex_5 : tensor<512x!tt.ptr<bf16>>, tensor<512xi32> loc(#loc27)
    %2 = arith.truncf %tmp6 : tensor<512xf32> to tensor<512xbf16> loc(#loc28)
    tt.store %1, %2 : tensor<512x!tt.ptr<bf16>> loc(#loc28)
    %3 = tt.splat %in_out_ptr0 : !tt.ptr<bf16> -> tensor<512x!tt.ptr<bf16>> loc(#loc29)
    %4 = tt.addptr %3, %xindex_5 : tensor<512x!tt.ptr<bf16>>, tensor<512xi32> loc(#loc29)
    %5 = arith.truncf %tmp15 : tensor<512xf32> to tensor<512xbf16> loc(#loc30)
    tt.store %4, %5 : tensor<512x!tt.ptr<bf16>> loc(#loc30)
    tt.return loc(#loc31)
  } loc(#loc)
  tt.func private @triton.language.standard.sigmoid__fp32S512S__(%x: tensor<512xf32> loc("x"(#loc32))) -> tensor<512xf32> attributes {noinline = false} {
    %cst = arith.constant 0.000000e+00 : f32 loc(#loc33)
    %cst_0 = arith.constant dense<0.000000e+00> : tensor<512xf32> loc(#loc33)
    %0 = arith.subf %cst_0, %x : tensor<512xf32> loc(#loc33)
    %1 = math.exp %0 : tensor<512xf32> loc(#loc34)
    %c1_i32 = arith.constant 1 : i32 loc(#loc35)
    %cst_1 = arith.constant 1.000000e+00 : f32 loc(#loc35)
    %cst_2 = arith.constant dense<1.000000e+00> : tensor<512xf32> loc(#loc35)
    %2 = arith.addf %cst_2, %1 : tensor<512xf32> loc(#loc35)
    %c1_i32_3 = arith.constant 1 : i32 loc(#loc36)
    %cst_4 = arith.constant 1.000000e+00 : f32 loc(#loc36)
    %cst_5 = arith.constant dense<1.000000e+00> : tensor<512xf32> loc(#loc36)
    %3 = arith.divf %cst_5, %2 : tensor<512xf32> loc(#loc36)
    tt.return %3 : tensor<512xf32> loc(#loc37)
  ^bb1:  // no predecessors
    %4 = ub.poison : tensor<512xf32> loc(#loc38)
    tt.return %4 : tensor<512xf32> loc(#loc38)
  } loc(#loc32)
} loc(#loc)
#loc1 = loc("/NHNHOME/WORKSPACE/26msit001_A/jinhyeok/loop_TTT/lact/.cache_inductor_llm/zv/czvyo5belxpecjka5iaxuopdcmemb5c2r5ov6s2uxgx4bojaa25w.py":19:13)
#loc2 = loc("/NHNHOME/WORKSPACE/26msit001_A/jinhyeok/loop_TTT/lact/.cache_inductor_llm/zv/czvyo5belxpecjka5iaxuopdcmemb5c2r5ov6s2uxgx4bojaa25w.py":20:28)
#loc3 = loc("/NHNHOME/WORKSPACE/26msit001_A/jinhyeok/loop_TTT/lact/.cache_inductor_llm/zv/czvyo5belxpecjka5iaxuopdcmemb5c2r5ov6s2uxgx4bojaa25w.py":20:33)
#loc4 = loc("/NHNHOME/WORKSPACE/26msit001_A/jinhyeok/loop_TTT/lact/.cache_inductor_llm/zv/czvyo5belxpecjka5iaxuopdcmemb5c2r5ov6s2uxgx4bojaa25w.py":21:36)
#loc5 = loc("/NHNHOME/WORKSPACE/26msit001_A/jinhyeok/loop_TTT/lact/.cache_inductor_llm/zv/czvyo5belxpecjka5iaxuopdcmemb5c2r5ov6s2uxgx4bojaa25w.py":21:23)
#loc6 = loc("/NHNHOME/WORKSPACE/26msit001_A/jinhyeok/loop_TTT/lact/.cache_inductor_llm/zv/czvyo5belxpecjka5iaxuopdcmemb5c2r5ov6s2uxgx4bojaa25w.py":22:36)
#loc7 = loc("/NHNHOME/WORKSPACE/26msit001_A/jinhyeok/loop_TTT/lact/.cache_inductor_llm/zv/czvyo5belxpecjka5iaxuopdcmemb5c2r5ov6s2uxgx4bojaa25w.py":24:30)
#loc8 = loc("/NHNHOME/WORKSPACE/26msit001_A/jinhyeok/loop_TTT/lact/.cache_inductor_llm/zv/czvyo5belxpecjka5iaxuopdcmemb5c2r5ov6s2uxgx4bojaa25w.py":24:35)
#loc9 = loc("/NHNHOME/WORKSPACE/26msit001_A/jinhyeok/loop_TTT/lact/.cache_inductor_llm/zv/czvyo5belxpecjka5iaxuopdcmemb5c2r5ov6s2uxgx4bojaa25w.py":24:44)
#loc10 = loc("/NHNHOME/WORKSPACE/26msit001_A/jinhyeok/loop_TTT/lact/.cache_inductor_llm/zv/czvyo5belxpecjka5iaxuopdcmemb5c2r5ov6s2uxgx4bojaa25w.py":25:30)
#loc11 = loc("/NHNHOME/WORKSPACE/26msit001_A/jinhyeok/loop_TTT/lact/.cache_inductor_llm/zv/czvyo5belxpecjka5iaxuopdcmemb5c2r5ov6s2uxgx4bojaa25w.py":25:35)
#loc12 = loc("/NHNHOME/WORKSPACE/26msit001_A/jinhyeok/loop_TTT/lact/.cache_inductor_llm/zv/czvyo5belxpecjka5iaxuopdcmemb5c2r5ov6s2uxgx4bojaa25w.py":25:44)
#loc13 = loc("/NHNHOME/WORKSPACE/26msit001_A/jinhyeok/loop_TTT/lact/.cache_inductor_llm/zv/czvyo5belxpecjka5iaxuopdcmemb5c2r5ov6s2uxgx4bojaa25w.py":26:34)
#loc14 = loc("/NHNHOME/WORKSPACE/26msit001_A/jinhyeok/loop_TTT/lact/.cache_inductor_llm/zv/czvyo5belxpecjka5iaxuopdcmemb5c2r5ov6s2uxgx4bojaa25w.py":26:39)
#loc15 = loc("/NHNHOME/WORKSPACE/26msit001_A/jinhyeok/loop_TTT/lact/.cache_inductor_llm/zv/czvyo5belxpecjka5iaxuopdcmemb5c2r5ov6s2uxgx4bojaa25w.py":26:48)
#loc16 = loc("/NHNHOME/WORKSPACE/26msit001_A/jinhyeok/loop_TTT/lact/.cache_inductor_llm/zv/czvyo5belxpecjka5iaxuopdcmemb5c2r5ov6s2uxgx4bojaa25w.py":28:22)
#loc17 = loc("/NHNHOME/WORKSPACE/26msit001_A/jinhyeok/loop_TTT/lact/.cache_inductor_llm/zv/czvyo5belxpecjka5iaxuopdcmemb5c2r5ov6s2uxgx4bojaa25w.py":29:18)
#loc18 = loc("/NHNHOME/WORKSPACE/26msit001_A/jinhyeok/loop_TTT/lact/.cache_inductor_llm/zv/czvyo5belxpecjka5iaxuopdcmemb5c2r5ov6s2uxgx4bojaa25w.py":31:18)
#loc19 = loc("/NHNHOME/WORKSPACE/26msit001_A/jinhyeok/loop_TTT/lact/.cache_inductor_llm/zv/czvyo5belxpecjka5iaxuopdcmemb5c2r5ov6s2uxgx4bojaa25w.py":32:18)
#loc20 = loc("/NHNHOME/WORKSPACE/26msit001_A/jinhyeok/loop_TTT/lact/.cache_inductor_llm/zv/czvyo5belxpecjka5iaxuopdcmemb5c2r5ov6s2uxgx4bojaa25w.py":33:22)
#loc21 = loc("/NHNHOME/WORKSPACE/26msit001_A/jinhyeok/loop_TTT/lact/.cache_inductor_llm/zv/czvyo5belxpecjka5iaxuopdcmemb5c2r5ov6s2uxgx4bojaa25w.py":34:12)
#loc22 = loc("/NHNHOME/WORKSPACE/26msit001_A/jinhyeok/loop_TTT/lact/.cache_inductor_llm/zv/czvyo5belxpecjka5iaxuopdcmemb5c2r5ov6s2uxgx4bojaa25w.py":35:20)
#loc23 = loc("/NHNHOME/WORKSPACE/26msit001_A/jinhyeok/loop_TTT/lact/.cache_inductor_llm/zv/czvyo5belxpecjka5iaxuopdcmemb5c2r5ov6s2uxgx4bojaa25w.py":36:19)
#loc24 = loc("/NHNHOME/WORKSPACE/26msit001_A/jinhyeok/loop_TTT/lact/.cache_inductor_llm/zv/czvyo5belxpecjka5iaxuopdcmemb5c2r5ov6s2uxgx4bojaa25w.py":37:20)
#loc25 = loc("/NHNHOME/WORKSPACE/26msit001_A/jinhyeok/loop_TTT/lact/.cache_inductor_llm/zv/czvyo5belxpecjka5iaxuopdcmemb5c2r5ov6s2uxgx4bojaa25w.py":38:19)
#loc26 = loc("/NHNHOME/WORKSPACE/26msit001_A/jinhyeok/loop_TTT/lact/.cache_inductor_llm/zv/czvyo5belxpecjka5iaxuopdcmemb5c2r5ov6s2uxgx4bojaa25w.py":39:19)
#loc27 = loc("/NHNHOME/WORKSPACE/26msit001_A/jinhyeok/loop_TTT/lact/.cache_inductor_llm/zv/czvyo5belxpecjka5iaxuopdcmemb5c2r5ov6s2uxgx4bojaa25w.py":40:25)
#loc28 = loc("/NHNHOME/WORKSPACE/26msit001_A/jinhyeok/loop_TTT/lact/.cache_inductor_llm/zv/czvyo5belxpecjka5iaxuopdcmemb5c2r5ov6s2uxgx4bojaa25w.py":40:36)
#loc29 = loc("/NHNHOME/WORKSPACE/26msit001_A/jinhyeok/loop_TTT/lact/.cache_inductor_llm/zv/czvyo5belxpecjka5iaxuopdcmemb5c2r5ov6s2uxgx4bojaa25w.py":41:28)
#loc30 = loc("/NHNHOME/WORKSPACE/26msit001_A/jinhyeok/loop_TTT/lact/.cache_inductor_llm/zv/czvyo5belxpecjka5iaxuopdcmemb5c2r5ov6s2uxgx4bojaa25w.py":41:40)
#loc31 = loc("/NHNHOME/WORKSPACE/26msit001_A/jinhyeok/loop_TTT/lact/.cache_inductor_llm/zv/czvyo5belxpecjka5iaxuopdcmemb5c2r5ov6s2uxgx4bojaa25w.py":41:4)
#loc33 = loc("/NHNHOME/WORKSPACE/26msit001_A/jinhyeok/TTT_camera_embedding/.venv_llm/lib/python3.12/site-packages/triton/language/standard.py":48:30)
#loc34 = loc("/NHNHOME/WORKSPACE/26msit001_A/jinhyeok/TTT_camera_embedding/.venv_llm/lib/python3.12/site-packages/triton/language/standard.py":48:29)
#loc35 = loc("/NHNHOME/WORKSPACE/26msit001_A/jinhyeok/TTT_camera_embedding/.venv_llm/lib/python3.12/site-packages/triton/language/standard.py":48:20)
#loc36 = loc("/NHNHOME/WORKSPACE/26msit001_A/jinhyeok/TTT_camera_embedding/.venv_llm/lib/python3.12/site-packages/triton/language/standard.py":48:16)
#loc37 = loc("/NHNHOME/WORKSPACE/26msit001_A/jinhyeok/TTT_camera_embedding/.venv_llm/lib/python3.12/site-packages/triton/language/standard.py":48:11)
#loc38 = loc("/NHNHOME/WORKSPACE/26msit001_A/jinhyeok/TTT_camera_embedding/.venv_llm/lib/python3.12/site-packages/triton/language/standard.py":48:4)
#loc44 = loc("xnumel"(#loc1))
#loc45 = loc("xoffset"(#loc2))
#loc46 = loc("xoffset"(#loc3))
#loc47 = loc("xindex"(#loc4))
#loc48 = loc("xindex"(#loc5))
#loc49 = loc("xmask"(#loc6))
#loc50 = loc("tmp0"(#loc7))
#loc51 = loc("tmp0"(#loc8))
#loc52 = loc("tmp0"(#loc9))
#loc53 = loc("tmp1"(#loc10))
#loc54 = loc("tmp1"(#loc11))
#loc55 = loc("tmp1"(#loc12))
#loc56 = loc("tmp7"(#loc13))
#loc57 = loc("tmp7"(#loc14))
#loc58 = loc("tmp7"(#loc15))
#loc59 = loc("tmp3"(#loc16))
#loc60 = loc("tmp4"(#loc17))
#loc61 = loc("tmp6"(#loc18))
#loc62 = loc("tmp8"(#loc19))
#loc63 = loc("tmp9"(#loc20))
#loc64 = loc("tmp10"(#loc21))
#loc65 = loc("tmp11"(#loc22))
#loc66 = loc("tmp12"(#loc23))
#loc67 = loc("tmp13"(#loc24))
#loc68 = loc("tmp14"(#loc25))
#loc69 = loc("tmp15"(#loc26))
