#loc = loc("/NHNHOME/WORKSPACE/26msit001_A/jinhyeok/loop_TTT/lact/.cache_inductor_llm/gu/cguiejjv6psnxbwtaaxtbqo2u4gijfei3ibrqtvun6miwo2g4jho.py":18:0)
#loc1 = loc(unknown)
#loc34 = loc("/NHNHOME/WORKSPACE/26msit001_A/jinhyeok/loop_TTT/lact/.cache_inductor_llm/gu/cguiejjv6psnxbwtaaxtbqo2u4gijfei3ibrqtvun6miwo2g4jho.py":56:27)
#loc40 = loc("in_ptr0"(#loc))
#loc41 = loc("in_ptr1"(#loc))
#loc42 = loc("out_ptr0"(#loc))
#loc43 = loc("xnumel"(#loc))
#loc44 = loc("r0_numel"(#loc))
#loc75 = loc("tmp17"(#loc34))
#loc81 = loc(callsite(#loc1 at #loc75))
module {
  tt.func public @triton_red_fused__to_copy_add_linalg_vector_norm_mean_mul_slice_zeros_like_26(%in_ptr0: !tt.ptr<bf16> {tt.divisibility = 16 : i32} loc("in_ptr0"(#loc)), %in_ptr1: !tt.ptr<f32> {tt.divisibility = 16 : i32} loc("in_ptr1"(#loc)), %out_ptr0: !tt.ptr<f32> {tt.divisibility = 16 : i32} loc("out_ptr0"(#loc)), %xnumel: i32 loc("xnumel"(#loc)), %r0_numel: i32 loc("r0_numel"(#loc))) attributes {noinline = false} {
    %c36864_i32 = arith.constant 36864 : i32 loc(#loc1)
    %c5_i32 = arith.constant 5 : i32 loc(#loc1)
    %cst = arith.constant dense<0.000000e+00> : tensor<1x2048xbf16> loc(#loc1)
    %c2048_i32 = arith.constant 2048 : i32 loc(#loc2)
    %c7373_i32 = arith.constant 7373 : i32 loc(#loc1)
    %c0_i32 = arith.constant 0 : i32 loc(#loc2)
    %cst_0 = arith.constant dense<1.024000e+03> : tensor<1x2048xf32> loc(#loc1)
    %cst_1 = arith.constant dense<36864> : tensor<1x2048xi32> loc(#loc1)
    %cst_2 = arith.constant dense<7373> : tensor<1x2048xi32> loc(#loc1)
    %cst_3 = arith.constant dense<0.000000e+00> : tensor<1x2048xf32> loc(#loc1)
    %xoffset = tt.get_program_id x : i32 loc(#loc45)
    %xmask = arith.cmpi slt, %xoffset, %xnumel : i32 loc(#loc46)
    %xmask_4 = tt.splat %xmask : i1 -> tensor<1x1xi1> loc(#loc46)
    %r0_base = tt.make_range {end = 2048 : i32, start = 0 : i32} : tensor<2048xi32> loc(#loc47)
    %r0_base_5 = tt.expand_dims %r0_base {axis = 0 : i32} : tensor<2048xi32> -> tensor<1x2048xi32> loc(#loc48)
    %x0 = arith.remsi %xoffset, %c5_i32 : i32 loc(#loc49)
    %x1 = arith.divsi %xoffset, %c5_i32 : i32 loc(#loc50)
    %_tmp17 = scf.for %r0_offset = %c0_i32 to %c7373_i32 step %c2048_i32 iter_args(%_tmp17_7 = %cst_3) -> (tensor<1x2048xf32>)  : i32 {
      %r0_index = tt.splat %r0_offset : i32 -> tensor<1x2048xi32> loc(#loc52)
      %r0_index_8 = arith.addi %r0_index, %r0_base_5 : tensor<1x2048xi32> loc(#loc52)
      %r0_mask = arith.cmpi slt, %r0_index_8, %cst_2 : tensor<1x2048xi32> loc(#loc53)
      %tmp0 = arith.muli %x0, %c7373_i32 : i32 loc(#loc54)
      %tmp0_9 = tt.splat %tmp0 : i32 -> tensor<1x2048xi32> loc(#loc77)
      %tmp0_10 = arith.addi %r0_index_8, %tmp0_9 : tensor<1x2048xi32> loc(#loc55)
      %tmp2 = arith.cmpi slt, %tmp0_10, %cst_1 : tensor<1x2048xi32> loc(#loc56)
      %tmp3 = arith.muli %x1, %c36864_i32 : i32 loc(#loc57)
      %tmp3_11 = arith.remsi %tmp0_10, %cst_1 : tensor<1x2048xi32> loc(#loc58)
      %tmp3_12 = tt.splat %tmp3 : i32 -> tensor<1x2048xi32> loc(#loc78)
      %tmp3_13 = arith.addi %tmp3_12, %tmp3_11 : tensor<1x2048xi32> loc(#loc59)
      %tmp3_14 = tt.splat %in_ptr0 : !tt.ptr<bf16> -> tensor<1x2048x!tt.ptr<bf16>> loc(#loc60)
      %tmp3_15 = tt.addptr %tmp3_14, %tmp3_13 : tensor<1x2048x!tt.ptr<bf16>>, tensor<1x2048xi32> loc(#loc60)
      %tmp3_16 = arith.andi %r0_mask, %tmp2 : tensor<1x2048xi1> loc(#loc61)
      %tmp3_17 = tt.splat %xmask : i1 -> tensor<1x2048xi1> loc(#loc79)
      %tmp3_18 = arith.andi %tmp3_16, %tmp3_17 : tensor<1x2048xi1> loc(#loc62)
      %tmp3_19 = tt.load %tmp3_15, %tmp3_18, %cst evictionPolicy = evict_last : tensor<1x2048x!tt.ptr<bf16>> loc(#loc63)
      %tmp3_20 = arith.extf %tmp3_19 : tensor<1x2048xbf16> to tensor<1x2048xf32> loc(#loc64)
      %tmp5 = tt.addptr %in_ptr1, %x1 : !tt.ptr<f32>, i32 loc(#loc65)
      %tmp5_21 = tt.splat %tmp5 : !tt.ptr<f32> -> tensor<1x2048x!tt.ptr<f32>> loc(#loc65)
      %tmp5_22 = tt.load %tmp5_21, %tmp3_18, %cst_3 evictionPolicy = evict_last : tensor<1x2048x!tt.ptr<f32>> loc(#loc66)
      %tmp7 = arith.divf %tmp5_22, %cst_0 : tensor<1x2048xf32> loc(#loc67)
      %tmp9 = arith.mulf %tmp7, %cst_3 : tensor<1x2048xf32> loc(#loc68)
      %tmp10 = arith.addf %tmp3_20, %tmp9 : tensor<1x2048xf32> loc(#loc69)
      %tmp13 = arith.mulf %tmp10, %tmp10 : tensor<1x2048xf32> loc(#loc70)
      %tmp15 = arith.select %tmp2, %tmp13, %cst_3 : tensor<1x2048xi1>, tensor<1x2048xf32> loc(#loc71)
      %tmp18 = arith.addf %_tmp17_7, %tmp15 : tensor<1x2048xf32> loc(#loc72)
      %_tmp17_23 = arith.andi %r0_mask, %tmp3_17 : tensor<1x2048xi1> loc(#loc73)
      %_tmp17_24 = arith.select %_tmp17_23, %tmp18, %_tmp17_7 : tensor<1x2048xi1>, tensor<1x2048xf32> loc(#loc74)
      scf.yield %_tmp17_24 : tensor<1x2048xf32> loc(#loc32)
    } loc(#loc51)
    %tmp17 = "tt.reduce"(%_tmp17) <{axis = 1 : i32}> ({
    ^bb0(%tmp17_7: f32 loc(callsite(#loc1 at #loc75)), %tmp17_8: f32 loc(callsite(#loc1 at #loc75))):
      %tmp17_9 = arith.addf %tmp17_7, %tmp17_8 : f32 loc(#loc82)
      tt.reduce.return %tmp17_9 : f32 loc(#loc80)
    }) : (tensor<1x2048xf32>) -> tensor<1xf32> loc(#loc80)
    %tmp17_6 = tt.expand_dims %tmp17 {axis = 1 : i32} : tensor<1xf32> -> tensor<1x1xf32> loc(#loc76)
    %0 = tt.addptr %out_ptr0, %xoffset : !tt.ptr<f32>, i32 loc(#loc37)
    %1 = tt.splat %0 : !tt.ptr<f32> -> tensor<1x1x!tt.ptr<f32>> loc(#loc37)
    tt.store %1, %tmp17_6, %xmask_4 : tensor<1x1x!tt.ptr<f32>> loc(#loc38)
    tt.return loc(#loc39)
  } loc(#loc)
} loc(#loc)
#loc2 = loc("/NHNHOME/WORKSPACE/26msit001_A/jinhyeok/loop_TTT/lact/.cache_inductor_llm/gu/cguiejjv6psnxbwtaaxtbqo2u4gijfei3ibrqtvun6miwo2g4jho.py":31:40)
#loc3 = loc("/NHNHOME/WORKSPACE/26msit001_A/jinhyeok/loop_TTT/lact/.cache_inductor_llm/gu/cguiejjv6psnxbwtaaxtbqo2u4gijfei3ibrqtvun6miwo2g4jho.py":22:28)
#loc4 = loc("/NHNHOME/WORKSPACE/26msit001_A/jinhyeok/loop_TTT/lact/.cache_inductor_llm/gu/cguiejjv6psnxbwtaaxtbqo2u4gijfei3ibrqtvun6miwo2g4jho.py":24:21)
#loc5 = loc("/NHNHOME/WORKSPACE/26msit001_A/jinhyeok/loop_TTT/lact/.cache_inductor_llm/gu/cguiejjv6psnxbwtaaxtbqo2u4gijfei3ibrqtvun6miwo2g4jho.py":25:27)
#loc6 = loc("/NHNHOME/WORKSPACE/26msit001_A/jinhyeok/loop_TTT/lact/.cache_inductor_llm/gu/cguiejjv6psnxbwtaaxtbqo2u4gijfei3ibrqtvun6miwo2g4jho.py":25:37)
#loc7 = loc("/NHNHOME/WORKSPACE/26msit001_A/jinhyeok/loop_TTT/lact/.cache_inductor_llm/gu/cguiejjv6psnxbwtaaxtbqo2u4gijfei3ibrqtvun6miwo2g4jho.py":27:19)
#loc8 = loc("/NHNHOME/WORKSPACE/26msit001_A/jinhyeok/loop_TTT/lact/.cache_inductor_llm/gu/cguiejjv6psnxbwtaaxtbqo2u4gijfei3ibrqtvun6miwo2g4jho.py":28:19)
#loc9 = loc("/NHNHOME/WORKSPACE/26msit001_A/jinhyeok/loop_TTT/lact/.cache_inductor_llm/gu/cguiejjv6psnxbwtaaxtbqo2u4gijfei3ibrqtvun6miwo2g4jho.py":32:31)
#loc10 = loc("/NHNHOME/WORKSPACE/26msit001_A/jinhyeok/loop_TTT/lact/.cache_inductor_llm/gu/cguiejjv6psnxbwtaaxtbqo2u4gijfei3ibrqtvun6miwo2g4jho.py":33:29)
#loc11 = loc("/NHNHOME/WORKSPACE/26msit001_A/jinhyeok/loop_TTT/lact/.cache_inductor_llm/gu/cguiejjv6psnxbwtaaxtbqo2u4gijfei3ibrqtvun6miwo2g4jho.py":37:27)
#loc12 = loc("/NHNHOME/WORKSPACE/26msit001_A/jinhyeok/loop_TTT/lact/.cache_inductor_llm/gu/cguiejjv6psnxbwtaaxtbqo2u4gijfei3ibrqtvun6miwo2g4jho.py":37:22)
#loc13 = loc("/NHNHOME/WORKSPACE/26msit001_A/jinhyeok/loop_TTT/lact/.cache_inductor_llm/gu/cguiejjv6psnxbwtaaxtbqo2u4gijfei3ibrqtvun6miwo2g4jho.py":39:22)
#loc14 = loc("/NHNHOME/WORKSPACE/26msit001_A/jinhyeok/loop_TTT/lact/.cache_inductor_llm/gu/cguiejjv6psnxbwtaaxtbqo2u4gijfei3ibrqtvun6miwo2g4jho.py":40:40)
#loc15 = loc("/NHNHOME/WORKSPACE/26msit001_A/jinhyeok/loop_TTT/lact/.cache_inductor_llm/gu/cguiejjv6psnxbwtaaxtbqo2u4gijfei3ibrqtvun6miwo2g4jho.py":40:66)
#loc16 = loc("/NHNHOME/WORKSPACE/26msit001_A/jinhyeok/loop_TTT/lact/.cache_inductor_llm/gu/cguiejjv6psnxbwtaaxtbqo2u4gijfei3ibrqtvun6miwo2g4jho.py":40:47)
#loc17 = loc("/NHNHOME/WORKSPACE/26msit001_A/jinhyeok/loop_TTT/lact/.cache_inductor_llm/gu/cguiejjv6psnxbwtaaxtbqo2u4gijfei3ibrqtvun6miwo2g4jho.py":40:34)
#loc18 = loc("/NHNHOME/WORKSPACE/26msit001_A/jinhyeok/loop_TTT/lact/.cache_inductor_llm/gu/cguiejjv6psnxbwtaaxtbqo2u4gijfei3ibrqtvun6miwo2g4jho.py":40:86)
#loc19 = loc("/NHNHOME/WORKSPACE/26msit001_A/jinhyeok/loop_TTT/lact/.cache_inductor_llm/gu/cguiejjv6psnxbwtaaxtbqo2u4gijfei3ibrqtvun6miwo2g4jho.py":40:93)
#loc20 = loc("/NHNHOME/WORKSPACE/26msit001_A/jinhyeok/loop_TTT/lact/.cache_inductor_llm/gu/cguiejjv6psnxbwtaaxtbqo2u4gijfei3ibrqtvun6miwo2g4jho.py":40:76)
#loc21 = loc("/NHNHOME/WORKSPACE/26msit001_A/jinhyeok/loop_TTT/lact/.cache_inductor_llm/gu/cguiejjv6psnxbwtaaxtbqo2u4gijfei3ibrqtvun6miwo2g4jho.py":40:144)
#loc22 = loc("/NHNHOME/WORKSPACE/26msit001_A/jinhyeok/loop_TTT/lact/.cache_inductor_llm/gu/cguiejjv6psnxbwtaaxtbqo2u4gijfei3ibrqtvun6miwo2g4jho.py":42:34)
#loc23 = loc("/NHNHOME/WORKSPACE/26msit001_A/jinhyeok/loop_TTT/lact/.cache_inductor_llm/gu/cguiejjv6psnxbwtaaxtbqo2u4gijfei3ibrqtvun6miwo2g4jho.py":42:76)
#loc24 = loc("/NHNHOME/WORKSPACE/26msit001_A/jinhyeok/loop_TTT/lact/.cache_inductor_llm/gu/cguiejjv6psnxbwtaaxtbqo2u4gijfei3ibrqtvun6miwo2g4jho.py":44:23)
#loc25 = loc("/NHNHOME/WORKSPACE/26msit001_A/jinhyeok/loop_TTT/lact/.cache_inductor_llm/gu/cguiejjv6psnxbwtaaxtbqo2u4gijfei3ibrqtvun6miwo2g4jho.py":46:22)
#loc26 = loc("/NHNHOME/WORKSPACE/26msit001_A/jinhyeok/loop_TTT/lact/.cache_inductor_llm/gu/cguiejjv6psnxbwtaaxtbqo2u4gijfei3ibrqtvun6miwo2g4jho.py":47:23)
#loc27 = loc("/NHNHOME/WORKSPACE/26msit001_A/jinhyeok/loop_TTT/lact/.cache_inductor_llm/gu/cguiejjv6psnxbwtaaxtbqo2u4gijfei3ibrqtvun6miwo2g4jho.py":50:24)
#loc28 = loc("/NHNHOME/WORKSPACE/26msit001_A/jinhyeok/loop_TTT/lact/.cache_inductor_llm/gu/cguiejjv6psnxbwtaaxtbqo2u4gijfei3ibrqtvun6miwo2g4jho.py":52:38)
#loc29 = loc("/NHNHOME/WORKSPACE/26msit001_A/jinhyeok/loop_TTT/lact/.cache_inductor_llm/gu/cguiejjv6psnxbwtaaxtbqo2u4gijfei3ibrqtvun6miwo2g4jho.py":54:25)
#loc30 = loc("/NHNHOME/WORKSPACE/26msit001_A/jinhyeok/loop_TTT/lact/.cache_inductor_llm/gu/cguiejjv6psnxbwtaaxtbqo2u4gijfei3ibrqtvun6miwo2g4jho.py":55:36)
#loc31 = loc("/NHNHOME/WORKSPACE/26msit001_A/jinhyeok/loop_TTT/lact/.cache_inductor_llm/gu/cguiejjv6psnxbwtaaxtbqo2u4gijfei3ibrqtvun6miwo2g4jho.py":55:50)
#loc32 = loc("/NHNHOME/WORKSPACE/26msit001_A/jinhyeok/loop_TTT/lact/.cache_inductor_llm/gu/cguiejjv6psnxbwtaaxtbqo2u4gijfei3ibrqtvun6miwo2g4jho.py":55:8)
#loc33 = loc("/NHNHOME/WORKSPACE/26msit001_A/jinhyeok/TTT_camera_embedding/.venv_llm/lib/python3.12/site-packages/triton/language/standard.py":291:36)
#loc35 = loc("/NHNHOME/WORKSPACE/26msit001_A/jinhyeok/TTT_camera_embedding/.venv_llm/lib/python3.12/site-packages/triton/language/standard.py":261:15)
#loc36 = loc("/NHNHOME/WORKSPACE/26msit001_A/jinhyeok/loop_TTT/lact/.cache_inductor_llm/gu/cguiejjv6psnxbwtaaxtbqo2u4gijfei3ibrqtvun6miwo2g4jho.py":56:30)
#loc37 = loc("/NHNHOME/WORKSPACE/26msit001_A/jinhyeok/loop_TTT/lact/.cache_inductor_llm/gu/cguiejjv6psnxbwtaaxtbqo2u4gijfei3ibrqtvun6miwo2g4jho.py":57:25)
#loc38 = loc("/NHNHOME/WORKSPACE/26msit001_A/jinhyeok/loop_TTT/lact/.cache_inductor_llm/gu/cguiejjv6psnxbwtaaxtbqo2u4gijfei3ibrqtvun6miwo2g4jho.py":57:37)
#loc39 = loc("/NHNHOME/WORKSPACE/26msit001_A/jinhyeok/loop_TTT/lact/.cache_inductor_llm/gu/cguiejjv6psnxbwtaaxtbqo2u4gijfei3ibrqtvun6miwo2g4jho.py":57:4)
#loc45 = loc("xoffset"(#loc3))
#loc46 = loc("xmask"(#loc4))
#loc47 = loc("r0_base"(#loc5))
#loc48 = loc("r0_base"(#loc6))
#loc49 = loc("x0"(#loc7))
#loc50 = loc("x1"(#loc8))
#loc51 = loc("_tmp17"(#loc2))
#loc52 = loc("r0_index"(#loc9))
#loc53 = loc("r0_mask"(#loc10))
#loc54 = loc("tmp0"(#loc11))
#loc55 = loc("tmp0"(#loc12))
#loc56 = loc("tmp2"(#loc13))
#loc57 = loc("tmp3"(#loc14))
#loc58 = loc("tmp3"(#loc15))
#loc59 = loc("tmp3"(#loc16))
#loc60 = loc("tmp3"(#loc17))
#loc61 = loc("tmp3"(#loc18))
#loc62 = loc("tmp3"(#loc19))
#loc63 = loc("tmp3"(#loc20))
#loc64 = loc("tmp3"(#loc21))
#loc65 = loc("tmp5"(#loc22))
#loc66 = loc("tmp5"(#loc23))
#loc67 = loc("tmp7"(#loc24))
#loc68 = loc("tmp9"(#loc25))
#loc69 = loc("tmp10"(#loc26))
#loc70 = loc("tmp13"(#loc27))
#loc71 = loc("tmp15"(#loc28))
#loc72 = loc("tmp18"(#loc29))
#loc73 = loc("_tmp17"(#loc30))
#loc74 = loc("_tmp17"(#loc31))
#loc76 = loc("tmp17"(#loc36))
#loc77 = loc(fused[#loc55, #loc54])
#loc78 = loc(fused[#loc59, #loc57])
#loc79 = loc(fused[#loc62, #loc46])
#loc80 = loc(callsite(#loc33 at #loc75))
#loc82 = loc(callsite(#loc35 at #loc80))
