#loc = loc("/NHNHOME/WORKSPACE/26msit001_A/jinhyeok/loop_TTT/lact/.cache_inductor_llm/ez/cezro4w5kyvprm47ifebfzryk3lcucjwahfzue4fun5jfagbcsb2.py":18:0)
#loc27 = loc("in_ptr0"(#loc))
#loc28 = loc("out_ptr0"(#loc))
#loc29 = loc("xnumel"(#loc))
module {
  tt.func public @triton_poi_fused_clone_copy_slice_transpose_zeros_like_19(%in_ptr0: !tt.ptr<bf16> {tt.divisibility = 16 : i32} loc("in_ptr0"(#loc)), %out_ptr0: !tt.ptr<bf16> {tt.divisibility = 16 : i32} loc("out_ptr0"(#loc)), %xnumel: i32 {tt.divisibility = 16 : i32} loc("xnumel"(#loc))) attributes {noinline = false} {
    %xnumel_0 = arith.constant 6291456 : i32 loc(#loc30)
    %xoffset = tt.get_program_id x : i32 loc(#loc31)
    %xoffset_1 = arith.constant 512 : i32 loc(#loc32)
    %xoffset_2 = arith.constant 512 : i32 loc(#loc32)
    %xoffset_3 = arith.muli %xoffset, %xoffset_2 : i32 loc(#loc32)
    %xindex = tt.make_range {end = 512 : i32, start = 0 : i32} : tensor<512xi32> loc(#loc33)
    %xindex_4 = tt.splat %xoffset_3 : i32 -> tensor<512xi32> loc(#loc34)
    %xindex_5 = arith.addi %xindex_4, %xindex : tensor<512xi32> loc(#loc34)
    %xmask = arith.constant true loc(#loc35)
    %xmask_6 = arith.constant dense<true> : tensor<512xi1> loc(#loc35)
    %x1 = arith.constant 192 : i32 loc(#loc36)
    %x1_7 = arith.constant 192 : i32 loc(#loc36)
    %x1_8 = arith.constant dense<192> : tensor<512xi32> loc(#loc36)
    %x1_9 = arith.divsi %xindex_5, %x1_8 : tensor<512xi32> loc(#loc36)
    %x1_10 = arith.constant 1024 : i32 loc(#loc37)
    %x1_11 = arith.constant 1024 : i32 loc(#loc37)
    %x1_12 = arith.constant dense<1024> : tensor<512xi32> loc(#loc37)
    %x1_13 = arith.remsi %x1_9, %x1_12 : tensor<512xi32> loc(#loc37)
    %x2 = arith.constant 196608 : i32 loc(#loc38)
    %x2_14 = arith.constant 196608 : i32 loc(#loc38)
    %x2_15 = arith.constant dense<196608> : tensor<512xi32> loc(#loc38)
    %x2_16 = arith.divsi %xindex_5, %x2_15 : tensor<512xi32> loc(#loc38)
    %x3 = arith.constant 196608 : i32 loc(#loc39)
    %x3_17 = arith.constant 196608 : i32 loc(#loc39)
    %x3_18 = arith.constant dense<196608> : tensor<512xi32> loc(#loc39)
    %x3_19 = arith.remsi %xindex_5, %x3_18 : tensor<512xi32> loc(#loc39)
    %tmp6 = arith.constant 393216 : i32 loc(#loc40)
    %tmp6_20 = arith.constant 393216 : i32 loc(#loc40)
    %tmp6_21 = arith.constant dense<393216> : tensor<512xi32> loc(#loc40)
    %tmp6_22 = arith.addi %tmp6_21, %x3_19 : tensor<512xi32> loc(#loc40)
    %tmp6_23 = arith.constant 786432 : i32 loc(#loc41)
    %tmp6_24 = arith.constant 786432 : i32 loc(#loc41)
    %tmp6_25 = arith.constant dense<786432> : tensor<512xi32> loc(#loc41)
    %tmp6_26 = arith.muli %tmp6_25, %x2_16 : tensor<512xi32> loc(#loc41)
    %tmp6_27 = arith.addi %tmp6_22, %tmp6_26 : tensor<512xi32> loc(#loc42)
    %tmp6_28 = tt.splat %in_ptr0 : !tt.ptr<bf16> -> tensor<512x!tt.ptr<bf16>> loc(#loc43)
    %tmp6_29 = tt.addptr %tmp6_28, %tmp6_27 : tensor<512x!tt.ptr<bf16>>, tensor<512xi32> loc(#loc43)
    %tmp6_30 = tt.load %tmp6_29 : tensor<512x!tt.ptr<bf16>> loc(#loc44)
    %tmp6_31 = arith.extf %tmp6_30 : tensor<512xbf16> to tensor<512xf32> loc(#loc45)
    %tmp0 = arith.constant 2048 : i32 loc(#loc46)
    %tmp0_32 = arith.constant 2048 : i32 loc(#loc46)
    %tmp0_33 = arith.constant dense<2048> : tensor<512xi32> loc(#loc46)
    %tmp0_34 = arith.addi %tmp0_33, %x1_13 : tensor<512xi32> loc(#loc46)
    %tmp1 = arith.constant 3072 : i64 loc(#loc47)
    %tmp1_35 = arith.constant dense<3072> : tensor<1xi64> loc(#loc47)
    %tmp2 = arith.extsi %tmp0_34 : tensor<512xi32> to tensor<512xi64> loc(#loc48)
    %tmp2_36 = arith.constant dense<3072> : tensor<512xi64> loc(#loc48)
    %tmp2_37 = arith.cmpi sge, %tmp2, %tmp2_36 : tensor<512xi64> loc(#loc48)
    %tmp3 = arith.constant 0.000000e+00 : f32 loc(#loc49)
    %tmp4 = arith.constant 0.000000e+00 : f32 loc(#loc50)
    %tmp5 = arith.constant dense<0.000000e+00> : tensor<512xf32> loc(#loc51)
    %tmp5_38 = arith.constant dense<0.000000e+00> : tensor<512xf32> loc(#loc51)
    %tmp5_39 = arith.select %tmp2_37, %tmp5, %tmp5_38 : tensor<512xi1>, tensor<512xf32> loc(#loc51)
    %tmp7 = arith.select %tmp2_37, %tmp5_39, %tmp6_31 : tensor<512xi1>, tensor<512xf32> loc(#loc52)
    %0 = tt.splat %out_ptr0 : !tt.ptr<bf16> -> tensor<512x!tt.ptr<bf16>> loc(#loc24)
    %1 = tt.addptr %0, %xindex_5 : tensor<512x!tt.ptr<bf16>>, tensor<512xi32> loc(#loc24)
    %2 = arith.truncf %tmp7 : tensor<512xf32> to tensor<512xbf16> loc(#loc25)
    tt.store %1, %2 : tensor<512x!tt.ptr<bf16>> loc(#loc25)
    tt.return loc(#loc26)
  } loc(#loc)
} loc(#loc)
#loc1 = loc("/NHNHOME/WORKSPACE/26msit001_A/jinhyeok/loop_TTT/lact/.cache_inductor_llm/ez/cezro4w5kyvprm47ifebfzryk3lcucjwahfzue4fun5jfagbcsb2.py":19:13)
#loc2 = loc("/NHNHOME/WORKSPACE/26msit001_A/jinhyeok/loop_TTT/lact/.cache_inductor_llm/ez/cezro4w5kyvprm47ifebfzryk3lcucjwahfzue4fun5jfagbcsb2.py":20:28)
#loc3 = loc("/NHNHOME/WORKSPACE/26msit001_A/jinhyeok/loop_TTT/lact/.cache_inductor_llm/ez/cezro4w5kyvprm47ifebfzryk3lcucjwahfzue4fun5jfagbcsb2.py":20:33)
#loc4 = loc("/NHNHOME/WORKSPACE/26msit001_A/jinhyeok/loop_TTT/lact/.cache_inductor_llm/ez/cezro4w5kyvprm47ifebfzryk3lcucjwahfzue4fun5jfagbcsb2.py":21:36)
#loc5 = loc("/NHNHOME/WORKSPACE/26msit001_A/jinhyeok/loop_TTT/lact/.cache_inductor_llm/ez/cezro4w5kyvprm47ifebfzryk3lcucjwahfzue4fun5jfagbcsb2.py":21:23)
#loc6 = loc("/NHNHOME/WORKSPACE/26msit001_A/jinhyeok/loop_TTT/lact/.cache_inductor_llm/ez/cezro4w5kyvprm47ifebfzryk3lcucjwahfzue4fun5jfagbcsb2.py":22:36)
#loc7 = loc("/NHNHOME/WORKSPACE/26msit001_A/jinhyeok/loop_TTT/lact/.cache_inductor_llm/ez/cezro4w5kyvprm47ifebfzryk3lcucjwahfzue4fun5jfagbcsb2.py":23:21)
#loc8 = loc("/NHNHOME/WORKSPACE/26msit001_A/jinhyeok/loop_TTT/lact/.cache_inductor_llm/ez/cezro4w5kyvprm47ifebfzryk3lcucjwahfzue4fun5jfagbcsb2.py":23:28)
#loc9 = loc("/NHNHOME/WORKSPACE/26msit001_A/jinhyeok/loop_TTT/lact/.cache_inductor_llm/ez/cezro4w5kyvprm47ifebfzryk3lcucjwahfzue4fun5jfagbcsb2.py":24:19)
#loc10 = loc("/NHNHOME/WORKSPACE/26msit001_A/jinhyeok/loop_TTT/lact/.cache_inductor_llm/ez/cezro4w5kyvprm47ifebfzryk3lcucjwahfzue4fun5jfagbcsb2.py":25:19)
#loc11 = loc("/NHNHOME/WORKSPACE/26msit001_A/jinhyeok/loop_TTT/lact/.cache_inductor_llm/ez/cezro4w5kyvprm47ifebfzryk3lcucjwahfzue4fun5jfagbcsb2.py":27:39)
#loc12 = loc("/NHNHOME/WORKSPACE/26msit001_A/jinhyeok/loop_TTT/lact/.cache_inductor_llm/ez/cezro4w5kyvprm47ifebfzryk3lcucjwahfzue4fun5jfagbcsb2.py":27:51)
#loc13 = loc("/NHNHOME/WORKSPACE/26msit001_A/jinhyeok/loop_TTT/lact/.cache_inductor_llm/ez/cezro4w5kyvprm47ifebfzryk3lcucjwahfzue4fun5jfagbcsb2.py":27:44)
#loc14 = loc("/NHNHOME/WORKSPACE/26msit001_A/jinhyeok/loop_TTT/lact/.cache_inductor_llm/ez/cezro4w5kyvprm47ifebfzryk3lcucjwahfzue4fun5jfagbcsb2.py":27:30)
#loc15 = loc("/NHNHOME/WORKSPACE/26msit001_A/jinhyeok/loop_TTT/lact/.cache_inductor_llm/ez/cezro4w5kyvprm47ifebfzryk3lcucjwahfzue4fun5jfagbcsb2.py":27:56)
#loc16 = loc("/NHNHOME/WORKSPACE/26msit001_A/jinhyeok/loop_TTT/lact/.cache_inductor_llm/ez/cezro4w5kyvprm47ifebfzryk3lcucjwahfzue4fun5jfagbcsb2.py":27:65)
#loc17 = loc("/NHNHOME/WORKSPACE/26msit001_A/jinhyeok/loop_TTT/lact/.cache_inductor_llm/ez/cezro4w5kyvprm47ifebfzryk3lcucjwahfzue4fun5jfagbcsb2.py":28:18)
#loc18 = loc("/NHNHOME/WORKSPACE/26msit001_A/jinhyeok/loop_TTT/lact/.cache_inductor_llm/ez/cezro4w5kyvprm47ifebfzryk3lcucjwahfzue4fun5jfagbcsb2.py":29:30)
#loc19 = loc("/NHNHOME/WORKSPACE/26msit001_A/jinhyeok/loop_TTT/lact/.cache_inductor_llm/ez/cezro4w5kyvprm47ifebfzryk3lcucjwahfzue4fun5jfagbcsb2.py":30:19)
#loc20 = loc("/NHNHOME/WORKSPACE/26msit001_A/jinhyeok/loop_TTT/lact/.cache_inductor_llm/ez/cezro4w5kyvprm47ifebfzryk3lcucjwahfzue4fun5jfagbcsb2.py":31:11)
#loc21 = loc("/NHNHOME/WORKSPACE/26msit001_A/jinhyeok/loop_TTT/lact/.cache_inductor_llm/ez/cezro4w5kyvprm47ifebfzryk3lcucjwahfzue4fun5jfagbcsb2.py":32:36)
#loc22 = loc("/NHNHOME/WORKSPACE/26msit001_A/jinhyeok/loop_TTT/lact/.cache_inductor_llm/ez/cezro4w5kyvprm47ifebfzryk3lcucjwahfzue4fun5jfagbcsb2.py":33:32)
#loc23 = loc("/NHNHOME/WORKSPACE/26msit001_A/jinhyeok/loop_TTT/lact/.cache_inductor_llm/ez/cezro4w5kyvprm47ifebfzryk3lcucjwahfzue4fun5jfagbcsb2.py":34:32)
#loc24 = loc("/NHNHOME/WORKSPACE/26msit001_A/jinhyeok/loop_TTT/lact/.cache_inductor_llm/ez/cezro4w5kyvprm47ifebfzryk3lcucjwahfzue4fun5jfagbcsb2.py":35:25)
#loc25 = loc("/NHNHOME/WORKSPACE/26msit001_A/jinhyeok/loop_TTT/lact/.cache_inductor_llm/ez/cezro4w5kyvprm47ifebfzryk3lcucjwahfzue4fun5jfagbcsb2.py":35:36)
#loc26 = loc("/NHNHOME/WORKSPACE/26msit001_A/jinhyeok/loop_TTT/lact/.cache_inductor_llm/ez/cezro4w5kyvprm47ifebfzryk3lcucjwahfzue4fun5jfagbcsb2.py":35:4)
#loc30 = loc("xnumel"(#loc1))
#loc31 = loc("xoffset"(#loc2))
#loc32 = loc("xoffset"(#loc3))
#loc33 = loc("xindex"(#loc4))
#loc34 = loc("xindex"(#loc5))
#loc35 = loc("xmask"(#loc6))
#loc36 = loc("x1"(#loc7))
#loc37 = loc("x1"(#loc8))
#loc38 = loc("x2"(#loc9))
#loc39 = loc("x3"(#loc10))
#loc40 = loc("tmp6"(#loc11))
#loc41 = loc("tmp6"(#loc12))
#loc42 = loc("tmp6"(#loc13))
#loc43 = loc("tmp6"(#loc14))
#loc44 = loc("tmp6"(#loc15))
#loc45 = loc("tmp6"(#loc16))
#loc46 = loc("tmp0"(#loc17))
#loc47 = loc("tmp1"(#loc18))
#loc48 = loc("tmp2"(#loc19))
#loc49 = loc("tmp3"(#loc20))
#loc50 = loc("tmp4"(#loc21))
#loc51 = loc("tmp5"(#loc22))
#loc52 = loc("tmp7"(#loc23))
