#loc = loc("/NHNHOME/WORKSPACE/26msit001_A/jinhyeok/loop_TTT/lact/.cache_inductor_llm/rq/crqrk7ub7ckctu7bncclwchgvsxn33dlk74r77k7n5xamew6hio5.py":18:0)
#loc41 = loc("in_ptr0"(#loc))
#loc42 = loc("in_ptr1"(#loc))
#loc43 = loc("in_ptr2"(#loc))
#loc44 = loc("in_ptr3"(#loc))
#loc45 = loc("in_ptr4"(#loc))
#loc46 = loc("out_ptr0"(#loc))
#loc47 = loc("out_ptr1"(#loc))
#loc48 = loc("out_ptr2"(#loc))
#loc49 = loc("xnumel"(#loc))
module {
  tt.func public @triton_poi_fused__to_copy_add_div_mul_transpose_27(%in_ptr0: !tt.ptr<bf16> {tt.divisibility = 16 : i32} loc("in_ptr0"(#loc)), %in_ptr1: !tt.ptr<f32> {tt.divisibility = 16 : i32} loc("in_ptr1"(#loc)), %in_ptr2: !tt.ptr<bf16> {tt.divisibility = 16 : i32} loc("in_ptr2"(#loc)), %in_ptr3: !tt.ptr<bf16> {tt.divisibility = 16 : i32} loc("in_ptr3"(#loc)), %in_ptr4: !tt.ptr<bf16> {tt.divisibility = 16 : i32} loc("in_ptr4"(#loc)), %out_ptr0: !tt.ptr<f32> {tt.divisibility = 16 : i32} loc("out_ptr0"(#loc)), %out_ptr1: !tt.ptr<bf16> {tt.divisibility = 16 : i32} loc("out_ptr1"(#loc)), %out_ptr2: !tt.ptr<bf16> {tt.divisibility = 16 : i32} loc("out_ptr2"(#loc)), %xnumel: i32 {tt.divisibility = 16 : i32} loc("xnumel"(#loc))) attributes {noinline = false} {
    %xnumel_0 = arith.constant 1179648 : i32 loc(#loc50)
    %xoffset = tt.get_program_id x : i32 loc(#loc51)
    %xoffset_1 = arith.constant 1024 : i32 loc(#loc52)
    %xoffset_2 = arith.constant 1024 : i32 loc(#loc52)
    %xoffset_3 = arith.muli %xoffset, %xoffset_2 : i32 loc(#loc52)
    %xindex = tt.make_range {end = 1024 : i32, start = 0 : i32} : tensor<1024xi32> loc(#loc53)
    %xindex_4 = tt.splat %xoffset_3 : i32 -> tensor<1024xi32> loc(#loc54)
    %xindex_5 = arith.addi %xindex_4, %xindex : tensor<1024xi32> loc(#loc54)
    %xmask = arith.constant true loc(#loc55)
    %xmask_6 = arith.constant dense<true> : tensor<1024xi1> loc(#loc55)
    %x1 = arith.constant 36864 : i32 loc(#loc56)
    %x1_7 = arith.constant 36864 : i32 loc(#loc56)
    %x1_8 = arith.constant dense<36864> : tensor<1024xi32> loc(#loc56)
    %x1_9 = arith.divsi %xindex_5, %x1_8 : tensor<1024xi32> loc(#loc56)
    %tmp0 = tt.splat %in_ptr0 : !tt.ptr<bf16> -> tensor<1024x!tt.ptr<bf16>> loc(#loc57)
    %tmp0_10 = tt.addptr %tmp0, %xindex_5 : tensor<1024x!tt.ptr<bf16>>, tensor<1024xi32> loc(#loc57)
    %tmp0_11 = tt.load %tmp0_10 : tensor<1024x!tt.ptr<bf16>> loc(#loc58)
    %tmp0_12 = arith.extf %tmp0_11 : tensor<1024xbf16> to tensor<1024xf32> loc(#loc59)
    %tmp2 = tt.splat %in_ptr1 : !tt.ptr<f32> -> tensor<1024x!tt.ptr<f32>> loc(#loc60)
    %tmp2_13 = tt.addptr %tmp2, %x1_9 : tensor<1024x!tt.ptr<f32>>, tensor<1024xi32> loc(#loc60)
    %tmp2_14 = tt.load %tmp2_13 evictionPolicy = evict_last : tensor<1024x!tt.ptr<f32>> loc(#loc61)
    %tmp8 = tt.splat %in_ptr2 : !tt.ptr<bf16> -> tensor<1024x!tt.ptr<bf16>> loc(#loc62)
    %tmp8_15 = tt.addptr %tmp8, %xindex_5 : tensor<1024x!tt.ptr<bf16>>, tensor<1024xi32> loc(#loc62)
    %tmp8_16 = tt.load %tmp8_15 : tensor<1024x!tt.ptr<bf16>> loc(#loc63)
    %tmp8_17 = arith.extf %tmp8_16 : tensor<1024xbf16> to tensor<1024xf32> loc(#loc64)
    %tmp13 = tt.splat %in_ptr3 : !tt.ptr<bf16> -> tensor<1024x!tt.ptr<bf16>> loc(#loc65)
    %tmp13_18 = tt.addptr %tmp13, %xindex_5 : tensor<1024x!tt.ptr<bf16>>, tensor<1024xi32> loc(#loc65)
    %tmp13_19 = tt.load %tmp13_18 : tensor<1024x!tt.ptr<bf16>> loc(#loc66)
    %tmp13_20 = arith.extf %tmp13_19 : tensor<1024xbf16> to tensor<1024xf32> loc(#loc67)
    %tmp18 = tt.splat %in_ptr4 : !tt.ptr<bf16> -> tensor<1024x!tt.ptr<bf16>> loc(#loc68)
    %tmp18_21 = tt.addptr %tmp18, %xindex_5 : tensor<1024x!tt.ptr<bf16>>, tensor<1024xi32> loc(#loc68)
    %tmp18_22 = tt.load %tmp18_21 : tensor<1024x!tt.ptr<bf16>> loc(#loc69)
    %tmp18_23 = arith.extf %tmp18_22 : tensor<1024xbf16> to tensor<1024xf32> loc(#loc70)
    %tmp3 = arith.constant 1.000000e-07 : f32 loc(#loc71)
    %tmp4 = arith.constant dense<1.000000e-07> : tensor<1024xf32> loc(#loc72)
    %tmp4_24 = arith.addf %tmp2_14, %tmp4 : tensor<1024xf32> loc(#loc72)
    %tmp5 = arith.divf %tmp0_12, %tmp4_24 : tensor<1024xf32> loc(#loc73)
    %tmp6 = arith.constant 4.084800e+00 : f32 loc(#loc74)
    %tmp7 = arith.constant dense<4.084800e+00> : tensor<1024xf32> loc(#loc75)
    %tmp7_25 = arith.mulf %tmp5, %tmp7 : tensor<1024xf32> loc(#loc75)
    %tmp10 = arith.addf %tmp7_25, %tmp8_17 : tensor<1024xf32> loc(#loc76)
    %tmp11 = arith.constant 3.950500e+00 : f32 loc(#loc77)
    %tmp12 = arith.constant dense<3.950500e+00> : tensor<1024xf32> loc(#loc78)
    %tmp12_26 = arith.mulf %tmp10, %tmp12 : tensor<1024xf32> loc(#loc78)
    %tmp15 = arith.addf %tmp12_26, %tmp13_20 : tensor<1024xf32> loc(#loc79)
    %tmp16 = arith.constant 3.741800e+00 : f32 loc(#loc80)
    %tmp17 = arith.constant dense<3.741800e+00> : tensor<1024xf32> loc(#loc81)
    %tmp17_27 = arith.mulf %tmp15, %tmp17 : tensor<1024xf32> loc(#loc81)
    %tmp20 = arith.addf %tmp17_27, %tmp18_23 : tensor<1024xf32> loc(#loc82)
    %0 = tt.splat %out_ptr0 : !tt.ptr<f32> -> tensor<1024x!tt.ptr<f32>> loc(#loc34)
    %1 = tt.addptr %0, %xindex_5 : tensor<1024x!tt.ptr<f32>>, tensor<1024xi32> loc(#loc34)
    tt.store %1, %tmp20 : tensor<1024x!tt.ptr<f32>> loc(#loc35)
    %2 = tt.splat %out_ptr1 : !tt.ptr<bf16> -> tensor<1024x!tt.ptr<bf16>> loc(#loc36)
    %3 = tt.addptr %2, %xindex_5 : tensor<1024x!tt.ptr<bf16>>, tensor<1024xi32> loc(#loc36)
    %4 = arith.truncf %tmp20 : tensor<1024xf32> to tensor<1024xbf16> loc(#loc37)
    tt.store %3, %4 : tensor<1024x!tt.ptr<bf16>> loc(#loc37)
    %5 = tt.splat %out_ptr2 : !tt.ptr<bf16> -> tensor<1024x!tt.ptr<bf16>> loc(#loc38)
    %6 = tt.addptr %5, %xindex_5 : tensor<1024x!tt.ptr<bf16>>, tensor<1024xi32> loc(#loc38)
    %7 = arith.truncf %tmp20 : tensor<1024xf32> to tensor<1024xbf16> loc(#loc39)
    tt.store %6, %7 : tensor<1024x!tt.ptr<bf16>> loc(#loc39)
    tt.return loc(#loc40)
  } loc(#loc)
} loc(#loc)
#loc1 = loc("/NHNHOME/WORKSPACE/26msit001_A/jinhyeok/loop_TTT/lact/.cache_inductor_llm/rq/crqrk7ub7ckctu7bncclwchgvsxn33dlk74r77k7n5xamew6hio5.py":19:13)
#loc2 = loc("/NHNHOME/WORKSPACE/26msit001_A/jinhyeok/loop_TTT/lact/.cache_inductor_llm/rq/crqrk7ub7ckctu7bncclwchgvsxn33dlk74r77k7n5xamew6hio5.py":20:28)
#loc3 = loc("/NHNHOME/WORKSPACE/26msit001_A/jinhyeok/loop_TTT/lact/.cache_inductor_llm/rq/crqrk7ub7ckctu7bncclwchgvsxn33dlk74r77k7n5xamew6hio5.py":20:33)
#loc4 = loc("/NHNHOME/WORKSPACE/26msit001_A/jinhyeok/loop_TTT/lact/.cache_inductor_llm/rq/crqrk7ub7ckctu7bncclwchgvsxn33dlk74r77k7n5xamew6hio5.py":21:36)
#loc5 = loc("/NHNHOME/WORKSPACE/26msit001_A/jinhyeok/loop_TTT/lact/.cache_inductor_llm/rq/crqrk7ub7ckctu7bncclwchgvsxn33dlk74r77k7n5xamew6hio5.py":21:23)
#loc6 = loc("/NHNHOME/WORKSPACE/26msit001_A/jinhyeok/loop_TTT/lact/.cache_inductor_llm/rq/crqrk7ub7ckctu7bncclwchgvsxn33dlk74r77k7n5xamew6hio5.py":22:36)
#loc7 = loc("/NHNHOME/WORKSPACE/26msit001_A/jinhyeok/loop_TTT/lact/.cache_inductor_llm/rq/crqrk7ub7ckctu7bncclwchgvsxn33dlk74r77k7n5xamew6hio5.py":24:19)
#loc8 = loc("/NHNHOME/WORKSPACE/26msit001_A/jinhyeok/loop_TTT/lact/.cache_inductor_llm/rq/crqrk7ub7ckctu7bncclwchgvsxn33dlk74r77k7n5xamew6hio5.py":25:30)
#loc9 = loc("/NHNHOME/WORKSPACE/26msit001_A/jinhyeok/loop_TTT/lact/.cache_inductor_llm/rq/crqrk7ub7ckctu7bncclwchgvsxn33dlk74r77k7n5xamew6hio5.py":25:35)
#loc10 = loc("/NHNHOME/WORKSPACE/26msit001_A/jinhyeok/loop_TTT/lact/.cache_inductor_llm/rq/crqrk7ub7ckctu7bncclwchgvsxn33dlk74r77k7n5xamew6hio5.py":25:44)
#loc11 = loc("/NHNHOME/WORKSPACE/26msit001_A/jinhyeok/loop_TTT/lact/.cache_inductor_llm/rq/crqrk7ub7ckctu7bncclwchgvsxn33dlk74r77k7n5xamew6hio5.py":26:30)
#loc12 = loc("/NHNHOME/WORKSPACE/26msit001_A/jinhyeok/loop_TTT/lact/.cache_inductor_llm/rq/crqrk7ub7ckctu7bncclwchgvsxn33dlk74r77k7n5xamew6hio5.py":26:35)
#loc13 = loc("/NHNHOME/WORKSPACE/26msit001_A/jinhyeok/loop_TTT/lact/.cache_inductor_llm/rq/crqrk7ub7ckctu7bncclwchgvsxn33dlk74r77k7n5xamew6hio5.py":27:30)
#loc14 = loc("/NHNHOME/WORKSPACE/26msit001_A/jinhyeok/loop_TTT/lact/.cache_inductor_llm/rq/crqrk7ub7ckctu7bncclwchgvsxn33dlk74r77k7n5xamew6hio5.py":27:35)
#loc15 = loc("/NHNHOME/WORKSPACE/26msit001_A/jinhyeok/loop_TTT/lact/.cache_inductor_llm/rq/crqrk7ub7ckctu7bncclwchgvsxn33dlk74r77k7n5xamew6hio5.py":27:44)
#loc16 = loc("/NHNHOME/WORKSPACE/26msit001_A/jinhyeok/loop_TTT/lact/.cache_inductor_llm/rq/crqrk7ub7ckctu7bncclwchgvsxn33dlk74r77k7n5xamew6hio5.py":28:31)
#loc17 = loc("/NHNHOME/WORKSPACE/26msit001_A/jinhyeok/loop_TTT/lact/.cache_inductor_llm/rq/crqrk7ub7ckctu7bncclwchgvsxn33dlk74r77k7n5xamew6hio5.py":28:36)
#loc18 = loc("/NHNHOME/WORKSPACE/26msit001_A/jinhyeok/loop_TTT/lact/.cache_inductor_llm/rq/crqrk7ub7ckctu7bncclwchgvsxn33dlk74r77k7n5xamew6hio5.py":28:45)
#loc19 = loc("/NHNHOME/WORKSPACE/26msit001_A/jinhyeok/loop_TTT/lact/.cache_inductor_llm/rq/crqrk7ub7ckctu7bncclwchgvsxn33dlk74r77k7n5xamew6hio5.py":29:31)
#loc20 = loc("/NHNHOME/WORKSPACE/26msit001_A/jinhyeok/loop_TTT/lact/.cache_inductor_llm/rq/crqrk7ub7ckctu7bncclwchgvsxn33dlk74r77k7n5xamew6hio5.py":29:36)
#loc21 = loc("/NHNHOME/WORKSPACE/26msit001_A/jinhyeok/loop_TTT/lact/.cache_inductor_llm/rq/crqrk7ub7ckctu7bncclwchgvsxn33dlk74r77k7n5xamew6hio5.py":29:45)
#loc22 = loc("/NHNHOME/WORKSPACE/26msit001_A/jinhyeok/loop_TTT/lact/.cache_inductor_llm/rq/crqrk7ub7ckctu7bncclwchgvsxn33dlk74r77k7n5xamew6hio5.py":31:11)
#loc23 = loc("/NHNHOME/WORKSPACE/26msit001_A/jinhyeok/loop_TTT/lact/.cache_inductor_llm/rq/crqrk7ub7ckctu7bncclwchgvsxn33dlk74r77k7n5xamew6hio5.py":32:18)
#loc24 = loc("/NHNHOME/WORKSPACE/26msit001_A/jinhyeok/loop_TTT/lact/.cache_inductor_llm/rq/crqrk7ub7ckctu7bncclwchgvsxn33dlk74r77k7n5xamew6hio5.py":33:19)
#loc25 = loc("/NHNHOME/WORKSPACE/26msit001_A/jinhyeok/loop_TTT/lact/.cache_inductor_llm/rq/crqrk7ub7ckctu7bncclwchgvsxn33dlk74r77k7n5xamew6hio5.py":34:11)
#loc26 = loc("/NHNHOME/WORKSPACE/26msit001_A/jinhyeok/loop_TTT/lact/.cache_inductor_llm/rq/crqrk7ub7ckctu7bncclwchgvsxn33dlk74r77k7n5xamew6hio5.py":35:18)
#loc27 = loc("/NHNHOME/WORKSPACE/26msit001_A/jinhyeok/loop_TTT/lact/.cache_inductor_llm/rq/crqrk7ub7ckctu7bncclwchgvsxn33dlk74r77k7n5xamew6hio5.py":37:19)
#loc28 = loc("/NHNHOME/WORKSPACE/26msit001_A/jinhyeok/loop_TTT/lact/.cache_inductor_llm/rq/crqrk7ub7ckctu7bncclwchgvsxn33dlk74r77k7n5xamew6hio5.py":38:12)
#loc29 = loc("/NHNHOME/WORKSPACE/26msit001_A/jinhyeok/loop_TTT/lact/.cache_inductor_llm/rq/crqrk7ub7ckctu7bncclwchgvsxn33dlk74r77k7n5xamew6hio5.py":39:20)
#loc30 = loc("/NHNHOME/WORKSPACE/26msit001_A/jinhyeok/loop_TTT/lact/.cache_inductor_llm/rq/crqrk7ub7ckctu7bncclwchgvsxn33dlk74r77k7n5xamew6hio5.py":41:20)
#loc31 = loc("/NHNHOME/WORKSPACE/26msit001_A/jinhyeok/loop_TTT/lact/.cache_inductor_llm/rq/crqrk7ub7ckctu7bncclwchgvsxn33dlk74r77k7n5xamew6hio5.py":42:12)
#loc32 = loc("/NHNHOME/WORKSPACE/26msit001_A/jinhyeok/loop_TTT/lact/.cache_inductor_llm/rq/crqrk7ub7ckctu7bncclwchgvsxn33dlk74r77k7n5xamew6hio5.py":43:20)
#loc33 = loc("/NHNHOME/WORKSPACE/26msit001_A/jinhyeok/loop_TTT/lact/.cache_inductor_llm/rq/crqrk7ub7ckctu7bncclwchgvsxn33dlk74r77k7n5xamew6hio5.py":45:20)
#loc34 = loc("/NHNHOME/WORKSPACE/26msit001_A/jinhyeok/loop_TTT/lact/.cache_inductor_llm/rq/crqrk7ub7ckctu7bncclwchgvsxn33dlk74r77k7n5xamew6hio5.py":47:25)
#loc35 = loc("/NHNHOME/WORKSPACE/26msit001_A/jinhyeok/loop_TTT/lact/.cache_inductor_llm/rq/crqrk7ub7ckctu7bncclwchgvsxn33dlk74r77k7n5xamew6hio5.py":47:37)
#loc36 = loc("/NHNHOME/WORKSPACE/26msit001_A/jinhyeok/loop_TTT/lact/.cache_inductor_llm/rq/crqrk7ub7ckctu7bncclwchgvsxn33dlk74r77k7n5xamew6hio5.py":48:25)
#loc37 = loc("/NHNHOME/WORKSPACE/26msit001_A/jinhyeok/loop_TTT/lact/.cache_inductor_llm/rq/crqrk7ub7ckctu7bncclwchgvsxn33dlk74r77k7n5xamew6hio5.py":48:37)
#loc38 = loc("/NHNHOME/WORKSPACE/26msit001_A/jinhyeok/loop_TTT/lact/.cache_inductor_llm/rq/crqrk7ub7ckctu7bncclwchgvsxn33dlk74r77k7n5xamew6hio5.py":49:25)
#loc39 = loc("/NHNHOME/WORKSPACE/26msit001_A/jinhyeok/loop_TTT/lact/.cache_inductor_llm/rq/crqrk7ub7ckctu7bncclwchgvsxn33dlk74r77k7n5xamew6hio5.py":49:37)
#loc40 = loc("/NHNHOME/WORKSPACE/26msit001_A/jinhyeok/loop_TTT/lact/.cache_inductor_llm/rq/crqrk7ub7ckctu7bncclwchgvsxn33dlk74r77k7n5xamew6hio5.py":49:4)
#loc50 = loc("xnumel"(#loc1))
#loc51 = loc("xoffset"(#loc2))
#loc52 = loc("xoffset"(#loc3))
#loc53 = loc("xindex"(#loc4))
#loc54 = loc("xindex"(#loc5))
#loc55 = loc("xmask"(#loc6))
#loc56 = loc("x1"(#loc7))
#loc57 = loc("tmp0"(#loc8))
#loc58 = loc("tmp0"(#loc9))
#loc59 = loc("tmp0"(#loc10))
#loc60 = loc("tmp2"(#loc11))
#loc61 = loc("tmp2"(#loc12))
#loc62 = loc("tmp8"(#loc13))
#loc63 = loc("tmp8"(#loc14))
#loc64 = loc("tmp8"(#loc15))
#loc65 = loc("tmp13"(#loc16))
#loc66 = loc("tmp13"(#loc17))
#loc67 = loc("tmp13"(#loc18))
#loc68 = loc("tmp18"(#loc19))
#loc69 = loc("tmp18"(#loc20))
#loc70 = loc("tmp18"(#loc21))
#loc71 = loc("tmp3"(#loc22))
#loc72 = loc("tmp4"(#loc23))
#loc73 = loc("tmp5"(#loc24))
#loc74 = loc("tmp6"(#loc25))
#loc75 = loc("tmp7"(#loc26))
#loc76 = loc("tmp10"(#loc27))
#loc77 = loc("tmp11"(#loc28))
#loc78 = loc("tmp12"(#loc29))
#loc79 = loc("tmp15"(#loc30))
#loc80 = loc("tmp16"(#loc31))
#loc81 = loc("tmp17"(#loc32))
#loc82 = loc("tmp20"(#loc33))
