#loc = loc("/NHNHOME/WORKSPACE/26msit001_A/jinhyeok/loop_TTT/lact/.cache_inductor_llm/gr/cgroqegp65bjs6cr5iync2pptuh3w6dvqhjhmkehpvg25pwd727l.py":18:0)
#loc36 = loc("in_out_ptr0"(#loc))
#loc37 = loc("in_ptr0"(#loc))
#loc38 = loc("in_ptr1"(#loc))
#loc39 = loc("in_ptr2"(#loc))
#loc40 = loc("in_ptr3"(#loc))
#loc41 = loc("in_ptr4"(#loc))
#loc42 = loc("xnumel"(#loc))
module {
  tt.func public @triton_poi_fused__to_copy_add_mean_mul_slice_zeros_like_57(%in_out_ptr0: !tt.ptr<bf16> {tt.divisibility = 16 : i32} loc("in_out_ptr0"(#loc)), %in_ptr0: !tt.ptr<bf16> {tt.divisibility = 16 : i32} loc("in_ptr0"(#loc)), %in_ptr1: !tt.ptr<bf16> {tt.divisibility = 16 : i32} loc("in_ptr1"(#loc)), %in_ptr2: !tt.ptr<f32> {tt.divisibility = 16 : i32} loc("in_ptr2"(#loc)), %in_ptr3: !tt.ptr<f32> {tt.divisibility = 16 : i32} loc("in_ptr3"(#loc)), %in_ptr4: !tt.ptr<f32> {tt.divisibility = 16 : i32} loc("in_ptr4"(#loc)), %xnumel: i32 {tt.divisibility = 16 : i32} loc("xnumel"(#loc))) attributes {noinline = false} {
    %xoffset = tt.get_program_id x : i32 loc(#loc43)
    %xoffset_0 = arith.constant 1024 : i32 loc(#loc44)
    %xoffset_1 = arith.constant 1024 : i32 loc(#loc44)
    %xoffset_2 = arith.muli %xoffset, %xoffset_1 : i32 loc(#loc44)
    %xindex = tt.make_range {end = 1024 : i32, start = 0 : i32} : tensor<1024xi32> loc(#loc45)
    %xindex_3 = tt.splat %xoffset_2 : i32 -> tensor<1024xi32> loc(#loc46)
    %xindex_4 = arith.addi %xindex_3, %xindex : tensor<1024xi32> loc(#loc46)
    %xmask = arith.constant true loc(#loc47)
    %xmask_5 = arith.constant dense<true> : tensor<1024xi1> loc(#loc47)
    %x1 = arith.constant 36864 : i32 loc(#loc48)
    %x1_6 = arith.constant 36864 : i32 loc(#loc48)
    %x1_7 = arith.constant dense<36864> : tensor<1024xi32> loc(#loc48)
    %x1_8 = arith.divsi %xindex_4, %x1_7 : tensor<1024xi32> loc(#loc48)
    %tmp0 = tt.splat %in_out_ptr0 : !tt.ptr<bf16> -> tensor<1024x!tt.ptr<bf16>> loc(#loc49)
    %tmp0_9 = tt.addptr %tmp0, %xindex_4 : tensor<1024x!tt.ptr<bf16>>, tensor<1024xi32> loc(#loc49)
    %tmp0_10 = tt.load %tmp0_9 : tensor<1024x!tt.ptr<bf16>> loc(#loc50)
    %tmp0_11 = arith.extf %tmp0_10 : tensor<1024xbf16> to tensor<1024xf32> loc(#loc51)
    %tmp2 = tt.splat %in_ptr0 : !tt.ptr<bf16> -> tensor<1024x!tt.ptr<bf16>> loc(#loc52)
    %tmp2_12 = tt.addptr %tmp2, %xindex_4 : tensor<1024x!tt.ptr<bf16>>, tensor<1024xi32> loc(#loc52)
    %tmp2_13 = tt.load %tmp2_12 : tensor<1024x!tt.ptr<bf16>> loc(#loc53)
    %tmp2_14 = arith.extf %tmp2_13 : tensor<1024xbf16> to tensor<1024xf32> loc(#loc54)
    %tmp4 = tt.splat %in_ptr1 : !tt.ptr<bf16> -> tensor<1024x!tt.ptr<bf16>> loc(#loc55)
    %tmp4_15 = tt.addptr %tmp4, %xindex_4 : tensor<1024x!tt.ptr<bf16>>, tensor<1024xi32> loc(#loc55)
    %tmp4_16 = tt.load %tmp4_15 : tensor<1024x!tt.ptr<bf16>> loc(#loc56)
    %tmp4_17 = arith.extf %tmp4_16 : tensor<1024xbf16> to tensor<1024xf32> loc(#loc57)
    %tmp6 = tt.splat %in_ptr2 : !tt.ptr<f32> -> tensor<1024x!tt.ptr<f32>> loc(#loc58)
    %tmp6_18 = tt.addptr %tmp6, %x1_8 : tensor<1024x!tt.ptr<f32>>, tensor<1024xi32> loc(#loc58)
    %tmp6_19 = tt.load %tmp6_18 evictionPolicy = evict_last : tensor<1024x!tt.ptr<f32>> loc(#loc59)
    %tmp12 = tt.splat %in_ptr3 : !tt.ptr<f32> -> tensor<1024x!tt.ptr<f32>> loc(#loc60)
    %tmp12_20 = tt.addptr %tmp12, %x1_8 : tensor<1024x!tt.ptr<f32>>, tensor<1024xi32> loc(#loc60)
    %tmp12_21 = tt.load %tmp12_20 evictionPolicy = evict_last : tensor<1024x!tt.ptr<f32>> loc(#loc61)
    %tmp16 = tt.splat %in_ptr4 : !tt.ptr<f32> -> tensor<1024x!tt.ptr<f32>> loc(#loc62)
    %tmp16_22 = tt.addptr %tmp16, %x1_8 : tensor<1024x!tt.ptr<f32>>, tensor<1024xi32> loc(#loc62)
    %tmp16_23 = tt.load %tmp16_22 evictionPolicy = evict_last : tensor<1024x!tt.ptr<f32>> loc(#loc63)
    %tmp7 = arith.constant 1.024000e+03 : f32 loc(#loc64)
    %tmp8 = arith.constant dense<1.024000e+03> : tensor<1024xf32> loc(#loc65)
    %tmp8_24 = arith.divf %tmp6_19, %tmp8 : tensor<1024xf32> loc(#loc65)
    %tmp9 = arith.constant 0.000000e+00 : f32 loc(#loc66)
    %tmp10 = arith.constant dense<0.000000e+00> : tensor<1024xf32> loc(#loc67)
    %tmp10_25 = arith.mulf %tmp10, %tmp8_24 : tensor<1024xf32> loc(#loc67)
    %tmp11 = arith.addf %tmp4_17, %tmp10_25 : tensor<1024xf32> loc(#loc68)
    %tmp13 = arith.constant dense<1.024000e+03> : tensor<1024xf32> loc(#loc69)
    %tmp13_26 = arith.divf %tmp12_21, %tmp13 : tensor<1024xf32> loc(#loc69)
    %tmp14 = arith.mulf %tmp11, %tmp13_26 : tensor<1024xf32> loc(#loc70)
    %tmp15 = arith.addf %tmp2_14, %tmp14 : tensor<1024xf32> loc(#loc71)
    %tmp17 = arith.constant dense<1.024000e+03> : tensor<1024xf32> loc(#loc72)
    %tmp17_27 = arith.divf %tmp16_23, %tmp17 : tensor<1024xf32> loc(#loc72)
    %tmp18 = arith.mulf %tmp15, %tmp17_27 : tensor<1024xf32> loc(#loc73)
    %tmp19 = arith.addf %tmp0_11, %tmp18 : tensor<1024xf32> loc(#loc74)
    %0 = tt.splat %in_out_ptr0 : !tt.ptr<bf16> -> tensor<1024x!tt.ptr<bf16>> loc(#loc33)
    %1 = tt.addptr %0, %xindex_4 : tensor<1024x!tt.ptr<bf16>>, tensor<1024xi32> loc(#loc33)
    %2 = arith.truncf %tmp19 : tensor<1024xf32> to tensor<1024xbf16> loc(#loc34)
    tt.store %1, %2 : tensor<1024x!tt.ptr<bf16>> loc(#loc34)
    tt.return loc(#loc35)
  } loc(#loc)
} loc(#loc)
#loc1 = loc("/NHNHOME/WORKSPACE/26msit001_A/jinhyeok/loop_TTT/lact/.cache_inductor_llm/gr/cgroqegp65bjs6cr5iync2pptuh3w6dvqhjhmkehpvg25pwd727l.py":19:28)
#loc2 = loc("/NHNHOME/WORKSPACE/26msit001_A/jinhyeok/loop_TTT/lact/.cache_inductor_llm/gr/cgroqegp65bjs6cr5iync2pptuh3w6dvqhjhmkehpvg25pwd727l.py":19:33)
#loc3 = loc("/NHNHOME/WORKSPACE/26msit001_A/jinhyeok/loop_TTT/lact/.cache_inductor_llm/gr/cgroqegp65bjs6cr5iync2pptuh3w6dvqhjhmkehpvg25pwd727l.py":20:36)
#loc4 = loc("/NHNHOME/WORKSPACE/26msit001_A/jinhyeok/loop_TTT/lact/.cache_inductor_llm/gr/cgroqegp65bjs6cr5iync2pptuh3w6dvqhjhmkehpvg25pwd727l.py":20:23)
#loc5 = loc("/NHNHOME/WORKSPACE/26msit001_A/jinhyeok/loop_TTT/lact/.cache_inductor_llm/gr/cgroqegp65bjs6cr5iync2pptuh3w6dvqhjhmkehpvg25pwd727l.py":21:36)
#loc6 = loc("/NHNHOME/WORKSPACE/26msit001_A/jinhyeok/loop_TTT/lact/.cache_inductor_llm/gr/cgroqegp65bjs6cr5iync2pptuh3w6dvqhjhmkehpvg25pwd727l.py":23:19)
#loc7 = loc("/NHNHOME/WORKSPACE/26msit001_A/jinhyeok/loop_TTT/lact/.cache_inductor_llm/gr/cgroqegp65bjs6cr5iync2pptuh3w6dvqhjhmkehpvg25pwd727l.py":24:34)
#loc8 = loc("/NHNHOME/WORKSPACE/26msit001_A/jinhyeok/loop_TTT/lact/.cache_inductor_llm/gr/cgroqegp65bjs6cr5iync2pptuh3w6dvqhjhmkehpvg25pwd727l.py":24:39)
#loc9 = loc("/NHNHOME/WORKSPACE/26msit001_A/jinhyeok/loop_TTT/lact/.cache_inductor_llm/gr/cgroqegp65bjs6cr5iync2pptuh3w6dvqhjhmkehpvg25pwd727l.py":24:48)
#loc10 = loc("/NHNHOME/WORKSPACE/26msit001_A/jinhyeok/loop_TTT/lact/.cache_inductor_llm/gr/cgroqegp65bjs6cr5iync2pptuh3w6dvqhjhmkehpvg25pwd727l.py":25:30)
#loc11 = loc("/NHNHOME/WORKSPACE/26msit001_A/jinhyeok/loop_TTT/lact/.cache_inductor_llm/gr/cgroqegp65bjs6cr5iync2pptuh3w6dvqhjhmkehpvg25pwd727l.py":25:35)
#loc12 = loc("/NHNHOME/WORKSPACE/26msit001_A/jinhyeok/loop_TTT/lact/.cache_inductor_llm/gr/cgroqegp65bjs6cr5iync2pptuh3w6dvqhjhmkehpvg25pwd727l.py":25:44)
#loc13 = loc("/NHNHOME/WORKSPACE/26msit001_A/jinhyeok/loop_TTT/lact/.cache_inductor_llm/gr/cgroqegp65bjs6cr5iync2pptuh3w6dvqhjhmkehpvg25pwd727l.py":26:30)
#loc14 = loc("/NHNHOME/WORKSPACE/26msit001_A/jinhyeok/loop_TTT/lact/.cache_inductor_llm/gr/cgroqegp65bjs6cr5iync2pptuh3w6dvqhjhmkehpvg25pwd727l.py":26:35)
#loc15 = loc("/NHNHOME/WORKSPACE/26msit001_A/jinhyeok/loop_TTT/lact/.cache_inductor_llm/gr/cgroqegp65bjs6cr5iync2pptuh3w6dvqhjhmkehpvg25pwd727l.py":26:44)
#loc16 = loc("/NHNHOME/WORKSPACE/26msit001_A/jinhyeok/loop_TTT/lact/.cache_inductor_llm/gr/cgroqegp65bjs6cr5iync2pptuh3w6dvqhjhmkehpvg25pwd727l.py":27:30)
#loc17 = loc("/NHNHOME/WORKSPACE/26msit001_A/jinhyeok/loop_TTT/lact/.cache_inductor_llm/gr/cgroqegp65bjs6cr5iync2pptuh3w6dvqhjhmkehpvg25pwd727l.py":27:35)
#loc18 = loc("/NHNHOME/WORKSPACE/26msit001_A/jinhyeok/loop_TTT/lact/.cache_inductor_llm/gr/cgroqegp65bjs6cr5iync2pptuh3w6dvqhjhmkehpvg25pwd727l.py":28:31)
#loc19 = loc("/NHNHOME/WORKSPACE/26msit001_A/jinhyeok/loop_TTT/lact/.cache_inductor_llm/gr/cgroqegp65bjs6cr5iync2pptuh3w6dvqhjhmkehpvg25pwd727l.py":28:36)
#loc20 = loc("/NHNHOME/WORKSPACE/26msit001_A/jinhyeok/loop_TTT/lact/.cache_inductor_llm/gr/cgroqegp65bjs6cr5iync2pptuh3w6dvqhjhmkehpvg25pwd727l.py":29:31)
#loc21 = loc("/NHNHOME/WORKSPACE/26msit001_A/jinhyeok/loop_TTT/lact/.cache_inductor_llm/gr/cgroqegp65bjs6cr5iync2pptuh3w6dvqhjhmkehpvg25pwd727l.py":29:36)
#loc22 = loc("/NHNHOME/WORKSPACE/26msit001_A/jinhyeok/loop_TTT/lact/.cache_inductor_llm/gr/cgroqegp65bjs6cr5iync2pptuh3w6dvqhjhmkehpvg25pwd727l.py":33:11)
#loc23 = loc("/NHNHOME/WORKSPACE/26msit001_A/jinhyeok/loop_TTT/lact/.cache_inductor_llm/gr/cgroqegp65bjs6cr5iync2pptuh3w6dvqhjhmkehpvg25pwd727l.py":34:19)
#loc24 = loc("/NHNHOME/WORKSPACE/26msit001_A/jinhyeok/loop_TTT/lact/.cache_inductor_llm/gr/cgroqegp65bjs6cr5iync2pptuh3w6dvqhjhmkehpvg25pwd727l.py":35:11)
#loc25 = loc("/NHNHOME/WORKSPACE/26msit001_A/jinhyeok/loop_TTT/lact/.cache_inductor_llm/gr/cgroqegp65bjs6cr5iync2pptuh3w6dvqhjhmkehpvg25pwd727l.py":36:19)
#loc26 = loc("/NHNHOME/WORKSPACE/26msit001_A/jinhyeok/loop_TTT/lact/.cache_inductor_llm/gr/cgroqegp65bjs6cr5iync2pptuh3w6dvqhjhmkehpvg25pwd727l.py":37:19)
#loc27 = loc("/NHNHOME/WORKSPACE/26msit001_A/jinhyeok/loop_TTT/lact/.cache_inductor_llm/gr/cgroqegp65bjs6cr5iync2pptuh3w6dvqhjhmkehpvg25pwd727l.py":38:21)
#loc28 = loc("/NHNHOME/WORKSPACE/26msit001_A/jinhyeok/loop_TTT/lact/.cache_inductor_llm/gr/cgroqegp65bjs6cr5iync2pptuh3w6dvqhjhmkehpvg25pwd727l.py":39:20)
#loc29 = loc("/NHNHOME/WORKSPACE/26msit001_A/jinhyeok/loop_TTT/lact/.cache_inductor_llm/gr/cgroqegp65bjs6cr5iync2pptuh3w6dvqhjhmkehpvg25pwd727l.py":40:19)
#loc30 = loc("/NHNHOME/WORKSPACE/26msit001_A/jinhyeok/loop_TTT/lact/.cache_inductor_llm/gr/cgroqegp65bjs6cr5iync2pptuh3w6dvqhjhmkehpvg25pwd727l.py":41:21)
#loc31 = loc("/NHNHOME/WORKSPACE/26msit001_A/jinhyeok/loop_TTT/lact/.cache_inductor_llm/gr/cgroqegp65bjs6cr5iync2pptuh3w6dvqhjhmkehpvg25pwd727l.py":42:20)
#loc32 = loc("/NHNHOME/WORKSPACE/26msit001_A/jinhyeok/loop_TTT/lact/.cache_inductor_llm/gr/cgroqegp65bjs6cr5iync2pptuh3w6dvqhjhmkehpvg25pwd727l.py":43:19)
#loc33 = loc("/NHNHOME/WORKSPACE/26msit001_A/jinhyeok/loop_TTT/lact/.cache_inductor_llm/gr/cgroqegp65bjs6cr5iync2pptuh3w6dvqhjhmkehpvg25pwd727l.py":45:28)
#loc34 = loc("/NHNHOME/WORKSPACE/26msit001_A/jinhyeok/loop_TTT/lact/.cache_inductor_llm/gr/cgroqegp65bjs6cr5iync2pptuh3w6dvqhjhmkehpvg25pwd727l.py":45:40)
#loc35 = loc("/NHNHOME/WORKSPACE/26msit001_A/jinhyeok/loop_TTT/lact/.cache_inductor_llm/gr/cgroqegp65bjs6cr5iync2pptuh3w6dvqhjhmkehpvg25pwd727l.py":45:4)
#loc43 = loc("xoffset"(#loc1))
#loc44 = loc("xoffset"(#loc2))
#loc45 = loc("xindex"(#loc3))
#loc46 = loc("xindex"(#loc4))
#loc47 = loc("xmask"(#loc5))
#loc48 = loc("x1"(#loc6))
#loc49 = loc("tmp0"(#loc7))
#loc50 = loc("tmp0"(#loc8))
#loc51 = loc("tmp0"(#loc9))
#loc52 = loc("tmp2"(#loc10))
#loc53 = loc("tmp2"(#loc11))
#loc54 = loc("tmp2"(#loc12))
#loc55 = loc("tmp4"(#loc13))
#loc56 = loc("tmp4"(#loc14))
#loc57 = loc("tmp4"(#loc15))
#loc58 = loc("tmp6"(#loc16))
#loc59 = loc("tmp6"(#loc17))
#loc60 = loc("tmp12"(#loc18))
#loc61 = loc("tmp12"(#loc19))
#loc62 = loc("tmp16"(#loc20))
#loc63 = loc("tmp16"(#loc21))
#loc64 = loc("tmp7"(#loc22))
#loc65 = loc("tmp8"(#loc23))
#loc66 = loc("tmp9"(#loc24))
#loc67 = loc("tmp10"(#loc25))
#loc68 = loc("tmp11"(#loc26))
#loc69 = loc("tmp13"(#loc27))
#loc70 = loc("tmp14"(#loc28))
#loc71 = loc("tmp15"(#loc29))
#loc72 = loc("tmp17"(#loc30))
#loc73 = loc("tmp18"(#loc31))
#loc74 = loc("tmp19"(#loc32))
