#loc = loc("/NHNHOME/WORKSPACE/26msit001_A/jinhyeok/loop_TTT/lact/.cache_inductor_llm/gr/cgroqegp65bjs6cr5iync2pptuh3w6dvqhjhmkehpvg25pwd727l.py":18:0)
#loc33 = loc("in_out_ptr0"(#loc))
#loc34 = loc("in_ptr0"(#loc))
#loc35 = loc("in_ptr1"(#loc))
#loc36 = loc("in_ptr2"(#loc))
#loc37 = loc("in_ptr3"(#loc))
#loc38 = loc("in_ptr4"(#loc))
#loc39 = loc("xnumel"(#loc))
module {
  tt.func public @triton_poi_fused__to_copy_add_mean_mul_slice_zeros_like_57(%in_out_ptr0: !tt.ptr<bf16> {tt.divisibility = 16 : i32} loc("in_out_ptr0"(#loc)), %in_ptr0: !tt.ptr<bf16> {tt.divisibility = 16 : i32} loc("in_ptr0"(#loc)), %in_ptr1: !tt.ptr<bf16> {tt.divisibility = 16 : i32} loc("in_ptr1"(#loc)), %in_ptr2: !tt.ptr<f32> {tt.divisibility = 16 : i32} loc("in_ptr2"(#loc)), %in_ptr3: !tt.ptr<f32> {tt.divisibility = 16 : i32} loc("in_ptr3"(#loc)), %in_ptr4: !tt.ptr<f32> {tt.divisibility = 16 : i32} loc("in_ptr4"(#loc)), %xnumel: i32 {tt.divisibility = 16 : i32} loc("xnumel"(#loc))) attributes {noinline = false} {
    %tmp10 = arith.constant dense<0.000000e+00> : tensor<1024xf32> loc(#loc40)
    %cst = arith.constant dense<1.024000e+03> : tensor<1024xf32> loc(#loc2)
    %x1 = arith.constant dense<36864> : tensor<1024xi32> loc(#loc41)
    %c1024_i32 = arith.constant 1024 : i32 loc(#loc2)
    %xoffset = tt.get_program_id x : i32 loc(#loc42)
    %xoffset_0 = arith.muli %xoffset, %c1024_i32 : i32 loc(#loc43)
    %xindex = tt.make_range {end = 1024 : i32, start = 0 : i32} : tensor<1024xi32> loc(#loc44)
    %xindex_1 = tt.splat %xoffset_0 : i32 -> tensor<1024xi32> loc(#loc45)
    %xindex_2 = arith.addi %xindex_1, %xindex : tensor<1024xi32> loc(#loc45)
    %x1_3 = arith.divsi %xindex_2, %x1 : tensor<1024xi32> loc(#loc41)
    %tmp0 = tt.splat %in_out_ptr0 : !tt.ptr<bf16> -> tensor<1024x!tt.ptr<bf16>> loc(#loc46)
    %tmp0_4 = tt.addptr %tmp0, %xindex_2 : tensor<1024x!tt.ptr<bf16>>, tensor<1024xi32> loc(#loc46)
    %tmp0_5 = tt.load %tmp0_4 : tensor<1024x!tt.ptr<bf16>> loc(#loc47)
    %tmp0_6 = arith.extf %tmp0_5 : tensor<1024xbf16> to tensor<1024xf32> loc(#loc48)
    %tmp2 = tt.splat %in_ptr0 : !tt.ptr<bf16> -> tensor<1024x!tt.ptr<bf16>> loc(#loc49)
    %tmp2_7 = tt.addptr %tmp2, %xindex_2 : tensor<1024x!tt.ptr<bf16>>, tensor<1024xi32> loc(#loc49)
    %tmp2_8 = tt.load %tmp2_7 : tensor<1024x!tt.ptr<bf16>> loc(#loc50)
    %tmp2_9 = arith.extf %tmp2_8 : tensor<1024xbf16> to tensor<1024xf32> loc(#loc51)
    %tmp4 = tt.splat %in_ptr1 : !tt.ptr<bf16> -> tensor<1024x!tt.ptr<bf16>> loc(#loc52)
    %tmp4_10 = tt.addptr %tmp4, %xindex_2 : tensor<1024x!tt.ptr<bf16>>, tensor<1024xi32> loc(#loc52)
    %tmp4_11 = tt.load %tmp4_10 : tensor<1024x!tt.ptr<bf16>> loc(#loc53)
    %tmp4_12 = arith.extf %tmp4_11 : tensor<1024xbf16> to tensor<1024xf32> loc(#loc54)
    %tmp6 = tt.splat %in_ptr2 : !tt.ptr<f32> -> tensor<1024x!tt.ptr<f32>> loc(#loc55)
    %tmp6_13 = tt.addptr %tmp6, %x1_3 : tensor<1024x!tt.ptr<f32>>, tensor<1024xi32> loc(#loc55)
    %tmp6_14 = tt.load %tmp6_13 evictionPolicy = evict_last : tensor<1024x!tt.ptr<f32>> loc(#loc56)
    %tmp12 = tt.splat %in_ptr3 : !tt.ptr<f32> -> tensor<1024x!tt.ptr<f32>> loc(#loc57)
    %tmp12_15 = tt.addptr %tmp12, %x1_3 : tensor<1024x!tt.ptr<f32>>, tensor<1024xi32> loc(#loc57)
    %tmp12_16 = tt.load %tmp12_15 evictionPolicy = evict_last : tensor<1024x!tt.ptr<f32>> loc(#loc58)
    %tmp16 = tt.splat %in_ptr4 : !tt.ptr<f32> -> tensor<1024x!tt.ptr<f32>> loc(#loc59)
    %tmp16_17 = tt.addptr %tmp16, %x1_3 : tensor<1024x!tt.ptr<f32>>, tensor<1024xi32> loc(#loc59)
    %tmp16_18 = tt.load %tmp16_17 evictionPolicy = evict_last : tensor<1024x!tt.ptr<f32>> loc(#loc60)
    %tmp8 = arith.divf %tmp6_14, %cst : tensor<1024xf32> loc(#loc61)
    %tmp10_19 = arith.mulf %tmp8, %tmp10 : tensor<1024xf32> loc(#loc40)
    %tmp11 = arith.addf %tmp4_12, %tmp10_19 : tensor<1024xf32> loc(#loc62)
    %tmp13 = arith.divf %tmp12_16, %cst : tensor<1024xf32> loc(#loc63)
    %tmp14 = arith.mulf %tmp11, %tmp13 : tensor<1024xf32> loc(#loc64)
    %tmp15 = arith.addf %tmp2_9, %tmp14 : tensor<1024xf32> loc(#loc65)
    %tmp17 = arith.divf %tmp16_18, %cst : tensor<1024xf32> loc(#loc66)
    %tmp18 = arith.mulf %tmp15, %tmp17 : tensor<1024xf32> loc(#loc67)
    %tmp19 = arith.addf %tmp0_6, %tmp18 : tensor<1024xf32> loc(#loc68)
    %0 = arith.truncf %tmp19 : tensor<1024xf32> to tensor<1024xbf16> loc(#loc31)
    tt.store %tmp0_4, %0 : tensor<1024x!tt.ptr<bf16>> loc(#loc31)
    tt.return loc(#loc32)
  } loc(#loc)
} loc(#loc)
#loc1 = loc("/NHNHOME/WORKSPACE/26msit001_A/jinhyeok/loop_TTT/lact/.cache_inductor_llm/gr/cgroqegp65bjs6cr5iync2pptuh3w6dvqhjhmkehpvg25pwd727l.py":36:19)
#loc2 = loc(unknown)
#loc3 = loc("/NHNHOME/WORKSPACE/26msit001_A/jinhyeok/loop_TTT/lact/.cache_inductor_llm/gr/cgroqegp65bjs6cr5iync2pptuh3w6dvqhjhmkehpvg25pwd727l.py":23:19)
#loc4 = loc("/NHNHOME/WORKSPACE/26msit001_A/jinhyeok/loop_TTT/lact/.cache_inductor_llm/gr/cgroqegp65bjs6cr5iync2pptuh3w6dvqhjhmkehpvg25pwd727l.py":19:28)
#loc5 = loc("/NHNHOME/WORKSPACE/26msit001_A/jinhyeok/loop_TTT/lact/.cache_inductor_llm/gr/cgroqegp65bjs6cr5iync2pptuh3w6dvqhjhmkehpvg25pwd727l.py":19:33)
#loc6 = loc("/NHNHOME/WORKSPACE/26msit001_A/jinhyeok/loop_TTT/lact/.cache_inductor_llm/gr/cgroqegp65bjs6cr5iync2pptuh3w6dvqhjhmkehpvg25pwd727l.py":20:36)
#loc7 = loc("/NHNHOME/WORKSPACE/26msit001_A/jinhyeok/loop_TTT/lact/.cache_inductor_llm/gr/cgroqegp65bjs6cr5iync2pptuh3w6dvqhjhmkehpvg25pwd727l.py":20:23)
#loc8 = loc("/NHNHOME/WORKSPACE/26msit001_A/jinhyeok/loop_TTT/lact/.cache_inductor_llm/gr/cgroqegp65bjs6cr5iync2pptuh3w6dvqhjhmkehpvg25pwd727l.py":24:34)
#loc9 = loc("/NHNHOME/WORKSPACE/26msit001_A/jinhyeok/loop_TTT/lact/.cache_inductor_llm/gr/cgroqegp65bjs6cr5iync2pptuh3w6dvqhjhmkehpvg25pwd727l.py":24:39)
#loc10 = loc("/NHNHOME/WORKSPACE/26msit001_A/jinhyeok/loop_TTT/lact/.cache_inductor_llm/gr/cgroqegp65bjs6cr5iync2pptuh3w6dvqhjhmkehpvg25pwd727l.py":24:48)
#loc11 = loc("/NHNHOME/WORKSPACE/26msit001_A/jinhyeok/loop_TTT/lact/.cache_inductor_llm/gr/cgroqegp65bjs6cr5iync2pptuh3w6dvqhjhmkehpvg25pwd727l.py":25:30)
#loc12 = loc("/NHNHOME/WORKSPACE/26msit001_A/jinhyeok/loop_TTT/lact/.cache_inductor_llm/gr/cgroqegp65bjs6cr5iync2pptuh3w6dvqhjhmkehpvg25pwd727l.py":25:35)
#loc13 = loc("/NHNHOME/WORKSPACE/26msit001_A/jinhyeok/loop_TTT/lact/.cache_inductor_llm/gr/cgroqegp65bjs6cr5iync2pptuh3w6dvqhjhmkehpvg25pwd727l.py":25:44)
#loc14 = loc("/NHNHOME/WORKSPACE/26msit001_A/jinhyeok/loop_TTT/lact/.cache_inductor_llm/gr/cgroqegp65bjs6cr5iync2pptuh3w6dvqhjhmkehpvg25pwd727l.py":26:30)
#loc15 = loc("/NHNHOME/WORKSPACE/26msit001_A/jinhyeok/loop_TTT/lact/.cache_inductor_llm/gr/cgroqegp65bjs6cr5iync2pptuh3w6dvqhjhmkehpvg25pwd727l.py":26:35)
#loc16 = loc("/NHNHOME/WORKSPACE/26msit001_A/jinhyeok/loop_TTT/lact/.cache_inductor_llm/gr/cgroqegp65bjs6cr5iync2pptuh3w6dvqhjhmkehpvg25pwd727l.py":26:44)
#loc17 = loc("/NHNHOME/WORKSPACE/26msit001_A/jinhyeok/loop_TTT/lact/.cache_inductor_llm/gr/cgroqegp65bjs6cr5iync2pptuh3w6dvqhjhmkehpvg25pwd727l.py":27:30)
#loc18 = loc("/NHNHOME/WORKSPACE/26msit001_A/jinhyeok/loop_TTT/lact/.cache_inductor_llm/gr/cgroqegp65bjs6cr5iync2pptuh3w6dvqhjhmkehpvg25pwd727l.py":27:35)
#loc19 = loc("/NHNHOME/WORKSPACE/26msit001_A/jinhyeok/loop_TTT/lact/.cache_inductor_llm/gr/cgroqegp65bjs6cr5iync2pptuh3w6dvqhjhmkehpvg25pwd727l.py":28:31)
#loc20 = loc("/NHNHOME/WORKSPACE/26msit001_A/jinhyeok/loop_TTT/lact/.cache_inductor_llm/gr/cgroqegp65bjs6cr5iync2pptuh3w6dvqhjhmkehpvg25pwd727l.py":28:36)
#loc21 = loc("/NHNHOME/WORKSPACE/26msit001_A/jinhyeok/loop_TTT/lact/.cache_inductor_llm/gr/cgroqegp65bjs6cr5iync2pptuh3w6dvqhjhmkehpvg25pwd727l.py":29:31)
#loc22 = loc("/NHNHOME/WORKSPACE/26msit001_A/jinhyeok/loop_TTT/lact/.cache_inductor_llm/gr/cgroqegp65bjs6cr5iync2pptuh3w6dvqhjhmkehpvg25pwd727l.py":29:36)
#loc23 = loc("/NHNHOME/WORKSPACE/26msit001_A/jinhyeok/loop_TTT/lact/.cache_inductor_llm/gr/cgroqegp65bjs6cr5iync2pptuh3w6dvqhjhmkehpvg25pwd727l.py":34:19)
#loc24 = loc("/NHNHOME/WORKSPACE/26msit001_A/jinhyeok/loop_TTT/lact/.cache_inductor_llm/gr/cgroqegp65bjs6cr5iync2pptuh3w6dvqhjhmkehpvg25pwd727l.py":37:19)
#loc25 = loc("/NHNHOME/WORKSPACE/26msit001_A/jinhyeok/loop_TTT/lact/.cache_inductor_llm/gr/cgroqegp65bjs6cr5iync2pptuh3w6dvqhjhmkehpvg25pwd727l.py":38:21)
#loc26 = loc("/NHNHOME/WORKSPACE/26msit001_A/jinhyeok/loop_TTT/lact/.cache_inductor_llm/gr/cgroqegp65bjs6cr5iync2pptuh3w6dvqhjhmkehpvg25pwd727l.py":39:20)
#loc27 = loc("/NHNHOME/WORKSPACE/26msit001_A/jinhyeok/loop_TTT/lact/.cache_inductor_llm/gr/cgroqegp65bjs6cr5iync2pptuh3w6dvqhjhmkehpvg25pwd727l.py":40:19)
#loc28 = loc("/NHNHOME/WORKSPACE/26msit001_A/jinhyeok/loop_TTT/lact/.cache_inductor_llm/gr/cgroqegp65bjs6cr5iync2pptuh3w6dvqhjhmkehpvg25pwd727l.py":41:21)
#loc29 = loc("/NHNHOME/WORKSPACE/26msit001_A/jinhyeok/loop_TTT/lact/.cache_inductor_llm/gr/cgroqegp65bjs6cr5iync2pptuh3w6dvqhjhmkehpvg25pwd727l.py":42:20)
#loc30 = loc("/NHNHOME/WORKSPACE/26msit001_A/jinhyeok/loop_TTT/lact/.cache_inductor_llm/gr/cgroqegp65bjs6cr5iync2pptuh3w6dvqhjhmkehpvg25pwd727l.py":43:19)
#loc31 = loc("/NHNHOME/WORKSPACE/26msit001_A/jinhyeok/loop_TTT/lact/.cache_inductor_llm/gr/cgroqegp65bjs6cr5iync2pptuh3w6dvqhjhmkehpvg25pwd727l.py":45:40)
#loc32 = loc("/NHNHOME/WORKSPACE/26msit001_A/jinhyeok/loop_TTT/lact/.cache_inductor_llm/gr/cgroqegp65bjs6cr5iync2pptuh3w6dvqhjhmkehpvg25pwd727l.py":45:4)
#loc40 = loc("tmp10"(#loc1))
#loc41 = loc("x1"(#loc3))
#loc42 = loc("xoffset"(#loc4))
#loc43 = loc("xoffset"(#loc5))
#loc44 = loc("xindex"(#loc6))
#loc45 = loc("xindex"(#loc7))
#loc46 = loc("tmp0"(#loc8))
#loc47 = loc("tmp0"(#loc9))
#loc48 = loc("tmp0"(#loc10))
#loc49 = loc("tmp2"(#loc11))
#loc50 = loc("tmp2"(#loc12))
#loc51 = loc("tmp2"(#loc13))
#loc52 = loc("tmp4"(#loc14))
#loc53 = loc("tmp4"(#loc15))
#loc54 = loc("tmp4"(#loc16))
#loc55 = loc("tmp6"(#loc17))
#loc56 = loc("tmp6"(#loc18))
#loc57 = loc("tmp12"(#loc19))
#loc58 = loc("tmp12"(#loc20))
#loc59 = loc("tmp16"(#loc21))
#loc60 = loc("tmp16"(#loc22))
#loc61 = loc("tmp8"(#loc23))
#loc62 = loc("tmp11"(#loc24))
#loc63 = loc("tmp13"(#loc25))
#loc64 = loc("tmp14"(#loc26))
#loc65 = loc("tmp15"(#loc27))
#loc66 = loc("tmp17"(#loc28))
#loc67 = loc("tmp18"(#loc29))
#loc68 = loc("tmp19"(#loc30))
