#loc = loc("/NHNHOME/WORKSPACE/26msit001_A/jinhyeok/loop_TTT/lact/.cache_inductor_llm/id/cidms26uzyrp6nexxjbaaqeazj3z2vw6opr6wx45l33avok5zfdg.py":18:0)
#loc1 = loc(unknown)
#loc55 = loc("/NHNHOME/WORKSPACE/26msit001_A/jinhyeok/loop_TTT/lact/.cache_inductor_llm/id/cidms26uzyrp6nexxjbaaqeazj3z2vw6opr6wx45l33avok5zfdg.py":68:27)
#loc61 = loc("in_ptr0"(#loc))
#loc62 = loc("in_ptr1"(#loc))
#loc63 = loc("in_ptr2"(#loc))
#loc64 = loc("in_ptr3"(#loc))
#loc65 = loc("in_ptr4"(#loc))
#loc66 = loc("in_ptr5"(#loc))
#loc67 = loc("out_ptr0"(#loc))
#loc68 = loc("xnumel"(#loc))
#loc69 = loc("r0_numel"(#loc))
#loc121 = loc("tmp28"(#loc55))
#loc127 = loc(callsite(#loc1 at #loc121))
module {
  tt.func public @triton_red_fused__to_copy_add_div_mul_neg_sum_transpose_23(%in_ptr0: !tt.ptr<bf16> {tt.divisibility = 16 : i32} loc("in_ptr0"(#loc)), %in_ptr1: !tt.ptr<f32> {tt.divisibility = 16 : i32} loc("in_ptr1"(#loc)), %in_ptr2: !tt.ptr<bf16> {tt.divisibility = 16 : i32} loc("in_ptr2"(#loc)), %in_ptr3: !tt.ptr<bf16> {tt.divisibility = 16 : i32} loc("in_ptr3"(#loc)), %in_ptr4: !tt.ptr<f32> {tt.divisibility = 16 : i32} loc("in_ptr4"(#loc)), %in_ptr5: !tt.ptr<f32> {tt.divisibility = 16 : i32} loc("in_ptr5"(#loc)), %out_ptr0: !tt.ptr<f32> {tt.divisibility = 16 : i32} loc("out_ptr0"(#loc)), %xnumel: i32 {tt.divisibility = 16 : i32} loc("xnumel"(#loc)), %r0_numel: i32 loc("r0_numel"(#loc))) attributes {noinline = false} {
    %c36864_i32 = arith.constant 36864 : i32 loc(#loc1)
    %c5_i32 = arith.constant 5 : i32 loc(#loc1)
    %xmask = arith.constant 480 : i32 loc(#loc70)
    %cst = arith.constant dense<0.000000e+00> : tensor<1x2048xbf16> loc(#loc1)
    %c2048_i32 = arith.constant 2048 : i32 loc(#loc3)
    %c7373_i32 = arith.constant 7373 : i32 loc(#loc1)
    %c0_i32 = arith.constant 0 : i32 loc(#loc3)
    %cst_0 = arith.constant dense<1.000000e-07> : tensor<1x2048xf32> loc(#loc1)
    %cst_1 = arith.constant dense<192> : tensor<1x2048xi32> loc(#loc1)
    %cst_2 = arith.constant dense<4.084800e+00> : tensor<1x2048xf32> loc(#loc1)
    %cst_3 = arith.constant dense<36864> : tensor<1x2048xi32> loc(#loc1)
    %cst_4 = arith.constant dense<7373> : tensor<1x2048xi32> loc(#loc1)
    %cst_5 = arith.constant dense<0.000000e+00> : tensor<1x2048xf32> loc(#loc1)
    %xoffset = tt.get_program_id x : i32 loc(#loc71)
    %xmask_6 = arith.cmpi slt, %xoffset, %xmask : i32 loc(#loc70)
    %xmask_7 = tt.splat %xmask_6 : i1 -> tensor<1x1xi1> loc(#loc70)
    %r0_base = tt.make_range {end = 2048 : i32, start = 0 : i32} : tensor<2048xi32> loc(#loc72)
    %r0_base_8 = tt.expand_dims %r0_base {axis = 0 : i32} : tensor<2048xi32> -> tensor<1x2048xi32> loc(#loc73)
    %x0 = arith.remsi %xoffset, %c5_i32 : i32 loc(#loc74)
    %x1 = arith.divsi %xoffset, %c5_i32 : i32 loc(#loc75)
    %_tmp28 = scf.for %r0_offset = %c0_i32 to %c7373_i32 step %c2048_i32 iter_args(%_tmp28_10 = %cst_5) -> (tensor<1x2048xf32>)  : i32 {
      %r0_index = tt.splat %r0_offset : i32 -> tensor<1x2048xi32> loc(#loc77)
      %r0_index_11 = arith.addi %r0_index, %r0_base_8 : tensor<1x2048xi32> loc(#loc77)
      %r0_mask = arith.cmpi slt, %r0_index_11, %cst_4 : tensor<1x2048xi32> loc(#loc78)
      %tmp0 = arith.muli %x0, %c7373_i32 : i32 loc(#loc79)
      %tmp0_12 = tt.splat %tmp0 : i32 -> tensor<1x2048xi32> loc(#loc123)
      %tmp0_13 = arith.addi %r0_index_11, %tmp0_12 : tensor<1x2048xi32> loc(#loc80)
      %tmp2 = arith.cmpi slt, %tmp0_13, %cst_3 : tensor<1x2048xi32> loc(#loc81)
      %tmp3 = arith.muli %x1, %c36864_i32 : i32 loc(#loc82)
      %tmp3_14 = arith.remsi %tmp0_13, %cst_3 : tensor<1x2048xi32> loc(#loc83)
      %tmp3_15 = tt.splat %tmp3 : i32 -> tensor<1x2048xi32> loc(#loc124)
      %tmp3_16 = arith.addi %tmp3_15, %tmp3_14 : tensor<1x2048xi32> loc(#loc84)
      %tmp3_17 = tt.splat %in_ptr0 : !tt.ptr<bf16> -> tensor<1x2048x!tt.ptr<bf16>> loc(#loc85)
      %tmp3_18 = tt.addptr %tmp3_17, %tmp3_16 : tensor<1x2048x!tt.ptr<bf16>>, tensor<1x2048xi32> loc(#loc85)
      %tmp3_19 = arith.andi %r0_mask, %tmp2 : tensor<1x2048xi1> loc(#loc86)
      %tmp3_20 = tt.splat %xmask_6 : i1 -> tensor<1x2048xi1> loc(#loc125)
      %tmp3_21 = arith.andi %tmp3_19, %tmp3_20 : tensor<1x2048xi1> loc(#loc87)
      %tmp3_22 = tt.load %tmp3_18, %tmp3_21, %cst evictionPolicy = evict_last : tensor<1x2048x!tt.ptr<bf16>> loc(#loc88)
      %tmp3_23 = arith.extf %tmp3_22 : tensor<1x2048xbf16> to tensor<1x2048xf32> loc(#loc89)
      %tmp5 = tt.splat %in_ptr1 : !tt.ptr<f32> -> tensor<1x2048x!tt.ptr<f32>> loc(#loc90)
      %tmp5_24 = tt.addptr %tmp5, %tmp3_16 : tensor<1x2048x!tt.ptr<f32>>, tensor<1x2048xi32> loc(#loc90)
      %tmp5_25 = tt.load %tmp5_24, %tmp3_21, %cst_5 evictionPolicy = evict_last : tensor<1x2048x!tt.ptr<f32>> loc(#loc91)
      %tmp7 = arith.mulf %tmp5_25, %cst_2 : tensor<1x2048xf32> loc(#loc92)
      %tmp8 = arith.addf %tmp3_23, %tmp7 : tensor<1x2048xf32> loc(#loc93)
      %tmp9 = tt.splat %in_ptr2 : !tt.ptr<bf16> -> tensor<1x2048x!tt.ptr<bf16>> loc(#loc94)
      %tmp9_26 = tt.addptr %tmp9, %tmp3_16 : tensor<1x2048x!tt.ptr<bf16>>, tensor<1x2048xi32> loc(#loc94)
      %tmp9_27 = tt.load %tmp9_26, %tmp3_21, %cst evictionPolicy = evict_last : tensor<1x2048x!tt.ptr<bf16>> loc(#loc95)
      %tmp9_28 = arith.extf %tmp9_27 : tensor<1x2048xbf16> to tensor<1x2048xf32> loc(#loc96)
      %tmp11 = arith.addf %tmp8, %tmp9_28 : tensor<1x2048xf32> loc(#loc97)
      %tmp12 = arith.remsi %tmp0_13, %cst_1 : tensor<1x2048xi32> loc(#loc98)
      %tmp12_29 = arith.muli %tmp12, %cst_1 : tensor<1x2048xi32> loc(#loc99)
      %tmp12_30 = arith.addi %tmp12_29, %tmp3_15 : tensor<1x2048xi32> loc(#loc100)
      %tmp12_31 = arith.divsi %tmp0_13, %cst_1 : tensor<1x2048xi32> loc(#loc101)
      %tmp12_32 = arith.remsi %tmp12_31, %cst_1 : tensor<1x2048xi32> loc(#loc102)
      %tmp12_33 = arith.addi %tmp12_30, %tmp12_32 : tensor<1x2048xi32> loc(#loc103)
      %tmp12_34 = tt.splat %in_ptr3 : !tt.ptr<bf16> -> tensor<1x2048x!tt.ptr<bf16>> loc(#loc104)
      %tmp12_35 = tt.addptr %tmp12_34, %tmp12_33 : tensor<1x2048x!tt.ptr<bf16>>, tensor<1x2048xi32> loc(#loc104)
      %tmp12_36 = tt.load %tmp12_35, %tmp3_21, %cst evictionPolicy = evict_last : tensor<1x2048x!tt.ptr<bf16>> loc(#loc105)
      %tmp12_37 = arith.extf %tmp12_36 : tensor<1x2048xbf16> to tensor<1x2048xf32> loc(#loc106)
      %tmp14 = arith.addf %tmp11, %tmp12_37 : tensor<1x2048xf32> loc(#loc107)
      %tmp15 = arith.subf %cst_5, %tmp14 : tensor<1x2048xf32> loc(#loc108)
      %tmp16 = tt.splat %in_ptr4 : !tt.ptr<f32> -> tensor<1x2048x!tt.ptr<f32>> loc(#loc109)
      %tmp16_38 = tt.addptr %tmp16, %tmp3_16 : tensor<1x2048x!tt.ptr<f32>>, tensor<1x2048xi32> loc(#loc109)
      %tmp16_39 = tt.load %tmp16_38, %tmp3_21, %cst_5 evictionPolicy = evict_last : tensor<1x2048x!tt.ptr<f32>> loc(#loc110)
      %tmp19 = tt.addptr %in_ptr5, %x1 : !tt.ptr<f32>, i32 loc(#loc111)
      %tmp19_40 = tt.splat %tmp19 : !tt.ptr<f32> -> tensor<1x2048x!tt.ptr<f32>> loc(#loc111)
      %tmp19_41 = tt.load %tmp19_40, %tmp3_21, %cst_5 evictionPolicy = evict_last : tensor<1x2048x!tt.ptr<f32>> loc(#loc112)
      %tmp21 = arith.addf %tmp19_41, %cst_0 : tensor<1x2048xf32> loc(#loc113)
      %tmp22 = arith.divf %tmp16_39, %tmp21 : tensor<1x2048xf32> loc(#loc114)
      %tmp23 = arith.divf %tmp22, %tmp21 : tensor<1x2048xf32> loc(#loc115)
      %tmp24 = arith.mulf %tmp15, %tmp23 : tensor<1x2048xf32> loc(#loc116)
      %tmp26 = arith.select %tmp2, %tmp24, %cst_5 : tensor<1x2048xi1>, tensor<1x2048xf32> loc(#loc117)
      %tmp29 = arith.addf %_tmp28_10, %tmp26 : tensor<1x2048xf32> loc(#loc118)
      %_tmp28_42 = arith.andi %r0_mask, %tmp3_20 : tensor<1x2048xi1> loc(#loc119)
      %_tmp28_43 = arith.select %_tmp28_42, %tmp29, %_tmp28_10 : tensor<1x2048xi1>, tensor<1x2048xf32> loc(#loc120)
      scf.yield %_tmp28_43 : tensor<1x2048xf32> loc(#loc53)
    } loc(#loc76)
    %tmp28 = "tt.reduce"(%_tmp28) <{axis = 1 : i32}> ({
    ^bb0(%tmp28_10: f32 loc(callsite(#loc1 at #loc121)), %tmp28_11: f32 loc(callsite(#loc1 at #loc121))):
      %tmp28_12 = arith.addf %tmp28_10, %tmp28_11 : f32 loc(#loc128)
      tt.reduce.return %tmp28_12 : f32 loc(#loc126)
    }) : (tensor<1x2048xf32>) -> tensor<1xf32> loc(#loc126)
    %tmp28_9 = tt.expand_dims %tmp28 {axis = 1 : i32} : tensor<1xf32> -> tensor<1x1xf32> loc(#loc122)
    %0 = tt.addptr %out_ptr0, %xoffset : !tt.ptr<f32>, i32 loc(#loc58)
    %1 = tt.splat %0 : !tt.ptr<f32> -> tensor<1x1x!tt.ptr<f32>> loc(#loc58)
    tt.store %1, %tmp28_9, %xmask_7 : tensor<1x1x!tt.ptr<f32>> loc(#loc59)
    tt.return loc(#loc60)
  } loc(#loc)
} loc(#loc)
#loc2 = loc("/NHNHOME/WORKSPACE/26msit001_A/jinhyeok/loop_TTT/lact/.cache_inductor_llm/id/cidms26uzyrp6nexxjbaaqeazj3z2vw6opr6wx45l33avok5zfdg.py":25:21)
#loc3 = loc("/NHNHOME/WORKSPACE/26msit001_A/jinhyeok/loop_TTT/lact/.cache_inductor_llm/id/cidms26uzyrp6nexxjbaaqeazj3z2vw6opr6wx45l33avok5zfdg.py":32:40)
#loc4 = loc("/NHNHOME/WORKSPACE/26msit001_A/jinhyeok/loop_TTT/lact/.cache_inductor_llm/id/cidms26uzyrp6nexxjbaaqeazj3z2vw6opr6wx45l33avok5zfdg.py":23:28)
#loc5 = loc("/NHNHOME/WORKSPACE/26msit001_A/jinhyeok/loop_TTT/lact/.cache_inductor_llm/id/cidms26uzyrp6nexxjbaaqeazj3z2vw6opr6wx45l33avok5zfdg.py":26:27)
#loc6 = loc("/NHNHOME/WORKSPACE/26msit001_A/jinhyeok/loop_TTT/lact/.cache_inductor_llm/id/cidms26uzyrp6nexxjbaaqeazj3z2vw6opr6wx45l33avok5zfdg.py":26:37)
#loc7 = loc("/NHNHOME/WORKSPACE/26msit001_A/jinhyeok/loop_TTT/lact/.cache_inductor_llm/id/cidms26uzyrp6nexxjbaaqeazj3z2vw6opr6wx45l33avok5zfdg.py":28:19)
#loc8 = loc("/NHNHOME/WORKSPACE/26msit001_A/jinhyeok/loop_TTT/lact/.cache_inductor_llm/id/cidms26uzyrp6nexxjbaaqeazj3z2vw6opr6wx45l33avok5zfdg.py":29:19)
#loc9 = loc("/NHNHOME/WORKSPACE/26msit001_A/jinhyeok/loop_TTT/lact/.cache_inductor_llm/id/cidms26uzyrp6nexxjbaaqeazj3z2vw6opr6wx45l33avok5zfdg.py":33:31)
#loc10 = loc("/NHNHOME/WORKSPACE/26msit001_A/jinhyeok/loop_TTT/lact/.cache_inductor_llm/id/cidms26uzyrp6nexxjbaaqeazj3z2vw6opr6wx45l33avok5zfdg.py":34:29)
#loc11 = loc("/NHNHOME/WORKSPACE/26msit001_A/jinhyeok/loop_TTT/lact/.cache_inductor_llm/id/cidms26uzyrp6nexxjbaaqeazj3z2vw6opr6wx45l33avok5zfdg.py":38:27)
#loc12 = loc("/NHNHOME/WORKSPACE/26msit001_A/jinhyeok/loop_TTT/lact/.cache_inductor_llm/id/cidms26uzyrp6nexxjbaaqeazj3z2vw6opr6wx45l33avok5zfdg.py":38:22)
#loc13 = loc("/NHNHOME/WORKSPACE/26msit001_A/jinhyeok/loop_TTT/lact/.cache_inductor_llm/id/cidms26uzyrp6nexxjbaaqeazj3z2vw6opr6wx45l33avok5zfdg.py":40:22)
#loc14 = loc("/NHNHOME/WORKSPACE/26msit001_A/jinhyeok/loop_TTT/lact/.cache_inductor_llm/id/cidms26uzyrp6nexxjbaaqeazj3z2vw6opr6wx45l33avok5zfdg.py":41:40)
#loc15 = loc("/NHNHOME/WORKSPACE/26msit001_A/jinhyeok/loop_TTT/lact/.cache_inductor_llm/id/cidms26uzyrp6nexxjbaaqeazj3z2vw6opr6wx45l33avok5zfdg.py":41:66)
#loc16 = loc("/NHNHOME/WORKSPACE/26msit001_A/jinhyeok/loop_TTT/lact/.cache_inductor_llm/id/cidms26uzyrp6nexxjbaaqeazj3z2vw6opr6wx45l33avok5zfdg.py":41:47)
#loc17 = loc("/NHNHOME/WORKSPACE/26msit001_A/jinhyeok/loop_TTT/lact/.cache_inductor_llm/id/cidms26uzyrp6nexxjbaaqeazj3z2vw6opr6wx45l33avok5zfdg.py":41:34)
#loc18 = loc("/NHNHOME/WORKSPACE/26msit001_A/jinhyeok/loop_TTT/lact/.cache_inductor_llm/id/cidms26uzyrp6nexxjbaaqeazj3z2vw6opr6wx45l33avok5zfdg.py":41:86)
#loc19 = loc("/NHNHOME/WORKSPACE/26msit001_A/jinhyeok/loop_TTT/lact/.cache_inductor_llm/id/cidms26uzyrp6nexxjbaaqeazj3z2vw6opr6wx45l33avok5zfdg.py":41:93)
#loc20 = loc("/NHNHOME/WORKSPACE/26msit001_A/jinhyeok/loop_TTT/lact/.cache_inductor_llm/id/cidms26uzyrp6nexxjbaaqeazj3z2vw6opr6wx45l33avok5zfdg.py":41:76)
#loc21 = loc("/NHNHOME/WORKSPACE/26msit001_A/jinhyeok/loop_TTT/lact/.cache_inductor_llm/id/cidms26uzyrp6nexxjbaaqeazj3z2vw6opr6wx45l33avok5zfdg.py":41:144)
#loc22 = loc("/NHNHOME/WORKSPACE/26msit001_A/jinhyeok/loop_TTT/lact/.cache_inductor_llm/id/cidms26uzyrp6nexxjbaaqeazj3z2vw6opr6wx45l33avok5zfdg.py":43:34)
#loc23 = loc("/NHNHOME/WORKSPACE/26msit001_A/jinhyeok/loop_TTT/lact/.cache_inductor_llm/id/cidms26uzyrp6nexxjbaaqeazj3z2vw6opr6wx45l33avok5zfdg.py":43:76)
#loc24 = loc("/NHNHOME/WORKSPACE/26msit001_A/jinhyeok/loop_TTT/lact/.cache_inductor_llm/id/cidms26uzyrp6nexxjbaaqeazj3z2vw6opr6wx45l33avok5zfdg.py":45:22)
#loc25 = loc("/NHNHOME/WORKSPACE/26msit001_A/jinhyeok/loop_TTT/lact/.cache_inductor_llm/id/cidms26uzyrp6nexxjbaaqeazj3z2vw6opr6wx45l33avok5zfdg.py":46:22)
#loc26 = loc("/NHNHOME/WORKSPACE/26msit001_A/jinhyeok/loop_TTT/lact/.cache_inductor_llm/id/cidms26uzyrp6nexxjbaaqeazj3z2vw6opr6wx45l33avok5zfdg.py":47:34)
#loc27 = loc("/NHNHOME/WORKSPACE/26msit001_A/jinhyeok/loop_TTT/lact/.cache_inductor_llm/id/cidms26uzyrp6nexxjbaaqeazj3z2vw6opr6wx45l33avok5zfdg.py":47:76)
#loc28 = loc("/NHNHOME/WORKSPACE/26msit001_A/jinhyeok/loop_TTT/lact/.cache_inductor_llm/id/cidms26uzyrp6nexxjbaaqeazj3z2vw6opr6wx45l33avok5zfdg.py":47:144)
#loc29 = loc("/NHNHOME/WORKSPACE/26msit001_A/jinhyeok/loop_TTT/lact/.cache_inductor_llm/id/cidms26uzyrp6nexxjbaaqeazj3z2vw6opr6wx45l33avok5zfdg.py":49:23)
#loc30 = loc("/NHNHOME/WORKSPACE/26msit001_A/jinhyeok/loop_TTT/lact/.cache_inductor_llm/id/cidms26uzyrp6nexxjbaaqeazj3z2vw6opr6wx45l33avok5zfdg.py":50:60)
#loc31 = loc("/NHNHOME/WORKSPACE/26msit001_A/jinhyeok/loop_TTT/lact/.cache_inductor_llm/id/cidms26uzyrp6nexxjbaaqeazj3z2vw6opr6wx45l33avok5zfdg.py":50:41)
#loc32 = loc("/NHNHOME/WORKSPACE/26msit001_A/jinhyeok/loop_TTT/lact/.cache_inductor_llm/id/cidms26uzyrp6nexxjbaaqeazj3z2vw6opr6wx45l33avok5zfdg.py":50:68)
#loc33 = loc("/NHNHOME/WORKSPACE/26msit001_A/jinhyeok/loop_TTT/lact/.cache_inductor_llm/id/cidms26uzyrp6nexxjbaaqeazj3z2vw6opr6wx45l33avok5zfdg.py":50:102)
#loc34 = loc("/NHNHOME/WORKSPACE/26msit001_A/jinhyeok/loop_TTT/lact/.cache_inductor_llm/id/cidms26uzyrp6nexxjbaaqeazj3z2vw6opr6wx45l33avok5zfdg.py":50:109)
#loc35 = loc("/NHNHOME/WORKSPACE/26msit001_A/jinhyeok/loop_TTT/lact/.cache_inductor_llm/id/cidms26uzyrp6nexxjbaaqeazj3z2vw6opr6wx45l33avok5zfdg.py":50:81)
#loc36 = loc("/NHNHOME/WORKSPACE/26msit001_A/jinhyeok/loop_TTT/lact/.cache_inductor_llm/id/cidms26uzyrp6nexxjbaaqeazj3z2vw6opr6wx45l33avok5zfdg.py":50:35)
#loc37 = loc("/NHNHOME/WORKSPACE/26msit001_A/jinhyeok/loop_TTT/lact/.cache_inductor_llm/id/cidms26uzyrp6nexxjbaaqeazj3z2vw6opr6wx45l33avok5zfdg.py":50:117)
#loc38 = loc("/NHNHOME/WORKSPACE/26msit001_A/jinhyeok/loop_TTT/lact/.cache_inductor_llm/id/cidms26uzyrp6nexxjbaaqeazj3z2vw6opr6wx45l33avok5zfdg.py":50:185)
#loc39 = loc("/NHNHOME/WORKSPACE/26msit001_A/jinhyeok/loop_TTT/lact/.cache_inductor_llm/id/cidms26uzyrp6nexxjbaaqeazj3z2vw6opr6wx45l33avok5zfdg.py":52:24)
#loc40 = loc("/NHNHOME/WORKSPACE/26msit001_A/jinhyeok/loop_TTT/lact/.cache_inductor_llm/id/cidms26uzyrp6nexxjbaaqeazj3z2vw6opr6wx45l33avok5zfdg.py":53:17)
#loc41 = loc("/NHNHOME/WORKSPACE/26msit001_A/jinhyeok/loop_TTT/lact/.cache_inductor_llm/id/cidms26uzyrp6nexxjbaaqeazj3z2vw6opr6wx45l33avok5zfdg.py":54:35)
#loc42 = loc("/NHNHOME/WORKSPACE/26msit001_A/jinhyeok/loop_TTT/lact/.cache_inductor_llm/id/cidms26uzyrp6nexxjbaaqeazj3z2vw6opr6wx45l33avok5zfdg.py":54:77)
#loc43 = loc("/NHNHOME/WORKSPACE/26msit001_A/jinhyeok/loop_TTT/lact/.cache_inductor_llm/id/cidms26uzyrp6nexxjbaaqeazj3z2vw6opr6wx45l33avok5zfdg.py":57:35)
#loc44 = loc("/NHNHOME/WORKSPACE/26msit001_A/jinhyeok/loop_TTT/lact/.cache_inductor_llm/id/cidms26uzyrp6nexxjbaaqeazj3z2vw6opr6wx45l33avok5zfdg.py":57:77)
#loc45 = loc("/NHNHOME/WORKSPACE/26msit001_A/jinhyeok/loop_TTT/lact/.cache_inductor_llm/id/cidms26uzyrp6nexxjbaaqeazj3z2vw6opr6wx45l33avok5zfdg.py":59:24)
#loc46 = loc("/NHNHOME/WORKSPACE/26msit001_A/jinhyeok/loop_TTT/lact/.cache_inductor_llm/id/cidms26uzyrp6nexxjbaaqeazj3z2vw6opr6wx45l33avok5zfdg.py":60:25)
#loc47 = loc("/NHNHOME/WORKSPACE/26msit001_A/jinhyeok/loop_TTT/lact/.cache_inductor_llm/id/cidms26uzyrp6nexxjbaaqeazj3z2vw6opr6wx45l33avok5zfdg.py":61:25)
#loc48 = loc("/NHNHOME/WORKSPACE/26msit001_A/jinhyeok/loop_TTT/lact/.cache_inductor_llm/id/cidms26uzyrp6nexxjbaaqeazj3z2vw6opr6wx45l33avok5zfdg.py":62:24)
#loc49 = loc("/NHNHOME/WORKSPACE/26msit001_A/jinhyeok/loop_TTT/lact/.cache_inductor_llm/id/cidms26uzyrp6nexxjbaaqeazj3z2vw6opr6wx45l33avok5zfdg.py":64:38)
#loc50 = loc("/NHNHOME/WORKSPACE/26msit001_A/jinhyeok/loop_TTT/lact/.cache_inductor_llm/id/cidms26uzyrp6nexxjbaaqeazj3z2vw6opr6wx45l33avok5zfdg.py":66:25)
#loc51 = loc("/NHNHOME/WORKSPACE/26msit001_A/jinhyeok/loop_TTT/lact/.cache_inductor_llm/id/cidms26uzyrp6nexxjbaaqeazj3z2vw6opr6wx45l33avok5zfdg.py":67:36)
#loc52 = loc("/NHNHOME/WORKSPACE/26msit001_A/jinhyeok/loop_TTT/lact/.cache_inductor_llm/id/cidms26uzyrp6nexxjbaaqeazj3z2vw6opr6wx45l33avok5zfdg.py":67:50)
#loc53 = loc("/NHNHOME/WORKSPACE/26msit001_A/jinhyeok/loop_TTT/lact/.cache_inductor_llm/id/cidms26uzyrp6nexxjbaaqeazj3z2vw6opr6wx45l33avok5zfdg.py":67:8)
#loc54 = loc("/NHNHOME/WORKSPACE/26msit001_A/jinhyeok/TTT_camera_embedding/.venv_llm/lib/python3.12/site-packages/triton/language/standard.py":291:36)
#loc56 = loc("/NHNHOME/WORKSPACE/26msit001_A/jinhyeok/TTT_camera_embedding/.venv_llm/lib/python3.12/site-packages/triton/language/standard.py":261:15)
#loc57 = loc("/NHNHOME/WORKSPACE/26msit001_A/jinhyeok/loop_TTT/lact/.cache_inductor_llm/id/cidms26uzyrp6nexxjbaaqeazj3z2vw6opr6wx45l33avok5zfdg.py":68:30)
#loc58 = loc("/NHNHOME/WORKSPACE/26msit001_A/jinhyeok/loop_TTT/lact/.cache_inductor_llm/id/cidms26uzyrp6nexxjbaaqeazj3z2vw6opr6wx45l33avok5zfdg.py":69:25)
#loc59 = loc("/NHNHOME/WORKSPACE/26msit001_A/jinhyeok/loop_TTT/lact/.cache_inductor_llm/id/cidms26uzyrp6nexxjbaaqeazj3z2vw6opr6wx45l33avok5zfdg.py":69:37)
#loc60 = loc("/NHNHOME/WORKSPACE/26msit001_A/jinhyeok/loop_TTT/lact/.cache_inductor_llm/id/cidms26uzyrp6nexxjbaaqeazj3z2vw6opr6wx45l33avok5zfdg.py":69:4)
#loc70 = loc("xmask"(#loc2))
#loc71 = loc("xoffset"(#loc4))
#loc72 = loc("r0_base"(#loc5))
#loc73 = loc("r0_base"(#loc6))
#loc74 = loc("x0"(#loc7))
#loc75 = loc("x1"(#loc8))
#loc76 = loc("_tmp28"(#loc3))
#loc77 = loc("r0_index"(#loc9))
#loc78 = loc("r0_mask"(#loc10))
#loc79 = loc("tmp0"(#loc11))
#loc80 = loc("tmp0"(#loc12))
#loc81 = loc("tmp2"(#loc13))
#loc82 = loc("tmp3"(#loc14))
#loc83 = loc("tmp3"(#loc15))
#loc84 = loc("tmp3"(#loc16))
#loc85 = loc("tmp3"(#loc17))
#loc86 = loc("tmp3"(#loc18))
#loc87 = loc("tmp3"(#loc19))
#loc88 = loc("tmp3"(#loc20))
#loc89 = loc("tmp3"(#loc21))
#loc90 = loc("tmp5"(#loc22))
#loc91 = loc("tmp5"(#loc23))
#loc92 = loc("tmp7"(#loc24))
#loc93 = loc("tmp8"(#loc25))
#loc94 = loc("tmp9"(#loc26))
#loc95 = loc("tmp9"(#loc27))
#loc96 = loc("tmp9"(#loc28))
#loc97 = loc("tmp11"(#loc29))
#loc98 = loc("tmp12"(#loc30))
#loc99 = loc("tmp12"(#loc31))
#loc100 = loc("tmp12"(#loc32))
#loc101 = loc("tmp12"(#loc33))
#loc102 = loc("tmp12"(#loc34))
#loc103 = loc("tmp12"(#loc35))
#loc104 = loc("tmp12"(#loc36))
#loc105 = loc("tmp12"(#loc37))
#loc106 = loc("tmp12"(#loc38))
#loc107 = loc("tmp14"(#loc39))
#loc108 = loc("tmp15"(#loc40))
#loc109 = loc("tmp16"(#loc41))
#loc110 = loc("tmp16"(#loc42))
#loc111 = loc("tmp19"(#loc43))
#loc112 = loc("tmp19"(#loc44))
#loc113 = loc("tmp21"(#loc45))
#loc114 = loc("tmp22"(#loc46))
#loc115 = loc("tmp23"(#loc47))
#loc116 = loc("tmp24"(#loc48))
#loc117 = loc("tmp26"(#loc49))
#loc118 = loc("tmp29"(#loc50))
#loc119 = loc("_tmp28"(#loc51))
#loc120 = loc("_tmp28"(#loc52))
#loc122 = loc("tmp28"(#loc57))
#loc123 = loc(fused[#loc80, #loc79])
#loc124 = loc(fused[#loc84, #loc82])
#loc125 = loc(fused[#loc87, #loc70])
#loc126 = loc(callsite(#loc54 at #loc121))
#loc128 = loc(callsite(#loc56 at #loc126))
