#loc = loc("/NHNHOME/WORKSPACE/26msit001_A/jinhyeok/loop_TTT/lact/.cache_inductor_llm/k5/ck5cu6ridkt4j4j7dizain4lugiinalcyvh7mmdpxprrmeff2kuw.py":18:0)
#loc24 = loc("/NHNHOME/WORKSPACE/26msit001_A/jinhyeok/TTT_camera_embedding/.venv_llm/lib/python3.12/site-packages/triton/language/standard.py":285:0)
#loc26 = loc(unknown)
#loc29 = loc("/NHNHOME/WORKSPACE/26msit001_A/jinhyeok/TTT_camera_embedding/.venv_llm/lib/python3.12/site-packages/triton/language/standard.py":260:0)
#loc33 = loc("in_ptr0"(#loc))
#loc34 = loc("out_ptr0"(#loc))
#loc35 = loc("xnumel"(#loc))
#loc36 = loc("r0_numel"(#loc))
#loc57 = loc("input"(#loc24))
#loc58 = loc("a"(#loc29))
#loc59 = loc("b"(#loc29))
module {
  tt.func public @triton_per_fused__to_copy_add_linalg_vector_norm_mean_mul_slice_zeros_like_6(%in_ptr0: !tt.ptr<f32> {tt.divisibility = 16 : i32} loc("in_ptr0"(#loc)), %out_ptr0: !tt.ptr<f32> {tt.divisibility = 16 : i32} loc("out_ptr0"(#loc)), %xnumel: i32 loc("xnumel"(#loc)), %r0_numel: i32 loc("r0_numel"(#loc))) attributes {noinline = false} {
    %r0_numel_0 = arith.constant 5 : i32 loc(#loc37)
    %xoffset = tt.get_program_id x : i32 loc(#loc38)
    %xoffset_1 = arith.constant 1 : i32 loc(#loc39)
    %xoffset_2 = arith.constant 1 : i32 loc(#loc39)
    %xoffset_3 = arith.muli %xoffset, %xoffset_2 : i32 loc(#loc39)
    %xindex = tt.make_range {end = 1 : i32, start = 0 : i32} : tensor<1xi32> loc(#loc40)
    %xindex_4 = tt.expand_dims %xindex {axis = 1 : i32} : tensor<1xi32> -> tensor<1x1xi32> loc(#loc41)
    %xindex_5 = tt.splat %xoffset_3 : i32 -> tensor<1x1xi32> loc(#loc42)
    %xindex_6 = arith.addi %xindex_5, %xindex_4 : tensor<1x1xi32> loc(#loc42)
    %xmask = tt.splat %xnumel : i32 -> tensor<1x1xi32> loc(#loc43)
    %xmask_7 = arith.cmpi slt, %xindex_6, %xmask : tensor<1x1xi32> loc(#loc43)
    %r0_index = tt.make_range {end = 8 : i32, start = 0 : i32} : tensor<8xi32> loc(#loc44)
    %r0_index_8 = tt.expand_dims %r0_index {axis = 0 : i32} : tensor<8xi32> -> tensor<1x8xi32> loc(#loc45)
    %r0_offset = arith.constant 0 : i32 loc(#loc46)
    %r0_mask = arith.constant dense<5> : tensor<1x8xi32> loc(#loc47)
    %r0_mask_9 = arith.cmpi slt, %r0_index_8, %r0_mask : tensor<1x8xi32> loc(#loc47)
    %tmp0 = arith.constant 5 : i32 loc(#loc48)
    %tmp0_10 = arith.constant 5 : i32 loc(#loc48)
    %tmp0_11 = arith.constant dense<5> : tensor<1x1xi32> loc(#loc48)
    %tmp0_12 = arith.muli %tmp0_11, %xindex_6 : tensor<1x1xi32> loc(#loc48)
    %tmp0_13 = tt.broadcast %tmp0_12 : tensor<1x1xi32> -> tensor<1x8xi32> loc(#loc49)
    %tmp0_14 = arith.addi %r0_index_8, %tmp0_13 : tensor<1x8xi32> loc(#loc49)
    %tmp0_15 = tt.splat %in_ptr0 : !tt.ptr<f32> -> tensor<1x8x!tt.ptr<f32>> loc(#loc50)
    %tmp0_16 = tt.addptr %tmp0_15, %tmp0_14 : tensor<1x8x!tt.ptr<f32>>, tensor<1x8xi32> loc(#loc50)
    %tmp0_17 = tt.broadcast %xmask_7 : tensor<1x1xi1> -> tensor<1x8xi1> loc(#loc51)
    %tmp0_18 = arith.andi %r0_mask_9, %tmp0_17 : tensor<1x8xi1> loc(#loc51)
    %tmp0_19 = arith.constant 0.000000e+00 : f32 loc(#loc52)
    %tmp0_20 = arith.constant dense<0.000000e+00> : tensor<1x8xf32> loc(#loc52)
    %tmp0_21 = tt.load %tmp0_16, %tmp0_18, %tmp0_20 : tensor<1x8x!tt.ptr<f32>> loc(#loc52)
    %tmp3 = tt.broadcast %xmask_7 : tensor<1x1xi1> -> tensor<1x8xi1> loc(#loc53)
    %tmp3_22 = arith.andi %r0_mask_9, %tmp3 : tensor<1x8xi1> loc(#loc53)
    %tmp3_23 = arith.constant 0 : i32 loc(#loc54)
    %tmp3_24 = arith.constant 0.000000e+00 : f32 loc(#loc54)
    %tmp3_25 = arith.constant dense<0.000000e+00> : tensor<1x8xf32> loc(#loc54)
    %tmp3_26 = arith.select %tmp3_22, %tmp0_21, %tmp3_25 : tensor<1x8xi1>, tensor<1x8xf32> loc(#loc54)
    %tmp4 = tt.call @"triton.language.standard.sum__fp32S1_8S__(1,)cconstexpr_1__(2,)cconstexpr_False__(3,)cNone"(%tmp3_26) : (tensor<1x8xf32>) -> tensor<1xf32> loc(#loc55)
    %tmp4_27 = tt.expand_dims %tmp4 {axis = 1 : i32} : tensor<1xf32> -> tensor<1x1xf32> loc(#loc56)
    %0 = tt.splat %out_ptr0 : !tt.ptr<f32> -> tensor<1x1x!tt.ptr<f32>> loc(#loc21)
    %1 = tt.addptr %0, %xindex_6 : tensor<1x1x!tt.ptr<f32>>, tensor<1x1xi32> loc(#loc21)
    tt.store %1, %tmp4_27, %xmask_7 : tensor<1x1x!tt.ptr<f32>> loc(#loc22)
    tt.return loc(#loc23)
  } loc(#loc)
  tt.func private @"triton.language.standard.sum__fp32S1_8S__(1,)cconstexpr_1__(2,)cconstexpr_False__(3,)cNone"(%input: tensor<1x8xf32> loc("input"(#loc24))) -> tensor<1xf32> attributes {noinline = false} {
    %0 = "tt.reduce"(%input) <{axis = 1 : i32}> ({
    ^bb0(%arg1: f32 loc(unknown), %arg2: f32 loc(unknown)):
      %2 = tt.call @triton.language.standard._sum_combine__fp32_fp32__(%arg1, %arg2) : (f32, f32) -> f32 loc(#loc25)
      tt.reduce.return %2 : f32 loc(#loc25)
    }) : (tensor<1x8xf32>) -> tensor<1xf32> loc(#loc25)
    tt.return %0 : tensor<1xf32> loc(#loc27)
  ^bb1:  // no predecessors
    %1 = ub.poison : tensor<1xf32> loc(#loc28)
    tt.return %1 : tensor<1xf32> loc(#loc28)
  } loc(#loc24)
  tt.func private @triton.language.standard._sum_combine__fp32_fp32__(%a: f32 loc("a"(#loc29)), %b: f32 loc("b"(#loc29))) -> f32 attributes {noinline = false} {
    %0 = arith.addf %a, %b : f32 loc(#loc30)
    tt.return %0 : f32 loc(#loc31)
  ^bb1:  // no predecessors
    %1 = ub.poison : f32 loc(#loc32)
    tt.return %1 : f32 loc(#loc32)
  } loc(#loc29)
} loc(#loc)
#loc1 = loc("/NHNHOME/WORKSPACE/26msit001_A/jinhyeok/loop_TTT/lact/.cache_inductor_llm/k5/ck5cu6ridkt4j4j7dizain4lugiinalcyvh7mmdpxprrmeff2kuw.py":19:15)
#loc2 = loc("/NHNHOME/WORKSPACE/26msit001_A/jinhyeok/loop_TTT/lact/.cache_inductor_llm/k5/ck5cu6ridkt4j4j7dizain4lugiinalcyvh7mmdpxprrmeff2kuw.py":23:28)
#loc3 = loc("/NHNHOME/WORKSPACE/26msit001_A/jinhyeok/loop_TTT/lact/.cache_inductor_llm/k5/ck5cu6ridkt4j4j7dizain4lugiinalcyvh7mmdpxprrmeff2kuw.py":23:33)
#loc4 = loc("/NHNHOME/WORKSPACE/26msit001_A/jinhyeok/loop_TTT/lact/.cache_inductor_llm/k5/ck5cu6ridkt4j4j7dizain4lugiinalcyvh7mmdpxprrmeff2kuw.py":24:36)
#loc5 = loc("/NHNHOME/WORKSPACE/26msit001_A/jinhyeok/loop_TTT/lact/.cache_inductor_llm/k5/ck5cu6ridkt4j4j7dizain4lugiinalcyvh7mmdpxprrmeff2kuw.py":24:44)
#loc6 = loc("/NHNHOME/WORKSPACE/26msit001_A/jinhyeok/loop_TTT/lact/.cache_inductor_llm/k5/ck5cu6ridkt4j4j7dizain4lugiinalcyvh7mmdpxprrmeff2kuw.py":24:23)
#loc7 = loc("/NHNHOME/WORKSPACE/26msit001_A/jinhyeok/loop_TTT/lact/.cache_inductor_llm/k5/ck5cu6ridkt4j4j7dizain4lugiinalcyvh7mmdpxprrmeff2kuw.py":25:21)
#loc8 = loc("/NHNHOME/WORKSPACE/26msit001_A/jinhyeok/loop_TTT/lact/.cache_inductor_llm/k5/ck5cu6ridkt4j4j7dizain4lugiinalcyvh7mmdpxprrmeff2kuw.py":26:28)
#loc9 = loc("/NHNHOME/WORKSPACE/26msit001_A/jinhyeok/loop_TTT/lact/.cache_inductor_llm/k5/ck5cu6ridkt4j4j7dizain4lugiinalcyvh7mmdpxprrmeff2kuw.py":26:38)
#loc10 = loc("/NHNHOME/WORKSPACE/26msit001_A/jinhyeok/loop_TTT/lact/.cache_inductor_llm/k5/ck5cu6ridkt4j4j7dizain4lugiinalcyvh7mmdpxprrmeff2kuw.py":27:16)
#loc11 = loc("/NHNHOME/WORKSPACE/26msit001_A/jinhyeok/loop_TTT/lact/.cache_inductor_llm/k5/ck5cu6ridkt4j4j7dizain4lugiinalcyvh7mmdpxprrmeff2kuw.py":28:25)
#loc12 = loc("/NHNHOME/WORKSPACE/26msit001_A/jinhyeok/loop_TTT/lact/.cache_inductor_llm/k5/ck5cu6ridkt4j4j7dizain4lugiinalcyvh7mmdpxprrmeff2kuw.py":33:39)
#loc13 = loc("/NHNHOME/WORKSPACE/26msit001_A/jinhyeok/loop_TTT/lact/.cache_inductor_llm/k5/ck5cu6ridkt4j4j7dizain4lugiinalcyvh7mmdpxprrmeff2kuw.py":33:37)
#loc14 = loc("/NHNHOME/WORKSPACE/26msit001_A/jinhyeok/loop_TTT/lact/.cache_inductor_llm/k5/ck5cu6ridkt4j4j7dizain4lugiinalcyvh7mmdpxprrmeff2kuw.py":33:30)
#loc15 = loc("/NHNHOME/WORKSPACE/26msit001_A/jinhyeok/loop_TTT/lact/.cache_inductor_llm/k5/ck5cu6ridkt4j4j7dizain4lugiinalcyvh7mmdpxprrmeff2kuw.py":33:54)
#loc16 = loc("/NHNHOME/WORKSPACE/26msit001_A/jinhyeok/loop_TTT/lact/.cache_inductor_llm/k5/ck5cu6ridkt4j4j7dizain4lugiinalcyvh7mmdpxprrmeff2kuw.py":33:44)
#loc17 = loc("/NHNHOME/WORKSPACE/26msit001_A/jinhyeok/loop_TTT/lact/.cache_inductor_llm/k5/ck5cu6ridkt4j4j7dizain4lugiinalcyvh7mmdpxprrmeff2kuw.py":35:30)
#loc18 = loc("/NHNHOME/WORKSPACE/26msit001_A/jinhyeok/loop_TTT/lact/.cache_inductor_llm/k5/ck5cu6ridkt4j4j7dizain4lugiinalcyvh7mmdpxprrmeff2kuw.py":35:43)
#loc19 = loc("/NHNHOME/WORKSPACE/26msit001_A/jinhyeok/loop_TTT/lact/.cache_inductor_llm/k5/ck5cu6ridkt4j4j7dizain4lugiinalcyvh7mmdpxprrmeff2kuw.py":36:24)
#loc20 = loc("/NHNHOME/WORKSPACE/26msit001_A/jinhyeok/loop_TTT/lact/.cache_inductor_llm/k5/ck5cu6ridkt4j4j7dizain4lugiinalcyvh7mmdpxprrmeff2kuw.py":36:27)
#loc21 = loc("/NHNHOME/WORKSPACE/26msit001_A/jinhyeok/loop_TTT/lact/.cache_inductor_llm/k5/ck5cu6ridkt4j4j7dizain4lugiinalcyvh7mmdpxprrmeff2kuw.py":37:25)
#loc22 = loc("/NHNHOME/WORKSPACE/26msit001_A/jinhyeok/loop_TTT/lact/.cache_inductor_llm/k5/ck5cu6ridkt4j4j7dizain4lugiinalcyvh7mmdpxprrmeff2kuw.py":37:36)
#loc23 = loc("/NHNHOME/WORKSPACE/26msit001_A/jinhyeok/loop_TTT/lact/.cache_inductor_llm/k5/ck5cu6ridkt4j4j7dizain4lugiinalcyvh7mmdpxprrmeff2kuw.py":37:4)
#loc25 = loc("/NHNHOME/WORKSPACE/26msit001_A/jinhyeok/TTT_camera_embedding/.venv_llm/lib/python3.12/site-packages/triton/language/standard.py":291:36)
#loc27 = loc("/NHNHOME/WORKSPACE/26msit001_A/jinhyeok/TTT_camera_embedding/.venv_llm/lib/python3.12/site-packages/triton/language/standard.py":291:11)
#loc28 = loc("/NHNHOME/WORKSPACE/26msit001_A/jinhyeok/TTT_camera_embedding/.venv_llm/lib/python3.12/site-packages/triton/language/standard.py":291:4)
#loc30 = loc("/NHNHOME/WORKSPACE/26msit001_A/jinhyeok/TTT_camera_embedding/.venv_llm/lib/python3.12/site-packages/triton/language/standard.py":261:15)
#loc31 = loc("/NHNHOME/WORKSPACE/26msit001_A/jinhyeok/TTT_camera_embedding/.venv_llm/lib/python3.12/site-packages/triton/language/standard.py":261:11)
#loc32 = loc("/NHNHOME/WORKSPACE/26msit001_A/jinhyeok/TTT_camera_embedding/.venv_llm/lib/python3.12/site-packages/triton/language/standard.py":261:4)
#loc37 = loc("r0_numel"(#loc1))
#loc38 = loc("xoffset"(#loc2))
#loc39 = loc("xoffset"(#loc3))
#loc40 = loc("xindex"(#loc4))
#loc41 = loc("xindex"(#loc5))
#loc42 = loc("xindex"(#loc6))
#loc43 = loc("xmask"(#loc7))
#loc44 = loc("r0_index"(#loc8))
#loc45 = loc("r0_index"(#loc9))
#loc46 = loc("r0_offset"(#loc10))
#loc47 = loc("r0_mask"(#loc11))
#loc48 = loc("tmp0"(#loc12))
#loc49 = loc("tmp0"(#loc13))
#loc50 = loc("tmp0"(#loc14))
#loc51 = loc("tmp0"(#loc15))
#loc52 = loc("tmp0"(#loc16))
#loc53 = loc("tmp3"(#loc17))
#loc54 = loc("tmp3"(#loc18))
#loc55 = loc("tmp4"(#loc19))
#loc56 = loc("tmp4"(#loc20))
