#loc = loc("/NHNHOME/WORKSPACE/26msit001_A/jinhyeok/loop_TTT/lact/.cache_inductor_llm/wx/cwxqquozoj7ax6x5wjnkjnp2bfiofkbzo4xchdrmxvlihmwsdja4.py":18:0)
#loc61 = loc("in_out_ptr0"(#loc))
#loc62 = loc("in_ptr0"(#loc))
#loc63 = loc("in_ptr1"(#loc))
#loc64 = loc("in_ptr2"(#loc))
#loc65 = loc("in_ptr3"(#loc))
#loc66 = loc("in_ptr4"(#loc))
#loc67 = loc("in_ptr5"(#loc))
#loc68 = loc("in_ptr6"(#loc))
#loc69 = loc("ynumel"(#loc))
#loc70 = loc("xnumel"(#loc))
module {
  tt.func public @triton_poi_fused__to_copy_add_div_eq_masked_fill_mul_transpose_40(%in_out_ptr0: !tt.ptr<f32> {tt.divisibility = 16 : i32} loc("in_out_ptr0"(#loc)), %in_ptr0: !tt.ptr<bf16> {tt.divisibility = 16 : i32} loc("in_ptr0"(#loc)), %in_ptr1: !tt.ptr<bf16> {tt.divisibility = 16 : i32} loc("in_ptr1"(#loc)), %in_ptr2: !tt.ptr<f32> {tt.divisibility = 16 : i32} loc("in_ptr2"(#loc)), %in_ptr3: !tt.ptr<f32> {tt.divisibility = 16 : i32} loc("in_ptr3"(#loc)), %in_ptr4: !tt.ptr<f32> {tt.divisibility = 16 : i32} loc("in_ptr4"(#loc)), %in_ptr5: !tt.ptr<f32> {tt.divisibility = 16 : i32} loc("in_ptr5"(#loc)), %in_ptr6: !tt.ptr<f32> {tt.divisibility = 16 : i32} loc("in_ptr6"(#loc)), %ynumel: i32 {tt.divisibility = 16 : i32} loc("ynumel"(#loc)), %xnumel: i32 {tt.divisibility = 16 : i32} loc("xnumel"(#loc))) attributes {noinline = false} {
    %ynumel_0 = arith.constant 18432 : i32 loc(#loc71)
    %xnumel_1 = arith.constant 192 : i32 loc(#loc72)
    %yoffset = tt.get_program_id y : i32 loc(#loc73)
    %yoffset_2 = arith.constant 32 : i32 loc(#loc74)
    %yoffset_3 = arith.constant 32 : i32 loc(#loc74)
    %yoffset_4 = arith.muli %yoffset, %yoffset_3 : i32 loc(#loc74)
    %yindex = tt.make_range {end = 32 : i32, start = 0 : i32} : tensor<32xi32> loc(#loc75)
    %yindex_5 = tt.expand_dims %yindex {axis = 1 : i32} : tensor<32xi32> -> tensor<32x1xi32> loc(#loc76)
    %yindex_6 = tt.splat %yoffset_4 : i32 -> tensor<32x1xi32> loc(#loc77)
    %yindex_7 = arith.addi %yindex_6, %yindex_5 : tensor<32x1xi32> loc(#loc77)
    %ymask = arith.constant true loc(#loc78)
    %ymask_8 = arith.constant dense<true> : tensor<32x32xi1> loc(#loc78)
    %xoffset = tt.get_program_id x : i32 loc(#loc79)
    %xoffset_9 = arith.constant 32 : i32 loc(#loc80)
    %xoffset_10 = arith.constant 32 : i32 loc(#loc80)
    %xoffset_11 = arith.muli %xoffset, %xoffset_10 : i32 loc(#loc80)
    %xindex = tt.make_range {end = 32 : i32, start = 0 : i32} : tensor<32xi32> loc(#loc81)
    %xindex_12 = tt.expand_dims %xindex {axis = 0 : i32} : tensor<32xi32> -> tensor<1x32xi32> loc(#loc82)
    %xindex_13 = tt.splat %xoffset_11 : i32 -> tensor<1x32xi32> loc(#loc83)
    %xindex_14 = arith.addi %xindex_13, %xindex_12 : tensor<1x32xi32> loc(#loc83)
    %xmask = arith.constant dense<192> : tensor<1x32xi32> loc(#loc84)
    %xmask_15 = arith.cmpi slt, %xindex_14, %xmask : tensor<1x32xi32> loc(#loc84)
    %y0 = arith.constant 192 : i32 loc(#loc85)
    %y0_16 = arith.constant 192 : i32 loc(#loc85)
    %y0_17 = arith.constant dense<192> : tensor<32x1xi32> loc(#loc85)
    %y0_18 = arith.remsi %yindex_7, %y0_17 : tensor<32x1xi32> loc(#loc85)
    %y1 = arith.constant 192 : i32 loc(#loc86)
    %y1_19 = arith.constant 192 : i32 loc(#loc86)
    %y1_20 = arith.constant dense<192> : tensor<32x1xi32> loc(#loc86)
    %y1_21 = arith.divsi %yindex_7, %y1_20 : tensor<32x1xi32> loc(#loc86)
    %tmp0 = arith.constant 192 : i32 loc(#loc87)
    %tmp0_22 = arith.constant 192 : i32 loc(#loc87)
    %tmp0_23 = arith.constant dense<192> : tensor<32x1xi32> loc(#loc87)
    %tmp0_24 = arith.muli %tmp0_23, %yindex_7 : tensor<32x1xi32> loc(#loc87)
    %tmp0_25 = tt.broadcast %xindex_14 : tensor<1x32xi32> -> tensor<32x32xi32> loc(#loc88)
    %tmp0_26 = tt.broadcast %tmp0_24 : tensor<32x1xi32> -> tensor<32x32xi32> loc(#loc88)
    %tmp0_27 = arith.addi %tmp0_25, %tmp0_26 : tensor<32x32xi32> loc(#loc88)
    %tmp0_28 = tt.splat %in_out_ptr0 : !tt.ptr<f32> -> tensor<32x32x!tt.ptr<f32>> loc(#loc89)
    %tmp0_29 = tt.addptr %tmp0_28, %tmp0_27 : tensor<32x32x!tt.ptr<f32>>, tensor<32x32xi32> loc(#loc89)
    %tmp0_30 = tt.broadcast %xmask_15 : tensor<1x32xi1> -> tensor<32x32xi1> loc(#loc90)
    %tmp0_31 = tt.load %tmp0_29, %tmp0_30 evictionPolicy = evict_last : tensor<32x32x!tt.ptr<f32>> loc(#loc90)
    %tmp1 = arith.constant 192 : i32 loc(#loc91)
    %tmp1_32 = arith.constant 192 : i32 loc(#loc91)
    %tmp1_33 = arith.constant dense<192> : tensor<1x32xi32> loc(#loc91)
    %tmp1_34 = arith.muli %tmp1_33, %xindex_14 : tensor<1x32xi32> loc(#loc91)
    %tmp1_35 = tt.broadcast %y0_18 : tensor<32x1xi32> -> tensor<32x32xi32> loc(#loc92)
    %tmp1_36 = tt.broadcast %tmp1_34 : tensor<1x32xi32> -> tensor<32x32xi32> loc(#loc92)
    %tmp1_37 = arith.addi %tmp1_35, %tmp1_36 : tensor<32x32xi32> loc(#loc92)
    %tmp1_38 = arith.constant 36864 : i32 loc(#loc93)
    %tmp1_39 = arith.constant 36864 : i32 loc(#loc93)
    %tmp1_40 = arith.constant dense<36864> : tensor<32x1xi32> loc(#loc93)
    %tmp1_41 = arith.muli %tmp1_40, %y1_21 : tensor<32x1xi32> loc(#loc93)
    %tmp1_42 = tt.broadcast %tmp1_41 : tensor<32x1xi32> -> tensor<32x32xi32> loc(#loc94)
    %tmp1_43 = arith.addi %tmp1_37, %tmp1_42 : tensor<32x32xi32> loc(#loc94)
    %tmp1_44 = tt.splat %in_ptr0 : !tt.ptr<bf16> -> tensor<32x32x!tt.ptr<bf16>> loc(#loc95)
    %tmp1_45 = tt.addptr %tmp1_44, %tmp1_43 : tensor<32x32x!tt.ptr<bf16>>, tensor<32x32xi32> loc(#loc95)
    %tmp1_46 = tt.broadcast %xmask_15 : tensor<1x32xi1> -> tensor<32x32xi1> loc(#loc96)
    %tmp1_47 = tt.load %tmp1_45, %tmp1_46 evictionPolicy = evict_last : tensor<32x32x!tt.ptr<bf16>> loc(#loc96)
    %tmp1_48 = arith.extf %tmp1_47 : tensor<32x32xbf16> to tensor<32x32xf32> loc(#loc97)
    %tmp4 = arith.constant 192 : i32 loc(#loc98)
    %tmp4_49 = arith.constant 192 : i32 loc(#loc98)
    %tmp4_50 = arith.constant dense<192> : tensor<32x1xi32> loc(#loc98)
    %tmp4_51 = arith.muli %tmp4_50, %yindex_7 : tensor<32x1xi32> loc(#loc98)
    %tmp4_52 = tt.broadcast %xindex_14 : tensor<1x32xi32> -> tensor<32x32xi32> loc(#loc99)
    %tmp4_53 = tt.broadcast %tmp4_51 : tensor<32x1xi32> -> tensor<32x32xi32> loc(#loc99)
    %tmp4_54 = arith.addi %tmp4_52, %tmp4_53 : tensor<32x32xi32> loc(#loc99)
    %tmp4_55 = tt.splat %in_ptr1 : !tt.ptr<bf16> -> tensor<32x32x!tt.ptr<bf16>> loc(#loc100)
    %tmp4_56 = tt.addptr %tmp4_55, %tmp4_54 : tensor<32x32x!tt.ptr<bf16>>, tensor<32x32xi32> loc(#loc100)
    %tmp4_57 = tt.broadcast %xmask_15 : tensor<1x32xi1> -> tensor<32x32xi1> loc(#loc101)
    %tmp4_58 = tt.load %tmp4_56, %tmp4_57 evictionPolicy = evict_last : tensor<32x32x!tt.ptr<bf16>> loc(#loc101)
    %tmp4_59 = arith.extf %tmp4_58 : tensor<32x32xbf16> to tensor<32x32xf32> loc(#loc102)
    %tmp7 = tt.splat %in_ptr2 : !tt.ptr<f32> -> tensor<32x1x!tt.ptr<f32>> loc(#loc103)
    %tmp7_60 = tt.addptr %tmp7, %yindex_7 : tensor<32x1x!tt.ptr<f32>>, tensor<32x1xi32> loc(#loc103)
    %tmp7_61 = tt.load %tmp7_60 evictionPolicy = evict_last : tensor<32x1x!tt.ptr<f32>> loc(#loc104)
    %tmp8 = tt.splat %in_ptr3 : !tt.ptr<f32> -> tensor<32x1x!tt.ptr<f32>> loc(#loc105)
    %tmp8_62 = tt.addptr %tmp8, %yindex_7 : tensor<32x1x!tt.ptr<f32>>, tensor<32x1xi32> loc(#loc105)
    %tmp8_63 = tt.load %tmp8_62 evictionPolicy = evict_last : tensor<32x1x!tt.ptr<f32>> loc(#loc106)
    %tmp10 = tt.splat %in_ptr4 : !tt.ptr<f32> -> tensor<32x1x!tt.ptr<f32>> loc(#loc107)
    %tmp10_64 = tt.addptr %tmp10, %yindex_7 : tensor<32x1x!tt.ptr<f32>>, tensor<32x1xi32> loc(#loc107)
    %tmp10_65 = tt.load %tmp10_64 evictionPolicy = evict_last : tensor<32x1x!tt.ptr<f32>> loc(#loc108)
    %tmp12 = tt.splat %in_ptr5 : !tt.ptr<f32> -> tensor<32x1x!tt.ptr<f32>> loc(#loc109)
    %tmp12_66 = tt.addptr %tmp12, %yindex_7 : tensor<32x1x!tt.ptr<f32>>, tensor<32x1xi32> loc(#loc109)
    %tmp12_67 = tt.load %tmp12_66 evictionPolicy = evict_last : tensor<32x1x!tt.ptr<f32>> loc(#loc110)
    %tmp15 = arith.constant 192 : i32 loc(#loc111)
    %tmp15_68 = arith.constant 192 : i32 loc(#loc111)
    %tmp15_69 = arith.constant dense<192> : tensor<32x1xi32> loc(#loc111)
    %tmp15_70 = arith.muli %tmp15_69, %yindex_7 : tensor<32x1xi32> loc(#loc111)
    %tmp15_71 = tt.broadcast %xindex_14 : tensor<1x32xi32> -> tensor<32x32xi32> loc(#loc112)
    %tmp15_72 = tt.broadcast %tmp15_70 : tensor<32x1xi32> -> tensor<32x32xi32> loc(#loc112)
    %tmp15_73 = arith.addi %tmp15_71, %tmp15_72 : tensor<32x32xi32> loc(#loc112)
    %tmp15_74 = tt.splat %in_ptr6 : !tt.ptr<f32> -> tensor<32x32x!tt.ptr<f32>> loc(#loc113)
    %tmp15_75 = tt.addptr %tmp15_74, %tmp15_73 : tensor<32x32x!tt.ptr<f32>>, tensor<32x32xi32> loc(#loc113)
    %tmp15_76 = tt.broadcast %xmask_15 : tensor<1x32xi1> -> tensor<32x32xi1> loc(#loc114)
    %tmp15_77 = tt.load %tmp15_75, %tmp15_76 evictionPolicy = evict_last : tensor<32x32x!tt.ptr<f32>> loc(#loc114)
    %tmp3 = arith.addf %tmp0_31, %tmp1_48 : tensor<32x32xf32> loc(#loc115)
    %tmp6 = arith.addf %tmp3, %tmp4_59 : tensor<32x32xf32> loc(#loc116)
    %tmp9 = arith.addf %tmp7_61, %tmp8_63 : tensor<32x1xf32> loc(#loc117)
    %tmp11 = arith.addf %tmp9, %tmp10_65 : tensor<32x1xf32> loc(#loc118)
    %tmp13 = arith.constant 0.000000e+00 : f32 loc(#loc119)
    %tmp14 = arith.constant dense<0.000000e+00> : tensor<32x1xf32> loc(#loc120)
    %tmp14_78 = arith.cmpf oeq, %tmp12_67, %tmp14 : tensor<32x1xf32> loc(#loc120)
    %tmp16 = tt.broadcast %tmp12_67 : tensor<32x1xf32> -> tensor<32x32xf32> loc(#loc121)
    %tmp16_79 = arith.divf %tmp15_77, %tmp16 : tensor<32x32xf32> loc(#loc121)
    %tmp17 = arith.constant dense<0.000000e+00> : tensor<32x32xf32> loc(#loc122)
    %tmp17_80 = tt.broadcast %tmp14_78 : tensor<32x1xi1> -> tensor<32x32xi1> loc(#loc122)
    %tmp17_81 = arith.select %tmp17_80, %tmp17, %tmp16_79 : tensor<32x32xi1>, tensor<32x32xf32> loc(#loc122)
    %tmp18 = tt.broadcast %tmp11 : tensor<32x1xf32> -> tensor<32x32xf32> loc(#loc123)
    %tmp18_82 = arith.mulf %tmp18, %tmp17_81 : tensor<32x32xf32> loc(#loc123)
    %tmp19 = arith.addf %tmp6, %tmp18_82 : tensor<32x32xf32> loc(#loc124)
    gpu.barrier loc(#loc55)
    %c192_i32 = arith.constant 192 : i32 loc(#loc56)
    %c192_i32_83 = arith.constant 192 : i32 loc(#loc56)
    %cst = arith.constant dense<192> : tensor<32x1xi32> loc(#loc56)
    %0 = arith.muli %cst, %yindex_7 : tensor<32x1xi32> loc(#loc56)
    %1 = tt.broadcast %xindex_14 : tensor<1x32xi32> -> tensor<32x32xi32> loc(#loc57)
    %2 = tt.broadcast %0 : tensor<32x1xi32> -> tensor<32x32xi32> loc(#loc57)
    %3 = arith.addi %1, %2 : tensor<32x32xi32> loc(#loc57)
    %4 = tt.splat %in_out_ptr0 : !tt.ptr<f32> -> tensor<32x32x!tt.ptr<f32>> loc(#loc58)
    %5 = tt.addptr %4, %3 : tensor<32x32x!tt.ptr<f32>>, tensor<32x32xi32> loc(#loc58)
    %6 = tt.broadcast %xmask_15 : tensor<1x32xi1> -> tensor<32x32xi1> loc(#loc59)
    tt.store %5, %tmp19, %6 : tensor<32x32x!tt.ptr<f32>> loc(#loc59)
    tt.return loc(#loc60)
  } loc(#loc)
} loc(#loc)
#loc1 = loc("/NHNHOME/WORKSPACE/26msit001_A/jinhyeok/loop_TTT/lact/.cache_inductor_llm/wx/cwxqquozoj7ax6x5wjnkjnp2bfiofkbzo4xchdrmxvlihmwsdja4.py":19:13)
#loc2 = loc("/NHNHOME/WORKSPACE/26msit001_A/jinhyeok/loop_TTT/lact/.cache_inductor_llm/wx/cwxqquozoj7ax6x5wjnkjnp2bfiofkbzo4xchdrmxvlihmwsdja4.py":20:13)
#loc3 = loc("/NHNHOME/WORKSPACE/26msit001_A/jinhyeok/loop_TTT/lact/.cache_inductor_llm/wx/cwxqquozoj7ax6x5wjnkjnp2bfiofkbzo4xchdrmxvlihmwsdja4.py":21:28)
#loc4 = loc("/NHNHOME/WORKSPACE/26msit001_A/jinhyeok/loop_TTT/lact/.cache_inductor_llm/wx/cwxqquozoj7ax6x5wjnkjnp2bfiofkbzo4xchdrmxvlihmwsdja4.py":21:33)
#loc5 = loc("/NHNHOME/WORKSPACE/26msit001_A/jinhyeok/loop_TTT/lact/.cache_inductor_llm/wx/cwxqquozoj7ax6x5wjnkjnp2bfiofkbzo4xchdrmxvlihmwsdja4.py":22:36)
#loc6 = loc("/NHNHOME/WORKSPACE/26msit001_A/jinhyeok/loop_TTT/lact/.cache_inductor_llm/wx/cwxqquozoj7ax6x5wjnkjnp2bfiofkbzo4xchdrmxvlihmwsdja4.py":22:44)
#loc7 = loc("/NHNHOME/WORKSPACE/26msit001_A/jinhyeok/loop_TTT/lact/.cache_inductor_llm/wx/cwxqquozoj7ax6x5wjnkjnp2bfiofkbzo4xchdrmxvlihmwsdja4.py":22:23)
#loc8 = loc("/NHNHOME/WORKSPACE/26msit001_A/jinhyeok/loop_TTT/lact/.cache_inductor_llm/wx/cwxqquozoj7ax6x5wjnkjnp2bfiofkbzo4xchdrmxvlihmwsdja4.py":23:44)
#loc9 = loc("/NHNHOME/WORKSPACE/26msit001_A/jinhyeok/loop_TTT/lact/.cache_inductor_llm/wx/cwxqquozoj7ax6x5wjnkjnp2bfiofkbzo4xchdrmxvlihmwsdja4.py":24:28)
#loc10 = loc("/NHNHOME/WORKSPACE/26msit001_A/jinhyeok/loop_TTT/lact/.cache_inductor_llm/wx/cwxqquozoj7ax6x5wjnkjnp2bfiofkbzo4xchdrmxvlihmwsdja4.py":24:33)
#loc11 = loc("/NHNHOME/WORKSPACE/26msit001_A/jinhyeok/loop_TTT/lact/.cache_inductor_llm/wx/cwxqquozoj7ax6x5wjnkjnp2bfiofkbzo4xchdrmxvlihmwsdja4.py":25:36)
#loc12 = loc("/NHNHOME/WORKSPACE/26msit001_A/jinhyeok/loop_TTT/lact/.cache_inductor_llm/wx/cwxqquozoj7ax6x5wjnkjnp2bfiofkbzo4xchdrmxvlihmwsdja4.py":25:44)
#loc13 = loc("/NHNHOME/WORKSPACE/26msit001_A/jinhyeok/loop_TTT/lact/.cache_inductor_llm/wx/cwxqquozoj7ax6x5wjnkjnp2bfiofkbzo4xchdrmxvlihmwsdja4.py":25:23)
#loc14 = loc("/NHNHOME/WORKSPACE/26msit001_A/jinhyeok/loop_TTT/lact/.cache_inductor_llm/wx/cwxqquozoj7ax6x5wjnkjnp2bfiofkbzo4xchdrmxvlihmwsdja4.py":26:21)
#loc15 = loc("/NHNHOME/WORKSPACE/26msit001_A/jinhyeok/loop_TTT/lact/.cache_inductor_llm/wx/cwxqquozoj7ax6x5wjnkjnp2bfiofkbzo4xchdrmxvlihmwsdja4.py":29:19)
#loc16 = loc("/NHNHOME/WORKSPACE/26msit001_A/jinhyeok/loop_TTT/lact/.cache_inductor_llm/wx/cwxqquozoj7ax6x5wjnkjnp2bfiofkbzo4xchdrmxvlihmwsdja4.py":30:19)
#loc17 = loc("/NHNHOME/WORKSPACE/26msit001_A/jinhyeok/loop_TTT/lact/.cache_inductor_llm/wx/cwxqquozoj7ax6x5wjnkjnp2bfiofkbzo4xchdrmxvlihmwsdja4.py":31:43)
#loc18 = loc("/NHNHOME/WORKSPACE/26msit001_A/jinhyeok/loop_TTT/lact/.cache_inductor_llm/wx/cwxqquozoj7ax6x5wjnkjnp2bfiofkbzo4xchdrmxvlihmwsdja4.py":31:39)
#loc19 = loc("/NHNHOME/WORKSPACE/26msit001_A/jinhyeok/loop_TTT/lact/.cache_inductor_llm/wx/cwxqquozoj7ax6x5wjnkjnp2bfiofkbzo4xchdrmxvlihmwsdja4.py":31:34)
#loc20 = loc("/NHNHOME/WORKSPACE/26msit001_A/jinhyeok/loop_TTT/lact/.cache_inductor_llm/wx/cwxqquozoj7ax6x5wjnkjnp2bfiofkbzo4xchdrmxvlihmwsdja4.py":31:48)
#loc21 = loc("/NHNHOME/WORKSPACE/26msit001_A/jinhyeok/loop_TTT/lact/.cache_inductor_llm/wx/cwxqquozoj7ax6x5wjnkjnp2bfiofkbzo4xchdrmxvlihmwsdja4.py":32:39)
#loc22 = loc("/NHNHOME/WORKSPACE/26msit001_A/jinhyeok/loop_TTT/lact/.cache_inductor_llm/wx/cwxqquozoj7ax6x5wjnkjnp2bfiofkbzo4xchdrmxvlihmwsdja4.py":32:35)
#loc23 = loc("/NHNHOME/WORKSPACE/26msit001_A/jinhyeok/loop_TTT/lact/.cache_inductor_llm/wx/cwxqquozoj7ax6x5wjnkjnp2bfiofkbzo4xchdrmxvlihmwsdja4.py":32:50)
#loc24 = loc("/NHNHOME/WORKSPACE/26msit001_A/jinhyeok/loop_TTT/lact/.cache_inductor_llm/wx/cwxqquozoj7ax6x5wjnkjnp2bfiofkbzo4xchdrmxvlihmwsdja4.py":32:44)
#loc25 = loc("/NHNHOME/WORKSPACE/26msit001_A/jinhyeok/loop_TTT/lact/.cache_inductor_llm/wx/cwxqquozoj7ax6x5wjnkjnp2bfiofkbzo4xchdrmxvlihmwsdja4.py":32:30)
#loc26 = loc("/NHNHOME/WORKSPACE/26msit001_A/jinhyeok/loop_TTT/lact/.cache_inductor_llm/wx/cwxqquozoj7ax6x5wjnkjnp2bfiofkbzo4xchdrmxvlihmwsdja4.py":32:55)
#loc27 = loc("/NHNHOME/WORKSPACE/26msit001_A/jinhyeok/loop_TTT/lact/.cache_inductor_llm/wx/cwxqquozoj7ax6x5wjnkjnp2bfiofkbzo4xchdrmxvlihmwsdja4.py":32:95)
#loc28 = loc("/NHNHOME/WORKSPACE/26msit001_A/jinhyeok/loop_TTT/lact/.cache_inductor_llm/wx/cwxqquozoj7ax6x5wjnkjnp2bfiofkbzo4xchdrmxvlihmwsdja4.py":33:39)
#loc29 = loc("/NHNHOME/WORKSPACE/26msit001_A/jinhyeok/loop_TTT/lact/.cache_inductor_llm/wx/cwxqquozoj7ax6x5wjnkjnp2bfiofkbzo4xchdrmxvlihmwsdja4.py":33:35)
#loc30 = loc("/NHNHOME/WORKSPACE/26msit001_A/jinhyeok/loop_TTT/lact/.cache_inductor_llm/wx/cwxqquozoj7ax6x5wjnkjnp2bfiofkbzo4xchdrmxvlihmwsdja4.py":33:30)
#loc31 = loc("/NHNHOME/WORKSPACE/26msit001_A/jinhyeok/loop_TTT/lact/.cache_inductor_llm/wx/cwxqquozoj7ax6x5wjnkjnp2bfiofkbzo4xchdrmxvlihmwsdja4.py":33:44)
#loc32 = loc("/NHNHOME/WORKSPACE/26msit001_A/jinhyeok/loop_TTT/lact/.cache_inductor_llm/wx/cwxqquozoj7ax6x5wjnkjnp2bfiofkbzo4xchdrmxvlihmwsdja4.py":33:84)
#loc33 = loc("/NHNHOME/WORKSPACE/26msit001_A/jinhyeok/loop_TTT/lact/.cache_inductor_llm/wx/cwxqquozoj7ax6x5wjnkjnp2bfiofkbzo4xchdrmxvlihmwsdja4.py":34:30)
#loc34 = loc("/NHNHOME/WORKSPACE/26msit001_A/jinhyeok/loop_TTT/lact/.cache_inductor_llm/wx/cwxqquozoj7ax6x5wjnkjnp2bfiofkbzo4xchdrmxvlihmwsdja4.py":34:35)
#loc35 = loc("/NHNHOME/WORKSPACE/26msit001_A/jinhyeok/loop_TTT/lact/.cache_inductor_llm/wx/cwxqquozoj7ax6x5wjnkjnp2bfiofkbzo4xchdrmxvlihmwsdja4.py":35:30)
#loc36 = loc("/NHNHOME/WORKSPACE/26msit001_A/jinhyeok/loop_TTT/lact/.cache_inductor_llm/wx/cwxqquozoj7ax6x5wjnkjnp2bfiofkbzo4xchdrmxvlihmwsdja4.py":35:35)
#loc37 = loc("/NHNHOME/WORKSPACE/26msit001_A/jinhyeok/loop_TTT/lact/.cache_inductor_llm/wx/cwxqquozoj7ax6x5wjnkjnp2bfiofkbzo4xchdrmxvlihmwsdja4.py":36:31)
#loc38 = loc("/NHNHOME/WORKSPACE/26msit001_A/jinhyeok/loop_TTT/lact/.cache_inductor_llm/wx/cwxqquozoj7ax6x5wjnkjnp2bfiofkbzo4xchdrmxvlihmwsdja4.py":36:36)
#loc39 = loc("/NHNHOME/WORKSPACE/26msit001_A/jinhyeok/loop_TTT/lact/.cache_inductor_llm/wx/cwxqquozoj7ax6x5wjnkjnp2bfiofkbzo4xchdrmxvlihmwsdja4.py":37:31)
#loc40 = loc("/NHNHOME/WORKSPACE/26msit001_A/jinhyeok/loop_TTT/lact/.cache_inductor_llm/wx/cwxqquozoj7ax6x5wjnkjnp2bfiofkbzo4xchdrmxvlihmwsdja4.py":37:36)
#loc41 = loc("/NHNHOME/WORKSPACE/26msit001_A/jinhyeok/loop_TTT/lact/.cache_inductor_llm/wx/cwxqquozoj7ax6x5wjnkjnp2bfiofkbzo4xchdrmxvlihmwsdja4.py":38:40)
#loc42 = loc("/NHNHOME/WORKSPACE/26msit001_A/jinhyeok/loop_TTT/lact/.cache_inductor_llm/wx/cwxqquozoj7ax6x5wjnkjnp2bfiofkbzo4xchdrmxvlihmwsdja4.py":38:36)
#loc43 = loc("/NHNHOME/WORKSPACE/26msit001_A/jinhyeok/loop_TTT/lact/.cache_inductor_llm/wx/cwxqquozoj7ax6x5wjnkjnp2bfiofkbzo4xchdrmxvlihmwsdja4.py":38:31)
#loc44 = loc("/NHNHOME/WORKSPACE/26msit001_A/jinhyeok/loop_TTT/lact/.cache_inductor_llm/wx/cwxqquozoj7ax6x5wjnkjnp2bfiofkbzo4xchdrmxvlihmwsdja4.py":38:45)
#loc45 = loc("/NHNHOME/WORKSPACE/26msit001_A/jinhyeok/loop_TTT/lact/.cache_inductor_llm/wx/cwxqquozoj7ax6x5wjnkjnp2bfiofkbzo4xchdrmxvlihmwsdja4.py":40:18)
#loc46 = loc("/NHNHOME/WORKSPACE/26msit001_A/jinhyeok/loop_TTT/lact/.cache_inductor_llm/wx/cwxqquozoj7ax6x5wjnkjnp2bfiofkbzo4xchdrmxvlihmwsdja4.py":42:18)
#loc47 = loc("/NHNHOME/WORKSPACE/26msit001_A/jinhyeok/loop_TTT/lact/.cache_inductor_llm/wx/cwxqquozoj7ax6x5wjnkjnp2bfiofkbzo4xchdrmxvlihmwsdja4.py":43:18)
#loc48 = loc("/NHNHOME/WORKSPACE/26msit001_A/jinhyeok/loop_TTT/lact/.cache_inductor_llm/wx/cwxqquozoj7ax6x5wjnkjnp2bfiofkbzo4xchdrmxvlihmwsdja4.py":44:19)
#loc49 = loc("/NHNHOME/WORKSPACE/26msit001_A/jinhyeok/loop_TTT/lact/.cache_inductor_llm/wx/cwxqquozoj7ax6x5wjnkjnp2bfiofkbzo4xchdrmxvlihmwsdja4.py":45:12)
#loc50 = loc("/NHNHOME/WORKSPACE/26msit001_A/jinhyeok/loop_TTT/lact/.cache_inductor_llm/wx/cwxqquozoj7ax6x5wjnkjnp2bfiofkbzo4xchdrmxvlihmwsdja4.py":46:21)
#loc51 = loc("/NHNHOME/WORKSPACE/26msit001_A/jinhyeok/loop_TTT/lact/.cache_inductor_llm/wx/cwxqquozoj7ax6x5wjnkjnp2bfiofkbzo4xchdrmxvlihmwsdja4.py":47:21)
#loc52 = loc("/NHNHOME/WORKSPACE/26msit001_A/jinhyeok/loop_TTT/lact/.cache_inductor_llm/wx/cwxqquozoj7ax6x5wjnkjnp2bfiofkbzo4xchdrmxvlihmwsdja4.py":48:35)
#loc53 = loc("/NHNHOME/WORKSPACE/26msit001_A/jinhyeok/loop_TTT/lact/.cache_inductor_llm/wx/cwxqquozoj7ax6x5wjnkjnp2bfiofkbzo4xchdrmxvlihmwsdja4.py":49:20)
#loc54 = loc("/NHNHOME/WORKSPACE/26msit001_A/jinhyeok/loop_TTT/lact/.cache_inductor_llm/wx/cwxqquozoj7ax6x5wjnkjnp2bfiofkbzo4xchdrmxvlihmwsdja4.py":50:19)
#loc55 = loc("/NHNHOME/WORKSPACE/26msit001_A/jinhyeok/loop_TTT/lact/.cache_inductor_llm/wx/cwxqquozoj7ax6x5wjnkjnp2bfiofkbzo4xchdrmxvlihmwsdja4.py":51:4)
#loc56 = loc("/NHNHOME/WORKSPACE/26msit001_A/jinhyeok/loop_TTT/lact/.cache_inductor_llm/wx/cwxqquozoj7ax6x5wjnkjnp2bfiofkbzo4xchdrmxvlihmwsdja4.py":52:37)
#loc57 = loc("/NHNHOME/WORKSPACE/26msit001_A/jinhyeok/loop_TTT/lact/.cache_inductor_llm/wx/cwxqquozoj7ax6x5wjnkjnp2bfiofkbzo4xchdrmxvlihmwsdja4.py":52:33)
#loc58 = loc("/NHNHOME/WORKSPACE/26msit001_A/jinhyeok/loop_TTT/lact/.cache_inductor_llm/wx/cwxqquozoj7ax6x5wjnkjnp2bfiofkbzo4xchdrmxvlihmwsdja4.py":52:28)
#loc59 = loc("/NHNHOME/WORKSPACE/26msit001_A/jinhyeok/loop_TTT/lact/.cache_inductor_llm/wx/cwxqquozoj7ax6x5wjnkjnp2bfiofkbzo4xchdrmxvlihmwsdja4.py":52:49)
#loc60 = loc("/NHNHOME/WORKSPACE/26msit001_A/jinhyeok/loop_TTT/lact/.cache_inductor_llm/wx/cwxqquozoj7ax6x5wjnkjnp2bfiofkbzo4xchdrmxvlihmwsdja4.py":52:4)
#loc71 = loc("ynumel"(#loc1))
#loc72 = loc("xnumel"(#loc2))
#loc73 = loc("yoffset"(#loc3))
#loc74 = loc("yoffset"(#loc4))
#loc75 = loc("yindex"(#loc5))
#loc76 = loc("yindex"(#loc6))
#loc77 = loc("yindex"(#loc7))
#loc78 = loc("ymask"(#loc8))
#loc79 = loc("xoffset"(#loc9))
#loc80 = loc("xoffset"(#loc10))
#loc81 = loc("xindex"(#loc11))
#loc82 = loc("xindex"(#loc12))
#loc83 = loc("xindex"(#loc13))
#loc84 = loc("xmask"(#loc14))
#loc85 = loc("y0"(#loc15))
#loc86 = loc("y1"(#loc16))
#loc87 = loc("tmp0"(#loc17))
#loc88 = loc("tmp0"(#loc18))
#loc89 = loc("tmp0"(#loc19))
#loc90 = loc("tmp0"(#loc20))
#loc91 = loc("tmp1"(#loc21))
#loc92 = loc("tmp1"(#loc22))
#loc93 = loc("tmp1"(#loc23))
#loc94 = loc("tmp1"(#loc24))
#loc95 = loc("tmp1"(#loc25))
#loc96 = loc("tmp1"(#loc26))
#loc97 = loc("tmp1"(#loc27))
#loc98 = loc("tmp4"(#loc28))
#loc99 = loc("tmp4"(#loc29))
#loc100 = loc("tmp4"(#loc30))
#loc101 = loc("tmp4"(#loc31))
#loc102 = loc("tmp4"(#loc32))
#loc103 = loc("tmp7"(#loc33))
#loc104 = loc("tmp7"(#loc34))
#loc105 = loc("tmp8"(#loc35))
#loc106 = loc("tmp8"(#loc36))
#loc107 = loc("tmp10"(#loc37))
#loc108 = loc("tmp10"(#loc38))
#loc109 = loc("tmp12"(#loc39))
#loc110 = loc("tmp12"(#loc40))
#loc111 = loc("tmp15"(#loc41))
#loc112 = loc("tmp15"(#loc42))
#loc113 = loc("tmp15"(#loc43))
#loc114 = loc("tmp15"(#loc44))
#loc115 = loc("tmp3"(#loc45))
#loc116 = loc("tmp6"(#loc46))
#loc117 = loc("tmp9"(#loc47))
#loc118 = loc("tmp11"(#loc48))
#loc119 = loc("tmp13"(#loc49))
#loc120 = loc("tmp14"(#loc50))
#loc121 = loc("tmp16"(#loc51))
#loc122 = loc("tmp17"(#loc52))
#loc123 = loc("tmp18"(#loc53))
#loc124 = loc("tmp19"(#loc54))
