#loc = loc("/NHNHOME/WORKSPACE/26msit001_A/jinhyeok/TTT_camera_embedding/lact_llm/.cache_inductor/zp/czpi7o3spiyzg7zv6bszah33dayfrdq6nso3dbljobknlwy6qtce.py":18:0)
#loc1 = loc(unknown)
#loc26 = loc("/NHNHOME/WORKSPACE/26msit001_A/jinhyeok/TTT_camera_embedding/lact_llm/.cache_inductor/zp/czpi7o3spiyzg7zv6bszah33dayfrdq6nso3dbljobknlwy6qtce.py":46:26)
#loc38 = loc("in_ptr0"(#loc))
#loc39 = loc("in_ptr1"(#loc))
#loc40 = loc("in_ptr2"(#loc))
#loc41 = loc("in_ptr3"(#loc))
#loc42 = loc("out_ptr2"(#loc))
#loc43 = loc("out_ptr3"(#loc))
#loc44 = loc("xnumel"(#loc))
#loc45 = loc("r0_numel"(#loc))
#loc69 = loc("tmp12"(#loc26))
#loc78 = loc(callsite(#loc1 at #loc69))
module {
  tt.func public @triton_per_fused__to_copy_add_div_linalg_vector_norm_mul_transpose_41(%in_ptr0: !tt.ptr<f32> {tt.divisibility = 16 : i32} loc("in_ptr0"(#loc)), %in_ptr1: !tt.ptr<f32> {tt.divisibility = 16 : i32} loc("in_ptr1"(#loc)), %in_ptr2: !tt.ptr<bf16> {tt.divisibility = 16 : i32} loc("in_ptr2"(#loc)), %in_ptr3: !tt.ptr<f32> {tt.divisibility = 16 : i32} loc("in_ptr3"(#loc)), %out_ptr2: !tt.ptr<bf16> {tt.divisibility = 16 : i32} loc("out_ptr2"(#loc)), %out_ptr3: !tt.ptr<bf16> {tt.divisibility = 16 : i32} loc("out_ptr3"(#loc)), %xnumel: i32 {tt.divisibility = 16 : i32} loc("xnumel"(#loc)), %r0_numel: i32 {tt.divisibility = 16 : i32} loc("r0_numel"(#loc))) attributes {noinline = false} {
    %c192_i32 = arith.constant 192 : i32 loc(#loc1)
    %xmask = arith.constant 6144 : i32 loc(#loc46)
    %tmp4 = arith.constant dense<0.000000e+00> : tensor<1x256xbf16> loc(#loc47)
    %tmp15 = arith.constant dense<9.99999974E-6> : tensor<1x1xf32> loc(#loc48)
    %tmp3 = arith.constant dense<2.836600e+00> : tensor<1x256xf32> loc(#loc49)
    %cst = arith.constant dense<0.000000e+00> : tensor<1x256xf32> loc(#loc1)
    %r0_mask = arith.constant dense<192> : tensor<1x256xi32> loc(#loc50)
    %xoffset = tt.get_program_id x : i32 loc(#loc51)
    %xmask_0 = arith.cmpi slt, %xoffset, %xmask : i32 loc(#loc46)
    %xmask_1 = tt.splat %xmask_0 : i1 -> tensor<1x1xi1> loc(#loc46)
    %r0_index = tt.make_range {end = 256 : i32, start = 0 : i32} : tensor<256xi32> loc(#loc52)
    %r0_index_2 = tt.expand_dims %r0_index {axis = 0 : i32} : tensor<256xi32> -> tensor<1x256xi32> loc(#loc53)
    %r0_mask_3 = arith.cmpi slt, %r0_index_2, %r0_mask : tensor<1x256xi32> loc(#loc50)
    %tmp0 = arith.muli %xoffset, %c192_i32 : i32 loc(#loc54)
    %tmp0_4 = tt.splat %tmp0 : i32 -> tensor<1x256xi32> loc(#loc75)
    %tmp0_5 = arith.addi %r0_index_2, %tmp0_4 : tensor<1x256xi32> loc(#loc55)
    %tmp0_6 = tt.splat %in_ptr0 : !tt.ptr<f32> -> tensor<1x256x!tt.ptr<f32>> loc(#loc56)
    %tmp0_7 = tt.addptr %tmp0_6, %tmp0_5 : tensor<1x256x!tt.ptr<f32>>, tensor<1x256xi32> loc(#loc56)
    %tmp0_8 = tt.splat %xmask_0 : i1 -> tensor<1x256xi1> loc(#loc76)
    %tmp0_9 = arith.andi %r0_mask_3, %tmp0_8 : tensor<1x256xi1> loc(#loc57)
    %tmp0_10 = tt.load %tmp0_7, %tmp0_9, %cst : tensor<1x256x!tt.ptr<f32>> loc(#loc58)
    %tmp1 = tt.splat %in_ptr1 : !tt.ptr<f32> -> tensor<1x256x!tt.ptr<f32>> loc(#loc59)
    %tmp1_11 = tt.addptr %tmp1, %tmp0_5 : tensor<1x256x!tt.ptr<f32>>, tensor<1x256xi32> loc(#loc59)
    %tmp1_12 = tt.load %tmp1_11, %tmp0_9, %cst : tensor<1x256x!tt.ptr<f32>> loc(#loc60)
    %tmp4_13 = tt.splat %in_ptr2 : !tt.ptr<bf16> -> tensor<1x256x!tt.ptr<bf16>> loc(#loc61)
    %tmp4_14 = tt.addptr %tmp4_13, %tmp0_5 : tensor<1x256x!tt.ptr<bf16>>, tensor<1x256xi32> loc(#loc61)
    %tmp4_15 = tt.load %tmp4_14, %tmp0_9, %tmp4 : tensor<1x256x!tt.ptr<bf16>> loc(#loc47)
    %tmp4_16 = arith.extf %tmp4_15 : tensor<1x256xbf16> to tensor<1x256xf32> loc(#loc62)
    %tmp17 = tt.addptr %in_ptr3, %xoffset : !tt.ptr<f32>, i32 loc(#loc63)
    %tmp17_17 = tt.splat %tmp17 : !tt.ptr<f32> -> tensor<1x1x!tt.ptr<f32>> loc(#loc63)
    %tmp17_18 = tt.load %tmp17_17, %xmask_1 evictionPolicy = evict_last : tensor<1x1x!tt.ptr<f32>> loc(#loc64)
    %tmp3_19 = arith.mulf %tmp1_12, %tmp3 : tensor<1x256xf32> loc(#loc49)
    %tmp6 = arith.addf %tmp3_19, %tmp4_16 : tensor<1x256xf32> loc(#loc65)
    %tmp7 = arith.addf %tmp0_10, %tmp6 : tensor<1x256xf32> loc(#loc66)
    %tmp8 = arith.mulf %tmp7, %tmp7 : tensor<1x256xf32> loc(#loc67)
    %tmp11 = arith.select %tmp0_9, %tmp8, %cst : tensor<1x256xi1>, tensor<1x256xf32> loc(#loc68)
    %tmp12 = "tt.reduce"(%tmp11) <{axis = 1 : i32}> ({
    ^bb0(%tmp12_24: f32 loc(callsite(#loc1 at #loc69)), %tmp12_25: f32 loc(callsite(#loc1 at #loc69))):
      %tmp12_26 = arith.addf %tmp12_24, %tmp12_25 : f32 loc(#loc79)
      tt.reduce.return %tmp12_26 : f32 loc(#loc77)
    }) : (tensor<1x256xf32>) -> tensor<1xf32> loc(#loc77)
    %tmp12_20 = tt.expand_dims %tmp12 {axis = 1 : i32} : tensor<1xf32> -> tensor<1x1xf32> loc(#loc70)
    %tmp13 = tt.extern_elementwise %tmp12_20 {libname = "", libpath = "", pure = true, symbol = "__nv_sqrtf"} : (tensor<1x1xf32>) -> tensor<1x1xf32> loc(#loc71)
    %tmp15_21 = arith.addf %tmp13, %tmp15 : tensor<1x1xf32> loc(#loc48)
    %tmp16 = tt.broadcast %tmp15_21 : tensor<1x1xf32> -> tensor<1x256xf32> loc(#loc72)
    %tmp16_22 = arith.divf %tmp7, %tmp16 : tensor<1x256xf32> loc(#loc72)
    %tmp18 = tt.extern_elementwise %tmp17_18 {libname = "", libpath = "", pure = true, symbol = "__nv_sqrtf"} : (tensor<1x1xf32>) -> tensor<1x1xf32> loc(#loc73)
    %tmp19 = tt.broadcast %tmp18 : tensor<1x1xf32> -> tensor<1x256xf32> loc(#loc74)
    %tmp19_23 = arith.mulf %tmp16_22, %tmp19 : tensor<1x256xf32> loc(#loc74)
    %0 = tt.splat %out_ptr2 : !tt.ptr<bf16> -> tensor<1x256x!tt.ptr<bf16>> loc(#loc33)
    %1 = tt.addptr %0, %tmp0_5 : tensor<1x256x!tt.ptr<bf16>>, tensor<1x256xi32> loc(#loc33)
    %2 = arith.truncf %tmp19_23 : tensor<1x256xf32> to tensor<1x256xbf16> loc(#loc34)
    tt.store %1, %2, %tmp0_9 : tensor<1x256x!tt.ptr<bf16>> loc(#loc34)
    %3 = tt.splat %out_ptr3 : !tt.ptr<bf16> -> tensor<1x256x!tt.ptr<bf16>> loc(#loc35)
    %4 = tt.addptr %3, %tmp0_5 : tensor<1x256x!tt.ptr<bf16>>, tensor<1x256xi32> loc(#loc35)
    tt.store %4, %2, %tmp0_9 : tensor<1x256x!tt.ptr<bf16>> loc(#loc36)
    tt.return loc(#loc37)
  } loc(#loc)
} loc(#loc)
#loc2 = loc("/NHNHOME/WORKSPACE/26msit001_A/jinhyeok/TTT_camera_embedding/lact_llm/.cache_inductor/zp/czpi7o3spiyzg7zv6bszah33dayfrdq6nso3dbljobknlwy6qtce.py":26:21)
#loc3 = loc("/NHNHOME/WORKSPACE/26msit001_A/jinhyeok/TTT_camera_embedding/lact_llm/.cache_inductor/zp/czpi7o3spiyzg7zv6bszah33dayfrdq6nso3dbljobknlwy6qtce.py":36:46)
#loc4 = loc("/NHNHOME/WORKSPACE/26msit001_A/jinhyeok/TTT_camera_embedding/lact_llm/.cache_inductor/zp/czpi7o3spiyzg7zv6bszah33dayfrdq6nso3dbljobknlwy6qtce.py":49:20)
#loc5 = loc("/NHNHOME/WORKSPACE/26msit001_A/jinhyeok/TTT_camera_embedding/lact_llm/.cache_inductor/zp/czpi7o3spiyzg7zv6bszah33dayfrdq6nso3dbljobknlwy6qtce.py":39:18)
#loc6 = loc("/NHNHOME/WORKSPACE/26msit001_A/jinhyeok/TTT_camera_embedding/lact_llm/.cache_inductor/zp/czpi7o3spiyzg7zv6bszah33dayfrdq6nso3dbljobknlwy6qtce.py":29:25)
#loc7 = loc("/NHNHOME/WORKSPACE/26msit001_A/jinhyeok/TTT_camera_embedding/lact_llm/.cache_inductor/zp/czpi7o3spiyzg7zv6bszah33dayfrdq6nso3dbljobknlwy6qtce.py":24:28)
#loc8 = loc("/NHNHOME/WORKSPACE/26msit001_A/jinhyeok/TTT_camera_embedding/lact_llm/.cache_inductor/zp/czpi7o3spiyzg7zv6bszah33dayfrdq6nso3dbljobknlwy6qtce.py":27:28)
#loc9 = loc("/NHNHOME/WORKSPACE/26msit001_A/jinhyeok/TTT_camera_embedding/lact_llm/.cache_inductor/zp/czpi7o3spiyzg7zv6bszah33dayfrdq6nso3dbljobknlwy6qtce.py":27:38)
#loc10 = loc("/NHNHOME/WORKSPACE/26msit001_A/jinhyeok/TTT_camera_embedding/lact_llm/.cache_inductor/zp/czpi7o3spiyzg7zv6bszah33dayfrdq6nso3dbljobknlwy6qtce.py":34:41)
#loc11 = loc("/NHNHOME/WORKSPACE/26msit001_A/jinhyeok/TTT_camera_embedding/lact_llm/.cache_inductor/zp/czpi7o3spiyzg7zv6bszah33dayfrdq6nso3dbljobknlwy6qtce.py":34:37)
#loc12 = loc("/NHNHOME/WORKSPACE/26msit001_A/jinhyeok/TTT_camera_embedding/lact_llm/.cache_inductor/zp/czpi7o3spiyzg7zv6bszah33dayfrdq6nso3dbljobknlwy6qtce.py":34:30)
#loc13 = loc("/NHNHOME/WORKSPACE/26msit001_A/jinhyeok/TTT_camera_embedding/lact_llm/.cache_inductor/zp/czpi7o3spiyzg7zv6bszah33dayfrdq6nso3dbljobknlwy6qtce.py":34:56)
#loc14 = loc("/NHNHOME/WORKSPACE/26msit001_A/jinhyeok/TTT_camera_embedding/lact_llm/.cache_inductor/zp/czpi7o3spiyzg7zv6bszah33dayfrdq6nso3dbljobknlwy6qtce.py":34:46)
#loc15 = loc("/NHNHOME/WORKSPACE/26msit001_A/jinhyeok/TTT_camera_embedding/lact_llm/.cache_inductor/zp/czpi7o3spiyzg7zv6bszah33dayfrdq6nso3dbljobknlwy6qtce.py":35:30)
#loc16 = loc("/NHNHOME/WORKSPACE/26msit001_A/jinhyeok/TTT_camera_embedding/lact_llm/.cache_inductor/zp/czpi7o3spiyzg7zv6bszah33dayfrdq6nso3dbljobknlwy6qtce.py":35:46)
#loc17 = loc("/NHNHOME/WORKSPACE/26msit001_A/jinhyeok/TTT_camera_embedding/lact_llm/.cache_inductor/zp/czpi7o3spiyzg7zv6bszah33dayfrdq6nso3dbljobknlwy6qtce.py":36:30)
#loc18 = loc("/NHNHOME/WORKSPACE/26msit001_A/jinhyeok/TTT_camera_embedding/lact_llm/.cache_inductor/zp/czpi7o3spiyzg7zv6bszah33dayfrdq6nso3dbljobknlwy6qtce.py":36:77)
#loc19 = loc("/NHNHOME/WORKSPACE/26msit001_A/jinhyeok/TTT_camera_embedding/lact_llm/.cache_inductor/zp/czpi7o3spiyzg7zv6bszah33dayfrdq6nso3dbljobknlwy6qtce.py":37:31)
#loc20 = loc("/NHNHOME/WORKSPACE/26msit001_A/jinhyeok/TTT_camera_embedding/lact_llm/.cache_inductor/zp/czpi7o3spiyzg7zv6bszah33dayfrdq6nso3dbljobknlwy6qtce.py":37:36)
#loc21 = loc("/NHNHOME/WORKSPACE/26msit001_A/jinhyeok/TTT_camera_embedding/lact_llm/.cache_inductor/zp/czpi7o3spiyzg7zv6bszah33dayfrdq6nso3dbljobknlwy6qtce.py":41:18)
#loc22 = loc("/NHNHOME/WORKSPACE/26msit001_A/jinhyeok/TTT_camera_embedding/lact_llm/.cache_inductor/zp/czpi7o3spiyzg7zv6bszah33dayfrdq6nso3dbljobknlwy6qtce.py":42:18)
#loc23 = loc("/NHNHOME/WORKSPACE/26msit001_A/jinhyeok/TTT_camera_embedding/lact_llm/.cache_inductor/zp/czpi7o3spiyzg7zv6bszah33dayfrdq6nso3dbljobknlwy6qtce.py":43:18)
#loc24 = loc("/NHNHOME/WORKSPACE/26msit001_A/jinhyeok/TTT_camera_embedding/lact_llm/.cache_inductor/zp/czpi7o3spiyzg7zv6bszah33dayfrdq6nso3dbljobknlwy6qtce.py":45:44)
#loc25 = loc("/NHNHOME/WORKSPACE/26msit001_A/jinhyeok/TTT_camera_embedding/.venv_llm/lib/python3.12/site-packages/triton/language/standard.py":291:36)
#loc27 = loc("/NHNHOME/WORKSPACE/26msit001_A/jinhyeok/TTT_camera_embedding/.venv_llm/lib/python3.12/site-packages/triton/language/standard.py":261:15)
#loc28 = loc("/NHNHOME/WORKSPACE/26msit001_A/jinhyeok/TTT_camera_embedding/lact_llm/.cache_inductor/zp/czpi7o3spiyzg7zv6bszah33dayfrdq6nso3dbljobknlwy6qtce.py":46:29)
#loc29 = loc("/NHNHOME/WORKSPACE/26msit001_A/jinhyeok/TTT_camera_embedding/lact_llm/.cache_inductor/zp/czpi7o3spiyzg7zv6bszah33dayfrdq6nso3dbljobknlwy6qtce.py":47:27)
#loc30 = loc("/NHNHOME/WORKSPACE/26msit001_A/jinhyeok/TTT_camera_embedding/lact_llm/.cache_inductor/zp/czpi7o3spiyzg7zv6bszah33dayfrdq6nso3dbljobknlwy6qtce.py":50:20)
#loc31 = loc("/NHNHOME/WORKSPACE/26msit001_A/jinhyeok/TTT_camera_embedding/lact_llm/.cache_inductor/zp/czpi7o3spiyzg7zv6bszah33dayfrdq6nso3dbljobknlwy6qtce.py":51:27)
#loc32 = loc("/NHNHOME/WORKSPACE/26msit001_A/jinhyeok/TTT_camera_embedding/lact_llm/.cache_inductor/zp/czpi7o3spiyzg7zv6bszah33dayfrdq6nso3dbljobknlwy6qtce.py":52:20)
#loc33 = loc("/NHNHOME/WORKSPACE/26msit001_A/jinhyeok/TTT_camera_embedding/lact_llm/.cache_inductor/zp/czpi7o3spiyzg7zv6bszah33dayfrdq6nso3dbljobknlwy6qtce.py":54:25)
#loc34 = loc("/NHNHOME/WORKSPACE/26msit001_A/jinhyeok/TTT_camera_embedding/lact_llm/.cache_inductor/zp/czpi7o3spiyzg7zv6bszah33dayfrdq6nso3dbljobknlwy6qtce.py":54:48)
#loc35 = loc("/NHNHOME/WORKSPACE/26msit001_A/jinhyeok/TTT_camera_embedding/lact_llm/.cache_inductor/zp/czpi7o3spiyzg7zv6bszah33dayfrdq6nso3dbljobknlwy6qtce.py":55:25)
#loc36 = loc("/NHNHOME/WORKSPACE/26msit001_A/jinhyeok/TTT_camera_embedding/lact_llm/.cache_inductor/zp/czpi7o3spiyzg7zv6bszah33dayfrdq6nso3dbljobknlwy6qtce.py":55:48)
#loc37 = loc("/NHNHOME/WORKSPACE/26msit001_A/jinhyeok/TTT_camera_embedding/lact_llm/.cache_inductor/zp/czpi7o3spiyzg7zv6bszah33dayfrdq6nso3dbljobknlwy6qtce.py":55:4)
#loc46 = loc("xmask"(#loc2))
#loc47 = loc("tmp4"(#loc3))
#loc48 = loc("tmp15"(#loc4))
#loc49 = loc("tmp3"(#loc5))
#loc50 = loc("r0_mask"(#loc6))
#loc51 = loc("xoffset"(#loc7))
#loc52 = loc("r0_index"(#loc8))
#loc53 = loc("r0_index"(#loc9))
#loc54 = loc("tmp0"(#loc10))
#loc55 = loc("tmp0"(#loc11))
#loc56 = loc("tmp0"(#loc12))
#loc57 = loc("tmp0"(#loc13))
#loc58 = loc("tmp0"(#loc14))
#loc59 = loc("tmp1"(#loc15))
#loc60 = loc("tmp1"(#loc16))
#loc61 = loc("tmp4"(#loc17))
#loc62 = loc("tmp4"(#loc18))
#loc63 = loc("tmp17"(#loc19))
#loc64 = loc("tmp17"(#loc20))
#loc65 = loc("tmp6"(#loc21))
#loc66 = loc("tmp7"(#loc22))
#loc67 = loc("tmp8"(#loc23))
#loc68 = loc("tmp11"(#loc24))
#loc70 = loc("tmp12"(#loc28))
#loc71 = loc("tmp13"(#loc29))
#loc72 = loc("tmp16"(#loc30))
#loc73 = loc("tmp18"(#loc31))
#loc74 = loc("tmp19"(#loc32))
#loc75 = loc(fused[#loc55, #loc54])
#loc76 = loc(fused[#loc57, #loc46])
#loc77 = loc(callsite(#loc25 at #loc69))
#loc79 = loc(callsite(#loc27 at #loc77))
