#loc = loc("/NHNHOME/WORKSPACE/26msit001_A/jinhyeok/loop_TTT/lact/.cache_inductor_llm/nj/cnjex7h4mb5eo6auxqvpl7sur6twx4kx3dcebstmi26d664quxec.py":18:0)
#loc20 = loc("in_ptr0"(#loc))
#loc21 = loc("in_ptr1"(#loc))
#loc22 = loc("out_ptr0"(#loc))
#loc23 = loc("out_ptr1"(#loc))
#loc24 = loc("xnumel"(#loc))
module {
  tt.func public @triton_poi_fused__to_copy_add_div_transpose_40(%in_ptr0: !tt.ptr<f32> {tt.divisibility = 16 : i32} loc("in_ptr0"(#loc)), %in_ptr1: !tt.ptr<f32> {tt.divisibility = 16 : i32} loc("in_ptr1"(#loc)), %out_ptr0: !tt.ptr<bf16> {tt.divisibility = 16 : i32} loc("out_ptr0"(#loc)), %out_ptr1: !tt.ptr<bf16> {tt.divisibility = 16 : i32} loc("out_ptr1"(#loc)), %xnumel: i32 {tt.divisibility = 16 : i32} loc("xnumel"(#loc))) attributes {noinline = false} {
    %xnumel_0 = arith.constant 294912 : i32 loc(#loc25)
    %xoffset = tt.get_program_id x : i32 loc(#loc26)
    %xoffset_1 = arith.constant 512 : i32 loc(#loc27)
    %xoffset_2 = arith.constant 512 : i32 loc(#loc27)
    %xoffset_3 = arith.muli %xoffset, %xoffset_2 : i32 loc(#loc27)
    %xindex = tt.make_range {end = 512 : i32, start = 0 : i32} : tensor<512xi32> loc(#loc28)
    %xindex_4 = tt.splat %xoffset_3 : i32 -> tensor<512xi32> loc(#loc29)
    %xindex_5 = arith.addi %xindex_4, %xindex : tensor<512xi32> loc(#loc29)
    %xmask = arith.constant true loc(#loc30)
    %xmask_6 = arith.constant dense<true> : tensor<512xi1> loc(#loc30)
    %x1 = arith.constant 36864 : i32 loc(#loc31)
    %x1_7 = arith.constant 36864 : i32 loc(#loc31)
    %x1_8 = arith.constant dense<36864> : tensor<512xi32> loc(#loc31)
    %x1_9 = arith.divsi %xindex_5, %x1_8 : tensor<512xi32> loc(#loc31)
    %tmp0 = tt.splat %in_ptr0 : !tt.ptr<f32> -> tensor<512x!tt.ptr<f32>> loc(#loc32)
    %tmp0_10 = tt.addptr %tmp0, %xindex_5 : tensor<512x!tt.ptr<f32>>, tensor<512xi32> loc(#loc32)
    %tmp0_11 = tt.load %tmp0_10 : tensor<512x!tt.ptr<f32>> loc(#loc33)
    %tmp3 = tt.splat %in_ptr1 : !tt.ptr<f32> -> tensor<512x!tt.ptr<f32>> loc(#loc34)
    %tmp3_12 = tt.addptr %tmp3, %x1_9 : tensor<512x!tt.ptr<f32>>, tensor<512xi32> loc(#loc34)
    %tmp3_13 = tt.load %tmp3_12 evictionPolicy = evict_last : tensor<512x!tt.ptr<f32>> loc(#loc35)
    %tmp4 = arith.constant 1.000000e-07 : f32 loc(#loc36)
    %tmp5 = arith.constant dense<1.000000e-07> : tensor<512xf32> loc(#loc37)
    %tmp5_14 = arith.addf %tmp3_13, %tmp5 : tensor<512xf32> loc(#loc37)
    %tmp6 = arith.divf %tmp0_11, %tmp5_14 : tensor<512xf32> loc(#loc38)
    %0 = tt.splat %out_ptr0 : !tt.ptr<bf16> -> tensor<512x!tt.ptr<bf16>> loc(#loc15)
    %1 = tt.addptr %0, %xindex_5 : tensor<512x!tt.ptr<bf16>>, tensor<512xi32> loc(#loc15)
    %2 = arith.truncf %tmp6 : tensor<512xf32> to tensor<512xbf16> loc(#loc16)
    tt.store %1, %2 : tensor<512x!tt.ptr<bf16>> loc(#loc16)
    %3 = tt.splat %out_ptr1 : !tt.ptr<bf16> -> tensor<512x!tt.ptr<bf16>> loc(#loc17)
    %4 = tt.addptr %3, %xindex_5 : tensor<512x!tt.ptr<bf16>>, tensor<512xi32> loc(#loc17)
    %5 = arith.truncf %tmp6 : tensor<512xf32> to tensor<512xbf16> loc(#loc18)
    tt.store %4, %5 : tensor<512x!tt.ptr<bf16>> loc(#loc18)
    tt.return loc(#loc19)
  } loc(#loc)
} loc(#loc)
#loc1 = loc("/NHNHOME/WORKSPACE/26msit001_A/jinhyeok/loop_TTT/lact/.cache_inductor_llm/nj/cnjex7h4mb5eo6auxqvpl7sur6twx4kx3dcebstmi26d664quxec.py":19:13)
#loc2 = loc("/NHNHOME/WORKSPACE/26msit001_A/jinhyeok/loop_TTT/lact/.cache_inductor_llm/nj/cnjex7h4mb5eo6auxqvpl7sur6twx4kx3dcebstmi26d664quxec.py":20:28)
#loc3 = loc("/NHNHOME/WORKSPACE/26msit001_A/jinhyeok/loop_TTT/lact/.cache_inductor_llm/nj/cnjex7h4mb5eo6auxqvpl7sur6twx4kx3dcebstmi26d664quxec.py":20:33)
#loc4 = loc("/NHNHOME/WORKSPACE/26msit001_A/jinhyeok/loop_TTT/lact/.cache_inductor_llm/nj/cnjex7h4mb5eo6auxqvpl7sur6twx4kx3dcebstmi26d664quxec.py":21:36)
#loc5 = loc("/NHNHOME/WORKSPACE/26msit001_A/jinhyeok/loop_TTT/lact/.cache_inductor_llm/nj/cnjex7h4mb5eo6auxqvpl7sur6twx4kx3dcebstmi26d664quxec.py":21:23)
#loc6 = loc("/NHNHOME/WORKSPACE/26msit001_A/jinhyeok/loop_TTT/lact/.cache_inductor_llm/nj/cnjex7h4mb5eo6auxqvpl7sur6twx4kx3dcebstmi26d664quxec.py":22:36)
#loc7 = loc("/NHNHOME/WORKSPACE/26msit001_A/jinhyeok/loop_TTT/lact/.cache_inductor_llm/nj/cnjex7h4mb5eo6auxqvpl7sur6twx4kx3dcebstmi26d664quxec.py":24:19)
#loc8 = loc("/NHNHOME/WORKSPACE/26msit001_A/jinhyeok/loop_TTT/lact/.cache_inductor_llm/nj/cnjex7h4mb5eo6auxqvpl7sur6twx4kx3dcebstmi26d664quxec.py":25:30)
#loc9 = loc("/NHNHOME/WORKSPACE/26msit001_A/jinhyeok/loop_TTT/lact/.cache_inductor_llm/nj/cnjex7h4mb5eo6auxqvpl7sur6twx4kx3dcebstmi26d664quxec.py":25:35)
#loc10 = loc("/NHNHOME/WORKSPACE/26msit001_A/jinhyeok/loop_TTT/lact/.cache_inductor_llm/nj/cnjex7h4mb5eo6auxqvpl7sur6twx4kx3dcebstmi26d664quxec.py":26:30)
#loc11 = loc("/NHNHOME/WORKSPACE/26msit001_A/jinhyeok/loop_TTT/lact/.cache_inductor_llm/nj/cnjex7h4mb5eo6auxqvpl7sur6twx4kx3dcebstmi26d664quxec.py":26:35)
#loc12 = loc("/NHNHOME/WORKSPACE/26msit001_A/jinhyeok/loop_TTT/lact/.cache_inductor_llm/nj/cnjex7h4mb5eo6auxqvpl7sur6twx4kx3dcebstmi26d664quxec.py":29:11)
#loc13 = loc("/NHNHOME/WORKSPACE/26msit001_A/jinhyeok/loop_TTT/lact/.cache_inductor_llm/nj/cnjex7h4mb5eo6auxqvpl7sur6twx4kx3dcebstmi26d664quxec.py":30:18)
#loc14 = loc("/NHNHOME/WORKSPACE/26msit001_A/jinhyeok/loop_TTT/lact/.cache_inductor_llm/nj/cnjex7h4mb5eo6auxqvpl7sur6twx4kx3dcebstmi26d664quxec.py":31:19)
#loc15 = loc("/NHNHOME/WORKSPACE/26msit001_A/jinhyeok/loop_TTT/lact/.cache_inductor_llm/nj/cnjex7h4mb5eo6auxqvpl7sur6twx4kx3dcebstmi26d664quxec.py":33:25)
#loc16 = loc("/NHNHOME/WORKSPACE/26msit001_A/jinhyeok/loop_TTT/lact/.cache_inductor_llm/nj/cnjex7h4mb5eo6auxqvpl7sur6twx4kx3dcebstmi26d664quxec.py":33:36)
#loc17 = loc("/NHNHOME/WORKSPACE/26msit001_A/jinhyeok/loop_TTT/lact/.cache_inductor_llm/nj/cnjex7h4mb5eo6auxqvpl7sur6twx4kx3dcebstmi26d664quxec.py":34:25)
#loc18 = loc("/NHNHOME/WORKSPACE/26msit001_A/jinhyeok/loop_TTT/lact/.cache_inductor_llm/nj/cnjex7h4mb5eo6auxqvpl7sur6twx4kx3dcebstmi26d664quxec.py":34:36)
#loc19 = loc("/NHNHOME/WORKSPACE/26msit001_A/jinhyeok/loop_TTT/lact/.cache_inductor_llm/nj/cnjex7h4mb5eo6auxqvpl7sur6twx4kx3dcebstmi26d664quxec.py":34:4)
#loc25 = loc("xnumel"(#loc1))
#loc26 = loc("xoffset"(#loc2))
#loc27 = loc("xoffset"(#loc3))
#loc28 = loc("xindex"(#loc4))
#loc29 = loc("xindex"(#loc5))
#loc30 = loc("xmask"(#loc6))
#loc31 = loc("x1"(#loc7))
#loc32 = loc("tmp0"(#loc8))
#loc33 = loc("tmp0"(#loc9))
#loc34 = loc("tmp3"(#loc10))
#loc35 = loc("tmp3"(#loc11))
#loc36 = loc("tmp4"(#loc12))
#loc37 = loc("tmp5"(#loc13))
#loc38 = loc("tmp6"(#loc14))
