#loc = loc("/NHNHOME/WORKSPACE/26msit001_A/jinhyeok/loop_TTT/lact/.cache_inductor_llm/nj/cnjex7h4mb5eo6auxqvpl7sur6twx4kx3dcebstmi26d664quxec.py":18:0)
#loc18 = loc("in_ptr0"(#loc))
#loc19 = loc("in_ptr1"(#loc))
#loc20 = loc("out_ptr0"(#loc))
#loc21 = loc("out_ptr1"(#loc))
#loc22 = loc("xnumel"(#loc))
module {
  tt.func public @triton_poi_fused__to_copy_add_div_transpose_40(%in_ptr0: !tt.ptr<f32> {tt.divisibility = 16 : i32} loc("in_ptr0"(#loc)), %in_ptr1: !tt.ptr<f32> {tt.divisibility = 16 : i32} loc("in_ptr1"(#loc)), %out_ptr0: !tt.ptr<bf16> {tt.divisibility = 16 : i32} loc("out_ptr0"(#loc)), %out_ptr1: !tt.ptr<bf16> {tt.divisibility = 16 : i32} loc("out_ptr1"(#loc)), %xnumel: i32 {tt.divisibility = 16 : i32} loc("xnumel"(#loc))) attributes {noinline = false} {
    %tmp5 = arith.constant dense<1.000000e-07> : tensor<512xf32> loc(#loc23)
    %x1 = arith.constant dense<36864> : tensor<512xi32> loc(#loc24)
    %c512_i32 = arith.constant 512 : i32 loc(#loc3)
    %xoffset = tt.get_program_id x : i32 loc(#loc25)
    %xoffset_0 = arith.muli %xoffset, %c512_i32 : i32 loc(#loc26)
    %xindex = tt.make_range {end = 512 : i32, start = 0 : i32} : tensor<512xi32> loc(#loc27)
    %xindex_1 = tt.splat %xoffset_0 : i32 -> tensor<512xi32> loc(#loc28)
    %xindex_2 = arith.addi %xindex_1, %xindex : tensor<512xi32> loc(#loc28)
    %x1_3 = arith.divsi %xindex_2, %x1 : tensor<512xi32> loc(#loc24)
    %tmp0 = tt.splat %in_ptr0 : !tt.ptr<f32> -> tensor<512x!tt.ptr<f32>> loc(#loc29)
    %tmp0_4 = tt.addptr %tmp0, %xindex_2 : tensor<512x!tt.ptr<f32>>, tensor<512xi32> loc(#loc29)
    %tmp0_5 = tt.load %tmp0_4 : tensor<512x!tt.ptr<f32>> loc(#loc30)
    %tmp3 = tt.splat %in_ptr1 : !tt.ptr<f32> -> tensor<512x!tt.ptr<f32>> loc(#loc31)
    %tmp3_6 = tt.addptr %tmp3, %x1_3 : tensor<512x!tt.ptr<f32>>, tensor<512xi32> loc(#loc31)
    %tmp3_7 = tt.load %tmp3_6 evictionPolicy = evict_last : tensor<512x!tt.ptr<f32>> loc(#loc32)
    %tmp5_8 = arith.addf %tmp3_7, %tmp5 : tensor<512xf32> loc(#loc23)
    %tmp6 = arith.divf %tmp0_5, %tmp5_8 : tensor<512xf32> loc(#loc33)
    %0 = tt.splat %out_ptr0 : !tt.ptr<bf16> -> tensor<512x!tt.ptr<bf16>> loc(#loc13)
    %1 = tt.addptr %0, %xindex_2 : tensor<512x!tt.ptr<bf16>>, tensor<512xi32> loc(#loc13)
    %2 = arith.truncf %tmp6 : tensor<512xf32> to tensor<512xbf16> loc(#loc14)
    tt.store %1, %2 : tensor<512x!tt.ptr<bf16>> loc(#loc14)
    %3 = tt.splat %out_ptr1 : !tt.ptr<bf16> -> tensor<512x!tt.ptr<bf16>> loc(#loc15)
    %4 = tt.addptr %3, %xindex_2 : tensor<512x!tt.ptr<bf16>>, tensor<512xi32> loc(#loc15)
    tt.store %4, %2 : tensor<512x!tt.ptr<bf16>> loc(#loc16)
    tt.return loc(#loc17)
  } loc(#loc)
} loc(#loc)
#loc1 = loc("/NHNHOME/WORKSPACE/26msit001_A/jinhyeok/loop_TTT/lact/.cache_inductor_llm/nj/cnjex7h4mb5eo6auxqvpl7sur6twx4kx3dcebstmi26d664quxec.py":30:18)
#loc2 = loc("/NHNHOME/WORKSPACE/26msit001_A/jinhyeok/loop_TTT/lact/.cache_inductor_llm/nj/cnjex7h4mb5eo6auxqvpl7sur6twx4kx3dcebstmi26d664quxec.py":24:19)
#loc3 = loc(unknown)
#loc4 = loc("/NHNHOME/WORKSPACE/26msit001_A/jinhyeok/loop_TTT/lact/.cache_inductor_llm/nj/cnjex7h4mb5eo6auxqvpl7sur6twx4kx3dcebstmi26d664quxec.py":20:28)
#loc5 = loc("/NHNHOME/WORKSPACE/26msit001_A/jinhyeok/loop_TTT/lact/.cache_inductor_llm/nj/cnjex7h4mb5eo6auxqvpl7sur6twx4kx3dcebstmi26d664quxec.py":20:33)
#loc6 = loc("/NHNHOME/WORKSPACE/26msit001_A/jinhyeok/loop_TTT/lact/.cache_inductor_llm/nj/cnjex7h4mb5eo6auxqvpl7sur6twx4kx3dcebstmi26d664quxec.py":21:36)
#loc7 = loc("/NHNHOME/WORKSPACE/26msit001_A/jinhyeok/loop_TTT/lact/.cache_inductor_llm/nj/cnjex7h4mb5eo6auxqvpl7sur6twx4kx3dcebstmi26d664quxec.py":21:23)
#loc8 = loc("/NHNHOME/WORKSPACE/26msit001_A/jinhyeok/loop_TTT/lact/.cache_inductor_llm/nj/cnjex7h4mb5eo6auxqvpl7sur6twx4kx3dcebstmi26d664quxec.py":25:30)
#loc9 = loc("/NHNHOME/WORKSPACE/26msit001_A/jinhyeok/loop_TTT/lact/.cache_inductor_llm/nj/cnjex7h4mb5eo6auxqvpl7sur6twx4kx3dcebstmi26d664quxec.py":25:35)
#loc10 = loc("/NHNHOME/WORKSPACE/26msit001_A/jinhyeok/loop_TTT/lact/.cache_inductor_llm/nj/cnjex7h4mb5eo6auxqvpl7sur6twx4kx3dcebstmi26d664quxec.py":26:30)
#loc11 = loc("/NHNHOME/WORKSPACE/26msit001_A/jinhyeok/loop_TTT/lact/.cache_inductor_llm/nj/cnjex7h4mb5eo6auxqvpl7sur6twx4kx3dcebstmi26d664quxec.py":26:35)
#loc12 = loc("/NHNHOME/WORKSPACE/26msit001_A/jinhyeok/loop_TTT/lact/.cache_inductor_llm/nj/cnjex7h4mb5eo6auxqvpl7sur6twx4kx3dcebstmi26d664quxec.py":31:19)
#loc13 = loc("/NHNHOME/WORKSPACE/26msit001_A/jinhyeok/loop_TTT/lact/.cache_inductor_llm/nj/cnjex7h4mb5eo6auxqvpl7sur6twx4kx3dcebstmi26d664quxec.py":33:25)
#loc14 = loc("/NHNHOME/WORKSPACE/26msit001_A/jinhyeok/loop_TTT/lact/.cache_inductor_llm/nj/cnjex7h4mb5eo6auxqvpl7sur6twx4kx3dcebstmi26d664quxec.py":33:36)
#loc15 = loc("/NHNHOME/WORKSPACE/26msit001_A/jinhyeok/loop_TTT/lact/.cache_inductor_llm/nj/cnjex7h4mb5eo6auxqvpl7sur6twx4kx3dcebstmi26d664quxec.py":34:25)
#loc16 = loc("/NHNHOME/WORKSPACE/26msit001_A/jinhyeok/loop_TTT/lact/.cache_inductor_llm/nj/cnjex7h4mb5eo6auxqvpl7sur6twx4kx3dcebstmi26d664quxec.py":34:36)
#loc17 = loc("/NHNHOME/WORKSPACE/26msit001_A/jinhyeok/loop_TTT/lact/.cache_inductor_llm/nj/cnjex7h4mb5eo6auxqvpl7sur6twx4kx3dcebstmi26d664quxec.py":34:4)
#loc23 = loc("tmp5"(#loc1))
#loc24 = loc("x1"(#loc2))
#loc25 = loc("xoffset"(#loc4))
#loc26 = loc("xoffset"(#loc5))
#loc27 = loc("xindex"(#loc6))
#loc28 = loc("xindex"(#loc7))
#loc29 = loc("tmp0"(#loc8))
#loc30 = loc("tmp0"(#loc9))
#loc31 = loc("tmp3"(#loc10))
#loc32 = loc("tmp3"(#loc11))
#loc33 = loc("tmp6"(#loc12))
