#loc = loc("/NHNHOME/WORKSPACE/26msit001_A/jinhyeok/loop_TTT/lact/.cache_inductor_llm/jo/cjovusthvrbjla6lt4znxlgqve4lrycbjyjrpaw3vz7fd2egs2vv.py":18:0)
#loc38 = loc("in_ptr0"(#loc))
#loc39 = loc("in_ptr1"(#loc))
#loc40 = loc("out_ptr0"(#loc))
#loc41 = loc("out_ptr1"(#loc))
#loc42 = loc("out_ptr2"(#loc))
#loc43 = loc("ynumel"(#loc))
#loc44 = loc("xnumel"(#loc))
module {
  tt.func public @triton_poi_fused__to_copy_add_mul_transpose_54(%in_ptr0: !tt.ptr<f32> {tt.divisibility = 16 : i32} loc("in_ptr0"(#loc)), %in_ptr1: !tt.ptr<bf16> {tt.divisibility = 16 : i32} loc("in_ptr1"(#loc)), %out_ptr0: !tt.ptr<bf16> {tt.divisibility = 16 : i32} loc("out_ptr0"(#loc)), %out_ptr1: !tt.ptr<bf16> {tt.divisibility = 16 : i32} loc("out_ptr1"(#loc)), %out_ptr2: !tt.ptr<bf16> {tt.divisibility = 16 : i32} loc("out_ptr2"(#loc)), %ynumel: i32 {tt.divisibility = 16 : i32} loc("ynumel"(#loc)), %xnumel: i32 {tt.divisibility = 16 : i32} loc("xnumel"(#loc))) attributes {noinline = false} {
    %c192_i32 = arith.constant 192 : i32 loc(#loc1)
    %cst = arith.constant dense<36864> : tensor<1024x1xi32> loc(#loc2)
    %tmp2 = arith.constant dense<2.876900e+00> : tensor<1024x1xf32> loc(#loc45)
    %cst_0 = arith.constant dense<192> : tensor<1024x1xi32> loc(#loc1)
    %c1024_i32 = arith.constant 1024 : i32 loc(#loc1)
    %yoffset = tt.get_program_id y : i32 loc(#loc46)
    %yoffset_1 = tt.get_program_id z : i32 loc(#loc47)
    %yoffset_2 = tt.get_num_programs y : i32 loc(#loc48)
    %yoffset_3 = arith.muli %yoffset_1, %yoffset_2 : i32 loc(#loc49)
    %yoffset_4 = arith.addi %yoffset, %yoffset_3 : i32 loc(#loc50)
    %yoffset_5 = arith.muli %yoffset_4, %c1024_i32 : i32 loc(#loc51)
    %yindex = tt.make_range {end = 1024 : i32, start = 0 : i32} : tensor<1024xi32> loc(#loc52)
    %yindex_6 = tt.expand_dims %yindex {axis = 1 : i32} : tensor<1024xi32> -> tensor<1024x1xi32> loc(#loc53)
    %yindex_7 = tt.splat %yoffset_5 : i32 -> tensor<1024x1xi32> loc(#loc54)
    %yindex_8 = arith.addi %yindex_7, %yindex_6 : tensor<1024x1xi32> loc(#loc54)
    %ymask = tt.splat %ynumel : i32 -> tensor<1024x1xi32> loc(#loc55)
    %ymask_9 = arith.cmpi slt, %yindex_8, %ymask : tensor<1024x1xi32> loc(#loc55)
    %xoffset = tt.get_program_id x : i32 loc(#loc56)
    %xmask = arith.cmpi slt, %xoffset, %c192_i32 : i32 loc(#loc57)
    %y2 = arith.remsi %yindex_8, %cst_0 : tensor<1024x1xi32> loc(#loc58)
    %y3 = arith.divsi %yindex_8, %cst_0 : tensor<1024x1xi32> loc(#loc59)
    %tmp0 = arith.muli %yindex_8, %cst_0 : tensor<1024x1xi32> loc(#loc60)
    %tmp0_10 = tt.splat %xoffset : i32 -> tensor<1024x1xi32> loc(#loc71)
    %tmp0_11 = arith.addi %tmp0_10, %tmp0 : tensor<1024x1xi32> loc(#loc61)
    %tmp0_12 = tt.splat %in_ptr0 : !tt.ptr<f32> -> tensor<1024x1x!tt.ptr<f32>> loc(#loc63)
    %tmp0_13 = tt.addptr %tmp0_12, %tmp0_11 : tensor<1024x1x!tt.ptr<f32>>, tensor<1024x1xi32> loc(#loc63)
    %tmp0_14 = tt.splat %xmask : i1 -> tensor<1024x1xi1> loc(#loc72)
    %tmp0_15 = arith.andi %tmp0_14, %ymask_9 : tensor<1024x1xi1> loc(#loc64)
    %tmp0_16 = tt.load %tmp0_13, %tmp0_15 evictionPolicy = evict_last : tensor<1024x1x!tt.ptr<f32>> loc(#loc65)
    %tmp3 = tt.splat %in_ptr1 : !tt.ptr<bf16> -> tensor<1024x1x!tt.ptr<bf16>> loc(#loc66)
    %tmp3_17 = tt.addptr %tmp3, %tmp0_11 : tensor<1024x1x!tt.ptr<bf16>>, tensor<1024x1xi32> loc(#loc66)
    %tmp3_18 = tt.load %tmp3_17, %tmp0_15 evictionPolicy = evict_last : tensor<1024x1x!tt.ptr<bf16>> loc(#loc67)
    %tmp3_19 = arith.extf %tmp3_18 : tensor<1024x1xbf16> to tensor<1024x1xf32> loc(#loc68)
    %tmp2_20 = arith.mulf %tmp0_16, %tmp2 : tensor<1024x1xf32> loc(#loc45)
    %tmp5 = arith.addf %tmp2_20, %tmp3_19 : tensor<1024x1xf32> loc(#loc69)
    %0 = tt.splat %out_ptr0 : !tt.ptr<bf16> -> tensor<1024x1x!tt.ptr<bf16>> loc(#loc28)
    %1 = tt.addptr %0, %tmp0_11 : tensor<1024x1x!tt.ptr<bf16>>, tensor<1024x1xi32> loc(#loc28)
    %2 = arith.truncf %tmp5 : tensor<1024x1xf32> to tensor<1024x1xbf16> loc(#loc29)
    tt.store %1, %2, %tmp0_15 : tensor<1024x1x!tt.ptr<bf16>> loc(#loc29)
    %3 = arith.muli %xoffset, %c192_i32 : i32 loc(#loc30)
    %4 = tt.splat %3 : i32 -> tensor<1024x1xi32> loc(#loc70)
    %5 = arith.addi %y2, %4 : tensor<1024x1xi32> loc(#loc31)
    %6 = arith.muli %y3, %cst : tensor<1024x1xi32> loc(#loc2)
    %7 = arith.addi %5, %6 : tensor<1024x1xi32> loc(#loc32)
    %8 = tt.splat %out_ptr1 : !tt.ptr<bf16> -> tensor<1024x1x!tt.ptr<bf16>> loc(#loc33)
    %9 = tt.addptr %8, %7 : tensor<1024x1x!tt.ptr<bf16>>, tensor<1024x1xi32> loc(#loc33)
    tt.store %9, %2, %tmp0_15 : tensor<1024x1x!tt.ptr<bf16>> loc(#loc34)
    %10 = tt.splat %out_ptr2 : !tt.ptr<bf16> -> tensor<1024x1x!tt.ptr<bf16>> loc(#loc35)
    %11 = tt.addptr %10, %tmp0_11 : tensor<1024x1x!tt.ptr<bf16>>, tensor<1024x1xi32> loc(#loc35)
    tt.store %11, %2, %tmp0_15 : tensor<1024x1x!tt.ptr<bf16>> loc(#loc36)
    tt.return loc(#loc37)
  } loc(#loc)
} loc(#loc)
#loc1 = loc(unknown)
#loc2 = loc("/NHNHOME/WORKSPACE/26msit001_A/jinhyeok/loop_TTT/lact/.cache_inductor_llm/jo/cjovusthvrbjla6lt4znxlgqve4lrycbjyjrpaw3vz7fd2egs2vv.py":38:45)
#loc3 = loc("/NHNHOME/WORKSPACE/26msit001_A/jinhyeok/loop_TTT/lact/.cache_inductor_llm/jo/cjovusthvrbjla6lt4znxlgqve4lrycbjyjrpaw3vz7fd2egs2vv.py":33:18)
#loc4 = loc("/NHNHOME/WORKSPACE/26msit001_A/jinhyeok/loop_TTT/lact/.cache_inductor_llm/jo/cjovusthvrbjla6lt4znxlgqve4lrycbjyjrpaw3vz7fd2egs2vv.py":20:29)
#loc5 = loc("/NHNHOME/WORKSPACE/26msit001_A/jinhyeok/loop_TTT/lact/.cache_inductor_llm/jo/cjovusthvrbjla6lt4znxlgqve4lrycbjyjrpaw3vz7fd2egs2vv.py":20:48)
#loc6 = loc("/NHNHOME/WORKSPACE/26msit001_A/jinhyeok/loop_TTT/lact/.cache_inductor_llm/jo/cjovusthvrbjla6lt4znxlgqve4lrycbjyjrpaw3vz7fd2egs2vv.py":20:69)
#loc7 = loc("/NHNHOME/WORKSPACE/26msit001_A/jinhyeok/loop_TTT/lact/.cache_inductor_llm/jo/cjovusthvrbjla6lt4znxlgqve4lrycbjyjrpaw3vz7fd2egs2vv.py":20:53)
#loc8 = loc("/NHNHOME/WORKSPACE/26msit001_A/jinhyeok/loop_TTT/lact/.cache_inductor_llm/jo/cjovusthvrbjla6lt4znxlgqve4lrycbjyjrpaw3vz7fd2egs2vv.py":20:34)
#loc9 = loc("/NHNHOME/WORKSPACE/26msit001_A/jinhyeok/loop_TTT/lact/.cache_inductor_llm/jo/cjovusthvrbjla6lt4znxlgqve4lrycbjyjrpaw3vz7fd2egs2vv.py":20:75)
#loc10 = loc("/NHNHOME/WORKSPACE/26msit001_A/jinhyeok/loop_TTT/lact/.cache_inductor_llm/jo/cjovusthvrbjla6lt4znxlgqve4lrycbjyjrpaw3vz7fd2egs2vv.py":21:36)
#loc11 = loc("/NHNHOME/WORKSPACE/26msit001_A/jinhyeok/loop_TTT/lact/.cache_inductor_llm/jo/cjovusthvrbjla6lt4znxlgqve4lrycbjyjrpaw3vz7fd2egs2vv.py":21:44)
#loc12 = loc("/NHNHOME/WORKSPACE/26msit001_A/jinhyeok/loop_TTT/lact/.cache_inductor_llm/jo/cjovusthvrbjla6lt4znxlgqve4lrycbjyjrpaw3vz7fd2egs2vv.py":21:23)
#loc13 = loc("/NHNHOME/WORKSPACE/26msit001_A/jinhyeok/loop_TTT/lact/.cache_inductor_llm/jo/cjovusthvrbjla6lt4znxlgqve4lrycbjyjrpaw3vz7fd2egs2vv.py":22:21)
#loc14 = loc("/NHNHOME/WORKSPACE/26msit001_A/jinhyeok/loop_TTT/lact/.cache_inductor_llm/jo/cjovusthvrbjla6lt4znxlgqve4lrycbjyjrpaw3vz7fd2egs2vv.py":23:28)
#loc15 = loc("/NHNHOME/WORKSPACE/26msit001_A/jinhyeok/loop_TTT/lact/.cache_inductor_llm/jo/cjovusthvrbjla6lt4znxlgqve4lrycbjyjrpaw3vz7fd2egs2vv.py":25:21)
#loc16 = loc("/NHNHOME/WORKSPACE/26msit001_A/jinhyeok/loop_TTT/lact/.cache_inductor_llm/jo/cjovusthvrbjla6lt4znxlgqve4lrycbjyjrpaw3vz7fd2egs2vv.py":28:19)
#loc17 = loc("/NHNHOME/WORKSPACE/26msit001_A/jinhyeok/loop_TTT/lact/.cache_inductor_llm/jo/cjovusthvrbjla6lt4znxlgqve4lrycbjyjrpaw3vz7fd2egs2vv.py":29:19)
#loc18 = loc("/NHNHOME/WORKSPACE/26msit001_A/jinhyeok/loop_TTT/lact/.cache_inductor_llm/jo/cjovusthvrbjla6lt4znxlgqve4lrycbjyjrpaw3vz7fd2egs2vv.py":30:39)
#loc19 = loc("/NHNHOME/WORKSPACE/26msit001_A/jinhyeok/loop_TTT/lact/.cache_inductor_llm/jo/cjovusthvrbjla6lt4znxlgqve4lrycbjyjrpaw3vz7fd2egs2vv.py":30:35)
#loc20 = loc("/NHNHOME/WORKSPACE/26msit001_A/jinhyeok/loop_TTT/lact/.cache_inductor_llm/jo/cjovusthvrbjla6lt4znxlgqve4lrycbjyjrpaw3vz7fd2egs2vv.py":24:23)
#loc21 = loc("/NHNHOME/WORKSPACE/26msit001_A/jinhyeok/loop_TTT/lact/.cache_inductor_llm/jo/cjovusthvrbjla6lt4znxlgqve4lrycbjyjrpaw3vz7fd2egs2vv.py":30:30)
#loc22 = loc("/NHNHOME/WORKSPACE/26msit001_A/jinhyeok/loop_TTT/lact/.cache_inductor_llm/jo/cjovusthvrbjla6lt4znxlgqve4lrycbjyjrpaw3vz7fd2egs2vv.py":30:52)
#loc23 = loc("/NHNHOME/WORKSPACE/26msit001_A/jinhyeok/loop_TTT/lact/.cache_inductor_llm/jo/cjovusthvrbjla6lt4znxlgqve4lrycbjyjrpaw3vz7fd2egs2vv.py":30:44)
#loc24 = loc("/NHNHOME/WORKSPACE/26msit001_A/jinhyeok/loop_TTT/lact/.cache_inductor_llm/jo/cjovusthvrbjla6lt4znxlgqve4lrycbjyjrpaw3vz7fd2egs2vv.py":31:30)
#loc25 = loc("/NHNHOME/WORKSPACE/26msit001_A/jinhyeok/loop_TTT/lact/.cache_inductor_llm/jo/cjovusthvrbjla6lt4znxlgqve4lrycbjyjrpaw3vz7fd2egs2vv.py":31:44)
#loc26 = loc("/NHNHOME/WORKSPACE/26msit001_A/jinhyeok/loop_TTT/lact/.cache_inductor_llm/jo/cjovusthvrbjla6lt4znxlgqve4lrycbjyjrpaw3vz7fd2egs2vv.py":31:92)
#loc27 = loc("/NHNHOME/WORKSPACE/26msit001_A/jinhyeok/loop_TTT/lact/.cache_inductor_llm/jo/cjovusthvrbjla6lt4znxlgqve4lrycbjyjrpaw3vz7fd2egs2vv.py":35:18)
#loc28 = loc("/NHNHOME/WORKSPACE/26msit001_A/jinhyeok/loop_TTT/lact/.cache_inductor_llm/jo/cjovusthvrbjla6lt4znxlgqve4lrycbjyjrpaw3vz7fd2egs2vv.py":37:25)
#loc29 = loc("/NHNHOME/WORKSPACE/26msit001_A/jinhyeok/loop_TTT/lact/.cache_inductor_llm/jo/cjovusthvrbjla6lt4znxlgqve4lrycbjyjrpaw3vz7fd2egs2vv.py":37:45)
#loc30 = loc("/NHNHOME/WORKSPACE/26msit001_A/jinhyeok/loop_TTT/lact/.cache_inductor_llm/jo/cjovusthvrbjla6lt4znxlgqve4lrycbjyjrpaw3vz7fd2egs2vv.py":38:34)
#loc31 = loc("/NHNHOME/WORKSPACE/26msit001_A/jinhyeok/loop_TTT/lact/.cache_inductor_llm/jo/cjovusthvrbjla6lt4znxlgqve4lrycbjyjrpaw3vz7fd2egs2vv.py":38:30)
#loc32 = loc("/NHNHOME/WORKSPACE/26msit001_A/jinhyeok/loop_TTT/lact/.cache_inductor_llm/jo/cjovusthvrbjla6lt4znxlgqve4lrycbjyjrpaw3vz7fd2egs2vv.py":38:39)
#loc33 = loc("/NHNHOME/WORKSPACE/26msit001_A/jinhyeok/loop_TTT/lact/.cache_inductor_llm/jo/cjovusthvrbjla6lt4znxlgqve4lrycbjyjrpaw3vz7fd2egs2vv.py":38:25)
#loc34 = loc("/NHNHOME/WORKSPACE/26msit001_A/jinhyeok/loop_TTT/lact/.cache_inductor_llm/jo/cjovusthvrbjla6lt4znxlgqve4lrycbjyjrpaw3vz7fd2egs2vv.py":38:56)
#loc35 = loc("/NHNHOME/WORKSPACE/26msit001_A/jinhyeok/loop_TTT/lact/.cache_inductor_llm/jo/cjovusthvrbjla6lt4znxlgqve4lrycbjyjrpaw3vz7fd2egs2vv.py":39:25)
#loc36 = loc("/NHNHOME/WORKSPACE/26msit001_A/jinhyeok/loop_TTT/lact/.cache_inductor_llm/jo/cjovusthvrbjla6lt4znxlgqve4lrycbjyjrpaw3vz7fd2egs2vv.py":39:45)
#loc37 = loc("/NHNHOME/WORKSPACE/26msit001_A/jinhyeok/loop_TTT/lact/.cache_inductor_llm/jo/cjovusthvrbjla6lt4znxlgqve4lrycbjyjrpaw3vz7fd2egs2vv.py":39:4)
#loc45 = loc("tmp2"(#loc3))
#loc46 = loc("yoffset"(#loc4))
#loc47 = loc("yoffset"(#loc5))
#loc48 = loc("yoffset"(#loc6))
#loc49 = loc("yoffset"(#loc7))
#loc50 = loc("yoffset"(#loc8))
#loc51 = loc("yoffset"(#loc9))
#loc52 = loc("yindex"(#loc10))
#loc53 = loc("yindex"(#loc11))
#loc54 = loc("yindex"(#loc12))
#loc55 = loc("ymask"(#loc13))
#loc56 = loc("xoffset"(#loc14))
#loc57 = loc("xmask"(#loc15))
#loc58 = loc("y2"(#loc16))
#loc59 = loc("y3"(#loc17))
#loc60 = loc("tmp0"(#loc18))
#loc61 = loc("tmp0"(#loc19))
#loc62 = loc("xindex"(#loc20))
#loc63 = loc("tmp0"(#loc21))
#loc64 = loc("tmp0"(#loc22))
#loc65 = loc("tmp0"(#loc23))
#loc66 = loc("tmp3"(#loc24))
#loc67 = loc("tmp3"(#loc25))
#loc68 = loc("tmp3"(#loc26))
#loc69 = loc("tmp5"(#loc27))
#loc70 = loc(fused[#loc31, #loc30])
#loc71 = loc(fused[#loc61, #loc62])
#loc72 = loc(fused[#loc64, #loc57])
