#loc = loc("/NHNHOME/WORKSPACE/26msit001_A/jinhyeok/TTT_camera_embedding/lact_llm/.cache_inductor/bm/cbmop5ptjq6hlwnieunlpwg33xu77csflf7bgqysax2rpw7xmjqt.py":18:0)
#loc36 = loc("in_ptr0"(#loc))
#loc37 = loc("in_ptr1"(#loc))
#loc38 = loc("in_ptr2"(#loc))
#loc39 = loc("in_ptr3"(#loc))
#loc40 = loc("out_ptr0"(#loc))
#loc41 = loc("out_ptr1"(#loc))
#loc42 = loc("out_ptr2"(#loc))
#loc43 = loc("xnumel"(#loc))
module {
  tt.func public @triton_poi_fused__to_copy_add_div_linalg_vector_norm_mul_transpose_51(%in_ptr0: !tt.ptr<bf16> {tt.divisibility = 16 : i32} loc("in_ptr0"(#loc)), %in_ptr1: !tt.ptr<f32> {tt.divisibility = 16 : i32} loc("in_ptr1"(#loc)), %in_ptr2: !tt.ptr<bf16> {tt.divisibility = 16 : i32} loc("in_ptr2"(#loc)), %in_ptr3: !tt.ptr<bf16> {tt.divisibility = 16 : i32} loc("in_ptr3"(#loc)), %out_ptr0: !tt.ptr<bf16> {tt.divisibility = 16 : i32} loc("out_ptr0"(#loc)), %out_ptr1: !tt.ptr<bf16> {tt.divisibility = 16 : i32} loc("out_ptr1"(#loc)), %out_ptr2: !tt.ptr<bf16> {tt.divisibility = 16 : i32} loc("out_ptr2"(#loc)), %xnumel: i32 {tt.divisibility = 16 : i32} loc("xnumel"(#loc))) attributes {noinline = false} {
    %xnumel_0 = arith.constant 1179648 : i32 loc(#loc44)
    %xoffset = tt.get_program_id x : i32 loc(#loc45)
    %xoffset_1 = arith.constant 512 : i32 loc(#loc46)
    %xoffset_2 = arith.constant 512 : i32 loc(#loc46)
    %xoffset_3 = arith.muli %xoffset, %xoffset_2 : i32 loc(#loc46)
    %xindex = tt.make_range {end = 512 : i32, start = 0 : i32} : tensor<512xi32> loc(#loc47)
    %xindex_4 = tt.splat %xoffset_3 : i32 -> tensor<512xi32> loc(#loc48)
    %xindex_5 = arith.addi %xindex_4, %xindex : tensor<512xi32> loc(#loc48)
    %xmask = arith.constant true loc(#loc49)
    %xmask_6 = arith.constant dense<true> : tensor<512xi1> loc(#loc49)
    %x1 = arith.constant 36864 : i32 loc(#loc50)
    %x1_7 = arith.constant 36864 : i32 loc(#loc50)
    %x1_8 = arith.constant dense<36864> : tensor<512xi32> loc(#loc50)
    %x1_9 = arith.divsi %xindex_5, %x1_8 : tensor<512xi32> loc(#loc50)
    %tmp0 = tt.splat %in_ptr0 : !tt.ptr<bf16> -> tensor<512x!tt.ptr<bf16>> loc(#loc51)
    %tmp0_10 = tt.addptr %tmp0, %xindex_5 : tensor<512x!tt.ptr<bf16>>, tensor<512xi32> loc(#loc51)
    %tmp0_11 = tt.load %tmp0_10 : tensor<512x!tt.ptr<bf16>> loc(#loc52)
    %tmp0_12 = arith.extf %tmp0_11 : tensor<512xbf16> to tensor<512xf32> loc(#loc53)
    %tmp2 = tt.splat %in_ptr1 : !tt.ptr<f32> -> tensor<512x!tt.ptr<f32>> loc(#loc54)
    %tmp2_13 = tt.addptr %tmp2, %x1_9 : tensor<512x!tt.ptr<f32>>, tensor<512xi32> loc(#loc54)
    %tmp2_14 = tt.load %tmp2_13 evictionPolicy = evict_last : tensor<512x!tt.ptr<f32>> loc(#loc55)
    %tmp9 = tt.splat %in_ptr2 : !tt.ptr<bf16> -> tensor<512x!tt.ptr<bf16>> loc(#loc56)
    %tmp9_15 = tt.addptr %tmp9, %xindex_5 : tensor<512x!tt.ptr<bf16>>, tensor<512xi32> loc(#loc56)
    %tmp9_16 = tt.load %tmp9_15 : tensor<512x!tt.ptr<bf16>> loc(#loc57)
    %tmp9_17 = arith.extf %tmp9_16 : tensor<512xbf16> to tensor<512xf32> loc(#loc58)
    %tmp14 = tt.splat %in_ptr3 : !tt.ptr<bf16> -> tensor<512x!tt.ptr<bf16>> loc(#loc59)
    %tmp14_18 = tt.addptr %tmp14, %xindex_5 : tensor<512x!tt.ptr<bf16>>, tensor<512xi32> loc(#loc59)
    %tmp14_19 = tt.load %tmp14_18 : tensor<512x!tt.ptr<bf16>> loc(#loc60)
    %tmp14_20 = arith.extf %tmp14_19 : tensor<512xbf16> to tensor<512xf32> loc(#loc61)
    %tmp3 = tt.extern_elementwise %tmp2_14 {libname = "", libpath = "", pure = true, symbol = "__nv_sqrtf"} : (tensor<512xf32>) -> tensor<512xf32> loc(#loc62)
    %tmp4 = arith.constant 1.000000e-07 : f32 loc(#loc63)
    %tmp5 = arith.constant dense<1.000000e-07> : tensor<512xf32> loc(#loc64)
    %tmp5_21 = arith.addf %tmp3, %tmp5 : tensor<512xf32> loc(#loc64)
    %tmp6 = arith.divf %tmp0_12, %tmp5_21 : tensor<512xf32> loc(#loc65)
    %tmp7 = arith.constant 4.084800e+00 : f32 loc(#loc66)
    %tmp8 = arith.constant dense<4.084800e+00> : tensor<512xf32> loc(#loc67)
    %tmp8_22 = arith.mulf %tmp6, %tmp8 : tensor<512xf32> loc(#loc67)
    %tmp11 = arith.addf %tmp8_22, %tmp9_17 : tensor<512xf32> loc(#loc68)
    %tmp12 = arith.constant 3.950500e+00 : f32 loc(#loc69)
    %tmp13 = arith.constant dense<3.950500e+00> : tensor<512xf32> loc(#loc70)
    %tmp13_23 = arith.mulf %tmp11, %tmp13 : tensor<512xf32> loc(#loc70)
    %tmp16 = arith.addf %tmp13_23, %tmp14_20 : tensor<512xf32> loc(#loc71)
    %0 = tt.splat %out_ptr0 : !tt.ptr<bf16> -> tensor<512x!tt.ptr<bf16>> loc(#loc29)
    %1 = tt.addptr %0, %xindex_5 : tensor<512x!tt.ptr<bf16>>, tensor<512xi32> loc(#loc29)
    %2 = arith.truncf %tmp16 : tensor<512xf32> to tensor<512xbf16> loc(#loc30)
    tt.store %1, %2 : tensor<512x!tt.ptr<bf16>> loc(#loc30)
    %3 = tt.splat %out_ptr1 : !tt.ptr<bf16> -> tensor<512x!tt.ptr<bf16>> loc(#loc31)
    %4 = tt.addptr %3, %xindex_5 : tensor<512x!tt.ptr<bf16>>, tensor<512xi32> loc(#loc31)
    %5 = arith.truncf %tmp16 : tensor<512xf32> to tensor<512xbf16> loc(#loc32)
    tt.store %4, %5 : tensor<512x!tt.ptr<bf16>> loc(#loc32)
    %6 = tt.splat %out_ptr2 : !tt.ptr<bf16> -> tensor<512x!tt.ptr<bf16>> loc(#loc33)
    %7 = tt.addptr %6, %xindex_5 : tensor<512x!tt.ptr<bf16>>, tensor<512xi32> loc(#loc33)
    %8 = arith.truncf %tmp16 : tensor<512xf32> to tensor<512xbf16> loc(#loc34)
    tt.store %7, %8 : tensor<512x!tt.ptr<bf16>> loc(#loc34)
    tt.return loc(#loc35)
  } loc(#loc)
} loc(#loc)
#loc1 = loc("/NHNHOME/WORKSPACE/26msit001_A/jinhyeok/TTT_camera_embedding/lact_llm/.cache_inductor/bm/cbmop5ptjq6hlwnieunlpwg33xu77csflf7bgqysax2rpw7xmjqt.py":19:13)
#loc2 = loc("/NHNHOME/WORKSPACE/26msit001_A/jinhyeok/TTT_camera_embedding/lact_llm/.cache_inductor/bm/cbmop5ptjq6hlwnieunlpwg33xu77csflf7bgqysax2rpw7xmjqt.py":20:28)
#loc3 = loc("/NHNHOME/WORKSPACE/26msit001_A/jinhyeok/TTT_camera_embedding/lact_llm/.cache_inductor/bm/cbmop5ptjq6hlwnieunlpwg33xu77csflf7bgqysax2rpw7xmjqt.py":20:33)
#loc4 = loc("/NHNHOME/WORKSPACE/26msit001_A/jinhyeok/TTT_camera_embedding/lact_llm/.cache_inductor/bm/cbmop5ptjq6hlwnieunlpwg33xu77csflf7bgqysax2rpw7xmjqt.py":21:36)
#loc5 = loc("/NHNHOME/WORKSPACE/26msit001_A/jinhyeok/TTT_camera_embedding/lact_llm/.cache_inductor/bm/cbmop5ptjq6hlwnieunlpwg33xu77csflf7bgqysax2rpw7xmjqt.py":21:23)
#loc6 = loc("/NHNHOME/WORKSPACE/26msit001_A/jinhyeok/TTT_camera_embedding/lact_llm/.cache_inductor/bm/cbmop5ptjq6hlwnieunlpwg33xu77csflf7bgqysax2rpw7xmjqt.py":22:36)
#loc7 = loc("/NHNHOME/WORKSPACE/26msit001_A/jinhyeok/TTT_camera_embedding/lact_llm/.cache_inductor/bm/cbmop5ptjq6hlwnieunlpwg33xu77csflf7bgqysax2rpw7xmjqt.py":24:19)
#loc8 = loc("/NHNHOME/WORKSPACE/26msit001_A/jinhyeok/TTT_camera_embedding/lact_llm/.cache_inductor/bm/cbmop5ptjq6hlwnieunlpwg33xu77csflf7bgqysax2rpw7xmjqt.py":25:30)
#loc9 = loc("/NHNHOME/WORKSPACE/26msit001_A/jinhyeok/TTT_camera_embedding/lact_llm/.cache_inductor/bm/cbmop5ptjq6hlwnieunlpwg33xu77csflf7bgqysax2rpw7xmjqt.py":25:35)
#loc10 = loc("/NHNHOME/WORKSPACE/26msit001_A/jinhyeok/TTT_camera_embedding/lact_llm/.cache_inductor/bm/cbmop5ptjq6hlwnieunlpwg33xu77csflf7bgqysax2rpw7xmjqt.py":25:44)
#loc11 = loc("/NHNHOME/WORKSPACE/26msit001_A/jinhyeok/TTT_camera_embedding/lact_llm/.cache_inductor/bm/cbmop5ptjq6hlwnieunlpwg33xu77csflf7bgqysax2rpw7xmjqt.py":26:30)
#loc12 = loc("/NHNHOME/WORKSPACE/26msit001_A/jinhyeok/TTT_camera_embedding/lact_llm/.cache_inductor/bm/cbmop5ptjq6hlwnieunlpwg33xu77csflf7bgqysax2rpw7xmjqt.py":26:35)
#loc13 = loc("/NHNHOME/WORKSPACE/26msit001_A/jinhyeok/TTT_camera_embedding/lact_llm/.cache_inductor/bm/cbmop5ptjq6hlwnieunlpwg33xu77csflf7bgqysax2rpw7xmjqt.py":27:30)
#loc14 = loc("/NHNHOME/WORKSPACE/26msit001_A/jinhyeok/TTT_camera_embedding/lact_llm/.cache_inductor/bm/cbmop5ptjq6hlwnieunlpwg33xu77csflf7bgqysax2rpw7xmjqt.py":27:35)
#loc15 = loc("/NHNHOME/WORKSPACE/26msit001_A/jinhyeok/TTT_camera_embedding/lact_llm/.cache_inductor/bm/cbmop5ptjq6hlwnieunlpwg33xu77csflf7bgqysax2rpw7xmjqt.py":27:44)
#loc16 = loc("/NHNHOME/WORKSPACE/26msit001_A/jinhyeok/TTT_camera_embedding/lact_llm/.cache_inductor/bm/cbmop5ptjq6hlwnieunlpwg33xu77csflf7bgqysax2rpw7xmjqt.py":28:31)
#loc17 = loc("/NHNHOME/WORKSPACE/26msit001_A/jinhyeok/TTT_camera_embedding/lact_llm/.cache_inductor/bm/cbmop5ptjq6hlwnieunlpwg33xu77csflf7bgqysax2rpw7xmjqt.py":28:36)
#loc18 = loc("/NHNHOME/WORKSPACE/26msit001_A/jinhyeok/TTT_camera_embedding/lact_llm/.cache_inductor/bm/cbmop5ptjq6hlwnieunlpwg33xu77csflf7bgqysax2rpw7xmjqt.py":28:45)
#loc19 = loc("/NHNHOME/WORKSPACE/26msit001_A/jinhyeok/TTT_camera_embedding/lact_llm/.cache_inductor/bm/cbmop5ptjq6hlwnieunlpwg33xu77csflf7bgqysax2rpw7xmjqt.py":30:26)
#loc20 = loc("/NHNHOME/WORKSPACE/26msit001_A/jinhyeok/TTT_camera_embedding/lact_llm/.cache_inductor/bm/cbmop5ptjq6hlwnieunlpwg33xu77csflf7bgqysax2rpw7xmjqt.py":31:11)
#loc21 = loc("/NHNHOME/WORKSPACE/26msit001_A/jinhyeok/TTT_camera_embedding/lact_llm/.cache_inductor/bm/cbmop5ptjq6hlwnieunlpwg33xu77csflf7bgqysax2rpw7xmjqt.py":32:18)
#loc22 = loc("/NHNHOME/WORKSPACE/26msit001_A/jinhyeok/TTT_camera_embedding/lact_llm/.cache_inductor/bm/cbmop5ptjq6hlwnieunlpwg33xu77csflf7bgqysax2rpw7xmjqt.py":33:19)
#loc23 = loc("/NHNHOME/WORKSPACE/26msit001_A/jinhyeok/TTT_camera_embedding/lact_llm/.cache_inductor/bm/cbmop5ptjq6hlwnieunlpwg33xu77csflf7bgqysax2rpw7xmjqt.py":34:11)
#loc24 = loc("/NHNHOME/WORKSPACE/26msit001_A/jinhyeok/TTT_camera_embedding/lact_llm/.cache_inductor/bm/cbmop5ptjq6hlwnieunlpwg33xu77csflf7bgqysax2rpw7xmjqt.py":35:18)
#loc25 = loc("/NHNHOME/WORKSPACE/26msit001_A/jinhyeok/TTT_camera_embedding/lact_llm/.cache_inductor/bm/cbmop5ptjq6hlwnieunlpwg33xu77csflf7bgqysax2rpw7xmjqt.py":37:19)
#loc26 = loc("/NHNHOME/WORKSPACE/26msit001_A/jinhyeok/TTT_camera_embedding/lact_llm/.cache_inductor/bm/cbmop5ptjq6hlwnieunlpwg33xu77csflf7bgqysax2rpw7xmjqt.py":38:12)
#loc27 = loc("/NHNHOME/WORKSPACE/26msit001_A/jinhyeok/TTT_camera_embedding/lact_llm/.cache_inductor/bm/cbmop5ptjq6hlwnieunlpwg33xu77csflf7bgqysax2rpw7xmjqt.py":39:20)
#loc28 = loc("/NHNHOME/WORKSPACE/26msit001_A/jinhyeok/TTT_camera_embedding/lact_llm/.cache_inductor/bm/cbmop5ptjq6hlwnieunlpwg33xu77csflf7bgqysax2rpw7xmjqt.py":41:20)
#loc29 = loc("/NHNHOME/WORKSPACE/26msit001_A/jinhyeok/TTT_camera_embedding/lact_llm/.cache_inductor/bm/cbmop5ptjq6hlwnieunlpwg33xu77csflf7bgqysax2rpw7xmjqt.py":43:25)
#loc30 = loc("/NHNHOME/WORKSPACE/26msit001_A/jinhyeok/TTT_camera_embedding/lact_llm/.cache_inductor/bm/cbmop5ptjq6hlwnieunlpwg33xu77csflf7bgqysax2rpw7xmjqt.py":43:37)
#loc31 = loc("/NHNHOME/WORKSPACE/26msit001_A/jinhyeok/TTT_camera_embedding/lact_llm/.cache_inductor/bm/cbmop5ptjq6hlwnieunlpwg33xu77csflf7bgqysax2rpw7xmjqt.py":44:25)
#loc32 = loc("/NHNHOME/WORKSPACE/26msit001_A/jinhyeok/TTT_camera_embedding/lact_llm/.cache_inductor/bm/cbmop5ptjq6hlwnieunlpwg33xu77csflf7bgqysax2rpw7xmjqt.py":44:37)
#loc33 = loc("/NHNHOME/WORKSPACE/26msit001_A/jinhyeok/TTT_camera_embedding/lact_llm/.cache_inductor/bm/cbmop5ptjq6hlwnieunlpwg33xu77csflf7bgqysax2rpw7xmjqt.py":45:25)
#loc34 = loc("/NHNHOME/WORKSPACE/26msit001_A/jinhyeok/TTT_camera_embedding/lact_llm/.cache_inductor/bm/cbmop5ptjq6hlwnieunlpwg33xu77csflf7bgqysax2rpw7xmjqt.py":45:37)
#loc35 = loc("/NHNHOME/WORKSPACE/26msit001_A/jinhyeok/TTT_camera_embedding/lact_llm/.cache_inductor/bm/cbmop5ptjq6hlwnieunlpwg33xu77csflf7bgqysax2rpw7xmjqt.py":45:4)
#loc44 = loc("xnumel"(#loc1))
#loc45 = loc("xoffset"(#loc2))
#loc46 = loc("xoffset"(#loc3))
#loc47 = loc("xindex"(#loc4))
#loc48 = loc("xindex"(#loc5))
#loc49 = loc("xmask"(#loc6))
#loc50 = loc("x1"(#loc7))
#loc51 = loc("tmp0"(#loc8))
#loc52 = loc("tmp0"(#loc9))
#loc53 = loc("tmp0"(#loc10))
#loc54 = loc("tmp2"(#loc11))
#loc55 = loc("tmp2"(#loc12))
#loc56 = loc("tmp9"(#loc13))
#loc57 = loc("tmp9"(#loc14))
#loc58 = loc("tmp9"(#loc15))
#loc59 = loc("tmp14"(#loc16))
#loc60 = loc("tmp14"(#loc17))
#loc61 = loc("tmp14"(#loc18))
#loc62 = loc("tmp3"(#loc19))
#loc63 = loc("tmp4"(#loc20))
#loc64 = loc("tmp5"(#loc21))
#loc65 = loc("tmp6"(#loc22))
#loc66 = loc("tmp7"(#loc23))
#loc67 = loc("tmp8"(#loc24))
#loc68 = loc("tmp11"(#loc25))
#loc69 = loc("tmp12"(#loc26))
#loc70 = loc("tmp13"(#loc27))
#loc71 = loc("tmp16"(#loc28))
