#loc = loc("/NHNHOME/WORKSPACE/26msit001_A/jinhyeok/loop_TTT/lact/.cache_inductor_llm/rx/crx7hy3rnrkhxpdhtflloflajhekpvc6n52bgvuop7rpbi7oubql.py":18:0)
#loc70 = loc("in_ptr0"(#loc))
#loc71 = loc("in_ptr1"(#loc))
#loc72 = loc("in_ptr2"(#loc))
#loc73 = loc("in_ptr3"(#loc))
#loc74 = loc("out_ptr0"(#loc))
#loc75 = loc("out_ptr1"(#loc))
#loc76 = loc("out_ptr2"(#loc))
#loc77 = loc("ynumel"(#loc))
#loc78 = loc("xnumel"(#loc))
module {
  tt.func public @triton_poi_fused__to_copy_add_mul_transpose_37(%in_ptr0: !tt.ptr<f32> {tt.divisibility = 16 : i32} loc("in_ptr0"(#loc)), %in_ptr1: !tt.ptr<bf16> {tt.divisibility = 16 : i32} loc("in_ptr1"(#loc)), %in_ptr2: !tt.ptr<bf16> {tt.divisibility = 16 : i32} loc("in_ptr2"(#loc)), %in_ptr3: !tt.ptr<bf16> {tt.divisibility = 16 : i32} loc("in_ptr3"(#loc)), %out_ptr0: !tt.ptr<bf16> {tt.divisibility = 16 : i32} loc("out_ptr0"(#loc)), %out_ptr1: !tt.ptr<bf16> {tt.divisibility = 16 : i32} loc("out_ptr1"(#loc)), %out_ptr2: !tt.ptr<bf16> {tt.divisibility = 16 : i32} loc("out_ptr2"(#loc)), %ynumel: i32 {tt.divisibility = 16 : i32} loc("ynumel"(#loc)), %xnumel: i32 {tt.divisibility = 16 : i32} loc("xnumel"(#loc))) attributes {noinline = false} {
    %xnumel_0 = arith.constant 192 : i32 loc(#loc79)
    %yoffset = tt.get_program_id y : i32 loc(#loc80)
    %yoffset_1 = tt.get_program_id z : i32 loc(#loc81)
    %yoffset_2 = tt.get_num_programs y : i32 loc(#loc82)
    %yoffset_3 = arith.muli %yoffset_1, %yoffset_2 : i32 loc(#loc83)
    %yoffset_4 = arith.addi %yoffset, %yoffset_3 : i32 loc(#loc84)
    %yoffset_5 = arith.constant 64 : i32 loc(#loc85)
    %yoffset_6 = arith.constant 64 : i32 loc(#loc85)
    %yoffset_7 = arith.muli %yoffset_4, %yoffset_6 : i32 loc(#loc85)
    %yindex = tt.make_range {end = 64 : i32, start = 0 : i32} : tensor<64xi32> loc(#loc86)
    %yindex_8 = tt.expand_dims %yindex {axis = 1 : i32} : tensor<64xi32> -> tensor<64x1xi32> loc(#loc87)
    %yindex_9 = tt.splat %yoffset_7 : i32 -> tensor<64x1xi32> loc(#loc88)
    %yindex_10 = arith.addi %yindex_9, %yindex_8 : tensor<64x1xi32> loc(#loc88)
    %ymask = tt.splat %ynumel : i32 -> tensor<64x1xi32> loc(#loc89)
    %ymask_11 = arith.cmpi slt, %yindex_10, %ymask : tensor<64x1xi32> loc(#loc89)
    %xoffset = tt.get_program_id x : i32 loc(#loc90)
    %xoffset_12 = arith.constant 64 : i32 loc(#loc91)
    %xoffset_13 = arith.constant 64 : i32 loc(#loc91)
    %xoffset_14 = arith.muli %xoffset, %xoffset_13 : i32 loc(#loc91)
    %xindex = tt.make_range {end = 64 : i32, start = 0 : i32} : tensor<64xi32> loc(#loc92)
    %xindex_15 = tt.expand_dims %xindex {axis = 0 : i32} : tensor<64xi32> -> tensor<1x64xi32> loc(#loc93)
    %xindex_16 = tt.splat %xoffset_14 : i32 -> tensor<1x64xi32> loc(#loc94)
    %xindex_17 = arith.addi %xindex_16, %xindex_15 : tensor<1x64xi32> loc(#loc94)
    %xmask = arith.constant dense<192> : tensor<1x64xi32> loc(#loc95)
    %xmask_18 = arith.cmpi slt, %xindex_17, %xmask : tensor<1x64xi32> loc(#loc95)
    %y2 = arith.constant 192 : i32 loc(#loc96)
    %y2_19 = arith.constant 192 : i32 loc(#loc96)
    %y2_20 = arith.constant dense<192> : tensor<64x1xi32> loc(#loc96)
    %y2_21 = arith.remsi %yindex_10, %y2_20 : tensor<64x1xi32> loc(#loc96)
    %y3 = arith.constant 192 : i32 loc(#loc97)
    %y3_22 = arith.constant 192 : i32 loc(#loc97)
    %y3_23 = arith.constant dense<192> : tensor<64x1xi32> loc(#loc97)
    %y3_24 = arith.divsi %yindex_10, %y3_23 : tensor<64x1xi32> loc(#loc97)
    %tmp0 = arith.constant 192 : i32 loc(#loc98)
    %tmp0_25 = arith.constant 192 : i32 loc(#loc98)
    %tmp0_26 = arith.constant dense<192> : tensor<64x1xi32> loc(#loc98)
    %tmp0_27 = arith.muli %tmp0_26, %yindex_10 : tensor<64x1xi32> loc(#loc98)
    %tmp0_28 = tt.broadcast %xindex_17 : tensor<1x64xi32> -> tensor<64x64xi32> loc(#loc99)
    %tmp0_29 = tt.broadcast %tmp0_27 : tensor<64x1xi32> -> tensor<64x64xi32> loc(#loc99)
    %tmp0_30 = arith.addi %tmp0_28, %tmp0_29 : tensor<64x64xi32> loc(#loc99)
    %tmp0_31 = tt.splat %in_ptr0 : !tt.ptr<f32> -> tensor<64x64x!tt.ptr<f32>> loc(#loc100)
    %tmp0_32 = tt.addptr %tmp0_31, %tmp0_30 : tensor<64x64x!tt.ptr<f32>>, tensor<64x64xi32> loc(#loc100)
    %tmp0_33 = tt.broadcast %xmask_18 : tensor<1x64xi1> -> tensor<64x64xi1> loc(#loc101)
    %tmp0_34 = tt.broadcast %ymask_11 : tensor<64x1xi1> -> tensor<64x64xi1> loc(#loc101)
    %tmp0_35 = arith.andi %tmp0_33, %tmp0_34 : tensor<64x64xi1> loc(#loc101)
    %tmp0_36 = tt.load %tmp0_32, %tmp0_35 evictionPolicy = evict_last : tensor<64x64x!tt.ptr<f32>> loc(#loc102)
    %tmp3 = arith.constant 192 : i32 loc(#loc103)
    %tmp3_37 = arith.constant 192 : i32 loc(#loc103)
    %tmp3_38 = arith.constant dense<192> : tensor<64x1xi32> loc(#loc103)
    %tmp3_39 = arith.muli %tmp3_38, %yindex_10 : tensor<64x1xi32> loc(#loc103)
    %tmp3_40 = tt.broadcast %xindex_17 : tensor<1x64xi32> -> tensor<64x64xi32> loc(#loc104)
    %tmp3_41 = tt.broadcast %tmp3_39 : tensor<64x1xi32> -> tensor<64x64xi32> loc(#loc104)
    %tmp3_42 = arith.addi %tmp3_40, %tmp3_41 : tensor<64x64xi32> loc(#loc104)
    %tmp3_43 = tt.splat %in_ptr1 : !tt.ptr<bf16> -> tensor<64x64x!tt.ptr<bf16>> loc(#loc105)
    %tmp3_44 = tt.addptr %tmp3_43, %tmp3_42 : tensor<64x64x!tt.ptr<bf16>>, tensor<64x64xi32> loc(#loc105)
    %tmp3_45 = tt.broadcast %xmask_18 : tensor<1x64xi1> -> tensor<64x64xi1> loc(#loc106)
    %tmp3_46 = tt.broadcast %ymask_11 : tensor<64x1xi1> -> tensor<64x64xi1> loc(#loc106)
    %tmp3_47 = arith.andi %tmp3_45, %tmp3_46 : tensor<64x64xi1> loc(#loc106)
    %tmp3_48 = tt.load %tmp3_44, %tmp3_47 evictionPolicy = evict_last : tensor<64x64x!tt.ptr<bf16>> loc(#loc107)
    %tmp3_49 = arith.extf %tmp3_48 : tensor<64x64xbf16> to tensor<64x64xf32> loc(#loc108)
    %tmp8 = arith.constant 192 : i32 loc(#loc109)
    %tmp8_50 = arith.constant 192 : i32 loc(#loc109)
    %tmp8_51 = arith.constant dense<192> : tensor<64x1xi32> loc(#loc109)
    %tmp8_52 = arith.muli %tmp8_51, %yindex_10 : tensor<64x1xi32> loc(#loc109)
    %tmp8_53 = tt.broadcast %xindex_17 : tensor<1x64xi32> -> tensor<64x64xi32> loc(#loc110)
    %tmp8_54 = tt.broadcast %tmp8_52 : tensor<64x1xi32> -> tensor<64x64xi32> loc(#loc110)
    %tmp8_55 = arith.addi %tmp8_53, %tmp8_54 : tensor<64x64xi32> loc(#loc110)
    %tmp8_56 = tt.splat %in_ptr2 : !tt.ptr<bf16> -> tensor<64x64x!tt.ptr<bf16>> loc(#loc111)
    %tmp8_57 = tt.addptr %tmp8_56, %tmp8_55 : tensor<64x64x!tt.ptr<bf16>>, tensor<64x64xi32> loc(#loc111)
    %tmp8_58 = tt.broadcast %xmask_18 : tensor<1x64xi1> -> tensor<64x64xi1> loc(#loc112)
    %tmp8_59 = tt.broadcast %ymask_11 : tensor<64x1xi1> -> tensor<64x64xi1> loc(#loc112)
    %tmp8_60 = arith.andi %tmp8_58, %tmp8_59 : tensor<64x64xi1> loc(#loc112)
    %tmp8_61 = tt.load %tmp8_57, %tmp8_60 evictionPolicy = evict_last : tensor<64x64x!tt.ptr<bf16>> loc(#loc113)
    %tmp8_62 = arith.extf %tmp8_61 : tensor<64x64xbf16> to tensor<64x64xf32> loc(#loc114)
    %tmp13 = arith.constant 192 : i32 loc(#loc115)
    %tmp13_63 = arith.constant 192 : i32 loc(#loc115)
    %tmp13_64 = arith.constant dense<192> : tensor<64x1xi32> loc(#loc115)
    %tmp13_65 = arith.muli %tmp13_64, %yindex_10 : tensor<64x1xi32> loc(#loc115)
    %tmp13_66 = tt.broadcast %xindex_17 : tensor<1x64xi32> -> tensor<64x64xi32> loc(#loc116)
    %tmp13_67 = tt.broadcast %tmp13_65 : tensor<64x1xi32> -> tensor<64x64xi32> loc(#loc116)
    %tmp13_68 = arith.addi %tmp13_66, %tmp13_67 : tensor<64x64xi32> loc(#loc116)
    %tmp13_69 = tt.splat %in_ptr3 : !tt.ptr<bf16> -> tensor<64x64x!tt.ptr<bf16>> loc(#loc117)
    %tmp13_70 = tt.addptr %tmp13_69, %tmp13_68 : tensor<64x64x!tt.ptr<bf16>>, tensor<64x64xi32> loc(#loc117)
    %tmp13_71 = tt.broadcast %xmask_18 : tensor<1x64xi1> -> tensor<64x64xi1> loc(#loc118)
    %tmp13_72 = tt.broadcast %ymask_11 : tensor<64x1xi1> -> tensor<64x64xi1> loc(#loc118)
    %tmp13_73 = arith.andi %tmp13_71, %tmp13_72 : tensor<64x64xi1> loc(#loc118)
    %tmp13_74 = tt.load %tmp13_70, %tmp13_73 evictionPolicy = evict_last : tensor<64x64x!tt.ptr<bf16>> loc(#loc119)
    %tmp13_75 = arith.extf %tmp13_74 : tensor<64x64xbf16> to tensor<64x64xf32> loc(#loc120)
    %tmp1 = arith.constant 4.084800e+00 : f32 loc(#loc121)
    %tmp2 = arith.constant dense<4.084800e+00> : tensor<64x64xf32> loc(#loc122)
    %tmp2_76 = arith.mulf %tmp0_36, %tmp2 : tensor<64x64xf32> loc(#loc122)
    %tmp5 = arith.addf %tmp2_76, %tmp3_49 : tensor<64x64xf32> loc(#loc123)
    %tmp6 = arith.constant 3.950500e+00 : f32 loc(#loc124)
    %tmp7 = arith.constant dense<3.950500e+00> : tensor<64x64xf32> loc(#loc125)
    %tmp7_77 = arith.mulf %tmp5, %tmp7 : tensor<64x64xf32> loc(#loc125)
    %tmp10 = arith.addf %tmp7_77, %tmp8_62 : tensor<64x64xf32> loc(#loc126)
    %tmp11 = arith.constant 3.741800e+00 : f32 loc(#loc127)
    %tmp12 = arith.constant dense<3.741800e+00> : tensor<64x64xf32> loc(#loc128)
    %tmp12_78 = arith.mulf %tmp10, %tmp12 : tensor<64x64xf32> loc(#loc128)
    %tmp15 = arith.addf %tmp12_78, %tmp13_75 : tensor<64x64xf32> loc(#loc129)
    %c192_i32 = arith.constant 192 : i32 loc(#loc52)
    %c192_i32_79 = arith.constant 192 : i32 loc(#loc52)
    %cst = arith.constant dense<192> : tensor<64x1xi32> loc(#loc52)
    %0 = arith.muli %cst, %yindex_10 : tensor<64x1xi32> loc(#loc52)
    %1 = tt.broadcast %xindex_17 : tensor<1x64xi32> -> tensor<64x64xi32> loc(#loc53)
    %2 = tt.broadcast %0 : tensor<64x1xi32> -> tensor<64x64xi32> loc(#loc53)
    %3 = arith.addi %1, %2 : tensor<64x64xi32> loc(#loc53)
    %4 = tt.splat %out_ptr0 : !tt.ptr<bf16> -> tensor<64x64x!tt.ptr<bf16>> loc(#loc54)
    %5 = tt.addptr %4, %3 : tensor<64x64x!tt.ptr<bf16>>, tensor<64x64xi32> loc(#loc54)
    %6 = tt.broadcast %xmask_18 : tensor<1x64xi1> -> tensor<64x64xi1> loc(#loc55)
    %7 = tt.broadcast %ymask_11 : tensor<64x1xi1> -> tensor<64x64xi1> loc(#loc55)
    %8 = arith.andi %6, %7 : tensor<64x64xi1> loc(#loc55)
    %9 = arith.truncf %tmp15 : tensor<64x64xf32> to tensor<64x64xbf16> loc(#loc56)
    tt.store %5, %9, %8 : tensor<64x64x!tt.ptr<bf16>> loc(#loc56)
    %c192_i32_80 = arith.constant 192 : i32 loc(#loc57)
    %c192_i32_81 = arith.constant 192 : i32 loc(#loc57)
    %cst_82 = arith.constant dense<192> : tensor<1x64xi32> loc(#loc57)
    %10 = arith.muli %cst_82, %xindex_17 : tensor<1x64xi32> loc(#loc57)
    %11 = tt.broadcast %y2_21 : tensor<64x1xi32> -> tensor<64x64xi32> loc(#loc58)
    %12 = tt.broadcast %10 : tensor<1x64xi32> -> tensor<64x64xi32> loc(#loc58)
    %13 = arith.addi %11, %12 : tensor<64x64xi32> loc(#loc58)
    %c36864_i32 = arith.constant 36864 : i32 loc(#loc59)
    %c36864_i32_83 = arith.constant 36864 : i32 loc(#loc59)
    %cst_84 = arith.constant dense<36864> : tensor<64x1xi32> loc(#loc59)
    %14 = arith.muli %cst_84, %y3_24 : tensor<64x1xi32> loc(#loc59)
    %15 = tt.broadcast %14 : tensor<64x1xi32> -> tensor<64x64xi32> loc(#loc60)
    %16 = arith.addi %13, %15 : tensor<64x64xi32> loc(#loc60)
    %17 = tt.splat %out_ptr1 : !tt.ptr<bf16> -> tensor<64x64x!tt.ptr<bf16>> loc(#loc61)
    %18 = tt.addptr %17, %16 : tensor<64x64x!tt.ptr<bf16>>, tensor<64x64xi32> loc(#loc61)
    %19 = tt.broadcast %xmask_18 : tensor<1x64xi1> -> tensor<64x64xi1> loc(#loc62)
    %20 = tt.broadcast %ymask_11 : tensor<64x1xi1> -> tensor<64x64xi1> loc(#loc62)
    %21 = arith.andi %19, %20 : tensor<64x64xi1> loc(#loc62)
    %22 = arith.truncf %tmp15 : tensor<64x64xf32> to tensor<64x64xbf16> loc(#loc63)
    tt.store %18, %22, %21 : tensor<64x64x!tt.ptr<bf16>> loc(#loc63)
    %c192_i32_85 = arith.constant 192 : i32 loc(#loc64)
    %c192_i32_86 = arith.constant 192 : i32 loc(#loc64)
    %cst_87 = arith.constant dense<192> : tensor<64x1xi32> loc(#loc64)
    %23 = arith.muli %cst_87, %yindex_10 : tensor<64x1xi32> loc(#loc64)
    %24 = tt.broadcast %xindex_17 : tensor<1x64xi32> -> tensor<64x64xi32> loc(#loc65)
    %25 = tt.broadcast %23 : tensor<64x1xi32> -> tensor<64x64xi32> loc(#loc65)
    %26 = arith.addi %24, %25 : tensor<64x64xi32> loc(#loc65)
    %27 = tt.splat %out_ptr2 : !tt.ptr<bf16> -> tensor<64x64x!tt.ptr<bf16>> loc(#loc66)
    %28 = tt.addptr %27, %26 : tensor<64x64x!tt.ptr<bf16>>, tensor<64x64xi32> loc(#loc66)
    %29 = tt.broadcast %xmask_18 : tensor<1x64xi1> -> tensor<64x64xi1> loc(#loc67)
    %30 = tt.broadcast %ymask_11 : tensor<64x1xi1> -> tensor<64x64xi1> loc(#loc67)
    %31 = arith.andi %29, %30 : tensor<64x64xi1> loc(#loc67)
    %32 = arith.truncf %tmp15 : tensor<64x64xf32> to tensor<64x64xbf16> loc(#loc68)
    tt.store %28, %32, %31 : tensor<64x64x!tt.ptr<bf16>> loc(#loc68)
    tt.return loc(#loc69)
  } loc(#loc)
} loc(#loc)
#loc1 = loc("/NHNHOME/WORKSPACE/26msit001_A/jinhyeok/loop_TTT/lact/.cache_inductor_llm/rx/crx7hy3rnrkhxpdhtflloflajhekpvc6n52bgvuop7rpbi7oubql.py":19:13)
#loc2 = loc("/NHNHOME/WORKSPACE/26msit001_A/jinhyeok/loop_TTT/lact/.cache_inductor_llm/rx/crx7hy3rnrkhxpdhtflloflajhekpvc6n52bgvuop7rpbi7oubql.py":20:29)
#loc3 = loc("/NHNHOME/WORKSPACE/26msit001_A/jinhyeok/loop_TTT/lact/.cache_inductor_llm/rx/crx7hy3rnrkhxpdhtflloflajhekpvc6n52bgvuop7rpbi7oubql.py":20:48)
#loc4 = loc("/NHNHOME/WORKSPACE/26msit001_A/jinhyeok/loop_TTT/lact/.cache_inductor_llm/rx/crx7hy3rnrkhxpdhtflloflajhekpvc6n52bgvuop7rpbi7oubql.py":20:69)
#loc5 = loc("/NHNHOME/WORKSPACE/26msit001_A/jinhyeok/loop_TTT/lact/.cache_inductor_llm/rx/crx7hy3rnrkhxpdhtflloflajhekpvc6n52bgvuop7rpbi7oubql.py":20:53)
#loc6 = loc("/NHNHOME/WORKSPACE/26msit001_A/jinhyeok/loop_TTT/lact/.cache_inductor_llm/rx/crx7hy3rnrkhxpdhtflloflajhekpvc6n52bgvuop7rpbi7oubql.py":20:34)
#loc7 = loc("/NHNHOME/WORKSPACE/26msit001_A/jinhyeok/loop_TTT/lact/.cache_inductor_llm/rx/crx7hy3rnrkhxpdhtflloflajhekpvc6n52bgvuop7rpbi7oubql.py":20:75)
#loc8 = loc("/NHNHOME/WORKSPACE/26msit001_A/jinhyeok/loop_TTT/lact/.cache_inductor_llm/rx/crx7hy3rnrkhxpdhtflloflajhekpvc6n52bgvuop7rpbi7oubql.py":21:36)
#loc9 = loc("/NHNHOME/WORKSPACE/26msit001_A/jinhyeok/loop_TTT/lact/.cache_inductor_llm/rx/crx7hy3rnrkhxpdhtflloflajhekpvc6n52bgvuop7rpbi7oubql.py":21:44)
#loc10 = loc("/NHNHOME/WORKSPACE/26msit001_A/jinhyeok/loop_TTT/lact/.cache_inductor_llm/rx/crx7hy3rnrkhxpdhtflloflajhekpvc6n52bgvuop7rpbi7oubql.py":21:23)
#loc11 = loc("/NHNHOME/WORKSPACE/26msit001_A/jinhyeok/loop_TTT/lact/.cache_inductor_llm/rx/crx7hy3rnrkhxpdhtflloflajhekpvc6n52bgvuop7rpbi7oubql.py":22:21)
#loc12 = loc("/NHNHOME/WORKSPACE/26msit001_A/jinhyeok/loop_TTT/lact/.cache_inductor_llm/rx/crx7hy3rnrkhxpdhtflloflajhekpvc6n52bgvuop7rpbi7oubql.py":23:28)
#loc13 = loc("/NHNHOME/WORKSPACE/26msit001_A/jinhyeok/loop_TTT/lact/.cache_inductor_llm/rx/crx7hy3rnrkhxpdhtflloflajhekpvc6n52bgvuop7rpbi7oubql.py":23:33)
#loc14 = loc("/NHNHOME/WORKSPACE/26msit001_A/jinhyeok/loop_TTT/lact/.cache_inductor_llm/rx/crx7hy3rnrkhxpdhtflloflajhekpvc6n52bgvuop7rpbi7oubql.py":24:36)
#loc15 = loc("/NHNHOME/WORKSPACE/26msit001_A/jinhyeok/loop_TTT/lact/.cache_inductor_llm/rx/crx7hy3rnrkhxpdhtflloflajhekpvc6n52bgvuop7rpbi7oubql.py":24:44)
#loc16 = loc("/NHNHOME/WORKSPACE/26msit001_A/jinhyeok/loop_TTT/lact/.cache_inductor_llm/rx/crx7hy3rnrkhxpdhtflloflajhekpvc6n52bgvuop7rpbi7oubql.py":24:23)
#loc17 = loc("/NHNHOME/WORKSPACE/26msit001_A/jinhyeok/loop_TTT/lact/.cache_inductor_llm/rx/crx7hy3rnrkhxpdhtflloflajhekpvc6n52bgvuop7rpbi7oubql.py":25:21)
#loc18 = loc("/NHNHOME/WORKSPACE/26msit001_A/jinhyeok/loop_TTT/lact/.cache_inductor_llm/rx/crx7hy3rnrkhxpdhtflloflajhekpvc6n52bgvuop7rpbi7oubql.py":28:19)
#loc19 = loc("/NHNHOME/WORKSPACE/26msit001_A/jinhyeok/loop_TTT/lact/.cache_inductor_llm/rx/crx7hy3rnrkhxpdhtflloflajhekpvc6n52bgvuop7rpbi7oubql.py":29:19)
#loc20 = loc("/NHNHOME/WORKSPACE/26msit001_A/jinhyeok/loop_TTT/lact/.cache_inductor_llm/rx/crx7hy3rnrkhxpdhtflloflajhekpvc6n52bgvuop7rpbi7oubql.py":30:39)
#loc21 = loc("/NHNHOME/WORKSPACE/26msit001_A/jinhyeok/loop_TTT/lact/.cache_inductor_llm/rx/crx7hy3rnrkhxpdhtflloflajhekpvc6n52bgvuop7rpbi7oubql.py":30:35)
#loc22 = loc("/NHNHOME/WORKSPACE/26msit001_A/jinhyeok/loop_TTT/lact/.cache_inductor_llm/rx/crx7hy3rnrkhxpdhtflloflajhekpvc6n52bgvuop7rpbi7oubql.py":30:30)
#loc23 = loc("/NHNHOME/WORKSPACE/26msit001_A/jinhyeok/loop_TTT/lact/.cache_inductor_llm/rx/crx7hy3rnrkhxpdhtflloflajhekpvc6n52bgvuop7rpbi7oubql.py":30:52)
#loc24 = loc("/NHNHOME/WORKSPACE/26msit001_A/jinhyeok/loop_TTT/lact/.cache_inductor_llm/rx/crx7hy3rnrkhxpdhtflloflajhekpvc6n52bgvuop7rpbi7oubql.py":30:44)
#loc25 = loc("/NHNHOME/WORKSPACE/26msit001_A/jinhyeok/loop_TTT/lact/.cache_inductor_llm/rx/crx7hy3rnrkhxpdhtflloflajhekpvc6n52bgvuop7rpbi7oubql.py":31:39)
#loc26 = loc("/NHNHOME/WORKSPACE/26msit001_A/jinhyeok/loop_TTT/lact/.cache_inductor_llm/rx/crx7hy3rnrkhxpdhtflloflajhekpvc6n52bgvuop7rpbi7oubql.py":31:35)
#loc27 = loc("/NHNHOME/WORKSPACE/26msit001_A/jinhyeok/loop_TTT/lact/.cache_inductor_llm/rx/crx7hy3rnrkhxpdhtflloflajhekpvc6n52bgvuop7rpbi7oubql.py":31:30)
#loc28 = loc("/NHNHOME/WORKSPACE/26msit001_A/jinhyeok/loop_TTT/lact/.cache_inductor_llm/rx/crx7hy3rnrkhxpdhtflloflajhekpvc6n52bgvuop7rpbi7oubql.py":31:52)
#loc29 = loc("/NHNHOME/WORKSPACE/26msit001_A/jinhyeok/loop_TTT/lact/.cache_inductor_llm/rx/crx7hy3rnrkhxpdhtflloflajhekpvc6n52bgvuop7rpbi7oubql.py":31:44)
#loc30 = loc("/NHNHOME/WORKSPACE/26msit001_A/jinhyeok/loop_TTT/lact/.cache_inductor_llm/rx/crx7hy3rnrkhxpdhtflloflajhekpvc6n52bgvuop7rpbi7oubql.py":31:92)
#loc31 = loc("/NHNHOME/WORKSPACE/26msit001_A/jinhyeok/loop_TTT/lact/.cache_inductor_llm/rx/crx7hy3rnrkhxpdhtflloflajhekpvc6n52bgvuop7rpbi7oubql.py":32:39)
#loc32 = loc("/NHNHOME/WORKSPACE/26msit001_A/jinhyeok/loop_TTT/lact/.cache_inductor_llm/rx/crx7hy3rnrkhxpdhtflloflajhekpvc6n52bgvuop7rpbi7oubql.py":32:35)
#loc33 = loc("/NHNHOME/WORKSPACE/26msit001_A/jinhyeok/loop_TTT/lact/.cache_inductor_llm/rx/crx7hy3rnrkhxpdhtflloflajhekpvc6n52bgvuop7rpbi7oubql.py":32:30)
#loc34 = loc("/NHNHOME/WORKSPACE/26msit001_A/jinhyeok/loop_TTT/lact/.cache_inductor_llm/rx/crx7hy3rnrkhxpdhtflloflajhekpvc6n52bgvuop7rpbi7oubql.py":32:52)
#loc35 = loc("/NHNHOME/WORKSPACE/26msit001_A/jinhyeok/loop_TTT/lact/.cache_inductor_llm/rx/crx7hy3rnrkhxpdhtflloflajhekpvc6n52bgvuop7rpbi7oubql.py":32:44)
#loc36 = loc("/NHNHOME/WORKSPACE/26msit001_A/jinhyeok/loop_TTT/lact/.cache_inductor_llm/rx/crx7hy3rnrkhxpdhtflloflajhekpvc6n52bgvuop7rpbi7oubql.py":32:92)
#loc37 = loc("/NHNHOME/WORKSPACE/26msit001_A/jinhyeok/loop_TTT/lact/.cache_inductor_llm/rx/crx7hy3rnrkhxpdhtflloflajhekpvc6n52bgvuop7rpbi7oubql.py":33:40)
#loc38 = loc("/NHNHOME/WORKSPACE/26msit001_A/jinhyeok/loop_TTT/lact/.cache_inductor_llm/rx/crx7hy3rnrkhxpdhtflloflajhekpvc6n52bgvuop7rpbi7oubql.py":33:36)
#loc39 = loc("/NHNHOME/WORKSPACE/26msit001_A/jinhyeok/loop_TTT/lact/.cache_inductor_llm/rx/crx7hy3rnrkhxpdhtflloflajhekpvc6n52bgvuop7rpbi7oubql.py":33:31)
#loc40 = loc("/NHNHOME/WORKSPACE/26msit001_A/jinhyeok/loop_TTT/lact/.cache_inductor_llm/rx/crx7hy3rnrkhxpdhtflloflajhekpvc6n52bgvuop7rpbi7oubql.py":33:53)
#loc41 = loc("/NHNHOME/WORKSPACE/26msit001_A/jinhyeok/loop_TTT/lact/.cache_inductor_llm/rx/crx7hy3rnrkhxpdhtflloflajhekpvc6n52bgvuop7rpbi7oubql.py":33:45)
#loc42 = loc("/NHNHOME/WORKSPACE/26msit001_A/jinhyeok/loop_TTT/lact/.cache_inductor_llm/rx/crx7hy3rnrkhxpdhtflloflajhekpvc6n52bgvuop7rpbi7oubql.py":33:93)
#loc43 = loc("/NHNHOME/WORKSPACE/26msit001_A/jinhyeok/loop_TTT/lact/.cache_inductor_llm/rx/crx7hy3rnrkhxpdhtflloflajhekpvc6n52bgvuop7rpbi7oubql.py":34:11)
#loc44 = loc("/NHNHOME/WORKSPACE/26msit001_A/jinhyeok/loop_TTT/lact/.cache_inductor_llm/rx/crx7hy3rnrkhxpdhtflloflajhekpvc6n52bgvuop7rpbi7oubql.py":35:18)
#loc45 = loc("/NHNHOME/WORKSPACE/26msit001_A/jinhyeok/loop_TTT/lact/.cache_inductor_llm/rx/crx7hy3rnrkhxpdhtflloflajhekpvc6n52bgvuop7rpbi7oubql.py":37:18)
#loc46 = loc("/NHNHOME/WORKSPACE/26msit001_A/jinhyeok/loop_TTT/lact/.cache_inductor_llm/rx/crx7hy3rnrkhxpdhtflloflajhekpvc6n52bgvuop7rpbi7oubql.py":38:11)
#loc47 = loc("/NHNHOME/WORKSPACE/26msit001_A/jinhyeok/loop_TTT/lact/.cache_inductor_llm/rx/crx7hy3rnrkhxpdhtflloflajhekpvc6n52bgvuop7rpbi7oubql.py":39:18)
#loc48 = loc("/NHNHOME/WORKSPACE/26msit001_A/jinhyeok/loop_TTT/lact/.cache_inductor_llm/rx/crx7hy3rnrkhxpdhtflloflajhekpvc6n52bgvuop7rpbi7oubql.py":41:19)
#loc49 = loc("/NHNHOME/WORKSPACE/26msit001_A/jinhyeok/loop_TTT/lact/.cache_inductor_llm/rx/crx7hy3rnrkhxpdhtflloflajhekpvc6n52bgvuop7rpbi7oubql.py":42:12)
#loc50 = loc("/NHNHOME/WORKSPACE/26msit001_A/jinhyeok/loop_TTT/lact/.cache_inductor_llm/rx/crx7hy3rnrkhxpdhtflloflajhekpvc6n52bgvuop7rpbi7oubql.py":43:20)
#loc51 = loc("/NHNHOME/WORKSPACE/26msit001_A/jinhyeok/loop_TTT/lact/.cache_inductor_llm/rx/crx7hy3rnrkhxpdhtflloflajhekpvc6n52bgvuop7rpbi7oubql.py":45:20)
#loc52 = loc("/NHNHOME/WORKSPACE/26msit001_A/jinhyeok/loop_TTT/lact/.cache_inductor_llm/rx/crx7hy3rnrkhxpdhtflloflajhekpvc6n52bgvuop7rpbi7oubql.py":47:34)
#loc53 = loc("/NHNHOME/WORKSPACE/26msit001_A/jinhyeok/loop_TTT/lact/.cache_inductor_llm/rx/crx7hy3rnrkhxpdhtflloflajhekpvc6n52bgvuop7rpbi7oubql.py":47:30)
#loc54 = loc("/NHNHOME/WORKSPACE/26msit001_A/jinhyeok/loop_TTT/lact/.cache_inductor_llm/rx/crx7hy3rnrkhxpdhtflloflajhekpvc6n52bgvuop7rpbi7oubql.py":47:25)
#loc55 = loc("/NHNHOME/WORKSPACE/26msit001_A/jinhyeok/loop_TTT/lact/.cache_inductor_llm/rx/crx7hy3rnrkhxpdhtflloflajhekpvc6n52bgvuop7rpbi7oubql.py":47:54)
#loc56 = loc("/NHNHOME/WORKSPACE/26msit001_A/jinhyeok/loop_TTT/lact/.cache_inductor_llm/rx/crx7hy3rnrkhxpdhtflloflajhekpvc6n52bgvuop7rpbi7oubql.py":47:46)
#loc57 = loc("/NHNHOME/WORKSPACE/26msit001_A/jinhyeok/loop_TTT/lact/.cache_inductor_llm/rx/crx7hy3rnrkhxpdhtflloflajhekpvc6n52bgvuop7rpbi7oubql.py":48:34)
#loc58 = loc("/NHNHOME/WORKSPACE/26msit001_A/jinhyeok/loop_TTT/lact/.cache_inductor_llm/rx/crx7hy3rnrkhxpdhtflloflajhekpvc6n52bgvuop7rpbi7oubql.py":48:30)
#loc59 = loc("/NHNHOME/WORKSPACE/26msit001_A/jinhyeok/loop_TTT/lact/.cache_inductor_llm/rx/crx7hy3rnrkhxpdhtflloflajhekpvc6n52bgvuop7rpbi7oubql.py":48:45)
#loc60 = loc("/NHNHOME/WORKSPACE/26msit001_A/jinhyeok/loop_TTT/lact/.cache_inductor_llm/rx/crx7hy3rnrkhxpdhtflloflajhekpvc6n52bgvuop7rpbi7oubql.py":48:39)
#loc61 = loc("/NHNHOME/WORKSPACE/26msit001_A/jinhyeok/loop_TTT/lact/.cache_inductor_llm/rx/crx7hy3rnrkhxpdhtflloflajhekpvc6n52bgvuop7rpbi7oubql.py":48:25)
#loc62 = loc("/NHNHOME/WORKSPACE/26msit001_A/jinhyeok/loop_TTT/lact/.cache_inductor_llm/rx/crx7hy3rnrkhxpdhtflloflajhekpvc6n52bgvuop7rpbi7oubql.py":48:65)
#loc63 = loc("/NHNHOME/WORKSPACE/26msit001_A/jinhyeok/loop_TTT/lact/.cache_inductor_llm/rx/crx7hy3rnrkhxpdhtflloflajhekpvc6n52bgvuop7rpbi7oubql.py":48:57)
#loc64 = loc("/NHNHOME/WORKSPACE/26msit001_A/jinhyeok/loop_TTT/lact/.cache_inductor_llm/rx/crx7hy3rnrkhxpdhtflloflajhekpvc6n52bgvuop7rpbi7oubql.py":49:34)
#loc65 = loc("/NHNHOME/WORKSPACE/26msit001_A/jinhyeok/loop_TTT/lact/.cache_inductor_llm/rx/crx7hy3rnrkhxpdhtflloflajhekpvc6n52bgvuop7rpbi7oubql.py":49:30)
#loc66 = loc("/NHNHOME/WORKSPACE/26msit001_A/jinhyeok/loop_TTT/lact/.cache_inductor_llm/rx/crx7hy3rnrkhxpdhtflloflajhekpvc6n52bgvuop7rpbi7oubql.py":49:25)
#loc67 = loc("/NHNHOME/WORKSPACE/26msit001_A/jinhyeok/loop_TTT/lact/.cache_inductor_llm/rx/crx7hy3rnrkhxpdhtflloflajhekpvc6n52bgvuop7rpbi7oubql.py":49:54)
#loc68 = loc("/NHNHOME/WORKSPACE/26msit001_A/jinhyeok/loop_TTT/lact/.cache_inductor_llm/rx/crx7hy3rnrkhxpdhtflloflajhekpvc6n52bgvuop7rpbi7oubql.py":49:46)
#loc69 = loc("/NHNHOME/WORKSPACE/26msit001_A/jinhyeok/loop_TTT/lact/.cache_inductor_llm/rx/crx7hy3rnrkhxpdhtflloflajhekpvc6n52bgvuop7rpbi7oubql.py":49:4)
#loc79 = loc("xnumel"(#loc1))
#loc80 = loc("yoffset"(#loc2))
#loc81 = loc("yoffset"(#loc3))
#loc82 = loc("yoffset"(#loc4))
#loc83 = loc("yoffset"(#loc5))
#loc84 = loc("yoffset"(#loc6))
#loc85 = loc("yoffset"(#loc7))
#loc86 = loc("yindex"(#loc8))
#loc87 = loc("yindex"(#loc9))
#loc88 = loc("yindex"(#loc10))
#loc89 = loc("ymask"(#loc11))
#loc90 = loc("xoffset"(#loc12))
#loc91 = loc("xoffset"(#loc13))
#loc92 = loc("xindex"(#loc14))
#loc93 = loc("xindex"(#loc15))
#loc94 = loc("xindex"(#loc16))
#loc95 = loc("xmask"(#loc17))
#loc96 = loc("y2"(#loc18))
#loc97 = loc("y3"(#loc19))
#loc98 = loc("tmp0"(#loc20))
#loc99 = loc("tmp0"(#loc21))
#loc100 = loc("tmp0"(#loc22))
#loc101 = loc("tmp0"(#loc23))
#loc102 = loc("tmp0"(#loc24))
#loc103 = loc("tmp3"(#loc25))
#loc104 = loc("tmp3"(#loc26))
#loc105 = loc("tmp3"(#loc27))
#loc106 = loc("tmp3"(#loc28))
#loc107 = loc("tmp3"(#loc29))
#loc108 = loc("tmp3"(#loc30))
#loc109 = loc("tmp8"(#loc31))
#loc110 = loc("tmp8"(#loc32))
#loc111 = loc("tmp8"(#loc33))
#loc112 = loc("tmp8"(#loc34))
#loc113 = loc("tmp8"(#loc35))
#loc114 = loc("tmp8"(#loc36))
#loc115 = loc("tmp13"(#loc37))
#loc116 = loc("tmp13"(#loc38))
#loc117 = loc("tmp13"(#loc39))
#loc118 = loc("tmp13"(#loc40))
#loc119 = loc("tmp13"(#loc41))
#loc120 = loc("tmp13"(#loc42))
#loc121 = loc("tmp1"(#loc43))
#loc122 = loc("tmp2"(#loc44))
#loc123 = loc("tmp5"(#loc45))
#loc124 = loc("tmp6"(#loc46))
#loc125 = loc("tmp7"(#loc47))
#loc126 = loc("tmp10"(#loc48))
#loc127 = loc("tmp11"(#loc49))
#loc128 = loc("tmp12"(#loc50))
#loc129 = loc("tmp15"(#loc51))
