#loc = loc("/NHNHOME/WORKSPACE/26msit001_A/jinhyeok/loop_TTT/lact/.cache_inductor_llm/yq/cyq6a5t4gdusbm456cx5oog2ai7iqiezsfrdhxyytbc2ffd4yhqi.py":18:0)
#loc29 = loc("in_ptr0"(#loc))
#loc30 = loc("in_ptr1"(#loc))
#loc31 = loc("in_ptr2"(#loc))
#loc32 = loc("in_ptr3"(#loc))
#loc33 = loc("out_ptr0"(#loc))
#loc34 = loc("out_ptr1"(#loc))
#loc35 = loc("xnumel"(#loc))
module {
  tt.func public @triton_poi_fused__to_copy_add_div_mul_transpose_26(%in_ptr0: !tt.ptr<bf16> {tt.divisibility = 16 : i32} loc("in_ptr0"(#loc)), %in_ptr1: !tt.ptr<f32> {tt.divisibility = 16 : i32} loc("in_ptr1"(#loc)), %in_ptr2: !tt.ptr<bf16> {tt.divisibility = 16 : i32} loc("in_ptr2"(#loc)), %in_ptr3: !tt.ptr<bf16> {tt.divisibility = 16 : i32} loc("in_ptr3"(#loc)), %out_ptr0: !tt.ptr<bf16> {tt.divisibility = 16 : i32} loc("out_ptr0"(#loc)), %out_ptr1: !tt.ptr<bf16> {tt.divisibility = 16 : i32} loc("out_ptr1"(#loc)), %xnumel: i32 {tt.divisibility = 16 : i32} loc("xnumel"(#loc))) attributes {noinline = false} {
    %tmp12 = arith.constant dense<3.950500e+00> : tensor<512xf32> loc(#loc36)
    %tmp7 = arith.constant dense<4.084800e+00> : tensor<512xf32> loc(#loc37)
    %tmp4 = arith.constant dense<1.000000e-07> : tensor<512xf32> loc(#loc38)
    %x1 = arith.constant dense<36864> : tensor<512xi32> loc(#loc39)
    %c512_i32 = arith.constant 512 : i32 loc(#loc5)
    %xoffset = tt.get_program_id x : i32 loc(#loc40)
    %xoffset_0 = arith.muli %xoffset, %c512_i32 : i32 loc(#loc41)
    %xindex = tt.make_range {end = 512 : i32, start = 0 : i32} : tensor<512xi32> loc(#loc42)
    %xindex_1 = tt.splat %xoffset_0 : i32 -> tensor<512xi32> loc(#loc43)
    %xindex_2 = arith.addi %xindex_1, %xindex : tensor<512xi32> loc(#loc43)
    %x1_3 = arith.divsi %xindex_2, %x1 : tensor<512xi32> loc(#loc39)
    %tmp0 = tt.splat %in_ptr0 : !tt.ptr<bf16> -> tensor<512x!tt.ptr<bf16>> loc(#loc44)
    %tmp0_4 = tt.addptr %tmp0, %xindex_2 : tensor<512x!tt.ptr<bf16>>, tensor<512xi32> loc(#loc44)
    %tmp0_5 = tt.load %tmp0_4 : tensor<512x!tt.ptr<bf16>> loc(#loc45)
    %tmp0_6 = arith.extf %tmp0_5 : tensor<512xbf16> to tensor<512xf32> loc(#loc46)
    %tmp2 = tt.splat %in_ptr1 : !tt.ptr<f32> -> tensor<512x!tt.ptr<f32>> loc(#loc47)
    %tmp2_7 = tt.addptr %tmp2, %x1_3 : tensor<512x!tt.ptr<f32>>, tensor<512xi32> loc(#loc47)
    %tmp2_8 = tt.load %tmp2_7 evictionPolicy = evict_last : tensor<512x!tt.ptr<f32>> loc(#loc48)
    %tmp8 = tt.splat %in_ptr2 : !tt.ptr<bf16> -> tensor<512x!tt.ptr<bf16>> loc(#loc49)
    %tmp8_9 = tt.addptr %tmp8, %xindex_2 : tensor<512x!tt.ptr<bf16>>, tensor<512xi32> loc(#loc49)
    %tmp8_10 = tt.load %tmp8_9 : tensor<512x!tt.ptr<bf16>> loc(#loc50)
    %tmp8_11 = arith.extf %tmp8_10 : tensor<512xbf16> to tensor<512xf32> loc(#loc51)
    %tmp13 = tt.splat %in_ptr3 : !tt.ptr<bf16> -> tensor<512x!tt.ptr<bf16>> loc(#loc52)
    %tmp13_12 = tt.addptr %tmp13, %xindex_2 : tensor<512x!tt.ptr<bf16>>, tensor<512xi32> loc(#loc52)
    %tmp13_13 = tt.load %tmp13_12 : tensor<512x!tt.ptr<bf16>> loc(#loc53)
    %tmp13_14 = arith.extf %tmp13_13 : tensor<512xbf16> to tensor<512xf32> loc(#loc54)
    %tmp4_15 = arith.addf %tmp2_8, %tmp4 : tensor<512xf32> loc(#loc38)
    %tmp5 = arith.divf %tmp0_6, %tmp4_15 : tensor<512xf32> loc(#loc55)
    %tmp7_16 = arith.mulf %tmp5, %tmp7 : tensor<512xf32> loc(#loc37)
    %tmp10 = arith.addf %tmp7_16, %tmp8_11 : tensor<512xf32> loc(#loc56)
    %tmp12_17 = arith.mulf %tmp10, %tmp12 : tensor<512xf32> loc(#loc36)
    %tmp15 = arith.addf %tmp12_17, %tmp13_14 : tensor<512xf32> loc(#loc57)
    %0 = tt.splat %out_ptr0 : !tt.ptr<bf16> -> tensor<512x!tt.ptr<bf16>> loc(#loc24)
    %1 = tt.addptr %0, %xindex_2 : tensor<512x!tt.ptr<bf16>>, tensor<512xi32> loc(#loc24)
    %2 = arith.truncf %tmp15 : tensor<512xf32> to tensor<512xbf16> loc(#loc25)
    tt.store %1, %2 : tensor<512x!tt.ptr<bf16>> loc(#loc25)
    %3 = tt.splat %out_ptr1 : !tt.ptr<bf16> -> tensor<512x!tt.ptr<bf16>> loc(#loc26)
    %4 = tt.addptr %3, %xindex_2 : tensor<512x!tt.ptr<bf16>>, tensor<512xi32> loc(#loc26)
    tt.store %4, %2 : tensor<512x!tt.ptr<bf16>> loc(#loc27)
    tt.return loc(#loc28)
  } loc(#loc)
} loc(#loc)
#loc1 = loc("/NHNHOME/WORKSPACE/26msit001_A/jinhyeok/loop_TTT/lact/.cache_inductor_llm/yq/cyq6a5t4gdusbm456cx5oog2ai7iqiezsfrdhxyytbc2ffd4yhqi.py":38:20)
#loc2 = loc("/NHNHOME/WORKSPACE/26msit001_A/jinhyeok/loop_TTT/lact/.cache_inductor_llm/yq/cyq6a5t4gdusbm456cx5oog2ai7iqiezsfrdhxyytbc2ffd4yhqi.py":34:18)
#loc3 = loc("/NHNHOME/WORKSPACE/26msit001_A/jinhyeok/loop_TTT/lact/.cache_inductor_llm/yq/cyq6a5t4gdusbm456cx5oog2ai7iqiezsfrdhxyytbc2ffd4yhqi.py":31:18)
#loc4 = loc("/NHNHOME/WORKSPACE/26msit001_A/jinhyeok/loop_TTT/lact/.cache_inductor_llm/yq/cyq6a5t4gdusbm456cx5oog2ai7iqiezsfrdhxyytbc2ffd4yhqi.py":24:19)
#loc5 = loc(unknown)
#loc6 = loc("/NHNHOME/WORKSPACE/26msit001_A/jinhyeok/loop_TTT/lact/.cache_inductor_llm/yq/cyq6a5t4gdusbm456cx5oog2ai7iqiezsfrdhxyytbc2ffd4yhqi.py":20:28)
#loc7 = loc("/NHNHOME/WORKSPACE/26msit001_A/jinhyeok/loop_TTT/lact/.cache_inductor_llm/yq/cyq6a5t4gdusbm456cx5oog2ai7iqiezsfrdhxyytbc2ffd4yhqi.py":20:33)
#loc8 = loc("/NHNHOME/WORKSPACE/26msit001_A/jinhyeok/loop_TTT/lact/.cache_inductor_llm/yq/cyq6a5t4gdusbm456cx5oog2ai7iqiezsfrdhxyytbc2ffd4yhqi.py":21:36)
#loc9 = loc("/NHNHOME/WORKSPACE/26msit001_A/jinhyeok/loop_TTT/lact/.cache_inductor_llm/yq/cyq6a5t4gdusbm456cx5oog2ai7iqiezsfrdhxyytbc2ffd4yhqi.py":21:23)
#loc10 = loc("/NHNHOME/WORKSPACE/26msit001_A/jinhyeok/loop_TTT/lact/.cache_inductor_llm/yq/cyq6a5t4gdusbm456cx5oog2ai7iqiezsfrdhxyytbc2ffd4yhqi.py":25:30)
#loc11 = loc("/NHNHOME/WORKSPACE/26msit001_A/jinhyeok/loop_TTT/lact/.cache_inductor_llm/yq/cyq6a5t4gdusbm456cx5oog2ai7iqiezsfrdhxyytbc2ffd4yhqi.py":25:35)
#loc12 = loc("/NHNHOME/WORKSPACE/26msit001_A/jinhyeok/loop_TTT/lact/.cache_inductor_llm/yq/cyq6a5t4gdusbm456cx5oog2ai7iqiezsfrdhxyytbc2ffd4yhqi.py":25:44)
#loc13 = loc("/NHNHOME/WORKSPACE/26msit001_A/jinhyeok/loop_TTT/lact/.cache_inductor_llm/yq/cyq6a5t4gdusbm456cx5oog2ai7iqiezsfrdhxyytbc2ffd4yhqi.py":26:30)
#loc14 = loc("/NHNHOME/WORKSPACE/26msit001_A/jinhyeok/loop_TTT/lact/.cache_inductor_llm/yq/cyq6a5t4gdusbm456cx5oog2ai7iqiezsfrdhxyytbc2ffd4yhqi.py":26:35)
#loc15 = loc("/NHNHOME/WORKSPACE/26msit001_A/jinhyeok/loop_TTT/lact/.cache_inductor_llm/yq/cyq6a5t4gdusbm456cx5oog2ai7iqiezsfrdhxyytbc2ffd4yhqi.py":27:30)
#loc16 = loc("/NHNHOME/WORKSPACE/26msit001_A/jinhyeok/loop_TTT/lact/.cache_inductor_llm/yq/cyq6a5t4gdusbm456cx5oog2ai7iqiezsfrdhxyytbc2ffd4yhqi.py":27:35)
#loc17 = loc("/NHNHOME/WORKSPACE/26msit001_A/jinhyeok/loop_TTT/lact/.cache_inductor_llm/yq/cyq6a5t4gdusbm456cx5oog2ai7iqiezsfrdhxyytbc2ffd4yhqi.py":27:44)
#loc18 = loc("/NHNHOME/WORKSPACE/26msit001_A/jinhyeok/loop_TTT/lact/.cache_inductor_llm/yq/cyq6a5t4gdusbm456cx5oog2ai7iqiezsfrdhxyytbc2ffd4yhqi.py":28:31)
#loc19 = loc("/NHNHOME/WORKSPACE/26msit001_A/jinhyeok/loop_TTT/lact/.cache_inductor_llm/yq/cyq6a5t4gdusbm456cx5oog2ai7iqiezsfrdhxyytbc2ffd4yhqi.py":28:36)
#loc20 = loc("/NHNHOME/WORKSPACE/26msit001_A/jinhyeok/loop_TTT/lact/.cache_inductor_llm/yq/cyq6a5t4gdusbm456cx5oog2ai7iqiezsfrdhxyytbc2ffd4yhqi.py":28:45)
#loc21 = loc("/NHNHOME/WORKSPACE/26msit001_A/jinhyeok/loop_TTT/lact/.cache_inductor_llm/yq/cyq6a5t4gdusbm456cx5oog2ai7iqiezsfrdhxyytbc2ffd4yhqi.py":32:19)
#loc22 = loc("/NHNHOME/WORKSPACE/26msit001_A/jinhyeok/loop_TTT/lact/.cache_inductor_llm/yq/cyq6a5t4gdusbm456cx5oog2ai7iqiezsfrdhxyytbc2ffd4yhqi.py":36:19)
#loc23 = loc("/NHNHOME/WORKSPACE/26msit001_A/jinhyeok/loop_TTT/lact/.cache_inductor_llm/yq/cyq6a5t4gdusbm456cx5oog2ai7iqiezsfrdhxyytbc2ffd4yhqi.py":40:20)
#loc24 = loc("/NHNHOME/WORKSPACE/26msit001_A/jinhyeok/loop_TTT/lact/.cache_inductor_llm/yq/cyq6a5t4gdusbm456cx5oog2ai7iqiezsfrdhxyytbc2ffd4yhqi.py":42:25)
#loc25 = loc("/NHNHOME/WORKSPACE/26msit001_A/jinhyeok/loop_TTT/lact/.cache_inductor_llm/yq/cyq6a5t4gdusbm456cx5oog2ai7iqiezsfrdhxyytbc2ffd4yhqi.py":42:37)
#loc26 = loc("/NHNHOME/WORKSPACE/26msit001_A/jinhyeok/loop_TTT/lact/.cache_inductor_llm/yq/cyq6a5t4gdusbm456cx5oog2ai7iqiezsfrdhxyytbc2ffd4yhqi.py":43:25)
#loc27 = loc("/NHNHOME/WORKSPACE/26msit001_A/jinhyeok/loop_TTT/lact/.cache_inductor_llm/yq/cyq6a5t4gdusbm456cx5oog2ai7iqiezsfrdhxyytbc2ffd4yhqi.py":43:37)
#loc28 = loc("/NHNHOME/WORKSPACE/26msit001_A/jinhyeok/loop_TTT/lact/.cache_inductor_llm/yq/cyq6a5t4gdusbm456cx5oog2ai7iqiezsfrdhxyytbc2ffd4yhqi.py":43:4)
#loc36 = loc("tmp12"(#loc1))
#loc37 = loc("tmp7"(#loc2))
#loc38 = loc("tmp4"(#loc3))
#loc39 = loc("x1"(#loc4))
#loc40 = loc("xoffset"(#loc6))
#loc41 = loc("xoffset"(#loc7))
#loc42 = loc("xindex"(#loc8))
#loc43 = loc("xindex"(#loc9))
#loc44 = loc("tmp0"(#loc10))
#loc45 = loc("tmp0"(#loc11))
#loc46 = loc("tmp0"(#loc12))
#loc47 = loc("tmp2"(#loc13))
#loc48 = loc("tmp2"(#loc14))
#loc49 = loc("tmp8"(#loc15))
#loc50 = loc("tmp8"(#loc16))
#loc51 = loc("tmp8"(#loc17))
#loc52 = loc("tmp13"(#loc18))
#loc53 = loc("tmp13"(#loc19))
#loc54 = loc("tmp13"(#loc20))
#loc55 = loc("tmp5"(#loc21))
#loc56 = loc("tmp10"(#loc22))
#loc57 = loc("tmp15"(#loc23))
