#loc = loc("/NHNHOME/WORKSPACE/26msit001_A/jinhyeok/loop_TTT/lact/.cache_inductor_llm/2y/c2yvay6mn5mwua3ilkcp4pov4vdxjb4g7znomwapfnxrx43bxjt4.py":18:0)
#loc54 = loc("in_out_ptr0"(#loc))
#loc55 = loc("in_ptr0"(#loc))
#loc56 = loc("in_ptr1"(#loc))
#loc57 = loc("in_ptr2"(#loc))
#loc58 = loc("in_ptr3"(#loc))
#loc59 = loc("in_ptr4"(#loc))
#loc60 = loc("in_ptr5"(#loc))
#loc61 = loc("out_ptr0"(#loc))
#loc62 = loc("xnumel"(#loc))
module {
  tt.func public @triton_poi_fused__to_copy_add_mul_transpose_31(%in_out_ptr0: !tt.ptr<f32> {tt.divisibility = 16 : i32} loc("in_out_ptr0"(#loc)), %in_ptr0: !tt.ptr<bf16> {tt.divisibility = 16 : i32} loc("in_ptr0"(#loc)), %in_ptr1: !tt.ptr<bf16> {tt.divisibility = 16 : i32} loc("in_ptr1"(#loc)), %in_ptr2: !tt.ptr<bf16> {tt.divisibility = 16 : i32} loc("in_ptr2"(#loc)), %in_ptr3: !tt.ptr<bf16> {tt.divisibility = 16 : i32} loc("in_ptr3"(#loc)), %in_ptr4: !tt.ptr<bf16> {tt.divisibility = 16 : i32} loc("in_ptr4"(#loc)), %in_ptr5: !tt.ptr<bf16> {tt.divisibility = 16 : i32} loc("in_ptr5"(#loc)), %out_ptr0: !tt.ptr<bf16> {tt.divisibility = 16 : i32} loc("out_ptr0"(#loc)), %xnumel: i32 {tt.divisibility = 16 : i32} loc("xnumel"(#loc))) attributes {noinline = false} {
    %xnumel_0 = arith.constant 294912 : i32 loc(#loc63)
    %xoffset = tt.get_program_id x : i32 loc(#loc64)
    %xoffset_1 = arith.constant 1024 : i32 loc(#loc65)
    %xoffset_2 = arith.constant 1024 : i32 loc(#loc65)
    %xoffset_3 = arith.muli %xoffset, %xoffset_2 : i32 loc(#loc65)
    %xindex = tt.make_range {end = 1024 : i32, start = 0 : i32} : tensor<1024xi32> loc(#loc66)
    %xindex_4 = tt.splat %xoffset_3 : i32 -> tensor<1024xi32> loc(#loc67)
    %xindex_5 = arith.addi %xindex_4, %xindex : tensor<1024xi32> loc(#loc67)
    %xmask = arith.constant true loc(#loc68)
    %xmask_6 = arith.constant dense<true> : tensor<1024xi1> loc(#loc68)
    %x0 = arith.constant 192 : i32 loc(#loc69)
    %x0_7 = arith.constant 192 : i32 loc(#loc69)
    %x0_8 = arith.constant dense<192> : tensor<1024xi32> loc(#loc69)
    %x0_9 = arith.remsi %xindex_5, %x0_8 : tensor<1024xi32> loc(#loc69)
    %x1 = arith.constant 192 : i32 loc(#loc70)
    %x1_10 = arith.constant 192 : i32 loc(#loc70)
    %x1_11 = arith.constant dense<192> : tensor<1024xi32> loc(#loc70)
    %x1_12 = arith.divsi %xindex_5, %x1_11 : tensor<1024xi32> loc(#loc70)
    %x1_13 = arith.constant 192 : i32 loc(#loc71)
    %x1_14 = arith.constant 192 : i32 loc(#loc71)
    %x1_15 = arith.constant dense<192> : tensor<1024xi32> loc(#loc71)
    %x1_16 = arith.remsi %x1_12, %x1_15 : tensor<1024xi32> loc(#loc71)
    %x2 = arith.constant 36864 : i32 loc(#loc72)
    %x2_17 = arith.constant 36864 : i32 loc(#loc72)
    %x2_18 = arith.constant dense<36864> : tensor<1024xi32> loc(#loc72)
    %x2_19 = arith.divsi %xindex_5, %x2_18 : tensor<1024xi32> loc(#loc72)
    %tmp0 = tt.splat %in_ptr0 : !tt.ptr<bf16> -> tensor<1024x!tt.ptr<bf16>> loc(#loc73)
    %tmp0_20 = tt.addptr %tmp0, %xindex_5 : tensor<1024x!tt.ptr<bf16>>, tensor<1024xi32> loc(#loc73)
    %tmp0_21 = tt.load %tmp0_20 : tensor<1024x!tt.ptr<bf16>> loc(#loc74)
    %tmp0_22 = arith.extf %tmp0_21 : tensor<1024xbf16> to tensor<1024xf32> loc(#loc75)
    %tmp2 = tt.splat %in_ptr1 : !tt.ptr<bf16> -> tensor<1024x!tt.ptr<bf16>> loc(#loc76)
    %tmp2_23 = tt.addptr %tmp2, %xindex_5 : tensor<1024x!tt.ptr<bf16>>, tensor<1024xi32> loc(#loc76)
    %tmp2_24 = tt.load %tmp2_23 : tensor<1024x!tt.ptr<bf16>> loc(#loc77)
    %tmp2_25 = arith.extf %tmp2_24 : tensor<1024xbf16> to tensor<1024xf32> loc(#loc78)
    %tmp4 = tt.splat %in_out_ptr0 : !tt.ptr<f32> -> tensor<1024x!tt.ptr<f32>> loc(#loc79)
    %tmp4_26 = tt.addptr %tmp4, %xindex_5 : tensor<1024x!tt.ptr<f32>>, tensor<1024xi32> loc(#loc79)
    %tmp4_27 = tt.load %tmp4_26 : tensor<1024x!tt.ptr<f32>> loc(#loc80)
    %tmp8 = tt.splat %in_ptr2 : !tt.ptr<bf16> -> tensor<1024x!tt.ptr<bf16>> loc(#loc81)
    %tmp8_28 = tt.addptr %tmp8, %xindex_5 : tensor<1024x!tt.ptr<bf16>>, tensor<1024xi32> loc(#loc81)
    %tmp8_29 = tt.load %tmp8_28 : tensor<1024x!tt.ptr<bf16>> loc(#loc82)
    %tmp8_30 = arith.extf %tmp8_29 : tensor<1024xbf16> to tensor<1024xf32> loc(#loc83)
    %tmp11 = arith.constant 192 : i32 loc(#loc84)
    %tmp11_31 = arith.constant 192 : i32 loc(#loc84)
    %tmp11_32 = arith.constant dense<192> : tensor<1024xi32> loc(#loc84)
    %tmp11_33 = arith.muli %tmp11_32, %x0_9 : tensor<1024xi32> loc(#loc84)
    %tmp11_34 = arith.addi %x1_16, %tmp11_33 : tensor<1024xi32> loc(#loc85)
    %tmp11_35 = arith.constant 36864 : i32 loc(#loc86)
    %tmp11_36 = arith.constant 36864 : i32 loc(#loc86)
    %tmp11_37 = arith.constant dense<36864> : tensor<1024xi32> loc(#loc86)
    %tmp11_38 = arith.muli %tmp11_37, %x2_19 : tensor<1024xi32> loc(#loc86)
    %tmp11_39 = arith.addi %tmp11_34, %tmp11_38 : tensor<1024xi32> loc(#loc87)
    %tmp11_40 = tt.splat %in_ptr3 : !tt.ptr<bf16> -> tensor<1024x!tt.ptr<bf16>> loc(#loc88)
    %tmp11_41 = tt.addptr %tmp11_40, %tmp11_39 : tensor<1024x!tt.ptr<bf16>>, tensor<1024xi32> loc(#loc88)
    %tmp11_42 = tt.load %tmp11_41 evictionPolicy = evict_last : tensor<1024x!tt.ptr<bf16>> loc(#loc89)
    %tmp11_43 = arith.extf %tmp11_42 : tensor<1024xbf16> to tensor<1024xf32> loc(#loc90)
    %tmp17 = tt.splat %in_ptr4 : !tt.ptr<bf16> -> tensor<1024x!tt.ptr<bf16>> loc(#loc91)
    %tmp17_44 = tt.addptr %tmp17, %xindex_5 : tensor<1024x!tt.ptr<bf16>>, tensor<1024xi32> loc(#loc91)
    %tmp17_45 = tt.load %tmp17_44 : tensor<1024x!tt.ptr<bf16>> loc(#loc92)
    %tmp17_46 = arith.extf %tmp17_45 : tensor<1024xbf16> to tensor<1024xf32> loc(#loc93)
    %tmp20 = arith.constant 192 : i32 loc(#loc94)
    %tmp20_47 = arith.constant 192 : i32 loc(#loc94)
    %tmp20_48 = arith.constant dense<192> : tensor<1024xi32> loc(#loc94)
    %tmp20_49 = arith.muli %tmp20_48, %x0_9 : tensor<1024xi32> loc(#loc94)
    %tmp20_50 = arith.addi %x1_16, %tmp20_49 : tensor<1024xi32> loc(#loc95)
    %tmp20_51 = arith.constant 36864 : i32 loc(#loc96)
    %tmp20_52 = arith.constant 36864 : i32 loc(#loc96)
    %tmp20_53 = arith.constant dense<36864> : tensor<1024xi32> loc(#loc96)
    %tmp20_54 = arith.muli %tmp20_53, %x2_19 : tensor<1024xi32> loc(#loc96)
    %tmp20_55 = arith.addi %tmp20_50, %tmp20_54 : tensor<1024xi32> loc(#loc97)
    %tmp20_56 = tt.splat %in_ptr5 : !tt.ptr<bf16> -> tensor<1024x!tt.ptr<bf16>> loc(#loc98)
    %tmp20_57 = tt.addptr %tmp20_56, %tmp20_55 : tensor<1024x!tt.ptr<bf16>>, tensor<1024xi32> loc(#loc98)
    %tmp20_58 = tt.load %tmp20_57 evictionPolicy = evict_last : tensor<1024x!tt.ptr<bf16>> loc(#loc99)
    %tmp20_59 = arith.extf %tmp20_58 : tensor<1024xbf16> to tensor<1024xf32> loc(#loc100)
    %tmp5 = arith.constant 2.836600e+00 : f32 loc(#loc101)
    %tmp6 = arith.constant dense<2.836600e+00> : tensor<1024xf32> loc(#loc102)
    %tmp6_60 = arith.mulf %tmp4_27, %tmp6 : tensor<1024xf32> loc(#loc102)
    %tmp7 = arith.addf %tmp2_25, %tmp6_60 : tensor<1024xf32> loc(#loc103)
    %tmp10 = arith.addf %tmp7, %tmp8_30 : tensor<1024xf32> loc(#loc104)
    %tmp13 = arith.addf %tmp10, %tmp11_43 : tensor<1024xf32> loc(#loc105)
    %tmp14 = arith.constant 2.876900e+00 : f32 loc(#loc106)
    %tmp15 = arith.constant dense<2.876900e+00> : tensor<1024xf32> loc(#loc107)
    %tmp15_61 = arith.mulf %tmp13, %tmp15 : tensor<1024xf32> loc(#loc107)
    %tmp16 = arith.addf %tmp0_22, %tmp15_61 : tensor<1024xf32> loc(#loc108)
    %tmp19 = arith.addf %tmp16, %tmp17_46 : tensor<1024xf32> loc(#loc109)
    %tmp22 = arith.addf %tmp19, %tmp20_59 : tensor<1024xf32> loc(#loc110)
    %0 = tt.splat %in_out_ptr0 : !tt.ptr<f32> -> tensor<1024x!tt.ptr<f32>> loc(#loc49)
    %1 = tt.addptr %0, %xindex_5 : tensor<1024x!tt.ptr<f32>>, tensor<1024xi32> loc(#loc49)
    tt.store %1, %tmp22 : tensor<1024x!tt.ptr<f32>> loc(#loc50)
    %2 = tt.splat %out_ptr0 : !tt.ptr<bf16> -> tensor<1024x!tt.ptr<bf16>> loc(#loc51)
    %3 = tt.addptr %2, %xindex_5 : tensor<1024x!tt.ptr<bf16>>, tensor<1024xi32> loc(#loc51)
    %4 = arith.truncf %tmp22 : tensor<1024xf32> to tensor<1024xbf16> loc(#loc52)
    tt.store %3, %4 : tensor<1024x!tt.ptr<bf16>> loc(#loc52)
    tt.return loc(#loc53)
  } loc(#loc)
} loc(#loc)
#loc1 = loc("/NHNHOME/WORKSPACE/26msit001_A/jinhyeok/loop_TTT/lact/.cache_inductor_llm/2y/c2yvay6mn5mwua3ilkcp4pov4vdxjb4g7znomwapfnxrx43bxjt4.py":19:13)
#loc2 = loc("/NHNHOME/WORKSPACE/26msit001_A/jinhyeok/loop_TTT/lact/.cache_inductor_llm/2y/c2yvay6mn5mwua3ilkcp4pov4vdxjb4g7znomwapfnxrx43bxjt4.py":20:28)
#loc3 = loc("/NHNHOME/WORKSPACE/26msit001_A/jinhyeok/loop_TTT/lact/.cache_inductor_llm/2y/c2yvay6mn5mwua3ilkcp4pov4vdxjb4g7znomwapfnxrx43bxjt4.py":20:33)
#loc4 = loc("/NHNHOME/WORKSPACE/26msit001_A/jinhyeok/loop_TTT/lact/.cache_inductor_llm/2y/c2yvay6mn5mwua3ilkcp4pov4vdxjb4g7znomwapfnxrx43bxjt4.py":21:36)
#loc5 = loc("/NHNHOME/WORKSPACE/26msit001_A/jinhyeok/loop_TTT/lact/.cache_inductor_llm/2y/c2yvay6mn5mwua3ilkcp4pov4vdxjb4g7znomwapfnxrx43bxjt4.py":21:23)
#loc6 = loc("/NHNHOME/WORKSPACE/26msit001_A/jinhyeok/loop_TTT/lact/.cache_inductor_llm/2y/c2yvay6mn5mwua3ilkcp4pov4vdxjb4g7znomwapfnxrx43bxjt4.py":22:36)
#loc7 = loc("/NHNHOME/WORKSPACE/26msit001_A/jinhyeok/loop_TTT/lact/.cache_inductor_llm/2y/c2yvay6mn5mwua3ilkcp4pov4vdxjb4g7znomwapfnxrx43bxjt4.py":24:19)
#loc8 = loc("/NHNHOME/WORKSPACE/26msit001_A/jinhyeok/loop_TTT/lact/.cache_inductor_llm/2y/c2yvay6mn5mwua3ilkcp4pov4vdxjb4g7znomwapfnxrx43bxjt4.py":25:21)
#loc9 = loc("/NHNHOME/WORKSPACE/26msit001_A/jinhyeok/loop_TTT/lact/.cache_inductor_llm/2y/c2yvay6mn5mwua3ilkcp4pov4vdxjb4g7znomwapfnxrx43bxjt4.py":25:28)
#loc10 = loc("/NHNHOME/WORKSPACE/26msit001_A/jinhyeok/loop_TTT/lact/.cache_inductor_llm/2y/c2yvay6mn5mwua3ilkcp4pov4vdxjb4g7znomwapfnxrx43bxjt4.py":26:19)
#loc11 = loc("/NHNHOME/WORKSPACE/26msit001_A/jinhyeok/loop_TTT/lact/.cache_inductor_llm/2y/c2yvay6mn5mwua3ilkcp4pov4vdxjb4g7znomwapfnxrx43bxjt4.py":27:30)
#loc12 = loc("/NHNHOME/WORKSPACE/26msit001_A/jinhyeok/loop_TTT/lact/.cache_inductor_llm/2y/c2yvay6mn5mwua3ilkcp4pov4vdxjb4g7znomwapfnxrx43bxjt4.py":27:35)
#loc13 = loc("/NHNHOME/WORKSPACE/26msit001_A/jinhyeok/loop_TTT/lact/.cache_inductor_llm/2y/c2yvay6mn5mwua3ilkcp4pov4vdxjb4g7znomwapfnxrx43bxjt4.py":27:44)
#loc14 = loc("/NHNHOME/WORKSPACE/26msit001_A/jinhyeok/loop_TTT/lact/.cache_inductor_llm/2y/c2yvay6mn5mwua3ilkcp4pov4vdxjb4g7znomwapfnxrx43bxjt4.py":28:30)
#loc15 = loc("/NHNHOME/WORKSPACE/26msit001_A/jinhyeok/loop_TTT/lact/.cache_inductor_llm/2y/c2yvay6mn5mwua3ilkcp4pov4vdxjb4g7znomwapfnxrx43bxjt4.py":28:35)
#loc16 = loc("/NHNHOME/WORKSPACE/26msit001_A/jinhyeok/loop_TTT/lact/.cache_inductor_llm/2y/c2yvay6mn5mwua3ilkcp4pov4vdxjb4g7znomwapfnxrx43bxjt4.py":28:44)
#loc17 = loc("/NHNHOME/WORKSPACE/26msit001_A/jinhyeok/loop_TTT/lact/.cache_inductor_llm/2y/c2yvay6mn5mwua3ilkcp4pov4vdxjb4g7znomwapfnxrx43bxjt4.py":29:34)
#loc18 = loc("/NHNHOME/WORKSPACE/26msit001_A/jinhyeok/loop_TTT/lact/.cache_inductor_llm/2y/c2yvay6mn5mwua3ilkcp4pov4vdxjb4g7znomwapfnxrx43bxjt4.py":29:39)
#loc19 = loc("/NHNHOME/WORKSPACE/26msit001_A/jinhyeok/loop_TTT/lact/.cache_inductor_llm/2y/c2yvay6mn5mwua3ilkcp4pov4vdxjb4g7znomwapfnxrx43bxjt4.py":30:30)
#loc20 = loc("/NHNHOME/WORKSPACE/26msit001_A/jinhyeok/loop_TTT/lact/.cache_inductor_llm/2y/c2yvay6mn5mwua3ilkcp4pov4vdxjb4g7znomwapfnxrx43bxjt4.py":30:35)
#loc21 = loc("/NHNHOME/WORKSPACE/26msit001_A/jinhyeok/loop_TTT/lact/.cache_inductor_llm/2y/c2yvay6mn5mwua3ilkcp4pov4vdxjb4g7znomwapfnxrx43bxjt4.py":30:44)
#loc22 = loc("/NHNHOME/WORKSPACE/26msit001_A/jinhyeok/loop_TTT/lact/.cache_inductor_llm/2y/c2yvay6mn5mwua3ilkcp4pov4vdxjb4g7znomwapfnxrx43bxjt4.py":31:40)
#loc23 = loc("/NHNHOME/WORKSPACE/26msit001_A/jinhyeok/loop_TTT/lact/.cache_inductor_llm/2y/c2yvay6mn5mwua3ilkcp4pov4vdxjb4g7znomwapfnxrx43bxjt4.py":31:36)
#loc24 = loc("/NHNHOME/WORKSPACE/26msit001_A/jinhyeok/loop_TTT/lact/.cache_inductor_llm/2y/c2yvay6mn5mwua3ilkcp4pov4vdxjb4g7znomwapfnxrx43bxjt4.py":31:51)
#loc25 = loc("/NHNHOME/WORKSPACE/26msit001_A/jinhyeok/loop_TTT/lact/.cache_inductor_llm/2y/c2yvay6mn5mwua3ilkcp4pov4vdxjb4g7znomwapfnxrx43bxjt4.py":31:45)
#loc26 = loc("/NHNHOME/WORKSPACE/26msit001_A/jinhyeok/loop_TTT/lact/.cache_inductor_llm/2y/c2yvay6mn5mwua3ilkcp4pov4vdxjb4g7znomwapfnxrx43bxjt4.py":31:31)
#loc27 = loc("/NHNHOME/WORKSPACE/26msit001_A/jinhyeok/loop_TTT/lact/.cache_inductor_llm/2y/c2yvay6mn5mwua3ilkcp4pov4vdxjb4g7znomwapfnxrx43bxjt4.py":31:56)
#loc28 = loc("/NHNHOME/WORKSPACE/26msit001_A/jinhyeok/loop_TTT/lact/.cache_inductor_llm/2y/c2yvay6mn5mwua3ilkcp4pov4vdxjb4g7znomwapfnxrx43bxjt4.py":31:95)
#loc29 = loc("/NHNHOME/WORKSPACE/26msit001_A/jinhyeok/loop_TTT/lact/.cache_inductor_llm/2y/c2yvay6mn5mwua3ilkcp4pov4vdxjb4g7znomwapfnxrx43bxjt4.py":32:31)
#loc30 = loc("/NHNHOME/WORKSPACE/26msit001_A/jinhyeok/loop_TTT/lact/.cache_inductor_llm/2y/c2yvay6mn5mwua3ilkcp4pov4vdxjb4g7znomwapfnxrx43bxjt4.py":32:36)
#loc31 = loc("/NHNHOME/WORKSPACE/26msit001_A/jinhyeok/loop_TTT/lact/.cache_inductor_llm/2y/c2yvay6mn5mwua3ilkcp4pov4vdxjb4g7znomwapfnxrx43bxjt4.py":32:45)
#loc32 = loc("/NHNHOME/WORKSPACE/26msit001_A/jinhyeok/loop_TTT/lact/.cache_inductor_llm/2y/c2yvay6mn5mwua3ilkcp4pov4vdxjb4g7znomwapfnxrx43bxjt4.py":33:40)
#loc33 = loc("/NHNHOME/WORKSPACE/26msit001_A/jinhyeok/loop_TTT/lact/.cache_inductor_llm/2y/c2yvay6mn5mwua3ilkcp4pov4vdxjb4g7znomwapfnxrx43bxjt4.py":33:36)
#loc34 = loc("/NHNHOME/WORKSPACE/26msit001_A/jinhyeok/loop_TTT/lact/.cache_inductor_llm/2y/c2yvay6mn5mwua3ilkcp4pov4vdxjb4g7znomwapfnxrx43bxjt4.py":33:51)
#loc35 = loc("/NHNHOME/WORKSPACE/26msit001_A/jinhyeok/loop_TTT/lact/.cache_inductor_llm/2y/c2yvay6mn5mwua3ilkcp4pov4vdxjb4g7znomwapfnxrx43bxjt4.py":33:45)
#loc36 = loc("/NHNHOME/WORKSPACE/26msit001_A/jinhyeok/loop_TTT/lact/.cache_inductor_llm/2y/c2yvay6mn5mwua3ilkcp4pov4vdxjb4g7znomwapfnxrx43bxjt4.py":33:31)
#loc37 = loc("/NHNHOME/WORKSPACE/26msit001_A/jinhyeok/loop_TTT/lact/.cache_inductor_llm/2y/c2yvay6mn5mwua3ilkcp4pov4vdxjb4g7znomwapfnxrx43bxjt4.py":33:56)
#loc38 = loc("/NHNHOME/WORKSPACE/26msit001_A/jinhyeok/loop_TTT/lact/.cache_inductor_llm/2y/c2yvay6mn5mwua3ilkcp4pov4vdxjb4g7znomwapfnxrx43bxjt4.py":33:95)
#loc39 = loc("/NHNHOME/WORKSPACE/26msit001_A/jinhyeok/loop_TTT/lact/.cache_inductor_llm/2y/c2yvay6mn5mwua3ilkcp4pov4vdxjb4g7znomwapfnxrx43bxjt4.py":36:11)
#loc40 = loc("/NHNHOME/WORKSPACE/26msit001_A/jinhyeok/loop_TTT/lact/.cache_inductor_llm/2y/c2yvay6mn5mwua3ilkcp4pov4vdxjb4g7znomwapfnxrx43bxjt4.py":37:18)
#loc41 = loc("/NHNHOME/WORKSPACE/26msit001_A/jinhyeok/loop_TTT/lact/.cache_inductor_llm/2y/c2yvay6mn5mwua3ilkcp4pov4vdxjb4g7znomwapfnxrx43bxjt4.py":38:18)
#loc42 = loc("/NHNHOME/WORKSPACE/26msit001_A/jinhyeok/loop_TTT/lact/.cache_inductor_llm/2y/c2yvay6mn5mwua3ilkcp4pov4vdxjb4g7znomwapfnxrx43bxjt4.py":40:19)
#loc43 = loc("/NHNHOME/WORKSPACE/26msit001_A/jinhyeok/loop_TTT/lact/.cache_inductor_llm/2y/c2yvay6mn5mwua3ilkcp4pov4vdxjb4g7znomwapfnxrx43bxjt4.py":42:20)
#loc44 = loc("/NHNHOME/WORKSPACE/26msit001_A/jinhyeok/loop_TTT/lact/.cache_inductor_llm/2y/c2yvay6mn5mwua3ilkcp4pov4vdxjb4g7znomwapfnxrx43bxjt4.py":43:12)
#loc45 = loc("/NHNHOME/WORKSPACE/26msit001_A/jinhyeok/loop_TTT/lact/.cache_inductor_llm/2y/c2yvay6mn5mwua3ilkcp4pov4vdxjb4g7znomwapfnxrx43bxjt4.py":44:20)
#loc46 = loc("/NHNHOME/WORKSPACE/26msit001_A/jinhyeok/loop_TTT/lact/.cache_inductor_llm/2y/c2yvay6mn5mwua3ilkcp4pov4vdxjb4g7znomwapfnxrx43bxjt4.py":45:19)
#loc47 = loc("/NHNHOME/WORKSPACE/26msit001_A/jinhyeok/loop_TTT/lact/.cache_inductor_llm/2y/c2yvay6mn5mwua3ilkcp4pov4vdxjb4g7znomwapfnxrx43bxjt4.py":47:20)
#loc48 = loc("/NHNHOME/WORKSPACE/26msit001_A/jinhyeok/loop_TTT/lact/.cache_inductor_llm/2y/c2yvay6mn5mwua3ilkcp4pov4vdxjb4g7znomwapfnxrx43bxjt4.py":49:20)
#loc49 = loc("/NHNHOME/WORKSPACE/26msit001_A/jinhyeok/loop_TTT/lact/.cache_inductor_llm/2y/c2yvay6mn5mwua3ilkcp4pov4vdxjb4g7znomwapfnxrx43bxjt4.py":51:28)
#loc50 = loc("/NHNHOME/WORKSPACE/26msit001_A/jinhyeok/loop_TTT/lact/.cache_inductor_llm/2y/c2yvay6mn5mwua3ilkcp4pov4vdxjb4g7znomwapfnxrx43bxjt4.py":51:40)
#loc51 = loc("/NHNHOME/WORKSPACE/26msit001_A/jinhyeok/loop_TTT/lact/.cache_inductor_llm/2y/c2yvay6mn5mwua3ilkcp4pov4vdxjb4g7znomwapfnxrx43bxjt4.py":52:25)
#loc52 = loc("/NHNHOME/WORKSPACE/26msit001_A/jinhyeok/loop_TTT/lact/.cache_inductor_llm/2y/c2yvay6mn5mwua3ilkcp4pov4vdxjb4g7znomwapfnxrx43bxjt4.py":52:37)
#loc53 = loc("/NHNHOME/WORKSPACE/26msit001_A/jinhyeok/loop_TTT/lact/.cache_inductor_llm/2y/c2yvay6mn5mwua3ilkcp4pov4vdxjb4g7znomwapfnxrx43bxjt4.py":52:4)
#loc63 = loc("xnumel"(#loc1))
#loc64 = loc("xoffset"(#loc2))
#loc65 = loc("xoffset"(#loc3))
#loc66 = loc("xindex"(#loc4))
#loc67 = loc("xindex"(#loc5))
#loc68 = loc("xmask"(#loc6))
#loc69 = loc("x0"(#loc7))
#loc70 = loc("x1"(#loc8))
#loc71 = loc("x1"(#loc9))
#loc72 = loc("x2"(#loc10))
#loc73 = loc("tmp0"(#loc11))
#loc74 = loc("tmp0"(#loc12))
#loc75 = loc("tmp0"(#loc13))
#loc76 = loc("tmp2"(#loc14))
#loc77 = loc("tmp2"(#loc15))
#loc78 = loc("tmp2"(#loc16))
#loc79 = loc("tmp4"(#loc17))
#loc80 = loc("tmp4"(#loc18))
#loc81 = loc("tmp8"(#loc19))
#loc82 = loc("tmp8"(#loc20))
#loc83 = loc("tmp8"(#loc21))
#loc84 = loc("tmp11"(#loc22))
#loc85 = loc("tmp11"(#loc23))
#loc86 = loc("tmp11"(#loc24))
#loc87 = loc("tmp11"(#loc25))
#loc88 = loc("tmp11"(#loc26))
#loc89 = loc("tmp11"(#loc27))
#loc90 = loc("tmp11"(#loc28))
#loc91 = loc("tmp17"(#loc29))
#loc92 = loc("tmp17"(#loc30))
#loc93 = loc("tmp17"(#loc31))
#loc94 = loc("tmp20"(#loc32))
#loc95 = loc("tmp20"(#loc33))
#loc96 = loc("tmp20"(#loc34))
#loc97 = loc("tmp20"(#loc35))
#loc98 = loc("tmp20"(#loc36))
#loc99 = loc("tmp20"(#loc37))
#loc100 = loc("tmp20"(#loc38))
#loc101 = loc("tmp5"(#loc39))
#loc102 = loc("tmp6"(#loc40))
#loc103 = loc("tmp7"(#loc41))
#loc104 = loc("tmp10"(#loc42))
#loc105 = loc("tmp13"(#loc43))
#loc106 = loc("tmp14"(#loc44))
#loc107 = loc("tmp15"(#loc45))
#loc108 = loc("tmp16"(#loc46))
#loc109 = loc("tmp19"(#loc47))
#loc110 = loc("tmp22"(#loc48))
