#loc = loc("/NHNHOME/WORKSPACE/26msit001_A/jinhyeok/TTT_camera_embedding/lact_llm/.cache_inductor/4w/c4w774ylihulpp5eyiqyav7i366gvn6miybbufzs3q7btwv5veej.py":18:0)
#loc70 = loc("/NHNHOME/WORKSPACE/26msit001_A/jinhyeok/TTT_camera_embedding/.venv_llm/lib/python3.12/site-packages/triton/language/standard.py":47:0)
#loc77 = loc("in_ptr0"(#loc))
#loc78 = loc("in_ptr1"(#loc))
#loc79 = loc("in_ptr2"(#loc))
#loc80 = loc("in_ptr3"(#loc))
#loc81 = loc("out_ptr0"(#loc))
#loc82 = loc("ynumel"(#loc))
#loc83 = loc("xnumel"(#loc))
#loc148 = loc("x"(#loc70))
module {
  tt.func public @triton_poi_fused__to_copy_cat_mul_silu_slice_stack_transpose_view_2(%in_ptr0: !tt.ptr<f32> {tt.divisibility = 16 : i32} loc("in_ptr0"(#loc)), %in_ptr1: !tt.ptr<bf16> {tt.divisibility = 16 : i32} loc("in_ptr1"(#loc)), %in_ptr2: !tt.ptr<bf16> {tt.divisibility = 16 : i32} loc("in_ptr2"(#loc)), %in_ptr3: !tt.ptr<f32> loc("in_ptr3"(#loc)), %out_ptr0: !tt.ptr<bf16> {tt.divisibility = 16 : i32} loc("out_ptr0"(#loc)), %ynumel: i32 {tt.divisibility = 16 : i32} loc("ynumel"(#loc)), %xnumel: i32 {tt.divisibility = 16 : i32} loc("xnumel"(#loc))) attributes {noinline = false} {
    %ynumel_0 = arith.constant 32768 : i32 loc(#loc84)
    %xnumel_1 = arith.constant 192 : i32 loc(#loc85)
    %yoffset = tt.get_program_id y : i32 loc(#loc86)
    %yoffset_2 = arith.constant 4 : i32 loc(#loc87)
    %yoffset_3 = arith.constant 4 : i32 loc(#loc87)
    %yoffset_4 = arith.muli %yoffset, %yoffset_3 : i32 loc(#loc87)
    %yindex = tt.make_range {end = 4 : i32, start = 0 : i32} : tensor<4xi32> loc(#loc88)
    %yindex_5 = tt.expand_dims %yindex {axis = 1 : i32} : tensor<4xi32> -> tensor<4x1xi32> loc(#loc89)
    %yindex_6 = tt.splat %yoffset_4 : i32 -> tensor<4x1xi32> loc(#loc90)
    %yindex_7 = arith.addi %yindex_6, %yindex_5 : tensor<4x1xi32> loc(#loc90)
    %ymask = arith.constant true loc(#loc91)
    %ymask_8 = arith.constant dense<true> : tensor<4x256xi1> loc(#loc91)
    %xoffset = tt.get_program_id x : i32 loc(#loc92)
    %xoffset_9 = arith.constant 256 : i32 loc(#loc93)
    %xoffset_10 = arith.constant 256 : i32 loc(#loc93)
    %xoffset_11 = arith.muli %xoffset, %xoffset_10 : i32 loc(#loc93)
    %xindex = tt.make_range {end = 256 : i32, start = 0 : i32} : tensor<256xi32> loc(#loc94)
    %xindex_12 = tt.expand_dims %xindex {axis = 0 : i32} : tensor<256xi32> -> tensor<1x256xi32> loc(#loc95)
    %xindex_13 = tt.splat %xoffset_11 : i32 -> tensor<1x256xi32> loc(#loc96)
    %xindex_14 = arith.addi %xindex_13, %xindex_12 : tensor<1x256xi32> loc(#loc96)
    %xmask = arith.constant dense<192> : tensor<1x256xi32> loc(#loc97)
    %xmask_15 = arith.cmpi slt, %xindex_14, %xmask : tensor<1x256xi32> loc(#loc97)
    %y0 = arith.constant 1024 : i32 loc(#loc98)
    %y0_16 = arith.constant 1024 : i32 loc(#loc98)
    %y0_17 = arith.constant dense<1024> : tensor<4x1xi32> loc(#loc98)
    %y0_18 = arith.remsi %yindex_7, %y0_17 : tensor<4x1xi32> loc(#loc98)
    %y1 = arith.constant 1024 : i32 loc(#loc99)
    %y1_19 = arith.constant 1024 : i32 loc(#loc99)
    %y1_20 = arith.constant dense<1024> : tensor<4x1xi32> loc(#loc99)
    %y1_21 = arith.divsi %yindex_7, %y1_20 : tensor<4x1xi32> loc(#loc99)
    %tmp23 = arith.constant 3 : i32 loc(#loc100)
    %tmp23_22 = arith.constant 3 : i32 loc(#loc100)
    %tmp23_23 = arith.constant dense<3> : tensor<4x1xi32> loc(#loc100)
    %tmp23_24 = arith.muli %tmp23_23, %y0_18 : tensor<4x1xi32> loc(#loc100)
    %tmp23_25 = arith.constant 12288 : i32 loc(#loc101)
    %tmp23_26 = arith.constant 12288 : i32 loc(#loc101)
    %tmp23_27 = arith.constant dense<12288> : tensor<4x1xi32> loc(#loc101)
    %tmp23_28 = arith.muli %tmp23_27, %y1_21 : tensor<4x1xi32> loc(#loc101)
    %tmp23_29 = arith.addi %tmp23_24, %tmp23_28 : tensor<4x1xi32> loc(#loc102)
    %tmp23_30 = tt.splat %in_ptr3 : !tt.ptr<f32> -> tensor<4x1x!tt.ptr<f32>> loc(#loc103)
    %tmp23_31 = tt.addptr %tmp23_30, %tmp23_29 : tensor<4x1x!tt.ptr<f32>>, tensor<4x1xi32> loc(#loc103)
    %tmp23_32 = tt.load %tmp23_31 evictionPolicy = evict_last : tensor<4x1x!tt.ptr<f32>> loc(#loc104)
    %tmp1 = arith.constant 0 : i64 loc(#loc105)
    %tmp1_33 = arith.constant dense<0> : tensor<1x1xi64> loc(#loc105)
    %tmp2 = arith.extsi %xindex_14 : tensor<1x256xi32> to tensor<1x256xi64> loc(#loc106)
    %tmp2_34 = arith.constant dense<0> : tensor<1x256xi64> loc(#loc106)
    %tmp2_35 = arith.cmpi sge, %tmp2, %tmp2_34 : tensor<1x256xi64> loc(#loc106)
    %tmp3 = arith.constant 96 : i64 loc(#loc107)
    %tmp3_36 = arith.constant dense<96> : tensor<1x1xi64> loc(#loc107)
    %tmp4 = arith.extsi %xindex_14 : tensor<1x256xi32> to tensor<1x256xi64> loc(#loc108)
    %tmp4_37 = arith.constant dense<96> : tensor<1x256xi64> loc(#loc108)
    %tmp4_38 = arith.cmpi slt, %tmp4, %tmp4_37 : tensor<1x256xi64> loc(#loc108)
    %tmp5 = arith.constant 1024 : i32 loc(#loc109)
    %tmp5_39 = arith.constant 1024 : i32 loc(#loc109)
    %tmp5_40 = arith.constant dense<1024> : tensor<1x256xi32> loc(#loc109)
    %tmp5_41 = arith.muli %tmp5_40, %xindex_14 : tensor<1x256xi32> loc(#loc109)
    %tmp5_42 = tt.broadcast %y0_18 : tensor<4x1xi32> -> tensor<4x256xi32> loc(#loc110)
    %tmp5_43 = tt.broadcast %tmp5_41 : tensor<1x256xi32> -> tensor<4x256xi32> loc(#loc110)
    %tmp5_44 = arith.addi %tmp5_42, %tmp5_43 : tensor<4x256xi32> loc(#loc110)
    %tmp5_45 = arith.constant 98304 : i32 loc(#loc111)
    %tmp5_46 = arith.constant 98304 : i32 loc(#loc111)
    %tmp5_47 = arith.constant dense<98304> : tensor<4x1xi32> loc(#loc111)
    %tmp5_48 = arith.muli %tmp5_47, %y1_21 : tensor<4x1xi32> loc(#loc111)
    %tmp5_49 = tt.broadcast %tmp5_48 : tensor<4x1xi32> -> tensor<4x256xi32> loc(#loc112)
    %tmp5_50 = arith.addi %tmp5_44, %tmp5_49 : tensor<4x256xi32> loc(#loc112)
    %tmp5_51 = tt.splat %in_ptr0 : !tt.ptr<f32> -> tensor<4x256x!tt.ptr<f32>> loc(#loc113)
    %tmp5_52 = tt.addptr %tmp5_51, %tmp5_50 : tensor<4x256x!tt.ptr<f32>>, tensor<4x256xi32> loc(#loc113)
    %tmp5_53 = arith.andi %tmp4_38, %xmask_15 : tensor<1x256xi1> loc(#loc114)
    %tmp5_54 = arith.constant 0.000000e+00 : f32 loc(#loc115)
    %tmp5_55 = tt.broadcast %tmp5_53 : tensor<1x256xi1> -> tensor<4x256xi1> loc(#loc115)
    %tmp5_56 = arith.constant dense<0.000000e+00> : tensor<4x256xf32> loc(#loc115)
    %tmp5_57 = tt.load %tmp5_52, %tmp5_55, %tmp5_56 evictionPolicy = evict_last : tensor<4x256x!tt.ptr<f32>> loc(#loc115)
    %tmp7 = arith.constant 0.000000e+00 : f32 loc(#loc116)
    %tmp7_58 = arith.constant dense<0.000000e+00> : tensor<4x256xf32> loc(#loc116)
    %tmp8 = tt.broadcast %tmp4_38 : tensor<1x256xi1> -> tensor<4x256xi1> loc(#loc117)
    %tmp8_59 = arith.select %tmp8, %tmp5_57, %tmp7_58 : tensor<4x256xi1>, tensor<4x256xf32> loc(#loc117)
    %tmp9 = arith.extsi %xindex_14 : tensor<1x256xi32> to tensor<1x256xi64> loc(#loc118)
    %tmp9_60 = arith.constant dense<96> : tensor<1x256xi64> loc(#loc118)
    %tmp9_61 = arith.cmpi sge, %tmp9, %tmp9_60 : tensor<1x256xi64> loc(#loc118)
    %tmp10 = arith.constant 192 : i64 loc(#loc119)
    %tmp10_62 = arith.constant dense<192> : tensor<1x1xi64> loc(#loc119)
    %tmp11 = arith.extsi %xindex_14 : tensor<1x256xi32> to tensor<1x256xi64> loc(#loc120)
    %tmp11_63 = arith.constant dense<192> : tensor<1x256xi64> loc(#loc120)
    %tmp11_64 = arith.cmpi slt, %tmp11, %tmp11_63 : tensor<1x256xi64> loc(#loc120)
    %tmp12 = arith.constant 98304 : i32 loc(#loc121)
    %tmp12_65 = arith.constant 98304 : i32 loc(#loc121)
    %tmp12_66 = arith.constant dense<98304> : tensor<4x1xi32> loc(#loc121)
    %tmp12_67 = arith.addi %tmp12_66, %y0_18 : tensor<4x1xi32> loc(#loc121)
    %tmp12_68 = arith.constant -96 : i32 loc(#loc122)
    %tmp12_69 = arith.constant -96 : i32 loc(#loc122)
    %tmp12_70 = arith.constant dense<-96> : tensor<1x256xi32> loc(#loc122)
    %tmp12_71 = arith.addi %tmp12_70, %xindex_14 : tensor<1x256xi32> loc(#loc122)
    %tmp12_72 = arith.constant 1024 : i32 loc(#loc123)
    %tmp12_73 = arith.constant 1024 : i32 loc(#loc123)
    %tmp12_74 = arith.constant dense<1024> : tensor<1x256xi32> loc(#loc123)
    %tmp12_75 = arith.muli %tmp12_74, %tmp12_71 : tensor<1x256xi32> loc(#loc123)
    %tmp12_76 = tt.broadcast %tmp12_67 : tensor<4x1xi32> -> tensor<4x256xi32> loc(#loc124)
    %tmp12_77 = tt.broadcast %tmp12_75 : tensor<1x256xi32> -> tensor<4x256xi32> loc(#loc124)
    %tmp12_78 = arith.addi %tmp12_76, %tmp12_77 : tensor<4x256xi32> loc(#loc124)
    %tmp12_79 = arith.constant 196608 : i32 loc(#loc125)
    %tmp12_80 = arith.constant 196608 : i32 loc(#loc125)
    %tmp12_81 = arith.constant dense<196608> : tensor<4x1xi32> loc(#loc125)
    %tmp12_82 = arith.muli %tmp12_81, %y1_21 : tensor<4x1xi32> loc(#loc125)
    %tmp12_83 = tt.broadcast %tmp12_82 : tensor<4x1xi32> -> tensor<4x256xi32> loc(#loc126)
    %tmp12_84 = arith.addi %tmp12_78, %tmp12_83 : tensor<4x256xi32> loc(#loc126)
    %tmp12_85 = tt.splat %in_ptr1 : !tt.ptr<bf16> -> tensor<4x256x!tt.ptr<bf16>> loc(#loc127)
    %tmp12_86 = tt.addptr %tmp12_85, %tmp12_84 : tensor<4x256x!tt.ptr<bf16>>, tensor<4x256xi32> loc(#loc127)
    %tmp12_87 = arith.andi %tmp9_61, %xmask_15 : tensor<1x256xi1> loc(#loc128)
    %tmp12_88 = arith.constant 0.000000e+00 : f32 loc(#loc129)
    %tmp12_89 = tt.broadcast %tmp12_87 : tensor<1x256xi1> -> tensor<4x256xi1> loc(#loc129)
    %tmp12_90 = arith.constant dense<0.000000e+00> : tensor<4x256xf32> loc(#loc129)
    %tmp12_91 = arith.truncf %tmp12_90 : tensor<4x256xf32> to tensor<4x256xbf16> loc(#loc129)
    %tmp12_92 = tt.load %tmp12_86, %tmp12_89, %tmp12_91 evictionPolicy = evict_last : tensor<4x256x!tt.ptr<bf16>> loc(#loc129)
    %tmp12_93 = arith.extf %tmp12_92 : tensor<4x256xbf16> to tensor<4x256xf32> loc(#loc130)
    %tmp14 = tt.call @triton.language.standard.sigmoid__fp32S4_256S__(%tmp12_93) : (tensor<4x256xf32>) -> tensor<4x256xf32> loc(#loc131)
    %tmp15 = arith.mulf %tmp12_93, %tmp14 : tensor<4x256xf32> loc(#loc132)
    %tmp17 = arith.constant 98304 : i32 loc(#loc133)
    %tmp17_94 = arith.constant 98304 : i32 loc(#loc133)
    %tmp17_95 = arith.constant dense<98304> : tensor<4x1xi32> loc(#loc133)
    %tmp17_96 = arith.addi %tmp17_95, %y0_18 : tensor<4x1xi32> loc(#loc133)
    %tmp17_97 = arith.constant -96 : i32 loc(#loc134)
    %tmp17_98 = arith.constant -96 : i32 loc(#loc134)
    %tmp17_99 = arith.constant dense<-96> : tensor<1x256xi32> loc(#loc134)
    %tmp17_100 = arith.addi %tmp17_99, %xindex_14 : tensor<1x256xi32> loc(#loc134)
    %tmp17_101 = arith.constant 1024 : i32 loc(#loc135)
    %tmp17_102 = arith.constant 1024 : i32 loc(#loc135)
    %tmp17_103 = arith.constant dense<1024> : tensor<1x256xi32> loc(#loc135)
    %tmp17_104 = arith.muli %tmp17_103, %tmp17_100 : tensor<1x256xi32> loc(#loc135)
    %tmp17_105 = tt.broadcast %tmp17_96 : tensor<4x1xi32> -> tensor<4x256xi32> loc(#loc136)
    %tmp17_106 = tt.broadcast %tmp17_104 : tensor<1x256xi32> -> tensor<4x256xi32> loc(#loc136)
    %tmp17_107 = arith.addi %tmp17_105, %tmp17_106 : tensor<4x256xi32> loc(#loc136)
    %tmp17_108 = arith.constant 196608 : i32 loc(#loc137)
    %tmp17_109 = arith.constant 196608 : i32 loc(#loc137)
    %tmp17_110 = arith.constant dense<196608> : tensor<4x1xi32> loc(#loc137)
    %tmp17_111 = arith.muli %tmp17_110, %y1_21 : tensor<4x1xi32> loc(#loc137)
    %tmp17_112 = tt.broadcast %tmp17_111 : tensor<4x1xi32> -> tensor<4x256xi32> loc(#loc138)
    %tmp17_113 = arith.addi %tmp17_107, %tmp17_112 : tensor<4x256xi32> loc(#loc138)
    %tmp17_114 = tt.splat %in_ptr2 : !tt.ptr<bf16> -> tensor<4x256x!tt.ptr<bf16>> loc(#loc139)
    %tmp17_115 = tt.addptr %tmp17_114, %tmp17_113 : tensor<4x256x!tt.ptr<bf16>>, tensor<4x256xi32> loc(#loc139)
    %tmp17_116 = arith.andi %tmp9_61, %xmask_15 : tensor<1x256xi1> loc(#loc140)
    %tmp17_117 = arith.constant 0.000000e+00 : f32 loc(#loc141)
    %tmp17_118 = tt.broadcast %tmp17_116 : tensor<1x256xi1> -> tensor<4x256xi1> loc(#loc141)
    %tmp17_119 = arith.constant dense<0.000000e+00> : tensor<4x256xf32> loc(#loc141)
    %tmp17_120 = arith.truncf %tmp17_119 : tensor<4x256xf32> to tensor<4x256xbf16> loc(#loc141)
    %tmp17_121 = tt.load %tmp17_115, %tmp17_118, %tmp17_120 evictionPolicy = evict_last : tensor<4x256x!tt.ptr<bf16>> loc(#loc141)
    %tmp17_122 = arith.extf %tmp17_121 : tensor<4x256xbf16> to tensor<4x256xf32> loc(#loc142)
    %tmp18 = arith.mulf %tmp15, %tmp17_122 : tensor<4x256xf32> loc(#loc143)
    %tmp19 = arith.constant 0.000000e+00 : f32 loc(#loc144)
    %tmp19_123 = arith.constant dense<0.000000e+00> : tensor<4x256xf32> loc(#loc144)
    %tmp20 = tt.broadcast %tmp9_61 : tensor<1x256xi1> -> tensor<4x256xi1> loc(#loc145)
    %tmp20_124 = arith.select %tmp20, %tmp18, %tmp19_123 : tensor<4x256xi1>, tensor<4x256xf32> loc(#loc145)
    %tmp21 = tt.broadcast %tmp4_38 : tensor<1x256xi1> -> tensor<4x256xi1> loc(#loc146)
    %tmp21_125 = arith.select %tmp21, %tmp8_59, %tmp20_124 : tensor<4x256xi1>, tensor<4x256xf32> loc(#loc146)
    %tmp24 = tt.broadcast %tmp23_32 : tensor<4x1xf32> -> tensor<4x256xf32> loc(#loc147)
    %tmp24_126 = arith.mulf %tmp21_125, %tmp24 : tensor<4x256xf32> loc(#loc147)
    %c192_i32 = arith.constant 192 : i32 loc(#loc65)
    %c192_i32_127 = arith.constant 192 : i32 loc(#loc65)
    %cst = arith.constant dense<192> : tensor<4x1xi32> loc(#loc65)
    %0 = arith.muli %cst, %yindex_7 : tensor<4x1xi32> loc(#loc65)
    %1 = tt.broadcast %xindex_14 : tensor<1x256xi32> -> tensor<4x256xi32> loc(#loc66)
    %2 = tt.broadcast %0 : tensor<4x1xi32> -> tensor<4x256xi32> loc(#loc66)
    %3 = arith.addi %1, %2 : tensor<4x256xi32> loc(#loc66)
    %4 = tt.splat %out_ptr0 : !tt.ptr<bf16> -> tensor<4x256x!tt.ptr<bf16>> loc(#loc67)
    %5 = tt.addptr %4, %3 : tensor<4x256x!tt.ptr<bf16>>, tensor<4x256xi32> loc(#loc67)
    %6 = tt.broadcast %xmask_15 : tensor<1x256xi1> -> tensor<4x256xi1> loc(#loc68)
    %7 = arith.truncf %tmp24_126 : tensor<4x256xf32> to tensor<4x256xbf16> loc(#loc68)
    tt.store %5, %7, %6 : tensor<4x256x!tt.ptr<bf16>> loc(#loc68)
    tt.return loc(#loc69)
  } loc(#loc)
  tt.func private @triton.language.standard.sigmoid__fp32S4_256S__(%x: tensor<4x256xf32> loc("x"(#loc70))) -> tensor<4x256xf32> attributes {noinline = false} {
    %cst = arith.constant 0.000000e+00 : f32 loc(#loc71)
    %cst_0 = arith.constant dense<0.000000e+00> : tensor<4x256xf32> loc(#loc71)
    %0 = arith.subf %cst_0, %x : tensor<4x256xf32> loc(#loc71)
    %1 = math.exp %0 : tensor<4x256xf32> loc(#loc72)
    %c1_i32 = arith.constant 1 : i32 loc(#loc73)
    %cst_1 = arith.constant 1.000000e+00 : f32 loc(#loc73)
    %cst_2 = arith.constant dense<1.000000e+00> : tensor<4x256xf32> loc(#loc73)
    %2 = arith.addf %cst_2, %1 : tensor<4x256xf32> loc(#loc73)
    %c1_i32_3 = arith.constant 1 : i32 loc(#loc74)
    %cst_4 = arith.constant 1.000000e+00 : f32 loc(#loc74)
    %cst_5 = arith.constant dense<1.000000e+00> : tensor<4x256xf32> loc(#loc74)
    %3 = arith.divf %cst_5, %2 : tensor<4x256xf32> loc(#loc74)
    tt.return %3 : tensor<4x256xf32> loc(#loc75)
  ^bb1:  // no predecessors
    %4 = ub.poison : tensor<4x256xf32> loc(#loc76)
    tt.return %4 : tensor<4x256xf32> loc(#loc76)
  } loc(#loc70)
} loc(#loc)
#loc1 = loc("/NHNHOME/WORKSPACE/26msit001_A/jinhyeok/TTT_camera_embedding/lact_llm/.cache_inductor/4w/c4w774ylihulpp5eyiqyav7i366gvn6miybbufzs3q7btwv5veej.py":19:13)
#loc2 = loc("/NHNHOME/WORKSPACE/26msit001_A/jinhyeok/TTT_camera_embedding/lact_llm/.cache_inductor/4w/c4w774ylihulpp5eyiqyav7i366gvn6miybbufzs3q7btwv5veej.py":20:13)
#loc3 = loc("/NHNHOME/WORKSPACE/26msit001_A/jinhyeok/TTT_camera_embedding/lact_llm/.cache_inductor/4w/c4w774ylihulpp5eyiqyav7i366gvn6miybbufzs3q7btwv5veej.py":21:28)
#loc4 = loc("/NHNHOME/WORKSPACE/26msit001_A/jinhyeok/TTT_camera_embedding/lact_llm/.cache_inductor/4w/c4w774ylihulpp5eyiqyav7i366gvn6miybbufzs3q7btwv5veej.py":21:33)
#loc5 = loc("/NHNHOME/WORKSPACE/26msit001_A/jinhyeok/TTT_camera_embedding/lact_llm/.cache_inductor/4w/c4w774ylihulpp5eyiqyav7i366gvn6miybbufzs3q7btwv5veej.py":22:36)
#loc6 = loc("/NHNHOME/WORKSPACE/26msit001_A/jinhyeok/TTT_camera_embedding/lact_llm/.cache_inductor/4w/c4w774ylihulpp5eyiqyav7i366gvn6miybbufzs3q7btwv5veej.py":22:44)
#loc7 = loc("/NHNHOME/WORKSPACE/26msit001_A/jinhyeok/TTT_camera_embedding/lact_llm/.cache_inductor/4w/c4w774ylihulpp5eyiqyav7i366gvn6miybbufzs3q7btwv5veej.py":22:23)
#loc8 = loc("/NHNHOME/WORKSPACE/26msit001_A/jinhyeok/TTT_camera_embedding/lact_llm/.cache_inductor/4w/c4w774ylihulpp5eyiqyav7i366gvn6miybbufzs3q7btwv5veej.py":23:44)
#loc9 = loc("/NHNHOME/WORKSPACE/26msit001_A/jinhyeok/TTT_camera_embedding/lact_llm/.cache_inductor/4w/c4w774ylihulpp5eyiqyav7i366gvn6miybbufzs3q7btwv5veej.py":24:28)
#loc10 = loc("/NHNHOME/WORKSPACE/26msit001_A/jinhyeok/TTT_camera_embedding/lact_llm/.cache_inductor/4w/c4w774ylihulpp5eyiqyav7i366gvn6miybbufzs3q7btwv5veej.py":24:33)
#loc11 = loc("/NHNHOME/WORKSPACE/26msit001_A/jinhyeok/TTT_camera_embedding/lact_llm/.cache_inductor/4w/c4w774ylihulpp5eyiqyav7i366gvn6miybbufzs3q7btwv5veej.py":25:36)
#loc12 = loc("/NHNHOME/WORKSPACE/26msit001_A/jinhyeok/TTT_camera_embedding/lact_llm/.cache_inductor/4w/c4w774ylihulpp5eyiqyav7i366gvn6miybbufzs3q7btwv5veej.py":25:44)
#loc13 = loc("/NHNHOME/WORKSPACE/26msit001_A/jinhyeok/TTT_camera_embedding/lact_llm/.cache_inductor/4w/c4w774ylihulpp5eyiqyav7i366gvn6miybbufzs3q7btwv5veej.py":25:23)
#loc14 = loc("/NHNHOME/WORKSPACE/26msit001_A/jinhyeok/TTT_camera_embedding/lact_llm/.cache_inductor/4w/c4w774ylihulpp5eyiqyav7i366gvn6miybbufzs3q7btwv5veej.py":26:21)
#loc15 = loc("/NHNHOME/WORKSPACE/26msit001_A/jinhyeok/TTT_camera_embedding/lact_llm/.cache_inductor/4w/c4w774ylihulpp5eyiqyav7i366gvn6miybbufzs3q7btwv5veej.py":28:19)
#loc16 = loc("/NHNHOME/WORKSPACE/26msit001_A/jinhyeok/TTT_camera_embedding/lact_llm/.cache_inductor/4w/c4w774ylihulpp5eyiqyav7i366gvn6miybbufzs3q7btwv5veej.py":29:19)
#loc17 = loc("/NHNHOME/WORKSPACE/26msit001_A/jinhyeok/TTT_camera_embedding/lact_llm/.cache_inductor/4w/c4w774ylihulpp5eyiqyav7i366gvn6miybbufzs3q7btwv5veej.py":31:33)
#loc18 = loc("/NHNHOME/WORKSPACE/26msit001_A/jinhyeok/TTT_camera_embedding/lact_llm/.cache_inductor/4w/c4w774ylihulpp5eyiqyav7i366gvn6miybbufzs3q7btwv5veej.py":31:44)
#loc19 = loc("/NHNHOME/WORKSPACE/26msit001_A/jinhyeok/TTT_camera_embedding/lact_llm/.cache_inductor/4w/c4w774ylihulpp5eyiqyav7i366gvn6miybbufzs3q7btwv5veej.py":31:38)
#loc20 = loc("/NHNHOME/WORKSPACE/26msit001_A/jinhyeok/TTT_camera_embedding/lact_llm/.cache_inductor/4w/c4w774ylihulpp5eyiqyav7i366gvn6miybbufzs3q7btwv5veej.py":31:31)
#loc21 = loc("/NHNHOME/WORKSPACE/26msit001_A/jinhyeok/TTT_camera_embedding/lact_llm/.cache_inductor/4w/c4w774ylihulpp5eyiqyav7i366gvn6miybbufzs3q7btwv5veej.py":31:49)
#loc22 = loc("/NHNHOME/WORKSPACE/26msit001_A/jinhyeok/TTT_camera_embedding/lact_llm/.cache_inductor/4w/c4w774ylihulpp5eyiqyav7i366gvn6miybbufzs3q7btwv5veej.py":33:30)
#loc23 = loc("/NHNHOME/WORKSPACE/26msit001_A/jinhyeok/TTT_camera_embedding/lact_llm/.cache_inductor/4w/c4w774ylihulpp5eyiqyav7i366gvn6miybbufzs3q7btwv5veej.py":34:19)
#loc24 = loc("/NHNHOME/WORKSPACE/26msit001_A/jinhyeok/TTT_camera_embedding/lact_llm/.cache_inductor/4w/c4w774ylihulpp5eyiqyav7i366gvn6miybbufzs3q7btwv5veej.py":35:31)
#loc25 = loc("/NHNHOME/WORKSPACE/26msit001_A/jinhyeok/TTT_camera_embedding/lact_llm/.cache_inductor/4w/c4w774ylihulpp5eyiqyav7i366gvn6miybbufzs3q7btwv5veej.py":36:18)
#loc26 = loc("/NHNHOME/WORKSPACE/26msit001_A/jinhyeok/TTT_camera_embedding/lact_llm/.cache_inductor/4w/c4w774ylihulpp5eyiqyav7i366gvn6miybbufzs3q7btwv5veej.py":37:41)
#loc27 = loc("/NHNHOME/WORKSPACE/26msit001_A/jinhyeok/TTT_camera_embedding/lact_llm/.cache_inductor/4w/c4w774ylihulpp5eyiqyav7i366gvn6miybbufzs3q7btwv5veej.py":37:35)
#loc28 = loc("/NHNHOME/WORKSPACE/26msit001_A/jinhyeok/TTT_camera_embedding/lact_llm/.cache_inductor/4w/c4w774ylihulpp5eyiqyav7i366gvn6miybbufzs3q7btwv5veej.py":37:53)
#loc29 = loc("/NHNHOME/WORKSPACE/26msit001_A/jinhyeok/TTT_camera_embedding/lact_llm/.cache_inductor/4w/c4w774ylihulpp5eyiqyav7i366gvn6miybbufzs3q7btwv5veej.py":37:47)
#loc30 = loc("/NHNHOME/WORKSPACE/26msit001_A/jinhyeok/TTT_camera_embedding/lact_llm/.cache_inductor/4w/c4w774ylihulpp5eyiqyav7i366gvn6miybbufzs3q7btwv5veej.py":37:30)
#loc31 = loc("/NHNHOME/WORKSPACE/26msit001_A/jinhyeok/TTT_camera_embedding/lact_llm/.cache_inductor/4w/c4w774ylihulpp5eyiqyav7i366gvn6miybbufzs3q7btwv5veej.py":37:65)
#loc32 = loc("/NHNHOME/WORKSPACE/26msit001_A/jinhyeok/TTT_camera_embedding/lact_llm/.cache_inductor/4w/c4w774ylihulpp5eyiqyav7i366gvn6miybbufzs3q7btwv5veej.py":37:58)
#loc33 = loc("/NHNHOME/WORKSPACE/26msit001_A/jinhyeok/TTT_camera_embedding/lact_llm/.cache_inductor/4w/c4w774ylihulpp5eyiqyav7i366gvn6miybbufzs3q7btwv5veej.py":39:36)
#loc34 = loc("/NHNHOME/WORKSPACE/26msit001_A/jinhyeok/TTT_camera_embedding/lact_llm/.cache_inductor/4w/c4w774ylihulpp5eyiqyav7i366gvn6miybbufzs3q7btwv5veej.py":40:32)
#loc35 = loc("/NHNHOME/WORKSPACE/26msit001_A/jinhyeok/TTT_camera_embedding/lact_llm/.cache_inductor/4w/c4w774ylihulpp5eyiqyav7i366gvn6miybbufzs3q7btwv5veej.py":41:19)
#loc36 = loc("/NHNHOME/WORKSPACE/26msit001_A/jinhyeok/TTT_camera_embedding/lact_llm/.cache_inductor/4w/c4w774ylihulpp5eyiqyav7i366gvn6miybbufzs3q7btwv5veej.py":42:33)
#loc37 = loc("/NHNHOME/WORKSPACE/26msit001_A/jinhyeok/TTT_camera_embedding/lact_llm/.cache_inductor/4w/c4w774ylihulpp5eyiqyav7i366gvn6miybbufzs3q7btwv5veej.py":43:19)
#loc38 = loc("/NHNHOME/WORKSPACE/26msit001_A/jinhyeok/TTT_camera_embedding/lact_llm/.cache_inductor/4w/c4w774ylihulpp5eyiqyav7i366gvn6miybbufzs3q7btwv5veej.py":44:39)
#loc39 = loc("/NHNHOME/WORKSPACE/26msit001_A/jinhyeok/TTT_camera_embedding/lact_llm/.cache_inductor/4w/c4w774ylihulpp5eyiqyav7i366gvn6miybbufzs3q7btwv5veej.py":44:58)
#loc40 = loc("/NHNHOME/WORKSPACE/26msit001_A/jinhyeok/TTT_camera_embedding/lact_llm/.cache_inductor/4w/c4w774ylihulpp5eyiqyav7i366gvn6miybbufzs3q7btwv5veej.py":44:50)
#loc41 = loc("/NHNHOME/WORKSPACE/26msit001_A/jinhyeok/TTT_camera_embedding/lact_llm/.cache_inductor/4w/c4w774ylihulpp5eyiqyav7i366gvn6miybbufzs3q7btwv5veej.py":44:44)
#loc42 = loc("/NHNHOME/WORKSPACE/26msit001_A/jinhyeok/TTT_camera_embedding/lact_llm/.cache_inductor/4w/c4w774ylihulpp5eyiqyav7i366gvn6miybbufzs3q7btwv5veej.py":44:71)
#loc43 = loc("/NHNHOME/WORKSPACE/26msit001_A/jinhyeok/TTT_camera_embedding/lact_llm/.cache_inductor/4w/c4w774ylihulpp5eyiqyav7i366gvn6miybbufzs3q7btwv5veej.py":44:64)
#loc44 = loc("/NHNHOME/WORKSPACE/26msit001_A/jinhyeok/TTT_camera_embedding/lact_llm/.cache_inductor/4w/c4w774ylihulpp5eyiqyav7i366gvn6miybbufzs3q7btwv5veej.py":44:31)
#loc45 = loc("/NHNHOME/WORKSPACE/26msit001_A/jinhyeok/TTT_camera_embedding/lact_llm/.cache_inductor/4w/c4w774ylihulpp5eyiqyav7i366gvn6miybbufzs3q7btwv5veej.py":44:83)
#loc46 = loc("/NHNHOME/WORKSPACE/26msit001_A/jinhyeok/TTT_camera_embedding/lact_llm/.cache_inductor/4w/c4w774ylihulpp5eyiqyav7i366gvn6miybbufzs3q7btwv5veej.py":44:76)
#loc47 = loc("/NHNHOME/WORKSPACE/26msit001_A/jinhyeok/TTT_camera_embedding/lact_llm/.cache_inductor/4w/c4w774ylihulpp5eyiqyav7i366gvn6miybbufzs3q7btwv5veej.py":44:134)
#loc48 = loc("/NHNHOME/WORKSPACE/26msit001_A/jinhyeok/TTT_camera_embedding/lact_llm/.cache_inductor/4w/c4w774ylihulpp5eyiqyav7i366gvn6miybbufzs3q7btwv5veej.py":46:23)
#loc49 = loc("/NHNHOME/WORKSPACE/26msit001_A/jinhyeok/TTT_camera_embedding/lact_llm/.cache_inductor/4w/c4w774ylihulpp5eyiqyav7i366gvn6miybbufzs3q7btwv5veej.py":47:20)
#loc50 = loc("/NHNHOME/WORKSPACE/26msit001_A/jinhyeok/TTT_camera_embedding/lact_llm/.cache_inductor/4w/c4w774ylihulpp5eyiqyav7i366gvn6miybbufzs3q7btwv5veej.py":49:39)
#loc51 = loc("/NHNHOME/WORKSPACE/26msit001_A/jinhyeok/TTT_camera_embedding/lact_llm/.cache_inductor/4w/c4w774ylihulpp5eyiqyav7i366gvn6miybbufzs3q7btwv5veej.py":49:58)
#loc52 = loc("/NHNHOME/WORKSPACE/26msit001_A/jinhyeok/TTT_camera_embedding/lact_llm/.cache_inductor/4w/c4w774ylihulpp5eyiqyav7i366gvn6miybbufzs3q7btwv5veej.py":49:50)
#loc53 = loc("/NHNHOME/WORKSPACE/26msit001_A/jinhyeok/TTT_camera_embedding/lact_llm/.cache_inductor/4w/c4w774ylihulpp5eyiqyav7i366gvn6miybbufzs3q7btwv5veej.py":49:44)
#loc54 = loc("/NHNHOME/WORKSPACE/26msit001_A/jinhyeok/TTT_camera_embedding/lact_llm/.cache_inductor/4w/c4w774ylihulpp5eyiqyav7i366gvn6miybbufzs3q7btwv5veej.py":49:71)
#loc55 = loc("/NHNHOME/WORKSPACE/26msit001_A/jinhyeok/TTT_camera_embedding/lact_llm/.cache_inductor/4w/c4w774ylihulpp5eyiqyav7i366gvn6miybbufzs3q7btwv5veej.py":49:64)
#loc56 = loc("/NHNHOME/WORKSPACE/26msit001_A/jinhyeok/TTT_camera_embedding/lact_llm/.cache_inductor/4w/c4w774ylihulpp5eyiqyav7i366gvn6miybbufzs3q7btwv5veej.py":49:31)
#loc57 = loc("/NHNHOME/WORKSPACE/26msit001_A/jinhyeok/TTT_camera_embedding/lact_llm/.cache_inductor/4w/c4w774ylihulpp5eyiqyav7i366gvn6miybbufzs3q7btwv5veej.py":49:83)
#loc58 = loc("/NHNHOME/WORKSPACE/26msit001_A/jinhyeok/TTT_camera_embedding/lact_llm/.cache_inductor/4w/c4w774ylihulpp5eyiqyav7i366gvn6miybbufzs3q7btwv5veej.py":49:76)
#loc59 = loc("/NHNHOME/WORKSPACE/26msit001_A/jinhyeok/TTT_camera_embedding/lact_llm/.cache_inductor/4w/c4w774ylihulpp5eyiqyav7i366gvn6miybbufzs3q7btwv5veej.py":49:134)
#loc60 = loc("/NHNHOME/WORKSPACE/26msit001_A/jinhyeok/TTT_camera_embedding/lact_llm/.cache_inductor/4w/c4w774ylihulpp5eyiqyav7i366gvn6miybbufzs3q7btwv5veej.py":50:20)
#loc61 = loc("/NHNHOME/WORKSPACE/26msit001_A/jinhyeok/TTT_camera_embedding/lact_llm/.cache_inductor/4w/c4w774ylihulpp5eyiqyav7i366gvn6miybbufzs3q7btwv5veej.py":51:38)
#loc62 = loc("/NHNHOME/WORKSPACE/26msit001_A/jinhyeok/TTT_camera_embedding/lact_llm/.cache_inductor/4w/c4w774ylihulpp5eyiqyav7i366gvn6miybbufzs3q7btwv5veej.py":52:34)
#loc63 = loc("/NHNHOME/WORKSPACE/26msit001_A/jinhyeok/TTT_camera_embedding/lact_llm/.cache_inductor/4w/c4w774ylihulpp5eyiqyav7i366gvn6miybbufzs3q7btwv5veej.py":53:33)
#loc64 = loc("/NHNHOME/WORKSPACE/26msit001_A/jinhyeok/TTT_camera_embedding/lact_llm/.cache_inductor/4w/c4w774ylihulpp5eyiqyav7i366gvn6miybbufzs3q7btwv5veej.py":55:20)
#loc65 = loc("/NHNHOME/WORKSPACE/26msit001_A/jinhyeok/TTT_camera_embedding/lact_llm/.cache_inductor/4w/c4w774ylihulpp5eyiqyav7i366gvn6miybbufzs3q7btwv5veej.py":57:34)
#loc66 = loc("/NHNHOME/WORKSPACE/26msit001_A/jinhyeok/TTT_camera_embedding/lact_llm/.cache_inductor/4w/c4w774ylihulpp5eyiqyav7i366gvn6miybbufzs3q7btwv5veej.py":57:30)
#loc67 = loc("/NHNHOME/WORKSPACE/26msit001_A/jinhyeok/TTT_camera_embedding/lact_llm/.cache_inductor/4w/c4w774ylihulpp5eyiqyav7i366gvn6miybbufzs3q7btwv5veej.py":57:25)
#loc68 = loc("/NHNHOME/WORKSPACE/26msit001_A/jinhyeok/TTT_camera_embedding/lact_llm/.cache_inductor/4w/c4w774ylihulpp5eyiqyav7i366gvn6miybbufzs3q7btwv5veej.py":57:46)
#loc69 = loc("/NHNHOME/WORKSPACE/26msit001_A/jinhyeok/TTT_camera_embedding/lact_llm/.cache_inductor/4w/c4w774ylihulpp5eyiqyav7i366gvn6miybbufzs3q7btwv5veej.py":57:4)
#loc71 = loc("/NHNHOME/WORKSPACE/26msit001_A/jinhyeok/TTT_camera_embedding/.venv_llm/lib/python3.12/site-packages/triton/language/standard.py":48:30)
#loc72 = loc("/NHNHOME/WORKSPACE/26msit001_A/jinhyeok/TTT_camera_embedding/.venv_llm/lib/python3.12/site-packages/triton/language/standard.py":48:29)
#loc73 = loc("/NHNHOME/WORKSPACE/26msit001_A/jinhyeok/TTT_camera_embedding/.venv_llm/lib/python3.12/site-packages/triton/language/standard.py":48:20)
#loc74 = loc("/NHNHOME/WORKSPACE/26msit001_A/jinhyeok/TTT_camera_embedding/.venv_llm/lib/python3.12/site-packages/triton/language/standard.py":48:16)
#loc75 = loc("/NHNHOME/WORKSPACE/26msit001_A/jinhyeok/TTT_camera_embedding/.venv_llm/lib/python3.12/site-packages/triton/language/standard.py":48:11)
#loc76 = loc("/NHNHOME/WORKSPACE/26msit001_A/jinhyeok/TTT_camera_embedding/.venv_llm/lib/python3.12/site-packages/triton/language/standard.py":48:4)
#loc84 = loc("ynumel"(#loc1))
#loc85 = loc("xnumel"(#loc2))
#loc86 = loc("yoffset"(#loc3))
#loc87 = loc("yoffset"(#loc4))
#loc88 = loc("yindex"(#loc5))
#loc89 = loc("yindex"(#loc6))
#loc90 = loc("yindex"(#loc7))
#loc91 = loc("ymask"(#loc8))
#loc92 = loc("xoffset"(#loc9))
#loc93 = loc("xoffset"(#loc10))
#loc94 = loc("xindex"(#loc11))
#loc95 = loc("xindex"(#loc12))
#loc96 = loc("xindex"(#loc13))
#loc97 = loc("xmask"(#loc14))
#loc98 = loc("y0"(#loc15))
#loc99 = loc("y1"(#loc16))
#loc100 = loc("tmp23"(#loc17))
#loc101 = loc("tmp23"(#loc18))
#loc102 = loc("tmp23"(#loc19))
#loc103 = loc("tmp23"(#loc20))
#loc104 = loc("tmp23"(#loc21))
#loc105 = loc("tmp1"(#loc22))
#loc106 = loc("tmp2"(#loc23))
#loc107 = loc("tmp3"(#loc24))
#loc108 = loc("tmp4"(#loc25))
#loc109 = loc("tmp5"(#loc26))
#loc110 = loc("tmp5"(#loc27))
#loc111 = loc("tmp5"(#loc28))
#loc112 = loc("tmp5"(#loc29))
#loc113 = loc("tmp5"(#loc30))
#loc114 = loc("tmp5"(#loc31))
#loc115 = loc("tmp5"(#loc32))
#loc116 = loc("tmp7"(#loc33))
#loc117 = loc("tmp8"(#loc34))
#loc118 = loc("tmp9"(#loc35))
#loc119 = loc("tmp10"(#loc36))
#loc120 = loc("tmp11"(#loc37))
#loc121 = loc("tmp12"(#loc38))
#loc122 = loc("tmp12"(#loc39))
#loc123 = loc("tmp12"(#loc40))
#loc124 = loc("tmp12"(#loc41))
#loc125 = loc("tmp12"(#loc42))
#loc126 = loc("tmp12"(#loc43))
#loc127 = loc("tmp12"(#loc44))
#loc128 = loc("tmp12"(#loc45))
#loc129 = loc("tmp12"(#loc46))
#loc130 = loc("tmp12"(#loc47))
#loc131 = loc("tmp14"(#loc48))
#loc132 = loc("tmp15"(#loc49))
#loc133 = loc("tmp17"(#loc50))
#loc134 = loc("tmp17"(#loc51))
#loc135 = loc("tmp17"(#loc52))
#loc136 = loc("tmp17"(#loc53))
#loc137 = loc("tmp17"(#loc54))
#loc138 = loc("tmp17"(#loc55))
#loc139 = loc("tmp17"(#loc56))
#loc140 = loc("tmp17"(#loc57))
#loc141 = loc("tmp17"(#loc58))
#loc142 = loc("tmp17"(#loc59))
#loc143 = loc("tmp18"(#loc60))
#loc144 = loc("tmp19"(#loc61))
#loc145 = loc("tmp20"(#loc62))
#loc146 = loc("tmp21"(#loc63))
#loc147 = loc("tmp24"(#loc64))
