#loc = loc("/NHNHOME/WORKSPACE/26msit001_A/jinhyeok/loop_TTT/lact/.cache_inductor_llm/qg/cqgg5tgrnixc2k3pcji32ygucg6euwprenwh6e5xzrhopcw6kbsh.py":18:0)
#loc41 = loc("in_ptr0"(#loc))
#loc42 = loc("in_ptr1"(#loc))
#loc43 = loc("in_ptr2"(#loc))
#loc44 = loc("in_ptr3"(#loc))
#loc45 = loc("out_ptr0"(#loc))
#loc46 = loc("out_ptr1"(#loc))
#loc47 = loc("xnumel"(#loc))
module {
  tt.func public @triton_poi_fused__to_copy_add_mul_rsub_sigmoid_silu_slice_transpose_2(%in_ptr0: !tt.ptr<bf16> {tt.divisibility = 16 : i32} loc("in_ptr0"(#loc)), %in_ptr1: !tt.ptr<bf16> {tt.divisibility = 16 : i32} loc("in_ptr1"(#loc)), %in_ptr2: !tt.ptr<f32> loc("in_ptr2"(#loc)), %in_ptr3: !tt.ptr<bf16> {tt.divisibility = 16 : i32} loc("in_ptr3"(#loc)), %out_ptr0: !tt.ptr<bf16> {tt.divisibility = 16 : i32} loc("out_ptr0"(#loc)), %out_ptr1: !tt.ptr<bf16> {tt.divisibility = 16 : i32} loc("out_ptr1"(#loc)), %xnumel: i32 {tt.divisibility = 16 : i32} loc("xnumel"(#loc))) attributes {noinline = false} {
    %cst = arith.constant dense<0.000000e+00> : tensor<1024xf32> loc(#loc1)
    %cst_0 = arith.constant dense<1.000000e+00> : tensor<1024xf32> loc(#loc1)
    %tmp8 = arith.constant dense<12288> : tensor<1024xi32> loc(#loc48)
    %tmp8_1 = arith.constant dense<3> : tensor<1024xi32> loc(#loc49)
    %x2 = arith.constant dense<196608> : tensor<1024xi32> loc(#loc50)
    %x0 = arith.constant dense<1024> : tensor<1024xi32> loc(#loc51)
    %c1024_i32 = arith.constant 1024 : i32 loc(#loc1)
    %xoffset = tt.get_program_id x : i32 loc(#loc52)
    %xoffset_2 = arith.muli %xoffset, %c1024_i32 : i32 loc(#loc53)
    %xindex = tt.make_range {end = 1024 : i32, start = 0 : i32} : tensor<1024xi32> loc(#loc54)
    %xindex_3 = tt.splat %xoffset_2 : i32 -> tensor<1024xi32> loc(#loc55)
    %xindex_4 = arith.addi %xindex_3, %xindex : tensor<1024xi32> loc(#loc55)
    %x0_5 = arith.remsi %xindex_4, %x0 : tensor<1024xi32> loc(#loc51)
    %x2_6 = arith.divsi %xindex_4, %x2 : tensor<1024xi32> loc(#loc50)
    %tmp0 = tt.splat %in_ptr0 : !tt.ptr<bf16> -> tensor<1024x!tt.ptr<bf16>> loc(#loc56)
    %tmp0_7 = tt.addptr %tmp0, %xindex_4 : tensor<1024x!tt.ptr<bf16>>, tensor<1024xi32> loc(#loc56)
    %tmp0_8 = tt.load %tmp0_7 : tensor<1024x!tt.ptr<bf16>> loc(#loc57)
    %tmp0_9 = arith.extf %tmp0_8 : tensor<1024xbf16> to tensor<1024xf32> loc(#loc58)
    %tmp5 = tt.splat %in_ptr1 : !tt.ptr<bf16> -> tensor<1024x!tt.ptr<bf16>> loc(#loc59)
    %tmp5_10 = tt.addptr %tmp5, %xindex_4 : tensor<1024x!tt.ptr<bf16>>, tensor<1024xi32> loc(#loc59)
    %tmp5_11 = tt.load %tmp5_10 : tensor<1024x!tt.ptr<bf16>> loc(#loc60)
    %tmp5_12 = arith.extf %tmp5_11 : tensor<1024xbf16> to tensor<1024xf32> loc(#loc61)
    %tmp8_13 = arith.muli %x0_5, %tmp8_1 : tensor<1024xi32> loc(#loc49)
    %tmp8_14 = arith.muli %x2_6, %tmp8 : tensor<1024xi32> loc(#loc48)
    %tmp8_15 = arith.addi %tmp8_13, %tmp8_14 : tensor<1024xi32> loc(#loc62)
    %tmp8_16 = tt.splat %in_ptr2 : !tt.ptr<f32> -> tensor<1024x!tt.ptr<f32>> loc(#loc63)
    %tmp8_17 = tt.addptr %tmp8_16, %tmp8_15 : tensor<1024x!tt.ptr<f32>>, tensor<1024xi32> loc(#loc63)
    %tmp8_18 = tt.load %tmp8_17 evictionPolicy = evict_last : tensor<1024x!tt.ptr<f32>> loc(#loc64)
    %tmp11 = tt.splat %in_ptr3 : !tt.ptr<bf16> -> tensor<1024x!tt.ptr<bf16>> loc(#loc65)
    %tmp11_19 = tt.addptr %tmp11, %xindex_4 : tensor<1024x!tt.ptr<bf16>>, tensor<1024xi32> loc(#loc65)
    %tmp11_20 = tt.load %tmp11_19 : tensor<1024x!tt.ptr<bf16>> loc(#loc66)
    %tmp11_21 = arith.extf %tmp11_20 : tensor<1024xbf16> to tensor<1024xf32> loc(#loc67)
    %tmp2 = arith.subf %cst, %tmp0_9 : tensor<1024xf32> loc(#loc78)
    %tmp2_22 = math.exp %tmp2 : tensor<1024xf32> loc(#loc79)
    %tmp2_23 = arith.addf %tmp2_22, %cst_0 : tensor<1024xf32> loc(#loc80)
    %tmp2_24 = arith.divf %cst_0, %tmp2_23 : tensor<1024xf32> loc(#loc81)
    %tmp3 = arith.mulf %tmp0_9, %tmp2_24 : tensor<1024xf32> loc(#loc69)
    %tmp6 = arith.mulf %tmp3, %tmp5_12 : tensor<1024xf32> loc(#loc70)
    %tmp9 = arith.mulf %tmp6, %tmp8_18 : tensor<1024xf32> loc(#loc71)
    %tmp12 = arith.mulf %tmp11_21, %tmp5_12 : tensor<1024xf32> loc(#loc72)
    %tmp14 = arith.mulf %tmp12, %tmp2_24 : tensor<1024xf32> loc(#loc73)
    %tmp16 = arith.subf %cst_0, %tmp2_24 : tensor<1024xf32> loc(#loc74)
    %tmp17 = arith.mulf %tmp0_9, %tmp16 : tensor<1024xf32> loc(#loc75)
    %tmp18 = arith.addf %tmp17, %cst_0 : tensor<1024xf32> loc(#loc76)
    %tmp19 = arith.mulf %tmp14, %tmp18 : tensor<1024xf32> loc(#loc77)
    %0 = tt.splat %out_ptr0 : !tt.ptr<bf16> -> tensor<1024x!tt.ptr<bf16>> loc(#loc36)
    %1 = tt.addptr %0, %xindex_4 : tensor<1024x!tt.ptr<bf16>>, tensor<1024xi32> loc(#loc36)
    %2 = arith.truncf %tmp9 : tensor<1024xf32> to tensor<1024xbf16> loc(#loc37)
    tt.store %1, %2 : tensor<1024x!tt.ptr<bf16>> loc(#loc37)
    %3 = tt.splat %out_ptr1 : !tt.ptr<bf16> -> tensor<1024x!tt.ptr<bf16>> loc(#loc38)
    %4 = tt.addptr %3, %xindex_4 : tensor<1024x!tt.ptr<bf16>>, tensor<1024xi32> loc(#loc38)
    %5 = arith.truncf %tmp19 : tensor<1024xf32> to tensor<1024xbf16> loc(#loc39)
    tt.store %4, %5 : tensor<1024x!tt.ptr<bf16>> loc(#loc39)
    tt.return loc(#loc40)
  } loc(#loc)
} loc(#loc)
#loc1 = loc(unknown)
#loc2 = loc("/NHNHOME/WORKSPACE/26msit001_A/jinhyeok/loop_TTT/lact/.cache_inductor_llm/qg/cqgg5tgrnixc2k3pcji32ygucg6euwprenwh6e5xzrhopcw6kbsh.py":28:43)
#loc3 = loc("/NHNHOME/WORKSPACE/26msit001_A/jinhyeok/loop_TTT/lact/.cache_inductor_llm/qg/cqgg5tgrnixc2k3pcji32ygucg6euwprenwh6e5xzrhopcw6kbsh.py":28:32)
#loc4 = loc("/NHNHOME/WORKSPACE/26msit001_A/jinhyeok/loop_TTT/lact/.cache_inductor_llm/qg/cqgg5tgrnixc2k3pcji32ygucg6euwprenwh6e5xzrhopcw6kbsh.py":25:19)
#loc5 = loc("/NHNHOME/WORKSPACE/26msit001_A/jinhyeok/loop_TTT/lact/.cache_inductor_llm/qg/cqgg5tgrnixc2k3pcji32ygucg6euwprenwh6e5xzrhopcw6kbsh.py":24:19)
#loc6 = loc("/NHNHOME/WORKSPACE/26msit001_A/jinhyeok/loop_TTT/lact/.cache_inductor_llm/qg/cqgg5tgrnixc2k3pcji32ygucg6euwprenwh6e5xzrhopcw6kbsh.py":20:28)
#loc7 = loc("/NHNHOME/WORKSPACE/26msit001_A/jinhyeok/loop_TTT/lact/.cache_inductor_llm/qg/cqgg5tgrnixc2k3pcji32ygucg6euwprenwh6e5xzrhopcw6kbsh.py":20:33)
#loc8 = loc("/NHNHOME/WORKSPACE/26msit001_A/jinhyeok/loop_TTT/lact/.cache_inductor_llm/qg/cqgg5tgrnixc2k3pcji32ygucg6euwprenwh6e5xzrhopcw6kbsh.py":21:36)
#loc9 = loc("/NHNHOME/WORKSPACE/26msit001_A/jinhyeok/loop_TTT/lact/.cache_inductor_llm/qg/cqgg5tgrnixc2k3pcji32ygucg6euwprenwh6e5xzrhopcw6kbsh.py":21:23)
#loc10 = loc("/NHNHOME/WORKSPACE/26msit001_A/jinhyeok/loop_TTT/lact/.cache_inductor_llm/qg/cqgg5tgrnixc2k3pcji32ygucg6euwprenwh6e5xzrhopcw6kbsh.py":26:30)
#loc11 = loc("/NHNHOME/WORKSPACE/26msit001_A/jinhyeok/loop_TTT/lact/.cache_inductor_llm/qg/cqgg5tgrnixc2k3pcji32ygucg6euwprenwh6e5xzrhopcw6kbsh.py":26:35)
#loc12 = loc("/NHNHOME/WORKSPACE/26msit001_A/jinhyeok/loop_TTT/lact/.cache_inductor_llm/qg/cqgg5tgrnixc2k3pcji32ygucg6euwprenwh6e5xzrhopcw6kbsh.py":26:44)
#loc13 = loc("/NHNHOME/WORKSPACE/26msit001_A/jinhyeok/loop_TTT/lact/.cache_inductor_llm/qg/cqgg5tgrnixc2k3pcji32ygucg6euwprenwh6e5xzrhopcw6kbsh.py":27:30)
#loc14 = loc("/NHNHOME/WORKSPACE/26msit001_A/jinhyeok/loop_TTT/lact/.cache_inductor_llm/qg/cqgg5tgrnixc2k3pcji32ygucg6euwprenwh6e5xzrhopcw6kbsh.py":27:35)
#loc15 = loc("/NHNHOME/WORKSPACE/26msit001_A/jinhyeok/loop_TTT/lact/.cache_inductor_llm/qg/cqgg5tgrnixc2k3pcji32ygucg6euwprenwh6e5xzrhopcw6kbsh.py":27:44)
#loc16 = loc("/NHNHOME/WORKSPACE/26msit001_A/jinhyeok/loop_TTT/lact/.cache_inductor_llm/qg/cqgg5tgrnixc2k3pcji32ygucg6euwprenwh6e5xzrhopcw6kbsh.py":28:37)
#loc17 = loc("/NHNHOME/WORKSPACE/26msit001_A/jinhyeok/loop_TTT/lact/.cache_inductor_llm/qg/cqgg5tgrnixc2k3pcji32ygucg6euwprenwh6e5xzrhopcw6kbsh.py":28:30)
#loc18 = loc("/NHNHOME/WORKSPACE/26msit001_A/jinhyeok/loop_TTT/lact/.cache_inductor_llm/qg/cqgg5tgrnixc2k3pcji32ygucg6euwprenwh6e5xzrhopcw6kbsh.py":28:48)
#loc19 = loc("/NHNHOME/WORKSPACE/26msit001_A/jinhyeok/loop_TTT/lact/.cache_inductor_llm/qg/cqgg5tgrnixc2k3pcji32ygucg6euwprenwh6e5xzrhopcw6kbsh.py":29:31)
#loc20 = loc("/NHNHOME/WORKSPACE/26msit001_A/jinhyeok/loop_TTT/lact/.cache_inductor_llm/qg/cqgg5tgrnixc2k3pcji32ygucg6euwprenwh6e5xzrhopcw6kbsh.py":29:36)
#loc21 = loc("/NHNHOME/WORKSPACE/26msit001_A/jinhyeok/loop_TTT/lact/.cache_inductor_llm/qg/cqgg5tgrnixc2k3pcji32ygucg6euwprenwh6e5xzrhopcw6kbsh.py":29:45)
#loc22 = loc("/NHNHOME/WORKSPACE/26msit001_A/jinhyeok/TTT_camera_embedding/.venv_llm/lib/python3.12/site-packages/triton/language/standard.py":48:30)
#loc23 = loc("/NHNHOME/WORKSPACE/26msit001_A/jinhyeok/loop_TTT/lact/.cache_inductor_llm/qg/cqgg5tgrnixc2k3pcji32ygucg6euwprenwh6e5xzrhopcw6kbsh.py":31:22)
#loc24 = loc("/NHNHOME/WORKSPACE/26msit001_A/jinhyeok/TTT_camera_embedding/.venv_llm/lib/python3.12/site-packages/triton/language/standard.py":48:29)
#loc25 = loc("/NHNHOME/WORKSPACE/26msit001_A/jinhyeok/TTT_camera_embedding/.venv_llm/lib/python3.12/site-packages/triton/language/standard.py":48:20)
#loc26 = loc("/NHNHOME/WORKSPACE/26msit001_A/jinhyeok/TTT_camera_embedding/.venv_llm/lib/python3.12/site-packages/triton/language/standard.py":48:16)
#loc27 = loc("/NHNHOME/WORKSPACE/26msit001_A/jinhyeok/loop_TTT/lact/.cache_inductor_llm/qg/cqgg5tgrnixc2k3pcji32ygucg6euwprenwh6e5xzrhopcw6kbsh.py":32:18)
#loc28 = loc("/NHNHOME/WORKSPACE/26msit001_A/jinhyeok/loop_TTT/lact/.cache_inductor_llm/qg/cqgg5tgrnixc2k3pcji32ygucg6euwprenwh6e5xzrhopcw6kbsh.py":34:18)
#loc29 = loc("/NHNHOME/WORKSPACE/26msit001_A/jinhyeok/loop_TTT/lact/.cache_inductor_llm/qg/cqgg5tgrnixc2k3pcji32ygucg6euwprenwh6e5xzrhopcw6kbsh.py":36:18)
#loc30 = loc("/NHNHOME/WORKSPACE/26msit001_A/jinhyeok/loop_TTT/lact/.cache_inductor_llm/qg/cqgg5tgrnixc2k3pcji32ygucg6euwprenwh6e5xzrhopcw6kbsh.py":38:20)
#loc31 = loc("/NHNHOME/WORKSPACE/26msit001_A/jinhyeok/loop_TTT/lact/.cache_inductor_llm/qg/cqgg5tgrnixc2k3pcji32ygucg6euwprenwh6e5xzrhopcw6kbsh.py":40:20)
#loc32 = loc("/NHNHOME/WORKSPACE/26msit001_A/jinhyeok/loop_TTT/lact/.cache_inductor_llm/qg/cqgg5tgrnixc2k3pcji32ygucg6euwprenwh6e5xzrhopcw6kbsh.py":42:20)
#loc33 = loc("/NHNHOME/WORKSPACE/26msit001_A/jinhyeok/loop_TTT/lact/.cache_inductor_llm/qg/cqgg5tgrnixc2k3pcji32ygucg6euwprenwh6e5xzrhopcw6kbsh.py":43:19)
#loc34 = loc("/NHNHOME/WORKSPACE/26msit001_A/jinhyeok/loop_TTT/lact/.cache_inductor_llm/qg/cqgg5tgrnixc2k3pcji32ygucg6euwprenwh6e5xzrhopcw6kbsh.py":44:20)
#loc35 = loc("/NHNHOME/WORKSPACE/26msit001_A/jinhyeok/loop_TTT/lact/.cache_inductor_llm/qg/cqgg5tgrnixc2k3pcji32ygucg6euwprenwh6e5xzrhopcw6kbsh.py":45:20)
#loc36 = loc("/NHNHOME/WORKSPACE/26msit001_A/jinhyeok/loop_TTT/lact/.cache_inductor_llm/qg/cqgg5tgrnixc2k3pcji32ygucg6euwprenwh6e5xzrhopcw6kbsh.py":46:25)
#loc37 = loc("/NHNHOME/WORKSPACE/26msit001_A/jinhyeok/loop_TTT/lact/.cache_inductor_llm/qg/cqgg5tgrnixc2k3pcji32ygucg6euwprenwh6e5xzrhopcw6kbsh.py":46:37)
#loc38 = loc("/NHNHOME/WORKSPACE/26msit001_A/jinhyeok/loop_TTT/lact/.cache_inductor_llm/qg/cqgg5tgrnixc2k3pcji32ygucg6euwprenwh6e5xzrhopcw6kbsh.py":47:25)
#loc39 = loc("/NHNHOME/WORKSPACE/26msit001_A/jinhyeok/loop_TTT/lact/.cache_inductor_llm/qg/cqgg5tgrnixc2k3pcji32ygucg6euwprenwh6e5xzrhopcw6kbsh.py":47:37)
#loc40 = loc("/NHNHOME/WORKSPACE/26msit001_A/jinhyeok/loop_TTT/lact/.cache_inductor_llm/qg/cqgg5tgrnixc2k3pcji32ygucg6euwprenwh6e5xzrhopcw6kbsh.py":47:4)
#loc48 = loc("tmp8"(#loc2))
#loc49 = loc("tmp8"(#loc3))
#loc50 = loc("x2"(#loc4))
#loc51 = loc("x0"(#loc5))
#loc52 = loc("xoffset"(#loc6))
#loc53 = loc("xoffset"(#loc7))
#loc54 = loc("xindex"(#loc8))
#loc55 = loc("xindex"(#loc9))
#loc56 = loc("tmp0"(#loc10))
#loc57 = loc("tmp0"(#loc11))
#loc58 = loc("tmp0"(#loc12))
#loc59 = loc("tmp5"(#loc13))
#loc60 = loc("tmp5"(#loc14))
#loc61 = loc("tmp5"(#loc15))
#loc62 = loc("tmp8"(#loc16))
#loc63 = loc("tmp8"(#loc17))
#loc64 = loc("tmp8"(#loc18))
#loc65 = loc("tmp11"(#loc19))
#loc66 = loc("tmp11"(#loc20))
#loc67 = loc("tmp11"(#loc21))
#loc68 = loc("tmp2"(#loc23))
#loc69 = loc("tmp3"(#loc27))
#loc70 = loc("tmp6"(#loc28))
#loc71 = loc("tmp9"(#loc29))
#loc72 = loc("tmp12"(#loc30))
#loc73 = loc("tmp14"(#loc31))
#loc74 = loc("tmp16"(#loc32))
#loc75 = loc("tmp17"(#loc33))
#loc76 = loc("tmp18"(#loc34))
#loc77 = loc("tmp19"(#loc35))
#loc78 = loc(callsite(#loc22 at #loc68))
#loc79 = loc(callsite(#loc24 at #loc68))
#loc80 = loc(callsite(#loc25 at #loc68))
#loc81 = loc(callsite(#loc26 at #loc68))
