#loc = loc("/NHNHOME/WORKSPACE/26msit001_A/jinhyeok/loop_TTT/lact/.cache_inductor_llm/yy/cyyj3icvz5kxhz75vfbaqupqbplxjj4ifx5dmepuuq5lpqyjieq3.py":18:0)
#loc1 = loc(unknown)
#loc46 = loc("/NHNHOME/WORKSPACE/26msit001_A/jinhyeok/loop_TTT/lact/.cache_inductor_llm/yy/cyyj3icvz5kxhz75vfbaqupqbplxjj4ifx5dmepuuq5lpqyjieq3.py":66:27)
#loc49 = loc("/NHNHOME/WORKSPACE/26msit001_A/jinhyeok/loop_TTT/lact/.cache_inductor_llm/yy/cyyj3icvz5kxhz75vfbaqupqbplxjj4ifx5dmepuuq5lpqyjieq3.py":67:27)
#loc56 = loc("in_ptr0"(#loc))
#loc57 = loc("in_ptr1"(#loc))
#loc58 = loc("in_ptr2"(#loc))
#loc59 = loc("in_ptr3"(#loc))
#loc60 = loc("in_ptr4"(#loc))
#loc61 = loc("out_ptr0"(#loc))
#loc62 = loc("out_ptr1"(#loc))
#loc63 = loc("xnumel"(#loc))
#loc64 = loc("r0_numel"(#loc))
#loc107 = loc("tmp14"(#loc46))
#loc109 = loc("tmp25"(#loc49))
#loc116 = loc(callsite(#loc1 at #loc107))
#loc118 = loc(callsite(#loc1 at #loc109))
module {
  tt.func public @triton_red_fused__to_copy_add_mul_sum_zeros_like_34(%in_ptr0: !tt.ptr<f32> {tt.divisibility = 16 : i32} loc("in_ptr0"(#loc)), %in_ptr1: !tt.ptr<f32> {tt.divisibility = 16 : i32} loc("in_ptr1"(#loc)), %in_ptr2: !tt.ptr<bf16> {tt.divisibility = 16 : i32} loc("in_ptr2"(#loc)), %in_ptr3: !tt.ptr<f32> {tt.divisibility = 16 : i32} loc("in_ptr3"(#loc)), %in_ptr4: !tt.ptr<bf16> {tt.divisibility = 16 : i32} loc("in_ptr4"(#loc)), %out_ptr0: !tt.ptr<f32> {tt.divisibility = 16 : i32} loc("out_ptr0"(#loc)), %out_ptr1: !tt.ptr<f32> {tt.divisibility = 16 : i32} loc("out_ptr1"(#loc)), %xnumel: i32 {tt.divisibility = 16 : i32} loc("xnumel"(#loc)), %r0_numel: i32 loc("r0_numel"(#loc))) attributes {noinline = false} {
    %c36864_i32 = arith.constant 36864 : i32 loc(#loc1)
    %c5_i32 = arith.constant 5 : i32 loc(#loc1)
    %xmask = arith.constant 480 : i32 loc(#loc65)
    %cst = arith.constant dense<0.000000e+00> : tensor<1x1024xbf16> loc(#loc1)
    %c1024_i32 = arith.constant 1024 : i32 loc(#loc3)
    %c7373_i32 = arith.constant 7373 : i32 loc(#loc1)
    %c0_i32 = arith.constant 0 : i32 loc(#loc3)
    %cst_0 = arith.constant dense<36864> : tensor<1x1024xi32> loc(#loc1)
    %cst_1 = arith.constant dense<7373> : tensor<1x1024xi32> loc(#loc1)
    %cst_2 = arith.constant dense<0.000000e+00> : tensor<1x1024xf32> loc(#loc1)
    %xoffset = tt.get_program_id x : i32 loc(#loc66)
    %xmask_3 = arith.cmpi slt, %xoffset, %xmask : i32 loc(#loc65)
    %xmask_4 = tt.splat %xmask_3 : i1 -> tensor<1x1xi1> loc(#loc65)
    %r0_base = tt.make_range {end = 1024 : i32, start = 0 : i32} : tensor<1024xi32> loc(#loc67)
    %r0_base_5 = tt.expand_dims %r0_base {axis = 0 : i32} : tensor<1024xi32> -> tensor<1x1024xi32> loc(#loc68)
    %x0 = arith.remsi %xoffset, %c5_i32 : i32 loc(#loc69)
    %x1 = arith.divsi %xoffset, %c5_i32 : i32 loc(#loc70)
    %_tmp25:2 = scf.for %r0_offset = %c0_i32 to %c7373_i32 step %c1024_i32 iter_args(%_tmp14 = %cst_2, %_tmp25_8 = %cst_2) -> (tensor<1x1024xf32>, tensor<1x1024xf32>)  : i32 {
      %r0_index = tt.splat %r0_offset : i32 -> tensor<1x1024xi32> loc(#loc72)
      %r0_index_9 = arith.addi %r0_index, %r0_base_5 : tensor<1x1024xi32> loc(#loc72)
      %r0_mask = arith.cmpi slt, %r0_index_9, %cst_1 : tensor<1x1024xi32> loc(#loc73)
      %tmp0 = arith.muli %x0, %c7373_i32 : i32 loc(#loc74)
      %tmp0_10 = tt.splat %tmp0 : i32 -> tensor<1x1024xi32> loc(#loc112)
      %tmp0_11 = arith.addi %r0_index_9, %tmp0_10 : tensor<1x1024xi32> loc(#loc75)
      %tmp2 = arith.cmpi slt, %tmp0_11, %cst_0 : tensor<1x1024xi32> loc(#loc76)
      %tmp3 = arith.muli %x1, %c36864_i32 : i32 loc(#loc77)
      %tmp3_12 = arith.remsi %tmp0_11, %cst_0 : tensor<1x1024xi32> loc(#loc78)
      %tmp3_13 = tt.splat %tmp3 : i32 -> tensor<1x1024xi32> loc(#loc113)
      %tmp3_14 = arith.addi %tmp3_13, %tmp3_12 : tensor<1x1024xi32> loc(#loc79)
      %tmp3_15 = tt.splat %in_ptr0 : !tt.ptr<f32> -> tensor<1x1024x!tt.ptr<f32>> loc(#loc80)
      %tmp3_16 = tt.addptr %tmp3_15, %tmp3_14 : tensor<1x1024x!tt.ptr<f32>>, tensor<1x1024xi32> loc(#loc80)
      %tmp3_17 = arith.andi %r0_mask, %tmp2 : tensor<1x1024xi1> loc(#loc81)
      %tmp3_18 = tt.splat %xmask_3 : i1 -> tensor<1x1024xi1> loc(#loc114)
      %tmp3_19 = arith.andi %tmp3_17, %tmp3_18 : tensor<1x1024xi1> loc(#loc82)
      %tmp3_20 = tt.load %tmp3_16, %tmp3_19, %cst_2 evictionPolicy = evict_last : tensor<1x1024x!tt.ptr<f32>> loc(#loc83)
      %tmp4 = tt.addptr %in_ptr1, %x1 : !tt.ptr<f32>, i32 loc(#loc84)
      %tmp4_21 = tt.splat %tmp4 : !tt.ptr<f32> -> tensor<1x1024x!tt.ptr<f32>> loc(#loc84)
      %tmp4_22 = tt.load %tmp4_21, %tmp3_19, %cst_2 evictionPolicy = evict_last : tensor<1x1024x!tt.ptr<f32>> loc(#loc85)
      %tmp5 = arith.mulf %tmp3_20, %tmp4_22 : tensor<1x1024xf32> loc(#loc86)
      %tmp6 = tt.splat %in_ptr2 : !tt.ptr<bf16> -> tensor<1x1024x!tt.ptr<bf16>> loc(#loc87)
      %tmp6_23 = tt.addptr %tmp6, %tmp3_14 : tensor<1x1024x!tt.ptr<bf16>>, tensor<1x1024xi32> loc(#loc87)
      %tmp6_24 = tt.load %tmp6_23, %tmp3_19, %cst evictionPolicy = evict_last : tensor<1x1024x!tt.ptr<bf16>> loc(#loc88)
      %tmp6_25 = arith.extf %tmp6_24 : tensor<1x1024xbf16> to tensor<1x1024xf32> loc(#loc89)
      %tmp8 = arith.addf %tmp5, %tmp6_25 : tensor<1x1024xf32> loc(#loc90)
      %tmp10 = arith.mulf %tmp8, %cst_2 : tensor<1x1024xf32> loc(#loc91)
      %tmp12 = arith.select %tmp2, %tmp10, %cst_2 : tensor<1x1024xi1>, tensor<1x1024xf32> loc(#loc92)
      %tmp15 = arith.addf %_tmp14, %tmp12 : tensor<1x1024xf32> loc(#loc93)
      %_tmp14_26 = arith.andi %r0_mask, %tmp3_18 : tensor<1x1024xi1> loc(#loc94)
      %_tmp14_27 = arith.select %_tmp14_26, %tmp15, %_tmp14 : tensor<1x1024xi1>, tensor<1x1024xf32> loc(#loc95)
      %tmp16 = tt.splat %in_ptr3 : !tt.ptr<f32> -> tensor<1x1024x!tt.ptr<f32>> loc(#loc96)
      %tmp16_28 = tt.addptr %tmp16, %tmp3_14 : tensor<1x1024x!tt.ptr<f32>>, tensor<1x1024xi32> loc(#loc96)
      %tmp16_29 = tt.load %tmp16_28, %tmp3_19, %cst_2 evictionPolicy = evict_last : tensor<1x1024x!tt.ptr<f32>> loc(#loc97)
      %tmp17 = arith.mulf %tmp16_29, %tmp4_22 : tensor<1x1024xf32> loc(#loc98)
      %tmp18 = tt.splat %in_ptr4 : !tt.ptr<bf16> -> tensor<1x1024x!tt.ptr<bf16>> loc(#loc99)
      %tmp18_30 = tt.addptr %tmp18, %tmp3_14 : tensor<1x1024x!tt.ptr<bf16>>, tensor<1x1024xi32> loc(#loc99)
      %tmp18_31 = tt.load %tmp18_30, %tmp3_19, %cst evictionPolicy = evict_last : tensor<1x1024x!tt.ptr<bf16>> loc(#loc100)
      %tmp18_32 = arith.extf %tmp18_31 : tensor<1x1024xbf16> to tensor<1x1024xf32> loc(#loc101)
      %tmp20 = arith.addf %tmp17, %tmp18_32 : tensor<1x1024xf32> loc(#loc102)
      %tmp21 = arith.mulf %tmp20, %cst_2 : tensor<1x1024xf32> loc(#loc103)
      %tmp23 = arith.select %tmp2, %tmp21, %cst_2 : tensor<1x1024xi1>, tensor<1x1024xf32> loc(#loc104)
      %tmp26 = arith.addf %_tmp25_8, %tmp23 : tensor<1x1024xf32> loc(#loc105)
      %_tmp25_33 = arith.select %_tmp14_26, %tmp26, %_tmp25_8 : tensor<1x1024xi1>, tensor<1x1024xf32> loc(#loc106)
      scf.yield %_tmp14_27, %_tmp25_33 : tensor<1x1024xf32>, tensor<1x1024xf32> loc(#loc44)
    } loc(#loc111)
    %tmp14 = "tt.reduce"(%_tmp25#0) <{axis = 1 : i32}> ({
    ^bb0(%tmp14_8: f32 loc(callsite(#loc1 at #loc107)), %tmp14_9: f32 loc(callsite(#loc1 at #loc107))):
      %tmp14_10 = arith.addf %tmp14_8, %tmp14_9 : f32 loc(#loc119)
      tt.reduce.return %tmp14_10 : f32 loc(#loc115)
    }) : (tensor<1x1024xf32>) -> tensor<1xf32> loc(#loc115)
    %tmp14_6 = tt.expand_dims %tmp14 {axis = 1 : i32} : tensor<1xf32> -> tensor<1x1xf32> loc(#loc108)
    %tmp25 = "tt.reduce"(%_tmp25#1) <{axis = 1 : i32}> ({
    ^bb0(%tmp25_8: f32 loc(callsite(#loc1 at #loc109)), %tmp25_9: f32 loc(callsite(#loc1 at #loc109))):
      %tmp25_10 = arith.addf %tmp25_8, %tmp25_9 : f32 loc(#loc120)
      tt.reduce.return %tmp25_10 : f32 loc(#loc117)
    }) : (tensor<1x1024xf32>) -> tensor<1xf32> loc(#loc117)
    %tmp25_7 = tt.expand_dims %tmp25 {axis = 1 : i32} : tensor<1xf32> -> tensor<1x1xf32> loc(#loc110)
    %0 = tt.addptr %out_ptr0, %xoffset : !tt.ptr<f32>, i32 loc(#loc51)
    %1 = tt.splat %0 : !tt.ptr<f32> -> tensor<1x1x!tt.ptr<f32>> loc(#loc51)
    tt.store %1, %tmp14_6, %xmask_4 : tensor<1x1x!tt.ptr<f32>> loc(#loc52)
    %2 = tt.addptr %out_ptr1, %xoffset : !tt.ptr<f32>, i32 loc(#loc53)
    %3 = tt.splat %2 : !tt.ptr<f32> -> tensor<1x1x!tt.ptr<f32>> loc(#loc53)
    tt.store %3, %tmp25_7, %xmask_4 : tensor<1x1x!tt.ptr<f32>> loc(#loc54)
    tt.return loc(#loc55)
  } loc(#loc)
} loc(#loc)
#loc2 = loc("/NHNHOME/WORKSPACE/26msit001_A/jinhyeok/loop_TTT/lact/.cache_inductor_llm/yy/cyyj3icvz5kxhz75vfbaqupqbplxjj4ifx5dmepuuq5lpqyjieq3.py":25:21)
#loc3 = loc("/NHNHOME/WORKSPACE/26msit001_A/jinhyeok/loop_TTT/lact/.cache_inductor_llm/yy/cyyj3icvz5kxhz75vfbaqupqbplxjj4ifx5dmepuuq5lpqyjieq3.py":33:40)
#loc4 = loc("/NHNHOME/WORKSPACE/26msit001_A/jinhyeok/loop_TTT/lact/.cache_inductor_llm/yy/cyyj3icvz5kxhz75vfbaqupqbplxjj4ifx5dmepuuq5lpqyjieq3.py":23:28)
#loc5 = loc("/NHNHOME/WORKSPACE/26msit001_A/jinhyeok/loop_TTT/lact/.cache_inductor_llm/yy/cyyj3icvz5kxhz75vfbaqupqbplxjj4ifx5dmepuuq5lpqyjieq3.py":26:27)
#loc6 = loc("/NHNHOME/WORKSPACE/26msit001_A/jinhyeok/loop_TTT/lact/.cache_inductor_llm/yy/cyyj3icvz5kxhz75vfbaqupqbplxjj4ifx5dmepuuq5lpqyjieq3.py":26:37)
#loc7 = loc("/NHNHOME/WORKSPACE/26msit001_A/jinhyeok/loop_TTT/lact/.cache_inductor_llm/yy/cyyj3icvz5kxhz75vfbaqupqbplxjj4ifx5dmepuuq5lpqyjieq3.py":28:19)
#loc8 = loc("/NHNHOME/WORKSPACE/26msit001_A/jinhyeok/loop_TTT/lact/.cache_inductor_llm/yy/cyyj3icvz5kxhz75vfbaqupqbplxjj4ifx5dmepuuq5lpqyjieq3.py":29:19)
#loc9 = loc("/NHNHOME/WORKSPACE/26msit001_A/jinhyeok/loop_TTT/lact/.cache_inductor_llm/yy/cyyj3icvz5kxhz75vfbaqupqbplxjj4ifx5dmepuuq5lpqyjieq3.py":34:31)
#loc10 = loc("/NHNHOME/WORKSPACE/26msit001_A/jinhyeok/loop_TTT/lact/.cache_inductor_llm/yy/cyyj3icvz5kxhz75vfbaqupqbplxjj4ifx5dmepuuq5lpqyjieq3.py":35:29)
#loc11 = loc("/NHNHOME/WORKSPACE/26msit001_A/jinhyeok/loop_TTT/lact/.cache_inductor_llm/yy/cyyj3icvz5kxhz75vfbaqupqbplxjj4ifx5dmepuuq5lpqyjieq3.py":39:27)
#loc12 = loc("/NHNHOME/WORKSPACE/26msit001_A/jinhyeok/loop_TTT/lact/.cache_inductor_llm/yy/cyyj3icvz5kxhz75vfbaqupqbplxjj4ifx5dmepuuq5lpqyjieq3.py":39:22)
#loc13 = loc("/NHNHOME/WORKSPACE/26msit001_A/jinhyeok/loop_TTT/lact/.cache_inductor_llm/yy/cyyj3icvz5kxhz75vfbaqupqbplxjj4ifx5dmepuuq5lpqyjieq3.py":41:22)
#loc14 = loc("/NHNHOME/WORKSPACE/26msit001_A/jinhyeok/loop_TTT/lact/.cache_inductor_llm/yy/cyyj3icvz5kxhz75vfbaqupqbplxjj4ifx5dmepuuq5lpqyjieq3.py":42:40)
#loc15 = loc("/NHNHOME/WORKSPACE/26msit001_A/jinhyeok/loop_TTT/lact/.cache_inductor_llm/yy/cyyj3icvz5kxhz75vfbaqupqbplxjj4ifx5dmepuuq5lpqyjieq3.py":42:66)
#loc16 = loc("/NHNHOME/WORKSPACE/26msit001_A/jinhyeok/loop_TTT/lact/.cache_inductor_llm/yy/cyyj3icvz5kxhz75vfbaqupqbplxjj4ifx5dmepuuq5lpqyjieq3.py":42:47)
#loc17 = loc("/NHNHOME/WORKSPACE/26msit001_A/jinhyeok/loop_TTT/lact/.cache_inductor_llm/yy/cyyj3icvz5kxhz75vfbaqupqbplxjj4ifx5dmepuuq5lpqyjieq3.py":42:34)
#loc18 = loc("/NHNHOME/WORKSPACE/26msit001_A/jinhyeok/loop_TTT/lact/.cache_inductor_llm/yy/cyyj3icvz5kxhz75vfbaqupqbplxjj4ifx5dmepuuq5lpqyjieq3.py":42:86)
#loc19 = loc("/NHNHOME/WORKSPACE/26msit001_A/jinhyeok/loop_TTT/lact/.cache_inductor_llm/yy/cyyj3icvz5kxhz75vfbaqupqbplxjj4ifx5dmepuuq5lpqyjieq3.py":42:93)
#loc20 = loc("/NHNHOME/WORKSPACE/26msit001_A/jinhyeok/loop_TTT/lact/.cache_inductor_llm/yy/cyyj3icvz5kxhz75vfbaqupqbplxjj4ifx5dmepuuq5lpqyjieq3.py":42:76)
#loc21 = loc("/NHNHOME/WORKSPACE/26msit001_A/jinhyeok/loop_TTT/lact/.cache_inductor_llm/yy/cyyj3icvz5kxhz75vfbaqupqbplxjj4ifx5dmepuuq5lpqyjieq3.py":43:34)
#loc22 = loc("/NHNHOME/WORKSPACE/26msit001_A/jinhyeok/loop_TTT/lact/.cache_inductor_llm/yy/cyyj3icvz5kxhz75vfbaqupqbplxjj4ifx5dmepuuq5lpqyjieq3.py":43:76)
#loc23 = loc("/NHNHOME/WORKSPACE/26msit001_A/jinhyeok/loop_TTT/lact/.cache_inductor_llm/yy/cyyj3icvz5kxhz75vfbaqupqbplxjj4ifx5dmepuuq5lpqyjieq3.py":44:22)
#loc24 = loc("/NHNHOME/WORKSPACE/26msit001_A/jinhyeok/loop_TTT/lact/.cache_inductor_llm/yy/cyyj3icvz5kxhz75vfbaqupqbplxjj4ifx5dmepuuq5lpqyjieq3.py":45:34)
#loc25 = loc("/NHNHOME/WORKSPACE/26msit001_A/jinhyeok/loop_TTT/lact/.cache_inductor_llm/yy/cyyj3icvz5kxhz75vfbaqupqbplxjj4ifx5dmepuuq5lpqyjieq3.py":45:76)
#loc26 = loc("/NHNHOME/WORKSPACE/26msit001_A/jinhyeok/loop_TTT/lact/.cache_inductor_llm/yy/cyyj3icvz5kxhz75vfbaqupqbplxjj4ifx5dmepuuq5lpqyjieq3.py":45:144)
#loc27 = loc("/NHNHOME/WORKSPACE/26msit001_A/jinhyeok/loop_TTT/lact/.cache_inductor_llm/yy/cyyj3icvz5kxhz75vfbaqupqbplxjj4ifx5dmepuuq5lpqyjieq3.py":47:22)
#loc28 = loc("/NHNHOME/WORKSPACE/26msit001_A/jinhyeok/loop_TTT/lact/.cache_inductor_llm/yy/cyyj3icvz5kxhz75vfbaqupqbplxjj4ifx5dmepuuq5lpqyjieq3.py":49:23)
#loc29 = loc("/NHNHOME/WORKSPACE/26msit001_A/jinhyeok/loop_TTT/lact/.cache_inductor_llm/yy/cyyj3icvz5kxhz75vfbaqupqbplxjj4ifx5dmepuuq5lpqyjieq3.py":51:38)
#loc30 = loc("/NHNHOME/WORKSPACE/26msit001_A/jinhyeok/loop_TTT/lact/.cache_inductor_llm/yy/cyyj3icvz5kxhz75vfbaqupqbplxjj4ifx5dmepuuq5lpqyjieq3.py":53:25)
#loc31 = loc("/NHNHOME/WORKSPACE/26msit001_A/jinhyeok/loop_TTT/lact/.cache_inductor_llm/yy/cyyj3icvz5kxhz75vfbaqupqbplxjj4ifx5dmepuuq5lpqyjieq3.py":54:36)
#loc32 = loc("/NHNHOME/WORKSPACE/26msit001_A/jinhyeok/loop_TTT/lact/.cache_inductor_llm/yy/cyyj3icvz5kxhz75vfbaqupqbplxjj4ifx5dmepuuq5lpqyjieq3.py":54:50)
#loc33 = loc("/NHNHOME/WORKSPACE/26msit001_A/jinhyeok/loop_TTT/lact/.cache_inductor_llm/yy/cyyj3icvz5kxhz75vfbaqupqbplxjj4ifx5dmepuuq5lpqyjieq3.py":55:35)
#loc34 = loc("/NHNHOME/WORKSPACE/26msit001_A/jinhyeok/loop_TTT/lact/.cache_inductor_llm/yy/cyyj3icvz5kxhz75vfbaqupqbplxjj4ifx5dmepuuq5lpqyjieq3.py":55:77)
#loc35 = loc("/NHNHOME/WORKSPACE/26msit001_A/jinhyeok/loop_TTT/lact/.cache_inductor_llm/yy/cyyj3icvz5kxhz75vfbaqupqbplxjj4ifx5dmepuuq5lpqyjieq3.py":56:24)
#loc36 = loc("/NHNHOME/WORKSPACE/26msit001_A/jinhyeok/loop_TTT/lact/.cache_inductor_llm/yy/cyyj3icvz5kxhz75vfbaqupqbplxjj4ifx5dmepuuq5lpqyjieq3.py":57:35)
#loc37 = loc("/NHNHOME/WORKSPACE/26msit001_A/jinhyeok/loop_TTT/lact/.cache_inductor_llm/yy/cyyj3icvz5kxhz75vfbaqupqbplxjj4ifx5dmepuuq5lpqyjieq3.py":57:77)
#loc38 = loc("/NHNHOME/WORKSPACE/26msit001_A/jinhyeok/loop_TTT/lact/.cache_inductor_llm/yy/cyyj3icvz5kxhz75vfbaqupqbplxjj4ifx5dmepuuq5lpqyjieq3.py":57:145)
#loc39 = loc("/NHNHOME/WORKSPACE/26msit001_A/jinhyeok/loop_TTT/lact/.cache_inductor_llm/yy/cyyj3icvz5kxhz75vfbaqupqbplxjj4ifx5dmepuuq5lpqyjieq3.py":59:24)
#loc40 = loc("/NHNHOME/WORKSPACE/26msit001_A/jinhyeok/loop_TTT/lact/.cache_inductor_llm/yy/cyyj3icvz5kxhz75vfbaqupqbplxjj4ifx5dmepuuq5lpqyjieq3.py":60:24)
#loc41 = loc("/NHNHOME/WORKSPACE/26msit001_A/jinhyeok/loop_TTT/lact/.cache_inductor_llm/yy/cyyj3icvz5kxhz75vfbaqupqbplxjj4ifx5dmepuuq5lpqyjieq3.py":62:38)
#loc42 = loc("/NHNHOME/WORKSPACE/26msit001_A/jinhyeok/loop_TTT/lact/.cache_inductor_llm/yy/cyyj3icvz5kxhz75vfbaqupqbplxjj4ifx5dmepuuq5lpqyjieq3.py":64:25)
#loc43 = loc("/NHNHOME/WORKSPACE/26msit001_A/jinhyeok/loop_TTT/lact/.cache_inductor_llm/yy/cyyj3icvz5kxhz75vfbaqupqbplxjj4ifx5dmepuuq5lpqyjieq3.py":65:50)
#loc44 = loc("/NHNHOME/WORKSPACE/26msit001_A/jinhyeok/loop_TTT/lact/.cache_inductor_llm/yy/cyyj3icvz5kxhz75vfbaqupqbplxjj4ifx5dmepuuq5lpqyjieq3.py":65:8)
#loc45 = loc("/NHNHOME/WORKSPACE/26msit001_A/jinhyeok/TTT_camera_embedding/.venv_llm/lib/python3.12/site-packages/triton/language/standard.py":291:36)
#loc47 = loc("/NHNHOME/WORKSPACE/26msit001_A/jinhyeok/TTT_camera_embedding/.venv_llm/lib/python3.12/site-packages/triton/language/standard.py":261:15)
#loc48 = loc("/NHNHOME/WORKSPACE/26msit001_A/jinhyeok/loop_TTT/lact/.cache_inductor_llm/yy/cyyj3icvz5kxhz75vfbaqupqbplxjj4ifx5dmepuuq5lpqyjieq3.py":66:30)
#loc50 = loc("/NHNHOME/WORKSPACE/26msit001_A/jinhyeok/loop_TTT/lact/.cache_inductor_llm/yy/cyyj3icvz5kxhz75vfbaqupqbplxjj4ifx5dmepuuq5lpqyjieq3.py":67:30)
#loc51 = loc("/NHNHOME/WORKSPACE/26msit001_A/jinhyeok/loop_TTT/lact/.cache_inductor_llm/yy/cyyj3icvz5kxhz75vfbaqupqbplxjj4ifx5dmepuuq5lpqyjieq3.py":68:25)
#loc52 = loc("/NHNHOME/WORKSPACE/26msit001_A/jinhyeok/loop_TTT/lact/.cache_inductor_llm/yy/cyyj3icvz5kxhz75vfbaqupqbplxjj4ifx5dmepuuq5lpqyjieq3.py":68:37)
#loc53 = loc("/NHNHOME/WORKSPACE/26msit001_A/jinhyeok/loop_TTT/lact/.cache_inductor_llm/yy/cyyj3icvz5kxhz75vfbaqupqbplxjj4ifx5dmepuuq5lpqyjieq3.py":69:25)
#loc54 = loc("/NHNHOME/WORKSPACE/26msit001_A/jinhyeok/loop_TTT/lact/.cache_inductor_llm/yy/cyyj3icvz5kxhz75vfbaqupqbplxjj4ifx5dmepuuq5lpqyjieq3.py":69:37)
#loc55 = loc("/NHNHOME/WORKSPACE/26msit001_A/jinhyeok/loop_TTT/lact/.cache_inductor_llm/yy/cyyj3icvz5kxhz75vfbaqupqbplxjj4ifx5dmepuuq5lpqyjieq3.py":69:4)
#loc65 = loc("xmask"(#loc2))
#loc66 = loc("xoffset"(#loc4))
#loc67 = loc("r0_base"(#loc5))
#loc68 = loc("r0_base"(#loc6))
#loc69 = loc("x0"(#loc7))
#loc70 = loc("x1"(#loc8))
#loc71 = loc("_tmp14"(#loc3))
#loc72 = loc("r0_index"(#loc9))
#loc73 = loc("r0_mask"(#loc10))
#loc74 = loc("tmp0"(#loc11))
#loc75 = loc("tmp0"(#loc12))
#loc76 = loc("tmp2"(#loc13))
#loc77 = loc("tmp3"(#loc14))
#loc78 = loc("tmp3"(#loc15))
#loc79 = loc("tmp3"(#loc16))
#loc80 = loc("tmp3"(#loc17))
#loc81 = loc("tmp3"(#loc18))
#loc82 = loc("tmp3"(#loc19))
#loc83 = loc("tmp3"(#loc20))
#loc84 = loc("tmp4"(#loc21))
#loc85 = loc("tmp4"(#loc22))
#loc86 = loc("tmp5"(#loc23))
#loc87 = loc("tmp6"(#loc24))
#loc88 = loc("tmp6"(#loc25))
#loc89 = loc("tmp6"(#loc26))
#loc90 = loc("tmp8"(#loc27))
#loc91 = loc("tmp10"(#loc28))
#loc92 = loc("tmp12"(#loc29))
#loc93 = loc("tmp15"(#loc30))
#loc94 = loc("_tmp14"(#loc31))
#loc95 = loc("_tmp14"(#loc32))
#loc96 = loc("tmp16"(#loc33))
#loc97 = loc("tmp16"(#loc34))
#loc98 = loc("tmp17"(#loc35))
#loc99 = loc("tmp18"(#loc36))
#loc100 = loc("tmp18"(#loc37))
#loc101 = loc("tmp18"(#loc38))
#loc102 = loc("tmp20"(#loc39))
#loc103 = loc("tmp21"(#loc40))
#loc104 = loc("tmp23"(#loc41))
#loc105 = loc("tmp26"(#loc42))
#loc106 = loc("_tmp25"(#loc43))
#loc108 = loc("tmp14"(#loc48))
#loc110 = loc("tmp25"(#loc50))
#loc111 = loc("_tmp25"(#loc71))
#loc112 = loc(fused[#loc75, #loc74])
#loc113 = loc(fused[#loc79, #loc77])
#loc114 = loc(fused[#loc82, #loc65])
#loc115 = loc(callsite(#loc45 at #loc107))
#loc117 = loc(callsite(#loc45 at #loc109))
#loc119 = loc(callsite(#loc47 at #loc115))
#loc120 = loc(callsite(#loc47 at #loc117))
