#loc = loc("/NHNHOME/WORKSPACE/26msit001_A/jinhyeok/loop_TTT/lact/.cache_inductor_llm/yy/cyyj3icvz5kxhz75vfbaqupqbplxjj4ifx5dmepuuq5lpqyjieq3.py":18:0)
#loc92 = loc("/NHNHOME/WORKSPACE/26msit001_A/jinhyeok/TTT_camera_embedding/.venv_llm/lib/python3.12/site-packages/triton/language/standard.py":285:0)
#loc94 = loc(unknown)
#loc97 = loc("/NHNHOME/WORKSPACE/26msit001_A/jinhyeok/TTT_camera_embedding/.venv_llm/lib/python3.12/site-packages/triton/language/standard.py":260:0)
#loc101 = loc("in_ptr0"(#loc))
#loc102 = loc("in_ptr1"(#loc))
#loc103 = loc("in_ptr2"(#loc))
#loc104 = loc("in_ptr3"(#loc))
#loc105 = loc("in_ptr4"(#loc))
#loc106 = loc("out_ptr0"(#loc))
#loc107 = loc("out_ptr1"(#loc))
#loc108 = loc("xnumel"(#loc))
#loc109 = loc("r0_numel"(#loc))
#loc195 = loc("input"(#loc92))
#loc196 = loc("a"(#loc97))
#loc197 = loc("b"(#loc97))
module {
  tt.func public @triton_red_fused__to_copy_add_mul_sum_zeros_like_34(%in_ptr0: !tt.ptr<f32> {tt.divisibility = 16 : i32} loc("in_ptr0"(#loc)), %in_ptr1: !tt.ptr<f32> {tt.divisibility = 16 : i32} loc("in_ptr1"(#loc)), %in_ptr2: !tt.ptr<bf16> {tt.divisibility = 16 : i32} loc("in_ptr2"(#loc)), %in_ptr3: !tt.ptr<f32> {tt.divisibility = 16 : i32} loc("in_ptr3"(#loc)), %in_ptr4: !tt.ptr<bf16> {tt.divisibility = 16 : i32} loc("in_ptr4"(#loc)), %out_ptr0: !tt.ptr<f32> {tt.divisibility = 16 : i32} loc("out_ptr0"(#loc)), %out_ptr1: !tt.ptr<f32> {tt.divisibility = 16 : i32} loc("out_ptr1"(#loc)), %xnumel: i32 {tt.divisibility = 16 : i32} loc("xnumel"(#loc)), %r0_numel: i32 loc("r0_numel"(#loc))) attributes {noinline = false} {
    %xnumel_0 = arith.constant 480 : i32 loc(#loc110)
    %r0_numel_1 = arith.constant 7373 : i32 loc(#loc111)
    %xoffset = tt.get_program_id x : i32 loc(#loc112)
    %xoffset_2 = arith.constant 1 : i32 loc(#loc113)
    %xoffset_3 = arith.constant 1 : i32 loc(#loc113)
    %xoffset_4 = arith.muli %xoffset, %xoffset_3 : i32 loc(#loc113)
    %xindex = tt.make_range {end = 1 : i32, start = 0 : i32} : tensor<1xi32> loc(#loc114)
    %xindex_5 = tt.expand_dims %xindex {axis = 1 : i32} : tensor<1xi32> -> tensor<1x1xi32> loc(#loc115)
    %xindex_6 = tt.splat %xoffset_4 : i32 -> tensor<1x1xi32> loc(#loc116)
    %xindex_7 = arith.addi %xindex_6, %xindex_5 : tensor<1x1xi32> loc(#loc116)
    %xmask = arith.constant dense<480> : tensor<1x1xi32> loc(#loc117)
    %xmask_8 = arith.cmpi slt, %xindex_7, %xmask : tensor<1x1xi32> loc(#loc117)
    %r0_base = tt.make_range {end = 1024 : i32, start = 0 : i32} : tensor<1024xi32> loc(#loc118)
    %r0_base_9 = tt.expand_dims %r0_base {axis = 0 : i32} : tensor<1024xi32> -> tensor<1x1024xi32> loc(#loc119)
    %x0 = arith.constant 5 : i32 loc(#loc120)
    %x0_10 = arith.constant 5 : i32 loc(#loc120)
    %x0_11 = arith.constant dense<5> : tensor<1x1xi32> loc(#loc120)
    %x0_12 = arith.remsi %xindex_7, %x0_11 : tensor<1x1xi32> loc(#loc120)
    %x1 = arith.constant 5 : i32 loc(#loc121)
    %x1_13 = arith.constant 5 : i32 loc(#loc121)
    %x1_14 = arith.constant dense<5> : tensor<1x1xi32> loc(#loc121)
    %x1_15 = arith.divsi %xindex_7, %x1_14 : tensor<1x1xi32> loc(#loc121)
    %_tmp14 = arith.constant 0.000000e+00 : f32 loc(#loc122)
    %_tmp14_16 = arith.constant dense<0.000000e+00> : tensor<1x1024xf32> loc(#loc122)
    %_tmp25 = arith.constant 0.000000e+00 : f32 loc(#loc123)
    %_tmp25_17 = arith.constant dense<0.000000e+00> : tensor<1x1024xf32> loc(#loc123)
    %c0_i32 = arith.constant 0 : i32 loc(#loc15)
    %c1024_i32 = arith.constant 1024 : i32 loc(#loc15)
    %0 = arith.bitcast %c0_i32 : i32 to i32 loc(#loc15)
    %1 = arith.bitcast %r0_numel_1 : i32 to i32 loc(#loc15)
    %2 = arith.bitcast %c1024_i32 : i32 to i32 loc(#loc15)
    %3 = ub.poison : i32 loc(#loc15)
    %_tmp25_18:2 = scf.for %r0_offset = %0 to %1 step %2 iter_args(%_tmp14_21 = %_tmp14_16, %_tmp25_22 = %_tmp25_17) -> (tensor<1x1024xf32>, tensor<1x1024xf32>)  : i32 {
      %r0_index = tt.splat %r0_offset : i32 -> tensor<1x1024xi32> loc(#loc125)
      %r0_index_23 = arith.addi %r0_index, %r0_base_9 : tensor<1x1024xi32> loc(#loc125)
      %r0_mask = arith.constant dense<7373> : tensor<1x1024xi32> loc(#loc126)
      %r0_mask_24 = arith.cmpi slt, %r0_index_23, %r0_mask : tensor<1x1024xi32> loc(#loc126)
      %tmp0 = arith.constant 7373 : i32 loc(#loc127)
      %tmp0_25 = arith.constant 7373 : i32 loc(#loc127)
      %tmp0_26 = arith.constant dense<7373> : tensor<1x1xi32> loc(#loc127)
      %tmp0_27 = arith.muli %tmp0_26, %x0_12 : tensor<1x1xi32> loc(#loc127)
      %tmp0_28 = tt.broadcast %tmp0_27 : tensor<1x1xi32> -> tensor<1x1024xi32> loc(#loc128)
      %tmp0_29 = arith.addi %r0_index_23, %tmp0_28 : tensor<1x1024xi32> loc(#loc128)
      %tmp1 = arith.constant 36864 : i32 loc(#loc129)
      %tmp1_30 = arith.constant dense<36864> : tensor<1x1xi32> loc(#loc129)
      %tmp2 = arith.constant dense<36864> : tensor<1x1024xi32> loc(#loc130)
      %tmp2_31 = arith.cmpi slt, %tmp0_29, %tmp2 : tensor<1x1024xi32> loc(#loc130)
      %tmp3 = arith.constant 36864 : i32 loc(#loc131)
      %tmp3_32 = arith.constant 36864 : i32 loc(#loc131)
      %tmp3_33 = arith.constant dense<36864> : tensor<1x1xi32> loc(#loc131)
      %tmp3_34 = arith.muli %tmp3_33, %x1_15 : tensor<1x1xi32> loc(#loc131)
      %tmp3_35 = arith.constant 7373 : i32 loc(#loc132)
      %tmp3_36 = arith.constant 7373 : i32 loc(#loc132)
      %tmp3_37 = arith.constant dense<7373> : tensor<1x1xi32> loc(#loc132)
      %tmp3_38 = arith.muli %tmp3_37, %x0_12 : tensor<1x1xi32> loc(#loc132)
      %tmp3_39 = tt.broadcast %tmp3_38 : tensor<1x1xi32> -> tensor<1x1024xi32> loc(#loc133)
      %tmp3_40 = arith.addi %r0_index_23, %tmp3_39 : tensor<1x1024xi32> loc(#loc133)
      %tmp3_41 = arith.constant 36864 : i32 loc(#loc134)
      %tmp3_42 = arith.constant 36864 : i32 loc(#loc134)
      %tmp3_43 = arith.constant dense<36864> : tensor<1x1024xi32> loc(#loc134)
      %tmp3_44 = arith.remsi %tmp3_40, %tmp3_43 : tensor<1x1024xi32> loc(#loc134)
      %tmp3_45 = tt.broadcast %tmp3_34 : tensor<1x1xi32> -> tensor<1x1024xi32> loc(#loc135)
      %tmp3_46 = arith.addi %tmp3_45, %tmp3_44 : tensor<1x1024xi32> loc(#loc135)
      %tmp3_47 = tt.splat %in_ptr0 : !tt.ptr<f32> -> tensor<1x1024x!tt.ptr<f32>> loc(#loc136)
      %tmp3_48 = tt.addptr %tmp3_47, %tmp3_46 : tensor<1x1024x!tt.ptr<f32>>, tensor<1x1024xi32> loc(#loc136)
      %tmp3_49 = arith.andi %r0_mask_24, %tmp2_31 : tensor<1x1024xi1> loc(#loc137)
      %tmp3_50 = tt.broadcast %xmask_8 : tensor<1x1xi1> -> tensor<1x1024xi1> loc(#loc138)
      %tmp3_51 = arith.andi %tmp3_49, %tmp3_50 : tensor<1x1024xi1> loc(#loc138)
      %tmp3_52 = arith.constant 0.000000e+00 : f32 loc(#loc139)
      %tmp3_53 = arith.constant dense<0.000000e+00> : tensor<1x1024xf32> loc(#loc139)
      %tmp3_54 = tt.load %tmp3_48, %tmp3_51, %tmp3_53 evictionPolicy = evict_last : tensor<1x1024x!tt.ptr<f32>> loc(#loc139)
      %tmp4 = tt.broadcast %x1_15 : tensor<1x1xi32> -> tensor<1x1024xi32> loc(#loc140)
      %tmp4_55 = tt.splat %in_ptr1 : !tt.ptr<f32> -> tensor<1x1024x!tt.ptr<f32>> loc(#loc141)
      %tmp4_56 = tt.addptr %tmp4_55, %tmp4 : tensor<1x1024x!tt.ptr<f32>>, tensor<1x1024xi32> loc(#loc141)
      %tmp4_57 = arith.andi %r0_mask_24, %tmp2_31 : tensor<1x1024xi1> loc(#loc142)
      %tmp4_58 = tt.broadcast %xmask_8 : tensor<1x1xi1> -> tensor<1x1024xi1> loc(#loc143)
      %tmp4_59 = arith.andi %tmp4_57, %tmp4_58 : tensor<1x1024xi1> loc(#loc143)
      %tmp4_60 = arith.constant 0.000000e+00 : f32 loc(#loc144)
      %tmp4_61 = arith.constant dense<0.000000e+00> : tensor<1x1024xf32> loc(#loc144)
      %tmp4_62 = tt.load %tmp4_56, %tmp4_59, %tmp4_61 evictionPolicy = evict_last : tensor<1x1024x!tt.ptr<f32>> loc(#loc144)
      %tmp5 = arith.mulf %tmp3_54, %tmp4_62 : tensor<1x1024xf32> loc(#loc145)
      %tmp6 = arith.constant 36864 : i32 loc(#loc146)
      %tmp6_63 = arith.constant 36864 : i32 loc(#loc146)
      %tmp6_64 = arith.constant dense<36864> : tensor<1x1xi32> loc(#loc146)
      %tmp6_65 = arith.muli %tmp6_64, %x1_15 : tensor<1x1xi32> loc(#loc146)
      %tmp6_66 = arith.constant 7373 : i32 loc(#loc147)
      %tmp6_67 = arith.constant 7373 : i32 loc(#loc147)
      %tmp6_68 = arith.constant dense<7373> : tensor<1x1xi32> loc(#loc147)
      %tmp6_69 = arith.muli %tmp6_68, %x0_12 : tensor<1x1xi32> loc(#loc147)
      %tmp6_70 = tt.broadcast %tmp6_69 : tensor<1x1xi32> -> tensor<1x1024xi32> loc(#loc148)
      %tmp6_71 = arith.addi %r0_index_23, %tmp6_70 : tensor<1x1024xi32> loc(#loc148)
      %tmp6_72 = arith.constant 36864 : i32 loc(#loc149)
      %tmp6_73 = arith.constant 36864 : i32 loc(#loc149)
      %tmp6_74 = arith.constant dense<36864> : tensor<1x1024xi32> loc(#loc149)
      %tmp6_75 = arith.remsi %tmp6_71, %tmp6_74 : tensor<1x1024xi32> loc(#loc149)
      %tmp6_76 = tt.broadcast %tmp6_65 : tensor<1x1xi32> -> tensor<1x1024xi32> loc(#loc150)
      %tmp6_77 = arith.addi %tmp6_76, %tmp6_75 : tensor<1x1024xi32> loc(#loc150)
      %tmp6_78 = tt.splat %in_ptr2 : !tt.ptr<bf16> -> tensor<1x1024x!tt.ptr<bf16>> loc(#loc151)
      %tmp6_79 = tt.addptr %tmp6_78, %tmp6_77 : tensor<1x1024x!tt.ptr<bf16>>, tensor<1x1024xi32> loc(#loc151)
      %tmp6_80 = arith.andi %r0_mask_24, %tmp2_31 : tensor<1x1024xi1> loc(#loc152)
      %tmp6_81 = tt.broadcast %xmask_8 : tensor<1x1xi1> -> tensor<1x1024xi1> loc(#loc153)
      %tmp6_82 = arith.andi %tmp6_80, %tmp6_81 : tensor<1x1024xi1> loc(#loc153)
      %tmp6_83 = arith.constant 0.000000e+00 : f32 loc(#loc154)
      %tmp6_84 = arith.constant dense<0.000000e+00> : tensor<1x1024xf32> loc(#loc154)
      %tmp6_85 = arith.truncf %tmp6_84 : tensor<1x1024xf32> to tensor<1x1024xbf16> loc(#loc154)
      %tmp6_86 = tt.load %tmp6_79, %tmp6_82, %tmp6_85 evictionPolicy = evict_last : tensor<1x1024x!tt.ptr<bf16>> loc(#loc154)
      %tmp6_87 = arith.extf %tmp6_86 : tensor<1x1024xbf16> to tensor<1x1024xf32> loc(#loc155)
      %tmp8 = arith.addf %tmp5, %tmp6_87 : tensor<1x1024xf32> loc(#loc156)
      %tmp9 = arith.constant 0.000000e+00 : f32 loc(#loc157)
      %tmp10 = arith.constant dense<0.000000e+00> : tensor<1x1024xf32> loc(#loc158)
      %tmp10_88 = arith.mulf %tmp8, %tmp10 : tensor<1x1024xf32> loc(#loc158)
      %tmp11 = arith.constant 0.000000e+00 : f32 loc(#loc159)
      %tmp11_89 = arith.constant dense<0.000000e+00> : tensor<1x1024xf32> loc(#loc159)
      %tmp12 = arith.select %tmp2_31, %tmp10_88, %tmp11_89 : tensor<1x1024xi1>, tensor<1x1024xf32> loc(#loc160)
      %tmp15 = arith.addf %_tmp14_21, %tmp12 : tensor<1x1024xf32> loc(#loc161)
      %_tmp14_90 = tt.broadcast %xmask_8 : tensor<1x1xi1> -> tensor<1x1024xi1> loc(#loc162)
      %_tmp14_91 = arith.andi %r0_mask_24, %_tmp14_90 : tensor<1x1024xi1> loc(#loc162)
      %_tmp14_92 = arith.select %_tmp14_91, %tmp15, %_tmp14_21 : tensor<1x1024xi1>, tensor<1x1024xf32> loc(#loc163)
      %tmp16 = arith.constant 36864 : i32 loc(#loc164)
      %tmp16_93 = arith.constant 36864 : i32 loc(#loc164)
      %tmp16_94 = arith.constant dense<36864> : tensor<1x1xi32> loc(#loc164)
      %tmp16_95 = arith.muli %tmp16_94, %x1_15 : tensor<1x1xi32> loc(#loc164)
      %tmp16_96 = arith.constant 7373 : i32 loc(#loc165)
      %tmp16_97 = arith.constant 7373 : i32 loc(#loc165)
      %tmp16_98 = arith.constant dense<7373> : tensor<1x1xi32> loc(#loc165)
      %tmp16_99 = arith.muli %tmp16_98, %x0_12 : tensor<1x1xi32> loc(#loc165)
      %tmp16_100 = tt.broadcast %tmp16_99 : tensor<1x1xi32> -> tensor<1x1024xi32> loc(#loc166)
      %tmp16_101 = arith.addi %r0_index_23, %tmp16_100 : tensor<1x1024xi32> loc(#loc166)
      %tmp16_102 = arith.constant 36864 : i32 loc(#loc167)
      %tmp16_103 = arith.constant 36864 : i32 loc(#loc167)
      %tmp16_104 = arith.constant dense<36864> : tensor<1x1024xi32> loc(#loc167)
      %tmp16_105 = arith.remsi %tmp16_101, %tmp16_104 : tensor<1x1024xi32> loc(#loc167)
      %tmp16_106 = tt.broadcast %tmp16_95 : tensor<1x1xi32> -> tensor<1x1024xi32> loc(#loc168)
      %tmp16_107 = arith.addi %tmp16_106, %tmp16_105 : tensor<1x1024xi32> loc(#loc168)
      %tmp16_108 = tt.splat %in_ptr3 : !tt.ptr<f32> -> tensor<1x1024x!tt.ptr<f32>> loc(#loc169)
      %tmp16_109 = tt.addptr %tmp16_108, %tmp16_107 : tensor<1x1024x!tt.ptr<f32>>, tensor<1x1024xi32> loc(#loc169)
      %tmp16_110 = arith.andi %r0_mask_24, %tmp2_31 : tensor<1x1024xi1> loc(#loc170)
      %tmp16_111 = tt.broadcast %xmask_8 : tensor<1x1xi1> -> tensor<1x1024xi1> loc(#loc171)
      %tmp16_112 = arith.andi %tmp16_110, %tmp16_111 : tensor<1x1024xi1> loc(#loc171)
      %tmp16_113 = arith.constant 0.000000e+00 : f32 loc(#loc172)
      %tmp16_114 = arith.constant dense<0.000000e+00> : tensor<1x1024xf32> loc(#loc172)
      %tmp16_115 = tt.load %tmp16_109, %tmp16_112, %tmp16_114 evictionPolicy = evict_last : tensor<1x1024x!tt.ptr<f32>> loc(#loc172)
      %tmp17 = arith.mulf %tmp16_115, %tmp4_62 : tensor<1x1024xf32> loc(#loc173)
      %tmp18 = arith.constant 36864 : i32 loc(#loc174)
      %tmp18_116 = arith.constant 36864 : i32 loc(#loc174)
      %tmp18_117 = arith.constant dense<36864> : tensor<1x1xi32> loc(#loc174)
      %tmp18_118 = arith.muli %tmp18_117, %x1_15 : tensor<1x1xi32> loc(#loc174)
      %tmp18_119 = arith.constant 7373 : i32 loc(#loc175)
      %tmp18_120 = arith.constant 7373 : i32 loc(#loc175)
      %tmp18_121 = arith.constant dense<7373> : tensor<1x1xi32> loc(#loc175)
      %tmp18_122 = arith.muli %tmp18_121, %x0_12 : tensor<1x1xi32> loc(#loc175)
      %tmp18_123 = tt.broadcast %tmp18_122 : tensor<1x1xi32> -> tensor<1x1024xi32> loc(#loc176)
      %tmp18_124 = arith.addi %r0_index_23, %tmp18_123 : tensor<1x1024xi32> loc(#loc176)
      %tmp18_125 = arith.constant 36864 : i32 loc(#loc177)
      %tmp18_126 = arith.constant 36864 : i32 loc(#loc177)
      %tmp18_127 = arith.constant dense<36864> : tensor<1x1024xi32> loc(#loc177)
      %tmp18_128 = arith.remsi %tmp18_124, %tmp18_127 : tensor<1x1024xi32> loc(#loc177)
      %tmp18_129 = tt.broadcast %tmp18_118 : tensor<1x1xi32> -> tensor<1x1024xi32> loc(#loc178)
      %tmp18_130 = arith.addi %tmp18_129, %tmp18_128 : tensor<1x1024xi32> loc(#loc178)
      %tmp18_131 = tt.splat %in_ptr4 : !tt.ptr<bf16> -> tensor<1x1024x!tt.ptr<bf16>> loc(#loc179)
      %tmp18_132 = tt.addptr %tmp18_131, %tmp18_130 : tensor<1x1024x!tt.ptr<bf16>>, tensor<1x1024xi32> loc(#loc179)
      %tmp18_133 = arith.andi %r0_mask_24, %tmp2_31 : tensor<1x1024xi1> loc(#loc180)
      %tmp18_134 = tt.broadcast %xmask_8 : tensor<1x1xi1> -> tensor<1x1024xi1> loc(#loc181)
      %tmp18_135 = arith.andi %tmp18_133, %tmp18_134 : tensor<1x1024xi1> loc(#loc181)
      %tmp18_136 = arith.constant 0.000000e+00 : f32 loc(#loc182)
      %tmp18_137 = arith.constant dense<0.000000e+00> : tensor<1x1024xf32> loc(#loc182)
      %tmp18_138 = arith.truncf %tmp18_137 : tensor<1x1024xf32> to tensor<1x1024xbf16> loc(#loc182)
      %tmp18_139 = tt.load %tmp18_132, %tmp18_135, %tmp18_138 evictionPolicy = evict_last : tensor<1x1024x!tt.ptr<bf16>> loc(#loc182)
      %tmp18_140 = arith.extf %tmp18_139 : tensor<1x1024xbf16> to tensor<1x1024xf32> loc(#loc183)
      %tmp20 = arith.addf %tmp17, %tmp18_140 : tensor<1x1024xf32> loc(#loc184)
      %tmp21 = arith.constant dense<0.000000e+00> : tensor<1x1024xf32> loc(#loc185)
      %tmp21_141 = arith.mulf %tmp20, %tmp21 : tensor<1x1024xf32> loc(#loc185)
      %tmp22 = arith.constant 0.000000e+00 : f32 loc(#loc186)
      %tmp22_142 = arith.constant dense<0.000000e+00> : tensor<1x1024xf32> loc(#loc186)
      %tmp23 = arith.select %tmp2_31, %tmp21_141, %tmp22_142 : tensor<1x1024xi1>, tensor<1x1024xf32> loc(#loc187)
      %tmp26 = arith.addf %_tmp25_22, %tmp23 : tensor<1x1024xf32> loc(#loc188)
      %_tmp25_143 = tt.broadcast %xmask_8 : tensor<1x1xi1> -> tensor<1x1024xi1> loc(#loc189)
      %_tmp25_144 = arith.andi %r0_mask_24, %_tmp25_143 : tensor<1x1024xi1> loc(#loc189)
      %_tmp25_145 = arith.select %_tmp25_144, %tmp26, %_tmp25_22 : tensor<1x1024xi1>, tensor<1x1024xf32> loc(#loc190)
      scf.yield %_tmp14_92, %_tmp25_145 : tensor<1x1024xf32>, tensor<1x1024xf32> loc(#loc82)
    } loc(#loc198)
    %tmp14 = tt.call @"triton.language.standard.sum__fp32S1_1024S__(1,)cconstexpr_1__(2,)cconstexpr_False__(3,)cNone"(%_tmp25_18#0) : (tensor<1x1024xf32>) -> tensor<1xf32> loc(#loc191)
    %tmp14_19 = tt.expand_dims %tmp14 {axis = 1 : i32} : tensor<1xf32> -> tensor<1x1xf32> loc(#loc192)
    %tmp25 = tt.call @"triton.language.standard.sum__fp32S1_1024S__(1,)cconstexpr_1__(2,)cconstexpr_False__(3,)cNone"(%_tmp25_18#1) : (tensor<1x1024xf32>) -> tensor<1xf32> loc(#loc193)
    %tmp25_20 = tt.expand_dims %tmp25 {axis = 1 : i32} : tensor<1xf32> -> tensor<1x1xf32> loc(#loc194)
    %4 = tt.splat %out_ptr0 : !tt.ptr<f32> -> tensor<1x1x!tt.ptr<f32>> loc(#loc87)
    %5 = tt.addptr %4, %xindex_7 : tensor<1x1x!tt.ptr<f32>>, tensor<1x1xi32> loc(#loc87)
    tt.store %5, %tmp14_19, %xmask_8 : tensor<1x1x!tt.ptr<f32>> loc(#loc88)
    %6 = tt.splat %out_ptr1 : !tt.ptr<f32> -> tensor<1x1x!tt.ptr<f32>> loc(#loc89)
    %7 = tt.addptr %6, %xindex_7 : tensor<1x1x!tt.ptr<f32>>, tensor<1x1xi32> loc(#loc89)
    tt.store %7, %tmp25_20, %xmask_8 : tensor<1x1x!tt.ptr<f32>> loc(#loc90)
    tt.return loc(#loc91)
  } loc(#loc)
  tt.func private @"triton.language.standard.sum__fp32S1_1024S__(1,)cconstexpr_1__(2,)cconstexpr_False__(3,)cNone"(%input: tensor<1x1024xf32> loc("input"(#loc92))) -> tensor<1xf32> attributes {noinline = false} {
    %0 = "tt.reduce"(%input) <{axis = 1 : i32}> ({
    ^bb0(%arg1: f32 loc(unknown), %arg2: f32 loc(unknown)):
      %2 = tt.call @triton.language.standard._sum_combine__fp32_fp32__(%arg1, %arg2) : (f32, f32) -> f32 loc(#loc93)
      tt.reduce.return %2 : f32 loc(#loc93)
    }) : (tensor<1x1024xf32>) -> tensor<1xf32> loc(#loc93)
    tt.return %0 : tensor<1xf32> loc(#loc95)
  ^bb1:  // no predecessors
    %1 = ub.poison : tensor<1xf32> loc(#loc96)
    tt.return %1 : tensor<1xf32> loc(#loc96)
  } loc(#loc92)
  tt.func private @triton.language.standard._sum_combine__fp32_fp32__(%a: f32 loc("a"(#loc97)), %b: f32 loc("b"(#loc97))) -> f32 attributes {noinline = false} {
    %0 = arith.addf %a, %b : f32 loc(#loc98)
    tt.return %0 : f32 loc(#loc99)
  ^bb1:  // no predecessors
    %1 = ub.poison : f32 loc(#loc100)
    tt.return %1 : f32 loc(#loc100)
  } loc(#loc97)
} loc(#loc)
#loc1 = loc("/NHNHOME/WORKSPACE/26msit001_A/jinhyeok/loop_TTT/lact/.cache_inductor_llm/yy/cyyj3icvz5kxhz75vfbaqupqbplxjj4ifx5dmepuuq5lpqyjieq3.py":19:13)
#loc2 = loc("/NHNHOME/WORKSPACE/26msit001_A/jinhyeok/loop_TTT/lact/.cache_inductor_llm/yy/cyyj3icvz5kxhz75vfbaqupqbplxjj4ifx5dmepuuq5lpqyjieq3.py":20:15)
#loc3 = loc("/NHNHOME/WORKSPACE/26msit001_A/jinhyeok/loop_TTT/lact/.cache_inductor_llm/yy/cyyj3icvz5kxhz75vfbaqupqbplxjj4ifx5dmepuuq5lpqyjieq3.py":23:28)
#loc4 = loc("/NHNHOME/WORKSPACE/26msit001_A/jinhyeok/loop_TTT/lact/.cache_inductor_llm/yy/cyyj3icvz5kxhz75vfbaqupqbplxjj4ifx5dmepuuq5lpqyjieq3.py":23:33)
#loc5 = loc("/NHNHOME/WORKSPACE/26msit001_A/jinhyeok/loop_TTT/lact/.cache_inductor_llm/yy/cyyj3icvz5kxhz75vfbaqupqbplxjj4ifx5dmepuuq5lpqyjieq3.py":24:36)
#loc6 = loc("/NHNHOME/WORKSPACE/26msit001_A/jinhyeok/loop_TTT/lact/.cache_inductor_llm/yy/cyyj3icvz5kxhz75vfbaqupqbplxjj4ifx5dmepuuq5lpqyjieq3.py":24:44)
#loc7 = loc("/NHNHOME/WORKSPACE/26msit001_A/jinhyeok/loop_TTT/lact/.cache_inductor_llm/yy/cyyj3icvz5kxhz75vfbaqupqbplxjj4ifx5dmepuuq5lpqyjieq3.py":24:23)
#loc8 = loc("/NHNHOME/WORKSPACE/26msit001_A/jinhyeok/loop_TTT/lact/.cache_inductor_llm/yy/cyyj3icvz5kxhz75vfbaqupqbplxjj4ifx5dmepuuq5lpqyjieq3.py":25:21)
#loc9 = loc("/NHNHOME/WORKSPACE/26msit001_A/jinhyeok/loop_TTT/lact/.cache_inductor_llm/yy/cyyj3icvz5kxhz75vfbaqupqbplxjj4ifx5dmepuuq5lpqyjieq3.py":26:27)
#loc10 = loc("/NHNHOME/WORKSPACE/26msit001_A/jinhyeok/loop_TTT/lact/.cache_inductor_llm/yy/cyyj3icvz5kxhz75vfbaqupqbplxjj4ifx5dmepuuq5lpqyjieq3.py":26:37)
#loc11 = loc("/NHNHOME/WORKSPACE/26msit001_A/jinhyeok/loop_TTT/lact/.cache_inductor_llm/yy/cyyj3icvz5kxhz75vfbaqupqbplxjj4ifx5dmepuuq5lpqyjieq3.py":28:19)
#loc12 = loc("/NHNHOME/WORKSPACE/26msit001_A/jinhyeok/loop_TTT/lact/.cache_inductor_llm/yy/cyyj3icvz5kxhz75vfbaqupqbplxjj4ifx5dmepuuq5lpqyjieq3.py":29:19)
#loc13 = loc("/NHNHOME/WORKSPACE/26msit001_A/jinhyeok/loop_TTT/lact/.cache_inductor_llm/yy/cyyj3icvz5kxhz75vfbaqupqbplxjj4ifx5dmepuuq5lpqyjieq3.py":30:44)
#loc14 = loc("/NHNHOME/WORKSPACE/26msit001_A/jinhyeok/loop_TTT/lact/.cache_inductor_llm/yy/cyyj3icvz5kxhz75vfbaqupqbplxjj4ifx5dmepuuq5lpqyjieq3.py":32:44)
#loc15 = loc("/NHNHOME/WORKSPACE/26msit001_A/jinhyeok/loop_TTT/lact/.cache_inductor_llm/yy/cyyj3icvz5kxhz75vfbaqupqbplxjj4ifx5dmepuuq5lpqyjieq3.py":33:40)
#loc16 = loc("/NHNHOME/WORKSPACE/26msit001_A/jinhyeok/loop_TTT/lact/.cache_inductor_llm/yy/cyyj3icvz5kxhz75vfbaqupqbplxjj4ifx5dmepuuq5lpqyjieq3.py":34:31)
#loc17 = loc("/NHNHOME/WORKSPACE/26msit001_A/jinhyeok/loop_TTT/lact/.cache_inductor_llm/yy/cyyj3icvz5kxhz75vfbaqupqbplxjj4ifx5dmepuuq5lpqyjieq3.py":35:29)
#loc18 = loc("/NHNHOME/WORKSPACE/26msit001_A/jinhyeok/loop_TTT/lact/.cache_inductor_llm/yy/cyyj3icvz5kxhz75vfbaqupqbplxjj4ifx5dmepuuq5lpqyjieq3.py":39:27)
#loc19 = loc("/NHNHOME/WORKSPACE/26msit001_A/jinhyeok/loop_TTT/lact/.cache_inductor_llm/yy/cyyj3icvz5kxhz75vfbaqupqbplxjj4ifx5dmepuuq5lpqyjieq3.py":39:22)
#loc20 = loc("/NHNHOME/WORKSPACE/26msit001_A/jinhyeok/loop_TTT/lact/.cache_inductor_llm/yy/cyyj3icvz5kxhz75vfbaqupqbplxjj4ifx5dmepuuq5lpqyjieq3.py":40:38)
#loc21 = loc("/NHNHOME/WORKSPACE/26msit001_A/jinhyeok/loop_TTT/lact/.cache_inductor_llm/yy/cyyj3icvz5kxhz75vfbaqupqbplxjj4ifx5dmepuuq5lpqyjieq3.py":41:22)
#loc22 = loc("/NHNHOME/WORKSPACE/26msit001_A/jinhyeok/loop_TTT/lact/.cache_inductor_llm/yy/cyyj3icvz5kxhz75vfbaqupqbplxjj4ifx5dmepuuq5lpqyjieq3.py":42:40)
#loc23 = loc("/NHNHOME/WORKSPACE/26msit001_A/jinhyeok/loop_TTT/lact/.cache_inductor_llm/yy/cyyj3icvz5kxhz75vfbaqupqbplxjj4ifx5dmepuuq5lpqyjieq3.py":42:60)
#loc24 = loc("/NHNHOME/WORKSPACE/26msit001_A/jinhyeok/loop_TTT/lact/.cache_inductor_llm/yy/cyyj3icvz5kxhz75vfbaqupqbplxjj4ifx5dmepuuq5lpqyjieq3.py":42:55)
#loc25 = loc("/NHNHOME/WORKSPACE/26msit001_A/jinhyeok/loop_TTT/lact/.cache_inductor_llm/yy/cyyj3icvz5kxhz75vfbaqupqbplxjj4ifx5dmepuuq5lpqyjieq3.py":42:66)
#loc26 = loc("/NHNHOME/WORKSPACE/26msit001_A/jinhyeok/loop_TTT/lact/.cache_inductor_llm/yy/cyyj3icvz5kxhz75vfbaqupqbplxjj4ifx5dmepuuq5lpqyjieq3.py":42:47)
#loc27 = loc("/NHNHOME/WORKSPACE/26msit001_A/jinhyeok/loop_TTT/lact/.cache_inductor_llm/yy/cyyj3icvz5kxhz75vfbaqupqbplxjj4ifx5dmepuuq5lpqyjieq3.py":42:34)
#loc28 = loc("/NHNHOME/WORKSPACE/26msit001_A/jinhyeok/loop_TTT/lact/.cache_inductor_llm/yy/cyyj3icvz5kxhz75vfbaqupqbplxjj4ifx5dmepuuq5lpqyjieq3.py":42:86)
#loc29 = loc("/NHNHOME/WORKSPACE/26msit001_A/jinhyeok/loop_TTT/lact/.cache_inductor_llm/yy/cyyj3icvz5kxhz75vfbaqupqbplxjj4ifx5dmepuuq5lpqyjieq3.py":42:93)
#loc30 = loc("/NHNHOME/WORKSPACE/26msit001_A/jinhyeok/loop_TTT/lact/.cache_inductor_llm/yy/cyyj3icvz5kxhz75vfbaqupqbplxjj4ifx5dmepuuq5lpqyjieq3.py":42:76)
#loc31 = loc("/NHNHOME/WORKSPACE/26msit001_A/jinhyeok/loop_TTT/lact/.cache_inductor_llm/yy/cyyj3icvz5kxhz75vfbaqupqbplxjj4ifx5dmepuuq5lpqyjieq3.py":43:54)
#loc32 = loc("/NHNHOME/WORKSPACE/26msit001_A/jinhyeok/loop_TTT/lact/.cache_inductor_llm/yy/cyyj3icvz5kxhz75vfbaqupqbplxjj4ifx5dmepuuq5lpqyjieq3.py":43:34)
#loc33 = loc("/NHNHOME/WORKSPACE/26msit001_A/jinhyeok/loop_TTT/lact/.cache_inductor_llm/yy/cyyj3icvz5kxhz75vfbaqupqbplxjj4ifx5dmepuuq5lpqyjieq3.py":43:86)
#loc34 = loc("/NHNHOME/WORKSPACE/26msit001_A/jinhyeok/loop_TTT/lact/.cache_inductor_llm/yy/cyyj3icvz5kxhz75vfbaqupqbplxjj4ifx5dmepuuq5lpqyjieq3.py":43:93)
#loc35 = loc("/NHNHOME/WORKSPACE/26msit001_A/jinhyeok/loop_TTT/lact/.cache_inductor_llm/yy/cyyj3icvz5kxhz75vfbaqupqbplxjj4ifx5dmepuuq5lpqyjieq3.py":43:76)
#loc36 = loc("/NHNHOME/WORKSPACE/26msit001_A/jinhyeok/loop_TTT/lact/.cache_inductor_llm/yy/cyyj3icvz5kxhz75vfbaqupqbplxjj4ifx5dmepuuq5lpqyjieq3.py":44:22)
#loc37 = loc("/NHNHOME/WORKSPACE/26msit001_A/jinhyeok/loop_TTT/lact/.cache_inductor_llm/yy/cyyj3icvz5kxhz75vfbaqupqbplxjj4ifx5dmepuuq5lpqyjieq3.py":45:40)
#loc38 = loc("/NHNHOME/WORKSPACE/26msit001_A/jinhyeok/loop_TTT/lact/.cache_inductor_llm/yy/cyyj3icvz5kxhz75vfbaqupqbplxjj4ifx5dmepuuq5lpqyjieq3.py":45:60)
#loc39 = loc("/NHNHOME/WORKSPACE/26msit001_A/jinhyeok/loop_TTT/lact/.cache_inductor_llm/yy/cyyj3icvz5kxhz75vfbaqupqbplxjj4ifx5dmepuuq5lpqyjieq3.py":45:55)
#loc40 = loc("/NHNHOME/WORKSPACE/26msit001_A/jinhyeok/loop_TTT/lact/.cache_inductor_llm/yy/cyyj3icvz5kxhz75vfbaqupqbplxjj4ifx5dmepuuq5lpqyjieq3.py":45:66)
#loc41 = loc("/NHNHOME/WORKSPACE/26msit001_A/jinhyeok/loop_TTT/lact/.cache_inductor_llm/yy/cyyj3icvz5kxhz75vfbaqupqbplxjj4ifx5dmepuuq5lpqyjieq3.py":45:47)
#loc42 = loc("/NHNHOME/WORKSPACE/26msit001_A/jinhyeok/loop_TTT/lact/.cache_inductor_llm/yy/cyyj3icvz5kxhz75vfbaqupqbplxjj4ifx5dmepuuq5lpqyjieq3.py":45:34)
#loc43 = loc("/NHNHOME/WORKSPACE/26msit001_A/jinhyeok/loop_TTT/lact/.cache_inductor_llm/yy/cyyj3icvz5kxhz75vfbaqupqbplxjj4ifx5dmepuuq5lpqyjieq3.py":45:86)
#loc44 = loc("/NHNHOME/WORKSPACE/26msit001_A/jinhyeok/loop_TTT/lact/.cache_inductor_llm/yy/cyyj3icvz5kxhz75vfbaqupqbplxjj4ifx5dmepuuq5lpqyjieq3.py":45:93)
#loc45 = loc("/NHNHOME/WORKSPACE/26msit001_A/jinhyeok/loop_TTT/lact/.cache_inductor_llm/yy/cyyj3icvz5kxhz75vfbaqupqbplxjj4ifx5dmepuuq5lpqyjieq3.py":45:76)
#loc46 = loc("/NHNHOME/WORKSPACE/26msit001_A/jinhyeok/loop_TTT/lact/.cache_inductor_llm/yy/cyyj3icvz5kxhz75vfbaqupqbplxjj4ifx5dmepuuq5lpqyjieq3.py":45:144)
#loc47 = loc("/NHNHOME/WORKSPACE/26msit001_A/jinhyeok/loop_TTT/lact/.cache_inductor_llm/yy/cyyj3icvz5kxhz75vfbaqupqbplxjj4ifx5dmepuuq5lpqyjieq3.py":47:22)
#loc48 = loc("/NHNHOME/WORKSPACE/26msit001_A/jinhyeok/loop_TTT/lact/.cache_inductor_llm/yy/cyyj3icvz5kxhz75vfbaqupqbplxjj4ifx5dmepuuq5lpqyjieq3.py":48:15)
#loc49 = loc("/NHNHOME/WORKSPACE/26msit001_A/jinhyeok/loop_TTT/lact/.cache_inductor_llm/yy/cyyj3icvz5kxhz75vfbaqupqbplxjj4ifx5dmepuuq5lpqyjieq3.py":49:23)
#loc50 = loc("/NHNHOME/WORKSPACE/26msit001_A/jinhyeok/loop_TTT/lact/.cache_inductor_llm/yy/cyyj3icvz5kxhz75vfbaqupqbplxjj4ifx5dmepuuq5lpqyjieq3.py":50:40)
#loc51 = loc("/NHNHOME/WORKSPACE/26msit001_A/jinhyeok/loop_TTT/lact/.cache_inductor_llm/yy/cyyj3icvz5kxhz75vfbaqupqbplxjj4ifx5dmepuuq5lpqyjieq3.py":51:38)
#loc52 = loc("/NHNHOME/WORKSPACE/26msit001_A/jinhyeok/loop_TTT/lact/.cache_inductor_llm/yy/cyyj3icvz5kxhz75vfbaqupqbplxjj4ifx5dmepuuq5lpqyjieq3.py":53:25)
#loc53 = loc("/NHNHOME/WORKSPACE/26msit001_A/jinhyeok/loop_TTT/lact/.cache_inductor_llm/yy/cyyj3icvz5kxhz75vfbaqupqbplxjj4ifx5dmepuuq5lpqyjieq3.py":54:36)
#loc54 = loc("/NHNHOME/WORKSPACE/26msit001_A/jinhyeok/loop_TTT/lact/.cache_inductor_llm/yy/cyyj3icvz5kxhz75vfbaqupqbplxjj4ifx5dmepuuq5lpqyjieq3.py":54:50)
#loc55 = loc("/NHNHOME/WORKSPACE/26msit001_A/jinhyeok/loop_TTT/lact/.cache_inductor_llm/yy/cyyj3icvz5kxhz75vfbaqupqbplxjj4ifx5dmepuuq5lpqyjieq3.py":55:41)
#loc56 = loc("/NHNHOME/WORKSPACE/26msit001_A/jinhyeok/loop_TTT/lact/.cache_inductor_llm/yy/cyyj3icvz5kxhz75vfbaqupqbplxjj4ifx5dmepuuq5lpqyjieq3.py":55:61)
#loc57 = loc("/NHNHOME/WORKSPACE/26msit001_A/jinhyeok/loop_TTT/lact/.cache_inductor_llm/yy/cyyj3icvz5kxhz75vfbaqupqbplxjj4ifx5dmepuuq5lpqyjieq3.py":55:56)
#loc58 = loc("/NHNHOME/WORKSPACE/26msit001_A/jinhyeok/loop_TTT/lact/.cache_inductor_llm/yy/cyyj3icvz5kxhz75vfbaqupqbplxjj4ifx5dmepuuq5lpqyjieq3.py":55:67)
#loc59 = loc("/NHNHOME/WORKSPACE/26msit001_A/jinhyeok/loop_TTT/lact/.cache_inductor_llm/yy/cyyj3icvz5kxhz75vfbaqupqbplxjj4ifx5dmepuuq5lpqyjieq3.py":55:48)
#loc60 = loc("/NHNHOME/WORKSPACE/26msit001_A/jinhyeok/loop_TTT/lact/.cache_inductor_llm/yy/cyyj3icvz5kxhz75vfbaqupqbplxjj4ifx5dmepuuq5lpqyjieq3.py":55:35)
#loc61 = loc("/NHNHOME/WORKSPACE/26msit001_A/jinhyeok/loop_TTT/lact/.cache_inductor_llm/yy/cyyj3icvz5kxhz75vfbaqupqbplxjj4ifx5dmepuuq5lpqyjieq3.py":55:87)
#loc62 = loc("/NHNHOME/WORKSPACE/26msit001_A/jinhyeok/loop_TTT/lact/.cache_inductor_llm/yy/cyyj3icvz5kxhz75vfbaqupqbplxjj4ifx5dmepuuq5lpqyjieq3.py":55:94)
#loc63 = loc("/NHNHOME/WORKSPACE/26msit001_A/jinhyeok/loop_TTT/lact/.cache_inductor_llm/yy/cyyj3icvz5kxhz75vfbaqupqbplxjj4ifx5dmepuuq5lpqyjieq3.py":55:77)
#loc64 = loc("/NHNHOME/WORKSPACE/26msit001_A/jinhyeok/loop_TTT/lact/.cache_inductor_llm/yy/cyyj3icvz5kxhz75vfbaqupqbplxjj4ifx5dmepuuq5lpqyjieq3.py":56:24)
#loc65 = loc("/NHNHOME/WORKSPACE/26msit001_A/jinhyeok/loop_TTT/lact/.cache_inductor_llm/yy/cyyj3icvz5kxhz75vfbaqupqbplxjj4ifx5dmepuuq5lpqyjieq3.py":57:41)
#loc66 = loc("/NHNHOME/WORKSPACE/26msit001_A/jinhyeok/loop_TTT/lact/.cache_inductor_llm/yy/cyyj3icvz5kxhz75vfbaqupqbplxjj4ifx5dmepuuq5lpqyjieq3.py":57:61)
#loc67 = loc("/NHNHOME/WORKSPACE/26msit001_A/jinhyeok/loop_TTT/lact/.cache_inductor_llm/yy/cyyj3icvz5kxhz75vfbaqupqbplxjj4ifx5dmepuuq5lpqyjieq3.py":57:56)
#loc68 = loc("/NHNHOME/WORKSPACE/26msit001_A/jinhyeok/loop_TTT/lact/.cache_inductor_llm/yy/cyyj3icvz5kxhz75vfbaqupqbplxjj4ifx5dmepuuq5lpqyjieq3.py":57:67)
#loc69 = loc("/NHNHOME/WORKSPACE/26msit001_A/jinhyeok/loop_TTT/lact/.cache_inductor_llm/yy/cyyj3icvz5kxhz75vfbaqupqbplxjj4ifx5dmepuuq5lpqyjieq3.py":57:48)
#loc70 = loc("/NHNHOME/WORKSPACE/26msit001_A/jinhyeok/loop_TTT/lact/.cache_inductor_llm/yy/cyyj3icvz5kxhz75vfbaqupqbplxjj4ifx5dmepuuq5lpqyjieq3.py":57:35)
#loc71 = loc("/NHNHOME/WORKSPACE/26msit001_A/jinhyeok/loop_TTT/lact/.cache_inductor_llm/yy/cyyj3icvz5kxhz75vfbaqupqbplxjj4ifx5dmepuuq5lpqyjieq3.py":57:87)
#loc72 = loc("/NHNHOME/WORKSPACE/26msit001_A/jinhyeok/loop_TTT/lact/.cache_inductor_llm/yy/cyyj3icvz5kxhz75vfbaqupqbplxjj4ifx5dmepuuq5lpqyjieq3.py":57:94)
#loc73 = loc("/NHNHOME/WORKSPACE/26msit001_A/jinhyeok/loop_TTT/lact/.cache_inductor_llm/yy/cyyj3icvz5kxhz75vfbaqupqbplxjj4ifx5dmepuuq5lpqyjieq3.py":57:77)
#loc74 = loc("/NHNHOME/WORKSPACE/26msit001_A/jinhyeok/loop_TTT/lact/.cache_inductor_llm/yy/cyyj3icvz5kxhz75vfbaqupqbplxjj4ifx5dmepuuq5lpqyjieq3.py":57:145)
#loc75 = loc("/NHNHOME/WORKSPACE/26msit001_A/jinhyeok/loop_TTT/lact/.cache_inductor_llm/yy/cyyj3icvz5kxhz75vfbaqupqbplxjj4ifx5dmepuuq5lpqyjieq3.py":59:24)
#loc76 = loc("/NHNHOME/WORKSPACE/26msit001_A/jinhyeok/loop_TTT/lact/.cache_inductor_llm/yy/cyyj3icvz5kxhz75vfbaqupqbplxjj4ifx5dmepuuq5lpqyjieq3.py":60:24)
#loc77 = loc("/NHNHOME/WORKSPACE/26msit001_A/jinhyeok/loop_TTT/lact/.cache_inductor_llm/yy/cyyj3icvz5kxhz75vfbaqupqbplxjj4ifx5dmepuuq5lpqyjieq3.py":61:40)
#loc78 = loc("/NHNHOME/WORKSPACE/26msit001_A/jinhyeok/loop_TTT/lact/.cache_inductor_llm/yy/cyyj3icvz5kxhz75vfbaqupqbplxjj4ifx5dmepuuq5lpqyjieq3.py":62:38)
#loc79 = loc("/NHNHOME/WORKSPACE/26msit001_A/jinhyeok/loop_TTT/lact/.cache_inductor_llm/yy/cyyj3icvz5kxhz75vfbaqupqbplxjj4ifx5dmepuuq5lpqyjieq3.py":64:25)
#loc80 = loc("/NHNHOME/WORKSPACE/26msit001_A/jinhyeok/loop_TTT/lact/.cache_inductor_llm/yy/cyyj3icvz5kxhz75vfbaqupqbplxjj4ifx5dmepuuq5lpqyjieq3.py":65:36)
#loc81 = loc("/NHNHOME/WORKSPACE/26msit001_A/jinhyeok/loop_TTT/lact/.cache_inductor_llm/yy/cyyj3icvz5kxhz75vfbaqupqbplxjj4ifx5dmepuuq5lpqyjieq3.py":65:50)
#loc82 = loc("/NHNHOME/WORKSPACE/26msit001_A/jinhyeok/loop_TTT/lact/.cache_inductor_llm/yy/cyyj3icvz5kxhz75vfbaqupqbplxjj4ifx5dmepuuq5lpqyjieq3.py":65:8)
#loc83 = loc("/NHNHOME/WORKSPACE/26msit001_A/jinhyeok/loop_TTT/lact/.cache_inductor_llm/yy/cyyj3icvz5kxhz75vfbaqupqbplxjj4ifx5dmepuuq5lpqyjieq3.py":66:27)
#loc84 = loc("/NHNHOME/WORKSPACE/26msit001_A/jinhyeok/loop_TTT/lact/.cache_inductor_llm/yy/cyyj3icvz5kxhz75vfbaqupqbplxjj4ifx5dmepuuq5lpqyjieq3.py":66:30)
#loc85 = loc("/NHNHOME/WORKSPACE/26msit001_A/jinhyeok/loop_TTT/lact/.cache_inductor_llm/yy/cyyj3icvz5kxhz75vfbaqupqbplxjj4ifx5dmepuuq5lpqyjieq3.py":67:27)
#loc86 = loc("/NHNHOME/WORKSPACE/26msit001_A/jinhyeok/loop_TTT/lact/.cache_inductor_llm/yy/cyyj3icvz5kxhz75vfbaqupqbplxjj4ifx5dmepuuq5lpqyjieq3.py":67:30)
#loc87 = loc("/NHNHOME/WORKSPACE/26msit001_A/jinhyeok/loop_TTT/lact/.cache_inductor_llm/yy/cyyj3icvz5kxhz75vfbaqupqbplxjj4ifx5dmepuuq5lpqyjieq3.py":68:25)
#loc88 = loc("/NHNHOME/WORKSPACE/26msit001_A/jinhyeok/loop_TTT/lact/.cache_inductor_llm/yy/cyyj3icvz5kxhz75vfbaqupqbplxjj4ifx5dmepuuq5lpqyjieq3.py":68:37)
#loc89 = loc("/NHNHOME/WORKSPACE/26msit001_A/jinhyeok/loop_TTT/lact/.cache_inductor_llm/yy/cyyj3icvz5kxhz75vfbaqupqbplxjj4ifx5dmepuuq5lpqyjieq3.py":69:25)
#loc90 = loc("/NHNHOME/WORKSPACE/26msit001_A/jinhyeok/loop_TTT/lact/.cache_inductor_llm/yy/cyyj3icvz5kxhz75vfbaqupqbplxjj4ifx5dmepuuq5lpqyjieq3.py":69:37)
#loc91 = loc("/NHNHOME/WORKSPACE/26msit001_A/jinhyeok/loop_TTT/lact/.cache_inductor_llm/yy/cyyj3icvz5kxhz75vfbaqupqbplxjj4ifx5dmepuuq5lpqyjieq3.py":69:4)
#loc93 = loc("/NHNHOME/WORKSPACE/26msit001_A/jinhyeok/TTT_camera_embedding/.venv_llm/lib/python3.12/site-packages/triton/language/standard.py":291:36)
#loc95 = loc("/NHNHOME/WORKSPACE/26msit001_A/jinhyeok/TTT_camera_embedding/.venv_llm/lib/python3.12/site-packages/triton/language/standard.py":291:11)
#loc96 = loc("/NHNHOME/WORKSPACE/26msit001_A/jinhyeok/TTT_camera_embedding/.venv_llm/lib/python3.12/site-packages/triton/language/standard.py":291:4)
#loc98 = loc("/NHNHOME/WORKSPACE/26msit001_A/jinhyeok/TTT_camera_embedding/.venv_llm/lib/python3.12/site-packages/triton/language/standard.py":261:15)
#loc99 = loc("/NHNHOME/WORKSPACE/26msit001_A/jinhyeok/TTT_camera_embedding/.venv_llm/lib/python3.12/site-packages/triton/language/standard.py":261:11)
#loc100 = loc("/NHNHOME/WORKSPACE/26msit001_A/jinhyeok/TTT_camera_embedding/.venv_llm/lib/python3.12/site-packages/triton/language/standard.py":261:4)
#loc110 = loc("xnumel"(#loc1))
#loc111 = loc("r0_numel"(#loc2))
#loc112 = loc("xoffset"(#loc3))
#loc113 = loc("xoffset"(#loc4))
#loc114 = loc("xindex"(#loc5))
#loc115 = loc("xindex"(#loc6))
#loc116 = loc("xindex"(#loc7))
#loc117 = loc("xmask"(#loc8))
#loc118 = loc("r0_base"(#loc9))
#loc119 = loc("r0_base"(#loc10))
#loc120 = loc("x0"(#loc11))
#loc121 = loc("x1"(#loc12))
#loc122 = loc("_tmp14"(#loc13))
#loc123 = loc("_tmp25"(#loc14))
#loc124 = loc("_tmp14"(#loc15))
#loc125 = loc("r0_index"(#loc16))
#loc126 = loc("r0_mask"(#loc17))
#loc127 = loc("tmp0"(#loc18))
#loc128 = loc("tmp0"(#loc19))
#loc129 = loc("tmp1"(#loc20))
#loc130 = loc("tmp2"(#loc21))
#loc131 = loc("tmp3"(#loc22))
#loc132 = loc("tmp3"(#loc23))
#loc133 = loc("tmp3"(#loc24))
#loc134 = loc("tmp3"(#loc25))
#loc135 = loc("tmp3"(#loc26))
#loc136 = loc("tmp3"(#loc27))
#loc137 = loc("tmp3"(#loc28))
#loc138 = loc("tmp3"(#loc29))
#loc139 = loc("tmp3"(#loc30))
#loc140 = loc("tmp4"(#loc31))
#loc141 = loc("tmp4"(#loc32))
#loc142 = loc("tmp4"(#loc33))
#loc143 = loc("tmp4"(#loc34))
#loc144 = loc("tmp4"(#loc35))
#loc145 = loc("tmp5"(#loc36))
#loc146 = loc("tmp6"(#loc37))
#loc147 = loc("tmp6"(#loc38))
#loc148 = loc("tmp6"(#loc39))
#loc149 = loc("tmp6"(#loc40))
#loc150 = loc("tmp6"(#loc41))
#loc151 = loc("tmp6"(#loc42))
#loc152 = loc("tmp6"(#loc43))
#loc153 = loc("tmp6"(#loc44))
#loc154 = loc("tmp6"(#loc45))
#loc155 = loc("tmp6"(#loc46))
#loc156 = loc("tmp8"(#loc47))
#loc157 = loc("tmp9"(#loc48))
#loc158 = loc("tmp10"(#loc49))
#loc159 = loc("tmp11"(#loc50))
#loc160 = loc("tmp12"(#loc51))
#loc161 = loc("tmp15"(#loc52))
#loc162 = loc("_tmp14"(#loc53))
#loc163 = loc("_tmp14"(#loc54))
#loc164 = loc("tmp16"(#loc55))
#loc165 = loc("tmp16"(#loc56))
#loc166 = loc("tmp16"(#loc57))
#loc167 = loc("tmp16"(#loc58))
#loc168 = loc("tmp16"(#loc59))
#loc169 = loc("tmp16"(#loc60))
#loc170 = loc("tmp16"(#loc61))
#loc171 = loc("tmp16"(#loc62))
#loc172 = loc("tmp16"(#loc63))
#loc173 = loc("tmp17"(#loc64))
#loc174 = loc("tmp18"(#loc65))
#loc175 = loc("tmp18"(#loc66))
#loc176 = loc("tmp18"(#loc67))
#loc177 = loc("tmp18"(#loc68))
#loc178 = loc("tmp18"(#loc69))
#loc179 = loc("tmp18"(#loc70))
#loc180 = loc("tmp18"(#loc71))
#loc181 = loc("tmp18"(#loc72))
#loc182 = loc("tmp18"(#loc73))
#loc183 = loc("tmp18"(#loc74))
#loc184 = loc("tmp20"(#loc75))
#loc185 = loc("tmp21"(#loc76))
#loc186 = loc("tmp22"(#loc77))
#loc187 = loc("tmp23"(#loc78))
#loc188 = loc("tmp26"(#loc79))
#loc189 = loc("_tmp25"(#loc80))
#loc190 = loc("_tmp25"(#loc81))
#loc191 = loc("tmp14"(#loc83))
#loc192 = loc("tmp14"(#loc84))
#loc193 = loc("tmp25"(#loc85))
#loc194 = loc("tmp25"(#loc86))
#loc198 = loc("_tmp25"(#loc124))
