#loc = loc("/NHNHOME/WORKSPACE/26msit001_A/jinhyeok/loop_TTT/lact/.cache_inductor_llm/ux/cuxhcgwj7j2g42tbhwrdsdjxkz5jqw3qildf3vrc4cflo5yr2q6s.py":18:0)
#loc25 = loc("in_out_ptr0"(#loc))
#loc26 = loc("in_ptr0"(#loc))
#loc27 = loc("in_ptr1"(#loc))
#loc28 = loc("xnumel"(#loc))
module {
  tt.func public @triton_poi_fused_add_mul_7(%in_out_ptr0: !tt.ptr<bf16> {tt.divisibility = 16 : i32} loc("in_out_ptr0"(#loc)), %in_ptr0: !tt.ptr<bf16> {tt.divisibility = 16 : i32} loc("in_ptr0"(#loc)), %in_ptr1: !tt.ptr<bf16> {tt.divisibility = 16 : i32} loc("in_ptr1"(#loc)), %xnumel: i32 {tt.divisibility = 16 : i32} loc("xnumel"(#loc))) attributes {noinline = false} {
    %xnumel_0 = arith.constant 3538944 : i32 loc(#loc29)
    %xoffset = tt.get_program_id x : i32 loc(#loc30)
    %xoffset_1 = arith.constant 512 : i32 loc(#loc31)
    %xoffset_2 = arith.constant 512 : i32 loc(#loc31)
    %xoffset_3 = arith.muli %xoffset, %xoffset_2 : i32 loc(#loc31)
    %xindex = tt.make_range {end = 512 : i32, start = 0 : i32} : tensor<512xi32> loc(#loc32)
    %xindex_4 = tt.splat %xoffset_3 : i32 -> tensor<512xi32> loc(#loc33)
    %xindex_5 = arith.addi %xindex_4, %xindex : tensor<512xi32> loc(#loc33)
    %xmask = arith.constant true loc(#loc34)
    %xmask_6 = arith.constant dense<true> : tensor<512xi1> loc(#loc34)
    %tmp0 = tt.splat %in_out_ptr0 : !tt.ptr<bf16> -> tensor<512x!tt.ptr<bf16>> loc(#loc35)
    %tmp0_7 = tt.addptr %tmp0, %xindex_5 : tensor<512x!tt.ptr<bf16>>, tensor<512xi32> loc(#loc35)
    %tmp0_8 = tt.load %tmp0_7 : tensor<512x!tt.ptr<bf16>> loc(#loc36)
    %tmp0_9 = arith.extf %tmp0_8 : tensor<512xbf16> to tensor<512xf32> loc(#loc37)
    %tmp1 = tt.splat %in_ptr0 : !tt.ptr<bf16> -> tensor<512x!tt.ptr<bf16>> loc(#loc38)
    %tmp1_10 = tt.addptr %tmp1, %xindex_5 : tensor<512x!tt.ptr<bf16>>, tensor<512xi32> loc(#loc38)
    %tmp1_11 = tt.load %tmp1_10 : tensor<512x!tt.ptr<bf16>> loc(#loc39)
    %tmp1_12 = arith.extf %tmp1_11 : tensor<512xbf16> to tensor<512xf32> loc(#loc40)
    %tmp5 = tt.splat %in_ptr1 : !tt.ptr<bf16> -> tensor<512x!tt.ptr<bf16>> loc(#loc41)
    %tmp5_13 = tt.addptr %tmp5, %xindex_5 : tensor<512x!tt.ptr<bf16>>, tensor<512xi32> loc(#loc41)
    %tmp5_14 = tt.load %tmp5_13 : tensor<512x!tt.ptr<bf16>> loc(#loc42)
    %tmp5_15 = arith.extf %tmp5_14 : tensor<512xbf16> to tensor<512xf32> loc(#loc43)
    %tmp2 = arith.constant 2.303700e+00 : f32 loc(#loc44)
    %tmp3 = arith.constant dense<2.303700e+00> : tensor<512xf32> loc(#loc45)
    %tmp3_16 = arith.mulf %tmp1_12, %tmp3 : tensor<512xf32> loc(#loc45)
    %tmp4 = arith.addf %tmp0_9, %tmp3_16 : tensor<512xf32> loc(#loc46)
    %tmp6 = arith.constant -5.591300e+00 : f32 loc(#loc47)
    %tmp7 = arith.constant dense<-5.591300e+00> : tensor<512xf32> loc(#loc48)
    %tmp7_17 = arith.mulf %tmp5_15, %tmp7 : tensor<512xf32> loc(#loc48)
    %tmp8 = arith.addf %tmp4, %tmp7_17 : tensor<512xf32> loc(#loc49)
    %0 = tt.splat %in_out_ptr0 : !tt.ptr<bf16> -> tensor<512x!tt.ptr<bf16>> loc(#loc22)
    %1 = tt.addptr %0, %xindex_5 : tensor<512x!tt.ptr<bf16>>, tensor<512xi32> loc(#loc22)
    %2 = arith.truncf %tmp8 : tensor<512xf32> to tensor<512xbf16> loc(#loc23)
    tt.store %1, %2 : tensor<512x!tt.ptr<bf16>> loc(#loc23)
    tt.return loc(#loc24)
  } loc(#loc)
} loc(#loc)
#loc1 = loc("/NHNHOME/WORKSPACE/26msit001_A/jinhyeok/loop_TTT/lact/.cache_inductor_llm/ux/cuxhcgwj7j2g42tbhwrdsdjxkz5jqw3qildf3vrc4cflo5yr2q6s.py":19:13)
#loc2 = loc("/NHNHOME/WORKSPACE/26msit001_A/jinhyeok/loop_TTT/lact/.cache_inductor_llm/ux/cuxhcgwj7j2g42tbhwrdsdjxkz5jqw3qildf3vrc4cflo5yr2q6s.py":20:28)
#loc3 = loc("/NHNHOME/WORKSPACE/26msit001_A/jinhyeok/loop_TTT/lact/.cache_inductor_llm/ux/cuxhcgwj7j2g42tbhwrdsdjxkz5jqw3qildf3vrc4cflo5yr2q6s.py":20:33)
#loc4 = loc("/NHNHOME/WORKSPACE/26msit001_A/jinhyeok/loop_TTT/lact/.cache_inductor_llm/ux/cuxhcgwj7j2g42tbhwrdsdjxkz5jqw3qildf3vrc4cflo5yr2q6s.py":21:36)
#loc5 = loc("/NHNHOME/WORKSPACE/26msit001_A/jinhyeok/loop_TTT/lact/.cache_inductor_llm/ux/cuxhcgwj7j2g42tbhwrdsdjxkz5jqw3qildf3vrc4cflo5yr2q6s.py":21:23)
#loc6 = loc("/NHNHOME/WORKSPACE/26msit001_A/jinhyeok/loop_TTT/lact/.cache_inductor_llm/ux/cuxhcgwj7j2g42tbhwrdsdjxkz5jqw3qildf3vrc4cflo5yr2q6s.py":22:36)
#loc7 = loc("/NHNHOME/WORKSPACE/26msit001_A/jinhyeok/loop_TTT/lact/.cache_inductor_llm/ux/cuxhcgwj7j2g42tbhwrdsdjxkz5jqw3qildf3vrc4cflo5yr2q6s.py":24:34)
#loc8 = loc("/NHNHOME/WORKSPACE/26msit001_A/jinhyeok/loop_TTT/lact/.cache_inductor_llm/ux/cuxhcgwj7j2g42tbhwrdsdjxkz5jqw3qildf3vrc4cflo5yr2q6s.py":24:39)
#loc9 = loc("/NHNHOME/WORKSPACE/26msit001_A/jinhyeok/loop_TTT/lact/.cache_inductor_llm/ux/cuxhcgwj7j2g42tbhwrdsdjxkz5jqw3qildf3vrc4cflo5yr2q6s.py":24:48)
#loc10 = loc("/NHNHOME/WORKSPACE/26msit001_A/jinhyeok/loop_TTT/lact/.cache_inductor_llm/ux/cuxhcgwj7j2g42tbhwrdsdjxkz5jqw3qildf3vrc4cflo5yr2q6s.py":25:30)
#loc11 = loc("/NHNHOME/WORKSPACE/26msit001_A/jinhyeok/loop_TTT/lact/.cache_inductor_llm/ux/cuxhcgwj7j2g42tbhwrdsdjxkz5jqw3qildf3vrc4cflo5yr2q6s.py":25:35)
#loc12 = loc("/NHNHOME/WORKSPACE/26msit001_A/jinhyeok/loop_TTT/lact/.cache_inductor_llm/ux/cuxhcgwj7j2g42tbhwrdsdjxkz5jqw3qildf3vrc4cflo5yr2q6s.py":25:44)
#loc13 = loc("/NHNHOME/WORKSPACE/26msit001_A/jinhyeok/loop_TTT/lact/.cache_inductor_llm/ux/cuxhcgwj7j2g42tbhwrdsdjxkz5jqw3qildf3vrc4cflo5yr2q6s.py":26:30)
#loc14 = loc("/NHNHOME/WORKSPACE/26msit001_A/jinhyeok/loop_TTT/lact/.cache_inductor_llm/ux/cuxhcgwj7j2g42tbhwrdsdjxkz5jqw3qildf3vrc4cflo5yr2q6s.py":26:35)
#loc15 = loc("/NHNHOME/WORKSPACE/26msit001_A/jinhyeok/loop_TTT/lact/.cache_inductor_llm/ux/cuxhcgwj7j2g42tbhwrdsdjxkz5jqw3qildf3vrc4cflo5yr2q6s.py":26:44)
#loc16 = loc("/NHNHOME/WORKSPACE/26msit001_A/jinhyeok/loop_TTT/lact/.cache_inductor_llm/ux/cuxhcgwj7j2g42tbhwrdsdjxkz5jqw3qildf3vrc4cflo5yr2q6s.py":27:11)
#loc17 = loc("/NHNHOME/WORKSPACE/26msit001_A/jinhyeok/loop_TTT/lact/.cache_inductor_llm/ux/cuxhcgwj7j2g42tbhwrdsdjxkz5jqw3qildf3vrc4cflo5yr2q6s.py":28:18)
#loc18 = loc("/NHNHOME/WORKSPACE/26msit001_A/jinhyeok/loop_TTT/lact/.cache_inductor_llm/ux/cuxhcgwj7j2g42tbhwrdsdjxkz5jqw3qildf3vrc4cflo5yr2q6s.py":29:18)
#loc19 = loc("/NHNHOME/WORKSPACE/26msit001_A/jinhyeok/loop_TTT/lact/.cache_inductor_llm/ux/cuxhcgwj7j2g42tbhwrdsdjxkz5jqw3qildf3vrc4cflo5yr2q6s.py":30:11)
#loc20 = loc("/NHNHOME/WORKSPACE/26msit001_A/jinhyeok/loop_TTT/lact/.cache_inductor_llm/ux/cuxhcgwj7j2g42tbhwrdsdjxkz5jqw3qildf3vrc4cflo5yr2q6s.py":31:18)
#loc21 = loc("/NHNHOME/WORKSPACE/26msit001_A/jinhyeok/loop_TTT/lact/.cache_inductor_llm/ux/cuxhcgwj7j2g42tbhwrdsdjxkz5jqw3qildf3vrc4cflo5yr2q6s.py":32:18)
#loc22 = loc("/NHNHOME/WORKSPACE/26msit001_A/jinhyeok/loop_TTT/lact/.cache_inductor_llm/ux/cuxhcgwj7j2g42tbhwrdsdjxkz5jqw3qildf3vrc4cflo5yr2q6s.py":33:28)
#loc23 = loc("/NHNHOME/WORKSPACE/26msit001_A/jinhyeok/loop_TTT/lact/.cache_inductor_llm/ux/cuxhcgwj7j2g42tbhwrdsdjxkz5jqw3qildf3vrc4cflo5yr2q6s.py":33:39)
#loc24 = loc("/NHNHOME/WORKSPACE/26msit001_A/jinhyeok/loop_TTT/lact/.cache_inductor_llm/ux/cuxhcgwj7j2g42tbhwrdsdjxkz5jqw3qildf3vrc4cflo5yr2q6s.py":33:4)
#loc29 = loc("xnumel"(#loc1))
#loc30 = loc("xoffset"(#loc2))
#loc31 = loc("xoffset"(#loc3))
#loc32 = loc("xindex"(#loc4))
#loc33 = loc("xindex"(#loc5))
#loc34 = loc("xmask"(#loc6))
#loc35 = loc("tmp0"(#loc7))
#loc36 = loc("tmp0"(#loc8))
#loc37 = loc("tmp0"(#loc9))
#loc38 = loc("tmp1"(#loc10))
#loc39 = loc("tmp1"(#loc11))
#loc40 = loc("tmp1"(#loc12))
#loc41 = loc("tmp5"(#loc13))
#loc42 = loc("tmp5"(#loc14))
#loc43 = loc("tmp5"(#loc15))
#loc44 = loc("tmp2"(#loc16))
#loc45 = loc("tmp3"(#loc17))
#loc46 = loc("tmp4"(#loc18))
#loc47 = loc("tmp6"(#loc19))
#loc48 = loc("tmp7"(#loc20))
#loc49 = loc("tmp8"(#loc21))
