#loc = loc("/NHNHOME/WORKSPACE/26msit001_A/jinhyeok/loop_TTT/lact/.cache_inductor_llm/6c/c6cnh44a76w7mtp77tecrq5jy3ohri4oqn6hvyptrlhzn2fouj5v.py":18:0)
#loc2 = loc(unknown)
#loc29 = loc("/NHNHOME/WORKSPACE/26msit001_A/jinhyeok/loop_TTT/lact/.cache_inductor_llm/6c/c6cnh44a76w7mtp77tecrq5jy3ohri4oqn6hvyptrlhzn2fouj5v.py":52:25)
#loc32 = loc("/NHNHOME/WORKSPACE/26msit001_A/jinhyeok/loop_TTT/lact/.cache_inductor_llm/6c/c6cnh44a76w7mtp77tecrq5jy3ohri4oqn6hvyptrlhzn2fouj5v.py":53:27)
#loc39 = loc("in_ptr0"(#loc))
#loc40 = loc("in_ptr1"(#loc))
#loc41 = loc("in_ptr2"(#loc))
#loc42 = loc("out_ptr0"(#loc))
#loc43 = loc("out_ptr1"(#loc))
#loc44 = loc("xnumel"(#loc))
#loc45 = loc("r0_numel"(#loc))
#loc72 = loc("tmp5"(#loc29))
#loc74 = loc("tmp11"(#loc32))
#loc80 = loc(callsite(#loc2 at #loc72))
#loc82 = loc(callsite(#loc2 at #loc74))
module {
  tt.func public @triton_red_fused__to_copy_mul_slice_sum_35(%in_ptr0: !tt.ptr<bf16> {tt.divisibility = 16 : i32} loc("in_ptr0"(#loc)), %in_ptr1: !tt.ptr<f32> {tt.divisibility = 16 : i32} loc("in_ptr1"(#loc)), %in_ptr2: !tt.ptr<bf16> {tt.divisibility = 16 : i32} loc("in_ptr2"(#loc)), %out_ptr0: !tt.ptr<f32> {tt.divisibility = 16 : i32} loc("out_ptr0"(#loc)), %out_ptr1: !tt.ptr<f32> {tt.divisibility = 16 : i32} loc("out_ptr1"(#loc)), %xnumel: i32 {tt.divisibility = 16 : i32} loc("xnumel"(#loc)), %r0_numel: i32 {tt.divisibility = 16 : i32} loc("r0_numel"(#loc))) attributes {noinline = false} {
    %tmp2 = arith.constant 786432 : i32 loc(#loc46)
    %c192_i32 = arith.constant 192 : i32 loc(#loc2)
    %c1024_i32 = arith.constant 1024 : i32 loc(#loc2)
    %cst = arith.constant dense<0.000000e+00> : tensor<1x256xbf16> loc(#loc2)
    %cst_0 = arith.constant dense<192> : tensor<1x256xi32> loc(#loc2)
    %cst_1 = arith.constant dense<0.000000e+00> : tensor<1x256xf32> loc(#loc2)
    %xoffset = tt.get_program_id x : i32 loc(#loc47)
    %r0_base = tt.make_range {end = 256 : i32, start = 0 : i32} : tensor<256xi32> loc(#loc48)
    %r0_base_2 = tt.expand_dims %r0_base {axis = 0 : i32} : tensor<256xi32> -> tensor<1x256xi32> loc(#loc49)
    %x0 = arith.remsi %xoffset, %c1024_i32 : i32 loc(#loc50)
    %x1 = arith.divsi %xoffset, %c1024_i32 : i32 loc(#loc51)
    %r0_mask = arith.cmpi slt, %r0_base_2, %cst_0 : tensor<1x256xi32> loc(#loc52)
    %tmp0 = arith.muli %xoffset, %c192_i32 : i32 loc(#loc53)
    %tmp0_3 = tt.splat %tmp0 : i32 -> tensor<1x256xi32> loc(#loc76)
    %tmp0_4 = arith.addi %r0_base_2, %tmp0_3 : tensor<1x256xi32> loc(#loc54)
    %tmp0_5 = tt.splat %in_ptr0 : !tt.ptr<bf16> -> tensor<1x256x!tt.ptr<bf16>> loc(#loc55)
    %tmp0_6 = tt.addptr %tmp0_5, %tmp0_4 : tensor<1x256x!tt.ptr<bf16>>, tensor<1x256xi32> loc(#loc55)
    %tmp0_7 = tt.load %tmp0_6, %r0_mask, %cst evictionPolicy = evict_first : tensor<1x256x!tt.ptr<bf16>> loc(#loc56)
    %tmp0_8 = arith.extf %tmp0_7 : tensor<1x256xbf16> to tensor<1x256xf32> loc(#loc57)
    %tmp2_9 = arith.muli %x0, %c192_i32 : i32 loc(#loc58)
    %tmp2_10 = tt.splat %tmp2_9 : i32 -> tensor<1x256xi32> loc(#loc77)
    %tmp2_11 = arith.addi %r0_base_2, %tmp2_10 : tensor<1x256xi32> loc(#loc59)
    %tmp2_12 = arith.muli %x1, %tmp2 : i32 loc(#loc46)
    %tmp2_13 = tt.splat %tmp2_12 : i32 -> tensor<1x256xi32> loc(#loc78)
    %tmp2_14 = arith.addi %tmp2_11, %tmp2_13 : tensor<1x256xi32> loc(#loc60)
    %tmp2_15 = tt.splat %in_ptr1 : !tt.ptr<f32> -> tensor<1x256x!tt.ptr<f32>> loc(#loc61)
    %tmp2_16 = tt.addptr %tmp2_15, %tmp2_14 : tensor<1x256x!tt.ptr<f32>>, tensor<1x256xi32> loc(#loc61)
    %tmp2_17 = tt.load %tmp2_16, %r0_mask, %cst_1 evictionPolicy = evict_first : tensor<1x256x!tt.ptr<f32>> loc(#loc62)
    %tmp7 = tt.splat %in_ptr2 : !tt.ptr<bf16> -> tensor<1x256x!tt.ptr<bf16>> loc(#loc63)
    %tmp7_18 = tt.addptr %tmp7, %tmp0_4 : tensor<1x256x!tt.ptr<bf16>>, tensor<1x256xi32> loc(#loc63)
    %tmp7_19 = tt.load %tmp7_18, %r0_mask, %cst evictionPolicy = evict_first : tensor<1x256x!tt.ptr<bf16>> loc(#loc64)
    %tmp7_20 = arith.extf %tmp7_19 : tensor<1x256xbf16> to tensor<1x256xf32> loc(#loc65)
    %tmp3 = arith.mulf %tmp0_8, %tmp2_17 : tensor<1x256xf32> loc(#loc66)
    %tmp6 = arith.addf %tmp3, %cst_1 : tensor<1x256xf32> loc(#loc67)
    %_tmp5 = arith.select %r0_mask, %tmp6, %cst_1 : tensor<1x256xi1>, tensor<1x256xf32> loc(#loc68)
    %tmp9 = arith.mulf %tmp7_20, %tmp2_17 : tensor<1x256xf32> loc(#loc69)
    %tmp12 = arith.addf %tmp9, %cst_1 : tensor<1x256xf32> loc(#loc70)
    %_tmp11 = arith.select %r0_mask, %tmp12, %cst_1 : tensor<1x256xi1>, tensor<1x256xf32> loc(#loc71)
    %tmp5 = "tt.reduce"(%_tmp5) <{axis = 1 : i32}> ({
    ^bb0(%tmp5_23: f32 loc(callsite(#loc2 at #loc72)), %tmp5_24: f32 loc(callsite(#loc2 at #loc72))):
      %tmp5_25 = arith.addf %tmp5_23, %tmp5_24 : f32 loc(#loc83)
      tt.reduce.return %tmp5_25 : f32 loc(#loc79)
    }) : (tensor<1x256xf32>) -> tensor<1xf32> loc(#loc79)
    %tmp5_21 = tt.expand_dims %tmp5 {axis = 1 : i32} : tensor<1xf32> -> tensor<1x1xf32> loc(#loc73)
    %tmp11 = "tt.reduce"(%_tmp11) <{axis = 1 : i32}> ({
    ^bb0(%tmp11_23: f32 loc(callsite(#loc2 at #loc74)), %tmp11_24: f32 loc(callsite(#loc2 at #loc74))):
      %tmp11_25 = arith.addf %tmp11_23, %tmp11_24 : f32 loc(#loc84)
      tt.reduce.return %tmp11_25 : f32 loc(#loc81)
    }) : (tensor<1x256xf32>) -> tensor<1xf32> loc(#loc81)
    %tmp11_22 = tt.expand_dims %tmp11 {axis = 1 : i32} : tensor<1xf32> -> tensor<1x1xf32> loc(#loc75)
    %0 = tt.addptr %out_ptr0, %xoffset : !tt.ptr<f32>, i32 loc(#loc34)
    %1 = tt.splat %0 : !tt.ptr<f32> -> tensor<1x1x!tt.ptr<f32>> loc(#loc34)
    tt.store %1, %tmp5_21 : tensor<1x1x!tt.ptr<f32>> loc(#loc35)
    %2 = tt.addptr %out_ptr1, %xoffset : !tt.ptr<f32>, i32 loc(#loc36)
    %3 = tt.splat %2 : !tt.ptr<f32> -> tensor<1x1x!tt.ptr<f32>> loc(#loc36)
    tt.store %3, %tmp11_22 : tensor<1x1x!tt.ptr<f32>> loc(#loc37)
    tt.return loc(#loc38)
  } loc(#loc)
} loc(#loc)
#loc1 = loc("/NHNHOME/WORKSPACE/26msit001_A/jinhyeok/loop_TTT/lact/.cache_inductor_llm/6c/c6cnh44a76w7mtp77tecrq5jy3ohri4oqn6hvyptrlhzn2fouj5v.py":40:57)
#loc3 = loc("/NHNHOME/WORKSPACE/26msit001_A/jinhyeok/loop_TTT/lact/.cache_inductor_llm/6c/c6cnh44a76w7mtp77tecrq5jy3ohri4oqn6hvyptrlhzn2fouj5v.py":23:28)
#loc4 = loc("/NHNHOME/WORKSPACE/26msit001_A/jinhyeok/loop_TTT/lact/.cache_inductor_llm/6c/c6cnh44a76w7mtp77tecrq5jy3ohri4oqn6hvyptrlhzn2fouj5v.py":26:27)
#loc5 = loc("/NHNHOME/WORKSPACE/26msit001_A/jinhyeok/loop_TTT/lact/.cache_inductor_llm/6c/c6cnh44a76w7mtp77tecrq5jy3ohri4oqn6hvyptrlhzn2fouj5v.py":26:37)
#loc6 = loc("/NHNHOME/WORKSPACE/26msit001_A/jinhyeok/loop_TTT/lact/.cache_inductor_llm/6c/c6cnh44a76w7mtp77tecrq5jy3ohri4oqn6hvyptrlhzn2fouj5v.py":29:19)
#loc7 = loc("/NHNHOME/WORKSPACE/26msit001_A/jinhyeok/loop_TTT/lact/.cache_inductor_llm/6c/c6cnh44a76w7mtp77tecrq5jy3ohri4oqn6hvyptrlhzn2fouj5v.py":30:19)
#loc8 = loc("/NHNHOME/WORKSPACE/26msit001_A/jinhyeok/loop_TTT/lact/.cache_inductor_llm/6c/c6cnh44a76w7mtp77tecrq5jy3ohri4oqn6hvyptrlhzn2fouj5v.py":35:29)
#loc9 = loc("/NHNHOME/WORKSPACE/26msit001_A/jinhyeok/loop_TTT/lact/.cache_inductor_llm/6c/c6cnh44a76w7mtp77tecrq5jy3ohri4oqn6hvyptrlhzn2fouj5v.py":39:45)
#loc10 = loc("/NHNHOME/WORKSPACE/26msit001_A/jinhyeok/loop_TTT/lact/.cache_inductor_llm/6c/c6cnh44a76w7mtp77tecrq5jy3ohri4oqn6hvyptrlhzn2fouj5v.py":39:41)
#loc11 = loc("/NHNHOME/WORKSPACE/26msit001_A/jinhyeok/loop_TTT/lact/.cache_inductor_llm/6c/c6cnh44a76w7mtp77tecrq5jy3ohri4oqn6hvyptrlhzn2fouj5v.py":39:34)
#loc12 = loc("/NHNHOME/WORKSPACE/26msit001_A/jinhyeok/loop_TTT/lact/.cache_inductor_llm/6c/c6cnh44a76w7mtp77tecrq5jy3ohri4oqn6hvyptrlhzn2fouj5v.py":39:50)
#loc13 = loc("/NHNHOME/WORKSPACE/26msit001_A/jinhyeok/loop_TTT/lact/.cache_inductor_llm/6c/c6cnh44a76w7mtp77tecrq5jy3ohri4oqn6hvyptrlhzn2fouj5v.py":39:104)
#loc14 = loc("/NHNHOME/WORKSPACE/26msit001_A/jinhyeok/loop_TTT/lact/.cache_inductor_llm/6c/c6cnh44a76w7mtp77tecrq5jy3ohri4oqn6hvyptrlhzn2fouj5v.py":40:45)
#loc15 = loc("/NHNHOME/WORKSPACE/26msit001_A/jinhyeok/loop_TTT/lact/.cache_inductor_llm/6c/c6cnh44a76w7mtp77tecrq5jy3ohri4oqn6hvyptrlhzn2fouj5v.py":40:41)
#loc16 = loc("/NHNHOME/WORKSPACE/26msit001_A/jinhyeok/loop_TTT/lact/.cache_inductor_llm/6c/c6cnh44a76w7mtp77tecrq5jy3ohri4oqn6hvyptrlhzn2fouj5v.py":40:50)
#loc17 = loc("/NHNHOME/WORKSPACE/26msit001_A/jinhyeok/loop_TTT/lact/.cache_inductor_llm/6c/c6cnh44a76w7mtp77tecrq5jy3ohri4oqn6hvyptrlhzn2fouj5v.py":40:34)
#loc18 = loc("/NHNHOME/WORKSPACE/26msit001_A/jinhyeok/loop_TTT/lact/.cache_inductor_llm/6c/c6cnh44a76w7mtp77tecrq5jy3ohri4oqn6hvyptrlhzn2fouj5v.py":40:62)
#loc19 = loc("/NHNHOME/WORKSPACE/26msit001_A/jinhyeok/loop_TTT/lact/.cache_inductor_llm/6c/c6cnh44a76w7mtp77tecrq5jy3ohri4oqn6hvyptrlhzn2fouj5v.py":41:34)
#loc20 = loc("/NHNHOME/WORKSPACE/26msit001_A/jinhyeok/loop_TTT/lact/.cache_inductor_llm/6c/c6cnh44a76w7mtp77tecrq5jy3ohri4oqn6hvyptrlhzn2fouj5v.py":41:50)
#loc21 = loc("/NHNHOME/WORKSPACE/26msit001_A/jinhyeok/loop_TTT/lact/.cache_inductor_llm/6c/c6cnh44a76w7mtp77tecrq5jy3ohri4oqn6hvyptrlhzn2fouj5v.py":41:104)
#loc22 = loc("/NHNHOME/WORKSPACE/26msit001_A/jinhyeok/loop_TTT/lact/.cache_inductor_llm/6c/c6cnh44a76w7mtp77tecrq5jy3ohri4oqn6hvyptrlhzn2fouj5v.py":43:22)
#loc23 = loc("/NHNHOME/WORKSPACE/26msit001_A/jinhyeok/loop_TTT/lact/.cache_inductor_llm/6c/c6cnh44a76w7mtp77tecrq5jy3ohri4oqn6hvyptrlhzn2fouj5v.py":45:23)
#loc24 = loc("/NHNHOME/WORKSPACE/26msit001_A/jinhyeok/loop_TTT/lact/.cache_inductor_llm/6c/c6cnh44a76w7mtp77tecrq5jy3ohri4oqn6hvyptrlhzn2fouj5v.py":46:40)
#loc25 = loc("/NHNHOME/WORKSPACE/26msit001_A/jinhyeok/loop_TTT/lact/.cache_inductor_llm/6c/c6cnh44a76w7mtp77tecrq5jy3ohri4oqn6hvyptrlhzn2fouj5v.py":48:22)
#loc26 = loc("/NHNHOME/WORKSPACE/26msit001_A/jinhyeok/loop_TTT/lact/.cache_inductor_llm/6c/c6cnh44a76w7mtp77tecrq5jy3ohri4oqn6hvyptrlhzn2fouj5v.py":50:25)
#loc27 = loc("/NHNHOME/WORKSPACE/26msit001_A/jinhyeok/loop_TTT/lact/.cache_inductor_llm/6c/c6cnh44a76w7mtp77tecrq5jy3ohri4oqn6hvyptrlhzn2fouj5v.py":51:42)
#loc28 = loc("/NHNHOME/WORKSPACE/26msit001_A/jinhyeok/TTT_camera_embedding/.venv_llm/lib/python3.12/site-packages/triton/language/standard.py":291:36)
#loc30 = loc("/NHNHOME/WORKSPACE/26msit001_A/jinhyeok/TTT_camera_embedding/.venv_llm/lib/python3.12/site-packages/triton/language/standard.py":261:15)
#loc31 = loc("/NHNHOME/WORKSPACE/26msit001_A/jinhyeok/loop_TTT/lact/.cache_inductor_llm/6c/c6cnh44a76w7mtp77tecrq5jy3ohri4oqn6hvyptrlhzn2fouj5v.py":52:28)
#loc33 = loc("/NHNHOME/WORKSPACE/26msit001_A/jinhyeok/loop_TTT/lact/.cache_inductor_llm/6c/c6cnh44a76w7mtp77tecrq5jy3ohri4oqn6hvyptrlhzn2fouj5v.py":53:30)
#loc34 = loc("/NHNHOME/WORKSPACE/26msit001_A/jinhyeok/loop_TTT/lact/.cache_inductor_llm/6c/c6cnh44a76w7mtp77tecrq5jy3ohri4oqn6hvyptrlhzn2fouj5v.py":54:25)
#loc35 = loc("/NHNHOME/WORKSPACE/26msit001_A/jinhyeok/loop_TTT/lact/.cache_inductor_llm/6c/c6cnh44a76w7mtp77tecrq5jy3ohri4oqn6hvyptrlhzn2fouj5v.py":54:36)
#loc36 = loc("/NHNHOME/WORKSPACE/26msit001_A/jinhyeok/loop_TTT/lact/.cache_inductor_llm/6c/c6cnh44a76w7mtp77tecrq5jy3ohri4oqn6hvyptrlhzn2fouj5v.py":55:25)
#loc37 = loc("/NHNHOME/WORKSPACE/26msit001_A/jinhyeok/loop_TTT/lact/.cache_inductor_llm/6c/c6cnh44a76w7mtp77tecrq5jy3ohri4oqn6hvyptrlhzn2fouj5v.py":55:37)
#loc38 = loc("/NHNHOME/WORKSPACE/26msit001_A/jinhyeok/loop_TTT/lact/.cache_inductor_llm/6c/c6cnh44a76w7mtp77tecrq5jy3ohri4oqn6hvyptrlhzn2fouj5v.py":55:4)
#loc46 = loc("tmp2"(#loc1))
#loc47 = loc("xoffset"(#loc3))
#loc48 = loc("r0_base"(#loc4))
#loc49 = loc("r0_base"(#loc5))
#loc50 = loc("x0"(#loc6))
#loc51 = loc("x1"(#loc7))
#loc52 = loc("r0_mask"(#loc8))
#loc53 = loc("tmp0"(#loc9))
#loc54 = loc("tmp0"(#loc10))
#loc55 = loc("tmp0"(#loc11))
#loc56 = loc("tmp0"(#loc12))
#loc57 = loc("tmp0"(#loc13))
#loc58 = loc("tmp2"(#loc14))
#loc59 = loc("tmp2"(#loc15))
#loc60 = loc("tmp2"(#loc16))
#loc61 = loc("tmp2"(#loc17))
#loc62 = loc("tmp2"(#loc18))
#loc63 = loc("tmp7"(#loc19))
#loc64 = loc("tmp7"(#loc20))
#loc65 = loc("tmp7"(#loc21))
#loc66 = loc("tmp3"(#loc22))
#loc67 = loc("tmp6"(#loc23))
#loc68 = loc("_tmp5"(#loc24))
#loc69 = loc("tmp9"(#loc25))
#loc70 = loc("tmp12"(#loc26))
#loc71 = loc("_tmp11"(#loc27))
#loc73 = loc("tmp5"(#loc31))
#loc75 = loc("tmp11"(#loc33))
#loc76 = loc(fused[#loc54, #loc53])
#loc77 = loc(fused[#loc59, #loc58])
#loc78 = loc(fused[#loc60, #loc46])
#loc79 = loc(callsite(#loc28 at #loc72))
#loc81 = loc(callsite(#loc28 at #loc74))
#loc83 = loc(callsite(#loc30 at #loc79))
#loc84 = loc(callsite(#loc30 at #loc81))
