#loc = loc("/NHNHOME/WORKSPACE/26msit001_A/jinhyeok/loop_TTT/lact/.cache_inductor_llm/pl/cplfl34cdlcf5vwa33zlbzx4ovc5kvluc4d3oiogcucaus6szhug.py":18:0)
#loc97 = loc("in_out_ptr0"(#loc))
#loc98 = loc("in_out_ptr1"(#loc))
#loc99 = loc("in_ptr0"(#loc))
#loc100 = loc("in_ptr1"(#loc))
#loc101 = loc("in_ptr2"(#loc))
#loc102 = loc("in_ptr3"(#loc))
#loc103 = loc("in_ptr4"(#loc))
#loc104 = loc("in_ptr5"(#loc))
#loc105 = loc("in_ptr6"(#loc))
#loc106 = loc("in_ptr7"(#loc))
#loc107 = loc("in_ptr8"(#loc))
#loc108 = loc("in_ptr9"(#loc))
#loc109 = loc("in_ptr10"(#loc))
#loc110 = loc("in_ptr11"(#loc))
#loc111 = loc("in_ptr12"(#loc))
#loc112 = loc("in_ptr13"(#loc))
#loc113 = loc("in_ptr14"(#loc))
#loc114 = loc("out_ptr0"(#loc))
#loc115 = loc("out_ptr1"(#loc))
#loc116 = loc("xnumel"(#loc))
module {
  tt.func public @triton_poi_fused__to_copy_add_div_eq_masked_fill_mul_transpose_25(%in_out_ptr0: !tt.ptr<f32> {tt.divisibility = 16 : i32} loc("in_out_ptr0"(#loc)), %in_out_ptr1: !tt.ptr<f32> {tt.divisibility = 16 : i32} loc("in_out_ptr1"(#loc)), %in_ptr0: !tt.ptr<f32> {tt.divisibility = 16 : i32} loc("in_ptr0"(#loc)), %in_ptr1: !tt.ptr<bf16> {tt.divisibility = 16 : i32} loc("in_ptr1"(#loc)), %in_ptr2: !tt.ptr<f32> {tt.divisibility = 16 : i32} loc("in_ptr2"(#loc)), %in_ptr3: !tt.ptr<bf16> {tt.divisibility = 16 : i32} loc("in_ptr3"(#loc)), %in_ptr4: !tt.ptr<bf16> {tt.divisibility = 16 : i32} loc("in_ptr4"(#loc)), %in_ptr5: !tt.ptr<f32> {tt.divisibility = 16 : i32} loc("in_ptr5"(#loc)), %in_ptr6: !tt.ptr<f32> {tt.divisibility = 16 : i32} loc("in_ptr6"(#loc)), %in_ptr7: !tt.ptr<f32> {tt.divisibility = 16 : i32} loc("in_ptr7"(#loc)), %in_ptr8: !tt.ptr<bf16> {tt.divisibility = 16 : i32} loc("in_ptr8"(#loc)), %in_ptr9: !tt.ptr<f32> {tt.divisibility = 16 : i32} loc("in_ptr9"(#loc)), %in_ptr10: !tt.ptr<bf16> {tt.divisibility = 16 : i32} loc("in_ptr10"(#loc)), %in_ptr11: !tt.ptr<bf16> {tt.divisibility = 16 : i32} loc("in_ptr11"(#loc)), %in_ptr12: !tt.ptr<f32> {tt.divisibility = 16 : i32} loc("in_ptr12"(#loc)), %in_ptr13: !tt.ptr<f32> {tt.divisibility = 16 : i32} loc("in_ptr13"(#loc)), %in_ptr14: !tt.ptr<f32> {tt.divisibility = 16 : i32} loc("in_ptr14"(#loc)), %out_ptr0: !tt.ptr<bf16> {tt.divisibility = 16 : i32} loc("out_ptr0"(#loc)), %out_ptr1: !tt.ptr<bf16> {tt.divisibility = 16 : i32} loc("out_ptr1"(#loc)), %xnumel: i32 {tt.divisibility = 16 : i32} loc("xnumel"(#loc))) attributes {noinline = false} {
    %xnumel_0 = arith.constant 294912 : i32 loc(#loc117)
    %xoffset = tt.get_program_id x : i32 loc(#loc118)
    %xoffset_1 = arith.constant 1024 : i32 loc(#loc119)
    %xoffset_2 = arith.constant 1024 : i32 loc(#loc119)
    %xoffset_3 = arith.muli %xoffset, %xoffset_2 : i32 loc(#loc119)
    %xindex = tt.make_range {end = 1024 : i32, start = 0 : i32} : tensor<1024xi32> loc(#loc120)
    %xindex_4 = tt.splat %xoffset_3 : i32 -> tensor<1024xi32> loc(#loc121)
    %xindex_5 = arith.addi %xindex_4, %xindex : tensor<1024xi32> loc(#loc121)
    %xmask = arith.constant true loc(#loc122)
    %xmask_6 = arith.constant dense<true> : tensor<1024xi1> loc(#loc122)
    %x2 = arith.constant 36864 : i32 loc(#loc123)
    %x2_7 = arith.constant 36864 : i32 loc(#loc123)
    %x2_8 = arith.constant dense<36864> : tensor<1024xi32> loc(#loc123)
    %x2_9 = arith.divsi %xindex_5, %x2_8 : tensor<1024xi32> loc(#loc123)
    %x0 = arith.constant 192 : i32 loc(#loc124)
    %x0_10 = arith.constant 192 : i32 loc(#loc124)
    %x0_11 = arith.constant dense<192> : tensor<1024xi32> loc(#loc124)
    %x0_12 = arith.remsi %xindex_5, %x0_11 : tensor<1024xi32> loc(#loc124)
    %x1 = arith.constant 192 : i32 loc(#loc125)
    %x1_13 = arith.constant 192 : i32 loc(#loc125)
    %x1_14 = arith.constant dense<192> : tensor<1024xi32> loc(#loc125)
    %x1_15 = arith.divsi %xindex_5, %x1_14 : tensor<1024xi32> loc(#loc125)
    %x1_16 = arith.constant 192 : i32 loc(#loc126)
    %x1_17 = arith.constant 192 : i32 loc(#loc126)
    %x1_18 = arith.constant dense<192> : tensor<1024xi32> loc(#loc126)
    %x1_19 = arith.remsi %x1_15, %x1_18 : tensor<1024xi32> loc(#loc126)
    %tmp0 = tt.splat %in_out_ptr0 : !tt.ptr<f32> -> tensor<1024x!tt.ptr<f32>> loc(#loc127)
    %tmp0_20 = tt.addptr %tmp0, %xindex_5 : tensor<1024x!tt.ptr<f32>>, tensor<1024xi32> loc(#loc127)
    %tmp0_21 = tt.load %tmp0_20 : tensor<1024x!tt.ptr<f32>> loc(#loc128)
    %tmp1 = tt.splat %in_ptr0 : !tt.ptr<f32> -> tensor<1024x!tt.ptr<f32>> loc(#loc129)
    %tmp1_22 = tt.addptr %tmp1, %x2_9 : tensor<1024x!tt.ptr<f32>>, tensor<1024xi32> loc(#loc129)
    %tmp1_23 = tt.load %tmp1_22 evictionPolicy = evict_last : tensor<1024x!tt.ptr<f32>> loc(#loc130)
    %tmp3 = tt.splat %in_ptr1 : !tt.ptr<bf16> -> tensor<1024x!tt.ptr<bf16>> loc(#loc131)
    %tmp3_24 = tt.addptr %tmp3, %xindex_5 : tensor<1024x!tt.ptr<bf16>>, tensor<1024xi32> loc(#loc131)
    %tmp3_25 = tt.load %tmp3_24 : tensor<1024x!tt.ptr<bf16>> loc(#loc132)
    %tmp3_26 = arith.extf %tmp3_25 : tensor<1024xbf16> to tensor<1024xf32> loc(#loc133)
    %tmp5 = tt.splat %in_ptr2 : !tt.ptr<f32> -> tensor<1024x!tt.ptr<f32>> loc(#loc134)
    %tmp5_27 = tt.addptr %tmp5, %xindex_5 : tensor<1024x!tt.ptr<f32>>, tensor<1024xi32> loc(#loc134)
    %tmp5_28 = tt.load %tmp5_27 : tensor<1024x!tt.ptr<f32>> loc(#loc135)
    %tmp9 = tt.splat %in_ptr3 : !tt.ptr<bf16> -> tensor<1024x!tt.ptr<bf16>> loc(#loc136)
    %tmp9_29 = tt.addptr %tmp9, %xindex_5 : tensor<1024x!tt.ptr<bf16>>, tensor<1024xi32> loc(#loc136)
    %tmp9_30 = tt.load %tmp9_29 : tensor<1024x!tt.ptr<bf16>> loc(#loc137)
    %tmp9_31 = arith.extf %tmp9_30 : tensor<1024xbf16> to tensor<1024xf32> loc(#loc138)
    %tmp12 = arith.constant 192 : i32 loc(#loc139)
    %tmp12_32 = arith.constant 192 : i32 loc(#loc139)
    %tmp12_33 = arith.constant dense<192> : tensor<1024xi32> loc(#loc139)
    %tmp12_34 = arith.muli %tmp12_33, %x0_12 : tensor<1024xi32> loc(#loc139)
    %tmp12_35 = arith.addi %x1_19, %tmp12_34 : tensor<1024xi32> loc(#loc140)
    %tmp12_36 = arith.constant 36864 : i32 loc(#loc141)
    %tmp12_37 = arith.constant 36864 : i32 loc(#loc141)
    %tmp12_38 = arith.constant dense<36864> : tensor<1024xi32> loc(#loc141)
    %tmp12_39 = arith.muli %tmp12_38, %x2_9 : tensor<1024xi32> loc(#loc141)
    %tmp12_40 = arith.addi %tmp12_35, %tmp12_39 : tensor<1024xi32> loc(#loc142)
    %tmp12_41 = tt.splat %in_ptr4 : !tt.ptr<bf16> -> tensor<1024x!tt.ptr<bf16>> loc(#loc143)
    %tmp12_42 = tt.addptr %tmp12_41, %tmp12_40 : tensor<1024x!tt.ptr<bf16>>, tensor<1024xi32> loc(#loc143)
    %tmp12_43 = tt.load %tmp12_42 evictionPolicy = evict_last : tensor<1024x!tt.ptr<bf16>> loc(#loc144)
    %tmp12_44 = arith.extf %tmp12_43 : tensor<1024xbf16> to tensor<1024xf32> loc(#loc145)
    %tmp15 = tt.splat %in_ptr5 : !tt.ptr<f32> -> tensor<1024x!tt.ptr<f32>> loc(#loc146)
    %tmp15_45 = tt.addptr %tmp15, %x2_9 : tensor<1024x!tt.ptr<f32>>, tensor<1024xi32> loc(#loc146)
    %tmp15_46 = tt.load %tmp15_45 evictionPolicy = evict_last : tensor<1024x!tt.ptr<f32>> loc(#loc147)
    %tmp20 = tt.splat %in_ptr6 : !tt.ptr<f32> -> tensor<1024x!tt.ptr<f32>> loc(#loc148)
    %tmp20_47 = tt.addptr %tmp20, %x2_9 : tensor<1024x!tt.ptr<f32>>, tensor<1024xi32> loc(#loc148)
    %tmp20_48 = tt.load %tmp20_47 evictionPolicy = evict_last : tensor<1024x!tt.ptr<f32>> loc(#loc149)
    %tmp23 = tt.splat %in_ptr7 : !tt.ptr<f32> -> tensor<1024x!tt.ptr<f32>> loc(#loc150)
    %tmp23_49 = tt.addptr %tmp23, %xindex_5 : tensor<1024x!tt.ptr<f32>>, tensor<1024xi32> loc(#loc150)
    %tmp23_50 = tt.load %tmp23_49 : tensor<1024x!tt.ptr<f32>> loc(#loc151)
    %tmp34 = tt.splat %in_out_ptr1 : !tt.ptr<f32> -> tensor<1024x!tt.ptr<f32>> loc(#loc152)
    %tmp34_51 = tt.addptr %tmp34, %xindex_5 : tensor<1024x!tt.ptr<f32>>, tensor<1024xi32> loc(#loc152)
    %tmp34_52 = tt.load %tmp34_51 : tensor<1024x!tt.ptr<f32>> loc(#loc153)
    %tmp36 = tt.splat %in_ptr8 : !tt.ptr<bf16> -> tensor<1024x!tt.ptr<bf16>> loc(#loc154)
    %tmp36_53 = tt.addptr %tmp36, %xindex_5 : tensor<1024x!tt.ptr<bf16>>, tensor<1024xi32> loc(#loc154)
    %tmp36_54 = tt.load %tmp36_53 : tensor<1024x!tt.ptr<bf16>> loc(#loc155)
    %tmp36_55 = arith.extf %tmp36_54 : tensor<1024xbf16> to tensor<1024xf32> loc(#loc156)
    %tmp38 = tt.splat %in_ptr9 : !tt.ptr<f32> -> tensor<1024x!tt.ptr<f32>> loc(#loc157)
    %tmp38_56 = tt.addptr %tmp38, %xindex_5 : tensor<1024x!tt.ptr<f32>>, tensor<1024xi32> loc(#loc157)
    %tmp38_57 = tt.load %tmp38_56 : tensor<1024x!tt.ptr<f32>> loc(#loc158)
    %tmp41 = tt.splat %in_ptr10 : !tt.ptr<bf16> -> tensor<1024x!tt.ptr<bf16>> loc(#loc159)
    %tmp41_58 = tt.addptr %tmp41, %xindex_5 : tensor<1024x!tt.ptr<bf16>>, tensor<1024xi32> loc(#loc159)
    %tmp41_59 = tt.load %tmp41_58 : tensor<1024x!tt.ptr<bf16>> loc(#loc160)
    %tmp41_60 = arith.extf %tmp41_59 : tensor<1024xbf16> to tensor<1024xf32> loc(#loc161)
    %tmp44 = arith.constant 192 : i32 loc(#loc162)
    %tmp44_61 = arith.constant 192 : i32 loc(#loc162)
    %tmp44_62 = arith.constant dense<192> : tensor<1024xi32> loc(#loc162)
    %tmp44_63 = arith.muli %tmp44_62, %x0_12 : tensor<1024xi32> loc(#loc162)
    %tmp44_64 = arith.addi %x1_19, %tmp44_63 : tensor<1024xi32> loc(#loc163)
    %tmp44_65 = arith.constant 36864 : i32 loc(#loc164)
    %tmp44_66 = arith.constant 36864 : i32 loc(#loc164)
    %tmp44_67 = arith.constant dense<36864> : tensor<1024xi32> loc(#loc164)
    %tmp44_68 = arith.muli %tmp44_67, %x2_9 : tensor<1024xi32> loc(#loc164)
    %tmp44_69 = arith.addi %tmp44_64, %tmp44_68 : tensor<1024xi32> loc(#loc165)
    %tmp44_70 = tt.splat %in_ptr11 : !tt.ptr<bf16> -> tensor<1024x!tt.ptr<bf16>> loc(#loc166)
    %tmp44_71 = tt.addptr %tmp44_70, %tmp44_69 : tensor<1024x!tt.ptr<bf16>>, tensor<1024xi32> loc(#loc166)
    %tmp44_72 = tt.load %tmp44_71 evictionPolicy = evict_last : tensor<1024x!tt.ptr<bf16>> loc(#loc167)
    %tmp44_73 = arith.extf %tmp44_72 : tensor<1024xbf16> to tensor<1024xf32> loc(#loc168)
    %tmp47 = tt.splat %in_ptr12 : !tt.ptr<f32> -> tensor<1024x!tt.ptr<f32>> loc(#loc169)
    %tmp47_74 = tt.addptr %tmp47, %x2_9 : tensor<1024x!tt.ptr<f32>>, tensor<1024xi32> loc(#loc169)
    %tmp47_75 = tt.load %tmp47_74 evictionPolicy = evict_last : tensor<1024x!tt.ptr<f32>> loc(#loc170)
    %tmp51 = tt.splat %in_ptr13 : !tt.ptr<f32> -> tensor<1024x!tt.ptr<f32>> loc(#loc171)
    %tmp51_76 = tt.addptr %tmp51, %x2_9 : tensor<1024x!tt.ptr<f32>>, tensor<1024xi32> loc(#loc171)
    %tmp51_77 = tt.load %tmp51_76 evictionPolicy = evict_last : tensor<1024x!tt.ptr<f32>> loc(#loc172)
    %tmp53 = tt.splat %in_ptr14 : !tt.ptr<f32> -> tensor<1024x!tt.ptr<f32>> loc(#loc173)
    %tmp53_78 = tt.addptr %tmp53, %xindex_5 : tensor<1024x!tt.ptr<f32>>, tensor<1024xi32> loc(#loc173)
    %tmp53_79 = tt.load %tmp53_78 : tensor<1024x!tt.ptr<f32>> loc(#loc174)
    %tmp2 = arith.mulf %tmp0_21, %tmp1_23 : tensor<1024xf32> loc(#loc175)
    %tmp6 = arith.constant 4.084800e+00 : f32 loc(#loc176)
    %tmp7 = arith.constant dense<4.084800e+00> : tensor<1024xf32> loc(#loc177)
    %tmp7_80 = arith.mulf %tmp5_28, %tmp7 : tensor<1024xf32> loc(#loc177)
    %tmp8 = arith.addf %tmp3_26, %tmp7_80 : tensor<1024xf32> loc(#loc178)
    %tmp11 = arith.addf %tmp8, %tmp9_31 : tensor<1024xf32> loc(#loc179)
    %tmp14 = arith.addf %tmp11, %tmp12_44 : tensor<1024xf32> loc(#loc180)
    %tmp16 = arith.constant 1.000000e-07 : f32 loc(#loc181)
    %tmp17 = arith.constant dense<1.000000e-07> : tensor<1024xf32> loc(#loc182)
    %tmp17_81 = arith.addf %tmp15_46, %tmp17 : tensor<1024xf32> loc(#loc182)
    %tmp18 = arith.divf %tmp14, %tmp17_81 : tensor<1024xf32> loc(#loc183)
    %tmp21 = arith.constant 0.000000e+00 : f32 loc(#loc184)
    %tmp22 = arith.constant dense<0.000000e+00> : tensor<1024xf32> loc(#loc185)
    %tmp22_82 = arith.cmpf oeq, %tmp15_46, %tmp22 : tensor<1024xf32> loc(#loc185)
    %tmp26 = arith.divf %tmp23_50, %tmp15_46 : tensor<1024xf32> loc(#loc186)
    %tmp27 = arith.constant dense<0.000000e+00> : tensor<1024xf32> loc(#loc187)
    %tmp27_83 = arith.select %tmp22_82, %tmp27, %tmp26 : tensor<1024xi1>, tensor<1024xf32> loc(#loc187)
    %tmp28 = arith.mulf %tmp20_48, %tmp27_83 : tensor<1024xf32> loc(#loc188)
    %tmp30 = arith.addf %tmp18, %tmp28 : tensor<1024xf32> loc(#loc189)
    %tmp32 = arith.addf %tmp2, %tmp30 : tensor<1024xf32> loc(#loc190)
    %tmp35 = arith.mulf %tmp34_52, %tmp1_23 : tensor<1024xf32> loc(#loc191)
    %tmp39 = arith.constant dense<4.084800e+00> : tensor<1024xf32> loc(#loc192)
    %tmp39_84 = arith.mulf %tmp38_57, %tmp39 : tensor<1024xf32> loc(#loc192)
    %tmp40 = arith.addf %tmp36_55, %tmp39_84 : tensor<1024xf32> loc(#loc193)
    %tmp43 = arith.addf %tmp40, %tmp41_60 : tensor<1024xf32> loc(#loc194)
    %tmp46 = arith.addf %tmp43, %tmp44_73 : tensor<1024xf32> loc(#loc195)
    %tmp48 = arith.constant dense<1.000000e-07> : tensor<1024xf32> loc(#loc196)
    %tmp48_85 = arith.addf %tmp47_75, %tmp48 : tensor<1024xf32> loc(#loc196)
    %tmp49 = arith.divf %tmp46, %tmp48_85 : tensor<1024xf32> loc(#loc197)
    %tmp52 = arith.constant dense<0.000000e+00> : tensor<1024xf32> loc(#loc198)
    %tmp52_86 = arith.cmpf oeq, %tmp47_75, %tmp52 : tensor<1024xf32> loc(#loc198)
    %tmp56 = arith.divf %tmp53_79, %tmp47_75 : tensor<1024xf32> loc(#loc199)
    %tmp57 = arith.constant dense<0.000000e+00> : tensor<1024xf32> loc(#loc200)
    %tmp57_87 = arith.select %tmp52_86, %tmp57, %tmp56 : tensor<1024xi1>, tensor<1024xf32> loc(#loc200)
    %tmp58 = arith.mulf %tmp51_77, %tmp57_87 : tensor<1024xf32> loc(#loc201)
    %tmp60 = arith.addf %tmp49, %tmp58 : tensor<1024xf32> loc(#loc202)
    %tmp62 = arith.addf %tmp35, %tmp60 : tensor<1024xf32> loc(#loc203)
    %0 = tt.splat %in_out_ptr0 : !tt.ptr<f32> -> tensor<1024x!tt.ptr<f32>> loc(#loc88)
    %1 = tt.addptr %0, %xindex_5 : tensor<1024x!tt.ptr<f32>>, tensor<1024xi32> loc(#loc88)
    tt.store %1, %tmp32 : tensor<1024x!tt.ptr<f32>> loc(#loc89)
    %2 = tt.splat %out_ptr0 : !tt.ptr<bf16> -> tensor<1024x!tt.ptr<bf16>> loc(#loc90)
    %3 = tt.addptr %2, %xindex_5 : tensor<1024x!tt.ptr<bf16>>, tensor<1024xi32> loc(#loc90)
    %4 = arith.truncf %tmp32 : tensor<1024xf32> to tensor<1024xbf16> loc(#loc91)
    tt.store %3, %4 : tensor<1024x!tt.ptr<bf16>> loc(#loc91)
    %5 = tt.splat %in_out_ptr1 : !tt.ptr<f32> -> tensor<1024x!tt.ptr<f32>> loc(#loc92)
    %6 = tt.addptr %5, %xindex_5 : tensor<1024x!tt.ptr<f32>>, tensor<1024xi32> loc(#loc92)
    tt.store %6, %tmp62 : tensor<1024x!tt.ptr<f32>> loc(#loc93)
    %7 = tt.splat %out_ptr1 : !tt.ptr<bf16> -> tensor<1024x!tt.ptr<bf16>> loc(#loc94)
    %8 = tt.addptr %7, %xindex_5 : tensor<1024x!tt.ptr<bf16>>, tensor<1024xi32> loc(#loc94)
    %9 = arith.truncf %tmp62 : tensor<1024xf32> to tensor<1024xbf16> loc(#loc95)
    tt.store %8, %9 : tensor<1024x!tt.ptr<bf16>> loc(#loc95)
    tt.return loc(#loc96)
  } loc(#loc)
} loc(#loc)
#loc1 = loc("/NHNHOME/WORKSPACE/26msit001_A/jinhyeok/loop_TTT/lact/.cache_inductor_llm/pl/cplfl34cdlcf5vwa33zlbzx4ovc5kvluc4d3oiogcucaus6szhug.py":19:13)
#loc2 = loc("/NHNHOME/WORKSPACE/26msit001_A/jinhyeok/loop_TTT/lact/.cache_inductor_llm/pl/cplfl34cdlcf5vwa33zlbzx4ovc5kvluc4d3oiogcucaus6szhug.py":20:28)
#loc3 = loc("/NHNHOME/WORKSPACE/26msit001_A/jinhyeok/loop_TTT/lact/.cache_inductor_llm/pl/cplfl34cdlcf5vwa33zlbzx4ovc5kvluc4d3oiogcucaus6szhug.py":20:33)
#loc4 = loc("/NHNHOME/WORKSPACE/26msit001_A/jinhyeok/loop_TTT/lact/.cache_inductor_llm/pl/cplfl34cdlcf5vwa33zlbzx4ovc5kvluc4d3oiogcucaus6szhug.py":21:36)
#loc5 = loc("/NHNHOME/WORKSPACE/26msit001_A/jinhyeok/loop_TTT/lact/.cache_inductor_llm/pl/cplfl34cdlcf5vwa33zlbzx4ovc5kvluc4d3oiogcucaus6szhug.py":21:23)
#loc6 = loc("/NHNHOME/WORKSPACE/26msit001_A/jinhyeok/loop_TTT/lact/.cache_inductor_llm/pl/cplfl34cdlcf5vwa33zlbzx4ovc5kvluc4d3oiogcucaus6szhug.py":22:36)
#loc7 = loc("/NHNHOME/WORKSPACE/26msit001_A/jinhyeok/loop_TTT/lact/.cache_inductor_llm/pl/cplfl34cdlcf5vwa33zlbzx4ovc5kvluc4d3oiogcucaus6szhug.py":24:19)
#loc8 = loc("/NHNHOME/WORKSPACE/26msit001_A/jinhyeok/loop_TTT/lact/.cache_inductor_llm/pl/cplfl34cdlcf5vwa33zlbzx4ovc5kvluc4d3oiogcucaus6szhug.py":25:19)
#loc9 = loc("/NHNHOME/WORKSPACE/26msit001_A/jinhyeok/loop_TTT/lact/.cache_inductor_llm/pl/cplfl34cdlcf5vwa33zlbzx4ovc5kvluc4d3oiogcucaus6szhug.py":26:21)
#loc10 = loc("/NHNHOME/WORKSPACE/26msit001_A/jinhyeok/loop_TTT/lact/.cache_inductor_llm/pl/cplfl34cdlcf5vwa33zlbzx4ovc5kvluc4d3oiogcucaus6szhug.py":26:28)
#loc11 = loc("/NHNHOME/WORKSPACE/26msit001_A/jinhyeok/loop_TTT/lact/.cache_inductor_llm/pl/cplfl34cdlcf5vwa33zlbzx4ovc5kvluc4d3oiogcucaus6szhug.py":27:34)
#loc12 = loc("/NHNHOME/WORKSPACE/26msit001_A/jinhyeok/loop_TTT/lact/.cache_inductor_llm/pl/cplfl34cdlcf5vwa33zlbzx4ovc5kvluc4d3oiogcucaus6szhug.py":27:39)
#loc13 = loc("/NHNHOME/WORKSPACE/26msit001_A/jinhyeok/loop_TTT/lact/.cache_inductor_llm/pl/cplfl34cdlcf5vwa33zlbzx4ovc5kvluc4d3oiogcucaus6szhug.py":28:30)
#loc14 = loc("/NHNHOME/WORKSPACE/26msit001_A/jinhyeok/loop_TTT/lact/.cache_inductor_llm/pl/cplfl34cdlcf5vwa33zlbzx4ovc5kvluc4d3oiogcucaus6szhug.py":28:35)
#loc15 = loc("/NHNHOME/WORKSPACE/26msit001_A/jinhyeok/loop_TTT/lact/.cache_inductor_llm/pl/cplfl34cdlcf5vwa33zlbzx4ovc5kvluc4d3oiogcucaus6szhug.py":29:30)
#loc16 = loc("/NHNHOME/WORKSPACE/26msit001_A/jinhyeok/loop_TTT/lact/.cache_inductor_llm/pl/cplfl34cdlcf5vwa33zlbzx4ovc5kvluc4d3oiogcucaus6szhug.py":29:35)
#loc17 = loc("/NHNHOME/WORKSPACE/26msit001_A/jinhyeok/loop_TTT/lact/.cache_inductor_llm/pl/cplfl34cdlcf5vwa33zlbzx4ovc5kvluc4d3oiogcucaus6szhug.py":29:44)
#loc18 = loc("/NHNHOME/WORKSPACE/26msit001_A/jinhyeok/loop_TTT/lact/.cache_inductor_llm/pl/cplfl34cdlcf5vwa33zlbzx4ovc5kvluc4d3oiogcucaus6szhug.py":30:30)
#loc19 = loc("/NHNHOME/WORKSPACE/26msit001_A/jinhyeok/loop_TTT/lact/.cache_inductor_llm/pl/cplfl34cdlcf5vwa33zlbzx4ovc5kvluc4d3oiogcucaus6szhug.py":30:35)
#loc20 = loc("/NHNHOME/WORKSPACE/26msit001_A/jinhyeok/loop_TTT/lact/.cache_inductor_llm/pl/cplfl34cdlcf5vwa33zlbzx4ovc5kvluc4d3oiogcucaus6szhug.py":31:30)
#loc21 = loc("/NHNHOME/WORKSPACE/26msit001_A/jinhyeok/loop_TTT/lact/.cache_inductor_llm/pl/cplfl34cdlcf5vwa33zlbzx4ovc5kvluc4d3oiogcucaus6szhug.py":31:35)
#loc22 = loc("/NHNHOME/WORKSPACE/26msit001_A/jinhyeok/loop_TTT/lact/.cache_inductor_llm/pl/cplfl34cdlcf5vwa33zlbzx4ovc5kvluc4d3oiogcucaus6szhug.py":31:44)
#loc23 = loc("/NHNHOME/WORKSPACE/26msit001_A/jinhyeok/loop_TTT/lact/.cache_inductor_llm/pl/cplfl34cdlcf5vwa33zlbzx4ovc5kvluc4d3oiogcucaus6szhug.py":32:40)
#loc24 = loc("/NHNHOME/WORKSPACE/26msit001_A/jinhyeok/loop_TTT/lact/.cache_inductor_llm/pl/cplfl34cdlcf5vwa33zlbzx4ovc5kvluc4d3oiogcucaus6szhug.py":32:36)
#loc25 = loc("/NHNHOME/WORKSPACE/26msit001_A/jinhyeok/loop_TTT/lact/.cache_inductor_llm/pl/cplfl34cdlcf5vwa33zlbzx4ovc5kvluc4d3oiogcucaus6szhug.py":32:51)
#loc26 = loc("/NHNHOME/WORKSPACE/26msit001_A/jinhyeok/loop_TTT/lact/.cache_inductor_llm/pl/cplfl34cdlcf5vwa33zlbzx4ovc5kvluc4d3oiogcucaus6szhug.py":32:45)
#loc27 = loc("/NHNHOME/WORKSPACE/26msit001_A/jinhyeok/loop_TTT/lact/.cache_inductor_llm/pl/cplfl34cdlcf5vwa33zlbzx4ovc5kvluc4d3oiogcucaus6szhug.py":32:31)
#loc28 = loc("/NHNHOME/WORKSPACE/26msit001_A/jinhyeok/loop_TTT/lact/.cache_inductor_llm/pl/cplfl34cdlcf5vwa33zlbzx4ovc5kvluc4d3oiogcucaus6szhug.py":32:56)
#loc29 = loc("/NHNHOME/WORKSPACE/26msit001_A/jinhyeok/loop_TTT/lact/.cache_inductor_llm/pl/cplfl34cdlcf5vwa33zlbzx4ovc5kvluc4d3oiogcucaus6szhug.py":32:95)
#loc30 = loc("/NHNHOME/WORKSPACE/26msit001_A/jinhyeok/loop_TTT/lact/.cache_inductor_llm/pl/cplfl34cdlcf5vwa33zlbzx4ovc5kvluc4d3oiogcucaus6szhug.py":33:31)
#loc31 = loc("/NHNHOME/WORKSPACE/26msit001_A/jinhyeok/loop_TTT/lact/.cache_inductor_llm/pl/cplfl34cdlcf5vwa33zlbzx4ovc5kvluc4d3oiogcucaus6szhug.py":33:36)
#loc32 = loc("/NHNHOME/WORKSPACE/26msit001_A/jinhyeok/loop_TTT/lact/.cache_inductor_llm/pl/cplfl34cdlcf5vwa33zlbzx4ovc5kvluc4d3oiogcucaus6szhug.py":34:31)
#loc33 = loc("/NHNHOME/WORKSPACE/26msit001_A/jinhyeok/loop_TTT/lact/.cache_inductor_llm/pl/cplfl34cdlcf5vwa33zlbzx4ovc5kvluc4d3oiogcucaus6szhug.py":34:36)
#loc34 = loc("/NHNHOME/WORKSPACE/26msit001_A/jinhyeok/loop_TTT/lact/.cache_inductor_llm/pl/cplfl34cdlcf5vwa33zlbzx4ovc5kvluc4d3oiogcucaus6szhug.py":35:31)
#loc35 = loc("/NHNHOME/WORKSPACE/26msit001_A/jinhyeok/loop_TTT/lact/.cache_inductor_llm/pl/cplfl34cdlcf5vwa33zlbzx4ovc5kvluc4d3oiogcucaus6szhug.py":35:36)
#loc36 = loc("/NHNHOME/WORKSPACE/26msit001_A/jinhyeok/loop_TTT/lact/.cache_inductor_llm/pl/cplfl34cdlcf5vwa33zlbzx4ovc5kvluc4d3oiogcucaus6szhug.py":36:35)
#loc37 = loc("/NHNHOME/WORKSPACE/26msit001_A/jinhyeok/loop_TTT/lact/.cache_inductor_llm/pl/cplfl34cdlcf5vwa33zlbzx4ovc5kvluc4d3oiogcucaus6szhug.py":36:40)
#loc38 = loc("/NHNHOME/WORKSPACE/26msit001_A/jinhyeok/loop_TTT/lact/.cache_inductor_llm/pl/cplfl34cdlcf5vwa33zlbzx4ovc5kvluc4d3oiogcucaus6szhug.py":37:31)
#loc39 = loc("/NHNHOME/WORKSPACE/26msit001_A/jinhyeok/loop_TTT/lact/.cache_inductor_llm/pl/cplfl34cdlcf5vwa33zlbzx4ovc5kvluc4d3oiogcucaus6szhug.py":37:36)
#loc40 = loc("/NHNHOME/WORKSPACE/26msit001_A/jinhyeok/loop_TTT/lact/.cache_inductor_llm/pl/cplfl34cdlcf5vwa33zlbzx4ovc5kvluc4d3oiogcucaus6szhug.py":37:45)
#loc41 = loc("/NHNHOME/WORKSPACE/26msit001_A/jinhyeok/loop_TTT/lact/.cache_inductor_llm/pl/cplfl34cdlcf5vwa33zlbzx4ovc5kvluc4d3oiogcucaus6szhug.py":38:31)
#loc42 = loc("/NHNHOME/WORKSPACE/26msit001_A/jinhyeok/loop_TTT/lact/.cache_inductor_llm/pl/cplfl34cdlcf5vwa33zlbzx4ovc5kvluc4d3oiogcucaus6szhug.py":38:36)
#loc43 = loc("/NHNHOME/WORKSPACE/26msit001_A/jinhyeok/loop_TTT/lact/.cache_inductor_llm/pl/cplfl34cdlcf5vwa33zlbzx4ovc5kvluc4d3oiogcucaus6szhug.py":39:32)
#loc44 = loc("/NHNHOME/WORKSPACE/26msit001_A/jinhyeok/loop_TTT/lact/.cache_inductor_llm/pl/cplfl34cdlcf5vwa33zlbzx4ovc5kvluc4d3oiogcucaus6szhug.py":39:37)
#loc45 = loc("/NHNHOME/WORKSPACE/26msit001_A/jinhyeok/loop_TTT/lact/.cache_inductor_llm/pl/cplfl34cdlcf5vwa33zlbzx4ovc5kvluc4d3oiogcucaus6szhug.py":39:46)
#loc46 = loc("/NHNHOME/WORKSPACE/26msit001_A/jinhyeok/loop_TTT/lact/.cache_inductor_llm/pl/cplfl34cdlcf5vwa33zlbzx4ovc5kvluc4d3oiogcucaus6szhug.py":40:41)
#loc47 = loc("/NHNHOME/WORKSPACE/26msit001_A/jinhyeok/loop_TTT/lact/.cache_inductor_llm/pl/cplfl34cdlcf5vwa33zlbzx4ovc5kvluc4d3oiogcucaus6szhug.py":40:37)
#loc48 = loc("/NHNHOME/WORKSPACE/26msit001_A/jinhyeok/loop_TTT/lact/.cache_inductor_llm/pl/cplfl34cdlcf5vwa33zlbzx4ovc5kvluc4d3oiogcucaus6szhug.py":40:52)
#loc49 = loc("/NHNHOME/WORKSPACE/26msit001_A/jinhyeok/loop_TTT/lact/.cache_inductor_llm/pl/cplfl34cdlcf5vwa33zlbzx4ovc5kvluc4d3oiogcucaus6szhug.py":40:46)
#loc50 = loc("/NHNHOME/WORKSPACE/26msit001_A/jinhyeok/loop_TTT/lact/.cache_inductor_llm/pl/cplfl34cdlcf5vwa33zlbzx4ovc5kvluc4d3oiogcucaus6szhug.py":40:32)
#loc51 = loc("/NHNHOME/WORKSPACE/26msit001_A/jinhyeok/loop_TTT/lact/.cache_inductor_llm/pl/cplfl34cdlcf5vwa33zlbzx4ovc5kvluc4d3oiogcucaus6szhug.py":40:57)
#loc52 = loc("/NHNHOME/WORKSPACE/26msit001_A/jinhyeok/loop_TTT/lact/.cache_inductor_llm/pl/cplfl34cdlcf5vwa33zlbzx4ovc5kvluc4d3oiogcucaus6szhug.py":40:96)
#loc53 = loc("/NHNHOME/WORKSPACE/26msit001_A/jinhyeok/loop_TTT/lact/.cache_inductor_llm/pl/cplfl34cdlcf5vwa33zlbzx4ovc5kvluc4d3oiogcucaus6szhug.py":41:32)
#loc54 = loc("/NHNHOME/WORKSPACE/26msit001_A/jinhyeok/loop_TTT/lact/.cache_inductor_llm/pl/cplfl34cdlcf5vwa33zlbzx4ovc5kvluc4d3oiogcucaus6szhug.py":41:37)
#loc55 = loc("/NHNHOME/WORKSPACE/26msit001_A/jinhyeok/loop_TTT/lact/.cache_inductor_llm/pl/cplfl34cdlcf5vwa33zlbzx4ovc5kvluc4d3oiogcucaus6szhug.py":42:32)
#loc56 = loc("/NHNHOME/WORKSPACE/26msit001_A/jinhyeok/loop_TTT/lact/.cache_inductor_llm/pl/cplfl34cdlcf5vwa33zlbzx4ovc5kvluc4d3oiogcucaus6szhug.py":42:37)
#loc57 = loc("/NHNHOME/WORKSPACE/26msit001_A/jinhyeok/loop_TTT/lact/.cache_inductor_llm/pl/cplfl34cdlcf5vwa33zlbzx4ovc5kvluc4d3oiogcucaus6szhug.py":43:32)
#loc58 = loc("/NHNHOME/WORKSPACE/26msit001_A/jinhyeok/loop_TTT/lact/.cache_inductor_llm/pl/cplfl34cdlcf5vwa33zlbzx4ovc5kvluc4d3oiogcucaus6szhug.py":43:37)
#loc59 = loc("/NHNHOME/WORKSPACE/26msit001_A/jinhyeok/loop_TTT/lact/.cache_inductor_llm/pl/cplfl34cdlcf5vwa33zlbzx4ovc5kvluc4d3oiogcucaus6szhug.py":44:18)
#loc60 = loc("/NHNHOME/WORKSPACE/26msit001_A/jinhyeok/loop_TTT/lact/.cache_inductor_llm/pl/cplfl34cdlcf5vwa33zlbzx4ovc5kvluc4d3oiogcucaus6szhug.py":46:11)
#loc61 = loc("/NHNHOME/WORKSPACE/26msit001_A/jinhyeok/loop_TTT/lact/.cache_inductor_llm/pl/cplfl34cdlcf5vwa33zlbzx4ovc5kvluc4d3oiogcucaus6szhug.py":47:18)
#loc62 = loc("/NHNHOME/WORKSPACE/26msit001_A/jinhyeok/loop_TTT/lact/.cache_inductor_llm/pl/cplfl34cdlcf5vwa33zlbzx4ovc5kvluc4d3oiogcucaus6szhug.py":48:18)
#loc63 = loc("/NHNHOME/WORKSPACE/26msit001_A/jinhyeok/loop_TTT/lact/.cache_inductor_llm/pl/cplfl34cdlcf5vwa33zlbzx4ovc5kvluc4d3oiogcucaus6szhug.py":50:19)
#loc64 = loc("/NHNHOME/WORKSPACE/26msit001_A/jinhyeok/loop_TTT/lact/.cache_inductor_llm/pl/cplfl34cdlcf5vwa33zlbzx4ovc5kvluc4d3oiogcucaus6szhug.py":52:20)
#loc65 = loc("/NHNHOME/WORKSPACE/26msit001_A/jinhyeok/loop_TTT/lact/.cache_inductor_llm/pl/cplfl34cdlcf5vwa33zlbzx4ovc5kvluc4d3oiogcucaus6szhug.py":53:12)
#loc66 = loc("/NHNHOME/WORKSPACE/26msit001_A/jinhyeok/loop_TTT/lact/.cache_inductor_llm/pl/cplfl34cdlcf5vwa33zlbzx4ovc5kvluc4d3oiogcucaus6szhug.py":54:20)
#loc67 = loc("/NHNHOME/WORKSPACE/26msit001_A/jinhyeok/loop_TTT/lact/.cache_inductor_llm/pl/cplfl34cdlcf5vwa33zlbzx4ovc5kvluc4d3oiogcucaus6szhug.py":55:21)
#loc68 = loc("/NHNHOME/WORKSPACE/26msit001_A/jinhyeok/loop_TTT/lact/.cache_inductor_llm/pl/cplfl34cdlcf5vwa33zlbzx4ovc5kvluc4d3oiogcucaus6szhug.py":57:12)
#loc69 = loc("/NHNHOME/WORKSPACE/26msit001_A/jinhyeok/loop_TTT/lact/.cache_inductor_llm/pl/cplfl34cdlcf5vwa33zlbzx4ovc5kvluc4d3oiogcucaus6szhug.py":58:21)
#loc70 = loc("/NHNHOME/WORKSPACE/26msit001_A/jinhyeok/loop_TTT/lact/.cache_inductor_llm/pl/cplfl34cdlcf5vwa33zlbzx4ovc5kvluc4d3oiogcucaus6szhug.py":61:21)
#loc71 = loc("/NHNHOME/WORKSPACE/26msit001_A/jinhyeok/loop_TTT/lact/.cache_inductor_llm/pl/cplfl34cdlcf5vwa33zlbzx4ovc5kvluc4d3oiogcucaus6szhug.py":62:35)
#loc72 = loc("/NHNHOME/WORKSPACE/26msit001_A/jinhyeok/loop_TTT/lact/.cache_inductor_llm/pl/cplfl34cdlcf5vwa33zlbzx4ovc5kvluc4d3oiogcucaus6szhug.py":63:20)
#loc73 = loc("/NHNHOME/WORKSPACE/26msit001_A/jinhyeok/loop_TTT/lact/.cache_inductor_llm/pl/cplfl34cdlcf5vwa33zlbzx4ovc5kvluc4d3oiogcucaus6szhug.py":65:20)
#loc74 = loc("/NHNHOME/WORKSPACE/26msit001_A/jinhyeok/loop_TTT/lact/.cache_inductor_llm/pl/cplfl34cdlcf5vwa33zlbzx4ovc5kvluc4d3oiogcucaus6szhug.py":67:19)
#loc75 = loc("/NHNHOME/WORKSPACE/26msit001_A/jinhyeok/loop_TTT/lact/.cache_inductor_llm/pl/cplfl34cdlcf5vwa33zlbzx4ovc5kvluc4d3oiogcucaus6szhug.py":69:20)
#loc76 = loc("/NHNHOME/WORKSPACE/26msit001_A/jinhyeok/loop_TTT/lact/.cache_inductor_llm/pl/cplfl34cdlcf5vwa33zlbzx4ovc5kvluc4d3oiogcucaus6szhug.py":71:20)
#loc77 = loc("/NHNHOME/WORKSPACE/26msit001_A/jinhyeok/loop_TTT/lact/.cache_inductor_llm/pl/cplfl34cdlcf5vwa33zlbzx4ovc5kvluc4d3oiogcucaus6szhug.py":72:20)
#loc78 = loc("/NHNHOME/WORKSPACE/26msit001_A/jinhyeok/loop_TTT/lact/.cache_inductor_llm/pl/cplfl34cdlcf5vwa33zlbzx4ovc5kvluc4d3oiogcucaus6szhug.py":74:20)
#loc79 = loc("/NHNHOME/WORKSPACE/26msit001_A/jinhyeok/loop_TTT/lact/.cache_inductor_llm/pl/cplfl34cdlcf5vwa33zlbzx4ovc5kvluc4d3oiogcucaus6szhug.py":76:20)
#loc80 = loc("/NHNHOME/WORKSPACE/26msit001_A/jinhyeok/loop_TTT/lact/.cache_inductor_llm/pl/cplfl34cdlcf5vwa33zlbzx4ovc5kvluc4d3oiogcucaus6szhug.py":77:20)
#loc81 = loc("/NHNHOME/WORKSPACE/26msit001_A/jinhyeok/loop_TTT/lact/.cache_inductor_llm/pl/cplfl34cdlcf5vwa33zlbzx4ovc5kvluc4d3oiogcucaus6szhug.py":78:21)
#loc82 = loc("/NHNHOME/WORKSPACE/26msit001_A/jinhyeok/loop_TTT/lact/.cache_inductor_llm/pl/cplfl34cdlcf5vwa33zlbzx4ovc5kvluc4d3oiogcucaus6szhug.py":80:21)
#loc83 = loc("/NHNHOME/WORKSPACE/26msit001_A/jinhyeok/loop_TTT/lact/.cache_inductor_llm/pl/cplfl34cdlcf5vwa33zlbzx4ovc5kvluc4d3oiogcucaus6szhug.py":83:21)
#loc84 = loc("/NHNHOME/WORKSPACE/26msit001_A/jinhyeok/loop_TTT/lact/.cache_inductor_llm/pl/cplfl34cdlcf5vwa33zlbzx4ovc5kvluc4d3oiogcucaus6szhug.py":84:35)
#loc85 = loc("/NHNHOME/WORKSPACE/26msit001_A/jinhyeok/loop_TTT/lact/.cache_inductor_llm/pl/cplfl34cdlcf5vwa33zlbzx4ovc5kvluc4d3oiogcucaus6szhug.py":85:20)
#loc86 = loc("/NHNHOME/WORKSPACE/26msit001_A/jinhyeok/loop_TTT/lact/.cache_inductor_llm/pl/cplfl34cdlcf5vwa33zlbzx4ovc5kvluc4d3oiogcucaus6szhug.py":87:20)
#loc87 = loc("/NHNHOME/WORKSPACE/26msit001_A/jinhyeok/loop_TTT/lact/.cache_inductor_llm/pl/cplfl34cdlcf5vwa33zlbzx4ovc5kvluc4d3oiogcucaus6szhug.py":89:20)
#loc88 = loc("/NHNHOME/WORKSPACE/26msit001_A/jinhyeok/loop_TTT/lact/.cache_inductor_llm/pl/cplfl34cdlcf5vwa33zlbzx4ovc5kvluc4d3oiogcucaus6szhug.py":91:28)
#loc89 = loc("/NHNHOME/WORKSPACE/26msit001_A/jinhyeok/loop_TTT/lact/.cache_inductor_llm/pl/cplfl34cdlcf5vwa33zlbzx4ovc5kvluc4d3oiogcucaus6szhug.py":91:40)
#loc90 = loc("/NHNHOME/WORKSPACE/26msit001_A/jinhyeok/loop_TTT/lact/.cache_inductor_llm/pl/cplfl34cdlcf5vwa33zlbzx4ovc5kvluc4d3oiogcucaus6szhug.py":92:25)
#loc91 = loc("/NHNHOME/WORKSPACE/26msit001_A/jinhyeok/loop_TTT/lact/.cache_inductor_llm/pl/cplfl34cdlcf5vwa33zlbzx4ovc5kvluc4d3oiogcucaus6szhug.py":92:37)
#loc92 = loc("/NHNHOME/WORKSPACE/26msit001_A/jinhyeok/loop_TTT/lact/.cache_inductor_llm/pl/cplfl34cdlcf5vwa33zlbzx4ovc5kvluc4d3oiogcucaus6szhug.py":93:28)
#loc93 = loc("/NHNHOME/WORKSPACE/26msit001_A/jinhyeok/loop_TTT/lact/.cache_inductor_llm/pl/cplfl34cdlcf5vwa33zlbzx4ovc5kvluc4d3oiogcucaus6szhug.py":93:40)
#loc94 = loc("/NHNHOME/WORKSPACE/26msit001_A/jinhyeok/loop_TTT/lact/.cache_inductor_llm/pl/cplfl34cdlcf5vwa33zlbzx4ovc5kvluc4d3oiogcucaus6szhug.py":94:25)
#loc95 = loc("/NHNHOME/WORKSPACE/26msit001_A/jinhyeok/loop_TTT/lact/.cache_inductor_llm/pl/cplfl34cdlcf5vwa33zlbzx4ovc5kvluc4d3oiogcucaus6szhug.py":94:37)
#loc96 = loc("/NHNHOME/WORKSPACE/26msit001_A/jinhyeok/loop_TTT/lact/.cache_inductor_llm/pl/cplfl34cdlcf5vwa33zlbzx4ovc5kvluc4d3oiogcucaus6szhug.py":94:4)
#loc117 = loc("xnumel"(#loc1))
#loc118 = loc("xoffset"(#loc2))
#loc119 = loc("xoffset"(#loc3))
#loc120 = loc("xindex"(#loc4))
#loc121 = loc("xindex"(#loc5))
#loc122 = loc("xmask"(#loc6))
#loc123 = loc("x2"(#loc7))
#loc124 = loc("x0"(#loc8))
#loc125 = loc("x1"(#loc9))
#loc126 = loc("x1"(#loc10))
#loc127 = loc("tmp0"(#loc11))
#loc128 = loc("tmp0"(#loc12))
#loc129 = loc("tmp1"(#loc13))
#loc130 = loc("tmp1"(#loc14))
#loc131 = loc("tmp3"(#loc15))
#loc132 = loc("tmp3"(#loc16))
#loc133 = loc("tmp3"(#loc17))
#loc134 = loc("tmp5"(#loc18))
#loc135 = loc("tmp5"(#loc19))
#loc136 = loc("tmp9"(#loc20))
#loc137 = loc("tmp9"(#loc21))
#loc138 = loc("tmp9"(#loc22))
#loc139 = loc("tmp12"(#loc23))
#loc140 = loc("tmp12"(#loc24))
#loc141 = loc("tmp12"(#loc25))
#loc142 = loc("tmp12"(#loc26))
#loc143 = loc("tmp12"(#loc27))
#loc144 = loc("tmp12"(#loc28))
#loc145 = loc("tmp12"(#loc29))
#loc146 = loc("tmp15"(#loc30))
#loc147 = loc("tmp15"(#loc31))
#loc148 = loc("tmp20"(#loc32))
#loc149 = loc("tmp20"(#loc33))
#loc150 = loc("tmp23"(#loc34))
#loc151 = loc("tmp23"(#loc35))
#loc152 = loc("tmp34"(#loc36))
#loc153 = loc("tmp34"(#loc37))
#loc154 = loc("tmp36"(#loc38))
#loc155 = loc("tmp36"(#loc39))
#loc156 = loc("tmp36"(#loc40))
#loc157 = loc("tmp38"(#loc41))
#loc158 = loc("tmp38"(#loc42))
#loc159 = loc("tmp41"(#loc43))
#loc160 = loc("tmp41"(#loc44))
#loc161 = loc("tmp41"(#loc45))
#loc162 = loc("tmp44"(#loc46))
#loc163 = loc("tmp44"(#loc47))
#loc164 = loc("tmp44"(#loc48))
#loc165 = loc("tmp44"(#loc49))
#loc166 = loc("tmp44"(#loc50))
#loc167 = loc("tmp44"(#loc51))
#loc168 = loc("tmp44"(#loc52))
#loc169 = loc("tmp47"(#loc53))
#loc170 = loc("tmp47"(#loc54))
#loc171 = loc("tmp51"(#loc55))
#loc172 = loc("tmp51"(#loc56))
#loc173 = loc("tmp53"(#loc57))
#loc174 = loc("tmp53"(#loc58))
#loc175 = loc("tmp2"(#loc59))
#loc176 = loc("tmp6"(#loc60))
#loc177 = loc("tmp7"(#loc61))
#loc178 = loc("tmp8"(#loc62))
#loc179 = loc("tmp11"(#loc63))
#loc180 = loc("tmp14"(#loc64))
#loc181 = loc("tmp16"(#loc65))
#loc182 = loc("tmp17"(#loc66))
#loc183 = loc("tmp18"(#loc67))
#loc184 = loc("tmp21"(#loc68))
#loc185 = loc("tmp22"(#loc69))
#loc186 = loc("tmp26"(#loc70))
#loc187 = loc("tmp27"(#loc71))
#loc188 = loc("tmp28"(#loc72))
#loc189 = loc("tmp30"(#loc73))
#loc190 = loc("tmp32"(#loc74))
#loc191 = loc("tmp35"(#loc75))
#loc192 = loc("tmp39"(#loc76))
#loc193 = loc("tmp40"(#loc77))
#loc194 = loc("tmp43"(#loc78))
#loc195 = loc("tmp46"(#loc79))
#loc196 = loc("tmp48"(#loc80))
#loc197 = loc("tmp49"(#loc81))
#loc198 = loc("tmp52"(#loc82))
#loc199 = loc("tmp56"(#loc83))
#loc200 = loc("tmp57"(#loc84))
#loc201 = loc("tmp58"(#loc85))
#loc202 = loc("tmp60"(#loc86))
#loc203 = loc("tmp62"(#loc87))
