#loc = loc("/NHNHOME/WORKSPACE/26msit001_A/jinhyeok/TTT_camera_embedding/lact_llm/.cache_inductor/ji/cjiomcw5gls6p6max2rp5yawchokuoa6cpkb7ydptqapxpti2yn6.py":18:0)
#loc71 = loc("/NHNHOME/WORKSPACE/26msit001_A/jinhyeok/TTT_camera_embedding/.venv_llm/lib/python3.12/site-packages/triton/language/standard.py":285:0)
#loc73 = loc(unknown)
#loc76 = loc("/NHNHOME/WORKSPACE/26msit001_A/jinhyeok/TTT_camera_embedding/.venv_llm/lib/python3.12/site-packages/triton/language/standard.py":260:0)
#loc80 = loc("in_ptr0"(#loc))
#loc81 = loc("in_ptr1"(#loc))
#loc82 = loc("in_ptr2"(#loc))
#loc83 = loc("in_ptr3"(#loc))
#loc84 = loc("out_ptr0"(#loc))
#loc85 = loc("xnumel"(#loc))
#loc86 = loc("r0_numel"(#loc))
#loc153 = loc("input"(#loc71))
#loc154 = loc("a"(#loc76))
#loc155 = loc("b"(#loc76))
module {
  tt.func public @triton_red_fused__to_copy_add_linalg_vector_norm_mean_mul_slice_zeros_like_31(%in_ptr0: !tt.ptr<bf16> {tt.divisibility = 16 : i32} loc("in_ptr0"(#loc)), %in_ptr1: !tt.ptr<bf16> {tt.divisibility = 16 : i32} loc("in_ptr1"(#loc)), %in_ptr2: !tt.ptr<f32> {tt.divisibility = 16 : i32} loc("in_ptr2"(#loc)), %in_ptr3: !tt.ptr<f32> {tt.divisibility = 16 : i32} loc("in_ptr3"(#loc)), %out_ptr0: !tt.ptr<f32> {tt.divisibility = 16 : i32} loc("out_ptr0"(#loc)), %xnumel: i32 {tt.divisibility = 16 : i32} loc("xnumel"(#loc)), %r0_numel: i32 loc("r0_numel"(#loc))) attributes {noinline = false} {
    %xnumel_0 = arith.constant 160 : i32 loc(#loc87)
    %r0_numel_1 = arith.constant 7373 : i32 loc(#loc88)
    %xoffset = tt.get_program_id x : i32 loc(#loc89)
    %xoffset_2 = arith.constant 1 : i32 loc(#loc90)
    %xoffset_3 = arith.constant 1 : i32 loc(#loc90)
    %xoffset_4 = arith.muli %xoffset, %xoffset_3 : i32 loc(#loc90)
    %xindex = tt.make_range {end = 1 : i32, start = 0 : i32} : tensor<1xi32> loc(#loc91)
    %xindex_5 = tt.expand_dims %xindex {axis = 1 : i32} : tensor<1xi32> -> tensor<1x1xi32> loc(#loc92)
    %xindex_6 = tt.splat %xoffset_4 : i32 -> tensor<1x1xi32> loc(#loc93)
    %xindex_7 = arith.addi %xindex_6, %xindex_5 : tensor<1x1xi32> loc(#loc93)
    %xmask = arith.constant dense<160> : tensor<1x1xi32> loc(#loc94)
    %xmask_8 = arith.cmpi slt, %xindex_7, %xmask : tensor<1x1xi32> loc(#loc94)
    %r0_base = tt.make_range {end = 2048 : i32, start = 0 : i32} : tensor<2048xi32> loc(#loc95)
    %r0_base_9 = tt.expand_dims %r0_base {axis = 0 : i32} : tensor<2048xi32> -> tensor<1x2048xi32> loc(#loc96)
    %x0 = arith.constant 5 : i32 loc(#loc97)
    %x0_10 = arith.constant 5 : i32 loc(#loc97)
    %x0_11 = arith.constant dense<5> : tensor<1x1xi32> loc(#loc97)
    %x0_12 = arith.remsi %xindex_7, %x0_11 : tensor<1x1xi32> loc(#loc97)
    %x1 = arith.constant 5 : i32 loc(#loc98)
    %x1_13 = arith.constant 5 : i32 loc(#loc98)
    %x1_14 = arith.constant dense<5> : tensor<1x1xi32> loc(#loc98)
    %x1_15 = arith.divsi %xindex_7, %x1_14 : tensor<1x1xi32> loc(#loc98)
    %_tmp23 = arith.constant 0.000000e+00 : f32 loc(#loc99)
    %_tmp23_16 = arith.constant dense<0.000000e+00> : tensor<1x2048xf32> loc(#loc99)
    %c0_i32 = arith.constant 0 : i32 loc(#loc14)
    %c2048_i32 = arith.constant 2048 : i32 loc(#loc14)
    %0 = arith.bitcast %c0_i32 : i32 to i32 loc(#loc14)
    %1 = arith.bitcast %r0_numel_1 : i32 to i32 loc(#loc14)
    %2 = arith.bitcast %c2048_i32 : i32 to i32 loc(#loc14)
    %3 = ub.poison : i32 loc(#loc14)
    %_tmp23_17 = scf.for %r0_offset = %0 to %1 step %2 iter_args(%_tmp23_19 = %_tmp23_16) -> (tensor<1x2048xf32>)  : i32 {
      %r0_index = tt.splat %r0_offset : i32 -> tensor<1x2048xi32> loc(#loc101)
      %r0_index_20 = arith.addi %r0_index, %r0_base_9 : tensor<1x2048xi32> loc(#loc101)
      %r0_mask = arith.constant dense<7373> : tensor<1x2048xi32> loc(#loc102)
      %r0_mask_21 = arith.cmpi slt, %r0_index_20, %r0_mask : tensor<1x2048xi32> loc(#loc102)
      %tmp0 = arith.constant 7373 : i32 loc(#loc103)
      %tmp0_22 = arith.constant 7373 : i32 loc(#loc103)
      %tmp0_23 = arith.constant dense<7373> : tensor<1x1xi32> loc(#loc103)
      %tmp0_24 = arith.muli %tmp0_23, %x0_12 : tensor<1x1xi32> loc(#loc103)
      %tmp0_25 = tt.broadcast %tmp0_24 : tensor<1x1xi32> -> tensor<1x2048xi32> loc(#loc104)
      %tmp0_26 = arith.addi %r0_index_20, %tmp0_25 : tensor<1x2048xi32> loc(#loc104)
      %tmp1 = arith.constant 36864 : i32 loc(#loc105)
      %tmp1_27 = arith.constant dense<36864> : tensor<1x1xi32> loc(#loc105)
      %tmp2 = arith.constant dense<36864> : tensor<1x2048xi32> loc(#loc106)
      %tmp2_28 = arith.cmpi slt, %tmp0_26, %tmp2 : tensor<1x2048xi32> loc(#loc106)
      %tmp3 = arith.constant 36864 : i32 loc(#loc107)
      %tmp3_29 = arith.constant 36864 : i32 loc(#loc107)
      %tmp3_30 = arith.constant dense<36864> : tensor<1x1xi32> loc(#loc107)
      %tmp3_31 = arith.muli %tmp3_30, %x1_15 : tensor<1x1xi32> loc(#loc107)
      %tmp3_32 = arith.constant 7373 : i32 loc(#loc108)
      %tmp3_33 = arith.constant 7373 : i32 loc(#loc108)
      %tmp3_34 = arith.constant dense<7373> : tensor<1x1xi32> loc(#loc108)
      %tmp3_35 = arith.muli %tmp3_34, %x0_12 : tensor<1x1xi32> loc(#loc108)
      %tmp3_36 = tt.broadcast %tmp3_35 : tensor<1x1xi32> -> tensor<1x2048xi32> loc(#loc109)
      %tmp3_37 = arith.addi %r0_index_20, %tmp3_36 : tensor<1x2048xi32> loc(#loc109)
      %tmp3_38 = arith.constant 36864 : i32 loc(#loc110)
      %tmp3_39 = arith.constant 36864 : i32 loc(#loc110)
      %tmp3_40 = arith.constant dense<36864> : tensor<1x2048xi32> loc(#loc110)
      %tmp3_41 = arith.remsi %tmp3_37, %tmp3_40 : tensor<1x2048xi32> loc(#loc110)
      %tmp3_42 = tt.broadcast %tmp3_31 : tensor<1x1xi32> -> tensor<1x2048xi32> loc(#loc111)
      %tmp3_43 = arith.addi %tmp3_42, %tmp3_41 : tensor<1x2048xi32> loc(#loc111)
      %tmp3_44 = tt.splat %in_ptr0 : !tt.ptr<bf16> -> tensor<1x2048x!tt.ptr<bf16>> loc(#loc112)
      %tmp3_45 = tt.addptr %tmp3_44, %tmp3_43 : tensor<1x2048x!tt.ptr<bf16>>, tensor<1x2048xi32> loc(#loc112)
      %tmp3_46 = arith.andi %r0_mask_21, %tmp2_28 : tensor<1x2048xi1> loc(#loc113)
      %tmp3_47 = tt.broadcast %xmask_8 : tensor<1x1xi1> -> tensor<1x2048xi1> loc(#loc114)
      %tmp3_48 = arith.andi %tmp3_46, %tmp3_47 : tensor<1x2048xi1> loc(#loc114)
      %tmp3_49 = arith.constant 0.000000e+00 : f32 loc(#loc115)
      %tmp3_50 = arith.constant dense<0.000000e+00> : tensor<1x2048xf32> loc(#loc115)
      %tmp3_51 = arith.truncf %tmp3_50 : tensor<1x2048xf32> to tensor<1x2048xbf16> loc(#loc115)
      %tmp3_52 = tt.load %tmp3_45, %tmp3_48, %tmp3_51 evictionPolicy = evict_last : tensor<1x2048x!tt.ptr<bf16>> loc(#loc115)
      %tmp3_53 = arith.extf %tmp3_52 : tensor<1x2048xbf16> to tensor<1x2048xf32> loc(#loc116)
      %tmp5 = arith.constant 36864 : i32 loc(#loc117)
      %tmp5_54 = arith.constant 36864 : i32 loc(#loc117)
      %tmp5_55 = arith.constant dense<36864> : tensor<1x1xi32> loc(#loc117)
      %tmp5_56 = arith.muli %tmp5_55, %x1_15 : tensor<1x1xi32> loc(#loc117)
      %tmp5_57 = arith.constant 7373 : i32 loc(#loc118)
      %tmp5_58 = arith.constant 7373 : i32 loc(#loc118)
      %tmp5_59 = arith.constant dense<7373> : tensor<1x1xi32> loc(#loc118)
      %tmp5_60 = arith.muli %tmp5_59, %x0_12 : tensor<1x1xi32> loc(#loc118)
      %tmp5_61 = tt.broadcast %tmp5_60 : tensor<1x1xi32> -> tensor<1x2048xi32> loc(#loc119)
      %tmp5_62 = arith.addi %r0_index_20, %tmp5_61 : tensor<1x2048xi32> loc(#loc119)
      %tmp5_63 = arith.constant 36864 : i32 loc(#loc120)
      %tmp5_64 = arith.constant 36864 : i32 loc(#loc120)
      %tmp5_65 = arith.constant dense<36864> : tensor<1x2048xi32> loc(#loc120)
      %tmp5_66 = arith.remsi %tmp5_62, %tmp5_65 : tensor<1x2048xi32> loc(#loc120)
      %tmp5_67 = tt.broadcast %tmp5_56 : tensor<1x1xi32> -> tensor<1x2048xi32> loc(#loc121)
      %tmp5_68 = arith.addi %tmp5_67, %tmp5_66 : tensor<1x2048xi32> loc(#loc121)
      %tmp5_69 = tt.splat %in_ptr1 : !tt.ptr<bf16> -> tensor<1x2048x!tt.ptr<bf16>> loc(#loc122)
      %tmp5_70 = tt.addptr %tmp5_69, %tmp5_68 : tensor<1x2048x!tt.ptr<bf16>>, tensor<1x2048xi32> loc(#loc122)
      %tmp5_71 = arith.andi %r0_mask_21, %tmp2_28 : tensor<1x2048xi1> loc(#loc123)
      %tmp5_72 = tt.broadcast %xmask_8 : tensor<1x1xi1> -> tensor<1x2048xi1> loc(#loc124)
      %tmp5_73 = arith.andi %tmp5_71, %tmp5_72 : tensor<1x2048xi1> loc(#loc124)
      %tmp5_74 = arith.constant 0.000000e+00 : f32 loc(#loc125)
      %tmp5_75 = arith.constant dense<0.000000e+00> : tensor<1x2048xf32> loc(#loc125)
      %tmp5_76 = arith.truncf %tmp5_75 : tensor<1x2048xf32> to tensor<1x2048xbf16> loc(#loc125)
      %tmp5_77 = tt.load %tmp5_70, %tmp5_73, %tmp5_76 evictionPolicy = evict_last : tensor<1x2048x!tt.ptr<bf16>> loc(#loc125)
      %tmp5_78 = arith.extf %tmp5_77 : tensor<1x2048xbf16> to tensor<1x2048xf32> loc(#loc126)
      %tmp7 = tt.broadcast %x1_15 : tensor<1x1xi32> -> tensor<1x2048xi32> loc(#loc127)
      %tmp7_79 = tt.splat %in_ptr2 : !tt.ptr<f32> -> tensor<1x2048x!tt.ptr<f32>> loc(#loc128)
      %tmp7_80 = tt.addptr %tmp7_79, %tmp7 : tensor<1x2048x!tt.ptr<f32>>, tensor<1x2048xi32> loc(#loc128)
      %tmp7_81 = arith.andi %r0_mask_21, %tmp2_28 : tensor<1x2048xi1> loc(#loc129)
      %tmp7_82 = tt.broadcast %xmask_8 : tensor<1x1xi1> -> tensor<1x2048xi1> loc(#loc130)
      %tmp7_83 = arith.andi %tmp7_81, %tmp7_82 : tensor<1x2048xi1> loc(#loc130)
      %tmp7_84 = arith.constant 0.000000e+00 : f32 loc(#loc131)
      %tmp7_85 = arith.constant dense<0.000000e+00> : tensor<1x2048xf32> loc(#loc131)
      %tmp7_86 = tt.load %tmp7_80, %tmp7_83, %tmp7_85 evictionPolicy = evict_last : tensor<1x2048x!tt.ptr<f32>> loc(#loc131)
      %tmp8 = arith.constant 1.024000e+03 : f32 loc(#loc132)
      %tmp9 = arith.constant dense<1.024000e+03> : tensor<1x2048xf32> loc(#loc133)
      %tmp9_87 = arith.divf %tmp7_86, %tmp9 : tensor<1x2048xf32> loc(#loc133)
      %tmp10 = arith.constant 0.000000e+00 : f32 loc(#loc134)
      %tmp11 = arith.constant dense<0.000000e+00> : tensor<1x2048xf32> loc(#loc135)
      %tmp11_88 = arith.mulf %tmp11, %tmp9_87 : tensor<1x2048xf32> loc(#loc135)
      %tmp12 = arith.addf %tmp5_78, %tmp11_88 : tensor<1x2048xf32> loc(#loc136)
      %tmp13 = tt.broadcast %x1_15 : tensor<1x1xi32> -> tensor<1x2048xi32> loc(#loc137)
      %tmp13_89 = tt.splat %in_ptr3 : !tt.ptr<f32> -> tensor<1x2048x!tt.ptr<f32>> loc(#loc138)
      %tmp13_90 = tt.addptr %tmp13_89, %tmp13 : tensor<1x2048x!tt.ptr<f32>>, tensor<1x2048xi32> loc(#loc138)
      %tmp13_91 = arith.andi %r0_mask_21, %tmp2_28 : tensor<1x2048xi1> loc(#loc139)
      %tmp13_92 = tt.broadcast %xmask_8 : tensor<1x1xi1> -> tensor<1x2048xi1> loc(#loc140)
      %tmp13_93 = arith.andi %tmp13_91, %tmp13_92 : tensor<1x2048xi1> loc(#loc140)
      %tmp13_94 = arith.constant 0.000000e+00 : f32 loc(#loc141)
      %tmp13_95 = arith.constant dense<0.000000e+00> : tensor<1x2048xf32> loc(#loc141)
      %tmp13_96 = tt.load %tmp13_90, %tmp13_93, %tmp13_95 evictionPolicy = evict_last : tensor<1x2048x!tt.ptr<f32>> loc(#loc141)
      %tmp14 = arith.constant dense<1.024000e+03> : tensor<1x2048xf32> loc(#loc142)
      %tmp14_97 = arith.divf %tmp13_96, %tmp14 : tensor<1x2048xf32> loc(#loc142)
      %tmp15 = arith.mulf %tmp12, %tmp14_97 : tensor<1x2048xf32> loc(#loc143)
      %tmp16 = arith.addf %tmp3_53, %tmp15 : tensor<1x2048xf32> loc(#loc144)
      %tmp19 = arith.mulf %tmp16, %tmp16 : tensor<1x2048xf32> loc(#loc145)
      %tmp20 = arith.constant 0.000000e+00 : f32 loc(#loc146)
      %tmp20_98 = arith.constant dense<0.000000e+00> : tensor<1x2048xf32> loc(#loc146)
      %tmp21 = arith.select %tmp2_28, %tmp19, %tmp20_98 : tensor<1x2048xi1>, tensor<1x2048xf32> loc(#loc147)
      %tmp24 = arith.addf %_tmp23_19, %tmp21 : tensor<1x2048xf32> loc(#loc148)
      %_tmp23_99 = tt.broadcast %xmask_8 : tensor<1x1xi1> -> tensor<1x2048xi1> loc(#loc149)
      %_tmp23_100 = arith.andi %r0_mask_21, %_tmp23_99 : tensor<1x2048xi1> loc(#loc149)
      %_tmp23_101 = arith.select %_tmp23_100, %tmp24, %_tmp23_19 : tensor<1x2048xi1>, tensor<1x2048xf32> loc(#loc150)
      scf.yield %_tmp23_101 : tensor<1x2048xf32> loc(#loc65)
    } loc(#loc100)
    %tmp23 = tt.call @"triton.language.standard.sum__fp32S1_2048S__(1,)cconstexpr_1__(2,)cconstexpr_False__(3,)cNone"(%_tmp23_17) : (tensor<1x2048xf32>) -> tensor<1xf32> loc(#loc151)
    %tmp23_18 = tt.expand_dims %tmp23 {axis = 1 : i32} : tensor<1xf32> -> tensor<1x1xf32> loc(#loc152)
    %4 = tt.splat %out_ptr0 : !tt.ptr<f32> -> tensor<1x1x!tt.ptr<f32>> loc(#loc68)
    %5 = tt.addptr %4, %xindex_7 : tensor<1x1x!tt.ptr<f32>>, tensor<1x1xi32> loc(#loc68)
    tt.store %5, %tmp23_18, %xmask_8 : tensor<1x1x!tt.ptr<f32>> loc(#loc69)
    tt.return loc(#loc70)
  } loc(#loc)
  tt.func private @"triton.language.standard.sum__fp32S1_2048S__(1,)cconstexpr_1__(2,)cconstexpr_False__(3,)cNone"(%input: tensor<1x2048xf32> loc("input"(#loc71))) -> tensor<1xf32> attributes {noinline = false} {
    %0 = "tt.reduce"(%input) <{axis = 1 : i32}> ({
    ^bb0(%arg1: f32 loc(unknown), %arg2: f32 loc(unknown)):
      %2 = tt.call @triton.language.standard._sum_combine__fp32_fp32__(%arg1, %arg2) : (f32, f32) -> f32 loc(#loc72)
      tt.reduce.return %2 : f32 loc(#loc72)
    }) : (tensor<1x2048xf32>) -> tensor<1xf32> loc(#loc72)
    tt.return %0 : tensor<1xf32> loc(#loc74)
  ^bb1:  // no predecessors
    %1 = ub.poison : tensor<1xf32> loc(#loc75)
    tt.return %1 : tensor<1xf32> loc(#loc75)
  } loc(#loc71)
  tt.func private @triton.language.standard._sum_combine__fp32_fp32__(%a: f32 loc("a"(#loc76)), %b: f32 loc("b"(#loc76))) -> f32 attributes {noinline = false} {
    %0 = arith.addf %a, %b : f32 loc(#loc77)
    tt.return %0 : f32 loc(#loc78)
  ^bb1:  // no predecessors
    %1 = ub.poison : f32 loc(#loc79)
    tt.return %1 : f32 loc(#loc79)
  } loc(#loc76)
} loc(#loc)
#loc1 = loc("/NHNHOME/WORKSPACE/26msit001_A/jinhyeok/TTT_camera_embedding/lact_llm/.cache_inductor/ji/cjiomcw5gls6p6max2rp5yawchokuoa6cpkb7ydptqapxpti2yn6.py":19:13)
#loc2 = loc("/NHNHOME/WORKSPACE/26msit001_A/jinhyeok/TTT_camera_embedding/lact_llm/.cache_inductor/ji/cjiomcw5gls6p6max2rp5yawchokuoa6cpkb7ydptqapxpti2yn6.py":20:15)
#loc3 = loc("/NHNHOME/WORKSPACE/26msit001_A/jinhyeok/TTT_camera_embedding/lact_llm/.cache_inductor/ji/cjiomcw5gls6p6max2rp5yawchokuoa6cpkb7ydptqapxpti2yn6.py":23:28)
#loc4 = loc("/NHNHOME/WORKSPACE/26msit001_A/jinhyeok/TTT_camera_embedding/lact_llm/.cache_inductor/ji/cjiomcw5gls6p6max2rp5yawchokuoa6cpkb7ydptqapxpti2yn6.py":23:33)
#loc5 = loc("/NHNHOME/WORKSPACE/26msit001_A/jinhyeok/TTT_camera_embedding/lact_llm/.cache_inductor/ji/cjiomcw5gls6p6max2rp5yawchokuoa6cpkb7ydptqapxpti2yn6.py":24:36)
#loc6 = loc("/NHNHOME/WORKSPACE/26msit001_A/jinhyeok/TTT_camera_embedding/lact_llm/.cache_inductor/ji/cjiomcw5gls6p6max2rp5yawchokuoa6cpkb7ydptqapxpti2yn6.py":24:44)
#loc7 = loc("/NHNHOME/WORKSPACE/26msit001_A/jinhyeok/TTT_camera_embedding/lact_llm/.cache_inductor/ji/cjiomcw5gls6p6max2rp5yawchokuoa6cpkb7ydptqapxpti2yn6.py":24:23)
#loc8 = loc("/NHNHOME/WORKSPACE/26msit001_A/jinhyeok/TTT_camera_embedding/lact_llm/.cache_inductor/ji/cjiomcw5gls6p6max2rp5yawchokuoa6cpkb7ydptqapxpti2yn6.py":25:21)
#loc9 = loc("/NHNHOME/WORKSPACE/26msit001_A/jinhyeok/TTT_camera_embedding/lact_llm/.cache_inductor/ji/cjiomcw5gls6p6max2rp5yawchokuoa6cpkb7ydptqapxpti2yn6.py":26:27)
#loc10 = loc("/NHNHOME/WORKSPACE/26msit001_A/jinhyeok/TTT_camera_embedding/lact_llm/.cache_inductor/ji/cjiomcw5gls6p6max2rp5yawchokuoa6cpkb7ydptqapxpti2yn6.py":26:37)
#loc11 = loc("/NHNHOME/WORKSPACE/26msit001_A/jinhyeok/TTT_camera_embedding/lact_llm/.cache_inductor/ji/cjiomcw5gls6p6max2rp5yawchokuoa6cpkb7ydptqapxpti2yn6.py":28:19)
#loc12 = loc("/NHNHOME/WORKSPACE/26msit001_A/jinhyeok/TTT_camera_embedding/lact_llm/.cache_inductor/ji/cjiomcw5gls6p6max2rp5yawchokuoa6cpkb7ydptqapxpti2yn6.py":29:19)
#loc13 = loc("/NHNHOME/WORKSPACE/26msit001_A/jinhyeok/TTT_camera_embedding/lact_llm/.cache_inductor/ji/cjiomcw5gls6p6max2rp5yawchokuoa6cpkb7ydptqapxpti2yn6.py":30:44)
#loc14 = loc("/NHNHOME/WORKSPACE/26msit001_A/jinhyeok/TTT_camera_embedding/lact_llm/.cache_inductor/ji/cjiomcw5gls6p6max2rp5yawchokuoa6cpkb7ydptqapxpti2yn6.py":32:40)
#loc15 = loc("/NHNHOME/WORKSPACE/26msit001_A/jinhyeok/TTT_camera_embedding/lact_llm/.cache_inductor/ji/cjiomcw5gls6p6max2rp5yawchokuoa6cpkb7ydptqapxpti2yn6.py":33:31)
#loc16 = loc("/NHNHOME/WORKSPACE/26msit001_A/jinhyeok/TTT_camera_embedding/lact_llm/.cache_inductor/ji/cjiomcw5gls6p6max2rp5yawchokuoa6cpkb7ydptqapxpti2yn6.py":34:29)
#loc17 = loc("/NHNHOME/WORKSPACE/26msit001_A/jinhyeok/TTT_camera_embedding/lact_llm/.cache_inductor/ji/cjiomcw5gls6p6max2rp5yawchokuoa6cpkb7ydptqapxpti2yn6.py":38:27)
#loc18 = loc("/NHNHOME/WORKSPACE/26msit001_A/jinhyeok/TTT_camera_embedding/lact_llm/.cache_inductor/ji/cjiomcw5gls6p6max2rp5yawchokuoa6cpkb7ydptqapxpti2yn6.py":38:22)
#loc19 = loc("/NHNHOME/WORKSPACE/26msit001_A/jinhyeok/TTT_camera_embedding/lact_llm/.cache_inductor/ji/cjiomcw5gls6p6max2rp5yawchokuoa6cpkb7ydptqapxpti2yn6.py":39:38)
#loc20 = loc("/NHNHOME/WORKSPACE/26msit001_A/jinhyeok/TTT_camera_embedding/lact_llm/.cache_inductor/ji/cjiomcw5gls6p6max2rp5yawchokuoa6cpkb7ydptqapxpti2yn6.py":40:22)
#loc21 = loc("/NHNHOME/WORKSPACE/26msit001_A/jinhyeok/TTT_camera_embedding/lact_llm/.cache_inductor/ji/cjiomcw5gls6p6max2rp5yawchokuoa6cpkb7ydptqapxpti2yn6.py":41:40)
#loc22 = loc("/NHNHOME/WORKSPACE/26msit001_A/jinhyeok/TTT_camera_embedding/lact_llm/.cache_inductor/ji/cjiomcw5gls6p6max2rp5yawchokuoa6cpkb7ydptqapxpti2yn6.py":41:60)
#loc23 = loc("/NHNHOME/WORKSPACE/26msit001_A/jinhyeok/TTT_camera_embedding/lact_llm/.cache_inductor/ji/cjiomcw5gls6p6max2rp5yawchokuoa6cpkb7ydptqapxpti2yn6.py":41:55)
#loc24 = loc("/NHNHOME/WORKSPACE/26msit001_A/jinhyeok/TTT_camera_embedding/lact_llm/.cache_inductor/ji/cjiomcw5gls6p6max2rp5yawchokuoa6cpkb7ydptqapxpti2yn6.py":41:66)
#loc25 = loc("/NHNHOME/WORKSPACE/26msit001_A/jinhyeok/TTT_camera_embedding/lact_llm/.cache_inductor/ji/cjiomcw5gls6p6max2rp5yawchokuoa6cpkb7ydptqapxpti2yn6.py":41:47)
#loc26 = loc("/NHNHOME/WORKSPACE/26msit001_A/jinhyeok/TTT_camera_embedding/lact_llm/.cache_inductor/ji/cjiomcw5gls6p6max2rp5yawchokuoa6cpkb7ydptqapxpti2yn6.py":41:34)
#loc27 = loc("/NHNHOME/WORKSPACE/26msit001_A/jinhyeok/TTT_camera_embedding/lact_llm/.cache_inductor/ji/cjiomcw5gls6p6max2rp5yawchokuoa6cpkb7ydptqapxpti2yn6.py":41:86)
#loc28 = loc("/NHNHOME/WORKSPACE/26msit001_A/jinhyeok/TTT_camera_embedding/lact_llm/.cache_inductor/ji/cjiomcw5gls6p6max2rp5yawchokuoa6cpkb7ydptqapxpti2yn6.py":41:93)
#loc29 = loc("/NHNHOME/WORKSPACE/26msit001_A/jinhyeok/TTT_camera_embedding/lact_llm/.cache_inductor/ji/cjiomcw5gls6p6max2rp5yawchokuoa6cpkb7ydptqapxpti2yn6.py":41:76)
#loc30 = loc("/NHNHOME/WORKSPACE/26msit001_A/jinhyeok/TTT_camera_embedding/lact_llm/.cache_inductor/ji/cjiomcw5gls6p6max2rp5yawchokuoa6cpkb7ydptqapxpti2yn6.py":41:144)
#loc31 = loc("/NHNHOME/WORKSPACE/26msit001_A/jinhyeok/TTT_camera_embedding/lact_llm/.cache_inductor/ji/cjiomcw5gls6p6max2rp5yawchokuoa6cpkb7ydptqapxpti2yn6.py":43:40)
#loc32 = loc("/NHNHOME/WORKSPACE/26msit001_A/jinhyeok/TTT_camera_embedding/lact_llm/.cache_inductor/ji/cjiomcw5gls6p6max2rp5yawchokuoa6cpkb7ydptqapxpti2yn6.py":43:60)
#loc33 = loc("/NHNHOME/WORKSPACE/26msit001_A/jinhyeok/TTT_camera_embedding/lact_llm/.cache_inductor/ji/cjiomcw5gls6p6max2rp5yawchokuoa6cpkb7ydptqapxpti2yn6.py":43:55)
#loc34 = loc("/NHNHOME/WORKSPACE/26msit001_A/jinhyeok/TTT_camera_embedding/lact_llm/.cache_inductor/ji/cjiomcw5gls6p6max2rp5yawchokuoa6cpkb7ydptqapxpti2yn6.py":43:66)
#loc35 = loc("/NHNHOME/WORKSPACE/26msit001_A/jinhyeok/TTT_camera_embedding/lact_llm/.cache_inductor/ji/cjiomcw5gls6p6max2rp5yawchokuoa6cpkb7ydptqapxpti2yn6.py":43:47)
#loc36 = loc("/NHNHOME/WORKSPACE/26msit001_A/jinhyeok/TTT_camera_embedding/lact_llm/.cache_inductor/ji/cjiomcw5gls6p6max2rp5yawchokuoa6cpkb7ydptqapxpti2yn6.py":43:34)
#loc37 = loc("/NHNHOME/WORKSPACE/26msit001_A/jinhyeok/TTT_camera_embedding/lact_llm/.cache_inductor/ji/cjiomcw5gls6p6max2rp5yawchokuoa6cpkb7ydptqapxpti2yn6.py":43:86)
#loc38 = loc("/NHNHOME/WORKSPACE/26msit001_A/jinhyeok/TTT_camera_embedding/lact_llm/.cache_inductor/ji/cjiomcw5gls6p6max2rp5yawchokuoa6cpkb7ydptqapxpti2yn6.py":43:93)
#loc39 = loc("/NHNHOME/WORKSPACE/26msit001_A/jinhyeok/TTT_camera_embedding/lact_llm/.cache_inductor/ji/cjiomcw5gls6p6max2rp5yawchokuoa6cpkb7ydptqapxpti2yn6.py":43:76)
#loc40 = loc("/NHNHOME/WORKSPACE/26msit001_A/jinhyeok/TTT_camera_embedding/lact_llm/.cache_inductor/ji/cjiomcw5gls6p6max2rp5yawchokuoa6cpkb7ydptqapxpti2yn6.py":43:144)
#loc41 = loc("/NHNHOME/WORKSPACE/26msit001_A/jinhyeok/TTT_camera_embedding/lact_llm/.cache_inductor/ji/cjiomcw5gls6p6max2rp5yawchokuoa6cpkb7ydptqapxpti2yn6.py":45:54)
#loc42 = loc("/NHNHOME/WORKSPACE/26msit001_A/jinhyeok/TTT_camera_embedding/lact_llm/.cache_inductor/ji/cjiomcw5gls6p6max2rp5yawchokuoa6cpkb7ydptqapxpti2yn6.py":45:34)
#loc43 = loc("/NHNHOME/WORKSPACE/26msit001_A/jinhyeok/TTT_camera_embedding/lact_llm/.cache_inductor/ji/cjiomcw5gls6p6max2rp5yawchokuoa6cpkb7ydptqapxpti2yn6.py":45:86)
#loc44 = loc("/NHNHOME/WORKSPACE/26msit001_A/jinhyeok/TTT_camera_embedding/lact_llm/.cache_inductor/ji/cjiomcw5gls6p6max2rp5yawchokuoa6cpkb7ydptqapxpti2yn6.py":45:93)
#loc45 = loc("/NHNHOME/WORKSPACE/26msit001_A/jinhyeok/TTT_camera_embedding/lact_llm/.cache_inductor/ji/cjiomcw5gls6p6max2rp5yawchokuoa6cpkb7ydptqapxpti2yn6.py":45:76)
#loc46 = loc("/NHNHOME/WORKSPACE/26msit001_A/jinhyeok/TTT_camera_embedding/lact_llm/.cache_inductor/ji/cjiomcw5gls6p6max2rp5yawchokuoa6cpkb7ydptqapxpti2yn6.py":46:15)
#loc47 = loc("/NHNHOME/WORKSPACE/26msit001_A/jinhyeok/TTT_camera_embedding/lact_llm/.cache_inductor/ji/cjiomcw5gls6p6max2rp5yawchokuoa6cpkb7ydptqapxpti2yn6.py":47:23)
#loc48 = loc("/NHNHOME/WORKSPACE/26msit001_A/jinhyeok/TTT_camera_embedding/lact_llm/.cache_inductor/ji/cjiomcw5gls6p6max2rp5yawchokuoa6cpkb7ydptqapxpti2yn6.py":48:16)
#loc49 = loc("/NHNHOME/WORKSPACE/26msit001_A/jinhyeok/TTT_camera_embedding/lact_llm/.cache_inductor/ji/cjiomcw5gls6p6max2rp5yawchokuoa6cpkb7ydptqapxpti2yn6.py":49:24)
#loc50 = loc("/NHNHOME/WORKSPACE/26msit001_A/jinhyeok/TTT_camera_embedding/lact_llm/.cache_inductor/ji/cjiomcw5gls6p6max2rp5yawchokuoa6cpkb7ydptqapxpti2yn6.py":50:23)
#loc51 = loc("/NHNHOME/WORKSPACE/26msit001_A/jinhyeok/TTT_camera_embedding/lact_llm/.cache_inductor/ji/cjiomcw5gls6p6max2rp5yawchokuoa6cpkb7ydptqapxpti2yn6.py":51:55)
#loc52 = loc("/NHNHOME/WORKSPACE/26msit001_A/jinhyeok/TTT_camera_embedding/lact_llm/.cache_inductor/ji/cjiomcw5gls6p6max2rp5yawchokuoa6cpkb7ydptqapxpti2yn6.py":51:35)
#loc53 = loc("/NHNHOME/WORKSPACE/26msit001_A/jinhyeok/TTT_camera_embedding/lact_llm/.cache_inductor/ji/cjiomcw5gls6p6max2rp5yawchokuoa6cpkb7ydptqapxpti2yn6.py":51:87)
#loc54 = loc("/NHNHOME/WORKSPACE/26msit001_A/jinhyeok/TTT_camera_embedding/lact_llm/.cache_inductor/ji/cjiomcw5gls6p6max2rp5yawchokuoa6cpkb7ydptqapxpti2yn6.py":51:94)
#loc55 = loc("/NHNHOME/WORKSPACE/26msit001_A/jinhyeok/TTT_camera_embedding/lact_llm/.cache_inductor/ji/cjiomcw5gls6p6max2rp5yawchokuoa6cpkb7ydptqapxpti2yn6.py":51:77)
#loc56 = loc("/NHNHOME/WORKSPACE/26msit001_A/jinhyeok/TTT_camera_embedding/lact_llm/.cache_inductor/ji/cjiomcw5gls6p6max2rp5yawchokuoa6cpkb7ydptqapxpti2yn6.py":52:25)
#loc57 = loc("/NHNHOME/WORKSPACE/26msit001_A/jinhyeok/TTT_camera_embedding/lact_llm/.cache_inductor/ji/cjiomcw5gls6p6max2rp5yawchokuoa6cpkb7ydptqapxpti2yn6.py":53:24)
#loc58 = loc("/NHNHOME/WORKSPACE/26msit001_A/jinhyeok/TTT_camera_embedding/lact_llm/.cache_inductor/ji/cjiomcw5gls6p6max2rp5yawchokuoa6cpkb7ydptqapxpti2yn6.py":54:23)
#loc59 = loc("/NHNHOME/WORKSPACE/26msit001_A/jinhyeok/TTT_camera_embedding/lact_llm/.cache_inductor/ji/cjiomcw5gls6p6max2rp5yawchokuoa6cpkb7ydptqapxpti2yn6.py":57:24)
#loc60 = loc("/NHNHOME/WORKSPACE/26msit001_A/jinhyeok/TTT_camera_embedding/lact_llm/.cache_inductor/ji/cjiomcw5gls6p6max2rp5yawchokuoa6cpkb7ydptqapxpti2yn6.py":58:40)
#loc61 = loc("/NHNHOME/WORKSPACE/26msit001_A/jinhyeok/TTT_camera_embedding/lact_llm/.cache_inductor/ji/cjiomcw5gls6p6max2rp5yawchokuoa6cpkb7ydptqapxpti2yn6.py":59:38)
#loc62 = loc("/NHNHOME/WORKSPACE/26msit001_A/jinhyeok/TTT_camera_embedding/lact_llm/.cache_inductor/ji/cjiomcw5gls6p6max2rp5yawchokuoa6cpkb7ydptqapxpti2yn6.py":61:25)
#loc63 = loc("/NHNHOME/WORKSPACE/26msit001_A/jinhyeok/TTT_camera_embedding/lact_llm/.cache_inductor/ji/cjiomcw5gls6p6max2rp5yawchokuoa6cpkb7ydptqapxpti2yn6.py":62:36)
#loc64 = loc("/NHNHOME/WORKSPACE/26msit001_A/jinhyeok/TTT_camera_embedding/lact_llm/.cache_inductor/ji/cjiomcw5gls6p6max2rp5yawchokuoa6cpkb7ydptqapxpti2yn6.py":62:50)
#loc65 = loc("/NHNHOME/WORKSPACE/26msit001_A/jinhyeok/TTT_camera_embedding/lact_llm/.cache_inductor/ji/cjiomcw5gls6p6max2rp5yawchokuoa6cpkb7ydptqapxpti2yn6.py":62:8)
#loc66 = loc("/NHNHOME/WORKSPACE/26msit001_A/jinhyeok/TTT_camera_embedding/lact_llm/.cache_inductor/ji/cjiomcw5gls6p6max2rp5yawchokuoa6cpkb7ydptqapxpti2yn6.py":63:27)
#loc67 = loc("/NHNHOME/WORKSPACE/26msit001_A/jinhyeok/TTT_camera_embedding/lact_llm/.cache_inductor/ji/cjiomcw5gls6p6max2rp5yawchokuoa6cpkb7ydptqapxpti2yn6.py":63:30)
#loc68 = loc("/NHNHOME/WORKSPACE/26msit001_A/jinhyeok/TTT_camera_embedding/lact_llm/.cache_inductor/ji/cjiomcw5gls6p6max2rp5yawchokuoa6cpkb7ydptqapxpti2yn6.py":64:25)
#loc69 = loc("/NHNHOME/WORKSPACE/26msit001_A/jinhyeok/TTT_camera_embedding/lact_llm/.cache_inductor/ji/cjiomcw5gls6p6max2rp5yawchokuoa6cpkb7ydptqapxpti2yn6.py":64:37)
#loc70 = loc("/NHNHOME/WORKSPACE/26msit001_A/jinhyeok/TTT_camera_embedding/lact_llm/.cache_inductor/ji/cjiomcw5gls6p6max2rp5yawchokuoa6cpkb7ydptqapxpti2yn6.py":64:4)
#loc72 = loc("/NHNHOME/WORKSPACE/26msit001_A/jinhyeok/TTT_camera_embedding/.venv_llm/lib/python3.12/site-packages/triton/language/standard.py":291:36)
#loc74 = loc("/NHNHOME/WORKSPACE/26msit001_A/jinhyeok/TTT_camera_embedding/.venv_llm/lib/python3.12/site-packages/triton/language/standard.py":291:11)
#loc75 = loc("/NHNHOME/WORKSPACE/26msit001_A/jinhyeok/TTT_camera_embedding/.venv_llm/lib/python3.12/site-packages/triton/language/standard.py":291:4)
#loc77 = loc("/NHNHOME/WORKSPACE/26msit001_A/jinhyeok/TTT_camera_embedding/.venv_llm/lib/python3.12/site-packages/triton/language/standard.py":261:15)
#loc78 = loc("/NHNHOME/WORKSPACE/26msit001_A/jinhyeok/TTT_camera_embedding/.venv_llm/lib/python3.12/site-packages/triton/language/standard.py":261:11)
#loc79 = loc("/NHNHOME/WORKSPACE/26msit001_A/jinhyeok/TTT_camera_embedding/.venv_llm/lib/python3.12/site-packages/triton/language/standard.py":261:4)
#loc87 = loc("xnumel"(#loc1))
#loc88 = loc("r0_numel"(#loc2))
#loc89 = loc("xoffset"(#loc3))
#loc90 = loc("xoffset"(#loc4))
#loc91 = loc("xindex"(#loc5))
#loc92 = loc("xindex"(#loc6))
#loc93 = loc("xindex"(#loc7))
#loc94 = loc("xmask"(#loc8))
#loc95 = loc("r0_base"(#loc9))
#loc96 = loc("r0_base"(#loc10))
#loc97 = loc("x0"(#loc11))
#loc98 = loc("x1"(#loc12))
#loc99 = loc("_tmp23"(#loc13))
#loc100 = loc("_tmp23"(#loc14))
#loc101 = loc("r0_index"(#loc15))
#loc102 = loc("r0_mask"(#loc16))
#loc103 = loc("tmp0"(#loc17))
#loc104 = loc("tmp0"(#loc18))
#loc105 = loc("tmp1"(#loc19))
#loc106 = loc("tmp2"(#loc20))
#loc107 = loc("tmp3"(#loc21))
#loc108 = loc("tmp3"(#loc22))
#loc109 = loc("tmp3"(#loc23))
#loc110 = loc("tmp3"(#loc24))
#loc111 = loc("tmp3"(#loc25))
#loc112 = loc("tmp3"(#loc26))
#loc113 = loc("tmp3"(#loc27))
#loc114 = loc("tmp3"(#loc28))
#loc115 = loc("tmp3"(#loc29))
#loc116 = loc("tmp3"(#loc30))
#loc117 = loc("tmp5"(#loc31))
#loc118 = loc("tmp5"(#loc32))
#loc119 = loc("tmp5"(#loc33))
#loc120 = loc("tmp5"(#loc34))
#loc121 = loc("tmp5"(#loc35))
#loc122 = loc("tmp5"(#loc36))
#loc123 = loc("tmp5"(#loc37))
#loc124 = loc("tmp5"(#loc38))
#loc125 = loc("tmp5"(#loc39))
#loc126 = loc("tmp5"(#loc40))
#loc127 = loc("tmp7"(#loc41))
#loc128 = loc("tmp7"(#loc42))
#loc129 = loc("tmp7"(#loc43))
#loc130 = loc("tmp7"(#loc44))
#loc131 = loc("tmp7"(#loc45))
#loc132 = loc("tmp8"(#loc46))
#loc133 = loc("tmp9"(#loc47))
#loc134 = loc("tmp10"(#loc48))
#loc135 = loc("tmp11"(#loc49))
#loc136 = loc("tmp12"(#loc50))
#loc137 = loc("tmp13"(#loc51))
#loc138 = loc("tmp13"(#loc52))
#loc139 = loc("tmp13"(#loc53))
#loc140 = loc("tmp13"(#loc54))
#loc141 = loc("tmp13"(#loc55))
#loc142 = loc("tmp14"(#loc56))
#loc143 = loc("tmp15"(#loc57))
#loc144 = loc("tmp16"(#loc58))
#loc145 = loc("tmp19"(#loc59))
#loc146 = loc("tmp20"(#loc60))
#loc147 = loc("tmp21"(#loc61))
#loc148 = loc("tmp24"(#loc62))
#loc149 = loc("_tmp23"(#loc63))
#loc150 = loc("_tmp23"(#loc64))
#loc151 = loc("tmp23"(#loc66))
#loc152 = loc("tmp23"(#loc67))
