#loc = loc("/NHNHOME/WORKSPACE/26msit001_A/jinhyeok/loop_TTT/lact/.cache_inductor_llm/qo/cqojyf3dy63sen2v4lyjhzsiejfqbhg26xec6iejxhpk2imfzlho.py":18:0)
#loc1 = loc(unknown)
#loc29 = loc("/NHNHOME/WORKSPACE/26msit001_A/jinhyeok/loop_TTT/lact/.cache_inductor_llm/qo/cqojyf3dy63sen2v4lyjhzsiejfqbhg26xec6iejxhpk2imfzlho.py":48:25)
#loc35 = loc("in_ptr0"(#loc))
#loc36 = loc("out_ptr0"(#loc))
#loc37 = loc("xnumel"(#loc))
#loc38 = loc("r0_numel"(#loc))
#loc64 = loc("tmp9"(#loc29))
#loc70 = loc(callsite(#loc1 at #loc64))
module {
  tt.func public @triton_red_fused_linalg_vector_norm_49(%in_ptr0: !tt.ptr<bf16> {tt.divisibility = 16 : i32} loc("in_ptr0"(#loc)), %out_ptr0: !tt.ptr<f32> {tt.divisibility = 16 : i32} loc("out_ptr0"(#loc)), %xnumel: i32 loc("xnumel"(#loc)), %r0_numel: i32 loc("r0_numel"(#loc))) attributes {noinline = false} {
    %c36864_i32 = arith.constant 36864 : i32 loc(#loc1)
    %c5_i32 = arith.constant 5 : i32 loc(#loc1)
    %cst = arith.constant dense<0.000000e+00> : tensor<1x2048xbf16> loc(#loc1)
    %c2048_i32 = arith.constant 2048 : i32 loc(#loc2)
    %c7373_i32 = arith.constant 7373 : i32 loc(#loc1)
    %c0_i32 = arith.constant 0 : i32 loc(#loc2)
    %cst_0 = arith.constant dense<36864> : tensor<1x2048xi32> loc(#loc1)
    %cst_1 = arith.constant dense<7373> : tensor<1x2048xi32> loc(#loc1)
    %cst_2 = arith.constant dense<0.000000e+00> : tensor<1x2048xf32> loc(#loc1)
    %xoffset = tt.get_program_id x : i32 loc(#loc39)
    %xmask = arith.cmpi slt, %xoffset, %xnumel : i32 loc(#loc40)
    %xmask_3 = tt.splat %xmask : i1 -> tensor<1x1xi1> loc(#loc40)
    %r0_base = tt.make_range {end = 2048 : i32, start = 0 : i32} : tensor<2048xi32> loc(#loc41)
    %r0_base_4 = tt.expand_dims %r0_base {axis = 0 : i32} : tensor<2048xi32> -> tensor<1x2048xi32> loc(#loc42)
    %x0 = arith.remsi %xoffset, %c5_i32 : i32 loc(#loc43)
    %x1 = arith.divsi %xoffset, %c5_i32 : i32 loc(#loc44)
    %_tmp9 = scf.for %r0_offset = %c0_i32 to %c7373_i32 step %c2048_i32 iter_args(%_tmp9_6 = %cst_2) -> (tensor<1x2048xf32>)  : i32 {
      %r0_index = tt.splat %r0_offset : i32 -> tensor<1x2048xi32> loc(#loc46)
      %r0_index_7 = arith.addi %r0_index, %r0_base_4 : tensor<1x2048xi32> loc(#loc46)
      %r0_mask = arith.cmpi slt, %r0_index_7, %cst_1 : tensor<1x2048xi32> loc(#loc47)
      %tmp0 = arith.muli %x0, %c7373_i32 : i32 loc(#loc48)
      %tmp0_8 = tt.splat %tmp0 : i32 -> tensor<1x2048xi32> loc(#loc66)
      %tmp0_9 = arith.addi %r0_index_7, %tmp0_8 : tensor<1x2048xi32> loc(#loc49)
      %tmp2 = arith.cmpi slt, %tmp0_9, %cst_0 : tensor<1x2048xi32> loc(#loc50)
      %tmp3 = arith.muli %x1, %c36864_i32 : i32 loc(#loc51)
      %tmp3_10 = arith.remsi %tmp0_9, %cst_0 : tensor<1x2048xi32> loc(#loc52)
      %tmp3_11 = tt.splat %tmp3 : i32 -> tensor<1x2048xi32> loc(#loc67)
      %tmp3_12 = arith.addi %tmp3_11, %tmp3_10 : tensor<1x2048xi32> loc(#loc53)
      %tmp3_13 = tt.splat %in_ptr0 : !tt.ptr<bf16> -> tensor<1x2048x!tt.ptr<bf16>> loc(#loc54)
      %tmp3_14 = tt.addptr %tmp3_13, %tmp3_12 : tensor<1x2048x!tt.ptr<bf16>>, tensor<1x2048xi32> loc(#loc54)
      %tmp3_15 = arith.andi %r0_mask, %tmp2 : tensor<1x2048xi1> loc(#loc55)
      %tmp3_16 = tt.splat %xmask : i1 -> tensor<1x2048xi1> loc(#loc68)
      %tmp3_17 = arith.andi %tmp3_15, %tmp3_16 : tensor<1x2048xi1> loc(#loc56)
      %tmp3_18 = tt.load %tmp3_14, %tmp3_17, %cst evictionPolicy = evict_last : tensor<1x2048x!tt.ptr<bf16>> loc(#loc57)
      %tmp3_19 = arith.extf %tmp3_18 : tensor<1x2048xbf16> to tensor<1x2048xf32> loc(#loc58)
      %tmp5 = arith.mulf %tmp3_19, %tmp3_19 : tensor<1x2048xf32> loc(#loc59)
      %tmp7 = arith.select %tmp2, %tmp5, %cst_2 : tensor<1x2048xi1>, tensor<1x2048xf32> loc(#loc60)
      %tmp10 = arith.addf %_tmp9_6, %tmp7 : tensor<1x2048xf32> loc(#loc61)
      %_tmp9_20 = arith.andi %r0_mask, %tmp3_16 : tensor<1x2048xi1> loc(#loc62)
      %_tmp9_21 = arith.select %_tmp9_20, %tmp10, %_tmp9_6 : tensor<1x2048xi1>, tensor<1x2048xf32> loc(#loc63)
      scf.yield %_tmp9_21 : tensor<1x2048xf32> loc(#loc27)
    } loc(#loc45)
    %tmp9 = "tt.reduce"(%_tmp9) <{axis = 1 : i32}> ({
    ^bb0(%tmp9_6: f32 loc(callsite(#loc1 at #loc64)), %tmp9_7: f32 loc(callsite(#loc1 at #loc64))):
      %tmp9_8 = arith.addf %tmp9_6, %tmp9_7 : f32 loc(#loc71)
      tt.reduce.return %tmp9_8 : f32 loc(#loc69)
    }) : (tensor<1x2048xf32>) -> tensor<1xf32> loc(#loc69)
    %tmp9_5 = tt.expand_dims %tmp9 {axis = 1 : i32} : tensor<1xf32> -> tensor<1x1xf32> loc(#loc65)
    %0 = tt.addptr %out_ptr0, %xoffset : !tt.ptr<f32>, i32 loc(#loc32)
    %1 = tt.splat %0 : !tt.ptr<f32> -> tensor<1x1x!tt.ptr<f32>> loc(#loc32)
    tt.store %1, %tmp9_5, %xmask_3 : tensor<1x1x!tt.ptr<f32>> loc(#loc33)
    tt.return loc(#loc34)
  } loc(#loc)
} loc(#loc)
#loc2 = loc("/NHNHOME/WORKSPACE/26msit001_A/jinhyeok/loop_TTT/lact/.cache_inductor_llm/qo/cqojyf3dy63sen2v4lyjhzsiejfqbhg26xec6iejxhpk2imfzlho.py":31:40)
#loc3 = loc("/NHNHOME/WORKSPACE/26msit001_A/jinhyeok/loop_TTT/lact/.cache_inductor_llm/qo/cqojyf3dy63sen2v4lyjhzsiejfqbhg26xec6iejxhpk2imfzlho.py":22:28)
#loc4 = loc("/NHNHOME/WORKSPACE/26msit001_A/jinhyeok/loop_TTT/lact/.cache_inductor_llm/qo/cqojyf3dy63sen2v4lyjhzsiejfqbhg26xec6iejxhpk2imfzlho.py":24:21)
#loc5 = loc("/NHNHOME/WORKSPACE/26msit001_A/jinhyeok/loop_TTT/lact/.cache_inductor_llm/qo/cqojyf3dy63sen2v4lyjhzsiejfqbhg26xec6iejxhpk2imfzlho.py":25:27)
#loc6 = loc("/NHNHOME/WORKSPACE/26msit001_A/jinhyeok/loop_TTT/lact/.cache_inductor_llm/qo/cqojyf3dy63sen2v4lyjhzsiejfqbhg26xec6iejxhpk2imfzlho.py":25:37)
#loc7 = loc("/NHNHOME/WORKSPACE/26msit001_A/jinhyeok/loop_TTT/lact/.cache_inductor_llm/qo/cqojyf3dy63sen2v4lyjhzsiejfqbhg26xec6iejxhpk2imfzlho.py":27:19)
#loc8 = loc("/NHNHOME/WORKSPACE/26msit001_A/jinhyeok/loop_TTT/lact/.cache_inductor_llm/qo/cqojyf3dy63sen2v4lyjhzsiejfqbhg26xec6iejxhpk2imfzlho.py":28:19)
#loc9 = loc("/NHNHOME/WORKSPACE/26msit001_A/jinhyeok/loop_TTT/lact/.cache_inductor_llm/qo/cqojyf3dy63sen2v4lyjhzsiejfqbhg26xec6iejxhpk2imfzlho.py":32:31)
#loc10 = loc("/NHNHOME/WORKSPACE/26msit001_A/jinhyeok/loop_TTT/lact/.cache_inductor_llm/qo/cqojyf3dy63sen2v4lyjhzsiejfqbhg26xec6iejxhpk2imfzlho.py":33:29)
#loc11 = loc("/NHNHOME/WORKSPACE/26msit001_A/jinhyeok/loop_TTT/lact/.cache_inductor_llm/qo/cqojyf3dy63sen2v4lyjhzsiejfqbhg26xec6iejxhpk2imfzlho.py":37:27)
#loc12 = loc("/NHNHOME/WORKSPACE/26msit001_A/jinhyeok/loop_TTT/lact/.cache_inductor_llm/qo/cqojyf3dy63sen2v4lyjhzsiejfqbhg26xec6iejxhpk2imfzlho.py":37:22)
#loc13 = loc("/NHNHOME/WORKSPACE/26msit001_A/jinhyeok/loop_TTT/lact/.cache_inductor_llm/qo/cqojyf3dy63sen2v4lyjhzsiejfqbhg26xec6iejxhpk2imfzlho.py":39:22)
#loc14 = loc("/NHNHOME/WORKSPACE/26msit001_A/jinhyeok/loop_TTT/lact/.cache_inductor_llm/qo/cqojyf3dy63sen2v4lyjhzsiejfqbhg26xec6iejxhpk2imfzlho.py":40:40)
#loc15 = loc("/NHNHOME/WORKSPACE/26msit001_A/jinhyeok/loop_TTT/lact/.cache_inductor_llm/qo/cqojyf3dy63sen2v4lyjhzsiejfqbhg26xec6iejxhpk2imfzlho.py":40:66)
#loc16 = loc("/NHNHOME/WORKSPACE/26msit001_A/jinhyeok/loop_TTT/lact/.cache_inductor_llm/qo/cqojyf3dy63sen2v4lyjhzsiejfqbhg26xec6iejxhpk2imfzlho.py":40:47)
#loc17 = loc("/NHNHOME/WORKSPACE/26msit001_A/jinhyeok/loop_TTT/lact/.cache_inductor_llm/qo/cqojyf3dy63sen2v4lyjhzsiejfqbhg26xec6iejxhpk2imfzlho.py":40:34)
#loc18 = loc("/NHNHOME/WORKSPACE/26msit001_A/jinhyeok/loop_TTT/lact/.cache_inductor_llm/qo/cqojyf3dy63sen2v4lyjhzsiejfqbhg26xec6iejxhpk2imfzlho.py":40:86)
#loc19 = loc("/NHNHOME/WORKSPACE/26msit001_A/jinhyeok/loop_TTT/lact/.cache_inductor_llm/qo/cqojyf3dy63sen2v4lyjhzsiejfqbhg26xec6iejxhpk2imfzlho.py":40:93)
#loc20 = loc("/NHNHOME/WORKSPACE/26msit001_A/jinhyeok/loop_TTT/lact/.cache_inductor_llm/qo/cqojyf3dy63sen2v4lyjhzsiejfqbhg26xec6iejxhpk2imfzlho.py":40:76)
#loc21 = loc("/NHNHOME/WORKSPACE/26msit001_A/jinhyeok/loop_TTT/lact/.cache_inductor_llm/qo/cqojyf3dy63sen2v4lyjhzsiejfqbhg26xec6iejxhpk2imfzlho.py":40:144)
#loc22 = loc("/NHNHOME/WORKSPACE/26msit001_A/jinhyeok/loop_TTT/lact/.cache_inductor_llm/qo/cqojyf3dy63sen2v4lyjhzsiejfqbhg26xec6iejxhpk2imfzlho.py":42:22)
#loc23 = loc("/NHNHOME/WORKSPACE/26msit001_A/jinhyeok/loop_TTT/lact/.cache_inductor_llm/qo/cqojyf3dy63sen2v4lyjhzsiejfqbhg26xec6iejxhpk2imfzlho.py":44:36)
#loc24 = loc("/NHNHOME/WORKSPACE/26msit001_A/jinhyeok/loop_TTT/lact/.cache_inductor_llm/qo/cqojyf3dy63sen2v4lyjhzsiejfqbhg26xec6iejxhpk2imfzlho.py":46:24)
#loc25 = loc("/NHNHOME/WORKSPACE/26msit001_A/jinhyeok/loop_TTT/lact/.cache_inductor_llm/qo/cqojyf3dy63sen2v4lyjhzsiejfqbhg26xec6iejxhpk2imfzlho.py":47:35)
#loc26 = loc("/NHNHOME/WORKSPACE/26msit001_A/jinhyeok/loop_TTT/lact/.cache_inductor_llm/qo/cqojyf3dy63sen2v4lyjhzsiejfqbhg26xec6iejxhpk2imfzlho.py":47:49)
#loc27 = loc("/NHNHOME/WORKSPACE/26msit001_A/jinhyeok/loop_TTT/lact/.cache_inductor_llm/qo/cqojyf3dy63sen2v4lyjhzsiejfqbhg26xec6iejxhpk2imfzlho.py":47:8)
#loc28 = loc("/NHNHOME/WORKSPACE/26msit001_A/jinhyeok/TTT_camera_embedding/.venv_llm/lib/python3.12/site-packages/triton/language/standard.py":291:36)
#loc30 = loc("/NHNHOME/WORKSPACE/26msit001_A/jinhyeok/TTT_camera_embedding/.venv_llm/lib/python3.12/site-packages/triton/language/standard.py":261:15)
#loc31 = loc("/NHNHOME/WORKSPACE/26msit001_A/jinhyeok/loop_TTT/lact/.cache_inductor_llm/qo/cqojyf3dy63sen2v4lyjhzsiejfqbhg26xec6iejxhpk2imfzlho.py":48:28)
#loc32 = loc("/NHNHOME/WORKSPACE/26msit001_A/jinhyeok/loop_TTT/lact/.cache_inductor_llm/qo/cqojyf3dy63sen2v4lyjhzsiejfqbhg26xec6iejxhpk2imfzlho.py":49:25)
#loc33 = loc("/NHNHOME/WORKSPACE/26msit001_A/jinhyeok/loop_TTT/lact/.cache_inductor_llm/qo/cqojyf3dy63sen2v4lyjhzsiejfqbhg26xec6iejxhpk2imfzlho.py":49:36)
#loc34 = loc("/NHNHOME/WORKSPACE/26msit001_A/jinhyeok/loop_TTT/lact/.cache_inductor_llm/qo/cqojyf3dy63sen2v4lyjhzsiejfqbhg26xec6iejxhpk2imfzlho.py":49:4)
#loc39 = loc("xoffset"(#loc3))
#loc40 = loc("xmask"(#loc4))
#loc41 = loc("r0_base"(#loc5))
#loc42 = loc("r0_base"(#loc6))
#loc43 = loc("x0"(#loc7))
#loc44 = loc("x1"(#loc8))
#loc45 = loc("_tmp9"(#loc2))
#loc46 = loc("r0_index"(#loc9))
#loc47 = loc("r0_mask"(#loc10))
#loc48 = loc("tmp0"(#loc11))
#loc49 = loc("tmp0"(#loc12))
#loc50 = loc("tmp2"(#loc13))
#loc51 = loc("tmp3"(#loc14))
#loc52 = loc("tmp3"(#loc15))
#loc53 = loc("tmp3"(#loc16))
#loc54 = loc("tmp3"(#loc17))
#loc55 = loc("tmp3"(#loc18))
#loc56 = loc("tmp3"(#loc19))
#loc57 = loc("tmp3"(#loc20))
#loc58 = loc("tmp3"(#loc21))
#loc59 = loc("tmp5"(#loc22))
#loc60 = loc("tmp7"(#loc23))
#loc61 = loc("tmp10"(#loc24))
#loc62 = loc("_tmp9"(#loc25))
#loc63 = loc("_tmp9"(#loc26))
#loc65 = loc("tmp9"(#loc31))
#loc66 = loc(fused[#loc49, #loc48])
#loc67 = loc(fused[#loc53, #loc51])
#loc68 = loc(fused[#loc56, #loc40])
#loc69 = loc(callsite(#loc28 at #loc64))
#loc71 = loc(callsite(#loc30 at #loc69))
