#loc = loc("/NHNHOME/WORKSPACE/26msit001_A/jinhyeok/loop_TTT/lact/.cache_inductor_llm/ys/cysiyxdvhihicidvy73errlnzafy5kqvvtkbnc6tngctckgmk2r4.py":18:0)
#loc1 = loc(unknown)
#loc45 = loc("/NHNHOME/WORKSPACE/26msit001_A/jinhyeok/loop_TTT/lact/.cache_inductor_llm/ys/cysiyxdvhihicidvy73errlnzafy5kqvvtkbnc6tngctckgmk2r4.py":61:27)
#loc48 = loc("/NHNHOME/WORKSPACE/26msit001_A/jinhyeok/loop_TTT/lact/.cache_inductor_llm/ys/cysiyxdvhihicidvy73errlnzafy5kqvvtkbnc6tngctckgmk2r4.py":62:27)
#loc72 = loc("in_out_ptr0"(#loc))
#loc73 = loc("in_ptr0"(#loc))
#loc74 = loc("in_ptr1"(#loc))
#loc75 = loc("in_ptr2"(#loc))
#loc76 = loc("in_ptr3"(#loc))
#loc77 = loc("in_ptr4"(#loc))
#loc78 = loc("out_ptr0"(#loc))
#loc79 = loc("out_ptr2"(#loc))
#loc80 = loc("xnumel"(#loc))
#loc81 = loc("r0_numel"(#loc))
#loc124 = loc("tmp12"(#loc45))
#loc126 = loc("tmp20"(#loc48))
#loc145 = loc(callsite(#loc1 at #loc124))
#loc147 = loc(callsite(#loc1 at #loc126))
module {
  tt.func public @triton_red_fused__to_copy_add_div_eq_masked_fill_mul_neg_sum_transpose_21(%in_out_ptr0: !tt.ptr<f32> {tt.divisibility = 16 : i32} loc("in_out_ptr0"(#loc)), %in_ptr0: !tt.ptr<bf16> {tt.divisibility = 16 : i32} loc("in_ptr0"(#loc)), %in_ptr1: !tt.ptr<bf16> {tt.divisibility = 16 : i32} loc("in_ptr1"(#loc)), %in_ptr2: !tt.ptr<f32> {tt.divisibility = 16 : i32} loc("in_ptr2"(#loc)), %in_ptr3: !tt.ptr<f32> {tt.divisibility = 16 : i32} loc("in_ptr3"(#loc)), %in_ptr4: !tt.ptr<f32> {tt.divisibility = 16 : i32} loc("in_ptr4"(#loc)), %out_ptr0: !tt.ptr<f32> {tt.divisibility = 16 : i32} loc("out_ptr0"(#loc)), %out_ptr2: !tt.ptr<bf16> {tt.divisibility = 16 : i32} loc("out_ptr2"(#loc)), %xnumel: i32 {tt.divisibility = 16 : i32} loc("xnumel"(#loc)), %r0_numel: i32 {tt.divisibility = 16 : i32} loc("r0_numel"(#loc))) attributes {noinline = false} {
    %cst = arith.constant dense<0.000000e+00> : tensor<8x256xbf16> loc(#loc1)
    %cst_0 = arith.constant dense<0.000000e+00> : tensor<8x1xf32> loc(#loc1)
    %cst_1 = arith.constant dense<9.99999974E-6> : tensor<8x1xf32> loc(#loc1)
    %cst_2 = arith.constant dense<36864> : tensor<8x1xi32> loc(#loc1)
    %cst_3 = arith.constant dense<192> : tensor<1x256xi32> loc(#loc1)
    %cst_4 = arith.constant dense<0.000000e+00> : tensor<8x256xf32> loc(#loc1)
    %cst_5 = arith.constant dense<192> : tensor<8x1xi32> loc(#loc1)
    %xmask = arith.constant dense<1536> : tensor<8x1xi32> loc(#loc82)
    %c8_i32 = arith.constant 8 : i32 loc(#loc1)
    %xoffset = tt.get_program_id x : i32 loc(#loc83)
    %xoffset_6 = arith.muli %xoffset, %c8_i32 : i32 loc(#loc84)
    %xindex = tt.make_range {end = 8 : i32, start = 0 : i32} : tensor<8xi32> loc(#loc85)
    %xindex_7 = tt.expand_dims %xindex {axis = 1 : i32} : tensor<8xi32> -> tensor<8x1xi32> loc(#loc86)
    %xindex_8 = tt.splat %xoffset_6 : i32 -> tensor<8x1xi32> loc(#loc87)
    %xindex_9 = arith.addi %xindex_8, %xindex_7 : tensor<8x1xi32> loc(#loc87)
    %xmask_10 = arith.cmpi slt, %xindex_9, %xmask : tensor<8x1xi32> loc(#loc82)
    %r0_base = tt.make_range {end = 256 : i32, start = 0 : i32} : tensor<256xi32> loc(#loc88)
    %r0_base_11 = tt.expand_dims %r0_base {axis = 0 : i32} : tensor<256xi32> -> tensor<1x256xi32> loc(#loc89)
    %x0 = arith.remsi %xindex_9, %cst_5 : tensor<8x1xi32> loc(#loc90)
    %x1 = arith.divsi %xindex_9, %cst_5 : tensor<8x1xi32> loc(#loc91)
    %tmp6 = tt.splat %in_ptr3 : !tt.ptr<f32> -> tensor<8x1x!tt.ptr<f32>> loc(#loc92)
    %tmp6_12 = tt.addptr %tmp6, %xindex_9 : tensor<8x1x!tt.ptr<f32>>, tensor<8x1xi32> loc(#loc92)
    %tmp6_13 = tt.load %tmp6_12, %xmask_10 evictionPolicy = evict_last : tensor<8x1x!tt.ptr<f32>> loc(#loc93)
    %tmp14 = tt.splat %in_ptr4 : !tt.ptr<f32> -> tensor<8x1x!tt.ptr<f32>> loc(#loc94)
    %tmp14_14 = tt.addptr %tmp14, %xindex_9 : tensor<8x1x!tt.ptr<f32>>, tensor<8x1xi32> loc(#loc94)
    %tmp14_15 = tt.load %tmp14_14, %xmask_10 evictionPolicy = evict_last : tensor<8x1x!tt.ptr<f32>> loc(#loc95)
    %r0_mask = arith.cmpi slt, %r0_base_11, %cst_3 : tensor<1x256xi32> loc(#loc96)
    %tmp0 = arith.muli %r0_base_11, %cst_3 : tensor<1x256xi32> loc(#loc97)
    %tmp0_16 = tt.broadcast %x0 : tensor<8x1xi32> -> tensor<8x256xi32> loc(#loc98)
    %tmp0_17 = tt.broadcast %tmp0 : tensor<1x256xi32> -> tensor<8x256xi32> loc(#loc98)
    %tmp0_18 = arith.addi %tmp0_16, %tmp0_17 : tensor<8x256xi32> loc(#loc98)
    %tmp0_19 = arith.muli %x1, %cst_2 : tensor<8x1xi32> loc(#loc99)
    %tmp0_20 = tt.broadcast %tmp0_19 : tensor<8x1xi32> -> tensor<8x256xi32> loc(#loc100)
    %tmp0_21 = arith.addi %tmp0_18, %tmp0_20 : tensor<8x256xi32> loc(#loc100)
    %tmp0_22 = tt.splat %in_ptr0 : !tt.ptr<bf16> -> tensor<8x256x!tt.ptr<bf16>> loc(#loc101)
    %tmp0_23 = tt.addptr %tmp0_22, %tmp0_21 : tensor<8x256x!tt.ptr<bf16>>, tensor<8x256xi32> loc(#loc101)
    %tmp0_24 = tt.broadcast %r0_mask : tensor<1x256xi1> -> tensor<8x256xi1> loc(#loc102)
    %tmp0_25 = tt.broadcast %xmask_10 : tensor<8x1xi1> -> tensor<8x256xi1> loc(#loc102)
    %tmp0_26 = arith.andi %tmp0_24, %tmp0_25 : tensor<8x256xi1> loc(#loc102)
    %tmp0_27 = tt.load %tmp0_23, %tmp0_26, %cst evictionPolicy = evict_last : tensor<8x256x!tt.ptr<bf16>> loc(#loc103)
    %tmp0_28 = arith.extf %tmp0_27 : tensor<8x256xbf16> to tensor<8x256xf32> loc(#loc104)
    %tmp2 = arith.muli %xindex_9, %cst_5 : tensor<8x1xi32> loc(#loc105)
    %tmp2_29 = tt.broadcast %r0_base_11 : tensor<1x256xi32> -> tensor<8x256xi32> loc(#loc106)
    %tmp2_30 = tt.broadcast %tmp2 : tensor<8x1xi32> -> tensor<8x256xi32> loc(#loc106)
    %tmp2_31 = arith.addi %tmp2_29, %tmp2_30 : tensor<8x256xi32> loc(#loc106)
    %tmp2_32 = tt.splat %in_ptr1 : !tt.ptr<bf16> -> tensor<8x256x!tt.ptr<bf16>> loc(#loc107)
    %tmp2_33 = tt.addptr %tmp2_32, %tmp2_31 : tensor<8x256x!tt.ptr<bf16>>, tensor<8x256xi32> loc(#loc107)
    %tmp2_34 = tt.load %tmp2_33, %tmp0_26, %cst evictionPolicy = evict_last : tensor<8x256x!tt.ptr<bf16>> loc(#loc108)
    %tmp2_35 = arith.extf %tmp2_34 : tensor<8x256xbf16> to tensor<8x256xf32> loc(#loc109)
    %tmp5 = tt.splat %in_ptr2 : !tt.ptr<f32> -> tensor<8x256x!tt.ptr<f32>> loc(#loc110)
    %tmp5_36 = tt.addptr %tmp5, %tmp2_31 : tensor<8x256x!tt.ptr<f32>>, tensor<8x256xi32> loc(#loc110)
    %tmp5_37 = tt.load %tmp5_36, %tmp0_26, %cst_4 evictionPolicy = evict_last : tensor<8x256x!tt.ptr<f32>> loc(#loc111)
    %tmp4 = arith.addf %tmp0_28, %tmp2_35 : tensor<8x256xf32> loc(#loc112)
    %tmp8 = arith.addf %tmp6_13, %cst_1 : tensor<8x1xf32> loc(#loc113)
    %tmp9 = tt.broadcast %tmp8 : tensor<8x1xf32> -> tensor<8x256xf32> loc(#loc114)
    %tmp9_38 = arith.divf %tmp5_37, %tmp9 : tensor<8x256xf32> loc(#loc114)
    %tmp10 = arith.mulf %tmp4, %tmp9_38 : tensor<8x256xf32> loc(#loc115)
    %tmp13 = arith.addf %tmp10, %cst_4 : tensor<8x256xf32> loc(#loc116)
    %_tmp12 = arith.select %tmp0_26, %tmp13, %cst_4 : tensor<8x256xi1>, tensor<8x256xf32> loc(#loc117)
    %tmp15 = tt.broadcast %tmp14_15 : tensor<8x1xf32> -> tensor<8x256xf32> loc(#loc118)
    %tmp15_39 = arith.mulf %tmp4, %tmp15 : tensor<8x256xf32> loc(#loc118)
    %tmp16 = arith.subf %cst_4, %tmp15_39 : tensor<8x256xf32> loc(#loc119)
    %tmp17 = arith.divf %tmp9_38, %tmp9 : tensor<8x256xf32> loc(#loc120)
    %tmp18 = arith.mulf %tmp16, %tmp17 : tensor<8x256xf32> loc(#loc121)
    %tmp21 = arith.addf %tmp18, %cst_4 : tensor<8x256xf32> loc(#loc122)
    %_tmp20 = arith.select %tmp0_26, %tmp21, %cst_4 : tensor<8x256xi1>, tensor<8x256xf32> loc(#loc123)
    %tmp12 = "tt.reduce"(%_tmp12) <{axis = 1 : i32}> ({
    ^bb0(%tmp12_49: f32 loc(callsite(#loc1 at #loc124)), %tmp12_50: f32 loc(callsite(#loc1 at #loc124))):
      %tmp12_51 = arith.addf %tmp12_49, %tmp12_50 : f32 loc(#loc148)
      tt.reduce.return %tmp12_51 : f32 loc(#loc144)
    }) : (tensor<8x256xf32>) -> tensor<8xf32> loc(#loc144)
    %tmp12_40 = tt.expand_dims %tmp12 {axis = 1 : i32} : tensor<8xf32> -> tensor<8x1xf32> loc(#loc125)
    %tmp20 = "tt.reduce"(%_tmp20) <{axis = 1 : i32}> ({
    ^bb0(%tmp20_49: f32 loc(callsite(#loc1 at #loc126)), %tmp20_50: f32 loc(callsite(#loc1 at #loc126))):
      %tmp20_51 = arith.addf %tmp20_49, %tmp20_50 : f32 loc(#loc149)
      tt.reduce.return %tmp20_51 : f32 loc(#loc146)
    }) : (tensor<8x256xf32>) -> tensor<8xf32> loc(#loc146)
    %tmp20_41 = tt.expand_dims %tmp20 {axis = 1 : i32} : tensor<8xf32> -> tensor<8x1xf32> loc(#loc127)
    %0 = tt.splat %out_ptr0 : !tt.ptr<f32> -> tensor<8x1x!tt.ptr<f32>> loc(#loc50)
    %1 = tt.addptr %0, %xindex_9 : tensor<8x1x!tt.ptr<f32>>, tensor<8x1xi32> loc(#loc50)
    tt.store %1, %tmp12_40, %xmask_10 : tensor<8x1x!tt.ptr<f32>> loc(#loc51)
    %tmp22 = tt.splat %in_out_ptr0 : !tt.ptr<f32> -> tensor<8x256x!tt.ptr<f32>> loc(#loc128)
    %tmp22_42 = tt.addptr %tmp22, %tmp2_31 : tensor<8x256x!tt.ptr<f32>>, tensor<8x256xi32> loc(#loc128)
    %tmp22_43 = tt.load %tmp22_42, %tmp0_26, %cst_4 evictionPolicy = evict_first : tensor<8x256x!tt.ptr<f32>> loc(#loc129)
    %tmp23 = tt.load %tmp0_23, %tmp0_26, %cst evictionPolicy = evict_first : tensor<8x256x!tt.ptr<bf16>> loc(#loc130)
    %tmp23_44 = arith.extf %tmp23 : tensor<8x256xbf16> to tensor<8x256xf32> loc(#loc131)
    %tmp25 = tt.load %tmp2_33, %tmp0_26, %cst evictionPolicy = evict_first : tensor<8x256x!tt.ptr<bf16>> loc(#loc132)
    %tmp25_45 = arith.extf %tmp25 : tensor<8x256xbf16> to tensor<8x256xf32> loc(#loc133)
    %tmp35 = tt.load %tmp5_36, %tmp0_26, %cst_4 evictionPolicy = evict_first : tensor<8x256x!tt.ptr<f32>> loc(#loc134)
    %tmp27 = arith.addf %tmp23_44, %tmp25_45 : tensor<8x256xf32> loc(#loc135)
    %tmp28 = arith.mulf %tmp27, %tmp15 : tensor<8x256xf32> loc(#loc136)
    %tmp31 = arith.divf %tmp28, %tmp9 : tensor<8x256xf32> loc(#loc137)
    %tmp32 = arith.addf %tmp22_43, %tmp31 : tensor<8x256xf32> loc(#loc138)
    %tmp34 = arith.cmpf oeq, %tmp6_13, %cst_0 : tensor<8x1xf32> loc(#loc139)
    %tmp36 = tt.broadcast %tmp6_13 : tensor<8x1xf32> -> tensor<8x256xf32> loc(#loc140)
    %tmp36_46 = arith.divf %tmp35, %tmp36 : tensor<8x256xf32> loc(#loc140)
    %tmp37 = tt.broadcast %tmp34 : tensor<8x1xi1> -> tensor<8x256xi1> loc(#loc141)
    %tmp37_47 = arith.select %tmp37, %cst_4, %tmp36_46 : tensor<8x256xi1>, tensor<8x256xf32> loc(#loc141)
    %tmp38 = tt.broadcast %tmp20_41 : tensor<8x1xf32> -> tensor<8x256xf32> loc(#loc142)
    %tmp38_48 = arith.mulf %tmp38, %tmp37_47 : tensor<8x256xf32> loc(#loc142)
    %tmp39 = arith.addf %tmp32, %tmp38_48 : tensor<8x256xf32> loc(#loc143)
    tt.store %tmp22_42, %tmp39, %tmp0_26 : tensor<8x256x!tt.ptr<f32>> loc(#loc68)
    %2 = tt.splat %out_ptr2 : !tt.ptr<bf16> -> tensor<8x256x!tt.ptr<bf16>> loc(#loc69)
    %3 = tt.addptr %2, %tmp2_31 : tensor<8x256x!tt.ptr<bf16>>, tensor<8x256xi32> loc(#loc69)
    %4 = arith.truncf %tmp39 : tensor<8x256xf32> to tensor<8x256xbf16> loc(#loc70)
    tt.store %3, %4, %tmp0_26 : tensor<8x256x!tt.ptr<bf16>> loc(#loc70)
    tt.return loc(#loc71)
  } loc(#loc)
} loc(#loc)
#loc2 = loc("/NHNHOME/WORKSPACE/26msit001_A/jinhyeok/loop_TTT/lact/.cache_inductor_llm/ys/cysiyxdvhihicidvy73errlnzafy5kqvvtkbnc6tngctckgmk2r4.py":25:21)
#loc3 = loc("/NHNHOME/WORKSPACE/26msit001_A/jinhyeok/loop_TTT/lact/.cache_inductor_llm/ys/cysiyxdvhihicidvy73errlnzafy5kqvvtkbnc6tngctckgmk2r4.py":23:28)
#loc4 = loc("/NHNHOME/WORKSPACE/26msit001_A/jinhyeok/loop_TTT/lact/.cache_inductor_llm/ys/cysiyxdvhihicidvy73errlnzafy5kqvvtkbnc6tngctckgmk2r4.py":23:33)
#loc5 = loc("/NHNHOME/WORKSPACE/26msit001_A/jinhyeok/loop_TTT/lact/.cache_inductor_llm/ys/cysiyxdvhihicidvy73errlnzafy5kqvvtkbnc6tngctckgmk2r4.py":24:36)
#loc6 = loc("/NHNHOME/WORKSPACE/26msit001_A/jinhyeok/loop_TTT/lact/.cache_inductor_llm/ys/cysiyxdvhihicidvy73errlnzafy5kqvvtkbnc6tngctckgmk2r4.py":24:44)
#loc7 = loc("/NHNHOME/WORKSPACE/26msit001_A/jinhyeok/loop_TTT/lact/.cache_inductor_llm/ys/cysiyxdvhihicidvy73errlnzafy5kqvvtkbnc6tngctckgmk2r4.py":24:23)
#loc8 = loc("/NHNHOME/WORKSPACE/26msit001_A/jinhyeok/loop_TTT/lact/.cache_inductor_llm/ys/cysiyxdvhihicidvy73errlnzafy5kqvvtkbnc6tngctckgmk2r4.py":26:27)
#loc9 = loc("/NHNHOME/WORKSPACE/26msit001_A/jinhyeok/loop_TTT/lact/.cache_inductor_llm/ys/cysiyxdvhihicidvy73errlnzafy5kqvvtkbnc6tngctckgmk2r4.py":26:37)
#loc10 = loc("/NHNHOME/WORKSPACE/26msit001_A/jinhyeok/loop_TTT/lact/.cache_inductor_llm/ys/cysiyxdvhihicidvy73errlnzafy5kqvvtkbnc6tngctckgmk2r4.py":28:19)
#loc11 = loc("/NHNHOME/WORKSPACE/26msit001_A/jinhyeok/loop_TTT/lact/.cache_inductor_llm/ys/cysiyxdvhihicidvy73errlnzafy5kqvvtkbnc6tngctckgmk2r4.py":29:19)
#loc12 = loc("/NHNHOME/WORKSPACE/26msit001_A/jinhyeok/loop_TTT/lact/.cache_inductor_llm/ys/cysiyxdvhihicidvy73errlnzafy5kqvvtkbnc6tngctckgmk2r4.py":31:30)
#loc13 = loc("/NHNHOME/WORKSPACE/26msit001_A/jinhyeok/loop_TTT/lact/.cache_inductor_llm/ys/cysiyxdvhihicidvy73errlnzafy5kqvvtkbnc6tngctckgmk2r4.py":31:35)
#loc14 = loc("/NHNHOME/WORKSPACE/26msit001_A/jinhyeok/loop_TTT/lact/.cache_inductor_llm/ys/cysiyxdvhihicidvy73errlnzafy5kqvvtkbnc6tngctckgmk2r4.py":33:31)
#loc15 = loc("/NHNHOME/WORKSPACE/26msit001_A/jinhyeok/loop_TTT/lact/.cache_inductor_llm/ys/cysiyxdvhihicidvy73errlnzafy5kqvvtkbnc6tngctckgmk2r4.py":33:36)
#loc16 = loc("/NHNHOME/WORKSPACE/26msit001_A/jinhyeok/loop_TTT/lact/.cache_inductor_llm/ys/cysiyxdvhihicidvy73errlnzafy5kqvvtkbnc6tngctckgmk2r4.py":37:29)
#loc17 = loc("/NHNHOME/WORKSPACE/26msit001_A/jinhyeok/loop_TTT/lact/.cache_inductor_llm/ys/cysiyxdvhihicidvy73errlnzafy5kqvvtkbnc6tngctckgmk2r4.py":41:43)
#loc18 = loc("/NHNHOME/WORKSPACE/26msit001_A/jinhyeok/loop_TTT/lact/.cache_inductor_llm/ys/cysiyxdvhihicidvy73errlnzafy5kqvvtkbnc6tngctckgmk2r4.py":41:39)
#loc19 = loc("/NHNHOME/WORKSPACE/26msit001_A/jinhyeok/loop_TTT/lact/.cache_inductor_llm/ys/cysiyxdvhihicidvy73errlnzafy5kqvvtkbnc6tngctckgmk2r4.py":41:56)
#loc20 = loc("/NHNHOME/WORKSPACE/26msit001_A/jinhyeok/loop_TTT/lact/.cache_inductor_llm/ys/cysiyxdvhihicidvy73errlnzafy5kqvvtkbnc6tngctckgmk2r4.py":41:50)
#loc21 = loc("/NHNHOME/WORKSPACE/26msit001_A/jinhyeok/loop_TTT/lact/.cache_inductor_llm/ys/cysiyxdvhihicidvy73errlnzafy5kqvvtkbnc6tngctckgmk2r4.py":41:34)
#loc22 = loc("/NHNHOME/WORKSPACE/26msit001_A/jinhyeok/loop_TTT/lact/.cache_inductor_llm/ys/cysiyxdvhihicidvy73errlnzafy5kqvvtkbnc6tngctckgmk2r4.py":41:71)
#loc23 = loc("/NHNHOME/WORKSPACE/26msit001_A/jinhyeok/loop_TTT/lact/.cache_inductor_llm/ys/cysiyxdvhihicidvy73errlnzafy5kqvvtkbnc6tngctckgmk2r4.py":41:61)
#loc24 = loc("/NHNHOME/WORKSPACE/26msit001_A/jinhyeok/loop_TTT/lact/.cache_inductor_llm/ys/cysiyxdvhihicidvy73errlnzafy5kqvvtkbnc6tngctckgmk2r4.py":41:122)
#loc25 = loc("/NHNHOME/WORKSPACE/26msit001_A/jinhyeok/loop_TTT/lact/.cache_inductor_llm/ys/cysiyxdvhihicidvy73errlnzafy5kqvvtkbnc6tngctckgmk2r4.py":42:45)
#loc26 = loc("/NHNHOME/WORKSPACE/26msit001_A/jinhyeok/loop_TTT/lact/.cache_inductor_llm/ys/cysiyxdvhihicidvy73errlnzafy5kqvvtkbnc6tngctckgmk2r4.py":42:41)
#loc27 = loc("/NHNHOME/WORKSPACE/26msit001_A/jinhyeok/loop_TTT/lact/.cache_inductor_llm/ys/cysiyxdvhihicidvy73errlnzafy5kqvvtkbnc6tngctckgmk2r4.py":42:34)
#loc28 = loc("/NHNHOME/WORKSPACE/26msit001_A/jinhyeok/loop_TTT/lact/.cache_inductor_llm/ys/cysiyxdvhihicidvy73errlnzafy5kqvvtkbnc6tngctckgmk2r4.py":42:50)
#loc29 = loc("/NHNHOME/WORKSPACE/26msit001_A/jinhyeok/loop_TTT/lact/.cache_inductor_llm/ys/cysiyxdvhihicidvy73errlnzafy5kqvvtkbnc6tngctckgmk2r4.py":42:111)
#loc30 = loc("/NHNHOME/WORKSPACE/26msit001_A/jinhyeok/loop_TTT/lact/.cache_inductor_llm/ys/cysiyxdvhihicidvy73errlnzafy5kqvvtkbnc6tngctckgmk2r4.py":43:34)
#loc31 = loc("/NHNHOME/WORKSPACE/26msit001_A/jinhyeok/loop_TTT/lact/.cache_inductor_llm/ys/cysiyxdvhihicidvy73errlnzafy5kqvvtkbnc6tngctckgmk2r4.py":43:50)
#loc32 = loc("/NHNHOME/WORKSPACE/26msit001_A/jinhyeok/loop_TTT/lact/.cache_inductor_llm/ys/cysiyxdvhihicidvy73errlnzafy5kqvvtkbnc6tngctckgmk2r4.py":46:22)
#loc33 = loc("/NHNHOME/WORKSPACE/26msit001_A/jinhyeok/loop_TTT/lact/.cache_inductor_llm/ys/cysiyxdvhihicidvy73errlnzafy5kqvvtkbnc6tngctckgmk2r4.py":48:22)
#loc34 = loc("/NHNHOME/WORKSPACE/26msit001_A/jinhyeok/loop_TTT/lact/.cache_inductor_llm/ys/cysiyxdvhihicidvy73errlnzafy5kqvvtkbnc6tngctckgmk2r4.py":49:23)
#loc35 = loc("/NHNHOME/WORKSPACE/26msit001_A/jinhyeok/loop_TTT/lact/.cache_inductor_llm/ys/cysiyxdvhihicidvy73errlnzafy5kqvvtkbnc6tngctckgmk2r4.py":50:23)
#loc36 = loc("/NHNHOME/WORKSPACE/26msit001_A/jinhyeok/loop_TTT/lact/.cache_inductor_llm/ys/cysiyxdvhihicidvy73errlnzafy5kqvvtkbnc6tngctckgmk2r4.py":52:25)
#loc37 = loc("/NHNHOME/WORKSPACE/26msit001_A/jinhyeok/loop_TTT/lact/.cache_inductor_llm/ys/cysiyxdvhihicidvy73errlnzafy5kqvvtkbnc6tngctckgmk2r4.py":53:50)
#loc38 = loc("/NHNHOME/WORKSPACE/26msit001_A/jinhyeok/loop_TTT/lact/.cache_inductor_llm/ys/cysiyxdvhihicidvy73errlnzafy5kqvvtkbnc6tngctckgmk2r4.py":54:23)
#loc39 = loc("/NHNHOME/WORKSPACE/26msit001_A/jinhyeok/loop_TTT/lact/.cache_inductor_llm/ys/cysiyxdvhihicidvy73errlnzafy5kqvvtkbnc6tngctckgmk2r4.py":55:17)
#loc40 = loc("/NHNHOME/WORKSPACE/26msit001_A/jinhyeok/loop_TTT/lact/.cache_inductor_llm/ys/cysiyxdvhihicidvy73errlnzafy5kqvvtkbnc6tngctckgmk2r4.py":56:24)
#loc41 = loc("/NHNHOME/WORKSPACE/26msit001_A/jinhyeok/loop_TTT/lact/.cache_inductor_llm/ys/cysiyxdvhihicidvy73errlnzafy5kqvvtkbnc6tngctckgmk2r4.py":57:24)
#loc42 = loc("/NHNHOME/WORKSPACE/26msit001_A/jinhyeok/loop_TTT/lact/.cache_inductor_llm/ys/cysiyxdvhihicidvy73errlnzafy5kqvvtkbnc6tngctckgmk2r4.py":59:25)
#loc43 = loc("/NHNHOME/WORKSPACE/26msit001_A/jinhyeok/loop_TTT/lact/.cache_inductor_llm/ys/cysiyxdvhihicidvy73errlnzafy5kqvvtkbnc6tngctckgmk2r4.py":60:50)
#loc44 = loc("/NHNHOME/WORKSPACE/26msit001_A/jinhyeok/TTT_camera_embedding/.venv_llm/lib/python3.12/site-packages/triton/language/standard.py":291:36)
#loc46 = loc("/NHNHOME/WORKSPACE/26msit001_A/jinhyeok/TTT_camera_embedding/.venv_llm/lib/python3.12/site-packages/triton/language/standard.py":261:15)
#loc47 = loc("/NHNHOME/WORKSPACE/26msit001_A/jinhyeok/loop_TTT/lact/.cache_inductor_llm/ys/cysiyxdvhihicidvy73errlnzafy5kqvvtkbnc6tngctckgmk2r4.py":61:30)
#loc49 = loc("/NHNHOME/WORKSPACE/26msit001_A/jinhyeok/loop_TTT/lact/.cache_inductor_llm/ys/cysiyxdvhihicidvy73errlnzafy5kqvvtkbnc6tngctckgmk2r4.py":62:30)
#loc50 = loc("/NHNHOME/WORKSPACE/26msit001_A/jinhyeok/loop_TTT/lact/.cache_inductor_llm/ys/cysiyxdvhihicidvy73errlnzafy5kqvvtkbnc6tngctckgmk2r4.py":63:25)
#loc51 = loc("/NHNHOME/WORKSPACE/26msit001_A/jinhyeok/loop_TTT/lact/.cache_inductor_llm/ys/cysiyxdvhihicidvy73errlnzafy5kqvvtkbnc6tngctckgmk2r4.py":63:37)
#loc52 = loc("/NHNHOME/WORKSPACE/26msit001_A/jinhyeok/loop_TTT/lact/.cache_inductor_llm/ys/cysiyxdvhihicidvy73errlnzafy5kqvvtkbnc6tngctckgmk2r4.py":70:39)
#loc53 = loc("/NHNHOME/WORKSPACE/26msit001_A/jinhyeok/loop_TTT/lact/.cache_inductor_llm/ys/cysiyxdvhihicidvy73errlnzafy5kqvvtkbnc6tngctckgmk2r4.py":70:55)
#loc54 = loc("/NHNHOME/WORKSPACE/26msit001_A/jinhyeok/loop_TTT/lact/.cache_inductor_llm/ys/cysiyxdvhihicidvy73errlnzafy5kqvvtkbnc6tngctckgmk2r4.py":71:62)
#loc55 = loc("/NHNHOME/WORKSPACE/26msit001_A/jinhyeok/loop_TTT/lact/.cache_inductor_llm/ys/cysiyxdvhihicidvy73errlnzafy5kqvvtkbnc6tngctckgmk2r4.py":71:124)
#loc56 = loc("/NHNHOME/WORKSPACE/26msit001_A/jinhyeok/loop_TTT/lact/.cache_inductor_llm/ys/cysiyxdvhihicidvy73errlnzafy5kqvvtkbnc6tngctckgmk2r4.py":72:51)
#loc57 = loc("/NHNHOME/WORKSPACE/26msit001_A/jinhyeok/loop_TTT/lact/.cache_inductor_llm/ys/cysiyxdvhihicidvy73errlnzafy5kqvvtkbnc6tngctckgmk2r4.py":72:113)
#loc58 = loc("/NHNHOME/WORKSPACE/26msit001_A/jinhyeok/loop_TTT/lact/.cache_inductor_llm/ys/cysiyxdvhihicidvy73errlnzafy5kqvvtkbnc6tngctckgmk2r4.py":73:51)
#loc59 = loc("/NHNHOME/WORKSPACE/26msit001_A/jinhyeok/loop_TTT/lact/.cache_inductor_llm/ys/cysiyxdvhihicidvy73errlnzafy5kqvvtkbnc6tngctckgmk2r4.py":76:24)
#loc60 = loc("/NHNHOME/WORKSPACE/26msit001_A/jinhyeok/loop_TTT/lact/.cache_inductor_llm/ys/cysiyxdvhihicidvy73errlnzafy5kqvvtkbnc6tngctckgmk2r4.py":77:24)
#loc61 = loc("/NHNHOME/WORKSPACE/26msit001_A/jinhyeok/loop_TTT/lact/.cache_inductor_llm/ys/cysiyxdvhihicidvy73errlnzafy5kqvvtkbnc6tngctckgmk2r4.py":80:25)
#loc62 = loc("/NHNHOME/WORKSPACE/26msit001_A/jinhyeok/loop_TTT/lact/.cache_inductor_llm/ys/cysiyxdvhihicidvy73errlnzafy5kqvvtkbnc6tngctckgmk2r4.py":81:24)
#loc63 = loc("/NHNHOME/WORKSPACE/26msit001_A/jinhyeok/loop_TTT/lact/.cache_inductor_llm/ys/cysiyxdvhihicidvy73errlnzafy5kqvvtkbnc6tngctckgmk2r4.py":83:24)
#loc64 = loc("/NHNHOME/WORKSPACE/26msit001_A/jinhyeok/loop_TTT/lact/.cache_inductor_llm/ys/cysiyxdvhihicidvy73errlnzafy5kqvvtkbnc6tngctckgmk2r4.py":84:25)
#loc65 = loc("/NHNHOME/WORKSPACE/26msit001_A/jinhyeok/loop_TTT/lact/.cache_inductor_llm/ys/cysiyxdvhihicidvy73errlnzafy5kqvvtkbnc6tngctckgmk2r4.py":85:39)
#loc66 = loc("/NHNHOME/WORKSPACE/26msit001_A/jinhyeok/loop_TTT/lact/.cache_inductor_llm/ys/cysiyxdvhihicidvy73errlnzafy5kqvvtkbnc6tngctckgmk2r4.py":86:24)
#loc67 = loc("/NHNHOME/WORKSPACE/26msit001_A/jinhyeok/loop_TTT/lact/.cache_inductor_llm/ys/cysiyxdvhihicidvy73errlnzafy5kqvvtkbnc6tngctckgmk2r4.py":87:24)
#loc68 = loc("/NHNHOME/WORKSPACE/26msit001_A/jinhyeok/loop_TTT/lact/.cache_inductor_llm/ys/cysiyxdvhihicidvy73errlnzafy5kqvvtkbnc6tngctckgmk2r4.py":89:55)
#loc69 = loc("/NHNHOME/WORKSPACE/26msit001_A/jinhyeok/loop_TTT/lact/.cache_inductor_llm/ys/cysiyxdvhihicidvy73errlnzafy5kqvvtkbnc6tngctckgmk2r4.py":90:29)
#loc70 = loc("/NHNHOME/WORKSPACE/26msit001_A/jinhyeok/loop_TTT/lact/.cache_inductor_llm/ys/cysiyxdvhihicidvy73errlnzafy5kqvvtkbnc6tngctckgmk2r4.py":90:52)
#loc71 = loc("/NHNHOME/WORKSPACE/26msit001_A/jinhyeok/loop_TTT/lact/.cache_inductor_llm/ys/cysiyxdvhihicidvy73errlnzafy5kqvvtkbnc6tngctckgmk2r4.py":64:4)
#loc82 = loc("xmask"(#loc2))
#loc83 = loc("xoffset"(#loc3))
#loc84 = loc("xoffset"(#loc4))
#loc85 = loc("xindex"(#loc5))
#loc86 = loc("xindex"(#loc6))
#loc87 = loc("xindex"(#loc7))
#loc88 = loc("r0_base"(#loc8))
#loc89 = loc("r0_base"(#loc9))
#loc90 = loc("x0"(#loc10))
#loc91 = loc("x1"(#loc11))
#loc92 = loc("tmp6"(#loc12))
#loc93 = loc("tmp6"(#loc13))
#loc94 = loc("tmp14"(#loc14))
#loc95 = loc("tmp14"(#loc15))
#loc96 = loc("r0_mask"(#loc16))
#loc97 = loc("tmp0"(#loc17))
#loc98 = loc("tmp0"(#loc18))
#loc99 = loc("tmp0"(#loc19))
#loc100 = loc("tmp0"(#loc20))
#loc101 = loc("tmp0"(#loc21))
#loc102 = loc("tmp0"(#loc22))
#loc103 = loc("tmp0"(#loc23))
#loc104 = loc("tmp0"(#loc24))
#loc105 = loc("tmp2"(#loc25))
#loc106 = loc("tmp2"(#loc26))
#loc107 = loc("tmp2"(#loc27))
#loc108 = loc("tmp2"(#loc28))
#loc109 = loc("tmp2"(#loc29))
#loc110 = loc("tmp5"(#loc30))
#loc111 = loc("tmp5"(#loc31))
#loc112 = loc("tmp4"(#loc32))
#loc113 = loc("tmp8"(#loc33))
#loc114 = loc("tmp9"(#loc34))
#loc115 = loc("tmp10"(#loc35))
#loc116 = loc("tmp13"(#loc36))
#loc117 = loc("_tmp12"(#loc37))
#loc118 = loc("tmp15"(#loc38))
#loc119 = loc("tmp16"(#loc39))
#loc120 = loc("tmp17"(#loc40))
#loc121 = loc("tmp18"(#loc41))
#loc122 = loc("tmp21"(#loc42))
#loc123 = loc("_tmp20"(#loc43))
#loc125 = loc("tmp12"(#loc47))
#loc127 = loc("tmp20"(#loc49))
#loc128 = loc("tmp22"(#loc52))
#loc129 = loc("tmp22"(#loc53))
#loc130 = loc("tmp23"(#loc54))
#loc131 = loc("tmp23"(#loc55))
#loc132 = loc("tmp25"(#loc56))
#loc133 = loc("tmp25"(#loc57))
#loc134 = loc("tmp35"(#loc58))
#loc135 = loc("tmp27"(#loc59))
#loc136 = loc("tmp28"(#loc60))
#loc137 = loc("tmp31"(#loc61))
#loc138 = loc("tmp32"(#loc62))
#loc139 = loc("tmp34"(#loc63))
#loc140 = loc("tmp36"(#loc64))
#loc141 = loc("tmp37"(#loc65))
#loc142 = loc("tmp38"(#loc66))
#loc143 = loc("tmp39"(#loc67))
#loc144 = loc(callsite(#loc44 at #loc124))
#loc146 = loc(callsite(#loc44 at #loc126))
#loc148 = loc(callsite(#loc46 at #loc144))
#loc149 = loc(callsite(#loc46 at #loc146))
