#loc = loc("/NHNHOME/WORKSPACE/26msit001_A/jinhyeok/TTT_camera_embedding/lact_llm/.cache_inductor/yv/cyvst5fs3wehwrvmmjqg5ie2wk7khwytafgf52j43gpd3zbg2fvc.py":18:0)
#loc1 = loc(unknown)
#loc30 = loc("/NHNHOME/WORKSPACE/26msit001_A/jinhyeok/TTT_camera_embedding/lact_llm/.cache_inductor/yv/cyvst5fs3wehwrvmmjqg5ie2wk7khwytafgf52j43gpd3zbg2fvc.py":42:24)
#loc39 = loc("/NHNHOME/WORKSPACE/26msit001_A/jinhyeok/TTT_camera_embedding/lact_llm/.cache_inductor/yv/cyvst5fs3wehwrvmmjqg5ie2wk7khwytafgf52j43gpd3zbg2fvc.py":59:26)
#loc53 = loc("in_out_ptr0"(#loc))
#loc54 = loc("in_ptr0"(#loc))
#loc55 = loc("in_ptr1"(#loc))
#loc56 = loc("in_ptr2"(#loc))
#loc57 = loc("in_ptr3"(#loc))
#loc58 = loc("out_ptr0"(#loc))
#loc59 = loc("out_ptr2"(#loc))
#loc60 = loc("out_ptr3"(#loc))
#loc61 = loc("xnumel"(#loc))
#loc62 = loc("r0_numel"(#loc))
#loc90 = loc("tmp5"(#loc30))
#loc98 = loc("tmp27"(#loc39))
#loc107 = loc(callsite(#loc1 at #loc90))
#loc109 = loc(callsite(#loc1 at #loc98))
module {
  tt.func public @triton_per_fused__to_copy_add_div_linalg_vector_norm_mul_28(%in_out_ptr0: !tt.ptr<f32> {tt.divisibility = 16 : i32} loc("in_out_ptr0"(#loc)), %in_ptr0: !tt.ptr<f32> {tt.divisibility = 16 : i32} loc("in_ptr0"(#loc)), %in_ptr1: !tt.ptr<bf16> {tt.divisibility = 16 : i32} loc("in_ptr1"(#loc)), %in_ptr2: !tt.ptr<bf16> {tt.divisibility = 16 : i32} loc("in_ptr2"(#loc)), %in_ptr3: !tt.ptr<bf16> {tt.divisibility = 16 : i32} loc("in_ptr3"(#loc)), %out_ptr0: !tt.ptr<f32> {tt.divisibility = 16 : i32} loc("out_ptr0"(#loc)), %out_ptr2: !tt.ptr<bf16> {tt.divisibility = 16 : i32} loc("out_ptr2"(#loc)), %out_ptr3: !tt.ptr<bf16> {tt.divisibility = 16 : i32} loc("out_ptr3"(#loc)), %xnumel: i32 {tt.divisibility = 16 : i32} loc("xnumel"(#loc)), %r0_numel: i32 {tt.divisibility = 16 : i32} loc("r0_numel"(#loc))) attributes {noinline = false} {
    %c192_i32 = arith.constant 192 : i32 loc(#loc1)
    %xmask = arith.constant 6144 : i32 loc(#loc63)
    %cst = arith.constant dense<0.000000e+00> : tensor<1x256xbf16> loc(#loc1)
    %tmp30 = arith.constant dense<9.99999974E-6> : tensor<1x1xf32> loc(#loc64)
    %tmp18 = arith.constant dense<2.836600e+00> : tensor<1x256xf32> loc(#loc65)
    %tmp13 = arith.constant dense<2.876900e+00> : tensor<1x256xf32> loc(#loc66)
    %tmp8 = arith.constant dense<3.741800e+00> : tensor<1x256xf32> loc(#loc67)
    %cst_0 = arith.constant dense<0.000000e+00> : tensor<1x256xf32> loc(#loc1)
    %r0_mask = arith.constant dense<192> : tensor<1x256xi32> loc(#loc68)
    %xoffset = tt.get_program_id x : i32 loc(#loc69)
    %xmask_1 = arith.cmpi slt, %xoffset, %xmask : i32 loc(#loc63)
    %xmask_2 = tt.splat %xmask_1 : i1 -> tensor<1x1xi1> loc(#loc63)
    %r0_index = tt.make_range {end = 256 : i32, start = 0 : i32} : tensor<256xi32> loc(#loc70)
    %r0_index_3 = tt.expand_dims %r0_index {axis = 0 : i32} : tensor<256xi32> -> tensor<1x256xi32> loc(#loc71)
    %r0_mask_4 = arith.cmpi slt, %r0_index_3, %r0_mask : tensor<1x256xi32> loc(#loc68)
    %tmp0 = arith.muli %xoffset, %c192_i32 : i32 loc(#loc72)
    %tmp0_5 = tt.splat %tmp0 : i32 -> tensor<1x256xi32> loc(#loc104)
    %tmp0_6 = arith.addi %r0_index_3, %tmp0_5 : tensor<1x256xi32> loc(#loc73)
    %tmp0_7 = tt.splat %in_ptr0 : !tt.ptr<f32> -> tensor<1x256x!tt.ptr<f32>> loc(#loc74)
    %tmp0_8 = tt.addptr %tmp0_7, %tmp0_6 : tensor<1x256x!tt.ptr<f32>>, tensor<1x256xi32> loc(#loc74)
    %tmp0_9 = tt.splat %xmask_1 : i1 -> tensor<1x256xi1> loc(#loc105)
    %tmp0_10 = arith.andi %r0_mask_4, %tmp0_9 : tensor<1x256xi1> loc(#loc75)
    %tmp0_11 = tt.load %tmp0_8, %tmp0_10, %cst_0 : tensor<1x256x!tt.ptr<f32>> loc(#loc76)
    %tmp6 = tt.splat %in_out_ptr0 : !tt.ptr<f32> -> tensor<1x256x!tt.ptr<f32>> loc(#loc77)
    %tmp6_12 = tt.addptr %tmp6, %tmp0_6 : tensor<1x256x!tt.ptr<f32>>, tensor<1x256xi32> loc(#loc77)
    %tmp6_13 = tt.load %tmp6_12, %tmp0_10, %cst_0 : tensor<1x256x!tt.ptr<f32>> loc(#loc78)
    %tmp9 = tt.splat %in_ptr1 : !tt.ptr<bf16> -> tensor<1x256x!tt.ptr<bf16>> loc(#loc79)
    %tmp9_14 = tt.addptr %tmp9, %tmp0_6 : tensor<1x256x!tt.ptr<bf16>>, tensor<1x256xi32> loc(#loc79)
    %tmp9_15 = tt.load %tmp9_14, %tmp0_10, %cst : tensor<1x256x!tt.ptr<bf16>> loc(#loc80)
    %tmp9_16 = arith.extf %tmp9_15 : tensor<1x256xbf16> to tensor<1x256xf32> loc(#loc81)
    %tmp14 = tt.splat %in_ptr2 : !tt.ptr<bf16> -> tensor<1x256x!tt.ptr<bf16>> loc(#loc82)
    %tmp14_17 = tt.addptr %tmp14, %tmp0_6 : tensor<1x256x!tt.ptr<bf16>>, tensor<1x256xi32> loc(#loc82)
    %tmp14_18 = tt.load %tmp14_17, %tmp0_10, %cst : tensor<1x256x!tt.ptr<bf16>> loc(#loc83)
    %tmp14_19 = arith.extf %tmp14_18 : tensor<1x256xbf16> to tensor<1x256xf32> loc(#loc84)
    %tmp19 = tt.splat %in_ptr3 : !tt.ptr<bf16> -> tensor<1x256x!tt.ptr<bf16>> loc(#loc85)
    %tmp19_20 = tt.addptr %tmp19, %tmp0_6 : tensor<1x256x!tt.ptr<bf16>>, tensor<1x256xi32> loc(#loc85)
    %tmp19_21 = tt.load %tmp19_20, %tmp0_10, %cst : tensor<1x256x!tt.ptr<bf16>> loc(#loc86)
    %tmp19_22 = arith.extf %tmp19_21 : tensor<1x256xbf16> to tensor<1x256xf32> loc(#loc87)
    %tmp1 = arith.mulf %tmp0_11, %tmp0_11 : tensor<1x256xf32> loc(#loc88)
    %tmp4 = arith.select %tmp0_10, %tmp1, %cst_0 : tensor<1x256xi1>, tensor<1x256xf32> loc(#loc89)
    %tmp5 = "tt.reduce"(%tmp4) <{axis = 1 : i32}> ({
    ^bb0(%tmp5_31: f32 loc(callsite(#loc1 at #loc90)), %tmp5_32: f32 loc(callsite(#loc1 at #loc90))):
      %tmp5_33 = arith.addf %tmp5_31, %tmp5_32 : f32 loc(#loc110)
      tt.reduce.return %tmp5_33 : f32 loc(#loc106)
    }) : (tensor<1x256xf32>) -> tensor<1xf32> loc(#loc106)
    %tmp5_23 = tt.expand_dims %tmp5 {axis = 1 : i32} : tensor<1xf32> -> tensor<1x1xf32> loc(#loc91)
    %tmp8_24 = arith.mulf %tmp6_13, %tmp8 : tensor<1x256xf32> loc(#loc67)
    %tmp11 = arith.addf %tmp8_24, %tmp9_16 : tensor<1x256xf32> loc(#loc92)
    %tmp13_25 = arith.mulf %tmp11, %tmp13 : tensor<1x256xf32> loc(#loc66)
    %tmp16 = arith.addf %tmp13_25, %tmp14_19 : tensor<1x256xf32> loc(#loc93)
    %tmp18_26 = arith.mulf %tmp16, %tmp18 : tensor<1x256xf32> loc(#loc65)
    %tmp21 = arith.addf %tmp18_26, %tmp19_22 : tensor<1x256xf32> loc(#loc94)
    %tmp22 = arith.addf %tmp0_11, %tmp21 : tensor<1x256xf32> loc(#loc95)
    %tmp23 = arith.mulf %tmp22, %tmp22 : tensor<1x256xf32> loc(#loc96)
    %tmp26 = arith.select %tmp0_10, %tmp23, %cst_0 : tensor<1x256xi1>, tensor<1x256xf32> loc(#loc97)
    %tmp27 = "tt.reduce"(%tmp26) <{axis = 1 : i32}> ({
    ^bb0(%tmp27_31: f32 loc(callsite(#loc1 at #loc98)), %tmp27_32: f32 loc(callsite(#loc1 at #loc98))):
      %tmp27_33 = arith.addf %tmp27_31, %tmp27_32 : f32 loc(#loc111)
      tt.reduce.return %tmp27_33 : f32 loc(#loc108)
    }) : (tensor<1x256xf32>) -> tensor<1xf32> loc(#loc108)
    %tmp27_27 = tt.expand_dims %tmp27 {axis = 1 : i32} : tensor<1xf32> -> tensor<1x1xf32> loc(#loc99)
    %tmp28 = tt.extern_elementwise %tmp27_27 {libname = "", libpath = "", pure = true, symbol = "__nv_sqrtf"} : (tensor<1x1xf32>) -> tensor<1x1xf32> loc(#loc100)
    %tmp30_28 = arith.addf %tmp28, %tmp30 : tensor<1x1xf32> loc(#loc64)
    %tmp31 = tt.broadcast %tmp30_28 : tensor<1x1xf32> -> tensor<1x256xf32> loc(#loc101)
    %tmp31_29 = arith.divf %tmp22, %tmp31 : tensor<1x256xf32> loc(#loc101)
    %tmp32 = tt.extern_elementwise %tmp5_23 {libname = "", libpath = "", pure = true, symbol = "__nv_sqrtf"} : (tensor<1x1xf32>) -> tensor<1x1xf32> loc(#loc102)
    %tmp33 = tt.broadcast %tmp32 : tensor<1x1xf32> -> tensor<1x256xf32> loc(#loc103)
    %tmp33_30 = arith.mulf %tmp31_29, %tmp33 : tensor<1x256xf32> loc(#loc103)
    tt.store %tmp6_12, %tmp22, %tmp0_10 : tensor<1x256x!tt.ptr<f32>> loc(#loc45)
    %0 = tt.splat %out_ptr2 : !tt.ptr<bf16> -> tensor<1x256x!tt.ptr<bf16>> loc(#loc46)
    %1 = tt.addptr %0, %tmp0_6 : tensor<1x256x!tt.ptr<bf16>>, tensor<1x256xi32> loc(#loc46)
    %2 = arith.truncf %tmp33_30 : tensor<1x256xf32> to tensor<1x256xbf16> loc(#loc47)
    tt.store %1, %2, %tmp0_10 : tensor<1x256x!tt.ptr<bf16>> loc(#loc47)
    %3 = tt.splat %out_ptr3 : !tt.ptr<bf16> -> tensor<1x256x!tt.ptr<bf16>> loc(#loc48)
    %4 = tt.addptr %3, %tmp0_6 : tensor<1x256x!tt.ptr<bf16>>, tensor<1x256xi32> loc(#loc48)
    tt.store %4, %2, %tmp0_10 : tensor<1x256x!tt.ptr<bf16>> loc(#loc49)
    %5 = tt.addptr %out_ptr0, %xoffset : !tt.ptr<f32>, i32 loc(#loc50)
    %6 = tt.splat %5 : !tt.ptr<f32> -> tensor<1x1x!tt.ptr<f32>> loc(#loc50)
    tt.store %6, %tmp5_23, %xmask_2 : tensor<1x1x!tt.ptr<f32>> loc(#loc51)
    tt.return loc(#loc52)
  } loc(#loc)
} loc(#loc)
#loc2 = loc("/NHNHOME/WORKSPACE/26msit001_A/jinhyeok/TTT_camera_embedding/lact_llm/.cache_inductor/yv/cyvst5fs3wehwrvmmjqg5ie2wk7khwytafgf52j43gpd3zbg2fvc.py":26:21)
#loc3 = loc("/NHNHOME/WORKSPACE/26msit001_A/jinhyeok/TTT_camera_embedding/lact_llm/.cache_inductor/yv/cyvst5fs3wehwrvmmjqg5ie2wk7khwytafgf52j43gpd3zbg2fvc.py":62:20)
#loc4 = loc("/NHNHOME/WORKSPACE/26msit001_A/jinhyeok/TTT_camera_embedding/lact_llm/.cache_inductor/yv/cyvst5fs3wehwrvmmjqg5ie2wk7khwytafgf52j43gpd3zbg2fvc.py":52:20)
#loc5 = loc("/NHNHOME/WORKSPACE/26msit001_A/jinhyeok/TTT_camera_embedding/lact_llm/.cache_inductor/yv/cyvst5fs3wehwrvmmjqg5ie2wk7khwytafgf52j43gpd3zbg2fvc.py":48:20)
#loc6 = loc("/NHNHOME/WORKSPACE/26msit001_A/jinhyeok/TTT_camera_embedding/lact_llm/.cache_inductor/yv/cyvst5fs3wehwrvmmjqg5ie2wk7khwytafgf52j43gpd3zbg2fvc.py":44:18)
#loc7 = loc("/NHNHOME/WORKSPACE/26msit001_A/jinhyeok/TTT_camera_embedding/lact_llm/.cache_inductor/yv/cyvst5fs3wehwrvmmjqg5ie2wk7khwytafgf52j43gpd3zbg2fvc.py":29:25)
#loc8 = loc("/NHNHOME/WORKSPACE/26msit001_A/jinhyeok/TTT_camera_embedding/lact_llm/.cache_inductor/yv/cyvst5fs3wehwrvmmjqg5ie2wk7khwytafgf52j43gpd3zbg2fvc.py":24:28)
#loc9 = loc("/NHNHOME/WORKSPACE/26msit001_A/jinhyeok/TTT_camera_embedding/lact_llm/.cache_inductor/yv/cyvst5fs3wehwrvmmjqg5ie2wk7khwytafgf52j43gpd3zbg2fvc.py":27:28)
#loc10 = loc("/NHNHOME/WORKSPACE/26msit001_A/jinhyeok/TTT_camera_embedding/lact_llm/.cache_inductor/yv/cyvst5fs3wehwrvmmjqg5ie2wk7khwytafgf52j43gpd3zbg2fvc.py":27:38)
#loc11 = loc("/NHNHOME/WORKSPACE/26msit001_A/jinhyeok/TTT_camera_embedding/lact_llm/.cache_inductor/yv/cyvst5fs3wehwrvmmjqg5ie2wk7khwytafgf52j43gpd3zbg2fvc.py":34:41)
#loc12 = loc("/NHNHOME/WORKSPACE/26msit001_A/jinhyeok/TTT_camera_embedding/lact_llm/.cache_inductor/yv/cyvst5fs3wehwrvmmjqg5ie2wk7khwytafgf52j43gpd3zbg2fvc.py":34:37)
#loc13 = loc("/NHNHOME/WORKSPACE/26msit001_A/jinhyeok/TTT_camera_embedding/lact_llm/.cache_inductor/yv/cyvst5fs3wehwrvmmjqg5ie2wk7khwytafgf52j43gpd3zbg2fvc.py":34:30)
#loc14 = loc("/NHNHOME/WORKSPACE/26msit001_A/jinhyeok/TTT_camera_embedding/lact_llm/.cache_inductor/yv/cyvst5fs3wehwrvmmjqg5ie2wk7khwytafgf52j43gpd3zbg2fvc.py":34:56)
#loc15 = loc("/NHNHOME/WORKSPACE/26msit001_A/jinhyeok/TTT_camera_embedding/lact_llm/.cache_inductor/yv/cyvst5fs3wehwrvmmjqg5ie2wk7khwytafgf52j43gpd3zbg2fvc.py":34:46)
#loc16 = loc("/NHNHOME/WORKSPACE/26msit001_A/jinhyeok/TTT_camera_embedding/lact_llm/.cache_inductor/yv/cyvst5fs3wehwrvmmjqg5ie2wk7khwytafgf52j43gpd3zbg2fvc.py":35:34)
#loc17 = loc("/NHNHOME/WORKSPACE/26msit001_A/jinhyeok/TTT_camera_embedding/lact_llm/.cache_inductor/yv/cyvst5fs3wehwrvmmjqg5ie2wk7khwytafgf52j43gpd3zbg2fvc.py":35:50)
#loc18 = loc("/NHNHOME/WORKSPACE/26msit001_A/jinhyeok/TTT_camera_embedding/lact_llm/.cache_inductor/yv/cyvst5fs3wehwrvmmjqg5ie2wk7khwytafgf52j43gpd3zbg2fvc.py":36:30)
#loc19 = loc("/NHNHOME/WORKSPACE/26msit001_A/jinhyeok/TTT_camera_embedding/lact_llm/.cache_inductor/yv/cyvst5fs3wehwrvmmjqg5ie2wk7khwytafgf52j43gpd3zbg2fvc.py":36:46)
#loc20 = loc("/NHNHOME/WORKSPACE/26msit001_A/jinhyeok/TTT_camera_embedding/lact_llm/.cache_inductor/yv/cyvst5fs3wehwrvmmjqg5ie2wk7khwytafgf52j43gpd3zbg2fvc.py":36:77)
#loc21 = loc("/NHNHOME/WORKSPACE/26msit001_A/jinhyeok/TTT_camera_embedding/lact_llm/.cache_inductor/yv/cyvst5fs3wehwrvmmjqg5ie2wk7khwytafgf52j43gpd3zbg2fvc.py":37:31)
#loc22 = loc("/NHNHOME/WORKSPACE/26msit001_A/jinhyeok/TTT_camera_embedding/lact_llm/.cache_inductor/yv/cyvst5fs3wehwrvmmjqg5ie2wk7khwytafgf52j43gpd3zbg2fvc.py":37:47)
#loc23 = loc("/NHNHOME/WORKSPACE/26msit001_A/jinhyeok/TTT_camera_embedding/lact_llm/.cache_inductor/yv/cyvst5fs3wehwrvmmjqg5ie2wk7khwytafgf52j43gpd3zbg2fvc.py":37:78)
#loc24 = loc("/NHNHOME/WORKSPACE/26msit001_A/jinhyeok/TTT_camera_embedding/lact_llm/.cache_inductor/yv/cyvst5fs3wehwrvmmjqg5ie2wk7khwytafgf52j43gpd3zbg2fvc.py":38:31)
#loc25 = loc("/NHNHOME/WORKSPACE/26msit001_A/jinhyeok/TTT_camera_embedding/lact_llm/.cache_inductor/yv/cyvst5fs3wehwrvmmjqg5ie2wk7khwytafgf52j43gpd3zbg2fvc.py":38:47)
#loc26 = loc("/NHNHOME/WORKSPACE/26msit001_A/jinhyeok/TTT_camera_embedding/lact_llm/.cache_inductor/yv/cyvst5fs3wehwrvmmjqg5ie2wk7khwytafgf52j43gpd3zbg2fvc.py":38:78)
#loc27 = loc("/NHNHOME/WORKSPACE/26msit001_A/jinhyeok/TTT_camera_embedding/lact_llm/.cache_inductor/yv/cyvst5fs3wehwrvmmjqg5ie2wk7khwytafgf52j43gpd3zbg2fvc.py":39:18)
#loc28 = loc("/NHNHOME/WORKSPACE/26msit001_A/jinhyeok/TTT_camera_embedding/lact_llm/.cache_inductor/yv/cyvst5fs3wehwrvmmjqg5ie2wk7khwytafgf52j43gpd3zbg2fvc.py":41:43)
#loc29 = loc("/NHNHOME/WORKSPACE/26msit001_A/jinhyeok/TTT_camera_embedding/.venv_llm/lib/python3.12/site-packages/triton/language/standard.py":291:36)
#loc31 = loc("/NHNHOME/WORKSPACE/26msit001_A/jinhyeok/TTT_camera_embedding/.venv_llm/lib/python3.12/site-packages/triton/language/standard.py":261:15)
#loc32 = loc("/NHNHOME/WORKSPACE/26msit001_A/jinhyeok/TTT_camera_embedding/lact_llm/.cache_inductor/yv/cyvst5fs3wehwrvmmjqg5ie2wk7khwytafgf52j43gpd3zbg2fvc.py":42:27)
#loc33 = loc("/NHNHOME/WORKSPACE/26msit001_A/jinhyeok/TTT_camera_embedding/lact_llm/.cache_inductor/yv/cyvst5fs3wehwrvmmjqg5ie2wk7khwytafgf52j43gpd3zbg2fvc.py":46:19)
#loc34 = loc("/NHNHOME/WORKSPACE/26msit001_A/jinhyeok/TTT_camera_embedding/lact_llm/.cache_inductor/yv/cyvst5fs3wehwrvmmjqg5ie2wk7khwytafgf52j43gpd3zbg2fvc.py":50:20)
#loc35 = loc("/NHNHOME/WORKSPACE/26msit001_A/jinhyeok/TTT_camera_embedding/lact_llm/.cache_inductor/yv/cyvst5fs3wehwrvmmjqg5ie2wk7khwytafgf52j43gpd3zbg2fvc.py":54:20)
#loc36 = loc("/NHNHOME/WORKSPACE/26msit001_A/jinhyeok/TTT_camera_embedding/lact_llm/.cache_inductor/yv/cyvst5fs3wehwrvmmjqg5ie2wk7khwytafgf52j43gpd3zbg2fvc.py":55:19)
#loc37 = loc("/NHNHOME/WORKSPACE/26msit001_A/jinhyeok/TTT_camera_embedding/lact_llm/.cache_inductor/yv/cyvst5fs3wehwrvmmjqg5ie2wk7khwytafgf52j43gpd3zbg2fvc.py":56:20)
#loc38 = loc("/NHNHOME/WORKSPACE/26msit001_A/jinhyeok/TTT_camera_embedding/lact_llm/.cache_inductor/yv/cyvst5fs3wehwrvmmjqg5ie2wk7khwytafgf52j43gpd3zbg2fvc.py":58:45)
#loc40 = loc("/NHNHOME/WORKSPACE/26msit001_A/jinhyeok/TTT_camera_embedding/lact_llm/.cache_inductor/yv/cyvst5fs3wehwrvmmjqg5ie2wk7khwytafgf52j43gpd3zbg2fvc.py":59:29)
#loc41 = loc("/NHNHOME/WORKSPACE/26msit001_A/jinhyeok/TTT_camera_embedding/lact_llm/.cache_inductor/yv/cyvst5fs3wehwrvmmjqg5ie2wk7khwytafgf52j43gpd3zbg2fvc.py":60:27)
#loc42 = loc("/NHNHOME/WORKSPACE/26msit001_A/jinhyeok/TTT_camera_embedding/lact_llm/.cache_inductor/yv/cyvst5fs3wehwrvmmjqg5ie2wk7khwytafgf52j43gpd3zbg2fvc.py":63:21)
#loc43 = loc("/NHNHOME/WORKSPACE/26msit001_A/jinhyeok/TTT_camera_embedding/lact_llm/.cache_inductor/yv/cyvst5fs3wehwrvmmjqg5ie2wk7khwytafgf52j43gpd3zbg2fvc.py":64:27)
#loc44 = loc("/NHNHOME/WORKSPACE/26msit001_A/jinhyeok/TTT_camera_embedding/lact_llm/.cache_inductor/yv/cyvst5fs3wehwrvmmjqg5ie2wk7khwytafgf52j43gpd3zbg2fvc.py":65:20)
#loc45 = loc("/NHNHOME/WORKSPACE/26msit001_A/jinhyeok/TTT_camera_embedding/lact_llm/.cache_inductor/yv/cyvst5fs3wehwrvmmjqg5ie2wk7khwytafgf52j43gpd3zbg2fvc.py":67:51)
#loc46 = loc("/NHNHOME/WORKSPACE/26msit001_A/jinhyeok/TTT_camera_embedding/lact_llm/.cache_inductor/yv/cyvst5fs3wehwrvmmjqg5ie2wk7khwytafgf52j43gpd3zbg2fvc.py":68:25)
#loc47 = loc("/NHNHOME/WORKSPACE/26msit001_A/jinhyeok/TTT_camera_embedding/lact_llm/.cache_inductor/yv/cyvst5fs3wehwrvmmjqg5ie2wk7khwytafgf52j43gpd3zbg2fvc.py":68:48)
#loc48 = loc("/NHNHOME/WORKSPACE/26msit001_A/jinhyeok/TTT_camera_embedding/lact_llm/.cache_inductor/yv/cyvst5fs3wehwrvmmjqg5ie2wk7khwytafgf52j43gpd3zbg2fvc.py":69:25)
#loc49 = loc("/NHNHOME/WORKSPACE/26msit001_A/jinhyeok/TTT_camera_embedding/lact_llm/.cache_inductor/yv/cyvst5fs3wehwrvmmjqg5ie2wk7khwytafgf52j43gpd3zbg2fvc.py":69:48)
#loc50 = loc("/NHNHOME/WORKSPACE/26msit001_A/jinhyeok/TTT_camera_embedding/lact_llm/.cache_inductor/yv/cyvst5fs3wehwrvmmjqg5ie2wk7khwytafgf52j43gpd3zbg2fvc.py":70:25)
#loc51 = loc("/NHNHOME/WORKSPACE/26msit001_A/jinhyeok/TTT_camera_embedding/lact_llm/.cache_inductor/yv/cyvst5fs3wehwrvmmjqg5ie2wk7khwytafgf52j43gpd3zbg2fvc.py":70:36)
#loc52 = loc("/NHNHOME/WORKSPACE/26msit001_A/jinhyeok/TTT_camera_embedding/lact_llm/.cache_inductor/yv/cyvst5fs3wehwrvmmjqg5ie2wk7khwytafgf52j43gpd3zbg2fvc.py":70:4)
#loc63 = loc("xmask"(#loc2))
#loc64 = loc("tmp30"(#loc3))
#loc65 = loc("tmp18"(#loc4))
#loc66 = loc("tmp13"(#loc5))
#loc67 = loc("tmp8"(#loc6))
#loc68 = loc("r0_mask"(#loc7))
#loc69 = loc("xoffset"(#loc8))
#loc70 = loc("r0_index"(#loc9))
#loc71 = loc("r0_index"(#loc10))
#loc72 = loc("tmp0"(#loc11))
#loc73 = loc("tmp0"(#loc12))
#loc74 = loc("tmp0"(#loc13))
#loc75 = loc("tmp0"(#loc14))
#loc76 = loc("tmp0"(#loc15))
#loc77 = loc("tmp6"(#loc16))
#loc78 = loc("tmp6"(#loc17))
#loc79 = loc("tmp9"(#loc18))
#loc80 = loc("tmp9"(#loc19))
#loc81 = loc("tmp9"(#loc20))
#loc82 = loc("tmp14"(#loc21))
#loc83 = loc("tmp14"(#loc22))
#loc84 = loc("tmp14"(#loc23))
#loc85 = loc("tmp19"(#loc24))
#loc86 = loc("tmp19"(#loc25))
#loc87 = loc("tmp19"(#loc26))
#loc88 = loc("tmp1"(#loc27))
#loc89 = loc("tmp4"(#loc28))
#loc91 = loc("tmp5"(#loc32))
#loc92 = loc("tmp11"(#loc33))
#loc93 = loc("tmp16"(#loc34))
#loc94 = loc("tmp21"(#loc35))
#loc95 = loc("tmp22"(#loc36))
#loc96 = loc("tmp23"(#loc37))
#loc97 = loc("tmp26"(#loc38))
#loc99 = loc("tmp27"(#loc40))
#loc100 = loc("tmp28"(#loc41))
#loc101 = loc("tmp31"(#loc42))
#loc102 = loc("tmp32"(#loc43))
#loc103 = loc("tmp33"(#loc44))
#loc104 = loc(fused[#loc73, #loc72])
#loc105 = loc(fused[#loc75, #loc63])
#loc106 = loc(callsite(#loc29 at #loc90))
#loc108 = loc(callsite(#loc29 at #loc98))
#loc110 = loc(callsite(#loc31 at #loc106))
#loc111 = loc(callsite(#loc31 at #loc108))
