#loc = loc("/NHNHOME/WORKSPACE/26msit001_A/jinhyeok/loop_TTT/lact/.cache_inductor_llm/lc/clctjbythsfbfzmqmyopk3jfwa7wk6ayzxfbfle5nasjfq6xep3z.py":18:0)
#loc59 = loc("in_ptr0"(#loc))
#loc60 = loc("in_ptr1"(#loc))
#loc61 = loc("in_ptr2"(#loc))
#loc62 = loc("out_ptr0"(#loc))
#loc63 = loc("out_ptr1"(#loc))
#loc64 = loc("out_ptr2"(#loc))
#loc65 = loc("ynumel"(#loc))
#loc66 = loc("xnumel"(#loc))
module {
  tt.func public @triton_poi_fused__to_copy_add_div_linalg_vector_norm_mul_transpose_51(%in_ptr0: !tt.ptr<bf16> {tt.divisibility = 16 : i32} loc("in_ptr0"(#loc)), %in_ptr1: !tt.ptr<f32> {tt.divisibility = 16 : i32} loc("in_ptr1"(#loc)), %in_ptr2: !tt.ptr<bf16> {tt.divisibility = 16 : i32} loc("in_ptr2"(#loc)), %out_ptr0: !tt.ptr<bf16> {tt.divisibility = 16 : i32} loc("out_ptr0"(#loc)), %out_ptr1: !tt.ptr<bf16> {tt.divisibility = 16 : i32} loc("out_ptr1"(#loc)), %out_ptr2: !tt.ptr<bf16> {tt.divisibility = 16 : i32} loc("out_ptr2"(#loc)), %ynumel: i32 {tt.divisibility = 16 : i32} loc("ynumel"(#loc)), %xnumel: i32 {tt.divisibility = 16 : i32} loc("xnumel"(#loc))) attributes {noinline = false} {
    %xnumel_0 = arith.constant 192 : i32 loc(#loc67)
    %yoffset = tt.get_program_id y : i32 loc(#loc68)
    %yoffset_1 = tt.get_program_id z : i32 loc(#loc69)
    %yoffset_2 = tt.get_num_programs y : i32 loc(#loc70)
    %yoffset_3 = arith.muli %yoffset_1, %yoffset_2 : i32 loc(#loc71)
    %yoffset_4 = arith.addi %yoffset, %yoffset_3 : i32 loc(#loc72)
    %yoffset_5 = arith.constant 1024 : i32 loc(#loc73)
    %yoffset_6 = arith.constant 1024 : i32 loc(#loc73)
    %yoffset_7 = arith.muli %yoffset_4, %yoffset_6 : i32 loc(#loc73)
    %yindex = tt.make_range {end = 1024 : i32, start = 0 : i32} : tensor<1024xi32> loc(#loc74)
    %yindex_8 = tt.expand_dims %yindex {axis = 1 : i32} : tensor<1024xi32> -> tensor<1024x1xi32> loc(#loc75)
    %yindex_9 = tt.splat %yoffset_7 : i32 -> tensor<1024x1xi32> loc(#loc76)
    %yindex_10 = arith.addi %yindex_9, %yindex_8 : tensor<1024x1xi32> loc(#loc76)
    %ymask = tt.splat %ynumel : i32 -> tensor<1024x1xi32> loc(#loc77)
    %ymask_11 = arith.cmpi slt, %yindex_10, %ymask : tensor<1024x1xi32> loc(#loc77)
    %xoffset = tt.get_program_id x : i32 loc(#loc78)
    %xoffset_12 = arith.constant 1 : i32 loc(#loc79)
    %xoffset_13 = arith.constant 1 : i32 loc(#loc79)
    %xoffset_14 = arith.muli %xoffset, %xoffset_13 : i32 loc(#loc79)
    %xindex = tt.make_range {end = 1 : i32, start = 0 : i32} : tensor<1xi32> loc(#loc80)
    %xindex_15 = tt.expand_dims %xindex {axis = 0 : i32} : tensor<1xi32> -> tensor<1x1xi32> loc(#loc81)
    %xindex_16 = tt.splat %xoffset_14 : i32 -> tensor<1x1xi32> loc(#loc82)
    %xindex_17 = arith.addi %xindex_16, %xindex_15 : tensor<1x1xi32> loc(#loc82)
    %xmask = arith.constant dense<192> : tensor<1x1xi32> loc(#loc83)
    %xmask_18 = arith.cmpi slt, %xindex_17, %xmask : tensor<1x1xi32> loc(#loc83)
    %y1 = arith.constant 192 : i32 loc(#loc84)
    %y1_19 = arith.constant 192 : i32 loc(#loc84)
    %y1_20 = arith.constant dense<192> : tensor<1024x1xi32> loc(#loc84)
    %y1_21 = arith.divsi %yindex_10, %y1_20 : tensor<1024x1xi32> loc(#loc84)
    %y0 = arith.constant 192 : i32 loc(#loc85)
    %y0_22 = arith.constant 192 : i32 loc(#loc85)
    %y0_23 = arith.constant dense<192> : tensor<1024x1xi32> loc(#loc85)
    %y0_24 = arith.remsi %yindex_10, %y0_23 : tensor<1024x1xi32> loc(#loc85)
    %tmp0 = arith.constant 192 : i32 loc(#loc86)
    %tmp0_25 = arith.constant 192 : i32 loc(#loc86)
    %tmp0_26 = arith.constant dense<192> : tensor<1024x1xi32> loc(#loc86)
    %tmp0_27 = arith.muli %tmp0_26, %yindex_10 : tensor<1024x1xi32> loc(#loc86)
    %tmp0_28 = tt.broadcast %xindex_17 : tensor<1x1xi32> -> tensor<1024x1xi32> loc(#loc87)
    %tmp0_29 = arith.addi %tmp0_28, %tmp0_27 : tensor<1024x1xi32> loc(#loc87)
    %tmp0_30 = tt.splat %in_ptr0 : !tt.ptr<bf16> -> tensor<1024x1x!tt.ptr<bf16>> loc(#loc88)
    %tmp0_31 = tt.addptr %tmp0_30, %tmp0_29 : tensor<1024x1x!tt.ptr<bf16>>, tensor<1024x1xi32> loc(#loc88)
    %tmp0_32 = tt.broadcast %xmask_18 : tensor<1x1xi1> -> tensor<1024x1xi1> loc(#loc89)
    %tmp0_33 = arith.andi %tmp0_32, %ymask_11 : tensor<1024x1xi1> loc(#loc89)
    %tmp0_34 = tt.load %tmp0_31, %tmp0_33 evictionPolicy = evict_last : tensor<1024x1x!tt.ptr<bf16>> loc(#loc90)
    %tmp0_35 = arith.extf %tmp0_34 : tensor<1024x1xbf16> to tensor<1024x1xf32> loc(#loc91)
    %tmp2 = tt.splat %in_ptr1 : !tt.ptr<f32> -> tensor<1024x1x!tt.ptr<f32>> loc(#loc92)
    %tmp2_36 = tt.addptr %tmp2, %y1_21 : tensor<1024x1x!tt.ptr<f32>>, tensor<1024x1xi32> loc(#loc92)
    %tmp2_37 = tt.load %tmp2_36, %ymask_11 evictionPolicy = evict_last : tensor<1024x1x!tt.ptr<f32>> loc(#loc93)
    %tmp9 = arith.constant 192 : i32 loc(#loc94)
    %tmp9_38 = arith.constant 192 : i32 loc(#loc94)
    %tmp9_39 = arith.constant dense<192> : tensor<1024x1xi32> loc(#loc94)
    %tmp9_40 = arith.muli %tmp9_39, %yindex_10 : tensor<1024x1xi32> loc(#loc94)
    %tmp9_41 = tt.broadcast %xindex_17 : tensor<1x1xi32> -> tensor<1024x1xi32> loc(#loc95)
    %tmp9_42 = arith.addi %tmp9_41, %tmp9_40 : tensor<1024x1xi32> loc(#loc95)
    %tmp9_43 = tt.splat %in_ptr2 : !tt.ptr<bf16> -> tensor<1024x1x!tt.ptr<bf16>> loc(#loc96)
    %tmp9_44 = tt.addptr %tmp9_43, %tmp9_42 : tensor<1024x1x!tt.ptr<bf16>>, tensor<1024x1xi32> loc(#loc96)
    %tmp9_45 = tt.broadcast %xmask_18 : tensor<1x1xi1> -> tensor<1024x1xi1> loc(#loc97)
    %tmp9_46 = arith.andi %tmp9_45, %ymask_11 : tensor<1024x1xi1> loc(#loc97)
    %tmp9_47 = tt.load %tmp9_44, %tmp9_46 evictionPolicy = evict_last : tensor<1024x1x!tt.ptr<bf16>> loc(#loc98)
    %tmp9_48 = arith.extf %tmp9_47 : tensor<1024x1xbf16> to tensor<1024x1xf32> loc(#loc99)
    %tmp3 = tt.extern_elementwise %tmp2_37 {libname = "", libpath = "", pure = true, symbol = "__nv_sqrtf"} : (tensor<1024x1xf32>) -> tensor<1024x1xf32> loc(#loc100)
    %tmp4 = arith.constant 1.000000e-07 : f32 loc(#loc101)
    %tmp5 = arith.constant dense<1.000000e-07> : tensor<1024x1xf32> loc(#loc102)
    %tmp5_49 = arith.addf %tmp3, %tmp5 : tensor<1024x1xf32> loc(#loc102)
    %tmp6 = arith.divf %tmp0_35, %tmp5_49 : tensor<1024x1xf32> loc(#loc103)
    %tmp7 = arith.constant 4.084800e+00 : f32 loc(#loc104)
    %tmp8 = arith.constant dense<4.084800e+00> : tensor<1024x1xf32> loc(#loc105)
    %tmp8_50 = arith.mulf %tmp6, %tmp8 : tensor<1024x1xf32> loc(#loc105)
    %tmp11 = arith.addf %tmp8_50, %tmp9_48 : tensor<1024x1xf32> loc(#loc106)
    %c192_i32 = arith.constant 192 : i32 loc(#loc41)
    %c192_i32_51 = arith.constant 192 : i32 loc(#loc41)
    %cst = arith.constant dense<192> : tensor<1024x1xi32> loc(#loc41)
    %0 = arith.muli %cst, %yindex_10 : tensor<1024x1xi32> loc(#loc41)
    %1 = tt.broadcast %xindex_17 : tensor<1x1xi32> -> tensor<1024x1xi32> loc(#loc42)
    %2 = arith.addi %1, %0 : tensor<1024x1xi32> loc(#loc42)
    %3 = tt.splat %out_ptr0 : !tt.ptr<bf16> -> tensor<1024x1x!tt.ptr<bf16>> loc(#loc43)
    %4 = tt.addptr %3, %2 : tensor<1024x1x!tt.ptr<bf16>>, tensor<1024x1xi32> loc(#loc43)
    %5 = tt.broadcast %xmask_18 : tensor<1x1xi1> -> tensor<1024x1xi1> loc(#loc44)
    %6 = arith.andi %5, %ymask_11 : tensor<1024x1xi1> loc(#loc44)
    %7 = arith.truncf %tmp11 : tensor<1024x1xf32> to tensor<1024x1xbf16> loc(#loc45)
    tt.store %4, %7, %6 : tensor<1024x1x!tt.ptr<bf16>> loc(#loc45)
    %c192_i32_52 = arith.constant 192 : i32 loc(#loc46)
    %c192_i32_53 = arith.constant 192 : i32 loc(#loc46)
    %cst_54 = arith.constant dense<192> : tensor<1x1xi32> loc(#loc46)
    %8 = arith.muli %cst_54, %xindex_17 : tensor<1x1xi32> loc(#loc46)
    %9 = tt.broadcast %8 : tensor<1x1xi32> -> tensor<1024x1xi32> loc(#loc47)
    %10 = arith.addi %y0_24, %9 : tensor<1024x1xi32> loc(#loc47)
    %c36864_i32 = arith.constant 36864 : i32 loc(#loc48)
    %c36864_i32_55 = arith.constant 36864 : i32 loc(#loc48)
    %cst_56 = arith.constant dense<36864> : tensor<1024x1xi32> loc(#loc48)
    %11 = arith.muli %cst_56, %y1_21 : tensor<1024x1xi32> loc(#loc48)
    %12 = arith.addi %10, %11 : tensor<1024x1xi32> loc(#loc49)
    %13 = tt.splat %out_ptr1 : !tt.ptr<bf16> -> tensor<1024x1x!tt.ptr<bf16>> loc(#loc50)
    %14 = tt.addptr %13, %12 : tensor<1024x1x!tt.ptr<bf16>>, tensor<1024x1xi32> loc(#loc50)
    %15 = tt.broadcast %xmask_18 : tensor<1x1xi1> -> tensor<1024x1xi1> loc(#loc51)
    %16 = arith.andi %15, %ymask_11 : tensor<1024x1xi1> loc(#loc51)
    %17 = arith.truncf %tmp11 : tensor<1024x1xf32> to tensor<1024x1xbf16> loc(#loc52)
    tt.store %14, %17, %16 : tensor<1024x1x!tt.ptr<bf16>> loc(#loc52)
    %c192_i32_57 = arith.constant 192 : i32 loc(#loc53)
    %c192_i32_58 = arith.constant 192 : i32 loc(#loc53)
    %cst_59 = arith.constant dense<192> : tensor<1024x1xi32> loc(#loc53)
    %18 = arith.muli %cst_59, %yindex_10 : tensor<1024x1xi32> loc(#loc53)
    %19 = tt.broadcast %xindex_17 : tensor<1x1xi32> -> tensor<1024x1xi32> loc(#loc54)
    %20 = arith.addi %19, %18 : tensor<1024x1xi32> loc(#loc54)
    %21 = tt.splat %out_ptr2 : !tt.ptr<bf16> -> tensor<1024x1x!tt.ptr<bf16>> loc(#loc55)
    %22 = tt.addptr %21, %20 : tensor<1024x1x!tt.ptr<bf16>>, tensor<1024x1xi32> loc(#loc55)
    %23 = tt.broadcast %xmask_18 : tensor<1x1xi1> -> tensor<1024x1xi1> loc(#loc56)
    %24 = arith.andi %23, %ymask_11 : tensor<1024x1xi1> loc(#loc56)
    %25 = arith.truncf %tmp11 : tensor<1024x1xf32> to tensor<1024x1xbf16> loc(#loc57)
    tt.store %22, %25, %24 : tensor<1024x1x!tt.ptr<bf16>> loc(#loc57)
    tt.return loc(#loc58)
  } loc(#loc)
} loc(#loc)
#loc1 = loc("/NHNHOME/WORKSPACE/26msit001_A/jinhyeok/loop_TTT/lact/.cache_inductor_llm/lc/clctjbythsfbfzmqmyopk3jfwa7wk6ayzxfbfle5nasjfq6xep3z.py":19:13)
#loc2 = loc("/NHNHOME/WORKSPACE/26msit001_A/jinhyeok/loop_TTT/lact/.cache_inductor_llm/lc/clctjbythsfbfzmqmyopk3jfwa7wk6ayzxfbfle5nasjfq6xep3z.py":20:29)
#loc3 = loc("/NHNHOME/WORKSPACE/26msit001_A/jinhyeok/loop_TTT/lact/.cache_inductor_llm/lc/clctjbythsfbfzmqmyopk3jfwa7wk6ayzxfbfle5nasjfq6xep3z.py":20:48)
#loc4 = loc("/NHNHOME/WORKSPACE/26msit001_A/jinhyeok/loop_TTT/lact/.cache_inductor_llm/lc/clctjbythsfbfzmqmyopk3jfwa7wk6ayzxfbfle5nasjfq6xep3z.py":20:69)
#loc5 = loc("/NHNHOME/WORKSPACE/26msit001_A/jinhyeok/loop_TTT/lact/.cache_inductor_llm/lc/clctjbythsfbfzmqmyopk3jfwa7wk6ayzxfbfle5nasjfq6xep3z.py":20:53)
#loc6 = loc("/NHNHOME/WORKSPACE/26msit001_A/jinhyeok/loop_TTT/lact/.cache_inductor_llm/lc/clctjbythsfbfzmqmyopk3jfwa7wk6ayzxfbfle5nasjfq6xep3z.py":20:34)
#loc7 = loc("/NHNHOME/WORKSPACE/26msit001_A/jinhyeok/loop_TTT/lact/.cache_inductor_llm/lc/clctjbythsfbfzmqmyopk3jfwa7wk6ayzxfbfle5nasjfq6xep3z.py":20:75)
#loc8 = loc("/NHNHOME/WORKSPACE/26msit001_A/jinhyeok/loop_TTT/lact/.cache_inductor_llm/lc/clctjbythsfbfzmqmyopk3jfwa7wk6ayzxfbfle5nasjfq6xep3z.py":21:36)
#loc9 = loc("/NHNHOME/WORKSPACE/26msit001_A/jinhyeok/loop_TTT/lact/.cache_inductor_llm/lc/clctjbythsfbfzmqmyopk3jfwa7wk6ayzxfbfle5nasjfq6xep3z.py":21:44)
#loc10 = loc("/NHNHOME/WORKSPACE/26msit001_A/jinhyeok/loop_TTT/lact/.cache_inductor_llm/lc/clctjbythsfbfzmqmyopk3jfwa7wk6ayzxfbfle5nasjfq6xep3z.py":21:23)
#loc11 = loc("/NHNHOME/WORKSPACE/26msit001_A/jinhyeok/loop_TTT/lact/.cache_inductor_llm/lc/clctjbythsfbfzmqmyopk3jfwa7wk6ayzxfbfle5nasjfq6xep3z.py":22:21)
#loc12 = loc("/NHNHOME/WORKSPACE/26msit001_A/jinhyeok/loop_TTT/lact/.cache_inductor_llm/lc/clctjbythsfbfzmqmyopk3jfwa7wk6ayzxfbfle5nasjfq6xep3z.py":23:28)
#loc13 = loc("/NHNHOME/WORKSPACE/26msit001_A/jinhyeok/loop_TTT/lact/.cache_inductor_llm/lc/clctjbythsfbfzmqmyopk3jfwa7wk6ayzxfbfle5nasjfq6xep3z.py":23:33)
#loc14 = loc("/NHNHOME/WORKSPACE/26msit001_A/jinhyeok/loop_TTT/lact/.cache_inductor_llm/lc/clctjbythsfbfzmqmyopk3jfwa7wk6ayzxfbfle5nasjfq6xep3z.py":24:36)
#loc15 = loc("/NHNHOME/WORKSPACE/26msit001_A/jinhyeok/loop_TTT/lact/.cache_inductor_llm/lc/clctjbythsfbfzmqmyopk3jfwa7wk6ayzxfbfle5nasjfq6xep3z.py":24:44)
#loc16 = loc("/NHNHOME/WORKSPACE/26msit001_A/jinhyeok/loop_TTT/lact/.cache_inductor_llm/lc/clctjbythsfbfzmqmyopk3jfwa7wk6ayzxfbfle5nasjfq6xep3z.py":24:23)
#loc17 = loc("/NHNHOME/WORKSPACE/26msit001_A/jinhyeok/loop_TTT/lact/.cache_inductor_llm/lc/clctjbythsfbfzmqmyopk3jfwa7wk6ayzxfbfle5nasjfq6xep3z.py":25:21)
#loc18 = loc("/NHNHOME/WORKSPACE/26msit001_A/jinhyeok/loop_TTT/lact/.cache_inductor_llm/lc/clctjbythsfbfzmqmyopk3jfwa7wk6ayzxfbfle5nasjfq6xep3z.py":28:19)
#loc19 = loc("/NHNHOME/WORKSPACE/26msit001_A/jinhyeok/loop_TTT/lact/.cache_inductor_llm/lc/clctjbythsfbfzmqmyopk3jfwa7wk6ayzxfbfle5nasjfq6xep3z.py":29:19)
#loc20 = loc("/NHNHOME/WORKSPACE/26msit001_A/jinhyeok/loop_TTT/lact/.cache_inductor_llm/lc/clctjbythsfbfzmqmyopk3jfwa7wk6ayzxfbfle5nasjfq6xep3z.py":30:39)
#loc21 = loc("/NHNHOME/WORKSPACE/26msit001_A/jinhyeok/loop_TTT/lact/.cache_inductor_llm/lc/clctjbythsfbfzmqmyopk3jfwa7wk6ayzxfbfle5nasjfq6xep3z.py":30:35)
#loc22 = loc("/NHNHOME/WORKSPACE/26msit001_A/jinhyeok/loop_TTT/lact/.cache_inductor_llm/lc/clctjbythsfbfzmqmyopk3jfwa7wk6ayzxfbfle5nasjfq6xep3z.py":30:30)
#loc23 = loc("/NHNHOME/WORKSPACE/26msit001_A/jinhyeok/loop_TTT/lact/.cache_inductor_llm/lc/clctjbythsfbfzmqmyopk3jfwa7wk6ayzxfbfle5nasjfq6xep3z.py":30:52)
#loc24 = loc("/NHNHOME/WORKSPACE/26msit001_A/jinhyeok/loop_TTT/lact/.cache_inductor_llm/lc/clctjbythsfbfzmqmyopk3jfwa7wk6ayzxfbfle5nasjfq6xep3z.py":30:44)
#loc25 = loc("/NHNHOME/WORKSPACE/26msit001_A/jinhyeok/loop_TTT/lact/.cache_inductor_llm/lc/clctjbythsfbfzmqmyopk3jfwa7wk6ayzxfbfle5nasjfq6xep3z.py":30:92)
#loc26 = loc("/NHNHOME/WORKSPACE/26msit001_A/jinhyeok/loop_TTT/lact/.cache_inductor_llm/lc/clctjbythsfbfzmqmyopk3jfwa7wk6ayzxfbfle5nasjfq6xep3z.py":31:30)
#loc27 = loc("/NHNHOME/WORKSPACE/26msit001_A/jinhyeok/loop_TTT/lact/.cache_inductor_llm/lc/clctjbythsfbfzmqmyopk3jfwa7wk6ayzxfbfle5nasjfq6xep3z.py":31:35)
#loc28 = loc("/NHNHOME/WORKSPACE/26msit001_A/jinhyeok/loop_TTT/lact/.cache_inductor_llm/lc/clctjbythsfbfzmqmyopk3jfwa7wk6ayzxfbfle5nasjfq6xep3z.py":32:39)
#loc29 = loc("/NHNHOME/WORKSPACE/26msit001_A/jinhyeok/loop_TTT/lact/.cache_inductor_llm/lc/clctjbythsfbfzmqmyopk3jfwa7wk6ayzxfbfle5nasjfq6xep3z.py":32:35)
#loc30 = loc("/NHNHOME/WORKSPACE/26msit001_A/jinhyeok/loop_TTT/lact/.cache_inductor_llm/lc/clctjbythsfbfzmqmyopk3jfwa7wk6ayzxfbfle5nasjfq6xep3z.py":32:30)
#loc31 = loc("/NHNHOME/WORKSPACE/26msit001_A/jinhyeok/loop_TTT/lact/.cache_inductor_llm/lc/clctjbythsfbfzmqmyopk3jfwa7wk6ayzxfbfle5nasjfq6xep3z.py":32:52)
#loc32 = loc("/NHNHOME/WORKSPACE/26msit001_A/jinhyeok/loop_TTT/lact/.cache_inductor_llm/lc/clctjbythsfbfzmqmyopk3jfwa7wk6ayzxfbfle5nasjfq6xep3z.py":32:44)
#loc33 = loc("/NHNHOME/WORKSPACE/26msit001_A/jinhyeok/loop_TTT/lact/.cache_inductor_llm/lc/clctjbythsfbfzmqmyopk3jfwa7wk6ayzxfbfle5nasjfq6xep3z.py":32:92)
#loc34 = loc("/NHNHOME/WORKSPACE/26msit001_A/jinhyeok/loop_TTT/lact/.cache_inductor_llm/lc/clctjbythsfbfzmqmyopk3jfwa7wk6ayzxfbfle5nasjfq6xep3z.py":34:26)
#loc35 = loc("/NHNHOME/WORKSPACE/26msit001_A/jinhyeok/loop_TTT/lact/.cache_inductor_llm/lc/clctjbythsfbfzmqmyopk3jfwa7wk6ayzxfbfle5nasjfq6xep3z.py":35:11)
#loc36 = loc("/NHNHOME/WORKSPACE/26msit001_A/jinhyeok/loop_TTT/lact/.cache_inductor_llm/lc/clctjbythsfbfzmqmyopk3jfwa7wk6ayzxfbfle5nasjfq6xep3z.py":36:18)
#loc37 = loc("/NHNHOME/WORKSPACE/26msit001_A/jinhyeok/loop_TTT/lact/.cache_inductor_llm/lc/clctjbythsfbfzmqmyopk3jfwa7wk6ayzxfbfle5nasjfq6xep3z.py":37:19)
#loc38 = loc("/NHNHOME/WORKSPACE/26msit001_A/jinhyeok/loop_TTT/lact/.cache_inductor_llm/lc/clctjbythsfbfzmqmyopk3jfwa7wk6ayzxfbfle5nasjfq6xep3z.py":38:11)
#loc39 = loc("/NHNHOME/WORKSPACE/26msit001_A/jinhyeok/loop_TTT/lact/.cache_inductor_llm/lc/clctjbythsfbfzmqmyopk3jfwa7wk6ayzxfbfle5nasjfq6xep3z.py":39:18)
#loc40 = loc("/NHNHOME/WORKSPACE/26msit001_A/jinhyeok/loop_TTT/lact/.cache_inductor_llm/lc/clctjbythsfbfzmqmyopk3jfwa7wk6ayzxfbfle5nasjfq6xep3z.py":41:19)
#loc41 = loc("/NHNHOME/WORKSPACE/26msit001_A/jinhyeok/loop_TTT/lact/.cache_inductor_llm/lc/clctjbythsfbfzmqmyopk3jfwa7wk6ayzxfbfle5nasjfq6xep3z.py":43:34)
#loc42 = loc("/NHNHOME/WORKSPACE/26msit001_A/jinhyeok/loop_TTT/lact/.cache_inductor_llm/lc/clctjbythsfbfzmqmyopk3jfwa7wk6ayzxfbfle5nasjfq6xep3z.py":43:30)
#loc43 = loc("/NHNHOME/WORKSPACE/26msit001_A/jinhyeok/loop_TTT/lact/.cache_inductor_llm/lc/clctjbythsfbfzmqmyopk3jfwa7wk6ayzxfbfle5nasjfq6xep3z.py":43:25)
#loc44 = loc("/NHNHOME/WORKSPACE/26msit001_A/jinhyeok/loop_TTT/lact/.cache_inductor_llm/lc/clctjbythsfbfzmqmyopk3jfwa7wk6ayzxfbfle5nasjfq6xep3z.py":43:54)
#loc45 = loc("/NHNHOME/WORKSPACE/26msit001_A/jinhyeok/loop_TTT/lact/.cache_inductor_llm/lc/clctjbythsfbfzmqmyopk3jfwa7wk6ayzxfbfle5nasjfq6xep3z.py":43:46)
#loc46 = loc("/NHNHOME/WORKSPACE/26msit001_A/jinhyeok/loop_TTT/lact/.cache_inductor_llm/lc/clctjbythsfbfzmqmyopk3jfwa7wk6ayzxfbfle5nasjfq6xep3z.py":44:34)
#loc47 = loc("/NHNHOME/WORKSPACE/26msit001_A/jinhyeok/loop_TTT/lact/.cache_inductor_llm/lc/clctjbythsfbfzmqmyopk3jfwa7wk6ayzxfbfle5nasjfq6xep3z.py":44:30)
#loc48 = loc("/NHNHOME/WORKSPACE/26msit001_A/jinhyeok/loop_TTT/lact/.cache_inductor_llm/lc/clctjbythsfbfzmqmyopk3jfwa7wk6ayzxfbfle5nasjfq6xep3z.py":44:45)
#loc49 = loc("/NHNHOME/WORKSPACE/26msit001_A/jinhyeok/loop_TTT/lact/.cache_inductor_llm/lc/clctjbythsfbfzmqmyopk3jfwa7wk6ayzxfbfle5nasjfq6xep3z.py":44:39)
#loc50 = loc("/NHNHOME/WORKSPACE/26msit001_A/jinhyeok/loop_TTT/lact/.cache_inductor_llm/lc/clctjbythsfbfzmqmyopk3jfwa7wk6ayzxfbfle5nasjfq6xep3z.py":44:25)
#loc51 = loc("/NHNHOME/WORKSPACE/26msit001_A/jinhyeok/loop_TTT/lact/.cache_inductor_llm/lc/clctjbythsfbfzmqmyopk3jfwa7wk6ayzxfbfle5nasjfq6xep3z.py":44:65)
#loc52 = loc("/NHNHOME/WORKSPACE/26msit001_A/jinhyeok/loop_TTT/lact/.cache_inductor_llm/lc/clctjbythsfbfzmqmyopk3jfwa7wk6ayzxfbfle5nasjfq6xep3z.py":44:57)
#loc53 = loc("/NHNHOME/WORKSPACE/26msit001_A/jinhyeok/loop_TTT/lact/.cache_inductor_llm/lc/clctjbythsfbfzmqmyopk3jfwa7wk6ayzxfbfle5nasjfq6xep3z.py":45:34)
#loc54 = loc("/NHNHOME/WORKSPACE/26msit001_A/jinhyeok/loop_TTT/lact/.cache_inductor_llm/lc/clctjbythsfbfzmqmyopk3jfwa7wk6ayzxfbfle5nasjfq6xep3z.py":45:30)
#loc55 = loc("/NHNHOME/WORKSPACE/26msit001_A/jinhyeok/loop_TTT/lact/.cache_inductor_llm/lc/clctjbythsfbfzmqmyopk3jfwa7wk6ayzxfbfle5nasjfq6xep3z.py":45:25)
#loc56 = loc("/NHNHOME/WORKSPACE/26msit001_A/jinhyeok/loop_TTT/lact/.cache_inductor_llm/lc/clctjbythsfbfzmqmyopk3jfwa7wk6ayzxfbfle5nasjfq6xep3z.py":45:54)
#loc57 = loc("/NHNHOME/WORKSPACE/26msit001_A/jinhyeok/loop_TTT/lact/.cache_inductor_llm/lc/clctjbythsfbfzmqmyopk3jfwa7wk6ayzxfbfle5nasjfq6xep3z.py":45:46)
#loc58 = loc("/NHNHOME/WORKSPACE/26msit001_A/jinhyeok/loop_TTT/lact/.cache_inductor_llm/lc/clctjbythsfbfzmqmyopk3jfwa7wk6ayzxfbfle5nasjfq6xep3z.py":45:4)
#loc67 = loc("xnumel"(#loc1))
#loc68 = loc("yoffset"(#loc2))
#loc69 = loc("yoffset"(#loc3))
#loc70 = loc("yoffset"(#loc4))
#loc71 = loc("yoffset"(#loc5))
#loc72 = loc("yoffset"(#loc6))
#loc73 = loc("yoffset"(#loc7))
#loc74 = loc("yindex"(#loc8))
#loc75 = loc("yindex"(#loc9))
#loc76 = loc("yindex"(#loc10))
#loc77 = loc("ymask"(#loc11))
#loc78 = loc("xoffset"(#loc12))
#loc79 = loc("xoffset"(#loc13))
#loc80 = loc("xindex"(#loc14))
#loc81 = loc("xindex"(#loc15))
#loc82 = loc("xindex"(#loc16))
#loc83 = loc("xmask"(#loc17))
#loc84 = loc("y1"(#loc18))
#loc85 = loc("y0"(#loc19))
#loc86 = loc("tmp0"(#loc20))
#loc87 = loc("tmp0"(#loc21))
#loc88 = loc("tmp0"(#loc22))
#loc89 = loc("tmp0"(#loc23))
#loc90 = loc("tmp0"(#loc24))
#loc91 = loc("tmp0"(#loc25))
#loc92 = loc("tmp2"(#loc26))
#loc93 = loc("tmp2"(#loc27))
#loc94 = loc("tmp9"(#loc28))
#loc95 = loc("tmp9"(#loc29))
#loc96 = loc("tmp9"(#loc30))
#loc97 = loc("tmp9"(#loc31))
#loc98 = loc("tmp9"(#loc32))
#loc99 = loc("tmp9"(#loc33))
#loc100 = loc("tmp3"(#loc34))
#loc101 = loc("tmp4"(#loc35))
#loc102 = loc("tmp5"(#loc36))
#loc103 = loc("tmp6"(#loc37))
#loc104 = loc("tmp7"(#loc38))
#loc105 = loc("tmp8"(#loc39))
#loc106 = loc("tmp11"(#loc40))
