#loc = loc("/NHNHOME/WORKSPACE/26msit001_A/jinhyeok/TTT_camera_embedding/lact_llm/.cache_inductor/s5/cs5amjln3eunztc6azqjvgmrbnb2jkfan7xvzxqjc5t6icmpsw7m.py":18:0)
#loc44 = loc("in_ptr0"(#loc))
#loc45 = loc("in_ptr1"(#loc))
#loc46 = loc("in_ptr2"(#loc))
#loc47 = loc("in_ptr3"(#loc))
#loc48 = loc("in_ptr4"(#loc))
#loc49 = loc("out_ptr0"(#loc))
#loc50 = loc("out_ptr1"(#loc))
#loc51 = loc("out_ptr2"(#loc))
#loc52 = loc("out_ptr3"(#loc))
#loc53 = loc("xnumel"(#loc))
module {
  tt.func public @triton_poi_fused__to_copy_add_div_linalg_vector_norm_mul_transpose_49(%in_ptr0: !tt.ptr<bf16> {tt.divisibility = 16 : i32} loc("in_ptr0"(#loc)), %in_ptr1: !tt.ptr<f32> {tt.divisibility = 16 : i32} loc("in_ptr1"(#loc)), %in_ptr2: !tt.ptr<bf16> {tt.divisibility = 16 : i32} loc("in_ptr2"(#loc)), %in_ptr3: !tt.ptr<bf16> {tt.divisibility = 16 : i32} loc("in_ptr3"(#loc)), %in_ptr4: !tt.ptr<bf16> {tt.divisibility = 16 : i32} loc("in_ptr4"(#loc)), %out_ptr0: !tt.ptr<f32> {tt.divisibility = 16 : i32} loc("out_ptr0"(#loc)), %out_ptr1: !tt.ptr<bf16> {tt.divisibility = 16 : i32} loc("out_ptr1"(#loc)), %out_ptr2: !tt.ptr<bf16> {tt.divisibility = 16 : i32} loc("out_ptr2"(#loc)), %out_ptr3: !tt.ptr<bf16> {tt.divisibility = 16 : i32} loc("out_ptr3"(#loc)), %xnumel: i32 {tt.divisibility = 16 : i32} loc("xnumel"(#loc))) attributes {noinline = false} {
    %xnumel_0 = arith.constant 1179648 : i32 loc(#loc54)
    %xoffset = tt.get_program_id x : i32 loc(#loc55)
    %xoffset_1 = arith.constant 512 : i32 loc(#loc56)
    %xoffset_2 = arith.constant 512 : i32 loc(#loc56)
    %xoffset_3 = arith.muli %xoffset, %xoffset_2 : i32 loc(#loc56)
    %xindex = tt.make_range {end = 512 : i32, start = 0 : i32} : tensor<512xi32> loc(#loc57)
    %xindex_4 = tt.splat %xoffset_3 : i32 -> tensor<512xi32> loc(#loc58)
    %xindex_5 = arith.addi %xindex_4, %xindex : tensor<512xi32> loc(#loc58)
    %xmask = arith.constant true loc(#loc59)
    %xmask_6 = arith.constant dense<true> : tensor<512xi1> loc(#loc59)
    %x1 = arith.constant 36864 : i32 loc(#loc60)
    %x1_7 = arith.constant 36864 : i32 loc(#loc60)
    %x1_8 = arith.constant dense<36864> : tensor<512xi32> loc(#loc60)
    %x1_9 = arith.divsi %xindex_5, %x1_8 : tensor<512xi32> loc(#loc60)
    %tmp0 = tt.splat %in_ptr0 : !tt.ptr<bf16> -> tensor<512x!tt.ptr<bf16>> loc(#loc61)
    %tmp0_10 = tt.addptr %tmp0, %xindex_5 : tensor<512x!tt.ptr<bf16>>, tensor<512xi32> loc(#loc61)
    %tmp0_11 = tt.load %tmp0_10 : tensor<512x!tt.ptr<bf16>> loc(#loc62)
    %tmp0_12 = arith.extf %tmp0_11 : tensor<512xbf16> to tensor<512xf32> loc(#loc63)
    %tmp2 = tt.splat %in_ptr1 : !tt.ptr<f32> -> tensor<512x!tt.ptr<f32>> loc(#loc64)
    %tmp2_13 = tt.addptr %tmp2, %x1_9 : tensor<512x!tt.ptr<f32>>, tensor<512xi32> loc(#loc64)
    %tmp2_14 = tt.load %tmp2_13 evictionPolicy = evict_last : tensor<512x!tt.ptr<f32>> loc(#loc65)
    %tmp9 = tt.splat %in_ptr2 : !tt.ptr<bf16> -> tensor<512x!tt.ptr<bf16>> loc(#loc66)
    %tmp9_15 = tt.addptr %tmp9, %xindex_5 : tensor<512x!tt.ptr<bf16>>, tensor<512xi32> loc(#loc66)
    %tmp9_16 = tt.load %tmp9_15 : tensor<512x!tt.ptr<bf16>> loc(#loc67)
    %tmp9_17 = arith.extf %tmp9_16 : tensor<512xbf16> to tensor<512xf32> loc(#loc68)
    %tmp14 = tt.splat %in_ptr3 : !tt.ptr<bf16> -> tensor<512x!tt.ptr<bf16>> loc(#loc69)
    %tmp14_18 = tt.addptr %tmp14, %xindex_5 : tensor<512x!tt.ptr<bf16>>, tensor<512xi32> loc(#loc69)
    %tmp14_19 = tt.load %tmp14_18 : tensor<512x!tt.ptr<bf16>> loc(#loc70)
    %tmp14_20 = arith.extf %tmp14_19 : tensor<512xbf16> to tensor<512xf32> loc(#loc71)
    %tmp19 = tt.splat %in_ptr4 : !tt.ptr<bf16> -> tensor<512x!tt.ptr<bf16>> loc(#loc72)
    %tmp19_21 = tt.addptr %tmp19, %xindex_5 : tensor<512x!tt.ptr<bf16>>, tensor<512xi32> loc(#loc72)
    %tmp19_22 = tt.load %tmp19_21 : tensor<512x!tt.ptr<bf16>> loc(#loc73)
    %tmp19_23 = arith.extf %tmp19_22 : tensor<512xbf16> to tensor<512xf32> loc(#loc74)
    %tmp3 = tt.extern_elementwise %tmp2_14 {libname = "", libpath = "", pure = true, symbol = "__nv_sqrtf"} : (tensor<512xf32>) -> tensor<512xf32> loc(#loc75)
    %tmp4 = arith.constant 1.000000e-07 : f32 loc(#loc76)
    %tmp5 = arith.constant dense<1.000000e-07> : tensor<512xf32> loc(#loc77)
    %tmp5_24 = arith.addf %tmp3, %tmp5 : tensor<512xf32> loc(#loc77)
    %tmp6 = arith.divf %tmp0_12, %tmp5_24 : tensor<512xf32> loc(#loc78)
    %tmp7 = arith.constant 4.084800e+00 : f32 loc(#loc79)
    %tmp8 = arith.constant dense<4.084800e+00> : tensor<512xf32> loc(#loc80)
    %tmp8_25 = arith.mulf %tmp6, %tmp8 : tensor<512xf32> loc(#loc80)
    %tmp11 = arith.addf %tmp8_25, %tmp9_17 : tensor<512xf32> loc(#loc81)
    %tmp12 = arith.constant 3.950500e+00 : f32 loc(#loc82)
    %tmp13 = arith.constant dense<3.950500e+00> : tensor<512xf32> loc(#loc83)
    %tmp13_26 = arith.mulf %tmp11, %tmp13 : tensor<512xf32> loc(#loc83)
    %tmp16 = arith.addf %tmp13_26, %tmp14_20 : tensor<512xf32> loc(#loc84)
    %tmp17 = arith.constant 3.741800e+00 : f32 loc(#loc85)
    %tmp18 = arith.constant dense<3.741800e+00> : tensor<512xf32> loc(#loc86)
    %tmp18_27 = arith.mulf %tmp16, %tmp18 : tensor<512xf32> loc(#loc86)
    %tmp21 = arith.addf %tmp18_27, %tmp19_23 : tensor<512xf32> loc(#loc87)
    %0 = tt.splat %out_ptr0 : !tt.ptr<f32> -> tensor<512x!tt.ptr<f32>> loc(#loc35)
    %1 = tt.addptr %0, %xindex_5 : tensor<512x!tt.ptr<f32>>, tensor<512xi32> loc(#loc35)
    tt.store %1, %tmp21 : tensor<512x!tt.ptr<f32>> loc(#loc36)
    %2 = tt.splat %out_ptr1 : !tt.ptr<bf16> -> tensor<512x!tt.ptr<bf16>> loc(#loc37)
    %3 = tt.addptr %2, %xindex_5 : tensor<512x!tt.ptr<bf16>>, tensor<512xi32> loc(#loc37)
    %4 = arith.truncf %tmp21 : tensor<512xf32> to tensor<512xbf16> loc(#loc38)
    tt.store %3, %4 : tensor<512x!tt.ptr<bf16>> loc(#loc38)
    %5 = tt.splat %out_ptr2 : !tt.ptr<bf16> -> tensor<512x!tt.ptr<bf16>> loc(#loc39)
    %6 = tt.addptr %5, %xindex_5 : tensor<512x!tt.ptr<bf16>>, tensor<512xi32> loc(#loc39)
    %7 = arith.truncf %tmp21 : tensor<512xf32> to tensor<512xbf16> loc(#loc40)
    tt.store %6, %7 : tensor<512x!tt.ptr<bf16>> loc(#loc40)
    %8 = tt.splat %out_ptr3 : !tt.ptr<bf16> -> tensor<512x!tt.ptr<bf16>> loc(#loc41)
    %9 = tt.addptr %8, %xindex_5 : tensor<512x!tt.ptr<bf16>>, tensor<512xi32> loc(#loc41)
    %10 = arith.truncf %tmp21 : tensor<512xf32> to tensor<512xbf16> loc(#loc42)
    tt.store %9, %10 : tensor<512x!tt.ptr<bf16>> loc(#loc42)
    tt.return loc(#loc43)
  } loc(#loc)
} loc(#loc)
#loc1 = loc("/NHNHOME/WORKSPACE/26msit001_A/jinhyeok/TTT_camera_embedding/lact_llm/.cache_inductor/s5/cs5amjln3eunztc6azqjvgmrbnb2jkfan7xvzxqjc5t6icmpsw7m.py":19:13)
#loc2 = loc("/NHNHOME/WORKSPACE/26msit001_A/jinhyeok/TTT_camera_embedding/lact_llm/.cache_inductor/s5/cs5amjln3eunztc6azqjvgmrbnb2jkfan7xvzxqjc5t6icmpsw7m.py":20:28)
#loc3 = loc("/NHNHOME/WORKSPACE/26msit001_A/jinhyeok/TTT_camera_embedding/lact_llm/.cache_inductor/s5/cs5amjln3eunztc6azqjvgmrbnb2jkfan7xvzxqjc5t6icmpsw7m.py":20:33)
#loc4 = loc("/NHNHOME/WORKSPACE/26msit001_A/jinhyeok/TTT_camera_embedding/lact_llm/.cache_inductor/s5/cs5amjln3eunztc6azqjvgmrbnb2jkfan7xvzxqjc5t6icmpsw7m.py":21:36)
#loc5 = loc("/NHNHOME/WORKSPACE/26msit001_A/jinhyeok/TTT_camera_embedding/lact_llm/.cache_inductor/s5/cs5amjln3eunztc6azqjvgmrbnb2jkfan7xvzxqjc5t6icmpsw7m.py":21:23)
#loc6 = loc("/NHNHOME/WORKSPACE/26msit001_A/jinhyeok/TTT_camera_embedding/lact_llm/.cache_inductor/s5/cs5amjln3eunztc6azqjvgmrbnb2jkfan7xvzxqjc5t6icmpsw7m.py":22:36)
#loc7 = loc("/NHNHOME/WORKSPACE/26msit001_A/jinhyeok/TTT_camera_embedding/lact_llm/.cache_inductor/s5/cs5amjln3eunztc6azqjvgmrbnb2jkfan7xvzxqjc5t6icmpsw7m.py":24:19)
#loc8 = loc("/NHNHOME/WORKSPACE/26msit001_A/jinhyeok/TTT_camera_embedding/lact_llm/.cache_inductor/s5/cs5amjln3eunztc6azqjvgmrbnb2jkfan7xvzxqjc5t6icmpsw7m.py":25:30)
#loc9 = loc("/NHNHOME/WORKSPACE/26msit001_A/jinhyeok/TTT_camera_embedding/lact_llm/.cache_inductor/s5/cs5amjln3eunztc6azqjvgmrbnb2jkfan7xvzxqjc5t6icmpsw7m.py":25:35)
#loc10 = loc("/NHNHOME/WORKSPACE/26msit001_A/jinhyeok/TTT_camera_embedding/lact_llm/.cache_inductor/s5/cs5amjln3eunztc6azqjvgmrbnb2jkfan7xvzxqjc5t6icmpsw7m.py":25:44)
#loc11 = loc("/NHNHOME/WORKSPACE/26msit001_A/jinhyeok/TTT_camera_embedding/lact_llm/.cache_inductor/s5/cs5amjln3eunztc6azqjvgmrbnb2jkfan7xvzxqjc5t6icmpsw7m.py":26:30)
#loc12 = loc("/NHNHOME/WORKSPACE/26msit001_A/jinhyeok/TTT_camera_embedding/lact_llm/.cache_inductor/s5/cs5amjln3eunztc6azqjvgmrbnb2jkfan7xvzxqjc5t6icmpsw7m.py":26:35)
#loc13 = loc("/NHNHOME/WORKSPACE/26msit001_A/jinhyeok/TTT_camera_embedding/lact_llm/.cache_inductor/s5/cs5amjln3eunztc6azqjvgmrbnb2jkfan7xvzxqjc5t6icmpsw7m.py":27:30)
#loc14 = loc("/NHNHOME/WORKSPACE/26msit001_A/jinhyeok/TTT_camera_embedding/lact_llm/.cache_inductor/s5/cs5amjln3eunztc6azqjvgmrbnb2jkfan7xvzxqjc5t6icmpsw7m.py":27:35)
#loc15 = loc("/NHNHOME/WORKSPACE/26msit001_A/jinhyeok/TTT_camera_embedding/lact_llm/.cache_inductor/s5/cs5amjln3eunztc6azqjvgmrbnb2jkfan7xvzxqjc5t6icmpsw7m.py":27:44)
#loc16 = loc("/NHNHOME/WORKSPACE/26msit001_A/jinhyeok/TTT_camera_embedding/lact_llm/.cache_inductor/s5/cs5amjln3eunztc6azqjvgmrbnb2jkfan7xvzxqjc5t6icmpsw7m.py":28:31)
#loc17 = loc("/NHNHOME/WORKSPACE/26msit001_A/jinhyeok/TTT_camera_embedding/lact_llm/.cache_inductor/s5/cs5amjln3eunztc6azqjvgmrbnb2jkfan7xvzxqjc5t6icmpsw7m.py":28:36)
#loc18 = loc("/NHNHOME/WORKSPACE/26msit001_A/jinhyeok/TTT_camera_embedding/lact_llm/.cache_inductor/s5/cs5amjln3eunztc6azqjvgmrbnb2jkfan7xvzxqjc5t6icmpsw7m.py":28:45)
#loc19 = loc("/NHNHOME/WORKSPACE/26msit001_A/jinhyeok/TTT_camera_embedding/lact_llm/.cache_inductor/s5/cs5amjln3eunztc6azqjvgmrbnb2jkfan7xvzxqjc5t6icmpsw7m.py":29:31)
#loc20 = loc("/NHNHOME/WORKSPACE/26msit001_A/jinhyeok/TTT_camera_embedding/lact_llm/.cache_inductor/s5/cs5amjln3eunztc6azqjvgmrbnb2jkfan7xvzxqjc5t6icmpsw7m.py":29:36)
#loc21 = loc("/NHNHOME/WORKSPACE/26msit001_A/jinhyeok/TTT_camera_embedding/lact_llm/.cache_inductor/s5/cs5amjln3eunztc6azqjvgmrbnb2jkfan7xvzxqjc5t6icmpsw7m.py":29:45)
#loc22 = loc("/NHNHOME/WORKSPACE/26msit001_A/jinhyeok/TTT_camera_embedding/lact_llm/.cache_inductor/s5/cs5amjln3eunztc6azqjvgmrbnb2jkfan7xvzxqjc5t6icmpsw7m.py":31:26)
#loc23 = loc("/NHNHOME/WORKSPACE/26msit001_A/jinhyeok/TTT_camera_embedding/lact_llm/.cache_inductor/s5/cs5amjln3eunztc6azqjvgmrbnb2jkfan7xvzxqjc5t6icmpsw7m.py":32:11)
#loc24 = loc("/NHNHOME/WORKSPACE/26msit001_A/jinhyeok/TTT_camera_embedding/lact_llm/.cache_inductor/s5/cs5amjln3eunztc6azqjvgmrbnb2jkfan7xvzxqjc5t6icmpsw7m.py":33:18)
#loc25 = loc("/NHNHOME/WORKSPACE/26msit001_A/jinhyeok/TTT_camera_embedding/lact_llm/.cache_inductor/s5/cs5amjln3eunztc6azqjvgmrbnb2jkfan7xvzxqjc5t6icmpsw7m.py":34:19)
#loc26 = loc("/NHNHOME/WORKSPACE/26msit001_A/jinhyeok/TTT_camera_embedding/lact_llm/.cache_inductor/s5/cs5amjln3eunztc6azqjvgmrbnb2jkfan7xvzxqjc5t6icmpsw7m.py":35:11)
#loc27 = loc("/NHNHOME/WORKSPACE/26msit001_A/jinhyeok/TTT_camera_embedding/lact_llm/.cache_inductor/s5/cs5amjln3eunztc6azqjvgmrbnb2jkfan7xvzxqjc5t6icmpsw7m.py":36:18)
#loc28 = loc("/NHNHOME/WORKSPACE/26msit001_A/jinhyeok/TTT_camera_embedding/lact_llm/.cache_inductor/s5/cs5amjln3eunztc6azqjvgmrbnb2jkfan7xvzxqjc5t6icmpsw7m.py":38:19)
#loc29 = loc("/NHNHOME/WORKSPACE/26msit001_A/jinhyeok/TTT_camera_embedding/lact_llm/.cache_inductor/s5/cs5amjln3eunztc6azqjvgmrbnb2jkfan7xvzxqjc5t6icmpsw7m.py":39:12)
#loc30 = loc("/NHNHOME/WORKSPACE/26msit001_A/jinhyeok/TTT_camera_embedding/lact_llm/.cache_inductor/s5/cs5amjln3eunztc6azqjvgmrbnb2jkfan7xvzxqjc5t6icmpsw7m.py":40:20)
#loc31 = loc("/NHNHOME/WORKSPACE/26msit001_A/jinhyeok/TTT_camera_embedding/lact_llm/.cache_inductor/s5/cs5amjln3eunztc6azqjvgmrbnb2jkfan7xvzxqjc5t6icmpsw7m.py":42:20)
#loc32 = loc("/NHNHOME/WORKSPACE/26msit001_A/jinhyeok/TTT_camera_embedding/lact_llm/.cache_inductor/s5/cs5amjln3eunztc6azqjvgmrbnb2jkfan7xvzxqjc5t6icmpsw7m.py":43:12)
#loc33 = loc("/NHNHOME/WORKSPACE/26msit001_A/jinhyeok/TTT_camera_embedding/lact_llm/.cache_inductor/s5/cs5amjln3eunztc6azqjvgmrbnb2jkfan7xvzxqjc5t6icmpsw7m.py":44:20)
#loc34 = loc("/NHNHOME/WORKSPACE/26msit001_A/jinhyeok/TTT_camera_embedding/lact_llm/.cache_inductor/s5/cs5amjln3eunztc6azqjvgmrbnb2jkfan7xvzxqjc5t6icmpsw7m.py":46:20)
#loc35 = loc("/NHNHOME/WORKSPACE/26msit001_A/jinhyeok/TTT_camera_embedding/lact_llm/.cache_inductor/s5/cs5amjln3eunztc6azqjvgmrbnb2jkfan7xvzxqjc5t6icmpsw7m.py":48:25)
#loc36 = loc("/NHNHOME/WORKSPACE/26msit001_A/jinhyeok/TTT_camera_embedding/lact_llm/.cache_inductor/s5/cs5amjln3eunztc6azqjvgmrbnb2jkfan7xvzxqjc5t6icmpsw7m.py":48:37)
#loc37 = loc("/NHNHOME/WORKSPACE/26msit001_A/jinhyeok/TTT_camera_embedding/lact_llm/.cache_inductor/s5/cs5amjln3eunztc6azqjvgmrbnb2jkfan7xvzxqjc5t6icmpsw7m.py":49:25)
#loc38 = loc("/NHNHOME/WORKSPACE/26msit001_A/jinhyeok/TTT_camera_embedding/lact_llm/.cache_inductor/s5/cs5amjln3eunztc6azqjvgmrbnb2jkfan7xvzxqjc5t6icmpsw7m.py":49:37)
#loc39 = loc("/NHNHOME/WORKSPACE/26msit001_A/jinhyeok/TTT_camera_embedding/lact_llm/.cache_inductor/s5/cs5amjln3eunztc6azqjvgmrbnb2jkfan7xvzxqjc5t6icmpsw7m.py":50:25)
#loc40 = loc("/NHNHOME/WORKSPACE/26msit001_A/jinhyeok/TTT_camera_embedding/lact_llm/.cache_inductor/s5/cs5amjln3eunztc6azqjvgmrbnb2jkfan7xvzxqjc5t6icmpsw7m.py":50:37)
#loc41 = loc("/NHNHOME/WORKSPACE/26msit001_A/jinhyeok/TTT_camera_embedding/lact_llm/.cache_inductor/s5/cs5amjln3eunztc6azqjvgmrbnb2jkfan7xvzxqjc5t6icmpsw7m.py":51:25)
#loc42 = loc("/NHNHOME/WORKSPACE/26msit001_A/jinhyeok/TTT_camera_embedding/lact_llm/.cache_inductor/s5/cs5amjln3eunztc6azqjvgmrbnb2jkfan7xvzxqjc5t6icmpsw7m.py":51:37)
#loc43 = loc("/NHNHOME/WORKSPACE/26msit001_A/jinhyeok/TTT_camera_embedding/lact_llm/.cache_inductor/s5/cs5amjln3eunztc6azqjvgmrbnb2jkfan7xvzxqjc5t6icmpsw7m.py":51:4)
#loc54 = loc("xnumel"(#loc1))
#loc55 = loc("xoffset"(#loc2))
#loc56 = loc("xoffset"(#loc3))
#loc57 = loc("xindex"(#loc4))
#loc58 = loc("xindex"(#loc5))
#loc59 = loc("xmask"(#loc6))
#loc60 = loc("x1"(#loc7))
#loc61 = loc("tmp0"(#loc8))
#loc62 = loc("tmp0"(#loc9))
#loc63 = loc("tmp0"(#loc10))
#loc64 = loc("tmp2"(#loc11))
#loc65 = loc("tmp2"(#loc12))
#loc66 = loc("tmp9"(#loc13))
#loc67 = loc("tmp9"(#loc14))
#loc68 = loc("tmp9"(#loc15))
#loc69 = loc("tmp14"(#loc16))
#loc70 = loc("tmp14"(#loc17))
#loc71 = loc("tmp14"(#loc18))
#loc72 = loc("tmp19"(#loc19))
#loc73 = loc("tmp19"(#loc20))
#loc74 = loc("tmp19"(#loc21))
#loc75 = loc("tmp3"(#loc22))
#loc76 = loc("tmp4"(#loc23))
#loc77 = loc("tmp5"(#loc24))
#loc78 = loc("tmp6"(#loc25))
#loc79 = loc("tmp7"(#loc26))
#loc80 = loc("tmp8"(#loc27))
#loc81 = loc("tmp11"(#loc28))
#loc82 = loc("tmp12"(#loc29))
#loc83 = loc("tmp13"(#loc30))
#loc84 = loc("tmp16"(#loc31))
#loc85 = loc("tmp17"(#loc32))
#loc86 = loc("tmp18"(#loc33))
#loc87 = loc("tmp21"(#loc34))
