#loc = loc("/NHNHOME/WORKSPACE/26msit001_A/jinhyeok/TTT_camera_embedding/lact_llm/.cache_inductor/gz/cgzcbqyg5bojdfv3nrfx2svfuil3mrydjlws5fmgzkazixa6ujbn.py":18:0)
#loc58 = loc("/NHNHOME/WORKSPACE/26msit001_A/jinhyeok/TTT_camera_embedding/.venv_llm/lib/python3.12/site-packages/triton/language/standard.py":47:0)
#loc65 = loc("in_out_ptr0"(#loc))
#loc66 = loc("in_ptr0"(#loc))
#loc67 = loc("in_ptr1"(#loc))
#loc68 = loc("in_ptr2"(#loc))
#loc69 = loc("out_ptr0"(#loc))
#loc70 = loc("xnumel"(#loc))
#loc123 = loc("x"(#loc58))
module {
  tt.func public @triton_poi_fused__to_copy_add_cat_mul_rsub_sigmoid_silu_slice_stack_view_24(%in_out_ptr0: !tt.ptr<bf16> {tt.divisibility = 16 : i32} loc("in_out_ptr0"(#loc)), %in_ptr0: !tt.ptr<f32> {tt.divisibility = 16 : i32} loc("in_ptr0"(#loc)), %in_ptr1: !tt.ptr<bf16> {tt.divisibility = 16 : i32} loc("in_ptr1"(#loc)), %in_ptr2: !tt.ptr<bf16> {tt.divisibility = 16 : i32} loc("in_ptr2"(#loc)), %out_ptr0: !tt.ptr<bf16> {tt.divisibility = 16 : i32} loc("out_ptr0"(#loc)), %xnumel: i32 {tt.divisibility = 16 : i32} loc("xnumel"(#loc))) attributes {noinline = false} {
    %xnumel_0 = arith.constant 6291456 : i32 loc(#loc71)
    %xoffset = tt.get_program_id x : i32 loc(#loc72)
    %xoffset_1 = arith.constant 512 : i32 loc(#loc73)
    %xoffset_2 = arith.constant 512 : i32 loc(#loc73)
    %xoffset_3 = arith.muli %xoffset, %xoffset_2 : i32 loc(#loc73)
    %xindex = tt.make_range {end = 512 : i32, start = 0 : i32} : tensor<512xi32> loc(#loc74)
    %xindex_4 = tt.splat %xoffset_3 : i32 -> tensor<512xi32> loc(#loc75)
    %xindex_5 = arith.addi %xindex_4, %xindex : tensor<512xi32> loc(#loc75)
    %xmask = arith.constant true loc(#loc76)
    %xmask_6 = arith.constant dense<true> : tensor<512xi1> loc(#loc76)
    %x1 = arith.constant 1024 : i32 loc(#loc77)
    %x1_7 = arith.constant 1024 : i32 loc(#loc77)
    %x1_8 = arith.constant dense<1024> : tensor<512xi32> loc(#loc77)
    %x1_9 = arith.divsi %xindex_5, %x1_8 : tensor<512xi32> loc(#loc77)
    %x1_10 = arith.constant 192 : i32 loc(#loc78)
    %x1_11 = arith.constant 192 : i32 loc(#loc78)
    %x1_12 = arith.constant dense<192> : tensor<512xi32> loc(#loc78)
    %x1_13 = arith.remsi %x1_9, %x1_12 : tensor<512xi32> loc(#loc78)
    %x0 = arith.constant 1024 : i32 loc(#loc79)
    %x0_14 = arith.constant 1024 : i32 loc(#loc79)
    %x0_15 = arith.constant dense<1024> : tensor<512xi32> loc(#loc79)
    %x0_16 = arith.remsi %xindex_5, %x0_15 : tensor<512xi32> loc(#loc79)
    %x2 = arith.constant 196608 : i32 loc(#loc80)
    %x2_17 = arith.constant 196608 : i32 loc(#loc80)
    %x2_18 = arith.constant dense<196608> : tensor<512xi32> loc(#loc80)
    %x2_19 = arith.divsi %xindex_5, %x2_18 : tensor<512xi32> loc(#loc80)
    %tmp14 = tt.splat %in_out_ptr0 : !tt.ptr<bf16> -> tensor<512x!tt.ptr<bf16>> loc(#loc81)
    %tmp14_20 = tt.addptr %tmp14, %xindex_5 : tensor<512x!tt.ptr<bf16>>, tensor<512xi32> loc(#loc81)
    %tmp14_21 = tt.load %tmp14_20 : tensor<512x!tt.ptr<bf16>> loc(#loc82)
    %tmp14_22 = arith.extf %tmp14_21 : tensor<512xbf16> to tensor<512xf32> loc(#loc83)
    %tmp16 = tt.splat %in_ptr2 : !tt.ptr<bf16> -> tensor<512x!tt.ptr<bf16>> loc(#loc84)
    %tmp16_23 = tt.addptr %tmp16, %xindex_5 : tensor<512x!tt.ptr<bf16>>, tensor<512xi32> loc(#loc84)
    %tmp16_24 = tt.load %tmp16_23 : tensor<512x!tt.ptr<bf16>> loc(#loc85)
    %tmp16_25 = arith.extf %tmp16_24 : tensor<512xbf16> to tensor<512xf32> loc(#loc86)
    %tmp1 = arith.constant 0 : i64 loc(#loc87)
    %tmp1_26 = arith.constant dense<0> : tensor<1xi64> loc(#loc87)
    %tmp2 = arith.extsi %x1_13 : tensor<512xi32> to tensor<512xi64> loc(#loc88)
    %tmp2_27 = arith.constant dense<0> : tensor<512xi64> loc(#loc88)
    %tmp2_28 = arith.cmpi sge, %tmp2, %tmp2_27 : tensor<512xi64> loc(#loc88)
    %tmp3 = arith.constant 96 : i64 loc(#loc89)
    %tmp3_29 = arith.constant dense<96> : tensor<1xi64> loc(#loc89)
    %tmp4 = arith.extsi %x1_13 : tensor<512xi32> to tensor<512xi64> loc(#loc90)
    %tmp4_30 = arith.constant dense<96> : tensor<512xi64> loc(#loc90)
    %tmp4_31 = arith.cmpi slt, %tmp4, %tmp4_30 : tensor<512xi64> loc(#loc90)
    %tmp5 = arith.constant 1024 : i32 loc(#loc91)
    %tmp5_32 = arith.constant 1024 : i32 loc(#loc91)
    %tmp5_33 = arith.constant dense<1024> : tensor<512xi32> loc(#loc91)
    %tmp5_34 = arith.muli %tmp5_33, %x1_13 : tensor<512xi32> loc(#loc91)
    %tmp5_35 = arith.addi %x0_16, %tmp5_34 : tensor<512xi32> loc(#loc92)
    %tmp5_36 = arith.constant 98304 : i32 loc(#loc93)
    %tmp5_37 = arith.constant 98304 : i32 loc(#loc93)
    %tmp5_38 = arith.constant dense<98304> : tensor<512xi32> loc(#loc93)
    %tmp5_39 = arith.muli %tmp5_38, %x2_19 : tensor<512xi32> loc(#loc93)
    %tmp5_40 = arith.addi %tmp5_35, %tmp5_39 : tensor<512xi32> loc(#loc94)
    %tmp5_41 = tt.splat %in_ptr0 : !tt.ptr<f32> -> tensor<512x!tt.ptr<f32>> loc(#loc95)
    %tmp5_42 = tt.addptr %tmp5_41, %tmp5_40 : tensor<512x!tt.ptr<f32>>, tensor<512xi32> loc(#loc95)
    %tmp5_43 = arith.constant 0.000000e+00 : f32 loc(#loc96)
    %tmp5_44 = arith.constant dense<0.000000e+00> : tensor<512xf32> loc(#loc96)
    %tmp5_45 = tt.load %tmp5_42, %tmp4_31, %tmp5_44 : tensor<512x!tt.ptr<f32>> loc(#loc96)
    %tmp7 = arith.constant 0.000000e+00 : f32 loc(#loc97)
    %tmp7_46 = arith.constant dense<0.000000e+00> : tensor<512xf32> loc(#loc97)
    %tmp8 = arith.select %tmp4_31, %tmp5_45, %tmp7_46 : tensor<512xi1>, tensor<512xf32> loc(#loc98)
    %tmp9 = arith.extsi %x1_13 : tensor<512xi32> to tensor<512xi64> loc(#loc99)
    %tmp9_47 = arith.constant dense<96> : tensor<512xi64> loc(#loc99)
    %tmp9_48 = arith.cmpi sge, %tmp9, %tmp9_47 : tensor<512xi64> loc(#loc99)
    %tmp10 = arith.constant 192 : i64 loc(#loc100)
    %tmp10_49 = arith.constant dense<192> : tensor<1xi64> loc(#loc100)
    %tmp11 = arith.extsi %x1_13 : tensor<512xi32> to tensor<512xi64> loc(#loc101)
    %tmp11_50 = arith.constant dense<192> : tensor<512xi64> loc(#loc101)
    %tmp11_51 = arith.cmpi slt, %tmp11, %tmp11_50 : tensor<512xi64> loc(#loc101)
    %tmp12 = arith.constant 98304 : i32 loc(#loc102)
    %tmp12_52 = arith.constant 98304 : i32 loc(#loc102)
    %tmp12_53 = arith.constant dense<98304> : tensor<512xi32> loc(#loc102)
    %tmp12_54 = arith.addi %tmp12_53, %x0_16 : tensor<512xi32> loc(#loc102)
    %tmp12_55 = arith.constant -96 : i32 loc(#loc103)
    %tmp12_56 = arith.constant -96 : i32 loc(#loc103)
    %tmp12_57 = arith.constant dense<-96> : tensor<512xi32> loc(#loc103)
    %tmp12_58 = arith.addi %tmp12_57, %x1_13 : tensor<512xi32> loc(#loc103)
    %tmp12_59 = arith.constant 1024 : i32 loc(#loc104)
    %tmp12_60 = arith.constant 1024 : i32 loc(#loc104)
    %tmp12_61 = arith.constant dense<1024> : tensor<512xi32> loc(#loc104)
    %tmp12_62 = arith.muli %tmp12_61, %tmp12_58 : tensor<512xi32> loc(#loc104)
    %tmp12_63 = arith.addi %tmp12_54, %tmp12_62 : tensor<512xi32> loc(#loc105)
    %tmp12_64 = arith.constant 196608 : i32 loc(#loc106)
    %tmp12_65 = arith.constant 196608 : i32 loc(#loc106)
    %tmp12_66 = arith.constant dense<196608> : tensor<512xi32> loc(#loc106)
    %tmp12_67 = arith.muli %tmp12_66, %x2_19 : tensor<512xi32> loc(#loc106)
    %tmp12_68 = arith.addi %tmp12_63, %tmp12_67 : tensor<512xi32> loc(#loc107)
    %tmp12_69 = tt.splat %in_ptr1 : !tt.ptr<bf16> -> tensor<512x!tt.ptr<bf16>> loc(#loc108)
    %tmp12_70 = tt.addptr %tmp12_69, %tmp12_68 : tensor<512x!tt.ptr<bf16>>, tensor<512xi32> loc(#loc108)
    %tmp12_71 = arith.constant 0.000000e+00 : f32 loc(#loc109)
    %tmp12_72 = arith.constant dense<0.000000e+00> : tensor<512xf32> loc(#loc109)
    %tmp12_73 = arith.truncf %tmp12_72 : tensor<512xf32> to tensor<512xbf16> loc(#loc109)
    %tmp12_74 = tt.load %tmp12_70, %tmp9_48, %tmp12_73 : tensor<512x!tt.ptr<bf16>> loc(#loc109)
    %tmp12_75 = arith.extf %tmp12_74 : tensor<512xbf16> to tensor<512xf32> loc(#loc110)
    %tmp13 = arith.select %tmp4_31, %tmp8, %tmp12_75 : tensor<512xi1>, tensor<512xf32> loc(#loc111)
    %tmp15 = arith.mulf %tmp13, %tmp14_22 : tensor<512xf32> loc(#loc112)
    %tmp17 = tt.call @triton.language.standard.sigmoid__fp32S512S__(%tmp16_25) : (tensor<512xf32>) -> tensor<512xf32> loc(#loc113)
    %tmp18 = arith.mulf %tmp15, %tmp17 : tensor<512xf32> loc(#loc114)
    %tmp19 = arith.constant 1.000000e+00 : f32 loc(#loc115)
    %tmp20 = arith.constant dense<1.000000e+00> : tensor<512xf32> loc(#loc116)
    %tmp20_76 = arith.subf %tmp20, %tmp17 : tensor<512xf32> loc(#loc116)
    %tmp21 = arith.mulf %tmp16_25, %tmp20_76 : tensor<512xf32> loc(#loc117)
    %tmp22 = arith.constant dense<1.000000e+00> : tensor<512xf32> loc(#loc118)
    %tmp22_77 = arith.addf %tmp21, %tmp22 : tensor<512xf32> loc(#loc118)
    %tmp23 = arith.mulf %tmp18, %tmp22_77 : tensor<512xf32> loc(#loc119)
    %tmp25 = tt.call @triton.language.standard.sigmoid__fp32S512S__(%tmp16_25) : (tensor<512xf32>) -> tensor<512xf32> loc(#loc120)
    %tmp26 = arith.mulf %tmp16_25, %tmp25 : tensor<512xf32> loc(#loc121)
    %tmp28 = arith.mulf %tmp13, %tmp26 : tensor<512xf32> loc(#loc122)
    %0 = tt.splat %in_out_ptr0 : !tt.ptr<bf16> -> tensor<512x!tt.ptr<bf16>> loc(#loc53)
    %1 = tt.addptr %0, %xindex_5 : tensor<512x!tt.ptr<bf16>>, tensor<512xi32> loc(#loc53)
    %2 = arith.truncf %tmp23 : tensor<512xf32> to tensor<512xbf16> loc(#loc54)
    tt.store %1, %2 : tensor<512x!tt.ptr<bf16>> loc(#loc54)
    %3 = tt.splat %out_ptr0 : !tt.ptr<bf16> -> tensor<512x!tt.ptr<bf16>> loc(#loc55)
    %4 = tt.addptr %3, %xindex_5 : tensor<512x!tt.ptr<bf16>>, tensor<512xi32> loc(#loc55)
    %5 = arith.truncf %tmp28 : tensor<512xf32> to tensor<512xbf16> loc(#loc56)
    tt.store %4, %5 : tensor<512x!tt.ptr<bf16>> loc(#loc56)
    tt.return loc(#loc57)
  } loc(#loc)
  tt.func private @triton.language.standard.sigmoid__fp32S512S__(%x: tensor<512xf32> loc("x"(#loc58))) -> tensor<512xf32> attributes {noinline = false} {
    %cst = arith.constant 0.000000e+00 : f32 loc(#loc59)
    %cst_0 = arith.constant dense<0.000000e+00> : tensor<512xf32> loc(#loc59)
    %0 = arith.subf %cst_0, %x : tensor<512xf32> loc(#loc59)
    %1 = math.exp %0 : tensor<512xf32> loc(#loc60)
    %c1_i32 = arith.constant 1 : i32 loc(#loc61)
    %cst_1 = arith.constant 1.000000e+00 : f32 loc(#loc61)
    %cst_2 = arith.constant dense<1.000000e+00> : tensor<512xf32> loc(#loc61)
    %2 = arith.addf %cst_2, %1 : tensor<512xf32> loc(#loc61)
    %c1_i32_3 = arith.constant 1 : i32 loc(#loc62)
    %cst_4 = arith.constant 1.000000e+00 : f32 loc(#loc62)
    %cst_5 = arith.constant dense<1.000000e+00> : tensor<512xf32> loc(#loc62)
    %3 = arith.divf %cst_5, %2 : tensor<512xf32> loc(#loc62)
    tt.return %3 : tensor<512xf32> loc(#loc63)
  ^bb1:  // no predecessors
    %4 = ub.poison : tensor<512xf32> loc(#loc64)
    tt.return %4 : tensor<512xf32> loc(#loc64)
  } loc(#loc58)
} loc(#loc)
#loc1 = loc("/NHNHOME/WORKSPACE/26msit001_A/jinhyeok/TTT_camera_embedding/lact_llm/.cache_inductor/gz/cgzcbqyg5bojdfv3nrfx2svfuil3mrydjlws5fmgzkazixa6ujbn.py":19:13)
#loc2 = loc("/NHNHOME/WORKSPACE/26msit001_A/jinhyeok/TTT_camera_embedding/lact_llm/.cache_inductor/gz/cgzcbqyg5bojdfv3nrfx2svfuil3mrydjlws5fmgzkazixa6ujbn.py":20:28)
#loc3 = loc("/NHNHOME/WORKSPACE/26msit001_A/jinhyeok/TTT_camera_embedding/lact_llm/.cache_inductor/gz/cgzcbqyg5bojdfv3nrfx2svfuil3mrydjlws5fmgzkazixa6ujbn.py":20:33)
#loc4 = loc("/NHNHOME/WORKSPACE/26msit001_A/jinhyeok/TTT_camera_embedding/lact_llm/.cache_inductor/gz/cgzcbqyg5bojdfv3nrfx2svfuil3mrydjlws5fmgzkazixa6ujbn.py":21:36)
#loc5 = loc("/NHNHOME/WORKSPACE/26msit001_A/jinhyeok/TTT_camera_embedding/lact_llm/.cache_inductor/gz/cgzcbqyg5bojdfv3nrfx2svfuil3mrydjlws5fmgzkazixa6ujbn.py":21:23)
#loc6 = loc("/NHNHOME/WORKSPACE/26msit001_A/jinhyeok/TTT_camera_embedding/lact_llm/.cache_inductor/gz/cgzcbqyg5bojdfv3nrfx2svfuil3mrydjlws5fmgzkazixa6ujbn.py":22:36)
#loc7 = loc("/NHNHOME/WORKSPACE/26msit001_A/jinhyeok/TTT_camera_embedding/lact_llm/.cache_inductor/gz/cgzcbqyg5bojdfv3nrfx2svfuil3mrydjlws5fmgzkazixa6ujbn.py":23:21)
#loc8 = loc("/NHNHOME/WORKSPACE/26msit001_A/jinhyeok/TTT_camera_embedding/lact_llm/.cache_inductor/gz/cgzcbqyg5bojdfv3nrfx2svfuil3mrydjlws5fmgzkazixa6ujbn.py":23:29)
#loc9 = loc("/NHNHOME/WORKSPACE/26msit001_A/jinhyeok/TTT_camera_embedding/lact_llm/.cache_inductor/gz/cgzcbqyg5bojdfv3nrfx2svfuil3mrydjlws5fmgzkazixa6ujbn.py":24:19)
#loc10 = loc("/NHNHOME/WORKSPACE/26msit001_A/jinhyeok/TTT_camera_embedding/lact_llm/.cache_inductor/gz/cgzcbqyg5bojdfv3nrfx2svfuil3mrydjlws5fmgzkazixa6ujbn.py":25:19)
#loc11 = loc("/NHNHOME/WORKSPACE/26msit001_A/jinhyeok/TTT_camera_embedding/lact_llm/.cache_inductor/gz/cgzcbqyg5bojdfv3nrfx2svfuil3mrydjlws5fmgzkazixa6ujbn.py":27:35)
#loc12 = loc("/NHNHOME/WORKSPACE/26msit001_A/jinhyeok/TTT_camera_embedding/lact_llm/.cache_inductor/gz/cgzcbqyg5bojdfv3nrfx2svfuil3mrydjlws5fmgzkazixa6ujbn.py":27:40)
#loc13 = loc("/NHNHOME/WORKSPACE/26msit001_A/jinhyeok/TTT_camera_embedding/lact_llm/.cache_inductor/gz/cgzcbqyg5bojdfv3nrfx2svfuil3mrydjlws5fmgzkazixa6ujbn.py":27:49)
#loc14 = loc("/NHNHOME/WORKSPACE/26msit001_A/jinhyeok/TTT_camera_embedding/lact_llm/.cache_inductor/gz/cgzcbqyg5bojdfv3nrfx2svfuil3mrydjlws5fmgzkazixa6ujbn.py":28:31)
#loc15 = loc("/NHNHOME/WORKSPACE/26msit001_A/jinhyeok/TTT_camera_embedding/lact_llm/.cache_inductor/gz/cgzcbqyg5bojdfv3nrfx2svfuil3mrydjlws5fmgzkazixa6ujbn.py":28:36)
#loc16 = loc("/NHNHOME/WORKSPACE/26msit001_A/jinhyeok/TTT_camera_embedding/lact_llm/.cache_inductor/gz/cgzcbqyg5bojdfv3nrfx2svfuil3mrydjlws5fmgzkazixa6ujbn.py":28:45)
#loc17 = loc("/NHNHOME/WORKSPACE/26msit001_A/jinhyeok/TTT_camera_embedding/lact_llm/.cache_inductor/gz/cgzcbqyg5bojdfv3nrfx2svfuil3mrydjlws5fmgzkazixa6ujbn.py":30:27)
#loc18 = loc("/NHNHOME/WORKSPACE/26msit001_A/jinhyeok/TTT_camera_embedding/lact_llm/.cache_inductor/gz/cgzcbqyg5bojdfv3nrfx2svfuil3mrydjlws5fmgzkazixa6ujbn.py":31:19)
#loc19 = loc("/NHNHOME/WORKSPACE/26msit001_A/jinhyeok/TTT_camera_embedding/lact_llm/.cache_inductor/gz/cgzcbqyg5bojdfv3nrfx2svfuil3mrydjlws5fmgzkazixa6ujbn.py":32:28)
#loc20 = loc("/NHNHOME/WORKSPACE/26msit001_A/jinhyeok/TTT_camera_embedding/lact_llm/.cache_inductor/gz/cgzcbqyg5bojdfv3nrfx2svfuil3mrydjlws5fmgzkazixa6ujbn.py":33:18)
#loc21 = loc("/NHNHOME/WORKSPACE/26msit001_A/jinhyeok/TTT_camera_embedding/lact_llm/.cache_inductor/gz/cgzcbqyg5bojdfv3nrfx2svfuil3mrydjlws5fmgzkazixa6ujbn.py":34:41)
#loc22 = loc("/NHNHOME/WORKSPACE/26msit001_A/jinhyeok/TTT_camera_embedding/lact_llm/.cache_inductor/gz/cgzcbqyg5bojdfv3nrfx2svfuil3mrydjlws5fmgzkazixa6ujbn.py":34:35)
#loc23 = loc("/NHNHOME/WORKSPACE/26msit001_A/jinhyeok/TTT_camera_embedding/lact_llm/.cache_inductor/gz/cgzcbqyg5bojdfv3nrfx2svfuil3mrydjlws5fmgzkazixa6ujbn.py":34:53)
#loc24 = loc("/NHNHOME/WORKSPACE/26msit001_A/jinhyeok/TTT_camera_embedding/lact_llm/.cache_inductor/gz/cgzcbqyg5bojdfv3nrfx2svfuil3mrydjlws5fmgzkazixa6ujbn.py":34:47)
#loc25 = loc("/NHNHOME/WORKSPACE/26msit001_A/jinhyeok/TTT_camera_embedding/lact_llm/.cache_inductor/gz/cgzcbqyg5bojdfv3nrfx2svfuil3mrydjlws5fmgzkazixa6ujbn.py":34:30)
#loc26 = loc("/NHNHOME/WORKSPACE/26msit001_A/jinhyeok/TTT_camera_embedding/lact_llm/.cache_inductor/gz/cgzcbqyg5bojdfv3nrfx2svfuil3mrydjlws5fmgzkazixa6ujbn.py":34:58)
#loc27 = loc("/NHNHOME/WORKSPACE/26msit001_A/jinhyeok/TTT_camera_embedding/lact_llm/.cache_inductor/gz/cgzcbqyg5bojdfv3nrfx2svfuil3mrydjlws5fmgzkazixa6ujbn.py":36:36)
#loc28 = loc("/NHNHOME/WORKSPACE/26msit001_A/jinhyeok/TTT_camera_embedding/lact_llm/.cache_inductor/gz/cgzcbqyg5bojdfv3nrfx2svfuil3mrydjlws5fmgzkazixa6ujbn.py":37:32)
#loc29 = loc("/NHNHOME/WORKSPACE/26msit001_A/jinhyeok/TTT_camera_embedding/lact_llm/.cache_inductor/gz/cgzcbqyg5bojdfv3nrfx2svfuil3mrydjlws5fmgzkazixa6ujbn.py":38:19)
#loc30 = loc("/NHNHOME/WORKSPACE/26msit001_A/jinhyeok/TTT_camera_embedding/lact_llm/.cache_inductor/gz/cgzcbqyg5bojdfv3nrfx2svfuil3mrydjlws5fmgzkazixa6ujbn.py":39:30)
#loc31 = loc("/NHNHOME/WORKSPACE/26msit001_A/jinhyeok/TTT_camera_embedding/lact_llm/.cache_inductor/gz/cgzcbqyg5bojdfv3nrfx2svfuil3mrydjlws5fmgzkazixa6ujbn.py":40:19)
#loc32 = loc("/NHNHOME/WORKSPACE/26msit001_A/jinhyeok/TTT_camera_embedding/lact_llm/.cache_inductor/gz/cgzcbqyg5bojdfv3nrfx2svfuil3mrydjlws5fmgzkazixa6ujbn.py":41:39)
#loc33 = loc("/NHNHOME/WORKSPACE/26msit001_A/jinhyeok/TTT_camera_embedding/lact_llm/.cache_inductor/gz/cgzcbqyg5bojdfv3nrfx2svfuil3mrydjlws5fmgzkazixa6ujbn.py":41:58)
#loc34 = loc("/NHNHOME/WORKSPACE/26msit001_A/jinhyeok/TTT_camera_embedding/lact_llm/.cache_inductor/gz/cgzcbqyg5bojdfv3nrfx2svfuil3mrydjlws5fmgzkazixa6ujbn.py":41:50)
#loc35 = loc("/NHNHOME/WORKSPACE/26msit001_A/jinhyeok/TTT_camera_embedding/lact_llm/.cache_inductor/gz/cgzcbqyg5bojdfv3nrfx2svfuil3mrydjlws5fmgzkazixa6ujbn.py":41:44)
#loc36 = loc("/NHNHOME/WORKSPACE/26msit001_A/jinhyeok/TTT_camera_embedding/lact_llm/.cache_inductor/gz/cgzcbqyg5bojdfv3nrfx2svfuil3mrydjlws5fmgzkazixa6ujbn.py":41:71)
#loc37 = loc("/NHNHOME/WORKSPACE/26msit001_A/jinhyeok/TTT_camera_embedding/lact_llm/.cache_inductor/gz/cgzcbqyg5bojdfv3nrfx2svfuil3mrydjlws5fmgzkazixa6ujbn.py":41:64)
#loc38 = loc("/NHNHOME/WORKSPACE/26msit001_A/jinhyeok/TTT_camera_embedding/lact_llm/.cache_inductor/gz/cgzcbqyg5bojdfv3nrfx2svfuil3mrydjlws5fmgzkazixa6ujbn.py":41:31)
#loc39 = loc("/NHNHOME/WORKSPACE/26msit001_A/jinhyeok/TTT_camera_embedding/lact_llm/.cache_inductor/gz/cgzcbqyg5bojdfv3nrfx2svfuil3mrydjlws5fmgzkazixa6ujbn.py":41:76)
#loc40 = loc("/NHNHOME/WORKSPACE/26msit001_A/jinhyeok/TTT_camera_embedding/lact_llm/.cache_inductor/gz/cgzcbqyg5bojdfv3nrfx2svfuil3mrydjlws5fmgzkazixa6ujbn.py":41:96)
#loc41 = loc("/NHNHOME/WORKSPACE/26msit001_A/jinhyeok/TTT_camera_embedding/lact_llm/.cache_inductor/gz/cgzcbqyg5bojdfv3nrfx2svfuil3mrydjlws5fmgzkazixa6ujbn.py":42:33)
#loc42 = loc("/NHNHOME/WORKSPACE/26msit001_A/jinhyeok/TTT_camera_embedding/lact_llm/.cache_inductor/gz/cgzcbqyg5bojdfv3nrfx2svfuil3mrydjlws5fmgzkazixa6ujbn.py":43:20)
#loc43 = loc("/NHNHOME/WORKSPACE/26msit001_A/jinhyeok/TTT_camera_embedding/lact_llm/.cache_inductor/gz/cgzcbqyg5bojdfv3nrfx2svfuil3mrydjlws5fmgzkazixa6ujbn.py":44:23)
#loc44 = loc("/NHNHOME/WORKSPACE/26msit001_A/jinhyeok/TTT_camera_embedding/lact_llm/.cache_inductor/gz/cgzcbqyg5bojdfv3nrfx2svfuil3mrydjlws5fmgzkazixa6ujbn.py":45:20)
#loc45 = loc("/NHNHOME/WORKSPACE/26msit001_A/jinhyeok/TTT_camera_embedding/lact_llm/.cache_inductor/gz/cgzcbqyg5bojdfv3nrfx2svfuil3mrydjlws5fmgzkazixa6ujbn.py":46:12)
#loc46 = loc("/NHNHOME/WORKSPACE/26msit001_A/jinhyeok/TTT_camera_embedding/lact_llm/.cache_inductor/gz/cgzcbqyg5bojdfv3nrfx2svfuil3mrydjlws5fmgzkazixa6ujbn.py":47:20)
#loc47 = loc("/NHNHOME/WORKSPACE/26msit001_A/jinhyeok/TTT_camera_embedding/lact_llm/.cache_inductor/gz/cgzcbqyg5bojdfv3nrfx2svfuil3mrydjlws5fmgzkazixa6ujbn.py":48:20)
#loc48 = loc("/NHNHOME/WORKSPACE/26msit001_A/jinhyeok/TTT_camera_embedding/lact_llm/.cache_inductor/gz/cgzcbqyg5bojdfv3nrfx2svfuil3mrydjlws5fmgzkazixa6ujbn.py":49:20)
#loc49 = loc("/NHNHOME/WORKSPACE/26msit001_A/jinhyeok/TTT_camera_embedding/lact_llm/.cache_inductor/gz/cgzcbqyg5bojdfv3nrfx2svfuil3mrydjlws5fmgzkazixa6ujbn.py":50:20)
#loc50 = loc("/NHNHOME/WORKSPACE/26msit001_A/jinhyeok/TTT_camera_embedding/lact_llm/.cache_inductor/gz/cgzcbqyg5bojdfv3nrfx2svfuil3mrydjlws5fmgzkazixa6ujbn.py":52:23)
#loc51 = loc("/NHNHOME/WORKSPACE/26msit001_A/jinhyeok/TTT_camera_embedding/lact_llm/.cache_inductor/gz/cgzcbqyg5bojdfv3nrfx2svfuil3mrydjlws5fmgzkazixa6ujbn.py":53:20)
#loc52 = loc("/NHNHOME/WORKSPACE/26msit001_A/jinhyeok/TTT_camera_embedding/lact_llm/.cache_inductor/gz/cgzcbqyg5bojdfv3nrfx2svfuil3mrydjlws5fmgzkazixa6ujbn.py":55:20)
#loc53 = loc("/NHNHOME/WORKSPACE/26msit001_A/jinhyeok/TTT_camera_embedding/lact_llm/.cache_inductor/gz/cgzcbqyg5bojdfv3nrfx2svfuil3mrydjlws5fmgzkazixa6ujbn.py":56:28)
#loc54 = loc("/NHNHOME/WORKSPACE/26msit001_A/jinhyeok/TTT_camera_embedding/lact_llm/.cache_inductor/gz/cgzcbqyg5bojdfv3nrfx2svfuil3mrydjlws5fmgzkazixa6ujbn.py":56:40)
#loc55 = loc("/NHNHOME/WORKSPACE/26msit001_A/jinhyeok/TTT_camera_embedding/lact_llm/.cache_inductor/gz/cgzcbqyg5bojdfv3nrfx2svfuil3mrydjlws5fmgzkazixa6ujbn.py":57:25)
#loc56 = loc("/NHNHOME/WORKSPACE/26msit001_A/jinhyeok/TTT_camera_embedding/lact_llm/.cache_inductor/gz/cgzcbqyg5bojdfv3nrfx2svfuil3mrydjlws5fmgzkazixa6ujbn.py":57:37)
#loc57 = loc("/NHNHOME/WORKSPACE/26msit001_A/jinhyeok/TTT_camera_embedding/lact_llm/.cache_inductor/gz/cgzcbqyg5bojdfv3nrfx2svfuil3mrydjlws5fmgzkazixa6ujbn.py":57:4)
#loc59 = loc("/NHNHOME/WORKSPACE/26msit001_A/jinhyeok/TTT_camera_embedding/.venv_llm/lib/python3.12/site-packages/triton/language/standard.py":48:30)
#loc60 = loc("/NHNHOME/WORKSPACE/26msit001_A/jinhyeok/TTT_camera_embedding/.venv_llm/lib/python3.12/site-packages/triton/language/standard.py":48:29)
#loc61 = loc("/NHNHOME/WORKSPACE/26msit001_A/jinhyeok/TTT_camera_embedding/.venv_llm/lib/python3.12/site-packages/triton/language/standard.py":48:20)
#loc62 = loc("/NHNHOME/WORKSPACE/26msit001_A/jinhyeok/TTT_camera_embedding/.venv_llm/lib/python3.12/site-packages/triton/language/standard.py":48:16)
#loc63 = loc("/NHNHOME/WORKSPACE/26msit001_A/jinhyeok/TTT_camera_embedding/.venv_llm/lib/python3.12/site-packages/triton/language/standard.py":48:11)
#loc64 = loc("/NHNHOME/WORKSPACE/26msit001_A/jinhyeok/TTT_camera_embedding/.venv_llm/lib/python3.12/site-packages/triton/language/standard.py":48:4)
#loc71 = loc("xnumel"(#loc1))
#loc72 = loc("xoffset"(#loc2))
#loc73 = loc("xoffset"(#loc3))
#loc74 = loc("xindex"(#loc4))
#loc75 = loc("xindex"(#loc5))
#loc76 = loc("xmask"(#loc6))
#loc77 = loc("x1"(#loc7))
#loc78 = loc("x1"(#loc8))
#loc79 = loc("x0"(#loc9))
#loc80 = loc("x2"(#loc10))
#loc81 = loc("tmp14"(#loc11))
#loc82 = loc("tmp14"(#loc12))
#loc83 = loc("tmp14"(#loc13))
#loc84 = loc("tmp16"(#loc14))
#loc85 = loc("tmp16"(#loc15))
#loc86 = loc("tmp16"(#loc16))
#loc87 = loc("tmp1"(#loc17))
#loc88 = loc("tmp2"(#loc18))
#loc89 = loc("tmp3"(#loc19))
#loc90 = loc("tmp4"(#loc20))
#loc91 = loc("tmp5"(#loc21))
#loc92 = loc("tmp5"(#loc22))
#loc93 = loc("tmp5"(#loc23))
#loc94 = loc("tmp5"(#loc24))
#loc95 = loc("tmp5"(#loc25))
#loc96 = loc("tmp5"(#loc26))
#loc97 = loc("tmp7"(#loc27))
#loc98 = loc("tmp8"(#loc28))
#loc99 = loc("tmp9"(#loc29))
#loc100 = loc("tmp10"(#loc30))
#loc101 = loc("tmp11"(#loc31))
#loc102 = loc("tmp12"(#loc32))
#loc103 = loc("tmp12"(#loc33))
#loc104 = loc("tmp12"(#loc34))
#loc105 = loc("tmp12"(#loc35))
#loc106 = loc("tmp12"(#loc36))
#loc107 = loc("tmp12"(#loc37))
#loc108 = loc("tmp12"(#loc38))
#loc109 = loc("tmp12"(#loc39))
#loc110 = loc("tmp12"(#loc40))
#loc111 = loc("tmp13"(#loc41))
#loc112 = loc("tmp15"(#loc42))
#loc113 = loc("tmp17"(#loc43))
#loc114 = loc("tmp18"(#loc44))
#loc115 = loc("tmp19"(#loc45))
#loc116 = loc("tmp20"(#loc46))
#loc117 = loc("tmp21"(#loc47))
#loc118 = loc("tmp22"(#loc48))
#loc119 = loc("tmp23"(#loc49))
#loc120 = loc("tmp25"(#loc50))
#loc121 = loc("tmp26"(#loc51))
#loc122 = loc("tmp28"(#loc52))
