#loc = loc("/NHNHOME/WORKSPACE/26msit001_A/jinhyeok/loop_TTT/lact/.cache_inductor_llm/bg/cbgqnmxhoa4u4v5g7xc4rpxambuwnrqyvxsek42lqhi7uekrdaws.py":18:0)
#loc1 = loc(unknown)
#loc31 = loc("/NHNHOME/WORKSPACE/26msit001_A/jinhyeok/loop_TTT/lact/.cache_inductor_llm/bg/cbgqnmxhoa4u4v5g7xc4rpxambuwnrqyvxsek42lqhi7uekrdaws.py":42:24)
#loc40 = loc("/NHNHOME/WORKSPACE/26msit001_A/jinhyeok/loop_TTT/lact/.cache_inductor_llm/bg/cbgqnmxhoa4u4v5g7xc4rpxambuwnrqyvxsek42lqhi7uekrdaws.py":59:26)
#loc54 = loc("in_out_ptr0"(#loc))
#loc55 = loc("in_ptr0"(#loc))
#loc56 = loc("in_ptr1"(#loc))
#loc57 = loc("in_ptr2"(#loc))
#loc58 = loc("in_ptr3"(#loc))
#loc59 = loc("out_ptr0"(#loc))
#loc60 = loc("out_ptr2"(#loc))
#loc61 = loc("out_ptr3"(#loc))
#loc62 = loc("xnumel"(#loc))
#loc63 = loc("r0_numel"(#loc))
#loc92 = loc("tmp6"(#loc31))
#loc100 = loc("tmp28"(#loc40))
#loc109 = loc(callsite(#loc1 at #loc92))
#loc111 = loc(callsite(#loc1 at #loc100))
module {
  tt.func public @triton_per_fused__to_copy_add_div_linalg_vector_norm_mul_27(%in_out_ptr0: !tt.ptr<f32> {tt.divisibility = 16 : i32} loc("in_out_ptr0"(#loc)), %in_ptr0: !tt.ptr<bf16> {tt.divisibility = 16 : i32} loc("in_ptr0"(#loc)), %in_ptr1: !tt.ptr<bf16> {tt.divisibility = 16 : i32} loc("in_ptr1"(#loc)), %in_ptr2: !tt.ptr<bf16> {tt.divisibility = 16 : i32} loc("in_ptr2"(#loc)), %in_ptr3: !tt.ptr<bf16> {tt.divisibility = 16 : i32} loc("in_ptr3"(#loc)), %out_ptr0: !tt.ptr<f32> {tt.divisibility = 16 : i32} loc("out_ptr0"(#loc)), %out_ptr2: !tt.ptr<bf16> {tt.divisibility = 16 : i32} loc("out_ptr2"(#loc)), %out_ptr3: !tt.ptr<bf16> {tt.divisibility = 16 : i32} loc("out_ptr3"(#loc)), %xnumel: i32 {tt.divisibility = 16 : i32} loc("xnumel"(#loc)), %r0_numel: i32 {tt.divisibility = 16 : i32} loc("r0_numel"(#loc))) attributes {noinline = false} {
    %c192_i32 = arith.constant 192 : i32 loc(#loc1)
    %cst = arith.constant dense<0.000000e+00> : tensor<1x256xbf16> loc(#loc1)
    %tmp31 = arith.constant dense<9.99999974E-6> : tensor<1x1xf32> loc(#loc64)
    %tmp19 = arith.constant dense<2.836600e+00> : tensor<1x256xf32> loc(#loc65)
    %tmp14 = arith.constant dense<2.876900e+00> : tensor<1x256xf32> loc(#loc66)
    %tmp9 = arith.constant dense<3.741800e+00> : tensor<1x256xf32> loc(#loc67)
    %cst_0 = arith.constant dense<0.000000e+00> : tensor<1x256xf32> loc(#loc1)
    %r0_mask = arith.constant dense<192> : tensor<1x256xi32> loc(#loc68)
    %xoffset = tt.get_program_id x : i32 loc(#loc69)
    %xmask = arith.cmpi slt, %xoffset, %xnumel : i32 loc(#loc70)
    %xmask_1 = tt.splat %xmask : i1 -> tensor<1x1xi1> loc(#loc70)
    %r0_index = tt.make_range {end = 256 : i32, start = 0 : i32} : tensor<256xi32> loc(#loc71)
    %r0_index_2 = tt.expand_dims %r0_index {axis = 0 : i32} : tensor<256xi32> -> tensor<1x256xi32> loc(#loc72)
    %r0_mask_3 = arith.cmpi slt, %r0_index_2, %r0_mask : tensor<1x256xi32> loc(#loc68)
    %tmp0 = arith.muli %xoffset, %c192_i32 : i32 loc(#loc73)
    %tmp0_4 = tt.splat %tmp0 : i32 -> tensor<1x256xi32> loc(#loc106)
    %tmp0_5 = arith.addi %r0_index_2, %tmp0_4 : tensor<1x256xi32> loc(#loc74)
    %tmp0_6 = tt.splat %in_ptr0 : !tt.ptr<bf16> -> tensor<1x256x!tt.ptr<bf16>> loc(#loc75)
    %tmp0_7 = tt.addptr %tmp0_6, %tmp0_5 : tensor<1x256x!tt.ptr<bf16>>, tensor<1x256xi32> loc(#loc75)
    %tmp0_8 = tt.splat %xmask : i1 -> tensor<1x256xi1> loc(#loc107)
    %tmp0_9 = arith.andi %r0_mask_3, %tmp0_8 : tensor<1x256xi1> loc(#loc76)
    %tmp0_10 = tt.load %tmp0_7, %tmp0_9, %cst : tensor<1x256x!tt.ptr<bf16>> loc(#loc77)
    %tmp0_11 = arith.extf %tmp0_10 : tensor<1x256xbf16> to tensor<1x256xf32> loc(#loc78)
    %tmp7 = tt.splat %in_out_ptr0 : !tt.ptr<f32> -> tensor<1x256x!tt.ptr<f32>> loc(#loc79)
    %tmp7_12 = tt.addptr %tmp7, %tmp0_5 : tensor<1x256x!tt.ptr<f32>>, tensor<1x256xi32> loc(#loc79)
    %tmp7_13 = tt.load %tmp7_12, %tmp0_9, %cst_0 : tensor<1x256x!tt.ptr<f32>> loc(#loc80)
    %tmp10 = tt.splat %in_ptr1 : !tt.ptr<bf16> -> tensor<1x256x!tt.ptr<bf16>> loc(#loc81)
    %tmp10_14 = tt.addptr %tmp10, %tmp0_5 : tensor<1x256x!tt.ptr<bf16>>, tensor<1x256xi32> loc(#loc81)
    %tmp10_15 = tt.load %tmp10_14, %tmp0_9, %cst : tensor<1x256x!tt.ptr<bf16>> loc(#loc82)
    %tmp10_16 = arith.extf %tmp10_15 : tensor<1x256xbf16> to tensor<1x256xf32> loc(#loc83)
    %tmp15 = tt.splat %in_ptr2 : !tt.ptr<bf16> -> tensor<1x256x!tt.ptr<bf16>> loc(#loc84)
    %tmp15_17 = tt.addptr %tmp15, %tmp0_5 : tensor<1x256x!tt.ptr<bf16>>, tensor<1x256xi32> loc(#loc84)
    %tmp15_18 = tt.load %tmp15_17, %tmp0_9, %cst : tensor<1x256x!tt.ptr<bf16>> loc(#loc85)
    %tmp15_19 = arith.extf %tmp15_18 : tensor<1x256xbf16> to tensor<1x256xf32> loc(#loc86)
    %tmp20 = tt.splat %in_ptr3 : !tt.ptr<bf16> -> tensor<1x256x!tt.ptr<bf16>> loc(#loc87)
    %tmp20_20 = tt.addptr %tmp20, %tmp0_5 : tensor<1x256x!tt.ptr<bf16>>, tensor<1x256xi32> loc(#loc87)
    %tmp20_21 = tt.load %tmp20_20, %tmp0_9, %cst : tensor<1x256x!tt.ptr<bf16>> loc(#loc88)
    %tmp20_22 = arith.extf %tmp20_21 : tensor<1x256xbf16> to tensor<1x256xf32> loc(#loc89)
    %tmp2 = arith.mulf %tmp0_11, %tmp0_11 : tensor<1x256xf32> loc(#loc90)
    %tmp5 = arith.select %tmp0_9, %tmp2, %cst_0 : tensor<1x256xi1>, tensor<1x256xf32> loc(#loc91)
    %tmp6 = "tt.reduce"(%tmp5) <{axis = 1 : i32}> ({
    ^bb0(%tmp6_31: f32 loc(callsite(#loc1 at #loc92)), %tmp6_32: f32 loc(callsite(#loc1 at #loc92))):
      %tmp6_33 = arith.addf %tmp6_31, %tmp6_32 : f32 loc(#loc112)
      tt.reduce.return %tmp6_33 : f32 loc(#loc108)
    }) : (tensor<1x256xf32>) -> tensor<1xf32> loc(#loc108)
    %tmp6_23 = tt.expand_dims %tmp6 {axis = 1 : i32} : tensor<1xf32> -> tensor<1x1xf32> loc(#loc93)
    %tmp9_24 = arith.mulf %tmp7_13, %tmp9 : tensor<1x256xf32> loc(#loc67)
    %tmp12 = arith.addf %tmp9_24, %tmp10_16 : tensor<1x256xf32> loc(#loc94)
    %tmp14_25 = arith.mulf %tmp12, %tmp14 : tensor<1x256xf32> loc(#loc66)
    %tmp17 = arith.addf %tmp14_25, %tmp15_19 : tensor<1x256xf32> loc(#loc95)
    %tmp19_26 = arith.mulf %tmp17, %tmp19 : tensor<1x256xf32> loc(#loc65)
    %tmp22 = arith.addf %tmp19_26, %tmp20_22 : tensor<1x256xf32> loc(#loc96)
    %tmp23 = arith.addf %tmp0_11, %tmp22 : tensor<1x256xf32> loc(#loc97)
    %tmp24 = arith.mulf %tmp23, %tmp23 : tensor<1x256xf32> loc(#loc98)
    %tmp27 = arith.select %tmp0_9, %tmp24, %cst_0 : tensor<1x256xi1>, tensor<1x256xf32> loc(#loc99)
    %tmp28 = "tt.reduce"(%tmp27) <{axis = 1 : i32}> ({
    ^bb0(%tmp28_31: f32 loc(callsite(#loc1 at #loc100)), %tmp28_32: f32 loc(callsite(#loc1 at #loc100))):
      %tmp28_33 = arith.addf %tmp28_31, %tmp28_32 : f32 loc(#loc113)
      tt.reduce.return %tmp28_33 : f32 loc(#loc110)
    }) : (tensor<1x256xf32>) -> tensor<1xf32> loc(#loc110)
    %tmp28_27 = tt.expand_dims %tmp28 {axis = 1 : i32} : tensor<1xf32> -> tensor<1x1xf32> loc(#loc101)
    %tmp29 = tt.extern_elementwise %tmp28_27 {libname = "", libpath = "", pure = true, symbol = "__nv_sqrtf"} : (tensor<1x1xf32>) -> tensor<1x1xf32> loc(#loc102)
    %tmp31_28 = arith.addf %tmp29, %tmp31 : tensor<1x1xf32> loc(#loc64)
    %tmp32 = tt.broadcast %tmp31_28 : tensor<1x1xf32> -> tensor<1x256xf32> loc(#loc103)
    %tmp32_29 = arith.divf %tmp23, %tmp32 : tensor<1x256xf32> loc(#loc103)
    %tmp33 = tt.extern_elementwise %tmp6_23 {libname = "", libpath = "", pure = true, symbol = "__nv_sqrtf"} : (tensor<1x1xf32>) -> tensor<1x1xf32> loc(#loc104)
    %tmp34 = tt.broadcast %tmp33 : tensor<1x1xf32> -> tensor<1x256xf32> loc(#loc105)
    %tmp34_30 = arith.mulf %tmp32_29, %tmp34 : tensor<1x256xf32> loc(#loc105)
    tt.store %tmp7_12, %tmp23, %tmp0_9 : tensor<1x256x!tt.ptr<f32>> loc(#loc46)
    %0 = tt.splat %out_ptr2 : !tt.ptr<bf16> -> tensor<1x256x!tt.ptr<bf16>> loc(#loc47)
    %1 = tt.addptr %0, %tmp0_5 : tensor<1x256x!tt.ptr<bf16>>, tensor<1x256xi32> loc(#loc47)
    %2 = arith.truncf %tmp34_30 : tensor<1x256xf32> to tensor<1x256xbf16> loc(#loc48)
    tt.store %1, %2, %tmp0_9 : tensor<1x256x!tt.ptr<bf16>> loc(#loc48)
    %3 = tt.splat %out_ptr3 : !tt.ptr<bf16> -> tensor<1x256x!tt.ptr<bf16>> loc(#loc49)
    %4 = tt.addptr %3, %tmp0_5 : tensor<1x256x!tt.ptr<bf16>>, tensor<1x256xi32> loc(#loc49)
    tt.store %4, %2, %tmp0_9 : tensor<1x256x!tt.ptr<bf16>> loc(#loc50)
    %5 = tt.addptr %out_ptr0, %xoffset : !tt.ptr<f32>, i32 loc(#loc51)
    %6 = tt.splat %5 : !tt.ptr<f32> -> tensor<1x1x!tt.ptr<f32>> loc(#loc51)
    tt.store %6, %tmp6_23, %xmask_1 : tensor<1x1x!tt.ptr<f32>> loc(#loc52)
    tt.return loc(#loc53)
  } loc(#loc)
} loc(#loc)
#loc2 = loc("/NHNHOME/WORKSPACE/26msit001_A/jinhyeok/loop_TTT/lact/.cache_inductor_llm/bg/cbgqnmxhoa4u4v5g7xc4rpxambuwnrqyvxsek42lqhi7uekrdaws.py":62:20)
#loc3 = loc("/NHNHOME/WORKSPACE/26msit001_A/jinhyeok/loop_TTT/lact/.cache_inductor_llm/bg/cbgqnmxhoa4u4v5g7xc4rpxambuwnrqyvxsek42lqhi7uekrdaws.py":52:20)
#loc4 = loc("/NHNHOME/WORKSPACE/26msit001_A/jinhyeok/loop_TTT/lact/.cache_inductor_llm/bg/cbgqnmxhoa4u4v5g7xc4rpxambuwnrqyvxsek42lqhi7uekrdaws.py":48:20)
#loc5 = loc("/NHNHOME/WORKSPACE/26msit001_A/jinhyeok/loop_TTT/lact/.cache_inductor_llm/bg/cbgqnmxhoa4u4v5g7xc4rpxambuwnrqyvxsek42lqhi7uekrdaws.py":44:18)
#loc6 = loc("/NHNHOME/WORKSPACE/26msit001_A/jinhyeok/loop_TTT/lact/.cache_inductor_llm/bg/cbgqnmxhoa4u4v5g7xc4rpxambuwnrqyvxsek42lqhi7uekrdaws.py":28:25)
#loc7 = loc("/NHNHOME/WORKSPACE/26msit001_A/jinhyeok/loop_TTT/lact/.cache_inductor_llm/bg/cbgqnmxhoa4u4v5g7xc4rpxambuwnrqyvxsek42lqhi7uekrdaws.py":23:28)
#loc8 = loc("/NHNHOME/WORKSPACE/26msit001_A/jinhyeok/loop_TTT/lact/.cache_inductor_llm/bg/cbgqnmxhoa4u4v5g7xc4rpxambuwnrqyvxsek42lqhi7uekrdaws.py":25:21)
#loc9 = loc("/NHNHOME/WORKSPACE/26msit001_A/jinhyeok/loop_TTT/lact/.cache_inductor_llm/bg/cbgqnmxhoa4u4v5g7xc4rpxambuwnrqyvxsek42lqhi7uekrdaws.py":26:28)
#loc10 = loc("/NHNHOME/WORKSPACE/26msit001_A/jinhyeok/loop_TTT/lact/.cache_inductor_llm/bg/cbgqnmxhoa4u4v5g7xc4rpxambuwnrqyvxsek42lqhi7uekrdaws.py":26:38)
#loc11 = loc("/NHNHOME/WORKSPACE/26msit001_A/jinhyeok/loop_TTT/lact/.cache_inductor_llm/bg/cbgqnmxhoa4u4v5g7xc4rpxambuwnrqyvxsek42lqhi7uekrdaws.py":33:41)
#loc12 = loc("/NHNHOME/WORKSPACE/26msit001_A/jinhyeok/loop_TTT/lact/.cache_inductor_llm/bg/cbgqnmxhoa4u4v5g7xc4rpxambuwnrqyvxsek42lqhi7uekrdaws.py":33:37)
#loc13 = loc("/NHNHOME/WORKSPACE/26msit001_A/jinhyeok/loop_TTT/lact/.cache_inductor_llm/bg/cbgqnmxhoa4u4v5g7xc4rpxambuwnrqyvxsek42lqhi7uekrdaws.py":33:30)
#loc14 = loc("/NHNHOME/WORKSPACE/26msit001_A/jinhyeok/loop_TTT/lact/.cache_inductor_llm/bg/cbgqnmxhoa4u4v5g7xc4rpxambuwnrqyvxsek42lqhi7uekrdaws.py":33:56)
#loc15 = loc("/NHNHOME/WORKSPACE/26msit001_A/jinhyeok/loop_TTT/lact/.cache_inductor_llm/bg/cbgqnmxhoa4u4v5g7xc4rpxambuwnrqyvxsek42lqhi7uekrdaws.py":33:46)
#loc16 = loc("/NHNHOME/WORKSPACE/26msit001_A/jinhyeok/loop_TTT/lact/.cache_inductor_llm/bg/cbgqnmxhoa4u4v5g7xc4rpxambuwnrqyvxsek42lqhi7uekrdaws.py":33:77)
#loc17 = loc("/NHNHOME/WORKSPACE/26msit001_A/jinhyeok/loop_TTT/lact/.cache_inductor_llm/bg/cbgqnmxhoa4u4v5g7xc4rpxambuwnrqyvxsek42lqhi7uekrdaws.py":34:34)
#loc18 = loc("/NHNHOME/WORKSPACE/26msit001_A/jinhyeok/loop_TTT/lact/.cache_inductor_llm/bg/cbgqnmxhoa4u4v5g7xc4rpxambuwnrqyvxsek42lqhi7uekrdaws.py":34:50)
#loc19 = loc("/NHNHOME/WORKSPACE/26msit001_A/jinhyeok/loop_TTT/lact/.cache_inductor_llm/bg/cbgqnmxhoa4u4v5g7xc4rpxambuwnrqyvxsek42lqhi7uekrdaws.py":35:31)
#loc20 = loc("/NHNHOME/WORKSPACE/26msit001_A/jinhyeok/loop_TTT/lact/.cache_inductor_llm/bg/cbgqnmxhoa4u4v5g7xc4rpxambuwnrqyvxsek42lqhi7uekrdaws.py":35:47)
#loc21 = loc("/NHNHOME/WORKSPACE/26msit001_A/jinhyeok/loop_TTT/lact/.cache_inductor_llm/bg/cbgqnmxhoa4u4v5g7xc4rpxambuwnrqyvxsek42lqhi7uekrdaws.py":35:78)
#loc22 = loc("/NHNHOME/WORKSPACE/26msit001_A/jinhyeok/loop_TTT/lact/.cache_inductor_llm/bg/cbgqnmxhoa4u4v5g7xc4rpxambuwnrqyvxsek42lqhi7uekrdaws.py":36:31)
#loc23 = loc("/NHNHOME/WORKSPACE/26msit001_A/jinhyeok/loop_TTT/lact/.cache_inductor_llm/bg/cbgqnmxhoa4u4v5g7xc4rpxambuwnrqyvxsek42lqhi7uekrdaws.py":36:47)
#loc24 = loc("/NHNHOME/WORKSPACE/26msit001_A/jinhyeok/loop_TTT/lact/.cache_inductor_llm/bg/cbgqnmxhoa4u4v5g7xc4rpxambuwnrqyvxsek42lqhi7uekrdaws.py":36:78)
#loc25 = loc("/NHNHOME/WORKSPACE/26msit001_A/jinhyeok/loop_TTT/lact/.cache_inductor_llm/bg/cbgqnmxhoa4u4v5g7xc4rpxambuwnrqyvxsek42lqhi7uekrdaws.py":37:31)
#loc26 = loc("/NHNHOME/WORKSPACE/26msit001_A/jinhyeok/loop_TTT/lact/.cache_inductor_llm/bg/cbgqnmxhoa4u4v5g7xc4rpxambuwnrqyvxsek42lqhi7uekrdaws.py":37:47)
#loc27 = loc("/NHNHOME/WORKSPACE/26msit001_A/jinhyeok/loop_TTT/lact/.cache_inductor_llm/bg/cbgqnmxhoa4u4v5g7xc4rpxambuwnrqyvxsek42lqhi7uekrdaws.py":37:78)
#loc28 = loc("/NHNHOME/WORKSPACE/26msit001_A/jinhyeok/loop_TTT/lact/.cache_inductor_llm/bg/cbgqnmxhoa4u4v5g7xc4rpxambuwnrqyvxsek42lqhi7uekrdaws.py":39:18)
#loc29 = loc("/NHNHOME/WORKSPACE/26msit001_A/jinhyeok/loop_TTT/lact/.cache_inductor_llm/bg/cbgqnmxhoa4u4v5g7xc4rpxambuwnrqyvxsek42lqhi7uekrdaws.py":41:43)
#loc30 = loc("/NHNHOME/WORKSPACE/26msit001_A/jinhyeok/TTT_camera_embedding/.venv_llm/lib/python3.12/site-packages/triton/language/standard.py":291:36)
#loc32 = loc("/NHNHOME/WORKSPACE/26msit001_A/jinhyeok/TTT_camera_embedding/.venv_llm/lib/python3.12/site-packages/triton/language/standard.py":261:15)
#loc33 = loc("/NHNHOME/WORKSPACE/26msit001_A/jinhyeok/loop_TTT/lact/.cache_inductor_llm/bg/cbgqnmxhoa4u4v5g7xc4rpxambuwnrqyvxsek42lqhi7uekrdaws.py":42:27)
#loc34 = loc("/NHNHOME/WORKSPACE/26msit001_A/jinhyeok/loop_TTT/lact/.cache_inductor_llm/bg/cbgqnmxhoa4u4v5g7xc4rpxambuwnrqyvxsek42lqhi7uekrdaws.py":46:19)
#loc35 = loc("/NHNHOME/WORKSPACE/26msit001_A/jinhyeok/loop_TTT/lact/.cache_inductor_llm/bg/cbgqnmxhoa4u4v5g7xc4rpxambuwnrqyvxsek42lqhi7uekrdaws.py":50:20)
#loc36 = loc("/NHNHOME/WORKSPACE/26msit001_A/jinhyeok/loop_TTT/lact/.cache_inductor_llm/bg/cbgqnmxhoa4u4v5g7xc4rpxambuwnrqyvxsek42lqhi7uekrdaws.py":54:20)
#loc37 = loc("/NHNHOME/WORKSPACE/26msit001_A/jinhyeok/loop_TTT/lact/.cache_inductor_llm/bg/cbgqnmxhoa4u4v5g7xc4rpxambuwnrqyvxsek42lqhi7uekrdaws.py":55:19)
#loc38 = loc("/NHNHOME/WORKSPACE/26msit001_A/jinhyeok/loop_TTT/lact/.cache_inductor_llm/bg/cbgqnmxhoa4u4v5g7xc4rpxambuwnrqyvxsek42lqhi7uekrdaws.py":56:20)
#loc39 = loc("/NHNHOME/WORKSPACE/26msit001_A/jinhyeok/loop_TTT/lact/.cache_inductor_llm/bg/cbgqnmxhoa4u4v5g7xc4rpxambuwnrqyvxsek42lqhi7uekrdaws.py":58:45)
#loc41 = loc("/NHNHOME/WORKSPACE/26msit001_A/jinhyeok/loop_TTT/lact/.cache_inductor_llm/bg/cbgqnmxhoa4u4v5g7xc4rpxambuwnrqyvxsek42lqhi7uekrdaws.py":59:29)
#loc42 = loc("/NHNHOME/WORKSPACE/26msit001_A/jinhyeok/loop_TTT/lact/.cache_inductor_llm/bg/cbgqnmxhoa4u4v5g7xc4rpxambuwnrqyvxsek42lqhi7uekrdaws.py":60:27)
#loc43 = loc("/NHNHOME/WORKSPACE/26msit001_A/jinhyeok/loop_TTT/lact/.cache_inductor_llm/bg/cbgqnmxhoa4u4v5g7xc4rpxambuwnrqyvxsek42lqhi7uekrdaws.py":63:21)
#loc44 = loc("/NHNHOME/WORKSPACE/26msit001_A/jinhyeok/loop_TTT/lact/.cache_inductor_llm/bg/cbgqnmxhoa4u4v5g7xc4rpxambuwnrqyvxsek42lqhi7uekrdaws.py":64:27)
#loc45 = loc("/NHNHOME/WORKSPACE/26msit001_A/jinhyeok/loop_TTT/lact/.cache_inductor_llm/bg/cbgqnmxhoa4u4v5g7xc4rpxambuwnrqyvxsek42lqhi7uekrdaws.py":65:20)
#loc46 = loc("/NHNHOME/WORKSPACE/26msit001_A/jinhyeok/loop_TTT/lact/.cache_inductor_llm/bg/cbgqnmxhoa4u4v5g7xc4rpxambuwnrqyvxsek42lqhi7uekrdaws.py":67:51)
#loc47 = loc("/NHNHOME/WORKSPACE/26msit001_A/jinhyeok/loop_TTT/lact/.cache_inductor_llm/bg/cbgqnmxhoa4u4v5g7xc4rpxambuwnrqyvxsek42lqhi7uekrdaws.py":68:25)
#loc48 = loc("/NHNHOME/WORKSPACE/26msit001_A/jinhyeok/loop_TTT/lact/.cache_inductor_llm/bg/cbgqnmxhoa4u4v5g7xc4rpxambuwnrqyvxsek42lqhi7uekrdaws.py":68:48)
#loc49 = loc("/NHNHOME/WORKSPACE/26msit001_A/jinhyeok/loop_TTT/lact/.cache_inductor_llm/bg/cbgqnmxhoa4u4v5g7xc4rpxambuwnrqyvxsek42lqhi7uekrdaws.py":69:25)
#loc50 = loc("/NHNHOME/WORKSPACE/26msit001_A/jinhyeok/loop_TTT/lact/.cache_inductor_llm/bg/cbgqnmxhoa4u4v5g7xc4rpxambuwnrqyvxsek42lqhi7uekrdaws.py":69:48)
#loc51 = loc("/NHNHOME/WORKSPACE/26msit001_A/jinhyeok/loop_TTT/lact/.cache_inductor_llm/bg/cbgqnmxhoa4u4v5g7xc4rpxambuwnrqyvxsek42lqhi7uekrdaws.py":70:25)
#loc52 = loc("/NHNHOME/WORKSPACE/26msit001_A/jinhyeok/loop_TTT/lact/.cache_inductor_llm/bg/cbgqnmxhoa4u4v5g7xc4rpxambuwnrqyvxsek42lqhi7uekrdaws.py":70:36)
#loc53 = loc("/NHNHOME/WORKSPACE/26msit001_A/jinhyeok/loop_TTT/lact/.cache_inductor_llm/bg/cbgqnmxhoa4u4v5g7xc4rpxambuwnrqyvxsek42lqhi7uekrdaws.py":70:4)
#loc64 = loc("tmp31"(#loc2))
#loc65 = loc("tmp19"(#loc3))
#loc66 = loc("tmp14"(#loc4))
#loc67 = loc("tmp9"(#loc5))
#loc68 = loc("r0_mask"(#loc6))
#loc69 = loc("xoffset"(#loc7))
#loc70 = loc("xmask"(#loc8))
#loc71 = loc("r0_index"(#loc9))
#loc72 = loc("r0_index"(#loc10))
#loc73 = loc("tmp0"(#loc11))
#loc74 = loc("tmp0"(#loc12))
#loc75 = loc("tmp0"(#loc13))
#loc76 = loc("tmp0"(#loc14))
#loc77 = loc("tmp0"(#loc15))
#loc78 = loc("tmp0"(#loc16))
#loc79 = loc("tmp7"(#loc17))
#loc80 = loc("tmp7"(#loc18))
#loc81 = loc("tmp10"(#loc19))
#loc82 = loc("tmp10"(#loc20))
#loc83 = loc("tmp10"(#loc21))
#loc84 = loc("tmp15"(#loc22))
#loc85 = loc("tmp15"(#loc23))
#loc86 = loc("tmp15"(#loc24))
#loc87 = loc("tmp20"(#loc25))
#loc88 = loc("tmp20"(#loc26))
#loc89 = loc("tmp20"(#loc27))
#loc90 = loc("tmp2"(#loc28))
#loc91 = loc("tmp5"(#loc29))
#loc93 = loc("tmp6"(#loc33))
#loc94 = loc("tmp12"(#loc34))
#loc95 = loc("tmp17"(#loc35))
#loc96 = loc("tmp22"(#loc36))
#loc97 = loc("tmp23"(#loc37))
#loc98 = loc("tmp24"(#loc38))
#loc99 = loc("tmp27"(#loc39))
#loc101 = loc("tmp28"(#loc41))
#loc102 = loc("tmp29"(#loc42))
#loc103 = loc("tmp32"(#loc43))
#loc104 = loc("tmp33"(#loc44))
#loc105 = loc("tmp34"(#loc45))
#loc106 = loc(fused[#loc74, #loc73])
#loc107 = loc(fused[#loc76, #loc70])
#loc108 = loc(callsite(#loc30 at #loc92))
#loc110 = loc(callsite(#loc30 at #loc100))
#loc112 = loc(callsite(#loc32 at #loc108))
#loc113 = loc(callsite(#loc32 at #loc110))
