#loc = loc("/NHNHOME/WORKSPACE/26msit001_A/jinhyeok/loop_TTT/lact/.cache_inductor_llm/bg/cbgqnmxhoa4u4v5g7xc4rpxambuwnrqyvxsek42lqhi7uekrdaws.py":18:0)
#loc85 = loc("/NHNHOME/WORKSPACE/26msit001_A/jinhyeok/TTT_camera_embedding/.venv_llm/lib/python3.12/site-packages/triton/language/standard.py":285:0)
#loc87 = loc(unknown)
#loc90 = loc("/NHNHOME/WORKSPACE/26msit001_A/jinhyeok/TTT_camera_embedding/.venv_llm/lib/python3.12/site-packages/triton/language/standard.py":260:0)
#loc94 = loc("in_out_ptr0"(#loc))
#loc95 = loc("in_ptr0"(#loc))
#loc96 = loc("in_ptr1"(#loc))
#loc97 = loc("in_ptr2"(#loc))
#loc98 = loc("in_ptr3"(#loc))
#loc99 = loc("out_ptr0"(#loc))
#loc100 = loc("out_ptr2"(#loc))
#loc101 = loc("out_ptr3"(#loc))
#loc102 = loc("xnumel"(#loc))
#loc103 = loc("r0_numel"(#loc))
#loc170 = loc("input"(#loc85))
#loc171 = loc("a"(#loc90))
#loc172 = loc("b"(#loc90))
module {
  tt.func public @triton_per_fused__to_copy_add_div_linalg_vector_norm_mul_27(%in_out_ptr0: !tt.ptr<f32> {tt.divisibility = 16 : i32} loc("in_out_ptr0"(#loc)), %in_ptr0: !tt.ptr<bf16> {tt.divisibility = 16 : i32} loc("in_ptr0"(#loc)), %in_ptr1: !tt.ptr<bf16> {tt.divisibility = 16 : i32} loc("in_ptr1"(#loc)), %in_ptr2: !tt.ptr<bf16> {tt.divisibility = 16 : i32} loc("in_ptr2"(#loc)), %in_ptr3: !tt.ptr<bf16> {tt.divisibility = 16 : i32} loc("in_ptr3"(#loc)), %out_ptr0: !tt.ptr<f32> {tt.divisibility = 16 : i32} loc("out_ptr0"(#loc)), %out_ptr2: !tt.ptr<bf16> {tt.divisibility = 16 : i32} loc("out_ptr2"(#loc)), %out_ptr3: !tt.ptr<bf16> {tt.divisibility = 16 : i32} loc("out_ptr3"(#loc)), %xnumel: i32 {tt.divisibility = 16 : i32} loc("xnumel"(#loc)), %r0_numel: i32 {tt.divisibility = 16 : i32} loc("r0_numel"(#loc))) attributes {noinline = false} {
    %r0_numel_0 = arith.constant 192 : i32 loc(#loc104)
    %xoffset = tt.get_program_id x : i32 loc(#loc105)
    %xoffset_1 = arith.constant 1 : i32 loc(#loc106)
    %xoffset_2 = arith.constant 1 : i32 loc(#loc106)
    %xoffset_3 = arith.muli %xoffset, %xoffset_2 : i32 loc(#loc106)
    %xindex = tt.make_range {end = 1 : i32, start = 0 : i32} : tensor<1xi32> loc(#loc107)
    %xindex_4 = tt.expand_dims %xindex {axis = 1 : i32} : tensor<1xi32> -> tensor<1x1xi32> loc(#loc108)
    %xindex_5 = tt.splat %xoffset_3 : i32 -> tensor<1x1xi32> loc(#loc109)
    %xindex_6 = arith.addi %xindex_5, %xindex_4 : tensor<1x1xi32> loc(#loc109)
    %xmask = tt.splat %xnumel : i32 -> tensor<1x1xi32> loc(#loc110)
    %xmask_7 = arith.cmpi slt, %xindex_6, %xmask : tensor<1x1xi32> loc(#loc110)
    %r0_index = tt.make_range {end = 256 : i32, start = 0 : i32} : tensor<256xi32> loc(#loc111)
    %r0_index_8 = tt.expand_dims %r0_index {axis = 0 : i32} : tensor<256xi32> -> tensor<1x256xi32> loc(#loc112)
    %r0_offset = arith.constant 0 : i32 loc(#loc113)
    %r0_mask = arith.constant dense<192> : tensor<1x256xi32> loc(#loc114)
    %r0_mask_9 = arith.cmpi slt, %r0_index_8, %r0_mask : tensor<1x256xi32> loc(#loc114)
    %tmp0 = arith.constant 192 : i32 loc(#loc115)
    %tmp0_10 = arith.constant 192 : i32 loc(#loc115)
    %tmp0_11 = arith.constant dense<192> : tensor<1x1xi32> loc(#loc115)
    %tmp0_12 = arith.muli %tmp0_11, %xindex_6 : tensor<1x1xi32> loc(#loc115)
    %tmp0_13 = tt.broadcast %tmp0_12 : tensor<1x1xi32> -> tensor<1x256xi32> loc(#loc116)
    %tmp0_14 = arith.addi %r0_index_8, %tmp0_13 : tensor<1x256xi32> loc(#loc116)
    %tmp0_15 = tt.splat %in_ptr0 : !tt.ptr<bf16> -> tensor<1x256x!tt.ptr<bf16>> loc(#loc117)
    %tmp0_16 = tt.addptr %tmp0_15, %tmp0_14 : tensor<1x256x!tt.ptr<bf16>>, tensor<1x256xi32> loc(#loc117)
    %tmp0_17 = tt.broadcast %xmask_7 : tensor<1x1xi1> -> tensor<1x256xi1> loc(#loc118)
    %tmp0_18 = arith.andi %r0_mask_9, %tmp0_17 : tensor<1x256xi1> loc(#loc118)
    %tmp0_19 = arith.constant 0.000000e+00 : f32 loc(#loc119)
    %tmp0_20 = arith.constant dense<0.000000e+00> : tensor<1x256xf32> loc(#loc119)
    %tmp0_21 = arith.truncf %tmp0_20 : tensor<1x256xf32> to tensor<1x256xbf16> loc(#loc119)
    %tmp0_22 = tt.load %tmp0_16, %tmp0_18, %tmp0_21 : tensor<1x256x!tt.ptr<bf16>> loc(#loc119)
    %tmp0_23 = arith.extf %tmp0_22 : tensor<1x256xbf16> to tensor<1x256xf32> loc(#loc120)
    %tmp7 = arith.constant 192 : i32 loc(#loc121)
    %tmp7_24 = arith.constant 192 : i32 loc(#loc121)
    %tmp7_25 = arith.constant dense<192> : tensor<1x1xi32> loc(#loc121)
    %tmp7_26 = arith.muli %tmp7_25, %xindex_6 : tensor<1x1xi32> loc(#loc121)
    %tmp7_27 = tt.broadcast %tmp7_26 : tensor<1x1xi32> -> tensor<1x256xi32> loc(#loc122)
    %tmp7_28 = arith.addi %r0_index_8, %tmp7_27 : tensor<1x256xi32> loc(#loc122)
    %tmp7_29 = tt.splat %in_out_ptr0 : !tt.ptr<f32> -> tensor<1x256x!tt.ptr<f32>> loc(#loc123)
    %tmp7_30 = tt.addptr %tmp7_29, %tmp7_28 : tensor<1x256x!tt.ptr<f32>>, tensor<1x256xi32> loc(#loc123)
    %tmp7_31 = tt.broadcast %xmask_7 : tensor<1x1xi1> -> tensor<1x256xi1> loc(#loc124)
    %tmp7_32 = arith.andi %r0_mask_9, %tmp7_31 : tensor<1x256xi1> loc(#loc124)
    %tmp7_33 = arith.constant 0.000000e+00 : f32 loc(#loc125)
    %tmp7_34 = arith.constant dense<0.000000e+00> : tensor<1x256xf32> loc(#loc125)
    %tmp7_35 = tt.load %tmp7_30, %tmp7_32, %tmp7_34 : tensor<1x256x!tt.ptr<f32>> loc(#loc125)
    %tmp10 = arith.constant 192 : i32 loc(#loc126)
    %tmp10_36 = arith.constant 192 : i32 loc(#loc126)
    %tmp10_37 = arith.constant dense<192> : tensor<1x1xi32> loc(#loc126)
    %tmp10_38 = arith.muli %tmp10_37, %xindex_6 : tensor<1x1xi32> loc(#loc126)
    %tmp10_39 = tt.broadcast %tmp10_38 : tensor<1x1xi32> -> tensor<1x256xi32> loc(#loc127)
    %tmp10_40 = arith.addi %r0_index_8, %tmp10_39 : tensor<1x256xi32> loc(#loc127)
    %tmp10_41 = tt.splat %in_ptr1 : !tt.ptr<bf16> -> tensor<1x256x!tt.ptr<bf16>> loc(#loc128)
    %tmp10_42 = tt.addptr %tmp10_41, %tmp10_40 : tensor<1x256x!tt.ptr<bf16>>, tensor<1x256xi32> loc(#loc128)
    %tmp10_43 = tt.broadcast %xmask_7 : tensor<1x1xi1> -> tensor<1x256xi1> loc(#loc129)
    %tmp10_44 = arith.andi %r0_mask_9, %tmp10_43 : tensor<1x256xi1> loc(#loc129)
    %tmp10_45 = arith.constant 0.000000e+00 : f32 loc(#loc130)
    %tmp10_46 = arith.constant dense<0.000000e+00> : tensor<1x256xf32> loc(#loc130)
    %tmp10_47 = arith.truncf %tmp10_46 : tensor<1x256xf32> to tensor<1x256xbf16> loc(#loc130)
    %tmp10_48 = tt.load %tmp10_42, %tmp10_44, %tmp10_47 : tensor<1x256x!tt.ptr<bf16>> loc(#loc130)
    %tmp10_49 = arith.extf %tmp10_48 : tensor<1x256xbf16> to tensor<1x256xf32> loc(#loc131)
    %tmp15 = arith.constant 192 : i32 loc(#loc132)
    %tmp15_50 = arith.constant 192 : i32 loc(#loc132)
    %tmp15_51 = arith.constant dense<192> : tensor<1x1xi32> loc(#loc132)
    %tmp15_52 = arith.muli %tmp15_51, %xindex_6 : tensor<1x1xi32> loc(#loc132)
    %tmp15_53 = tt.broadcast %tmp15_52 : tensor<1x1xi32> -> tensor<1x256xi32> loc(#loc133)
    %tmp15_54 = arith.addi %r0_index_8, %tmp15_53 : tensor<1x256xi32> loc(#loc133)
    %tmp15_55 = tt.splat %in_ptr2 : !tt.ptr<bf16> -> tensor<1x256x!tt.ptr<bf16>> loc(#loc134)
    %tmp15_56 = tt.addptr %tmp15_55, %tmp15_54 : tensor<1x256x!tt.ptr<bf16>>, tensor<1x256xi32> loc(#loc134)
    %tmp15_57 = tt.broadcast %xmask_7 : tensor<1x1xi1> -> tensor<1x256xi1> loc(#loc135)
    %tmp15_58 = arith.andi %r0_mask_9, %tmp15_57 : tensor<1x256xi1> loc(#loc135)
    %tmp15_59 = arith.constant 0.000000e+00 : f32 loc(#loc136)
    %tmp15_60 = arith.constant dense<0.000000e+00> : tensor<1x256xf32> loc(#loc136)
    %tmp15_61 = arith.truncf %tmp15_60 : tensor<1x256xf32> to tensor<1x256xbf16> loc(#loc136)
    %tmp15_62 = tt.load %tmp15_56, %tmp15_58, %tmp15_61 : tensor<1x256x!tt.ptr<bf16>> loc(#loc136)
    %tmp15_63 = arith.extf %tmp15_62 : tensor<1x256xbf16> to tensor<1x256xf32> loc(#loc137)
    %tmp20 = arith.constant 192 : i32 loc(#loc138)
    %tmp20_64 = arith.constant 192 : i32 loc(#loc138)
    %tmp20_65 = arith.constant dense<192> : tensor<1x1xi32> loc(#loc138)
    %tmp20_66 = arith.muli %tmp20_65, %xindex_6 : tensor<1x1xi32> loc(#loc138)
    %tmp20_67 = tt.broadcast %tmp20_66 : tensor<1x1xi32> -> tensor<1x256xi32> loc(#loc139)
    %tmp20_68 = arith.addi %r0_index_8, %tmp20_67 : tensor<1x256xi32> loc(#loc139)
    %tmp20_69 = tt.splat %in_ptr3 : !tt.ptr<bf16> -> tensor<1x256x!tt.ptr<bf16>> loc(#loc140)
    %tmp20_70 = tt.addptr %tmp20_69, %tmp20_68 : tensor<1x256x!tt.ptr<bf16>>, tensor<1x256xi32> loc(#loc140)
    %tmp20_71 = tt.broadcast %xmask_7 : tensor<1x1xi1> -> tensor<1x256xi1> loc(#loc141)
    %tmp20_72 = arith.andi %r0_mask_9, %tmp20_71 : tensor<1x256xi1> loc(#loc141)
    %tmp20_73 = arith.constant 0.000000e+00 : f32 loc(#loc142)
    %tmp20_74 = arith.constant dense<0.000000e+00> : tensor<1x256xf32> loc(#loc142)
    %tmp20_75 = arith.truncf %tmp20_74 : tensor<1x256xf32> to tensor<1x256xbf16> loc(#loc142)
    %tmp20_76 = tt.load %tmp20_70, %tmp20_72, %tmp20_75 : tensor<1x256x!tt.ptr<bf16>> loc(#loc142)
    %tmp20_77 = arith.extf %tmp20_76 : tensor<1x256xbf16> to tensor<1x256xf32> loc(#loc143)
    %tmp2 = arith.mulf %tmp0_23, %tmp0_23 : tensor<1x256xf32> loc(#loc144)
    %tmp5 = tt.broadcast %xmask_7 : tensor<1x1xi1> -> tensor<1x256xi1> loc(#loc145)
    %tmp5_78 = arith.andi %r0_mask_9, %tmp5 : tensor<1x256xi1> loc(#loc145)
    %tmp5_79 = arith.constant 0 : i32 loc(#loc146)
    %tmp5_80 = arith.constant 0.000000e+00 : f32 loc(#loc146)
    %tmp5_81 = arith.constant dense<0.000000e+00> : tensor<1x256xf32> loc(#loc146)
    %tmp5_82 = arith.select %tmp5_78, %tmp2, %tmp5_81 : tensor<1x256xi1>, tensor<1x256xf32> loc(#loc146)
    %tmp6 = tt.call @"triton.language.standard.sum__fp32S1_256S__(1,)cconstexpr_1__(2,)cconstexpr_False__(3,)cNone"(%tmp5_82) : (tensor<1x256xf32>) -> tensor<1xf32> loc(#loc147)
    %tmp6_83 = tt.expand_dims %tmp6 {axis = 1 : i32} : tensor<1xf32> -> tensor<1x1xf32> loc(#loc148)
    %tmp8 = arith.constant 3.741800e+00 : f32 loc(#loc149)
    %tmp9 = arith.constant dense<3.741800e+00> : tensor<1x256xf32> loc(#loc150)
    %tmp9_84 = arith.mulf %tmp7_35, %tmp9 : tensor<1x256xf32> loc(#loc150)
    %tmp12 = arith.addf %tmp9_84, %tmp10_49 : tensor<1x256xf32> loc(#loc151)
    %tmp13 = arith.constant 2.876900e+00 : f32 loc(#loc152)
    %tmp14 = arith.constant dense<2.876900e+00> : tensor<1x256xf32> loc(#loc153)
    %tmp14_85 = arith.mulf %tmp12, %tmp14 : tensor<1x256xf32> loc(#loc153)
    %tmp17 = arith.addf %tmp14_85, %tmp15_63 : tensor<1x256xf32> loc(#loc154)
    %tmp18 = arith.constant 2.836600e+00 : f32 loc(#loc155)
    %tmp19 = arith.constant dense<2.836600e+00> : tensor<1x256xf32> loc(#loc156)
    %tmp19_86 = arith.mulf %tmp17, %tmp19 : tensor<1x256xf32> loc(#loc156)
    %tmp22 = arith.addf %tmp19_86, %tmp20_77 : tensor<1x256xf32> loc(#loc157)
    %tmp23 = arith.addf %tmp0_23, %tmp22 : tensor<1x256xf32> loc(#loc158)
    %tmp24 = arith.mulf %tmp23, %tmp23 : tensor<1x256xf32> loc(#loc159)
    %tmp27 = tt.broadcast %xmask_7 : tensor<1x1xi1> -> tensor<1x256xi1> loc(#loc160)
    %tmp27_87 = arith.andi %r0_mask_9, %tmp27 : tensor<1x256xi1> loc(#loc160)
    %tmp27_88 = arith.constant 0 : i32 loc(#loc161)
    %tmp27_89 = arith.constant 0.000000e+00 : f32 loc(#loc161)
    %tmp27_90 = arith.constant dense<0.000000e+00> : tensor<1x256xf32> loc(#loc161)
    %tmp27_91 = arith.select %tmp27_87, %tmp24, %tmp27_90 : tensor<1x256xi1>, tensor<1x256xf32> loc(#loc161)
    %tmp28 = tt.call @"triton.language.standard.sum__fp32S1_256S__(1,)cconstexpr_1__(2,)cconstexpr_False__(3,)cNone"(%tmp27_91) : (tensor<1x256xf32>) -> tensor<1xf32> loc(#loc162)
    %tmp28_92 = tt.expand_dims %tmp28 {axis = 1 : i32} : tensor<1xf32> -> tensor<1x1xf32> loc(#loc163)
    %tmp29 = tt.extern_elementwise %tmp28_92 {libname = "", libpath = "", pure = true, symbol = "__nv_sqrtf"} : (tensor<1x1xf32>) -> tensor<1x1xf32> loc(#loc164)
    %tmp30 = arith.constant 9.99999974E-6 : f32 loc(#loc165)
    %tmp31 = arith.constant dense<9.99999974E-6> : tensor<1x1xf32> loc(#loc166)
    %tmp31_93 = arith.addf %tmp29, %tmp31 : tensor<1x1xf32> loc(#loc166)
    %tmp32 = tt.broadcast %tmp31_93 : tensor<1x1xf32> -> tensor<1x256xf32> loc(#loc167)
    %tmp32_94 = arith.divf %tmp23, %tmp32 : tensor<1x256xf32> loc(#loc167)
    %tmp33 = tt.extern_elementwise %tmp6_83 {libname = "", libpath = "", pure = true, symbol = "__nv_sqrtf"} : (tensor<1x1xf32>) -> tensor<1x1xf32> loc(#loc168)
    %tmp34 = tt.broadcast %tmp33 : tensor<1x1xf32> -> tensor<1x256xf32> loc(#loc169)
    %tmp34_95 = arith.mulf %tmp32_94, %tmp34 : tensor<1x256xf32> loc(#loc169)
    %c192_i32 = arith.constant 192 : i32 loc(#loc67)
    %c192_i32_96 = arith.constant 192 : i32 loc(#loc67)
    %cst = arith.constant dense<192> : tensor<1x1xi32> loc(#loc67)
    %0 = arith.muli %cst, %xindex_6 : tensor<1x1xi32> loc(#loc67)
    %1 = tt.broadcast %0 : tensor<1x1xi32> -> tensor<1x256xi32> loc(#loc68)
    %2 = arith.addi %r0_index_8, %1 : tensor<1x256xi32> loc(#loc68)
    %3 = tt.splat %in_out_ptr0 : !tt.ptr<f32> -> tensor<1x256x!tt.ptr<f32>> loc(#loc69)
    %4 = tt.addptr %3, %2 : tensor<1x256x!tt.ptr<f32>>, tensor<1x256xi32> loc(#loc69)
    %5 = tt.broadcast %xmask_7 : tensor<1x1xi1> -> tensor<1x256xi1> loc(#loc70)
    %6 = arith.andi %r0_mask_9, %5 : tensor<1x256xi1> loc(#loc70)
    tt.store %4, %tmp23, %6 : tensor<1x256x!tt.ptr<f32>> loc(#loc71)
    %c192_i32_97 = arith.constant 192 : i32 loc(#loc72)
    %c192_i32_98 = arith.constant 192 : i32 loc(#loc72)
    %cst_99 = arith.constant dense<192> : tensor<1x1xi32> loc(#loc72)
    %7 = arith.muli %cst_99, %xindex_6 : tensor<1x1xi32> loc(#loc72)
    %8 = tt.broadcast %7 : tensor<1x1xi32> -> tensor<1x256xi32> loc(#loc73)
    %9 = arith.addi %r0_index_8, %8 : tensor<1x256xi32> loc(#loc73)
    %10 = tt.splat %out_ptr2 : !tt.ptr<bf16> -> tensor<1x256x!tt.ptr<bf16>> loc(#loc74)
    %11 = tt.addptr %10, %9 : tensor<1x256x!tt.ptr<bf16>>, tensor<1x256xi32> loc(#loc74)
    %12 = tt.broadcast %xmask_7 : tensor<1x1xi1> -> tensor<1x256xi1> loc(#loc75)
    %13 = arith.andi %r0_mask_9, %12 : tensor<1x256xi1> loc(#loc75)
    %14 = arith.truncf %tmp34_95 : tensor<1x256xf32> to tensor<1x256xbf16> loc(#loc76)
    tt.store %11, %14, %13 : tensor<1x256x!tt.ptr<bf16>> loc(#loc76)
    %c192_i32_100 = arith.constant 192 : i32 loc(#loc77)
    %c192_i32_101 = arith.constant 192 : i32 loc(#loc77)
    %cst_102 = arith.constant dense<192> : tensor<1x1xi32> loc(#loc77)
    %15 = arith.muli %cst_102, %xindex_6 : tensor<1x1xi32> loc(#loc77)
    %16 = tt.broadcast %15 : tensor<1x1xi32> -> tensor<1x256xi32> loc(#loc78)
    %17 = arith.addi %r0_index_8, %16 : tensor<1x256xi32> loc(#loc78)
    %18 = tt.splat %out_ptr3 : !tt.ptr<bf16> -> tensor<1x256x!tt.ptr<bf16>> loc(#loc79)
    %19 = tt.addptr %18, %17 : tensor<1x256x!tt.ptr<bf16>>, tensor<1x256xi32> loc(#loc79)
    %20 = tt.broadcast %xmask_7 : tensor<1x1xi1> -> tensor<1x256xi1> loc(#loc80)
    %21 = arith.andi %r0_mask_9, %20 : tensor<1x256xi1> loc(#loc80)
    %22 = arith.truncf %tmp34_95 : tensor<1x256xf32> to tensor<1x256xbf16> loc(#loc81)
    tt.store %19, %22, %21 : tensor<1x256x!tt.ptr<bf16>> loc(#loc81)
    %23 = tt.splat %out_ptr0 : !tt.ptr<f32> -> tensor<1x1x!tt.ptr<f32>> loc(#loc82)
    %24 = tt.addptr %23, %xindex_6 : tensor<1x1x!tt.ptr<f32>>, tensor<1x1xi32> loc(#loc82)
    tt.store %24, %tmp6_83, %xmask_7 : tensor<1x1x!tt.ptr<f32>> loc(#loc83)
    tt.return loc(#loc84)
  } loc(#loc)
  tt.func private @"triton.language.standard.sum__fp32S1_256S__(1,)cconstexpr_1__(2,)cconstexpr_False__(3,)cNone"(%input: tensor<1x256xf32> loc("input"(#loc85))) -> tensor<1xf32> attributes {noinline = false} {
    %0 = "tt.reduce"(%input) <{axis = 1 : i32}> ({
    ^bb0(%arg1: f32 loc(unknown), %arg2: f32 loc(unknown)):
      %2 = tt.call @triton.language.standard._sum_combine__fp32_fp32__(%arg1, %arg2) : (f32, f32) -> f32 loc(#loc86)
      tt.reduce.return %2 : f32 loc(#loc86)
    }) : (tensor<1x256xf32>) -> tensor<1xf32> loc(#loc86)
    tt.return %0 : tensor<1xf32> loc(#loc88)
  ^bb1:  // no predecessors
    %1 = ub.poison : tensor<1xf32> loc(#loc89)
    tt.return %1 : tensor<1xf32> loc(#loc89)
  } loc(#loc85)
  tt.func private @triton.language.standard._sum_combine__fp32_fp32__(%a: f32 loc("a"(#loc90)), %b: f32 loc("b"(#loc90))) -> f32 attributes {noinline = false} {
    %0 = arith.addf %a, %b : f32 loc(#loc91)
    tt.return %0 : f32 loc(#loc92)
  ^bb1:  // no predecessors
    %1 = ub.poison : f32 loc(#loc93)
    tt.return %1 : f32 loc(#loc93)
  } loc(#loc90)
} loc(#loc)
#loc1 = loc("/NHNHOME/WORKSPACE/26msit001_A/jinhyeok/loop_TTT/lact/.cache_inductor_llm/bg/cbgqnmxhoa4u4v5g7xc4rpxambuwnrqyvxsek42lqhi7uekrdaws.py":19:15)
#loc2 = loc("/NHNHOME/WORKSPACE/26msit001_A/jinhyeok/loop_TTT/lact/.cache_inductor_llm/bg/cbgqnmxhoa4u4v5g7xc4rpxambuwnrqyvxsek42lqhi7uekrdaws.py":23:28)
#loc3 = loc("/NHNHOME/WORKSPACE/26msit001_A/jinhyeok/loop_TTT/lact/.cache_inductor_llm/bg/cbgqnmxhoa4u4v5g7xc4rpxambuwnrqyvxsek42lqhi7uekrdaws.py":23:33)
#loc4 = loc("/NHNHOME/WORKSPACE/26msit001_A/jinhyeok/loop_TTT/lact/.cache_inductor_llm/bg/cbgqnmxhoa4u4v5g7xc4rpxambuwnrqyvxsek42lqhi7uekrdaws.py":24:36)
#loc5 = loc("/NHNHOME/WORKSPACE/26msit001_A/jinhyeok/loop_TTT/lact/.cache_inductor_llm/bg/cbgqnmxhoa4u4v5g7xc4rpxambuwnrqyvxsek42lqhi7uekrdaws.py":24:44)
#loc6 = loc("/NHNHOME/WORKSPACE/26msit001_A/jinhyeok/loop_TTT/lact/.cache_inductor_llm/bg/cbgqnmxhoa4u4v5g7xc4rpxambuwnrqyvxsek42lqhi7uekrdaws.py":24:23)
#loc7 = loc("/NHNHOME/WORKSPACE/26msit001_A/jinhyeok/loop_TTT/lact/.cache_inductor_llm/bg/cbgqnmxhoa4u4v5g7xc4rpxambuwnrqyvxsek42lqhi7uekrdaws.py":25:21)
#loc8 = loc("/NHNHOME/WORKSPACE/26msit001_A/jinhyeok/loop_TTT/lact/.cache_inductor_llm/bg/cbgqnmxhoa4u4v5g7xc4rpxambuwnrqyvxsek42lqhi7uekrdaws.py":26:28)
#loc9 = loc("/NHNHOME/WORKSPACE/26msit001_A/jinhyeok/loop_TTT/lact/.cache_inductor_llm/bg/cbgqnmxhoa4u4v5g7xc4rpxambuwnrqyvxsek42lqhi7uekrdaws.py":26:38)
#loc10 = loc("/NHNHOME/WORKSPACE/26msit001_A/jinhyeok/loop_TTT/lact/.cache_inductor_llm/bg/cbgqnmxhoa4u4v5g7xc4rpxambuwnrqyvxsek42lqhi7uekrdaws.py":27:16)
#loc11 = loc("/NHNHOME/WORKSPACE/26msit001_A/jinhyeok/loop_TTT/lact/.cache_inductor_llm/bg/cbgqnmxhoa4u4v5g7xc4rpxambuwnrqyvxsek42lqhi7uekrdaws.py":28:25)
#loc12 = loc("/NHNHOME/WORKSPACE/26msit001_A/jinhyeok/loop_TTT/lact/.cache_inductor_llm/bg/cbgqnmxhoa4u4v5g7xc4rpxambuwnrqyvxsek42lqhi7uekrdaws.py":33:41)
#loc13 = loc("/NHNHOME/WORKSPACE/26msit001_A/jinhyeok/loop_TTT/lact/.cache_inductor_llm/bg/cbgqnmxhoa4u4v5g7xc4rpxambuwnrqyvxsek42lqhi7uekrdaws.py":33:37)
#loc14 = loc("/NHNHOME/WORKSPACE/26msit001_A/jinhyeok/loop_TTT/lact/.cache_inductor_llm/bg/cbgqnmxhoa4u4v5g7xc4rpxambuwnrqyvxsek42lqhi7uekrdaws.py":33:30)
#loc15 = loc("/NHNHOME/WORKSPACE/26msit001_A/jinhyeok/loop_TTT/lact/.cache_inductor_llm/bg/cbgqnmxhoa4u4v5g7xc4rpxambuwnrqyvxsek42lqhi7uekrdaws.py":33:56)
#loc16 = loc("/NHNHOME/WORKSPACE/26msit001_A/jinhyeok/loop_TTT/lact/.cache_inductor_llm/bg/cbgqnmxhoa4u4v5g7xc4rpxambuwnrqyvxsek42lqhi7uekrdaws.py":33:46)
#loc17 = loc("/NHNHOME/WORKSPACE/26msit001_A/jinhyeok/loop_TTT/lact/.cache_inductor_llm/bg/cbgqnmxhoa4u4v5g7xc4rpxambuwnrqyvxsek42lqhi7uekrdaws.py":33:77)
#loc18 = loc("/NHNHOME/WORKSPACE/26msit001_A/jinhyeok/loop_TTT/lact/.cache_inductor_llm/bg/cbgqnmxhoa4u4v5g7xc4rpxambuwnrqyvxsek42lqhi7uekrdaws.py":34:45)
#loc19 = loc("/NHNHOME/WORKSPACE/26msit001_A/jinhyeok/loop_TTT/lact/.cache_inductor_llm/bg/cbgqnmxhoa4u4v5g7xc4rpxambuwnrqyvxsek42lqhi7uekrdaws.py":34:41)
#loc20 = loc("/NHNHOME/WORKSPACE/26msit001_A/jinhyeok/loop_TTT/lact/.cache_inductor_llm/bg/cbgqnmxhoa4u4v5g7xc4rpxambuwnrqyvxsek42lqhi7uekrdaws.py":34:34)
#loc21 = loc("/NHNHOME/WORKSPACE/26msit001_A/jinhyeok/loop_TTT/lact/.cache_inductor_llm/bg/cbgqnmxhoa4u4v5g7xc4rpxambuwnrqyvxsek42lqhi7uekrdaws.py":34:60)
#loc22 = loc("/NHNHOME/WORKSPACE/26msit001_A/jinhyeok/loop_TTT/lact/.cache_inductor_llm/bg/cbgqnmxhoa4u4v5g7xc4rpxambuwnrqyvxsek42lqhi7uekrdaws.py":34:50)
#loc23 = loc("/NHNHOME/WORKSPACE/26msit001_A/jinhyeok/loop_TTT/lact/.cache_inductor_llm/bg/cbgqnmxhoa4u4v5g7xc4rpxambuwnrqyvxsek42lqhi7uekrdaws.py":35:42)
#loc24 = loc("/NHNHOME/WORKSPACE/26msit001_A/jinhyeok/loop_TTT/lact/.cache_inductor_llm/bg/cbgqnmxhoa4u4v5g7xc4rpxambuwnrqyvxsek42lqhi7uekrdaws.py":35:38)
#loc25 = loc("/NHNHOME/WORKSPACE/26msit001_A/jinhyeok/loop_TTT/lact/.cache_inductor_llm/bg/cbgqnmxhoa4u4v5g7xc4rpxambuwnrqyvxsek42lqhi7uekrdaws.py":35:31)
#loc26 = loc("/NHNHOME/WORKSPACE/26msit001_A/jinhyeok/loop_TTT/lact/.cache_inductor_llm/bg/cbgqnmxhoa4u4v5g7xc4rpxambuwnrqyvxsek42lqhi7uekrdaws.py":35:57)
#loc27 = loc("/NHNHOME/WORKSPACE/26msit001_A/jinhyeok/loop_TTT/lact/.cache_inductor_llm/bg/cbgqnmxhoa4u4v5g7xc4rpxambuwnrqyvxsek42lqhi7uekrdaws.py":35:47)
#loc28 = loc("/NHNHOME/WORKSPACE/26msit001_A/jinhyeok/loop_TTT/lact/.cache_inductor_llm/bg/cbgqnmxhoa4u4v5g7xc4rpxambuwnrqyvxsek42lqhi7uekrdaws.py":35:78)
#loc29 = loc("/NHNHOME/WORKSPACE/26msit001_A/jinhyeok/loop_TTT/lact/.cache_inductor_llm/bg/cbgqnmxhoa4u4v5g7xc4rpxambuwnrqyvxsek42lqhi7uekrdaws.py":36:42)
#loc30 = loc("/NHNHOME/WORKSPACE/26msit001_A/jinhyeok/loop_TTT/lact/.cache_inductor_llm/bg/cbgqnmxhoa4u4v5g7xc4rpxambuwnrqyvxsek42lqhi7uekrdaws.py":36:38)
#loc31 = loc("/NHNHOME/WORKSPACE/26msit001_A/jinhyeok/loop_TTT/lact/.cache_inductor_llm/bg/cbgqnmxhoa4u4v5g7xc4rpxambuwnrqyvxsek42lqhi7uekrdaws.py":36:31)
#loc32 = loc("/NHNHOME/WORKSPACE/26msit001_A/jinhyeok/loop_TTT/lact/.cache_inductor_llm/bg/cbgqnmxhoa4u4v5g7xc4rpxambuwnrqyvxsek42lqhi7uekrdaws.py":36:57)
#loc33 = loc("/NHNHOME/WORKSPACE/26msit001_A/jinhyeok/loop_TTT/lact/.cache_inductor_llm/bg/cbgqnmxhoa4u4v5g7xc4rpxambuwnrqyvxsek42lqhi7uekrdaws.py":36:47)
#loc34 = loc("/NHNHOME/WORKSPACE/26msit001_A/jinhyeok/loop_TTT/lact/.cache_inductor_llm/bg/cbgqnmxhoa4u4v5g7xc4rpxambuwnrqyvxsek42lqhi7uekrdaws.py":36:78)
#loc35 = loc("/NHNHOME/WORKSPACE/26msit001_A/jinhyeok/loop_TTT/lact/.cache_inductor_llm/bg/cbgqnmxhoa4u4v5g7xc4rpxambuwnrqyvxsek42lqhi7uekrdaws.py":37:42)
#loc36 = loc("/NHNHOME/WORKSPACE/26msit001_A/jinhyeok/loop_TTT/lact/.cache_inductor_llm/bg/cbgqnmxhoa4u4v5g7xc4rpxambuwnrqyvxsek42lqhi7uekrdaws.py":37:38)
#loc37 = loc("/NHNHOME/WORKSPACE/26msit001_A/jinhyeok/loop_TTT/lact/.cache_inductor_llm/bg/cbgqnmxhoa4u4v5g7xc4rpxambuwnrqyvxsek42lqhi7uekrdaws.py":37:31)
#loc38 = loc("/NHNHOME/WORKSPACE/26msit001_A/jinhyeok/loop_TTT/lact/.cache_inductor_llm/bg/cbgqnmxhoa4u4v5g7xc4rpxambuwnrqyvxsek42lqhi7uekrdaws.py":37:57)
#loc39 = loc("/NHNHOME/WORKSPACE/26msit001_A/jinhyeok/loop_TTT/lact/.cache_inductor_llm/bg/cbgqnmxhoa4u4v5g7xc4rpxambuwnrqyvxsek42lqhi7uekrdaws.py":37:47)
#loc40 = loc("/NHNHOME/WORKSPACE/26msit001_A/jinhyeok/loop_TTT/lact/.cache_inductor_llm/bg/cbgqnmxhoa4u4v5g7xc4rpxambuwnrqyvxsek42lqhi7uekrdaws.py":37:78)
#loc41 = loc("/NHNHOME/WORKSPACE/26msit001_A/jinhyeok/loop_TTT/lact/.cache_inductor_llm/bg/cbgqnmxhoa4u4v5g7xc4rpxambuwnrqyvxsek42lqhi7uekrdaws.py":39:18)
#loc42 = loc("/NHNHOME/WORKSPACE/26msit001_A/jinhyeok/loop_TTT/lact/.cache_inductor_llm/bg/cbgqnmxhoa4u4v5g7xc4rpxambuwnrqyvxsek42lqhi7uekrdaws.py":41:30)
#loc43 = loc("/NHNHOME/WORKSPACE/26msit001_A/jinhyeok/loop_TTT/lact/.cache_inductor_llm/bg/cbgqnmxhoa4u4v5g7xc4rpxambuwnrqyvxsek42lqhi7uekrdaws.py":41:43)
#loc44 = loc("/NHNHOME/WORKSPACE/26msit001_A/jinhyeok/loop_TTT/lact/.cache_inductor_llm/bg/cbgqnmxhoa4u4v5g7xc4rpxambuwnrqyvxsek42lqhi7uekrdaws.py":42:24)
#loc45 = loc("/NHNHOME/WORKSPACE/26msit001_A/jinhyeok/loop_TTT/lact/.cache_inductor_llm/bg/cbgqnmxhoa4u4v5g7xc4rpxambuwnrqyvxsek42lqhi7uekrdaws.py":42:27)
#loc46 = loc("/NHNHOME/WORKSPACE/26msit001_A/jinhyeok/loop_TTT/lact/.cache_inductor_llm/bg/cbgqnmxhoa4u4v5g7xc4rpxambuwnrqyvxsek42lqhi7uekrdaws.py":43:11)
#loc47 = loc("/NHNHOME/WORKSPACE/26msit001_A/jinhyeok/loop_TTT/lact/.cache_inductor_llm/bg/cbgqnmxhoa4u4v5g7xc4rpxambuwnrqyvxsek42lqhi7uekrdaws.py":44:18)
#loc48 = loc("/NHNHOME/WORKSPACE/26msit001_A/jinhyeok/loop_TTT/lact/.cache_inductor_llm/bg/cbgqnmxhoa4u4v5g7xc4rpxambuwnrqyvxsek42lqhi7uekrdaws.py":46:19)
#loc49 = loc("/NHNHOME/WORKSPACE/26msit001_A/jinhyeok/loop_TTT/lact/.cache_inductor_llm/bg/cbgqnmxhoa4u4v5g7xc4rpxambuwnrqyvxsek42lqhi7uekrdaws.py":47:12)
#loc50 = loc("/NHNHOME/WORKSPACE/26msit001_A/jinhyeok/loop_TTT/lact/.cache_inductor_llm/bg/cbgqnmxhoa4u4v5g7xc4rpxambuwnrqyvxsek42lqhi7uekrdaws.py":48:20)
#loc51 = loc("/NHNHOME/WORKSPACE/26msit001_A/jinhyeok/loop_TTT/lact/.cache_inductor_llm/bg/cbgqnmxhoa4u4v5g7xc4rpxambuwnrqyvxsek42lqhi7uekrdaws.py":50:20)
#loc52 = loc("/NHNHOME/WORKSPACE/26msit001_A/jinhyeok/loop_TTT/lact/.cache_inductor_llm/bg/cbgqnmxhoa4u4v5g7xc4rpxambuwnrqyvxsek42lqhi7uekrdaws.py":51:12)
#loc53 = loc("/NHNHOME/WORKSPACE/26msit001_A/jinhyeok/loop_TTT/lact/.cache_inductor_llm/bg/cbgqnmxhoa4u4v5g7xc4rpxambuwnrqyvxsek42lqhi7uekrdaws.py":52:20)
#loc54 = loc("/NHNHOME/WORKSPACE/26msit001_A/jinhyeok/loop_TTT/lact/.cache_inductor_llm/bg/cbgqnmxhoa4u4v5g7xc4rpxambuwnrqyvxsek42lqhi7uekrdaws.py":54:20)
#loc55 = loc("/NHNHOME/WORKSPACE/26msit001_A/jinhyeok/loop_TTT/lact/.cache_inductor_llm/bg/cbgqnmxhoa4u4v5g7xc4rpxambuwnrqyvxsek42lqhi7uekrdaws.py":55:19)
#loc56 = loc("/NHNHOME/WORKSPACE/26msit001_A/jinhyeok/loop_TTT/lact/.cache_inductor_llm/bg/cbgqnmxhoa4u4v5g7xc4rpxambuwnrqyvxsek42lqhi7uekrdaws.py":56:20)
#loc57 = loc("/NHNHOME/WORKSPACE/26msit001_A/jinhyeok/loop_TTT/lact/.cache_inductor_llm/bg/cbgqnmxhoa4u4v5g7xc4rpxambuwnrqyvxsek42lqhi7uekrdaws.py":58:31)
#loc58 = loc("/NHNHOME/WORKSPACE/26msit001_A/jinhyeok/loop_TTT/lact/.cache_inductor_llm/bg/cbgqnmxhoa4u4v5g7xc4rpxambuwnrqyvxsek42lqhi7uekrdaws.py":58:45)
#loc59 = loc("/NHNHOME/WORKSPACE/26msit001_A/jinhyeok/loop_TTT/lact/.cache_inductor_llm/bg/cbgqnmxhoa4u4v5g7xc4rpxambuwnrqyvxsek42lqhi7uekrdaws.py":59:26)
#loc60 = loc("/NHNHOME/WORKSPACE/26msit001_A/jinhyeok/loop_TTT/lact/.cache_inductor_llm/bg/cbgqnmxhoa4u4v5g7xc4rpxambuwnrqyvxsek42lqhi7uekrdaws.py":59:29)
#loc61 = loc("/NHNHOME/WORKSPACE/26msit001_A/jinhyeok/loop_TTT/lact/.cache_inductor_llm/bg/cbgqnmxhoa4u4v5g7xc4rpxambuwnrqyvxsek42lqhi7uekrdaws.py":60:27)
#loc62 = loc("/NHNHOME/WORKSPACE/26msit001_A/jinhyeok/loop_TTT/lact/.cache_inductor_llm/bg/cbgqnmxhoa4u4v5g7xc4rpxambuwnrqyvxsek42lqhi7uekrdaws.py":61:12)
#loc63 = loc("/NHNHOME/WORKSPACE/26msit001_A/jinhyeok/loop_TTT/lact/.cache_inductor_llm/bg/cbgqnmxhoa4u4v5g7xc4rpxambuwnrqyvxsek42lqhi7uekrdaws.py":62:20)
#loc64 = loc("/NHNHOME/WORKSPACE/26msit001_A/jinhyeok/loop_TTT/lact/.cache_inductor_llm/bg/cbgqnmxhoa4u4v5g7xc4rpxambuwnrqyvxsek42lqhi7uekrdaws.py":63:21)
#loc65 = loc("/NHNHOME/WORKSPACE/26msit001_A/jinhyeok/loop_TTT/lact/.cache_inductor_llm/bg/cbgqnmxhoa4u4v5g7xc4rpxambuwnrqyvxsek42lqhi7uekrdaws.py":64:27)
#loc66 = loc("/NHNHOME/WORKSPACE/26msit001_A/jinhyeok/loop_TTT/lact/.cache_inductor_llm/bg/cbgqnmxhoa4u4v5g7xc4rpxambuwnrqyvxsek42lqhi7uekrdaws.py":65:20)
#loc67 = loc("/NHNHOME/WORKSPACE/26msit001_A/jinhyeok/loop_TTT/lact/.cache_inductor_llm/bg/cbgqnmxhoa4u4v5g7xc4rpxambuwnrqyvxsek42lqhi7uekrdaws.py":67:39)
#loc68 = loc("/NHNHOME/WORKSPACE/26msit001_A/jinhyeok/loop_TTT/lact/.cache_inductor_llm/bg/cbgqnmxhoa4u4v5g7xc4rpxambuwnrqyvxsek42lqhi7uekrdaws.py":67:35)
#loc69 = loc("/NHNHOME/WORKSPACE/26msit001_A/jinhyeok/loop_TTT/lact/.cache_inductor_llm/bg/cbgqnmxhoa4u4v5g7xc4rpxambuwnrqyvxsek42lqhi7uekrdaws.py":67:28)
#loc70 = loc("/NHNHOME/WORKSPACE/26msit001_A/jinhyeok/loop_TTT/lact/.cache_inductor_llm/bg/cbgqnmxhoa4u4v5g7xc4rpxambuwnrqyvxsek42lqhi7uekrdaws.py":67:61)
#loc71 = loc("/NHNHOME/WORKSPACE/26msit001_A/jinhyeok/loop_TTT/lact/.cache_inductor_llm/bg/cbgqnmxhoa4u4v5g7xc4rpxambuwnrqyvxsek42lqhi7uekrdaws.py":67:51)
#loc72 = loc("/NHNHOME/WORKSPACE/26msit001_A/jinhyeok/loop_TTT/lact/.cache_inductor_llm/bg/cbgqnmxhoa4u4v5g7xc4rpxambuwnrqyvxsek42lqhi7uekrdaws.py":68:36)
#loc73 = loc("/NHNHOME/WORKSPACE/26msit001_A/jinhyeok/loop_TTT/lact/.cache_inductor_llm/bg/cbgqnmxhoa4u4v5g7xc4rpxambuwnrqyvxsek42lqhi7uekrdaws.py":68:32)
#loc74 = loc("/NHNHOME/WORKSPACE/26msit001_A/jinhyeok/loop_TTT/lact/.cache_inductor_llm/bg/cbgqnmxhoa4u4v5g7xc4rpxambuwnrqyvxsek42lqhi7uekrdaws.py":68:25)
#loc75 = loc("/NHNHOME/WORKSPACE/26msit001_A/jinhyeok/loop_TTT/lact/.cache_inductor_llm/bg/cbgqnmxhoa4u4v5g7xc4rpxambuwnrqyvxsek42lqhi7uekrdaws.py":68:58)
#loc76 = loc("/NHNHOME/WORKSPACE/26msit001_A/jinhyeok/loop_TTT/lact/.cache_inductor_llm/bg/cbgqnmxhoa4u4v5g7xc4rpxambuwnrqyvxsek42lqhi7uekrdaws.py":68:48)
#loc77 = loc("/NHNHOME/WORKSPACE/26msit001_A/jinhyeok/loop_TTT/lact/.cache_inductor_llm/bg/cbgqnmxhoa4u4v5g7xc4rpxambuwnrqyvxsek42lqhi7uekrdaws.py":69:36)
#loc78 = loc("/NHNHOME/WORKSPACE/26msit001_A/jinhyeok/loop_TTT/lact/.cache_inductor_llm/bg/cbgqnmxhoa4u4v5g7xc4rpxambuwnrqyvxsek42lqhi7uekrdaws.py":69:32)
#loc79 = loc("/NHNHOME/WORKSPACE/26msit001_A/jinhyeok/loop_TTT/lact/.cache_inductor_llm/bg/cbgqnmxhoa4u4v5g7xc4rpxambuwnrqyvxsek42lqhi7uekrdaws.py":69:25)
#loc80 = loc("/NHNHOME/WORKSPACE/26msit001_A/jinhyeok/loop_TTT/lact/.cache_inductor_llm/bg/cbgqnmxhoa4u4v5g7xc4rpxambuwnrqyvxsek42lqhi7uekrdaws.py":69:58)
#loc81 = loc("/NHNHOME/WORKSPACE/26msit001_A/jinhyeok/loop_TTT/lact/.cache_inductor_llm/bg/cbgqnmxhoa4u4v5g7xc4rpxambuwnrqyvxsek42lqhi7uekrdaws.py":69:48)
#loc82 = loc("/NHNHOME/WORKSPACE/26msit001_A/jinhyeok/loop_TTT/lact/.cache_inductor_llm/bg/cbgqnmxhoa4u4v5g7xc4rpxambuwnrqyvxsek42lqhi7uekrdaws.py":70:25)
#loc83 = loc("/NHNHOME/WORKSPACE/26msit001_A/jinhyeok/loop_TTT/lact/.cache_inductor_llm/bg/cbgqnmxhoa4u4v5g7xc4rpxambuwnrqyvxsek42lqhi7uekrdaws.py":70:36)
#loc84 = loc("/NHNHOME/WORKSPACE/26msit001_A/jinhyeok/loop_TTT/lact/.cache_inductor_llm/bg/cbgqnmxhoa4u4v5g7xc4rpxambuwnrqyvxsek42lqhi7uekrdaws.py":70:4)
#loc86 = loc("/NHNHOME/WORKSPACE/26msit001_A/jinhyeok/TTT_camera_embedding/.venv_llm/lib/python3.12/site-packages/triton/language/standard.py":291:36)
#loc88 = loc("/NHNHOME/WORKSPACE/26msit001_A/jinhyeok/TTT_camera_embedding/.venv_llm/lib/python3.12/site-packages/triton/language/standard.py":291:11)
#loc89 = loc("/NHNHOME/WORKSPACE/26msit001_A/jinhyeok/TTT_camera_embedding/.venv_llm/lib/python3.12/site-packages/triton/language/standard.py":291:4)
#loc91 = loc("/NHNHOME/WORKSPACE/26msit001_A/jinhyeok/TTT_camera_embedding/.venv_llm/lib/python3.12/site-packages/triton/language/standard.py":261:15)
#loc92 = loc("/NHNHOME/WORKSPACE/26msit001_A/jinhyeok/TTT_camera_embedding/.venv_llm/lib/python3.12/site-packages/triton/language/standard.py":261:11)
#loc93 = loc("/NHNHOME/WORKSPACE/26msit001_A/jinhyeok/TTT_camera_embedding/.venv_llm/lib/python3.12/site-packages/triton/language/standard.py":261:4)
#loc104 = loc("r0_numel"(#loc1))
#loc105 = loc("xoffset"(#loc2))
#loc106 = loc("xoffset"(#loc3))
#loc107 = loc("xindex"(#loc4))
#loc108 = loc("xindex"(#loc5))
#loc109 = loc("xindex"(#loc6))
#loc110 = loc("xmask"(#loc7))
#loc111 = loc("r0_index"(#loc8))
#loc112 = loc("r0_index"(#loc9))
#loc113 = loc("r0_offset"(#loc10))
#loc114 = loc("r0_mask"(#loc11))
#loc115 = loc("tmp0"(#loc12))
#loc116 = loc("tmp0"(#loc13))
#loc117 = loc("tmp0"(#loc14))
#loc118 = loc("tmp0"(#loc15))
#loc119 = loc("tmp0"(#loc16))
#loc120 = loc("tmp0"(#loc17))
#loc121 = loc("tmp7"(#loc18))
#loc122 = loc("tmp7"(#loc19))
#loc123 = loc("tmp7"(#loc20))
#loc124 = loc("tmp7"(#loc21))
#loc125 = loc("tmp7"(#loc22))
#loc126 = loc("tmp10"(#loc23))
#loc127 = loc("tmp10"(#loc24))
#loc128 = loc("tmp10"(#loc25))
#loc129 = loc("tmp10"(#loc26))
#loc130 = loc("tmp10"(#loc27))
#loc131 = loc("tmp10"(#loc28))
#loc132 = loc("tmp15"(#loc29))
#loc133 = loc("tmp15"(#loc30))
#loc134 = loc("tmp15"(#loc31))
#loc135 = loc("tmp15"(#loc32))
#loc136 = loc("tmp15"(#loc33))
#loc137 = loc("tmp15"(#loc34))
#loc138 = loc("tmp20"(#loc35))
#loc139 = loc("tmp20"(#loc36))
#loc140 = loc("tmp20"(#loc37))
#loc141 = loc("tmp20"(#loc38))
#loc142 = loc("tmp20"(#loc39))
#loc143 = loc("tmp20"(#loc40))
#loc144 = loc("tmp2"(#loc41))
#loc145 = loc("tmp5"(#loc42))
#loc146 = loc("tmp5"(#loc43))
#loc147 = loc("tmp6"(#loc44))
#loc148 = loc("tmp6"(#loc45))
#loc149 = loc("tmp8"(#loc46))
#loc150 = loc("tmp9"(#loc47))
#loc151 = loc("tmp12"(#loc48))
#loc152 = loc("tmp13"(#loc49))
#loc153 = loc("tmp14"(#loc50))
#loc154 = loc("tmp17"(#loc51))
#loc155 = loc("tmp18"(#loc52))
#loc156 = loc("tmp19"(#loc53))
#loc157 = loc("tmp22"(#loc54))
#loc158 = loc("tmp23"(#loc55))
#loc159 = loc("tmp24"(#loc56))
#loc160 = loc("tmp27"(#loc57))
#loc161 = loc("tmp27"(#loc58))
#loc162 = loc("tmp28"(#loc59))
#loc163 = loc("tmp28"(#loc60))
#loc164 = loc("tmp29"(#loc61))
#loc165 = loc("tmp30"(#loc62))
#loc166 = loc("tmp31"(#loc63))
#loc167 = loc("tmp32"(#loc64))
#loc168 = loc("tmp33"(#loc65))
#loc169 = loc("tmp34"(#loc66))
