#loc = loc("/NHNHOME/WORKSPACE/26msit001_A/jinhyeok/loop_TTT/lact/.cache_inductor_llm/46/c46vjbfviro5kjzw7ykztt26h6gtbb5xbbeh56dyphgr2eqfei3l.py":18:0)
#loc74 = loc("/NHNHOME/WORKSPACE/26msit001_A/jinhyeok/TTT_camera_embedding/.venv_llm/lib/python3.12/site-packages/triton/language/standard.py":285:0)
#loc76 = loc(unknown)
#loc79 = loc("/NHNHOME/WORKSPACE/26msit001_A/jinhyeok/TTT_camera_embedding/.venv_llm/lib/python3.12/site-packages/triton/language/standard.py":260:0)
#loc83 = loc("in_ptr0"(#loc))
#loc84 = loc("in_ptr1"(#loc))
#loc85 = loc("in_ptr2"(#loc))
#loc86 = loc("out_ptr0"(#loc))
#loc87 = loc("out_ptr1"(#loc))
#loc88 = loc("xnumel"(#loc))
#loc89 = loc("r0_numel"(#loc))
#loc157 = loc("input"(#loc74))
#loc158 = loc("a"(#loc79))
#loc159 = loc("b"(#loc79))
module {
  tt.func public @triton_red_fused__to_copy_add_linalg_vector_norm_mean_mul_slice_zeros_like_5(%in_ptr0: !tt.ptr<bf16> {tt.divisibility = 16 : i32} loc("in_ptr0"(#loc)), %in_ptr1: !tt.ptr<f32> {tt.divisibility = 16 : i32} loc("in_ptr1"(#loc)), %in_ptr2: !tt.ptr<bf16> {tt.divisibility = 16 : i32} loc("in_ptr2"(#loc)), %out_ptr0: !tt.ptr<f32> {tt.divisibility = 16 : i32} loc("out_ptr0"(#loc)), %out_ptr1: !tt.ptr<f32> {tt.divisibility = 16 : i32} loc("out_ptr1"(#loc)), %xnumel: i32 loc("xnumel"(#loc)), %r0_numel: i32 loc("r0_numel"(#loc))) attributes {noinline = false} {
    %r0_numel_0 = arith.constant 7373 : i32 loc(#loc90)
    %xoffset = tt.get_program_id x : i32 loc(#loc91)
    %xoffset_1 = arith.constant 1 : i32 loc(#loc92)
    %xoffset_2 = arith.constant 1 : i32 loc(#loc92)
    %xoffset_3 = arith.muli %xoffset, %xoffset_2 : i32 loc(#loc92)
    %xindex = tt.make_range {end = 1 : i32, start = 0 : i32} : tensor<1xi32> loc(#loc93)
    %xindex_4 = tt.expand_dims %xindex {axis = 1 : i32} : tensor<1xi32> -> tensor<1x1xi32> loc(#loc94)
    %xindex_5 = tt.splat %xoffset_3 : i32 -> tensor<1x1xi32> loc(#loc95)
    %xindex_6 = arith.addi %xindex_5, %xindex_4 : tensor<1x1xi32> loc(#loc95)
    %xmask = tt.splat %xnumel : i32 -> tensor<1x1xi32> loc(#loc96)
    %xmask_7 = arith.cmpi slt, %xindex_6, %xmask : tensor<1x1xi32> loc(#loc96)
    %r0_base = tt.make_range {end = 2048 : i32, start = 0 : i32} : tensor<2048xi32> loc(#loc97)
    %r0_base_8 = tt.expand_dims %r0_base {axis = 0 : i32} : tensor<2048xi32> -> tensor<1x2048xi32> loc(#loc98)
    %x0 = arith.constant 5 : i32 loc(#loc99)
    %x0_9 = arith.constant 5 : i32 loc(#loc99)
    %x0_10 = arith.constant dense<5> : tensor<1x1xi32> loc(#loc99)
    %x0_11 = arith.remsi %xindex_6, %x0_10 : tensor<1x1xi32> loc(#loc99)
    %x1 = arith.constant 5 : i32 loc(#loc100)
    %x1_12 = arith.constant 5 : i32 loc(#loc100)
    %x1_13 = arith.constant dense<5> : tensor<1x1xi32> loc(#loc100)
    %x1_14 = arith.divsi %xindex_6, %x1_13 : tensor<1x1xi32> loc(#loc100)
    %_tmp17 = arith.constant 0.000000e+00 : f32 loc(#loc101)
    %_tmp17_15 = arith.constant dense<0.000000e+00> : tensor<1x2048xf32> loc(#loc101)
    %_tmp28 = arith.constant 0.000000e+00 : f32 loc(#loc102)
    %_tmp28_16 = arith.constant dense<0.000000e+00> : tensor<1x2048xf32> loc(#loc102)
    %c0_i32 = arith.constant 0 : i32 loc(#loc14)
    %c2048_i32 = arith.constant 2048 : i32 loc(#loc14)
    %0 = arith.bitcast %c0_i32 : i32 to i32 loc(#loc14)
    %1 = arith.bitcast %r0_numel_0 : i32 to i32 loc(#loc14)
    %2 = arith.bitcast %c2048_i32 : i32 to i32 loc(#loc14)
    %3 = ub.poison : i32 loc(#loc14)
    %_tmp28_17:2 = scf.for %r0_offset = %0 to %1 step %2 iter_args(%_tmp17_20 = %_tmp17_15, %_tmp28_21 = %_tmp28_16) -> (tensor<1x2048xf32>, tensor<1x2048xf32>)  : i32 {
      %r0_index = tt.splat %r0_offset : i32 -> tensor<1x2048xi32> loc(#loc104)
      %r0_index_22 = arith.addi %r0_index, %r0_base_8 : tensor<1x2048xi32> loc(#loc104)
      %r0_mask = arith.constant dense<7373> : tensor<1x2048xi32> loc(#loc105)
      %r0_mask_23 = arith.cmpi slt, %r0_index_22, %r0_mask : tensor<1x2048xi32> loc(#loc105)
      %tmp0 = arith.constant 7373 : i32 loc(#loc106)
      %tmp0_24 = arith.constant 7373 : i32 loc(#loc106)
      %tmp0_25 = arith.constant dense<7373> : tensor<1x1xi32> loc(#loc106)
      %tmp0_26 = arith.muli %tmp0_25, %x0_11 : tensor<1x1xi32> loc(#loc106)
      %tmp0_27 = tt.broadcast %tmp0_26 : tensor<1x1xi32> -> tensor<1x2048xi32> loc(#loc107)
      %tmp0_28 = arith.addi %r0_index_22, %tmp0_27 : tensor<1x2048xi32> loc(#loc107)
      %tmp1 = arith.constant 36864 : i32 loc(#loc108)
      %tmp1_29 = arith.constant dense<36864> : tensor<1x1xi32> loc(#loc108)
      %tmp2 = arith.constant dense<36864> : tensor<1x2048xi32> loc(#loc109)
      %tmp2_30 = arith.cmpi slt, %tmp0_28, %tmp2 : tensor<1x2048xi32> loc(#loc109)
      %tmp3 = arith.constant 36864 : i32 loc(#loc110)
      %tmp3_31 = arith.constant 36864 : i32 loc(#loc110)
      %tmp3_32 = arith.constant dense<36864> : tensor<1x1xi32> loc(#loc110)
      %tmp3_33 = arith.muli %tmp3_32, %x1_14 : tensor<1x1xi32> loc(#loc110)
      %tmp3_34 = arith.constant 7373 : i32 loc(#loc111)
      %tmp3_35 = arith.constant 7373 : i32 loc(#loc111)
      %tmp3_36 = arith.constant dense<7373> : tensor<1x1xi32> loc(#loc111)
      %tmp3_37 = arith.muli %tmp3_36, %x0_11 : tensor<1x1xi32> loc(#loc111)
      %tmp3_38 = tt.broadcast %tmp3_37 : tensor<1x1xi32> -> tensor<1x2048xi32> loc(#loc112)
      %tmp3_39 = arith.addi %r0_index_22, %tmp3_38 : tensor<1x2048xi32> loc(#loc112)
      %tmp3_40 = arith.constant 36864 : i32 loc(#loc113)
      %tmp3_41 = arith.constant 36864 : i32 loc(#loc113)
      %tmp3_42 = arith.constant dense<36864> : tensor<1x2048xi32> loc(#loc113)
      %tmp3_43 = arith.remsi %tmp3_39, %tmp3_42 : tensor<1x2048xi32> loc(#loc113)
      %tmp3_44 = tt.broadcast %tmp3_33 : tensor<1x1xi32> -> tensor<1x2048xi32> loc(#loc114)
      %tmp3_45 = arith.addi %tmp3_44, %tmp3_43 : tensor<1x2048xi32> loc(#loc114)
      %tmp3_46 = tt.splat %in_ptr0 : !tt.ptr<bf16> -> tensor<1x2048x!tt.ptr<bf16>> loc(#loc115)
      %tmp3_47 = tt.addptr %tmp3_46, %tmp3_45 : tensor<1x2048x!tt.ptr<bf16>>, tensor<1x2048xi32> loc(#loc115)
      %tmp3_48 = arith.andi %r0_mask_23, %tmp2_30 : tensor<1x2048xi1> loc(#loc116)
      %tmp3_49 = tt.broadcast %xmask_7 : tensor<1x1xi1> -> tensor<1x2048xi1> loc(#loc117)
      %tmp3_50 = arith.andi %tmp3_48, %tmp3_49 : tensor<1x2048xi1> loc(#loc117)
      %tmp3_51 = arith.constant 0.000000e+00 : f32 loc(#loc118)
      %tmp3_52 = arith.constant dense<0.000000e+00> : tensor<1x2048xf32> loc(#loc118)
      %tmp3_53 = arith.truncf %tmp3_52 : tensor<1x2048xf32> to tensor<1x2048xbf16> loc(#loc118)
      %tmp3_54 = tt.load %tmp3_47, %tmp3_50, %tmp3_53 evictionPolicy = evict_last : tensor<1x2048x!tt.ptr<bf16>> loc(#loc118)
      %tmp3_55 = arith.extf %tmp3_54 : tensor<1x2048xbf16> to tensor<1x2048xf32> loc(#loc119)
      %tmp5 = tt.broadcast %x1_14 : tensor<1x1xi32> -> tensor<1x2048xi32> loc(#loc120)
      %tmp5_56 = tt.splat %in_ptr1 : !tt.ptr<f32> -> tensor<1x2048x!tt.ptr<f32>> loc(#loc121)
      %tmp5_57 = tt.addptr %tmp5_56, %tmp5 : tensor<1x2048x!tt.ptr<f32>>, tensor<1x2048xi32> loc(#loc121)
      %tmp5_58 = arith.andi %r0_mask_23, %tmp2_30 : tensor<1x2048xi1> loc(#loc122)
      %tmp5_59 = tt.broadcast %xmask_7 : tensor<1x1xi1> -> tensor<1x2048xi1> loc(#loc123)
      %tmp5_60 = arith.andi %tmp5_58, %tmp5_59 : tensor<1x2048xi1> loc(#loc123)
      %tmp5_61 = arith.constant 0.000000e+00 : f32 loc(#loc124)
      %tmp5_62 = arith.constant dense<0.000000e+00> : tensor<1x2048xf32> loc(#loc124)
      %tmp5_63 = tt.load %tmp5_57, %tmp5_60, %tmp5_62 evictionPolicy = evict_last : tensor<1x2048x!tt.ptr<f32>> loc(#loc124)
      %tmp6 = arith.constant 1.024000e+03 : f32 loc(#loc125)
      %tmp7 = arith.constant dense<1.024000e+03> : tensor<1x2048xf32> loc(#loc126)
      %tmp7_64 = arith.divf %tmp5_63, %tmp7 : tensor<1x2048xf32> loc(#loc126)
      %tmp8 = arith.constant 0.000000e+00 : f32 loc(#loc127)
      %tmp9 = arith.constant dense<0.000000e+00> : tensor<1x2048xf32> loc(#loc128)
      %tmp9_65 = arith.mulf %tmp9, %tmp7_64 : tensor<1x2048xf32> loc(#loc128)
      %tmp10 = arith.addf %tmp3_55, %tmp9_65 : tensor<1x2048xf32> loc(#loc129)
      %tmp13 = arith.mulf %tmp10, %tmp10 : tensor<1x2048xf32> loc(#loc130)
      %tmp14 = arith.constant 0.000000e+00 : f32 loc(#loc131)
      %tmp14_66 = arith.constant dense<0.000000e+00> : tensor<1x2048xf32> loc(#loc131)
      %tmp15 = arith.select %tmp2_30, %tmp13, %tmp14_66 : tensor<1x2048xi1>, tensor<1x2048xf32> loc(#loc132)
      %tmp18 = arith.addf %_tmp17_20, %tmp15 : tensor<1x2048xf32> loc(#loc133)
      %_tmp17_67 = tt.broadcast %xmask_7 : tensor<1x1xi1> -> tensor<1x2048xi1> loc(#loc134)
      %_tmp17_68 = arith.andi %r0_mask_23, %_tmp17_67 : tensor<1x2048xi1> loc(#loc134)
      %_tmp17_69 = arith.select %_tmp17_68, %tmp18, %_tmp17_20 : tensor<1x2048xi1>, tensor<1x2048xf32> loc(#loc135)
      %tmp19 = arith.constant 36864 : i32 loc(#loc136)
      %tmp19_70 = arith.constant 36864 : i32 loc(#loc136)
      %tmp19_71 = arith.constant dense<36864> : tensor<1x1xi32> loc(#loc136)
      %tmp19_72 = arith.muli %tmp19_71, %x1_14 : tensor<1x1xi32> loc(#loc136)
      %tmp19_73 = arith.constant 7373 : i32 loc(#loc137)
      %tmp19_74 = arith.constant 7373 : i32 loc(#loc137)
      %tmp19_75 = arith.constant dense<7373> : tensor<1x1xi32> loc(#loc137)
      %tmp19_76 = arith.muli %tmp19_75, %x0_11 : tensor<1x1xi32> loc(#loc137)
      %tmp19_77 = tt.broadcast %tmp19_76 : tensor<1x1xi32> -> tensor<1x2048xi32> loc(#loc138)
      %tmp19_78 = arith.addi %r0_index_22, %tmp19_77 : tensor<1x2048xi32> loc(#loc138)
      %tmp19_79 = arith.constant 36864 : i32 loc(#loc139)
      %tmp19_80 = arith.constant 36864 : i32 loc(#loc139)
      %tmp19_81 = arith.constant dense<36864> : tensor<1x2048xi32> loc(#loc139)
      %tmp19_82 = arith.remsi %tmp19_78, %tmp19_81 : tensor<1x2048xi32> loc(#loc139)
      %tmp19_83 = tt.broadcast %tmp19_72 : tensor<1x1xi32> -> tensor<1x2048xi32> loc(#loc140)
      %tmp19_84 = arith.addi %tmp19_83, %tmp19_82 : tensor<1x2048xi32> loc(#loc140)
      %tmp19_85 = tt.splat %in_ptr2 : !tt.ptr<bf16> -> tensor<1x2048x!tt.ptr<bf16>> loc(#loc141)
      %tmp19_86 = tt.addptr %tmp19_85, %tmp19_84 : tensor<1x2048x!tt.ptr<bf16>>, tensor<1x2048xi32> loc(#loc141)
      %tmp19_87 = arith.andi %r0_mask_23, %tmp2_30 : tensor<1x2048xi1> loc(#loc142)
      %tmp19_88 = tt.broadcast %xmask_7 : tensor<1x1xi1> -> tensor<1x2048xi1> loc(#loc143)
      %tmp19_89 = arith.andi %tmp19_87, %tmp19_88 : tensor<1x2048xi1> loc(#loc143)
      %tmp19_90 = arith.constant 0.000000e+00 : f32 loc(#loc144)
      %tmp19_91 = arith.constant dense<0.000000e+00> : tensor<1x2048xf32> loc(#loc144)
      %tmp19_92 = arith.truncf %tmp19_91 : tensor<1x2048xf32> to tensor<1x2048xbf16> loc(#loc144)
      %tmp19_93 = tt.load %tmp19_86, %tmp19_89, %tmp19_92 evictionPolicy = evict_last : tensor<1x2048x!tt.ptr<bf16>> loc(#loc144)
      %tmp19_94 = arith.extf %tmp19_93 : tensor<1x2048xbf16> to tensor<1x2048xf32> loc(#loc145)
      %tmp21 = arith.addf %tmp19_94, %tmp9_65 : tensor<1x2048xf32> loc(#loc146)
      %tmp24 = arith.mulf %tmp21, %tmp21 : tensor<1x2048xf32> loc(#loc147)
      %tmp25 = arith.constant 0.000000e+00 : f32 loc(#loc148)
      %tmp25_95 = arith.constant dense<0.000000e+00> : tensor<1x2048xf32> loc(#loc148)
      %tmp26 = arith.select %tmp2_30, %tmp24, %tmp25_95 : tensor<1x2048xi1>, tensor<1x2048xf32> loc(#loc149)
      %tmp29 = arith.addf %_tmp28_21, %tmp26 : tensor<1x2048xf32> loc(#loc150)
      %_tmp28_96 = tt.broadcast %xmask_7 : tensor<1x1xi1> -> tensor<1x2048xi1> loc(#loc151)
      %_tmp28_97 = arith.andi %r0_mask_23, %_tmp28_96 : tensor<1x2048xi1> loc(#loc151)
      %_tmp28_98 = arith.select %_tmp28_97, %tmp29, %_tmp28_21 : tensor<1x2048xi1>, tensor<1x2048xf32> loc(#loc152)
      scf.yield %_tmp17_69, %_tmp28_98 : tensor<1x2048xf32>, tensor<1x2048xf32> loc(#loc64)
    } loc(#loc160)
    %tmp17 = tt.call @"triton.language.standard.sum__fp32S1_2048S__(1,)cconstexpr_1__(2,)cconstexpr_False__(3,)cNone"(%_tmp28_17#0) : (tensor<1x2048xf32>) -> tensor<1xf32> loc(#loc153)
    %tmp17_18 = tt.expand_dims %tmp17 {axis = 1 : i32} : tensor<1xf32> -> tensor<1x1xf32> loc(#loc154)
    %tmp28 = tt.call @"triton.language.standard.sum__fp32S1_2048S__(1,)cconstexpr_1__(2,)cconstexpr_False__(3,)cNone"(%_tmp28_17#1) : (tensor<1x2048xf32>) -> tensor<1xf32> loc(#loc155)
    %tmp28_19 = tt.expand_dims %tmp28 {axis = 1 : i32} : tensor<1xf32> -> tensor<1x1xf32> loc(#loc156)
    %4 = tt.splat %out_ptr0 : !tt.ptr<f32> -> tensor<1x1x!tt.ptr<f32>> loc(#loc69)
    %5 = tt.addptr %4, %xindex_6 : tensor<1x1x!tt.ptr<f32>>, tensor<1x1xi32> loc(#loc69)
    tt.store %5, %tmp17_18, %xmask_7 : tensor<1x1x!tt.ptr<f32>> loc(#loc70)
    %6 = tt.splat %out_ptr1 : !tt.ptr<f32> -> tensor<1x1x!tt.ptr<f32>> loc(#loc71)
    %7 = tt.addptr %6, %xindex_6 : tensor<1x1x!tt.ptr<f32>>, tensor<1x1xi32> loc(#loc71)
    tt.store %7, %tmp28_19, %xmask_7 : tensor<1x1x!tt.ptr<f32>> loc(#loc72)
    tt.return loc(#loc73)
  } loc(#loc)
  tt.func private @"triton.language.standard.sum__fp32S1_2048S__(1,)cconstexpr_1__(2,)cconstexpr_False__(3,)cNone"(%input: tensor<1x2048xf32> loc("input"(#loc74))) -> tensor<1xf32> attributes {noinline = false} {
    %0 = "tt.reduce"(%input) <{axis = 1 : i32}> ({
    ^bb0(%arg1: f32 loc(unknown), %arg2: f32 loc(unknown)):
      %2 = tt.call @triton.language.standard._sum_combine__fp32_fp32__(%arg1, %arg2) : (f32, f32) -> f32 loc(#loc75)
      tt.reduce.return %2 : f32 loc(#loc75)
    }) : (tensor<1x2048xf32>) -> tensor<1xf32> loc(#loc75)
    tt.return %0 : tensor<1xf32> loc(#loc77)
  ^bb1:  // no predecessors
    %1 = ub.poison : tensor<1xf32> loc(#loc78)
    tt.return %1 : tensor<1xf32> loc(#loc78)
  } loc(#loc74)
  tt.func private @triton.language.standard._sum_combine__fp32_fp32__(%a: f32 loc("a"(#loc79)), %b: f32 loc("b"(#loc79))) -> f32 attributes {noinline = false} {
    %0 = arith.addf %a, %b : f32 loc(#loc80)
    tt.return %0 : f32 loc(#loc81)
  ^bb1:  // no predecessors
    %1 = ub.poison : f32 loc(#loc82)
    tt.return %1 : f32 loc(#loc82)
  } loc(#loc79)
} loc(#loc)
#loc1 = loc("/NHNHOME/WORKSPACE/26msit001_A/jinhyeok/loop_TTT/lact/.cache_inductor_llm/46/c46vjbfviro5kjzw7ykztt26h6gtbb5xbbeh56dyphgr2eqfei3l.py":19:15)
#loc2 = loc("/NHNHOME/WORKSPACE/26msit001_A/jinhyeok/loop_TTT/lact/.cache_inductor_llm/46/c46vjbfviro5kjzw7ykztt26h6gtbb5xbbeh56dyphgr2eqfei3l.py":22:28)
#loc3 = loc("/NHNHOME/WORKSPACE/26msit001_A/jinhyeok/loop_TTT/lact/.cache_inductor_llm/46/c46vjbfviro5kjzw7ykztt26h6gtbb5xbbeh56dyphgr2eqfei3l.py":22:33)
#loc4 = loc("/NHNHOME/WORKSPACE/26msit001_A/jinhyeok/loop_TTT/lact/.cache_inductor_llm/46/c46vjbfviro5kjzw7ykztt26h6gtbb5xbbeh56dyphgr2eqfei3l.py":23:36)
#loc5 = loc("/NHNHOME/WORKSPACE/26msit001_A/jinhyeok/loop_TTT/lact/.cache_inductor_llm/46/c46vjbfviro5kjzw7ykztt26h6gtbb5xbbeh56dyphgr2eqfei3l.py":23:44)
#loc6 = loc("/NHNHOME/WORKSPACE/26msit001_A/jinhyeok/loop_TTT/lact/.cache_inductor_llm/46/c46vjbfviro5kjzw7ykztt26h6gtbb5xbbeh56dyphgr2eqfei3l.py":23:23)
#loc7 = loc("/NHNHOME/WORKSPACE/26msit001_A/jinhyeok/loop_TTT/lact/.cache_inductor_llm/46/c46vjbfviro5kjzw7ykztt26h6gtbb5xbbeh56dyphgr2eqfei3l.py":24:21)
#loc8 = loc("/NHNHOME/WORKSPACE/26msit001_A/jinhyeok/loop_TTT/lact/.cache_inductor_llm/46/c46vjbfviro5kjzw7ykztt26h6gtbb5xbbeh56dyphgr2eqfei3l.py":25:27)
#loc9 = loc("/NHNHOME/WORKSPACE/26msit001_A/jinhyeok/loop_TTT/lact/.cache_inductor_llm/46/c46vjbfviro5kjzw7ykztt26h6gtbb5xbbeh56dyphgr2eqfei3l.py":25:37)
#loc10 = loc("/NHNHOME/WORKSPACE/26msit001_A/jinhyeok/loop_TTT/lact/.cache_inductor_llm/46/c46vjbfviro5kjzw7ykztt26h6gtbb5xbbeh56dyphgr2eqfei3l.py":27:19)
#loc11 = loc("/NHNHOME/WORKSPACE/26msit001_A/jinhyeok/loop_TTT/lact/.cache_inductor_llm/46/c46vjbfviro5kjzw7ykztt26h6gtbb5xbbeh56dyphgr2eqfei3l.py":28:19)
#loc12 = loc("/NHNHOME/WORKSPACE/26msit001_A/jinhyeok/loop_TTT/lact/.cache_inductor_llm/46/c46vjbfviro5kjzw7ykztt26h6gtbb5xbbeh56dyphgr2eqfei3l.py":29:44)
#loc13 = loc("/NHNHOME/WORKSPACE/26msit001_A/jinhyeok/loop_TTT/lact/.cache_inductor_llm/46/c46vjbfviro5kjzw7ykztt26h6gtbb5xbbeh56dyphgr2eqfei3l.py":31:44)
#loc14 = loc("/NHNHOME/WORKSPACE/26msit001_A/jinhyeok/loop_TTT/lact/.cache_inductor_llm/46/c46vjbfviro5kjzw7ykztt26h6gtbb5xbbeh56dyphgr2eqfei3l.py":32:40)
#loc15 = loc("/NHNHOME/WORKSPACE/26msit001_A/jinhyeok/loop_TTT/lact/.cache_inductor_llm/46/c46vjbfviro5kjzw7ykztt26h6gtbb5xbbeh56dyphgr2eqfei3l.py":33:31)
#loc16 = loc("/NHNHOME/WORKSPACE/26msit001_A/jinhyeok/loop_TTT/lact/.cache_inductor_llm/46/c46vjbfviro5kjzw7ykztt26h6gtbb5xbbeh56dyphgr2eqfei3l.py":34:29)
#loc17 = loc("/NHNHOME/WORKSPACE/26msit001_A/jinhyeok/loop_TTT/lact/.cache_inductor_llm/46/c46vjbfviro5kjzw7ykztt26h6gtbb5xbbeh56dyphgr2eqfei3l.py":38:27)
#loc18 = loc("/NHNHOME/WORKSPACE/26msit001_A/jinhyeok/loop_TTT/lact/.cache_inductor_llm/46/c46vjbfviro5kjzw7ykztt26h6gtbb5xbbeh56dyphgr2eqfei3l.py":38:22)
#loc19 = loc("/NHNHOME/WORKSPACE/26msit001_A/jinhyeok/loop_TTT/lact/.cache_inductor_llm/46/c46vjbfviro5kjzw7ykztt26h6gtbb5xbbeh56dyphgr2eqfei3l.py":39:38)
#loc20 = loc("/NHNHOME/WORKSPACE/26msit001_A/jinhyeok/loop_TTT/lact/.cache_inductor_llm/46/c46vjbfviro5kjzw7ykztt26h6gtbb5xbbeh56dyphgr2eqfei3l.py":40:22)
#loc21 = loc("/NHNHOME/WORKSPACE/26msit001_A/jinhyeok/loop_TTT/lact/.cache_inductor_llm/46/c46vjbfviro5kjzw7ykztt26h6gtbb5xbbeh56dyphgr2eqfei3l.py":41:40)
#loc22 = loc("/NHNHOME/WORKSPACE/26msit001_A/jinhyeok/loop_TTT/lact/.cache_inductor_llm/46/c46vjbfviro5kjzw7ykztt26h6gtbb5xbbeh56dyphgr2eqfei3l.py":41:60)
#loc23 = loc("/NHNHOME/WORKSPACE/26msit001_A/jinhyeok/loop_TTT/lact/.cache_inductor_llm/46/c46vjbfviro5kjzw7ykztt26h6gtbb5xbbeh56dyphgr2eqfei3l.py":41:55)
#loc24 = loc("/NHNHOME/WORKSPACE/26msit001_A/jinhyeok/loop_TTT/lact/.cache_inductor_llm/46/c46vjbfviro5kjzw7ykztt26h6gtbb5xbbeh56dyphgr2eqfei3l.py":41:66)
#loc25 = loc("/NHNHOME/WORKSPACE/26msit001_A/jinhyeok/loop_TTT/lact/.cache_inductor_llm/46/c46vjbfviro5kjzw7ykztt26h6gtbb5xbbeh56dyphgr2eqfei3l.py":41:47)
#loc26 = loc("/NHNHOME/WORKSPACE/26msit001_A/jinhyeok/loop_TTT/lact/.cache_inductor_llm/46/c46vjbfviro5kjzw7ykztt26h6gtbb5xbbeh56dyphgr2eqfei3l.py":41:34)
#loc27 = loc("/NHNHOME/WORKSPACE/26msit001_A/jinhyeok/loop_TTT/lact/.cache_inductor_llm/46/c46vjbfviro5kjzw7ykztt26h6gtbb5xbbeh56dyphgr2eqfei3l.py":41:86)
#loc28 = loc("/NHNHOME/WORKSPACE/26msit001_A/jinhyeok/loop_TTT/lact/.cache_inductor_llm/46/c46vjbfviro5kjzw7ykztt26h6gtbb5xbbeh56dyphgr2eqfei3l.py":41:93)
#loc29 = loc("/NHNHOME/WORKSPACE/26msit001_A/jinhyeok/loop_TTT/lact/.cache_inductor_llm/46/c46vjbfviro5kjzw7ykztt26h6gtbb5xbbeh56dyphgr2eqfei3l.py":41:76)
#loc30 = loc("/NHNHOME/WORKSPACE/26msit001_A/jinhyeok/loop_TTT/lact/.cache_inductor_llm/46/c46vjbfviro5kjzw7ykztt26h6gtbb5xbbeh56dyphgr2eqfei3l.py":41:144)
#loc31 = loc("/NHNHOME/WORKSPACE/26msit001_A/jinhyeok/loop_TTT/lact/.cache_inductor_llm/46/c46vjbfviro5kjzw7ykztt26h6gtbb5xbbeh56dyphgr2eqfei3l.py":43:54)
#loc32 = loc("/NHNHOME/WORKSPACE/26msit001_A/jinhyeok/loop_TTT/lact/.cache_inductor_llm/46/c46vjbfviro5kjzw7ykztt26h6gtbb5xbbeh56dyphgr2eqfei3l.py":43:34)
#loc33 = loc("/NHNHOME/WORKSPACE/26msit001_A/jinhyeok/loop_TTT/lact/.cache_inductor_llm/46/c46vjbfviro5kjzw7ykztt26h6gtbb5xbbeh56dyphgr2eqfei3l.py":43:86)
#loc34 = loc("/NHNHOME/WORKSPACE/26msit001_A/jinhyeok/loop_TTT/lact/.cache_inductor_llm/46/c46vjbfviro5kjzw7ykztt26h6gtbb5xbbeh56dyphgr2eqfei3l.py":43:93)
#loc35 = loc("/NHNHOME/WORKSPACE/26msit001_A/jinhyeok/loop_TTT/lact/.cache_inductor_llm/46/c46vjbfviro5kjzw7ykztt26h6gtbb5xbbeh56dyphgr2eqfei3l.py":43:76)
#loc36 = loc("/NHNHOME/WORKSPACE/26msit001_A/jinhyeok/loop_TTT/lact/.cache_inductor_llm/46/c46vjbfviro5kjzw7ykztt26h6gtbb5xbbeh56dyphgr2eqfei3l.py":44:15)
#loc37 = loc("/NHNHOME/WORKSPACE/26msit001_A/jinhyeok/loop_TTT/lact/.cache_inductor_llm/46/c46vjbfviro5kjzw7ykztt26h6gtbb5xbbeh56dyphgr2eqfei3l.py":45:23)
#loc38 = loc("/NHNHOME/WORKSPACE/26msit001_A/jinhyeok/loop_TTT/lact/.cache_inductor_llm/46/c46vjbfviro5kjzw7ykztt26h6gtbb5xbbeh56dyphgr2eqfei3l.py":46:15)
#loc39 = loc("/NHNHOME/WORKSPACE/26msit001_A/jinhyeok/loop_TTT/lact/.cache_inductor_llm/46/c46vjbfviro5kjzw7ykztt26h6gtbb5xbbeh56dyphgr2eqfei3l.py":47:22)
#loc40 = loc("/NHNHOME/WORKSPACE/26msit001_A/jinhyeok/loop_TTT/lact/.cache_inductor_llm/46/c46vjbfviro5kjzw7ykztt26h6gtbb5xbbeh56dyphgr2eqfei3l.py":48:23)
#loc41 = loc("/NHNHOME/WORKSPACE/26msit001_A/jinhyeok/loop_TTT/lact/.cache_inductor_llm/46/c46vjbfviro5kjzw7ykztt26h6gtbb5xbbeh56dyphgr2eqfei3l.py":51:24)
#loc42 = loc("/NHNHOME/WORKSPACE/26msit001_A/jinhyeok/loop_TTT/lact/.cache_inductor_llm/46/c46vjbfviro5kjzw7ykztt26h6gtbb5xbbeh56dyphgr2eqfei3l.py":52:40)
#loc43 = loc("/NHNHOME/WORKSPACE/26msit001_A/jinhyeok/loop_TTT/lact/.cache_inductor_llm/46/c46vjbfviro5kjzw7ykztt26h6gtbb5xbbeh56dyphgr2eqfei3l.py":53:38)
#loc44 = loc("/NHNHOME/WORKSPACE/26msit001_A/jinhyeok/loop_TTT/lact/.cache_inductor_llm/46/c46vjbfviro5kjzw7ykztt26h6gtbb5xbbeh56dyphgr2eqfei3l.py":55:25)
#loc45 = loc("/NHNHOME/WORKSPACE/26msit001_A/jinhyeok/loop_TTT/lact/.cache_inductor_llm/46/c46vjbfviro5kjzw7ykztt26h6gtbb5xbbeh56dyphgr2eqfei3l.py":56:36)
#loc46 = loc("/NHNHOME/WORKSPACE/26msit001_A/jinhyeok/loop_TTT/lact/.cache_inductor_llm/46/c46vjbfviro5kjzw7ykztt26h6gtbb5xbbeh56dyphgr2eqfei3l.py":56:50)
#loc47 = loc("/NHNHOME/WORKSPACE/26msit001_A/jinhyeok/loop_TTT/lact/.cache_inductor_llm/46/c46vjbfviro5kjzw7ykztt26h6gtbb5xbbeh56dyphgr2eqfei3l.py":57:41)
#loc48 = loc("/NHNHOME/WORKSPACE/26msit001_A/jinhyeok/loop_TTT/lact/.cache_inductor_llm/46/c46vjbfviro5kjzw7ykztt26h6gtbb5xbbeh56dyphgr2eqfei3l.py":57:61)
#loc49 = loc("/NHNHOME/WORKSPACE/26msit001_A/jinhyeok/loop_TTT/lact/.cache_inductor_llm/46/c46vjbfviro5kjzw7ykztt26h6gtbb5xbbeh56dyphgr2eqfei3l.py":57:56)
#loc50 = loc("/NHNHOME/WORKSPACE/26msit001_A/jinhyeok/loop_TTT/lact/.cache_inductor_llm/46/c46vjbfviro5kjzw7ykztt26h6gtbb5xbbeh56dyphgr2eqfei3l.py":57:67)
#loc51 = loc("/NHNHOME/WORKSPACE/26msit001_A/jinhyeok/loop_TTT/lact/.cache_inductor_llm/46/c46vjbfviro5kjzw7ykztt26h6gtbb5xbbeh56dyphgr2eqfei3l.py":57:48)
#loc52 = loc("/NHNHOME/WORKSPACE/26msit001_A/jinhyeok/loop_TTT/lact/.cache_inductor_llm/46/c46vjbfviro5kjzw7ykztt26h6gtbb5xbbeh56dyphgr2eqfei3l.py":57:35)
#loc53 = loc("/NHNHOME/WORKSPACE/26msit001_A/jinhyeok/loop_TTT/lact/.cache_inductor_llm/46/c46vjbfviro5kjzw7ykztt26h6gtbb5xbbeh56dyphgr2eqfei3l.py":57:87)
#loc54 = loc("/NHNHOME/WORKSPACE/26msit001_A/jinhyeok/loop_TTT/lact/.cache_inductor_llm/46/c46vjbfviro5kjzw7ykztt26h6gtbb5xbbeh56dyphgr2eqfei3l.py":57:94)
#loc55 = loc("/NHNHOME/WORKSPACE/26msit001_A/jinhyeok/loop_TTT/lact/.cache_inductor_llm/46/c46vjbfviro5kjzw7ykztt26h6gtbb5xbbeh56dyphgr2eqfei3l.py":57:77)
#loc56 = loc("/NHNHOME/WORKSPACE/26msit001_A/jinhyeok/loop_TTT/lact/.cache_inductor_llm/46/c46vjbfviro5kjzw7ykztt26h6gtbb5xbbeh56dyphgr2eqfei3l.py":57:145)
#loc57 = loc("/NHNHOME/WORKSPACE/26msit001_A/jinhyeok/loop_TTT/lact/.cache_inductor_llm/46/c46vjbfviro5kjzw7ykztt26h6gtbb5xbbeh56dyphgr2eqfei3l.py":59:24)
#loc58 = loc("/NHNHOME/WORKSPACE/26msit001_A/jinhyeok/loop_TTT/lact/.cache_inductor_llm/46/c46vjbfviro5kjzw7ykztt26h6gtbb5xbbeh56dyphgr2eqfei3l.py":62:24)
#loc59 = loc("/NHNHOME/WORKSPACE/26msit001_A/jinhyeok/loop_TTT/lact/.cache_inductor_llm/46/c46vjbfviro5kjzw7ykztt26h6gtbb5xbbeh56dyphgr2eqfei3l.py":63:40)
#loc60 = loc("/NHNHOME/WORKSPACE/26msit001_A/jinhyeok/loop_TTT/lact/.cache_inductor_llm/46/c46vjbfviro5kjzw7ykztt26h6gtbb5xbbeh56dyphgr2eqfei3l.py":64:38)
#loc61 = loc("/NHNHOME/WORKSPACE/26msit001_A/jinhyeok/loop_TTT/lact/.cache_inductor_llm/46/c46vjbfviro5kjzw7ykztt26h6gtbb5xbbeh56dyphgr2eqfei3l.py":66:25)
#loc62 = loc("/NHNHOME/WORKSPACE/26msit001_A/jinhyeok/loop_TTT/lact/.cache_inductor_llm/46/c46vjbfviro5kjzw7ykztt26h6gtbb5xbbeh56dyphgr2eqfei3l.py":67:36)
#loc63 = loc("/NHNHOME/WORKSPACE/26msit001_A/jinhyeok/loop_TTT/lact/.cache_inductor_llm/46/c46vjbfviro5kjzw7ykztt26h6gtbb5xbbeh56dyphgr2eqfei3l.py":67:50)
#loc64 = loc("/NHNHOME/WORKSPACE/26msit001_A/jinhyeok/loop_TTT/lact/.cache_inductor_llm/46/c46vjbfviro5kjzw7ykztt26h6gtbb5xbbeh56dyphgr2eqfei3l.py":67:8)
#loc65 = loc("/NHNHOME/WORKSPACE/26msit001_A/jinhyeok/loop_TTT/lact/.cache_inductor_llm/46/c46vjbfviro5kjzw7ykztt26h6gtbb5xbbeh56dyphgr2eqfei3l.py":68:27)
#loc66 = loc("/NHNHOME/WORKSPACE/26msit001_A/jinhyeok/loop_TTT/lact/.cache_inductor_llm/46/c46vjbfviro5kjzw7ykztt26h6gtbb5xbbeh56dyphgr2eqfei3l.py":68:30)
#loc67 = loc("/NHNHOME/WORKSPACE/26msit001_A/jinhyeok/loop_TTT/lact/.cache_inductor_llm/46/c46vjbfviro5kjzw7ykztt26h6gtbb5xbbeh56dyphgr2eqfei3l.py":69:27)
#loc68 = loc("/NHNHOME/WORKSPACE/26msit001_A/jinhyeok/loop_TTT/lact/.cache_inductor_llm/46/c46vjbfviro5kjzw7ykztt26h6gtbb5xbbeh56dyphgr2eqfei3l.py":69:30)
#loc69 = loc("/NHNHOME/WORKSPACE/26msit001_A/jinhyeok/loop_TTT/lact/.cache_inductor_llm/46/c46vjbfviro5kjzw7ykztt26h6gtbb5xbbeh56dyphgr2eqfei3l.py":70:25)
#loc70 = loc("/NHNHOME/WORKSPACE/26msit001_A/jinhyeok/loop_TTT/lact/.cache_inductor_llm/46/c46vjbfviro5kjzw7ykztt26h6gtbb5xbbeh56dyphgr2eqfei3l.py":70:37)
#loc71 = loc("/NHNHOME/WORKSPACE/26msit001_A/jinhyeok/loop_TTT/lact/.cache_inductor_llm/46/c46vjbfviro5kjzw7ykztt26h6gtbb5xbbeh56dyphgr2eqfei3l.py":71:25)
#loc72 = loc("/NHNHOME/WORKSPACE/26msit001_A/jinhyeok/loop_TTT/lact/.cache_inductor_llm/46/c46vjbfviro5kjzw7ykztt26h6gtbb5xbbeh56dyphgr2eqfei3l.py":71:37)
#loc73 = loc("/NHNHOME/WORKSPACE/26msit001_A/jinhyeok/loop_TTT/lact/.cache_inductor_llm/46/c46vjbfviro5kjzw7ykztt26h6gtbb5xbbeh56dyphgr2eqfei3l.py":71:4)
#loc75 = loc("/NHNHOME/WORKSPACE/26msit001_A/jinhyeok/TTT_camera_embedding/.venv_llm/lib/python3.12/site-packages/triton/language/standard.py":291:36)
#loc77 = loc("/NHNHOME/WORKSPACE/26msit001_A/jinhyeok/TTT_camera_embedding/.venv_llm/lib/python3.12/site-packages/triton/language/standard.py":291:11)
#loc78 = loc("/NHNHOME/WORKSPACE/26msit001_A/jinhyeok/TTT_camera_embedding/.venv_llm/lib/python3.12/site-packages/triton/language/standard.py":291:4)
#loc80 = loc("/NHNHOME/WORKSPACE/26msit001_A/jinhyeok/TTT_camera_embedding/.venv_llm/lib/python3.12/site-packages/triton/language/standard.py":261:15)
#loc81 = loc("/NHNHOME/WORKSPACE/26msit001_A/jinhyeok/TTT_camera_embedding/.venv_llm/lib/python3.12/site-packages/triton/language/standard.py":261:11)
#loc82 = loc("/NHNHOME/WORKSPACE/26msit001_A/jinhyeok/TTT_camera_embedding/.venv_llm/lib/python3.12/site-packages/triton/language/standard.py":261:4)
#loc90 = loc("r0_numel"(#loc1))
#loc91 = loc("xoffset"(#loc2))
#loc92 = loc("xoffset"(#loc3))
#loc93 = loc("xindex"(#loc4))
#loc94 = loc("xindex"(#loc5))
#loc95 = loc("xindex"(#loc6))
#loc96 = loc("xmask"(#loc7))
#loc97 = loc("r0_base"(#loc8))
#loc98 = loc("r0_base"(#loc9))
#loc99 = loc("x0"(#loc10))
#loc100 = loc("x1"(#loc11))
#loc101 = loc("_tmp17"(#loc12))
#loc102 = loc("_tmp28"(#loc13))
#loc103 = loc("_tmp17"(#loc14))
#loc104 = loc("r0_index"(#loc15))
#loc105 = loc("r0_mask"(#loc16))
#loc106 = loc("tmp0"(#loc17))
#loc107 = loc("tmp0"(#loc18))
#loc108 = loc("tmp1"(#loc19))
#loc109 = loc("tmp2"(#loc20))
#loc110 = loc("tmp3"(#loc21))
#loc111 = loc("tmp3"(#loc22))
#loc112 = loc("tmp3"(#loc23))
#loc113 = loc("tmp3"(#loc24))
#loc114 = loc("tmp3"(#loc25))
#loc115 = loc("tmp3"(#loc26))
#loc116 = loc("tmp3"(#loc27))
#loc117 = loc("tmp3"(#loc28))
#loc118 = loc("tmp3"(#loc29))
#loc119 = loc("tmp3"(#loc30))
#loc120 = loc("tmp5"(#loc31))
#loc121 = loc("tmp5"(#loc32))
#loc122 = loc("tmp5"(#loc33))
#loc123 = loc("tmp5"(#loc34))
#loc124 = loc("tmp5"(#loc35))
#loc125 = loc("tmp6"(#loc36))
#loc126 = loc("tmp7"(#loc37))
#loc127 = loc("tmp8"(#loc38))
#loc128 = loc("tmp9"(#loc39))
#loc129 = loc("tmp10"(#loc40))
#loc130 = loc("tmp13"(#loc41))
#loc131 = loc("tmp14"(#loc42))
#loc132 = loc("tmp15"(#loc43))
#loc133 = loc("tmp18"(#loc44))
#loc134 = loc("_tmp17"(#loc45))
#loc135 = loc("_tmp17"(#loc46))
#loc136 = loc("tmp19"(#loc47))
#loc137 = loc("tmp19"(#loc48))
#loc138 = loc("tmp19"(#loc49))
#loc139 = loc("tmp19"(#loc50))
#loc140 = loc("tmp19"(#loc51))
#loc141 = loc("tmp19"(#loc52))
#loc142 = loc("tmp19"(#loc53))
#loc143 = loc("tmp19"(#loc54))
#loc144 = loc("tmp19"(#loc55))
#loc145 = loc("tmp19"(#loc56))
#loc146 = loc("tmp21"(#loc57))
#loc147 = loc("tmp24"(#loc58))
#loc148 = loc("tmp25"(#loc59))
#loc149 = loc("tmp26"(#loc60))
#loc150 = loc("tmp29"(#loc61))
#loc151 = loc("_tmp28"(#loc62))
#loc152 = loc("_tmp28"(#loc63))
#loc153 = loc("tmp17"(#loc65))
#loc154 = loc("tmp17"(#loc66))
#loc155 = loc("tmp28"(#loc67))
#loc156 = loc("tmp28"(#loc68))
#loc160 = loc("_tmp28"(#loc103))
