#loc = loc("/NHNHOME/WORKSPACE/26msit001_A/jinhyeok/TTT_camera_embedding/lact_llm/.cache_inductor/qd/cqdpb4nyptyr2vv53pkgdm32sccji37mfcvvqpjc62ugalemlh4v.py":18:0)
#loc1 = loc(unknown)
#loc39 = loc("/NHNHOME/WORKSPACE/26msit001_A/jinhyeok/TTT_camera_embedding/lact_llm/.cache_inductor/qd/cqdpb4nyptyr2vv53pkgdm32sccji37mfcvvqpjc62ugalemlh4v.py":57:26)
#loc49 = loc("in_out_ptr0"(#loc))
#loc50 = loc("in_ptr0"(#loc))
#loc51 = loc("in_ptr1"(#loc))
#loc52 = loc("in_ptr2"(#loc))
#loc53 = loc("in_ptr3"(#loc))
#loc54 = loc("in_ptr4"(#loc))
#loc55 = loc("in_ptr5"(#loc))
#loc56 = loc("out_ptr1"(#loc))
#loc57 = loc("xnumel"(#loc))
#loc58 = loc("r0_numel"(#loc))
#loc95 = loc("tmp23"(#loc39))
#loc104 = loc(callsite(#loc1 at #loc95))
module {
  tt.func public @triton_per_fused__to_copy_add_div_linalg_vector_norm_mul_54(%in_out_ptr0: !tt.ptr<f32> {tt.divisibility = 16 : i32} loc("in_out_ptr0"(#loc)), %in_ptr0: !tt.ptr<f32> {tt.divisibility = 16 : i32} loc("in_ptr0"(#loc)), %in_ptr1: !tt.ptr<bf16> {tt.divisibility = 16 : i32} loc("in_ptr1"(#loc)), %in_ptr2: !tt.ptr<f32> {tt.divisibility = 16 : i32} loc("in_ptr2"(#loc)), %in_ptr3: !tt.ptr<bf16> {tt.divisibility = 16 : i32} loc("in_ptr3"(#loc)), %in_ptr4: !tt.ptr<bf16> {tt.divisibility = 16 : i32} loc("in_ptr4"(#loc)), %in_ptr5: !tt.ptr<f32> {tt.divisibility = 16 : i32} loc("in_ptr5"(#loc)), %out_ptr1: !tt.ptr<bf16> {tt.divisibility = 16 : i32} loc("out_ptr1"(#loc)), %xnumel: i32 {tt.divisibility = 16 : i32} loc("xnumel"(#loc)), %r0_numel: i32 {tt.divisibility = 16 : i32} loc("r0_numel"(#loc))) attributes {noinline = false} {
    %c192_i32 = arith.constant 192 : i32 loc(#loc1)
    %xmask = arith.constant 6144 : i32 loc(#loc59)
    %cst = arith.constant dense<0.000000e+00> : tensor<1x256xbf16> loc(#loc1)
    %tmp26 = arith.constant dense<9.99999974E-6> : tensor<1x1xf32> loc(#loc60)
    %tmp10 = arith.constant dense<2.876900e+00> : tensor<1x256xf32> loc(#loc61)
    %cst_0 = arith.constant dense<2.836600e+00> : tensor<1x256xf32> loc(#loc1)
    %cst_1 = arith.constant dense<0.000000e+00> : tensor<1x256xf32> loc(#loc1)
    %r0_mask = arith.constant dense<192> : tensor<1x256xi32> loc(#loc62)
    %xoffset = tt.get_program_id x : i32 loc(#loc63)
    %xmask_2 = arith.cmpi slt, %xoffset, %xmask : i32 loc(#loc59)
    %xmask_3 = tt.splat %xmask_2 : i1 -> tensor<1x1xi1> loc(#loc59)
    %r0_index = tt.make_range {end = 256 : i32, start = 0 : i32} : tensor<256xi32> loc(#loc64)
    %r0_index_4 = tt.expand_dims %r0_index {axis = 0 : i32} : tensor<256xi32> -> tensor<1x256xi32> loc(#loc65)
    %r0_mask_5 = arith.cmpi slt, %r0_index_4, %r0_mask : tensor<1x256xi32> loc(#loc62)
    %tmp0 = arith.muli %xoffset, %c192_i32 : i32 loc(#loc66)
    %tmp0_6 = tt.splat %tmp0 : i32 -> tensor<1x256xi32> loc(#loc101)
    %tmp0_7 = arith.addi %r0_index_4, %tmp0_6 : tensor<1x256xi32> loc(#loc67)
    %tmp0_8 = tt.splat %in_out_ptr0 : !tt.ptr<f32> -> tensor<1x256x!tt.ptr<f32>> loc(#loc68)
    %tmp0_9 = tt.addptr %tmp0_8, %tmp0_7 : tensor<1x256x!tt.ptr<f32>>, tensor<1x256xi32> loc(#loc68)
    %tmp0_10 = tt.splat %xmask_2 : i1 -> tensor<1x256xi1> loc(#loc102)
    %tmp0_11 = arith.andi %r0_mask_5, %tmp0_10 : tensor<1x256xi1> loc(#loc69)
    %tmp0_12 = tt.load %tmp0_9, %tmp0_11, %cst_1 : tensor<1x256x!tt.ptr<f32>> loc(#loc70)
    %tmp1 = tt.splat %in_ptr0 : !tt.ptr<f32> -> tensor<1x256x!tt.ptr<f32>> loc(#loc71)
    %tmp1_13 = tt.addptr %tmp1, %tmp0_7 : tensor<1x256x!tt.ptr<f32>>, tensor<1x256xi32> loc(#loc71)
    %tmp1_14 = tt.load %tmp1_13, %tmp0_11, %cst_1 : tensor<1x256x!tt.ptr<f32>> loc(#loc72)
    %tmp4 = tt.splat %in_ptr1 : !tt.ptr<bf16> -> tensor<1x256x!tt.ptr<bf16>> loc(#loc73)
    %tmp4_15 = tt.addptr %tmp4, %tmp0_7 : tensor<1x256x!tt.ptr<bf16>>, tensor<1x256xi32> loc(#loc73)
    %tmp4_16 = tt.load %tmp4_15, %tmp0_11, %cst : tensor<1x256x!tt.ptr<bf16>> loc(#loc74)
    %tmp4_17 = arith.extf %tmp4_16 : tensor<1x256xbf16> to tensor<1x256xf32> loc(#loc75)
    %tmp8 = tt.splat %in_ptr2 : !tt.ptr<f32> -> tensor<1x256x!tt.ptr<f32>> loc(#loc76)
    %tmp8_18 = tt.addptr %tmp8, %tmp0_7 : tensor<1x256x!tt.ptr<f32>>, tensor<1x256xi32> loc(#loc76)
    %tmp8_19 = tt.load %tmp8_18, %tmp0_11, %cst_1 : tensor<1x256x!tt.ptr<f32>> loc(#loc77)
    %tmp11 = tt.splat %in_ptr3 : !tt.ptr<bf16> -> tensor<1x256x!tt.ptr<bf16>> loc(#loc78)
    %tmp11_20 = tt.addptr %tmp11, %tmp0_7 : tensor<1x256x!tt.ptr<bf16>>, tensor<1x256xi32> loc(#loc78)
    %tmp11_21 = tt.load %tmp11_20, %tmp0_11, %cst : tensor<1x256x!tt.ptr<bf16>> loc(#loc79)
    %tmp11_22 = arith.extf %tmp11_21 : tensor<1x256xbf16> to tensor<1x256xf32> loc(#loc80)
    %tmp15 = tt.splat %in_ptr4 : !tt.ptr<bf16> -> tensor<1x256x!tt.ptr<bf16>> loc(#loc81)
    %tmp15_23 = tt.addptr %tmp15, %tmp0_7 : tensor<1x256x!tt.ptr<bf16>>, tensor<1x256xi32> loc(#loc81)
    %tmp15_24 = tt.load %tmp15_23, %tmp0_11, %cst : tensor<1x256x!tt.ptr<bf16>> loc(#loc82)
    %tmp15_25 = arith.extf %tmp15_24 : tensor<1x256xbf16> to tensor<1x256xf32> loc(#loc83)
    %tmp28 = tt.addptr %in_ptr5, %xoffset : !tt.ptr<f32>, i32 loc(#loc84)
    %tmp28_26 = tt.splat %tmp28 : !tt.ptr<f32> -> tensor<1x1x!tt.ptr<f32>> loc(#loc84)
    %tmp28_27 = tt.load %tmp28_26, %xmask_3 evictionPolicy = evict_last : tensor<1x1x!tt.ptr<f32>> loc(#loc85)
    %tmp3 = arith.mulf %tmp1_14, %cst_0 : tensor<1x256xf32> loc(#loc86)
    %tmp6 = arith.addf %tmp3, %tmp4_17 : tensor<1x256xf32> loc(#loc87)
    %tmp7 = arith.addf %tmp0_12, %tmp6 : tensor<1x256xf32> loc(#loc88)
    %tmp10_28 = arith.mulf %tmp8_19, %tmp10 : tensor<1x256xf32> loc(#loc61)
    %tmp13 = arith.addf %tmp10_28, %tmp11_22 : tensor<1x256xf32> loc(#loc89)
    %tmp14 = arith.mulf %tmp13, %cst_0 : tensor<1x256xf32> loc(#loc90)
    %tmp17 = arith.addf %tmp14, %tmp15_25 : tensor<1x256xf32> loc(#loc91)
    %tmp18 = arith.addf %tmp7, %tmp17 : tensor<1x256xf32> loc(#loc92)
    %tmp19 = arith.mulf %tmp18, %tmp18 : tensor<1x256xf32> loc(#loc93)
    %tmp22 = arith.select %tmp0_11, %tmp19, %cst_1 : tensor<1x256xi1>, tensor<1x256xf32> loc(#loc94)
    %tmp23 = "tt.reduce"(%tmp22) <{axis = 1 : i32}> ({
    ^bb0(%tmp23_33: f32 loc(callsite(#loc1 at #loc95)), %tmp23_34: f32 loc(callsite(#loc1 at #loc95))):
      %tmp23_35 = arith.addf %tmp23_33, %tmp23_34 : f32 loc(#loc105)
      tt.reduce.return %tmp23_35 : f32 loc(#loc103)
    }) : (tensor<1x256xf32>) -> tensor<1xf32> loc(#loc103)
    %tmp23_29 = tt.expand_dims %tmp23 {axis = 1 : i32} : tensor<1xf32> -> tensor<1x1xf32> loc(#loc96)
    %tmp24 = tt.extern_elementwise %tmp23_29 {libname = "", libpath = "", pure = true, symbol = "__nv_sqrtf"} : (tensor<1x1xf32>) -> tensor<1x1xf32> loc(#loc97)
    %tmp26_30 = arith.addf %tmp24, %tmp26 : tensor<1x1xf32> loc(#loc60)
    %tmp27 = tt.broadcast %tmp26_30 : tensor<1x1xf32> -> tensor<1x256xf32> loc(#loc98)
    %tmp27_31 = arith.divf %tmp18, %tmp27 : tensor<1x256xf32> loc(#loc98)
    %tmp29 = tt.extern_elementwise %tmp28_27 {libname = "", libpath = "", pure = true, symbol = "__nv_sqrtf"} : (tensor<1x1xf32>) -> tensor<1x1xf32> loc(#loc99)
    %tmp30 = tt.broadcast %tmp29 : tensor<1x1xf32> -> tensor<1x256xf32> loc(#loc100)
    %tmp30_32 = arith.mulf %tmp27_31, %tmp30 : tensor<1x256xf32> loc(#loc100)
    %0 = tt.splat %out_ptr1 : !tt.ptr<bf16> -> tensor<1x256x!tt.ptr<bf16>> loc(#loc46)
    %1 = tt.addptr %0, %tmp0_7 : tensor<1x256x!tt.ptr<bf16>>, tensor<1x256xi32> loc(#loc46)
    %2 = arith.truncf %tmp30_32 : tensor<1x256xf32> to tensor<1x256xbf16> loc(#loc47)
    tt.store %1, %2, %tmp0_11 : tensor<1x256x!tt.ptr<bf16>> loc(#loc47)
    tt.return loc(#loc48)
  } loc(#loc)
} loc(#loc)
#loc2 = loc("/NHNHOME/WORKSPACE/26msit001_A/jinhyeok/TTT_camera_embedding/lact_llm/.cache_inductor/qd/cqdpb4nyptyr2vv53pkgdm32sccji37mfcvvqpjc62ugalemlh4v.py":26:21)
#loc3 = loc("/NHNHOME/WORKSPACE/26msit001_A/jinhyeok/TTT_camera_embedding/lact_llm/.cache_inductor/qd/cqdpb4nyptyr2vv53pkgdm32sccji37mfcvvqpjc62ugalemlh4v.py":60:20)
#loc4 = loc("/NHNHOME/WORKSPACE/26msit001_A/jinhyeok/TTT_camera_embedding/lact_llm/.cache_inductor/qd/cqdpb4nyptyr2vv53pkgdm32sccji37mfcvvqpjc62ugalemlh4v.py":47:19)
#loc5 = loc("/NHNHOME/WORKSPACE/26msit001_A/jinhyeok/TTT_camera_embedding/lact_llm/.cache_inductor/qd/cqdpb4nyptyr2vv53pkgdm32sccji37mfcvvqpjc62ugalemlh4v.py":29:25)
#loc6 = loc("/NHNHOME/WORKSPACE/26msit001_A/jinhyeok/TTT_camera_embedding/lact_llm/.cache_inductor/qd/cqdpb4nyptyr2vv53pkgdm32sccji37mfcvvqpjc62ugalemlh4v.py":24:28)
#loc7 = loc("/NHNHOME/WORKSPACE/26msit001_A/jinhyeok/TTT_camera_embedding/lact_llm/.cache_inductor/qd/cqdpb4nyptyr2vv53pkgdm32sccji37mfcvvqpjc62ugalemlh4v.py":27:28)
#loc8 = loc("/NHNHOME/WORKSPACE/26msit001_A/jinhyeok/TTT_camera_embedding/lact_llm/.cache_inductor/qd/cqdpb4nyptyr2vv53pkgdm32sccji37mfcvvqpjc62ugalemlh4v.py":27:38)
#loc9 = loc("/NHNHOME/WORKSPACE/26msit001_A/jinhyeok/TTT_camera_embedding/lact_llm/.cache_inductor/qd/cqdpb4nyptyr2vv53pkgdm32sccji37mfcvvqpjc62ugalemlh4v.py":34:45)
#loc10 = loc("/NHNHOME/WORKSPACE/26msit001_A/jinhyeok/TTT_camera_embedding/lact_llm/.cache_inductor/qd/cqdpb4nyptyr2vv53pkgdm32sccji37mfcvvqpjc62ugalemlh4v.py":34:41)
#loc11 = loc("/NHNHOME/WORKSPACE/26msit001_A/jinhyeok/TTT_camera_embedding/lact_llm/.cache_inductor/qd/cqdpb4nyptyr2vv53pkgdm32sccji37mfcvvqpjc62ugalemlh4v.py":34:34)
#loc12 = loc("/NHNHOME/WORKSPACE/26msit001_A/jinhyeok/TTT_camera_embedding/lact_llm/.cache_inductor/qd/cqdpb4nyptyr2vv53pkgdm32sccji37mfcvvqpjc62ugalemlh4v.py":34:60)
#loc13 = loc("/NHNHOME/WORKSPACE/26msit001_A/jinhyeok/TTT_camera_embedding/lact_llm/.cache_inductor/qd/cqdpb4nyptyr2vv53pkgdm32sccji37mfcvvqpjc62ugalemlh4v.py":34:50)
#loc14 = loc("/NHNHOME/WORKSPACE/26msit001_A/jinhyeok/TTT_camera_embedding/lact_llm/.cache_inductor/qd/cqdpb4nyptyr2vv53pkgdm32sccji37mfcvvqpjc62ugalemlh4v.py":35:30)
#loc15 = loc("/NHNHOME/WORKSPACE/26msit001_A/jinhyeok/TTT_camera_embedding/lact_llm/.cache_inductor/qd/cqdpb4nyptyr2vv53pkgdm32sccji37mfcvvqpjc62ugalemlh4v.py":35:46)
#loc16 = loc("/NHNHOME/WORKSPACE/26msit001_A/jinhyeok/TTT_camera_embedding/lact_llm/.cache_inductor/qd/cqdpb4nyptyr2vv53pkgdm32sccji37mfcvvqpjc62ugalemlh4v.py":36:30)
#loc17 = loc("/NHNHOME/WORKSPACE/26msit001_A/jinhyeok/TTT_camera_embedding/lact_llm/.cache_inductor/qd/cqdpb4nyptyr2vv53pkgdm32sccji37mfcvvqpjc62ugalemlh4v.py":36:46)
#loc18 = loc("/NHNHOME/WORKSPACE/26msit001_A/jinhyeok/TTT_camera_embedding/lact_llm/.cache_inductor/qd/cqdpb4nyptyr2vv53pkgdm32sccji37mfcvvqpjc62ugalemlh4v.py":36:77)
#loc19 = loc("/NHNHOME/WORKSPACE/26msit001_A/jinhyeok/TTT_camera_embedding/lact_llm/.cache_inductor/qd/cqdpb4nyptyr2vv53pkgdm32sccji37mfcvvqpjc62ugalemlh4v.py":37:30)
#loc20 = loc("/NHNHOME/WORKSPACE/26msit001_A/jinhyeok/TTT_camera_embedding/lact_llm/.cache_inductor/qd/cqdpb4nyptyr2vv53pkgdm32sccji37mfcvvqpjc62ugalemlh4v.py":37:46)
#loc21 = loc("/NHNHOME/WORKSPACE/26msit001_A/jinhyeok/TTT_camera_embedding/lact_llm/.cache_inductor/qd/cqdpb4nyptyr2vv53pkgdm32sccji37mfcvvqpjc62ugalemlh4v.py":38:31)
#loc22 = loc("/NHNHOME/WORKSPACE/26msit001_A/jinhyeok/TTT_camera_embedding/lact_llm/.cache_inductor/qd/cqdpb4nyptyr2vv53pkgdm32sccji37mfcvvqpjc62ugalemlh4v.py":38:47)
#loc23 = loc("/NHNHOME/WORKSPACE/26msit001_A/jinhyeok/TTT_camera_embedding/lact_llm/.cache_inductor/qd/cqdpb4nyptyr2vv53pkgdm32sccji37mfcvvqpjc62ugalemlh4v.py":38:78)
#loc24 = loc("/NHNHOME/WORKSPACE/26msit001_A/jinhyeok/TTT_camera_embedding/lact_llm/.cache_inductor/qd/cqdpb4nyptyr2vv53pkgdm32sccji37mfcvvqpjc62ugalemlh4v.py":39:31)
#loc25 = loc("/NHNHOME/WORKSPACE/26msit001_A/jinhyeok/TTT_camera_embedding/lact_llm/.cache_inductor/qd/cqdpb4nyptyr2vv53pkgdm32sccji37mfcvvqpjc62ugalemlh4v.py":39:47)
#loc26 = loc("/NHNHOME/WORKSPACE/26msit001_A/jinhyeok/TTT_camera_embedding/lact_llm/.cache_inductor/qd/cqdpb4nyptyr2vv53pkgdm32sccji37mfcvvqpjc62ugalemlh4v.py":39:78)
#loc27 = loc("/NHNHOME/WORKSPACE/26msit001_A/jinhyeok/TTT_camera_embedding/lact_llm/.cache_inductor/qd/cqdpb4nyptyr2vv53pkgdm32sccji37mfcvvqpjc62ugalemlh4v.py":40:31)
#loc28 = loc("/NHNHOME/WORKSPACE/26msit001_A/jinhyeok/TTT_camera_embedding/lact_llm/.cache_inductor/qd/cqdpb4nyptyr2vv53pkgdm32sccji37mfcvvqpjc62ugalemlh4v.py":40:36)
#loc29 = loc("/NHNHOME/WORKSPACE/26msit001_A/jinhyeok/TTT_camera_embedding/lact_llm/.cache_inductor/qd/cqdpb4nyptyr2vv53pkgdm32sccji37mfcvvqpjc62ugalemlh4v.py":42:18)
#loc30 = loc("/NHNHOME/WORKSPACE/26msit001_A/jinhyeok/TTT_camera_embedding/lact_llm/.cache_inductor/qd/cqdpb4nyptyr2vv53pkgdm32sccji37mfcvvqpjc62ugalemlh4v.py":44:18)
#loc31 = loc("/NHNHOME/WORKSPACE/26msit001_A/jinhyeok/TTT_camera_embedding/lact_llm/.cache_inductor/qd/cqdpb4nyptyr2vv53pkgdm32sccji37mfcvvqpjc62ugalemlh4v.py":45:18)
#loc32 = loc("/NHNHOME/WORKSPACE/26msit001_A/jinhyeok/TTT_camera_embedding/lact_llm/.cache_inductor/qd/cqdpb4nyptyr2vv53pkgdm32sccji37mfcvvqpjc62ugalemlh4v.py":49:20)
#loc33 = loc("/NHNHOME/WORKSPACE/26msit001_A/jinhyeok/TTT_camera_embedding/lact_llm/.cache_inductor/qd/cqdpb4nyptyr2vv53pkgdm32sccji37mfcvvqpjc62ugalemlh4v.py":50:20)
#loc34 = loc("/NHNHOME/WORKSPACE/26msit001_A/jinhyeok/TTT_camera_embedding/lact_llm/.cache_inductor/qd/cqdpb4nyptyr2vv53pkgdm32sccji37mfcvvqpjc62ugalemlh4v.py":52:20)
#loc35 = loc("/NHNHOME/WORKSPACE/26msit001_A/jinhyeok/TTT_camera_embedding/lact_llm/.cache_inductor/qd/cqdpb4nyptyr2vv53pkgdm32sccji37mfcvvqpjc62ugalemlh4v.py":53:19)
#loc36 = loc("/NHNHOME/WORKSPACE/26msit001_A/jinhyeok/TTT_camera_embedding/lact_llm/.cache_inductor/qd/cqdpb4nyptyr2vv53pkgdm32sccji37mfcvvqpjc62ugalemlh4v.py":54:20)
#loc37 = loc("/NHNHOME/WORKSPACE/26msit001_A/jinhyeok/TTT_camera_embedding/lact_llm/.cache_inductor/qd/cqdpb4nyptyr2vv53pkgdm32sccji37mfcvvqpjc62ugalemlh4v.py":56:45)
#loc38 = loc("/NHNHOME/WORKSPACE/26msit001_A/jinhyeok/TTT_camera_embedding/.venv_llm/lib/python3.12/site-packages/triton/language/standard.py":291:36)
#loc40 = loc("/NHNHOME/WORKSPACE/26msit001_A/jinhyeok/TTT_camera_embedding/.venv_llm/lib/python3.12/site-packages/triton/language/standard.py":261:15)
#loc41 = loc("/NHNHOME/WORKSPACE/26msit001_A/jinhyeok/TTT_camera_embedding/lact_llm/.cache_inductor/qd/cqdpb4nyptyr2vv53pkgdm32sccji37mfcvvqpjc62ugalemlh4v.py":57:29)
#loc42 = loc("/NHNHOME/WORKSPACE/26msit001_A/jinhyeok/TTT_camera_embedding/lact_llm/.cache_inductor/qd/cqdpb4nyptyr2vv53pkgdm32sccji37mfcvvqpjc62ugalemlh4v.py":58:27)
#loc43 = loc("/NHNHOME/WORKSPACE/26msit001_A/jinhyeok/TTT_camera_embedding/lact_llm/.cache_inductor/qd/cqdpb4nyptyr2vv53pkgdm32sccji37mfcvvqpjc62ugalemlh4v.py":61:21)
#loc44 = loc("/NHNHOME/WORKSPACE/26msit001_A/jinhyeok/TTT_camera_embedding/lact_llm/.cache_inductor/qd/cqdpb4nyptyr2vv53pkgdm32sccji37mfcvvqpjc62ugalemlh4v.py":62:27)
#loc45 = loc("/NHNHOME/WORKSPACE/26msit001_A/jinhyeok/TTT_camera_embedding/lact_llm/.cache_inductor/qd/cqdpb4nyptyr2vv53pkgdm32sccji37mfcvvqpjc62ugalemlh4v.py":63:20)
#loc46 = loc("/NHNHOME/WORKSPACE/26msit001_A/jinhyeok/TTT_camera_embedding/lact_llm/.cache_inductor/qd/cqdpb4nyptyr2vv53pkgdm32sccji37mfcvvqpjc62ugalemlh4v.py":65:25)
#loc47 = loc("/NHNHOME/WORKSPACE/26msit001_A/jinhyeok/TTT_camera_embedding/lact_llm/.cache_inductor/qd/cqdpb4nyptyr2vv53pkgdm32sccji37mfcvvqpjc62ugalemlh4v.py":65:48)
#loc48 = loc("/NHNHOME/WORKSPACE/26msit001_A/jinhyeok/TTT_camera_embedding/lact_llm/.cache_inductor/qd/cqdpb4nyptyr2vv53pkgdm32sccji37mfcvvqpjc62ugalemlh4v.py":65:4)
#loc59 = loc("xmask"(#loc2))
#loc60 = loc("tmp26"(#loc3))
#loc61 = loc("tmp10"(#loc4))
#loc62 = loc("r0_mask"(#loc5))
#loc63 = loc("xoffset"(#loc6))
#loc64 = loc("r0_index"(#loc7))
#loc65 = loc("r0_index"(#loc8))
#loc66 = loc("tmp0"(#loc9))
#loc67 = loc("tmp0"(#loc10))
#loc68 = loc("tmp0"(#loc11))
#loc69 = loc("tmp0"(#loc12))
#loc70 = loc("tmp0"(#loc13))
#loc71 = loc("tmp1"(#loc14))
#loc72 = loc("tmp1"(#loc15))
#loc73 = loc("tmp4"(#loc16))
#loc74 = loc("tmp4"(#loc17))
#loc75 = loc("tmp4"(#loc18))
#loc76 = loc("tmp8"(#loc19))
#loc77 = loc("tmp8"(#loc20))
#loc78 = loc("tmp11"(#loc21))
#loc79 = loc("tmp11"(#loc22))
#loc80 = loc("tmp11"(#loc23))
#loc81 = loc("tmp15"(#loc24))
#loc82 = loc("tmp15"(#loc25))
#loc83 = loc("tmp15"(#loc26))
#loc84 = loc("tmp28"(#loc27))
#loc85 = loc("tmp28"(#loc28))
#loc86 = loc("tmp3"(#loc29))
#loc87 = loc("tmp6"(#loc30))
#loc88 = loc("tmp7"(#loc31))
#loc89 = loc("tmp13"(#loc32))
#loc90 = loc("tmp14"(#loc33))
#loc91 = loc("tmp17"(#loc34))
#loc92 = loc("tmp18"(#loc35))
#loc93 = loc("tmp19"(#loc36))
#loc94 = loc("tmp22"(#loc37))
#loc96 = loc("tmp23"(#loc41))
#loc97 = loc("tmp24"(#loc42))
#loc98 = loc("tmp27"(#loc43))
#loc99 = loc("tmp29"(#loc44))
#loc100 = loc("tmp30"(#loc45))
#loc101 = loc(fused[#loc67, #loc66])
#loc102 = loc(fused[#loc69, #loc59])
#loc103 = loc(callsite(#loc38 at #loc95))
#loc105 = loc(callsite(#loc40 at #loc103))
