#loc = loc("/NHNHOME/WORKSPACE/26msit001_A/jinhyeok/loop_TTT/lact/.cache_inductor_llm/d6/cd6xavznwrcfvsrmleoj3leosv247gyh4ttoiiyfabfk3f5auylo.py":18:0)
#loc58 = loc("in_out_ptr0"(#loc))
#loc59 = loc("in_ptr0"(#loc))
#loc60 = loc("in_ptr1"(#loc))
#loc61 = loc("in_ptr2"(#loc))
#loc62 = loc("in_ptr3"(#loc))
#loc63 = loc("in_ptr4"(#loc))
#loc64 = loc("in_ptr5"(#loc))
#loc65 = loc("in_ptr6"(#loc))
#loc66 = loc("in_ptr7"(#loc))
#loc67 = loc("out_ptr0"(#loc))
#loc68 = loc("xnumel"(#loc))
module {
  tt.func public @triton_poi_fused__to_copy_add_div_eq_masked_fill_mul_transpose_22(%in_out_ptr0: !tt.ptr<f32> {tt.divisibility = 16 : i32} loc("in_out_ptr0"(#loc)), %in_ptr0: !tt.ptr<f32> {tt.divisibility = 16 : i32} loc("in_ptr0"(#loc)), %in_ptr1: !tt.ptr<bf16> {tt.divisibility = 16 : i32} loc("in_ptr1"(#loc)), %in_ptr2: !tt.ptr<f32> {tt.divisibility = 16 : i32} loc("in_ptr2"(#loc)), %in_ptr3: !tt.ptr<bf16> {tt.divisibility = 16 : i32} loc("in_ptr3"(#loc)), %in_ptr4: !tt.ptr<bf16> {tt.divisibility = 16 : i32} loc("in_ptr4"(#loc)), %in_ptr5: !tt.ptr<f32> {tt.divisibility = 16 : i32} loc("in_ptr5"(#loc)), %in_ptr6: !tt.ptr<f32> {tt.divisibility = 16 : i32} loc("in_ptr6"(#loc)), %in_ptr7: !tt.ptr<bf16> {tt.divisibility = 16 : i32} loc("in_ptr7"(#loc)), %out_ptr0: !tt.ptr<bf16> {tt.divisibility = 16 : i32} loc("out_ptr0"(#loc)), %xnumel: i32 {tt.divisibility = 16 : i32} loc("xnumel"(#loc))) attributes {noinline = false} {
    %xnumel_0 = arith.constant 1179648 : i32 loc(#loc69)
    %xoffset = tt.get_program_id x : i32 loc(#loc70)
    %xoffset_1 = arith.constant 1024 : i32 loc(#loc71)
    %xoffset_2 = arith.constant 1024 : i32 loc(#loc71)
    %xoffset_3 = arith.muli %xoffset, %xoffset_2 : i32 loc(#loc71)
    %xindex = tt.make_range {end = 1024 : i32, start = 0 : i32} : tensor<1024xi32> loc(#loc72)
    %xindex_4 = tt.splat %xoffset_3 : i32 -> tensor<1024xi32> loc(#loc73)
    %xindex_5 = arith.addi %xindex_4, %xindex : tensor<1024xi32> loc(#loc73)
    %xmask = arith.constant true loc(#loc74)
    %xmask_6 = arith.constant dense<true> : tensor<1024xi1> loc(#loc74)
    %x2 = arith.constant 36864 : i32 loc(#loc75)
    %x2_7 = arith.constant 36864 : i32 loc(#loc75)
    %x2_8 = arith.constant dense<36864> : tensor<1024xi32> loc(#loc75)
    %x2_9 = arith.divsi %xindex_5, %x2_8 : tensor<1024xi32> loc(#loc75)
    %x0 = arith.constant 192 : i32 loc(#loc76)
    %x0_10 = arith.constant 192 : i32 loc(#loc76)
    %x0_11 = arith.constant dense<192> : tensor<1024xi32> loc(#loc76)
    %x0_12 = arith.remsi %xindex_5, %x0_11 : tensor<1024xi32> loc(#loc76)
    %x1 = arith.constant 192 : i32 loc(#loc77)
    %x1_13 = arith.constant 192 : i32 loc(#loc77)
    %x1_14 = arith.constant dense<192> : tensor<1024xi32> loc(#loc77)
    %x1_15 = arith.divsi %xindex_5, %x1_14 : tensor<1024xi32> loc(#loc77)
    %x1_16 = arith.constant 192 : i32 loc(#loc78)
    %x1_17 = arith.constant 192 : i32 loc(#loc78)
    %x1_18 = arith.constant dense<192> : tensor<1024xi32> loc(#loc78)
    %x1_19 = arith.remsi %x1_15, %x1_18 : tensor<1024xi32> loc(#loc78)
    %tmp0 = tt.splat %in_out_ptr0 : !tt.ptr<f32> -> tensor<1024x!tt.ptr<f32>> loc(#loc79)
    %tmp0_20 = tt.addptr %tmp0, %xindex_5 : tensor<1024x!tt.ptr<f32>>, tensor<1024xi32> loc(#loc79)
    %tmp0_21 = tt.load %tmp0_20 : tensor<1024x!tt.ptr<f32>> loc(#loc80)
    %tmp1 = tt.splat %in_ptr0 : !tt.ptr<f32> -> tensor<1024x!tt.ptr<f32>> loc(#loc81)
    %tmp1_22 = tt.addptr %tmp1, %x2_9 : tensor<1024x!tt.ptr<f32>>, tensor<1024xi32> loc(#loc81)
    %tmp1_23 = tt.load %tmp1_22 evictionPolicy = evict_last : tensor<1024x!tt.ptr<f32>> loc(#loc82)
    %tmp3 = tt.splat %in_ptr1 : !tt.ptr<bf16> -> tensor<1024x!tt.ptr<bf16>> loc(#loc83)
    %tmp3_24 = tt.addptr %tmp3, %xindex_5 : tensor<1024x!tt.ptr<bf16>>, tensor<1024xi32> loc(#loc83)
    %tmp3_25 = tt.load %tmp3_24 : tensor<1024x!tt.ptr<bf16>> loc(#loc84)
    %tmp3_26 = arith.extf %tmp3_25 : tensor<1024xbf16> to tensor<1024xf32> loc(#loc85)
    %tmp5 = tt.splat %in_ptr2 : !tt.ptr<f32> -> tensor<1024x!tt.ptr<f32>> loc(#loc86)
    %tmp5_27 = tt.addptr %tmp5, %xindex_5 : tensor<1024x!tt.ptr<f32>>, tensor<1024xi32> loc(#loc86)
    %tmp5_28 = tt.load %tmp5_27 : tensor<1024x!tt.ptr<f32>> loc(#loc87)
    %tmp9 = tt.splat %in_ptr3 : !tt.ptr<bf16> -> tensor<1024x!tt.ptr<bf16>> loc(#loc88)
    %tmp9_29 = tt.addptr %tmp9, %xindex_5 : tensor<1024x!tt.ptr<bf16>>, tensor<1024xi32> loc(#loc88)
    %tmp9_30 = tt.load %tmp9_29 : tensor<1024x!tt.ptr<bf16>> loc(#loc89)
    %tmp9_31 = arith.extf %tmp9_30 : tensor<1024xbf16> to tensor<1024xf32> loc(#loc90)
    %tmp12 = arith.constant 192 : i32 loc(#loc91)
    %tmp12_32 = arith.constant 192 : i32 loc(#loc91)
    %tmp12_33 = arith.constant dense<192> : tensor<1024xi32> loc(#loc91)
    %tmp12_34 = arith.muli %tmp12_33, %x0_12 : tensor<1024xi32> loc(#loc91)
    %tmp12_35 = arith.addi %x1_19, %tmp12_34 : tensor<1024xi32> loc(#loc92)
    %tmp12_36 = arith.constant 36864 : i32 loc(#loc93)
    %tmp12_37 = arith.constant 36864 : i32 loc(#loc93)
    %tmp12_38 = arith.constant dense<36864> : tensor<1024xi32> loc(#loc93)
    %tmp12_39 = arith.muli %tmp12_38, %x2_9 : tensor<1024xi32> loc(#loc93)
    %tmp12_40 = arith.addi %tmp12_35, %tmp12_39 : tensor<1024xi32> loc(#loc94)
    %tmp12_41 = tt.splat %in_ptr4 : !tt.ptr<bf16> -> tensor<1024x!tt.ptr<bf16>> loc(#loc95)
    %tmp12_42 = tt.addptr %tmp12_41, %tmp12_40 : tensor<1024x!tt.ptr<bf16>>, tensor<1024xi32> loc(#loc95)
    %tmp12_43 = tt.load %tmp12_42 evictionPolicy = evict_last : tensor<1024x!tt.ptr<bf16>> loc(#loc96)
    %tmp12_44 = arith.extf %tmp12_43 : tensor<1024xbf16> to tensor<1024xf32> loc(#loc97)
    %tmp15 = tt.splat %in_ptr5 : !tt.ptr<f32> -> tensor<1024x!tt.ptr<f32>> loc(#loc98)
    %tmp15_45 = tt.addptr %tmp15, %x2_9 : tensor<1024x!tt.ptr<f32>>, tensor<1024xi32> loc(#loc98)
    %tmp15_46 = tt.load %tmp15_45 evictionPolicy = evict_last : tensor<1024x!tt.ptr<f32>> loc(#loc99)
    %tmp20 = tt.splat %in_ptr6 : !tt.ptr<f32> -> tensor<1024x!tt.ptr<f32>> loc(#loc100)
    %tmp20_47 = tt.addptr %tmp20, %x2_9 : tensor<1024x!tt.ptr<f32>>, tensor<1024xi32> loc(#loc100)
    %tmp20_48 = tt.load %tmp20_47 evictionPolicy = evict_last : tensor<1024x!tt.ptr<f32>> loc(#loc101)
    %tmp23 = tt.splat %in_ptr7 : !tt.ptr<bf16> -> tensor<1024x!tt.ptr<bf16>> loc(#loc102)
    %tmp23_49 = tt.addptr %tmp23, %xindex_5 : tensor<1024x!tt.ptr<bf16>>, tensor<1024xi32> loc(#loc102)
    %tmp23_50 = tt.load %tmp23_49 : tensor<1024x!tt.ptr<bf16>> loc(#loc103)
    %tmp23_51 = arith.extf %tmp23_50 : tensor<1024xbf16> to tensor<1024xf32> loc(#loc104)
    %tmp2 = arith.mulf %tmp0_21, %tmp1_23 : tensor<1024xf32> loc(#loc105)
    %tmp6 = arith.constant 4.084800e+00 : f32 loc(#loc106)
    %tmp7 = arith.constant dense<4.084800e+00> : tensor<1024xf32> loc(#loc107)
    %tmp7_52 = arith.mulf %tmp5_28, %tmp7 : tensor<1024xf32> loc(#loc107)
    %tmp8 = arith.addf %tmp3_26, %tmp7_52 : tensor<1024xf32> loc(#loc108)
    %tmp11 = arith.addf %tmp8, %tmp9_31 : tensor<1024xf32> loc(#loc109)
    %tmp14 = arith.addf %tmp11, %tmp12_44 : tensor<1024xf32> loc(#loc110)
    %tmp16 = arith.constant 1.000000e-07 : f32 loc(#loc111)
    %tmp17 = arith.constant dense<1.000000e-07> : tensor<1024xf32> loc(#loc112)
    %tmp17_53 = arith.addf %tmp15_46, %tmp17 : tensor<1024xf32> loc(#loc112)
    %tmp18 = arith.divf %tmp14, %tmp17_53 : tensor<1024xf32> loc(#loc113)
    %tmp21 = arith.constant 0.000000e+00 : f32 loc(#loc114)
    %tmp22 = arith.constant dense<0.000000e+00> : tensor<1024xf32> loc(#loc115)
    %tmp22_54 = arith.cmpf oeq, %tmp15_46, %tmp22 : tensor<1024xf32> loc(#loc115)
    %tmp25 = arith.divf %tmp23_51, %tmp15_46 : tensor<1024xf32> loc(#loc116)
    %tmp26 = arith.constant dense<0.000000e+00> : tensor<1024xf32> loc(#loc117)
    %tmp26_55 = arith.select %tmp22_54, %tmp26, %tmp25 : tensor<1024xi1>, tensor<1024xf32> loc(#loc117)
    %tmp27 = arith.mulf %tmp20_48, %tmp26_55 : tensor<1024xf32> loc(#loc118)
    %tmp29 = arith.addf %tmp18, %tmp27 : tensor<1024xf32> loc(#loc119)
    %tmp31 = arith.addf %tmp2, %tmp29 : tensor<1024xf32> loc(#loc120)
    %0 = tt.splat %in_out_ptr0 : !tt.ptr<f32> -> tensor<1024x!tt.ptr<f32>> loc(#loc53)
    %1 = tt.addptr %0, %xindex_5 : tensor<1024x!tt.ptr<f32>>, tensor<1024xi32> loc(#loc53)
    tt.store %1, %tmp31 : tensor<1024x!tt.ptr<f32>> loc(#loc54)
    %2 = tt.splat %out_ptr0 : !tt.ptr<bf16> -> tensor<1024x!tt.ptr<bf16>> loc(#loc55)
    %3 = tt.addptr %2, %xindex_5 : tensor<1024x!tt.ptr<bf16>>, tensor<1024xi32> loc(#loc55)
    %4 = arith.truncf %tmp31 : tensor<1024xf32> to tensor<1024xbf16> loc(#loc56)
    tt.store %3, %4 : tensor<1024x!tt.ptr<bf16>> loc(#loc56)
    tt.return loc(#loc57)
  } loc(#loc)
} loc(#loc)
#loc1 = loc("/NHNHOME/WORKSPACE/26msit001_A/jinhyeok/loop_TTT/lact/.cache_inductor_llm/d6/cd6xavznwrcfvsrmleoj3leosv247gyh4ttoiiyfabfk3f5auylo.py":19:13)
#loc2 = loc("/NHNHOME/WORKSPACE/26msit001_A/jinhyeok/loop_TTT/lact/.cache_inductor_llm/d6/cd6xavznwrcfvsrmleoj3leosv247gyh4ttoiiyfabfk3f5auylo.py":20:28)
#loc3 = loc("/NHNHOME/WORKSPACE/26msit001_A/jinhyeok/loop_TTT/lact/.cache_inductor_llm/d6/cd6xavznwrcfvsrmleoj3leosv247gyh4ttoiiyfabfk3f5auylo.py":20:33)
#loc4 = loc("/NHNHOME/WORKSPACE/26msit001_A/jinhyeok/loop_TTT/lact/.cache_inductor_llm/d6/cd6xavznwrcfvsrmleoj3leosv247gyh4ttoiiyfabfk3f5auylo.py":21:36)
#loc5 = loc("/NHNHOME/WORKSPACE/26msit001_A/jinhyeok/loop_TTT/lact/.cache_inductor_llm/d6/cd6xavznwrcfvsrmleoj3leosv247gyh4ttoiiyfabfk3f5auylo.py":21:23)
#loc6 = loc("/NHNHOME/WORKSPACE/26msit001_A/jinhyeok/loop_TTT/lact/.cache_inductor_llm/d6/cd6xavznwrcfvsrmleoj3leosv247gyh4ttoiiyfabfk3f5auylo.py":22:36)
#loc7 = loc("/NHNHOME/WORKSPACE/26msit001_A/jinhyeok/loop_TTT/lact/.cache_inductor_llm/d6/cd6xavznwrcfvsrmleoj3leosv247gyh4ttoiiyfabfk3f5auylo.py":24:19)
#loc8 = loc("/NHNHOME/WORKSPACE/26msit001_A/jinhyeok/loop_TTT/lact/.cache_inductor_llm/d6/cd6xavznwrcfvsrmleoj3leosv247gyh4ttoiiyfabfk3f5auylo.py":25:19)
#loc9 = loc("/NHNHOME/WORKSPACE/26msit001_A/jinhyeok/loop_TTT/lact/.cache_inductor_llm/d6/cd6xavznwrcfvsrmleoj3leosv247gyh4ttoiiyfabfk3f5auylo.py":26:21)
#loc10 = loc("/NHNHOME/WORKSPACE/26msit001_A/jinhyeok/loop_TTT/lact/.cache_inductor_llm/d6/cd6xavznwrcfvsrmleoj3leosv247gyh4ttoiiyfabfk3f5auylo.py":26:28)
#loc11 = loc("/NHNHOME/WORKSPACE/26msit001_A/jinhyeok/loop_TTT/lact/.cache_inductor_llm/d6/cd6xavznwrcfvsrmleoj3leosv247gyh4ttoiiyfabfk3f5auylo.py":27:34)
#loc12 = loc("/NHNHOME/WORKSPACE/26msit001_A/jinhyeok/loop_TTT/lact/.cache_inductor_llm/d6/cd6xavznwrcfvsrmleoj3leosv247gyh4ttoiiyfabfk3f5auylo.py":27:39)
#loc13 = loc("/NHNHOME/WORKSPACE/26msit001_A/jinhyeok/loop_TTT/lact/.cache_inductor_llm/d6/cd6xavznwrcfvsrmleoj3leosv247gyh4ttoiiyfabfk3f5auylo.py":28:30)
#loc14 = loc("/NHNHOME/WORKSPACE/26msit001_A/jinhyeok/loop_TTT/lact/.cache_inductor_llm/d6/cd6xavznwrcfvsrmleoj3leosv247gyh4ttoiiyfabfk3f5auylo.py":28:35)
#loc15 = loc("/NHNHOME/WORKSPACE/26msit001_A/jinhyeok/loop_TTT/lact/.cache_inductor_llm/d6/cd6xavznwrcfvsrmleoj3leosv247gyh4ttoiiyfabfk3f5auylo.py":29:30)
#loc16 = loc("/NHNHOME/WORKSPACE/26msit001_A/jinhyeok/loop_TTT/lact/.cache_inductor_llm/d6/cd6xavznwrcfvsrmleoj3leosv247gyh4ttoiiyfabfk3f5auylo.py":29:35)
#loc17 = loc("/NHNHOME/WORKSPACE/26msit001_A/jinhyeok/loop_TTT/lact/.cache_inductor_llm/d6/cd6xavznwrcfvsrmleoj3leosv247gyh4ttoiiyfabfk3f5auylo.py":29:44)
#loc18 = loc("/NHNHOME/WORKSPACE/26msit001_A/jinhyeok/loop_TTT/lact/.cache_inductor_llm/d6/cd6xavznwrcfvsrmleoj3leosv247gyh4ttoiiyfabfk3f5auylo.py":30:30)
#loc19 = loc("/NHNHOME/WORKSPACE/26msit001_A/jinhyeok/loop_TTT/lact/.cache_inductor_llm/d6/cd6xavznwrcfvsrmleoj3leosv247gyh4ttoiiyfabfk3f5auylo.py":30:35)
#loc20 = loc("/NHNHOME/WORKSPACE/26msit001_A/jinhyeok/loop_TTT/lact/.cache_inductor_llm/d6/cd6xavznwrcfvsrmleoj3leosv247gyh4ttoiiyfabfk3f5auylo.py":31:30)
#loc21 = loc("/NHNHOME/WORKSPACE/26msit001_A/jinhyeok/loop_TTT/lact/.cache_inductor_llm/d6/cd6xavznwrcfvsrmleoj3leosv247gyh4ttoiiyfabfk3f5auylo.py":31:35)
#loc22 = loc("/NHNHOME/WORKSPACE/26msit001_A/jinhyeok/loop_TTT/lact/.cache_inductor_llm/d6/cd6xavznwrcfvsrmleoj3leosv247gyh4ttoiiyfabfk3f5auylo.py":31:44)
#loc23 = loc("/NHNHOME/WORKSPACE/26msit001_A/jinhyeok/loop_TTT/lact/.cache_inductor_llm/d6/cd6xavznwrcfvsrmleoj3leosv247gyh4ttoiiyfabfk3f5auylo.py":32:40)
#loc24 = loc("/NHNHOME/WORKSPACE/26msit001_A/jinhyeok/loop_TTT/lact/.cache_inductor_llm/d6/cd6xavznwrcfvsrmleoj3leosv247gyh4ttoiiyfabfk3f5auylo.py":32:36)
#loc25 = loc("/NHNHOME/WORKSPACE/26msit001_A/jinhyeok/loop_TTT/lact/.cache_inductor_llm/d6/cd6xavznwrcfvsrmleoj3leosv247gyh4ttoiiyfabfk3f5auylo.py":32:51)
#loc26 = loc("/NHNHOME/WORKSPACE/26msit001_A/jinhyeok/loop_TTT/lact/.cache_inductor_llm/d6/cd6xavznwrcfvsrmleoj3leosv247gyh4ttoiiyfabfk3f5auylo.py":32:45)
#loc27 = loc("/NHNHOME/WORKSPACE/26msit001_A/jinhyeok/loop_TTT/lact/.cache_inductor_llm/d6/cd6xavznwrcfvsrmleoj3leosv247gyh4ttoiiyfabfk3f5auylo.py":32:31)
#loc28 = loc("/NHNHOME/WORKSPACE/26msit001_A/jinhyeok/loop_TTT/lact/.cache_inductor_llm/d6/cd6xavznwrcfvsrmleoj3leosv247gyh4ttoiiyfabfk3f5auylo.py":32:56)
#loc29 = loc("/NHNHOME/WORKSPACE/26msit001_A/jinhyeok/loop_TTT/lact/.cache_inductor_llm/d6/cd6xavznwrcfvsrmleoj3leosv247gyh4ttoiiyfabfk3f5auylo.py":32:95)
#loc30 = loc("/NHNHOME/WORKSPACE/26msit001_A/jinhyeok/loop_TTT/lact/.cache_inductor_llm/d6/cd6xavznwrcfvsrmleoj3leosv247gyh4ttoiiyfabfk3f5auylo.py":33:31)
#loc31 = loc("/NHNHOME/WORKSPACE/26msit001_A/jinhyeok/loop_TTT/lact/.cache_inductor_llm/d6/cd6xavznwrcfvsrmleoj3leosv247gyh4ttoiiyfabfk3f5auylo.py":33:36)
#loc32 = loc("/NHNHOME/WORKSPACE/26msit001_A/jinhyeok/loop_TTT/lact/.cache_inductor_llm/d6/cd6xavznwrcfvsrmleoj3leosv247gyh4ttoiiyfabfk3f5auylo.py":34:31)
#loc33 = loc("/NHNHOME/WORKSPACE/26msit001_A/jinhyeok/loop_TTT/lact/.cache_inductor_llm/d6/cd6xavznwrcfvsrmleoj3leosv247gyh4ttoiiyfabfk3f5auylo.py":34:36)
#loc34 = loc("/NHNHOME/WORKSPACE/26msit001_A/jinhyeok/loop_TTT/lact/.cache_inductor_llm/d6/cd6xavznwrcfvsrmleoj3leosv247gyh4ttoiiyfabfk3f5auylo.py":35:31)
#loc35 = loc("/NHNHOME/WORKSPACE/26msit001_A/jinhyeok/loop_TTT/lact/.cache_inductor_llm/d6/cd6xavznwrcfvsrmleoj3leosv247gyh4ttoiiyfabfk3f5auylo.py":35:36)
#loc36 = loc("/NHNHOME/WORKSPACE/26msit001_A/jinhyeok/loop_TTT/lact/.cache_inductor_llm/d6/cd6xavznwrcfvsrmleoj3leosv247gyh4ttoiiyfabfk3f5auylo.py":35:45)
#loc37 = loc("/NHNHOME/WORKSPACE/26msit001_A/jinhyeok/loop_TTT/lact/.cache_inductor_llm/d6/cd6xavznwrcfvsrmleoj3leosv247gyh4ttoiiyfabfk3f5auylo.py":36:18)
#loc38 = loc("/NHNHOME/WORKSPACE/26msit001_A/jinhyeok/loop_TTT/lact/.cache_inductor_llm/d6/cd6xavznwrcfvsrmleoj3leosv247gyh4ttoiiyfabfk3f5auylo.py":38:11)
#loc39 = loc("/NHNHOME/WORKSPACE/26msit001_A/jinhyeok/loop_TTT/lact/.cache_inductor_llm/d6/cd6xavznwrcfvsrmleoj3leosv247gyh4ttoiiyfabfk3f5auylo.py":39:18)
#loc40 = loc("/NHNHOME/WORKSPACE/26msit001_A/jinhyeok/loop_TTT/lact/.cache_inductor_llm/d6/cd6xavznwrcfvsrmleoj3leosv247gyh4ttoiiyfabfk3f5auylo.py":40:18)
#loc41 = loc("/NHNHOME/WORKSPACE/26msit001_A/jinhyeok/loop_TTT/lact/.cache_inductor_llm/d6/cd6xavznwrcfvsrmleoj3leosv247gyh4ttoiiyfabfk3f5auylo.py":42:19)
#loc42 = loc("/NHNHOME/WORKSPACE/26msit001_A/jinhyeok/loop_TTT/lact/.cache_inductor_llm/d6/cd6xavznwrcfvsrmleoj3leosv247gyh4ttoiiyfabfk3f5auylo.py":44:20)
#loc43 = loc("/NHNHOME/WORKSPACE/26msit001_A/jinhyeok/loop_TTT/lact/.cache_inductor_llm/d6/cd6xavznwrcfvsrmleoj3leosv247gyh4ttoiiyfabfk3f5auylo.py":45:12)
#loc44 = loc("/NHNHOME/WORKSPACE/26msit001_A/jinhyeok/loop_TTT/lact/.cache_inductor_llm/d6/cd6xavznwrcfvsrmleoj3leosv247gyh4ttoiiyfabfk3f5auylo.py":46:20)
#loc45 = loc("/NHNHOME/WORKSPACE/26msit001_A/jinhyeok/loop_TTT/lact/.cache_inductor_llm/d6/cd6xavznwrcfvsrmleoj3leosv247gyh4ttoiiyfabfk3f5auylo.py":47:21)
#loc46 = loc("/NHNHOME/WORKSPACE/26msit001_A/jinhyeok/loop_TTT/lact/.cache_inductor_llm/d6/cd6xavznwrcfvsrmleoj3leosv247gyh4ttoiiyfabfk3f5auylo.py":49:12)
#loc47 = loc("/NHNHOME/WORKSPACE/26msit001_A/jinhyeok/loop_TTT/lact/.cache_inductor_llm/d6/cd6xavznwrcfvsrmleoj3leosv247gyh4ttoiiyfabfk3f5auylo.py":50:21)
#loc48 = loc("/NHNHOME/WORKSPACE/26msit001_A/jinhyeok/loop_TTT/lact/.cache_inductor_llm/d6/cd6xavznwrcfvsrmleoj3leosv247gyh4ttoiiyfabfk3f5auylo.py":52:21)
#loc49 = loc("/NHNHOME/WORKSPACE/26msit001_A/jinhyeok/loop_TTT/lact/.cache_inductor_llm/d6/cd6xavznwrcfvsrmleoj3leosv247gyh4ttoiiyfabfk3f5auylo.py":53:35)
#loc50 = loc("/NHNHOME/WORKSPACE/26msit001_A/jinhyeok/loop_TTT/lact/.cache_inductor_llm/d6/cd6xavznwrcfvsrmleoj3leosv247gyh4ttoiiyfabfk3f5auylo.py":54:20)
#loc51 = loc("/NHNHOME/WORKSPACE/26msit001_A/jinhyeok/loop_TTT/lact/.cache_inductor_llm/d6/cd6xavznwrcfvsrmleoj3leosv247gyh4ttoiiyfabfk3f5auylo.py":56:20)
#loc52 = loc("/NHNHOME/WORKSPACE/26msit001_A/jinhyeok/loop_TTT/lact/.cache_inductor_llm/d6/cd6xavznwrcfvsrmleoj3leosv247gyh4ttoiiyfabfk3f5auylo.py":58:19)
#loc53 = loc("/NHNHOME/WORKSPACE/26msit001_A/jinhyeok/loop_TTT/lact/.cache_inductor_llm/d6/cd6xavznwrcfvsrmleoj3leosv247gyh4ttoiiyfabfk3f5auylo.py":60:28)
#loc54 = loc("/NHNHOME/WORKSPACE/26msit001_A/jinhyeok/loop_TTT/lact/.cache_inductor_llm/d6/cd6xavznwrcfvsrmleoj3leosv247gyh4ttoiiyfabfk3f5auylo.py":60:40)
#loc55 = loc("/NHNHOME/WORKSPACE/26msit001_A/jinhyeok/loop_TTT/lact/.cache_inductor_llm/d6/cd6xavznwrcfvsrmleoj3leosv247gyh4ttoiiyfabfk3f5auylo.py":61:25)
#loc56 = loc("/NHNHOME/WORKSPACE/26msit001_A/jinhyeok/loop_TTT/lact/.cache_inductor_llm/d6/cd6xavznwrcfvsrmleoj3leosv247gyh4ttoiiyfabfk3f5auylo.py":61:37)
#loc57 = loc("/NHNHOME/WORKSPACE/26msit001_A/jinhyeok/loop_TTT/lact/.cache_inductor_llm/d6/cd6xavznwrcfvsrmleoj3leosv247gyh4ttoiiyfabfk3f5auylo.py":61:4)
#loc69 = loc("xnumel"(#loc1))
#loc70 = loc("xoffset"(#loc2))
#loc71 = loc("xoffset"(#loc3))
#loc72 = loc("xindex"(#loc4))
#loc73 = loc("xindex"(#loc5))
#loc74 = loc("xmask"(#loc6))
#loc75 = loc("x2"(#loc7))
#loc76 = loc("x0"(#loc8))
#loc77 = loc("x1"(#loc9))
#loc78 = loc("x1"(#loc10))
#loc79 = loc("tmp0"(#loc11))
#loc80 = loc("tmp0"(#loc12))
#loc81 = loc("tmp1"(#loc13))
#loc82 = loc("tmp1"(#loc14))
#loc83 = loc("tmp3"(#loc15))
#loc84 = loc("tmp3"(#loc16))
#loc85 = loc("tmp3"(#loc17))
#loc86 = loc("tmp5"(#loc18))
#loc87 = loc("tmp5"(#loc19))
#loc88 = loc("tmp9"(#loc20))
#loc89 = loc("tmp9"(#loc21))
#loc90 = loc("tmp9"(#loc22))
#loc91 = loc("tmp12"(#loc23))
#loc92 = loc("tmp12"(#loc24))
#loc93 = loc("tmp12"(#loc25))
#loc94 = loc("tmp12"(#loc26))
#loc95 = loc("tmp12"(#loc27))
#loc96 = loc("tmp12"(#loc28))
#loc97 = loc("tmp12"(#loc29))
#loc98 = loc("tmp15"(#loc30))
#loc99 = loc("tmp15"(#loc31))
#loc100 = loc("tmp20"(#loc32))
#loc101 = loc("tmp20"(#loc33))
#loc102 = loc("tmp23"(#loc34))
#loc103 = loc("tmp23"(#loc35))
#loc104 = loc("tmp23"(#loc36))
#loc105 = loc("tmp2"(#loc37))
#loc106 = loc("tmp6"(#loc38))
#loc107 = loc("tmp7"(#loc39))
#loc108 = loc("tmp8"(#loc40))
#loc109 = loc("tmp11"(#loc41))
#loc110 = loc("tmp14"(#loc42))
#loc111 = loc("tmp16"(#loc43))
#loc112 = loc("tmp17"(#loc44))
#loc113 = loc("tmp18"(#loc45))
#loc114 = loc("tmp21"(#loc46))
#loc115 = loc("tmp22"(#loc47))
#loc116 = loc("tmp25"(#loc48))
#loc117 = loc("tmp26"(#loc49))
#loc118 = loc("tmp27"(#loc50))
#loc119 = loc("tmp29"(#loc51))
#loc120 = loc("tmp31"(#loc52))
