#loc = loc("/NHNHOME/WORKSPACE/26msit001_A/jinhyeok/loop_TTT/lact/.cache_inductor_llm/u2/cu2djg5mdze573ds4zdio2s23odwdahfenunkudxmm6c564bbagv.py":18:0)
#loc50 = loc("in_ptr0"(#loc))
#loc51 = loc("in_ptr1"(#loc))
#loc52 = loc("in_ptr2"(#loc))
#loc53 = loc("in_ptr3"(#loc))
#loc54 = loc("out_ptr0"(#loc))
#loc55 = loc("xnumel"(#loc))
module {
  tt.func public @triton_poi_fused_copy_slice_zeros_like_58(%in_ptr0: !tt.ptr<bf16> {tt.divisibility = 16 : i32} loc("in_ptr0"(#loc)), %in_ptr1: !tt.ptr<bf16> {tt.divisibility = 16 : i32} loc("in_ptr1"(#loc)), %in_ptr2: !tt.ptr<bf16> {tt.divisibility = 16 : i32} loc("in_ptr2"(#loc)), %in_ptr3: !tt.ptr<bf16> {tt.divisibility = 16 : i32} loc("in_ptr3"(#loc)), %out_ptr0: !tt.ptr<bf16> {tt.divisibility = 16 : i32} loc("out_ptr0"(#loc)), %xnumel: i32 {tt.divisibility = 16 : i32} loc("xnumel"(#loc))) attributes {noinline = false} {
    %xoffset = tt.get_program_id x : i32 loc(#loc56)
    %xoffset_0 = arith.constant 512 : i32 loc(#loc57)
    %xoffset_1 = arith.constant 512 : i32 loc(#loc57)
    %xoffset_2 = arith.muli %xoffset, %xoffset_1 : i32 loc(#loc57)
    %xindex = tt.make_range {end = 512 : i32, start = 0 : i32} : tensor<512xi32> loc(#loc58)
    %xindex_3 = tt.splat %xoffset_2 : i32 -> tensor<512xi32> loc(#loc59)
    %xindex_4 = arith.addi %xindex_3, %xindex : tensor<512xi32> loc(#loc59)
    %xmask = arith.constant true loc(#loc60)
    %xmask_5 = arith.constant dense<true> : tensor<512xi1> loc(#loc60)
    %x0 = arith.constant 4096 : i32 loc(#loc61)
    %x0_6 = arith.constant 4096 : i32 loc(#loc61)
    %x0_7 = arith.constant dense<4096> : tensor<512xi32> loc(#loc61)
    %x0_8 = arith.remsi %xindex_4, %x0_7 : tensor<512xi32> loc(#loc61)
    %x1 = arith.constant 4096 : i32 loc(#loc62)
    %x1_9 = arith.constant 4096 : i32 loc(#loc62)
    %x1_10 = arith.constant dense<4096> : tensor<512xi32> loc(#loc62)
    %x1_11 = arith.divsi %xindex_4, %x1_10 : tensor<512xi32> loc(#loc62)
    %tmp1 = arith.constant 3072 : i64 loc(#loc63)
    %tmp1_12 = arith.constant dense<3072> : tensor<1xi64> loc(#loc63)
    %tmp2 = arith.extsi %x0_8 : tensor<512xi32> to tensor<512xi64> loc(#loc64)
    %tmp2_13 = arith.constant dense<3072> : tensor<512xi64> loc(#loc64)
    %tmp2_14 = arith.cmpi sge, %tmp2, %tmp2_13 : tensor<512xi64> loc(#loc64)
    %tmp3 = arith.constant -3072 : i32 loc(#loc65)
    %tmp3_15 = arith.constant -3072 : i32 loc(#loc65)
    %tmp3_16 = arith.constant dense<-3072> : tensor<512xi32> loc(#loc65)
    %tmp3_17 = arith.addi %tmp3_16, %x0_8 : tensor<512xi32> loc(#loc65)
    %tmp3_18 = arith.constant 1024 : i32 loc(#loc66)
    %tmp3_19 = arith.constant 1024 : i32 loc(#loc66)
    %tmp3_20 = arith.constant dense<1024> : tensor<512xi32> loc(#loc66)
    %tmp3_21 = arith.muli %tmp3_20, %x1_11 : tensor<512xi32> loc(#loc66)
    %tmp3_22 = arith.addi %tmp3_17, %tmp3_21 : tensor<512xi32> loc(#loc67)
    %tmp3_23 = tt.splat %in_ptr0 : !tt.ptr<bf16> -> tensor<512x!tt.ptr<bf16>> loc(#loc68)
    %tmp3_24 = tt.addptr %tmp3_23, %tmp3_22 : tensor<512x!tt.ptr<bf16>>, tensor<512xi32> loc(#loc68)
    %tmp3_25 = arith.constant 0.000000e+00 : f32 loc(#loc69)
    %tmp3_26 = arith.constant dense<0.000000e+00> : tensor<512xf32> loc(#loc69)
    %tmp3_27 = arith.truncf %tmp3_26 : tensor<512xf32> to tensor<512xbf16> loc(#loc69)
    %tmp3_28 = tt.load %tmp3_24, %tmp2_14, %tmp3_27 : tensor<512x!tt.ptr<bf16>> loc(#loc69)
    %tmp3_29 = arith.extf %tmp3_28 : tensor<512xbf16> to tensor<512xf32> loc(#loc70)
    %tmp4 = arith.constant 2048 : i64 loc(#loc71)
    %tmp4_30 = arith.constant dense<2048> : tensor<1xi64> loc(#loc71)
    %tmp5 = arith.extsi %x0_8 : tensor<512xi32> to tensor<512xi64> loc(#loc72)
    %tmp5_31 = arith.constant dense<2048> : tensor<512xi64> loc(#loc72)
    %tmp5_32 = arith.cmpi sge, %tmp5, %tmp5_31 : tensor<512xi64> loc(#loc72)
    %tmp6 = arith.extsi %x0_8 : tensor<512xi32> to tensor<512xi64> loc(#loc73)
    %tmp6_33 = arith.constant dense<3072> : tensor<512xi64> loc(#loc73)
    %tmp6_34 = arith.cmpi slt, %tmp6, %tmp6_33 : tensor<512xi64> loc(#loc73)
    %tmp7 = arith.andi %tmp5_32, %tmp6_34 : tensor<512xi1> loc(#loc74)
    %tmp8 = arith.constant -2048 : i32 loc(#loc75)
    %tmp8_35 = arith.constant -2048 : i32 loc(#loc75)
    %tmp8_36 = arith.constant dense<-2048> : tensor<512xi32> loc(#loc75)
    %tmp8_37 = arith.addi %tmp8_36, %x0_8 : tensor<512xi32> loc(#loc75)
    %tmp8_38 = arith.constant 1024 : i32 loc(#loc76)
    %tmp8_39 = arith.constant 1024 : i32 loc(#loc76)
    %tmp8_40 = arith.constant dense<1024> : tensor<512xi32> loc(#loc76)
    %tmp8_41 = arith.muli %tmp8_40, %x1_11 : tensor<512xi32> loc(#loc76)
    %tmp8_42 = arith.addi %tmp8_37, %tmp8_41 : tensor<512xi32> loc(#loc77)
    %tmp8_43 = tt.splat %in_ptr1 : !tt.ptr<bf16> -> tensor<512x!tt.ptr<bf16>> loc(#loc78)
    %tmp8_44 = tt.addptr %tmp8_43, %tmp8_42 : tensor<512x!tt.ptr<bf16>>, tensor<512xi32> loc(#loc78)
    %tmp8_45 = arith.constant 0.000000e+00 : f32 loc(#loc79)
    %tmp8_46 = arith.constant dense<0.000000e+00> : tensor<512xf32> loc(#loc79)
    %tmp8_47 = arith.truncf %tmp8_46 : tensor<512xf32> to tensor<512xbf16> loc(#loc79)
    %tmp8_48 = tt.load %tmp8_44, %tmp7, %tmp8_47 : tensor<512x!tt.ptr<bf16>> loc(#loc79)
    %tmp8_49 = arith.extf %tmp8_48 : tensor<512xbf16> to tensor<512xf32> loc(#loc80)
    %tmp9 = arith.constant 1024 : i64 loc(#loc81)
    %tmp9_50 = arith.constant dense<1024> : tensor<1xi64> loc(#loc81)
    %tmp10 = arith.extsi %x0_8 : tensor<512xi32> to tensor<512xi64> loc(#loc82)
    %tmp10_51 = arith.constant dense<1024> : tensor<512xi64> loc(#loc82)
    %tmp10_52 = arith.cmpi sge, %tmp10, %tmp10_51 : tensor<512xi64> loc(#loc82)
    %tmp11 = arith.extsi %x0_8 : tensor<512xi32> to tensor<512xi64> loc(#loc83)
    %tmp11_53 = arith.constant dense<2048> : tensor<512xi64> loc(#loc83)
    %tmp11_54 = arith.cmpi slt, %tmp11, %tmp11_53 : tensor<512xi64> loc(#loc83)
    %tmp12 = arith.andi %tmp10_52, %tmp11_54 : tensor<512xi1> loc(#loc84)
    %tmp13 = arith.constant -1024 : i32 loc(#loc85)
    %tmp13_55 = arith.constant -1024 : i32 loc(#loc85)
    %tmp13_56 = arith.constant dense<-1024> : tensor<512xi32> loc(#loc85)
    %tmp13_57 = arith.addi %tmp13_56, %x0_8 : tensor<512xi32> loc(#loc85)
    %tmp13_58 = arith.constant 1024 : i32 loc(#loc86)
    %tmp13_59 = arith.constant 1024 : i32 loc(#loc86)
    %tmp13_60 = arith.constant dense<1024> : tensor<512xi32> loc(#loc86)
    %tmp13_61 = arith.muli %tmp13_60, %x1_11 : tensor<512xi32> loc(#loc86)
    %tmp13_62 = arith.addi %tmp13_57, %tmp13_61 : tensor<512xi32> loc(#loc87)
    %tmp13_63 = tt.splat %in_ptr2 : !tt.ptr<bf16> -> tensor<512x!tt.ptr<bf16>> loc(#loc88)
    %tmp13_64 = tt.addptr %tmp13_63, %tmp13_62 : tensor<512x!tt.ptr<bf16>>, tensor<512xi32> loc(#loc88)
    %tmp13_65 = arith.constant 0.000000e+00 : f32 loc(#loc89)
    %tmp13_66 = arith.constant dense<0.000000e+00> : tensor<512xf32> loc(#loc89)
    %tmp13_67 = arith.truncf %tmp13_66 : tensor<512xf32> to tensor<512xbf16> loc(#loc89)
    %tmp13_68 = tt.load %tmp13_64, %tmp12, %tmp13_67 : tensor<512x!tt.ptr<bf16>> loc(#loc89)
    %tmp13_69 = arith.extf %tmp13_68 : tensor<512xbf16> to tensor<512xf32> loc(#loc90)
    %tmp14 = arith.extsi %x0_8 : tensor<512xi32> to tensor<512xi64> loc(#loc91)
    %tmp14_70 = arith.constant dense<1024> : tensor<512xi64> loc(#loc91)
    %tmp14_71 = arith.cmpi slt, %tmp14, %tmp14_70 : tensor<512xi64> loc(#loc91)
    %tmp15 = arith.constant 1024 : i32 loc(#loc92)
    %tmp15_72 = arith.constant 1024 : i32 loc(#loc92)
    %tmp15_73 = arith.constant dense<1024> : tensor<512xi32> loc(#loc92)
    %tmp15_74 = arith.muli %tmp15_73, %x1_11 : tensor<512xi32> loc(#loc92)
    %tmp15_75 = arith.addi %x0_8, %tmp15_74 : tensor<512xi32> loc(#loc93)
    %tmp15_76 = tt.splat %in_ptr3 : !tt.ptr<bf16> -> tensor<512x!tt.ptr<bf16>> loc(#loc94)
    %tmp15_77 = tt.addptr %tmp15_76, %tmp15_75 : tensor<512x!tt.ptr<bf16>>, tensor<512xi32> loc(#loc94)
    %tmp15_78 = arith.constant 0.000000e+00 : f32 loc(#loc95)
    %tmp15_79 = arith.constant dense<0.000000e+00> : tensor<512xf32> loc(#loc95)
    %tmp15_80 = arith.truncf %tmp15_79 : tensor<512xf32> to tensor<512xbf16> loc(#loc95)
    %tmp15_81 = tt.load %tmp15_77, %tmp14_71, %tmp15_80 : tensor<512x!tt.ptr<bf16>> loc(#loc95)
    %tmp15_82 = arith.extf %tmp15_81 : tensor<512xbf16> to tensor<512xf32> loc(#loc96)
    %tmp16 = arith.constant 0.000000e+00 : f32 loc(#loc97)
    %tmp17 = arith.constant dense<0.000000e+00> : tensor<512xf32> loc(#loc98)
    %tmp17_83 = arith.select %tmp14_71, %tmp15_82, %tmp17 : tensor<512xi1>, tensor<512xf32> loc(#loc98)
    %tmp18 = arith.select %tmp12, %tmp13_69, %tmp17_83 : tensor<512xi1>, tensor<512xf32> loc(#loc99)
    %tmp19 = arith.select %tmp7, %tmp8_49, %tmp18 : tensor<512xi1>, tensor<512xf32> loc(#loc100)
    %tmp20 = arith.select %tmp2_14, %tmp3_29, %tmp19 : tensor<512xi1>, tensor<512xf32> loc(#loc101)
    %0 = tt.splat %out_ptr0 : !tt.ptr<bf16> -> tensor<512x!tt.ptr<bf16>> loc(#loc47)
    %1 = tt.addptr %0, %xindex_4 : tensor<512x!tt.ptr<bf16>>, tensor<512xi32> loc(#loc47)
    %2 = arith.truncf %tmp20 : tensor<512xf32> to tensor<512xbf16> loc(#loc48)
    tt.store %1, %2 : tensor<512x!tt.ptr<bf16>> loc(#loc48)
    tt.return loc(#loc49)
  } loc(#loc)
} loc(#loc)
#loc1 = loc("/NHNHOME/WORKSPACE/26msit001_A/jinhyeok/loop_TTT/lact/.cache_inductor_llm/u2/cu2djg5mdze573ds4zdio2s23odwdahfenunkudxmm6c564bbagv.py":19:28)
#loc2 = loc("/NHNHOME/WORKSPACE/26msit001_A/jinhyeok/loop_TTT/lact/.cache_inductor_llm/u2/cu2djg5mdze573ds4zdio2s23odwdahfenunkudxmm6c564bbagv.py":19:33)
#loc3 = loc("/NHNHOME/WORKSPACE/26msit001_A/jinhyeok/loop_TTT/lact/.cache_inductor_llm/u2/cu2djg5mdze573ds4zdio2s23odwdahfenunkudxmm6c564bbagv.py":20:36)
#loc4 = loc("/NHNHOME/WORKSPACE/26msit001_A/jinhyeok/loop_TTT/lact/.cache_inductor_llm/u2/cu2djg5mdze573ds4zdio2s23odwdahfenunkudxmm6c564bbagv.py":20:23)
#loc5 = loc("/NHNHOME/WORKSPACE/26msit001_A/jinhyeok/loop_TTT/lact/.cache_inductor_llm/u2/cu2djg5mdze573ds4zdio2s23odwdahfenunkudxmm6c564bbagv.py":21:36)
#loc6 = loc("/NHNHOME/WORKSPACE/26msit001_A/jinhyeok/loop_TTT/lact/.cache_inductor_llm/u2/cu2djg5mdze573ds4zdio2s23odwdahfenunkudxmm6c564bbagv.py":22:19)
#loc7 = loc("/NHNHOME/WORKSPACE/26msit001_A/jinhyeok/loop_TTT/lact/.cache_inductor_llm/u2/cu2djg5mdze573ds4zdio2s23odwdahfenunkudxmm6c564bbagv.py":23:19)
#loc8 = loc("/NHNHOME/WORKSPACE/26msit001_A/jinhyeok/loop_TTT/lact/.cache_inductor_llm/u2/cu2djg5mdze573ds4zdio2s23odwdahfenunkudxmm6c564bbagv.py":26:30)
#loc9 = loc("/NHNHOME/WORKSPACE/26msit001_A/jinhyeok/loop_TTT/lact/.cache_inductor_llm/u2/cu2djg5mdze573ds4zdio2s23odwdahfenunkudxmm6c564bbagv.py":27:19)
#loc10 = loc("/NHNHOME/WORKSPACE/26msit001_A/jinhyeok/loop_TTT/lact/.cache_inductor_llm/u2/cu2djg5mdze573ds4zdio2s23odwdahfenunkudxmm6c564bbagv.py":28:40)
#loc11 = loc("/NHNHOME/WORKSPACE/26msit001_A/jinhyeok/loop_TTT/lact/.cache_inductor_llm/u2/cu2djg5mdze573ds4zdio2s23odwdahfenunkudxmm6c564bbagv.py":28:50)
#loc12 = loc("/NHNHOME/WORKSPACE/26msit001_A/jinhyeok/loop_TTT/lact/.cache_inductor_llm/u2/cu2djg5mdze573ds4zdio2s23odwdahfenunkudxmm6c564bbagv.py":28:45)
#loc13 = loc("/NHNHOME/WORKSPACE/26msit001_A/jinhyeok/loop_TTT/lact/.cache_inductor_llm/u2/cu2djg5mdze573ds4zdio2s23odwdahfenunkudxmm6c564bbagv.py":28:30)
#loc14 = loc("/NHNHOME/WORKSPACE/26msit001_A/jinhyeok/loop_TTT/lact/.cache_inductor_llm/u2/cu2djg5mdze573ds4zdio2s23odwdahfenunkudxmm6c564bbagv.py":28:55)
#loc15 = loc("/NHNHOME/WORKSPACE/26msit001_A/jinhyeok/loop_TTT/lact/.cache_inductor_llm/u2/cu2djg5mdze573ds4zdio2s23odwdahfenunkudxmm6c564bbagv.py":28:75)
#loc16 = loc("/NHNHOME/WORKSPACE/26msit001_A/jinhyeok/loop_TTT/lact/.cache_inductor_llm/u2/cu2djg5mdze573ds4zdio2s23odwdahfenunkudxmm6c564bbagv.py":29:30)
#loc17 = loc("/NHNHOME/WORKSPACE/26msit001_A/jinhyeok/loop_TTT/lact/.cache_inductor_llm/u2/cu2djg5mdze573ds4zdio2s23odwdahfenunkudxmm6c564bbagv.py":30:19)
#loc18 = loc("/NHNHOME/WORKSPACE/26msit001_A/jinhyeok/loop_TTT/lact/.cache_inductor_llm/u2/cu2djg5mdze573ds4zdio2s23odwdahfenunkudxmm6c564bbagv.py":31:18)
#loc19 = loc("/NHNHOME/WORKSPACE/26msit001_A/jinhyeok/loop_TTT/lact/.cache_inductor_llm/u2/cu2djg5mdze573ds4zdio2s23odwdahfenunkudxmm6c564bbagv.py":32:18)
#loc20 = loc("/NHNHOME/WORKSPACE/26msit001_A/jinhyeok/loop_TTT/lact/.cache_inductor_llm/u2/cu2djg5mdze573ds4zdio2s23odwdahfenunkudxmm6c564bbagv.py":33:40)
#loc21 = loc("/NHNHOME/WORKSPACE/26msit001_A/jinhyeok/loop_TTT/lact/.cache_inductor_llm/u2/cu2djg5mdze573ds4zdio2s23odwdahfenunkudxmm6c564bbagv.py":33:50)
#loc22 = loc("/NHNHOME/WORKSPACE/26msit001_A/jinhyeok/loop_TTT/lact/.cache_inductor_llm/u2/cu2djg5mdze573ds4zdio2s23odwdahfenunkudxmm6c564bbagv.py":33:45)
#loc23 = loc("/NHNHOME/WORKSPACE/26msit001_A/jinhyeok/loop_TTT/lact/.cache_inductor_llm/u2/cu2djg5mdze573ds4zdio2s23odwdahfenunkudxmm6c564bbagv.py":33:30)
#loc24 = loc("/NHNHOME/WORKSPACE/26msit001_A/jinhyeok/loop_TTT/lact/.cache_inductor_llm/u2/cu2djg5mdze573ds4zdio2s23odwdahfenunkudxmm6c564bbagv.py":33:55)
#loc25 = loc("/NHNHOME/WORKSPACE/26msit001_A/jinhyeok/loop_TTT/lact/.cache_inductor_llm/u2/cu2djg5mdze573ds4zdio2s23odwdahfenunkudxmm6c564bbagv.py":33:75)
#loc26 = loc("/NHNHOME/WORKSPACE/26msit001_A/jinhyeok/loop_TTT/lact/.cache_inductor_llm/u2/cu2djg5mdze573ds4zdio2s23odwdahfenunkudxmm6c564bbagv.py":34:30)
#loc27 = loc("/NHNHOME/WORKSPACE/26msit001_A/jinhyeok/loop_TTT/lact/.cache_inductor_llm/u2/cu2djg5mdze573ds4zdio2s23odwdahfenunkudxmm6c564bbagv.py":35:20)
#loc28 = loc("/NHNHOME/WORKSPACE/26msit001_A/jinhyeok/loop_TTT/lact/.cache_inductor_llm/u2/cu2djg5mdze573ds4zdio2s23odwdahfenunkudxmm6c564bbagv.py":36:19)
#loc29 = loc("/NHNHOME/WORKSPACE/26msit001_A/jinhyeok/loop_TTT/lact/.cache_inductor_llm/u2/cu2djg5mdze573ds4zdio2s23odwdahfenunkudxmm6c564bbagv.py":37:20)
#loc30 = loc("/NHNHOME/WORKSPACE/26msit001_A/jinhyeok/loop_TTT/lact/.cache_inductor_llm/u2/cu2djg5mdze573ds4zdio2s23odwdahfenunkudxmm6c564bbagv.py":38:41)
#loc31 = loc("/NHNHOME/WORKSPACE/26msit001_A/jinhyeok/loop_TTT/lact/.cache_inductor_llm/u2/cu2djg5mdze573ds4zdio2s23odwdahfenunkudxmm6c564bbagv.py":38:51)
#loc32 = loc("/NHNHOME/WORKSPACE/26msit001_A/jinhyeok/loop_TTT/lact/.cache_inductor_llm/u2/cu2djg5mdze573ds4zdio2s23odwdahfenunkudxmm6c564bbagv.py":38:46)
#loc33 = loc("/NHNHOME/WORKSPACE/26msit001_A/jinhyeok/loop_TTT/lact/.cache_inductor_llm/u2/cu2djg5mdze573ds4zdio2s23odwdahfenunkudxmm6c564bbagv.py":38:31)
#loc34 = loc("/NHNHOME/WORKSPACE/26msit001_A/jinhyeok/loop_TTT/lact/.cache_inductor_llm/u2/cu2djg5mdze573ds4zdio2s23odwdahfenunkudxmm6c564bbagv.py":38:56)
#loc35 = loc("/NHNHOME/WORKSPACE/26msit001_A/jinhyeok/loop_TTT/lact/.cache_inductor_llm/u2/cu2djg5mdze573ds4zdio2s23odwdahfenunkudxmm6c564bbagv.py":38:77)
#loc36 = loc("/NHNHOME/WORKSPACE/26msit001_A/jinhyeok/loop_TTT/lact/.cache_inductor_llm/u2/cu2djg5mdze573ds4zdio2s23odwdahfenunkudxmm6c564bbagv.py":39:19)
#loc37 = loc("/NHNHOME/WORKSPACE/26msit001_A/jinhyeok/loop_TTT/lact/.cache_inductor_llm/u2/cu2djg5mdze573ds4zdio2s23odwdahfenunkudxmm6c564bbagv.py":40:41)
#loc38 = loc("/NHNHOME/WORKSPACE/26msit001_A/jinhyeok/loop_TTT/lact/.cache_inductor_llm/u2/cu2djg5mdze573ds4zdio2s23odwdahfenunkudxmm6c564bbagv.py":40:36)
#loc39 = loc("/NHNHOME/WORKSPACE/26msit001_A/jinhyeok/loop_TTT/lact/.cache_inductor_llm/u2/cu2djg5mdze573ds4zdio2s23odwdahfenunkudxmm6c564bbagv.py":40:31)
#loc40 = loc("/NHNHOME/WORKSPACE/26msit001_A/jinhyeok/loop_TTT/lact/.cache_inductor_llm/u2/cu2djg5mdze573ds4zdio2s23odwdahfenunkudxmm6c564bbagv.py":40:46)
#loc41 = loc("/NHNHOME/WORKSPACE/26msit001_A/jinhyeok/loop_TTT/lact/.cache_inductor_llm/u2/cu2djg5mdze573ds4zdio2s23odwdahfenunkudxmm6c564bbagv.py":40:67)
#loc42 = loc("/NHNHOME/WORKSPACE/26msit001_A/jinhyeok/loop_TTT/lact/.cache_inductor_llm/u2/cu2djg5mdze573ds4zdio2s23odwdahfenunkudxmm6c564bbagv.py":41:12)
#loc43 = loc("/NHNHOME/WORKSPACE/26msit001_A/jinhyeok/loop_TTT/lact/.cache_inductor_llm/u2/cu2djg5mdze573ds4zdio2s23odwdahfenunkudxmm6c564bbagv.py":42:35)
#loc44 = loc("/NHNHOME/WORKSPACE/26msit001_A/jinhyeok/loop_TTT/lact/.cache_inductor_llm/u2/cu2djg5mdze573ds4zdio2s23odwdahfenunkudxmm6c564bbagv.py":43:35)
#loc45 = loc("/NHNHOME/WORKSPACE/26msit001_A/jinhyeok/loop_TTT/lact/.cache_inductor_llm/u2/cu2djg5mdze573ds4zdio2s23odwdahfenunkudxmm6c564bbagv.py":44:33)
#loc46 = loc("/NHNHOME/WORKSPACE/26msit001_A/jinhyeok/loop_TTT/lact/.cache_inductor_llm/u2/cu2djg5mdze573ds4zdio2s23odwdahfenunkudxmm6c564bbagv.py":45:33)
#loc47 = loc("/NHNHOME/WORKSPACE/26msit001_A/jinhyeok/loop_TTT/lact/.cache_inductor_llm/u2/cu2djg5mdze573ds4zdio2s23odwdahfenunkudxmm6c564bbagv.py":46:25)
#loc48 = loc("/NHNHOME/WORKSPACE/26msit001_A/jinhyeok/loop_TTT/lact/.cache_inductor_llm/u2/cu2djg5mdze573ds4zdio2s23odwdahfenunkudxmm6c564bbagv.py":46:37)
#loc49 = loc("/NHNHOME/WORKSPACE/26msit001_A/jinhyeok/loop_TTT/lact/.cache_inductor_llm/u2/cu2djg5mdze573ds4zdio2s23odwdahfenunkudxmm6c564bbagv.py":46:4)
#loc56 = loc("xoffset"(#loc1))
#loc57 = loc("xoffset"(#loc2))
#loc58 = loc("xindex"(#loc3))
#loc59 = loc("xindex"(#loc4))
#loc60 = loc("xmask"(#loc5))
#loc61 = loc("x0"(#loc6))
#loc62 = loc("x1"(#loc7))
#loc63 = loc("tmp1"(#loc8))
#loc64 = loc("tmp2"(#loc9))
#loc65 = loc("tmp3"(#loc10))
#loc66 = loc("tmp3"(#loc11))
#loc67 = loc("tmp3"(#loc12))
#loc68 = loc("tmp3"(#loc13))
#loc69 = loc("tmp3"(#loc14))
#loc70 = loc("tmp3"(#loc15))
#loc71 = loc("tmp4"(#loc16))
#loc72 = loc("tmp5"(#loc17))
#loc73 = loc("tmp6"(#loc18))
#loc74 = loc("tmp7"(#loc19))
#loc75 = loc("tmp8"(#loc20))
#loc76 = loc("tmp8"(#loc21))
#loc77 = loc("tmp8"(#loc22))
#loc78 = loc("tmp8"(#loc23))
#loc79 = loc("tmp8"(#loc24))
#loc80 = loc("tmp8"(#loc25))
#loc81 = loc("tmp9"(#loc26))
#loc82 = loc("tmp10"(#loc27))
#loc83 = loc("tmp11"(#loc28))
#loc84 = loc("tmp12"(#loc29))
#loc85 = loc("tmp13"(#loc30))
#loc86 = loc("tmp13"(#loc31))
#loc87 = loc("tmp13"(#loc32))
#loc88 = loc("tmp13"(#loc33))
#loc89 = loc("tmp13"(#loc34))
#loc90 = loc("tmp13"(#loc35))
#loc91 = loc("tmp14"(#loc36))
#loc92 = loc("tmp15"(#loc37))
#loc93 = loc("tmp15"(#loc38))
#loc94 = loc("tmp15"(#loc39))
#loc95 = loc("tmp15"(#loc40))
#loc96 = loc("tmp15"(#loc41))
#loc97 = loc("tmp16"(#loc42))
#loc98 = loc("tmp17"(#loc43))
#loc99 = loc("tmp18"(#loc44))
#loc100 = loc("tmp19"(#loc45))
#loc101 = loc("tmp20"(#loc46))
