#loc = loc("/NHNHOME/WORKSPACE/26msit001_A/jinhyeok/loop_TTT/lact/.cache_inductor_llm/bm/cbmgmdounmd5ylyfv5c77banga6wwi6lhxpblghkxiepnuxjk7mo.py":18:0)
#loc46 = loc("in_out_ptr0"(#loc))
#loc47 = loc("in_ptr0"(#loc))
#loc48 = loc("in_ptr1"(#loc))
#loc49 = loc("in_ptr2"(#loc))
#loc50 = loc("in_ptr3"(#loc))
#loc51 = loc("in_ptr4"(#loc))
#loc52 = loc("in_ptr5"(#loc))
#loc53 = loc("in_ptr6"(#loc))
#loc54 = loc("ynumel"(#loc))
#loc55 = loc("xnumel"(#loc))
module {
  tt.func public @triton_poi_fused__to_copy_add_div_eq_masked_fill_mul_42(%in_out_ptr0: !tt.ptr<bf16> {tt.divisibility = 16 : i32} loc("in_out_ptr0"(#loc)), %in_ptr0: !tt.ptr<bf16> {tt.divisibility = 16 : i32} loc("in_ptr0"(#loc)), %in_ptr1: !tt.ptr<bf16> {tt.divisibility = 16 : i32} loc("in_ptr1"(#loc)), %in_ptr2: !tt.ptr<f32> {tt.divisibility = 16 : i32} loc("in_ptr2"(#loc)), %in_ptr3: !tt.ptr<f32> {tt.divisibility = 16 : i32} loc("in_ptr3"(#loc)), %in_ptr4: !tt.ptr<f32> {tt.divisibility = 16 : i32} loc("in_ptr4"(#loc)), %in_ptr5: !tt.ptr<f32> {tt.divisibility = 16 : i32} loc("in_ptr5"(#loc)), %in_ptr6: !tt.ptr<bf16> {tt.divisibility = 16 : i32} loc("in_ptr6"(#loc)), %ynumel: i32 {tt.divisibility = 16 : i32} loc("ynumel"(#loc)), %xnumel: i32 {tt.divisibility = 16 : i32} loc("xnumel"(#loc))) attributes {noinline = false} {
    %tmp16 = arith.constant dense<0.000000e+00> : tensor<32x32xf32> loc(#loc56)
    %tmp12 = arith.constant dense<0.000000e+00> : tensor<32x1xf32> loc(#loc57)
    %cst = arith.constant dense<192> : tensor<32x1xi32> loc(#loc3)
    %xmask = arith.constant dense<192> : tensor<1x32xi32> loc(#loc58)
    %c32_i32 = arith.constant 32 : i32 loc(#loc3)
    %yoffset = tt.get_program_id y : i32 loc(#loc59)
    %yoffset_0 = arith.muli %yoffset, %c32_i32 : i32 loc(#loc60)
    %yindex = tt.make_range {end = 32 : i32, start = 0 : i32} : tensor<32xi32> loc(#loc61)
    %yindex_1 = tt.expand_dims %yindex {axis = 1 : i32} : tensor<32xi32> -> tensor<32x1xi32> loc(#loc62)
    %yindex_2 = tt.splat %yoffset_0 : i32 -> tensor<32x1xi32> loc(#loc63)
    %yindex_3 = arith.addi %yindex_2, %yindex_1 : tensor<32x1xi32> loc(#loc63)
    %xoffset = tt.get_program_id x : i32 loc(#loc64)
    %xoffset_4 = arith.muli %xoffset, %c32_i32 : i32 loc(#loc65)
    %xindex = tt.expand_dims %yindex {axis = 0 : i32} : tensor<32xi32> -> tensor<1x32xi32> loc(#loc66)
    %xindex_5 = tt.splat %xoffset_4 : i32 -> tensor<1x32xi32> loc(#loc67)
    %xindex_6 = arith.addi %xindex_5, %xindex : tensor<1x32xi32> loc(#loc67)
    %xmask_7 = arith.cmpi slt, %xindex_6, %xmask : tensor<1x32xi32> loc(#loc58)
    %tmp0 = arith.muli %yindex_3, %cst : tensor<32x1xi32> loc(#loc68)
    %tmp0_8 = tt.broadcast %xindex_6 : tensor<1x32xi32> -> tensor<32x32xi32> loc(#loc69)
    %tmp0_9 = tt.broadcast %tmp0 : tensor<32x1xi32> -> tensor<32x32xi32> loc(#loc69)
    %tmp0_10 = arith.addi %tmp0_8, %tmp0_9 : tensor<32x32xi32> loc(#loc69)
    %tmp0_11 = tt.splat %in_out_ptr0 : !tt.ptr<bf16> -> tensor<32x32x!tt.ptr<bf16>> loc(#loc70)
    %tmp0_12 = tt.addptr %tmp0_11, %tmp0_10 : tensor<32x32x!tt.ptr<bf16>>, tensor<32x32xi32> loc(#loc70)
    %tmp0_13 = tt.broadcast %xmask_7 : tensor<1x32xi1> -> tensor<32x32xi1> loc(#loc71)
    %tmp0_14 = tt.load %tmp0_12, %tmp0_13 evictionPolicy = evict_last : tensor<32x32x!tt.ptr<bf16>> loc(#loc71)
    %tmp0_15 = arith.extf %tmp0_14 : tensor<32x32xbf16> to tensor<32x32xf32> loc(#loc72)
    %tmp1 = tt.splat %in_ptr0 : !tt.ptr<bf16> -> tensor<32x32x!tt.ptr<bf16>> loc(#loc73)
    %tmp1_16 = tt.addptr %tmp1, %tmp0_10 : tensor<32x32x!tt.ptr<bf16>>, tensor<32x32xi32> loc(#loc73)
    %tmp1_17 = tt.load %tmp1_16, %tmp0_13 evictionPolicy = evict_last : tensor<32x32x!tt.ptr<bf16>> loc(#loc74)
    %tmp1_18 = arith.extf %tmp1_17 : tensor<32x32xbf16> to tensor<32x32xf32> loc(#loc75)
    %tmp3 = tt.splat %in_ptr1 : !tt.ptr<bf16> -> tensor<32x32x!tt.ptr<bf16>> loc(#loc76)
    %tmp3_19 = tt.addptr %tmp3, %tmp0_10 : tensor<32x32x!tt.ptr<bf16>>, tensor<32x32xi32> loc(#loc76)
    %tmp3_20 = tt.load %tmp3_19, %tmp0_13 evictionPolicy = evict_last : tensor<32x32x!tt.ptr<bf16>> loc(#loc77)
    %tmp3_21 = arith.extf %tmp3_20 : tensor<32x32xbf16> to tensor<32x32xf32> loc(#loc78)
    %tmp5 = tt.splat %in_ptr2 : !tt.ptr<f32> -> tensor<32x1x!tt.ptr<f32>> loc(#loc79)
    %tmp5_22 = tt.addptr %tmp5, %yindex_3 : tensor<32x1x!tt.ptr<f32>>, tensor<32x1xi32> loc(#loc79)
    %tmp5_23 = tt.load %tmp5_22 evictionPolicy = evict_last : tensor<32x1x!tt.ptr<f32>> loc(#loc80)
    %tmp6 = tt.splat %in_ptr3 : !tt.ptr<f32> -> tensor<32x1x!tt.ptr<f32>> loc(#loc81)
    %tmp6_24 = tt.addptr %tmp6, %yindex_3 : tensor<32x1x!tt.ptr<f32>>, tensor<32x1xi32> loc(#loc81)
    %tmp6_25 = tt.load %tmp6_24 evictionPolicy = evict_last : tensor<32x1x!tt.ptr<f32>> loc(#loc82)
    %tmp8 = tt.splat %in_ptr4 : !tt.ptr<f32> -> tensor<32x1x!tt.ptr<f32>> loc(#loc83)
    %tmp8_26 = tt.addptr %tmp8, %yindex_3 : tensor<32x1x!tt.ptr<f32>>, tensor<32x1xi32> loc(#loc83)
    %tmp8_27 = tt.load %tmp8_26 evictionPolicy = evict_last : tensor<32x1x!tt.ptr<f32>> loc(#loc84)
    %tmp10 = tt.splat %in_ptr5 : !tt.ptr<f32> -> tensor<32x1x!tt.ptr<f32>> loc(#loc85)
    %tmp10_28 = tt.addptr %tmp10, %yindex_3 : tensor<32x1x!tt.ptr<f32>>, tensor<32x1xi32> loc(#loc85)
    %tmp10_29 = tt.load %tmp10_28 evictionPolicy = evict_last : tensor<32x1x!tt.ptr<f32>> loc(#loc86)
    %tmp13 = tt.splat %in_ptr6 : !tt.ptr<bf16> -> tensor<32x32x!tt.ptr<bf16>> loc(#loc87)
    %tmp13_30 = tt.addptr %tmp13, %tmp0_10 : tensor<32x32x!tt.ptr<bf16>>, tensor<32x32xi32> loc(#loc87)
    %tmp13_31 = tt.load %tmp13_30, %tmp0_13 evictionPolicy = evict_last : tensor<32x32x!tt.ptr<bf16>> loc(#loc88)
    %tmp13_32 = arith.extf %tmp13_31 : tensor<32x32xbf16> to tensor<32x32xf32> loc(#loc89)
    %tmp2 = arith.addf %tmp0_15, %tmp1_18 : tensor<32x32xf32> loc(#loc90)
    %tmp4 = arith.addf %tmp2, %tmp3_21 : tensor<32x32xf32> loc(#loc91)
    %tmp7 = arith.addf %tmp5_23, %tmp6_25 : tensor<32x1xf32> loc(#loc92)
    %tmp9 = arith.addf %tmp7, %tmp8_27 : tensor<32x1xf32> loc(#loc93)
    %tmp12_33 = arith.cmpf oeq, %tmp10_29, %tmp12 : tensor<32x1xf32> loc(#loc57)
    %tmp15 = tt.broadcast %tmp10_29 : tensor<32x1xf32> -> tensor<32x32xf32> loc(#loc94)
    %tmp15_34 = arith.divf %tmp13_32, %tmp15 : tensor<32x32xf32> loc(#loc94)
    %tmp16_35 = tt.broadcast %tmp12_33 : tensor<32x1xi1> -> tensor<32x32xi1> loc(#loc56)
    %tmp16_36 = arith.select %tmp16_35, %tmp16, %tmp15_34 : tensor<32x32xi1>, tensor<32x32xf32> loc(#loc56)
    %tmp17 = tt.broadcast %tmp9 : tensor<32x1xf32> -> tensor<32x32xf32> loc(#loc95)
    %tmp17_37 = arith.mulf %tmp17, %tmp16_36 : tensor<32x32xf32> loc(#loc95)
    %tmp19 = arith.addf %tmp4, %tmp17_37 : tensor<32x32xf32> loc(#loc96)
    gpu.barrier loc(#loc43)
    %0 = arith.truncf %tmp19 : tensor<32x32xf32> to tensor<32x32xbf16> loc(#loc44)
    tt.store %tmp0_12, %0, %tmp0_13 : tensor<32x32x!tt.ptr<bf16>> loc(#loc44)
    tt.return loc(#loc45)
  } loc(#loc)
} loc(#loc)
#loc1 = loc("/NHNHOME/WORKSPACE/26msit001_A/jinhyeok/loop_TTT/lact/.cache_inductor_llm/bm/cbmgmdounmd5ylyfv5c77banga6wwi6lhxpblghkxiepnuxjk7mo.py":45:35)
#loc2 = loc("/NHNHOME/WORKSPACE/26msit001_A/jinhyeok/loop_TTT/lact/.cache_inductor_llm/bm/cbmgmdounmd5ylyfv5c77banga6wwi6lhxpblghkxiepnuxjk7mo.py":42:21)
#loc3 = loc(unknown)
#loc4 = loc("/NHNHOME/WORKSPACE/26msit001_A/jinhyeok/loop_TTT/lact/.cache_inductor_llm/bm/cbmgmdounmd5ylyfv5c77banga6wwi6lhxpblghkxiepnuxjk7mo.py":26:21)
#loc5 = loc("/NHNHOME/WORKSPACE/26msit001_A/jinhyeok/loop_TTT/lact/.cache_inductor_llm/bm/cbmgmdounmd5ylyfv5c77banga6wwi6lhxpblghkxiepnuxjk7mo.py":21:28)
#loc6 = loc("/NHNHOME/WORKSPACE/26msit001_A/jinhyeok/loop_TTT/lact/.cache_inductor_llm/bm/cbmgmdounmd5ylyfv5c77banga6wwi6lhxpblghkxiepnuxjk7mo.py":21:33)
#loc7 = loc("/NHNHOME/WORKSPACE/26msit001_A/jinhyeok/loop_TTT/lact/.cache_inductor_llm/bm/cbmgmdounmd5ylyfv5c77banga6wwi6lhxpblghkxiepnuxjk7mo.py":22:36)
#loc8 = loc("/NHNHOME/WORKSPACE/26msit001_A/jinhyeok/loop_TTT/lact/.cache_inductor_llm/bm/cbmgmdounmd5ylyfv5c77banga6wwi6lhxpblghkxiepnuxjk7mo.py":22:44)
#loc9 = loc("/NHNHOME/WORKSPACE/26msit001_A/jinhyeok/loop_TTT/lact/.cache_inductor_llm/bm/cbmgmdounmd5ylyfv5c77banga6wwi6lhxpblghkxiepnuxjk7mo.py":22:23)
#loc10 = loc("/NHNHOME/WORKSPACE/26msit001_A/jinhyeok/loop_TTT/lact/.cache_inductor_llm/bm/cbmgmdounmd5ylyfv5c77banga6wwi6lhxpblghkxiepnuxjk7mo.py":24:28)
#loc11 = loc("/NHNHOME/WORKSPACE/26msit001_A/jinhyeok/loop_TTT/lact/.cache_inductor_llm/bm/cbmgmdounmd5ylyfv5c77banga6wwi6lhxpblghkxiepnuxjk7mo.py":24:33)
#loc12 = loc("/NHNHOME/WORKSPACE/26msit001_A/jinhyeok/loop_TTT/lact/.cache_inductor_llm/bm/cbmgmdounmd5ylyfv5c77banga6wwi6lhxpblghkxiepnuxjk7mo.py":25:44)
#loc13 = loc("/NHNHOME/WORKSPACE/26msit001_A/jinhyeok/loop_TTT/lact/.cache_inductor_llm/bm/cbmgmdounmd5ylyfv5c77banga6wwi6lhxpblghkxiepnuxjk7mo.py":25:23)
#loc14 = loc("/NHNHOME/WORKSPACE/26msit001_A/jinhyeok/loop_TTT/lact/.cache_inductor_llm/bm/cbmgmdounmd5ylyfv5c77banga6wwi6lhxpblghkxiepnuxjk7mo.py":29:43)
#loc15 = loc("/NHNHOME/WORKSPACE/26msit001_A/jinhyeok/loop_TTT/lact/.cache_inductor_llm/bm/cbmgmdounmd5ylyfv5c77banga6wwi6lhxpblghkxiepnuxjk7mo.py":29:39)
#loc16 = loc("/NHNHOME/WORKSPACE/26msit001_A/jinhyeok/loop_TTT/lact/.cache_inductor_llm/bm/cbmgmdounmd5ylyfv5c77banga6wwi6lhxpblghkxiepnuxjk7mo.py":29:34)
#loc17 = loc("/NHNHOME/WORKSPACE/26msit001_A/jinhyeok/loop_TTT/lact/.cache_inductor_llm/bm/cbmgmdounmd5ylyfv5c77banga6wwi6lhxpblghkxiepnuxjk7mo.py":29:48)
#loc18 = loc("/NHNHOME/WORKSPACE/26msit001_A/jinhyeok/loop_TTT/lact/.cache_inductor_llm/bm/cbmgmdounmd5ylyfv5c77banga6wwi6lhxpblghkxiepnuxjk7mo.py":29:88)
#loc19 = loc("/NHNHOME/WORKSPACE/26msit001_A/jinhyeok/loop_TTT/lact/.cache_inductor_llm/bm/cbmgmdounmd5ylyfv5c77banga6wwi6lhxpblghkxiepnuxjk7mo.py":30:30)
#loc20 = loc("/NHNHOME/WORKSPACE/26msit001_A/jinhyeok/loop_TTT/lact/.cache_inductor_llm/bm/cbmgmdounmd5ylyfv5c77banga6wwi6lhxpblghkxiepnuxjk7mo.py":30:44)
#loc21 = loc("/NHNHOME/WORKSPACE/26msit001_A/jinhyeok/loop_TTT/lact/.cache_inductor_llm/bm/cbmgmdounmd5ylyfv5c77banga6wwi6lhxpblghkxiepnuxjk7mo.py":30:84)
#loc22 = loc("/NHNHOME/WORKSPACE/26msit001_A/jinhyeok/loop_TTT/lact/.cache_inductor_llm/bm/cbmgmdounmd5ylyfv5c77banga6wwi6lhxpblghkxiepnuxjk7mo.py":31:30)
#loc23 = loc("/NHNHOME/WORKSPACE/26msit001_A/jinhyeok/loop_TTT/lact/.cache_inductor_llm/bm/cbmgmdounmd5ylyfv5c77banga6wwi6lhxpblghkxiepnuxjk7mo.py":31:44)
#loc24 = loc("/NHNHOME/WORKSPACE/26msit001_A/jinhyeok/loop_TTT/lact/.cache_inductor_llm/bm/cbmgmdounmd5ylyfv5c77banga6wwi6lhxpblghkxiepnuxjk7mo.py":31:84)
#loc25 = loc("/NHNHOME/WORKSPACE/26msit001_A/jinhyeok/loop_TTT/lact/.cache_inductor_llm/bm/cbmgmdounmd5ylyfv5c77banga6wwi6lhxpblghkxiepnuxjk7mo.py":32:30)
#loc26 = loc("/NHNHOME/WORKSPACE/26msit001_A/jinhyeok/loop_TTT/lact/.cache_inductor_llm/bm/cbmgmdounmd5ylyfv5c77banga6wwi6lhxpblghkxiepnuxjk7mo.py":32:35)
#loc27 = loc("/NHNHOME/WORKSPACE/26msit001_A/jinhyeok/loop_TTT/lact/.cache_inductor_llm/bm/cbmgmdounmd5ylyfv5c77banga6wwi6lhxpblghkxiepnuxjk7mo.py":33:30)
#loc28 = loc("/NHNHOME/WORKSPACE/26msit001_A/jinhyeok/loop_TTT/lact/.cache_inductor_llm/bm/cbmgmdounmd5ylyfv5c77banga6wwi6lhxpblghkxiepnuxjk7mo.py":33:35)
#loc29 = loc("/NHNHOME/WORKSPACE/26msit001_A/jinhyeok/loop_TTT/lact/.cache_inductor_llm/bm/cbmgmdounmd5ylyfv5c77banga6wwi6lhxpblghkxiepnuxjk7mo.py":34:30)
#loc30 = loc("/NHNHOME/WORKSPACE/26msit001_A/jinhyeok/loop_TTT/lact/.cache_inductor_llm/bm/cbmgmdounmd5ylyfv5c77banga6wwi6lhxpblghkxiepnuxjk7mo.py":34:35)
#loc31 = loc("/NHNHOME/WORKSPACE/26msit001_A/jinhyeok/loop_TTT/lact/.cache_inductor_llm/bm/cbmgmdounmd5ylyfv5c77banga6wwi6lhxpblghkxiepnuxjk7mo.py":35:31)
#loc32 = loc("/NHNHOME/WORKSPACE/26msit001_A/jinhyeok/loop_TTT/lact/.cache_inductor_llm/bm/cbmgmdounmd5ylyfv5c77banga6wwi6lhxpblghkxiepnuxjk7mo.py":35:36)
#loc33 = loc("/NHNHOME/WORKSPACE/26msit001_A/jinhyeok/loop_TTT/lact/.cache_inductor_llm/bm/cbmgmdounmd5ylyfv5c77banga6wwi6lhxpblghkxiepnuxjk7mo.py":36:31)
#loc34 = loc("/NHNHOME/WORKSPACE/26msit001_A/jinhyeok/loop_TTT/lact/.cache_inductor_llm/bm/cbmgmdounmd5ylyfv5c77banga6wwi6lhxpblghkxiepnuxjk7mo.py":36:45)
#loc35 = loc("/NHNHOME/WORKSPACE/26msit001_A/jinhyeok/loop_TTT/lact/.cache_inductor_llm/bm/cbmgmdounmd5ylyfv5c77banga6wwi6lhxpblghkxiepnuxjk7mo.py":36:85)
#loc36 = loc("/NHNHOME/WORKSPACE/26msit001_A/jinhyeok/loop_TTT/lact/.cache_inductor_llm/bm/cbmgmdounmd5ylyfv5c77banga6wwi6lhxpblghkxiepnuxjk7mo.py":37:18)
#loc37 = loc("/NHNHOME/WORKSPACE/26msit001_A/jinhyeok/loop_TTT/lact/.cache_inductor_llm/bm/cbmgmdounmd5ylyfv5c77banga6wwi6lhxpblghkxiepnuxjk7mo.py":38:18)
#loc38 = loc("/NHNHOME/WORKSPACE/26msit001_A/jinhyeok/loop_TTT/lact/.cache_inductor_llm/bm/cbmgmdounmd5ylyfv5c77banga6wwi6lhxpblghkxiepnuxjk7mo.py":39:18)
#loc39 = loc("/NHNHOME/WORKSPACE/26msit001_A/jinhyeok/loop_TTT/lact/.cache_inductor_llm/bm/cbmgmdounmd5ylyfv5c77banga6wwi6lhxpblghkxiepnuxjk7mo.py":40:18)
#loc40 = loc("/NHNHOME/WORKSPACE/26msit001_A/jinhyeok/loop_TTT/lact/.cache_inductor_llm/bm/cbmgmdounmd5ylyfv5c77banga6wwi6lhxpblghkxiepnuxjk7mo.py":44:21)
#loc41 = loc("/NHNHOME/WORKSPACE/26msit001_A/jinhyeok/loop_TTT/lact/.cache_inductor_llm/bm/cbmgmdounmd5ylyfv5c77banga6wwi6lhxpblghkxiepnuxjk7mo.py":46:19)
#loc42 = loc("/NHNHOME/WORKSPACE/26msit001_A/jinhyeok/loop_TTT/lact/.cache_inductor_llm/bm/cbmgmdounmd5ylyfv5c77banga6wwi6lhxpblghkxiepnuxjk7mo.py":48:19)
#loc43 = loc("/NHNHOME/WORKSPACE/26msit001_A/jinhyeok/loop_TTT/lact/.cache_inductor_llm/bm/cbmgmdounmd5ylyfv5c77banga6wwi6lhxpblghkxiepnuxjk7mo.py":49:4)
#loc44 = loc("/NHNHOME/WORKSPACE/26msit001_A/jinhyeok/loop_TTT/lact/.cache_inductor_llm/bm/cbmgmdounmd5ylyfv5c77banga6wwi6lhxpblghkxiepnuxjk7mo.py":50:49)
#loc45 = loc("/NHNHOME/WORKSPACE/26msit001_A/jinhyeok/loop_TTT/lact/.cache_inductor_llm/bm/cbmgmdounmd5ylyfv5c77banga6wwi6lhxpblghkxiepnuxjk7mo.py":50:4)
#loc56 = loc("tmp16"(#loc1))
#loc57 = loc("tmp12"(#loc2))
#loc58 = loc("xmask"(#loc4))
#loc59 = loc("yoffset"(#loc5))
#loc60 = loc("yoffset"(#loc6))
#loc61 = loc("yindex"(#loc7))
#loc62 = loc("yindex"(#loc8))
#loc63 = loc("yindex"(#loc9))
#loc64 = loc("xoffset"(#loc10))
#loc65 = loc("xoffset"(#loc11))
#loc66 = loc("xindex"(#loc12))
#loc67 = loc("xindex"(#loc13))
#loc68 = loc("tmp0"(#loc14))
#loc69 = loc("tmp0"(#loc15))
#loc70 = loc("tmp0"(#loc16))
#loc71 = loc("tmp0"(#loc17))
#loc72 = loc("tmp0"(#loc18))
#loc73 = loc("tmp1"(#loc19))
#loc74 = loc("tmp1"(#loc20))
#loc75 = loc("tmp1"(#loc21))
#loc76 = loc("tmp3"(#loc22))
#loc77 = loc("tmp3"(#loc23))
#loc78 = loc("tmp3"(#loc24))
#loc79 = loc("tmp5"(#loc25))
#loc80 = loc("tmp5"(#loc26))
#loc81 = loc("tmp6"(#loc27))
#loc82 = loc("tmp6"(#loc28))
#loc83 = loc("tmp8"(#loc29))
#loc84 = loc("tmp8"(#loc30))
#loc85 = loc("tmp10"(#loc31))
#loc86 = loc("tmp10"(#loc32))
#loc87 = loc("tmp13"(#loc33))
#loc88 = loc("tmp13"(#loc34))
#loc89 = loc("tmp13"(#loc35))
#loc90 = loc("tmp2"(#loc36))
#loc91 = loc("tmp4"(#loc37))
#loc92 = loc("tmp7"(#loc38))
#loc93 = loc("tmp9"(#loc39))
#loc94 = loc("tmp15"(#loc40))
#loc95 = loc("tmp17"(#loc41))
#loc96 = loc("tmp19"(#loc42))
