#loc = loc("/NHNHOME/WORKSPACE/26msit001_A/jinhyeok/loop_TTT/lact/.cache_inductor_llm/i4/ci4hc6k6lppqiyvzvcilzktqenta2vwzmvyl6np57ywjps3qfqt7.py":18:0)
#loc20 = loc("in_ptr0"(#loc))
#loc21 = loc("in_ptr1"(#loc))
#loc22 = loc("out_ptr0"(#loc))
#loc23 = loc("out_ptr1"(#loc))
#loc24 = loc("out_ptr2"(#loc))
#loc25 = loc("xnumel"(#loc))
module {
  tt.func public @triton_poi_fused__to_copy_add_mul_transpose_16(%in_ptr0: !tt.ptr<f32> {tt.divisibility = 16 : i32} loc("in_ptr0"(#loc)), %in_ptr1: !tt.ptr<bf16> {tt.divisibility = 16 : i32} loc("in_ptr1"(#loc)), %out_ptr0: !tt.ptr<bf16> {tt.divisibility = 16 : i32} loc("out_ptr0"(#loc)), %out_ptr1: !tt.ptr<bf16> {tt.divisibility = 16 : i32} loc("out_ptr1"(#loc)), %out_ptr2: !tt.ptr<bf16> {tt.divisibility = 16 : i32} loc("out_ptr2"(#loc)), %xnumel: i32 {tt.divisibility = 16 : i32} loc("xnumel"(#loc))) attributes {noinline = false} {
    %tmp2 = arith.constant dense<3.741800e+00> : tensor<1024xf32> loc(#loc26)
    %c1024_i32 = arith.constant 1024 : i32 loc(#loc2)
    %xoffset = tt.get_program_id x : i32 loc(#loc27)
    %xoffset_0 = arith.muli %xoffset, %c1024_i32 : i32 loc(#loc28)
    %xindex = tt.make_range {end = 1024 : i32, start = 0 : i32} : tensor<1024xi32> loc(#loc29)
    %xindex_1 = tt.splat %xoffset_0 : i32 -> tensor<1024xi32> loc(#loc30)
    %xindex_2 = arith.addi %xindex_1, %xindex : tensor<1024xi32> loc(#loc30)
    %tmp0 = tt.splat %in_ptr0 : !tt.ptr<f32> -> tensor<1024x!tt.ptr<f32>> loc(#loc31)
    %tmp0_3 = tt.addptr %tmp0, %xindex_2 : tensor<1024x!tt.ptr<f32>>, tensor<1024xi32> loc(#loc31)
    %tmp0_4 = tt.load %tmp0_3 : tensor<1024x!tt.ptr<f32>> loc(#loc32)
    %tmp3 = tt.splat %in_ptr1 : !tt.ptr<bf16> -> tensor<1024x!tt.ptr<bf16>> loc(#loc33)
    %tmp3_5 = tt.addptr %tmp3, %xindex_2 : tensor<1024x!tt.ptr<bf16>>, tensor<1024xi32> loc(#loc33)
    %tmp3_6 = tt.load %tmp3_5 : tensor<1024x!tt.ptr<bf16>> loc(#loc34)
    %tmp3_7 = arith.extf %tmp3_6 : tensor<1024xbf16> to tensor<1024xf32> loc(#loc35)
    %tmp2_8 = arith.mulf %tmp0_4, %tmp2 : tensor<1024xf32> loc(#loc26)
    %tmp5 = arith.addf %tmp2_8, %tmp3_7 : tensor<1024xf32> loc(#loc36)
    %0 = tt.splat %out_ptr0 : !tt.ptr<bf16> -> tensor<1024x!tt.ptr<bf16>> loc(#loc13)
    %1 = tt.addptr %0, %xindex_2 : tensor<1024x!tt.ptr<bf16>>, tensor<1024xi32> loc(#loc13)
    %2 = arith.truncf %tmp5 : tensor<1024xf32> to tensor<1024xbf16> loc(#loc14)
    tt.store %1, %2 : tensor<1024x!tt.ptr<bf16>> loc(#loc14)
    %3 = tt.splat %out_ptr1 : !tt.ptr<bf16> -> tensor<1024x!tt.ptr<bf16>> loc(#loc15)
    %4 = tt.addptr %3, %xindex_2 : tensor<1024x!tt.ptr<bf16>>, tensor<1024xi32> loc(#loc15)
    tt.store %4, %2 : tensor<1024x!tt.ptr<bf16>> loc(#loc16)
    %5 = tt.splat %out_ptr2 : !tt.ptr<bf16> -> tensor<1024x!tt.ptr<bf16>> loc(#loc17)
    %6 = tt.addptr %5, %xindex_2 : tensor<1024x!tt.ptr<bf16>>, tensor<1024xi32> loc(#loc17)
    tt.store %6, %2 : tensor<1024x!tt.ptr<bf16>> loc(#loc18)
    tt.return loc(#loc19)
  } loc(#loc)
} loc(#loc)
#loc1 = loc("/NHNHOME/WORKSPACE/26msit001_A/jinhyeok/loop_TTT/lact/.cache_inductor_llm/i4/ci4hc6k6lppqiyvzvcilzktqenta2vwzmvyl6np57ywjps3qfqt7.py":27:18)
#loc2 = loc(unknown)
#loc3 = loc("/NHNHOME/WORKSPACE/26msit001_A/jinhyeok/loop_TTT/lact/.cache_inductor_llm/i4/ci4hc6k6lppqiyvzvcilzktqenta2vwzmvyl6np57ywjps3qfqt7.py":20:28)
#loc4 = loc("/NHNHOME/WORKSPACE/26msit001_A/jinhyeok/loop_TTT/lact/.cache_inductor_llm/i4/ci4hc6k6lppqiyvzvcilzktqenta2vwzmvyl6np57ywjps3qfqt7.py":20:33)
#loc5 = loc("/NHNHOME/WORKSPACE/26msit001_A/jinhyeok/loop_TTT/lact/.cache_inductor_llm/i4/ci4hc6k6lppqiyvzvcilzktqenta2vwzmvyl6np57ywjps3qfqt7.py":21:36)
#loc6 = loc("/NHNHOME/WORKSPACE/26msit001_A/jinhyeok/loop_TTT/lact/.cache_inductor_llm/i4/ci4hc6k6lppqiyvzvcilzktqenta2vwzmvyl6np57ywjps3qfqt7.py":21:23)
#loc7 = loc("/NHNHOME/WORKSPACE/26msit001_A/jinhyeok/loop_TTT/lact/.cache_inductor_llm/i4/ci4hc6k6lppqiyvzvcilzktqenta2vwzmvyl6np57ywjps3qfqt7.py":24:30)
#loc8 = loc("/NHNHOME/WORKSPACE/26msit001_A/jinhyeok/loop_TTT/lact/.cache_inductor_llm/i4/ci4hc6k6lppqiyvzvcilzktqenta2vwzmvyl6np57ywjps3qfqt7.py":24:35)
#loc9 = loc("/NHNHOME/WORKSPACE/26msit001_A/jinhyeok/loop_TTT/lact/.cache_inductor_llm/i4/ci4hc6k6lppqiyvzvcilzktqenta2vwzmvyl6np57ywjps3qfqt7.py":25:30)
#loc10 = loc("/NHNHOME/WORKSPACE/26msit001_A/jinhyeok/loop_TTT/lact/.cache_inductor_llm/i4/ci4hc6k6lppqiyvzvcilzktqenta2vwzmvyl6np57ywjps3qfqt7.py":25:35)
#loc11 = loc("/NHNHOME/WORKSPACE/26msit001_A/jinhyeok/loop_TTT/lact/.cache_inductor_llm/i4/ci4hc6k6lppqiyvzvcilzktqenta2vwzmvyl6np57ywjps3qfqt7.py":25:44)
#loc12 = loc("/NHNHOME/WORKSPACE/26msit001_A/jinhyeok/loop_TTT/lact/.cache_inductor_llm/i4/ci4hc6k6lppqiyvzvcilzktqenta2vwzmvyl6np57ywjps3qfqt7.py":29:18)
#loc13 = loc("/NHNHOME/WORKSPACE/26msit001_A/jinhyeok/loop_TTT/lact/.cache_inductor_llm/i4/ci4hc6k6lppqiyvzvcilzktqenta2vwzmvyl6np57ywjps3qfqt7.py":31:25)
#loc14 = loc("/NHNHOME/WORKSPACE/26msit001_A/jinhyeok/loop_TTT/lact/.cache_inductor_llm/i4/ci4hc6k6lppqiyvzvcilzktqenta2vwzmvyl6np57ywjps3qfqt7.py":31:36)
#loc15 = loc("/NHNHOME/WORKSPACE/26msit001_A/jinhyeok/loop_TTT/lact/.cache_inductor_llm/i4/ci4hc6k6lppqiyvzvcilzktqenta2vwzmvyl6np57ywjps3qfqt7.py":32:25)
#loc16 = loc("/NHNHOME/WORKSPACE/26msit001_A/jinhyeok/loop_TTT/lact/.cache_inductor_llm/i4/ci4hc6k6lppqiyvzvcilzktqenta2vwzmvyl6np57ywjps3qfqt7.py":32:36)
#loc17 = loc("/NHNHOME/WORKSPACE/26msit001_A/jinhyeok/loop_TTT/lact/.cache_inductor_llm/i4/ci4hc6k6lppqiyvzvcilzktqenta2vwzmvyl6np57ywjps3qfqt7.py":33:25)
#loc18 = loc("/NHNHOME/WORKSPACE/26msit001_A/jinhyeok/loop_TTT/lact/.cache_inductor_llm/i4/ci4hc6k6lppqiyvzvcilzktqenta2vwzmvyl6np57ywjps3qfqt7.py":33:36)
#loc19 = loc("/NHNHOME/WORKSPACE/26msit001_A/jinhyeok/loop_TTT/lact/.cache_inductor_llm/i4/ci4hc6k6lppqiyvzvcilzktqenta2vwzmvyl6np57ywjps3qfqt7.py":33:4)
#loc26 = loc("tmp2"(#loc1))
#loc27 = loc("xoffset"(#loc3))
#loc28 = loc("xoffset"(#loc4))
#loc29 = loc("xindex"(#loc5))
#loc30 = loc("xindex"(#loc6))
#loc31 = loc("tmp0"(#loc7))
#loc32 = loc("tmp0"(#loc8))
#loc33 = loc("tmp3"(#loc9))
#loc34 = loc("tmp3"(#loc10))
#loc35 = loc("tmp3"(#loc11))
#loc36 = loc("tmp5"(#loc12))
