#loc = loc("/NHNHOME/WORKSPACE/26msit001_A/jinhyeok/TTT_camera_embedding/lact_llm/.cache_inductor/e7/ce7667xyj7fu6tn7n7huv6f2uhkfip7rlaewsczn6ojdgnrv44ep.py":18:0)
#loc58 = loc("in_ptr0"(#loc))
#loc59 = loc("in_ptr1"(#loc))
#loc60 = loc("in_ptr2"(#loc))
#loc61 = loc("in_ptr3"(#loc))
#loc62 = loc("out_ptr0"(#loc))
#loc63 = loc("ynumel"(#loc))
#loc64 = loc("xnumel"(#loc))
module {
  tt.func public @triton_poi_fused__to_copy_cat_mul_silu_slice_stack_transpose_view_30(%in_ptr0: !tt.ptr<f32> {tt.divisibility = 16 : i32} loc("in_ptr0"(#loc)), %in_ptr1: !tt.ptr<bf16> {tt.divisibility = 16 : i32} loc("in_ptr1"(#loc)), %in_ptr2: !tt.ptr<bf16> {tt.divisibility = 16 : i32} loc("in_ptr2"(#loc)), %in_ptr3: !tt.ptr<f32> loc("in_ptr3"(#loc)), %out_ptr0: !tt.ptr<bf16> {tt.divisibility = 16 : i32} loc("out_ptr0"(#loc)), %ynumel: i32 {tt.divisibility = 16 : i32} loc("ynumel"(#loc)), %xnumel: i32 {tt.divisibility = 16 : i32} loc("xnumel"(#loc))) attributes {noinline = false} {
    %tmp14 = arith.constant dense<1.000000e+00> : tensor<32x32xf32> loc(#loc112)
    %cst = arith.constant dense<0.000000e+00> : tensor<32x32xbf16> loc(#loc1)
    %cst_0 = arith.constant dense<192> : tensor<32x1xi32> loc(#loc3)
    %cst_1 = arith.constant dense<196608> : tensor<32x1xi32> loc(#loc1)
    %cst_2 = arith.constant dense<-96> : tensor<1x32xi32> loc(#loc1)
    %cst_3 = arith.constant dense<0.000000e+00> : tensor<32x32xf32> loc(#loc1)
    %cst_4 = arith.constant dense<98304> : tensor<32x1xi32> loc(#loc1)
    %cst_5 = arith.constant dense<1024> : tensor<1x32xi32> loc(#loc1)
    %cst_6 = arith.constant dense<96> : tensor<1x32xi64> loc(#loc1)
    %tmp23 = arith.constant dense<12288> : tensor<32x1xi32> loc(#loc66)
    %tmp23_7 = arith.constant dense<3072> : tensor<32x1xi32> loc(#loc67)
    %tmp23_8 = arith.constant dense<3> : tensor<32x1xi32> loc(#loc68)
    %cst_9 = arith.constant dense<1024> : tensor<32x1xi32> loc(#loc1)
    %xmask = arith.constant dense<192> : tensor<1x32xi32> loc(#loc69)
    %c32_i32 = arith.constant 32 : i32 loc(#loc1)
    %yoffset = tt.get_program_id y : i32 loc(#loc70)
    %yoffset_10 = arith.muli %yoffset, %c32_i32 : i32 loc(#loc71)
    %yindex = tt.make_range {end = 32 : i32, start = 0 : i32} : tensor<32xi32> loc(#loc72)
    %yindex_11 = tt.expand_dims %yindex {axis = 1 : i32} : tensor<32xi32> -> tensor<32x1xi32> loc(#loc73)
    %yindex_12 = tt.splat %yoffset_10 : i32 -> tensor<32x1xi32> loc(#loc74)
    %yindex_13 = arith.addi %yindex_12, %yindex_11 : tensor<32x1xi32> loc(#loc74)
    %xoffset = tt.get_program_id x : i32 loc(#loc75)
    %xoffset_14 = arith.muli %xoffset, %c32_i32 : i32 loc(#loc76)
    %xindex = tt.expand_dims %yindex {axis = 0 : i32} : tensor<32xi32> -> tensor<1x32xi32> loc(#loc77)
    %xindex_15 = tt.splat %xoffset_14 : i32 -> tensor<1x32xi32> loc(#loc78)
    %xindex_16 = arith.addi %xindex_15, %xindex : tensor<1x32xi32> loc(#loc78)
    %xmask_17 = arith.cmpi slt, %xindex_16, %xmask : tensor<1x32xi32> loc(#loc69)
    %y0 = arith.remsi %yindex_13, %cst_9 : tensor<32x1xi32> loc(#loc79)
    %y1 = arith.divsi %yindex_13, %cst_9 : tensor<32x1xi32> loc(#loc80)
    %tmp23_18 = arith.muli %y0, %tmp23_8 : tensor<32x1xi32> loc(#loc68)
    %tmp23_19 = arith.addi %tmp23_18, %tmp23_7 : tensor<32x1xi32> loc(#loc67)
    %tmp23_20 = arith.muli %y1, %tmp23 : tensor<32x1xi32> loc(#loc66)
    %tmp23_21 = arith.addi %tmp23_19, %tmp23_20 : tensor<32x1xi32> loc(#loc81)
    %tmp23_22 = tt.splat %in_ptr3 : !tt.ptr<f32> -> tensor<32x1x!tt.ptr<f32>> loc(#loc82)
    %tmp23_23 = tt.addptr %tmp23_22, %tmp23_21 : tensor<32x1x!tt.ptr<f32>>, tensor<32x1xi32> loc(#loc82)
    %tmp23_24 = tt.load %tmp23_23 evictionPolicy = evict_last : tensor<32x1x!tt.ptr<f32>> loc(#loc83)
    %tmp4 = arith.extsi %xindex_16 : tensor<1x32xi32> to tensor<1x32xi64> loc(#loc84)
    %tmp4_25 = arith.cmpi slt, %tmp4, %cst_6 : tensor<1x32xi64> loc(#loc84)
    %tmp5 = arith.muli %xindex_16, %cst_5 : tensor<1x32xi32> loc(#loc85)
    %tmp5_26 = tt.broadcast %y0 : tensor<32x1xi32> -> tensor<32x32xi32> loc(#loc86)
    %tmp5_27 = tt.broadcast %tmp5 : tensor<1x32xi32> -> tensor<32x32xi32> loc(#loc86)
    %tmp5_28 = arith.addi %tmp5_26, %tmp5_27 : tensor<32x32xi32> loc(#loc86)
    %tmp5_29 = arith.muli %y1, %cst_4 : tensor<32x1xi32> loc(#loc87)
    %tmp5_30 = tt.broadcast %tmp5_29 : tensor<32x1xi32> -> tensor<32x32xi32> loc(#loc88)
    %tmp5_31 = arith.addi %tmp5_28, %tmp5_30 : tensor<32x32xi32> loc(#loc88)
    %tmp5_32 = tt.splat %in_ptr0 : !tt.ptr<f32> -> tensor<32x32x!tt.ptr<f32>> loc(#loc89)
    %tmp5_33 = tt.addptr %tmp5_32, %tmp5_31 : tensor<32x32x!tt.ptr<f32>>, tensor<32x32xi32> loc(#loc89)
    %tmp5_34 = arith.andi %tmp4_25, %xmask_17 : tensor<1x32xi1> loc(#loc90)
    %tmp5_35 = tt.broadcast %tmp5_34 : tensor<1x32xi1> -> tensor<32x32xi1> loc(#loc91)
    %tmp5_36 = tt.load %tmp5_33, %tmp5_35, %cst_3 evictionPolicy = evict_last : tensor<32x32x!tt.ptr<f32>> loc(#loc91)
    %tmp8 = tt.broadcast %tmp4_25 : tensor<1x32xi1> -> tensor<32x32xi1> loc(#loc92)
    %tmp8_37 = arith.select %tmp8, %tmp5_36, %cst_3 : tensor<32x32xi1>, tensor<32x32xf32> loc(#loc92)
    %tmp9 = arith.cmpi sge, %tmp4, %cst_6 : tensor<1x32xi64> loc(#loc93)
    %tmp12 = arith.addi %y0, %cst_4 : tensor<32x1xi32> loc(#loc94)
    %tmp12_38 = arith.addi %xindex_16, %cst_2 : tensor<1x32xi32> loc(#loc95)
    %tmp12_39 = arith.muli %tmp12_38, %cst_5 : tensor<1x32xi32> loc(#loc96)
    %tmp12_40 = tt.broadcast %tmp12 : tensor<32x1xi32> -> tensor<32x32xi32> loc(#loc97)
    %tmp12_41 = tt.broadcast %tmp12_39 : tensor<1x32xi32> -> tensor<32x32xi32> loc(#loc97)
    %tmp12_42 = arith.addi %tmp12_40, %tmp12_41 : tensor<32x32xi32> loc(#loc97)
    %tmp12_43 = arith.muli %y1, %cst_1 : tensor<32x1xi32> loc(#loc98)
    %tmp12_44 = tt.broadcast %tmp12_43 : tensor<32x1xi32> -> tensor<32x32xi32> loc(#loc99)
    %tmp12_45 = arith.addi %tmp12_42, %tmp12_44 : tensor<32x32xi32> loc(#loc99)
    %tmp12_46 = tt.splat %in_ptr1 : !tt.ptr<bf16> -> tensor<32x32x!tt.ptr<bf16>> loc(#loc100)
    %tmp12_47 = tt.addptr %tmp12_46, %tmp12_45 : tensor<32x32x!tt.ptr<bf16>>, tensor<32x32xi32> loc(#loc100)
    %tmp12_48 = arith.andi %tmp9, %xmask_17 : tensor<1x32xi1> loc(#loc101)
    %tmp12_49 = tt.broadcast %tmp12_48 : tensor<1x32xi1> -> tensor<32x32xi1> loc(#loc102)
    %tmp12_50 = tt.load %tmp12_47, %tmp12_49, %cst evictionPolicy = evict_last : tensor<32x32x!tt.ptr<bf16>> loc(#loc102)
    %tmp12_51 = arith.extf %tmp12_50 : tensor<32x32xbf16> to tensor<32x32xf32> loc(#loc103)
    %tmp14_52 = arith.subf %cst_3, %tmp12_51 : tensor<32x32xf32> loc(#loc113)
    %tmp14_53 = math.exp %tmp14_52 : tensor<32x32xf32> loc(#loc114)
    %tmp14_54 = arith.addf %tmp14_53, %tmp14 : tensor<32x32xf32> loc(#loc115)
    %tmp14_55 = arith.divf %tmp14, %tmp14_54 : tensor<32x32xf32> loc(#loc116)
    %tmp15 = arith.mulf %tmp12_51, %tmp14_55 : tensor<32x32xf32> loc(#loc104)
    %tmp17 = tt.splat %in_ptr2 : !tt.ptr<bf16> -> tensor<32x32x!tt.ptr<bf16>> loc(#loc105)
    %tmp17_56 = tt.addptr %tmp17, %tmp12_45 : tensor<32x32x!tt.ptr<bf16>>, tensor<32x32xi32> loc(#loc105)
    %tmp17_57 = tt.load %tmp17_56, %tmp12_49, %cst evictionPolicy = evict_last : tensor<32x32x!tt.ptr<bf16>> loc(#loc106)
    %tmp17_58 = arith.extf %tmp17_57 : tensor<32x32xbf16> to tensor<32x32xf32> loc(#loc107)
    %tmp18 = arith.mulf %tmp15, %tmp17_58 : tensor<32x32xf32> loc(#loc108)
    %tmp20 = tt.broadcast %tmp9 : tensor<1x32xi1> -> tensor<32x32xi1> loc(#loc109)
    %tmp20_59 = arith.select %tmp20, %tmp18, %cst_3 : tensor<32x32xi1>, tensor<32x32xf32> loc(#loc109)
    %tmp21 = arith.select %tmp8, %tmp8_37, %tmp20_59 : tensor<32x32xi1>, tensor<32x32xf32> loc(#loc110)
    %tmp24 = tt.broadcast %tmp23_24 : tensor<32x1xf32> -> tensor<32x32xf32> loc(#loc111)
    %tmp24_60 = arith.mulf %tmp21, %tmp24 : tensor<32x32xf32> loc(#loc111)
    %0 = arith.muli %yindex_13, %cst_0 : tensor<32x1xi32> loc(#loc3)
    %1 = tt.broadcast %xindex_16 : tensor<1x32xi32> -> tensor<32x32xi32> loc(#loc54)
    %2 = tt.broadcast %0 : tensor<32x1xi32> -> tensor<32x32xi32> loc(#loc54)
    %3 = arith.addi %1, %2 : tensor<32x32xi32> loc(#loc54)
    %4 = tt.splat %out_ptr0 : !tt.ptr<bf16> -> tensor<32x32x!tt.ptr<bf16>> loc(#loc55)
    %5 = tt.addptr %4, %3 : tensor<32x32x!tt.ptr<bf16>>, tensor<32x32xi32> loc(#loc55)
    %6 = tt.broadcast %xmask_17 : tensor<1x32xi1> -> tensor<32x32xi1> loc(#loc56)
    %7 = arith.truncf %tmp24_60 : tensor<32x32xf32> to tensor<32x32xbf16> loc(#loc56)
    tt.store %5, %7, %6 : tensor<32x32x!tt.ptr<bf16>> loc(#loc56)
    tt.return loc(#loc57)
  } loc(#loc)
} loc(#loc)
#loc1 = loc(unknown)
#loc2 = loc("/NHNHOME/WORKSPACE/26msit001_A/jinhyeok/TTT_camera_embedding/lact_llm/.cache_inductor/e7/ce7667xyj7fu6tn7n7huv6f2uhkfip7rlaewsczn6ojdgnrv44ep.py":46:23)
#loc3 = loc("/NHNHOME/WORKSPACE/26msit001_A/jinhyeok/TTT_camera_embedding/lact_llm/.cache_inductor/e7/ce7667xyj7fu6tn7n7huv6f2uhkfip7rlaewsczn6ojdgnrv44ep.py":57:34)
#loc4 = loc("/NHNHOME/WORKSPACE/26msit001_A/jinhyeok/TTT_camera_embedding/lact_llm/.cache_inductor/e7/ce7667xyj7fu6tn7n7huv6f2uhkfip7rlaewsczn6ojdgnrv44ep.py":31:51)
#loc5 = loc("/NHNHOME/WORKSPACE/26msit001_A/jinhyeok/TTT_camera_embedding/lact_llm/.cache_inductor/e7/ce7667xyj7fu6tn7n7huv6f2uhkfip7rlaewsczn6ojdgnrv44ep.py":31:38)
#loc6 = loc("/NHNHOME/WORKSPACE/26msit001_A/jinhyeok/TTT_camera_embedding/lact_llm/.cache_inductor/e7/ce7667xyj7fu6tn7n7huv6f2uhkfip7rlaewsczn6ojdgnrv44ep.py":31:40)
#loc7 = loc("/NHNHOME/WORKSPACE/26msit001_A/jinhyeok/TTT_camera_embedding/lact_llm/.cache_inductor/e7/ce7667xyj7fu6tn7n7huv6f2uhkfip7rlaewsczn6ojdgnrv44ep.py":26:21)
#loc8 = loc("/NHNHOME/WORKSPACE/26msit001_A/jinhyeok/TTT_camera_embedding/lact_llm/.cache_inductor/e7/ce7667xyj7fu6tn7n7huv6f2uhkfip7rlaewsczn6ojdgnrv44ep.py":21:28)
#loc9 = loc("/NHNHOME/WORKSPACE/26msit001_A/jinhyeok/TTT_camera_embedding/lact_llm/.cache_inductor/e7/ce7667xyj7fu6tn7n7huv6f2uhkfip7rlaewsczn6ojdgnrv44ep.py":21:33)
#loc10 = loc("/NHNHOME/WORKSPACE/26msit001_A/jinhyeok/TTT_camera_embedding/lact_llm/.cache_inductor/e7/ce7667xyj7fu6tn7n7huv6f2uhkfip7rlaewsczn6ojdgnrv44ep.py":22:36)
#loc11 = loc("/NHNHOME/WORKSPACE/26msit001_A/jinhyeok/TTT_camera_embedding/lact_llm/.cache_inductor/e7/ce7667xyj7fu6tn7n7huv6f2uhkfip7rlaewsczn6ojdgnrv44ep.py":22:44)
#loc12 = loc("/NHNHOME/WORKSPACE/26msit001_A/jinhyeok/TTT_camera_embedding/lact_llm/.cache_inductor/e7/ce7667xyj7fu6tn7n7huv6f2uhkfip7rlaewsczn6ojdgnrv44ep.py":22:23)
#loc13 = loc("/NHNHOME/WORKSPACE/26msit001_A/jinhyeok/TTT_camera_embedding/lact_llm/.cache_inductor/e7/ce7667xyj7fu6tn7n7huv6f2uhkfip7rlaewsczn6ojdgnrv44ep.py":24:28)
#loc14 = loc("/NHNHOME/WORKSPACE/26msit001_A/jinhyeok/TTT_camera_embedding/lact_llm/.cache_inductor/e7/ce7667xyj7fu6tn7n7huv6f2uhkfip7rlaewsczn6ojdgnrv44ep.py":24:33)
#loc15 = loc("/NHNHOME/WORKSPACE/26msit001_A/jinhyeok/TTT_camera_embedding/lact_llm/.cache_inductor/e7/ce7667xyj7fu6tn7n7huv6f2uhkfip7rlaewsczn6ojdgnrv44ep.py":25:44)
#loc16 = loc("/NHNHOME/WORKSPACE/26msit001_A/jinhyeok/TTT_camera_embedding/lact_llm/.cache_inductor/e7/ce7667xyj7fu6tn7n7huv6f2uhkfip7rlaewsczn6ojdgnrv44ep.py":25:23)
#loc17 = loc("/NHNHOME/WORKSPACE/26msit001_A/jinhyeok/TTT_camera_embedding/lact_llm/.cache_inductor/e7/ce7667xyj7fu6tn7n7huv6f2uhkfip7rlaewsczn6ojdgnrv44ep.py":28:19)
#loc18 = loc("/NHNHOME/WORKSPACE/26msit001_A/jinhyeok/TTT_camera_embedding/lact_llm/.cache_inductor/e7/ce7667xyj7fu6tn7n7huv6f2uhkfip7rlaewsczn6ojdgnrv44ep.py":29:19)
#loc19 = loc("/NHNHOME/WORKSPACE/26msit001_A/jinhyeok/TTT_camera_embedding/lact_llm/.cache_inductor/e7/ce7667xyj7fu6tn7n7huv6f2uhkfip7rlaewsczn6ojdgnrv44ep.py":31:45)
#loc20 = loc("/NHNHOME/WORKSPACE/26msit001_A/jinhyeok/TTT_camera_embedding/lact_llm/.cache_inductor/e7/ce7667xyj7fu6tn7n7huv6f2uhkfip7rlaewsczn6ojdgnrv44ep.py":31:31)
#loc21 = loc("/NHNHOME/WORKSPACE/26msit001_A/jinhyeok/TTT_camera_embedding/lact_llm/.cache_inductor/e7/ce7667xyj7fu6tn7n7huv6f2uhkfip7rlaewsczn6ojdgnrv44ep.py":31:56)
#loc22 = loc("/NHNHOME/WORKSPACE/26msit001_A/jinhyeok/TTT_camera_embedding/lact_llm/.cache_inductor/e7/ce7667xyj7fu6tn7n7huv6f2uhkfip7rlaewsczn6ojdgnrv44ep.py":36:18)
#loc23 = loc("/NHNHOME/WORKSPACE/26msit001_A/jinhyeok/TTT_camera_embedding/lact_llm/.cache_inductor/e7/ce7667xyj7fu6tn7n7huv6f2uhkfip7rlaewsczn6ojdgnrv44ep.py":37:41)
#loc24 = loc("/NHNHOME/WORKSPACE/26msit001_A/jinhyeok/TTT_camera_embedding/lact_llm/.cache_inductor/e7/ce7667xyj7fu6tn7n7huv6f2uhkfip7rlaewsczn6ojdgnrv44ep.py":37:35)
#loc25 = loc("/NHNHOME/WORKSPACE/26msit001_A/jinhyeok/TTT_camera_embedding/lact_llm/.cache_inductor/e7/ce7667xyj7fu6tn7n7huv6f2uhkfip7rlaewsczn6ojdgnrv44ep.py":37:53)
#loc26 = loc("/NHNHOME/WORKSPACE/26msit001_A/jinhyeok/TTT_camera_embedding/lact_llm/.cache_inductor/e7/ce7667xyj7fu6tn7n7huv6f2uhkfip7rlaewsczn6ojdgnrv44ep.py":37:47)
#loc27 = loc("/NHNHOME/WORKSPACE/26msit001_A/jinhyeok/TTT_camera_embedding/lact_llm/.cache_inductor/e7/ce7667xyj7fu6tn7n7huv6f2uhkfip7rlaewsczn6ojdgnrv44ep.py":37:30)
#loc28 = loc("/NHNHOME/WORKSPACE/26msit001_A/jinhyeok/TTT_camera_embedding/lact_llm/.cache_inductor/e7/ce7667xyj7fu6tn7n7huv6f2uhkfip7rlaewsczn6ojdgnrv44ep.py":37:65)
#loc29 = loc("/NHNHOME/WORKSPACE/26msit001_A/jinhyeok/TTT_camera_embedding/lact_llm/.cache_inductor/e7/ce7667xyj7fu6tn7n7huv6f2uhkfip7rlaewsczn6ojdgnrv44ep.py":37:58)
#loc30 = loc("/NHNHOME/WORKSPACE/26msit001_A/jinhyeok/TTT_camera_embedding/lact_llm/.cache_inductor/e7/ce7667xyj7fu6tn7n7huv6f2uhkfip7rlaewsczn6ojdgnrv44ep.py":40:32)
#loc31 = loc("/NHNHOME/WORKSPACE/26msit001_A/jinhyeok/TTT_camera_embedding/lact_llm/.cache_inductor/e7/ce7667xyj7fu6tn7n7huv6f2uhkfip7rlaewsczn6ojdgnrv44ep.py":41:19)
#loc32 = loc("/NHNHOME/WORKSPACE/26msit001_A/jinhyeok/TTT_camera_embedding/lact_llm/.cache_inductor/e7/ce7667xyj7fu6tn7n7huv6f2uhkfip7rlaewsczn6ojdgnrv44ep.py":44:39)
#loc33 = loc("/NHNHOME/WORKSPACE/26msit001_A/jinhyeok/TTT_camera_embedding/lact_llm/.cache_inductor/e7/ce7667xyj7fu6tn7n7huv6f2uhkfip7rlaewsczn6ojdgnrv44ep.py":44:58)
#loc34 = loc("/NHNHOME/WORKSPACE/26msit001_A/jinhyeok/TTT_camera_embedding/lact_llm/.cache_inductor/e7/ce7667xyj7fu6tn7n7huv6f2uhkfip7rlaewsczn6ojdgnrv44ep.py":44:50)
#loc35 = loc("/NHNHOME/WORKSPACE/26msit001_A/jinhyeok/TTT_camera_embedding/lact_llm/.cache_inductor/e7/ce7667xyj7fu6tn7n7huv6f2uhkfip7rlaewsczn6ojdgnrv44ep.py":44:44)
#loc36 = loc("/NHNHOME/WORKSPACE/26msit001_A/jinhyeok/TTT_camera_embedding/lact_llm/.cache_inductor/e7/ce7667xyj7fu6tn7n7huv6f2uhkfip7rlaewsczn6ojdgnrv44ep.py":44:71)
#loc37 = loc("/NHNHOME/WORKSPACE/26msit001_A/jinhyeok/TTT_camera_embedding/lact_llm/.cache_inductor/e7/ce7667xyj7fu6tn7n7huv6f2uhkfip7rlaewsczn6ojdgnrv44ep.py":44:64)
#loc38 = loc("/NHNHOME/WORKSPACE/26msit001_A/jinhyeok/TTT_camera_embedding/lact_llm/.cache_inductor/e7/ce7667xyj7fu6tn7n7huv6f2uhkfip7rlaewsczn6ojdgnrv44ep.py":44:31)
#loc39 = loc("/NHNHOME/WORKSPACE/26msit001_A/jinhyeok/TTT_camera_embedding/lact_llm/.cache_inductor/e7/ce7667xyj7fu6tn7n7huv6f2uhkfip7rlaewsczn6ojdgnrv44ep.py":44:83)
#loc40 = loc("/NHNHOME/WORKSPACE/26msit001_A/jinhyeok/TTT_camera_embedding/lact_llm/.cache_inductor/e7/ce7667xyj7fu6tn7n7huv6f2uhkfip7rlaewsczn6ojdgnrv44ep.py":44:76)
#loc41 = loc("/NHNHOME/WORKSPACE/26msit001_A/jinhyeok/TTT_camera_embedding/lact_llm/.cache_inductor/e7/ce7667xyj7fu6tn7n7huv6f2uhkfip7rlaewsczn6ojdgnrv44ep.py":44:134)
#loc42 = loc("/NHNHOME/WORKSPACE/26msit001_A/jinhyeok/TTT_camera_embedding/.venv_llm/lib/python3.12/site-packages/triton/language/standard.py":48:30)
#loc43 = loc("/NHNHOME/WORKSPACE/26msit001_A/jinhyeok/TTT_camera_embedding/.venv_llm/lib/python3.12/site-packages/triton/language/standard.py":48:29)
#loc44 = loc("/NHNHOME/WORKSPACE/26msit001_A/jinhyeok/TTT_camera_embedding/.venv_llm/lib/python3.12/site-packages/triton/language/standard.py":48:20)
#loc45 = loc("/NHNHOME/WORKSPACE/26msit001_A/jinhyeok/TTT_camera_embedding/.venv_llm/lib/python3.12/site-packages/triton/language/standard.py":48:16)
#loc46 = loc("/NHNHOME/WORKSPACE/26msit001_A/jinhyeok/TTT_camera_embedding/lact_llm/.cache_inductor/e7/ce7667xyj7fu6tn7n7huv6f2uhkfip7rlaewsczn6ojdgnrv44ep.py":47:20)
#loc47 = loc("/NHNHOME/WORKSPACE/26msit001_A/jinhyeok/TTT_camera_embedding/lact_llm/.cache_inductor/e7/ce7667xyj7fu6tn7n7huv6f2uhkfip7rlaewsczn6ojdgnrv44ep.py":49:31)
#loc48 = loc("/NHNHOME/WORKSPACE/26msit001_A/jinhyeok/TTT_camera_embedding/lact_llm/.cache_inductor/e7/ce7667xyj7fu6tn7n7huv6f2uhkfip7rlaewsczn6ojdgnrv44ep.py":49:76)
#loc49 = loc("/NHNHOME/WORKSPACE/26msit001_A/jinhyeok/TTT_camera_embedding/lact_llm/.cache_inductor/e7/ce7667xyj7fu6tn7n7huv6f2uhkfip7rlaewsczn6ojdgnrv44ep.py":49:134)
#loc50 = loc("/NHNHOME/WORKSPACE/26msit001_A/jinhyeok/TTT_camera_embedding/lact_llm/.cache_inductor/e7/ce7667xyj7fu6tn7n7huv6f2uhkfip7rlaewsczn6ojdgnrv44ep.py":50:20)
#loc51 = loc("/NHNHOME/WORKSPACE/26msit001_A/jinhyeok/TTT_camera_embedding/lact_llm/.cache_inductor/e7/ce7667xyj7fu6tn7n7huv6f2uhkfip7rlaewsczn6ojdgnrv44ep.py":52:34)
#loc52 = loc("/NHNHOME/WORKSPACE/26msit001_A/jinhyeok/TTT_camera_embedding/lact_llm/.cache_inductor/e7/ce7667xyj7fu6tn7n7huv6f2uhkfip7rlaewsczn6ojdgnrv44ep.py":53:33)
#loc53 = loc("/NHNHOME/WORKSPACE/26msit001_A/jinhyeok/TTT_camera_embedding/lact_llm/.cache_inductor/e7/ce7667xyj7fu6tn7n7huv6f2uhkfip7rlaewsczn6ojdgnrv44ep.py":55:20)
#loc54 = loc("/NHNHOME/WORKSPACE/26msit001_A/jinhyeok/TTT_camera_embedding/lact_llm/.cache_inductor/e7/ce7667xyj7fu6tn7n7huv6f2uhkfip7rlaewsczn6ojdgnrv44ep.py":57:30)
#loc55 = loc("/NHNHOME/WORKSPACE/26msit001_A/jinhyeok/TTT_camera_embedding/lact_llm/.cache_inductor/e7/ce7667xyj7fu6tn7n7huv6f2uhkfip7rlaewsczn6ojdgnrv44ep.py":57:25)
#loc56 = loc("/NHNHOME/WORKSPACE/26msit001_A/jinhyeok/TTT_camera_embedding/lact_llm/.cache_inductor/e7/ce7667xyj7fu6tn7n7huv6f2uhkfip7rlaewsczn6ojdgnrv44ep.py":57:46)
#loc57 = loc("/NHNHOME/WORKSPACE/26msit001_A/jinhyeok/TTT_camera_embedding/lact_llm/.cache_inductor/e7/ce7667xyj7fu6tn7n7huv6f2uhkfip7rlaewsczn6ojdgnrv44ep.py":57:4)
#loc65 = loc("tmp14"(#loc2))
#loc66 = loc("tmp23"(#loc4))
#loc67 = loc("tmp23"(#loc5))
#loc68 = loc("tmp23"(#loc6))
#loc69 = loc("xmask"(#loc7))
#loc70 = loc("yoffset"(#loc8))
#loc71 = loc("yoffset"(#loc9))
#loc72 = loc("yindex"(#loc10))
#loc73 = loc("yindex"(#loc11))
#loc74 = loc("yindex"(#loc12))
#loc75 = loc("xoffset"(#loc13))
#loc76 = loc("xoffset"(#loc14))
#loc77 = loc("xindex"(#loc15))
#loc78 = loc("xindex"(#loc16))
#loc79 = loc("y0"(#loc17))
#loc80 = loc("y1"(#loc18))
#loc81 = loc("tmp23"(#loc19))
#loc82 = loc("tmp23"(#loc20))
#loc83 = loc("tmp23"(#loc21))
#loc84 = loc("tmp4"(#loc22))
#loc85 = loc("tmp5"(#loc23))
#loc86 = loc("tmp5"(#loc24))
#loc87 = loc("tmp5"(#loc25))
#loc88 = loc("tmp5"(#loc26))
#loc89 = loc("tmp5"(#loc27))
#loc90 = loc("tmp5"(#loc28))
#loc91 = loc("tmp5"(#loc29))
#loc92 = loc("tmp8"(#loc30))
#loc93 = loc("tmp9"(#loc31))
#loc94 = loc("tmp12"(#loc32))
#loc95 = loc("tmp12"(#loc33))
#loc96 = loc("tmp12"(#loc34))
#loc97 = loc("tmp12"(#loc35))
#loc98 = loc("tmp12"(#loc36))
#loc99 = loc("tmp12"(#loc37))
#loc100 = loc("tmp12"(#loc38))
#loc101 = loc("tmp12"(#loc39))
#loc102 = loc("tmp12"(#loc40))
#loc103 = loc("tmp12"(#loc41))
#loc104 = loc("tmp15"(#loc46))
#loc105 = loc("tmp17"(#loc47))
#loc106 = loc("tmp17"(#loc48))
#loc107 = loc("tmp17"(#loc49))
#loc108 = loc("tmp18"(#loc50))
#loc109 = loc("tmp20"(#loc51))
#loc110 = loc("tmp21"(#loc52))
#loc111 = loc("tmp24"(#loc53))
#loc112 = loc(callsite(#loc1 at #loc65))
#loc113 = loc(callsite(#loc42 at #loc65))
#loc114 = loc(callsite(#loc43 at #loc65))
#loc115 = loc(callsite(#loc44 at #loc65))
#loc116 = loc(callsite(#loc45 at #loc65))
