#loc = loc("/NHNHOME/WORKSPACE/26msit001_A/jinhyeok/loop_TTT/lact/.cache_inductor_llm/g4/cg4z36wfyxyykiufp2tn5q4axwafsdr3gnmrwy7wcx76hrlcpzjh.py":18:0)
#loc1 = loc(unknown)
#loc14 = loc("/NHNHOME/WORKSPACE/26msit001_A/jinhyeok/loop_TTT/lact/.cache_inductor_llm/g4/cg4z36wfyxyykiufp2tn5q4axwafsdr3gnmrwy7wcx76hrlcpzjh.py":38:24)
#loc25 = loc("in_out_ptr0"(#loc))
#loc26 = loc("in_ptr0"(#loc))
#loc27 = loc("out_ptr0"(#loc))
#loc28 = loc("xnumel"(#loc))
#loc29 = loc("r0_numel"(#loc))
#loc41 = loc("tmp5"(#loc14))
#loc47 = loc(callsite(#loc1 at #loc41))
module {
  tt.func public @triton_per_fused_add_div_linalg_vector_norm_0(%in_out_ptr0: !tt.ptr<f32> {tt.divisibility = 16 : i32} loc("in_out_ptr0"(#loc)), %in_ptr0: !tt.ptr<f32> {tt.divisibility = 16 : i32} loc("in_ptr0"(#loc)), %out_ptr0: !tt.ptr<f32> {tt.divisibility = 16 : i32} loc("out_ptr0"(#loc)), %xnumel: i32 {tt.divisibility = 16 : i32} loc("xnumel"(#loc)), %r0_numel: i32 {tt.divisibility = 16 : i32} loc("r0_numel"(#loc))) attributes {noinline = false} {
    %c192_i32 = arith.constant 192 : i32 loc(#loc1)
    %tmp8 = arith.constant dense<9.99999974E-6> : tensor<1x1xf32> loc(#loc30)
    %cst = arith.constant dense<0.000000e+00> : tensor<1x256xf32> loc(#loc1)
    %r0_mask = arith.constant dense<192> : tensor<1x256xi32> loc(#loc31)
    %xoffset = tt.get_program_id x : i32 loc(#loc32)
    %r0_index = tt.make_range {end = 256 : i32, start = 0 : i32} : tensor<256xi32> loc(#loc33)
    %r0_index_0 = tt.expand_dims %r0_index {axis = 0 : i32} : tensor<256xi32> -> tensor<1x256xi32> loc(#loc34)
    %r0_mask_1 = arith.cmpi slt, %r0_index_0, %r0_mask : tensor<1x256xi32> loc(#loc31)
    %tmp0 = arith.muli %xoffset, %c192_i32 : i32 loc(#loc35)
    %tmp0_2 = tt.splat %tmp0 : i32 -> tensor<1x256xi32> loc(#loc45)
    %tmp0_3 = arith.addi %r0_index_0, %tmp0_2 : tensor<1x256xi32> loc(#loc36)
    %tmp0_4 = tt.splat %in_ptr0 : !tt.ptr<f32> -> tensor<1x256x!tt.ptr<f32>> loc(#loc37)
    %tmp0_5 = tt.addptr %tmp0_4, %tmp0_3 : tensor<1x256x!tt.ptr<f32>>, tensor<1x256xi32> loc(#loc37)
    %tmp0_6 = tt.load %tmp0_5, %r0_mask_1, %cst : tensor<1x256x!tt.ptr<f32>> loc(#loc38)
    %tmp1 = arith.mulf %tmp0_6, %tmp0_6 : tensor<1x256xf32> loc(#loc39)
    %tmp4 = arith.select %r0_mask_1, %tmp1, %cst : tensor<1x256xi1>, tensor<1x256xf32> loc(#loc40)
    %tmp5 = "tt.reduce"(%tmp4) <{axis = 1 : i32}> ({
    ^bb0(%tmp5_10: f32 loc(callsite(#loc1 at #loc41)), %tmp5_11: f32 loc(callsite(#loc1 at #loc41))):
      %tmp5_12 = arith.addf %tmp5_10, %tmp5_11 : f32 loc(#loc48)
      tt.reduce.return %tmp5_12 : f32 loc(#loc46)
    }) : (tensor<1x256xf32>) -> tensor<1xf32> loc(#loc46)
    %tmp5_7 = tt.expand_dims %tmp5 {axis = 1 : i32} : tensor<1xf32> -> tensor<1x1xf32> loc(#loc42)
    %tmp6 = tt.extern_elementwise %tmp5_7 {libname = "", libpath = "", pure = true, symbol = "__nv_sqrtf"} : (tensor<1x1xf32>) -> tensor<1x1xf32> loc(#loc43)
    %tmp8_8 = arith.addf %tmp6, %tmp8 : tensor<1x1xf32> loc(#loc30)
    %tmp9 = tt.broadcast %tmp8_8 : tensor<1x1xf32> -> tensor<1x256xf32> loc(#loc44)
    %tmp9_9 = arith.divf %tmp0_6, %tmp9 : tensor<1x256xf32> loc(#loc44)
    gpu.barrier loc(#loc19)
    %0 = tt.addptr %in_out_ptr0, %xoffset : !tt.ptr<f32>, i32 loc(#loc20)
    %1 = tt.splat %0 : !tt.ptr<f32> -> tensor<1x1x!tt.ptr<f32>> loc(#loc20)
    tt.store %1, %tmp6 : tensor<1x1x!tt.ptr<f32>> loc(#loc21)
    %2 = tt.splat %out_ptr0 : !tt.ptr<f32> -> tensor<1x256x!tt.ptr<f32>> loc(#loc22)
    %3 = tt.addptr %2, %tmp0_3 : tensor<1x256x!tt.ptr<f32>>, tensor<1x256xi32> loc(#loc22)
    tt.store %3, %tmp9_9, %r0_mask_1 : tensor<1x256x!tt.ptr<f32>> loc(#loc23)
    tt.return loc(#loc24)
  } loc(#loc)
} loc(#loc)
#loc2 = loc("/NHNHOME/WORKSPACE/26msit001_A/jinhyeok/loop_TTT/lact/.cache_inductor_llm/g4/cg4z36wfyxyykiufp2tn5q4axwafsdr3gnmrwy7wcx76hrlcpzjh.py":41:18)
#loc3 = loc("/NHNHOME/WORKSPACE/26msit001_A/jinhyeok/loop_TTT/lact/.cache_inductor_llm/g4/cg4z36wfyxyykiufp2tn5q4axwafsdr3gnmrwy7wcx76hrlcpzjh.py":29:25)
#loc4 = loc("/NHNHOME/WORKSPACE/26msit001_A/jinhyeok/loop_TTT/lact/.cache_inductor_llm/g4/cg4z36wfyxyykiufp2tn5q4axwafsdr3gnmrwy7wcx76hrlcpzjh.py":24:28)
#loc5 = loc("/NHNHOME/WORKSPACE/26msit001_A/jinhyeok/loop_TTT/lact/.cache_inductor_llm/g4/cg4z36wfyxyykiufp2tn5q4axwafsdr3gnmrwy7wcx76hrlcpzjh.py":27:28)
#loc6 = loc("/NHNHOME/WORKSPACE/26msit001_A/jinhyeok/loop_TTT/lact/.cache_inductor_llm/g4/cg4z36wfyxyykiufp2tn5q4axwafsdr3gnmrwy7wcx76hrlcpzjh.py":27:38)
#loc7 = loc("/NHNHOME/WORKSPACE/26msit001_A/jinhyeok/loop_TTT/lact/.cache_inductor_llm/g4/cg4z36wfyxyykiufp2tn5q4axwafsdr3gnmrwy7wcx76hrlcpzjh.py":34:41)
#loc8 = loc("/NHNHOME/WORKSPACE/26msit001_A/jinhyeok/loop_TTT/lact/.cache_inductor_llm/g4/cg4z36wfyxyykiufp2tn5q4axwafsdr3gnmrwy7wcx76hrlcpzjh.py":34:37)
#loc9 = loc("/NHNHOME/WORKSPACE/26msit001_A/jinhyeok/loop_TTT/lact/.cache_inductor_llm/g4/cg4z36wfyxyykiufp2tn5q4axwafsdr3gnmrwy7wcx76hrlcpzjh.py":34:30)
#loc10 = loc("/NHNHOME/WORKSPACE/26msit001_A/jinhyeok/loop_TTT/lact/.cache_inductor_llm/g4/cg4z36wfyxyykiufp2tn5q4axwafsdr3gnmrwy7wcx76hrlcpzjh.py":34:46)
#loc11 = loc("/NHNHOME/WORKSPACE/26msit001_A/jinhyeok/loop_TTT/lact/.cache_inductor_llm/g4/cg4z36wfyxyykiufp2tn5q4axwafsdr3gnmrwy7wcx76hrlcpzjh.py":35:18)
#loc12 = loc("/NHNHOME/WORKSPACE/26msit001_A/jinhyeok/loop_TTT/lact/.cache_inductor_llm/g4/cg4z36wfyxyykiufp2tn5q4axwafsdr3gnmrwy7wcx76hrlcpzjh.py":37:35)
#loc13 = loc("/NHNHOME/WORKSPACE/26msit001_A/jinhyeok/TTT_camera_embedding/.venv_llm/lib/python3.12/site-packages/triton/language/standard.py":291:36)
#loc15 = loc("/NHNHOME/WORKSPACE/26msit001_A/jinhyeok/TTT_camera_embedding/.venv_llm/lib/python3.12/site-packages/triton/language/standard.py":261:15)
#loc16 = loc("/NHNHOME/WORKSPACE/26msit001_A/jinhyeok/loop_TTT/lact/.cache_inductor_llm/g4/cg4z36wfyxyykiufp2tn5q4axwafsdr3gnmrwy7wcx76hrlcpzjh.py":38:27)
#loc17 = loc("/NHNHOME/WORKSPACE/26msit001_A/jinhyeok/loop_TTT/lact/.cache_inductor_llm/g4/cg4z36wfyxyykiufp2tn5q4axwafsdr3gnmrwy7wcx76hrlcpzjh.py":39:26)
#loc18 = loc("/NHNHOME/WORKSPACE/26msit001_A/jinhyeok/loop_TTT/lact/.cache_inductor_llm/g4/cg4z36wfyxyykiufp2tn5q4axwafsdr3gnmrwy7wcx76hrlcpzjh.py":42:19)
#loc19 = loc("/NHNHOME/WORKSPACE/26msit001_A/jinhyeok/loop_TTT/lact/.cache_inductor_llm/g4/cg4z36wfyxyykiufp2tn5q4axwafsdr3gnmrwy7wcx76hrlcpzjh.py":43:4)
#loc20 = loc("/NHNHOME/WORKSPACE/26msit001_A/jinhyeok/loop_TTT/lact/.cache_inductor_llm/g4/cg4z36wfyxyykiufp2tn5q4axwafsdr3gnmrwy7wcx76hrlcpzjh.py":44:28)
#loc21 = loc("/NHNHOME/WORKSPACE/26msit001_A/jinhyeok/loop_TTT/lact/.cache_inductor_llm/g4/cg4z36wfyxyykiufp2tn5q4axwafsdr3gnmrwy7wcx76hrlcpzjh.py":44:39)
#loc22 = loc("/NHNHOME/WORKSPACE/26msit001_A/jinhyeok/loop_TTT/lact/.cache_inductor_llm/g4/cg4z36wfyxyykiufp2tn5q4axwafsdr3gnmrwy7wcx76hrlcpzjh.py":45:25)
#loc23 = loc("/NHNHOME/WORKSPACE/26msit001_A/jinhyeok/loop_TTT/lact/.cache_inductor_llm/g4/cg4z36wfyxyykiufp2tn5q4axwafsdr3gnmrwy7wcx76hrlcpzjh.py":45:47)
#loc24 = loc("/NHNHOME/WORKSPACE/26msit001_A/jinhyeok/loop_TTT/lact/.cache_inductor_llm/g4/cg4z36wfyxyykiufp2tn5q4axwafsdr3gnmrwy7wcx76hrlcpzjh.py":45:4)
#loc30 = loc("tmp8"(#loc2))
#loc31 = loc("r0_mask"(#loc3))
#loc32 = loc("xoffset"(#loc4))
#loc33 = loc("r0_index"(#loc5))
#loc34 = loc("r0_index"(#loc6))
#loc35 = loc("tmp0"(#loc7))
#loc36 = loc("tmp0"(#loc8))
#loc37 = loc("tmp0"(#loc9))
#loc38 = loc("tmp0"(#loc10))
#loc39 = loc("tmp1"(#loc11))
#loc40 = loc("tmp4"(#loc12))
#loc42 = loc("tmp5"(#loc16))
#loc43 = loc("tmp6"(#loc17))
#loc44 = loc("tmp9"(#loc18))
#loc45 = loc(fused[#loc36, #loc35])
#loc46 = loc(callsite(#loc13 at #loc41))
#loc48 = loc(callsite(#loc15 at #loc46))
