#loc = loc("/NHNHOME/WORKSPACE/26msit001_A/jinhyeok/TTT_camera_embedding/.venv_llm/lib/python3.12/site-packages/fla/modules/layernorm.py":195:0)
#loc38 = loc("/NHNHOME/WORKSPACE/26msit001_A/jinhyeok/TTT_camera_embedding/.venv_llm/lib/python3.12/site-packages/triton/language/standard.py":285:0)
#loc40 = loc(unknown)
#loc43 = loc("/NHNHOME/WORKSPACE/26msit001_A/jinhyeok/TTT_camera_embedding/.venv_llm/lib/python3.12/site-packages/triton/language/standard.py":260:0)
#loc47 = loc("x"(#loc))
#loc48 = loc("y"(#loc))
#loc49 = loc("w"(#loc))
#loc50 = loc("rstd"(#loc))
#loc51 = loc("eps"(#loc))
#loc52 = loc("T"(#loc))
#loc86 = loc("input"(#loc38))
#loc87 = loc("a"(#loc43))
#loc88 = loc("b"(#loc43))
module {
  tt.func public @layer_norm_fwd_kernel(%x: !tt.ptr<bf16> {tt.divisibility = 16 : i32} loc("x"(#loc)), %y: !tt.ptr<bf16> {tt.divisibility = 16 : i32} loc("y"(#loc)), %w: !tt.ptr<f32> {tt.divisibility = 16 : i32} loc("w"(#loc)), %rstd: !tt.ptr<f32> {tt.divisibility = 16 : i32} loc("rstd"(#loc)), %eps: f32 loc("eps"(#loc)), %T: i32 {tt.divisibility = 16 : i32} loc("T"(#loc))) attributes {noinline = false} {
    %i_t = tt.get_program_id x : i32 loc(#loc53)
    %o_t = arith.constant 128 : i32 loc(#loc54)
    %o_t_0 = arith.constant 128 : i32 loc(#loc54)
    %o_t_1 = arith.extsi %i_t : i32 to i64 loc(#loc54)
    %o_t_2 = arith.extsi %o_t_0 : i32 to i64 loc(#loc54)
    %o_t_3 = arith.muli %o_t_1, %o_t_2 : i64 loc(#loc54)
    %o_t_4 = arith.constant 2147483647 : i64 loc(#loc54)
    %o_t_5 = arith.constant -2147483648 : i64 loc(#loc54)
    %o_t_6 = arith.cmpi sle, %o_t_3, %o_t_4 : i64 loc(#loc54)
    %o_t_7 = arith.cmpi sge, %o_t_3, %o_t_5 : i64 loc(#loc54)
    %o_t_8 = arith.andi %o_t_6, %o_t_7 : i1 loc(#loc54)
    %o_t_9 = arith.muli %i_t, %o_t_0 : i32 loc(#loc54)
    %o_t_10 = tt.make_range {end = 128 : i32, start = 0 : i32} : tensor<128xi32> loc(#loc55)
    %o_t_11 = tt.splat %o_t_9 : i32 -> tensor<128xi32> loc(#loc56)
    %o_t_12 = arith.extsi %o_t_11 : tensor<128xi32> to tensor<128xi64> loc(#loc56)
    %o_t_13 = arith.extsi %o_t_10 : tensor<128xi32> to tensor<128xi64> loc(#loc56)
    %o_t_14 = arith.addi %o_t_12, %o_t_13 : tensor<128xi64> loc(#loc56)
    %o_t_15 = arith.constant 2147483647 : i64 loc(#loc56)
    %o_t_16 = arith.constant -2147483648 : i64 loc(#loc56)
    %o_t_17 = arith.constant dense<2147483647> : tensor<128xi64> loc(#loc56)
    %o_t_18 = arith.cmpi sle, %o_t_14, %o_t_17 : tensor<128xi64> loc(#loc56)
    %o_t_19 = arith.constant dense<-2147483648> : tensor<128xi64> loc(#loc56)
    %o_t_20 = arith.cmpi sge, %o_t_14, %o_t_19 : tensor<128xi64> loc(#loc56)
    %o_t_21 = arith.andi %o_t_18, %o_t_20 : tensor<128xi1> loc(#loc56)
    %o_t_22 = arith.addi %o_t_11, %o_t_10 : tensor<128xi32> loc(#loc56)
    %o_g = arith.constant 1 : i32 loc(#loc57)
    %o_g_23 = arith.constant 1 : i32 loc(#loc57)
    %o_g_24 = arith.constant dense<1> : tensor<128xi32> loc(#loc57)
    %o_g_25 = arith.remsi %o_t_22, %o_g_24 : tensor<128xi32> loc(#loc57)
    %o_d = tt.make_range {end = 256 : i32, start = 0 : i32} : tensor<256xi32> loc(#loc58)
    %m_d = arith.constant 192 : i32 loc(#loc59)
    %m_d_26 = arith.constant dense<192> : tensor<256xi32> loc(#loc59)
    %m_d_27 = arith.cmpi slt, %o_d, %m_d_26 : tensor<256xi32> loc(#loc59)
    %p_x = arith.constant 128 : i32 loc(#loc60)
    %p_x_28 = arith.constant 128 : i32 loc(#loc60)
    %p_x_29 = arith.extsi %i_t : i32 to i64 loc(#loc60)
    %p_x_30 = arith.extsi %p_x_28 : i32 to i64 loc(#loc60)
    %p_x_31 = arith.muli %p_x_29, %p_x_30 : i64 loc(#loc60)
    %p_x_32 = arith.constant 2147483647 : i64 loc(#loc60)
    %p_x_33 = arith.constant -2147483648 : i64 loc(#loc60)
    %p_x_34 = arith.cmpi sle, %p_x_31, %p_x_32 : i64 loc(#loc60)
    %p_x_35 = arith.cmpi sge, %p_x_31, %p_x_33 : i64 loc(#loc60)
    %p_x_36 = arith.andi %p_x_34, %p_x_35 : i1 loc(#loc60)
    %p_x_37 = arith.muli %i_t, %p_x_28 : i32 loc(#loc60)
    %p_x_38 = arith.extsi %T : i32 to i64 loc(#loc61)
    %p_x_39 = arith.constant 192 : i64 loc(#loc61)
    %p_x_40 = arith.constant 192 : i64 loc(#loc61)
    %p_x_41 = arith.constant 1 : i64 loc(#loc61)
    %p_x_42 = arith.constant 0 : i32 loc(#loc61)
    %p_x_43 = tt.make_tensor_ptr %x, [%p_x_38, %p_x_39], [%p_x_40, %p_x_41], [%p_x_37, %p_x_42] {order = array<i32: 1, 0>} : <tensor<128x256xbf16>> loc(#loc61)
    %b_x = tt.load %p_x_43 {boundaryCheck = array<i32: 0, 1>} : !tt.ptr<tensor<128x256xbf16>> loc(#loc62)
    %b_x_44 = arith.extf %b_x : tensor<128x256xbf16> to tensor<128x256xf32> loc(#loc63)
    %b_xbar = tt.expand_dims %m_d_27 {axis = 0 : i32} : tensor<256xi1> -> tensor<1x256xi1> loc(#loc64)
    %b_xbar_45 = arith.constant 0.000000e+00 : f32 loc(#loc65)
    %b_xbar_46 = arith.constant 0.000000e+00 : f32 loc(#loc65)
    %b_xbar_47 = arith.constant dense<0.000000e+00> : tensor<128x256xf32> loc(#loc65)
    %b_xbar_48 = tt.broadcast %b_xbar : tensor<1x256xi1> -> tensor<128x256xi1> loc(#loc65)
    %b_xbar_49 = arith.select %b_xbar_48, %b_x_44, %b_xbar_47 : tensor<128x256xi1>, tensor<128x256xf32> loc(#loc65)
    %b_var = arith.mulf %b_xbar_49, %b_xbar_49 : tensor<128x256xf32> loc(#loc66)
    %b_var_50 = tt.call @"triton.language.standard.sum__fp32S128_256S__(1,)cconstexpr_1__(2,)cconstexpr_False__(3,)cNone"(%b_var) : (tensor<128x256xf32>) -> tensor<128xf32> loc(#loc67)
    %b_var_51 = arith.constant 192 : i32 loc(#loc68)
    %b_var_52 = arith.constant 1.920000e+02 : f32 loc(#loc68)
    %b_var_53 = arith.constant dense<1.920000e+02> : tensor<128xf32> loc(#loc68)
    %b_var_54 = arith.divf %b_var_50, %b_var_53 : tensor<128xf32> loc(#loc68)
    %b_rstd = tt.splat %eps : f32 -> tensor<128xf32> loc(#loc69)
    %b_rstd_55 = arith.addf %b_var_54, %b_rstd : tensor<128xf32> loc(#loc69)
    %b_rstd_56 = math.sqrt %b_rstd_55 : tensor<128xf32> loc(#loc70)
    %b_rstd_57 = arith.constant 1 : i32 loc(#loc71)
    %b_rstd_58 = arith.constant 1.000000e+00 : f32 loc(#loc71)
    %b_rstd_59 = arith.constant dense<1.000000e+00> : tensor<128xf32> loc(#loc71)
    %b_rstd_60 = arith.divf %b_rstd_59, %b_rstd_56 : tensor<128xf32> loc(#loc71)
    %p_rstd = arith.constant 128 : i32 loc(#loc72)
    %p_rstd_61 = arith.constant 128 : i32 loc(#loc72)
    %p_rstd_62 = arith.extsi %i_t : i32 to i64 loc(#loc72)
    %p_rstd_63 = arith.extsi %p_rstd_61 : i32 to i64 loc(#loc72)
    %p_rstd_64 = arith.muli %p_rstd_62, %p_rstd_63 : i64 loc(#loc72)
    %p_rstd_65 = arith.constant 2147483647 : i64 loc(#loc72)
    %p_rstd_66 = arith.constant -2147483648 : i64 loc(#loc72)
    %p_rstd_67 = arith.cmpi sle, %p_rstd_64, %p_rstd_65 : i64 loc(#loc72)
    %p_rstd_68 = arith.cmpi sge, %p_rstd_64, %p_rstd_66 : i64 loc(#loc72)
    %p_rstd_69 = arith.andi %p_rstd_67, %p_rstd_68 : i1 loc(#loc72)
    %p_rstd_70 = arith.muli %i_t, %p_rstd_61 : i32 loc(#loc72)
    %p_rstd_71 = arith.extsi %T : i32 to i64 loc(#loc73)
    %p_rstd_72 = arith.constant 1 : i64 loc(#loc73)
    %p_rstd_73 = tt.make_tensor_ptr %rstd, [%p_rstd_71], [%p_rstd_72], [%p_rstd_70] {order = array<i32: 0>} : <tensor<128xf32>> loc(#loc73)
    tt.store %p_rstd_73, %b_rstd_60 {boundaryCheck = array<i32: 0>} : !tt.ptr<tensor<128xf32>> loc(#loc22)
    %b_w = tt.expand_dims %m_d_27 {axis = 0 : i32} : tensor<256xi1> -> tensor<1x256xi1> loc(#loc74)
    %b_w_74 = tt.expand_dims %o_g_25 {axis = 1 : i32} : tensor<128xi32> -> tensor<128x1xi32> loc(#loc75)
    %b_w_75 = arith.constant 192 : i32 loc(#loc76)
    %b_w_76 = arith.constant 192 : i32 loc(#loc76)
    %b_w_77 = arith.constant dense<192> : tensor<128x1xi32> loc(#loc76)
    %b_w_78 = arith.extsi %b_w_74 : tensor<128x1xi32> to tensor<128x1xi64> loc(#loc76)
    %b_w_79 = arith.extsi %b_w_77 : tensor<128x1xi32> to tensor<128x1xi64> loc(#loc76)
    %b_w_80 = arith.muli %b_w_78, %b_w_79 : tensor<128x1xi64> loc(#loc76)
    %b_w_81 = arith.constant 2147483647 : i64 loc(#loc76)
    %b_w_82 = arith.constant -2147483648 : i64 loc(#loc76)
    %b_w_83 = arith.constant dense<2147483647> : tensor<128x1xi64> loc(#loc76)
    %b_w_84 = arith.cmpi sle, %b_w_80, %b_w_83 : tensor<128x1xi64> loc(#loc76)
    %b_w_85 = arith.constant dense<-2147483648> : tensor<128x1xi64> loc(#loc76)
    %b_w_86 = arith.cmpi sge, %b_w_80, %b_w_85 : tensor<128x1xi64> loc(#loc76)
    %b_w_87 = arith.andi %b_w_84, %b_w_86 : tensor<128x1xi1> loc(#loc76)
    %b_w_88 = arith.muli %b_w_74, %b_w_77 : tensor<128x1xi32> loc(#loc76)
    %b_w_89 = tt.splat %w : !tt.ptr<f32> -> tensor<128x1x!tt.ptr<f32>> loc(#loc77)
    %b_w_90 = tt.addptr %b_w_89, %b_w_88 : tensor<128x1x!tt.ptr<f32>>, tensor<128x1xi32> loc(#loc77)
    %b_w_91 = tt.expand_dims %o_d {axis = 0 : i32} : tensor<256xi32> -> tensor<1x256xi32> loc(#loc78)
    %b_w_92 = tt.broadcast %b_w_90 : tensor<128x1x!tt.ptr<f32>> -> tensor<128x256x!tt.ptr<f32>> loc(#loc79)
    %b_w_93 = tt.broadcast %b_w_91 : tensor<1x256xi32> -> tensor<128x256xi32> loc(#loc79)
    %b_w_94 = tt.addptr %b_w_92, %b_w_93 : tensor<128x256x!tt.ptr<f32>>, tensor<128x256xi32> loc(#loc79)
    %b_w_95 = tt.broadcast %b_w : tensor<1x256xi1> -> tensor<128x256xi1> loc(#loc80)
    %b_w_96 = tt.load %b_w_94, %b_w_95 : tensor<128x256x!tt.ptr<f32>> loc(#loc80)
    %b_x_hat = tt.expand_dims %b_rstd_60 {axis = 1 : i32} : tensor<128xf32> -> tensor<128x1xf32> loc(#loc81)
    %b_x_hat_97 = tt.broadcast %b_x_hat : tensor<128x1xf32> -> tensor<128x256xf32> loc(#loc82)
    %b_x_hat_98 = arith.mulf %b_x_44, %b_x_hat_97 : tensor<128x256xf32> loc(#loc82)
    %b_y = arith.mulf %b_x_hat_98, %b_w_96 : tensor<128x256xf32> loc(#loc83)
    %p_y = arith.constant 128 : i32 loc(#loc84)
    %p_y_99 = arith.constant 128 : i32 loc(#loc84)
    %p_y_100 = arith.extsi %i_t : i32 to i64 loc(#loc84)
    %p_y_101 = arith.extsi %p_y_99 : i32 to i64 loc(#loc84)
    %p_y_102 = arith.muli %p_y_100, %p_y_101 : i64 loc(#loc84)
    %p_y_103 = arith.constant 2147483647 : i64 loc(#loc84)
    %p_y_104 = arith.constant -2147483648 : i64 loc(#loc84)
    %p_y_105 = arith.cmpi sle, %p_y_102, %p_y_103 : i64 loc(#loc84)
    %p_y_106 = arith.cmpi sge, %p_y_102, %p_y_104 : i64 loc(#loc84)
    %p_y_107 = arith.andi %p_y_105, %p_y_106 : i1 loc(#loc84)
    %p_y_108 = arith.muli %i_t, %p_y_99 : i32 loc(#loc84)
    %p_y_109 = arith.extsi %T : i32 to i64 loc(#loc85)
    %p_y_110 = arith.constant 192 : i64 loc(#loc85)
    %p_y_111 = arith.constant 192 : i64 loc(#loc85)
    %p_y_112 = arith.constant 1 : i64 loc(#loc85)
    %p_y_113 = arith.constant 0 : i32 loc(#loc85)
    %p_y_114 = tt.make_tensor_ptr %y, [%p_y_109, %p_y_110], [%p_y_111, %p_y_112], [%p_y_108, %p_y_113] {order = array<i32: 1, 0>} : <tensor<128x256xbf16>> loc(#loc85)
    %0 = arith.truncf %b_y : tensor<128x256xf32> to tensor<128x256xbf16> loc(#loc35)
    tt.store %p_y_114, %0 {boundaryCheck = array<i32: 0, 1>} : !tt.ptr<tensor<128x256xbf16>> loc(#loc36)
    tt.return loc(#loc37)
  } loc(#loc)
  tt.func private @"triton.language.standard.sum__fp32S128_256S__(1,)cconstexpr_1__(2,)cconstexpr_False__(3,)cNone"(%input: tensor<128x256xf32> loc("input"(#loc38))) -> tensor<128xf32> attributes {noinline = false} {
    %0 = "tt.reduce"(%input) <{axis = 1 : i32}> ({
    ^bb0(%arg1: f32 loc(unknown), %arg2: f32 loc(unknown)):
      %2 = tt.call @triton.language.standard._sum_combine__fp32_fp32__(%arg1, %arg2) : (f32, f32) -> f32 loc(#loc39)
      tt.reduce.return %2 : f32 loc(#loc39)
    }) : (tensor<128x256xf32>) -> tensor<128xf32> loc(#loc39)
    tt.return %0 : tensor<128xf32> loc(#loc41)
  ^bb1:  // no predecessors
    %1 = ub.poison : tensor<128xf32> loc(#loc42)
    tt.return %1 : tensor<128xf32> loc(#loc42)
  } loc(#loc38)
  tt.func private @triton.language.standard._sum_combine__fp32_fp32__(%a: f32 loc("a"(#loc43)), %b: f32 loc("b"(#loc43))) -> f32 attributes {noinline = false} {
    %0 = arith.addf %a, %b : f32 loc(#loc44)
    tt.return %0 : f32 loc(#loc45)
  ^bb1:  // no predecessors
    %1 = ub.poison : f32 loc(#loc46)
    tt.return %1 : f32 loc(#loc46)
  } loc(#loc43)
} loc(#loc)
#loc1 = loc("/NHNHOME/WORKSPACE/26msit001_A/jinhyeok/TTT_camera_embedding/.venv_llm/lib/python3.12/site-packages/fla/modules/layernorm.py":217:24)
#loc2 = loc("/NHNHOME/WORKSPACE/26msit001_A/jinhyeok/TTT_camera_embedding/.venv_llm/lib/python3.12/site-packages/fla/modules/layernorm.py":219:16)
#loc3 = loc("/NHNHOME/WORKSPACE/26msit001_A/jinhyeok/TTT_camera_embedding/.venv_llm/lib/python3.12/site-packages/fla/modules/layernorm.py":219:34)
#loc4 = loc("/NHNHOME/WORKSPACE/26msit001_A/jinhyeok/TTT_camera_embedding/.venv_llm/lib/python3.12/site-packages/fla/modules/layernorm.py":219:21)
#loc5 = loc("/NHNHOME/WORKSPACE/26msit001_A/jinhyeok/TTT_camera_embedding/.venv_llm/lib/python3.12/site-packages/fla/modules/layernorm.py":220:16)
#loc6 = loc("/NHNHOME/WORKSPACE/26msit001_A/jinhyeok/TTT_camera_embedding/.venv_llm/lib/python3.12/site-packages/fla/modules/layernorm.py":221:23)
#loc7 = loc("/NHNHOME/WORKSPACE/26msit001_A/jinhyeok/TTT_camera_embedding/.venv_llm/lib/python3.12/site-packages/fla/modules/layernorm.py":222:16)
#loc8 = loc("/NHNHOME/WORKSPACE/26msit001_A/jinhyeok/TTT_camera_embedding/.venv_llm/lib/python3.12/site-packages/fla/modules/layernorm.py":224:54)
#loc9 = loc("/NHNHOME/WORKSPACE/26msit001_A/jinhyeok/TTT_camera_embedding/.venv_llm/lib/python3.12/site-packages/fla/modules/layernorm.py":224:72)
#loc10 = loc("/NHNHOME/WORKSPACE/26msit001_A/jinhyeok/TTT_camera_embedding/.venv_llm/lib/python3.12/site-packages/fla/modules/layernorm.py":225:18)
#loc11 = loc("/NHNHOME/WORKSPACE/26msit001_A/jinhyeok/TTT_camera_embedding/.venv_llm/lib/python3.12/site-packages/fla/modules/layernorm.py":225:49)
#loc12 = loc("/NHNHOME/WORKSPACE/26msit001_A/jinhyeok/TTT_camera_embedding/.venv_llm/lib/python3.12/site-packages/fla/modules/layernorm.py":239:30)
#loc13 = loc("/NHNHOME/WORKSPACE/26msit001_A/jinhyeok/TTT_camera_embedding/.venv_llm/lib/python3.12/site-packages/fla/modules/layernorm.py":239:45)
#loc14 = loc("/NHNHOME/WORKSPACE/26msit001_A/jinhyeok/TTT_camera_embedding/.venv_llm/lib/python3.12/site-packages/fla/modules/layernorm.py":240:32)
#loc15 = loc("/NHNHOME/WORKSPACE/26msit001_A/jinhyeok/TTT_camera_embedding/.venv_llm/lib/python3.12/site-packages/fla/modules/layernorm.py":240:23)
#loc16 = loc("/NHNHOME/WORKSPACE/26msit001_A/jinhyeok/TTT_camera_embedding/.venv_llm/lib/python3.12/site-packages/fla/modules/layernorm.py":240:50)
#loc17 = loc("/NHNHOME/WORKSPACE/26msit001_A/jinhyeok/TTT_camera_embedding/.venv_llm/lib/python3.12/site-packages/fla/modules/layernorm.py":241:33)
#loc18 = loc("/NHNHOME/WORKSPACE/26msit001_A/jinhyeok/TTT_camera_embedding/.venv_llm/lib/python3.12/site-packages/fla/modules/layernorm.py":241:25)
#loc19 = loc("/NHNHOME/WORKSPACE/26msit001_A/jinhyeok/TTT_camera_embedding/.venv_llm/lib/python3.12/site-packages/fla/modules/layernorm.py":241:17)
#loc20 = loc("/NHNHOME/WORKSPACE/26msit001_A/jinhyeok/TTT_camera_embedding/.venv_llm/lib/python3.12/site-packages/fla/modules/layernorm.py":243:56)
#loc21 = loc("/NHNHOME/WORKSPACE/26msit001_A/jinhyeok/TTT_camera_embedding/.venv_llm/lib/python3.12/site-packages/fla/modules/layernorm.py":243:69)
#loc22 = loc("/NHNHOME/WORKSPACE/26msit001_A/jinhyeok/TTT_camera_embedding/.venv_llm/lib/python3.12/site-packages/fla/modules/layernorm.py":244:21)
#loc23 = loc("/NHNHOME/WORKSPACE/26msit001_A/jinhyeok/TTT_camera_embedding/.venv_llm/lib/python3.12/site-packages/fla/modules/layernorm.py":247:68)
#loc24 = loc("/NHNHOME/WORKSPACE/26msit001_A/jinhyeok/TTT_camera_embedding/.venv_llm/lib/python3.12/site-packages/fla/modules/layernorm.py":247:30)
#loc25 = loc("/NHNHOME/WORKSPACE/26msit001_A/jinhyeok/TTT_camera_embedding/.venv_llm/lib/python3.12/site-packages/fla/modules/layernorm.py":247:41)
#loc26 = loc("/NHNHOME/WORKSPACE/26msit001_A/jinhyeok/TTT_camera_embedding/.venv_llm/lib/python3.12/site-packages/fla/modules/layernorm.py":247:26)
#loc27 = loc("/NHNHOME/WORKSPACE/26msit001_A/jinhyeok/TTT_camera_embedding/.venv_llm/lib/python3.12/site-packages/fla/modules/layernorm.py":247:49)
#loc28 = loc("/NHNHOME/WORKSPACE/26msit001_A/jinhyeok/TTT_camera_embedding/.venv_llm/lib/python3.12/site-packages/fla/modules/layernorm.py":247:45)
#loc29 = loc("/NHNHOME/WORKSPACE/26msit001_A/jinhyeok/TTT_camera_embedding/.venv_llm/lib/python3.12/site-packages/fla/modules/layernorm.py":247:22)
#loc30 = loc("/NHNHOME/WORKSPACE/26msit001_A/jinhyeok/TTT_camera_embedding/.venv_llm/lib/python3.12/site-packages/fla/modules/layernorm.py":250:93)
#loc31 = loc("/NHNHOME/WORKSPACE/26msit001_A/jinhyeok/TTT_camera_embedding/.venv_llm/lib/python3.12/site-packages/fla/modules/layernorm.py":250:86)
#loc32 = loc("/NHNHOME/WORKSPACE/26msit001_A/jinhyeok/TTT_camera_embedding/.venv_llm/lib/python3.12/site-packages/fla/modules/layernorm.py":251:20)
#loc33 = loc("/NHNHOME/WORKSPACE/26msit001_A/jinhyeok/TTT_camera_embedding/.venv_llm/lib/python3.12/site-packages/fla/modules/layernorm.py":256:54)
#loc34 = loc("/NHNHOME/WORKSPACE/26msit001_A/jinhyeok/TTT_camera_embedding/.venv_llm/lib/python3.12/site-packages/fla/modules/layernorm.py":256:72)
#loc35 = loc("/NHNHOME/WORKSPACE/26msit001_A/jinhyeok/TTT_camera_embedding/.venv_llm/lib/python3.12/site-packages/fla/modules/layernorm.py":257:25)
#loc36 = loc("/NHNHOME/WORKSPACE/26msit001_A/jinhyeok/TTT_camera_embedding/.venv_llm/lib/python3.12/site-packages/fla/modules/layernorm.py":257:18)
#loc37 = loc("/NHNHOME/WORKSPACE/26msit001_A/jinhyeok/TTT_camera_embedding/.venv_llm/lib/python3.12/site-packages/fla/modules/layernorm.py":257:4)
#loc39 = loc("/NHNHOME/WORKSPACE/26msit001_A/jinhyeok/TTT_camera_embedding/.venv_llm/lib/python3.12/site-packages/triton/language/standard.py":291:36)
#loc41 = loc("/NHNHOME/WORKSPACE/26msit001_A/jinhyeok/TTT_camera_embedding/.venv_llm/lib/python3.12/site-packages/triton/language/standard.py":291:11)
#loc42 = loc("/NHNHOME/WORKSPACE/26msit001_A/jinhyeok/TTT_camera_embedding/.venv_llm/lib/python3.12/site-packages/triton/language/standard.py":291:4)
#loc44 = loc("/NHNHOME/WORKSPACE/26msit001_A/jinhyeok/TTT_camera_embedding/.venv_llm/lib/python3.12/site-packages/triton/language/standard.py":261:15)
#loc45 = loc("/NHNHOME/WORKSPACE/26msit001_A/jinhyeok/TTT_camera_embedding/.venv_llm/lib/python3.12/site-packages/triton/language/standard.py":261:11)
#loc46 = loc("/NHNHOME/WORKSPACE/26msit001_A/jinhyeok/TTT_camera_embedding/.venv_llm/lib/python3.12/site-packages/triton/language/standard.py":261:4)
#loc53 = loc("i_t"(#loc1))
#loc54 = loc("o_t"(#loc2))
#loc55 = loc("o_t"(#loc3))
#loc56 = loc("o_t"(#loc4))
#loc57 = loc("o_g"(#loc5))
#loc58 = loc("o_d"(#loc6))
#loc59 = loc("m_d"(#loc7))
#loc60 = loc("p_x"(#loc8))
#loc61 = loc("p_x"(#loc9))
#loc62 = loc("b_x"(#loc10))
#loc63 = loc("b_x"(#loc11))
#loc64 = loc("b_xbar"(#loc12))
#loc65 = loc("b_xbar"(#loc13))
#loc66 = loc("b_var"(#loc14))
#loc67 = loc("b_var"(#loc15))
#loc68 = loc("b_var"(#loc16))
#loc69 = loc("b_rstd"(#loc17))
#loc70 = loc("b_rstd"(#loc18))
#loc71 = loc("b_rstd"(#loc19))
#loc72 = loc("p_rstd"(#loc20))
#loc73 = loc("p_rstd"(#loc21))
#loc74 = loc("b_w"(#loc23))
#loc75 = loc("b_w"(#loc24))
#loc76 = loc("b_w"(#loc25))
#loc77 = loc("b_w"(#loc26))
#loc78 = loc("b_w"(#loc27))
#loc79 = loc("b_w"(#loc28))
#loc80 = loc("b_w"(#loc29))
#loc81 = loc("b_x_hat"(#loc30))
#loc82 = loc("b_x_hat"(#loc31))
#loc83 = loc("b_y"(#loc32))
#loc84 = loc("p_y"(#loc33))
#loc85 = loc("p_y"(#loc34))
