#loc = loc("/NHNHOME/WORKSPACE/26msit001_A/jinhyeok/loop_TTT/lact/.cache_inductor_llm/7e/c7evyjy4xhdeppjftm7ly6ly5atgbbptnpncjgkdnj4o2pb6aaou.py":18:0)
#loc73 = loc("/NHNHOME/WORKSPACE/26msit001_A/jinhyeok/TTT_camera_embedding/.venv_llm/lib/python3.12/site-packages/triton/language/standard.py":285:0)
#loc75 = loc(unknown)
#loc78 = loc("/NHNHOME/WORKSPACE/26msit001_A/jinhyeok/TTT_camera_embedding/.venv_llm/lib/python3.12/site-packages/triton/language/standard.py":260:0)
#loc82 = loc("in_out_ptr0"(#loc))
#loc83 = loc("in_out_ptr1"(#loc))
#loc84 = loc("in_ptr0"(#loc))
#loc85 = loc("in_ptr1"(#loc))
#loc86 = loc("in_ptr2"(#loc))
#loc87 = loc("in_ptr3"(#loc))
#loc88 = loc("out_ptr0"(#loc))
#loc89 = loc("out_ptr1"(#loc))
#loc90 = loc("xnumel"(#loc))
#loc91 = loc("r0_numel"(#loc))
#loc145 = loc("input"(#loc73))
#loc146 = loc("a"(#loc78))
#loc147 = loc("b"(#loc78))
module {
  tt.func public @triton_per_fused__to_copy_add_div_linalg_vector_norm_mul_transpose_44(%in_out_ptr0: !tt.ptr<f32> {tt.divisibility = 16 : i32} loc("in_out_ptr0"(#loc)), %in_out_ptr1: !tt.ptr<f32> {tt.divisibility = 16 : i32} loc("in_out_ptr1"(#loc)), %in_ptr0: !tt.ptr<f32> {tt.divisibility = 16 : i32} loc("in_ptr0"(#loc)), %in_ptr1: !tt.ptr<bf16> {tt.divisibility = 16 : i32} loc("in_ptr1"(#loc)), %in_ptr2: !tt.ptr<bf16> {tt.divisibility = 16 : i32} loc("in_ptr2"(#loc)), %in_ptr3: !tt.ptr<f32> {tt.divisibility = 16 : i32} loc("in_ptr3"(#loc)), %out_ptr0: !tt.ptr<bf16> {tt.divisibility = 16 : i32} loc("out_ptr0"(#loc)), %out_ptr1: !tt.ptr<bf16> {tt.divisibility = 16 : i32} loc("out_ptr1"(#loc)), %xnumel: i32 {tt.divisibility = 16 : i32} loc("xnumel"(#loc)), %r0_numel: i32 {tt.divisibility = 16 : i32} loc("r0_numel"(#loc))) attributes {noinline = false} {
    %xnumel_0 = arith.constant 18432 : i32 loc(#loc92)
    %r0_numel_1 = arith.constant 192 : i32 loc(#loc93)
    %xoffset = tt.get_program_id x : i32 loc(#loc94)
    %xoffset_2 = arith.constant 1 : i32 loc(#loc95)
    %xoffset_3 = arith.constant 1 : i32 loc(#loc95)
    %xoffset_4 = arith.muli %xoffset, %xoffset_3 : i32 loc(#loc95)
    %xindex = tt.make_range {end = 1 : i32, start = 0 : i32} : tensor<1xi32> loc(#loc96)
    %xindex_5 = tt.expand_dims %xindex {axis = 1 : i32} : tensor<1xi32> -> tensor<1x1xi32> loc(#loc97)
    %xindex_6 = tt.splat %xoffset_4 : i32 -> tensor<1x1xi32> loc(#loc98)
    %xindex_7 = arith.addi %xindex_6, %xindex_5 : tensor<1x1xi32> loc(#loc98)
    %xmask = arith.constant dense<18432> : tensor<1x1xi32> loc(#loc99)
    %xmask_8 = arith.cmpi slt, %xindex_7, %xmask : tensor<1x1xi32> loc(#loc99)
    %r0_index = tt.make_range {end = 256 : i32, start = 0 : i32} : tensor<256xi32> loc(#loc100)
    %r0_index_9 = tt.expand_dims %r0_index {axis = 0 : i32} : tensor<256xi32> -> tensor<1x256xi32> loc(#loc101)
    %r0_offset = arith.constant 0 : i32 loc(#loc102)
    %r0_mask = arith.constant dense<192> : tensor<1x256xi32> loc(#loc103)
    %r0_mask_10 = arith.cmpi slt, %r0_index_9, %r0_mask : tensor<1x256xi32> loc(#loc103)
    %tmp0 = arith.constant 192 : i32 loc(#loc104)
    %tmp0_11 = arith.constant 192 : i32 loc(#loc104)
    %tmp0_12 = arith.constant dense<192> : tensor<1x1xi32> loc(#loc104)
    %tmp0_13 = arith.muli %tmp0_12, %xindex_7 : tensor<1x1xi32> loc(#loc104)
    %tmp0_14 = tt.broadcast %tmp0_13 : tensor<1x1xi32> -> tensor<1x256xi32> loc(#loc105)
    %tmp0_15 = arith.addi %r0_index_9, %tmp0_14 : tensor<1x256xi32> loc(#loc105)
    %tmp0_16 = tt.splat %in_ptr0 : !tt.ptr<f32> -> tensor<1x256x!tt.ptr<f32>> loc(#loc106)
    %tmp0_17 = tt.addptr %tmp0_16, %tmp0_15 : tensor<1x256x!tt.ptr<f32>>, tensor<1x256xi32> loc(#loc106)
    %tmp0_18 = tt.broadcast %xmask_8 : tensor<1x1xi1> -> tensor<1x256xi1> loc(#loc107)
    %tmp0_19 = arith.andi %r0_mask_10, %tmp0_18 : tensor<1x256xi1> loc(#loc107)
    %tmp0_20 = arith.constant 0.000000e+00 : f32 loc(#loc108)
    %tmp0_21 = arith.constant dense<0.000000e+00> : tensor<1x256xf32> loc(#loc108)
    %tmp0_22 = tt.load %tmp0_17, %tmp0_19, %tmp0_21 : tensor<1x256x!tt.ptr<f32>> loc(#loc108)
    %tmp1 = arith.constant 192 : i32 loc(#loc109)
    %tmp1_23 = arith.constant 192 : i32 loc(#loc109)
    %tmp1_24 = arith.constant dense<192> : tensor<1x1xi32> loc(#loc109)
    %tmp1_25 = arith.muli %tmp1_24, %xindex_7 : tensor<1x1xi32> loc(#loc109)
    %tmp1_26 = tt.broadcast %tmp1_25 : tensor<1x1xi32> -> tensor<1x256xi32> loc(#loc110)
    %tmp1_27 = arith.addi %r0_index_9, %tmp1_26 : tensor<1x256xi32> loc(#loc110)
    %tmp1_28 = tt.splat %in_out_ptr0 : !tt.ptr<f32> -> tensor<1x256x!tt.ptr<f32>> loc(#loc111)
    %tmp1_29 = tt.addptr %tmp1_28, %tmp1_27 : tensor<1x256x!tt.ptr<f32>>, tensor<1x256xi32> loc(#loc111)
    %tmp1_30 = tt.broadcast %xmask_8 : tensor<1x1xi1> -> tensor<1x256xi1> loc(#loc112)
    %tmp1_31 = arith.andi %r0_mask_10, %tmp1_30 : tensor<1x256xi1> loc(#loc112)
    %tmp1_32 = arith.constant 0.000000e+00 : f32 loc(#loc113)
    %tmp1_33 = arith.constant dense<0.000000e+00> : tensor<1x256xf32> loc(#loc113)
    %tmp1_34 = tt.load %tmp1_29, %tmp1_31, %tmp1_33 : tensor<1x256x!tt.ptr<f32>> loc(#loc113)
    %tmp4 = arith.constant 192 : i32 loc(#loc114)
    %tmp4_35 = arith.constant 192 : i32 loc(#loc114)
    %tmp4_36 = arith.constant dense<192> : tensor<1x1xi32> loc(#loc114)
    %tmp4_37 = arith.muli %tmp4_36, %xindex_7 : tensor<1x1xi32> loc(#loc114)
    %tmp4_38 = tt.broadcast %tmp4_37 : tensor<1x1xi32> -> tensor<1x256xi32> loc(#loc115)
    %tmp4_39 = arith.addi %r0_index_9, %tmp4_38 : tensor<1x256xi32> loc(#loc115)
    %tmp4_40 = tt.splat %in_ptr1 : !tt.ptr<bf16> -> tensor<1x256x!tt.ptr<bf16>> loc(#loc116)
    %tmp4_41 = tt.addptr %tmp4_40, %tmp4_39 : tensor<1x256x!tt.ptr<bf16>>, tensor<1x256xi32> loc(#loc116)
    %tmp4_42 = tt.broadcast %xmask_8 : tensor<1x1xi1> -> tensor<1x256xi1> loc(#loc117)
    %tmp4_43 = arith.andi %r0_mask_10, %tmp4_42 : tensor<1x256xi1> loc(#loc117)
    %tmp4_44 = arith.constant 0.000000e+00 : f32 loc(#loc118)
    %tmp4_45 = arith.constant dense<0.000000e+00> : tensor<1x256xf32> loc(#loc118)
    %tmp4_46 = arith.truncf %tmp4_45 : tensor<1x256xf32> to tensor<1x256xbf16> loc(#loc118)
    %tmp4_47 = tt.load %tmp4_41, %tmp4_43, %tmp4_46 : tensor<1x256x!tt.ptr<bf16>> loc(#loc118)
    %tmp4_48 = arith.extf %tmp4_47 : tensor<1x256xbf16> to tensor<1x256xf32> loc(#loc119)
    %tmp9 = arith.constant 192 : i32 loc(#loc120)
    %tmp9_49 = arith.constant 192 : i32 loc(#loc120)
    %tmp9_50 = arith.constant dense<192> : tensor<1x1xi32> loc(#loc120)
    %tmp9_51 = arith.muli %tmp9_50, %xindex_7 : tensor<1x1xi32> loc(#loc120)
    %tmp9_52 = tt.broadcast %tmp9_51 : tensor<1x1xi32> -> tensor<1x256xi32> loc(#loc121)
    %tmp9_53 = arith.addi %r0_index_9, %tmp9_52 : tensor<1x256xi32> loc(#loc121)
    %tmp9_54 = tt.splat %in_ptr2 : !tt.ptr<bf16> -> tensor<1x256x!tt.ptr<bf16>> loc(#loc122)
    %tmp9_55 = tt.addptr %tmp9_54, %tmp9_53 : tensor<1x256x!tt.ptr<bf16>>, tensor<1x256xi32> loc(#loc122)
    %tmp9_56 = tt.broadcast %xmask_8 : tensor<1x1xi1> -> tensor<1x256xi1> loc(#loc123)
    %tmp9_57 = arith.andi %r0_mask_10, %tmp9_56 : tensor<1x256xi1> loc(#loc123)
    %tmp9_58 = arith.constant 0.000000e+00 : f32 loc(#loc124)
    %tmp9_59 = arith.constant dense<0.000000e+00> : tensor<1x256xf32> loc(#loc124)
    %tmp9_60 = arith.truncf %tmp9_59 : tensor<1x256xf32> to tensor<1x256xbf16> loc(#loc124)
    %tmp9_61 = tt.load %tmp9_55, %tmp9_57, %tmp9_60 : tensor<1x256x!tt.ptr<bf16>> loc(#loc124)
    %tmp9_62 = arith.extf %tmp9_61 : tensor<1x256xbf16> to tensor<1x256xf32> loc(#loc125)
    %tmp22 = tt.splat %in_ptr3 : !tt.ptr<f32> -> tensor<1x1x!tt.ptr<f32>> loc(#loc126)
    %tmp22_63 = tt.addptr %tmp22, %xindex_7 : tensor<1x1x!tt.ptr<f32>>, tensor<1x1xi32> loc(#loc126)
    %tmp22_64 = tt.load %tmp22_63, %xmask_8 evictionPolicy = evict_last : tensor<1x1x!tt.ptr<f32>> loc(#loc127)
    %tmp2 = arith.constant 2.876900e+00 : f32 loc(#loc128)
    %tmp3 = arith.constant dense<2.876900e+00> : tensor<1x256xf32> loc(#loc129)
    %tmp3_65 = arith.mulf %tmp1_34, %tmp3 : tensor<1x256xf32> loc(#loc129)
    %tmp6 = arith.addf %tmp3_65, %tmp4_48 : tensor<1x256xf32> loc(#loc130)
    %tmp7 = arith.constant 2.836600e+00 : f32 loc(#loc131)
    %tmp8 = arith.constant dense<2.836600e+00> : tensor<1x256xf32> loc(#loc132)
    %tmp8_66 = arith.mulf %tmp6, %tmp8 : tensor<1x256xf32> loc(#loc132)
    %tmp11 = arith.addf %tmp8_66, %tmp9_62 : tensor<1x256xf32> loc(#loc133)
    %tmp12 = arith.addf %tmp0_22, %tmp11 : tensor<1x256xf32> loc(#loc134)
    %tmp13 = arith.mulf %tmp12, %tmp12 : tensor<1x256xf32> loc(#loc135)
    %tmp16 = tt.broadcast %xmask_8 : tensor<1x1xi1> -> tensor<1x256xi1> loc(#loc136)
    %tmp16_67 = arith.andi %r0_mask_10, %tmp16 : tensor<1x256xi1> loc(#loc136)
    %tmp16_68 = arith.constant 0 : i32 loc(#loc137)
    %tmp16_69 = arith.constant 0.000000e+00 : f32 loc(#loc137)
    %tmp16_70 = arith.constant dense<0.000000e+00> : tensor<1x256xf32> loc(#loc137)
    %tmp16_71 = arith.select %tmp16_67, %tmp13, %tmp16_70 : tensor<1x256xi1>, tensor<1x256xf32> loc(#loc137)
    %tmp17 = tt.call @"triton.language.standard.sum__fp32S1_256S__(1,)cconstexpr_1__(2,)cconstexpr_False__(3,)cNone"(%tmp16_71) : (tensor<1x256xf32>) -> tensor<1xf32> loc(#loc138)
    %tmp17_72 = tt.expand_dims %tmp17 {axis = 1 : i32} : tensor<1xf32> -> tensor<1x1xf32> loc(#loc139)
    %tmp18 = tt.extern_elementwise %tmp17_72 {libname = "", libpath = "", pure = true, symbol = "__nv_sqrtf"} : (tensor<1x1xf32>) -> tensor<1x1xf32> loc(#loc140)
    %tmp19 = arith.constant 9.99999974E-6 : f32 loc(#loc141)
    %tmp20 = arith.constant dense<9.99999974E-6> : tensor<1x1xf32> loc(#loc142)
    %tmp20_73 = arith.addf %tmp18, %tmp20 : tensor<1x1xf32> loc(#loc142)
    %tmp21 = tt.broadcast %tmp20_73 : tensor<1x1xf32> -> tensor<1x256xf32> loc(#loc143)
    %tmp21_74 = arith.divf %tmp12, %tmp21 : tensor<1x256xf32> loc(#loc143)
    %tmp23 = tt.broadcast %tmp22_64 : tensor<1x1xf32> -> tensor<1x256xf32> loc(#loc144)
    %tmp23_75 = arith.mulf %tmp21_74, %tmp23 : tensor<1x256xf32> loc(#loc144)
    %c192_i32 = arith.constant 192 : i32 loc(#loc54)
    %c192_i32_76 = arith.constant 192 : i32 loc(#loc54)
    %cst = arith.constant dense<192> : tensor<1x1xi32> loc(#loc54)
    %0 = arith.muli %cst, %xindex_7 : tensor<1x1xi32> loc(#loc54)
    %1 = tt.broadcast %0 : tensor<1x1xi32> -> tensor<1x256xi32> loc(#loc55)
    %2 = arith.addi %r0_index_9, %1 : tensor<1x256xi32> loc(#loc55)
    %3 = tt.splat %in_out_ptr0 : !tt.ptr<f32> -> tensor<1x256x!tt.ptr<f32>> loc(#loc56)
    %4 = tt.addptr %3, %2 : tensor<1x256x!tt.ptr<f32>>, tensor<1x256xi32> loc(#loc56)
    %5 = tt.broadcast %xmask_8 : tensor<1x1xi1> -> tensor<1x256xi1> loc(#loc57)
    %6 = arith.andi %r0_mask_10, %5 : tensor<1x256xi1> loc(#loc57)
    tt.store %4, %tmp12, %6 : tensor<1x256x!tt.ptr<f32>> loc(#loc58)
    gpu.barrier loc(#loc59)
    %7 = tt.splat %in_out_ptr1 : !tt.ptr<f32> -> tensor<1x1x!tt.ptr<f32>> loc(#loc60)
    %8 = tt.addptr %7, %xindex_7 : tensor<1x1x!tt.ptr<f32>>, tensor<1x1xi32> loc(#loc60)
    tt.store %8, %tmp18, %xmask_8 : tensor<1x1x!tt.ptr<f32>> loc(#loc61)
    %c192_i32_77 = arith.constant 192 : i32 loc(#loc62)
    %c192_i32_78 = arith.constant 192 : i32 loc(#loc62)
    %cst_79 = arith.constant dense<192> : tensor<1x1xi32> loc(#loc62)
    %9 = arith.muli %cst_79, %xindex_7 : tensor<1x1xi32> loc(#loc62)
    %10 = tt.broadcast %9 : tensor<1x1xi32> -> tensor<1x256xi32> loc(#loc63)
    %11 = arith.addi %r0_index_9, %10 : tensor<1x256xi32> loc(#loc63)
    %12 = tt.splat %out_ptr0 : !tt.ptr<bf16> -> tensor<1x256x!tt.ptr<bf16>> loc(#loc64)
    %13 = tt.addptr %12, %11 : tensor<1x256x!tt.ptr<bf16>>, tensor<1x256xi32> loc(#loc64)
    %14 = tt.broadcast %xmask_8 : tensor<1x1xi1> -> tensor<1x256xi1> loc(#loc65)
    %15 = arith.andi %r0_mask_10, %14 : tensor<1x256xi1> loc(#loc65)
    %16 = arith.truncf %tmp23_75 : tensor<1x256xf32> to tensor<1x256xbf16> loc(#loc66)
    tt.store %13, %16, %15 : tensor<1x256x!tt.ptr<bf16>> loc(#loc66)
    %c192_i32_80 = arith.constant 192 : i32 loc(#loc67)
    %c192_i32_81 = arith.constant 192 : i32 loc(#loc67)
    %cst_82 = arith.constant dense<192> : tensor<1x1xi32> loc(#loc67)
    %17 = arith.muli %cst_82, %xindex_7 : tensor<1x1xi32> loc(#loc67)
    %18 = tt.broadcast %17 : tensor<1x1xi32> -> tensor<1x256xi32> loc(#loc68)
    %19 = arith.addi %r0_index_9, %18 : tensor<1x256xi32> loc(#loc68)
    %20 = tt.splat %out_ptr1 : !tt.ptr<bf16> -> tensor<1x256x!tt.ptr<bf16>> loc(#loc69)
    %21 = tt.addptr %20, %19 : tensor<1x256x!tt.ptr<bf16>>, tensor<1x256xi32> loc(#loc69)
    %22 = tt.broadcast %xmask_8 : tensor<1x1xi1> -> tensor<1x256xi1> loc(#loc70)
    %23 = arith.andi %r0_mask_10, %22 : tensor<1x256xi1> loc(#loc70)
    %24 = arith.truncf %tmp23_75 : tensor<1x256xf32> to tensor<1x256xbf16> loc(#loc71)
    tt.store %21, %24, %23 : tensor<1x256x!tt.ptr<bf16>> loc(#loc71)
    tt.return loc(#loc72)
  } loc(#loc)
  tt.func private @"triton.language.standard.sum__fp32S1_256S__(1,)cconstexpr_1__(2,)cconstexpr_False__(3,)cNone"(%input: tensor<1x256xf32> loc("input"(#loc73))) -> tensor<1xf32> attributes {noinline = false} {
    %0 = "tt.reduce"(%input) <{axis = 1 : i32}> ({
    ^bb0(%arg1: f32 loc(unknown), %arg2: f32 loc(unknown)):
      %2 = tt.call @triton.language.standard._sum_combine__fp32_fp32__(%arg1, %arg2) : (f32, f32) -> f32 loc(#loc74)
      tt.reduce.return %2 : f32 loc(#loc74)
    }) : (tensor<1x256xf32>) -> tensor<1xf32> loc(#loc74)
    tt.return %0 : tensor<1xf32> loc(#loc76)
  ^bb1:  // no predecessors
    %1 = ub.poison : tensor<1xf32> loc(#loc77)
    tt.return %1 : tensor<1xf32> loc(#loc77)
  } loc(#loc73)
  tt.func private @triton.language.standard._sum_combine__fp32_fp32__(%a: f32 loc("a"(#loc78)), %b: f32 loc("b"(#loc78))) -> f32 attributes {noinline = false} {
    %0 = arith.addf %a, %b : f32 loc(#loc79)
    tt.return %0 : f32 loc(#loc80)
  ^bb1:  // no predecessors
    %1 = ub.poison : f32 loc(#loc81)
    tt.return %1 : f32 loc(#loc81)
  } loc(#loc78)
} loc(#loc)
#loc1 = loc("/NHNHOME/WORKSPACE/26msit001_A/jinhyeok/loop_TTT/lact/.cache_inductor_llm/7e/c7evyjy4xhdeppjftm7ly6ly5atgbbptnpncjgkdnj4o2pb6aaou.py":19:13)
#loc2 = loc("/NHNHOME/WORKSPACE/26msit001_A/jinhyeok/loop_TTT/lact/.cache_inductor_llm/7e/c7evyjy4xhdeppjftm7ly6ly5atgbbptnpncjgkdnj4o2pb6aaou.py":20:15)
#loc3 = loc("/NHNHOME/WORKSPACE/26msit001_A/jinhyeok/loop_TTT/lact/.cache_inductor_llm/7e/c7evyjy4xhdeppjftm7ly6ly5atgbbptnpncjgkdnj4o2pb6aaou.py":24:28)
#loc4 = loc("/NHNHOME/WORKSPACE/26msit001_A/jinhyeok/loop_TTT/lact/.cache_inductor_llm/7e/c7evyjy4xhdeppjftm7ly6ly5atgbbptnpncjgkdnj4o2pb6aaou.py":24:33)
#loc5 = loc("/NHNHOME/WORKSPACE/26msit001_A/jinhyeok/loop_TTT/lact/.cache_inductor_llm/7e/c7evyjy4xhdeppjftm7ly6ly5atgbbptnpncjgkdnj4o2pb6aaou.py":25:36)
#loc6 = loc("/NHNHOME/WORKSPACE/26msit001_A/jinhyeok/loop_TTT/lact/.cache_inductor_llm/7e/c7evyjy4xhdeppjftm7ly6ly5atgbbptnpncjgkdnj4o2pb6aaou.py":25:44)
#loc7 = loc("/NHNHOME/WORKSPACE/26msit001_A/jinhyeok/loop_TTT/lact/.cache_inductor_llm/7e/c7evyjy4xhdeppjftm7ly6ly5atgbbptnpncjgkdnj4o2pb6aaou.py":25:23)
#loc8 = loc("/NHNHOME/WORKSPACE/26msit001_A/jinhyeok/loop_TTT/lact/.cache_inductor_llm/7e/c7evyjy4xhdeppjftm7ly6ly5atgbbptnpncjgkdnj4o2pb6aaou.py":26:21)
#loc9 = loc("/NHNHOME/WORKSPACE/26msit001_A/jinhyeok/loop_TTT/lact/.cache_inductor_llm/7e/c7evyjy4xhdeppjftm7ly6ly5atgbbptnpncjgkdnj4o2pb6aaou.py":27:28)
#loc10 = loc("/NHNHOME/WORKSPACE/26msit001_A/jinhyeok/loop_TTT/lact/.cache_inductor_llm/7e/c7evyjy4xhdeppjftm7ly6ly5atgbbptnpncjgkdnj4o2pb6aaou.py":27:38)
#loc11 = loc("/NHNHOME/WORKSPACE/26msit001_A/jinhyeok/loop_TTT/lact/.cache_inductor_llm/7e/c7evyjy4xhdeppjftm7ly6ly5atgbbptnpncjgkdnj4o2pb6aaou.py":28:16)
#loc12 = loc("/NHNHOME/WORKSPACE/26msit001_A/jinhyeok/loop_TTT/lact/.cache_inductor_llm/7e/c7evyjy4xhdeppjftm7ly6ly5atgbbptnpncjgkdnj4o2pb6aaou.py":29:25)
#loc13 = loc("/NHNHOME/WORKSPACE/26msit001_A/jinhyeok/loop_TTT/lact/.cache_inductor_llm/7e/c7evyjy4xhdeppjftm7ly6ly5atgbbptnpncjgkdnj4o2pb6aaou.py":34:41)
#loc14 = loc("/NHNHOME/WORKSPACE/26msit001_A/jinhyeok/loop_TTT/lact/.cache_inductor_llm/7e/c7evyjy4xhdeppjftm7ly6ly5atgbbptnpncjgkdnj4o2pb6aaou.py":34:37)
#loc15 = loc("/NHNHOME/WORKSPACE/26msit001_A/jinhyeok/loop_TTT/lact/.cache_inductor_llm/7e/c7evyjy4xhdeppjftm7ly6ly5atgbbptnpncjgkdnj4o2pb6aaou.py":34:30)
#loc16 = loc("/NHNHOME/WORKSPACE/26msit001_A/jinhyeok/loop_TTT/lact/.cache_inductor_llm/7e/c7evyjy4xhdeppjftm7ly6ly5atgbbptnpncjgkdnj4o2pb6aaou.py":34:56)
#loc17 = loc("/NHNHOME/WORKSPACE/26msit001_A/jinhyeok/loop_TTT/lact/.cache_inductor_llm/7e/c7evyjy4xhdeppjftm7ly6ly5atgbbptnpncjgkdnj4o2pb6aaou.py":34:46)
#loc18 = loc("/NHNHOME/WORKSPACE/26msit001_A/jinhyeok/loop_TTT/lact/.cache_inductor_llm/7e/c7evyjy4xhdeppjftm7ly6ly5atgbbptnpncjgkdnj4o2pb6aaou.py":35:45)
#loc19 = loc("/NHNHOME/WORKSPACE/26msit001_A/jinhyeok/loop_TTT/lact/.cache_inductor_llm/7e/c7evyjy4xhdeppjftm7ly6ly5atgbbptnpncjgkdnj4o2pb6aaou.py":35:41)
#loc20 = loc("/NHNHOME/WORKSPACE/26msit001_A/jinhyeok/loop_TTT/lact/.cache_inductor_llm/7e/c7evyjy4xhdeppjftm7ly6ly5atgbbptnpncjgkdnj4o2pb6aaou.py":35:34)
#loc21 = loc("/NHNHOME/WORKSPACE/26msit001_A/jinhyeok/loop_TTT/lact/.cache_inductor_llm/7e/c7evyjy4xhdeppjftm7ly6ly5atgbbptnpncjgkdnj4o2pb6aaou.py":35:60)
#loc22 = loc("/NHNHOME/WORKSPACE/26msit001_A/jinhyeok/loop_TTT/lact/.cache_inductor_llm/7e/c7evyjy4xhdeppjftm7ly6ly5atgbbptnpncjgkdnj4o2pb6aaou.py":35:50)
#loc23 = loc("/NHNHOME/WORKSPACE/26msit001_A/jinhyeok/loop_TTT/lact/.cache_inductor_llm/7e/c7evyjy4xhdeppjftm7ly6ly5atgbbptnpncjgkdnj4o2pb6aaou.py":36:41)
#loc24 = loc("/NHNHOME/WORKSPACE/26msit001_A/jinhyeok/loop_TTT/lact/.cache_inductor_llm/7e/c7evyjy4xhdeppjftm7ly6ly5atgbbptnpncjgkdnj4o2pb6aaou.py":36:37)
#loc25 = loc("/NHNHOME/WORKSPACE/26msit001_A/jinhyeok/loop_TTT/lact/.cache_inductor_llm/7e/c7evyjy4xhdeppjftm7ly6ly5atgbbptnpncjgkdnj4o2pb6aaou.py":36:30)
#loc26 = loc("/NHNHOME/WORKSPACE/26msit001_A/jinhyeok/loop_TTT/lact/.cache_inductor_llm/7e/c7evyjy4xhdeppjftm7ly6ly5atgbbptnpncjgkdnj4o2pb6aaou.py":36:56)
#loc27 = loc("/NHNHOME/WORKSPACE/26msit001_A/jinhyeok/loop_TTT/lact/.cache_inductor_llm/7e/c7evyjy4xhdeppjftm7ly6ly5atgbbptnpncjgkdnj4o2pb6aaou.py":36:46)
#loc28 = loc("/NHNHOME/WORKSPACE/26msit001_A/jinhyeok/loop_TTT/lact/.cache_inductor_llm/7e/c7evyjy4xhdeppjftm7ly6ly5atgbbptnpncjgkdnj4o2pb6aaou.py":36:77)
#loc29 = loc("/NHNHOME/WORKSPACE/26msit001_A/jinhyeok/loop_TTT/lact/.cache_inductor_llm/7e/c7evyjy4xhdeppjftm7ly6ly5atgbbptnpncjgkdnj4o2pb6aaou.py":37:41)
#loc30 = loc("/NHNHOME/WORKSPACE/26msit001_A/jinhyeok/loop_TTT/lact/.cache_inductor_llm/7e/c7evyjy4xhdeppjftm7ly6ly5atgbbptnpncjgkdnj4o2pb6aaou.py":37:37)
#loc31 = loc("/NHNHOME/WORKSPACE/26msit001_A/jinhyeok/loop_TTT/lact/.cache_inductor_llm/7e/c7evyjy4xhdeppjftm7ly6ly5atgbbptnpncjgkdnj4o2pb6aaou.py":37:30)
#loc32 = loc("/NHNHOME/WORKSPACE/26msit001_A/jinhyeok/loop_TTT/lact/.cache_inductor_llm/7e/c7evyjy4xhdeppjftm7ly6ly5atgbbptnpncjgkdnj4o2pb6aaou.py":37:56)
#loc33 = loc("/NHNHOME/WORKSPACE/26msit001_A/jinhyeok/loop_TTT/lact/.cache_inductor_llm/7e/c7evyjy4xhdeppjftm7ly6ly5atgbbptnpncjgkdnj4o2pb6aaou.py":37:46)
#loc34 = loc("/NHNHOME/WORKSPACE/26msit001_A/jinhyeok/loop_TTT/lact/.cache_inductor_llm/7e/c7evyjy4xhdeppjftm7ly6ly5atgbbptnpncjgkdnj4o2pb6aaou.py":37:77)
#loc35 = loc("/NHNHOME/WORKSPACE/26msit001_A/jinhyeok/loop_TTT/lact/.cache_inductor_llm/7e/c7evyjy4xhdeppjftm7ly6ly5atgbbptnpncjgkdnj4o2pb6aaou.py":38:31)
#loc36 = loc("/NHNHOME/WORKSPACE/26msit001_A/jinhyeok/loop_TTT/lact/.cache_inductor_llm/7e/c7evyjy4xhdeppjftm7ly6ly5atgbbptnpncjgkdnj4o2pb6aaou.py":38:36)
#loc37 = loc("/NHNHOME/WORKSPACE/26msit001_A/jinhyeok/loop_TTT/lact/.cache_inductor_llm/7e/c7evyjy4xhdeppjftm7ly6ly5atgbbptnpncjgkdnj4o2pb6aaou.py":39:11)
#loc38 = loc("/NHNHOME/WORKSPACE/26msit001_A/jinhyeok/loop_TTT/lact/.cache_inductor_llm/7e/c7evyjy4xhdeppjftm7ly6ly5atgbbptnpncjgkdnj4o2pb6aaou.py":40:18)
#loc39 = loc("/NHNHOME/WORKSPACE/26msit001_A/jinhyeok/loop_TTT/lact/.cache_inductor_llm/7e/c7evyjy4xhdeppjftm7ly6ly5atgbbptnpncjgkdnj4o2pb6aaou.py":42:18)
#loc40 = loc("/NHNHOME/WORKSPACE/26msit001_A/jinhyeok/loop_TTT/lact/.cache_inductor_llm/7e/c7evyjy4xhdeppjftm7ly6ly5atgbbptnpncjgkdnj4o2pb6aaou.py":43:11)
#loc41 = loc("/NHNHOME/WORKSPACE/26msit001_A/jinhyeok/loop_TTT/lact/.cache_inductor_llm/7e/c7evyjy4xhdeppjftm7ly6ly5atgbbptnpncjgkdnj4o2pb6aaou.py":44:18)
#loc42 = loc("/NHNHOME/WORKSPACE/26msit001_A/jinhyeok/loop_TTT/lact/.cache_inductor_llm/7e/c7evyjy4xhdeppjftm7ly6ly5atgbbptnpncjgkdnj4o2pb6aaou.py":46:19)
#loc43 = loc("/NHNHOME/WORKSPACE/26msit001_A/jinhyeok/loop_TTT/lact/.cache_inductor_llm/7e/c7evyjy4xhdeppjftm7ly6ly5atgbbptnpncjgkdnj4o2pb6aaou.py":47:19)
#loc44 = loc("/NHNHOME/WORKSPACE/26msit001_A/jinhyeok/loop_TTT/lact/.cache_inductor_llm/7e/c7evyjy4xhdeppjftm7ly6ly5atgbbptnpncjgkdnj4o2pb6aaou.py":48:20)
#loc45 = loc("/NHNHOME/WORKSPACE/26msit001_A/jinhyeok/loop_TTT/lact/.cache_inductor_llm/7e/c7evyjy4xhdeppjftm7ly6ly5atgbbptnpncjgkdnj4o2pb6aaou.py":50:31)
#loc46 = loc("/NHNHOME/WORKSPACE/26msit001_A/jinhyeok/loop_TTT/lact/.cache_inductor_llm/7e/c7evyjy4xhdeppjftm7ly6ly5atgbbptnpncjgkdnj4o2pb6aaou.py":50:45)
#loc47 = loc("/NHNHOME/WORKSPACE/26msit001_A/jinhyeok/loop_TTT/lact/.cache_inductor_llm/7e/c7evyjy4xhdeppjftm7ly6ly5atgbbptnpncjgkdnj4o2pb6aaou.py":51:26)
#loc48 = loc("/NHNHOME/WORKSPACE/26msit001_A/jinhyeok/loop_TTT/lact/.cache_inductor_llm/7e/c7evyjy4xhdeppjftm7ly6ly5atgbbptnpncjgkdnj4o2pb6aaou.py":51:29)
#loc49 = loc("/NHNHOME/WORKSPACE/26msit001_A/jinhyeok/loop_TTT/lact/.cache_inductor_llm/7e/c7evyjy4xhdeppjftm7ly6ly5atgbbptnpncjgkdnj4o2pb6aaou.py":52:27)
#loc50 = loc("/NHNHOME/WORKSPACE/26msit001_A/jinhyeok/loop_TTT/lact/.cache_inductor_llm/7e/c7evyjy4xhdeppjftm7ly6ly5atgbbptnpncjgkdnj4o2pb6aaou.py":53:12)
#loc51 = loc("/NHNHOME/WORKSPACE/26msit001_A/jinhyeok/loop_TTT/lact/.cache_inductor_llm/7e/c7evyjy4xhdeppjftm7ly6ly5atgbbptnpncjgkdnj4o2pb6aaou.py":54:20)
#loc52 = loc("/NHNHOME/WORKSPACE/26msit001_A/jinhyeok/loop_TTT/lact/.cache_inductor_llm/7e/c7evyjy4xhdeppjftm7ly6ly5atgbbptnpncjgkdnj4o2pb6aaou.py":55:21)
#loc53 = loc("/NHNHOME/WORKSPACE/26msit001_A/jinhyeok/loop_TTT/lact/.cache_inductor_llm/7e/c7evyjy4xhdeppjftm7ly6ly5atgbbptnpncjgkdnj4o2pb6aaou.py":56:20)
#loc54 = loc("/NHNHOME/WORKSPACE/26msit001_A/jinhyeok/loop_TTT/lact/.cache_inductor_llm/7e/c7evyjy4xhdeppjftm7ly6ly5atgbbptnpncjgkdnj4o2pb6aaou.py":58:39)
#loc55 = loc("/NHNHOME/WORKSPACE/26msit001_A/jinhyeok/loop_TTT/lact/.cache_inductor_llm/7e/c7evyjy4xhdeppjftm7ly6ly5atgbbptnpncjgkdnj4o2pb6aaou.py":58:35)
#loc56 = loc("/NHNHOME/WORKSPACE/26msit001_A/jinhyeok/loop_TTT/lact/.cache_inductor_llm/7e/c7evyjy4xhdeppjftm7ly6ly5atgbbptnpncjgkdnj4o2pb6aaou.py":58:28)
#loc57 = loc("/NHNHOME/WORKSPACE/26msit001_A/jinhyeok/loop_TTT/lact/.cache_inductor_llm/7e/c7evyjy4xhdeppjftm7ly6ly5atgbbptnpncjgkdnj4o2pb6aaou.py":58:61)
#loc58 = loc("/NHNHOME/WORKSPACE/26msit001_A/jinhyeok/loop_TTT/lact/.cache_inductor_llm/7e/c7evyjy4xhdeppjftm7ly6ly5atgbbptnpncjgkdnj4o2pb6aaou.py":58:51)
#loc59 = loc("/NHNHOME/WORKSPACE/26msit001_A/jinhyeok/loop_TTT/lact/.cache_inductor_llm/7e/c7evyjy4xhdeppjftm7ly6ly5atgbbptnpncjgkdnj4o2pb6aaou.py":59:4)
#loc60 = loc("/NHNHOME/WORKSPACE/26msit001_A/jinhyeok/loop_TTT/lact/.cache_inductor_llm/7e/c7evyjy4xhdeppjftm7ly6ly5atgbbptnpncjgkdnj4o2pb6aaou.py":60:28)
#loc61 = loc("/NHNHOME/WORKSPACE/26msit001_A/jinhyeok/loop_TTT/lact/.cache_inductor_llm/7e/c7evyjy4xhdeppjftm7ly6ly5atgbbptnpncjgkdnj4o2pb6aaou.py":60:40)
#loc62 = loc("/NHNHOME/WORKSPACE/26msit001_A/jinhyeok/loop_TTT/lact/.cache_inductor_llm/7e/c7evyjy4xhdeppjftm7ly6ly5atgbbptnpncjgkdnj4o2pb6aaou.py":61:36)
#loc63 = loc("/NHNHOME/WORKSPACE/26msit001_A/jinhyeok/loop_TTT/lact/.cache_inductor_llm/7e/c7evyjy4xhdeppjftm7ly6ly5atgbbptnpncjgkdnj4o2pb6aaou.py":61:32)
#loc64 = loc("/NHNHOME/WORKSPACE/26msit001_A/jinhyeok/loop_TTT/lact/.cache_inductor_llm/7e/c7evyjy4xhdeppjftm7ly6ly5atgbbptnpncjgkdnj4o2pb6aaou.py":61:25)
#loc65 = loc("/NHNHOME/WORKSPACE/26msit001_A/jinhyeok/loop_TTT/lact/.cache_inductor_llm/7e/c7evyjy4xhdeppjftm7ly6ly5atgbbptnpncjgkdnj4o2pb6aaou.py":61:58)
#loc66 = loc("/NHNHOME/WORKSPACE/26msit001_A/jinhyeok/loop_TTT/lact/.cache_inductor_llm/7e/c7evyjy4xhdeppjftm7ly6ly5atgbbptnpncjgkdnj4o2pb6aaou.py":61:48)
#loc67 = loc("/NHNHOME/WORKSPACE/26msit001_A/jinhyeok/loop_TTT/lact/.cache_inductor_llm/7e/c7evyjy4xhdeppjftm7ly6ly5atgbbptnpncjgkdnj4o2pb6aaou.py":62:36)
#loc68 = loc("/NHNHOME/WORKSPACE/26msit001_A/jinhyeok/loop_TTT/lact/.cache_inductor_llm/7e/c7evyjy4xhdeppjftm7ly6ly5atgbbptnpncjgkdnj4o2pb6aaou.py":62:32)
#loc69 = loc("/NHNHOME/WORKSPACE/26msit001_A/jinhyeok/loop_TTT/lact/.cache_inductor_llm/7e/c7evyjy4xhdeppjftm7ly6ly5atgbbptnpncjgkdnj4o2pb6aaou.py":62:25)
#loc70 = loc("/NHNHOME/WORKSPACE/26msit001_A/jinhyeok/loop_TTT/lact/.cache_inductor_llm/7e/c7evyjy4xhdeppjftm7ly6ly5atgbbptnpncjgkdnj4o2pb6aaou.py":62:58)
#loc71 = loc("/NHNHOME/WORKSPACE/26msit001_A/jinhyeok/loop_TTT/lact/.cache_inductor_llm/7e/c7evyjy4xhdeppjftm7ly6ly5atgbbptnpncjgkdnj4o2pb6aaou.py":62:48)
#loc72 = loc("/NHNHOME/WORKSPACE/26msit001_A/jinhyeok/loop_TTT/lact/.cache_inductor_llm/7e/c7evyjy4xhdeppjftm7ly6ly5atgbbptnpncjgkdnj4o2pb6aaou.py":62:4)
#loc74 = loc("/NHNHOME/WORKSPACE/26msit001_A/jinhyeok/TTT_camera_embedding/.venv_llm/lib/python3.12/site-packages/triton/language/standard.py":291:36)
#loc76 = loc("/NHNHOME/WORKSPACE/26msit001_A/jinhyeok/TTT_camera_embedding/.venv_llm/lib/python3.12/site-packages/triton/language/standard.py":291:11)
#loc77 = loc("/NHNHOME/WORKSPACE/26msit001_A/jinhyeok/TTT_camera_embedding/.venv_llm/lib/python3.12/site-packages/triton/language/standard.py":291:4)
#loc79 = loc("/NHNHOME/WORKSPACE/26msit001_A/jinhyeok/TTT_camera_embedding/.venv_llm/lib/python3.12/site-packages/triton/language/standard.py":261:15)
#loc80 = loc("/NHNHOME/WORKSPACE/26msit001_A/jinhyeok/TTT_camera_embedding/.venv_llm/lib/python3.12/site-packages/triton/language/standard.py":261:11)
#loc81 = loc("/NHNHOME/WORKSPACE/26msit001_A/jinhyeok/TTT_camera_embedding/.venv_llm/lib/python3.12/site-packages/triton/language/standard.py":261:4)
#loc92 = loc("xnumel"(#loc1))
#loc93 = loc("r0_numel"(#loc2))
#loc94 = loc("xoffset"(#loc3))
#loc95 = loc("xoffset"(#loc4))
#loc96 = loc("xindex"(#loc5))
#loc97 = loc("xindex"(#loc6))
#loc98 = loc("xindex"(#loc7))
#loc99 = loc("xmask"(#loc8))
#loc100 = loc("r0_index"(#loc9))
#loc101 = loc("r0_index"(#loc10))
#loc102 = loc("r0_offset"(#loc11))
#loc103 = loc("r0_mask"(#loc12))
#loc104 = loc("tmp0"(#loc13))
#loc105 = loc("tmp0"(#loc14))
#loc106 = loc("tmp0"(#loc15))
#loc107 = loc("tmp0"(#loc16))
#loc108 = loc("tmp0"(#loc17))
#loc109 = loc("tmp1"(#loc18))
#loc110 = loc("tmp1"(#loc19))
#loc111 = loc("tmp1"(#loc20))
#loc112 = loc("tmp1"(#loc21))
#loc113 = loc("tmp1"(#loc22))
#loc114 = loc("tmp4"(#loc23))
#loc115 = loc("tmp4"(#loc24))
#loc116 = loc("tmp4"(#loc25))
#loc117 = loc("tmp4"(#loc26))
#loc118 = loc("tmp4"(#loc27))
#loc119 = loc("tmp4"(#loc28))
#loc120 = loc("tmp9"(#loc29))
#loc121 = loc("tmp9"(#loc30))
#loc122 = loc("tmp9"(#loc31))
#loc123 = loc("tmp9"(#loc32))
#loc124 = loc("tmp9"(#loc33))
#loc125 = loc("tmp9"(#loc34))
#loc126 = loc("tmp22"(#loc35))
#loc127 = loc("tmp22"(#loc36))
#loc128 = loc("tmp2"(#loc37))
#loc129 = loc("tmp3"(#loc38))
#loc130 = loc("tmp6"(#loc39))
#loc131 = loc("tmp7"(#loc40))
#loc132 = loc("tmp8"(#loc41))
#loc133 = loc("tmp11"(#loc42))
#loc134 = loc("tmp12"(#loc43))
#loc135 = loc("tmp13"(#loc44))
#loc136 = loc("tmp16"(#loc45))
#loc137 = loc("tmp16"(#loc46))
#loc138 = loc("tmp17"(#loc47))
#loc139 = loc("tmp17"(#loc48))
#loc140 = loc("tmp18"(#loc49))
#loc141 = loc("tmp19"(#loc50))
#loc142 = loc("tmp20"(#loc51))
#loc143 = loc("tmp21"(#loc52))
#loc144 = loc("tmp23"(#loc53))
