#loc = loc("/NHNHOME/WORKSPACE/26msit001_A/jinhyeok/loop_TTT/lact/.cache_inductor_llm/zo/czohrdpaozmmu32aouhfgogxmgs3qz4qa4vm3n2kynpuf3wqmuyd.py":18:0)
#loc66 = loc("in_ptr0"(#loc))
#loc67 = loc("in_ptr1"(#loc))
#loc68 = loc("in_ptr2"(#loc))
#loc69 = loc("in_ptr3"(#loc))
#loc70 = loc("out_ptr0"(#loc))
#loc71 = loc("out_ptr1"(#loc))
#loc72 = loc("out_ptr2"(#loc))
#loc73 = loc("ynumel"(#loc))
#loc74 = loc("xnumel"(#loc))
module {
  tt.func public @triton_poi_fused__to_copy_add_div_linalg_vector_norm_mean_mul_slice_transpose_zeros_like_10(%in_ptr0: !tt.ptr<bf16> {tt.divisibility = 16 : i32} loc("in_ptr0"(#loc)), %in_ptr1: !tt.ptr<f32> {tt.divisibility = 16 : i32} loc("in_ptr1"(#loc)), %in_ptr2: !tt.ptr<f32> {tt.divisibility = 16 : i32} loc("in_ptr2"(#loc)), %in_ptr3: !tt.ptr<bf16> {tt.divisibility = 16 : i32} loc("in_ptr3"(#loc)), %out_ptr0: !tt.ptr<bf16> {tt.divisibility = 16 : i32} loc("out_ptr0"(#loc)), %out_ptr1: !tt.ptr<bf16> {tt.divisibility = 16 : i32} loc("out_ptr1"(#loc)), %out_ptr2: !tt.ptr<bf16> {tt.divisibility = 16 : i32} loc("out_ptr2"(#loc)), %ynumel: i32 {tt.divisibility = 16 : i32} loc("ynumel"(#loc)), %xnumel: i32 {tt.divisibility = 16 : i32} loc("xnumel"(#loc))) attributes {noinline = false} {
    %xnumel_0 = arith.constant 192 : i32 loc(#loc75)
    %yoffset = tt.get_program_id y : i32 loc(#loc76)
    %yoffset_1 = tt.get_program_id z : i32 loc(#loc77)
    %yoffset_2 = tt.get_num_programs y : i32 loc(#loc78)
    %yoffset_3 = arith.muli %yoffset_1, %yoffset_2 : i32 loc(#loc79)
    %yoffset_4 = arith.addi %yoffset, %yoffset_3 : i32 loc(#loc80)
    %yoffset_5 = arith.constant 1024 : i32 loc(#loc81)
    %yoffset_6 = arith.constant 1024 : i32 loc(#loc81)
    %yoffset_7 = arith.muli %yoffset_4, %yoffset_6 : i32 loc(#loc81)
    %yindex = tt.make_range {end = 1024 : i32, start = 0 : i32} : tensor<1024xi32> loc(#loc82)
    %yindex_8 = tt.expand_dims %yindex {axis = 1 : i32} : tensor<1024xi32> -> tensor<1024x1xi32> loc(#loc83)
    %yindex_9 = tt.splat %yoffset_7 : i32 -> tensor<1024x1xi32> loc(#loc84)
    %yindex_10 = arith.addi %yindex_9, %yindex_8 : tensor<1024x1xi32> loc(#loc84)
    %ymask = tt.splat %ynumel : i32 -> tensor<1024x1xi32> loc(#loc85)
    %ymask_11 = arith.cmpi slt, %yindex_10, %ymask : tensor<1024x1xi32> loc(#loc85)
    %xoffset = tt.get_program_id x : i32 loc(#loc86)
    %xoffset_12 = arith.constant 1 : i32 loc(#loc87)
    %xoffset_13 = arith.constant 1 : i32 loc(#loc87)
    %xoffset_14 = arith.muli %xoffset, %xoffset_13 : i32 loc(#loc87)
    %xindex = tt.make_range {end = 1 : i32, start = 0 : i32} : tensor<1xi32> loc(#loc88)
    %xindex_15 = tt.expand_dims %xindex {axis = 0 : i32} : tensor<1xi32> -> tensor<1x1xi32> loc(#loc89)
    %xindex_16 = tt.splat %xoffset_14 : i32 -> tensor<1x1xi32> loc(#loc90)
    %xindex_17 = arith.addi %xindex_16, %xindex_15 : tensor<1x1xi32> loc(#loc90)
    %xmask = arith.constant dense<192> : tensor<1x1xi32> loc(#loc91)
    %xmask_18 = arith.cmpi slt, %xindex_17, %xmask : tensor<1x1xi32> loc(#loc91)
    %y1 = arith.constant 192 : i32 loc(#loc92)
    %y1_19 = arith.constant 192 : i32 loc(#loc92)
    %y1_20 = arith.constant dense<192> : tensor<1024x1xi32> loc(#loc92)
    %y1_21 = arith.divsi %yindex_10, %y1_20 : tensor<1024x1xi32> loc(#loc92)
    %y0 = arith.constant 192 : i32 loc(#loc93)
    %y0_22 = arith.constant 192 : i32 loc(#loc93)
    %y0_23 = arith.constant dense<192> : tensor<1024x1xi32> loc(#loc93)
    %y0_24 = arith.remsi %yindex_10, %y0_23 : tensor<1024x1xi32> loc(#loc93)
    %tmp0 = arith.constant 192 : i32 loc(#loc94)
    %tmp0_25 = arith.constant 192 : i32 loc(#loc94)
    %tmp0_26 = arith.constant dense<192> : tensor<1024x1xi32> loc(#loc94)
    %tmp0_27 = arith.muli %tmp0_26, %yindex_10 : tensor<1024x1xi32> loc(#loc94)
    %tmp0_28 = tt.broadcast %xindex_17 : tensor<1x1xi32> -> tensor<1024x1xi32> loc(#loc95)
    %tmp0_29 = arith.addi %tmp0_28, %tmp0_27 : tensor<1024x1xi32> loc(#loc95)
    %tmp0_30 = tt.splat %in_ptr0 : !tt.ptr<bf16> -> tensor<1024x1x!tt.ptr<bf16>> loc(#loc96)
    %tmp0_31 = tt.addptr %tmp0_30, %tmp0_29 : tensor<1024x1x!tt.ptr<bf16>>, tensor<1024x1xi32> loc(#loc96)
    %tmp0_32 = tt.broadcast %xmask_18 : tensor<1x1xi1> -> tensor<1024x1xi1> loc(#loc97)
    %tmp0_33 = arith.andi %tmp0_32, %ymask_11 : tensor<1024x1xi1> loc(#loc97)
    %tmp0_34 = tt.load %tmp0_31, %tmp0_33 evictionPolicy = evict_last : tensor<1024x1x!tt.ptr<bf16>> loc(#loc98)
    %tmp0_35 = arith.extf %tmp0_34 : tensor<1024x1xbf16> to tensor<1024x1xf32> loc(#loc99)
    %tmp2 = tt.splat %in_ptr1 : !tt.ptr<f32> -> tensor<1024x1x!tt.ptr<f32>> loc(#loc100)
    %tmp2_36 = tt.addptr %tmp2, %y1_21 : tensor<1024x1x!tt.ptr<f32>>, tensor<1024x1xi32> loc(#loc100)
    %tmp2_37 = tt.load %tmp2_36, %ymask_11 evictionPolicy = evict_last : tensor<1024x1x!tt.ptr<f32>> loc(#loc101)
    %tmp10 = tt.splat %in_ptr2 : !tt.ptr<f32> -> tensor<1024x1x!tt.ptr<f32>> loc(#loc102)
    %tmp10_38 = tt.addptr %tmp10, %y1_21 : tensor<1024x1x!tt.ptr<f32>>, tensor<1024x1xi32> loc(#loc102)
    %tmp10_39 = tt.load %tmp10_38, %ymask_11 evictionPolicy = evict_last : tensor<1024x1x!tt.ptr<f32>> loc(#loc103)
    %tmp17 = arith.constant 192 : i32 loc(#loc104)
    %tmp17_40 = arith.constant 192 : i32 loc(#loc104)
    %tmp17_41 = arith.constant dense<192> : tensor<1024x1xi32> loc(#loc104)
    %tmp17_42 = arith.muli %tmp17_41, %yindex_10 : tensor<1024x1xi32> loc(#loc104)
    %tmp17_43 = tt.broadcast %xindex_17 : tensor<1x1xi32> -> tensor<1024x1xi32> loc(#loc105)
    %tmp17_44 = arith.addi %tmp17_43, %tmp17_42 : tensor<1024x1xi32> loc(#loc105)
    %tmp17_45 = tt.splat %in_ptr3 : !tt.ptr<bf16> -> tensor<1024x1x!tt.ptr<bf16>> loc(#loc106)
    %tmp17_46 = tt.addptr %tmp17_45, %tmp17_44 : tensor<1024x1x!tt.ptr<bf16>>, tensor<1024x1xi32> loc(#loc106)
    %tmp17_47 = tt.broadcast %xmask_18 : tensor<1x1xi1> -> tensor<1024x1xi1> loc(#loc107)
    %tmp17_48 = arith.andi %tmp17_47, %ymask_11 : tensor<1024x1xi1> loc(#loc107)
    %tmp17_49 = tt.load %tmp17_46, %tmp17_48 evictionPolicy = evict_last : tensor<1024x1x!tt.ptr<bf16>> loc(#loc108)
    %tmp17_50 = arith.extf %tmp17_49 : tensor<1024x1xbf16> to tensor<1024x1xf32> loc(#loc109)
    %tmp3 = arith.constant 1.024000e+03 : f32 loc(#loc110)
    %tmp4 = arith.constant dense<1.024000e+03> : tensor<1024x1xf32> loc(#loc111)
    %tmp4_51 = arith.divf %tmp2_37, %tmp4 : tensor<1024x1xf32> loc(#loc111)
    %tmp5 = arith.constant 0.000000e+00 : f32 loc(#loc112)
    %tmp6 = arith.constant dense<0.000000e+00> : tensor<1024x1xf32> loc(#loc113)
    %tmp6_52 = arith.mulf %tmp6, %tmp4_51 : tensor<1024x1xf32> loc(#loc113)
    %tmp7 = arith.addf %tmp0_35, %tmp6_52 : tensor<1024x1xf32> loc(#loc114)
    %tmp11 = tt.extern_elementwise %tmp10_39 {libname = "", libpath = "", pure = true, symbol = "__nv_sqrtf"} : (tensor<1024x1xf32>) -> tensor<1024x1xf32> loc(#loc115)
    %tmp12 = arith.constant 1.000000e-07 : f32 loc(#loc116)
    %tmp13 = arith.constant dense<1.000000e-07> : tensor<1024x1xf32> loc(#loc117)
    %tmp13_53 = arith.addf %tmp11, %tmp13 : tensor<1024x1xf32> loc(#loc117)
    %tmp14 = arith.divf %tmp7, %tmp13_53 : tensor<1024x1xf32> loc(#loc118)
    %tmp15 = arith.constant 4.084800e+00 : f32 loc(#loc119)
    %tmp16 = arith.constant dense<4.084800e+00> : tensor<1024x1xf32> loc(#loc120)
    %tmp16_54 = arith.mulf %tmp14, %tmp16 : tensor<1024x1xf32> loc(#loc120)
    %tmp19 = arith.addf %tmp16_54, %tmp17_50 : tensor<1024x1xf32> loc(#loc121)
    %c192_i32 = arith.constant 192 : i32 loc(#loc48)
    %c192_i32_55 = arith.constant 192 : i32 loc(#loc48)
    %cst = arith.constant dense<192> : tensor<1024x1xi32> loc(#loc48)
    %0 = arith.muli %cst, %yindex_10 : tensor<1024x1xi32> loc(#loc48)
    %1 = tt.broadcast %xindex_17 : tensor<1x1xi32> -> tensor<1024x1xi32> loc(#loc49)
    %2 = arith.addi %1, %0 : tensor<1024x1xi32> loc(#loc49)
    %3 = tt.splat %out_ptr0 : !tt.ptr<bf16> -> tensor<1024x1x!tt.ptr<bf16>> loc(#loc50)
    %4 = tt.addptr %3, %2 : tensor<1024x1x!tt.ptr<bf16>>, tensor<1024x1xi32> loc(#loc50)
    %5 = tt.broadcast %xmask_18 : tensor<1x1xi1> -> tensor<1024x1xi1> loc(#loc51)
    %6 = arith.andi %5, %ymask_11 : tensor<1024x1xi1> loc(#loc51)
    %7 = arith.truncf %tmp19 : tensor<1024x1xf32> to tensor<1024x1xbf16> loc(#loc52)
    tt.store %4, %7, %6 : tensor<1024x1x!tt.ptr<bf16>> loc(#loc52)
    %c192_i32_56 = arith.constant 192 : i32 loc(#loc53)
    %c192_i32_57 = arith.constant 192 : i32 loc(#loc53)
    %cst_58 = arith.constant dense<192> : tensor<1x1xi32> loc(#loc53)
    %8 = arith.muli %cst_58, %xindex_17 : tensor<1x1xi32> loc(#loc53)
    %9 = tt.broadcast %8 : tensor<1x1xi32> -> tensor<1024x1xi32> loc(#loc54)
    %10 = arith.addi %y0_24, %9 : tensor<1024x1xi32> loc(#loc54)
    %c36864_i32 = arith.constant 36864 : i32 loc(#loc55)
    %c36864_i32_59 = arith.constant 36864 : i32 loc(#loc55)
    %cst_60 = arith.constant dense<36864> : tensor<1024x1xi32> loc(#loc55)
    %11 = arith.muli %cst_60, %y1_21 : tensor<1024x1xi32> loc(#loc55)
    %12 = arith.addi %10, %11 : tensor<1024x1xi32> loc(#loc56)
    %13 = tt.splat %out_ptr1 : !tt.ptr<bf16> -> tensor<1024x1x!tt.ptr<bf16>> loc(#loc57)
    %14 = tt.addptr %13, %12 : tensor<1024x1x!tt.ptr<bf16>>, tensor<1024x1xi32> loc(#loc57)
    %15 = tt.broadcast %xmask_18 : tensor<1x1xi1> -> tensor<1024x1xi1> loc(#loc58)
    %16 = arith.andi %15, %ymask_11 : tensor<1024x1xi1> loc(#loc58)
    %17 = arith.truncf %tmp19 : tensor<1024x1xf32> to tensor<1024x1xbf16> loc(#loc59)
    tt.store %14, %17, %16 : tensor<1024x1x!tt.ptr<bf16>> loc(#loc59)
    %c192_i32_61 = arith.constant 192 : i32 loc(#loc60)
    %c192_i32_62 = arith.constant 192 : i32 loc(#loc60)
    %cst_63 = arith.constant dense<192> : tensor<1024x1xi32> loc(#loc60)
    %18 = arith.muli %cst_63, %yindex_10 : tensor<1024x1xi32> loc(#loc60)
    %19 = tt.broadcast %xindex_17 : tensor<1x1xi32> -> tensor<1024x1xi32> loc(#loc61)
    %20 = arith.addi %19, %18 : tensor<1024x1xi32> loc(#loc61)
    %21 = tt.splat %out_ptr2 : !tt.ptr<bf16> -> tensor<1024x1x!tt.ptr<bf16>> loc(#loc62)
    %22 = tt.addptr %21, %20 : tensor<1024x1x!tt.ptr<bf16>>, tensor<1024x1xi32> loc(#loc62)
    %23 = tt.broadcast %xmask_18 : tensor<1x1xi1> -> tensor<1024x1xi1> loc(#loc63)
    %24 = arith.andi %23, %ymask_11 : tensor<1024x1xi1> loc(#loc63)
    %25 = arith.truncf %tmp19 : tensor<1024x1xf32> to tensor<1024x1xbf16> loc(#loc64)
    tt.store %22, %25, %24 : tensor<1024x1x!tt.ptr<bf16>> loc(#loc64)
    tt.return loc(#loc65)
  } loc(#loc)
} loc(#loc)
#loc1 = loc("/NHNHOME/WORKSPACE/26msit001_A/jinhyeok/loop_TTT/lact/.cache_inductor_llm/zo/czohrdpaozmmu32aouhfgogxmgs3qz4qa4vm3n2kynpuf3wqmuyd.py":19:13)
#loc2 = loc("/NHNHOME/WORKSPACE/26msit001_A/jinhyeok/loop_TTT/lact/.cache_inductor_llm/zo/czohrdpaozmmu32aouhfgogxmgs3qz4qa4vm3n2kynpuf3wqmuyd.py":20:29)
#loc3 = loc("/NHNHOME/WORKSPACE/26msit001_A/jinhyeok/loop_TTT/lact/.cache_inductor_llm/zo/czohrdpaozmmu32aouhfgogxmgs3qz4qa4vm3n2kynpuf3wqmuyd.py":20:48)
#loc4 = loc("/NHNHOME/WORKSPACE/26msit001_A/jinhyeok/loop_TTT/lact/.cache_inductor_llm/zo/czohrdpaozmmu32aouhfgogxmgs3qz4qa4vm3n2kynpuf3wqmuyd.py":20:69)
#loc5 = loc("/NHNHOME/WORKSPACE/26msit001_A/jinhyeok/loop_TTT/lact/.cache_inductor_llm/zo/czohrdpaozmmu32aouhfgogxmgs3qz4qa4vm3n2kynpuf3wqmuyd.py":20:53)
#loc6 = loc("/NHNHOME/WORKSPACE/26msit001_A/jinhyeok/loop_TTT/lact/.cache_inductor_llm/zo/czohrdpaozmmu32aouhfgogxmgs3qz4qa4vm3n2kynpuf3wqmuyd.py":20:34)
#loc7 = loc("/NHNHOME/WORKSPACE/26msit001_A/jinhyeok/loop_TTT/lact/.cache_inductor_llm/zo/czohrdpaozmmu32aouhfgogxmgs3qz4qa4vm3n2kynpuf3wqmuyd.py":20:75)
#loc8 = loc("/NHNHOME/WORKSPACE/26msit001_A/jinhyeok/loop_TTT/lact/.cache_inductor_llm/zo/czohrdpaozmmu32aouhfgogxmgs3qz4qa4vm3n2kynpuf3wqmuyd.py":21:36)
#loc9 = loc("/NHNHOME/WORKSPACE/26msit001_A/jinhyeok/loop_TTT/lact/.cache_inductor_llm/zo/czohrdpaozmmu32aouhfgogxmgs3qz4qa4vm3n2kynpuf3wqmuyd.py":21:44)
#loc10 = loc("/NHNHOME/WORKSPACE/26msit001_A/jinhyeok/loop_TTT/lact/.cache_inductor_llm/zo/czohrdpaozmmu32aouhfgogxmgs3qz4qa4vm3n2kynpuf3wqmuyd.py":21:23)
#loc11 = loc("/NHNHOME/WORKSPACE/26msit001_A/jinhyeok/loop_TTT/lact/.cache_inductor_llm/zo/czohrdpaozmmu32aouhfgogxmgs3qz4qa4vm3n2kynpuf3wqmuyd.py":22:21)
#loc12 = loc("/NHNHOME/WORKSPACE/26msit001_A/jinhyeok/loop_TTT/lact/.cache_inductor_llm/zo/czohrdpaozmmu32aouhfgogxmgs3qz4qa4vm3n2kynpuf3wqmuyd.py":23:28)
#loc13 = loc("/NHNHOME/WORKSPACE/26msit001_A/jinhyeok/loop_TTT/lact/.cache_inductor_llm/zo/czohrdpaozmmu32aouhfgogxmgs3qz4qa4vm3n2kynpuf3wqmuyd.py":23:33)
#loc14 = loc("/NHNHOME/WORKSPACE/26msit001_A/jinhyeok/loop_TTT/lact/.cache_inductor_llm/zo/czohrdpaozmmu32aouhfgogxmgs3qz4qa4vm3n2kynpuf3wqmuyd.py":24:36)
#loc15 = loc("/NHNHOME/WORKSPACE/26msit001_A/jinhyeok/loop_TTT/lact/.cache_inductor_llm/zo/czohrdpaozmmu32aouhfgogxmgs3qz4qa4vm3n2kynpuf3wqmuyd.py":24:44)
#loc16 = loc("/NHNHOME/WORKSPACE/26msit001_A/jinhyeok/loop_TTT/lact/.cache_inductor_llm/zo/czohrdpaozmmu32aouhfgogxmgs3qz4qa4vm3n2kynpuf3wqmuyd.py":24:23)
#loc17 = loc("/NHNHOME/WORKSPACE/26msit001_A/jinhyeok/loop_TTT/lact/.cache_inductor_llm/zo/czohrdpaozmmu32aouhfgogxmgs3qz4qa4vm3n2kynpuf3wqmuyd.py":25:21)
#loc18 = loc("/NHNHOME/WORKSPACE/26msit001_A/jinhyeok/loop_TTT/lact/.cache_inductor_llm/zo/czohrdpaozmmu32aouhfgogxmgs3qz4qa4vm3n2kynpuf3wqmuyd.py":28:19)
#loc19 = loc("/NHNHOME/WORKSPACE/26msit001_A/jinhyeok/loop_TTT/lact/.cache_inductor_llm/zo/czohrdpaozmmu32aouhfgogxmgs3qz4qa4vm3n2kynpuf3wqmuyd.py":29:19)
#loc20 = loc("/NHNHOME/WORKSPACE/26msit001_A/jinhyeok/loop_TTT/lact/.cache_inductor_llm/zo/czohrdpaozmmu32aouhfgogxmgs3qz4qa4vm3n2kynpuf3wqmuyd.py":30:39)
#loc21 = loc("/NHNHOME/WORKSPACE/26msit001_A/jinhyeok/loop_TTT/lact/.cache_inductor_llm/zo/czohrdpaozmmu32aouhfgogxmgs3qz4qa4vm3n2kynpuf3wqmuyd.py":30:35)
#loc22 = loc("/NHNHOME/WORKSPACE/26msit001_A/jinhyeok/loop_TTT/lact/.cache_inductor_llm/zo/czohrdpaozmmu32aouhfgogxmgs3qz4qa4vm3n2kynpuf3wqmuyd.py":30:30)
#loc23 = loc("/NHNHOME/WORKSPACE/26msit001_A/jinhyeok/loop_TTT/lact/.cache_inductor_llm/zo/czohrdpaozmmu32aouhfgogxmgs3qz4qa4vm3n2kynpuf3wqmuyd.py":30:52)
#loc24 = loc("/NHNHOME/WORKSPACE/26msit001_A/jinhyeok/loop_TTT/lact/.cache_inductor_llm/zo/czohrdpaozmmu32aouhfgogxmgs3qz4qa4vm3n2kynpuf3wqmuyd.py":30:44)
#loc25 = loc("/NHNHOME/WORKSPACE/26msit001_A/jinhyeok/loop_TTT/lact/.cache_inductor_llm/zo/czohrdpaozmmu32aouhfgogxmgs3qz4qa4vm3n2kynpuf3wqmuyd.py":30:92)
#loc26 = loc("/NHNHOME/WORKSPACE/26msit001_A/jinhyeok/loop_TTT/lact/.cache_inductor_llm/zo/czohrdpaozmmu32aouhfgogxmgs3qz4qa4vm3n2kynpuf3wqmuyd.py":31:30)
#loc27 = loc("/NHNHOME/WORKSPACE/26msit001_A/jinhyeok/loop_TTT/lact/.cache_inductor_llm/zo/czohrdpaozmmu32aouhfgogxmgs3qz4qa4vm3n2kynpuf3wqmuyd.py":31:35)
#loc28 = loc("/NHNHOME/WORKSPACE/26msit001_A/jinhyeok/loop_TTT/lact/.cache_inductor_llm/zo/czohrdpaozmmu32aouhfgogxmgs3qz4qa4vm3n2kynpuf3wqmuyd.py":32:31)
#loc29 = loc("/NHNHOME/WORKSPACE/26msit001_A/jinhyeok/loop_TTT/lact/.cache_inductor_llm/zo/czohrdpaozmmu32aouhfgogxmgs3qz4qa4vm3n2kynpuf3wqmuyd.py":32:36)
#loc30 = loc("/NHNHOME/WORKSPACE/26msit001_A/jinhyeok/loop_TTT/lact/.cache_inductor_llm/zo/czohrdpaozmmu32aouhfgogxmgs3qz4qa4vm3n2kynpuf3wqmuyd.py":33:40)
#loc31 = loc("/NHNHOME/WORKSPACE/26msit001_A/jinhyeok/loop_TTT/lact/.cache_inductor_llm/zo/czohrdpaozmmu32aouhfgogxmgs3qz4qa4vm3n2kynpuf3wqmuyd.py":33:36)
#loc32 = loc("/NHNHOME/WORKSPACE/26msit001_A/jinhyeok/loop_TTT/lact/.cache_inductor_llm/zo/czohrdpaozmmu32aouhfgogxmgs3qz4qa4vm3n2kynpuf3wqmuyd.py":33:31)
#loc33 = loc("/NHNHOME/WORKSPACE/26msit001_A/jinhyeok/loop_TTT/lact/.cache_inductor_llm/zo/czohrdpaozmmu32aouhfgogxmgs3qz4qa4vm3n2kynpuf3wqmuyd.py":33:53)
#loc34 = loc("/NHNHOME/WORKSPACE/26msit001_A/jinhyeok/loop_TTT/lact/.cache_inductor_llm/zo/czohrdpaozmmu32aouhfgogxmgs3qz4qa4vm3n2kynpuf3wqmuyd.py":33:45)
#loc35 = loc("/NHNHOME/WORKSPACE/26msit001_A/jinhyeok/loop_TTT/lact/.cache_inductor_llm/zo/czohrdpaozmmu32aouhfgogxmgs3qz4qa4vm3n2kynpuf3wqmuyd.py":33:93)
#loc36 = loc("/NHNHOME/WORKSPACE/26msit001_A/jinhyeok/loop_TTT/lact/.cache_inductor_llm/zo/czohrdpaozmmu32aouhfgogxmgs3qz4qa4vm3n2kynpuf3wqmuyd.py":35:11)
#loc37 = loc("/NHNHOME/WORKSPACE/26msit001_A/jinhyeok/loop_TTT/lact/.cache_inductor_llm/zo/czohrdpaozmmu32aouhfgogxmgs3qz4qa4vm3n2kynpuf3wqmuyd.py":36:19)
#loc38 = loc("/NHNHOME/WORKSPACE/26msit001_A/jinhyeok/loop_TTT/lact/.cache_inductor_llm/zo/czohrdpaozmmu32aouhfgogxmgs3qz4qa4vm3n2kynpuf3wqmuyd.py":37:11)
#loc39 = loc("/NHNHOME/WORKSPACE/26msit001_A/jinhyeok/loop_TTT/lact/.cache_inductor_llm/zo/czohrdpaozmmu32aouhfgogxmgs3qz4qa4vm3n2kynpuf3wqmuyd.py":38:18)
#loc40 = loc("/NHNHOME/WORKSPACE/26msit001_A/jinhyeok/loop_TTT/lact/.cache_inductor_llm/zo/czohrdpaozmmu32aouhfgogxmgs3qz4qa4vm3n2kynpuf3wqmuyd.py":39:18)
#loc41 = loc("/NHNHOME/WORKSPACE/26msit001_A/jinhyeok/loop_TTT/lact/.cache_inductor_llm/zo/czohrdpaozmmu32aouhfgogxmgs3qz4qa4vm3n2kynpuf3wqmuyd.py":42:27)
#loc42 = loc("/NHNHOME/WORKSPACE/26msit001_A/jinhyeok/loop_TTT/lact/.cache_inductor_llm/zo/czohrdpaozmmu32aouhfgogxmgs3qz4qa4vm3n2kynpuf3wqmuyd.py":43:12)
#loc43 = loc("/NHNHOME/WORKSPACE/26msit001_A/jinhyeok/loop_TTT/lact/.cache_inductor_llm/zo/czohrdpaozmmu32aouhfgogxmgs3qz4qa4vm3n2kynpuf3wqmuyd.py":44:20)
#loc44 = loc("/NHNHOME/WORKSPACE/26msit001_A/jinhyeok/loop_TTT/lact/.cache_inductor_llm/zo/czohrdpaozmmu32aouhfgogxmgs3qz4qa4vm3n2kynpuf3wqmuyd.py":45:20)
#loc45 = loc("/NHNHOME/WORKSPACE/26msit001_A/jinhyeok/loop_TTT/lact/.cache_inductor_llm/zo/czohrdpaozmmu32aouhfgogxmgs3qz4qa4vm3n2kynpuf3wqmuyd.py":46:12)
#loc46 = loc("/NHNHOME/WORKSPACE/26msit001_A/jinhyeok/loop_TTT/lact/.cache_inductor_llm/zo/czohrdpaozmmu32aouhfgogxmgs3qz4qa4vm3n2kynpuf3wqmuyd.py":47:20)
#loc47 = loc("/NHNHOME/WORKSPACE/26msit001_A/jinhyeok/loop_TTT/lact/.cache_inductor_llm/zo/czohrdpaozmmu32aouhfgogxmgs3qz4qa4vm3n2kynpuf3wqmuyd.py":49:20)
#loc48 = loc("/NHNHOME/WORKSPACE/26msit001_A/jinhyeok/loop_TTT/lact/.cache_inductor_llm/zo/czohrdpaozmmu32aouhfgogxmgs3qz4qa4vm3n2kynpuf3wqmuyd.py":51:34)
#loc49 = loc("/NHNHOME/WORKSPACE/26msit001_A/jinhyeok/loop_TTT/lact/.cache_inductor_llm/zo/czohrdpaozmmu32aouhfgogxmgs3qz4qa4vm3n2kynpuf3wqmuyd.py":51:30)
#loc50 = loc("/NHNHOME/WORKSPACE/26msit001_A/jinhyeok/loop_TTT/lact/.cache_inductor_llm/zo/czohrdpaozmmu32aouhfgogxmgs3qz4qa4vm3n2kynpuf3wqmuyd.py":51:25)
#loc51 = loc("/NHNHOME/WORKSPACE/26msit001_A/jinhyeok/loop_TTT/lact/.cache_inductor_llm/zo/czohrdpaozmmu32aouhfgogxmgs3qz4qa4vm3n2kynpuf3wqmuyd.py":51:54)
#loc52 = loc("/NHNHOME/WORKSPACE/26msit001_A/jinhyeok/loop_TTT/lact/.cache_inductor_llm/zo/czohrdpaozmmu32aouhfgogxmgs3qz4qa4vm3n2kynpuf3wqmuyd.py":51:46)
#loc53 = loc("/NHNHOME/WORKSPACE/26msit001_A/jinhyeok/loop_TTT/lact/.cache_inductor_llm/zo/czohrdpaozmmu32aouhfgogxmgs3qz4qa4vm3n2kynpuf3wqmuyd.py":52:34)
#loc54 = loc("/NHNHOME/WORKSPACE/26msit001_A/jinhyeok/loop_TTT/lact/.cache_inductor_llm/zo/czohrdpaozmmu32aouhfgogxmgs3qz4qa4vm3n2kynpuf3wqmuyd.py":52:30)
#loc55 = loc("/NHNHOME/WORKSPACE/26msit001_A/jinhyeok/loop_TTT/lact/.cache_inductor_llm/zo/czohrdpaozmmu32aouhfgogxmgs3qz4qa4vm3n2kynpuf3wqmuyd.py":52:45)
#loc56 = loc("/NHNHOME/WORKSPACE/26msit001_A/jinhyeok/loop_TTT/lact/.cache_inductor_llm/zo/czohrdpaozmmu32aouhfgogxmgs3qz4qa4vm3n2kynpuf3wqmuyd.py":52:39)
#loc57 = loc("/NHNHOME/WORKSPACE/26msit001_A/jinhyeok/loop_TTT/lact/.cache_inductor_llm/zo/czohrdpaozmmu32aouhfgogxmgs3qz4qa4vm3n2kynpuf3wqmuyd.py":52:25)
#loc58 = loc("/NHNHOME/WORKSPACE/26msit001_A/jinhyeok/loop_TTT/lact/.cache_inductor_llm/zo/czohrdpaozmmu32aouhfgogxmgs3qz4qa4vm3n2kynpuf3wqmuyd.py":52:65)
#loc59 = loc("/NHNHOME/WORKSPACE/26msit001_A/jinhyeok/loop_TTT/lact/.cache_inductor_llm/zo/czohrdpaozmmu32aouhfgogxmgs3qz4qa4vm3n2kynpuf3wqmuyd.py":52:57)
#loc60 = loc("/NHNHOME/WORKSPACE/26msit001_A/jinhyeok/loop_TTT/lact/.cache_inductor_llm/zo/czohrdpaozmmu32aouhfgogxmgs3qz4qa4vm3n2kynpuf3wqmuyd.py":53:34)
#loc61 = loc("/NHNHOME/WORKSPACE/26msit001_A/jinhyeok/loop_TTT/lact/.cache_inductor_llm/zo/czohrdpaozmmu32aouhfgogxmgs3qz4qa4vm3n2kynpuf3wqmuyd.py":53:30)
#loc62 = loc("/NHNHOME/WORKSPACE/26msit001_A/jinhyeok/loop_TTT/lact/.cache_inductor_llm/zo/czohrdpaozmmu32aouhfgogxmgs3qz4qa4vm3n2kynpuf3wqmuyd.py":53:25)
#loc63 = loc("/NHNHOME/WORKSPACE/26msit001_A/jinhyeok/loop_TTT/lact/.cache_inductor_llm/zo/czohrdpaozmmu32aouhfgogxmgs3qz4qa4vm3n2kynpuf3wqmuyd.py":53:54)
#loc64 = loc("/NHNHOME/WORKSPACE/26msit001_A/jinhyeok/loop_TTT/lact/.cache_inductor_llm/zo/czohrdpaozmmu32aouhfgogxmgs3qz4qa4vm3n2kynpuf3wqmuyd.py":53:46)
#loc65 = loc("/NHNHOME/WORKSPACE/26msit001_A/jinhyeok/loop_TTT/lact/.cache_inductor_llm/zo/czohrdpaozmmu32aouhfgogxmgs3qz4qa4vm3n2kynpuf3wqmuyd.py":53:4)
#loc75 = loc("xnumel"(#loc1))
#loc76 = loc("yoffset"(#loc2))
#loc77 = loc("yoffset"(#loc3))
#loc78 = loc("yoffset"(#loc4))
#loc79 = loc("yoffset"(#loc5))
#loc80 = loc("yoffset"(#loc6))
#loc81 = loc("yoffset"(#loc7))
#loc82 = loc("yindex"(#loc8))
#loc83 = loc("yindex"(#loc9))
#loc84 = loc("yindex"(#loc10))
#loc85 = loc("ymask"(#loc11))
#loc86 = loc("xoffset"(#loc12))
#loc87 = loc("xoffset"(#loc13))
#loc88 = loc("xindex"(#loc14))
#loc89 = loc("xindex"(#loc15))
#loc90 = loc("xindex"(#loc16))
#loc91 = loc("xmask"(#loc17))
#loc92 = loc("y1"(#loc18))
#loc93 = loc("y0"(#loc19))
#loc94 = loc("tmp0"(#loc20))
#loc95 = loc("tmp0"(#loc21))
#loc96 = loc("tmp0"(#loc22))
#loc97 = loc("tmp0"(#loc23))
#loc98 = loc("tmp0"(#loc24))
#loc99 = loc("tmp0"(#loc25))
#loc100 = loc("tmp2"(#loc26))
#loc101 = loc("tmp2"(#loc27))
#loc102 = loc("tmp10"(#loc28))
#loc103 = loc("tmp10"(#loc29))
#loc104 = loc("tmp17"(#loc30))
#loc105 = loc("tmp17"(#loc31))
#loc106 = loc("tmp17"(#loc32))
#loc107 = loc("tmp17"(#loc33))
#loc108 = loc("tmp17"(#loc34))
#loc109 = loc("tmp17"(#loc35))
#loc110 = loc("tmp3"(#loc36))
#loc111 = loc("tmp4"(#loc37))
#loc112 = loc("tmp5"(#loc38))
#loc113 = loc("tmp6"(#loc39))
#loc114 = loc("tmp7"(#loc40))
#loc115 = loc("tmp11"(#loc41))
#loc116 = loc("tmp12"(#loc42))
#loc117 = loc("tmp13"(#loc43))
#loc118 = loc("tmp14"(#loc44))
#loc119 = loc("tmp15"(#loc45))
#loc120 = loc("tmp16"(#loc46))
#loc121 = loc("tmp19"(#loc47))
