#loc = loc("/NHNHOME/WORKSPACE/26msit001_A/jinhyeok/loop_TTT/lact/.cache_inductor_llm/zo/czohrdpaozmmu32aouhfgogxmgs3qz4qa4vm3n2kynpuf3wqmuyd.py":18:0)
#loc49 = loc("in_ptr0"(#loc))
#loc50 = loc("in_ptr1"(#loc))
#loc51 = loc("in_ptr2"(#loc))
#loc52 = loc("in_ptr3"(#loc))
#loc53 = loc("out_ptr0"(#loc))
#loc54 = loc("out_ptr1"(#loc))
#loc55 = loc("out_ptr2"(#loc))
#loc56 = loc("ynumel"(#loc))
#loc57 = loc("xnumel"(#loc))
module {
  tt.func public @triton_poi_fused__to_copy_add_div_linalg_vector_norm_mean_mul_slice_transpose_zeros_like_10(%in_ptr0: !tt.ptr<bf16> {tt.divisibility = 16 : i32} loc("in_ptr0"(#loc)), %in_ptr1: !tt.ptr<f32> {tt.divisibility = 16 : i32} loc("in_ptr1"(#loc)), %in_ptr2: !tt.ptr<f32> {tt.divisibility = 16 : i32} loc("in_ptr2"(#loc)), %in_ptr3: !tt.ptr<bf16> {tt.divisibility = 16 : i32} loc("in_ptr3"(#loc)), %out_ptr0: !tt.ptr<bf16> {tt.divisibility = 16 : i32} loc("out_ptr0"(#loc)), %out_ptr1: !tt.ptr<bf16> {tt.divisibility = 16 : i32} loc("out_ptr1"(#loc)), %out_ptr2: !tt.ptr<bf16> {tt.divisibility = 16 : i32} loc("out_ptr2"(#loc)), %ynumel: i32 {tt.divisibility = 16 : i32} loc("ynumel"(#loc)), %xnumel: i32 {tt.divisibility = 16 : i32} loc("xnumel"(#loc))) attributes {noinline = false} {
    %c192_i32 = arith.constant 192 : i32 loc(#loc1)
    %cst = arith.constant dense<36864> : tensor<1024x1xi32> loc(#loc2)
    %tmp16 = arith.constant dense<4.084800e+00> : tensor<1024x1xf32> loc(#loc58)
    %tmp13 = arith.constant dense<1.000000e-07> : tensor<1024x1xf32> loc(#loc59)
    %tmp6 = arith.constant dense<0.000000e+00> : tensor<1024x1xf32> loc(#loc60)
    %tmp4 = arith.constant dense<1.024000e+03> : tensor<1024x1xf32> loc(#loc61)
    %cst_0 = arith.constant dense<192> : tensor<1024x1xi32> loc(#loc1)
    %c1024_i32 = arith.constant 1024 : i32 loc(#loc1)
    %yoffset = tt.get_program_id y : i32 loc(#loc62)
    %yoffset_1 = tt.get_program_id z : i32 loc(#loc63)
    %yoffset_2 = tt.get_num_programs y : i32 loc(#loc64)
    %yoffset_3 = arith.muli %yoffset_1, %yoffset_2 : i32 loc(#loc65)
    %yoffset_4 = arith.addi %yoffset, %yoffset_3 : i32 loc(#loc66)
    %yoffset_5 = arith.muli %yoffset_4, %c1024_i32 : i32 loc(#loc67)
    %yindex = tt.make_range {end = 1024 : i32, start = 0 : i32} : tensor<1024xi32> loc(#loc68)
    %yindex_6 = tt.expand_dims %yindex {axis = 1 : i32} : tensor<1024xi32> -> tensor<1024x1xi32> loc(#loc69)
    %yindex_7 = tt.splat %yoffset_5 : i32 -> tensor<1024x1xi32> loc(#loc70)
    %yindex_8 = arith.addi %yindex_7, %yindex_6 : tensor<1024x1xi32> loc(#loc70)
    %ymask = tt.splat %ynumel : i32 -> tensor<1024x1xi32> loc(#loc71)
    %ymask_9 = arith.cmpi slt, %yindex_8, %ymask : tensor<1024x1xi32> loc(#loc71)
    %xoffset = tt.get_program_id x : i32 loc(#loc72)
    %xmask = arith.cmpi slt, %xoffset, %c192_i32 : i32 loc(#loc73)
    %y1 = arith.divsi %yindex_8, %cst_0 : tensor<1024x1xi32> loc(#loc74)
    %y0 = arith.remsi %yindex_8, %cst_0 : tensor<1024x1xi32> loc(#loc75)
    %tmp0 = arith.muli %yindex_8, %cst_0 : tensor<1024x1xi32> loc(#loc76)
    %tmp0_10 = tt.splat %xoffset : i32 -> tensor<1024x1xi32> loc(#loc95)
    %tmp0_11 = arith.addi %tmp0_10, %tmp0 : tensor<1024x1xi32> loc(#loc77)
    %tmp0_12 = tt.splat %in_ptr0 : !tt.ptr<bf16> -> tensor<1024x1x!tt.ptr<bf16>> loc(#loc79)
    %tmp0_13 = tt.addptr %tmp0_12, %tmp0_11 : tensor<1024x1x!tt.ptr<bf16>>, tensor<1024x1xi32> loc(#loc79)
    %tmp0_14 = tt.splat %xmask : i1 -> tensor<1024x1xi1> loc(#loc96)
    %tmp0_15 = arith.andi %tmp0_14, %ymask_9 : tensor<1024x1xi1> loc(#loc80)
    %tmp0_16 = tt.load %tmp0_13, %tmp0_15 evictionPolicy = evict_last : tensor<1024x1x!tt.ptr<bf16>> loc(#loc81)
    %tmp0_17 = arith.extf %tmp0_16 : tensor<1024x1xbf16> to tensor<1024x1xf32> loc(#loc82)
    %tmp2 = tt.splat %in_ptr1 : !tt.ptr<f32> -> tensor<1024x1x!tt.ptr<f32>> loc(#loc83)
    %tmp2_18 = tt.addptr %tmp2, %y1 : tensor<1024x1x!tt.ptr<f32>>, tensor<1024x1xi32> loc(#loc83)
    %tmp2_19 = tt.load %tmp2_18, %ymask_9 evictionPolicy = evict_last : tensor<1024x1x!tt.ptr<f32>> loc(#loc84)
    %tmp10 = tt.splat %in_ptr2 : !tt.ptr<f32> -> tensor<1024x1x!tt.ptr<f32>> loc(#loc85)
    %tmp10_20 = tt.addptr %tmp10, %y1 : tensor<1024x1x!tt.ptr<f32>>, tensor<1024x1xi32> loc(#loc85)
    %tmp10_21 = tt.load %tmp10_20, %ymask_9 evictionPolicy = evict_last : tensor<1024x1x!tt.ptr<f32>> loc(#loc86)
    %tmp17 = tt.splat %in_ptr3 : !tt.ptr<bf16> -> tensor<1024x1x!tt.ptr<bf16>> loc(#loc87)
    %tmp17_22 = tt.addptr %tmp17, %tmp0_11 : tensor<1024x1x!tt.ptr<bf16>>, tensor<1024x1xi32> loc(#loc87)
    %tmp17_23 = tt.load %tmp17_22, %tmp0_15 evictionPolicy = evict_last : tensor<1024x1x!tt.ptr<bf16>> loc(#loc88)
    %tmp17_24 = arith.extf %tmp17_23 : tensor<1024x1xbf16> to tensor<1024x1xf32> loc(#loc89)
    %tmp4_25 = arith.divf %tmp2_19, %tmp4 : tensor<1024x1xf32> loc(#loc61)
    %tmp6_26 = arith.mulf %tmp4_25, %tmp6 : tensor<1024x1xf32> loc(#loc60)
    %tmp7 = arith.addf %tmp0_17, %tmp6_26 : tensor<1024x1xf32> loc(#loc90)
    %tmp11 = tt.extern_elementwise %tmp10_21 {libname = "", libpath = "", pure = true, symbol = "__nv_sqrtf"} : (tensor<1024x1xf32>) -> tensor<1024x1xf32> loc(#loc91)
    %tmp13_27 = arith.addf %tmp11, %tmp13 : tensor<1024x1xf32> loc(#loc59)
    %tmp14 = arith.divf %tmp7, %tmp13_27 : tensor<1024x1xf32> loc(#loc92)
    %tmp16_28 = arith.mulf %tmp14, %tmp16 : tensor<1024x1xf32> loc(#loc58)
    %tmp19 = arith.addf %tmp16_28, %tmp17_24 : tensor<1024x1xf32> loc(#loc93)
    %0 = tt.splat %out_ptr0 : !tt.ptr<bf16> -> tensor<1024x1x!tt.ptr<bf16>> loc(#loc39)
    %1 = tt.addptr %0, %tmp0_11 : tensor<1024x1x!tt.ptr<bf16>>, tensor<1024x1xi32> loc(#loc39)
    %2 = arith.truncf %tmp19 : tensor<1024x1xf32> to tensor<1024x1xbf16> loc(#loc40)
    tt.store %1, %2, %tmp0_15 : tensor<1024x1x!tt.ptr<bf16>> loc(#loc40)
    %3 = arith.muli %xoffset, %c192_i32 : i32 loc(#loc41)
    %4 = tt.splat %3 : i32 -> tensor<1024x1xi32> loc(#loc94)
    %5 = arith.addi %y0, %4 : tensor<1024x1xi32> loc(#loc42)
    %6 = arith.muli %y1, %cst : tensor<1024x1xi32> loc(#loc2)
    %7 = arith.addi %5, %6 : tensor<1024x1xi32> loc(#loc43)
    %8 = tt.splat %out_ptr1 : !tt.ptr<bf16> -> tensor<1024x1x!tt.ptr<bf16>> loc(#loc44)
    %9 = tt.addptr %8, %7 : tensor<1024x1x!tt.ptr<bf16>>, tensor<1024x1xi32> loc(#loc44)
    tt.store %9, %2, %tmp0_15 : tensor<1024x1x!tt.ptr<bf16>> loc(#loc45)
    %10 = tt.splat %out_ptr2 : !tt.ptr<bf16> -> tensor<1024x1x!tt.ptr<bf16>> loc(#loc46)
    %11 = tt.addptr %10, %tmp0_11 : tensor<1024x1x!tt.ptr<bf16>>, tensor<1024x1xi32> loc(#loc46)
    tt.store %11, %2, %tmp0_15 : tensor<1024x1x!tt.ptr<bf16>> loc(#loc47)
    tt.return loc(#loc48)
  } loc(#loc)
} loc(#loc)
#loc1 = loc(unknown)
#loc2 = loc("/NHNHOME/WORKSPACE/26msit001_A/jinhyeok/loop_TTT/lact/.cache_inductor_llm/zo/czohrdpaozmmu32aouhfgogxmgs3qz4qa4vm3n2kynpuf3wqmuyd.py":52:45)
#loc3 = loc("/NHNHOME/WORKSPACE/26msit001_A/jinhyeok/loop_TTT/lact/.cache_inductor_llm/zo/czohrdpaozmmu32aouhfgogxmgs3qz4qa4vm3n2kynpuf3wqmuyd.py":47:20)
#loc4 = loc("/NHNHOME/WORKSPACE/26msit001_A/jinhyeok/loop_TTT/lact/.cache_inductor_llm/zo/czohrdpaozmmu32aouhfgogxmgs3qz4qa4vm3n2kynpuf3wqmuyd.py":44:20)
#loc5 = loc("/NHNHOME/WORKSPACE/26msit001_A/jinhyeok/loop_TTT/lact/.cache_inductor_llm/zo/czohrdpaozmmu32aouhfgogxmgs3qz4qa4vm3n2kynpuf3wqmuyd.py":38:18)
#loc6 = loc("/NHNHOME/WORKSPACE/26msit001_A/jinhyeok/loop_TTT/lact/.cache_inductor_llm/zo/czohrdpaozmmu32aouhfgogxmgs3qz4qa4vm3n2kynpuf3wqmuyd.py":36:19)
#loc7 = loc("/NHNHOME/WORKSPACE/26msit001_A/jinhyeok/loop_TTT/lact/.cache_inductor_llm/zo/czohrdpaozmmu32aouhfgogxmgs3qz4qa4vm3n2kynpuf3wqmuyd.py":20:29)
#loc8 = loc("/NHNHOME/WORKSPACE/26msit001_A/jinhyeok/loop_TTT/lact/.cache_inductor_llm/zo/czohrdpaozmmu32aouhfgogxmgs3qz4qa4vm3n2kynpuf3wqmuyd.py":20:48)
#loc9 = loc("/NHNHOME/WORKSPACE/26msit001_A/jinhyeok/loop_TTT/lact/.cache_inductor_llm/zo/czohrdpaozmmu32aouhfgogxmgs3qz4qa4vm3n2kynpuf3wqmuyd.py":20:69)
#loc10 = loc("/NHNHOME/WORKSPACE/26msit001_A/jinhyeok/loop_TTT/lact/.cache_inductor_llm/zo/czohrdpaozmmu32aouhfgogxmgs3qz4qa4vm3n2kynpuf3wqmuyd.py":20:53)
#loc11 = loc("/NHNHOME/WORKSPACE/26msit001_A/jinhyeok/loop_TTT/lact/.cache_inductor_llm/zo/czohrdpaozmmu32aouhfgogxmgs3qz4qa4vm3n2kynpuf3wqmuyd.py":20:34)
#loc12 = loc("/NHNHOME/WORKSPACE/26msit001_A/jinhyeok/loop_TTT/lact/.cache_inductor_llm/zo/czohrdpaozmmu32aouhfgogxmgs3qz4qa4vm3n2kynpuf3wqmuyd.py":20:75)
#loc13 = loc("/NHNHOME/WORKSPACE/26msit001_A/jinhyeok/loop_TTT/lact/.cache_inductor_llm/zo/czohrdpaozmmu32aouhfgogxmgs3qz4qa4vm3n2kynpuf3wqmuyd.py":21:36)
#loc14 = loc("/NHNHOME/WORKSPACE/26msit001_A/jinhyeok/loop_TTT/lact/.cache_inductor_llm/zo/czohrdpaozmmu32aouhfgogxmgs3qz4qa4vm3n2kynpuf3wqmuyd.py":21:44)
#loc15 = loc("/NHNHOME/WORKSPACE/26msit001_A/jinhyeok/loop_TTT/lact/.cache_inductor_llm/zo/czohrdpaozmmu32aouhfgogxmgs3qz4qa4vm3n2kynpuf3wqmuyd.py":21:23)
#loc16 = loc("/NHNHOME/WORKSPACE/26msit001_A/jinhyeok/loop_TTT/lact/.cache_inductor_llm/zo/czohrdpaozmmu32aouhfgogxmgs3qz4qa4vm3n2kynpuf3wqmuyd.py":22:21)
#loc17 = loc("/NHNHOME/WORKSPACE/26msit001_A/jinhyeok/loop_TTT/lact/.cache_inductor_llm/zo/czohrdpaozmmu32aouhfgogxmgs3qz4qa4vm3n2kynpuf3wqmuyd.py":23:28)
#loc18 = loc("/NHNHOME/WORKSPACE/26msit001_A/jinhyeok/loop_TTT/lact/.cache_inductor_llm/zo/czohrdpaozmmu32aouhfgogxmgs3qz4qa4vm3n2kynpuf3wqmuyd.py":25:21)
#loc19 = loc("/NHNHOME/WORKSPACE/26msit001_A/jinhyeok/loop_TTT/lact/.cache_inductor_llm/zo/czohrdpaozmmu32aouhfgogxmgs3qz4qa4vm3n2kynpuf3wqmuyd.py":28:19)
#loc20 = loc("/NHNHOME/WORKSPACE/26msit001_A/jinhyeok/loop_TTT/lact/.cache_inductor_llm/zo/czohrdpaozmmu32aouhfgogxmgs3qz4qa4vm3n2kynpuf3wqmuyd.py":29:19)
#loc21 = loc("/NHNHOME/WORKSPACE/26msit001_A/jinhyeok/loop_TTT/lact/.cache_inductor_llm/zo/czohrdpaozmmu32aouhfgogxmgs3qz4qa4vm3n2kynpuf3wqmuyd.py":30:39)
#loc22 = loc("/NHNHOME/WORKSPACE/26msit001_A/jinhyeok/loop_TTT/lact/.cache_inductor_llm/zo/czohrdpaozmmu32aouhfgogxmgs3qz4qa4vm3n2kynpuf3wqmuyd.py":30:35)
#loc23 = loc("/NHNHOME/WORKSPACE/26msit001_A/jinhyeok/loop_TTT/lact/.cache_inductor_llm/zo/czohrdpaozmmu32aouhfgogxmgs3qz4qa4vm3n2kynpuf3wqmuyd.py":24:23)
#loc24 = loc("/NHNHOME/WORKSPACE/26msit001_A/jinhyeok/loop_TTT/lact/.cache_inductor_llm/zo/czohrdpaozmmu32aouhfgogxmgs3qz4qa4vm3n2kynpuf3wqmuyd.py":30:30)
#loc25 = loc("/NHNHOME/WORKSPACE/26msit001_A/jinhyeok/loop_TTT/lact/.cache_inductor_llm/zo/czohrdpaozmmu32aouhfgogxmgs3qz4qa4vm3n2kynpuf3wqmuyd.py":30:52)
#loc26 = loc("/NHNHOME/WORKSPACE/26msit001_A/jinhyeok/loop_TTT/lact/.cache_inductor_llm/zo/czohrdpaozmmu32aouhfgogxmgs3qz4qa4vm3n2kynpuf3wqmuyd.py":30:44)
#loc27 = loc("/NHNHOME/WORKSPACE/26msit001_A/jinhyeok/loop_TTT/lact/.cache_inductor_llm/zo/czohrdpaozmmu32aouhfgogxmgs3qz4qa4vm3n2kynpuf3wqmuyd.py":30:92)
#loc28 = loc("/NHNHOME/WORKSPACE/26msit001_A/jinhyeok/loop_TTT/lact/.cache_inductor_llm/zo/czohrdpaozmmu32aouhfgogxmgs3qz4qa4vm3n2kynpuf3wqmuyd.py":31:30)
#loc29 = loc("/NHNHOME/WORKSPACE/26msit001_A/jinhyeok/loop_TTT/lact/.cache_inductor_llm/zo/czohrdpaozmmu32aouhfgogxmgs3qz4qa4vm3n2kynpuf3wqmuyd.py":31:35)
#loc30 = loc("/NHNHOME/WORKSPACE/26msit001_A/jinhyeok/loop_TTT/lact/.cache_inductor_llm/zo/czohrdpaozmmu32aouhfgogxmgs3qz4qa4vm3n2kynpuf3wqmuyd.py":32:31)
#loc31 = loc("/NHNHOME/WORKSPACE/26msit001_A/jinhyeok/loop_TTT/lact/.cache_inductor_llm/zo/czohrdpaozmmu32aouhfgogxmgs3qz4qa4vm3n2kynpuf3wqmuyd.py":32:36)
#loc32 = loc("/NHNHOME/WORKSPACE/26msit001_A/jinhyeok/loop_TTT/lact/.cache_inductor_llm/zo/czohrdpaozmmu32aouhfgogxmgs3qz4qa4vm3n2kynpuf3wqmuyd.py":33:31)
#loc33 = loc("/NHNHOME/WORKSPACE/26msit001_A/jinhyeok/loop_TTT/lact/.cache_inductor_llm/zo/czohrdpaozmmu32aouhfgogxmgs3qz4qa4vm3n2kynpuf3wqmuyd.py":33:45)
#loc34 = loc("/NHNHOME/WORKSPACE/26msit001_A/jinhyeok/loop_TTT/lact/.cache_inductor_llm/zo/czohrdpaozmmu32aouhfgogxmgs3qz4qa4vm3n2kynpuf3wqmuyd.py":33:93)
#loc35 = loc("/NHNHOME/WORKSPACE/26msit001_A/jinhyeok/loop_TTT/lact/.cache_inductor_llm/zo/czohrdpaozmmu32aouhfgogxmgs3qz4qa4vm3n2kynpuf3wqmuyd.py":39:18)
#loc36 = loc("/NHNHOME/WORKSPACE/26msit001_A/jinhyeok/loop_TTT/lact/.cache_inductor_llm/zo/czohrdpaozmmu32aouhfgogxmgs3qz4qa4vm3n2kynpuf3wqmuyd.py":42:27)
#loc37 = loc("/NHNHOME/WORKSPACE/26msit001_A/jinhyeok/loop_TTT/lact/.cache_inductor_llm/zo/czohrdpaozmmu32aouhfgogxmgs3qz4qa4vm3n2kynpuf3wqmuyd.py":45:20)
#loc38 = loc("/NHNHOME/WORKSPACE/26msit001_A/jinhyeok/loop_TTT/lact/.cache_inductor_llm/zo/czohrdpaozmmu32aouhfgogxmgs3qz4qa4vm3n2kynpuf3wqmuyd.py":49:20)
#loc39 = loc("/NHNHOME/WORKSPACE/26msit001_A/jinhyeok/loop_TTT/lact/.cache_inductor_llm/zo/czohrdpaozmmu32aouhfgogxmgs3qz4qa4vm3n2kynpuf3wqmuyd.py":51:25)
#loc40 = loc("/NHNHOME/WORKSPACE/26msit001_A/jinhyeok/loop_TTT/lact/.cache_inductor_llm/zo/czohrdpaozmmu32aouhfgogxmgs3qz4qa4vm3n2kynpuf3wqmuyd.py":51:46)
#loc41 = loc("/NHNHOME/WORKSPACE/26msit001_A/jinhyeok/loop_TTT/lact/.cache_inductor_llm/zo/czohrdpaozmmu32aouhfgogxmgs3qz4qa4vm3n2kynpuf3wqmuyd.py":52:34)
#loc42 = loc("/NHNHOME/WORKSPACE/26msit001_A/jinhyeok/loop_TTT/lact/.cache_inductor_llm/zo/czohrdpaozmmu32aouhfgogxmgs3qz4qa4vm3n2kynpuf3wqmuyd.py":52:30)
#loc43 = loc("/NHNHOME/WORKSPACE/26msit001_A/jinhyeok/loop_TTT/lact/.cache_inductor_llm/zo/czohrdpaozmmu32aouhfgogxmgs3qz4qa4vm3n2kynpuf3wqmuyd.py":52:39)
#loc44 = loc("/NHNHOME/WORKSPACE/26msit001_A/jinhyeok/loop_TTT/lact/.cache_inductor_llm/zo/czohrdpaozmmu32aouhfgogxmgs3qz4qa4vm3n2kynpuf3wqmuyd.py":52:25)
#loc45 = loc("/NHNHOME/WORKSPACE/26msit001_A/jinhyeok/loop_TTT/lact/.cache_inductor_llm/zo/czohrdpaozmmu32aouhfgogxmgs3qz4qa4vm3n2kynpuf3wqmuyd.py":52:57)
#loc46 = loc("/NHNHOME/WORKSPACE/26msit001_A/jinhyeok/loop_TTT/lact/.cache_inductor_llm/zo/czohrdpaozmmu32aouhfgogxmgs3qz4qa4vm3n2kynpuf3wqmuyd.py":53:25)
#loc47 = loc("/NHNHOME/WORKSPACE/26msit001_A/jinhyeok/loop_TTT/lact/.cache_inductor_llm/zo/czohrdpaozmmu32aouhfgogxmgs3qz4qa4vm3n2kynpuf3wqmuyd.py":53:46)
#loc48 = loc("/NHNHOME/WORKSPACE/26msit001_A/jinhyeok/loop_TTT/lact/.cache_inductor_llm/zo/czohrdpaozmmu32aouhfgogxmgs3qz4qa4vm3n2kynpuf3wqmuyd.py":53:4)
#loc58 = loc("tmp16"(#loc3))
#loc59 = loc("tmp13"(#loc4))
#loc60 = loc("tmp6"(#loc5))
#loc61 = loc("tmp4"(#loc6))
#loc62 = loc("yoffset"(#loc7))
#loc63 = loc("yoffset"(#loc8))
#loc64 = loc("yoffset"(#loc9))
#loc65 = loc("yoffset"(#loc10))
#loc66 = loc("yoffset"(#loc11))
#loc67 = loc("yoffset"(#loc12))
#loc68 = loc("yindex"(#loc13))
#loc69 = loc("yindex"(#loc14))
#loc70 = loc("yindex"(#loc15))
#loc71 = loc("ymask"(#loc16))
#loc72 = loc("xoffset"(#loc17))
#loc73 = loc("xmask"(#loc18))
#loc74 = loc("y1"(#loc19))
#loc75 = loc("y0"(#loc20))
#loc76 = loc("tmp0"(#loc21))
#loc77 = loc("tmp0"(#loc22))
#loc78 = loc("xindex"(#loc23))
#loc79 = loc("tmp0"(#loc24))
#loc80 = loc("tmp0"(#loc25))
#loc81 = loc("tmp0"(#loc26))
#loc82 = loc("tmp0"(#loc27))
#loc83 = loc("tmp2"(#loc28))
#loc84 = loc("tmp2"(#loc29))
#loc85 = loc("tmp10"(#loc30))
#loc86 = loc("tmp10"(#loc31))
#loc87 = loc("tmp17"(#loc32))
#loc88 = loc("tmp17"(#loc33))
#loc89 = loc("tmp17"(#loc34))
#loc90 = loc("tmp7"(#loc35))
#loc91 = loc("tmp11"(#loc36))
#loc92 = loc("tmp14"(#loc37))
#loc93 = loc("tmp19"(#loc38))
#loc94 = loc(fused[#loc42, #loc41])
#loc95 = loc(fused[#loc77, #loc78])
#loc96 = loc(fused[#loc80, #loc73])
