#loc = loc("/NHNHOME/WORKSPACE/26msit001_A/jinhyeok/loop_TTT/lact/.cache_inductor_llm/vz/cvzyap7m2uwhsycm5ud7h4dgxzh72jzgfwlbe5iktsanw2kukesa.py":18:0)
#loc37 = loc("in_ptr0"(#loc))
#loc38 = loc("in_ptr1"(#loc))
#loc39 = loc("in_ptr2"(#loc))
#loc40 = loc("in_ptr3"(#loc))
#loc41 = loc("in_ptr4"(#loc))
#loc42 = loc("out_ptr0"(#loc))
#loc43 = loc("out_ptr1"(#loc))
#loc44 = loc("out_ptr2"(#loc))
#loc45 = loc("xnumel"(#loc))
module {
  tt.func public @triton_poi_fused__to_copy_add_div_linalg_vector_norm_mul_53(%in_ptr0: !tt.ptr<bf16> {tt.divisibility = 16 : i32} loc("in_ptr0"(#loc)), %in_ptr1: !tt.ptr<f32> {tt.divisibility = 16 : i32} loc("in_ptr1"(#loc)), %in_ptr2: !tt.ptr<bf16> {tt.divisibility = 16 : i32} loc("in_ptr2"(#loc)), %in_ptr3: !tt.ptr<bf16> {tt.divisibility = 16 : i32} loc("in_ptr3"(#loc)), %in_ptr4: !tt.ptr<bf16> {tt.divisibility = 16 : i32} loc("in_ptr4"(#loc)), %out_ptr0: !tt.ptr<f32> {tt.divisibility = 16 : i32} loc("out_ptr0"(#loc)), %out_ptr1: !tt.ptr<bf16> {tt.divisibility = 16 : i32} loc("out_ptr1"(#loc)), %out_ptr2: !tt.ptr<bf16> {tt.divisibility = 16 : i32} loc("out_ptr2"(#loc)), %xnumel: i32 {tt.divisibility = 16 : i32} loc("xnumel"(#loc))) attributes {noinline = false} {
    %tmp18 = arith.constant dense<3.741800e+00> : tensor<512xf32> loc(#loc46)
    %tmp13 = arith.constant dense<3.950500e+00> : tensor<512xf32> loc(#loc47)
    %tmp8 = arith.constant dense<4.084800e+00> : tensor<512xf32> loc(#loc48)
    %tmp5 = arith.constant dense<1.000000e-07> : tensor<512xf32> loc(#loc49)
    %x1 = arith.constant dense<36864> : tensor<512xi32> loc(#loc50)
    %c512_i32 = arith.constant 512 : i32 loc(#loc6)
    %xoffset = tt.get_program_id x : i32 loc(#loc51)
    %xoffset_0 = arith.muli %xoffset, %c512_i32 : i32 loc(#loc52)
    %xindex = tt.make_range {end = 512 : i32, start = 0 : i32} : tensor<512xi32> loc(#loc53)
    %xindex_1 = tt.splat %xoffset_0 : i32 -> tensor<512xi32> loc(#loc54)
    %xindex_2 = arith.addi %xindex_1, %xindex : tensor<512xi32> loc(#loc54)
    %x1_3 = arith.divsi %xindex_2, %x1 : tensor<512xi32> loc(#loc50)
    %tmp0 = tt.splat %in_ptr0 : !tt.ptr<bf16> -> tensor<512x!tt.ptr<bf16>> loc(#loc55)
    %tmp0_4 = tt.addptr %tmp0, %xindex_2 : tensor<512x!tt.ptr<bf16>>, tensor<512xi32> loc(#loc55)
    %tmp0_5 = tt.load %tmp0_4 : tensor<512x!tt.ptr<bf16>> loc(#loc56)
    %tmp0_6 = arith.extf %tmp0_5 : tensor<512xbf16> to tensor<512xf32> loc(#loc57)
    %tmp2 = tt.splat %in_ptr1 : !tt.ptr<f32> -> tensor<512x!tt.ptr<f32>> loc(#loc58)
    %tmp2_7 = tt.addptr %tmp2, %x1_3 : tensor<512x!tt.ptr<f32>>, tensor<512xi32> loc(#loc58)
    %tmp2_8 = tt.load %tmp2_7 evictionPolicy = evict_last : tensor<512x!tt.ptr<f32>> loc(#loc59)
    %tmp9 = tt.splat %in_ptr2 : !tt.ptr<bf16> -> tensor<512x!tt.ptr<bf16>> loc(#loc60)
    %tmp9_9 = tt.addptr %tmp9, %xindex_2 : tensor<512x!tt.ptr<bf16>>, tensor<512xi32> loc(#loc60)
    %tmp9_10 = tt.load %tmp9_9 : tensor<512x!tt.ptr<bf16>> loc(#loc61)
    %tmp9_11 = arith.extf %tmp9_10 : tensor<512xbf16> to tensor<512xf32> loc(#loc62)
    %tmp14 = tt.splat %in_ptr3 : !tt.ptr<bf16> -> tensor<512x!tt.ptr<bf16>> loc(#loc63)
    %tmp14_12 = tt.addptr %tmp14, %xindex_2 : tensor<512x!tt.ptr<bf16>>, tensor<512xi32> loc(#loc63)
    %tmp14_13 = tt.load %tmp14_12 : tensor<512x!tt.ptr<bf16>> loc(#loc64)
    %tmp14_14 = arith.extf %tmp14_13 : tensor<512xbf16> to tensor<512xf32> loc(#loc65)
    %tmp19 = tt.splat %in_ptr4 : !tt.ptr<bf16> -> tensor<512x!tt.ptr<bf16>> loc(#loc66)
    %tmp19_15 = tt.addptr %tmp19, %xindex_2 : tensor<512x!tt.ptr<bf16>>, tensor<512xi32> loc(#loc66)
    %tmp19_16 = tt.load %tmp19_15 : tensor<512x!tt.ptr<bf16>> loc(#loc67)
    %tmp19_17 = arith.extf %tmp19_16 : tensor<512xbf16> to tensor<512xf32> loc(#loc68)
    %tmp3 = tt.extern_elementwise %tmp2_8 {libname = "", libpath = "", pure = true, symbol = "__nv_sqrtf"} : (tensor<512xf32>) -> tensor<512xf32> loc(#loc69)
    %tmp5_18 = arith.addf %tmp3, %tmp5 : tensor<512xf32> loc(#loc49)
    %tmp6 = arith.divf %tmp0_6, %tmp5_18 : tensor<512xf32> loc(#loc70)
    %tmp8_19 = arith.mulf %tmp6, %tmp8 : tensor<512xf32> loc(#loc48)
    %tmp11 = arith.addf %tmp8_19, %tmp9_11 : tensor<512xf32> loc(#loc71)
    %tmp13_20 = arith.mulf %tmp11, %tmp13 : tensor<512xf32> loc(#loc47)
    %tmp16 = arith.addf %tmp13_20, %tmp14_14 : tensor<512xf32> loc(#loc72)
    %tmp18_21 = arith.mulf %tmp16, %tmp18 : tensor<512xf32> loc(#loc46)
    %tmp21 = arith.addf %tmp18_21, %tmp19_17 : tensor<512xf32> loc(#loc73)
    %0 = tt.splat %out_ptr0 : !tt.ptr<f32> -> tensor<512x!tt.ptr<f32>> loc(#loc30)
    %1 = tt.addptr %0, %xindex_2 : tensor<512x!tt.ptr<f32>>, tensor<512xi32> loc(#loc30)
    tt.store %1, %tmp21 : tensor<512x!tt.ptr<f32>> loc(#loc31)
    %2 = tt.splat %out_ptr1 : !tt.ptr<bf16> -> tensor<512x!tt.ptr<bf16>> loc(#loc32)
    %3 = tt.addptr %2, %xindex_2 : tensor<512x!tt.ptr<bf16>>, tensor<512xi32> loc(#loc32)
    %4 = arith.truncf %tmp21 : tensor<512xf32> to tensor<512xbf16> loc(#loc33)
    tt.store %3, %4 : tensor<512x!tt.ptr<bf16>> loc(#loc33)
    %5 = tt.splat %out_ptr2 : !tt.ptr<bf16> -> tensor<512x!tt.ptr<bf16>> loc(#loc34)
    %6 = tt.addptr %5, %xindex_2 : tensor<512x!tt.ptr<bf16>>, tensor<512xi32> loc(#loc34)
    tt.store %6, %4 : tensor<512x!tt.ptr<bf16>> loc(#loc35)
    tt.return loc(#loc36)
  } loc(#loc)
} loc(#loc)
#loc1 = loc("/NHNHOME/WORKSPACE/26msit001_A/jinhyeok/loop_TTT/lact/.cache_inductor_llm/vz/cvzyap7m2uwhsycm5ud7h4dgxzh72jzgfwlbe5iktsanw2kukesa.py":43:20)
#loc2 = loc("/NHNHOME/WORKSPACE/26msit001_A/jinhyeok/loop_TTT/lact/.cache_inductor_llm/vz/cvzyap7m2uwhsycm5ud7h4dgxzh72jzgfwlbe5iktsanw2kukesa.py":39:20)
#loc3 = loc("/NHNHOME/WORKSPACE/26msit001_A/jinhyeok/loop_TTT/lact/.cache_inductor_llm/vz/cvzyap7m2uwhsycm5ud7h4dgxzh72jzgfwlbe5iktsanw2kukesa.py":35:18)
#loc4 = loc("/NHNHOME/WORKSPACE/26msit001_A/jinhyeok/loop_TTT/lact/.cache_inductor_llm/vz/cvzyap7m2uwhsycm5ud7h4dgxzh72jzgfwlbe5iktsanw2kukesa.py":32:18)
#loc5 = loc("/NHNHOME/WORKSPACE/26msit001_A/jinhyeok/loop_TTT/lact/.cache_inductor_llm/vz/cvzyap7m2uwhsycm5ud7h4dgxzh72jzgfwlbe5iktsanw2kukesa.py":23:19)
#loc6 = loc(unknown)
#loc7 = loc("/NHNHOME/WORKSPACE/26msit001_A/jinhyeok/loop_TTT/lact/.cache_inductor_llm/vz/cvzyap7m2uwhsycm5ud7h4dgxzh72jzgfwlbe5iktsanw2kukesa.py":19:28)
#loc8 = loc("/NHNHOME/WORKSPACE/26msit001_A/jinhyeok/loop_TTT/lact/.cache_inductor_llm/vz/cvzyap7m2uwhsycm5ud7h4dgxzh72jzgfwlbe5iktsanw2kukesa.py":19:33)
#loc9 = loc("/NHNHOME/WORKSPACE/26msit001_A/jinhyeok/loop_TTT/lact/.cache_inductor_llm/vz/cvzyap7m2uwhsycm5ud7h4dgxzh72jzgfwlbe5iktsanw2kukesa.py":20:36)
#loc10 = loc("/NHNHOME/WORKSPACE/26msit001_A/jinhyeok/loop_TTT/lact/.cache_inductor_llm/vz/cvzyap7m2uwhsycm5ud7h4dgxzh72jzgfwlbe5iktsanw2kukesa.py":20:23)
#loc11 = loc("/NHNHOME/WORKSPACE/26msit001_A/jinhyeok/loop_TTT/lact/.cache_inductor_llm/vz/cvzyap7m2uwhsycm5ud7h4dgxzh72jzgfwlbe5iktsanw2kukesa.py":24:30)
#loc12 = loc("/NHNHOME/WORKSPACE/26msit001_A/jinhyeok/loop_TTT/lact/.cache_inductor_llm/vz/cvzyap7m2uwhsycm5ud7h4dgxzh72jzgfwlbe5iktsanw2kukesa.py":24:35)
#loc13 = loc("/NHNHOME/WORKSPACE/26msit001_A/jinhyeok/loop_TTT/lact/.cache_inductor_llm/vz/cvzyap7m2uwhsycm5ud7h4dgxzh72jzgfwlbe5iktsanw2kukesa.py":24:44)
#loc14 = loc("/NHNHOME/WORKSPACE/26msit001_A/jinhyeok/loop_TTT/lact/.cache_inductor_llm/vz/cvzyap7m2uwhsycm5ud7h4dgxzh72jzgfwlbe5iktsanw2kukesa.py":25:30)
#loc15 = loc("/NHNHOME/WORKSPACE/26msit001_A/jinhyeok/loop_TTT/lact/.cache_inductor_llm/vz/cvzyap7m2uwhsycm5ud7h4dgxzh72jzgfwlbe5iktsanw2kukesa.py":25:35)
#loc16 = loc("/NHNHOME/WORKSPACE/26msit001_A/jinhyeok/loop_TTT/lact/.cache_inductor_llm/vz/cvzyap7m2uwhsycm5ud7h4dgxzh72jzgfwlbe5iktsanw2kukesa.py":26:30)
#loc17 = loc("/NHNHOME/WORKSPACE/26msit001_A/jinhyeok/loop_TTT/lact/.cache_inductor_llm/vz/cvzyap7m2uwhsycm5ud7h4dgxzh72jzgfwlbe5iktsanw2kukesa.py":26:35)
#loc18 = loc("/NHNHOME/WORKSPACE/26msit001_A/jinhyeok/loop_TTT/lact/.cache_inductor_llm/vz/cvzyap7m2uwhsycm5ud7h4dgxzh72jzgfwlbe5iktsanw2kukesa.py":26:44)
#loc19 = loc("/NHNHOME/WORKSPACE/26msit001_A/jinhyeok/loop_TTT/lact/.cache_inductor_llm/vz/cvzyap7m2uwhsycm5ud7h4dgxzh72jzgfwlbe5iktsanw2kukesa.py":27:31)
#loc20 = loc("/NHNHOME/WORKSPACE/26msit001_A/jinhyeok/loop_TTT/lact/.cache_inductor_llm/vz/cvzyap7m2uwhsycm5ud7h4dgxzh72jzgfwlbe5iktsanw2kukesa.py":27:36)
#loc21 = loc("/NHNHOME/WORKSPACE/26msit001_A/jinhyeok/loop_TTT/lact/.cache_inductor_llm/vz/cvzyap7m2uwhsycm5ud7h4dgxzh72jzgfwlbe5iktsanw2kukesa.py":27:45)
#loc22 = loc("/NHNHOME/WORKSPACE/26msit001_A/jinhyeok/loop_TTT/lact/.cache_inductor_llm/vz/cvzyap7m2uwhsycm5ud7h4dgxzh72jzgfwlbe5iktsanw2kukesa.py":28:31)
#loc23 = loc("/NHNHOME/WORKSPACE/26msit001_A/jinhyeok/loop_TTT/lact/.cache_inductor_llm/vz/cvzyap7m2uwhsycm5ud7h4dgxzh72jzgfwlbe5iktsanw2kukesa.py":28:36)
#loc24 = loc("/NHNHOME/WORKSPACE/26msit001_A/jinhyeok/loop_TTT/lact/.cache_inductor_llm/vz/cvzyap7m2uwhsycm5ud7h4dgxzh72jzgfwlbe5iktsanw2kukesa.py":28:45)
#loc25 = loc("/NHNHOME/WORKSPACE/26msit001_A/jinhyeok/loop_TTT/lact/.cache_inductor_llm/vz/cvzyap7m2uwhsycm5ud7h4dgxzh72jzgfwlbe5iktsanw2kukesa.py":30:26)
#loc26 = loc("/NHNHOME/WORKSPACE/26msit001_A/jinhyeok/loop_TTT/lact/.cache_inductor_llm/vz/cvzyap7m2uwhsycm5ud7h4dgxzh72jzgfwlbe5iktsanw2kukesa.py":33:19)
#loc27 = loc("/NHNHOME/WORKSPACE/26msit001_A/jinhyeok/loop_TTT/lact/.cache_inductor_llm/vz/cvzyap7m2uwhsycm5ud7h4dgxzh72jzgfwlbe5iktsanw2kukesa.py":37:19)
#loc28 = loc("/NHNHOME/WORKSPACE/26msit001_A/jinhyeok/loop_TTT/lact/.cache_inductor_llm/vz/cvzyap7m2uwhsycm5ud7h4dgxzh72jzgfwlbe5iktsanw2kukesa.py":41:20)
#loc29 = loc("/NHNHOME/WORKSPACE/26msit001_A/jinhyeok/loop_TTT/lact/.cache_inductor_llm/vz/cvzyap7m2uwhsycm5ud7h4dgxzh72jzgfwlbe5iktsanw2kukesa.py":45:20)
#loc30 = loc("/NHNHOME/WORKSPACE/26msit001_A/jinhyeok/loop_TTT/lact/.cache_inductor_llm/vz/cvzyap7m2uwhsycm5ud7h4dgxzh72jzgfwlbe5iktsanw2kukesa.py":47:25)
#loc31 = loc("/NHNHOME/WORKSPACE/26msit001_A/jinhyeok/loop_TTT/lact/.cache_inductor_llm/vz/cvzyap7m2uwhsycm5ud7h4dgxzh72jzgfwlbe5iktsanw2kukesa.py":47:37)
#loc32 = loc("/NHNHOME/WORKSPACE/26msit001_A/jinhyeok/loop_TTT/lact/.cache_inductor_llm/vz/cvzyap7m2uwhsycm5ud7h4dgxzh72jzgfwlbe5iktsanw2kukesa.py":48:25)
#loc33 = loc("/NHNHOME/WORKSPACE/26msit001_A/jinhyeok/loop_TTT/lact/.cache_inductor_llm/vz/cvzyap7m2uwhsycm5ud7h4dgxzh72jzgfwlbe5iktsanw2kukesa.py":48:37)
#loc34 = loc("/NHNHOME/WORKSPACE/26msit001_A/jinhyeok/loop_TTT/lact/.cache_inductor_llm/vz/cvzyap7m2uwhsycm5ud7h4dgxzh72jzgfwlbe5iktsanw2kukesa.py":49:25)
#loc35 = loc("/NHNHOME/WORKSPACE/26msit001_A/jinhyeok/loop_TTT/lact/.cache_inductor_llm/vz/cvzyap7m2uwhsycm5ud7h4dgxzh72jzgfwlbe5iktsanw2kukesa.py":49:37)
#loc36 = loc("/NHNHOME/WORKSPACE/26msit001_A/jinhyeok/loop_TTT/lact/.cache_inductor_llm/vz/cvzyap7m2uwhsycm5ud7h4dgxzh72jzgfwlbe5iktsanw2kukesa.py":49:4)
#loc46 = loc("tmp18"(#loc1))
#loc47 = loc("tmp13"(#loc2))
#loc48 = loc("tmp8"(#loc3))
#loc49 = loc("tmp5"(#loc4))
#loc50 = loc("x1"(#loc5))
#loc51 = loc("xoffset"(#loc7))
#loc52 = loc("xoffset"(#loc8))
#loc53 = loc("xindex"(#loc9))
#loc54 = loc("xindex"(#loc10))
#loc55 = loc("tmp0"(#loc11))
#loc56 = loc("tmp0"(#loc12))
#loc57 = loc("tmp0"(#loc13))
#loc58 = loc("tmp2"(#loc14))
#loc59 = loc("tmp2"(#loc15))
#loc60 = loc("tmp9"(#loc16))
#loc61 = loc("tmp9"(#loc17))
#loc62 = loc("tmp9"(#loc18))
#loc63 = loc("tmp14"(#loc19))
#loc64 = loc("tmp14"(#loc20))
#loc65 = loc("tmp14"(#loc21))
#loc66 = loc("tmp19"(#loc22))
#loc67 = loc("tmp19"(#loc23))
#loc68 = loc("tmp19"(#loc24))
#loc69 = loc("tmp3"(#loc25))
#loc70 = loc("tmp6"(#loc26))
#loc71 = loc("tmp11"(#loc27))
#loc72 = loc("tmp16"(#loc28))
#loc73 = loc("tmp21"(#loc29))
