#loc = loc("/NHNHOME/WORKSPACE/26msit001_A/jinhyeok/loop_TTT/lact/.cache_inductor_llm/sr/csr63ytwkatmhstcb4mxq6y36466gqqxbeaqjckqxg6w3nfvmko5.py":18:0)
#loc1 = loc(unknown)
#loc38 = loc("/NHNHOME/WORKSPACE/26msit001_A/jinhyeok/loop_TTT/lact/.cache_inductor_llm/sr/csr63ytwkatmhstcb4mxq6y36466gqqxbeaqjckqxg6w3nfvmko5.py":52:27)
#loc44 = loc("in_ptr0"(#loc))
#loc45 = loc("in_ptr1"(#loc))
#loc46 = loc("in_ptr2"(#loc))
#loc47 = loc("out_ptr0"(#loc))
#loc48 = loc("xnumel"(#loc))
#loc49 = loc("r0_numel"(#loc))
#loc81 = loc("tmp12"(#loc38))
#loc89 = loc(callsite(#loc1 at #loc81))
module {
  tt.func public @triton_red_fused__to_copy_mul_silu_sum_transpose_18(%in_ptr0: !tt.ptr<bf16> {tt.divisibility = 16 : i32} loc("in_ptr0"(#loc)), %in_ptr1: !tt.ptr<bf16> {tt.divisibility = 16 : i32} loc("in_ptr1"(#loc)), %in_ptr2: !tt.ptr<bf16> {tt.divisibility = 16 : i32} loc("in_ptr2"(#loc)), %out_ptr0: !tt.ptr<f32> {tt.divisibility = 16 : i32} loc("out_ptr0"(#loc)), %xnumel: i32 {tt.divisibility = 16 : i32} loc("xnumel"(#loc)), %r0_numel: i32 {tt.divisibility = 16 : i32} loc("r0_numel"(#loc))) attributes {noinline = false} {
    %tmp4 = arith.constant dense<1.000000e+00> : tensor<2x256xf32> loc(#loc83)
    %cst = arith.constant dense<0.000000e+00> : tensor<2x256xbf16> loc(#loc1)
    %cst_0 = arith.constant dense<196608> : tensor<2x1xi32> loc(#loc1)
    %cst_1 = arith.constant dense<1024> : tensor<1x256xi32> loc(#loc1)
    %cst_2 = arith.constant dense<192> : tensor<2x1xi32> loc(#loc1)
    %cst_3 = arith.constant dense<192> : tensor<1x256xi32> loc(#loc1)
    %cst_4 = arith.constant dense<0.000000e+00> : tensor<2x256xf32> loc(#loc1)
    %cst_5 = arith.constant dense<1024> : tensor<2x1xi32> loc(#loc1)
    %c2_i32 = arith.constant 2 : i32 loc(#loc1)
    %xoffset = tt.get_program_id x : i32 loc(#loc51)
    %xoffset_6 = arith.muli %xoffset, %c2_i32 : i32 loc(#loc52)
    %xindex = tt.make_range {end = 2 : i32, start = 0 : i32} : tensor<2xi32> loc(#loc53)
    %xindex_7 = tt.expand_dims %xindex {axis = 1 : i32} : tensor<2xi32> -> tensor<2x1xi32> loc(#loc54)
    %xindex_8 = tt.splat %xoffset_6 : i32 -> tensor<2x1xi32> loc(#loc55)
    %xindex_9 = arith.addi %xindex_8, %xindex_7 : tensor<2x1xi32> loc(#loc55)
    %r0_base = tt.make_range {end = 256 : i32, start = 0 : i32} : tensor<256xi32> loc(#loc56)
    %r0_base_10 = tt.expand_dims %r0_base {axis = 0 : i32} : tensor<256xi32> -> tensor<1x256xi32> loc(#loc57)
    %x0 = arith.remsi %xindex_9, %cst_5 : tensor<2x1xi32> loc(#loc58)
    %x1 = arith.divsi %xindex_9, %cst_5 : tensor<2x1xi32> loc(#loc59)
    %r0_mask = arith.cmpi slt, %r0_base_10, %cst_3 : tensor<1x256xi32> loc(#loc60)
    %tmp0 = arith.muli %xindex_9, %cst_2 : tensor<2x1xi32> loc(#loc61)
    %tmp0_11 = tt.broadcast %r0_base_10 : tensor<1x256xi32> -> tensor<2x256xi32> loc(#loc62)
    %tmp0_12 = tt.broadcast %tmp0 : tensor<2x1xi32> -> tensor<2x256xi32> loc(#loc62)
    %tmp0_13 = arith.addi %tmp0_11, %tmp0_12 : tensor<2x256xi32> loc(#loc62)
    %tmp0_14 = tt.splat %in_ptr0 : !tt.ptr<bf16> -> tensor<2x256x!tt.ptr<bf16>> loc(#loc63)
    %tmp0_15 = tt.addptr %tmp0_14, %tmp0_13 : tensor<2x256x!tt.ptr<bf16>>, tensor<2x256xi32> loc(#loc63)
    %tmp0_16 = tt.broadcast %r0_mask : tensor<1x256xi1> -> tensor<2x256xi1> loc(#loc64)
    %tmp0_17 = tt.load %tmp0_15, %tmp0_16, %cst evictionPolicy = evict_first : tensor<2x256x!tt.ptr<bf16>> loc(#loc64)
    %tmp0_18 = arith.extf %tmp0_17 : tensor<2x256xbf16> to tensor<2x256xf32> loc(#loc65)
    %tmp2 = arith.muli %r0_base_10, %cst_1 : tensor<1x256xi32> loc(#loc66)
    %tmp2_19 = tt.broadcast %x0 : tensor<2x1xi32> -> tensor<2x256xi32> loc(#loc67)
    %tmp2_20 = tt.broadcast %tmp2 : tensor<1x256xi32> -> tensor<2x256xi32> loc(#loc67)
    %tmp2_21 = arith.addi %tmp2_19, %tmp2_20 : tensor<2x256xi32> loc(#loc67)
    %tmp2_22 = arith.muli %x1, %cst_0 : tensor<2x1xi32> loc(#loc68)
    %tmp2_23 = tt.broadcast %tmp2_22 : tensor<2x1xi32> -> tensor<2x256xi32> loc(#loc69)
    %tmp2_24 = arith.addi %tmp2_21, %tmp2_23 : tensor<2x256xi32> loc(#loc69)
    %tmp2_25 = tt.splat %in_ptr1 : !tt.ptr<bf16> -> tensor<2x256x!tt.ptr<bf16>> loc(#loc70)
    %tmp2_26 = tt.addptr %tmp2_25, %tmp2_24 : tensor<2x256x!tt.ptr<bf16>>, tensor<2x256xi32> loc(#loc70)
    %tmp2_27 = tt.load %tmp2_26, %tmp0_16, %cst evictionPolicy = evict_first : tensor<2x256x!tt.ptr<bf16>> loc(#loc71)
    %tmp2_28 = arith.extf %tmp2_27 : tensor<2x256xbf16> to tensor<2x256xf32> loc(#loc72)
    %tmp7 = tt.splat %in_ptr2 : !tt.ptr<bf16> -> tensor<2x256x!tt.ptr<bf16>> loc(#loc73)
    %tmp7_29 = tt.addptr %tmp7, %tmp2_24 : tensor<2x256x!tt.ptr<bf16>>, tensor<2x256xi32> loc(#loc73)
    %tmp7_30 = tt.load %tmp7_29, %tmp0_16, %cst evictionPolicy = evict_first : tensor<2x256x!tt.ptr<bf16>> loc(#loc74)
    %tmp7_31 = arith.extf %tmp7_30 : tensor<2x256xbf16> to tensor<2x256xf32> loc(#loc75)
    %tmp4_32 = arith.subf %cst_4, %tmp2_28 : tensor<2x256xf32> loc(#loc84)
    %tmp4_33 = math.exp %tmp4_32 : tensor<2x256xf32> loc(#loc85)
    %tmp4_34 = arith.addf %tmp4_33, %tmp4 : tensor<2x256xf32> loc(#loc86)
    %tmp4_35 = arith.divf %tmp4, %tmp4_34 : tensor<2x256xf32> loc(#loc87)
    %tmp5 = arith.mulf %tmp2_28, %tmp4_35 : tensor<2x256xf32> loc(#loc76)
    %tmp8 = arith.mulf %tmp5, %tmp7_31 : tensor<2x256xf32> loc(#loc77)
    %tmp10 = arith.mulf %tmp0_18, %tmp8 : tensor<2x256xf32> loc(#loc78)
    %tmp13 = arith.addf %tmp10, %cst_4 : tensor<2x256xf32> loc(#loc79)
    %_tmp12 = arith.select %tmp0_16, %tmp13, %cst_4 : tensor<2x256xi1>, tensor<2x256xf32> loc(#loc80)
    %tmp12 = "tt.reduce"(%_tmp12) <{axis = 1 : i32}> ({
    ^bb0(%tmp12_37: f32 loc(callsite(#loc1 at #loc81)), %tmp12_38: f32 loc(callsite(#loc1 at #loc81))):
      %tmp12_39 = arith.addf %tmp12_37, %tmp12_38 : f32 loc(#loc90)
      tt.reduce.return %tmp12_39 : f32 loc(#loc88)
    }) : (tensor<2x256xf32>) -> tensor<2xf32> loc(#loc88)
    %tmp12_36 = tt.expand_dims %tmp12 {axis = 1 : i32} : tensor<2xf32> -> tensor<2x1xf32> loc(#loc82)
    %0 = tt.splat %out_ptr0 : !tt.ptr<f32> -> tensor<2x1x!tt.ptr<f32>> loc(#loc41)
    %1 = tt.addptr %0, %xindex_9 : tensor<2x1x!tt.ptr<f32>>, tensor<2x1xi32> loc(#loc41)
    tt.store %1, %tmp12_36 : tensor<2x1x!tt.ptr<f32>> loc(#loc42)
    tt.return loc(#loc43)
  } loc(#loc)
} loc(#loc)
#loc2 = loc("/NHNHOME/WORKSPACE/26msit001_A/jinhyeok/loop_TTT/lact/.cache_inductor_llm/sr/csr63ytwkatmhstcb4mxq6y36466gqqxbeaqjckqxg6w3nfvmko5.py":43:26)
#loc3 = loc("/NHNHOME/WORKSPACE/26msit001_A/jinhyeok/loop_TTT/lact/.cache_inductor_llm/sr/csr63ytwkatmhstcb4mxq6y36466gqqxbeaqjckqxg6w3nfvmko5.py":23:28)
#loc4 = loc("/NHNHOME/WORKSPACE/26msit001_A/jinhyeok/loop_TTT/lact/.cache_inductor_llm/sr/csr63ytwkatmhstcb4mxq6y36466gqqxbeaqjckqxg6w3nfvmko5.py":23:33)
#loc5 = loc("/NHNHOME/WORKSPACE/26msit001_A/jinhyeok/loop_TTT/lact/.cache_inductor_llm/sr/csr63ytwkatmhstcb4mxq6y36466gqqxbeaqjckqxg6w3nfvmko5.py":24:36)
#loc6 = loc("/NHNHOME/WORKSPACE/26msit001_A/jinhyeok/loop_TTT/lact/.cache_inductor_llm/sr/csr63ytwkatmhstcb4mxq6y36466gqqxbeaqjckqxg6w3nfvmko5.py":24:44)
#loc7 = loc("/NHNHOME/WORKSPACE/26msit001_A/jinhyeok/loop_TTT/lact/.cache_inductor_llm/sr/csr63ytwkatmhstcb4mxq6y36466gqqxbeaqjckqxg6w3nfvmko5.py":24:23)
#loc8 = loc("/NHNHOME/WORKSPACE/26msit001_A/jinhyeok/loop_TTT/lact/.cache_inductor_llm/sr/csr63ytwkatmhstcb4mxq6y36466gqqxbeaqjckqxg6w3nfvmko5.py":26:27)
#loc9 = loc("/NHNHOME/WORKSPACE/26msit001_A/jinhyeok/loop_TTT/lact/.cache_inductor_llm/sr/csr63ytwkatmhstcb4mxq6y36466gqqxbeaqjckqxg6w3nfvmko5.py":26:37)
#loc10 = loc("/NHNHOME/WORKSPACE/26msit001_A/jinhyeok/loop_TTT/lact/.cache_inductor_llm/sr/csr63ytwkatmhstcb4mxq6y36466gqqxbeaqjckqxg6w3nfvmko5.py":29:19)
#loc11 = loc("/NHNHOME/WORKSPACE/26msit001_A/jinhyeok/loop_TTT/lact/.cache_inductor_llm/sr/csr63ytwkatmhstcb4mxq6y36466gqqxbeaqjckqxg6w3nfvmko5.py":30:19)
#loc12 = loc("/NHNHOME/WORKSPACE/26msit001_A/jinhyeok/loop_TTT/lact/.cache_inductor_llm/sr/csr63ytwkatmhstcb4mxq6y36466gqqxbeaqjckqxg6w3nfvmko5.py":34:29)
#loc13 = loc("/NHNHOME/WORKSPACE/26msit001_A/jinhyeok/loop_TTT/lact/.cache_inductor_llm/sr/csr63ytwkatmhstcb4mxq6y36466gqqxbeaqjckqxg6w3nfvmko5.py":38:45)
#loc14 = loc("/NHNHOME/WORKSPACE/26msit001_A/jinhyeok/loop_TTT/lact/.cache_inductor_llm/sr/csr63ytwkatmhstcb4mxq6y36466gqqxbeaqjckqxg6w3nfvmko5.py":38:41)
#loc15 = loc("/NHNHOME/WORKSPACE/26msit001_A/jinhyeok/loop_TTT/lact/.cache_inductor_llm/sr/csr63ytwkatmhstcb4mxq6y36466gqqxbeaqjckqxg6w3nfvmko5.py":38:34)
#loc16 = loc("/NHNHOME/WORKSPACE/26msit001_A/jinhyeok/loop_TTT/lact/.cache_inductor_llm/sr/csr63ytwkatmhstcb4mxq6y36466gqqxbeaqjckqxg6w3nfvmko5.py":38:50)
#loc17 = loc("/NHNHOME/WORKSPACE/26msit001_A/jinhyeok/loop_TTT/lact/.cache_inductor_llm/sr/csr63ytwkatmhstcb4mxq6y36466gqqxbeaqjckqxg6w3nfvmko5.py":38:104)
#loc18 = loc("/NHNHOME/WORKSPACE/26msit001_A/jinhyeok/loop_TTT/lact/.cache_inductor_llm/sr/csr63ytwkatmhstcb4mxq6y36466gqqxbeaqjckqxg6w3nfvmko5.py":39:44)
#loc19 = loc("/NHNHOME/WORKSPACE/26msit001_A/jinhyeok/loop_TTT/lact/.cache_inductor_llm/sr/csr63ytwkatmhstcb4mxq6y36466gqqxbeaqjckqxg6w3nfvmko5.py":39:39)
#loc20 = loc("/NHNHOME/WORKSPACE/26msit001_A/jinhyeok/loop_TTT/lact/.cache_inductor_llm/sr/csr63ytwkatmhstcb4mxq6y36466gqqxbeaqjckqxg6w3nfvmko5.py":39:58)
#loc21 = loc("/NHNHOME/WORKSPACE/26msit001_A/jinhyeok/loop_TTT/lact/.cache_inductor_llm/sr/csr63ytwkatmhstcb4mxq6y36466gqqxbeaqjckqxg6w3nfvmko5.py":39:51)
#loc22 = loc("/NHNHOME/WORKSPACE/26msit001_A/jinhyeok/loop_TTT/lact/.cache_inductor_llm/sr/csr63ytwkatmhstcb4mxq6y36466gqqxbeaqjckqxg6w3nfvmko5.py":39:34)
#loc23 = loc("/NHNHOME/WORKSPACE/26msit001_A/jinhyeok/loop_TTT/lact/.cache_inductor_llm/sr/csr63ytwkatmhstcb4mxq6y36466gqqxbeaqjckqxg6w3nfvmko5.py":39:63)
#loc24 = loc("/NHNHOME/WORKSPACE/26msit001_A/jinhyeok/loop_TTT/lact/.cache_inductor_llm/sr/csr63ytwkatmhstcb4mxq6y36466gqqxbeaqjckqxg6w3nfvmko5.py":39:117)
#loc25 = loc("/NHNHOME/WORKSPACE/26msit001_A/jinhyeok/loop_TTT/lact/.cache_inductor_llm/sr/csr63ytwkatmhstcb4mxq6y36466gqqxbeaqjckqxg6w3nfvmko5.py":40:34)
#loc26 = loc("/NHNHOME/WORKSPACE/26msit001_A/jinhyeok/loop_TTT/lact/.cache_inductor_llm/sr/csr63ytwkatmhstcb4mxq6y36466gqqxbeaqjckqxg6w3nfvmko5.py":40:63)
#loc27 = loc("/NHNHOME/WORKSPACE/26msit001_A/jinhyeok/loop_TTT/lact/.cache_inductor_llm/sr/csr63ytwkatmhstcb4mxq6y36466gqqxbeaqjckqxg6w3nfvmko5.py":40:117)
#loc28 = loc("/NHNHOME/WORKSPACE/26msit001_A/jinhyeok/TTT_camera_embedding/.venv_llm/lib/python3.12/site-packages/triton/language/standard.py":48:30)
#loc29 = loc("/NHNHOME/WORKSPACE/26msit001_A/jinhyeok/TTT_camera_embedding/.venv_llm/lib/python3.12/site-packages/triton/language/standard.py":48:29)
#loc30 = loc("/NHNHOME/WORKSPACE/26msit001_A/jinhyeok/TTT_camera_embedding/.venv_llm/lib/python3.12/site-packages/triton/language/standard.py":48:20)
#loc31 = loc("/NHNHOME/WORKSPACE/26msit001_A/jinhyeok/TTT_camera_embedding/.venv_llm/lib/python3.12/site-packages/triton/language/standard.py":48:16)
#loc32 = loc("/NHNHOME/WORKSPACE/26msit001_A/jinhyeok/loop_TTT/lact/.cache_inductor_llm/sr/csr63ytwkatmhstcb4mxq6y36466gqqxbeaqjckqxg6w3nfvmko5.py":44:22)
#loc33 = loc("/NHNHOME/WORKSPACE/26msit001_A/jinhyeok/loop_TTT/lact/.cache_inductor_llm/sr/csr63ytwkatmhstcb4mxq6y36466gqqxbeaqjckqxg6w3nfvmko5.py":46:22)
#loc34 = loc("/NHNHOME/WORKSPACE/26msit001_A/jinhyeok/loop_TTT/lact/.cache_inductor_llm/sr/csr63ytwkatmhstcb4mxq6y36466gqqxbeaqjckqxg6w3nfvmko5.py":48:23)
#loc35 = loc("/NHNHOME/WORKSPACE/26msit001_A/jinhyeok/loop_TTT/lact/.cache_inductor_llm/sr/csr63ytwkatmhstcb4mxq6y36466gqqxbeaqjckqxg6w3nfvmko5.py":50:25)
#loc36 = loc("/NHNHOME/WORKSPACE/26msit001_A/jinhyeok/loop_TTT/lact/.cache_inductor_llm/sr/csr63ytwkatmhstcb4mxq6y36466gqqxbeaqjckqxg6w3nfvmko5.py":51:42)
#loc37 = loc("/NHNHOME/WORKSPACE/26msit001_A/jinhyeok/TTT_camera_embedding/.venv_llm/lib/python3.12/site-packages/triton/language/standard.py":291:36)
#loc39 = loc("/NHNHOME/WORKSPACE/26msit001_A/jinhyeok/TTT_camera_embedding/.venv_llm/lib/python3.12/site-packages/triton/language/standard.py":261:15)
#loc40 = loc("/NHNHOME/WORKSPACE/26msit001_A/jinhyeok/loop_TTT/lact/.cache_inductor_llm/sr/csr63ytwkatmhstcb4mxq6y36466gqqxbeaqjckqxg6w3nfvmko5.py":52:30)
#loc41 = loc("/NHNHOME/WORKSPACE/26msit001_A/jinhyeok/loop_TTT/lact/.cache_inductor_llm/sr/csr63ytwkatmhstcb4mxq6y36466gqqxbeaqjckqxg6w3nfvmko5.py":53:25)
#loc42 = loc("/NHNHOME/WORKSPACE/26msit001_A/jinhyeok/loop_TTT/lact/.cache_inductor_llm/sr/csr63ytwkatmhstcb4mxq6y36466gqqxbeaqjckqxg6w3nfvmko5.py":53:37)
#loc43 = loc("/NHNHOME/WORKSPACE/26msit001_A/jinhyeok/loop_TTT/lact/.cache_inductor_llm/sr/csr63ytwkatmhstcb4mxq6y36466gqqxbeaqjckqxg6w3nfvmko5.py":53:4)
#loc50 = loc("tmp4"(#loc2))
#loc51 = loc("xoffset"(#loc3))
#loc52 = loc("xoffset"(#loc4))
#loc53 = loc("xindex"(#loc5))
#loc54 = loc("xindex"(#loc6))
#loc55 = loc("xindex"(#loc7))
#loc56 = loc("r0_base"(#loc8))
#loc57 = loc("r0_base"(#loc9))
#loc58 = loc("x0"(#loc10))
#loc59 = loc("x1"(#loc11))
#loc60 = loc("r0_mask"(#loc12))
#loc61 = loc("tmp0"(#loc13))
#loc62 = loc("tmp0"(#loc14))
#loc63 = loc("tmp0"(#loc15))
#loc64 = loc("tmp0"(#loc16))
#loc65 = loc("tmp0"(#loc17))
#loc66 = loc("tmp2"(#loc18))
#loc67 = loc("tmp2"(#loc19))
#loc68 = loc("tmp2"(#loc20))
#loc69 = loc("tmp2"(#loc21))
#loc70 = loc("tmp2"(#loc22))
#loc71 = loc("tmp2"(#loc23))
#loc72 = loc("tmp2"(#loc24))
#loc73 = loc("tmp7"(#loc25))
#loc74 = loc("tmp7"(#loc26))
#loc75 = loc("tmp7"(#loc27))
#loc76 = loc("tmp5"(#loc32))
#loc77 = loc("tmp8"(#loc33))
#loc78 = loc("tmp10"(#loc34))
#loc79 = loc("tmp13"(#loc35))
#loc80 = loc("_tmp12"(#loc36))
#loc82 = loc("tmp12"(#loc40))
#loc83 = loc(callsite(#loc1 at #loc50))
#loc84 = loc(callsite(#loc28 at #loc50))
#loc85 = loc(callsite(#loc29 at #loc50))
#loc86 = loc(callsite(#loc30 at #loc50))
#loc87 = loc(callsite(#loc31 at #loc50))
#loc88 = loc(callsite(#loc37 at #loc81))
#loc90 = loc(callsite(#loc39 at #loc88))
