#loc = loc("/NHNHOME/WORKSPACE/26msit001_A/jinhyeok/TTT_camera_embedding/lact_llm/.cache_inductor/yd/cyd5yo25zyzf4opsc4apjzgjhdqmxjvnzhq2au527gtg5ygkfh4j.py":18:0)
#loc24 = loc("in_out_ptr0"(#loc))
#loc25 = loc("in_ptr0"(#loc))
#loc26 = loc("in_ptr1"(#loc))
#loc27 = loc("xnumel"(#loc))
module {
  tt.func public @triton_poi_fused_add_mul_17(%in_out_ptr0: !tt.ptr<f32> {tt.divisibility = 16 : i32} loc("in_out_ptr0"(#loc)), %in_ptr0: !tt.ptr<bf16> {tt.divisibility = 16 : i32} loc("in_ptr0"(#loc)), %in_ptr1: !tt.ptr<bf16> {tt.divisibility = 16 : i32} loc("in_ptr1"(#loc)), %xnumel: i32 {tt.divisibility = 16 : i32} loc("xnumel"(#loc))) attributes {noinline = false} {
    %xnumel_0 = arith.constant 1179648 : i32 loc(#loc28)
    %xoffset = tt.get_program_id x : i32 loc(#loc29)
    %xoffset_1 = arith.constant 1024 : i32 loc(#loc30)
    %xoffset_2 = arith.constant 1024 : i32 loc(#loc30)
    %xoffset_3 = arith.muli %xoffset, %xoffset_2 : i32 loc(#loc30)
    %xindex = tt.make_range {end = 1024 : i32, start = 0 : i32} : tensor<1024xi32> loc(#loc31)
    %xindex_4 = tt.splat %xoffset_3 : i32 -> tensor<1024xi32> loc(#loc32)
    %xindex_5 = arith.addi %xindex_4, %xindex : tensor<1024xi32> loc(#loc32)
    %xmask = arith.constant true loc(#loc33)
    %xmask_6 = arith.constant dense<true> : tensor<1024xi1> loc(#loc33)
    %tmp0 = tt.splat %in_out_ptr0 : !tt.ptr<f32> -> tensor<1024x!tt.ptr<f32>> loc(#loc34)
    %tmp0_7 = tt.addptr %tmp0, %xindex_5 : tensor<1024x!tt.ptr<f32>>, tensor<1024xi32> loc(#loc34)
    %tmp0_8 = tt.load %tmp0_7 : tensor<1024x!tt.ptr<f32>> loc(#loc35)
    %tmp3 = tt.splat %in_ptr0 : !tt.ptr<bf16> -> tensor<1024x!tt.ptr<bf16>> loc(#loc36)
    %tmp3_9 = tt.addptr %tmp3, %xindex_5 : tensor<1024x!tt.ptr<bf16>>, tensor<1024xi32> loc(#loc36)
    %tmp3_10 = tt.load %tmp3_9 : tensor<1024x!tt.ptr<bf16>> loc(#loc37)
    %tmp3_11 = arith.extf %tmp3_10 : tensor<1024xbf16> to tensor<1024xf32> loc(#loc38)
    %tmp8 = tt.splat %in_ptr1 : !tt.ptr<bf16> -> tensor<1024x!tt.ptr<bf16>> loc(#loc39)
    %tmp8_12 = tt.addptr %tmp8, %xindex_5 : tensor<1024x!tt.ptr<bf16>>, tensor<1024xi32> loc(#loc39)
    %tmp8_13 = tt.load %tmp8_12 : tensor<1024x!tt.ptr<bf16>> loc(#loc40)
    %tmp8_14 = arith.extf %tmp8_13 : tensor<1024xbf16> to tensor<1024xf32> loc(#loc41)
    %tmp1 = arith.constant 2.876900e+00 : f32 loc(#loc42)
    %tmp2 = arith.constant dense<2.876900e+00> : tensor<1024xf32> loc(#loc43)
    %tmp2_15 = arith.mulf %tmp0_8, %tmp2 : tensor<1024xf32> loc(#loc43)
    %tmp5 = arith.addf %tmp2_15, %tmp3_11 : tensor<1024xf32> loc(#loc44)
    %tmp6 = arith.constant 2.836600e+00 : f32 loc(#loc45)
    %tmp7 = arith.constant dense<2.836600e+00> : tensor<1024xf32> loc(#loc46)
    %tmp7_16 = arith.mulf %tmp5, %tmp7 : tensor<1024xf32> loc(#loc46)
    %tmp10 = arith.addf %tmp7_16, %tmp8_14 : tensor<1024xf32> loc(#loc47)
    %0 = tt.splat %in_out_ptr0 : !tt.ptr<f32> -> tensor<1024x!tt.ptr<f32>> loc(#loc21)
    %1 = tt.addptr %0, %xindex_5 : tensor<1024x!tt.ptr<f32>>, tensor<1024xi32> loc(#loc21)
    tt.store %1, %tmp10 : tensor<1024x!tt.ptr<f32>> loc(#loc22)
    tt.return loc(#loc23)
  } loc(#loc)
} loc(#loc)
#loc1 = loc("/NHNHOME/WORKSPACE/26msit001_A/jinhyeok/TTT_camera_embedding/lact_llm/.cache_inductor/yd/cyd5yo25zyzf4opsc4apjzgjhdqmxjvnzhq2au527gtg5ygkfh4j.py":19:13)
#loc2 = loc("/NHNHOME/WORKSPACE/26msit001_A/jinhyeok/TTT_camera_embedding/lact_llm/.cache_inductor/yd/cyd5yo25zyzf4opsc4apjzgjhdqmxjvnzhq2au527gtg5ygkfh4j.py":20:28)
#loc3 = loc("/NHNHOME/WORKSPACE/26msit001_A/jinhyeok/TTT_camera_embedding/lact_llm/.cache_inductor/yd/cyd5yo25zyzf4opsc4apjzgjhdqmxjvnzhq2au527gtg5ygkfh4j.py":20:33)
#loc4 = loc("/NHNHOME/WORKSPACE/26msit001_A/jinhyeok/TTT_camera_embedding/lact_llm/.cache_inductor/yd/cyd5yo25zyzf4opsc4apjzgjhdqmxjvnzhq2au527gtg5ygkfh4j.py":21:36)
#loc5 = loc("/NHNHOME/WORKSPACE/26msit001_A/jinhyeok/TTT_camera_embedding/lact_llm/.cache_inductor/yd/cyd5yo25zyzf4opsc4apjzgjhdqmxjvnzhq2au527gtg5ygkfh4j.py":21:23)
#loc6 = loc("/NHNHOME/WORKSPACE/26msit001_A/jinhyeok/TTT_camera_embedding/lact_llm/.cache_inductor/yd/cyd5yo25zyzf4opsc4apjzgjhdqmxjvnzhq2au527gtg5ygkfh4j.py":22:36)
#loc7 = loc("/NHNHOME/WORKSPACE/26msit001_A/jinhyeok/TTT_camera_embedding/lact_llm/.cache_inductor/yd/cyd5yo25zyzf4opsc4apjzgjhdqmxjvnzhq2au527gtg5ygkfh4j.py":24:34)
#loc8 = loc("/NHNHOME/WORKSPACE/26msit001_A/jinhyeok/TTT_camera_embedding/lact_llm/.cache_inductor/yd/cyd5yo25zyzf4opsc4apjzgjhdqmxjvnzhq2au527gtg5ygkfh4j.py":24:39)
#loc9 = loc("/NHNHOME/WORKSPACE/26msit001_A/jinhyeok/TTT_camera_embedding/lact_llm/.cache_inductor/yd/cyd5yo25zyzf4opsc4apjzgjhdqmxjvnzhq2au527gtg5ygkfh4j.py":25:30)
#loc10 = loc("/NHNHOME/WORKSPACE/26msit001_A/jinhyeok/TTT_camera_embedding/lact_llm/.cache_inductor/yd/cyd5yo25zyzf4opsc4apjzgjhdqmxjvnzhq2au527gtg5ygkfh4j.py":25:35)
#loc11 = loc("/NHNHOME/WORKSPACE/26msit001_A/jinhyeok/TTT_camera_embedding/lact_llm/.cache_inductor/yd/cyd5yo25zyzf4opsc4apjzgjhdqmxjvnzhq2au527gtg5ygkfh4j.py":25:44)
#loc12 = loc("/NHNHOME/WORKSPACE/26msit001_A/jinhyeok/TTT_camera_embedding/lact_llm/.cache_inductor/yd/cyd5yo25zyzf4opsc4apjzgjhdqmxjvnzhq2au527gtg5ygkfh4j.py":26:30)
#loc13 = loc("/NHNHOME/WORKSPACE/26msit001_A/jinhyeok/TTT_camera_embedding/lact_llm/.cache_inductor/yd/cyd5yo25zyzf4opsc4apjzgjhdqmxjvnzhq2au527gtg5ygkfh4j.py":26:35)
#loc14 = loc("/NHNHOME/WORKSPACE/26msit001_A/jinhyeok/TTT_camera_embedding/lact_llm/.cache_inductor/yd/cyd5yo25zyzf4opsc4apjzgjhdqmxjvnzhq2au527gtg5ygkfh4j.py":26:44)
#loc15 = loc("/NHNHOME/WORKSPACE/26msit001_A/jinhyeok/TTT_camera_embedding/lact_llm/.cache_inductor/yd/cyd5yo25zyzf4opsc4apjzgjhdqmxjvnzhq2au527gtg5ygkfh4j.py":27:11)
#loc16 = loc("/NHNHOME/WORKSPACE/26msit001_A/jinhyeok/TTT_camera_embedding/lact_llm/.cache_inductor/yd/cyd5yo25zyzf4opsc4apjzgjhdqmxjvnzhq2au527gtg5ygkfh4j.py":28:18)
#loc17 = loc("/NHNHOME/WORKSPACE/26msit001_A/jinhyeok/TTT_camera_embedding/lact_llm/.cache_inductor/yd/cyd5yo25zyzf4opsc4apjzgjhdqmxjvnzhq2au527gtg5ygkfh4j.py":30:18)
#loc18 = loc("/NHNHOME/WORKSPACE/26msit001_A/jinhyeok/TTT_camera_embedding/lact_llm/.cache_inductor/yd/cyd5yo25zyzf4opsc4apjzgjhdqmxjvnzhq2au527gtg5ygkfh4j.py":31:11)
#loc19 = loc("/NHNHOME/WORKSPACE/26msit001_A/jinhyeok/TTT_camera_embedding/lact_llm/.cache_inductor/yd/cyd5yo25zyzf4opsc4apjzgjhdqmxjvnzhq2au527gtg5ygkfh4j.py":32:18)
#loc20 = loc("/NHNHOME/WORKSPACE/26msit001_A/jinhyeok/TTT_camera_embedding/lact_llm/.cache_inductor/yd/cyd5yo25zyzf4opsc4apjzgjhdqmxjvnzhq2au527gtg5ygkfh4j.py":34:19)
#loc21 = loc("/NHNHOME/WORKSPACE/26msit001_A/jinhyeok/TTT_camera_embedding/lact_llm/.cache_inductor/yd/cyd5yo25zyzf4opsc4apjzgjhdqmxjvnzhq2au527gtg5ygkfh4j.py":35:28)
#loc22 = loc("/NHNHOME/WORKSPACE/26msit001_A/jinhyeok/TTT_camera_embedding/lact_llm/.cache_inductor/yd/cyd5yo25zyzf4opsc4apjzgjhdqmxjvnzhq2au527gtg5ygkfh4j.py":35:40)
#loc23 = loc("/NHNHOME/WORKSPACE/26msit001_A/jinhyeok/TTT_camera_embedding/lact_llm/.cache_inductor/yd/cyd5yo25zyzf4opsc4apjzgjhdqmxjvnzhq2au527gtg5ygkfh4j.py":35:4)
#loc28 = loc("xnumel"(#loc1))
#loc29 = loc("xoffset"(#loc2))
#loc30 = loc("xoffset"(#loc3))
#loc31 = loc("xindex"(#loc4))
#loc32 = loc("xindex"(#loc5))
#loc33 = loc("xmask"(#loc6))
#loc34 = loc("tmp0"(#loc7))
#loc35 = loc("tmp0"(#loc8))
#loc36 = loc("tmp3"(#loc9))
#loc37 = loc("tmp3"(#loc10))
#loc38 = loc("tmp3"(#loc11))
#loc39 = loc("tmp8"(#loc12))
#loc40 = loc("tmp8"(#loc13))
#loc41 = loc("tmp8"(#loc14))
#loc42 = loc("tmp1"(#loc15))
#loc43 = loc("tmp2"(#loc16))
#loc44 = loc("tmp5"(#loc17))
#loc45 = loc("tmp6"(#loc18))
#loc46 = loc("tmp7"(#loc19))
#loc47 = loc("tmp10"(#loc20))
