#loc = loc("/NHNHOME/WORKSPACE/26msit001_A/jinhyeok/TTT_camera_embedding/lact_llm/.cache_inductor/yd/cyd5yo25zyzf4opsc4apjzgjhdqmxjvnzhq2au527gtg5ygkfh4j.py":18:0)
#loc20 = loc("in_out_ptr0"(#loc))
#loc21 = loc("in_ptr0"(#loc))
#loc22 = loc("in_ptr1"(#loc))
#loc23 = loc("xnumel"(#loc))
module {
  tt.func public @triton_poi_fused_add_mul_17(%in_out_ptr0: !tt.ptr<f32> {tt.divisibility = 16 : i32} loc("in_out_ptr0"(#loc)), %in_ptr0: !tt.ptr<bf16> {tt.divisibility = 16 : i32} loc("in_ptr0"(#loc)), %in_ptr1: !tt.ptr<bf16> {tt.divisibility = 16 : i32} loc("in_ptr1"(#loc)), %xnumel: i32 {tt.divisibility = 16 : i32} loc("xnumel"(#loc))) attributes {noinline = false} {
    %tmp7 = arith.constant dense<2.836600e+00> : tensor<1024xf32> loc(#loc24)
    %tmp2 = arith.constant dense<2.876900e+00> : tensor<1024xf32> loc(#loc25)
    %c1024_i32 = arith.constant 1024 : i32 loc(#loc3)
    %xoffset = tt.get_program_id x : i32 loc(#loc26)
    %xoffset_0 = arith.muli %xoffset, %c1024_i32 : i32 loc(#loc27)
    %xindex = tt.make_range {end = 1024 : i32, start = 0 : i32} : tensor<1024xi32> loc(#loc28)
    %xindex_1 = tt.splat %xoffset_0 : i32 -> tensor<1024xi32> loc(#loc29)
    %xindex_2 = arith.addi %xindex_1, %xindex : tensor<1024xi32> loc(#loc29)
    %tmp0 = tt.splat %in_out_ptr0 : !tt.ptr<f32> -> tensor<1024x!tt.ptr<f32>> loc(#loc30)
    %tmp0_3 = tt.addptr %tmp0, %xindex_2 : tensor<1024x!tt.ptr<f32>>, tensor<1024xi32> loc(#loc30)
    %tmp0_4 = tt.load %tmp0_3 : tensor<1024x!tt.ptr<f32>> loc(#loc31)
    %tmp3 = tt.splat %in_ptr0 : !tt.ptr<bf16> -> tensor<1024x!tt.ptr<bf16>> loc(#loc32)
    %tmp3_5 = tt.addptr %tmp3, %xindex_2 : tensor<1024x!tt.ptr<bf16>>, tensor<1024xi32> loc(#loc32)
    %tmp3_6 = tt.load %tmp3_5 : tensor<1024x!tt.ptr<bf16>> loc(#loc33)
    %tmp3_7 = arith.extf %tmp3_6 : tensor<1024xbf16> to tensor<1024xf32> loc(#loc34)
    %tmp8 = tt.splat %in_ptr1 : !tt.ptr<bf16> -> tensor<1024x!tt.ptr<bf16>> loc(#loc35)
    %tmp8_8 = tt.addptr %tmp8, %xindex_2 : tensor<1024x!tt.ptr<bf16>>, tensor<1024xi32> loc(#loc35)
    %tmp8_9 = tt.load %tmp8_8 : tensor<1024x!tt.ptr<bf16>> loc(#loc36)
    %tmp8_10 = arith.extf %tmp8_9 : tensor<1024xbf16> to tensor<1024xf32> loc(#loc37)
    %tmp2_11 = arith.mulf %tmp0_4, %tmp2 : tensor<1024xf32> loc(#loc25)
    %tmp5 = arith.addf %tmp2_11, %tmp3_7 : tensor<1024xf32> loc(#loc38)
    %tmp7_12 = arith.mulf %tmp5, %tmp7 : tensor<1024xf32> loc(#loc24)
    %tmp10 = arith.addf %tmp7_12, %tmp8_10 : tensor<1024xf32> loc(#loc39)
    tt.store %tmp0_3, %tmp10 : tensor<1024x!tt.ptr<f32>> loc(#loc18)
    tt.return loc(#loc19)
  } loc(#loc)
} loc(#loc)
#loc1 = loc("/NHNHOME/WORKSPACE/26msit001_A/jinhyeok/TTT_camera_embedding/lact_llm/.cache_inductor/yd/cyd5yo25zyzf4opsc4apjzgjhdqmxjvnzhq2au527gtg5ygkfh4j.py":32:18)
#loc2 = loc("/NHNHOME/WORKSPACE/26msit001_A/jinhyeok/TTT_camera_embedding/lact_llm/.cache_inductor/yd/cyd5yo25zyzf4opsc4apjzgjhdqmxjvnzhq2au527gtg5ygkfh4j.py":28:18)
#loc3 = loc(unknown)
#loc4 = loc("/NHNHOME/WORKSPACE/26msit001_A/jinhyeok/TTT_camera_embedding/lact_llm/.cache_inductor/yd/cyd5yo25zyzf4opsc4apjzgjhdqmxjvnzhq2au527gtg5ygkfh4j.py":20:28)
#loc5 = loc("/NHNHOME/WORKSPACE/26msit001_A/jinhyeok/TTT_camera_embedding/lact_llm/.cache_inductor/yd/cyd5yo25zyzf4opsc4apjzgjhdqmxjvnzhq2au527gtg5ygkfh4j.py":20:33)
#loc6 = loc("/NHNHOME/WORKSPACE/26msit001_A/jinhyeok/TTT_camera_embedding/lact_llm/.cache_inductor/yd/cyd5yo25zyzf4opsc4apjzgjhdqmxjvnzhq2au527gtg5ygkfh4j.py":21:36)
#loc7 = loc("/NHNHOME/WORKSPACE/26msit001_A/jinhyeok/TTT_camera_embedding/lact_llm/.cache_inductor/yd/cyd5yo25zyzf4opsc4apjzgjhdqmxjvnzhq2au527gtg5ygkfh4j.py":21:23)
#loc8 = loc("/NHNHOME/WORKSPACE/26msit001_A/jinhyeok/TTT_camera_embedding/lact_llm/.cache_inductor/yd/cyd5yo25zyzf4opsc4apjzgjhdqmxjvnzhq2au527gtg5ygkfh4j.py":24:34)
#loc9 = loc("/NHNHOME/WORKSPACE/26msit001_A/jinhyeok/TTT_camera_embedding/lact_llm/.cache_inductor/yd/cyd5yo25zyzf4opsc4apjzgjhdqmxjvnzhq2au527gtg5ygkfh4j.py":24:39)
#loc10 = loc("/NHNHOME/WORKSPACE/26msit001_A/jinhyeok/TTT_camera_embedding/lact_llm/.cache_inductor/yd/cyd5yo25zyzf4opsc4apjzgjhdqmxjvnzhq2au527gtg5ygkfh4j.py":25:30)
#loc11 = loc("/NHNHOME/WORKSPACE/26msit001_A/jinhyeok/TTT_camera_embedding/lact_llm/.cache_inductor/yd/cyd5yo25zyzf4opsc4apjzgjhdqmxjvnzhq2au527gtg5ygkfh4j.py":25:35)
#loc12 = loc("/NHNHOME/WORKSPACE/26msit001_A/jinhyeok/TTT_camera_embedding/lact_llm/.cache_inductor/yd/cyd5yo25zyzf4opsc4apjzgjhdqmxjvnzhq2au527gtg5ygkfh4j.py":25:44)
#loc13 = loc("/NHNHOME/WORKSPACE/26msit001_A/jinhyeok/TTT_camera_embedding/lact_llm/.cache_inductor/yd/cyd5yo25zyzf4opsc4apjzgjhdqmxjvnzhq2au527gtg5ygkfh4j.py":26:30)
#loc14 = loc("/NHNHOME/WORKSPACE/26msit001_A/jinhyeok/TTT_camera_embedding/lact_llm/.cache_inductor/yd/cyd5yo25zyzf4opsc4apjzgjhdqmxjvnzhq2au527gtg5ygkfh4j.py":26:35)
#loc15 = loc("/NHNHOME/WORKSPACE/26msit001_A/jinhyeok/TTT_camera_embedding/lact_llm/.cache_inductor/yd/cyd5yo25zyzf4opsc4apjzgjhdqmxjvnzhq2au527gtg5ygkfh4j.py":26:44)
#loc16 = loc("/NHNHOME/WORKSPACE/26msit001_A/jinhyeok/TTT_camera_embedding/lact_llm/.cache_inductor/yd/cyd5yo25zyzf4opsc4apjzgjhdqmxjvnzhq2au527gtg5ygkfh4j.py":30:18)
#loc17 = loc("/NHNHOME/WORKSPACE/26msit001_A/jinhyeok/TTT_camera_embedding/lact_llm/.cache_inductor/yd/cyd5yo25zyzf4opsc4apjzgjhdqmxjvnzhq2au527gtg5ygkfh4j.py":34:19)
#loc18 = loc("/NHNHOME/WORKSPACE/26msit001_A/jinhyeok/TTT_camera_embedding/lact_llm/.cache_inductor/yd/cyd5yo25zyzf4opsc4apjzgjhdqmxjvnzhq2au527gtg5ygkfh4j.py":35:40)
#loc19 = loc("/NHNHOME/WORKSPACE/26msit001_A/jinhyeok/TTT_camera_embedding/lact_llm/.cache_inductor/yd/cyd5yo25zyzf4opsc4apjzgjhdqmxjvnzhq2au527gtg5ygkfh4j.py":35:4)
#loc24 = loc("tmp7"(#loc1))
#loc25 = loc("tmp2"(#loc2))
#loc26 = loc("xoffset"(#loc4))
#loc27 = loc("xoffset"(#loc5))
#loc28 = loc("xindex"(#loc6))
#loc29 = loc("xindex"(#loc7))
#loc30 = loc("tmp0"(#loc8))
#loc31 = loc("tmp0"(#loc9))
#loc32 = loc("tmp3"(#loc10))
#loc33 = loc("tmp3"(#loc11))
#loc34 = loc("tmp3"(#loc12))
#loc35 = loc("tmp8"(#loc13))
#loc36 = loc("tmp8"(#loc14))
#loc37 = loc("tmp8"(#loc15))
#loc38 = loc("tmp5"(#loc16))
#loc39 = loc("tmp10"(#loc17))
