#loc = loc("/NHNHOME/WORKSPACE/26msit001_A/jinhyeok/loop_TTT/lact/.cache_inductor_llm/n6/cn64nxoswt6cxog5apznmd7puubvyo3hg7h2zv26kppghd35bee4.py":18:0)
#loc64 = loc("/NHNHOME/WORKSPACE/26msit001_A/jinhyeok/TTT_camera_embedding/.venv_llm/lib/python3.12/site-packages/triton/language/standard.py":285:0)
#loc66 = loc(unknown)
#loc69 = loc("/NHNHOME/WORKSPACE/26msit001_A/jinhyeok/TTT_camera_embedding/.venv_llm/lib/python3.12/site-packages/triton/language/standard.py":260:0)
#loc73 = loc("in_ptr0"(#loc))
#loc74 = loc("in_ptr1"(#loc))
#loc75 = loc("in_ptr2"(#loc))
#loc76 = loc("in_ptr3"(#loc))
#loc77 = loc("out_ptr0"(#loc))
#loc78 = loc("out_ptr2"(#loc))
#loc79 = loc("out_ptr3"(#loc))
#loc80 = loc("xnumel"(#loc))
#loc81 = loc("r0_numel"(#loc))
#loc132 = loc("input"(#loc64))
#loc133 = loc("a"(#loc69))
#loc134 = loc("b"(#loc69))
module {
  tt.func public @triton_per_fused__to_copy_add_div_eq_masked_fill_mul_neg_sum_1(%in_ptr0: !tt.ptr<bf16> {tt.divisibility = 16 : i32} loc("in_ptr0"(#loc)), %in_ptr1: !tt.ptr<f32> {tt.divisibility = 16 : i32} loc("in_ptr1"(#loc)), %in_ptr2: !tt.ptr<f32> {tt.divisibility = 16 : i32} loc("in_ptr2"(#loc)), %in_ptr3: !tt.ptr<f32> {tt.divisibility = 16 : i32} loc("in_ptr3"(#loc)), %out_ptr0: !tt.ptr<f32> {tt.divisibility = 16 : i32} loc("out_ptr0"(#loc)), %out_ptr2: !tt.ptr<f32> {tt.divisibility = 16 : i32} loc("out_ptr2"(#loc)), %out_ptr3: !tt.ptr<bf16> {tt.divisibility = 16 : i32} loc("out_ptr3"(#loc)), %xnumel: i32 {tt.divisibility = 16 : i32} loc("xnumel"(#loc)), %r0_numel: i32 {tt.divisibility = 16 : i32} loc("r0_numel"(#loc))) attributes {noinline = false} {
    %xnumel_0 = arith.constant 6144 : i32 loc(#loc82)
    %r0_numel_1 = arith.constant 192 : i32 loc(#loc83)
    %xoffset = tt.get_program_id x : i32 loc(#loc84)
    %xoffset_2 = arith.constant 1 : i32 loc(#loc85)
    %xoffset_3 = arith.constant 1 : i32 loc(#loc85)
    %xoffset_4 = arith.muli %xoffset, %xoffset_3 : i32 loc(#loc85)
    %xindex = tt.make_range {end = 1 : i32, start = 0 : i32} : tensor<1xi32> loc(#loc86)
    %xindex_5 = tt.expand_dims %xindex {axis = 1 : i32} : tensor<1xi32> -> tensor<1x1xi32> loc(#loc87)
    %xindex_6 = tt.splat %xoffset_4 : i32 -> tensor<1x1xi32> loc(#loc88)
    %xindex_7 = arith.addi %xindex_6, %xindex_5 : tensor<1x1xi32> loc(#loc88)
    %xmask = arith.constant dense<6144> : tensor<1x1xi32> loc(#loc89)
    %xmask_8 = arith.cmpi slt, %xindex_7, %xmask : tensor<1x1xi32> loc(#loc89)
    %r0_index = tt.make_range {end = 256 : i32, start = 0 : i32} : tensor<256xi32> loc(#loc90)
    %r0_index_9 = tt.expand_dims %r0_index {axis = 0 : i32} : tensor<256xi32> -> tensor<1x256xi32> loc(#loc91)
    %r0_offset = arith.constant 0 : i32 loc(#loc92)
    %r0_mask = arith.constant dense<192> : tensor<1x256xi32> loc(#loc93)
    %r0_mask_10 = arith.cmpi slt, %r0_index_9, %r0_mask : tensor<1x256xi32> loc(#loc93)
    %tmp0 = arith.constant 192 : i32 loc(#loc94)
    %tmp0_11 = arith.constant 192 : i32 loc(#loc94)
    %tmp0_12 = arith.constant dense<192> : tensor<1x1xi32> loc(#loc94)
    %tmp0_13 = arith.muli %tmp0_12, %xindex_7 : tensor<1x1xi32> loc(#loc94)
    %tmp0_14 = tt.broadcast %tmp0_13 : tensor<1x1xi32> -> tensor<1x256xi32> loc(#loc95)
    %tmp0_15 = arith.addi %r0_index_9, %tmp0_14 : tensor<1x256xi32> loc(#loc95)
    %tmp0_16 = tt.splat %in_ptr0 : !tt.ptr<bf16> -> tensor<1x256x!tt.ptr<bf16>> loc(#loc96)
    %tmp0_17 = tt.addptr %tmp0_16, %tmp0_15 : tensor<1x256x!tt.ptr<bf16>>, tensor<1x256xi32> loc(#loc96)
    %tmp0_18 = tt.broadcast %xmask_8 : tensor<1x1xi1> -> tensor<1x256xi1> loc(#loc97)
    %tmp0_19 = arith.andi %r0_mask_10, %tmp0_18 : tensor<1x256xi1> loc(#loc97)
    %tmp0_20 = arith.constant 0.000000e+00 : f32 loc(#loc98)
    %tmp0_21 = arith.constant dense<0.000000e+00> : tensor<1x256xf32> loc(#loc98)
    %tmp0_22 = arith.truncf %tmp0_21 : tensor<1x256xf32> to tensor<1x256xbf16> loc(#loc98)
    %tmp0_23 = tt.load %tmp0_17, %tmp0_19, %tmp0_22 : tensor<1x256x!tt.ptr<bf16>> loc(#loc98)
    %tmp0_24 = arith.extf %tmp0_23 : tensor<1x256xbf16> to tensor<1x256xf32> loc(#loc99)
    %tmp2 = arith.constant 192 : i32 loc(#loc100)
    %tmp2_25 = arith.constant 192 : i32 loc(#loc100)
    %tmp2_26 = arith.constant dense<192> : tensor<1x1xi32> loc(#loc100)
    %tmp2_27 = arith.muli %tmp2_26, %xindex_7 : tensor<1x1xi32> loc(#loc100)
    %tmp2_28 = tt.broadcast %tmp2_27 : tensor<1x1xi32> -> tensor<1x256xi32> loc(#loc101)
    %tmp2_29 = arith.addi %r0_index_9, %tmp2_28 : tensor<1x256xi32> loc(#loc101)
    %tmp2_30 = tt.splat %in_ptr1 : !tt.ptr<f32> -> tensor<1x256x!tt.ptr<f32>> loc(#loc102)
    %tmp2_31 = tt.addptr %tmp2_30, %tmp2_29 : tensor<1x256x!tt.ptr<f32>>, tensor<1x256xi32> loc(#loc102)
    %tmp2_32 = tt.broadcast %xmask_8 : tensor<1x1xi1> -> tensor<1x256xi1> loc(#loc103)
    %tmp2_33 = arith.andi %r0_mask_10, %tmp2_32 : tensor<1x256xi1> loc(#loc103)
    %tmp2_34 = arith.constant 0.000000e+00 : f32 loc(#loc104)
    %tmp2_35 = arith.constant dense<0.000000e+00> : tensor<1x256xf32> loc(#loc104)
    %tmp2_36 = tt.load %tmp2_31, %tmp2_33, %tmp2_35 : tensor<1x256x!tt.ptr<f32>> loc(#loc104)
    %tmp3 = tt.splat %in_ptr2 : !tt.ptr<f32> -> tensor<1x1x!tt.ptr<f32>> loc(#loc105)
    %tmp3_37 = tt.addptr %tmp3, %xindex_7 : tensor<1x1x!tt.ptr<f32>>, tensor<1x1xi32> loc(#loc105)
    %tmp3_38 = tt.load %tmp3_37, %xmask_8 evictionPolicy = evict_last : tensor<1x1x!tt.ptr<f32>> loc(#loc106)
    %tmp12 = tt.splat %in_ptr3 : !tt.ptr<f32> -> tensor<1x1x!tt.ptr<f32>> loc(#loc107)
    %tmp12_39 = tt.addptr %tmp12, %xindex_7 : tensor<1x1x!tt.ptr<f32>>, tensor<1x1xi32> loc(#loc107)
    %tmp12_40 = tt.load %tmp12_39, %xmask_8 evictionPolicy = evict_last : tensor<1x1x!tt.ptr<f32>> loc(#loc108)
    %tmp4 = arith.constant 9.99999974E-6 : f32 loc(#loc109)
    %tmp5 = arith.constant dense<9.99999974E-6> : tensor<1x1xf32> loc(#loc110)
    %tmp5_41 = arith.addf %tmp3_38, %tmp5 : tensor<1x1xf32> loc(#loc110)
    %tmp6 = tt.broadcast %tmp5_41 : tensor<1x1xf32> -> tensor<1x256xf32> loc(#loc111)
    %tmp6_42 = arith.divf %tmp2_36, %tmp6 : tensor<1x256xf32> loc(#loc111)
    %tmp7 = arith.mulf %tmp0_24, %tmp6_42 : tensor<1x256xf32> loc(#loc112)
    %tmp10 = tt.broadcast %xmask_8 : tensor<1x1xi1> -> tensor<1x256xi1> loc(#loc113)
    %tmp10_43 = arith.andi %r0_mask_10, %tmp10 : tensor<1x256xi1> loc(#loc113)
    %tmp10_44 = arith.constant 0 : i32 loc(#loc114)
    %tmp10_45 = arith.constant 0.000000e+00 : f32 loc(#loc114)
    %tmp10_46 = arith.constant dense<0.000000e+00> : tensor<1x256xf32> loc(#loc114)
    %tmp10_47 = arith.select %tmp10_43, %tmp7, %tmp10_46 : tensor<1x256xi1>, tensor<1x256xf32> loc(#loc114)
    %tmp11 = tt.call @"triton.language.standard.sum__fp32S1_256S__(1,)cconstexpr_1__(2,)cconstexpr_False__(3,)cNone"(%tmp10_47) : (tensor<1x256xf32>) -> tensor<1xf32> loc(#loc115)
    %tmp11_48 = tt.expand_dims %tmp11 {axis = 1 : i32} : tensor<1xf32> -> tensor<1x1xf32> loc(#loc116)
    %tmp13 = tt.broadcast %tmp12_40 : tensor<1x1xf32> -> tensor<1x256xf32> loc(#loc117)
    %tmp13_49 = arith.mulf %tmp0_24, %tmp13 : tensor<1x256xf32> loc(#loc117)
    %tmp14 = arith.constant 0.000000e+00 : f32 loc(#loc118)
    %tmp14_50 = arith.constant dense<0.000000e+00> : tensor<1x256xf32> loc(#loc118)
    %tmp14_51 = arith.subf %tmp14_50, %tmp13_49 : tensor<1x256xf32> loc(#loc118)
    %tmp15 = tt.broadcast %tmp5_41 : tensor<1x1xf32> -> tensor<1x256xf32> loc(#loc119)
    %tmp15_52 = arith.divf %tmp6_42, %tmp15 : tensor<1x256xf32> loc(#loc119)
    %tmp16 = arith.mulf %tmp14_51, %tmp15_52 : tensor<1x256xf32> loc(#loc120)
    %tmp19 = tt.broadcast %xmask_8 : tensor<1x1xi1> -> tensor<1x256xi1> loc(#loc121)
    %tmp19_53 = arith.andi %r0_mask_10, %tmp19 : tensor<1x256xi1> loc(#loc121)
    %tmp19_54 = arith.constant 0 : i32 loc(#loc122)
    %tmp19_55 = arith.constant 0.000000e+00 : f32 loc(#loc122)
    %tmp19_56 = arith.constant dense<0.000000e+00> : tensor<1x256xf32> loc(#loc122)
    %tmp19_57 = arith.select %tmp19_53, %tmp16, %tmp19_56 : tensor<1x256xi1>, tensor<1x256xf32> loc(#loc122)
    %tmp20 = tt.call @"triton.language.standard.sum__fp32S1_256S__(1,)cconstexpr_1__(2,)cconstexpr_False__(3,)cNone"(%tmp19_57) : (tensor<1x256xf32>) -> tensor<1xf32> loc(#loc123)
    %tmp20_58 = tt.expand_dims %tmp20 {axis = 1 : i32} : tensor<1xf32> -> tensor<1x1xf32> loc(#loc124)
    %tmp21 = tt.broadcast %tmp5_41 : tensor<1x1xf32> -> tensor<1x256xf32> loc(#loc125)
    %tmp21_59 = arith.divf %tmp13_49, %tmp21 : tensor<1x256xf32> loc(#loc125)
    %tmp22 = arith.constant 0.000000e+00 : f32 loc(#loc126)
    %tmp23 = arith.constant dense<0.000000e+00> : tensor<1x1xf32> loc(#loc127)
    %tmp23_60 = arith.cmpf oeq, %tmp3_38, %tmp23 : tensor<1x1xf32> loc(#loc127)
    %tmp24 = tt.broadcast %tmp3_38 : tensor<1x1xf32> -> tensor<1x256xf32> loc(#loc128)
    %tmp24_61 = arith.divf %tmp2_36, %tmp24 : tensor<1x256xf32> loc(#loc128)
    %tmp25 = arith.constant dense<0.000000e+00> : tensor<1x256xf32> loc(#loc129)
    %tmp25_62 = tt.broadcast %tmp23_60 : tensor<1x1xi1> -> tensor<1x256xi1> loc(#loc129)
    %tmp25_63 = arith.select %tmp25_62, %tmp25, %tmp24_61 : tensor<1x256xi1>, tensor<1x256xf32> loc(#loc129)
    %tmp26 = tt.broadcast %tmp20_58 : tensor<1x1xf32> -> tensor<1x256xf32> loc(#loc130)
    %tmp26_64 = arith.mulf %tmp26, %tmp25_63 : tensor<1x256xf32> loc(#loc130)
    %tmp27 = arith.addf %tmp21_59, %tmp26_64 : tensor<1x256xf32> loc(#loc131)
    %c192_i32 = arith.constant 192 : i32 loc(#loc51)
    %c192_i32_65 = arith.constant 192 : i32 loc(#loc51)
    %cst = arith.constant dense<192> : tensor<1x1xi32> loc(#loc51)
    %0 = arith.muli %cst, %xindex_7 : tensor<1x1xi32> loc(#loc51)
    %1 = tt.broadcast %0 : tensor<1x1xi32> -> tensor<1x256xi32> loc(#loc52)
    %2 = arith.addi %r0_index_9, %1 : tensor<1x256xi32> loc(#loc52)
    %3 = tt.splat %out_ptr2 : !tt.ptr<f32> -> tensor<1x256x!tt.ptr<f32>> loc(#loc53)
    %4 = tt.addptr %3, %2 : tensor<1x256x!tt.ptr<f32>>, tensor<1x256xi32> loc(#loc53)
    %5 = tt.broadcast %xmask_8 : tensor<1x1xi1> -> tensor<1x256xi1> loc(#loc54)
    %6 = arith.andi %r0_mask_10, %5 : tensor<1x256xi1> loc(#loc54)
    tt.store %4, %tmp27, %6 : tensor<1x256x!tt.ptr<f32>> loc(#loc55)
    %c192_i32_66 = arith.constant 192 : i32 loc(#loc56)
    %c192_i32_67 = arith.constant 192 : i32 loc(#loc56)
    %cst_68 = arith.constant dense<192> : tensor<1x1xi32> loc(#loc56)
    %7 = arith.muli %cst_68, %xindex_7 : tensor<1x1xi32> loc(#loc56)
    %8 = tt.broadcast %7 : tensor<1x1xi32> -> tensor<1x256xi32> loc(#loc57)
    %9 = arith.addi %r0_index_9, %8 : tensor<1x256xi32> loc(#loc57)
    %10 = tt.splat %out_ptr3 : !tt.ptr<bf16> -> tensor<1x256x!tt.ptr<bf16>> loc(#loc58)
    %11 = tt.addptr %10, %9 : tensor<1x256x!tt.ptr<bf16>>, tensor<1x256xi32> loc(#loc58)
    %12 = tt.broadcast %xmask_8 : tensor<1x1xi1> -> tensor<1x256xi1> loc(#loc59)
    %13 = arith.andi %r0_mask_10, %12 : tensor<1x256xi1> loc(#loc59)
    %14 = arith.truncf %tmp27 : tensor<1x256xf32> to tensor<1x256xbf16> loc(#loc60)
    tt.store %11, %14, %13 : tensor<1x256x!tt.ptr<bf16>> loc(#loc60)
    %15 = tt.splat %out_ptr0 : !tt.ptr<f32> -> tensor<1x1x!tt.ptr<f32>> loc(#loc61)
    %16 = tt.addptr %15, %xindex_7 : tensor<1x1x!tt.ptr<f32>>, tensor<1x1xi32> loc(#loc61)
    tt.store %16, %tmp11_48, %xmask_8 : tensor<1x1x!tt.ptr<f32>> loc(#loc62)
    tt.return loc(#loc63)
  } loc(#loc)
  tt.func private @"triton.language.standard.sum__fp32S1_256S__(1,)cconstexpr_1__(2,)cconstexpr_False__(3,)cNone"(%input: tensor<1x256xf32> loc("input"(#loc64))) -> tensor<1xf32> attributes {noinline = false} {
    %0 = "tt.reduce"(%input) <{axis = 1 : i32}> ({
    ^bb0(%arg1: f32 loc(unknown), %arg2: f32 loc(unknown)):
      %2 = tt.call @triton.language.standard._sum_combine__fp32_fp32__(%arg1, %arg2) : (f32, f32) -> f32 loc(#loc65)
      tt.reduce.return %2 : f32 loc(#loc65)
    }) : (tensor<1x256xf32>) -> tensor<1xf32> loc(#loc65)
    tt.return %0 : tensor<1xf32> loc(#loc67)
  ^bb1:  // no predecessors
    %1 = ub.poison : tensor<1xf32> loc(#loc68)
    tt.return %1 : tensor<1xf32> loc(#loc68)
  } loc(#loc64)
  tt.func private @triton.language.standard._sum_combine__fp32_fp32__(%a: f32 loc("a"(#loc69)), %b: f32 loc("b"(#loc69))) -> f32 attributes {noinline = false} {
    %0 = arith.addf %a, %b : f32 loc(#loc70)
    tt.return %0 : f32 loc(#loc71)
  ^bb1:  // no predecessors
    %1 = ub.poison : f32 loc(#loc72)
    tt.return %1 : f32 loc(#loc72)
  } loc(#loc69)
} loc(#loc)
#loc1 = loc("/NHNHOME/WORKSPACE/26msit001_A/jinhyeok/loop_TTT/lact/.cache_inductor_llm/n6/cn64nxoswt6cxog5apznmd7puubvyo3hg7h2zv26kppghd35bee4.py":19:13)
#loc2 = loc("/NHNHOME/WORKSPACE/26msit001_A/jinhyeok/loop_TTT/lact/.cache_inductor_llm/n6/cn64nxoswt6cxog5apznmd7puubvyo3hg7h2zv26kppghd35bee4.py":20:15)
#loc3 = loc("/NHNHOME/WORKSPACE/26msit001_A/jinhyeok/loop_TTT/lact/.cache_inductor_llm/n6/cn64nxoswt6cxog5apznmd7puubvyo3hg7h2zv26kppghd35bee4.py":24:28)
#loc4 = loc("/NHNHOME/WORKSPACE/26msit001_A/jinhyeok/loop_TTT/lact/.cache_inductor_llm/n6/cn64nxoswt6cxog5apznmd7puubvyo3hg7h2zv26kppghd35bee4.py":24:33)
#loc5 = loc("/NHNHOME/WORKSPACE/26msit001_A/jinhyeok/loop_TTT/lact/.cache_inductor_llm/n6/cn64nxoswt6cxog5apznmd7puubvyo3hg7h2zv26kppghd35bee4.py":25:36)
#loc6 = loc("/NHNHOME/WORKSPACE/26msit001_A/jinhyeok/loop_TTT/lact/.cache_inductor_llm/n6/cn64nxoswt6cxog5apznmd7puubvyo3hg7h2zv26kppghd35bee4.py":25:44)
#loc7 = loc("/NHNHOME/WORKSPACE/26msit001_A/jinhyeok/loop_TTT/lact/.cache_inductor_llm/n6/cn64nxoswt6cxog5apznmd7puubvyo3hg7h2zv26kppghd35bee4.py":25:23)
#loc8 = loc("/NHNHOME/WORKSPACE/26msit001_A/jinhyeok/loop_TTT/lact/.cache_inductor_llm/n6/cn64nxoswt6cxog5apznmd7puubvyo3hg7h2zv26kppghd35bee4.py":26:21)
#loc9 = loc("/NHNHOME/WORKSPACE/26msit001_A/jinhyeok/loop_TTT/lact/.cache_inductor_llm/n6/cn64nxoswt6cxog5apznmd7puubvyo3hg7h2zv26kppghd35bee4.py":27:28)
#loc10 = loc("/NHNHOME/WORKSPACE/26msit001_A/jinhyeok/loop_TTT/lact/.cache_inductor_llm/n6/cn64nxoswt6cxog5apznmd7puubvyo3hg7h2zv26kppghd35bee4.py":27:38)
#loc11 = loc("/NHNHOME/WORKSPACE/26msit001_A/jinhyeok/loop_TTT/lact/.cache_inductor_llm/n6/cn64nxoswt6cxog5apznmd7puubvyo3hg7h2zv26kppghd35bee4.py":28:16)
#loc12 = loc("/NHNHOME/WORKSPACE/26msit001_A/jinhyeok/loop_TTT/lact/.cache_inductor_llm/n6/cn64nxoswt6cxog5apznmd7puubvyo3hg7h2zv26kppghd35bee4.py":29:25)
#loc13 = loc("/NHNHOME/WORKSPACE/26msit001_A/jinhyeok/loop_TTT/lact/.cache_inductor_llm/n6/cn64nxoswt6cxog5apznmd7puubvyo3hg7h2zv26kppghd35bee4.py":34:41)
#loc14 = loc("/NHNHOME/WORKSPACE/26msit001_A/jinhyeok/loop_TTT/lact/.cache_inductor_llm/n6/cn64nxoswt6cxog5apznmd7puubvyo3hg7h2zv26kppghd35bee4.py":34:37)
#loc15 = loc("/NHNHOME/WORKSPACE/26msit001_A/jinhyeok/loop_TTT/lact/.cache_inductor_llm/n6/cn64nxoswt6cxog5apznmd7puubvyo3hg7h2zv26kppghd35bee4.py":34:30)
#loc16 = loc("/NHNHOME/WORKSPACE/26msit001_A/jinhyeok/loop_TTT/lact/.cache_inductor_llm/n6/cn64nxoswt6cxog5apznmd7puubvyo3hg7h2zv26kppghd35bee4.py":34:56)
#loc17 = loc("/NHNHOME/WORKSPACE/26msit001_A/jinhyeok/loop_TTT/lact/.cache_inductor_llm/n6/cn64nxoswt6cxog5apznmd7puubvyo3hg7h2zv26kppghd35bee4.py":34:46)
#loc18 = loc("/NHNHOME/WORKSPACE/26msit001_A/jinhyeok/loop_TTT/lact/.cache_inductor_llm/n6/cn64nxoswt6cxog5apznmd7puubvyo3hg7h2zv26kppghd35bee4.py":34:77)
#loc19 = loc("/NHNHOME/WORKSPACE/26msit001_A/jinhyeok/loop_TTT/lact/.cache_inductor_llm/n6/cn64nxoswt6cxog5apznmd7puubvyo3hg7h2zv26kppghd35bee4.py":35:41)
#loc20 = loc("/NHNHOME/WORKSPACE/26msit001_A/jinhyeok/loop_TTT/lact/.cache_inductor_llm/n6/cn64nxoswt6cxog5apznmd7puubvyo3hg7h2zv26kppghd35bee4.py":35:37)
#loc21 = loc("/NHNHOME/WORKSPACE/26msit001_A/jinhyeok/loop_TTT/lact/.cache_inductor_llm/n6/cn64nxoswt6cxog5apznmd7puubvyo3hg7h2zv26kppghd35bee4.py":35:30)
#loc22 = loc("/NHNHOME/WORKSPACE/26msit001_A/jinhyeok/loop_TTT/lact/.cache_inductor_llm/n6/cn64nxoswt6cxog5apznmd7puubvyo3hg7h2zv26kppghd35bee4.py":35:56)
#loc23 = loc("/NHNHOME/WORKSPACE/26msit001_A/jinhyeok/loop_TTT/lact/.cache_inductor_llm/n6/cn64nxoswt6cxog5apznmd7puubvyo3hg7h2zv26kppghd35bee4.py":35:46)
#loc24 = loc("/NHNHOME/WORKSPACE/26msit001_A/jinhyeok/loop_TTT/lact/.cache_inductor_llm/n6/cn64nxoswt6cxog5apznmd7puubvyo3hg7h2zv26kppghd35bee4.py":36:30)
#loc25 = loc("/NHNHOME/WORKSPACE/26msit001_A/jinhyeok/loop_TTT/lact/.cache_inductor_llm/n6/cn64nxoswt6cxog5apznmd7puubvyo3hg7h2zv26kppghd35bee4.py":36:35)
#loc26 = loc("/NHNHOME/WORKSPACE/26msit001_A/jinhyeok/loop_TTT/lact/.cache_inductor_llm/n6/cn64nxoswt6cxog5apznmd7puubvyo3hg7h2zv26kppghd35bee4.py":37:31)
#loc27 = loc("/NHNHOME/WORKSPACE/26msit001_A/jinhyeok/loop_TTT/lact/.cache_inductor_llm/n6/cn64nxoswt6cxog5apznmd7puubvyo3hg7h2zv26kppghd35bee4.py":37:36)
#loc28 = loc("/NHNHOME/WORKSPACE/26msit001_A/jinhyeok/loop_TTT/lact/.cache_inductor_llm/n6/cn64nxoswt6cxog5apznmd7puubvyo3hg7h2zv26kppghd35bee4.py":39:11)
#loc29 = loc("/NHNHOME/WORKSPACE/26msit001_A/jinhyeok/loop_TTT/lact/.cache_inductor_llm/n6/cn64nxoswt6cxog5apznmd7puubvyo3hg7h2zv26kppghd35bee4.py":40:18)
#loc30 = loc("/NHNHOME/WORKSPACE/26msit001_A/jinhyeok/loop_TTT/lact/.cache_inductor_llm/n6/cn64nxoswt6cxog5apznmd7puubvyo3hg7h2zv26kppghd35bee4.py":41:19)
#loc31 = loc("/NHNHOME/WORKSPACE/26msit001_A/jinhyeok/loop_TTT/lact/.cache_inductor_llm/n6/cn64nxoswt6cxog5apznmd7puubvyo3hg7h2zv26kppghd35bee4.py":42:18)
#loc32 = loc("/NHNHOME/WORKSPACE/26msit001_A/jinhyeok/loop_TTT/lact/.cache_inductor_llm/n6/cn64nxoswt6cxog5apznmd7puubvyo3hg7h2zv26kppghd35bee4.py":44:31)
#loc33 = loc("/NHNHOME/WORKSPACE/26msit001_A/jinhyeok/loop_TTT/lact/.cache_inductor_llm/n6/cn64nxoswt6cxog5apznmd7puubvyo3hg7h2zv26kppghd35bee4.py":44:44)
#loc34 = loc("/NHNHOME/WORKSPACE/26msit001_A/jinhyeok/loop_TTT/lact/.cache_inductor_llm/n6/cn64nxoswt6cxog5apznmd7puubvyo3hg7h2zv26kppghd35bee4.py":45:26)
#loc35 = loc("/NHNHOME/WORKSPACE/26msit001_A/jinhyeok/loop_TTT/lact/.cache_inductor_llm/n6/cn64nxoswt6cxog5apznmd7puubvyo3hg7h2zv26kppghd35bee4.py":45:29)
#loc36 = loc("/NHNHOME/WORKSPACE/26msit001_A/jinhyeok/loop_TTT/lact/.cache_inductor_llm/n6/cn64nxoswt6cxog5apznmd7puubvyo3hg7h2zv26kppghd35bee4.py":46:19)
#loc37 = loc("/NHNHOME/WORKSPACE/26msit001_A/jinhyeok/loop_TTT/lact/.cache_inductor_llm/n6/cn64nxoswt6cxog5apznmd7puubvyo3hg7h2zv26kppghd35bee4.py":47:13)
#loc38 = loc("/NHNHOME/WORKSPACE/26msit001_A/jinhyeok/loop_TTT/lact/.cache_inductor_llm/n6/cn64nxoswt6cxog5apznmd7puubvyo3hg7h2zv26kppghd35bee4.py":48:20)
#loc39 = loc("/NHNHOME/WORKSPACE/26msit001_A/jinhyeok/loop_TTT/lact/.cache_inductor_llm/n6/cn64nxoswt6cxog5apznmd7puubvyo3hg7h2zv26kppghd35bee4.py":49:20)
#loc40 = loc("/NHNHOME/WORKSPACE/26msit001_A/jinhyeok/loop_TTT/lact/.cache_inductor_llm/n6/cn64nxoswt6cxog5apznmd7puubvyo3hg7h2zv26kppghd35bee4.py":51:31)
#loc41 = loc("/NHNHOME/WORKSPACE/26msit001_A/jinhyeok/loop_TTT/lact/.cache_inductor_llm/n6/cn64nxoswt6cxog5apznmd7puubvyo3hg7h2zv26kppghd35bee4.py":51:45)
#loc42 = loc("/NHNHOME/WORKSPACE/26msit001_A/jinhyeok/loop_TTT/lact/.cache_inductor_llm/n6/cn64nxoswt6cxog5apznmd7puubvyo3hg7h2zv26kppghd35bee4.py":52:26)
#loc43 = loc("/NHNHOME/WORKSPACE/26msit001_A/jinhyeok/loop_TTT/lact/.cache_inductor_llm/n6/cn64nxoswt6cxog5apznmd7puubvyo3hg7h2zv26kppghd35bee4.py":52:29)
#loc44 = loc("/NHNHOME/WORKSPACE/26msit001_A/jinhyeok/loop_TTT/lact/.cache_inductor_llm/n6/cn64nxoswt6cxog5apznmd7puubvyo3hg7h2zv26kppghd35bee4.py":53:21)
#loc45 = loc("/NHNHOME/WORKSPACE/26msit001_A/jinhyeok/loop_TTT/lact/.cache_inductor_llm/n6/cn64nxoswt6cxog5apznmd7puubvyo3hg7h2zv26kppghd35bee4.py":54:12)
#loc46 = loc("/NHNHOME/WORKSPACE/26msit001_A/jinhyeok/loop_TTT/lact/.cache_inductor_llm/n6/cn64nxoswt6cxog5apznmd7puubvyo3hg7h2zv26kppghd35bee4.py":55:20)
#loc47 = loc("/NHNHOME/WORKSPACE/26msit001_A/jinhyeok/loop_TTT/lact/.cache_inductor_llm/n6/cn64nxoswt6cxog5apznmd7puubvyo3hg7h2zv26kppghd35bee4.py":56:20)
#loc48 = loc("/NHNHOME/WORKSPACE/26msit001_A/jinhyeok/loop_TTT/lact/.cache_inductor_llm/n6/cn64nxoswt6cxog5apznmd7puubvyo3hg7h2zv26kppghd35bee4.py":57:35)
#loc49 = loc("/NHNHOME/WORKSPACE/26msit001_A/jinhyeok/loop_TTT/lact/.cache_inductor_llm/n6/cn64nxoswt6cxog5apznmd7puubvyo3hg7h2zv26kppghd35bee4.py":58:20)
#loc50 = loc("/NHNHOME/WORKSPACE/26msit001_A/jinhyeok/loop_TTT/lact/.cache_inductor_llm/n6/cn64nxoswt6cxog5apznmd7puubvyo3hg7h2zv26kppghd35bee4.py":59:20)
#loc51 = loc("/NHNHOME/WORKSPACE/26msit001_A/jinhyeok/loop_TTT/lact/.cache_inductor_llm/n6/cn64nxoswt6cxog5apznmd7puubvyo3hg7h2zv26kppghd35bee4.py":61:36)
#loc52 = loc("/NHNHOME/WORKSPACE/26msit001_A/jinhyeok/loop_TTT/lact/.cache_inductor_llm/n6/cn64nxoswt6cxog5apznmd7puubvyo3hg7h2zv26kppghd35bee4.py":61:32)
#loc53 = loc("/NHNHOME/WORKSPACE/26msit001_A/jinhyeok/loop_TTT/lact/.cache_inductor_llm/n6/cn64nxoswt6cxog5apznmd7puubvyo3hg7h2zv26kppghd35bee4.py":61:25)
#loc54 = loc("/NHNHOME/WORKSPACE/26msit001_A/jinhyeok/loop_TTT/lact/.cache_inductor_llm/n6/cn64nxoswt6cxog5apznmd7puubvyo3hg7h2zv26kppghd35bee4.py":61:58)
#loc55 = loc("/NHNHOME/WORKSPACE/26msit001_A/jinhyeok/loop_TTT/lact/.cache_inductor_llm/n6/cn64nxoswt6cxog5apznmd7puubvyo3hg7h2zv26kppghd35bee4.py":61:48)
#loc56 = loc("/NHNHOME/WORKSPACE/26msit001_A/jinhyeok/loop_TTT/lact/.cache_inductor_llm/n6/cn64nxoswt6cxog5apznmd7puubvyo3hg7h2zv26kppghd35bee4.py":62:36)
#loc57 = loc("/NHNHOME/WORKSPACE/26msit001_A/jinhyeok/loop_TTT/lact/.cache_inductor_llm/n6/cn64nxoswt6cxog5apznmd7puubvyo3hg7h2zv26kppghd35bee4.py":62:32)
#loc58 = loc("/NHNHOME/WORKSPACE/26msit001_A/jinhyeok/loop_TTT/lact/.cache_inductor_llm/n6/cn64nxoswt6cxog5apznmd7puubvyo3hg7h2zv26kppghd35bee4.py":62:25)
#loc59 = loc("/NHNHOME/WORKSPACE/26msit001_A/jinhyeok/loop_TTT/lact/.cache_inductor_llm/n6/cn64nxoswt6cxog5apznmd7puubvyo3hg7h2zv26kppghd35bee4.py":62:58)
#loc60 = loc("/NHNHOME/WORKSPACE/26msit001_A/jinhyeok/loop_TTT/lact/.cache_inductor_llm/n6/cn64nxoswt6cxog5apznmd7puubvyo3hg7h2zv26kppghd35bee4.py":62:48)
#loc61 = loc("/NHNHOME/WORKSPACE/26msit001_A/jinhyeok/loop_TTT/lact/.cache_inductor_llm/n6/cn64nxoswt6cxog5apznmd7puubvyo3hg7h2zv26kppghd35bee4.py":63:25)
#loc62 = loc("/NHNHOME/WORKSPACE/26msit001_A/jinhyeok/loop_TTT/lact/.cache_inductor_llm/n6/cn64nxoswt6cxog5apznmd7puubvyo3hg7h2zv26kppghd35bee4.py":63:37)
#loc63 = loc("/NHNHOME/WORKSPACE/26msit001_A/jinhyeok/loop_TTT/lact/.cache_inductor_llm/n6/cn64nxoswt6cxog5apznmd7puubvyo3hg7h2zv26kppghd35bee4.py":63:4)
#loc65 = loc("/NHNHOME/WORKSPACE/26msit001_A/jinhyeok/TTT_camera_embedding/.venv_llm/lib/python3.12/site-packages/triton/language/standard.py":291:36)
#loc67 = loc("/NHNHOME/WORKSPACE/26msit001_A/jinhyeok/TTT_camera_embedding/.venv_llm/lib/python3.12/site-packages/triton/language/standard.py":291:11)
#loc68 = loc("/NHNHOME/WORKSPACE/26msit001_A/jinhyeok/TTT_camera_embedding/.venv_llm/lib/python3.12/site-packages/triton/language/standard.py":291:4)
#loc70 = loc("/NHNHOME/WORKSPACE/26msit001_A/jinhyeok/TTT_camera_embedding/.venv_llm/lib/python3.12/site-packages/triton/language/standard.py":261:15)
#loc71 = loc("/NHNHOME/WORKSPACE/26msit001_A/jinhyeok/TTT_camera_embedding/.venv_llm/lib/python3.12/site-packages/triton/language/standard.py":261:11)
#loc72 = loc("/NHNHOME/WORKSPACE/26msit001_A/jinhyeok/TTT_camera_embedding/.venv_llm/lib/python3.12/site-packages/triton/language/standard.py":261:4)
#loc82 = loc("xnumel"(#loc1))
#loc83 = loc("r0_numel"(#loc2))
#loc84 = loc("xoffset"(#loc3))
#loc85 = loc("xoffset"(#loc4))
#loc86 = loc("xindex"(#loc5))
#loc87 = loc("xindex"(#loc6))
#loc88 = loc("xindex"(#loc7))
#loc89 = loc("xmask"(#loc8))
#loc90 = loc("r0_index"(#loc9))
#loc91 = loc("r0_index"(#loc10))
#loc92 = loc("r0_offset"(#loc11))
#loc93 = loc("r0_mask"(#loc12))
#loc94 = loc("tmp0"(#loc13))
#loc95 = loc("tmp0"(#loc14))
#loc96 = loc("tmp0"(#loc15))
#loc97 = loc("tmp0"(#loc16))
#loc98 = loc("tmp0"(#loc17))
#loc99 = loc("tmp0"(#loc18))
#loc100 = loc("tmp2"(#loc19))
#loc101 = loc("tmp2"(#loc20))
#loc102 = loc("tmp2"(#loc21))
#loc103 = loc("tmp2"(#loc22))
#loc104 = loc("tmp2"(#loc23))
#loc105 = loc("tmp3"(#loc24))
#loc106 = loc("tmp3"(#loc25))
#loc107 = loc("tmp12"(#loc26))
#loc108 = loc("tmp12"(#loc27))
#loc109 = loc("tmp4"(#loc28))
#loc110 = loc("tmp5"(#loc29))
#loc111 = loc("tmp6"(#loc30))
#loc112 = loc("tmp7"(#loc31))
#loc113 = loc("tmp10"(#loc32))
#loc114 = loc("tmp10"(#loc33))
#loc115 = loc("tmp11"(#loc34))
#loc116 = loc("tmp11"(#loc35))
#loc117 = loc("tmp13"(#loc36))
#loc118 = loc("tmp14"(#loc37))
#loc119 = loc("tmp15"(#loc38))
#loc120 = loc("tmp16"(#loc39))
#loc121 = loc("tmp19"(#loc40))
#loc122 = loc("tmp19"(#loc41))
#loc123 = loc("tmp20"(#loc42))
#loc124 = loc("tmp20"(#loc43))
#loc125 = loc("tmp21"(#loc44))
#loc126 = loc("tmp22"(#loc45))
#loc127 = loc("tmp23"(#loc46))
#loc128 = loc("tmp24"(#loc47))
#loc129 = loc("tmp25"(#loc48))
#loc130 = loc("tmp26"(#loc49))
#loc131 = loc("tmp27"(#loc50))
