#loc = loc("/NHNHOME/WORKSPACE/26msit001_A/jinhyeok/loop_TTT/lact/.cache_inductor_llm/gw/cgwnjm4vp5sxa7oxqhxno4cc3js4iyu3p5ctq2wfs5kacht2ssy4.py":18:0)
#loc42 = loc("/NHNHOME/WORKSPACE/26msit001_A/jinhyeok/TTT_camera_embedding/.venv_llm/lib/python3.12/site-packages/triton/language/standard.py":285:0)
#loc44 = loc(unknown)
#loc47 = loc("/NHNHOME/WORKSPACE/26msit001_A/jinhyeok/TTT_camera_embedding/.venv_llm/lib/python3.12/site-packages/triton/language/standard.py":260:0)
#loc51 = loc("in_ptr0"(#loc))
#loc52 = loc("out_ptr0"(#loc))
#loc53 = loc("xnumel"(#loc))
#loc54 = loc("r0_numel"(#loc))
#loc92 = loc("input"(#loc42))
#loc93 = loc("a"(#loc47))
#loc94 = loc("b"(#loc47))
module {
  tt.func public @triton_red_fused__to_copy_linalg_vector_norm_39(%in_ptr0: !tt.ptr<f32> {tt.divisibility = 16 : i32} loc("in_ptr0"(#loc)), %out_ptr0: !tt.ptr<f32> {tt.divisibility = 16 : i32} loc("out_ptr0"(#loc)), %xnumel: i32 loc("xnumel"(#loc)), %r0_numel: i32 loc("r0_numel"(#loc))) attributes {noinline = false} {
    %xnumel_0 = arith.constant 40 : i32 loc(#loc55)
    %r0_numel_1 = arith.constant 7373 : i32 loc(#loc56)
    %xoffset = tt.get_program_id x : i32 loc(#loc57)
    %xoffset_2 = arith.constant 1 : i32 loc(#loc58)
    %xoffset_3 = arith.constant 1 : i32 loc(#loc58)
    %xoffset_4 = arith.muli %xoffset, %xoffset_3 : i32 loc(#loc58)
    %xindex = tt.make_range {end = 1 : i32, start = 0 : i32} : tensor<1xi32> loc(#loc59)
    %xindex_5 = tt.expand_dims %xindex {axis = 1 : i32} : tensor<1xi32> -> tensor<1x1xi32> loc(#loc60)
    %xindex_6 = tt.splat %xoffset_4 : i32 -> tensor<1x1xi32> loc(#loc61)
    %xindex_7 = arith.addi %xindex_6, %xindex_5 : tensor<1x1xi32> loc(#loc61)
    %xmask = arith.constant dense<40> : tensor<1x1xi32> loc(#loc62)
    %xmask_8 = arith.cmpi slt, %xindex_7, %xmask : tensor<1x1xi32> loc(#loc62)
    %r0_base = tt.make_range {end = 2048 : i32, start = 0 : i32} : tensor<2048xi32> loc(#loc63)
    %r0_base_9 = tt.expand_dims %r0_base {axis = 0 : i32} : tensor<2048xi32> -> tensor<1x2048xi32> loc(#loc64)
    %x0 = arith.constant 5 : i32 loc(#loc65)
    %x0_10 = arith.constant 5 : i32 loc(#loc65)
    %x0_11 = arith.constant dense<5> : tensor<1x1xi32> loc(#loc65)
    %x0_12 = arith.remsi %xindex_7, %x0_11 : tensor<1x1xi32> loc(#loc65)
    %x1 = arith.constant 5 : i32 loc(#loc66)
    %x1_13 = arith.constant 5 : i32 loc(#loc66)
    %x1_14 = arith.constant dense<5> : tensor<1x1xi32> loc(#loc66)
    %x1_15 = arith.divsi %xindex_7, %x1_14 : tensor<1x1xi32> loc(#loc66)
    %_tmp10 = arith.constant 0.000000e+00 : f32 loc(#loc67)
    %_tmp10_16 = arith.constant dense<0.000000e+00> : tensor<1x2048xf32> loc(#loc67)
    %c0_i32 = arith.constant 0 : i32 loc(#loc14)
    %c2048_i32 = arith.constant 2048 : i32 loc(#loc14)
    %0 = arith.bitcast %c0_i32 : i32 to i32 loc(#loc14)
    %1 = arith.bitcast %r0_numel_1 : i32 to i32 loc(#loc14)
    %2 = arith.bitcast %c2048_i32 : i32 to i32 loc(#loc14)
    %3 = ub.poison : i32 loc(#loc14)
    %_tmp10_17 = scf.for %r0_offset = %0 to %1 step %2 iter_args(%_tmp10_19 = %_tmp10_16) -> (tensor<1x2048xf32>)  : i32 {
      %r0_index = tt.splat %r0_offset : i32 -> tensor<1x2048xi32> loc(#loc69)
      %r0_index_20 = arith.addi %r0_index, %r0_base_9 : tensor<1x2048xi32> loc(#loc69)
      %r0_mask = arith.constant dense<7373> : tensor<1x2048xi32> loc(#loc70)
      %r0_mask_21 = arith.cmpi slt, %r0_index_20, %r0_mask : tensor<1x2048xi32> loc(#loc70)
      %tmp0 = arith.constant 7373 : i32 loc(#loc71)
      %tmp0_22 = arith.constant 7373 : i32 loc(#loc71)
      %tmp0_23 = arith.constant dense<7373> : tensor<1x1xi32> loc(#loc71)
      %tmp0_24 = arith.muli %tmp0_23, %x0_12 : tensor<1x1xi32> loc(#loc71)
      %tmp0_25 = tt.broadcast %tmp0_24 : tensor<1x1xi32> -> tensor<1x2048xi32> loc(#loc72)
      %tmp0_26 = arith.addi %r0_index_20, %tmp0_25 : tensor<1x2048xi32> loc(#loc72)
      %tmp1 = arith.constant 36864 : i32 loc(#loc73)
      %tmp1_27 = arith.constant dense<36864> : tensor<1x1xi32> loc(#loc73)
      %tmp2 = arith.constant dense<36864> : tensor<1x2048xi32> loc(#loc74)
      %tmp2_28 = arith.cmpi slt, %tmp0_26, %tmp2 : tensor<1x2048xi32> loc(#loc74)
      %tmp3 = arith.constant 36864 : i32 loc(#loc75)
      %tmp3_29 = arith.constant 36864 : i32 loc(#loc75)
      %tmp3_30 = arith.constant dense<36864> : tensor<1x1xi32> loc(#loc75)
      %tmp3_31 = arith.muli %tmp3_30, %x1_15 : tensor<1x1xi32> loc(#loc75)
      %tmp3_32 = arith.constant 7373 : i32 loc(#loc76)
      %tmp3_33 = arith.constant 7373 : i32 loc(#loc76)
      %tmp3_34 = arith.constant dense<7373> : tensor<1x1xi32> loc(#loc76)
      %tmp3_35 = arith.muli %tmp3_34, %x0_12 : tensor<1x1xi32> loc(#loc76)
      %tmp3_36 = tt.broadcast %tmp3_35 : tensor<1x1xi32> -> tensor<1x2048xi32> loc(#loc77)
      %tmp3_37 = arith.addi %r0_index_20, %tmp3_36 : tensor<1x2048xi32> loc(#loc77)
      %tmp3_38 = arith.constant 36864 : i32 loc(#loc78)
      %tmp3_39 = arith.constant 36864 : i32 loc(#loc78)
      %tmp3_40 = arith.constant dense<36864> : tensor<1x2048xi32> loc(#loc78)
      %tmp3_41 = arith.remsi %tmp3_37, %tmp3_40 : tensor<1x2048xi32> loc(#loc78)
      %tmp3_42 = tt.broadcast %tmp3_31 : tensor<1x1xi32> -> tensor<1x2048xi32> loc(#loc79)
      %tmp3_43 = arith.addi %tmp3_42, %tmp3_41 : tensor<1x2048xi32> loc(#loc79)
      %tmp3_44 = tt.splat %in_ptr0 : !tt.ptr<f32> -> tensor<1x2048x!tt.ptr<f32>> loc(#loc80)
      %tmp3_45 = tt.addptr %tmp3_44, %tmp3_43 : tensor<1x2048x!tt.ptr<f32>>, tensor<1x2048xi32> loc(#loc80)
      %tmp3_46 = arith.andi %r0_mask_21, %tmp2_28 : tensor<1x2048xi1> loc(#loc81)
      %tmp3_47 = tt.broadcast %xmask_8 : tensor<1x1xi1> -> tensor<1x2048xi1> loc(#loc82)
      %tmp3_48 = arith.andi %tmp3_46, %tmp3_47 : tensor<1x2048xi1> loc(#loc82)
      %tmp3_49 = arith.constant 0.000000e+00 : f32 loc(#loc83)
      %tmp3_50 = arith.constant dense<0.000000e+00> : tensor<1x2048xf32> loc(#loc83)
      %tmp3_51 = tt.load %tmp3_45, %tmp3_48, %tmp3_50 evictionPolicy = evict_last : tensor<1x2048x!tt.ptr<f32>> loc(#loc83)
      %tmp6 = arith.mulf %tmp3_51, %tmp3_51 : tensor<1x2048xf32> loc(#loc84)
      %tmp7 = arith.constant 0.000000e+00 : f32 loc(#loc85)
      %tmp7_52 = arith.constant dense<0.000000e+00> : tensor<1x2048xf32> loc(#loc85)
      %tmp8 = arith.select %tmp2_28, %tmp6, %tmp7_52 : tensor<1x2048xi1>, tensor<1x2048xf32> loc(#loc86)
      %tmp11 = arith.addf %_tmp10_19, %tmp8 : tensor<1x2048xf32> loc(#loc87)
      %_tmp10_53 = tt.broadcast %xmask_8 : tensor<1x1xi1> -> tensor<1x2048xi1> loc(#loc88)
      %_tmp10_54 = arith.andi %r0_mask_21, %_tmp10_53 : tensor<1x2048xi1> loc(#loc88)
      %_tmp10_55 = arith.select %_tmp10_54, %tmp11, %_tmp10_19 : tensor<1x2048xi1>, tensor<1x2048xf32> loc(#loc89)
      scf.yield %_tmp10_55 : tensor<1x2048xf32> loc(#loc36)
    } loc(#loc68)
    %tmp10 = tt.call @"triton.language.standard.sum__fp32S1_2048S__(1,)cconstexpr_1__(2,)cconstexpr_False__(3,)cNone"(%_tmp10_17) : (tensor<1x2048xf32>) -> tensor<1xf32> loc(#loc90)
    %tmp10_18 = tt.expand_dims %tmp10 {axis = 1 : i32} : tensor<1xf32> -> tensor<1x1xf32> loc(#loc91)
    %4 = tt.splat %out_ptr0 : !tt.ptr<f32> -> tensor<1x1x!tt.ptr<f32>> loc(#loc39)
    %5 = tt.addptr %4, %xindex_7 : tensor<1x1x!tt.ptr<f32>>, tensor<1x1xi32> loc(#loc39)
    tt.store %5, %tmp10_18, %xmask_8 : tensor<1x1x!tt.ptr<f32>> loc(#loc40)
    tt.return loc(#loc41)
  } loc(#loc)
  tt.func private @"triton.language.standard.sum__fp32S1_2048S__(1,)cconstexpr_1__(2,)cconstexpr_False__(3,)cNone"(%input: tensor<1x2048xf32> loc("input"(#loc42))) -> tensor<1xf32> attributes {noinline = false} {
    %0 = "tt.reduce"(%input) <{axis = 1 : i32}> ({
    ^bb0(%arg1: f32 loc(unknown), %arg2: f32 loc(unknown)):
      %2 = tt.call @triton.language.standard._sum_combine__fp32_fp32__(%arg1, %arg2) : (f32, f32) -> f32 loc(#loc43)
      tt.reduce.return %2 : f32 loc(#loc43)
    }) : (tensor<1x2048xf32>) -> tensor<1xf32> loc(#loc43)
    tt.return %0 : tensor<1xf32> loc(#loc45)
  ^bb1:  // no predecessors
    %1 = ub.poison : tensor<1xf32> loc(#loc46)
    tt.return %1 : tensor<1xf32> loc(#loc46)
  } loc(#loc42)
  tt.func private @triton.language.standard._sum_combine__fp32_fp32__(%a: f32 loc("a"(#loc47)), %b: f32 loc("b"(#loc47))) -> f32 attributes {noinline = false} {
    %0 = arith.addf %a, %b : f32 loc(#loc48)
    tt.return %0 : f32 loc(#loc49)
  ^bb1:  // no predecessors
    %1 = ub.poison : f32 loc(#loc50)
    tt.return %1 : f32 loc(#loc50)
  } loc(#loc47)
} loc(#loc)
#loc1 = loc("/NHNHOME/WORKSPACE/26msit001_A/jinhyeok/loop_TTT/lact/.cache_inductor_llm/gw/cgwnjm4vp5sxa7oxqhxno4cc3js4iyu3p5ctq2wfs5kacht2ssy4.py":19:13)
#loc2 = loc("/NHNHOME/WORKSPACE/26msit001_A/jinhyeok/loop_TTT/lact/.cache_inductor_llm/gw/cgwnjm4vp5sxa7oxqhxno4cc3js4iyu3p5ctq2wfs5kacht2ssy4.py":20:15)
#loc3 = loc("/NHNHOME/WORKSPACE/26msit001_A/jinhyeok/loop_TTT/lact/.cache_inductor_llm/gw/cgwnjm4vp5sxa7oxqhxno4cc3js4iyu3p5ctq2wfs5kacht2ssy4.py":23:28)
#loc4 = loc("/NHNHOME/WORKSPACE/26msit001_A/jinhyeok/loop_TTT/lact/.cache_inductor_llm/gw/cgwnjm4vp5sxa7oxqhxno4cc3js4iyu3p5ctq2wfs5kacht2ssy4.py":23:33)
#loc5 = loc("/NHNHOME/WORKSPACE/26msit001_A/jinhyeok/loop_TTT/lact/.cache_inductor_llm/gw/cgwnjm4vp5sxa7oxqhxno4cc3js4iyu3p5ctq2wfs5kacht2ssy4.py":24:36)
#loc6 = loc("/NHNHOME/WORKSPACE/26msit001_A/jinhyeok/loop_TTT/lact/.cache_inductor_llm/gw/cgwnjm4vp5sxa7oxqhxno4cc3js4iyu3p5ctq2wfs5kacht2ssy4.py":24:44)
#loc7 = loc("/NHNHOME/WORKSPACE/26msit001_A/jinhyeok/loop_TTT/lact/.cache_inductor_llm/gw/cgwnjm4vp5sxa7oxqhxno4cc3js4iyu3p5ctq2wfs5kacht2ssy4.py":24:23)
#loc8 = loc("/NHNHOME/WORKSPACE/26msit001_A/jinhyeok/loop_TTT/lact/.cache_inductor_llm/gw/cgwnjm4vp5sxa7oxqhxno4cc3js4iyu3p5ctq2wfs5kacht2ssy4.py":25:21)
#loc9 = loc("/NHNHOME/WORKSPACE/26msit001_A/jinhyeok/loop_TTT/lact/.cache_inductor_llm/gw/cgwnjm4vp5sxa7oxqhxno4cc3js4iyu3p5ctq2wfs5kacht2ssy4.py":26:27)
#loc10 = loc("/NHNHOME/WORKSPACE/26msit001_A/jinhyeok/loop_TTT/lact/.cache_inductor_llm/gw/cgwnjm4vp5sxa7oxqhxno4cc3js4iyu3p5ctq2wfs5kacht2ssy4.py":26:37)
#loc11 = loc("/NHNHOME/WORKSPACE/26msit001_A/jinhyeok/loop_TTT/lact/.cache_inductor_llm/gw/cgwnjm4vp5sxa7oxqhxno4cc3js4iyu3p5ctq2wfs5kacht2ssy4.py":28:19)
#loc12 = loc("/NHNHOME/WORKSPACE/26msit001_A/jinhyeok/loop_TTT/lact/.cache_inductor_llm/gw/cgwnjm4vp5sxa7oxqhxno4cc3js4iyu3p5ctq2wfs5kacht2ssy4.py":29:19)
#loc13 = loc("/NHNHOME/WORKSPACE/26msit001_A/jinhyeok/loop_TTT/lact/.cache_inductor_llm/gw/cgwnjm4vp5sxa7oxqhxno4cc3js4iyu3p5ctq2wfs5kacht2ssy4.py":30:44)
#loc14 = loc("/NHNHOME/WORKSPACE/26msit001_A/jinhyeok/loop_TTT/lact/.cache_inductor_llm/gw/cgwnjm4vp5sxa7oxqhxno4cc3js4iyu3p5ctq2wfs5kacht2ssy4.py":32:40)
#loc15 = loc("/NHNHOME/WORKSPACE/26msit001_A/jinhyeok/loop_TTT/lact/.cache_inductor_llm/gw/cgwnjm4vp5sxa7oxqhxno4cc3js4iyu3p5ctq2wfs5kacht2ssy4.py":33:31)
#loc16 = loc("/NHNHOME/WORKSPACE/26msit001_A/jinhyeok/loop_TTT/lact/.cache_inductor_llm/gw/cgwnjm4vp5sxa7oxqhxno4cc3js4iyu3p5ctq2wfs5kacht2ssy4.py":34:29)
#loc17 = loc("/NHNHOME/WORKSPACE/26msit001_A/jinhyeok/loop_TTT/lact/.cache_inductor_llm/gw/cgwnjm4vp5sxa7oxqhxno4cc3js4iyu3p5ctq2wfs5kacht2ssy4.py":38:27)
#loc18 = loc("/NHNHOME/WORKSPACE/26msit001_A/jinhyeok/loop_TTT/lact/.cache_inductor_llm/gw/cgwnjm4vp5sxa7oxqhxno4cc3js4iyu3p5ctq2wfs5kacht2ssy4.py":38:22)
#loc19 = loc("/NHNHOME/WORKSPACE/26msit001_A/jinhyeok/loop_TTT/lact/.cache_inductor_llm/gw/cgwnjm4vp5sxa7oxqhxno4cc3js4iyu3p5ctq2wfs5kacht2ssy4.py":39:38)
#loc20 = loc("/NHNHOME/WORKSPACE/26msit001_A/jinhyeok/loop_TTT/lact/.cache_inductor_llm/gw/cgwnjm4vp5sxa7oxqhxno4cc3js4iyu3p5ctq2wfs5kacht2ssy4.py":40:22)
#loc21 = loc("/NHNHOME/WORKSPACE/26msit001_A/jinhyeok/loop_TTT/lact/.cache_inductor_llm/gw/cgwnjm4vp5sxa7oxqhxno4cc3js4iyu3p5ctq2wfs5kacht2ssy4.py":41:40)
#loc22 = loc("/NHNHOME/WORKSPACE/26msit001_A/jinhyeok/loop_TTT/lact/.cache_inductor_llm/gw/cgwnjm4vp5sxa7oxqhxno4cc3js4iyu3p5ctq2wfs5kacht2ssy4.py":41:60)
#loc23 = loc("/NHNHOME/WORKSPACE/26msit001_A/jinhyeok/loop_TTT/lact/.cache_inductor_llm/gw/cgwnjm4vp5sxa7oxqhxno4cc3js4iyu3p5ctq2wfs5kacht2ssy4.py":41:55)
#loc24 = loc("/NHNHOME/WORKSPACE/26msit001_A/jinhyeok/loop_TTT/lact/.cache_inductor_llm/gw/cgwnjm4vp5sxa7oxqhxno4cc3js4iyu3p5ctq2wfs5kacht2ssy4.py":41:66)
#loc25 = loc("/NHNHOME/WORKSPACE/26msit001_A/jinhyeok/loop_TTT/lact/.cache_inductor_llm/gw/cgwnjm4vp5sxa7oxqhxno4cc3js4iyu3p5ctq2wfs5kacht2ssy4.py":41:47)
#loc26 = loc("/NHNHOME/WORKSPACE/26msit001_A/jinhyeok/loop_TTT/lact/.cache_inductor_llm/gw/cgwnjm4vp5sxa7oxqhxno4cc3js4iyu3p5ctq2wfs5kacht2ssy4.py":41:34)
#loc27 = loc("/NHNHOME/WORKSPACE/26msit001_A/jinhyeok/loop_TTT/lact/.cache_inductor_llm/gw/cgwnjm4vp5sxa7oxqhxno4cc3js4iyu3p5ctq2wfs5kacht2ssy4.py":41:86)
#loc28 = loc("/NHNHOME/WORKSPACE/26msit001_A/jinhyeok/loop_TTT/lact/.cache_inductor_llm/gw/cgwnjm4vp5sxa7oxqhxno4cc3js4iyu3p5ctq2wfs5kacht2ssy4.py":41:93)
#loc29 = loc("/NHNHOME/WORKSPACE/26msit001_A/jinhyeok/loop_TTT/lact/.cache_inductor_llm/gw/cgwnjm4vp5sxa7oxqhxno4cc3js4iyu3p5ctq2wfs5kacht2ssy4.py":41:76)
#loc30 = loc("/NHNHOME/WORKSPACE/26msit001_A/jinhyeok/loop_TTT/lact/.cache_inductor_llm/gw/cgwnjm4vp5sxa7oxqhxno4cc3js4iyu3p5ctq2wfs5kacht2ssy4.py":44:22)
#loc31 = loc("/NHNHOME/WORKSPACE/26msit001_A/jinhyeok/loop_TTT/lact/.cache_inductor_llm/gw/cgwnjm4vp5sxa7oxqhxno4cc3js4iyu3p5ctq2wfs5kacht2ssy4.py":45:38)
#loc32 = loc("/NHNHOME/WORKSPACE/26msit001_A/jinhyeok/loop_TTT/lact/.cache_inductor_llm/gw/cgwnjm4vp5sxa7oxqhxno4cc3js4iyu3p5ctq2wfs5kacht2ssy4.py":46:36)
#loc33 = loc("/NHNHOME/WORKSPACE/26msit001_A/jinhyeok/loop_TTT/lact/.cache_inductor_llm/gw/cgwnjm4vp5sxa7oxqhxno4cc3js4iyu3p5ctq2wfs5kacht2ssy4.py":48:25)
#loc34 = loc("/NHNHOME/WORKSPACE/26msit001_A/jinhyeok/loop_TTT/lact/.cache_inductor_llm/gw/cgwnjm4vp5sxa7oxqhxno4cc3js4iyu3p5ctq2wfs5kacht2ssy4.py":49:36)
#loc35 = loc("/NHNHOME/WORKSPACE/26msit001_A/jinhyeok/loop_TTT/lact/.cache_inductor_llm/gw/cgwnjm4vp5sxa7oxqhxno4cc3js4iyu3p5ctq2wfs5kacht2ssy4.py":49:50)
#loc36 = loc("/NHNHOME/WORKSPACE/26msit001_A/jinhyeok/loop_TTT/lact/.cache_inductor_llm/gw/cgwnjm4vp5sxa7oxqhxno4cc3js4iyu3p5ctq2wfs5kacht2ssy4.py":49:8)
#loc37 = loc("/NHNHOME/WORKSPACE/26msit001_A/jinhyeok/loop_TTT/lact/.cache_inductor_llm/gw/cgwnjm4vp5sxa7oxqhxno4cc3js4iyu3p5ctq2wfs5kacht2ssy4.py":50:27)
#loc38 = loc("/NHNHOME/WORKSPACE/26msit001_A/jinhyeok/loop_TTT/lact/.cache_inductor_llm/gw/cgwnjm4vp5sxa7oxqhxno4cc3js4iyu3p5ctq2wfs5kacht2ssy4.py":50:30)
#loc39 = loc("/NHNHOME/WORKSPACE/26msit001_A/jinhyeok/loop_TTT/lact/.cache_inductor_llm/gw/cgwnjm4vp5sxa7oxqhxno4cc3js4iyu3p5ctq2wfs5kacht2ssy4.py":51:25)
#loc40 = loc("/NHNHOME/WORKSPACE/26msit001_A/jinhyeok/loop_TTT/lact/.cache_inductor_llm/gw/cgwnjm4vp5sxa7oxqhxno4cc3js4iyu3p5ctq2wfs5kacht2ssy4.py":51:37)
#loc41 = loc("/NHNHOME/WORKSPACE/26msit001_A/jinhyeok/loop_TTT/lact/.cache_inductor_llm/gw/cgwnjm4vp5sxa7oxqhxno4cc3js4iyu3p5ctq2wfs5kacht2ssy4.py":51:4)
#loc43 = loc("/NHNHOME/WORKSPACE/26msit001_A/jinhyeok/TTT_camera_embedding/.venv_llm/lib/python3.12/site-packages/triton/language/standard.py":291:36)
#loc45 = loc("/NHNHOME/WORKSPACE/26msit001_A/jinhyeok/TTT_camera_embedding/.venv_llm/lib/python3.12/site-packages/triton/language/standard.py":291:11)
#loc46 = loc("/NHNHOME/WORKSPACE/26msit001_A/jinhyeok/TTT_camera_embedding/.venv_llm/lib/python3.12/site-packages/triton/language/standard.py":291:4)
#loc48 = loc("/NHNHOME/WORKSPACE/26msit001_A/jinhyeok/TTT_camera_embedding/.venv_llm/lib/python3.12/site-packages/triton/language/standard.py":261:15)
#loc49 = loc("/NHNHOME/WORKSPACE/26msit001_A/jinhyeok/TTT_camera_embedding/.venv_llm/lib/python3.12/site-packages/triton/language/standard.py":261:11)
#loc50 = loc("/NHNHOME/WORKSPACE/26msit001_A/jinhyeok/TTT_camera_embedding/.venv_llm/lib/python3.12/site-packages/triton/language/standard.py":261:4)
#loc55 = loc("xnumel"(#loc1))
#loc56 = loc("r0_numel"(#loc2))
#loc57 = loc("xoffset"(#loc3))
#loc58 = loc("xoffset"(#loc4))
#loc59 = loc("xindex"(#loc5))
#loc60 = loc("xindex"(#loc6))
#loc61 = loc("xindex"(#loc7))
#loc62 = loc("xmask"(#loc8))
#loc63 = loc("r0_base"(#loc9))
#loc64 = loc("r0_base"(#loc10))
#loc65 = loc("x0"(#loc11))
#loc66 = loc("x1"(#loc12))
#loc67 = loc("_tmp10"(#loc13))
#loc68 = loc("_tmp10"(#loc14))
#loc69 = loc("r0_index"(#loc15))
#loc70 = loc("r0_mask"(#loc16))
#loc71 = loc("tmp0"(#loc17))
#loc72 = loc("tmp0"(#loc18))
#loc73 = loc("tmp1"(#loc19))
#loc74 = loc("tmp2"(#loc20))
#loc75 = loc("tmp3"(#loc21))
#loc76 = loc("tmp3"(#loc22))
#loc77 = loc("tmp3"(#loc23))
#loc78 = loc("tmp3"(#loc24))
#loc79 = loc("tmp3"(#loc25))
#loc80 = loc("tmp3"(#loc26))
#loc81 = loc("tmp3"(#loc27))
#loc82 = loc("tmp3"(#loc28))
#loc83 = loc("tmp3"(#loc29))
#loc84 = loc("tmp6"(#loc30))
#loc85 = loc("tmp7"(#loc31))
#loc86 = loc("tmp8"(#loc32))
#loc87 = loc("tmp11"(#loc33))
#loc88 = loc("_tmp10"(#loc34))
#loc89 = loc("_tmp10"(#loc35))
#loc90 = loc("tmp10"(#loc37))
#loc91 = loc("tmp10"(#loc38))
