#loc = loc("/NHNHOME/WORKSPACE/26msit001_A/jinhyeok/loop_TTT/lact/.cache_inductor_llm/bm/cbmgmdounmd5ylyfv5c77banga6wwi6lhxpblghkxiepnuxjk7mo.py":18:0)
#loc44 = loc("in_out_ptr0"(#loc))
#loc45 = loc("in_ptr0"(#loc))
#loc46 = loc("in_ptr1"(#loc))
#loc47 = loc("in_ptr2"(#loc))
#loc48 = loc("in_ptr3"(#loc))
#loc49 = loc("in_ptr4"(#loc))
#loc50 = loc("in_ptr5"(#loc))
#loc51 = loc("in_ptr6"(#loc))
#loc52 = loc("ynumel"(#loc))
#loc53 = loc("xnumel"(#loc))
module {
  tt.func public @triton_poi_fused__to_copy_add_div_eq_masked_fill_mul_42(%in_out_ptr0: !tt.ptr<bf16> {tt.divisibility = 16 : i32} loc("in_out_ptr0"(#loc)), %in_ptr0: !tt.ptr<bf16> {tt.divisibility = 16 : i32} loc("in_ptr0"(#loc)), %in_ptr1: !tt.ptr<bf16> {tt.divisibility = 16 : i32} loc("in_ptr1"(#loc)), %in_ptr2: !tt.ptr<f32> {tt.divisibility = 16 : i32} loc("in_ptr2"(#loc)), %in_ptr3: !tt.ptr<f32> {tt.divisibility = 16 : i32} loc("in_ptr3"(#loc)), %in_ptr4: !tt.ptr<f32> {tt.divisibility = 16 : i32} loc("in_ptr4"(#loc)), %in_ptr5: !tt.ptr<f32> {tt.divisibility = 16 : i32} loc("in_ptr5"(#loc)), %in_ptr6: !tt.ptr<bf16> {tt.divisibility = 16 : i32} loc("in_ptr6"(#loc)), %ynumel: i32 {tt.divisibility = 16 : i32} loc("ynumel"(#loc)), %xnumel: i32 {tt.divisibility = 16 : i32} loc("xnumel"(#loc))) attributes {noinline = false} {
    %xmask = arith.constant 192 : i32 loc(#loc54)
    %cst = arith.constant dense<0.000000e+00> : tensor<1024x1xf32> loc(#loc2)
    %cst_0 = arith.constant dense<192> : tensor<1024x1xi32> loc(#loc2)
    %c1024_i32 = arith.constant 1024 : i32 loc(#loc2)
    %yoffset = tt.get_program_id y : i32 loc(#loc55)
    %yoffset_1 = arith.muli %yoffset, %c1024_i32 : i32 loc(#loc56)
    %yindex = tt.make_range {end = 1024 : i32, start = 0 : i32} : tensor<1024xi32> loc(#loc57)
    %yindex_2 = tt.expand_dims %yindex {axis = 1 : i32} : tensor<1024xi32> -> tensor<1024x1xi32> loc(#loc58)
    %yindex_3 = tt.splat %yoffset_1 : i32 -> tensor<1024x1xi32> loc(#loc59)
    %yindex_4 = arith.addi %yindex_3, %yindex_2 : tensor<1024x1xi32> loc(#loc59)
    %xoffset = tt.get_program_id x : i32 loc(#loc60)
    %xmask_5 = arith.cmpi slt, %xoffset, %xmask : i32 loc(#loc54)
    %tmp0 = arith.muli %yindex_4, %cst_0 : tensor<1024x1xi32> loc(#loc61)
    %tmp0_6 = tt.splat %xoffset : i32 -> tensor<1024x1xi32> loc(#loc93)
    %tmp0_7 = arith.addi %tmp0_6, %tmp0 : tensor<1024x1xi32> loc(#loc62)
    %tmp0_8 = tt.splat %in_out_ptr0 : !tt.ptr<bf16> -> tensor<1024x1x!tt.ptr<bf16>> loc(#loc64)
    %tmp0_9 = tt.addptr %tmp0_8, %tmp0_7 : tensor<1024x1x!tt.ptr<bf16>>, tensor<1024x1xi32> loc(#loc64)
    %tmp0_10 = tt.splat %xmask_5 : i1 -> tensor<1024x1xi1> loc(#loc94)
    %tmp0_11 = tt.load %tmp0_9, %tmp0_10 evictionPolicy = evict_last : tensor<1024x1x!tt.ptr<bf16>> loc(#loc65)
    %tmp0_12 = arith.extf %tmp0_11 : tensor<1024x1xbf16> to tensor<1024x1xf32> loc(#loc66)
    %tmp1 = tt.splat %in_ptr0 : !tt.ptr<bf16> -> tensor<1024x1x!tt.ptr<bf16>> loc(#loc67)
    %tmp1_13 = tt.addptr %tmp1, %tmp0_7 : tensor<1024x1x!tt.ptr<bf16>>, tensor<1024x1xi32> loc(#loc67)
    %tmp1_14 = tt.load %tmp1_13, %tmp0_10 evictionPolicy = evict_last : tensor<1024x1x!tt.ptr<bf16>> loc(#loc68)
    %tmp1_15 = arith.extf %tmp1_14 : tensor<1024x1xbf16> to tensor<1024x1xf32> loc(#loc69)
    %tmp3 = tt.splat %in_ptr1 : !tt.ptr<bf16> -> tensor<1024x1x!tt.ptr<bf16>> loc(#loc70)
    %tmp3_16 = tt.addptr %tmp3, %tmp0_7 : tensor<1024x1x!tt.ptr<bf16>>, tensor<1024x1xi32> loc(#loc70)
    %tmp3_17 = tt.load %tmp3_16, %tmp0_10 evictionPolicy = evict_last : tensor<1024x1x!tt.ptr<bf16>> loc(#loc71)
    %tmp3_18 = arith.extf %tmp3_17 : tensor<1024x1xbf16> to tensor<1024x1xf32> loc(#loc72)
    %tmp5 = tt.splat %in_ptr2 : !tt.ptr<f32> -> tensor<1024x1x!tt.ptr<f32>> loc(#loc73)
    %tmp5_19 = tt.addptr %tmp5, %yindex_4 : tensor<1024x1x!tt.ptr<f32>>, tensor<1024x1xi32> loc(#loc73)
    %tmp5_20 = tt.load %tmp5_19 evictionPolicy = evict_last : tensor<1024x1x!tt.ptr<f32>> loc(#loc74)
    %tmp6 = tt.splat %in_ptr3 : !tt.ptr<f32> -> tensor<1024x1x!tt.ptr<f32>> loc(#loc75)
    %tmp6_21 = tt.addptr %tmp6, %yindex_4 : tensor<1024x1x!tt.ptr<f32>>, tensor<1024x1xi32> loc(#loc75)
    %tmp6_22 = tt.load %tmp6_21 evictionPolicy = evict_last : tensor<1024x1x!tt.ptr<f32>> loc(#loc76)
    %tmp8 = tt.splat %in_ptr4 : !tt.ptr<f32> -> tensor<1024x1x!tt.ptr<f32>> loc(#loc77)
    %tmp8_23 = tt.addptr %tmp8, %yindex_4 : tensor<1024x1x!tt.ptr<f32>>, tensor<1024x1xi32> loc(#loc77)
    %tmp8_24 = tt.load %tmp8_23 evictionPolicy = evict_last : tensor<1024x1x!tt.ptr<f32>> loc(#loc78)
    %tmp10 = tt.splat %in_ptr5 : !tt.ptr<f32> -> tensor<1024x1x!tt.ptr<f32>> loc(#loc79)
    %tmp10_25 = tt.addptr %tmp10, %yindex_4 : tensor<1024x1x!tt.ptr<f32>>, tensor<1024x1xi32> loc(#loc79)
    %tmp10_26 = tt.load %tmp10_25 evictionPolicy = evict_last : tensor<1024x1x!tt.ptr<f32>> loc(#loc80)
    %tmp13 = tt.splat %in_ptr6 : !tt.ptr<bf16> -> tensor<1024x1x!tt.ptr<bf16>> loc(#loc81)
    %tmp13_27 = tt.addptr %tmp13, %tmp0_7 : tensor<1024x1x!tt.ptr<bf16>>, tensor<1024x1xi32> loc(#loc81)
    %tmp13_28 = tt.load %tmp13_27, %tmp0_10 evictionPolicy = evict_last : tensor<1024x1x!tt.ptr<bf16>> loc(#loc82)
    %tmp13_29 = arith.extf %tmp13_28 : tensor<1024x1xbf16> to tensor<1024x1xf32> loc(#loc83)
    %tmp2 = arith.addf %tmp0_12, %tmp1_15 : tensor<1024x1xf32> loc(#loc84)
    %tmp4 = arith.addf %tmp2, %tmp3_18 : tensor<1024x1xf32> loc(#loc85)
    %tmp7 = arith.addf %tmp5_20, %tmp6_22 : tensor<1024x1xf32> loc(#loc86)
    %tmp9 = arith.addf %tmp7, %tmp8_24 : tensor<1024x1xf32> loc(#loc87)
    %tmp12 = arith.cmpf oeq, %tmp10_26, %cst : tensor<1024x1xf32> loc(#loc88)
    %tmp15 = arith.divf %tmp13_29, %tmp10_26 : tensor<1024x1xf32> loc(#loc89)
    %tmp16 = arith.select %tmp12, %cst, %tmp15 : tensor<1024x1xi1>, tensor<1024x1xf32> loc(#loc90)
    %tmp17 = arith.mulf %tmp9, %tmp16 : tensor<1024x1xf32> loc(#loc91)
    %tmp19 = arith.addf %tmp4, %tmp17 : tensor<1024x1xf32> loc(#loc92)
    gpu.barrier loc(#loc41)
    %0 = arith.truncf %tmp19 : tensor<1024x1xf32> to tensor<1024x1xbf16> loc(#loc42)
    tt.store %tmp0_9, %0, %tmp0_10 : tensor<1024x1x!tt.ptr<bf16>> loc(#loc42)
    tt.return loc(#loc43)
  } loc(#loc)
} loc(#loc)
#loc1 = loc("/NHNHOME/WORKSPACE/26msit001_A/jinhyeok/loop_TTT/lact/.cache_inductor_llm/bm/cbmgmdounmd5ylyfv5c77banga6wwi6lhxpblghkxiepnuxjk7mo.py":26:21)
#loc2 = loc(unknown)
#loc3 = loc("/NHNHOME/WORKSPACE/26msit001_A/jinhyeok/loop_TTT/lact/.cache_inductor_llm/bm/cbmgmdounmd5ylyfv5c77banga6wwi6lhxpblghkxiepnuxjk7mo.py":21:28)
#loc4 = loc("/NHNHOME/WORKSPACE/26msit001_A/jinhyeok/loop_TTT/lact/.cache_inductor_llm/bm/cbmgmdounmd5ylyfv5c77banga6wwi6lhxpblghkxiepnuxjk7mo.py":21:33)
#loc5 = loc("/NHNHOME/WORKSPACE/26msit001_A/jinhyeok/loop_TTT/lact/.cache_inductor_llm/bm/cbmgmdounmd5ylyfv5c77banga6wwi6lhxpblghkxiepnuxjk7mo.py":22:36)
#loc6 = loc("/NHNHOME/WORKSPACE/26msit001_A/jinhyeok/loop_TTT/lact/.cache_inductor_llm/bm/cbmgmdounmd5ylyfv5c77banga6wwi6lhxpblghkxiepnuxjk7mo.py":22:44)
#loc7 = loc("/NHNHOME/WORKSPACE/26msit001_A/jinhyeok/loop_TTT/lact/.cache_inductor_llm/bm/cbmgmdounmd5ylyfv5c77banga6wwi6lhxpblghkxiepnuxjk7mo.py":22:23)
#loc8 = loc("/NHNHOME/WORKSPACE/26msit001_A/jinhyeok/loop_TTT/lact/.cache_inductor_llm/bm/cbmgmdounmd5ylyfv5c77banga6wwi6lhxpblghkxiepnuxjk7mo.py":24:28)
#loc9 = loc("/NHNHOME/WORKSPACE/26msit001_A/jinhyeok/loop_TTT/lact/.cache_inductor_llm/bm/cbmgmdounmd5ylyfv5c77banga6wwi6lhxpblghkxiepnuxjk7mo.py":29:43)
#loc10 = loc("/NHNHOME/WORKSPACE/26msit001_A/jinhyeok/loop_TTT/lact/.cache_inductor_llm/bm/cbmgmdounmd5ylyfv5c77banga6wwi6lhxpblghkxiepnuxjk7mo.py":29:39)
#loc11 = loc("/NHNHOME/WORKSPACE/26msit001_A/jinhyeok/loop_TTT/lact/.cache_inductor_llm/bm/cbmgmdounmd5ylyfv5c77banga6wwi6lhxpblghkxiepnuxjk7mo.py":25:23)
#loc12 = loc("/NHNHOME/WORKSPACE/26msit001_A/jinhyeok/loop_TTT/lact/.cache_inductor_llm/bm/cbmgmdounmd5ylyfv5c77banga6wwi6lhxpblghkxiepnuxjk7mo.py":29:34)
#loc13 = loc("/NHNHOME/WORKSPACE/26msit001_A/jinhyeok/loop_TTT/lact/.cache_inductor_llm/bm/cbmgmdounmd5ylyfv5c77banga6wwi6lhxpblghkxiepnuxjk7mo.py":29:48)
#loc14 = loc("/NHNHOME/WORKSPACE/26msit001_A/jinhyeok/loop_TTT/lact/.cache_inductor_llm/bm/cbmgmdounmd5ylyfv5c77banga6wwi6lhxpblghkxiepnuxjk7mo.py":29:88)
#loc15 = loc("/NHNHOME/WORKSPACE/26msit001_A/jinhyeok/loop_TTT/lact/.cache_inductor_llm/bm/cbmgmdounmd5ylyfv5c77banga6wwi6lhxpblghkxiepnuxjk7mo.py":30:30)
#loc16 = loc("/NHNHOME/WORKSPACE/26msit001_A/jinhyeok/loop_TTT/lact/.cache_inductor_llm/bm/cbmgmdounmd5ylyfv5c77banga6wwi6lhxpblghkxiepnuxjk7mo.py":30:44)
#loc17 = loc("/NHNHOME/WORKSPACE/26msit001_A/jinhyeok/loop_TTT/lact/.cache_inductor_llm/bm/cbmgmdounmd5ylyfv5c77banga6wwi6lhxpblghkxiepnuxjk7mo.py":30:84)
#loc18 = loc("/NHNHOME/WORKSPACE/26msit001_A/jinhyeok/loop_TTT/lact/.cache_inductor_llm/bm/cbmgmdounmd5ylyfv5c77banga6wwi6lhxpblghkxiepnuxjk7mo.py":31:30)
#loc19 = loc("/NHNHOME/WORKSPACE/26msit001_A/jinhyeok/loop_TTT/lact/.cache_inductor_llm/bm/cbmgmdounmd5ylyfv5c77banga6wwi6lhxpblghkxiepnuxjk7mo.py":31:44)
#loc20 = loc("/NHNHOME/WORKSPACE/26msit001_A/jinhyeok/loop_TTT/lact/.cache_inductor_llm/bm/cbmgmdounmd5ylyfv5c77banga6wwi6lhxpblghkxiepnuxjk7mo.py":31:84)
#loc21 = loc("/NHNHOME/WORKSPACE/26msit001_A/jinhyeok/loop_TTT/lact/.cache_inductor_llm/bm/cbmgmdounmd5ylyfv5c77banga6wwi6lhxpblghkxiepnuxjk7mo.py":32:30)
#loc22 = loc("/NHNHOME/WORKSPACE/26msit001_A/jinhyeok/loop_TTT/lact/.cache_inductor_llm/bm/cbmgmdounmd5ylyfv5c77banga6wwi6lhxpblghkxiepnuxjk7mo.py":32:35)
#loc23 = loc("/NHNHOME/WORKSPACE/26msit001_A/jinhyeok/loop_TTT/lact/.cache_inductor_llm/bm/cbmgmdounmd5ylyfv5c77banga6wwi6lhxpblghkxiepnuxjk7mo.py":33:30)
#loc24 = loc("/NHNHOME/WORKSPACE/26msit001_A/jinhyeok/loop_TTT/lact/.cache_inductor_llm/bm/cbmgmdounmd5ylyfv5c77banga6wwi6lhxpblghkxiepnuxjk7mo.py":33:35)
#loc25 = loc("/NHNHOME/WORKSPACE/26msit001_A/jinhyeok/loop_TTT/lact/.cache_inductor_llm/bm/cbmgmdounmd5ylyfv5c77banga6wwi6lhxpblghkxiepnuxjk7mo.py":34:30)
#loc26 = loc("/NHNHOME/WORKSPACE/26msit001_A/jinhyeok/loop_TTT/lact/.cache_inductor_llm/bm/cbmgmdounmd5ylyfv5c77banga6wwi6lhxpblghkxiepnuxjk7mo.py":34:35)
#loc27 = loc("/NHNHOME/WORKSPACE/26msit001_A/jinhyeok/loop_TTT/lact/.cache_inductor_llm/bm/cbmgmdounmd5ylyfv5c77banga6wwi6lhxpblghkxiepnuxjk7mo.py":35:31)
#loc28 = loc("/NHNHOME/WORKSPACE/26msit001_A/jinhyeok/loop_TTT/lact/.cache_inductor_llm/bm/cbmgmdounmd5ylyfv5c77banga6wwi6lhxpblghkxiepnuxjk7mo.py":35:36)
#loc29 = loc("/NHNHOME/WORKSPACE/26msit001_A/jinhyeok/loop_TTT/lact/.cache_inductor_llm/bm/cbmgmdounmd5ylyfv5c77banga6wwi6lhxpblghkxiepnuxjk7mo.py":36:31)
#loc30 = loc("/NHNHOME/WORKSPACE/26msit001_A/jinhyeok/loop_TTT/lact/.cache_inductor_llm/bm/cbmgmdounmd5ylyfv5c77banga6wwi6lhxpblghkxiepnuxjk7mo.py":36:45)
#loc31 = loc("/NHNHOME/WORKSPACE/26msit001_A/jinhyeok/loop_TTT/lact/.cache_inductor_llm/bm/cbmgmdounmd5ylyfv5c77banga6wwi6lhxpblghkxiepnuxjk7mo.py":36:85)
#loc32 = loc("/NHNHOME/WORKSPACE/26msit001_A/jinhyeok/loop_TTT/lact/.cache_inductor_llm/bm/cbmgmdounmd5ylyfv5c77banga6wwi6lhxpblghkxiepnuxjk7mo.py":37:18)
#loc33 = loc("/NHNHOME/WORKSPACE/26msit001_A/jinhyeok/loop_TTT/lact/.cache_inductor_llm/bm/cbmgmdounmd5ylyfv5c77banga6wwi6lhxpblghkxiepnuxjk7mo.py":38:18)
#loc34 = loc("/NHNHOME/WORKSPACE/26msit001_A/jinhyeok/loop_TTT/lact/.cache_inductor_llm/bm/cbmgmdounmd5ylyfv5c77banga6wwi6lhxpblghkxiepnuxjk7mo.py":39:18)
#loc35 = loc("/NHNHOME/WORKSPACE/26msit001_A/jinhyeok/loop_TTT/lact/.cache_inductor_llm/bm/cbmgmdounmd5ylyfv5c77banga6wwi6lhxpblghkxiepnuxjk7mo.py":40:18)
#loc36 = loc("/NHNHOME/WORKSPACE/26msit001_A/jinhyeok/loop_TTT/lact/.cache_inductor_llm/bm/cbmgmdounmd5ylyfv5c77banga6wwi6lhxpblghkxiepnuxjk7mo.py":42:21)
#loc37 = loc("/NHNHOME/WORKSPACE/26msit001_A/jinhyeok/loop_TTT/lact/.cache_inductor_llm/bm/cbmgmdounmd5ylyfv5c77banga6wwi6lhxpblghkxiepnuxjk7mo.py":44:21)
#loc38 = loc("/NHNHOME/WORKSPACE/26msit001_A/jinhyeok/loop_TTT/lact/.cache_inductor_llm/bm/cbmgmdounmd5ylyfv5c77banga6wwi6lhxpblghkxiepnuxjk7mo.py":45:35)
#loc39 = loc("/NHNHOME/WORKSPACE/26msit001_A/jinhyeok/loop_TTT/lact/.cache_inductor_llm/bm/cbmgmdounmd5ylyfv5c77banga6wwi6lhxpblghkxiepnuxjk7mo.py":46:19)
#loc40 = loc("/NHNHOME/WORKSPACE/26msit001_A/jinhyeok/loop_TTT/lact/.cache_inductor_llm/bm/cbmgmdounmd5ylyfv5c77banga6wwi6lhxpblghkxiepnuxjk7mo.py":48:19)
#loc41 = loc("/NHNHOME/WORKSPACE/26msit001_A/jinhyeok/loop_TTT/lact/.cache_inductor_llm/bm/cbmgmdounmd5ylyfv5c77banga6wwi6lhxpblghkxiepnuxjk7mo.py":49:4)
#loc42 = loc("/NHNHOME/WORKSPACE/26msit001_A/jinhyeok/loop_TTT/lact/.cache_inductor_llm/bm/cbmgmdounmd5ylyfv5c77banga6wwi6lhxpblghkxiepnuxjk7mo.py":50:49)
#loc43 = loc("/NHNHOME/WORKSPACE/26msit001_A/jinhyeok/loop_TTT/lact/.cache_inductor_llm/bm/cbmgmdounmd5ylyfv5c77banga6wwi6lhxpblghkxiepnuxjk7mo.py":50:4)
#loc54 = loc("xmask"(#loc1))
#loc55 = loc("yoffset"(#loc3))
#loc56 = loc("yoffset"(#loc4))
#loc57 = loc("yindex"(#loc5))
#loc58 = loc("yindex"(#loc6))
#loc59 = loc("yindex"(#loc7))
#loc60 = loc("xoffset"(#loc8))
#loc61 = loc("tmp0"(#loc9))
#loc62 = loc("tmp0"(#loc10))
#loc63 = loc("xindex"(#loc11))
#loc64 = loc("tmp0"(#loc12))
#loc65 = loc("tmp0"(#loc13))
#loc66 = loc("tmp0"(#loc14))
#loc67 = loc("tmp1"(#loc15))
#loc68 = loc("tmp1"(#loc16))
#loc69 = loc("tmp1"(#loc17))
#loc70 = loc("tmp3"(#loc18))
#loc71 = loc("tmp3"(#loc19))
#loc72 = loc("tmp3"(#loc20))
#loc73 = loc("tmp5"(#loc21))
#loc74 = loc("tmp5"(#loc22))
#loc75 = loc("tmp6"(#loc23))
#loc76 = loc("tmp6"(#loc24))
#loc77 = loc("tmp8"(#loc25))
#loc78 = loc("tmp8"(#loc26))
#loc79 = loc("tmp10"(#loc27))
#loc80 = loc("tmp10"(#loc28))
#loc81 = loc("tmp13"(#loc29))
#loc82 = loc("tmp13"(#loc30))
#loc83 = loc("tmp13"(#loc31))
#loc84 = loc("tmp2"(#loc32))
#loc85 = loc("tmp4"(#loc33))
#loc86 = loc("tmp7"(#loc34))
#loc87 = loc("tmp9"(#loc35))
#loc88 = loc("tmp12"(#loc36))
#loc89 = loc("tmp15"(#loc37))
#loc90 = loc("tmp16"(#loc38))
#loc91 = loc("tmp17"(#loc39))
#loc92 = loc("tmp19"(#loc40))
#loc93 = loc(fused[#loc62, #loc63])
#loc94 = loc(fused[#loc65, #loc54])
