#loc = loc("/NHNHOME/WORKSPACE/26msit001_A/jinhyeok/loop_TTT/lact/.cache_inductor_llm/w6/cw6wlwhokbolpselggxswa4ekjecbqndo47e24nixnlgidzpkxto.py":18:0)
#loc26 = loc("in_ptr0"(#loc))
#loc27 = loc("in_ptr1"(#loc))
#loc28 = loc("in_ptr2"(#loc))
#loc29 = loc("out_ptr0"(#loc))
#loc30 = loc("out_ptr1"(#loc))
#loc31 = loc("xnumel"(#loc))
module {
  tt.func public @triton_poi_fused__to_copy_add_mul_transpose_19(%in_ptr0: !tt.ptr<f32> {tt.divisibility = 16 : i32} loc("in_ptr0"(#loc)), %in_ptr1: !tt.ptr<bf16> {tt.divisibility = 16 : i32} loc("in_ptr1"(#loc)), %in_ptr2: !tt.ptr<bf16> {tt.divisibility = 16 : i32} loc("in_ptr2"(#loc)), %out_ptr0: !tt.ptr<bf16> {tt.divisibility = 16 : i32} loc("out_ptr0"(#loc)), %out_ptr1: !tt.ptr<bf16> {tt.divisibility = 16 : i32} loc("out_ptr1"(#loc)), %xnumel: i32 {tt.divisibility = 16 : i32} loc("xnumel"(#loc))) attributes {noinline = false} {
    %xnumel_0 = arith.constant 3538944 : i32 loc(#loc32)
    %xoffset = tt.get_program_id x : i32 loc(#loc33)
    %xoffset_1 = arith.constant 512 : i32 loc(#loc34)
    %xoffset_2 = arith.constant 512 : i32 loc(#loc34)
    %xoffset_3 = arith.muli %xoffset, %xoffset_2 : i32 loc(#loc34)
    %xindex = tt.make_range {end = 512 : i32, start = 0 : i32} : tensor<512xi32> loc(#loc35)
    %xindex_4 = tt.splat %xoffset_3 : i32 -> tensor<512xi32> loc(#loc36)
    %xindex_5 = arith.addi %xindex_4, %xindex : tensor<512xi32> loc(#loc36)
    %xmask = arith.constant true loc(#loc37)
    %xmask_6 = arith.constant dense<true> : tensor<512xi1> loc(#loc37)
    %tmp0 = tt.splat %in_ptr0 : !tt.ptr<f32> -> tensor<512x!tt.ptr<f32>> loc(#loc38)
    %tmp0_7 = tt.addptr %tmp0, %xindex_5 : tensor<512x!tt.ptr<f32>>, tensor<512xi32> loc(#loc38)
    %tmp0_8 = tt.load %tmp0_7 : tensor<512x!tt.ptr<f32>> loc(#loc39)
    %tmp3 = tt.splat %in_ptr1 : !tt.ptr<bf16> -> tensor<512x!tt.ptr<bf16>> loc(#loc40)
    %tmp3_9 = tt.addptr %tmp3, %xindex_5 : tensor<512x!tt.ptr<bf16>>, tensor<512xi32> loc(#loc40)
    %tmp3_10 = tt.load %tmp3_9 : tensor<512x!tt.ptr<bf16>> loc(#loc41)
    %tmp3_11 = arith.extf %tmp3_10 : tensor<512xbf16> to tensor<512xf32> loc(#loc42)
    %tmp8 = tt.splat %in_ptr2 : !tt.ptr<bf16> -> tensor<512x!tt.ptr<bf16>> loc(#loc43)
    %tmp8_12 = tt.addptr %tmp8, %xindex_5 : tensor<512x!tt.ptr<bf16>>, tensor<512xi32> loc(#loc43)
    %tmp8_13 = tt.load %tmp8_12 : tensor<512x!tt.ptr<bf16>> loc(#loc44)
    %tmp8_14 = arith.extf %tmp8_13 : tensor<512xbf16> to tensor<512xf32> loc(#loc45)
    %tmp1 = arith.constant 3.741800e+00 : f32 loc(#loc46)
    %tmp2 = arith.constant dense<3.741800e+00> : tensor<512xf32> loc(#loc47)
    %tmp2_15 = arith.mulf %tmp0_8, %tmp2 : tensor<512xf32> loc(#loc47)
    %tmp5 = arith.addf %tmp2_15, %tmp3_11 : tensor<512xf32> loc(#loc48)
    %tmp6 = arith.constant 2.876900e+00 : f32 loc(#loc49)
    %tmp7 = arith.constant dense<2.876900e+00> : tensor<512xf32> loc(#loc50)
    %tmp7_16 = arith.mulf %tmp5, %tmp7 : tensor<512xf32> loc(#loc50)
    %tmp10 = arith.addf %tmp7_16, %tmp8_14 : tensor<512xf32> loc(#loc51)
    %0 = tt.splat %out_ptr0 : !tt.ptr<bf16> -> tensor<512x!tt.ptr<bf16>> loc(#loc21)
    %1 = tt.addptr %0, %xindex_5 : tensor<512x!tt.ptr<bf16>>, tensor<512xi32> loc(#loc21)
    %2 = arith.truncf %tmp10 : tensor<512xf32> to tensor<512xbf16> loc(#loc22)
    tt.store %1, %2 : tensor<512x!tt.ptr<bf16>> loc(#loc22)
    %3 = tt.splat %out_ptr1 : !tt.ptr<bf16> -> tensor<512x!tt.ptr<bf16>> loc(#loc23)
    %4 = tt.addptr %3, %xindex_5 : tensor<512x!tt.ptr<bf16>>, tensor<512xi32> loc(#loc23)
    %5 = arith.truncf %tmp10 : tensor<512xf32> to tensor<512xbf16> loc(#loc24)
    tt.store %4, %5 : tensor<512x!tt.ptr<bf16>> loc(#loc24)
    tt.return loc(#loc25)
  } loc(#loc)
} loc(#loc)
#loc1 = loc("/NHNHOME/WORKSPACE/26msit001_A/jinhyeok/loop_TTT/lact/.cache_inductor_llm/w6/cw6wlwhokbolpselggxswa4ekjecbqndo47e24nixnlgidzpkxto.py":19:13)
#loc2 = loc("/NHNHOME/WORKSPACE/26msit001_A/jinhyeok/loop_TTT/lact/.cache_inductor_llm/w6/cw6wlwhokbolpselggxswa4ekjecbqndo47e24nixnlgidzpkxto.py":20:28)
#loc3 = loc("/NHNHOME/WORKSPACE/26msit001_A/jinhyeok/loop_TTT/lact/.cache_inductor_llm/w6/cw6wlwhokbolpselggxswa4ekjecbqndo47e24nixnlgidzpkxto.py":20:33)
#loc4 = loc("/NHNHOME/WORKSPACE/26msit001_A/jinhyeok/loop_TTT/lact/.cache_inductor_llm/w6/cw6wlwhokbolpselggxswa4ekjecbqndo47e24nixnlgidzpkxto.py":21:36)
#loc5 = loc("/NHNHOME/WORKSPACE/26msit001_A/jinhyeok/loop_TTT/lact/.cache_inductor_llm/w6/cw6wlwhokbolpselggxswa4ekjecbqndo47e24nixnlgidzpkxto.py":21:23)
#loc6 = loc("/NHNHOME/WORKSPACE/26msit001_A/jinhyeok/loop_TTT/lact/.cache_inductor_llm/w6/cw6wlwhokbolpselggxswa4ekjecbqndo47e24nixnlgidzpkxto.py":22:36)
#loc7 = loc("/NHNHOME/WORKSPACE/26msit001_A/jinhyeok/loop_TTT/lact/.cache_inductor_llm/w6/cw6wlwhokbolpselggxswa4ekjecbqndo47e24nixnlgidzpkxto.py":24:30)
#loc8 = loc("/NHNHOME/WORKSPACE/26msit001_A/jinhyeok/loop_TTT/lact/.cache_inductor_llm/w6/cw6wlwhokbolpselggxswa4ekjecbqndo47e24nixnlgidzpkxto.py":24:35)
#loc9 = loc("/NHNHOME/WORKSPACE/26msit001_A/jinhyeok/loop_TTT/lact/.cache_inductor_llm/w6/cw6wlwhokbolpselggxswa4ekjecbqndo47e24nixnlgidzpkxto.py":25:30)
#loc10 = loc("/NHNHOME/WORKSPACE/26msit001_A/jinhyeok/loop_TTT/lact/.cache_inductor_llm/w6/cw6wlwhokbolpselggxswa4ekjecbqndo47e24nixnlgidzpkxto.py":25:35)
#loc11 = loc("/NHNHOME/WORKSPACE/26msit001_A/jinhyeok/loop_TTT/lact/.cache_inductor_llm/w6/cw6wlwhokbolpselggxswa4ekjecbqndo47e24nixnlgidzpkxto.py":25:44)
#loc12 = loc("/NHNHOME/WORKSPACE/26msit001_A/jinhyeok/loop_TTT/lact/.cache_inductor_llm/w6/cw6wlwhokbolpselggxswa4ekjecbqndo47e24nixnlgidzpkxto.py":26:30)
#loc13 = loc("/NHNHOME/WORKSPACE/26msit001_A/jinhyeok/loop_TTT/lact/.cache_inductor_llm/w6/cw6wlwhokbolpselggxswa4ekjecbqndo47e24nixnlgidzpkxto.py":26:35)
#loc14 = loc("/NHNHOME/WORKSPACE/26msit001_A/jinhyeok/loop_TTT/lact/.cache_inductor_llm/w6/cw6wlwhokbolpselggxswa4ekjecbqndo47e24nixnlgidzpkxto.py":26:44)
#loc15 = loc("/NHNHOME/WORKSPACE/26msit001_A/jinhyeok/loop_TTT/lact/.cache_inductor_llm/w6/cw6wlwhokbolpselggxswa4ekjecbqndo47e24nixnlgidzpkxto.py":27:11)
#loc16 = loc("/NHNHOME/WORKSPACE/26msit001_A/jinhyeok/loop_TTT/lact/.cache_inductor_llm/w6/cw6wlwhokbolpselggxswa4ekjecbqndo47e24nixnlgidzpkxto.py":28:18)
#loc17 = loc("/NHNHOME/WORKSPACE/26msit001_A/jinhyeok/loop_TTT/lact/.cache_inductor_llm/w6/cw6wlwhokbolpselggxswa4ekjecbqndo47e24nixnlgidzpkxto.py":30:18)
#loc18 = loc("/NHNHOME/WORKSPACE/26msit001_A/jinhyeok/loop_TTT/lact/.cache_inductor_llm/w6/cw6wlwhokbolpselggxswa4ekjecbqndo47e24nixnlgidzpkxto.py":31:11)
#loc19 = loc("/NHNHOME/WORKSPACE/26msit001_A/jinhyeok/loop_TTT/lact/.cache_inductor_llm/w6/cw6wlwhokbolpselggxswa4ekjecbqndo47e24nixnlgidzpkxto.py":32:18)
#loc20 = loc("/NHNHOME/WORKSPACE/26msit001_A/jinhyeok/loop_TTT/lact/.cache_inductor_llm/w6/cw6wlwhokbolpselggxswa4ekjecbqndo47e24nixnlgidzpkxto.py":34:19)
#loc21 = loc("/NHNHOME/WORKSPACE/26msit001_A/jinhyeok/loop_TTT/lact/.cache_inductor_llm/w6/cw6wlwhokbolpselggxswa4ekjecbqndo47e24nixnlgidzpkxto.py":36:25)
#loc22 = loc("/NHNHOME/WORKSPACE/26msit001_A/jinhyeok/loop_TTT/lact/.cache_inductor_llm/w6/cw6wlwhokbolpselggxswa4ekjecbqndo47e24nixnlgidzpkxto.py":36:37)
#loc23 = loc("/NHNHOME/WORKSPACE/26msit001_A/jinhyeok/loop_TTT/lact/.cache_inductor_llm/w6/cw6wlwhokbolpselggxswa4ekjecbqndo47e24nixnlgidzpkxto.py":37:25)
#loc24 = loc("/NHNHOME/WORKSPACE/26msit001_A/jinhyeok/loop_TTT/lact/.cache_inductor_llm/w6/cw6wlwhokbolpselggxswa4ekjecbqndo47e24nixnlgidzpkxto.py":37:37)
#loc25 = loc("/NHNHOME/WORKSPACE/26msit001_A/jinhyeok/loop_TTT/lact/.cache_inductor_llm/w6/cw6wlwhokbolpselggxswa4ekjecbqndo47e24nixnlgidzpkxto.py":37:4)
#loc32 = loc("xnumel"(#loc1))
#loc33 = loc("xoffset"(#loc2))
#loc34 = loc("xoffset"(#loc3))
#loc35 = loc("xindex"(#loc4))
#loc36 = loc("xindex"(#loc5))
#loc37 = loc("xmask"(#loc6))
#loc38 = loc("tmp0"(#loc7))
#loc39 = loc("tmp0"(#loc8))
#loc40 = loc("tmp3"(#loc9))
#loc41 = loc("tmp3"(#loc10))
#loc42 = loc("tmp3"(#loc11))
#loc43 = loc("tmp8"(#loc12))
#loc44 = loc("tmp8"(#loc13))
#loc45 = loc("tmp8"(#loc14))
#loc46 = loc("tmp1"(#loc15))
#loc47 = loc("tmp2"(#loc16))
#loc48 = loc("tmp5"(#loc17))
#loc49 = loc("tmp6"(#loc18))
#loc50 = loc("tmp7"(#loc19))
#loc51 = loc("tmp10"(#loc20))
