#loc = loc("/NHNHOME/WORKSPACE/26msit001_A/jinhyeok/loop_TTT/lact/.cache_inductor_llm/46/c46xb6peylw5qagk5tz66jh2yaam2bqhorhelaqd6brbtjk4rtch.py":18:0)
#loc73 = loc("/NHNHOME/WORKSPACE/26msit001_A/jinhyeok/TTT_camera_embedding/.venv_llm/lib/python3.12/site-packages/triton/language/standard.py":285:0)
#loc75 = loc(unknown)
#loc78 = loc("/NHNHOME/WORKSPACE/26msit001_A/jinhyeok/TTT_camera_embedding/.venv_llm/lib/python3.12/site-packages/triton/language/standard.py":260:0)
#loc82 = loc("in_ptr0"(#loc))
#loc83 = loc("in_ptr1"(#loc))
#loc84 = loc("in_ptr2"(#loc))
#loc85 = loc("out_ptr0"(#loc))
#loc86 = loc("out_ptr1"(#loc))
#loc87 = loc("xnumel"(#loc))
#loc88 = loc("r0_numel"(#loc))
#loc155 = loc("input"(#loc73))
#loc156 = loc("a"(#loc78))
#loc157 = loc("b"(#loc78))
module {
  tt.func public @triton_red_fused__to_copy_add_linalg_vector_norm_mul_zeros_like_4(%in_ptr0: !tt.ptr<bf16> {tt.divisibility = 16 : i32} loc("in_ptr0"(#loc)), %in_ptr1: !tt.ptr<f32> {tt.divisibility = 16 : i32} loc("in_ptr1"(#loc)), %in_ptr2: !tt.ptr<bf16> {tt.divisibility = 16 : i32} loc("in_ptr2"(#loc)), %out_ptr0: !tt.ptr<f32> {tt.divisibility = 16 : i32} loc("out_ptr0"(#loc)), %out_ptr1: !tt.ptr<f32> {tt.divisibility = 16 : i32} loc("out_ptr1"(#loc)), %xnumel: i32 {tt.divisibility = 16 : i32} loc("xnumel"(#loc)), %r0_numel: i32 loc("r0_numel"(#loc))) attributes {noinline = false} {
    %xnumel_0 = arith.constant 480 : i32 loc(#loc89)
    %r0_numel_1 = arith.constant 7373 : i32 loc(#loc90)
    %xoffset = tt.get_program_id x : i32 loc(#loc91)
    %xoffset_2 = arith.constant 1 : i32 loc(#loc92)
    %xoffset_3 = arith.constant 1 : i32 loc(#loc92)
    %xoffset_4 = arith.muli %xoffset, %xoffset_3 : i32 loc(#loc92)
    %xindex = tt.make_range {end = 1 : i32, start = 0 : i32} : tensor<1xi32> loc(#loc93)
    %xindex_5 = tt.expand_dims %xindex {axis = 1 : i32} : tensor<1xi32> -> tensor<1x1xi32> loc(#loc94)
    %xindex_6 = tt.splat %xoffset_4 : i32 -> tensor<1x1xi32> loc(#loc95)
    %xindex_7 = arith.addi %xindex_6, %xindex_5 : tensor<1x1xi32> loc(#loc95)
    %xmask = arith.constant dense<480> : tensor<1x1xi32> loc(#loc96)
    %xmask_8 = arith.cmpi slt, %xindex_7, %xmask : tensor<1x1xi32> loc(#loc96)
    %r0_base = tt.make_range {end = 1024 : i32, start = 0 : i32} : tensor<1024xi32> loc(#loc97)
    %r0_base_9 = tt.expand_dims %r0_base {axis = 0 : i32} : tensor<1024xi32> -> tensor<1x1024xi32> loc(#loc98)
    %x0 = arith.constant 5 : i32 loc(#loc99)
    %x0_10 = arith.constant 5 : i32 loc(#loc99)
    %x0_11 = arith.constant dense<5> : tensor<1x1xi32> loc(#loc99)
    %x0_12 = arith.remsi %xindex_7, %x0_11 : tensor<1x1xi32> loc(#loc99)
    %x1 = arith.constant 5 : i32 loc(#loc100)
    %x1_13 = arith.constant 5 : i32 loc(#loc100)
    %x1_14 = arith.constant dense<5> : tensor<1x1xi32> loc(#loc100)
    %x1_15 = arith.divsi %xindex_7, %x1_14 : tensor<1x1xi32> loc(#loc100)
    %_tmp15 = arith.constant 0.000000e+00 : f32 loc(#loc101)
    %_tmp15_16 = arith.constant dense<0.000000e+00> : tensor<1x1024xf32> loc(#loc101)
    %_tmp26 = arith.constant 0.000000e+00 : f32 loc(#loc102)
    %_tmp26_17 = arith.constant dense<0.000000e+00> : tensor<1x1024xf32> loc(#loc102)
    %c0_i32 = arith.constant 0 : i32 loc(#loc15)
    %c1024_i32 = arith.constant 1024 : i32 loc(#loc15)
    %0 = arith.bitcast %c0_i32 : i32 to i32 loc(#loc15)
    %1 = arith.bitcast %r0_numel_1 : i32 to i32 loc(#loc15)
    %2 = arith.bitcast %c1024_i32 : i32 to i32 loc(#loc15)
    %3 = ub.poison : i32 loc(#loc15)
    %_tmp26_18:2 = scf.for %r0_offset = %0 to %1 step %2 iter_args(%_tmp15_21 = %_tmp15_16, %_tmp26_22 = %_tmp26_17) -> (tensor<1x1024xf32>, tensor<1x1024xf32>)  : i32 {
      %r0_index = tt.splat %r0_offset : i32 -> tensor<1x1024xi32> loc(#loc104)
      %r0_index_23 = arith.addi %r0_index, %r0_base_9 : tensor<1x1024xi32> loc(#loc104)
      %r0_mask = arith.constant dense<7373> : tensor<1x1024xi32> loc(#loc105)
      %r0_mask_24 = arith.cmpi slt, %r0_index_23, %r0_mask : tensor<1x1024xi32> loc(#loc105)
      %tmp0 = arith.constant 7373 : i32 loc(#loc106)
      %tmp0_25 = arith.constant 7373 : i32 loc(#loc106)
      %tmp0_26 = arith.constant dense<7373> : tensor<1x1xi32> loc(#loc106)
      %tmp0_27 = arith.muli %tmp0_26, %x0_12 : tensor<1x1xi32> loc(#loc106)
      %tmp0_28 = tt.broadcast %tmp0_27 : tensor<1x1xi32> -> tensor<1x1024xi32> loc(#loc107)
      %tmp0_29 = arith.addi %r0_index_23, %tmp0_28 : tensor<1x1024xi32> loc(#loc107)
      %tmp1 = arith.constant 36864 : i32 loc(#loc108)
      %tmp1_30 = arith.constant dense<36864> : tensor<1x1xi32> loc(#loc108)
      %tmp2 = arith.constant dense<36864> : tensor<1x1024xi32> loc(#loc109)
      %tmp2_31 = arith.cmpi slt, %tmp0_29, %tmp2 : tensor<1x1024xi32> loc(#loc109)
      %tmp3 = arith.constant 36864 : i32 loc(#loc110)
      %tmp3_32 = arith.constant 36864 : i32 loc(#loc110)
      %tmp3_33 = arith.constant dense<36864> : tensor<1x1xi32> loc(#loc110)
      %tmp3_34 = arith.muli %tmp3_33, %x1_15 : tensor<1x1xi32> loc(#loc110)
      %tmp3_35 = arith.constant 7373 : i32 loc(#loc111)
      %tmp3_36 = arith.constant 7373 : i32 loc(#loc111)
      %tmp3_37 = arith.constant dense<7373> : tensor<1x1xi32> loc(#loc111)
      %tmp3_38 = arith.muli %tmp3_37, %x0_12 : tensor<1x1xi32> loc(#loc111)
      %tmp3_39 = tt.broadcast %tmp3_38 : tensor<1x1xi32> -> tensor<1x1024xi32> loc(#loc112)
      %tmp3_40 = arith.addi %r0_index_23, %tmp3_39 : tensor<1x1024xi32> loc(#loc112)
      %tmp3_41 = arith.constant 36864 : i32 loc(#loc113)
      %tmp3_42 = arith.constant 36864 : i32 loc(#loc113)
      %tmp3_43 = arith.constant dense<36864> : tensor<1x1024xi32> loc(#loc113)
      %tmp3_44 = arith.remsi %tmp3_40, %tmp3_43 : tensor<1x1024xi32> loc(#loc113)
      %tmp3_45 = tt.broadcast %tmp3_34 : tensor<1x1xi32> -> tensor<1x1024xi32> loc(#loc114)
      %tmp3_46 = arith.addi %tmp3_45, %tmp3_44 : tensor<1x1024xi32> loc(#loc114)
      %tmp3_47 = tt.splat %in_ptr0 : !tt.ptr<bf16> -> tensor<1x1024x!tt.ptr<bf16>> loc(#loc115)
      %tmp3_48 = tt.addptr %tmp3_47, %tmp3_46 : tensor<1x1024x!tt.ptr<bf16>>, tensor<1x1024xi32> loc(#loc115)
      %tmp3_49 = arith.andi %r0_mask_24, %tmp2_31 : tensor<1x1024xi1> loc(#loc116)
      %tmp3_50 = tt.broadcast %xmask_8 : tensor<1x1xi1> -> tensor<1x1024xi1> loc(#loc117)
      %tmp3_51 = arith.andi %tmp3_49, %tmp3_50 : tensor<1x1024xi1> loc(#loc117)
      %tmp3_52 = arith.constant 0.000000e+00 : f32 loc(#loc118)
      %tmp3_53 = arith.constant dense<0.000000e+00> : tensor<1x1024xf32> loc(#loc118)
      %tmp3_54 = arith.truncf %tmp3_53 : tensor<1x1024xf32> to tensor<1x1024xbf16> loc(#loc118)
      %tmp3_55 = tt.load %tmp3_48, %tmp3_51, %tmp3_54 evictionPolicy = evict_last : tensor<1x1024x!tt.ptr<bf16>> loc(#loc118)
      %tmp3_56 = arith.extf %tmp3_55 : tensor<1x1024xbf16> to tensor<1x1024xf32> loc(#loc119)
      %tmp5 = tt.broadcast %x1_15 : tensor<1x1xi32> -> tensor<1x1024xi32> loc(#loc120)
      %tmp5_57 = tt.splat %in_ptr1 : !tt.ptr<f32> -> tensor<1x1024x!tt.ptr<f32>> loc(#loc121)
      %tmp5_58 = tt.addptr %tmp5_57, %tmp5 : tensor<1x1024x!tt.ptr<f32>>, tensor<1x1024xi32> loc(#loc121)
      %tmp5_59 = arith.andi %r0_mask_24, %tmp2_31 : tensor<1x1024xi1> loc(#loc122)
      %tmp5_60 = tt.broadcast %xmask_8 : tensor<1x1xi1> -> tensor<1x1024xi1> loc(#loc123)
      %tmp5_61 = arith.andi %tmp5_59, %tmp5_60 : tensor<1x1024xi1> loc(#loc123)
      %tmp5_62 = arith.constant 0.000000e+00 : f32 loc(#loc124)
      %tmp5_63 = arith.constant dense<0.000000e+00> : tensor<1x1024xf32> loc(#loc124)
      %tmp5_64 = tt.load %tmp5_58, %tmp5_61, %tmp5_63 evictionPolicy = evict_last : tensor<1x1024x!tt.ptr<f32>> loc(#loc124)
      %tmp6 = arith.constant 0.000000e+00 : f32 loc(#loc125)
      %tmp7 = arith.constant dense<0.000000e+00> : tensor<1x1024xf32> loc(#loc126)
      %tmp7_65 = arith.mulf %tmp7, %tmp5_64 : tensor<1x1024xf32> loc(#loc126)
      %tmp8 = arith.addf %tmp3_56, %tmp7_65 : tensor<1x1024xf32> loc(#loc127)
      %tmp11 = arith.mulf %tmp8, %tmp8 : tensor<1x1024xf32> loc(#loc128)
      %tmp12 = arith.constant 0.000000e+00 : f32 loc(#loc129)
      %tmp12_66 = arith.constant dense<0.000000e+00> : tensor<1x1024xf32> loc(#loc129)
      %tmp13 = arith.select %tmp2_31, %tmp11, %tmp12_66 : tensor<1x1024xi1>, tensor<1x1024xf32> loc(#loc130)
      %tmp16 = arith.addf %_tmp15_21, %tmp13 : tensor<1x1024xf32> loc(#loc131)
      %_tmp15_67 = tt.broadcast %xmask_8 : tensor<1x1xi1> -> tensor<1x1024xi1> loc(#loc132)
      %_tmp15_68 = arith.andi %r0_mask_24, %_tmp15_67 : tensor<1x1024xi1> loc(#loc132)
      %_tmp15_69 = arith.select %_tmp15_68, %tmp16, %_tmp15_21 : tensor<1x1024xi1>, tensor<1x1024xf32> loc(#loc133)
      %tmp17 = arith.constant 36864 : i32 loc(#loc134)
      %tmp17_70 = arith.constant 36864 : i32 loc(#loc134)
      %tmp17_71 = arith.constant dense<36864> : tensor<1x1xi32> loc(#loc134)
      %tmp17_72 = arith.muli %tmp17_71, %x1_15 : tensor<1x1xi32> loc(#loc134)
      %tmp17_73 = arith.constant 7373 : i32 loc(#loc135)
      %tmp17_74 = arith.constant 7373 : i32 loc(#loc135)
      %tmp17_75 = arith.constant dense<7373> : tensor<1x1xi32> loc(#loc135)
      %tmp17_76 = arith.muli %tmp17_75, %x0_12 : tensor<1x1xi32> loc(#loc135)
      %tmp17_77 = tt.broadcast %tmp17_76 : tensor<1x1xi32> -> tensor<1x1024xi32> loc(#loc136)
      %tmp17_78 = arith.addi %r0_index_23, %tmp17_77 : tensor<1x1024xi32> loc(#loc136)
      %tmp17_79 = arith.constant 36864 : i32 loc(#loc137)
      %tmp17_80 = arith.constant 36864 : i32 loc(#loc137)
      %tmp17_81 = arith.constant dense<36864> : tensor<1x1024xi32> loc(#loc137)
      %tmp17_82 = arith.remsi %tmp17_78, %tmp17_81 : tensor<1x1024xi32> loc(#loc137)
      %tmp17_83 = tt.broadcast %tmp17_72 : tensor<1x1xi32> -> tensor<1x1024xi32> loc(#loc138)
      %tmp17_84 = arith.addi %tmp17_83, %tmp17_82 : tensor<1x1024xi32> loc(#loc138)
      %tmp17_85 = tt.splat %in_ptr2 : !tt.ptr<bf16> -> tensor<1x1024x!tt.ptr<bf16>> loc(#loc139)
      %tmp17_86 = tt.addptr %tmp17_85, %tmp17_84 : tensor<1x1024x!tt.ptr<bf16>>, tensor<1x1024xi32> loc(#loc139)
      %tmp17_87 = arith.andi %r0_mask_24, %tmp2_31 : tensor<1x1024xi1> loc(#loc140)
      %tmp17_88 = tt.broadcast %xmask_8 : tensor<1x1xi1> -> tensor<1x1024xi1> loc(#loc141)
      %tmp17_89 = arith.andi %tmp17_87, %tmp17_88 : tensor<1x1024xi1> loc(#loc141)
      %tmp17_90 = arith.constant 0.000000e+00 : f32 loc(#loc142)
      %tmp17_91 = arith.constant dense<0.000000e+00> : tensor<1x1024xf32> loc(#loc142)
      %tmp17_92 = arith.truncf %tmp17_91 : tensor<1x1024xf32> to tensor<1x1024xbf16> loc(#loc142)
      %tmp17_93 = tt.load %tmp17_86, %tmp17_89, %tmp17_92 evictionPolicy = evict_last : tensor<1x1024x!tt.ptr<bf16>> loc(#loc142)
      %tmp17_94 = arith.extf %tmp17_93 : tensor<1x1024xbf16> to tensor<1x1024xf32> loc(#loc143)
      %tmp19 = arith.addf %tmp17_94, %tmp7_65 : tensor<1x1024xf32> loc(#loc144)
      %tmp22 = arith.mulf %tmp19, %tmp19 : tensor<1x1024xf32> loc(#loc145)
      %tmp23 = arith.constant 0.000000e+00 : f32 loc(#loc146)
      %tmp23_95 = arith.constant dense<0.000000e+00> : tensor<1x1024xf32> loc(#loc146)
      %tmp24 = arith.select %tmp2_31, %tmp22, %tmp23_95 : tensor<1x1024xi1>, tensor<1x1024xf32> loc(#loc147)
      %tmp27 = arith.addf %_tmp26_22, %tmp24 : tensor<1x1024xf32> loc(#loc148)
      %_tmp26_96 = tt.broadcast %xmask_8 : tensor<1x1xi1> -> tensor<1x1024xi1> loc(#loc149)
      %_tmp26_97 = arith.andi %r0_mask_24, %_tmp26_96 : tensor<1x1024xi1> loc(#loc149)
      %_tmp26_98 = arith.select %_tmp26_97, %tmp27, %_tmp26_22 : tensor<1x1024xi1>, tensor<1x1024xf32> loc(#loc150)
      scf.yield %_tmp15_69, %_tmp26_98 : tensor<1x1024xf32>, tensor<1x1024xf32> loc(#loc63)
    } loc(#loc158)
    %tmp15 = tt.call @"triton.language.standard.sum__fp32S1_1024S__(1,)cconstexpr_1__(2,)cconstexpr_False__(3,)cNone"(%_tmp26_18#0) : (tensor<1x1024xf32>) -> tensor<1xf32> loc(#loc151)
    %tmp15_19 = tt.expand_dims %tmp15 {axis = 1 : i32} : tensor<1xf32> -> tensor<1x1xf32> loc(#loc152)
    %tmp26 = tt.call @"triton.language.standard.sum__fp32S1_1024S__(1,)cconstexpr_1__(2,)cconstexpr_False__(3,)cNone"(%_tmp26_18#1) : (tensor<1x1024xf32>) -> tensor<1xf32> loc(#loc153)
    %tmp26_20 = tt.expand_dims %tmp26 {axis = 1 : i32} : tensor<1xf32> -> tensor<1x1xf32> loc(#loc154)
    %4 = tt.splat %out_ptr0 : !tt.ptr<f32> -> tensor<1x1x!tt.ptr<f32>> loc(#loc68)
    %5 = tt.addptr %4, %xindex_7 : tensor<1x1x!tt.ptr<f32>>, tensor<1x1xi32> loc(#loc68)
    tt.store %5, %tmp15_19, %xmask_8 : tensor<1x1x!tt.ptr<f32>> loc(#loc69)
    %6 = tt.splat %out_ptr1 : !tt.ptr<f32> -> tensor<1x1x!tt.ptr<f32>> loc(#loc70)
    %7 = tt.addptr %6, %xindex_7 : tensor<1x1x!tt.ptr<f32>>, tensor<1x1xi32> loc(#loc70)
    tt.store %7, %tmp26_20, %xmask_8 : tensor<1x1x!tt.ptr<f32>> loc(#loc71)
    tt.return loc(#loc72)
  } loc(#loc)
  tt.func private @"triton.language.standard.sum__fp32S1_1024S__(1,)cconstexpr_1__(2,)cconstexpr_False__(3,)cNone"(%input: tensor<1x1024xf32> loc("input"(#loc73))) -> tensor<1xf32> attributes {noinline = false} {
    %0 = "tt.reduce"(%input) <{axis = 1 : i32}> ({
    ^bb0(%arg1: f32 loc(unknown), %arg2: f32 loc(unknown)):
      %2 = tt.call @triton.language.standard._sum_combine__fp32_fp32__(%arg1, %arg2) : (f32, f32) -> f32 loc(#loc74)
      tt.reduce.return %2 : f32 loc(#loc74)
    }) : (tensor<1x1024xf32>) -> tensor<1xf32> loc(#loc74)
    tt.return %0 : tensor<1xf32> loc(#loc76)
  ^bb1:  // no predecessors
    %1 = ub.poison : tensor<1xf32> loc(#loc77)
    tt.return %1 : tensor<1xf32> loc(#loc77)
  } loc(#loc73)
  tt.func private @triton.language.standard._sum_combine__fp32_fp32__(%a: f32 loc("a"(#loc78)), %b: f32 loc("b"(#loc78))) -> f32 attributes {noinline = false} {
    %0 = arith.addf %a, %b : f32 loc(#loc79)
    tt.return %0 : f32 loc(#loc80)
  ^bb1:  // no predecessors
    %1 = ub.poison : f32 loc(#loc81)
    tt.return %1 : f32 loc(#loc81)
  } loc(#loc78)
} loc(#loc)
#loc1 = loc("/NHNHOME/WORKSPACE/26msit001_A/jinhyeok/loop_TTT/lact/.cache_inductor_llm/46/c46xb6peylw5qagk5tz66jh2yaam2bqhorhelaqd6brbtjk4rtch.py":19:13)
#loc2 = loc("/NHNHOME/WORKSPACE/26msit001_A/jinhyeok/loop_TTT/lact/.cache_inductor_llm/46/c46xb6peylw5qagk5tz66jh2yaam2bqhorhelaqd6brbtjk4rtch.py":20:15)
#loc3 = loc("/NHNHOME/WORKSPACE/26msit001_A/jinhyeok/loop_TTT/lact/.cache_inductor_llm/46/c46xb6peylw5qagk5tz66jh2yaam2bqhorhelaqd6brbtjk4rtch.py":23:28)
#loc4 = loc("/NHNHOME/WORKSPACE/26msit001_A/jinhyeok/loop_TTT/lact/.cache_inductor_llm/46/c46xb6peylw5qagk5tz66jh2yaam2bqhorhelaqd6brbtjk4rtch.py":23:33)
#loc5 = loc("/NHNHOME/WORKSPACE/26msit001_A/jinhyeok/loop_TTT/lact/.cache_inductor_llm/46/c46xb6peylw5qagk5tz66jh2yaam2bqhorhelaqd6brbtjk4rtch.py":24:36)
#loc6 = loc("/NHNHOME/WORKSPACE/26msit001_A/jinhyeok/loop_TTT/lact/.cache_inductor_llm/46/c46xb6peylw5qagk5tz66jh2yaam2bqhorhelaqd6brbtjk4rtch.py":24:44)
#loc7 = loc("/NHNHOME/WORKSPACE/26msit001_A/jinhyeok/loop_TTT/lact/.cache_inductor_llm/46/c46xb6peylw5qagk5tz66jh2yaam2bqhorhelaqd6brbtjk4rtch.py":24:23)
#loc8 = loc("/NHNHOME/WORKSPACE/26msit001_A/jinhyeok/loop_TTT/lact/.cache_inductor_llm/46/c46xb6peylw5qagk5tz66jh2yaam2bqhorhelaqd6brbtjk4rtch.py":25:21)
#loc9 = loc("/NHNHOME/WORKSPACE/26msit001_A/jinhyeok/loop_TTT/lact/.cache_inductor_llm/46/c46xb6peylw5qagk5tz66jh2yaam2bqhorhelaqd6brbtjk4rtch.py":26:27)
#loc10 = loc("/NHNHOME/WORKSPACE/26msit001_A/jinhyeok/loop_TTT/lact/.cache_inductor_llm/46/c46xb6peylw5qagk5tz66jh2yaam2bqhorhelaqd6brbtjk4rtch.py":26:37)
#loc11 = loc("/NHNHOME/WORKSPACE/26msit001_A/jinhyeok/loop_TTT/lact/.cache_inductor_llm/46/c46xb6peylw5qagk5tz66jh2yaam2bqhorhelaqd6brbtjk4rtch.py":28:19)
#loc12 = loc("/NHNHOME/WORKSPACE/26msit001_A/jinhyeok/loop_TTT/lact/.cache_inductor_llm/46/c46xb6peylw5qagk5tz66jh2yaam2bqhorhelaqd6brbtjk4rtch.py":29:19)
#loc13 = loc("/NHNHOME/WORKSPACE/26msit001_A/jinhyeok/loop_TTT/lact/.cache_inductor_llm/46/c46xb6peylw5qagk5tz66jh2yaam2bqhorhelaqd6brbtjk4rtch.py":30:44)
#loc14 = loc("/NHNHOME/WORKSPACE/26msit001_A/jinhyeok/loop_TTT/lact/.cache_inductor_llm/46/c46xb6peylw5qagk5tz66jh2yaam2bqhorhelaqd6brbtjk4rtch.py":32:44)
#loc15 = loc("/NHNHOME/WORKSPACE/26msit001_A/jinhyeok/loop_TTT/lact/.cache_inductor_llm/46/c46xb6peylw5qagk5tz66jh2yaam2bqhorhelaqd6brbtjk4rtch.py":33:40)
#loc16 = loc("/NHNHOME/WORKSPACE/26msit001_A/jinhyeok/loop_TTT/lact/.cache_inductor_llm/46/c46xb6peylw5qagk5tz66jh2yaam2bqhorhelaqd6brbtjk4rtch.py":34:31)
#loc17 = loc("/NHNHOME/WORKSPACE/26msit001_A/jinhyeok/loop_TTT/lact/.cache_inductor_llm/46/c46xb6peylw5qagk5tz66jh2yaam2bqhorhelaqd6brbtjk4rtch.py":35:29)
#loc18 = loc("/NHNHOME/WORKSPACE/26msit001_A/jinhyeok/loop_TTT/lact/.cache_inductor_llm/46/c46xb6peylw5qagk5tz66jh2yaam2bqhorhelaqd6brbtjk4rtch.py":39:27)
#loc19 = loc("/NHNHOME/WORKSPACE/26msit001_A/jinhyeok/loop_TTT/lact/.cache_inductor_llm/46/c46xb6peylw5qagk5tz66jh2yaam2bqhorhelaqd6brbtjk4rtch.py":39:22)
#loc20 = loc("/NHNHOME/WORKSPACE/26msit001_A/jinhyeok/loop_TTT/lact/.cache_inductor_llm/46/c46xb6peylw5qagk5tz66jh2yaam2bqhorhelaqd6brbtjk4rtch.py":40:38)
#loc21 = loc("/NHNHOME/WORKSPACE/26msit001_A/jinhyeok/loop_TTT/lact/.cache_inductor_llm/46/c46xb6peylw5qagk5tz66jh2yaam2bqhorhelaqd6brbtjk4rtch.py":41:22)
#loc22 = loc("/NHNHOME/WORKSPACE/26msit001_A/jinhyeok/loop_TTT/lact/.cache_inductor_llm/46/c46xb6peylw5qagk5tz66jh2yaam2bqhorhelaqd6brbtjk4rtch.py":42:40)
#loc23 = loc("/NHNHOME/WORKSPACE/26msit001_A/jinhyeok/loop_TTT/lact/.cache_inductor_llm/46/c46xb6peylw5qagk5tz66jh2yaam2bqhorhelaqd6brbtjk4rtch.py":42:60)
#loc24 = loc("/NHNHOME/WORKSPACE/26msit001_A/jinhyeok/loop_TTT/lact/.cache_inductor_llm/46/c46xb6peylw5qagk5tz66jh2yaam2bqhorhelaqd6brbtjk4rtch.py":42:55)
#loc25 = loc("/NHNHOME/WORKSPACE/26msit001_A/jinhyeok/loop_TTT/lact/.cache_inductor_llm/46/c46xb6peylw5qagk5tz66jh2yaam2bqhorhelaqd6brbtjk4rtch.py":42:66)
#loc26 = loc("/NHNHOME/WORKSPACE/26msit001_A/jinhyeok/loop_TTT/lact/.cache_inductor_llm/46/c46xb6peylw5qagk5tz66jh2yaam2bqhorhelaqd6brbtjk4rtch.py":42:47)
#loc27 = loc("/NHNHOME/WORKSPACE/26msit001_A/jinhyeok/loop_TTT/lact/.cache_inductor_llm/46/c46xb6peylw5qagk5tz66jh2yaam2bqhorhelaqd6brbtjk4rtch.py":42:34)
#loc28 = loc("/NHNHOME/WORKSPACE/26msit001_A/jinhyeok/loop_TTT/lact/.cache_inductor_llm/46/c46xb6peylw5qagk5tz66jh2yaam2bqhorhelaqd6brbtjk4rtch.py":42:86)
#loc29 = loc("/NHNHOME/WORKSPACE/26msit001_A/jinhyeok/loop_TTT/lact/.cache_inductor_llm/46/c46xb6peylw5qagk5tz66jh2yaam2bqhorhelaqd6brbtjk4rtch.py":42:93)
#loc30 = loc("/NHNHOME/WORKSPACE/26msit001_A/jinhyeok/loop_TTT/lact/.cache_inductor_llm/46/c46xb6peylw5qagk5tz66jh2yaam2bqhorhelaqd6brbtjk4rtch.py":42:76)
#loc31 = loc("/NHNHOME/WORKSPACE/26msit001_A/jinhyeok/loop_TTT/lact/.cache_inductor_llm/46/c46xb6peylw5qagk5tz66jh2yaam2bqhorhelaqd6brbtjk4rtch.py":42:144)
#loc32 = loc("/NHNHOME/WORKSPACE/26msit001_A/jinhyeok/loop_TTT/lact/.cache_inductor_llm/46/c46xb6peylw5qagk5tz66jh2yaam2bqhorhelaqd6brbtjk4rtch.py":44:54)
#loc33 = loc("/NHNHOME/WORKSPACE/26msit001_A/jinhyeok/loop_TTT/lact/.cache_inductor_llm/46/c46xb6peylw5qagk5tz66jh2yaam2bqhorhelaqd6brbtjk4rtch.py":44:34)
#loc34 = loc("/NHNHOME/WORKSPACE/26msit001_A/jinhyeok/loop_TTT/lact/.cache_inductor_llm/46/c46xb6peylw5qagk5tz66jh2yaam2bqhorhelaqd6brbtjk4rtch.py":44:86)
#loc35 = loc("/NHNHOME/WORKSPACE/26msit001_A/jinhyeok/loop_TTT/lact/.cache_inductor_llm/46/c46xb6peylw5qagk5tz66jh2yaam2bqhorhelaqd6brbtjk4rtch.py":44:93)
#loc36 = loc("/NHNHOME/WORKSPACE/26msit001_A/jinhyeok/loop_TTT/lact/.cache_inductor_llm/46/c46xb6peylw5qagk5tz66jh2yaam2bqhorhelaqd6brbtjk4rtch.py":44:76)
#loc37 = loc("/NHNHOME/WORKSPACE/26msit001_A/jinhyeok/loop_TTT/lact/.cache_inductor_llm/46/c46xb6peylw5qagk5tz66jh2yaam2bqhorhelaqd6brbtjk4rtch.py":45:15)
#loc38 = loc("/NHNHOME/WORKSPACE/26msit001_A/jinhyeok/loop_TTT/lact/.cache_inductor_llm/46/c46xb6peylw5qagk5tz66jh2yaam2bqhorhelaqd6brbtjk4rtch.py":46:22)
#loc39 = loc("/NHNHOME/WORKSPACE/26msit001_A/jinhyeok/loop_TTT/lact/.cache_inductor_llm/46/c46xb6peylw5qagk5tz66jh2yaam2bqhorhelaqd6brbtjk4rtch.py":47:22)
#loc40 = loc("/NHNHOME/WORKSPACE/26msit001_A/jinhyeok/loop_TTT/lact/.cache_inductor_llm/46/c46xb6peylw5qagk5tz66jh2yaam2bqhorhelaqd6brbtjk4rtch.py":50:24)
#loc41 = loc("/NHNHOME/WORKSPACE/26msit001_A/jinhyeok/loop_TTT/lact/.cache_inductor_llm/46/c46xb6peylw5qagk5tz66jh2yaam2bqhorhelaqd6brbtjk4rtch.py":51:40)
#loc42 = loc("/NHNHOME/WORKSPACE/26msit001_A/jinhyeok/loop_TTT/lact/.cache_inductor_llm/46/c46xb6peylw5qagk5tz66jh2yaam2bqhorhelaqd6brbtjk4rtch.py":52:38)
#loc43 = loc("/NHNHOME/WORKSPACE/26msit001_A/jinhyeok/loop_TTT/lact/.cache_inductor_llm/46/c46xb6peylw5qagk5tz66jh2yaam2bqhorhelaqd6brbtjk4rtch.py":54:25)
#loc44 = loc("/NHNHOME/WORKSPACE/26msit001_A/jinhyeok/loop_TTT/lact/.cache_inductor_llm/46/c46xb6peylw5qagk5tz66jh2yaam2bqhorhelaqd6brbtjk4rtch.py":55:36)
#loc45 = loc("/NHNHOME/WORKSPACE/26msit001_A/jinhyeok/loop_TTT/lact/.cache_inductor_llm/46/c46xb6peylw5qagk5tz66jh2yaam2bqhorhelaqd6brbtjk4rtch.py":55:50)
#loc46 = loc("/NHNHOME/WORKSPACE/26msit001_A/jinhyeok/loop_TTT/lact/.cache_inductor_llm/46/c46xb6peylw5qagk5tz66jh2yaam2bqhorhelaqd6brbtjk4rtch.py":56:41)
#loc47 = loc("/NHNHOME/WORKSPACE/26msit001_A/jinhyeok/loop_TTT/lact/.cache_inductor_llm/46/c46xb6peylw5qagk5tz66jh2yaam2bqhorhelaqd6brbtjk4rtch.py":56:61)
#loc48 = loc("/NHNHOME/WORKSPACE/26msit001_A/jinhyeok/loop_TTT/lact/.cache_inductor_llm/46/c46xb6peylw5qagk5tz66jh2yaam2bqhorhelaqd6brbtjk4rtch.py":56:56)
#loc49 = loc("/NHNHOME/WORKSPACE/26msit001_A/jinhyeok/loop_TTT/lact/.cache_inductor_llm/46/c46xb6peylw5qagk5tz66jh2yaam2bqhorhelaqd6brbtjk4rtch.py":56:67)
#loc50 = loc("/NHNHOME/WORKSPACE/26msit001_A/jinhyeok/loop_TTT/lact/.cache_inductor_llm/46/c46xb6peylw5qagk5tz66jh2yaam2bqhorhelaqd6brbtjk4rtch.py":56:48)
#loc51 = loc("/NHNHOME/WORKSPACE/26msit001_A/jinhyeok/loop_TTT/lact/.cache_inductor_llm/46/c46xb6peylw5qagk5tz66jh2yaam2bqhorhelaqd6brbtjk4rtch.py":56:35)
#loc52 = loc("/NHNHOME/WORKSPACE/26msit001_A/jinhyeok/loop_TTT/lact/.cache_inductor_llm/46/c46xb6peylw5qagk5tz66jh2yaam2bqhorhelaqd6brbtjk4rtch.py":56:87)
#loc53 = loc("/NHNHOME/WORKSPACE/26msit001_A/jinhyeok/loop_TTT/lact/.cache_inductor_llm/46/c46xb6peylw5qagk5tz66jh2yaam2bqhorhelaqd6brbtjk4rtch.py":56:94)
#loc54 = loc("/NHNHOME/WORKSPACE/26msit001_A/jinhyeok/loop_TTT/lact/.cache_inductor_llm/46/c46xb6peylw5qagk5tz66jh2yaam2bqhorhelaqd6brbtjk4rtch.py":56:77)
#loc55 = loc("/NHNHOME/WORKSPACE/26msit001_A/jinhyeok/loop_TTT/lact/.cache_inductor_llm/46/c46xb6peylw5qagk5tz66jh2yaam2bqhorhelaqd6brbtjk4rtch.py":56:145)
#loc56 = loc("/NHNHOME/WORKSPACE/26msit001_A/jinhyeok/loop_TTT/lact/.cache_inductor_llm/46/c46xb6peylw5qagk5tz66jh2yaam2bqhorhelaqd6brbtjk4rtch.py":58:24)
#loc57 = loc("/NHNHOME/WORKSPACE/26msit001_A/jinhyeok/loop_TTT/lact/.cache_inductor_llm/46/c46xb6peylw5qagk5tz66jh2yaam2bqhorhelaqd6brbtjk4rtch.py":61:24)
#loc58 = loc("/NHNHOME/WORKSPACE/26msit001_A/jinhyeok/loop_TTT/lact/.cache_inductor_llm/46/c46xb6peylw5qagk5tz66jh2yaam2bqhorhelaqd6brbtjk4rtch.py":62:40)
#loc59 = loc("/NHNHOME/WORKSPACE/26msit001_A/jinhyeok/loop_TTT/lact/.cache_inductor_llm/46/c46xb6peylw5qagk5tz66jh2yaam2bqhorhelaqd6brbtjk4rtch.py":63:38)
#loc60 = loc("/NHNHOME/WORKSPACE/26msit001_A/jinhyeok/loop_TTT/lact/.cache_inductor_llm/46/c46xb6peylw5qagk5tz66jh2yaam2bqhorhelaqd6brbtjk4rtch.py":65:25)
#loc61 = loc("/NHNHOME/WORKSPACE/26msit001_A/jinhyeok/loop_TTT/lact/.cache_inductor_llm/46/c46xb6peylw5qagk5tz66jh2yaam2bqhorhelaqd6brbtjk4rtch.py":66:36)
#loc62 = loc("/NHNHOME/WORKSPACE/26msit001_A/jinhyeok/loop_TTT/lact/.cache_inductor_llm/46/c46xb6peylw5qagk5tz66jh2yaam2bqhorhelaqd6brbtjk4rtch.py":66:50)
#loc63 = loc("/NHNHOME/WORKSPACE/26msit001_A/jinhyeok/loop_TTT/lact/.cache_inductor_llm/46/c46xb6peylw5qagk5tz66jh2yaam2bqhorhelaqd6brbtjk4rtch.py":66:8)
#loc64 = loc("/NHNHOME/WORKSPACE/26msit001_A/jinhyeok/loop_TTT/lact/.cache_inductor_llm/46/c46xb6peylw5qagk5tz66jh2yaam2bqhorhelaqd6brbtjk4rtch.py":67:27)
#loc65 = loc("/NHNHOME/WORKSPACE/26msit001_A/jinhyeok/loop_TTT/lact/.cache_inductor_llm/46/c46xb6peylw5qagk5tz66jh2yaam2bqhorhelaqd6brbtjk4rtch.py":67:30)
#loc66 = loc("/NHNHOME/WORKSPACE/26msit001_A/jinhyeok/loop_TTT/lact/.cache_inductor_llm/46/c46xb6peylw5qagk5tz66jh2yaam2bqhorhelaqd6brbtjk4rtch.py":68:27)
#loc67 = loc("/NHNHOME/WORKSPACE/26msit001_A/jinhyeok/loop_TTT/lact/.cache_inductor_llm/46/c46xb6peylw5qagk5tz66jh2yaam2bqhorhelaqd6brbtjk4rtch.py":68:30)
#loc68 = loc("/NHNHOME/WORKSPACE/26msit001_A/jinhyeok/loop_TTT/lact/.cache_inductor_llm/46/c46xb6peylw5qagk5tz66jh2yaam2bqhorhelaqd6brbtjk4rtch.py":69:25)
#loc69 = loc("/NHNHOME/WORKSPACE/26msit001_A/jinhyeok/loop_TTT/lact/.cache_inductor_llm/46/c46xb6peylw5qagk5tz66jh2yaam2bqhorhelaqd6brbtjk4rtch.py":69:37)
#loc70 = loc("/NHNHOME/WORKSPACE/26msit001_A/jinhyeok/loop_TTT/lact/.cache_inductor_llm/46/c46xb6peylw5qagk5tz66jh2yaam2bqhorhelaqd6brbtjk4rtch.py":70:25)
#loc71 = loc("/NHNHOME/WORKSPACE/26msit001_A/jinhyeok/loop_TTT/lact/.cache_inductor_llm/46/c46xb6peylw5qagk5tz66jh2yaam2bqhorhelaqd6brbtjk4rtch.py":70:37)
#loc72 = loc("/NHNHOME/WORKSPACE/26msit001_A/jinhyeok/loop_TTT/lact/.cache_inductor_llm/46/c46xb6peylw5qagk5tz66jh2yaam2bqhorhelaqd6brbtjk4rtch.py":70:4)
#loc74 = loc("/NHNHOME/WORKSPACE/26msit001_A/jinhyeok/TTT_camera_embedding/.venv_llm/lib/python3.12/site-packages/triton/language/standard.py":291:36)
#loc76 = loc("/NHNHOME/WORKSPACE/26msit001_A/jinhyeok/TTT_camera_embedding/.venv_llm/lib/python3.12/site-packages/triton/language/standard.py":291:11)
#loc77 = loc("/NHNHOME/WORKSPACE/26msit001_A/jinhyeok/TTT_camera_embedding/.venv_llm/lib/python3.12/site-packages/triton/language/standard.py":291:4)
#loc79 = loc("/NHNHOME/WORKSPACE/26msit001_A/jinhyeok/TTT_camera_embedding/.venv_llm/lib/python3.12/site-packages/triton/language/standard.py":261:15)
#loc80 = loc("/NHNHOME/WORKSPACE/26msit001_A/jinhyeok/TTT_camera_embedding/.venv_llm/lib/python3.12/site-packages/triton/language/standard.py":261:11)
#loc81 = loc("/NHNHOME/WORKSPACE/26msit001_A/jinhyeok/TTT_camera_embedding/.venv_llm/lib/python3.12/site-packages/triton/language/standard.py":261:4)
#loc89 = loc("xnumel"(#loc1))
#loc90 = loc("r0_numel"(#loc2))
#loc91 = loc("xoffset"(#loc3))
#loc92 = loc("xoffset"(#loc4))
#loc93 = loc("xindex"(#loc5))
#loc94 = loc("xindex"(#loc6))
#loc95 = loc("xindex"(#loc7))
#loc96 = loc("xmask"(#loc8))
#loc97 = loc("r0_base"(#loc9))
#loc98 = loc("r0_base"(#loc10))
#loc99 = loc("x0"(#loc11))
#loc100 = loc("x1"(#loc12))
#loc101 = loc("_tmp15"(#loc13))
#loc102 = loc("_tmp26"(#loc14))
#loc103 = loc("_tmp15"(#loc15))
#loc104 = loc("r0_index"(#loc16))
#loc105 = loc("r0_mask"(#loc17))
#loc106 = loc("tmp0"(#loc18))
#loc107 = loc("tmp0"(#loc19))
#loc108 = loc("tmp1"(#loc20))
#loc109 = loc("tmp2"(#loc21))
#loc110 = loc("tmp3"(#loc22))
#loc111 = loc("tmp3"(#loc23))
#loc112 = loc("tmp3"(#loc24))
#loc113 = loc("tmp3"(#loc25))
#loc114 = loc("tmp3"(#loc26))
#loc115 = loc("tmp3"(#loc27))
#loc116 = loc("tmp3"(#loc28))
#loc117 = loc("tmp3"(#loc29))
#loc118 = loc("tmp3"(#loc30))
#loc119 = loc("tmp3"(#loc31))
#loc120 = loc("tmp5"(#loc32))
#loc121 = loc("tmp5"(#loc33))
#loc122 = loc("tmp5"(#loc34))
#loc123 = loc("tmp5"(#loc35))
#loc124 = loc("tmp5"(#loc36))
#loc125 = loc("tmp6"(#loc37))
#loc126 = loc("tmp7"(#loc38))
#loc127 = loc("tmp8"(#loc39))
#loc128 = loc("tmp11"(#loc40))
#loc129 = loc("tmp12"(#loc41))
#loc130 = loc("tmp13"(#loc42))
#loc131 = loc("tmp16"(#loc43))
#loc132 = loc("_tmp15"(#loc44))
#loc133 = loc("_tmp15"(#loc45))
#loc134 = loc("tmp17"(#loc46))
#loc135 = loc("tmp17"(#loc47))
#loc136 = loc("tmp17"(#loc48))
#loc137 = loc("tmp17"(#loc49))
#loc138 = loc("tmp17"(#loc50))
#loc139 = loc("tmp17"(#loc51))
#loc140 = loc("tmp17"(#loc52))
#loc141 = loc("tmp17"(#loc53))
#loc142 = loc("tmp17"(#loc54))
#loc143 = loc("tmp17"(#loc55))
#loc144 = loc("tmp19"(#loc56))
#loc145 = loc("tmp22"(#loc57))
#loc146 = loc("tmp23"(#loc58))
#loc147 = loc("tmp24"(#loc59))
#loc148 = loc("tmp27"(#loc60))
#loc149 = loc("_tmp26"(#loc61))
#loc150 = loc("_tmp26"(#loc62))
#loc151 = loc("tmp15"(#loc64))
#loc152 = loc("tmp15"(#loc65))
#loc153 = loc("tmp26"(#loc66))
#loc154 = loc("tmp26"(#loc67))
#loc158 = loc("_tmp26"(#loc103))
