#loc = loc("/NHNHOME/WORKSPACE/26msit001_A/jinhyeok/loop_TTT/lact/.cache_inductor_llm/26/c262lae3e3iie2yg2acfm3v2z5arxrnlzfrzye6apjilzdfht5kw.py":18:0)
#loc34 = loc("in_ptr0"(#loc))
#loc35 = loc("in_ptr1"(#loc))
#loc36 = loc("in_ptr2"(#loc))
#loc37 = loc("out_ptr0"(#loc))
#loc38 = loc("out_ptr1"(#loc))
#loc39 = loc("out_ptr2"(#loc))
#loc40 = loc("xnumel"(#loc))
module {
  tt.func public @triton_poi_fused__to_copy_mul_slice_transpose_0(%in_ptr0: !tt.ptr<f32> {tt.divisibility = 16 : i32} loc("in_ptr0"(#loc)), %in_ptr1: !tt.ptr<f32> {tt.divisibility = 16 : i32} loc("in_ptr1"(#loc)), %in_ptr2: !tt.ptr<f32> loc("in_ptr2"(#loc)), %out_ptr0: !tt.ptr<bf16> {tt.divisibility = 16 : i32} loc("out_ptr0"(#loc)), %out_ptr1: !tt.ptr<bf16> {tt.divisibility = 16 : i32} loc("out_ptr1"(#loc)), %out_ptr2: !tt.ptr<bf16> {tt.divisibility = 16 : i32} loc("out_ptr2"(#loc)), %xnumel: i32 {tt.divisibility = 16 : i32} loc("xnumel"(#loc))) attributes {noinline = false} {
    %xnumel_0 = arith.constant 6291456 : i32 loc(#loc41)
    %xoffset = tt.get_program_id x : i32 loc(#loc42)
    %xoffset_1 = arith.constant 1024 : i32 loc(#loc43)
    %xoffset_2 = arith.constant 1024 : i32 loc(#loc43)
    %xoffset_3 = arith.muli %xoffset, %xoffset_2 : i32 loc(#loc43)
    %xindex = tt.make_range {end = 1024 : i32, start = 0 : i32} : tensor<1024xi32> loc(#loc44)
    %xindex_4 = tt.splat %xoffset_3 : i32 -> tensor<1024xi32> loc(#loc45)
    %xindex_5 = arith.addi %xindex_4, %xindex : tensor<1024xi32> loc(#loc45)
    %xmask = arith.constant true loc(#loc46)
    %xmask_6 = arith.constant dense<true> : tensor<1024xi1> loc(#loc46)
    %x0 = arith.constant 196608 : i32 loc(#loc47)
    %x0_7 = arith.constant 196608 : i32 loc(#loc47)
    %x0_8 = arith.constant dense<196608> : tensor<1024xi32> loc(#loc47)
    %x0_9 = arith.remsi %xindex_5, %x0_8 : tensor<1024xi32> loc(#loc47)
    %x1 = arith.constant 196608 : i32 loc(#loc48)
    %x1_10 = arith.constant 196608 : i32 loc(#loc48)
    %x1_11 = arith.constant dense<196608> : tensor<1024xi32> loc(#loc48)
    %x1_12 = arith.divsi %xindex_5, %x1_11 : tensor<1024xi32> loc(#loc48)
    %x3 = arith.constant 192 : i32 loc(#loc49)
    %x3_13 = arith.constant 192 : i32 loc(#loc49)
    %x3_14 = arith.constant dense<192> : tensor<1024xi32> loc(#loc49)
    %x3_15 = arith.divsi %xindex_5, %x3_14 : tensor<1024xi32> loc(#loc49)
    %x3_16 = arith.constant 1024 : i32 loc(#loc50)
    %x3_17 = arith.constant 1024 : i32 loc(#loc50)
    %x3_18 = arith.constant dense<1024> : tensor<1024xi32> loc(#loc50)
    %x3_19 = arith.remsi %x3_15, %x3_18 : tensor<1024xi32> loc(#loc50)
    %tmp0 = arith.constant 786432 : i32 loc(#loc51)
    %tmp0_20 = arith.constant 786432 : i32 loc(#loc51)
    %tmp0_21 = arith.constant dense<786432> : tensor<1024xi32> loc(#loc51)
    %tmp0_22 = arith.muli %tmp0_21, %x1_12 : tensor<1024xi32> loc(#loc51)
    %tmp0_23 = arith.addi %x0_9, %tmp0_22 : tensor<1024xi32> loc(#loc52)
    %tmp0_24 = tt.splat %in_ptr0 : !tt.ptr<f32> -> tensor<1024x!tt.ptr<f32>> loc(#loc53)
    %tmp0_25 = tt.addptr %tmp0_24, %tmp0_23 : tensor<1024x!tt.ptr<f32>>, tensor<1024xi32> loc(#loc53)
    %tmp0_26 = tt.load %tmp0_25 : tensor<1024x!tt.ptr<f32>> loc(#loc54)
    %tmp2 = arith.constant 3 : i32 loc(#loc55)
    %tmp2_27 = arith.constant 3 : i32 loc(#loc55)
    %tmp2_28 = arith.constant dense<3> : tensor<1024xi32> loc(#loc55)
    %tmp2_29 = arith.muli %tmp2_28, %x3_19 : tensor<1024xi32> loc(#loc55)
    %tmp2_30 = arith.constant 12288 : i32 loc(#loc56)
    %tmp2_31 = arith.constant 12288 : i32 loc(#loc56)
    %tmp2_32 = arith.constant dense<12288> : tensor<1024xi32> loc(#loc56)
    %tmp2_33 = arith.muli %tmp2_32, %x1_12 : tensor<1024xi32> loc(#loc56)
    %tmp2_34 = arith.addi %tmp2_29, %tmp2_33 : tensor<1024xi32> loc(#loc57)
    %tmp2_35 = tt.splat %in_ptr1 : !tt.ptr<f32> -> tensor<1024x!tt.ptr<f32>> loc(#loc58)
    %tmp2_36 = tt.addptr %tmp2_35, %tmp2_34 : tensor<1024x!tt.ptr<f32>>, tensor<1024xi32> loc(#loc58)
    %tmp2_37 = tt.load %tmp2_36 evictionPolicy = evict_last : tensor<1024x!tt.ptr<f32>> loc(#loc59)
    %tmp5 = arith.constant 3 : i32 loc(#loc60)
    %tmp5_38 = arith.constant 3 : i32 loc(#loc60)
    %tmp5_39 = arith.constant dense<3> : tensor<1024xi32> loc(#loc60)
    %tmp5_40 = arith.muli %tmp5_39, %x3_19 : tensor<1024xi32> loc(#loc60)
    %tmp5_41 = arith.constant 12288 : i32 loc(#loc61)
    %tmp5_42 = arith.constant 12288 : i32 loc(#loc61)
    %tmp5_43 = arith.constant dense<12288> : tensor<1024xi32> loc(#loc61)
    %tmp5_44 = arith.muli %tmp5_43, %x1_12 : tensor<1024xi32> loc(#loc61)
    %tmp5_45 = arith.addi %tmp5_40, %tmp5_44 : tensor<1024xi32> loc(#loc62)
    %tmp5_46 = tt.splat %in_ptr2 : !tt.ptr<f32> -> tensor<1024x!tt.ptr<f32>> loc(#loc63)
    %tmp5_47 = tt.addptr %tmp5_46, %tmp5_45 : tensor<1024x!tt.ptr<f32>>, tensor<1024xi32> loc(#loc63)
    %tmp5_48 = tt.load %tmp5_47 evictionPolicy = evict_last : tensor<1024x!tt.ptr<f32>> loc(#loc64)
    %tmp3 = arith.mulf %tmp0_26, %tmp2_37 : tensor<1024xf32> loc(#loc65)
    %tmp6 = arith.mulf %tmp0_26, %tmp5_48 : tensor<1024xf32> loc(#loc66)
    %0 = tt.splat %out_ptr0 : !tt.ptr<bf16> -> tensor<1024x!tt.ptr<bf16>> loc(#loc27)
    %1 = tt.addptr %0, %xindex_5 : tensor<1024x!tt.ptr<bf16>>, tensor<1024xi32> loc(#loc27)
    %2 = arith.truncf %tmp0_26 : tensor<1024xf32> to tensor<1024xbf16> loc(#loc28)
    tt.store %1, %2 : tensor<1024x!tt.ptr<bf16>> loc(#loc28)
    %3 = tt.splat %out_ptr1 : !tt.ptr<bf16> -> tensor<1024x!tt.ptr<bf16>> loc(#loc29)
    %4 = tt.addptr %3, %xindex_5 : tensor<1024x!tt.ptr<bf16>>, tensor<1024xi32> loc(#loc29)
    %5 = arith.truncf %tmp3 : tensor<1024xf32> to tensor<1024xbf16> loc(#loc30)
    tt.store %4, %5 : tensor<1024x!tt.ptr<bf16>> loc(#loc30)
    %6 = tt.splat %out_ptr2 : !tt.ptr<bf16> -> tensor<1024x!tt.ptr<bf16>> loc(#loc31)
    %7 = tt.addptr %6, %xindex_5 : tensor<1024x!tt.ptr<bf16>>, tensor<1024xi32> loc(#loc31)
    %8 = arith.truncf %tmp6 : tensor<1024xf32> to tensor<1024xbf16> loc(#loc32)
    tt.store %7, %8 : tensor<1024x!tt.ptr<bf16>> loc(#loc32)
    tt.return loc(#loc33)
  } loc(#loc)
} loc(#loc)
#loc1 = loc("/NHNHOME/WORKSPACE/26msit001_A/jinhyeok/loop_TTT/lact/.cache_inductor_llm/26/c262lae3e3iie2yg2acfm3v2z5arxrnlzfrzye6apjilzdfht5kw.py":19:13)
#loc2 = loc("/NHNHOME/WORKSPACE/26msit001_A/jinhyeok/loop_TTT/lact/.cache_inductor_llm/26/c262lae3e3iie2yg2acfm3v2z5arxrnlzfrzye6apjilzdfht5kw.py":20:28)
#loc3 = loc("/NHNHOME/WORKSPACE/26msit001_A/jinhyeok/loop_TTT/lact/.cache_inductor_llm/26/c262lae3e3iie2yg2acfm3v2z5arxrnlzfrzye6apjilzdfht5kw.py":20:33)
#loc4 = loc("/NHNHOME/WORKSPACE/26msit001_A/jinhyeok/loop_TTT/lact/.cache_inductor_llm/26/c262lae3e3iie2yg2acfm3v2z5arxrnlzfrzye6apjilzdfht5kw.py":21:36)
#loc5 = loc("/NHNHOME/WORKSPACE/26msit001_A/jinhyeok/loop_TTT/lact/.cache_inductor_llm/26/c262lae3e3iie2yg2acfm3v2z5arxrnlzfrzye6apjilzdfht5kw.py":21:23)
#loc6 = loc("/NHNHOME/WORKSPACE/26msit001_A/jinhyeok/loop_TTT/lact/.cache_inductor_llm/26/c262lae3e3iie2yg2acfm3v2z5arxrnlzfrzye6apjilzdfht5kw.py":22:36)
#loc7 = loc("/NHNHOME/WORKSPACE/26msit001_A/jinhyeok/loop_TTT/lact/.cache_inductor_llm/26/c262lae3e3iie2yg2acfm3v2z5arxrnlzfrzye6apjilzdfht5kw.py":23:19)
#loc8 = loc("/NHNHOME/WORKSPACE/26msit001_A/jinhyeok/loop_TTT/lact/.cache_inductor_llm/26/c262lae3e3iie2yg2acfm3v2z5arxrnlzfrzye6apjilzdfht5kw.py":24:19)
#loc9 = loc("/NHNHOME/WORKSPACE/26msit001_A/jinhyeok/loop_TTT/lact/.cache_inductor_llm/26/c262lae3e3iie2yg2acfm3v2z5arxrnlzfrzye6apjilzdfht5kw.py":26:21)
#loc10 = loc("/NHNHOME/WORKSPACE/26msit001_A/jinhyeok/loop_TTT/lact/.cache_inductor_llm/26/c262lae3e3iie2yg2acfm3v2z5arxrnlzfrzye6apjilzdfht5kw.py":26:28)
#loc11 = loc("/NHNHOME/WORKSPACE/26msit001_A/jinhyeok/loop_TTT/lact/.cache_inductor_llm/26/c262lae3e3iie2yg2acfm3v2z5arxrnlzfrzye6apjilzdfht5kw.py":27:42)
#loc12 = loc("/NHNHOME/WORKSPACE/26msit001_A/jinhyeok/loop_TTT/lact/.cache_inductor_llm/26/c262lae3e3iie2yg2acfm3v2z5arxrnlzfrzye6apjilzdfht5kw.py":27:35)
#loc13 = loc("/NHNHOME/WORKSPACE/26msit001_A/jinhyeok/loop_TTT/lact/.cache_inductor_llm/26/c262lae3e3iie2yg2acfm3v2z5arxrnlzfrzye6apjilzdfht5kw.py":27:30)
#loc14 = loc("/NHNHOME/WORKSPACE/26msit001_A/jinhyeok/loop_TTT/lact/.cache_inductor_llm/26/c262lae3e3iie2yg2acfm3v2z5arxrnlzfrzye6apjilzdfht5kw.py":27:47)
#loc15 = loc("/NHNHOME/WORKSPACE/26msit001_A/jinhyeok/loop_TTT/lact/.cache_inductor_llm/26/c262lae3e3iie2yg2acfm3v2z5arxrnlzfrzye6apjilzdfht5kw.py":28:32)
#loc16 = loc("/NHNHOME/WORKSPACE/26msit001_A/jinhyeok/loop_TTT/lact/.cache_inductor_llm/26/c262lae3e3iie2yg2acfm3v2z5arxrnlzfrzye6apjilzdfht5kw.py":28:43)
#loc17 = loc("/NHNHOME/WORKSPACE/26msit001_A/jinhyeok/loop_TTT/lact/.cache_inductor_llm/26/c262lae3e3iie2yg2acfm3v2z5arxrnlzfrzye6apjilzdfht5kw.py":28:37)
#loc18 = loc("/NHNHOME/WORKSPACE/26msit001_A/jinhyeok/loop_TTT/lact/.cache_inductor_llm/26/c262lae3e3iie2yg2acfm3v2z5arxrnlzfrzye6apjilzdfht5kw.py":28:30)
#loc19 = loc("/NHNHOME/WORKSPACE/26msit001_A/jinhyeok/loop_TTT/lact/.cache_inductor_llm/26/c262lae3e3iie2yg2acfm3v2z5arxrnlzfrzye6apjilzdfht5kw.py":28:48)
#loc20 = loc("/NHNHOME/WORKSPACE/26msit001_A/jinhyeok/loop_TTT/lact/.cache_inductor_llm/26/c262lae3e3iie2yg2acfm3v2z5arxrnlzfrzye6apjilzdfht5kw.py":29:32)
#loc21 = loc("/NHNHOME/WORKSPACE/26msit001_A/jinhyeok/loop_TTT/lact/.cache_inductor_llm/26/c262lae3e3iie2yg2acfm3v2z5arxrnlzfrzye6apjilzdfht5kw.py":29:43)
#loc22 = loc("/NHNHOME/WORKSPACE/26msit001_A/jinhyeok/loop_TTT/lact/.cache_inductor_llm/26/c262lae3e3iie2yg2acfm3v2z5arxrnlzfrzye6apjilzdfht5kw.py":29:37)
#loc23 = loc("/NHNHOME/WORKSPACE/26msit001_A/jinhyeok/loop_TTT/lact/.cache_inductor_llm/26/c262lae3e3iie2yg2acfm3v2z5arxrnlzfrzye6apjilzdfht5kw.py":29:30)
#loc24 = loc("/NHNHOME/WORKSPACE/26msit001_A/jinhyeok/loop_TTT/lact/.cache_inductor_llm/26/c262lae3e3iie2yg2acfm3v2z5arxrnlzfrzye6apjilzdfht5kw.py":29:48)
#loc25 = loc("/NHNHOME/WORKSPACE/26msit001_A/jinhyeok/loop_TTT/lact/.cache_inductor_llm/26/c262lae3e3iie2yg2acfm3v2z5arxrnlzfrzye6apjilzdfht5kw.py":31:18)
#loc26 = loc("/NHNHOME/WORKSPACE/26msit001_A/jinhyeok/loop_TTT/lact/.cache_inductor_llm/26/c262lae3e3iie2yg2acfm3v2z5arxrnlzfrzye6apjilzdfht5kw.py":33:18)
#loc27 = loc("/NHNHOME/WORKSPACE/26msit001_A/jinhyeok/loop_TTT/lact/.cache_inductor_llm/26/c262lae3e3iie2yg2acfm3v2z5arxrnlzfrzye6apjilzdfht5kw.py":35:25)
#loc28 = loc("/NHNHOME/WORKSPACE/26msit001_A/jinhyeok/loop_TTT/lact/.cache_inductor_llm/26/c262lae3e3iie2yg2acfm3v2z5arxrnlzfrzye6apjilzdfht5kw.py":35:36)
#loc29 = loc("/NHNHOME/WORKSPACE/26msit001_A/jinhyeok/loop_TTT/lact/.cache_inductor_llm/26/c262lae3e3iie2yg2acfm3v2z5arxrnlzfrzye6apjilzdfht5kw.py":36:25)
#loc30 = loc("/NHNHOME/WORKSPACE/26msit001_A/jinhyeok/loop_TTT/lact/.cache_inductor_llm/26/c262lae3e3iie2yg2acfm3v2z5arxrnlzfrzye6apjilzdfht5kw.py":36:36)
#loc31 = loc("/NHNHOME/WORKSPACE/26msit001_A/jinhyeok/loop_TTT/lact/.cache_inductor_llm/26/c262lae3e3iie2yg2acfm3v2z5arxrnlzfrzye6apjilzdfht5kw.py":37:25)
#loc32 = loc("/NHNHOME/WORKSPACE/26msit001_A/jinhyeok/loop_TTT/lact/.cache_inductor_llm/26/c262lae3e3iie2yg2acfm3v2z5arxrnlzfrzye6apjilzdfht5kw.py":37:36)
#loc33 = loc("/NHNHOME/WORKSPACE/26msit001_A/jinhyeok/loop_TTT/lact/.cache_inductor_llm/26/c262lae3e3iie2yg2acfm3v2z5arxrnlzfrzye6apjilzdfht5kw.py":37:4)
#loc41 = loc("xnumel"(#loc1))
#loc42 = loc("xoffset"(#loc2))
#loc43 = loc("xoffset"(#loc3))
#loc44 = loc("xindex"(#loc4))
#loc45 = loc("xindex"(#loc5))
#loc46 = loc("xmask"(#loc6))
#loc47 = loc("x0"(#loc7))
#loc48 = loc("x1"(#loc8))
#loc49 = loc("x3"(#loc9))
#loc50 = loc("x3"(#loc10))
#loc51 = loc("tmp0"(#loc11))
#loc52 = loc("tmp0"(#loc12))
#loc53 = loc("tmp0"(#loc13))
#loc54 = loc("tmp0"(#loc14))
#loc55 = loc("tmp2"(#loc15))
#loc56 = loc("tmp2"(#loc16))
#loc57 = loc("tmp2"(#loc17))
#loc58 = loc("tmp2"(#loc18))
#loc59 = loc("tmp2"(#loc19))
#loc60 = loc("tmp5"(#loc20))
#loc61 = loc("tmp5"(#loc21))
#loc62 = loc("tmp5"(#loc22))
#loc63 = loc("tmp5"(#loc23))
#loc64 = loc("tmp5"(#loc24))
#loc65 = loc("tmp3"(#loc25))
#loc66 = loc("tmp6"(#loc26))
