#loc = loc("/NHNHOME/WORKSPACE/26msit001_A/jinhyeok/loop_TTT/lact/.cache_inductor_llm/gh/cgh3g3prvufv6aunpsyoszn6ehy3ioz5x6uy6q7y35hum3rf6niw.py":18:0)
#loc49 = loc("in_ptr0"(#loc))
#loc50 = loc("in_ptr1"(#loc))
#loc51 = loc("in_ptr2"(#loc))
#loc52 = loc("out_ptr0"(#loc))
#loc53 = loc("out_ptr1"(#loc))
#loc54 = loc("out_ptr2"(#loc))
#loc55 = loc("ynumel"(#loc))
#loc56 = loc("xnumel"(#loc))
module {
  tt.func public @triton_poi_fused__to_copy_add_div_linalg_vector_norm_mean_mul_slice_transpose_zeros_like_7(%in_ptr0: !tt.ptr<bf16> {tt.divisibility = 16 : i32} loc("in_ptr0"(#loc)), %in_ptr1: !tt.ptr<f32> {tt.divisibility = 16 : i32} loc("in_ptr1"(#loc)), %in_ptr2: !tt.ptr<f32> {tt.divisibility = 16 : i32} loc("in_ptr2"(#loc)), %out_ptr0: !tt.ptr<bf16> {tt.divisibility = 16 : i32} loc("out_ptr0"(#loc)), %out_ptr1: !tt.ptr<bf16> {tt.divisibility = 16 : i32} loc("out_ptr1"(#loc)), %out_ptr2: !tt.ptr<bf16> {tt.divisibility = 16 : i32} loc("out_ptr2"(#loc)), %ynumel: i32 {tt.divisibility = 16 : i32} loc("ynumel"(#loc)), %xnumel: i32 {tt.divisibility = 16 : i32} loc("xnumel"(#loc))) attributes {noinline = false} {
    %c192_i32 = arith.constant 192 : i32 loc(#loc1)
    %tmp13 = arith.constant dense<1.000000e-07> : tensor<1024x1xf32> loc(#loc57)
    %tmp6 = arith.constant dense<0.000000e+00> : tensor<1024x1xf32> loc(#loc58)
    %tmp4 = arith.constant dense<1.024000e+03> : tensor<1024x1xf32> loc(#loc59)
    %tmp16 = arith.constant dense<36864> : tensor<1024x1xi32> loc(#loc60)
    %cst = arith.constant dense<192> : tensor<1024x1xi32> loc(#loc1)
    %c1024_i32 = arith.constant 1024 : i32 loc(#loc1)
    %yoffset = tt.get_program_id y : i32 loc(#loc61)
    %yoffset_0 = tt.get_program_id z : i32 loc(#loc62)
    %yoffset_1 = tt.get_num_programs y : i32 loc(#loc63)
    %yoffset_2 = arith.muli %yoffset_0, %yoffset_1 : i32 loc(#loc64)
    %yoffset_3 = arith.addi %yoffset, %yoffset_2 : i32 loc(#loc65)
    %yoffset_4 = arith.muli %yoffset_3, %c1024_i32 : i32 loc(#loc66)
    %yindex = tt.make_range {end = 1024 : i32, start = 0 : i32} : tensor<1024xi32> loc(#loc67)
    %yindex_5 = tt.expand_dims %yindex {axis = 1 : i32} : tensor<1024xi32> -> tensor<1024x1xi32> loc(#loc68)
    %yindex_6 = tt.splat %yoffset_4 : i32 -> tensor<1024x1xi32> loc(#loc69)
    %yindex_7 = arith.addi %yindex_6, %yindex_5 : tensor<1024x1xi32> loc(#loc69)
    %ymask = tt.splat %ynumel : i32 -> tensor<1024x1xi32> loc(#loc70)
    %ymask_8 = arith.cmpi slt, %yindex_7, %ymask : tensor<1024x1xi32> loc(#loc70)
    %xoffset = tt.get_program_id x : i32 loc(#loc71)
    %xmask = arith.cmpi slt, %xoffset, %c192_i32 : i32 loc(#loc72)
    %y1 = arith.divsi %yindex_7, %cst : tensor<1024x1xi32> loc(#loc73)
    %y0 = arith.remsi %yindex_7, %cst : tensor<1024x1xi32> loc(#loc74)
    %tmp0 = arith.muli %yindex_7, %cst : tensor<1024x1xi32> loc(#loc75)
    %tmp0_9 = tt.splat %xoffset : i32 -> tensor<1024x1xi32> loc(#loc97)
    %tmp0_10 = arith.addi %tmp0_9, %tmp0 : tensor<1024x1xi32> loc(#loc76)
    %tmp0_11 = tt.splat %in_ptr0 : !tt.ptr<bf16> -> tensor<1024x1x!tt.ptr<bf16>> loc(#loc78)
    %tmp0_12 = tt.addptr %tmp0_11, %tmp0_10 : tensor<1024x1x!tt.ptr<bf16>>, tensor<1024x1xi32> loc(#loc78)
    %tmp0_13 = tt.splat %xmask : i1 -> tensor<1024x1xi1> loc(#loc98)
    %tmp0_14 = arith.andi %tmp0_13, %ymask_8 : tensor<1024x1xi1> loc(#loc79)
    %tmp0_15 = tt.load %tmp0_12, %tmp0_14 evictionPolicy = evict_last : tensor<1024x1x!tt.ptr<bf16>> loc(#loc80)
    %tmp0_16 = arith.extf %tmp0_15 : tensor<1024x1xbf16> to tensor<1024x1xf32> loc(#loc81)
    %tmp2 = tt.splat %in_ptr1 : !tt.ptr<f32> -> tensor<1024x1x!tt.ptr<f32>> loc(#loc82)
    %tmp2_17 = tt.addptr %tmp2, %y1 : tensor<1024x1x!tt.ptr<f32>>, tensor<1024x1xi32> loc(#loc82)
    %tmp2_18 = tt.load %tmp2_17, %ymask_8 evictionPolicy = evict_last : tensor<1024x1x!tt.ptr<f32>> loc(#loc83)
    %tmp10 = tt.splat %in_ptr2 : !tt.ptr<f32> -> tensor<1024x1x!tt.ptr<f32>> loc(#loc84)
    %tmp10_19 = tt.addptr %tmp10, %y1 : tensor<1024x1x!tt.ptr<f32>>, tensor<1024x1xi32> loc(#loc84)
    %tmp10_20 = tt.load %tmp10_19, %ymask_8 evictionPolicy = evict_last : tensor<1024x1x!tt.ptr<f32>> loc(#loc85)
    %tmp16_21 = arith.muli %xoffset, %c192_i32 : i32 loc(#loc86)
    %tmp16_22 = tt.splat %tmp16_21 : i32 -> tensor<1024x1xi32> loc(#loc99)
    %tmp16_23 = arith.addi %y0, %tmp16_22 : tensor<1024x1xi32> loc(#loc87)
    %tmp16_24 = arith.muli %y1, %tmp16 : tensor<1024x1xi32> loc(#loc60)
    %tmp16_25 = arith.addi %tmp16_23, %tmp16_24 : tensor<1024x1xi32> loc(#loc88)
    %tmp16_26 = tt.addptr %tmp0_11, %tmp16_25 : tensor<1024x1x!tt.ptr<bf16>>, tensor<1024x1xi32> loc(#loc89)
    %tmp16_27 = tt.load %tmp16_26, %tmp0_14 evictionPolicy = evict_last : tensor<1024x1x!tt.ptr<bf16>> loc(#loc90)
    %tmp16_28 = arith.extf %tmp16_27 : tensor<1024x1xbf16> to tensor<1024x1xf32> loc(#loc91)
    %tmp4_29 = arith.divf %tmp2_18, %tmp4 : tensor<1024x1xf32> loc(#loc59)
    %tmp6_30 = arith.mulf %tmp4_29, %tmp6 : tensor<1024x1xf32> loc(#loc58)
    %tmp7 = arith.addf %tmp0_16, %tmp6_30 : tensor<1024x1xf32> loc(#loc92)
    %tmp11 = tt.extern_elementwise %tmp10_20 {libname = "", libpath = "", pure = true, symbol = "__nv_sqrtf"} : (tensor<1024x1xf32>) -> tensor<1024x1xf32> loc(#loc93)
    %tmp13_31 = arith.addf %tmp11, %tmp13 : tensor<1024x1xf32> loc(#loc57)
    %tmp14 = arith.divf %tmp7, %tmp13_31 : tensor<1024x1xf32> loc(#loc94)
    %tmp18 = arith.addf %tmp16_28, %tmp6_30 : tensor<1024x1xf32> loc(#loc95)
    %tmp21 = arith.divf %tmp18, %tmp13_31 : tensor<1024x1xf32> loc(#loc96)
    %0 = tt.splat %out_ptr0 : !tt.ptr<bf16> -> tensor<1024x1x!tt.ptr<bf16>> loc(#loc42)
    %1 = tt.addptr %0, %tmp0_10 : tensor<1024x1x!tt.ptr<bf16>>, tensor<1024x1xi32> loc(#loc42)
    %2 = arith.truncf %tmp14 : tensor<1024x1xf32> to tensor<1024x1xbf16> loc(#loc43)
    tt.store %1, %2, %tmp0_14 : tensor<1024x1x!tt.ptr<bf16>> loc(#loc43)
    %3 = tt.splat %out_ptr1 : !tt.ptr<bf16> -> tensor<1024x1x!tt.ptr<bf16>> loc(#loc44)
    %4 = tt.addptr %3, %tmp0_10 : tensor<1024x1x!tt.ptr<bf16>>, tensor<1024x1xi32> loc(#loc44)
    tt.store %4, %2, %tmp0_14 : tensor<1024x1x!tt.ptr<bf16>> loc(#loc45)
    %5 = tt.splat %out_ptr2 : !tt.ptr<bf16> -> tensor<1024x1x!tt.ptr<bf16>> loc(#loc46)
    %6 = tt.addptr %5, %tmp0_10 : tensor<1024x1x!tt.ptr<bf16>>, tensor<1024x1xi32> loc(#loc46)
    %7 = arith.truncf %tmp21 : tensor<1024x1xf32> to tensor<1024x1xbf16> loc(#loc47)
    tt.store %6, %7, %tmp0_14 : tensor<1024x1x!tt.ptr<bf16>> loc(#loc47)
    tt.return loc(#loc48)
  } loc(#loc)
} loc(#loc)
#loc1 = loc(unknown)
#loc2 = loc("/NHNHOME/WORKSPACE/26msit001_A/jinhyeok/loop_TTT/lact/.cache_inductor_llm/gh/cgh3g3prvufv6aunpsyoszn6ehy3ioz5x6uy6q7y35hum3rf6niw.py":44:20)
#loc3 = loc("/NHNHOME/WORKSPACE/26msit001_A/jinhyeok/loop_TTT/lact/.cache_inductor_llm/gh/cgh3g3prvufv6aunpsyoszn6ehy3ioz5x6uy6q7y35hum3rf6niw.py":38:18)
#loc4 = loc("/NHNHOME/WORKSPACE/26msit001_A/jinhyeok/loop_TTT/lact/.cache_inductor_llm/gh/cgh3g3prvufv6aunpsyoszn6ehy3ioz5x6uy6q7y35hum3rf6niw.py":36:19)
#loc5 = loc("/NHNHOME/WORKSPACE/26msit001_A/jinhyeok/loop_TTT/lact/.cache_inductor_llm/gh/cgh3g3prvufv6aunpsyoszn6ehy3ioz5x6uy6q7y35hum3rf6niw.py":33:51)
#loc6 = loc("/NHNHOME/WORKSPACE/26msit001_A/jinhyeok/loop_TTT/lact/.cache_inductor_llm/gh/cgh3g3prvufv6aunpsyoszn6ehy3ioz5x6uy6q7y35hum3rf6niw.py":20:29)
#loc7 = loc("/NHNHOME/WORKSPACE/26msit001_A/jinhyeok/loop_TTT/lact/.cache_inductor_llm/gh/cgh3g3prvufv6aunpsyoszn6ehy3ioz5x6uy6q7y35hum3rf6niw.py":20:48)
#loc8 = loc("/NHNHOME/WORKSPACE/26msit001_A/jinhyeok/loop_TTT/lact/.cache_inductor_llm/gh/cgh3g3prvufv6aunpsyoszn6ehy3ioz5x6uy6q7y35hum3rf6niw.py":20:69)
#loc9 = loc("/NHNHOME/WORKSPACE/26msit001_A/jinhyeok/loop_TTT/lact/.cache_inductor_llm/gh/cgh3g3prvufv6aunpsyoszn6ehy3ioz5x6uy6q7y35hum3rf6niw.py":20:53)
#loc10 = loc("/NHNHOME/WORKSPACE/26msit001_A/jinhyeok/loop_TTT/lact/.cache_inductor_llm/gh/cgh3g3prvufv6aunpsyoszn6ehy3ioz5x6uy6q7y35hum3rf6niw.py":20:34)
#loc11 = loc("/NHNHOME/WORKSPACE/26msit001_A/jinhyeok/loop_TTT/lact/.cache_inductor_llm/gh/cgh3g3prvufv6aunpsyoszn6ehy3ioz5x6uy6q7y35hum3rf6niw.py":20:75)
#loc12 = loc("/NHNHOME/WORKSPACE/26msit001_A/jinhyeok/loop_TTT/lact/.cache_inductor_llm/gh/cgh3g3prvufv6aunpsyoszn6ehy3ioz5x6uy6q7y35hum3rf6niw.py":21:36)
#loc13 = loc("/NHNHOME/WORKSPACE/26msit001_A/jinhyeok/loop_TTT/lact/.cache_inductor_llm/gh/cgh3g3prvufv6aunpsyoszn6ehy3ioz5x6uy6q7y35hum3rf6niw.py":21:44)
#loc14 = loc("/NHNHOME/WORKSPACE/26msit001_A/jinhyeok/loop_TTT/lact/.cache_inductor_llm/gh/cgh3g3prvufv6aunpsyoszn6ehy3ioz5x6uy6q7y35hum3rf6niw.py":21:23)
#loc15 = loc("/NHNHOME/WORKSPACE/26msit001_A/jinhyeok/loop_TTT/lact/.cache_inductor_llm/gh/cgh3g3prvufv6aunpsyoszn6ehy3ioz5x6uy6q7y35hum3rf6niw.py":22:21)
#loc16 = loc("/NHNHOME/WORKSPACE/26msit001_A/jinhyeok/loop_TTT/lact/.cache_inductor_llm/gh/cgh3g3prvufv6aunpsyoszn6ehy3ioz5x6uy6q7y35hum3rf6niw.py":23:28)
#loc17 = loc("/NHNHOME/WORKSPACE/26msit001_A/jinhyeok/loop_TTT/lact/.cache_inductor_llm/gh/cgh3g3prvufv6aunpsyoszn6ehy3ioz5x6uy6q7y35hum3rf6niw.py":25:21)
#loc18 = loc("/NHNHOME/WORKSPACE/26msit001_A/jinhyeok/loop_TTT/lact/.cache_inductor_llm/gh/cgh3g3prvufv6aunpsyoszn6ehy3ioz5x6uy6q7y35hum3rf6niw.py":28:19)
#loc19 = loc("/NHNHOME/WORKSPACE/26msit001_A/jinhyeok/loop_TTT/lact/.cache_inductor_llm/gh/cgh3g3prvufv6aunpsyoszn6ehy3ioz5x6uy6q7y35hum3rf6niw.py":29:19)
#loc20 = loc("/NHNHOME/WORKSPACE/26msit001_A/jinhyeok/loop_TTT/lact/.cache_inductor_llm/gh/cgh3g3prvufv6aunpsyoszn6ehy3ioz5x6uy6q7y35hum3rf6niw.py":30:39)
#loc21 = loc("/NHNHOME/WORKSPACE/26msit001_A/jinhyeok/loop_TTT/lact/.cache_inductor_llm/gh/cgh3g3prvufv6aunpsyoszn6ehy3ioz5x6uy6q7y35hum3rf6niw.py":30:35)
#loc22 = loc("/NHNHOME/WORKSPACE/26msit001_A/jinhyeok/loop_TTT/lact/.cache_inductor_llm/gh/cgh3g3prvufv6aunpsyoszn6ehy3ioz5x6uy6q7y35hum3rf6niw.py":24:23)
#loc23 = loc("/NHNHOME/WORKSPACE/26msit001_A/jinhyeok/loop_TTT/lact/.cache_inductor_llm/gh/cgh3g3prvufv6aunpsyoszn6ehy3ioz5x6uy6q7y35hum3rf6niw.py":30:30)
#loc24 = loc("/NHNHOME/WORKSPACE/26msit001_A/jinhyeok/loop_TTT/lact/.cache_inductor_llm/gh/cgh3g3prvufv6aunpsyoszn6ehy3ioz5x6uy6q7y35hum3rf6niw.py":30:52)
#loc25 = loc("/NHNHOME/WORKSPACE/26msit001_A/jinhyeok/loop_TTT/lact/.cache_inductor_llm/gh/cgh3g3prvufv6aunpsyoszn6ehy3ioz5x6uy6q7y35hum3rf6niw.py":30:44)
#loc26 = loc("/NHNHOME/WORKSPACE/26msit001_A/jinhyeok/loop_TTT/lact/.cache_inductor_llm/gh/cgh3g3prvufv6aunpsyoszn6ehy3ioz5x6uy6q7y35hum3rf6niw.py":30:92)
#loc27 = loc("/NHNHOME/WORKSPACE/26msit001_A/jinhyeok/loop_TTT/lact/.cache_inductor_llm/gh/cgh3g3prvufv6aunpsyoszn6ehy3ioz5x6uy6q7y35hum3rf6niw.py":31:30)
#loc28 = loc("/NHNHOME/WORKSPACE/26msit001_A/jinhyeok/loop_TTT/lact/.cache_inductor_llm/gh/cgh3g3prvufv6aunpsyoszn6ehy3ioz5x6uy6q7y35hum3rf6niw.py":31:35)
#loc29 = loc("/NHNHOME/WORKSPACE/26msit001_A/jinhyeok/loop_TTT/lact/.cache_inductor_llm/gh/cgh3g3prvufv6aunpsyoszn6ehy3ioz5x6uy6q7y35hum3rf6niw.py":32:31)
#loc30 = loc("/NHNHOME/WORKSPACE/26msit001_A/jinhyeok/loop_TTT/lact/.cache_inductor_llm/gh/cgh3g3prvufv6aunpsyoszn6ehy3ioz5x6uy6q7y35hum3rf6niw.py":32:36)
#loc31 = loc("/NHNHOME/WORKSPACE/26msit001_A/jinhyeok/loop_TTT/lact/.cache_inductor_llm/gh/cgh3g3prvufv6aunpsyoszn6ehy3ioz5x6uy6q7y35hum3rf6niw.py":33:40)
#loc32 = loc("/NHNHOME/WORKSPACE/26msit001_A/jinhyeok/loop_TTT/lact/.cache_inductor_llm/gh/cgh3g3prvufv6aunpsyoszn6ehy3ioz5x6uy6q7y35hum3rf6niw.py":33:36)
#loc33 = loc("/NHNHOME/WORKSPACE/26msit001_A/jinhyeok/loop_TTT/lact/.cache_inductor_llm/gh/cgh3g3prvufv6aunpsyoszn6ehy3ioz5x6uy6q7y35hum3rf6niw.py":33:45)
#loc34 = loc("/NHNHOME/WORKSPACE/26msit001_A/jinhyeok/loop_TTT/lact/.cache_inductor_llm/gh/cgh3g3prvufv6aunpsyoszn6ehy3ioz5x6uy6q7y35hum3rf6niw.py":33:31)
#loc35 = loc("/NHNHOME/WORKSPACE/26msit001_A/jinhyeok/loop_TTT/lact/.cache_inductor_llm/gh/cgh3g3prvufv6aunpsyoszn6ehy3ioz5x6uy6q7y35hum3rf6niw.py":33:56)
#loc36 = loc("/NHNHOME/WORKSPACE/26msit001_A/jinhyeok/loop_TTT/lact/.cache_inductor_llm/gh/cgh3g3prvufv6aunpsyoszn6ehy3ioz5x6uy6q7y35hum3rf6niw.py":33:104)
#loc37 = loc("/NHNHOME/WORKSPACE/26msit001_A/jinhyeok/loop_TTT/lact/.cache_inductor_llm/gh/cgh3g3prvufv6aunpsyoszn6ehy3ioz5x6uy6q7y35hum3rf6niw.py":39:18)
#loc38 = loc("/NHNHOME/WORKSPACE/26msit001_A/jinhyeok/loop_TTT/lact/.cache_inductor_llm/gh/cgh3g3prvufv6aunpsyoszn6ehy3ioz5x6uy6q7y35hum3rf6niw.py":42:27)
#loc39 = loc("/NHNHOME/WORKSPACE/26msit001_A/jinhyeok/loop_TTT/lact/.cache_inductor_llm/gh/cgh3g3prvufv6aunpsyoszn6ehy3ioz5x6uy6q7y35hum3rf6niw.py":45:20)
#loc40 = loc("/NHNHOME/WORKSPACE/26msit001_A/jinhyeok/loop_TTT/lact/.cache_inductor_llm/gh/cgh3g3prvufv6aunpsyoszn6ehy3ioz5x6uy6q7y35hum3rf6niw.py":48:20)
#loc41 = loc("/NHNHOME/WORKSPACE/26msit001_A/jinhyeok/loop_TTT/lact/.cache_inductor_llm/gh/cgh3g3prvufv6aunpsyoszn6ehy3ioz5x6uy6q7y35hum3rf6niw.py":51:21)
#loc42 = loc("/NHNHOME/WORKSPACE/26msit001_A/jinhyeok/loop_TTT/lact/.cache_inductor_llm/gh/cgh3g3prvufv6aunpsyoszn6ehy3ioz5x6uy6q7y35hum3rf6niw.py":53:25)
#loc43 = loc("/NHNHOME/WORKSPACE/26msit001_A/jinhyeok/loop_TTT/lact/.cache_inductor_llm/gh/cgh3g3prvufv6aunpsyoszn6ehy3ioz5x6uy6q7y35hum3rf6niw.py":53:46)
#loc44 = loc("/NHNHOME/WORKSPACE/26msit001_A/jinhyeok/loop_TTT/lact/.cache_inductor_llm/gh/cgh3g3prvufv6aunpsyoszn6ehy3ioz5x6uy6q7y35hum3rf6niw.py":54:25)
#loc45 = loc("/NHNHOME/WORKSPACE/26msit001_A/jinhyeok/loop_TTT/lact/.cache_inductor_llm/gh/cgh3g3prvufv6aunpsyoszn6ehy3ioz5x6uy6q7y35hum3rf6niw.py":54:46)
#loc46 = loc("/NHNHOME/WORKSPACE/26msit001_A/jinhyeok/loop_TTT/lact/.cache_inductor_llm/gh/cgh3g3prvufv6aunpsyoszn6ehy3ioz5x6uy6q7y35hum3rf6niw.py":55:25)
#loc47 = loc("/NHNHOME/WORKSPACE/26msit001_A/jinhyeok/loop_TTT/lact/.cache_inductor_llm/gh/cgh3g3prvufv6aunpsyoszn6ehy3ioz5x6uy6q7y35hum3rf6niw.py":55:46)
#loc48 = loc("/NHNHOME/WORKSPACE/26msit001_A/jinhyeok/loop_TTT/lact/.cache_inductor_llm/gh/cgh3g3prvufv6aunpsyoszn6ehy3ioz5x6uy6q7y35hum3rf6niw.py":55:4)
#loc57 = loc("tmp13"(#loc2))
#loc58 = loc("tmp6"(#loc3))
#loc59 = loc("tmp4"(#loc4))
#loc60 = loc("tmp16"(#loc5))
#loc61 = loc("yoffset"(#loc6))
#loc62 = loc("yoffset"(#loc7))
#loc63 = loc("yoffset"(#loc8))
#loc64 = loc("yoffset"(#loc9))
#loc65 = loc("yoffset"(#loc10))
#loc66 = loc("yoffset"(#loc11))
#loc67 = loc("yindex"(#loc12))
#loc68 = loc("yindex"(#loc13))
#loc69 = loc("yindex"(#loc14))
#loc70 = loc("ymask"(#loc15))
#loc71 = loc("xoffset"(#loc16))
#loc72 = loc("xmask"(#loc17))
#loc73 = loc("y1"(#loc18))
#loc74 = loc("y0"(#loc19))
#loc75 = loc("tmp0"(#loc20))
#loc76 = loc("tmp0"(#loc21))
#loc77 = loc("xindex"(#loc22))
#loc78 = loc("tmp0"(#loc23))
#loc79 = loc("tmp0"(#loc24))
#loc80 = loc("tmp0"(#loc25))
#loc81 = loc("tmp0"(#loc26))
#loc82 = loc("tmp2"(#loc27))
#loc83 = loc("tmp2"(#loc28))
#loc84 = loc("tmp10"(#loc29))
#loc85 = loc("tmp10"(#loc30))
#loc86 = loc("tmp16"(#loc31))
#loc87 = loc("tmp16"(#loc32))
#loc88 = loc("tmp16"(#loc33))
#loc89 = loc("tmp16"(#loc34))
#loc90 = loc("tmp16"(#loc35))
#loc91 = loc("tmp16"(#loc36))
#loc92 = loc("tmp7"(#loc37))
#loc93 = loc("tmp11"(#loc38))
#loc94 = loc("tmp14"(#loc39))
#loc95 = loc("tmp18"(#loc40))
#loc96 = loc("tmp21"(#loc41))
#loc97 = loc(fused[#loc76, #loc77])
#loc98 = loc(fused[#loc79, #loc72])
#loc99 = loc(fused[#loc87, #loc86])
