#loc = loc("/NHNHOME/WORKSPACE/26msit001_A/jinhyeok/loop_TTT/lact/.cache_inductor_llm/m7/cm74c25vjs3j4kdgrfajlx5zufnsftyef3pp6sj6fdq34bslcd2z.py":18:0)
#loc42 = loc("in_ptr0"(#loc))
#loc43 = loc("in_ptr1"(#loc))
#loc44 = loc("in_ptr2"(#loc))
#loc45 = loc("in_ptr3"(#loc))
#loc46 = loc("out_ptr0"(#loc))
#loc47 = loc("out_ptr1"(#loc))
#loc48 = loc("ks0"(#loc))
#loc49 = loc("xnumel"(#loc))
module {
  tt.func public @triton_poi_fused__to_copy_add_mul_rsub_sigmoid_silu_slice_transpose_2(%in_ptr0: !tt.ptr<bf16> {tt.divisibility = 16 : i32} loc("in_ptr0"(#loc)), %in_ptr1: !tt.ptr<bf16> {tt.divisibility = 16 : i32} loc("in_ptr1"(#loc)), %in_ptr2: !tt.ptr<f32> loc("in_ptr2"(#loc)), %in_ptr3: !tt.ptr<bf16> {tt.divisibility = 16 : i32} loc("in_ptr3"(#loc)), %out_ptr0: !tt.ptr<bf16> {tt.divisibility = 16 : i32} loc("out_ptr0"(#loc)), %out_ptr1: !tt.ptr<bf16> {tt.divisibility = 16 : i32} loc("out_ptr1"(#loc)), %ks0: i64 loc("ks0"(#loc)), %xnumel: i32 {tt.divisibility = 16 : i32} loc("xnumel"(#loc))) attributes {noinline = false} {
    %cst = arith.constant dense<0.000000e+00> : tensor<512xf32> loc(#loc1)
    %cst_0 = arith.constant dense<1.000000e+00> : tensor<512xf32> loc(#loc1)
    %tmp8 = arith.constant 4096 : i64 loc(#loc50)
    %x2 = arith.constant dense<196608> : tensor<512xi32> loc(#loc51)
    %x0 = arith.constant dense<1024> : tensor<512xi32> loc(#loc52)
    %c512_i32 = arith.constant 512 : i32 loc(#loc1)
    %xoffset = tt.get_program_id x : i32 loc(#loc53)
    %xoffset_1 = arith.muli %xoffset, %c512_i32 : i32 loc(#loc54)
    %xindex = tt.make_range {end = 512 : i32, start = 0 : i32} : tensor<512xi32> loc(#loc55)
    %xindex_2 = tt.splat %xoffset_1 : i32 -> tensor<512xi32> loc(#loc56)
    %xindex_3 = arith.addi %xindex_2, %xindex : tensor<512xi32> loc(#loc56)
    %x0_4 = arith.remsi %xindex_3, %x0 : tensor<512xi32> loc(#loc52)
    %x2_5 = arith.divsi %xindex_3, %x2 : tensor<512xi32> loc(#loc51)
    %tmp0 = tt.splat %in_ptr0 : !tt.ptr<bf16> -> tensor<512x!tt.ptr<bf16>> loc(#loc57)
    %tmp0_6 = tt.addptr %tmp0, %xindex_3 : tensor<512x!tt.ptr<bf16>>, tensor<512xi32> loc(#loc57)
    %tmp0_7 = tt.load %tmp0_6 : tensor<512x!tt.ptr<bf16>> loc(#loc58)
    %tmp0_8 = arith.extf %tmp0_7 : tensor<512xbf16> to tensor<512xf32> loc(#loc59)
    %tmp5 = tt.splat %in_ptr1 : !tt.ptr<bf16> -> tensor<512x!tt.ptr<bf16>> loc(#loc60)
    %tmp5_9 = tt.addptr %tmp5, %xindex_3 : tensor<512x!tt.ptr<bf16>>, tensor<512xi32> loc(#loc60)
    %tmp5_10 = tt.load %tmp5_9 : tensor<512x!tt.ptr<bf16>> loc(#loc61)
    %tmp5_11 = arith.extf %tmp5_10 : tensor<512xbf16> to tensor<512xf32> loc(#loc62)
    %tmp8_12 = arith.extsi %x0_4 : tensor<512xi32> to tensor<512xi64> loc(#loc63)
    %tmp8_13 = tt.splat %ks0 : i64 -> tensor<512xi64> loc(#loc63)
    %tmp8_14 = arith.muli %tmp8_13, %tmp8_12 : tensor<512xi64> loc(#loc63)
    %tmp8_15 = arith.muli %ks0, %tmp8 : i64 loc(#loc50)
    %tmp8_16 = arith.extsi %x2_5 : tensor<512xi32> to tensor<512xi64> loc(#loc64)
    %tmp8_17 = tt.splat %tmp8_15 : i64 -> tensor<512xi64> loc(#loc64)
    %tmp8_18 = arith.muli %tmp8_17, %tmp8_16 : tensor<512xi64> loc(#loc64)
    %tmp8_19 = arith.addi %tmp8_14, %tmp8_18 : tensor<512xi64> loc(#loc65)
    %tmp8_20 = tt.splat %in_ptr2 : !tt.ptr<f32> -> tensor<512x!tt.ptr<f32>> loc(#loc66)
    %tmp8_21 = tt.addptr %tmp8_20, %tmp8_19 : tensor<512x!tt.ptr<f32>>, tensor<512xi64> loc(#loc66)
    %tmp8_22 = tt.load %tmp8_21 evictionPolicy = evict_last : tensor<512x!tt.ptr<f32>> loc(#loc67)
    %tmp11 = tt.splat %in_ptr3 : !tt.ptr<bf16> -> tensor<512x!tt.ptr<bf16>> loc(#loc68)
    %tmp11_23 = tt.addptr %tmp11, %xindex_3 : tensor<512x!tt.ptr<bf16>>, tensor<512xi32> loc(#loc68)
    %tmp11_24 = tt.load %tmp11_23 : tensor<512x!tt.ptr<bf16>> loc(#loc69)
    %tmp11_25 = arith.extf %tmp11_24 : tensor<512xbf16> to tensor<512xf32> loc(#loc70)
    %tmp2 = arith.subf %cst, %tmp0_8 : tensor<512xf32> loc(#loc81)
    %tmp2_26 = math.exp %tmp2 : tensor<512xf32> loc(#loc82)
    %tmp2_27 = arith.addf %tmp2_26, %cst_0 : tensor<512xf32> loc(#loc83)
    %tmp2_28 = arith.divf %cst_0, %tmp2_27 : tensor<512xf32> loc(#loc84)
    %tmp3 = arith.mulf %tmp0_8, %tmp2_28 : tensor<512xf32> loc(#loc72)
    %tmp6 = arith.mulf %tmp3, %tmp5_11 : tensor<512xf32> loc(#loc73)
    %tmp9 = arith.mulf %tmp6, %tmp8_22 : tensor<512xf32> loc(#loc74)
    %tmp12 = arith.mulf %tmp11_25, %tmp5_11 : tensor<512xf32> loc(#loc75)
    %tmp14 = arith.mulf %tmp12, %tmp2_28 : tensor<512xf32> loc(#loc76)
    %tmp16 = arith.subf %cst_0, %tmp2_28 : tensor<512xf32> loc(#loc77)
    %tmp17 = arith.mulf %tmp0_8, %tmp16 : tensor<512xf32> loc(#loc78)
    %tmp18 = arith.addf %tmp17, %cst_0 : tensor<512xf32> loc(#loc79)
    %tmp19 = arith.mulf %tmp14, %tmp18 : tensor<512xf32> loc(#loc80)
    %0 = tt.splat %out_ptr0 : !tt.ptr<bf16> -> tensor<512x!tt.ptr<bf16>> loc(#loc37)
    %1 = tt.addptr %0, %xindex_3 : tensor<512x!tt.ptr<bf16>>, tensor<512xi32> loc(#loc37)
    %2 = arith.truncf %tmp9 : tensor<512xf32> to tensor<512xbf16> loc(#loc38)
    tt.store %1, %2 : tensor<512x!tt.ptr<bf16>> loc(#loc38)
    %3 = tt.splat %out_ptr1 : !tt.ptr<bf16> -> tensor<512x!tt.ptr<bf16>> loc(#loc39)
    %4 = tt.addptr %3, %xindex_3 : tensor<512x!tt.ptr<bf16>>, tensor<512xi32> loc(#loc39)
    %5 = arith.truncf %tmp19 : tensor<512xf32> to tensor<512xbf16> loc(#loc40)
    tt.store %4, %5 : tensor<512x!tt.ptr<bf16>> loc(#loc40)
    tt.return loc(#loc41)
  } loc(#loc)
} loc(#loc)
#loc1 = loc(unknown)
#loc2 = loc("/NHNHOME/WORKSPACE/26msit001_A/jinhyeok/loop_TTT/lact/.cache_inductor_llm/m7/cm74c25vjs3j4kdgrfajlx5zufnsftyef3pp6sj6fdq34bslcd2z.py":27:44)
#loc3 = loc("/NHNHOME/WORKSPACE/26msit001_A/jinhyeok/loop_TTT/lact/.cache_inductor_llm/m7/cm74c25vjs3j4kdgrfajlx5zufnsftyef3pp6sj6fdq34bslcd2z.py":24:19)
#loc4 = loc("/NHNHOME/WORKSPACE/26msit001_A/jinhyeok/loop_TTT/lact/.cache_inductor_llm/m7/cm74c25vjs3j4kdgrfajlx5zufnsftyef3pp6sj6fdq34bslcd2z.py":23:19)
#loc5 = loc("/NHNHOME/WORKSPACE/26msit001_A/jinhyeok/loop_TTT/lact/.cache_inductor_llm/m7/cm74c25vjs3j4kdgrfajlx5zufnsftyef3pp6sj6fdq34bslcd2z.py":19:28)
#loc6 = loc("/NHNHOME/WORKSPACE/26msit001_A/jinhyeok/loop_TTT/lact/.cache_inductor_llm/m7/cm74c25vjs3j4kdgrfajlx5zufnsftyef3pp6sj6fdq34bslcd2z.py":19:33)
#loc7 = loc("/NHNHOME/WORKSPACE/26msit001_A/jinhyeok/loop_TTT/lact/.cache_inductor_llm/m7/cm74c25vjs3j4kdgrfajlx5zufnsftyef3pp6sj6fdq34bslcd2z.py":20:36)
#loc8 = loc("/NHNHOME/WORKSPACE/26msit001_A/jinhyeok/loop_TTT/lact/.cache_inductor_llm/m7/cm74c25vjs3j4kdgrfajlx5zufnsftyef3pp6sj6fdq34bslcd2z.py":20:23)
#loc9 = loc("/NHNHOME/WORKSPACE/26msit001_A/jinhyeok/loop_TTT/lact/.cache_inductor_llm/m7/cm74c25vjs3j4kdgrfajlx5zufnsftyef3pp6sj6fdq34bslcd2z.py":25:30)
#loc10 = loc("/NHNHOME/WORKSPACE/26msit001_A/jinhyeok/loop_TTT/lact/.cache_inductor_llm/m7/cm74c25vjs3j4kdgrfajlx5zufnsftyef3pp6sj6fdq34bslcd2z.py":25:35)
#loc11 = loc("/NHNHOME/WORKSPACE/26msit001_A/jinhyeok/loop_TTT/lact/.cache_inductor_llm/m7/cm74c25vjs3j4kdgrfajlx5zufnsftyef3pp6sj6fdq34bslcd2z.py":25:44)
#loc12 = loc("/NHNHOME/WORKSPACE/26msit001_A/jinhyeok/loop_TTT/lact/.cache_inductor_llm/m7/cm74c25vjs3j4kdgrfajlx5zufnsftyef3pp6sj6fdq34bslcd2z.py":26:30)
#loc13 = loc("/NHNHOME/WORKSPACE/26msit001_A/jinhyeok/loop_TTT/lact/.cache_inductor_llm/m7/cm74c25vjs3j4kdgrfajlx5zufnsftyef3pp6sj6fdq34bslcd2z.py":26:35)
#loc14 = loc("/NHNHOME/WORKSPACE/26msit001_A/jinhyeok/loop_TTT/lact/.cache_inductor_llm/m7/cm74c25vjs3j4kdgrfajlx5zufnsftyef3pp6sj6fdq34bslcd2z.py":26:44)
#loc15 = loc("/NHNHOME/WORKSPACE/26msit001_A/jinhyeok/loop_TTT/lact/.cache_inductor_llm/m7/cm74c25vjs3j4kdgrfajlx5zufnsftyef3pp6sj6fdq34bslcd2z.py":27:34)
#loc16 = loc("/NHNHOME/WORKSPACE/26msit001_A/jinhyeok/loop_TTT/lact/.cache_inductor_llm/m7/cm74c25vjs3j4kdgrfajlx5zufnsftyef3pp6sj6fdq34bslcd2z.py":27:48)
#loc17 = loc("/NHNHOME/WORKSPACE/26msit001_A/jinhyeok/loop_TTT/lact/.cache_inductor_llm/m7/cm74c25vjs3j4kdgrfajlx5zufnsftyef3pp6sj6fdq34bslcd2z.py":27:39)
#loc18 = loc("/NHNHOME/WORKSPACE/26msit001_A/jinhyeok/loop_TTT/lact/.cache_inductor_llm/m7/cm74c25vjs3j4kdgrfajlx5zufnsftyef3pp6sj6fdq34bslcd2z.py":27:30)
#loc19 = loc("/NHNHOME/WORKSPACE/26msit001_A/jinhyeok/loop_TTT/lact/.cache_inductor_llm/m7/cm74c25vjs3j4kdgrfajlx5zufnsftyef3pp6sj6fdq34bslcd2z.py":27:53)
#loc20 = loc("/NHNHOME/WORKSPACE/26msit001_A/jinhyeok/loop_TTT/lact/.cache_inductor_llm/m7/cm74c25vjs3j4kdgrfajlx5zufnsftyef3pp6sj6fdq34bslcd2z.py":28:31)
#loc21 = loc("/NHNHOME/WORKSPACE/26msit001_A/jinhyeok/loop_TTT/lact/.cache_inductor_llm/m7/cm74c25vjs3j4kdgrfajlx5zufnsftyef3pp6sj6fdq34bslcd2z.py":28:36)
#loc22 = loc("/NHNHOME/WORKSPACE/26msit001_A/jinhyeok/loop_TTT/lact/.cache_inductor_llm/m7/cm74c25vjs3j4kdgrfajlx5zufnsftyef3pp6sj6fdq34bslcd2z.py":28:45)
#loc23 = loc("/NHNHOME/WORKSPACE/26msit001_A/jinhyeok/TTT_camera_embedding/.venv_llm/lib/python3.12/site-packages/triton/language/standard.py":48:30)
#loc24 = loc("/NHNHOME/WORKSPACE/26msit001_A/jinhyeok/loop_TTT/lact/.cache_inductor_llm/m7/cm74c25vjs3j4kdgrfajlx5zufnsftyef3pp6sj6fdq34bslcd2z.py":30:22)
#loc25 = loc("/NHNHOME/WORKSPACE/26msit001_A/jinhyeok/TTT_camera_embedding/.venv_llm/lib/python3.12/site-packages/triton/language/standard.py":48:29)
#loc26 = loc("/NHNHOME/WORKSPACE/26msit001_A/jinhyeok/TTT_camera_embedding/.venv_llm/lib/python3.12/site-packages/triton/language/standard.py":48:20)
#loc27 = loc("/NHNHOME/WORKSPACE/26msit001_A/jinhyeok/TTT_camera_embedding/.venv_llm/lib/python3.12/site-packages/triton/language/standard.py":48:16)
#loc28 = loc("/NHNHOME/WORKSPACE/26msit001_A/jinhyeok/loop_TTT/lact/.cache_inductor_llm/m7/cm74c25vjs3j4kdgrfajlx5zufnsftyef3pp6sj6fdq34bslcd2z.py":31:18)
#loc29 = loc("/NHNHOME/WORKSPACE/26msit001_A/jinhyeok/loop_TTT/lact/.cache_inductor_llm/m7/cm74c25vjs3j4kdgrfajlx5zufnsftyef3pp6sj6fdq34bslcd2z.py":33:18)
#loc30 = loc("/NHNHOME/WORKSPACE/26msit001_A/jinhyeok/loop_TTT/lact/.cache_inductor_llm/m7/cm74c25vjs3j4kdgrfajlx5zufnsftyef3pp6sj6fdq34bslcd2z.py":35:18)
#loc31 = loc("/NHNHOME/WORKSPACE/26msit001_A/jinhyeok/loop_TTT/lact/.cache_inductor_llm/m7/cm74c25vjs3j4kdgrfajlx5zufnsftyef3pp6sj6fdq34bslcd2z.py":37:20)
#loc32 = loc("/NHNHOME/WORKSPACE/26msit001_A/jinhyeok/loop_TTT/lact/.cache_inductor_llm/m7/cm74c25vjs3j4kdgrfajlx5zufnsftyef3pp6sj6fdq34bslcd2z.py":39:20)
#loc33 = loc("/NHNHOME/WORKSPACE/26msit001_A/jinhyeok/loop_TTT/lact/.cache_inductor_llm/m7/cm74c25vjs3j4kdgrfajlx5zufnsftyef3pp6sj6fdq34bslcd2z.py":41:20)
#loc34 = loc("/NHNHOME/WORKSPACE/26msit001_A/jinhyeok/loop_TTT/lact/.cache_inductor_llm/m7/cm74c25vjs3j4kdgrfajlx5zufnsftyef3pp6sj6fdq34bslcd2z.py":42:19)
#loc35 = loc("/NHNHOME/WORKSPACE/26msit001_A/jinhyeok/loop_TTT/lact/.cache_inductor_llm/m7/cm74c25vjs3j4kdgrfajlx5zufnsftyef3pp6sj6fdq34bslcd2z.py":43:20)
#loc36 = loc("/NHNHOME/WORKSPACE/26msit001_A/jinhyeok/loop_TTT/lact/.cache_inductor_llm/m7/cm74c25vjs3j4kdgrfajlx5zufnsftyef3pp6sj6fdq34bslcd2z.py":44:20)
#loc37 = loc("/NHNHOME/WORKSPACE/26msit001_A/jinhyeok/loop_TTT/lact/.cache_inductor_llm/m7/cm74c25vjs3j4kdgrfajlx5zufnsftyef3pp6sj6fdq34bslcd2z.py":45:25)
#loc38 = loc("/NHNHOME/WORKSPACE/26msit001_A/jinhyeok/loop_TTT/lact/.cache_inductor_llm/m7/cm74c25vjs3j4kdgrfajlx5zufnsftyef3pp6sj6fdq34bslcd2z.py":45:37)
#loc39 = loc("/NHNHOME/WORKSPACE/26msit001_A/jinhyeok/loop_TTT/lact/.cache_inductor_llm/m7/cm74c25vjs3j4kdgrfajlx5zufnsftyef3pp6sj6fdq34bslcd2z.py":46:25)
#loc40 = loc("/NHNHOME/WORKSPACE/26msit001_A/jinhyeok/loop_TTT/lact/.cache_inductor_llm/m7/cm74c25vjs3j4kdgrfajlx5zufnsftyef3pp6sj6fdq34bslcd2z.py":46:37)
#loc41 = loc("/NHNHOME/WORKSPACE/26msit001_A/jinhyeok/loop_TTT/lact/.cache_inductor_llm/m7/cm74c25vjs3j4kdgrfajlx5zufnsftyef3pp6sj6fdq34bslcd2z.py":46:4)
#loc50 = loc("tmp8"(#loc2))
#loc51 = loc("x2"(#loc3))
#loc52 = loc("x0"(#loc4))
#loc53 = loc("xoffset"(#loc5))
#loc54 = loc("xoffset"(#loc6))
#loc55 = loc("xindex"(#loc7))
#loc56 = loc("xindex"(#loc8))
#loc57 = loc("tmp0"(#loc9))
#loc58 = loc("tmp0"(#loc10))
#loc59 = loc("tmp0"(#loc11))
#loc60 = loc("tmp5"(#loc12))
#loc61 = loc("tmp5"(#loc13))
#loc62 = loc("tmp5"(#loc14))
#loc63 = loc("tmp8"(#loc15))
#loc64 = loc("tmp8"(#loc16))
#loc65 = loc("tmp8"(#loc17))
#loc66 = loc("tmp8"(#loc18))
#loc67 = loc("tmp8"(#loc19))
#loc68 = loc("tmp11"(#loc20))
#loc69 = loc("tmp11"(#loc21))
#loc70 = loc("tmp11"(#loc22))
#loc71 = loc("tmp2"(#loc24))
#loc72 = loc("tmp3"(#loc28))
#loc73 = loc("tmp6"(#loc29))
#loc74 = loc("tmp9"(#loc30))
#loc75 = loc("tmp12"(#loc31))
#loc76 = loc("tmp14"(#loc32))
#loc77 = loc("tmp16"(#loc33))
#loc78 = loc("tmp17"(#loc34))
#loc79 = loc("tmp18"(#loc35))
#loc80 = loc("tmp19"(#loc36))
#loc81 = loc(callsite(#loc23 at #loc71))
#loc82 = loc(callsite(#loc25 at #loc71))
#loc83 = loc(callsite(#loc26 at #loc71))
#loc84 = loc(callsite(#loc27 at #loc71))
