#loc = loc("/NHNHOME/WORKSPACE/26msit001_A/jinhyeok/loop_TTT/lact/.cache_inductor_llm/sr/csr63ytwkatmhstcb4mxq6y36466gqqxbeaqjckqxg6w3nfvmko5.py":18:0)
#loc48 = loc("/NHNHOME/WORKSPACE/26msit001_A/jinhyeok/TTT_camera_embedding/.venv_llm/lib/python3.12/site-packages/triton/language/standard.py":47:0)
#loc55 = loc("/NHNHOME/WORKSPACE/26msit001_A/jinhyeok/TTT_camera_embedding/.venv_llm/lib/python3.12/site-packages/triton/language/standard.py":285:0)
#loc57 = loc(unknown)
#loc60 = loc("/NHNHOME/WORKSPACE/26msit001_A/jinhyeok/TTT_camera_embedding/.venv_llm/lib/python3.12/site-packages/triton/language/standard.py":260:0)
#loc64 = loc("in_ptr0"(#loc))
#loc65 = loc("in_ptr1"(#loc))
#loc66 = loc("in_ptr2"(#loc))
#loc67 = loc("out_ptr0"(#loc))
#loc68 = loc("xnumel"(#loc))
#loc69 = loc("r0_numel"(#loc))
#loc113 = loc("x"(#loc48))
#loc114 = loc("input"(#loc55))
#loc115 = loc("a"(#loc60))
#loc116 = loc("b"(#loc60))
module {
  tt.func public @triton_red_fused__to_copy_mul_silu_sum_transpose_18(%in_ptr0: !tt.ptr<bf16> {tt.divisibility = 16 : i32} loc("in_ptr0"(#loc)), %in_ptr1: !tt.ptr<bf16> {tt.divisibility = 16 : i32} loc("in_ptr1"(#loc)), %in_ptr2: !tt.ptr<bf16> {tt.divisibility = 16 : i32} loc("in_ptr2"(#loc)), %out_ptr0: !tt.ptr<f32> {tt.divisibility = 16 : i32} loc("out_ptr0"(#loc)), %xnumel: i32 {tt.divisibility = 16 : i32} loc("xnumel"(#loc)), %r0_numel: i32 {tt.divisibility = 16 : i32} loc("r0_numel"(#loc))) attributes {noinline = false} {
    %xnumel_0 = arith.constant 98304 : i32 loc(#loc70)
    %r0_numel_1 = arith.constant 192 : i32 loc(#loc71)
    %xoffset = tt.get_program_id x : i32 loc(#loc72)
    %xoffset_2 = arith.constant 8 : i32 loc(#loc73)
    %xoffset_3 = arith.constant 8 : i32 loc(#loc73)
    %xoffset_4 = arith.muli %xoffset, %xoffset_3 : i32 loc(#loc73)
    %xindex = tt.make_range {end = 8 : i32, start = 0 : i32} : tensor<8xi32> loc(#loc74)
    %xindex_5 = tt.expand_dims %xindex {axis = 1 : i32} : tensor<8xi32> -> tensor<8x1xi32> loc(#loc75)
    %xindex_6 = tt.splat %xoffset_4 : i32 -> tensor<8x1xi32> loc(#loc76)
    %xindex_7 = arith.addi %xindex_6, %xindex_5 : tensor<8x1xi32> loc(#loc76)
    %xmask = arith.constant true loc(#loc77)
    %xmask_8 = arith.constant dense<true> : tensor<8x256xi1> loc(#loc77)
    %r0_base = tt.make_range {end = 256 : i32, start = 0 : i32} : tensor<256xi32> loc(#loc78)
    %r0_base_9 = tt.expand_dims %r0_base {axis = 0 : i32} : tensor<256xi32> -> tensor<1x256xi32> loc(#loc79)
    %x0 = arith.constant 1024 : i32 loc(#loc80)
    %x0_10 = arith.constant 1024 : i32 loc(#loc80)
    %x0_11 = arith.constant dense<1024> : tensor<8x1xi32> loc(#loc80)
    %x0_12 = arith.remsi %xindex_7, %x0_11 : tensor<8x1xi32> loc(#loc80)
    %x1 = arith.constant 1024 : i32 loc(#loc81)
    %x1_13 = arith.constant 1024 : i32 loc(#loc81)
    %x1_14 = arith.constant dense<1024> : tensor<8x1xi32> loc(#loc81)
    %x1_15 = arith.divsi %xindex_7, %x1_14 : tensor<8x1xi32> loc(#loc81)
    %_tmp12 = arith.constant 0.000000e+00 : f32 loc(#loc82)
    %_tmp12_16 = arith.constant dense<0.000000e+00> : tensor<8x256xf32> loc(#loc82)
    %c0_i32 = arith.constant 0 : i32 loc(#loc14)
    %c256_i32 = arith.constant 256 : i32 loc(#loc14)
    %0 = arith.bitcast %c0_i32 : i32 to i32 loc(#loc14)
    %1 = arith.bitcast %r0_numel_1 : i32 to i32 loc(#loc14)
    %2 = arith.bitcast %c256_i32 : i32 to i32 loc(#loc14)
    %3 = ub.poison : i32 loc(#loc14)
    %_tmp12_17 = scf.for %r0_offset = %0 to %1 step %2 iter_args(%_tmp12_19 = %_tmp12_16) -> (tensor<8x256xf32>)  : i32 {
      %r0_index = tt.splat %r0_offset : i32 -> tensor<1x256xi32> loc(#loc84)
      %r0_index_20 = arith.addi %r0_index, %r0_base_9 : tensor<1x256xi32> loc(#loc84)
      %r0_mask = arith.constant dense<192> : tensor<1x256xi32> loc(#loc85)
      %r0_mask_21 = arith.cmpi slt, %r0_index_20, %r0_mask : tensor<1x256xi32> loc(#loc85)
      %tmp0 = arith.constant 192 : i32 loc(#loc86)
      %tmp0_22 = arith.constant 192 : i32 loc(#loc86)
      %tmp0_23 = arith.constant dense<192> : tensor<8x1xi32> loc(#loc86)
      %tmp0_24 = arith.muli %tmp0_23, %xindex_7 : tensor<8x1xi32> loc(#loc86)
      %tmp0_25 = tt.broadcast %r0_index_20 : tensor<1x256xi32> -> tensor<8x256xi32> loc(#loc87)
      %tmp0_26 = tt.broadcast %tmp0_24 : tensor<8x1xi32> -> tensor<8x256xi32> loc(#loc87)
      %tmp0_27 = arith.addi %tmp0_25, %tmp0_26 : tensor<8x256xi32> loc(#loc87)
      %tmp0_28 = tt.splat %in_ptr0 : !tt.ptr<bf16> -> tensor<8x256x!tt.ptr<bf16>> loc(#loc88)
      %tmp0_29 = tt.addptr %tmp0_28, %tmp0_27 : tensor<8x256x!tt.ptr<bf16>>, tensor<8x256xi32> loc(#loc88)
      %tmp0_30 = arith.constant 0.000000e+00 : f32 loc(#loc89)
      %tmp0_31 = tt.broadcast %r0_mask_21 : tensor<1x256xi1> -> tensor<8x256xi1> loc(#loc89)
      %tmp0_32 = arith.constant dense<0.000000e+00> : tensor<8x256xf32> loc(#loc89)
      %tmp0_33 = arith.truncf %tmp0_32 : tensor<8x256xf32> to tensor<8x256xbf16> loc(#loc89)
      %tmp0_34 = tt.load %tmp0_29, %tmp0_31, %tmp0_33 evictionPolicy = evict_first : tensor<8x256x!tt.ptr<bf16>> loc(#loc89)
      %tmp0_35 = arith.extf %tmp0_34 : tensor<8x256xbf16> to tensor<8x256xf32> loc(#loc90)
      %tmp2 = arith.constant 1024 : i32 loc(#loc91)
      %tmp2_36 = arith.constant 1024 : i32 loc(#loc91)
      %tmp2_37 = arith.constant dense<1024> : tensor<1x256xi32> loc(#loc91)
      %tmp2_38 = arith.muli %tmp2_37, %r0_index_20 : tensor<1x256xi32> loc(#loc91)
      %tmp2_39 = tt.broadcast %x0_12 : tensor<8x1xi32> -> tensor<8x256xi32> loc(#loc92)
      %tmp2_40 = tt.broadcast %tmp2_38 : tensor<1x256xi32> -> tensor<8x256xi32> loc(#loc92)
      %tmp2_41 = arith.addi %tmp2_39, %tmp2_40 : tensor<8x256xi32> loc(#loc92)
      %tmp2_42 = arith.constant 196608 : i32 loc(#loc93)
      %tmp2_43 = arith.constant 196608 : i32 loc(#loc93)
      %tmp2_44 = arith.constant dense<196608> : tensor<8x1xi32> loc(#loc93)
      %tmp2_45 = arith.muli %tmp2_44, %x1_15 : tensor<8x1xi32> loc(#loc93)
      %tmp2_46 = tt.broadcast %tmp2_45 : tensor<8x1xi32> -> tensor<8x256xi32> loc(#loc94)
      %tmp2_47 = arith.addi %tmp2_41, %tmp2_46 : tensor<8x256xi32> loc(#loc94)
      %tmp2_48 = tt.splat %in_ptr1 : !tt.ptr<bf16> -> tensor<8x256x!tt.ptr<bf16>> loc(#loc95)
      %tmp2_49 = tt.addptr %tmp2_48, %tmp2_47 : tensor<8x256x!tt.ptr<bf16>>, tensor<8x256xi32> loc(#loc95)
      %tmp2_50 = arith.constant 0.000000e+00 : f32 loc(#loc96)
      %tmp2_51 = tt.broadcast %r0_mask_21 : tensor<1x256xi1> -> tensor<8x256xi1> loc(#loc96)
      %tmp2_52 = arith.constant dense<0.000000e+00> : tensor<8x256xf32> loc(#loc96)
      %tmp2_53 = arith.truncf %tmp2_52 : tensor<8x256xf32> to tensor<8x256xbf16> loc(#loc96)
      %tmp2_54 = tt.load %tmp2_49, %tmp2_51, %tmp2_53 evictionPolicy = evict_first : tensor<8x256x!tt.ptr<bf16>> loc(#loc96)
      %tmp2_55 = arith.extf %tmp2_54 : tensor<8x256xbf16> to tensor<8x256xf32> loc(#loc97)
      %tmp7 = arith.constant 1024 : i32 loc(#loc98)
      %tmp7_56 = arith.constant 1024 : i32 loc(#loc98)
      %tmp7_57 = arith.constant dense<1024> : tensor<1x256xi32> loc(#loc98)
      %tmp7_58 = arith.muli %tmp7_57, %r0_index_20 : tensor<1x256xi32> loc(#loc98)
      %tmp7_59 = tt.broadcast %x0_12 : tensor<8x1xi32> -> tensor<8x256xi32> loc(#loc99)
      %tmp7_60 = tt.broadcast %tmp7_58 : tensor<1x256xi32> -> tensor<8x256xi32> loc(#loc99)
      %tmp7_61 = arith.addi %tmp7_59, %tmp7_60 : tensor<8x256xi32> loc(#loc99)
      %tmp7_62 = arith.constant 196608 : i32 loc(#loc100)
      %tmp7_63 = arith.constant 196608 : i32 loc(#loc100)
      %tmp7_64 = arith.constant dense<196608> : tensor<8x1xi32> loc(#loc100)
      %tmp7_65 = arith.muli %tmp7_64, %x1_15 : tensor<8x1xi32> loc(#loc100)
      %tmp7_66 = tt.broadcast %tmp7_65 : tensor<8x1xi32> -> tensor<8x256xi32> loc(#loc101)
      %tmp7_67 = arith.addi %tmp7_61, %tmp7_66 : tensor<8x256xi32> loc(#loc101)
      %tmp7_68 = tt.splat %in_ptr2 : !tt.ptr<bf16> -> tensor<8x256x!tt.ptr<bf16>> loc(#loc102)
      %tmp7_69 = tt.addptr %tmp7_68, %tmp7_67 : tensor<8x256x!tt.ptr<bf16>>, tensor<8x256xi32> loc(#loc102)
      %tmp7_70 = arith.constant 0.000000e+00 : f32 loc(#loc103)
      %tmp7_71 = tt.broadcast %r0_mask_21 : tensor<1x256xi1> -> tensor<8x256xi1> loc(#loc103)
      %tmp7_72 = arith.constant dense<0.000000e+00> : tensor<8x256xf32> loc(#loc103)
      %tmp7_73 = arith.truncf %tmp7_72 : tensor<8x256xf32> to tensor<8x256xbf16> loc(#loc103)
      %tmp7_74 = tt.load %tmp7_69, %tmp7_71, %tmp7_73 evictionPolicy = evict_first : tensor<8x256x!tt.ptr<bf16>> loc(#loc103)
      %tmp7_75 = arith.extf %tmp7_74 : tensor<8x256xbf16> to tensor<8x256xf32> loc(#loc104)
      %tmp4 = tt.call @triton.language.standard.sigmoid__fp32S8_256S__(%tmp2_55) : (tensor<8x256xf32>) -> tensor<8x256xf32> loc(#loc105)
      %tmp5 = arith.mulf %tmp2_55, %tmp4 : tensor<8x256xf32> loc(#loc106)
      %tmp8 = arith.mulf %tmp5, %tmp7_75 : tensor<8x256xf32> loc(#loc107)
      %tmp10 = arith.mulf %tmp0_35, %tmp8 : tensor<8x256xf32> loc(#loc108)
      %tmp13 = arith.addf %_tmp12_19, %tmp10 : tensor<8x256xf32> loc(#loc109)
      %_tmp12_76 = tt.broadcast %r0_mask_21 : tensor<1x256xi1> -> tensor<8x256xi1> loc(#loc110)
      %_tmp12_77 = arith.select %_tmp12_76, %tmp13, %_tmp12_19 : tensor<8x256xi1>, tensor<8x256xf32> loc(#loc110)
      scf.yield %_tmp12_77 : tensor<8x256xf32> loc(#loc42)
    } loc(#loc83)
    %tmp12 = tt.call @"triton.language.standard.sum__fp32S8_256S__(1,)cconstexpr_1__(2,)cconstexpr_False__(3,)cNone"(%_tmp12_17) : (tensor<8x256xf32>) -> tensor<8xf32> loc(#loc111)
    %tmp12_18 = tt.expand_dims %tmp12 {axis = 1 : i32} : tensor<8xf32> -> tensor<8x1xf32> loc(#loc112)
    %4 = tt.splat %out_ptr0 : !tt.ptr<f32> -> tensor<8x1x!tt.ptr<f32>> loc(#loc45)
    %5 = tt.addptr %4, %xindex_7 : tensor<8x1x!tt.ptr<f32>>, tensor<8x1xi32> loc(#loc45)
    tt.store %5, %tmp12_18 : tensor<8x1x!tt.ptr<f32>> loc(#loc46)
    tt.return loc(#loc47)
  } loc(#loc)
  tt.func private @triton.language.standard.sigmoid__fp32S8_256S__(%x: tensor<8x256xf32> loc("x"(#loc48))) -> tensor<8x256xf32> attributes {noinline = false} {
    %cst = arith.constant 0.000000e+00 : f32 loc(#loc49)
    %cst_0 = arith.constant dense<0.000000e+00> : tensor<8x256xf32> loc(#loc49)
    %0 = arith.subf %cst_0, %x : tensor<8x256xf32> loc(#loc49)
    %1 = math.exp %0 : tensor<8x256xf32> loc(#loc50)
    %c1_i32 = arith.constant 1 : i32 loc(#loc51)
    %cst_1 = arith.constant 1.000000e+00 : f32 loc(#loc51)
    %cst_2 = arith.constant dense<1.000000e+00> : tensor<8x256xf32> loc(#loc51)
    %2 = arith.addf %cst_2, %1 : tensor<8x256xf32> loc(#loc51)
    %c1_i32_3 = arith.constant 1 : i32 loc(#loc52)
    %cst_4 = arith.constant 1.000000e+00 : f32 loc(#loc52)
    %cst_5 = arith.constant dense<1.000000e+00> : tensor<8x256xf32> loc(#loc52)
    %3 = arith.divf %cst_5, %2 : tensor<8x256xf32> loc(#loc52)
    tt.return %3 : tensor<8x256xf32> loc(#loc53)
  ^bb1:  // no predecessors
    %4 = ub.poison : tensor<8x256xf32> loc(#loc54)
    tt.return %4 : tensor<8x256xf32> loc(#loc54)
  } loc(#loc48)
  tt.func private @"triton.language.standard.sum__fp32S8_256S__(1,)cconstexpr_1__(2,)cconstexpr_False__(3,)cNone"(%input: tensor<8x256xf32> loc("input"(#loc55))) -> tensor<8xf32> attributes {noinline = false} {
    %0 = "tt.reduce"(%input) <{axis = 1 : i32}> ({
    ^bb0(%arg1: f32 loc(unknown), %arg2: f32 loc(unknown)):
      %2 = tt.call @triton.language.standard._sum_combine__fp32_fp32__(%arg1, %arg2) : (f32, f32) -> f32 loc(#loc56)
      tt.reduce.return %2 : f32 loc(#loc56)
    }) : (tensor<8x256xf32>) -> tensor<8xf32> loc(#loc56)
    tt.return %0 : tensor<8xf32> loc(#loc58)
  ^bb1:  // no predecessors
    %1 = ub.poison : tensor<8xf32> loc(#loc59)
    tt.return %1 : tensor<8xf32> loc(#loc59)
  } loc(#loc55)
  tt.func private @triton.language.standard._sum_combine__fp32_fp32__(%a: f32 loc("a"(#loc60)), %b: f32 loc("b"(#loc60))) -> f32 attributes {noinline = false} {
    %0 = arith.addf %a, %b : f32 loc(#loc61)
    tt.return %0 : f32 loc(#loc62)
  ^bb1:  // no predecessors
    %1 = ub.poison : f32 loc(#loc63)
    tt.return %1 : f32 loc(#loc63)
  } loc(#loc60)
} loc(#loc)
#loc1 = loc("/NHNHOME/WORKSPACE/26msit001_A/jinhyeok/loop_TTT/lact/.cache_inductor_llm/sr/csr63ytwkatmhstcb4mxq6y36466gqqxbeaqjckqxg6w3nfvmko5.py":19:13)
#loc2 = loc("/NHNHOME/WORKSPACE/26msit001_A/jinhyeok/loop_TTT/lact/.cache_inductor_llm/sr/csr63ytwkatmhstcb4mxq6y36466gqqxbeaqjckqxg6w3nfvmko5.py":20:15)
#loc3 = loc("/NHNHOME/WORKSPACE/26msit001_A/jinhyeok/loop_TTT/lact/.cache_inductor_llm/sr/csr63ytwkatmhstcb4mxq6y36466gqqxbeaqjckqxg6w3nfvmko5.py":23:28)
#loc4 = loc("/NHNHOME/WORKSPACE/26msit001_A/jinhyeok/loop_TTT/lact/.cache_inductor_llm/sr/csr63ytwkatmhstcb4mxq6y36466gqqxbeaqjckqxg6w3nfvmko5.py":23:33)
#loc5 = loc("/NHNHOME/WORKSPACE/26msit001_A/jinhyeok/loop_TTT/lact/.cache_inductor_llm/sr/csr63ytwkatmhstcb4mxq6y36466gqqxbeaqjckqxg6w3nfvmko5.py":24:36)
#loc6 = loc("/NHNHOME/WORKSPACE/26msit001_A/jinhyeok/loop_TTT/lact/.cache_inductor_llm/sr/csr63ytwkatmhstcb4mxq6y36466gqqxbeaqjckqxg6w3nfvmko5.py":24:44)
#loc7 = loc("/NHNHOME/WORKSPACE/26msit001_A/jinhyeok/loop_TTT/lact/.cache_inductor_llm/sr/csr63ytwkatmhstcb4mxq6y36466gqqxbeaqjckqxg6w3nfvmko5.py":24:23)
#loc8 = loc("/NHNHOME/WORKSPACE/26msit001_A/jinhyeok/loop_TTT/lact/.cache_inductor_llm/sr/csr63ytwkatmhstcb4mxq6y36466gqqxbeaqjckqxg6w3nfvmko5.py":25:46)
#loc9 = loc("/NHNHOME/WORKSPACE/26msit001_A/jinhyeok/loop_TTT/lact/.cache_inductor_llm/sr/csr63ytwkatmhstcb4mxq6y36466gqqxbeaqjckqxg6w3nfvmko5.py":26:27)
#loc10 = loc("/NHNHOME/WORKSPACE/26msit001_A/jinhyeok/loop_TTT/lact/.cache_inductor_llm/sr/csr63ytwkatmhstcb4mxq6y36466gqqxbeaqjckqxg6w3nfvmko5.py":26:37)
#loc11 = loc("/NHNHOME/WORKSPACE/26msit001_A/jinhyeok/loop_TTT/lact/.cache_inductor_llm/sr/csr63ytwkatmhstcb4mxq6y36466gqqxbeaqjckqxg6w3nfvmko5.py":29:19)
#loc12 = loc("/NHNHOME/WORKSPACE/26msit001_A/jinhyeok/loop_TTT/lact/.cache_inductor_llm/sr/csr63ytwkatmhstcb4mxq6y36466gqqxbeaqjckqxg6w3nfvmko5.py":30:19)
#loc13 = loc("/NHNHOME/WORKSPACE/26msit001_A/jinhyeok/loop_TTT/lact/.cache_inductor_llm/sr/csr63ytwkatmhstcb4mxq6y36466gqqxbeaqjckqxg6w3nfvmko5.py":31:44)
#loc14 = loc("/NHNHOME/WORKSPACE/26msit001_A/jinhyeok/loop_TTT/lact/.cache_inductor_llm/sr/csr63ytwkatmhstcb4mxq6y36466gqqxbeaqjckqxg6w3nfvmko5.py":32:40)
#loc15 = loc("/NHNHOME/WORKSPACE/26msit001_A/jinhyeok/loop_TTT/lact/.cache_inductor_llm/sr/csr63ytwkatmhstcb4mxq6y36466gqqxbeaqjckqxg6w3nfvmko5.py":33:31)
#loc16 = loc("/NHNHOME/WORKSPACE/26msit001_A/jinhyeok/loop_TTT/lact/.cache_inductor_llm/sr/csr63ytwkatmhstcb4mxq6y36466gqqxbeaqjckqxg6w3nfvmko5.py":34:29)
#loc17 = loc("/NHNHOME/WORKSPACE/26msit001_A/jinhyeok/loop_TTT/lact/.cache_inductor_llm/sr/csr63ytwkatmhstcb4mxq6y36466gqqxbeaqjckqxg6w3nfvmko5.py":38:45)
#loc18 = loc("/NHNHOME/WORKSPACE/26msit001_A/jinhyeok/loop_TTT/lact/.cache_inductor_llm/sr/csr63ytwkatmhstcb4mxq6y36466gqqxbeaqjckqxg6w3nfvmko5.py":38:41)
#loc19 = loc("/NHNHOME/WORKSPACE/26msit001_A/jinhyeok/loop_TTT/lact/.cache_inductor_llm/sr/csr63ytwkatmhstcb4mxq6y36466gqqxbeaqjckqxg6w3nfvmko5.py":38:34)
#loc20 = loc("/NHNHOME/WORKSPACE/26msit001_A/jinhyeok/loop_TTT/lact/.cache_inductor_llm/sr/csr63ytwkatmhstcb4mxq6y36466gqqxbeaqjckqxg6w3nfvmko5.py":38:50)
#loc21 = loc("/NHNHOME/WORKSPACE/26msit001_A/jinhyeok/loop_TTT/lact/.cache_inductor_llm/sr/csr63ytwkatmhstcb4mxq6y36466gqqxbeaqjckqxg6w3nfvmko5.py":38:104)
#loc22 = loc("/NHNHOME/WORKSPACE/26msit001_A/jinhyeok/loop_TTT/lact/.cache_inductor_llm/sr/csr63ytwkatmhstcb4mxq6y36466gqqxbeaqjckqxg6w3nfvmko5.py":39:44)
#loc23 = loc("/NHNHOME/WORKSPACE/26msit001_A/jinhyeok/loop_TTT/lact/.cache_inductor_llm/sr/csr63ytwkatmhstcb4mxq6y36466gqqxbeaqjckqxg6w3nfvmko5.py":39:39)
#loc24 = loc("/NHNHOME/WORKSPACE/26msit001_A/jinhyeok/loop_TTT/lact/.cache_inductor_llm/sr/csr63ytwkatmhstcb4mxq6y36466gqqxbeaqjckqxg6w3nfvmko5.py":39:58)
#loc25 = loc("/NHNHOME/WORKSPACE/26msit001_A/jinhyeok/loop_TTT/lact/.cache_inductor_llm/sr/csr63ytwkatmhstcb4mxq6y36466gqqxbeaqjckqxg6w3nfvmko5.py":39:51)
#loc26 = loc("/NHNHOME/WORKSPACE/26msit001_A/jinhyeok/loop_TTT/lact/.cache_inductor_llm/sr/csr63ytwkatmhstcb4mxq6y36466gqqxbeaqjckqxg6w3nfvmko5.py":39:34)
#loc27 = loc("/NHNHOME/WORKSPACE/26msit001_A/jinhyeok/loop_TTT/lact/.cache_inductor_llm/sr/csr63ytwkatmhstcb4mxq6y36466gqqxbeaqjckqxg6w3nfvmko5.py":39:63)
#loc28 = loc("/NHNHOME/WORKSPACE/26msit001_A/jinhyeok/loop_TTT/lact/.cache_inductor_llm/sr/csr63ytwkatmhstcb4mxq6y36466gqqxbeaqjckqxg6w3nfvmko5.py":39:117)
#loc29 = loc("/NHNHOME/WORKSPACE/26msit001_A/jinhyeok/loop_TTT/lact/.cache_inductor_llm/sr/csr63ytwkatmhstcb4mxq6y36466gqqxbeaqjckqxg6w3nfvmko5.py":40:44)
#loc30 = loc("/NHNHOME/WORKSPACE/26msit001_A/jinhyeok/loop_TTT/lact/.cache_inductor_llm/sr/csr63ytwkatmhstcb4mxq6y36466gqqxbeaqjckqxg6w3nfvmko5.py":40:39)
#loc31 = loc("/NHNHOME/WORKSPACE/26msit001_A/jinhyeok/loop_TTT/lact/.cache_inductor_llm/sr/csr63ytwkatmhstcb4mxq6y36466gqqxbeaqjckqxg6w3nfvmko5.py":40:58)
#loc32 = loc("/NHNHOME/WORKSPACE/26msit001_A/jinhyeok/loop_TTT/lact/.cache_inductor_llm/sr/csr63ytwkatmhstcb4mxq6y36466gqqxbeaqjckqxg6w3nfvmko5.py":40:51)
#loc33 = loc("/NHNHOME/WORKSPACE/26msit001_A/jinhyeok/loop_TTT/lact/.cache_inductor_llm/sr/csr63ytwkatmhstcb4mxq6y36466gqqxbeaqjckqxg6w3nfvmko5.py":40:34)
#loc34 = loc("/NHNHOME/WORKSPACE/26msit001_A/jinhyeok/loop_TTT/lact/.cache_inductor_llm/sr/csr63ytwkatmhstcb4mxq6y36466gqqxbeaqjckqxg6w3nfvmko5.py":40:63)
#loc35 = loc("/NHNHOME/WORKSPACE/26msit001_A/jinhyeok/loop_TTT/lact/.cache_inductor_llm/sr/csr63ytwkatmhstcb4mxq6y36466gqqxbeaqjckqxg6w3nfvmko5.py":40:117)
#loc36 = loc("/NHNHOME/WORKSPACE/26msit001_A/jinhyeok/loop_TTT/lact/.cache_inductor_llm/sr/csr63ytwkatmhstcb4mxq6y36466gqqxbeaqjckqxg6w3nfvmko5.py":43:26)
#loc37 = loc("/NHNHOME/WORKSPACE/26msit001_A/jinhyeok/loop_TTT/lact/.cache_inductor_llm/sr/csr63ytwkatmhstcb4mxq6y36466gqqxbeaqjckqxg6w3nfvmko5.py":44:22)
#loc38 = loc("/NHNHOME/WORKSPACE/26msit001_A/jinhyeok/loop_TTT/lact/.cache_inductor_llm/sr/csr63ytwkatmhstcb4mxq6y36466gqqxbeaqjckqxg6w3nfvmko5.py":46:22)
#loc39 = loc("/NHNHOME/WORKSPACE/26msit001_A/jinhyeok/loop_TTT/lact/.cache_inductor_llm/sr/csr63ytwkatmhstcb4mxq6y36466gqqxbeaqjckqxg6w3nfvmko5.py":48:23)
#loc40 = loc("/NHNHOME/WORKSPACE/26msit001_A/jinhyeok/loop_TTT/lact/.cache_inductor_llm/sr/csr63ytwkatmhstcb4mxq6y36466gqqxbeaqjckqxg6w3nfvmko5.py":50:25)
#loc41 = loc("/NHNHOME/WORKSPACE/26msit001_A/jinhyeok/loop_TTT/lact/.cache_inductor_llm/sr/csr63ytwkatmhstcb4mxq6y36466gqqxbeaqjckqxg6w3nfvmko5.py":51:42)
#loc42 = loc("/NHNHOME/WORKSPACE/26msit001_A/jinhyeok/loop_TTT/lact/.cache_inductor_llm/sr/csr63ytwkatmhstcb4mxq6y36466gqqxbeaqjckqxg6w3nfvmko5.py":51:8)
#loc43 = loc("/NHNHOME/WORKSPACE/26msit001_A/jinhyeok/loop_TTT/lact/.cache_inductor_llm/sr/csr63ytwkatmhstcb4mxq6y36466gqqxbeaqjckqxg6w3nfvmko5.py":52:27)
#loc44 = loc("/NHNHOME/WORKSPACE/26msit001_A/jinhyeok/loop_TTT/lact/.cache_inductor_llm/sr/csr63ytwkatmhstcb4mxq6y36466gqqxbeaqjckqxg6w3nfvmko5.py":52:30)
#loc45 = loc("/NHNHOME/WORKSPACE/26msit001_A/jinhyeok/loop_TTT/lact/.cache_inductor_llm/sr/csr63ytwkatmhstcb4mxq6y36466gqqxbeaqjckqxg6w3nfvmko5.py":53:25)
#loc46 = loc("/NHNHOME/WORKSPACE/26msit001_A/jinhyeok/loop_TTT/lact/.cache_inductor_llm/sr/csr63ytwkatmhstcb4mxq6y36466gqqxbeaqjckqxg6w3nfvmko5.py":53:37)
#loc47 = loc("/NHNHOME/WORKSPACE/26msit001_A/jinhyeok/loop_TTT/lact/.cache_inductor_llm/sr/csr63ytwkatmhstcb4mxq6y36466gqqxbeaqjckqxg6w3nfvmko5.py":53:4)
#loc49 = loc("/NHNHOME/WORKSPACE/26msit001_A/jinhyeok/TTT_camera_embedding/.venv_llm/lib/python3.12/site-packages/triton/language/standard.py":48:30)
#loc50 = loc("/NHNHOME/WORKSPACE/26msit001_A/jinhyeok/TTT_camera_embedding/.venv_llm/lib/python3.12/site-packages/triton/language/standard.py":48:29)
#loc51 = loc("/NHNHOME/WORKSPACE/26msit001_A/jinhyeok/TTT_camera_embedding/.venv_llm/lib/python3.12/site-packages/triton/language/standard.py":48:20)
#loc52 = loc("/NHNHOME/WORKSPACE/26msit001_A/jinhyeok/TTT_camera_embedding/.venv_llm/lib/python3.12/site-packages/triton/language/standard.py":48:16)
#loc53 = loc("/NHNHOME/WORKSPACE/26msit001_A/jinhyeok/TTT_camera_embedding/.venv_llm/lib/python3.12/site-packages/triton/language/standard.py":48:11)
#loc54 = loc("/NHNHOME/WORKSPACE/26msit001_A/jinhyeok/TTT_camera_embedding/.venv_llm/lib/python3.12/site-packages/triton/language/standard.py":48:4)
#loc56 = loc("/NHNHOME/WORKSPACE/26msit001_A/jinhyeok/TTT_camera_embedding/.venv_llm/lib/python3.12/site-packages/triton/language/standard.py":291:36)
#loc58 = loc("/NHNHOME/WORKSPACE/26msit001_A/jinhyeok/TTT_camera_embedding/.venv_llm/lib/python3.12/site-packages/triton/language/standard.py":291:11)
#loc59 = loc("/NHNHOME/WORKSPACE/26msit001_A/jinhyeok/TTT_camera_embedding/.venv_llm/lib/python3.12/site-packages/triton/language/standard.py":291:4)
#loc61 = loc("/NHNHOME/WORKSPACE/26msit001_A/jinhyeok/TTT_camera_embedding/.venv_llm/lib/python3.12/site-packages/triton/language/standard.py":261:15)
#loc62 = loc("/NHNHOME/WORKSPACE/26msit001_A/jinhyeok/TTT_camera_embedding/.venv_llm/lib/python3.12/site-packages/triton/language/standard.py":261:11)
#loc63 = loc("/NHNHOME/WORKSPACE/26msit001_A/jinhyeok/TTT_camera_embedding/.venv_llm/lib/python3.12/site-packages/triton/language/standard.py":261:4)
#loc70 = loc("xnumel"(#loc1))
#loc71 = loc("r0_numel"(#loc2))
#loc72 = loc("xoffset"(#loc3))
#loc73 = loc("xoffset"(#loc4))
#loc74 = loc("xindex"(#loc5))
#loc75 = loc("xindex"(#loc6))
#loc76 = loc("xindex"(#loc7))
#loc77 = loc("xmask"(#loc8))
#loc78 = loc("r0_base"(#loc9))
#loc79 = loc("r0_base"(#loc10))
#loc80 = loc("x0"(#loc11))
#loc81 = loc("x1"(#loc12))
#loc82 = loc("_tmp12"(#loc13))
#loc83 = loc("_tmp12"(#loc14))
#loc84 = loc("r0_index"(#loc15))
#loc85 = loc("r0_mask"(#loc16))
#loc86 = loc("tmp0"(#loc17))
#loc87 = loc("tmp0"(#loc18))
#loc88 = loc("tmp0"(#loc19))
#loc89 = loc("tmp0"(#loc20))
#loc90 = loc("tmp0"(#loc21))
#loc91 = loc("tmp2"(#loc22))
#loc92 = loc("tmp2"(#loc23))
#loc93 = loc("tmp2"(#loc24))
#loc94 = loc("tmp2"(#loc25))
#loc95 = loc("tmp2"(#loc26))
#loc96 = loc("tmp2"(#loc27))
#loc97 = loc("tmp2"(#loc28))
#loc98 = loc("tmp7"(#loc29))
#loc99 = loc("tmp7"(#loc30))
#loc100 = loc("tmp7"(#loc31))
#loc101 = loc("tmp7"(#loc32))
#loc102 = loc("tmp7"(#loc33))
#loc103 = loc("tmp7"(#loc34))
#loc104 = loc("tmp7"(#loc35))
#loc105 = loc("tmp4"(#loc36))
#loc106 = loc("tmp5"(#loc37))
#loc107 = loc("tmp8"(#loc38))
#loc108 = loc("tmp10"(#loc39))
#loc109 = loc("tmp13"(#loc40))
#loc110 = loc("_tmp12"(#loc41))
#loc111 = loc("tmp12"(#loc43))
#loc112 = loc("tmp12"(#loc44))
