#loc = loc("/NHNHOME/WORKSPACE/26msit001_A/jinhyeok/loop_TTT/lact/.cache_inductor_llm/ch/cchpefcfdipvezbjrjscwykey26h5zfu6peskfbivnoieaq7keml.py":18:0)
#loc87 = loc("in_out_ptr0"(#loc))
#loc88 = loc("in_out_ptr1"(#loc))
#loc89 = loc("in_ptr0"(#loc))
#loc90 = loc("in_ptr1"(#loc))
#loc91 = loc("in_ptr2"(#loc))
#loc92 = loc("in_ptr3"(#loc))
#loc93 = loc("in_ptr4"(#loc))
#loc94 = loc("in_ptr5"(#loc))
#loc95 = loc("in_ptr6"(#loc))
#loc96 = loc("in_ptr7"(#loc))
#loc97 = loc("in_ptr8"(#loc))
#loc98 = loc("in_ptr9"(#loc))
#loc99 = loc("in_ptr10"(#loc))
#loc100 = loc("in_ptr11"(#loc))
#loc101 = loc("in_ptr12"(#loc))
#loc102 = loc("in_ptr13"(#loc))
#loc103 = loc("in_ptr14"(#loc))
#loc104 = loc("out_ptr0"(#loc))
#loc105 = loc("out_ptr1"(#loc))
#loc106 = loc("xnumel"(#loc))
module {
  tt.func public @triton_poi_fused__to_copy_add_div_eq_masked_fill_mul_transpose_24(%in_out_ptr0: !tt.ptr<f32> {tt.divisibility = 16 : i32} loc("in_out_ptr0"(#loc)), %in_out_ptr1: !tt.ptr<f32> {tt.divisibility = 16 : i32} loc("in_out_ptr1"(#loc)), %in_ptr0: !tt.ptr<f32> {tt.divisibility = 16 : i32} loc("in_ptr0"(#loc)), %in_ptr1: !tt.ptr<bf16> {tt.divisibility = 16 : i32} loc("in_ptr1"(#loc)), %in_ptr2: !tt.ptr<f32> {tt.divisibility = 16 : i32} loc("in_ptr2"(#loc)), %in_ptr3: !tt.ptr<bf16> {tt.divisibility = 16 : i32} loc("in_ptr3"(#loc)), %in_ptr4: !tt.ptr<bf16> {tt.divisibility = 16 : i32} loc("in_ptr4"(#loc)), %in_ptr5: !tt.ptr<f32> {tt.divisibility = 16 : i32} loc("in_ptr5"(#loc)), %in_ptr6: !tt.ptr<f32> {tt.divisibility = 16 : i32} loc("in_ptr6"(#loc)), %in_ptr7: !tt.ptr<f32> {tt.divisibility = 16 : i32} loc("in_ptr7"(#loc)), %in_ptr8: !tt.ptr<bf16> {tt.divisibility = 16 : i32} loc("in_ptr8"(#loc)), %in_ptr9: !tt.ptr<f32> {tt.divisibility = 16 : i32} loc("in_ptr9"(#loc)), %in_ptr10: !tt.ptr<bf16> {tt.divisibility = 16 : i32} loc("in_ptr10"(#loc)), %in_ptr11: !tt.ptr<bf16> {tt.divisibility = 16 : i32} loc("in_ptr11"(#loc)), %in_ptr12: !tt.ptr<f32> {tt.divisibility = 16 : i32} loc("in_ptr12"(#loc)), %in_ptr13: !tt.ptr<f32> {tt.divisibility = 16 : i32} loc("in_ptr13"(#loc)), %in_ptr14: !tt.ptr<f32> {tt.divisibility = 16 : i32} loc("in_ptr14"(#loc)), %out_ptr0: !tt.ptr<bf16> {tt.divisibility = 16 : i32} loc("out_ptr0"(#loc)), %out_ptr1: !tt.ptr<bf16> {tt.divisibility = 16 : i32} loc("out_ptr1"(#loc)), %xnumel: i32 {tt.divisibility = 16 : i32} loc("xnumel"(#loc))) attributes {noinline = false} {
    %cst = arith.constant dense<0.000000e+00> : tensor<512xf32> loc(#loc1)
    %cst_0 = arith.constant dense<1.000000e-07> : tensor<512xf32> loc(#loc1)
    %cst_1 = arith.constant dense<4.084800e+00> : tensor<512xf32> loc(#loc1)
    %cst_2 = arith.constant dense<192> : tensor<512xi32> loc(#loc1)
    %cst_3 = arith.constant dense<36864> : tensor<512xi32> loc(#loc1)
    %c512_i32 = arith.constant 512 : i32 loc(#loc1)
    %xoffset = tt.get_program_id x : i32 loc(#loc107)
    %xoffset_4 = arith.muli %xoffset, %c512_i32 : i32 loc(#loc108)
    %xindex = tt.make_range {end = 512 : i32, start = 0 : i32} : tensor<512xi32> loc(#loc109)
    %xindex_5 = tt.splat %xoffset_4 : i32 -> tensor<512xi32> loc(#loc110)
    %xindex_6 = arith.addi %xindex_5, %xindex : tensor<512xi32> loc(#loc110)
    %x2 = arith.divsi %xindex_6, %cst_3 : tensor<512xi32> loc(#loc111)
    %x0 = arith.remsi %xindex_6, %cst_2 : tensor<512xi32> loc(#loc112)
    %x1 = arith.divsi %xindex_6, %cst_2 : tensor<512xi32> loc(#loc113)
    %x1_7 = arith.remsi %x1, %cst_2 : tensor<512xi32> loc(#loc114)
    %tmp0 = tt.splat %in_out_ptr0 : !tt.ptr<f32> -> tensor<512x!tt.ptr<f32>> loc(#loc115)
    %tmp0_8 = tt.addptr %tmp0, %xindex_6 : tensor<512x!tt.ptr<f32>>, tensor<512xi32> loc(#loc115)
    %tmp0_9 = tt.load %tmp0_8 : tensor<512x!tt.ptr<f32>> loc(#loc116)
    %tmp1 = tt.splat %in_ptr0 : !tt.ptr<f32> -> tensor<512x!tt.ptr<f32>> loc(#loc117)
    %tmp1_10 = tt.addptr %tmp1, %x2 : tensor<512x!tt.ptr<f32>>, tensor<512xi32> loc(#loc117)
    %tmp1_11 = tt.load %tmp1_10 evictionPolicy = evict_last : tensor<512x!tt.ptr<f32>> loc(#loc118)
    %tmp3 = tt.splat %in_ptr1 : !tt.ptr<bf16> -> tensor<512x!tt.ptr<bf16>> loc(#loc119)
    %tmp3_12 = tt.addptr %tmp3, %xindex_6 : tensor<512x!tt.ptr<bf16>>, tensor<512xi32> loc(#loc119)
    %tmp3_13 = tt.load %tmp3_12 : tensor<512x!tt.ptr<bf16>> loc(#loc120)
    %tmp3_14 = arith.extf %tmp3_13 : tensor<512xbf16> to tensor<512xf32> loc(#loc121)
    %tmp5 = tt.splat %in_ptr2 : !tt.ptr<f32> -> tensor<512x!tt.ptr<f32>> loc(#loc122)
    %tmp5_15 = tt.addptr %tmp5, %xindex_6 : tensor<512x!tt.ptr<f32>>, tensor<512xi32> loc(#loc122)
    %tmp5_16 = tt.load %tmp5_15 : tensor<512x!tt.ptr<f32>> loc(#loc123)
    %tmp9 = tt.splat %in_ptr3 : !tt.ptr<bf16> -> tensor<512x!tt.ptr<bf16>> loc(#loc124)
    %tmp9_17 = tt.addptr %tmp9, %xindex_6 : tensor<512x!tt.ptr<bf16>>, tensor<512xi32> loc(#loc124)
    %tmp9_18 = tt.load %tmp9_17 : tensor<512x!tt.ptr<bf16>> loc(#loc125)
    %tmp9_19 = arith.extf %tmp9_18 : tensor<512xbf16> to tensor<512xf32> loc(#loc126)
    %tmp12 = arith.muli %x0, %cst_2 : tensor<512xi32> loc(#loc127)
    %tmp12_20 = arith.addi %x1_7, %tmp12 : tensor<512xi32> loc(#loc128)
    %tmp12_21 = arith.muli %x2, %cst_3 : tensor<512xi32> loc(#loc129)
    %tmp12_22 = arith.addi %tmp12_20, %tmp12_21 : tensor<512xi32> loc(#loc130)
    %tmp12_23 = tt.splat %in_ptr4 : !tt.ptr<bf16> -> tensor<512x!tt.ptr<bf16>> loc(#loc131)
    %tmp12_24 = tt.addptr %tmp12_23, %tmp12_22 : tensor<512x!tt.ptr<bf16>>, tensor<512xi32> loc(#loc131)
    %tmp12_25 = tt.load %tmp12_24 evictionPolicy = evict_last : tensor<512x!tt.ptr<bf16>> loc(#loc132)
    %tmp12_26 = arith.extf %tmp12_25 : tensor<512xbf16> to tensor<512xf32> loc(#loc133)
    %tmp15 = tt.splat %in_ptr5 : !tt.ptr<f32> -> tensor<512x!tt.ptr<f32>> loc(#loc134)
    %tmp15_27 = tt.addptr %tmp15, %x2 : tensor<512x!tt.ptr<f32>>, tensor<512xi32> loc(#loc134)
    %tmp15_28 = tt.load %tmp15_27 evictionPolicy = evict_last : tensor<512x!tt.ptr<f32>> loc(#loc135)
    %tmp20 = tt.splat %in_ptr6 : !tt.ptr<f32> -> tensor<512x!tt.ptr<f32>> loc(#loc136)
    %tmp20_29 = tt.addptr %tmp20, %x2 : tensor<512x!tt.ptr<f32>>, tensor<512xi32> loc(#loc136)
    %tmp20_30 = tt.load %tmp20_29 evictionPolicy = evict_last : tensor<512x!tt.ptr<f32>> loc(#loc137)
    %tmp23 = tt.splat %in_ptr7 : !tt.ptr<f32> -> tensor<512x!tt.ptr<f32>> loc(#loc138)
    %tmp23_31 = tt.addptr %tmp23, %xindex_6 : tensor<512x!tt.ptr<f32>>, tensor<512xi32> loc(#loc138)
    %tmp23_32 = tt.load %tmp23_31 : tensor<512x!tt.ptr<f32>> loc(#loc139)
    %tmp34 = tt.splat %in_out_ptr1 : !tt.ptr<f32> -> tensor<512x!tt.ptr<f32>> loc(#loc140)
    %tmp34_33 = tt.addptr %tmp34, %xindex_6 : tensor<512x!tt.ptr<f32>>, tensor<512xi32> loc(#loc140)
    %tmp34_34 = tt.load %tmp34_33 : tensor<512x!tt.ptr<f32>> loc(#loc141)
    %tmp36 = tt.splat %in_ptr8 : !tt.ptr<bf16> -> tensor<512x!tt.ptr<bf16>> loc(#loc142)
    %tmp36_35 = tt.addptr %tmp36, %xindex_6 : tensor<512x!tt.ptr<bf16>>, tensor<512xi32> loc(#loc142)
    %tmp36_36 = tt.load %tmp36_35 : tensor<512x!tt.ptr<bf16>> loc(#loc143)
    %tmp36_37 = arith.extf %tmp36_36 : tensor<512xbf16> to tensor<512xf32> loc(#loc144)
    %tmp38 = tt.splat %in_ptr9 : !tt.ptr<f32> -> tensor<512x!tt.ptr<f32>> loc(#loc145)
    %tmp38_38 = tt.addptr %tmp38, %xindex_6 : tensor<512x!tt.ptr<f32>>, tensor<512xi32> loc(#loc145)
    %tmp38_39 = tt.load %tmp38_38 : tensor<512x!tt.ptr<f32>> loc(#loc146)
    %tmp41 = tt.splat %in_ptr10 : !tt.ptr<bf16> -> tensor<512x!tt.ptr<bf16>> loc(#loc147)
    %tmp41_40 = tt.addptr %tmp41, %xindex_6 : tensor<512x!tt.ptr<bf16>>, tensor<512xi32> loc(#loc147)
    %tmp41_41 = tt.load %tmp41_40 : tensor<512x!tt.ptr<bf16>> loc(#loc148)
    %tmp41_42 = arith.extf %tmp41_41 : tensor<512xbf16> to tensor<512xf32> loc(#loc149)
    %tmp44 = tt.splat %in_ptr11 : !tt.ptr<bf16> -> tensor<512x!tt.ptr<bf16>> loc(#loc150)
    %tmp44_43 = tt.addptr %tmp44, %tmp12_22 : tensor<512x!tt.ptr<bf16>>, tensor<512xi32> loc(#loc150)
    %tmp44_44 = tt.load %tmp44_43 evictionPolicy = evict_last : tensor<512x!tt.ptr<bf16>> loc(#loc151)
    %tmp44_45 = arith.extf %tmp44_44 : tensor<512xbf16> to tensor<512xf32> loc(#loc152)
    %tmp47 = tt.splat %in_ptr12 : !tt.ptr<f32> -> tensor<512x!tt.ptr<f32>> loc(#loc153)
    %tmp47_46 = tt.addptr %tmp47, %x2 : tensor<512x!tt.ptr<f32>>, tensor<512xi32> loc(#loc153)
    %tmp47_47 = tt.load %tmp47_46 evictionPolicy = evict_last : tensor<512x!tt.ptr<f32>> loc(#loc154)
    %tmp51 = tt.splat %in_ptr13 : !tt.ptr<f32> -> tensor<512x!tt.ptr<f32>> loc(#loc155)
    %tmp51_48 = tt.addptr %tmp51, %x2 : tensor<512x!tt.ptr<f32>>, tensor<512xi32> loc(#loc155)
    %tmp51_49 = tt.load %tmp51_48 evictionPolicy = evict_last : tensor<512x!tt.ptr<f32>> loc(#loc156)
    %tmp53 = tt.splat %in_ptr14 : !tt.ptr<f32> -> tensor<512x!tt.ptr<f32>> loc(#loc157)
    %tmp53_50 = tt.addptr %tmp53, %xindex_6 : tensor<512x!tt.ptr<f32>>, tensor<512xi32> loc(#loc157)
    %tmp53_51 = tt.load %tmp53_50 : tensor<512x!tt.ptr<f32>> loc(#loc158)
    %tmp2 = arith.mulf %tmp0_9, %tmp1_11 : tensor<512xf32> loc(#loc159)
    %tmp7 = arith.mulf %tmp5_16, %cst_1 : tensor<512xf32> loc(#loc160)
    %tmp8 = arith.addf %tmp3_14, %tmp7 : tensor<512xf32> loc(#loc161)
    %tmp11 = arith.addf %tmp8, %tmp9_19 : tensor<512xf32> loc(#loc162)
    %tmp14 = arith.addf %tmp11, %tmp12_26 : tensor<512xf32> loc(#loc163)
    %tmp17 = arith.addf %tmp15_28, %cst_0 : tensor<512xf32> loc(#loc164)
    %tmp18 = arith.divf %tmp14, %tmp17 : tensor<512xf32> loc(#loc165)
    %tmp22 = arith.cmpf oeq, %tmp15_28, %cst : tensor<512xf32> loc(#loc166)
    %tmp26 = arith.divf %tmp23_32, %tmp15_28 : tensor<512xf32> loc(#loc167)
    %tmp27 = arith.select %tmp22, %cst, %tmp26 : tensor<512xi1>, tensor<512xf32> loc(#loc168)
    %tmp28 = arith.mulf %tmp20_30, %tmp27 : tensor<512xf32> loc(#loc169)
    %tmp30 = arith.addf %tmp18, %tmp28 : tensor<512xf32> loc(#loc170)
    %tmp32 = arith.addf %tmp2, %tmp30 : tensor<512xf32> loc(#loc171)
    %tmp35 = arith.mulf %tmp34_34, %tmp1_11 : tensor<512xf32> loc(#loc172)
    %tmp39 = arith.mulf %tmp38_39, %cst_1 : tensor<512xf32> loc(#loc173)
    %tmp40 = arith.addf %tmp36_37, %tmp39 : tensor<512xf32> loc(#loc174)
    %tmp43 = arith.addf %tmp40, %tmp41_42 : tensor<512xf32> loc(#loc175)
    %tmp46 = arith.addf %tmp43, %tmp44_45 : tensor<512xf32> loc(#loc176)
    %tmp48 = arith.addf %tmp47_47, %cst_0 : tensor<512xf32> loc(#loc177)
    %tmp49 = arith.divf %tmp46, %tmp48 : tensor<512xf32> loc(#loc178)
    %tmp52 = arith.cmpf oeq, %tmp47_47, %cst : tensor<512xf32> loc(#loc179)
    %tmp56 = arith.divf %tmp53_51, %tmp47_47 : tensor<512xf32> loc(#loc180)
    %tmp57 = arith.select %tmp52, %cst, %tmp56 : tensor<512xi1>, tensor<512xf32> loc(#loc181)
    %tmp58 = arith.mulf %tmp51_49, %tmp57 : tensor<512xf32> loc(#loc182)
    %tmp60 = arith.addf %tmp49, %tmp58 : tensor<512xf32> loc(#loc183)
    %tmp62 = arith.addf %tmp35, %tmp60 : tensor<512xf32> loc(#loc184)
    tt.store %tmp0_8, %tmp32 : tensor<512x!tt.ptr<f32>> loc(#loc80)
    %0 = tt.splat %out_ptr0 : !tt.ptr<bf16> -> tensor<512x!tt.ptr<bf16>> loc(#loc81)
    %1 = tt.addptr %0, %xindex_6 : tensor<512x!tt.ptr<bf16>>, tensor<512xi32> loc(#loc81)
    %2 = arith.truncf %tmp32 : tensor<512xf32> to tensor<512xbf16> loc(#loc82)
    tt.store %1, %2 : tensor<512x!tt.ptr<bf16>> loc(#loc82)
    tt.store %tmp34_33, %tmp62 : tensor<512x!tt.ptr<f32>> loc(#loc83)
    %3 = tt.splat %out_ptr1 : !tt.ptr<bf16> -> tensor<512x!tt.ptr<bf16>> loc(#loc84)
    %4 = tt.addptr %3, %xindex_6 : tensor<512x!tt.ptr<bf16>>, tensor<512xi32> loc(#loc84)
    %5 = arith.truncf %tmp62 : tensor<512xf32> to tensor<512xbf16> loc(#loc85)
    tt.store %4, %5 : tensor<512x!tt.ptr<bf16>> loc(#loc85)
    tt.return loc(#loc86)
  } loc(#loc)
} loc(#loc)
#loc1 = loc(unknown)
#loc2 = loc("/NHNHOME/WORKSPACE/26msit001_A/jinhyeok/loop_TTT/lact/.cache_inductor_llm/ch/cchpefcfdipvezbjrjscwykey26h5zfu6peskfbivnoieaq7keml.py":20:28)
#loc3 = loc("/NHNHOME/WORKSPACE/26msit001_A/jinhyeok/loop_TTT/lact/.cache_inductor_llm/ch/cchpefcfdipvezbjrjscwykey26h5zfu6peskfbivnoieaq7keml.py":20:33)
#loc4 = loc("/NHNHOME/WORKSPACE/26msit001_A/jinhyeok/loop_TTT/lact/.cache_inductor_llm/ch/cchpefcfdipvezbjrjscwykey26h5zfu6peskfbivnoieaq7keml.py":21:36)
#loc5 = loc("/NHNHOME/WORKSPACE/26msit001_A/jinhyeok/loop_TTT/lact/.cache_inductor_llm/ch/cchpefcfdipvezbjrjscwykey26h5zfu6peskfbivnoieaq7keml.py":21:23)
#loc6 = loc("/NHNHOME/WORKSPACE/26msit001_A/jinhyeok/loop_TTT/lact/.cache_inductor_llm/ch/cchpefcfdipvezbjrjscwykey26h5zfu6peskfbivnoieaq7keml.py":24:19)
#loc7 = loc("/NHNHOME/WORKSPACE/26msit001_A/jinhyeok/loop_TTT/lact/.cache_inductor_llm/ch/cchpefcfdipvezbjrjscwykey26h5zfu6peskfbivnoieaq7keml.py":25:19)
#loc8 = loc("/NHNHOME/WORKSPACE/26msit001_A/jinhyeok/loop_TTT/lact/.cache_inductor_llm/ch/cchpefcfdipvezbjrjscwykey26h5zfu6peskfbivnoieaq7keml.py":26:21)
#loc9 = loc("/NHNHOME/WORKSPACE/26msit001_A/jinhyeok/loop_TTT/lact/.cache_inductor_llm/ch/cchpefcfdipvezbjrjscwykey26h5zfu6peskfbivnoieaq7keml.py":26:28)
#loc10 = loc("/NHNHOME/WORKSPACE/26msit001_A/jinhyeok/loop_TTT/lact/.cache_inductor_llm/ch/cchpefcfdipvezbjrjscwykey26h5zfu6peskfbivnoieaq7keml.py":27:34)
#loc11 = loc("/NHNHOME/WORKSPACE/26msit001_A/jinhyeok/loop_TTT/lact/.cache_inductor_llm/ch/cchpefcfdipvezbjrjscwykey26h5zfu6peskfbivnoieaq7keml.py":27:39)
#loc12 = loc("/NHNHOME/WORKSPACE/26msit001_A/jinhyeok/loop_TTT/lact/.cache_inductor_llm/ch/cchpefcfdipvezbjrjscwykey26h5zfu6peskfbivnoieaq7keml.py":28:30)
#loc13 = loc("/NHNHOME/WORKSPACE/26msit001_A/jinhyeok/loop_TTT/lact/.cache_inductor_llm/ch/cchpefcfdipvezbjrjscwykey26h5zfu6peskfbivnoieaq7keml.py":28:35)
#loc14 = loc("/NHNHOME/WORKSPACE/26msit001_A/jinhyeok/loop_TTT/lact/.cache_inductor_llm/ch/cchpefcfdipvezbjrjscwykey26h5zfu6peskfbivnoieaq7keml.py":29:30)
#loc15 = loc("/NHNHOME/WORKSPACE/26msit001_A/jinhyeok/loop_TTT/lact/.cache_inductor_llm/ch/cchpefcfdipvezbjrjscwykey26h5zfu6peskfbivnoieaq7keml.py":29:35)
#loc16 = loc("/NHNHOME/WORKSPACE/26msit001_A/jinhyeok/loop_TTT/lact/.cache_inductor_llm/ch/cchpefcfdipvezbjrjscwykey26h5zfu6peskfbivnoieaq7keml.py":29:44)
#loc17 = loc("/NHNHOME/WORKSPACE/26msit001_A/jinhyeok/loop_TTT/lact/.cache_inductor_llm/ch/cchpefcfdipvezbjrjscwykey26h5zfu6peskfbivnoieaq7keml.py":30:30)
#loc18 = loc("/NHNHOME/WORKSPACE/26msit001_A/jinhyeok/loop_TTT/lact/.cache_inductor_llm/ch/cchpefcfdipvezbjrjscwykey26h5zfu6peskfbivnoieaq7keml.py":30:35)
#loc19 = loc("/NHNHOME/WORKSPACE/26msit001_A/jinhyeok/loop_TTT/lact/.cache_inductor_llm/ch/cchpefcfdipvezbjrjscwykey26h5zfu6peskfbivnoieaq7keml.py":31:30)
#loc20 = loc("/NHNHOME/WORKSPACE/26msit001_A/jinhyeok/loop_TTT/lact/.cache_inductor_llm/ch/cchpefcfdipvezbjrjscwykey26h5zfu6peskfbivnoieaq7keml.py":31:35)
#loc21 = loc("/NHNHOME/WORKSPACE/26msit001_A/jinhyeok/loop_TTT/lact/.cache_inductor_llm/ch/cchpefcfdipvezbjrjscwykey26h5zfu6peskfbivnoieaq7keml.py":31:44)
#loc22 = loc("/NHNHOME/WORKSPACE/26msit001_A/jinhyeok/loop_TTT/lact/.cache_inductor_llm/ch/cchpefcfdipvezbjrjscwykey26h5zfu6peskfbivnoieaq7keml.py":32:40)
#loc23 = loc("/NHNHOME/WORKSPACE/26msit001_A/jinhyeok/loop_TTT/lact/.cache_inductor_llm/ch/cchpefcfdipvezbjrjscwykey26h5zfu6peskfbivnoieaq7keml.py":32:36)
#loc24 = loc("/NHNHOME/WORKSPACE/26msit001_A/jinhyeok/loop_TTT/lact/.cache_inductor_llm/ch/cchpefcfdipvezbjrjscwykey26h5zfu6peskfbivnoieaq7keml.py":32:51)
#loc25 = loc("/NHNHOME/WORKSPACE/26msit001_A/jinhyeok/loop_TTT/lact/.cache_inductor_llm/ch/cchpefcfdipvezbjrjscwykey26h5zfu6peskfbivnoieaq7keml.py":32:45)
#loc26 = loc("/NHNHOME/WORKSPACE/26msit001_A/jinhyeok/loop_TTT/lact/.cache_inductor_llm/ch/cchpefcfdipvezbjrjscwykey26h5zfu6peskfbivnoieaq7keml.py":32:31)
#loc27 = loc("/NHNHOME/WORKSPACE/26msit001_A/jinhyeok/loop_TTT/lact/.cache_inductor_llm/ch/cchpefcfdipvezbjrjscwykey26h5zfu6peskfbivnoieaq7keml.py":32:56)
#loc28 = loc("/NHNHOME/WORKSPACE/26msit001_A/jinhyeok/loop_TTT/lact/.cache_inductor_llm/ch/cchpefcfdipvezbjrjscwykey26h5zfu6peskfbivnoieaq7keml.py":32:95)
#loc29 = loc("/NHNHOME/WORKSPACE/26msit001_A/jinhyeok/loop_TTT/lact/.cache_inductor_llm/ch/cchpefcfdipvezbjrjscwykey26h5zfu6peskfbivnoieaq7keml.py":33:31)
#loc30 = loc("/NHNHOME/WORKSPACE/26msit001_A/jinhyeok/loop_TTT/lact/.cache_inductor_llm/ch/cchpefcfdipvezbjrjscwykey26h5zfu6peskfbivnoieaq7keml.py":33:36)
#loc31 = loc("/NHNHOME/WORKSPACE/26msit001_A/jinhyeok/loop_TTT/lact/.cache_inductor_llm/ch/cchpefcfdipvezbjrjscwykey26h5zfu6peskfbivnoieaq7keml.py":34:31)
#loc32 = loc("/NHNHOME/WORKSPACE/26msit001_A/jinhyeok/loop_TTT/lact/.cache_inductor_llm/ch/cchpefcfdipvezbjrjscwykey26h5zfu6peskfbivnoieaq7keml.py":34:36)
#loc33 = loc("/NHNHOME/WORKSPACE/26msit001_A/jinhyeok/loop_TTT/lact/.cache_inductor_llm/ch/cchpefcfdipvezbjrjscwykey26h5zfu6peskfbivnoieaq7keml.py":35:31)
#loc34 = loc("/NHNHOME/WORKSPACE/26msit001_A/jinhyeok/loop_TTT/lact/.cache_inductor_llm/ch/cchpefcfdipvezbjrjscwykey26h5zfu6peskfbivnoieaq7keml.py":35:36)
#loc35 = loc("/NHNHOME/WORKSPACE/26msit001_A/jinhyeok/loop_TTT/lact/.cache_inductor_llm/ch/cchpefcfdipvezbjrjscwykey26h5zfu6peskfbivnoieaq7keml.py":36:35)
#loc36 = loc("/NHNHOME/WORKSPACE/26msit001_A/jinhyeok/loop_TTT/lact/.cache_inductor_llm/ch/cchpefcfdipvezbjrjscwykey26h5zfu6peskfbivnoieaq7keml.py":36:40)
#loc37 = loc("/NHNHOME/WORKSPACE/26msit001_A/jinhyeok/loop_TTT/lact/.cache_inductor_llm/ch/cchpefcfdipvezbjrjscwykey26h5zfu6peskfbivnoieaq7keml.py":37:31)
#loc38 = loc("/NHNHOME/WORKSPACE/26msit001_A/jinhyeok/loop_TTT/lact/.cache_inductor_llm/ch/cchpefcfdipvezbjrjscwykey26h5zfu6peskfbivnoieaq7keml.py":37:36)
#loc39 = loc("/NHNHOME/WORKSPACE/26msit001_A/jinhyeok/loop_TTT/lact/.cache_inductor_llm/ch/cchpefcfdipvezbjrjscwykey26h5zfu6peskfbivnoieaq7keml.py":37:45)
#loc40 = loc("/NHNHOME/WORKSPACE/26msit001_A/jinhyeok/loop_TTT/lact/.cache_inductor_llm/ch/cchpefcfdipvezbjrjscwykey26h5zfu6peskfbivnoieaq7keml.py":38:31)
#loc41 = loc("/NHNHOME/WORKSPACE/26msit001_A/jinhyeok/loop_TTT/lact/.cache_inductor_llm/ch/cchpefcfdipvezbjrjscwykey26h5zfu6peskfbivnoieaq7keml.py":38:36)
#loc42 = loc("/NHNHOME/WORKSPACE/26msit001_A/jinhyeok/loop_TTT/lact/.cache_inductor_llm/ch/cchpefcfdipvezbjrjscwykey26h5zfu6peskfbivnoieaq7keml.py":39:32)
#loc43 = loc("/NHNHOME/WORKSPACE/26msit001_A/jinhyeok/loop_TTT/lact/.cache_inductor_llm/ch/cchpefcfdipvezbjrjscwykey26h5zfu6peskfbivnoieaq7keml.py":39:37)
#loc44 = loc("/NHNHOME/WORKSPACE/26msit001_A/jinhyeok/loop_TTT/lact/.cache_inductor_llm/ch/cchpefcfdipvezbjrjscwykey26h5zfu6peskfbivnoieaq7keml.py":39:46)
#loc45 = loc("/NHNHOME/WORKSPACE/26msit001_A/jinhyeok/loop_TTT/lact/.cache_inductor_llm/ch/cchpefcfdipvezbjrjscwykey26h5zfu6peskfbivnoieaq7keml.py":40:32)
#loc46 = loc("/NHNHOME/WORKSPACE/26msit001_A/jinhyeok/loop_TTT/lact/.cache_inductor_llm/ch/cchpefcfdipvezbjrjscwykey26h5zfu6peskfbivnoieaq7keml.py":40:57)
#loc47 = loc("/NHNHOME/WORKSPACE/26msit001_A/jinhyeok/loop_TTT/lact/.cache_inductor_llm/ch/cchpefcfdipvezbjrjscwykey26h5zfu6peskfbivnoieaq7keml.py":40:96)
#loc48 = loc("/NHNHOME/WORKSPACE/26msit001_A/jinhyeok/loop_TTT/lact/.cache_inductor_llm/ch/cchpefcfdipvezbjrjscwykey26h5zfu6peskfbivnoieaq7keml.py":41:32)
#loc49 = loc("/NHNHOME/WORKSPACE/26msit001_A/jinhyeok/loop_TTT/lact/.cache_inductor_llm/ch/cchpefcfdipvezbjrjscwykey26h5zfu6peskfbivnoieaq7keml.py":41:37)
#loc50 = loc("/NHNHOME/WORKSPACE/26msit001_A/jinhyeok/loop_TTT/lact/.cache_inductor_llm/ch/cchpefcfdipvezbjrjscwykey26h5zfu6peskfbivnoieaq7keml.py":42:32)
#loc51 = loc("/NHNHOME/WORKSPACE/26msit001_A/jinhyeok/loop_TTT/lact/.cache_inductor_llm/ch/cchpefcfdipvezbjrjscwykey26h5zfu6peskfbivnoieaq7keml.py":42:37)
#loc52 = loc("/NHNHOME/WORKSPACE/26msit001_A/jinhyeok/loop_TTT/lact/.cache_inductor_llm/ch/cchpefcfdipvezbjrjscwykey26h5zfu6peskfbivnoieaq7keml.py":43:32)
#loc53 = loc("/NHNHOME/WORKSPACE/26msit001_A/jinhyeok/loop_TTT/lact/.cache_inductor_llm/ch/cchpefcfdipvezbjrjscwykey26h5zfu6peskfbivnoieaq7keml.py":43:37)
#loc54 = loc("/NHNHOME/WORKSPACE/26msit001_A/jinhyeok/loop_TTT/lact/.cache_inductor_llm/ch/cchpefcfdipvezbjrjscwykey26h5zfu6peskfbivnoieaq7keml.py":44:18)
#loc55 = loc("/NHNHOME/WORKSPACE/26msit001_A/jinhyeok/loop_TTT/lact/.cache_inductor_llm/ch/cchpefcfdipvezbjrjscwykey26h5zfu6peskfbivnoieaq7keml.py":47:18)
#loc56 = loc("/NHNHOME/WORKSPACE/26msit001_A/jinhyeok/loop_TTT/lact/.cache_inductor_llm/ch/cchpefcfdipvezbjrjscwykey26h5zfu6peskfbivnoieaq7keml.py":48:18)
#loc57 = loc("/NHNHOME/WORKSPACE/26msit001_A/jinhyeok/loop_TTT/lact/.cache_inductor_llm/ch/cchpefcfdipvezbjrjscwykey26h5zfu6peskfbivnoieaq7keml.py":50:19)
#loc58 = loc("/NHNHOME/WORKSPACE/26msit001_A/jinhyeok/loop_TTT/lact/.cache_inductor_llm/ch/cchpefcfdipvezbjrjscwykey26h5zfu6peskfbivnoieaq7keml.py":52:20)
#loc59 = loc("/NHNHOME/WORKSPACE/26msit001_A/jinhyeok/loop_TTT/lact/.cache_inductor_llm/ch/cchpefcfdipvezbjrjscwykey26h5zfu6peskfbivnoieaq7keml.py":54:20)
#loc60 = loc("/NHNHOME/WORKSPACE/26msit001_A/jinhyeok/loop_TTT/lact/.cache_inductor_llm/ch/cchpefcfdipvezbjrjscwykey26h5zfu6peskfbivnoieaq7keml.py":55:21)
#loc61 = loc("/NHNHOME/WORKSPACE/26msit001_A/jinhyeok/loop_TTT/lact/.cache_inductor_llm/ch/cchpefcfdipvezbjrjscwykey26h5zfu6peskfbivnoieaq7keml.py":58:21)
#loc62 = loc("/NHNHOME/WORKSPACE/26msit001_A/jinhyeok/loop_TTT/lact/.cache_inductor_llm/ch/cchpefcfdipvezbjrjscwykey26h5zfu6peskfbivnoieaq7keml.py":61:21)
#loc63 = loc("/NHNHOME/WORKSPACE/26msit001_A/jinhyeok/loop_TTT/lact/.cache_inductor_llm/ch/cchpefcfdipvezbjrjscwykey26h5zfu6peskfbivnoieaq7keml.py":62:35)
#loc64 = loc("/NHNHOME/WORKSPACE/26msit001_A/jinhyeok/loop_TTT/lact/.cache_inductor_llm/ch/cchpefcfdipvezbjrjscwykey26h5zfu6peskfbivnoieaq7keml.py":63:20)
#loc65 = loc("/NHNHOME/WORKSPACE/26msit001_A/jinhyeok/loop_TTT/lact/.cache_inductor_llm/ch/cchpefcfdipvezbjrjscwykey26h5zfu6peskfbivnoieaq7keml.py":65:20)
#loc66 = loc("/NHNHOME/WORKSPACE/26msit001_A/jinhyeok/loop_TTT/lact/.cache_inductor_llm/ch/cchpefcfdipvezbjrjscwykey26h5zfu6peskfbivnoieaq7keml.py":67:19)
#loc67 = loc("/NHNHOME/WORKSPACE/26msit001_A/jinhyeok/loop_TTT/lact/.cache_inductor_llm/ch/cchpefcfdipvezbjrjscwykey26h5zfu6peskfbivnoieaq7keml.py":69:20)
#loc68 = loc("/NHNHOME/WORKSPACE/26msit001_A/jinhyeok/loop_TTT/lact/.cache_inductor_llm/ch/cchpefcfdipvezbjrjscwykey26h5zfu6peskfbivnoieaq7keml.py":71:20)
#loc69 = loc("/NHNHOME/WORKSPACE/26msit001_A/jinhyeok/loop_TTT/lact/.cache_inductor_llm/ch/cchpefcfdipvezbjrjscwykey26h5zfu6peskfbivnoieaq7keml.py":72:20)
#loc70 = loc("/NHNHOME/WORKSPACE/26msit001_A/jinhyeok/loop_TTT/lact/.cache_inductor_llm/ch/cchpefcfdipvezbjrjscwykey26h5zfu6peskfbivnoieaq7keml.py":74:20)
#loc71 = loc("/NHNHOME/WORKSPACE/26msit001_A/jinhyeok/loop_TTT/lact/.cache_inductor_llm/ch/cchpefcfdipvezbjrjscwykey26h5zfu6peskfbivnoieaq7keml.py":76:20)
#loc72 = loc("/NHNHOME/WORKSPACE/26msit001_A/jinhyeok/loop_TTT/lact/.cache_inductor_llm/ch/cchpefcfdipvezbjrjscwykey26h5zfu6peskfbivnoieaq7keml.py":77:20)
#loc73 = loc("/NHNHOME/WORKSPACE/26msit001_A/jinhyeok/loop_TTT/lact/.cache_inductor_llm/ch/cchpefcfdipvezbjrjscwykey26h5zfu6peskfbivnoieaq7keml.py":78:21)
#loc74 = loc("/NHNHOME/WORKSPACE/26msit001_A/jinhyeok/loop_TTT/lact/.cache_inductor_llm/ch/cchpefcfdipvezbjrjscwykey26h5zfu6peskfbivnoieaq7keml.py":80:21)
#loc75 = loc("/NHNHOME/WORKSPACE/26msit001_A/jinhyeok/loop_TTT/lact/.cache_inductor_llm/ch/cchpefcfdipvezbjrjscwykey26h5zfu6peskfbivnoieaq7keml.py":83:21)
#loc76 = loc("/NHNHOME/WORKSPACE/26msit001_A/jinhyeok/loop_TTT/lact/.cache_inductor_llm/ch/cchpefcfdipvezbjrjscwykey26h5zfu6peskfbivnoieaq7keml.py":84:35)
#loc77 = loc("/NHNHOME/WORKSPACE/26msit001_A/jinhyeok/loop_TTT/lact/.cache_inductor_llm/ch/cchpefcfdipvezbjrjscwykey26h5zfu6peskfbivnoieaq7keml.py":85:20)
#loc78 = loc("/NHNHOME/WORKSPACE/26msit001_A/jinhyeok/loop_TTT/lact/.cache_inductor_llm/ch/cchpefcfdipvezbjrjscwykey26h5zfu6peskfbivnoieaq7keml.py":87:20)
#loc79 = loc("/NHNHOME/WORKSPACE/26msit001_A/jinhyeok/loop_TTT/lact/.cache_inductor_llm/ch/cchpefcfdipvezbjrjscwykey26h5zfu6peskfbivnoieaq7keml.py":89:20)
#loc80 = loc("/NHNHOME/WORKSPACE/26msit001_A/jinhyeok/loop_TTT/lact/.cache_inductor_llm/ch/cchpefcfdipvezbjrjscwykey26h5zfu6peskfbivnoieaq7keml.py":91:40)
#loc81 = loc("/NHNHOME/WORKSPACE/26msit001_A/jinhyeok/loop_TTT/lact/.cache_inductor_llm/ch/cchpefcfdipvezbjrjscwykey26h5zfu6peskfbivnoieaq7keml.py":92:25)
#loc82 = loc("/NHNHOME/WORKSPACE/26msit001_A/jinhyeok/loop_TTT/lact/.cache_inductor_llm/ch/cchpefcfdipvezbjrjscwykey26h5zfu6peskfbivnoieaq7keml.py":92:37)
#loc83 = loc("/NHNHOME/WORKSPACE/26msit001_A/jinhyeok/loop_TTT/lact/.cache_inductor_llm/ch/cchpefcfdipvezbjrjscwykey26h5zfu6peskfbivnoieaq7keml.py":93:40)
#loc84 = loc("/NHNHOME/WORKSPACE/26msit001_A/jinhyeok/loop_TTT/lact/.cache_inductor_llm/ch/cchpefcfdipvezbjrjscwykey26h5zfu6peskfbivnoieaq7keml.py":94:25)
#loc85 = loc("/NHNHOME/WORKSPACE/26msit001_A/jinhyeok/loop_TTT/lact/.cache_inductor_llm/ch/cchpefcfdipvezbjrjscwykey26h5zfu6peskfbivnoieaq7keml.py":94:37)
#loc86 = loc("/NHNHOME/WORKSPACE/26msit001_A/jinhyeok/loop_TTT/lact/.cache_inductor_llm/ch/cchpefcfdipvezbjrjscwykey26h5zfu6peskfbivnoieaq7keml.py":94:4)
#loc107 = loc("xoffset"(#loc2))
#loc108 = loc("xoffset"(#loc3))
#loc109 = loc("xindex"(#loc4))
#loc110 = loc("xindex"(#loc5))
#loc111 = loc("x2"(#loc6))
#loc112 = loc("x0"(#loc7))
#loc113 = loc("x1"(#loc8))
#loc114 = loc("x1"(#loc9))
#loc115 = loc("tmp0"(#loc10))
#loc116 = loc("tmp0"(#loc11))
#loc117 = loc("tmp1"(#loc12))
#loc118 = loc("tmp1"(#loc13))
#loc119 = loc("tmp3"(#loc14))
#loc120 = loc("tmp3"(#loc15))
#loc121 = loc("tmp3"(#loc16))
#loc122 = loc("tmp5"(#loc17))
#loc123 = loc("tmp5"(#loc18))
#loc124 = loc("tmp9"(#loc19))
#loc125 = loc("tmp9"(#loc20))
#loc126 = loc("tmp9"(#loc21))
#loc127 = loc("tmp12"(#loc22))
#loc128 = loc("tmp12"(#loc23))
#loc129 = loc("tmp12"(#loc24))
#loc130 = loc("tmp12"(#loc25))
#loc131 = loc("tmp12"(#loc26))
#loc132 = loc("tmp12"(#loc27))
#loc133 = loc("tmp12"(#loc28))
#loc134 = loc("tmp15"(#loc29))
#loc135 = loc("tmp15"(#loc30))
#loc136 = loc("tmp20"(#loc31))
#loc137 = loc("tmp20"(#loc32))
#loc138 = loc("tmp23"(#loc33))
#loc139 = loc("tmp23"(#loc34))
#loc140 = loc("tmp34"(#loc35))
#loc141 = loc("tmp34"(#loc36))
#loc142 = loc("tmp36"(#loc37))
#loc143 = loc("tmp36"(#loc38))
#loc144 = loc("tmp36"(#loc39))
#loc145 = loc("tmp38"(#loc40))
#loc146 = loc("tmp38"(#loc41))
#loc147 = loc("tmp41"(#loc42))
#loc148 = loc("tmp41"(#loc43))
#loc149 = loc("tmp41"(#loc44))
#loc150 = loc("tmp44"(#loc45))
#loc151 = loc("tmp44"(#loc46))
#loc152 = loc("tmp44"(#loc47))
#loc153 = loc("tmp47"(#loc48))
#loc154 = loc("tmp47"(#loc49))
#loc155 = loc("tmp51"(#loc50))
#loc156 = loc("tmp51"(#loc51))
#loc157 = loc("tmp53"(#loc52))
#loc158 = loc("tmp53"(#loc53))
#loc159 = loc("tmp2"(#loc54))
#loc160 = loc("tmp7"(#loc55))
#loc161 = loc("tmp8"(#loc56))
#loc162 = loc("tmp11"(#loc57))
#loc163 = loc("tmp14"(#loc58))
#loc164 = loc("tmp17"(#loc59))
#loc165 = loc("tmp18"(#loc60))
#loc166 = loc("tmp22"(#loc61))
#loc167 = loc("tmp26"(#loc62))
#loc168 = loc("tmp27"(#loc63))
#loc169 = loc("tmp28"(#loc64))
#loc170 = loc("tmp30"(#loc65))
#loc171 = loc("tmp32"(#loc66))
#loc172 = loc("tmp35"(#loc67))
#loc173 = loc("tmp39"(#loc68))
#loc174 = loc("tmp40"(#loc69))
#loc175 = loc("tmp43"(#loc70))
#loc176 = loc("tmp46"(#loc71))
#loc177 = loc("tmp48"(#loc72))
#loc178 = loc("tmp49"(#loc73))
#loc179 = loc("tmp52"(#loc74))
#loc180 = loc("tmp56"(#loc75))
#loc181 = loc("tmp57"(#loc76))
#loc182 = loc("tmp58"(#loc77))
#loc183 = loc("tmp60"(#loc78))
#loc184 = loc("tmp62"(#loc79))
