#loc = loc("/NHNHOME/WORKSPACE/26msit001_A/jinhyeok/loop_TTT/lact/.cache_inductor_llm/jf/cjf2rymzbzb3gfpmrbchguz4wgt47u5kfubzlu5to7svh6sy6zpl.py":18:0)
#loc127 = loc("in_out_ptr0"(#loc))
#loc128 = loc("in_ptr0"(#loc))
#loc129 = loc("in_ptr1"(#loc))
#loc130 = loc("in_ptr2"(#loc))
#loc131 = loc("in_ptr3"(#loc))
#loc132 = loc("in_ptr4"(#loc))
#loc133 = loc("in_ptr5"(#loc))
#loc134 = loc("in_ptr6"(#loc))
#loc135 = loc("in_ptr7"(#loc))
#loc136 = loc("in_ptr8"(#loc))
#loc137 = loc("in_ptr9"(#loc))
#loc138 = loc("in_ptr10"(#loc))
#loc139 = loc("in_ptr11"(#loc))
#loc140 = loc("in_ptr12"(#loc))
#loc141 = loc("in_ptr13"(#loc))
#loc142 = loc("ynumel"(#loc))
#loc143 = loc("xnumel"(#loc))
module {
  tt.func public @triton_poi_fused__to_copy_add_mul_slice_slice_backward_transpose_43(%in_out_ptr0: !tt.ptr<f32> {tt.divisibility = 16 : i32} loc("in_out_ptr0"(#loc)), %in_ptr0: !tt.ptr<bf16> {tt.divisibility = 16 : i32} loc("in_ptr0"(#loc)), %in_ptr1: !tt.ptr<f32> loc("in_ptr1"(#loc)), %in_ptr2: !tt.ptr<bf16> {tt.divisibility = 16 : i32} loc("in_ptr2"(#loc)), %in_ptr3: !tt.ptr<f32> {tt.divisibility = 16 : i32} loc("in_ptr3"(#loc)), %in_ptr4: !tt.ptr<bf16> {tt.divisibility = 16 : i32} loc("in_ptr4"(#loc)), %in_ptr5: !tt.ptr<bf16> {tt.divisibility = 16 : i32} loc("in_ptr5"(#loc)), %in_ptr6: !tt.ptr<bf16> {tt.divisibility = 16 : i32} loc("in_ptr6"(#loc)), %in_ptr7: !tt.ptr<bf16> {tt.divisibility = 16 : i32} loc("in_ptr7"(#loc)), %in_ptr8: !tt.ptr<bf16> {tt.divisibility = 16 : i32} loc("in_ptr8"(#loc)), %in_ptr9: !tt.ptr<bf16> {tt.divisibility = 16 : i32} loc("in_ptr9"(#loc)), %in_ptr10: !tt.ptr<bf16> {tt.divisibility = 16 : i32} loc("in_ptr10"(#loc)), %in_ptr11: !tt.ptr<bf16> {tt.divisibility = 16 : i32} loc("in_ptr11"(#loc)), %in_ptr12: !tt.ptr<bf16> {tt.divisibility = 16 : i32} loc("in_ptr12"(#loc)), %in_ptr13: !tt.ptr<bf16> {tt.divisibility = 16 : i32} loc("in_ptr13"(#loc)), %ynumel: i32 {tt.divisibility = 16 : i32} loc("ynumel"(#loc)), %xnumel: i32 {tt.divisibility = 16 : i32} loc("xnumel"(#loc))) attributes {noinline = false} {
    %cst = arith.constant dense<0.000000e+00> : tensor<256x16xbf16> loc(#loc1)
    %cst_0 = arith.constant dense<-1024> : tensor<256x1xi32> loc(#loc1)
    %cst_1 = arith.constant dense<-196608> : tensor<1x16xi32> loc(#loc1)
    %cst_2 = arith.constant dense<1024> : tensor<256x1xi64> loc(#loc1)
    %cst_3 = arith.constant dense<1024> : tensor<1x16xi32> loc(#loc1)
    %cst_4 = arith.constant dense<-2048> : tensor<256x1xi32> loc(#loc1)
    %cst_5 = arith.constant dense<3> : tensor<256x1xi32> loc(#loc1)
    %cst_6 = arith.constant dense<0.000000e+00> : tensor<256x16xf32> loc(#loc1)
    %cst_7 = arith.constant dense<196608> : tensor<256x1xi32> loc(#loc1)
    %cst_8 = arith.constant dense<192> : tensor<256x1xi32> loc(#loc1)
    %cst_9 = arith.constant dense<-393216> : tensor<1x16xi32> loc(#loc1)
    %tmp4 = arith.constant dense<3072> : tensor<256x1xi64> loc(#loc144)
    %cst_10 = arith.constant dense<2048> : tensor<256x1xi64> loc(#loc1)
    %cst_11 = arith.constant dense<4096> : tensor<256x1xi32> loc(#loc1)
    %xmask = arith.constant dense<192> : tensor<1x16xi32> loc(#loc145)
    %c16_i32 = arith.constant 16 : i32 loc(#loc1)
    %ymask = arith.constant dense<131072> : tensor<256x1xi32> loc(#loc146)
    %c256_i32 = arith.constant 256 : i32 loc(#loc1)
    %yoffset = tt.get_program_id y : i32 loc(#loc147)
    %yoffset_12 = tt.get_program_id z : i32 loc(#loc148)
    %yoffset_13 = tt.get_num_programs y : i32 loc(#loc149)
    %yoffset_14 = arith.muli %yoffset_12, %yoffset_13 : i32 loc(#loc150)
    %yoffset_15 = arith.addi %yoffset, %yoffset_14 : i32 loc(#loc151)
    %yoffset_16 = arith.muli %yoffset_15, %c256_i32 : i32 loc(#loc152)
    %yindex = tt.make_range {end = 256 : i32, start = 0 : i32} : tensor<256xi32> loc(#loc153)
    %yindex_17 = tt.expand_dims %yindex {axis = 1 : i32} : tensor<256xi32> -> tensor<256x1xi32> loc(#loc154)
    %yindex_18 = tt.splat %yoffset_16 : i32 -> tensor<256x1xi32> loc(#loc155)
    %yindex_19 = arith.addi %yindex_18, %yindex_17 : tensor<256x1xi32> loc(#loc155)
    %ymask_20 = arith.cmpi slt, %yindex_19, %ymask : tensor<256x1xi32> loc(#loc146)
    %xoffset = tt.get_program_id x : i32 loc(#loc156)
    %xoffset_21 = arith.muli %xoffset, %c16_i32 : i32 loc(#loc157)
    %xindex = tt.make_range {end = 16 : i32, start = 0 : i32} : tensor<16xi32> loc(#loc158)
    %xindex_22 = tt.expand_dims %xindex {axis = 0 : i32} : tensor<16xi32> -> tensor<1x16xi32> loc(#loc159)
    %xindex_23 = tt.splat %xoffset_21 : i32 -> tensor<1x16xi32> loc(#loc160)
    %xindex_24 = arith.addi %xindex_23, %xindex_22 : tensor<1x16xi32> loc(#loc160)
    %xmask_25 = arith.cmpi slt, %xindex_24, %xmask : tensor<1x16xi32> loc(#loc145)
    %y0 = arith.remsi %yindex_19, %cst_11 : tensor<256x1xi32> loc(#loc161)
    %y1 = arith.divsi %yindex_19, %cst_11 : tensor<256x1xi32> loc(#loc162)
    %tmp2 = arith.extsi %y0 : tensor<256x1xi32> to tensor<256x1xi64> loc(#loc163)
    %tmp2_26 = arith.cmpi sge, %tmp2, %cst_10 : tensor<256x1xi64> loc(#loc163)
    %tmp4_27 = arith.cmpi slt, %tmp2, %tmp4 : tensor<256x1xi64> loc(#loc144)
    %tmp5 = arith.andi %tmp2_26, %tmp4_27 : tensor<256x1xi1> loc(#loc164)
    %tmp6 = arith.addi %xindex_24, %cst_9 : tensor<1x16xi32> loc(#loc165)
    %tmp6_28 = arith.muli %y0, %cst_8 : tensor<256x1xi32> loc(#loc166)
    %tmp6_29 = tt.broadcast %tmp6 : tensor<1x16xi32> -> tensor<256x16xi32> loc(#loc167)
    %tmp6_30 = tt.broadcast %tmp6_28 : tensor<256x1xi32> -> tensor<256x16xi32> loc(#loc167)
    %tmp6_31 = arith.addi %tmp6_29, %tmp6_30 : tensor<256x16xi32> loc(#loc167)
    %tmp6_32 = arith.muli %y1, %cst_7 : tensor<256x1xi32> loc(#loc168)
    %tmp6_33 = tt.broadcast %tmp6_32 : tensor<256x1xi32> -> tensor<256x16xi32> loc(#loc169)
    %tmp6_34 = arith.addi %tmp6_31, %tmp6_33 : tensor<256x16xi32> loc(#loc169)
    %tmp6_35 = tt.splat %in_ptr0 : !tt.ptr<bf16> -> tensor<256x16x!tt.ptr<bf16>> loc(#loc170)
    %tmp6_36 = tt.addptr %tmp6_35, %tmp6_34 : tensor<256x16x!tt.ptr<bf16>>, tensor<256x16xi32> loc(#loc170)
    %tmp6_37 = tt.broadcast %tmp5 : tensor<256x1xi1> -> tensor<256x16xi1> loc(#loc171)
    %tmp6_38 = tt.broadcast %xmask_25 : tensor<1x16xi1> -> tensor<256x16xi1> loc(#loc171)
    %tmp6_39 = arith.andi %tmp6_37, %tmp6_38 : tensor<256x16xi1> loc(#loc171)
    %tmp6_40 = tt.broadcast %ymask_20 : tensor<256x1xi1> -> tensor<256x16xi1> loc(#loc172)
    %tmp6_41 = arith.andi %tmp6_39, %tmp6_40 : tensor<256x16xi1> loc(#loc172)
    %tmp6_42 = tt.load %tmp6_36, %tmp6_41, %cst evictionPolicy = evict_last : tensor<256x16x!tt.ptr<bf16>> loc(#loc173)
    %tmp6_43 = arith.extf %tmp6_42 : tensor<256x16xbf16> to tensor<256x16xf32> loc(#loc174)
    %tmp8 = arith.muli %yindex_19, %cst_5 : tensor<256x1xi32> loc(#loc175)
    %tmp8_44 = tt.splat %in_ptr1 : !tt.ptr<f32> -> tensor<256x1x!tt.ptr<f32>> loc(#loc176)
    %tmp8_45 = tt.addptr %tmp8_44, %tmp8 : tensor<256x1x!tt.ptr<f32>>, tensor<256x1xi32> loc(#loc176)
    %tmp8_46 = tt.broadcast %tmp8_45 : tensor<256x1x!tt.ptr<f32>> -> tensor<256x16x!tt.ptr<f32>> loc(#loc176)
    %tmp8_47 = tt.load %tmp8_46, %tmp6_41, %cst_6 evictionPolicy = evict_last : tensor<256x16x!tt.ptr<f32>> loc(#loc177)
    %tmp9 = arith.mulf %tmp6_43, %tmp8_47 : tensor<256x16xf32> loc(#loc178)
    %tmp10 = tt.splat %in_ptr2 : !tt.ptr<bf16> -> tensor<256x16x!tt.ptr<bf16>> loc(#loc179)
    %tmp10_48 = tt.addptr %tmp10, %tmp6_34 : tensor<256x16x!tt.ptr<bf16>>, tensor<256x16xi32> loc(#loc179)
    %tmp10_49 = tt.load %tmp10_48, %tmp6_41, %cst evictionPolicy = evict_last : tensor<256x16x!tt.ptr<bf16>> loc(#loc180)
    %tmp10_50 = arith.extf %tmp10_49 : tensor<256x16xbf16> to tensor<256x16xf32> loc(#loc181)
    %tmp12 = tt.splat %in_ptr3 : !tt.ptr<f32> -> tensor<256x1x!tt.ptr<f32>> loc(#loc182)
    %tmp12_51 = tt.addptr %tmp12, %tmp8 : tensor<256x1x!tt.ptr<f32>>, tensor<256x1xi32> loc(#loc182)
    %tmp12_52 = tt.broadcast %tmp12_51 : tensor<256x1x!tt.ptr<f32>> -> tensor<256x16x!tt.ptr<f32>> loc(#loc182)
    %tmp12_53 = tt.load %tmp12_52, %tmp6_41, %cst_6 evictionPolicy = evict_last : tensor<256x16x!tt.ptr<f32>> loc(#loc183)
    %tmp13 = arith.mulf %tmp10_50, %tmp12_53 : tensor<256x16xf32> loc(#loc184)
    %tmp14 = arith.addf %tmp9, %tmp13 : tensor<256x16xf32> loc(#loc185)
    %tmp15 = arith.addi %y0, %cst_4 : tensor<256x1xi32> loc(#loc186)
    %tmp15_54 = arith.muli %xindex_24, %cst_3 : tensor<1x16xi32> loc(#loc187)
    %tmp15_55 = tt.broadcast %tmp15 : tensor<256x1xi32> -> tensor<256x16xi32> loc(#loc188)
    %tmp15_56 = tt.broadcast %tmp15_54 : tensor<1x16xi32> -> tensor<256x16xi32> loc(#loc188)
    %tmp15_57 = arith.addi %tmp15_55, %tmp15_56 : tensor<256x16xi32> loc(#loc188)
    %tmp15_58 = arith.addi %tmp15_57, %tmp6_33 : tensor<256x16xi32> loc(#loc189)
    %tmp15_59 = tt.splat %in_ptr4 : !tt.ptr<bf16> -> tensor<256x16x!tt.ptr<bf16>> loc(#loc190)
    %tmp15_60 = tt.addptr %tmp15_59, %tmp15_58 : tensor<256x16x!tt.ptr<bf16>>, tensor<256x16xi32> loc(#loc190)
    %tmp15_61 = tt.load %tmp15_60, %tmp6_41, %cst evictionPolicy = evict_last : tensor<256x16x!tt.ptr<bf16>> loc(#loc191)
    %tmp15_62 = arith.extf %tmp15_61 : tensor<256x16xbf16> to tensor<256x16xf32> loc(#loc192)
    %tmp17 = arith.addf %tmp14, %tmp15_62 : tensor<256x16xf32> loc(#loc193)
    %tmp18 = tt.splat %in_ptr5 : !tt.ptr<bf16> -> tensor<256x16x!tt.ptr<bf16>> loc(#loc194)
    %tmp18_63 = tt.addptr %tmp18, %tmp15_58 : tensor<256x16x!tt.ptr<bf16>>, tensor<256x16xi32> loc(#loc194)
    %tmp18_64 = tt.load %tmp18_63, %tmp6_41, %cst evictionPolicy = evict_last : tensor<256x16x!tt.ptr<bf16>> loc(#loc195)
    %tmp18_65 = arith.extf %tmp18_64 : tensor<256x16xbf16> to tensor<256x16xf32> loc(#loc196)
    %tmp20 = arith.addf %tmp17, %tmp18_65 : tensor<256x16xf32> loc(#loc197)
    %tmp22 = arith.select %tmp6_37, %tmp20, %cst_6 : tensor<256x16xi1>, tensor<256x16xf32> loc(#loc198)
    %tmp24 = arith.select %tmp6_37, %tmp22, %cst_6 : tensor<256x16xi1>, tensor<256x16xf32> loc(#loc199)
    %tmp26 = arith.cmpi sge, %tmp2, %cst_2 : tensor<256x1xi64> loc(#loc200)
    %tmp27 = arith.cmpi slt, %tmp2, %cst_10 : tensor<256x1xi64> loc(#loc201)
    %tmp28 = arith.andi %tmp26, %tmp27 : tensor<256x1xi1> loc(#loc202)
    %tmp29 = arith.addi %xindex_24, %cst_1 : tensor<1x16xi32> loc(#loc203)
    %tmp29_66 = tt.broadcast %tmp29 : tensor<1x16xi32> -> tensor<256x16xi32> loc(#loc204)
    %tmp29_67 = arith.addi %tmp29_66, %tmp6_30 : tensor<256x16xi32> loc(#loc204)
    %tmp29_68 = arith.addi %tmp29_67, %tmp6_33 : tensor<256x16xi32> loc(#loc205)
    %tmp29_69 = tt.splat %in_ptr6 : !tt.ptr<bf16> -> tensor<256x16x!tt.ptr<bf16>> loc(#loc206)
    %tmp29_70 = tt.addptr %tmp29_69, %tmp29_68 : tensor<256x16x!tt.ptr<bf16>>, tensor<256x16xi32> loc(#loc206)
    %tmp29_71 = tt.broadcast %tmp28 : tensor<256x1xi1> -> tensor<256x16xi1> loc(#loc207)
    %tmp29_72 = arith.andi %tmp29_71, %tmp6_38 : tensor<256x16xi1> loc(#loc207)
    %tmp29_73 = arith.andi %tmp29_72, %tmp6_40 : tensor<256x16xi1> loc(#loc208)
    %tmp29_74 = tt.load %tmp29_70, %tmp29_73, %cst evictionPolicy = evict_last : tensor<256x16x!tt.ptr<bf16>> loc(#loc209)
    %tmp29_75 = arith.extf %tmp29_74 : tensor<256x16xbf16> to tensor<256x16xf32> loc(#loc210)
    %tmp31 = tt.load %tmp8_46, %tmp29_73, %cst_6 evictionPolicy = evict_last : tensor<256x16x!tt.ptr<f32>> loc(#loc211)
    %tmp32 = arith.mulf %tmp29_75, %tmp31 : tensor<256x16xf32> loc(#loc212)
    %tmp33 = tt.splat %in_ptr7 : !tt.ptr<bf16> -> tensor<256x16x!tt.ptr<bf16>> loc(#loc213)
    %tmp33_76 = tt.addptr %tmp33, %tmp29_68 : tensor<256x16x!tt.ptr<bf16>>, tensor<256x16xi32> loc(#loc213)
    %tmp33_77 = tt.load %tmp33_76, %tmp29_73, %cst evictionPolicy = evict_last : tensor<256x16x!tt.ptr<bf16>> loc(#loc214)
    %tmp33_78 = arith.extf %tmp33_77 : tensor<256x16xbf16> to tensor<256x16xf32> loc(#loc215)
    %tmp35 = tt.load %tmp12_52, %tmp29_73, %cst_6 evictionPolicy = evict_last : tensor<256x16x!tt.ptr<f32>> loc(#loc216)
    %tmp36 = arith.mulf %tmp33_78, %tmp35 : tensor<256x16xf32> loc(#loc217)
    %tmp37 = arith.addf %tmp32, %tmp36 : tensor<256x16xf32> loc(#loc218)
    %tmp38 = arith.addi %y0, %cst_0 : tensor<256x1xi32> loc(#loc219)
    %tmp38_79 = tt.broadcast %tmp38 : tensor<256x1xi32> -> tensor<256x16xi32> loc(#loc220)
    %tmp38_80 = arith.addi %tmp38_79, %tmp15_56 : tensor<256x16xi32> loc(#loc220)
    %tmp38_81 = arith.addi %tmp38_80, %tmp6_33 : tensor<256x16xi32> loc(#loc221)
    %tmp38_82 = tt.splat %in_ptr8 : !tt.ptr<bf16> -> tensor<256x16x!tt.ptr<bf16>> loc(#loc222)
    %tmp38_83 = tt.addptr %tmp38_82, %tmp38_81 : tensor<256x16x!tt.ptr<bf16>>, tensor<256x16xi32> loc(#loc222)
    %tmp38_84 = tt.load %tmp38_83, %tmp29_73, %cst evictionPolicy = evict_last : tensor<256x16x!tt.ptr<bf16>> loc(#loc223)
    %tmp38_85 = arith.extf %tmp38_84 : tensor<256x16xbf16> to tensor<256x16xf32> loc(#loc224)
    %tmp40 = arith.addf %tmp37, %tmp38_85 : tensor<256x16xf32> loc(#loc225)
    %tmp41 = tt.splat %in_ptr9 : !tt.ptr<bf16> -> tensor<256x16x!tt.ptr<bf16>> loc(#loc226)
    %tmp41_86 = tt.addptr %tmp41, %tmp38_81 : tensor<256x16x!tt.ptr<bf16>>, tensor<256x16xi32> loc(#loc226)
    %tmp41_87 = tt.load %tmp41_86, %tmp29_73, %cst evictionPolicy = evict_last : tensor<256x16x!tt.ptr<bf16>> loc(#loc227)
    %tmp41_88 = arith.extf %tmp41_87 : tensor<256x16xbf16> to tensor<256x16xf32> loc(#loc228)
    %tmp43 = arith.addf %tmp40, %tmp41_88 : tensor<256x16xf32> loc(#loc229)
    %tmp45 = arith.select %tmp29_71, %tmp43, %cst_6 : tensor<256x16xi1>, tensor<256x16xf32> loc(#loc230)
    %tmp46 = arith.select %tmp29_71, %tmp45, %cst_6 : tensor<256x16xi1>, tensor<256x16xf32> loc(#loc231)
    %tmp47 = arith.addf %tmp24, %tmp46 : tensor<256x16xf32> loc(#loc232)
    %tmp48 = arith.cmpi slt, %tmp2, %cst_2 : tensor<256x1xi64> loc(#loc233)
    %tmp49 = tt.broadcast %xindex_24 : tensor<1x16xi32> -> tensor<256x16xi32> loc(#loc234)
    %tmp49_89 = arith.addi %tmp49, %tmp6_30 : tensor<256x16xi32> loc(#loc234)
    %tmp49_90 = arith.addi %tmp49_89, %tmp6_33 : tensor<256x16xi32> loc(#loc235)
    %tmp49_91 = tt.splat %in_ptr10 : !tt.ptr<bf16> -> tensor<256x16x!tt.ptr<bf16>> loc(#loc236)
    %tmp49_92 = tt.addptr %tmp49_91, %tmp49_90 : tensor<256x16x!tt.ptr<bf16>>, tensor<256x16xi32> loc(#loc236)
    %tmp49_93 = tt.broadcast %tmp48 : tensor<256x1xi1> -> tensor<256x16xi1> loc(#loc237)
    %tmp49_94 = arith.andi %tmp49_93, %tmp6_38 : tensor<256x16xi1> loc(#loc237)
    %tmp49_95 = arith.andi %tmp49_94, %tmp6_40 : tensor<256x16xi1> loc(#loc238)
    %tmp49_96 = tt.load %tmp49_92, %tmp49_95, %cst evictionPolicy = evict_last : tensor<256x16x!tt.ptr<bf16>> loc(#loc239)
    %tmp49_97 = arith.extf %tmp49_96 : tensor<256x16xbf16> to tensor<256x16xf32> loc(#loc240)
    %tmp51 = tt.load %tmp8_46, %tmp49_95, %cst_6 evictionPolicy = evict_last : tensor<256x16x!tt.ptr<f32>> loc(#loc241)
    %tmp52 = arith.mulf %tmp49_97, %tmp51 : tensor<256x16xf32> loc(#loc242)
    %tmp53 = tt.splat %in_ptr11 : !tt.ptr<bf16> -> tensor<256x16x!tt.ptr<bf16>> loc(#loc243)
    %tmp53_98 = tt.addptr %tmp53, %tmp49_90 : tensor<256x16x!tt.ptr<bf16>>, tensor<256x16xi32> loc(#loc243)
    %tmp53_99 = tt.load %tmp53_98, %tmp49_95, %cst evictionPolicy = evict_last : tensor<256x16x!tt.ptr<bf16>> loc(#loc244)
    %tmp53_100 = arith.extf %tmp53_99 : tensor<256x16xbf16> to tensor<256x16xf32> loc(#loc245)
    %tmp55 = tt.load %tmp12_52, %tmp49_95, %cst_6 evictionPolicy = evict_last : tensor<256x16x!tt.ptr<f32>> loc(#loc246)
    %tmp56 = arith.mulf %tmp53_100, %tmp55 : tensor<256x16xf32> loc(#loc247)
    %tmp57 = arith.addf %tmp52, %tmp56 : tensor<256x16xf32> loc(#loc248)
    %tmp58 = tt.broadcast %y0 : tensor<256x1xi32> -> tensor<256x16xi32> loc(#loc249)
    %tmp58_101 = arith.addi %tmp58, %tmp15_56 : tensor<256x16xi32> loc(#loc249)
    %tmp58_102 = arith.addi %tmp58_101, %tmp6_33 : tensor<256x16xi32> loc(#loc250)
    %tmp58_103 = tt.splat %in_ptr12 : !tt.ptr<bf16> -> tensor<256x16x!tt.ptr<bf16>> loc(#loc251)
    %tmp58_104 = tt.addptr %tmp58_103, %tmp58_102 : tensor<256x16x!tt.ptr<bf16>>, tensor<256x16xi32> loc(#loc251)
    %tmp58_105 = tt.load %tmp58_104, %tmp49_95, %cst evictionPolicy = evict_last : tensor<256x16x!tt.ptr<bf16>> loc(#loc252)
    %tmp58_106 = arith.extf %tmp58_105 : tensor<256x16xbf16> to tensor<256x16xf32> loc(#loc253)
    %tmp60 = arith.addf %tmp57, %tmp58_106 : tensor<256x16xf32> loc(#loc254)
    %tmp61 = tt.splat %in_ptr13 : !tt.ptr<bf16> -> tensor<256x16x!tt.ptr<bf16>> loc(#loc255)
    %tmp61_107 = tt.addptr %tmp61, %tmp58_102 : tensor<256x16x!tt.ptr<bf16>>, tensor<256x16xi32> loc(#loc255)
    %tmp61_108 = tt.load %tmp61_107, %tmp49_95, %cst evictionPolicy = evict_last : tensor<256x16x!tt.ptr<bf16>> loc(#loc256)
    %tmp61_109 = arith.extf %tmp61_108 : tensor<256x16xbf16> to tensor<256x16xf32> loc(#loc257)
    %tmp63 = arith.addf %tmp60, %tmp61_109 : tensor<256x16xf32> loc(#loc258)
    %tmp65 = arith.select %tmp49_93, %tmp63, %cst_6 : tensor<256x16xi1>, tensor<256x16xf32> loc(#loc259)
    %tmp66 = arith.select %tmp49_93, %tmp65, %cst_6 : tensor<256x16xi1>, tensor<256x16xf32> loc(#loc260)
    %tmp67 = arith.addf %tmp47, %tmp66 : tensor<256x16xf32> loc(#loc261)
    gpu.barrier loc(#loc120)
    %0 = arith.muli %yindex_19, %cst_8 : tensor<256x1xi32> loc(#loc121)
    %1 = tt.broadcast %0 : tensor<256x1xi32> -> tensor<256x16xi32> loc(#loc122)
    %2 = arith.addi %tmp49, %1 : tensor<256x16xi32> loc(#loc122)
    %3 = tt.splat %in_out_ptr0 : !tt.ptr<f32> -> tensor<256x16x!tt.ptr<f32>> loc(#loc123)
    %4 = tt.addptr %3, %2 : tensor<256x16x!tt.ptr<f32>>, tensor<256x16xi32> loc(#loc123)
    %5 = arith.andi %tmp6_38, %tmp6_40 : tensor<256x16xi1> loc(#loc124)
    tt.store %4, %tmp67, %5 : tensor<256x16x!tt.ptr<f32>> loc(#loc125)
    tt.return loc(#loc126)
  } loc(#loc)
} loc(#loc)
#loc1 = loc(unknown)
#loc2 = loc("/NHNHOME/WORKSPACE/26msit001_A/jinhyeok/loop_TTT/lact/.cache_inductor_llm/jf/cjf2rymzbzb3gfpmrbchguz4wgt47u5kfubzlu5to7svh6sy6zpl.py":35:18)
#loc3 = loc("/NHNHOME/WORKSPACE/26msit001_A/jinhyeok/loop_TTT/lact/.cache_inductor_llm/jf/cjf2rymzbzb3gfpmrbchguz4wgt47u5kfubzlu5to7svh6sy6zpl.py":26:21)
#loc4 = loc("/NHNHOME/WORKSPACE/26msit001_A/jinhyeok/loop_TTT/lact/.cache_inductor_llm/jf/cjf2rymzbzb3gfpmrbchguz4wgt47u5kfubzlu5to7svh6sy6zpl.py":23:21)
#loc5 = loc("/NHNHOME/WORKSPACE/26msit001_A/jinhyeok/loop_TTT/lact/.cache_inductor_llm/jf/cjf2rymzbzb3gfpmrbchguz4wgt47u5kfubzlu5to7svh6sy6zpl.py":21:29)
#loc6 = loc("/NHNHOME/WORKSPACE/26msit001_A/jinhyeok/loop_TTT/lact/.cache_inductor_llm/jf/cjf2rymzbzb3gfpmrbchguz4wgt47u5kfubzlu5to7svh6sy6zpl.py":21:48)
#loc7 = loc("/NHNHOME/WORKSPACE/26msit001_A/jinhyeok/loop_TTT/lact/.cache_inductor_llm/jf/cjf2rymzbzb3gfpmrbchguz4wgt47u5kfubzlu5to7svh6sy6zpl.py":21:69)
#loc8 = loc("/NHNHOME/WORKSPACE/26msit001_A/jinhyeok/loop_TTT/lact/.cache_inductor_llm/jf/cjf2rymzbzb3gfpmrbchguz4wgt47u5kfubzlu5to7svh6sy6zpl.py":21:53)
#loc9 = loc("/NHNHOME/WORKSPACE/26msit001_A/jinhyeok/loop_TTT/lact/.cache_inductor_llm/jf/cjf2rymzbzb3gfpmrbchguz4wgt47u5kfubzlu5to7svh6sy6zpl.py":21:34)
#loc10 = loc("/NHNHOME/WORKSPACE/26msit001_A/jinhyeok/loop_TTT/lact/.cache_inductor_llm/jf/cjf2rymzbzb3gfpmrbchguz4wgt47u5kfubzlu5to7svh6sy6zpl.py":21:75)
#loc11 = loc("/NHNHOME/WORKSPACE/26msit001_A/jinhyeok/loop_TTT/lact/.cache_inductor_llm/jf/cjf2rymzbzb3gfpmrbchguz4wgt47u5kfubzlu5to7svh6sy6zpl.py":22:36)
#loc12 = loc("/NHNHOME/WORKSPACE/26msit001_A/jinhyeok/loop_TTT/lact/.cache_inductor_llm/jf/cjf2rymzbzb3gfpmrbchguz4wgt47u5kfubzlu5to7svh6sy6zpl.py":22:44)
#loc13 = loc("/NHNHOME/WORKSPACE/26msit001_A/jinhyeok/loop_TTT/lact/.cache_inductor_llm/jf/cjf2rymzbzb3gfpmrbchguz4wgt47u5kfubzlu5to7svh6sy6zpl.py":22:23)
#loc14 = loc("/NHNHOME/WORKSPACE/26msit001_A/jinhyeok/loop_TTT/lact/.cache_inductor_llm/jf/cjf2rymzbzb3gfpmrbchguz4wgt47u5kfubzlu5to7svh6sy6zpl.py":24:28)
#loc15 = loc("/NHNHOME/WORKSPACE/26msit001_A/jinhyeok/loop_TTT/lact/.cache_inductor_llm/jf/cjf2rymzbzb3gfpmrbchguz4wgt47u5kfubzlu5to7svh6sy6zpl.py":24:33)
#loc16 = loc("/NHNHOME/WORKSPACE/26msit001_A/jinhyeok/loop_TTT/lact/.cache_inductor_llm/jf/cjf2rymzbzb3gfpmrbchguz4wgt47u5kfubzlu5to7svh6sy6zpl.py":25:36)
#loc17 = loc("/NHNHOME/WORKSPACE/26msit001_A/jinhyeok/loop_TTT/lact/.cache_inductor_llm/jf/cjf2rymzbzb3gfpmrbchguz4wgt47u5kfubzlu5to7svh6sy6zpl.py":25:44)
#loc18 = loc("/NHNHOME/WORKSPACE/26msit001_A/jinhyeok/loop_TTT/lact/.cache_inductor_llm/jf/cjf2rymzbzb3gfpmrbchguz4wgt47u5kfubzlu5to7svh6sy6zpl.py":25:23)
#loc19 = loc("/NHNHOME/WORKSPACE/26msit001_A/jinhyeok/loop_TTT/lact/.cache_inductor_llm/jf/cjf2rymzbzb3gfpmrbchguz4wgt47u5kfubzlu5to7svh6sy6zpl.py":27:19)
#loc20 = loc("/NHNHOME/WORKSPACE/26msit001_A/jinhyeok/loop_TTT/lact/.cache_inductor_llm/jf/cjf2rymzbzb3gfpmrbchguz4wgt47u5kfubzlu5to7svh6sy6zpl.py":29:19)
#loc21 = loc("/NHNHOME/WORKSPACE/26msit001_A/jinhyeok/loop_TTT/lact/.cache_inductor_llm/jf/cjf2rymzbzb3gfpmrbchguz4wgt47u5kfubzlu5to7svh6sy6zpl.py":33:19)
#loc22 = loc("/NHNHOME/WORKSPACE/26msit001_A/jinhyeok/loop_TTT/lact/.cache_inductor_llm/jf/cjf2rymzbzb3gfpmrbchguz4wgt47u5kfubzlu5to7svh6sy6zpl.py":36:18)
#loc23 = loc("/NHNHOME/WORKSPACE/26msit001_A/jinhyeok/loop_TTT/lact/.cache_inductor_llm/jf/cjf2rymzbzb3gfpmrbchguz4wgt47u5kfubzlu5to7svh6sy6zpl.py":37:42)
#loc24 = loc("/NHNHOME/WORKSPACE/26msit001_A/jinhyeok/loop_TTT/lact/.cache_inductor_llm/jf/cjf2rymzbzb3gfpmrbchguz4wgt47u5kfubzlu5to7svh6sy6zpl.py":37:51)
#loc25 = loc("/NHNHOME/WORKSPACE/26msit001_A/jinhyeok/loop_TTT/lact/.cache_inductor_llm/jf/cjf2rymzbzb3gfpmrbchguz4wgt47u5kfubzlu5to7svh6sy6zpl.py":37:47)
#loc26 = loc("/NHNHOME/WORKSPACE/26msit001_A/jinhyeok/loop_TTT/lact/.cache_inductor_llm/jf/cjf2rymzbzb3gfpmrbchguz4wgt47u5kfubzlu5to7svh6sy6zpl.py":37:63)
#loc27 = loc("/NHNHOME/WORKSPACE/26msit001_A/jinhyeok/loop_TTT/lact/.cache_inductor_llm/jf/cjf2rymzbzb3gfpmrbchguz4wgt47u5kfubzlu5to7svh6sy6zpl.py":37:56)
#loc28 = loc("/NHNHOME/WORKSPACE/26msit001_A/jinhyeok/loop_TTT/lact/.cache_inductor_llm/jf/cjf2rymzbzb3gfpmrbchguz4wgt47u5kfubzlu5to7svh6sy6zpl.py":37:30)
#loc29 = loc("/NHNHOME/WORKSPACE/26msit001_A/jinhyeok/loop_TTT/lact/.cache_inductor_llm/jf/cjf2rymzbzb3gfpmrbchguz4wgt47u5kfubzlu5to7svh6sy6zpl.py":37:75)
#loc30 = loc("/NHNHOME/WORKSPACE/26msit001_A/jinhyeok/loop_TTT/lact/.cache_inductor_llm/jf/cjf2rymzbzb3gfpmrbchguz4wgt47u5kfubzlu5to7svh6sy6zpl.py":37:83)
#loc31 = loc("/NHNHOME/WORKSPACE/26msit001_A/jinhyeok/loop_TTT/lact/.cache_inductor_llm/jf/cjf2rymzbzb3gfpmrbchguz4wgt47u5kfubzlu5to7svh6sy6zpl.py":37:68)
#loc32 = loc("/NHNHOME/WORKSPACE/26msit001_A/jinhyeok/loop_TTT/lact/.cache_inductor_llm/jf/cjf2rymzbzb3gfpmrbchguz4wgt47u5kfubzlu5to7svh6sy6zpl.py":37:134)
#loc33 = loc("/NHNHOME/WORKSPACE/26msit001_A/jinhyeok/loop_TTT/lact/.cache_inductor_llm/jf/cjf2rymzbzb3gfpmrbchguz4wgt47u5kfubzlu5to7svh6sy6zpl.py":39:48)
#loc34 = loc("/NHNHOME/WORKSPACE/26msit001_A/jinhyeok/loop_TTT/lact/.cache_inductor_llm/jf/cjf2rymzbzb3gfpmrbchguz4wgt47u5kfubzlu5to7svh6sy6zpl.py":39:30)
#loc35 = loc("/NHNHOME/WORKSPACE/26msit001_A/jinhyeok/loop_TTT/lact/.cache_inductor_llm/jf/cjf2rymzbzb3gfpmrbchguz4wgt47u5kfubzlu5to7svh6sy6zpl.py":39:72)
#loc36 = loc("/NHNHOME/WORKSPACE/26msit001_A/jinhyeok/loop_TTT/lact/.cache_inductor_llm/jf/cjf2rymzbzb3gfpmrbchguz4wgt47u5kfubzlu5to7svh6sy6zpl.py":40:18)
#loc37 = loc("/NHNHOME/WORKSPACE/26msit001_A/jinhyeok/loop_TTT/lact/.cache_inductor_llm/jf/cjf2rymzbzb3gfpmrbchguz4wgt47u5kfubzlu5to7svh6sy6zpl.py":41:31)
#loc38 = loc("/NHNHOME/WORKSPACE/26msit001_A/jinhyeok/loop_TTT/lact/.cache_inductor_llm/jf/cjf2rymzbzb3gfpmrbchguz4wgt47u5kfubzlu5to7svh6sy6zpl.py":41:69)
#loc39 = loc("/NHNHOME/WORKSPACE/26msit001_A/jinhyeok/loop_TTT/lact/.cache_inductor_llm/jf/cjf2rymzbzb3gfpmrbchguz4wgt47u5kfubzlu5to7svh6sy6zpl.py":41:135)
#loc40 = loc("/NHNHOME/WORKSPACE/26msit001_A/jinhyeok/loop_TTT/lact/.cache_inductor_llm/jf/cjf2rymzbzb3gfpmrbchguz4wgt47u5kfubzlu5to7svh6sy6zpl.py":43:31)
#loc41 = loc("/NHNHOME/WORKSPACE/26msit001_A/jinhyeok/loop_TTT/lact/.cache_inductor_llm/jf/cjf2rymzbzb3gfpmrbchguz4wgt47u5kfubzlu5to7svh6sy6zpl.py":43:73)
#loc42 = loc("/NHNHOME/WORKSPACE/26msit001_A/jinhyeok/loop_TTT/lact/.cache_inductor_llm/jf/cjf2rymzbzb3gfpmrbchguz4wgt47u5kfubzlu5to7svh6sy6zpl.py":44:20)
#loc43 = loc("/NHNHOME/WORKSPACE/26msit001_A/jinhyeok/loop_TTT/lact/.cache_inductor_llm/jf/cjf2rymzbzb3gfpmrbchguz4wgt47u5kfubzlu5to7svh6sy6zpl.py":45:19)
#loc44 = loc("/NHNHOME/WORKSPACE/26msit001_A/jinhyeok/loop_TTT/lact/.cache_inductor_llm/jf/cjf2rymzbzb3gfpmrbchguz4wgt47u5kfubzlu5to7svh6sy6zpl.py":46:41)
#loc45 = loc("/NHNHOME/WORKSPACE/26msit001_A/jinhyeok/loop_TTT/lact/.cache_inductor_llm/jf/cjf2rymzbzb3gfpmrbchguz4wgt47u5kfubzlu5to7svh6sy6zpl.py":46:51)
#loc46 = loc("/NHNHOME/WORKSPACE/26msit001_A/jinhyeok/loop_TTT/lact/.cache_inductor_llm/jf/cjf2rymzbzb3gfpmrbchguz4wgt47u5kfubzlu5to7svh6sy6zpl.py":46:46)
#loc47 = loc("/NHNHOME/WORKSPACE/26msit001_A/jinhyeok/loop_TTT/lact/.cache_inductor_llm/jf/cjf2rymzbzb3gfpmrbchguz4wgt47u5kfubzlu5to7svh6sy6zpl.py":46:56)
#loc48 = loc("/NHNHOME/WORKSPACE/26msit001_A/jinhyeok/loop_TTT/lact/.cache_inductor_llm/jf/cjf2rymzbzb3gfpmrbchguz4wgt47u5kfubzlu5to7svh6sy6zpl.py":46:31)
#loc49 = loc("/NHNHOME/WORKSPACE/26msit001_A/jinhyeok/loop_TTT/lact/.cache_inductor_llm/jf/cjf2rymzbzb3gfpmrbchguz4wgt47u5kfubzlu5to7svh6sy6zpl.py":46:68)
#loc50 = loc("/NHNHOME/WORKSPACE/26msit001_A/jinhyeok/loop_TTT/lact/.cache_inductor_llm/jf/cjf2rymzbzb3gfpmrbchguz4wgt47u5kfubzlu5to7svh6sy6zpl.py":46:134)
#loc51 = loc("/NHNHOME/WORKSPACE/26msit001_A/jinhyeok/loop_TTT/lact/.cache_inductor_llm/jf/cjf2rymzbzb3gfpmrbchguz4wgt47u5kfubzlu5to7svh6sy6zpl.py":48:20)
#loc52 = loc("/NHNHOME/WORKSPACE/26msit001_A/jinhyeok/loop_TTT/lact/.cache_inductor_llm/jf/cjf2rymzbzb3gfpmrbchguz4wgt47u5kfubzlu5to7svh6sy6zpl.py":49:31)
#loc53 = loc("/NHNHOME/WORKSPACE/26msit001_A/jinhyeok/loop_TTT/lact/.cache_inductor_llm/jf/cjf2rymzbzb3gfpmrbchguz4wgt47u5kfubzlu5to7svh6sy6zpl.py":49:68)
#loc54 = loc("/NHNHOME/WORKSPACE/26msit001_A/jinhyeok/loop_TTT/lact/.cache_inductor_llm/jf/cjf2rymzbzb3gfpmrbchguz4wgt47u5kfubzlu5to7svh6sy6zpl.py":49:134)
#loc55 = loc("/NHNHOME/WORKSPACE/26msit001_A/jinhyeok/loop_TTT/lact/.cache_inductor_llm/jf/cjf2rymzbzb3gfpmrbchguz4wgt47u5kfubzlu5to7svh6sy6zpl.py":51:20)
#loc56 = loc("/NHNHOME/WORKSPACE/26msit001_A/jinhyeok/loop_TTT/lact/.cache_inductor_llm/jf/cjf2rymzbzb3gfpmrbchguz4wgt47u5kfubzlu5to7svh6sy6zpl.py":53:34)
#loc57 = loc("/NHNHOME/WORKSPACE/26msit001_A/jinhyeok/loop_TTT/lact/.cache_inductor_llm/jf/cjf2rymzbzb3gfpmrbchguz4wgt47u5kfubzlu5to7svh6sy6zpl.py":55:34)
#loc58 = loc("/NHNHOME/WORKSPACE/26msit001_A/jinhyeok/loop_TTT/lact/.cache_inductor_llm/jf/cjf2rymzbzb3gfpmrbchguz4wgt47u5kfubzlu5to7svh6sy6zpl.py":57:20)
#loc59 = loc("/NHNHOME/WORKSPACE/26msit001_A/jinhyeok/loop_TTT/lact/.cache_inductor_llm/jf/cjf2rymzbzb3gfpmrbchguz4wgt47u5kfubzlu5to7svh6sy6zpl.py":58:19)
#loc60 = loc("/NHNHOME/WORKSPACE/26msit001_A/jinhyeok/loop_TTT/lact/.cache_inductor_llm/jf/cjf2rymzbzb3gfpmrbchguz4wgt47u5kfubzlu5to7svh6sy6zpl.py":59:20)
#loc61 = loc("/NHNHOME/WORKSPACE/26msit001_A/jinhyeok/loop_TTT/lact/.cache_inductor_llm/jf/cjf2rymzbzb3gfpmrbchguz4wgt47u5kfubzlu5to7svh6sy6zpl.py":60:43)
#loc62 = loc("/NHNHOME/WORKSPACE/26msit001_A/jinhyeok/loop_TTT/lact/.cache_inductor_llm/jf/cjf2rymzbzb3gfpmrbchguz4wgt47u5kfubzlu5to7svh6sy6zpl.py":60:48)
#loc63 = loc("/NHNHOME/WORKSPACE/26msit001_A/jinhyeok/loop_TTT/lact/.cache_inductor_llm/jf/cjf2rymzbzb3gfpmrbchguz4wgt47u5kfubzlu5to7svh6sy6zpl.py":60:57)
#loc64 = loc("/NHNHOME/WORKSPACE/26msit001_A/jinhyeok/loop_TTT/lact/.cache_inductor_llm/jf/cjf2rymzbzb3gfpmrbchguz4wgt47u5kfubzlu5to7svh6sy6zpl.py":60:31)
#loc65 = loc("/NHNHOME/WORKSPACE/26msit001_A/jinhyeok/loop_TTT/lact/.cache_inductor_llm/jf/cjf2rymzbzb3gfpmrbchguz4wgt47u5kfubzlu5to7svh6sy6zpl.py":60:77)
#loc66 = loc("/NHNHOME/WORKSPACE/26msit001_A/jinhyeok/loop_TTT/lact/.cache_inductor_llm/jf/cjf2rymzbzb3gfpmrbchguz4wgt47u5kfubzlu5to7svh6sy6zpl.py":60:85)
#loc67 = loc("/NHNHOME/WORKSPACE/26msit001_A/jinhyeok/loop_TTT/lact/.cache_inductor_llm/jf/cjf2rymzbzb3gfpmrbchguz4wgt47u5kfubzlu5to7svh6sy6zpl.py":60:69)
#loc68 = loc("/NHNHOME/WORKSPACE/26msit001_A/jinhyeok/loop_TTT/lact/.cache_inductor_llm/jf/cjf2rymzbzb3gfpmrbchguz4wgt47u5kfubzlu5to7svh6sy6zpl.py":60:136)
#loc69 = loc("/NHNHOME/WORKSPACE/26msit001_A/jinhyeok/loop_TTT/lact/.cache_inductor_llm/jf/cjf2rymzbzb3gfpmrbchguz4wgt47u5kfubzlu5to7svh6sy6zpl.py":62:73)
#loc70 = loc("/NHNHOME/WORKSPACE/26msit001_A/jinhyeok/loop_TTT/lact/.cache_inductor_llm/jf/cjf2rymzbzb3gfpmrbchguz4wgt47u5kfubzlu5to7svh6sy6zpl.py":63:20)
#loc71 = loc("/NHNHOME/WORKSPACE/26msit001_A/jinhyeok/loop_TTT/lact/.cache_inductor_llm/jf/cjf2rymzbzb3gfpmrbchguz4wgt47u5kfubzlu5to7svh6sy6zpl.py":64:31)
#loc72 = loc("/NHNHOME/WORKSPACE/26msit001_A/jinhyeok/loop_TTT/lact/.cache_inductor_llm/jf/cjf2rymzbzb3gfpmrbchguz4wgt47u5kfubzlu5to7svh6sy6zpl.py":64:69)
#loc73 = loc("/NHNHOME/WORKSPACE/26msit001_A/jinhyeok/loop_TTT/lact/.cache_inductor_llm/jf/cjf2rymzbzb3gfpmrbchguz4wgt47u5kfubzlu5to7svh6sy6zpl.py":64:136)
#loc74 = loc("/NHNHOME/WORKSPACE/26msit001_A/jinhyeok/loop_TTT/lact/.cache_inductor_llm/jf/cjf2rymzbzb3gfpmrbchguz4wgt47u5kfubzlu5to7svh6sy6zpl.py":66:73)
#loc75 = loc("/NHNHOME/WORKSPACE/26msit001_A/jinhyeok/loop_TTT/lact/.cache_inductor_llm/jf/cjf2rymzbzb3gfpmrbchguz4wgt47u5kfubzlu5to7svh6sy6zpl.py":67:20)
#loc76 = loc("/NHNHOME/WORKSPACE/26msit001_A/jinhyeok/loop_TTT/lact/.cache_inductor_llm/jf/cjf2rymzbzb3gfpmrbchguz4wgt47u5kfubzlu5to7svh6sy6zpl.py":68:20)
#loc77 = loc("/NHNHOME/WORKSPACE/26msit001_A/jinhyeok/loop_TTT/lact/.cache_inductor_llm/jf/cjf2rymzbzb3gfpmrbchguz4wgt47u5kfubzlu5to7svh6sy6zpl.py":69:41)
#loc78 = loc("/NHNHOME/WORKSPACE/26msit001_A/jinhyeok/loop_TTT/lact/.cache_inductor_llm/jf/cjf2rymzbzb3gfpmrbchguz4wgt47u5kfubzlu5to7svh6sy6zpl.py":69:46)
#loc79 = loc("/NHNHOME/WORKSPACE/26msit001_A/jinhyeok/loop_TTT/lact/.cache_inductor_llm/jf/cjf2rymzbzb3gfpmrbchguz4wgt47u5kfubzlu5to7svh6sy6zpl.py":69:56)
#loc80 = loc("/NHNHOME/WORKSPACE/26msit001_A/jinhyeok/loop_TTT/lact/.cache_inductor_llm/jf/cjf2rymzbzb3gfpmrbchguz4wgt47u5kfubzlu5to7svh6sy6zpl.py":69:31)
#loc81 = loc("/NHNHOME/WORKSPACE/26msit001_A/jinhyeok/loop_TTT/lact/.cache_inductor_llm/jf/cjf2rymzbzb3gfpmrbchguz4wgt47u5kfubzlu5to7svh6sy6zpl.py":69:68)
#loc82 = loc("/NHNHOME/WORKSPACE/26msit001_A/jinhyeok/loop_TTT/lact/.cache_inductor_llm/jf/cjf2rymzbzb3gfpmrbchguz4wgt47u5kfubzlu5to7svh6sy6zpl.py":69:135)
#loc83 = loc("/NHNHOME/WORKSPACE/26msit001_A/jinhyeok/loop_TTT/lact/.cache_inductor_llm/jf/cjf2rymzbzb3gfpmrbchguz4wgt47u5kfubzlu5to7svh6sy6zpl.py":71:20)
#loc84 = loc("/NHNHOME/WORKSPACE/26msit001_A/jinhyeok/loop_TTT/lact/.cache_inductor_llm/jf/cjf2rymzbzb3gfpmrbchguz4wgt47u5kfubzlu5to7svh6sy6zpl.py":72:31)
#loc85 = loc("/NHNHOME/WORKSPACE/26msit001_A/jinhyeok/loop_TTT/lact/.cache_inductor_llm/jf/cjf2rymzbzb3gfpmrbchguz4wgt47u5kfubzlu5to7svh6sy6zpl.py":72:68)
#loc86 = loc("/NHNHOME/WORKSPACE/26msit001_A/jinhyeok/loop_TTT/lact/.cache_inductor_llm/jf/cjf2rymzbzb3gfpmrbchguz4wgt47u5kfubzlu5to7svh6sy6zpl.py":72:135)
#loc87 = loc("/NHNHOME/WORKSPACE/26msit001_A/jinhyeok/loop_TTT/lact/.cache_inductor_llm/jf/cjf2rymzbzb3gfpmrbchguz4wgt47u5kfubzlu5to7svh6sy6zpl.py":74:20)
#loc88 = loc("/NHNHOME/WORKSPACE/26msit001_A/jinhyeok/loop_TTT/lact/.cache_inductor_llm/jf/cjf2rymzbzb3gfpmrbchguz4wgt47u5kfubzlu5to7svh6sy6zpl.py":76:35)
#loc89 = loc("/NHNHOME/WORKSPACE/26msit001_A/jinhyeok/loop_TTT/lact/.cache_inductor_llm/jf/cjf2rymzbzb3gfpmrbchguz4wgt47u5kfubzlu5to7svh6sy6zpl.py":77:35)
#loc90 = loc("/NHNHOME/WORKSPACE/26msit001_A/jinhyeok/loop_TTT/lact/.cache_inductor_llm/jf/cjf2rymzbzb3gfpmrbchguz4wgt47u5kfubzlu5to7svh6sy6zpl.py":78:20)
#loc91 = loc("/NHNHOME/WORKSPACE/26msit001_A/jinhyeok/loop_TTT/lact/.cache_inductor_llm/jf/cjf2rymzbzb3gfpmrbchguz4wgt47u5kfubzlu5to7svh6sy6zpl.py":79:19)
#loc92 = loc("/NHNHOME/WORKSPACE/26msit001_A/jinhyeok/loop_TTT/lact/.cache_inductor_llm/jf/cjf2rymzbzb3gfpmrbchguz4wgt47u5kfubzlu5to7svh6sy6zpl.py":80:37)
#loc93 = loc("/NHNHOME/WORKSPACE/26msit001_A/jinhyeok/loop_TTT/lact/.cache_inductor_llm/jf/cjf2rymzbzb3gfpmrbchguz4wgt47u5kfubzlu5to7svh6sy6zpl.py":80:46)
#loc94 = loc("/NHNHOME/WORKSPACE/26msit001_A/jinhyeok/loop_TTT/lact/.cache_inductor_llm/jf/cjf2rymzbzb3gfpmrbchguz4wgt47u5kfubzlu5to7svh6sy6zpl.py":80:32)
#loc95 = loc("/NHNHOME/WORKSPACE/26msit001_A/jinhyeok/loop_TTT/lact/.cache_inductor_llm/jf/cjf2rymzbzb3gfpmrbchguz4wgt47u5kfubzlu5to7svh6sy6zpl.py":80:66)
#loc96 = loc("/NHNHOME/WORKSPACE/26msit001_A/jinhyeok/loop_TTT/lact/.cache_inductor_llm/jf/cjf2rymzbzb3gfpmrbchguz4wgt47u5kfubzlu5to7svh6sy6zpl.py":80:74)
#loc97 = loc("/NHNHOME/WORKSPACE/26msit001_A/jinhyeok/loop_TTT/lact/.cache_inductor_llm/jf/cjf2rymzbzb3gfpmrbchguz4wgt47u5kfubzlu5to7svh6sy6zpl.py":80:58)
#loc98 = loc("/NHNHOME/WORKSPACE/26msit001_A/jinhyeok/loop_TTT/lact/.cache_inductor_llm/jf/cjf2rymzbzb3gfpmrbchguz4wgt47u5kfubzlu5to7svh6sy6zpl.py":80:125)
#loc99 = loc("/NHNHOME/WORKSPACE/26msit001_A/jinhyeok/loop_TTT/lact/.cache_inductor_llm/jf/cjf2rymzbzb3gfpmrbchguz4wgt47u5kfubzlu5to7svh6sy6zpl.py":82:73)
#loc100 = loc("/NHNHOME/WORKSPACE/26msit001_A/jinhyeok/loop_TTT/lact/.cache_inductor_llm/jf/cjf2rymzbzb3gfpmrbchguz4wgt47u5kfubzlu5to7svh6sy6zpl.py":83:20)
#loc101 = loc("/NHNHOME/WORKSPACE/26msit001_A/jinhyeok/loop_TTT/lact/.cache_inductor_llm/jf/cjf2rymzbzb3gfpmrbchguz4wgt47u5kfubzlu5to7svh6sy6zpl.py":84:32)
#loc102 = loc("/NHNHOME/WORKSPACE/26msit001_A/jinhyeok/loop_TTT/lact/.cache_inductor_llm/jf/cjf2rymzbzb3gfpmrbchguz4wgt47u5kfubzlu5to7svh6sy6zpl.py":84:58)
#loc103 = loc("/NHNHOME/WORKSPACE/26msit001_A/jinhyeok/loop_TTT/lact/.cache_inductor_llm/jf/cjf2rymzbzb3gfpmrbchguz4wgt47u5kfubzlu5to7svh6sy6zpl.py":84:125)
#loc104 = loc("/NHNHOME/WORKSPACE/26msit001_A/jinhyeok/loop_TTT/lact/.cache_inductor_llm/jf/cjf2rymzbzb3gfpmrbchguz4wgt47u5kfubzlu5to7svh6sy6zpl.py":86:73)
#loc105 = loc("/NHNHOME/WORKSPACE/26msit001_A/jinhyeok/loop_TTT/lact/.cache_inductor_llm/jf/cjf2rymzbzb3gfpmrbchguz4wgt47u5kfubzlu5to7svh6sy6zpl.py":87:20)
#loc106 = loc("/NHNHOME/WORKSPACE/26msit001_A/jinhyeok/loop_TTT/lact/.cache_inductor_llm/jf/cjf2rymzbzb3gfpmrbchguz4wgt47u5kfubzlu5to7svh6sy6zpl.py":88:20)
#loc107 = loc("/NHNHOME/WORKSPACE/26msit001_A/jinhyeok/loop_TTT/lact/.cache_inductor_llm/jf/cjf2rymzbzb3gfpmrbchguz4wgt47u5kfubzlu5to7svh6sy6zpl.py":89:37)
#loc108 = loc("/NHNHOME/WORKSPACE/26msit001_A/jinhyeok/loop_TTT/lact/.cache_inductor_llm/jf/cjf2rymzbzb3gfpmrbchguz4wgt47u5kfubzlu5to7svh6sy6zpl.py":89:47)
#loc109 = loc("/NHNHOME/WORKSPACE/26msit001_A/jinhyeok/loop_TTT/lact/.cache_inductor_llm/jf/cjf2rymzbzb3gfpmrbchguz4wgt47u5kfubzlu5to7svh6sy6zpl.py":89:32)
#loc110 = loc("/NHNHOME/WORKSPACE/26msit001_A/jinhyeok/loop_TTT/lact/.cache_inductor_llm/jf/cjf2rymzbzb3gfpmrbchguz4wgt47u5kfubzlu5to7svh6sy6zpl.py":89:59)
#loc111 = loc("/NHNHOME/WORKSPACE/26msit001_A/jinhyeok/loop_TTT/lact/.cache_inductor_llm/jf/cjf2rymzbzb3gfpmrbchguz4wgt47u5kfubzlu5to7svh6sy6zpl.py":89:126)
#loc112 = loc("/NHNHOME/WORKSPACE/26msit001_A/jinhyeok/loop_TTT/lact/.cache_inductor_llm/jf/cjf2rymzbzb3gfpmrbchguz4wgt47u5kfubzlu5to7svh6sy6zpl.py":91:20)
#loc113 = loc("/NHNHOME/WORKSPACE/26msit001_A/jinhyeok/loop_TTT/lact/.cache_inductor_llm/jf/cjf2rymzbzb3gfpmrbchguz4wgt47u5kfubzlu5to7svh6sy6zpl.py":92:32)
#loc114 = loc("/NHNHOME/WORKSPACE/26msit001_A/jinhyeok/loop_TTT/lact/.cache_inductor_llm/jf/cjf2rymzbzb3gfpmrbchguz4wgt47u5kfubzlu5to7svh6sy6zpl.py":92:59)
#loc115 = loc("/NHNHOME/WORKSPACE/26msit001_A/jinhyeok/loop_TTT/lact/.cache_inductor_llm/jf/cjf2rymzbzb3gfpmrbchguz4wgt47u5kfubzlu5to7svh6sy6zpl.py":92:126)
#loc116 = loc("/NHNHOME/WORKSPACE/26msit001_A/jinhyeok/loop_TTT/lact/.cache_inductor_llm/jf/cjf2rymzbzb3gfpmrbchguz4wgt47u5kfubzlu5to7svh6sy6zpl.py":94:20)
#loc117 = loc("/NHNHOME/WORKSPACE/26msit001_A/jinhyeok/loop_TTT/lact/.cache_inductor_llm/jf/cjf2rymzbzb3gfpmrbchguz4wgt47u5kfubzlu5to7svh6sy6zpl.py":96:35)
#loc118 = loc("/NHNHOME/WORKSPACE/26msit001_A/jinhyeok/loop_TTT/lact/.cache_inductor_llm/jf/cjf2rymzbzb3gfpmrbchguz4wgt47u5kfubzlu5to7svh6sy6zpl.py":97:35)
#loc119 = loc("/NHNHOME/WORKSPACE/26msit001_A/jinhyeok/loop_TTT/lact/.cache_inductor_llm/jf/cjf2rymzbzb3gfpmrbchguz4wgt47u5kfubzlu5to7svh6sy6zpl.py":98:20)
#loc120 = loc("/NHNHOME/WORKSPACE/26msit001_A/jinhyeok/loop_TTT/lact/.cache_inductor_llm/jf/cjf2rymzbzb3gfpmrbchguz4wgt47u5kfubzlu5to7svh6sy6zpl.py":99:4)
#loc121 = loc("/NHNHOME/WORKSPACE/26msit001_A/jinhyeok/loop_TTT/lact/.cache_inductor_llm/jf/cjf2rymzbzb3gfpmrbchguz4wgt47u5kfubzlu5to7svh6sy6zpl.py":100:37)
#loc122 = loc("/NHNHOME/WORKSPACE/26msit001_A/jinhyeok/loop_TTT/lact/.cache_inductor_llm/jf/cjf2rymzbzb3gfpmrbchguz4wgt47u5kfubzlu5to7svh6sy6zpl.py":100:33)
#loc123 = loc("/NHNHOME/WORKSPACE/26msit001_A/jinhyeok/loop_TTT/lact/.cache_inductor_llm/jf/cjf2rymzbzb3gfpmrbchguz4wgt47u5kfubzlu5to7svh6sy6zpl.py":100:28)
#loc124 = loc("/NHNHOME/WORKSPACE/26msit001_A/jinhyeok/loop_TTT/lact/.cache_inductor_llm/jf/cjf2rymzbzb3gfpmrbchguz4wgt47u5kfubzlu5to7svh6sy6zpl.py":100:57)
#loc125 = loc("/NHNHOME/WORKSPACE/26msit001_A/jinhyeok/loop_TTT/lact/.cache_inductor_llm/jf/cjf2rymzbzb3gfpmrbchguz4wgt47u5kfubzlu5to7svh6sy6zpl.py":100:49)
#loc126 = loc("/NHNHOME/WORKSPACE/26msit001_A/jinhyeok/loop_TTT/lact/.cache_inductor_llm/jf/cjf2rymzbzb3gfpmrbchguz4wgt47u5kfubzlu5to7svh6sy6zpl.py":100:4)
#loc144 = loc("tmp4"(#loc2))
#loc145 = loc("xmask"(#loc3))
#loc146 = loc("ymask"(#loc4))
#loc147 = loc("yoffset"(#loc5))
#loc148 = loc("yoffset"(#loc6))
#loc149 = loc("yoffset"(#loc7))
#loc150 = loc("yoffset"(#loc8))
#loc151 = loc("yoffset"(#loc9))
#loc152 = loc("yoffset"(#loc10))
#loc153 = loc("yindex"(#loc11))
#loc154 = loc("yindex"(#loc12))
#loc155 = loc("yindex"(#loc13))
#loc156 = loc("xoffset"(#loc14))
#loc157 = loc("xoffset"(#loc15))
#loc158 = loc("xindex"(#loc16))
#loc159 = loc("xindex"(#loc17))
#loc160 = loc("xindex"(#loc18))
#loc161 = loc("y0"(#loc19))
#loc162 = loc("y1"(#loc20))
#loc163 = loc("tmp2"(#loc21))
#loc164 = loc("tmp5"(#loc22))
#loc165 = loc("tmp6"(#loc23))
#loc166 = loc("tmp6"(#loc24))
#loc167 = loc("tmp6"(#loc25))
#loc168 = loc("tmp6"(#loc26))
#loc169 = loc("tmp6"(#loc27))
#loc170 = loc("tmp6"(#loc28))
#loc171 = loc("tmp6"(#loc29))
#loc172 = loc("tmp6"(#loc30))
#loc173 = loc("tmp6"(#loc31))
#loc174 = loc("tmp6"(#loc32))
#loc175 = loc("tmp8"(#loc33))
#loc176 = loc("tmp8"(#loc34))
#loc177 = loc("tmp8"(#loc35))
#loc178 = loc("tmp9"(#loc36))
#loc179 = loc("tmp10"(#loc37))
#loc180 = loc("tmp10"(#loc38))
#loc181 = loc("tmp10"(#loc39))
#loc182 = loc("tmp12"(#loc40))
#loc183 = loc("tmp12"(#loc41))
#loc184 = loc("tmp13"(#loc42))
#loc185 = loc("tmp14"(#loc43))
#loc186 = loc("tmp15"(#loc44))
#loc187 = loc("tmp15"(#loc45))
#loc188 = loc("tmp15"(#loc46))
#loc189 = loc("tmp15"(#loc47))
#loc190 = loc("tmp15"(#loc48))
#loc191 = loc("tmp15"(#loc49))
#loc192 = loc("tmp15"(#loc50))
#loc193 = loc("tmp17"(#loc51))
#loc194 = loc("tmp18"(#loc52))
#loc195 = loc("tmp18"(#loc53))
#loc196 = loc("tmp18"(#loc54))
#loc197 = loc("tmp20"(#loc55))
#loc198 = loc("tmp22"(#loc56))
#loc199 = loc("tmp24"(#loc57))
#loc200 = loc("tmp26"(#loc58))
#loc201 = loc("tmp27"(#loc59))
#loc202 = loc("tmp28"(#loc60))
#loc203 = loc("tmp29"(#loc61))
#loc204 = loc("tmp29"(#loc62))
#loc205 = loc("tmp29"(#loc63))
#loc206 = loc("tmp29"(#loc64))
#loc207 = loc("tmp29"(#loc65))
#loc208 = loc("tmp29"(#loc66))
#loc209 = loc("tmp29"(#loc67))
#loc210 = loc("tmp29"(#loc68))
#loc211 = loc("tmp31"(#loc69))
#loc212 = loc("tmp32"(#loc70))
#loc213 = loc("tmp33"(#loc71))
#loc214 = loc("tmp33"(#loc72))
#loc215 = loc("tmp33"(#loc73))
#loc216 = loc("tmp35"(#loc74))
#loc217 = loc("tmp36"(#loc75))
#loc218 = loc("tmp37"(#loc76))
#loc219 = loc("tmp38"(#loc77))
#loc220 = loc("tmp38"(#loc78))
#loc221 = loc("tmp38"(#loc79))
#loc222 = loc("tmp38"(#loc80))
#loc223 = loc("tmp38"(#loc81))
#loc224 = loc("tmp38"(#loc82))
#loc225 = loc("tmp40"(#loc83))
#loc226 = loc("tmp41"(#loc84))
#loc227 = loc("tmp41"(#loc85))
#loc228 = loc("tmp41"(#loc86))
#loc229 = loc("tmp43"(#loc87))
#loc230 = loc("tmp45"(#loc88))
#loc231 = loc("tmp46"(#loc89))
#loc232 = loc("tmp47"(#loc90))
#loc233 = loc("tmp48"(#loc91))
#loc234 = loc("tmp49"(#loc92))
#loc235 = loc("tmp49"(#loc93))
#loc236 = loc("tmp49"(#loc94))
#loc237 = loc("tmp49"(#loc95))
#loc238 = loc("tmp49"(#loc96))
#loc239 = loc("tmp49"(#loc97))
#loc240 = loc("tmp49"(#loc98))
#loc241 = loc("tmp51"(#loc99))
#loc242 = loc("tmp52"(#loc100))
#loc243 = loc("tmp53"(#loc101))
#loc244 = loc("tmp53"(#loc102))
#loc245 = loc("tmp53"(#loc103))
#loc246 = loc("tmp55"(#loc104))
#loc247 = loc("tmp56"(#loc105))
#loc248 = loc("tmp57"(#loc106))
#loc249 = loc("tmp58"(#loc107))
#loc250 = loc("tmp58"(#loc108))
#loc251 = loc("tmp58"(#loc109))
#loc252 = loc("tmp58"(#loc110))
#loc253 = loc("tmp58"(#loc111))
#loc254 = loc("tmp60"(#loc112))
#loc255 = loc("tmp61"(#loc113))
#loc256 = loc("tmp61"(#loc114))
#loc257 = loc("tmp61"(#loc115))
#loc258 = loc("tmp63"(#loc116))
#loc259 = loc("tmp65"(#loc117))
#loc260 = loc("tmp66"(#loc118))
#loc261 = loc("tmp67"(#loc119))
