#loc = loc("/NHNHOME/WORKSPACE/26msit001_A/jinhyeok/loop_TTT/lact/.cache_inductor_llm/lc/clctjbythsfbfzmqmyopk3jfwa7wk6ayzxfbfle5nasjfq6xep3z.py":18:0)
#loc46 = loc("in_ptr0"(#loc))
#loc47 = loc("in_ptr1"(#loc))
#loc48 = loc("in_ptr2"(#loc))
#loc49 = loc("out_ptr0"(#loc))
#loc50 = loc("out_ptr1"(#loc))
#loc51 = loc("out_ptr2"(#loc))
#loc52 = loc("ynumel"(#loc))
#loc53 = loc("xnumel"(#loc))
module {
  tt.func public @triton_poi_fused__to_copy_add_div_linalg_vector_norm_mul_transpose_51(%in_ptr0: !tt.ptr<bf16> {tt.divisibility = 16 : i32} loc("in_ptr0"(#loc)), %in_ptr1: !tt.ptr<f32> {tt.divisibility = 16 : i32} loc("in_ptr1"(#loc)), %in_ptr2: !tt.ptr<bf16> {tt.divisibility = 16 : i32} loc("in_ptr2"(#loc)), %out_ptr0: !tt.ptr<bf16> {tt.divisibility = 16 : i32} loc("out_ptr0"(#loc)), %out_ptr1: !tt.ptr<bf16> {tt.divisibility = 16 : i32} loc("out_ptr1"(#loc)), %out_ptr2: !tt.ptr<bf16> {tt.divisibility = 16 : i32} loc("out_ptr2"(#loc)), %ynumel: i32 {tt.divisibility = 16 : i32} loc("ynumel"(#loc)), %xnumel: i32 {tt.divisibility = 16 : i32} loc("xnumel"(#loc))) attributes {noinline = false} {
    %cst = arith.constant dense<36864> : tensor<64x1xi32> loc(#loc1)
    %tmp8 = arith.constant dense<4.084800e+00> : tensor<64x64xf32> loc(#loc54)
    %tmp5 = arith.constant dense<1.000000e-07> : tensor<64x1xf32> loc(#loc55)
    %cst_0 = arith.constant dense<192> : tensor<64x1xi32> loc(#loc4)
    %cst_1 = arith.constant dense<192> : tensor<1x64xi32> loc(#loc4)
    %c64_i32 = arith.constant 64 : i32 loc(#loc4)
    %yoffset = tt.get_program_id y : i32 loc(#loc56)
    %yoffset_2 = tt.get_program_id z : i32 loc(#loc57)
    %yoffset_3 = tt.get_num_programs y : i32 loc(#loc58)
    %yoffset_4 = arith.muli %yoffset_2, %yoffset_3 : i32 loc(#loc59)
    %yoffset_5 = arith.addi %yoffset, %yoffset_4 : i32 loc(#loc60)
    %yoffset_6 = arith.muli %yoffset_5, %c64_i32 : i32 loc(#loc61)
    %yindex = tt.make_range {end = 64 : i32, start = 0 : i32} : tensor<64xi32> loc(#loc62)
    %yindex_7 = tt.expand_dims %yindex {axis = 1 : i32} : tensor<64xi32> -> tensor<64x1xi32> loc(#loc63)
    %yindex_8 = tt.splat %yoffset_6 : i32 -> tensor<64x1xi32> loc(#loc64)
    %yindex_9 = arith.addi %yindex_8, %yindex_7 : tensor<64x1xi32> loc(#loc64)
    %ymask = tt.splat %ynumel : i32 -> tensor<64x1xi32> loc(#loc65)
    %ymask_10 = arith.cmpi slt, %yindex_9, %ymask : tensor<64x1xi32> loc(#loc65)
    %xoffset = tt.get_program_id x : i32 loc(#loc66)
    %xoffset_11 = arith.muli %xoffset, %c64_i32 : i32 loc(#loc67)
    %xindex = tt.expand_dims %yindex {axis = 0 : i32} : tensor<64xi32> -> tensor<1x64xi32> loc(#loc68)
    %xindex_12 = tt.splat %xoffset_11 : i32 -> tensor<1x64xi32> loc(#loc69)
    %xindex_13 = arith.addi %xindex_12, %xindex : tensor<1x64xi32> loc(#loc69)
    %xmask = arith.cmpi slt, %xindex_13, %cst_1 : tensor<1x64xi32> loc(#loc70)
    %y1 = arith.divsi %yindex_9, %cst_0 : tensor<64x1xi32> loc(#loc71)
    %y0 = arith.remsi %yindex_9, %cst_0 : tensor<64x1xi32> loc(#loc72)
    %tmp0 = arith.muli %yindex_9, %cst_0 : tensor<64x1xi32> loc(#loc73)
    %tmp0_14 = tt.broadcast %xindex_13 : tensor<1x64xi32> -> tensor<64x64xi32> loc(#loc74)
    %tmp0_15 = tt.broadcast %tmp0 : tensor<64x1xi32> -> tensor<64x64xi32> loc(#loc74)
    %tmp0_16 = arith.addi %tmp0_14, %tmp0_15 : tensor<64x64xi32> loc(#loc74)
    %tmp0_17 = tt.splat %in_ptr0 : !tt.ptr<bf16> -> tensor<64x64x!tt.ptr<bf16>> loc(#loc75)
    %tmp0_18 = tt.addptr %tmp0_17, %tmp0_16 : tensor<64x64x!tt.ptr<bf16>>, tensor<64x64xi32> loc(#loc75)
    %tmp0_19 = tt.broadcast %xmask : tensor<1x64xi1> -> tensor<64x64xi1> loc(#loc76)
    %tmp0_20 = tt.broadcast %ymask_10 : tensor<64x1xi1> -> tensor<64x64xi1> loc(#loc76)
    %tmp0_21 = arith.andi %tmp0_19, %tmp0_20 : tensor<64x64xi1> loc(#loc76)
    %tmp0_22 = tt.load %tmp0_18, %tmp0_21 evictionPolicy = evict_last : tensor<64x64x!tt.ptr<bf16>> loc(#loc77)
    %tmp0_23 = arith.extf %tmp0_22 : tensor<64x64xbf16> to tensor<64x64xf32> loc(#loc78)
    %tmp2 = tt.splat %in_ptr1 : !tt.ptr<f32> -> tensor<64x1x!tt.ptr<f32>> loc(#loc79)
    %tmp2_24 = tt.addptr %tmp2, %y1 : tensor<64x1x!tt.ptr<f32>>, tensor<64x1xi32> loc(#loc79)
    %tmp2_25 = tt.load %tmp2_24, %ymask_10 evictionPolicy = evict_last : tensor<64x1x!tt.ptr<f32>> loc(#loc80)
    %tmp9 = tt.splat %in_ptr2 : !tt.ptr<bf16> -> tensor<64x64x!tt.ptr<bf16>> loc(#loc81)
    %tmp9_26 = tt.addptr %tmp9, %tmp0_16 : tensor<64x64x!tt.ptr<bf16>>, tensor<64x64xi32> loc(#loc81)
    %tmp9_27 = tt.load %tmp9_26, %tmp0_21 evictionPolicy = evict_last : tensor<64x64x!tt.ptr<bf16>> loc(#loc82)
    %tmp9_28 = arith.extf %tmp9_27 : tensor<64x64xbf16> to tensor<64x64xf32> loc(#loc83)
    %tmp3 = tt.extern_elementwise %tmp2_25 {libname = "", libpath = "", pure = true, symbol = "__nv_sqrtf"} : (tensor<64x1xf32>) -> tensor<64x1xf32> loc(#loc84)
    %tmp5_29 = arith.addf %tmp3, %tmp5 : tensor<64x1xf32> loc(#loc55)
    %tmp6 = tt.broadcast %tmp5_29 : tensor<64x1xf32> -> tensor<64x64xf32> loc(#loc85)
    %tmp6_30 = arith.divf %tmp0_23, %tmp6 : tensor<64x64xf32> loc(#loc85)
    %tmp8_31 = arith.mulf %tmp6_30, %tmp8 : tensor<64x64xf32> loc(#loc54)
    %tmp11 = arith.addf %tmp8_31, %tmp9_28 : tensor<64x64xf32> loc(#loc86)
    %0 = tt.splat %out_ptr0 : !tt.ptr<bf16> -> tensor<64x64x!tt.ptr<bf16>> loc(#loc36)
    %1 = tt.addptr %0, %tmp0_16 : tensor<64x64x!tt.ptr<bf16>>, tensor<64x64xi32> loc(#loc36)
    %2 = arith.truncf %tmp11 : tensor<64x64xf32> to tensor<64x64xbf16> loc(#loc37)
    tt.store %1, %2, %tmp0_21 : tensor<64x64x!tt.ptr<bf16>> loc(#loc37)
    %3 = arith.muli %xindex_13, %cst_1 : tensor<1x64xi32> loc(#loc38)
    %4 = tt.broadcast %y0 : tensor<64x1xi32> -> tensor<64x64xi32> loc(#loc39)
    %5 = tt.broadcast %3 : tensor<1x64xi32> -> tensor<64x64xi32> loc(#loc39)
    %6 = arith.addi %4, %5 : tensor<64x64xi32> loc(#loc39)
    %7 = arith.muli %y1, %cst : tensor<64x1xi32> loc(#loc1)
    %8 = tt.broadcast %7 : tensor<64x1xi32> -> tensor<64x64xi32> loc(#loc40)
    %9 = arith.addi %6, %8 : tensor<64x64xi32> loc(#loc40)
    %10 = tt.splat %out_ptr1 : !tt.ptr<bf16> -> tensor<64x64x!tt.ptr<bf16>> loc(#loc41)
    %11 = tt.addptr %10, %9 : tensor<64x64x!tt.ptr<bf16>>, tensor<64x64xi32> loc(#loc41)
    tt.store %11, %2, %tmp0_21 : tensor<64x64x!tt.ptr<bf16>> loc(#loc42)
    %12 = tt.splat %out_ptr2 : !tt.ptr<bf16> -> tensor<64x64x!tt.ptr<bf16>> loc(#loc43)
    %13 = tt.addptr %12, %tmp0_16 : tensor<64x64x!tt.ptr<bf16>>, tensor<64x64xi32> loc(#loc43)
    tt.store %13, %2, %tmp0_21 : tensor<64x64x!tt.ptr<bf16>> loc(#loc44)
    tt.return loc(#loc45)
  } loc(#loc)
} loc(#loc)
#loc1 = loc("/NHNHOME/WORKSPACE/26msit001_A/jinhyeok/loop_TTT/lact/.cache_inductor_llm/lc/clctjbythsfbfzmqmyopk3jfwa7wk6ayzxfbfle5nasjfq6xep3z.py":44:45)
#loc2 = loc("/NHNHOME/WORKSPACE/26msit001_A/jinhyeok/loop_TTT/lact/.cache_inductor_llm/lc/clctjbythsfbfzmqmyopk3jfwa7wk6ayzxfbfle5nasjfq6xep3z.py":39:18)
#loc3 = loc("/NHNHOME/WORKSPACE/26msit001_A/jinhyeok/loop_TTT/lact/.cache_inductor_llm/lc/clctjbythsfbfzmqmyopk3jfwa7wk6ayzxfbfle5nasjfq6xep3z.py":36:18)
#loc4 = loc(unknown)
#loc5 = loc("/NHNHOME/WORKSPACE/26msit001_A/jinhyeok/loop_TTT/lact/.cache_inductor_llm/lc/clctjbythsfbfzmqmyopk3jfwa7wk6ayzxfbfle5nasjfq6xep3z.py":20:29)
#loc6 = loc("/NHNHOME/WORKSPACE/26msit001_A/jinhyeok/loop_TTT/lact/.cache_inductor_llm/lc/clctjbythsfbfzmqmyopk3jfwa7wk6ayzxfbfle5nasjfq6xep3z.py":20:48)
#loc7 = loc("/NHNHOME/WORKSPACE/26msit001_A/jinhyeok/loop_TTT/lact/.cache_inductor_llm/lc/clctjbythsfbfzmqmyopk3jfwa7wk6ayzxfbfle5nasjfq6xep3z.py":20:69)
#loc8 = loc("/NHNHOME/WORKSPACE/26msit001_A/jinhyeok/loop_TTT/lact/.cache_inductor_llm/lc/clctjbythsfbfzmqmyopk3jfwa7wk6ayzxfbfle5nasjfq6xep3z.py":20:53)
#loc9 = loc("/NHNHOME/WORKSPACE/26msit001_A/jinhyeok/loop_TTT/lact/.cache_inductor_llm/lc/clctjbythsfbfzmqmyopk3jfwa7wk6ayzxfbfle5nasjfq6xep3z.py":20:34)
#loc10 = loc("/NHNHOME/WORKSPACE/26msit001_A/jinhyeok/loop_TTT/lact/.cache_inductor_llm/lc/clctjbythsfbfzmqmyopk3jfwa7wk6ayzxfbfle5nasjfq6xep3z.py":20:75)
#loc11 = loc("/NHNHOME/WORKSPACE/26msit001_A/jinhyeok/loop_TTT/lact/.cache_inductor_llm/lc/clctjbythsfbfzmqmyopk3jfwa7wk6ayzxfbfle5nasjfq6xep3z.py":21:36)
#loc12 = loc("/NHNHOME/WORKSPACE/26msit001_A/jinhyeok/loop_TTT/lact/.cache_inductor_llm/lc/clctjbythsfbfzmqmyopk3jfwa7wk6ayzxfbfle5nasjfq6xep3z.py":21:44)
#loc13 = loc("/NHNHOME/WORKSPACE/26msit001_A/jinhyeok/loop_TTT/lact/.cache_inductor_llm/lc/clctjbythsfbfzmqmyopk3jfwa7wk6ayzxfbfle5nasjfq6xep3z.py":21:23)
#loc14 = loc("/NHNHOME/WORKSPACE/26msit001_A/jinhyeok/loop_TTT/lact/.cache_inductor_llm/lc/clctjbythsfbfzmqmyopk3jfwa7wk6ayzxfbfle5nasjfq6xep3z.py":22:21)
#loc15 = loc("/NHNHOME/WORKSPACE/26msit001_A/jinhyeok/loop_TTT/lact/.cache_inductor_llm/lc/clctjbythsfbfzmqmyopk3jfwa7wk6ayzxfbfle5nasjfq6xep3z.py":23:28)
#loc16 = loc("/NHNHOME/WORKSPACE/26msit001_A/jinhyeok/loop_TTT/lact/.cache_inductor_llm/lc/clctjbythsfbfzmqmyopk3jfwa7wk6ayzxfbfle5nasjfq6xep3z.py":23:33)
#loc17 = loc("/NHNHOME/WORKSPACE/26msit001_A/jinhyeok/loop_TTT/lact/.cache_inductor_llm/lc/clctjbythsfbfzmqmyopk3jfwa7wk6ayzxfbfle5nasjfq6xep3z.py":24:44)
#loc18 = loc("/NHNHOME/WORKSPACE/26msit001_A/jinhyeok/loop_TTT/lact/.cache_inductor_llm/lc/clctjbythsfbfzmqmyopk3jfwa7wk6ayzxfbfle5nasjfq6xep3z.py":24:23)
#loc19 = loc("/NHNHOME/WORKSPACE/26msit001_A/jinhyeok/loop_TTT/lact/.cache_inductor_llm/lc/clctjbythsfbfzmqmyopk3jfwa7wk6ayzxfbfle5nasjfq6xep3z.py":25:21)
#loc20 = loc("/NHNHOME/WORKSPACE/26msit001_A/jinhyeok/loop_TTT/lact/.cache_inductor_llm/lc/clctjbythsfbfzmqmyopk3jfwa7wk6ayzxfbfle5nasjfq6xep3z.py":28:19)
#loc21 = loc("/NHNHOME/WORKSPACE/26msit001_A/jinhyeok/loop_TTT/lact/.cache_inductor_llm/lc/clctjbythsfbfzmqmyopk3jfwa7wk6ayzxfbfle5nasjfq6xep3z.py":29:19)
#loc22 = loc("/NHNHOME/WORKSPACE/26msit001_A/jinhyeok/loop_TTT/lact/.cache_inductor_llm/lc/clctjbythsfbfzmqmyopk3jfwa7wk6ayzxfbfle5nasjfq6xep3z.py":30:39)
#loc23 = loc("/NHNHOME/WORKSPACE/26msit001_A/jinhyeok/loop_TTT/lact/.cache_inductor_llm/lc/clctjbythsfbfzmqmyopk3jfwa7wk6ayzxfbfle5nasjfq6xep3z.py":30:35)
#loc24 = loc("/NHNHOME/WORKSPACE/26msit001_A/jinhyeok/loop_TTT/lact/.cache_inductor_llm/lc/clctjbythsfbfzmqmyopk3jfwa7wk6ayzxfbfle5nasjfq6xep3z.py":30:30)
#loc25 = loc("/NHNHOME/WORKSPACE/26msit001_A/jinhyeok/loop_TTT/lact/.cache_inductor_llm/lc/clctjbythsfbfzmqmyopk3jfwa7wk6ayzxfbfle5nasjfq6xep3z.py":30:52)
#loc26 = loc("/NHNHOME/WORKSPACE/26msit001_A/jinhyeok/loop_TTT/lact/.cache_inductor_llm/lc/clctjbythsfbfzmqmyopk3jfwa7wk6ayzxfbfle5nasjfq6xep3z.py":30:44)
#loc27 = loc("/NHNHOME/WORKSPACE/26msit001_A/jinhyeok/loop_TTT/lact/.cache_inductor_llm/lc/clctjbythsfbfzmqmyopk3jfwa7wk6ayzxfbfle5nasjfq6xep3z.py":30:92)
#loc28 = loc("/NHNHOME/WORKSPACE/26msit001_A/jinhyeok/loop_TTT/lact/.cache_inductor_llm/lc/clctjbythsfbfzmqmyopk3jfwa7wk6ayzxfbfle5nasjfq6xep3z.py":31:30)
#loc29 = loc("/NHNHOME/WORKSPACE/26msit001_A/jinhyeok/loop_TTT/lact/.cache_inductor_llm/lc/clctjbythsfbfzmqmyopk3jfwa7wk6ayzxfbfle5nasjfq6xep3z.py":31:35)
#loc30 = loc("/NHNHOME/WORKSPACE/26msit001_A/jinhyeok/loop_TTT/lact/.cache_inductor_llm/lc/clctjbythsfbfzmqmyopk3jfwa7wk6ayzxfbfle5nasjfq6xep3z.py":32:30)
#loc31 = loc("/NHNHOME/WORKSPACE/26msit001_A/jinhyeok/loop_TTT/lact/.cache_inductor_llm/lc/clctjbythsfbfzmqmyopk3jfwa7wk6ayzxfbfle5nasjfq6xep3z.py":32:44)
#loc32 = loc("/NHNHOME/WORKSPACE/26msit001_A/jinhyeok/loop_TTT/lact/.cache_inductor_llm/lc/clctjbythsfbfzmqmyopk3jfwa7wk6ayzxfbfle5nasjfq6xep3z.py":32:92)
#loc33 = loc("/NHNHOME/WORKSPACE/26msit001_A/jinhyeok/loop_TTT/lact/.cache_inductor_llm/lc/clctjbythsfbfzmqmyopk3jfwa7wk6ayzxfbfle5nasjfq6xep3z.py":34:26)
#loc34 = loc("/NHNHOME/WORKSPACE/26msit001_A/jinhyeok/loop_TTT/lact/.cache_inductor_llm/lc/clctjbythsfbfzmqmyopk3jfwa7wk6ayzxfbfle5nasjfq6xep3z.py":37:19)
#loc35 = loc("/NHNHOME/WORKSPACE/26msit001_A/jinhyeok/loop_TTT/lact/.cache_inductor_llm/lc/clctjbythsfbfzmqmyopk3jfwa7wk6ayzxfbfle5nasjfq6xep3z.py":41:19)
#loc36 = loc("/NHNHOME/WORKSPACE/26msit001_A/jinhyeok/loop_TTT/lact/.cache_inductor_llm/lc/clctjbythsfbfzmqmyopk3jfwa7wk6ayzxfbfle5nasjfq6xep3z.py":43:25)
#loc37 = loc("/NHNHOME/WORKSPACE/26msit001_A/jinhyeok/loop_TTT/lact/.cache_inductor_llm/lc/clctjbythsfbfzmqmyopk3jfwa7wk6ayzxfbfle5nasjfq6xep3z.py":43:46)
#loc38 = loc("/NHNHOME/WORKSPACE/26msit001_A/jinhyeok/loop_TTT/lact/.cache_inductor_llm/lc/clctjbythsfbfzmqmyopk3jfwa7wk6ayzxfbfle5nasjfq6xep3z.py":44:34)
#loc39 = loc("/NHNHOME/WORKSPACE/26msit001_A/jinhyeok/loop_TTT/lact/.cache_inductor_llm/lc/clctjbythsfbfzmqmyopk3jfwa7wk6ayzxfbfle5nasjfq6xep3z.py":44:30)
#loc40 = loc("/NHNHOME/WORKSPACE/26msit001_A/jinhyeok/loop_TTT/lact/.cache_inductor_llm/lc/clctjbythsfbfzmqmyopk3jfwa7wk6ayzxfbfle5nasjfq6xep3z.py":44:39)
#loc41 = loc("/NHNHOME/WORKSPACE/26msit001_A/jinhyeok/loop_TTT/lact/.cache_inductor_llm/lc/clctjbythsfbfzmqmyopk3jfwa7wk6ayzxfbfle5nasjfq6xep3z.py":44:25)
#loc42 = loc("/NHNHOME/WORKSPACE/26msit001_A/jinhyeok/loop_TTT/lact/.cache_inductor_llm/lc/clctjbythsfbfzmqmyopk3jfwa7wk6ayzxfbfle5nasjfq6xep3z.py":44:57)
#loc43 = loc("/NHNHOME/WORKSPACE/26msit001_A/jinhyeok/loop_TTT/lact/.cache_inductor_llm/lc/clctjbythsfbfzmqmyopk3jfwa7wk6ayzxfbfle5nasjfq6xep3z.py":45:25)
#loc44 = loc("/NHNHOME/WORKSPACE/26msit001_A/jinhyeok/loop_TTT/lact/.cache_inductor_llm/lc/clctjbythsfbfzmqmyopk3jfwa7wk6ayzxfbfle5nasjfq6xep3z.py":45:46)
#loc45 = loc("/NHNHOME/WORKSPACE/26msit001_A/jinhyeok/loop_TTT/lact/.cache_inductor_llm/lc/clctjbythsfbfzmqmyopk3jfwa7wk6ayzxfbfle5nasjfq6xep3z.py":45:4)
#loc54 = loc("tmp8"(#loc2))
#loc55 = loc("tmp5"(#loc3))
#loc56 = loc("yoffset"(#loc5))
#loc57 = loc("yoffset"(#loc6))
#loc58 = loc("yoffset"(#loc7))
#loc59 = loc("yoffset"(#loc8))
#loc60 = loc("yoffset"(#loc9))
#loc61 = loc("yoffset"(#loc10))
#loc62 = loc("yindex"(#loc11))
#loc63 = loc("yindex"(#loc12))
#loc64 = loc("yindex"(#loc13))
#loc65 = loc("ymask"(#loc14))
#loc66 = loc("xoffset"(#loc15))
#loc67 = loc("xoffset"(#loc16))
#loc68 = loc("xindex"(#loc17))
#loc69 = loc("xindex"(#loc18))
#loc70 = loc("xmask"(#loc19))
#loc71 = loc("y1"(#loc20))
#loc72 = loc("y0"(#loc21))
#loc73 = loc("tmp0"(#loc22))
#loc74 = loc("tmp0"(#loc23))
#loc75 = loc("tmp0"(#loc24))
#loc76 = loc("tmp0"(#loc25))
#loc77 = loc("tmp0"(#loc26))
#loc78 = loc("tmp0"(#loc27))
#loc79 = loc("tmp2"(#loc28))
#loc80 = loc("tmp2"(#loc29))
#loc81 = loc("tmp9"(#loc30))
#loc82 = loc("tmp9"(#loc31))
#loc83 = loc("tmp9"(#loc32))
#loc84 = loc("tmp3"(#loc33))
#loc85 = loc("tmp6"(#loc34))
#loc86 = loc("tmp11"(#loc35))
