#loc = loc("/NHNHOME/WORKSPACE/26msit001_A/jinhyeok/TTT_camera_embedding/lact_llm/.cache_inductor/vy/cvyfaezus2vhbe3n3g5qkco6k2oyzldwnqc45gmcaq2mwvzmaqfl.py":18:0)
#loc31 = loc("in_ptr0"(#loc))
#loc32 = loc("in_ptr1"(#loc))
#loc33 = loc("in_ptr2"(#loc))
#loc34 = loc("out_ptr0"(#loc))
#loc35 = loc("out_ptr1"(#loc))
#loc36 = loc("out_ptr2"(#loc))
#loc37 = loc("xnumel"(#loc))
module {
  tt.func public @triton_poi_fused__to_copy_add_div_linalg_vector_norm_mean_mul_slice_transpose_zeros_like_6(%in_ptr0: !tt.ptr<bf16> {tt.divisibility = 16 : i32} loc("in_ptr0"(#loc)), %in_ptr1: !tt.ptr<f32> {tt.divisibility = 16 : i32} loc("in_ptr1"(#loc)), %in_ptr2: !tt.ptr<f32> {tt.divisibility = 16 : i32} loc("in_ptr2"(#loc)), %out_ptr0: !tt.ptr<bf16> {tt.divisibility = 16 : i32} loc("out_ptr0"(#loc)), %out_ptr1: !tt.ptr<bf16> {tt.divisibility = 16 : i32} loc("out_ptr1"(#loc)), %out_ptr2: !tt.ptr<bf16> {tt.divisibility = 16 : i32} loc("out_ptr2"(#loc)), %xnumel: i32 {tt.divisibility = 16 : i32} loc("xnumel"(#loc))) attributes {noinline = false} {
    %xnumel_0 = arith.constant 1179648 : i32 loc(#loc38)
    %xoffset = tt.get_program_id x : i32 loc(#loc39)
    %xoffset_1 = arith.constant 1024 : i32 loc(#loc40)
    %xoffset_2 = arith.constant 1024 : i32 loc(#loc40)
    %xoffset_3 = arith.muli %xoffset, %xoffset_2 : i32 loc(#loc40)
    %xindex = tt.make_range {end = 1024 : i32, start = 0 : i32} : tensor<1024xi32> loc(#loc41)
    %xindex_4 = tt.splat %xoffset_3 : i32 -> tensor<1024xi32> loc(#loc42)
    %xindex_5 = arith.addi %xindex_4, %xindex : tensor<1024xi32> loc(#loc42)
    %xmask = arith.constant true loc(#loc43)
    %xmask_6 = arith.constant dense<true> : tensor<1024xi1> loc(#loc43)
    %x1 = arith.constant 36864 : i32 loc(#loc44)
    %x1_7 = arith.constant 36864 : i32 loc(#loc44)
    %x1_8 = arith.constant dense<36864> : tensor<1024xi32> loc(#loc44)
    %x1_9 = arith.divsi %xindex_5, %x1_8 : tensor<1024xi32> loc(#loc44)
    %tmp0 = tt.splat %in_ptr0 : !tt.ptr<bf16> -> tensor<1024x!tt.ptr<bf16>> loc(#loc45)
    %tmp0_10 = tt.addptr %tmp0, %xindex_5 : tensor<1024x!tt.ptr<bf16>>, tensor<1024xi32> loc(#loc45)
    %tmp0_11 = tt.load %tmp0_10 : tensor<1024x!tt.ptr<bf16>> loc(#loc46)
    %tmp0_12 = arith.extf %tmp0_11 : tensor<1024xbf16> to tensor<1024xf32> loc(#loc47)
    %tmp2 = tt.splat %in_ptr1 : !tt.ptr<f32> -> tensor<1024x!tt.ptr<f32>> loc(#loc48)
    %tmp2_13 = tt.addptr %tmp2, %x1_9 : tensor<1024x!tt.ptr<f32>>, tensor<1024xi32> loc(#loc48)
    %tmp2_14 = tt.load %tmp2_13 evictionPolicy = evict_last : tensor<1024x!tt.ptr<f32>> loc(#loc49)
    %tmp10 = tt.splat %in_ptr2 : !tt.ptr<f32> -> tensor<1024x!tt.ptr<f32>> loc(#loc50)
    %tmp10_15 = tt.addptr %tmp10, %x1_9 : tensor<1024x!tt.ptr<f32>>, tensor<1024xi32> loc(#loc50)
    %tmp10_16 = tt.load %tmp10_15 evictionPolicy = evict_last : tensor<1024x!tt.ptr<f32>> loc(#loc51)
    %tmp3 = arith.constant 1.024000e+03 : f32 loc(#loc52)
    %tmp4 = arith.constant dense<1.024000e+03> : tensor<1024xf32> loc(#loc53)
    %tmp4_17 = arith.divf %tmp2_14, %tmp4 : tensor<1024xf32> loc(#loc53)
    %tmp5 = arith.constant 0.000000e+00 : f32 loc(#loc54)
    %tmp6 = arith.constant dense<0.000000e+00> : tensor<1024xf32> loc(#loc55)
    %tmp6_18 = arith.mulf %tmp6, %tmp4_17 : tensor<1024xf32> loc(#loc55)
    %tmp7 = arith.addf %tmp0_12, %tmp6_18 : tensor<1024xf32> loc(#loc56)
    %tmp11 = tt.extern_elementwise %tmp10_16 {libname = "", libpath = "", pure = true, symbol = "__nv_sqrtf"} : (tensor<1024xf32>) -> tensor<1024xf32> loc(#loc57)
    %tmp12 = arith.constant 1.000000e-07 : f32 loc(#loc58)
    %tmp13 = arith.constant dense<1.000000e-07> : tensor<1024xf32> loc(#loc59)
    %tmp13_19 = arith.addf %tmp11, %tmp13 : tensor<1024xf32> loc(#loc59)
    %tmp14 = arith.divf %tmp7, %tmp13_19 : tensor<1024xf32> loc(#loc60)
    %0 = tt.splat %out_ptr0 : !tt.ptr<bf16> -> tensor<1024x!tt.ptr<bf16>> loc(#loc24)
    %1 = tt.addptr %0, %xindex_5 : tensor<1024x!tt.ptr<bf16>>, tensor<1024xi32> loc(#loc24)
    %2 = arith.truncf %tmp14 : tensor<1024xf32> to tensor<1024xbf16> loc(#loc25)
    tt.store %1, %2 : tensor<1024x!tt.ptr<bf16>> loc(#loc25)
    %3 = tt.splat %out_ptr1 : !tt.ptr<bf16> -> tensor<1024x!tt.ptr<bf16>> loc(#loc26)
    %4 = tt.addptr %3, %xindex_5 : tensor<1024x!tt.ptr<bf16>>, tensor<1024xi32> loc(#loc26)
    %5 = arith.truncf %tmp14 : tensor<1024xf32> to tensor<1024xbf16> loc(#loc27)
    tt.store %4, %5 : tensor<1024x!tt.ptr<bf16>> loc(#loc27)
    %6 = tt.splat %out_ptr2 : !tt.ptr<bf16> -> tensor<1024x!tt.ptr<bf16>> loc(#loc28)
    %7 = tt.addptr %6, %xindex_5 : tensor<1024x!tt.ptr<bf16>>, tensor<1024xi32> loc(#loc28)
    %8 = arith.truncf %tmp14 : tensor<1024xf32> to tensor<1024xbf16> loc(#loc29)
    tt.store %7, %8 : tensor<1024x!tt.ptr<bf16>> loc(#loc29)
    tt.return loc(#loc30)
  } loc(#loc)
} loc(#loc)
#loc1 = loc("/NHNHOME/WORKSPACE/26msit001_A/jinhyeok/TTT_camera_embedding/lact_llm/.cache_inductor/vy/cvyfaezus2vhbe3n3g5qkco6k2oyzldwnqc45gmcaq2mwvzmaqfl.py":19:13)
#loc2 = loc("/NHNHOME/WORKSPACE/26msit001_A/jinhyeok/TTT_camera_embedding/lact_llm/.cache_inductor/vy/cvyfaezus2vhbe3n3g5qkco6k2oyzldwnqc45gmcaq2mwvzmaqfl.py":20:28)
#loc3 = loc("/NHNHOME/WORKSPACE/26msit001_A/jinhyeok/TTT_camera_embedding/lact_llm/.cache_inductor/vy/cvyfaezus2vhbe3n3g5qkco6k2oyzldwnqc45gmcaq2mwvzmaqfl.py":20:33)
#loc4 = loc("/NHNHOME/WORKSPACE/26msit001_A/jinhyeok/TTT_camera_embedding/lact_llm/.cache_inductor/vy/cvyfaezus2vhbe3n3g5qkco6k2oyzldwnqc45gmcaq2mwvzmaqfl.py":21:36)
#loc5 = loc("/NHNHOME/WORKSPACE/26msit001_A/jinhyeok/TTT_camera_embedding/lact_llm/.cache_inductor/vy/cvyfaezus2vhbe3n3g5qkco6k2oyzldwnqc45gmcaq2mwvzmaqfl.py":21:23)
#loc6 = loc("/NHNHOME/WORKSPACE/26msit001_A/jinhyeok/TTT_camera_embedding/lact_llm/.cache_inductor/vy/cvyfaezus2vhbe3n3g5qkco6k2oyzldwnqc45gmcaq2mwvzmaqfl.py":22:36)
#loc7 = loc("/NHNHOME/WORKSPACE/26msit001_A/jinhyeok/TTT_camera_embedding/lact_llm/.cache_inductor/vy/cvyfaezus2vhbe3n3g5qkco6k2oyzldwnqc45gmcaq2mwvzmaqfl.py":24:19)
#loc8 = loc("/NHNHOME/WORKSPACE/26msit001_A/jinhyeok/TTT_camera_embedding/lact_llm/.cache_inductor/vy/cvyfaezus2vhbe3n3g5qkco6k2oyzldwnqc45gmcaq2mwvzmaqfl.py":25:30)
#loc9 = loc("/NHNHOME/WORKSPACE/26msit001_A/jinhyeok/TTT_camera_embedding/lact_llm/.cache_inductor/vy/cvyfaezus2vhbe3n3g5qkco6k2oyzldwnqc45gmcaq2mwvzmaqfl.py":25:35)
#loc10 = loc("/NHNHOME/WORKSPACE/26msit001_A/jinhyeok/TTT_camera_embedding/lact_llm/.cache_inductor/vy/cvyfaezus2vhbe3n3g5qkco6k2oyzldwnqc45gmcaq2mwvzmaqfl.py":25:44)
#loc11 = loc("/NHNHOME/WORKSPACE/26msit001_A/jinhyeok/TTT_camera_embedding/lact_llm/.cache_inductor/vy/cvyfaezus2vhbe3n3g5qkco6k2oyzldwnqc45gmcaq2mwvzmaqfl.py":26:30)
#loc12 = loc("/NHNHOME/WORKSPACE/26msit001_A/jinhyeok/TTT_camera_embedding/lact_llm/.cache_inductor/vy/cvyfaezus2vhbe3n3g5qkco6k2oyzldwnqc45gmcaq2mwvzmaqfl.py":26:35)
#loc13 = loc("/NHNHOME/WORKSPACE/26msit001_A/jinhyeok/TTT_camera_embedding/lact_llm/.cache_inductor/vy/cvyfaezus2vhbe3n3g5qkco6k2oyzldwnqc45gmcaq2mwvzmaqfl.py":27:31)
#loc14 = loc("/NHNHOME/WORKSPACE/26msit001_A/jinhyeok/TTT_camera_embedding/lact_llm/.cache_inductor/vy/cvyfaezus2vhbe3n3g5qkco6k2oyzldwnqc45gmcaq2mwvzmaqfl.py":27:36)
#loc15 = loc("/NHNHOME/WORKSPACE/26msit001_A/jinhyeok/TTT_camera_embedding/lact_llm/.cache_inductor/vy/cvyfaezus2vhbe3n3g5qkco6k2oyzldwnqc45gmcaq2mwvzmaqfl.py":29:11)
#loc16 = loc("/NHNHOME/WORKSPACE/26msit001_A/jinhyeok/TTT_camera_embedding/lact_llm/.cache_inductor/vy/cvyfaezus2vhbe3n3g5qkco6k2oyzldwnqc45gmcaq2mwvzmaqfl.py":30:19)
#loc17 = loc("/NHNHOME/WORKSPACE/26msit001_A/jinhyeok/TTT_camera_embedding/lact_llm/.cache_inductor/vy/cvyfaezus2vhbe3n3g5qkco6k2oyzldwnqc45gmcaq2mwvzmaqfl.py":31:11)
#loc18 = loc("/NHNHOME/WORKSPACE/26msit001_A/jinhyeok/TTT_camera_embedding/lact_llm/.cache_inductor/vy/cvyfaezus2vhbe3n3g5qkco6k2oyzldwnqc45gmcaq2mwvzmaqfl.py":32:18)
#loc19 = loc("/NHNHOME/WORKSPACE/26msit001_A/jinhyeok/TTT_camera_embedding/lact_llm/.cache_inductor/vy/cvyfaezus2vhbe3n3g5qkco6k2oyzldwnqc45gmcaq2mwvzmaqfl.py":33:18)
#loc20 = loc("/NHNHOME/WORKSPACE/26msit001_A/jinhyeok/TTT_camera_embedding/lact_llm/.cache_inductor/vy/cvyfaezus2vhbe3n3g5qkco6k2oyzldwnqc45gmcaq2mwvzmaqfl.py":36:27)
#loc21 = loc("/NHNHOME/WORKSPACE/26msit001_A/jinhyeok/TTT_camera_embedding/lact_llm/.cache_inductor/vy/cvyfaezus2vhbe3n3g5qkco6k2oyzldwnqc45gmcaq2mwvzmaqfl.py":37:12)
#loc22 = loc("/NHNHOME/WORKSPACE/26msit001_A/jinhyeok/TTT_camera_embedding/lact_llm/.cache_inductor/vy/cvyfaezus2vhbe3n3g5qkco6k2oyzldwnqc45gmcaq2mwvzmaqfl.py":38:20)
#loc23 = loc("/NHNHOME/WORKSPACE/26msit001_A/jinhyeok/TTT_camera_embedding/lact_llm/.cache_inductor/vy/cvyfaezus2vhbe3n3g5qkco6k2oyzldwnqc45gmcaq2mwvzmaqfl.py":39:20)
#loc24 = loc("/NHNHOME/WORKSPACE/26msit001_A/jinhyeok/TTT_camera_embedding/lact_llm/.cache_inductor/vy/cvyfaezus2vhbe3n3g5qkco6k2oyzldwnqc45gmcaq2mwvzmaqfl.py":41:25)
#loc25 = loc("/NHNHOME/WORKSPACE/26msit001_A/jinhyeok/TTT_camera_embedding/lact_llm/.cache_inductor/vy/cvyfaezus2vhbe3n3g5qkco6k2oyzldwnqc45gmcaq2mwvzmaqfl.py":41:37)
#loc26 = loc("/NHNHOME/WORKSPACE/26msit001_A/jinhyeok/TTT_camera_embedding/lact_llm/.cache_inductor/vy/cvyfaezus2vhbe3n3g5qkco6k2oyzldwnqc45gmcaq2mwvzmaqfl.py":42:25)
#loc27 = loc("/NHNHOME/WORKSPACE/26msit001_A/jinhyeok/TTT_camera_embedding/lact_llm/.cache_inductor/vy/cvyfaezus2vhbe3n3g5qkco6k2oyzldwnqc45gmcaq2mwvzmaqfl.py":42:37)
#loc28 = loc("/NHNHOME/WORKSPACE/26msit001_A/jinhyeok/TTT_camera_embedding/lact_llm/.cache_inductor/vy/cvyfaezus2vhbe3n3g5qkco6k2oyzldwnqc45gmcaq2mwvzmaqfl.py":43:25)
#loc29 = loc("/NHNHOME/WORKSPACE/26msit001_A/jinhyeok/TTT_camera_embedding/lact_llm/.cache_inductor/vy/cvyfaezus2vhbe3n3g5qkco6k2oyzldwnqc45gmcaq2mwvzmaqfl.py":43:37)
#loc30 = loc("/NHNHOME/WORKSPACE/26msit001_A/jinhyeok/TTT_camera_embedding/lact_llm/.cache_inductor/vy/cvyfaezus2vhbe3n3g5qkco6k2oyzldwnqc45gmcaq2mwvzmaqfl.py":43:4)
#loc38 = loc("xnumel"(#loc1))
#loc39 = loc("xoffset"(#loc2))
#loc40 = loc("xoffset"(#loc3))
#loc41 = loc("xindex"(#loc4))
#loc42 = loc("xindex"(#loc5))
#loc43 = loc("xmask"(#loc6))
#loc44 = loc("x1"(#loc7))
#loc45 = loc("tmp0"(#loc8))
#loc46 = loc("tmp0"(#loc9))
#loc47 = loc("tmp0"(#loc10))
#loc48 = loc("tmp2"(#loc11))
#loc49 = loc("tmp2"(#loc12))
#loc50 = loc("tmp10"(#loc13))
#loc51 = loc("tmp10"(#loc14))
#loc52 = loc("tmp3"(#loc15))
#loc53 = loc("tmp4"(#loc16))
#loc54 = loc("tmp5"(#loc17))
#loc55 = loc("tmp6"(#loc18))
#loc56 = loc("tmp7"(#loc19))
#loc57 = loc("tmp11"(#loc20))
#loc58 = loc("tmp12"(#loc21))
#loc59 = loc("tmp13"(#loc22))
#loc60 = loc("tmp14"(#loc23))
