#loc = loc("/NHNHOME/WORKSPACE/26msit001_A/jinhyeok/loop_TTT/lact/.cache_inductor_llm/2q/c2qcxxk5i47eu3bo5jgo5hvxhvvgwsuqhdv6p3mk2rnt2d3kuq2a.py":18:0)
#loc29 = loc("in_ptr0"(#loc))
#loc30 = loc("in_ptr1"(#loc))
#loc31 = loc("in_ptr2"(#loc))
#loc32 = loc("out_ptr0"(#loc))
#loc33 = loc("out_ptr1"(#loc))
#loc34 = loc("ks0"(#loc))
#loc35 = loc("xnumel"(#loc))
module {
  tt.func public @triton_poi_fused__to_copy_mul_slice_4(%in_ptr0: !tt.ptr<f32> {tt.divisibility = 16 : i32} loc("in_ptr0"(#loc)), %in_ptr1: !tt.ptr<f32> {tt.divisibility = 16 : i32} loc("in_ptr1"(#loc)), %in_ptr2: !tt.ptr<f32> loc("in_ptr2"(#loc)), %out_ptr0: !tt.ptr<bf16> {tt.divisibility = 16 : i32} loc("out_ptr0"(#loc)), %out_ptr1: !tt.ptr<bf16> {tt.divisibility = 16 : i32} loc("out_ptr1"(#loc)), %ks0: i64 loc("ks0"(#loc)), %xnumel: i32 {tt.divisibility = 16 : i32} loc("xnumel"(#loc))) attributes {noinline = false} {
    %c4096_i64 = arith.constant 4096 : i64 loc(#loc1)
    %tmp0 = arith.constant dense<786432> : tensor<1024xi32> loc(#loc36)
    %x1 = arith.constant dense<1024> : tensor<1024xi32> loc(#loc37)
    %x1_0 = arith.constant dense<192> : tensor<1024xi32> loc(#loc38)
    %cst = arith.constant dense<196608> : tensor<1024xi32> loc(#loc1)
    %c1024_i32 = arith.constant 1024 : i32 loc(#loc1)
    %xoffset = tt.get_program_id x : i32 loc(#loc39)
    %xoffset_1 = arith.muli %xoffset, %c1024_i32 : i32 loc(#loc40)
    %xindex = tt.make_range {end = 1024 : i32, start = 0 : i32} : tensor<1024xi32> loc(#loc41)
    %xindex_2 = tt.splat %xoffset_1 : i32 -> tensor<1024xi32> loc(#loc42)
    %xindex_3 = arith.addi %xindex_2, %xindex : tensor<1024xi32> loc(#loc42)
    %x2 = arith.divsi %xindex_3, %cst : tensor<1024xi32> loc(#loc43)
    %x3 = arith.remsi %xindex_3, %cst : tensor<1024xi32> loc(#loc44)
    %x1_4 = arith.divsi %xindex_3, %x1_0 : tensor<1024xi32> loc(#loc38)
    %x1_5 = arith.remsi %x1_4, %x1 : tensor<1024xi32> loc(#loc37)
    %tmp0_6 = arith.muli %x2, %tmp0 : tensor<1024xi32> loc(#loc36)
    %tmp0_7 = arith.addi %x3, %tmp0_6 : tensor<1024xi32> loc(#loc45)
    %tmp0_8 = tt.splat %in_ptr0 : !tt.ptr<f32> -> tensor<1024x!tt.ptr<f32>> loc(#loc46)
    %tmp0_9 = tt.addptr %tmp0_8, %tmp0_7 : tensor<1024x!tt.ptr<f32>>, tensor<1024xi32> loc(#loc46)
    %tmp0_10 = tt.load %tmp0_9 : tensor<1024x!tt.ptr<f32>> loc(#loc47)
    %tmp1 = arith.extsi %x1_5 : tensor<1024xi32> to tensor<1024xi64> loc(#loc48)
    %tmp1_11 = tt.splat %ks0 : i64 -> tensor<1024xi64> loc(#loc48)
    %tmp1_12 = arith.muli %tmp1_11, %tmp1 : tensor<1024xi64> loc(#loc48)
    %tmp1_13 = arith.muli %ks0, %c4096_i64 : i64 loc(#loc49)
    %tmp1_14 = arith.extsi %x2 : tensor<1024xi32> to tensor<1024xi64> loc(#loc50)
    %tmp1_15 = tt.splat %tmp1_13 : i64 -> tensor<1024xi64> loc(#loc50)
    %tmp1_16 = arith.muli %tmp1_15, %tmp1_14 : tensor<1024xi64> loc(#loc50)
    %tmp1_17 = arith.addi %tmp1_12, %tmp1_16 : tensor<1024xi64> loc(#loc51)
    %tmp1_18 = tt.splat %in_ptr1 : !tt.ptr<f32> -> tensor<1024x!tt.ptr<f32>> loc(#loc52)
    %tmp1_19 = tt.addptr %tmp1_18, %tmp1_17 : tensor<1024x!tt.ptr<f32>>, tensor<1024xi64> loc(#loc52)
    %tmp1_20 = tt.load %tmp1_19 evictionPolicy = evict_last : tensor<1024x!tt.ptr<f32>> loc(#loc53)
    %tmp4 = tt.splat %in_ptr2 : !tt.ptr<f32> -> tensor<1024x!tt.ptr<f32>> loc(#loc54)
    %tmp4_21 = tt.addptr %tmp4, %tmp1_17 : tensor<1024x!tt.ptr<f32>>, tensor<1024xi64> loc(#loc54)
    %tmp4_22 = tt.load %tmp4_21 evictionPolicy = evict_last : tensor<1024x!tt.ptr<f32>> loc(#loc55)
    %tmp2 = arith.mulf %tmp0_10, %tmp1_20 : tensor<1024xf32> loc(#loc56)
    %tmp5 = arith.mulf %tmp0_10, %tmp4_22 : tensor<1024xf32> loc(#loc57)
    %0 = tt.splat %out_ptr0 : !tt.ptr<bf16> -> tensor<1024x!tt.ptr<bf16>> loc(#loc24)
    %1 = tt.addptr %0, %xindex_3 : tensor<1024x!tt.ptr<bf16>>, tensor<1024xi32> loc(#loc24)
    %2 = arith.truncf %tmp2 : tensor<1024xf32> to tensor<1024xbf16> loc(#loc25)
    tt.store %1, %2 : tensor<1024x!tt.ptr<bf16>> loc(#loc25)
    %3 = tt.splat %out_ptr1 : !tt.ptr<bf16> -> tensor<1024x!tt.ptr<bf16>> loc(#loc26)
    %4 = tt.addptr %3, %xindex_3 : tensor<1024x!tt.ptr<bf16>>, tensor<1024xi32> loc(#loc26)
    %5 = arith.truncf %tmp5 : tensor<1024xf32> to tensor<1024xbf16> loc(#loc27)
    tt.store %4, %5 : tensor<1024x!tt.ptr<bf16>> loc(#loc27)
    tt.return loc(#loc28)
  } loc(#loc)
} loc(#loc)
#loc1 = loc(unknown)
#loc2 = loc("/NHNHOME/WORKSPACE/26msit001_A/jinhyeok/loop_TTT/lact/.cache_inductor_llm/2q/c2qcxxk5i47eu3bo5jgo5hvxhvvgwsuqhdv6p3mk2rnt2d3kuq2a.py":26:42)
#loc3 = loc("/NHNHOME/WORKSPACE/26msit001_A/jinhyeok/loop_TTT/lact/.cache_inductor_llm/2q/c2qcxxk5i47eu3bo5jgo5hvxhvvgwsuqhdv6p3mk2rnt2d3kuq2a.py":24:28)
#loc4 = loc("/NHNHOME/WORKSPACE/26msit001_A/jinhyeok/loop_TTT/lact/.cache_inductor_llm/2q/c2qcxxk5i47eu3bo5jgo5hvxhvvgwsuqhdv6p3mk2rnt2d3kuq2a.py":24:21)
#loc5 = loc("/NHNHOME/WORKSPACE/26msit001_A/jinhyeok/loop_TTT/lact/.cache_inductor_llm/2q/c2qcxxk5i47eu3bo5jgo5hvxhvvgwsuqhdv6p3mk2rnt2d3kuq2a.py":19:28)
#loc6 = loc("/NHNHOME/WORKSPACE/26msit001_A/jinhyeok/loop_TTT/lact/.cache_inductor_llm/2q/c2qcxxk5i47eu3bo5jgo5hvxhvvgwsuqhdv6p3mk2rnt2d3kuq2a.py":19:33)
#loc7 = loc("/NHNHOME/WORKSPACE/26msit001_A/jinhyeok/loop_TTT/lact/.cache_inductor_llm/2q/c2qcxxk5i47eu3bo5jgo5hvxhvvgwsuqhdv6p3mk2rnt2d3kuq2a.py":20:36)
#loc8 = loc("/NHNHOME/WORKSPACE/26msit001_A/jinhyeok/loop_TTT/lact/.cache_inductor_llm/2q/c2qcxxk5i47eu3bo5jgo5hvxhvvgwsuqhdv6p3mk2rnt2d3kuq2a.py":20:23)
#loc9 = loc("/NHNHOME/WORKSPACE/26msit001_A/jinhyeok/loop_TTT/lact/.cache_inductor_llm/2q/c2qcxxk5i47eu3bo5jgo5hvxhvvgwsuqhdv6p3mk2rnt2d3kuq2a.py":22:19)
#loc10 = loc("/NHNHOME/WORKSPACE/26msit001_A/jinhyeok/loop_TTT/lact/.cache_inductor_llm/2q/c2qcxxk5i47eu3bo5jgo5hvxhvvgwsuqhdv6p3mk2rnt2d3kuq2a.py":23:19)
#loc11 = loc("/NHNHOME/WORKSPACE/26msit001_A/jinhyeok/loop_TTT/lact/.cache_inductor_llm/2q/c2qcxxk5i47eu3bo5jgo5hvxhvvgwsuqhdv6p3mk2rnt2d3kuq2a.py":26:35)
#loc12 = loc("/NHNHOME/WORKSPACE/26msit001_A/jinhyeok/loop_TTT/lact/.cache_inductor_llm/2q/c2qcxxk5i47eu3bo5jgo5hvxhvvgwsuqhdv6p3mk2rnt2d3kuq2a.py":26:30)
#loc13 = loc("/NHNHOME/WORKSPACE/26msit001_A/jinhyeok/loop_TTT/lact/.cache_inductor_llm/2q/c2qcxxk5i47eu3bo5jgo5hvxhvvgwsuqhdv6p3mk2rnt2d3kuq2a.py":26:47)
#loc14 = loc("/NHNHOME/WORKSPACE/26msit001_A/jinhyeok/loop_TTT/lact/.cache_inductor_llm/2q/c2qcxxk5i47eu3bo5jgo5hvxhvvgwsuqhdv6p3mk2rnt2d3kuq2a.py":27:34)
#loc15 = loc("/NHNHOME/WORKSPACE/26msit001_A/jinhyeok/loop_TTT/lact/.cache_inductor_llm/2q/c2qcxxk5i47eu3bo5jgo5hvxhvvgwsuqhdv6p3mk2rnt2d3kuq2a.py":27:44)
#loc16 = loc("/NHNHOME/WORKSPACE/26msit001_A/jinhyeok/loop_TTT/lact/.cache_inductor_llm/2q/c2qcxxk5i47eu3bo5jgo5hvxhvvgwsuqhdv6p3mk2rnt2d3kuq2a.py":27:48)
#loc17 = loc("/NHNHOME/WORKSPACE/26msit001_A/jinhyeok/loop_TTT/lact/.cache_inductor_llm/2q/c2qcxxk5i47eu3bo5jgo5hvxhvvgwsuqhdv6p3mk2rnt2d3kuq2a.py":27:39)
#loc18 = loc("/NHNHOME/WORKSPACE/26msit001_A/jinhyeok/loop_TTT/lact/.cache_inductor_llm/2q/c2qcxxk5i47eu3bo5jgo5hvxhvvgwsuqhdv6p3mk2rnt2d3kuq2a.py":27:30)
#loc19 = loc("/NHNHOME/WORKSPACE/26msit001_A/jinhyeok/loop_TTT/lact/.cache_inductor_llm/2q/c2qcxxk5i47eu3bo5jgo5hvxhvvgwsuqhdv6p3mk2rnt2d3kuq2a.py":27:53)
#loc20 = loc("/NHNHOME/WORKSPACE/26msit001_A/jinhyeok/loop_TTT/lact/.cache_inductor_llm/2q/c2qcxxk5i47eu3bo5jgo5hvxhvvgwsuqhdv6p3mk2rnt2d3kuq2a.py":28:30)
#loc21 = loc("/NHNHOME/WORKSPACE/26msit001_A/jinhyeok/loop_TTT/lact/.cache_inductor_llm/2q/c2qcxxk5i47eu3bo5jgo5hvxhvvgwsuqhdv6p3mk2rnt2d3kuq2a.py":28:53)
#loc22 = loc("/NHNHOME/WORKSPACE/26msit001_A/jinhyeok/loop_TTT/lact/.cache_inductor_llm/2q/c2qcxxk5i47eu3bo5jgo5hvxhvvgwsuqhdv6p3mk2rnt2d3kuq2a.py":29:18)
#loc23 = loc("/NHNHOME/WORKSPACE/26msit001_A/jinhyeok/loop_TTT/lact/.cache_inductor_llm/2q/c2qcxxk5i47eu3bo5jgo5hvxhvvgwsuqhdv6p3mk2rnt2d3kuq2a.py":31:18)
#loc24 = loc("/NHNHOME/WORKSPACE/26msit001_A/jinhyeok/loop_TTT/lact/.cache_inductor_llm/2q/c2qcxxk5i47eu3bo5jgo5hvxhvvgwsuqhdv6p3mk2rnt2d3kuq2a.py":33:25)
#loc25 = loc("/NHNHOME/WORKSPACE/26msit001_A/jinhyeok/loop_TTT/lact/.cache_inductor_llm/2q/c2qcxxk5i47eu3bo5jgo5hvxhvvgwsuqhdv6p3mk2rnt2d3kuq2a.py":33:36)
#loc26 = loc("/NHNHOME/WORKSPACE/26msit001_A/jinhyeok/loop_TTT/lact/.cache_inductor_llm/2q/c2qcxxk5i47eu3bo5jgo5hvxhvvgwsuqhdv6p3mk2rnt2d3kuq2a.py":34:25)
#loc27 = loc("/NHNHOME/WORKSPACE/26msit001_A/jinhyeok/loop_TTT/lact/.cache_inductor_llm/2q/c2qcxxk5i47eu3bo5jgo5hvxhvvgwsuqhdv6p3mk2rnt2d3kuq2a.py":34:36)
#loc28 = loc("/NHNHOME/WORKSPACE/26msit001_A/jinhyeok/loop_TTT/lact/.cache_inductor_llm/2q/c2qcxxk5i47eu3bo5jgo5hvxhvvgwsuqhdv6p3mk2rnt2d3kuq2a.py":34:4)
#loc36 = loc("tmp0"(#loc2))
#loc37 = loc("x1"(#loc3))
#loc38 = loc("x1"(#loc4))
#loc39 = loc("xoffset"(#loc5))
#loc40 = loc("xoffset"(#loc6))
#loc41 = loc("xindex"(#loc7))
#loc42 = loc("xindex"(#loc8))
#loc43 = loc("x2"(#loc9))
#loc44 = loc("x3"(#loc10))
#loc45 = loc("tmp0"(#loc11))
#loc46 = loc("tmp0"(#loc12))
#loc47 = loc("tmp0"(#loc13))
#loc48 = loc("tmp1"(#loc14))
#loc49 = loc("tmp1"(#loc15))
#loc50 = loc("tmp1"(#loc16))
#loc51 = loc("tmp1"(#loc17))
#loc52 = loc("tmp1"(#loc18))
#loc53 = loc("tmp1"(#loc19))
#loc54 = loc("tmp4"(#loc20))
#loc55 = loc("tmp4"(#loc21))
#loc56 = loc("tmp2"(#loc22))
#loc57 = loc("tmp5"(#loc23))
