#loc = loc("/NHNHOME/WORKSPACE/26msit001_A/jinhyeok/loop_TTT/lact/.cache_inductor_llm/7h/c7hncpgwvrmwnbbdo34w744fvkkmfpd6z7s3zxrdpfwl5onzbdhs.py":18:0)
#loc47 = loc("in_ptr0"(#loc))
#loc48 = loc("in_ptr1"(#loc))
#loc49 = loc("in_ptr2"(#loc))
#loc50 = loc("in_ptr3"(#loc))
#loc51 = loc("in_ptr4"(#loc))
#loc52 = loc("in_ptr5"(#loc))
#loc53 = loc("in_ptr6"(#loc))
#loc54 = loc("out_ptr0"(#loc))
#loc55 = loc("out_ptr1"(#loc))
#loc56 = loc("xnumel"(#loc))
module {
  tt.func public @triton_poi_fused__to_copy_add_mul_transpose_6(%in_ptr0: !tt.ptr<bf16> {tt.divisibility = 16 : i32} loc("in_ptr0"(#loc)), %in_ptr1: !tt.ptr<bf16> {tt.divisibility = 16 : i32} loc("in_ptr1"(#loc)), %in_ptr2: !tt.ptr<f32> {tt.divisibility = 16 : i32} loc("in_ptr2"(#loc)), %in_ptr3: !tt.ptr<bf16> {tt.divisibility = 16 : i32} loc("in_ptr3"(#loc)), %in_ptr4: !tt.ptr<bf16> {tt.divisibility = 16 : i32} loc("in_ptr4"(#loc)), %in_ptr5: !tt.ptr<bf16> {tt.divisibility = 16 : i32} loc("in_ptr5"(#loc)), %in_ptr6: !tt.ptr<bf16> {tt.divisibility = 16 : i32} loc("in_ptr6"(#loc)), %out_ptr0: !tt.ptr<f32> {tt.divisibility = 16 : i32} loc("out_ptr0"(#loc)), %out_ptr1: !tt.ptr<bf16> {tt.divisibility = 16 : i32} loc("out_ptr1"(#loc)), %xnumel: i32 {tt.divisibility = 16 : i32} loc("xnumel"(#loc))) attributes {noinline = false} {
    %tmp15 = arith.constant dense<2.876900e+00> : tensor<512xf32> loc(#loc57)
    %tmp6 = arith.constant dense<2.836600e+00> : tensor<512xf32> loc(#loc58)
    %cst = arith.constant dense<36864> : tensor<512xi32> loc(#loc3)
    %cst_0 = arith.constant dense<192> : tensor<512xi32> loc(#loc3)
    %c512_i32 = arith.constant 512 : i32 loc(#loc3)
    %xoffset = tt.get_program_id x : i32 loc(#loc59)
    %xoffset_1 = arith.muli %xoffset, %c512_i32 : i32 loc(#loc60)
    %xindex = tt.make_range {end = 512 : i32, start = 0 : i32} : tensor<512xi32> loc(#loc61)
    %xindex_2 = tt.splat %xoffset_1 : i32 -> tensor<512xi32> loc(#loc62)
    %xindex_3 = arith.addi %xindex_2, %xindex : tensor<512xi32> loc(#loc62)
    %x0 = arith.remsi %xindex_3, %cst_0 : tensor<512xi32> loc(#loc63)
    %x1 = arith.divsi %xindex_3, %cst_0 : tensor<512xi32> loc(#loc64)
    %x1_4 = arith.remsi %x1, %cst_0 : tensor<512xi32> loc(#loc65)
    %x2 = arith.divsi %xindex_3, %cst : tensor<512xi32> loc(#loc66)
    %tmp0 = tt.splat %in_ptr0 : !tt.ptr<bf16> -> tensor<512x!tt.ptr<bf16>> loc(#loc67)
    %tmp0_5 = tt.addptr %tmp0, %xindex_3 : tensor<512x!tt.ptr<bf16>>, tensor<512xi32> loc(#loc67)
    %tmp0_6 = tt.load %tmp0_5 : tensor<512x!tt.ptr<bf16>> loc(#loc68)
    %tmp0_7 = arith.extf %tmp0_6 : tensor<512xbf16> to tensor<512xf32> loc(#loc69)
    %tmp2 = tt.splat %in_ptr1 : !tt.ptr<bf16> -> tensor<512x!tt.ptr<bf16>> loc(#loc70)
    %tmp2_8 = tt.addptr %tmp2, %xindex_3 : tensor<512x!tt.ptr<bf16>>, tensor<512xi32> loc(#loc70)
    %tmp2_9 = tt.load %tmp2_8 : tensor<512x!tt.ptr<bf16>> loc(#loc71)
    %tmp2_10 = arith.extf %tmp2_9 : tensor<512xbf16> to tensor<512xf32> loc(#loc72)
    %tmp4 = tt.splat %in_ptr2 : !tt.ptr<f32> -> tensor<512x!tt.ptr<f32>> loc(#loc73)
    %tmp4_11 = tt.addptr %tmp4, %xindex_3 : tensor<512x!tt.ptr<f32>>, tensor<512xi32> loc(#loc73)
    %tmp4_12 = tt.load %tmp4_11 : tensor<512x!tt.ptr<f32>> loc(#loc74)
    %tmp8 = tt.splat %in_ptr3 : !tt.ptr<bf16> -> tensor<512x!tt.ptr<bf16>> loc(#loc75)
    %tmp8_13 = tt.addptr %tmp8, %xindex_3 : tensor<512x!tt.ptr<bf16>>, tensor<512xi32> loc(#loc75)
    %tmp8_14 = tt.load %tmp8_13 : tensor<512x!tt.ptr<bf16>> loc(#loc76)
    %tmp8_15 = arith.extf %tmp8_14 : tensor<512xbf16> to tensor<512xf32> loc(#loc77)
    %tmp11 = arith.muli %x0, %cst_0 : tensor<512xi32> loc(#loc78)
    %tmp11_16 = arith.addi %x1_4, %tmp11 : tensor<512xi32> loc(#loc79)
    %tmp11_17 = arith.muli %x2, %cst : tensor<512xi32> loc(#loc80)
    %tmp11_18 = arith.addi %tmp11_16, %tmp11_17 : tensor<512xi32> loc(#loc81)
    %tmp11_19 = tt.splat %in_ptr4 : !tt.ptr<bf16> -> tensor<512x!tt.ptr<bf16>> loc(#loc82)
    %tmp11_20 = tt.addptr %tmp11_19, %tmp11_18 : tensor<512x!tt.ptr<bf16>>, tensor<512xi32> loc(#loc82)
    %tmp11_21 = tt.load %tmp11_20 evictionPolicy = evict_last : tensor<512x!tt.ptr<bf16>> loc(#loc83)
    %tmp11_22 = arith.extf %tmp11_21 : tensor<512xbf16> to tensor<512xf32> loc(#loc84)
    %tmp17 = tt.splat %in_ptr5 : !tt.ptr<bf16> -> tensor<512x!tt.ptr<bf16>> loc(#loc85)
    %tmp17_23 = tt.addptr %tmp17, %xindex_3 : tensor<512x!tt.ptr<bf16>>, tensor<512xi32> loc(#loc85)
    %tmp17_24 = tt.load %tmp17_23 : tensor<512x!tt.ptr<bf16>> loc(#loc86)
    %tmp17_25 = arith.extf %tmp17_24 : tensor<512xbf16> to tensor<512xf32> loc(#loc87)
    %tmp20 = tt.splat %in_ptr6 : !tt.ptr<bf16> -> tensor<512x!tt.ptr<bf16>> loc(#loc88)
    %tmp20_26 = tt.addptr %tmp20, %tmp11_18 : tensor<512x!tt.ptr<bf16>>, tensor<512xi32> loc(#loc88)
    %tmp20_27 = tt.load %tmp20_26 evictionPolicy = evict_last : tensor<512x!tt.ptr<bf16>> loc(#loc89)
    %tmp20_28 = arith.extf %tmp20_27 : tensor<512xbf16> to tensor<512xf32> loc(#loc90)
    %tmp6_29 = arith.mulf %tmp4_12, %tmp6 : tensor<512xf32> loc(#loc58)
    %tmp7 = arith.addf %tmp2_10, %tmp6_29 : tensor<512xf32> loc(#loc91)
    %tmp10 = arith.addf %tmp7, %tmp8_15 : tensor<512xf32> loc(#loc92)
    %tmp13 = arith.addf %tmp10, %tmp11_22 : tensor<512xf32> loc(#loc93)
    %tmp15_30 = arith.mulf %tmp13, %tmp15 : tensor<512xf32> loc(#loc57)
    %tmp16 = arith.addf %tmp0_7, %tmp15_30 : tensor<512xf32> loc(#loc94)
    %tmp19 = arith.addf %tmp16, %tmp17_25 : tensor<512xf32> loc(#loc95)
    %tmp22 = arith.addf %tmp19, %tmp20_28 : tensor<512xf32> loc(#loc96)
    %0 = tt.splat %out_ptr0 : !tt.ptr<f32> -> tensor<512x!tt.ptr<f32>> loc(#loc42)
    %1 = tt.addptr %0, %xindex_3 : tensor<512x!tt.ptr<f32>>, tensor<512xi32> loc(#loc42)
    tt.store %1, %tmp22 : tensor<512x!tt.ptr<f32>> loc(#loc43)
    %2 = tt.splat %out_ptr1 : !tt.ptr<bf16> -> tensor<512x!tt.ptr<bf16>> loc(#loc44)
    %3 = tt.addptr %2, %xindex_3 : tensor<512x!tt.ptr<bf16>>, tensor<512xi32> loc(#loc44)
    %4 = arith.truncf %tmp22 : tensor<512xf32> to tensor<512xbf16> loc(#loc45)
    tt.store %3, %4 : tensor<512x!tt.ptr<bf16>> loc(#loc45)
    tt.return loc(#loc46)
  } loc(#loc)
} loc(#loc)
#loc1 = loc("/NHNHOME/WORKSPACE/26msit001_A/jinhyeok/loop_TTT/lact/.cache_inductor_llm/7h/c7hncpgwvrmwnbbdo34w744fvkkmfpd6z7s3zxrdpfwl5onzbdhs.py":44:20)
#loc2 = loc("/NHNHOME/WORKSPACE/26msit001_A/jinhyeok/loop_TTT/lact/.cache_inductor_llm/7h/c7hncpgwvrmwnbbdo34w744fvkkmfpd6z7s3zxrdpfwl5onzbdhs.py":37:18)
#loc3 = loc(unknown)
#loc4 = loc("/NHNHOME/WORKSPACE/26msit001_A/jinhyeok/loop_TTT/lact/.cache_inductor_llm/7h/c7hncpgwvrmwnbbdo34w744fvkkmfpd6z7s3zxrdpfwl5onzbdhs.py":20:28)
#loc5 = loc("/NHNHOME/WORKSPACE/26msit001_A/jinhyeok/loop_TTT/lact/.cache_inductor_llm/7h/c7hncpgwvrmwnbbdo34w744fvkkmfpd6z7s3zxrdpfwl5onzbdhs.py":20:33)
#loc6 = loc("/NHNHOME/WORKSPACE/26msit001_A/jinhyeok/loop_TTT/lact/.cache_inductor_llm/7h/c7hncpgwvrmwnbbdo34w744fvkkmfpd6z7s3zxrdpfwl5onzbdhs.py":21:36)
#loc7 = loc("/NHNHOME/WORKSPACE/26msit001_A/jinhyeok/loop_TTT/lact/.cache_inductor_llm/7h/c7hncpgwvrmwnbbdo34w744fvkkmfpd6z7s3zxrdpfwl5onzbdhs.py":21:23)
#loc8 = loc("/NHNHOME/WORKSPACE/26msit001_A/jinhyeok/loop_TTT/lact/.cache_inductor_llm/7h/c7hncpgwvrmwnbbdo34w744fvkkmfpd6z7s3zxrdpfwl5onzbdhs.py":24:19)
#loc9 = loc("/NHNHOME/WORKSPACE/26msit001_A/jinhyeok/loop_TTT/lact/.cache_inductor_llm/7h/c7hncpgwvrmwnbbdo34w744fvkkmfpd6z7s3zxrdpfwl5onzbdhs.py":25:21)
#loc10 = loc("/NHNHOME/WORKSPACE/26msit001_A/jinhyeok/loop_TTT/lact/.cache_inductor_llm/7h/c7hncpgwvrmwnbbdo34w744fvkkmfpd6z7s3zxrdpfwl5onzbdhs.py":25:28)
#loc11 = loc("/NHNHOME/WORKSPACE/26msit001_A/jinhyeok/loop_TTT/lact/.cache_inductor_llm/7h/c7hncpgwvrmwnbbdo34w744fvkkmfpd6z7s3zxrdpfwl5onzbdhs.py":26:19)
#loc12 = loc("/NHNHOME/WORKSPACE/26msit001_A/jinhyeok/loop_TTT/lact/.cache_inductor_llm/7h/c7hncpgwvrmwnbbdo34w744fvkkmfpd6z7s3zxrdpfwl5onzbdhs.py":27:30)
#loc13 = loc("/NHNHOME/WORKSPACE/26msit001_A/jinhyeok/loop_TTT/lact/.cache_inductor_llm/7h/c7hncpgwvrmwnbbdo34w744fvkkmfpd6z7s3zxrdpfwl5onzbdhs.py":27:35)
#loc14 = loc("/NHNHOME/WORKSPACE/26msit001_A/jinhyeok/loop_TTT/lact/.cache_inductor_llm/7h/c7hncpgwvrmwnbbdo34w744fvkkmfpd6z7s3zxrdpfwl5onzbdhs.py":27:44)
#loc15 = loc("/NHNHOME/WORKSPACE/26msit001_A/jinhyeok/loop_TTT/lact/.cache_inductor_llm/7h/c7hncpgwvrmwnbbdo34w744fvkkmfpd6z7s3zxrdpfwl5onzbdhs.py":28:30)
#loc16 = loc("/NHNHOME/WORKSPACE/26msit001_A/jinhyeok/loop_TTT/lact/.cache_inductor_llm/7h/c7hncpgwvrmwnbbdo34w744fvkkmfpd6z7s3zxrdpfwl5onzbdhs.py":28:35)
#loc17 = loc("/NHNHOME/WORKSPACE/26msit001_A/jinhyeok/loop_TTT/lact/.cache_inductor_llm/7h/c7hncpgwvrmwnbbdo34w744fvkkmfpd6z7s3zxrdpfwl5onzbdhs.py":28:44)
#loc18 = loc("/NHNHOME/WORKSPACE/26msit001_A/jinhyeok/loop_TTT/lact/.cache_inductor_llm/7h/c7hncpgwvrmwnbbdo34w744fvkkmfpd6z7s3zxrdpfwl5onzbdhs.py":29:30)
#loc19 = loc("/NHNHOME/WORKSPACE/26msit001_A/jinhyeok/loop_TTT/lact/.cache_inductor_llm/7h/c7hncpgwvrmwnbbdo34w744fvkkmfpd6z7s3zxrdpfwl5onzbdhs.py":29:35)
#loc20 = loc("/NHNHOME/WORKSPACE/26msit001_A/jinhyeok/loop_TTT/lact/.cache_inductor_llm/7h/c7hncpgwvrmwnbbdo34w744fvkkmfpd6z7s3zxrdpfwl5onzbdhs.py":30:30)
#loc21 = loc("/NHNHOME/WORKSPACE/26msit001_A/jinhyeok/loop_TTT/lact/.cache_inductor_llm/7h/c7hncpgwvrmwnbbdo34w744fvkkmfpd6z7s3zxrdpfwl5onzbdhs.py":30:35)
#loc22 = loc("/NHNHOME/WORKSPACE/26msit001_A/jinhyeok/loop_TTT/lact/.cache_inductor_llm/7h/c7hncpgwvrmwnbbdo34w744fvkkmfpd6z7s3zxrdpfwl5onzbdhs.py":30:44)
#loc23 = loc("/NHNHOME/WORKSPACE/26msit001_A/jinhyeok/loop_TTT/lact/.cache_inductor_llm/7h/c7hncpgwvrmwnbbdo34w744fvkkmfpd6z7s3zxrdpfwl5onzbdhs.py":31:40)
#loc24 = loc("/NHNHOME/WORKSPACE/26msit001_A/jinhyeok/loop_TTT/lact/.cache_inductor_llm/7h/c7hncpgwvrmwnbbdo34w744fvkkmfpd6z7s3zxrdpfwl5onzbdhs.py":31:36)
#loc25 = loc("/NHNHOME/WORKSPACE/26msit001_A/jinhyeok/loop_TTT/lact/.cache_inductor_llm/7h/c7hncpgwvrmwnbbdo34w744fvkkmfpd6z7s3zxrdpfwl5onzbdhs.py":31:51)
#loc26 = loc("/NHNHOME/WORKSPACE/26msit001_A/jinhyeok/loop_TTT/lact/.cache_inductor_llm/7h/c7hncpgwvrmwnbbdo34w744fvkkmfpd6z7s3zxrdpfwl5onzbdhs.py":31:45)
#loc27 = loc("/NHNHOME/WORKSPACE/26msit001_A/jinhyeok/loop_TTT/lact/.cache_inductor_llm/7h/c7hncpgwvrmwnbbdo34w744fvkkmfpd6z7s3zxrdpfwl5onzbdhs.py":31:31)
#loc28 = loc("/NHNHOME/WORKSPACE/26msit001_A/jinhyeok/loop_TTT/lact/.cache_inductor_llm/7h/c7hncpgwvrmwnbbdo34w744fvkkmfpd6z7s3zxrdpfwl5onzbdhs.py":31:56)
#loc29 = loc("/NHNHOME/WORKSPACE/26msit001_A/jinhyeok/loop_TTT/lact/.cache_inductor_llm/7h/c7hncpgwvrmwnbbdo34w744fvkkmfpd6z7s3zxrdpfwl5onzbdhs.py":31:95)
#loc30 = loc("/NHNHOME/WORKSPACE/26msit001_A/jinhyeok/loop_TTT/lact/.cache_inductor_llm/7h/c7hncpgwvrmwnbbdo34w744fvkkmfpd6z7s3zxrdpfwl5onzbdhs.py":32:31)
#loc31 = loc("/NHNHOME/WORKSPACE/26msit001_A/jinhyeok/loop_TTT/lact/.cache_inductor_llm/7h/c7hncpgwvrmwnbbdo34w744fvkkmfpd6z7s3zxrdpfwl5onzbdhs.py":32:36)
#loc32 = loc("/NHNHOME/WORKSPACE/26msit001_A/jinhyeok/loop_TTT/lact/.cache_inductor_llm/7h/c7hncpgwvrmwnbbdo34w744fvkkmfpd6z7s3zxrdpfwl5onzbdhs.py":32:45)
#loc33 = loc("/NHNHOME/WORKSPACE/26msit001_A/jinhyeok/loop_TTT/lact/.cache_inductor_llm/7h/c7hncpgwvrmwnbbdo34w744fvkkmfpd6z7s3zxrdpfwl5onzbdhs.py":33:31)
#loc34 = loc("/NHNHOME/WORKSPACE/26msit001_A/jinhyeok/loop_TTT/lact/.cache_inductor_llm/7h/c7hncpgwvrmwnbbdo34w744fvkkmfpd6z7s3zxrdpfwl5onzbdhs.py":33:56)
#loc35 = loc("/NHNHOME/WORKSPACE/26msit001_A/jinhyeok/loop_TTT/lact/.cache_inductor_llm/7h/c7hncpgwvrmwnbbdo34w744fvkkmfpd6z7s3zxrdpfwl5onzbdhs.py":33:95)
#loc36 = loc("/NHNHOME/WORKSPACE/26msit001_A/jinhyeok/loop_TTT/lact/.cache_inductor_llm/7h/c7hncpgwvrmwnbbdo34w744fvkkmfpd6z7s3zxrdpfwl5onzbdhs.py":38:18)
#loc37 = loc("/NHNHOME/WORKSPACE/26msit001_A/jinhyeok/loop_TTT/lact/.cache_inductor_llm/7h/c7hncpgwvrmwnbbdo34w744fvkkmfpd6z7s3zxrdpfwl5onzbdhs.py":40:19)
#loc38 = loc("/NHNHOME/WORKSPACE/26msit001_A/jinhyeok/loop_TTT/lact/.cache_inductor_llm/7h/c7hncpgwvrmwnbbdo34w744fvkkmfpd6z7s3zxrdpfwl5onzbdhs.py":42:20)
#loc39 = loc("/NHNHOME/WORKSPACE/26msit001_A/jinhyeok/loop_TTT/lact/.cache_inductor_llm/7h/c7hncpgwvrmwnbbdo34w744fvkkmfpd6z7s3zxrdpfwl5onzbdhs.py":45:19)
#loc40 = loc("/NHNHOME/WORKSPACE/26msit001_A/jinhyeok/loop_TTT/lact/.cache_inductor_llm/7h/c7hncpgwvrmwnbbdo34w744fvkkmfpd6z7s3zxrdpfwl5onzbdhs.py":47:20)
#loc41 = loc("/NHNHOME/WORKSPACE/26msit001_A/jinhyeok/loop_TTT/lact/.cache_inductor_llm/7h/c7hncpgwvrmwnbbdo34w744fvkkmfpd6z7s3zxrdpfwl5onzbdhs.py":49:20)
#loc42 = loc("/NHNHOME/WORKSPACE/26msit001_A/jinhyeok/loop_TTT/lact/.cache_inductor_llm/7h/c7hncpgwvrmwnbbdo34w744fvkkmfpd6z7s3zxrdpfwl5onzbdhs.py":51:25)
#loc43 = loc("/NHNHOME/WORKSPACE/26msit001_A/jinhyeok/loop_TTT/lact/.cache_inductor_llm/7h/c7hncpgwvrmwnbbdo34w744fvkkmfpd6z7s3zxrdpfwl5onzbdhs.py":51:37)
#loc44 = loc("/NHNHOME/WORKSPACE/26msit001_A/jinhyeok/loop_TTT/lact/.cache_inductor_llm/7h/c7hncpgwvrmwnbbdo34w744fvkkmfpd6z7s3zxrdpfwl5onzbdhs.py":52:25)
#loc45 = loc("/NHNHOME/WORKSPACE/26msit001_A/jinhyeok/loop_TTT/lact/.cache_inductor_llm/7h/c7hncpgwvrmwnbbdo34w744fvkkmfpd6z7s3zxrdpfwl5onzbdhs.py":52:37)
#loc46 = loc("/NHNHOME/WORKSPACE/26msit001_A/jinhyeok/loop_TTT/lact/.cache_inductor_llm/7h/c7hncpgwvrmwnbbdo34w744fvkkmfpd6z7s3zxrdpfwl5onzbdhs.py":52:4)
#loc57 = loc("tmp15"(#loc1))
#loc58 = loc("tmp6"(#loc2))
#loc59 = loc("xoffset"(#loc4))
#loc60 = loc("xoffset"(#loc5))
#loc61 = loc("xindex"(#loc6))
#loc62 = loc("xindex"(#loc7))
#loc63 = loc("x0"(#loc8))
#loc64 = loc("x1"(#loc9))
#loc65 = loc("x1"(#loc10))
#loc66 = loc("x2"(#loc11))
#loc67 = loc("tmp0"(#loc12))
#loc68 = loc("tmp0"(#loc13))
#loc69 = loc("tmp0"(#loc14))
#loc70 = loc("tmp2"(#loc15))
#loc71 = loc("tmp2"(#loc16))
#loc72 = loc("tmp2"(#loc17))
#loc73 = loc("tmp4"(#loc18))
#loc74 = loc("tmp4"(#loc19))
#loc75 = loc("tmp8"(#loc20))
#loc76 = loc("tmp8"(#loc21))
#loc77 = loc("tmp8"(#loc22))
#loc78 = loc("tmp11"(#loc23))
#loc79 = loc("tmp11"(#loc24))
#loc80 = loc("tmp11"(#loc25))
#loc81 = loc("tmp11"(#loc26))
#loc82 = loc("tmp11"(#loc27))
#loc83 = loc("tmp11"(#loc28))
#loc84 = loc("tmp11"(#loc29))
#loc85 = loc("tmp17"(#loc30))
#loc86 = loc("tmp17"(#loc31))
#loc87 = loc("tmp17"(#loc32))
#loc88 = loc("tmp20"(#loc33))
#loc89 = loc("tmp20"(#loc34))
#loc90 = loc("tmp20"(#loc35))
#loc91 = loc("tmp7"(#loc36))
#loc92 = loc("tmp10"(#loc37))
#loc93 = loc("tmp13"(#loc38))
#loc94 = loc("tmp16"(#loc39))
#loc95 = loc("tmp19"(#loc40))
#loc96 = loc("tmp22"(#loc41))
