#loc = loc("/NHNHOME/WORKSPACE/26msit001_A/jinhyeok/loop_TTT/lact/.cache_inductor_llm/qp/cqpu7v5w2euwe7dtt5k3kbnnbcj74ge3wx3so2hkstglpqwg3rui.py":18:0)
#loc1 = loc(unknown)
#loc14 = loc("/NHNHOME/WORKSPACE/26msit001_A/jinhyeok/loop_TTT/lact/.cache_inductor_llm/qp/cqpu7v5w2euwe7dtt5k3kbnnbcj74ge3wx3so2hkstglpqwg3rui.py":38:24)
#loc22 = loc("in_ptr0"(#loc))
#loc23 = loc("out_ptr1"(#loc))
#loc24 = loc("xnumel"(#loc))
#loc25 = loc("r0_numel"(#loc))
#loc37 = loc("tmp5"(#loc14))
#loc43 = loc(callsite(#loc1 at #loc37))
module {
  tt.func public @triton_per_fused_add_div_linalg_vector_norm_0(%in_ptr0: !tt.ptr<f32> {tt.divisibility = 16 : i32} loc("in_ptr0"(#loc)), %out_ptr1: !tt.ptr<f32> {tt.divisibility = 16 : i32} loc("out_ptr1"(#loc)), %xnumel: i32 {tt.divisibility = 16 : i32} loc("xnumel"(#loc)), %r0_numel: i32 {tt.divisibility = 16 : i32} loc("r0_numel"(#loc))) attributes {noinline = false} {
    %c192_i32 = arith.constant 192 : i32 loc(#loc1)
    %tmp8 = arith.constant dense<9.99999974E-6> : tensor<1x1xf32> loc(#loc26)
    %cst = arith.constant dense<0.000000e+00> : tensor<1x256xf32> loc(#loc1)
    %r0_mask = arith.constant dense<192> : tensor<1x256xi32> loc(#loc27)
    %xoffset = tt.get_program_id x : i32 loc(#loc28)
    %r0_index = tt.make_range {end = 256 : i32, start = 0 : i32} : tensor<256xi32> loc(#loc29)
    %r0_index_0 = tt.expand_dims %r0_index {axis = 0 : i32} : tensor<256xi32> -> tensor<1x256xi32> loc(#loc30)
    %r0_mask_1 = arith.cmpi slt, %r0_index_0, %r0_mask : tensor<1x256xi32> loc(#loc27)
    %tmp0 = arith.muli %xoffset, %c192_i32 : i32 loc(#loc31)
    %tmp0_2 = tt.splat %tmp0 : i32 -> tensor<1x256xi32> loc(#loc41)
    %tmp0_3 = arith.addi %r0_index_0, %tmp0_2 : tensor<1x256xi32> loc(#loc32)
    %tmp0_4 = tt.splat %in_ptr0 : !tt.ptr<f32> -> tensor<1x256x!tt.ptr<f32>> loc(#loc33)
    %tmp0_5 = tt.addptr %tmp0_4, %tmp0_3 : tensor<1x256x!tt.ptr<f32>>, tensor<1x256xi32> loc(#loc33)
    %tmp0_6 = tt.load %tmp0_5, %r0_mask_1, %cst : tensor<1x256x!tt.ptr<f32>> loc(#loc34)
    %tmp1 = arith.mulf %tmp0_6, %tmp0_6 : tensor<1x256xf32> loc(#loc35)
    %tmp4 = arith.select %r0_mask_1, %tmp1, %cst : tensor<1x256xi1>, tensor<1x256xf32> loc(#loc36)
    %tmp5 = "tt.reduce"(%tmp4) <{axis = 1 : i32}> ({
    ^bb0(%tmp5_10: f32 loc(callsite(#loc1 at #loc37)), %tmp5_11: f32 loc(callsite(#loc1 at #loc37))):
      %tmp5_12 = arith.addf %tmp5_10, %tmp5_11 : f32 loc(#loc44)
      tt.reduce.return %tmp5_12 : f32 loc(#loc42)
    }) : (tensor<1x256xf32>) -> tensor<1xf32> loc(#loc42)
    %tmp5_7 = tt.expand_dims %tmp5 {axis = 1 : i32} : tensor<1xf32> -> tensor<1x1xf32> loc(#loc38)
    %tmp6 = tt.extern_elementwise %tmp5_7 {libname = "", libpath = "", pure = true, symbol = "__nv_sqrtf"} : (tensor<1x1xf32>) -> tensor<1x1xf32> loc(#loc39)
    %tmp8_8 = arith.addf %tmp6, %tmp8 : tensor<1x1xf32> loc(#loc26)
    %tmp9 = tt.broadcast %tmp8_8 : tensor<1x1xf32> -> tensor<1x256xf32> loc(#loc40)
    %tmp9_9 = arith.divf %tmp0_6, %tmp9 : tensor<1x256xf32> loc(#loc40)
    %0 = tt.splat %out_ptr1 : !tt.ptr<f32> -> tensor<1x256x!tt.ptr<f32>> loc(#loc19)
    %1 = tt.addptr %0, %tmp0_3 : tensor<1x256x!tt.ptr<f32>>, tensor<1x256xi32> loc(#loc19)
    tt.store %1, %tmp9_9, %r0_mask_1 : tensor<1x256x!tt.ptr<f32>> loc(#loc20)
    tt.return loc(#loc21)
  } loc(#loc)
} loc(#loc)
#loc2 = loc("/NHNHOME/WORKSPACE/26msit001_A/jinhyeok/loop_TTT/lact/.cache_inductor_llm/qp/cqpu7v5w2euwe7dtt5k3kbnnbcj74ge3wx3so2hkstglpqwg3rui.py":41:18)
#loc3 = loc("/NHNHOME/WORKSPACE/26msit001_A/jinhyeok/loop_TTT/lact/.cache_inductor_llm/qp/cqpu7v5w2euwe7dtt5k3kbnnbcj74ge3wx3so2hkstglpqwg3rui.py":29:25)
#loc4 = loc("/NHNHOME/WORKSPACE/26msit001_A/jinhyeok/loop_TTT/lact/.cache_inductor_llm/qp/cqpu7v5w2euwe7dtt5k3kbnnbcj74ge3wx3so2hkstglpqwg3rui.py":24:28)
#loc5 = loc("/NHNHOME/WORKSPACE/26msit001_A/jinhyeok/loop_TTT/lact/.cache_inductor_llm/qp/cqpu7v5w2euwe7dtt5k3kbnnbcj74ge3wx3so2hkstglpqwg3rui.py":27:28)
#loc6 = loc("/NHNHOME/WORKSPACE/26msit001_A/jinhyeok/loop_TTT/lact/.cache_inductor_llm/qp/cqpu7v5w2euwe7dtt5k3kbnnbcj74ge3wx3so2hkstglpqwg3rui.py":27:38)
#loc7 = loc("/NHNHOME/WORKSPACE/26msit001_A/jinhyeok/loop_TTT/lact/.cache_inductor_llm/qp/cqpu7v5w2euwe7dtt5k3kbnnbcj74ge3wx3so2hkstglpqwg3rui.py":34:41)
#loc8 = loc("/NHNHOME/WORKSPACE/26msit001_A/jinhyeok/loop_TTT/lact/.cache_inductor_llm/qp/cqpu7v5w2euwe7dtt5k3kbnnbcj74ge3wx3so2hkstglpqwg3rui.py":34:37)
#loc9 = loc("/NHNHOME/WORKSPACE/26msit001_A/jinhyeok/loop_TTT/lact/.cache_inductor_llm/qp/cqpu7v5w2euwe7dtt5k3kbnnbcj74ge3wx3so2hkstglpqwg3rui.py":34:30)
#loc10 = loc("/NHNHOME/WORKSPACE/26msit001_A/jinhyeok/loop_TTT/lact/.cache_inductor_llm/qp/cqpu7v5w2euwe7dtt5k3kbnnbcj74ge3wx3so2hkstglpqwg3rui.py":34:46)
#loc11 = loc("/NHNHOME/WORKSPACE/26msit001_A/jinhyeok/loop_TTT/lact/.cache_inductor_llm/qp/cqpu7v5w2euwe7dtt5k3kbnnbcj74ge3wx3so2hkstglpqwg3rui.py":35:18)
#loc12 = loc("/NHNHOME/WORKSPACE/26msit001_A/jinhyeok/loop_TTT/lact/.cache_inductor_llm/qp/cqpu7v5w2euwe7dtt5k3kbnnbcj74ge3wx3so2hkstglpqwg3rui.py":37:35)
#loc13 = loc("/NHNHOME/WORKSPACE/26msit001_A/jinhyeok/TTT_camera_embedding/.venv_llm/lib/python3.12/site-packages/triton/language/standard.py":291:36)
#loc15 = loc("/NHNHOME/WORKSPACE/26msit001_A/jinhyeok/TTT_camera_embedding/.venv_llm/lib/python3.12/site-packages/triton/language/standard.py":261:15)
#loc16 = loc("/NHNHOME/WORKSPACE/26msit001_A/jinhyeok/loop_TTT/lact/.cache_inductor_llm/qp/cqpu7v5w2euwe7dtt5k3kbnnbcj74ge3wx3so2hkstglpqwg3rui.py":38:27)
#loc17 = loc("/NHNHOME/WORKSPACE/26msit001_A/jinhyeok/loop_TTT/lact/.cache_inductor_llm/qp/cqpu7v5w2euwe7dtt5k3kbnnbcj74ge3wx3so2hkstglpqwg3rui.py":39:26)
#loc18 = loc("/NHNHOME/WORKSPACE/26msit001_A/jinhyeok/loop_TTT/lact/.cache_inductor_llm/qp/cqpu7v5w2euwe7dtt5k3kbnnbcj74ge3wx3so2hkstglpqwg3rui.py":42:19)
#loc19 = loc("/NHNHOME/WORKSPACE/26msit001_A/jinhyeok/loop_TTT/lact/.cache_inductor_llm/qp/cqpu7v5w2euwe7dtt5k3kbnnbcj74ge3wx3so2hkstglpqwg3rui.py":43:25)
#loc20 = loc("/NHNHOME/WORKSPACE/26msit001_A/jinhyeok/loop_TTT/lact/.cache_inductor_llm/qp/cqpu7v5w2euwe7dtt5k3kbnnbcj74ge3wx3so2hkstglpqwg3rui.py":43:47)
#loc21 = loc("/NHNHOME/WORKSPACE/26msit001_A/jinhyeok/loop_TTT/lact/.cache_inductor_llm/qp/cqpu7v5w2euwe7dtt5k3kbnnbcj74ge3wx3so2hkstglpqwg3rui.py":43:4)
#loc26 = loc("tmp8"(#loc2))
#loc27 = loc("r0_mask"(#loc3))
#loc28 = loc("xoffset"(#loc4))
#loc29 = loc("r0_index"(#loc5))
#loc30 = loc("r0_index"(#loc6))
#loc31 = loc("tmp0"(#loc7))
#loc32 = loc("tmp0"(#loc8))
#loc33 = loc("tmp0"(#loc9))
#loc34 = loc("tmp0"(#loc10))
#loc35 = loc("tmp1"(#loc11))
#loc36 = loc("tmp4"(#loc12))
#loc38 = loc("tmp5"(#loc16))
#loc39 = loc("tmp6"(#loc17))
#loc40 = loc("tmp9"(#loc18))
#loc41 = loc(fused[#loc32, #loc31])
#loc42 = loc(callsite(#loc13 at #loc37))
#loc44 = loc(callsite(#loc15 at #loc42))
