#loc = loc("/NHNHOME/WORKSPACE/26msit001_A/jinhyeok/TTT_camera_embedding/.venv_llm/lib/python3.12/site-packages/fla/modules/layernorm.py":459:0)
#loc60 = loc("/NHNHOME/WORKSPACE/26msit001_A/jinhyeok/TTT_camera_embedding/.venv_llm/lib/python3.12/site-packages/triton/language/standard.py":285:0)
#loc62 = loc(unknown)
#loc65 = loc("/NHNHOME/WORKSPACE/26msit001_A/jinhyeok/TTT_camera_embedding/.venv_llm/lib/python3.12/site-packages/triton/language/standard.py":260:0)
#loc69 = loc("x"(#loc))
#loc70 = loc("w"(#loc))
#loc71 = loc("dy"(#loc))
#loc72 = loc("dx"(#loc))
#loc73 = loc("dw"(#loc))
#loc74 = loc("dres"(#loc))
#loc75 = loc("rstd"(#loc))
#loc76 = loc("T"(#loc))
#loc112 = loc("input"(#loc60))
#loc113 = loc("a"(#loc65))
#loc114 = loc("b"(#loc65))
module {
  tt.func public @layer_norm_bwd_kernel1(%x: !tt.ptr<f32> {tt.divisibility = 16 : i32} loc("x"(#loc)), %w: !tt.ptr<f32> {tt.divisibility = 16 : i32} loc("w"(#loc)), %dy: !tt.ptr<f32> {tt.divisibility = 16 : i32} loc("dy"(#loc)), %dx: !tt.ptr<f32> {tt.divisibility = 16 : i32} loc("dx"(#loc)), %dw: !tt.ptr<f32> {tt.divisibility = 16 : i32} loc("dw"(#loc)), %dres: !tt.ptr<f32> {tt.divisibility = 16 : i32} loc("dres"(#loc)), %rstd: !tt.ptr<f32> {tt.divisibility = 16 : i32} loc("rstd"(#loc)), %T: i32 {tt.divisibility = 16 : i32} loc("T"(#loc))) attributes {noinline = false} {
    %i_s = tt.get_program_id x : i32 loc(#loc77)
    %c148_i32 = arith.constant 148 : i32 loc(#loc2)
    %c148_i32_0 = arith.constant 148 : i32 loc(#loc2)
    %0 = arith.divsi %i_s, %c148_i32_0 : i32 loc(#loc2)
    %c148_i32_1 = arith.constant 148 : i32 loc(#loc3)
    %c148_i32_2 = arith.constant 148 : i32 loc(#loc3)
    %1 = arith.remsi %i_s, %c148_i32_2 : i32 loc(#loc3)
    %o_d = tt.make_range {end = 1024 : i32, start = 0 : i32} : tensor<1024xi32> loc(#loc78)
    %mask = arith.constant 768 : i32 loc(#loc79)
    %mask_3 = arith.constant dense<768> : tensor<1024xi32> loc(#loc79)
    %mask_4 = arith.cmpi slt, %o_d, %mask_3 : tensor<1024xi32> loc(#loc79)
    %b_w = arith.constant 768 : i32 loc(#loc80)
    %b_w_5 = arith.constant 768 : i32 loc(#loc80)
    %b_w_6 = arith.extsi %0 : i32 to i64 loc(#loc80)
    %b_w_7 = arith.extsi %b_w_5 : i32 to i64 loc(#loc80)
    %b_w_8 = arith.muli %b_w_6, %b_w_7 : i64 loc(#loc80)
    %b_w_9 = arith.constant 2147483647 : i64 loc(#loc80)
    %b_w_10 = arith.constant -2147483648 : i64 loc(#loc80)
    %b_w_11 = arith.cmpi sle, %b_w_8, %b_w_9 : i64 loc(#loc80)
    %b_w_12 = arith.cmpi sge, %b_w_8, %b_w_10 : i64 loc(#loc80)
    %b_w_13 = arith.andi %b_w_11, %b_w_12 : i1 loc(#loc80)
    %b_w_14 = arith.muli %0, %b_w_5 : i32 loc(#loc80)
    %b_w_15 = tt.addptr %w, %b_w_14 : !tt.ptr<f32>, i32 loc(#loc81)
    %b_w_16 = tt.splat %b_w_15 : !tt.ptr<f32> -> tensor<1024x!tt.ptr<f32>> loc(#loc82)
    %b_w_17 = tt.addptr %b_w_16, %o_d : tensor<1024x!tt.ptr<f32>>, tensor<1024xi32> loc(#loc82)
    %b_w_18 = tt.load %b_w_17, %mask_4 : tensor<1024x!tt.ptr<f32>> loc(#loc83)
    %b_dw = tt.call @"triton.language.standard.zeros____(0, 0)cconstexpr_1024__(1,)cconstexpr_fp32_"() : () -> tensor<1024xf32> loc(#loc84)
    %c222_i32 = arith.constant 222 : i32 loc(#loc11)
    %c222_i32_19 = arith.constant 222 : i32 loc(#loc11)
    %2 = arith.extsi %1 : i32 to i64 loc(#loc11)
    %3 = arith.extsi %c222_i32_19 : i32 to i64 loc(#loc11)
    %4 = arith.muli %2, %3 : i64 loc(#loc11)
    %c2147483647_i64 = arith.constant 2147483647 : i64 loc(#loc11)
    %c-2147483648_i64 = arith.constant -2147483648 : i64 loc(#loc11)
    %5 = arith.cmpi sle, %4, %c2147483647_i64 : i64 loc(#loc11)
    %6 = arith.cmpi sge, %4, %c-2147483648_i64 : i64 loc(#loc11)
    %7 = arith.andi %5, %6 : i1 loc(#loc11)
    %8 = arith.muli %1, %c222_i32_19 : i32 loc(#loc11)
    %c1_i32 = arith.constant 1 : i32 loc(#loc12)
    %c1_i32_20 = arith.constant 1 : i32 loc(#loc12)
    %9 = arith.extsi %8 : i32 to i64 loc(#loc12)
    %10 = arith.extsi %c1_i32_20 : i32 to i64 loc(#loc12)
    %11 = arith.muli %9, %10 : i64 loc(#loc12)
    %c2147483647_i64_21 = arith.constant 2147483647 : i64 loc(#loc12)
    %c-2147483648_i64_22 = arith.constant -2147483648 : i64 loc(#loc12)
    %12 = arith.cmpi sle, %11, %c2147483647_i64_21 : i64 loc(#loc12)
    %13 = arith.cmpi sge, %11, %c-2147483648_i64_22 : i64 loc(#loc12)
    %14 = arith.andi %12, %13 : i1 loc(#loc12)
    %15 = arith.muli %8, %c1_i32_20 : i32 loc(#loc12)
    %16 = arith.extsi %15 : i32 to i64 loc(#loc13)
    %17 = arith.extsi %0 : i32 to i64 loc(#loc13)
    %18 = arith.addi %16, %17 : i64 loc(#loc13)
    %c2147483647_i64_23 = arith.constant 2147483647 : i64 loc(#loc13)
    %c-2147483648_i64_24 = arith.constant -2147483648 : i64 loc(#loc13)
    %19 = arith.cmpi sle, %18, %c2147483647_i64_23 : i64 loc(#loc13)
    %20 = arith.cmpi sge, %18, %c-2147483648_i64_24 : i64 loc(#loc13)
    %21 = arith.andi %19, %20 : i1 loc(#loc13)
    %22 = arith.addi %15, %0 : i32 loc(#loc13)
    %c222_i32_25 = arith.constant 222 : i32 loc(#loc14)
    %c222_i32_26 = arith.constant 222 : i32 loc(#loc14)
    %23 = arith.extsi %1 : i32 to i64 loc(#loc14)
    %24 = arith.extsi %c222_i32_26 : i32 to i64 loc(#loc14)
    %25 = arith.muli %23, %24 : i64 loc(#loc14)
    %c2147483647_i64_27 = arith.constant 2147483647 : i64 loc(#loc14)
    %c-2147483648_i64_28 = arith.constant -2147483648 : i64 loc(#loc14)
    %26 = arith.cmpi sle, %25, %c2147483647_i64_27 : i64 loc(#loc14)
    %27 = arith.cmpi sge, %25, %c-2147483648_i64_28 : i64 loc(#loc14)
    %28 = arith.andi %26, %27 : i1 loc(#loc14)
    %29 = arith.muli %1, %c222_i32_26 : i32 loc(#loc14)
    %c222_i32_29 = arith.constant 222 : i32 loc(#loc15)
    %c222_i32_30 = arith.constant 222 : i32 loc(#loc15)
    %30 = arith.extsi %29 : i32 to i64 loc(#loc15)
    %31 = arith.extsi %c222_i32_30 : i32 to i64 loc(#loc15)
    %32 = arith.addi %30, %31 : i64 loc(#loc15)
    %c2147483647_i64_31 = arith.constant 2147483647 : i64 loc(#loc15)
    %c-2147483648_i64_32 = arith.constant -2147483648 : i64 loc(#loc15)
    %33 = arith.cmpi sle, %32, %c2147483647_i64_31 : i64 loc(#loc15)
    %34 = arith.cmpi sge, %32, %c-2147483648_i64_32 : i64 loc(#loc15)
    %35 = arith.andi %33, %34 : i1 loc(#loc15)
    %36 = arith.addi %29, %c222_i32_30 : i32 loc(#loc15)
    %c1_i32_33 = arith.constant 1 : i32 loc(#loc16)
    %c1_i32_34 = arith.constant 1 : i32 loc(#loc16)
    %37 = arith.extsi %36 : i32 to i64 loc(#loc16)
    %38 = arith.extsi %c1_i32_34 : i32 to i64 loc(#loc16)
    %39 = arith.muli %37, %38 : i64 loc(#loc16)
    %c2147483647_i64_35 = arith.constant 2147483647 : i64 loc(#loc16)
    %c-2147483648_i64_36 = arith.constant -2147483648 : i64 loc(#loc16)
    %40 = arith.cmpi sle, %39, %c2147483647_i64_35 : i64 loc(#loc16)
    %41 = arith.cmpi sge, %39, %c-2147483648_i64_36 : i64 loc(#loc16)
    %42 = arith.andi %40, %41 : i1 loc(#loc16)
    %43 = arith.muli %36, %c1_i32_34 : i32 loc(#loc16)
    %44 = arith.extsi %43 : i32 to i64 loc(#loc17)
    %45 = arith.extsi %0 : i32 to i64 loc(#loc17)
    %46 = arith.addi %44, %45 : i64 loc(#loc17)
    %c2147483647_i64_37 = arith.constant 2147483647 : i64 loc(#loc17)
    %c-2147483648_i64_38 = arith.constant -2147483648 : i64 loc(#loc17)
    %47 = arith.cmpi sle, %46, %c2147483647_i64_37 : i64 loc(#loc17)
    %48 = arith.cmpi sge, %46, %c-2147483648_i64_38 : i64 loc(#loc17)
    %49 = arith.andi %47, %48 : i1 loc(#loc17)
    %50 = arith.addi %43, %0 : i32 loc(#loc17)
    %51 = arith.minsi %50, %T : i32 loc(#loc18)
    %c1_i32_39 = arith.constant 1 : i32 loc(#loc19)
    %52 = arith.bitcast %22 : i32 to i32 loc(#loc19)
    %53 = arith.bitcast %51 : i32 to i32 loc(#loc19)
    %54 = arith.bitcast %c1_i32_39 : i32 to i32 loc(#loc19)
    %55 = ub.poison : i32 loc(#loc19)
    %b_dw_40 = scf.for %i_t = %52 to %53 step %54 iter_args(%b_dw_44 = %b_dw) -> (tensor<1024xf32>)  : i32 {
      %b_x = arith.constant 768 : i32 loc(#loc86)
      %b_x_45 = arith.constant 768 : i32 loc(#loc86)
      %b_x_46 = arith.extsi %i_t : i32 to i64 loc(#loc86)
      %b_x_47 = arith.extsi %b_x_45 : i32 to i64 loc(#loc86)
      %b_x_48 = arith.muli %b_x_46, %b_x_47 : i64 loc(#loc86)
      %b_x_49 = arith.constant 2147483647 : i64 loc(#loc86)
      %b_x_50 = arith.constant -2147483648 : i64 loc(#loc86)
      %b_x_51 = arith.cmpi sle, %b_x_48, %b_x_49 : i64 loc(#loc86)
      %b_x_52 = arith.cmpi sge, %b_x_48, %b_x_50 : i64 loc(#loc86)
      %b_x_53 = arith.andi %b_x_51, %b_x_52 : i1 loc(#loc86)
      %b_x_54 = arith.muli %i_t, %b_x_45 : i32 loc(#loc86)
      %b_x_55 = tt.addptr %x, %b_x_54 : !tt.ptr<f32>, i32 loc(#loc87)
      %b_x_56 = tt.splat %b_x_55 : !tt.ptr<f32> -> tensor<1024x!tt.ptr<f32>> loc(#loc88)
      %b_x_57 = tt.addptr %b_x_56, %o_d : tensor<1024x!tt.ptr<f32>>, tensor<1024xi32> loc(#loc88)
      %b_x_58 = arith.constant 0 : i32 loc(#loc89)
      %b_x_59 = arith.constant dense<0> : tensor<1024xi32> loc(#loc89)
      %b_x_60 = arith.sitofp %b_x_59 : tensor<1024xi32> to tensor<1024xf32> loc(#loc89)
      %b_x_61 = tt.load %b_x_57, %mask_4, %b_x_60 : tensor<1024x!tt.ptr<f32>> loc(#loc89)
      %b_dy = arith.constant 768 : i32 loc(#loc90)
      %b_dy_62 = arith.constant 768 : i32 loc(#loc90)
      %b_dy_63 = arith.extsi %i_t : i32 to i64 loc(#loc90)
      %b_dy_64 = arith.extsi %b_dy_62 : i32 to i64 loc(#loc90)
      %b_dy_65 = arith.muli %b_dy_63, %b_dy_64 : i64 loc(#loc90)
      %b_dy_66 = arith.constant 2147483647 : i64 loc(#loc90)
      %b_dy_67 = arith.constant -2147483648 : i64 loc(#loc90)
      %b_dy_68 = arith.cmpi sle, %b_dy_65, %b_dy_66 : i64 loc(#loc90)
      %b_dy_69 = arith.cmpi sge, %b_dy_65, %b_dy_67 : i64 loc(#loc90)
      %b_dy_70 = arith.andi %b_dy_68, %b_dy_69 : i1 loc(#loc90)
      %b_dy_71 = arith.muli %i_t, %b_dy_62 : i32 loc(#loc90)
      %b_dy_72 = tt.addptr %dy, %b_dy_71 : !tt.ptr<f32>, i32 loc(#loc91)
      %b_dy_73 = tt.splat %b_dy_72 : !tt.ptr<f32> -> tensor<1024x!tt.ptr<f32>> loc(#loc92)
      %b_dy_74 = tt.addptr %b_dy_73, %o_d : tensor<1024x!tt.ptr<f32>>, tensor<1024xi32> loc(#loc92)
      %b_dy_75 = arith.constant 0 : i32 loc(#loc93)
      %b_dy_76 = arith.constant dense<0> : tensor<1024xi32> loc(#loc93)
      %b_dy_77 = arith.sitofp %b_dy_76 : tensor<1024xi32> to tensor<1024xf32> loc(#loc93)
      %b_dy_78 = tt.load %b_dy_74, %mask_4, %b_dy_77 : tensor<1024x!tt.ptr<f32>> loc(#loc93)
      %b_rstd = tt.addptr %rstd, %i_t : !tt.ptr<f32>, i32 loc(#loc94)
      %b_rstd_79 = tt.load %b_rstd : !tt.ptr<f32> loc(#loc95)
      %b_xhat = tt.splat %b_rstd_79 : f32 -> tensor<1024xf32> loc(#loc96)
      %b_xhat_80 = arith.mulf %b_x_61, %b_xhat : tensor<1024xf32> loc(#loc96)
      %b_xhat_81 = arith.constant 0.000000e+00 : f32 loc(#loc97)
      %b_xhat_82 = arith.constant 0.000000e+00 : f32 loc(#loc97)
      %b_xhat_83 = arith.constant dense<0.000000e+00> : tensor<1024xf32> loc(#loc97)
      %b_xhat_84 = arith.select %mask_4, %b_xhat_80, %b_xhat_83 : tensor<1024xi1>, tensor<1024xf32> loc(#loc97)
      %b_wdy = arith.mulf %b_dy_78, %b_w_18 : tensor<1024xf32> loc(#loc98)
      %b_dw_85 = arith.mulf %b_dy_78, %b_xhat_84 : tensor<1024xf32> loc(#loc99)
      %b_dw_86 = arith.addf %b_dw_44, %b_dw_85 : tensor<1024xf32> loc(#loc100)
      %b_c1 = arith.mulf %b_xhat_84, %b_wdy : tensor<1024xf32> loc(#loc101)
      %b_c1_87 = tt.call @"triton.language.standard.sum__fp32S1024S__(1,)cconstexpr_0__(2,)cconstexpr_False__(3,)cNone"(%b_c1) : (tensor<1024xf32>) -> f32 loc(#loc102)
      %b_c1_88 = arith.constant 768 : i32 loc(#loc103)
      %b_c1_89 = arith.constant 7.680000e+02 : f32 loc(#loc103)
      %b_c1_90 = arith.divf %b_c1_87, %b_c1_89 : f32 loc(#loc103)
      %b_dx = tt.splat %b_c1_90 : f32 -> tensor<1024xf32> loc(#loc104)
      %b_dx_91 = arith.mulf %b_xhat_84, %b_dx : tensor<1024xf32> loc(#loc104)
      %b_dx_92 = arith.subf %b_wdy, %b_dx_91 : tensor<1024xf32> loc(#loc105)
      %b_dx_93 = tt.splat %b_rstd_79 : f32 -> tensor<1024xf32> loc(#loc106)
      %b_dx_94 = arith.mulf %b_dx_92, %b_dx_93 : tensor<1024xf32> loc(#loc106)
      %b_dres = arith.constant 768 : i32 loc(#loc107)
      %b_dres_95 = arith.constant 768 : i32 loc(#loc107)
      %b_dres_96 = arith.extsi %i_t : i32 to i64 loc(#loc107)
      %b_dres_97 = arith.extsi %b_dres_95 : i32 to i64 loc(#loc107)
      %b_dres_98 = arith.muli %b_dres_96, %b_dres_97 : i64 loc(#loc107)
      %b_dres_99 = arith.constant 2147483647 : i64 loc(#loc107)
      %b_dres_100 = arith.constant -2147483648 : i64 loc(#loc107)
      %b_dres_101 = arith.cmpi sle, %b_dres_98, %b_dres_99 : i64 loc(#loc107)
      %b_dres_102 = arith.cmpi sge, %b_dres_98, %b_dres_100 : i64 loc(#loc107)
      %b_dres_103 = arith.andi %b_dres_101, %b_dres_102 : i1 loc(#loc107)
      %b_dres_104 = arith.muli %i_t, %b_dres_95 : i32 loc(#loc107)
      %b_dres_105 = tt.addptr %dres, %b_dres_104 : !tt.ptr<f32>, i32 loc(#loc108)
      %b_dres_106 = tt.splat %b_dres_105 : !tt.ptr<f32> -> tensor<1024x!tt.ptr<f32>> loc(#loc109)
      %b_dres_107 = tt.addptr %b_dres_106, %o_d : tensor<1024x!tt.ptr<f32>>, tensor<1024xi32> loc(#loc109)
      %b_dres_108 = arith.constant 0 : i32 loc(#loc110)
      %b_dres_109 = arith.constant dense<0> : tensor<1024xi32> loc(#loc110)
      %b_dres_110 = arith.sitofp %b_dres_109 : tensor<1024xi32> to tensor<1024xf32> loc(#loc110)
      %b_dres_111 = tt.load %b_dres_107, %mask_4, %b_dres_110 : tensor<1024x!tt.ptr<f32>> loc(#loc110)
      %b_dx_112 = arith.addf %b_dx_94, %b_dres_111 : tensor<1024xf32> loc(#loc111)
      %c768_i32_113 = arith.constant 768 : i32 loc(#loc46)
      %c768_i32_114 = arith.constant 768 : i32 loc(#loc46)
      %66 = arith.extsi %i_t : i32 to i64 loc(#loc46)
      %67 = arith.extsi %c768_i32_114 : i32 to i64 loc(#loc46)
      %68 = arith.muli %66, %67 : i64 loc(#loc46)
      %c2147483647_i64_115 = arith.constant 2147483647 : i64 loc(#loc46)
      %c-2147483648_i64_116 = arith.constant -2147483648 : i64 loc(#loc46)
      %69 = arith.cmpi sle, %68, %c2147483647_i64_115 : i64 loc(#loc46)
      %70 = arith.cmpi sge, %68, %c-2147483648_i64_116 : i64 loc(#loc46)
      %71 = arith.andi %69, %70 : i1 loc(#loc46)
      %72 = arith.muli %i_t, %c768_i32_114 : i32 loc(#loc46)
      %73 = tt.addptr %dx, %72 : !tt.ptr<f32>, i32 loc(#loc47)
      %74 = tt.splat %73 : !tt.ptr<f32> -> tensor<1024x!tt.ptr<f32>> loc(#loc48)
      %75 = tt.addptr %74, %o_d : tensor<1024x!tt.ptr<f32>>, tensor<1024xi32> loc(#loc48)
      tt.store %75, %b_dx_112, %mask_4 : tensor<1024x!tt.ptr<f32>> loc(#loc49)
      scf.yield %b_dw_86 : tensor<1024xf32> loc(#loc50)
    } loc(#loc85)
    %c768_i32 = arith.constant 768 : i32 loc(#loc51)
    %c768_i32_41 = arith.constant 768 : i32 loc(#loc51)
    %56 = arith.extsi %i_s : i32 to i64 loc(#loc51)
    %57 = arith.extsi %c768_i32_41 : i32 to i64 loc(#loc51)
    %58 = arith.muli %56, %57 : i64 loc(#loc51)
    %c2147483647_i64_42 = arith.constant 2147483647 : i64 loc(#loc51)
    %c-2147483648_i64_43 = arith.constant -2147483648 : i64 loc(#loc51)
    %59 = arith.cmpi sle, %58, %c2147483647_i64_42 : i64 loc(#loc51)
    %60 = arith.cmpi sge, %58, %c-2147483648_i64_43 : i64 loc(#loc51)
    %61 = arith.andi %59, %60 : i1 loc(#loc51)
    %62 = arith.muli %i_s, %c768_i32_41 : i32 loc(#loc51)
    %63 = tt.addptr %dw, %62 : !tt.ptr<f32>, i32 loc(#loc52)
    %64 = tt.splat %63 : !tt.ptr<f32> -> tensor<1024x!tt.ptr<f32>> loc(#loc53)
    %65 = tt.addptr %64, %o_d : tensor<1024x!tt.ptr<f32>>, tensor<1024xi32> loc(#loc53)
    tt.store %65, %b_dw_40, %mask_4 : tensor<1024x!tt.ptr<f32>> loc(#loc54)
    tt.return loc(#loc55)
  } loc(#loc)
  tt.func private @"triton.language.standard.zeros____(0, 0)cconstexpr_1024__(1,)cconstexpr_fp32_"() -> tensor<1024xf32> attributes {noinline = false} {
    %cst = arith.constant 0.000000e+00 : f32 loc(#loc57)
    %cst_0 = arith.constant dense<0.000000e+00> : tensor<1024xf32> loc(#loc57)
    tt.return %cst_0 : tensor<1024xf32> loc(#loc58)
  ^bb1:  // no predecessors
    %0 = ub.poison : tensor<1024xf32> loc(#loc59)
    tt.return %0 : tensor<1024xf32> loc(#loc59)
  } loc(#loc56)
  tt.func private @"triton.language.standard.sum__fp32S1024S__(1,)cconstexpr_0__(2,)cconstexpr_False__(3,)cNone"(%input: tensor<1024xf32> loc("input"(#loc60))) -> f32 attributes {noinline = false} {
    %0 = "tt.reduce"(%input) <{axis = 0 : i32}> ({
    ^bb0(%arg1: f32 loc(unknown), %arg2: f32 loc(unknown)):
      %2 = tt.call @triton.language.standard._sum_combine__fp32_fp32__(%arg1, %arg2) : (f32, f32) -> f32 loc(#loc61)
      tt.reduce.return %2 : f32 loc(#loc61)
    }) : (tensor<1024xf32>) -> f32 loc(#loc61)
    tt.return %0 : f32 loc(#loc63)
  ^bb1:  // no predecessors
    %1 = ub.poison : f32 loc(#loc64)
    tt.return %1 : f32 loc(#loc64)
  } loc(#loc60)
  tt.func private @triton.language.standard._sum_combine__fp32_fp32__(%a: f32 loc("a"(#loc65)), %b: f32 loc("b"(#loc65))) -> f32 attributes {noinline = false} {
    %0 = arith.addf %a, %b : f32 loc(#loc66)
    tt.return %0 : f32 loc(#loc67)
  ^bb1:  // no predecessors
    %1 = ub.poison : f32 loc(#loc68)
    tt.return %1 : f32 loc(#loc68)
  } loc(#loc65)
} loc(#loc)
#loc1 = loc("/NHNHOME/WORKSPACE/26msit001_A/jinhyeok/TTT_camera_embedding/.venv_llm/lib/python3.12/site-packages/fla/modules/layernorm.py":485:24)
#loc2 = loc("/NHNHOME/WORKSPACE/26msit001_A/jinhyeok/TTT_camera_embedding/.venv_llm/lib/python3.12/site-packages/fla/modules/layernorm.py":486:23)
#loc3 = loc("/NHNHOME/WORKSPACE/26msit001_A/jinhyeok/TTT_camera_embedding/.venv_llm/lib/python3.12/site-packages/fla/modules/layernorm.py":486:33)
#loc4 = loc("/NHNHOME/WORKSPACE/26msit001_A/jinhyeok/TTT_camera_embedding/.venv_llm/lib/python3.12/site-packages/fla/modules/layernorm.py":488:23)
#loc5 = loc("/NHNHOME/WORKSPACE/26msit001_A/jinhyeok/TTT_camera_embedding/.venv_llm/lib/python3.12/site-packages/fla/modules/layernorm.py":489:17)
#loc6 = loc("/NHNHOME/WORKSPACE/26msit001_A/jinhyeok/TTT_camera_embedding/.venv_llm/lib/python3.12/site-packages/fla/modules/layernorm.py":492:32)
#loc7 = loc("/NHNHOME/WORKSPACE/26msit001_A/jinhyeok/TTT_camera_embedding/.venv_llm/lib/python3.12/site-packages/fla/modules/layernorm.py":492:26)
#loc8 = loc("/NHNHOME/WORKSPACE/26msit001_A/jinhyeok/TTT_camera_embedding/.venv_llm/lib/python3.12/site-packages/fla/modules/layernorm.py":492:36)
#loc9 = loc("/NHNHOME/WORKSPACE/26msit001_A/jinhyeok/TTT_camera_embedding/.venv_llm/lib/python3.12/site-packages/fla/modules/layernorm.py":492:22)
#loc10 = loc("/NHNHOME/WORKSPACE/26msit001_A/jinhyeok/TTT_camera_embedding/.venv_llm/lib/python3.12/site-packages/fla/modules/layernorm.py":493:24)
#loc11 = loc("/NHNHOME/WORKSPACE/26msit001_A/jinhyeok/TTT_camera_embedding/.venv_llm/lib/python3.12/site-packages/fla/modules/layernorm.py":499:28)
#loc12 = loc("/NHNHOME/WORKSPACE/26msit001_A/jinhyeok/TTT_camera_embedding/.venv_llm/lib/python3.12/site-packages/fla/modules/layernorm.py":499:33)
#loc13 = loc("/NHNHOME/WORKSPACE/26msit001_A/jinhyeok/TTT_camera_embedding/.venv_llm/lib/python3.12/site-packages/fla/modules/layernorm.py":499:37)
#loc14 = loc("/NHNHOME/WORKSPACE/26msit001_A/jinhyeok/TTT_camera_embedding/.venv_llm/lib/python3.12/site-packages/fla/modules/layernorm.py":499:54)
#loc15 = loc("/NHNHOME/WORKSPACE/26msit001_A/jinhyeok/TTT_camera_embedding/.venv_llm/lib/python3.12/site-packages/fla/modules/layernorm.py":499:59)
#loc16 = loc("/NHNHOME/WORKSPACE/26msit001_A/jinhyeok/TTT_camera_embedding/.venv_llm/lib/python3.12/site-packages/fla/modules/layernorm.py":499:65)
#loc17 = loc("/NHNHOME/WORKSPACE/26msit001_A/jinhyeok/TTT_camera_embedding/.venv_llm/lib/python3.12/site-packages/fla/modules/layernorm.py":499:69)
#loc18 = loc("/NHNHOME/WORKSPACE/26msit001_A/jinhyeok/TTT_camera_embedding/.venv_llm/lib/python3.12/site-packages/fla/modules/layernorm.py":499:74)
#loc19 = loc("/NHNHOME/WORKSPACE/26msit001_A/jinhyeok/TTT_camera_embedding/.venv_llm/lib/python3.12/site-packages/fla/modules/layernorm.py":499:78)
#loc20 = loc("/NHNHOME/WORKSPACE/26msit001_A/jinhyeok/TTT_camera_embedding/.venv_llm/lib/python3.12/site-packages/fla/modules/layernorm.py":500:32)
#loc21 = loc("/NHNHOME/WORKSPACE/26msit001_A/jinhyeok/TTT_camera_embedding/.venv_llm/lib/python3.12/site-packages/fla/modules/layernorm.py":500:26)
#loc22 = loc("/NHNHOME/WORKSPACE/26msit001_A/jinhyeok/TTT_camera_embedding/.venv_llm/lib/python3.12/site-packages/fla/modules/layernorm.py":500:36)
#loc23 = loc("/NHNHOME/WORKSPACE/26msit001_A/jinhyeok/TTT_camera_embedding/.venv_llm/lib/python3.12/site-packages/fla/modules/layernorm.py":500:22)
#loc24 = loc("/NHNHOME/WORKSPACE/26msit001_A/jinhyeok/TTT_camera_embedding/.venv_llm/lib/python3.12/site-packages/fla/modules/layernorm.py":501:34)
#loc25 = loc("/NHNHOME/WORKSPACE/26msit001_A/jinhyeok/TTT_camera_embedding/.venv_llm/lib/python3.12/site-packages/fla/modules/layernorm.py":501:28)
#loc26 = loc("/NHNHOME/WORKSPACE/26msit001_A/jinhyeok/TTT_camera_embedding/.venv_llm/lib/python3.12/site-packages/fla/modules/layernorm.py":501:38)
#loc27 = loc("/NHNHOME/WORKSPACE/26msit001_A/jinhyeok/TTT_camera_embedding/.venv_llm/lib/python3.12/site-packages/fla/modules/layernorm.py":501:23)
#loc28 = loc("/NHNHOME/WORKSPACE/26msit001_A/jinhyeok/TTT_camera_embedding/.venv_llm/lib/python3.12/site-packages/fla/modules/layernorm.py":505:32)
#loc29 = loc("/NHNHOME/WORKSPACE/26msit001_A/jinhyeok/TTT_camera_embedding/.venv_llm/lib/python3.12/site-packages/fla/modules/layernorm.py":505:25)
#loc30 = loc("/NHNHOME/WORKSPACE/26msit001_A/jinhyeok/TTT_camera_embedding/.venv_llm/lib/python3.12/site-packages/fla/modules/layernorm.py":507:71)
#loc31 = loc("/NHNHOME/WORKSPACE/26msit001_A/jinhyeok/TTT_camera_embedding/.venv_llm/lib/python3.12/site-packages/fla/modules/layernorm.py":508:40)
#loc32 = loc("/NHNHOME/WORKSPACE/26msit001_A/jinhyeok/TTT_camera_embedding/.venv_llm/lib/python3.12/site-packages/fla/modules/layernorm.py":516:27)
#loc33 = loc("/NHNHOME/WORKSPACE/26msit001_A/jinhyeok/TTT_camera_embedding/.venv_llm/lib/python3.12/site-packages/fla/modules/layernorm.py":517:27)
#loc34 = loc("/NHNHOME/WORKSPACE/26msit001_A/jinhyeok/TTT_camera_embedding/.venv_llm/lib/python3.12/site-packages/fla/modules/layernorm.py":517:20)
#loc35 = loc("/NHNHOME/WORKSPACE/26msit001_A/jinhyeok/TTT_camera_embedding/.venv_llm/lib/python3.12/site-packages/fla/modules/layernorm.py":525:35)
#loc36 = loc("/NHNHOME/WORKSPACE/26msit001_A/jinhyeok/TTT_camera_embedding/.venv_llm/lib/python3.12/site-packages/fla/modules/layernorm.py":525:26)
#loc37 = loc("/NHNHOME/WORKSPACE/26msit001_A/jinhyeok/TTT_camera_embedding/.venv_llm/lib/python3.12/site-packages/fla/modules/layernorm.py":525:52)
#loc38 = loc("/NHNHOME/WORKSPACE/26msit001_A/jinhyeok/TTT_camera_embedding/.venv_llm/lib/python3.12/site-packages/fla/modules/layernorm.py":526:37)
#loc39 = loc("/NHNHOME/WORKSPACE/26msit001_A/jinhyeok/TTT_camera_embedding/.venv_llm/lib/python3.12/site-packages/fla/modules/layernorm.py":526:28)
#loc40 = loc("/NHNHOME/WORKSPACE/26msit001_A/jinhyeok/TTT_camera_embedding/.venv_llm/lib/python3.12/site-packages/fla/modules/layernorm.py":526:45)
#loc41 = loc("/NHNHOME/WORKSPACE/26msit001_A/jinhyeok/TTT_camera_embedding/.venv_llm/lib/python3.12/site-packages/fla/modules/layernorm.py":528:42)
#loc42 = loc("/NHNHOME/WORKSPACE/26msit001_A/jinhyeok/TTT_camera_embedding/.venv_llm/lib/python3.12/site-packages/fla/modules/layernorm.py":528:36)
#loc43 = loc("/NHNHOME/WORKSPACE/26msit001_A/jinhyeok/TTT_camera_embedding/.venv_llm/lib/python3.12/site-packages/fla/modules/layernorm.py":528:46)
#loc44 = loc("/NHNHOME/WORKSPACE/26msit001_A/jinhyeok/TTT_camera_embedding/.venv_llm/lib/python3.12/site-packages/fla/modules/layernorm.py":528:29)
#loc45 = loc("/NHNHOME/WORKSPACE/26msit001_A/jinhyeok/TTT_camera_embedding/.venv_llm/lib/python3.12/site-packages/fla/modules/layernorm.py":529:20)
#loc46 = loc("/NHNHOME/WORKSPACE/26msit001_A/jinhyeok/TTT_camera_embedding/.venv_llm/lib/python3.12/site-packages/fla/modules/layernorm.py":534:28)
#loc47 = loc("/NHNHOME/WORKSPACE/26msit001_A/jinhyeok/TTT_camera_embedding/.venv_llm/lib/python3.12/site-packages/fla/modules/layernorm.py":534:22)
#loc48 = loc("/NHNHOME/WORKSPACE/26msit001_A/jinhyeok/TTT_camera_embedding/.venv_llm/lib/python3.12/site-packages/fla/modules/layernorm.py":534:32)
#loc49 = loc("/NHNHOME/WORKSPACE/26msit001_A/jinhyeok/TTT_camera_embedding/.venv_llm/lib/python3.12/site-packages/fla/modules/layernorm.py":534:37)
#loc50 = loc("/NHNHOME/WORKSPACE/26msit001_A/jinhyeok/TTT_camera_embedding/.venv_llm/lib/python3.12/site-packages/fla/modules/layernorm.py":534:8)
#loc51 = loc("/NHNHOME/WORKSPACE/26msit001_A/jinhyeok/TTT_camera_embedding/.venv_llm/lib/python3.12/site-packages/fla/modules/layernorm.py":537:28)
#loc52 = loc("/NHNHOME/WORKSPACE/26msit001_A/jinhyeok/TTT_camera_embedding/.venv_llm/lib/python3.12/site-packages/fla/modules/layernorm.py":537:22)
#loc53 = loc("/NHNHOME/WORKSPACE/26msit001_A/jinhyeok/TTT_camera_embedding/.venv_llm/lib/python3.12/site-packages/fla/modules/layernorm.py":537:32)
#loc54 = loc("/NHNHOME/WORKSPACE/26msit001_A/jinhyeok/TTT_camera_embedding/.venv_llm/lib/python3.12/site-packages/fla/modules/layernorm.py":537:37)
#loc55 = loc("/NHNHOME/WORKSPACE/26msit001_A/jinhyeok/TTT_camera_embedding/.venv_llm/lib/python3.12/site-packages/fla/modules/layernorm.py":538:4)
#loc56 = loc("/NHNHOME/WORKSPACE/26msit001_A/jinhyeok/TTT_camera_embedding/.venv_llm/lib/python3.12/site-packages/triton/language/standard.py":118:0)
#loc57 = loc("/NHNHOME/WORKSPACE/26msit001_A/jinhyeok/TTT_camera_embedding/.venv_llm/lib/python3.12/site-packages/triton/language/standard.py":127:31)
#loc58 = loc("/NHNHOME/WORKSPACE/26msit001_A/jinhyeok/TTT_camera_embedding/.venv_llm/lib/python3.12/site-packages/triton/language/standard.py":127:11)
#loc59 = loc("/NHNHOME/WORKSPACE/26msit001_A/jinhyeok/TTT_camera_embedding/.venv_llm/lib/python3.12/site-packages/triton/language/standard.py":127:4)
#loc61 = loc("/NHNHOME/WORKSPACE/26msit001_A/jinhyeok/TTT_camera_embedding/.venv_llm/lib/python3.12/site-packages/triton/language/standard.py":291:36)
#loc63 = loc("/NHNHOME/WORKSPACE/26msit001_A/jinhyeok/TTT_camera_embedding/.venv_llm/lib/python3.12/site-packages/triton/language/standard.py":291:11)
#loc64 = loc("/NHNHOME/WORKSPACE/26msit001_A/jinhyeok/TTT_camera_embedding/.venv_llm/lib/python3.12/site-packages/triton/language/standard.py":291:4)
#loc66 = loc("/NHNHOME/WORKSPACE/26msit001_A/jinhyeok/TTT_camera_embedding/.venv_llm/lib/python3.12/site-packages/triton/language/standard.py":261:15)
#loc67 = loc("/NHNHOME/WORKSPACE/26msit001_A/jinhyeok/TTT_camera_embedding/.venv_llm/lib/python3.12/site-packages/triton/language/standard.py":261:11)
#loc68 = loc("/NHNHOME/WORKSPACE/26msit001_A/jinhyeok/TTT_camera_embedding/.venv_llm/lib/python3.12/site-packages/triton/language/standard.py":261:4)
#loc77 = loc("i_s"(#loc1))
#loc78 = loc("o_d"(#loc4))
#loc79 = loc("mask"(#loc5))
#loc80 = loc("b_w"(#loc6))
#loc81 = loc("b_w"(#loc7))
#loc82 = loc("b_w"(#loc8))
#loc83 = loc("b_w"(#loc9))
#loc84 = loc("b_dw"(#loc10))
#loc85 = loc("b_dw"(#loc19))
#loc86 = loc("b_x"(#loc20))
#loc87 = loc("b_x"(#loc21))
#loc88 = loc("b_x"(#loc22))
#loc89 = loc("b_x"(#loc23))
#loc90 = loc("b_dy"(#loc24))
#loc91 = loc("b_dy"(#loc25))
#loc92 = loc("b_dy"(#loc26))
#loc93 = loc("b_dy"(#loc27))
#loc94 = loc("b_rstd"(#loc28))
#loc95 = loc("b_rstd"(#loc29))
#loc96 = loc("b_xhat"(#loc30))
#loc97 = loc("b_xhat"(#loc31))
#loc98 = loc("b_wdy"(#loc32))
#loc99 = loc("b_dw"(#loc33))
#loc100 = loc("b_dw"(#loc34))
#loc101 = loc("b_c1"(#loc35))
#loc102 = loc("b_c1"(#loc36))
#loc103 = loc("b_c1"(#loc37))
#loc104 = loc("b_dx"(#loc38))
#loc105 = loc("b_dx"(#loc39))
#loc106 = loc("b_dx"(#loc40))
#loc107 = loc("b_dres"(#loc41))
#loc108 = loc("b_dres"(#loc42))
#loc109 = loc("b_dres"(#loc43))
#loc110 = loc("b_dres"(#loc44))
#loc111 = loc("b_dx"(#loc45))
