#loc = loc("/NHNHOME/WORKSPACE/26msit001_A/jinhyeok/loop_TTT/lact/.cache_inductor_llm/5f/c5f7voz6x4k2rssun434tby7busdnkatqf2icjcv5wf53gvnnyqm.py":18:0)
#loc26 = loc("in_ptr0"(#loc))
#loc27 = loc("in_ptr1"(#loc))
#loc28 = loc("in_ptr2"(#loc))
#loc29 = loc("in_ptr3"(#loc))
#loc30 = loc("out_ptr0"(#loc))
#loc31 = loc("out_ptr1"(#loc))
#loc32 = loc("xnumel"(#loc))
module {
  tt.func public @triton_poi_fused__to_copy_add_mul_zeros_like_38(%in_ptr0: !tt.ptr<bf16> {tt.divisibility = 16 : i32} loc("in_ptr0"(#loc)), %in_ptr1: !tt.ptr<bf16> {tt.divisibility = 16 : i32} loc("in_ptr1"(#loc)), %in_ptr2: !tt.ptr<f32> {tt.divisibility = 16 : i32} loc("in_ptr2"(#loc)), %in_ptr3: !tt.ptr<f32> {tt.divisibility = 16 : i32} loc("in_ptr3"(#loc)), %out_ptr0: !tt.ptr<f32> {tt.divisibility = 16 : i32} loc("out_ptr0"(#loc)), %out_ptr1: !tt.ptr<bf16> {tt.divisibility = 16 : i32} loc("out_ptr1"(#loc)), %xnumel: i32 {tt.divisibility = 16 : i32} loc("xnumel"(#loc))) attributes {noinline = false} {
    %tmp6 = arith.constant dense<0.000000e+00> : tensor<1024xf32> loc(#loc33)
    %x1 = arith.constant dense<36864> : tensor<1024xi32> loc(#loc34)
    %c1024_i32 = arith.constant 1024 : i32 loc(#loc3)
    %xoffset = tt.get_program_id x : i32 loc(#loc35)
    %xoffset_0 = arith.muli %xoffset, %c1024_i32 : i32 loc(#loc36)
    %xindex = tt.make_range {end = 1024 : i32, start = 0 : i32} : tensor<1024xi32> loc(#loc37)
    %xindex_1 = tt.splat %xoffset_0 : i32 -> tensor<1024xi32> loc(#loc38)
    %xindex_2 = arith.addi %xindex_1, %xindex : tensor<1024xi32> loc(#loc38)
    %x1_3 = arith.divsi %xindex_2, %x1 : tensor<1024xi32> loc(#loc34)
    %tmp0 = tt.splat %in_ptr0 : !tt.ptr<bf16> -> tensor<1024x!tt.ptr<bf16>> loc(#loc39)
    %tmp0_4 = tt.addptr %tmp0, %xindex_2 : tensor<1024x!tt.ptr<bf16>>, tensor<1024xi32> loc(#loc39)
    %tmp0_5 = tt.load %tmp0_4 : tensor<1024x!tt.ptr<bf16>> loc(#loc40)
    %tmp0_6 = arith.extf %tmp0_5 : tensor<1024xbf16> to tensor<1024xf32> loc(#loc41)
    %tmp2 = tt.splat %in_ptr1 : !tt.ptr<bf16> -> tensor<1024x!tt.ptr<bf16>> loc(#loc42)
    %tmp2_7 = tt.addptr %tmp2, %xindex_2 : tensor<1024x!tt.ptr<bf16>>, tensor<1024xi32> loc(#loc42)
    %tmp2_8 = tt.load %tmp2_7 : tensor<1024x!tt.ptr<bf16>> loc(#loc43)
    %tmp2_9 = arith.extf %tmp2_8 : tensor<1024xbf16> to tensor<1024xf32> loc(#loc44)
    %tmp4 = tt.splat %in_ptr2 : !tt.ptr<f32> -> tensor<1024x!tt.ptr<f32>> loc(#loc45)
    %tmp4_10 = tt.addptr %tmp4, %x1_3 : tensor<1024x!tt.ptr<f32>>, tensor<1024xi32> loc(#loc45)
    %tmp4_11 = tt.load %tmp4_10 evictionPolicy = evict_last : tensor<1024x!tt.ptr<f32>> loc(#loc46)
    %tmp8 = tt.splat %in_ptr3 : !tt.ptr<f32> -> tensor<1024x!tt.ptr<f32>> loc(#loc47)
    %tmp8_12 = tt.addptr %tmp8, %x1_3 : tensor<1024x!tt.ptr<f32>>, tensor<1024xi32> loc(#loc47)
    %tmp8_13 = tt.load %tmp8_12 evictionPolicy = evict_last : tensor<1024x!tt.ptr<f32>> loc(#loc48)
    %tmp6_14 = arith.mulf %tmp4_11, %tmp6 : tensor<1024xf32> loc(#loc33)
    %tmp7 = arith.addf %tmp2_9, %tmp6_14 : tensor<1024xf32> loc(#loc49)
    %tmp9 = arith.mulf %tmp7, %tmp8_13 : tensor<1024xf32> loc(#loc50)
    %tmp10 = arith.addf %tmp0_6, %tmp9 : tensor<1024xf32> loc(#loc51)
    %0 = tt.splat %out_ptr0 : !tt.ptr<f32> -> tensor<1024x!tt.ptr<f32>> loc(#loc21)
    %1 = tt.addptr %0, %xindex_2 : tensor<1024x!tt.ptr<f32>>, tensor<1024xi32> loc(#loc21)
    tt.store %1, %tmp10 : tensor<1024x!tt.ptr<f32>> loc(#loc22)
    %2 = tt.splat %out_ptr1 : !tt.ptr<bf16> -> tensor<1024x!tt.ptr<bf16>> loc(#loc23)
    %3 = tt.addptr %2, %xindex_2 : tensor<1024x!tt.ptr<bf16>>, tensor<1024xi32> loc(#loc23)
    %4 = arith.truncf %tmp10 : tensor<1024xf32> to tensor<1024xbf16> loc(#loc24)
    tt.store %3, %4 : tensor<1024x!tt.ptr<bf16>> loc(#loc24)
    tt.return loc(#loc25)
  } loc(#loc)
} loc(#loc)
#loc1 = loc("/NHNHOME/WORKSPACE/26msit001_A/jinhyeok/loop_TTT/lact/.cache_inductor_llm/5f/c5f7voz6x4k2rssun434tby7busdnkatqf2icjcv5wf53gvnnyqm.py":32:18)
#loc2 = loc("/NHNHOME/WORKSPACE/26msit001_A/jinhyeok/loop_TTT/lact/.cache_inductor_llm/5f/c5f7voz6x4k2rssun434tby7busdnkatqf2icjcv5wf53gvnnyqm.py":24:19)
#loc3 = loc(unknown)
#loc4 = loc("/NHNHOME/WORKSPACE/26msit001_A/jinhyeok/loop_TTT/lact/.cache_inductor_llm/5f/c5f7voz6x4k2rssun434tby7busdnkatqf2icjcv5wf53gvnnyqm.py":20:28)
#loc5 = loc("/NHNHOME/WORKSPACE/26msit001_A/jinhyeok/loop_TTT/lact/.cache_inductor_llm/5f/c5f7voz6x4k2rssun434tby7busdnkatqf2icjcv5wf53gvnnyqm.py":20:33)
#loc6 = loc("/NHNHOME/WORKSPACE/26msit001_A/jinhyeok/loop_TTT/lact/.cache_inductor_llm/5f/c5f7voz6x4k2rssun434tby7busdnkatqf2icjcv5wf53gvnnyqm.py":21:36)
#loc7 = loc("/NHNHOME/WORKSPACE/26msit001_A/jinhyeok/loop_TTT/lact/.cache_inductor_llm/5f/c5f7voz6x4k2rssun434tby7busdnkatqf2icjcv5wf53gvnnyqm.py":21:23)
#loc8 = loc("/NHNHOME/WORKSPACE/26msit001_A/jinhyeok/loop_TTT/lact/.cache_inductor_llm/5f/c5f7voz6x4k2rssun434tby7busdnkatqf2icjcv5wf53gvnnyqm.py":25:30)
#loc9 = loc("/NHNHOME/WORKSPACE/26msit001_A/jinhyeok/loop_TTT/lact/.cache_inductor_llm/5f/c5f7voz6x4k2rssun434tby7busdnkatqf2icjcv5wf53gvnnyqm.py":25:35)
#loc10 = loc("/NHNHOME/WORKSPACE/26msit001_A/jinhyeok/loop_TTT/lact/.cache_inductor_llm/5f/c5f7voz6x4k2rssun434tby7busdnkatqf2icjcv5wf53gvnnyqm.py":25:44)
#loc11 = loc("/NHNHOME/WORKSPACE/26msit001_A/jinhyeok/loop_TTT/lact/.cache_inductor_llm/5f/c5f7voz6x4k2rssun434tby7busdnkatqf2icjcv5wf53gvnnyqm.py":26:30)
#loc12 = loc("/NHNHOME/WORKSPACE/26msit001_A/jinhyeok/loop_TTT/lact/.cache_inductor_llm/5f/c5f7voz6x4k2rssun434tby7busdnkatqf2icjcv5wf53gvnnyqm.py":26:35)
#loc13 = loc("/NHNHOME/WORKSPACE/26msit001_A/jinhyeok/loop_TTT/lact/.cache_inductor_llm/5f/c5f7voz6x4k2rssun434tby7busdnkatqf2icjcv5wf53gvnnyqm.py":26:44)
#loc14 = loc("/NHNHOME/WORKSPACE/26msit001_A/jinhyeok/loop_TTT/lact/.cache_inductor_llm/5f/c5f7voz6x4k2rssun434tby7busdnkatqf2icjcv5wf53gvnnyqm.py":27:30)
#loc15 = loc("/NHNHOME/WORKSPACE/26msit001_A/jinhyeok/loop_TTT/lact/.cache_inductor_llm/5f/c5f7voz6x4k2rssun434tby7busdnkatqf2icjcv5wf53gvnnyqm.py":27:35)
#loc16 = loc("/NHNHOME/WORKSPACE/26msit001_A/jinhyeok/loop_TTT/lact/.cache_inductor_llm/5f/c5f7voz6x4k2rssun434tby7busdnkatqf2icjcv5wf53gvnnyqm.py":28:30)
#loc17 = loc("/NHNHOME/WORKSPACE/26msit001_A/jinhyeok/loop_TTT/lact/.cache_inductor_llm/5f/c5f7voz6x4k2rssun434tby7busdnkatqf2icjcv5wf53gvnnyqm.py":28:35)
#loc18 = loc("/NHNHOME/WORKSPACE/26msit001_A/jinhyeok/loop_TTT/lact/.cache_inductor_llm/5f/c5f7voz6x4k2rssun434tby7busdnkatqf2icjcv5wf53gvnnyqm.py":33:18)
#loc19 = loc("/NHNHOME/WORKSPACE/26msit001_A/jinhyeok/loop_TTT/lact/.cache_inductor_llm/5f/c5f7voz6x4k2rssun434tby7busdnkatqf2icjcv5wf53gvnnyqm.py":34:18)
#loc20 = loc("/NHNHOME/WORKSPACE/26msit001_A/jinhyeok/loop_TTT/lact/.cache_inductor_llm/5f/c5f7voz6x4k2rssun434tby7busdnkatqf2icjcv5wf53gvnnyqm.py":35:19)
#loc21 = loc("/NHNHOME/WORKSPACE/26msit001_A/jinhyeok/loop_TTT/lact/.cache_inductor_llm/5f/c5f7voz6x4k2rssun434tby7busdnkatqf2icjcv5wf53gvnnyqm.py":37:25)
#loc22 = loc("/NHNHOME/WORKSPACE/26msit001_A/jinhyeok/loop_TTT/lact/.cache_inductor_llm/5f/c5f7voz6x4k2rssun434tby7busdnkatqf2icjcv5wf53gvnnyqm.py":37:37)
#loc23 = loc("/NHNHOME/WORKSPACE/26msit001_A/jinhyeok/loop_TTT/lact/.cache_inductor_llm/5f/c5f7voz6x4k2rssun434tby7busdnkatqf2icjcv5wf53gvnnyqm.py":38:25)
#loc24 = loc("/NHNHOME/WORKSPACE/26msit001_A/jinhyeok/loop_TTT/lact/.cache_inductor_llm/5f/c5f7voz6x4k2rssun434tby7busdnkatqf2icjcv5wf53gvnnyqm.py":38:37)
#loc25 = loc("/NHNHOME/WORKSPACE/26msit001_A/jinhyeok/loop_TTT/lact/.cache_inductor_llm/5f/c5f7voz6x4k2rssun434tby7busdnkatqf2icjcv5wf53gvnnyqm.py":38:4)
#loc33 = loc("tmp6"(#loc1))
#loc34 = loc("x1"(#loc2))
#loc35 = loc("xoffset"(#loc4))
#loc36 = loc("xoffset"(#loc5))
#loc37 = loc("xindex"(#loc6))
#loc38 = loc("xindex"(#loc7))
#loc39 = loc("tmp0"(#loc8))
#loc40 = loc("tmp0"(#loc9))
#loc41 = loc("tmp0"(#loc10))
#loc42 = loc("tmp2"(#loc11))
#loc43 = loc("tmp2"(#loc12))
#loc44 = loc("tmp2"(#loc13))
#loc45 = loc("tmp4"(#loc14))
#loc46 = loc("tmp4"(#loc15))
#loc47 = loc("tmp8"(#loc16))
#loc48 = loc("tmp8"(#loc17))
#loc49 = loc("tmp7"(#loc18))
#loc50 = loc("tmp9"(#loc19))
#loc51 = loc("tmp10"(#loc20))
