#loc = loc("/NHNHOME/WORKSPACE/26msit001_A/jinhyeok/loop_TTT/lact/.cache_inductor_llm/v3/cv37t752emr5kpd5ewdeihl6kyu5lcnv6nl2rg7evovuoojqslgp.py":18:0)
#loc51 = loc("in_ptr0"(#loc))
#loc52 = loc("in_ptr1"(#loc))
#loc53 = loc("in_ptr2"(#loc))
#loc54 = loc("in_ptr3"(#loc))
#loc55 = loc("out_ptr0"(#loc))
#loc56 = loc("xnumel"(#loc))
module {
  tt.func public @triton_poi_fused_copy_slice_zeros_like_52(%in_ptr0: !tt.ptr<bf16> {tt.divisibility = 16 : i32} loc("in_ptr0"(#loc)), %in_ptr1: !tt.ptr<bf16> {tt.divisibility = 16 : i32} loc("in_ptr1"(#loc)), %in_ptr2: !tt.ptr<bf16> {tt.divisibility = 16 : i32} loc("in_ptr2"(#loc)), %in_ptr3: !tt.ptr<bf16> {tt.divisibility = 16 : i32} loc("in_ptr3"(#loc)), %out_ptr0: !tt.ptr<bf16> {tt.divisibility = 16 : i32} loc("out_ptr0"(#loc)), %xnumel: i32 {tt.divisibility = 16 : i32} loc("xnumel"(#loc))) attributes {noinline = false} {
    %xnumel_0 = arith.constant 25165824 : i32 loc(#loc57)
    %xoffset = tt.get_program_id x : i32 loc(#loc58)
    %xoffset_1 = arith.constant 512 : i32 loc(#loc59)
    %xoffset_2 = arith.constant 512 : i32 loc(#loc59)
    %xoffset_3 = arith.muli %xoffset, %xoffset_2 : i32 loc(#loc59)
    %xindex = tt.make_range {end = 512 : i32, start = 0 : i32} : tensor<512xi32> loc(#loc60)
    %xindex_4 = tt.splat %xoffset_3 : i32 -> tensor<512xi32> loc(#loc61)
    %xindex_5 = arith.addi %xindex_4, %xindex : tensor<512xi32> loc(#loc61)
    %xmask = arith.constant true loc(#loc62)
    %xmask_6 = arith.constant dense<true> : tensor<512xi1> loc(#loc62)
    %x0 = arith.constant 4096 : i32 loc(#loc63)
    %x0_7 = arith.constant 4096 : i32 loc(#loc63)
    %x0_8 = arith.constant dense<4096> : tensor<512xi32> loc(#loc63)
    %x0_9 = arith.remsi %xindex_5, %x0_8 : tensor<512xi32> loc(#loc63)
    %x1 = arith.constant 4096 : i32 loc(#loc64)
    %x1_10 = arith.constant 4096 : i32 loc(#loc64)
    %x1_11 = arith.constant dense<4096> : tensor<512xi32> loc(#loc64)
    %x1_12 = arith.divsi %xindex_5, %x1_11 : tensor<512xi32> loc(#loc64)
    %tmp1 = arith.constant 3072 : i64 loc(#loc65)
    %tmp1_13 = arith.constant dense<3072> : tensor<1xi64> loc(#loc65)
    %tmp2 = arith.extsi %x0_9 : tensor<512xi32> to tensor<512xi64> loc(#loc66)
    %tmp2_14 = arith.constant dense<3072> : tensor<512xi64> loc(#loc66)
    %tmp2_15 = arith.cmpi sge, %tmp2, %tmp2_14 : tensor<512xi64> loc(#loc66)
    %tmp3 = arith.constant -3072 : i32 loc(#loc67)
    %tmp3_16 = arith.constant -3072 : i32 loc(#loc67)
    %tmp3_17 = arith.constant dense<-3072> : tensor<512xi32> loc(#loc67)
    %tmp3_18 = arith.addi %tmp3_17, %x0_9 : tensor<512xi32> loc(#loc67)
    %tmp3_19 = arith.constant 1024 : i32 loc(#loc68)
    %tmp3_20 = arith.constant 1024 : i32 loc(#loc68)
    %tmp3_21 = arith.constant dense<1024> : tensor<512xi32> loc(#loc68)
    %tmp3_22 = arith.muli %tmp3_21, %x1_12 : tensor<512xi32> loc(#loc68)
    %tmp3_23 = arith.addi %tmp3_18, %tmp3_22 : tensor<512xi32> loc(#loc69)
    %tmp3_24 = tt.splat %in_ptr0 : !tt.ptr<bf16> -> tensor<512x!tt.ptr<bf16>> loc(#loc70)
    %tmp3_25 = tt.addptr %tmp3_24, %tmp3_23 : tensor<512x!tt.ptr<bf16>>, tensor<512xi32> loc(#loc70)
    %tmp3_26 = arith.constant 0.000000e+00 : f32 loc(#loc71)
    %tmp3_27 = arith.constant dense<0.000000e+00> : tensor<512xf32> loc(#loc71)
    %tmp3_28 = arith.truncf %tmp3_27 : tensor<512xf32> to tensor<512xbf16> loc(#loc71)
    %tmp3_29 = tt.load %tmp3_25, %tmp2_15, %tmp3_28 : tensor<512x!tt.ptr<bf16>> loc(#loc71)
    %tmp3_30 = arith.extf %tmp3_29 : tensor<512xbf16> to tensor<512xf32> loc(#loc72)
    %tmp4 = arith.constant 2048 : i64 loc(#loc73)
    %tmp4_31 = arith.constant dense<2048> : tensor<1xi64> loc(#loc73)
    %tmp5 = arith.extsi %x0_9 : tensor<512xi32> to tensor<512xi64> loc(#loc74)
    %tmp5_32 = arith.constant dense<2048> : tensor<512xi64> loc(#loc74)
    %tmp5_33 = arith.cmpi sge, %tmp5, %tmp5_32 : tensor<512xi64> loc(#loc74)
    %tmp6 = arith.extsi %x0_9 : tensor<512xi32> to tensor<512xi64> loc(#loc75)
    %tmp6_34 = arith.constant dense<3072> : tensor<512xi64> loc(#loc75)
    %tmp6_35 = arith.cmpi slt, %tmp6, %tmp6_34 : tensor<512xi64> loc(#loc75)
    %tmp7 = arith.andi %tmp5_33, %tmp6_35 : tensor<512xi1> loc(#loc76)
    %tmp8 = arith.constant -2048 : i32 loc(#loc77)
    %tmp8_36 = arith.constant -2048 : i32 loc(#loc77)
    %tmp8_37 = arith.constant dense<-2048> : tensor<512xi32> loc(#loc77)
    %tmp8_38 = arith.addi %tmp8_37, %x0_9 : tensor<512xi32> loc(#loc77)
    %tmp8_39 = arith.constant 1024 : i32 loc(#loc78)
    %tmp8_40 = arith.constant 1024 : i32 loc(#loc78)
    %tmp8_41 = arith.constant dense<1024> : tensor<512xi32> loc(#loc78)
    %tmp8_42 = arith.muli %tmp8_41, %x1_12 : tensor<512xi32> loc(#loc78)
    %tmp8_43 = arith.addi %tmp8_38, %tmp8_42 : tensor<512xi32> loc(#loc79)
    %tmp8_44 = tt.splat %in_ptr1 : !tt.ptr<bf16> -> tensor<512x!tt.ptr<bf16>> loc(#loc80)
    %tmp8_45 = tt.addptr %tmp8_44, %tmp8_43 : tensor<512x!tt.ptr<bf16>>, tensor<512xi32> loc(#loc80)
    %tmp8_46 = arith.constant 0.000000e+00 : f32 loc(#loc81)
    %tmp8_47 = arith.constant dense<0.000000e+00> : tensor<512xf32> loc(#loc81)
    %tmp8_48 = arith.truncf %tmp8_47 : tensor<512xf32> to tensor<512xbf16> loc(#loc81)
    %tmp8_49 = tt.load %tmp8_45, %tmp7, %tmp8_48 : tensor<512x!tt.ptr<bf16>> loc(#loc81)
    %tmp8_50 = arith.extf %tmp8_49 : tensor<512xbf16> to tensor<512xf32> loc(#loc82)
    %tmp9 = arith.constant 1024 : i64 loc(#loc83)
    %tmp9_51 = arith.constant dense<1024> : tensor<1xi64> loc(#loc83)
    %tmp10 = arith.extsi %x0_9 : tensor<512xi32> to tensor<512xi64> loc(#loc84)
    %tmp10_52 = arith.constant dense<1024> : tensor<512xi64> loc(#loc84)
    %tmp10_53 = arith.cmpi sge, %tmp10, %tmp10_52 : tensor<512xi64> loc(#loc84)
    %tmp11 = arith.extsi %x0_9 : tensor<512xi32> to tensor<512xi64> loc(#loc85)
    %tmp11_54 = arith.constant dense<2048> : tensor<512xi64> loc(#loc85)
    %tmp11_55 = arith.cmpi slt, %tmp11, %tmp11_54 : tensor<512xi64> loc(#loc85)
    %tmp12 = arith.andi %tmp10_53, %tmp11_55 : tensor<512xi1> loc(#loc86)
    %tmp13 = arith.constant -1024 : i32 loc(#loc87)
    %tmp13_56 = arith.constant -1024 : i32 loc(#loc87)
    %tmp13_57 = arith.constant dense<-1024> : tensor<512xi32> loc(#loc87)
    %tmp13_58 = arith.addi %tmp13_57, %x0_9 : tensor<512xi32> loc(#loc87)
    %tmp13_59 = arith.constant 1024 : i32 loc(#loc88)
    %tmp13_60 = arith.constant 1024 : i32 loc(#loc88)
    %tmp13_61 = arith.constant dense<1024> : tensor<512xi32> loc(#loc88)
    %tmp13_62 = arith.muli %tmp13_61, %x1_12 : tensor<512xi32> loc(#loc88)
    %tmp13_63 = arith.addi %tmp13_58, %tmp13_62 : tensor<512xi32> loc(#loc89)
    %tmp13_64 = tt.splat %in_ptr2 : !tt.ptr<bf16> -> tensor<512x!tt.ptr<bf16>> loc(#loc90)
    %tmp13_65 = tt.addptr %tmp13_64, %tmp13_63 : tensor<512x!tt.ptr<bf16>>, tensor<512xi32> loc(#loc90)
    %tmp13_66 = arith.constant 0.000000e+00 : f32 loc(#loc91)
    %tmp13_67 = arith.constant dense<0.000000e+00> : tensor<512xf32> loc(#loc91)
    %tmp13_68 = arith.truncf %tmp13_67 : tensor<512xf32> to tensor<512xbf16> loc(#loc91)
    %tmp13_69 = tt.load %tmp13_65, %tmp12, %tmp13_68 : tensor<512x!tt.ptr<bf16>> loc(#loc91)
    %tmp13_70 = arith.extf %tmp13_69 : tensor<512xbf16> to tensor<512xf32> loc(#loc92)
    %tmp14 = arith.extsi %x0_9 : tensor<512xi32> to tensor<512xi64> loc(#loc93)
    %tmp14_71 = arith.constant dense<1024> : tensor<512xi64> loc(#loc93)
    %tmp14_72 = arith.cmpi slt, %tmp14, %tmp14_71 : tensor<512xi64> loc(#loc93)
    %tmp15 = arith.constant 1024 : i32 loc(#loc94)
    %tmp15_73 = arith.constant 1024 : i32 loc(#loc94)
    %tmp15_74 = arith.constant dense<1024> : tensor<512xi32> loc(#loc94)
    %tmp15_75 = arith.muli %tmp15_74, %x1_12 : tensor<512xi32> loc(#loc94)
    %tmp15_76 = arith.addi %x0_9, %tmp15_75 : tensor<512xi32> loc(#loc95)
    %tmp15_77 = tt.splat %in_ptr3 : !tt.ptr<bf16> -> tensor<512x!tt.ptr<bf16>> loc(#loc96)
    %tmp15_78 = tt.addptr %tmp15_77, %tmp15_76 : tensor<512x!tt.ptr<bf16>>, tensor<512xi32> loc(#loc96)
    %tmp15_79 = arith.constant 0.000000e+00 : f32 loc(#loc97)
    %tmp15_80 = arith.constant dense<0.000000e+00> : tensor<512xf32> loc(#loc97)
    %tmp15_81 = arith.truncf %tmp15_80 : tensor<512xf32> to tensor<512xbf16> loc(#loc97)
    %tmp15_82 = tt.load %tmp15_78, %tmp14_72, %tmp15_81 : tensor<512x!tt.ptr<bf16>> loc(#loc97)
    %tmp15_83 = arith.extf %tmp15_82 : tensor<512xbf16> to tensor<512xf32> loc(#loc98)
    %tmp16 = arith.constant 0.000000e+00 : f32 loc(#loc99)
    %tmp17 = arith.constant dense<0.000000e+00> : tensor<512xf32> loc(#loc100)
    %tmp17_84 = arith.select %tmp14_72, %tmp15_83, %tmp17 : tensor<512xi1>, tensor<512xf32> loc(#loc100)
    %tmp18 = arith.select %tmp12, %tmp13_70, %tmp17_84 : tensor<512xi1>, tensor<512xf32> loc(#loc101)
    %tmp19 = arith.select %tmp7, %tmp8_50, %tmp18 : tensor<512xi1>, tensor<512xf32> loc(#loc102)
    %tmp20 = arith.select %tmp2_15, %tmp3_30, %tmp19 : tensor<512xi1>, tensor<512xf32> loc(#loc103)
    %0 = tt.splat %out_ptr0 : !tt.ptr<bf16> -> tensor<512x!tt.ptr<bf16>> loc(#loc48)
    %1 = tt.addptr %0, %xindex_5 : tensor<512x!tt.ptr<bf16>>, tensor<512xi32> loc(#loc48)
    %2 = arith.truncf %tmp20 : tensor<512xf32> to tensor<512xbf16> loc(#loc49)
    tt.store %1, %2 : tensor<512x!tt.ptr<bf16>> loc(#loc49)
    tt.return loc(#loc50)
  } loc(#loc)
} loc(#loc)
#loc1 = loc("/NHNHOME/WORKSPACE/26msit001_A/jinhyeok/loop_TTT/lact/.cache_inductor_llm/v3/cv37t752emr5kpd5ewdeihl6kyu5lcnv6nl2rg7evovuoojqslgp.py":19:13)
#loc2 = loc("/NHNHOME/WORKSPACE/26msit001_A/jinhyeok/loop_TTT/lact/.cache_inductor_llm/v3/cv37t752emr5kpd5ewdeihl6kyu5lcnv6nl2rg7evovuoojqslgp.py":20:28)
#loc3 = loc("/NHNHOME/WORKSPACE/26msit001_A/jinhyeok/loop_TTT/lact/.cache_inductor_llm/v3/cv37t752emr5kpd5ewdeihl6kyu5lcnv6nl2rg7evovuoojqslgp.py":20:33)
#loc4 = loc("/NHNHOME/WORKSPACE/26msit001_A/jinhyeok/loop_TTT/lact/.cache_inductor_llm/v3/cv37t752emr5kpd5ewdeihl6kyu5lcnv6nl2rg7evovuoojqslgp.py":21:36)
#loc5 = loc("/NHNHOME/WORKSPACE/26msit001_A/jinhyeok/loop_TTT/lact/.cache_inductor_llm/v3/cv37t752emr5kpd5ewdeihl6kyu5lcnv6nl2rg7evovuoojqslgp.py":21:23)
#loc6 = loc("/NHNHOME/WORKSPACE/26msit001_A/jinhyeok/loop_TTT/lact/.cache_inductor_llm/v3/cv37t752emr5kpd5ewdeihl6kyu5lcnv6nl2rg7evovuoojqslgp.py":22:36)
#loc7 = loc("/NHNHOME/WORKSPACE/26msit001_A/jinhyeok/loop_TTT/lact/.cache_inductor_llm/v3/cv37t752emr5kpd5ewdeihl6kyu5lcnv6nl2rg7evovuoojqslgp.py":23:19)
#loc8 = loc("/NHNHOME/WORKSPACE/26msit001_A/jinhyeok/loop_TTT/lact/.cache_inductor_llm/v3/cv37t752emr5kpd5ewdeihl6kyu5lcnv6nl2rg7evovuoojqslgp.py":24:19)
#loc9 = loc("/NHNHOME/WORKSPACE/26msit001_A/jinhyeok/loop_TTT/lact/.cache_inductor_llm/v3/cv37t752emr5kpd5ewdeihl6kyu5lcnv6nl2rg7evovuoojqslgp.py":27:30)
#loc10 = loc("/NHNHOME/WORKSPACE/26msit001_A/jinhyeok/loop_TTT/lact/.cache_inductor_llm/v3/cv37t752emr5kpd5ewdeihl6kyu5lcnv6nl2rg7evovuoojqslgp.py":28:19)
#loc11 = loc("/NHNHOME/WORKSPACE/26msit001_A/jinhyeok/loop_TTT/lact/.cache_inductor_llm/v3/cv37t752emr5kpd5ewdeihl6kyu5lcnv6nl2rg7evovuoojqslgp.py":29:40)
#loc12 = loc("/NHNHOME/WORKSPACE/26msit001_A/jinhyeok/loop_TTT/lact/.cache_inductor_llm/v3/cv37t752emr5kpd5ewdeihl6kyu5lcnv6nl2rg7evovuoojqslgp.py":29:50)
#loc13 = loc("/NHNHOME/WORKSPACE/26msit001_A/jinhyeok/loop_TTT/lact/.cache_inductor_llm/v3/cv37t752emr5kpd5ewdeihl6kyu5lcnv6nl2rg7evovuoojqslgp.py":29:45)
#loc14 = loc("/NHNHOME/WORKSPACE/26msit001_A/jinhyeok/loop_TTT/lact/.cache_inductor_llm/v3/cv37t752emr5kpd5ewdeihl6kyu5lcnv6nl2rg7evovuoojqslgp.py":29:30)
#loc15 = loc("/NHNHOME/WORKSPACE/26msit001_A/jinhyeok/loop_TTT/lact/.cache_inductor_llm/v3/cv37t752emr5kpd5ewdeihl6kyu5lcnv6nl2rg7evovuoojqslgp.py":29:55)
#loc16 = loc("/NHNHOME/WORKSPACE/26msit001_A/jinhyeok/loop_TTT/lact/.cache_inductor_llm/v3/cv37t752emr5kpd5ewdeihl6kyu5lcnv6nl2rg7evovuoojqslgp.py":29:75)
#loc17 = loc("/NHNHOME/WORKSPACE/26msit001_A/jinhyeok/loop_TTT/lact/.cache_inductor_llm/v3/cv37t752emr5kpd5ewdeihl6kyu5lcnv6nl2rg7evovuoojqslgp.py":30:30)
#loc18 = loc("/NHNHOME/WORKSPACE/26msit001_A/jinhyeok/loop_TTT/lact/.cache_inductor_llm/v3/cv37t752emr5kpd5ewdeihl6kyu5lcnv6nl2rg7evovuoojqslgp.py":31:19)
#loc19 = loc("/NHNHOME/WORKSPACE/26msit001_A/jinhyeok/loop_TTT/lact/.cache_inductor_llm/v3/cv37t752emr5kpd5ewdeihl6kyu5lcnv6nl2rg7evovuoojqslgp.py":32:18)
#loc20 = loc("/NHNHOME/WORKSPACE/26msit001_A/jinhyeok/loop_TTT/lact/.cache_inductor_llm/v3/cv37t752emr5kpd5ewdeihl6kyu5lcnv6nl2rg7evovuoojqslgp.py":33:18)
#loc21 = loc("/NHNHOME/WORKSPACE/26msit001_A/jinhyeok/loop_TTT/lact/.cache_inductor_llm/v3/cv37t752emr5kpd5ewdeihl6kyu5lcnv6nl2rg7evovuoojqslgp.py":34:40)
#loc22 = loc("/NHNHOME/WORKSPACE/26msit001_A/jinhyeok/loop_TTT/lact/.cache_inductor_llm/v3/cv37t752emr5kpd5ewdeihl6kyu5lcnv6nl2rg7evovuoojqslgp.py":34:50)
#loc23 = loc("/NHNHOME/WORKSPACE/26msit001_A/jinhyeok/loop_TTT/lact/.cache_inductor_llm/v3/cv37t752emr5kpd5ewdeihl6kyu5lcnv6nl2rg7evovuoojqslgp.py":34:45)
#loc24 = loc("/NHNHOME/WORKSPACE/26msit001_A/jinhyeok/loop_TTT/lact/.cache_inductor_llm/v3/cv37t752emr5kpd5ewdeihl6kyu5lcnv6nl2rg7evovuoojqslgp.py":34:30)
#loc25 = loc("/NHNHOME/WORKSPACE/26msit001_A/jinhyeok/loop_TTT/lact/.cache_inductor_llm/v3/cv37t752emr5kpd5ewdeihl6kyu5lcnv6nl2rg7evovuoojqslgp.py":34:55)
#loc26 = loc("/NHNHOME/WORKSPACE/26msit001_A/jinhyeok/loop_TTT/lact/.cache_inductor_llm/v3/cv37t752emr5kpd5ewdeihl6kyu5lcnv6nl2rg7evovuoojqslgp.py":34:75)
#loc27 = loc("/NHNHOME/WORKSPACE/26msit001_A/jinhyeok/loop_TTT/lact/.cache_inductor_llm/v3/cv37t752emr5kpd5ewdeihl6kyu5lcnv6nl2rg7evovuoojqslgp.py":35:30)
#loc28 = loc("/NHNHOME/WORKSPACE/26msit001_A/jinhyeok/loop_TTT/lact/.cache_inductor_llm/v3/cv37t752emr5kpd5ewdeihl6kyu5lcnv6nl2rg7evovuoojqslgp.py":36:20)
#loc29 = loc("/NHNHOME/WORKSPACE/26msit001_A/jinhyeok/loop_TTT/lact/.cache_inductor_llm/v3/cv37t752emr5kpd5ewdeihl6kyu5lcnv6nl2rg7evovuoojqslgp.py":37:19)
#loc30 = loc("/NHNHOME/WORKSPACE/26msit001_A/jinhyeok/loop_TTT/lact/.cache_inductor_llm/v3/cv37t752emr5kpd5ewdeihl6kyu5lcnv6nl2rg7evovuoojqslgp.py":38:20)
#loc31 = loc("/NHNHOME/WORKSPACE/26msit001_A/jinhyeok/loop_TTT/lact/.cache_inductor_llm/v3/cv37t752emr5kpd5ewdeihl6kyu5lcnv6nl2rg7evovuoojqslgp.py":39:41)
#loc32 = loc("/NHNHOME/WORKSPACE/26msit001_A/jinhyeok/loop_TTT/lact/.cache_inductor_llm/v3/cv37t752emr5kpd5ewdeihl6kyu5lcnv6nl2rg7evovuoojqslgp.py":39:51)
#loc33 = loc("/NHNHOME/WORKSPACE/26msit001_A/jinhyeok/loop_TTT/lact/.cache_inductor_llm/v3/cv37t752emr5kpd5ewdeihl6kyu5lcnv6nl2rg7evovuoojqslgp.py":39:46)
#loc34 = loc("/NHNHOME/WORKSPACE/26msit001_A/jinhyeok/loop_TTT/lact/.cache_inductor_llm/v3/cv37t752emr5kpd5ewdeihl6kyu5lcnv6nl2rg7evovuoojqslgp.py":39:31)
#loc35 = loc("/NHNHOME/WORKSPACE/26msit001_A/jinhyeok/loop_TTT/lact/.cache_inductor_llm/v3/cv37t752emr5kpd5ewdeihl6kyu5lcnv6nl2rg7evovuoojqslgp.py":39:56)
#loc36 = loc("/NHNHOME/WORKSPACE/26msit001_A/jinhyeok/loop_TTT/lact/.cache_inductor_llm/v3/cv37t752emr5kpd5ewdeihl6kyu5lcnv6nl2rg7evovuoojqslgp.py":39:77)
#loc37 = loc("/NHNHOME/WORKSPACE/26msit001_A/jinhyeok/loop_TTT/lact/.cache_inductor_llm/v3/cv37t752emr5kpd5ewdeihl6kyu5lcnv6nl2rg7evovuoojqslgp.py":40:19)
#loc38 = loc("/NHNHOME/WORKSPACE/26msit001_A/jinhyeok/loop_TTT/lact/.cache_inductor_llm/v3/cv37t752emr5kpd5ewdeihl6kyu5lcnv6nl2rg7evovuoojqslgp.py":41:41)
#loc39 = loc("/NHNHOME/WORKSPACE/26msit001_A/jinhyeok/loop_TTT/lact/.cache_inductor_llm/v3/cv37t752emr5kpd5ewdeihl6kyu5lcnv6nl2rg7evovuoojqslgp.py":41:36)
#loc40 = loc("/NHNHOME/WORKSPACE/26msit001_A/jinhyeok/loop_TTT/lact/.cache_inductor_llm/v3/cv37t752emr5kpd5ewdeihl6kyu5lcnv6nl2rg7evovuoojqslgp.py":41:31)
#loc41 = loc("/NHNHOME/WORKSPACE/26msit001_A/jinhyeok/loop_TTT/lact/.cache_inductor_llm/v3/cv37t752emr5kpd5ewdeihl6kyu5lcnv6nl2rg7evovuoojqslgp.py":41:46)
#loc42 = loc("/NHNHOME/WORKSPACE/26msit001_A/jinhyeok/loop_TTT/lact/.cache_inductor_llm/v3/cv37t752emr5kpd5ewdeihl6kyu5lcnv6nl2rg7evovuoojqslgp.py":41:67)
#loc43 = loc("/NHNHOME/WORKSPACE/26msit001_A/jinhyeok/loop_TTT/lact/.cache_inductor_llm/v3/cv37t752emr5kpd5ewdeihl6kyu5lcnv6nl2rg7evovuoojqslgp.py":42:12)
#loc44 = loc("/NHNHOME/WORKSPACE/26msit001_A/jinhyeok/loop_TTT/lact/.cache_inductor_llm/v3/cv37t752emr5kpd5ewdeihl6kyu5lcnv6nl2rg7evovuoojqslgp.py":43:35)
#loc45 = loc("/NHNHOME/WORKSPACE/26msit001_A/jinhyeok/loop_TTT/lact/.cache_inductor_llm/v3/cv37t752emr5kpd5ewdeihl6kyu5lcnv6nl2rg7evovuoojqslgp.py":44:35)
#loc46 = loc("/NHNHOME/WORKSPACE/26msit001_A/jinhyeok/loop_TTT/lact/.cache_inductor_llm/v3/cv37t752emr5kpd5ewdeihl6kyu5lcnv6nl2rg7evovuoojqslgp.py":45:33)
#loc47 = loc("/NHNHOME/WORKSPACE/26msit001_A/jinhyeok/loop_TTT/lact/.cache_inductor_llm/v3/cv37t752emr5kpd5ewdeihl6kyu5lcnv6nl2rg7evovuoojqslgp.py":46:33)
#loc48 = loc("/NHNHOME/WORKSPACE/26msit001_A/jinhyeok/loop_TTT/lact/.cache_inductor_llm/v3/cv37t752emr5kpd5ewdeihl6kyu5lcnv6nl2rg7evovuoojqslgp.py":47:25)
#loc49 = loc("/NHNHOME/WORKSPACE/26msit001_A/jinhyeok/loop_TTT/lact/.cache_inductor_llm/v3/cv37t752emr5kpd5ewdeihl6kyu5lcnv6nl2rg7evovuoojqslgp.py":47:37)
#loc50 = loc("/NHNHOME/WORKSPACE/26msit001_A/jinhyeok/loop_TTT/lact/.cache_inductor_llm/v3/cv37t752emr5kpd5ewdeihl6kyu5lcnv6nl2rg7evovuoojqslgp.py":47:4)
#loc57 = loc("xnumel"(#loc1))
#loc58 = loc("xoffset"(#loc2))
#loc59 = loc("xoffset"(#loc3))
#loc60 = loc("xindex"(#loc4))
#loc61 = loc("xindex"(#loc5))
#loc62 = loc("xmask"(#loc6))
#loc63 = loc("x0"(#loc7))
#loc64 = loc("x1"(#loc8))
#loc65 = loc("tmp1"(#loc9))
#loc66 = loc("tmp2"(#loc10))
#loc67 = loc("tmp3"(#loc11))
#loc68 = loc("tmp3"(#loc12))
#loc69 = loc("tmp3"(#loc13))
#loc70 = loc("tmp3"(#loc14))
#loc71 = loc("tmp3"(#loc15))
#loc72 = loc("tmp3"(#loc16))
#loc73 = loc("tmp4"(#loc17))
#loc74 = loc("tmp5"(#loc18))
#loc75 = loc("tmp6"(#loc19))
#loc76 = loc("tmp7"(#loc20))
#loc77 = loc("tmp8"(#loc21))
#loc78 = loc("tmp8"(#loc22))
#loc79 = loc("tmp8"(#loc23))
#loc80 = loc("tmp8"(#loc24))
#loc81 = loc("tmp8"(#loc25))
#loc82 = loc("tmp8"(#loc26))
#loc83 = loc("tmp9"(#loc27))
#loc84 = loc("tmp10"(#loc28))
#loc85 = loc("tmp11"(#loc29))
#loc86 = loc("tmp12"(#loc30))
#loc87 = loc("tmp13"(#loc31))
#loc88 = loc("tmp13"(#loc32))
#loc89 = loc("tmp13"(#loc33))
#loc90 = loc("tmp13"(#loc34))
#loc91 = loc("tmp13"(#loc35))
#loc92 = loc("tmp13"(#loc36))
#loc93 = loc("tmp14"(#loc37))
#loc94 = loc("tmp15"(#loc38))
#loc95 = loc("tmp15"(#loc39))
#loc96 = loc("tmp15"(#loc40))
#loc97 = loc("tmp15"(#loc41))
#loc98 = loc("tmp15"(#loc42))
#loc99 = loc("tmp16"(#loc43))
#loc100 = loc("tmp17"(#loc44))
#loc101 = loc("tmp18"(#loc45))
#loc102 = loc("tmp19"(#loc46))
#loc103 = loc("tmp20"(#loc47))
