#loc = loc("/NHNHOME/WORKSPACE/26msit001_A/jinhyeok/loop_TTT/lact/.cache_inductor_llm/yg/cyg73vj3aycxq2cjtzrt3f4xzqdr23jqplaybjihq3hqjlq3kdmf.py":18:0)
#loc1 = loc(unknown)
#loc47 = loc("/NHNHOME/WORKSPACE/26msit001_A/jinhyeok/loop_TTT/lact/.cache_inductor_llm/yg/cyg73vj3aycxq2cjtzrt3f4xzqdr23jqplaybjihq3hqjlq3kdmf.py":54:27)
#loc53 = loc("in_ptr0"(#loc))
#loc54 = loc("in_ptr1"(#loc))
#loc55 = loc("in_ptr2"(#loc))
#loc56 = loc("out_ptr0"(#loc))
#loc57 = loc("xnumel"(#loc))
#loc58 = loc("r0_numel"(#loc))
#loc98 = loc("tmp12"(#loc47))
#loc105 = loc(callsite(#loc1 at #loc98))
module {
  tt.func public @triton_red_fused__to_copy_mul_silu_sum_transpose_18(%in_ptr0: !tt.ptr<bf16> {tt.divisibility = 16 : i32} loc("in_ptr0"(#loc)), %in_ptr1: !tt.ptr<bf16> {tt.divisibility = 16 : i32} loc("in_ptr1"(#loc)), %in_ptr2: !tt.ptr<bf16> {tt.divisibility = 16 : i32} loc("in_ptr2"(#loc)), %out_ptr0: !tt.ptr<f32> {tt.divisibility = 16 : i32} loc("out_ptr0"(#loc)), %xnumel: i32 {tt.divisibility = 16 : i32} loc("xnumel"(#loc)), %r0_numel: i32 {tt.divisibility = 16 : i32} loc("r0_numel"(#loc))) attributes {noinline = false} {
    %cst = arith.constant dense<1.000000e+00> : tensor<16x32xf32> loc(#loc1)
    %cst_0 = arith.constant dense<0.000000e+00> : tensor<16x32xbf16> loc(#loc1)
    %c32_i32 = arith.constant 32 : i32 loc(#loc2)
    %c96_i32 = arith.constant 96 : i32 loc(#loc2)
    %c0_i32 = arith.constant 0 : i32 loc(#loc2)
    %cst_1 = arith.constant dense<98304> : tensor<16x1xi32> loc(#loc1)
    %cst_2 = arith.constant dense<1024> : tensor<1x32xi32> loc(#loc1)
    %cst_3 = arith.constant dense<196608> : tensor<16x1xi32> loc(#loc1)
    %cst_4 = arith.constant dense<192> : tensor<16x1xi32> loc(#loc1)
    %cst_5 = arith.constant dense<96> : tensor<16x1xi32> loc(#loc1)
    %cst_6 = arith.constant dense<96> : tensor<1x32xi32> loc(#loc1)
    %cst_7 = arith.constant dense<0.000000e+00> : tensor<16x32xf32> loc(#loc1)
    %x2 = arith.constant dense<2048> : tensor<16x1xi32> loc(#loc59)
    %x1 = arith.constant dense<2> : tensor<16x1xi32> loc(#loc60)
    %cst_8 = arith.constant dense<1024> : tensor<16x1xi32> loc(#loc1)
    %c16_i32 = arith.constant 16 : i32 loc(#loc1)
    %xoffset = tt.get_program_id x : i32 loc(#loc61)
    %xoffset_9 = arith.muli %xoffset, %c16_i32 : i32 loc(#loc62)
    %xindex = tt.make_range {end = 16 : i32, start = 0 : i32} : tensor<16xi32> loc(#loc63)
    %xindex_10 = tt.expand_dims %xindex {axis = 1 : i32} : tensor<16xi32> -> tensor<16x1xi32> loc(#loc64)
    %xindex_11 = tt.splat %xoffset_9 : i32 -> tensor<16x1xi32> loc(#loc65)
    %xindex_12 = arith.addi %xindex_11, %xindex_10 : tensor<16x1xi32> loc(#loc65)
    %r0_base = tt.make_range {end = 32 : i32, start = 0 : i32} : tensor<32xi32> loc(#loc66)
    %r0_base_13 = tt.expand_dims %r0_base {axis = 0 : i32} : tensor<32xi32> -> tensor<1x32xi32> loc(#loc67)
    %x0 = arith.remsi %xindex_12, %cst_8 : tensor<16x1xi32> loc(#loc68)
    %x1_14 = arith.divsi %xindex_12, %cst_8 : tensor<16x1xi32> loc(#loc69)
    %x1_15 = arith.remsi %x1_14, %x1 : tensor<16x1xi32> loc(#loc60)
    %x2_16 = arith.divsi %xindex_12, %x2 : tensor<16x1xi32> loc(#loc59)
    %_tmp12 = scf.for %r0_offset = %c0_i32 to %c96_i32 step %c32_i32 iter_args(%_tmp12_18 = %cst_7) -> (tensor<16x32xf32>)  : i32 {
      %r0_index = tt.splat %r0_offset : i32 -> tensor<1x32xi32> loc(#loc71)
      %r0_index_19 = arith.addi %r0_index, %r0_base_13 : tensor<1x32xi32> loc(#loc71)
      %r0_mask = arith.cmpi slt, %r0_index_19, %cst_6 : tensor<1x32xi32> loc(#loc72)
      %tmp0 = arith.muli %x1_15, %cst_5 : tensor<16x1xi32> loc(#loc73)
      %tmp0_20 = tt.broadcast %r0_index_19 : tensor<1x32xi32> -> tensor<16x32xi32> loc(#loc74)
      %tmp0_21 = tt.broadcast %tmp0 : tensor<16x1xi32> -> tensor<16x32xi32> loc(#loc74)
      %tmp0_22 = arith.addi %tmp0_20, %tmp0_21 : tensor<16x32xi32> loc(#loc74)
      %tmp0_23 = arith.muli %x0, %cst_4 : tensor<16x1xi32> loc(#loc75)
      %tmp0_24 = tt.broadcast %tmp0_23 : tensor<16x1xi32> -> tensor<16x32xi32> loc(#loc76)
      %tmp0_25 = arith.addi %tmp0_22, %tmp0_24 : tensor<16x32xi32> loc(#loc76)
      %tmp0_26 = arith.muli %x2_16, %cst_3 : tensor<16x1xi32> loc(#loc77)
      %tmp0_27 = tt.broadcast %tmp0_26 : tensor<16x1xi32> -> tensor<16x32xi32> loc(#loc78)
      %tmp0_28 = arith.addi %tmp0_25, %tmp0_27 : tensor<16x32xi32> loc(#loc78)
      %tmp0_29 = tt.splat %in_ptr0 : !tt.ptr<bf16> -> tensor<16x32x!tt.ptr<bf16>> loc(#loc79)
      %tmp0_30 = tt.addptr %tmp0_29, %tmp0_28 : tensor<16x32x!tt.ptr<bf16>>, tensor<16x32xi32> loc(#loc79)
      %tmp0_31 = tt.broadcast %r0_mask : tensor<1x32xi1> -> tensor<16x32xi1> loc(#loc80)
      %tmp0_32 = tt.load %tmp0_30, %tmp0_31, %cst_0 evictionPolicy = evict_first : tensor<16x32x!tt.ptr<bf16>> loc(#loc80)
      %tmp0_33 = arith.extf %tmp0_32 : tensor<16x32xbf16> to tensor<16x32xf32> loc(#loc81)
      %tmp2 = arith.muli %r0_index_19, %cst_2 : tensor<1x32xi32> loc(#loc82)
      %tmp2_34 = tt.broadcast %x0 : tensor<16x1xi32> -> tensor<16x32xi32> loc(#loc83)
      %tmp2_35 = tt.broadcast %tmp2 : tensor<1x32xi32> -> tensor<16x32xi32> loc(#loc83)
      %tmp2_36 = arith.addi %tmp2_34, %tmp2_35 : tensor<16x32xi32> loc(#loc83)
      %tmp2_37 = arith.muli %x1_14, %cst_1 : tensor<16x1xi32> loc(#loc84)
      %tmp2_38 = tt.broadcast %tmp2_37 : tensor<16x1xi32> -> tensor<16x32xi32> loc(#loc85)
      %tmp2_39 = arith.addi %tmp2_36, %tmp2_38 : tensor<16x32xi32> loc(#loc85)
      %tmp2_40 = tt.splat %in_ptr1 : !tt.ptr<bf16> -> tensor<16x32x!tt.ptr<bf16>> loc(#loc86)
      %tmp2_41 = tt.addptr %tmp2_40, %tmp2_39 : tensor<16x32x!tt.ptr<bf16>>, tensor<16x32xi32> loc(#loc86)
      %tmp2_42 = tt.load %tmp2_41, %tmp0_31, %cst_0 evictionPolicy = evict_first : tensor<16x32x!tt.ptr<bf16>> loc(#loc87)
      %tmp2_43 = arith.extf %tmp2_42 : tensor<16x32xbf16> to tensor<16x32xf32> loc(#loc88)
      %tmp7 = tt.splat %in_ptr2 : !tt.ptr<bf16> -> tensor<16x32x!tt.ptr<bf16>> loc(#loc89)
      %tmp7_44 = tt.addptr %tmp7, %tmp2_39 : tensor<16x32x!tt.ptr<bf16>>, tensor<16x32xi32> loc(#loc89)
      %tmp7_45 = tt.load %tmp7_44, %tmp0_31, %cst_0 evictionPolicy = evict_first : tensor<16x32x!tt.ptr<bf16>> loc(#loc90)
      %tmp7_46 = arith.extf %tmp7_45 : tensor<16x32xbf16> to tensor<16x32xf32> loc(#loc91)
      %tmp4 = arith.subf %cst_7, %tmp2_43 : tensor<16x32xf32> loc(#loc100)
      %tmp4_47 = math.exp %tmp4 : tensor<16x32xf32> loc(#loc101)
      %tmp4_48 = arith.addf %tmp4_47, %cst : tensor<16x32xf32> loc(#loc102)
      %tmp4_49 = arith.divf %cst, %tmp4_48 : tensor<16x32xf32> loc(#loc103)
      %tmp5 = arith.mulf %tmp2_43, %tmp4_49 : tensor<16x32xf32> loc(#loc93)
      %tmp8 = arith.mulf %tmp5, %tmp7_46 : tensor<16x32xf32> loc(#loc94)
      %tmp10 = arith.mulf %tmp0_33, %tmp8 : tensor<16x32xf32> loc(#loc95)
      %tmp13 = arith.addf %_tmp12_18, %tmp10 : tensor<16x32xf32> loc(#loc96)
      %_tmp12_50 = arith.select %tmp0_31, %tmp13, %_tmp12_18 : tensor<16x32xi1>, tensor<16x32xf32> loc(#loc97)
      scf.yield %_tmp12_50 : tensor<16x32xf32> loc(#loc45)
    } loc(#loc70)
    %tmp12 = "tt.reduce"(%_tmp12) <{axis = 1 : i32}> ({
    ^bb0(%tmp12_18: f32 loc(callsite(#loc1 at #loc98)), %tmp12_19: f32 loc(callsite(#loc1 at #loc98))):
      %tmp12_20 = arith.addf %tmp12_18, %tmp12_19 : f32 loc(#loc106)
      tt.reduce.return %tmp12_20 : f32 loc(#loc104)
    }) : (tensor<16x32xf32>) -> tensor<16xf32> loc(#loc104)
    %tmp12_17 = tt.expand_dims %tmp12 {axis = 1 : i32} : tensor<16xf32> -> tensor<16x1xf32> loc(#loc99)
    %0 = tt.splat %out_ptr0 : !tt.ptr<f32> -> tensor<16x1x!tt.ptr<f32>> loc(#loc50)
    %1 = tt.addptr %0, %xindex_12 : tensor<16x1x!tt.ptr<f32>>, tensor<16x1xi32> loc(#loc50)
    tt.store %1, %tmp12_17 : tensor<16x1x!tt.ptr<f32>> loc(#loc51)
    tt.return loc(#loc52)
  } loc(#loc)
} loc(#loc)
#loc2 = loc("/NHNHOME/WORKSPACE/26msit001_A/jinhyeok/loop_TTT/lact/.cache_inductor_llm/yg/cyg73vj3aycxq2cjtzrt3f4xzqdr23jqplaybjihq3hqjlq3kdmf.py":34:40)
#loc3 = loc("/NHNHOME/WORKSPACE/26msit001_A/jinhyeok/loop_TTT/lact/.cache_inductor_llm/yg/cyg73vj3aycxq2cjtzrt3f4xzqdr23jqplaybjihq3hqjlq3kdmf.py":30:19)
#loc4 = loc("/NHNHOME/WORKSPACE/26msit001_A/jinhyeok/loop_TTT/lact/.cache_inductor_llm/yg/cyg73vj3aycxq2cjtzrt3f4xzqdr23jqplaybjihq3hqjlq3kdmf.py":29:29)
#loc5 = loc("/NHNHOME/WORKSPACE/26msit001_A/jinhyeok/loop_TTT/lact/.cache_inductor_llm/yg/cyg73vj3aycxq2cjtzrt3f4xzqdr23jqplaybjihq3hqjlq3kdmf.py":23:28)
#loc6 = loc("/NHNHOME/WORKSPACE/26msit001_A/jinhyeok/loop_TTT/lact/.cache_inductor_llm/yg/cyg73vj3aycxq2cjtzrt3f4xzqdr23jqplaybjihq3hqjlq3kdmf.py":23:33)
#loc7 = loc("/NHNHOME/WORKSPACE/26msit001_A/jinhyeok/loop_TTT/lact/.cache_inductor_llm/yg/cyg73vj3aycxq2cjtzrt3f4xzqdr23jqplaybjihq3hqjlq3kdmf.py":24:36)
#loc8 = loc("/NHNHOME/WORKSPACE/26msit001_A/jinhyeok/loop_TTT/lact/.cache_inductor_llm/yg/cyg73vj3aycxq2cjtzrt3f4xzqdr23jqplaybjihq3hqjlq3kdmf.py":24:44)
#loc9 = loc("/NHNHOME/WORKSPACE/26msit001_A/jinhyeok/loop_TTT/lact/.cache_inductor_llm/yg/cyg73vj3aycxq2cjtzrt3f4xzqdr23jqplaybjihq3hqjlq3kdmf.py":24:23)
#loc10 = loc("/NHNHOME/WORKSPACE/26msit001_A/jinhyeok/loop_TTT/lact/.cache_inductor_llm/yg/cyg73vj3aycxq2cjtzrt3f4xzqdr23jqplaybjihq3hqjlq3kdmf.py":26:27)
#loc11 = loc("/NHNHOME/WORKSPACE/26msit001_A/jinhyeok/loop_TTT/lact/.cache_inductor_llm/yg/cyg73vj3aycxq2cjtzrt3f4xzqdr23jqplaybjihq3hqjlq3kdmf.py":26:37)
#loc12 = loc("/NHNHOME/WORKSPACE/26msit001_A/jinhyeok/loop_TTT/lact/.cache_inductor_llm/yg/cyg73vj3aycxq2cjtzrt3f4xzqdr23jqplaybjihq3hqjlq3kdmf.py":28:19)
#loc13 = loc("/NHNHOME/WORKSPACE/26msit001_A/jinhyeok/loop_TTT/lact/.cache_inductor_llm/yg/cyg73vj3aycxq2cjtzrt3f4xzqdr23jqplaybjihq3hqjlq3kdmf.py":29:21)
#loc14 = loc("/NHNHOME/WORKSPACE/26msit001_A/jinhyeok/loop_TTT/lact/.cache_inductor_llm/yg/cyg73vj3aycxq2cjtzrt3f4xzqdr23jqplaybjihq3hqjlq3kdmf.py":35:31)
#loc15 = loc("/NHNHOME/WORKSPACE/26msit001_A/jinhyeok/loop_TTT/lact/.cache_inductor_llm/yg/cyg73vj3aycxq2cjtzrt3f4xzqdr23jqplaybjihq3hqjlq3kdmf.py":36:29)
#loc16 = loc("/NHNHOME/WORKSPACE/26msit001_A/jinhyeok/loop_TTT/lact/.cache_inductor_llm/yg/cyg73vj3aycxq2cjtzrt3f4xzqdr23jqplaybjihq3hqjlq3kdmf.py":40:44)
#loc17 = loc("/NHNHOME/WORKSPACE/26msit001_A/jinhyeok/loop_TTT/lact/.cache_inductor_llm/yg/cyg73vj3aycxq2cjtzrt3f4xzqdr23jqplaybjihq3hqjlq3kdmf.py":40:41)
#loc18 = loc("/NHNHOME/WORKSPACE/26msit001_A/jinhyeok/loop_TTT/lact/.cache_inductor_llm/yg/cyg73vj3aycxq2cjtzrt3f4xzqdr23jqplaybjihq3hqjlq3kdmf.py":40:53)
#loc19 = loc("/NHNHOME/WORKSPACE/26msit001_A/jinhyeok/loop_TTT/lact/.cache_inductor_llm/yg/cyg73vj3aycxq2cjtzrt3f4xzqdr23jqplaybjihq3hqjlq3kdmf.py":40:49)
#loc20 = loc("/NHNHOME/WORKSPACE/26msit001_A/jinhyeok/loop_TTT/lact/.cache_inductor_llm/yg/cyg73vj3aycxq2cjtzrt3f4xzqdr23jqplaybjihq3hqjlq3kdmf.py":40:65)
#loc21 = loc("/NHNHOME/WORKSPACE/26msit001_A/jinhyeok/loop_TTT/lact/.cache_inductor_llm/yg/cyg73vj3aycxq2cjtzrt3f4xzqdr23jqplaybjihq3hqjlq3kdmf.py":40:58)
#loc22 = loc("/NHNHOME/WORKSPACE/26msit001_A/jinhyeok/loop_TTT/lact/.cache_inductor_llm/yg/cyg73vj3aycxq2cjtzrt3f4xzqdr23jqplaybjihq3hqjlq3kdmf.py":40:34)
#loc23 = loc("/NHNHOME/WORKSPACE/26msit001_A/jinhyeok/loop_TTT/lact/.cache_inductor_llm/yg/cyg73vj3aycxq2cjtzrt3f4xzqdr23jqplaybjihq3hqjlq3kdmf.py":40:70)
#loc24 = loc("/NHNHOME/WORKSPACE/26msit001_A/jinhyeok/loop_TTT/lact/.cache_inductor_llm/yg/cyg73vj3aycxq2cjtzrt3f4xzqdr23jqplaybjihq3hqjlq3kdmf.py":40:124)
#loc25 = loc("/NHNHOME/WORKSPACE/26msit001_A/jinhyeok/loop_TTT/lact/.cache_inductor_llm/yg/cyg73vj3aycxq2cjtzrt3f4xzqdr23jqplaybjihq3hqjlq3kdmf.py":41:44)
#loc26 = loc("/NHNHOME/WORKSPACE/26msit001_A/jinhyeok/loop_TTT/lact/.cache_inductor_llm/yg/cyg73vj3aycxq2cjtzrt3f4xzqdr23jqplaybjihq3hqjlq3kdmf.py":41:39)
#loc27 = loc("/NHNHOME/WORKSPACE/26msit001_A/jinhyeok/loop_TTT/lact/.cache_inductor_llm/yg/cyg73vj3aycxq2cjtzrt3f4xzqdr23jqplaybjihq3hqjlq3kdmf.py":41:57)
#loc28 = loc("/NHNHOME/WORKSPACE/26msit001_A/jinhyeok/loop_TTT/lact/.cache_inductor_llm/yg/cyg73vj3aycxq2cjtzrt3f4xzqdr23jqplaybjihq3hqjlq3kdmf.py":41:51)
#loc29 = loc("/NHNHOME/WORKSPACE/26msit001_A/jinhyeok/loop_TTT/lact/.cache_inductor_llm/yg/cyg73vj3aycxq2cjtzrt3f4xzqdr23jqplaybjihq3hqjlq3kdmf.py":41:34)
#loc30 = loc("/NHNHOME/WORKSPACE/26msit001_A/jinhyeok/loop_TTT/lact/.cache_inductor_llm/yg/cyg73vj3aycxq2cjtzrt3f4xzqdr23jqplaybjihq3hqjlq3kdmf.py":41:62)
#loc31 = loc("/NHNHOME/WORKSPACE/26msit001_A/jinhyeok/loop_TTT/lact/.cache_inductor_llm/yg/cyg73vj3aycxq2cjtzrt3f4xzqdr23jqplaybjihq3hqjlq3kdmf.py":41:116)
#loc32 = loc("/NHNHOME/WORKSPACE/26msit001_A/jinhyeok/loop_TTT/lact/.cache_inductor_llm/yg/cyg73vj3aycxq2cjtzrt3f4xzqdr23jqplaybjihq3hqjlq3kdmf.py":42:34)
#loc33 = loc("/NHNHOME/WORKSPACE/26msit001_A/jinhyeok/loop_TTT/lact/.cache_inductor_llm/yg/cyg73vj3aycxq2cjtzrt3f4xzqdr23jqplaybjihq3hqjlq3kdmf.py":42:62)
#loc34 = loc("/NHNHOME/WORKSPACE/26msit001_A/jinhyeok/loop_TTT/lact/.cache_inductor_llm/yg/cyg73vj3aycxq2cjtzrt3f4xzqdr23jqplaybjihq3hqjlq3kdmf.py":42:116)
#loc35 = loc("/NHNHOME/WORKSPACE/26msit001_A/jinhyeok/TTT_camera_embedding/.venv_llm/lib/python3.12/site-packages/triton/language/standard.py":48:30)
#loc36 = loc("/NHNHOME/WORKSPACE/26msit001_A/jinhyeok/loop_TTT/lact/.cache_inductor_llm/yg/cyg73vj3aycxq2cjtzrt3f4xzqdr23jqplaybjihq3hqjlq3kdmf.py":45:26)
#loc37 = loc("/NHNHOME/WORKSPACE/26msit001_A/jinhyeok/TTT_camera_embedding/.venv_llm/lib/python3.12/site-packages/triton/language/standard.py":48:29)
#loc38 = loc("/NHNHOME/WORKSPACE/26msit001_A/jinhyeok/TTT_camera_embedding/.venv_llm/lib/python3.12/site-packages/triton/language/standard.py":48:20)
#loc39 = loc("/NHNHOME/WORKSPACE/26msit001_A/jinhyeok/TTT_camera_embedding/.venv_llm/lib/python3.12/site-packages/triton/language/standard.py":48:16)
#loc40 = loc("/NHNHOME/WORKSPACE/26msit001_A/jinhyeok/loop_TTT/lact/.cache_inductor_llm/yg/cyg73vj3aycxq2cjtzrt3f4xzqdr23jqplaybjihq3hqjlq3kdmf.py":46:22)
#loc41 = loc("/NHNHOME/WORKSPACE/26msit001_A/jinhyeok/loop_TTT/lact/.cache_inductor_llm/yg/cyg73vj3aycxq2cjtzrt3f4xzqdr23jqplaybjihq3hqjlq3kdmf.py":48:22)
#loc42 = loc("/NHNHOME/WORKSPACE/26msit001_A/jinhyeok/loop_TTT/lact/.cache_inductor_llm/yg/cyg73vj3aycxq2cjtzrt3f4xzqdr23jqplaybjihq3hqjlq3kdmf.py":50:23)
#loc43 = loc("/NHNHOME/WORKSPACE/26msit001_A/jinhyeok/loop_TTT/lact/.cache_inductor_llm/yg/cyg73vj3aycxq2cjtzrt3f4xzqdr23jqplaybjihq3hqjlq3kdmf.py":52:25)
#loc44 = loc("/NHNHOME/WORKSPACE/26msit001_A/jinhyeok/loop_TTT/lact/.cache_inductor_llm/yg/cyg73vj3aycxq2cjtzrt3f4xzqdr23jqplaybjihq3hqjlq3kdmf.py":53:42)
#loc45 = loc("/NHNHOME/WORKSPACE/26msit001_A/jinhyeok/loop_TTT/lact/.cache_inductor_llm/yg/cyg73vj3aycxq2cjtzrt3f4xzqdr23jqplaybjihq3hqjlq3kdmf.py":53:8)
#loc46 = loc("/NHNHOME/WORKSPACE/26msit001_A/jinhyeok/TTT_camera_embedding/.venv_llm/lib/python3.12/site-packages/triton/language/standard.py":291:36)
#loc48 = loc("/NHNHOME/WORKSPACE/26msit001_A/jinhyeok/TTT_camera_embedding/.venv_llm/lib/python3.12/site-packages/triton/language/standard.py":261:15)
#loc49 = loc("/NHNHOME/WORKSPACE/26msit001_A/jinhyeok/loop_TTT/lact/.cache_inductor_llm/yg/cyg73vj3aycxq2cjtzrt3f4xzqdr23jqplaybjihq3hqjlq3kdmf.py":54:30)
#loc50 = loc("/NHNHOME/WORKSPACE/26msit001_A/jinhyeok/loop_TTT/lact/.cache_inductor_llm/yg/cyg73vj3aycxq2cjtzrt3f4xzqdr23jqplaybjihq3hqjlq3kdmf.py":55:25)
#loc51 = loc("/NHNHOME/WORKSPACE/26msit001_A/jinhyeok/loop_TTT/lact/.cache_inductor_llm/yg/cyg73vj3aycxq2cjtzrt3f4xzqdr23jqplaybjihq3hqjlq3kdmf.py":55:37)
#loc52 = loc("/NHNHOME/WORKSPACE/26msit001_A/jinhyeok/loop_TTT/lact/.cache_inductor_llm/yg/cyg73vj3aycxq2cjtzrt3f4xzqdr23jqplaybjihq3hqjlq3kdmf.py":55:4)
#loc59 = loc("x2"(#loc3))
#loc60 = loc("x1"(#loc4))
#loc61 = loc("xoffset"(#loc5))
#loc62 = loc("xoffset"(#loc6))
#loc63 = loc("xindex"(#loc7))
#loc64 = loc("xindex"(#loc8))
#loc65 = loc("xindex"(#loc9))
#loc66 = loc("r0_base"(#loc10))
#loc67 = loc("r0_base"(#loc11))
#loc68 = loc("x0"(#loc12))
#loc69 = loc("x1"(#loc13))
#loc70 = loc("_tmp12"(#loc2))
#loc71 = loc("r0_index"(#loc14))
#loc72 = loc("r0_mask"(#loc15))
#loc73 = loc("tmp0"(#loc16))
#loc74 = loc("tmp0"(#loc17))
#loc75 = loc("tmp0"(#loc18))
#loc76 = loc("tmp0"(#loc19))
#loc77 = loc("tmp0"(#loc20))
#loc78 = loc("tmp0"(#loc21))
#loc79 = loc("tmp0"(#loc22))
#loc80 = loc("tmp0"(#loc23))
#loc81 = loc("tmp0"(#loc24))
#loc82 = loc("tmp2"(#loc25))
#loc83 = loc("tmp2"(#loc26))
#loc84 = loc("tmp2"(#loc27))
#loc85 = loc("tmp2"(#loc28))
#loc86 = loc("tmp2"(#loc29))
#loc87 = loc("tmp2"(#loc30))
#loc88 = loc("tmp2"(#loc31))
#loc89 = loc("tmp7"(#loc32))
#loc90 = loc("tmp7"(#loc33))
#loc91 = loc("tmp7"(#loc34))
#loc92 = loc("tmp4"(#loc36))
#loc93 = loc("tmp5"(#loc40))
#loc94 = loc("tmp8"(#loc41))
#loc95 = loc("tmp10"(#loc42))
#loc96 = loc("tmp13"(#loc43))
#loc97 = loc("_tmp12"(#loc44))
#loc99 = loc("tmp12"(#loc49))
#loc100 = loc(callsite(#loc35 at #loc92))
#loc101 = loc(callsite(#loc37 at #loc92))
#loc102 = loc(callsite(#loc38 at #loc92))
#loc103 = loc(callsite(#loc39 at #loc92))
#loc104 = loc(callsite(#loc46 at #loc98))
#loc106 = loc(callsite(#loc48 at #loc104))
