#loc = loc("/NHNHOME/WORKSPACE/26msit001_A/jinhyeok/loop_TTT/lact/.cache_inductor_llm/uy/cuyvywdwmfhlt243i7oskrjk5qv565andpavzjfexvzah2tcjxvr.py":18:0)
#loc18 = loc("in_out_ptr0"(#loc))
#loc19 = loc("in_ptr0"(#loc))
#loc20 = loc("xnumel"(#loc))
module {
  tt.func public @triton_poi_fused_add_mul_19(%in_out_ptr0: !tt.ptr<bf16> {tt.divisibility = 16 : i32} loc("in_out_ptr0"(#loc)), %in_ptr0: !tt.ptr<bf16> {tt.divisibility = 16 : i32} loc("in_ptr0"(#loc)), %xnumel: i32 {tt.divisibility = 16 : i32} loc("xnumel"(#loc))) attributes {noinline = false} {
    %xoffset = tt.get_program_id x : i32 loc(#loc21)
    %xoffset_0 = arith.constant 512 : i32 loc(#loc22)
    %xoffset_1 = arith.constant 512 : i32 loc(#loc22)
    %xoffset_2 = arith.muli %xoffset, %xoffset_1 : i32 loc(#loc22)
    %xindex = tt.make_range {end = 512 : i32, start = 0 : i32} : tensor<512xi32> loc(#loc23)
    %xindex_3 = tt.splat %xoffset_2 : i32 -> tensor<512xi32> loc(#loc24)
    %xindex_4 = arith.addi %xindex_3, %xindex : tensor<512xi32> loc(#loc24)
    %xmask = arith.constant true loc(#loc25)
    %xmask_5 = arith.constant dense<true> : tensor<512xi1> loc(#loc25)
    %tmp0 = tt.splat %in_out_ptr0 : !tt.ptr<bf16> -> tensor<512x!tt.ptr<bf16>> loc(#loc26)
    %tmp0_6 = tt.addptr %tmp0, %xindex_4 : tensor<512x!tt.ptr<bf16>>, tensor<512xi32> loc(#loc26)
    %tmp0_7 = tt.load %tmp0_6 : tensor<512x!tt.ptr<bf16>> loc(#loc27)
    %tmp0_8 = arith.extf %tmp0_7 : tensor<512xbf16> to tensor<512xf32> loc(#loc28)
    %tmp3 = tt.splat %in_ptr0 : !tt.ptr<bf16> -> tensor<512x!tt.ptr<bf16>> loc(#loc29)
    %tmp3_9 = tt.addptr %tmp3, %xindex_4 : tensor<512x!tt.ptr<bf16>>, tensor<512xi32> loc(#loc29)
    %tmp3_10 = tt.load %tmp3_9 : tensor<512x!tt.ptr<bf16>> loc(#loc30)
    %tmp3_11 = arith.extf %tmp3_10 : tensor<512xbf16> to tensor<512xf32> loc(#loc31)
    %tmp1 = arith.constant -3.142700e+00 : f32 loc(#loc32)
    %tmp2 = arith.constant dense<-3.142700e+00> : tensor<512xf32> loc(#loc33)
    %tmp2_12 = arith.mulf %tmp0_8, %tmp2 : tensor<512xf32> loc(#loc33)
    %tmp4 = arith.addf %tmp2_12, %tmp3_11 : tensor<512xf32> loc(#loc34)
    %0 = tt.splat %in_out_ptr0 : !tt.ptr<bf16> -> tensor<512x!tt.ptr<bf16>> loc(#loc15)
    %1 = tt.addptr %0, %xindex_4 : tensor<512x!tt.ptr<bf16>>, tensor<512xi32> loc(#loc15)
    %2 = arith.truncf %tmp4 : tensor<512xf32> to tensor<512xbf16> loc(#loc16)
    tt.store %1, %2 : tensor<512x!tt.ptr<bf16>> loc(#loc16)
    tt.return loc(#loc17)
  } loc(#loc)
} loc(#loc)
#loc1 = loc("/NHNHOME/WORKSPACE/26msit001_A/jinhyeok/loop_TTT/lact/.cache_inductor_llm/uy/cuyvywdwmfhlt243i7oskrjk5qv565andpavzjfexvzah2tcjxvr.py":19:28)
#loc2 = loc("/NHNHOME/WORKSPACE/26msit001_A/jinhyeok/loop_TTT/lact/.cache_inductor_llm/uy/cuyvywdwmfhlt243i7oskrjk5qv565andpavzjfexvzah2tcjxvr.py":19:33)
#loc3 = loc("/NHNHOME/WORKSPACE/26msit001_A/jinhyeok/loop_TTT/lact/.cache_inductor_llm/uy/cuyvywdwmfhlt243i7oskrjk5qv565andpavzjfexvzah2tcjxvr.py":20:36)
#loc4 = loc("/NHNHOME/WORKSPACE/26msit001_A/jinhyeok/loop_TTT/lact/.cache_inductor_llm/uy/cuyvywdwmfhlt243i7oskrjk5qv565andpavzjfexvzah2tcjxvr.py":20:23)
#loc5 = loc("/NHNHOME/WORKSPACE/26msit001_A/jinhyeok/loop_TTT/lact/.cache_inductor_llm/uy/cuyvywdwmfhlt243i7oskrjk5qv565andpavzjfexvzah2tcjxvr.py":21:36)
#loc6 = loc("/NHNHOME/WORKSPACE/26msit001_A/jinhyeok/loop_TTT/lact/.cache_inductor_llm/uy/cuyvywdwmfhlt243i7oskrjk5qv565andpavzjfexvzah2tcjxvr.py":23:34)
#loc7 = loc("/NHNHOME/WORKSPACE/26msit001_A/jinhyeok/loop_TTT/lact/.cache_inductor_llm/uy/cuyvywdwmfhlt243i7oskrjk5qv565andpavzjfexvzah2tcjxvr.py":23:39)
#loc8 = loc("/NHNHOME/WORKSPACE/26msit001_A/jinhyeok/loop_TTT/lact/.cache_inductor_llm/uy/cuyvywdwmfhlt243i7oskrjk5qv565andpavzjfexvzah2tcjxvr.py":23:48)
#loc9 = loc("/NHNHOME/WORKSPACE/26msit001_A/jinhyeok/loop_TTT/lact/.cache_inductor_llm/uy/cuyvywdwmfhlt243i7oskrjk5qv565andpavzjfexvzah2tcjxvr.py":24:30)
#loc10 = loc("/NHNHOME/WORKSPACE/26msit001_A/jinhyeok/loop_TTT/lact/.cache_inductor_llm/uy/cuyvywdwmfhlt243i7oskrjk5qv565andpavzjfexvzah2tcjxvr.py":24:35)
#loc11 = loc("/NHNHOME/WORKSPACE/26msit001_A/jinhyeok/loop_TTT/lact/.cache_inductor_llm/uy/cuyvywdwmfhlt243i7oskrjk5qv565andpavzjfexvzah2tcjxvr.py":24:44)
#loc12 = loc("/NHNHOME/WORKSPACE/26msit001_A/jinhyeok/loop_TTT/lact/.cache_inductor_llm/uy/cuyvywdwmfhlt243i7oskrjk5qv565andpavzjfexvzah2tcjxvr.py":25:11)
#loc13 = loc("/NHNHOME/WORKSPACE/26msit001_A/jinhyeok/loop_TTT/lact/.cache_inductor_llm/uy/cuyvywdwmfhlt243i7oskrjk5qv565andpavzjfexvzah2tcjxvr.py":26:18)
#loc14 = loc("/NHNHOME/WORKSPACE/26msit001_A/jinhyeok/loop_TTT/lact/.cache_inductor_llm/uy/cuyvywdwmfhlt243i7oskrjk5qv565andpavzjfexvzah2tcjxvr.py":27:18)
#loc15 = loc("/NHNHOME/WORKSPACE/26msit001_A/jinhyeok/loop_TTT/lact/.cache_inductor_llm/uy/cuyvywdwmfhlt243i7oskrjk5qv565andpavzjfexvzah2tcjxvr.py":28:28)
#loc16 = loc("/NHNHOME/WORKSPACE/26msit001_A/jinhyeok/loop_TTT/lact/.cache_inductor_llm/uy/cuyvywdwmfhlt243i7oskrjk5qv565andpavzjfexvzah2tcjxvr.py":28:39)
#loc17 = loc("/NHNHOME/WORKSPACE/26msit001_A/jinhyeok/loop_TTT/lact/.cache_inductor_llm/uy/cuyvywdwmfhlt243i7oskrjk5qv565andpavzjfexvzah2tcjxvr.py":28:4)
#loc21 = loc("xoffset"(#loc1))
#loc22 = loc("xoffset"(#loc2))
#loc23 = loc("xindex"(#loc3))
#loc24 = loc("xindex"(#loc4))
#loc25 = loc("xmask"(#loc5))
#loc26 = loc("tmp0"(#loc6))
#loc27 = loc("tmp0"(#loc7))
#loc28 = loc("tmp0"(#loc8))
#loc29 = loc("tmp3"(#loc9))
#loc30 = loc("tmp3"(#loc10))
#loc31 = loc("tmp3"(#loc11))
#loc32 = loc("tmp1"(#loc12))
#loc33 = loc("tmp2"(#loc13))
#loc34 = loc("tmp4"(#loc14))
