#loc = loc("/NHNHOME/WORKSPACE/26msit001_A/jinhyeok/TTT_camera_embedding/lact_llm/.cache_inductor/tw/ctwzuib7wgtgk6shntswj43zglduq6fh5bx53qqum62ct44jhyo4.py":18:0)
#loc86 = loc("in_ptr0"(#loc))
#loc87 = loc("in_ptr1"(#loc))
#loc88 = loc("in_ptr2"(#loc))
#loc89 = loc("in_ptr3"(#loc))
#loc90 = loc("out_ptr0"(#loc))
#loc91 = loc("xnumel"(#loc))
module {
  tt.func public @triton_poi_fused__to_copy_add_mul_select_silu_slice_stack_sub_unsqueeze_view_56(%in_ptr0: !tt.ptr<bf16> {tt.divisibility = 16 : i32} loc("in_ptr0"(#loc)), %in_ptr1: !tt.ptr<bf16> {tt.divisibility = 16 : i32} loc("in_ptr1"(#loc)), %in_ptr2: !tt.ptr<f32> {tt.divisibility = 16 : i32} loc("in_ptr2"(#loc)), %in_ptr3: !tt.ptr<f32> {tt.divisibility = 16 : i32} loc("in_ptr3"(#loc)), %out_ptr0: !tt.ptr<f32> {tt.divisibility = 16 : i32} loc("out_ptr0"(#loc)), %xnumel: i32 {tt.divisibility = 16 : i32} loc("xnumel"(#loc))) attributes {noinline = false} {
    %cst = arith.constant dense<1.000000e+00> : tensor<512xf32> loc(#loc1)
    %cst_0 = arith.constant dense<0.000000e+00> : tensor<512xbf16> loc(#loc1)
    %cst_1 = arith.constant dense<-1024> : tensor<512xi32> loc(#loc1)
    %cst_2 = arith.constant dense<1024> : tensor<512xi32> loc(#loc1)
    %cst_3 = arith.constant dense<3072> : tensor<512xi32> loc(#loc1)
    %cst_4 = arith.constant dense<4096> : tensor<512xi32> loc(#loc1)
    %cst_5 = arith.constant dense<0.000000e+00> : tensor<512xf32> loc(#loc1)
    %cst_6 = arith.constant dense<196608> : tensor<512xi32> loc(#loc1)
    %cst_7 = arith.constant dense<1024> : tensor<512xi64> loc(#loc1)
    %x2 = arith.constant dense<98304> : tensor<512xi32> loc(#loc92)
    %x1 = arith.constant dense<48> : tensor<512xi32> loc(#loc93)
    %cst_8 = arith.constant dense<2048> : tensor<512xi32> loc(#loc1)
    %c512_i32 = arith.constant 512 : i32 loc(#loc1)
    %xoffset = tt.get_program_id x : i32 loc(#loc94)
    %xoffset_9 = arith.muli %xoffset, %c512_i32 : i32 loc(#loc95)
    %xindex = tt.make_range {end = 512 : i32, start = 0 : i32} : tensor<512xi32> loc(#loc96)
    %xindex_10 = tt.splat %xoffset_9 : i32 -> tensor<512xi32> loc(#loc97)
    %xindex_11 = arith.addi %xindex_10, %xindex : tensor<512xi32> loc(#loc97)
    %x0 = arith.remsi %xindex_11, %cst_8 : tensor<512xi32> loc(#loc98)
    %x1_12 = arith.divsi %xindex_11, %cst_8 : tensor<512xi32> loc(#loc99)
    %x1_13 = arith.remsi %x1_12, %x1 : tensor<512xi32> loc(#loc93)
    %x2_14 = arith.divsi %xindex_11, %x2 : tensor<512xi32> loc(#loc92)
    %tmp4 = arith.extsi %x0 : tensor<512xi32> to tensor<512xi64> loc(#loc100)
    %tmp4_15 = arith.cmpi slt, %tmp4, %cst_7 : tensor<512xi64> loc(#loc100)
    %tmp5 = arith.muli %x1_13, %cst_8 : tensor<512xi32> loc(#loc101)
    %tmp5_16 = arith.muli %x2_14, %cst_6 : tensor<512xi32> loc(#loc102)
    %tmp5_17 = arith.addi %tmp5, %tmp5_16 : tensor<512xi32> loc(#loc103)
    %tmp5_18 = arith.addi %tmp5_17, %x0 : tensor<512xi32> loc(#loc104)
    %tmp5_19 = tt.splat %in_ptr0 : !tt.ptr<bf16> -> tensor<512x!tt.ptr<bf16>> loc(#loc105)
    %tmp5_20 = tt.addptr %tmp5_19, %tmp5_18 : tensor<512x!tt.ptr<bf16>>, tensor<512xi32> loc(#loc105)
    %tmp5_21 = tt.load %tmp5_20, %tmp4_15, %cst_0 evictionPolicy = evict_last : tensor<512x!tt.ptr<bf16>> loc(#loc106)
    %tmp5_22 = arith.extf %tmp5_21 : tensor<512xbf16> to tensor<512xf32> loc(#loc107)
    %tmp7 = arith.subf %cst_5, %tmp5_22 : tensor<512xf32> loc(#loc169)
    %tmp7_23 = math.exp %tmp7 : tensor<512xf32> loc(#loc170)
    %tmp7_24 = arith.addf %tmp7_23, %cst : tensor<512xf32> loc(#loc171)
    %tmp7_25 = arith.divf %cst, %tmp7_24 : tensor<512xf32> loc(#loc172)
    %tmp8 = arith.mulf %tmp5_22, %tmp7_25 : tensor<512xf32> loc(#loc109)
    %tmp10 = tt.splat %in_ptr1 : !tt.ptr<bf16> -> tensor<512x!tt.ptr<bf16>> loc(#loc110)
    %tmp10_26 = tt.addptr %tmp10, %tmp5_18 : tensor<512x!tt.ptr<bf16>>, tensor<512xi32> loc(#loc110)
    %tmp10_27 = tt.load %tmp10_26, %tmp4_15, %cst_0 evictionPolicy = evict_last : tensor<512x!tt.ptr<bf16>> loc(#loc111)
    %tmp10_28 = arith.extf %tmp10_27 : tensor<512xbf16> to tensor<512xf32> loc(#loc112)
    %tmp11 = arith.mulf %tmp8, %tmp10_28 : tensor<512xf32> loc(#loc113)
    %tmp13 = arith.muli %x1_13, %cst_4 : tensor<512xi32> loc(#loc114)
    %tmp13_29 = arith.addi %tmp13, %cst_3 : tensor<512xi32> loc(#loc115)
    %tmp13_30 = arith.addi %tmp13_29, %x0 : tensor<512xi32> loc(#loc116)
    %tmp13_31 = tt.splat %in_ptr2 : !tt.ptr<f32> -> tensor<512x!tt.ptr<f32>> loc(#loc117)
    %tmp13_32 = tt.addptr %tmp13_31, %tmp13_30 : tensor<512x!tt.ptr<f32>>, tensor<512xi32> loc(#loc117)
    %tmp13_33 = tt.load %tmp13_32, %tmp4_15, %cst_5 evictionPolicy = evict_last : tensor<512x!tt.ptr<f32>> loc(#loc118)
    %tmp14 = arith.mulf %tmp11, %tmp13_33 : tensor<512xf32> loc(#loc119)
    %tmp15 = arith.addi %tmp5, %cst_2 : tensor<512xi32> loc(#loc120)
    %tmp15_34 = arith.addi %tmp15, %tmp5_16 : tensor<512xi32> loc(#loc121)
    %tmp15_35 = arith.addi %tmp15_34, %x0 : tensor<512xi32> loc(#loc122)
    %tmp15_36 = tt.addptr %tmp5_19, %tmp15_35 : tensor<512x!tt.ptr<bf16>>, tensor<512xi32> loc(#loc123)
    %tmp15_37 = tt.load %tmp15_36, %tmp4_15, %cst_0 evictionPolicy = evict_last : tensor<512x!tt.ptr<bf16>> loc(#loc124)
    %tmp15_38 = arith.extf %tmp15_37 : tensor<512xbf16> to tensor<512xf32> loc(#loc125)
    %tmp17 = arith.subf %cst_5, %tmp15_38 : tensor<512xf32> loc(#loc173)
    %tmp17_39 = math.exp %tmp17 : tensor<512xf32> loc(#loc174)
    %tmp17_40 = arith.addf %tmp17_39, %cst : tensor<512xf32> loc(#loc175)
    %tmp17_41 = arith.divf %cst, %tmp17_40 : tensor<512xf32> loc(#loc176)
    %tmp18 = arith.mulf %tmp15_38, %tmp17_41 : tensor<512xf32> loc(#loc127)
    %tmp20 = tt.addptr %tmp10, %tmp15_35 : tensor<512x!tt.ptr<bf16>>, tensor<512xi32> loc(#loc128)
    %tmp20_42 = tt.load %tmp20, %tmp4_15, %cst_0 evictionPolicy = evict_last : tensor<512x!tt.ptr<bf16>> loc(#loc129)
    %tmp20_43 = arith.extf %tmp20_42 : tensor<512xbf16> to tensor<512xf32> loc(#loc130)
    %tmp21 = arith.mulf %tmp18, %tmp20_43 : tensor<512xf32> loc(#loc131)
    %tmp23 = tt.splat %in_ptr3 : !tt.ptr<f32> -> tensor<512x!tt.ptr<f32>> loc(#loc132)
    %tmp23_44 = tt.addptr %tmp23, %tmp13_30 : tensor<512x!tt.ptr<f32>>, tensor<512xi32> loc(#loc132)
    %tmp23_45 = tt.load %tmp23_44, %tmp4_15, %cst_5 evictionPolicy = evict_last : tensor<512x!tt.ptr<f32>> loc(#loc133)
    %tmp24 = arith.mulf %tmp21, %tmp23_45 : tensor<512xf32> loc(#loc134)
    %tmp25 = arith.subf %tmp14, %tmp24 : tensor<512xf32> loc(#loc135)
    %tmp28 = arith.cmpi sge, %tmp4, %cst_7 : tensor<512xi64> loc(#loc136)
    %tmp31 = arith.addi %x0, %cst_1 : tensor<512xi32> loc(#loc137)
    %tmp31_46 = arith.addi %tmp5_17, %tmp31 : tensor<512xi32> loc(#loc138)
    %tmp31_47 = tt.addptr %tmp5_19, %tmp31_46 : tensor<512x!tt.ptr<bf16>>, tensor<512xi32> loc(#loc139)
    %tmp31_48 = tt.load %tmp31_47, %tmp28, %cst_0 evictionPolicy = evict_last : tensor<512x!tt.ptr<bf16>> loc(#loc140)
    %tmp31_49 = arith.extf %tmp31_48 : tensor<512xbf16> to tensor<512xf32> loc(#loc141)
    %tmp33 = arith.subf %cst_5, %tmp31_49 : tensor<512xf32> loc(#loc177)
    %tmp33_50 = math.exp %tmp33 : tensor<512xf32> loc(#loc178)
    %tmp33_51 = arith.addf %tmp33_50, %cst : tensor<512xf32> loc(#loc179)
    %tmp33_52 = arith.divf %cst, %tmp33_51 : tensor<512xf32> loc(#loc180)
    %tmp34 = arith.mulf %tmp31_49, %tmp33_52 : tensor<512xf32> loc(#loc143)
    %tmp36 = tt.addptr %tmp10, %tmp31_46 : tensor<512x!tt.ptr<bf16>>, tensor<512xi32> loc(#loc144)
    %tmp36_53 = tt.load %tmp36, %tmp28, %cst_0 evictionPolicy = evict_last : tensor<512x!tt.ptr<bf16>> loc(#loc145)
    %tmp36_54 = arith.extf %tmp36_53 : tensor<512xbf16> to tensor<512xf32> loc(#loc146)
    %tmp37 = arith.mulf %tmp34, %tmp36_54 : tensor<512xf32> loc(#loc147)
    %tmp39 = arith.addi %tmp13_29, %tmp31 : tensor<512xi32> loc(#loc148)
    %tmp39_55 = tt.addptr %tmp23, %tmp39 : tensor<512x!tt.ptr<f32>>, tensor<512xi32> loc(#loc149)
    %tmp39_56 = tt.load %tmp39_55, %tmp28, %cst_5 evictionPolicy = evict_last : tensor<512x!tt.ptr<f32>> loc(#loc150)
    %tmp40 = arith.mulf %tmp37, %tmp39_56 : tensor<512xf32> loc(#loc151)
    %tmp41 = arith.addi %tmp15_34, %tmp31 : tensor<512xi32> loc(#loc152)
    %tmp41_57 = tt.addptr %tmp5_19, %tmp41 : tensor<512x!tt.ptr<bf16>>, tensor<512xi32> loc(#loc153)
    %tmp41_58 = tt.load %tmp41_57, %tmp28, %cst_0 evictionPolicy = evict_last : tensor<512x!tt.ptr<bf16>> loc(#loc154)
    %tmp41_59 = arith.extf %tmp41_58 : tensor<512xbf16> to tensor<512xf32> loc(#loc155)
    %tmp43 = arith.subf %cst_5, %tmp41_59 : tensor<512xf32> loc(#loc181)
    %tmp43_60 = math.exp %tmp43 : tensor<512xf32> loc(#loc182)
    %tmp43_61 = arith.addf %tmp43_60, %cst : tensor<512xf32> loc(#loc183)
    %tmp43_62 = arith.divf %cst, %tmp43_61 : tensor<512xf32> loc(#loc184)
    %tmp44 = arith.mulf %tmp41_59, %tmp43_62 : tensor<512xf32> loc(#loc157)
    %tmp46 = tt.addptr %tmp10, %tmp41 : tensor<512x!tt.ptr<bf16>>, tensor<512xi32> loc(#loc158)
    %tmp46_63 = tt.load %tmp46, %tmp28, %cst_0 evictionPolicy = evict_last : tensor<512x!tt.ptr<bf16>> loc(#loc159)
    %tmp46_64 = arith.extf %tmp46_63 : tensor<512xbf16> to tensor<512xf32> loc(#loc160)
    %tmp47 = arith.mulf %tmp44, %tmp46_64 : tensor<512xf32> loc(#loc161)
    %tmp49 = tt.addptr %tmp13_31, %tmp39 : tensor<512x!tt.ptr<f32>>, tensor<512xi32> loc(#loc162)
    %tmp49_65 = tt.load %tmp49, %tmp28, %cst_5 evictionPolicy = evict_last : tensor<512x!tt.ptr<f32>> loc(#loc163)
    %tmp50 = arith.mulf %tmp47, %tmp49_65 : tensor<512xf32> loc(#loc164)
    %tmp51 = arith.addf %tmp40, %tmp50 : tensor<512xf32> loc(#loc165)
    %tmp53 = arith.select %tmp28, %tmp51, %cst_5 : tensor<512xi1>, tensor<512xf32> loc(#loc166)
    %tmp54 = arith.select %tmp4_15, %tmp25, %tmp53 : tensor<512xi1>, tensor<512xf32> loc(#loc185)
    %0 = tt.splat %out_ptr0 : !tt.ptr<f32> -> tensor<512x!tt.ptr<f32>> loc(#loc83)
    %1 = tt.addptr %0, %xindex_11 : tensor<512x!tt.ptr<f32>>, tensor<512xi32> loc(#loc83)
    tt.store %1, %tmp54 : tensor<512x!tt.ptr<f32>> loc(#loc84)
    tt.return loc(#loc85)
  } loc(#loc)
} loc(#loc)
#loc1 = loc(unknown)
#loc2 = loc("/NHNHOME/WORKSPACE/26msit001_A/jinhyeok/TTT_camera_embedding/lact_llm/.cache_inductor/tw/ctwzuib7wgtgk6shntswj43zglduq6fh5bx53qqum62ct44jhyo4.py":25:19)
#loc3 = loc("/NHNHOME/WORKSPACE/26msit001_A/jinhyeok/TTT_camera_embedding/lact_llm/.cache_inductor/tw/ctwzuib7wgtgk6shntswj43zglduq6fh5bx53qqum62ct44jhyo4.py":24:29)
#loc4 = loc("/NHNHOME/WORKSPACE/26msit001_A/jinhyeok/TTT_camera_embedding/lact_llm/.cache_inductor/tw/ctwzuib7wgtgk6shntswj43zglduq6fh5bx53qqum62ct44jhyo4.py":20:28)
#loc5 = loc("/NHNHOME/WORKSPACE/26msit001_A/jinhyeok/TTT_camera_embedding/lact_llm/.cache_inductor/tw/ctwzuib7wgtgk6shntswj43zglduq6fh5bx53qqum62ct44jhyo4.py":20:33)
#loc6 = loc("/NHNHOME/WORKSPACE/26msit001_A/jinhyeok/TTT_camera_embedding/lact_llm/.cache_inductor/tw/ctwzuib7wgtgk6shntswj43zglduq6fh5bx53qqum62ct44jhyo4.py":21:36)
#loc7 = loc("/NHNHOME/WORKSPACE/26msit001_A/jinhyeok/TTT_camera_embedding/lact_llm/.cache_inductor/tw/ctwzuib7wgtgk6shntswj43zglduq6fh5bx53qqum62ct44jhyo4.py":21:23)
#loc8 = loc("/NHNHOME/WORKSPACE/26msit001_A/jinhyeok/TTT_camera_embedding/lact_llm/.cache_inductor/tw/ctwzuib7wgtgk6shntswj43zglduq6fh5bx53qqum62ct44jhyo4.py":23:19)
#loc9 = loc("/NHNHOME/WORKSPACE/26msit001_A/jinhyeok/TTT_camera_embedding/lact_llm/.cache_inductor/tw/ctwzuib7wgtgk6shntswj43zglduq6fh5bx53qqum62ct44jhyo4.py":24:21)
#loc10 = loc("/NHNHOME/WORKSPACE/26msit001_A/jinhyeok/TTT_camera_embedding/lact_llm/.cache_inductor/tw/ctwzuib7wgtgk6shntswj43zglduq6fh5bx53qqum62ct44jhyo4.py":31:18)
#loc11 = loc("/NHNHOME/WORKSPACE/26msit001_A/jinhyeok/TTT_camera_embedding/lact_llm/.cache_inductor/tw/ctwzuib7wgtgk6shntswj43zglduq6fh5bx53qqum62ct44jhyo4.py":32:35)
#loc12 = loc("/NHNHOME/WORKSPACE/26msit001_A/jinhyeok/TTT_camera_embedding/lact_llm/.cache_inductor/tw/ctwzuib7wgtgk6shntswj43zglduq6fh5bx53qqum62ct44jhyo4.py":32:47)
#loc13 = loc("/NHNHOME/WORKSPACE/26msit001_A/jinhyeok/TTT_camera_embedding/lact_llm/.cache_inductor/tw/ctwzuib7wgtgk6shntswj43zglduq6fh5bx53qqum62ct44jhyo4.py":32:40)
#loc14 = loc("/NHNHOME/WORKSPACE/26msit001_A/jinhyeok/TTT_camera_embedding/lact_llm/.cache_inductor/tw/ctwzuib7wgtgk6shntswj43zglduq6fh5bx53qqum62ct44jhyo4.py":32:53)
#loc15 = loc("/NHNHOME/WORKSPACE/26msit001_A/jinhyeok/TTT_camera_embedding/lact_llm/.cache_inductor/tw/ctwzuib7wgtgk6shntswj43zglduq6fh5bx53qqum62ct44jhyo4.py":32:30)
#loc16 = loc("/NHNHOME/WORKSPACE/26msit001_A/jinhyeok/TTT_camera_embedding/lact_llm/.cache_inductor/tw/ctwzuib7wgtgk6shntswj43zglduq6fh5bx53qqum62ct44jhyo4.py":32:59)
#loc17 = loc("/NHNHOME/WORKSPACE/26msit001_A/jinhyeok/TTT_camera_embedding/lact_llm/.cache_inductor/tw/ctwzuib7wgtgk6shntswj43zglduq6fh5bx53qqum62ct44jhyo4.py":32:109)
#loc18 = loc("/NHNHOME/WORKSPACE/26msit001_A/jinhyeok/TTT_camera_embedding/.venv_llm/lib/python3.12/site-packages/triton/language/standard.py":48:30)
#loc19 = loc("/NHNHOME/WORKSPACE/26msit001_A/jinhyeok/TTT_camera_embedding/lact_llm/.cache_inductor/tw/ctwzuib7wgtgk6shntswj43zglduq6fh5bx53qqum62ct44jhyo4.py":34:22)
#loc20 = loc("/NHNHOME/WORKSPACE/26msit001_A/jinhyeok/TTT_camera_embedding/.venv_llm/lib/python3.12/site-packages/triton/language/standard.py":48:29)
#loc21 = loc("/NHNHOME/WORKSPACE/26msit001_A/jinhyeok/TTT_camera_embedding/.venv_llm/lib/python3.12/site-packages/triton/language/standard.py":48:20)
#loc22 = loc("/NHNHOME/WORKSPACE/26msit001_A/jinhyeok/TTT_camera_embedding/.venv_llm/lib/python3.12/site-packages/triton/language/standard.py":48:16)
#loc23 = loc("/NHNHOME/WORKSPACE/26msit001_A/jinhyeok/TTT_camera_embedding/lact_llm/.cache_inductor/tw/ctwzuib7wgtgk6shntswj43zglduq6fh5bx53qqum62ct44jhyo4.py":35:18)
#loc24 = loc("/NHNHOME/WORKSPACE/26msit001_A/jinhyeok/TTT_camera_embedding/lact_llm/.cache_inductor/tw/ctwzuib7wgtgk6shntswj43zglduq6fh5bx53qqum62ct44jhyo4.py":37:31)
#loc25 = loc("/NHNHOME/WORKSPACE/26msit001_A/jinhyeok/TTT_camera_embedding/lact_llm/.cache_inductor/tw/ctwzuib7wgtgk6shntswj43zglduq6fh5bx53qqum62ct44jhyo4.py":37:60)
#loc26 = loc("/NHNHOME/WORKSPACE/26msit001_A/jinhyeok/TTT_camera_embedding/lact_llm/.cache_inductor/tw/ctwzuib7wgtgk6shntswj43zglduq6fh5bx53qqum62ct44jhyo4.py":37:110)
#loc27 = loc("/NHNHOME/WORKSPACE/26msit001_A/jinhyeok/TTT_camera_embedding/lact_llm/.cache_inductor/tw/ctwzuib7wgtgk6shntswj43zglduq6fh5bx53qqum62ct44jhyo4.py":38:19)
#loc28 = loc("/NHNHOME/WORKSPACE/26msit001_A/jinhyeok/TTT_camera_embedding/lact_llm/.cache_inductor/tw/ctwzuib7wgtgk6shntswj43zglduq6fh5bx53qqum62ct44jhyo4.py":40:43)
#loc29 = loc("/NHNHOME/WORKSPACE/26msit001_A/jinhyeok/TTT_camera_embedding/lact_llm/.cache_inductor/tw/ctwzuib7wgtgk6shntswj43zglduq6fh5bx53qqum62ct44jhyo4.py":40:38)
#loc30 = loc("/NHNHOME/WORKSPACE/26msit001_A/jinhyeok/TTT_camera_embedding/lact_llm/.cache_inductor/tw/ctwzuib7wgtgk6shntswj43zglduq6fh5bx53qqum62ct44jhyo4.py":40:49)
#loc31 = loc("/NHNHOME/WORKSPACE/26msit001_A/jinhyeok/TTT_camera_embedding/lact_llm/.cache_inductor/tw/ctwzuib7wgtgk6shntswj43zglduq6fh5bx53qqum62ct44jhyo4.py":40:31)
#loc32 = loc("/NHNHOME/WORKSPACE/26msit001_A/jinhyeok/TTT_camera_embedding/lact_llm/.cache_inductor/tw/ctwzuib7wgtgk6shntswj43zglduq6fh5bx53qqum62ct44jhyo4.py":40:55)
#loc33 = loc("/NHNHOME/WORKSPACE/26msit001_A/jinhyeok/TTT_camera_embedding/lact_llm/.cache_inductor/tw/ctwzuib7wgtgk6shntswj43zglduq6fh5bx53qqum62ct44jhyo4.py":41:20)
#loc34 = loc("/NHNHOME/WORKSPACE/26msit001_A/jinhyeok/TTT_camera_embedding/lact_llm/.cache_inductor/tw/ctwzuib7wgtgk6shntswj43zglduq6fh5bx53qqum62ct44jhyo4.py":42:38)
#loc35 = loc("/NHNHOME/WORKSPACE/26msit001_A/jinhyeok/TTT_camera_embedding/lact_llm/.cache_inductor/tw/ctwzuib7wgtgk6shntswj43zglduq6fh5bx53qqum62ct44jhyo4.py":42:48)
#loc36 = loc("/NHNHOME/WORKSPACE/26msit001_A/jinhyeok/TTT_camera_embedding/lact_llm/.cache_inductor/tw/ctwzuib7wgtgk6shntswj43zglduq6fh5bx53qqum62ct44jhyo4.py":42:61)
#loc37 = loc("/NHNHOME/WORKSPACE/26msit001_A/jinhyeok/TTT_camera_embedding/lact_llm/.cache_inductor/tw/ctwzuib7wgtgk6shntswj43zglduq6fh5bx53qqum62ct44jhyo4.py":42:31)
#loc38 = loc("/NHNHOME/WORKSPACE/26msit001_A/jinhyeok/TTT_camera_embedding/lact_llm/.cache_inductor/tw/ctwzuib7wgtgk6shntswj43zglduq6fh5bx53qqum62ct44jhyo4.py":42:67)
#loc39 = loc("/NHNHOME/WORKSPACE/26msit001_A/jinhyeok/TTT_camera_embedding/lact_llm/.cache_inductor/tw/ctwzuib7wgtgk6shntswj43zglduq6fh5bx53qqum62ct44jhyo4.py":42:117)
#loc40 = loc("/NHNHOME/WORKSPACE/26msit001_A/jinhyeok/TTT_camera_embedding/lact_llm/.cache_inductor/tw/ctwzuib7wgtgk6shntswj43zglduq6fh5bx53qqum62ct44jhyo4.py":44:23)
#loc41 = loc("/NHNHOME/WORKSPACE/26msit001_A/jinhyeok/TTT_camera_embedding/lact_llm/.cache_inductor/tw/ctwzuib7wgtgk6shntswj43zglduq6fh5bx53qqum62ct44jhyo4.py":45:20)
#loc42 = loc("/NHNHOME/WORKSPACE/26msit001_A/jinhyeok/TTT_camera_embedding/lact_llm/.cache_inductor/tw/ctwzuib7wgtgk6shntswj43zglduq6fh5bx53qqum62ct44jhyo4.py":47:31)
#loc43 = loc("/NHNHOME/WORKSPACE/26msit001_A/jinhyeok/TTT_camera_embedding/lact_llm/.cache_inductor/tw/ctwzuib7wgtgk6shntswj43zglduq6fh5bx53qqum62ct44jhyo4.py":47:67)
#loc44 = loc("/NHNHOME/WORKSPACE/26msit001_A/jinhyeok/TTT_camera_embedding/lact_llm/.cache_inductor/tw/ctwzuib7wgtgk6shntswj43zglduq6fh5bx53qqum62ct44jhyo4.py":47:117)
#loc45 = loc("/NHNHOME/WORKSPACE/26msit001_A/jinhyeok/TTT_camera_embedding/lact_llm/.cache_inductor/tw/ctwzuib7wgtgk6shntswj43zglduq6fh5bx53qqum62ct44jhyo4.py":48:20)
#loc46 = loc("/NHNHOME/WORKSPACE/26msit001_A/jinhyeok/TTT_camera_embedding/lact_llm/.cache_inductor/tw/ctwzuib7wgtgk6shntswj43zglduq6fh5bx53qqum62ct44jhyo4.py":50:31)
#loc47 = loc("/NHNHOME/WORKSPACE/26msit001_A/jinhyeok/TTT_camera_embedding/lact_llm/.cache_inductor/tw/ctwzuib7wgtgk6shntswj43zglduq6fh5bx53qqum62ct44jhyo4.py":50:55)
#loc48 = loc("/NHNHOME/WORKSPACE/26msit001_A/jinhyeok/TTT_camera_embedding/lact_llm/.cache_inductor/tw/ctwzuib7wgtgk6shntswj43zglduq6fh5bx53qqum62ct44jhyo4.py":51:20)
#loc49 = loc("/NHNHOME/WORKSPACE/26msit001_A/jinhyeok/TTT_camera_embedding/lact_llm/.cache_inductor/tw/ctwzuib7wgtgk6shntswj43zglduq6fh5bx53qqum62ct44jhyo4.py":52:20)
#loc50 = loc("/NHNHOME/WORKSPACE/26msit001_A/jinhyeok/TTT_camera_embedding/lact_llm/.cache_inductor/tw/ctwzuib7wgtgk6shntswj43zglduq6fh5bx53qqum62ct44jhyo4.py":55:20)
#loc51 = loc("/NHNHOME/WORKSPACE/26msit001_A/jinhyeok/TTT_camera_embedding/lact_llm/.cache_inductor/tw/ctwzuib7wgtgk6shntswj43zglduq6fh5bx53qqum62ct44jhyo4.py":58:64)
#loc52 = loc("/NHNHOME/WORKSPACE/26msit001_A/jinhyeok/TTT_camera_embedding/lact_llm/.cache_inductor/tw/ctwzuib7wgtgk6shntswj43zglduq6fh5bx53qqum62ct44jhyo4.py":58:54)
#loc53 = loc("/NHNHOME/WORKSPACE/26msit001_A/jinhyeok/TTT_camera_embedding/lact_llm/.cache_inductor/tw/ctwzuib7wgtgk6shntswj43zglduq6fh5bx53qqum62ct44jhyo4.py":58:31)
#loc54 = loc("/NHNHOME/WORKSPACE/26msit001_A/jinhyeok/TTT_camera_embedding/lact_llm/.cache_inductor/tw/ctwzuib7wgtgk6shntswj43zglduq6fh5bx53qqum62ct44jhyo4.py":58:70)
#loc55 = loc("/NHNHOME/WORKSPACE/26msit001_A/jinhyeok/TTT_camera_embedding/lact_llm/.cache_inductor/tw/ctwzuib7wgtgk6shntswj43zglduq6fh5bx53qqum62ct44jhyo4.py":58:121)
#loc56 = loc("/NHNHOME/WORKSPACE/26msit001_A/jinhyeok/TTT_camera_embedding/lact_llm/.cache_inductor/tw/ctwzuib7wgtgk6shntswj43zglduq6fh5bx53qqum62ct44jhyo4.py":60:23)
#loc57 = loc("/NHNHOME/WORKSPACE/26msit001_A/jinhyeok/TTT_camera_embedding/lact_llm/.cache_inductor/tw/ctwzuib7wgtgk6shntswj43zglduq6fh5bx53qqum62ct44jhyo4.py":61:20)
#loc58 = loc("/NHNHOME/WORKSPACE/26msit001_A/jinhyeok/TTT_camera_embedding/lact_llm/.cache_inductor/tw/ctwzuib7wgtgk6shntswj43zglduq6fh5bx53qqum62ct44jhyo4.py":63:31)
#loc59 = loc("/NHNHOME/WORKSPACE/26msit001_A/jinhyeok/TTT_camera_embedding/lact_llm/.cache_inductor/tw/ctwzuib7wgtgk6shntswj43zglduq6fh5bx53qqum62ct44jhyo4.py":63:70)
#loc60 = loc("/NHNHOME/WORKSPACE/26msit001_A/jinhyeok/TTT_camera_embedding/lact_llm/.cache_inductor/tw/ctwzuib7wgtgk6shntswj43zglduq6fh5bx53qqum62ct44jhyo4.py":63:121)
#loc61 = loc("/NHNHOME/WORKSPACE/26msit001_A/jinhyeok/TTT_camera_embedding/lact_llm/.cache_inductor/tw/ctwzuib7wgtgk6shntswj43zglduq6fh5bx53qqum62ct44jhyo4.py":64:20)
#loc62 = loc("/NHNHOME/WORKSPACE/26msit001_A/jinhyeok/TTT_camera_embedding/lact_llm/.cache_inductor/tw/ctwzuib7wgtgk6shntswj43zglduq6fh5bx53qqum62ct44jhyo4.py":66:49)
#loc63 = loc("/NHNHOME/WORKSPACE/26msit001_A/jinhyeok/TTT_camera_embedding/lact_llm/.cache_inductor/tw/ctwzuib7wgtgk6shntswj43zglduq6fh5bx53qqum62ct44jhyo4.py":66:31)
#loc64 = loc("/NHNHOME/WORKSPACE/26msit001_A/jinhyeok/TTT_camera_embedding/lact_llm/.cache_inductor/tw/ctwzuib7wgtgk6shntswj43zglduq6fh5bx53qqum62ct44jhyo4.py":66:65)
#loc65 = loc("/NHNHOME/WORKSPACE/26msit001_A/jinhyeok/TTT_camera_embedding/lact_llm/.cache_inductor/tw/ctwzuib7wgtgk6shntswj43zglduq6fh5bx53qqum62ct44jhyo4.py":67:20)
#loc66 = loc("/NHNHOME/WORKSPACE/26msit001_A/jinhyeok/TTT_camera_embedding/lact_llm/.cache_inductor/tw/ctwzuib7wgtgk6shntswj43zglduq6fh5bx53qqum62ct44jhyo4.py":68:61)
#loc67 = loc("/NHNHOME/WORKSPACE/26msit001_A/jinhyeok/TTT_camera_embedding/lact_llm/.cache_inductor/tw/ctwzuib7wgtgk6shntswj43zglduq6fh5bx53qqum62ct44jhyo4.py":68:31)
#loc68 = loc("/NHNHOME/WORKSPACE/26msit001_A/jinhyeok/TTT_camera_embedding/lact_llm/.cache_inductor/tw/ctwzuib7wgtgk6shntswj43zglduq6fh5bx53qqum62ct44jhyo4.py":68:77)
#loc69 = loc("/NHNHOME/WORKSPACE/26msit001_A/jinhyeok/TTT_camera_embedding/lact_llm/.cache_inductor/tw/ctwzuib7wgtgk6shntswj43zglduq6fh5bx53qqum62ct44jhyo4.py":68:128)
#loc70 = loc("/NHNHOME/WORKSPACE/26msit001_A/jinhyeok/TTT_camera_embedding/lact_llm/.cache_inductor/tw/ctwzuib7wgtgk6shntswj43zglduq6fh5bx53qqum62ct44jhyo4.py":70:23)
#loc71 = loc("/NHNHOME/WORKSPACE/26msit001_A/jinhyeok/TTT_camera_embedding/lact_llm/.cache_inductor/tw/ctwzuib7wgtgk6shntswj43zglduq6fh5bx53qqum62ct44jhyo4.py":71:20)
#loc72 = loc("/NHNHOME/WORKSPACE/26msit001_A/jinhyeok/TTT_camera_embedding/lact_llm/.cache_inductor/tw/ctwzuib7wgtgk6shntswj43zglduq6fh5bx53qqum62ct44jhyo4.py":73:31)
#loc73 = loc("/NHNHOME/WORKSPACE/26msit001_A/jinhyeok/TTT_camera_embedding/lact_llm/.cache_inductor/tw/ctwzuib7wgtgk6shntswj43zglduq6fh5bx53qqum62ct44jhyo4.py":73:77)
#loc74 = loc("/NHNHOME/WORKSPACE/26msit001_A/jinhyeok/TTT_camera_embedding/lact_llm/.cache_inductor/tw/ctwzuib7wgtgk6shntswj43zglduq6fh5bx53qqum62ct44jhyo4.py":73:128)
#loc75 = loc("/NHNHOME/WORKSPACE/26msit001_A/jinhyeok/TTT_camera_embedding/lact_llm/.cache_inductor/tw/ctwzuib7wgtgk6shntswj43zglduq6fh5bx53qqum62ct44jhyo4.py":74:20)
#loc76 = loc("/NHNHOME/WORKSPACE/26msit001_A/jinhyeok/TTT_camera_embedding/lact_llm/.cache_inductor/tw/ctwzuib7wgtgk6shntswj43zglduq6fh5bx53qqum62ct44jhyo4.py":76:31)
#loc77 = loc("/NHNHOME/WORKSPACE/26msit001_A/jinhyeok/TTT_camera_embedding/lact_llm/.cache_inductor/tw/ctwzuib7wgtgk6shntswj43zglduq6fh5bx53qqum62ct44jhyo4.py":76:65)
#loc78 = loc("/NHNHOME/WORKSPACE/26msit001_A/jinhyeok/TTT_camera_embedding/lact_llm/.cache_inductor/tw/ctwzuib7wgtgk6shntswj43zglduq6fh5bx53qqum62ct44jhyo4.py":77:20)
#loc79 = loc("/NHNHOME/WORKSPACE/26msit001_A/jinhyeok/TTT_camera_embedding/lact_llm/.cache_inductor/tw/ctwzuib7wgtgk6shntswj43zglduq6fh5bx53qqum62ct44jhyo4.py":78:20)
#loc80 = loc("/NHNHOME/WORKSPACE/26msit001_A/jinhyeok/TTT_camera_embedding/lact_llm/.cache_inductor/tw/ctwzuib7wgtgk6shntswj43zglduq6fh5bx53qqum62ct44jhyo4.py":80:35)
#loc81 = loc("/NHNHOME/WORKSPACE/26msit001_A/jinhyeok/TTT_camera_embedding/lact_llm/.cache_inductor/tw/ctwzuib7wgtgk6shntswj43zglduq6fh5bx53qqum62ct44jhyo4.py":81:34)
#loc82 = loc("/NHNHOME/WORKSPACE/26msit001_A/jinhyeok/TTT_camera_embedding/lact_llm/.cache_inductor/tw/ctwzuib7wgtgk6shntswj43zglduq6fh5bx53qqum62ct44jhyo4.py":54:34)
#loc83 = loc("/NHNHOME/WORKSPACE/26msit001_A/jinhyeok/TTT_camera_embedding/lact_llm/.cache_inductor/tw/ctwzuib7wgtgk6shntswj43zglduq6fh5bx53qqum62ct44jhyo4.py":82:25)
#loc84 = loc("/NHNHOME/WORKSPACE/26msit001_A/jinhyeok/TTT_camera_embedding/lact_llm/.cache_inductor/tw/ctwzuib7wgtgk6shntswj43zglduq6fh5bx53qqum62ct44jhyo4.py":82:37)
#loc85 = loc("/NHNHOME/WORKSPACE/26msit001_A/jinhyeok/TTT_camera_embedding/lact_llm/.cache_inductor/tw/ctwzuib7wgtgk6shntswj43zglduq6fh5bx53qqum62ct44jhyo4.py":82:4)
#loc92 = loc("x2"(#loc2))
#loc93 = loc("x1"(#loc3))
#loc94 = loc("xoffset"(#loc4))
#loc95 = loc("xoffset"(#loc5))
#loc96 = loc("xindex"(#loc6))
#loc97 = loc("xindex"(#loc7))
#loc98 = loc("x0"(#loc8))
#loc99 = loc("x1"(#loc9))
#loc100 = loc("tmp4"(#loc10))
#loc101 = loc("tmp5"(#loc11))
#loc102 = loc("tmp5"(#loc12))
#loc103 = loc("tmp5"(#loc13))
#loc104 = loc("tmp5"(#loc14))
#loc105 = loc("tmp5"(#loc15))
#loc106 = loc("tmp5"(#loc16))
#loc107 = loc("tmp5"(#loc17))
#loc108 = loc("tmp7"(#loc19))
#loc109 = loc("tmp8"(#loc23))
#loc110 = loc("tmp10"(#loc24))
#loc111 = loc("tmp10"(#loc25))
#loc112 = loc("tmp10"(#loc26))
#loc113 = loc("tmp11"(#loc27))
#loc114 = loc("tmp13"(#loc28))
#loc115 = loc("tmp13"(#loc29))
#loc116 = loc("tmp13"(#loc30))
#loc117 = loc("tmp13"(#loc31))
#loc118 = loc("tmp13"(#loc32))
#loc119 = loc("tmp14"(#loc33))
#loc120 = loc("tmp15"(#loc34))
#loc121 = loc("tmp15"(#loc35))
#loc122 = loc("tmp15"(#loc36))
#loc123 = loc("tmp15"(#loc37))
#loc124 = loc("tmp15"(#loc38))
#loc125 = loc("tmp15"(#loc39))
#loc126 = loc("tmp17"(#loc40))
#loc127 = loc("tmp18"(#loc41))
#loc128 = loc("tmp20"(#loc42))
#loc129 = loc("tmp20"(#loc43))
#loc130 = loc("tmp20"(#loc44))
#loc131 = loc("tmp21"(#loc45))
#loc132 = loc("tmp23"(#loc46))
#loc133 = loc("tmp23"(#loc47))
#loc134 = loc("tmp24"(#loc48))
#loc135 = loc("tmp25"(#loc49))
#loc136 = loc("tmp28"(#loc50))
#loc137 = loc("tmp31"(#loc51))
#loc138 = loc("tmp31"(#loc52))
#loc139 = loc("tmp31"(#loc53))
#loc140 = loc("tmp31"(#loc54))
#loc141 = loc("tmp31"(#loc55))
#loc142 = loc("tmp33"(#loc56))
#loc143 = loc("tmp34"(#loc57))
#loc144 = loc("tmp36"(#loc58))
#loc145 = loc("tmp36"(#loc59))
#loc146 = loc("tmp36"(#loc60))
#loc147 = loc("tmp37"(#loc61))
#loc148 = loc("tmp39"(#loc62))
#loc149 = loc("tmp39"(#loc63))
#loc150 = loc("tmp39"(#loc64))
#loc151 = loc("tmp40"(#loc65))
#loc152 = loc("tmp41"(#loc66))
#loc153 = loc("tmp41"(#loc67))
#loc154 = loc("tmp41"(#loc68))
#loc155 = loc("tmp41"(#loc69))
#loc156 = loc("tmp43"(#loc70))
#loc157 = loc("tmp44"(#loc71))
#loc158 = loc("tmp46"(#loc72))
#loc159 = loc("tmp46"(#loc73))
#loc160 = loc("tmp46"(#loc74))
#loc161 = loc("tmp47"(#loc75))
#loc162 = loc("tmp49"(#loc76))
#loc163 = loc("tmp49"(#loc77))
#loc164 = loc("tmp50"(#loc78))
#loc165 = loc("tmp51"(#loc79))
#loc166 = loc("tmp53"(#loc80))
#loc167 = loc("tmp54"(#loc81))
#loc168 = loc("tmp27"(#loc82))
#loc169 = loc(callsite(#loc18 at #loc108))
#loc170 = loc(callsite(#loc20 at #loc108))
#loc171 = loc(callsite(#loc21 at #loc108))
#loc172 = loc(callsite(#loc22 at #loc108))
#loc173 = loc(callsite(#loc18 at #loc126))
#loc174 = loc(callsite(#loc20 at #loc126))
#loc175 = loc(callsite(#loc21 at #loc126))
#loc176 = loc(callsite(#loc22 at #loc126))
#loc177 = loc(callsite(#loc18 at #loc142))
#loc178 = loc(callsite(#loc20 at #loc142))
#loc179 = loc(callsite(#loc21 at #loc142))
#loc180 = loc(callsite(#loc22 at #loc142))
#loc181 = loc(callsite(#loc18 at #loc156))
#loc182 = loc(callsite(#loc20 at #loc156))
#loc183 = loc(callsite(#loc21 at #loc156))
#loc184 = loc(callsite(#loc22 at #loc156))
#loc185 = loc(fused[#loc167, #loc168])
