#loc = loc("/NHNHOME/WORKSPACE/26msit001_A/jinhyeok/loop_TTT/lact/.cache_inductor_llm/3e/c3eetnejf2p32nfs5d2fhedpd7ug5rhxyfn7vbnt3setnzqs7sxz.py":18:0)
#loc35 = loc("in_ptr0"(#loc))
#loc36 = loc("out_ptr0"(#loc))
#loc37 = loc("ynumel"(#loc))
#loc38 = loc("xnumel"(#loc))
module {
  tt.func public @triton_poi_fused_copy_slice_zeros_like_53(%in_ptr0: !tt.ptr<bf16> {tt.divisibility = 16 : i32} loc("in_ptr0"(#loc)), %out_ptr0: !tt.ptr<bf16> {tt.divisibility = 16 : i32} loc("out_ptr0"(#loc)), %ynumel: i32 {tt.divisibility = 16 : i32} loc("ynumel"(#loc)), %xnumel: i32 {tt.divisibility = 16 : i32} loc("xnumel"(#loc))) attributes {noinline = false} {
    %ynumel_0 = arith.constant 131072 : i32 loc(#loc39)
    %xnumel_1 = arith.constant 192 : i32 loc(#loc40)
    %yoffset = tt.get_program_id y : i32 loc(#loc41)
    %yoffset_2 = tt.get_program_id z : i32 loc(#loc42)
    %yoffset_3 = tt.get_num_programs y : i32 loc(#loc43)
    %yoffset_4 = arith.muli %yoffset_2, %yoffset_3 : i32 loc(#loc44)
    %yoffset_5 = arith.addi %yoffset, %yoffset_4 : i32 loc(#loc45)
    %yoffset_6 = arith.constant 32 : i32 loc(#loc46)
    %yoffset_7 = arith.constant 32 : i32 loc(#loc46)
    %yoffset_8 = arith.muli %yoffset_5, %yoffset_7 : i32 loc(#loc46)
    %yindex = tt.make_range {end = 32 : i32, start = 0 : i32} : tensor<32xi32> loc(#loc47)
    %yindex_9 = tt.expand_dims %yindex {axis = 1 : i32} : tensor<32xi32> -> tensor<32x1xi32> loc(#loc48)
    %yindex_10 = tt.splat %yoffset_8 : i32 -> tensor<32x1xi32> loc(#loc49)
    %yindex_11 = arith.addi %yindex_10, %yindex_9 : tensor<32x1xi32> loc(#loc49)
    %ymask = arith.constant dense<131072> : tensor<32x1xi32> loc(#loc50)
    %ymask_12 = arith.cmpi slt, %yindex_11, %ymask : tensor<32x1xi32> loc(#loc50)
    %xoffset = tt.get_program_id x : i32 loc(#loc51)
    %xoffset_13 = arith.constant 32 : i32 loc(#loc52)
    %xoffset_14 = arith.constant 32 : i32 loc(#loc52)
    %xoffset_15 = arith.muli %xoffset, %xoffset_14 : i32 loc(#loc52)
    %xindex = tt.make_range {end = 32 : i32, start = 0 : i32} : tensor<32xi32> loc(#loc53)
    %xindex_16 = tt.expand_dims %xindex {axis = 0 : i32} : tensor<32xi32> -> tensor<1x32xi32> loc(#loc54)
    %xindex_17 = tt.splat %xoffset_15 : i32 -> tensor<1x32xi32> loc(#loc55)
    %xindex_18 = arith.addi %xindex_17, %xindex_16 : tensor<1x32xi32> loc(#loc55)
    %xmask = arith.constant dense<192> : tensor<1x32xi32> loc(#loc56)
    %xmask_19 = arith.cmpi slt, %xindex_18, %xmask : tensor<1x32xi32> loc(#loc56)
    %y0 = arith.constant 4096 : i32 loc(#loc57)
    %y0_20 = arith.constant 4096 : i32 loc(#loc57)
    %y0_21 = arith.constant dense<4096> : tensor<32x1xi32> loc(#loc57)
    %y0_22 = arith.remsi %yindex_11, %y0_21 : tensor<32x1xi32> loc(#loc57)
    %y1 = arith.constant 4096 : i32 loc(#loc58)
    %y1_23 = arith.constant 4096 : i32 loc(#loc58)
    %y1_24 = arith.constant dense<4096> : tensor<32x1xi32> loc(#loc58)
    %y1_25 = arith.divsi %yindex_11, %y1_24 : tensor<32x1xi32> loc(#loc58)
    %tmp0 = arith.constant 4096 : i32 loc(#loc59)
    %tmp0_26 = arith.constant 4096 : i32 loc(#loc59)
    %tmp0_27 = arith.constant dense<4096> : tensor<1x32xi32> loc(#loc59)
    %tmp0_28 = arith.muli %tmp0_27, %xindex_18 : tensor<1x32xi32> loc(#loc59)
    %tmp0_29 = tt.broadcast %y0_22 : tensor<32x1xi32> -> tensor<32x32xi32> loc(#loc60)
    %tmp0_30 = tt.broadcast %tmp0_28 : tensor<1x32xi32> -> tensor<32x32xi32> loc(#loc60)
    %tmp0_31 = arith.addi %tmp0_29, %tmp0_30 : tensor<32x32xi32> loc(#loc60)
    %tmp0_32 = arith.constant 786432 : i32 loc(#loc61)
    %tmp0_33 = arith.constant 786432 : i32 loc(#loc61)
    %tmp0_34 = arith.constant dense<786432> : tensor<32x1xi32> loc(#loc61)
    %tmp0_35 = arith.muli %tmp0_34, %y1_25 : tensor<32x1xi32> loc(#loc61)
    %tmp0_36 = tt.broadcast %tmp0_35 : tensor<32x1xi32> -> tensor<32x32xi32> loc(#loc62)
    %tmp0_37 = arith.addi %tmp0_31, %tmp0_36 : tensor<32x32xi32> loc(#loc62)
    %tmp0_38 = tt.splat %in_ptr0 : !tt.ptr<bf16> -> tensor<32x32x!tt.ptr<bf16>> loc(#loc63)
    %tmp0_39 = tt.addptr %tmp0_38, %tmp0_37 : tensor<32x32x!tt.ptr<bf16>>, tensor<32x32xi32> loc(#loc63)
    %tmp0_40 = tt.broadcast %xmask_19 : tensor<1x32xi1> -> tensor<32x32xi1> loc(#loc64)
    %tmp0_41 = tt.broadcast %ymask_12 : tensor<32x1xi1> -> tensor<32x32xi1> loc(#loc64)
    %tmp0_42 = arith.andi %tmp0_40, %tmp0_41 : tensor<32x32xi1> loc(#loc64)
    %tmp0_43 = tt.load %tmp0_39, %tmp0_42 evictionPolicy = evict_last : tensor<32x32x!tt.ptr<bf16>> loc(#loc65)
    %tmp0_44 = arith.extf %tmp0_43 : tensor<32x32xbf16> to tensor<32x32xf32> loc(#loc66)
    %c192_i32 = arith.constant 192 : i32 loc(#loc29)
    %c192_i32_45 = arith.constant 192 : i32 loc(#loc29)
    %cst = arith.constant dense<192> : tensor<32x1xi32> loc(#loc29)
    %0 = arith.muli %cst, %yindex_11 : tensor<32x1xi32> loc(#loc29)
    %1 = tt.broadcast %xindex_18 : tensor<1x32xi32> -> tensor<32x32xi32> loc(#loc30)
    %2 = tt.broadcast %0 : tensor<32x1xi32> -> tensor<32x32xi32> loc(#loc30)
    %3 = arith.addi %1, %2 : tensor<32x32xi32> loc(#loc30)
    %4 = tt.splat %out_ptr0 : !tt.ptr<bf16> -> tensor<32x32x!tt.ptr<bf16>> loc(#loc31)
    %5 = tt.addptr %4, %3 : tensor<32x32x!tt.ptr<bf16>>, tensor<32x32xi32> loc(#loc31)
    %6 = tt.broadcast %xmask_19 : tensor<1x32xi1> -> tensor<32x32xi1> loc(#loc32)
    %7 = tt.broadcast %ymask_12 : tensor<32x1xi1> -> tensor<32x32xi1> loc(#loc32)
    %8 = arith.andi %6, %7 : tensor<32x32xi1> loc(#loc32)
    %9 = arith.truncf %tmp0_44 : tensor<32x32xf32> to tensor<32x32xbf16> loc(#loc33)
    tt.store %5, %9, %8 : tensor<32x32x!tt.ptr<bf16>> loc(#loc33)
    tt.return loc(#loc34)
  } loc(#loc)
} loc(#loc)
#loc1 = loc("/NHNHOME/WORKSPACE/26msit001_A/jinhyeok/loop_TTT/lact/.cache_inductor_llm/3e/c3eetnejf2p32nfs5d2fhedpd7ug5rhxyfn7vbnt3setnzqs7sxz.py":19:13)
#loc2 = loc("/NHNHOME/WORKSPACE/26msit001_A/jinhyeok/loop_TTT/lact/.cache_inductor_llm/3e/c3eetnejf2p32nfs5d2fhedpd7ug5rhxyfn7vbnt3setnzqs7sxz.py":20:13)
#loc3 = loc("/NHNHOME/WORKSPACE/26msit001_A/jinhyeok/loop_TTT/lact/.cache_inductor_llm/3e/c3eetnejf2p32nfs5d2fhedpd7ug5rhxyfn7vbnt3setnzqs7sxz.py":21:29)
#loc4 = loc("/NHNHOME/WORKSPACE/26msit001_A/jinhyeok/loop_TTT/lact/.cache_inductor_llm/3e/c3eetnejf2p32nfs5d2fhedpd7ug5rhxyfn7vbnt3setnzqs7sxz.py":21:48)
#loc5 = loc("/NHNHOME/WORKSPACE/26msit001_A/jinhyeok/loop_TTT/lact/.cache_inductor_llm/3e/c3eetnejf2p32nfs5d2fhedpd7ug5rhxyfn7vbnt3setnzqs7sxz.py":21:69)
#loc6 = loc("/NHNHOME/WORKSPACE/26msit001_A/jinhyeok/loop_TTT/lact/.cache_inductor_llm/3e/c3eetnejf2p32nfs5d2fhedpd7ug5rhxyfn7vbnt3setnzqs7sxz.py":21:53)
#loc7 = loc("/NHNHOME/WORKSPACE/26msit001_A/jinhyeok/loop_TTT/lact/.cache_inductor_llm/3e/c3eetnejf2p32nfs5d2fhedpd7ug5rhxyfn7vbnt3setnzqs7sxz.py":21:34)
#loc8 = loc("/NHNHOME/WORKSPACE/26msit001_A/jinhyeok/loop_TTT/lact/.cache_inductor_llm/3e/c3eetnejf2p32nfs5d2fhedpd7ug5rhxyfn7vbnt3setnzqs7sxz.py":21:75)
#loc9 = loc("/NHNHOME/WORKSPACE/26msit001_A/jinhyeok/loop_TTT/lact/.cache_inductor_llm/3e/c3eetnejf2p32nfs5d2fhedpd7ug5rhxyfn7vbnt3setnzqs7sxz.py":22:36)
#loc10 = loc("/NHNHOME/WORKSPACE/26msit001_A/jinhyeok/loop_TTT/lact/.cache_inductor_llm/3e/c3eetnejf2p32nfs5d2fhedpd7ug5rhxyfn7vbnt3setnzqs7sxz.py":22:44)
#loc11 = loc("/NHNHOME/WORKSPACE/26msit001_A/jinhyeok/loop_TTT/lact/.cache_inductor_llm/3e/c3eetnejf2p32nfs5d2fhedpd7ug5rhxyfn7vbnt3setnzqs7sxz.py":22:23)
#loc12 = loc("/NHNHOME/WORKSPACE/26msit001_A/jinhyeok/loop_TTT/lact/.cache_inductor_llm/3e/c3eetnejf2p32nfs5d2fhedpd7ug5rhxyfn7vbnt3setnzqs7sxz.py":23:21)
#loc13 = loc("/NHNHOME/WORKSPACE/26msit001_A/jinhyeok/loop_TTT/lact/.cache_inductor_llm/3e/c3eetnejf2p32nfs5d2fhedpd7ug5rhxyfn7vbnt3setnzqs7sxz.py":24:28)
#loc14 = loc("/NHNHOME/WORKSPACE/26msit001_A/jinhyeok/loop_TTT/lact/.cache_inductor_llm/3e/c3eetnejf2p32nfs5d2fhedpd7ug5rhxyfn7vbnt3setnzqs7sxz.py":24:33)
#loc15 = loc("/NHNHOME/WORKSPACE/26msit001_A/jinhyeok/loop_TTT/lact/.cache_inductor_llm/3e/c3eetnejf2p32nfs5d2fhedpd7ug5rhxyfn7vbnt3setnzqs7sxz.py":25:36)
#loc16 = loc("/NHNHOME/WORKSPACE/26msit001_A/jinhyeok/loop_TTT/lact/.cache_inductor_llm/3e/c3eetnejf2p32nfs5d2fhedpd7ug5rhxyfn7vbnt3setnzqs7sxz.py":25:44)
#loc17 = loc("/NHNHOME/WORKSPACE/26msit001_A/jinhyeok/loop_TTT/lact/.cache_inductor_llm/3e/c3eetnejf2p32nfs5d2fhedpd7ug5rhxyfn7vbnt3setnzqs7sxz.py":25:23)
#loc18 = loc("/NHNHOME/WORKSPACE/26msit001_A/jinhyeok/loop_TTT/lact/.cache_inductor_llm/3e/c3eetnejf2p32nfs5d2fhedpd7ug5rhxyfn7vbnt3setnzqs7sxz.py":26:21)
#loc19 = loc("/NHNHOME/WORKSPACE/26msit001_A/jinhyeok/loop_TTT/lact/.cache_inductor_llm/3e/c3eetnejf2p32nfs5d2fhedpd7ug5rhxyfn7vbnt3setnzqs7sxz.py":28:19)
#loc20 = loc("/NHNHOME/WORKSPACE/26msit001_A/jinhyeok/loop_TTT/lact/.cache_inductor_llm/3e/c3eetnejf2p32nfs5d2fhedpd7ug5rhxyfn7vbnt3setnzqs7sxz.py":29:19)
#loc21 = loc("/NHNHOME/WORKSPACE/26msit001_A/jinhyeok/loop_TTT/lact/.cache_inductor_llm/3e/c3eetnejf2p32nfs5d2fhedpd7ug5rhxyfn7vbnt3setnzqs7sxz.py":31:40)
#loc22 = loc("/NHNHOME/WORKSPACE/26msit001_A/jinhyeok/loop_TTT/lact/.cache_inductor_llm/3e/c3eetnejf2p32nfs5d2fhedpd7ug5rhxyfn7vbnt3setnzqs7sxz.py":31:35)
#loc23 = loc("/NHNHOME/WORKSPACE/26msit001_A/jinhyeok/loop_TTT/lact/.cache_inductor_llm/3e/c3eetnejf2p32nfs5d2fhedpd7ug5rhxyfn7vbnt3setnzqs7sxz.py":31:52)
#loc24 = loc("/NHNHOME/WORKSPACE/26msit001_A/jinhyeok/loop_TTT/lact/.cache_inductor_llm/3e/c3eetnejf2p32nfs5d2fhedpd7ug5rhxyfn7vbnt3setnzqs7sxz.py":31:45)
#loc25 = loc("/NHNHOME/WORKSPACE/26msit001_A/jinhyeok/loop_TTT/lact/.cache_inductor_llm/3e/c3eetnejf2p32nfs5d2fhedpd7ug5rhxyfn7vbnt3setnzqs7sxz.py":31:30)
#loc26 = loc("/NHNHOME/WORKSPACE/26msit001_A/jinhyeok/loop_TTT/lact/.cache_inductor_llm/3e/c3eetnejf2p32nfs5d2fhedpd7ug5rhxyfn7vbnt3setnzqs7sxz.py":31:65)
#loc27 = loc("/NHNHOME/WORKSPACE/26msit001_A/jinhyeok/loop_TTT/lact/.cache_inductor_llm/3e/c3eetnejf2p32nfs5d2fhedpd7ug5rhxyfn7vbnt3setnzqs7sxz.py":31:57)
#loc28 = loc("/NHNHOME/WORKSPACE/26msit001_A/jinhyeok/loop_TTT/lact/.cache_inductor_llm/3e/c3eetnejf2p32nfs5d2fhedpd7ug5rhxyfn7vbnt3setnzqs7sxz.py":31:105)
#loc29 = loc("/NHNHOME/WORKSPACE/26msit001_A/jinhyeok/loop_TTT/lact/.cache_inductor_llm/3e/c3eetnejf2p32nfs5d2fhedpd7ug5rhxyfn7vbnt3setnzqs7sxz.py":32:34)
#loc30 = loc("/NHNHOME/WORKSPACE/26msit001_A/jinhyeok/loop_TTT/lact/.cache_inductor_llm/3e/c3eetnejf2p32nfs5d2fhedpd7ug5rhxyfn7vbnt3setnzqs7sxz.py":32:30)
#loc31 = loc("/NHNHOME/WORKSPACE/26msit001_A/jinhyeok/loop_TTT/lact/.cache_inductor_llm/3e/c3eetnejf2p32nfs5d2fhedpd7ug5rhxyfn7vbnt3setnzqs7sxz.py":32:25)
#loc32 = loc("/NHNHOME/WORKSPACE/26msit001_A/jinhyeok/loop_TTT/lact/.cache_inductor_llm/3e/c3eetnejf2p32nfs5d2fhedpd7ug5rhxyfn7vbnt3setnzqs7sxz.py":32:53)
#loc33 = loc("/NHNHOME/WORKSPACE/26msit001_A/jinhyeok/loop_TTT/lact/.cache_inductor_llm/3e/c3eetnejf2p32nfs5d2fhedpd7ug5rhxyfn7vbnt3setnzqs7sxz.py":32:45)
#loc34 = loc("/NHNHOME/WORKSPACE/26msit001_A/jinhyeok/loop_TTT/lact/.cache_inductor_llm/3e/c3eetnejf2p32nfs5d2fhedpd7ug5rhxyfn7vbnt3setnzqs7sxz.py":32:4)
#loc39 = loc("ynumel"(#loc1))
#loc40 = loc("xnumel"(#loc2))
#loc41 = loc("yoffset"(#loc3))
#loc42 = loc("yoffset"(#loc4))
#loc43 = loc("yoffset"(#loc5))
#loc44 = loc("yoffset"(#loc6))
#loc45 = loc("yoffset"(#loc7))
#loc46 = loc("yoffset"(#loc8))
#loc47 = loc("yindex"(#loc9))
#loc48 = loc("yindex"(#loc10))
#loc49 = loc("yindex"(#loc11))
#loc50 = loc("ymask"(#loc12))
#loc51 = loc("xoffset"(#loc13))
#loc52 = loc("xoffset"(#loc14))
#loc53 = loc("xindex"(#loc15))
#loc54 = loc("xindex"(#loc16))
#loc55 = loc("xindex"(#loc17))
#loc56 = loc("xmask"(#loc18))
#loc57 = loc("y0"(#loc19))
#loc58 = loc("y1"(#loc20))
#loc59 = loc("tmp0"(#loc21))
#loc60 = loc("tmp0"(#loc22))
#loc61 = loc("tmp0"(#loc23))
#loc62 = loc("tmp0"(#loc24))
#loc63 = loc("tmp0"(#loc25))
#loc64 = loc("tmp0"(#loc26))
#loc65 = loc("tmp0"(#loc27))
#loc66 = loc("tmp0"(#loc28))
