#loc = loc("/NHNHOME/WORKSPACE/26msit001_A/jinhyeok/TTT_camera_embedding/lact_llm/.cache_inductor/ff/cffja3qgb7ev6h35dndcftfc33dlmdflwar6yfkffs6v23qzlc57.py":18:0)
#loc31 = loc("in_ptr0"(#loc))
#loc32 = loc("in_ptr1"(#loc))
#loc33 = loc("in_ptr2"(#loc))
#loc34 = loc("in_ptr3"(#loc))
#loc35 = loc("out_ptr0"(#loc))
#loc36 = loc("out_ptr1"(#loc))
#loc37 = loc("out_ptr2"(#loc))
#loc38 = loc("xnumel"(#loc))
module {
  tt.func public @triton_poi_fused__to_copy_add_div_linalg_vector_norm_mul_transpose_8(%in_ptr0: !tt.ptr<f32> {tt.divisibility = 16 : i32} loc("in_ptr0"(#loc)), %in_ptr1: !tt.ptr<f32> {tt.divisibility = 16 : i32} loc("in_ptr1"(#loc)), %in_ptr2: !tt.ptr<bf16> {tt.divisibility = 16 : i32} loc("in_ptr2"(#loc)), %in_ptr3: !tt.ptr<bf16> {tt.divisibility = 16 : i32} loc("in_ptr3"(#loc)), %out_ptr0: !tt.ptr<bf16> {tt.divisibility = 16 : i32} loc("out_ptr0"(#loc)), %out_ptr1: !tt.ptr<bf16> {tt.divisibility = 16 : i32} loc("out_ptr1"(#loc)), %out_ptr2: !tt.ptr<bf16> {tt.divisibility = 16 : i32} loc("out_ptr2"(#loc)), %xnumel: i32 {tt.divisibility = 16 : i32} loc("xnumel"(#loc))) attributes {noinline = false} {
    %tmp14 = arith.constant dense<3.950500e+00> : tensor<1024xf32> loc(#loc39)
    %tmp9 = arith.constant dense<4.084800e+00> : tensor<1024xf32> loc(#loc40)
    %tmp6 = arith.constant dense<1.000000e-07> : tensor<1024xf32> loc(#loc41)
    %x1 = arith.constant dense<36864> : tensor<1024xi32> loc(#loc42)
    %c1024_i32 = arith.constant 1024 : i32 loc(#loc5)
    %xoffset = tt.get_program_id x : i32 loc(#loc43)
    %xoffset_0 = arith.muli %xoffset, %c1024_i32 : i32 loc(#loc44)
    %xindex = tt.make_range {end = 1024 : i32, start = 0 : i32} : tensor<1024xi32> loc(#loc45)
    %xindex_1 = tt.splat %xoffset_0 : i32 -> tensor<1024xi32> loc(#loc46)
    %xindex_2 = arith.addi %xindex_1, %xindex : tensor<1024xi32> loc(#loc46)
    %x1_3 = arith.divsi %xindex_2, %x1 : tensor<1024xi32> loc(#loc42)
    %tmp0 = tt.splat %in_ptr0 : !tt.ptr<f32> -> tensor<1024x!tt.ptr<f32>> loc(#loc47)
    %tmp0_4 = tt.addptr %tmp0, %xindex_2 : tensor<1024x!tt.ptr<f32>>, tensor<1024xi32> loc(#loc47)
    %tmp0_5 = tt.load %tmp0_4 : tensor<1024x!tt.ptr<f32>> loc(#loc48)
    %tmp3 = tt.splat %in_ptr1 : !tt.ptr<f32> -> tensor<1024x!tt.ptr<f32>> loc(#loc49)
    %tmp3_6 = tt.addptr %tmp3, %x1_3 : tensor<1024x!tt.ptr<f32>>, tensor<1024xi32> loc(#loc49)
    %tmp3_7 = tt.load %tmp3_6 evictionPolicy = evict_last : tensor<1024x!tt.ptr<f32>> loc(#loc50)
    %tmp10 = tt.splat %in_ptr2 : !tt.ptr<bf16> -> tensor<1024x!tt.ptr<bf16>> loc(#loc51)
    %tmp10_8 = tt.addptr %tmp10, %xindex_2 : tensor<1024x!tt.ptr<bf16>>, tensor<1024xi32> loc(#loc51)
    %tmp10_9 = tt.load %tmp10_8 : tensor<1024x!tt.ptr<bf16>> loc(#loc52)
    %tmp10_10 = arith.extf %tmp10_9 : tensor<1024xbf16> to tensor<1024xf32> loc(#loc53)
    %tmp15 = tt.splat %in_ptr3 : !tt.ptr<bf16> -> tensor<1024x!tt.ptr<bf16>> loc(#loc54)
    %tmp15_11 = tt.addptr %tmp15, %xindex_2 : tensor<1024x!tt.ptr<bf16>>, tensor<1024xi32> loc(#loc54)
    %tmp15_12 = tt.load %tmp15_11 : tensor<1024x!tt.ptr<bf16>> loc(#loc55)
    %tmp15_13 = arith.extf %tmp15_12 : tensor<1024xbf16> to tensor<1024xf32> loc(#loc56)
    %tmp4 = tt.extern_elementwise %tmp3_7 {libname = "", libpath = "", pure = true, symbol = "__nv_sqrtf"} : (tensor<1024xf32>) -> tensor<1024xf32> loc(#loc57)
    %tmp6_14 = arith.addf %tmp4, %tmp6 : tensor<1024xf32> loc(#loc41)
    %tmp7 = arith.divf %tmp0_5, %tmp6_14 : tensor<1024xf32> loc(#loc58)
    %tmp9_15 = arith.mulf %tmp7, %tmp9 : tensor<1024xf32> loc(#loc40)
    %tmp12 = arith.addf %tmp9_15, %tmp10_10 : tensor<1024xf32> loc(#loc59)
    %tmp14_16 = arith.mulf %tmp12, %tmp14 : tensor<1024xf32> loc(#loc39)
    %tmp17 = arith.addf %tmp14_16, %tmp15_13 : tensor<1024xf32> loc(#loc60)
    %0 = tt.splat %out_ptr0 : !tt.ptr<bf16> -> tensor<1024x!tt.ptr<bf16>> loc(#loc24)
    %1 = tt.addptr %0, %xindex_2 : tensor<1024x!tt.ptr<bf16>>, tensor<1024xi32> loc(#loc24)
    %2 = arith.truncf %tmp17 : tensor<1024xf32> to tensor<1024xbf16> loc(#loc25)
    tt.store %1, %2 : tensor<1024x!tt.ptr<bf16>> loc(#loc25)
    %3 = tt.splat %out_ptr1 : !tt.ptr<bf16> -> tensor<1024x!tt.ptr<bf16>> loc(#loc26)
    %4 = tt.addptr %3, %xindex_2 : tensor<1024x!tt.ptr<bf16>>, tensor<1024xi32> loc(#loc26)
    tt.store %4, %2 : tensor<1024x!tt.ptr<bf16>> loc(#loc27)
    %5 = tt.splat %out_ptr2 : !tt.ptr<bf16> -> tensor<1024x!tt.ptr<bf16>> loc(#loc28)
    %6 = tt.addptr %5, %xindex_2 : tensor<1024x!tt.ptr<bf16>>, tensor<1024xi32> loc(#loc28)
    tt.store %6, %2 : tensor<1024x!tt.ptr<bf16>> loc(#loc29)
    tt.return loc(#loc30)
  } loc(#loc)
} loc(#loc)
#loc1 = loc("/NHNHOME/WORKSPACE/26msit001_A/jinhyeok/TTT_camera_embedding/lact_llm/.cache_inductor/ff/cffja3qgb7ev6h35dndcftfc33dlmdflwar6yfkffs6v23qzlc57.py":40:20)
#loc2 = loc("/NHNHOME/WORKSPACE/26msit001_A/jinhyeok/TTT_camera_embedding/lact_llm/.cache_inductor/ff/cffja3qgb7ev6h35dndcftfc33dlmdflwar6yfkffs6v23qzlc57.py":36:18)
#loc3 = loc("/NHNHOME/WORKSPACE/26msit001_A/jinhyeok/TTT_camera_embedding/lact_llm/.cache_inductor/ff/cffja3qgb7ev6h35dndcftfc33dlmdflwar6yfkffs6v23qzlc57.py":33:18)
#loc4 = loc("/NHNHOME/WORKSPACE/26msit001_A/jinhyeok/TTT_camera_embedding/lact_llm/.cache_inductor/ff/cffja3qgb7ev6h35dndcftfc33dlmdflwar6yfkffs6v23qzlc57.py":24:19)
#loc5 = loc(unknown)
#loc6 = loc("/NHNHOME/WORKSPACE/26msit001_A/jinhyeok/TTT_camera_embedding/lact_llm/.cache_inductor/ff/cffja3qgb7ev6h35dndcftfc33dlmdflwar6yfkffs6v23qzlc57.py":20:28)
#loc7 = loc("/NHNHOME/WORKSPACE/26msit001_A/jinhyeok/TTT_camera_embedding/lact_llm/.cache_inductor/ff/cffja3qgb7ev6h35dndcftfc33dlmdflwar6yfkffs6v23qzlc57.py":20:33)
#loc8 = loc("/NHNHOME/WORKSPACE/26msit001_A/jinhyeok/TTT_camera_embedding/lact_llm/.cache_inductor/ff/cffja3qgb7ev6h35dndcftfc33dlmdflwar6yfkffs6v23qzlc57.py":21:36)
#loc9 = loc("/NHNHOME/WORKSPACE/26msit001_A/jinhyeok/TTT_camera_embedding/lact_llm/.cache_inductor/ff/cffja3qgb7ev6h35dndcftfc33dlmdflwar6yfkffs6v23qzlc57.py":21:23)
#loc10 = loc("/NHNHOME/WORKSPACE/26msit001_A/jinhyeok/TTT_camera_embedding/lact_llm/.cache_inductor/ff/cffja3qgb7ev6h35dndcftfc33dlmdflwar6yfkffs6v23qzlc57.py":25:30)
#loc11 = loc("/NHNHOME/WORKSPACE/26msit001_A/jinhyeok/TTT_camera_embedding/lact_llm/.cache_inductor/ff/cffja3qgb7ev6h35dndcftfc33dlmdflwar6yfkffs6v23qzlc57.py":25:35)
#loc12 = loc("/NHNHOME/WORKSPACE/26msit001_A/jinhyeok/TTT_camera_embedding/lact_llm/.cache_inductor/ff/cffja3qgb7ev6h35dndcftfc33dlmdflwar6yfkffs6v23qzlc57.py":26:30)
#loc13 = loc("/NHNHOME/WORKSPACE/26msit001_A/jinhyeok/TTT_camera_embedding/lact_llm/.cache_inductor/ff/cffja3qgb7ev6h35dndcftfc33dlmdflwar6yfkffs6v23qzlc57.py":26:35)
#loc14 = loc("/NHNHOME/WORKSPACE/26msit001_A/jinhyeok/TTT_camera_embedding/lact_llm/.cache_inductor/ff/cffja3qgb7ev6h35dndcftfc33dlmdflwar6yfkffs6v23qzlc57.py":27:31)
#loc15 = loc("/NHNHOME/WORKSPACE/26msit001_A/jinhyeok/TTT_camera_embedding/lact_llm/.cache_inductor/ff/cffja3qgb7ev6h35dndcftfc33dlmdflwar6yfkffs6v23qzlc57.py":27:36)
#loc16 = loc("/NHNHOME/WORKSPACE/26msit001_A/jinhyeok/TTT_camera_embedding/lact_llm/.cache_inductor/ff/cffja3qgb7ev6h35dndcftfc33dlmdflwar6yfkffs6v23qzlc57.py":27:45)
#loc17 = loc("/NHNHOME/WORKSPACE/26msit001_A/jinhyeok/TTT_camera_embedding/lact_llm/.cache_inductor/ff/cffja3qgb7ev6h35dndcftfc33dlmdflwar6yfkffs6v23qzlc57.py":28:31)
#loc18 = loc("/NHNHOME/WORKSPACE/26msit001_A/jinhyeok/TTT_camera_embedding/lact_llm/.cache_inductor/ff/cffja3qgb7ev6h35dndcftfc33dlmdflwar6yfkffs6v23qzlc57.py":28:36)
#loc19 = loc("/NHNHOME/WORKSPACE/26msit001_A/jinhyeok/TTT_camera_embedding/lact_llm/.cache_inductor/ff/cffja3qgb7ev6h35dndcftfc33dlmdflwar6yfkffs6v23qzlc57.py":28:45)
#loc20 = loc("/NHNHOME/WORKSPACE/26msit001_A/jinhyeok/TTT_camera_embedding/lact_llm/.cache_inductor/ff/cffja3qgb7ev6h35dndcftfc33dlmdflwar6yfkffs6v23qzlc57.py":31:26)
#loc21 = loc("/NHNHOME/WORKSPACE/26msit001_A/jinhyeok/TTT_camera_embedding/lact_llm/.cache_inductor/ff/cffja3qgb7ev6h35dndcftfc33dlmdflwar6yfkffs6v23qzlc57.py":34:19)
#loc22 = loc("/NHNHOME/WORKSPACE/26msit001_A/jinhyeok/TTT_camera_embedding/lact_llm/.cache_inductor/ff/cffja3qgb7ev6h35dndcftfc33dlmdflwar6yfkffs6v23qzlc57.py":38:19)
#loc23 = loc("/NHNHOME/WORKSPACE/26msit001_A/jinhyeok/TTT_camera_embedding/lact_llm/.cache_inductor/ff/cffja3qgb7ev6h35dndcftfc33dlmdflwar6yfkffs6v23qzlc57.py":42:20)
#loc24 = loc("/NHNHOME/WORKSPACE/26msit001_A/jinhyeok/TTT_camera_embedding/lact_llm/.cache_inductor/ff/cffja3qgb7ev6h35dndcftfc33dlmdflwar6yfkffs6v23qzlc57.py":44:25)
#loc25 = loc("/NHNHOME/WORKSPACE/26msit001_A/jinhyeok/TTT_camera_embedding/lact_llm/.cache_inductor/ff/cffja3qgb7ev6h35dndcftfc33dlmdflwar6yfkffs6v23qzlc57.py":44:37)
#loc26 = loc("/NHNHOME/WORKSPACE/26msit001_A/jinhyeok/TTT_camera_embedding/lact_llm/.cache_inductor/ff/cffja3qgb7ev6h35dndcftfc33dlmdflwar6yfkffs6v23qzlc57.py":45:25)
#loc27 = loc("/NHNHOME/WORKSPACE/26msit001_A/jinhyeok/TTT_camera_embedding/lact_llm/.cache_inductor/ff/cffja3qgb7ev6h35dndcftfc33dlmdflwar6yfkffs6v23qzlc57.py":45:37)
#loc28 = loc("/NHNHOME/WORKSPACE/26msit001_A/jinhyeok/TTT_camera_embedding/lact_llm/.cache_inductor/ff/cffja3qgb7ev6h35dndcftfc33dlmdflwar6yfkffs6v23qzlc57.py":46:25)
#loc29 = loc("/NHNHOME/WORKSPACE/26msit001_A/jinhyeok/TTT_camera_embedding/lact_llm/.cache_inductor/ff/cffja3qgb7ev6h35dndcftfc33dlmdflwar6yfkffs6v23qzlc57.py":46:37)
#loc30 = loc("/NHNHOME/WORKSPACE/26msit001_A/jinhyeok/TTT_camera_embedding/lact_llm/.cache_inductor/ff/cffja3qgb7ev6h35dndcftfc33dlmdflwar6yfkffs6v23qzlc57.py":46:4)
#loc39 = loc("tmp14"(#loc1))
#loc40 = loc("tmp9"(#loc2))
#loc41 = loc("tmp6"(#loc3))
#loc42 = loc("x1"(#loc4))
#loc43 = loc("xoffset"(#loc6))
#loc44 = loc("xoffset"(#loc7))
#loc45 = loc("xindex"(#loc8))
#loc46 = loc("xindex"(#loc9))
#loc47 = loc("tmp0"(#loc10))
#loc48 = loc("tmp0"(#loc11))
#loc49 = loc("tmp3"(#loc12))
#loc50 = loc("tmp3"(#loc13))
#loc51 = loc("tmp10"(#loc14))
#loc52 = loc("tmp10"(#loc15))
#loc53 = loc("tmp10"(#loc16))
#loc54 = loc("tmp15"(#loc17))
#loc55 = loc("tmp15"(#loc18))
#loc56 = loc("tmp15"(#loc19))
#loc57 = loc("tmp4"(#loc20))
#loc58 = loc("tmp7"(#loc21))
#loc59 = loc("tmp12"(#loc22))
#loc60 = loc("tmp17"(#loc23))
