#loc = loc("/NHNHOME/WORKSPACE/26msit001_A/jinhyeok/TTT_camera_embedding/.venv_llm/lib/python3.12/site-packages/fla/modules/layernorm.py":269:0)
#loc38 = loc("/NHNHOME/WORKSPACE/26msit001_A/jinhyeok/TTT_camera_embedding/.venv_llm/lib/python3.12/site-packages/triton/language/standard.py":285:0)
#loc40 = loc(unknown)
#loc43 = loc("/NHNHOME/WORKSPACE/26msit001_A/jinhyeok/TTT_camera_embedding/.venv_llm/lib/python3.12/site-packages/triton/language/standard.py":260:0)
#loc47 = loc("x"(#loc))
#loc48 = loc("y"(#loc))
#loc49 = loc("w"(#loc))
#loc50 = loc("res"(#loc))
#loc51 = loc("res_out"(#loc))
#loc52 = loc("rstd"(#loc))
#loc53 = loc("eps"(#loc))
#loc84 = loc("input"(#loc38))
#loc85 = loc("a"(#loc43))
#loc86 = loc("b"(#loc43))
module {
  tt.func public @layer_norm_fwd_kernel1(%x: !tt.ptr<f32> {tt.divisibility = 16 : i32} loc("x"(#loc)), %y: !tt.ptr<f32> {tt.divisibility = 16 : i32} loc("y"(#loc)), %w: !tt.ptr<f32> {tt.divisibility = 16 : i32} loc("w"(#loc)), %res: !tt.ptr<f32> {tt.divisibility = 16 : i32} loc("res"(#loc)), %res_out: !tt.ptr<f32> {tt.divisibility = 16 : i32} loc("res_out"(#loc)), %rstd: !tt.ptr<f32> {tt.divisibility = 16 : i32} loc("rstd"(#loc)), %eps: f32 loc("eps"(#loc))) attributes {noinline = false} {
    %i_t = tt.get_program_id x : i32 loc(#loc54)
    %i_g = arith.constant 1 : i32 loc(#loc55)
    %i_g_0 = arith.constant 1 : i32 loc(#loc55)
    %i_g_1 = arith.remsi %i_t, %i_g_0 : i32 loc(#loc55)
    %x_2 = arith.constant 768 : i32 loc(#loc56)
    %x_3 = arith.constant 768 : i32 loc(#loc56)
    %x_4 = arith.extsi %i_t : i32 to i64 loc(#loc56)
    %x_5 = arith.extsi %x_3 : i32 to i64 loc(#loc56)
    %x_6 = arith.muli %x_4, %x_5 : i64 loc(#loc56)
    %x_7 = arith.constant 2147483647 : i64 loc(#loc56)
    %x_8 = arith.constant -2147483648 : i64 loc(#loc56)
    %x_9 = arith.cmpi sle, %x_6, %x_7 : i64 loc(#loc56)
    %x_10 = arith.cmpi sge, %x_6, %x_8 : i64 loc(#loc56)
    %x_11 = arith.andi %x_9, %x_10 : i1 loc(#loc56)
    %x_12 = arith.muli %i_t, %x_3 : i32 loc(#loc56)
    %x_13 = tt.addptr %x, %x_12 : !tt.ptr<f32>, i32 loc(#loc57)
    %y_14 = arith.constant 768 : i32 loc(#loc58)
    %y_15 = arith.constant 768 : i32 loc(#loc58)
    %y_16 = arith.extsi %i_t : i32 to i64 loc(#loc58)
    %y_17 = arith.extsi %y_15 : i32 to i64 loc(#loc58)
    %y_18 = arith.muli %y_16, %y_17 : i64 loc(#loc58)
    %y_19 = arith.constant 2147483647 : i64 loc(#loc58)
    %y_20 = arith.constant -2147483648 : i64 loc(#loc58)
    %y_21 = arith.cmpi sle, %y_18, %y_19 : i64 loc(#loc58)
    %y_22 = arith.cmpi sge, %y_18, %y_20 : i64 loc(#loc58)
    %y_23 = arith.andi %y_21, %y_22 : i1 loc(#loc58)
    %y_24 = arith.muli %i_t, %y_15 : i32 loc(#loc58)
    %y_25 = tt.addptr %y, %y_24 : !tt.ptr<f32>, i32 loc(#loc59)
    %res_26 = arith.constant 768 : i32 loc(#loc60)
    %res_27 = arith.constant 768 : i32 loc(#loc60)
    %res_28 = arith.extsi %i_t : i32 to i64 loc(#loc60)
    %res_29 = arith.extsi %res_27 : i32 to i64 loc(#loc60)
    %res_30 = arith.muli %res_28, %res_29 : i64 loc(#loc60)
    %res_31 = arith.constant 2147483647 : i64 loc(#loc60)
    %res_32 = arith.constant -2147483648 : i64 loc(#loc60)
    %res_33 = arith.cmpi sle, %res_30, %res_31 : i64 loc(#loc60)
    %res_34 = arith.cmpi sge, %res_30, %res_32 : i64 loc(#loc60)
    %res_35 = arith.andi %res_33, %res_34 : i1 loc(#loc60)
    %res_36 = arith.muli %i_t, %res_27 : i32 loc(#loc60)
    %res_37 = tt.addptr %res, %res_36 : !tt.ptr<f32>, i32 loc(#loc61)
    %res_out_38 = arith.constant 768 : i32 loc(#loc62)
    %res_out_39 = arith.constant 768 : i32 loc(#loc62)
    %res_out_40 = arith.extsi %i_t : i32 to i64 loc(#loc62)
    %res_out_41 = arith.extsi %res_out_39 : i32 to i64 loc(#loc62)
    %res_out_42 = arith.muli %res_out_40, %res_out_41 : i64 loc(#loc62)
    %res_out_43 = arith.constant 2147483647 : i64 loc(#loc62)
    %res_out_44 = arith.constant -2147483648 : i64 loc(#loc62)
    %res_out_45 = arith.cmpi sle, %res_out_42, %res_out_43 : i64 loc(#loc62)
    %res_out_46 = arith.cmpi sge, %res_out_42, %res_out_44 : i64 loc(#loc62)
    %res_out_47 = arith.andi %res_out_45, %res_out_46 : i1 loc(#loc62)
    %res_out_48 = arith.muli %i_t, %res_out_39 : i32 loc(#loc62)
    %res_out_49 = tt.addptr %res_out, %res_out_48 : !tt.ptr<f32>, i32 loc(#loc63)
    %o_d = tt.make_range {end = 1024 : i32, start = 0 : i32} : tensor<1024xi32> loc(#loc64)
    %m_d = arith.constant 768 : i32 loc(#loc65)
    %m_d_50 = arith.constant dense<768> : tensor<1024xi32> loc(#loc65)
    %m_d_51 = arith.cmpi slt, %o_d, %m_d_50 : tensor<1024xi32> loc(#loc65)
    %b_x = tt.splat %x_13 : !tt.ptr<f32> -> tensor<1024x!tt.ptr<f32>> loc(#loc66)
    %b_x_52 = tt.addptr %b_x, %o_d : tensor<1024x!tt.ptr<f32>>, tensor<1024xi32> loc(#loc66)
    %b_x_53 = arith.constant 0.000000e+00 : f32 loc(#loc67)
    %b_x_54 = arith.constant dense<0.000000e+00> : tensor<1024xf32> loc(#loc67)
    %b_x_55 = tt.load %b_x_52, %m_d_51, %b_x_54 : tensor<1024x!tt.ptr<f32>> loc(#loc67)
    %b_x_56 = tt.splat %res_37 : !tt.ptr<f32> -> tensor<1024x!tt.ptr<f32>> loc(#loc68)
    %b_x_57 = tt.addptr %b_x_56, %o_d : tensor<1024x!tt.ptr<f32>>, tensor<1024xi32> loc(#loc68)
    %b_x_58 = arith.constant 0.000000e+00 : f32 loc(#loc69)
    %b_x_59 = arith.constant dense<0.000000e+00> : tensor<1024xf32> loc(#loc69)
    %b_x_60 = tt.load %b_x_57, %m_d_51, %b_x_59 : tensor<1024x!tt.ptr<f32>> loc(#loc69)
    %b_x_61 = arith.addf %b_x_55, %b_x_60 : tensor<1024xf32> loc(#loc70)
    %0 = tt.splat %res_out_49 : !tt.ptr<f32> -> tensor<1024x!tt.ptr<f32>> loc(#loc18)
    %1 = tt.addptr %0, %o_d : tensor<1024x!tt.ptr<f32>>, tensor<1024xi32> loc(#loc18)
    tt.store %1, %b_x_61, %m_d_51 : tensor<1024x!tt.ptr<f32>> loc(#loc19)
    %b_xbar = arith.constant 0.000000e+00 : f32 loc(#loc71)
    %b_xbar_62 = arith.constant 0.000000e+00 : f32 loc(#loc71)
    %b_xbar_63 = arith.constant dense<0.000000e+00> : tensor<1024xf32> loc(#loc71)
    %b_xbar_64 = arith.select %m_d_51, %b_x_61, %b_xbar_63 : tensor<1024xi1>, tensor<1024xf32> loc(#loc71)
    %b_var = arith.mulf %b_xbar_64, %b_xbar_64 : tensor<1024xf32> loc(#loc72)
    %b_var_65 = tt.call @"triton.language.standard.sum__fp32S1024S__(1,)cconstexpr_0__(2,)cconstexpr_False__(3,)cNone"(%b_var) : (tensor<1024xf32>) -> f32 loc(#loc73)
    %b_var_66 = arith.constant 768 : i32 loc(#loc74)
    %b_var_67 = arith.constant 7.680000e+02 : f32 loc(#loc74)
    %b_var_68 = arith.divf %b_var_65, %b_var_67 : f32 loc(#loc74)
    %b_rstd = arith.addf %b_var_68, %eps : f32 loc(#loc75)
    %b_rstd_69 = math.sqrt %b_rstd : f32 loc(#loc76)
    %b_rstd_70 = arith.constant 1 : i32 loc(#loc77)
    %b_rstd_71 = arith.constant 1.000000e+00 : f32 loc(#loc77)
    %b_rstd_72 = arith.divf %b_rstd_71, %b_rstd_69 : f32 loc(#loc77)
    %2 = tt.addptr %rstd, %i_t : !tt.ptr<f32>, i32 loc(#loc27)
    tt.store %2, %b_rstd_72 : !tt.ptr<f32> loc(#loc28)
    %b_w = arith.constant 768 : i32 loc(#loc78)
    %b_w_73 = arith.constant 768 : i32 loc(#loc78)
    %b_w_74 = arith.extsi %i_g_1 : i32 to i64 loc(#loc78)
    %b_w_75 = arith.extsi %b_w_73 : i32 to i64 loc(#loc78)
    %b_w_76 = arith.muli %b_w_74, %b_w_75 : i64 loc(#loc78)
    %b_w_77 = arith.constant 2147483647 : i64 loc(#loc78)
    %b_w_78 = arith.constant -2147483648 : i64 loc(#loc78)
    %b_w_79 = arith.cmpi sle, %b_w_76, %b_w_77 : i64 loc(#loc78)
    %b_w_80 = arith.cmpi sge, %b_w_76, %b_w_78 : i64 loc(#loc78)
    %b_w_81 = arith.andi %b_w_79, %b_w_80 : i1 loc(#loc78)
    %b_w_82 = arith.muli %i_g_1, %b_w_73 : i32 loc(#loc78)
    %b_w_83 = tt.addptr %w, %b_w_82 : !tt.ptr<f32>, i32 loc(#loc79)
    %b_w_84 = tt.splat %b_w_83 : !tt.ptr<f32> -> tensor<1024x!tt.ptr<f32>> loc(#loc80)
    %b_w_85 = tt.addptr %b_w_84, %o_d : tensor<1024x!tt.ptr<f32>>, tensor<1024xi32> loc(#loc80)
    %b_w_86 = tt.load %b_w_85, %m_d_51 : tensor<1024x!tt.ptr<f32>> loc(#loc81)
    %b_x_hat = tt.splat %b_rstd_72 : f32 -> tensor<1024xf32> loc(#loc82)
    %b_x_hat_87 = arith.mulf %b_x_61, %b_x_hat : tensor<1024xf32> loc(#loc82)
    %b_y = arith.mulf %b_x_hat_87, %b_w_86 : tensor<1024xf32> loc(#loc83)
    %3 = tt.splat %y_25 : !tt.ptr<f32> -> tensor<1024x!tt.ptr<f32>> loc(#loc35)
    %4 = tt.addptr %3, %o_d : tensor<1024x!tt.ptr<f32>>, tensor<1024xi32> loc(#loc35)
    tt.store %4, %b_y, %m_d_51 : tensor<1024x!tt.ptr<f32>> loc(#loc36)
    tt.return loc(#loc37)
  } loc(#loc)
  tt.func private @"triton.language.standard.sum__fp32S1024S__(1,)cconstexpr_0__(2,)cconstexpr_False__(3,)cNone"(%input: tensor<1024xf32> loc("input"(#loc38))) -> f32 attributes {noinline = false} {
    %0 = "tt.reduce"(%input) <{axis = 0 : i32}> ({
    ^bb0(%arg1: f32 loc(unknown), %arg2: f32 loc(unknown)):
      %2 = tt.call @triton.language.standard._sum_combine__fp32_fp32__(%arg1, %arg2) : (f32, f32) -> f32 loc(#loc39)
      tt.reduce.return %2 : f32 loc(#loc39)
    }) : (tensor<1024xf32>) -> f32 loc(#loc39)
    tt.return %0 : f32 loc(#loc41)
  ^bb1:  // no predecessors
    %1 = ub.poison : f32 loc(#loc42)
    tt.return %1 : f32 loc(#loc42)
  } loc(#loc38)
  tt.func private @triton.language.standard._sum_combine__fp32_fp32__(%a: f32 loc("a"(#loc43)), %b: f32 loc("b"(#loc43))) -> f32 attributes {noinline = false} {
    %0 = arith.addf %a, %b : f32 loc(#loc44)
    tt.return %0 : f32 loc(#loc45)
  ^bb1:  // no predecessors
    %1 = ub.poison : f32 loc(#loc46)
    tt.return %1 : f32 loc(#loc46)
  } loc(#loc43)
} loc(#loc)
#loc1 = loc("/NHNHOME/WORKSPACE/26msit001_A/jinhyeok/TTT_camera_embedding/.venv_llm/lib/python3.12/site-packages/fla/modules/layernorm.py":288:24)
#loc2 = loc("/NHNHOME/WORKSPACE/26msit001_A/jinhyeok/TTT_camera_embedding/.venv_llm/lib/python3.12/site-packages/fla/modules/layernorm.py":289:16)
#loc3 = loc("/NHNHOME/WORKSPACE/26msit001_A/jinhyeok/TTT_camera_embedding/.venv_llm/lib/python3.12/site-packages/fla/modules/layernorm.py":291:15)
#loc4 = loc("/NHNHOME/WORKSPACE/26msit001_A/jinhyeok/TTT_camera_embedding/.venv_llm/lib/python3.12/site-packages/fla/modules/layernorm.py":291:9)
#loc5 = loc("/NHNHOME/WORKSPACE/26msit001_A/jinhyeok/TTT_camera_embedding/.venv_llm/lib/python3.12/site-packages/fla/modules/layernorm.py":292:15)
#loc6 = loc("/NHNHOME/WORKSPACE/26msit001_A/jinhyeok/TTT_camera_embedding/.venv_llm/lib/python3.12/site-packages/fla/modules/layernorm.py":292:9)
#loc7 = loc("/NHNHOME/WORKSPACE/26msit001_A/jinhyeok/TTT_camera_embedding/.venv_llm/lib/python3.12/site-packages/fla/modules/layernorm.py":294:21)
#loc8 = loc("/NHNHOME/WORKSPACE/26msit001_A/jinhyeok/TTT_camera_embedding/.venv_llm/lib/python3.12/site-packages/fla/modules/layernorm.py":294:15)
#loc9 = loc("/NHNHOME/WORKSPACE/26msit001_A/jinhyeok/TTT_camera_embedding/.venv_llm/lib/python3.12/site-packages/fla/modules/layernorm.py":296:25)
#loc10 = loc("/NHNHOME/WORKSPACE/26msit001_A/jinhyeok/TTT_camera_embedding/.venv_llm/lib/python3.12/site-packages/fla/modules/layernorm.py":296:19)
#loc11 = loc("/NHNHOME/WORKSPACE/26msit001_A/jinhyeok/TTT_camera_embedding/.venv_llm/lib/python3.12/site-packages/fla/modules/layernorm.py":298:23)
#loc12 = loc("/NHNHOME/WORKSPACE/26msit001_A/jinhyeok/TTT_camera_embedding/.venv_llm/lib/python3.12/site-packages/fla/modules/layernorm.py":299:16)
#loc13 = loc("/NHNHOME/WORKSPACE/26msit001_A/jinhyeok/TTT_camera_embedding/.venv_llm/lib/python3.12/site-packages/fla/modules/layernorm.py":300:22)
#loc14 = loc("/NHNHOME/WORKSPACE/26msit001_A/jinhyeok/TTT_camera_embedding/.venv_llm/lib/python3.12/site-packages/fla/modules/layernorm.py":300:18)
#loc15 = loc("/NHNHOME/WORKSPACE/26msit001_A/jinhyeok/TTT_camera_embedding/.venv_llm/lib/python3.12/site-packages/fla/modules/layernorm.py":302:29)
#loc16 = loc("/NHNHOME/WORKSPACE/26msit001_A/jinhyeok/TTT_camera_embedding/.venv_llm/lib/python3.12/site-packages/fla/modules/layernorm.py":302:23)
#loc17 = loc("/NHNHOME/WORKSPACE/26msit001_A/jinhyeok/TTT_camera_embedding/.venv_llm/lib/python3.12/site-packages/fla/modules/layernorm.py":302:15)
#loc18 = loc("/NHNHOME/WORKSPACE/26msit001_A/jinhyeok/TTT_camera_embedding/.venv_llm/lib/python3.12/site-packages/fla/modules/layernorm.py":304:27)
#loc19 = loc("/NHNHOME/WORKSPACE/26msit001_A/jinhyeok/TTT_camera_embedding/.venv_llm/lib/python3.12/site-packages/fla/modules/layernorm.py":304:32)
#loc20 = loc("/NHNHOME/WORKSPACE/26msit001_A/jinhyeok/TTT_camera_embedding/.venv_llm/lib/python3.12/site-packages/fla/modules/layernorm.py":311:36)
#loc21 = loc("/NHNHOME/WORKSPACE/26msit001_A/jinhyeok/TTT_camera_embedding/.venv_llm/lib/python3.12/site-packages/fla/modules/layernorm.py":312:32)
#loc22 = loc("/NHNHOME/WORKSPACE/26msit001_A/jinhyeok/TTT_camera_embedding/.venv_llm/lib/python3.12/site-packages/fla/modules/layernorm.py":312:23)
#loc23 = loc("/NHNHOME/WORKSPACE/26msit001_A/jinhyeok/TTT_camera_embedding/.venv_llm/lib/python3.12/site-packages/fla/modules/layernorm.py":312:50)
#loc24 = loc("/NHNHOME/WORKSPACE/26msit001_A/jinhyeok/TTT_camera_embedding/.venv_llm/lib/python3.12/site-packages/fla/modules/layernorm.py":313:33)
#loc25 = loc("/NHNHOME/WORKSPACE/26msit001_A/jinhyeok/TTT_camera_embedding/.venv_llm/lib/python3.12/site-packages/fla/modules/layernorm.py":313:25)
#loc26 = loc("/NHNHOME/WORKSPACE/26msit001_A/jinhyeok/TTT_camera_embedding/.venv_llm/lib/python3.12/site-packages/fla/modules/layernorm.py":313:17)
#loc27 = loc("/NHNHOME/WORKSPACE/26msit001_A/jinhyeok/TTT_camera_embedding/.venv_llm/lib/python3.12/site-packages/fla/modules/layernorm.py":314:20)
#loc28 = loc("/NHNHOME/WORKSPACE/26msit001_A/jinhyeok/TTT_camera_embedding/.venv_llm/lib/python3.12/site-packages/fla/modules/layernorm.py":314:25)
#loc29 = loc("/NHNHOME/WORKSPACE/26msit001_A/jinhyeok/TTT_camera_embedding/.venv_llm/lib/python3.12/site-packages/fla/modules/layernorm.py":317:32)
#loc30 = loc("/NHNHOME/WORKSPACE/26msit001_A/jinhyeok/TTT_camera_embedding/.venv_llm/lib/python3.12/site-packages/fla/modules/layernorm.py":317:26)
#loc31 = loc("/NHNHOME/WORKSPACE/26msit001_A/jinhyeok/TTT_camera_embedding/.venv_llm/lib/python3.12/site-packages/fla/modules/layernorm.py":317:36)
#loc32 = loc("/NHNHOME/WORKSPACE/26msit001_A/jinhyeok/TTT_camera_embedding/.venv_llm/lib/python3.12/site-packages/fla/modules/layernorm.py":317:22)
#loc33 = loc("/NHNHOME/WORKSPACE/26msit001_A/jinhyeok/TTT_camera_embedding/.venv_llm/lib/python3.12/site-packages/fla/modules/layernorm.py":320:68)
#loc34 = loc("/NHNHOME/WORKSPACE/26msit001_A/jinhyeok/TTT_camera_embedding/.venv_llm/lib/python3.12/site-packages/fla/modules/layernorm.py":321:20)
#loc35 = loc("/NHNHOME/WORKSPACE/26msit001_A/jinhyeok/TTT_camera_embedding/.venv_llm/lib/python3.12/site-packages/fla/modules/layernorm.py":326:17)
#loc36 = loc("/NHNHOME/WORKSPACE/26msit001_A/jinhyeok/TTT_camera_embedding/.venv_llm/lib/python3.12/site-packages/fla/modules/layernorm.py":326:22)
#loc37 = loc("/NHNHOME/WORKSPACE/26msit001_A/jinhyeok/TTT_camera_embedding/.venv_llm/lib/python3.12/site-packages/fla/modules/layernorm.py":326:4)
#loc39 = loc("/NHNHOME/WORKSPACE/26msit001_A/jinhyeok/TTT_camera_embedding/.venv_llm/lib/python3.12/site-packages/triton/language/standard.py":291:36)
#loc41 = loc("/NHNHOME/WORKSPACE/26msit001_A/jinhyeok/TTT_camera_embedding/.venv_llm/lib/python3.12/site-packages/triton/language/standard.py":291:11)
#loc42 = loc("/NHNHOME/WORKSPACE/26msit001_A/jinhyeok/TTT_camera_embedding/.venv_llm/lib/python3.12/site-packages/triton/language/standard.py":291:4)
#loc44 = loc("/NHNHOME/WORKSPACE/26msit001_A/jinhyeok/TTT_camera_embedding/.venv_llm/lib/python3.12/site-packages/triton/language/standard.py":261:15)
#loc45 = loc("/NHNHOME/WORKSPACE/26msit001_A/jinhyeok/TTT_camera_embedding/.venv_llm/lib/python3.12/site-packages/triton/language/standard.py":261:11)
#loc46 = loc("/NHNHOME/WORKSPACE/26msit001_A/jinhyeok/TTT_camera_embedding/.venv_llm/lib/python3.12/site-packages/triton/language/standard.py":261:4)
#loc54 = loc("i_t"(#loc1))
#loc55 = loc("i_g"(#loc2))
#loc56 = loc("x"(#loc3))
#loc57 = loc("x"(#loc4))
#loc58 = loc("y"(#loc5))
#loc59 = loc("y"(#loc6))
#loc60 = loc("res"(#loc7))
#loc61 = loc("res"(#loc8))
#loc62 = loc("res_out"(#loc9))
#loc63 = loc("res_out"(#loc10))
#loc64 = loc("o_d"(#loc11))
#loc65 = loc("m_d"(#loc12))
#loc66 = loc("b_x"(#loc13))
#loc67 = loc("b_x"(#loc14))
#loc68 = loc("b_x"(#loc15))
#loc69 = loc("b_x"(#loc16))
#loc70 = loc("b_x"(#loc17))
#loc71 = loc("b_xbar"(#loc20))
#loc72 = loc("b_var"(#loc21))
#loc73 = loc("b_var"(#loc22))
#loc74 = loc("b_var"(#loc23))
#loc75 = loc("b_rstd"(#loc24))
#loc76 = loc("b_rstd"(#loc25))
#loc77 = loc("b_rstd"(#loc26))
#loc78 = loc("b_w"(#loc29))
#loc79 = loc("b_w"(#loc30))
#loc80 = loc("b_w"(#loc31))
#loc81 = loc("b_w"(#loc32))
#loc82 = loc("b_x_hat"(#loc33))
#loc83 = loc("b_y"(#loc34))
