#loc = loc("/NHNHOME/WORKSPACE/26msit001_A/jinhyeok/loop_TTT/lact/.cache_inductor_llm/yn/cynlfi7qf4qi4k2hfecmjzmuum6zkwp4z2f6lmnafawwug52amwj.py":18:0)
#loc48 = loc("in_out_ptr0"(#loc))
#loc49 = loc("in_ptr0"(#loc))
#loc50 = loc("in_ptr1"(#loc))
#loc51 = loc("in_ptr2"(#loc))
#loc52 = loc("in_ptr3"(#loc))
#loc53 = loc("in_ptr4"(#loc))
#loc54 = loc("in_ptr5"(#loc))
#loc55 = loc("in_ptr6"(#loc))
#loc56 = loc("ynumel"(#loc))
#loc57 = loc("xnumel"(#loc))
module {
  tt.func public @triton_poi_fused__to_copy_add_div_eq_masked_fill_mul_transpose_40(%in_out_ptr0: !tt.ptr<f32> {tt.divisibility = 16 : i32} loc("in_out_ptr0"(#loc)), %in_ptr0: !tt.ptr<bf16> {tt.divisibility = 16 : i32} loc("in_ptr0"(#loc)), %in_ptr1: !tt.ptr<bf16> {tt.divisibility = 16 : i32} loc("in_ptr1"(#loc)), %in_ptr2: !tt.ptr<f32> {tt.divisibility = 16 : i32} loc("in_ptr2"(#loc)), %in_ptr3: !tt.ptr<f32> {tt.divisibility = 16 : i32} loc("in_ptr3"(#loc)), %in_ptr4: !tt.ptr<f32> {tt.divisibility = 16 : i32} loc("in_ptr4"(#loc)), %in_ptr5: !tt.ptr<f32> {tt.divisibility = 16 : i32} loc("in_ptr5"(#loc)), %in_ptr6: !tt.ptr<f32> {tt.divisibility = 16 : i32} loc("in_ptr6"(#loc)), %ynumel: i32 {tt.divisibility = 16 : i32} loc("ynumel"(#loc)), %xnumel: i32 {tt.divisibility = 16 : i32} loc("xnumel"(#loc))) attributes {noinline = false} {
    %c192_i32 = arith.constant 192 : i32 loc(#loc1)
    %cst = arith.constant dense<0.000000e+00> : tensor<1024x1xf32> loc(#loc1)
    %tmp1 = arith.constant dense<36864> : tensor<1024x1xi32> loc(#loc58)
    %cst_0 = arith.constant dense<192> : tensor<1024x1xi32> loc(#loc1)
    %c1024_i32 = arith.constant 1024 : i32 loc(#loc1)
    %yoffset = tt.get_program_id y : i32 loc(#loc59)
    %yoffset_1 = arith.muli %yoffset, %c1024_i32 : i32 loc(#loc60)
    %yindex = tt.make_range {end = 1024 : i32, start = 0 : i32} : tensor<1024xi32> loc(#loc61)
    %yindex_2 = tt.expand_dims %yindex {axis = 1 : i32} : tensor<1024xi32> -> tensor<1024x1xi32> loc(#loc62)
    %yindex_3 = tt.splat %yoffset_1 : i32 -> tensor<1024x1xi32> loc(#loc63)
    %yindex_4 = arith.addi %yindex_3, %yindex_2 : tensor<1024x1xi32> loc(#loc63)
    %xoffset = tt.get_program_id x : i32 loc(#loc64)
    %xmask = arith.cmpi slt, %xoffset, %c192_i32 : i32 loc(#loc65)
    %y0 = arith.remsi %yindex_4, %cst_0 : tensor<1024x1xi32> loc(#loc66)
    %y1 = arith.divsi %yindex_4, %cst_0 : tensor<1024x1xi32> loc(#loc67)
    %tmp0 = arith.muli %yindex_4, %cst_0 : tensor<1024x1xi32> loc(#loc68)
    %tmp0_5 = tt.splat %xoffset : i32 -> tensor<1024x1xi32> loc(#loc101)
    %tmp0_6 = arith.addi %tmp0_5, %tmp0 : tensor<1024x1xi32> loc(#loc69)
    %tmp0_7 = tt.splat %in_out_ptr0 : !tt.ptr<f32> -> tensor<1024x1x!tt.ptr<f32>> loc(#loc71)
    %tmp0_8 = tt.addptr %tmp0_7, %tmp0_6 : tensor<1024x1x!tt.ptr<f32>>, tensor<1024x1xi32> loc(#loc71)
    %tmp0_9 = tt.splat %xmask : i1 -> tensor<1024x1xi1> loc(#loc102)
    %tmp0_10 = tt.load %tmp0_8, %tmp0_9 evictionPolicy = evict_last : tensor<1024x1x!tt.ptr<f32>> loc(#loc72)
    %tmp1_11 = arith.muli %xoffset, %c192_i32 : i32 loc(#loc73)
    %tmp1_12 = tt.splat %tmp1_11 : i32 -> tensor<1024x1xi32> loc(#loc103)
    %tmp1_13 = arith.addi %y0, %tmp1_12 : tensor<1024x1xi32> loc(#loc74)
    %tmp1_14 = arith.muli %y1, %tmp1 : tensor<1024x1xi32> loc(#loc58)
    %tmp1_15 = arith.addi %tmp1_13, %tmp1_14 : tensor<1024x1xi32> loc(#loc75)
    %tmp1_16 = tt.splat %in_ptr0 : !tt.ptr<bf16> -> tensor<1024x1x!tt.ptr<bf16>> loc(#loc76)
    %tmp1_17 = tt.addptr %tmp1_16, %tmp1_15 : tensor<1024x1x!tt.ptr<bf16>>, tensor<1024x1xi32> loc(#loc76)
    %tmp1_18 = tt.load %tmp1_17, %tmp0_9 evictionPolicy = evict_last : tensor<1024x1x!tt.ptr<bf16>> loc(#loc77)
    %tmp1_19 = arith.extf %tmp1_18 : tensor<1024x1xbf16> to tensor<1024x1xf32> loc(#loc78)
    %tmp4 = tt.splat %in_ptr1 : !tt.ptr<bf16> -> tensor<1024x1x!tt.ptr<bf16>> loc(#loc79)
    %tmp4_20 = tt.addptr %tmp4, %tmp0_6 : tensor<1024x1x!tt.ptr<bf16>>, tensor<1024x1xi32> loc(#loc79)
    %tmp4_21 = tt.load %tmp4_20, %tmp0_9 evictionPolicy = evict_last : tensor<1024x1x!tt.ptr<bf16>> loc(#loc80)
    %tmp4_22 = arith.extf %tmp4_21 : tensor<1024x1xbf16> to tensor<1024x1xf32> loc(#loc81)
    %tmp7 = tt.splat %in_ptr2 : !tt.ptr<f32> -> tensor<1024x1x!tt.ptr<f32>> loc(#loc82)
    %tmp7_23 = tt.addptr %tmp7, %yindex_4 : tensor<1024x1x!tt.ptr<f32>>, tensor<1024x1xi32> loc(#loc82)
    %tmp7_24 = tt.load %tmp7_23 evictionPolicy = evict_last : tensor<1024x1x!tt.ptr<f32>> loc(#loc83)
    %tmp8 = tt.splat %in_ptr3 : !tt.ptr<f32> -> tensor<1024x1x!tt.ptr<f32>> loc(#loc84)
    %tmp8_25 = tt.addptr %tmp8, %yindex_4 : tensor<1024x1x!tt.ptr<f32>>, tensor<1024x1xi32> loc(#loc84)
    %tmp8_26 = tt.load %tmp8_25 evictionPolicy = evict_last : tensor<1024x1x!tt.ptr<f32>> loc(#loc85)
    %tmp10 = tt.splat %in_ptr4 : !tt.ptr<f32> -> tensor<1024x1x!tt.ptr<f32>> loc(#loc86)
    %tmp10_27 = tt.addptr %tmp10, %yindex_4 : tensor<1024x1x!tt.ptr<f32>>, tensor<1024x1xi32> loc(#loc86)
    %tmp10_28 = tt.load %tmp10_27 evictionPolicy = evict_last : tensor<1024x1x!tt.ptr<f32>> loc(#loc87)
    %tmp12 = tt.splat %in_ptr5 : !tt.ptr<f32> -> tensor<1024x1x!tt.ptr<f32>> loc(#loc88)
    %tmp12_29 = tt.addptr %tmp12, %yindex_4 : tensor<1024x1x!tt.ptr<f32>>, tensor<1024x1xi32> loc(#loc88)
    %tmp12_30 = tt.load %tmp12_29 evictionPolicy = evict_last : tensor<1024x1x!tt.ptr<f32>> loc(#loc89)
    %tmp15 = tt.splat %in_ptr6 : !tt.ptr<f32> -> tensor<1024x1x!tt.ptr<f32>> loc(#loc90)
    %tmp15_31 = tt.addptr %tmp15, %tmp0_6 : tensor<1024x1x!tt.ptr<f32>>, tensor<1024x1xi32> loc(#loc90)
    %tmp15_32 = tt.load %tmp15_31, %tmp0_9 evictionPolicy = evict_last : tensor<1024x1x!tt.ptr<f32>> loc(#loc91)
    %tmp3 = arith.addf %tmp0_10, %tmp1_19 : tensor<1024x1xf32> loc(#loc92)
    %tmp6 = arith.addf %tmp3, %tmp4_22 : tensor<1024x1xf32> loc(#loc93)
    %tmp9 = arith.addf %tmp7_24, %tmp8_26 : tensor<1024x1xf32> loc(#loc94)
    %tmp11 = arith.addf %tmp9, %tmp10_28 : tensor<1024x1xf32> loc(#loc95)
    %tmp14 = arith.cmpf oeq, %tmp12_30, %cst : tensor<1024x1xf32> loc(#loc96)
    %tmp16 = arith.divf %tmp15_32, %tmp12_30 : tensor<1024x1xf32> loc(#loc97)
    %tmp17 = arith.select %tmp14, %cst, %tmp16 : tensor<1024x1xi1>, tensor<1024x1xf32> loc(#loc98)
    %tmp18 = arith.mulf %tmp11, %tmp17 : tensor<1024x1xf32> loc(#loc99)
    %tmp19 = arith.addf %tmp6, %tmp18 : tensor<1024x1xf32> loc(#loc100)
    gpu.barrier loc(#loc45)
    tt.store %tmp0_8, %tmp19, %tmp0_9 : tensor<1024x1x!tt.ptr<f32>> loc(#loc46)
    tt.return loc(#loc47)
  } loc(#loc)
} loc(#loc)
#loc1 = loc(unknown)
#loc2 = loc("/NHNHOME/WORKSPACE/26msit001_A/jinhyeok/loop_TTT/lact/.cache_inductor_llm/yn/cynlfi7qf4qi4k2hfecmjzmuum6zkwp4z2f6lmnafawwug52amwj.py":32:50)
#loc3 = loc("/NHNHOME/WORKSPACE/26msit001_A/jinhyeok/loop_TTT/lact/.cache_inductor_llm/yn/cynlfi7qf4qi4k2hfecmjzmuum6zkwp4z2f6lmnafawwug52amwj.py":21:28)
#loc4 = loc("/NHNHOME/WORKSPACE/26msit001_A/jinhyeok/loop_TTT/lact/.cache_inductor_llm/yn/cynlfi7qf4qi4k2hfecmjzmuum6zkwp4z2f6lmnafawwug52amwj.py":21:33)
#loc5 = loc("/NHNHOME/WORKSPACE/26msit001_A/jinhyeok/loop_TTT/lact/.cache_inductor_llm/yn/cynlfi7qf4qi4k2hfecmjzmuum6zkwp4z2f6lmnafawwug52amwj.py":22:36)
#loc6 = loc("/NHNHOME/WORKSPACE/26msit001_A/jinhyeok/loop_TTT/lact/.cache_inductor_llm/yn/cynlfi7qf4qi4k2hfecmjzmuum6zkwp4z2f6lmnafawwug52amwj.py":22:44)
#loc7 = loc("/NHNHOME/WORKSPACE/26msit001_A/jinhyeok/loop_TTT/lact/.cache_inductor_llm/yn/cynlfi7qf4qi4k2hfecmjzmuum6zkwp4z2f6lmnafawwug52amwj.py":22:23)
#loc8 = loc("/NHNHOME/WORKSPACE/26msit001_A/jinhyeok/loop_TTT/lact/.cache_inductor_llm/yn/cynlfi7qf4qi4k2hfecmjzmuum6zkwp4z2f6lmnafawwug52amwj.py":24:28)
#loc9 = loc("/NHNHOME/WORKSPACE/26msit001_A/jinhyeok/loop_TTT/lact/.cache_inductor_llm/yn/cynlfi7qf4qi4k2hfecmjzmuum6zkwp4z2f6lmnafawwug52amwj.py":26:21)
#loc10 = loc("/NHNHOME/WORKSPACE/26msit001_A/jinhyeok/loop_TTT/lact/.cache_inductor_llm/yn/cynlfi7qf4qi4k2hfecmjzmuum6zkwp4z2f6lmnafawwug52amwj.py":29:19)
#loc11 = loc("/NHNHOME/WORKSPACE/26msit001_A/jinhyeok/loop_TTT/lact/.cache_inductor_llm/yn/cynlfi7qf4qi4k2hfecmjzmuum6zkwp4z2f6lmnafawwug52amwj.py":30:19)
#loc12 = loc("/NHNHOME/WORKSPACE/26msit001_A/jinhyeok/loop_TTT/lact/.cache_inductor_llm/yn/cynlfi7qf4qi4k2hfecmjzmuum6zkwp4z2f6lmnafawwug52amwj.py":31:43)
#loc13 = loc("/NHNHOME/WORKSPACE/26msit001_A/jinhyeok/loop_TTT/lact/.cache_inductor_llm/yn/cynlfi7qf4qi4k2hfecmjzmuum6zkwp4z2f6lmnafawwug52amwj.py":31:39)
#loc14 = loc("/NHNHOME/WORKSPACE/26msit001_A/jinhyeok/loop_TTT/lact/.cache_inductor_llm/yn/cynlfi7qf4qi4k2hfecmjzmuum6zkwp4z2f6lmnafawwug52amwj.py":25:23)
#loc15 = loc("/NHNHOME/WORKSPACE/26msit001_A/jinhyeok/loop_TTT/lact/.cache_inductor_llm/yn/cynlfi7qf4qi4k2hfecmjzmuum6zkwp4z2f6lmnafawwug52amwj.py":31:34)
#loc16 = loc("/NHNHOME/WORKSPACE/26msit001_A/jinhyeok/loop_TTT/lact/.cache_inductor_llm/yn/cynlfi7qf4qi4k2hfecmjzmuum6zkwp4z2f6lmnafawwug52amwj.py":31:48)
#loc17 = loc("/NHNHOME/WORKSPACE/26msit001_A/jinhyeok/loop_TTT/lact/.cache_inductor_llm/yn/cynlfi7qf4qi4k2hfecmjzmuum6zkwp4z2f6lmnafawwug52amwj.py":32:39)
#loc18 = loc("/NHNHOME/WORKSPACE/26msit001_A/jinhyeok/loop_TTT/lact/.cache_inductor_llm/yn/cynlfi7qf4qi4k2hfecmjzmuum6zkwp4z2f6lmnafawwug52amwj.py":32:35)
#loc19 = loc("/NHNHOME/WORKSPACE/26msit001_A/jinhyeok/loop_TTT/lact/.cache_inductor_llm/yn/cynlfi7qf4qi4k2hfecmjzmuum6zkwp4z2f6lmnafawwug52amwj.py":32:44)
#loc20 = loc("/NHNHOME/WORKSPACE/26msit001_A/jinhyeok/loop_TTT/lact/.cache_inductor_llm/yn/cynlfi7qf4qi4k2hfecmjzmuum6zkwp4z2f6lmnafawwug52amwj.py":32:30)
#loc21 = loc("/NHNHOME/WORKSPACE/26msit001_A/jinhyeok/loop_TTT/lact/.cache_inductor_llm/yn/cynlfi7qf4qi4k2hfecmjzmuum6zkwp4z2f6lmnafawwug52amwj.py":32:55)
#loc22 = loc("/NHNHOME/WORKSPACE/26msit001_A/jinhyeok/loop_TTT/lact/.cache_inductor_llm/yn/cynlfi7qf4qi4k2hfecmjzmuum6zkwp4z2f6lmnafawwug52amwj.py":32:95)
#loc23 = loc("/NHNHOME/WORKSPACE/26msit001_A/jinhyeok/loop_TTT/lact/.cache_inductor_llm/yn/cynlfi7qf4qi4k2hfecmjzmuum6zkwp4z2f6lmnafawwug52amwj.py":33:30)
#loc24 = loc("/NHNHOME/WORKSPACE/26msit001_A/jinhyeok/loop_TTT/lact/.cache_inductor_llm/yn/cynlfi7qf4qi4k2hfecmjzmuum6zkwp4z2f6lmnafawwug52amwj.py":33:44)
#loc25 = loc("/NHNHOME/WORKSPACE/26msit001_A/jinhyeok/loop_TTT/lact/.cache_inductor_llm/yn/cynlfi7qf4qi4k2hfecmjzmuum6zkwp4z2f6lmnafawwug52amwj.py":33:84)
#loc26 = loc("/NHNHOME/WORKSPACE/26msit001_A/jinhyeok/loop_TTT/lact/.cache_inductor_llm/yn/cynlfi7qf4qi4k2hfecmjzmuum6zkwp4z2f6lmnafawwug52amwj.py":34:30)
#loc27 = loc("/NHNHOME/WORKSPACE/26msit001_A/jinhyeok/loop_TTT/lact/.cache_inductor_llm/yn/cynlfi7qf4qi4k2hfecmjzmuum6zkwp4z2f6lmnafawwug52amwj.py":34:35)
#loc28 = loc("/NHNHOME/WORKSPACE/26msit001_A/jinhyeok/loop_TTT/lact/.cache_inductor_llm/yn/cynlfi7qf4qi4k2hfecmjzmuum6zkwp4z2f6lmnafawwug52amwj.py":35:30)
#loc29 = loc("/NHNHOME/WORKSPACE/26msit001_A/jinhyeok/loop_TTT/lact/.cache_inductor_llm/yn/cynlfi7qf4qi4k2hfecmjzmuum6zkwp4z2f6lmnafawwug52amwj.py":35:35)
#loc30 = loc("/NHNHOME/WORKSPACE/26msit001_A/jinhyeok/loop_TTT/lact/.cache_inductor_llm/yn/cynlfi7qf4qi4k2hfecmjzmuum6zkwp4z2f6lmnafawwug52amwj.py":36:31)
#loc31 = loc("/NHNHOME/WORKSPACE/26msit001_A/jinhyeok/loop_TTT/lact/.cache_inductor_llm/yn/cynlfi7qf4qi4k2hfecmjzmuum6zkwp4z2f6lmnafawwug52amwj.py":36:36)
#loc32 = loc("/NHNHOME/WORKSPACE/26msit001_A/jinhyeok/loop_TTT/lact/.cache_inductor_llm/yn/cynlfi7qf4qi4k2hfecmjzmuum6zkwp4z2f6lmnafawwug52amwj.py":37:31)
#loc33 = loc("/NHNHOME/WORKSPACE/26msit001_A/jinhyeok/loop_TTT/lact/.cache_inductor_llm/yn/cynlfi7qf4qi4k2hfecmjzmuum6zkwp4z2f6lmnafawwug52amwj.py":37:36)
#loc34 = loc("/NHNHOME/WORKSPACE/26msit001_A/jinhyeok/loop_TTT/lact/.cache_inductor_llm/yn/cynlfi7qf4qi4k2hfecmjzmuum6zkwp4z2f6lmnafawwug52amwj.py":38:31)
#loc35 = loc("/NHNHOME/WORKSPACE/26msit001_A/jinhyeok/loop_TTT/lact/.cache_inductor_llm/yn/cynlfi7qf4qi4k2hfecmjzmuum6zkwp4z2f6lmnafawwug52amwj.py":38:45)
#loc36 = loc("/NHNHOME/WORKSPACE/26msit001_A/jinhyeok/loop_TTT/lact/.cache_inductor_llm/yn/cynlfi7qf4qi4k2hfecmjzmuum6zkwp4z2f6lmnafawwug52amwj.py":40:18)
#loc37 = loc("/NHNHOME/WORKSPACE/26msit001_A/jinhyeok/loop_TTT/lact/.cache_inductor_llm/yn/cynlfi7qf4qi4k2hfecmjzmuum6zkwp4z2f6lmnafawwug52amwj.py":42:18)
#loc38 = loc("/NHNHOME/WORKSPACE/26msit001_A/jinhyeok/loop_TTT/lact/.cache_inductor_llm/yn/cynlfi7qf4qi4k2hfecmjzmuum6zkwp4z2f6lmnafawwug52amwj.py":43:18)
#loc39 = loc("/NHNHOME/WORKSPACE/26msit001_A/jinhyeok/loop_TTT/lact/.cache_inductor_llm/yn/cynlfi7qf4qi4k2hfecmjzmuum6zkwp4z2f6lmnafawwug52amwj.py":44:19)
#loc40 = loc("/NHNHOME/WORKSPACE/26msit001_A/jinhyeok/loop_TTT/lact/.cache_inductor_llm/yn/cynlfi7qf4qi4k2hfecmjzmuum6zkwp4z2f6lmnafawwug52amwj.py":46:21)
#loc41 = loc("/NHNHOME/WORKSPACE/26msit001_A/jinhyeok/loop_TTT/lact/.cache_inductor_llm/yn/cynlfi7qf4qi4k2hfecmjzmuum6zkwp4z2f6lmnafawwug52amwj.py":47:21)
#loc42 = loc("/NHNHOME/WORKSPACE/26msit001_A/jinhyeok/loop_TTT/lact/.cache_inductor_llm/yn/cynlfi7qf4qi4k2hfecmjzmuum6zkwp4z2f6lmnafawwug52amwj.py":48:35)
#loc43 = loc("/NHNHOME/WORKSPACE/26msit001_A/jinhyeok/loop_TTT/lact/.cache_inductor_llm/yn/cynlfi7qf4qi4k2hfecmjzmuum6zkwp4z2f6lmnafawwug52amwj.py":49:20)
#loc44 = loc("/NHNHOME/WORKSPACE/26msit001_A/jinhyeok/loop_TTT/lact/.cache_inductor_llm/yn/cynlfi7qf4qi4k2hfecmjzmuum6zkwp4z2f6lmnafawwug52amwj.py":50:19)
#loc45 = loc("/NHNHOME/WORKSPACE/26msit001_A/jinhyeok/loop_TTT/lact/.cache_inductor_llm/yn/cynlfi7qf4qi4k2hfecmjzmuum6zkwp4z2f6lmnafawwug52amwj.py":51:4)
#loc46 = loc("/NHNHOME/WORKSPACE/26msit001_A/jinhyeok/loop_TTT/lact/.cache_inductor_llm/yn/cynlfi7qf4qi4k2hfecmjzmuum6zkwp4z2f6lmnafawwug52amwj.py":52:49)
#loc47 = loc("/NHNHOME/WORKSPACE/26msit001_A/jinhyeok/loop_TTT/lact/.cache_inductor_llm/yn/cynlfi7qf4qi4k2hfecmjzmuum6zkwp4z2f6lmnafawwug52amwj.py":52:4)
#loc58 = loc("tmp1"(#loc2))
#loc59 = loc("yoffset"(#loc3))
#loc60 = loc("yoffset"(#loc4))
#loc61 = loc("yindex"(#loc5))
#loc62 = loc("yindex"(#loc6))
#loc63 = loc("yindex"(#loc7))
#loc64 = loc("xoffset"(#loc8))
#loc65 = loc("xmask"(#loc9))
#loc66 = loc("y0"(#loc10))
#loc67 = loc("y1"(#loc11))
#loc68 = loc("tmp0"(#loc12))
#loc69 = loc("tmp0"(#loc13))
#loc70 = loc("xindex"(#loc14))
#loc71 = loc("tmp0"(#loc15))
#loc72 = loc("tmp0"(#loc16))
#loc73 = loc("tmp1"(#loc17))
#loc74 = loc("tmp1"(#loc18))
#loc75 = loc("tmp1"(#loc19))
#loc76 = loc("tmp1"(#loc20))
#loc77 = loc("tmp1"(#loc21))
#loc78 = loc("tmp1"(#loc22))
#loc79 = loc("tmp4"(#loc23))
#loc80 = loc("tmp4"(#loc24))
#loc81 = loc("tmp4"(#loc25))
#loc82 = loc("tmp7"(#loc26))
#loc83 = loc("tmp7"(#loc27))
#loc84 = loc("tmp8"(#loc28))
#loc85 = loc("tmp8"(#loc29))
#loc86 = loc("tmp10"(#loc30))
#loc87 = loc("tmp10"(#loc31))
#loc88 = loc("tmp12"(#loc32))
#loc89 = loc("tmp12"(#loc33))
#loc90 = loc("tmp15"(#loc34))
#loc91 = loc("tmp15"(#loc35))
#loc92 = loc("tmp3"(#loc36))
#loc93 = loc("tmp6"(#loc37))
#loc94 = loc("tmp9"(#loc38))
#loc95 = loc("tmp11"(#loc39))
#loc96 = loc("tmp14"(#loc40))
#loc97 = loc("tmp16"(#loc41))
#loc98 = loc("tmp17"(#loc42))
#loc99 = loc("tmp18"(#loc43))
#loc100 = loc("tmp19"(#loc44))
#loc101 = loc(fused[#loc69, #loc70])
#loc102 = loc(fused[#loc72, #loc65])
#loc103 = loc(fused[#loc74, #loc73])
