#loc = loc("/NHNHOME/WORKSPACE/26msit001_A/jinhyeok/loop_TTT/lact/.cache_inductor_llm/zo/czohrdpaozmmu32aouhfgogxmgs3qz4qa4vm3n2kynpuf3wqmuyd.py":18:0)
#loc51 = loc("in_ptr0"(#loc))
#loc52 = loc("in_ptr1"(#loc))
#loc53 = loc("in_ptr2"(#loc))
#loc54 = loc("in_ptr3"(#loc))
#loc55 = loc("out_ptr0"(#loc))
#loc56 = loc("out_ptr1"(#loc))
#loc57 = loc("out_ptr2"(#loc))
#loc58 = loc("ynumel"(#loc))
#loc59 = loc("xnumel"(#loc))
module {
  tt.func public @triton_poi_fused__to_copy_add_div_linalg_vector_norm_mean_mul_slice_transpose_zeros_like_10(%in_ptr0: !tt.ptr<bf16> {tt.divisibility = 16 : i32} loc("in_ptr0"(#loc)), %in_ptr1: !tt.ptr<f32> {tt.divisibility = 16 : i32} loc("in_ptr1"(#loc)), %in_ptr2: !tt.ptr<f32> {tt.divisibility = 16 : i32} loc("in_ptr2"(#loc)), %in_ptr3: !tt.ptr<bf16> {tt.divisibility = 16 : i32} loc("in_ptr3"(#loc)), %out_ptr0: !tt.ptr<bf16> {tt.divisibility = 16 : i32} loc("out_ptr0"(#loc)), %out_ptr1: !tt.ptr<bf16> {tt.divisibility = 16 : i32} loc("out_ptr1"(#loc)), %out_ptr2: !tt.ptr<bf16> {tt.divisibility = 16 : i32} loc("out_ptr2"(#loc)), %ynumel: i32 {tt.divisibility = 16 : i32} loc("ynumel"(#loc)), %xnumel: i32 {tt.divisibility = 16 : i32} loc("xnumel"(#loc))) attributes {noinline = false} {
    %cst = arith.constant dense<36864> : tensor<32x1xi32> loc(#loc1)
    %tmp16 = arith.constant dense<4.084800e+00> : tensor<32x32xf32> loc(#loc60)
    %tmp13 = arith.constant dense<1.000000e-07> : tensor<32x1xf32> loc(#loc61)
    %tmp6 = arith.constant dense<0.000000e+00> : tensor<32x1xf32> loc(#loc62)
    %tmp4 = arith.constant dense<1.024000e+03> : tensor<32x1xf32> loc(#loc63)
    %cst_0 = arith.constant dense<192> : tensor<32x1xi32> loc(#loc6)
    %cst_1 = arith.constant dense<192> : tensor<1x32xi32> loc(#loc6)
    %c32_i32 = arith.constant 32 : i32 loc(#loc6)
    %yoffset = tt.get_program_id y : i32 loc(#loc64)
    %yoffset_2 = tt.get_program_id z : i32 loc(#loc65)
    %yoffset_3 = tt.get_num_programs y : i32 loc(#loc66)
    %yoffset_4 = arith.muli %yoffset_2, %yoffset_3 : i32 loc(#loc67)
    %yoffset_5 = arith.addi %yoffset, %yoffset_4 : i32 loc(#loc68)
    %yoffset_6 = arith.muli %yoffset_5, %c32_i32 : i32 loc(#loc69)
    %yindex = tt.make_range {end = 32 : i32, start = 0 : i32} : tensor<32xi32> loc(#loc70)
    %yindex_7 = tt.expand_dims %yindex {axis = 1 : i32} : tensor<32xi32> -> tensor<32x1xi32> loc(#loc71)
    %yindex_8 = tt.splat %yoffset_6 : i32 -> tensor<32x1xi32> loc(#loc72)
    %yindex_9 = arith.addi %yindex_8, %yindex_7 : tensor<32x1xi32> loc(#loc72)
    %ymask = tt.splat %ynumel : i32 -> tensor<32x1xi32> loc(#loc73)
    %ymask_10 = arith.cmpi slt, %yindex_9, %ymask : tensor<32x1xi32> loc(#loc73)
    %xoffset = tt.get_program_id x : i32 loc(#loc74)
    %xoffset_11 = arith.muli %xoffset, %c32_i32 : i32 loc(#loc75)
    %xindex = tt.expand_dims %yindex {axis = 0 : i32} : tensor<32xi32> -> tensor<1x32xi32> loc(#loc76)
    %xindex_12 = tt.splat %xoffset_11 : i32 -> tensor<1x32xi32> loc(#loc77)
    %xindex_13 = arith.addi %xindex_12, %xindex : tensor<1x32xi32> loc(#loc77)
    %xmask = arith.cmpi slt, %xindex_13, %cst_1 : tensor<1x32xi32> loc(#loc78)
    %y1 = arith.divsi %yindex_9, %cst_0 : tensor<32x1xi32> loc(#loc79)
    %y0 = arith.remsi %yindex_9, %cst_0 : tensor<32x1xi32> loc(#loc80)
    %tmp0 = arith.muli %yindex_9, %cst_0 : tensor<32x1xi32> loc(#loc81)
    %tmp0_14 = tt.broadcast %xindex_13 : tensor<1x32xi32> -> tensor<32x32xi32> loc(#loc82)
    %tmp0_15 = tt.broadcast %tmp0 : tensor<32x1xi32> -> tensor<32x32xi32> loc(#loc82)
    %tmp0_16 = arith.addi %tmp0_14, %tmp0_15 : tensor<32x32xi32> loc(#loc82)
    %tmp0_17 = tt.splat %in_ptr0 : !tt.ptr<bf16> -> tensor<32x32x!tt.ptr<bf16>> loc(#loc83)
    %tmp0_18 = tt.addptr %tmp0_17, %tmp0_16 : tensor<32x32x!tt.ptr<bf16>>, tensor<32x32xi32> loc(#loc83)
    %tmp0_19 = tt.broadcast %xmask : tensor<1x32xi1> -> tensor<32x32xi1> loc(#loc84)
    %tmp0_20 = tt.broadcast %ymask_10 : tensor<32x1xi1> -> tensor<32x32xi1> loc(#loc84)
    %tmp0_21 = arith.andi %tmp0_19, %tmp0_20 : tensor<32x32xi1> loc(#loc84)
    %tmp0_22 = tt.load %tmp0_18, %tmp0_21 evictionPolicy = evict_last : tensor<32x32x!tt.ptr<bf16>> loc(#loc85)
    %tmp0_23 = arith.extf %tmp0_22 : tensor<32x32xbf16> to tensor<32x32xf32> loc(#loc86)
    %tmp2 = tt.splat %in_ptr1 : !tt.ptr<f32> -> tensor<32x1x!tt.ptr<f32>> loc(#loc87)
    %tmp2_24 = tt.addptr %tmp2, %y1 : tensor<32x1x!tt.ptr<f32>>, tensor<32x1xi32> loc(#loc87)
    %tmp2_25 = tt.load %tmp2_24, %ymask_10 evictionPolicy = evict_last : tensor<32x1x!tt.ptr<f32>> loc(#loc88)
    %tmp10 = tt.splat %in_ptr2 : !tt.ptr<f32> -> tensor<32x1x!tt.ptr<f32>> loc(#loc89)
    %tmp10_26 = tt.addptr %tmp10, %y1 : tensor<32x1x!tt.ptr<f32>>, tensor<32x1xi32> loc(#loc89)
    %tmp10_27 = tt.load %tmp10_26, %ymask_10 evictionPolicy = evict_last : tensor<32x1x!tt.ptr<f32>> loc(#loc90)
    %tmp17 = tt.splat %in_ptr3 : !tt.ptr<bf16> -> tensor<32x32x!tt.ptr<bf16>> loc(#loc91)
    %tmp17_28 = tt.addptr %tmp17, %tmp0_16 : tensor<32x32x!tt.ptr<bf16>>, tensor<32x32xi32> loc(#loc91)
    %tmp17_29 = tt.load %tmp17_28, %tmp0_21 evictionPolicy = evict_last : tensor<32x32x!tt.ptr<bf16>> loc(#loc92)
    %tmp17_30 = arith.extf %tmp17_29 : tensor<32x32xbf16> to tensor<32x32xf32> loc(#loc93)
    %tmp4_31 = arith.divf %tmp2_25, %tmp4 : tensor<32x1xf32> loc(#loc63)
    %tmp6_32 = arith.mulf %tmp4_31, %tmp6 : tensor<32x1xf32> loc(#loc62)
    %tmp7 = tt.broadcast %tmp6_32 : tensor<32x1xf32> -> tensor<32x32xf32> loc(#loc94)
    %tmp7_33 = arith.addf %tmp0_23, %tmp7 : tensor<32x32xf32> loc(#loc94)
    %tmp11 = tt.extern_elementwise %tmp10_27 {libname = "", libpath = "", pure = true, symbol = "__nv_sqrtf"} : (tensor<32x1xf32>) -> tensor<32x1xf32> loc(#loc95)
    %tmp13_34 = arith.addf %tmp11, %tmp13 : tensor<32x1xf32> loc(#loc61)
    %tmp14 = tt.broadcast %tmp13_34 : tensor<32x1xf32> -> tensor<32x32xf32> loc(#loc96)
    %tmp14_35 = arith.divf %tmp7_33, %tmp14 : tensor<32x32xf32> loc(#loc96)
    %tmp16_36 = arith.mulf %tmp14_35, %tmp16 : tensor<32x32xf32> loc(#loc60)
    %tmp19 = arith.addf %tmp16_36, %tmp17_30 : tensor<32x32xf32> loc(#loc97)
    %0 = tt.splat %out_ptr0 : !tt.ptr<bf16> -> tensor<32x32x!tt.ptr<bf16>> loc(#loc41)
    %1 = tt.addptr %0, %tmp0_16 : tensor<32x32x!tt.ptr<bf16>>, tensor<32x32xi32> loc(#loc41)
    %2 = arith.truncf %tmp19 : tensor<32x32xf32> to tensor<32x32xbf16> loc(#loc42)
    tt.store %1, %2, %tmp0_21 : tensor<32x32x!tt.ptr<bf16>> loc(#loc42)
    %3 = arith.muli %xindex_13, %cst_1 : tensor<1x32xi32> loc(#loc43)
    %4 = tt.broadcast %y0 : tensor<32x1xi32> -> tensor<32x32xi32> loc(#loc44)
    %5 = tt.broadcast %3 : tensor<1x32xi32> -> tensor<32x32xi32> loc(#loc44)
    %6 = arith.addi %4, %5 : tensor<32x32xi32> loc(#loc44)
    %7 = arith.muli %y1, %cst : tensor<32x1xi32> loc(#loc1)
    %8 = tt.broadcast %7 : tensor<32x1xi32> -> tensor<32x32xi32> loc(#loc45)
    %9 = arith.addi %6, %8 : tensor<32x32xi32> loc(#loc45)
    %10 = tt.splat %out_ptr1 : !tt.ptr<bf16> -> tensor<32x32x!tt.ptr<bf16>> loc(#loc46)
    %11 = tt.addptr %10, %9 : tensor<32x32x!tt.ptr<bf16>>, tensor<32x32xi32> loc(#loc46)
    tt.store %11, %2, %tmp0_21 : tensor<32x32x!tt.ptr<bf16>> loc(#loc47)
    %12 = tt.splat %out_ptr2 : !tt.ptr<bf16> -> tensor<32x32x!tt.ptr<bf16>> loc(#loc48)
    %13 = tt.addptr %12, %tmp0_16 : tensor<32x32x!tt.ptr<bf16>>, tensor<32x32xi32> loc(#loc48)
    tt.store %13, %2, %tmp0_21 : tensor<32x32x!tt.ptr<bf16>> loc(#loc49)
    tt.return loc(#loc50)
  } loc(#loc)
} loc(#loc)
#loc1 = loc("/NHNHOME/WORKSPACE/26msit001_A/jinhyeok/loop_TTT/lact/.cache_inductor_llm/zo/czohrdpaozmmu32aouhfgogxmgs3qz4qa4vm3n2kynpuf3wqmuyd.py":52:45)
#loc2 = loc("/NHNHOME/WORKSPACE/26msit001_A/jinhyeok/loop_TTT/lact/.cache_inductor_llm/zo/czohrdpaozmmu32aouhfgogxmgs3qz4qa4vm3n2kynpuf3wqmuyd.py":47:20)
#loc3 = loc("/NHNHOME/WORKSPACE/26msit001_A/jinhyeok/loop_TTT/lact/.cache_inductor_llm/zo/czohrdpaozmmu32aouhfgogxmgs3qz4qa4vm3n2kynpuf3wqmuyd.py":44:20)
#loc4 = loc("/NHNHOME/WORKSPACE/26msit001_A/jinhyeok/loop_TTT/lact/.cache_inductor_llm/zo/czohrdpaozmmu32aouhfgogxmgs3qz4qa4vm3n2kynpuf3wqmuyd.py":38:18)
#loc5 = loc("/NHNHOME/WORKSPACE/26msit001_A/jinhyeok/loop_TTT/lact/.cache_inductor_llm/zo/czohrdpaozmmu32aouhfgogxmgs3qz4qa4vm3n2kynpuf3wqmuyd.py":36:19)
#loc6 = loc(unknown)
#loc7 = loc("/NHNHOME/WORKSPACE/26msit001_A/jinhyeok/loop_TTT/lact/.cache_inductor_llm/zo/czohrdpaozmmu32aouhfgogxmgs3qz4qa4vm3n2kynpuf3wqmuyd.py":20:29)
#loc8 = loc("/NHNHOME/WORKSPACE/26msit001_A/jinhyeok/loop_TTT/lact/.cache_inductor_llm/zo/czohrdpaozmmu32aouhfgogxmgs3qz4qa4vm3n2kynpuf3wqmuyd.py":20:48)
#loc9 = loc("/NHNHOME/WORKSPACE/26msit001_A/jinhyeok/loop_TTT/lact/.cache_inductor_llm/zo/czohrdpaozmmu32aouhfgogxmgs3qz4qa4vm3n2kynpuf3wqmuyd.py":20:69)
#loc10 = loc("/NHNHOME/WORKSPACE/26msit001_A/jinhyeok/loop_TTT/lact/.cache_inductor_llm/zo/czohrdpaozmmu32aouhfgogxmgs3qz4qa4vm3n2kynpuf3wqmuyd.py":20:53)
#loc11 = loc("/NHNHOME/WORKSPACE/26msit001_A/jinhyeok/loop_TTT/lact/.cache_inductor_llm/zo/czohrdpaozmmu32aouhfgogxmgs3qz4qa4vm3n2kynpuf3wqmuyd.py":20:34)
#loc12 = loc("/NHNHOME/WORKSPACE/26msit001_A/jinhyeok/loop_TTT/lact/.cache_inductor_llm/zo/czohrdpaozmmu32aouhfgogxmgs3qz4qa4vm3n2kynpuf3wqmuyd.py":20:75)
#loc13 = loc("/NHNHOME/WORKSPACE/26msit001_A/jinhyeok/loop_TTT/lact/.cache_inductor_llm/zo/czohrdpaozmmu32aouhfgogxmgs3qz4qa4vm3n2kynpuf3wqmuyd.py":21:36)
#loc14 = loc("/NHNHOME/WORKSPACE/26msit001_A/jinhyeok/loop_TTT/lact/.cache_inductor_llm/zo/czohrdpaozmmu32aouhfgogxmgs3qz4qa4vm3n2kynpuf3wqmuyd.py":21:44)
#loc15 = loc("/NHNHOME/WORKSPACE/26msit001_A/jinhyeok/loop_TTT/lact/.cache_inductor_llm/zo/czohrdpaozmmu32aouhfgogxmgs3qz4qa4vm3n2kynpuf3wqmuyd.py":21:23)
#loc16 = loc("/NHNHOME/WORKSPACE/26msit001_A/jinhyeok/loop_TTT/lact/.cache_inductor_llm/zo/czohrdpaozmmu32aouhfgogxmgs3qz4qa4vm3n2kynpuf3wqmuyd.py":22:21)
#loc17 = loc("/NHNHOME/WORKSPACE/26msit001_A/jinhyeok/loop_TTT/lact/.cache_inductor_llm/zo/czohrdpaozmmu32aouhfgogxmgs3qz4qa4vm3n2kynpuf3wqmuyd.py":23:28)
#loc18 = loc("/NHNHOME/WORKSPACE/26msit001_A/jinhyeok/loop_TTT/lact/.cache_inductor_llm/zo/czohrdpaozmmu32aouhfgogxmgs3qz4qa4vm3n2kynpuf3wqmuyd.py":23:33)
#loc19 = loc("/NHNHOME/WORKSPACE/26msit001_A/jinhyeok/loop_TTT/lact/.cache_inductor_llm/zo/czohrdpaozmmu32aouhfgogxmgs3qz4qa4vm3n2kynpuf3wqmuyd.py":24:44)
#loc20 = loc("/NHNHOME/WORKSPACE/26msit001_A/jinhyeok/loop_TTT/lact/.cache_inductor_llm/zo/czohrdpaozmmu32aouhfgogxmgs3qz4qa4vm3n2kynpuf3wqmuyd.py":24:23)
#loc21 = loc("/NHNHOME/WORKSPACE/26msit001_A/jinhyeok/loop_TTT/lact/.cache_inductor_llm/zo/czohrdpaozmmu32aouhfgogxmgs3qz4qa4vm3n2kynpuf3wqmuyd.py":25:21)
#loc22 = loc("/NHNHOME/WORKSPACE/26msit001_A/jinhyeok/loop_TTT/lact/.cache_inductor_llm/zo/czohrdpaozmmu32aouhfgogxmgs3qz4qa4vm3n2kynpuf3wqmuyd.py":28:19)
#loc23 = loc("/NHNHOME/WORKSPACE/26msit001_A/jinhyeok/loop_TTT/lact/.cache_inductor_llm/zo/czohrdpaozmmu32aouhfgogxmgs3qz4qa4vm3n2kynpuf3wqmuyd.py":29:19)
#loc24 = loc("/NHNHOME/WORKSPACE/26msit001_A/jinhyeok/loop_TTT/lact/.cache_inductor_llm/zo/czohrdpaozmmu32aouhfgogxmgs3qz4qa4vm3n2kynpuf3wqmuyd.py":30:39)
#loc25 = loc("/NHNHOME/WORKSPACE/26msit001_A/jinhyeok/loop_TTT/lact/.cache_inductor_llm/zo/czohrdpaozmmu32aouhfgogxmgs3qz4qa4vm3n2kynpuf3wqmuyd.py":30:35)
#loc26 = loc("/NHNHOME/WORKSPACE/26msit001_A/jinhyeok/loop_TTT/lact/.cache_inductor_llm/zo/czohrdpaozmmu32aouhfgogxmgs3qz4qa4vm3n2kynpuf3wqmuyd.py":30:30)
#loc27 = loc("/NHNHOME/WORKSPACE/26msit001_A/jinhyeok/loop_TTT/lact/.cache_inductor_llm/zo/czohrdpaozmmu32aouhfgogxmgs3qz4qa4vm3n2kynpuf3wqmuyd.py":30:52)
#loc28 = loc("/NHNHOME/WORKSPACE/26msit001_A/jinhyeok/loop_TTT/lact/.cache_inductor_llm/zo/czohrdpaozmmu32aouhfgogxmgs3qz4qa4vm3n2kynpuf3wqmuyd.py":30:44)
#loc29 = loc("/NHNHOME/WORKSPACE/26msit001_A/jinhyeok/loop_TTT/lact/.cache_inductor_llm/zo/czohrdpaozmmu32aouhfgogxmgs3qz4qa4vm3n2kynpuf3wqmuyd.py":30:92)
#loc30 = loc("/NHNHOME/WORKSPACE/26msit001_A/jinhyeok/loop_TTT/lact/.cache_inductor_llm/zo/czohrdpaozmmu32aouhfgogxmgs3qz4qa4vm3n2kynpuf3wqmuyd.py":31:30)
#loc31 = loc("/NHNHOME/WORKSPACE/26msit001_A/jinhyeok/loop_TTT/lact/.cache_inductor_llm/zo/czohrdpaozmmu32aouhfgogxmgs3qz4qa4vm3n2kynpuf3wqmuyd.py":31:35)
#loc32 = loc("/NHNHOME/WORKSPACE/26msit001_A/jinhyeok/loop_TTT/lact/.cache_inductor_llm/zo/czohrdpaozmmu32aouhfgogxmgs3qz4qa4vm3n2kynpuf3wqmuyd.py":32:31)
#loc33 = loc("/NHNHOME/WORKSPACE/26msit001_A/jinhyeok/loop_TTT/lact/.cache_inductor_llm/zo/czohrdpaozmmu32aouhfgogxmgs3qz4qa4vm3n2kynpuf3wqmuyd.py":32:36)
#loc34 = loc("/NHNHOME/WORKSPACE/26msit001_A/jinhyeok/loop_TTT/lact/.cache_inductor_llm/zo/czohrdpaozmmu32aouhfgogxmgs3qz4qa4vm3n2kynpuf3wqmuyd.py":33:31)
#loc35 = loc("/NHNHOME/WORKSPACE/26msit001_A/jinhyeok/loop_TTT/lact/.cache_inductor_llm/zo/czohrdpaozmmu32aouhfgogxmgs3qz4qa4vm3n2kynpuf3wqmuyd.py":33:45)
#loc36 = loc("/NHNHOME/WORKSPACE/26msit001_A/jinhyeok/loop_TTT/lact/.cache_inductor_llm/zo/czohrdpaozmmu32aouhfgogxmgs3qz4qa4vm3n2kynpuf3wqmuyd.py":33:93)
#loc37 = loc("/NHNHOME/WORKSPACE/26msit001_A/jinhyeok/loop_TTT/lact/.cache_inductor_llm/zo/czohrdpaozmmu32aouhfgogxmgs3qz4qa4vm3n2kynpuf3wqmuyd.py":39:18)
#loc38 = loc("/NHNHOME/WORKSPACE/26msit001_A/jinhyeok/loop_TTT/lact/.cache_inductor_llm/zo/czohrdpaozmmu32aouhfgogxmgs3qz4qa4vm3n2kynpuf3wqmuyd.py":42:27)
#loc39 = loc("/NHNHOME/WORKSPACE/26msit001_A/jinhyeok/loop_TTT/lact/.cache_inductor_llm/zo/czohrdpaozmmu32aouhfgogxmgs3qz4qa4vm3n2kynpuf3wqmuyd.py":45:20)
#loc40 = loc("/NHNHOME/WORKSPACE/26msit001_A/jinhyeok/loop_TTT/lact/.cache_inductor_llm/zo/czohrdpaozmmu32aouhfgogxmgs3qz4qa4vm3n2kynpuf3wqmuyd.py":49:20)
#loc41 = loc("/NHNHOME/WORKSPACE/26msit001_A/jinhyeok/loop_TTT/lact/.cache_inductor_llm/zo/czohrdpaozmmu32aouhfgogxmgs3qz4qa4vm3n2kynpuf3wqmuyd.py":51:25)
#loc42 = loc("/NHNHOME/WORKSPACE/26msit001_A/jinhyeok/loop_TTT/lact/.cache_inductor_llm/zo/czohrdpaozmmu32aouhfgogxmgs3qz4qa4vm3n2kynpuf3wqmuyd.py":51:46)
#loc43 = loc("/NHNHOME/WORKSPACE/26msit001_A/jinhyeok/loop_TTT/lact/.cache_inductor_llm/zo/czohrdpaozmmu32aouhfgogxmgs3qz4qa4vm3n2kynpuf3wqmuyd.py":52:34)
#loc44 = loc("/NHNHOME/WORKSPACE/26msit001_A/jinhyeok/loop_TTT/lact/.cache_inductor_llm/zo/czohrdpaozmmu32aouhfgogxmgs3qz4qa4vm3n2kynpuf3wqmuyd.py":52:30)
#loc45 = loc("/NHNHOME/WORKSPACE/26msit001_A/jinhyeok/loop_TTT/lact/.cache_inductor_llm/zo/czohrdpaozmmu32aouhfgogxmgs3qz4qa4vm3n2kynpuf3wqmuyd.py":52:39)
#loc46 = loc("/NHNHOME/WORKSPACE/26msit001_A/jinhyeok/loop_TTT/lact/.cache_inductor_llm/zo/czohrdpaozmmu32aouhfgogxmgs3qz4qa4vm3n2kynpuf3wqmuyd.py":52:25)
#loc47 = loc("/NHNHOME/WORKSPACE/26msit001_A/jinhyeok/loop_TTT/lact/.cache_inductor_llm/zo/czohrdpaozmmu32aouhfgogxmgs3qz4qa4vm3n2kynpuf3wqmuyd.py":52:57)
#loc48 = loc("/NHNHOME/WORKSPACE/26msit001_A/jinhyeok/loop_TTT/lact/.cache_inductor_llm/zo/czohrdpaozmmu32aouhfgogxmgs3qz4qa4vm3n2kynpuf3wqmuyd.py":53:25)
#loc49 = loc("/NHNHOME/WORKSPACE/26msit001_A/jinhyeok/loop_TTT/lact/.cache_inductor_llm/zo/czohrdpaozmmu32aouhfgogxmgs3qz4qa4vm3n2kynpuf3wqmuyd.py":53:46)
#loc50 = loc("/NHNHOME/WORKSPACE/26msit001_A/jinhyeok/loop_TTT/lact/.cache_inductor_llm/zo/czohrdpaozmmu32aouhfgogxmgs3qz4qa4vm3n2kynpuf3wqmuyd.py":53:4)
#loc60 = loc("tmp16"(#loc2))
#loc61 = loc("tmp13"(#loc3))
#loc62 = loc("tmp6"(#loc4))
#loc63 = loc("tmp4"(#loc5))
#loc64 = loc("yoffset"(#loc7))
#loc65 = loc("yoffset"(#loc8))
#loc66 = loc("yoffset"(#loc9))
#loc67 = loc("yoffset"(#loc10))
#loc68 = loc("yoffset"(#loc11))
#loc69 = loc("yoffset"(#loc12))
#loc70 = loc("yindex"(#loc13))
#loc71 = loc("yindex"(#loc14))
#loc72 = loc("yindex"(#loc15))
#loc73 = loc("ymask"(#loc16))
#loc74 = loc("xoffset"(#loc17))
#loc75 = loc("xoffset"(#loc18))
#loc76 = loc("xindex"(#loc19))
#loc77 = loc("xindex"(#loc20))
#loc78 = loc("xmask"(#loc21))
#loc79 = loc("y1"(#loc22))
#loc80 = loc("y0"(#loc23))
#loc81 = loc("tmp0"(#loc24))
#loc82 = loc("tmp0"(#loc25))
#loc83 = loc("tmp0"(#loc26))
#loc84 = loc("tmp0"(#loc27))
#loc85 = loc("tmp0"(#loc28))
#loc86 = loc("tmp0"(#loc29))
#loc87 = loc("tmp2"(#loc30))
#loc88 = loc("tmp2"(#loc31))
#loc89 = loc("tmp10"(#loc32))
#loc90 = loc("tmp10"(#loc33))
#loc91 = loc("tmp17"(#loc34))
#loc92 = loc("tmp17"(#loc35))
#loc93 = loc("tmp17"(#loc36))
#loc94 = loc("tmp7"(#loc37))
#loc95 = loc("tmp11"(#loc38))
#loc96 = loc("tmp14"(#loc39))
#loc97 = loc("tmp19"(#loc40))
