#loc = loc("/NHNHOME/WORKSPACE/26msit001_A/jinhyeok/loop_TTT/lact/.cache_inductor_llm/ru/crulnsb6lof2xrnw5k6tgxearrwdyzwcdfdzlbjdyt5nsyp564bt.py":18:0)
#loc18 = loc("in_ptr0"(#loc))
#loc19 = loc("out_ptr0"(#loc))
#loc20 = loc("out_ptr1"(#loc))
#loc21 = loc("xnumel"(#loc))
module {
  tt.func public @triton_poi_fused__to_copy_slice_transpose_0(%in_ptr0: !tt.ptr<f32> {tt.divisibility = 16 : i32} loc("in_ptr0"(#loc)), %out_ptr0: !tt.ptr<bf16> {tt.divisibility = 16 : i32} loc("out_ptr0"(#loc)), %out_ptr1: !tt.ptr<bf16> {tt.divisibility = 16 : i32} loc("out_ptr1"(#loc)), %xnumel: i32 {tt.divisibility = 16 : i32} loc("xnumel"(#loc))) attributes {noinline = false} {
    %xnumel_0 = arith.constant 6291456 : i32 loc(#loc22)
    %xoffset = tt.get_program_id x : i32 loc(#loc23)
    %xoffset_1 = arith.constant 1024 : i32 loc(#loc24)
    %xoffset_2 = arith.constant 1024 : i32 loc(#loc24)
    %xoffset_3 = arith.muli %xoffset, %xoffset_2 : i32 loc(#loc24)
    %xindex = tt.make_range {end = 1024 : i32, start = 0 : i32} : tensor<1024xi32> loc(#loc25)
    %xindex_4 = tt.splat %xoffset_3 : i32 -> tensor<1024xi32> loc(#loc26)
    %xindex_5 = arith.addi %xindex_4, %xindex : tensor<1024xi32> loc(#loc26)
    %xmask = arith.constant true loc(#loc27)
    %xmask_6 = arith.constant dense<true> : tensor<1024xi1> loc(#loc27)
    %x0 = arith.constant 196608 : i32 loc(#loc28)
    %x0_7 = arith.constant 196608 : i32 loc(#loc28)
    %x0_8 = arith.constant dense<196608> : tensor<1024xi32> loc(#loc28)
    %x0_9 = arith.remsi %xindex_5, %x0_8 : tensor<1024xi32> loc(#loc28)
    %x1 = arith.constant 196608 : i32 loc(#loc29)
    %x1_10 = arith.constant 196608 : i32 loc(#loc29)
    %x1_11 = arith.constant dense<196608> : tensor<1024xi32> loc(#loc29)
    %x1_12 = arith.divsi %xindex_5, %x1_11 : tensor<1024xi32> loc(#loc29)
    %tmp0 = arith.constant 786432 : i32 loc(#loc30)
    %tmp0_13 = arith.constant 786432 : i32 loc(#loc30)
    %tmp0_14 = arith.constant dense<786432> : tensor<1024xi32> loc(#loc30)
    %tmp0_15 = arith.muli %tmp0_14, %x1_12 : tensor<1024xi32> loc(#loc30)
    %tmp0_16 = arith.addi %x0_9, %tmp0_15 : tensor<1024xi32> loc(#loc31)
    %tmp0_17 = tt.splat %in_ptr0 : !tt.ptr<f32> -> tensor<1024x!tt.ptr<f32>> loc(#loc32)
    %tmp0_18 = tt.addptr %tmp0_17, %tmp0_16 : tensor<1024x!tt.ptr<f32>>, tensor<1024xi32> loc(#loc32)
    %tmp0_19 = tt.load %tmp0_18 : tensor<1024x!tt.ptr<f32>> loc(#loc33)
    %0 = tt.splat %out_ptr0 : !tt.ptr<bf16> -> tensor<1024x!tt.ptr<bf16>> loc(#loc13)
    %1 = tt.addptr %0, %xindex_5 : tensor<1024x!tt.ptr<bf16>>, tensor<1024xi32> loc(#loc13)
    %2 = arith.truncf %tmp0_19 : tensor<1024xf32> to tensor<1024xbf16> loc(#loc14)
    tt.store %1, %2 : tensor<1024x!tt.ptr<bf16>> loc(#loc14)
    %3 = tt.splat %out_ptr1 : !tt.ptr<bf16> -> tensor<1024x!tt.ptr<bf16>> loc(#loc15)
    %4 = tt.addptr %3, %xindex_5 : tensor<1024x!tt.ptr<bf16>>, tensor<1024xi32> loc(#loc15)
    %5 = arith.truncf %tmp0_19 : tensor<1024xf32> to tensor<1024xbf16> loc(#loc16)
    tt.store %4, %5 : tensor<1024x!tt.ptr<bf16>> loc(#loc16)
    tt.return loc(#loc17)
  } loc(#loc)
} loc(#loc)
#loc1 = loc("/NHNHOME/WORKSPACE/26msit001_A/jinhyeok/loop_TTT/lact/.cache_inductor_llm/ru/crulnsb6lof2xrnw5k6tgxearrwdyzwcdfdzlbjdyt5nsyp564bt.py":19:13)
#loc2 = loc("/NHNHOME/WORKSPACE/26msit001_A/jinhyeok/loop_TTT/lact/.cache_inductor_llm/ru/crulnsb6lof2xrnw5k6tgxearrwdyzwcdfdzlbjdyt5nsyp564bt.py":20:28)
#loc3 = loc("/NHNHOME/WORKSPACE/26msit001_A/jinhyeok/loop_TTT/lact/.cache_inductor_llm/ru/crulnsb6lof2xrnw5k6tgxearrwdyzwcdfdzlbjdyt5nsyp564bt.py":20:33)
#loc4 = loc("/NHNHOME/WORKSPACE/26msit001_A/jinhyeok/loop_TTT/lact/.cache_inductor_llm/ru/crulnsb6lof2xrnw5k6tgxearrwdyzwcdfdzlbjdyt5nsyp564bt.py":21:36)
#loc5 = loc("/NHNHOME/WORKSPACE/26msit001_A/jinhyeok/loop_TTT/lact/.cache_inductor_llm/ru/crulnsb6lof2xrnw5k6tgxearrwdyzwcdfdzlbjdyt5nsyp564bt.py":21:23)
#loc6 = loc("/NHNHOME/WORKSPACE/26msit001_A/jinhyeok/loop_TTT/lact/.cache_inductor_llm/ru/crulnsb6lof2xrnw5k6tgxearrwdyzwcdfdzlbjdyt5nsyp564bt.py":22:36)
#loc7 = loc("/NHNHOME/WORKSPACE/26msit001_A/jinhyeok/loop_TTT/lact/.cache_inductor_llm/ru/crulnsb6lof2xrnw5k6tgxearrwdyzwcdfdzlbjdyt5nsyp564bt.py":23:19)
#loc8 = loc("/NHNHOME/WORKSPACE/26msit001_A/jinhyeok/loop_TTT/lact/.cache_inductor_llm/ru/crulnsb6lof2xrnw5k6tgxearrwdyzwcdfdzlbjdyt5nsyp564bt.py":24:19)
#loc9 = loc("/NHNHOME/WORKSPACE/26msit001_A/jinhyeok/loop_TTT/lact/.cache_inductor_llm/ru/crulnsb6lof2xrnw5k6tgxearrwdyzwcdfdzlbjdyt5nsyp564bt.py":26:42)
#loc10 = loc("/NHNHOME/WORKSPACE/26msit001_A/jinhyeok/loop_TTT/lact/.cache_inductor_llm/ru/crulnsb6lof2xrnw5k6tgxearrwdyzwcdfdzlbjdyt5nsyp564bt.py":26:35)
#loc11 = loc("/NHNHOME/WORKSPACE/26msit001_A/jinhyeok/loop_TTT/lact/.cache_inductor_llm/ru/crulnsb6lof2xrnw5k6tgxearrwdyzwcdfdzlbjdyt5nsyp564bt.py":26:30)
#loc12 = loc("/NHNHOME/WORKSPACE/26msit001_A/jinhyeok/loop_TTT/lact/.cache_inductor_llm/ru/crulnsb6lof2xrnw5k6tgxearrwdyzwcdfdzlbjdyt5nsyp564bt.py":26:47)
#loc13 = loc("/NHNHOME/WORKSPACE/26msit001_A/jinhyeok/loop_TTT/lact/.cache_inductor_llm/ru/crulnsb6lof2xrnw5k6tgxearrwdyzwcdfdzlbjdyt5nsyp564bt.py":28:25)
#loc14 = loc("/NHNHOME/WORKSPACE/26msit001_A/jinhyeok/loop_TTT/lact/.cache_inductor_llm/ru/crulnsb6lof2xrnw5k6tgxearrwdyzwcdfdzlbjdyt5nsyp564bt.py":28:36)
#loc15 = loc("/NHNHOME/WORKSPACE/26msit001_A/jinhyeok/loop_TTT/lact/.cache_inductor_llm/ru/crulnsb6lof2xrnw5k6tgxearrwdyzwcdfdzlbjdyt5nsyp564bt.py":29:25)
#loc16 = loc("/NHNHOME/WORKSPACE/26msit001_A/jinhyeok/loop_TTT/lact/.cache_inductor_llm/ru/crulnsb6lof2xrnw5k6tgxearrwdyzwcdfdzlbjdyt5nsyp564bt.py":29:36)
#loc17 = loc("/NHNHOME/WORKSPACE/26msit001_A/jinhyeok/loop_TTT/lact/.cache_inductor_llm/ru/crulnsb6lof2xrnw5k6tgxearrwdyzwcdfdzlbjdyt5nsyp564bt.py":29:4)
#loc22 = loc("xnumel"(#loc1))
#loc23 = loc("xoffset"(#loc2))
#loc24 = loc("xoffset"(#loc3))
#loc25 = loc("xindex"(#loc4))
#loc26 = loc("xindex"(#loc5))
#loc27 = loc("xmask"(#loc6))
#loc28 = loc("x0"(#loc7))
#loc29 = loc("x1"(#loc8))
#loc30 = loc("tmp0"(#loc9))
#loc31 = loc("tmp0"(#loc10))
#loc32 = loc("tmp0"(#loc11))
#loc33 = loc("tmp0"(#loc12))
