#loc = loc("/NHNHOME/WORKSPACE/26msit001_A/jinhyeok/loop_TTT/lact/.cache_inductor_llm/n6/cn6qgzzirp6jye7mcpwwndarg4piww3uo4oftaljqv5n2xjofnzy.py":18:0)
#loc1 = loc(unknown)
#loc36 = loc("/NHNHOME/WORKSPACE/26msit001_A/jinhyeok/loop_TTT/lact/.cache_inductor_llm/n6/cn6qgzzirp6jye7mcpwwndarg4piww3uo4oftaljqv5n2xjofnzy.py":56:26)
#loc51 = loc("in_out_ptr0"(#loc))
#loc52 = loc("in_out_ptr1"(#loc))
#loc53 = loc("in_ptr0"(#loc))
#loc54 = loc("in_ptr1"(#loc))
#loc55 = loc("in_ptr2"(#loc))
#loc56 = loc("in_ptr3"(#loc))
#loc57 = loc("in_ptr4"(#loc))
#loc58 = loc("out_ptr0"(#loc))
#loc59 = loc("out_ptr1"(#loc))
#loc60 = loc("xnumel"(#loc))
#loc61 = loc("r0_numel"(#loc))
#loc95 = loc("tmp22"(#loc36))
#loc103 = loc(callsite(#loc1 at #loc95))
module {
  tt.func public @triton_per_fused__to_copy_add_div_linalg_vector_norm_mul_transpose_32(%in_out_ptr0: !tt.ptr<f32> {tt.divisibility = 16 : i32} loc("in_out_ptr0"(#loc)), %in_out_ptr1: !tt.ptr<f32> {tt.divisibility = 16 : i32} loc("in_out_ptr1"(#loc)), %in_ptr0: !tt.ptr<f32> {tt.divisibility = 16 : i32} loc("in_ptr0"(#loc)), %in_ptr1: !tt.ptr<bf16> {tt.divisibility = 16 : i32} loc("in_ptr1"(#loc)), %in_ptr2: !tt.ptr<bf16> {tt.divisibility = 16 : i32} loc("in_ptr2"(#loc)), %in_ptr3: !tt.ptr<bf16> {tt.divisibility = 16 : i32} loc("in_ptr3"(#loc)), %in_ptr4: !tt.ptr<f32> {tt.divisibility = 16 : i32} loc("in_ptr4"(#loc)), %out_ptr0: !tt.ptr<bf16> {tt.divisibility = 16 : i32} loc("out_ptr0"(#loc)), %out_ptr1: !tt.ptr<bf16> {tt.divisibility = 16 : i32} loc("out_ptr1"(#loc)), %xnumel: i32 {tt.divisibility = 16 : i32} loc("xnumel"(#loc)), %r0_numel: i32 {tt.divisibility = 16 : i32} loc("r0_numel"(#loc))) attributes {noinline = false} {
    %c192_i32 = arith.constant 192 : i32 loc(#loc1)
    %xmask = arith.constant 6144 : i32 loc(#loc62)
    %cst = arith.constant dense<0.000000e+00> : tensor<1x256xbf16> loc(#loc1)
    %tmp25 = arith.constant dense<9.99999974E-6> : tensor<1x1xf32> loc(#loc63)
    %tmp13 = arith.constant dense<2.836600e+00> : tensor<1x256xf32> loc(#loc64)
    %tmp8 = arith.constant dense<2.876900e+00> : tensor<1x256xf32> loc(#loc65)
    %tmp3 = arith.constant dense<3.741800e+00> : tensor<1x256xf32> loc(#loc66)
    %cst_0 = arith.constant dense<0.000000e+00> : tensor<1x256xf32> loc(#loc1)
    %r0_mask = arith.constant dense<192> : tensor<1x256xi32> loc(#loc67)
    %xoffset = tt.get_program_id x : i32 loc(#loc68)
    %xmask_1 = arith.cmpi slt, %xoffset, %xmask : i32 loc(#loc62)
    %xmask_2 = tt.splat %xmask_1 : i1 -> tensor<1x1xi1> loc(#loc62)
    %r0_index = tt.make_range {end = 256 : i32, start = 0 : i32} : tensor<256xi32> loc(#loc69)
    %r0_index_3 = tt.expand_dims %r0_index {axis = 0 : i32} : tensor<256xi32> -> tensor<1x256xi32> loc(#loc70)
    %r0_mask_4 = arith.cmpi slt, %r0_index_3, %r0_mask : tensor<1x256xi32> loc(#loc67)
    %tmp0 = arith.muli %xoffset, %c192_i32 : i32 loc(#loc71)
    %tmp0_5 = tt.splat %tmp0 : i32 -> tensor<1x256xi32> loc(#loc100)
    %tmp0_6 = arith.addi %r0_index_3, %tmp0_5 : tensor<1x256xi32> loc(#loc72)
    %tmp0_7 = tt.splat %in_ptr0 : !tt.ptr<f32> -> tensor<1x256x!tt.ptr<f32>> loc(#loc73)
    %tmp0_8 = tt.addptr %tmp0_7, %tmp0_6 : tensor<1x256x!tt.ptr<f32>>, tensor<1x256xi32> loc(#loc73)
    %tmp0_9 = tt.splat %xmask_1 : i1 -> tensor<1x256xi1> loc(#loc101)
    %tmp0_10 = arith.andi %r0_mask_4, %tmp0_9 : tensor<1x256xi1> loc(#loc74)
    %tmp0_11 = tt.load %tmp0_8, %tmp0_10, %cst_0 : tensor<1x256x!tt.ptr<f32>> loc(#loc75)
    %tmp1 = tt.splat %in_out_ptr0 : !tt.ptr<f32> -> tensor<1x256x!tt.ptr<f32>> loc(#loc76)
    %tmp1_12 = tt.addptr %tmp1, %tmp0_6 : tensor<1x256x!tt.ptr<f32>>, tensor<1x256xi32> loc(#loc76)
    %tmp1_13 = tt.load %tmp1_12, %tmp0_10, %cst_0 : tensor<1x256x!tt.ptr<f32>> loc(#loc77)
    %tmp4 = tt.splat %in_ptr1 : !tt.ptr<bf16> -> tensor<1x256x!tt.ptr<bf16>> loc(#loc78)
    %tmp4_14 = tt.addptr %tmp4, %tmp0_6 : tensor<1x256x!tt.ptr<bf16>>, tensor<1x256xi32> loc(#loc78)
    %tmp4_15 = tt.load %tmp4_14, %tmp0_10, %cst : tensor<1x256x!tt.ptr<bf16>> loc(#loc79)
    %tmp4_16 = arith.extf %tmp4_15 : tensor<1x256xbf16> to tensor<1x256xf32> loc(#loc80)
    %tmp9 = tt.splat %in_ptr2 : !tt.ptr<bf16> -> tensor<1x256x!tt.ptr<bf16>> loc(#loc81)
    %tmp9_17 = tt.addptr %tmp9, %tmp0_6 : tensor<1x256x!tt.ptr<bf16>>, tensor<1x256xi32> loc(#loc81)
    %tmp9_18 = tt.load %tmp9_17, %tmp0_10, %cst : tensor<1x256x!tt.ptr<bf16>> loc(#loc82)
    %tmp9_19 = arith.extf %tmp9_18 : tensor<1x256xbf16> to tensor<1x256xf32> loc(#loc83)
    %tmp14 = tt.splat %in_ptr3 : !tt.ptr<bf16> -> tensor<1x256x!tt.ptr<bf16>> loc(#loc84)
    %tmp14_20 = tt.addptr %tmp14, %tmp0_6 : tensor<1x256x!tt.ptr<bf16>>, tensor<1x256xi32> loc(#loc84)
    %tmp14_21 = tt.load %tmp14_20, %tmp0_10, %cst : tensor<1x256x!tt.ptr<bf16>> loc(#loc85)
    %tmp14_22 = arith.extf %tmp14_21 : tensor<1x256xbf16> to tensor<1x256xf32> loc(#loc86)
    %tmp27 = tt.addptr %in_ptr4, %xoffset : !tt.ptr<f32>, i32 loc(#loc87)
    %tmp27_23 = tt.splat %tmp27 : !tt.ptr<f32> -> tensor<1x1x!tt.ptr<f32>> loc(#loc87)
    %tmp27_24 = tt.load %tmp27_23, %xmask_2 evictionPolicy = evict_last : tensor<1x1x!tt.ptr<f32>> loc(#loc88)
    %tmp3_25 = arith.mulf %tmp1_13, %tmp3 : tensor<1x256xf32> loc(#loc66)
    %tmp6 = arith.addf %tmp3_25, %tmp4_16 : tensor<1x256xf32> loc(#loc89)
    %tmp8_26 = arith.mulf %tmp6, %tmp8 : tensor<1x256xf32> loc(#loc65)
    %tmp11 = arith.addf %tmp8_26, %tmp9_19 : tensor<1x256xf32> loc(#loc90)
    %tmp13_27 = arith.mulf %tmp11, %tmp13 : tensor<1x256xf32> loc(#loc64)
    %tmp16 = arith.addf %tmp13_27, %tmp14_22 : tensor<1x256xf32> loc(#loc91)
    %tmp17 = arith.addf %tmp0_11, %tmp16 : tensor<1x256xf32> loc(#loc92)
    %tmp18 = arith.mulf %tmp17, %tmp17 : tensor<1x256xf32> loc(#loc93)
    %tmp21 = arith.select %tmp0_10, %tmp18, %cst_0 : tensor<1x256xi1>, tensor<1x256xf32> loc(#loc94)
    %tmp22 = "tt.reduce"(%tmp21) <{axis = 1 : i32}> ({
    ^bb0(%tmp22_32: f32 loc(callsite(#loc1 at #loc95)), %tmp22_33: f32 loc(callsite(#loc1 at #loc95))):
      %tmp22_34 = arith.addf %tmp22_32, %tmp22_33 : f32 loc(#loc104)
      tt.reduce.return %tmp22_34 : f32 loc(#loc102)
    }) : (tensor<1x256xf32>) -> tensor<1xf32> loc(#loc102)
    %tmp22_28 = tt.expand_dims %tmp22 {axis = 1 : i32} : tensor<1xf32> -> tensor<1x1xf32> loc(#loc96)
    %tmp23 = tt.extern_elementwise %tmp22_28 {libname = "", libpath = "", pure = true, symbol = "__nv_sqrtf"} : (tensor<1x1xf32>) -> tensor<1x1xf32> loc(#loc97)
    %tmp25_29 = arith.addf %tmp23, %tmp25 : tensor<1x1xf32> loc(#loc63)
    %tmp26 = tt.broadcast %tmp25_29 : tensor<1x1xf32> -> tensor<1x256xf32> loc(#loc98)
    %tmp26_30 = arith.divf %tmp17, %tmp26 : tensor<1x256xf32> loc(#loc98)
    %tmp28 = tt.broadcast %tmp27_24 : tensor<1x1xf32> -> tensor<1x256xf32> loc(#loc99)
    %tmp28_31 = arith.mulf %tmp26_30, %tmp28 : tensor<1x256xf32> loc(#loc99)
    tt.store %tmp1_12, %tmp17, %tmp0_10 : tensor<1x256x!tt.ptr<f32>> loc(#loc42)
    gpu.barrier loc(#loc43)
    %0 = tt.addptr %in_out_ptr1, %xoffset : !tt.ptr<f32>, i32 loc(#loc44)
    %1 = tt.splat %0 : !tt.ptr<f32> -> tensor<1x1x!tt.ptr<f32>> loc(#loc44)
    tt.store %1, %tmp23, %xmask_2 : tensor<1x1x!tt.ptr<f32>> loc(#loc45)
    %2 = tt.splat %out_ptr0 : !tt.ptr<bf16> -> tensor<1x256x!tt.ptr<bf16>> loc(#loc46)
    %3 = tt.addptr %2, %tmp0_6 : tensor<1x256x!tt.ptr<bf16>>, tensor<1x256xi32> loc(#loc46)
    %4 = arith.truncf %tmp28_31 : tensor<1x256xf32> to tensor<1x256xbf16> loc(#loc47)
    tt.store %3, %4, %tmp0_10 : tensor<1x256x!tt.ptr<bf16>> loc(#loc47)
    %5 = tt.splat %out_ptr1 : !tt.ptr<bf16> -> tensor<1x256x!tt.ptr<bf16>> loc(#loc48)
    %6 = tt.addptr %5, %tmp0_6 : tensor<1x256x!tt.ptr<bf16>>, tensor<1x256xi32> loc(#loc48)
    tt.store %6, %4, %tmp0_10 : tensor<1x256x!tt.ptr<bf16>> loc(#loc49)
    tt.return loc(#loc50)
  } loc(#loc)
} loc(#loc)
#loc2 = loc("/NHNHOME/WORKSPACE/26msit001_A/jinhyeok/loop_TTT/lact/.cache_inductor_llm/n6/cn6qgzzirp6jye7mcpwwndarg4piww3uo4oftaljqv5n2xjofnzy.py":26:21)
#loc3 = loc("/NHNHOME/WORKSPACE/26msit001_A/jinhyeok/loop_TTT/lact/.cache_inductor_llm/n6/cn6qgzzirp6jye7mcpwwndarg4piww3uo4oftaljqv5n2xjofnzy.py":59:20)
#loc4 = loc("/NHNHOME/WORKSPACE/26msit001_A/jinhyeok/loop_TTT/lact/.cache_inductor_llm/n6/cn6qgzzirp6jye7mcpwwndarg4piww3uo4oftaljqv5n2xjofnzy.py":49:20)
#loc5 = loc("/NHNHOME/WORKSPACE/26msit001_A/jinhyeok/loop_TTT/lact/.cache_inductor_llm/n6/cn6qgzzirp6jye7mcpwwndarg4piww3uo4oftaljqv5n2xjofnzy.py":45:18)
#loc6 = loc("/NHNHOME/WORKSPACE/26msit001_A/jinhyeok/loop_TTT/lact/.cache_inductor_llm/n6/cn6qgzzirp6jye7mcpwwndarg4piww3uo4oftaljqv5n2xjofnzy.py":41:18)
#loc7 = loc("/NHNHOME/WORKSPACE/26msit001_A/jinhyeok/loop_TTT/lact/.cache_inductor_llm/n6/cn6qgzzirp6jye7mcpwwndarg4piww3uo4oftaljqv5n2xjofnzy.py":29:25)
#loc8 = loc("/NHNHOME/WORKSPACE/26msit001_A/jinhyeok/loop_TTT/lact/.cache_inductor_llm/n6/cn6qgzzirp6jye7mcpwwndarg4piww3uo4oftaljqv5n2xjofnzy.py":24:28)
#loc9 = loc("/NHNHOME/WORKSPACE/26msit001_A/jinhyeok/loop_TTT/lact/.cache_inductor_llm/n6/cn6qgzzirp6jye7mcpwwndarg4piww3uo4oftaljqv5n2xjofnzy.py":27:28)
#loc10 = loc("/NHNHOME/WORKSPACE/26msit001_A/jinhyeok/loop_TTT/lact/.cache_inductor_llm/n6/cn6qgzzirp6jye7mcpwwndarg4piww3uo4oftaljqv5n2xjofnzy.py":27:38)
#loc11 = loc("/NHNHOME/WORKSPACE/26msit001_A/jinhyeok/loop_TTT/lact/.cache_inductor_llm/n6/cn6qgzzirp6jye7mcpwwndarg4piww3uo4oftaljqv5n2xjofnzy.py":34:41)
#loc12 = loc("/NHNHOME/WORKSPACE/26msit001_A/jinhyeok/loop_TTT/lact/.cache_inductor_llm/n6/cn6qgzzirp6jye7mcpwwndarg4piww3uo4oftaljqv5n2xjofnzy.py":34:37)
#loc13 = loc("/NHNHOME/WORKSPACE/26msit001_A/jinhyeok/loop_TTT/lact/.cache_inductor_llm/n6/cn6qgzzirp6jye7mcpwwndarg4piww3uo4oftaljqv5n2xjofnzy.py":34:30)
#loc14 = loc("/NHNHOME/WORKSPACE/26msit001_A/jinhyeok/loop_TTT/lact/.cache_inductor_llm/n6/cn6qgzzirp6jye7mcpwwndarg4piww3uo4oftaljqv5n2xjofnzy.py":34:56)
#loc15 = loc("/NHNHOME/WORKSPACE/26msit001_A/jinhyeok/loop_TTT/lact/.cache_inductor_llm/n6/cn6qgzzirp6jye7mcpwwndarg4piww3uo4oftaljqv5n2xjofnzy.py":34:46)
#loc16 = loc("/NHNHOME/WORKSPACE/26msit001_A/jinhyeok/loop_TTT/lact/.cache_inductor_llm/n6/cn6qgzzirp6jye7mcpwwndarg4piww3uo4oftaljqv5n2xjofnzy.py":35:34)
#loc17 = loc("/NHNHOME/WORKSPACE/26msit001_A/jinhyeok/loop_TTT/lact/.cache_inductor_llm/n6/cn6qgzzirp6jye7mcpwwndarg4piww3uo4oftaljqv5n2xjofnzy.py":35:50)
#loc18 = loc("/NHNHOME/WORKSPACE/26msit001_A/jinhyeok/loop_TTT/lact/.cache_inductor_llm/n6/cn6qgzzirp6jye7mcpwwndarg4piww3uo4oftaljqv5n2xjofnzy.py":36:30)
#loc19 = loc("/NHNHOME/WORKSPACE/26msit001_A/jinhyeok/loop_TTT/lact/.cache_inductor_llm/n6/cn6qgzzirp6jye7mcpwwndarg4piww3uo4oftaljqv5n2xjofnzy.py":36:46)
#loc20 = loc("/NHNHOME/WORKSPACE/26msit001_A/jinhyeok/loop_TTT/lact/.cache_inductor_llm/n6/cn6qgzzirp6jye7mcpwwndarg4piww3uo4oftaljqv5n2xjofnzy.py":36:77)
#loc21 = loc("/NHNHOME/WORKSPACE/26msit001_A/jinhyeok/loop_TTT/lact/.cache_inductor_llm/n6/cn6qgzzirp6jye7mcpwwndarg4piww3uo4oftaljqv5n2xjofnzy.py":37:30)
#loc22 = loc("/NHNHOME/WORKSPACE/26msit001_A/jinhyeok/loop_TTT/lact/.cache_inductor_llm/n6/cn6qgzzirp6jye7mcpwwndarg4piww3uo4oftaljqv5n2xjofnzy.py":37:46)
#loc23 = loc("/NHNHOME/WORKSPACE/26msit001_A/jinhyeok/loop_TTT/lact/.cache_inductor_llm/n6/cn6qgzzirp6jye7mcpwwndarg4piww3uo4oftaljqv5n2xjofnzy.py":37:77)
#loc24 = loc("/NHNHOME/WORKSPACE/26msit001_A/jinhyeok/loop_TTT/lact/.cache_inductor_llm/n6/cn6qgzzirp6jye7mcpwwndarg4piww3uo4oftaljqv5n2xjofnzy.py":38:31)
#loc25 = loc("/NHNHOME/WORKSPACE/26msit001_A/jinhyeok/loop_TTT/lact/.cache_inductor_llm/n6/cn6qgzzirp6jye7mcpwwndarg4piww3uo4oftaljqv5n2xjofnzy.py":38:47)
#loc26 = loc("/NHNHOME/WORKSPACE/26msit001_A/jinhyeok/loop_TTT/lact/.cache_inductor_llm/n6/cn6qgzzirp6jye7mcpwwndarg4piww3uo4oftaljqv5n2xjofnzy.py":38:78)
#loc27 = loc("/NHNHOME/WORKSPACE/26msit001_A/jinhyeok/loop_TTT/lact/.cache_inductor_llm/n6/cn6qgzzirp6jye7mcpwwndarg4piww3uo4oftaljqv5n2xjofnzy.py":39:31)
#loc28 = loc("/NHNHOME/WORKSPACE/26msit001_A/jinhyeok/loop_TTT/lact/.cache_inductor_llm/n6/cn6qgzzirp6jye7mcpwwndarg4piww3uo4oftaljqv5n2xjofnzy.py":39:36)
#loc29 = loc("/NHNHOME/WORKSPACE/26msit001_A/jinhyeok/loop_TTT/lact/.cache_inductor_llm/n6/cn6qgzzirp6jye7mcpwwndarg4piww3uo4oftaljqv5n2xjofnzy.py":43:18)
#loc30 = loc("/NHNHOME/WORKSPACE/26msit001_A/jinhyeok/loop_TTT/lact/.cache_inductor_llm/n6/cn6qgzzirp6jye7mcpwwndarg4piww3uo4oftaljqv5n2xjofnzy.py":47:19)
#loc31 = loc("/NHNHOME/WORKSPACE/26msit001_A/jinhyeok/loop_TTT/lact/.cache_inductor_llm/n6/cn6qgzzirp6jye7mcpwwndarg4piww3uo4oftaljqv5n2xjofnzy.py":51:20)
#loc32 = loc("/NHNHOME/WORKSPACE/26msit001_A/jinhyeok/loop_TTT/lact/.cache_inductor_llm/n6/cn6qgzzirp6jye7mcpwwndarg4piww3uo4oftaljqv5n2xjofnzy.py":52:19)
#loc33 = loc("/NHNHOME/WORKSPACE/26msit001_A/jinhyeok/loop_TTT/lact/.cache_inductor_llm/n6/cn6qgzzirp6jye7mcpwwndarg4piww3uo4oftaljqv5n2xjofnzy.py":53:20)
#loc34 = loc("/NHNHOME/WORKSPACE/26msit001_A/jinhyeok/loop_TTT/lact/.cache_inductor_llm/n6/cn6qgzzirp6jye7mcpwwndarg4piww3uo4oftaljqv5n2xjofnzy.py":55:45)
#loc35 = loc("/NHNHOME/WORKSPACE/26msit001_A/jinhyeok/TTT_camera_embedding/.venv_llm/lib/python3.12/site-packages/triton/language/standard.py":291:36)
#loc37 = loc("/NHNHOME/WORKSPACE/26msit001_A/jinhyeok/TTT_camera_embedding/.venv_llm/lib/python3.12/site-packages/triton/language/standard.py":261:15)
#loc38 = loc("/NHNHOME/WORKSPACE/26msit001_A/jinhyeok/loop_TTT/lact/.cache_inductor_llm/n6/cn6qgzzirp6jye7mcpwwndarg4piww3uo4oftaljqv5n2xjofnzy.py":56:29)
#loc39 = loc("/NHNHOME/WORKSPACE/26msit001_A/jinhyeok/loop_TTT/lact/.cache_inductor_llm/n6/cn6qgzzirp6jye7mcpwwndarg4piww3uo4oftaljqv5n2xjofnzy.py":57:27)
#loc40 = loc("/NHNHOME/WORKSPACE/26msit001_A/jinhyeok/loop_TTT/lact/.cache_inductor_llm/n6/cn6qgzzirp6jye7mcpwwndarg4piww3uo4oftaljqv5n2xjofnzy.py":60:21)
#loc41 = loc("/NHNHOME/WORKSPACE/26msit001_A/jinhyeok/loop_TTT/lact/.cache_inductor_llm/n6/cn6qgzzirp6jye7mcpwwndarg4piww3uo4oftaljqv5n2xjofnzy.py":61:20)
#loc42 = loc("/NHNHOME/WORKSPACE/26msit001_A/jinhyeok/loop_TTT/lact/.cache_inductor_llm/n6/cn6qgzzirp6jye7mcpwwndarg4piww3uo4oftaljqv5n2xjofnzy.py":63:51)
#loc43 = loc("/NHNHOME/WORKSPACE/26msit001_A/jinhyeok/loop_TTT/lact/.cache_inductor_llm/n6/cn6qgzzirp6jye7mcpwwndarg4piww3uo4oftaljqv5n2xjofnzy.py":64:4)
#loc44 = loc("/NHNHOME/WORKSPACE/26msit001_A/jinhyeok/loop_TTT/lact/.cache_inductor_llm/n6/cn6qgzzirp6jye7mcpwwndarg4piww3uo4oftaljqv5n2xjofnzy.py":65:28)
#loc45 = loc("/NHNHOME/WORKSPACE/26msit001_A/jinhyeok/loop_TTT/lact/.cache_inductor_llm/n6/cn6qgzzirp6jye7mcpwwndarg4piww3uo4oftaljqv5n2xjofnzy.py":65:40)
#loc46 = loc("/NHNHOME/WORKSPACE/26msit001_A/jinhyeok/loop_TTT/lact/.cache_inductor_llm/n6/cn6qgzzirp6jye7mcpwwndarg4piww3uo4oftaljqv5n2xjofnzy.py":66:25)
#loc47 = loc("/NHNHOME/WORKSPACE/26msit001_A/jinhyeok/loop_TTT/lact/.cache_inductor_llm/n6/cn6qgzzirp6jye7mcpwwndarg4piww3uo4oftaljqv5n2xjofnzy.py":66:48)
#loc48 = loc("/NHNHOME/WORKSPACE/26msit001_A/jinhyeok/loop_TTT/lact/.cache_inductor_llm/n6/cn6qgzzirp6jye7mcpwwndarg4piww3uo4oftaljqv5n2xjofnzy.py":67:25)
#loc49 = loc("/NHNHOME/WORKSPACE/26msit001_A/jinhyeok/loop_TTT/lact/.cache_inductor_llm/n6/cn6qgzzirp6jye7mcpwwndarg4piww3uo4oftaljqv5n2xjofnzy.py":67:48)
#loc50 = loc("/NHNHOME/WORKSPACE/26msit001_A/jinhyeok/loop_TTT/lact/.cache_inductor_llm/n6/cn6qgzzirp6jye7mcpwwndarg4piww3uo4oftaljqv5n2xjofnzy.py":67:4)
#loc62 = loc("xmask"(#loc2))
#loc63 = loc("tmp25"(#loc3))
#loc64 = loc("tmp13"(#loc4))
#loc65 = loc("tmp8"(#loc5))
#loc66 = loc("tmp3"(#loc6))
#loc67 = loc("r0_mask"(#loc7))
#loc68 = loc("xoffset"(#loc8))
#loc69 = loc("r0_index"(#loc9))
#loc70 = loc("r0_index"(#loc10))
#loc71 = loc("tmp0"(#loc11))
#loc72 = loc("tmp0"(#loc12))
#loc73 = loc("tmp0"(#loc13))
#loc74 = loc("tmp0"(#loc14))
#loc75 = loc("tmp0"(#loc15))
#loc76 = loc("tmp1"(#loc16))
#loc77 = loc("tmp1"(#loc17))
#loc78 = loc("tmp4"(#loc18))
#loc79 = loc("tmp4"(#loc19))
#loc80 = loc("tmp4"(#loc20))
#loc81 = loc("tmp9"(#loc21))
#loc82 = loc("tmp9"(#loc22))
#loc83 = loc("tmp9"(#loc23))
#loc84 = loc("tmp14"(#loc24))
#loc85 = loc("tmp14"(#loc25))
#loc86 = loc("tmp14"(#loc26))
#loc87 = loc("tmp27"(#loc27))
#loc88 = loc("tmp27"(#loc28))
#loc89 = loc("tmp6"(#loc29))
#loc90 = loc("tmp11"(#loc30))
#loc91 = loc("tmp16"(#loc31))
#loc92 = loc("tmp17"(#loc32))
#loc93 = loc("tmp18"(#loc33))
#loc94 = loc("tmp21"(#loc34))
#loc96 = loc("tmp22"(#loc38))
#loc97 = loc("tmp23"(#loc39))
#loc98 = loc("tmp26"(#loc40))
#loc99 = loc("tmp28"(#loc41))
#loc100 = loc(fused[#loc72, #loc71])
#loc101 = loc(fused[#loc74, #loc62])
#loc102 = loc(callsite(#loc35 at #loc95))
#loc104 = loc(callsite(#loc37 at #loc102))
