#loc = loc("/NHNHOME/WORKSPACE/26msit001_A/jinhyeok/loop_TTT/lact/.cache_inductor_llm/du/cdu2ti2fbolg3onrhqtwkknufpacp7zfd7swhoqgwnp27afancsb.py":18:0)
#loc1 = loc(unknown)
#loc34 = loc("/NHNHOME/WORKSPACE/26msit001_A/jinhyeok/loop_TTT/lact/.cache_inductor_llm/du/cdu2ti2fbolg3onrhqtwkknufpacp7zfd7swhoqgwnp27afancsb.py":52:25)
#loc37 = loc("/NHNHOME/WORKSPACE/26msit001_A/jinhyeok/loop_TTT/lact/.cache_inductor_llm/du/cdu2ti2fbolg3onrhqtwkknufpacp7zfd7swhoqgwnp27afancsb.py":53:27)
#loc44 = loc("in_ptr0"(#loc))
#loc45 = loc("in_ptr1"(#loc))
#loc46 = loc("in_ptr2"(#loc))
#loc47 = loc("out_ptr0"(#loc))
#loc48 = loc("out_ptr1"(#loc))
#loc49 = loc("xnumel"(#loc))
#loc50 = loc("r0_numel"(#loc))
#loc82 = loc("tmp5"(#loc34))
#loc84 = loc("tmp11"(#loc37))
#loc87 = loc(callsite(#loc1 at #loc82))
#loc89 = loc(callsite(#loc1 at #loc84))
module {
  tt.func public @triton_red_fused__to_copy_mul_slice_sum_26(%in_ptr0: !tt.ptr<bf16> {tt.divisibility = 16 : i32} loc("in_ptr0"(#loc)), %in_ptr1: !tt.ptr<f32> {tt.divisibility = 16 : i32} loc("in_ptr1"(#loc)), %in_ptr2: !tt.ptr<bf16> {tt.divisibility = 16 : i32} loc("in_ptr2"(#loc)), %out_ptr0: !tt.ptr<f32> {tt.divisibility = 16 : i32} loc("out_ptr0"(#loc)), %out_ptr1: !tt.ptr<f32> {tt.divisibility = 16 : i32} loc("out_ptr1"(#loc)), %xnumel: i32 {tt.divisibility = 16 : i32} loc("xnumel"(#loc)), %r0_numel: i32 {tt.divisibility = 16 : i32} loc("r0_numel"(#loc))) attributes {noinline = false} {
    %cst = arith.constant dense<0.000000e+00> : tensor<2x256xbf16> loc(#loc1)
    %cst_0 = arith.constant dense<786432> : tensor<2x1xi32> loc(#loc1)
    %cst_1 = arith.constant dense<196608> : tensor<1x256xi32> loc(#loc1)
    %cst_2 = arith.constant dense<192> : tensor<2x1xi32> loc(#loc1)
    %cst_3 = arith.constant dense<192> : tensor<1x256xi32> loc(#loc1)
    %cst_4 = arith.constant dense<0.000000e+00> : tensor<2x256xf32> loc(#loc1)
    %cst_5 = arith.constant dense<1024> : tensor<2x1xi32> loc(#loc1)
    %c2_i32 = arith.constant 2 : i32 loc(#loc1)
    %xoffset = tt.get_program_id x : i32 loc(#loc51)
    %xoffset_6 = arith.muli %xoffset, %c2_i32 : i32 loc(#loc52)
    %xindex = tt.make_range {end = 2 : i32, start = 0 : i32} : tensor<2xi32> loc(#loc53)
    %xindex_7 = tt.expand_dims %xindex {axis = 1 : i32} : tensor<2xi32> -> tensor<2x1xi32> loc(#loc54)
    %xindex_8 = tt.splat %xoffset_6 : i32 -> tensor<2x1xi32> loc(#loc55)
    %xindex_9 = arith.addi %xindex_8, %xindex_7 : tensor<2x1xi32> loc(#loc55)
    %r0_base = tt.make_range {end = 256 : i32, start = 0 : i32} : tensor<256xi32> loc(#loc56)
    %r0_base_10 = tt.expand_dims %r0_base {axis = 0 : i32} : tensor<256xi32> -> tensor<1x256xi32> loc(#loc57)
    %x0 = arith.remsi %xindex_9, %cst_5 : tensor<2x1xi32> loc(#loc58)
    %x1 = arith.divsi %xindex_9, %cst_5 : tensor<2x1xi32> loc(#loc59)
    %r0_mask = arith.cmpi slt, %r0_base_10, %cst_3 : tensor<1x256xi32> loc(#loc60)
    %tmp0 = arith.muli %xindex_9, %cst_2 : tensor<2x1xi32> loc(#loc61)
    %tmp0_11 = tt.broadcast %r0_base_10 : tensor<1x256xi32> -> tensor<2x256xi32> loc(#loc62)
    %tmp0_12 = tt.broadcast %tmp0 : tensor<2x1xi32> -> tensor<2x256xi32> loc(#loc62)
    %tmp0_13 = arith.addi %tmp0_11, %tmp0_12 : tensor<2x256xi32> loc(#loc62)
    %tmp0_14 = tt.splat %in_ptr0 : !tt.ptr<bf16> -> tensor<2x256x!tt.ptr<bf16>> loc(#loc63)
    %tmp0_15 = tt.addptr %tmp0_14, %tmp0_13 : tensor<2x256x!tt.ptr<bf16>>, tensor<2x256xi32> loc(#loc63)
    %tmp0_16 = tt.broadcast %r0_mask : tensor<1x256xi1> -> tensor<2x256xi1> loc(#loc64)
    %tmp0_17 = tt.load %tmp0_15, %tmp0_16, %cst evictionPolicy = evict_first : tensor<2x256x!tt.ptr<bf16>> loc(#loc64)
    %tmp0_18 = arith.extf %tmp0_17 : tensor<2x256xbf16> to tensor<2x256xf32> loc(#loc65)
    %tmp2 = arith.addi %r0_base_10, %cst_1 : tensor<1x256xi32> loc(#loc66)
    %tmp2_19 = arith.muli %x0, %cst_2 : tensor<2x1xi32> loc(#loc67)
    %tmp2_20 = tt.broadcast %tmp2 : tensor<1x256xi32> -> tensor<2x256xi32> loc(#loc68)
    %tmp2_21 = tt.broadcast %tmp2_19 : tensor<2x1xi32> -> tensor<2x256xi32> loc(#loc68)
    %tmp2_22 = arith.addi %tmp2_20, %tmp2_21 : tensor<2x256xi32> loc(#loc68)
    %tmp2_23 = arith.muli %x1, %cst_0 : tensor<2x1xi32> loc(#loc69)
    %tmp2_24 = tt.broadcast %tmp2_23 : tensor<2x1xi32> -> tensor<2x256xi32> loc(#loc70)
    %tmp2_25 = arith.addi %tmp2_22, %tmp2_24 : tensor<2x256xi32> loc(#loc70)
    %tmp2_26 = tt.splat %in_ptr1 : !tt.ptr<f32> -> tensor<2x256x!tt.ptr<f32>> loc(#loc71)
    %tmp2_27 = tt.addptr %tmp2_26, %tmp2_25 : tensor<2x256x!tt.ptr<f32>>, tensor<2x256xi32> loc(#loc71)
    %tmp2_28 = tt.load %tmp2_27, %tmp0_16, %cst_4 evictionPolicy = evict_first : tensor<2x256x!tt.ptr<f32>> loc(#loc72)
    %tmp7 = tt.splat %in_ptr2 : !tt.ptr<bf16> -> tensor<2x256x!tt.ptr<bf16>> loc(#loc73)
    %tmp7_29 = tt.addptr %tmp7, %tmp0_13 : tensor<2x256x!tt.ptr<bf16>>, tensor<2x256xi32> loc(#loc73)
    %tmp7_30 = tt.load %tmp7_29, %tmp0_16, %cst evictionPolicy = evict_first : tensor<2x256x!tt.ptr<bf16>> loc(#loc74)
    %tmp7_31 = arith.extf %tmp7_30 : tensor<2x256xbf16> to tensor<2x256xf32> loc(#loc75)
    %tmp3 = arith.mulf %tmp0_18, %tmp2_28 : tensor<2x256xf32> loc(#loc76)
    %tmp6 = arith.addf %tmp3, %cst_4 : tensor<2x256xf32> loc(#loc77)
    %_tmp5 = arith.select %tmp0_16, %tmp6, %cst_4 : tensor<2x256xi1>, tensor<2x256xf32> loc(#loc78)
    %tmp9 = arith.mulf %tmp7_31, %tmp2_28 : tensor<2x256xf32> loc(#loc79)
    %tmp12 = arith.addf %tmp9, %cst_4 : tensor<2x256xf32> loc(#loc80)
    %_tmp11 = arith.select %tmp0_16, %tmp12, %cst_4 : tensor<2x256xi1>, tensor<2x256xf32> loc(#loc81)
    %tmp5 = "tt.reduce"(%_tmp5) <{axis = 1 : i32}> ({
    ^bb0(%tmp5_34: f32 loc(callsite(#loc1 at #loc82)), %tmp5_35: f32 loc(callsite(#loc1 at #loc82))):
      %tmp5_36 = arith.addf %tmp5_34, %tmp5_35 : f32 loc(#loc90)
      tt.reduce.return %tmp5_36 : f32 loc(#loc86)
    }) : (tensor<2x256xf32>) -> tensor<2xf32> loc(#loc86)
    %tmp5_32 = tt.expand_dims %tmp5 {axis = 1 : i32} : tensor<2xf32> -> tensor<2x1xf32> loc(#loc83)
    %tmp11 = "tt.reduce"(%_tmp11) <{axis = 1 : i32}> ({
    ^bb0(%tmp11_34: f32 loc(callsite(#loc1 at #loc84)), %tmp11_35: f32 loc(callsite(#loc1 at #loc84))):
      %tmp11_36 = arith.addf %tmp11_34, %tmp11_35 : f32 loc(#loc91)
      tt.reduce.return %tmp11_36 : f32 loc(#loc88)
    }) : (tensor<2x256xf32>) -> tensor<2xf32> loc(#loc88)
    %tmp11_33 = tt.expand_dims %tmp11 {axis = 1 : i32} : tensor<2xf32> -> tensor<2x1xf32> loc(#loc85)
    %0 = tt.splat %out_ptr0 : !tt.ptr<f32> -> tensor<2x1x!tt.ptr<f32>> loc(#loc39)
    %1 = tt.addptr %0, %xindex_9 : tensor<2x1x!tt.ptr<f32>>, tensor<2x1xi32> loc(#loc39)
    tt.store %1, %tmp5_32 : tensor<2x1x!tt.ptr<f32>> loc(#loc40)
    %2 = tt.splat %out_ptr1 : !tt.ptr<f32> -> tensor<2x1x!tt.ptr<f32>> loc(#loc41)
    %3 = tt.addptr %2, %xindex_9 : tensor<2x1x!tt.ptr<f32>>, tensor<2x1xi32> loc(#loc41)
    tt.store %3, %tmp11_33 : tensor<2x1x!tt.ptr<f32>> loc(#loc42)
    tt.return loc(#loc43)
  } loc(#loc)
} loc(#loc)
#loc2 = loc("/NHNHOME/WORKSPACE/26msit001_A/jinhyeok/loop_TTT/lact/.cache_inductor_llm/du/cdu2ti2fbolg3onrhqtwkknufpacp7zfd7swhoqgwnp27afancsb.py":23:28)
#loc3 = loc("/NHNHOME/WORKSPACE/26msit001_A/jinhyeok/loop_TTT/lact/.cache_inductor_llm/du/cdu2ti2fbolg3onrhqtwkknufpacp7zfd7swhoqgwnp27afancsb.py":23:33)
#loc4 = loc("/NHNHOME/WORKSPACE/26msit001_A/jinhyeok/loop_TTT/lact/.cache_inductor_llm/du/cdu2ti2fbolg3onrhqtwkknufpacp7zfd7swhoqgwnp27afancsb.py":24:36)
#loc5 = loc("/NHNHOME/WORKSPACE/26msit001_A/jinhyeok/loop_TTT/lact/.cache_inductor_llm/du/cdu2ti2fbolg3onrhqtwkknufpacp7zfd7swhoqgwnp27afancsb.py":24:44)
#loc6 = loc("/NHNHOME/WORKSPACE/26msit001_A/jinhyeok/loop_TTT/lact/.cache_inductor_llm/du/cdu2ti2fbolg3onrhqtwkknufpacp7zfd7swhoqgwnp27afancsb.py":24:23)
#loc7 = loc("/NHNHOME/WORKSPACE/26msit001_A/jinhyeok/loop_TTT/lact/.cache_inductor_llm/du/cdu2ti2fbolg3onrhqtwkknufpacp7zfd7swhoqgwnp27afancsb.py":26:27)
#loc8 = loc("/NHNHOME/WORKSPACE/26msit001_A/jinhyeok/loop_TTT/lact/.cache_inductor_llm/du/cdu2ti2fbolg3onrhqtwkknufpacp7zfd7swhoqgwnp27afancsb.py":26:37)
#loc9 = loc("/NHNHOME/WORKSPACE/26msit001_A/jinhyeok/loop_TTT/lact/.cache_inductor_llm/du/cdu2ti2fbolg3onrhqtwkknufpacp7zfd7swhoqgwnp27afancsb.py":29:19)
#loc10 = loc("/NHNHOME/WORKSPACE/26msit001_A/jinhyeok/loop_TTT/lact/.cache_inductor_llm/du/cdu2ti2fbolg3onrhqtwkknufpacp7zfd7swhoqgwnp27afancsb.py":30:19)
#loc11 = loc("/NHNHOME/WORKSPACE/26msit001_A/jinhyeok/loop_TTT/lact/.cache_inductor_llm/du/cdu2ti2fbolg3onrhqtwkknufpacp7zfd7swhoqgwnp27afancsb.py":35:29)
#loc12 = loc("/NHNHOME/WORKSPACE/26msit001_A/jinhyeok/loop_TTT/lact/.cache_inductor_llm/du/cdu2ti2fbolg3onrhqtwkknufpacp7zfd7swhoqgwnp27afancsb.py":39:45)
#loc13 = loc("/NHNHOME/WORKSPACE/26msit001_A/jinhyeok/loop_TTT/lact/.cache_inductor_llm/du/cdu2ti2fbolg3onrhqtwkknufpacp7zfd7swhoqgwnp27afancsb.py":39:41)
#loc14 = loc("/NHNHOME/WORKSPACE/26msit001_A/jinhyeok/loop_TTT/lact/.cache_inductor_llm/du/cdu2ti2fbolg3onrhqtwkknufpacp7zfd7swhoqgwnp27afancsb.py":39:34)
#loc15 = loc("/NHNHOME/WORKSPACE/26msit001_A/jinhyeok/loop_TTT/lact/.cache_inductor_llm/du/cdu2ti2fbolg3onrhqtwkknufpacp7zfd7swhoqgwnp27afancsb.py":39:50)
#loc16 = loc("/NHNHOME/WORKSPACE/26msit001_A/jinhyeok/loop_TTT/lact/.cache_inductor_llm/du/cdu2ti2fbolg3onrhqtwkknufpacp7zfd7swhoqgwnp27afancsb.py":39:104)
#loc17 = loc("/NHNHOME/WORKSPACE/26msit001_A/jinhyeok/loop_TTT/lact/.cache_inductor_llm/du/cdu2ti2fbolg3onrhqtwkknufpacp7zfd7swhoqgwnp27afancsb.py":40:43)
#loc18 = loc("/NHNHOME/WORKSPACE/26msit001_A/jinhyeok/loop_TTT/lact/.cache_inductor_llm/du/cdu2ti2fbolg3onrhqtwkknufpacp7zfd7swhoqgwnp27afancsb.py":40:54)
#loc19 = loc("/NHNHOME/WORKSPACE/26msit001_A/jinhyeok/loop_TTT/lact/.cache_inductor_llm/du/cdu2ti2fbolg3onrhqtwkknufpacp7zfd7swhoqgwnp27afancsb.py":40:50)
#loc20 = loc("/NHNHOME/WORKSPACE/26msit001_A/jinhyeok/loop_TTT/lact/.cache_inductor_llm/du/cdu2ti2fbolg3onrhqtwkknufpacp7zfd7swhoqgwnp27afancsb.py":40:66)
#loc21 = loc("/NHNHOME/WORKSPACE/26msit001_A/jinhyeok/loop_TTT/lact/.cache_inductor_llm/du/cdu2ti2fbolg3onrhqtwkknufpacp7zfd7swhoqgwnp27afancsb.py":40:59)
#loc22 = loc("/NHNHOME/WORKSPACE/26msit001_A/jinhyeok/loop_TTT/lact/.cache_inductor_llm/du/cdu2ti2fbolg3onrhqtwkknufpacp7zfd7swhoqgwnp27afancsb.py":40:34)
#loc23 = loc("/NHNHOME/WORKSPACE/26msit001_A/jinhyeok/loop_TTT/lact/.cache_inductor_llm/du/cdu2ti2fbolg3onrhqtwkknufpacp7zfd7swhoqgwnp27afancsb.py":40:71)
#loc24 = loc("/NHNHOME/WORKSPACE/26msit001_A/jinhyeok/loop_TTT/lact/.cache_inductor_llm/du/cdu2ti2fbolg3onrhqtwkknufpacp7zfd7swhoqgwnp27afancsb.py":41:34)
#loc25 = loc("/NHNHOME/WORKSPACE/26msit001_A/jinhyeok/loop_TTT/lact/.cache_inductor_llm/du/cdu2ti2fbolg3onrhqtwkknufpacp7zfd7swhoqgwnp27afancsb.py":41:50)
#loc26 = loc("/NHNHOME/WORKSPACE/26msit001_A/jinhyeok/loop_TTT/lact/.cache_inductor_llm/du/cdu2ti2fbolg3onrhqtwkknufpacp7zfd7swhoqgwnp27afancsb.py":41:104)
#loc27 = loc("/NHNHOME/WORKSPACE/26msit001_A/jinhyeok/loop_TTT/lact/.cache_inductor_llm/du/cdu2ti2fbolg3onrhqtwkknufpacp7zfd7swhoqgwnp27afancsb.py":43:22)
#loc28 = loc("/NHNHOME/WORKSPACE/26msit001_A/jinhyeok/loop_TTT/lact/.cache_inductor_llm/du/cdu2ti2fbolg3onrhqtwkknufpacp7zfd7swhoqgwnp27afancsb.py":45:23)
#loc29 = loc("/NHNHOME/WORKSPACE/26msit001_A/jinhyeok/loop_TTT/lact/.cache_inductor_llm/du/cdu2ti2fbolg3onrhqtwkknufpacp7zfd7swhoqgwnp27afancsb.py":46:40)
#loc30 = loc("/NHNHOME/WORKSPACE/26msit001_A/jinhyeok/loop_TTT/lact/.cache_inductor_llm/du/cdu2ti2fbolg3onrhqtwkknufpacp7zfd7swhoqgwnp27afancsb.py":48:22)
#loc31 = loc("/NHNHOME/WORKSPACE/26msit001_A/jinhyeok/loop_TTT/lact/.cache_inductor_llm/du/cdu2ti2fbolg3onrhqtwkknufpacp7zfd7swhoqgwnp27afancsb.py":50:25)
#loc32 = loc("/NHNHOME/WORKSPACE/26msit001_A/jinhyeok/loop_TTT/lact/.cache_inductor_llm/du/cdu2ti2fbolg3onrhqtwkknufpacp7zfd7swhoqgwnp27afancsb.py":51:42)
#loc33 = loc("/NHNHOME/WORKSPACE/26msit001_A/jinhyeok/TTT_camera_embedding/.venv_llm/lib/python3.12/site-packages/triton/language/standard.py":291:36)
#loc35 = loc("/NHNHOME/WORKSPACE/26msit001_A/jinhyeok/TTT_camera_embedding/.venv_llm/lib/python3.12/site-packages/triton/language/standard.py":261:15)
#loc36 = loc("/NHNHOME/WORKSPACE/26msit001_A/jinhyeok/loop_TTT/lact/.cache_inductor_llm/du/cdu2ti2fbolg3onrhqtwkknufpacp7zfd7swhoqgwnp27afancsb.py":52:28)
#loc38 = loc("/NHNHOME/WORKSPACE/26msit001_A/jinhyeok/loop_TTT/lact/.cache_inductor_llm/du/cdu2ti2fbolg3onrhqtwkknufpacp7zfd7swhoqgwnp27afancsb.py":53:30)
#loc39 = loc("/NHNHOME/WORKSPACE/26msit001_A/jinhyeok/loop_TTT/lact/.cache_inductor_llm/du/cdu2ti2fbolg3onrhqtwkknufpacp7zfd7swhoqgwnp27afancsb.py":54:25)
#loc40 = loc("/NHNHOME/WORKSPACE/26msit001_A/jinhyeok/loop_TTT/lact/.cache_inductor_llm/du/cdu2ti2fbolg3onrhqtwkknufpacp7zfd7swhoqgwnp27afancsb.py":54:36)
#loc41 = loc("/NHNHOME/WORKSPACE/26msit001_A/jinhyeok/loop_TTT/lact/.cache_inductor_llm/du/cdu2ti2fbolg3onrhqtwkknufpacp7zfd7swhoqgwnp27afancsb.py":55:25)
#loc42 = loc("/NHNHOME/WORKSPACE/26msit001_A/jinhyeok/loop_TTT/lact/.cache_inductor_llm/du/cdu2ti2fbolg3onrhqtwkknufpacp7zfd7swhoqgwnp27afancsb.py":55:37)
#loc43 = loc("/NHNHOME/WORKSPACE/26msit001_A/jinhyeok/loop_TTT/lact/.cache_inductor_llm/du/cdu2ti2fbolg3onrhqtwkknufpacp7zfd7swhoqgwnp27afancsb.py":55:4)
#loc51 = loc("xoffset"(#loc2))
#loc52 = loc("xoffset"(#loc3))
#loc53 = loc("xindex"(#loc4))
#loc54 = loc("xindex"(#loc5))
#loc55 = loc("xindex"(#loc6))
#loc56 = loc("r0_base"(#loc7))
#loc57 = loc("r0_base"(#loc8))
#loc58 = loc("x0"(#loc9))
#loc59 = loc("x1"(#loc10))
#loc60 = loc("r0_mask"(#loc11))
#loc61 = loc("tmp0"(#loc12))
#loc62 = loc("tmp0"(#loc13))
#loc63 = loc("tmp0"(#loc14))
#loc64 = loc("tmp0"(#loc15))
#loc65 = loc("tmp0"(#loc16))
#loc66 = loc("tmp2"(#loc17))
#loc67 = loc("tmp2"(#loc18))
#loc68 = loc("tmp2"(#loc19))
#loc69 = loc("tmp2"(#loc20))
#loc70 = loc("tmp2"(#loc21))
#loc71 = loc("tmp2"(#loc22))
#loc72 = loc("tmp2"(#loc23))
#loc73 = loc("tmp7"(#loc24))
#loc74 = loc("tmp7"(#loc25))
#loc75 = loc("tmp7"(#loc26))
#loc76 = loc("tmp3"(#loc27))
#loc77 = loc("tmp6"(#loc28))
#loc78 = loc("_tmp5"(#loc29))
#loc79 = loc("tmp9"(#loc30))
#loc80 = loc("tmp12"(#loc31))
#loc81 = loc("_tmp11"(#loc32))
#loc83 = loc("tmp5"(#loc36))
#loc85 = loc("tmp11"(#loc38))
#loc86 = loc(callsite(#loc33 at #loc82))
#loc88 = loc(callsite(#loc33 at #loc84))
#loc90 = loc(callsite(#loc35 at #loc86))
#loc91 = loc(callsite(#loc35 at #loc88))
