#loc = loc("/NHNHOME/WORKSPACE/26msit001_A/jinhyeok/loop_TTT/lact/.cache_inductor_llm/d6/cd6e3a5uqvywefumkpptfbq26cxolj4daffwqboprswjosvnxw4w.py":18:0)
#loc19 = loc("/NHNHOME/WORKSPACE/26msit001_A/jinhyeok/TTT_camera_embedding/.venv_llm/lib/python3.12/site-packages/triton/language/standard.py":47:0)
#loc26 = loc("in_ptr0"(#loc))
#loc27 = loc("in_ptr1"(#loc))
#loc28 = loc("out_ptr0"(#loc))
#loc29 = loc("xnumel"(#loc))
#loc45 = loc("x"(#loc19))
module {
  tt.func public @triton_poi_fused_mul_silu_30(%in_ptr0: !tt.ptr<bf16> {tt.divisibility = 16 : i32} loc("in_ptr0"(#loc)), %in_ptr1: !tt.ptr<bf16> {tt.divisibility = 16 : i32} loc("in_ptr1"(#loc)), %out_ptr0: !tt.ptr<bf16> {tt.divisibility = 16 : i32} loc("out_ptr0"(#loc)), %xnumel: i32 {tt.divisibility = 16 : i32} loc("xnumel"(#loc))) attributes {noinline = false} {
    %xnumel_0 = arith.constant 6291456 : i32 loc(#loc30)
    %xoffset = tt.get_program_id x : i32 loc(#loc31)
    %xoffset_1 = arith.constant 512 : i32 loc(#loc32)
    %xoffset_2 = arith.constant 512 : i32 loc(#loc32)
    %xoffset_3 = arith.muli %xoffset, %xoffset_2 : i32 loc(#loc32)
    %xindex = tt.make_range {end = 512 : i32, start = 0 : i32} : tensor<512xi32> loc(#loc33)
    %xindex_4 = tt.splat %xoffset_3 : i32 -> tensor<512xi32> loc(#loc34)
    %xindex_5 = arith.addi %xindex_4, %xindex : tensor<512xi32> loc(#loc34)
    %xmask = arith.constant true loc(#loc35)
    %xmask_6 = arith.constant dense<true> : tensor<512xi1> loc(#loc35)
    %tmp0 = tt.splat %in_ptr0 : !tt.ptr<bf16> -> tensor<512x!tt.ptr<bf16>> loc(#loc36)
    %tmp0_7 = tt.addptr %tmp0, %xindex_5 : tensor<512x!tt.ptr<bf16>>, tensor<512xi32> loc(#loc36)
    %tmp0_8 = tt.load %tmp0_7 : tensor<512x!tt.ptr<bf16>> loc(#loc37)
    %tmp0_9 = arith.extf %tmp0_8 : tensor<512xbf16> to tensor<512xf32> loc(#loc38)
    %tmp1 = tt.splat %in_ptr1 : !tt.ptr<bf16> -> tensor<512x!tt.ptr<bf16>> loc(#loc39)
    %tmp1_10 = tt.addptr %tmp1, %xindex_5 : tensor<512x!tt.ptr<bf16>>, tensor<512xi32> loc(#loc39)
    %tmp1_11 = tt.load %tmp1_10 : tensor<512x!tt.ptr<bf16>> loc(#loc40)
    %tmp1_12 = arith.extf %tmp1_11 : tensor<512xbf16> to tensor<512xf32> loc(#loc41)
    %tmp3 = tt.call @triton.language.standard.sigmoid__fp32S512S__(%tmp1_12) : (tensor<512xf32>) -> tensor<512xf32> loc(#loc42)
    %tmp4 = arith.mulf %tmp1_12, %tmp3 : tensor<512xf32> loc(#loc43)
    %tmp6 = arith.mulf %tmp0_9, %tmp4 : tensor<512xf32> loc(#loc44)
    %0 = tt.splat %out_ptr0 : !tt.ptr<bf16> -> tensor<512x!tt.ptr<bf16>> loc(#loc16)
    %1 = tt.addptr %0, %xindex_5 : tensor<512x!tt.ptr<bf16>>, tensor<512xi32> loc(#loc16)
    %2 = arith.truncf %tmp6 : tensor<512xf32> to tensor<512xbf16> loc(#loc17)
    tt.store %1, %2 : tensor<512x!tt.ptr<bf16>> loc(#loc17)
    tt.return loc(#loc18)
  } loc(#loc)
  tt.func private @triton.language.standard.sigmoid__fp32S512S__(%x: tensor<512xf32> loc("x"(#loc19))) -> tensor<512xf32> attributes {noinline = false} {
    %cst = arith.constant 0.000000e+00 : f32 loc(#loc20)
    %cst_0 = arith.constant dense<0.000000e+00> : tensor<512xf32> loc(#loc20)
    %0 = arith.subf %cst_0, %x : tensor<512xf32> loc(#loc20)
    %1 = math.exp %0 : tensor<512xf32> loc(#loc21)
    %c1_i32 = arith.constant 1 : i32 loc(#loc22)
    %cst_1 = arith.constant 1.000000e+00 : f32 loc(#loc22)
    %cst_2 = arith.constant dense<1.000000e+00> : tensor<512xf32> loc(#loc22)
    %2 = arith.addf %cst_2, %1 : tensor<512xf32> loc(#loc22)
    %c1_i32_3 = arith.constant 1 : i32 loc(#loc23)
    %cst_4 = arith.constant 1.000000e+00 : f32 loc(#loc23)
    %cst_5 = arith.constant dense<1.000000e+00> : tensor<512xf32> loc(#loc23)
    %3 = arith.divf %cst_5, %2 : tensor<512xf32> loc(#loc23)
    tt.return %3 : tensor<512xf32> loc(#loc24)
  ^bb1:  // no predecessors
    %4 = ub.poison : tensor<512xf32> loc(#loc25)
    tt.return %4 : tensor<512xf32> loc(#loc25)
  } loc(#loc19)
} loc(#loc)
#loc1 = loc("/NHNHOME/WORKSPACE/26msit001_A/jinhyeok/loop_TTT/lact/.cache_inductor_llm/d6/cd6e3a5uqvywefumkpptfbq26cxolj4daffwqboprswjosvnxw4w.py":19:13)
#loc2 = loc("/NHNHOME/WORKSPACE/26msit001_A/jinhyeok/loop_TTT/lact/.cache_inductor_llm/d6/cd6e3a5uqvywefumkpptfbq26cxolj4daffwqboprswjosvnxw4w.py":20:28)
#loc3 = loc("/NHNHOME/WORKSPACE/26msit001_A/jinhyeok/loop_TTT/lact/.cache_inductor_llm/d6/cd6e3a5uqvywefumkpptfbq26cxolj4daffwqboprswjosvnxw4w.py":20:33)
#loc4 = loc("/NHNHOME/WORKSPACE/26msit001_A/jinhyeok/loop_TTT/lact/.cache_inductor_llm/d6/cd6e3a5uqvywefumkpptfbq26cxolj4daffwqboprswjosvnxw4w.py":21:36)
#loc5 = loc("/NHNHOME/WORKSPACE/26msit001_A/jinhyeok/loop_TTT/lact/.cache_inductor_llm/d6/cd6e3a5uqvywefumkpptfbq26cxolj4daffwqboprswjosvnxw4w.py":21:23)
#loc6 = loc("/NHNHOME/WORKSPACE/26msit001_A/jinhyeok/loop_TTT/lact/.cache_inductor_llm/d6/cd6e3a5uqvywefumkpptfbq26cxolj4daffwqboprswjosvnxw4w.py":22:36)
#loc7 = loc("/NHNHOME/WORKSPACE/26msit001_A/jinhyeok/loop_TTT/lact/.cache_inductor_llm/d6/cd6e3a5uqvywefumkpptfbq26cxolj4daffwqboprswjosvnxw4w.py":24:30)
#loc8 = loc("/NHNHOME/WORKSPACE/26msit001_A/jinhyeok/loop_TTT/lact/.cache_inductor_llm/d6/cd6e3a5uqvywefumkpptfbq26cxolj4daffwqboprswjosvnxw4w.py":24:35)
#loc9 = loc("/NHNHOME/WORKSPACE/26msit001_A/jinhyeok/loop_TTT/lact/.cache_inductor_llm/d6/cd6e3a5uqvywefumkpptfbq26cxolj4daffwqboprswjosvnxw4w.py":24:44)
#loc10 = loc("/NHNHOME/WORKSPACE/26msit001_A/jinhyeok/loop_TTT/lact/.cache_inductor_llm/d6/cd6e3a5uqvywefumkpptfbq26cxolj4daffwqboprswjosvnxw4w.py":25:30)
#loc11 = loc("/NHNHOME/WORKSPACE/26msit001_A/jinhyeok/loop_TTT/lact/.cache_inductor_llm/d6/cd6e3a5uqvywefumkpptfbq26cxolj4daffwqboprswjosvnxw4w.py":25:35)
#loc12 = loc("/NHNHOME/WORKSPACE/26msit001_A/jinhyeok/loop_TTT/lact/.cache_inductor_llm/d6/cd6e3a5uqvywefumkpptfbq26cxolj4daffwqboprswjosvnxw4w.py":25:44)
#loc13 = loc("/NHNHOME/WORKSPACE/26msit001_A/jinhyeok/loop_TTT/lact/.cache_inductor_llm/d6/cd6e3a5uqvywefumkpptfbq26cxolj4daffwqboprswjosvnxw4w.py":27:22)
#loc14 = loc("/NHNHOME/WORKSPACE/26msit001_A/jinhyeok/loop_TTT/lact/.cache_inductor_llm/d6/cd6e3a5uqvywefumkpptfbq26cxolj4daffwqboprswjosvnxw4w.py":28:18)
#loc15 = loc("/NHNHOME/WORKSPACE/26msit001_A/jinhyeok/loop_TTT/lact/.cache_inductor_llm/d6/cd6e3a5uqvywefumkpptfbq26cxolj4daffwqboprswjosvnxw4w.py":30:18)
#loc16 = loc("/NHNHOME/WORKSPACE/26msit001_A/jinhyeok/loop_TTT/lact/.cache_inductor_llm/d6/cd6e3a5uqvywefumkpptfbq26cxolj4daffwqboprswjosvnxw4w.py":31:25)
#loc17 = loc("/NHNHOME/WORKSPACE/26msit001_A/jinhyeok/loop_TTT/lact/.cache_inductor_llm/d6/cd6e3a5uqvywefumkpptfbq26cxolj4daffwqboprswjosvnxw4w.py":31:36)
#loc18 = loc("/NHNHOME/WORKSPACE/26msit001_A/jinhyeok/loop_TTT/lact/.cache_inductor_llm/d6/cd6e3a5uqvywefumkpptfbq26cxolj4daffwqboprswjosvnxw4w.py":31:4)
#loc20 = loc("/NHNHOME/WORKSPACE/26msit001_A/jinhyeok/TTT_camera_embedding/.venv_llm/lib/python3.12/site-packages/triton/language/standard.py":48:30)
#loc21 = loc("/NHNHOME/WORKSPACE/26msit001_A/jinhyeok/TTT_camera_embedding/.venv_llm/lib/python3.12/site-packages/triton/language/standard.py":48:29)
#loc22 = loc("/NHNHOME/WORKSPACE/26msit001_A/jinhyeok/TTT_camera_embedding/.venv_llm/lib/python3.12/site-packages/triton/language/standard.py":48:20)
#loc23 = loc("/NHNHOME/WORKSPACE/26msit001_A/jinhyeok/TTT_camera_embedding/.venv_llm/lib/python3.12/site-packages/triton/language/standard.py":48:16)
#loc24 = loc("/NHNHOME/WORKSPACE/26msit001_A/jinhyeok/TTT_camera_embedding/.venv_llm/lib/python3.12/site-packages/triton/language/standard.py":48:11)
#loc25 = loc("/NHNHOME/WORKSPACE/26msit001_A/jinhyeok/TTT_camera_embedding/.venv_llm/lib/python3.12/site-packages/triton/language/standard.py":48:4)
#loc30 = loc("xnumel"(#loc1))
#loc31 = loc("xoffset"(#loc2))
#loc32 = loc("xoffset"(#loc3))
#loc33 = loc("xindex"(#loc4))
#loc34 = loc("xindex"(#loc5))
#loc35 = loc("xmask"(#loc6))
#loc36 = loc("tmp0"(#loc7))
#loc37 = loc("tmp0"(#loc8))
#loc38 = loc("tmp0"(#loc9))
#loc39 = loc("tmp1"(#loc10))
#loc40 = loc("tmp1"(#loc11))
#loc41 = loc("tmp1"(#loc12))
#loc42 = loc("tmp3"(#loc13))
#loc43 = loc("tmp4"(#loc14))
#loc44 = loc("tmp6"(#loc15))
