#loc = loc("/NHNHOME/WORKSPACE/26msit001_A/jinhyeok/TTT_camera_embedding/lact_llm/.cache_inductor/ma/cmaqshx4onvu6rvo4tlw5y3jlfrhipypvg563xopucphl753wlvg.py":18:0)
#loc85 = loc("/NHNHOME/WORKSPACE/26msit001_A/jinhyeok/TTT_camera_embedding/.venv_llm/lib/python3.12/site-packages/triton/language/standard.py":285:0)
#loc87 = loc(unknown)
#loc90 = loc("/NHNHOME/WORKSPACE/26msit001_A/jinhyeok/TTT_camera_embedding/.venv_llm/lib/python3.12/site-packages/triton/language/standard.py":260:0)
#loc94 = loc("in_out_ptr0"(#loc))
#loc95 = loc("in_ptr0"(#loc))
#loc96 = loc("in_ptr1"(#loc))
#loc97 = loc("in_ptr2"(#loc))
#loc98 = loc("in_ptr3"(#loc))
#loc99 = loc("in_ptr4"(#loc))
#loc100 = loc("out_ptr0"(#loc))
#loc101 = loc("out_ptr2"(#loc))
#loc102 = loc("out_ptr3"(#loc))
#loc103 = loc("xnumel"(#loc))
#loc104 = loc("r0_numel"(#loc))
#loc168 = loc("input"(#loc85))
#loc169 = loc("a"(#loc90))
#loc170 = loc("b"(#loc90))
module {
  tt.func public @triton_per_fused__to_copy_add_div_linalg_vector_norm_mul_transpose_22(%in_out_ptr0: !tt.ptr<f32> {tt.divisibility = 16 : i32} loc("in_out_ptr0"(#loc)), %in_ptr0: !tt.ptr<f32> {tt.divisibility = 16 : i32} loc("in_ptr0"(#loc)), %in_ptr1: !tt.ptr<bf16> {tt.divisibility = 16 : i32} loc("in_ptr1"(#loc)), %in_ptr2: !tt.ptr<bf16> {tt.divisibility = 16 : i32} loc("in_ptr2"(#loc)), %in_ptr3: !tt.ptr<bf16> {tt.divisibility = 16 : i32} loc("in_ptr3"(#loc)), %in_ptr4: !tt.ptr<f32> {tt.divisibility = 16 : i32} loc("in_ptr4"(#loc)), %out_ptr0: !tt.ptr<bf16> {tt.divisibility = 16 : i32} loc("out_ptr0"(#loc)), %out_ptr2: !tt.ptr<bf16> {tt.divisibility = 16 : i32} loc("out_ptr2"(#loc)), %out_ptr3: !tt.ptr<bf16> {tt.divisibility = 16 : i32} loc("out_ptr3"(#loc)), %xnumel: i32 {tt.divisibility = 16 : i32} loc("xnumel"(#loc)), %r0_numel: i32 {tt.divisibility = 16 : i32} loc("r0_numel"(#loc))) attributes {noinline = false} {
    %xnumel_0 = arith.constant 6144 : i32 loc(#loc105)
    %r0_numel_1 = arith.constant 192 : i32 loc(#loc106)
    %xoffset = tt.get_program_id x : i32 loc(#loc107)
    %xoffset_2 = arith.constant 1 : i32 loc(#loc108)
    %xoffset_3 = arith.constant 1 : i32 loc(#loc108)
    %xoffset_4 = arith.muli %xoffset, %xoffset_3 : i32 loc(#loc108)
    %xindex = tt.make_range {end = 1 : i32, start = 0 : i32} : tensor<1xi32> loc(#loc109)
    %xindex_5 = tt.expand_dims %xindex {axis = 1 : i32} : tensor<1xi32> -> tensor<1x1xi32> loc(#loc110)
    %xindex_6 = tt.splat %xoffset_4 : i32 -> tensor<1x1xi32> loc(#loc111)
    %xindex_7 = arith.addi %xindex_6, %xindex_5 : tensor<1x1xi32> loc(#loc111)
    %xmask = arith.constant dense<6144> : tensor<1x1xi32> loc(#loc112)
    %xmask_8 = arith.cmpi slt, %xindex_7, %xmask : tensor<1x1xi32> loc(#loc112)
    %r0_index = tt.make_range {end = 256 : i32, start = 0 : i32} : tensor<256xi32> loc(#loc113)
    %r0_index_9 = tt.expand_dims %r0_index {axis = 0 : i32} : tensor<256xi32> -> tensor<1x256xi32> loc(#loc114)
    %r0_offset = arith.constant 0 : i32 loc(#loc115)
    %r0_mask = arith.constant dense<192> : tensor<1x256xi32> loc(#loc116)
    %r0_mask_10 = arith.cmpi slt, %r0_index_9, %r0_mask : tensor<1x256xi32> loc(#loc116)
    %tmp0 = arith.constant 192 : i32 loc(#loc117)
    %tmp0_11 = arith.constant 192 : i32 loc(#loc117)
    %tmp0_12 = arith.constant dense<192> : tensor<1x1xi32> loc(#loc117)
    %tmp0_13 = arith.muli %tmp0_12, %xindex_7 : tensor<1x1xi32> loc(#loc117)
    %tmp0_14 = tt.broadcast %tmp0_13 : tensor<1x1xi32> -> tensor<1x256xi32> loc(#loc118)
    %tmp0_15 = arith.addi %r0_index_9, %tmp0_14 : tensor<1x256xi32> loc(#loc118)
    %tmp0_16 = tt.splat %in_ptr0 : !tt.ptr<f32> -> tensor<1x256x!tt.ptr<f32>> loc(#loc119)
    %tmp0_17 = tt.addptr %tmp0_16, %tmp0_15 : tensor<1x256x!tt.ptr<f32>>, tensor<1x256xi32> loc(#loc119)
    %tmp0_18 = tt.broadcast %xmask_8 : tensor<1x1xi1> -> tensor<1x256xi1> loc(#loc120)
    %tmp0_19 = arith.andi %r0_mask_10, %tmp0_18 : tensor<1x256xi1> loc(#loc120)
    %tmp0_20 = arith.constant 0.000000e+00 : f32 loc(#loc121)
    %tmp0_21 = arith.constant dense<0.000000e+00> : tensor<1x256xf32> loc(#loc121)
    %tmp0_22 = tt.load %tmp0_17, %tmp0_19, %tmp0_21 : tensor<1x256x!tt.ptr<f32>> loc(#loc121)
    %tmp2 = arith.constant 192 : i32 loc(#loc122)
    %tmp2_23 = arith.constant 192 : i32 loc(#loc122)
    %tmp2_24 = arith.constant dense<192> : tensor<1x1xi32> loc(#loc122)
    %tmp2_25 = arith.muli %tmp2_24, %xindex_7 : tensor<1x1xi32> loc(#loc122)
    %tmp2_26 = tt.broadcast %tmp2_25 : tensor<1x1xi32> -> tensor<1x256xi32> loc(#loc123)
    %tmp2_27 = arith.addi %r0_index_9, %tmp2_26 : tensor<1x256xi32> loc(#loc123)
    %tmp2_28 = tt.splat %in_out_ptr0 : !tt.ptr<f32> -> tensor<1x256x!tt.ptr<f32>> loc(#loc124)
    %tmp2_29 = tt.addptr %tmp2_28, %tmp2_27 : tensor<1x256x!tt.ptr<f32>>, tensor<1x256xi32> loc(#loc124)
    %tmp2_30 = tt.broadcast %xmask_8 : tensor<1x1xi1> -> tensor<1x256xi1> loc(#loc125)
    %tmp2_31 = arith.andi %r0_mask_10, %tmp2_30 : tensor<1x256xi1> loc(#loc125)
    %tmp2_32 = arith.constant 0.000000e+00 : f32 loc(#loc126)
    %tmp2_33 = arith.constant dense<0.000000e+00> : tensor<1x256xf32> loc(#loc126)
    %tmp2_34 = tt.load %tmp2_29, %tmp2_31, %tmp2_33 : tensor<1x256x!tt.ptr<f32>> loc(#loc126)
    %tmp5 = arith.constant 192 : i32 loc(#loc127)
    %tmp5_35 = arith.constant 192 : i32 loc(#loc127)
    %tmp5_36 = arith.constant dense<192> : tensor<1x1xi32> loc(#loc127)
    %tmp5_37 = arith.muli %tmp5_36, %xindex_7 : tensor<1x1xi32> loc(#loc127)
    %tmp5_38 = tt.broadcast %tmp5_37 : tensor<1x1xi32> -> tensor<1x256xi32> loc(#loc128)
    %tmp5_39 = arith.addi %r0_index_9, %tmp5_38 : tensor<1x256xi32> loc(#loc128)
    %tmp5_40 = tt.splat %in_ptr1 : !tt.ptr<bf16> -> tensor<1x256x!tt.ptr<bf16>> loc(#loc129)
    %tmp5_41 = tt.addptr %tmp5_40, %tmp5_39 : tensor<1x256x!tt.ptr<bf16>>, tensor<1x256xi32> loc(#loc129)
    %tmp5_42 = tt.broadcast %xmask_8 : tensor<1x1xi1> -> tensor<1x256xi1> loc(#loc130)
    %tmp5_43 = arith.andi %r0_mask_10, %tmp5_42 : tensor<1x256xi1> loc(#loc130)
    %tmp5_44 = arith.constant 0.000000e+00 : f32 loc(#loc131)
    %tmp5_45 = arith.constant dense<0.000000e+00> : tensor<1x256xf32> loc(#loc131)
    %tmp5_46 = arith.truncf %tmp5_45 : tensor<1x256xf32> to tensor<1x256xbf16> loc(#loc131)
    %tmp5_47 = tt.load %tmp5_41, %tmp5_43, %tmp5_46 : tensor<1x256x!tt.ptr<bf16>> loc(#loc131)
    %tmp5_48 = arith.extf %tmp5_47 : tensor<1x256xbf16> to tensor<1x256xf32> loc(#loc132)
    %tmp10 = arith.constant 192 : i32 loc(#loc133)
    %tmp10_49 = arith.constant 192 : i32 loc(#loc133)
    %tmp10_50 = arith.constant dense<192> : tensor<1x1xi32> loc(#loc133)
    %tmp10_51 = arith.muli %tmp10_50, %xindex_7 : tensor<1x1xi32> loc(#loc133)
    %tmp10_52 = tt.broadcast %tmp10_51 : tensor<1x1xi32> -> tensor<1x256xi32> loc(#loc134)
    %tmp10_53 = arith.addi %r0_index_9, %tmp10_52 : tensor<1x256xi32> loc(#loc134)
    %tmp10_54 = tt.splat %in_ptr2 : !tt.ptr<bf16> -> tensor<1x256x!tt.ptr<bf16>> loc(#loc135)
    %tmp10_55 = tt.addptr %tmp10_54, %tmp10_53 : tensor<1x256x!tt.ptr<bf16>>, tensor<1x256xi32> loc(#loc135)
    %tmp10_56 = tt.broadcast %xmask_8 : tensor<1x1xi1> -> tensor<1x256xi1> loc(#loc136)
    %tmp10_57 = arith.andi %r0_mask_10, %tmp10_56 : tensor<1x256xi1> loc(#loc136)
    %tmp10_58 = arith.constant 0.000000e+00 : f32 loc(#loc137)
    %tmp10_59 = arith.constant dense<0.000000e+00> : tensor<1x256xf32> loc(#loc137)
    %tmp10_60 = arith.truncf %tmp10_59 : tensor<1x256xf32> to tensor<1x256xbf16> loc(#loc137)
    %tmp10_61 = tt.load %tmp10_55, %tmp10_57, %tmp10_60 : tensor<1x256x!tt.ptr<bf16>> loc(#loc137)
    %tmp10_62 = arith.extf %tmp10_61 : tensor<1x256xbf16> to tensor<1x256xf32> loc(#loc138)
    %tmp15 = arith.constant 192 : i32 loc(#loc139)
    %tmp15_63 = arith.constant 192 : i32 loc(#loc139)
    %tmp15_64 = arith.constant dense<192> : tensor<1x1xi32> loc(#loc139)
    %tmp15_65 = arith.muli %tmp15_64, %xindex_7 : tensor<1x1xi32> loc(#loc139)
    %tmp15_66 = tt.broadcast %tmp15_65 : tensor<1x1xi32> -> tensor<1x256xi32> loc(#loc140)
    %tmp15_67 = arith.addi %r0_index_9, %tmp15_66 : tensor<1x256xi32> loc(#loc140)
    %tmp15_68 = tt.splat %in_ptr3 : !tt.ptr<bf16> -> tensor<1x256x!tt.ptr<bf16>> loc(#loc141)
    %tmp15_69 = tt.addptr %tmp15_68, %tmp15_67 : tensor<1x256x!tt.ptr<bf16>>, tensor<1x256xi32> loc(#loc141)
    %tmp15_70 = tt.broadcast %xmask_8 : tensor<1x1xi1> -> tensor<1x256xi1> loc(#loc142)
    %tmp15_71 = arith.andi %r0_mask_10, %tmp15_70 : tensor<1x256xi1> loc(#loc142)
    %tmp15_72 = arith.constant 0.000000e+00 : f32 loc(#loc143)
    %tmp15_73 = arith.constant dense<0.000000e+00> : tensor<1x256xf32> loc(#loc143)
    %tmp15_74 = arith.truncf %tmp15_73 : tensor<1x256xf32> to tensor<1x256xbf16> loc(#loc143)
    %tmp15_75 = tt.load %tmp15_69, %tmp15_71, %tmp15_74 : tensor<1x256x!tt.ptr<bf16>> loc(#loc143)
    %tmp15_76 = arith.extf %tmp15_75 : tensor<1x256xbf16> to tensor<1x256xf32> loc(#loc144)
    %tmp28 = tt.splat %in_ptr4 : !tt.ptr<f32> -> tensor<1x1x!tt.ptr<f32>> loc(#loc145)
    %tmp28_77 = tt.addptr %tmp28, %xindex_7 : tensor<1x1x!tt.ptr<f32>>, tensor<1x1xi32> loc(#loc145)
    %tmp28_78 = tt.load %tmp28_77, %xmask_8 evictionPolicy = evict_last : tensor<1x1x!tt.ptr<f32>> loc(#loc146)
    %tmp3 = arith.constant 3.741800e+00 : f32 loc(#loc147)
    %tmp4 = arith.constant dense<3.741800e+00> : tensor<1x256xf32> loc(#loc148)
    %tmp4_79 = arith.mulf %tmp2_34, %tmp4 : tensor<1x256xf32> loc(#loc148)
    %tmp7 = arith.addf %tmp4_79, %tmp5_48 : tensor<1x256xf32> loc(#loc149)
    %tmp8 = arith.constant 2.876900e+00 : f32 loc(#loc150)
    %tmp9 = arith.constant dense<2.876900e+00> : tensor<1x256xf32> loc(#loc151)
    %tmp9_80 = arith.mulf %tmp7, %tmp9 : tensor<1x256xf32> loc(#loc151)
    %tmp12 = arith.addf %tmp9_80, %tmp10_62 : tensor<1x256xf32> loc(#loc152)
    %tmp13 = arith.constant 2.836600e+00 : f32 loc(#loc153)
    %tmp14 = arith.constant dense<2.836600e+00> : tensor<1x256xf32> loc(#loc154)
    %tmp14_81 = arith.mulf %tmp12, %tmp14 : tensor<1x256xf32> loc(#loc154)
    %tmp17 = arith.addf %tmp14_81, %tmp15_76 : tensor<1x256xf32> loc(#loc155)
    %tmp18 = arith.addf %tmp0_22, %tmp17 : tensor<1x256xf32> loc(#loc156)
    %tmp19 = arith.mulf %tmp18, %tmp18 : tensor<1x256xf32> loc(#loc157)
    %tmp22 = tt.broadcast %xmask_8 : tensor<1x1xi1> -> tensor<1x256xi1> loc(#loc158)
    %tmp22_82 = arith.andi %r0_mask_10, %tmp22 : tensor<1x256xi1> loc(#loc158)
    %tmp22_83 = arith.constant 0 : i32 loc(#loc159)
    %tmp22_84 = arith.constant 0.000000e+00 : f32 loc(#loc159)
    %tmp22_85 = arith.constant dense<0.000000e+00> : tensor<1x256xf32> loc(#loc159)
    %tmp22_86 = arith.select %tmp22_82, %tmp19, %tmp22_85 : tensor<1x256xi1>, tensor<1x256xf32> loc(#loc159)
    %tmp23 = tt.call @"triton.language.standard.sum__fp32S1_256S__(1,)cconstexpr_1__(2,)cconstexpr_False__(3,)cNone"(%tmp22_86) : (tensor<1x256xf32>) -> tensor<1xf32> loc(#loc160)
    %tmp23_87 = tt.expand_dims %tmp23 {axis = 1 : i32} : tensor<1xf32> -> tensor<1x1xf32> loc(#loc161)
    %tmp24 = tt.extern_elementwise %tmp23_87 {libname = "", libpath = "", pure = true, symbol = "__nv_sqrtf"} : (tensor<1x1xf32>) -> tensor<1x1xf32> loc(#loc162)
    %tmp25 = arith.constant 9.99999974E-6 : f32 loc(#loc163)
    %tmp26 = arith.constant dense<9.99999974E-6> : tensor<1x1xf32> loc(#loc164)
    %tmp26_88 = arith.addf %tmp24, %tmp26 : tensor<1x1xf32> loc(#loc164)
    %tmp27 = tt.broadcast %tmp26_88 : tensor<1x1xf32> -> tensor<1x256xf32> loc(#loc165)
    %tmp27_89 = arith.divf %tmp18, %tmp27 : tensor<1x256xf32> loc(#loc165)
    %tmp29 = tt.extern_elementwise %tmp28_78 {libname = "", libpath = "", pure = true, symbol = "__nv_sqrtf"} : (tensor<1x1xf32>) -> tensor<1x1xf32> loc(#loc166)
    %tmp30 = tt.broadcast %tmp29 : tensor<1x1xf32> -> tensor<1x256xf32> loc(#loc167)
    %tmp30_90 = arith.mulf %tmp27_89, %tmp30 : tensor<1x256xf32> loc(#loc167)
    %c192_i32 = arith.constant 192 : i32 loc(#loc64)
    %c192_i32_91 = arith.constant 192 : i32 loc(#loc64)
    %cst = arith.constant dense<192> : tensor<1x1xi32> loc(#loc64)
    %0 = arith.muli %cst, %xindex_7 : tensor<1x1xi32> loc(#loc64)
    %1 = tt.broadcast %0 : tensor<1x1xi32> -> tensor<1x256xi32> loc(#loc65)
    %2 = arith.addi %r0_index_9, %1 : tensor<1x256xi32> loc(#loc65)
    %3 = tt.splat %out_ptr0 : !tt.ptr<bf16> -> tensor<1x256x!tt.ptr<bf16>> loc(#loc66)
    %4 = tt.addptr %3, %2 : tensor<1x256x!tt.ptr<bf16>>, tensor<1x256xi32> loc(#loc66)
    %5 = tt.broadcast %xmask_8 : tensor<1x1xi1> -> tensor<1x256xi1> loc(#loc67)
    %6 = arith.andi %r0_mask_10, %5 : tensor<1x256xi1> loc(#loc67)
    %7 = arith.truncf %tmp0_22 : tensor<1x256xf32> to tensor<1x256xbf16> loc(#loc68)
    tt.store %4, %7, %6 : tensor<1x256x!tt.ptr<bf16>> loc(#loc68)
    %c192_i32_92 = arith.constant 192 : i32 loc(#loc69)
    %c192_i32_93 = arith.constant 192 : i32 loc(#loc69)
    %cst_94 = arith.constant dense<192> : tensor<1x1xi32> loc(#loc69)
    %8 = arith.muli %cst_94, %xindex_7 : tensor<1x1xi32> loc(#loc69)
    %9 = tt.broadcast %8 : tensor<1x1xi32> -> tensor<1x256xi32> loc(#loc70)
    %10 = arith.addi %r0_index_9, %9 : tensor<1x256xi32> loc(#loc70)
    %11 = tt.splat %in_out_ptr0 : !tt.ptr<f32> -> tensor<1x256x!tt.ptr<f32>> loc(#loc71)
    %12 = tt.addptr %11, %10 : tensor<1x256x!tt.ptr<f32>>, tensor<1x256xi32> loc(#loc71)
    %13 = tt.broadcast %xmask_8 : tensor<1x1xi1> -> tensor<1x256xi1> loc(#loc72)
    %14 = arith.andi %r0_mask_10, %13 : tensor<1x256xi1> loc(#loc72)
    tt.store %12, %tmp18, %14 : tensor<1x256x!tt.ptr<f32>> loc(#loc73)
    %c192_i32_95 = arith.constant 192 : i32 loc(#loc74)
    %c192_i32_96 = arith.constant 192 : i32 loc(#loc74)
    %cst_97 = arith.constant dense<192> : tensor<1x1xi32> loc(#loc74)
    %15 = arith.muli %cst_97, %xindex_7 : tensor<1x1xi32> loc(#loc74)
    %16 = tt.broadcast %15 : tensor<1x1xi32> -> tensor<1x256xi32> loc(#loc75)
    %17 = arith.addi %r0_index_9, %16 : tensor<1x256xi32> loc(#loc75)
    %18 = tt.splat %out_ptr2 : !tt.ptr<bf16> -> tensor<1x256x!tt.ptr<bf16>> loc(#loc76)
    %19 = tt.addptr %18, %17 : tensor<1x256x!tt.ptr<bf16>>, tensor<1x256xi32> loc(#loc76)
    %20 = tt.broadcast %xmask_8 : tensor<1x1xi1> -> tensor<1x256xi1> loc(#loc77)
    %21 = arith.andi %r0_mask_10, %20 : tensor<1x256xi1> loc(#loc77)
    %22 = arith.truncf %tmp30_90 : tensor<1x256xf32> to tensor<1x256xbf16> loc(#loc78)
    tt.store %19, %22, %21 : tensor<1x256x!tt.ptr<bf16>> loc(#loc78)
    %c192_i32_98 = arith.constant 192 : i32 loc(#loc79)
    %c192_i32_99 = arith.constant 192 : i32 loc(#loc79)
    %cst_100 = arith.constant dense<192> : tensor<1x1xi32> loc(#loc79)
    %23 = arith.muli %cst_100, %xindex_7 : tensor<1x1xi32> loc(#loc79)
    %24 = tt.broadcast %23 : tensor<1x1xi32> -> tensor<1x256xi32> loc(#loc80)
    %25 = arith.addi %r0_index_9, %24 : tensor<1x256xi32> loc(#loc80)
    %26 = tt.splat %out_ptr3 : !tt.ptr<bf16> -> tensor<1x256x!tt.ptr<bf16>> loc(#loc81)
    %27 = tt.addptr %26, %25 : tensor<1x256x!tt.ptr<bf16>>, tensor<1x256xi32> loc(#loc81)
    %28 = tt.broadcast %xmask_8 : tensor<1x1xi1> -> tensor<1x256xi1> loc(#loc82)
    %29 = arith.andi %r0_mask_10, %28 : tensor<1x256xi1> loc(#loc82)
    %30 = arith.truncf %tmp30_90 : tensor<1x256xf32> to tensor<1x256xbf16> loc(#loc83)
    tt.store %27, %30, %29 : tensor<1x256x!tt.ptr<bf16>> loc(#loc83)
    tt.return loc(#loc84)
  } loc(#loc)
  tt.func private @"triton.language.standard.sum__fp32S1_256S__(1,)cconstexpr_1__(2,)cconstexpr_False__(3,)cNone"(%input: tensor<1x256xf32> loc("input"(#loc85))) -> tensor<1xf32> attributes {noinline = false} {
    %0 = "tt.reduce"(%input) <{axis = 1 : i32}> ({
    ^bb0(%arg1: f32 loc(unknown), %arg2: f32 loc(unknown)):
      %2 = tt.call @triton.language.standard._sum_combine__fp32_fp32__(%arg1, %arg2) : (f32, f32) -> f32 loc(#loc86)
      tt.reduce.return %2 : f32 loc(#loc86)
    }) : (tensor<1x256xf32>) -> tensor<1xf32> loc(#loc86)
    tt.return %0 : tensor<1xf32> loc(#loc88)
  ^bb1:  // no predecessors
    %1 = ub.poison : tensor<1xf32> loc(#loc89)
    tt.return %1 : tensor<1xf32> loc(#loc89)
  } loc(#loc85)
  tt.func private @triton.language.standard._sum_combine__fp32_fp32__(%a: f32 loc("a"(#loc90)), %b: f32 loc("b"(#loc90))) -> f32 attributes {noinline = false} {
    %0 = arith.addf %a, %b : f32 loc(#loc91)
    tt.return %0 : f32 loc(#loc92)
  ^bb1:  // no predecessors
    %1 = ub.poison : f32 loc(#loc93)
    tt.return %1 : f32 loc(#loc93)
  } loc(#loc90)
} loc(#loc)
#loc1 = loc("/NHNHOME/WORKSPACE/26msit001_A/jinhyeok/TTT_camera_embedding/lact_llm/.cache_inductor/ma/cmaqshx4onvu6rvo4tlw5y3jlfrhipypvg563xopucphl753wlvg.py":19:13)
#loc2 = loc("/NHNHOME/WORKSPACE/26msit001_A/jinhyeok/TTT_camera_embedding/lact_llm/.cache_inductor/ma/cmaqshx4onvu6rvo4tlw5y3jlfrhipypvg563xopucphl753wlvg.py":20:15)
#loc3 = loc("/NHNHOME/WORKSPACE/26msit001_A/jinhyeok/TTT_camera_embedding/lact_llm/.cache_inductor/ma/cmaqshx4onvu6rvo4tlw5y3jlfrhipypvg563xopucphl753wlvg.py":24:28)
#loc4 = loc("/NHNHOME/WORKSPACE/26msit001_A/jinhyeok/TTT_camera_embedding/lact_llm/.cache_inductor/ma/cmaqshx4onvu6rvo4tlw5y3jlfrhipypvg563xopucphl753wlvg.py":24:33)
#loc5 = loc("/NHNHOME/WORKSPACE/26msit001_A/jinhyeok/TTT_camera_embedding/lact_llm/.cache_inductor/ma/cmaqshx4onvu6rvo4tlw5y3jlfrhipypvg563xopucphl753wlvg.py":25:36)
#loc6 = loc("/NHNHOME/WORKSPACE/26msit001_A/jinhyeok/TTT_camera_embedding/lact_llm/.cache_inductor/ma/cmaqshx4onvu6rvo4tlw5y3jlfrhipypvg563xopucphl753wlvg.py":25:44)
#loc7 = loc("/NHNHOME/WORKSPACE/26msit001_A/jinhyeok/TTT_camera_embedding/lact_llm/.cache_inductor/ma/cmaqshx4onvu6rvo4tlw5y3jlfrhipypvg563xopucphl753wlvg.py":25:23)
#loc8 = loc("/NHNHOME/WORKSPACE/26msit001_A/jinhyeok/TTT_camera_embedding/lact_llm/.cache_inductor/ma/cmaqshx4onvu6rvo4tlw5y3jlfrhipypvg563xopucphl753wlvg.py":26:21)
#loc9 = loc("/NHNHOME/WORKSPACE/26msit001_A/jinhyeok/TTT_camera_embedding/lact_llm/.cache_inductor/ma/cmaqshx4onvu6rvo4tlw5y3jlfrhipypvg563xopucphl753wlvg.py":27:28)
#loc10 = loc("/NHNHOME/WORKSPACE/26msit001_A/jinhyeok/TTT_camera_embedding/lact_llm/.cache_inductor/ma/cmaqshx4onvu6rvo4tlw5y3jlfrhipypvg563xopucphl753wlvg.py":27:38)
#loc11 = loc("/NHNHOME/WORKSPACE/26msit001_A/jinhyeok/TTT_camera_embedding/lact_llm/.cache_inductor/ma/cmaqshx4onvu6rvo4tlw5y3jlfrhipypvg563xopucphl753wlvg.py":28:16)
#loc12 = loc("/NHNHOME/WORKSPACE/26msit001_A/jinhyeok/TTT_camera_embedding/lact_llm/.cache_inductor/ma/cmaqshx4onvu6rvo4tlw5y3jlfrhipypvg563xopucphl753wlvg.py":29:25)
#loc13 = loc("/NHNHOME/WORKSPACE/26msit001_A/jinhyeok/TTT_camera_embedding/lact_llm/.cache_inductor/ma/cmaqshx4onvu6rvo4tlw5y3jlfrhipypvg563xopucphl753wlvg.py":34:41)
#loc14 = loc("/NHNHOME/WORKSPACE/26msit001_A/jinhyeok/TTT_camera_embedding/lact_llm/.cache_inductor/ma/cmaqshx4onvu6rvo4tlw5y3jlfrhipypvg563xopucphl753wlvg.py":34:37)
#loc15 = loc("/NHNHOME/WORKSPACE/26msit001_A/jinhyeok/TTT_camera_embedding/lact_llm/.cache_inductor/ma/cmaqshx4onvu6rvo4tlw5y3jlfrhipypvg563xopucphl753wlvg.py":34:30)
#loc16 = loc("/NHNHOME/WORKSPACE/26msit001_A/jinhyeok/TTT_camera_embedding/lact_llm/.cache_inductor/ma/cmaqshx4onvu6rvo4tlw5y3jlfrhipypvg563xopucphl753wlvg.py":34:56)
#loc17 = loc("/NHNHOME/WORKSPACE/26msit001_A/jinhyeok/TTT_camera_embedding/lact_llm/.cache_inductor/ma/cmaqshx4onvu6rvo4tlw5y3jlfrhipypvg563xopucphl753wlvg.py":34:46)
#loc18 = loc("/NHNHOME/WORKSPACE/26msit001_A/jinhyeok/TTT_camera_embedding/lact_llm/.cache_inductor/ma/cmaqshx4onvu6rvo4tlw5y3jlfrhipypvg563xopucphl753wlvg.py":35:45)
#loc19 = loc("/NHNHOME/WORKSPACE/26msit001_A/jinhyeok/TTT_camera_embedding/lact_llm/.cache_inductor/ma/cmaqshx4onvu6rvo4tlw5y3jlfrhipypvg563xopucphl753wlvg.py":35:41)
#loc20 = loc("/NHNHOME/WORKSPACE/26msit001_A/jinhyeok/TTT_camera_embedding/lact_llm/.cache_inductor/ma/cmaqshx4onvu6rvo4tlw5y3jlfrhipypvg563xopucphl753wlvg.py":35:34)
#loc21 = loc("/NHNHOME/WORKSPACE/26msit001_A/jinhyeok/TTT_camera_embedding/lact_llm/.cache_inductor/ma/cmaqshx4onvu6rvo4tlw5y3jlfrhipypvg563xopucphl753wlvg.py":35:60)
#loc22 = loc("/NHNHOME/WORKSPACE/26msit001_A/jinhyeok/TTT_camera_embedding/lact_llm/.cache_inductor/ma/cmaqshx4onvu6rvo4tlw5y3jlfrhipypvg563xopucphl753wlvg.py":35:50)
#loc23 = loc("/NHNHOME/WORKSPACE/26msit001_A/jinhyeok/TTT_camera_embedding/lact_llm/.cache_inductor/ma/cmaqshx4onvu6rvo4tlw5y3jlfrhipypvg563xopucphl753wlvg.py":36:41)
#loc24 = loc("/NHNHOME/WORKSPACE/26msit001_A/jinhyeok/TTT_camera_embedding/lact_llm/.cache_inductor/ma/cmaqshx4onvu6rvo4tlw5y3jlfrhipypvg563xopucphl753wlvg.py":36:37)
#loc25 = loc("/NHNHOME/WORKSPACE/26msit001_A/jinhyeok/TTT_camera_embedding/lact_llm/.cache_inductor/ma/cmaqshx4onvu6rvo4tlw5y3jlfrhipypvg563xopucphl753wlvg.py":36:30)
#loc26 = loc("/NHNHOME/WORKSPACE/26msit001_A/jinhyeok/TTT_camera_embedding/lact_llm/.cache_inductor/ma/cmaqshx4onvu6rvo4tlw5y3jlfrhipypvg563xopucphl753wlvg.py":36:56)
#loc27 = loc("/NHNHOME/WORKSPACE/26msit001_A/jinhyeok/TTT_camera_embedding/lact_llm/.cache_inductor/ma/cmaqshx4onvu6rvo4tlw5y3jlfrhipypvg563xopucphl753wlvg.py":36:46)
#loc28 = loc("/NHNHOME/WORKSPACE/26msit001_A/jinhyeok/TTT_camera_embedding/lact_llm/.cache_inductor/ma/cmaqshx4onvu6rvo4tlw5y3jlfrhipypvg563xopucphl753wlvg.py":36:77)
#loc29 = loc("/NHNHOME/WORKSPACE/26msit001_A/jinhyeok/TTT_camera_embedding/lact_llm/.cache_inductor/ma/cmaqshx4onvu6rvo4tlw5y3jlfrhipypvg563xopucphl753wlvg.py":37:42)
#loc30 = loc("/NHNHOME/WORKSPACE/26msit001_A/jinhyeok/TTT_camera_embedding/lact_llm/.cache_inductor/ma/cmaqshx4onvu6rvo4tlw5y3jlfrhipypvg563xopucphl753wlvg.py":37:38)
#loc31 = loc("/NHNHOME/WORKSPACE/26msit001_A/jinhyeok/TTT_camera_embedding/lact_llm/.cache_inductor/ma/cmaqshx4onvu6rvo4tlw5y3jlfrhipypvg563xopucphl753wlvg.py":37:31)
#loc32 = loc("/NHNHOME/WORKSPACE/26msit001_A/jinhyeok/TTT_camera_embedding/lact_llm/.cache_inductor/ma/cmaqshx4onvu6rvo4tlw5y3jlfrhipypvg563xopucphl753wlvg.py":37:57)
#loc33 = loc("/NHNHOME/WORKSPACE/26msit001_A/jinhyeok/TTT_camera_embedding/lact_llm/.cache_inductor/ma/cmaqshx4onvu6rvo4tlw5y3jlfrhipypvg563xopucphl753wlvg.py":37:47)
#loc34 = loc("/NHNHOME/WORKSPACE/26msit001_A/jinhyeok/TTT_camera_embedding/lact_llm/.cache_inductor/ma/cmaqshx4onvu6rvo4tlw5y3jlfrhipypvg563xopucphl753wlvg.py":37:78)
#loc35 = loc("/NHNHOME/WORKSPACE/26msit001_A/jinhyeok/TTT_camera_embedding/lact_llm/.cache_inductor/ma/cmaqshx4onvu6rvo4tlw5y3jlfrhipypvg563xopucphl753wlvg.py":38:42)
#loc36 = loc("/NHNHOME/WORKSPACE/26msit001_A/jinhyeok/TTT_camera_embedding/lact_llm/.cache_inductor/ma/cmaqshx4onvu6rvo4tlw5y3jlfrhipypvg563xopucphl753wlvg.py":38:38)
#loc37 = loc("/NHNHOME/WORKSPACE/26msit001_A/jinhyeok/TTT_camera_embedding/lact_llm/.cache_inductor/ma/cmaqshx4onvu6rvo4tlw5y3jlfrhipypvg563xopucphl753wlvg.py":38:31)
#loc38 = loc("/NHNHOME/WORKSPACE/26msit001_A/jinhyeok/TTT_camera_embedding/lact_llm/.cache_inductor/ma/cmaqshx4onvu6rvo4tlw5y3jlfrhipypvg563xopucphl753wlvg.py":38:57)
#loc39 = loc("/NHNHOME/WORKSPACE/26msit001_A/jinhyeok/TTT_camera_embedding/lact_llm/.cache_inductor/ma/cmaqshx4onvu6rvo4tlw5y3jlfrhipypvg563xopucphl753wlvg.py":38:47)
#loc40 = loc("/NHNHOME/WORKSPACE/26msit001_A/jinhyeok/TTT_camera_embedding/lact_llm/.cache_inductor/ma/cmaqshx4onvu6rvo4tlw5y3jlfrhipypvg563xopucphl753wlvg.py":38:78)
#loc41 = loc("/NHNHOME/WORKSPACE/26msit001_A/jinhyeok/TTT_camera_embedding/lact_llm/.cache_inductor/ma/cmaqshx4onvu6rvo4tlw5y3jlfrhipypvg563xopucphl753wlvg.py":39:31)
#loc42 = loc("/NHNHOME/WORKSPACE/26msit001_A/jinhyeok/TTT_camera_embedding/lact_llm/.cache_inductor/ma/cmaqshx4onvu6rvo4tlw5y3jlfrhipypvg563xopucphl753wlvg.py":39:36)
#loc43 = loc("/NHNHOME/WORKSPACE/26msit001_A/jinhyeok/TTT_camera_embedding/lact_llm/.cache_inductor/ma/cmaqshx4onvu6rvo4tlw5y3jlfrhipypvg563xopucphl753wlvg.py":41:11)
#loc44 = loc("/NHNHOME/WORKSPACE/26msit001_A/jinhyeok/TTT_camera_embedding/lact_llm/.cache_inductor/ma/cmaqshx4onvu6rvo4tlw5y3jlfrhipypvg563xopucphl753wlvg.py":42:18)
#loc45 = loc("/NHNHOME/WORKSPACE/26msit001_A/jinhyeok/TTT_camera_embedding/lact_llm/.cache_inductor/ma/cmaqshx4onvu6rvo4tlw5y3jlfrhipypvg563xopucphl753wlvg.py":44:18)
#loc46 = loc("/NHNHOME/WORKSPACE/26msit001_A/jinhyeok/TTT_camera_embedding/lact_llm/.cache_inductor/ma/cmaqshx4onvu6rvo4tlw5y3jlfrhipypvg563xopucphl753wlvg.py":45:11)
#loc47 = loc("/NHNHOME/WORKSPACE/26msit001_A/jinhyeok/TTT_camera_embedding/lact_llm/.cache_inductor/ma/cmaqshx4onvu6rvo4tlw5y3jlfrhipypvg563xopucphl753wlvg.py":46:18)
#loc48 = loc("/NHNHOME/WORKSPACE/26msit001_A/jinhyeok/TTT_camera_embedding/lact_llm/.cache_inductor/ma/cmaqshx4onvu6rvo4tlw5y3jlfrhipypvg563xopucphl753wlvg.py":48:19)
#loc49 = loc("/NHNHOME/WORKSPACE/26msit001_A/jinhyeok/TTT_camera_embedding/lact_llm/.cache_inductor/ma/cmaqshx4onvu6rvo4tlw5y3jlfrhipypvg563xopucphl753wlvg.py":49:12)
#loc50 = loc("/NHNHOME/WORKSPACE/26msit001_A/jinhyeok/TTT_camera_embedding/lact_llm/.cache_inductor/ma/cmaqshx4onvu6rvo4tlw5y3jlfrhipypvg563xopucphl753wlvg.py":50:20)
#loc51 = loc("/NHNHOME/WORKSPACE/26msit001_A/jinhyeok/TTT_camera_embedding/lact_llm/.cache_inductor/ma/cmaqshx4onvu6rvo4tlw5y3jlfrhipypvg563xopucphl753wlvg.py":52:20)
#loc52 = loc("/NHNHOME/WORKSPACE/26msit001_A/jinhyeok/TTT_camera_embedding/lact_llm/.cache_inductor/ma/cmaqshx4onvu6rvo4tlw5y3jlfrhipypvg563xopucphl753wlvg.py":53:19)
#loc53 = loc("/NHNHOME/WORKSPACE/26msit001_A/jinhyeok/TTT_camera_embedding/lact_llm/.cache_inductor/ma/cmaqshx4onvu6rvo4tlw5y3jlfrhipypvg563xopucphl753wlvg.py":54:20)
#loc54 = loc("/NHNHOME/WORKSPACE/26msit001_A/jinhyeok/TTT_camera_embedding/lact_llm/.cache_inductor/ma/cmaqshx4onvu6rvo4tlw5y3jlfrhipypvg563xopucphl753wlvg.py":56:31)
#loc55 = loc("/NHNHOME/WORKSPACE/26msit001_A/jinhyeok/TTT_camera_embedding/lact_llm/.cache_inductor/ma/cmaqshx4onvu6rvo4tlw5y3jlfrhipypvg563xopucphl753wlvg.py":56:45)
#loc56 = loc("/NHNHOME/WORKSPACE/26msit001_A/jinhyeok/TTT_camera_embedding/lact_llm/.cache_inductor/ma/cmaqshx4onvu6rvo4tlw5y3jlfrhipypvg563xopucphl753wlvg.py":57:26)
#loc57 = loc("/NHNHOME/WORKSPACE/26msit001_A/jinhyeok/TTT_camera_embedding/lact_llm/.cache_inductor/ma/cmaqshx4onvu6rvo4tlw5y3jlfrhipypvg563xopucphl753wlvg.py":57:29)
#loc58 = loc("/NHNHOME/WORKSPACE/26msit001_A/jinhyeok/TTT_camera_embedding/lact_llm/.cache_inductor/ma/cmaqshx4onvu6rvo4tlw5y3jlfrhipypvg563xopucphl753wlvg.py":58:27)
#loc59 = loc("/NHNHOME/WORKSPACE/26msit001_A/jinhyeok/TTT_camera_embedding/lact_llm/.cache_inductor/ma/cmaqshx4onvu6rvo4tlw5y3jlfrhipypvg563xopucphl753wlvg.py":59:12)
#loc60 = loc("/NHNHOME/WORKSPACE/26msit001_A/jinhyeok/TTT_camera_embedding/lact_llm/.cache_inductor/ma/cmaqshx4onvu6rvo4tlw5y3jlfrhipypvg563xopucphl753wlvg.py":60:20)
#loc61 = loc("/NHNHOME/WORKSPACE/26msit001_A/jinhyeok/TTT_camera_embedding/lact_llm/.cache_inductor/ma/cmaqshx4onvu6rvo4tlw5y3jlfrhipypvg563xopucphl753wlvg.py":61:21)
#loc62 = loc("/NHNHOME/WORKSPACE/26msit001_A/jinhyeok/TTT_camera_embedding/lact_llm/.cache_inductor/ma/cmaqshx4onvu6rvo4tlw5y3jlfrhipypvg563xopucphl753wlvg.py":62:27)
#loc63 = loc("/NHNHOME/WORKSPACE/26msit001_A/jinhyeok/TTT_camera_embedding/lact_llm/.cache_inductor/ma/cmaqshx4onvu6rvo4tlw5y3jlfrhipypvg563xopucphl753wlvg.py":63:20)
#loc64 = loc("/NHNHOME/WORKSPACE/26msit001_A/jinhyeok/TTT_camera_embedding/lact_llm/.cache_inductor/ma/cmaqshx4onvu6rvo4tlw5y3jlfrhipypvg563xopucphl753wlvg.py":65:36)
#loc65 = loc("/NHNHOME/WORKSPACE/26msit001_A/jinhyeok/TTT_camera_embedding/lact_llm/.cache_inductor/ma/cmaqshx4onvu6rvo4tlw5y3jlfrhipypvg563xopucphl753wlvg.py":65:32)
#loc66 = loc("/NHNHOME/WORKSPACE/26msit001_A/jinhyeok/TTT_camera_embedding/lact_llm/.cache_inductor/ma/cmaqshx4onvu6rvo4tlw5y3jlfrhipypvg563xopucphl753wlvg.py":65:25)
#loc67 = loc("/NHNHOME/WORKSPACE/26msit001_A/jinhyeok/TTT_camera_embedding/lact_llm/.cache_inductor/ma/cmaqshx4onvu6rvo4tlw5y3jlfrhipypvg563xopucphl753wlvg.py":65:57)
#loc68 = loc("/NHNHOME/WORKSPACE/26msit001_A/jinhyeok/TTT_camera_embedding/lact_llm/.cache_inductor/ma/cmaqshx4onvu6rvo4tlw5y3jlfrhipypvg563xopucphl753wlvg.py":65:47)
#loc69 = loc("/NHNHOME/WORKSPACE/26msit001_A/jinhyeok/TTT_camera_embedding/lact_llm/.cache_inductor/ma/cmaqshx4onvu6rvo4tlw5y3jlfrhipypvg563xopucphl753wlvg.py":66:39)
#loc70 = loc("/NHNHOME/WORKSPACE/26msit001_A/jinhyeok/TTT_camera_embedding/lact_llm/.cache_inductor/ma/cmaqshx4onvu6rvo4tlw5y3jlfrhipypvg563xopucphl753wlvg.py":66:35)
#loc71 = loc("/NHNHOME/WORKSPACE/26msit001_A/jinhyeok/TTT_camera_embedding/lact_llm/.cache_inductor/ma/cmaqshx4onvu6rvo4tlw5y3jlfrhipypvg563xopucphl753wlvg.py":66:28)
#loc72 = loc("/NHNHOME/WORKSPACE/26msit001_A/jinhyeok/TTT_camera_embedding/lact_llm/.cache_inductor/ma/cmaqshx4onvu6rvo4tlw5y3jlfrhipypvg563xopucphl753wlvg.py":66:61)
#loc73 = loc("/NHNHOME/WORKSPACE/26msit001_A/jinhyeok/TTT_camera_embedding/lact_llm/.cache_inductor/ma/cmaqshx4onvu6rvo4tlw5y3jlfrhipypvg563xopucphl753wlvg.py":66:51)
#loc74 = loc("/NHNHOME/WORKSPACE/26msit001_A/jinhyeok/TTT_camera_embedding/lact_llm/.cache_inductor/ma/cmaqshx4onvu6rvo4tlw5y3jlfrhipypvg563xopucphl753wlvg.py":67:36)
#loc75 = loc("/NHNHOME/WORKSPACE/26msit001_A/jinhyeok/TTT_camera_embedding/lact_llm/.cache_inductor/ma/cmaqshx4onvu6rvo4tlw5y3jlfrhipypvg563xopucphl753wlvg.py":67:32)
#loc76 = loc("/NHNHOME/WORKSPACE/26msit001_A/jinhyeok/TTT_camera_embedding/lact_llm/.cache_inductor/ma/cmaqshx4onvu6rvo4tlw5y3jlfrhipypvg563xopucphl753wlvg.py":67:25)
#loc77 = loc("/NHNHOME/WORKSPACE/26msit001_A/jinhyeok/TTT_camera_embedding/lact_llm/.cache_inductor/ma/cmaqshx4onvu6rvo4tlw5y3jlfrhipypvg563xopucphl753wlvg.py":67:58)
#loc78 = loc("/NHNHOME/WORKSPACE/26msit001_A/jinhyeok/TTT_camera_embedding/lact_llm/.cache_inductor/ma/cmaqshx4onvu6rvo4tlw5y3jlfrhipypvg563xopucphl753wlvg.py":67:48)
#loc79 = loc("/NHNHOME/WORKSPACE/26msit001_A/jinhyeok/TTT_camera_embedding/lact_llm/.cache_inductor/ma/cmaqshx4onvu6rvo4tlw5y3jlfrhipypvg563xopucphl753wlvg.py":68:36)
#loc80 = loc("/NHNHOME/WORKSPACE/26msit001_A/jinhyeok/TTT_camera_embedding/lact_llm/.cache_inductor/ma/cmaqshx4onvu6rvo4tlw5y3jlfrhipypvg563xopucphl753wlvg.py":68:32)
#loc81 = loc("/NHNHOME/WORKSPACE/26msit001_A/jinhyeok/TTT_camera_embedding/lact_llm/.cache_inductor/ma/cmaqshx4onvu6rvo4tlw5y3jlfrhipypvg563xopucphl753wlvg.py":68:25)
#loc82 = loc("/NHNHOME/WORKSPACE/26msit001_A/jinhyeok/TTT_camera_embedding/lact_llm/.cache_inductor/ma/cmaqshx4onvu6rvo4tlw5y3jlfrhipypvg563xopucphl753wlvg.py":68:58)
#loc83 = loc("/NHNHOME/WORKSPACE/26msit001_A/jinhyeok/TTT_camera_embedding/lact_llm/.cache_inductor/ma/cmaqshx4onvu6rvo4tlw5y3jlfrhipypvg563xopucphl753wlvg.py":68:48)
#loc84 = loc("/NHNHOME/WORKSPACE/26msit001_A/jinhyeok/TTT_camera_embedding/lact_llm/.cache_inductor/ma/cmaqshx4onvu6rvo4tlw5y3jlfrhipypvg563xopucphl753wlvg.py":68:4)
#loc86 = loc("/NHNHOME/WORKSPACE/26msit001_A/jinhyeok/TTT_camera_embedding/.venv_llm/lib/python3.12/site-packages/triton/language/standard.py":291:36)
#loc88 = loc("/NHNHOME/WORKSPACE/26msit001_A/jinhyeok/TTT_camera_embedding/.venv_llm/lib/python3.12/site-packages/triton/language/standard.py":291:11)
#loc89 = loc("/NHNHOME/WORKSPACE/26msit001_A/jinhyeok/TTT_camera_embedding/.venv_llm/lib/python3.12/site-packages/triton/language/standard.py":291:4)
#loc91 = loc("/NHNHOME/WORKSPACE/26msit001_A/jinhyeok/TTT_camera_embedding/.venv_llm/lib/python3.12/site-packages/triton/language/standard.py":261:15)
#loc92 = loc("/NHNHOME/WORKSPACE/26msit001_A/jinhyeok/TTT_camera_embedding/.venv_llm/lib/python3.12/site-packages/triton/language/standard.py":261:11)
#loc93 = loc("/NHNHOME/WORKSPACE/26msit001_A/jinhyeok/TTT_camera_embedding/.venv_llm/lib/python3.12/site-packages/triton/language/standard.py":261:4)
#loc105 = loc("xnumel"(#loc1))
#loc106 = loc("r0_numel"(#loc2))
#loc107 = loc("xoffset"(#loc3))
#loc108 = loc("xoffset"(#loc4))
#loc109 = loc("xindex"(#loc5))
#loc110 = loc("xindex"(#loc6))
#loc111 = loc("xindex"(#loc7))
#loc112 = loc("xmask"(#loc8))
#loc113 = loc("r0_index"(#loc9))
#loc114 = loc("r0_index"(#loc10))
#loc115 = loc("r0_offset"(#loc11))
#loc116 = loc("r0_mask"(#loc12))
#loc117 = loc("tmp0"(#loc13))
#loc118 = loc("tmp0"(#loc14))
#loc119 = loc("tmp0"(#loc15))
#loc120 = loc("tmp0"(#loc16))
#loc121 = loc("tmp0"(#loc17))
#loc122 = loc("tmp2"(#loc18))
#loc123 = loc("tmp2"(#loc19))
#loc124 = loc("tmp2"(#loc20))
#loc125 = loc("tmp2"(#loc21))
#loc126 = loc("tmp2"(#loc22))
#loc127 = loc("tmp5"(#loc23))
#loc128 = loc("tmp5"(#loc24))
#loc129 = loc("tmp5"(#loc25))
#loc130 = loc("tmp5"(#loc26))
#loc131 = loc("tmp5"(#loc27))
#loc132 = loc("tmp5"(#loc28))
#loc133 = loc("tmp10"(#loc29))
#loc134 = loc("tmp10"(#loc30))
#loc135 = loc("tmp10"(#loc31))
#loc136 = loc("tmp10"(#loc32))
#loc137 = loc("tmp10"(#loc33))
#loc138 = loc("tmp10"(#loc34))
#loc139 = loc("tmp15"(#loc35))
#loc140 = loc("tmp15"(#loc36))
#loc141 = loc("tmp15"(#loc37))
#loc142 = loc("tmp15"(#loc38))
#loc143 = loc("tmp15"(#loc39))
#loc144 = loc("tmp15"(#loc40))
#loc145 = loc("tmp28"(#loc41))
#loc146 = loc("tmp28"(#loc42))
#loc147 = loc("tmp3"(#loc43))
#loc148 = loc("tmp4"(#loc44))
#loc149 = loc("tmp7"(#loc45))
#loc150 = loc("tmp8"(#loc46))
#loc151 = loc("tmp9"(#loc47))
#loc152 = loc("tmp12"(#loc48))
#loc153 = loc("tmp13"(#loc49))
#loc154 = loc("tmp14"(#loc50))
#loc155 = loc("tmp17"(#loc51))
#loc156 = loc("tmp18"(#loc52))
#loc157 = loc("tmp19"(#loc53))
#loc158 = loc("tmp22"(#loc54))
#loc159 = loc("tmp22"(#loc55))
#loc160 = loc("tmp23"(#loc56))
#loc161 = loc("tmp23"(#loc57))
#loc162 = loc("tmp24"(#loc58))
#loc163 = loc("tmp25"(#loc59))
#loc164 = loc("tmp26"(#loc60))
#loc165 = loc("tmp27"(#loc61))
#loc166 = loc("tmp29"(#loc62))
#loc167 = loc("tmp30"(#loc63))
