#loc = loc("/NHNHOME/WORKSPACE/26msit001_A/jinhyeok/TTT_camera_embedding/lact_llm/.cache_inductor/wj/cwjsvo6gl2m2wqa6tzxjan2q6meup6ylkkaymlavopymyvmdcgvi.py":18:0)
#loc27 = loc("in_ptr0"(#loc))
#loc28 = loc("in_ptr1"(#loc))
#loc29 = loc("in_ptr2"(#loc))
#loc30 = loc("out_ptr0"(#loc))
#loc31 = loc("out_ptr1"(#loc))
#loc32 = loc("out_ptr2"(#loc))
#loc33 = loc("xnumel"(#loc))
module {
  tt.func public @triton_poi_fused__to_copy_add_div_linalg_vector_norm_mul_transpose_50(%in_ptr0: !tt.ptr<bf16> {tt.divisibility = 16 : i32} loc("in_ptr0"(#loc)), %in_ptr1: !tt.ptr<f32> {tt.divisibility = 16 : i32} loc("in_ptr1"(#loc)), %in_ptr2: !tt.ptr<bf16> {tt.divisibility = 16 : i32} loc("in_ptr2"(#loc)), %out_ptr0: !tt.ptr<bf16> {tt.divisibility = 16 : i32} loc("out_ptr0"(#loc)), %out_ptr1: !tt.ptr<bf16> {tt.divisibility = 16 : i32} loc("out_ptr1"(#loc)), %out_ptr2: !tt.ptr<bf16> {tt.divisibility = 16 : i32} loc("out_ptr2"(#loc)), %xnumel: i32 {tt.divisibility = 16 : i32} loc("xnumel"(#loc))) attributes {noinline = false} {
    %tmp8 = arith.constant dense<4.084800e+00> : tensor<512xf32> loc(#loc34)
    %tmp5 = arith.constant dense<1.000000e-07> : tensor<512xf32> loc(#loc35)
    %x1 = arith.constant dense<36864> : tensor<512xi32> loc(#loc36)
    %c512_i32 = arith.constant 512 : i32 loc(#loc4)
    %xoffset = tt.get_program_id x : i32 loc(#loc37)
    %xoffset_0 = arith.muli %xoffset, %c512_i32 : i32 loc(#loc38)
    %xindex = tt.make_range {end = 512 : i32, start = 0 : i32} : tensor<512xi32> loc(#loc39)
    %xindex_1 = tt.splat %xoffset_0 : i32 -> tensor<512xi32> loc(#loc40)
    %xindex_2 = arith.addi %xindex_1, %xindex : tensor<512xi32> loc(#loc40)
    %x1_3 = arith.divsi %xindex_2, %x1 : tensor<512xi32> loc(#loc36)
    %tmp0 = tt.splat %in_ptr0 : !tt.ptr<bf16> -> tensor<512x!tt.ptr<bf16>> loc(#loc41)
    %tmp0_4 = tt.addptr %tmp0, %xindex_2 : tensor<512x!tt.ptr<bf16>>, tensor<512xi32> loc(#loc41)
    %tmp0_5 = tt.load %tmp0_4 : tensor<512x!tt.ptr<bf16>> loc(#loc42)
    %tmp0_6 = arith.extf %tmp0_5 : tensor<512xbf16> to tensor<512xf32> loc(#loc43)
    %tmp2 = tt.splat %in_ptr1 : !tt.ptr<f32> -> tensor<512x!tt.ptr<f32>> loc(#loc44)
    %tmp2_7 = tt.addptr %tmp2, %x1_3 : tensor<512x!tt.ptr<f32>>, tensor<512xi32> loc(#loc44)
    %tmp2_8 = tt.load %tmp2_7 evictionPolicy = evict_last : tensor<512x!tt.ptr<f32>> loc(#loc45)
    %tmp9 = tt.splat %in_ptr2 : !tt.ptr<bf16> -> tensor<512x!tt.ptr<bf16>> loc(#loc46)
    %tmp9_9 = tt.addptr %tmp9, %xindex_2 : tensor<512x!tt.ptr<bf16>>, tensor<512xi32> loc(#loc46)
    %tmp9_10 = tt.load %tmp9_9 : tensor<512x!tt.ptr<bf16>> loc(#loc47)
    %tmp9_11 = arith.extf %tmp9_10 : tensor<512xbf16> to tensor<512xf32> loc(#loc48)
    %tmp3 = tt.extern_elementwise %tmp2_8 {libname = "", libpath = "", pure = true, symbol = "__nv_sqrtf"} : (tensor<512xf32>) -> tensor<512xf32> loc(#loc49)
    %tmp5_12 = arith.addf %tmp3, %tmp5 : tensor<512xf32> loc(#loc35)
    %tmp6 = arith.divf %tmp0_6, %tmp5_12 : tensor<512xf32> loc(#loc50)
    %tmp8_13 = arith.mulf %tmp6, %tmp8 : tensor<512xf32> loc(#loc34)
    %tmp11 = arith.addf %tmp8_13, %tmp9_11 : tensor<512xf32> loc(#loc51)
    %0 = tt.splat %out_ptr0 : !tt.ptr<bf16> -> tensor<512x!tt.ptr<bf16>> loc(#loc20)
    %1 = tt.addptr %0, %xindex_2 : tensor<512x!tt.ptr<bf16>>, tensor<512xi32> loc(#loc20)
    %2 = arith.truncf %tmp11 : tensor<512xf32> to tensor<512xbf16> loc(#loc21)
    tt.store %1, %2 : tensor<512x!tt.ptr<bf16>> loc(#loc21)
    %3 = tt.splat %out_ptr1 : !tt.ptr<bf16> -> tensor<512x!tt.ptr<bf16>> loc(#loc22)
    %4 = tt.addptr %3, %xindex_2 : tensor<512x!tt.ptr<bf16>>, tensor<512xi32> loc(#loc22)
    tt.store %4, %2 : tensor<512x!tt.ptr<bf16>> loc(#loc23)
    %5 = tt.splat %out_ptr2 : !tt.ptr<bf16> -> tensor<512x!tt.ptr<bf16>> loc(#loc24)
    %6 = tt.addptr %5, %xindex_2 : tensor<512x!tt.ptr<bf16>>, tensor<512xi32> loc(#loc24)
    tt.store %6, %2 : tensor<512x!tt.ptr<bf16>> loc(#loc25)
    tt.return loc(#loc26)
  } loc(#loc)
} loc(#loc)
#loc1 = loc("/NHNHOME/WORKSPACE/26msit001_A/jinhyeok/TTT_camera_embedding/lact_llm/.cache_inductor/wj/cwjsvo6gl2m2wqa6tzxjan2q6meup6ylkkaymlavopymyvmdcgvi.py":34:18)
#loc2 = loc("/NHNHOME/WORKSPACE/26msit001_A/jinhyeok/TTT_camera_embedding/lact_llm/.cache_inductor/wj/cwjsvo6gl2m2wqa6tzxjan2q6meup6ylkkaymlavopymyvmdcgvi.py":31:18)
#loc3 = loc("/NHNHOME/WORKSPACE/26msit001_A/jinhyeok/TTT_camera_embedding/lact_llm/.cache_inductor/wj/cwjsvo6gl2m2wqa6tzxjan2q6meup6ylkkaymlavopymyvmdcgvi.py":24:19)
#loc4 = loc(unknown)
#loc5 = loc("/NHNHOME/WORKSPACE/26msit001_A/jinhyeok/TTT_camera_embedding/lact_llm/.cache_inductor/wj/cwjsvo6gl2m2wqa6tzxjan2q6meup6ylkkaymlavopymyvmdcgvi.py":20:28)
#loc6 = loc("/NHNHOME/WORKSPACE/26msit001_A/jinhyeok/TTT_camera_embedding/lact_llm/.cache_inductor/wj/cwjsvo6gl2m2wqa6tzxjan2q6meup6ylkkaymlavopymyvmdcgvi.py":20:33)
#loc7 = loc("/NHNHOME/WORKSPACE/26msit001_A/jinhyeok/TTT_camera_embedding/lact_llm/.cache_inductor/wj/cwjsvo6gl2m2wqa6tzxjan2q6meup6ylkkaymlavopymyvmdcgvi.py":21:36)
#loc8 = loc("/NHNHOME/WORKSPACE/26msit001_A/jinhyeok/TTT_camera_embedding/lact_llm/.cache_inductor/wj/cwjsvo6gl2m2wqa6tzxjan2q6meup6ylkkaymlavopymyvmdcgvi.py":21:23)
#loc9 = loc("/NHNHOME/WORKSPACE/26msit001_A/jinhyeok/TTT_camera_embedding/lact_llm/.cache_inductor/wj/cwjsvo6gl2m2wqa6tzxjan2q6meup6ylkkaymlavopymyvmdcgvi.py":25:30)
#loc10 = loc("/NHNHOME/WORKSPACE/26msit001_A/jinhyeok/TTT_camera_embedding/lact_llm/.cache_inductor/wj/cwjsvo6gl2m2wqa6tzxjan2q6meup6ylkkaymlavopymyvmdcgvi.py":25:35)
#loc11 = loc("/NHNHOME/WORKSPACE/26msit001_A/jinhyeok/TTT_camera_embedding/lact_llm/.cache_inductor/wj/cwjsvo6gl2m2wqa6tzxjan2q6meup6ylkkaymlavopymyvmdcgvi.py":25:44)
#loc12 = loc("/NHNHOME/WORKSPACE/26msit001_A/jinhyeok/TTT_camera_embedding/lact_llm/.cache_inductor/wj/cwjsvo6gl2m2wqa6tzxjan2q6meup6ylkkaymlavopymyvmdcgvi.py":26:30)
#loc13 = loc("/NHNHOME/WORKSPACE/26msit001_A/jinhyeok/TTT_camera_embedding/lact_llm/.cache_inductor/wj/cwjsvo6gl2m2wqa6tzxjan2q6meup6ylkkaymlavopymyvmdcgvi.py":26:35)
#loc14 = loc("/NHNHOME/WORKSPACE/26msit001_A/jinhyeok/TTT_camera_embedding/lact_llm/.cache_inductor/wj/cwjsvo6gl2m2wqa6tzxjan2q6meup6ylkkaymlavopymyvmdcgvi.py":27:30)
#loc15 = loc("/NHNHOME/WORKSPACE/26msit001_A/jinhyeok/TTT_camera_embedding/lact_llm/.cache_inductor/wj/cwjsvo6gl2m2wqa6tzxjan2q6meup6ylkkaymlavopymyvmdcgvi.py":27:35)
#loc16 = loc("/NHNHOME/WORKSPACE/26msit001_A/jinhyeok/TTT_camera_embedding/lact_llm/.cache_inductor/wj/cwjsvo6gl2m2wqa6tzxjan2q6meup6ylkkaymlavopymyvmdcgvi.py":27:44)
#loc17 = loc("/NHNHOME/WORKSPACE/26msit001_A/jinhyeok/TTT_camera_embedding/lact_llm/.cache_inductor/wj/cwjsvo6gl2m2wqa6tzxjan2q6meup6ylkkaymlavopymyvmdcgvi.py":29:26)
#loc18 = loc("/NHNHOME/WORKSPACE/26msit001_A/jinhyeok/TTT_camera_embedding/lact_llm/.cache_inductor/wj/cwjsvo6gl2m2wqa6tzxjan2q6meup6ylkkaymlavopymyvmdcgvi.py":32:19)
#loc19 = loc("/NHNHOME/WORKSPACE/26msit001_A/jinhyeok/TTT_camera_embedding/lact_llm/.cache_inductor/wj/cwjsvo6gl2m2wqa6tzxjan2q6meup6ylkkaymlavopymyvmdcgvi.py":36:19)
#loc20 = loc("/NHNHOME/WORKSPACE/26msit001_A/jinhyeok/TTT_camera_embedding/lact_llm/.cache_inductor/wj/cwjsvo6gl2m2wqa6tzxjan2q6meup6ylkkaymlavopymyvmdcgvi.py":38:25)
#loc21 = loc("/NHNHOME/WORKSPACE/26msit001_A/jinhyeok/TTT_camera_embedding/lact_llm/.cache_inductor/wj/cwjsvo6gl2m2wqa6tzxjan2q6meup6ylkkaymlavopymyvmdcgvi.py":38:37)
#loc22 = loc("/NHNHOME/WORKSPACE/26msit001_A/jinhyeok/TTT_camera_embedding/lact_llm/.cache_inductor/wj/cwjsvo6gl2m2wqa6tzxjan2q6meup6ylkkaymlavopymyvmdcgvi.py":39:25)
#loc23 = loc("/NHNHOME/WORKSPACE/26msit001_A/jinhyeok/TTT_camera_embedding/lact_llm/.cache_inductor/wj/cwjsvo6gl2m2wqa6tzxjan2q6meup6ylkkaymlavopymyvmdcgvi.py":39:37)
#loc24 = loc("/NHNHOME/WORKSPACE/26msit001_A/jinhyeok/TTT_camera_embedding/lact_llm/.cache_inductor/wj/cwjsvo6gl2m2wqa6tzxjan2q6meup6ylkkaymlavopymyvmdcgvi.py":40:25)
#loc25 = loc("/NHNHOME/WORKSPACE/26msit001_A/jinhyeok/TTT_camera_embedding/lact_llm/.cache_inductor/wj/cwjsvo6gl2m2wqa6tzxjan2q6meup6ylkkaymlavopymyvmdcgvi.py":40:37)
#loc26 = loc("/NHNHOME/WORKSPACE/26msit001_A/jinhyeok/TTT_camera_embedding/lact_llm/.cache_inductor/wj/cwjsvo6gl2m2wqa6tzxjan2q6meup6ylkkaymlavopymyvmdcgvi.py":40:4)
#loc34 = loc("tmp8"(#loc1))
#loc35 = loc("tmp5"(#loc2))
#loc36 = loc("x1"(#loc3))
#loc37 = loc("xoffset"(#loc5))
#loc38 = loc("xoffset"(#loc6))
#loc39 = loc("xindex"(#loc7))
#loc40 = loc("xindex"(#loc8))
#loc41 = loc("tmp0"(#loc9))
#loc42 = loc("tmp0"(#loc10))
#loc43 = loc("tmp0"(#loc11))
#loc44 = loc("tmp2"(#loc12))
#loc45 = loc("tmp2"(#loc13))
#loc46 = loc("tmp9"(#loc14))
#loc47 = loc("tmp9"(#loc15))
#loc48 = loc("tmp9"(#loc16))
#loc49 = loc("tmp3"(#loc17))
#loc50 = loc("tmp6"(#loc18))
#loc51 = loc("tmp11"(#loc19))
