#loc = loc("/NHNHOME/WORKSPACE/26msit001_A/jinhyeok/TTT_camera_embedding/.venv_llm/lib/python3.12/site-packages/fla/modules/fused_linear_cross_entropy.py":44:0)
#loc26 = loc("/NHNHOME/WORKSPACE/26msit001_A/jinhyeok/TTT_camera_embedding/.venv_llm/lib/python3.12/site-packages/triton/language/standard.py":175:0)
#loc28 = loc(unknown)
#loc31 = loc("/NHNHOME/WORKSPACE/26msit001_A/jinhyeok/TTT_camera_embedding/.venv_llm/lib/python3.12/site-packages/triton/language/standard.py":167:0)
#loc35 = loc("/NHNHOME/WORKSPACE/26msit001_A/jinhyeok/TTT_camera_embedding/.venv_llm/lib/python3.12/site-packages/fla/ops/utils/op.py":29:0)
#loc39 = loc("/NHNHOME/WORKSPACE/26msit001_A/jinhyeok/TTT_camera_embedding/.venv_llm/lib/python3.12/site-packages/triton/language/standard.py":285:0)
#loc43 = loc("/NHNHOME/WORKSPACE/26msit001_A/jinhyeok/TTT_camera_embedding/.venv_llm/lib/python3.12/site-packages/triton/language/standard.py":260:0)
#loc47 = loc("/NHNHOME/WORKSPACE/26msit001_A/jinhyeok/TTT_camera_embedding/.venv_llm/lib/python3.12/site-packages/fla/ops/utils/op.py":33:0)
#loc54 = loc("x"(#loc))
#loc55 = loc("z"(#loc))
#loc56 = loc("scale"(#loc))
#loc72 = loc("input"(#loc26))
#loc73 = loc("a"(#loc31))
#loc74 = loc("b"(#loc31))
#loc75 = loc("x"(#loc35))
#loc76 = loc("input"(#loc39))
#loc77 = loc("a"(#loc43))
#loc78 = loc("b"(#loc43))
#loc79 = loc("x"(#loc47))
module {
  tt.func public @logsumexp_fwd_kernel(%x: !tt.ptr<bf16> {tt.divisibility = 16 : i32} loc("x"(#loc)), %z: !tt.ptr<f32> {tt.divisibility = 16 : i32} loc("z"(#loc)), %scale: f32 loc("scale"(#loc))) attributes {noinline = false} {
    %0 = tt.get_program_id x : i32 loc(#loc1)
    %1 = arith.extsi %0 : i32 to i64 loc(#loc2)
    %2 = tt.get_program_id y : i32 loc(#loc3)
    %3 = arith.extsi %2 : i32 to i64 loc(#loc4)
    %o_d = arith.constant 32768 : i32 loc(#loc57)
    %o_d_0 = arith.constant 32768 : i64 loc(#loc57)
    %o_d_1 = arith.muli %3, %o_d_0 : i64 loc(#loc57)
    %o_d_2 = tt.make_range {end = 32768 : i32, start = 0 : i32} : tensor<32768xi32> loc(#loc58)
    %o_d_3 = arith.extsi %o_d_2 : tensor<32768xi32> to tensor<32768xi64> loc(#loc59)
    %o_d_4 = tt.splat %o_d_1 : i64 -> tensor<32768xi64> loc(#loc59)
    %o_d_5 = arith.addi %o_d_4, %o_d_3 : tensor<32768xi64> loc(#loc59)
    %m_d = arith.constant 32000 : i32 loc(#loc60)
    %m_d_6 = arith.extsi %m_d : i32 to i64 loc(#loc60)
    %m_d_7 = tt.splat %m_d_6 : i64 -> tensor<32768xi64> loc(#loc60)
    %m_d_8 = arith.cmpi slt, %o_d_5, %m_d_7 : tensor<32768xi64> loc(#loc60)
    %b_x = arith.constant 32000 : i32 loc(#loc61)
    %b_x_9 = arith.constant 32000 : i64 loc(#loc61)
    %b_x_10 = arith.muli %1, %b_x_9 : i64 loc(#loc61)
    %b_x_11 = tt.addptr %x, %b_x_10 : !tt.ptr<bf16>, i64 loc(#loc62)
    %b_x_12 = tt.splat %b_x_11 : !tt.ptr<bf16> -> tensor<32768x!tt.ptr<bf16>> loc(#loc63)
    %b_x_13 = tt.addptr %b_x_12, %o_d_5 : tensor<32768x!tt.ptr<bf16>>, tensor<32768xi64> loc(#loc63)
    %b_x_14 = arith.constant 0xFF800000 : f32 loc(#loc64)
    %b_x_15 = arith.constant dense<0xFF800000> : tensor<32768xf32> loc(#loc64)
    %b_x_16 = arith.truncf %b_x_15 : tensor<32768xf32> to tensor<32768xbf16> loc(#loc64)
    %b_x_17 = tt.load %b_x_13, %m_d_8, %b_x_16 : tensor<32768x!tt.ptr<bf16>> loc(#loc64)
    %b_x_18 = arith.extf %b_x_17 : tensor<32768xbf16> to tensor<32768xf32> loc(#loc65)
    %b_x_19 = tt.splat %scale : f32 -> tensor<32768xf32> loc(#loc65)
    %b_x_20 = arith.mulf %b_x_18, %b_x_19 : tensor<32768xf32> loc(#loc65)
    %b_m = tt.call @"triton.language.standard.max__fp32S32768S__(1,)cconstexpr_0__(2,)cconstexpr_False__(3,)cconstexpr_True__(4,)cconstexpr_False_"(%b_x_20) : (tensor<32768xf32>) -> f32 loc(#loc66)
    %b_z = tt.splat %b_m : f32 -> tensor<32768xf32> loc(#loc67)
    %b_z_21 = arith.subf %b_x_20, %b_z : tensor<32768xf32> loc(#loc67)
    %b_z_22 = tt.call @fla.ops.utils.op.exp__fp32S32768S__(%b_z_21) : (tensor<32768xf32>) -> tensor<32768xf32> loc(#loc68)
    %b_z_23 = tt.call @"triton.language.standard.sum__fp32S32768S__(1,)cconstexpr_0__(2,)cconstexpr_False__(3,)cNone"(%b_z_22) : (tensor<32768xf32>) -> f32 loc(#loc69)
    %b_z_24 = tt.call @fla.ops.utils.op.log__fp32__(%b_z_23) : (f32) -> f32 loc(#loc70)
    %b_z_25 = arith.addf %b_z_24, %b_m : f32 loc(#loc71)
    %4 = tt.call @"triton.language.standard.cdiv____(0,)cconstexpr_32000__(1,)cconstexpr_32768_"() : () -> i32 loc(#loc20)
    %5 = arith.extsi %4 : i32 to i64 loc(#loc21)
    %6 = arith.muli %1, %5 : i64 loc(#loc21)
    %7 = tt.addptr %z, %6 : !tt.ptr<f32>, i64 loc(#loc22)
    %8 = tt.addptr %7, %3 : !tt.ptr<f32>, i64 loc(#loc23)
    tt.store %8, %b_z_25 : !tt.ptr<f32> loc(#loc24)
    tt.return loc(#loc25)
  } loc(#loc)
  tt.func private @"triton.language.standard.max__fp32S32768S__(1,)cconstexpr_0__(2,)cconstexpr_False__(3,)cconstexpr_True__(4,)cconstexpr_False_"(%input: tensor<32768xf32> loc("input"(#loc26))) -> f32 attributes {noinline = false} {
    %0 = "tt.reduce"(%input) <{axis = 0 : i32}> ({
    ^bb0(%arg1: f32 loc(unknown), %arg2: f32 loc(unknown)):
      %2 = tt.call @triton.language.standard._elementwise_max__fp32_fp32__(%arg1, %arg2) : (f32, f32) -> f32 loc(#loc27)
      tt.reduce.return %2 : f32 loc(#loc27)
    }) : (tensor<32768xf32>) -> f32 loc(#loc27)
    tt.return %0 : f32 loc(#loc29)
  ^bb1:  // no predecessors
    %1 = ub.poison : f32 loc(#loc30)
    tt.return %1 : f32 loc(#loc30)
  } loc(#loc26)
  tt.func private @triton.language.standard._elementwise_max__fp32_fp32__(%a: f32 loc("a"(#loc31)), %b: f32 loc("b"(#loc31))) -> f32 attributes {noinline = false} {
    %0 = arith.maxnumf %a, %b : f32 loc(#loc32)
    tt.return %0 : f32 loc(#loc33)
  ^bb1:  // no predecessors
    %1 = ub.poison : f32 loc(#loc34)
    tt.return %1 : f32 loc(#loc34)
  } loc(#loc31)
  tt.func private @fla.ops.utils.op.exp__fp32S32768S__(%x: tensor<32768xf32> loc("x"(#loc35))) -> tensor<32768xf32> attributes {noinline = false} {
    %0 = math.exp %x : tensor<32768xf32> loc(#loc36)
    tt.return %0 : tensor<32768xf32> loc(#loc37)
  ^bb1:  // no predecessors
    %1 = ub.poison : tensor<32768xf32> loc(#loc38)
    tt.return %1 : tensor<32768xf32> loc(#loc38)
  } loc(#loc35)
  tt.func private @"triton.language.standard.sum__fp32S32768S__(1,)cconstexpr_0__(2,)cconstexpr_False__(3,)cNone"(%input: tensor<32768xf32> loc("input"(#loc39))) -> f32 attributes {noinline = false} {
    %0 = "tt.reduce"(%input) <{axis = 0 : i32}> ({
    ^bb0(%arg1: f32 loc(unknown), %arg2: f32 loc(unknown)):
      %2 = tt.call @triton.language.standard._sum_combine__fp32_fp32__(%arg1, %arg2) : (f32, f32) -> f32 loc(#loc40)
      tt.reduce.return %2 : f32 loc(#loc40)
    }) : (tensor<32768xf32>) -> f32 loc(#loc40)
    tt.return %0 : f32 loc(#loc41)
  ^bb1:  // no predecessors
    %1 = ub.poison : f32 loc(#loc42)
    tt.return %1 : f32 loc(#loc42)
  } loc(#loc39)
  tt.func private @triton.language.standard._sum_combine__fp32_fp32__(%a: f32 loc("a"(#loc43)), %b: f32 loc("b"(#loc43))) -> f32 attributes {noinline = false} {
    %0 = arith.addf %a, %b : f32 loc(#loc44)
    tt.return %0 : f32 loc(#loc45)
  ^bb1:  // no predecessors
    %1 = ub.poison : f32 loc(#loc46)
    tt.return %1 : f32 loc(#loc46)
  } loc(#loc43)
  tt.func private @fla.ops.utils.op.log__fp32__(%x: f32 loc("x"(#loc47))) -> f32 attributes {noinline = false} {
    %0 = math.log %x : f32 loc(#loc48)
    tt.return %0 : f32 loc(#loc49)
  ^bb1:  // no predecessors
    %1 = ub.poison : f32 loc(#loc50)
    tt.return %1 : f32 loc(#loc50)
  } loc(#loc47)
  tt.func private @"triton.language.standard.cdiv____(0,)cconstexpr_32000__(1,)cconstexpr_32768_"() -> i32 attributes {noinline = false} {
    %c1_i32 = arith.constant 1 : i32 loc(#loc52)
    tt.return %c1_i32 : i32 loc(#loc52)
  ^bb1:  // no predecessors
    %0 = ub.poison : i32 loc(#loc53)
    tt.return %0 : i32 loc(#loc53)
  } loc(#loc51)
} loc(#loc)
#loc1 = loc("/NHNHOME/WORKSPACE/26msit001_A/jinhyeok/TTT_camera_embedding/.venv_llm/lib/python3.12/site-packages/fla/modules/fused_linear_cross_entropy.py":54:29)
#loc2 = loc("/NHNHOME/WORKSPACE/26msit001_A/jinhyeok/TTT_camera_embedding/.venv_llm/lib/python3.12/site-packages/fla/modules/fused_linear_cross_entropy.py":54:35)
#loc3 = loc("/NHNHOME/WORKSPACE/26msit001_A/jinhyeok/TTT_camera_embedding/.venv_llm/lib/python3.12/site-packages/fla/modules/fused_linear_cross_entropy.py":54:60)
#loc4 = loc("/NHNHOME/WORKSPACE/26msit001_A/jinhyeok/TTT_camera_embedding/.venv_llm/lib/python3.12/site-packages/fla/modules/fused_linear_cross_entropy.py":54:66)
#loc5 = loc("/NHNHOME/WORKSPACE/26msit001_A/jinhyeok/TTT_camera_embedding/.venv_llm/lib/python3.12/site-packages/fla/modules/fused_linear_cross_entropy.py":55:16)
#loc6 = loc("/NHNHOME/WORKSPACE/26msit001_A/jinhyeok/TTT_camera_embedding/.venv_llm/lib/python3.12/site-packages/fla/modules/fused_linear_cross_entropy.py":55:33)
#loc7 = loc("/NHNHOME/WORKSPACE/26msit001_A/jinhyeok/TTT_camera_embedding/.venv_llm/lib/python3.12/site-packages/fla/modules/fused_linear_cross_entropy.py":55:20)
#loc8 = loc("/NHNHOME/WORKSPACE/26msit001_A/jinhyeok/TTT_camera_embedding/.venv_llm/lib/python3.12/site-packages/fla/modules/fused_linear_cross_entropy.py":56:16)
#loc9 = loc("/NHNHOME/WORKSPACE/26msit001_A/jinhyeok/TTT_camera_embedding/.venv_llm/lib/python3.12/site-packages/fla/modules/fused_linear_cross_entropy.py":58:28)
#loc10 = loc("/NHNHOME/WORKSPACE/26msit001_A/jinhyeok/TTT_camera_embedding/.venv_llm/lib/python3.12/site-packages/fla/modules/fused_linear_cross_entropy.py":58:22)
#loc11 = loc("/NHNHOME/WORKSPACE/26msit001_A/jinhyeok/TTT_camera_embedding/.venv_llm/lib/python3.12/site-packages/fla/modules/fused_linear_cross_entropy.py":58:32)
#loc12 = loc("/NHNHOME/WORKSPACE/26msit001_A/jinhyeok/TTT_camera_embedding/.venv_llm/lib/python3.12/site-packages/fla/modules/fused_linear_cross_entropy.py":58:18)
#loc13 = loc("/NHNHOME/WORKSPACE/26msit001_A/jinhyeok/TTT_camera_embedding/.venv_llm/lib/python3.12/site-packages/fla/modules/fused_linear_cross_entropy.py":60:20)
#loc14 = loc("/NHNHOME/WORKSPACE/26msit001_A/jinhyeok/TTT_camera_embedding/.venv_llm/lib/python3.12/site-packages/fla/modules/fused_linear_cross_entropy.py":63:22)
#loc15 = loc("/NHNHOME/WORKSPACE/26msit001_A/jinhyeok/TTT_camera_embedding/.venv_llm/lib/python3.12/site-packages/fla/modules/fused_linear_cross_entropy.py":64:31)
#loc16 = loc("/NHNHOME/WORKSPACE/26msit001_A/jinhyeok/TTT_camera_embedding/.venv_llm/lib/python3.12/site-packages/fla/modules/fused_linear_cross_entropy.py":64:25)
#loc17 = loc("/NHNHOME/WORKSPACE/26msit001_A/jinhyeok/TTT_camera_embedding/.venv_llm/lib/python3.12/site-packages/fla/modules/fused_linear_cross_entropy.py":64:37)
#loc18 = loc("/NHNHOME/WORKSPACE/26msit001_A/jinhyeok/TTT_camera_embedding/.venv_llm/lib/python3.12/site-packages/fla/modules/fused_linear_cross_entropy.py":64:14)
#loc19 = loc("/NHNHOME/WORKSPACE/26msit001_A/jinhyeok/TTT_camera_embedding/.venv_llm/lib/python3.12/site-packages/fla/modules/fused_linear_cross_entropy.py":64:43)
#loc20 = loc("/NHNHOME/WORKSPACE/26msit001_A/jinhyeok/TTT_camera_embedding/.venv_llm/lib/python3.12/site-packages/fla/modules/fused_linear_cross_entropy.py":65:34)
#loc21 = loc("/NHNHOME/WORKSPACE/26msit001_A/jinhyeok/TTT_camera_embedding/.venv_llm/lib/python3.12/site-packages/fla/modules/fused_linear_cross_entropy.py":65:23)
#loc22 = loc("/NHNHOME/WORKSPACE/26msit001_A/jinhyeok/TTT_camera_embedding/.venv_llm/lib/python3.12/site-packages/fla/modules/fused_linear_cross_entropy.py":65:17)
#loc23 = loc("/NHNHOME/WORKSPACE/26msit001_A/jinhyeok/TTT_camera_embedding/.venv_llm/lib/python3.12/site-packages/fla/modules/fused_linear_cross_entropy.py":65:39)
#loc24 = loc("/NHNHOME/WORKSPACE/26msit001_A/jinhyeok/TTT_camera_embedding/.venv_llm/lib/python3.12/site-packages/fla/modules/fused_linear_cross_entropy.py":65:44)
#loc25 = loc("/NHNHOME/WORKSPACE/26msit001_A/jinhyeok/TTT_camera_embedding/.venv_llm/lib/python3.12/site-packages/fla/modules/fused_linear_cross_entropy.py":65:4)
#loc27 = loc("/NHNHOME/WORKSPACE/26msit001_A/jinhyeok/TTT_camera_embedding/.venv_llm/lib/python3.12/site-packages/triton/language/standard.py":189:40)
#loc29 = loc("/NHNHOME/WORKSPACE/26msit001_A/jinhyeok/TTT_camera_embedding/.venv_llm/lib/python3.12/site-packages/triton/language/standard.py":189:15)
#loc30 = loc("/NHNHOME/WORKSPACE/26msit001_A/jinhyeok/TTT_camera_embedding/.venv_llm/lib/python3.12/site-packages/triton/language/standard.py":177:4)
#loc32 = loc("/NHNHOME/WORKSPACE/26msit001_A/jinhyeok/TTT_camera_embedding/.venv_llm/lib/python3.12/site-packages/triton/language/standard.py":168:27)
#loc33 = loc("/NHNHOME/WORKSPACE/26msit001_A/jinhyeok/TTT_camera_embedding/.venv_llm/lib/python3.12/site-packages/triton/language/standard.py":168:11)
#loc34 = loc("/NHNHOME/WORKSPACE/26msit001_A/jinhyeok/TTT_camera_embedding/.venv_llm/lib/python3.12/site-packages/triton/language/standard.py":168:4)
#loc36 = loc("/NHNHOME/WORKSPACE/26msit001_A/jinhyeok/TTT_camera_embedding/.venv_llm/lib/python3.12/site-packages/fla/ops/utils/op.py":29:26)
#loc37 = loc("/NHNHOME/WORKSPACE/26msit001_A/jinhyeok/TTT_camera_embedding/.venv_llm/lib/python3.12/site-packages/fla/ops/utils/op.py":29:19)
#loc38 = loc("/NHNHOME/WORKSPACE/26msit001_A/jinhyeok/TTT_camera_embedding/.venv_llm/lib/python3.12/site-packages/fla/ops/utils/op.py":29:12)
#loc40 = loc("/NHNHOME/WORKSPACE/26msit001_A/jinhyeok/TTT_camera_embedding/.venv_llm/lib/python3.12/site-packages/triton/language/standard.py":291:36)
#loc41 = loc("/NHNHOME/WORKSPACE/26msit001_A/jinhyeok/TTT_camera_embedding/.venv_llm/lib/python3.12/site-packages/triton/language/standard.py":291:11)
#loc42 = loc("/NHNHOME/WORKSPACE/26msit001_A/jinhyeok/TTT_camera_embedding/.venv_llm/lib/python3.12/site-packages/triton/language/standard.py":291:4)
#loc44 = loc("/NHNHOME/WORKSPACE/26msit001_A/jinhyeok/TTT_camera_embedding/.venv_llm/lib/python3.12/site-packages/triton/language/standard.py":261:15)
#loc45 = loc("/NHNHOME/WORKSPACE/26msit001_A/jinhyeok/TTT_camera_embedding/.venv_llm/lib/python3.12/site-packages/triton/language/standard.py":261:11)
#loc46 = loc("/NHNHOME/WORKSPACE/26msit001_A/jinhyeok/TTT_camera_embedding/.venv_llm/lib/python3.12/site-packages/triton/language/standard.py":261:4)
#loc48 = loc("/NHNHOME/WORKSPACE/26msit001_A/jinhyeok/TTT_camera_embedding/.venv_llm/lib/python3.12/site-packages/fla/ops/utils/op.py":33:26)
#loc49 = loc("/NHNHOME/WORKSPACE/26msit001_A/jinhyeok/TTT_camera_embedding/.venv_llm/lib/python3.12/site-packages/fla/ops/utils/op.py":33:19)
#loc50 = loc("/NHNHOME/WORKSPACE/26msit001_A/jinhyeok/TTT_camera_embedding/.venv_llm/lib/python3.12/site-packages/fla/ops/utils/op.py":33:12)
#loc51 = loc("/NHNHOME/WORKSPACE/26msit001_A/jinhyeok/TTT_camera_embedding/.venv_llm/lib/python3.12/site-packages/triton/language/standard.py":32:0)
#loc52 = loc("/NHNHOME/WORKSPACE/26msit001_A/jinhyeok/TTT_camera_embedding/.venv_llm/lib/python3.12/site-packages/triton/language/standard.py":41:11)
#loc53 = loc("/NHNHOME/WORKSPACE/26msit001_A/jinhyeok/TTT_camera_embedding/.venv_llm/lib/python3.12/site-packages/triton/language/standard.py":41:4)
#loc57 = loc("o_d"(#loc5))
#loc58 = loc("o_d"(#loc6))
#loc59 = loc("o_d"(#loc7))
#loc60 = loc("m_d"(#loc8))
#loc61 = loc("b_x"(#loc9))
#loc62 = loc("b_x"(#loc10))
#loc63 = loc("b_x"(#loc11))
#loc64 = loc("b_x"(#loc12))
#loc65 = loc("b_x"(#loc13))
#loc66 = loc("b_m"(#loc14))
#loc67 = loc("b_z"(#loc15))
#loc68 = loc("b_z"(#loc16))
#loc69 = loc("b_z"(#loc17))
#loc70 = loc("b_z"(#loc18))
#loc71 = loc("b_z"(#loc19))
