#loc = loc("/NHNHOME/WORKSPACE/26msit001_A/jinhyeok/TTT_camera_embedding/.venv_llm/lib/python3.12/site-packages/fla/modules/fused_linear_cross_entropy.py":44:0)
#loc15 = loc("/NHNHOME/WORKSPACE/26msit001_A/jinhyeok/TTT_camera_embedding/.venv_llm/lib/python3.12/site-packages/fla/modules/fused_linear_cross_entropy.py":63:22)
#loc16 = loc(unknown)
#loc22 = loc("/NHNHOME/WORKSPACE/26msit001_A/jinhyeok/TTT_camera_embedding/.venv_llm/lib/python3.12/site-packages/fla/modules/fused_linear_cross_entropy.py":64:37)
#loc31 = loc("x"(#loc))
#loc32 = loc("z"(#loc))
#loc33 = loc("scale"(#loc))
#loc43 = loc("b_m"(#loc15))
#loc46 = loc("b_z"(#loc22))
#loc51 = loc(callsite(#loc16 at #loc43))
#loc54 = loc(callsite(#loc16 at #loc46))
module {
  tt.func public @logsumexp_fwd_kernel(%x: !tt.ptr<bf16> {tt.divisibility = 16 : i32} loc("x"(#loc)), %z: !tt.ptr<f32> {tt.divisibility = 16 : i32} loc("z"(#loc)), %scale: f32 loc("scale"(#loc))) attributes {noinline = false} {
    %b_x = arith.constant dense<0xFF80> : tensor<32768xbf16> loc(#loc34)
    %m_d = arith.constant dense<32000> : tensor<32768xi64> loc(#loc35)
    %b_x_0 = arith.constant 32000 : i64 loc(#loc36)
    %o_d = arith.constant 32768 : i64 loc(#loc37)
    %0 = tt.get_program_id x : i32 loc(#loc5)
    %1 = arith.extsi %0 : i32 to i64 loc(#loc6)
    %2 = tt.get_program_id y : i32 loc(#loc7)
    %3 = arith.extsi %2 : i32 to i64 loc(#loc8)
    %o_d_1 = arith.muli %3, %o_d : i64 loc(#loc37)
    %o_d_2 = tt.make_range {end = 32768 : i32, start = 0 : i32} : tensor<32768xi32> loc(#loc38)
    %o_d_3 = arith.extsi %o_d_2 : tensor<32768xi32> to tensor<32768xi64> loc(#loc39)
    %o_d_4 = tt.splat %o_d_1 : i64 -> tensor<32768xi64> loc(#loc39)
    %o_d_5 = arith.addi %o_d_4, %o_d_3 : tensor<32768xi64> loc(#loc39)
    %m_d_6 = arith.cmpi slt, %o_d_5, %m_d : tensor<32768xi64> loc(#loc35)
    %b_x_7 = arith.muli %1, %b_x_0 : i64 loc(#loc36)
    %b_x_8 = tt.addptr %x, %b_x_7 : !tt.ptr<bf16>, i64 loc(#loc40)
    %b_x_9 = tt.splat %b_x_8 : !tt.ptr<bf16> -> tensor<32768x!tt.ptr<bf16>> loc(#loc41)
    %b_x_10 = tt.addptr %b_x_9, %o_d_5 : tensor<32768x!tt.ptr<bf16>>, tensor<32768xi64> loc(#loc41)
    %b_x_11 = tt.load %b_x_10, %m_d_6, %b_x : tensor<32768x!tt.ptr<bf16>> loc(#loc34)
    %b_x_12 = arith.extf %b_x_11 : tensor<32768xbf16> to tensor<32768xf32> loc(#loc42)
    %b_x_13 = tt.splat %scale : f32 -> tensor<32768xf32> loc(#loc42)
    %b_x_14 = arith.mulf %b_x_12, %b_x_13 : tensor<32768xf32> loc(#loc42)
    %b_m = "tt.reduce"(%b_x_14) <{axis = 0 : i32}> ({
    ^bb0(%b_m_20: f32 loc(callsite(#loc16 at #loc43)), %b_m_21: f32 loc(callsite(#loc16 at #loc43))):
      %b_m_22 = arith.maxnumf %b_m_20, %b_m_21 : f32 loc(#loc56)
      tt.reduce.return %b_m_22 : f32 loc(#loc50)
    }) : (tensor<32768xf32>) -> f32 loc(#loc50)
    %b_z = tt.splat %b_m : f32 -> tensor<32768xf32> loc(#loc44)
    %b_z_15 = arith.subf %b_x_14, %b_z : tensor<32768xf32> loc(#loc44)
    %b_z_16 = math.exp %b_z_15 : tensor<32768xf32> loc(#loc52)
    %b_z_17 = "tt.reduce"(%b_z_16) <{axis = 0 : i32}> ({
    ^bb0(%b_z_20: f32 loc(callsite(#loc16 at #loc46)), %b_z_21: f32 loc(callsite(#loc16 at #loc46))):
      %b_z_22 = arith.addf %b_z_20, %b_z_21 : f32 loc(#loc57)
      tt.reduce.return %b_z_22 : f32 loc(#loc53)
    }) : (tensor<32768xf32>) -> f32 loc(#loc53)
    %b_z_18 = math.log %b_z_17 : f32 loc(#loc55)
    %b_z_19 = arith.addf %b_z_18, %b_m : f32 loc(#loc48)
    %4 = arith.addi %1, %3 : i64 loc(#loc49)
    %5 = tt.addptr %z, %4 : !tt.ptr<f32>, i64 loc(#loc49)
    tt.store %5, %b_z_19 : !tt.ptr<f32> loc(#loc29)
    tt.return loc(#loc30)
  } loc(#loc)
} loc(#loc)
#loc1 = loc("/NHNHOME/WORKSPACE/26msit001_A/jinhyeok/TTT_camera_embedding/.venv_llm/lib/python3.12/site-packages/fla/modules/fused_linear_cross_entropy.py":58:18)
#loc2 = loc("/NHNHOME/WORKSPACE/26msit001_A/jinhyeok/TTT_camera_embedding/.venv_llm/lib/python3.12/site-packages/fla/modules/fused_linear_cross_entropy.py":56:16)
#loc3 = loc("/NHNHOME/WORKSPACE/26msit001_A/jinhyeok/TTT_camera_embedding/.venv_llm/lib/python3.12/site-packages/fla/modules/fused_linear_cross_entropy.py":58:28)
#loc4 = loc("/NHNHOME/WORKSPACE/26msit001_A/jinhyeok/TTT_camera_embedding/.venv_llm/lib/python3.12/site-packages/fla/modules/fused_linear_cross_entropy.py":55:16)
#loc5 = loc("/NHNHOME/WORKSPACE/26msit001_A/jinhyeok/TTT_camera_embedding/.venv_llm/lib/python3.12/site-packages/fla/modules/fused_linear_cross_entropy.py":54:29)
#loc6 = loc("/NHNHOME/WORKSPACE/26msit001_A/jinhyeok/TTT_camera_embedding/.venv_llm/lib/python3.12/site-packages/fla/modules/fused_linear_cross_entropy.py":54:35)
#loc7 = loc("/NHNHOME/WORKSPACE/26msit001_A/jinhyeok/TTT_camera_embedding/.venv_llm/lib/python3.12/site-packages/fla/modules/fused_linear_cross_entropy.py":54:60)
#loc8 = loc("/NHNHOME/WORKSPACE/26msit001_A/jinhyeok/TTT_camera_embedding/.venv_llm/lib/python3.12/site-packages/fla/modules/fused_linear_cross_entropy.py":54:66)
#loc9 = loc("/NHNHOME/WORKSPACE/26msit001_A/jinhyeok/TTT_camera_embedding/.venv_llm/lib/python3.12/site-packages/fla/modules/fused_linear_cross_entropy.py":55:33)
#loc10 = loc("/NHNHOME/WORKSPACE/26msit001_A/jinhyeok/TTT_camera_embedding/.venv_llm/lib/python3.12/site-packages/fla/modules/fused_linear_cross_entropy.py":55:20)
#loc11 = loc("/NHNHOME/WORKSPACE/26msit001_A/jinhyeok/TTT_camera_embedding/.venv_llm/lib/python3.12/site-packages/fla/modules/fused_linear_cross_entropy.py":58:22)
#loc12 = loc("/NHNHOME/WORKSPACE/26msit001_A/jinhyeok/TTT_camera_embedding/.venv_llm/lib/python3.12/site-packages/fla/modules/fused_linear_cross_entropy.py":58:32)
#loc13 = loc("/NHNHOME/WORKSPACE/26msit001_A/jinhyeok/TTT_camera_embedding/.venv_llm/lib/python3.12/site-packages/fla/modules/fused_linear_cross_entropy.py":60:20)
#loc14 = loc("/NHNHOME/WORKSPACE/26msit001_A/jinhyeok/TTT_camera_embedding/.venv_llm/lib/python3.12/site-packages/triton/language/standard.py":189:40)
#loc17 = loc("/NHNHOME/WORKSPACE/26msit001_A/jinhyeok/TTT_camera_embedding/.venv_llm/lib/python3.12/site-packages/triton/language/standard.py":168:27)
#loc18 = loc("/NHNHOME/WORKSPACE/26msit001_A/jinhyeok/TTT_camera_embedding/.venv_llm/lib/python3.12/site-packages/fla/modules/fused_linear_cross_entropy.py":64:31)
#loc19 = loc("/NHNHOME/WORKSPACE/26msit001_A/jinhyeok/TTT_camera_embedding/.venv_llm/lib/python3.12/site-packages/fla/ops/utils/op.py":29:26)
#loc20 = loc("/NHNHOME/WORKSPACE/26msit001_A/jinhyeok/TTT_camera_embedding/.venv_llm/lib/python3.12/site-packages/fla/modules/fused_linear_cross_entropy.py":64:25)
#loc21 = loc("/NHNHOME/WORKSPACE/26msit001_A/jinhyeok/TTT_camera_embedding/.venv_llm/lib/python3.12/site-packages/triton/language/standard.py":291:36)
#loc23 = loc("/NHNHOME/WORKSPACE/26msit001_A/jinhyeok/TTT_camera_embedding/.venv_llm/lib/python3.12/site-packages/triton/language/standard.py":261:15)
#loc24 = loc("/NHNHOME/WORKSPACE/26msit001_A/jinhyeok/TTT_camera_embedding/.venv_llm/lib/python3.12/site-packages/fla/ops/utils/op.py":33:26)
#loc25 = loc("/NHNHOME/WORKSPACE/26msit001_A/jinhyeok/TTT_camera_embedding/.venv_llm/lib/python3.12/site-packages/fla/modules/fused_linear_cross_entropy.py":64:14)
#loc26 = loc("/NHNHOME/WORKSPACE/26msit001_A/jinhyeok/TTT_camera_embedding/.venv_llm/lib/python3.12/site-packages/fla/modules/fused_linear_cross_entropy.py":64:43)
#loc27 = loc("/NHNHOME/WORKSPACE/26msit001_A/jinhyeok/TTT_camera_embedding/.venv_llm/lib/python3.12/site-packages/fla/modules/fused_linear_cross_entropy.py":65:39)
#loc28 = loc("/NHNHOME/WORKSPACE/26msit001_A/jinhyeok/TTT_camera_embedding/.venv_llm/lib/python3.12/site-packages/fla/modules/fused_linear_cross_entropy.py":65:17)
#loc29 = loc("/NHNHOME/WORKSPACE/26msit001_A/jinhyeok/TTT_camera_embedding/.venv_llm/lib/python3.12/site-packages/fla/modules/fused_linear_cross_entropy.py":65:44)
#loc30 = loc("/NHNHOME/WORKSPACE/26msit001_A/jinhyeok/TTT_camera_embedding/.venv_llm/lib/python3.12/site-packages/fla/modules/fused_linear_cross_entropy.py":65:4)
#loc34 = loc("b_x"(#loc1))
#loc35 = loc("m_d"(#loc2))
#loc36 = loc("b_x"(#loc3))
#loc37 = loc("o_d"(#loc4))
#loc38 = loc("o_d"(#loc9))
#loc39 = loc("o_d"(#loc10))
#loc40 = loc("b_x"(#loc11))
#loc41 = loc("b_x"(#loc12))
#loc42 = loc("b_x"(#loc13))
#loc44 = loc("b_z"(#loc18))
#loc45 = loc("b_z"(#loc20))
#loc47 = loc("b_z"(#loc25))
#loc48 = loc("b_z"(#loc26))
#loc49 = loc(fused[#loc27, #loc28])
#loc50 = loc(callsite(#loc14 at #loc43))
#loc52 = loc(callsite(#loc19 at #loc45))
#loc53 = loc(callsite(#loc21 at #loc46))
#loc55 = loc(callsite(#loc24 at #loc47))
#loc56 = loc(callsite(#loc17 at #loc50))
#loc57 = loc(callsite(#loc23 at #loc53))
