#loc = loc("/NHNHOME/WORKSPACE/26msit001_A/jinhyeok/TTT_camera_embedding/lact_llm/.cache_inductor/a4/ca4ond3cgk6jpbuxhgypt4k2ps5u7crjhjiol6rmzvxmdq2vqnza.py":18:0)
#loc22 = loc("in_ptr0"(#loc))
#loc23 = loc("in_ptr1"(#loc))
#loc24 = loc("out_ptr0"(#loc))
#loc25 = loc("out_ptr1"(#loc))
#loc26 = loc("out_ptr2"(#loc))
#loc27 = loc("xnumel"(#loc))
module {
  tt.func public @triton_poi_fused__to_copy_add_div_linalg_vector_norm_transpose_46(%in_ptr0: !tt.ptr<bf16> {tt.divisibility = 16 : i32} loc("in_ptr0"(#loc)), %in_ptr1: !tt.ptr<f32> {tt.divisibility = 16 : i32} loc("in_ptr1"(#loc)), %out_ptr0: !tt.ptr<bf16> {tt.divisibility = 16 : i32} loc("out_ptr0"(#loc)), %out_ptr1: !tt.ptr<bf16> {tt.divisibility = 16 : i32} loc("out_ptr1"(#loc)), %out_ptr2: !tt.ptr<bf16> {tt.divisibility = 16 : i32} loc("out_ptr2"(#loc)), %xnumel: i32 {tt.divisibility = 16 : i32} loc("xnumel"(#loc))) attributes {noinline = false} {
    %tmp5 = arith.constant dense<1.000000e-07> : tensor<1024xf32> loc(#loc28)
    %x1 = arith.constant dense<36864> : tensor<1024xi32> loc(#loc29)
    %c1024_i32 = arith.constant 1024 : i32 loc(#loc3)
    %xoffset = tt.get_program_id x : i32 loc(#loc30)
    %xoffset_0 = arith.muli %xoffset, %c1024_i32 : i32 loc(#loc31)
    %xindex = tt.make_range {end = 1024 : i32, start = 0 : i32} : tensor<1024xi32> loc(#loc32)
    %xindex_1 = tt.splat %xoffset_0 : i32 -> tensor<1024xi32> loc(#loc33)
    %xindex_2 = arith.addi %xindex_1, %xindex : tensor<1024xi32> loc(#loc33)
    %x1_3 = arith.divsi %xindex_2, %x1 : tensor<1024xi32> loc(#loc29)
    %tmp0 = tt.splat %in_ptr0 : !tt.ptr<bf16> -> tensor<1024x!tt.ptr<bf16>> loc(#loc34)
    %tmp0_4 = tt.addptr %tmp0, %xindex_2 : tensor<1024x!tt.ptr<bf16>>, tensor<1024xi32> loc(#loc34)
    %tmp0_5 = tt.load %tmp0_4 : tensor<1024x!tt.ptr<bf16>> loc(#loc35)
    %tmp0_6 = arith.extf %tmp0_5 : tensor<1024xbf16> to tensor<1024xf32> loc(#loc36)
    %tmp2 = tt.splat %in_ptr1 : !tt.ptr<f32> -> tensor<1024x!tt.ptr<f32>> loc(#loc37)
    %tmp2_7 = tt.addptr %tmp2, %x1_3 : tensor<1024x!tt.ptr<f32>>, tensor<1024xi32> loc(#loc37)
    %tmp2_8 = tt.load %tmp2_7 evictionPolicy = evict_last : tensor<1024x!tt.ptr<f32>> loc(#loc38)
    %tmp3 = tt.extern_elementwise %tmp2_8 {libname = "", libpath = "", pure = true, symbol = "__nv_sqrtf"} : (tensor<1024xf32>) -> tensor<1024xf32> loc(#loc39)
    %tmp5_9 = arith.addf %tmp3, %tmp5 : tensor<1024xf32> loc(#loc28)
    %tmp6 = arith.divf %tmp0_6, %tmp5_9 : tensor<1024xf32> loc(#loc40)
    %0 = tt.splat %out_ptr0 : !tt.ptr<bf16> -> tensor<1024x!tt.ptr<bf16>> loc(#loc15)
    %1 = tt.addptr %0, %xindex_2 : tensor<1024x!tt.ptr<bf16>>, tensor<1024xi32> loc(#loc15)
    %2 = arith.truncf %tmp6 : tensor<1024xf32> to tensor<1024xbf16> loc(#loc16)
    tt.store %1, %2 : tensor<1024x!tt.ptr<bf16>> loc(#loc16)
    %3 = tt.splat %out_ptr1 : !tt.ptr<bf16> -> tensor<1024x!tt.ptr<bf16>> loc(#loc17)
    %4 = tt.addptr %3, %xindex_2 : tensor<1024x!tt.ptr<bf16>>, tensor<1024xi32> loc(#loc17)
    tt.store %4, %2 : tensor<1024x!tt.ptr<bf16>> loc(#loc18)
    %5 = tt.splat %out_ptr2 : !tt.ptr<bf16> -> tensor<1024x!tt.ptr<bf16>> loc(#loc19)
    %6 = tt.addptr %5, %xindex_2 : tensor<1024x!tt.ptr<bf16>>, tensor<1024xi32> loc(#loc19)
    tt.store %6, %2 : tensor<1024x!tt.ptr<bf16>> loc(#loc20)
    tt.return loc(#loc21)
  } loc(#loc)
} loc(#loc)
#loc1 = loc("/NHNHOME/WORKSPACE/26msit001_A/jinhyeok/TTT_camera_embedding/lact_llm/.cache_inductor/a4/ca4ond3cgk6jpbuxhgypt4k2ps5u7crjhjiol6rmzvxmdq2vqnza.py":30:18)
#loc2 = loc("/NHNHOME/WORKSPACE/26msit001_A/jinhyeok/TTT_camera_embedding/lact_llm/.cache_inductor/a4/ca4ond3cgk6jpbuxhgypt4k2ps5u7crjhjiol6rmzvxmdq2vqnza.py":24:19)
#loc3 = loc(unknown)
#loc4 = loc("/NHNHOME/WORKSPACE/26msit001_A/jinhyeok/TTT_camera_embedding/lact_llm/.cache_inductor/a4/ca4ond3cgk6jpbuxhgypt4k2ps5u7crjhjiol6rmzvxmdq2vqnza.py":20:28)
#loc5 = loc("/NHNHOME/WORKSPACE/26msit001_A/jinhyeok/TTT_camera_embedding/lact_llm/.cache_inductor/a4/ca4ond3cgk6jpbuxhgypt4k2ps5u7crjhjiol6rmzvxmdq2vqnza.py":20:33)
#loc6 = loc("/NHNHOME/WORKSPACE/26msit001_A/jinhyeok/TTT_camera_embedding/lact_llm/.cache_inductor/a4/ca4ond3cgk6jpbuxhgypt4k2ps5u7crjhjiol6rmzvxmdq2vqnza.py":21:36)
#loc7 = loc("/NHNHOME/WORKSPACE/26msit001_A/jinhyeok/TTT_camera_embedding/lact_llm/.cache_inductor/a4/ca4ond3cgk6jpbuxhgypt4k2ps5u7crjhjiol6rmzvxmdq2vqnza.py":21:23)
#loc8 = loc("/NHNHOME/WORKSPACE/26msit001_A/jinhyeok/TTT_camera_embedding/lact_llm/.cache_inductor/a4/ca4ond3cgk6jpbuxhgypt4k2ps5u7crjhjiol6rmzvxmdq2vqnza.py":25:30)
#loc9 = loc("/NHNHOME/WORKSPACE/26msit001_A/jinhyeok/TTT_camera_embedding/lact_llm/.cache_inductor/a4/ca4ond3cgk6jpbuxhgypt4k2ps5u7crjhjiol6rmzvxmdq2vqnza.py":25:35)
#loc10 = loc("/NHNHOME/WORKSPACE/26msit001_A/jinhyeok/TTT_camera_embedding/lact_llm/.cache_inductor/a4/ca4ond3cgk6jpbuxhgypt4k2ps5u7crjhjiol6rmzvxmdq2vqnza.py":25:44)
#loc11 = loc("/NHNHOME/WORKSPACE/26msit001_A/jinhyeok/TTT_camera_embedding/lact_llm/.cache_inductor/a4/ca4ond3cgk6jpbuxhgypt4k2ps5u7crjhjiol6rmzvxmdq2vqnza.py":26:30)
#loc12 = loc("/NHNHOME/WORKSPACE/26msit001_A/jinhyeok/TTT_camera_embedding/lact_llm/.cache_inductor/a4/ca4ond3cgk6jpbuxhgypt4k2ps5u7crjhjiol6rmzvxmdq2vqnza.py":26:35)
#loc13 = loc("/NHNHOME/WORKSPACE/26msit001_A/jinhyeok/TTT_camera_embedding/lact_llm/.cache_inductor/a4/ca4ond3cgk6jpbuxhgypt4k2ps5u7crjhjiol6rmzvxmdq2vqnza.py":28:26)
#loc14 = loc("/NHNHOME/WORKSPACE/26msit001_A/jinhyeok/TTT_camera_embedding/lact_llm/.cache_inductor/a4/ca4ond3cgk6jpbuxhgypt4k2ps5u7crjhjiol6rmzvxmdq2vqnza.py":31:19)
#loc15 = loc("/NHNHOME/WORKSPACE/26msit001_A/jinhyeok/TTT_camera_embedding/lact_llm/.cache_inductor/a4/ca4ond3cgk6jpbuxhgypt4k2ps5u7crjhjiol6rmzvxmdq2vqnza.py":33:25)
#loc16 = loc("/NHNHOME/WORKSPACE/26msit001_A/jinhyeok/TTT_camera_embedding/lact_llm/.cache_inductor/a4/ca4ond3cgk6jpbuxhgypt4k2ps5u7crjhjiol6rmzvxmdq2vqnza.py":33:36)
#loc17 = loc("/NHNHOME/WORKSPACE/26msit001_A/jinhyeok/TTT_camera_embedding/lact_llm/.cache_inductor/a4/ca4ond3cgk6jpbuxhgypt4k2ps5u7crjhjiol6rmzvxmdq2vqnza.py":34:25)
#loc18 = loc("/NHNHOME/WORKSPACE/26msit001_A/jinhyeok/TTT_camera_embedding/lact_llm/.cache_inductor/a4/ca4ond3cgk6jpbuxhgypt4k2ps5u7crjhjiol6rmzvxmdq2vqnza.py":34:36)
#loc19 = loc("/NHNHOME/WORKSPACE/26msit001_A/jinhyeok/TTT_camera_embedding/lact_llm/.cache_inductor/a4/ca4ond3cgk6jpbuxhgypt4k2ps5u7crjhjiol6rmzvxmdq2vqnza.py":35:25)
#loc20 = loc("/NHNHOME/WORKSPACE/26msit001_A/jinhyeok/TTT_camera_embedding/lact_llm/.cache_inductor/a4/ca4ond3cgk6jpbuxhgypt4k2ps5u7crjhjiol6rmzvxmdq2vqnza.py":35:36)
#loc21 = loc("/NHNHOME/WORKSPACE/26msit001_A/jinhyeok/TTT_camera_embedding/lact_llm/.cache_inductor/a4/ca4ond3cgk6jpbuxhgypt4k2ps5u7crjhjiol6rmzvxmdq2vqnza.py":35:4)
#loc28 = loc("tmp5"(#loc1))
#loc29 = loc("x1"(#loc2))
#loc30 = loc("xoffset"(#loc4))
#loc31 = loc("xoffset"(#loc5))
#loc32 = loc("xindex"(#loc6))
#loc33 = loc("xindex"(#loc7))
#loc34 = loc("tmp0"(#loc8))
#loc35 = loc("tmp0"(#loc9))
#loc36 = loc("tmp0"(#loc10))
#loc37 = loc("tmp2"(#loc11))
#loc38 = loc("tmp2"(#loc12))
#loc39 = loc("tmp3"(#loc13))
#loc40 = loc("tmp6"(#loc14))
