#loc = loc("/NHNHOME/WORKSPACE/26msit001_A/jinhyeok/loop_TTT/lact/.cache_inductor_llm/im/cimo3d5nhet2ln67r4s53eg6ljbwtloohlr43bn3atzxtweyf3e3.py":18:0)
#loc40 = loc("in_ptr0"(#loc))
#loc41 = loc("in_ptr1"(#loc))
#loc42 = loc("in_ptr2"(#loc))
#loc43 = loc("in_ptr3"(#loc))
#loc44 = loc("out_ptr0"(#loc))
#loc45 = loc("ynumel"(#loc))
#loc46 = loc("xnumel"(#loc))
module {
  tt.func public @triton_poi_fused__to_copy_add_mul_transpose_3(%in_ptr0: !tt.ptr<bf16> {tt.divisibility = 16 : i32} loc("in_ptr0"(#loc)), %in_ptr1: !tt.ptr<f32> {tt.divisibility = 16 : i32} loc("in_ptr1"(#loc)), %in_ptr2: !tt.ptr<bf16> {tt.divisibility = 16 : i32} loc("in_ptr2"(#loc)), %in_ptr3: !tt.ptr<bf16> {tt.divisibility = 16 : i32} loc("in_ptr3"(#loc)), %out_ptr0: !tt.ptr<bf16> {tt.divisibility = 16 : i32} loc("out_ptr0"(#loc)), %ynumel: i32 {tt.divisibility = 16 : i32} loc("ynumel"(#loc)), %xnumel: i32 {tt.divisibility = 16 : i32} loc("xnumel"(#loc))) attributes {noinline = false} {
    %tmp4 = arith.constant dense<2.836600e+00> : tensor<64x64xf32> loc(#loc47)
    %tmp9 = arith.constant dense<36864> : tensor<64x1xi32> loc(#loc48)
    %cst = arith.constant dense<192> : tensor<64x1xi32> loc(#loc3)
    %cst_0 = arith.constant dense<192> : tensor<1x64xi32> loc(#loc3)
    %ymask = arith.constant dense<1536> : tensor<64x1xi32> loc(#loc49)
    %c64_i32 = arith.constant 64 : i32 loc(#loc3)
    %yoffset = tt.get_program_id y : i32 loc(#loc50)
    %yoffset_1 = arith.muli %yoffset, %c64_i32 : i32 loc(#loc51)
    %yindex = tt.make_range {end = 64 : i32, start = 0 : i32} : tensor<64xi32> loc(#loc52)
    %yindex_2 = tt.expand_dims %yindex {axis = 1 : i32} : tensor<64xi32> -> tensor<64x1xi32> loc(#loc53)
    %yindex_3 = tt.splat %yoffset_1 : i32 -> tensor<64x1xi32> loc(#loc54)
    %yindex_4 = arith.addi %yindex_3, %yindex_2 : tensor<64x1xi32> loc(#loc54)
    %ymask_5 = arith.cmpi slt, %yindex_4, %ymask : tensor<64x1xi32> loc(#loc49)
    %xoffset = tt.get_program_id x : i32 loc(#loc55)
    %xoffset_6 = arith.muli %xoffset, %c64_i32 : i32 loc(#loc56)
    %xindex = tt.expand_dims %yindex {axis = 0 : i32} : tensor<64xi32> -> tensor<1x64xi32> loc(#loc57)
    %xindex_7 = tt.splat %xoffset_6 : i32 -> tensor<1x64xi32> loc(#loc58)
    %xindex_8 = arith.addi %xindex_7, %xindex : tensor<1x64xi32> loc(#loc58)
    %xmask = arith.cmpi slt, %xindex_8, %cst_0 : tensor<1x64xi32> loc(#loc59)
    %y0 = arith.remsi %yindex_4, %cst : tensor<64x1xi32> loc(#loc60)
    %y1 = arith.divsi %yindex_4, %cst : tensor<64x1xi32> loc(#loc61)
    %tmp0 = arith.muli %yindex_4, %cst : tensor<64x1xi32> loc(#loc62)
    %tmp0_9 = tt.broadcast %xindex_8 : tensor<1x64xi32> -> tensor<64x64xi32> loc(#loc63)
    %tmp0_10 = tt.broadcast %tmp0 : tensor<64x1xi32> -> tensor<64x64xi32> loc(#loc63)
    %tmp0_11 = arith.addi %tmp0_9, %tmp0_10 : tensor<64x64xi32> loc(#loc63)
    %tmp0_12 = tt.splat %in_ptr0 : !tt.ptr<bf16> -> tensor<64x64x!tt.ptr<bf16>> loc(#loc64)
    %tmp0_13 = tt.addptr %tmp0_12, %tmp0_11 : tensor<64x64x!tt.ptr<bf16>>, tensor<64x64xi32> loc(#loc64)
    %tmp0_14 = tt.broadcast %xmask : tensor<1x64xi1> -> tensor<64x64xi1> loc(#loc65)
    %tmp0_15 = tt.broadcast %ymask_5 : tensor<64x1xi1> -> tensor<64x64xi1> loc(#loc65)
    %tmp0_16 = arith.andi %tmp0_14, %tmp0_15 : tensor<64x64xi1> loc(#loc65)
    %tmp0_17 = tt.load %tmp0_13, %tmp0_16 evictionPolicy = evict_last : tensor<64x64x!tt.ptr<bf16>> loc(#loc66)
    %tmp0_18 = arith.extf %tmp0_17 : tensor<64x64xbf16> to tensor<64x64xf32> loc(#loc67)
    %tmp2 = tt.splat %in_ptr1 : !tt.ptr<f32> -> tensor<64x64x!tt.ptr<f32>> loc(#loc68)
    %tmp2_19 = tt.addptr %tmp2, %tmp0_11 : tensor<64x64x!tt.ptr<f32>>, tensor<64x64xi32> loc(#loc68)
    %tmp2_20 = tt.load %tmp2_19, %tmp0_16 evictionPolicy = evict_last : tensor<64x64x!tt.ptr<f32>> loc(#loc69)
    %tmp6 = tt.splat %in_ptr2 : !tt.ptr<bf16> -> tensor<64x64x!tt.ptr<bf16>> loc(#loc70)
    %tmp6_21 = tt.addptr %tmp6, %tmp0_11 : tensor<64x64x!tt.ptr<bf16>>, tensor<64x64xi32> loc(#loc70)
    %tmp6_22 = tt.load %tmp6_21, %tmp0_16 evictionPolicy = evict_last : tensor<64x64x!tt.ptr<bf16>> loc(#loc71)
    %tmp6_23 = arith.extf %tmp6_22 : tensor<64x64xbf16> to tensor<64x64xf32> loc(#loc72)
    %tmp9_24 = arith.muli %xindex_8, %cst_0 : tensor<1x64xi32> loc(#loc73)
    %tmp9_25 = tt.broadcast %y0 : tensor<64x1xi32> -> tensor<64x64xi32> loc(#loc74)
    %tmp9_26 = tt.broadcast %tmp9_24 : tensor<1x64xi32> -> tensor<64x64xi32> loc(#loc74)
    %tmp9_27 = arith.addi %tmp9_25, %tmp9_26 : tensor<64x64xi32> loc(#loc74)
    %tmp9_28 = arith.muli %y1, %tmp9 : tensor<64x1xi32> loc(#loc48)
    %tmp9_29 = tt.broadcast %tmp9_28 : tensor<64x1xi32> -> tensor<64x64xi32> loc(#loc75)
    %tmp9_30 = arith.addi %tmp9_27, %tmp9_29 : tensor<64x64xi32> loc(#loc75)
    %tmp9_31 = tt.splat %in_ptr3 : !tt.ptr<bf16> -> tensor<64x64x!tt.ptr<bf16>> loc(#loc76)
    %tmp9_32 = tt.addptr %tmp9_31, %tmp9_30 : tensor<64x64x!tt.ptr<bf16>>, tensor<64x64xi32> loc(#loc76)
    %tmp9_33 = tt.load %tmp9_32, %tmp0_16 evictionPolicy = evict_last : tensor<64x64x!tt.ptr<bf16>> loc(#loc77)
    %tmp9_34 = arith.extf %tmp9_33 : tensor<64x64xbf16> to tensor<64x64xf32> loc(#loc78)
    %tmp4_35 = arith.mulf %tmp2_20, %tmp4 : tensor<64x64xf32> loc(#loc47)
    %tmp5 = arith.addf %tmp0_18, %tmp4_35 : tensor<64x64xf32> loc(#loc79)
    %tmp8 = arith.addf %tmp5, %tmp6_23 : tensor<64x64xf32> loc(#loc80)
    %tmp11 = arith.addf %tmp8, %tmp9_34 : tensor<64x64xf32> loc(#loc81)
    %0 = tt.splat %out_ptr0 : !tt.ptr<bf16> -> tensor<64x64x!tt.ptr<bf16>> loc(#loc37)
    %1 = tt.addptr %0, %tmp0_11 : tensor<64x64x!tt.ptr<bf16>>, tensor<64x64xi32> loc(#loc37)
    %2 = arith.truncf %tmp11 : tensor<64x64xf32> to tensor<64x64xbf16> loc(#loc38)
    tt.store %1, %2, %tmp0_16 : tensor<64x64x!tt.ptr<bf16>> loc(#loc38)
    tt.return loc(#loc39)
  } loc(#loc)
} loc(#loc)
#loc1 = loc("/NHNHOME/WORKSPACE/26msit001_A/jinhyeok/loop_TTT/lact/.cache_inductor_llm/im/cimo3d5nhet2ln67r4s53eg6ljbwtloohlr43bn3atzxtweyf3e3.py":37:18)
#loc2 = loc("/NHNHOME/WORKSPACE/26msit001_A/jinhyeok/loop_TTT/lact/.cache_inductor_llm/im/cimo3d5nhet2ln67r4s53eg6ljbwtloohlr43bn3atzxtweyf3e3.py":34:50)
#loc3 = loc(unknown)
#loc4 = loc("/NHNHOME/WORKSPACE/26msit001_A/jinhyeok/loop_TTT/lact/.cache_inductor_llm/im/cimo3d5nhet2ln67r4s53eg6ljbwtloohlr43bn3atzxtweyf3e3.py":23:21)
#loc5 = loc("/NHNHOME/WORKSPACE/26msit001_A/jinhyeok/loop_TTT/lact/.cache_inductor_llm/im/cimo3d5nhet2ln67r4s53eg6ljbwtloohlr43bn3atzxtweyf3e3.py":21:28)
#loc6 = loc("/NHNHOME/WORKSPACE/26msit001_A/jinhyeok/loop_TTT/lact/.cache_inductor_llm/im/cimo3d5nhet2ln67r4s53eg6ljbwtloohlr43bn3atzxtweyf3e3.py":21:33)
#loc7 = loc("/NHNHOME/WORKSPACE/26msit001_A/jinhyeok/loop_TTT/lact/.cache_inductor_llm/im/cimo3d5nhet2ln67r4s53eg6ljbwtloohlr43bn3atzxtweyf3e3.py":22:36)
#loc8 = loc("/NHNHOME/WORKSPACE/26msit001_A/jinhyeok/loop_TTT/lact/.cache_inductor_llm/im/cimo3d5nhet2ln67r4s53eg6ljbwtloohlr43bn3atzxtweyf3e3.py":22:44)
#loc9 = loc("/NHNHOME/WORKSPACE/26msit001_A/jinhyeok/loop_TTT/lact/.cache_inductor_llm/im/cimo3d5nhet2ln67r4s53eg6ljbwtloohlr43bn3atzxtweyf3e3.py":22:23)
#loc10 = loc("/NHNHOME/WORKSPACE/26msit001_A/jinhyeok/loop_TTT/lact/.cache_inductor_llm/im/cimo3d5nhet2ln67r4s53eg6ljbwtloohlr43bn3atzxtweyf3e3.py":24:28)
#loc11 = loc("/NHNHOME/WORKSPACE/26msit001_A/jinhyeok/loop_TTT/lact/.cache_inductor_llm/im/cimo3d5nhet2ln67r4s53eg6ljbwtloohlr43bn3atzxtweyf3e3.py":24:33)
#loc12 = loc("/NHNHOME/WORKSPACE/26msit001_A/jinhyeok/loop_TTT/lact/.cache_inductor_llm/im/cimo3d5nhet2ln67r4s53eg6ljbwtloohlr43bn3atzxtweyf3e3.py":25:44)
#loc13 = loc("/NHNHOME/WORKSPACE/26msit001_A/jinhyeok/loop_TTT/lact/.cache_inductor_llm/im/cimo3d5nhet2ln67r4s53eg6ljbwtloohlr43bn3atzxtweyf3e3.py":25:23)
#loc14 = loc("/NHNHOME/WORKSPACE/26msit001_A/jinhyeok/loop_TTT/lact/.cache_inductor_llm/im/cimo3d5nhet2ln67r4s53eg6ljbwtloohlr43bn3atzxtweyf3e3.py":26:21)
#loc15 = loc("/NHNHOME/WORKSPACE/26msit001_A/jinhyeok/loop_TTT/lact/.cache_inductor_llm/im/cimo3d5nhet2ln67r4s53eg6ljbwtloohlr43bn3atzxtweyf3e3.py":29:19)
#loc16 = loc("/NHNHOME/WORKSPACE/26msit001_A/jinhyeok/loop_TTT/lact/.cache_inductor_llm/im/cimo3d5nhet2ln67r4s53eg6ljbwtloohlr43bn3atzxtweyf3e3.py":30:19)
#loc17 = loc("/NHNHOME/WORKSPACE/26msit001_A/jinhyeok/loop_TTT/lact/.cache_inductor_llm/im/cimo3d5nhet2ln67r4s53eg6ljbwtloohlr43bn3atzxtweyf3e3.py":31:39)
#loc18 = loc("/NHNHOME/WORKSPACE/26msit001_A/jinhyeok/loop_TTT/lact/.cache_inductor_llm/im/cimo3d5nhet2ln67r4s53eg6ljbwtloohlr43bn3atzxtweyf3e3.py":31:35)
#loc19 = loc("/NHNHOME/WORKSPACE/26msit001_A/jinhyeok/loop_TTT/lact/.cache_inductor_llm/im/cimo3d5nhet2ln67r4s53eg6ljbwtloohlr43bn3atzxtweyf3e3.py":31:30)
#loc20 = loc("/NHNHOME/WORKSPACE/26msit001_A/jinhyeok/loop_TTT/lact/.cache_inductor_llm/im/cimo3d5nhet2ln67r4s53eg6ljbwtloohlr43bn3atzxtweyf3e3.py":31:52)
#loc21 = loc("/NHNHOME/WORKSPACE/26msit001_A/jinhyeok/loop_TTT/lact/.cache_inductor_llm/im/cimo3d5nhet2ln67r4s53eg6ljbwtloohlr43bn3atzxtweyf3e3.py":31:44)
#loc22 = loc("/NHNHOME/WORKSPACE/26msit001_A/jinhyeok/loop_TTT/lact/.cache_inductor_llm/im/cimo3d5nhet2ln67r4s53eg6ljbwtloohlr43bn3atzxtweyf3e3.py":31:92)
#loc23 = loc("/NHNHOME/WORKSPACE/26msit001_A/jinhyeok/loop_TTT/lact/.cache_inductor_llm/im/cimo3d5nhet2ln67r4s53eg6ljbwtloohlr43bn3atzxtweyf3e3.py":32:30)
#loc24 = loc("/NHNHOME/WORKSPACE/26msit001_A/jinhyeok/loop_TTT/lact/.cache_inductor_llm/im/cimo3d5nhet2ln67r4s53eg6ljbwtloohlr43bn3atzxtweyf3e3.py":32:44)
#loc25 = loc("/NHNHOME/WORKSPACE/26msit001_A/jinhyeok/loop_TTT/lact/.cache_inductor_llm/im/cimo3d5nhet2ln67r4s53eg6ljbwtloohlr43bn3atzxtweyf3e3.py":33:30)
#loc26 = loc("/NHNHOME/WORKSPACE/26msit001_A/jinhyeok/loop_TTT/lact/.cache_inductor_llm/im/cimo3d5nhet2ln67r4s53eg6ljbwtloohlr43bn3atzxtweyf3e3.py":33:44)
#loc27 = loc("/NHNHOME/WORKSPACE/26msit001_A/jinhyeok/loop_TTT/lact/.cache_inductor_llm/im/cimo3d5nhet2ln67r4s53eg6ljbwtloohlr43bn3atzxtweyf3e3.py":33:92)
#loc28 = loc("/NHNHOME/WORKSPACE/26msit001_A/jinhyeok/loop_TTT/lact/.cache_inductor_llm/im/cimo3d5nhet2ln67r4s53eg6ljbwtloohlr43bn3atzxtweyf3e3.py":34:39)
#loc29 = loc("/NHNHOME/WORKSPACE/26msit001_A/jinhyeok/loop_TTT/lact/.cache_inductor_llm/im/cimo3d5nhet2ln67r4s53eg6ljbwtloohlr43bn3atzxtweyf3e3.py":34:35)
#loc30 = loc("/NHNHOME/WORKSPACE/26msit001_A/jinhyeok/loop_TTT/lact/.cache_inductor_llm/im/cimo3d5nhet2ln67r4s53eg6ljbwtloohlr43bn3atzxtweyf3e3.py":34:44)
#loc31 = loc("/NHNHOME/WORKSPACE/26msit001_A/jinhyeok/loop_TTT/lact/.cache_inductor_llm/im/cimo3d5nhet2ln67r4s53eg6ljbwtloohlr43bn3atzxtweyf3e3.py":34:30)
#loc32 = loc("/NHNHOME/WORKSPACE/26msit001_A/jinhyeok/loop_TTT/lact/.cache_inductor_llm/im/cimo3d5nhet2ln67r4s53eg6ljbwtloohlr43bn3atzxtweyf3e3.py":34:55)
#loc33 = loc("/NHNHOME/WORKSPACE/26msit001_A/jinhyeok/loop_TTT/lact/.cache_inductor_llm/im/cimo3d5nhet2ln67r4s53eg6ljbwtloohlr43bn3atzxtweyf3e3.py":34:103)
#loc34 = loc("/NHNHOME/WORKSPACE/26msit001_A/jinhyeok/loop_TTT/lact/.cache_inductor_llm/im/cimo3d5nhet2ln67r4s53eg6ljbwtloohlr43bn3atzxtweyf3e3.py":38:18)
#loc35 = loc("/NHNHOME/WORKSPACE/26msit001_A/jinhyeok/loop_TTT/lact/.cache_inductor_llm/im/cimo3d5nhet2ln67r4s53eg6ljbwtloohlr43bn3atzxtweyf3e3.py":40:18)
#loc36 = loc("/NHNHOME/WORKSPACE/26msit001_A/jinhyeok/loop_TTT/lact/.cache_inductor_llm/im/cimo3d5nhet2ln67r4s53eg6ljbwtloohlr43bn3atzxtweyf3e3.py":42:19)
#loc37 = loc("/NHNHOME/WORKSPACE/26msit001_A/jinhyeok/loop_TTT/lact/.cache_inductor_llm/im/cimo3d5nhet2ln67r4s53eg6ljbwtloohlr43bn3atzxtweyf3e3.py":44:25)
#loc38 = loc("/NHNHOME/WORKSPACE/26msit001_A/jinhyeok/loop_TTT/lact/.cache_inductor_llm/im/cimo3d5nhet2ln67r4s53eg6ljbwtloohlr43bn3atzxtweyf3e3.py":44:46)
#loc39 = loc("/NHNHOME/WORKSPACE/26msit001_A/jinhyeok/loop_TTT/lact/.cache_inductor_llm/im/cimo3d5nhet2ln67r4s53eg6ljbwtloohlr43bn3atzxtweyf3e3.py":44:4)
#loc47 = loc("tmp4"(#loc1))
#loc48 = loc("tmp9"(#loc2))
#loc49 = loc("ymask"(#loc4))
#loc50 = loc("yoffset"(#loc5))
#loc51 = loc("yoffset"(#loc6))
#loc52 = loc("yindex"(#loc7))
#loc53 = loc("yindex"(#loc8))
#loc54 = loc("yindex"(#loc9))
#loc55 = loc("xoffset"(#loc10))
#loc56 = loc("xoffset"(#loc11))
#loc57 = loc("xindex"(#loc12))
#loc58 = loc("xindex"(#loc13))
#loc59 = loc("xmask"(#loc14))
#loc60 = loc("y0"(#loc15))
#loc61 = loc("y1"(#loc16))
#loc62 = loc("tmp0"(#loc17))
#loc63 = loc("tmp0"(#loc18))
#loc64 = loc("tmp0"(#loc19))
#loc65 = loc("tmp0"(#loc20))
#loc66 = loc("tmp0"(#loc21))
#loc67 = loc("tmp0"(#loc22))
#loc68 = loc("tmp2"(#loc23))
#loc69 = loc("tmp2"(#loc24))
#loc70 = loc("tmp6"(#loc25))
#loc71 = loc("tmp6"(#loc26))
#loc72 = loc("tmp6"(#loc27))
#loc73 = loc("tmp9"(#loc28))
#loc74 = loc("tmp9"(#loc29))
#loc75 = loc("tmp9"(#loc30))
#loc76 = loc("tmp9"(#loc31))
#loc77 = loc("tmp9"(#loc32))
#loc78 = loc("tmp9"(#loc33))
#loc79 = loc("tmp5"(#loc34))
#loc80 = loc("tmp8"(#loc35))
#loc81 = loc("tmp11"(#loc36))
