#loc = loc("/NHNHOME/WORKSPACE/26msit001_A/jinhyeok/TTT_camera_embedding/lact_llm/.cache_inductor/j6/cj6vapuxdfmdznr4r7ruxwio74lcrc6zabix6bsdmkrib63prrjb.py":18:0)
#loc105 = loc("/NHNHOME/WORKSPACE/26msit001_A/jinhyeok/TTT_camera_embedding/.venv_llm/lib/python3.12/site-packages/triton/language/standard.py":285:0)
#loc107 = loc(unknown)
#loc110 = loc("/NHNHOME/WORKSPACE/26msit001_A/jinhyeok/TTT_camera_embedding/.venv_llm/lib/python3.12/site-packages/triton/language/standard.py":260:0)
#loc114 = loc("in_ptr0"(#loc))
#loc115 = loc("in_ptr1"(#loc))
#loc116 = loc("in_ptr2"(#loc))
#loc117 = loc("in_ptr3"(#loc))
#loc118 = loc("in_ptr4"(#loc))
#loc119 = loc("in_ptr5"(#loc))
#loc120 = loc("out_ptr0"(#loc))
#loc121 = loc("out_ptr1"(#loc))
#loc122 = loc("xnumel"(#loc))
#loc123 = loc("r0_numel"(#loc))
#loc222 = loc("input"(#loc105))
#loc223 = loc("a"(#loc110))
#loc224 = loc("b"(#loc110))
module {
  tt.func public @triton_red_fused__to_copy_add_linalg_vector_norm_mean_mul_slice_zeros_like_39(%in_ptr0: !tt.ptr<bf16> {tt.divisibility = 16 : i32} loc("in_ptr0"(#loc)), %in_ptr1: !tt.ptr<bf16> {tt.divisibility = 16 : i32} loc("in_ptr1"(#loc)), %in_ptr2: !tt.ptr<f32> {tt.divisibility = 16 : i32} loc("in_ptr2"(#loc)), %in_ptr3: !tt.ptr<f32> {tt.divisibility = 16 : i32} loc("in_ptr3"(#loc)), %in_ptr4: !tt.ptr<bf16> {tt.divisibility = 16 : i32} loc("in_ptr4"(#loc)), %in_ptr5: !tt.ptr<bf16> {tt.divisibility = 16 : i32} loc("in_ptr5"(#loc)), %out_ptr0: !tt.ptr<f32> {tt.divisibility = 16 : i32} loc("out_ptr0"(#loc)), %out_ptr1: !tt.ptr<f32> {tt.divisibility = 16 : i32} loc("out_ptr1"(#loc)), %xnumel: i32 {tt.divisibility = 16 : i32} loc("xnumel"(#loc)), %r0_numel: i32 loc("r0_numel"(#loc))) attributes {noinline = false} {
    %xnumel_0 = arith.constant 160 : i32 loc(#loc124)
    %r0_numel_1 = arith.constant 7373 : i32 loc(#loc125)
    %xoffset = tt.get_program_id x : i32 loc(#loc126)
    %xoffset_2 = arith.constant 1 : i32 loc(#loc127)
    %xoffset_3 = arith.constant 1 : i32 loc(#loc127)
    %xoffset_4 = arith.muli %xoffset, %xoffset_3 : i32 loc(#loc127)
    %xindex = tt.make_range {end = 1 : i32, start = 0 : i32} : tensor<1xi32> loc(#loc128)
    %xindex_5 = tt.expand_dims %xindex {axis = 1 : i32} : tensor<1xi32> -> tensor<1x1xi32> loc(#loc129)
    %xindex_6 = tt.splat %xoffset_4 : i32 -> tensor<1x1xi32> loc(#loc130)
    %xindex_7 = arith.addi %xindex_6, %xindex_5 : tensor<1x1xi32> loc(#loc130)
    %xmask = arith.constant dense<160> : tensor<1x1xi32> loc(#loc131)
    %xmask_8 = arith.cmpi slt, %xindex_7, %xmask : tensor<1x1xi32> loc(#loc131)
    %r0_base = tt.make_range {end = 2048 : i32, start = 0 : i32} : tensor<2048xi32> loc(#loc132)
    %r0_base_9 = tt.expand_dims %r0_base {axis = 0 : i32} : tensor<2048xi32> -> tensor<1x2048xi32> loc(#loc133)
    %x0 = arith.constant 5 : i32 loc(#loc134)
    %x0_10 = arith.constant 5 : i32 loc(#loc134)
    %x0_11 = arith.constant dense<5> : tensor<1x1xi32> loc(#loc134)
    %x0_12 = arith.remsi %xindex_7, %x0_11 : tensor<1x1xi32> loc(#loc134)
    %x1 = arith.constant 5 : i32 loc(#loc135)
    %x1_13 = arith.constant 5 : i32 loc(#loc135)
    %x1_14 = arith.constant dense<5> : tensor<1x1xi32> loc(#loc135)
    %x1_15 = arith.divsi %xindex_7, %x1_14 : tensor<1x1xi32> loc(#loc135)
    %_tmp23 = arith.constant 0.000000e+00 : f32 loc(#loc136)
    %_tmp23_16 = arith.constant dense<0.000000e+00> : tensor<1x2048xf32> loc(#loc136)
    %_tmp38 = arith.constant 0.000000e+00 : f32 loc(#loc137)
    %_tmp38_17 = arith.constant dense<0.000000e+00> : tensor<1x2048xf32> loc(#loc137)
    %c0_i32 = arith.constant 0 : i32 loc(#loc15)
    %c2048_i32 = arith.constant 2048 : i32 loc(#loc15)
    %0 = arith.bitcast %c0_i32 : i32 to i32 loc(#loc15)
    %1 = arith.bitcast %r0_numel_1 : i32 to i32 loc(#loc15)
    %2 = arith.bitcast %c2048_i32 : i32 to i32 loc(#loc15)
    %3 = ub.poison : i32 loc(#loc15)
    %_tmp38_18:2 = scf.for %r0_offset = %0 to %1 step %2 iter_args(%_tmp23_21 = %_tmp23_16, %_tmp38_22 = %_tmp38_17) -> (tensor<1x2048xf32>, tensor<1x2048xf32>)  : i32 {
      %r0_index = tt.splat %r0_offset : i32 -> tensor<1x2048xi32> loc(#loc139)
      %r0_index_23 = arith.addi %r0_index, %r0_base_9 : tensor<1x2048xi32> loc(#loc139)
      %r0_mask = arith.constant dense<7373> : tensor<1x2048xi32> loc(#loc140)
      %r0_mask_24 = arith.cmpi slt, %r0_index_23, %r0_mask : tensor<1x2048xi32> loc(#loc140)
      %tmp0 = arith.constant 7373 : i32 loc(#loc141)
      %tmp0_25 = arith.constant 7373 : i32 loc(#loc141)
      %tmp0_26 = arith.constant dense<7373> : tensor<1x1xi32> loc(#loc141)
      %tmp0_27 = arith.muli %tmp0_26, %x0_12 : tensor<1x1xi32> loc(#loc141)
      %tmp0_28 = tt.broadcast %tmp0_27 : tensor<1x1xi32> -> tensor<1x2048xi32> loc(#loc142)
      %tmp0_29 = arith.addi %r0_index_23, %tmp0_28 : tensor<1x2048xi32> loc(#loc142)
      %tmp1 = arith.constant 36864 : i32 loc(#loc143)
      %tmp1_30 = arith.constant dense<36864> : tensor<1x1xi32> loc(#loc143)
      %tmp2 = arith.constant dense<36864> : tensor<1x2048xi32> loc(#loc144)
      %tmp2_31 = arith.cmpi slt, %tmp0_29, %tmp2 : tensor<1x2048xi32> loc(#loc144)
      %tmp3 = arith.constant 36864 : i32 loc(#loc145)
      %tmp3_32 = arith.constant 36864 : i32 loc(#loc145)
      %tmp3_33 = arith.constant dense<36864> : tensor<1x1xi32> loc(#loc145)
      %tmp3_34 = arith.muli %tmp3_33, %x1_15 : tensor<1x1xi32> loc(#loc145)
      %tmp3_35 = arith.constant 7373 : i32 loc(#loc146)
      %tmp3_36 = arith.constant 7373 : i32 loc(#loc146)
      %tmp3_37 = arith.constant dense<7373> : tensor<1x1xi32> loc(#loc146)
      %tmp3_38 = arith.muli %tmp3_37, %x0_12 : tensor<1x1xi32> loc(#loc146)
      %tmp3_39 = tt.broadcast %tmp3_38 : tensor<1x1xi32> -> tensor<1x2048xi32> loc(#loc147)
      %tmp3_40 = arith.addi %r0_index_23, %tmp3_39 : tensor<1x2048xi32> loc(#loc147)
      %tmp3_41 = arith.constant 36864 : i32 loc(#loc148)
      %tmp3_42 = arith.constant 36864 : i32 loc(#loc148)
      %tmp3_43 = arith.constant dense<36864> : tensor<1x2048xi32> loc(#loc148)
      %tmp3_44 = arith.remsi %tmp3_40, %tmp3_43 : tensor<1x2048xi32> loc(#loc148)
      %tmp3_45 = tt.broadcast %tmp3_34 : tensor<1x1xi32> -> tensor<1x2048xi32> loc(#loc149)
      %tmp3_46 = arith.addi %tmp3_45, %tmp3_44 : tensor<1x2048xi32> loc(#loc149)
      %tmp3_47 = tt.splat %in_ptr0 : !tt.ptr<bf16> -> tensor<1x2048x!tt.ptr<bf16>> loc(#loc150)
      %tmp3_48 = tt.addptr %tmp3_47, %tmp3_46 : tensor<1x2048x!tt.ptr<bf16>>, tensor<1x2048xi32> loc(#loc150)
      %tmp3_49 = arith.andi %r0_mask_24, %tmp2_31 : tensor<1x2048xi1> loc(#loc151)
      %tmp3_50 = tt.broadcast %xmask_8 : tensor<1x1xi1> -> tensor<1x2048xi1> loc(#loc152)
      %tmp3_51 = arith.andi %tmp3_49, %tmp3_50 : tensor<1x2048xi1> loc(#loc152)
      %tmp3_52 = arith.constant 0.000000e+00 : f32 loc(#loc153)
      %tmp3_53 = arith.constant dense<0.000000e+00> : tensor<1x2048xf32> loc(#loc153)
      %tmp3_54 = arith.truncf %tmp3_53 : tensor<1x2048xf32> to tensor<1x2048xbf16> loc(#loc153)
      %tmp3_55 = tt.load %tmp3_48, %tmp3_51, %tmp3_54 evictionPolicy = evict_last : tensor<1x2048x!tt.ptr<bf16>> loc(#loc153)
      %tmp3_56 = arith.extf %tmp3_55 : tensor<1x2048xbf16> to tensor<1x2048xf32> loc(#loc154)
      %tmp5 = arith.constant 36864 : i32 loc(#loc155)
      %tmp5_57 = arith.constant 36864 : i32 loc(#loc155)
      %tmp5_58 = arith.constant dense<36864> : tensor<1x1xi32> loc(#loc155)
      %tmp5_59 = arith.muli %tmp5_58, %x1_15 : tensor<1x1xi32> loc(#loc155)
      %tmp5_60 = arith.constant 7373 : i32 loc(#loc156)
      %tmp5_61 = arith.constant 7373 : i32 loc(#loc156)
      %tmp5_62 = arith.constant dense<7373> : tensor<1x1xi32> loc(#loc156)
      %tmp5_63 = arith.muli %tmp5_62, %x0_12 : tensor<1x1xi32> loc(#loc156)
      %tmp5_64 = tt.broadcast %tmp5_63 : tensor<1x1xi32> -> tensor<1x2048xi32> loc(#loc157)
      %tmp5_65 = arith.addi %r0_index_23, %tmp5_64 : tensor<1x2048xi32> loc(#loc157)
      %tmp5_66 = arith.constant 36864 : i32 loc(#loc158)
      %tmp5_67 = arith.constant 36864 : i32 loc(#loc158)
      %tmp5_68 = arith.constant dense<36864> : tensor<1x2048xi32> loc(#loc158)
      %tmp5_69 = arith.remsi %tmp5_65, %tmp5_68 : tensor<1x2048xi32> loc(#loc158)
      %tmp5_70 = tt.broadcast %tmp5_59 : tensor<1x1xi32> -> tensor<1x2048xi32> loc(#loc159)
      %tmp5_71 = arith.addi %tmp5_70, %tmp5_69 : tensor<1x2048xi32> loc(#loc159)
      %tmp5_72 = tt.splat %in_ptr1 : !tt.ptr<bf16> -> tensor<1x2048x!tt.ptr<bf16>> loc(#loc160)
      %tmp5_73 = tt.addptr %tmp5_72, %tmp5_71 : tensor<1x2048x!tt.ptr<bf16>>, tensor<1x2048xi32> loc(#loc160)
      %tmp5_74 = arith.andi %r0_mask_24, %tmp2_31 : tensor<1x2048xi1> loc(#loc161)
      %tmp5_75 = tt.broadcast %xmask_8 : tensor<1x1xi1> -> tensor<1x2048xi1> loc(#loc162)
      %tmp5_76 = arith.andi %tmp5_74, %tmp5_75 : tensor<1x2048xi1> loc(#loc162)
      %tmp5_77 = arith.constant 0.000000e+00 : f32 loc(#loc163)
      %tmp5_78 = arith.constant dense<0.000000e+00> : tensor<1x2048xf32> loc(#loc163)
      %tmp5_79 = arith.truncf %tmp5_78 : tensor<1x2048xf32> to tensor<1x2048xbf16> loc(#loc163)
      %tmp5_80 = tt.load %tmp5_73, %tmp5_76, %tmp5_79 evictionPolicy = evict_last : tensor<1x2048x!tt.ptr<bf16>> loc(#loc163)
      %tmp5_81 = arith.extf %tmp5_80 : tensor<1x2048xbf16> to tensor<1x2048xf32> loc(#loc164)
      %tmp7 = tt.broadcast %x1_15 : tensor<1x1xi32> -> tensor<1x2048xi32> loc(#loc165)
      %tmp7_82 = tt.splat %in_ptr2 : !tt.ptr<f32> -> tensor<1x2048x!tt.ptr<f32>> loc(#loc166)
      %tmp7_83 = tt.addptr %tmp7_82, %tmp7 : tensor<1x2048x!tt.ptr<f32>>, tensor<1x2048xi32> loc(#loc166)
      %tmp7_84 = arith.andi %r0_mask_24, %tmp2_31 : tensor<1x2048xi1> loc(#loc167)
      %tmp7_85 = tt.broadcast %xmask_8 : tensor<1x1xi1> -> tensor<1x2048xi1> loc(#loc168)
      %tmp7_86 = arith.andi %tmp7_84, %tmp7_85 : tensor<1x2048xi1> loc(#loc168)
      %tmp7_87 = arith.constant 0.000000e+00 : f32 loc(#loc169)
      %tmp7_88 = arith.constant dense<0.000000e+00> : tensor<1x2048xf32> loc(#loc169)
      %tmp7_89 = tt.load %tmp7_83, %tmp7_86, %tmp7_88 evictionPolicy = evict_last : tensor<1x2048x!tt.ptr<f32>> loc(#loc169)
      %tmp8 = arith.constant 1.024000e+03 : f32 loc(#loc170)
      %tmp9 = arith.constant dense<1.024000e+03> : tensor<1x2048xf32> loc(#loc171)
      %tmp9_90 = arith.divf %tmp7_89, %tmp9 : tensor<1x2048xf32> loc(#loc171)
      %tmp10 = arith.constant 0.000000e+00 : f32 loc(#loc172)
      %tmp11 = arith.constant dense<0.000000e+00> : tensor<1x2048xf32> loc(#loc173)
      %tmp11_91 = arith.mulf %tmp11, %tmp9_90 : tensor<1x2048xf32> loc(#loc173)
      %tmp12 = arith.addf %tmp5_81, %tmp11_91 : tensor<1x2048xf32> loc(#loc174)
      %tmp13 = tt.broadcast %x1_15 : tensor<1x1xi32> -> tensor<1x2048xi32> loc(#loc175)
      %tmp13_92 = tt.splat %in_ptr3 : !tt.ptr<f32> -> tensor<1x2048x!tt.ptr<f32>> loc(#loc176)
      %tmp13_93 = tt.addptr %tmp13_92, %tmp13 : tensor<1x2048x!tt.ptr<f32>>, tensor<1x2048xi32> loc(#loc176)
      %tmp13_94 = arith.andi %r0_mask_24, %tmp2_31 : tensor<1x2048xi1> loc(#loc177)
      %tmp13_95 = tt.broadcast %xmask_8 : tensor<1x1xi1> -> tensor<1x2048xi1> loc(#loc178)
      %tmp13_96 = arith.andi %tmp13_94, %tmp13_95 : tensor<1x2048xi1> loc(#loc178)
      %tmp13_97 = arith.constant 0.000000e+00 : f32 loc(#loc179)
      %tmp13_98 = arith.constant dense<0.000000e+00> : tensor<1x2048xf32> loc(#loc179)
      %tmp13_99 = tt.load %tmp13_93, %tmp13_96, %tmp13_98 evictionPolicy = evict_last : tensor<1x2048x!tt.ptr<f32>> loc(#loc179)
      %tmp14 = arith.constant dense<1.024000e+03> : tensor<1x2048xf32> loc(#loc180)
      %tmp14_100 = arith.divf %tmp13_99, %tmp14 : tensor<1x2048xf32> loc(#loc180)
      %tmp15 = arith.mulf %tmp12, %tmp14_100 : tensor<1x2048xf32> loc(#loc181)
      %tmp16 = arith.addf %tmp3_56, %tmp15 : tensor<1x2048xf32> loc(#loc182)
      %tmp19 = arith.mulf %tmp16, %tmp16 : tensor<1x2048xf32> loc(#loc183)
      %tmp20 = arith.constant 0.000000e+00 : f32 loc(#loc184)
      %tmp20_101 = arith.constant dense<0.000000e+00> : tensor<1x2048xf32> loc(#loc184)
      %tmp21 = arith.select %tmp2_31, %tmp19, %tmp20_101 : tensor<1x2048xi1>, tensor<1x2048xf32> loc(#loc185)
      %tmp24 = arith.addf %_tmp23_21, %tmp21 : tensor<1x2048xf32> loc(#loc186)
      %_tmp23_102 = tt.broadcast %xmask_8 : tensor<1x1xi1> -> tensor<1x2048xi1> loc(#loc187)
      %_tmp23_103 = arith.andi %r0_mask_24, %_tmp23_102 : tensor<1x2048xi1> loc(#loc187)
      %_tmp23_104 = arith.select %_tmp23_103, %tmp24, %_tmp23_21 : tensor<1x2048xi1>, tensor<1x2048xf32> loc(#loc188)
      %tmp25 = arith.constant 36864 : i32 loc(#loc189)
      %tmp25_105 = arith.constant 36864 : i32 loc(#loc189)
      %tmp25_106 = arith.constant dense<36864> : tensor<1x1xi32> loc(#loc189)
      %tmp25_107 = arith.muli %tmp25_106, %x1_15 : tensor<1x1xi32> loc(#loc189)
      %tmp25_108 = arith.constant 7373 : i32 loc(#loc190)
      %tmp25_109 = arith.constant 7373 : i32 loc(#loc190)
      %tmp25_110 = arith.constant dense<7373> : tensor<1x1xi32> loc(#loc190)
      %tmp25_111 = arith.muli %tmp25_110, %x0_12 : tensor<1x1xi32> loc(#loc190)
      %tmp25_112 = tt.broadcast %tmp25_111 : tensor<1x1xi32> -> tensor<1x2048xi32> loc(#loc191)
      %tmp25_113 = arith.addi %r0_index_23, %tmp25_112 : tensor<1x2048xi32> loc(#loc191)
      %tmp25_114 = arith.constant 36864 : i32 loc(#loc192)
      %tmp25_115 = arith.constant 36864 : i32 loc(#loc192)
      %tmp25_116 = arith.constant dense<36864> : tensor<1x2048xi32> loc(#loc192)
      %tmp25_117 = arith.remsi %tmp25_113, %tmp25_116 : tensor<1x2048xi32> loc(#loc192)
      %tmp25_118 = tt.broadcast %tmp25_107 : tensor<1x1xi32> -> tensor<1x2048xi32> loc(#loc193)
      %tmp25_119 = arith.addi %tmp25_118, %tmp25_117 : tensor<1x2048xi32> loc(#loc193)
      %tmp25_120 = tt.splat %in_ptr4 : !tt.ptr<bf16> -> tensor<1x2048x!tt.ptr<bf16>> loc(#loc194)
      %tmp25_121 = tt.addptr %tmp25_120, %tmp25_119 : tensor<1x2048x!tt.ptr<bf16>>, tensor<1x2048xi32> loc(#loc194)
      %tmp25_122 = arith.andi %r0_mask_24, %tmp2_31 : tensor<1x2048xi1> loc(#loc195)
      %tmp25_123 = tt.broadcast %xmask_8 : tensor<1x1xi1> -> tensor<1x2048xi1> loc(#loc196)
      %tmp25_124 = arith.andi %tmp25_122, %tmp25_123 : tensor<1x2048xi1> loc(#loc196)
      %tmp25_125 = arith.constant 0.000000e+00 : f32 loc(#loc197)
      %tmp25_126 = arith.constant dense<0.000000e+00> : tensor<1x2048xf32> loc(#loc197)
      %tmp25_127 = arith.truncf %tmp25_126 : tensor<1x2048xf32> to tensor<1x2048xbf16> loc(#loc197)
      %tmp25_128 = tt.load %tmp25_121, %tmp25_124, %tmp25_127 evictionPolicy = evict_last : tensor<1x2048x!tt.ptr<bf16>> loc(#loc197)
      %tmp25_129 = arith.extf %tmp25_128 : tensor<1x2048xbf16> to tensor<1x2048xf32> loc(#loc198)
      %tmp27 = arith.constant 36864 : i32 loc(#loc199)
      %tmp27_130 = arith.constant 36864 : i32 loc(#loc199)
      %tmp27_131 = arith.constant dense<36864> : tensor<1x1xi32> loc(#loc199)
      %tmp27_132 = arith.muli %tmp27_131, %x1_15 : tensor<1x1xi32> loc(#loc199)
      %tmp27_133 = arith.constant 7373 : i32 loc(#loc200)
      %tmp27_134 = arith.constant 7373 : i32 loc(#loc200)
      %tmp27_135 = arith.constant dense<7373> : tensor<1x1xi32> loc(#loc200)
      %tmp27_136 = arith.muli %tmp27_135, %x0_12 : tensor<1x1xi32> loc(#loc200)
      %tmp27_137 = tt.broadcast %tmp27_136 : tensor<1x1xi32> -> tensor<1x2048xi32> loc(#loc201)
      %tmp27_138 = arith.addi %r0_index_23, %tmp27_137 : tensor<1x2048xi32> loc(#loc201)
      %tmp27_139 = arith.constant 36864 : i32 loc(#loc202)
      %tmp27_140 = arith.constant 36864 : i32 loc(#loc202)
      %tmp27_141 = arith.constant dense<36864> : tensor<1x2048xi32> loc(#loc202)
      %tmp27_142 = arith.remsi %tmp27_138, %tmp27_141 : tensor<1x2048xi32> loc(#loc202)
      %tmp27_143 = tt.broadcast %tmp27_132 : tensor<1x1xi32> -> tensor<1x2048xi32> loc(#loc203)
      %tmp27_144 = arith.addi %tmp27_143, %tmp27_142 : tensor<1x2048xi32> loc(#loc203)
      %tmp27_145 = tt.splat %in_ptr5 : !tt.ptr<bf16> -> tensor<1x2048x!tt.ptr<bf16>> loc(#loc204)
      %tmp27_146 = tt.addptr %tmp27_145, %tmp27_144 : tensor<1x2048x!tt.ptr<bf16>>, tensor<1x2048xi32> loc(#loc204)
      %tmp27_147 = arith.andi %r0_mask_24, %tmp2_31 : tensor<1x2048xi1> loc(#loc205)
      %tmp27_148 = tt.broadcast %xmask_8 : tensor<1x1xi1> -> tensor<1x2048xi1> loc(#loc206)
      %tmp27_149 = arith.andi %tmp27_147, %tmp27_148 : tensor<1x2048xi1> loc(#loc206)
      %tmp27_150 = arith.constant 0.000000e+00 : f32 loc(#loc207)
      %tmp27_151 = arith.constant dense<0.000000e+00> : tensor<1x2048xf32> loc(#loc207)
      %tmp27_152 = arith.truncf %tmp27_151 : tensor<1x2048xf32> to tensor<1x2048xbf16> loc(#loc207)
      %tmp27_153 = tt.load %tmp27_146, %tmp27_149, %tmp27_152 evictionPolicy = evict_last : tensor<1x2048x!tt.ptr<bf16>> loc(#loc207)
      %tmp27_154 = arith.extf %tmp27_153 : tensor<1x2048xbf16> to tensor<1x2048xf32> loc(#loc208)
      %tmp29 = arith.addf %tmp27_154, %tmp11_91 : tensor<1x2048xf32> loc(#loc209)
      %tmp30 = arith.mulf %tmp29, %tmp14_100 : tensor<1x2048xf32> loc(#loc210)
      %tmp31 = arith.addf %tmp25_129, %tmp30 : tensor<1x2048xf32> loc(#loc211)
      %tmp34 = arith.mulf %tmp31, %tmp31 : tensor<1x2048xf32> loc(#loc212)
      %tmp35 = arith.constant 0.000000e+00 : f32 loc(#loc213)
      %tmp35_155 = arith.constant dense<0.000000e+00> : tensor<1x2048xf32> loc(#loc213)
      %tmp36 = arith.select %tmp2_31, %tmp34, %tmp35_155 : tensor<1x2048xi1>, tensor<1x2048xf32> loc(#loc214)
      %tmp39 = arith.addf %_tmp38_22, %tmp36 : tensor<1x2048xf32> loc(#loc215)
      %_tmp38_156 = tt.broadcast %xmask_8 : tensor<1x1xi1> -> tensor<1x2048xi1> loc(#loc216)
      %_tmp38_157 = arith.andi %r0_mask_24, %_tmp38_156 : tensor<1x2048xi1> loc(#loc216)
      %_tmp38_158 = arith.select %_tmp38_157, %tmp39, %_tmp38_22 : tensor<1x2048xi1>, tensor<1x2048xf32> loc(#loc217)
      scf.yield %_tmp23_104, %_tmp38_158 : tensor<1x2048xf32>, tensor<1x2048xf32> loc(#loc95)
    } loc(#loc225)
    %tmp23 = tt.call @"triton.language.standard.sum__fp32S1_2048S__(1,)cconstexpr_1__(2,)cconstexpr_False__(3,)cNone"(%_tmp38_18#0) : (tensor<1x2048xf32>) -> tensor<1xf32> loc(#loc218)
    %tmp23_19 = tt.expand_dims %tmp23 {axis = 1 : i32} : tensor<1xf32> -> tensor<1x1xf32> loc(#loc219)
    %tmp38 = tt.call @"triton.language.standard.sum__fp32S1_2048S__(1,)cconstexpr_1__(2,)cconstexpr_False__(3,)cNone"(%_tmp38_18#1) : (tensor<1x2048xf32>) -> tensor<1xf32> loc(#loc220)
    %tmp38_20 = tt.expand_dims %tmp38 {axis = 1 : i32} : tensor<1xf32> -> tensor<1x1xf32> loc(#loc221)
    %4 = tt.splat %out_ptr0 : !tt.ptr<f32> -> tensor<1x1x!tt.ptr<f32>> loc(#loc100)
    %5 = tt.addptr %4, %xindex_7 : tensor<1x1x!tt.ptr<f32>>, tensor<1x1xi32> loc(#loc100)
    tt.store %5, %tmp23_19, %xmask_8 : tensor<1x1x!tt.ptr<f32>> loc(#loc101)
    %6 = tt.splat %out_ptr1 : !tt.ptr<f32> -> tensor<1x1x!tt.ptr<f32>> loc(#loc102)
    %7 = tt.addptr %6, %xindex_7 : tensor<1x1x!tt.ptr<f32>>, tensor<1x1xi32> loc(#loc102)
    tt.store %7, %tmp38_20, %xmask_8 : tensor<1x1x!tt.ptr<f32>> loc(#loc103)
    tt.return loc(#loc104)
  } loc(#loc)
  tt.func private @"triton.language.standard.sum__fp32S1_2048S__(1,)cconstexpr_1__(2,)cconstexpr_False__(3,)cNone"(%input: tensor<1x2048xf32> loc("input"(#loc105))) -> tensor<1xf32> attributes {noinline = false} {
    %0 = "tt.reduce"(%input) <{axis = 1 : i32}> ({
    ^bb0(%arg1: f32 loc(unknown), %arg2: f32 loc(unknown)):
      %2 = tt.call @triton.language.standard._sum_combine__fp32_fp32__(%arg1, %arg2) : (f32, f32) -> f32 loc(#loc106)
      tt.reduce.return %2 : f32 loc(#loc106)
    }) : (tensor<1x2048xf32>) -> tensor<1xf32> loc(#loc106)
    tt.return %0 : tensor<1xf32> loc(#loc108)
  ^bb1:  // no predecessors
    %1 = ub.poison : tensor<1xf32> loc(#loc109)
    tt.return %1 : tensor<1xf32> loc(#loc109)
  } loc(#loc105)
  tt.func private @triton.language.standard._sum_combine__fp32_fp32__(%a: f32 loc("a"(#loc110)), %b: f32 loc("b"(#loc110))) -> f32 attributes {noinline = false} {
    %0 = arith.addf %a, %b : f32 loc(#loc111)
    tt.return %0 : f32 loc(#loc112)
  ^bb1:  // no predecessors
    %1 = ub.poison : f32 loc(#loc113)
    tt.return %1 : f32 loc(#loc113)
  } loc(#loc110)
} loc(#loc)
#loc1 = loc("/NHNHOME/WORKSPACE/26msit001_A/jinhyeok/TTT_camera_embedding/lact_llm/.cache_inductor/j6/cj6vapuxdfmdznr4r7ruxwio74lcrc6zabix6bsdmkrib63prrjb.py":19:13)
#loc2 = loc("/NHNHOME/WORKSPACE/26msit001_A/jinhyeok/TTT_camera_embedding/lact_llm/.cache_inductor/j6/cj6vapuxdfmdznr4r7ruxwio74lcrc6zabix6bsdmkrib63prrjb.py":20:15)
#loc3 = loc("/NHNHOME/WORKSPACE/26msit001_A/jinhyeok/TTT_camera_embedding/lact_llm/.cache_inductor/j6/cj6vapuxdfmdznr4r7ruxwio74lcrc6zabix6bsdmkrib63prrjb.py":23:28)
#loc4 = loc("/NHNHOME/WORKSPACE/26msit001_A/jinhyeok/TTT_camera_embedding/lact_llm/.cache_inductor/j6/cj6vapuxdfmdznr4r7ruxwio74lcrc6zabix6bsdmkrib63prrjb.py":23:33)
#loc5 = loc("/NHNHOME/WORKSPACE/26msit001_A/jinhyeok/TTT_camera_embedding/lact_llm/.cache_inductor/j6/cj6vapuxdfmdznr4r7ruxwio74lcrc6zabix6bsdmkrib63prrjb.py":24:36)
#loc6 = loc("/NHNHOME/WORKSPACE/26msit001_A/jinhyeok/TTT_camera_embedding/lact_llm/.cache_inductor/j6/cj6vapuxdfmdznr4r7ruxwio74lcrc6zabix6bsdmkrib63prrjb.py":24:44)
#loc7 = loc("/NHNHOME/WORKSPACE/26msit001_A/jinhyeok/TTT_camera_embedding/lact_llm/.cache_inductor/j6/cj6vapuxdfmdznr4r7ruxwio74lcrc6zabix6bsdmkrib63prrjb.py":24:23)
#loc8 = loc("/NHNHOME/WORKSPACE/26msit001_A/jinhyeok/TTT_camera_embedding/lact_llm/.cache_inductor/j6/cj6vapuxdfmdznr4r7ruxwio74lcrc6zabix6bsdmkrib63prrjb.py":25:21)
#loc9 = loc("/NHNHOME/WORKSPACE/26msit001_A/jinhyeok/TTT_camera_embedding/lact_llm/.cache_inductor/j6/cj6vapuxdfmdznr4r7ruxwio74lcrc6zabix6bsdmkrib63prrjb.py":26:27)
#loc10 = loc("/NHNHOME/WORKSPACE/26msit001_A/jinhyeok/TTT_camera_embedding/lact_llm/.cache_inductor/j6/cj6vapuxdfmdznr4r7ruxwio74lcrc6zabix6bsdmkrib63prrjb.py":26:37)
#loc11 = loc("/NHNHOME/WORKSPACE/26msit001_A/jinhyeok/TTT_camera_embedding/lact_llm/.cache_inductor/j6/cj6vapuxdfmdznr4r7ruxwio74lcrc6zabix6bsdmkrib63prrjb.py":28:19)
#loc12 = loc("/NHNHOME/WORKSPACE/26msit001_A/jinhyeok/TTT_camera_embedding/lact_llm/.cache_inductor/j6/cj6vapuxdfmdznr4r7ruxwio74lcrc6zabix6bsdmkrib63prrjb.py":29:19)
#loc13 = loc("/NHNHOME/WORKSPACE/26msit001_A/jinhyeok/TTT_camera_embedding/lact_llm/.cache_inductor/j6/cj6vapuxdfmdznr4r7ruxwio74lcrc6zabix6bsdmkrib63prrjb.py":30:44)
#loc14 = loc("/NHNHOME/WORKSPACE/26msit001_A/jinhyeok/TTT_camera_embedding/lact_llm/.cache_inductor/j6/cj6vapuxdfmdznr4r7ruxwio74lcrc6zabix6bsdmkrib63prrjb.py":32:44)
#loc15 = loc("/NHNHOME/WORKSPACE/26msit001_A/jinhyeok/TTT_camera_embedding/lact_llm/.cache_inductor/j6/cj6vapuxdfmdznr4r7ruxwio74lcrc6zabix6bsdmkrib63prrjb.py":33:40)
#loc16 = loc("/NHNHOME/WORKSPACE/26msit001_A/jinhyeok/TTT_camera_embedding/lact_llm/.cache_inductor/j6/cj6vapuxdfmdznr4r7ruxwio74lcrc6zabix6bsdmkrib63prrjb.py":34:31)
#loc17 = loc("/NHNHOME/WORKSPACE/26msit001_A/jinhyeok/TTT_camera_embedding/lact_llm/.cache_inductor/j6/cj6vapuxdfmdznr4r7ruxwio74lcrc6zabix6bsdmkrib63prrjb.py":35:29)
#loc18 = loc("/NHNHOME/WORKSPACE/26msit001_A/jinhyeok/TTT_camera_embedding/lact_llm/.cache_inductor/j6/cj6vapuxdfmdznr4r7ruxwio74lcrc6zabix6bsdmkrib63prrjb.py":39:27)
#loc19 = loc("/NHNHOME/WORKSPACE/26msit001_A/jinhyeok/TTT_camera_embedding/lact_llm/.cache_inductor/j6/cj6vapuxdfmdznr4r7ruxwio74lcrc6zabix6bsdmkrib63prrjb.py":39:22)
#loc20 = loc("/NHNHOME/WORKSPACE/26msit001_A/jinhyeok/TTT_camera_embedding/lact_llm/.cache_inductor/j6/cj6vapuxdfmdznr4r7ruxwio74lcrc6zabix6bsdmkrib63prrjb.py":40:38)
#loc21 = loc("/NHNHOME/WORKSPACE/26msit001_A/jinhyeok/TTT_camera_embedding/lact_llm/.cache_inductor/j6/cj6vapuxdfmdznr4r7ruxwio74lcrc6zabix6bsdmkrib63prrjb.py":41:22)
#loc22 = loc("/NHNHOME/WORKSPACE/26msit001_A/jinhyeok/TTT_camera_embedding/lact_llm/.cache_inductor/j6/cj6vapuxdfmdznr4r7ruxwio74lcrc6zabix6bsdmkrib63prrjb.py":42:40)
#loc23 = loc("/NHNHOME/WORKSPACE/26msit001_A/jinhyeok/TTT_camera_embedding/lact_llm/.cache_inductor/j6/cj6vapuxdfmdznr4r7ruxwio74lcrc6zabix6bsdmkrib63prrjb.py":42:60)
#loc24 = loc("/NHNHOME/WORKSPACE/26msit001_A/jinhyeok/TTT_camera_embedding/lact_llm/.cache_inductor/j6/cj6vapuxdfmdznr4r7ruxwio74lcrc6zabix6bsdmkrib63prrjb.py":42:55)
#loc25 = loc("/NHNHOME/WORKSPACE/26msit001_A/jinhyeok/TTT_camera_embedding/lact_llm/.cache_inductor/j6/cj6vapuxdfmdznr4r7ruxwio74lcrc6zabix6bsdmkrib63prrjb.py":42:66)
#loc26 = loc("/NHNHOME/WORKSPACE/26msit001_A/jinhyeok/TTT_camera_embedding/lact_llm/.cache_inductor/j6/cj6vapuxdfmdznr4r7ruxwio74lcrc6zabix6bsdmkrib63prrjb.py":42:47)
#loc27 = loc("/NHNHOME/WORKSPACE/26msit001_A/jinhyeok/TTT_camera_embedding/lact_llm/.cache_inductor/j6/cj6vapuxdfmdznr4r7ruxwio74lcrc6zabix6bsdmkrib63prrjb.py":42:34)
#loc28 = loc("/NHNHOME/WORKSPACE/26msit001_A/jinhyeok/TTT_camera_embedding/lact_llm/.cache_inductor/j6/cj6vapuxdfmdznr4r7ruxwio74lcrc6zabix6bsdmkrib63prrjb.py":42:86)
#loc29 = loc("/NHNHOME/WORKSPACE/26msit001_A/jinhyeok/TTT_camera_embedding/lact_llm/.cache_inductor/j6/cj6vapuxdfmdznr4r7ruxwio74lcrc6zabix6bsdmkrib63prrjb.py":42:93)
#loc30 = loc("/NHNHOME/WORKSPACE/26msit001_A/jinhyeok/TTT_camera_embedding/lact_llm/.cache_inductor/j6/cj6vapuxdfmdznr4r7ruxwio74lcrc6zabix6bsdmkrib63prrjb.py":42:76)
#loc31 = loc("/NHNHOME/WORKSPACE/26msit001_A/jinhyeok/TTT_camera_embedding/lact_llm/.cache_inductor/j6/cj6vapuxdfmdznr4r7ruxwio74lcrc6zabix6bsdmkrib63prrjb.py":42:144)
#loc32 = loc("/NHNHOME/WORKSPACE/26msit001_A/jinhyeok/TTT_camera_embedding/lact_llm/.cache_inductor/j6/cj6vapuxdfmdznr4r7ruxwio74lcrc6zabix6bsdmkrib63prrjb.py":44:40)
#loc33 = loc("/NHNHOME/WORKSPACE/26msit001_A/jinhyeok/TTT_camera_embedding/lact_llm/.cache_inductor/j6/cj6vapuxdfmdznr4r7ruxwio74lcrc6zabix6bsdmkrib63prrjb.py":44:60)
#loc34 = loc("/NHNHOME/WORKSPACE/26msit001_A/jinhyeok/TTT_camera_embedding/lact_llm/.cache_inductor/j6/cj6vapuxdfmdznr4r7ruxwio74lcrc6zabix6bsdmkrib63prrjb.py":44:55)
#loc35 = loc("/NHNHOME/WORKSPACE/26msit001_A/jinhyeok/TTT_camera_embedding/lact_llm/.cache_inductor/j6/cj6vapuxdfmdznr4r7ruxwio74lcrc6zabix6bsdmkrib63prrjb.py":44:66)
#loc36 = loc("/NHNHOME/WORKSPACE/26msit001_A/jinhyeok/TTT_camera_embedding/lact_llm/.cache_inductor/j6/cj6vapuxdfmdznr4r7ruxwio74lcrc6zabix6bsdmkrib63prrjb.py":44:47)
#loc37 = loc("/NHNHOME/WORKSPACE/26msit001_A/jinhyeok/TTT_camera_embedding/lact_llm/.cache_inductor/j6/cj6vapuxdfmdznr4r7ruxwio74lcrc6zabix6bsdmkrib63prrjb.py":44:34)
#loc38 = loc("/NHNHOME/WORKSPACE/26msit001_A/jinhyeok/TTT_camera_embedding/lact_llm/.cache_inductor/j6/cj6vapuxdfmdznr4r7ruxwio74lcrc6zabix6bsdmkrib63prrjb.py":44:86)
#loc39 = loc("/NHNHOME/WORKSPACE/26msit001_A/jinhyeok/TTT_camera_embedding/lact_llm/.cache_inductor/j6/cj6vapuxdfmdznr4r7ruxwio74lcrc6zabix6bsdmkrib63prrjb.py":44:93)
#loc40 = loc("/NHNHOME/WORKSPACE/26msit001_A/jinhyeok/TTT_camera_embedding/lact_llm/.cache_inductor/j6/cj6vapuxdfmdznr4r7ruxwio74lcrc6zabix6bsdmkrib63prrjb.py":44:76)
#loc41 = loc("/NHNHOME/WORKSPACE/26msit001_A/jinhyeok/TTT_camera_embedding/lact_llm/.cache_inductor/j6/cj6vapuxdfmdznr4r7ruxwio74lcrc6zabix6bsdmkrib63prrjb.py":44:144)
#loc42 = loc("/NHNHOME/WORKSPACE/26msit001_A/jinhyeok/TTT_camera_embedding/lact_llm/.cache_inductor/j6/cj6vapuxdfmdznr4r7ruxwio74lcrc6zabix6bsdmkrib63prrjb.py":46:54)
#loc43 = loc("/NHNHOME/WORKSPACE/26msit001_A/jinhyeok/TTT_camera_embedding/lact_llm/.cache_inductor/j6/cj6vapuxdfmdznr4r7ruxwio74lcrc6zabix6bsdmkrib63prrjb.py":46:34)
#loc44 = loc("/NHNHOME/WORKSPACE/26msit001_A/jinhyeok/TTT_camera_embedding/lact_llm/.cache_inductor/j6/cj6vapuxdfmdznr4r7ruxwio74lcrc6zabix6bsdmkrib63prrjb.py":46:86)
#loc45 = loc("/NHNHOME/WORKSPACE/26msit001_A/jinhyeok/TTT_camera_embedding/lact_llm/.cache_inductor/j6/cj6vapuxdfmdznr4r7ruxwio74lcrc6zabix6bsdmkrib63prrjb.py":46:93)
#loc46 = loc("/NHNHOME/WORKSPACE/26msit001_A/jinhyeok/TTT_camera_embedding/lact_llm/.cache_inductor/j6/cj6vapuxdfmdznr4r7ruxwio74lcrc6zabix6bsdmkrib63prrjb.py":46:76)
#loc47 = loc("/NHNHOME/WORKSPACE/26msit001_A/jinhyeok/TTT_camera_embedding/lact_llm/.cache_inductor/j6/cj6vapuxdfmdznr4r7ruxwio74lcrc6zabix6bsdmkrib63prrjb.py":47:15)
#loc48 = loc("/NHNHOME/WORKSPACE/26msit001_A/jinhyeok/TTT_camera_embedding/lact_llm/.cache_inductor/j6/cj6vapuxdfmdznr4r7ruxwio74lcrc6zabix6bsdmkrib63prrjb.py":48:23)
#loc49 = loc("/NHNHOME/WORKSPACE/26msit001_A/jinhyeok/TTT_camera_embedding/lact_llm/.cache_inductor/j6/cj6vapuxdfmdznr4r7ruxwio74lcrc6zabix6bsdmkrib63prrjb.py":49:16)
#loc50 = loc("/NHNHOME/WORKSPACE/26msit001_A/jinhyeok/TTT_camera_embedding/lact_llm/.cache_inductor/j6/cj6vapuxdfmdznr4r7ruxwio74lcrc6zabix6bsdmkrib63prrjb.py":50:24)
#loc51 = loc("/NHNHOME/WORKSPACE/26msit001_A/jinhyeok/TTT_camera_embedding/lact_llm/.cache_inductor/j6/cj6vapuxdfmdznr4r7ruxwio74lcrc6zabix6bsdmkrib63prrjb.py":51:23)
#loc52 = loc("/NHNHOME/WORKSPACE/26msit001_A/jinhyeok/TTT_camera_embedding/lact_llm/.cache_inductor/j6/cj6vapuxdfmdznr4r7ruxwio74lcrc6zabix6bsdmkrib63prrjb.py":52:55)
#loc53 = loc("/NHNHOME/WORKSPACE/26msit001_A/jinhyeok/TTT_camera_embedding/lact_llm/.cache_inductor/j6/cj6vapuxdfmdznr4r7ruxwio74lcrc6zabix6bsdmkrib63prrjb.py":52:35)
#loc54 = loc("/NHNHOME/WORKSPACE/26msit001_A/jinhyeok/TTT_camera_embedding/lact_llm/.cache_inductor/j6/cj6vapuxdfmdznr4r7ruxwio74lcrc6zabix6bsdmkrib63prrjb.py":52:87)
#loc55 = loc("/NHNHOME/WORKSPACE/26msit001_A/jinhyeok/TTT_camera_embedding/lact_llm/.cache_inductor/j6/cj6vapuxdfmdznr4r7ruxwio74lcrc6zabix6bsdmkrib63prrjb.py":52:94)
#loc56 = loc("/NHNHOME/WORKSPACE/26msit001_A/jinhyeok/TTT_camera_embedding/lact_llm/.cache_inductor/j6/cj6vapuxdfmdznr4r7ruxwio74lcrc6zabix6bsdmkrib63prrjb.py":52:77)
#loc57 = loc("/NHNHOME/WORKSPACE/26msit001_A/jinhyeok/TTT_camera_embedding/lact_llm/.cache_inductor/j6/cj6vapuxdfmdznr4r7ruxwio74lcrc6zabix6bsdmkrib63prrjb.py":53:25)
#loc58 = loc("/NHNHOME/WORKSPACE/26msit001_A/jinhyeok/TTT_camera_embedding/lact_llm/.cache_inductor/j6/cj6vapuxdfmdznr4r7ruxwio74lcrc6zabix6bsdmkrib63prrjb.py":54:24)
#loc59 = loc("/NHNHOME/WORKSPACE/26msit001_A/jinhyeok/TTT_camera_embedding/lact_llm/.cache_inductor/j6/cj6vapuxdfmdznr4r7ruxwio74lcrc6zabix6bsdmkrib63prrjb.py":55:23)
#loc60 = loc("/NHNHOME/WORKSPACE/26msit001_A/jinhyeok/TTT_camera_embedding/lact_llm/.cache_inductor/j6/cj6vapuxdfmdznr4r7ruxwio74lcrc6zabix6bsdmkrib63prrjb.py":58:24)
#loc61 = loc("/NHNHOME/WORKSPACE/26msit001_A/jinhyeok/TTT_camera_embedding/lact_llm/.cache_inductor/j6/cj6vapuxdfmdznr4r7ruxwio74lcrc6zabix6bsdmkrib63prrjb.py":59:40)
#loc62 = loc("/NHNHOME/WORKSPACE/26msit001_A/jinhyeok/TTT_camera_embedding/lact_llm/.cache_inductor/j6/cj6vapuxdfmdznr4r7ruxwio74lcrc6zabix6bsdmkrib63prrjb.py":60:38)
#loc63 = loc("/NHNHOME/WORKSPACE/26msit001_A/jinhyeok/TTT_camera_embedding/lact_llm/.cache_inductor/j6/cj6vapuxdfmdznr4r7ruxwio74lcrc6zabix6bsdmkrib63prrjb.py":62:25)
#loc64 = loc("/NHNHOME/WORKSPACE/26msit001_A/jinhyeok/TTT_camera_embedding/lact_llm/.cache_inductor/j6/cj6vapuxdfmdznr4r7ruxwio74lcrc6zabix6bsdmkrib63prrjb.py":63:36)
#loc65 = loc("/NHNHOME/WORKSPACE/26msit001_A/jinhyeok/TTT_camera_embedding/lact_llm/.cache_inductor/j6/cj6vapuxdfmdznr4r7ruxwio74lcrc6zabix6bsdmkrib63prrjb.py":63:50)
#loc66 = loc("/NHNHOME/WORKSPACE/26msit001_A/jinhyeok/TTT_camera_embedding/lact_llm/.cache_inductor/j6/cj6vapuxdfmdznr4r7ruxwio74lcrc6zabix6bsdmkrib63prrjb.py":64:41)
#loc67 = loc("/NHNHOME/WORKSPACE/26msit001_A/jinhyeok/TTT_camera_embedding/lact_llm/.cache_inductor/j6/cj6vapuxdfmdznr4r7ruxwio74lcrc6zabix6bsdmkrib63prrjb.py":64:61)
#loc68 = loc("/NHNHOME/WORKSPACE/26msit001_A/jinhyeok/TTT_camera_embedding/lact_llm/.cache_inductor/j6/cj6vapuxdfmdznr4r7ruxwio74lcrc6zabix6bsdmkrib63prrjb.py":64:56)
#loc69 = loc("/NHNHOME/WORKSPACE/26msit001_A/jinhyeok/TTT_camera_embedding/lact_llm/.cache_inductor/j6/cj6vapuxdfmdznr4r7ruxwio74lcrc6zabix6bsdmkrib63prrjb.py":64:67)
#loc70 = loc("/NHNHOME/WORKSPACE/26msit001_A/jinhyeok/TTT_camera_embedding/lact_llm/.cache_inductor/j6/cj6vapuxdfmdznr4r7ruxwio74lcrc6zabix6bsdmkrib63prrjb.py":64:48)
#loc71 = loc("/NHNHOME/WORKSPACE/26msit001_A/jinhyeok/TTT_camera_embedding/lact_llm/.cache_inductor/j6/cj6vapuxdfmdznr4r7ruxwio74lcrc6zabix6bsdmkrib63prrjb.py":64:35)
#loc72 = loc("/NHNHOME/WORKSPACE/26msit001_A/jinhyeok/TTT_camera_embedding/lact_llm/.cache_inductor/j6/cj6vapuxdfmdznr4r7ruxwio74lcrc6zabix6bsdmkrib63prrjb.py":64:87)
#loc73 = loc("/NHNHOME/WORKSPACE/26msit001_A/jinhyeok/TTT_camera_embedding/lact_llm/.cache_inductor/j6/cj6vapuxdfmdznr4r7ruxwio74lcrc6zabix6bsdmkrib63prrjb.py":64:94)
#loc74 = loc("/NHNHOME/WORKSPACE/26msit001_A/jinhyeok/TTT_camera_embedding/lact_llm/.cache_inductor/j6/cj6vapuxdfmdznr4r7ruxwio74lcrc6zabix6bsdmkrib63prrjb.py":64:77)
#loc75 = loc("/NHNHOME/WORKSPACE/26msit001_A/jinhyeok/TTT_camera_embedding/lact_llm/.cache_inductor/j6/cj6vapuxdfmdznr4r7ruxwio74lcrc6zabix6bsdmkrib63prrjb.py":64:145)
#loc76 = loc("/NHNHOME/WORKSPACE/26msit001_A/jinhyeok/TTT_camera_embedding/lact_llm/.cache_inductor/j6/cj6vapuxdfmdznr4r7ruxwio74lcrc6zabix6bsdmkrib63prrjb.py":66:41)
#loc77 = loc("/NHNHOME/WORKSPACE/26msit001_A/jinhyeok/TTT_camera_embedding/lact_llm/.cache_inductor/j6/cj6vapuxdfmdznr4r7ruxwio74lcrc6zabix6bsdmkrib63prrjb.py":66:61)
#loc78 = loc("/NHNHOME/WORKSPACE/26msit001_A/jinhyeok/TTT_camera_embedding/lact_llm/.cache_inductor/j6/cj6vapuxdfmdznr4r7ruxwio74lcrc6zabix6bsdmkrib63prrjb.py":66:56)
#loc79 = loc("/NHNHOME/WORKSPACE/26msit001_A/jinhyeok/TTT_camera_embedding/lact_llm/.cache_inductor/j6/cj6vapuxdfmdznr4r7ruxwio74lcrc6zabix6bsdmkrib63prrjb.py":66:67)
#loc80 = loc("/NHNHOME/WORKSPACE/26msit001_A/jinhyeok/TTT_camera_embedding/lact_llm/.cache_inductor/j6/cj6vapuxdfmdznr4r7ruxwio74lcrc6zabix6bsdmkrib63prrjb.py":66:48)
#loc81 = loc("/NHNHOME/WORKSPACE/26msit001_A/jinhyeok/TTT_camera_embedding/lact_llm/.cache_inductor/j6/cj6vapuxdfmdznr4r7ruxwio74lcrc6zabix6bsdmkrib63prrjb.py":66:35)
#loc82 = loc("/NHNHOME/WORKSPACE/26msit001_A/jinhyeok/TTT_camera_embedding/lact_llm/.cache_inductor/j6/cj6vapuxdfmdznr4r7ruxwio74lcrc6zabix6bsdmkrib63prrjb.py":66:87)
#loc83 = loc("/NHNHOME/WORKSPACE/26msit001_A/jinhyeok/TTT_camera_embedding/lact_llm/.cache_inductor/j6/cj6vapuxdfmdznr4r7ruxwio74lcrc6zabix6bsdmkrib63prrjb.py":66:94)
#loc84 = loc("/NHNHOME/WORKSPACE/26msit001_A/jinhyeok/TTT_camera_embedding/lact_llm/.cache_inductor/j6/cj6vapuxdfmdznr4r7ruxwio74lcrc6zabix6bsdmkrib63prrjb.py":66:77)
#loc85 = loc("/NHNHOME/WORKSPACE/26msit001_A/jinhyeok/TTT_camera_embedding/lact_llm/.cache_inductor/j6/cj6vapuxdfmdznr4r7ruxwio74lcrc6zabix6bsdmkrib63prrjb.py":66:145)
#loc86 = loc("/NHNHOME/WORKSPACE/26msit001_A/jinhyeok/TTT_camera_embedding/lact_llm/.cache_inductor/j6/cj6vapuxdfmdznr4r7ruxwio74lcrc6zabix6bsdmkrib63prrjb.py":68:24)
#loc87 = loc("/NHNHOME/WORKSPACE/26msit001_A/jinhyeok/TTT_camera_embedding/lact_llm/.cache_inductor/j6/cj6vapuxdfmdznr4r7ruxwio74lcrc6zabix6bsdmkrib63prrjb.py":69:24)
#loc88 = loc("/NHNHOME/WORKSPACE/26msit001_A/jinhyeok/TTT_camera_embedding/lact_llm/.cache_inductor/j6/cj6vapuxdfmdznr4r7ruxwio74lcrc6zabix6bsdmkrib63prrjb.py":70:24)
#loc89 = loc("/NHNHOME/WORKSPACE/26msit001_A/jinhyeok/TTT_camera_embedding/lact_llm/.cache_inductor/j6/cj6vapuxdfmdznr4r7ruxwio74lcrc6zabix6bsdmkrib63prrjb.py":73:24)
#loc90 = loc("/NHNHOME/WORKSPACE/26msit001_A/jinhyeok/TTT_camera_embedding/lact_llm/.cache_inductor/j6/cj6vapuxdfmdznr4r7ruxwio74lcrc6zabix6bsdmkrib63prrjb.py":74:40)
#loc91 = loc("/NHNHOME/WORKSPACE/26msit001_A/jinhyeok/TTT_camera_embedding/lact_llm/.cache_inductor/j6/cj6vapuxdfmdznr4r7ruxwio74lcrc6zabix6bsdmkrib63prrjb.py":75:38)
#loc92 = loc("/NHNHOME/WORKSPACE/26msit001_A/jinhyeok/TTT_camera_embedding/lact_llm/.cache_inductor/j6/cj6vapuxdfmdznr4r7ruxwio74lcrc6zabix6bsdmkrib63prrjb.py":77:25)
#loc93 = loc("/NHNHOME/WORKSPACE/26msit001_A/jinhyeok/TTT_camera_embedding/lact_llm/.cache_inductor/j6/cj6vapuxdfmdznr4r7ruxwio74lcrc6zabix6bsdmkrib63prrjb.py":78:36)
#loc94 = loc("/NHNHOME/WORKSPACE/26msit001_A/jinhyeok/TTT_camera_embedding/lact_llm/.cache_inductor/j6/cj6vapuxdfmdznr4r7ruxwio74lcrc6zabix6bsdmkrib63prrjb.py":78:50)
#loc95 = loc("/NHNHOME/WORKSPACE/26msit001_A/jinhyeok/TTT_camera_embedding/lact_llm/.cache_inductor/j6/cj6vapuxdfmdznr4r7ruxwio74lcrc6zabix6bsdmkrib63prrjb.py":78:8)
#loc96 = loc("/NHNHOME/WORKSPACE/26msit001_A/jinhyeok/TTT_camera_embedding/lact_llm/.cache_inductor/j6/cj6vapuxdfmdznr4r7ruxwio74lcrc6zabix6bsdmkrib63prrjb.py":79:27)
#loc97 = loc("/NHNHOME/WORKSPACE/26msit001_A/jinhyeok/TTT_camera_embedding/lact_llm/.cache_inductor/j6/cj6vapuxdfmdznr4r7ruxwio74lcrc6zabix6bsdmkrib63prrjb.py":79:30)
#loc98 = loc("/NHNHOME/WORKSPACE/26msit001_A/jinhyeok/TTT_camera_embedding/lact_llm/.cache_inductor/j6/cj6vapuxdfmdznr4r7ruxwio74lcrc6zabix6bsdmkrib63prrjb.py":80:27)
#loc99 = loc("/NHNHOME/WORKSPACE/26msit001_A/jinhyeok/TTT_camera_embedding/lact_llm/.cache_inductor/j6/cj6vapuxdfmdznr4r7ruxwio74lcrc6zabix6bsdmkrib63prrjb.py":80:30)
#loc100 = loc("/NHNHOME/WORKSPACE/26msit001_A/jinhyeok/TTT_camera_embedding/lact_llm/.cache_inductor/j6/cj6vapuxdfmdznr4r7ruxwio74lcrc6zabix6bsdmkrib63prrjb.py":81:25)
#loc101 = loc("/NHNHOME/WORKSPACE/26msit001_A/jinhyeok/TTT_camera_embedding/lact_llm/.cache_inductor/j6/cj6vapuxdfmdznr4r7ruxwio74lcrc6zabix6bsdmkrib63prrjb.py":81:37)
#loc102 = loc("/NHNHOME/WORKSPACE/26msit001_A/jinhyeok/TTT_camera_embedding/lact_llm/.cache_inductor/j6/cj6vapuxdfmdznr4r7ruxwio74lcrc6zabix6bsdmkrib63prrjb.py":82:25)
#loc103 = loc("/NHNHOME/WORKSPACE/26msit001_A/jinhyeok/TTT_camera_embedding/lact_llm/.cache_inductor/j6/cj6vapuxdfmdznr4r7ruxwio74lcrc6zabix6bsdmkrib63prrjb.py":82:37)
#loc104 = loc("/NHNHOME/WORKSPACE/26msit001_A/jinhyeok/TTT_camera_embedding/lact_llm/.cache_inductor/j6/cj6vapuxdfmdznr4r7ruxwio74lcrc6zabix6bsdmkrib63prrjb.py":82:4)
#loc106 = loc("/NHNHOME/WORKSPACE/26msit001_A/jinhyeok/TTT_camera_embedding/.venv_llm/lib/python3.12/site-packages/triton/language/standard.py":291:36)
#loc108 = loc("/NHNHOME/WORKSPACE/26msit001_A/jinhyeok/TTT_camera_embedding/.venv_llm/lib/python3.12/site-packages/triton/language/standard.py":291:11)
#loc109 = loc("/NHNHOME/WORKSPACE/26msit001_A/jinhyeok/TTT_camera_embedding/.venv_llm/lib/python3.12/site-packages/triton/language/standard.py":291:4)
#loc111 = loc("/NHNHOME/WORKSPACE/26msit001_A/jinhyeok/TTT_camera_embedding/.venv_llm/lib/python3.12/site-packages/triton/language/standard.py":261:15)
#loc112 = loc("/NHNHOME/WORKSPACE/26msit001_A/jinhyeok/TTT_camera_embedding/.venv_llm/lib/python3.12/site-packages/triton/language/standard.py":261:11)
#loc113 = loc("/NHNHOME/WORKSPACE/26msit001_A/jinhyeok/TTT_camera_embedding/.venv_llm/lib/python3.12/site-packages/triton/language/standard.py":261:4)
#loc124 = loc("xnumel"(#loc1))
#loc125 = loc("r0_numel"(#loc2))
#loc126 = loc("xoffset"(#loc3))
#loc127 = loc("xoffset"(#loc4))
#loc128 = loc("xindex"(#loc5))
#loc129 = loc("xindex"(#loc6))
#loc130 = loc("xindex"(#loc7))
#loc131 = loc("xmask"(#loc8))
#loc132 = loc("r0_base"(#loc9))
#loc133 = loc("r0_base"(#loc10))
#loc134 = loc("x0"(#loc11))
#loc135 = loc("x1"(#loc12))
#loc136 = loc("_tmp23"(#loc13))
#loc137 = loc("_tmp38"(#loc14))
#loc138 = loc("_tmp23"(#loc15))
#loc139 = loc("r0_index"(#loc16))
#loc140 = loc("r0_mask"(#loc17))
#loc141 = loc("tmp0"(#loc18))
#loc142 = loc("tmp0"(#loc19))
#loc143 = loc("tmp1"(#loc20))
#loc144 = loc("tmp2"(#loc21))
#loc145 = loc("tmp3"(#loc22))
#loc146 = loc("tmp3"(#loc23))
#loc147 = loc("tmp3"(#loc24))
#loc148 = loc("tmp3"(#loc25))
#loc149 = loc("tmp3"(#loc26))
#loc150 = loc("tmp3"(#loc27))
#loc151 = loc("tmp3"(#loc28))
#loc152 = loc("tmp3"(#loc29))
#loc153 = loc("tmp3"(#loc30))
#loc154 = loc("tmp3"(#loc31))
#loc155 = loc("tmp5"(#loc32))
#loc156 = loc("tmp5"(#loc33))
#loc157 = loc("tmp5"(#loc34))
#loc158 = loc("tmp5"(#loc35))
#loc159 = loc("tmp5"(#loc36))
#loc160 = loc("tmp5"(#loc37))
#loc161 = loc("tmp5"(#loc38))
#loc162 = loc("tmp5"(#loc39))
#loc163 = loc("tmp5"(#loc40))
#loc164 = loc("tmp5"(#loc41))
#loc165 = loc("tmp7"(#loc42))
#loc166 = loc("tmp7"(#loc43))
#loc167 = loc("tmp7"(#loc44))
#loc168 = loc("tmp7"(#loc45))
#loc169 = loc("tmp7"(#loc46))
#loc170 = loc("tmp8"(#loc47))
#loc171 = loc("tmp9"(#loc48))
#loc172 = loc("tmp10"(#loc49))
#loc173 = loc("tmp11"(#loc50))
#loc174 = loc("tmp12"(#loc51))
#loc175 = loc("tmp13"(#loc52))
#loc176 = loc("tmp13"(#loc53))
#loc177 = loc("tmp13"(#loc54))
#loc178 = loc("tmp13"(#loc55))
#loc179 = loc("tmp13"(#loc56))
#loc180 = loc("tmp14"(#loc57))
#loc181 = loc("tmp15"(#loc58))
#loc182 = loc("tmp16"(#loc59))
#loc183 = loc("tmp19"(#loc60))
#loc184 = loc("tmp20"(#loc61))
#loc185 = loc("tmp21"(#loc62))
#loc186 = loc("tmp24"(#loc63))
#loc187 = loc("_tmp23"(#loc64))
#loc188 = loc("_tmp23"(#loc65))
#loc189 = loc("tmp25"(#loc66))
#loc190 = loc("tmp25"(#loc67))
#loc191 = loc("tmp25"(#loc68))
#loc192 = loc("tmp25"(#loc69))
#loc193 = loc("tmp25"(#loc70))
#loc194 = loc("tmp25"(#loc71))
#loc195 = loc("tmp25"(#loc72))
#loc196 = loc("tmp25"(#loc73))
#loc197 = loc("tmp25"(#loc74))
#loc198 = loc("tmp25"(#loc75))
#loc199 = loc("tmp27"(#loc76))
#loc200 = loc("tmp27"(#loc77))
#loc201 = loc("tmp27"(#loc78))
#loc202 = loc("tmp27"(#loc79))
#loc203 = loc("tmp27"(#loc80))
#loc204 = loc("tmp27"(#loc81))
#loc205 = loc("tmp27"(#loc82))
#loc206 = loc("tmp27"(#loc83))
#loc207 = loc("tmp27"(#loc84))
#loc208 = loc("tmp27"(#loc85))
#loc209 = loc("tmp29"(#loc86))
#loc210 = loc("tmp30"(#loc87))
#loc211 = loc("tmp31"(#loc88))
#loc212 = loc("tmp34"(#loc89))
#loc213 = loc("tmp35"(#loc90))
#loc214 = loc("tmp36"(#loc91))
#loc215 = loc("tmp39"(#loc92))
#loc216 = loc("_tmp38"(#loc93))
#loc217 = loc("_tmp38"(#loc94))
#loc218 = loc("tmp23"(#loc96))
#loc219 = loc("tmp23"(#loc97))
#loc220 = loc("tmp38"(#loc98))
#loc221 = loc("tmp38"(#loc99))
#loc225 = loc("_tmp38"(#loc138))
