#loc = loc("/NHNHOME/WORKSPACE/26msit001_A/jinhyeok/loop_TTT/lact/.cache_inductor_llm/ob/cob4gtbhy3vmsv6tm5wdz4jx57fcu6z6ivigaqypygg34t62j5np.py":18:0)
#loc42 = loc("in_out_ptr0"(#loc))
#loc43 = loc("in_ptr0"(#loc))
#loc44 = loc("in_ptr1"(#loc))
#loc45 = loc("in_ptr2"(#loc))
#loc46 = loc("in_ptr3"(#loc))
#loc47 = loc("out_ptr0"(#loc))
#loc48 = loc("out_ptr1"(#loc))
#loc49 = loc("out_ptr2"(#loc))
#loc50 = loc("xnumel"(#loc))
module {
  tt.func public @triton_poi_fused__to_copy_add_mul_transpose_37(%in_out_ptr0: !tt.ptr<f32> {tt.divisibility = 16 : i32} loc("in_out_ptr0"(#loc)), %in_ptr0: !tt.ptr<bf16> {tt.divisibility = 16 : i32} loc("in_ptr0"(#loc)), %in_ptr1: !tt.ptr<bf16> {tt.divisibility = 16 : i32} loc("in_ptr1"(#loc)), %in_ptr2: !tt.ptr<bf16> {tt.divisibility = 16 : i32} loc("in_ptr2"(#loc)), %in_ptr3: !tt.ptr<bf16> {tt.divisibility = 16 : i32} loc("in_ptr3"(#loc)), %out_ptr0: !tt.ptr<bf16> {tt.divisibility = 16 : i32} loc("out_ptr0"(#loc)), %out_ptr1: !tt.ptr<bf16> {tt.divisibility = 16 : i32} loc("out_ptr1"(#loc)), %out_ptr2: !tt.ptr<bf16> {tt.divisibility = 16 : i32} loc("out_ptr2"(#loc)), %xnumel: i32 {tt.divisibility = 16 : i32} loc("xnumel"(#loc))) attributes {noinline = false} {
    %xnumel_0 = arith.constant 1179648 : i32 loc(#loc51)
    %xoffset = tt.get_program_id x : i32 loc(#loc52)
    %xoffset_1 = arith.constant 512 : i32 loc(#loc53)
    %xoffset_2 = arith.constant 512 : i32 loc(#loc53)
    %xoffset_3 = arith.muli %xoffset, %xoffset_2 : i32 loc(#loc53)
    %xindex = tt.make_range {end = 512 : i32, start = 0 : i32} : tensor<512xi32> loc(#loc54)
    %xindex_4 = tt.splat %xoffset_3 : i32 -> tensor<512xi32> loc(#loc55)
    %xindex_5 = arith.addi %xindex_4, %xindex : tensor<512xi32> loc(#loc55)
    %xmask = arith.constant true loc(#loc56)
    %xmask_6 = arith.constant dense<true> : tensor<512xi1> loc(#loc56)
    %tmp0 = tt.splat %in_out_ptr0 : !tt.ptr<f32> -> tensor<512x!tt.ptr<f32>> loc(#loc57)
    %tmp0_7 = tt.addptr %tmp0, %xindex_5 : tensor<512x!tt.ptr<f32>>, tensor<512xi32> loc(#loc57)
    %tmp0_8 = tt.load %tmp0_7 : tensor<512x!tt.ptr<f32>> loc(#loc58)
    %tmp3 = tt.splat %in_ptr0 : !tt.ptr<bf16> -> tensor<512x!tt.ptr<bf16>> loc(#loc59)
    %tmp3_9 = tt.addptr %tmp3, %xindex_5 : tensor<512x!tt.ptr<bf16>>, tensor<512xi32> loc(#loc59)
    %tmp3_10 = tt.load %tmp3_9 : tensor<512x!tt.ptr<bf16>> loc(#loc60)
    %tmp3_11 = arith.extf %tmp3_10 : tensor<512xbf16> to tensor<512xf32> loc(#loc61)
    %tmp8 = tt.splat %in_ptr1 : !tt.ptr<bf16> -> tensor<512x!tt.ptr<bf16>> loc(#loc62)
    %tmp8_12 = tt.addptr %tmp8, %xindex_5 : tensor<512x!tt.ptr<bf16>>, tensor<512xi32> loc(#loc62)
    %tmp8_13 = tt.load %tmp8_12 : tensor<512x!tt.ptr<bf16>> loc(#loc63)
    %tmp8_14 = arith.extf %tmp8_13 : tensor<512xbf16> to tensor<512xf32> loc(#loc64)
    %tmp13 = tt.splat %in_ptr2 : !tt.ptr<bf16> -> tensor<512x!tt.ptr<bf16>> loc(#loc65)
    %tmp13_15 = tt.addptr %tmp13, %xindex_5 : tensor<512x!tt.ptr<bf16>>, tensor<512xi32> loc(#loc65)
    %tmp13_16 = tt.load %tmp13_15 : tensor<512x!tt.ptr<bf16>> loc(#loc66)
    %tmp13_17 = arith.extf %tmp13_16 : tensor<512xbf16> to tensor<512xf32> loc(#loc67)
    %tmp18 = tt.splat %in_ptr3 : !tt.ptr<bf16> -> tensor<512x!tt.ptr<bf16>> loc(#loc68)
    %tmp18_18 = tt.addptr %tmp18, %xindex_5 : tensor<512x!tt.ptr<bf16>>, tensor<512xi32> loc(#loc68)
    %tmp18_19 = tt.load %tmp18_18 : tensor<512x!tt.ptr<bf16>> loc(#loc69)
    %tmp18_20 = arith.extf %tmp18_19 : tensor<512xbf16> to tensor<512xf32> loc(#loc70)
    %tmp1 = arith.constant 4.084800e+00 : f32 loc(#loc71)
    %tmp2 = arith.constant dense<4.084800e+00> : tensor<512xf32> loc(#loc72)
    %tmp2_21 = arith.mulf %tmp0_8, %tmp2 : tensor<512xf32> loc(#loc72)
    %tmp5 = arith.addf %tmp2_21, %tmp3_11 : tensor<512xf32> loc(#loc73)
    %tmp6 = arith.constant 3.950500e+00 : f32 loc(#loc74)
    %tmp7 = arith.constant dense<3.950500e+00> : tensor<512xf32> loc(#loc75)
    %tmp7_22 = arith.mulf %tmp5, %tmp7 : tensor<512xf32> loc(#loc75)
    %tmp10 = arith.addf %tmp7_22, %tmp8_14 : tensor<512xf32> loc(#loc76)
    %tmp11 = arith.constant 3.741800e+00 : f32 loc(#loc77)
    %tmp12 = arith.constant dense<3.741800e+00> : tensor<512xf32> loc(#loc78)
    %tmp12_23 = arith.mulf %tmp10, %tmp12 : tensor<512xf32> loc(#loc78)
    %tmp15 = arith.addf %tmp12_23, %tmp13_17 : tensor<512xf32> loc(#loc79)
    %tmp16 = arith.constant 2.876900e+00 : f32 loc(#loc80)
    %tmp17 = arith.constant dense<2.876900e+00> : tensor<512xf32> loc(#loc81)
    %tmp17_24 = arith.mulf %tmp15, %tmp17 : tensor<512xf32> loc(#loc81)
    %tmp20 = arith.addf %tmp17_24, %tmp18_20 : tensor<512xf32> loc(#loc82)
    %0 = tt.splat %in_out_ptr0 : !tt.ptr<f32> -> tensor<512x!tt.ptr<f32>> loc(#loc33)
    %1 = tt.addptr %0, %xindex_5 : tensor<512x!tt.ptr<f32>>, tensor<512xi32> loc(#loc33)
    tt.store %1, %tmp20 : tensor<512x!tt.ptr<f32>> loc(#loc34)
    %2 = tt.splat %out_ptr0 : !tt.ptr<bf16> -> tensor<512x!tt.ptr<bf16>> loc(#loc35)
    %3 = tt.addptr %2, %xindex_5 : tensor<512x!tt.ptr<bf16>>, tensor<512xi32> loc(#loc35)
    %4 = arith.truncf %tmp20 : tensor<512xf32> to tensor<512xbf16> loc(#loc36)
    tt.store %3, %4 : tensor<512x!tt.ptr<bf16>> loc(#loc36)
    %5 = tt.splat %out_ptr1 : !tt.ptr<bf16> -> tensor<512x!tt.ptr<bf16>> loc(#loc37)
    %6 = tt.addptr %5, %xindex_5 : tensor<512x!tt.ptr<bf16>>, tensor<512xi32> loc(#loc37)
    %7 = arith.truncf %tmp20 : tensor<512xf32> to tensor<512xbf16> loc(#loc38)
    tt.store %6, %7 : tensor<512x!tt.ptr<bf16>> loc(#loc38)
    %8 = tt.splat %out_ptr2 : !tt.ptr<bf16> -> tensor<512x!tt.ptr<bf16>> loc(#loc39)
    %9 = tt.addptr %8, %xindex_5 : tensor<512x!tt.ptr<bf16>>, tensor<512xi32> loc(#loc39)
    %10 = arith.truncf %tmp20 : tensor<512xf32> to tensor<512xbf16> loc(#loc40)
    tt.store %9, %10 : tensor<512x!tt.ptr<bf16>> loc(#loc40)
    tt.return loc(#loc41)
  } loc(#loc)
} loc(#loc)
#loc1 = loc("/NHNHOME/WORKSPACE/26msit001_A/jinhyeok/loop_TTT/lact/.cache_inductor_llm/ob/cob4gtbhy3vmsv6tm5wdz4jx57fcu6z6ivigaqypygg34t62j5np.py":19:13)
#loc2 = loc("/NHNHOME/WORKSPACE/26msit001_A/jinhyeok/loop_TTT/lact/.cache_inductor_llm/ob/cob4gtbhy3vmsv6tm5wdz4jx57fcu6z6ivigaqypygg34t62j5np.py":20:28)
#loc3 = loc("/NHNHOME/WORKSPACE/26msit001_A/jinhyeok/loop_TTT/lact/.cache_inductor_llm/ob/cob4gtbhy3vmsv6tm5wdz4jx57fcu6z6ivigaqypygg34t62j5np.py":20:33)
#loc4 = loc("/NHNHOME/WORKSPACE/26msit001_A/jinhyeok/loop_TTT/lact/.cache_inductor_llm/ob/cob4gtbhy3vmsv6tm5wdz4jx57fcu6z6ivigaqypygg34t62j5np.py":21:36)
#loc5 = loc("/NHNHOME/WORKSPACE/26msit001_A/jinhyeok/loop_TTT/lact/.cache_inductor_llm/ob/cob4gtbhy3vmsv6tm5wdz4jx57fcu6z6ivigaqypygg34t62j5np.py":21:23)
#loc6 = loc("/NHNHOME/WORKSPACE/26msit001_A/jinhyeok/loop_TTT/lact/.cache_inductor_llm/ob/cob4gtbhy3vmsv6tm5wdz4jx57fcu6z6ivigaqypygg34t62j5np.py":22:36)
#loc7 = loc("/NHNHOME/WORKSPACE/26msit001_A/jinhyeok/loop_TTT/lact/.cache_inductor_llm/ob/cob4gtbhy3vmsv6tm5wdz4jx57fcu6z6ivigaqypygg34t62j5np.py":24:34)
#loc8 = loc("/NHNHOME/WORKSPACE/26msit001_A/jinhyeok/loop_TTT/lact/.cache_inductor_llm/ob/cob4gtbhy3vmsv6tm5wdz4jx57fcu6z6ivigaqypygg34t62j5np.py":24:39)
#loc9 = loc("/NHNHOME/WORKSPACE/26msit001_A/jinhyeok/loop_TTT/lact/.cache_inductor_llm/ob/cob4gtbhy3vmsv6tm5wdz4jx57fcu6z6ivigaqypygg34t62j5np.py":25:30)
#loc10 = loc("/NHNHOME/WORKSPACE/26msit001_A/jinhyeok/loop_TTT/lact/.cache_inductor_llm/ob/cob4gtbhy3vmsv6tm5wdz4jx57fcu6z6ivigaqypygg34t62j5np.py":25:35)
#loc11 = loc("/NHNHOME/WORKSPACE/26msit001_A/jinhyeok/loop_TTT/lact/.cache_inductor_llm/ob/cob4gtbhy3vmsv6tm5wdz4jx57fcu6z6ivigaqypygg34t62j5np.py":25:44)
#loc12 = loc("/NHNHOME/WORKSPACE/26msit001_A/jinhyeok/loop_TTT/lact/.cache_inductor_llm/ob/cob4gtbhy3vmsv6tm5wdz4jx57fcu6z6ivigaqypygg34t62j5np.py":26:30)
#loc13 = loc("/NHNHOME/WORKSPACE/26msit001_A/jinhyeok/loop_TTT/lact/.cache_inductor_llm/ob/cob4gtbhy3vmsv6tm5wdz4jx57fcu6z6ivigaqypygg34t62j5np.py":26:35)
#loc14 = loc("/NHNHOME/WORKSPACE/26msit001_A/jinhyeok/loop_TTT/lact/.cache_inductor_llm/ob/cob4gtbhy3vmsv6tm5wdz4jx57fcu6z6ivigaqypygg34t62j5np.py":26:44)
#loc15 = loc("/NHNHOME/WORKSPACE/26msit001_A/jinhyeok/loop_TTT/lact/.cache_inductor_llm/ob/cob4gtbhy3vmsv6tm5wdz4jx57fcu6z6ivigaqypygg34t62j5np.py":27:31)
#loc16 = loc("/NHNHOME/WORKSPACE/26msit001_A/jinhyeok/loop_TTT/lact/.cache_inductor_llm/ob/cob4gtbhy3vmsv6tm5wdz4jx57fcu6z6ivigaqypygg34t62j5np.py":27:36)
#loc17 = loc("/NHNHOME/WORKSPACE/26msit001_A/jinhyeok/loop_TTT/lact/.cache_inductor_llm/ob/cob4gtbhy3vmsv6tm5wdz4jx57fcu6z6ivigaqypygg34t62j5np.py":27:45)
#loc18 = loc("/NHNHOME/WORKSPACE/26msit001_A/jinhyeok/loop_TTT/lact/.cache_inductor_llm/ob/cob4gtbhy3vmsv6tm5wdz4jx57fcu6z6ivigaqypygg34t62j5np.py":28:31)
#loc19 = loc("/NHNHOME/WORKSPACE/26msit001_A/jinhyeok/loop_TTT/lact/.cache_inductor_llm/ob/cob4gtbhy3vmsv6tm5wdz4jx57fcu6z6ivigaqypygg34t62j5np.py":28:36)
#loc20 = loc("/NHNHOME/WORKSPACE/26msit001_A/jinhyeok/loop_TTT/lact/.cache_inductor_llm/ob/cob4gtbhy3vmsv6tm5wdz4jx57fcu6z6ivigaqypygg34t62j5np.py":28:45)
#loc21 = loc("/NHNHOME/WORKSPACE/26msit001_A/jinhyeok/loop_TTT/lact/.cache_inductor_llm/ob/cob4gtbhy3vmsv6tm5wdz4jx57fcu6z6ivigaqypygg34t62j5np.py":29:11)
#loc22 = loc("/NHNHOME/WORKSPACE/26msit001_A/jinhyeok/loop_TTT/lact/.cache_inductor_llm/ob/cob4gtbhy3vmsv6tm5wdz4jx57fcu6z6ivigaqypygg34t62j5np.py":30:18)
#loc23 = loc("/NHNHOME/WORKSPACE/26msit001_A/jinhyeok/loop_TTT/lact/.cache_inductor_llm/ob/cob4gtbhy3vmsv6tm5wdz4jx57fcu6z6ivigaqypygg34t62j5np.py":32:18)
#loc24 = loc("/NHNHOME/WORKSPACE/26msit001_A/jinhyeok/loop_TTT/lact/.cache_inductor_llm/ob/cob4gtbhy3vmsv6tm5wdz4jx57fcu6z6ivigaqypygg34t62j5np.py":33:11)
#loc25 = loc("/NHNHOME/WORKSPACE/26msit001_A/jinhyeok/loop_TTT/lact/.cache_inductor_llm/ob/cob4gtbhy3vmsv6tm5wdz4jx57fcu6z6ivigaqypygg34t62j5np.py":34:18)
#loc26 = loc("/NHNHOME/WORKSPACE/26msit001_A/jinhyeok/loop_TTT/lact/.cache_inductor_llm/ob/cob4gtbhy3vmsv6tm5wdz4jx57fcu6z6ivigaqypygg34t62j5np.py":36:19)
#loc27 = loc("/NHNHOME/WORKSPACE/26msit001_A/jinhyeok/loop_TTT/lact/.cache_inductor_llm/ob/cob4gtbhy3vmsv6tm5wdz4jx57fcu6z6ivigaqypygg34t62j5np.py":37:12)
#loc28 = loc("/NHNHOME/WORKSPACE/26msit001_A/jinhyeok/loop_TTT/lact/.cache_inductor_llm/ob/cob4gtbhy3vmsv6tm5wdz4jx57fcu6z6ivigaqypygg34t62j5np.py":38:20)
#loc29 = loc("/NHNHOME/WORKSPACE/26msit001_A/jinhyeok/loop_TTT/lact/.cache_inductor_llm/ob/cob4gtbhy3vmsv6tm5wdz4jx57fcu6z6ivigaqypygg34t62j5np.py":40:20)
#loc30 = loc("/NHNHOME/WORKSPACE/26msit001_A/jinhyeok/loop_TTT/lact/.cache_inductor_llm/ob/cob4gtbhy3vmsv6tm5wdz4jx57fcu6z6ivigaqypygg34t62j5np.py":41:12)
#loc31 = loc("/NHNHOME/WORKSPACE/26msit001_A/jinhyeok/loop_TTT/lact/.cache_inductor_llm/ob/cob4gtbhy3vmsv6tm5wdz4jx57fcu6z6ivigaqypygg34t62j5np.py":42:20)
#loc32 = loc("/NHNHOME/WORKSPACE/26msit001_A/jinhyeok/loop_TTT/lact/.cache_inductor_llm/ob/cob4gtbhy3vmsv6tm5wdz4jx57fcu6z6ivigaqypygg34t62j5np.py":44:20)
#loc33 = loc("/NHNHOME/WORKSPACE/26msit001_A/jinhyeok/loop_TTT/lact/.cache_inductor_llm/ob/cob4gtbhy3vmsv6tm5wdz4jx57fcu6z6ivigaqypygg34t62j5np.py":46:28)
#loc34 = loc("/NHNHOME/WORKSPACE/26msit001_A/jinhyeok/loop_TTT/lact/.cache_inductor_llm/ob/cob4gtbhy3vmsv6tm5wdz4jx57fcu6z6ivigaqypygg34t62j5np.py":46:40)
#loc35 = loc("/NHNHOME/WORKSPACE/26msit001_A/jinhyeok/loop_TTT/lact/.cache_inductor_llm/ob/cob4gtbhy3vmsv6tm5wdz4jx57fcu6z6ivigaqypygg34t62j5np.py":47:25)
#loc36 = loc("/NHNHOME/WORKSPACE/26msit001_A/jinhyeok/loop_TTT/lact/.cache_inductor_llm/ob/cob4gtbhy3vmsv6tm5wdz4jx57fcu6z6ivigaqypygg34t62j5np.py":47:37)
#loc37 = loc("/NHNHOME/WORKSPACE/26msit001_A/jinhyeok/loop_TTT/lact/.cache_inductor_llm/ob/cob4gtbhy3vmsv6tm5wdz4jx57fcu6z6ivigaqypygg34t62j5np.py":48:25)
#loc38 = loc("/NHNHOME/WORKSPACE/26msit001_A/jinhyeok/loop_TTT/lact/.cache_inductor_llm/ob/cob4gtbhy3vmsv6tm5wdz4jx57fcu6z6ivigaqypygg34t62j5np.py":48:37)
#loc39 = loc("/NHNHOME/WORKSPACE/26msit001_A/jinhyeok/loop_TTT/lact/.cache_inductor_llm/ob/cob4gtbhy3vmsv6tm5wdz4jx57fcu6z6ivigaqypygg34t62j5np.py":49:25)
#loc40 = loc("/NHNHOME/WORKSPACE/26msit001_A/jinhyeok/loop_TTT/lact/.cache_inductor_llm/ob/cob4gtbhy3vmsv6tm5wdz4jx57fcu6z6ivigaqypygg34t62j5np.py":49:37)
#loc41 = loc("/NHNHOME/WORKSPACE/26msit001_A/jinhyeok/loop_TTT/lact/.cache_inductor_llm/ob/cob4gtbhy3vmsv6tm5wdz4jx57fcu6z6ivigaqypygg34t62j5np.py":49:4)
#loc51 = loc("xnumel"(#loc1))
#loc52 = loc("xoffset"(#loc2))
#loc53 = loc("xoffset"(#loc3))
#loc54 = loc("xindex"(#loc4))
#loc55 = loc("xindex"(#loc5))
#loc56 = loc("xmask"(#loc6))
#loc57 = loc("tmp0"(#loc7))
#loc58 = loc("tmp0"(#loc8))
#loc59 = loc("tmp3"(#loc9))
#loc60 = loc("tmp3"(#loc10))
#loc61 = loc("tmp3"(#loc11))
#loc62 = loc("tmp8"(#loc12))
#loc63 = loc("tmp8"(#loc13))
#loc64 = loc("tmp8"(#loc14))
#loc65 = loc("tmp13"(#loc15))
#loc66 = loc("tmp13"(#loc16))
#loc67 = loc("tmp13"(#loc17))
#loc68 = loc("tmp18"(#loc18))
#loc69 = loc("tmp18"(#loc19))
#loc70 = loc("tmp18"(#loc20))
#loc71 = loc("tmp1"(#loc21))
#loc72 = loc("tmp2"(#loc22))
#loc73 = loc("tmp5"(#loc23))
#loc74 = loc("tmp6"(#loc24))
#loc75 = loc("tmp7"(#loc25))
#loc76 = loc("tmp10"(#loc26))
#loc77 = loc("tmp11"(#loc27))
#loc78 = loc("tmp12"(#loc28))
#loc79 = loc("tmp15"(#loc29))
#loc80 = loc("tmp16"(#loc30))
#loc81 = loc("tmp17"(#loc31))
#loc82 = loc("tmp20"(#loc32))
