#loc = loc("/NHNHOME/WORKSPACE/26msit001_A/jinhyeok/loop_TTT/lact/.cache_inductor_llm/kb/ckbzgzpkam2qsm7sabrf4zbvm7e56y5adcb3klgzyrewgfaeg3ih.py":18:0)
#loc17 = loc("in_ptr0"(#loc))
#loc18 = loc("out_ptr0"(#loc))
#loc19 = loc("out_ptr1"(#loc))
#loc20 = loc("xnumel"(#loc))
module {
  tt.func public @triton_poi_fused__to_copy_slice_transpose_0(%in_ptr0: !tt.ptr<f32> {tt.divisibility = 16 : i32} loc("in_ptr0"(#loc)), %out_ptr0: !tt.ptr<bf16> {tt.divisibility = 16 : i32} loc("out_ptr0"(#loc)), %out_ptr1: !tt.ptr<bf16> {tt.divisibility = 16 : i32} loc("out_ptr1"(#loc)), %xnumel: i32 {tt.divisibility = 16 : i32} loc("xnumel"(#loc))) attributes {noinline = false} {
    %xoffset = tt.get_program_id x : i32 loc(#loc21)
    %xoffset_0 = arith.constant 1024 : i32 loc(#loc22)
    %xoffset_1 = arith.constant 1024 : i32 loc(#loc22)
    %xoffset_2 = arith.muli %xoffset, %xoffset_1 : i32 loc(#loc22)
    %xindex = tt.make_range {end = 1024 : i32, start = 0 : i32} : tensor<1024xi32> loc(#loc23)
    %xindex_3 = tt.splat %xoffset_2 : i32 -> tensor<1024xi32> loc(#loc24)
    %xindex_4 = arith.addi %xindex_3, %xindex : tensor<1024xi32> loc(#loc24)
    %xmask = arith.constant true loc(#loc25)
    %xmask_5 = arith.constant dense<true> : tensor<1024xi1> loc(#loc25)
    %x0 = arith.constant 196608 : i32 loc(#loc26)
    %x0_6 = arith.constant 196608 : i32 loc(#loc26)
    %x0_7 = arith.constant dense<196608> : tensor<1024xi32> loc(#loc26)
    %x0_8 = arith.remsi %xindex_4, %x0_7 : tensor<1024xi32> loc(#loc26)
    %x1 = arith.constant 196608 : i32 loc(#loc27)
    %x1_9 = arith.constant 196608 : i32 loc(#loc27)
    %x1_10 = arith.constant dense<196608> : tensor<1024xi32> loc(#loc27)
    %x1_11 = arith.divsi %xindex_4, %x1_10 : tensor<1024xi32> loc(#loc27)
    %tmp0 = arith.constant 786432 : i32 loc(#loc28)
    %tmp0_12 = arith.constant 786432 : i32 loc(#loc28)
    %tmp0_13 = arith.constant dense<786432> : tensor<1024xi32> loc(#loc28)
    %tmp0_14 = arith.muli %tmp0_13, %x1_11 : tensor<1024xi32> loc(#loc28)
    %tmp0_15 = arith.addi %x0_8, %tmp0_14 : tensor<1024xi32> loc(#loc29)
    %tmp0_16 = tt.splat %in_ptr0 : !tt.ptr<f32> -> tensor<1024x!tt.ptr<f32>> loc(#loc30)
    %tmp0_17 = tt.addptr %tmp0_16, %tmp0_15 : tensor<1024x!tt.ptr<f32>>, tensor<1024xi32> loc(#loc30)
    %tmp0_18 = tt.load %tmp0_17 : tensor<1024x!tt.ptr<f32>> loc(#loc31)
    %0 = tt.splat %out_ptr0 : !tt.ptr<bf16> -> tensor<1024x!tt.ptr<bf16>> loc(#loc12)
    %1 = tt.addptr %0, %xindex_4 : tensor<1024x!tt.ptr<bf16>>, tensor<1024xi32> loc(#loc12)
    %2 = arith.truncf %tmp0_18 : tensor<1024xf32> to tensor<1024xbf16> loc(#loc13)
    tt.store %1, %2 : tensor<1024x!tt.ptr<bf16>> loc(#loc13)
    %3 = tt.splat %out_ptr1 : !tt.ptr<bf16> -> tensor<1024x!tt.ptr<bf16>> loc(#loc14)
    %4 = tt.addptr %3, %xindex_4 : tensor<1024x!tt.ptr<bf16>>, tensor<1024xi32> loc(#loc14)
    %5 = arith.truncf %tmp0_18 : tensor<1024xf32> to tensor<1024xbf16> loc(#loc15)
    tt.store %4, %5 : tensor<1024x!tt.ptr<bf16>> loc(#loc15)
    tt.return loc(#loc16)
  } loc(#loc)
} loc(#loc)
#loc1 = loc("/NHNHOME/WORKSPACE/26msit001_A/jinhyeok/loop_TTT/lact/.cache_inductor_llm/kb/ckbzgzpkam2qsm7sabrf4zbvm7e56y5adcb3klgzyrewgfaeg3ih.py":19:28)
#loc2 = loc("/NHNHOME/WORKSPACE/26msit001_A/jinhyeok/loop_TTT/lact/.cache_inductor_llm/kb/ckbzgzpkam2qsm7sabrf4zbvm7e56y5adcb3klgzyrewgfaeg3ih.py":19:33)
#loc3 = loc("/NHNHOME/WORKSPACE/26msit001_A/jinhyeok/loop_TTT/lact/.cache_inductor_llm/kb/ckbzgzpkam2qsm7sabrf4zbvm7e56y5adcb3klgzyrewgfaeg3ih.py":20:36)
#loc4 = loc("/NHNHOME/WORKSPACE/26msit001_A/jinhyeok/loop_TTT/lact/.cache_inductor_llm/kb/ckbzgzpkam2qsm7sabrf4zbvm7e56y5adcb3klgzyrewgfaeg3ih.py":20:23)
#loc5 = loc("/NHNHOME/WORKSPACE/26msit001_A/jinhyeok/loop_TTT/lact/.cache_inductor_llm/kb/ckbzgzpkam2qsm7sabrf4zbvm7e56y5adcb3klgzyrewgfaeg3ih.py":21:36)
#loc6 = loc("/NHNHOME/WORKSPACE/26msit001_A/jinhyeok/loop_TTT/lact/.cache_inductor_llm/kb/ckbzgzpkam2qsm7sabrf4zbvm7e56y5adcb3klgzyrewgfaeg3ih.py":22:19)
#loc7 = loc("/NHNHOME/WORKSPACE/26msit001_A/jinhyeok/loop_TTT/lact/.cache_inductor_llm/kb/ckbzgzpkam2qsm7sabrf4zbvm7e56y5adcb3klgzyrewgfaeg3ih.py":23:19)
#loc8 = loc("/NHNHOME/WORKSPACE/26msit001_A/jinhyeok/loop_TTT/lact/.cache_inductor_llm/kb/ckbzgzpkam2qsm7sabrf4zbvm7e56y5adcb3klgzyrewgfaeg3ih.py":25:42)
#loc9 = loc("/NHNHOME/WORKSPACE/26msit001_A/jinhyeok/loop_TTT/lact/.cache_inductor_llm/kb/ckbzgzpkam2qsm7sabrf4zbvm7e56y5adcb3klgzyrewgfaeg3ih.py":25:35)
#loc10 = loc("/NHNHOME/WORKSPACE/26msit001_A/jinhyeok/loop_TTT/lact/.cache_inductor_llm/kb/ckbzgzpkam2qsm7sabrf4zbvm7e56y5adcb3klgzyrewgfaeg3ih.py":25:30)
#loc11 = loc("/NHNHOME/WORKSPACE/26msit001_A/jinhyeok/loop_TTT/lact/.cache_inductor_llm/kb/ckbzgzpkam2qsm7sabrf4zbvm7e56y5adcb3klgzyrewgfaeg3ih.py":25:47)
#loc12 = loc("/NHNHOME/WORKSPACE/26msit001_A/jinhyeok/loop_TTT/lact/.cache_inductor_llm/kb/ckbzgzpkam2qsm7sabrf4zbvm7e56y5adcb3klgzyrewgfaeg3ih.py":27:25)
#loc13 = loc("/NHNHOME/WORKSPACE/26msit001_A/jinhyeok/loop_TTT/lact/.cache_inductor_llm/kb/ckbzgzpkam2qsm7sabrf4zbvm7e56y5adcb3klgzyrewgfaeg3ih.py":27:36)
#loc14 = loc("/NHNHOME/WORKSPACE/26msit001_A/jinhyeok/loop_TTT/lact/.cache_inductor_llm/kb/ckbzgzpkam2qsm7sabrf4zbvm7e56y5adcb3klgzyrewgfaeg3ih.py":28:25)
#loc15 = loc("/NHNHOME/WORKSPACE/26msit001_A/jinhyeok/loop_TTT/lact/.cache_inductor_llm/kb/ckbzgzpkam2qsm7sabrf4zbvm7e56y5adcb3klgzyrewgfaeg3ih.py":28:36)
#loc16 = loc("/NHNHOME/WORKSPACE/26msit001_A/jinhyeok/loop_TTT/lact/.cache_inductor_llm/kb/ckbzgzpkam2qsm7sabrf4zbvm7e56y5adcb3klgzyrewgfaeg3ih.py":28:4)
#loc21 = loc("xoffset"(#loc1))
#loc22 = loc("xoffset"(#loc2))
#loc23 = loc("xindex"(#loc3))
#loc24 = loc("xindex"(#loc4))
#loc25 = loc("xmask"(#loc5))
#loc26 = loc("x0"(#loc6))
#loc27 = loc("x1"(#loc7))
#loc28 = loc("tmp0"(#loc8))
#loc29 = loc("tmp0"(#loc9))
#loc30 = loc("tmp0"(#loc10))
#loc31 = loc("tmp0"(#loc11))
