#loc = loc("/NHNHOME/WORKSPACE/26msit001_A/jinhyeok/TTT_camera_embedding/lact_llm/.cache_inductor/ef/cefubpzejppbeakjldvl645ptawxzjsteejubtqmd2vpi356rtdg.py":18:0)
#loc88 = loc("in_ptr0"(#loc))
#loc89 = loc("in_ptr1"(#loc))
#loc90 = loc("in_ptr2"(#loc))
#loc91 = loc("out_ptr0"(#loc))
#loc92 = loc("xnumel"(#loc))
module {
  tt.func public @triton_poi_fused__to_copy_add_mul_neg_select_slice_stack_sub_unsqueeze_view_39(%in_ptr0: !tt.ptr<bf16> {tt.divisibility = 16 : i32} loc("in_ptr0"(#loc)), %in_ptr1: !tt.ptr<f32> {tt.divisibility = 16 : i32} loc("in_ptr1"(#loc)), %in_ptr2: !tt.ptr<f32> {tt.divisibility = 16 : i32} loc("in_ptr2"(#loc)), %out_ptr0: !tt.ptr<f32> {tt.divisibility = 16 : i32} loc("out_ptr0"(#loc)), %xnumel: i32 {tt.divisibility = 16 : i32} loc("xnumel"(#loc))) attributes {noinline = false} {
    %xnumel_0 = arith.constant 3145728 : i32 loc(#loc93)
    %xoffset = tt.get_program_id x : i32 loc(#loc94)
    %xoffset_1 = arith.constant 1024 : i32 loc(#loc95)
    %xoffset_2 = arith.constant 1024 : i32 loc(#loc95)
    %xoffset_3 = arith.muli %xoffset, %xoffset_2 : i32 loc(#loc95)
    %xindex = tt.make_range {end = 1024 : i32, start = 0 : i32} : tensor<1024xi32> loc(#loc96)
    %xindex_4 = tt.splat %xoffset_3 : i32 -> tensor<1024xi32> loc(#loc97)
    %xindex_5 = arith.addi %xindex_4, %xindex : tensor<1024xi32> loc(#loc97)
    %xmask = arith.constant true loc(#loc98)
    %xmask_6 = arith.constant dense<true> : tensor<1024xi1> loc(#loc98)
    %x0 = arith.constant 2048 : i32 loc(#loc99)
    %x0_7 = arith.constant 2048 : i32 loc(#loc99)
    %x0_8 = arith.constant dense<2048> : tensor<1024xi32> loc(#loc99)
    %x0_9 = arith.remsi %xindex_5, %x0_8 : tensor<1024xi32> loc(#loc99)
    %x1 = arith.constant 2048 : i32 loc(#loc100)
    %x1_10 = arith.constant 2048 : i32 loc(#loc100)
    %x1_11 = arith.constant dense<2048> : tensor<1024xi32> loc(#loc100)
    %x1_12 = arith.divsi %xindex_5, %x1_11 : tensor<1024xi32> loc(#loc100)
    %x1_13 = arith.constant 48 : i32 loc(#loc101)
    %x1_14 = arith.constant 48 : i32 loc(#loc101)
    %x1_15 = arith.constant dense<48> : tensor<1024xi32> loc(#loc101)
    %x1_16 = arith.remsi %x1_12, %x1_15 : tensor<1024xi32> loc(#loc101)
    %x2 = arith.constant 98304 : i32 loc(#loc102)
    %x2_17 = arith.constant 98304 : i32 loc(#loc102)
    %x2_18 = arith.constant dense<98304> : tensor<1024xi32> loc(#loc102)
    %x2_19 = arith.divsi %xindex_5, %x2_18 : tensor<1024xi32> loc(#loc102)
    %tmp1 = arith.constant 0 : i64 loc(#loc103)
    %tmp1_20 = arith.constant dense<0> : tensor<1xi64> loc(#loc103)
    %tmp2 = arith.extsi %x0_9 : tensor<1024xi32> to tensor<1024xi64> loc(#loc104)
    %tmp2_21 = arith.constant dense<0> : tensor<1024xi64> loc(#loc104)
    %tmp2_22 = arith.cmpi sge, %tmp2, %tmp2_21 : tensor<1024xi64> loc(#loc104)
    %tmp3 = arith.constant 1024 : i64 loc(#loc105)
    %tmp3_23 = arith.constant dense<1024> : tensor<1xi64> loc(#loc105)
    %tmp4 = arith.extsi %x0_9 : tensor<1024xi32> to tensor<1024xi64> loc(#loc106)
    %tmp4_24 = arith.constant dense<1024> : tensor<1024xi64> loc(#loc106)
    %tmp4_25 = arith.cmpi slt, %tmp4, %tmp4_24 : tensor<1024xi64> loc(#loc106)
    %tmp5 = arith.constant 2048 : i32 loc(#loc107)
    %tmp5_26 = arith.constant 2048 : i32 loc(#loc107)
    %tmp5_27 = arith.constant dense<2048> : tensor<1024xi32> loc(#loc107)
    %tmp5_28 = arith.muli %tmp5_27, %x1_16 : tensor<1024xi32> loc(#loc107)
    %tmp5_29 = arith.constant 196608 : i32 loc(#loc108)
    %tmp5_30 = arith.constant 196608 : i32 loc(#loc108)
    %tmp5_31 = arith.constant dense<196608> : tensor<1024xi32> loc(#loc108)
    %tmp5_32 = arith.muli %tmp5_31, %x2_19 : tensor<1024xi32> loc(#loc108)
    %tmp5_33 = arith.addi %tmp5_28, %tmp5_32 : tensor<1024xi32> loc(#loc109)
    %tmp5_34 = arith.addi %tmp5_33, %x0_9 : tensor<1024xi32> loc(#loc110)
    %tmp5_35 = tt.splat %in_ptr0 : !tt.ptr<bf16> -> tensor<1024x!tt.ptr<bf16>> loc(#loc111)
    %tmp5_36 = tt.addptr %tmp5_35, %tmp5_34 : tensor<1024x!tt.ptr<bf16>>, tensor<1024xi32> loc(#loc111)
    %tmp5_37 = arith.constant 0.000000e+00 : f32 loc(#loc112)
    %tmp5_38 = arith.constant dense<0.000000e+00> : tensor<1024xf32> loc(#loc112)
    %tmp5_39 = arith.truncf %tmp5_38 : tensor<1024xf32> to tensor<1024xbf16> loc(#loc112)
    %tmp5_40 = tt.load %tmp5_36, %tmp4_25, %tmp5_39 evictionPolicy = evict_last : tensor<1024x!tt.ptr<bf16>> loc(#loc112)
    %tmp5_41 = arith.extf %tmp5_40 : tensor<1024xbf16> to tensor<1024xf32> loc(#loc113)
    %tmp7 = arith.constant 4096 : i32 loc(#loc114)
    %tmp7_42 = arith.constant 4096 : i32 loc(#loc114)
    %tmp7_43 = arith.constant dense<4096> : tensor<1024xi32> loc(#loc114)
    %tmp7_44 = arith.muli %tmp7_43, %x1_16 : tensor<1024xi32> loc(#loc114)
    %tmp7_45 = arith.constant 1024 : i32 loc(#loc115)
    %tmp7_46 = arith.constant 1024 : i32 loc(#loc115)
    %tmp7_47 = arith.constant dense<1024> : tensor<1024xi32> loc(#loc115)
    %tmp7_48 = arith.addi %tmp7_47, %tmp7_44 : tensor<1024xi32> loc(#loc115)
    %tmp7_49 = arith.addi %tmp7_48, %x0_9 : tensor<1024xi32> loc(#loc116)
    %tmp7_50 = tt.splat %in_ptr1 : !tt.ptr<f32> -> tensor<1024x!tt.ptr<f32>> loc(#loc117)
    %tmp7_51 = tt.addptr %tmp7_50, %tmp7_49 : tensor<1024x!tt.ptr<f32>>, tensor<1024xi32> loc(#loc117)
    %tmp7_52 = arith.constant 0.000000e+00 : f32 loc(#loc118)
    %tmp7_53 = arith.constant dense<0.000000e+00> : tensor<1024xf32> loc(#loc118)
    %tmp7_54 = tt.load %tmp7_51, %tmp4_25, %tmp7_53 evictionPolicy = evict_last : tensor<1024x!tt.ptr<f32>> loc(#loc118)
    %tmp8 = arith.mulf %tmp5_41, %tmp7_54 : tensor<1024xf32> loc(#loc119)
    %tmp9 = arith.constant 2048 : i32 loc(#loc120)
    %tmp9_55 = arith.constant 2048 : i32 loc(#loc120)
    %tmp9_56 = arith.constant dense<2048> : tensor<1024xi32> loc(#loc120)
    %tmp9_57 = arith.muli %tmp9_56, %x1_16 : tensor<1024xi32> loc(#loc120)
    %tmp9_58 = arith.constant 1024 : i32 loc(#loc121)
    %tmp9_59 = arith.constant 1024 : i32 loc(#loc121)
    %tmp9_60 = arith.constant dense<1024> : tensor<1024xi32> loc(#loc121)
    %tmp9_61 = arith.addi %tmp9_60, %tmp9_57 : tensor<1024xi32> loc(#loc121)
    %tmp9_62 = arith.constant 196608 : i32 loc(#loc122)
    %tmp9_63 = arith.constant 196608 : i32 loc(#loc122)
    %tmp9_64 = arith.constant dense<196608> : tensor<1024xi32> loc(#loc122)
    %tmp9_65 = arith.muli %tmp9_64, %x2_19 : tensor<1024xi32> loc(#loc122)
    %tmp9_66 = arith.addi %tmp9_61, %tmp9_65 : tensor<1024xi32> loc(#loc123)
    %tmp9_67 = arith.addi %tmp9_66, %x0_9 : tensor<1024xi32> loc(#loc124)
    %tmp9_68 = tt.splat %in_ptr0 : !tt.ptr<bf16> -> tensor<1024x!tt.ptr<bf16>> loc(#loc125)
    %tmp9_69 = tt.addptr %tmp9_68, %tmp9_67 : tensor<1024x!tt.ptr<bf16>>, tensor<1024xi32> loc(#loc125)
    %tmp9_70 = arith.constant 0.000000e+00 : f32 loc(#loc126)
    %tmp9_71 = arith.constant dense<0.000000e+00> : tensor<1024xf32> loc(#loc126)
    %tmp9_72 = arith.truncf %tmp9_71 : tensor<1024xf32> to tensor<1024xbf16> loc(#loc126)
    %tmp9_73 = tt.load %tmp9_69, %tmp4_25, %tmp9_72 evictionPolicy = evict_last : tensor<1024x!tt.ptr<bf16>> loc(#loc126)
    %tmp9_74 = arith.extf %tmp9_73 : tensor<1024xbf16> to tensor<1024xf32> loc(#loc127)
    %tmp11 = arith.constant 4096 : i32 loc(#loc128)
    %tmp11_75 = arith.constant 4096 : i32 loc(#loc128)
    %tmp11_76 = arith.constant dense<4096> : tensor<1024xi32> loc(#loc128)
    %tmp11_77 = arith.muli %tmp11_76, %x1_16 : tensor<1024xi32> loc(#loc128)
    %tmp11_78 = arith.constant 1024 : i32 loc(#loc129)
    %tmp11_79 = arith.constant 1024 : i32 loc(#loc129)
    %tmp11_80 = arith.constant dense<1024> : tensor<1024xi32> loc(#loc129)
    %tmp11_81 = arith.addi %tmp11_80, %tmp11_77 : tensor<1024xi32> loc(#loc129)
    %tmp11_82 = arith.addi %tmp11_81, %x0_9 : tensor<1024xi32> loc(#loc130)
    %tmp11_83 = tt.splat %in_ptr2 : !tt.ptr<f32> -> tensor<1024x!tt.ptr<f32>> loc(#loc131)
    %tmp11_84 = tt.addptr %tmp11_83, %tmp11_82 : tensor<1024x!tt.ptr<f32>>, tensor<1024xi32> loc(#loc131)
    %tmp11_85 = arith.constant 0.000000e+00 : f32 loc(#loc132)
    %tmp11_86 = arith.constant dense<0.000000e+00> : tensor<1024xf32> loc(#loc132)
    %tmp11_87 = tt.load %tmp11_84, %tmp4_25, %tmp11_86 evictionPolicy = evict_last : tensor<1024x!tt.ptr<f32>> loc(#loc132)
    %tmp12 = arith.constant 0.000000e+00 : f32 loc(#loc133)
    %tmp12_88 = arith.constant dense<0.000000e+00> : tensor<1024xf32> loc(#loc133)
    %tmp12_89 = arith.subf %tmp12_88, %tmp11_87 : tensor<1024xf32> loc(#loc133)
    %tmp13 = arith.mulf %tmp9_74, %tmp12_89 : tensor<1024xf32> loc(#loc134)
    %tmp14 = arith.subf %tmp8, %tmp13 : tensor<1024xf32> loc(#loc135)
    %tmp15 = arith.constant 0.000000e+00 : f32 loc(#loc136)
    %tmp15_90 = arith.constant dense<0.000000e+00> : tensor<1024xf32> loc(#loc136)
    %tmp16 = arith.select %tmp4_25, %tmp14, %tmp15_90 : tensor<1024xi1>, tensor<1024xf32> loc(#loc137)
    %tmp17 = arith.extsi %x0_9 : tensor<1024xi32> to tensor<1024xi64> loc(#loc138)
    %tmp17_91 = arith.constant dense<1024> : tensor<1024xi64> loc(#loc138)
    %tmp17_92 = arith.cmpi sge, %tmp17, %tmp17_91 : tensor<1024xi64> loc(#loc138)
    %tmp18 = arith.constant 2048 : i64 loc(#loc139)
    %tmp18_93 = arith.constant dense<2048> : tensor<1xi64> loc(#loc139)
    %tmp19 = arith.extsi %x0_9 : tensor<1024xi32> to tensor<1024xi64> loc(#loc140)
    %tmp19_94 = arith.constant dense<2048> : tensor<1024xi64> loc(#loc140)
    %tmp19_95 = arith.cmpi slt, %tmp19, %tmp19_94 : tensor<1024xi64> loc(#loc140)
    %tmp20 = arith.constant 2048 : i32 loc(#loc141)
    %tmp20_96 = arith.constant 2048 : i32 loc(#loc141)
    %tmp20_97 = arith.constant dense<2048> : tensor<1024xi32> loc(#loc141)
    %tmp20_98 = arith.muli %tmp20_97, %x1_16 : tensor<1024xi32> loc(#loc141)
    %tmp20_99 = arith.constant 196608 : i32 loc(#loc142)
    %tmp20_100 = arith.constant 196608 : i32 loc(#loc142)
    %tmp20_101 = arith.constant dense<196608> : tensor<1024xi32> loc(#loc142)
    %tmp20_102 = arith.muli %tmp20_101, %x2_19 : tensor<1024xi32> loc(#loc142)
    %tmp20_103 = arith.addi %tmp20_98, %tmp20_102 : tensor<1024xi32> loc(#loc143)
    %tmp20_104 = arith.constant -1024 : i32 loc(#loc144)
    %tmp20_105 = arith.constant -1024 : i32 loc(#loc144)
    %tmp20_106 = arith.constant dense<-1024> : tensor<1024xi32> loc(#loc144)
    %tmp20_107 = arith.addi %tmp20_106, %x0_9 : tensor<1024xi32> loc(#loc144)
    %tmp20_108 = arith.addi %tmp20_103, %tmp20_107 : tensor<1024xi32> loc(#loc145)
    %tmp20_109 = tt.splat %in_ptr0 : !tt.ptr<bf16> -> tensor<1024x!tt.ptr<bf16>> loc(#loc146)
    %tmp20_110 = tt.addptr %tmp20_109, %tmp20_108 : tensor<1024x!tt.ptr<bf16>>, tensor<1024xi32> loc(#loc146)
    %tmp20_111 = arith.constant 0.000000e+00 : f32 loc(#loc147)
    %tmp20_112 = arith.constant dense<0.000000e+00> : tensor<1024xf32> loc(#loc147)
    %tmp20_113 = arith.truncf %tmp20_112 : tensor<1024xf32> to tensor<1024xbf16> loc(#loc147)
    %tmp20_114 = tt.load %tmp20_110, %tmp17_92, %tmp20_113 evictionPolicy = evict_last : tensor<1024x!tt.ptr<bf16>> loc(#loc147)
    %tmp20_115 = arith.extf %tmp20_114 : tensor<1024xbf16> to tensor<1024xf32> loc(#loc148)
    %tmp22 = arith.constant 4096 : i32 loc(#loc149)
    %tmp22_116 = arith.constant 4096 : i32 loc(#loc149)
    %tmp22_117 = arith.constant dense<4096> : tensor<1024xi32> loc(#loc149)
    %tmp22_118 = arith.muli %tmp22_117, %x1_16 : tensor<1024xi32> loc(#loc149)
    %tmp22_119 = arith.constant 1024 : i32 loc(#loc150)
    %tmp22_120 = arith.constant 1024 : i32 loc(#loc150)
    %tmp22_121 = arith.constant dense<1024> : tensor<1024xi32> loc(#loc150)
    %tmp22_122 = arith.addi %tmp22_121, %tmp22_118 : tensor<1024xi32> loc(#loc150)
    %tmp22_123 = arith.constant -1024 : i32 loc(#loc151)
    %tmp22_124 = arith.constant -1024 : i32 loc(#loc151)
    %tmp22_125 = arith.constant dense<-1024> : tensor<1024xi32> loc(#loc151)
    %tmp22_126 = arith.addi %tmp22_125, %x0_9 : tensor<1024xi32> loc(#loc151)
    %tmp22_127 = arith.addi %tmp22_122, %tmp22_126 : tensor<1024xi32> loc(#loc152)
    %tmp22_128 = tt.splat %in_ptr2 : !tt.ptr<f32> -> tensor<1024x!tt.ptr<f32>> loc(#loc153)
    %tmp22_129 = tt.addptr %tmp22_128, %tmp22_127 : tensor<1024x!tt.ptr<f32>>, tensor<1024xi32> loc(#loc153)
    %tmp22_130 = arith.constant 0.000000e+00 : f32 loc(#loc154)
    %tmp22_131 = arith.constant dense<0.000000e+00> : tensor<1024xf32> loc(#loc154)
    %tmp22_132 = tt.load %tmp22_129, %tmp17_92, %tmp22_131 evictionPolicy = evict_last : tensor<1024x!tt.ptr<f32>> loc(#loc154)
    %tmp23 = arith.constant 0.000000e+00 : f32 loc(#loc155)
    %tmp23_133 = arith.constant dense<0.000000e+00> : tensor<1024xf32> loc(#loc155)
    %tmp23_134 = arith.subf %tmp23_133, %tmp22_132 : tensor<1024xf32> loc(#loc155)
    %tmp24 = arith.mulf %tmp20_115, %tmp23_134 : tensor<1024xf32> loc(#loc156)
    %tmp25 = arith.constant 2048 : i32 loc(#loc157)
    %tmp25_135 = arith.constant 2048 : i32 loc(#loc157)
    %tmp25_136 = arith.constant dense<2048> : tensor<1024xi32> loc(#loc157)
    %tmp25_137 = arith.muli %tmp25_136, %x1_16 : tensor<1024xi32> loc(#loc157)
    %tmp25_138 = arith.constant 1024 : i32 loc(#loc158)
    %tmp25_139 = arith.constant 1024 : i32 loc(#loc158)
    %tmp25_140 = arith.constant dense<1024> : tensor<1024xi32> loc(#loc158)
    %tmp25_141 = arith.addi %tmp25_140, %tmp25_137 : tensor<1024xi32> loc(#loc158)
    %tmp25_142 = arith.constant 196608 : i32 loc(#loc159)
    %tmp25_143 = arith.constant 196608 : i32 loc(#loc159)
    %tmp25_144 = arith.constant dense<196608> : tensor<1024xi32> loc(#loc159)
    %tmp25_145 = arith.muli %tmp25_144, %x2_19 : tensor<1024xi32> loc(#loc159)
    %tmp25_146 = arith.addi %tmp25_141, %tmp25_145 : tensor<1024xi32> loc(#loc160)
    %tmp25_147 = arith.constant -1024 : i32 loc(#loc161)
    %tmp25_148 = arith.constant -1024 : i32 loc(#loc161)
    %tmp25_149 = arith.constant dense<-1024> : tensor<1024xi32> loc(#loc161)
    %tmp25_150 = arith.addi %tmp25_149, %x0_9 : tensor<1024xi32> loc(#loc161)
    %tmp25_151 = arith.addi %tmp25_146, %tmp25_150 : tensor<1024xi32> loc(#loc162)
    %tmp25_152 = tt.splat %in_ptr0 : !tt.ptr<bf16> -> tensor<1024x!tt.ptr<bf16>> loc(#loc163)
    %tmp25_153 = tt.addptr %tmp25_152, %tmp25_151 : tensor<1024x!tt.ptr<bf16>>, tensor<1024xi32> loc(#loc163)
    %tmp25_154 = arith.constant 0.000000e+00 : f32 loc(#loc164)
    %tmp25_155 = arith.constant dense<0.000000e+00> : tensor<1024xf32> loc(#loc164)
    %tmp25_156 = arith.truncf %tmp25_155 : tensor<1024xf32> to tensor<1024xbf16> loc(#loc164)
    %tmp25_157 = tt.load %tmp25_153, %tmp17_92, %tmp25_156 evictionPolicy = evict_last : tensor<1024x!tt.ptr<bf16>> loc(#loc164)
    %tmp25_158 = arith.extf %tmp25_157 : tensor<1024xbf16> to tensor<1024xf32> loc(#loc165)
    %tmp27 = arith.constant 4096 : i32 loc(#loc166)
    %tmp27_159 = arith.constant 4096 : i32 loc(#loc166)
    %tmp27_160 = arith.constant dense<4096> : tensor<1024xi32> loc(#loc166)
    %tmp27_161 = arith.muli %tmp27_160, %x1_16 : tensor<1024xi32> loc(#loc166)
    %tmp27_162 = arith.constant 1024 : i32 loc(#loc167)
    %tmp27_163 = arith.constant 1024 : i32 loc(#loc167)
    %tmp27_164 = arith.constant dense<1024> : tensor<1024xi32> loc(#loc167)
    %tmp27_165 = arith.addi %tmp27_164, %tmp27_161 : tensor<1024xi32> loc(#loc167)
    %tmp27_166 = arith.constant -1024 : i32 loc(#loc168)
    %tmp27_167 = arith.constant -1024 : i32 loc(#loc168)
    %tmp27_168 = arith.constant dense<-1024> : tensor<1024xi32> loc(#loc168)
    %tmp27_169 = arith.addi %tmp27_168, %x0_9 : tensor<1024xi32> loc(#loc168)
    %tmp27_170 = arith.addi %tmp27_165, %tmp27_169 : tensor<1024xi32> loc(#loc169)
    %tmp27_171 = tt.splat %in_ptr1 : !tt.ptr<f32> -> tensor<1024x!tt.ptr<f32>> loc(#loc170)
    %tmp27_172 = tt.addptr %tmp27_171, %tmp27_170 : tensor<1024x!tt.ptr<f32>>, tensor<1024xi32> loc(#loc170)
    %tmp27_173 = arith.constant 0.000000e+00 : f32 loc(#loc171)
    %tmp27_174 = arith.constant dense<0.000000e+00> : tensor<1024xf32> loc(#loc171)
    %tmp27_175 = tt.load %tmp27_172, %tmp17_92, %tmp27_174 evictionPolicy = evict_last : tensor<1024x!tt.ptr<f32>> loc(#loc171)
    %tmp28 = arith.mulf %tmp25_158, %tmp27_175 : tensor<1024xf32> loc(#loc172)
    %tmp29 = arith.addf %tmp24, %tmp28 : tensor<1024xf32> loc(#loc173)
    %tmp30 = arith.constant 0.000000e+00 : f32 loc(#loc174)
    %tmp30_176 = arith.constant dense<0.000000e+00> : tensor<1024xf32> loc(#loc174)
    %tmp31 = arith.select %tmp17_92, %tmp29, %tmp30_176 : tensor<1024xi1>, tensor<1024xf32> loc(#loc175)
    %tmp32 = arith.select %tmp4_25, %tmp16, %tmp31 : tensor<1024xi1>, tensor<1024xf32> loc(#loc176)
    %0 = tt.splat %out_ptr0 : !tt.ptr<f32> -> tensor<1024x!tt.ptr<f32>> loc(#loc85)
    %1 = tt.addptr %0, %xindex_5 : tensor<1024x!tt.ptr<f32>>, tensor<1024xi32> loc(#loc85)
    tt.store %1, %tmp32 : tensor<1024x!tt.ptr<f32>> loc(#loc86)
    tt.return loc(#loc87)
  } loc(#loc)
} loc(#loc)
#loc1 = loc("/NHNHOME/WORKSPACE/26msit001_A/jinhyeok/TTT_camera_embedding/lact_llm/.cache_inductor/ef/cefubpzejppbeakjldvl645ptawxzjsteejubtqmd2vpi356rtdg.py":19:13)
#loc2 = loc("/NHNHOME/WORKSPACE/26msit001_A/jinhyeok/TTT_camera_embedding/lact_llm/.cache_inductor/ef/cefubpzejppbeakjldvl645ptawxzjsteejubtqmd2vpi356rtdg.py":20:28)
#loc3 = loc("/NHNHOME/WORKSPACE/26msit001_A/jinhyeok/TTT_camera_embedding/lact_llm/.cache_inductor/ef/cefubpzejppbeakjldvl645ptawxzjsteejubtqmd2vpi356rtdg.py":20:33)
#loc4 = loc("/NHNHOME/WORKSPACE/26msit001_A/jinhyeok/TTT_camera_embedding/lact_llm/.cache_inductor/ef/cefubpzejppbeakjldvl645ptawxzjsteejubtqmd2vpi356rtdg.py":21:36)
#loc5 = loc("/NHNHOME/WORKSPACE/26msit001_A/jinhyeok/TTT_camera_embedding/lact_llm/.cache_inductor/ef/cefubpzejppbeakjldvl645ptawxzjsteejubtqmd2vpi356rtdg.py":21:23)
#loc6 = loc("/NHNHOME/WORKSPACE/26msit001_A/jinhyeok/TTT_camera_embedding/lact_llm/.cache_inductor/ef/cefubpzejppbeakjldvl645ptawxzjsteejubtqmd2vpi356rtdg.py":22:36)
#loc7 = loc("/NHNHOME/WORKSPACE/26msit001_A/jinhyeok/TTT_camera_embedding/lact_llm/.cache_inductor/ef/cefubpzejppbeakjldvl645ptawxzjsteejubtqmd2vpi356rtdg.py":23:19)
#loc8 = loc("/NHNHOME/WORKSPACE/26msit001_A/jinhyeok/TTT_camera_embedding/lact_llm/.cache_inductor/ef/cefubpzejppbeakjldvl645ptawxzjsteejubtqmd2vpi356rtdg.py":24:21)
#loc9 = loc("/NHNHOME/WORKSPACE/26msit001_A/jinhyeok/TTT_camera_embedding/lact_llm/.cache_inductor/ef/cefubpzejppbeakjldvl645ptawxzjsteejubtqmd2vpi356rtdg.py":24:29)
#loc10 = loc("/NHNHOME/WORKSPACE/26msit001_A/jinhyeok/TTT_camera_embedding/lact_llm/.cache_inductor/ef/cefubpzejppbeakjldvl645ptawxzjsteejubtqmd2vpi356rtdg.py":25:19)
#loc11 = loc("/NHNHOME/WORKSPACE/26msit001_A/jinhyeok/TTT_camera_embedding/lact_llm/.cache_inductor/ef/cefubpzejppbeakjldvl645ptawxzjsteejubtqmd2vpi356rtdg.py":28:27)
#loc12 = loc("/NHNHOME/WORKSPACE/26msit001_A/jinhyeok/TTT_camera_embedding/lact_llm/.cache_inductor/ef/cefubpzejppbeakjldvl645ptawxzjsteejubtqmd2vpi356rtdg.py":29:19)
#loc13 = loc("/NHNHOME/WORKSPACE/26msit001_A/jinhyeok/TTT_camera_embedding/lact_llm/.cache_inductor/ef/cefubpzejppbeakjldvl645ptawxzjsteejubtqmd2vpi356rtdg.py":30:30)
#loc14 = loc("/NHNHOME/WORKSPACE/26msit001_A/jinhyeok/TTT_camera_embedding/lact_llm/.cache_inductor/ef/cefubpzejppbeakjldvl645ptawxzjsteejubtqmd2vpi356rtdg.py":31:18)
#loc15 = loc("/NHNHOME/WORKSPACE/26msit001_A/jinhyeok/TTT_camera_embedding/lact_llm/.cache_inductor/ef/cefubpzejppbeakjldvl645ptawxzjsteejubtqmd2vpi356rtdg.py":32:35)
#loc16 = loc("/NHNHOME/WORKSPACE/26msit001_A/jinhyeok/TTT_camera_embedding/lact_llm/.cache_inductor/ef/cefubpzejppbeakjldvl645ptawxzjsteejubtqmd2vpi356rtdg.py":32:47)
#loc17 = loc("/NHNHOME/WORKSPACE/26msit001_A/jinhyeok/TTT_camera_embedding/lact_llm/.cache_inductor/ef/cefubpzejppbeakjldvl645ptawxzjsteejubtqmd2vpi356rtdg.py":32:40)
#loc18 = loc("/NHNHOME/WORKSPACE/26msit001_A/jinhyeok/TTT_camera_embedding/lact_llm/.cache_inductor/ef/cefubpzejppbeakjldvl645ptawxzjsteejubtqmd2vpi356rtdg.py":32:53)
#loc19 = loc("/NHNHOME/WORKSPACE/26msit001_A/jinhyeok/TTT_camera_embedding/lact_llm/.cache_inductor/ef/cefubpzejppbeakjldvl645ptawxzjsteejubtqmd2vpi356rtdg.py":32:30)
#loc20 = loc("/NHNHOME/WORKSPACE/26msit001_A/jinhyeok/TTT_camera_embedding/lact_llm/.cache_inductor/ef/cefubpzejppbeakjldvl645ptawxzjsteejubtqmd2vpi356rtdg.py":32:59)
#loc21 = loc("/NHNHOME/WORKSPACE/26msit001_A/jinhyeok/TTT_camera_embedding/lact_llm/.cache_inductor/ef/cefubpzejppbeakjldvl645ptawxzjsteejubtqmd2vpi356rtdg.py":32:109)
#loc22 = loc("/NHNHOME/WORKSPACE/26msit001_A/jinhyeok/TTT_camera_embedding/lact_llm/.cache_inductor/ef/cefubpzejppbeakjldvl645ptawxzjsteejubtqmd2vpi356rtdg.py":34:42)
#loc23 = loc("/NHNHOME/WORKSPACE/26msit001_A/jinhyeok/TTT_camera_embedding/lact_llm/.cache_inductor/ef/cefubpzejppbeakjldvl645ptawxzjsteejubtqmd2vpi356rtdg.py":34:37)
#loc24 = loc("/NHNHOME/WORKSPACE/26msit001_A/jinhyeok/TTT_camera_embedding/lact_llm/.cache_inductor/ef/cefubpzejppbeakjldvl645ptawxzjsteejubtqmd2vpi356rtdg.py":34:48)
#loc25 = loc("/NHNHOME/WORKSPACE/26msit001_A/jinhyeok/TTT_camera_embedding/lact_llm/.cache_inductor/ef/cefubpzejppbeakjldvl645ptawxzjsteejubtqmd2vpi356rtdg.py":34:30)
#loc26 = loc("/NHNHOME/WORKSPACE/26msit001_A/jinhyeok/TTT_camera_embedding/lact_llm/.cache_inductor/ef/cefubpzejppbeakjldvl645ptawxzjsteejubtqmd2vpi356rtdg.py":34:54)
#loc27 = loc("/NHNHOME/WORKSPACE/26msit001_A/jinhyeok/TTT_camera_embedding/lact_llm/.cache_inductor/ef/cefubpzejppbeakjldvl645ptawxzjsteejubtqmd2vpi356rtdg.py":35:18)
#loc28 = loc("/NHNHOME/WORKSPACE/26msit001_A/jinhyeok/TTT_camera_embedding/lact_llm/.cache_inductor/ef/cefubpzejppbeakjldvl645ptawxzjsteejubtqmd2vpi356rtdg.py":36:42)
#loc29 = loc("/NHNHOME/WORKSPACE/26msit001_A/jinhyeok/TTT_camera_embedding/lact_llm/.cache_inductor/ef/cefubpzejppbeakjldvl645ptawxzjsteejubtqmd2vpi356rtdg.py":36:37)
#loc30 = loc("/NHNHOME/WORKSPACE/26msit001_A/jinhyeok/TTT_camera_embedding/lact_llm/.cache_inductor/ef/cefubpzejppbeakjldvl645ptawxzjsteejubtqmd2vpi356rtdg.py":36:54)
#loc31 = loc("/NHNHOME/WORKSPACE/26msit001_A/jinhyeok/TTT_camera_embedding/lact_llm/.cache_inductor/ef/cefubpzejppbeakjldvl645ptawxzjsteejubtqmd2vpi356rtdg.py":36:47)
#loc32 = loc("/NHNHOME/WORKSPACE/26msit001_A/jinhyeok/TTT_camera_embedding/lact_llm/.cache_inductor/ef/cefubpzejppbeakjldvl645ptawxzjsteejubtqmd2vpi356rtdg.py":36:60)
#loc33 = loc("/NHNHOME/WORKSPACE/26msit001_A/jinhyeok/TTT_camera_embedding/lact_llm/.cache_inductor/ef/cefubpzejppbeakjldvl645ptawxzjsteejubtqmd2vpi356rtdg.py":36:30)
#loc34 = loc("/NHNHOME/WORKSPACE/26msit001_A/jinhyeok/TTT_camera_embedding/lact_llm/.cache_inductor/ef/cefubpzejppbeakjldvl645ptawxzjsteejubtqmd2vpi356rtdg.py":36:66)
#loc35 = loc("/NHNHOME/WORKSPACE/26msit001_A/jinhyeok/TTT_camera_embedding/lact_llm/.cache_inductor/ef/cefubpzejppbeakjldvl645ptawxzjsteejubtqmd2vpi356rtdg.py":36:116)
#loc36 = loc("/NHNHOME/WORKSPACE/26msit001_A/jinhyeok/TTT_camera_embedding/lact_llm/.cache_inductor/ef/cefubpzejppbeakjldvl645ptawxzjsteejubtqmd2vpi356rtdg.py":38:43)
#loc37 = loc("/NHNHOME/WORKSPACE/26msit001_A/jinhyeok/TTT_camera_embedding/lact_llm/.cache_inductor/ef/cefubpzejppbeakjldvl645ptawxzjsteejubtqmd2vpi356rtdg.py":38:38)
#loc38 = loc("/NHNHOME/WORKSPACE/26msit001_A/jinhyeok/TTT_camera_embedding/lact_llm/.cache_inductor/ef/cefubpzejppbeakjldvl645ptawxzjsteejubtqmd2vpi356rtdg.py":38:49)
#loc39 = loc("/NHNHOME/WORKSPACE/26msit001_A/jinhyeok/TTT_camera_embedding/lact_llm/.cache_inductor/ef/cefubpzejppbeakjldvl645ptawxzjsteejubtqmd2vpi356rtdg.py":38:31)
#loc40 = loc("/NHNHOME/WORKSPACE/26msit001_A/jinhyeok/TTT_camera_embedding/lact_llm/.cache_inductor/ef/cefubpzejppbeakjldvl645ptawxzjsteejubtqmd2vpi356rtdg.py":38:55)
#loc41 = loc("/NHNHOME/WORKSPACE/26msit001_A/jinhyeok/TTT_camera_embedding/lact_llm/.cache_inductor/ef/cefubpzejppbeakjldvl645ptawxzjsteejubtqmd2vpi356rtdg.py":39:13)
#loc42 = loc("/NHNHOME/WORKSPACE/26msit001_A/jinhyeok/TTT_camera_embedding/lact_llm/.cache_inductor/ef/cefubpzejppbeakjldvl645ptawxzjsteejubtqmd2vpi356rtdg.py":40:20)
#loc43 = loc("/NHNHOME/WORKSPACE/26msit001_A/jinhyeok/TTT_camera_embedding/lact_llm/.cache_inductor/ef/cefubpzejppbeakjldvl645ptawxzjsteejubtqmd2vpi356rtdg.py":41:19)
#loc44 = loc("/NHNHOME/WORKSPACE/26msit001_A/jinhyeok/TTT_camera_embedding/lact_llm/.cache_inductor/ef/cefubpzejppbeakjldvl645ptawxzjsteejubtqmd2vpi356rtdg.py":42:38)
#loc45 = loc("/NHNHOME/WORKSPACE/26msit001_A/jinhyeok/TTT_camera_embedding/lact_llm/.cache_inductor/ef/cefubpzejppbeakjldvl645ptawxzjsteejubtqmd2vpi356rtdg.py":43:34)
#loc46 = loc("/NHNHOME/WORKSPACE/26msit001_A/jinhyeok/TTT_camera_embedding/lact_llm/.cache_inductor/ef/cefubpzejppbeakjldvl645ptawxzjsteejubtqmd2vpi356rtdg.py":44:20)
#loc47 = loc("/NHNHOME/WORKSPACE/26msit001_A/jinhyeok/TTT_camera_embedding/lact_llm/.cache_inductor/ef/cefubpzejppbeakjldvl645ptawxzjsteejubtqmd2vpi356rtdg.py":45:31)
#loc48 = loc("/NHNHOME/WORKSPACE/26msit001_A/jinhyeok/TTT_camera_embedding/lact_llm/.cache_inductor/ef/cefubpzejppbeakjldvl645ptawxzjsteejubtqmd2vpi356rtdg.py":46:19)
#loc49 = loc("/NHNHOME/WORKSPACE/26msit001_A/jinhyeok/TTT_camera_embedding/lact_llm/.cache_inductor/ef/cefubpzejppbeakjldvl645ptawxzjsteejubtqmd2vpi356rtdg.py":47:36)
#loc50 = loc("/NHNHOME/WORKSPACE/26msit001_A/jinhyeok/TTT_camera_embedding/lact_llm/.cache_inductor/ef/cefubpzejppbeakjldvl645ptawxzjsteejubtqmd2vpi356rtdg.py":47:48)
#loc51 = loc("/NHNHOME/WORKSPACE/26msit001_A/jinhyeok/TTT_camera_embedding/lact_llm/.cache_inductor/ef/cefubpzejppbeakjldvl645ptawxzjsteejubtqmd2vpi356rtdg.py":47:41)
#loc52 = loc("/NHNHOME/WORKSPACE/26msit001_A/jinhyeok/TTT_camera_embedding/lact_llm/.cache_inductor/ef/cefubpzejppbeakjldvl645ptawxzjsteejubtqmd2vpi356rtdg.py":47:64)
#loc53 = loc("/NHNHOME/WORKSPACE/26msit001_A/jinhyeok/TTT_camera_embedding/lact_llm/.cache_inductor/ef/cefubpzejppbeakjldvl645ptawxzjsteejubtqmd2vpi356rtdg.py":47:54)
#loc54 = loc("/NHNHOME/WORKSPACE/26msit001_A/jinhyeok/TTT_camera_embedding/lact_llm/.cache_inductor/ef/cefubpzejppbeakjldvl645ptawxzjsteejubtqmd2vpi356rtdg.py":47:31)
#loc55 = loc("/NHNHOME/WORKSPACE/26msit001_A/jinhyeok/TTT_camera_embedding/lact_llm/.cache_inductor/ef/cefubpzejppbeakjldvl645ptawxzjsteejubtqmd2vpi356rtdg.py":47:70)
#loc56 = loc("/NHNHOME/WORKSPACE/26msit001_A/jinhyeok/TTT_camera_embedding/lact_llm/.cache_inductor/ef/cefubpzejppbeakjldvl645ptawxzjsteejubtqmd2vpi356rtdg.py":47:121)
#loc57 = loc("/NHNHOME/WORKSPACE/26msit001_A/jinhyeok/TTT_camera_embedding/lact_llm/.cache_inductor/ef/cefubpzejppbeakjldvl645ptawxzjsteejubtqmd2vpi356rtdg.py":49:43)
#loc58 = loc("/NHNHOME/WORKSPACE/26msit001_A/jinhyeok/TTT_camera_embedding/lact_llm/.cache_inductor/ef/cefubpzejppbeakjldvl645ptawxzjsteejubtqmd2vpi356rtdg.py":49:38)
#loc59 = loc("/NHNHOME/WORKSPACE/26msit001_A/jinhyeok/TTT_camera_embedding/lact_llm/.cache_inductor/ef/cefubpzejppbeakjldvl645ptawxzjsteejubtqmd2vpi356rtdg.py":49:59)
#loc60 = loc("/NHNHOME/WORKSPACE/26msit001_A/jinhyeok/TTT_camera_embedding/lact_llm/.cache_inductor/ef/cefubpzejppbeakjldvl645ptawxzjsteejubtqmd2vpi356rtdg.py":49:49)
#loc61 = loc("/NHNHOME/WORKSPACE/26msit001_A/jinhyeok/TTT_camera_embedding/lact_llm/.cache_inductor/ef/cefubpzejppbeakjldvl645ptawxzjsteejubtqmd2vpi356rtdg.py":49:31)
#loc62 = loc("/NHNHOME/WORKSPACE/26msit001_A/jinhyeok/TTT_camera_embedding/lact_llm/.cache_inductor/ef/cefubpzejppbeakjldvl645ptawxzjsteejubtqmd2vpi356rtdg.py":49:65)
#loc63 = loc("/NHNHOME/WORKSPACE/26msit001_A/jinhyeok/TTT_camera_embedding/lact_llm/.cache_inductor/ef/cefubpzejppbeakjldvl645ptawxzjsteejubtqmd2vpi356rtdg.py":50:13)
#loc64 = loc("/NHNHOME/WORKSPACE/26msit001_A/jinhyeok/TTT_camera_embedding/lact_llm/.cache_inductor/ef/cefubpzejppbeakjldvl645ptawxzjsteejubtqmd2vpi356rtdg.py":51:20)
#loc65 = loc("/NHNHOME/WORKSPACE/26msit001_A/jinhyeok/TTT_camera_embedding/lact_llm/.cache_inductor/ef/cefubpzejppbeakjldvl645ptawxzjsteejubtqmd2vpi356rtdg.py":52:43)
#loc66 = loc("/NHNHOME/WORKSPACE/26msit001_A/jinhyeok/TTT_camera_embedding/lact_llm/.cache_inductor/ef/cefubpzejppbeakjldvl645ptawxzjsteejubtqmd2vpi356rtdg.py":52:38)
#loc67 = loc("/NHNHOME/WORKSPACE/26msit001_A/jinhyeok/TTT_camera_embedding/lact_llm/.cache_inductor/ef/cefubpzejppbeakjldvl645ptawxzjsteejubtqmd2vpi356rtdg.py":52:55)
#loc68 = loc("/NHNHOME/WORKSPACE/26msit001_A/jinhyeok/TTT_camera_embedding/lact_llm/.cache_inductor/ef/cefubpzejppbeakjldvl645ptawxzjsteejubtqmd2vpi356rtdg.py":52:48)
#loc69 = loc("/NHNHOME/WORKSPACE/26msit001_A/jinhyeok/TTT_camera_embedding/lact_llm/.cache_inductor/ef/cefubpzejppbeakjldvl645ptawxzjsteejubtqmd2vpi356rtdg.py":52:71)
#loc70 = loc("/NHNHOME/WORKSPACE/26msit001_A/jinhyeok/TTT_camera_embedding/lact_llm/.cache_inductor/ef/cefubpzejppbeakjldvl645ptawxzjsteejubtqmd2vpi356rtdg.py":52:61)
#loc71 = loc("/NHNHOME/WORKSPACE/26msit001_A/jinhyeok/TTT_camera_embedding/lact_llm/.cache_inductor/ef/cefubpzejppbeakjldvl645ptawxzjsteejubtqmd2vpi356rtdg.py":52:31)
#loc72 = loc("/NHNHOME/WORKSPACE/26msit001_A/jinhyeok/TTT_camera_embedding/lact_llm/.cache_inductor/ef/cefubpzejppbeakjldvl645ptawxzjsteejubtqmd2vpi356rtdg.py":52:77)
#loc73 = loc("/NHNHOME/WORKSPACE/26msit001_A/jinhyeok/TTT_camera_embedding/lact_llm/.cache_inductor/ef/cefubpzejppbeakjldvl645ptawxzjsteejubtqmd2vpi356rtdg.py":52:128)
#loc74 = loc("/NHNHOME/WORKSPACE/26msit001_A/jinhyeok/TTT_camera_embedding/lact_llm/.cache_inductor/ef/cefubpzejppbeakjldvl645ptawxzjsteejubtqmd2vpi356rtdg.py":54:43)
#loc75 = loc("/NHNHOME/WORKSPACE/26msit001_A/jinhyeok/TTT_camera_embedding/lact_llm/.cache_inductor/ef/cefubpzejppbeakjldvl645ptawxzjsteejubtqmd2vpi356rtdg.py":54:38)
#loc76 = loc("/NHNHOME/WORKSPACE/26msit001_A/jinhyeok/TTT_camera_embedding/lact_llm/.cache_inductor/ef/cefubpzejppbeakjldvl645ptawxzjsteejubtqmd2vpi356rtdg.py":54:59)
#loc77 = loc("/NHNHOME/WORKSPACE/26msit001_A/jinhyeok/TTT_camera_embedding/lact_llm/.cache_inductor/ef/cefubpzejppbeakjldvl645ptawxzjsteejubtqmd2vpi356rtdg.py":54:49)
#loc78 = loc("/NHNHOME/WORKSPACE/26msit001_A/jinhyeok/TTT_camera_embedding/lact_llm/.cache_inductor/ef/cefubpzejppbeakjldvl645ptawxzjsteejubtqmd2vpi356rtdg.py":54:31)
#loc79 = loc("/NHNHOME/WORKSPACE/26msit001_A/jinhyeok/TTT_camera_embedding/lact_llm/.cache_inductor/ef/cefubpzejppbeakjldvl645ptawxzjsteejubtqmd2vpi356rtdg.py":54:65)
#loc80 = loc("/NHNHOME/WORKSPACE/26msit001_A/jinhyeok/TTT_camera_embedding/lact_llm/.cache_inductor/ef/cefubpzejppbeakjldvl645ptawxzjsteejubtqmd2vpi356rtdg.py":55:20)
#loc81 = loc("/NHNHOME/WORKSPACE/26msit001_A/jinhyeok/TTT_camera_embedding/lact_llm/.cache_inductor/ef/cefubpzejppbeakjldvl645ptawxzjsteejubtqmd2vpi356rtdg.py":56:20)
#loc82 = loc("/NHNHOME/WORKSPACE/26msit001_A/jinhyeok/TTT_camera_embedding/lact_llm/.cache_inductor/ef/cefubpzejppbeakjldvl645ptawxzjsteejubtqmd2vpi356rtdg.py":57:38)
#loc83 = loc("/NHNHOME/WORKSPACE/26msit001_A/jinhyeok/TTT_camera_embedding/lact_llm/.cache_inductor/ef/cefubpzejppbeakjldvl645ptawxzjsteejubtqmd2vpi356rtdg.py":58:35)
#loc84 = loc("/NHNHOME/WORKSPACE/26msit001_A/jinhyeok/TTT_camera_embedding/lact_llm/.cache_inductor/ef/cefubpzejppbeakjldvl645ptawxzjsteejubtqmd2vpi356rtdg.py":59:34)
#loc85 = loc("/NHNHOME/WORKSPACE/26msit001_A/jinhyeok/TTT_camera_embedding/lact_llm/.cache_inductor/ef/cefubpzejppbeakjldvl645ptawxzjsteejubtqmd2vpi356rtdg.py":60:25)
#loc86 = loc("/NHNHOME/WORKSPACE/26msit001_A/jinhyeok/TTT_camera_embedding/lact_llm/.cache_inductor/ef/cefubpzejppbeakjldvl645ptawxzjsteejubtqmd2vpi356rtdg.py":60:37)
#loc87 = loc("/NHNHOME/WORKSPACE/26msit001_A/jinhyeok/TTT_camera_embedding/lact_llm/.cache_inductor/ef/cefubpzejppbeakjldvl645ptawxzjsteejubtqmd2vpi356rtdg.py":60:4)
#loc93 = loc("xnumel"(#loc1))
#loc94 = loc("xoffset"(#loc2))
#loc95 = loc("xoffset"(#loc3))
#loc96 = loc("xindex"(#loc4))
#loc97 = loc("xindex"(#loc5))
#loc98 = loc("xmask"(#loc6))
#loc99 = loc("x0"(#loc7))
#loc100 = loc("x1"(#loc8))
#loc101 = loc("x1"(#loc9))
#loc102 = loc("x2"(#loc10))
#loc103 = loc("tmp1"(#loc11))
#loc104 = loc("tmp2"(#loc12))
#loc105 = loc("tmp3"(#loc13))
#loc106 = loc("tmp4"(#loc14))
#loc107 = loc("tmp5"(#loc15))
#loc108 = loc("tmp5"(#loc16))
#loc109 = loc("tmp5"(#loc17))
#loc110 = loc("tmp5"(#loc18))
#loc111 = loc("tmp5"(#loc19))
#loc112 = loc("tmp5"(#loc20))
#loc113 = loc("tmp5"(#loc21))
#loc114 = loc("tmp7"(#loc22))
#loc115 = loc("tmp7"(#loc23))
#loc116 = loc("tmp7"(#loc24))
#loc117 = loc("tmp7"(#loc25))
#loc118 = loc("tmp7"(#loc26))
#loc119 = loc("tmp8"(#loc27))
#loc120 = loc("tmp9"(#loc28))
#loc121 = loc("tmp9"(#loc29))
#loc122 = loc("tmp9"(#loc30))
#loc123 = loc("tmp9"(#loc31))
#loc124 = loc("tmp9"(#loc32))
#loc125 = loc("tmp9"(#loc33))
#loc126 = loc("tmp9"(#loc34))
#loc127 = loc("tmp9"(#loc35))
#loc128 = loc("tmp11"(#loc36))
#loc129 = loc("tmp11"(#loc37))
#loc130 = loc("tmp11"(#loc38))
#loc131 = loc("tmp11"(#loc39))
#loc132 = loc("tmp11"(#loc40))
#loc133 = loc("tmp12"(#loc41))
#loc134 = loc("tmp13"(#loc42))
#loc135 = loc("tmp14"(#loc43))
#loc136 = loc("tmp15"(#loc44))
#loc137 = loc("tmp16"(#loc45))
#loc138 = loc("tmp17"(#loc46))
#loc139 = loc("tmp18"(#loc47))
#loc140 = loc("tmp19"(#loc48))
#loc141 = loc("tmp20"(#loc49))
#loc142 = loc("tmp20"(#loc50))
#loc143 = loc("tmp20"(#loc51))
#loc144 = loc("tmp20"(#loc52))
#loc145 = loc("tmp20"(#loc53))
#loc146 = loc("tmp20"(#loc54))
#loc147 = loc("tmp20"(#loc55))
#loc148 = loc("tmp20"(#loc56))
#loc149 = loc("tmp22"(#loc57))
#loc150 = loc("tmp22"(#loc58))
#loc151 = loc("tmp22"(#loc59))
#loc152 = loc("tmp22"(#loc60))
#loc153 = loc("tmp22"(#loc61))
#loc154 = loc("tmp22"(#loc62))
#loc155 = loc("tmp23"(#loc63))
#loc156 = loc("tmp24"(#loc64))
#loc157 = loc("tmp25"(#loc65))
#loc158 = loc("tmp25"(#loc66))
#loc159 = loc("tmp25"(#loc67))
#loc160 = loc("tmp25"(#loc68))
#loc161 = loc("tmp25"(#loc69))
#loc162 = loc("tmp25"(#loc70))
#loc163 = loc("tmp25"(#loc71))
#loc164 = loc("tmp25"(#loc72))
#loc165 = loc("tmp25"(#loc73))
#loc166 = loc("tmp27"(#loc74))
#loc167 = loc("tmp27"(#loc75))
#loc168 = loc("tmp27"(#loc76))
#loc169 = loc("tmp27"(#loc77))
#loc170 = loc("tmp27"(#loc78))
#loc171 = loc("tmp27"(#loc79))
#loc172 = loc("tmp28"(#loc80))
#loc173 = loc("tmp29"(#loc81))
#loc174 = loc("tmp30"(#loc82))
#loc175 = loc("tmp31"(#loc83))
#loc176 = loc("tmp32"(#loc84))
