#loc = loc("/NHNHOME/WORKSPACE/26msit001_A/jinhyeok/TTT_camera_embedding/lact_llm/.cache_inductor/ef/cefubpzejppbeakjldvl645ptawxzjsteejubtqmd2vpi356rtdg.py":18:0)
#loc60 = loc("in_ptr0"(#loc))
#loc61 = loc("in_ptr1"(#loc))
#loc62 = loc("in_ptr2"(#loc))
#loc63 = loc("out_ptr0"(#loc))
#loc64 = loc("xnumel"(#loc))
module {
  tt.func public @triton_poi_fused__to_copy_add_mul_neg_select_slice_stack_sub_unsqueeze_view_39(%in_ptr0: !tt.ptr<bf16> {tt.divisibility = 16 : i32} loc("in_ptr0"(#loc)), %in_ptr1: !tt.ptr<f32> {tt.divisibility = 16 : i32} loc("in_ptr1"(#loc)), %in_ptr2: !tt.ptr<f32> {tt.divisibility = 16 : i32} loc("in_ptr2"(#loc)), %out_ptr0: !tt.ptr<f32> {tt.divisibility = 16 : i32} loc("out_ptr0"(#loc)), %xnumel: i32 {tt.divisibility = 16 : i32} loc("xnumel"(#loc))) attributes {noinline = false} {
    %cst = arith.constant dense<0.000000e+00> : tensor<1024xbf16> loc(#loc1)
    %cst_0 = arith.constant dense<-1024> : tensor<1024xi32> loc(#loc1)
    %cst_1 = arith.constant dense<1024> : tensor<1024xi32> loc(#loc1)
    %cst_2 = arith.constant dense<4096> : tensor<1024xi32> loc(#loc1)
    %cst_3 = arith.constant dense<0.000000e+00> : tensor<1024xf32> loc(#loc1)
    %cst_4 = arith.constant dense<196608> : tensor<1024xi32> loc(#loc1)
    %cst_5 = arith.constant dense<1024> : tensor<1024xi64> loc(#loc1)
    %x2 = arith.constant dense<98304> : tensor<1024xi32> loc(#loc65)
    %x1 = arith.constant dense<48> : tensor<1024xi32> loc(#loc66)
    %cst_6 = arith.constant dense<2048> : tensor<1024xi32> loc(#loc1)
    %c1024_i32 = arith.constant 1024 : i32 loc(#loc1)
    %xoffset = tt.get_program_id x : i32 loc(#loc67)
    %xoffset_7 = arith.muli %xoffset, %c1024_i32 : i32 loc(#loc68)
    %xindex = tt.make_range {end = 1024 : i32, start = 0 : i32} : tensor<1024xi32> loc(#loc69)
    %xindex_8 = tt.splat %xoffset_7 : i32 -> tensor<1024xi32> loc(#loc70)
    %xindex_9 = arith.addi %xindex_8, %xindex : tensor<1024xi32> loc(#loc70)
    %x0 = arith.remsi %xindex_9, %cst_6 : tensor<1024xi32> loc(#loc71)
    %x1_10 = arith.divsi %xindex_9, %cst_6 : tensor<1024xi32> loc(#loc72)
    %x1_11 = arith.remsi %x1_10, %x1 : tensor<1024xi32> loc(#loc66)
    %x2_12 = arith.divsi %xindex_9, %x2 : tensor<1024xi32> loc(#loc65)
    %tmp4 = arith.extsi %x0 : tensor<1024xi32> to tensor<1024xi64> loc(#loc73)
    %tmp4_13 = arith.cmpi slt, %tmp4, %cst_5 : tensor<1024xi64> loc(#loc73)
    %tmp5 = arith.muli %x1_11, %cst_6 : tensor<1024xi32> loc(#loc74)
    %tmp5_14 = arith.muli %x2_12, %cst_4 : tensor<1024xi32> loc(#loc75)
    %tmp5_15 = arith.addi %tmp5, %tmp5_14 : tensor<1024xi32> loc(#loc76)
    %tmp5_16 = arith.addi %tmp5_15, %x0 : tensor<1024xi32> loc(#loc77)
    %tmp5_17 = tt.splat %in_ptr0 : !tt.ptr<bf16> -> tensor<1024x!tt.ptr<bf16>> loc(#loc78)
    %tmp5_18 = tt.addptr %tmp5_17, %tmp5_16 : tensor<1024x!tt.ptr<bf16>>, tensor<1024xi32> loc(#loc78)
    %tmp5_19 = tt.load %tmp5_18, %tmp4_13, %cst evictionPolicy = evict_last : tensor<1024x!tt.ptr<bf16>> loc(#loc79)
    %tmp5_20 = arith.extf %tmp5_19 : tensor<1024xbf16> to tensor<1024xf32> loc(#loc80)
    %tmp7 = arith.muli %x1_11, %cst_2 : tensor<1024xi32> loc(#loc81)
    %tmp7_21 = arith.addi %tmp7, %cst_1 : tensor<1024xi32> loc(#loc82)
    %tmp7_22 = arith.addi %tmp7_21, %x0 : tensor<1024xi32> loc(#loc83)
    %tmp7_23 = tt.splat %in_ptr1 : !tt.ptr<f32> -> tensor<1024x!tt.ptr<f32>> loc(#loc84)
    %tmp7_24 = tt.addptr %tmp7_23, %tmp7_22 : tensor<1024x!tt.ptr<f32>>, tensor<1024xi32> loc(#loc84)
    %tmp7_25 = tt.load %tmp7_24, %tmp4_13, %cst_3 evictionPolicy = evict_last : tensor<1024x!tt.ptr<f32>> loc(#loc85)
    %tmp8 = arith.mulf %tmp5_20, %tmp7_25 : tensor<1024xf32> loc(#loc86)
    %tmp9 = arith.addi %tmp5, %cst_1 : tensor<1024xi32> loc(#loc87)
    %tmp9_26 = arith.addi %tmp9, %tmp5_14 : tensor<1024xi32> loc(#loc88)
    %tmp9_27 = arith.addi %tmp9_26, %x0 : tensor<1024xi32> loc(#loc89)
    %tmp9_28 = tt.addptr %tmp5_17, %tmp9_27 : tensor<1024x!tt.ptr<bf16>>, tensor<1024xi32> loc(#loc90)
    %tmp9_29 = tt.load %tmp9_28, %tmp4_13, %cst evictionPolicy = evict_last : tensor<1024x!tt.ptr<bf16>> loc(#loc91)
    %tmp9_30 = arith.extf %tmp9_29 : tensor<1024xbf16> to tensor<1024xf32> loc(#loc92)
    %tmp11 = tt.splat %in_ptr2 : !tt.ptr<f32> -> tensor<1024x!tt.ptr<f32>> loc(#loc93)
    %tmp11_31 = tt.addptr %tmp11, %tmp7_22 : tensor<1024x!tt.ptr<f32>>, tensor<1024xi32> loc(#loc93)
    %tmp11_32 = tt.load %tmp11_31, %tmp4_13, %cst_3 evictionPolicy = evict_last : tensor<1024x!tt.ptr<f32>> loc(#loc94)
    %tmp12 = arith.subf %cst_3, %tmp11_32 : tensor<1024xf32> loc(#loc95)
    %tmp13 = arith.mulf %tmp9_30, %tmp12 : tensor<1024xf32> loc(#loc96)
    %tmp14 = arith.subf %tmp8, %tmp13 : tensor<1024xf32> loc(#loc97)
    %tmp17 = arith.cmpi sge, %tmp4, %cst_5 : tensor<1024xi64> loc(#loc98)
    %tmp20 = arith.addi %x0, %cst_0 : tensor<1024xi32> loc(#loc99)
    %tmp20_33 = arith.addi %tmp5_15, %tmp20 : tensor<1024xi32> loc(#loc100)
    %tmp20_34 = tt.addptr %tmp5_17, %tmp20_33 : tensor<1024x!tt.ptr<bf16>>, tensor<1024xi32> loc(#loc101)
    %tmp20_35 = tt.load %tmp20_34, %tmp17, %cst evictionPolicy = evict_last : tensor<1024x!tt.ptr<bf16>> loc(#loc102)
    %tmp20_36 = arith.extf %tmp20_35 : tensor<1024xbf16> to tensor<1024xf32> loc(#loc103)
    %tmp22 = arith.addi %tmp7_21, %tmp20 : tensor<1024xi32> loc(#loc104)
    %tmp22_37 = tt.addptr %tmp11, %tmp22 : tensor<1024x!tt.ptr<f32>>, tensor<1024xi32> loc(#loc105)
    %tmp22_38 = tt.load %tmp22_37, %tmp17, %cst_3 evictionPolicy = evict_last : tensor<1024x!tt.ptr<f32>> loc(#loc106)
    %tmp23 = arith.subf %cst_3, %tmp22_38 : tensor<1024xf32> loc(#loc107)
    %tmp24 = arith.mulf %tmp20_36, %tmp23 : tensor<1024xf32> loc(#loc108)
    %tmp25 = arith.addi %tmp9_26, %tmp20 : tensor<1024xi32> loc(#loc109)
    %tmp25_39 = tt.addptr %tmp5_17, %tmp25 : tensor<1024x!tt.ptr<bf16>>, tensor<1024xi32> loc(#loc110)
    %tmp25_40 = tt.load %tmp25_39, %tmp17, %cst evictionPolicy = evict_last : tensor<1024x!tt.ptr<bf16>> loc(#loc111)
    %tmp25_41 = arith.extf %tmp25_40 : tensor<1024xbf16> to tensor<1024xf32> loc(#loc112)
    %tmp27 = tt.addptr %tmp7_23, %tmp22 : tensor<1024x!tt.ptr<f32>>, tensor<1024xi32> loc(#loc113)
    %tmp27_42 = tt.load %tmp27, %tmp17, %cst_3 evictionPolicy = evict_last : tensor<1024x!tt.ptr<f32>> loc(#loc114)
    %tmp28 = arith.mulf %tmp25_41, %tmp27_42 : tensor<1024xf32> loc(#loc115)
    %tmp29 = arith.addf %tmp24, %tmp28 : tensor<1024xf32> loc(#loc116)
    %tmp31 = arith.select %tmp17, %tmp29, %cst_3 : tensor<1024xi1>, tensor<1024xf32> loc(#loc117)
    %tmp32 = arith.select %tmp4_13, %tmp14, %tmp31 : tensor<1024xi1>, tensor<1024xf32> loc(#loc120)
    %0 = tt.splat %out_ptr0 : !tt.ptr<f32> -> tensor<1024x!tt.ptr<f32>> loc(#loc57)
    %1 = tt.addptr %0, %xindex_9 : tensor<1024x!tt.ptr<f32>>, tensor<1024xi32> loc(#loc57)
    tt.store %1, %tmp32 : tensor<1024x!tt.ptr<f32>> loc(#loc58)
    tt.return loc(#loc59)
  } loc(#loc)
} loc(#loc)
#loc1 = loc(unknown)
#loc2 = loc("/NHNHOME/WORKSPACE/26msit001_A/jinhyeok/TTT_camera_embedding/lact_llm/.cache_inductor/ef/cefubpzejppbeakjldvl645ptawxzjsteejubtqmd2vpi356rtdg.py":25:19)
#loc3 = loc("/NHNHOME/WORKSPACE/26msit001_A/jinhyeok/TTT_camera_embedding/lact_llm/.cache_inductor/ef/cefubpzejppbeakjldvl645ptawxzjsteejubtqmd2vpi356rtdg.py":24:29)
#loc4 = loc("/NHNHOME/WORKSPACE/26msit001_A/jinhyeok/TTT_camera_embedding/lact_llm/.cache_inductor/ef/cefubpzejppbeakjldvl645ptawxzjsteejubtqmd2vpi356rtdg.py":20:28)
#loc5 = loc("/NHNHOME/WORKSPACE/26msit001_A/jinhyeok/TTT_camera_embedding/lact_llm/.cache_inductor/ef/cefubpzejppbeakjldvl645ptawxzjsteejubtqmd2vpi356rtdg.py":20:33)
#loc6 = loc("/NHNHOME/WORKSPACE/26msit001_A/jinhyeok/TTT_camera_embedding/lact_llm/.cache_inductor/ef/cefubpzejppbeakjldvl645ptawxzjsteejubtqmd2vpi356rtdg.py":21:36)
#loc7 = loc("/NHNHOME/WORKSPACE/26msit001_A/jinhyeok/TTT_camera_embedding/lact_llm/.cache_inductor/ef/cefubpzejppbeakjldvl645ptawxzjsteejubtqmd2vpi356rtdg.py":21:23)
#loc8 = loc("/NHNHOME/WORKSPACE/26msit001_A/jinhyeok/TTT_camera_embedding/lact_llm/.cache_inductor/ef/cefubpzejppbeakjldvl645ptawxzjsteejubtqmd2vpi356rtdg.py":23:19)
#loc9 = loc("/NHNHOME/WORKSPACE/26msit001_A/jinhyeok/TTT_camera_embedding/lact_llm/.cache_inductor/ef/cefubpzejppbeakjldvl645ptawxzjsteejubtqmd2vpi356rtdg.py":24:21)
#loc10 = loc("/NHNHOME/WORKSPACE/26msit001_A/jinhyeok/TTT_camera_embedding/lact_llm/.cache_inductor/ef/cefubpzejppbeakjldvl645ptawxzjsteejubtqmd2vpi356rtdg.py":31:18)
#loc11 = loc("/NHNHOME/WORKSPACE/26msit001_A/jinhyeok/TTT_camera_embedding/lact_llm/.cache_inductor/ef/cefubpzejppbeakjldvl645ptawxzjsteejubtqmd2vpi356rtdg.py":32:35)
#loc12 = loc("/NHNHOME/WORKSPACE/26msit001_A/jinhyeok/TTT_camera_embedding/lact_llm/.cache_inductor/ef/cefubpzejppbeakjldvl645ptawxzjsteejubtqmd2vpi356rtdg.py":32:47)
#loc13 = loc("/NHNHOME/WORKSPACE/26msit001_A/jinhyeok/TTT_camera_embedding/lact_llm/.cache_inductor/ef/cefubpzejppbeakjldvl645ptawxzjsteejubtqmd2vpi356rtdg.py":32:40)
#loc14 = loc("/NHNHOME/WORKSPACE/26msit001_A/jinhyeok/TTT_camera_embedding/lact_llm/.cache_inductor/ef/cefubpzejppbeakjldvl645ptawxzjsteejubtqmd2vpi356rtdg.py":32:53)
#loc15 = loc("/NHNHOME/WORKSPACE/26msit001_A/jinhyeok/TTT_camera_embedding/lact_llm/.cache_inductor/ef/cefubpzejppbeakjldvl645ptawxzjsteejubtqmd2vpi356rtdg.py":32:30)
#loc16 = loc("/NHNHOME/WORKSPACE/26msit001_A/jinhyeok/TTT_camera_embedding/lact_llm/.cache_inductor/ef/cefubpzejppbeakjldvl645ptawxzjsteejubtqmd2vpi356rtdg.py":32:59)
#loc17 = loc("/NHNHOME/WORKSPACE/26msit001_A/jinhyeok/TTT_camera_embedding/lact_llm/.cache_inductor/ef/cefubpzejppbeakjldvl645ptawxzjsteejubtqmd2vpi356rtdg.py":32:109)
#loc18 = loc("/NHNHOME/WORKSPACE/26msit001_A/jinhyeok/TTT_camera_embedding/lact_llm/.cache_inductor/ef/cefubpzejppbeakjldvl645ptawxzjsteejubtqmd2vpi356rtdg.py":34:42)
#loc19 = loc("/NHNHOME/WORKSPACE/26msit001_A/jinhyeok/TTT_camera_embedding/lact_llm/.cache_inductor/ef/cefubpzejppbeakjldvl645ptawxzjsteejubtqmd2vpi356rtdg.py":34:37)
#loc20 = loc("/NHNHOME/WORKSPACE/26msit001_A/jinhyeok/TTT_camera_embedding/lact_llm/.cache_inductor/ef/cefubpzejppbeakjldvl645ptawxzjsteejubtqmd2vpi356rtdg.py":34:48)
#loc21 = loc("/NHNHOME/WORKSPACE/26msit001_A/jinhyeok/TTT_camera_embedding/lact_llm/.cache_inductor/ef/cefubpzejppbeakjldvl645ptawxzjsteejubtqmd2vpi356rtdg.py":34:30)
#loc22 = loc("/NHNHOME/WORKSPACE/26msit001_A/jinhyeok/TTT_camera_embedding/lact_llm/.cache_inductor/ef/cefubpzejppbeakjldvl645ptawxzjsteejubtqmd2vpi356rtdg.py":34:54)
#loc23 = loc("/NHNHOME/WORKSPACE/26msit001_A/jinhyeok/TTT_camera_embedding/lact_llm/.cache_inductor/ef/cefubpzejppbeakjldvl645ptawxzjsteejubtqmd2vpi356rtdg.py":35:18)
#loc24 = loc("/NHNHOME/WORKSPACE/26msit001_A/jinhyeok/TTT_camera_embedding/lact_llm/.cache_inductor/ef/cefubpzejppbeakjldvl645ptawxzjsteejubtqmd2vpi356rtdg.py":36:37)
#loc25 = loc("/NHNHOME/WORKSPACE/26msit001_A/jinhyeok/TTT_camera_embedding/lact_llm/.cache_inductor/ef/cefubpzejppbeakjldvl645ptawxzjsteejubtqmd2vpi356rtdg.py":36:47)
#loc26 = loc("/NHNHOME/WORKSPACE/26msit001_A/jinhyeok/TTT_camera_embedding/lact_llm/.cache_inductor/ef/cefubpzejppbeakjldvl645ptawxzjsteejubtqmd2vpi356rtdg.py":36:60)
#loc27 = loc("/NHNHOME/WORKSPACE/26msit001_A/jinhyeok/TTT_camera_embedding/lact_llm/.cache_inductor/ef/cefubpzejppbeakjldvl645ptawxzjsteejubtqmd2vpi356rtdg.py":36:30)
#loc28 = loc("/NHNHOME/WORKSPACE/26msit001_A/jinhyeok/TTT_camera_embedding/lact_llm/.cache_inductor/ef/cefubpzejppbeakjldvl645ptawxzjsteejubtqmd2vpi356rtdg.py":36:66)
#loc29 = loc("/NHNHOME/WORKSPACE/26msit001_A/jinhyeok/TTT_camera_embedding/lact_llm/.cache_inductor/ef/cefubpzejppbeakjldvl645ptawxzjsteejubtqmd2vpi356rtdg.py":36:116)
#loc30 = loc("/NHNHOME/WORKSPACE/26msit001_A/jinhyeok/TTT_camera_embedding/lact_llm/.cache_inductor/ef/cefubpzejppbeakjldvl645ptawxzjsteejubtqmd2vpi356rtdg.py":38:31)
#loc31 = loc("/NHNHOME/WORKSPACE/26msit001_A/jinhyeok/TTT_camera_embedding/lact_llm/.cache_inductor/ef/cefubpzejppbeakjldvl645ptawxzjsteejubtqmd2vpi356rtdg.py":38:55)
#loc32 = loc("/NHNHOME/WORKSPACE/26msit001_A/jinhyeok/TTT_camera_embedding/lact_llm/.cache_inductor/ef/cefubpzejppbeakjldvl645ptawxzjsteejubtqmd2vpi356rtdg.py":39:13)
#loc33 = loc("/NHNHOME/WORKSPACE/26msit001_A/jinhyeok/TTT_camera_embedding/lact_llm/.cache_inductor/ef/cefubpzejppbeakjldvl645ptawxzjsteejubtqmd2vpi356rtdg.py":40:20)
#loc34 = loc("/NHNHOME/WORKSPACE/26msit001_A/jinhyeok/TTT_camera_embedding/lact_llm/.cache_inductor/ef/cefubpzejppbeakjldvl645ptawxzjsteejubtqmd2vpi356rtdg.py":41:19)
#loc35 = loc("/NHNHOME/WORKSPACE/26msit001_A/jinhyeok/TTT_camera_embedding/lact_llm/.cache_inductor/ef/cefubpzejppbeakjldvl645ptawxzjsteejubtqmd2vpi356rtdg.py":44:20)
#loc36 = loc("/NHNHOME/WORKSPACE/26msit001_A/jinhyeok/TTT_camera_embedding/lact_llm/.cache_inductor/ef/cefubpzejppbeakjldvl645ptawxzjsteejubtqmd2vpi356rtdg.py":47:64)
#loc37 = loc("/NHNHOME/WORKSPACE/26msit001_A/jinhyeok/TTT_camera_embedding/lact_llm/.cache_inductor/ef/cefubpzejppbeakjldvl645ptawxzjsteejubtqmd2vpi356rtdg.py":47:54)
#loc38 = loc("/NHNHOME/WORKSPACE/26msit001_A/jinhyeok/TTT_camera_embedding/lact_llm/.cache_inductor/ef/cefubpzejppbeakjldvl645ptawxzjsteejubtqmd2vpi356rtdg.py":47:31)
#loc39 = loc("/NHNHOME/WORKSPACE/26msit001_A/jinhyeok/TTT_camera_embedding/lact_llm/.cache_inductor/ef/cefubpzejppbeakjldvl645ptawxzjsteejubtqmd2vpi356rtdg.py":47:70)
#loc40 = loc("/NHNHOME/WORKSPACE/26msit001_A/jinhyeok/TTT_camera_embedding/lact_llm/.cache_inductor/ef/cefubpzejppbeakjldvl645ptawxzjsteejubtqmd2vpi356rtdg.py":47:121)
#loc41 = loc("/NHNHOME/WORKSPACE/26msit001_A/jinhyeok/TTT_camera_embedding/lact_llm/.cache_inductor/ef/cefubpzejppbeakjldvl645ptawxzjsteejubtqmd2vpi356rtdg.py":49:49)
#loc42 = loc("/NHNHOME/WORKSPACE/26msit001_A/jinhyeok/TTT_camera_embedding/lact_llm/.cache_inductor/ef/cefubpzejppbeakjldvl645ptawxzjsteejubtqmd2vpi356rtdg.py":49:31)
#loc43 = loc("/NHNHOME/WORKSPACE/26msit001_A/jinhyeok/TTT_camera_embedding/lact_llm/.cache_inductor/ef/cefubpzejppbeakjldvl645ptawxzjsteejubtqmd2vpi356rtdg.py":49:65)
#loc44 = loc("/NHNHOME/WORKSPACE/26msit001_A/jinhyeok/TTT_camera_embedding/lact_llm/.cache_inductor/ef/cefubpzejppbeakjldvl645ptawxzjsteejubtqmd2vpi356rtdg.py":50:13)
#loc45 = loc("/NHNHOME/WORKSPACE/26msit001_A/jinhyeok/TTT_camera_embedding/lact_llm/.cache_inductor/ef/cefubpzejppbeakjldvl645ptawxzjsteejubtqmd2vpi356rtdg.py":51:20)
#loc46 = loc("/NHNHOME/WORKSPACE/26msit001_A/jinhyeok/TTT_camera_embedding/lact_llm/.cache_inductor/ef/cefubpzejppbeakjldvl645ptawxzjsteejubtqmd2vpi356rtdg.py":52:61)
#loc47 = loc("/NHNHOME/WORKSPACE/26msit001_A/jinhyeok/TTT_camera_embedding/lact_llm/.cache_inductor/ef/cefubpzejppbeakjldvl645ptawxzjsteejubtqmd2vpi356rtdg.py":52:31)
#loc48 = loc("/NHNHOME/WORKSPACE/26msit001_A/jinhyeok/TTT_camera_embedding/lact_llm/.cache_inductor/ef/cefubpzejppbeakjldvl645ptawxzjsteejubtqmd2vpi356rtdg.py":52:77)
#loc49 = loc("/NHNHOME/WORKSPACE/26msit001_A/jinhyeok/TTT_camera_embedding/lact_llm/.cache_inductor/ef/cefubpzejppbeakjldvl645ptawxzjsteejubtqmd2vpi356rtdg.py":52:128)
#loc50 = loc("/NHNHOME/WORKSPACE/26msit001_A/jinhyeok/TTT_camera_embedding/lact_llm/.cache_inductor/ef/cefubpzejppbeakjldvl645ptawxzjsteejubtqmd2vpi356rtdg.py":54:31)
#loc51 = loc("/NHNHOME/WORKSPACE/26msit001_A/jinhyeok/TTT_camera_embedding/lact_llm/.cache_inductor/ef/cefubpzejppbeakjldvl645ptawxzjsteejubtqmd2vpi356rtdg.py":54:65)
#loc52 = loc("/NHNHOME/WORKSPACE/26msit001_A/jinhyeok/TTT_camera_embedding/lact_llm/.cache_inductor/ef/cefubpzejppbeakjldvl645ptawxzjsteejubtqmd2vpi356rtdg.py":55:20)
#loc53 = loc("/NHNHOME/WORKSPACE/26msit001_A/jinhyeok/TTT_camera_embedding/lact_llm/.cache_inductor/ef/cefubpzejppbeakjldvl645ptawxzjsteejubtqmd2vpi356rtdg.py":56:20)
#loc54 = loc("/NHNHOME/WORKSPACE/26msit001_A/jinhyeok/TTT_camera_embedding/lact_llm/.cache_inductor/ef/cefubpzejppbeakjldvl645ptawxzjsteejubtqmd2vpi356rtdg.py":58:35)
#loc55 = loc("/NHNHOME/WORKSPACE/26msit001_A/jinhyeok/TTT_camera_embedding/lact_llm/.cache_inductor/ef/cefubpzejppbeakjldvl645ptawxzjsteejubtqmd2vpi356rtdg.py":59:34)
#loc56 = loc("/NHNHOME/WORKSPACE/26msit001_A/jinhyeok/TTT_camera_embedding/lact_llm/.cache_inductor/ef/cefubpzejppbeakjldvl645ptawxzjsteejubtqmd2vpi356rtdg.py":43:34)
#loc57 = loc("/NHNHOME/WORKSPACE/26msit001_A/jinhyeok/TTT_camera_embedding/lact_llm/.cache_inductor/ef/cefubpzejppbeakjldvl645ptawxzjsteejubtqmd2vpi356rtdg.py":60:25)
#loc58 = loc("/NHNHOME/WORKSPACE/26msit001_A/jinhyeok/TTT_camera_embedding/lact_llm/.cache_inductor/ef/cefubpzejppbeakjldvl645ptawxzjsteejubtqmd2vpi356rtdg.py":60:37)
#loc59 = loc("/NHNHOME/WORKSPACE/26msit001_A/jinhyeok/TTT_camera_embedding/lact_llm/.cache_inductor/ef/cefubpzejppbeakjldvl645ptawxzjsteejubtqmd2vpi356rtdg.py":60:4)
#loc65 = loc("x2"(#loc2))
#loc66 = loc("x1"(#loc3))
#loc67 = loc("xoffset"(#loc4))
#loc68 = loc("xoffset"(#loc5))
#loc69 = loc("xindex"(#loc6))
#loc70 = loc("xindex"(#loc7))
#loc71 = loc("x0"(#loc8))
#loc72 = loc("x1"(#loc9))
#loc73 = loc("tmp4"(#loc10))
#loc74 = loc("tmp5"(#loc11))
#loc75 = loc("tmp5"(#loc12))
#loc76 = loc("tmp5"(#loc13))
#loc77 = loc("tmp5"(#loc14))
#loc78 = loc("tmp5"(#loc15))
#loc79 = loc("tmp5"(#loc16))
#loc80 = loc("tmp5"(#loc17))
#loc81 = loc("tmp7"(#loc18))
#loc82 = loc("tmp7"(#loc19))
#loc83 = loc("tmp7"(#loc20))
#loc84 = loc("tmp7"(#loc21))
#loc85 = loc("tmp7"(#loc22))
#loc86 = loc("tmp8"(#loc23))
#loc87 = loc("tmp9"(#loc24))
#loc88 = loc("tmp9"(#loc25))
#loc89 = loc("tmp9"(#loc26))
#loc90 = loc("tmp9"(#loc27))
#loc91 = loc("tmp9"(#loc28))
#loc92 = loc("tmp9"(#loc29))
#loc93 = loc("tmp11"(#loc30))
#loc94 = loc("tmp11"(#loc31))
#loc95 = loc("tmp12"(#loc32))
#loc96 = loc("tmp13"(#loc33))
#loc97 = loc("tmp14"(#loc34))
#loc98 = loc("tmp17"(#loc35))
#loc99 = loc("tmp20"(#loc36))
#loc100 = loc("tmp20"(#loc37))
#loc101 = loc("tmp20"(#loc38))
#loc102 = loc("tmp20"(#loc39))
#loc103 = loc("tmp20"(#loc40))
#loc104 = loc("tmp22"(#loc41))
#loc105 = loc("tmp22"(#loc42))
#loc106 = loc("tmp22"(#loc43))
#loc107 = loc("tmp23"(#loc44))
#loc108 = loc("tmp24"(#loc45))
#loc109 = loc("tmp25"(#loc46))
#loc110 = loc("tmp25"(#loc47))
#loc111 = loc("tmp25"(#loc48))
#loc112 = loc("tmp25"(#loc49))
#loc113 = loc("tmp27"(#loc50))
#loc114 = loc("tmp27"(#loc51))
#loc115 = loc("tmp28"(#loc52))
#loc116 = loc("tmp29"(#loc53))
#loc117 = loc("tmp31"(#loc54))
#loc118 = loc("tmp32"(#loc55))
#loc119 = loc("tmp16"(#loc56))
#loc120 = loc(fused[#loc118, #loc119])
