#loc = loc("/NHNHOME/WORKSPACE/26msit001_A/jinhyeok/loop_TTT/lact/.cache_inductor_llm/ka/ckaatkphzjqvfcofsv6w62fylxagxknndpu6jvcfgxu5fmtmwrcp.py":18:0)
#loc113 = loc("/NHNHOME/WORKSPACE/26msit001_A/jinhyeok/TTT_camera_embedding/.venv_llm/lib/python3.12/site-packages/triton/language/standard.py":285:0)
#loc115 = loc(unknown)
#loc118 = loc("/NHNHOME/WORKSPACE/26msit001_A/jinhyeok/TTT_camera_embedding/.venv_llm/lib/python3.12/site-packages/triton/language/standard.py":260:0)
#loc122 = loc("in_out_ptr0"(#loc))
#loc123 = loc("in_ptr0"(#loc))
#loc124 = loc("in_ptr1"(#loc))
#loc125 = loc("in_ptr2"(#loc))
#loc126 = loc("in_ptr3"(#loc))
#loc127 = loc("in_ptr4"(#loc))
#loc128 = loc("out_ptr0"(#loc))
#loc129 = loc("out_ptr2"(#loc))
#loc130 = loc("xnumel"(#loc))
#loc131 = loc("r0_numel"(#loc))
#loc229 = loc("input"(#loc113))
#loc230 = loc("a"(#loc118))
#loc231 = loc("b"(#loc118))
module {
  tt.func public @triton_red_fused__to_copy_add_div_eq_masked_fill_mul_neg_sum_transpose_20(%in_out_ptr0: !tt.ptr<f32> {tt.divisibility = 16 : i32} loc("in_out_ptr0"(#loc)), %in_ptr0: !tt.ptr<bf16> {tt.divisibility = 16 : i32} loc("in_ptr0"(#loc)), %in_ptr1: !tt.ptr<bf16> {tt.divisibility = 16 : i32} loc("in_ptr1"(#loc)), %in_ptr2: !tt.ptr<f32> {tt.divisibility = 16 : i32} loc("in_ptr2"(#loc)), %in_ptr3: !tt.ptr<f32> {tt.divisibility = 16 : i32} loc("in_ptr3"(#loc)), %in_ptr4: !tt.ptr<f32> {tt.divisibility = 16 : i32} loc("in_ptr4"(#loc)), %out_ptr0: !tt.ptr<f32> {tt.divisibility = 16 : i32} loc("out_ptr0"(#loc)), %out_ptr2: !tt.ptr<bf16> {tt.divisibility = 16 : i32} loc("out_ptr2"(#loc)), %xnumel: i32 {tt.divisibility = 16 : i32} loc("xnumel"(#loc)), %r0_numel: i32 {tt.divisibility = 16 : i32} loc("r0_numel"(#loc))) attributes {noinline = false} {
    %xnumel_0 = arith.constant 6144 : i32 loc(#loc132)
    %r0_numel_1 = arith.constant 192 : i32 loc(#loc133)
    %xoffset = tt.get_program_id x : i32 loc(#loc134)
    %xoffset_2 = arith.constant 64 : i32 loc(#loc135)
    %xoffset_3 = arith.constant 64 : i32 loc(#loc135)
    %xoffset_4 = arith.muli %xoffset, %xoffset_3 : i32 loc(#loc135)
    %xindex = tt.make_range {end = 64 : i32, start = 0 : i32} : tensor<64xi32> loc(#loc136)
    %xindex_5 = tt.expand_dims %xindex {axis = 1 : i32} : tensor<64xi32> -> tensor<64x1xi32> loc(#loc137)
    %xindex_6 = tt.splat %xoffset_4 : i32 -> tensor<64x1xi32> loc(#loc138)
    %xindex_7 = arith.addi %xindex_6, %xindex_5 : tensor<64x1xi32> loc(#loc138)
    %xmask = arith.constant dense<6144> : tensor<64x1xi32> loc(#loc139)
    %xmask_8 = arith.cmpi slt, %xindex_7, %xmask : tensor<64x1xi32> loc(#loc139)
    %r0_base = tt.make_range {end = 64 : i32, start = 0 : i32} : tensor<64xi32> loc(#loc140)
    %r0_base_9 = tt.expand_dims %r0_base {axis = 0 : i32} : tensor<64xi32> -> tensor<1x64xi32> loc(#loc141)
    %x0 = arith.constant 192 : i32 loc(#loc142)
    %x0_10 = arith.constant 192 : i32 loc(#loc142)
    %x0_11 = arith.constant dense<192> : tensor<64x1xi32> loc(#loc142)
    %x0_12 = arith.remsi %xindex_7, %x0_11 : tensor<64x1xi32> loc(#loc142)
    %x1 = arith.constant 192 : i32 loc(#loc143)
    %x1_13 = arith.constant 192 : i32 loc(#loc143)
    %x1_14 = arith.constant dense<192> : tensor<64x1xi32> loc(#loc143)
    %x1_15 = arith.divsi %xindex_7, %x1_14 : tensor<64x1xi32> loc(#loc143)
    %tmp6 = tt.splat %in_ptr3 : !tt.ptr<f32> -> tensor<64x1x!tt.ptr<f32>> loc(#loc144)
    %tmp6_16 = tt.addptr %tmp6, %xindex_7 : tensor<64x1x!tt.ptr<f32>>, tensor<64x1xi32> loc(#loc144)
    %tmp6_17 = tt.load %tmp6_16, %xmask_8 evictionPolicy = evict_last : tensor<64x1x!tt.ptr<f32>> loc(#loc145)
    %_tmp12 = arith.constant 0.000000e+00 : f32 loc(#loc146)
    %_tmp12_18 = arith.constant dense<0.000000e+00> : tensor<64x64xf32> loc(#loc146)
    %tmp14 = tt.splat %in_ptr4 : !tt.ptr<f32> -> tensor<64x1x!tt.ptr<f32>> loc(#loc147)
    %tmp14_19 = tt.addptr %tmp14, %xindex_7 : tensor<64x1x!tt.ptr<f32>>, tensor<64x1xi32> loc(#loc147)
    %tmp14_20 = tt.load %tmp14_19, %xmask_8 evictionPolicy = evict_last : tensor<64x1x!tt.ptr<f32>> loc(#loc148)
    %_tmp20 = arith.constant 0.000000e+00 : f32 loc(#loc149)
    %_tmp20_21 = arith.constant dense<0.000000e+00> : tensor<64x64xf32> loc(#loc149)
    %c0_i32 = arith.constant 0 : i32 loc(#loc19)
    %c64_i32 = arith.constant 64 : i32 loc(#loc19)
    %0 = arith.bitcast %c0_i32 : i32 to i32 loc(#loc19)
    %1 = arith.bitcast %r0_numel_1 : i32 to i32 loc(#loc19)
    %2 = arith.bitcast %c64_i32 : i32 to i32 loc(#loc19)
    %3 = ub.poison : i32 loc(#loc19)
    %_tmp20_22:2 = scf.for %r0_offset = %0 to %1 step %2 iter_args(%_tmp12_27 = %_tmp12_18, %_tmp20_28 = %_tmp20_21) -> (tensor<64x64xf32>, tensor<64x64xf32>)  : i32 {
      %r0_index = tt.splat %r0_offset : i32 -> tensor<1x64xi32> loc(#loc151)
      %r0_index_29 = arith.addi %r0_index, %r0_base_9 : tensor<1x64xi32> loc(#loc151)
      %r0_mask = arith.constant dense<192> : tensor<1x64xi32> loc(#loc152)
      %r0_mask_30 = arith.cmpi slt, %r0_index_29, %r0_mask : tensor<1x64xi32> loc(#loc152)
      %tmp0 = arith.constant 192 : i32 loc(#loc153)
      %tmp0_31 = arith.constant 192 : i32 loc(#loc153)
      %tmp0_32 = arith.constant dense<192> : tensor<1x64xi32> loc(#loc153)
      %tmp0_33 = arith.muli %tmp0_32, %r0_index_29 : tensor<1x64xi32> loc(#loc153)
      %tmp0_34 = tt.broadcast %x0_12 : tensor<64x1xi32> -> tensor<64x64xi32> loc(#loc154)
      %tmp0_35 = tt.broadcast %tmp0_33 : tensor<1x64xi32> -> tensor<64x64xi32> loc(#loc154)
      %tmp0_36 = arith.addi %tmp0_34, %tmp0_35 : tensor<64x64xi32> loc(#loc154)
      %tmp0_37 = arith.constant 36864 : i32 loc(#loc155)
      %tmp0_38 = arith.constant 36864 : i32 loc(#loc155)
      %tmp0_39 = arith.constant dense<36864> : tensor<64x1xi32> loc(#loc155)
      %tmp0_40 = arith.muli %tmp0_39, %x1_15 : tensor<64x1xi32> loc(#loc155)
      %tmp0_41 = tt.broadcast %tmp0_40 : tensor<64x1xi32> -> tensor<64x64xi32> loc(#loc156)
      %tmp0_42 = arith.addi %tmp0_36, %tmp0_41 : tensor<64x64xi32> loc(#loc156)
      %tmp0_43 = tt.splat %in_ptr0 : !tt.ptr<bf16> -> tensor<64x64x!tt.ptr<bf16>> loc(#loc157)
      %tmp0_44 = tt.addptr %tmp0_43, %tmp0_42 : tensor<64x64x!tt.ptr<bf16>>, tensor<64x64xi32> loc(#loc157)
      %tmp0_45 = tt.broadcast %r0_mask_30 : tensor<1x64xi1> -> tensor<64x64xi1> loc(#loc158)
      %tmp0_46 = tt.broadcast %xmask_8 : tensor<64x1xi1> -> tensor<64x64xi1> loc(#loc158)
      %tmp0_47 = arith.andi %tmp0_45, %tmp0_46 : tensor<64x64xi1> loc(#loc158)
      %tmp0_48 = arith.constant 0.000000e+00 : f32 loc(#loc159)
      %tmp0_49 = arith.constant dense<0.000000e+00> : tensor<64x64xf32> loc(#loc159)
      %tmp0_50 = arith.truncf %tmp0_49 : tensor<64x64xf32> to tensor<64x64xbf16> loc(#loc159)
      %tmp0_51 = tt.load %tmp0_44, %tmp0_47, %tmp0_50 evictionPolicy = evict_last : tensor<64x64x!tt.ptr<bf16>> loc(#loc159)
      %tmp0_52 = arith.extf %tmp0_51 : tensor<64x64xbf16> to tensor<64x64xf32> loc(#loc160)
      %tmp2 = arith.constant 192 : i32 loc(#loc161)
      %tmp2_53 = arith.constant 192 : i32 loc(#loc161)
      %tmp2_54 = arith.constant dense<192> : tensor<64x1xi32> loc(#loc161)
      %tmp2_55 = arith.muli %tmp2_54, %xindex_7 : tensor<64x1xi32> loc(#loc161)
      %tmp2_56 = tt.broadcast %r0_index_29 : tensor<1x64xi32> -> tensor<64x64xi32> loc(#loc162)
      %tmp2_57 = tt.broadcast %tmp2_55 : tensor<64x1xi32> -> tensor<64x64xi32> loc(#loc162)
      %tmp2_58 = arith.addi %tmp2_56, %tmp2_57 : tensor<64x64xi32> loc(#loc162)
      %tmp2_59 = tt.splat %in_ptr1 : !tt.ptr<bf16> -> tensor<64x64x!tt.ptr<bf16>> loc(#loc163)
      %tmp2_60 = tt.addptr %tmp2_59, %tmp2_58 : tensor<64x64x!tt.ptr<bf16>>, tensor<64x64xi32> loc(#loc163)
      %tmp2_61 = tt.broadcast %r0_mask_30 : tensor<1x64xi1> -> tensor<64x64xi1> loc(#loc164)
      %tmp2_62 = tt.broadcast %xmask_8 : tensor<64x1xi1> -> tensor<64x64xi1> loc(#loc164)
      %tmp2_63 = arith.andi %tmp2_61, %tmp2_62 : tensor<64x64xi1> loc(#loc164)
      %tmp2_64 = arith.constant 0.000000e+00 : f32 loc(#loc165)
      %tmp2_65 = arith.constant dense<0.000000e+00> : tensor<64x64xf32> loc(#loc165)
      %tmp2_66 = arith.truncf %tmp2_65 : tensor<64x64xf32> to tensor<64x64xbf16> loc(#loc165)
      %tmp2_67 = tt.load %tmp2_60, %tmp2_63, %tmp2_66 evictionPolicy = evict_last : tensor<64x64x!tt.ptr<bf16>> loc(#loc165)
      %tmp2_68 = arith.extf %tmp2_67 : tensor<64x64xbf16> to tensor<64x64xf32> loc(#loc166)
      %tmp5 = arith.constant 192 : i32 loc(#loc167)
      %tmp5_69 = arith.constant 192 : i32 loc(#loc167)
      %tmp5_70 = arith.constant dense<192> : tensor<64x1xi32> loc(#loc167)
      %tmp5_71 = arith.muli %tmp5_70, %xindex_7 : tensor<64x1xi32> loc(#loc167)
      %tmp5_72 = tt.broadcast %r0_index_29 : tensor<1x64xi32> -> tensor<64x64xi32> loc(#loc168)
      %tmp5_73 = tt.broadcast %tmp5_71 : tensor<64x1xi32> -> tensor<64x64xi32> loc(#loc168)
      %tmp5_74 = arith.addi %tmp5_72, %tmp5_73 : tensor<64x64xi32> loc(#loc168)
      %tmp5_75 = tt.splat %in_ptr2 : !tt.ptr<f32> -> tensor<64x64x!tt.ptr<f32>> loc(#loc169)
      %tmp5_76 = tt.addptr %tmp5_75, %tmp5_74 : tensor<64x64x!tt.ptr<f32>>, tensor<64x64xi32> loc(#loc169)
      %tmp5_77 = tt.broadcast %r0_mask_30 : tensor<1x64xi1> -> tensor<64x64xi1> loc(#loc170)
      %tmp5_78 = tt.broadcast %xmask_8 : tensor<64x1xi1> -> tensor<64x64xi1> loc(#loc170)
      %tmp5_79 = arith.andi %tmp5_77, %tmp5_78 : tensor<64x64xi1> loc(#loc170)
      %tmp5_80 = arith.constant 0.000000e+00 : f32 loc(#loc171)
      %tmp5_81 = arith.constant dense<0.000000e+00> : tensor<64x64xf32> loc(#loc171)
      %tmp5_82 = tt.load %tmp5_76, %tmp5_79, %tmp5_81 evictionPolicy = evict_last : tensor<64x64x!tt.ptr<f32>> loc(#loc171)
      %tmp4 = arith.addf %tmp0_52, %tmp2_68 : tensor<64x64xf32> loc(#loc172)
      %tmp7 = arith.constant 9.99999974E-6 : f32 loc(#loc173)
      %tmp8 = arith.constant dense<9.99999974E-6> : tensor<64x1xf32> loc(#loc174)
      %tmp8_83 = arith.addf %tmp6_17, %tmp8 : tensor<64x1xf32> loc(#loc174)
      %tmp9 = tt.broadcast %tmp8_83 : tensor<64x1xf32> -> tensor<64x64xf32> loc(#loc175)
      %tmp9_84 = arith.divf %tmp5_82, %tmp9 : tensor<64x64xf32> loc(#loc175)
      %tmp10 = arith.mulf %tmp4, %tmp9_84 : tensor<64x64xf32> loc(#loc176)
      %tmp13 = arith.addf %_tmp12_27, %tmp10 : tensor<64x64xf32> loc(#loc177)
      %_tmp12_85 = tt.broadcast %r0_mask_30 : tensor<1x64xi1> -> tensor<64x64xi1> loc(#loc178)
      %_tmp12_86 = tt.broadcast %xmask_8 : tensor<64x1xi1> -> tensor<64x64xi1> loc(#loc178)
      %_tmp12_87 = arith.andi %_tmp12_85, %_tmp12_86 : tensor<64x64xi1> loc(#loc178)
      %_tmp12_88 = arith.select %_tmp12_87, %tmp13, %_tmp12_27 : tensor<64x64xi1>, tensor<64x64xf32> loc(#loc179)
      %tmp15 = tt.broadcast %tmp14_20 : tensor<64x1xf32> -> tensor<64x64xf32> loc(#loc180)
      %tmp15_89 = arith.mulf %tmp4, %tmp15 : tensor<64x64xf32> loc(#loc180)
      %tmp16 = arith.constant 0.000000e+00 : f32 loc(#loc181)
      %tmp16_90 = arith.constant dense<0.000000e+00> : tensor<64x64xf32> loc(#loc181)
      %tmp16_91 = arith.subf %tmp16_90, %tmp15_89 : tensor<64x64xf32> loc(#loc181)
      %tmp17 = tt.broadcast %tmp8_83 : tensor<64x1xf32> -> tensor<64x64xf32> loc(#loc182)
      %tmp17_92 = arith.divf %tmp9_84, %tmp17 : tensor<64x64xf32> loc(#loc182)
      %tmp18 = arith.mulf %tmp16_91, %tmp17_92 : tensor<64x64xf32> loc(#loc183)
      %tmp21 = arith.addf %_tmp20_28, %tmp18 : tensor<64x64xf32> loc(#loc184)
      %_tmp20_93 = tt.broadcast %r0_mask_30 : tensor<1x64xi1> -> tensor<64x64xi1> loc(#loc185)
      %_tmp20_94 = tt.broadcast %xmask_8 : tensor<64x1xi1> -> tensor<64x64xi1> loc(#loc185)
      %_tmp20_95 = arith.andi %_tmp20_93, %_tmp20_94 : tensor<64x64xi1> loc(#loc185)
      %_tmp20_96 = arith.select %_tmp20_95, %tmp21, %_tmp20_28 : tensor<64x64xi1>, tensor<64x64xf32> loc(#loc186)
      scf.yield %_tmp12_88, %_tmp20_96 : tensor<64x64xf32>, tensor<64x64xf32> loc(#loc56)
    } loc(#loc232)
    %tmp12 = tt.call @"triton.language.standard.sum__fp32S64_64S__(1,)cconstexpr_1__(2,)cconstexpr_False__(3,)cNone"(%_tmp20_22#0) : (tensor<64x64xf32>) -> tensor<64xf32> loc(#loc187)
    %tmp12_23 = tt.expand_dims %tmp12 {axis = 1 : i32} : tensor<64xf32> -> tensor<64x1xf32> loc(#loc188)
    %tmp20 = tt.call @"triton.language.standard.sum__fp32S64_64S__(1,)cconstexpr_1__(2,)cconstexpr_False__(3,)cNone"(%_tmp20_22#1) : (tensor<64x64xf32>) -> tensor<64xf32> loc(#loc189)
    %tmp20_24 = tt.expand_dims %tmp20 {axis = 1 : i32} : tensor<64xf32> -> tensor<64x1xf32> loc(#loc190)
    %4 = tt.splat %out_ptr0 : !tt.ptr<f32> -> tensor<64x1x!tt.ptr<f32>> loc(#loc61)
    %5 = tt.addptr %4, %xindex_7 : tensor<64x1x!tt.ptr<f32>>, tensor<64x1xi32> loc(#loc61)
    tt.store %5, %tmp12_23, %xmask_8 : tensor<64x1x!tt.ptr<f32>> loc(#loc62)
    %c0_i32_25 = arith.constant 0 : i32 loc(#loc63)
    %c64_i32_26 = arith.constant 64 : i32 loc(#loc63)
    %6 = arith.bitcast %c0_i32_25 : i32 to i32 loc(#loc63)
    %7 = arith.bitcast %r0_numel_1 : i32 to i32 loc(#loc63)
    %8 = arith.bitcast %c64_i32_26 : i32 to i32 loc(#loc63)
    %9 = ub.poison : i32 loc(#loc63)
    scf.for %r0_offset = %6 to %7 step %8  : i32 {
      %r0_index = tt.splat %r0_offset : i32 -> tensor<1x64xi32> loc(#loc191)
      %r0_index_27 = arith.addi %r0_index, %r0_base_9 : tensor<1x64xi32> loc(#loc191)
      %r0_mask = arith.constant dense<192> : tensor<1x64xi32> loc(#loc192)
      %r0_mask_28 = arith.cmpi slt, %r0_index_27, %r0_mask : tensor<1x64xi32> loc(#loc192)
      %tmp22 = arith.constant 192 : i32 loc(#loc193)
      %tmp22_29 = arith.constant 192 : i32 loc(#loc193)
      %tmp22_30 = arith.constant dense<192> : tensor<64x1xi32> loc(#loc193)
      %tmp22_31 = arith.muli %tmp22_30, %xindex_7 : tensor<64x1xi32> loc(#loc193)
      %tmp22_32 = tt.broadcast %r0_index_27 : tensor<1x64xi32> -> tensor<64x64xi32> loc(#loc194)
      %tmp22_33 = tt.broadcast %tmp22_31 : tensor<64x1xi32> -> tensor<64x64xi32> loc(#loc194)
      %tmp22_34 = arith.addi %tmp22_32, %tmp22_33 : tensor<64x64xi32> loc(#loc194)
      %tmp22_35 = tt.splat %in_out_ptr0 : !tt.ptr<f32> -> tensor<64x64x!tt.ptr<f32>> loc(#loc195)
      %tmp22_36 = tt.addptr %tmp22_35, %tmp22_34 : tensor<64x64x!tt.ptr<f32>>, tensor<64x64xi32> loc(#loc195)
      %tmp22_37 = tt.broadcast %r0_mask_28 : tensor<1x64xi1> -> tensor<64x64xi1> loc(#loc196)
      %tmp22_38 = tt.broadcast %xmask_8 : tensor<64x1xi1> -> tensor<64x64xi1> loc(#loc196)
      %tmp22_39 = arith.andi %tmp22_37, %tmp22_38 : tensor<64x64xi1> loc(#loc196)
      %tmp22_40 = arith.constant 0.000000e+00 : f32 loc(#loc197)
      %tmp22_41 = arith.constant dense<0.000000e+00> : tensor<64x64xf32> loc(#loc197)
      %tmp22_42 = tt.load %tmp22_36, %tmp22_39, %tmp22_41 evictionPolicy = evict_first : tensor<64x64x!tt.ptr<f32>> loc(#loc197)
      %tmp23 = arith.constant 192 : i32 loc(#loc198)
      %tmp23_43 = arith.constant 192 : i32 loc(#loc198)
      %tmp23_44 = arith.constant dense<192> : tensor<1x64xi32> loc(#loc198)
      %tmp23_45 = arith.muli %tmp23_44, %r0_index_27 : tensor<1x64xi32> loc(#loc198)
      %tmp23_46 = tt.broadcast %x0_12 : tensor<64x1xi32> -> tensor<64x64xi32> loc(#loc199)
      %tmp23_47 = tt.broadcast %tmp23_45 : tensor<1x64xi32> -> tensor<64x64xi32> loc(#loc199)
      %tmp23_48 = arith.addi %tmp23_46, %tmp23_47 : tensor<64x64xi32> loc(#loc199)
      %tmp23_49 = arith.constant 36864 : i32 loc(#loc200)
      %tmp23_50 = arith.constant 36864 : i32 loc(#loc200)
      %tmp23_51 = arith.constant dense<36864> : tensor<64x1xi32> loc(#loc200)
      %tmp23_52 = arith.muli %tmp23_51, %x1_15 : tensor<64x1xi32> loc(#loc200)
      %tmp23_53 = tt.broadcast %tmp23_52 : tensor<64x1xi32> -> tensor<64x64xi32> loc(#loc201)
      %tmp23_54 = arith.addi %tmp23_48, %tmp23_53 : tensor<64x64xi32> loc(#loc201)
      %tmp23_55 = tt.splat %in_ptr0 : !tt.ptr<bf16> -> tensor<64x64x!tt.ptr<bf16>> loc(#loc202)
      %tmp23_56 = tt.addptr %tmp23_55, %tmp23_54 : tensor<64x64x!tt.ptr<bf16>>, tensor<64x64xi32> loc(#loc202)
      %tmp23_57 = tt.broadcast %r0_mask_28 : tensor<1x64xi1> -> tensor<64x64xi1> loc(#loc203)
      %tmp23_58 = tt.broadcast %xmask_8 : tensor<64x1xi1> -> tensor<64x64xi1> loc(#loc203)
      %tmp23_59 = arith.andi %tmp23_57, %tmp23_58 : tensor<64x64xi1> loc(#loc203)
      %tmp23_60 = arith.constant 0.000000e+00 : f32 loc(#loc204)
      %tmp23_61 = arith.constant dense<0.000000e+00> : tensor<64x64xf32> loc(#loc204)
      %tmp23_62 = arith.truncf %tmp23_61 : tensor<64x64xf32> to tensor<64x64xbf16> loc(#loc204)
      %tmp23_63 = tt.load %tmp23_56, %tmp23_59, %tmp23_62 evictionPolicy = evict_first : tensor<64x64x!tt.ptr<bf16>> loc(#loc204)
      %tmp23_64 = arith.extf %tmp23_63 : tensor<64x64xbf16> to tensor<64x64xf32> loc(#loc205)
      %tmp25 = arith.constant 192 : i32 loc(#loc206)
      %tmp25_65 = arith.constant 192 : i32 loc(#loc206)
      %tmp25_66 = arith.constant dense<192> : tensor<64x1xi32> loc(#loc206)
      %tmp25_67 = arith.muli %tmp25_66, %xindex_7 : tensor<64x1xi32> loc(#loc206)
      %tmp25_68 = tt.broadcast %r0_index_27 : tensor<1x64xi32> -> tensor<64x64xi32> loc(#loc207)
      %tmp25_69 = tt.broadcast %tmp25_67 : tensor<64x1xi32> -> tensor<64x64xi32> loc(#loc207)
      %tmp25_70 = arith.addi %tmp25_68, %tmp25_69 : tensor<64x64xi32> loc(#loc207)
      %tmp25_71 = tt.splat %in_ptr1 : !tt.ptr<bf16> -> tensor<64x64x!tt.ptr<bf16>> loc(#loc208)
      %tmp25_72 = tt.addptr %tmp25_71, %tmp25_70 : tensor<64x64x!tt.ptr<bf16>>, tensor<64x64xi32> loc(#loc208)
      %tmp25_73 = tt.broadcast %r0_mask_28 : tensor<1x64xi1> -> tensor<64x64xi1> loc(#loc209)
      %tmp25_74 = tt.broadcast %xmask_8 : tensor<64x1xi1> -> tensor<64x64xi1> loc(#loc209)
      %tmp25_75 = arith.andi %tmp25_73, %tmp25_74 : tensor<64x64xi1> loc(#loc209)
      %tmp25_76 = arith.constant 0.000000e+00 : f32 loc(#loc210)
      %tmp25_77 = arith.constant dense<0.000000e+00> : tensor<64x64xf32> loc(#loc210)
      %tmp25_78 = arith.truncf %tmp25_77 : tensor<64x64xf32> to tensor<64x64xbf16> loc(#loc210)
      %tmp25_79 = tt.load %tmp25_72, %tmp25_75, %tmp25_78 evictionPolicy = evict_first : tensor<64x64x!tt.ptr<bf16>> loc(#loc210)
      %tmp25_80 = arith.extf %tmp25_79 : tensor<64x64xbf16> to tensor<64x64xf32> loc(#loc211)
      %tmp35 = arith.constant 192 : i32 loc(#loc212)
      %tmp35_81 = arith.constant 192 : i32 loc(#loc212)
      %tmp35_82 = arith.constant dense<192> : tensor<64x1xi32> loc(#loc212)
      %tmp35_83 = arith.muli %tmp35_82, %xindex_7 : tensor<64x1xi32> loc(#loc212)
      %tmp35_84 = tt.broadcast %r0_index_27 : tensor<1x64xi32> -> tensor<64x64xi32> loc(#loc213)
      %tmp35_85 = tt.broadcast %tmp35_83 : tensor<64x1xi32> -> tensor<64x64xi32> loc(#loc213)
      %tmp35_86 = arith.addi %tmp35_84, %tmp35_85 : tensor<64x64xi32> loc(#loc213)
      %tmp35_87 = tt.splat %in_ptr2 : !tt.ptr<f32> -> tensor<64x64x!tt.ptr<f32>> loc(#loc214)
      %tmp35_88 = tt.addptr %tmp35_87, %tmp35_86 : tensor<64x64x!tt.ptr<f32>>, tensor<64x64xi32> loc(#loc214)
      %tmp35_89 = tt.broadcast %r0_mask_28 : tensor<1x64xi1> -> tensor<64x64xi1> loc(#loc215)
      %tmp35_90 = tt.broadcast %xmask_8 : tensor<64x1xi1> -> tensor<64x64xi1> loc(#loc215)
      %tmp35_91 = arith.andi %tmp35_89, %tmp35_90 : tensor<64x64xi1> loc(#loc215)
      %tmp35_92 = arith.constant 0.000000e+00 : f32 loc(#loc216)
      %tmp35_93 = arith.constant dense<0.000000e+00> : tensor<64x64xf32> loc(#loc216)
      %tmp35_94 = tt.load %tmp35_88, %tmp35_91, %tmp35_93 evictionPolicy = evict_first : tensor<64x64x!tt.ptr<f32>> loc(#loc216)
      %tmp27 = arith.addf %tmp23_64, %tmp25_80 : tensor<64x64xf32> loc(#loc217)
      %tmp28 = tt.broadcast %tmp14_20 : tensor<64x1xf32> -> tensor<64x64xf32> loc(#loc218)
      %tmp28_95 = arith.mulf %tmp27, %tmp28 : tensor<64x64xf32> loc(#loc218)
      %tmp29 = arith.constant 9.99999974E-6 : f32 loc(#loc219)
      %tmp30 = arith.constant dense<9.99999974E-6> : tensor<64x1xf32> loc(#loc220)
      %tmp30_96 = arith.addf %tmp6_17, %tmp30 : tensor<64x1xf32> loc(#loc220)
      %tmp31 = tt.broadcast %tmp30_96 : tensor<64x1xf32> -> tensor<64x64xf32> loc(#loc221)
      %tmp31_97 = arith.divf %tmp28_95, %tmp31 : tensor<64x64xf32> loc(#loc221)
      %tmp32 = arith.addf %tmp22_42, %tmp31_97 : tensor<64x64xf32> loc(#loc222)
      %tmp33 = arith.constant 0.000000e+00 : f32 loc(#loc223)
      %tmp34 = arith.constant dense<0.000000e+00> : tensor<64x1xf32> loc(#loc224)
      %tmp34_98 = arith.cmpf oeq, %tmp6_17, %tmp34 : tensor<64x1xf32> loc(#loc224)
      %tmp36 = tt.broadcast %tmp6_17 : tensor<64x1xf32> -> tensor<64x64xf32> loc(#loc225)
      %tmp36_99 = arith.divf %tmp35_94, %tmp36 : tensor<64x64xf32> loc(#loc225)
      %tmp37 = arith.constant dense<0.000000e+00> : tensor<64x64xf32> loc(#loc226)
      %tmp37_100 = tt.broadcast %tmp34_98 : tensor<64x1xi1> -> tensor<64x64xi1> loc(#loc226)
      %tmp37_101 = arith.select %tmp37_100, %tmp37, %tmp36_99 : tensor<64x64xi1>, tensor<64x64xf32> loc(#loc226)
      %tmp38 = tt.broadcast %tmp20_24 : tensor<64x1xf32> -> tensor<64x64xf32> loc(#loc227)
      %tmp38_102 = arith.mulf %tmp38, %tmp37_101 : tensor<64x64xf32> loc(#loc227)
      %tmp39 = arith.addf %tmp32, %tmp38_102 : tensor<64x64xf32> loc(#loc228)
      %c192_i32 = arith.constant 192 : i32 loc(#loc102)
      %c192_i32_103 = arith.constant 192 : i32 loc(#loc102)
      %cst = arith.constant dense<192> : tensor<64x1xi32> loc(#loc102)
      %10 = arith.muli %cst, %xindex_7 : tensor<64x1xi32> loc(#loc102)
      %11 = tt.broadcast %r0_index_27 : tensor<1x64xi32> -> tensor<64x64xi32> loc(#loc103)
      %12 = tt.broadcast %10 : tensor<64x1xi32> -> tensor<64x64xi32> loc(#loc103)
      %13 = arith.addi %11, %12 : tensor<64x64xi32> loc(#loc103)
      %14 = tt.splat %in_out_ptr0 : !tt.ptr<f32> -> tensor<64x64x!tt.ptr<f32>> loc(#loc104)
      %15 = tt.addptr %14, %13 : tensor<64x64x!tt.ptr<f32>>, tensor<64x64xi32> loc(#loc104)
      %16 = tt.broadcast %r0_mask_28 : tensor<1x64xi1> -> tensor<64x64xi1> loc(#loc105)
      %17 = tt.broadcast %xmask_8 : tensor<64x1xi1> -> tensor<64x64xi1> loc(#loc105)
      %18 = arith.andi %16, %17 : tensor<64x64xi1> loc(#loc105)
      tt.store %15, %tmp39, %18 : tensor<64x64x!tt.ptr<f32>> loc(#loc106)
      %c192_i32_104 = arith.constant 192 : i32 loc(#loc107)
      %c192_i32_105 = arith.constant 192 : i32 loc(#loc107)
      %cst_106 = arith.constant dense<192> : tensor<64x1xi32> loc(#loc107)
      %19 = arith.muli %cst_106, %xindex_7 : tensor<64x1xi32> loc(#loc107)
      %20 = tt.broadcast %r0_index_27 : tensor<1x64xi32> -> tensor<64x64xi32> loc(#loc108)
      %21 = tt.broadcast %19 : tensor<64x1xi32> -> tensor<64x64xi32> loc(#loc108)
      %22 = arith.addi %20, %21 : tensor<64x64xi32> loc(#loc108)
      %23 = tt.splat %out_ptr2 : !tt.ptr<bf16> -> tensor<64x64x!tt.ptr<bf16>> loc(#loc109)
      %24 = tt.addptr %23, %22 : tensor<64x64x!tt.ptr<bf16>>, tensor<64x64xi32> loc(#loc109)
      %25 = tt.broadcast %r0_mask_28 : tensor<1x64xi1> -> tensor<64x64xi1> loc(#loc110)
      %26 = tt.broadcast %xmask_8 : tensor<64x1xi1> -> tensor<64x64xi1> loc(#loc110)
      %27 = arith.andi %25, %26 : tensor<64x64xi1> loc(#loc110)
      %28 = arith.truncf %tmp39 : tensor<64x64xf32> to tensor<64x64xbf16> loc(#loc111)
      tt.store %24, %28, %27 : tensor<64x64x!tt.ptr<bf16>> loc(#loc111)
    } loc(#loc63)
    tt.return loc(#loc112)
  } loc(#loc)
  tt.func private @"triton.language.standard.sum__fp32S64_64S__(1,)cconstexpr_1__(2,)cconstexpr_False__(3,)cNone"(%input: tensor<64x64xf32> loc("input"(#loc113))) -> tensor<64xf32> attributes {noinline = false} {
    %0 = "tt.reduce"(%input) <{axis = 1 : i32}> ({
    ^bb0(%arg1: f32 loc(unknown), %arg2: f32 loc(unknown)):
      %2 = tt.call @triton.language.standard._sum_combine__fp32_fp32__(%arg1, %arg2) : (f32, f32) -> f32 loc(#loc114)
      tt.reduce.return %2 : f32 loc(#loc114)
    }) : (tensor<64x64xf32>) -> tensor<64xf32> loc(#loc114)
    tt.return %0 : tensor<64xf32> loc(#loc116)
  ^bb1:  // no predecessors
    %1 = ub.poison : tensor<64xf32> loc(#loc117)
    tt.return %1 : tensor<64xf32> loc(#loc117)
  } loc(#loc113)
  tt.func private @triton.language.standard._sum_combine__fp32_fp32__(%a: f32 loc("a"(#loc118)), %b: f32 loc("b"(#loc118))) -> f32 attributes {noinline = false} {
    %0 = arith.addf %a, %b : f32 loc(#loc119)
    tt.return %0 : f32 loc(#loc120)
  ^bb1:  // no predecessors
    %1 = ub.poison : f32 loc(#loc121)
    tt.return %1 : f32 loc(#loc121)
  } loc(#loc118)
} loc(#loc)
#loc1 = loc("/NHNHOME/WORKSPACE/26msit001_A/jinhyeok/loop_TTT/lact/.cache_inductor_llm/ka/ckaatkphzjqvfcofsv6w62fylxagxknndpu6jvcfgxu5fmtmwrcp.py":19:13)
#loc2 = loc("/NHNHOME/WORKSPACE/26msit001_A/jinhyeok/loop_TTT/lact/.cache_inductor_llm/ka/ckaatkphzjqvfcofsv6w62fylxagxknndpu6jvcfgxu5fmtmwrcp.py":20:15)
#loc3 = loc("/NHNHOME/WORKSPACE/26msit001_A/jinhyeok/loop_TTT/lact/.cache_inductor_llm/ka/ckaatkphzjqvfcofsv6w62fylxagxknndpu6jvcfgxu5fmtmwrcp.py":23:28)
#loc4 = loc("/NHNHOME/WORKSPACE/26msit001_A/jinhyeok/loop_TTT/lact/.cache_inductor_llm/ka/ckaatkphzjqvfcofsv6w62fylxagxknndpu6jvcfgxu5fmtmwrcp.py":23:33)
#loc5 = loc("/NHNHOME/WORKSPACE/26msit001_A/jinhyeok/loop_TTT/lact/.cache_inductor_llm/ka/ckaatkphzjqvfcofsv6w62fylxagxknndpu6jvcfgxu5fmtmwrcp.py":24:36)
#loc6 = loc("/NHNHOME/WORKSPACE/26msit001_A/jinhyeok/loop_TTT/lact/.cache_inductor_llm/ka/ckaatkphzjqvfcofsv6w62fylxagxknndpu6jvcfgxu5fmtmwrcp.py":24:44)
#loc7 = loc("/NHNHOME/WORKSPACE/26msit001_A/jinhyeok/loop_TTT/lact/.cache_inductor_llm/ka/ckaatkphzjqvfcofsv6w62fylxagxknndpu6jvcfgxu5fmtmwrcp.py":24:23)
#loc8 = loc("/NHNHOME/WORKSPACE/26msit001_A/jinhyeok/loop_TTT/lact/.cache_inductor_llm/ka/ckaatkphzjqvfcofsv6w62fylxagxknndpu6jvcfgxu5fmtmwrcp.py":25:21)
#loc9 = loc("/NHNHOME/WORKSPACE/26msit001_A/jinhyeok/loop_TTT/lact/.cache_inductor_llm/ka/ckaatkphzjqvfcofsv6w62fylxagxknndpu6jvcfgxu5fmtmwrcp.py":26:27)
#loc10 = loc("/NHNHOME/WORKSPACE/26msit001_A/jinhyeok/loop_TTT/lact/.cache_inductor_llm/ka/ckaatkphzjqvfcofsv6w62fylxagxknndpu6jvcfgxu5fmtmwrcp.py":26:37)
#loc11 = loc("/NHNHOME/WORKSPACE/26msit001_A/jinhyeok/loop_TTT/lact/.cache_inductor_llm/ka/ckaatkphzjqvfcofsv6w62fylxagxknndpu6jvcfgxu5fmtmwrcp.py":28:19)
#loc12 = loc("/NHNHOME/WORKSPACE/26msit001_A/jinhyeok/loop_TTT/lact/.cache_inductor_llm/ka/ckaatkphzjqvfcofsv6w62fylxagxknndpu6jvcfgxu5fmtmwrcp.py":29:19)
#loc13 = loc("/NHNHOME/WORKSPACE/26msit001_A/jinhyeok/loop_TTT/lact/.cache_inductor_llm/ka/ckaatkphzjqvfcofsv6w62fylxagxknndpu6jvcfgxu5fmtmwrcp.py":31:30)
#loc14 = loc("/NHNHOME/WORKSPACE/26msit001_A/jinhyeok/loop_TTT/lact/.cache_inductor_llm/ka/ckaatkphzjqvfcofsv6w62fylxagxknndpu6jvcfgxu5fmtmwrcp.py":31:35)
#loc15 = loc("/NHNHOME/WORKSPACE/26msit001_A/jinhyeok/loop_TTT/lact/.cache_inductor_llm/ka/ckaatkphzjqvfcofsv6w62fylxagxknndpu6jvcfgxu5fmtmwrcp.py":32:44)
#loc16 = loc("/NHNHOME/WORKSPACE/26msit001_A/jinhyeok/loop_TTT/lact/.cache_inductor_llm/ka/ckaatkphzjqvfcofsv6w62fylxagxknndpu6jvcfgxu5fmtmwrcp.py":33:31)
#loc17 = loc("/NHNHOME/WORKSPACE/26msit001_A/jinhyeok/loop_TTT/lact/.cache_inductor_llm/ka/ckaatkphzjqvfcofsv6w62fylxagxknndpu6jvcfgxu5fmtmwrcp.py":33:36)
#loc18 = loc("/NHNHOME/WORKSPACE/26msit001_A/jinhyeok/loop_TTT/lact/.cache_inductor_llm/ka/ckaatkphzjqvfcofsv6w62fylxagxknndpu6jvcfgxu5fmtmwrcp.py":34:44)
#loc19 = loc("/NHNHOME/WORKSPACE/26msit001_A/jinhyeok/loop_TTT/lact/.cache_inductor_llm/ka/ckaatkphzjqvfcofsv6w62fylxagxknndpu6jvcfgxu5fmtmwrcp.py":35:40)
#loc20 = loc("/NHNHOME/WORKSPACE/26msit001_A/jinhyeok/loop_TTT/lact/.cache_inductor_llm/ka/ckaatkphzjqvfcofsv6w62fylxagxknndpu6jvcfgxu5fmtmwrcp.py":36:31)
#loc21 = loc("/NHNHOME/WORKSPACE/26msit001_A/jinhyeok/loop_TTT/lact/.cache_inductor_llm/ka/ckaatkphzjqvfcofsv6w62fylxagxknndpu6jvcfgxu5fmtmwrcp.py":37:29)
#loc22 = loc("/NHNHOME/WORKSPACE/26msit001_A/jinhyeok/loop_TTT/lact/.cache_inductor_llm/ka/ckaatkphzjqvfcofsv6w62fylxagxknndpu6jvcfgxu5fmtmwrcp.py":41:43)
#loc23 = loc("/NHNHOME/WORKSPACE/26msit001_A/jinhyeok/loop_TTT/lact/.cache_inductor_llm/ka/ckaatkphzjqvfcofsv6w62fylxagxknndpu6jvcfgxu5fmtmwrcp.py":41:39)
#loc24 = loc("/NHNHOME/WORKSPACE/26msit001_A/jinhyeok/loop_TTT/lact/.cache_inductor_llm/ka/ckaatkphzjqvfcofsv6w62fylxagxknndpu6jvcfgxu5fmtmwrcp.py":41:56)
#loc25 = loc("/NHNHOME/WORKSPACE/26msit001_A/jinhyeok/loop_TTT/lact/.cache_inductor_llm/ka/ckaatkphzjqvfcofsv6w62fylxagxknndpu6jvcfgxu5fmtmwrcp.py":41:50)
#loc26 = loc("/NHNHOME/WORKSPACE/26msit001_A/jinhyeok/loop_TTT/lact/.cache_inductor_llm/ka/ckaatkphzjqvfcofsv6w62fylxagxknndpu6jvcfgxu5fmtmwrcp.py":41:34)
#loc27 = loc("/NHNHOME/WORKSPACE/26msit001_A/jinhyeok/loop_TTT/lact/.cache_inductor_llm/ka/ckaatkphzjqvfcofsv6w62fylxagxknndpu6jvcfgxu5fmtmwrcp.py":41:71)
#loc28 = loc("/NHNHOME/WORKSPACE/26msit001_A/jinhyeok/loop_TTT/lact/.cache_inductor_llm/ka/ckaatkphzjqvfcofsv6w62fylxagxknndpu6jvcfgxu5fmtmwrcp.py":41:61)
#loc29 = loc("/NHNHOME/WORKSPACE/26msit001_A/jinhyeok/loop_TTT/lact/.cache_inductor_llm/ka/ckaatkphzjqvfcofsv6w62fylxagxknndpu6jvcfgxu5fmtmwrcp.py":41:122)
#loc30 = loc("/NHNHOME/WORKSPACE/26msit001_A/jinhyeok/loop_TTT/lact/.cache_inductor_llm/ka/ckaatkphzjqvfcofsv6w62fylxagxknndpu6jvcfgxu5fmtmwrcp.py":42:45)
#loc31 = loc("/NHNHOME/WORKSPACE/26msit001_A/jinhyeok/loop_TTT/lact/.cache_inductor_llm/ka/ckaatkphzjqvfcofsv6w62fylxagxknndpu6jvcfgxu5fmtmwrcp.py":42:41)
#loc32 = loc("/NHNHOME/WORKSPACE/26msit001_A/jinhyeok/loop_TTT/lact/.cache_inductor_llm/ka/ckaatkphzjqvfcofsv6w62fylxagxknndpu6jvcfgxu5fmtmwrcp.py":42:34)
#loc33 = loc("/NHNHOME/WORKSPACE/26msit001_A/jinhyeok/loop_TTT/lact/.cache_inductor_llm/ka/ckaatkphzjqvfcofsv6w62fylxagxknndpu6jvcfgxu5fmtmwrcp.py":42:60)
#loc34 = loc("/NHNHOME/WORKSPACE/26msit001_A/jinhyeok/loop_TTT/lact/.cache_inductor_llm/ka/ckaatkphzjqvfcofsv6w62fylxagxknndpu6jvcfgxu5fmtmwrcp.py":42:50)
#loc35 = loc("/NHNHOME/WORKSPACE/26msit001_A/jinhyeok/loop_TTT/lact/.cache_inductor_llm/ka/ckaatkphzjqvfcofsv6w62fylxagxknndpu6jvcfgxu5fmtmwrcp.py":42:111)
#loc36 = loc("/NHNHOME/WORKSPACE/26msit001_A/jinhyeok/loop_TTT/lact/.cache_inductor_llm/ka/ckaatkphzjqvfcofsv6w62fylxagxknndpu6jvcfgxu5fmtmwrcp.py":43:45)
#loc37 = loc("/NHNHOME/WORKSPACE/26msit001_A/jinhyeok/loop_TTT/lact/.cache_inductor_llm/ka/ckaatkphzjqvfcofsv6w62fylxagxknndpu6jvcfgxu5fmtmwrcp.py":43:41)
#loc38 = loc("/NHNHOME/WORKSPACE/26msit001_A/jinhyeok/loop_TTT/lact/.cache_inductor_llm/ka/ckaatkphzjqvfcofsv6w62fylxagxknndpu6jvcfgxu5fmtmwrcp.py":43:34)
#loc39 = loc("/NHNHOME/WORKSPACE/26msit001_A/jinhyeok/loop_TTT/lact/.cache_inductor_llm/ka/ckaatkphzjqvfcofsv6w62fylxagxknndpu6jvcfgxu5fmtmwrcp.py":43:60)
#loc40 = loc("/NHNHOME/WORKSPACE/26msit001_A/jinhyeok/loop_TTT/lact/.cache_inductor_llm/ka/ckaatkphzjqvfcofsv6w62fylxagxknndpu6jvcfgxu5fmtmwrcp.py":43:50)
#loc41 = loc("/NHNHOME/WORKSPACE/26msit001_A/jinhyeok/loop_TTT/lact/.cache_inductor_llm/ka/ckaatkphzjqvfcofsv6w62fylxagxknndpu6jvcfgxu5fmtmwrcp.py":46:22)
#loc42 = loc("/NHNHOME/WORKSPACE/26msit001_A/jinhyeok/loop_TTT/lact/.cache_inductor_llm/ka/ckaatkphzjqvfcofsv6w62fylxagxknndpu6jvcfgxu5fmtmwrcp.py":47:15)
#loc43 = loc("/NHNHOME/WORKSPACE/26msit001_A/jinhyeok/loop_TTT/lact/.cache_inductor_llm/ka/ckaatkphzjqvfcofsv6w62fylxagxknndpu6jvcfgxu5fmtmwrcp.py":48:22)
#loc44 = loc("/NHNHOME/WORKSPACE/26msit001_A/jinhyeok/loop_TTT/lact/.cache_inductor_llm/ka/ckaatkphzjqvfcofsv6w62fylxagxknndpu6jvcfgxu5fmtmwrcp.py":49:23)
#loc45 = loc("/NHNHOME/WORKSPACE/26msit001_A/jinhyeok/loop_TTT/lact/.cache_inductor_llm/ka/ckaatkphzjqvfcofsv6w62fylxagxknndpu6jvcfgxu5fmtmwrcp.py":50:23)
#loc46 = loc("/NHNHOME/WORKSPACE/26msit001_A/jinhyeok/loop_TTT/lact/.cache_inductor_llm/ka/ckaatkphzjqvfcofsv6w62fylxagxknndpu6jvcfgxu5fmtmwrcp.py":52:25)
#loc47 = loc("/NHNHOME/WORKSPACE/26msit001_A/jinhyeok/loop_TTT/lact/.cache_inductor_llm/ka/ckaatkphzjqvfcofsv6w62fylxagxknndpu6jvcfgxu5fmtmwrcp.py":53:36)
#loc48 = loc("/NHNHOME/WORKSPACE/26msit001_A/jinhyeok/loop_TTT/lact/.cache_inductor_llm/ka/ckaatkphzjqvfcofsv6w62fylxagxknndpu6jvcfgxu5fmtmwrcp.py":53:50)
#loc49 = loc("/NHNHOME/WORKSPACE/26msit001_A/jinhyeok/loop_TTT/lact/.cache_inductor_llm/ka/ckaatkphzjqvfcofsv6w62fylxagxknndpu6jvcfgxu5fmtmwrcp.py":54:23)
#loc50 = loc("/NHNHOME/WORKSPACE/26msit001_A/jinhyeok/loop_TTT/lact/.cache_inductor_llm/ka/ckaatkphzjqvfcofsv6w62fylxagxknndpu6jvcfgxu5fmtmwrcp.py":55:17)
#loc51 = loc("/NHNHOME/WORKSPACE/26msit001_A/jinhyeok/loop_TTT/lact/.cache_inductor_llm/ka/ckaatkphzjqvfcofsv6w62fylxagxknndpu6jvcfgxu5fmtmwrcp.py":56:24)
#loc52 = loc("/NHNHOME/WORKSPACE/26msit001_A/jinhyeok/loop_TTT/lact/.cache_inductor_llm/ka/ckaatkphzjqvfcofsv6w62fylxagxknndpu6jvcfgxu5fmtmwrcp.py":57:24)
#loc53 = loc("/NHNHOME/WORKSPACE/26msit001_A/jinhyeok/loop_TTT/lact/.cache_inductor_llm/ka/ckaatkphzjqvfcofsv6w62fylxagxknndpu6jvcfgxu5fmtmwrcp.py":59:25)
#loc54 = loc("/NHNHOME/WORKSPACE/26msit001_A/jinhyeok/loop_TTT/lact/.cache_inductor_llm/ka/ckaatkphzjqvfcofsv6w62fylxagxknndpu6jvcfgxu5fmtmwrcp.py":60:36)
#loc55 = loc("/NHNHOME/WORKSPACE/26msit001_A/jinhyeok/loop_TTT/lact/.cache_inductor_llm/ka/ckaatkphzjqvfcofsv6w62fylxagxknndpu6jvcfgxu5fmtmwrcp.py":60:50)
#loc56 = loc("/NHNHOME/WORKSPACE/26msit001_A/jinhyeok/loop_TTT/lact/.cache_inductor_llm/ka/ckaatkphzjqvfcofsv6w62fylxagxknndpu6jvcfgxu5fmtmwrcp.py":60:8)
#loc57 = loc("/NHNHOME/WORKSPACE/26msit001_A/jinhyeok/loop_TTT/lact/.cache_inductor_llm/ka/ckaatkphzjqvfcofsv6w62fylxagxknndpu6jvcfgxu5fmtmwrcp.py":61:27)
#loc58 = loc("/NHNHOME/WORKSPACE/26msit001_A/jinhyeok/loop_TTT/lact/.cache_inductor_llm/ka/ckaatkphzjqvfcofsv6w62fylxagxknndpu6jvcfgxu5fmtmwrcp.py":61:30)
#loc59 = loc("/NHNHOME/WORKSPACE/26msit001_A/jinhyeok/loop_TTT/lact/.cache_inductor_llm/ka/ckaatkphzjqvfcofsv6w62fylxagxknndpu6jvcfgxu5fmtmwrcp.py":62:27)
#loc60 = loc("/NHNHOME/WORKSPACE/26msit001_A/jinhyeok/loop_TTT/lact/.cache_inductor_llm/ka/ckaatkphzjqvfcofsv6w62fylxagxknndpu6jvcfgxu5fmtmwrcp.py":62:30)
#loc61 = loc("/NHNHOME/WORKSPACE/26msit001_A/jinhyeok/loop_TTT/lact/.cache_inductor_llm/ka/ckaatkphzjqvfcofsv6w62fylxagxknndpu6jvcfgxu5fmtmwrcp.py":63:25)
#loc62 = loc("/NHNHOME/WORKSPACE/26msit001_A/jinhyeok/loop_TTT/lact/.cache_inductor_llm/ka/ckaatkphzjqvfcofsv6w62fylxagxknndpu6jvcfgxu5fmtmwrcp.py":63:37)
#loc63 = loc("/NHNHOME/WORKSPACE/26msit001_A/jinhyeok/loop_TTT/lact/.cache_inductor_llm/ka/ckaatkphzjqvfcofsv6w62fylxagxknndpu6jvcfgxu5fmtmwrcp.py":64:40)
#loc64 = loc("/NHNHOME/WORKSPACE/26msit001_A/jinhyeok/loop_TTT/lact/.cache_inductor_llm/ka/ckaatkphzjqvfcofsv6w62fylxagxknndpu6jvcfgxu5fmtmwrcp.py":65:31)
#loc65 = loc("/NHNHOME/WORKSPACE/26msit001_A/jinhyeok/loop_TTT/lact/.cache_inductor_llm/ka/ckaatkphzjqvfcofsv6w62fylxagxknndpu6jvcfgxu5fmtmwrcp.py":66:29)
#loc66 = loc("/NHNHOME/WORKSPACE/26msit001_A/jinhyeok/loop_TTT/lact/.cache_inductor_llm/ka/ckaatkphzjqvfcofsv6w62fylxagxknndpu6jvcfgxu5fmtmwrcp.py":70:50)
#loc67 = loc("/NHNHOME/WORKSPACE/26msit001_A/jinhyeok/loop_TTT/lact/.cache_inductor_llm/ka/ckaatkphzjqvfcofsv6w62fylxagxknndpu6jvcfgxu5fmtmwrcp.py":70:46)
#loc68 = loc("/NHNHOME/WORKSPACE/26msit001_A/jinhyeok/loop_TTT/lact/.cache_inductor_llm/ka/ckaatkphzjqvfcofsv6w62fylxagxknndpu6jvcfgxu5fmtmwrcp.py":70:39)
#loc69 = loc("/NHNHOME/WORKSPACE/26msit001_A/jinhyeok/loop_TTT/lact/.cache_inductor_llm/ka/ckaatkphzjqvfcofsv6w62fylxagxknndpu6jvcfgxu5fmtmwrcp.py":70:65)
#loc70 = loc("/NHNHOME/WORKSPACE/26msit001_A/jinhyeok/loop_TTT/lact/.cache_inductor_llm/ka/ckaatkphzjqvfcofsv6w62fylxagxknndpu6jvcfgxu5fmtmwrcp.py":70:55)
#loc71 = loc("/NHNHOME/WORKSPACE/26msit001_A/jinhyeok/loop_TTT/lact/.cache_inductor_llm/ka/ckaatkphzjqvfcofsv6w62fylxagxknndpu6jvcfgxu5fmtmwrcp.py":71:44)
#loc72 = loc("/NHNHOME/WORKSPACE/26msit001_A/jinhyeok/loop_TTT/lact/.cache_inductor_llm/ka/ckaatkphzjqvfcofsv6w62fylxagxknndpu6jvcfgxu5fmtmwrcp.py":71:40)
#loc73 = loc("/NHNHOME/WORKSPACE/26msit001_A/jinhyeok/loop_TTT/lact/.cache_inductor_llm/ka/ckaatkphzjqvfcofsv6w62fylxagxknndpu6jvcfgxu5fmtmwrcp.py":71:57)
#loc74 = loc("/NHNHOME/WORKSPACE/26msit001_A/jinhyeok/loop_TTT/lact/.cache_inductor_llm/ka/ckaatkphzjqvfcofsv6w62fylxagxknndpu6jvcfgxu5fmtmwrcp.py":71:51)
#loc75 = loc("/NHNHOME/WORKSPACE/26msit001_A/jinhyeok/loop_TTT/lact/.cache_inductor_llm/ka/ckaatkphzjqvfcofsv6w62fylxagxknndpu6jvcfgxu5fmtmwrcp.py":71:35)
#loc76 = loc("/NHNHOME/WORKSPACE/26msit001_A/jinhyeok/loop_TTT/lact/.cache_inductor_llm/ka/ckaatkphzjqvfcofsv6w62fylxagxknndpu6jvcfgxu5fmtmwrcp.py":71:72)
#loc77 = loc("/NHNHOME/WORKSPACE/26msit001_A/jinhyeok/loop_TTT/lact/.cache_inductor_llm/ka/ckaatkphzjqvfcofsv6w62fylxagxknndpu6jvcfgxu5fmtmwrcp.py":71:62)
#loc78 = loc("/NHNHOME/WORKSPACE/26msit001_A/jinhyeok/loop_TTT/lact/.cache_inductor_llm/ka/ckaatkphzjqvfcofsv6w62fylxagxknndpu6jvcfgxu5fmtmwrcp.py":71:124)
#loc79 = loc("/NHNHOME/WORKSPACE/26msit001_A/jinhyeok/loop_TTT/lact/.cache_inductor_llm/ka/ckaatkphzjqvfcofsv6w62fylxagxknndpu6jvcfgxu5fmtmwrcp.py":72:46)
#loc80 = loc("/NHNHOME/WORKSPACE/26msit001_A/jinhyeok/loop_TTT/lact/.cache_inductor_llm/ka/ckaatkphzjqvfcofsv6w62fylxagxknndpu6jvcfgxu5fmtmwrcp.py":72:42)
#loc81 = loc("/NHNHOME/WORKSPACE/26msit001_A/jinhyeok/loop_TTT/lact/.cache_inductor_llm/ka/ckaatkphzjqvfcofsv6w62fylxagxknndpu6jvcfgxu5fmtmwrcp.py":72:35)
#loc82 = loc("/NHNHOME/WORKSPACE/26msit001_A/jinhyeok/loop_TTT/lact/.cache_inductor_llm/ka/ckaatkphzjqvfcofsv6w62fylxagxknndpu6jvcfgxu5fmtmwrcp.py":72:61)
#loc83 = loc("/NHNHOME/WORKSPACE/26msit001_A/jinhyeok/loop_TTT/lact/.cache_inductor_llm/ka/ckaatkphzjqvfcofsv6w62fylxagxknndpu6jvcfgxu5fmtmwrcp.py":72:51)
#loc84 = loc("/NHNHOME/WORKSPACE/26msit001_A/jinhyeok/loop_TTT/lact/.cache_inductor_llm/ka/ckaatkphzjqvfcofsv6w62fylxagxknndpu6jvcfgxu5fmtmwrcp.py":72:113)
#loc85 = loc("/NHNHOME/WORKSPACE/26msit001_A/jinhyeok/loop_TTT/lact/.cache_inductor_llm/ka/ckaatkphzjqvfcofsv6w62fylxagxknndpu6jvcfgxu5fmtmwrcp.py":73:46)
#loc86 = loc("/NHNHOME/WORKSPACE/26msit001_A/jinhyeok/loop_TTT/lact/.cache_inductor_llm/ka/ckaatkphzjqvfcofsv6w62fylxagxknndpu6jvcfgxu5fmtmwrcp.py":73:42)
#loc87 = loc("/NHNHOME/WORKSPACE/26msit001_A/jinhyeok/loop_TTT/lact/.cache_inductor_llm/ka/ckaatkphzjqvfcofsv6w62fylxagxknndpu6jvcfgxu5fmtmwrcp.py":73:35)
#loc88 = loc("/NHNHOME/WORKSPACE/26msit001_A/jinhyeok/loop_TTT/lact/.cache_inductor_llm/ka/ckaatkphzjqvfcofsv6w62fylxagxknndpu6jvcfgxu5fmtmwrcp.py":73:61)
#loc89 = loc("/NHNHOME/WORKSPACE/26msit001_A/jinhyeok/loop_TTT/lact/.cache_inductor_llm/ka/ckaatkphzjqvfcofsv6w62fylxagxknndpu6jvcfgxu5fmtmwrcp.py":73:51)
#loc90 = loc("/NHNHOME/WORKSPACE/26msit001_A/jinhyeok/loop_TTT/lact/.cache_inductor_llm/ka/ckaatkphzjqvfcofsv6w62fylxagxknndpu6jvcfgxu5fmtmwrcp.py":76:24)
#loc91 = loc("/NHNHOME/WORKSPACE/26msit001_A/jinhyeok/loop_TTT/lact/.cache_inductor_llm/ka/ckaatkphzjqvfcofsv6w62fylxagxknndpu6jvcfgxu5fmtmwrcp.py":77:24)
#loc92 = loc("/NHNHOME/WORKSPACE/26msit001_A/jinhyeok/loop_TTT/lact/.cache_inductor_llm/ka/ckaatkphzjqvfcofsv6w62fylxagxknndpu6jvcfgxu5fmtmwrcp.py":78:16)
#loc93 = loc("/NHNHOME/WORKSPACE/26msit001_A/jinhyeok/loop_TTT/lact/.cache_inductor_llm/ka/ckaatkphzjqvfcofsv6w62fylxagxknndpu6jvcfgxu5fmtmwrcp.py":79:23)
#loc94 = loc("/NHNHOME/WORKSPACE/26msit001_A/jinhyeok/loop_TTT/lact/.cache_inductor_llm/ka/ckaatkphzjqvfcofsv6w62fylxagxknndpu6jvcfgxu5fmtmwrcp.py":80:25)
#loc95 = loc("/NHNHOME/WORKSPACE/26msit001_A/jinhyeok/loop_TTT/lact/.cache_inductor_llm/ka/ckaatkphzjqvfcofsv6w62fylxagxknndpu6jvcfgxu5fmtmwrcp.py":81:24)
#loc96 = loc("/NHNHOME/WORKSPACE/26msit001_A/jinhyeok/loop_TTT/lact/.cache_inductor_llm/ka/ckaatkphzjqvfcofsv6w62fylxagxknndpu6jvcfgxu5fmtmwrcp.py":82:16)
#loc97 = loc("/NHNHOME/WORKSPACE/26msit001_A/jinhyeok/loop_TTT/lact/.cache_inductor_llm/ka/ckaatkphzjqvfcofsv6w62fylxagxknndpu6jvcfgxu5fmtmwrcp.py":83:24)
#loc98 = loc("/NHNHOME/WORKSPACE/26msit001_A/jinhyeok/loop_TTT/lact/.cache_inductor_llm/ka/ckaatkphzjqvfcofsv6w62fylxagxknndpu6jvcfgxu5fmtmwrcp.py":84:25)
#loc99 = loc("/NHNHOME/WORKSPACE/26msit001_A/jinhyeok/loop_TTT/lact/.cache_inductor_llm/ka/ckaatkphzjqvfcofsv6w62fylxagxknndpu6jvcfgxu5fmtmwrcp.py":85:39)
#loc100 = loc("/NHNHOME/WORKSPACE/26msit001_A/jinhyeok/loop_TTT/lact/.cache_inductor_llm/ka/ckaatkphzjqvfcofsv6w62fylxagxknndpu6jvcfgxu5fmtmwrcp.py":86:24)
#loc101 = loc("/NHNHOME/WORKSPACE/26msit001_A/jinhyeok/loop_TTT/lact/.cache_inductor_llm/ka/ckaatkphzjqvfcofsv6w62fylxagxknndpu6jvcfgxu5fmtmwrcp.py":87:24)
#loc102 = loc("/NHNHOME/WORKSPACE/26msit001_A/jinhyeok/loop_TTT/lact/.cache_inductor_llm/ka/ckaatkphzjqvfcofsv6w62fylxagxknndpu6jvcfgxu5fmtmwrcp.py":89:43)
#loc103 = loc("/NHNHOME/WORKSPACE/26msit001_A/jinhyeok/loop_TTT/lact/.cache_inductor_llm/ka/ckaatkphzjqvfcofsv6w62fylxagxknndpu6jvcfgxu5fmtmwrcp.py":89:39)
#loc104 = loc("/NHNHOME/WORKSPACE/26msit001_A/jinhyeok/loop_TTT/lact/.cache_inductor_llm/ka/ckaatkphzjqvfcofsv6w62fylxagxknndpu6jvcfgxu5fmtmwrcp.py":89:32)
#loc105 = loc("/NHNHOME/WORKSPACE/26msit001_A/jinhyeok/loop_TTT/lact/.cache_inductor_llm/ka/ckaatkphzjqvfcofsv6w62fylxagxknndpu6jvcfgxu5fmtmwrcp.py":89:65)
#loc106 = loc("/NHNHOME/WORKSPACE/26msit001_A/jinhyeok/loop_TTT/lact/.cache_inductor_llm/ka/ckaatkphzjqvfcofsv6w62fylxagxknndpu6jvcfgxu5fmtmwrcp.py":89:55)
#loc107 = loc("/NHNHOME/WORKSPACE/26msit001_A/jinhyeok/loop_TTT/lact/.cache_inductor_llm/ka/ckaatkphzjqvfcofsv6w62fylxagxknndpu6jvcfgxu5fmtmwrcp.py":90:40)
#loc108 = loc("/NHNHOME/WORKSPACE/26msit001_A/jinhyeok/loop_TTT/lact/.cache_inductor_llm/ka/ckaatkphzjqvfcofsv6w62fylxagxknndpu6jvcfgxu5fmtmwrcp.py":90:36)
#loc109 = loc("/NHNHOME/WORKSPACE/26msit001_A/jinhyeok/loop_TTT/lact/.cache_inductor_llm/ka/ckaatkphzjqvfcofsv6w62fylxagxknndpu6jvcfgxu5fmtmwrcp.py":90:29)
#loc110 = loc("/NHNHOME/WORKSPACE/26msit001_A/jinhyeok/loop_TTT/lact/.cache_inductor_llm/ka/ckaatkphzjqvfcofsv6w62fylxagxknndpu6jvcfgxu5fmtmwrcp.py":90:62)
#loc111 = loc("/NHNHOME/WORKSPACE/26msit001_A/jinhyeok/loop_TTT/lact/.cache_inductor_llm/ka/ckaatkphzjqvfcofsv6w62fylxagxknndpu6jvcfgxu5fmtmwrcp.py":90:52)
#loc112 = loc("/NHNHOME/WORKSPACE/26msit001_A/jinhyeok/loop_TTT/lact/.cache_inductor_llm/ka/ckaatkphzjqvfcofsv6w62fylxagxknndpu6jvcfgxu5fmtmwrcp.py":64:4)
#loc114 = loc("/NHNHOME/WORKSPACE/26msit001_A/jinhyeok/TTT_camera_embedding/.venv_llm/lib/python3.12/site-packages/triton/language/standard.py":291:36)
#loc116 = loc("/NHNHOME/WORKSPACE/26msit001_A/jinhyeok/TTT_camera_embedding/.venv_llm/lib/python3.12/site-packages/triton/language/standard.py":291:11)
#loc117 = loc("/NHNHOME/WORKSPACE/26msit001_A/jinhyeok/TTT_camera_embedding/.venv_llm/lib/python3.12/site-packages/triton/language/standard.py":291:4)
#loc119 = loc("/NHNHOME/WORKSPACE/26msit001_A/jinhyeok/TTT_camera_embedding/.venv_llm/lib/python3.12/site-packages/triton/language/standard.py":261:15)
#loc120 = loc("/NHNHOME/WORKSPACE/26msit001_A/jinhyeok/TTT_camera_embedding/.venv_llm/lib/python3.12/site-packages/triton/language/standard.py":261:11)
#loc121 = loc("/NHNHOME/WORKSPACE/26msit001_A/jinhyeok/TTT_camera_embedding/.venv_llm/lib/python3.12/site-packages/triton/language/standard.py":261:4)
#loc132 = loc("xnumel"(#loc1))
#loc133 = loc("r0_numel"(#loc2))
#loc134 = loc("xoffset"(#loc3))
#loc135 = loc("xoffset"(#loc4))
#loc136 = loc("xindex"(#loc5))
#loc137 = loc("xindex"(#loc6))
#loc138 = loc("xindex"(#loc7))
#loc139 = loc("xmask"(#loc8))
#loc140 = loc("r0_base"(#loc9))
#loc141 = loc("r0_base"(#loc10))
#loc142 = loc("x0"(#loc11))
#loc143 = loc("x1"(#loc12))
#loc144 = loc("tmp6"(#loc13))
#loc145 = loc("tmp6"(#loc14))
#loc146 = loc("_tmp12"(#loc15))
#loc147 = loc("tmp14"(#loc16))
#loc148 = loc("tmp14"(#loc17))
#loc149 = loc("_tmp20"(#loc18))
#loc150 = loc("_tmp12"(#loc19))
#loc151 = loc("r0_index"(#loc20))
#loc152 = loc("r0_mask"(#loc21))
#loc153 = loc("tmp0"(#loc22))
#loc154 = loc("tmp0"(#loc23))
#loc155 = loc("tmp0"(#loc24))
#loc156 = loc("tmp0"(#loc25))
#loc157 = loc("tmp0"(#loc26))
#loc158 = loc("tmp0"(#loc27))
#loc159 = loc("tmp0"(#loc28))
#loc160 = loc("tmp0"(#loc29))
#loc161 = loc("tmp2"(#loc30))
#loc162 = loc("tmp2"(#loc31))
#loc163 = loc("tmp2"(#loc32))
#loc164 = loc("tmp2"(#loc33))
#loc165 = loc("tmp2"(#loc34))
#loc166 = loc("tmp2"(#loc35))
#loc167 = loc("tmp5"(#loc36))
#loc168 = loc("tmp5"(#loc37))
#loc169 = loc("tmp5"(#loc38))
#loc170 = loc("tmp5"(#loc39))
#loc171 = loc("tmp5"(#loc40))
#loc172 = loc("tmp4"(#loc41))
#loc173 = loc("tmp7"(#loc42))
#loc174 = loc("tmp8"(#loc43))
#loc175 = loc("tmp9"(#loc44))
#loc176 = loc("tmp10"(#loc45))
#loc177 = loc("tmp13"(#loc46))
#loc178 = loc("_tmp12"(#loc47))
#loc179 = loc("_tmp12"(#loc48))
#loc180 = loc("tmp15"(#loc49))
#loc181 = loc("tmp16"(#loc50))
#loc182 = loc("tmp17"(#loc51))
#loc183 = loc("tmp18"(#loc52))
#loc184 = loc("tmp21"(#loc53))
#loc185 = loc("_tmp20"(#loc54))
#loc186 = loc("_tmp20"(#loc55))
#loc187 = loc("tmp12"(#loc57))
#loc188 = loc("tmp12"(#loc58))
#loc189 = loc("tmp20"(#loc59))
#loc190 = loc("tmp20"(#loc60))
#loc191 = loc("r0_index"(#loc64))
#loc192 = loc("r0_mask"(#loc65))
#loc193 = loc("tmp22"(#loc66))
#loc194 = loc("tmp22"(#loc67))
#loc195 = loc("tmp22"(#loc68))
#loc196 = loc("tmp22"(#loc69))
#loc197 = loc("tmp22"(#loc70))
#loc198 = loc("tmp23"(#loc71))
#loc199 = loc("tmp23"(#loc72))
#loc200 = loc("tmp23"(#loc73))
#loc201 = loc("tmp23"(#loc74))
#loc202 = loc("tmp23"(#loc75))
#loc203 = loc("tmp23"(#loc76))
#loc204 = loc("tmp23"(#loc77))
#loc205 = loc("tmp23"(#loc78))
#loc206 = loc("tmp25"(#loc79))
#loc207 = loc("tmp25"(#loc80))
#loc208 = loc("tmp25"(#loc81))
#loc209 = loc("tmp25"(#loc82))
#loc210 = loc("tmp25"(#loc83))
#loc211 = loc("tmp25"(#loc84))
#loc212 = loc("tmp35"(#loc85))
#loc213 = loc("tmp35"(#loc86))
#loc214 = loc("tmp35"(#loc87))
#loc215 = loc("tmp35"(#loc88))
#loc216 = loc("tmp35"(#loc89))
#loc217 = loc("tmp27"(#loc90))
#loc218 = loc("tmp28"(#loc91))
#loc219 = loc("tmp29"(#loc92))
#loc220 = loc("tmp30"(#loc93))
#loc221 = loc("tmp31"(#loc94))
#loc222 = loc("tmp32"(#loc95))
#loc223 = loc("tmp33"(#loc96))
#loc224 = loc("tmp34"(#loc97))
#loc225 = loc("tmp36"(#loc98))
#loc226 = loc("tmp37"(#loc99))
#loc227 = loc("tmp38"(#loc100))
#loc228 = loc("tmp39"(#loc101))
#loc232 = loc("_tmp20"(#loc150))
