#loc = loc("/NHNHOME/WORKSPACE/26msit001_A/jinhyeok/loop_TTT/lact/.cache_inductor_llm/kd/ckd4akesbumyab4xta6m3ggwbvrjs4kpro6tkxzv2vp4u2nfah66.py":18:0)
#loc32 = loc("in_ptr0"(#loc))
#loc33 = loc("in_ptr1"(#loc))
#loc34 = loc("in_ptr2"(#loc))
#loc35 = loc("in_ptr3"(#loc))
#loc36 = loc("out_ptr0"(#loc))
#loc37 = loc("out_ptr1"(#loc))
#loc38 = loc("out_ptr2"(#loc))
#loc39 = loc("xnumel"(#loc))
module {
  tt.func public @triton_poi_fused__to_copy_add_div_linalg_vector_norm_mean_mul_slice_transpose_zeros_like_10(%in_ptr0: !tt.ptr<bf16> {tt.divisibility = 16 : i32} loc("in_ptr0"(#loc)), %in_ptr1: !tt.ptr<f32> {tt.divisibility = 16 : i32} loc("in_ptr1"(#loc)), %in_ptr2: !tt.ptr<f32> {tt.divisibility = 16 : i32} loc("in_ptr2"(#loc)), %in_ptr3: !tt.ptr<bf16> {tt.divisibility = 16 : i32} loc("in_ptr3"(#loc)), %out_ptr0: !tt.ptr<bf16> {tt.divisibility = 16 : i32} loc("out_ptr0"(#loc)), %out_ptr1: !tt.ptr<bf16> {tt.divisibility = 16 : i32} loc("out_ptr1"(#loc)), %out_ptr2: !tt.ptr<bf16> {tt.divisibility = 16 : i32} loc("out_ptr2"(#loc)), %xnumel: i32 {tt.divisibility = 16 : i32} loc("xnumel"(#loc))) attributes {noinline = false} {
    %tmp16 = arith.constant dense<4.084800e+00> : tensor<512xf32> loc(#loc40)
    %tmp13 = arith.constant dense<1.000000e-07> : tensor<512xf32> loc(#loc41)
    %tmp6 = arith.constant dense<0.000000e+00> : tensor<512xf32> loc(#loc42)
    %tmp4 = arith.constant dense<1.024000e+03> : tensor<512xf32> loc(#loc43)
    %x1 = arith.constant dense<36864> : tensor<512xi32> loc(#loc44)
    %c512_i32 = arith.constant 512 : i32 loc(#loc6)
    %xoffset = tt.get_program_id x : i32 loc(#loc45)
    %xoffset_0 = arith.muli %xoffset, %c512_i32 : i32 loc(#loc46)
    %xindex = tt.make_range {end = 512 : i32, start = 0 : i32} : tensor<512xi32> loc(#loc47)
    %xindex_1 = tt.splat %xoffset_0 : i32 -> tensor<512xi32> loc(#loc48)
    %xindex_2 = arith.addi %xindex_1, %xindex : tensor<512xi32> loc(#loc48)
    %x1_3 = arith.divsi %xindex_2, %x1 : tensor<512xi32> loc(#loc44)
    %tmp0 = tt.splat %in_ptr0 : !tt.ptr<bf16> -> tensor<512x!tt.ptr<bf16>> loc(#loc49)
    %tmp0_4 = tt.addptr %tmp0, %xindex_2 : tensor<512x!tt.ptr<bf16>>, tensor<512xi32> loc(#loc49)
    %tmp0_5 = tt.load %tmp0_4 : tensor<512x!tt.ptr<bf16>> loc(#loc50)
    %tmp0_6 = arith.extf %tmp0_5 : tensor<512xbf16> to tensor<512xf32> loc(#loc51)
    %tmp2 = tt.splat %in_ptr1 : !tt.ptr<f32> -> tensor<512x!tt.ptr<f32>> loc(#loc52)
    %tmp2_7 = tt.addptr %tmp2, %x1_3 : tensor<512x!tt.ptr<f32>>, tensor<512xi32> loc(#loc52)
    %tmp2_8 = tt.load %tmp2_7 evictionPolicy = evict_last : tensor<512x!tt.ptr<f32>> loc(#loc53)
    %tmp10 = tt.splat %in_ptr2 : !tt.ptr<f32> -> tensor<512x!tt.ptr<f32>> loc(#loc54)
    %tmp10_9 = tt.addptr %tmp10, %x1_3 : tensor<512x!tt.ptr<f32>>, tensor<512xi32> loc(#loc54)
    %tmp10_10 = tt.load %tmp10_9 evictionPolicy = evict_last : tensor<512x!tt.ptr<f32>> loc(#loc55)
    %tmp17 = tt.splat %in_ptr3 : !tt.ptr<bf16> -> tensor<512x!tt.ptr<bf16>> loc(#loc56)
    %tmp17_11 = tt.addptr %tmp17, %xindex_2 : tensor<512x!tt.ptr<bf16>>, tensor<512xi32> loc(#loc56)
    %tmp17_12 = tt.load %tmp17_11 : tensor<512x!tt.ptr<bf16>> loc(#loc57)
    %tmp17_13 = arith.extf %tmp17_12 : tensor<512xbf16> to tensor<512xf32> loc(#loc58)
    %tmp4_14 = arith.divf %tmp2_8, %tmp4 : tensor<512xf32> loc(#loc43)
    %tmp6_15 = arith.mulf %tmp4_14, %tmp6 : tensor<512xf32> loc(#loc42)
    %tmp7 = arith.addf %tmp0_6, %tmp6_15 : tensor<512xf32> loc(#loc59)
    %tmp11 = tt.extern_elementwise %tmp10_10 {libname = "", libpath = "", pure = true, symbol = "__nv_sqrtf"} : (tensor<512xf32>) -> tensor<512xf32> loc(#loc60)
    %tmp13_16 = arith.addf %tmp11, %tmp13 : tensor<512xf32> loc(#loc41)
    %tmp14 = arith.divf %tmp7, %tmp13_16 : tensor<512xf32> loc(#loc61)
    %tmp16_17 = arith.mulf %tmp14, %tmp16 : tensor<512xf32> loc(#loc40)
    %tmp19 = arith.addf %tmp16_17, %tmp17_13 : tensor<512xf32> loc(#loc62)
    %0 = tt.splat %out_ptr0 : !tt.ptr<bf16> -> tensor<512x!tt.ptr<bf16>> loc(#loc25)
    %1 = tt.addptr %0, %xindex_2 : tensor<512x!tt.ptr<bf16>>, tensor<512xi32> loc(#loc25)
    %2 = arith.truncf %tmp19 : tensor<512xf32> to tensor<512xbf16> loc(#loc26)
    tt.store %1, %2 : tensor<512x!tt.ptr<bf16>> loc(#loc26)
    %3 = tt.splat %out_ptr1 : !tt.ptr<bf16> -> tensor<512x!tt.ptr<bf16>> loc(#loc27)
    %4 = tt.addptr %3, %xindex_2 : tensor<512x!tt.ptr<bf16>>, tensor<512xi32> loc(#loc27)
    tt.store %4, %2 : tensor<512x!tt.ptr<bf16>> loc(#loc28)
    %5 = tt.splat %out_ptr2 : !tt.ptr<bf16> -> tensor<512x!tt.ptr<bf16>> loc(#loc29)
    %6 = tt.addptr %5, %xindex_2 : tensor<512x!tt.ptr<bf16>>, tensor<512xi32> loc(#loc29)
    tt.store %6, %2 : tensor<512x!tt.ptr<bf16>> loc(#loc30)
    tt.return loc(#loc31)
  } loc(#loc)
} loc(#loc)
#loc1 = loc("/NHNHOME/WORKSPACE/26msit001_A/jinhyeok/loop_TTT/lact/.cache_inductor_llm/kd/ckd4akesbumyab4xta6m3ggwbvrjs4kpro6tkxzv2vp4u2nfah66.py":42:20)
#loc2 = loc("/NHNHOME/WORKSPACE/26msit001_A/jinhyeok/loop_TTT/lact/.cache_inductor_llm/kd/ckd4akesbumyab4xta6m3ggwbvrjs4kpro6tkxzv2vp4u2nfah66.py":39:20)
#loc3 = loc("/NHNHOME/WORKSPACE/26msit001_A/jinhyeok/loop_TTT/lact/.cache_inductor_llm/kd/ckd4akesbumyab4xta6m3ggwbvrjs4kpro6tkxzv2vp4u2nfah66.py":33:18)
#loc4 = loc("/NHNHOME/WORKSPACE/26msit001_A/jinhyeok/loop_TTT/lact/.cache_inductor_llm/kd/ckd4akesbumyab4xta6m3ggwbvrjs4kpro6tkxzv2vp4u2nfah66.py":31:19)
#loc5 = loc("/NHNHOME/WORKSPACE/26msit001_A/jinhyeok/loop_TTT/lact/.cache_inductor_llm/kd/ckd4akesbumyab4xta6m3ggwbvrjs4kpro6tkxzv2vp4u2nfah66.py":24:19)
#loc6 = loc(unknown)
#loc7 = loc("/NHNHOME/WORKSPACE/26msit001_A/jinhyeok/loop_TTT/lact/.cache_inductor_llm/kd/ckd4akesbumyab4xta6m3ggwbvrjs4kpro6tkxzv2vp4u2nfah66.py":20:28)
#loc8 = loc("/NHNHOME/WORKSPACE/26msit001_A/jinhyeok/loop_TTT/lact/.cache_inductor_llm/kd/ckd4akesbumyab4xta6m3ggwbvrjs4kpro6tkxzv2vp4u2nfah66.py":20:33)
#loc9 = loc("/NHNHOME/WORKSPACE/26msit001_A/jinhyeok/loop_TTT/lact/.cache_inductor_llm/kd/ckd4akesbumyab4xta6m3ggwbvrjs4kpro6tkxzv2vp4u2nfah66.py":21:36)
#loc10 = loc("/NHNHOME/WORKSPACE/26msit001_A/jinhyeok/loop_TTT/lact/.cache_inductor_llm/kd/ckd4akesbumyab4xta6m3ggwbvrjs4kpro6tkxzv2vp4u2nfah66.py":21:23)
#loc11 = loc("/NHNHOME/WORKSPACE/26msit001_A/jinhyeok/loop_TTT/lact/.cache_inductor_llm/kd/ckd4akesbumyab4xta6m3ggwbvrjs4kpro6tkxzv2vp4u2nfah66.py":25:30)
#loc12 = loc("/NHNHOME/WORKSPACE/26msit001_A/jinhyeok/loop_TTT/lact/.cache_inductor_llm/kd/ckd4akesbumyab4xta6m3ggwbvrjs4kpro6tkxzv2vp4u2nfah66.py":25:35)
#loc13 = loc("/NHNHOME/WORKSPACE/26msit001_A/jinhyeok/loop_TTT/lact/.cache_inductor_llm/kd/ckd4akesbumyab4xta6m3ggwbvrjs4kpro6tkxzv2vp4u2nfah66.py":25:44)
#loc14 = loc("/NHNHOME/WORKSPACE/26msit001_A/jinhyeok/loop_TTT/lact/.cache_inductor_llm/kd/ckd4akesbumyab4xta6m3ggwbvrjs4kpro6tkxzv2vp4u2nfah66.py":26:30)
#loc15 = loc("/NHNHOME/WORKSPACE/26msit001_A/jinhyeok/loop_TTT/lact/.cache_inductor_llm/kd/ckd4akesbumyab4xta6m3ggwbvrjs4kpro6tkxzv2vp4u2nfah66.py":26:35)
#loc16 = loc("/NHNHOME/WORKSPACE/26msit001_A/jinhyeok/loop_TTT/lact/.cache_inductor_llm/kd/ckd4akesbumyab4xta6m3ggwbvrjs4kpro6tkxzv2vp4u2nfah66.py":27:31)
#loc17 = loc("/NHNHOME/WORKSPACE/26msit001_A/jinhyeok/loop_TTT/lact/.cache_inductor_llm/kd/ckd4akesbumyab4xta6m3ggwbvrjs4kpro6tkxzv2vp4u2nfah66.py":27:36)
#loc18 = loc("/NHNHOME/WORKSPACE/26msit001_A/jinhyeok/loop_TTT/lact/.cache_inductor_llm/kd/ckd4akesbumyab4xta6m3ggwbvrjs4kpro6tkxzv2vp4u2nfah66.py":28:31)
#loc19 = loc("/NHNHOME/WORKSPACE/26msit001_A/jinhyeok/loop_TTT/lact/.cache_inductor_llm/kd/ckd4akesbumyab4xta6m3ggwbvrjs4kpro6tkxzv2vp4u2nfah66.py":28:36)
#loc20 = loc("/NHNHOME/WORKSPACE/26msit001_A/jinhyeok/loop_TTT/lact/.cache_inductor_llm/kd/ckd4akesbumyab4xta6m3ggwbvrjs4kpro6tkxzv2vp4u2nfah66.py":28:45)
#loc21 = loc("/NHNHOME/WORKSPACE/26msit001_A/jinhyeok/loop_TTT/lact/.cache_inductor_llm/kd/ckd4akesbumyab4xta6m3ggwbvrjs4kpro6tkxzv2vp4u2nfah66.py":34:18)
#loc22 = loc("/NHNHOME/WORKSPACE/26msit001_A/jinhyeok/loop_TTT/lact/.cache_inductor_llm/kd/ckd4akesbumyab4xta6m3ggwbvrjs4kpro6tkxzv2vp4u2nfah66.py":37:27)
#loc23 = loc("/NHNHOME/WORKSPACE/26msit001_A/jinhyeok/loop_TTT/lact/.cache_inductor_llm/kd/ckd4akesbumyab4xta6m3ggwbvrjs4kpro6tkxzv2vp4u2nfah66.py":40:20)
#loc24 = loc("/NHNHOME/WORKSPACE/26msit001_A/jinhyeok/loop_TTT/lact/.cache_inductor_llm/kd/ckd4akesbumyab4xta6m3ggwbvrjs4kpro6tkxzv2vp4u2nfah66.py":44:20)
#loc25 = loc("/NHNHOME/WORKSPACE/26msit001_A/jinhyeok/loop_TTT/lact/.cache_inductor_llm/kd/ckd4akesbumyab4xta6m3ggwbvrjs4kpro6tkxzv2vp4u2nfah66.py":46:25)
#loc26 = loc("/NHNHOME/WORKSPACE/26msit001_A/jinhyeok/loop_TTT/lact/.cache_inductor_llm/kd/ckd4akesbumyab4xta6m3ggwbvrjs4kpro6tkxzv2vp4u2nfah66.py":46:37)
#loc27 = loc("/NHNHOME/WORKSPACE/26msit001_A/jinhyeok/loop_TTT/lact/.cache_inductor_llm/kd/ckd4akesbumyab4xta6m3ggwbvrjs4kpro6tkxzv2vp4u2nfah66.py":47:25)
#loc28 = loc("/NHNHOME/WORKSPACE/26msit001_A/jinhyeok/loop_TTT/lact/.cache_inductor_llm/kd/ckd4akesbumyab4xta6m3ggwbvrjs4kpro6tkxzv2vp4u2nfah66.py":47:37)
#loc29 = loc("/NHNHOME/WORKSPACE/26msit001_A/jinhyeok/loop_TTT/lact/.cache_inductor_llm/kd/ckd4akesbumyab4xta6m3ggwbvrjs4kpro6tkxzv2vp4u2nfah66.py":48:25)
#loc30 = loc("/NHNHOME/WORKSPACE/26msit001_A/jinhyeok/loop_TTT/lact/.cache_inductor_llm/kd/ckd4akesbumyab4xta6m3ggwbvrjs4kpro6tkxzv2vp4u2nfah66.py":48:37)
#loc31 = loc("/NHNHOME/WORKSPACE/26msit001_A/jinhyeok/loop_TTT/lact/.cache_inductor_llm/kd/ckd4akesbumyab4xta6m3ggwbvrjs4kpro6tkxzv2vp4u2nfah66.py":48:4)
#loc40 = loc("tmp16"(#loc1))
#loc41 = loc("tmp13"(#loc2))
#loc42 = loc("tmp6"(#loc3))
#loc43 = loc("tmp4"(#loc4))
#loc44 = loc("x1"(#loc5))
#loc45 = loc("xoffset"(#loc7))
#loc46 = loc("xoffset"(#loc8))
#loc47 = loc("xindex"(#loc9))
#loc48 = loc("xindex"(#loc10))
#loc49 = loc("tmp0"(#loc11))
#loc50 = loc("tmp0"(#loc12))
#loc51 = loc("tmp0"(#loc13))
#loc52 = loc("tmp2"(#loc14))
#loc53 = loc("tmp2"(#loc15))
#loc54 = loc("tmp10"(#loc16))
#loc55 = loc("tmp10"(#loc17))
#loc56 = loc("tmp17"(#loc18))
#loc57 = loc("tmp17"(#loc19))
#loc58 = loc("tmp17"(#loc20))
#loc59 = loc("tmp7"(#loc21))
#loc60 = loc("tmp11"(#loc22))
#loc61 = loc("tmp14"(#loc23))
#loc62 = loc("tmp19"(#loc24))
