#loc = loc("/NHNHOME/WORKSPACE/26msit001_A/jinhyeok/loop_TTT/lact/.cache_inductor_llm/mo/cmoivktxpw6irbylfen22dqfjt4rafsyz4tae7xgycbw6kccygkg.py":18:0)
#loc156 = loc("in_out_ptr0"(#loc))
#loc157 = loc("in_out_ptr1"(#loc))
#loc158 = loc("in_ptr0"(#loc))
#loc159 = loc("in_ptr1"(#loc))
#loc160 = loc("in_ptr2"(#loc))
#loc161 = loc("in_ptr3"(#loc))
#loc162 = loc("in_ptr4"(#loc))
#loc163 = loc("in_ptr5"(#loc))
#loc164 = loc("in_ptr6"(#loc))
#loc165 = loc("in_ptr7"(#loc))
#loc166 = loc("in_ptr8"(#loc))
#loc167 = loc("in_ptr9"(#loc))
#loc168 = loc("in_ptr10"(#loc))
#loc169 = loc("in_ptr11"(#loc))
#loc170 = loc("in_ptr12"(#loc))
#loc171 = loc("in_ptr13"(#loc))
#loc172 = loc("in_ptr14"(#loc))
#loc173 = loc("in_ptr15"(#loc))
#loc174 = loc("out_ptr0"(#loc))
#loc175 = loc("out_ptr1"(#loc))
#loc176 = loc("ynumel"(#loc))
#loc177 = loc("xnumel"(#loc))
module {
  tt.func public @triton_poi_fused__to_copy_add_div_eq_masked_fill_mul_transpose_zeros_like_34(%in_out_ptr0: !tt.ptr<bf16> {tt.divisibility = 16 : i32} loc("in_out_ptr0"(#loc)), %in_out_ptr1: !tt.ptr<bf16> {tt.divisibility = 16 : i32} loc("in_out_ptr1"(#loc)), %in_ptr0: !tt.ptr<f32> {tt.divisibility = 16 : i32} loc("in_ptr0"(#loc)), %in_ptr1: !tt.ptr<bf16> {tt.divisibility = 16 : i32} loc("in_ptr1"(#loc)), %in_ptr2: !tt.ptr<bf16> {tt.divisibility = 16 : i32} loc("in_ptr2"(#loc)), %in_ptr3: !tt.ptr<f32> {tt.divisibility = 16 : i32} loc("in_ptr3"(#loc)), %in_ptr4: !tt.ptr<f32> {tt.divisibility = 16 : i32} loc("in_ptr4"(#loc)), %in_ptr5: !tt.ptr<bf16> {tt.divisibility = 16 : i32} loc("in_ptr5"(#loc)), %in_ptr6: !tt.ptr<f32> {tt.divisibility = 16 : i32} loc("in_ptr6"(#loc)), %in_ptr7: !tt.ptr<f32> {tt.divisibility = 16 : i32} loc("in_ptr7"(#loc)), %in_ptr8: !tt.ptr<f32> {tt.divisibility = 16 : i32} loc("in_ptr8"(#loc)), %in_ptr9: !tt.ptr<f32> {tt.divisibility = 16 : i32} loc("in_ptr9"(#loc)), %in_ptr10: !tt.ptr<bf16> {tt.divisibility = 16 : i32} loc("in_ptr10"(#loc)), %in_ptr11: !tt.ptr<bf16> {tt.divisibility = 16 : i32} loc("in_ptr11"(#loc)), %in_ptr12: !tt.ptr<f32> {tt.divisibility = 16 : i32} loc("in_ptr12"(#loc)), %in_ptr13: !tt.ptr<f32> {tt.divisibility = 16 : i32} loc("in_ptr13"(#loc)), %in_ptr14: !tt.ptr<bf16> {tt.divisibility = 16 : i32} loc("in_ptr14"(#loc)), %in_ptr15: !tt.ptr<f32> {tt.divisibility = 16 : i32} loc("in_ptr15"(#loc)), %out_ptr0: !tt.ptr<bf16> {tt.divisibility = 16 : i32} loc("out_ptr0"(#loc)), %out_ptr1: !tt.ptr<bf16> {tt.divisibility = 16 : i32} loc("out_ptr1"(#loc)), %ynumel: i32 {tt.divisibility = 16 : i32} loc("ynumel"(#loc)), %xnumel: i32 {tt.divisibility = 16 : i32} loc("xnumel"(#loc))) attributes {noinline = false} {
    %ynumel_0 = arith.constant 1536 : i32 loc(#loc178)
    %xnumel_1 = arith.constant 192 : i32 loc(#loc179)
    %yoffset = tt.get_program_id y : i32 loc(#loc180)
    %yoffset_2 = arith.constant 1024 : i32 loc(#loc181)
    %yoffset_3 = arith.constant 1024 : i32 loc(#loc181)
    %yoffset_4 = arith.muli %yoffset, %yoffset_3 : i32 loc(#loc181)
    %yindex = tt.make_range {end = 1024 : i32, start = 0 : i32} : tensor<1024xi32> loc(#loc182)
    %yindex_5 = tt.expand_dims %yindex {axis = 1 : i32} : tensor<1024xi32> -> tensor<1024x1xi32> loc(#loc183)
    %yindex_6 = tt.splat %yoffset_4 : i32 -> tensor<1024x1xi32> loc(#loc184)
    %yindex_7 = arith.addi %yindex_6, %yindex_5 : tensor<1024x1xi32> loc(#loc184)
    %ymask = arith.constant dense<1536> : tensor<1024x1xi32> loc(#loc185)
    %ymask_8 = arith.cmpi slt, %yindex_7, %ymask : tensor<1024x1xi32> loc(#loc185)
    %xoffset = tt.get_program_id x : i32 loc(#loc186)
    %xoffset_9 = arith.constant 1 : i32 loc(#loc187)
    %xoffset_10 = arith.constant 1 : i32 loc(#loc187)
    %xoffset_11 = arith.muli %xoffset, %xoffset_10 : i32 loc(#loc187)
    %xindex = tt.make_range {end = 1 : i32, start = 0 : i32} : tensor<1xi32> loc(#loc188)
    %xindex_12 = tt.expand_dims %xindex {axis = 0 : i32} : tensor<1xi32> -> tensor<1x1xi32> loc(#loc189)
    %xindex_13 = tt.splat %xoffset_11 : i32 -> tensor<1x1xi32> loc(#loc190)
    %xindex_14 = arith.addi %xindex_13, %xindex_12 : tensor<1x1xi32> loc(#loc190)
    %xmask = arith.constant dense<192> : tensor<1x1xi32> loc(#loc191)
    %xmask_15 = arith.cmpi slt, %xindex_14, %xmask : tensor<1x1xi32> loc(#loc191)
    %y0 = arith.constant 192 : i32 loc(#loc192)
    %y0_16 = arith.constant 192 : i32 loc(#loc192)
    %y0_17 = arith.constant dense<192> : tensor<1024x1xi32> loc(#loc192)
    %y0_18 = arith.remsi %yindex_7, %y0_17 : tensor<1024x1xi32> loc(#loc192)
    %y1 = arith.constant 192 : i32 loc(#loc193)
    %y1_19 = arith.constant 192 : i32 loc(#loc193)
    %y1_20 = arith.constant dense<192> : tensor<1024x1xi32> loc(#loc193)
    %y1_21 = arith.divsi %yindex_7, %y1_20 : tensor<1024x1xi32> loc(#loc193)
    %tmp0 = arith.constant 192 : i32 loc(#loc194)
    %tmp0_22 = arith.constant 192 : i32 loc(#loc194)
    %tmp0_23 = arith.constant dense<192> : tensor<1024x1xi32> loc(#loc194)
    %tmp0_24 = arith.muli %tmp0_23, %yindex_7 : tensor<1024x1xi32> loc(#loc194)
    %tmp0_25 = tt.broadcast %xindex_14 : tensor<1x1xi32> -> tensor<1024x1xi32> loc(#loc195)
    %tmp0_26 = arith.addi %tmp0_25, %tmp0_24 : tensor<1024x1xi32> loc(#loc195)
    %tmp0_27 = tt.splat %in_out_ptr0 : !tt.ptr<bf16> -> tensor<1024x1x!tt.ptr<bf16>> loc(#loc196)
    %tmp0_28 = tt.addptr %tmp0_27, %tmp0_26 : tensor<1024x1x!tt.ptr<bf16>>, tensor<1024x1xi32> loc(#loc196)
    %tmp0_29 = tt.broadcast %xmask_15 : tensor<1x1xi1> -> tensor<1024x1xi1> loc(#loc197)
    %tmp0_30 = arith.andi %tmp0_29, %ymask_8 : tensor<1024x1xi1> loc(#loc197)
    %tmp0_31 = tt.load %tmp0_28, %tmp0_30 evictionPolicy = evict_last : tensor<1024x1x!tt.ptr<bf16>> loc(#loc198)
    %tmp0_32 = arith.extf %tmp0_31 : tensor<1024x1xbf16> to tensor<1024x1xf32> loc(#loc199)
    %tmp2 = arith.constant 192 : i32 loc(#loc200)
    %tmp2_33 = arith.constant 192 : i32 loc(#loc200)
    %tmp2_34 = arith.constant dense<192> : tensor<1024x1xi32> loc(#loc200)
    %tmp2_35 = arith.muli %tmp2_34, %yindex_7 : tensor<1024x1xi32> loc(#loc200)
    %tmp2_36 = tt.broadcast %xindex_14 : tensor<1x1xi32> -> tensor<1024x1xi32> loc(#loc201)
    %tmp2_37 = arith.addi %tmp2_36, %tmp2_35 : tensor<1024x1xi32> loc(#loc201)
    %tmp2_38 = tt.splat %in_ptr0 : !tt.ptr<f32> -> tensor<1024x1x!tt.ptr<f32>> loc(#loc202)
    %tmp2_39 = tt.addptr %tmp2_38, %tmp2_37 : tensor<1024x1x!tt.ptr<f32>>, tensor<1024x1xi32> loc(#loc202)
    %tmp2_40 = tt.broadcast %xmask_15 : tensor<1x1xi1> -> tensor<1024x1xi1> loc(#loc203)
    %tmp2_41 = arith.andi %tmp2_40, %ymask_8 : tensor<1024x1xi1> loc(#loc203)
    %tmp2_42 = tt.load %tmp2_39, %tmp2_41 evictionPolicy = evict_last : tensor<1024x1x!tt.ptr<f32>> loc(#loc204)
    %tmp6 = arith.constant 192 : i32 loc(#loc205)
    %tmp6_43 = arith.constant 192 : i32 loc(#loc205)
    %tmp6_44 = arith.constant dense<192> : tensor<1024x1xi32> loc(#loc205)
    %tmp6_45 = arith.muli %tmp6_44, %yindex_7 : tensor<1024x1xi32> loc(#loc205)
    %tmp6_46 = tt.broadcast %xindex_14 : tensor<1x1xi32> -> tensor<1024x1xi32> loc(#loc206)
    %tmp6_47 = arith.addi %tmp6_46, %tmp6_45 : tensor<1024x1xi32> loc(#loc206)
    %tmp6_48 = tt.splat %in_ptr1 : !tt.ptr<bf16> -> tensor<1024x1x!tt.ptr<bf16>> loc(#loc207)
    %tmp6_49 = tt.addptr %tmp6_48, %tmp6_47 : tensor<1024x1x!tt.ptr<bf16>>, tensor<1024x1xi32> loc(#loc207)
    %tmp6_50 = tt.broadcast %xmask_15 : tensor<1x1xi1> -> tensor<1024x1xi1> loc(#loc208)
    %tmp6_51 = arith.andi %tmp6_50, %ymask_8 : tensor<1024x1xi1> loc(#loc208)
    %tmp6_52 = tt.load %tmp6_49, %tmp6_51 evictionPolicy = evict_last : tensor<1024x1x!tt.ptr<bf16>> loc(#loc209)
    %tmp6_53 = arith.extf %tmp6_52 : tensor<1024x1xbf16> to tensor<1024x1xf32> loc(#loc210)
    %tmp9 = arith.constant 192 : i32 loc(#loc211)
    %tmp9_54 = arith.constant 192 : i32 loc(#loc211)
    %tmp9_55 = arith.constant dense<192> : tensor<1x1xi32> loc(#loc211)
    %tmp9_56 = arith.muli %tmp9_55, %xindex_14 : tensor<1x1xi32> loc(#loc211)
    %tmp9_57 = tt.broadcast %tmp9_56 : tensor<1x1xi32> -> tensor<1024x1xi32> loc(#loc212)
    %tmp9_58 = arith.addi %y0_18, %tmp9_57 : tensor<1024x1xi32> loc(#loc212)
    %tmp9_59 = arith.constant 36864 : i32 loc(#loc213)
    %tmp9_60 = arith.constant 36864 : i32 loc(#loc213)
    %tmp9_61 = arith.constant dense<36864> : tensor<1024x1xi32> loc(#loc213)
    %tmp9_62 = arith.muli %tmp9_61, %y1_21 : tensor<1024x1xi32> loc(#loc213)
    %tmp9_63 = arith.addi %tmp9_58, %tmp9_62 : tensor<1024x1xi32> loc(#loc214)
    %tmp9_64 = tt.splat %in_ptr2 : !tt.ptr<bf16> -> tensor<1024x1x!tt.ptr<bf16>> loc(#loc215)
    %tmp9_65 = tt.addptr %tmp9_64, %tmp9_63 : tensor<1024x1x!tt.ptr<bf16>>, tensor<1024x1xi32> loc(#loc215)
    %tmp9_66 = tt.broadcast %xmask_15 : tensor<1x1xi1> -> tensor<1024x1xi1> loc(#loc216)
    %tmp9_67 = arith.andi %tmp9_66, %ymask_8 : tensor<1024x1xi1> loc(#loc216)
    %tmp9_68 = tt.load %tmp9_65, %tmp9_67 evictionPolicy = evict_last : tensor<1024x1x!tt.ptr<bf16>> loc(#loc217)
    %tmp9_69 = arith.extf %tmp9_68 : tensor<1024x1xbf16> to tensor<1024x1xf32> loc(#loc218)
    %tmp12 = tt.splat %in_ptr3 : !tt.ptr<f32> -> tensor<1024x1x!tt.ptr<f32>> loc(#loc219)
    %tmp12_70 = tt.addptr %tmp12, %y1_21 : tensor<1024x1x!tt.ptr<f32>>, tensor<1024x1xi32> loc(#loc219)
    %tmp12_71 = tt.load %tmp12_70, %ymask_8 evictionPolicy = evict_last : tensor<1024x1x!tt.ptr<f32>> loc(#loc220)
    %tmp17 = tt.splat %in_ptr4 : !tt.ptr<f32> -> tensor<1024x1x!tt.ptr<f32>> loc(#loc221)
    %tmp17_72 = tt.addptr %tmp17, %y1_21 : tensor<1024x1x!tt.ptr<f32>>, tensor<1024x1xi32> loc(#loc221)
    %tmp17_73 = tt.load %tmp17_72, %ymask_8 evictionPolicy = evict_last : tensor<1024x1x!tt.ptr<f32>> loc(#loc222)
    %tmp20 = arith.constant 192 : i32 loc(#loc223)
    %tmp20_74 = arith.constant 192 : i32 loc(#loc223)
    %tmp20_75 = arith.constant dense<192> : tensor<1024x1xi32> loc(#loc223)
    %tmp20_76 = arith.muli %tmp20_75, %yindex_7 : tensor<1024x1xi32> loc(#loc223)
    %tmp20_77 = tt.broadcast %xindex_14 : tensor<1x1xi32> -> tensor<1024x1xi32> loc(#loc224)
    %tmp20_78 = arith.addi %tmp20_77, %tmp20_76 : tensor<1024x1xi32> loc(#loc224)
    %tmp20_79 = tt.splat %in_ptr5 : !tt.ptr<bf16> -> tensor<1024x1x!tt.ptr<bf16>> loc(#loc225)
    %tmp20_80 = tt.addptr %tmp20_79, %tmp20_78 : tensor<1024x1x!tt.ptr<bf16>>, tensor<1024x1xi32> loc(#loc225)
    %tmp20_81 = tt.broadcast %xmask_15 : tensor<1x1xi1> -> tensor<1024x1xi1> loc(#loc226)
    %tmp20_82 = arith.andi %tmp20_81, %ymask_8 : tensor<1024x1xi1> loc(#loc226)
    %tmp20_83 = tt.load %tmp20_80, %tmp20_82 evictionPolicy = evict_last : tensor<1024x1x!tt.ptr<bf16>> loc(#loc227)
    %tmp20_84 = arith.extf %tmp20_83 : tensor<1024x1xbf16> to tensor<1024x1xf32> loc(#loc228)
    %tmp22 = tt.splat %in_ptr6 : !tt.ptr<f32> -> tensor<1024x1x!tt.ptr<f32>> loc(#loc229)
    %tmp22_85 = tt.addptr %tmp22, %y1_21 : tensor<1024x1x!tt.ptr<f32>>, tensor<1024x1xi32> loc(#loc229)
    %tmp22_86 = tt.load %tmp22_85, %ymask_8 evictionPolicy = evict_last : tensor<1024x1x!tt.ptr<f32>> loc(#loc230)
    %tmp32 = arith.constant 192 : i32 loc(#loc231)
    %tmp32_87 = arith.constant 192 : i32 loc(#loc231)
    %tmp32_88 = arith.constant dense<192> : tensor<1024x1xi32> loc(#loc231)
    %tmp32_89 = arith.muli %tmp32_88, %yindex_7 : tensor<1024x1xi32> loc(#loc231)
    %tmp32_90 = tt.broadcast %xindex_14 : tensor<1x1xi32> -> tensor<1024x1xi32> loc(#loc232)
    %tmp32_91 = arith.addi %tmp32_90, %tmp32_89 : tensor<1024x1xi32> loc(#loc232)
    %tmp32_92 = tt.splat %in_ptr7 : !tt.ptr<f32> -> tensor<1024x1x!tt.ptr<f32>> loc(#loc233)
    %tmp32_93 = tt.addptr %tmp32_92, %tmp32_91 : tensor<1024x1x!tt.ptr<f32>>, tensor<1024x1xi32> loc(#loc233)
    %tmp32_94 = tt.broadcast %xmask_15 : tensor<1x1xi1> -> tensor<1024x1xi1> loc(#loc234)
    %tmp32_95 = arith.andi %tmp32_94, %ymask_8 : tensor<1024x1xi1> loc(#loc234)
    %tmp32_96 = tt.load %tmp32_93, %tmp32_95 evictionPolicy = evict_last : tensor<1024x1x!tt.ptr<f32>> loc(#loc235)
    %tmp33 = tt.splat %in_ptr8 : !tt.ptr<f32> -> tensor<1024x1x!tt.ptr<f32>> loc(#loc236)
    %tmp33_97 = tt.addptr %tmp33, %y1_21 : tensor<1024x1x!tt.ptr<f32>>, tensor<1024x1xi32> loc(#loc236)
    %tmp33_98 = tt.load %tmp33_97, %ymask_8 evictionPolicy = evict_last : tensor<1024x1x!tt.ptr<f32>> loc(#loc237)
    %tmp38 = arith.constant 192 : i32 loc(#loc238)
    %tmp38_99 = arith.constant 192 : i32 loc(#loc238)
    %tmp38_100 = arith.constant dense<192> : tensor<1024x1xi32> loc(#loc238)
    %tmp38_101 = arith.muli %tmp38_100, %yindex_7 : tensor<1024x1xi32> loc(#loc238)
    %tmp38_102 = tt.broadcast %xindex_14 : tensor<1x1xi32> -> tensor<1024x1xi32> loc(#loc239)
    %tmp38_103 = arith.addi %tmp38_102, %tmp38_101 : tensor<1024x1xi32> loc(#loc239)
    %tmp38_104 = tt.splat %in_out_ptr1 : !tt.ptr<bf16> -> tensor<1024x1x!tt.ptr<bf16>> loc(#loc240)
    %tmp38_105 = tt.addptr %tmp38_104, %tmp38_103 : tensor<1024x1x!tt.ptr<bf16>>, tensor<1024x1xi32> loc(#loc240)
    %tmp38_106 = tt.broadcast %xmask_15 : tensor<1x1xi1> -> tensor<1024x1xi1> loc(#loc241)
    %tmp38_107 = arith.andi %tmp38_106, %ymask_8 : tensor<1024x1xi1> loc(#loc241)
    %tmp38_108 = tt.load %tmp38_105, %tmp38_107 evictionPolicy = evict_last : tensor<1024x1x!tt.ptr<bf16>> loc(#loc242)
    %tmp38_109 = arith.extf %tmp38_108 : tensor<1024x1xbf16> to tensor<1024x1xf32> loc(#loc243)
    %tmp40 = arith.constant 192 : i32 loc(#loc244)
    %tmp40_110 = arith.constant 192 : i32 loc(#loc244)
    %tmp40_111 = arith.constant dense<192> : tensor<1024x1xi32> loc(#loc244)
    %tmp40_112 = arith.muli %tmp40_111, %yindex_7 : tensor<1024x1xi32> loc(#loc244)
    %tmp40_113 = tt.broadcast %xindex_14 : tensor<1x1xi32> -> tensor<1024x1xi32> loc(#loc245)
    %tmp40_114 = arith.addi %tmp40_113, %tmp40_112 : tensor<1024x1xi32> loc(#loc245)
    %tmp40_115 = tt.splat %in_ptr9 : !tt.ptr<f32> -> tensor<1024x1x!tt.ptr<f32>> loc(#loc246)
    %tmp40_116 = tt.addptr %tmp40_115, %tmp40_114 : tensor<1024x1x!tt.ptr<f32>>, tensor<1024x1xi32> loc(#loc246)
    %tmp40_117 = tt.broadcast %xmask_15 : tensor<1x1xi1> -> tensor<1024x1xi1> loc(#loc247)
    %tmp40_118 = arith.andi %tmp40_117, %ymask_8 : tensor<1024x1xi1> loc(#loc247)
    %tmp40_119 = tt.load %tmp40_116, %tmp40_118 evictionPolicy = evict_last : tensor<1024x1x!tt.ptr<f32>> loc(#loc248)
    %tmp43 = arith.constant 192 : i32 loc(#loc249)
    %tmp43_120 = arith.constant 192 : i32 loc(#loc249)
    %tmp43_121 = arith.constant dense<192> : tensor<1024x1xi32> loc(#loc249)
    %tmp43_122 = arith.muli %tmp43_121, %yindex_7 : tensor<1024x1xi32> loc(#loc249)
    %tmp43_123 = tt.broadcast %xindex_14 : tensor<1x1xi32> -> tensor<1024x1xi32> loc(#loc250)
    %tmp43_124 = arith.addi %tmp43_123, %tmp43_122 : tensor<1024x1xi32> loc(#loc250)
    %tmp43_125 = tt.splat %in_ptr10 : !tt.ptr<bf16> -> tensor<1024x1x!tt.ptr<bf16>> loc(#loc251)
    %tmp43_126 = tt.addptr %tmp43_125, %tmp43_124 : tensor<1024x1x!tt.ptr<bf16>>, tensor<1024x1xi32> loc(#loc251)
    %tmp43_127 = tt.broadcast %xmask_15 : tensor<1x1xi1> -> tensor<1024x1xi1> loc(#loc252)
    %tmp43_128 = arith.andi %tmp43_127, %ymask_8 : tensor<1024x1xi1> loc(#loc252)
    %tmp43_129 = tt.load %tmp43_126, %tmp43_128 evictionPolicy = evict_last : tensor<1024x1x!tt.ptr<bf16>> loc(#loc253)
    %tmp43_130 = arith.extf %tmp43_129 : tensor<1024x1xbf16> to tensor<1024x1xf32> loc(#loc254)
    %tmp46 = arith.constant 192 : i32 loc(#loc255)
    %tmp46_131 = arith.constant 192 : i32 loc(#loc255)
    %tmp46_132 = arith.constant dense<192> : tensor<1x1xi32> loc(#loc255)
    %tmp46_133 = arith.muli %tmp46_132, %xindex_14 : tensor<1x1xi32> loc(#loc255)
    %tmp46_134 = tt.broadcast %tmp46_133 : tensor<1x1xi32> -> tensor<1024x1xi32> loc(#loc256)
    %tmp46_135 = arith.addi %y0_18, %tmp46_134 : tensor<1024x1xi32> loc(#loc256)
    %tmp46_136 = arith.constant 36864 : i32 loc(#loc257)
    %tmp46_137 = arith.constant 36864 : i32 loc(#loc257)
    %tmp46_138 = arith.constant dense<36864> : tensor<1024x1xi32> loc(#loc257)
    %tmp46_139 = arith.muli %tmp46_138, %y1_21 : tensor<1024x1xi32> loc(#loc257)
    %tmp46_140 = arith.addi %tmp46_135, %tmp46_139 : tensor<1024x1xi32> loc(#loc258)
    %tmp46_141 = tt.splat %in_ptr11 : !tt.ptr<bf16> -> tensor<1024x1x!tt.ptr<bf16>> loc(#loc259)
    %tmp46_142 = tt.addptr %tmp46_141, %tmp46_140 : tensor<1024x1x!tt.ptr<bf16>>, tensor<1024x1xi32> loc(#loc259)
    %tmp46_143 = tt.broadcast %xmask_15 : tensor<1x1xi1> -> tensor<1024x1xi1> loc(#loc260)
    %tmp46_144 = arith.andi %tmp46_143, %ymask_8 : tensor<1024x1xi1> loc(#loc260)
    %tmp46_145 = tt.load %tmp46_142, %tmp46_144 evictionPolicy = evict_last : tensor<1024x1x!tt.ptr<bf16>> loc(#loc261)
    %tmp46_146 = arith.extf %tmp46_145 : tensor<1024x1xbf16> to tensor<1024x1xf32> loc(#loc262)
    %tmp49 = tt.splat %in_ptr12 : !tt.ptr<f32> -> tensor<1024x1x!tt.ptr<f32>> loc(#loc263)
    %tmp49_147 = tt.addptr %tmp49, %y1_21 : tensor<1024x1x!tt.ptr<f32>>, tensor<1024x1xi32> loc(#loc263)
    %tmp49_148 = tt.load %tmp49_147, %ymask_8 evictionPolicy = evict_last : tensor<1024x1x!tt.ptr<f32>> loc(#loc264)
    %tmp53 = tt.splat %in_ptr13 : !tt.ptr<f32> -> tensor<1024x1x!tt.ptr<f32>> loc(#loc265)
    %tmp53_149 = tt.addptr %tmp53, %y1_21 : tensor<1024x1x!tt.ptr<f32>>, tensor<1024x1xi32> loc(#loc265)
    %tmp53_150 = tt.load %tmp53_149, %ymask_8 evictionPolicy = evict_last : tensor<1024x1x!tt.ptr<f32>> loc(#loc266)
    %tmp55 = arith.constant 192 : i32 loc(#loc267)
    %tmp55_151 = arith.constant 192 : i32 loc(#loc267)
    %tmp55_152 = arith.constant dense<192> : tensor<1024x1xi32> loc(#loc267)
    %tmp55_153 = arith.muli %tmp55_152, %yindex_7 : tensor<1024x1xi32> loc(#loc267)
    %tmp55_154 = tt.broadcast %xindex_14 : tensor<1x1xi32> -> tensor<1024x1xi32> loc(#loc268)
    %tmp55_155 = arith.addi %tmp55_154, %tmp55_153 : tensor<1024x1xi32> loc(#loc268)
    %tmp55_156 = tt.splat %in_ptr14 : !tt.ptr<bf16> -> tensor<1024x1x!tt.ptr<bf16>> loc(#loc269)
    %tmp55_157 = tt.addptr %tmp55_156, %tmp55_155 : tensor<1024x1x!tt.ptr<bf16>>, tensor<1024x1xi32> loc(#loc269)
    %tmp55_158 = tt.broadcast %xmask_15 : tensor<1x1xi1> -> tensor<1024x1xi1> loc(#loc270)
    %tmp55_159 = arith.andi %tmp55_158, %ymask_8 : tensor<1024x1xi1> loc(#loc270)
    %tmp55_160 = tt.load %tmp55_157, %tmp55_159 evictionPolicy = evict_last : tensor<1024x1x!tt.ptr<bf16>> loc(#loc271)
    %tmp55_161 = arith.extf %tmp55_160 : tensor<1024x1xbf16> to tensor<1024x1xf32> loc(#loc272)
    %tmp65 = arith.constant 192 : i32 loc(#loc273)
    %tmp65_162 = arith.constant 192 : i32 loc(#loc273)
    %tmp65_163 = arith.constant dense<192> : tensor<1024x1xi32> loc(#loc273)
    %tmp65_164 = arith.muli %tmp65_163, %yindex_7 : tensor<1024x1xi32> loc(#loc273)
    %tmp65_165 = tt.broadcast %xindex_14 : tensor<1x1xi32> -> tensor<1024x1xi32> loc(#loc274)
    %tmp65_166 = arith.addi %tmp65_165, %tmp65_164 : tensor<1024x1xi32> loc(#loc274)
    %tmp65_167 = tt.splat %in_ptr15 : !tt.ptr<f32> -> tensor<1024x1x!tt.ptr<f32>> loc(#loc275)
    %tmp65_168 = tt.addptr %tmp65_167, %tmp65_166 : tensor<1024x1x!tt.ptr<f32>>, tensor<1024x1xi32> loc(#loc275)
    %tmp65_169 = tt.broadcast %xmask_15 : tensor<1x1xi1> -> tensor<1024x1xi1> loc(#loc276)
    %tmp65_170 = arith.andi %tmp65_169, %ymask_8 : tensor<1024x1xi1> loc(#loc276)
    %tmp65_171 = tt.load %tmp65_168, %tmp65_170 evictionPolicy = evict_last : tensor<1024x1x!tt.ptr<f32>> loc(#loc277)
    %tmp3 = arith.constant 4.084800e+00 : f32 loc(#loc278)
    %tmp4 = arith.constant dense<4.084800e+00> : tensor<1024x1xf32> loc(#loc279)
    %tmp4_172 = arith.mulf %tmp2_42, %tmp4 : tensor<1024x1xf32> loc(#loc279)
    %tmp5 = arith.addf %tmp0_32, %tmp4_172 : tensor<1024x1xf32> loc(#loc280)
    %tmp8 = arith.addf %tmp5, %tmp6_53 : tensor<1024x1xf32> loc(#loc281)
    %tmp11 = arith.addf %tmp8, %tmp9_69 : tensor<1024x1xf32> loc(#loc282)
    %tmp13 = arith.constant 1.000000e-07 : f32 loc(#loc283)
    %tmp14 = arith.constant dense<1.000000e-07> : tensor<1024x1xf32> loc(#loc284)
    %tmp14_173 = arith.addf %tmp12_71, %tmp14 : tensor<1024x1xf32> loc(#loc284)
    %tmp15 = arith.divf %tmp11, %tmp14_173 : tensor<1024x1xf32> loc(#loc285)
    %tmp18 = arith.constant 0.000000e+00 : f32 loc(#loc286)
    %tmp19 = arith.constant dense<0.000000e+00> : tensor<1024x1xf32> loc(#loc287)
    %tmp19_174 = arith.cmpf oeq, %tmp12_71, %tmp19 : tensor<1024x1xf32> loc(#loc287)
    %tmp23 = arith.constant dense<0.000000e+00> : tensor<1024x1xf32> loc(#loc288)
    %tmp23_175 = arith.mulf %tmp23, %tmp22_86 : tensor<1024x1xf32> loc(#loc288)
    %tmp24 = arith.addf %tmp20_84, %tmp23_175 : tensor<1024x1xf32> loc(#loc289)
    %tmp27 = arith.divf %tmp24, %tmp12_71 : tensor<1024x1xf32> loc(#loc290)
    %tmp28 = arith.constant dense<0.000000e+00> : tensor<1024x1xf32> loc(#loc291)
    %tmp28_176 = arith.select %tmp19_174, %tmp28, %tmp27 : tensor<1024x1xi1>, tensor<1024x1xf32> loc(#loc291)
    %tmp29 = arith.mulf %tmp17_73, %tmp28_176 : tensor<1024x1xf32> loc(#loc292)
    %tmp31 = arith.addf %tmp15, %tmp29 : tensor<1024x1xf32> loc(#loc293)
    %tmp34 = arith.mulf %tmp32_96, %tmp33_98 : tensor<1024x1xf32> loc(#loc294)
    %tmp36 = arith.addf %tmp34, %tmp31 : tensor<1024x1xf32> loc(#loc295)
    %tmp41 = arith.constant dense<4.084800e+00> : tensor<1024x1xf32> loc(#loc296)
    %tmp41_177 = arith.mulf %tmp40_119, %tmp41 : tensor<1024x1xf32> loc(#loc296)
    %tmp42 = arith.addf %tmp38_109, %tmp41_177 : tensor<1024x1xf32> loc(#loc297)
    %tmp45 = arith.addf %tmp42, %tmp43_130 : tensor<1024x1xf32> loc(#loc298)
    %tmp48 = arith.addf %tmp45, %tmp46_146 : tensor<1024x1xf32> loc(#loc299)
    %tmp50 = arith.constant dense<1.000000e-07> : tensor<1024x1xf32> loc(#loc300)
    %tmp50_178 = arith.addf %tmp49_148, %tmp50 : tensor<1024x1xf32> loc(#loc300)
    %tmp51 = arith.divf %tmp48, %tmp50_178 : tensor<1024x1xf32> loc(#loc301)
    %tmp54 = arith.constant dense<0.000000e+00> : tensor<1024x1xf32> loc(#loc302)
    %tmp54_179 = arith.cmpf oeq, %tmp49_148, %tmp54 : tensor<1024x1xf32> loc(#loc302)
    %tmp57 = arith.addf %tmp55_161, %tmp23_175 : tensor<1024x1xf32> loc(#loc303)
    %tmp60 = arith.divf %tmp57, %tmp49_148 : tensor<1024x1xf32> loc(#loc304)
    %tmp61 = arith.constant dense<0.000000e+00> : tensor<1024x1xf32> loc(#loc305)
    %tmp61_180 = arith.select %tmp54_179, %tmp61, %tmp60 : tensor<1024x1xi1>, tensor<1024x1xf32> loc(#loc305)
    %tmp62 = arith.mulf %tmp53_150, %tmp61_180 : tensor<1024x1xf32> loc(#loc306)
    %tmp64 = arith.addf %tmp51, %tmp62 : tensor<1024x1xf32> loc(#loc307)
    %tmp66 = arith.mulf %tmp65_171, %tmp33_98 : tensor<1024x1xf32> loc(#loc308)
    %tmp68 = arith.addf %tmp66, %tmp64 : tensor<1024x1xf32> loc(#loc309)
    gpu.barrier loc(#loc133)
    %c192_i32 = arith.constant 192 : i32 loc(#loc134)
    %c192_i32_181 = arith.constant 192 : i32 loc(#loc134)
    %cst = arith.constant dense<192> : tensor<1024x1xi32> loc(#loc134)
    %0 = arith.muli %cst, %yindex_7 : tensor<1024x1xi32> loc(#loc134)
    %1 = tt.broadcast %xindex_14 : tensor<1x1xi32> -> tensor<1024x1xi32> loc(#loc135)
    %2 = arith.addi %1, %0 : tensor<1024x1xi32> loc(#loc135)
    %3 = tt.splat %in_out_ptr0 : !tt.ptr<bf16> -> tensor<1024x1x!tt.ptr<bf16>> loc(#loc136)
    %4 = tt.addptr %3, %2 : tensor<1024x1x!tt.ptr<bf16>>, tensor<1024x1xi32> loc(#loc136)
    %5 = tt.broadcast %xmask_15 : tensor<1x1xi1> -> tensor<1024x1xi1> loc(#loc137)
    %6 = arith.andi %5, %ymask_8 : tensor<1024x1xi1> loc(#loc137)
    %7 = arith.truncf %tmp31 : tensor<1024x1xf32> to tensor<1024x1xbf16> loc(#loc138)
    tt.store %4, %7, %6 : tensor<1024x1x!tt.ptr<bf16>> loc(#loc138)
    %c192_i32_182 = arith.constant 192 : i32 loc(#loc139)
    %c192_i32_183 = arith.constant 192 : i32 loc(#loc139)
    %cst_184 = arith.constant dense<192> : tensor<1024x1xi32> loc(#loc139)
    %8 = arith.muli %cst_184, %yindex_7 : tensor<1024x1xi32> loc(#loc139)
    %9 = tt.broadcast %xindex_14 : tensor<1x1xi32> -> tensor<1024x1xi32> loc(#loc140)
    %10 = arith.addi %9, %8 : tensor<1024x1xi32> loc(#loc140)
    %11 = tt.splat %out_ptr0 : !tt.ptr<bf16> -> tensor<1024x1x!tt.ptr<bf16>> loc(#loc141)
    %12 = tt.addptr %11, %10 : tensor<1024x1x!tt.ptr<bf16>>, tensor<1024x1xi32> loc(#loc141)
    %13 = tt.broadcast %xmask_15 : tensor<1x1xi1> -> tensor<1024x1xi1> loc(#loc142)
    %14 = arith.andi %13, %ymask_8 : tensor<1024x1xi1> loc(#loc142)
    %15 = arith.truncf %tmp36 : tensor<1024x1xf32> to tensor<1024x1xbf16> loc(#loc143)
    tt.store %12, %15, %14 : tensor<1024x1x!tt.ptr<bf16>> loc(#loc143)
    gpu.barrier loc(#loc144)
    %c192_i32_185 = arith.constant 192 : i32 loc(#loc145)
    %c192_i32_186 = arith.constant 192 : i32 loc(#loc145)
    %cst_187 = arith.constant dense<192> : tensor<1024x1xi32> loc(#loc145)
    %16 = arith.muli %cst_187, %yindex_7 : tensor<1024x1xi32> loc(#loc145)
    %17 = tt.broadcast %xindex_14 : tensor<1x1xi32> -> tensor<1024x1xi32> loc(#loc146)
    %18 = arith.addi %17, %16 : tensor<1024x1xi32> loc(#loc146)
    %19 = tt.splat %in_out_ptr1 : !tt.ptr<bf16> -> tensor<1024x1x!tt.ptr<bf16>> loc(#loc147)
    %20 = tt.addptr %19, %18 : tensor<1024x1x!tt.ptr<bf16>>, tensor<1024x1xi32> loc(#loc147)
    %21 = tt.broadcast %xmask_15 : tensor<1x1xi1> -> tensor<1024x1xi1> loc(#loc148)
    %22 = arith.andi %21, %ymask_8 : tensor<1024x1xi1> loc(#loc148)
    %23 = arith.truncf %tmp64 : tensor<1024x1xf32> to tensor<1024x1xbf16> loc(#loc149)
    tt.store %20, %23, %22 : tensor<1024x1x!tt.ptr<bf16>> loc(#loc149)
    %c192_i32_188 = arith.constant 192 : i32 loc(#loc150)
    %c192_i32_189 = arith.constant 192 : i32 loc(#loc150)
    %cst_190 = arith.constant dense<192> : tensor<1024x1xi32> loc(#loc150)
    %24 = arith.muli %cst_190, %yindex_7 : tensor<1024x1xi32> loc(#loc150)
    %25 = tt.broadcast %xindex_14 : tensor<1x1xi32> -> tensor<1024x1xi32> loc(#loc151)
    %26 = arith.addi %25, %24 : tensor<1024x1xi32> loc(#loc151)
    %27 = tt.splat %out_ptr1 : !tt.ptr<bf16> -> tensor<1024x1x!tt.ptr<bf16>> loc(#loc152)
    %28 = tt.addptr %27, %26 : tensor<1024x1x!tt.ptr<bf16>>, tensor<1024x1xi32> loc(#loc152)
    %29 = tt.broadcast %xmask_15 : tensor<1x1xi1> -> tensor<1024x1xi1> loc(#loc153)
    %30 = arith.andi %29, %ymask_8 : tensor<1024x1xi1> loc(#loc153)
    %31 = arith.truncf %tmp68 : tensor<1024x1xf32> to tensor<1024x1xbf16> loc(#loc154)
    tt.store %28, %31, %30 : tensor<1024x1x!tt.ptr<bf16>> loc(#loc154)
    tt.return loc(#loc155)
  } loc(#loc)
} loc(#loc)
#loc1 = loc("/NHNHOME/WORKSPACE/26msit001_A/jinhyeok/loop_TTT/lact/.cache_inductor_llm/mo/cmoivktxpw6irbylfen22dqfjt4rafsyz4tae7xgycbw6kccygkg.py":19:13)
#loc2 = loc("/NHNHOME/WORKSPACE/26msit001_A/jinhyeok/loop_TTT/lact/.cache_inductor_llm/mo/cmoivktxpw6irbylfen22dqfjt4rafsyz4tae7xgycbw6kccygkg.py":20:13)
#loc3 = loc("/NHNHOME/WORKSPACE/26msit001_A/jinhyeok/loop_TTT/lact/.cache_inductor_llm/mo/cmoivktxpw6irbylfen22dqfjt4rafsyz4tae7xgycbw6kccygkg.py":21:28)
#loc4 = loc("/NHNHOME/WORKSPACE/26msit001_A/jinhyeok/loop_TTT/lact/.cache_inductor_llm/mo/cmoivktxpw6irbylfen22dqfjt4rafsyz4tae7xgycbw6kccygkg.py":21:33)
#loc5 = loc("/NHNHOME/WORKSPACE/26msit001_A/jinhyeok/loop_TTT/lact/.cache_inductor_llm/mo/cmoivktxpw6irbylfen22dqfjt4rafsyz4tae7xgycbw6kccygkg.py":22:36)
#loc6 = loc("/NHNHOME/WORKSPACE/26msit001_A/jinhyeok/loop_TTT/lact/.cache_inductor_llm/mo/cmoivktxpw6irbylfen22dqfjt4rafsyz4tae7xgycbw6kccygkg.py":22:44)
#loc7 = loc("/NHNHOME/WORKSPACE/26msit001_A/jinhyeok/loop_TTT/lact/.cache_inductor_llm/mo/cmoivktxpw6irbylfen22dqfjt4rafsyz4tae7xgycbw6kccygkg.py":22:23)
#loc8 = loc("/NHNHOME/WORKSPACE/26msit001_A/jinhyeok/loop_TTT/lact/.cache_inductor_llm/mo/cmoivktxpw6irbylfen22dqfjt4rafsyz4tae7xgycbw6kccygkg.py":23:21)
#loc9 = loc("/NHNHOME/WORKSPACE/26msit001_A/jinhyeok/loop_TTT/lact/.cache_inductor_llm/mo/cmoivktxpw6irbylfen22dqfjt4rafsyz4tae7xgycbw6kccygkg.py":24:28)
#loc10 = loc("/NHNHOME/WORKSPACE/26msit001_A/jinhyeok/loop_TTT/lact/.cache_inductor_llm/mo/cmoivktxpw6irbylfen22dqfjt4rafsyz4tae7xgycbw6kccygkg.py":24:33)
#loc11 = loc("/NHNHOME/WORKSPACE/26msit001_A/jinhyeok/loop_TTT/lact/.cache_inductor_llm/mo/cmoivktxpw6irbylfen22dqfjt4rafsyz4tae7xgycbw6kccygkg.py":25:36)
#loc12 = loc("/NHNHOME/WORKSPACE/26msit001_A/jinhyeok/loop_TTT/lact/.cache_inductor_llm/mo/cmoivktxpw6irbylfen22dqfjt4rafsyz4tae7xgycbw6kccygkg.py":25:44)
#loc13 = loc("/NHNHOME/WORKSPACE/26msit001_A/jinhyeok/loop_TTT/lact/.cache_inductor_llm/mo/cmoivktxpw6irbylfen22dqfjt4rafsyz4tae7xgycbw6kccygkg.py":25:23)
#loc14 = loc("/NHNHOME/WORKSPACE/26msit001_A/jinhyeok/loop_TTT/lact/.cache_inductor_llm/mo/cmoivktxpw6irbylfen22dqfjt4rafsyz4tae7xgycbw6kccygkg.py":26:21)
#loc15 = loc("/NHNHOME/WORKSPACE/26msit001_A/jinhyeok/loop_TTT/lact/.cache_inductor_llm/mo/cmoivktxpw6irbylfen22dqfjt4rafsyz4tae7xgycbw6kccygkg.py":29:19)
#loc16 = loc("/NHNHOME/WORKSPACE/26msit001_A/jinhyeok/loop_TTT/lact/.cache_inductor_llm/mo/cmoivktxpw6irbylfen22dqfjt4rafsyz4tae7xgycbw6kccygkg.py":30:19)
#loc17 = loc("/NHNHOME/WORKSPACE/26msit001_A/jinhyeok/loop_TTT/lact/.cache_inductor_llm/mo/cmoivktxpw6irbylfen22dqfjt4rafsyz4tae7xgycbw6kccygkg.py":31:43)
#loc18 = loc("/NHNHOME/WORKSPACE/26msit001_A/jinhyeok/loop_TTT/lact/.cache_inductor_llm/mo/cmoivktxpw6irbylfen22dqfjt4rafsyz4tae7xgycbw6kccygkg.py":31:39)
#loc19 = loc("/NHNHOME/WORKSPACE/26msit001_A/jinhyeok/loop_TTT/lact/.cache_inductor_llm/mo/cmoivktxpw6irbylfen22dqfjt4rafsyz4tae7xgycbw6kccygkg.py":31:34)
#loc20 = loc("/NHNHOME/WORKSPACE/26msit001_A/jinhyeok/loop_TTT/lact/.cache_inductor_llm/mo/cmoivktxpw6irbylfen22dqfjt4rafsyz4tae7xgycbw6kccygkg.py":31:56)
#loc21 = loc("/NHNHOME/WORKSPACE/26msit001_A/jinhyeok/loop_TTT/lact/.cache_inductor_llm/mo/cmoivktxpw6irbylfen22dqfjt4rafsyz4tae7xgycbw6kccygkg.py":31:48)
#loc22 = loc("/NHNHOME/WORKSPACE/26msit001_A/jinhyeok/loop_TTT/lact/.cache_inductor_llm/mo/cmoivktxpw6irbylfen22dqfjt4rafsyz4tae7xgycbw6kccygkg.py":31:96)
#loc23 = loc("/NHNHOME/WORKSPACE/26msit001_A/jinhyeok/loop_TTT/lact/.cache_inductor_llm/mo/cmoivktxpw6irbylfen22dqfjt4rafsyz4tae7xgycbw6kccygkg.py":32:39)
#loc24 = loc("/NHNHOME/WORKSPACE/26msit001_A/jinhyeok/loop_TTT/lact/.cache_inductor_llm/mo/cmoivktxpw6irbylfen22dqfjt4rafsyz4tae7xgycbw6kccygkg.py":32:35)
#loc25 = loc("/NHNHOME/WORKSPACE/26msit001_A/jinhyeok/loop_TTT/lact/.cache_inductor_llm/mo/cmoivktxpw6irbylfen22dqfjt4rafsyz4tae7xgycbw6kccygkg.py":32:30)
#loc26 = loc("/NHNHOME/WORKSPACE/26msit001_A/jinhyeok/loop_TTT/lact/.cache_inductor_llm/mo/cmoivktxpw6irbylfen22dqfjt4rafsyz4tae7xgycbw6kccygkg.py":32:52)
#loc27 = loc("/NHNHOME/WORKSPACE/26msit001_A/jinhyeok/loop_TTT/lact/.cache_inductor_llm/mo/cmoivktxpw6irbylfen22dqfjt4rafsyz4tae7xgycbw6kccygkg.py":32:44)
#loc28 = loc("/NHNHOME/WORKSPACE/26msit001_A/jinhyeok/loop_TTT/lact/.cache_inductor_llm/mo/cmoivktxpw6irbylfen22dqfjt4rafsyz4tae7xgycbw6kccygkg.py":33:39)
#loc29 = loc("/NHNHOME/WORKSPACE/26msit001_A/jinhyeok/loop_TTT/lact/.cache_inductor_llm/mo/cmoivktxpw6irbylfen22dqfjt4rafsyz4tae7xgycbw6kccygkg.py":33:35)
#loc30 = loc("/NHNHOME/WORKSPACE/26msit001_A/jinhyeok/loop_TTT/lact/.cache_inductor_llm/mo/cmoivktxpw6irbylfen22dqfjt4rafsyz4tae7xgycbw6kccygkg.py":33:30)
#loc31 = loc("/NHNHOME/WORKSPACE/26msit001_A/jinhyeok/loop_TTT/lact/.cache_inductor_llm/mo/cmoivktxpw6irbylfen22dqfjt4rafsyz4tae7xgycbw6kccygkg.py":33:52)
#loc32 = loc("/NHNHOME/WORKSPACE/26msit001_A/jinhyeok/loop_TTT/lact/.cache_inductor_llm/mo/cmoivktxpw6irbylfen22dqfjt4rafsyz4tae7xgycbw6kccygkg.py":33:44)
#loc33 = loc("/NHNHOME/WORKSPACE/26msit001_A/jinhyeok/loop_TTT/lact/.cache_inductor_llm/mo/cmoivktxpw6irbylfen22dqfjt4rafsyz4tae7xgycbw6kccygkg.py":33:92)
#loc34 = loc("/NHNHOME/WORKSPACE/26msit001_A/jinhyeok/loop_TTT/lact/.cache_inductor_llm/mo/cmoivktxpw6irbylfen22dqfjt4rafsyz4tae7xgycbw6kccygkg.py":34:39)
#loc35 = loc("/NHNHOME/WORKSPACE/26msit001_A/jinhyeok/loop_TTT/lact/.cache_inductor_llm/mo/cmoivktxpw6irbylfen22dqfjt4rafsyz4tae7xgycbw6kccygkg.py":34:35)
#loc36 = loc("/NHNHOME/WORKSPACE/26msit001_A/jinhyeok/loop_TTT/lact/.cache_inductor_llm/mo/cmoivktxpw6irbylfen22dqfjt4rafsyz4tae7xgycbw6kccygkg.py":34:50)
#loc37 = loc("/NHNHOME/WORKSPACE/26msit001_A/jinhyeok/loop_TTT/lact/.cache_inductor_llm/mo/cmoivktxpw6irbylfen22dqfjt4rafsyz4tae7xgycbw6kccygkg.py":34:44)
#loc38 = loc("/NHNHOME/WORKSPACE/26msit001_A/jinhyeok/loop_TTT/lact/.cache_inductor_llm/mo/cmoivktxpw6irbylfen22dqfjt4rafsyz4tae7xgycbw6kccygkg.py":34:30)
#loc39 = loc("/NHNHOME/WORKSPACE/26msit001_A/jinhyeok/loop_TTT/lact/.cache_inductor_llm/mo/cmoivktxpw6irbylfen22dqfjt4rafsyz4tae7xgycbw6kccygkg.py":34:63)
#loc40 = loc("/NHNHOME/WORKSPACE/26msit001_A/jinhyeok/loop_TTT/lact/.cache_inductor_llm/mo/cmoivktxpw6irbylfen22dqfjt4rafsyz4tae7xgycbw6kccygkg.py":34:55)
#loc41 = loc("/NHNHOME/WORKSPACE/26msit001_A/jinhyeok/loop_TTT/lact/.cache_inductor_llm/mo/cmoivktxpw6irbylfen22dqfjt4rafsyz4tae7xgycbw6kccygkg.py":34:103)
#loc42 = loc("/NHNHOME/WORKSPACE/26msit001_A/jinhyeok/loop_TTT/lact/.cache_inductor_llm/mo/cmoivktxpw6irbylfen22dqfjt4rafsyz4tae7xgycbw6kccygkg.py":35:31)
#loc43 = loc("/NHNHOME/WORKSPACE/26msit001_A/jinhyeok/loop_TTT/lact/.cache_inductor_llm/mo/cmoivktxpw6irbylfen22dqfjt4rafsyz4tae7xgycbw6kccygkg.py":35:36)
#loc44 = loc("/NHNHOME/WORKSPACE/26msit001_A/jinhyeok/loop_TTT/lact/.cache_inductor_llm/mo/cmoivktxpw6irbylfen22dqfjt4rafsyz4tae7xgycbw6kccygkg.py":36:31)
#loc45 = loc("/NHNHOME/WORKSPACE/26msit001_A/jinhyeok/loop_TTT/lact/.cache_inductor_llm/mo/cmoivktxpw6irbylfen22dqfjt4rafsyz4tae7xgycbw6kccygkg.py":36:36)
#loc46 = loc("/NHNHOME/WORKSPACE/26msit001_A/jinhyeok/loop_TTT/lact/.cache_inductor_llm/mo/cmoivktxpw6irbylfen22dqfjt4rafsyz4tae7xgycbw6kccygkg.py":37:40)
#loc47 = loc("/NHNHOME/WORKSPACE/26msit001_A/jinhyeok/loop_TTT/lact/.cache_inductor_llm/mo/cmoivktxpw6irbylfen22dqfjt4rafsyz4tae7xgycbw6kccygkg.py":37:36)
#loc48 = loc("/NHNHOME/WORKSPACE/26msit001_A/jinhyeok/loop_TTT/lact/.cache_inductor_llm/mo/cmoivktxpw6irbylfen22dqfjt4rafsyz4tae7xgycbw6kccygkg.py":37:31)
#loc49 = loc("/NHNHOME/WORKSPACE/26msit001_A/jinhyeok/loop_TTT/lact/.cache_inductor_llm/mo/cmoivktxpw6irbylfen22dqfjt4rafsyz4tae7xgycbw6kccygkg.py":37:53)
#loc50 = loc("/NHNHOME/WORKSPACE/26msit001_A/jinhyeok/loop_TTT/lact/.cache_inductor_llm/mo/cmoivktxpw6irbylfen22dqfjt4rafsyz4tae7xgycbw6kccygkg.py":37:45)
#loc51 = loc("/NHNHOME/WORKSPACE/26msit001_A/jinhyeok/loop_TTT/lact/.cache_inductor_llm/mo/cmoivktxpw6irbylfen22dqfjt4rafsyz4tae7xgycbw6kccygkg.py":37:93)
#loc52 = loc("/NHNHOME/WORKSPACE/26msit001_A/jinhyeok/loop_TTT/lact/.cache_inductor_llm/mo/cmoivktxpw6irbylfen22dqfjt4rafsyz4tae7xgycbw6kccygkg.py":38:31)
#loc53 = loc("/NHNHOME/WORKSPACE/26msit001_A/jinhyeok/loop_TTT/lact/.cache_inductor_llm/mo/cmoivktxpw6irbylfen22dqfjt4rafsyz4tae7xgycbw6kccygkg.py":38:36)
#loc54 = loc("/NHNHOME/WORKSPACE/26msit001_A/jinhyeok/loop_TTT/lact/.cache_inductor_llm/mo/cmoivktxpw6irbylfen22dqfjt4rafsyz4tae7xgycbw6kccygkg.py":39:40)
#loc55 = loc("/NHNHOME/WORKSPACE/26msit001_A/jinhyeok/loop_TTT/lact/.cache_inductor_llm/mo/cmoivktxpw6irbylfen22dqfjt4rafsyz4tae7xgycbw6kccygkg.py":39:36)
#loc56 = loc("/NHNHOME/WORKSPACE/26msit001_A/jinhyeok/loop_TTT/lact/.cache_inductor_llm/mo/cmoivktxpw6irbylfen22dqfjt4rafsyz4tae7xgycbw6kccygkg.py":39:31)
#loc57 = loc("/NHNHOME/WORKSPACE/26msit001_A/jinhyeok/loop_TTT/lact/.cache_inductor_llm/mo/cmoivktxpw6irbylfen22dqfjt4rafsyz4tae7xgycbw6kccygkg.py":39:53)
#loc58 = loc("/NHNHOME/WORKSPACE/26msit001_A/jinhyeok/loop_TTT/lact/.cache_inductor_llm/mo/cmoivktxpw6irbylfen22dqfjt4rafsyz4tae7xgycbw6kccygkg.py":39:45)
#loc59 = loc("/NHNHOME/WORKSPACE/26msit001_A/jinhyeok/loop_TTT/lact/.cache_inductor_llm/mo/cmoivktxpw6irbylfen22dqfjt4rafsyz4tae7xgycbw6kccygkg.py":40:31)
#loc60 = loc("/NHNHOME/WORKSPACE/26msit001_A/jinhyeok/loop_TTT/lact/.cache_inductor_llm/mo/cmoivktxpw6irbylfen22dqfjt4rafsyz4tae7xgycbw6kccygkg.py":40:36)
#loc61 = loc("/NHNHOME/WORKSPACE/26msit001_A/jinhyeok/loop_TTT/lact/.cache_inductor_llm/mo/cmoivktxpw6irbylfen22dqfjt4rafsyz4tae7xgycbw6kccygkg.py":41:44)
#loc62 = loc("/NHNHOME/WORKSPACE/26msit001_A/jinhyeok/loop_TTT/lact/.cache_inductor_llm/mo/cmoivktxpw6irbylfen22dqfjt4rafsyz4tae7xgycbw6kccygkg.py":41:40)
#loc63 = loc("/NHNHOME/WORKSPACE/26msit001_A/jinhyeok/loop_TTT/lact/.cache_inductor_llm/mo/cmoivktxpw6irbylfen22dqfjt4rafsyz4tae7xgycbw6kccygkg.py":41:35)
#loc64 = loc("/NHNHOME/WORKSPACE/26msit001_A/jinhyeok/loop_TTT/lact/.cache_inductor_llm/mo/cmoivktxpw6irbylfen22dqfjt4rafsyz4tae7xgycbw6kccygkg.py":41:57)
#loc65 = loc("/NHNHOME/WORKSPACE/26msit001_A/jinhyeok/loop_TTT/lact/.cache_inductor_llm/mo/cmoivktxpw6irbylfen22dqfjt4rafsyz4tae7xgycbw6kccygkg.py":41:49)
#loc66 = loc("/NHNHOME/WORKSPACE/26msit001_A/jinhyeok/loop_TTT/lact/.cache_inductor_llm/mo/cmoivktxpw6irbylfen22dqfjt4rafsyz4tae7xgycbw6kccygkg.py":41:97)
#loc67 = loc("/NHNHOME/WORKSPACE/26msit001_A/jinhyeok/loop_TTT/lact/.cache_inductor_llm/mo/cmoivktxpw6irbylfen22dqfjt4rafsyz4tae7xgycbw6kccygkg.py":42:40)
#loc68 = loc("/NHNHOME/WORKSPACE/26msit001_A/jinhyeok/loop_TTT/lact/.cache_inductor_llm/mo/cmoivktxpw6irbylfen22dqfjt4rafsyz4tae7xgycbw6kccygkg.py":42:36)
#loc69 = loc("/NHNHOME/WORKSPACE/26msit001_A/jinhyeok/loop_TTT/lact/.cache_inductor_llm/mo/cmoivktxpw6irbylfen22dqfjt4rafsyz4tae7xgycbw6kccygkg.py":42:31)
#loc70 = loc("/NHNHOME/WORKSPACE/26msit001_A/jinhyeok/loop_TTT/lact/.cache_inductor_llm/mo/cmoivktxpw6irbylfen22dqfjt4rafsyz4tae7xgycbw6kccygkg.py":42:53)
#loc71 = loc("/NHNHOME/WORKSPACE/26msit001_A/jinhyeok/loop_TTT/lact/.cache_inductor_llm/mo/cmoivktxpw6irbylfen22dqfjt4rafsyz4tae7xgycbw6kccygkg.py":42:45)
#loc72 = loc("/NHNHOME/WORKSPACE/26msit001_A/jinhyeok/loop_TTT/lact/.cache_inductor_llm/mo/cmoivktxpw6irbylfen22dqfjt4rafsyz4tae7xgycbw6kccygkg.py":43:41)
#loc73 = loc("/NHNHOME/WORKSPACE/26msit001_A/jinhyeok/loop_TTT/lact/.cache_inductor_llm/mo/cmoivktxpw6irbylfen22dqfjt4rafsyz4tae7xgycbw6kccygkg.py":43:37)
#loc74 = loc("/NHNHOME/WORKSPACE/26msit001_A/jinhyeok/loop_TTT/lact/.cache_inductor_llm/mo/cmoivktxpw6irbylfen22dqfjt4rafsyz4tae7xgycbw6kccygkg.py":43:32)
#loc75 = loc("/NHNHOME/WORKSPACE/26msit001_A/jinhyeok/loop_TTT/lact/.cache_inductor_llm/mo/cmoivktxpw6irbylfen22dqfjt4rafsyz4tae7xgycbw6kccygkg.py":43:54)
#loc76 = loc("/NHNHOME/WORKSPACE/26msit001_A/jinhyeok/loop_TTT/lact/.cache_inductor_llm/mo/cmoivktxpw6irbylfen22dqfjt4rafsyz4tae7xgycbw6kccygkg.py":43:46)
#loc77 = loc("/NHNHOME/WORKSPACE/26msit001_A/jinhyeok/loop_TTT/lact/.cache_inductor_llm/mo/cmoivktxpw6irbylfen22dqfjt4rafsyz4tae7xgycbw6kccygkg.py":43:94)
#loc78 = loc("/NHNHOME/WORKSPACE/26msit001_A/jinhyeok/loop_TTT/lact/.cache_inductor_llm/mo/cmoivktxpw6irbylfen22dqfjt4rafsyz4tae7xgycbw6kccygkg.py":44:41)
#loc79 = loc("/NHNHOME/WORKSPACE/26msit001_A/jinhyeok/loop_TTT/lact/.cache_inductor_llm/mo/cmoivktxpw6irbylfen22dqfjt4rafsyz4tae7xgycbw6kccygkg.py":44:37)
#loc80 = loc("/NHNHOME/WORKSPACE/26msit001_A/jinhyeok/loop_TTT/lact/.cache_inductor_llm/mo/cmoivktxpw6irbylfen22dqfjt4rafsyz4tae7xgycbw6kccygkg.py":44:52)
#loc81 = loc("/NHNHOME/WORKSPACE/26msit001_A/jinhyeok/loop_TTT/lact/.cache_inductor_llm/mo/cmoivktxpw6irbylfen22dqfjt4rafsyz4tae7xgycbw6kccygkg.py":44:46)
#loc82 = loc("/NHNHOME/WORKSPACE/26msit001_A/jinhyeok/loop_TTT/lact/.cache_inductor_llm/mo/cmoivktxpw6irbylfen22dqfjt4rafsyz4tae7xgycbw6kccygkg.py":44:32)
#loc83 = loc("/NHNHOME/WORKSPACE/26msit001_A/jinhyeok/loop_TTT/lact/.cache_inductor_llm/mo/cmoivktxpw6irbylfen22dqfjt4rafsyz4tae7xgycbw6kccygkg.py":44:65)
#loc84 = loc("/NHNHOME/WORKSPACE/26msit001_A/jinhyeok/loop_TTT/lact/.cache_inductor_llm/mo/cmoivktxpw6irbylfen22dqfjt4rafsyz4tae7xgycbw6kccygkg.py":44:57)
#loc85 = loc("/NHNHOME/WORKSPACE/26msit001_A/jinhyeok/loop_TTT/lact/.cache_inductor_llm/mo/cmoivktxpw6irbylfen22dqfjt4rafsyz4tae7xgycbw6kccygkg.py":44:105)
#loc86 = loc("/NHNHOME/WORKSPACE/26msit001_A/jinhyeok/loop_TTT/lact/.cache_inductor_llm/mo/cmoivktxpw6irbylfen22dqfjt4rafsyz4tae7xgycbw6kccygkg.py":45:32)
#loc87 = loc("/NHNHOME/WORKSPACE/26msit001_A/jinhyeok/loop_TTT/lact/.cache_inductor_llm/mo/cmoivktxpw6irbylfen22dqfjt4rafsyz4tae7xgycbw6kccygkg.py":45:37)
#loc88 = loc("/NHNHOME/WORKSPACE/26msit001_A/jinhyeok/loop_TTT/lact/.cache_inductor_llm/mo/cmoivktxpw6irbylfen22dqfjt4rafsyz4tae7xgycbw6kccygkg.py":46:32)
#loc89 = loc("/NHNHOME/WORKSPACE/26msit001_A/jinhyeok/loop_TTT/lact/.cache_inductor_llm/mo/cmoivktxpw6irbylfen22dqfjt4rafsyz4tae7xgycbw6kccygkg.py":46:37)
#loc90 = loc("/NHNHOME/WORKSPACE/26msit001_A/jinhyeok/loop_TTT/lact/.cache_inductor_llm/mo/cmoivktxpw6irbylfen22dqfjt4rafsyz4tae7xgycbw6kccygkg.py":47:41)
#loc91 = loc("/NHNHOME/WORKSPACE/26msit001_A/jinhyeok/loop_TTT/lact/.cache_inductor_llm/mo/cmoivktxpw6irbylfen22dqfjt4rafsyz4tae7xgycbw6kccygkg.py":47:37)
#loc92 = loc("/NHNHOME/WORKSPACE/26msit001_A/jinhyeok/loop_TTT/lact/.cache_inductor_llm/mo/cmoivktxpw6irbylfen22dqfjt4rafsyz4tae7xgycbw6kccygkg.py":47:32)
#loc93 = loc("/NHNHOME/WORKSPACE/26msit001_A/jinhyeok/loop_TTT/lact/.cache_inductor_llm/mo/cmoivktxpw6irbylfen22dqfjt4rafsyz4tae7xgycbw6kccygkg.py":47:54)
#loc94 = loc("/NHNHOME/WORKSPACE/26msit001_A/jinhyeok/loop_TTT/lact/.cache_inductor_llm/mo/cmoivktxpw6irbylfen22dqfjt4rafsyz4tae7xgycbw6kccygkg.py":47:46)
#loc95 = loc("/NHNHOME/WORKSPACE/26msit001_A/jinhyeok/loop_TTT/lact/.cache_inductor_llm/mo/cmoivktxpw6irbylfen22dqfjt4rafsyz4tae7xgycbw6kccygkg.py":47:94)
#loc96 = loc("/NHNHOME/WORKSPACE/26msit001_A/jinhyeok/loop_TTT/lact/.cache_inductor_llm/mo/cmoivktxpw6irbylfen22dqfjt4rafsyz4tae7xgycbw6kccygkg.py":48:41)
#loc97 = loc("/NHNHOME/WORKSPACE/26msit001_A/jinhyeok/loop_TTT/lact/.cache_inductor_llm/mo/cmoivktxpw6irbylfen22dqfjt4rafsyz4tae7xgycbw6kccygkg.py":48:37)
#loc98 = loc("/NHNHOME/WORKSPACE/26msit001_A/jinhyeok/loop_TTT/lact/.cache_inductor_llm/mo/cmoivktxpw6irbylfen22dqfjt4rafsyz4tae7xgycbw6kccygkg.py":48:32)
#loc99 = loc("/NHNHOME/WORKSPACE/26msit001_A/jinhyeok/loop_TTT/lact/.cache_inductor_llm/mo/cmoivktxpw6irbylfen22dqfjt4rafsyz4tae7xgycbw6kccygkg.py":48:54)
#loc100 = loc("/NHNHOME/WORKSPACE/26msit001_A/jinhyeok/loop_TTT/lact/.cache_inductor_llm/mo/cmoivktxpw6irbylfen22dqfjt4rafsyz4tae7xgycbw6kccygkg.py":48:46)
#loc101 = loc("/NHNHOME/WORKSPACE/26msit001_A/jinhyeok/loop_TTT/lact/.cache_inductor_llm/mo/cmoivktxpw6irbylfen22dqfjt4rafsyz4tae7xgycbw6kccygkg.py":50:11)
#loc102 = loc("/NHNHOME/WORKSPACE/26msit001_A/jinhyeok/loop_TTT/lact/.cache_inductor_llm/mo/cmoivktxpw6irbylfen22dqfjt4rafsyz4tae7xgycbw6kccygkg.py":51:18)
#loc103 = loc("/NHNHOME/WORKSPACE/26msit001_A/jinhyeok/loop_TTT/lact/.cache_inductor_llm/mo/cmoivktxpw6irbylfen22dqfjt4rafsyz4tae7xgycbw6kccygkg.py":52:18)
#loc104 = loc("/NHNHOME/WORKSPACE/26msit001_A/jinhyeok/loop_TTT/lact/.cache_inductor_llm/mo/cmoivktxpw6irbylfen22dqfjt4rafsyz4tae7xgycbw6kccygkg.py":54:18)
#loc105 = loc("/NHNHOME/WORKSPACE/26msit001_A/jinhyeok/loop_TTT/lact/.cache_inductor_llm/mo/cmoivktxpw6irbylfen22dqfjt4rafsyz4tae7xgycbw6kccygkg.py":56:19)
#loc106 = loc("/NHNHOME/WORKSPACE/26msit001_A/jinhyeok/loop_TTT/lact/.cache_inductor_llm/mo/cmoivktxpw6irbylfen22dqfjt4rafsyz4tae7xgycbw6kccygkg.py":57:12)
#loc107 = loc("/NHNHOME/WORKSPACE/26msit001_A/jinhyeok/loop_TTT/lact/.cache_inductor_llm/mo/cmoivktxpw6irbylfen22dqfjt4rafsyz4tae7xgycbw6kccygkg.py":58:20)
#loc108 = loc("/NHNHOME/WORKSPACE/26msit001_A/jinhyeok/loop_TTT/lact/.cache_inductor_llm/mo/cmoivktxpw6irbylfen22dqfjt4rafsyz4tae7xgycbw6kccygkg.py":59:21)
#loc109 = loc("/NHNHOME/WORKSPACE/26msit001_A/jinhyeok/loop_TTT/lact/.cache_inductor_llm/mo/cmoivktxpw6irbylfen22dqfjt4rafsyz4tae7xgycbw6kccygkg.py":61:12)
#loc110 = loc("/NHNHOME/WORKSPACE/26msit001_A/jinhyeok/loop_TTT/lact/.cache_inductor_llm/mo/cmoivktxpw6irbylfen22dqfjt4rafsyz4tae7xgycbw6kccygkg.py":62:21)
#loc111 = loc("/NHNHOME/WORKSPACE/26msit001_A/jinhyeok/loop_TTT/lact/.cache_inductor_llm/mo/cmoivktxpw6irbylfen22dqfjt4rafsyz4tae7xgycbw6kccygkg.py":64:20)
#loc112 = loc("/NHNHOME/WORKSPACE/26msit001_A/jinhyeok/loop_TTT/lact/.cache_inductor_llm/mo/cmoivktxpw6irbylfen22dqfjt4rafsyz4tae7xgycbw6kccygkg.py":65:20)
#loc113 = loc("/NHNHOME/WORKSPACE/26msit001_A/jinhyeok/loop_TTT/lact/.cache_inductor_llm/mo/cmoivktxpw6irbylfen22dqfjt4rafsyz4tae7xgycbw6kccygkg.py":68:21)
#loc114 = loc("/NHNHOME/WORKSPACE/26msit001_A/jinhyeok/loop_TTT/lact/.cache_inductor_llm/mo/cmoivktxpw6irbylfen22dqfjt4rafsyz4tae7xgycbw6kccygkg.py":69:35)
#loc115 = loc("/NHNHOME/WORKSPACE/26msit001_A/jinhyeok/loop_TTT/lact/.cache_inductor_llm/mo/cmoivktxpw6irbylfen22dqfjt4rafsyz4tae7xgycbw6kccygkg.py":70:20)
#loc116 = loc("/NHNHOME/WORKSPACE/26msit001_A/jinhyeok/loop_TTT/lact/.cache_inductor_llm/mo/cmoivktxpw6irbylfen22dqfjt4rafsyz4tae7xgycbw6kccygkg.py":72:20)
#loc117 = loc("/NHNHOME/WORKSPACE/26msit001_A/jinhyeok/loop_TTT/lact/.cache_inductor_llm/mo/cmoivktxpw6irbylfen22dqfjt4rafsyz4tae7xgycbw6kccygkg.py":73:20)
#loc118 = loc("/NHNHOME/WORKSPACE/26msit001_A/jinhyeok/loop_TTT/lact/.cache_inductor_llm/mo/cmoivktxpw6irbylfen22dqfjt4rafsyz4tae7xgycbw6kccygkg.py":75:20)
#loc119 = loc("/NHNHOME/WORKSPACE/26msit001_A/jinhyeok/loop_TTT/lact/.cache_inductor_llm/mo/cmoivktxpw6irbylfen22dqfjt4rafsyz4tae7xgycbw6kccygkg.py":78:20)
#loc120 = loc("/NHNHOME/WORKSPACE/26msit001_A/jinhyeok/loop_TTT/lact/.cache_inductor_llm/mo/cmoivktxpw6irbylfen22dqfjt4rafsyz4tae7xgycbw6kccygkg.py":79:20)
#loc121 = loc("/NHNHOME/WORKSPACE/26msit001_A/jinhyeok/loop_TTT/lact/.cache_inductor_llm/mo/cmoivktxpw6irbylfen22dqfjt4rafsyz4tae7xgycbw6kccygkg.py":81:20)
#loc122 = loc("/NHNHOME/WORKSPACE/26msit001_A/jinhyeok/loop_TTT/lact/.cache_inductor_llm/mo/cmoivktxpw6irbylfen22dqfjt4rafsyz4tae7xgycbw6kccygkg.py":83:20)
#loc123 = loc("/NHNHOME/WORKSPACE/26msit001_A/jinhyeok/loop_TTT/lact/.cache_inductor_llm/mo/cmoivktxpw6irbylfen22dqfjt4rafsyz4tae7xgycbw6kccygkg.py":84:20)
#loc124 = loc("/NHNHOME/WORKSPACE/26msit001_A/jinhyeok/loop_TTT/lact/.cache_inductor_llm/mo/cmoivktxpw6irbylfen22dqfjt4rafsyz4tae7xgycbw6kccygkg.py":85:21)
#loc125 = loc("/NHNHOME/WORKSPACE/26msit001_A/jinhyeok/loop_TTT/lact/.cache_inductor_llm/mo/cmoivktxpw6irbylfen22dqfjt4rafsyz4tae7xgycbw6kccygkg.py":87:21)
#loc126 = loc("/NHNHOME/WORKSPACE/26msit001_A/jinhyeok/loop_TTT/lact/.cache_inductor_llm/mo/cmoivktxpw6irbylfen22dqfjt4rafsyz4tae7xgycbw6kccygkg.py":89:20)
#loc127 = loc("/NHNHOME/WORKSPACE/26msit001_A/jinhyeok/loop_TTT/lact/.cache_inductor_llm/mo/cmoivktxpw6irbylfen22dqfjt4rafsyz4tae7xgycbw6kccygkg.py":92:21)
#loc128 = loc("/NHNHOME/WORKSPACE/26msit001_A/jinhyeok/loop_TTT/lact/.cache_inductor_llm/mo/cmoivktxpw6irbylfen22dqfjt4rafsyz4tae7xgycbw6kccygkg.py":93:35)
#loc129 = loc("/NHNHOME/WORKSPACE/26msit001_A/jinhyeok/loop_TTT/lact/.cache_inductor_llm/mo/cmoivktxpw6irbylfen22dqfjt4rafsyz4tae7xgycbw6kccygkg.py":94:20)
#loc130 = loc("/NHNHOME/WORKSPACE/26msit001_A/jinhyeok/loop_TTT/lact/.cache_inductor_llm/mo/cmoivktxpw6irbylfen22dqfjt4rafsyz4tae7xgycbw6kccygkg.py":96:20)
#loc131 = loc("/NHNHOME/WORKSPACE/26msit001_A/jinhyeok/loop_TTT/lact/.cache_inductor_llm/mo/cmoivktxpw6irbylfen22dqfjt4rafsyz4tae7xgycbw6kccygkg.py":97:20)
#loc132 = loc("/NHNHOME/WORKSPACE/26msit001_A/jinhyeok/loop_TTT/lact/.cache_inductor_llm/mo/cmoivktxpw6irbylfen22dqfjt4rafsyz4tae7xgycbw6kccygkg.py":99:20)
#loc133 = loc("/NHNHOME/WORKSPACE/26msit001_A/jinhyeok/loop_TTT/lact/.cache_inductor_llm/mo/cmoivktxpw6irbylfen22dqfjt4rafsyz4tae7xgycbw6kccygkg.py":101:4)
#loc134 = loc("/NHNHOME/WORKSPACE/26msit001_A/jinhyeok/loop_TTT/lact/.cache_inductor_llm/mo/cmoivktxpw6irbylfen22dqfjt4rafsyz4tae7xgycbw6kccygkg.py":102:37)
#loc135 = loc("/NHNHOME/WORKSPACE/26msit001_A/jinhyeok/loop_TTT/lact/.cache_inductor_llm/mo/cmoivktxpw6irbylfen22dqfjt4rafsyz4tae7xgycbw6kccygkg.py":102:33)
#loc136 = loc("/NHNHOME/WORKSPACE/26msit001_A/jinhyeok/loop_TTT/lact/.cache_inductor_llm/mo/cmoivktxpw6irbylfen22dqfjt4rafsyz4tae7xgycbw6kccygkg.py":102:28)
#loc137 = loc("/NHNHOME/WORKSPACE/26msit001_A/jinhyeok/loop_TTT/lact/.cache_inductor_llm/mo/cmoivktxpw6irbylfen22dqfjt4rafsyz4tae7xgycbw6kccygkg.py":102:57)
#loc138 = loc("/NHNHOME/WORKSPACE/26msit001_A/jinhyeok/loop_TTT/lact/.cache_inductor_llm/mo/cmoivktxpw6irbylfen22dqfjt4rafsyz4tae7xgycbw6kccygkg.py":102:49)
#loc139 = loc("/NHNHOME/WORKSPACE/26msit001_A/jinhyeok/loop_TTT/lact/.cache_inductor_llm/mo/cmoivktxpw6irbylfen22dqfjt4rafsyz4tae7xgycbw6kccygkg.py":103:34)
#loc140 = loc("/NHNHOME/WORKSPACE/26msit001_A/jinhyeok/loop_TTT/lact/.cache_inductor_llm/mo/cmoivktxpw6irbylfen22dqfjt4rafsyz4tae7xgycbw6kccygkg.py":103:30)
#loc141 = loc("/NHNHOME/WORKSPACE/26msit001_A/jinhyeok/loop_TTT/lact/.cache_inductor_llm/mo/cmoivktxpw6irbylfen22dqfjt4rafsyz4tae7xgycbw6kccygkg.py":103:25)
#loc142 = loc("/NHNHOME/WORKSPACE/26msit001_A/jinhyeok/loop_TTT/lact/.cache_inductor_llm/mo/cmoivktxpw6irbylfen22dqfjt4rafsyz4tae7xgycbw6kccygkg.py":103:54)
#loc143 = loc("/NHNHOME/WORKSPACE/26msit001_A/jinhyeok/loop_TTT/lact/.cache_inductor_llm/mo/cmoivktxpw6irbylfen22dqfjt4rafsyz4tae7xgycbw6kccygkg.py":103:46)
#loc144 = loc("/NHNHOME/WORKSPACE/26msit001_A/jinhyeok/loop_TTT/lact/.cache_inductor_llm/mo/cmoivktxpw6irbylfen22dqfjt4rafsyz4tae7xgycbw6kccygkg.py":104:4)
#loc145 = loc("/NHNHOME/WORKSPACE/26msit001_A/jinhyeok/loop_TTT/lact/.cache_inductor_llm/mo/cmoivktxpw6irbylfen22dqfjt4rafsyz4tae7xgycbw6kccygkg.py":105:37)
#loc146 = loc("/NHNHOME/WORKSPACE/26msit001_A/jinhyeok/loop_TTT/lact/.cache_inductor_llm/mo/cmoivktxpw6irbylfen22dqfjt4rafsyz4tae7xgycbw6kccygkg.py":105:33)
#loc147 = loc("/NHNHOME/WORKSPACE/26msit001_A/jinhyeok/loop_TTT/lact/.cache_inductor_llm/mo/cmoivktxpw6irbylfen22dqfjt4rafsyz4tae7xgycbw6kccygkg.py":105:28)
#loc148 = loc("/NHNHOME/WORKSPACE/26msit001_A/jinhyeok/loop_TTT/lact/.cache_inductor_llm/mo/cmoivktxpw6irbylfen22dqfjt4rafsyz4tae7xgycbw6kccygkg.py":105:57)
#loc149 = loc("/NHNHOME/WORKSPACE/26msit001_A/jinhyeok/loop_TTT/lact/.cache_inductor_llm/mo/cmoivktxpw6irbylfen22dqfjt4rafsyz4tae7xgycbw6kccygkg.py":105:49)
#loc150 = loc("/NHNHOME/WORKSPACE/26msit001_A/jinhyeok/loop_TTT/lact/.cache_inductor_llm/mo/cmoivktxpw6irbylfen22dqfjt4rafsyz4tae7xgycbw6kccygkg.py":106:34)
#loc151 = loc("/NHNHOME/WORKSPACE/26msit001_A/jinhyeok/loop_TTT/lact/.cache_inductor_llm/mo/cmoivktxpw6irbylfen22dqfjt4rafsyz4tae7xgycbw6kccygkg.py":106:30)
#loc152 = loc("/NHNHOME/WORKSPACE/26msit001_A/jinhyeok/loop_TTT/lact/.cache_inductor_llm/mo/cmoivktxpw6irbylfen22dqfjt4rafsyz4tae7xgycbw6kccygkg.py":106:25)
#loc153 = loc("/NHNHOME/WORKSPACE/26msit001_A/jinhyeok/loop_TTT/lact/.cache_inductor_llm/mo/cmoivktxpw6irbylfen22dqfjt4rafsyz4tae7xgycbw6kccygkg.py":106:54)
#loc154 = loc("/NHNHOME/WORKSPACE/26msit001_A/jinhyeok/loop_TTT/lact/.cache_inductor_llm/mo/cmoivktxpw6irbylfen22dqfjt4rafsyz4tae7xgycbw6kccygkg.py":106:46)
#loc155 = loc("/NHNHOME/WORKSPACE/26msit001_A/jinhyeok/loop_TTT/lact/.cache_inductor_llm/mo/cmoivktxpw6irbylfen22dqfjt4rafsyz4tae7xgycbw6kccygkg.py":106:4)
#loc178 = loc("ynumel"(#loc1))
#loc179 = loc("xnumel"(#loc2))
#loc180 = loc("yoffset"(#loc3))
#loc181 = loc("yoffset"(#loc4))
#loc182 = loc("yindex"(#loc5))
#loc183 = loc("yindex"(#loc6))
#loc184 = loc("yindex"(#loc7))
#loc185 = loc("ymask"(#loc8))
#loc186 = loc("xoffset"(#loc9))
#loc187 = loc("xoffset"(#loc10))
#loc188 = loc("xindex"(#loc11))
#loc189 = loc("xindex"(#loc12))
#loc190 = loc("xindex"(#loc13))
#loc191 = loc("xmask"(#loc14))
#loc192 = loc("y0"(#loc15))
#loc193 = loc("y1"(#loc16))
#loc194 = loc("tmp0"(#loc17))
#loc195 = loc("tmp0"(#loc18))
#loc196 = loc("tmp0"(#loc19))
#loc197 = loc("tmp0"(#loc20))
#loc198 = loc("tmp0"(#loc21))
#loc199 = loc("tmp0"(#loc22))
#loc200 = loc("tmp2"(#loc23))
#loc201 = loc("tmp2"(#loc24))
#loc202 = loc("tmp2"(#loc25))
#loc203 = loc("tmp2"(#loc26))
#loc204 = loc("tmp2"(#loc27))
#loc205 = loc("tmp6"(#loc28))
#loc206 = loc("tmp6"(#loc29))
#loc207 = loc("tmp6"(#loc30))
#loc208 = loc("tmp6"(#loc31))
#loc209 = loc("tmp6"(#loc32))
#loc210 = loc("tmp6"(#loc33))
#loc211 = loc("tmp9"(#loc34))
#loc212 = loc("tmp9"(#loc35))
#loc213 = loc("tmp9"(#loc36))
#loc214 = loc("tmp9"(#loc37))
#loc215 = loc("tmp9"(#loc38))
#loc216 = loc("tmp9"(#loc39))
#loc217 = loc("tmp9"(#loc40))
#loc218 = loc("tmp9"(#loc41))
#loc219 = loc("tmp12"(#loc42))
#loc220 = loc("tmp12"(#loc43))
#loc221 = loc("tmp17"(#loc44))
#loc222 = loc("tmp17"(#loc45))
#loc223 = loc("tmp20"(#loc46))
#loc224 = loc("tmp20"(#loc47))
#loc225 = loc("tmp20"(#loc48))
#loc226 = loc("tmp20"(#loc49))
#loc227 = loc("tmp20"(#loc50))
#loc228 = loc("tmp20"(#loc51))
#loc229 = loc("tmp22"(#loc52))
#loc230 = loc("tmp22"(#loc53))
#loc231 = loc("tmp32"(#loc54))
#loc232 = loc("tmp32"(#loc55))
#loc233 = loc("tmp32"(#loc56))
#loc234 = loc("tmp32"(#loc57))
#loc235 = loc("tmp32"(#loc58))
#loc236 = loc("tmp33"(#loc59))
#loc237 = loc("tmp33"(#loc60))
#loc238 = loc("tmp38"(#loc61))
#loc239 = loc("tmp38"(#loc62))
#loc240 = loc("tmp38"(#loc63))
#loc241 = loc("tmp38"(#loc64))
#loc242 = loc("tmp38"(#loc65))
#loc243 = loc("tmp38"(#loc66))
#loc244 = loc("tmp40"(#loc67))
#loc245 = loc("tmp40"(#loc68))
#loc246 = loc("tmp40"(#loc69))
#loc247 = loc("tmp40"(#loc70))
#loc248 = loc("tmp40"(#loc71))
#loc249 = loc("tmp43"(#loc72))
#loc250 = loc("tmp43"(#loc73))
#loc251 = loc("tmp43"(#loc74))
#loc252 = loc("tmp43"(#loc75))
#loc253 = loc("tmp43"(#loc76))
#loc254 = loc("tmp43"(#loc77))
#loc255 = loc("tmp46"(#loc78))
#loc256 = loc("tmp46"(#loc79))
#loc257 = loc("tmp46"(#loc80))
#loc258 = loc("tmp46"(#loc81))
#loc259 = loc("tmp46"(#loc82))
#loc260 = loc("tmp46"(#loc83))
#loc261 = loc("tmp46"(#loc84))
#loc262 = loc("tmp46"(#loc85))
#loc263 = loc("tmp49"(#loc86))
#loc264 = loc("tmp49"(#loc87))
#loc265 = loc("tmp53"(#loc88))
#loc266 = loc("tmp53"(#loc89))
#loc267 = loc("tmp55"(#loc90))
#loc268 = loc("tmp55"(#loc91))
#loc269 = loc("tmp55"(#loc92))
#loc270 = loc("tmp55"(#loc93))
#loc271 = loc("tmp55"(#loc94))
#loc272 = loc("tmp55"(#loc95))
#loc273 = loc("tmp65"(#loc96))
#loc274 = loc("tmp65"(#loc97))
#loc275 = loc("tmp65"(#loc98))
#loc276 = loc("tmp65"(#loc99))
#loc277 = loc("tmp65"(#loc100))
#loc278 = loc("tmp3"(#loc101))
#loc279 = loc("tmp4"(#loc102))
#loc280 = loc("tmp5"(#loc103))
#loc281 = loc("tmp8"(#loc104))
#loc282 = loc("tmp11"(#loc105))
#loc283 = loc("tmp13"(#loc106))
#loc284 = loc("tmp14"(#loc107))
#loc285 = loc("tmp15"(#loc108))
#loc286 = loc("tmp18"(#loc109))
#loc287 = loc("tmp19"(#loc110))
#loc288 = loc("tmp23"(#loc111))
#loc289 = loc("tmp24"(#loc112))
#loc290 = loc("tmp27"(#loc113))
#loc291 = loc("tmp28"(#loc114))
#loc292 = loc("tmp29"(#loc115))
#loc293 = loc("tmp31"(#loc116))
#loc294 = loc("tmp34"(#loc117))
#loc295 = loc("tmp36"(#loc118))
#loc296 = loc("tmp41"(#loc119))
#loc297 = loc("tmp42"(#loc120))
#loc298 = loc("tmp45"(#loc121))
#loc299 = loc("tmp48"(#loc122))
#loc300 = loc("tmp50"(#loc123))
#loc301 = loc("tmp51"(#loc124))
#loc302 = loc("tmp54"(#loc125))
#loc303 = loc("tmp57"(#loc126))
#loc304 = loc("tmp60"(#loc127))
#loc305 = loc("tmp61"(#loc128))
#loc306 = loc("tmp62"(#loc129))
#loc307 = loc("tmp64"(#loc130))
#loc308 = loc("tmp66"(#loc131))
#loc309 = loc("tmp68"(#loc132))
