#loc = loc("/NHNHOME/WORKSPACE/26msit001_A/jinhyeok/loop_TTT/lact/.cache_inductor_llm/6a/c6aceioqpjuxdfspjrvmbwbwjnopp7sfwidpkyukaboswkhibfw5.py":18:0)
#loc77 = loc("/NHNHOME/WORKSPACE/26msit001_A/jinhyeok/TTT_camera_embedding/.venv_llm/lib/python3.12/site-packages/triton/language/standard.py":285:0)
#loc79 = loc(unknown)
#loc82 = loc("/NHNHOME/WORKSPACE/26msit001_A/jinhyeok/TTT_camera_embedding/.venv_llm/lib/python3.12/site-packages/triton/language/standard.py":260:0)
#loc86 = loc("in_out_ptr0"(#loc))
#loc87 = loc("in_ptr0"(#loc))
#loc88 = loc("in_ptr1"(#loc))
#loc89 = loc("in_ptr2"(#loc))
#loc90 = loc("in_ptr3"(#loc))
#loc91 = loc("in_ptr4"(#loc))
#loc92 = loc("out_ptr0"(#loc))
#loc93 = loc("out_ptr2"(#loc))
#loc94 = loc("xnumel"(#loc))
#loc95 = loc("r0_numel"(#loc))
#loc159 = loc("input"(#loc77))
#loc160 = loc("a"(#loc82))
#loc161 = loc("b"(#loc82))
module {
  tt.func public @triton_per_fused__to_copy_add_div_eq_masked_fill_mul_neg_sum_21(%in_out_ptr0: !tt.ptr<f32> {tt.divisibility = 16 : i32} loc("in_out_ptr0"(#loc)), %in_ptr0: !tt.ptr<bf16> {tt.divisibility = 16 : i32} loc("in_ptr0"(#loc)), %in_ptr1: !tt.ptr<bf16> {tt.divisibility = 16 : i32} loc("in_ptr1"(#loc)), %in_ptr2: !tt.ptr<f32> {tt.divisibility = 16 : i32} loc("in_ptr2"(#loc)), %in_ptr3: !tt.ptr<f32> {tt.divisibility = 16 : i32} loc("in_ptr3"(#loc)), %in_ptr4: !tt.ptr<f32> {tt.divisibility = 16 : i32} loc("in_ptr4"(#loc)), %out_ptr0: !tt.ptr<f32> {tt.divisibility = 16 : i32} loc("out_ptr0"(#loc)), %out_ptr2: !tt.ptr<bf16> {tt.divisibility = 16 : i32} loc("out_ptr2"(#loc)), %xnumel: i32 {tt.divisibility = 16 : i32} loc("xnumel"(#loc)), %r0_numel: i32 {tt.divisibility = 16 : i32} loc("r0_numel"(#loc))) attributes {noinline = false} {
    %xnumel_0 = arith.constant 18432 : i32 loc(#loc96)
    %r0_numel_1 = arith.constant 192 : i32 loc(#loc97)
    %xoffset = tt.get_program_id x : i32 loc(#loc98)
    %xoffset_2 = arith.constant 1 : i32 loc(#loc99)
    %xoffset_3 = arith.constant 1 : i32 loc(#loc99)
    %xoffset_4 = arith.muli %xoffset, %xoffset_3 : i32 loc(#loc99)
    %xindex = tt.make_range {end = 1 : i32, start = 0 : i32} : tensor<1xi32> loc(#loc100)
    %xindex_5 = tt.expand_dims %xindex {axis = 1 : i32} : tensor<1xi32> -> tensor<1x1xi32> loc(#loc101)
    %xindex_6 = tt.splat %xoffset_4 : i32 -> tensor<1x1xi32> loc(#loc102)
    %xindex_7 = arith.addi %xindex_6, %xindex_5 : tensor<1x1xi32> loc(#loc102)
    %xmask = arith.constant dense<18432> : tensor<1x1xi32> loc(#loc103)
    %xmask_8 = arith.cmpi slt, %xindex_7, %xmask : tensor<1x1xi32> loc(#loc103)
    %r0_index = tt.make_range {end = 256 : i32, start = 0 : i32} : tensor<256xi32> loc(#loc104)
    %r0_index_9 = tt.expand_dims %r0_index {axis = 0 : i32} : tensor<256xi32> -> tensor<1x256xi32> loc(#loc105)
    %r0_offset = arith.constant 0 : i32 loc(#loc106)
    %r0_mask = arith.constant dense<192> : tensor<1x256xi32> loc(#loc107)
    %r0_mask_10 = arith.cmpi slt, %r0_index_9, %r0_mask : tensor<1x256xi32> loc(#loc107)
    %tmp0 = arith.constant 192 : i32 loc(#loc108)
    %tmp0_11 = arith.constant 192 : i32 loc(#loc108)
    %tmp0_12 = arith.constant dense<192> : tensor<1x1xi32> loc(#loc108)
    %tmp0_13 = arith.muli %tmp0_12, %xindex_7 : tensor<1x1xi32> loc(#loc108)
    %tmp0_14 = tt.broadcast %tmp0_13 : tensor<1x1xi32> -> tensor<1x256xi32> loc(#loc109)
    %tmp0_15 = arith.addi %r0_index_9, %tmp0_14 : tensor<1x256xi32> loc(#loc109)
    %tmp0_16 = tt.splat %in_ptr0 : !tt.ptr<bf16> -> tensor<1x256x!tt.ptr<bf16>> loc(#loc110)
    %tmp0_17 = tt.addptr %tmp0_16, %tmp0_15 : tensor<1x256x!tt.ptr<bf16>>, tensor<1x256xi32> loc(#loc110)
    %tmp0_18 = tt.broadcast %xmask_8 : tensor<1x1xi1> -> tensor<1x256xi1> loc(#loc111)
    %tmp0_19 = arith.andi %r0_mask_10, %tmp0_18 : tensor<1x256xi1> loc(#loc111)
    %tmp0_20 = arith.constant 0.000000e+00 : f32 loc(#loc112)
    %tmp0_21 = arith.constant dense<0.000000e+00> : tensor<1x256xf32> loc(#loc112)
    %tmp0_22 = arith.truncf %tmp0_21 : tensor<1x256xf32> to tensor<1x256xbf16> loc(#loc112)
    %tmp0_23 = tt.load %tmp0_17, %tmp0_19, %tmp0_22 : tensor<1x256x!tt.ptr<bf16>> loc(#loc112)
    %tmp0_24 = arith.extf %tmp0_23 : tensor<1x256xbf16> to tensor<1x256xf32> loc(#loc113)
    %tmp2 = arith.constant 192 : i32 loc(#loc114)
    %tmp2_25 = arith.constant 192 : i32 loc(#loc114)
    %tmp2_26 = arith.constant dense<192> : tensor<1x1xi32> loc(#loc114)
    %tmp2_27 = arith.muli %tmp2_26, %xindex_7 : tensor<1x1xi32> loc(#loc114)
    %tmp2_28 = tt.broadcast %tmp2_27 : tensor<1x1xi32> -> tensor<1x256xi32> loc(#loc115)
    %tmp2_29 = arith.addi %r0_index_9, %tmp2_28 : tensor<1x256xi32> loc(#loc115)
    %tmp2_30 = tt.splat %in_ptr1 : !tt.ptr<bf16> -> tensor<1x256x!tt.ptr<bf16>> loc(#loc116)
    %tmp2_31 = tt.addptr %tmp2_30, %tmp2_29 : tensor<1x256x!tt.ptr<bf16>>, tensor<1x256xi32> loc(#loc116)
    %tmp2_32 = tt.broadcast %xmask_8 : tensor<1x1xi1> -> tensor<1x256xi1> loc(#loc117)
    %tmp2_33 = arith.andi %r0_mask_10, %tmp2_32 : tensor<1x256xi1> loc(#loc117)
    %tmp2_34 = arith.constant 0.000000e+00 : f32 loc(#loc118)
    %tmp2_35 = arith.constant dense<0.000000e+00> : tensor<1x256xf32> loc(#loc118)
    %tmp2_36 = arith.truncf %tmp2_35 : tensor<1x256xf32> to tensor<1x256xbf16> loc(#loc118)
    %tmp2_37 = tt.load %tmp2_31, %tmp2_33, %tmp2_36 : tensor<1x256x!tt.ptr<bf16>> loc(#loc118)
    %tmp2_38 = arith.extf %tmp2_37 : tensor<1x256xbf16> to tensor<1x256xf32> loc(#loc119)
    %tmp5 = arith.constant 192 : i32 loc(#loc120)
    %tmp5_39 = arith.constant 192 : i32 loc(#loc120)
    %tmp5_40 = arith.constant dense<192> : tensor<1x1xi32> loc(#loc120)
    %tmp5_41 = arith.muli %tmp5_40, %xindex_7 : tensor<1x1xi32> loc(#loc120)
    %tmp5_42 = tt.broadcast %tmp5_41 : tensor<1x1xi32> -> tensor<1x256xi32> loc(#loc121)
    %tmp5_43 = arith.addi %r0_index_9, %tmp5_42 : tensor<1x256xi32> loc(#loc121)
    %tmp5_44 = tt.splat %in_ptr2 : !tt.ptr<f32> -> tensor<1x256x!tt.ptr<f32>> loc(#loc122)
    %tmp5_45 = tt.addptr %tmp5_44, %tmp5_43 : tensor<1x256x!tt.ptr<f32>>, tensor<1x256xi32> loc(#loc122)
    %tmp5_46 = tt.broadcast %xmask_8 : tensor<1x1xi1> -> tensor<1x256xi1> loc(#loc123)
    %tmp5_47 = arith.andi %r0_mask_10, %tmp5_46 : tensor<1x256xi1> loc(#loc123)
    %tmp5_48 = arith.constant 0.000000e+00 : f32 loc(#loc124)
    %tmp5_49 = arith.constant dense<0.000000e+00> : tensor<1x256xf32> loc(#loc124)
    %tmp5_50 = tt.load %tmp5_45, %tmp5_47, %tmp5_49 : tensor<1x256x!tt.ptr<f32>> loc(#loc124)
    %tmp6 = tt.splat %in_ptr3 : !tt.ptr<f32> -> tensor<1x1x!tt.ptr<f32>> loc(#loc125)
    %tmp6_51 = tt.addptr %tmp6, %xindex_7 : tensor<1x1x!tt.ptr<f32>>, tensor<1x1xi32> loc(#loc125)
    %tmp6_52 = tt.load %tmp6_51, %xmask_8 evictionPolicy = evict_last : tensor<1x1x!tt.ptr<f32>> loc(#loc126)
    %tmp15 = tt.splat %in_ptr4 : !tt.ptr<f32> -> tensor<1x1x!tt.ptr<f32>> loc(#loc127)
    %tmp15_53 = tt.addptr %tmp15, %xindex_7 : tensor<1x1x!tt.ptr<f32>>, tensor<1x1xi32> loc(#loc127)
    %tmp15_54 = tt.load %tmp15_53, %xmask_8 evictionPolicy = evict_last : tensor<1x1x!tt.ptr<f32>> loc(#loc128)
    %tmp24 = arith.constant 192 : i32 loc(#loc129)
    %tmp24_55 = arith.constant 192 : i32 loc(#loc129)
    %tmp24_56 = arith.constant dense<192> : tensor<1x1xi32> loc(#loc129)
    %tmp24_57 = arith.muli %tmp24_56, %xindex_7 : tensor<1x1xi32> loc(#loc129)
    %tmp24_58 = tt.broadcast %tmp24_57 : tensor<1x1xi32> -> tensor<1x256xi32> loc(#loc130)
    %tmp24_59 = arith.addi %r0_index_9, %tmp24_58 : tensor<1x256xi32> loc(#loc130)
    %tmp24_60 = tt.splat %in_out_ptr0 : !tt.ptr<f32> -> tensor<1x256x!tt.ptr<f32>> loc(#loc131)
    %tmp24_61 = tt.addptr %tmp24_60, %tmp24_59 : tensor<1x256x!tt.ptr<f32>>, tensor<1x256xi32> loc(#loc131)
    %tmp24_62 = tt.broadcast %xmask_8 : tensor<1x1xi1> -> tensor<1x256xi1> loc(#loc132)
    %tmp24_63 = arith.andi %r0_mask_10, %tmp24_62 : tensor<1x256xi1> loc(#loc132)
    %tmp24_64 = arith.constant 0.000000e+00 : f32 loc(#loc133)
    %tmp24_65 = arith.constant dense<0.000000e+00> : tensor<1x256xf32> loc(#loc133)
    %tmp24_66 = tt.load %tmp24_61, %tmp24_63, %tmp24_65 : tensor<1x256x!tt.ptr<f32>> loc(#loc133)
    %tmp4 = arith.addf %tmp0_24, %tmp2_38 : tensor<1x256xf32> loc(#loc134)
    %tmp7 = arith.constant 9.99999974E-6 : f32 loc(#loc135)
    %tmp8 = arith.constant dense<9.99999974E-6> : tensor<1x1xf32> loc(#loc136)
    %tmp8_67 = arith.addf %tmp6_52, %tmp8 : tensor<1x1xf32> loc(#loc136)
    %tmp9 = tt.broadcast %tmp8_67 : tensor<1x1xf32> -> tensor<1x256xf32> loc(#loc137)
    %tmp9_68 = arith.divf %tmp5_50, %tmp9 : tensor<1x256xf32> loc(#loc137)
    %tmp10 = arith.mulf %tmp4, %tmp9_68 : tensor<1x256xf32> loc(#loc138)
    %tmp13 = tt.broadcast %xmask_8 : tensor<1x1xi1> -> tensor<1x256xi1> loc(#loc139)
    %tmp13_69 = arith.andi %r0_mask_10, %tmp13 : tensor<1x256xi1> loc(#loc139)
    %tmp13_70 = arith.constant 0 : i32 loc(#loc140)
    %tmp13_71 = arith.constant 0.000000e+00 : f32 loc(#loc140)
    %tmp13_72 = arith.constant dense<0.000000e+00> : tensor<1x256xf32> loc(#loc140)
    %tmp13_73 = arith.select %tmp13_69, %tmp10, %tmp13_72 : tensor<1x256xi1>, tensor<1x256xf32> loc(#loc140)
    %tmp14 = tt.call @"triton.language.standard.sum__fp32S1_256S__(1,)cconstexpr_1__(2,)cconstexpr_False__(3,)cNone"(%tmp13_73) : (tensor<1x256xf32>) -> tensor<1xf32> loc(#loc141)
    %tmp14_74 = tt.expand_dims %tmp14 {axis = 1 : i32} : tensor<1xf32> -> tensor<1x1xf32> loc(#loc142)
    %tmp16 = tt.broadcast %tmp15_54 : tensor<1x1xf32> -> tensor<1x256xf32> loc(#loc143)
    %tmp16_75 = arith.mulf %tmp4, %tmp16 : tensor<1x256xf32> loc(#loc143)
    %tmp17 = arith.constant 0.000000e+00 : f32 loc(#loc144)
    %tmp17_76 = arith.constant dense<0.000000e+00> : tensor<1x256xf32> loc(#loc144)
    %tmp17_77 = arith.subf %tmp17_76, %tmp16_75 : tensor<1x256xf32> loc(#loc144)
    %tmp18 = tt.broadcast %tmp8_67 : tensor<1x1xf32> -> tensor<1x256xf32> loc(#loc145)
    %tmp18_78 = arith.divf %tmp9_68, %tmp18 : tensor<1x256xf32> loc(#loc145)
    %tmp19 = arith.mulf %tmp17_77, %tmp18_78 : tensor<1x256xf32> loc(#loc146)
    %tmp22 = tt.broadcast %xmask_8 : tensor<1x1xi1> -> tensor<1x256xi1> loc(#loc147)
    %tmp22_79 = arith.andi %r0_mask_10, %tmp22 : tensor<1x256xi1> loc(#loc147)
    %tmp22_80 = arith.constant 0 : i32 loc(#loc148)
    %tmp22_81 = arith.constant 0.000000e+00 : f32 loc(#loc148)
    %tmp22_82 = arith.constant dense<0.000000e+00> : tensor<1x256xf32> loc(#loc148)
    %tmp22_83 = arith.select %tmp22_79, %tmp19, %tmp22_82 : tensor<1x256xi1>, tensor<1x256xf32> loc(#loc148)
    %tmp23 = tt.call @"triton.language.standard.sum__fp32S1_256S__(1,)cconstexpr_1__(2,)cconstexpr_False__(3,)cNone"(%tmp22_83) : (tensor<1x256xf32>) -> tensor<1xf32> loc(#loc149)
    %tmp23_84 = tt.expand_dims %tmp23 {axis = 1 : i32} : tensor<1xf32> -> tensor<1x1xf32> loc(#loc150)
    %tmp25 = tt.broadcast %tmp8_67 : tensor<1x1xf32> -> tensor<1x256xf32> loc(#loc151)
    %tmp25_85 = arith.divf %tmp16_75, %tmp25 : tensor<1x256xf32> loc(#loc151)
    %tmp26 = arith.addf %tmp24_66, %tmp25_85 : tensor<1x256xf32> loc(#loc152)
    %tmp27 = arith.constant 0.000000e+00 : f32 loc(#loc153)
    %tmp28 = arith.constant dense<0.000000e+00> : tensor<1x1xf32> loc(#loc154)
    %tmp28_86 = arith.cmpf oeq, %tmp6_52, %tmp28 : tensor<1x1xf32> loc(#loc154)
    %tmp29 = tt.broadcast %tmp6_52 : tensor<1x1xf32> -> tensor<1x256xf32> loc(#loc155)
    %tmp29_87 = arith.divf %tmp5_50, %tmp29 : tensor<1x256xf32> loc(#loc155)
    %tmp30 = arith.constant dense<0.000000e+00> : tensor<1x256xf32> loc(#loc156)
    %tmp30_88 = tt.broadcast %tmp28_86 : tensor<1x1xi1> -> tensor<1x256xi1> loc(#loc156)
    %tmp30_89 = arith.select %tmp30_88, %tmp30, %tmp29_87 : tensor<1x256xi1>, tensor<1x256xf32> loc(#loc156)
    %tmp31 = tt.broadcast %tmp23_84 : tensor<1x1xf32> -> tensor<1x256xf32> loc(#loc157)
    %tmp31_90 = arith.mulf %tmp31, %tmp30_89 : tensor<1x256xf32> loc(#loc157)
    %tmp32 = arith.addf %tmp26, %tmp31_90 : tensor<1x256xf32> loc(#loc158)
    %c192_i32 = arith.constant 192 : i32 loc(#loc64)
    %c192_i32_91 = arith.constant 192 : i32 loc(#loc64)
    %cst = arith.constant dense<192> : tensor<1x1xi32> loc(#loc64)
    %0 = arith.muli %cst, %xindex_7 : tensor<1x1xi32> loc(#loc64)
    %1 = tt.broadcast %0 : tensor<1x1xi32> -> tensor<1x256xi32> loc(#loc65)
    %2 = arith.addi %r0_index_9, %1 : tensor<1x256xi32> loc(#loc65)
    %3 = tt.splat %in_out_ptr0 : !tt.ptr<f32> -> tensor<1x256x!tt.ptr<f32>> loc(#loc66)
    %4 = tt.addptr %3, %2 : tensor<1x256x!tt.ptr<f32>>, tensor<1x256xi32> loc(#loc66)
    %5 = tt.broadcast %xmask_8 : tensor<1x1xi1> -> tensor<1x256xi1> loc(#loc67)
    %6 = arith.andi %r0_mask_10, %5 : tensor<1x256xi1> loc(#loc67)
    tt.store %4, %tmp32, %6 : tensor<1x256x!tt.ptr<f32>> loc(#loc68)
    %c192_i32_92 = arith.constant 192 : i32 loc(#loc69)
    %c192_i32_93 = arith.constant 192 : i32 loc(#loc69)
    %cst_94 = arith.constant dense<192> : tensor<1x1xi32> loc(#loc69)
    %7 = arith.muli %cst_94, %xindex_7 : tensor<1x1xi32> loc(#loc69)
    %8 = tt.broadcast %7 : tensor<1x1xi32> -> tensor<1x256xi32> loc(#loc70)
    %9 = arith.addi %r0_index_9, %8 : tensor<1x256xi32> loc(#loc70)
    %10 = tt.splat %out_ptr2 : !tt.ptr<bf16> -> tensor<1x256x!tt.ptr<bf16>> loc(#loc71)
    %11 = tt.addptr %10, %9 : tensor<1x256x!tt.ptr<bf16>>, tensor<1x256xi32> loc(#loc71)
    %12 = tt.broadcast %xmask_8 : tensor<1x1xi1> -> tensor<1x256xi1> loc(#loc72)
    %13 = arith.andi %r0_mask_10, %12 : tensor<1x256xi1> loc(#loc72)
    %14 = arith.truncf %tmp32 : tensor<1x256xf32> to tensor<1x256xbf16> loc(#loc73)
    tt.store %11, %14, %13 : tensor<1x256x!tt.ptr<bf16>> loc(#loc73)
    %15 = tt.splat %out_ptr0 : !tt.ptr<f32> -> tensor<1x1x!tt.ptr<f32>> loc(#loc74)
    %16 = tt.addptr %15, %xindex_7 : tensor<1x1x!tt.ptr<f32>>, tensor<1x1xi32> loc(#loc74)
    tt.store %16, %tmp14_74, %xmask_8 : tensor<1x1x!tt.ptr<f32>> loc(#loc75)
    tt.return loc(#loc76)
  } loc(#loc)
  tt.func private @"triton.language.standard.sum__fp32S1_256S__(1,)cconstexpr_1__(2,)cconstexpr_False__(3,)cNone"(%input: tensor<1x256xf32> loc("input"(#loc77))) -> tensor<1xf32> attributes {noinline = false} {
    %0 = "tt.reduce"(%input) <{axis = 1 : i32}> ({
    ^bb0(%arg1: f32 loc(unknown), %arg2: f32 loc(unknown)):
      %2 = tt.call @triton.language.standard._sum_combine__fp32_fp32__(%arg1, %arg2) : (f32, f32) -> f32 loc(#loc78)
      tt.reduce.return %2 : f32 loc(#loc78)
    }) : (tensor<1x256xf32>) -> tensor<1xf32> loc(#loc78)
    tt.return %0 : tensor<1xf32> loc(#loc80)
  ^bb1:  // no predecessors
    %1 = ub.poison : tensor<1xf32> loc(#loc81)
    tt.return %1 : tensor<1xf32> loc(#loc81)
  } loc(#loc77)
  tt.func private @triton.language.standard._sum_combine__fp32_fp32__(%a: f32 loc("a"(#loc82)), %b: f32 loc("b"(#loc82))) -> f32 attributes {noinline = false} {
    %0 = arith.addf %a, %b : f32 loc(#loc83)
    tt.return %0 : f32 loc(#loc84)
  ^bb1:  // no predecessors
    %1 = ub.poison : f32 loc(#loc85)
    tt.return %1 : f32 loc(#loc85)
  } loc(#loc82)
} loc(#loc)
#loc1 = loc("/NHNHOME/WORKSPACE/26msit001_A/jinhyeok/loop_TTT/lact/.cache_inductor_llm/6a/c6aceioqpjuxdfspjrvmbwbwjnopp7sfwidpkyukaboswkhibfw5.py":19:13)
#loc2 = loc("/NHNHOME/WORKSPACE/26msit001_A/jinhyeok/loop_TTT/lact/.cache_inductor_llm/6a/c6aceioqpjuxdfspjrvmbwbwjnopp7sfwidpkyukaboswkhibfw5.py":20:15)
#loc3 = loc("/NHNHOME/WORKSPACE/26msit001_A/jinhyeok/loop_TTT/lact/.cache_inductor_llm/6a/c6aceioqpjuxdfspjrvmbwbwjnopp7sfwidpkyukaboswkhibfw5.py":24:28)
#loc4 = loc("/NHNHOME/WORKSPACE/26msit001_A/jinhyeok/loop_TTT/lact/.cache_inductor_llm/6a/c6aceioqpjuxdfspjrvmbwbwjnopp7sfwidpkyukaboswkhibfw5.py":24:33)
#loc5 = loc("/NHNHOME/WORKSPACE/26msit001_A/jinhyeok/loop_TTT/lact/.cache_inductor_llm/6a/c6aceioqpjuxdfspjrvmbwbwjnopp7sfwidpkyukaboswkhibfw5.py":25:36)
#loc6 = loc("/NHNHOME/WORKSPACE/26msit001_A/jinhyeok/loop_TTT/lact/.cache_inductor_llm/6a/c6aceioqpjuxdfspjrvmbwbwjnopp7sfwidpkyukaboswkhibfw5.py":25:44)
#loc7 = loc("/NHNHOME/WORKSPACE/26msit001_A/jinhyeok/loop_TTT/lact/.cache_inductor_llm/6a/c6aceioqpjuxdfspjrvmbwbwjnopp7sfwidpkyukaboswkhibfw5.py":25:23)
#loc8 = loc("/NHNHOME/WORKSPACE/26msit001_A/jinhyeok/loop_TTT/lact/.cache_inductor_llm/6a/c6aceioqpjuxdfspjrvmbwbwjnopp7sfwidpkyukaboswkhibfw5.py":26:21)
#loc9 = loc("/NHNHOME/WORKSPACE/26msit001_A/jinhyeok/loop_TTT/lact/.cache_inductor_llm/6a/c6aceioqpjuxdfspjrvmbwbwjnopp7sfwidpkyukaboswkhibfw5.py":27:28)
#loc10 = loc("/NHNHOME/WORKSPACE/26msit001_A/jinhyeok/loop_TTT/lact/.cache_inductor_llm/6a/c6aceioqpjuxdfspjrvmbwbwjnopp7sfwidpkyukaboswkhibfw5.py":27:38)
#loc11 = loc("/NHNHOME/WORKSPACE/26msit001_A/jinhyeok/loop_TTT/lact/.cache_inductor_llm/6a/c6aceioqpjuxdfspjrvmbwbwjnopp7sfwidpkyukaboswkhibfw5.py":28:16)
#loc12 = loc("/NHNHOME/WORKSPACE/26msit001_A/jinhyeok/loop_TTT/lact/.cache_inductor_llm/6a/c6aceioqpjuxdfspjrvmbwbwjnopp7sfwidpkyukaboswkhibfw5.py":29:25)
#loc13 = loc("/NHNHOME/WORKSPACE/26msit001_A/jinhyeok/loop_TTT/lact/.cache_inductor_llm/6a/c6aceioqpjuxdfspjrvmbwbwjnopp7sfwidpkyukaboswkhibfw5.py":34:41)
#loc14 = loc("/NHNHOME/WORKSPACE/26msit001_A/jinhyeok/loop_TTT/lact/.cache_inductor_llm/6a/c6aceioqpjuxdfspjrvmbwbwjnopp7sfwidpkyukaboswkhibfw5.py":34:37)
#loc15 = loc("/NHNHOME/WORKSPACE/26msit001_A/jinhyeok/loop_TTT/lact/.cache_inductor_llm/6a/c6aceioqpjuxdfspjrvmbwbwjnopp7sfwidpkyukaboswkhibfw5.py":34:30)
#loc16 = loc("/NHNHOME/WORKSPACE/26msit001_A/jinhyeok/loop_TTT/lact/.cache_inductor_llm/6a/c6aceioqpjuxdfspjrvmbwbwjnopp7sfwidpkyukaboswkhibfw5.py":34:56)
#loc17 = loc("/NHNHOME/WORKSPACE/26msit001_A/jinhyeok/loop_TTT/lact/.cache_inductor_llm/6a/c6aceioqpjuxdfspjrvmbwbwjnopp7sfwidpkyukaboswkhibfw5.py":34:46)
#loc18 = loc("/NHNHOME/WORKSPACE/26msit001_A/jinhyeok/loop_TTT/lact/.cache_inductor_llm/6a/c6aceioqpjuxdfspjrvmbwbwjnopp7sfwidpkyukaboswkhibfw5.py":34:77)
#loc19 = loc("/NHNHOME/WORKSPACE/26msit001_A/jinhyeok/loop_TTT/lact/.cache_inductor_llm/6a/c6aceioqpjuxdfspjrvmbwbwjnopp7sfwidpkyukaboswkhibfw5.py":35:41)
#loc20 = loc("/NHNHOME/WORKSPACE/26msit001_A/jinhyeok/loop_TTT/lact/.cache_inductor_llm/6a/c6aceioqpjuxdfspjrvmbwbwjnopp7sfwidpkyukaboswkhibfw5.py":35:37)
#loc21 = loc("/NHNHOME/WORKSPACE/26msit001_A/jinhyeok/loop_TTT/lact/.cache_inductor_llm/6a/c6aceioqpjuxdfspjrvmbwbwjnopp7sfwidpkyukaboswkhibfw5.py":35:30)
#loc22 = loc("/NHNHOME/WORKSPACE/26msit001_A/jinhyeok/loop_TTT/lact/.cache_inductor_llm/6a/c6aceioqpjuxdfspjrvmbwbwjnopp7sfwidpkyukaboswkhibfw5.py":35:56)
#loc23 = loc("/NHNHOME/WORKSPACE/26msit001_A/jinhyeok/loop_TTT/lact/.cache_inductor_llm/6a/c6aceioqpjuxdfspjrvmbwbwjnopp7sfwidpkyukaboswkhibfw5.py":35:46)
#loc24 = loc("/NHNHOME/WORKSPACE/26msit001_A/jinhyeok/loop_TTT/lact/.cache_inductor_llm/6a/c6aceioqpjuxdfspjrvmbwbwjnopp7sfwidpkyukaboswkhibfw5.py":35:77)
#loc25 = loc("/NHNHOME/WORKSPACE/26msit001_A/jinhyeok/loop_TTT/lact/.cache_inductor_llm/6a/c6aceioqpjuxdfspjrvmbwbwjnopp7sfwidpkyukaboswkhibfw5.py":36:41)
#loc26 = loc("/NHNHOME/WORKSPACE/26msit001_A/jinhyeok/loop_TTT/lact/.cache_inductor_llm/6a/c6aceioqpjuxdfspjrvmbwbwjnopp7sfwidpkyukaboswkhibfw5.py":36:37)
#loc27 = loc("/NHNHOME/WORKSPACE/26msit001_A/jinhyeok/loop_TTT/lact/.cache_inductor_llm/6a/c6aceioqpjuxdfspjrvmbwbwjnopp7sfwidpkyukaboswkhibfw5.py":36:30)
#loc28 = loc("/NHNHOME/WORKSPACE/26msit001_A/jinhyeok/loop_TTT/lact/.cache_inductor_llm/6a/c6aceioqpjuxdfspjrvmbwbwjnopp7sfwidpkyukaboswkhibfw5.py":36:56)
#loc29 = loc("/NHNHOME/WORKSPACE/26msit001_A/jinhyeok/loop_TTT/lact/.cache_inductor_llm/6a/c6aceioqpjuxdfspjrvmbwbwjnopp7sfwidpkyukaboswkhibfw5.py":36:46)
#loc30 = loc("/NHNHOME/WORKSPACE/26msit001_A/jinhyeok/loop_TTT/lact/.cache_inductor_llm/6a/c6aceioqpjuxdfspjrvmbwbwjnopp7sfwidpkyukaboswkhibfw5.py":37:30)
#loc31 = loc("/NHNHOME/WORKSPACE/26msit001_A/jinhyeok/loop_TTT/lact/.cache_inductor_llm/6a/c6aceioqpjuxdfspjrvmbwbwjnopp7sfwidpkyukaboswkhibfw5.py":37:35)
#loc32 = loc("/NHNHOME/WORKSPACE/26msit001_A/jinhyeok/loop_TTT/lact/.cache_inductor_llm/6a/c6aceioqpjuxdfspjrvmbwbwjnopp7sfwidpkyukaboswkhibfw5.py":38:31)
#loc33 = loc("/NHNHOME/WORKSPACE/26msit001_A/jinhyeok/loop_TTT/lact/.cache_inductor_llm/6a/c6aceioqpjuxdfspjrvmbwbwjnopp7sfwidpkyukaboswkhibfw5.py":38:36)
#loc34 = loc("/NHNHOME/WORKSPACE/26msit001_A/jinhyeok/loop_TTT/lact/.cache_inductor_llm/6a/c6aceioqpjuxdfspjrvmbwbwjnopp7sfwidpkyukaboswkhibfw5.py":39:46)
#loc35 = loc("/NHNHOME/WORKSPACE/26msit001_A/jinhyeok/loop_TTT/lact/.cache_inductor_llm/6a/c6aceioqpjuxdfspjrvmbwbwjnopp7sfwidpkyukaboswkhibfw5.py":39:42)
#loc36 = loc("/NHNHOME/WORKSPACE/26msit001_A/jinhyeok/loop_TTT/lact/.cache_inductor_llm/6a/c6aceioqpjuxdfspjrvmbwbwjnopp7sfwidpkyukaboswkhibfw5.py":39:35)
#loc37 = loc("/NHNHOME/WORKSPACE/26msit001_A/jinhyeok/loop_TTT/lact/.cache_inductor_llm/6a/c6aceioqpjuxdfspjrvmbwbwjnopp7sfwidpkyukaboswkhibfw5.py":39:61)
#loc38 = loc("/NHNHOME/WORKSPACE/26msit001_A/jinhyeok/loop_TTT/lact/.cache_inductor_llm/6a/c6aceioqpjuxdfspjrvmbwbwjnopp7sfwidpkyukaboswkhibfw5.py":39:51)
#loc39 = loc("/NHNHOME/WORKSPACE/26msit001_A/jinhyeok/loop_TTT/lact/.cache_inductor_llm/6a/c6aceioqpjuxdfspjrvmbwbwjnopp7sfwidpkyukaboswkhibfw5.py":42:18)
#loc40 = loc("/NHNHOME/WORKSPACE/26msit001_A/jinhyeok/loop_TTT/lact/.cache_inductor_llm/6a/c6aceioqpjuxdfspjrvmbwbwjnopp7sfwidpkyukaboswkhibfw5.py":43:11)
#loc41 = loc("/NHNHOME/WORKSPACE/26msit001_A/jinhyeok/loop_TTT/lact/.cache_inductor_llm/6a/c6aceioqpjuxdfspjrvmbwbwjnopp7sfwidpkyukaboswkhibfw5.py":44:18)
#loc42 = loc("/NHNHOME/WORKSPACE/26msit001_A/jinhyeok/loop_TTT/lact/.cache_inductor_llm/6a/c6aceioqpjuxdfspjrvmbwbwjnopp7sfwidpkyukaboswkhibfw5.py":45:19)
#loc43 = loc("/NHNHOME/WORKSPACE/26msit001_A/jinhyeok/loop_TTT/lact/.cache_inductor_llm/6a/c6aceioqpjuxdfspjrvmbwbwjnopp7sfwidpkyukaboswkhibfw5.py":46:19)
#loc44 = loc("/NHNHOME/WORKSPACE/26msit001_A/jinhyeok/loop_TTT/lact/.cache_inductor_llm/6a/c6aceioqpjuxdfspjrvmbwbwjnopp7sfwidpkyukaboswkhibfw5.py":48:31)
#loc45 = loc("/NHNHOME/WORKSPACE/26msit001_A/jinhyeok/loop_TTT/lact/.cache_inductor_llm/6a/c6aceioqpjuxdfspjrvmbwbwjnopp7sfwidpkyukaboswkhibfw5.py":48:45)
#loc46 = loc("/NHNHOME/WORKSPACE/26msit001_A/jinhyeok/loop_TTT/lact/.cache_inductor_llm/6a/c6aceioqpjuxdfspjrvmbwbwjnopp7sfwidpkyukaboswkhibfw5.py":49:26)
#loc47 = loc("/NHNHOME/WORKSPACE/26msit001_A/jinhyeok/loop_TTT/lact/.cache_inductor_llm/6a/c6aceioqpjuxdfspjrvmbwbwjnopp7sfwidpkyukaboswkhibfw5.py":49:29)
#loc48 = loc("/NHNHOME/WORKSPACE/26msit001_A/jinhyeok/loop_TTT/lact/.cache_inductor_llm/6a/c6aceioqpjuxdfspjrvmbwbwjnopp7sfwidpkyukaboswkhibfw5.py":50:19)
#loc49 = loc("/NHNHOME/WORKSPACE/26msit001_A/jinhyeok/loop_TTT/lact/.cache_inductor_llm/6a/c6aceioqpjuxdfspjrvmbwbwjnopp7sfwidpkyukaboswkhibfw5.py":51:13)
#loc50 = loc("/NHNHOME/WORKSPACE/26msit001_A/jinhyeok/loop_TTT/lact/.cache_inductor_llm/6a/c6aceioqpjuxdfspjrvmbwbwjnopp7sfwidpkyukaboswkhibfw5.py":52:20)
#loc51 = loc("/NHNHOME/WORKSPACE/26msit001_A/jinhyeok/loop_TTT/lact/.cache_inductor_llm/6a/c6aceioqpjuxdfspjrvmbwbwjnopp7sfwidpkyukaboswkhibfw5.py":53:20)
#loc52 = loc("/NHNHOME/WORKSPACE/26msit001_A/jinhyeok/loop_TTT/lact/.cache_inductor_llm/6a/c6aceioqpjuxdfspjrvmbwbwjnopp7sfwidpkyukaboswkhibfw5.py":55:31)
#loc53 = loc("/NHNHOME/WORKSPACE/26msit001_A/jinhyeok/loop_TTT/lact/.cache_inductor_llm/6a/c6aceioqpjuxdfspjrvmbwbwjnopp7sfwidpkyukaboswkhibfw5.py":55:45)
#loc54 = loc("/NHNHOME/WORKSPACE/26msit001_A/jinhyeok/loop_TTT/lact/.cache_inductor_llm/6a/c6aceioqpjuxdfspjrvmbwbwjnopp7sfwidpkyukaboswkhibfw5.py":56:26)
#loc55 = loc("/NHNHOME/WORKSPACE/26msit001_A/jinhyeok/loop_TTT/lact/.cache_inductor_llm/6a/c6aceioqpjuxdfspjrvmbwbwjnopp7sfwidpkyukaboswkhibfw5.py":56:29)
#loc56 = loc("/NHNHOME/WORKSPACE/26msit001_A/jinhyeok/loop_TTT/lact/.cache_inductor_llm/6a/c6aceioqpjuxdfspjrvmbwbwjnopp7sfwidpkyukaboswkhibfw5.py":57:21)
#loc57 = loc("/NHNHOME/WORKSPACE/26msit001_A/jinhyeok/loop_TTT/lact/.cache_inductor_llm/6a/c6aceioqpjuxdfspjrvmbwbwjnopp7sfwidpkyukaboswkhibfw5.py":58:20)
#loc58 = loc("/NHNHOME/WORKSPACE/26msit001_A/jinhyeok/loop_TTT/lact/.cache_inductor_llm/6a/c6aceioqpjuxdfspjrvmbwbwjnopp7sfwidpkyukaboswkhibfw5.py":59:12)
#loc59 = loc("/NHNHOME/WORKSPACE/26msit001_A/jinhyeok/loop_TTT/lact/.cache_inductor_llm/6a/c6aceioqpjuxdfspjrvmbwbwjnopp7sfwidpkyukaboswkhibfw5.py":60:20)
#loc60 = loc("/NHNHOME/WORKSPACE/26msit001_A/jinhyeok/loop_TTT/lact/.cache_inductor_llm/6a/c6aceioqpjuxdfspjrvmbwbwjnopp7sfwidpkyukaboswkhibfw5.py":61:20)
#loc61 = loc("/NHNHOME/WORKSPACE/26msit001_A/jinhyeok/loop_TTT/lact/.cache_inductor_llm/6a/c6aceioqpjuxdfspjrvmbwbwjnopp7sfwidpkyukaboswkhibfw5.py":62:35)
#loc62 = loc("/NHNHOME/WORKSPACE/26msit001_A/jinhyeok/loop_TTT/lact/.cache_inductor_llm/6a/c6aceioqpjuxdfspjrvmbwbwjnopp7sfwidpkyukaboswkhibfw5.py":63:20)
#loc63 = loc("/NHNHOME/WORKSPACE/26msit001_A/jinhyeok/loop_TTT/lact/.cache_inductor_llm/6a/c6aceioqpjuxdfspjrvmbwbwjnopp7sfwidpkyukaboswkhibfw5.py":64:20)
#loc64 = loc("/NHNHOME/WORKSPACE/26msit001_A/jinhyeok/loop_TTT/lact/.cache_inductor_llm/6a/c6aceioqpjuxdfspjrvmbwbwjnopp7sfwidpkyukaboswkhibfw5.py":66:39)
#loc65 = loc("/NHNHOME/WORKSPACE/26msit001_A/jinhyeok/loop_TTT/lact/.cache_inductor_llm/6a/c6aceioqpjuxdfspjrvmbwbwjnopp7sfwidpkyukaboswkhibfw5.py":66:35)
#loc66 = loc("/NHNHOME/WORKSPACE/26msit001_A/jinhyeok/loop_TTT/lact/.cache_inductor_llm/6a/c6aceioqpjuxdfspjrvmbwbwjnopp7sfwidpkyukaboswkhibfw5.py":66:28)
#loc67 = loc("/NHNHOME/WORKSPACE/26msit001_A/jinhyeok/loop_TTT/lact/.cache_inductor_llm/6a/c6aceioqpjuxdfspjrvmbwbwjnopp7sfwidpkyukaboswkhibfw5.py":66:61)
#loc68 = loc("/NHNHOME/WORKSPACE/26msit001_A/jinhyeok/loop_TTT/lact/.cache_inductor_llm/6a/c6aceioqpjuxdfspjrvmbwbwjnopp7sfwidpkyukaboswkhibfw5.py":66:51)
#loc69 = loc("/NHNHOME/WORKSPACE/26msit001_A/jinhyeok/loop_TTT/lact/.cache_inductor_llm/6a/c6aceioqpjuxdfspjrvmbwbwjnopp7sfwidpkyukaboswkhibfw5.py":67:36)
#loc70 = loc("/NHNHOME/WORKSPACE/26msit001_A/jinhyeok/loop_TTT/lact/.cache_inductor_llm/6a/c6aceioqpjuxdfspjrvmbwbwjnopp7sfwidpkyukaboswkhibfw5.py":67:32)
#loc71 = loc("/NHNHOME/WORKSPACE/26msit001_A/jinhyeok/loop_TTT/lact/.cache_inductor_llm/6a/c6aceioqpjuxdfspjrvmbwbwjnopp7sfwidpkyukaboswkhibfw5.py":67:25)
#loc72 = loc("/NHNHOME/WORKSPACE/26msit001_A/jinhyeok/loop_TTT/lact/.cache_inductor_llm/6a/c6aceioqpjuxdfspjrvmbwbwjnopp7sfwidpkyukaboswkhibfw5.py":67:58)
#loc73 = loc("/NHNHOME/WORKSPACE/26msit001_A/jinhyeok/loop_TTT/lact/.cache_inductor_llm/6a/c6aceioqpjuxdfspjrvmbwbwjnopp7sfwidpkyukaboswkhibfw5.py":67:48)
#loc74 = loc("/NHNHOME/WORKSPACE/26msit001_A/jinhyeok/loop_TTT/lact/.cache_inductor_llm/6a/c6aceioqpjuxdfspjrvmbwbwjnopp7sfwidpkyukaboswkhibfw5.py":68:25)
#loc75 = loc("/NHNHOME/WORKSPACE/26msit001_A/jinhyeok/loop_TTT/lact/.cache_inductor_llm/6a/c6aceioqpjuxdfspjrvmbwbwjnopp7sfwidpkyukaboswkhibfw5.py":68:37)
#loc76 = loc("/NHNHOME/WORKSPACE/26msit001_A/jinhyeok/loop_TTT/lact/.cache_inductor_llm/6a/c6aceioqpjuxdfspjrvmbwbwjnopp7sfwidpkyukaboswkhibfw5.py":68:4)
#loc78 = loc("/NHNHOME/WORKSPACE/26msit001_A/jinhyeok/TTT_camera_embedding/.venv_llm/lib/python3.12/site-packages/triton/language/standard.py":291:36)
#loc80 = loc("/NHNHOME/WORKSPACE/26msit001_A/jinhyeok/TTT_camera_embedding/.venv_llm/lib/python3.12/site-packages/triton/language/standard.py":291:11)
#loc81 = loc("/NHNHOME/WORKSPACE/26msit001_A/jinhyeok/TTT_camera_embedding/.venv_llm/lib/python3.12/site-packages/triton/language/standard.py":291:4)
#loc83 = loc("/NHNHOME/WORKSPACE/26msit001_A/jinhyeok/TTT_camera_embedding/.venv_llm/lib/python3.12/site-packages/triton/language/standard.py":261:15)
#loc84 = loc("/NHNHOME/WORKSPACE/26msit001_A/jinhyeok/TTT_camera_embedding/.venv_llm/lib/python3.12/site-packages/triton/language/standard.py":261:11)
#loc85 = loc("/NHNHOME/WORKSPACE/26msit001_A/jinhyeok/TTT_camera_embedding/.venv_llm/lib/python3.12/site-packages/triton/language/standard.py":261:4)
#loc96 = loc("xnumel"(#loc1))
#loc97 = loc("r0_numel"(#loc2))
#loc98 = loc("xoffset"(#loc3))
#loc99 = loc("xoffset"(#loc4))
#loc100 = loc("xindex"(#loc5))
#loc101 = loc("xindex"(#loc6))
#loc102 = loc("xindex"(#loc7))
#loc103 = loc("xmask"(#loc8))
#loc104 = loc("r0_index"(#loc9))
#loc105 = loc("r0_index"(#loc10))
#loc106 = loc("r0_offset"(#loc11))
#loc107 = loc("r0_mask"(#loc12))
#loc108 = loc("tmp0"(#loc13))
#loc109 = loc("tmp0"(#loc14))
#loc110 = loc("tmp0"(#loc15))
#loc111 = loc("tmp0"(#loc16))
#loc112 = loc("tmp0"(#loc17))
#loc113 = loc("tmp0"(#loc18))
#loc114 = loc("tmp2"(#loc19))
#loc115 = loc("tmp2"(#loc20))
#loc116 = loc("tmp2"(#loc21))
#loc117 = loc("tmp2"(#loc22))
#loc118 = loc("tmp2"(#loc23))
#loc119 = loc("tmp2"(#loc24))
#loc120 = loc("tmp5"(#loc25))
#loc121 = loc("tmp5"(#loc26))
#loc122 = loc("tmp5"(#loc27))
#loc123 = loc("tmp5"(#loc28))
#loc124 = loc("tmp5"(#loc29))
#loc125 = loc("tmp6"(#loc30))
#loc126 = loc("tmp6"(#loc31))
#loc127 = loc("tmp15"(#loc32))
#loc128 = loc("tmp15"(#loc33))
#loc129 = loc("tmp24"(#loc34))
#loc130 = loc("tmp24"(#loc35))
#loc131 = loc("tmp24"(#loc36))
#loc132 = loc("tmp24"(#loc37))
#loc133 = loc("tmp24"(#loc38))
#loc134 = loc("tmp4"(#loc39))
#loc135 = loc("tmp7"(#loc40))
#loc136 = loc("tmp8"(#loc41))
#loc137 = loc("tmp9"(#loc42))
#loc138 = loc("tmp10"(#loc43))
#loc139 = loc("tmp13"(#loc44))
#loc140 = loc("tmp13"(#loc45))
#loc141 = loc("tmp14"(#loc46))
#loc142 = loc("tmp14"(#loc47))
#loc143 = loc("tmp16"(#loc48))
#loc144 = loc("tmp17"(#loc49))
#loc145 = loc("tmp18"(#loc50))
#loc146 = loc("tmp19"(#loc51))
#loc147 = loc("tmp22"(#loc52))
#loc148 = loc("tmp22"(#loc53))
#loc149 = loc("tmp23"(#loc54))
#loc150 = loc("tmp23"(#loc55))
#loc151 = loc("tmp25"(#loc56))
#loc152 = loc("tmp26"(#loc57))
#loc153 = loc("tmp27"(#loc58))
#loc154 = loc("tmp28"(#loc59))
#loc155 = loc("tmp29"(#loc60))
#loc156 = loc("tmp30"(#loc61))
#loc157 = loc("tmp31"(#loc62))
#loc158 = loc("tmp32"(#loc63))
