#loc = loc("/NHNHOME/WORKSPACE/26msit001_A/jinhyeok/loop_TTT/lact/.cache_inductor_llm/76/c76qv4u2mwqrmv7uzprulrerpwvlnu2bztkjdz3evr5v3yijetyr.py":18:0)
#loc35 = loc("in_ptr0"(#loc))
#loc36 = loc("out_ptr0"(#loc))
#loc37 = loc("xnumel"(#loc))
module {
  tt.func public @triton_poi_fused_clone_copy_slice_transpose_zeros_like_28(%in_ptr0: !tt.ptr<bf16> {tt.divisibility = 16 : i32} loc("in_ptr0"(#loc)), %out_ptr0: !tt.ptr<bf16> {tt.divisibility = 16 : i32} loc("out_ptr0"(#loc)), %xnumel: i32 {tt.divisibility = 16 : i32} loc("xnumel"(#loc))) attributes {noinline = false} {
    %xnumel_0 = arith.constant 6291456 : i32 loc(#loc38)
    %xoffset = tt.get_program_id x : i32 loc(#loc39)
    %xoffset_1 = arith.constant 1024 : i32 loc(#loc40)
    %xoffset_2 = arith.constant 1024 : i32 loc(#loc40)
    %xoffset_3 = arith.muli %xoffset, %xoffset_2 : i32 loc(#loc40)
    %xindex = tt.make_range {end = 1024 : i32, start = 0 : i32} : tensor<1024xi32> loc(#loc41)
    %xindex_4 = tt.splat %xoffset_3 : i32 -> tensor<1024xi32> loc(#loc42)
    %xindex_5 = arith.addi %xindex_4, %xindex : tensor<1024xi32> loc(#loc42)
    %xmask = arith.constant true loc(#loc43)
    %xmask_6 = arith.constant dense<true> : tensor<1024xi1> loc(#loc43)
    %x1 = arith.constant 192 : i32 loc(#loc44)
    %x1_7 = arith.constant 192 : i32 loc(#loc44)
    %x1_8 = arith.constant dense<192> : tensor<1024xi32> loc(#loc44)
    %x1_9 = arith.divsi %xindex_5, %x1_8 : tensor<1024xi32> loc(#loc44)
    %x1_10 = arith.constant 1024 : i32 loc(#loc45)
    %x1_11 = arith.constant 1024 : i32 loc(#loc45)
    %x1_12 = arith.constant dense<1024> : tensor<1024xi32> loc(#loc45)
    %x1_13 = arith.remsi %x1_9, %x1_12 : tensor<1024xi32> loc(#loc45)
    %x2 = arith.constant 196608 : i32 loc(#loc46)
    %x2_14 = arith.constant 196608 : i32 loc(#loc46)
    %x2_15 = arith.constant dense<196608> : tensor<1024xi32> loc(#loc46)
    %x2_16 = arith.divsi %xindex_5, %x2_15 : tensor<1024xi32> loc(#loc46)
    %x3 = arith.constant 196608 : i32 loc(#loc47)
    %x3_17 = arith.constant 196608 : i32 loc(#loc47)
    %x3_18 = arith.constant dense<196608> : tensor<1024xi32> loc(#loc47)
    %x3_19 = arith.remsi %xindex_5, %x3_18 : tensor<1024xi32> loc(#loc47)
    %tmp13 = arith.constant 196608 : i32 loc(#loc48)
    %tmp13_20 = arith.constant 196608 : i32 loc(#loc48)
    %tmp13_21 = arith.constant dense<196608> : tensor<1024xi32> loc(#loc48)
    %tmp13_22 = arith.addi %tmp13_21, %x3_19 : tensor<1024xi32> loc(#loc48)
    %tmp13_23 = arith.constant 786432 : i32 loc(#loc49)
    %tmp13_24 = arith.constant 786432 : i32 loc(#loc49)
    %tmp13_25 = arith.constant dense<786432> : tensor<1024xi32> loc(#loc49)
    %tmp13_26 = arith.muli %tmp13_25, %x2_16 : tensor<1024xi32> loc(#loc49)
    %tmp13_27 = arith.addi %tmp13_22, %tmp13_26 : tensor<1024xi32> loc(#loc50)
    %tmp13_28 = tt.splat %in_ptr0 : !tt.ptr<bf16> -> tensor<1024x!tt.ptr<bf16>> loc(#loc51)
    %tmp13_29 = tt.addptr %tmp13_28, %tmp13_27 : tensor<1024x!tt.ptr<bf16>>, tensor<1024xi32> loc(#loc51)
    %tmp13_30 = tt.load %tmp13_29 : tensor<1024x!tt.ptr<bf16>> loc(#loc52)
    %tmp13_31 = arith.extf %tmp13_30 : tensor<1024xbf16> to tensor<1024xf32> loc(#loc53)
    %tmp0 = arith.constant 1024 : i32 loc(#loc54)
    %tmp0_32 = arith.constant 1024 : i32 loc(#loc54)
    %tmp0_33 = arith.constant dense<1024> : tensor<1024xi32> loc(#loc54)
    %tmp0_34 = arith.addi %tmp0_33, %x1_13 : tensor<1024xi32> loc(#loc54)
    %tmp1 = arith.constant 2048 : i64 loc(#loc55)
    %tmp1_35 = arith.constant dense<2048> : tensor<1xi64> loc(#loc55)
    %tmp2 = arith.extsi %tmp0_34 : tensor<1024xi32> to tensor<1024xi64> loc(#loc56)
    %tmp2_36 = arith.constant dense<2048> : tensor<1024xi64> loc(#loc56)
    %tmp2_37 = arith.cmpi sge, %tmp2, %tmp2_36 : tensor<1024xi64> loc(#loc56)
    %tmp3 = arith.constant 3072 : i64 loc(#loc57)
    %tmp3_38 = arith.constant dense<3072> : tensor<1xi64> loc(#loc57)
    %tmp4 = arith.extsi %tmp0_34 : tensor<1024xi32> to tensor<1024xi64> loc(#loc58)
    %tmp4_39 = arith.constant dense<3072> : tensor<1024xi64> loc(#loc58)
    %tmp4_40 = arith.cmpi slt, %tmp4, %tmp4_39 : tensor<1024xi64> loc(#loc58)
    %tmp5 = arith.andi %tmp2_37, %tmp4_40 : tensor<1024xi1> loc(#loc59)
    %tmp6 = arith.constant 0.000000e+00 : f32 loc(#loc60)
    %tmp7 = arith.constant 0.000000e+00 : f32 loc(#loc61)
    %tmp8 = arith.constant dense<0.000000e+00> : tensor<1024xf32> loc(#loc62)
    %tmp8_41 = arith.constant dense<0.000000e+00> : tensor<1024xf32> loc(#loc62)
    %tmp8_42 = arith.select %tmp5, %tmp8, %tmp8_41 : tensor<1024xi1>, tensor<1024xf32> loc(#loc62)
    %tmp9 = arith.extsi %tmp0_34 : tensor<1024xi32> to tensor<1024xi64> loc(#loc63)
    %tmp9_43 = arith.constant dense<3072> : tensor<1024xi64> loc(#loc63)
    %tmp9_44 = arith.cmpi sge, %tmp9, %tmp9_43 : tensor<1024xi64> loc(#loc63)
    %tmp10 = arith.constant 0.000000e+00 : f32 loc(#loc64)
    %tmp11 = arith.constant 0.000000e+00 : f32 loc(#loc65)
    %tmp12 = arith.constant dense<0.000000e+00> : tensor<1024xf32> loc(#loc66)
    %tmp12_45 = arith.constant dense<0.000000e+00> : tensor<1024xf32> loc(#loc66)
    %tmp12_46 = arith.select %tmp9_44, %tmp12, %tmp12_45 : tensor<1024xi1>, tensor<1024xf32> loc(#loc66)
    %tmp14 = arith.select %tmp9_44, %tmp12_46, %tmp13_31 : tensor<1024xi1>, tensor<1024xf32> loc(#loc67)
    %tmp15 = arith.select %tmp5, %tmp8_42, %tmp14 : tensor<1024xi1>, tensor<1024xf32> loc(#loc68)
    %0 = tt.splat %out_ptr0 : !tt.ptr<bf16> -> tensor<1024x!tt.ptr<bf16>> loc(#loc32)
    %1 = tt.addptr %0, %xindex_5 : tensor<1024x!tt.ptr<bf16>>, tensor<1024xi32> loc(#loc32)
    %2 = arith.truncf %tmp15 : tensor<1024xf32> to tensor<1024xbf16> loc(#loc33)
    tt.store %1, %2 : tensor<1024x!tt.ptr<bf16>> loc(#loc33)
    tt.return loc(#loc34)
  } loc(#loc)
} loc(#loc)
#loc1 = loc("/NHNHOME/WORKSPACE/26msit001_A/jinhyeok/loop_TTT/lact/.cache_inductor_llm/76/c76qv4u2mwqrmv7uzprulrerpwvlnu2bztkjdz3evr5v3yijetyr.py":19:13)
#loc2 = loc("/NHNHOME/WORKSPACE/26msit001_A/jinhyeok/loop_TTT/lact/.cache_inductor_llm/76/c76qv4u2mwqrmv7uzprulrerpwvlnu2bztkjdz3evr5v3yijetyr.py":20:28)
#loc3 = loc("/NHNHOME/WORKSPACE/26msit001_A/jinhyeok/loop_TTT/lact/.cache_inductor_llm/76/c76qv4u2mwqrmv7uzprulrerpwvlnu2bztkjdz3evr5v3yijetyr.py":20:33)
#loc4 = loc("/NHNHOME/WORKSPACE/26msit001_A/jinhyeok/loop_TTT/lact/.cache_inductor_llm/76/c76qv4u2mwqrmv7uzprulrerpwvlnu2bztkjdz3evr5v3yijetyr.py":21:36)
#loc5 = loc("/NHNHOME/WORKSPACE/26msit001_A/jinhyeok/loop_TTT/lact/.cache_inductor_llm/76/c76qv4u2mwqrmv7uzprulrerpwvlnu2bztkjdz3evr5v3yijetyr.py":21:23)
#loc6 = loc("/NHNHOME/WORKSPACE/26msit001_A/jinhyeok/loop_TTT/lact/.cache_inductor_llm/76/c76qv4u2mwqrmv7uzprulrerpwvlnu2bztkjdz3evr5v3yijetyr.py":22:36)
#loc7 = loc("/NHNHOME/WORKSPACE/26msit001_A/jinhyeok/loop_TTT/lact/.cache_inductor_llm/76/c76qv4u2mwqrmv7uzprulrerpwvlnu2bztkjdz3evr5v3yijetyr.py":23:21)
#loc8 = loc("/NHNHOME/WORKSPACE/26msit001_A/jinhyeok/loop_TTT/lact/.cache_inductor_llm/76/c76qv4u2mwqrmv7uzprulrerpwvlnu2bztkjdz3evr5v3yijetyr.py":23:28)
#loc9 = loc("/NHNHOME/WORKSPACE/26msit001_A/jinhyeok/loop_TTT/lact/.cache_inductor_llm/76/c76qv4u2mwqrmv7uzprulrerpwvlnu2bztkjdz3evr5v3yijetyr.py":24:19)
#loc10 = loc("/NHNHOME/WORKSPACE/26msit001_A/jinhyeok/loop_TTT/lact/.cache_inductor_llm/76/c76qv4u2mwqrmv7uzprulrerpwvlnu2bztkjdz3evr5v3yijetyr.py":25:19)
#loc11 = loc("/NHNHOME/WORKSPACE/26msit001_A/jinhyeok/loop_TTT/lact/.cache_inductor_llm/76/c76qv4u2mwqrmv7uzprulrerpwvlnu2bztkjdz3evr5v3yijetyr.py":27:40)
#loc12 = loc("/NHNHOME/WORKSPACE/26msit001_A/jinhyeok/loop_TTT/lact/.cache_inductor_llm/76/c76qv4u2mwqrmv7uzprulrerpwvlnu2bztkjdz3evr5v3yijetyr.py":27:52)
#loc13 = loc("/NHNHOME/WORKSPACE/26msit001_A/jinhyeok/loop_TTT/lact/.cache_inductor_llm/76/c76qv4u2mwqrmv7uzprulrerpwvlnu2bztkjdz3evr5v3yijetyr.py":27:45)
#loc14 = loc("/NHNHOME/WORKSPACE/26msit001_A/jinhyeok/loop_TTT/lact/.cache_inductor_llm/76/c76qv4u2mwqrmv7uzprulrerpwvlnu2bztkjdz3evr5v3yijetyr.py":27:31)
#loc15 = loc("/NHNHOME/WORKSPACE/26msit001_A/jinhyeok/loop_TTT/lact/.cache_inductor_llm/76/c76qv4u2mwqrmv7uzprulrerpwvlnu2bztkjdz3evr5v3yijetyr.py":27:57)
#loc16 = loc("/NHNHOME/WORKSPACE/26msit001_A/jinhyeok/loop_TTT/lact/.cache_inductor_llm/76/c76qv4u2mwqrmv7uzprulrerpwvlnu2bztkjdz3evr5v3yijetyr.py":27:66)
#loc17 = loc("/NHNHOME/WORKSPACE/26msit001_A/jinhyeok/loop_TTT/lact/.cache_inductor_llm/76/c76qv4u2mwqrmv7uzprulrerpwvlnu2bztkjdz3evr5v3yijetyr.py":28:18)
#loc18 = loc("/NHNHOME/WORKSPACE/26msit001_A/jinhyeok/loop_TTT/lact/.cache_inductor_llm/76/c76qv4u2mwqrmv7uzprulrerpwvlnu2bztkjdz3evr5v3yijetyr.py":29:30)
#loc19 = loc("/NHNHOME/WORKSPACE/26msit001_A/jinhyeok/loop_TTT/lact/.cache_inductor_llm/76/c76qv4u2mwqrmv7uzprulrerpwvlnu2bztkjdz3evr5v3yijetyr.py":30:19)
#loc20 = loc("/NHNHOME/WORKSPACE/26msit001_A/jinhyeok/loop_TTT/lact/.cache_inductor_llm/76/c76qv4u2mwqrmv7uzprulrerpwvlnu2bztkjdz3evr5v3yijetyr.py":31:30)
#loc21 = loc("/NHNHOME/WORKSPACE/26msit001_A/jinhyeok/loop_TTT/lact/.cache_inductor_llm/76/c76qv4u2mwqrmv7uzprulrerpwvlnu2bztkjdz3evr5v3yijetyr.py":32:18)
#loc22 = loc("/NHNHOME/WORKSPACE/26msit001_A/jinhyeok/loop_TTT/lact/.cache_inductor_llm/76/c76qv4u2mwqrmv7uzprulrerpwvlnu2bztkjdz3evr5v3yijetyr.py":33:18)
#loc23 = loc("/NHNHOME/WORKSPACE/26msit001_A/jinhyeok/loop_TTT/lact/.cache_inductor_llm/76/c76qv4u2mwqrmv7uzprulrerpwvlnu2bztkjdz3evr5v3yijetyr.py":34:11)
#loc24 = loc("/NHNHOME/WORKSPACE/26msit001_A/jinhyeok/loop_TTT/lact/.cache_inductor_llm/76/c76qv4u2mwqrmv7uzprulrerpwvlnu2bztkjdz3evr5v3yijetyr.py":35:36)
#loc25 = loc("/NHNHOME/WORKSPACE/26msit001_A/jinhyeok/loop_TTT/lact/.cache_inductor_llm/76/c76qv4u2mwqrmv7uzprulrerpwvlnu2bztkjdz3evr5v3yijetyr.py":36:32)
#loc26 = loc("/NHNHOME/WORKSPACE/26msit001_A/jinhyeok/loop_TTT/lact/.cache_inductor_llm/76/c76qv4u2mwqrmv7uzprulrerpwvlnu2bztkjdz3evr5v3yijetyr.py":37:19)
#loc27 = loc("/NHNHOME/WORKSPACE/26msit001_A/jinhyeok/loop_TTT/lact/.cache_inductor_llm/76/c76qv4u2mwqrmv7uzprulrerpwvlnu2bztkjdz3evr5v3yijetyr.py":38:12)
#loc28 = loc("/NHNHOME/WORKSPACE/26msit001_A/jinhyeok/loop_TTT/lact/.cache_inductor_llm/76/c76qv4u2mwqrmv7uzprulrerpwvlnu2bztkjdz3evr5v3yijetyr.py":39:38)
#loc29 = loc("/NHNHOME/WORKSPACE/26msit001_A/jinhyeok/loop_TTT/lact/.cache_inductor_llm/76/c76qv4u2mwqrmv7uzprulrerpwvlnu2bztkjdz3evr5v3yijetyr.py":40:34)
#loc30 = loc("/NHNHOME/WORKSPACE/26msit001_A/jinhyeok/loop_TTT/lact/.cache_inductor_llm/76/c76qv4u2mwqrmv7uzprulrerpwvlnu2bztkjdz3evr5v3yijetyr.py":41:34)
#loc31 = loc("/NHNHOME/WORKSPACE/26msit001_A/jinhyeok/loop_TTT/lact/.cache_inductor_llm/76/c76qv4u2mwqrmv7uzprulrerpwvlnu2bztkjdz3evr5v3yijetyr.py":42:33)
#loc32 = loc("/NHNHOME/WORKSPACE/26msit001_A/jinhyeok/loop_TTT/lact/.cache_inductor_llm/76/c76qv4u2mwqrmv7uzprulrerpwvlnu2bztkjdz3evr5v3yijetyr.py":43:25)
#loc33 = loc("/NHNHOME/WORKSPACE/26msit001_A/jinhyeok/loop_TTT/lact/.cache_inductor_llm/76/c76qv4u2mwqrmv7uzprulrerpwvlnu2bztkjdz3evr5v3yijetyr.py":43:37)
#loc34 = loc("/NHNHOME/WORKSPACE/26msit001_A/jinhyeok/loop_TTT/lact/.cache_inductor_llm/76/c76qv4u2mwqrmv7uzprulrerpwvlnu2bztkjdz3evr5v3yijetyr.py":43:4)
#loc38 = loc("xnumel"(#loc1))
#loc39 = loc("xoffset"(#loc2))
#loc40 = loc("xoffset"(#loc3))
#loc41 = loc("xindex"(#loc4))
#loc42 = loc("xindex"(#loc5))
#loc43 = loc("xmask"(#loc6))
#loc44 = loc("x1"(#loc7))
#loc45 = loc("x1"(#loc8))
#loc46 = loc("x2"(#loc9))
#loc47 = loc("x3"(#loc10))
#loc48 = loc("tmp13"(#loc11))
#loc49 = loc("tmp13"(#loc12))
#loc50 = loc("tmp13"(#loc13))
#loc51 = loc("tmp13"(#loc14))
#loc52 = loc("tmp13"(#loc15))
#loc53 = loc("tmp13"(#loc16))
#loc54 = loc("tmp0"(#loc17))
#loc55 = loc("tmp1"(#loc18))
#loc56 = loc("tmp2"(#loc19))
#loc57 = loc("tmp3"(#loc20))
#loc58 = loc("tmp4"(#loc21))
#loc59 = loc("tmp5"(#loc22))
#loc60 = loc("tmp6"(#loc23))
#loc61 = loc("tmp7"(#loc24))
#loc62 = loc("tmp8"(#loc25))
#loc63 = loc("tmp9"(#loc26))
#loc64 = loc("tmp10"(#loc27))
#loc65 = loc("tmp11"(#loc28))
#loc66 = loc("tmp12"(#loc29))
#loc67 = loc("tmp14"(#loc30))
#loc68 = loc("tmp15"(#loc31))
