#loc = loc("/NHNHOME/WORKSPACE/26msit001_A/jinhyeok/loop_TTT/lact/.cache_inductor_llm/oz/cozve4gxl76736bfmfpnpcyli75pjedubnyq7loufv4vheccw66y.py":18:0)
#loc43 = loc("in_ptr0"(#loc))
#loc44 = loc("in_ptr1"(#loc))
#loc45 = loc("in_ptr2"(#loc))
#loc46 = loc("out_ptr0"(#loc))
#loc47 = loc("out_ptr1"(#loc))
#loc48 = loc("out_ptr2"(#loc))
#loc49 = loc("ynumel"(#loc))
#loc50 = loc("xnumel"(#loc))
module {
  tt.func public @triton_poi_fused__to_copy_add_mul_transpose_20(%in_ptr0: !tt.ptr<f32> {tt.divisibility = 16 : i32} loc("in_ptr0"(#loc)), %in_ptr1: !tt.ptr<bf16> {tt.divisibility = 16 : i32} loc("in_ptr1"(#loc)), %in_ptr2: !tt.ptr<bf16> {tt.divisibility = 16 : i32} loc("in_ptr2"(#loc)), %out_ptr0: !tt.ptr<bf16> {tt.divisibility = 16 : i32} loc("out_ptr0"(#loc)), %out_ptr1: !tt.ptr<bf16> {tt.divisibility = 16 : i32} loc("out_ptr1"(#loc)), %out_ptr2: !tt.ptr<bf16> {tt.divisibility = 16 : i32} loc("out_ptr2"(#loc)), %ynumel: i32 {tt.divisibility = 16 : i32} loc("ynumel"(#loc)), %xnumel: i32 {tt.divisibility = 16 : i32} loc("xnumel"(#loc))) attributes {noinline = false} {
    %c192_i32 = arith.constant 192 : i32 loc(#loc1)
    %cst = arith.constant dense<36864> : tensor<1024x1xi32> loc(#loc2)
    %tmp7 = arith.constant dense<2.876900e+00> : tensor<1024x1xf32> loc(#loc51)
    %tmp2 = arith.constant dense<3.741800e+00> : tensor<1024x1xf32> loc(#loc52)
    %cst_0 = arith.constant dense<192> : tensor<1024x1xi32> loc(#loc1)
    %c1024_i32 = arith.constant 1024 : i32 loc(#loc1)
    %yoffset = tt.get_program_id y : i32 loc(#loc53)
    %yoffset_1 = tt.get_program_id z : i32 loc(#loc54)
    %yoffset_2 = tt.get_num_programs y : i32 loc(#loc55)
    %yoffset_3 = arith.muli %yoffset_1, %yoffset_2 : i32 loc(#loc56)
    %yoffset_4 = arith.addi %yoffset, %yoffset_3 : i32 loc(#loc57)
    %yoffset_5 = arith.muli %yoffset_4, %c1024_i32 : i32 loc(#loc58)
    %yindex = tt.make_range {end = 1024 : i32, start = 0 : i32} : tensor<1024xi32> loc(#loc59)
    %yindex_6 = tt.expand_dims %yindex {axis = 1 : i32} : tensor<1024xi32> -> tensor<1024x1xi32> loc(#loc60)
    %yindex_7 = tt.splat %yoffset_5 : i32 -> tensor<1024x1xi32> loc(#loc61)
    %yindex_8 = arith.addi %yindex_7, %yindex_6 : tensor<1024x1xi32> loc(#loc61)
    %ymask = tt.splat %ynumel : i32 -> tensor<1024x1xi32> loc(#loc62)
    %ymask_9 = arith.cmpi slt, %yindex_8, %ymask : tensor<1024x1xi32> loc(#loc62)
    %xoffset = tt.get_program_id x : i32 loc(#loc63)
    %xmask = arith.cmpi slt, %xoffset, %c192_i32 : i32 loc(#loc64)
    %y2 = arith.remsi %yindex_8, %cst_0 : tensor<1024x1xi32> loc(#loc65)
    %y3 = arith.divsi %yindex_8, %cst_0 : tensor<1024x1xi32> loc(#loc66)
    %tmp0 = arith.muli %yindex_8, %cst_0 : tensor<1024x1xi32> loc(#loc67)
    %tmp0_10 = tt.splat %xoffset : i32 -> tensor<1024x1xi32> loc(#loc82)
    %tmp0_11 = arith.addi %tmp0_10, %tmp0 : tensor<1024x1xi32> loc(#loc68)
    %tmp0_12 = tt.splat %in_ptr0 : !tt.ptr<f32> -> tensor<1024x1x!tt.ptr<f32>> loc(#loc70)
    %tmp0_13 = tt.addptr %tmp0_12, %tmp0_11 : tensor<1024x1x!tt.ptr<f32>>, tensor<1024x1xi32> loc(#loc70)
    %tmp0_14 = tt.splat %xmask : i1 -> tensor<1024x1xi1> loc(#loc83)
    %tmp0_15 = arith.andi %tmp0_14, %ymask_9 : tensor<1024x1xi1> loc(#loc71)
    %tmp0_16 = tt.load %tmp0_13, %tmp0_15 evictionPolicy = evict_last : tensor<1024x1x!tt.ptr<f32>> loc(#loc72)
    %tmp3 = tt.splat %in_ptr1 : !tt.ptr<bf16> -> tensor<1024x1x!tt.ptr<bf16>> loc(#loc73)
    %tmp3_17 = tt.addptr %tmp3, %tmp0_11 : tensor<1024x1x!tt.ptr<bf16>>, tensor<1024x1xi32> loc(#loc73)
    %tmp3_18 = tt.load %tmp3_17, %tmp0_15 evictionPolicy = evict_last : tensor<1024x1x!tt.ptr<bf16>> loc(#loc74)
    %tmp3_19 = arith.extf %tmp3_18 : tensor<1024x1xbf16> to tensor<1024x1xf32> loc(#loc75)
    %tmp8 = tt.splat %in_ptr2 : !tt.ptr<bf16> -> tensor<1024x1x!tt.ptr<bf16>> loc(#loc76)
    %tmp8_20 = tt.addptr %tmp8, %tmp0_11 : tensor<1024x1x!tt.ptr<bf16>>, tensor<1024x1xi32> loc(#loc76)
    %tmp8_21 = tt.load %tmp8_20, %tmp0_15 evictionPolicy = evict_last : tensor<1024x1x!tt.ptr<bf16>> loc(#loc77)
    %tmp8_22 = arith.extf %tmp8_21 : tensor<1024x1xbf16> to tensor<1024x1xf32> loc(#loc78)
    %tmp2_23 = arith.mulf %tmp0_16, %tmp2 : tensor<1024x1xf32> loc(#loc52)
    %tmp5 = arith.addf %tmp2_23, %tmp3_19 : tensor<1024x1xf32> loc(#loc79)
    %tmp7_24 = arith.mulf %tmp5, %tmp7 : tensor<1024x1xf32> loc(#loc51)
    %tmp10 = arith.addf %tmp7_24, %tmp8_22 : tensor<1024x1xf32> loc(#loc80)
    %0 = tt.splat %out_ptr0 : !tt.ptr<bf16> -> tensor<1024x1x!tt.ptr<bf16>> loc(#loc33)
    %1 = tt.addptr %0, %tmp0_11 : tensor<1024x1x!tt.ptr<bf16>>, tensor<1024x1xi32> loc(#loc33)
    %2 = arith.truncf %tmp10 : tensor<1024x1xf32> to tensor<1024x1xbf16> loc(#loc34)
    tt.store %1, %2, %tmp0_15 : tensor<1024x1x!tt.ptr<bf16>> loc(#loc34)
    %3 = arith.muli %xoffset, %c192_i32 : i32 loc(#loc35)
    %4 = tt.splat %3 : i32 -> tensor<1024x1xi32> loc(#loc81)
    %5 = arith.addi %y2, %4 : tensor<1024x1xi32> loc(#loc36)
    %6 = arith.muli %y3, %cst : tensor<1024x1xi32> loc(#loc2)
    %7 = arith.addi %5, %6 : tensor<1024x1xi32> loc(#loc37)
    %8 = tt.splat %out_ptr1 : !tt.ptr<bf16> -> tensor<1024x1x!tt.ptr<bf16>> loc(#loc38)
    %9 = tt.addptr %8, %7 : tensor<1024x1x!tt.ptr<bf16>>, tensor<1024x1xi32> loc(#loc38)
    tt.store %9, %2, %tmp0_15 : tensor<1024x1x!tt.ptr<bf16>> loc(#loc39)
    %10 = tt.splat %out_ptr2 : !tt.ptr<bf16> -> tensor<1024x1x!tt.ptr<bf16>> loc(#loc40)
    %11 = tt.addptr %10, %tmp0_11 : tensor<1024x1x!tt.ptr<bf16>>, tensor<1024x1xi32> loc(#loc40)
    tt.store %11, %2, %tmp0_15 : tensor<1024x1x!tt.ptr<bf16>> loc(#loc41)
    tt.return loc(#loc42)
  } loc(#loc)
} loc(#loc)
#loc1 = loc(unknown)
#loc2 = loc("/NHNHOME/WORKSPACE/26msit001_A/jinhyeok/loop_TTT/lact/.cache_inductor_llm/oz/cozve4gxl76736bfmfpnpcyli75pjedubnyq7loufv4vheccw66y.py":43:45)
#loc3 = loc("/NHNHOME/WORKSPACE/26msit001_A/jinhyeok/loop_TTT/lact/.cache_inductor_llm/oz/cozve4gxl76736bfmfpnpcyli75pjedubnyq7loufv4vheccw66y.py":38:18)
#loc4 = loc("/NHNHOME/WORKSPACE/26msit001_A/jinhyeok/loop_TTT/lact/.cache_inductor_llm/oz/cozve4gxl76736bfmfpnpcyli75pjedubnyq7loufv4vheccw66y.py":34:18)
#loc5 = loc("/NHNHOME/WORKSPACE/26msit001_A/jinhyeok/loop_TTT/lact/.cache_inductor_llm/oz/cozve4gxl76736bfmfpnpcyli75pjedubnyq7loufv4vheccw66y.py":20:29)
#loc6 = loc("/NHNHOME/WORKSPACE/26msit001_A/jinhyeok/loop_TTT/lact/.cache_inductor_llm/oz/cozve4gxl76736bfmfpnpcyli75pjedubnyq7loufv4vheccw66y.py":20:48)
#loc7 = loc("/NHNHOME/WORKSPACE/26msit001_A/jinhyeok/loop_TTT/lact/.cache_inductor_llm/oz/cozve4gxl76736bfmfpnpcyli75pjedubnyq7loufv4vheccw66y.py":20:69)
#loc8 = loc("/NHNHOME/WORKSPACE/26msit001_A/jinhyeok/loop_TTT/lact/.cache_inductor_llm/oz/cozve4gxl76736bfmfpnpcyli75pjedubnyq7loufv4vheccw66y.py":20:53)
#loc9 = loc("/NHNHOME/WORKSPACE/26msit001_A/jinhyeok/loop_TTT/lact/.cache_inductor_llm/oz/cozve4gxl76736bfmfpnpcyli75pjedubnyq7loufv4vheccw66y.py":20:34)
#loc10 = loc("/NHNHOME/WORKSPACE/26msit001_A/jinhyeok/loop_TTT/lact/.cache_inductor_llm/oz/cozve4gxl76736bfmfpnpcyli75pjedubnyq7loufv4vheccw66y.py":20:75)
#loc11 = loc("/NHNHOME/WORKSPACE/26msit001_A/jinhyeok/loop_TTT/lact/.cache_inductor_llm/oz/cozve4gxl76736bfmfpnpcyli75pjedubnyq7loufv4vheccw66y.py":21:36)
#loc12 = loc("/NHNHOME/WORKSPACE/26msit001_A/jinhyeok/loop_TTT/lact/.cache_inductor_llm/oz/cozve4gxl76736bfmfpnpcyli75pjedubnyq7loufv4vheccw66y.py":21:44)
#loc13 = loc("/NHNHOME/WORKSPACE/26msit001_A/jinhyeok/loop_TTT/lact/.cache_inductor_llm/oz/cozve4gxl76736bfmfpnpcyli75pjedubnyq7loufv4vheccw66y.py":21:23)
#loc14 = loc("/NHNHOME/WORKSPACE/26msit001_A/jinhyeok/loop_TTT/lact/.cache_inductor_llm/oz/cozve4gxl76736bfmfpnpcyli75pjedubnyq7loufv4vheccw66y.py":22:21)
#loc15 = loc("/NHNHOME/WORKSPACE/26msit001_A/jinhyeok/loop_TTT/lact/.cache_inductor_llm/oz/cozve4gxl76736bfmfpnpcyli75pjedubnyq7loufv4vheccw66y.py":23:28)
#loc16 = loc("/NHNHOME/WORKSPACE/26msit001_A/jinhyeok/loop_TTT/lact/.cache_inductor_llm/oz/cozve4gxl76736bfmfpnpcyli75pjedubnyq7loufv4vheccw66y.py":25:21)
#loc17 = loc("/NHNHOME/WORKSPACE/26msit001_A/jinhyeok/loop_TTT/lact/.cache_inductor_llm/oz/cozve4gxl76736bfmfpnpcyli75pjedubnyq7loufv4vheccw66y.py":28:19)
#loc18 = loc("/NHNHOME/WORKSPACE/26msit001_A/jinhyeok/loop_TTT/lact/.cache_inductor_llm/oz/cozve4gxl76736bfmfpnpcyli75pjedubnyq7loufv4vheccw66y.py":29:19)
#loc19 = loc("/NHNHOME/WORKSPACE/26msit001_A/jinhyeok/loop_TTT/lact/.cache_inductor_llm/oz/cozve4gxl76736bfmfpnpcyli75pjedubnyq7loufv4vheccw66y.py":30:39)
#loc20 = loc("/NHNHOME/WORKSPACE/26msit001_A/jinhyeok/loop_TTT/lact/.cache_inductor_llm/oz/cozve4gxl76736bfmfpnpcyli75pjedubnyq7loufv4vheccw66y.py":30:35)
#loc21 = loc("/NHNHOME/WORKSPACE/26msit001_A/jinhyeok/loop_TTT/lact/.cache_inductor_llm/oz/cozve4gxl76736bfmfpnpcyli75pjedubnyq7loufv4vheccw66y.py":24:23)
#loc22 = loc("/NHNHOME/WORKSPACE/26msit001_A/jinhyeok/loop_TTT/lact/.cache_inductor_llm/oz/cozve4gxl76736bfmfpnpcyli75pjedubnyq7loufv4vheccw66y.py":30:30)
#loc23 = loc("/NHNHOME/WORKSPACE/26msit001_A/jinhyeok/loop_TTT/lact/.cache_inductor_llm/oz/cozve4gxl76736bfmfpnpcyli75pjedubnyq7loufv4vheccw66y.py":30:52)
#loc24 = loc("/NHNHOME/WORKSPACE/26msit001_A/jinhyeok/loop_TTT/lact/.cache_inductor_llm/oz/cozve4gxl76736bfmfpnpcyli75pjedubnyq7loufv4vheccw66y.py":30:44)
#loc25 = loc("/NHNHOME/WORKSPACE/26msit001_A/jinhyeok/loop_TTT/lact/.cache_inductor_llm/oz/cozve4gxl76736bfmfpnpcyli75pjedubnyq7loufv4vheccw66y.py":31:30)
#loc26 = loc("/NHNHOME/WORKSPACE/26msit001_A/jinhyeok/loop_TTT/lact/.cache_inductor_llm/oz/cozve4gxl76736bfmfpnpcyli75pjedubnyq7loufv4vheccw66y.py":31:44)
#loc27 = loc("/NHNHOME/WORKSPACE/26msit001_A/jinhyeok/loop_TTT/lact/.cache_inductor_llm/oz/cozve4gxl76736bfmfpnpcyli75pjedubnyq7loufv4vheccw66y.py":31:92)
#loc28 = loc("/NHNHOME/WORKSPACE/26msit001_A/jinhyeok/loop_TTT/lact/.cache_inductor_llm/oz/cozve4gxl76736bfmfpnpcyli75pjedubnyq7loufv4vheccw66y.py":32:30)
#loc29 = loc("/NHNHOME/WORKSPACE/26msit001_A/jinhyeok/loop_TTT/lact/.cache_inductor_llm/oz/cozve4gxl76736bfmfpnpcyli75pjedubnyq7loufv4vheccw66y.py":32:44)
#loc30 = loc("/NHNHOME/WORKSPACE/26msit001_A/jinhyeok/loop_TTT/lact/.cache_inductor_llm/oz/cozve4gxl76736bfmfpnpcyli75pjedubnyq7loufv4vheccw66y.py":32:92)
#loc31 = loc("/NHNHOME/WORKSPACE/26msit001_A/jinhyeok/loop_TTT/lact/.cache_inductor_llm/oz/cozve4gxl76736bfmfpnpcyli75pjedubnyq7loufv4vheccw66y.py":36:18)
#loc32 = loc("/NHNHOME/WORKSPACE/26msit001_A/jinhyeok/loop_TTT/lact/.cache_inductor_llm/oz/cozve4gxl76736bfmfpnpcyli75pjedubnyq7loufv4vheccw66y.py":40:19)
#loc33 = loc("/NHNHOME/WORKSPACE/26msit001_A/jinhyeok/loop_TTT/lact/.cache_inductor_llm/oz/cozve4gxl76736bfmfpnpcyli75pjedubnyq7loufv4vheccw66y.py":42:25)
#loc34 = loc("/NHNHOME/WORKSPACE/26msit001_A/jinhyeok/loop_TTT/lact/.cache_inductor_llm/oz/cozve4gxl76736bfmfpnpcyli75pjedubnyq7loufv4vheccw66y.py":42:46)
#loc35 = loc("/NHNHOME/WORKSPACE/26msit001_A/jinhyeok/loop_TTT/lact/.cache_inductor_llm/oz/cozve4gxl76736bfmfpnpcyli75pjedubnyq7loufv4vheccw66y.py":43:34)
#loc36 = loc("/NHNHOME/WORKSPACE/26msit001_A/jinhyeok/loop_TTT/lact/.cache_inductor_llm/oz/cozve4gxl76736bfmfpnpcyli75pjedubnyq7loufv4vheccw66y.py":43:30)
#loc37 = loc("/NHNHOME/WORKSPACE/26msit001_A/jinhyeok/loop_TTT/lact/.cache_inductor_llm/oz/cozve4gxl76736bfmfpnpcyli75pjedubnyq7loufv4vheccw66y.py":43:39)
#loc38 = loc("/NHNHOME/WORKSPACE/26msit001_A/jinhyeok/loop_TTT/lact/.cache_inductor_llm/oz/cozve4gxl76736bfmfpnpcyli75pjedubnyq7loufv4vheccw66y.py":43:25)
#loc39 = loc("/NHNHOME/WORKSPACE/26msit001_A/jinhyeok/loop_TTT/lact/.cache_inductor_llm/oz/cozve4gxl76736bfmfpnpcyli75pjedubnyq7loufv4vheccw66y.py":43:57)
#loc40 = loc("/NHNHOME/WORKSPACE/26msit001_A/jinhyeok/loop_TTT/lact/.cache_inductor_llm/oz/cozve4gxl76736bfmfpnpcyli75pjedubnyq7loufv4vheccw66y.py":44:25)
#loc41 = loc("/NHNHOME/WORKSPACE/26msit001_A/jinhyeok/loop_TTT/lact/.cache_inductor_llm/oz/cozve4gxl76736bfmfpnpcyli75pjedubnyq7loufv4vheccw66y.py":44:46)
#loc42 = loc("/NHNHOME/WORKSPACE/26msit001_A/jinhyeok/loop_TTT/lact/.cache_inductor_llm/oz/cozve4gxl76736bfmfpnpcyli75pjedubnyq7loufv4vheccw66y.py":44:4)
#loc51 = loc("tmp7"(#loc3))
#loc52 = loc("tmp2"(#loc4))
#loc53 = loc("yoffset"(#loc5))
#loc54 = loc("yoffset"(#loc6))
#loc55 = loc("yoffset"(#loc7))
#loc56 = loc("yoffset"(#loc8))
#loc57 = loc("yoffset"(#loc9))
#loc58 = loc("yoffset"(#loc10))
#loc59 = loc("yindex"(#loc11))
#loc60 = loc("yindex"(#loc12))
#loc61 = loc("yindex"(#loc13))
#loc62 = loc("ymask"(#loc14))
#loc63 = loc("xoffset"(#loc15))
#loc64 = loc("xmask"(#loc16))
#loc65 = loc("y2"(#loc17))
#loc66 = loc("y3"(#loc18))
#loc67 = loc("tmp0"(#loc19))
#loc68 = loc("tmp0"(#loc20))
#loc69 = loc("xindex"(#loc21))
#loc70 = loc("tmp0"(#loc22))
#loc71 = loc("tmp0"(#loc23))
#loc72 = loc("tmp0"(#loc24))
#loc73 = loc("tmp3"(#loc25))
#loc74 = loc("tmp3"(#loc26))
#loc75 = loc("tmp3"(#loc27))
#loc76 = loc("tmp8"(#loc28))
#loc77 = loc("tmp8"(#loc29))
#loc78 = loc("tmp8"(#loc30))
#loc79 = loc("tmp5"(#loc31))
#loc80 = loc("tmp10"(#loc32))
#loc81 = loc(fused[#loc36, #loc35])
#loc82 = loc(fused[#loc68, #loc69])
#loc83 = loc(fused[#loc71, #loc64])
