#loc = loc("/NHNHOME/WORKSPACE/26msit001_A/jinhyeok/loop_TTT/lact/.cache_inductor_llm/zm/czmzhmqr47zv32ioflhfefuove2h7ce2r27ryachi33qeos6qrl2.py":18:0)
#loc51 = loc("/NHNHOME/WORKSPACE/26msit001_A/jinhyeok/TTT_camera_embedding/.venv_llm/lib/python3.12/site-packages/triton/language/standard.py":285:0)
#loc53 = loc(unknown)
#loc56 = loc("/NHNHOME/WORKSPACE/26msit001_A/jinhyeok/TTT_camera_embedding/.venv_llm/lib/python3.12/site-packages/triton/language/standard.py":260:0)
#loc60 = loc("in_ptr0"(#loc))
#loc61 = loc("in_ptr1"(#loc))
#loc62 = loc("out_ptr0"(#loc))
#loc63 = loc("xnumel"(#loc))
#loc64 = loc("r0_numel"(#loc))
#loc111 = loc("input"(#loc51))
#loc112 = loc("a"(#loc56))
#loc113 = loc("b"(#loc56))
module {
  tt.func public @triton_red_fused_mul_sum_15(%in_ptr0: !tt.ptr<f32> {tt.divisibility = 16 : i32} loc("in_ptr0"(#loc)), %in_ptr1: !tt.ptr<f32> {tt.divisibility = 16 : i32} loc("in_ptr1"(#loc)), %out_ptr0: !tt.ptr<f32> {tt.divisibility = 16 : i32} loc("out_ptr0"(#loc)), %xnumel: i32 {tt.divisibility = 16 : i32} loc("xnumel"(#loc)), %r0_numel: i32 loc("r0_numel"(#loc))) attributes {noinline = false} {
    %xnumel_0 = arith.constant 480 : i32 loc(#loc65)
    %r0_numel_1 = arith.constant 7373 : i32 loc(#loc66)
    %xoffset = tt.get_program_id x : i32 loc(#loc67)
    %xoffset_2 = arith.constant 1 : i32 loc(#loc68)
    %xoffset_3 = arith.constant 1 : i32 loc(#loc68)
    %xoffset_4 = arith.muli %xoffset, %xoffset_3 : i32 loc(#loc68)
    %xindex = tt.make_range {end = 1 : i32, start = 0 : i32} : tensor<1xi32> loc(#loc69)
    %xindex_5 = tt.expand_dims %xindex {axis = 1 : i32} : tensor<1xi32> -> tensor<1x1xi32> loc(#loc70)
    %xindex_6 = tt.splat %xoffset_4 : i32 -> tensor<1x1xi32> loc(#loc71)
    %xindex_7 = arith.addi %xindex_6, %xindex_5 : tensor<1x1xi32> loc(#loc71)
    %xmask = arith.constant dense<480> : tensor<1x1xi32> loc(#loc72)
    %xmask_8 = arith.cmpi slt, %xindex_7, %xmask : tensor<1x1xi32> loc(#loc72)
    %r0_base = tt.make_range {end = 2048 : i32, start = 0 : i32} : tensor<2048xi32> loc(#loc73)
    %r0_base_9 = tt.expand_dims %r0_base {axis = 0 : i32} : tensor<2048xi32> -> tensor<1x2048xi32> loc(#loc74)
    %x0 = arith.constant 5 : i32 loc(#loc75)
    %x0_10 = arith.constant 5 : i32 loc(#loc75)
    %x0_11 = arith.constant dense<5> : tensor<1x1xi32> loc(#loc75)
    %x0_12 = arith.remsi %xindex_7, %x0_11 : tensor<1x1xi32> loc(#loc75)
    %x1 = arith.constant 5 : i32 loc(#loc76)
    %x1_13 = arith.constant 5 : i32 loc(#loc76)
    %x1_14 = arith.constant dense<5> : tensor<1x1xi32> loc(#loc76)
    %x1_15 = arith.divsi %xindex_7, %x1_14 : tensor<1x1xi32> loc(#loc76)
    %_tmp9 = arith.constant 0.000000e+00 : f32 loc(#loc77)
    %_tmp9_16 = arith.constant dense<0.000000e+00> : tensor<1x2048xf32> loc(#loc77)
    %c0_i32 = arith.constant 0 : i32 loc(#loc14)
    %c2048_i32 = arith.constant 2048 : i32 loc(#loc14)
    %0 = arith.bitcast %c0_i32 : i32 to i32 loc(#loc14)
    %1 = arith.bitcast %r0_numel_1 : i32 to i32 loc(#loc14)
    %2 = arith.bitcast %c2048_i32 : i32 to i32 loc(#loc14)
    %3 = ub.poison : i32 loc(#loc14)
    %_tmp9_17 = scf.for %r0_offset = %0 to %1 step %2 iter_args(%_tmp9_19 = %_tmp9_16) -> (tensor<1x2048xf32>)  : i32 {
      %r0_index = tt.splat %r0_offset : i32 -> tensor<1x2048xi32> loc(#loc79)
      %r0_index_20 = arith.addi %r0_index, %r0_base_9 : tensor<1x2048xi32> loc(#loc79)
      %r0_mask = arith.constant dense<7373> : tensor<1x2048xi32> loc(#loc80)
      %r0_mask_21 = arith.cmpi slt, %r0_index_20, %r0_mask : tensor<1x2048xi32> loc(#loc80)
      %tmp0 = arith.constant 7373 : i32 loc(#loc81)
      %tmp0_22 = arith.constant 7373 : i32 loc(#loc81)
      %tmp0_23 = arith.constant dense<7373> : tensor<1x1xi32> loc(#loc81)
      %tmp0_24 = arith.muli %tmp0_23, %x0_12 : tensor<1x1xi32> loc(#loc81)
      %tmp0_25 = tt.broadcast %tmp0_24 : tensor<1x1xi32> -> tensor<1x2048xi32> loc(#loc82)
      %tmp0_26 = arith.addi %r0_index_20, %tmp0_25 : tensor<1x2048xi32> loc(#loc82)
      %tmp1 = arith.constant 36864 : i32 loc(#loc83)
      %tmp1_27 = arith.constant dense<36864> : tensor<1x1xi32> loc(#loc83)
      %tmp2 = arith.constant dense<36864> : tensor<1x2048xi32> loc(#loc84)
      %tmp2_28 = arith.cmpi slt, %tmp0_26, %tmp2 : tensor<1x2048xi32> loc(#loc84)
      %tmp3 = arith.constant 36864 : i32 loc(#loc85)
      %tmp3_29 = arith.constant 36864 : i32 loc(#loc85)
      %tmp3_30 = arith.constant dense<36864> : tensor<1x1xi32> loc(#loc85)
      %tmp3_31 = arith.muli %tmp3_30, %x1_15 : tensor<1x1xi32> loc(#loc85)
      %tmp3_32 = arith.constant 7373 : i32 loc(#loc86)
      %tmp3_33 = arith.constant 7373 : i32 loc(#loc86)
      %tmp3_34 = arith.constant dense<7373> : tensor<1x1xi32> loc(#loc86)
      %tmp3_35 = arith.muli %tmp3_34, %x0_12 : tensor<1x1xi32> loc(#loc86)
      %tmp3_36 = tt.broadcast %tmp3_35 : tensor<1x1xi32> -> tensor<1x2048xi32> loc(#loc87)
      %tmp3_37 = arith.addi %r0_index_20, %tmp3_36 : tensor<1x2048xi32> loc(#loc87)
      %tmp3_38 = arith.constant 36864 : i32 loc(#loc88)
      %tmp3_39 = arith.constant 36864 : i32 loc(#loc88)
      %tmp3_40 = arith.constant dense<36864> : tensor<1x2048xi32> loc(#loc88)
      %tmp3_41 = arith.remsi %tmp3_37, %tmp3_40 : tensor<1x2048xi32> loc(#loc88)
      %tmp3_42 = tt.broadcast %tmp3_31 : tensor<1x1xi32> -> tensor<1x2048xi32> loc(#loc89)
      %tmp3_43 = arith.addi %tmp3_42, %tmp3_41 : tensor<1x2048xi32> loc(#loc89)
      %tmp3_44 = tt.splat %in_ptr0 : !tt.ptr<f32> -> tensor<1x2048x!tt.ptr<f32>> loc(#loc90)
      %tmp3_45 = tt.addptr %tmp3_44, %tmp3_43 : tensor<1x2048x!tt.ptr<f32>>, tensor<1x2048xi32> loc(#loc90)
      %tmp3_46 = arith.andi %r0_mask_21, %tmp2_28 : tensor<1x2048xi1> loc(#loc91)
      %tmp3_47 = tt.broadcast %xmask_8 : tensor<1x1xi1> -> tensor<1x2048xi1> loc(#loc92)
      %tmp3_48 = arith.andi %tmp3_46, %tmp3_47 : tensor<1x2048xi1> loc(#loc92)
      %tmp3_49 = arith.constant 0.000000e+00 : f32 loc(#loc93)
      %tmp3_50 = arith.constant dense<0.000000e+00> : tensor<1x2048xf32> loc(#loc93)
      %tmp3_51 = tt.load %tmp3_45, %tmp3_48, %tmp3_50 evictionPolicy = evict_last : tensor<1x2048x!tt.ptr<f32>> loc(#loc93)
      %tmp4 = arith.constant 36864 : i32 loc(#loc94)
      %tmp4_52 = arith.constant 36864 : i32 loc(#loc94)
      %tmp4_53 = arith.constant dense<36864> : tensor<1x1xi32> loc(#loc94)
      %tmp4_54 = arith.muli %tmp4_53, %x1_15 : tensor<1x1xi32> loc(#loc94)
      %tmp4_55 = arith.constant 7373 : i32 loc(#loc95)
      %tmp4_56 = arith.constant 7373 : i32 loc(#loc95)
      %tmp4_57 = arith.constant dense<7373> : tensor<1x1xi32> loc(#loc95)
      %tmp4_58 = arith.muli %tmp4_57, %x0_12 : tensor<1x1xi32> loc(#loc95)
      %tmp4_59 = tt.broadcast %tmp4_58 : tensor<1x1xi32> -> tensor<1x2048xi32> loc(#loc96)
      %tmp4_60 = arith.addi %r0_index_20, %tmp4_59 : tensor<1x2048xi32> loc(#loc96)
      %tmp4_61 = arith.constant 36864 : i32 loc(#loc97)
      %tmp4_62 = arith.constant 36864 : i32 loc(#loc97)
      %tmp4_63 = arith.constant dense<36864> : tensor<1x2048xi32> loc(#loc97)
      %tmp4_64 = arith.remsi %tmp4_60, %tmp4_63 : tensor<1x2048xi32> loc(#loc97)
      %tmp4_65 = tt.broadcast %tmp4_54 : tensor<1x1xi32> -> tensor<1x2048xi32> loc(#loc98)
      %tmp4_66 = arith.addi %tmp4_65, %tmp4_64 : tensor<1x2048xi32> loc(#loc98)
      %tmp4_67 = tt.splat %in_ptr1 : !tt.ptr<f32> -> tensor<1x2048x!tt.ptr<f32>> loc(#loc99)
      %tmp4_68 = tt.addptr %tmp4_67, %tmp4_66 : tensor<1x2048x!tt.ptr<f32>>, tensor<1x2048xi32> loc(#loc99)
      %tmp4_69 = arith.andi %r0_mask_21, %tmp2_28 : tensor<1x2048xi1> loc(#loc100)
      %tmp4_70 = tt.broadcast %xmask_8 : tensor<1x1xi1> -> tensor<1x2048xi1> loc(#loc101)
      %tmp4_71 = arith.andi %tmp4_69, %tmp4_70 : tensor<1x2048xi1> loc(#loc101)
      %tmp4_72 = arith.constant 0.000000e+00 : f32 loc(#loc102)
      %tmp4_73 = arith.constant dense<0.000000e+00> : tensor<1x2048xf32> loc(#loc102)
      %tmp4_74 = tt.load %tmp4_68, %tmp4_71, %tmp4_73 evictionPolicy = evict_last : tensor<1x2048x!tt.ptr<f32>> loc(#loc102)
      %tmp5 = arith.mulf %tmp3_51, %tmp4_74 : tensor<1x2048xf32> loc(#loc103)
      %tmp6 = arith.constant 0.000000e+00 : f32 loc(#loc104)
      %tmp6_75 = arith.constant dense<0.000000e+00> : tensor<1x2048xf32> loc(#loc104)
      %tmp7 = arith.select %tmp2_28, %tmp5, %tmp6_75 : tensor<1x2048xi1>, tensor<1x2048xf32> loc(#loc105)
      %tmp10 = arith.addf %_tmp9_19, %tmp7 : tensor<1x2048xf32> loc(#loc106)
      %_tmp9_76 = tt.broadcast %xmask_8 : tensor<1x1xi1> -> tensor<1x2048xi1> loc(#loc107)
      %_tmp9_77 = arith.andi %r0_mask_21, %_tmp9_76 : tensor<1x2048xi1> loc(#loc107)
      %_tmp9_78 = arith.select %_tmp9_77, %tmp10, %_tmp9_19 : tensor<1x2048xi1>, tensor<1x2048xf32> loc(#loc108)
      scf.yield %_tmp9_78 : tensor<1x2048xf32> loc(#loc45)
    } loc(#loc78)
    %tmp9 = tt.call @"triton.language.standard.sum__fp32S1_2048S__(1,)cconstexpr_1__(2,)cconstexpr_False__(3,)cNone"(%_tmp9_17) : (tensor<1x2048xf32>) -> tensor<1xf32> loc(#loc109)
    %tmp9_18 = tt.expand_dims %tmp9 {axis = 1 : i32} : tensor<1xf32> -> tensor<1x1xf32> loc(#loc110)
    %4 = tt.splat %out_ptr0 : !tt.ptr<f32> -> tensor<1x1x!tt.ptr<f32>> loc(#loc48)
    %5 = tt.addptr %4, %xindex_7 : tensor<1x1x!tt.ptr<f32>>, tensor<1x1xi32> loc(#loc48)
    tt.store %5, %tmp9_18, %xmask_8 : tensor<1x1x!tt.ptr<f32>> loc(#loc49)
    tt.return loc(#loc50)
  } loc(#loc)
  tt.func private @"triton.language.standard.sum__fp32S1_2048S__(1,)cconstexpr_1__(2,)cconstexpr_False__(3,)cNone"(%input: tensor<1x2048xf32> loc("input"(#loc51))) -> tensor<1xf32> attributes {noinline = false} {
    %0 = "tt.reduce"(%input) <{axis = 1 : i32}> ({
    ^bb0(%arg1: f32 loc(unknown), %arg2: f32 loc(unknown)):
      %2 = tt.call @triton.language.standard._sum_combine__fp32_fp32__(%arg1, %arg2) : (f32, f32) -> f32 loc(#loc52)
      tt.reduce.return %2 : f32 loc(#loc52)
    }) : (tensor<1x2048xf32>) -> tensor<1xf32> loc(#loc52)
    tt.return %0 : tensor<1xf32> loc(#loc54)
  ^bb1:  // no predecessors
    %1 = ub.poison : tensor<1xf32> loc(#loc55)
    tt.return %1 : tensor<1xf32> loc(#loc55)
  } loc(#loc51)
  tt.func private @triton.language.standard._sum_combine__fp32_fp32__(%a: f32 loc("a"(#loc56)), %b: f32 loc("b"(#loc56))) -> f32 attributes {noinline = false} {
    %0 = arith.addf %a, %b : f32 loc(#loc57)
    tt.return %0 : f32 loc(#loc58)
  ^bb1:  // no predecessors
    %1 = ub.poison : f32 loc(#loc59)
    tt.return %1 : f32 loc(#loc59)
  } loc(#loc56)
} loc(#loc)
#loc1 = loc("/NHNHOME/WORKSPACE/26msit001_A/jinhyeok/loop_TTT/lact/.cache_inductor_llm/zm/czmzhmqr47zv32ioflhfefuove2h7ce2r27ryachi33qeos6qrl2.py":19:13)
#loc2 = loc("/NHNHOME/WORKSPACE/26msit001_A/jinhyeok/loop_TTT/lact/.cache_inductor_llm/zm/czmzhmqr47zv32ioflhfefuove2h7ce2r27ryachi33qeos6qrl2.py":20:15)
#loc3 = loc("/NHNHOME/WORKSPACE/26msit001_A/jinhyeok/loop_TTT/lact/.cache_inductor_llm/zm/czmzhmqr47zv32ioflhfefuove2h7ce2r27ryachi33qeos6qrl2.py":23:28)
#loc4 = loc("/NHNHOME/WORKSPACE/26msit001_A/jinhyeok/loop_TTT/lact/.cache_inductor_llm/zm/czmzhmqr47zv32ioflhfefuove2h7ce2r27ryachi33qeos6qrl2.py":23:33)
#loc5 = loc("/NHNHOME/WORKSPACE/26msit001_A/jinhyeok/loop_TTT/lact/.cache_inductor_llm/zm/czmzhmqr47zv32ioflhfefuove2h7ce2r27ryachi33qeos6qrl2.py":24:36)
#loc6 = loc("/NHNHOME/WORKSPACE/26msit001_A/jinhyeok/loop_TTT/lact/.cache_inductor_llm/zm/czmzhmqr47zv32ioflhfefuove2h7ce2r27ryachi33qeos6qrl2.py":24:44)
#loc7 = loc("/NHNHOME/WORKSPACE/26msit001_A/jinhyeok/loop_TTT/lact/.cache_inductor_llm/zm/czmzhmqr47zv32ioflhfefuove2h7ce2r27ryachi33qeos6qrl2.py":24:23)
#loc8 = loc("/NHNHOME/WORKSPACE/26msit001_A/jinhyeok/loop_TTT/lact/.cache_inductor_llm/zm/czmzhmqr47zv32ioflhfefuove2h7ce2r27ryachi33qeos6qrl2.py":25:21)
#loc9 = loc("/NHNHOME/WORKSPACE/26msit001_A/jinhyeok/loop_TTT/lact/.cache_inductor_llm/zm/czmzhmqr47zv32ioflhfefuove2h7ce2r27ryachi33qeos6qrl2.py":26:27)
#loc10 = loc("/NHNHOME/WORKSPACE/26msit001_A/jinhyeok/loop_TTT/lact/.cache_inductor_llm/zm/czmzhmqr47zv32ioflhfefuove2h7ce2r27ryachi33qeos6qrl2.py":26:37)
#loc11 = loc("/NHNHOME/WORKSPACE/26msit001_A/jinhyeok/loop_TTT/lact/.cache_inductor_llm/zm/czmzhmqr47zv32ioflhfefuove2h7ce2r27ryachi33qeos6qrl2.py":28:19)
#loc12 = loc("/NHNHOME/WORKSPACE/26msit001_A/jinhyeok/loop_TTT/lact/.cache_inductor_llm/zm/czmzhmqr47zv32ioflhfefuove2h7ce2r27ryachi33qeos6qrl2.py":29:19)
#loc13 = loc("/NHNHOME/WORKSPACE/26msit001_A/jinhyeok/loop_TTT/lact/.cache_inductor_llm/zm/czmzhmqr47zv32ioflhfefuove2h7ce2r27ryachi33qeos6qrl2.py":30:43)
#loc14 = loc("/NHNHOME/WORKSPACE/26msit001_A/jinhyeok/loop_TTT/lact/.cache_inductor_llm/zm/czmzhmqr47zv32ioflhfefuove2h7ce2r27ryachi33qeos6qrl2.py":32:40)
#loc15 = loc("/NHNHOME/WORKSPACE/26msit001_A/jinhyeok/loop_TTT/lact/.cache_inductor_llm/zm/czmzhmqr47zv32ioflhfefuove2h7ce2r27ryachi33qeos6qrl2.py":33:31)
#loc16 = loc("/NHNHOME/WORKSPACE/26msit001_A/jinhyeok/loop_TTT/lact/.cache_inductor_llm/zm/czmzhmqr47zv32ioflhfefuove2h7ce2r27ryachi33qeos6qrl2.py":34:29)
#loc17 = loc("/NHNHOME/WORKSPACE/26msit001_A/jinhyeok/loop_TTT/lact/.cache_inductor_llm/zm/czmzhmqr47zv32ioflhfefuove2h7ce2r27ryachi33qeos6qrl2.py":38:27)
#loc18 = loc("/NHNHOME/WORKSPACE/26msit001_A/jinhyeok/loop_TTT/lact/.cache_inductor_llm/zm/czmzhmqr47zv32ioflhfefuove2h7ce2r27ryachi33qeos6qrl2.py":38:22)
#loc19 = loc("/NHNHOME/WORKSPACE/26msit001_A/jinhyeok/loop_TTT/lact/.cache_inductor_llm/zm/czmzhmqr47zv32ioflhfefuove2h7ce2r27ryachi33qeos6qrl2.py":39:38)
#loc20 = loc("/NHNHOME/WORKSPACE/26msit001_A/jinhyeok/loop_TTT/lact/.cache_inductor_llm/zm/czmzhmqr47zv32ioflhfefuove2h7ce2r27ryachi33qeos6qrl2.py":40:22)
#loc21 = loc("/NHNHOME/WORKSPACE/26msit001_A/jinhyeok/loop_TTT/lact/.cache_inductor_llm/zm/czmzhmqr47zv32ioflhfefuove2h7ce2r27ryachi33qeos6qrl2.py":41:40)
#loc22 = loc("/NHNHOME/WORKSPACE/26msit001_A/jinhyeok/loop_TTT/lact/.cache_inductor_llm/zm/czmzhmqr47zv32ioflhfefuove2h7ce2r27ryachi33qeos6qrl2.py":41:60)
#loc23 = loc("/NHNHOME/WORKSPACE/26msit001_A/jinhyeok/loop_TTT/lact/.cache_inductor_llm/zm/czmzhmqr47zv32ioflhfefuove2h7ce2r27ryachi33qeos6qrl2.py":41:55)
#loc24 = loc("/NHNHOME/WORKSPACE/26msit001_A/jinhyeok/loop_TTT/lact/.cache_inductor_llm/zm/czmzhmqr47zv32ioflhfefuove2h7ce2r27ryachi33qeos6qrl2.py":41:66)
#loc25 = loc("/NHNHOME/WORKSPACE/26msit001_A/jinhyeok/loop_TTT/lact/.cache_inductor_llm/zm/czmzhmqr47zv32ioflhfefuove2h7ce2r27ryachi33qeos6qrl2.py":41:47)
#loc26 = loc("/NHNHOME/WORKSPACE/26msit001_A/jinhyeok/loop_TTT/lact/.cache_inductor_llm/zm/czmzhmqr47zv32ioflhfefuove2h7ce2r27ryachi33qeos6qrl2.py":41:34)
#loc27 = loc("/NHNHOME/WORKSPACE/26msit001_A/jinhyeok/loop_TTT/lact/.cache_inductor_llm/zm/czmzhmqr47zv32ioflhfefuove2h7ce2r27ryachi33qeos6qrl2.py":41:86)
#loc28 = loc("/NHNHOME/WORKSPACE/26msit001_A/jinhyeok/loop_TTT/lact/.cache_inductor_llm/zm/czmzhmqr47zv32ioflhfefuove2h7ce2r27ryachi33qeos6qrl2.py":41:93)
#loc29 = loc("/NHNHOME/WORKSPACE/26msit001_A/jinhyeok/loop_TTT/lact/.cache_inductor_llm/zm/czmzhmqr47zv32ioflhfefuove2h7ce2r27ryachi33qeos6qrl2.py":41:76)
#loc30 = loc("/NHNHOME/WORKSPACE/26msit001_A/jinhyeok/loop_TTT/lact/.cache_inductor_llm/zm/czmzhmqr47zv32ioflhfefuove2h7ce2r27ryachi33qeos6qrl2.py":42:40)
#loc31 = loc("/NHNHOME/WORKSPACE/26msit001_A/jinhyeok/loop_TTT/lact/.cache_inductor_llm/zm/czmzhmqr47zv32ioflhfefuove2h7ce2r27ryachi33qeos6qrl2.py":42:60)
#loc32 = loc("/NHNHOME/WORKSPACE/26msit001_A/jinhyeok/loop_TTT/lact/.cache_inductor_llm/zm/czmzhmqr47zv32ioflhfefuove2h7ce2r27ryachi33qeos6qrl2.py":42:55)
#loc33 = loc("/NHNHOME/WORKSPACE/26msit001_A/jinhyeok/loop_TTT/lact/.cache_inductor_llm/zm/czmzhmqr47zv32ioflhfefuove2h7ce2r27ryachi33qeos6qrl2.py":42:66)
#loc34 = loc("/NHNHOME/WORKSPACE/26msit001_A/jinhyeok/loop_TTT/lact/.cache_inductor_llm/zm/czmzhmqr47zv32ioflhfefuove2h7ce2r27ryachi33qeos6qrl2.py":42:47)
#loc35 = loc("/NHNHOME/WORKSPACE/26msit001_A/jinhyeok/loop_TTT/lact/.cache_inductor_llm/zm/czmzhmqr47zv32ioflhfefuove2h7ce2r27ryachi33qeos6qrl2.py":42:34)
#loc36 = loc("/NHNHOME/WORKSPACE/26msit001_A/jinhyeok/loop_TTT/lact/.cache_inductor_llm/zm/czmzhmqr47zv32ioflhfefuove2h7ce2r27ryachi33qeos6qrl2.py":42:86)
#loc37 = loc("/NHNHOME/WORKSPACE/26msit001_A/jinhyeok/loop_TTT/lact/.cache_inductor_llm/zm/czmzhmqr47zv32ioflhfefuove2h7ce2r27ryachi33qeos6qrl2.py":42:93)
#loc38 = loc("/NHNHOME/WORKSPACE/26msit001_A/jinhyeok/loop_TTT/lact/.cache_inductor_llm/zm/czmzhmqr47zv32ioflhfefuove2h7ce2r27ryachi33qeos6qrl2.py":42:76)
#loc39 = loc("/NHNHOME/WORKSPACE/26msit001_A/jinhyeok/loop_TTT/lact/.cache_inductor_llm/zm/czmzhmqr47zv32ioflhfefuove2h7ce2r27ryachi33qeos6qrl2.py":43:22)
#loc40 = loc("/NHNHOME/WORKSPACE/26msit001_A/jinhyeok/loop_TTT/lact/.cache_inductor_llm/zm/czmzhmqr47zv32ioflhfefuove2h7ce2r27ryachi33qeos6qrl2.py":44:38)
#loc41 = loc("/NHNHOME/WORKSPACE/26msit001_A/jinhyeok/loop_TTT/lact/.cache_inductor_llm/zm/czmzhmqr47zv32ioflhfefuove2h7ce2r27ryachi33qeos6qrl2.py":45:36)
#loc42 = loc("/NHNHOME/WORKSPACE/26msit001_A/jinhyeok/loop_TTT/lact/.cache_inductor_llm/zm/czmzhmqr47zv32ioflhfefuove2h7ce2r27ryachi33qeos6qrl2.py":47:24)
#loc43 = loc("/NHNHOME/WORKSPACE/26msit001_A/jinhyeok/loop_TTT/lact/.cache_inductor_llm/zm/czmzhmqr47zv32ioflhfefuove2h7ce2r27ryachi33qeos6qrl2.py":48:35)
#loc44 = loc("/NHNHOME/WORKSPACE/26msit001_A/jinhyeok/loop_TTT/lact/.cache_inductor_llm/zm/czmzhmqr47zv32ioflhfefuove2h7ce2r27ryachi33qeos6qrl2.py":48:49)
#loc45 = loc("/NHNHOME/WORKSPACE/26msit001_A/jinhyeok/loop_TTT/lact/.cache_inductor_llm/zm/czmzhmqr47zv32ioflhfefuove2h7ce2r27ryachi33qeos6qrl2.py":48:8)
#loc46 = loc("/NHNHOME/WORKSPACE/26msit001_A/jinhyeok/loop_TTT/lact/.cache_inductor_llm/zm/czmzhmqr47zv32ioflhfefuove2h7ce2r27ryachi33qeos6qrl2.py":49:25)
#loc47 = loc("/NHNHOME/WORKSPACE/26msit001_A/jinhyeok/loop_TTT/lact/.cache_inductor_llm/zm/czmzhmqr47zv32ioflhfefuove2h7ce2r27ryachi33qeos6qrl2.py":49:28)
#loc48 = loc("/NHNHOME/WORKSPACE/26msit001_A/jinhyeok/loop_TTT/lact/.cache_inductor_llm/zm/czmzhmqr47zv32ioflhfefuove2h7ce2r27ryachi33qeos6qrl2.py":50:25)
#loc49 = loc("/NHNHOME/WORKSPACE/26msit001_A/jinhyeok/loop_TTT/lact/.cache_inductor_llm/zm/czmzhmqr47zv32ioflhfefuove2h7ce2r27ryachi33qeos6qrl2.py":50:36)
#loc50 = loc("/NHNHOME/WORKSPACE/26msit001_A/jinhyeok/loop_TTT/lact/.cache_inductor_llm/zm/czmzhmqr47zv32ioflhfefuove2h7ce2r27ryachi33qeos6qrl2.py":50:4)
#loc52 = loc("/NHNHOME/WORKSPACE/26msit001_A/jinhyeok/TTT_camera_embedding/.venv_llm/lib/python3.12/site-packages/triton/language/standard.py":291:36)
#loc54 = loc("/NHNHOME/WORKSPACE/26msit001_A/jinhyeok/TTT_camera_embedding/.venv_llm/lib/python3.12/site-packages/triton/language/standard.py":291:11)
#loc55 = loc("/NHNHOME/WORKSPACE/26msit001_A/jinhyeok/TTT_camera_embedding/.venv_llm/lib/python3.12/site-packages/triton/language/standard.py":291:4)
#loc57 = loc("/NHNHOME/WORKSPACE/26msit001_A/jinhyeok/TTT_camera_embedding/.venv_llm/lib/python3.12/site-packages/triton/language/standard.py":261:15)
#loc58 = loc("/NHNHOME/WORKSPACE/26msit001_A/jinhyeok/TTT_camera_embedding/.venv_llm/lib/python3.12/site-packages/triton/language/standard.py":261:11)
#loc59 = loc("/NHNHOME/WORKSPACE/26msit001_A/jinhyeok/TTT_camera_embedding/.venv_llm/lib/python3.12/site-packages/triton/language/standard.py":261:4)
#loc65 = loc("xnumel"(#loc1))
#loc66 = loc("r0_numel"(#loc2))
#loc67 = loc("xoffset"(#loc3))
#loc68 = loc("xoffset"(#loc4))
#loc69 = loc("xindex"(#loc5))
#loc70 = loc("xindex"(#loc6))
#loc71 = loc("xindex"(#loc7))
#loc72 = loc("xmask"(#loc8))
#loc73 = loc("r0_base"(#loc9))
#loc74 = loc("r0_base"(#loc10))
#loc75 = loc("x0"(#loc11))
#loc76 = loc("x1"(#loc12))
#loc77 = loc("_tmp9"(#loc13))
#loc78 = loc("_tmp9"(#loc14))
#loc79 = loc("r0_index"(#loc15))
#loc80 = loc("r0_mask"(#loc16))
#loc81 = loc("tmp0"(#loc17))
#loc82 = loc("tmp0"(#loc18))
#loc83 = loc("tmp1"(#loc19))
#loc84 = loc("tmp2"(#loc20))
#loc85 = loc("tmp3"(#loc21))
#loc86 = loc("tmp3"(#loc22))
#loc87 = loc("tmp3"(#loc23))
#loc88 = loc("tmp3"(#loc24))
#loc89 = loc("tmp3"(#loc25))
#loc90 = loc("tmp3"(#loc26))
#loc91 = loc("tmp3"(#loc27))
#loc92 = loc("tmp3"(#loc28))
#loc93 = loc("tmp3"(#loc29))
#loc94 = loc("tmp4"(#loc30))
#loc95 = loc("tmp4"(#loc31))
#loc96 = loc("tmp4"(#loc32))
#loc97 = loc("tmp4"(#loc33))
#loc98 = loc("tmp4"(#loc34))
#loc99 = loc("tmp4"(#loc35))
#loc100 = loc("tmp4"(#loc36))
#loc101 = loc("tmp4"(#loc37))
#loc102 = loc("tmp4"(#loc38))
#loc103 = loc("tmp5"(#loc39))
#loc104 = loc("tmp6"(#loc40))
#loc105 = loc("tmp7"(#loc41))
#loc106 = loc("tmp10"(#loc42))
#loc107 = loc("_tmp9"(#loc43))
#loc108 = loc("_tmp9"(#loc44))
#loc109 = loc("tmp9"(#loc46))
#loc110 = loc("tmp9"(#loc47))
