#loc = loc("/NHNHOME/WORKSPACE/26msit001_A/jinhyeok/loop_TTT/lact/.cache_inductor_llm/yh/cyhpwcxy75re5r2xpqruqfid6n3du6fn4wp4jzia3z77suw5azqd.py":18:0)
#loc43 = loc("in_out_ptr0"(#loc))
#loc44 = loc("in_ptr0"(#loc))
#loc45 = loc("in_ptr1"(#loc))
#loc46 = loc("in_ptr2"(#loc))
#loc47 = loc("out_ptr0"(#loc))
#loc48 = loc("ks0"(#loc))
#loc49 = loc("xnumel"(#loc))
module {
  tt.func public @triton_poi_fused__to_copy_add_mul_rsub_sigmoid_silu_slice_transpose_40(%in_out_ptr0: !tt.ptr<bf16> {tt.divisibility = 16 : i32} loc("in_out_ptr0"(#loc)), %in_ptr0: !tt.ptr<bf16> {tt.divisibility = 16 : i32} loc("in_ptr0"(#loc)), %in_ptr1: !tt.ptr<bf16> {tt.divisibility = 16 : i32} loc("in_ptr1"(#loc)), %in_ptr2: !tt.ptr<f32> loc("in_ptr2"(#loc)), %out_ptr0: !tt.ptr<bf16> {tt.divisibility = 16 : i32} loc("out_ptr0"(#loc)), %ks0: i64 loc("ks0"(#loc)), %xnumel: i32 {tt.divisibility = 16 : i32} loc("xnumel"(#loc))) attributes {noinline = false} {
    %cst = arith.constant dense<0.000000e+00> : tensor<512xf32> loc(#loc1)
    %cst_0 = arith.constant dense<1.000000e+00> : tensor<512xf32> loc(#loc1)
    %tmp8 = arith.constant 4096 : i64 loc(#loc50)
    %tmp8_1 = arith.constant 1024 : i64 loc(#loc51)
    %x2 = arith.constant dense<196608> : tensor<512xi32> loc(#loc52)
    %x0 = arith.constant dense<1024> : tensor<512xi32> loc(#loc53)
    %c512_i32 = arith.constant 512 : i32 loc(#loc1)
    %xoffset = tt.get_program_id x : i32 loc(#loc54)
    %xoffset_2 = arith.muli %xoffset, %c512_i32 : i32 loc(#loc55)
    %xindex = tt.make_range {end = 512 : i32, start = 0 : i32} : tensor<512xi32> loc(#loc56)
    %xindex_3 = tt.splat %xoffset_2 : i32 -> tensor<512xi32> loc(#loc57)
    %xindex_4 = arith.addi %xindex_3, %xindex : tensor<512xi32> loc(#loc57)
    %x0_5 = arith.remsi %xindex_4, %x0 : tensor<512xi32> loc(#loc53)
    %x2_6 = arith.divsi %xindex_4, %x2 : tensor<512xi32> loc(#loc52)
    %tmp0 = tt.splat %in_ptr0 : !tt.ptr<bf16> -> tensor<512x!tt.ptr<bf16>> loc(#loc58)
    %tmp0_7 = tt.addptr %tmp0, %xindex_4 : tensor<512x!tt.ptr<bf16>>, tensor<512xi32> loc(#loc58)
    %tmp0_8 = tt.load %tmp0_7 : tensor<512x!tt.ptr<bf16>> loc(#loc59)
    %tmp0_9 = arith.extf %tmp0_8 : tensor<512xbf16> to tensor<512xf32> loc(#loc60)
    %tmp5 = tt.splat %in_ptr1 : !tt.ptr<bf16> -> tensor<512x!tt.ptr<bf16>> loc(#loc61)
    %tmp5_10 = tt.addptr %tmp5, %xindex_4 : tensor<512x!tt.ptr<bf16>>, tensor<512xi32> loc(#loc61)
    %tmp5_11 = tt.load %tmp5_10 : tensor<512x!tt.ptr<bf16>> loc(#loc62)
    %tmp5_12 = arith.extf %tmp5_11 : tensor<512xbf16> to tensor<512xf32> loc(#loc63)
    %tmp8_13 = arith.muli %ks0, %tmp8_1 : i64 loc(#loc51)
    %tmp8_14 = arith.extsi %x0_5 : tensor<512xi32> to tensor<512xi64> loc(#loc64)
    %tmp8_15 = tt.splat %ks0 : i64 -> tensor<512xi64> loc(#loc64)
    %tmp8_16 = arith.muli %tmp8_15, %tmp8_14 : tensor<512xi64> loc(#loc64)
    %tmp8_17 = tt.splat %tmp8_13 : i64 -> tensor<512xi64> loc(#loc65)
    %tmp8_18 = arith.addi %tmp8_17, %tmp8_16 : tensor<512xi64> loc(#loc65)
    %tmp8_19 = arith.muli %ks0, %tmp8 : i64 loc(#loc50)
    %tmp8_20 = arith.extsi %x2_6 : tensor<512xi32> to tensor<512xi64> loc(#loc66)
    %tmp8_21 = tt.splat %tmp8_19 : i64 -> tensor<512xi64> loc(#loc66)
    %tmp8_22 = arith.muli %tmp8_21, %tmp8_20 : tensor<512xi64> loc(#loc66)
    %tmp8_23 = arith.addi %tmp8_18, %tmp8_22 : tensor<512xi64> loc(#loc67)
    %tmp8_24 = tt.splat %in_ptr2 : !tt.ptr<f32> -> tensor<512x!tt.ptr<f32>> loc(#loc68)
    %tmp8_25 = tt.addptr %tmp8_24, %tmp8_23 : tensor<512x!tt.ptr<f32>>, tensor<512xi64> loc(#loc68)
    %tmp8_26 = tt.load %tmp8_25 evictionPolicy = evict_last : tensor<512x!tt.ptr<f32>> loc(#loc69)
    %tmp11 = tt.splat %in_out_ptr0 : !tt.ptr<bf16> -> tensor<512x!tt.ptr<bf16>> loc(#loc70)
    %tmp11_27 = tt.addptr %tmp11, %xindex_4 : tensor<512x!tt.ptr<bf16>>, tensor<512xi32> loc(#loc70)
    %tmp11_28 = tt.load %tmp11_27 : tensor<512x!tt.ptr<bf16>> loc(#loc71)
    %tmp11_29 = arith.extf %tmp11_28 : tensor<512xbf16> to tensor<512xf32> loc(#loc72)
    %tmp2 = arith.subf %cst, %tmp0_9 : tensor<512xf32> loc(#loc83)
    %tmp2_30 = math.exp %tmp2 : tensor<512xf32> loc(#loc84)
    %tmp2_31 = arith.addf %tmp2_30, %cst_0 : tensor<512xf32> loc(#loc85)
    %tmp2_32 = arith.divf %cst_0, %tmp2_31 : tensor<512xf32> loc(#loc86)
    %tmp3 = arith.mulf %tmp0_9, %tmp2_32 : tensor<512xf32> loc(#loc74)
    %tmp6 = arith.mulf %tmp3, %tmp5_12 : tensor<512xf32> loc(#loc75)
    %tmp9 = arith.mulf %tmp6, %tmp8_26 : tensor<512xf32> loc(#loc76)
    %tmp12 = arith.mulf %tmp11_29, %tmp5_12 : tensor<512xf32> loc(#loc77)
    %tmp14 = arith.mulf %tmp12, %tmp2_32 : tensor<512xf32> loc(#loc78)
    %tmp16 = arith.subf %cst_0, %tmp2_32 : tensor<512xf32> loc(#loc79)
    %tmp17 = arith.mulf %tmp0_9, %tmp16 : tensor<512xf32> loc(#loc80)
    %tmp18 = arith.addf %tmp17, %cst_0 : tensor<512xf32> loc(#loc81)
    %tmp19 = arith.mulf %tmp14, %tmp18 : tensor<512xf32> loc(#loc82)
    %0 = tt.splat %out_ptr0 : !tt.ptr<bf16> -> tensor<512x!tt.ptr<bf16>> loc(#loc39)
    %1 = tt.addptr %0, %xindex_4 : tensor<512x!tt.ptr<bf16>>, tensor<512xi32> loc(#loc39)
    %2 = arith.truncf %tmp9 : tensor<512xf32> to tensor<512xbf16> loc(#loc40)
    tt.store %1, %2 : tensor<512x!tt.ptr<bf16>> loc(#loc40)
    %3 = arith.truncf %tmp19 : tensor<512xf32> to tensor<512xbf16> loc(#loc41)
    tt.store %tmp11_27, %3 : tensor<512x!tt.ptr<bf16>> loc(#loc41)
    tt.return loc(#loc42)
  } loc(#loc)
} loc(#loc)
#loc1 = loc(unknown)
#loc2 = loc("/NHNHOME/WORKSPACE/26msit001_A/jinhyeok/loop_TTT/lact/.cache_inductor_llm/yh/cyhpwcxy75re5r2xpqruqfid6n3du6fn4wp4jzia3z77suw5azqd.py":27:55)
#loc3 = loc("/NHNHOME/WORKSPACE/26msit001_A/jinhyeok/loop_TTT/lact/.cache_inductor_llm/yh/cyhpwcxy75re5r2xpqruqfid6n3du6fn4wp4jzia3z77suw5azqd.py":27:35)
#loc4 = loc("/NHNHOME/WORKSPACE/26msit001_A/jinhyeok/loop_TTT/lact/.cache_inductor_llm/yh/cyhpwcxy75re5r2xpqruqfid6n3du6fn4wp4jzia3z77suw5azqd.py":24:19)
#loc5 = loc("/NHNHOME/WORKSPACE/26msit001_A/jinhyeok/loop_TTT/lact/.cache_inductor_llm/yh/cyhpwcxy75re5r2xpqruqfid6n3du6fn4wp4jzia3z77suw5azqd.py":23:19)
#loc6 = loc("/NHNHOME/WORKSPACE/26msit001_A/jinhyeok/loop_TTT/lact/.cache_inductor_llm/yh/cyhpwcxy75re5r2xpqruqfid6n3du6fn4wp4jzia3z77suw5azqd.py":19:28)
#loc7 = loc("/NHNHOME/WORKSPACE/26msit001_A/jinhyeok/loop_TTT/lact/.cache_inductor_llm/yh/cyhpwcxy75re5r2xpqruqfid6n3du6fn4wp4jzia3z77suw5azqd.py":19:33)
#loc8 = loc("/NHNHOME/WORKSPACE/26msit001_A/jinhyeok/loop_TTT/lact/.cache_inductor_llm/yh/cyhpwcxy75re5r2xpqruqfid6n3du6fn4wp4jzia3z77suw5azqd.py":20:36)
#loc9 = loc("/NHNHOME/WORKSPACE/26msit001_A/jinhyeok/loop_TTT/lact/.cache_inductor_llm/yh/cyhpwcxy75re5r2xpqruqfid6n3du6fn4wp4jzia3z77suw5azqd.py":20:23)
#loc10 = loc("/NHNHOME/WORKSPACE/26msit001_A/jinhyeok/loop_TTT/lact/.cache_inductor_llm/yh/cyhpwcxy75re5r2xpqruqfid6n3du6fn4wp4jzia3z77suw5azqd.py":25:30)
#loc11 = loc("/NHNHOME/WORKSPACE/26msit001_A/jinhyeok/loop_TTT/lact/.cache_inductor_llm/yh/cyhpwcxy75re5r2xpqruqfid6n3du6fn4wp4jzia3z77suw5azqd.py":25:35)
#loc12 = loc("/NHNHOME/WORKSPACE/26msit001_A/jinhyeok/loop_TTT/lact/.cache_inductor_llm/yh/cyhpwcxy75re5r2xpqruqfid6n3du6fn4wp4jzia3z77suw5azqd.py":25:44)
#loc13 = loc("/NHNHOME/WORKSPACE/26msit001_A/jinhyeok/loop_TTT/lact/.cache_inductor_llm/yh/cyhpwcxy75re5r2xpqruqfid6n3du6fn4wp4jzia3z77suw5azqd.py":26:30)
#loc14 = loc("/NHNHOME/WORKSPACE/26msit001_A/jinhyeok/loop_TTT/lact/.cache_inductor_llm/yh/cyhpwcxy75re5r2xpqruqfid6n3du6fn4wp4jzia3z77suw5azqd.py":26:35)
#loc15 = loc("/NHNHOME/WORKSPACE/26msit001_A/jinhyeok/loop_TTT/lact/.cache_inductor_llm/yh/cyhpwcxy75re5r2xpqruqfid6n3du6fn4wp4jzia3z77suw5azqd.py":26:44)
#loc16 = loc("/NHNHOME/WORKSPACE/26msit001_A/jinhyeok/loop_TTT/lact/.cache_inductor_llm/yh/cyhpwcxy75re5r2xpqruqfid6n3du6fn4wp4jzia3z77suw5azqd.py":27:45)
#loc17 = loc("/NHNHOME/WORKSPACE/26msit001_A/jinhyeok/loop_TTT/lact/.cache_inductor_llm/yh/cyhpwcxy75re5r2xpqruqfid6n3du6fn4wp4jzia3z77suw5azqd.py":27:41)
#loc18 = loc("/NHNHOME/WORKSPACE/26msit001_A/jinhyeok/loop_TTT/lact/.cache_inductor_llm/yh/cyhpwcxy75re5r2xpqruqfid6n3du6fn4wp4jzia3z77suw5azqd.py":27:59)
#loc19 = loc("/NHNHOME/WORKSPACE/26msit001_A/jinhyeok/loop_TTT/lact/.cache_inductor_llm/yh/cyhpwcxy75re5r2xpqruqfid6n3du6fn4wp4jzia3z77suw5azqd.py":27:50)
#loc20 = loc("/NHNHOME/WORKSPACE/26msit001_A/jinhyeok/loop_TTT/lact/.cache_inductor_llm/yh/cyhpwcxy75re5r2xpqruqfid6n3du6fn4wp4jzia3z77suw5azqd.py":27:30)
#loc21 = loc("/NHNHOME/WORKSPACE/26msit001_A/jinhyeok/loop_TTT/lact/.cache_inductor_llm/yh/cyhpwcxy75re5r2xpqruqfid6n3du6fn4wp4jzia3z77suw5azqd.py":27:64)
#loc22 = loc("/NHNHOME/WORKSPACE/26msit001_A/jinhyeok/loop_TTT/lact/.cache_inductor_llm/yh/cyhpwcxy75re5r2xpqruqfid6n3du6fn4wp4jzia3z77suw5azqd.py":28:35)
#loc23 = loc("/NHNHOME/WORKSPACE/26msit001_A/jinhyeok/loop_TTT/lact/.cache_inductor_llm/yh/cyhpwcxy75re5r2xpqruqfid6n3du6fn4wp4jzia3z77suw5azqd.py":28:40)
#loc24 = loc("/NHNHOME/WORKSPACE/26msit001_A/jinhyeok/loop_TTT/lact/.cache_inductor_llm/yh/cyhpwcxy75re5r2xpqruqfid6n3du6fn4wp4jzia3z77suw5azqd.py":28:49)
#loc25 = loc("/NHNHOME/WORKSPACE/26msit001_A/jinhyeok/TTT_camera_embedding/.venv_llm/lib/python3.12/site-packages/triton/language/standard.py":48:30)
#loc26 = loc("/NHNHOME/WORKSPACE/26msit001_A/jinhyeok/loop_TTT/lact/.cache_inductor_llm/yh/cyhpwcxy75re5r2xpqruqfid6n3du6fn4wp4jzia3z77suw5azqd.py":30:22)
#loc27 = loc("/NHNHOME/WORKSPACE/26msit001_A/jinhyeok/TTT_camera_embedding/.venv_llm/lib/python3.12/site-packages/triton/language/standard.py":48:29)
#loc28 = loc("/NHNHOME/WORKSPACE/26msit001_A/jinhyeok/TTT_camera_embedding/.venv_llm/lib/python3.12/site-packages/triton/language/standard.py":48:20)
#loc29 = loc("/NHNHOME/WORKSPACE/26msit001_A/jinhyeok/TTT_camera_embedding/.venv_llm/lib/python3.12/site-packages/triton/language/standard.py":48:16)
#loc30 = loc("/NHNHOME/WORKSPACE/26msit001_A/jinhyeok/loop_TTT/lact/.cache_inductor_llm/yh/cyhpwcxy75re5r2xpqruqfid6n3du6fn4wp4jzia3z77suw5azqd.py":31:18)
#loc31 = loc("/NHNHOME/WORKSPACE/26msit001_A/jinhyeok/loop_TTT/lact/.cache_inductor_llm/yh/cyhpwcxy75re5r2xpqruqfid6n3du6fn4wp4jzia3z77suw5azqd.py":33:18)
#loc32 = loc("/NHNHOME/WORKSPACE/26msit001_A/jinhyeok/loop_TTT/lact/.cache_inductor_llm/yh/cyhpwcxy75re5r2xpqruqfid6n3du6fn4wp4jzia3z77suw5azqd.py":35:18)
#loc33 = loc("/NHNHOME/WORKSPACE/26msit001_A/jinhyeok/loop_TTT/lact/.cache_inductor_llm/yh/cyhpwcxy75re5r2xpqruqfid6n3du6fn4wp4jzia3z77suw5azqd.py":37:20)
#loc34 = loc("/NHNHOME/WORKSPACE/26msit001_A/jinhyeok/loop_TTT/lact/.cache_inductor_llm/yh/cyhpwcxy75re5r2xpqruqfid6n3du6fn4wp4jzia3z77suw5azqd.py":39:20)
#loc35 = loc("/NHNHOME/WORKSPACE/26msit001_A/jinhyeok/loop_TTT/lact/.cache_inductor_llm/yh/cyhpwcxy75re5r2xpqruqfid6n3du6fn4wp4jzia3z77suw5azqd.py":41:20)
#loc36 = loc("/NHNHOME/WORKSPACE/26msit001_A/jinhyeok/loop_TTT/lact/.cache_inductor_llm/yh/cyhpwcxy75re5r2xpqruqfid6n3du6fn4wp4jzia3z77suw5azqd.py":42:19)
#loc37 = loc("/NHNHOME/WORKSPACE/26msit001_A/jinhyeok/loop_TTT/lact/.cache_inductor_llm/yh/cyhpwcxy75re5r2xpqruqfid6n3du6fn4wp4jzia3z77suw5azqd.py":43:20)
#loc38 = loc("/NHNHOME/WORKSPACE/26msit001_A/jinhyeok/loop_TTT/lact/.cache_inductor_llm/yh/cyhpwcxy75re5r2xpqruqfid6n3du6fn4wp4jzia3z77suw5azqd.py":44:20)
#loc39 = loc("/NHNHOME/WORKSPACE/26msit001_A/jinhyeok/loop_TTT/lact/.cache_inductor_llm/yh/cyhpwcxy75re5r2xpqruqfid6n3du6fn4wp4jzia3z77suw5azqd.py":45:25)
#loc40 = loc("/NHNHOME/WORKSPACE/26msit001_A/jinhyeok/loop_TTT/lact/.cache_inductor_llm/yh/cyhpwcxy75re5r2xpqruqfid6n3du6fn4wp4jzia3z77suw5azqd.py":45:37)
#loc41 = loc("/NHNHOME/WORKSPACE/26msit001_A/jinhyeok/loop_TTT/lact/.cache_inductor_llm/yh/cyhpwcxy75re5r2xpqruqfid6n3du6fn4wp4jzia3z77suw5azqd.py":46:40)
#loc42 = loc("/NHNHOME/WORKSPACE/26msit001_A/jinhyeok/loop_TTT/lact/.cache_inductor_llm/yh/cyhpwcxy75re5r2xpqruqfid6n3du6fn4wp4jzia3z77suw5azqd.py":46:4)
#loc50 = loc("tmp8"(#loc2))
#loc51 = loc("tmp8"(#loc3))
#loc52 = loc("x2"(#loc4))
#loc53 = loc("x0"(#loc5))
#loc54 = loc("xoffset"(#loc6))
#loc55 = loc("xoffset"(#loc7))
#loc56 = loc("xindex"(#loc8))
#loc57 = loc("xindex"(#loc9))
#loc58 = loc("tmp0"(#loc10))
#loc59 = loc("tmp0"(#loc11))
#loc60 = loc("tmp0"(#loc12))
#loc61 = loc("tmp5"(#loc13))
#loc62 = loc("tmp5"(#loc14))
#loc63 = loc("tmp5"(#loc15))
#loc64 = loc("tmp8"(#loc16))
#loc65 = loc("tmp8"(#loc17))
#loc66 = loc("tmp8"(#loc18))
#loc67 = loc("tmp8"(#loc19))
#loc68 = loc("tmp8"(#loc20))
#loc69 = loc("tmp8"(#loc21))
#loc70 = loc("tmp11"(#loc22))
#loc71 = loc("tmp11"(#loc23))
#loc72 = loc("tmp11"(#loc24))
#loc73 = loc("tmp2"(#loc26))
#loc74 = loc("tmp3"(#loc30))
#loc75 = loc("tmp6"(#loc31))
#loc76 = loc("tmp9"(#loc32))
#loc77 = loc("tmp12"(#loc33))
#loc78 = loc("tmp14"(#loc34))
#loc79 = loc("tmp16"(#loc35))
#loc80 = loc("tmp17"(#loc36))
#loc81 = loc("tmp18"(#loc37))
#loc82 = loc("tmp19"(#loc38))
#loc83 = loc(callsite(#loc25 at #loc73))
#loc84 = loc(callsite(#loc27 at #loc73))
#loc85 = loc(callsite(#loc28 at #loc73))
#loc86 = loc(callsite(#loc29 at #loc73))
