#loc = loc("/NHNHOME/WORKSPACE/26msit001_A/jinhyeok/loop_TTT/lact/.cache_inductor_llm/mf/cmfm6ngxd3rtijft3qugf4ohe6ptu6j6ldghxqarh6tix3namnn2.py":18:0)
#loc44 = loc("in_ptr0"(#loc))
#loc45 = loc("in_ptr1"(#loc))
#loc46 = loc("in_ptr2"(#loc))
#loc47 = loc("in_ptr3"(#loc))
#loc48 = loc("out_ptr0"(#loc))
#loc49 = loc("out_ptr1"(#loc))
#loc50 = loc("out_ptr2"(#loc))
#loc51 = loc("xnumel"(#loc))
module {
  tt.func public @triton_poi_fused__to_copy_add_mul_rsub_sigmoid_silu_slice_transpose_2(%in_ptr0: !tt.ptr<bf16> {tt.divisibility = 16 : i32} loc("in_ptr0"(#loc)), %in_ptr1: !tt.ptr<bf16> {tt.divisibility = 16 : i32} loc("in_ptr1"(#loc)), %in_ptr2: !tt.ptr<bf16> {tt.divisibility = 16 : i32} loc("in_ptr2"(#loc)), %in_ptr3: !tt.ptr<f32> loc("in_ptr3"(#loc)), %out_ptr0: !tt.ptr<bf16> {tt.divisibility = 16 : i32} loc("out_ptr0"(#loc)), %out_ptr1: !tt.ptr<bf16> {tt.divisibility = 16 : i32} loc("out_ptr1"(#loc)), %out_ptr2: !tt.ptr<bf16> {tt.divisibility = 16 : i32} loc("out_ptr2"(#loc)), %xnumel: i32 {tt.divisibility = 16 : i32} loc("xnumel"(#loc))) attributes {noinline = false} {
    %cst = arith.constant dense<0.000000e+00> : tensor<1024xf32> loc(#loc1)
    %cst_0 = arith.constant dense<1.000000e+00> : tensor<1024xf32> loc(#loc1)
    %tmp18 = arith.constant dense<12288> : tensor<1024xi32> loc(#loc52)
    %tmp18_1 = arith.constant dense<3> : tensor<1024xi32> loc(#loc53)
    %x3 = arith.constant dense<196608> : tensor<1024xi32> loc(#loc54)
    %x1 = arith.constant dense<1024> : tensor<1024xi32> loc(#loc55)
    %c1024_i32 = arith.constant 1024 : i32 loc(#loc1)
    %xoffset = tt.get_program_id x : i32 loc(#loc56)
    %xoffset_2 = arith.muli %xoffset, %c1024_i32 : i32 loc(#loc57)
    %xindex = tt.make_range {end = 1024 : i32, start = 0 : i32} : tensor<1024xi32> loc(#loc58)
    %xindex_3 = tt.splat %xoffset_2 : i32 -> tensor<1024xi32> loc(#loc59)
    %xindex_4 = arith.addi %xindex_3, %xindex : tensor<1024xi32> loc(#loc59)
    %x1_5 = arith.remsi %xindex_4, %x1 : tensor<1024xi32> loc(#loc55)
    %x3_6 = arith.divsi %xindex_4, %x3 : tensor<1024xi32> loc(#loc54)
    %tmp0 = tt.splat %in_ptr0 : !tt.ptr<bf16> -> tensor<1024x!tt.ptr<bf16>> loc(#loc60)
    %tmp0_7 = tt.addptr %tmp0, %xindex_4 : tensor<1024x!tt.ptr<bf16>>, tensor<1024xi32> loc(#loc60)
    %tmp0_8 = tt.load %tmp0_7 : tensor<1024x!tt.ptr<bf16>> loc(#loc61)
    %tmp0_9 = arith.extf %tmp0_8 : tensor<1024xbf16> to tensor<1024xf32> loc(#loc62)
    %tmp1 = tt.splat %in_ptr1 : !tt.ptr<bf16> -> tensor<1024x!tt.ptr<bf16>> loc(#loc63)
    %tmp1_10 = tt.addptr %tmp1, %xindex_4 : tensor<1024x!tt.ptr<bf16>>, tensor<1024xi32> loc(#loc63)
    %tmp1_11 = tt.load %tmp1_10 : tensor<1024x!tt.ptr<bf16>> loc(#loc64)
    %tmp1_12 = arith.extf %tmp1_11 : tensor<1024xbf16> to tensor<1024xf32> loc(#loc65)
    %tmp7 = tt.splat %in_ptr2 : !tt.ptr<bf16> -> tensor<1024x!tt.ptr<bf16>> loc(#loc66)
    %tmp7_13 = tt.addptr %tmp7, %xindex_4 : tensor<1024x!tt.ptr<bf16>>, tensor<1024xi32> loc(#loc66)
    %tmp7_14 = tt.load %tmp7_13 : tensor<1024x!tt.ptr<bf16>> loc(#loc67)
    %tmp7_15 = arith.extf %tmp7_14 : tensor<1024xbf16> to tensor<1024xf32> loc(#loc68)
    %tmp18_16 = arith.muli %x1_5, %tmp18_1 : tensor<1024xi32> loc(#loc53)
    %tmp18_17 = arith.muli %x3_6, %tmp18 : tensor<1024xi32> loc(#loc52)
    %tmp18_18 = arith.addi %tmp18_16, %tmp18_17 : tensor<1024xi32> loc(#loc69)
    %tmp18_19 = tt.splat %in_ptr3 : !tt.ptr<f32> -> tensor<1024x!tt.ptr<f32>> loc(#loc70)
    %tmp18_20 = tt.addptr %tmp18_19, %tmp18_18 : tensor<1024x!tt.ptr<f32>>, tensor<1024xi32> loc(#loc70)
    %tmp18_21 = tt.load %tmp18_20 evictionPolicy = evict_last : tensor<1024x!tt.ptr<f32>> loc(#loc71)
    %tmp3 = arith.subf %cst, %tmp1_12 : tensor<1024xf32> loc(#loc83)
    %tmp3_22 = math.exp %tmp3 : tensor<1024xf32> loc(#loc84)
    %tmp3_23 = arith.addf %tmp3_22, %cst_0 : tensor<1024xf32> loc(#loc85)
    %tmp3_24 = arith.divf %cst_0, %tmp3_23 : tensor<1024xf32> loc(#loc86)
    %tmp4 = arith.mulf %tmp1_12, %tmp3_24 : tensor<1024xf32> loc(#loc73)
    %tmp6 = arith.mulf %tmp0_9, %tmp4 : tensor<1024xf32> loc(#loc74)
    %tmp8 = arith.mulf %tmp0_9, %tmp7_15 : tensor<1024xf32> loc(#loc75)
    %tmp10 = arith.mulf %tmp8, %tmp3_24 : tensor<1024xf32> loc(#loc76)
    %tmp12 = arith.subf %cst_0, %tmp3_24 : tensor<1024xf32> loc(#loc77)
    %tmp13 = arith.mulf %tmp1_12, %tmp12 : tensor<1024xf32> loc(#loc78)
    %tmp14 = arith.addf %tmp13, %cst_0 : tensor<1024xf32> loc(#loc79)
    %tmp15 = arith.mulf %tmp10, %tmp14 : tensor<1024xf32> loc(#loc80)
    %tmp16 = arith.mulf %tmp4, %tmp7_15 : tensor<1024xf32> loc(#loc81)
    %tmp19 = arith.mulf %tmp16, %tmp18_21 : tensor<1024xf32> loc(#loc82)
    %0 = tt.splat %out_ptr0 : !tt.ptr<bf16> -> tensor<1024x!tt.ptr<bf16>> loc(#loc37)
    %1 = tt.addptr %0, %xindex_4 : tensor<1024x!tt.ptr<bf16>>, tensor<1024xi32> loc(#loc37)
    %2 = arith.truncf %tmp6 : tensor<1024xf32> to tensor<1024xbf16> loc(#loc38)
    tt.store %1, %2 : tensor<1024x!tt.ptr<bf16>> loc(#loc38)
    %3 = tt.splat %out_ptr1 : !tt.ptr<bf16> -> tensor<1024x!tt.ptr<bf16>> loc(#loc39)
    %4 = tt.addptr %3, %xindex_4 : tensor<1024x!tt.ptr<bf16>>, tensor<1024xi32> loc(#loc39)
    %5 = arith.truncf %tmp15 : tensor<1024xf32> to tensor<1024xbf16> loc(#loc40)
    tt.store %4, %5 : tensor<1024x!tt.ptr<bf16>> loc(#loc40)
    %6 = tt.splat %out_ptr2 : !tt.ptr<bf16> -> tensor<1024x!tt.ptr<bf16>> loc(#loc41)
    %7 = tt.addptr %6, %xindex_4 : tensor<1024x!tt.ptr<bf16>>, tensor<1024xi32> loc(#loc41)
    %8 = arith.truncf %tmp19 : tensor<1024xf32> to tensor<1024xbf16> loc(#loc42)
    tt.store %7, %8 : tensor<1024x!tt.ptr<bf16>> loc(#loc42)
    tt.return loc(#loc43)
  } loc(#loc)
} loc(#loc)
#loc1 = loc(unknown)
#loc2 = loc("/NHNHOME/WORKSPACE/26msit001_A/jinhyeok/loop_TTT/lact/.cache_inductor_llm/mf/cmfm6ngxd3rtijft3qugf4ohe6ptu6j6ldghxqarh6tix3namnn2.py":29:44)
#loc3 = loc("/NHNHOME/WORKSPACE/26msit001_A/jinhyeok/loop_TTT/lact/.cache_inductor_llm/mf/cmfm6ngxd3rtijft3qugf4ohe6ptu6j6ldghxqarh6tix3namnn2.py":29:33)
#loc4 = loc("/NHNHOME/WORKSPACE/26msit001_A/jinhyeok/loop_TTT/lact/.cache_inductor_llm/mf/cmfm6ngxd3rtijft3qugf4ohe6ptu6j6ldghxqarh6tix3namnn2.py":25:19)
#loc5 = loc("/NHNHOME/WORKSPACE/26msit001_A/jinhyeok/loop_TTT/lact/.cache_inductor_llm/mf/cmfm6ngxd3rtijft3qugf4ohe6ptu6j6ldghxqarh6tix3namnn2.py":24:19)
#loc6 = loc("/NHNHOME/WORKSPACE/26msit001_A/jinhyeok/loop_TTT/lact/.cache_inductor_llm/mf/cmfm6ngxd3rtijft3qugf4ohe6ptu6j6ldghxqarh6tix3namnn2.py":20:28)
#loc7 = loc("/NHNHOME/WORKSPACE/26msit001_A/jinhyeok/loop_TTT/lact/.cache_inductor_llm/mf/cmfm6ngxd3rtijft3qugf4ohe6ptu6j6ldghxqarh6tix3namnn2.py":20:33)
#loc8 = loc("/NHNHOME/WORKSPACE/26msit001_A/jinhyeok/loop_TTT/lact/.cache_inductor_llm/mf/cmfm6ngxd3rtijft3qugf4ohe6ptu6j6ldghxqarh6tix3namnn2.py":21:36)
#loc9 = loc("/NHNHOME/WORKSPACE/26msit001_A/jinhyeok/loop_TTT/lact/.cache_inductor_llm/mf/cmfm6ngxd3rtijft3qugf4ohe6ptu6j6ldghxqarh6tix3namnn2.py":21:23)
#loc10 = loc("/NHNHOME/WORKSPACE/26msit001_A/jinhyeok/loop_TTT/lact/.cache_inductor_llm/mf/cmfm6ngxd3rtijft3qugf4ohe6ptu6j6ldghxqarh6tix3namnn2.py":26:30)
#loc11 = loc("/NHNHOME/WORKSPACE/26msit001_A/jinhyeok/loop_TTT/lact/.cache_inductor_llm/mf/cmfm6ngxd3rtijft3qugf4ohe6ptu6j6ldghxqarh6tix3namnn2.py":26:35)
#loc12 = loc("/NHNHOME/WORKSPACE/26msit001_A/jinhyeok/loop_TTT/lact/.cache_inductor_llm/mf/cmfm6ngxd3rtijft3qugf4ohe6ptu6j6ldghxqarh6tix3namnn2.py":26:44)
#loc13 = loc("/NHNHOME/WORKSPACE/26msit001_A/jinhyeok/loop_TTT/lact/.cache_inductor_llm/mf/cmfm6ngxd3rtijft3qugf4ohe6ptu6j6ldghxqarh6tix3namnn2.py":27:30)
#loc14 = loc("/NHNHOME/WORKSPACE/26msit001_A/jinhyeok/loop_TTT/lact/.cache_inductor_llm/mf/cmfm6ngxd3rtijft3qugf4ohe6ptu6j6ldghxqarh6tix3namnn2.py":27:35)
#loc15 = loc("/NHNHOME/WORKSPACE/26msit001_A/jinhyeok/loop_TTT/lact/.cache_inductor_llm/mf/cmfm6ngxd3rtijft3qugf4ohe6ptu6j6ldghxqarh6tix3namnn2.py":27:44)
#loc16 = loc("/NHNHOME/WORKSPACE/26msit001_A/jinhyeok/loop_TTT/lact/.cache_inductor_llm/mf/cmfm6ngxd3rtijft3qugf4ohe6ptu6j6ldghxqarh6tix3namnn2.py":28:30)
#loc17 = loc("/NHNHOME/WORKSPACE/26msit001_A/jinhyeok/loop_TTT/lact/.cache_inductor_llm/mf/cmfm6ngxd3rtijft3qugf4ohe6ptu6j6ldghxqarh6tix3namnn2.py":28:35)
#loc18 = loc("/NHNHOME/WORKSPACE/26msit001_A/jinhyeok/loop_TTT/lact/.cache_inductor_llm/mf/cmfm6ngxd3rtijft3qugf4ohe6ptu6j6ldghxqarh6tix3namnn2.py":28:44)
#loc19 = loc("/NHNHOME/WORKSPACE/26msit001_A/jinhyeok/loop_TTT/lact/.cache_inductor_llm/mf/cmfm6ngxd3rtijft3qugf4ohe6ptu6j6ldghxqarh6tix3namnn2.py":29:38)
#loc20 = loc("/NHNHOME/WORKSPACE/26msit001_A/jinhyeok/loop_TTT/lact/.cache_inductor_llm/mf/cmfm6ngxd3rtijft3qugf4ohe6ptu6j6ldghxqarh6tix3namnn2.py":29:31)
#loc21 = loc("/NHNHOME/WORKSPACE/26msit001_A/jinhyeok/loop_TTT/lact/.cache_inductor_llm/mf/cmfm6ngxd3rtijft3qugf4ohe6ptu6j6ldghxqarh6tix3namnn2.py":29:49)
#loc22 = loc("/NHNHOME/WORKSPACE/26msit001_A/jinhyeok/TTT_camera_embedding/.venv_llm/lib/python3.12/site-packages/triton/language/standard.py":48:30)
#loc23 = loc("/NHNHOME/WORKSPACE/26msit001_A/jinhyeok/loop_TTT/lact/.cache_inductor_llm/mf/cmfm6ngxd3rtijft3qugf4ohe6ptu6j6ldghxqarh6tix3namnn2.py":31:22)
#loc24 = loc("/NHNHOME/WORKSPACE/26msit001_A/jinhyeok/TTT_camera_embedding/.venv_llm/lib/python3.12/site-packages/triton/language/standard.py":48:29)
#loc25 = loc("/NHNHOME/WORKSPACE/26msit001_A/jinhyeok/TTT_camera_embedding/.venv_llm/lib/python3.12/site-packages/triton/language/standard.py":48:20)
#loc26 = loc("/NHNHOME/WORKSPACE/26msit001_A/jinhyeok/TTT_camera_embedding/.venv_llm/lib/python3.12/site-packages/triton/language/standard.py":48:16)
#loc27 = loc("/NHNHOME/WORKSPACE/26msit001_A/jinhyeok/loop_TTT/lact/.cache_inductor_llm/mf/cmfm6ngxd3rtijft3qugf4ohe6ptu6j6ldghxqarh6tix3namnn2.py":32:18)
#loc28 = loc("/NHNHOME/WORKSPACE/26msit001_A/jinhyeok/loop_TTT/lact/.cache_inductor_llm/mf/cmfm6ngxd3rtijft3qugf4ohe6ptu6j6ldghxqarh6tix3namnn2.py":34:18)
#loc29 = loc("/NHNHOME/WORKSPACE/26msit001_A/jinhyeok/loop_TTT/lact/.cache_inductor_llm/mf/cmfm6ngxd3rtijft3qugf4ohe6ptu6j6ldghxqarh6tix3namnn2.py":35:18)
#loc30 = loc("/NHNHOME/WORKSPACE/26msit001_A/jinhyeok/loop_TTT/lact/.cache_inductor_llm/mf/cmfm6ngxd3rtijft3qugf4ohe6ptu6j6ldghxqarh6tix3namnn2.py":37:19)
#loc31 = loc("/NHNHOME/WORKSPACE/26msit001_A/jinhyeok/loop_TTT/lact/.cache_inductor_llm/mf/cmfm6ngxd3rtijft3qugf4ohe6ptu6j6ldghxqarh6tix3namnn2.py":39:20)
#loc32 = loc("/NHNHOME/WORKSPACE/26msit001_A/jinhyeok/loop_TTT/lact/.cache_inductor_llm/mf/cmfm6ngxd3rtijft3qugf4ohe6ptu6j6ldghxqarh6tix3namnn2.py":40:19)
#loc33 = loc("/NHNHOME/WORKSPACE/26msit001_A/jinhyeok/loop_TTT/lact/.cache_inductor_llm/mf/cmfm6ngxd3rtijft3qugf4ohe6ptu6j6ldghxqarh6tix3namnn2.py":41:20)
#loc34 = loc("/NHNHOME/WORKSPACE/26msit001_A/jinhyeok/loop_TTT/lact/.cache_inductor_llm/mf/cmfm6ngxd3rtijft3qugf4ohe6ptu6j6ldghxqarh6tix3namnn2.py":42:20)
#loc35 = loc("/NHNHOME/WORKSPACE/26msit001_A/jinhyeok/loop_TTT/lact/.cache_inductor_llm/mf/cmfm6ngxd3rtijft3qugf4ohe6ptu6j6ldghxqarh6tix3namnn2.py":43:19)
#loc36 = loc("/NHNHOME/WORKSPACE/26msit001_A/jinhyeok/loop_TTT/lact/.cache_inductor_llm/mf/cmfm6ngxd3rtijft3qugf4ohe6ptu6j6ldghxqarh6tix3namnn2.py":45:20)
#loc37 = loc("/NHNHOME/WORKSPACE/26msit001_A/jinhyeok/loop_TTT/lact/.cache_inductor_llm/mf/cmfm6ngxd3rtijft3qugf4ohe6ptu6j6ldghxqarh6tix3namnn2.py":47:25)
#loc38 = loc("/NHNHOME/WORKSPACE/26msit001_A/jinhyeok/loop_TTT/lact/.cache_inductor_llm/mf/cmfm6ngxd3rtijft3qugf4ohe6ptu6j6ldghxqarh6tix3namnn2.py":47:36)
#loc39 = loc("/NHNHOME/WORKSPACE/26msit001_A/jinhyeok/loop_TTT/lact/.cache_inductor_llm/mf/cmfm6ngxd3rtijft3qugf4ohe6ptu6j6ldghxqarh6tix3namnn2.py":48:25)
#loc40 = loc("/NHNHOME/WORKSPACE/26msit001_A/jinhyeok/loop_TTT/lact/.cache_inductor_llm/mf/cmfm6ngxd3rtijft3qugf4ohe6ptu6j6ldghxqarh6tix3namnn2.py":48:37)
#loc41 = loc("/NHNHOME/WORKSPACE/26msit001_A/jinhyeok/loop_TTT/lact/.cache_inductor_llm/mf/cmfm6ngxd3rtijft3qugf4ohe6ptu6j6ldghxqarh6tix3namnn2.py":49:25)
#loc42 = loc("/NHNHOME/WORKSPACE/26msit001_A/jinhyeok/loop_TTT/lact/.cache_inductor_llm/mf/cmfm6ngxd3rtijft3qugf4ohe6ptu6j6ldghxqarh6tix3namnn2.py":49:37)
#loc43 = loc("/NHNHOME/WORKSPACE/26msit001_A/jinhyeok/loop_TTT/lact/.cache_inductor_llm/mf/cmfm6ngxd3rtijft3qugf4ohe6ptu6j6ldghxqarh6tix3namnn2.py":49:4)
#loc52 = loc("tmp18"(#loc2))
#loc53 = loc("tmp18"(#loc3))
#loc54 = loc("x3"(#loc4))
#loc55 = loc("x1"(#loc5))
#loc56 = loc("xoffset"(#loc6))
#loc57 = loc("xoffset"(#loc7))
#loc58 = loc("xindex"(#loc8))
#loc59 = loc("xindex"(#loc9))
#loc60 = loc("tmp0"(#loc10))
#loc61 = loc("tmp0"(#loc11))
#loc62 = loc("tmp0"(#loc12))
#loc63 = loc("tmp1"(#loc13))
#loc64 = loc("tmp1"(#loc14))
#loc65 = loc("tmp1"(#loc15))
#loc66 = loc("tmp7"(#loc16))
#loc67 = loc("tmp7"(#loc17))
#loc68 = loc("tmp7"(#loc18))
#loc69 = loc("tmp18"(#loc19))
#loc70 = loc("tmp18"(#loc20))
#loc71 = loc("tmp18"(#loc21))
#loc72 = loc("tmp3"(#loc23))
#loc73 = loc("tmp4"(#loc27))
#loc74 = loc("tmp6"(#loc28))
#loc75 = loc("tmp8"(#loc29))
#loc76 = loc("tmp10"(#loc30))
#loc77 = loc("tmp12"(#loc31))
#loc78 = loc("tmp13"(#loc32))
#loc79 = loc("tmp14"(#loc33))
#loc80 = loc("tmp15"(#loc34))
#loc81 = loc("tmp16"(#loc35))
#loc82 = loc("tmp19"(#loc36))
#loc83 = loc(callsite(#loc22 at #loc72))
#loc84 = loc(callsite(#loc24 at #loc72))
#loc85 = loc(callsite(#loc25 at #loc72))
#loc86 = loc(callsite(#loc26 at #loc72))
