#loc = loc("/NHNHOME/WORKSPACE/26msit001_A/jinhyeok/loop_TTT/lact/.cache_inductor_llm/2q/c2qnucvmzyow7uwnybn4de6xljzpcpqfigukoingpl54xqc5dymx.py":18:0)
#loc44 = loc("/NHNHOME/WORKSPACE/26msit001_A/jinhyeok/TTT_camera_embedding/.venv_llm/lib/python3.12/site-packages/triton/language/standard.py":47:0)
#loc51 = loc("in_ptr0"(#loc))
#loc52 = loc("in_ptr1"(#loc))
#loc53 = loc("in_ptr2"(#loc))
#loc54 = loc("in_ptr3"(#loc))
#loc55 = loc("out_ptr0"(#loc))
#loc56 = loc("out_ptr1"(#loc))
#loc57 = loc("out_ptr2"(#loc))
#loc58 = loc("xnumel"(#loc))
#loc95 = loc("x"(#loc44))
module {
  tt.func public @triton_poi_fused__to_copy_add_mul_rsub_sigmoid_silu_slice_transpose_48(%in_ptr0: !tt.ptr<bf16> {tt.divisibility = 16 : i32} loc("in_ptr0"(#loc)), %in_ptr1: !tt.ptr<bf16> {tt.divisibility = 16 : i32} loc("in_ptr1"(#loc)), %in_ptr2: !tt.ptr<bf16> {tt.divisibility = 16 : i32} loc("in_ptr2"(#loc)), %in_ptr3: !tt.ptr<f32> loc("in_ptr3"(#loc)), %out_ptr0: !tt.ptr<bf16> {tt.divisibility = 16 : i32} loc("out_ptr0"(#loc)), %out_ptr1: !tt.ptr<bf16> {tt.divisibility = 16 : i32} loc("out_ptr1"(#loc)), %out_ptr2: !tt.ptr<bf16> {tt.divisibility = 16 : i32} loc("out_ptr2"(#loc)), %xnumel: i32 {tt.divisibility = 16 : i32} loc("xnumel"(#loc))) attributes {noinline = false} {
    %xnumel_0 = arith.constant 6291456 : i32 loc(#loc59)
    %xoffset = tt.get_program_id x : i32 loc(#loc60)
    %xoffset_1 = arith.constant 1024 : i32 loc(#loc61)
    %xoffset_2 = arith.constant 1024 : i32 loc(#loc61)
    %xoffset_3 = arith.muli %xoffset, %xoffset_2 : i32 loc(#loc61)
    %xindex = tt.make_range {end = 1024 : i32, start = 0 : i32} : tensor<1024xi32> loc(#loc62)
    %xindex_4 = tt.splat %xoffset_3 : i32 -> tensor<1024xi32> loc(#loc63)
    %xindex_5 = arith.addi %xindex_4, %xindex : tensor<1024xi32> loc(#loc63)
    %xmask = arith.constant true loc(#loc64)
    %xmask_6 = arith.constant dense<true> : tensor<1024xi1> loc(#loc64)
    %x1 = arith.constant 1024 : i32 loc(#loc65)
    %x1_7 = arith.constant 1024 : i32 loc(#loc65)
    %x1_8 = arith.constant dense<1024> : tensor<1024xi32> loc(#loc65)
    %x1_9 = arith.remsi %xindex_5, %x1_8 : tensor<1024xi32> loc(#loc65)
    %x3 = arith.constant 196608 : i32 loc(#loc66)
    %x3_10 = arith.constant 196608 : i32 loc(#loc66)
    %x3_11 = arith.constant dense<196608> : tensor<1024xi32> loc(#loc66)
    %x3_12 = arith.divsi %xindex_5, %x3_11 : tensor<1024xi32> loc(#loc66)
    %tmp0 = tt.splat %in_ptr0 : !tt.ptr<bf16> -> tensor<1024x!tt.ptr<bf16>> loc(#loc67)
    %tmp0_13 = tt.addptr %tmp0, %xindex_5 : tensor<1024x!tt.ptr<bf16>>, tensor<1024xi32> loc(#loc67)
    %tmp0_14 = tt.load %tmp0_13 : tensor<1024x!tt.ptr<bf16>> loc(#loc68)
    %tmp0_15 = arith.extf %tmp0_14 : tensor<1024xbf16> to tensor<1024xf32> loc(#loc69)
    %tmp1 = tt.splat %in_ptr1 : !tt.ptr<bf16> -> tensor<1024x!tt.ptr<bf16>> loc(#loc70)
    %tmp1_16 = tt.addptr %tmp1, %xindex_5 : tensor<1024x!tt.ptr<bf16>>, tensor<1024xi32> loc(#loc70)
    %tmp1_17 = tt.load %tmp1_16 : tensor<1024x!tt.ptr<bf16>> loc(#loc71)
    %tmp1_18 = arith.extf %tmp1_17 : tensor<1024xbf16> to tensor<1024xf32> loc(#loc72)
    %tmp7 = tt.splat %in_ptr2 : !tt.ptr<bf16> -> tensor<1024x!tt.ptr<bf16>> loc(#loc73)
    %tmp7_19 = tt.addptr %tmp7, %xindex_5 : tensor<1024x!tt.ptr<bf16>>, tensor<1024xi32> loc(#loc73)
    %tmp7_20 = tt.load %tmp7_19 : tensor<1024x!tt.ptr<bf16>> loc(#loc74)
    %tmp7_21 = arith.extf %tmp7_20 : tensor<1024xbf16> to tensor<1024xf32> loc(#loc75)
    %tmp18 = arith.constant 3 : i32 loc(#loc76)
    %tmp18_22 = arith.constant 3 : i32 loc(#loc76)
    %tmp18_23 = arith.constant dense<3> : tensor<1024xi32> loc(#loc76)
    %tmp18_24 = arith.muli %tmp18_23, %x1_9 : tensor<1024xi32> loc(#loc76)
    %tmp18_25 = arith.constant 6144 : i32 loc(#loc77)
    %tmp18_26 = arith.constant 6144 : i32 loc(#loc77)
    %tmp18_27 = arith.constant dense<6144> : tensor<1024xi32> loc(#loc77)
    %tmp18_28 = arith.addi %tmp18_27, %tmp18_24 : tensor<1024xi32> loc(#loc77)
    %tmp18_29 = arith.constant 12288 : i32 loc(#loc78)
    %tmp18_30 = arith.constant 12288 : i32 loc(#loc78)
    %tmp18_31 = arith.constant dense<12288> : tensor<1024xi32> loc(#loc78)
    %tmp18_32 = arith.muli %tmp18_31, %x3_12 : tensor<1024xi32> loc(#loc78)
    %tmp18_33 = arith.addi %tmp18_28, %tmp18_32 : tensor<1024xi32> loc(#loc79)
    %tmp18_34 = tt.splat %in_ptr3 : !tt.ptr<f32> -> tensor<1024x!tt.ptr<f32>> loc(#loc80)
    %tmp18_35 = tt.addptr %tmp18_34, %tmp18_33 : tensor<1024x!tt.ptr<f32>>, tensor<1024xi32> loc(#loc80)
    %tmp18_36 = tt.load %tmp18_35 evictionPolicy = evict_last : tensor<1024x!tt.ptr<f32>> loc(#loc81)
    %tmp3 = tt.call @triton.language.standard.sigmoid__fp32S1024S__(%tmp1_18) : (tensor<1024xf32>) -> tensor<1024xf32> loc(#loc82)
    %tmp4 = arith.mulf %tmp1_18, %tmp3 : tensor<1024xf32> loc(#loc83)
    %tmp6 = arith.mulf %tmp0_15, %tmp4 : tensor<1024xf32> loc(#loc84)
    %tmp8 = arith.mulf %tmp0_15, %tmp7_21 : tensor<1024xf32> loc(#loc85)
    %tmp9 = tt.call @triton.language.standard.sigmoid__fp32S1024S__(%tmp1_18) : (tensor<1024xf32>) -> tensor<1024xf32> loc(#loc86)
    %tmp10 = arith.mulf %tmp8, %tmp9 : tensor<1024xf32> loc(#loc87)
    %tmp11 = arith.constant 1.000000e+00 : f32 loc(#loc88)
    %tmp12 = arith.constant dense<1.000000e+00> : tensor<1024xf32> loc(#loc89)
    %tmp12_37 = arith.subf %tmp12, %tmp9 : tensor<1024xf32> loc(#loc89)
    %tmp13 = arith.mulf %tmp1_18, %tmp12_37 : tensor<1024xf32> loc(#loc90)
    %tmp14 = arith.constant dense<1.000000e+00> : tensor<1024xf32> loc(#loc91)
    %tmp14_38 = arith.addf %tmp13, %tmp14 : tensor<1024xf32> loc(#loc91)
    %tmp15 = arith.mulf %tmp10, %tmp14_38 : tensor<1024xf32> loc(#loc92)
    %tmp16 = arith.mulf %tmp4, %tmp7_21 : tensor<1024xf32> loc(#loc93)
    %tmp19 = arith.mulf %tmp16, %tmp18_36 : tensor<1024xf32> loc(#loc94)
    %0 = tt.splat %out_ptr0 : !tt.ptr<bf16> -> tensor<1024x!tt.ptr<bf16>> loc(#loc37)
    %1 = tt.addptr %0, %xindex_5 : tensor<1024x!tt.ptr<bf16>>, tensor<1024xi32> loc(#loc37)
    %2 = arith.truncf %tmp6 : tensor<1024xf32> to tensor<1024xbf16> loc(#loc38)
    tt.store %1, %2 : tensor<1024x!tt.ptr<bf16>> loc(#loc38)
    %3 = tt.splat %out_ptr1 : !tt.ptr<bf16> -> tensor<1024x!tt.ptr<bf16>> loc(#loc39)
    %4 = tt.addptr %3, %xindex_5 : tensor<1024x!tt.ptr<bf16>>, tensor<1024xi32> loc(#loc39)
    %5 = arith.truncf %tmp15 : tensor<1024xf32> to tensor<1024xbf16> loc(#loc40)
    tt.store %4, %5 : tensor<1024x!tt.ptr<bf16>> loc(#loc40)
    %6 = tt.splat %out_ptr2 : !tt.ptr<bf16> -> tensor<1024x!tt.ptr<bf16>> loc(#loc41)
    %7 = tt.addptr %6, %xindex_5 : tensor<1024x!tt.ptr<bf16>>, tensor<1024xi32> loc(#loc41)
    %8 = arith.truncf %tmp19 : tensor<1024xf32> to tensor<1024xbf16> loc(#loc42)
    tt.store %7, %8 : tensor<1024x!tt.ptr<bf16>> loc(#loc42)
    tt.return loc(#loc43)
  } loc(#loc)
  tt.func private @triton.language.standard.sigmoid__fp32S1024S__(%x: tensor<1024xf32> loc("x"(#loc44))) -> tensor<1024xf32> attributes {noinline = false} {
    %cst = arith.constant 0.000000e+00 : f32 loc(#loc45)
    %cst_0 = arith.constant dense<0.000000e+00> : tensor<1024xf32> loc(#loc45)
    %0 = arith.subf %cst_0, %x : tensor<1024xf32> loc(#loc45)
    %1 = math.exp %0 : tensor<1024xf32> loc(#loc46)
    %c1_i32 = arith.constant 1 : i32 loc(#loc47)
    %cst_1 = arith.constant 1.000000e+00 : f32 loc(#loc47)
    %cst_2 = arith.constant dense<1.000000e+00> : tensor<1024xf32> loc(#loc47)
    %2 = arith.addf %cst_2, %1 : tensor<1024xf32> loc(#loc47)
    %c1_i32_3 = arith.constant 1 : i32 loc(#loc48)
    %cst_4 = arith.constant 1.000000e+00 : f32 loc(#loc48)
    %cst_5 = arith.constant dense<1.000000e+00> : tensor<1024xf32> loc(#loc48)
    %3 = arith.divf %cst_5, %2 : tensor<1024xf32> loc(#loc48)
    tt.return %3 : tensor<1024xf32> loc(#loc49)
  ^bb1:  // no predecessors
    %4 = ub.poison : tensor<1024xf32> loc(#loc50)
    tt.return %4 : tensor<1024xf32> loc(#loc50)
  } loc(#loc44)
} loc(#loc)
#loc1 = loc("/NHNHOME/WORKSPACE/26msit001_A/jinhyeok/loop_TTT/lact/.cache_inductor_llm/2q/c2qnucvmzyow7uwnybn4de6xljzpcpqfigukoingpl54xqc5dymx.py":19:13)
#loc2 = loc("/NHNHOME/WORKSPACE/26msit001_A/jinhyeok/loop_TTT/lact/.cache_inductor_llm/2q/c2qnucvmzyow7uwnybn4de6xljzpcpqfigukoingpl54xqc5dymx.py":20:28)
#loc3 = loc("/NHNHOME/WORKSPACE/26msit001_A/jinhyeok/loop_TTT/lact/.cache_inductor_llm/2q/c2qnucvmzyow7uwnybn4de6xljzpcpqfigukoingpl54xqc5dymx.py":20:33)
#loc4 = loc("/NHNHOME/WORKSPACE/26msit001_A/jinhyeok/loop_TTT/lact/.cache_inductor_llm/2q/c2qnucvmzyow7uwnybn4de6xljzpcpqfigukoingpl54xqc5dymx.py":21:36)
#loc5 = loc("/NHNHOME/WORKSPACE/26msit001_A/jinhyeok/loop_TTT/lact/.cache_inductor_llm/2q/c2qnucvmzyow7uwnybn4de6xljzpcpqfigukoingpl54xqc5dymx.py":21:23)
#loc6 = loc("/NHNHOME/WORKSPACE/26msit001_A/jinhyeok/loop_TTT/lact/.cache_inductor_llm/2q/c2qnucvmzyow7uwnybn4de6xljzpcpqfigukoingpl54xqc5dymx.py":22:36)
#loc7 = loc("/NHNHOME/WORKSPACE/26msit001_A/jinhyeok/loop_TTT/lact/.cache_inductor_llm/2q/c2qnucvmzyow7uwnybn4de6xljzpcpqfigukoingpl54xqc5dymx.py":24:19)
#loc8 = loc("/NHNHOME/WORKSPACE/26msit001_A/jinhyeok/loop_TTT/lact/.cache_inductor_llm/2q/c2qnucvmzyow7uwnybn4de6xljzpcpqfigukoingpl54xqc5dymx.py":25:19)
#loc9 = loc("/NHNHOME/WORKSPACE/26msit001_A/jinhyeok/loop_TTT/lact/.cache_inductor_llm/2q/c2qnucvmzyow7uwnybn4de6xljzpcpqfigukoingpl54xqc5dymx.py":26:30)
#loc10 = loc("/NHNHOME/WORKSPACE/26msit001_A/jinhyeok/loop_TTT/lact/.cache_inductor_llm/2q/c2qnucvmzyow7uwnybn4de6xljzpcpqfigukoingpl54xqc5dymx.py":26:35)
#loc11 = loc("/NHNHOME/WORKSPACE/26msit001_A/jinhyeok/loop_TTT/lact/.cache_inductor_llm/2q/c2qnucvmzyow7uwnybn4de6xljzpcpqfigukoingpl54xqc5dymx.py":26:44)
#loc12 = loc("/NHNHOME/WORKSPACE/26msit001_A/jinhyeok/loop_TTT/lact/.cache_inductor_llm/2q/c2qnucvmzyow7uwnybn4de6xljzpcpqfigukoingpl54xqc5dymx.py":27:30)
#loc13 = loc("/NHNHOME/WORKSPACE/26msit001_A/jinhyeok/loop_TTT/lact/.cache_inductor_llm/2q/c2qnucvmzyow7uwnybn4de6xljzpcpqfigukoingpl54xqc5dymx.py":27:35)
#loc14 = loc("/NHNHOME/WORKSPACE/26msit001_A/jinhyeok/loop_TTT/lact/.cache_inductor_llm/2q/c2qnucvmzyow7uwnybn4de6xljzpcpqfigukoingpl54xqc5dymx.py":27:44)
#loc15 = loc("/NHNHOME/WORKSPACE/26msit001_A/jinhyeok/loop_TTT/lact/.cache_inductor_llm/2q/c2qnucvmzyow7uwnybn4de6xljzpcpqfigukoingpl54xqc5dymx.py":28:30)
#loc16 = loc("/NHNHOME/WORKSPACE/26msit001_A/jinhyeok/loop_TTT/lact/.cache_inductor_llm/2q/c2qnucvmzyow7uwnybn4de6xljzpcpqfigukoingpl54xqc5dymx.py":28:35)
#loc17 = loc("/NHNHOME/WORKSPACE/26msit001_A/jinhyeok/loop_TTT/lact/.cache_inductor_llm/2q/c2qnucvmzyow7uwnybn4de6xljzpcpqfigukoingpl54xqc5dymx.py":28:44)
#loc18 = loc("/NHNHOME/WORKSPACE/26msit001_A/jinhyeok/loop_TTT/lact/.cache_inductor_llm/2q/c2qnucvmzyow7uwnybn4de6xljzpcpqfigukoingpl54xqc5dymx.py":29:40)
#loc19 = loc("/NHNHOME/WORKSPACE/26msit001_A/jinhyeok/loop_TTT/lact/.cache_inductor_llm/2q/c2qnucvmzyow7uwnybn4de6xljzpcpqfigukoingpl54xqc5dymx.py":29:38)
#loc20 = loc("/NHNHOME/WORKSPACE/26msit001_A/jinhyeok/loop_TTT/lact/.cache_inductor_llm/2q/c2qnucvmzyow7uwnybn4de6xljzpcpqfigukoingpl54xqc5dymx.py":29:51)
#loc21 = loc("/NHNHOME/WORKSPACE/26msit001_A/jinhyeok/loop_TTT/lact/.cache_inductor_llm/2q/c2qnucvmzyow7uwnybn4de6xljzpcpqfigukoingpl54xqc5dymx.py":29:45)
#loc22 = loc("/NHNHOME/WORKSPACE/26msit001_A/jinhyeok/loop_TTT/lact/.cache_inductor_llm/2q/c2qnucvmzyow7uwnybn4de6xljzpcpqfigukoingpl54xqc5dymx.py":29:31)
#loc23 = loc("/NHNHOME/WORKSPACE/26msit001_A/jinhyeok/loop_TTT/lact/.cache_inductor_llm/2q/c2qnucvmzyow7uwnybn4de6xljzpcpqfigukoingpl54xqc5dymx.py":29:56)
#loc24 = loc("/NHNHOME/WORKSPACE/26msit001_A/jinhyeok/loop_TTT/lact/.cache_inductor_llm/2q/c2qnucvmzyow7uwnybn4de6xljzpcpqfigukoingpl54xqc5dymx.py":31:22)
#loc25 = loc("/NHNHOME/WORKSPACE/26msit001_A/jinhyeok/loop_TTT/lact/.cache_inductor_llm/2q/c2qnucvmzyow7uwnybn4de6xljzpcpqfigukoingpl54xqc5dymx.py":32:18)
#loc26 = loc("/NHNHOME/WORKSPACE/26msit001_A/jinhyeok/loop_TTT/lact/.cache_inductor_llm/2q/c2qnucvmzyow7uwnybn4de6xljzpcpqfigukoingpl54xqc5dymx.py":34:18)
#loc27 = loc("/NHNHOME/WORKSPACE/26msit001_A/jinhyeok/loop_TTT/lact/.cache_inductor_llm/2q/c2qnucvmzyow7uwnybn4de6xljzpcpqfigukoingpl54xqc5dymx.py":35:18)
#loc28 = loc("/NHNHOME/WORKSPACE/26msit001_A/jinhyeok/loop_TTT/lact/.cache_inductor_llm/2q/c2qnucvmzyow7uwnybn4de6xljzpcpqfigukoingpl54xqc5dymx.py":36:22)
#loc29 = loc("/NHNHOME/WORKSPACE/26msit001_A/jinhyeok/loop_TTT/lact/.cache_inductor_llm/2q/c2qnucvmzyow7uwnybn4de6xljzpcpqfigukoingpl54xqc5dymx.py":37:19)
#loc30 = loc("/NHNHOME/WORKSPACE/26msit001_A/jinhyeok/loop_TTT/lact/.cache_inductor_llm/2q/c2qnucvmzyow7uwnybn4de6xljzpcpqfigukoingpl54xqc5dymx.py":38:12)
#loc31 = loc("/NHNHOME/WORKSPACE/26msit001_A/jinhyeok/loop_TTT/lact/.cache_inductor_llm/2q/c2qnucvmzyow7uwnybn4de6xljzpcpqfigukoingpl54xqc5dymx.py":39:20)
#loc32 = loc("/NHNHOME/WORKSPACE/26msit001_A/jinhyeok/loop_TTT/lact/.cache_inductor_llm/2q/c2qnucvmzyow7uwnybn4de6xljzpcpqfigukoingpl54xqc5dymx.py":40:19)
#loc33 = loc("/NHNHOME/WORKSPACE/26msit001_A/jinhyeok/loop_TTT/lact/.cache_inductor_llm/2q/c2qnucvmzyow7uwnybn4de6xljzpcpqfigukoingpl54xqc5dymx.py":41:20)
#loc34 = loc("/NHNHOME/WORKSPACE/26msit001_A/jinhyeok/loop_TTT/lact/.cache_inductor_llm/2q/c2qnucvmzyow7uwnybn4de6xljzpcpqfigukoingpl54xqc5dymx.py":42:20)
#loc35 = loc("/NHNHOME/WORKSPACE/26msit001_A/jinhyeok/loop_TTT/lact/.cache_inductor_llm/2q/c2qnucvmzyow7uwnybn4de6xljzpcpqfigukoingpl54xqc5dymx.py":43:19)
#loc36 = loc("/NHNHOME/WORKSPACE/26msit001_A/jinhyeok/loop_TTT/lact/.cache_inductor_llm/2q/c2qnucvmzyow7uwnybn4de6xljzpcpqfigukoingpl54xqc5dymx.py":45:20)
#loc37 = loc("/NHNHOME/WORKSPACE/26msit001_A/jinhyeok/loop_TTT/lact/.cache_inductor_llm/2q/c2qnucvmzyow7uwnybn4de6xljzpcpqfigukoingpl54xqc5dymx.py":47:25)
#loc38 = loc("/NHNHOME/WORKSPACE/26msit001_A/jinhyeok/loop_TTT/lact/.cache_inductor_llm/2q/c2qnucvmzyow7uwnybn4de6xljzpcpqfigukoingpl54xqc5dymx.py":47:36)
#loc39 = loc("/NHNHOME/WORKSPACE/26msit001_A/jinhyeok/loop_TTT/lact/.cache_inductor_llm/2q/c2qnucvmzyow7uwnybn4de6xljzpcpqfigukoingpl54xqc5dymx.py":48:25)
#loc40 = loc("/NHNHOME/WORKSPACE/26msit001_A/jinhyeok/loop_TTT/lact/.cache_inductor_llm/2q/c2qnucvmzyow7uwnybn4de6xljzpcpqfigukoingpl54xqc5dymx.py":48:37)
#loc41 = loc("/NHNHOME/WORKSPACE/26msit001_A/jinhyeok/loop_TTT/lact/.cache_inductor_llm/2q/c2qnucvmzyow7uwnybn4de6xljzpcpqfigukoingpl54xqc5dymx.py":49:25)
#loc42 = loc("/NHNHOME/WORKSPACE/26msit001_A/jinhyeok/loop_TTT/lact/.cache_inductor_llm/2q/c2qnucvmzyow7uwnybn4de6xljzpcpqfigukoingpl54xqc5dymx.py":49:37)
#loc43 = loc("/NHNHOME/WORKSPACE/26msit001_A/jinhyeok/loop_TTT/lact/.cache_inductor_llm/2q/c2qnucvmzyow7uwnybn4de6xljzpcpqfigukoingpl54xqc5dymx.py":49:4)
#loc45 = loc("/NHNHOME/WORKSPACE/26msit001_A/jinhyeok/TTT_camera_embedding/.venv_llm/lib/python3.12/site-packages/triton/language/standard.py":48:30)
#loc46 = loc("/NHNHOME/WORKSPACE/26msit001_A/jinhyeok/TTT_camera_embedding/.venv_llm/lib/python3.12/site-packages/triton/language/standard.py":48:29)
#loc47 = loc("/NHNHOME/WORKSPACE/26msit001_A/jinhyeok/TTT_camera_embedding/.venv_llm/lib/python3.12/site-packages/triton/language/standard.py":48:20)
#loc48 = loc("/NHNHOME/WORKSPACE/26msit001_A/jinhyeok/TTT_camera_embedding/.venv_llm/lib/python3.12/site-packages/triton/language/standard.py":48:16)
#loc49 = loc("/NHNHOME/WORKSPACE/26msit001_A/jinhyeok/TTT_camera_embedding/.venv_llm/lib/python3.12/site-packages/triton/language/standard.py":48:11)
#loc50 = loc("/NHNHOME/WORKSPACE/26msit001_A/jinhyeok/TTT_camera_embedding/.venv_llm/lib/python3.12/site-packages/triton/language/standard.py":48:4)
#loc59 = loc("xnumel"(#loc1))
#loc60 = loc("xoffset"(#loc2))
#loc61 = loc("xoffset"(#loc3))
#loc62 = loc("xindex"(#loc4))
#loc63 = loc("xindex"(#loc5))
#loc64 = loc("xmask"(#loc6))
#loc65 = loc("x1"(#loc7))
#loc66 = loc("x3"(#loc8))
#loc67 = loc("tmp0"(#loc9))
#loc68 = loc("tmp0"(#loc10))
#loc69 = loc("tmp0"(#loc11))
#loc70 = loc("tmp1"(#loc12))
#loc71 = loc("tmp1"(#loc13))
#loc72 = loc("tmp1"(#loc14))
#loc73 = loc("tmp7"(#loc15))
#loc74 = loc("tmp7"(#loc16))
#loc75 = loc("tmp7"(#loc17))
#loc76 = loc("tmp18"(#loc18))
#loc77 = loc("tmp18"(#loc19))
#loc78 = loc("tmp18"(#loc20))
#loc79 = loc("tmp18"(#loc21))
#loc80 = loc("tmp18"(#loc22))
#loc81 = loc("tmp18"(#loc23))
#loc82 = loc("tmp3"(#loc24))
#loc83 = loc("tmp4"(#loc25))
#loc84 = loc("tmp6"(#loc26))
#loc85 = loc("tmp8"(#loc27))
#loc86 = loc("tmp9"(#loc28))
#loc87 = loc("tmp10"(#loc29))
#loc88 = loc("tmp11"(#loc30))
#loc89 = loc("tmp12"(#loc31))
#loc90 = loc("tmp13"(#loc32))
#loc91 = loc("tmp14"(#loc33))
#loc92 = loc("tmp15"(#loc34))
#loc93 = loc("tmp16"(#loc35))
#loc94 = loc("tmp19"(#loc36))
