#loc = loc("/NHNHOME/WORKSPACE/26msit001_A/jinhyeok/loop_TTT/lact/.cache_inductor_llm/3n/c3nok3sjhfqco3672f26tigm7fxhfkfop6daolv5civppp7j2rn3.py":18:0)
#loc75 = loc("/NHNHOME/WORKSPACE/26msit001_A/jinhyeok/TTT_camera_embedding/.venv_llm/lib/python3.12/site-packages/triton/language/standard.py":285:0)
#loc77 = loc(unknown)
#loc80 = loc("/NHNHOME/WORKSPACE/26msit001_A/jinhyeok/TTT_camera_embedding/.venv_llm/lib/python3.12/site-packages/triton/language/standard.py":260:0)
#loc84 = loc("in_out_ptr0"(#loc))
#loc85 = loc("in_ptr0"(#loc))
#loc86 = loc("in_ptr1"(#loc))
#loc87 = loc("in_ptr2"(#loc))
#loc88 = loc("in_ptr3"(#loc))
#loc89 = loc("in_ptr4"(#loc))
#loc90 = loc("in_ptr5"(#loc))
#loc91 = loc("out_ptr1"(#loc))
#loc92 = loc("xnumel"(#loc))
#loc93 = loc("r0_numel"(#loc))
#loc162 = loc("input"(#loc75))
#loc163 = loc("a"(#loc80))
#loc164 = loc("b"(#loc80))
module {
  tt.func public @triton_per_fused__to_copy_add_div_linalg_vector_norm_mul_53(%in_out_ptr0: !tt.ptr<f32> {tt.divisibility = 16 : i32} loc("in_out_ptr0"(#loc)), %in_ptr0: !tt.ptr<f32> {tt.divisibility = 16 : i32} loc("in_ptr0"(#loc)), %in_ptr1: !tt.ptr<bf16> {tt.divisibility = 16 : i32} loc("in_ptr1"(#loc)), %in_ptr2: !tt.ptr<f32> {tt.divisibility = 16 : i32} loc("in_ptr2"(#loc)), %in_ptr3: !tt.ptr<bf16> {tt.divisibility = 16 : i32} loc("in_ptr3"(#loc)), %in_ptr4: !tt.ptr<bf16> {tt.divisibility = 16 : i32} loc("in_ptr4"(#loc)), %in_ptr5: !tt.ptr<f32> {tt.divisibility = 16 : i32} loc("in_ptr5"(#loc)), %out_ptr1: !tt.ptr<bf16> {tt.divisibility = 16 : i32} loc("out_ptr1"(#loc)), %xnumel: i32 {tt.divisibility = 16 : i32} loc("xnumel"(#loc)), %r0_numel: i32 {tt.divisibility = 16 : i32} loc("r0_numel"(#loc))) attributes {noinline = false} {
    %xnumel_0 = arith.constant 6144 : i32 loc(#loc94)
    %r0_numel_1 = arith.constant 192 : i32 loc(#loc95)
    %xoffset = tt.get_program_id x : i32 loc(#loc96)
    %xoffset_2 = arith.constant 1 : i32 loc(#loc97)
    %xoffset_3 = arith.constant 1 : i32 loc(#loc97)
    %xoffset_4 = arith.muli %xoffset, %xoffset_3 : i32 loc(#loc97)
    %xindex = tt.make_range {end = 1 : i32, start = 0 : i32} : tensor<1xi32> loc(#loc98)
    %xindex_5 = tt.expand_dims %xindex {axis = 1 : i32} : tensor<1xi32> -> tensor<1x1xi32> loc(#loc99)
    %xindex_6 = tt.splat %xoffset_4 : i32 -> tensor<1x1xi32> loc(#loc100)
    %xindex_7 = arith.addi %xindex_6, %xindex_5 : tensor<1x1xi32> loc(#loc100)
    %xmask = arith.constant dense<6144> : tensor<1x1xi32> loc(#loc101)
    %xmask_8 = arith.cmpi slt, %xindex_7, %xmask : tensor<1x1xi32> loc(#loc101)
    %r0_index = tt.make_range {end = 256 : i32, start = 0 : i32} : tensor<256xi32> loc(#loc102)
    %r0_index_9 = tt.expand_dims %r0_index {axis = 0 : i32} : tensor<256xi32> -> tensor<1x256xi32> loc(#loc103)
    %r0_offset = arith.constant 0 : i32 loc(#loc104)
    %r0_mask = arith.constant dense<192> : tensor<1x256xi32> loc(#loc105)
    %r0_mask_10 = arith.cmpi slt, %r0_index_9, %r0_mask : tensor<1x256xi32> loc(#loc105)
    %tmp0 = arith.constant 192 : i32 loc(#loc106)
    %tmp0_11 = arith.constant 192 : i32 loc(#loc106)
    %tmp0_12 = arith.constant dense<192> : tensor<1x1xi32> loc(#loc106)
    %tmp0_13 = arith.muli %tmp0_12, %xindex_7 : tensor<1x1xi32> loc(#loc106)
    %tmp0_14 = tt.broadcast %tmp0_13 : tensor<1x1xi32> -> tensor<1x256xi32> loc(#loc107)
    %tmp0_15 = arith.addi %r0_index_9, %tmp0_14 : tensor<1x256xi32> loc(#loc107)
    %tmp0_16 = tt.splat %in_out_ptr0 : !tt.ptr<f32> -> tensor<1x256x!tt.ptr<f32>> loc(#loc108)
    %tmp0_17 = tt.addptr %tmp0_16, %tmp0_15 : tensor<1x256x!tt.ptr<f32>>, tensor<1x256xi32> loc(#loc108)
    %tmp0_18 = tt.broadcast %xmask_8 : tensor<1x1xi1> -> tensor<1x256xi1> loc(#loc109)
    %tmp0_19 = arith.andi %r0_mask_10, %tmp0_18 : tensor<1x256xi1> loc(#loc109)
    %tmp0_20 = arith.constant 0.000000e+00 : f32 loc(#loc110)
    %tmp0_21 = arith.constant dense<0.000000e+00> : tensor<1x256xf32> loc(#loc110)
    %tmp0_22 = tt.load %tmp0_17, %tmp0_19, %tmp0_21 : tensor<1x256x!tt.ptr<f32>> loc(#loc110)
    %tmp1 = arith.constant 192 : i32 loc(#loc111)
    %tmp1_23 = arith.constant 192 : i32 loc(#loc111)
    %tmp1_24 = arith.constant dense<192> : tensor<1x1xi32> loc(#loc111)
    %tmp1_25 = arith.muli %tmp1_24, %xindex_7 : tensor<1x1xi32> loc(#loc111)
    %tmp1_26 = tt.broadcast %tmp1_25 : tensor<1x1xi32> -> tensor<1x256xi32> loc(#loc112)
    %tmp1_27 = arith.addi %r0_index_9, %tmp1_26 : tensor<1x256xi32> loc(#loc112)
    %tmp1_28 = tt.splat %in_ptr0 : !tt.ptr<f32> -> tensor<1x256x!tt.ptr<f32>> loc(#loc113)
    %tmp1_29 = tt.addptr %tmp1_28, %tmp1_27 : tensor<1x256x!tt.ptr<f32>>, tensor<1x256xi32> loc(#loc113)
    %tmp1_30 = tt.broadcast %xmask_8 : tensor<1x1xi1> -> tensor<1x256xi1> loc(#loc114)
    %tmp1_31 = arith.andi %r0_mask_10, %tmp1_30 : tensor<1x256xi1> loc(#loc114)
    %tmp1_32 = arith.constant 0.000000e+00 : f32 loc(#loc115)
    %tmp1_33 = arith.constant dense<0.000000e+00> : tensor<1x256xf32> loc(#loc115)
    %tmp1_34 = tt.load %tmp1_29, %tmp1_31, %tmp1_33 : tensor<1x256x!tt.ptr<f32>> loc(#loc115)
    %tmp4 = arith.constant 192 : i32 loc(#loc116)
    %tmp4_35 = arith.constant 192 : i32 loc(#loc116)
    %tmp4_36 = arith.constant dense<192> : tensor<1x1xi32> loc(#loc116)
    %tmp4_37 = arith.muli %tmp4_36, %xindex_7 : tensor<1x1xi32> loc(#loc116)
    %tmp4_38 = tt.broadcast %tmp4_37 : tensor<1x1xi32> -> tensor<1x256xi32> loc(#loc117)
    %tmp4_39 = arith.addi %r0_index_9, %tmp4_38 : tensor<1x256xi32> loc(#loc117)
    %tmp4_40 = tt.splat %in_ptr1 : !tt.ptr<bf16> -> tensor<1x256x!tt.ptr<bf16>> loc(#loc118)
    %tmp4_41 = tt.addptr %tmp4_40, %tmp4_39 : tensor<1x256x!tt.ptr<bf16>>, tensor<1x256xi32> loc(#loc118)
    %tmp4_42 = tt.broadcast %xmask_8 : tensor<1x1xi1> -> tensor<1x256xi1> loc(#loc119)
    %tmp4_43 = arith.andi %r0_mask_10, %tmp4_42 : tensor<1x256xi1> loc(#loc119)
    %tmp4_44 = arith.constant 0.000000e+00 : f32 loc(#loc120)
    %tmp4_45 = arith.constant dense<0.000000e+00> : tensor<1x256xf32> loc(#loc120)
    %tmp4_46 = arith.truncf %tmp4_45 : tensor<1x256xf32> to tensor<1x256xbf16> loc(#loc120)
    %tmp4_47 = tt.load %tmp4_41, %tmp4_43, %tmp4_46 : tensor<1x256x!tt.ptr<bf16>> loc(#loc120)
    %tmp4_48 = arith.extf %tmp4_47 : tensor<1x256xbf16> to tensor<1x256xf32> loc(#loc121)
    %tmp8 = arith.constant 192 : i32 loc(#loc122)
    %tmp8_49 = arith.constant 192 : i32 loc(#loc122)
    %tmp8_50 = arith.constant dense<192> : tensor<1x1xi32> loc(#loc122)
    %tmp8_51 = arith.muli %tmp8_50, %xindex_7 : tensor<1x1xi32> loc(#loc122)
    %tmp8_52 = tt.broadcast %tmp8_51 : tensor<1x1xi32> -> tensor<1x256xi32> loc(#loc123)
    %tmp8_53 = arith.addi %r0_index_9, %tmp8_52 : tensor<1x256xi32> loc(#loc123)
    %tmp8_54 = tt.splat %in_ptr2 : !tt.ptr<f32> -> tensor<1x256x!tt.ptr<f32>> loc(#loc124)
    %tmp8_55 = tt.addptr %tmp8_54, %tmp8_53 : tensor<1x256x!tt.ptr<f32>>, tensor<1x256xi32> loc(#loc124)
    %tmp8_56 = tt.broadcast %xmask_8 : tensor<1x1xi1> -> tensor<1x256xi1> loc(#loc125)
    %tmp8_57 = arith.andi %r0_mask_10, %tmp8_56 : tensor<1x256xi1> loc(#loc125)
    %tmp8_58 = arith.constant 0.000000e+00 : f32 loc(#loc126)
    %tmp8_59 = arith.constant dense<0.000000e+00> : tensor<1x256xf32> loc(#loc126)
    %tmp8_60 = tt.load %tmp8_55, %tmp8_57, %tmp8_59 : tensor<1x256x!tt.ptr<f32>> loc(#loc126)
    %tmp11 = arith.constant 192 : i32 loc(#loc127)
    %tmp11_61 = arith.constant 192 : i32 loc(#loc127)
    %tmp11_62 = arith.constant dense<192> : tensor<1x1xi32> loc(#loc127)
    %tmp11_63 = arith.muli %tmp11_62, %xindex_7 : tensor<1x1xi32> loc(#loc127)
    %tmp11_64 = tt.broadcast %tmp11_63 : tensor<1x1xi32> -> tensor<1x256xi32> loc(#loc128)
    %tmp11_65 = arith.addi %r0_index_9, %tmp11_64 : tensor<1x256xi32> loc(#loc128)
    %tmp11_66 = tt.splat %in_ptr3 : !tt.ptr<bf16> -> tensor<1x256x!tt.ptr<bf16>> loc(#loc129)
    %tmp11_67 = tt.addptr %tmp11_66, %tmp11_65 : tensor<1x256x!tt.ptr<bf16>>, tensor<1x256xi32> loc(#loc129)
    %tmp11_68 = tt.broadcast %xmask_8 : tensor<1x1xi1> -> tensor<1x256xi1> loc(#loc130)
    %tmp11_69 = arith.andi %r0_mask_10, %tmp11_68 : tensor<1x256xi1> loc(#loc130)
    %tmp11_70 = arith.constant 0.000000e+00 : f32 loc(#loc131)
    %tmp11_71 = arith.constant dense<0.000000e+00> : tensor<1x256xf32> loc(#loc131)
    %tmp11_72 = arith.truncf %tmp11_71 : tensor<1x256xf32> to tensor<1x256xbf16> loc(#loc131)
    %tmp11_73 = tt.load %tmp11_67, %tmp11_69, %tmp11_72 : tensor<1x256x!tt.ptr<bf16>> loc(#loc131)
    %tmp11_74 = arith.extf %tmp11_73 : tensor<1x256xbf16> to tensor<1x256xf32> loc(#loc132)
    %tmp15 = arith.constant 192 : i32 loc(#loc133)
    %tmp15_75 = arith.constant 192 : i32 loc(#loc133)
    %tmp15_76 = arith.constant dense<192> : tensor<1x1xi32> loc(#loc133)
    %tmp15_77 = arith.muli %tmp15_76, %xindex_7 : tensor<1x1xi32> loc(#loc133)
    %tmp15_78 = tt.broadcast %tmp15_77 : tensor<1x1xi32> -> tensor<1x256xi32> loc(#loc134)
    %tmp15_79 = arith.addi %r0_index_9, %tmp15_78 : tensor<1x256xi32> loc(#loc134)
    %tmp15_80 = tt.splat %in_ptr4 : !tt.ptr<bf16> -> tensor<1x256x!tt.ptr<bf16>> loc(#loc135)
    %tmp15_81 = tt.addptr %tmp15_80, %tmp15_79 : tensor<1x256x!tt.ptr<bf16>>, tensor<1x256xi32> loc(#loc135)
    %tmp15_82 = tt.broadcast %xmask_8 : tensor<1x1xi1> -> tensor<1x256xi1> loc(#loc136)
    %tmp15_83 = arith.andi %r0_mask_10, %tmp15_82 : tensor<1x256xi1> loc(#loc136)
    %tmp15_84 = arith.constant 0.000000e+00 : f32 loc(#loc137)
    %tmp15_85 = arith.constant dense<0.000000e+00> : tensor<1x256xf32> loc(#loc137)
    %tmp15_86 = arith.truncf %tmp15_85 : tensor<1x256xf32> to tensor<1x256xbf16> loc(#loc137)
    %tmp15_87 = tt.load %tmp15_81, %tmp15_83, %tmp15_86 : tensor<1x256x!tt.ptr<bf16>> loc(#loc137)
    %tmp15_88 = arith.extf %tmp15_87 : tensor<1x256xbf16> to tensor<1x256xf32> loc(#loc138)
    %tmp28 = tt.splat %in_ptr5 : !tt.ptr<f32> -> tensor<1x1x!tt.ptr<f32>> loc(#loc139)
    %tmp28_89 = tt.addptr %tmp28, %xindex_7 : tensor<1x1x!tt.ptr<f32>>, tensor<1x1xi32> loc(#loc139)
    %tmp28_90 = tt.load %tmp28_89, %xmask_8 evictionPolicy = evict_last : tensor<1x1x!tt.ptr<f32>> loc(#loc140)
    %tmp2 = arith.constant 2.836600e+00 : f32 loc(#loc141)
    %tmp3 = arith.constant dense<2.836600e+00> : tensor<1x256xf32> loc(#loc142)
    %tmp3_91 = arith.mulf %tmp1_34, %tmp3 : tensor<1x256xf32> loc(#loc142)
    %tmp6 = arith.addf %tmp3_91, %tmp4_48 : tensor<1x256xf32> loc(#loc143)
    %tmp7 = arith.addf %tmp0_22, %tmp6 : tensor<1x256xf32> loc(#loc144)
    %tmp9 = arith.constant 2.876900e+00 : f32 loc(#loc145)
    %tmp10 = arith.constant dense<2.876900e+00> : tensor<1x256xf32> loc(#loc146)
    %tmp10_92 = arith.mulf %tmp8_60, %tmp10 : tensor<1x256xf32> loc(#loc146)
    %tmp13 = arith.addf %tmp10_92, %tmp11_74 : tensor<1x256xf32> loc(#loc147)
    %tmp14 = arith.constant dense<2.836600e+00> : tensor<1x256xf32> loc(#loc148)
    %tmp14_93 = arith.mulf %tmp13, %tmp14 : tensor<1x256xf32> loc(#loc148)
    %tmp17 = arith.addf %tmp14_93, %tmp15_88 : tensor<1x256xf32> loc(#loc149)
    %tmp18 = arith.addf %tmp7, %tmp17 : tensor<1x256xf32> loc(#loc150)
    %tmp19 = arith.mulf %tmp18, %tmp18 : tensor<1x256xf32> loc(#loc151)
    %tmp22 = tt.broadcast %xmask_8 : tensor<1x1xi1> -> tensor<1x256xi1> loc(#loc152)
    %tmp22_94 = arith.andi %r0_mask_10, %tmp22 : tensor<1x256xi1> loc(#loc152)
    %tmp22_95 = arith.constant 0 : i32 loc(#loc153)
    %tmp22_96 = arith.constant 0.000000e+00 : f32 loc(#loc153)
    %tmp22_97 = arith.constant dense<0.000000e+00> : tensor<1x256xf32> loc(#loc153)
    %tmp22_98 = arith.select %tmp22_94, %tmp19, %tmp22_97 : tensor<1x256xi1>, tensor<1x256xf32> loc(#loc153)
    %tmp23 = tt.call @"triton.language.standard.sum__fp32S1_256S__(1,)cconstexpr_1__(2,)cconstexpr_False__(3,)cNone"(%tmp22_98) : (tensor<1x256xf32>) -> tensor<1xf32> loc(#loc154)
    %tmp23_99 = tt.expand_dims %tmp23 {axis = 1 : i32} : tensor<1xf32> -> tensor<1x1xf32> loc(#loc155)
    %tmp24 = tt.extern_elementwise %tmp23_99 {libname = "", libpath = "", pure = true, symbol = "__nv_sqrtf"} : (tensor<1x1xf32>) -> tensor<1x1xf32> loc(#loc156)
    %tmp25 = arith.constant 9.99999974E-6 : f32 loc(#loc157)
    %tmp26 = arith.constant dense<9.99999974E-6> : tensor<1x1xf32> loc(#loc158)
    %tmp26_100 = arith.addf %tmp24, %tmp26 : tensor<1x1xf32> loc(#loc158)
    %tmp27 = tt.broadcast %tmp26_100 : tensor<1x1xf32> -> tensor<1x256xf32> loc(#loc159)
    %tmp27_101 = arith.divf %tmp18, %tmp27 : tensor<1x256xf32> loc(#loc159)
    %tmp29 = tt.extern_elementwise %tmp28_90 {libname = "", libpath = "", pure = true, symbol = "__nv_sqrtf"} : (tensor<1x1xf32>) -> tensor<1x1xf32> loc(#loc160)
    %tmp30 = tt.broadcast %tmp29 : tensor<1x1xf32> -> tensor<1x256xf32> loc(#loc161)
    %tmp30_102 = arith.mulf %tmp27_101, %tmp30 : tensor<1x256xf32> loc(#loc161)
    %c192_i32 = arith.constant 192 : i32 loc(#loc69)
    %c192_i32_103 = arith.constant 192 : i32 loc(#loc69)
    %cst = arith.constant dense<192> : tensor<1x1xi32> loc(#loc69)
    %0 = arith.muli %cst, %xindex_7 : tensor<1x1xi32> loc(#loc69)
    %1 = tt.broadcast %0 : tensor<1x1xi32> -> tensor<1x256xi32> loc(#loc70)
    %2 = arith.addi %r0_index_9, %1 : tensor<1x256xi32> loc(#loc70)
    %3 = tt.splat %out_ptr1 : !tt.ptr<bf16> -> tensor<1x256x!tt.ptr<bf16>> loc(#loc71)
    %4 = tt.addptr %3, %2 : tensor<1x256x!tt.ptr<bf16>>, tensor<1x256xi32> loc(#loc71)
    %5 = tt.broadcast %xmask_8 : tensor<1x1xi1> -> tensor<1x256xi1> loc(#loc72)
    %6 = arith.andi %r0_mask_10, %5 : tensor<1x256xi1> loc(#loc72)
    %7 = arith.truncf %tmp30_102 : tensor<1x256xf32> to tensor<1x256xbf16> loc(#loc73)
    tt.store %4, %7, %6 : tensor<1x256x!tt.ptr<bf16>> loc(#loc73)
    tt.return loc(#loc74)
  } loc(#loc)
  tt.func private @"triton.language.standard.sum__fp32S1_256S__(1,)cconstexpr_1__(2,)cconstexpr_False__(3,)cNone"(%input: tensor<1x256xf32> loc("input"(#loc75))) -> tensor<1xf32> attributes {noinline = false} {
    %0 = "tt.reduce"(%input) <{axis = 1 : i32}> ({
    ^bb0(%arg1: f32 loc(unknown), %arg2: f32 loc(unknown)):
      %2 = tt.call @triton.language.standard._sum_combine__fp32_fp32__(%arg1, %arg2) : (f32, f32) -> f32 loc(#loc76)
      tt.reduce.return %2 : f32 loc(#loc76)
    }) : (tensor<1x256xf32>) -> tensor<1xf32> loc(#loc76)
    tt.return %0 : tensor<1xf32> loc(#loc78)
  ^bb1:  // no predecessors
    %1 = ub.poison : tensor<1xf32> loc(#loc79)
    tt.return %1 : tensor<1xf32> loc(#loc79)
  } loc(#loc75)
  tt.func private @triton.language.standard._sum_combine__fp32_fp32__(%a: f32 loc("a"(#loc80)), %b: f32 loc("b"(#loc80))) -> f32 attributes {noinline = false} {
    %0 = arith.addf %a, %b : f32 loc(#loc81)
    tt.return %0 : f32 loc(#loc82)
  ^bb1:  // no predecessors
    %1 = ub.poison : f32 loc(#loc83)
    tt.return %1 : f32 loc(#loc83)
  } loc(#loc80)
} loc(#loc)
#loc1 = loc("/NHNHOME/WORKSPACE/26msit001_A/jinhyeok/loop_TTT/lact/.cache_inductor_llm/3n/c3nok3sjhfqco3672f26tigm7fxhfkfop6daolv5civppp7j2rn3.py":19:13)
#loc2 = loc("/NHNHOME/WORKSPACE/26msit001_A/jinhyeok/loop_TTT/lact/.cache_inductor_llm/3n/c3nok3sjhfqco3672f26tigm7fxhfkfop6daolv5civppp7j2rn3.py":20:15)
#loc3 = loc("/NHNHOME/WORKSPACE/26msit001_A/jinhyeok/loop_TTT/lact/.cache_inductor_llm/3n/c3nok3sjhfqco3672f26tigm7fxhfkfop6daolv5civppp7j2rn3.py":24:28)
#loc4 = loc("/NHNHOME/WORKSPACE/26msit001_A/jinhyeok/loop_TTT/lact/.cache_inductor_llm/3n/c3nok3sjhfqco3672f26tigm7fxhfkfop6daolv5civppp7j2rn3.py":24:33)
#loc5 = loc("/NHNHOME/WORKSPACE/26msit001_A/jinhyeok/loop_TTT/lact/.cache_inductor_llm/3n/c3nok3sjhfqco3672f26tigm7fxhfkfop6daolv5civppp7j2rn3.py":25:36)
#loc6 = loc("/NHNHOME/WORKSPACE/26msit001_A/jinhyeok/loop_TTT/lact/.cache_inductor_llm/3n/c3nok3sjhfqco3672f26tigm7fxhfkfop6daolv5civppp7j2rn3.py":25:44)
#loc7 = loc("/NHNHOME/WORKSPACE/26msit001_A/jinhyeok/loop_TTT/lact/.cache_inductor_llm/3n/c3nok3sjhfqco3672f26tigm7fxhfkfop6daolv5civppp7j2rn3.py":25:23)
#loc8 = loc("/NHNHOME/WORKSPACE/26msit001_A/jinhyeok/loop_TTT/lact/.cache_inductor_llm/3n/c3nok3sjhfqco3672f26tigm7fxhfkfop6daolv5civppp7j2rn3.py":26:21)
#loc9 = loc("/NHNHOME/WORKSPACE/26msit001_A/jinhyeok/loop_TTT/lact/.cache_inductor_llm/3n/c3nok3sjhfqco3672f26tigm7fxhfkfop6daolv5civppp7j2rn3.py":27:28)
#loc10 = loc("/NHNHOME/WORKSPACE/26msit001_A/jinhyeok/loop_TTT/lact/.cache_inductor_llm/3n/c3nok3sjhfqco3672f26tigm7fxhfkfop6daolv5civppp7j2rn3.py":27:38)
#loc11 = loc("/NHNHOME/WORKSPACE/26msit001_A/jinhyeok/loop_TTT/lact/.cache_inductor_llm/3n/c3nok3sjhfqco3672f26tigm7fxhfkfop6daolv5civppp7j2rn3.py":28:16)
#loc12 = loc("/NHNHOME/WORKSPACE/26msit001_A/jinhyeok/loop_TTT/lact/.cache_inductor_llm/3n/c3nok3sjhfqco3672f26tigm7fxhfkfop6daolv5civppp7j2rn3.py":29:25)
#loc13 = loc("/NHNHOME/WORKSPACE/26msit001_A/jinhyeok/loop_TTT/lact/.cache_inductor_llm/3n/c3nok3sjhfqco3672f26tigm7fxhfkfop6daolv5civppp7j2rn3.py":34:45)
#loc14 = loc("/NHNHOME/WORKSPACE/26msit001_A/jinhyeok/loop_TTT/lact/.cache_inductor_llm/3n/c3nok3sjhfqco3672f26tigm7fxhfkfop6daolv5civppp7j2rn3.py":34:41)
#loc15 = loc("/NHNHOME/WORKSPACE/26msit001_A/jinhyeok/loop_TTT/lact/.cache_inductor_llm/3n/c3nok3sjhfqco3672f26tigm7fxhfkfop6daolv5civppp7j2rn3.py":34:34)
#loc16 = loc("/NHNHOME/WORKSPACE/26msit001_A/jinhyeok/loop_TTT/lact/.cache_inductor_llm/3n/c3nok3sjhfqco3672f26tigm7fxhfkfop6daolv5civppp7j2rn3.py":34:60)
#loc17 = loc("/NHNHOME/WORKSPACE/26msit001_A/jinhyeok/loop_TTT/lact/.cache_inductor_llm/3n/c3nok3sjhfqco3672f26tigm7fxhfkfop6daolv5civppp7j2rn3.py":34:50)
#loc18 = loc("/NHNHOME/WORKSPACE/26msit001_A/jinhyeok/loop_TTT/lact/.cache_inductor_llm/3n/c3nok3sjhfqco3672f26tigm7fxhfkfop6daolv5civppp7j2rn3.py":35:41)
#loc19 = loc("/NHNHOME/WORKSPACE/26msit001_A/jinhyeok/loop_TTT/lact/.cache_inductor_llm/3n/c3nok3sjhfqco3672f26tigm7fxhfkfop6daolv5civppp7j2rn3.py":35:37)
#loc20 = loc("/NHNHOME/WORKSPACE/26msit001_A/jinhyeok/loop_TTT/lact/.cache_inductor_llm/3n/c3nok3sjhfqco3672f26tigm7fxhfkfop6daolv5civppp7j2rn3.py":35:30)
#loc21 = loc("/NHNHOME/WORKSPACE/26msit001_A/jinhyeok/loop_TTT/lact/.cache_inductor_llm/3n/c3nok3sjhfqco3672f26tigm7fxhfkfop6daolv5civppp7j2rn3.py":35:56)
#loc22 = loc("/NHNHOME/WORKSPACE/26msit001_A/jinhyeok/loop_TTT/lact/.cache_inductor_llm/3n/c3nok3sjhfqco3672f26tigm7fxhfkfop6daolv5civppp7j2rn3.py":35:46)
#loc23 = loc("/NHNHOME/WORKSPACE/26msit001_A/jinhyeok/loop_TTT/lact/.cache_inductor_llm/3n/c3nok3sjhfqco3672f26tigm7fxhfkfop6daolv5civppp7j2rn3.py":36:41)
#loc24 = loc("/NHNHOME/WORKSPACE/26msit001_A/jinhyeok/loop_TTT/lact/.cache_inductor_llm/3n/c3nok3sjhfqco3672f26tigm7fxhfkfop6daolv5civppp7j2rn3.py":36:37)
#loc25 = loc("/NHNHOME/WORKSPACE/26msit001_A/jinhyeok/loop_TTT/lact/.cache_inductor_llm/3n/c3nok3sjhfqco3672f26tigm7fxhfkfop6daolv5civppp7j2rn3.py":36:30)
#loc26 = loc("/NHNHOME/WORKSPACE/26msit001_A/jinhyeok/loop_TTT/lact/.cache_inductor_llm/3n/c3nok3sjhfqco3672f26tigm7fxhfkfop6daolv5civppp7j2rn3.py":36:56)
#loc27 = loc("/NHNHOME/WORKSPACE/26msit001_A/jinhyeok/loop_TTT/lact/.cache_inductor_llm/3n/c3nok3sjhfqco3672f26tigm7fxhfkfop6daolv5civppp7j2rn3.py":36:46)
#loc28 = loc("/NHNHOME/WORKSPACE/26msit001_A/jinhyeok/loop_TTT/lact/.cache_inductor_llm/3n/c3nok3sjhfqco3672f26tigm7fxhfkfop6daolv5civppp7j2rn3.py":36:77)
#loc29 = loc("/NHNHOME/WORKSPACE/26msit001_A/jinhyeok/loop_TTT/lact/.cache_inductor_llm/3n/c3nok3sjhfqco3672f26tigm7fxhfkfop6daolv5civppp7j2rn3.py":37:41)
#loc30 = loc("/NHNHOME/WORKSPACE/26msit001_A/jinhyeok/loop_TTT/lact/.cache_inductor_llm/3n/c3nok3sjhfqco3672f26tigm7fxhfkfop6daolv5civppp7j2rn3.py":37:37)
#loc31 = loc("/NHNHOME/WORKSPACE/26msit001_A/jinhyeok/loop_TTT/lact/.cache_inductor_llm/3n/c3nok3sjhfqco3672f26tigm7fxhfkfop6daolv5civppp7j2rn3.py":37:30)
#loc32 = loc("/NHNHOME/WORKSPACE/26msit001_A/jinhyeok/loop_TTT/lact/.cache_inductor_llm/3n/c3nok3sjhfqco3672f26tigm7fxhfkfop6daolv5civppp7j2rn3.py":37:56)
#loc33 = loc("/NHNHOME/WORKSPACE/26msit001_A/jinhyeok/loop_TTT/lact/.cache_inductor_llm/3n/c3nok3sjhfqco3672f26tigm7fxhfkfop6daolv5civppp7j2rn3.py":37:46)
#loc34 = loc("/NHNHOME/WORKSPACE/26msit001_A/jinhyeok/loop_TTT/lact/.cache_inductor_llm/3n/c3nok3sjhfqco3672f26tigm7fxhfkfop6daolv5civppp7j2rn3.py":38:42)
#loc35 = loc("/NHNHOME/WORKSPACE/26msit001_A/jinhyeok/loop_TTT/lact/.cache_inductor_llm/3n/c3nok3sjhfqco3672f26tigm7fxhfkfop6daolv5civppp7j2rn3.py":38:38)
#loc36 = loc("/NHNHOME/WORKSPACE/26msit001_A/jinhyeok/loop_TTT/lact/.cache_inductor_llm/3n/c3nok3sjhfqco3672f26tigm7fxhfkfop6daolv5civppp7j2rn3.py":38:31)
#loc37 = loc("/NHNHOME/WORKSPACE/26msit001_A/jinhyeok/loop_TTT/lact/.cache_inductor_llm/3n/c3nok3sjhfqco3672f26tigm7fxhfkfop6daolv5civppp7j2rn3.py":38:57)
#loc38 = loc("/NHNHOME/WORKSPACE/26msit001_A/jinhyeok/loop_TTT/lact/.cache_inductor_llm/3n/c3nok3sjhfqco3672f26tigm7fxhfkfop6daolv5civppp7j2rn3.py":38:47)
#loc39 = loc("/NHNHOME/WORKSPACE/26msit001_A/jinhyeok/loop_TTT/lact/.cache_inductor_llm/3n/c3nok3sjhfqco3672f26tigm7fxhfkfop6daolv5civppp7j2rn3.py":38:78)
#loc40 = loc("/NHNHOME/WORKSPACE/26msit001_A/jinhyeok/loop_TTT/lact/.cache_inductor_llm/3n/c3nok3sjhfqco3672f26tigm7fxhfkfop6daolv5civppp7j2rn3.py":39:42)
#loc41 = loc("/NHNHOME/WORKSPACE/26msit001_A/jinhyeok/loop_TTT/lact/.cache_inductor_llm/3n/c3nok3sjhfqco3672f26tigm7fxhfkfop6daolv5civppp7j2rn3.py":39:38)
#loc42 = loc("/NHNHOME/WORKSPACE/26msit001_A/jinhyeok/loop_TTT/lact/.cache_inductor_llm/3n/c3nok3sjhfqco3672f26tigm7fxhfkfop6daolv5civppp7j2rn3.py":39:31)
#loc43 = loc("/NHNHOME/WORKSPACE/26msit001_A/jinhyeok/loop_TTT/lact/.cache_inductor_llm/3n/c3nok3sjhfqco3672f26tigm7fxhfkfop6daolv5civppp7j2rn3.py":39:57)
#loc44 = loc("/NHNHOME/WORKSPACE/26msit001_A/jinhyeok/loop_TTT/lact/.cache_inductor_llm/3n/c3nok3sjhfqco3672f26tigm7fxhfkfop6daolv5civppp7j2rn3.py":39:47)
#loc45 = loc("/NHNHOME/WORKSPACE/26msit001_A/jinhyeok/loop_TTT/lact/.cache_inductor_llm/3n/c3nok3sjhfqco3672f26tigm7fxhfkfop6daolv5civppp7j2rn3.py":39:78)
#loc46 = loc("/NHNHOME/WORKSPACE/26msit001_A/jinhyeok/loop_TTT/lact/.cache_inductor_llm/3n/c3nok3sjhfqco3672f26tigm7fxhfkfop6daolv5civppp7j2rn3.py":40:31)
#loc47 = loc("/NHNHOME/WORKSPACE/26msit001_A/jinhyeok/loop_TTT/lact/.cache_inductor_llm/3n/c3nok3sjhfqco3672f26tigm7fxhfkfop6daolv5civppp7j2rn3.py":40:36)
#loc48 = loc("/NHNHOME/WORKSPACE/26msit001_A/jinhyeok/loop_TTT/lact/.cache_inductor_llm/3n/c3nok3sjhfqco3672f26tigm7fxhfkfop6daolv5civppp7j2rn3.py":41:11)
#loc49 = loc("/NHNHOME/WORKSPACE/26msit001_A/jinhyeok/loop_TTT/lact/.cache_inductor_llm/3n/c3nok3sjhfqco3672f26tigm7fxhfkfop6daolv5civppp7j2rn3.py":42:18)
#loc50 = loc("/NHNHOME/WORKSPACE/26msit001_A/jinhyeok/loop_TTT/lact/.cache_inductor_llm/3n/c3nok3sjhfqco3672f26tigm7fxhfkfop6daolv5civppp7j2rn3.py":44:18)
#loc51 = loc("/NHNHOME/WORKSPACE/26msit001_A/jinhyeok/loop_TTT/lact/.cache_inductor_llm/3n/c3nok3sjhfqco3672f26tigm7fxhfkfop6daolv5civppp7j2rn3.py":45:18)
#loc52 = loc("/NHNHOME/WORKSPACE/26msit001_A/jinhyeok/loop_TTT/lact/.cache_inductor_llm/3n/c3nok3sjhfqco3672f26tigm7fxhfkfop6daolv5civppp7j2rn3.py":46:11)
#loc53 = loc("/NHNHOME/WORKSPACE/26msit001_A/jinhyeok/loop_TTT/lact/.cache_inductor_llm/3n/c3nok3sjhfqco3672f26tigm7fxhfkfop6daolv5civppp7j2rn3.py":47:19)
#loc54 = loc("/NHNHOME/WORKSPACE/26msit001_A/jinhyeok/loop_TTT/lact/.cache_inductor_llm/3n/c3nok3sjhfqco3672f26tigm7fxhfkfop6daolv5civppp7j2rn3.py":49:20)
#loc55 = loc("/NHNHOME/WORKSPACE/26msit001_A/jinhyeok/loop_TTT/lact/.cache_inductor_llm/3n/c3nok3sjhfqco3672f26tigm7fxhfkfop6daolv5civppp7j2rn3.py":50:20)
#loc56 = loc("/NHNHOME/WORKSPACE/26msit001_A/jinhyeok/loop_TTT/lact/.cache_inductor_llm/3n/c3nok3sjhfqco3672f26tigm7fxhfkfop6daolv5civppp7j2rn3.py":52:20)
#loc57 = loc("/NHNHOME/WORKSPACE/26msit001_A/jinhyeok/loop_TTT/lact/.cache_inductor_llm/3n/c3nok3sjhfqco3672f26tigm7fxhfkfop6daolv5civppp7j2rn3.py":53:19)
#loc58 = loc("/NHNHOME/WORKSPACE/26msit001_A/jinhyeok/loop_TTT/lact/.cache_inductor_llm/3n/c3nok3sjhfqco3672f26tigm7fxhfkfop6daolv5civppp7j2rn3.py":54:20)
#loc59 = loc("/NHNHOME/WORKSPACE/26msit001_A/jinhyeok/loop_TTT/lact/.cache_inductor_llm/3n/c3nok3sjhfqco3672f26tigm7fxhfkfop6daolv5civppp7j2rn3.py":56:31)
#loc60 = loc("/NHNHOME/WORKSPACE/26msit001_A/jinhyeok/loop_TTT/lact/.cache_inductor_llm/3n/c3nok3sjhfqco3672f26tigm7fxhfkfop6daolv5civppp7j2rn3.py":56:45)
#loc61 = loc("/NHNHOME/WORKSPACE/26msit001_A/jinhyeok/loop_TTT/lact/.cache_inductor_llm/3n/c3nok3sjhfqco3672f26tigm7fxhfkfop6daolv5civppp7j2rn3.py":57:26)
#loc62 = loc("/NHNHOME/WORKSPACE/26msit001_A/jinhyeok/loop_TTT/lact/.cache_inductor_llm/3n/c3nok3sjhfqco3672f26tigm7fxhfkfop6daolv5civppp7j2rn3.py":57:29)
#loc63 = loc("/NHNHOME/WORKSPACE/26msit001_A/jinhyeok/loop_TTT/lact/.cache_inductor_llm/3n/c3nok3sjhfqco3672f26tigm7fxhfkfop6daolv5civppp7j2rn3.py":58:27)
#loc64 = loc("/NHNHOME/WORKSPACE/26msit001_A/jinhyeok/loop_TTT/lact/.cache_inductor_llm/3n/c3nok3sjhfqco3672f26tigm7fxhfkfop6daolv5civppp7j2rn3.py":59:12)
#loc65 = loc("/NHNHOME/WORKSPACE/26msit001_A/jinhyeok/loop_TTT/lact/.cache_inductor_llm/3n/c3nok3sjhfqco3672f26tigm7fxhfkfop6daolv5civppp7j2rn3.py":60:20)
#loc66 = loc("/NHNHOME/WORKSPACE/26msit001_A/jinhyeok/loop_TTT/lact/.cache_inductor_llm/3n/c3nok3sjhfqco3672f26tigm7fxhfkfop6daolv5civppp7j2rn3.py":61:21)
#loc67 = loc("/NHNHOME/WORKSPACE/26msit001_A/jinhyeok/loop_TTT/lact/.cache_inductor_llm/3n/c3nok3sjhfqco3672f26tigm7fxhfkfop6daolv5civppp7j2rn3.py":62:27)
#loc68 = loc("/NHNHOME/WORKSPACE/26msit001_A/jinhyeok/loop_TTT/lact/.cache_inductor_llm/3n/c3nok3sjhfqco3672f26tigm7fxhfkfop6daolv5civppp7j2rn3.py":63:20)
#loc69 = loc("/NHNHOME/WORKSPACE/26msit001_A/jinhyeok/loop_TTT/lact/.cache_inductor_llm/3n/c3nok3sjhfqco3672f26tigm7fxhfkfop6daolv5civppp7j2rn3.py":65:36)
#loc70 = loc("/NHNHOME/WORKSPACE/26msit001_A/jinhyeok/loop_TTT/lact/.cache_inductor_llm/3n/c3nok3sjhfqco3672f26tigm7fxhfkfop6daolv5civppp7j2rn3.py":65:32)
#loc71 = loc("/NHNHOME/WORKSPACE/26msit001_A/jinhyeok/loop_TTT/lact/.cache_inductor_llm/3n/c3nok3sjhfqco3672f26tigm7fxhfkfop6daolv5civppp7j2rn3.py":65:25)
#loc72 = loc("/NHNHOME/WORKSPACE/26msit001_A/jinhyeok/loop_TTT/lact/.cache_inductor_llm/3n/c3nok3sjhfqco3672f26tigm7fxhfkfop6daolv5civppp7j2rn3.py":65:58)
#loc73 = loc("/NHNHOME/WORKSPACE/26msit001_A/jinhyeok/loop_TTT/lact/.cache_inductor_llm/3n/c3nok3sjhfqco3672f26tigm7fxhfkfop6daolv5civppp7j2rn3.py":65:48)
#loc74 = loc("/NHNHOME/WORKSPACE/26msit001_A/jinhyeok/loop_TTT/lact/.cache_inductor_llm/3n/c3nok3sjhfqco3672f26tigm7fxhfkfop6daolv5civppp7j2rn3.py":65:4)
#loc76 = loc("/NHNHOME/WORKSPACE/26msit001_A/jinhyeok/TTT_camera_embedding/.venv_llm/lib/python3.12/site-packages/triton/language/standard.py":291:36)
#loc78 = loc("/NHNHOME/WORKSPACE/26msit001_A/jinhyeok/TTT_camera_embedding/.venv_llm/lib/python3.12/site-packages/triton/language/standard.py":291:11)
#loc79 = loc("/NHNHOME/WORKSPACE/26msit001_A/jinhyeok/TTT_camera_embedding/.venv_llm/lib/python3.12/site-packages/triton/language/standard.py":291:4)
#loc81 = loc("/NHNHOME/WORKSPACE/26msit001_A/jinhyeok/TTT_camera_embedding/.venv_llm/lib/python3.12/site-packages/triton/language/standard.py":261:15)
#loc82 = loc("/NHNHOME/WORKSPACE/26msit001_A/jinhyeok/TTT_camera_embedding/.venv_llm/lib/python3.12/site-packages/triton/language/standard.py":261:11)
#loc83 = loc("/NHNHOME/WORKSPACE/26msit001_A/jinhyeok/TTT_camera_embedding/.venv_llm/lib/python3.12/site-packages/triton/language/standard.py":261:4)
#loc94 = loc("xnumel"(#loc1))
#loc95 = loc("r0_numel"(#loc2))
#loc96 = loc("xoffset"(#loc3))
#loc97 = loc("xoffset"(#loc4))
#loc98 = loc("xindex"(#loc5))
#loc99 = loc("xindex"(#loc6))
#loc100 = loc("xindex"(#loc7))
#loc101 = loc("xmask"(#loc8))
#loc102 = loc("r0_index"(#loc9))
#loc103 = loc("r0_index"(#loc10))
#loc104 = loc("r0_offset"(#loc11))
#loc105 = loc("r0_mask"(#loc12))
#loc106 = loc("tmp0"(#loc13))
#loc107 = loc("tmp0"(#loc14))
#loc108 = loc("tmp0"(#loc15))
#loc109 = loc("tmp0"(#loc16))
#loc110 = loc("tmp0"(#loc17))
#loc111 = loc("tmp1"(#loc18))
#loc112 = loc("tmp1"(#loc19))
#loc113 = loc("tmp1"(#loc20))
#loc114 = loc("tmp1"(#loc21))
#loc115 = loc("tmp1"(#loc22))
#loc116 = loc("tmp4"(#loc23))
#loc117 = loc("tmp4"(#loc24))
#loc118 = loc("tmp4"(#loc25))
#loc119 = loc("tmp4"(#loc26))
#loc120 = loc("tmp4"(#loc27))
#loc121 = loc("tmp4"(#loc28))
#loc122 = loc("tmp8"(#loc29))
#loc123 = loc("tmp8"(#loc30))
#loc124 = loc("tmp8"(#loc31))
#loc125 = loc("tmp8"(#loc32))
#loc126 = loc("tmp8"(#loc33))
#loc127 = loc("tmp11"(#loc34))
#loc128 = loc("tmp11"(#loc35))
#loc129 = loc("tmp11"(#loc36))
#loc130 = loc("tmp11"(#loc37))
#loc131 = loc("tmp11"(#loc38))
#loc132 = loc("tmp11"(#loc39))
#loc133 = loc("tmp15"(#loc40))
#loc134 = loc("tmp15"(#loc41))
#loc135 = loc("tmp15"(#loc42))
#loc136 = loc("tmp15"(#loc43))
#loc137 = loc("tmp15"(#loc44))
#loc138 = loc("tmp15"(#loc45))
#loc139 = loc("tmp28"(#loc46))
#loc140 = loc("tmp28"(#loc47))
#loc141 = loc("tmp2"(#loc48))
#loc142 = loc("tmp3"(#loc49))
#loc143 = loc("tmp6"(#loc50))
#loc144 = loc("tmp7"(#loc51))
#loc145 = loc("tmp9"(#loc52))
#loc146 = loc("tmp10"(#loc53))
#loc147 = loc("tmp13"(#loc54))
#loc148 = loc("tmp14"(#loc55))
#loc149 = loc("tmp17"(#loc56))
#loc150 = loc("tmp18"(#loc57))
#loc151 = loc("tmp19"(#loc58))
#loc152 = loc("tmp22"(#loc59))
#loc153 = loc("tmp22"(#loc60))
#loc154 = loc("tmp23"(#loc61))
#loc155 = loc("tmp23"(#loc62))
#loc156 = loc("tmp24"(#loc63))
#loc157 = loc("tmp25"(#loc64))
#loc158 = loc("tmp26"(#loc65))
#loc159 = loc("tmp27"(#loc66))
#loc160 = loc("tmp29"(#loc67))
#loc161 = loc("tmp30"(#loc68))
