#loc = loc("/NHNHOME/WORKSPACE/26msit001_A/jinhyeok/loop_TTT/lact/.cache_inductor_llm/2i/c2i7lfj6c3szh57p7nnju2inoojtra24lvh6csv7qz7ulu6q5bu6.py":18:0)
#loc53 = loc("in_ptr0"(#loc))
#loc54 = loc("in_ptr1"(#loc))
#loc55 = loc("in_ptr2"(#loc))
#loc56 = loc("in_ptr3"(#loc))
#loc57 = loc("in_ptr4"(#loc))
#loc58 = loc("in_ptr5"(#loc))
#loc59 = loc("out_ptr0"(#loc))
#loc60 = loc("xnumel"(#loc))
module {
  tt.func public @triton_poi_fused_add_slice_backward_42(%in_ptr0: !tt.ptr<bf16> {tt.divisibility = 16 : i32} loc("in_ptr0"(#loc)), %in_ptr1: !tt.ptr<bf16> {tt.divisibility = 16 : i32} loc("in_ptr1"(#loc)), %in_ptr2: !tt.ptr<bf16> {tt.divisibility = 16 : i32} loc("in_ptr2"(#loc)), %in_ptr3: !tt.ptr<bf16> {tt.divisibility = 16 : i32} loc("in_ptr3"(#loc)), %in_ptr4: !tt.ptr<bf16> {tt.divisibility = 16 : i32} loc("in_ptr4"(#loc)), %in_ptr5: !tt.ptr<bf16> {tt.divisibility = 16 : i32} loc("in_ptr5"(#loc)), %out_ptr0: !tt.ptr<bf16> {tt.divisibility = 16 : i32} loc("out_ptr0"(#loc)), %xnumel: i32 {tt.divisibility = 16 : i32} loc("xnumel"(#loc))) attributes {noinline = false} {
    %cst = arith.constant dense<0.000000e+00> : tensor<1024xbf16> loc(#loc1)
    %cst_0 = arith.constant dense<-1024> : tensor<1024xi32> loc(#loc1)
    %cst_1 = arith.constant dense<1024> : tensor<1024xi64> loc(#loc1)
    %cst_2 = arith.constant dense<0.000000e+00> : tensor<1024xf32> loc(#loc1)
    %cst_3 = arith.constant dense<1024> : tensor<1024xi32> loc(#loc1)
    %cst_4 = arith.constant dense<-2048> : tensor<1024xi32> loc(#loc1)
    %tmp4 = arith.constant dense<3072> : tensor<1024xi64> loc(#loc61)
    %cst_5 = arith.constant dense<2048> : tensor<1024xi64> loc(#loc1)
    %cst_6 = arith.constant dense<4096> : tensor<1024xi32> loc(#loc1)
    %c1024_i32 = arith.constant 1024 : i32 loc(#loc1)
    %xoffset = tt.get_program_id x : i32 loc(#loc62)
    %xoffset_7 = arith.muli %xoffset, %c1024_i32 : i32 loc(#loc63)
    %xindex = tt.make_range {end = 1024 : i32, start = 0 : i32} : tensor<1024xi32> loc(#loc64)
    %xindex_8 = tt.splat %xoffset_7 : i32 -> tensor<1024xi32> loc(#loc65)
    %xindex_9 = arith.addi %xindex_8, %xindex : tensor<1024xi32> loc(#loc65)
    %x0 = arith.remsi %xindex_9, %cst_6 : tensor<1024xi32> loc(#loc66)
    %x1 = arith.divsi %xindex_9, %cst_6 : tensor<1024xi32> loc(#loc67)
    %tmp2 = arith.extsi %x0 : tensor<1024xi32> to tensor<1024xi64> loc(#loc68)
    %tmp2_10 = arith.cmpi sge, %tmp2, %cst_5 : tensor<1024xi64> loc(#loc68)
    %tmp4_11 = arith.cmpi slt, %tmp2, %tmp4 : tensor<1024xi64> loc(#loc61)
    %tmp5 = arith.andi %tmp2_10, %tmp4_11 : tensor<1024xi1> loc(#loc69)
    %tmp6 = arith.addi %x0, %cst_4 : tensor<1024xi32> loc(#loc70)
    %tmp6_12 = arith.muli %x1, %cst_3 : tensor<1024xi32> loc(#loc71)
    %tmp6_13 = arith.addi %tmp6, %tmp6_12 : tensor<1024xi32> loc(#loc72)
    %tmp6_14 = tt.splat %in_ptr0 : !tt.ptr<bf16> -> tensor<1024x!tt.ptr<bf16>> loc(#loc73)
    %tmp6_15 = tt.addptr %tmp6_14, %tmp6_13 : tensor<1024x!tt.ptr<bf16>>, tensor<1024xi32> loc(#loc73)
    %tmp6_16 = tt.load %tmp6_15, %tmp5, %cst : tensor<1024x!tt.ptr<bf16>> loc(#loc74)
    %tmp6_17 = arith.extf %tmp6_16 : tensor<1024xbf16> to tensor<1024xf32> loc(#loc75)
    %tmp7 = tt.splat %in_ptr1 : !tt.ptr<bf16> -> tensor<1024x!tt.ptr<bf16>> loc(#loc76)
    %tmp7_18 = tt.addptr %tmp7, %tmp6_13 : tensor<1024x!tt.ptr<bf16>>, tensor<1024xi32> loc(#loc76)
    %tmp7_19 = tt.load %tmp7_18, %tmp5, %cst : tensor<1024x!tt.ptr<bf16>> loc(#loc77)
    %tmp7_20 = arith.extf %tmp7_19 : tensor<1024xbf16> to tensor<1024xf32> loc(#loc78)
    %tmp8 = arith.addf %tmp6_17, %tmp7_20 : tensor<1024xf32> loc(#loc79)
    %tmp12 = arith.select %tmp5, %tmp8, %cst_2 : tensor<1024xi1>, tensor<1024xf32> loc(#loc109)
    %tmp14 = arith.cmpi sge, %tmp2, %cst_1 : tensor<1024xi64> loc(#loc82)
    %tmp15 = arith.cmpi slt, %tmp2, %cst_5 : tensor<1024xi64> loc(#loc83)
    %tmp16 = arith.andi %tmp14, %tmp15 : tensor<1024xi1> loc(#loc84)
    %tmp17 = arith.addi %x0, %cst_0 : tensor<1024xi32> loc(#loc85)
    %tmp17_21 = arith.addi %tmp17, %tmp6_12 : tensor<1024xi32> loc(#loc86)
    %tmp17_22 = tt.splat %in_ptr2 : !tt.ptr<bf16> -> tensor<1024x!tt.ptr<bf16>> loc(#loc87)
    %tmp17_23 = tt.addptr %tmp17_22, %tmp17_21 : tensor<1024x!tt.ptr<bf16>>, tensor<1024xi32> loc(#loc87)
    %tmp17_24 = tt.load %tmp17_23, %tmp16, %cst : tensor<1024x!tt.ptr<bf16>> loc(#loc88)
    %tmp17_25 = arith.extf %tmp17_24 : tensor<1024xbf16> to tensor<1024xf32> loc(#loc89)
    %tmp18 = tt.splat %in_ptr3 : !tt.ptr<bf16> -> tensor<1024x!tt.ptr<bf16>> loc(#loc90)
    %tmp18_26 = tt.addptr %tmp18, %tmp17_21 : tensor<1024x!tt.ptr<bf16>>, tensor<1024xi32> loc(#loc90)
    %tmp18_27 = tt.load %tmp18_26, %tmp16, %cst : tensor<1024x!tt.ptr<bf16>> loc(#loc91)
    %tmp18_28 = arith.extf %tmp18_27 : tensor<1024xbf16> to tensor<1024xf32> loc(#loc92)
    %tmp19 = arith.addf %tmp17_25, %tmp18_28 : tensor<1024xf32> loc(#loc93)
    %tmp22 = arith.select %tmp16, %tmp19, %cst_2 : tensor<1024xi1>, tensor<1024xf32> loc(#loc110)
    %tmp23 = arith.addf %tmp12, %tmp22 : tensor<1024xf32> loc(#loc96)
    %tmp24 = arith.cmpi slt, %tmp2, %cst_1 : tensor<1024xi64> loc(#loc97)
    %tmp25 = arith.addi %x0, %tmp6_12 : tensor<1024xi32> loc(#loc98)
    %tmp25_29 = tt.splat %in_ptr4 : !tt.ptr<bf16> -> tensor<1024x!tt.ptr<bf16>> loc(#loc99)
    %tmp25_30 = tt.addptr %tmp25_29, %tmp25 : tensor<1024x!tt.ptr<bf16>>, tensor<1024xi32> loc(#loc99)
    %tmp25_31 = tt.load %tmp25_30, %tmp24, %cst : tensor<1024x!tt.ptr<bf16>> loc(#loc100)
    %tmp25_32 = arith.extf %tmp25_31 : tensor<1024xbf16> to tensor<1024xf32> loc(#loc101)
    %tmp26 = tt.splat %in_ptr5 : !tt.ptr<bf16> -> tensor<1024x!tt.ptr<bf16>> loc(#loc102)
    %tmp26_33 = tt.addptr %tmp26, %tmp25 : tensor<1024x!tt.ptr<bf16>>, tensor<1024xi32> loc(#loc102)
    %tmp26_34 = tt.load %tmp26_33, %tmp24, %cst : tensor<1024x!tt.ptr<bf16>> loc(#loc103)
    %tmp26_35 = arith.extf %tmp26_34 : tensor<1024xbf16> to tensor<1024xf32> loc(#loc104)
    %tmp27 = arith.addf %tmp25_32, %tmp26_35 : tensor<1024xf32> loc(#loc105)
    %tmp30 = arith.select %tmp24, %tmp27, %cst_2 : tensor<1024xi1>, tensor<1024xf32> loc(#loc111)
    %tmp31 = arith.addf %tmp23, %tmp30 : tensor<1024xf32> loc(#loc108)
    %0 = tt.splat %out_ptr0 : !tt.ptr<bf16> -> tensor<1024x!tt.ptr<bf16>> loc(#loc50)
    %1 = tt.addptr %0, %xindex_9 : tensor<1024x!tt.ptr<bf16>>, tensor<1024xi32> loc(#loc50)
    %2 = arith.truncf %tmp31 : tensor<1024xf32> to tensor<1024xbf16> loc(#loc51)
    tt.store %1, %2 : tensor<1024x!tt.ptr<bf16>> loc(#loc51)
    tt.return loc(#loc52)
  } loc(#loc)
} loc(#loc)
#loc1 = loc(unknown)
#loc2 = loc("/NHNHOME/WORKSPACE/26msit001_A/jinhyeok/loop_TTT/lact/.cache_inductor_llm/2i/c2i7lfj6c3szh57p7nnju2inoojtra24lvh6csv7qz7ulu6q5bu6.py":30:18)
#loc3 = loc("/NHNHOME/WORKSPACE/26msit001_A/jinhyeok/loop_TTT/lact/.cache_inductor_llm/2i/c2i7lfj6c3szh57p7nnju2inoojtra24lvh6csv7qz7ulu6q5bu6.py":20:28)
#loc4 = loc("/NHNHOME/WORKSPACE/26msit001_A/jinhyeok/loop_TTT/lact/.cache_inductor_llm/2i/c2i7lfj6c3szh57p7nnju2inoojtra24lvh6csv7qz7ulu6q5bu6.py":20:33)
#loc5 = loc("/NHNHOME/WORKSPACE/26msit001_A/jinhyeok/loop_TTT/lact/.cache_inductor_llm/2i/c2i7lfj6c3szh57p7nnju2inoojtra24lvh6csv7qz7ulu6q5bu6.py":21:36)
#loc6 = loc("/NHNHOME/WORKSPACE/26msit001_A/jinhyeok/loop_TTT/lact/.cache_inductor_llm/2i/c2i7lfj6c3szh57p7nnju2inoojtra24lvh6csv7qz7ulu6q5bu6.py":21:23)
#loc7 = loc("/NHNHOME/WORKSPACE/26msit001_A/jinhyeok/loop_TTT/lact/.cache_inductor_llm/2i/c2i7lfj6c3szh57p7nnju2inoojtra24lvh6csv7qz7ulu6q5bu6.py":23:19)
#loc8 = loc("/NHNHOME/WORKSPACE/26msit001_A/jinhyeok/loop_TTT/lact/.cache_inductor_llm/2i/c2i7lfj6c3szh57p7nnju2inoojtra24lvh6csv7qz7ulu6q5bu6.py":24:19)
#loc9 = loc("/NHNHOME/WORKSPACE/26msit001_A/jinhyeok/loop_TTT/lact/.cache_inductor_llm/2i/c2i7lfj6c3szh57p7nnju2inoojtra24lvh6csv7qz7ulu6q5bu6.py":28:19)
#loc10 = loc("/NHNHOME/WORKSPACE/26msit001_A/jinhyeok/loop_TTT/lact/.cache_inductor_llm/2i/c2i7lfj6c3szh57p7nnju2inoojtra24lvh6csv7qz7ulu6q5bu6.py":31:18)
#loc11 = loc("/NHNHOME/WORKSPACE/26msit001_A/jinhyeok/loop_TTT/lact/.cache_inductor_llm/2i/c2i7lfj6c3szh57p7nnju2inoojtra24lvh6csv7qz7ulu6q5bu6.py":32:40)
#loc12 = loc("/NHNHOME/WORKSPACE/26msit001_A/jinhyeok/loop_TTT/lact/.cache_inductor_llm/2i/c2i7lfj6c3szh57p7nnju2inoojtra24lvh6csv7qz7ulu6q5bu6.py":32:50)
#loc13 = loc("/NHNHOME/WORKSPACE/26msit001_A/jinhyeok/loop_TTT/lact/.cache_inductor_llm/2i/c2i7lfj6c3szh57p7nnju2inoojtra24lvh6csv7qz7ulu6q5bu6.py":32:45)
#loc14 = loc("/NHNHOME/WORKSPACE/26msit001_A/jinhyeok/loop_TTT/lact/.cache_inductor_llm/2i/c2i7lfj6c3szh57p7nnju2inoojtra24lvh6csv7qz7ulu6q5bu6.py":32:30)
#loc15 = loc("/NHNHOME/WORKSPACE/26msit001_A/jinhyeok/loop_TTT/lact/.cache_inductor_llm/2i/c2i7lfj6c3szh57p7nnju2inoojtra24lvh6csv7qz7ulu6q5bu6.py":32:55)
#loc16 = loc("/NHNHOME/WORKSPACE/26msit001_A/jinhyeok/loop_TTT/lact/.cache_inductor_llm/2i/c2i7lfj6c3szh57p7nnju2inoojtra24lvh6csv7qz7ulu6q5bu6.py":32:75)
#loc17 = loc("/NHNHOME/WORKSPACE/26msit001_A/jinhyeok/loop_TTT/lact/.cache_inductor_llm/2i/c2i7lfj6c3szh57p7nnju2inoojtra24lvh6csv7qz7ulu6q5bu6.py":33:30)
#loc18 = loc("/NHNHOME/WORKSPACE/26msit001_A/jinhyeok/loop_TTT/lact/.cache_inductor_llm/2i/c2i7lfj6c3szh57p7nnju2inoojtra24lvh6csv7qz7ulu6q5bu6.py":33:55)
#loc19 = loc("/NHNHOME/WORKSPACE/26msit001_A/jinhyeok/loop_TTT/lact/.cache_inductor_llm/2i/c2i7lfj6c3szh57p7nnju2inoojtra24lvh6csv7qz7ulu6q5bu6.py":33:75)
#loc20 = loc("/NHNHOME/WORKSPACE/26msit001_A/jinhyeok/loop_TTT/lact/.cache_inductor_llm/2i/c2i7lfj6c3szh57p7nnju2inoojtra24lvh6csv7qz7ulu6q5bu6.py":34:18)
#loc21 = loc("/NHNHOME/WORKSPACE/26msit001_A/jinhyeok/loop_TTT/lact/.cache_inductor_llm/2i/c2i7lfj6c3szh57p7nnju2inoojtra24lvh6csv7qz7ulu6q5bu6.py":38:34)
#loc22 = loc("/NHNHOME/WORKSPACE/26msit001_A/jinhyeok/loop_TTT/lact/.cache_inductor_llm/2i/c2i7lfj6c3szh57p7nnju2inoojtra24lvh6csv7qz7ulu6q5bu6.py":36:33)
#loc23 = loc("/NHNHOME/WORKSPACE/26msit001_A/jinhyeok/loop_TTT/lact/.cache_inductor_llm/2i/c2i7lfj6c3szh57p7nnju2inoojtra24lvh6csv7qz7ulu6q5bu6.py":40:20)
#loc24 = loc("/NHNHOME/WORKSPACE/26msit001_A/jinhyeok/loop_TTT/lact/.cache_inductor_llm/2i/c2i7lfj6c3szh57p7nnju2inoojtra24lvh6csv7qz7ulu6q5bu6.py":41:19)
#loc25 = loc("/NHNHOME/WORKSPACE/26msit001_A/jinhyeok/loop_TTT/lact/.cache_inductor_llm/2i/c2i7lfj6c3szh57p7nnju2inoojtra24lvh6csv7qz7ulu6q5bu6.py":42:20)
#loc26 = loc("/NHNHOME/WORKSPACE/26msit001_A/jinhyeok/loop_TTT/lact/.cache_inductor_llm/2i/c2i7lfj6c3szh57p7nnju2inoojtra24lvh6csv7qz7ulu6q5bu6.py":43:41)
#loc27 = loc("/NHNHOME/WORKSPACE/26msit001_A/jinhyeok/loop_TTT/lact/.cache_inductor_llm/2i/c2i7lfj6c3szh57p7nnju2inoojtra24lvh6csv7qz7ulu6q5bu6.py":43:46)
#loc28 = loc("/NHNHOME/WORKSPACE/26msit001_A/jinhyeok/loop_TTT/lact/.cache_inductor_llm/2i/c2i7lfj6c3szh57p7nnju2inoojtra24lvh6csv7qz7ulu6q5bu6.py":43:31)
#loc29 = loc("/NHNHOME/WORKSPACE/26msit001_A/jinhyeok/loop_TTT/lact/.cache_inductor_llm/2i/c2i7lfj6c3szh57p7nnju2inoojtra24lvh6csv7qz7ulu6q5bu6.py":43:56)
#loc30 = loc("/NHNHOME/WORKSPACE/26msit001_A/jinhyeok/loop_TTT/lact/.cache_inductor_llm/2i/c2i7lfj6c3szh57p7nnju2inoojtra24lvh6csv7qz7ulu6q5bu6.py":43:77)
#loc31 = loc("/NHNHOME/WORKSPACE/26msit001_A/jinhyeok/loop_TTT/lact/.cache_inductor_llm/2i/c2i7lfj6c3szh57p7nnju2inoojtra24lvh6csv7qz7ulu6q5bu6.py":44:31)
#loc32 = loc("/NHNHOME/WORKSPACE/26msit001_A/jinhyeok/loop_TTT/lact/.cache_inductor_llm/2i/c2i7lfj6c3szh57p7nnju2inoojtra24lvh6csv7qz7ulu6q5bu6.py":44:56)
#loc33 = loc("/NHNHOME/WORKSPACE/26msit001_A/jinhyeok/loop_TTT/lact/.cache_inductor_llm/2i/c2i7lfj6c3szh57p7nnju2inoojtra24lvh6csv7qz7ulu6q5bu6.py":44:77)
#loc34 = loc("/NHNHOME/WORKSPACE/26msit001_A/jinhyeok/loop_TTT/lact/.cache_inductor_llm/2i/c2i7lfj6c3szh57p7nnju2inoojtra24lvh6csv7qz7ulu6q5bu6.py":45:20)
#loc35 = loc("/NHNHOME/WORKSPACE/26msit001_A/jinhyeok/loop_TTT/lact/.cache_inductor_llm/2i/c2i7lfj6c3szh57p7nnju2inoojtra24lvh6csv7qz7ulu6q5bu6.py":48:35)
#loc36 = loc("/NHNHOME/WORKSPACE/26msit001_A/jinhyeok/loop_TTT/lact/.cache_inductor_llm/2i/c2i7lfj6c3szh57p7nnju2inoojtra24lvh6csv7qz7ulu6q5bu6.py":47:35)
#loc37 = loc("/NHNHOME/WORKSPACE/26msit001_A/jinhyeok/loop_TTT/lact/.cache_inductor_llm/2i/c2i7lfj6c3szh57p7nnju2inoojtra24lvh6csv7qz7ulu6q5bu6.py":49:20)
#loc38 = loc("/NHNHOME/WORKSPACE/26msit001_A/jinhyeok/loop_TTT/lact/.cache_inductor_llm/2i/c2i7lfj6c3szh57p7nnju2inoojtra24lvh6csv7qz7ulu6q5bu6.py":50:19)
#loc39 = loc("/NHNHOME/WORKSPACE/26msit001_A/jinhyeok/loop_TTT/lact/.cache_inductor_llm/2i/c2i7lfj6c3szh57p7nnju2inoojtra24lvh6csv7qz7ulu6q5bu6.py":51:36)
#loc40 = loc("/NHNHOME/WORKSPACE/26msit001_A/jinhyeok/loop_TTT/lact/.cache_inductor_llm/2i/c2i7lfj6c3szh57p7nnju2inoojtra24lvh6csv7qz7ulu6q5bu6.py":51:31)
#loc41 = loc("/NHNHOME/WORKSPACE/26msit001_A/jinhyeok/loop_TTT/lact/.cache_inductor_llm/2i/c2i7lfj6c3szh57p7nnju2inoojtra24lvh6csv7qz7ulu6q5bu6.py":51:46)
#loc42 = loc("/NHNHOME/WORKSPACE/26msit001_A/jinhyeok/loop_TTT/lact/.cache_inductor_llm/2i/c2i7lfj6c3szh57p7nnju2inoojtra24lvh6csv7qz7ulu6q5bu6.py":51:67)
#loc43 = loc("/NHNHOME/WORKSPACE/26msit001_A/jinhyeok/loop_TTT/lact/.cache_inductor_llm/2i/c2i7lfj6c3szh57p7nnju2inoojtra24lvh6csv7qz7ulu6q5bu6.py":52:31)
#loc44 = loc("/NHNHOME/WORKSPACE/26msit001_A/jinhyeok/loop_TTT/lact/.cache_inductor_llm/2i/c2i7lfj6c3szh57p7nnju2inoojtra24lvh6csv7qz7ulu6q5bu6.py":52:46)
#loc45 = loc("/NHNHOME/WORKSPACE/26msit001_A/jinhyeok/loop_TTT/lact/.cache_inductor_llm/2i/c2i7lfj6c3szh57p7nnju2inoojtra24lvh6csv7qz7ulu6q5bu6.py":52:67)
#loc46 = loc("/NHNHOME/WORKSPACE/26msit001_A/jinhyeok/loop_TTT/lact/.cache_inductor_llm/2i/c2i7lfj6c3szh57p7nnju2inoojtra24lvh6csv7qz7ulu6q5bu6.py":53:20)
#loc47 = loc("/NHNHOME/WORKSPACE/26msit001_A/jinhyeok/loop_TTT/lact/.cache_inductor_llm/2i/c2i7lfj6c3szh57p7nnju2inoojtra24lvh6csv7qz7ulu6q5bu6.py":56:35)
#loc48 = loc("/NHNHOME/WORKSPACE/26msit001_A/jinhyeok/loop_TTT/lact/.cache_inductor_llm/2i/c2i7lfj6c3szh57p7nnju2inoojtra24lvh6csv7qz7ulu6q5bu6.py":55:35)
#loc49 = loc("/NHNHOME/WORKSPACE/26msit001_A/jinhyeok/loop_TTT/lact/.cache_inductor_llm/2i/c2i7lfj6c3szh57p7nnju2inoojtra24lvh6csv7qz7ulu6q5bu6.py":57:20)
#loc50 = loc("/NHNHOME/WORKSPACE/26msit001_A/jinhyeok/loop_TTT/lact/.cache_inductor_llm/2i/c2i7lfj6c3szh57p7nnju2inoojtra24lvh6csv7qz7ulu6q5bu6.py":58:25)
#loc51 = loc("/NHNHOME/WORKSPACE/26msit001_A/jinhyeok/loop_TTT/lact/.cache_inductor_llm/2i/c2i7lfj6c3szh57p7nnju2inoojtra24lvh6csv7qz7ulu6q5bu6.py":58:37)
#loc52 = loc("/NHNHOME/WORKSPACE/26msit001_A/jinhyeok/loop_TTT/lact/.cache_inductor_llm/2i/c2i7lfj6c3szh57p7nnju2inoojtra24lvh6csv7qz7ulu6q5bu6.py":58:4)
#loc61 = loc("tmp4"(#loc2))
#loc62 = loc("xoffset"(#loc3))
#loc63 = loc("xoffset"(#loc4))
#loc64 = loc("xindex"(#loc5))
#loc65 = loc("xindex"(#loc6))
#loc66 = loc("x0"(#loc7))
#loc67 = loc("x1"(#loc8))
#loc68 = loc("tmp2"(#loc9))
#loc69 = loc("tmp5"(#loc10))
#loc70 = loc("tmp6"(#loc11))
#loc71 = loc("tmp6"(#loc12))
#loc72 = loc("tmp6"(#loc13))
#loc73 = loc("tmp6"(#loc14))
#loc74 = loc("tmp6"(#loc15))
#loc75 = loc("tmp6"(#loc16))
#loc76 = loc("tmp7"(#loc17))
#loc77 = loc("tmp7"(#loc18))
#loc78 = loc("tmp7"(#loc19))
#loc79 = loc("tmp8"(#loc20))
#loc80 = loc("tmp12"(#loc21))
#loc81 = loc("tmp10"(#loc22))
#loc82 = loc("tmp14"(#loc23))
#loc83 = loc("tmp15"(#loc24))
#loc84 = loc("tmp16"(#loc25))
#loc85 = loc("tmp17"(#loc26))
#loc86 = loc("tmp17"(#loc27))
#loc87 = loc("tmp17"(#loc28))
#loc88 = loc("tmp17"(#loc29))
#loc89 = loc("tmp17"(#loc30))
#loc90 = loc("tmp18"(#loc31))
#loc91 = loc("tmp18"(#loc32))
#loc92 = loc("tmp18"(#loc33))
#loc93 = loc("tmp19"(#loc34))
#loc94 = loc("tmp22"(#loc35))
#loc95 = loc("tmp21"(#loc36))
#loc96 = loc("tmp23"(#loc37))
#loc97 = loc("tmp24"(#loc38))
#loc98 = loc("tmp25"(#loc39))
#loc99 = loc("tmp25"(#loc40))
#loc100 = loc("tmp25"(#loc41))
#loc101 = loc("tmp25"(#loc42))
#loc102 = loc("tmp26"(#loc43))
#loc103 = loc("tmp26"(#loc44))
#loc104 = loc("tmp26"(#loc45))
#loc105 = loc("tmp27"(#loc46))
#loc106 = loc("tmp30"(#loc47))
#loc107 = loc("tmp29"(#loc48))
#loc108 = loc("tmp31"(#loc49))
#loc109 = loc(fused[#loc80, #loc81])
#loc110 = loc(fused[#loc94, #loc95])
#loc111 = loc(fused[#loc106, #loc107])
