#loc = loc("/NHNHOME/WORKSPACE/26msit001_A/jinhyeok/loop_TTT/lact/.cache_inductor_llm/6z/c6zi3wc5v2r34cblqqml2w7navekjpoqyr6dgr52mwybbrk3hqw2.py":18:0)
#loc23 = loc("/NHNHOME/WORKSPACE/26msit001_A/jinhyeok/TTT_camera_embedding/.venv_llm/lib/python3.12/site-packages/triton/language/standard.py":285:0)
#loc25 = loc(unknown)
#loc28 = loc("/NHNHOME/WORKSPACE/26msit001_A/jinhyeok/TTT_camera_embedding/.venv_llm/lib/python3.12/site-packages/triton/language/standard.py":260:0)
#loc32 = loc("in_ptr0"(#loc))
#loc33 = loc("out_ptr0"(#loc))
#loc34 = loc("xnumel"(#loc))
#loc35 = loc("r0_numel"(#loc))
#loc55 = loc("input"(#loc23))
#loc56 = loc("a"(#loc28))
#loc57 = loc("b"(#loc28))
module {
  tt.func public @triton_per_fused_mean_slice_30(%in_ptr0: !tt.ptr<f32> {tt.divisibility = 16 : i32} loc("in_ptr0"(#loc)), %out_ptr0: !tt.ptr<f32> {tt.divisibility = 16 : i32} loc("out_ptr0"(#loc)), %xnumel: i32 loc("xnumel"(#loc)), %r0_numel: i32 {tt.divisibility = 16 : i32} loc("r0_numel"(#loc))) attributes {noinline = false} {
    %r0_numel_0 = arith.constant 1024 : i32 loc(#loc36)
    %xoffset = tt.get_program_id x : i32 loc(#loc37)
    %xoffset_1 = arith.constant 1 : i32 loc(#loc38)
    %xoffset_2 = arith.constant 1 : i32 loc(#loc38)
    %xoffset_3 = arith.muli %xoffset, %xoffset_2 : i32 loc(#loc38)
    %xindex = tt.make_range {end = 1 : i32, start = 0 : i32} : tensor<1xi32> loc(#loc39)
    %xindex_4 = tt.expand_dims %xindex {axis = 1 : i32} : tensor<1xi32> -> tensor<1x1xi32> loc(#loc40)
    %xindex_5 = tt.splat %xoffset_3 : i32 -> tensor<1x1xi32> loc(#loc41)
    %xindex_6 = arith.addi %xindex_5, %xindex_4 : tensor<1x1xi32> loc(#loc41)
    %xmask = tt.splat %xnumel : i32 -> tensor<1x1xi32> loc(#loc42)
    %xmask_7 = arith.cmpi slt, %xindex_6, %xmask : tensor<1x1xi32> loc(#loc42)
    %r0_index = tt.make_range {end = 1024 : i32, start = 0 : i32} : tensor<1024xi32> loc(#loc43)
    %r0_index_8 = tt.expand_dims %r0_index {axis = 0 : i32} : tensor<1024xi32> -> tensor<1x1024xi32> loc(#loc44)
    %r0_offset = arith.constant 0 : i32 loc(#loc45)
    %r0_mask = arith.constant true loc(#loc46)
    %r0_mask_9 = arith.constant dense<true> : tensor<1x1024xi1> loc(#loc46)
    %tmp0 = arith.constant 1024 : i32 loc(#loc47)
    %tmp0_10 = arith.constant 1024 : i32 loc(#loc47)
    %tmp0_11 = arith.constant dense<1024> : tensor<1x1024xi32> loc(#loc47)
    %tmp0_12 = arith.addi %tmp0_11, %r0_index_8 : tensor<1x1024xi32> loc(#loc47)
    %tmp0_13 = arith.constant 4096 : i32 loc(#loc48)
    %tmp0_14 = arith.constant 4096 : i32 loc(#loc48)
    %tmp0_15 = arith.constant dense<4096> : tensor<1x1xi32> loc(#loc48)
    %tmp0_16 = arith.muli %tmp0_15, %xindex_6 : tensor<1x1xi32> loc(#loc48)
    %tmp0_17 = tt.broadcast %tmp0_16 : tensor<1x1xi32> -> tensor<1x1024xi32> loc(#loc49)
    %tmp0_18 = arith.addi %tmp0_12, %tmp0_17 : tensor<1x1024xi32> loc(#loc49)
    %tmp0_19 = tt.splat %in_ptr0 : !tt.ptr<f32> -> tensor<1x1024x!tt.ptr<f32>> loc(#loc50)
    %tmp0_20 = tt.addptr %tmp0_19, %tmp0_18 : tensor<1x1024x!tt.ptr<f32>>, tensor<1x1024xi32> loc(#loc50)
    %tmp0_21 = arith.constant 0.000000e+00 : f32 loc(#loc51)
    %tmp0_22 = tt.broadcast %xmask_7 : tensor<1x1xi1> -> tensor<1x1024xi1> loc(#loc51)
    %tmp0_23 = arith.constant dense<0.000000e+00> : tensor<1x1024xf32> loc(#loc51)
    %tmp0_24 = tt.load %tmp0_20, %tmp0_22, %tmp0_23 : tensor<1x1024x!tt.ptr<f32>> loc(#loc51)
    %tmp3 = arith.constant 0 : i32 loc(#loc52)
    %tmp3_25 = arith.constant 0.000000e+00 : f32 loc(#loc52)
    %tmp3_26 = arith.constant dense<0.000000e+00> : tensor<1x1024xf32> loc(#loc52)
    %tmp3_27 = tt.broadcast %xmask_7 : tensor<1x1xi1> -> tensor<1x1024xi1> loc(#loc52)
    %tmp3_28 = arith.select %tmp3_27, %tmp0_24, %tmp3_26 : tensor<1x1024xi1>, tensor<1x1024xf32> loc(#loc52)
    %tmp4 = tt.call @"triton.language.standard.sum__fp32S1_1024S__(1,)cconstexpr_1__(2,)cconstexpr_False__(3,)cNone"(%tmp3_28) : (tensor<1x1024xf32>) -> tensor<1xf32> loc(#loc53)
    %tmp4_29 = tt.expand_dims %tmp4 {axis = 1 : i32} : tensor<1xf32> -> tensor<1x1xf32> loc(#loc54)
    %0 = tt.splat %out_ptr0 : !tt.ptr<f32> -> tensor<1x1x!tt.ptr<f32>> loc(#loc20)
    %1 = tt.addptr %0, %xindex_6 : tensor<1x1x!tt.ptr<f32>>, tensor<1x1xi32> loc(#loc20)
    tt.store %1, %tmp4_29, %xmask_7 : tensor<1x1x!tt.ptr<f32>> loc(#loc21)
    tt.return loc(#loc22)
  } loc(#loc)
  tt.func private @"triton.language.standard.sum__fp32S1_1024S__(1,)cconstexpr_1__(2,)cconstexpr_False__(3,)cNone"(%input: tensor<1x1024xf32> loc("input"(#loc23))) -> tensor<1xf32> attributes {noinline = false} {
    %0 = "tt.reduce"(%input) <{axis = 1 : i32}> ({
    ^bb0(%arg1: f32 loc(unknown), %arg2: f32 loc(unknown)):
      %2 = tt.call @triton.language.standard._sum_combine__fp32_fp32__(%arg1, %arg2) : (f32, f32) -> f32 loc(#loc24)
      tt.reduce.return %2 : f32 loc(#loc24)
    }) : (tensor<1x1024xf32>) -> tensor<1xf32> loc(#loc24)
    tt.return %0 : tensor<1xf32> loc(#loc26)
  ^bb1:  // no predecessors
    %1 = ub.poison : tensor<1xf32> loc(#loc27)
    tt.return %1 : tensor<1xf32> loc(#loc27)
  } loc(#loc23)
  tt.func private @triton.language.standard._sum_combine__fp32_fp32__(%a: f32 loc("a"(#loc28)), %b: f32 loc("b"(#loc28))) -> f32 attributes {noinline = false} {
    %0 = arith.addf %a, %b : f32 loc(#loc29)
    tt.return %0 : f32 loc(#loc30)
  ^bb1:  // no predecessors
    %1 = ub.poison : f32 loc(#loc31)
    tt.return %1 : f32 loc(#loc31)
  } loc(#loc28)
} loc(#loc)
#loc1 = loc("/NHNHOME/WORKSPACE/26msit001_A/jinhyeok/loop_TTT/lact/.cache_inductor_llm/6z/c6zi3wc5v2r34cblqqml2w7navekjpoqyr6dgr52mwybbrk3hqw2.py":19:15)
#loc2 = loc("/NHNHOME/WORKSPACE/26msit001_A/jinhyeok/loop_TTT/lact/.cache_inductor_llm/6z/c6zi3wc5v2r34cblqqml2w7navekjpoqyr6dgr52mwybbrk3hqw2.py":23:28)
#loc3 = loc("/NHNHOME/WORKSPACE/26msit001_A/jinhyeok/loop_TTT/lact/.cache_inductor_llm/6z/c6zi3wc5v2r34cblqqml2w7navekjpoqyr6dgr52mwybbrk3hqw2.py":23:33)
#loc4 = loc("/NHNHOME/WORKSPACE/26msit001_A/jinhyeok/loop_TTT/lact/.cache_inductor_llm/6z/c6zi3wc5v2r34cblqqml2w7navekjpoqyr6dgr52mwybbrk3hqw2.py":24:36)
#loc5 = loc("/NHNHOME/WORKSPACE/26msit001_A/jinhyeok/loop_TTT/lact/.cache_inductor_llm/6z/c6zi3wc5v2r34cblqqml2w7navekjpoqyr6dgr52mwybbrk3hqw2.py":24:44)
#loc6 = loc("/NHNHOME/WORKSPACE/26msit001_A/jinhyeok/loop_TTT/lact/.cache_inductor_llm/6z/c6zi3wc5v2r34cblqqml2w7navekjpoqyr6dgr52mwybbrk3hqw2.py":24:23)
#loc7 = loc("/NHNHOME/WORKSPACE/26msit001_A/jinhyeok/loop_TTT/lact/.cache_inductor_llm/6z/c6zi3wc5v2r34cblqqml2w7navekjpoqyr6dgr52mwybbrk3hqw2.py":25:21)
#loc8 = loc("/NHNHOME/WORKSPACE/26msit001_A/jinhyeok/loop_TTT/lact/.cache_inductor_llm/6z/c6zi3wc5v2r34cblqqml2w7navekjpoqyr6dgr52mwybbrk3hqw2.py":26:28)
#loc9 = loc("/NHNHOME/WORKSPACE/26msit001_A/jinhyeok/loop_TTT/lact/.cache_inductor_llm/6z/c6zi3wc5v2r34cblqqml2w7navekjpoqyr6dgr52mwybbrk3hqw2.py":26:38)
#loc10 = loc("/NHNHOME/WORKSPACE/26msit001_A/jinhyeok/loop_TTT/lact/.cache_inductor_llm/6z/c6zi3wc5v2r34cblqqml2w7navekjpoqyr6dgr52mwybbrk3hqw2.py":27:16)
#loc11 = loc("/NHNHOME/WORKSPACE/26msit001_A/jinhyeok/loop_TTT/lact/.cache_inductor_llm/6z/c6zi3wc5v2r34cblqqml2w7navekjpoqyr6dgr52mwybbrk3hqw2.py":28:48)
#loc12 = loc("/NHNHOME/WORKSPACE/26msit001_A/jinhyeok/loop_TTT/lact/.cache_inductor_llm/6z/c6zi3wc5v2r34cblqqml2w7navekjpoqyr6dgr52mwybbrk3hqw2.py":33:37)
#loc13 = loc("/NHNHOME/WORKSPACE/26msit001_A/jinhyeok/loop_TTT/lact/.cache_inductor_llm/6z/c6zi3wc5v2r34cblqqml2w7navekjpoqyr6dgr52mwybbrk3hqw2.py":33:49)
#loc14 = loc("/NHNHOME/WORKSPACE/26msit001_A/jinhyeok/loop_TTT/lact/.cache_inductor_llm/6z/c6zi3wc5v2r34cblqqml2w7navekjpoqyr6dgr52mwybbrk3hqw2.py":33:44)
#loc15 = loc("/NHNHOME/WORKSPACE/26msit001_A/jinhyeok/loop_TTT/lact/.cache_inductor_llm/6z/c6zi3wc5v2r34cblqqml2w7navekjpoqyr6dgr52mwybbrk3hqw2.py":33:30)
#loc16 = loc("/NHNHOME/WORKSPACE/26msit001_A/jinhyeok/loop_TTT/lact/.cache_inductor_llm/6z/c6zi3wc5v2r34cblqqml2w7navekjpoqyr6dgr52mwybbrk3hqw2.py":33:54)
#loc17 = loc("/NHNHOME/WORKSPACE/26msit001_A/jinhyeok/loop_TTT/lact/.cache_inductor_llm/6z/c6zi3wc5v2r34cblqqml2w7navekjpoqyr6dgr52mwybbrk3hqw2.py":35:33)
#loc18 = loc("/NHNHOME/WORKSPACE/26msit001_A/jinhyeok/loop_TTT/lact/.cache_inductor_llm/6z/c6zi3wc5v2r34cblqqml2w7navekjpoqyr6dgr52mwybbrk3hqw2.py":36:24)
#loc19 = loc("/NHNHOME/WORKSPACE/26msit001_A/jinhyeok/loop_TTT/lact/.cache_inductor_llm/6z/c6zi3wc5v2r34cblqqml2w7navekjpoqyr6dgr52mwybbrk3hqw2.py":36:27)
#loc20 = loc("/NHNHOME/WORKSPACE/26msit001_A/jinhyeok/loop_TTT/lact/.cache_inductor_llm/6z/c6zi3wc5v2r34cblqqml2w7navekjpoqyr6dgr52mwybbrk3hqw2.py":37:25)
#loc21 = loc("/NHNHOME/WORKSPACE/26msit001_A/jinhyeok/loop_TTT/lact/.cache_inductor_llm/6z/c6zi3wc5v2r34cblqqml2w7navekjpoqyr6dgr52mwybbrk3hqw2.py":37:36)
#loc22 = loc("/NHNHOME/WORKSPACE/26msit001_A/jinhyeok/loop_TTT/lact/.cache_inductor_llm/6z/c6zi3wc5v2r34cblqqml2w7navekjpoqyr6dgr52mwybbrk3hqw2.py":37:4)
#loc24 = loc("/NHNHOME/WORKSPACE/26msit001_A/jinhyeok/TTT_camera_embedding/.venv_llm/lib/python3.12/site-packages/triton/language/standard.py":291:36)
#loc26 = loc("/NHNHOME/WORKSPACE/26msit001_A/jinhyeok/TTT_camera_embedding/.venv_llm/lib/python3.12/site-packages/triton/language/standard.py":291:11)
#loc27 = loc("/NHNHOME/WORKSPACE/26msit001_A/jinhyeok/TTT_camera_embedding/.venv_llm/lib/python3.12/site-packages/triton/language/standard.py":291:4)
#loc29 = loc("/NHNHOME/WORKSPACE/26msit001_A/jinhyeok/TTT_camera_embedding/.venv_llm/lib/python3.12/site-packages/triton/language/standard.py":261:15)
#loc30 = loc("/NHNHOME/WORKSPACE/26msit001_A/jinhyeok/TTT_camera_embedding/.venv_llm/lib/python3.12/site-packages/triton/language/standard.py":261:11)
#loc31 = loc("/NHNHOME/WORKSPACE/26msit001_A/jinhyeok/TTT_camera_embedding/.venv_llm/lib/python3.12/site-packages/triton/language/standard.py":261:4)
#loc36 = loc("r0_numel"(#loc1))
#loc37 = loc("xoffset"(#loc2))
#loc38 = loc("xoffset"(#loc3))
#loc39 = loc("xindex"(#loc4))
#loc40 = loc("xindex"(#loc5))
#loc41 = loc("xindex"(#loc6))
#loc42 = loc("xmask"(#loc7))
#loc43 = loc("r0_index"(#loc8))
#loc44 = loc("r0_index"(#loc9))
#loc45 = loc("r0_offset"(#loc10))
#loc46 = loc("r0_mask"(#loc11))
#loc47 = loc("tmp0"(#loc12))
#loc48 = loc("tmp0"(#loc13))
#loc49 = loc("tmp0"(#loc14))
#loc50 = loc("tmp0"(#loc15))
#loc51 = loc("tmp0"(#loc16))
#loc52 = loc("tmp3"(#loc17))
#loc53 = loc("tmp4"(#loc18))
#loc54 = loc("tmp4"(#loc19))
