#loc = loc("/NHNHOME/WORKSPACE/26msit001_A/jinhyeok/TTT_camera_embedding/lact_llm/.cache_inductor/7f/c7fintvbdx5fm554vr4f5wtyvnbc3wwkdtt6rx2t7qyeiqdaypzh.py":18:0)
#loc39 = loc("in_ptr0"(#loc))
#loc40 = loc("in_ptr1"(#loc))
#loc41 = loc("in_ptr2"(#loc))
#loc42 = loc("in_ptr3"(#loc))
#loc43 = loc("in_ptr4"(#loc))
#loc44 = loc("out_ptr0"(#loc))
#loc45 = loc("out_ptr1"(#loc))
#loc46 = loc("out_ptr2"(#loc))
#loc47 = loc("out_ptr3"(#loc))
#loc48 = loc("xnumel"(#loc))
module {
  tt.func public @triton_poi_fused__to_copy_add_div_linalg_vector_norm_mean_mul_slice_transpose_zeros_like_27(%in_ptr0: !tt.ptr<bf16> {tt.divisibility = 16 : i32} loc("in_ptr0"(#loc)), %in_ptr1: !tt.ptr<f32> {tt.divisibility = 16 : i32} loc("in_ptr1"(#loc)), %in_ptr2: !tt.ptr<f32> {tt.divisibility = 16 : i32} loc("in_ptr2"(#loc)), %in_ptr3: !tt.ptr<bf16> {tt.divisibility = 16 : i32} loc("in_ptr3"(#loc)), %in_ptr4: !tt.ptr<bf16> {tt.divisibility = 16 : i32} loc("in_ptr4"(#loc)), %out_ptr0: !tt.ptr<f32> {tt.divisibility = 16 : i32} loc("out_ptr0"(#loc)), %out_ptr1: !tt.ptr<bf16> {tt.divisibility = 16 : i32} loc("out_ptr1"(#loc)), %out_ptr2: !tt.ptr<bf16> {tt.divisibility = 16 : i32} loc("out_ptr2"(#loc)), %out_ptr3: !tt.ptr<bf16> {tt.divisibility = 16 : i32} loc("out_ptr3"(#loc)), %xnumel: i32 {tt.divisibility = 16 : i32} loc("xnumel"(#loc))) attributes {noinline = false} {
    %tmp21 = arith.constant dense<3.950500e+00> : tensor<512xf32> loc(#loc49)
    %tmp16 = arith.constant dense<4.084800e+00> : tensor<512xf32> loc(#loc50)
    %tmp13 = arith.constant dense<1.000000e-07> : tensor<512xf32> loc(#loc51)
    %tmp6 = arith.constant dense<0.000000e+00> : tensor<512xf32> loc(#loc52)
    %tmp4 = arith.constant dense<1.024000e+03> : tensor<512xf32> loc(#loc53)
    %x1 = arith.constant dense<36864> : tensor<512xi32> loc(#loc54)
    %c512_i32 = arith.constant 512 : i32 loc(#loc7)
    %xoffset = tt.get_program_id x : i32 loc(#loc55)
    %xoffset_0 = arith.muli %xoffset, %c512_i32 : i32 loc(#loc56)
    %xindex = tt.make_range {end = 512 : i32, start = 0 : i32} : tensor<512xi32> loc(#loc57)
    %xindex_1 = tt.splat %xoffset_0 : i32 -> tensor<512xi32> loc(#loc58)
    %xindex_2 = arith.addi %xindex_1, %xindex : tensor<512xi32> loc(#loc58)
    %x1_3 = arith.divsi %xindex_2, %x1 : tensor<512xi32> loc(#loc54)
    %tmp0 = tt.splat %in_ptr0 : !tt.ptr<bf16> -> tensor<512x!tt.ptr<bf16>> loc(#loc59)
    %tmp0_4 = tt.addptr %tmp0, %xindex_2 : tensor<512x!tt.ptr<bf16>>, tensor<512xi32> loc(#loc59)
    %tmp0_5 = tt.load %tmp0_4 : tensor<512x!tt.ptr<bf16>> loc(#loc60)
    %tmp0_6 = arith.extf %tmp0_5 : tensor<512xbf16> to tensor<512xf32> loc(#loc61)
    %tmp2 = tt.splat %in_ptr1 : !tt.ptr<f32> -> tensor<512x!tt.ptr<f32>> loc(#loc62)
    %tmp2_7 = tt.addptr %tmp2, %x1_3 : tensor<512x!tt.ptr<f32>>, tensor<512xi32> loc(#loc62)
    %tmp2_8 = tt.load %tmp2_7 evictionPolicy = evict_last : tensor<512x!tt.ptr<f32>> loc(#loc63)
    %tmp10 = tt.splat %in_ptr2 : !tt.ptr<f32> -> tensor<512x!tt.ptr<f32>> loc(#loc64)
    %tmp10_9 = tt.addptr %tmp10, %x1_3 : tensor<512x!tt.ptr<f32>>, tensor<512xi32> loc(#loc64)
    %tmp10_10 = tt.load %tmp10_9 evictionPolicy = evict_last : tensor<512x!tt.ptr<f32>> loc(#loc65)
    %tmp17 = tt.splat %in_ptr3 : !tt.ptr<bf16> -> tensor<512x!tt.ptr<bf16>> loc(#loc66)
    %tmp17_11 = tt.addptr %tmp17, %xindex_2 : tensor<512x!tt.ptr<bf16>>, tensor<512xi32> loc(#loc66)
    %tmp17_12 = tt.load %tmp17_11 : tensor<512x!tt.ptr<bf16>> loc(#loc67)
    %tmp17_13 = arith.extf %tmp17_12 : tensor<512xbf16> to tensor<512xf32> loc(#loc68)
    %tmp22 = tt.splat %in_ptr4 : !tt.ptr<bf16> -> tensor<512x!tt.ptr<bf16>> loc(#loc69)
    %tmp22_14 = tt.addptr %tmp22, %xindex_2 : tensor<512x!tt.ptr<bf16>>, tensor<512xi32> loc(#loc69)
    %tmp22_15 = tt.load %tmp22_14 : tensor<512x!tt.ptr<bf16>> loc(#loc70)
    %tmp22_16 = arith.extf %tmp22_15 : tensor<512xbf16> to tensor<512xf32> loc(#loc71)
    %tmp4_17 = arith.divf %tmp2_8, %tmp4 : tensor<512xf32> loc(#loc53)
    %tmp6_18 = arith.mulf %tmp4_17, %tmp6 : tensor<512xf32> loc(#loc52)
    %tmp7 = arith.addf %tmp0_6, %tmp6_18 : tensor<512xf32> loc(#loc72)
    %tmp11 = tt.extern_elementwise %tmp10_10 {libname = "", libpath = "", pure = true, symbol = "__nv_sqrtf"} : (tensor<512xf32>) -> tensor<512xf32> loc(#loc73)
    %tmp13_19 = arith.addf %tmp11, %tmp13 : tensor<512xf32> loc(#loc51)
    %tmp14 = arith.divf %tmp7, %tmp13_19 : tensor<512xf32> loc(#loc74)
    %tmp16_20 = arith.mulf %tmp14, %tmp16 : tensor<512xf32> loc(#loc50)
    %tmp19 = arith.addf %tmp16_20, %tmp17_13 : tensor<512xf32> loc(#loc75)
    %tmp21_21 = arith.mulf %tmp19, %tmp21 : tensor<512xf32> loc(#loc49)
    %tmp24 = arith.addf %tmp21_21, %tmp22_16 : tensor<512xf32> loc(#loc76)
    %0 = tt.splat %out_ptr0 : !tt.ptr<f32> -> tensor<512x!tt.ptr<f32>> loc(#loc30)
    %1 = tt.addptr %0, %xindex_2 : tensor<512x!tt.ptr<f32>>, tensor<512xi32> loc(#loc30)
    tt.store %1, %tmp24 : tensor<512x!tt.ptr<f32>> loc(#loc31)
    %2 = tt.splat %out_ptr1 : !tt.ptr<bf16> -> tensor<512x!tt.ptr<bf16>> loc(#loc32)
    %3 = tt.addptr %2, %xindex_2 : tensor<512x!tt.ptr<bf16>>, tensor<512xi32> loc(#loc32)
    %4 = arith.truncf %tmp24 : tensor<512xf32> to tensor<512xbf16> loc(#loc33)
    tt.store %3, %4 : tensor<512x!tt.ptr<bf16>> loc(#loc33)
    %5 = tt.splat %out_ptr2 : !tt.ptr<bf16> -> tensor<512x!tt.ptr<bf16>> loc(#loc34)
    %6 = tt.addptr %5, %xindex_2 : tensor<512x!tt.ptr<bf16>>, tensor<512xi32> loc(#loc34)
    tt.store %6, %4 : tensor<512x!tt.ptr<bf16>> loc(#loc35)
    %7 = tt.splat %out_ptr3 : !tt.ptr<bf16> -> tensor<512x!tt.ptr<bf16>> loc(#loc36)
    %8 = tt.addptr %7, %xindex_2 : tensor<512x!tt.ptr<bf16>>, tensor<512xi32> loc(#loc36)
    tt.store %8, %4 : tensor<512x!tt.ptr<bf16>> loc(#loc37)
    tt.return loc(#loc38)
  } loc(#loc)
} loc(#loc)
#loc1 = loc("/NHNHOME/WORKSPACE/26msit001_A/jinhyeok/TTT_camera_embedding/lact_llm/.cache_inductor/7f/c7fintvbdx5fm554vr4f5wtyvnbc3wwkdtt6rx2t7qyeiqdaypzh.py":47:20)
#loc2 = loc("/NHNHOME/WORKSPACE/26msit001_A/jinhyeok/TTT_camera_embedding/lact_llm/.cache_inductor/7f/c7fintvbdx5fm554vr4f5wtyvnbc3wwkdtt6rx2t7qyeiqdaypzh.py":43:20)
#loc3 = loc("/NHNHOME/WORKSPACE/26msit001_A/jinhyeok/TTT_camera_embedding/lact_llm/.cache_inductor/7f/c7fintvbdx5fm554vr4f5wtyvnbc3wwkdtt6rx2t7qyeiqdaypzh.py":40:20)
#loc4 = loc("/NHNHOME/WORKSPACE/26msit001_A/jinhyeok/TTT_camera_embedding/lact_llm/.cache_inductor/7f/c7fintvbdx5fm554vr4f5wtyvnbc3wwkdtt6rx2t7qyeiqdaypzh.py":34:18)
#loc5 = loc("/NHNHOME/WORKSPACE/26msit001_A/jinhyeok/TTT_camera_embedding/lact_llm/.cache_inductor/7f/c7fintvbdx5fm554vr4f5wtyvnbc3wwkdtt6rx2t7qyeiqdaypzh.py":32:19)
#loc6 = loc("/NHNHOME/WORKSPACE/26msit001_A/jinhyeok/TTT_camera_embedding/lact_llm/.cache_inductor/7f/c7fintvbdx5fm554vr4f5wtyvnbc3wwkdtt6rx2t7qyeiqdaypzh.py":24:19)
#loc7 = loc(unknown)
#loc8 = loc("/NHNHOME/WORKSPACE/26msit001_A/jinhyeok/TTT_camera_embedding/lact_llm/.cache_inductor/7f/c7fintvbdx5fm554vr4f5wtyvnbc3wwkdtt6rx2t7qyeiqdaypzh.py":20:28)
#loc9 = loc("/NHNHOME/WORKSPACE/26msit001_A/jinhyeok/TTT_camera_embedding/lact_llm/.cache_inductor/7f/c7fintvbdx5fm554vr4f5wtyvnbc3wwkdtt6rx2t7qyeiqdaypzh.py":20:33)
#loc10 = loc("/NHNHOME/WORKSPACE/26msit001_A/jinhyeok/TTT_camera_embedding/lact_llm/.cache_inductor/7f/c7fintvbdx5fm554vr4f5wtyvnbc3wwkdtt6rx2t7qyeiqdaypzh.py":21:36)
#loc11 = loc("/NHNHOME/WORKSPACE/26msit001_A/jinhyeok/TTT_camera_embedding/lact_llm/.cache_inductor/7f/c7fintvbdx5fm554vr4f5wtyvnbc3wwkdtt6rx2t7qyeiqdaypzh.py":21:23)
#loc12 = loc("/NHNHOME/WORKSPACE/26msit001_A/jinhyeok/TTT_camera_embedding/lact_llm/.cache_inductor/7f/c7fintvbdx5fm554vr4f5wtyvnbc3wwkdtt6rx2t7qyeiqdaypzh.py":25:30)
#loc13 = loc("/NHNHOME/WORKSPACE/26msit001_A/jinhyeok/TTT_camera_embedding/lact_llm/.cache_inductor/7f/c7fintvbdx5fm554vr4f5wtyvnbc3wwkdtt6rx2t7qyeiqdaypzh.py":25:35)
#loc14 = loc("/NHNHOME/WORKSPACE/26msit001_A/jinhyeok/TTT_camera_embedding/lact_llm/.cache_inductor/7f/c7fintvbdx5fm554vr4f5wtyvnbc3wwkdtt6rx2t7qyeiqdaypzh.py":25:44)
#loc15 = loc("/NHNHOME/WORKSPACE/26msit001_A/jinhyeok/TTT_camera_embedding/lact_llm/.cache_inductor/7f/c7fintvbdx5fm554vr4f5wtyvnbc3wwkdtt6rx2t7qyeiqdaypzh.py":26:30)
#loc16 = loc("/NHNHOME/WORKSPACE/26msit001_A/jinhyeok/TTT_camera_embedding/lact_llm/.cache_inductor/7f/c7fintvbdx5fm554vr4f5wtyvnbc3wwkdtt6rx2t7qyeiqdaypzh.py":26:35)
#loc17 = loc("/NHNHOME/WORKSPACE/26msit001_A/jinhyeok/TTT_camera_embedding/lact_llm/.cache_inductor/7f/c7fintvbdx5fm554vr4f5wtyvnbc3wwkdtt6rx2t7qyeiqdaypzh.py":27:31)
#loc18 = loc("/NHNHOME/WORKSPACE/26msit001_A/jinhyeok/TTT_camera_embedding/lact_llm/.cache_inductor/7f/c7fintvbdx5fm554vr4f5wtyvnbc3wwkdtt6rx2t7qyeiqdaypzh.py":27:36)
#loc19 = loc("/NHNHOME/WORKSPACE/26msit001_A/jinhyeok/TTT_camera_embedding/lact_llm/.cache_inductor/7f/c7fintvbdx5fm554vr4f5wtyvnbc3wwkdtt6rx2t7qyeiqdaypzh.py":28:31)
#loc20 = loc("/NHNHOME/WORKSPACE/26msit001_A/jinhyeok/TTT_camera_embedding/lact_llm/.cache_inductor/7f/c7fintvbdx5fm554vr4f5wtyvnbc3wwkdtt6rx2t7qyeiqdaypzh.py":28:36)
#loc21 = loc("/NHNHOME/WORKSPACE/26msit001_A/jinhyeok/TTT_camera_embedding/lact_llm/.cache_inductor/7f/c7fintvbdx5fm554vr4f5wtyvnbc3wwkdtt6rx2t7qyeiqdaypzh.py":28:45)
#loc22 = loc("/NHNHOME/WORKSPACE/26msit001_A/jinhyeok/TTT_camera_embedding/lact_llm/.cache_inductor/7f/c7fintvbdx5fm554vr4f5wtyvnbc3wwkdtt6rx2t7qyeiqdaypzh.py":29:31)
#loc23 = loc("/NHNHOME/WORKSPACE/26msit001_A/jinhyeok/TTT_camera_embedding/lact_llm/.cache_inductor/7f/c7fintvbdx5fm554vr4f5wtyvnbc3wwkdtt6rx2t7qyeiqdaypzh.py":29:36)
#loc24 = loc("/NHNHOME/WORKSPACE/26msit001_A/jinhyeok/TTT_camera_embedding/lact_llm/.cache_inductor/7f/c7fintvbdx5fm554vr4f5wtyvnbc3wwkdtt6rx2t7qyeiqdaypzh.py":29:45)
#loc25 = loc("/NHNHOME/WORKSPACE/26msit001_A/jinhyeok/TTT_camera_embedding/lact_llm/.cache_inductor/7f/c7fintvbdx5fm554vr4f5wtyvnbc3wwkdtt6rx2t7qyeiqdaypzh.py":35:18)
#loc26 = loc("/NHNHOME/WORKSPACE/26msit001_A/jinhyeok/TTT_camera_embedding/lact_llm/.cache_inductor/7f/c7fintvbdx5fm554vr4f5wtyvnbc3wwkdtt6rx2t7qyeiqdaypzh.py":38:27)
#loc27 = loc("/NHNHOME/WORKSPACE/26msit001_A/jinhyeok/TTT_camera_embedding/lact_llm/.cache_inductor/7f/c7fintvbdx5fm554vr4f5wtyvnbc3wwkdtt6rx2t7qyeiqdaypzh.py":41:20)
#loc28 = loc("/NHNHOME/WORKSPACE/26msit001_A/jinhyeok/TTT_camera_embedding/lact_llm/.cache_inductor/7f/c7fintvbdx5fm554vr4f5wtyvnbc3wwkdtt6rx2t7qyeiqdaypzh.py":45:20)
#loc29 = loc("/NHNHOME/WORKSPACE/26msit001_A/jinhyeok/TTT_camera_embedding/lact_llm/.cache_inductor/7f/c7fintvbdx5fm554vr4f5wtyvnbc3wwkdtt6rx2t7qyeiqdaypzh.py":49:20)
#loc30 = loc("/NHNHOME/WORKSPACE/26msit001_A/jinhyeok/TTT_camera_embedding/lact_llm/.cache_inductor/7f/c7fintvbdx5fm554vr4f5wtyvnbc3wwkdtt6rx2t7qyeiqdaypzh.py":51:25)
#loc31 = loc("/NHNHOME/WORKSPACE/26msit001_A/jinhyeok/TTT_camera_embedding/lact_llm/.cache_inductor/7f/c7fintvbdx5fm554vr4f5wtyvnbc3wwkdtt6rx2t7qyeiqdaypzh.py":51:37)
#loc32 = loc("/NHNHOME/WORKSPACE/26msit001_A/jinhyeok/TTT_camera_embedding/lact_llm/.cache_inductor/7f/c7fintvbdx5fm554vr4f5wtyvnbc3wwkdtt6rx2t7qyeiqdaypzh.py":52:25)
#loc33 = loc("/NHNHOME/WORKSPACE/26msit001_A/jinhyeok/TTT_camera_embedding/lact_llm/.cache_inductor/7f/c7fintvbdx5fm554vr4f5wtyvnbc3wwkdtt6rx2t7qyeiqdaypzh.py":52:37)
#loc34 = loc("/NHNHOME/WORKSPACE/26msit001_A/jinhyeok/TTT_camera_embedding/lact_llm/.cache_inductor/7f/c7fintvbdx5fm554vr4f5wtyvnbc3wwkdtt6rx2t7qyeiqdaypzh.py":53:25)
#loc35 = loc("/NHNHOME/WORKSPACE/26msit001_A/jinhyeok/TTT_camera_embedding/lact_llm/.cache_inductor/7f/c7fintvbdx5fm554vr4f5wtyvnbc3wwkdtt6rx2t7qyeiqdaypzh.py":53:37)
#loc36 = loc("/NHNHOME/WORKSPACE/26msit001_A/jinhyeok/TTT_camera_embedding/lact_llm/.cache_inductor/7f/c7fintvbdx5fm554vr4f5wtyvnbc3wwkdtt6rx2t7qyeiqdaypzh.py":54:25)
#loc37 = loc("/NHNHOME/WORKSPACE/26msit001_A/jinhyeok/TTT_camera_embedding/lact_llm/.cache_inductor/7f/c7fintvbdx5fm554vr4f5wtyvnbc3wwkdtt6rx2t7qyeiqdaypzh.py":54:37)
#loc38 = loc("/NHNHOME/WORKSPACE/26msit001_A/jinhyeok/TTT_camera_embedding/lact_llm/.cache_inductor/7f/c7fintvbdx5fm554vr4f5wtyvnbc3wwkdtt6rx2t7qyeiqdaypzh.py":54:4)
#loc49 = loc("tmp21"(#loc1))
#loc50 = loc("tmp16"(#loc2))
#loc51 = loc("tmp13"(#loc3))
#loc52 = loc("tmp6"(#loc4))
#loc53 = loc("tmp4"(#loc5))
#loc54 = loc("x1"(#loc6))
#loc55 = loc("xoffset"(#loc8))
#loc56 = loc("xoffset"(#loc9))
#loc57 = loc("xindex"(#loc10))
#loc58 = loc("xindex"(#loc11))
#loc59 = loc("tmp0"(#loc12))
#loc60 = loc("tmp0"(#loc13))
#loc61 = loc("tmp0"(#loc14))
#loc62 = loc("tmp2"(#loc15))
#loc63 = loc("tmp2"(#loc16))
#loc64 = loc("tmp10"(#loc17))
#loc65 = loc("tmp10"(#loc18))
#loc66 = loc("tmp17"(#loc19))
#loc67 = loc("tmp17"(#loc20))
#loc68 = loc("tmp17"(#loc21))
#loc69 = loc("tmp22"(#loc22))
#loc70 = loc("tmp22"(#loc23))
#loc71 = loc("tmp22"(#loc24))
#loc72 = loc("tmp7"(#loc25))
#loc73 = loc("tmp11"(#loc26))
#loc74 = loc("tmp14"(#loc27))
#loc75 = loc("tmp19"(#loc28))
#loc76 = loc("tmp24"(#loc29))
