#loc = loc("/NHNHOME/WORKSPACE/26msit001_A/jinhyeok/loop_TTT/lact/.cache_inductor_llm/ia/cia4ae4fs47fgvlv667ihr35l6iwwssu7sznvv6i55lobpr3hqio.py":18:0)
#loc3 = loc(unknown)
#loc12 = loc("/NHNHOME/WORKSPACE/26msit001_A/jinhyeok/loop_TTT/lact/.cache_inductor_llm/ia/cia4ae4fs47fgvlv667ihr35l6iwwssu7sznvv6i55lobpr3hqio.py":37:24)
#loc18 = loc("in_ptr0"(#loc))
#loc19 = loc("out_ptr0"(#loc))
#loc20 = loc("xnumel"(#loc))
#loc21 = loc("r0_numel"(#loc))
#loc31 = loc("tmp4"(#loc12))
#loc36 = loc(callsite(#loc3 at #loc31))
module {
  tt.func public @triton_per_fused_mean_slice_3(%in_ptr0: !tt.ptr<f32> {tt.divisibility = 16 : i32} loc("in_ptr0"(#loc)), %out_ptr0: !tt.ptr<f32> {tt.divisibility = 16 : i32} loc("out_ptr0"(#loc)), %xnumel: i32 {tt.divisibility = 16 : i32} loc("xnumel"(#loc)), %r0_numel: i32 {tt.divisibility = 16 : i32} loc("r0_numel"(#loc))) attributes {noinline = false} {
    %tmp0 = arith.constant 4096 : i32 loc(#loc22)
    %xmask = arith.constant 32 : i32 loc(#loc23)
    %cst = arith.constant dense<0.000000e+00> : tensor<1x1024xf32> loc(#loc3)
    %xoffset = tt.get_program_id x : i32 loc(#loc24)
    %xmask_0 = arith.cmpi slt, %xoffset, %xmask : i32 loc(#loc23)
    %xmask_1 = tt.splat %xmask_0 : i1 -> tensor<1x1xi1> loc(#loc23)
    %r0_index = tt.make_range {end = 1024 : i32, start = 0 : i32} : tensor<1024xi32> loc(#loc25)
    %r0_index_2 = tt.expand_dims %r0_index {axis = 0 : i32} : tensor<1024xi32> -> tensor<1x1024xi32> loc(#loc26)
    %tmp0_3 = arith.muli %xoffset, %tmp0 : i32 loc(#loc22)
    %tmp0_4 = tt.splat %tmp0_3 : i32 -> tensor<1x1024xi32> loc(#loc33)
    %tmp0_5 = arith.addi %r0_index_2, %tmp0_4 : tensor<1x1024xi32> loc(#loc27)
    %tmp0_6 = tt.splat %in_ptr0 : !tt.ptr<f32> -> tensor<1x1024x!tt.ptr<f32>> loc(#loc28)
    %tmp0_7 = tt.addptr %tmp0_6, %tmp0_5 : tensor<1x1024x!tt.ptr<f32>>, tensor<1x1024xi32> loc(#loc28)
    %tmp0_8 = tt.splat %xmask_0 : i1 -> tensor<1x1024xi1> loc(#loc34)
    %tmp0_9 = tt.load %tmp0_7, %tmp0_8, %cst : tensor<1x1024x!tt.ptr<f32>> loc(#loc29)
    %tmp3 = arith.select %tmp0_8, %tmp0_9, %cst : tensor<1x1024xi1>, tensor<1x1024xf32> loc(#loc30)
    %tmp4 = "tt.reduce"(%tmp3) <{axis = 1 : i32}> ({
    ^bb0(%tmp4_11: f32 loc(callsite(#loc3 at #loc31)), %tmp4_12: f32 loc(callsite(#loc3 at #loc31))):
      %tmp4_13 = arith.addf %tmp4_11, %tmp4_12 : f32 loc(#loc37)
      tt.reduce.return %tmp4_13 : f32 loc(#loc35)
    }) : (tensor<1x1024xf32>) -> tensor<1xf32> loc(#loc35)
    %tmp4_10 = tt.expand_dims %tmp4 {axis = 1 : i32} : tensor<1xf32> -> tensor<1x1xf32> loc(#loc32)
    %0 = tt.addptr %out_ptr0, %xoffset : !tt.ptr<f32>, i32 loc(#loc15)
    %1 = tt.splat %0 : !tt.ptr<f32> -> tensor<1x1x!tt.ptr<f32>> loc(#loc15)
    tt.store %1, %tmp4_10, %xmask_1 : tensor<1x1x!tt.ptr<f32>> loc(#loc16)
    tt.return loc(#loc17)
  } loc(#loc)
} loc(#loc)
#loc1 = loc("/NHNHOME/WORKSPACE/26msit001_A/jinhyeok/loop_TTT/lact/.cache_inductor_llm/ia/cia4ae4fs47fgvlv667ihr35l6iwwssu7sznvv6i55lobpr3hqio.py":34:42)
#loc2 = loc("/NHNHOME/WORKSPACE/26msit001_A/jinhyeok/loop_TTT/lact/.cache_inductor_llm/ia/cia4ae4fs47fgvlv667ihr35l6iwwssu7sznvv6i55lobpr3hqio.py":26:21)
#loc4 = loc("/NHNHOME/WORKSPACE/26msit001_A/jinhyeok/loop_TTT/lact/.cache_inductor_llm/ia/cia4ae4fs47fgvlv667ihr35l6iwwssu7sznvv6i55lobpr3hqio.py":24:28)
#loc5 = loc("/NHNHOME/WORKSPACE/26msit001_A/jinhyeok/loop_TTT/lact/.cache_inductor_llm/ia/cia4ae4fs47fgvlv667ihr35l6iwwssu7sznvv6i55lobpr3hqio.py":27:28)
#loc6 = loc("/NHNHOME/WORKSPACE/26msit001_A/jinhyeok/loop_TTT/lact/.cache_inductor_llm/ia/cia4ae4fs47fgvlv667ihr35l6iwwssu7sznvv6i55lobpr3hqio.py":27:38)
#loc7 = loc("/NHNHOME/WORKSPACE/26msit001_A/jinhyeok/loop_TTT/lact/.cache_inductor_llm/ia/cia4ae4fs47fgvlv667ihr35l6iwwssu7sznvv6i55lobpr3hqio.py":34:37)
#loc8 = loc("/NHNHOME/WORKSPACE/26msit001_A/jinhyeok/loop_TTT/lact/.cache_inductor_llm/ia/cia4ae4fs47fgvlv667ihr35l6iwwssu7sznvv6i55lobpr3hqio.py":34:30)
#loc9 = loc("/NHNHOME/WORKSPACE/26msit001_A/jinhyeok/loop_TTT/lact/.cache_inductor_llm/ia/cia4ae4fs47fgvlv667ihr35l6iwwssu7sznvv6i55lobpr3hqio.py":34:47)
#loc10 = loc("/NHNHOME/WORKSPACE/26msit001_A/jinhyeok/loop_TTT/lact/.cache_inductor_llm/ia/cia4ae4fs47fgvlv667ihr35l6iwwssu7sznvv6i55lobpr3hqio.py":36:33)
#loc11 = loc("/NHNHOME/WORKSPACE/26msit001_A/jinhyeok/TTT_camera_embedding/.venv_llm/lib/python3.12/site-packages/triton/language/standard.py":291:36)
#loc13 = loc("/NHNHOME/WORKSPACE/26msit001_A/jinhyeok/TTT_camera_embedding/.venv_llm/lib/python3.12/site-packages/triton/language/standard.py":261:15)
#loc14 = loc("/NHNHOME/WORKSPACE/26msit001_A/jinhyeok/loop_TTT/lact/.cache_inductor_llm/ia/cia4ae4fs47fgvlv667ihr35l6iwwssu7sznvv6i55lobpr3hqio.py":37:27)
#loc15 = loc("/NHNHOME/WORKSPACE/26msit001_A/jinhyeok/loop_TTT/lact/.cache_inductor_llm/ia/cia4ae4fs47fgvlv667ihr35l6iwwssu7sznvv6i55lobpr3hqio.py":38:25)
#loc16 = loc("/NHNHOME/WORKSPACE/26msit001_A/jinhyeok/loop_TTT/lact/.cache_inductor_llm/ia/cia4ae4fs47fgvlv667ihr35l6iwwssu7sznvv6i55lobpr3hqio.py":38:36)
#loc17 = loc("/NHNHOME/WORKSPACE/26msit001_A/jinhyeok/loop_TTT/lact/.cache_inductor_llm/ia/cia4ae4fs47fgvlv667ihr35l6iwwssu7sznvv6i55lobpr3hqio.py":38:4)
#loc22 = loc("tmp0"(#loc1))
#loc23 = loc("xmask"(#loc2))
#loc24 = loc("xoffset"(#loc4))
#loc25 = loc("r0_index"(#loc5))
#loc26 = loc("r0_index"(#loc6))
#loc27 = loc("tmp0"(#loc7))
#loc28 = loc("tmp0"(#loc8))
#loc29 = loc("tmp0"(#loc9))
#loc30 = loc("tmp3"(#loc10))
#loc32 = loc("tmp4"(#loc14))
#loc33 = loc(fused[#loc27, #loc22])
#loc34 = loc(fused[#loc29, #loc23])
#loc35 = loc(callsite(#loc11 at #loc31))
#loc37 = loc(callsite(#loc13 at #loc35))
