#loc = loc("/NHNHOME/WORKSPACE/26msit001_A/jinhyeok/loop_TTT/lact/.cache_inductor_llm/or/coro5mhwbtk7gxtzaloxwzecw6chtrg7g3k4qaomqxp6hmgcfswr.py":18:0)
#loc3 = loc(unknown)
#loc14 = loc("/NHNHOME/WORKSPACE/26msit001_A/jinhyeok/loop_TTT/lact/.cache_inductor_llm/or/coro5mhwbtk7gxtzaloxwzecw6chtrg7g3k4qaomqxp6hmgcfswr.py":37:24)
#loc22 = loc("in_out_ptr0"(#loc))
#loc23 = loc("in_ptr0"(#loc))
#loc24 = loc("xnumel"(#loc))
#loc25 = loc("r0_numel"(#loc))
#loc37 = loc("tmp4"(#loc14))
#loc43 = loc(callsite(#loc3 at #loc37))
module {
  tt.func public @triton_per_fused__to_copy_add_linalg_vector_norm_mul_zeros_like_5(%in_out_ptr0: !tt.ptr<f32> {tt.divisibility = 16 : i32} loc("in_out_ptr0"(#loc)), %in_ptr0: !tt.ptr<f32> {tt.divisibility = 16 : i32} loc("in_ptr0"(#loc)), %xnumel: i32 loc("xnumel"(#loc)), %r0_numel: i32 loc("r0_numel"(#loc))) attributes {noinline = false} {
    %tmp0 = arith.constant 5 : i32 loc(#loc26)
    %xmask = arith.constant 8 : i32 loc(#loc27)
    %cst = arith.constant dense<0.000000e+00> : tensor<1x8xf32> loc(#loc3)
    %r0_mask = arith.constant dense<5> : tensor<1x8xi32> loc(#loc28)
    %xoffset = tt.get_program_id x : i32 loc(#loc29)
    %xmask_0 = arith.cmpi slt, %xoffset, %xmask : i32 loc(#loc27)
    %xmask_1 = tt.splat %xmask_0 : i1 -> tensor<1x1xi1> loc(#loc27)
    %r0_index = tt.make_range {end = 8 : i32, start = 0 : i32} : tensor<8xi32> loc(#loc30)
    %r0_index_2 = tt.expand_dims %r0_index {axis = 0 : i32} : tensor<8xi32> -> tensor<1x8xi32> loc(#loc31)
    %r0_mask_3 = arith.cmpi slt, %r0_index_2, %r0_mask : tensor<1x8xi32> loc(#loc28)
    %tmp0_4 = arith.muli %xoffset, %tmp0 : i32 loc(#loc26)
    %tmp0_5 = tt.splat %tmp0_4 : i32 -> tensor<1x8xi32> loc(#loc40)
    %tmp0_6 = arith.addi %r0_index_2, %tmp0_5 : tensor<1x8xi32> loc(#loc32)
    %tmp0_7 = tt.splat %in_ptr0 : !tt.ptr<f32> -> tensor<1x8x!tt.ptr<f32>> loc(#loc33)
    %tmp0_8 = tt.addptr %tmp0_7, %tmp0_6 : tensor<1x8x!tt.ptr<f32>>, tensor<1x8xi32> loc(#loc33)
    %tmp0_9 = tt.splat %xmask_0 : i1 -> tensor<1x8xi1> loc(#loc41)
    %tmp0_10 = arith.andi %r0_mask_3, %tmp0_9 : tensor<1x8xi1> loc(#loc34)
    %tmp0_11 = tt.load %tmp0_8, %tmp0_10, %cst : tensor<1x8x!tt.ptr<f32>> loc(#loc35)
    %tmp3 = arith.select %tmp0_10, %tmp0_11, %cst : tensor<1x8xi1>, tensor<1x8xf32> loc(#loc36)
    %tmp4 = "tt.reduce"(%tmp3) <{axis = 1 : i32}> ({
    ^bb0(%tmp4_13: f32 loc(callsite(#loc3 at #loc37)), %tmp4_14: f32 loc(callsite(#loc3 at #loc37))):
      %tmp4_15 = arith.addf %tmp4_13, %tmp4_14 : f32 loc(#loc44)
      tt.reduce.return %tmp4_15 : f32 loc(#loc42)
    }) : (tensor<1x8xf32>) -> tensor<1xf32> loc(#loc42)
    %tmp4_12 = tt.expand_dims %tmp4 {axis = 1 : i32} : tensor<1xf32> -> tensor<1x1xf32> loc(#loc38)
    %tmp5 = tt.extern_elementwise %tmp4_12 {libname = "", libpath = "", pure = true, symbol = "__nv_sqrtf"} : (tensor<1x1xf32>) -> tensor<1x1xf32> loc(#loc39)
    gpu.barrier loc(#loc18)
    %0 = tt.addptr %in_out_ptr0, %xoffset : !tt.ptr<f32>, i32 loc(#loc19)
    %1 = tt.splat %0 : !tt.ptr<f32> -> tensor<1x1x!tt.ptr<f32>> loc(#loc19)
    tt.store %1, %tmp5, %xmask_1 : tensor<1x1x!tt.ptr<f32>> loc(#loc20)
    tt.return loc(#loc21)
  } loc(#loc)
} loc(#loc)
#loc1 = loc("/NHNHOME/WORKSPACE/26msit001_A/jinhyeok/loop_TTT/lact/.cache_inductor_llm/or/coro5mhwbtk7gxtzaloxwzecw6chtrg7g3k4qaomqxp6hmgcfswr.py":34:39)
#loc2 = loc("/NHNHOME/WORKSPACE/26msit001_A/jinhyeok/loop_TTT/lact/.cache_inductor_llm/or/coro5mhwbtk7gxtzaloxwzecw6chtrg7g3k4qaomqxp6hmgcfswr.py":26:21)
#loc4 = loc("/NHNHOME/WORKSPACE/26msit001_A/jinhyeok/loop_TTT/lact/.cache_inductor_llm/or/coro5mhwbtk7gxtzaloxwzecw6chtrg7g3k4qaomqxp6hmgcfswr.py":29:25)
#loc5 = loc("/NHNHOME/WORKSPACE/26msit001_A/jinhyeok/loop_TTT/lact/.cache_inductor_llm/or/coro5mhwbtk7gxtzaloxwzecw6chtrg7g3k4qaomqxp6hmgcfswr.py":24:28)
#loc6 = loc("/NHNHOME/WORKSPACE/26msit001_A/jinhyeok/loop_TTT/lact/.cache_inductor_llm/or/coro5mhwbtk7gxtzaloxwzecw6chtrg7g3k4qaomqxp6hmgcfswr.py":27:28)
#loc7 = loc("/NHNHOME/WORKSPACE/26msit001_A/jinhyeok/loop_TTT/lact/.cache_inductor_llm/or/coro5mhwbtk7gxtzaloxwzecw6chtrg7g3k4qaomqxp6hmgcfswr.py":27:38)
#loc8 = loc("/NHNHOME/WORKSPACE/26msit001_A/jinhyeok/loop_TTT/lact/.cache_inductor_llm/or/coro5mhwbtk7gxtzaloxwzecw6chtrg7g3k4qaomqxp6hmgcfswr.py":34:37)
#loc9 = loc("/NHNHOME/WORKSPACE/26msit001_A/jinhyeok/loop_TTT/lact/.cache_inductor_llm/or/coro5mhwbtk7gxtzaloxwzecw6chtrg7g3k4qaomqxp6hmgcfswr.py":34:30)
#loc10 = loc("/NHNHOME/WORKSPACE/26msit001_A/jinhyeok/loop_TTT/lact/.cache_inductor_llm/or/coro5mhwbtk7gxtzaloxwzecw6chtrg7g3k4qaomqxp6hmgcfswr.py":34:54)
#loc11 = loc("/NHNHOME/WORKSPACE/26msit001_A/jinhyeok/loop_TTT/lact/.cache_inductor_llm/or/coro5mhwbtk7gxtzaloxwzecw6chtrg7g3k4qaomqxp6hmgcfswr.py":34:44)
#loc12 = loc("/NHNHOME/WORKSPACE/26msit001_A/jinhyeok/loop_TTT/lact/.cache_inductor_llm/or/coro5mhwbtk7gxtzaloxwzecw6chtrg7g3k4qaomqxp6hmgcfswr.py":36:43)
#loc13 = loc("/NHNHOME/WORKSPACE/26msit001_A/jinhyeok/TTT_camera_embedding/.venv_llm/lib/python3.12/site-packages/triton/language/standard.py":291:36)
#loc15 = loc("/NHNHOME/WORKSPACE/26msit001_A/jinhyeok/TTT_camera_embedding/.venv_llm/lib/python3.12/site-packages/triton/language/standard.py":261:15)
#loc16 = loc("/NHNHOME/WORKSPACE/26msit001_A/jinhyeok/loop_TTT/lact/.cache_inductor_llm/or/coro5mhwbtk7gxtzaloxwzecw6chtrg7g3k4qaomqxp6hmgcfswr.py":37:27)
#loc17 = loc("/NHNHOME/WORKSPACE/26msit001_A/jinhyeok/loop_TTT/lact/.cache_inductor_llm/or/coro5mhwbtk7gxtzaloxwzecw6chtrg7g3k4qaomqxp6hmgcfswr.py":38:26)
#loc18 = loc("/NHNHOME/WORKSPACE/26msit001_A/jinhyeok/loop_TTT/lact/.cache_inductor_llm/or/coro5mhwbtk7gxtzaloxwzecw6chtrg7g3k4qaomqxp6hmgcfswr.py":39:4)
#loc19 = loc("/NHNHOME/WORKSPACE/26msit001_A/jinhyeok/loop_TTT/lact/.cache_inductor_llm/or/coro5mhwbtk7gxtzaloxwzecw6chtrg7g3k4qaomqxp6hmgcfswr.py":40:28)
#loc20 = loc("/NHNHOME/WORKSPACE/26msit001_A/jinhyeok/loop_TTT/lact/.cache_inductor_llm/or/coro5mhwbtk7gxtzaloxwzecw6chtrg7g3k4qaomqxp6hmgcfswr.py":40:39)
#loc21 = loc("/NHNHOME/WORKSPACE/26msit001_A/jinhyeok/loop_TTT/lact/.cache_inductor_llm/or/coro5mhwbtk7gxtzaloxwzecw6chtrg7g3k4qaomqxp6hmgcfswr.py":40:4)
#loc26 = loc("tmp0"(#loc1))
#loc27 = loc("xmask"(#loc2))
#loc28 = loc("r0_mask"(#loc4))
#loc29 = loc("xoffset"(#loc5))
#loc30 = loc("r0_index"(#loc6))
#loc31 = loc("r0_index"(#loc7))
#loc32 = loc("tmp0"(#loc8))
#loc33 = loc("tmp0"(#loc9))
#loc34 = loc("tmp0"(#loc10))
#loc35 = loc("tmp0"(#loc11))
#loc36 = loc("tmp3"(#loc12))
#loc38 = loc("tmp4"(#loc16))
#loc39 = loc("tmp5"(#loc17))
#loc40 = loc(fused[#loc32, #loc26])
#loc41 = loc(fused[#loc34, #loc27])
#loc42 = loc(callsite(#loc13 at #loc37))
#loc44 = loc(callsite(#loc15 at #loc42))
