#loc = loc("/NHNHOME/WORKSPACE/26msit001_A/jinhyeok/TTT_camera_embedding/lact_llm/.cache_inductor/4w/c4w774ylihulpp5eyiqyav7i366gvn6miybbufzs3q7btwv5veej.py":18:0)
#loc55 = loc("in_ptr0"(#loc))
#loc56 = loc("in_ptr1"(#loc))
#loc57 = loc("in_ptr2"(#loc))
#loc58 = loc("in_ptr3"(#loc))
#loc59 = loc("out_ptr0"(#loc))
#loc60 = loc("ynumel"(#loc))
#loc61 = loc("xnumel"(#loc))
module {
  tt.func public @triton_poi_fused__to_copy_cat_mul_silu_slice_stack_transpose_view_2(%in_ptr0: !tt.ptr<f32> {tt.divisibility = 16 : i32} loc("in_ptr0"(#loc)), %in_ptr1: !tt.ptr<bf16> {tt.divisibility = 16 : i32} loc("in_ptr1"(#loc)), %in_ptr2: !tt.ptr<bf16> {tt.divisibility = 16 : i32} loc("in_ptr2"(#loc)), %in_ptr3: !tt.ptr<f32> loc("in_ptr3"(#loc)), %out_ptr0: !tt.ptr<bf16> {tt.divisibility = 16 : i32} loc("out_ptr0"(#loc)), %ynumel: i32 {tt.divisibility = 16 : i32} loc("ynumel"(#loc)), %xnumel: i32 {tt.divisibility = 16 : i32} loc("xnumel"(#loc))) attributes {noinline = false} {
    %c-96_i32 = arith.constant -96 : i32 loc(#loc1)
    %c96_i64 = arith.constant 96 : i64 loc(#loc1)
    %xmask = arith.constant 192 : i32 loc(#loc62)
    %tmp14 = arith.constant dense<1.000000e+00> : tensor<1024x1xf32> loc(#loc106)
    %cst = arith.constant dense<0.000000e+00> : tensor<1024x1xbf16> loc(#loc1)
    %cst_0 = arith.constant dense<192> : tensor<1024x1xi32> loc(#loc4)
    %cst_1 = arith.constant dense<196608> : tensor<1024x1xi32> loc(#loc1)
    %cst_2 = arith.constant dense<0.000000e+00> : tensor<1024x1xf32> loc(#loc1)
    %cst_3 = arith.constant dense<98304> : tensor<1024x1xi32> loc(#loc1)
    %tmp23 = arith.constant dense<12288> : tensor<1024x1xi32> loc(#loc64)
    %tmp23_4 = arith.constant dense<3> : tensor<1024x1xi32> loc(#loc65)
    %cst_5 = arith.constant dense<1024> : tensor<1024x1xi32> loc(#loc1)
    %c1024_i32 = arith.constant 1024 : i32 loc(#loc1)
    %yoffset = tt.get_program_id y : i32 loc(#loc66)
    %yoffset_6 = arith.muli %yoffset, %c1024_i32 : i32 loc(#loc67)
    %yindex = tt.make_range {end = 1024 : i32, start = 0 : i32} : tensor<1024xi32> loc(#loc68)
    %yindex_7 = tt.expand_dims %yindex {axis = 1 : i32} : tensor<1024xi32> -> tensor<1024x1xi32> loc(#loc69)
    %yindex_8 = tt.splat %yoffset_6 : i32 -> tensor<1024x1xi32> loc(#loc70)
    %yindex_9 = arith.addi %yindex_8, %yindex_7 : tensor<1024x1xi32> loc(#loc70)
    %xoffset = tt.get_program_id x : i32 loc(#loc71)
    %xmask_10 = arith.cmpi slt, %xoffset, %xmask : i32 loc(#loc62)
    %y0 = arith.remsi %yindex_9, %cst_5 : tensor<1024x1xi32> loc(#loc72)
    %y1 = arith.divsi %yindex_9, %cst_5 : tensor<1024x1xi32> loc(#loc73)
    %tmp23_11 = arith.muli %y0, %tmp23_4 : tensor<1024x1xi32> loc(#loc65)
    %tmp23_12 = arith.muli %y1, %tmp23 : tensor<1024x1xi32> loc(#loc64)
    %tmp23_13 = arith.addi %tmp23_11, %tmp23_12 : tensor<1024x1xi32> loc(#loc74)
    %tmp23_14 = tt.splat %in_ptr3 : !tt.ptr<f32> -> tensor<1024x1x!tt.ptr<f32>> loc(#loc75)
    %tmp23_15 = tt.addptr %tmp23_14, %tmp23_13 : tensor<1024x1x!tt.ptr<f32>>, tensor<1024x1xi32> loc(#loc75)
    %tmp23_16 = tt.load %tmp23_15 evictionPolicy = evict_last : tensor<1024x1x!tt.ptr<f32>> loc(#loc76)
    %tmp4 = arith.extsi %xoffset : i32 to i64 loc(#loc77)
    %tmp4_17 = arith.cmpi slt, %tmp4, %c96_i64 : i64 loc(#loc77)
    %tmp5 = arith.muli %xoffset, %c1024_i32 : i32 loc(#loc78)
    %tmp5_18 = tt.splat %tmp5 : i32 -> tensor<1024x1xi32> loc(#loc107)
    %tmp5_19 = arith.addi %y0, %tmp5_18 : tensor<1024x1xi32> loc(#loc79)
    %tmp5_20 = arith.muli %y1, %cst_3 : tensor<1024x1xi32> loc(#loc80)
    %tmp5_21 = arith.addi %tmp5_19, %tmp5_20 : tensor<1024x1xi32> loc(#loc81)
    %tmp5_22 = tt.splat %in_ptr0 : !tt.ptr<f32> -> tensor<1024x1x!tt.ptr<f32>> loc(#loc82)
    %tmp5_23 = tt.addptr %tmp5_22, %tmp5_21 : tensor<1024x1x!tt.ptr<f32>>, tensor<1024x1xi32> loc(#loc82)
    %tmp5_24 = arith.andi %tmp4_17, %xmask_10 : i1 loc(#loc83)
    %tmp5_25 = tt.splat %tmp5_24 : i1 -> tensor<1024x1xi1> loc(#loc108)
    %tmp5_26 = tt.load %tmp5_23, %tmp5_25, %cst_2 evictionPolicy = evict_last : tensor<1024x1x!tt.ptr<f32>> loc(#loc84)
    %tmp8 = tt.splat %tmp4_17 : i1 -> tensor<1024x1xi1> loc(#loc109)
    %tmp8_27 = arith.select %tmp8, %tmp5_26, %cst_2 : tensor<1024x1xi1>, tensor<1024x1xf32> loc(#loc85)
    %tmp9 = arith.cmpi sge, %tmp4, %c96_i64 : i64 loc(#loc86)
    %tmp12 = arith.addi %y0, %cst_3 : tensor<1024x1xi32> loc(#loc87)
    %tmp12_28 = arith.addi %xoffset, %c-96_i32 : i32 loc(#loc88)
    %tmp12_29 = arith.muli %tmp12_28, %c1024_i32 : i32 loc(#loc89)
    %tmp12_30 = tt.splat %tmp12_29 : i32 -> tensor<1024x1xi32> loc(#loc110)
    %tmp12_31 = arith.addi %tmp12, %tmp12_30 : tensor<1024x1xi32> loc(#loc90)
    %tmp12_32 = arith.muli %y1, %cst_1 : tensor<1024x1xi32> loc(#loc91)
    %tmp12_33 = arith.addi %tmp12_31, %tmp12_32 : tensor<1024x1xi32> loc(#loc92)
    %tmp12_34 = tt.splat %in_ptr1 : !tt.ptr<bf16> -> tensor<1024x1x!tt.ptr<bf16>> loc(#loc93)
    %tmp12_35 = tt.addptr %tmp12_34, %tmp12_33 : tensor<1024x1x!tt.ptr<bf16>>, tensor<1024x1xi32> loc(#loc93)
    %tmp12_36 = arith.andi %tmp9, %xmask_10 : i1 loc(#loc94)
    %tmp12_37 = tt.splat %tmp12_36 : i1 -> tensor<1024x1xi1> loc(#loc111)
    %tmp12_38 = tt.load %tmp12_35, %tmp12_37, %cst evictionPolicy = evict_last : tensor<1024x1x!tt.ptr<bf16>> loc(#loc95)
    %tmp12_39 = arith.extf %tmp12_38 : tensor<1024x1xbf16> to tensor<1024x1xf32> loc(#loc96)
    %tmp14_40 = arith.subf %cst_2, %tmp12_39 : tensor<1024x1xf32> loc(#loc112)
    %tmp14_41 = math.exp %tmp14_40 : tensor<1024x1xf32> loc(#loc113)
    %tmp14_42 = arith.addf %tmp14_41, %tmp14 : tensor<1024x1xf32> loc(#loc114)
    %tmp14_43 = arith.divf %tmp14, %tmp14_42 : tensor<1024x1xf32> loc(#loc115)
    %tmp15 = arith.mulf %tmp12_39, %tmp14_43 : tensor<1024x1xf32> loc(#loc97)
    %tmp17 = tt.splat %in_ptr2 : !tt.ptr<bf16> -> tensor<1024x1x!tt.ptr<bf16>> loc(#loc98)
    %tmp17_44 = tt.addptr %tmp17, %tmp12_33 : tensor<1024x1x!tt.ptr<bf16>>, tensor<1024x1xi32> loc(#loc98)
    %tmp17_45 = tt.load %tmp17_44, %tmp12_37, %cst evictionPolicy = evict_last : tensor<1024x1x!tt.ptr<bf16>> loc(#loc99)
    %tmp17_46 = arith.extf %tmp17_45 : tensor<1024x1xbf16> to tensor<1024x1xf32> loc(#loc100)
    %tmp18 = arith.mulf %tmp15, %tmp17_46 : tensor<1024x1xf32> loc(#loc101)
    %tmp20 = tt.splat %tmp9 : i1 -> tensor<1024x1xi1> loc(#loc116)
    %tmp20_47 = arith.select %tmp20, %tmp18, %cst_2 : tensor<1024x1xi1>, tensor<1024x1xf32> loc(#loc102)
    %tmp21 = arith.select %tmp8, %tmp8_27, %tmp20_47 : tensor<1024x1xi1>, tensor<1024x1xf32> loc(#loc103)
    %tmp24 = arith.mulf %tmp21, %tmp23_16 : tensor<1024x1xf32> loc(#loc104)
    %0 = arith.muli %yindex_9, %cst_0 : tensor<1024x1xi32> loc(#loc4)
    %xindex = tt.splat %xoffset : i32 -> tensor<1024x1xi32> loc(#loc117)
    %1 = arith.addi %xindex, %0 : tensor<1024x1xi32> loc(#loc50)
    %2 = tt.splat %out_ptr0 : !tt.ptr<bf16> -> tensor<1024x1x!tt.ptr<bf16>> loc(#loc52)
    %3 = tt.addptr %2, %1 : tensor<1024x1x!tt.ptr<bf16>>, tensor<1024x1xi32> loc(#loc52)
    %xmask_48 = tt.splat %xmask_10 : i1 -> tensor<1024x1xi1> loc(#loc118)
    %4 = arith.truncf %tmp24 : tensor<1024x1xf32> to tensor<1024x1xbf16> loc(#loc53)
    tt.store %3, %4, %xmask_48 : tensor<1024x1x!tt.ptr<bf16>> loc(#loc53)
    tt.return loc(#loc54)
  } loc(#loc)
} loc(#loc)
#loc1 = loc(unknown)
#loc2 = loc("/NHNHOME/WORKSPACE/26msit001_A/jinhyeok/TTT_camera_embedding/lact_llm/.cache_inductor/4w/c4w774ylihulpp5eyiqyav7i366gvn6miybbufzs3q7btwv5veej.py":26:21)
#loc3 = loc("/NHNHOME/WORKSPACE/26msit001_A/jinhyeok/TTT_camera_embedding/lact_llm/.cache_inductor/4w/c4w774ylihulpp5eyiqyav7i366gvn6miybbufzs3q7btwv5veej.py":46:23)
#loc4 = loc("/NHNHOME/WORKSPACE/26msit001_A/jinhyeok/TTT_camera_embedding/lact_llm/.cache_inductor/4w/c4w774ylihulpp5eyiqyav7i366gvn6miybbufzs3q7btwv5veej.py":57:34)
#loc5 = loc("/NHNHOME/WORKSPACE/26msit001_A/jinhyeok/TTT_camera_embedding/lact_llm/.cache_inductor/4w/c4w774ylihulpp5eyiqyav7i366gvn6miybbufzs3q7btwv5veej.py":31:44)
#loc6 = loc("/NHNHOME/WORKSPACE/26msit001_A/jinhyeok/TTT_camera_embedding/lact_llm/.cache_inductor/4w/c4w774ylihulpp5eyiqyav7i366gvn6miybbufzs3q7btwv5veej.py":31:33)
#loc7 = loc("/NHNHOME/WORKSPACE/26msit001_A/jinhyeok/TTT_camera_embedding/lact_llm/.cache_inductor/4w/c4w774ylihulpp5eyiqyav7i366gvn6miybbufzs3q7btwv5veej.py":21:28)
#loc8 = loc("/NHNHOME/WORKSPACE/26msit001_A/jinhyeok/TTT_camera_embedding/lact_llm/.cache_inductor/4w/c4w774ylihulpp5eyiqyav7i366gvn6miybbufzs3q7btwv5veej.py":21:33)
#loc9 = loc("/NHNHOME/WORKSPACE/26msit001_A/jinhyeok/TTT_camera_embedding/lact_llm/.cache_inductor/4w/c4w774ylihulpp5eyiqyav7i366gvn6miybbufzs3q7btwv5veej.py":22:36)
#loc10 = loc("/NHNHOME/WORKSPACE/26msit001_A/jinhyeok/TTT_camera_embedding/lact_llm/.cache_inductor/4w/c4w774ylihulpp5eyiqyav7i366gvn6miybbufzs3q7btwv5veej.py":22:44)
#loc11 = loc("/NHNHOME/WORKSPACE/26msit001_A/jinhyeok/TTT_camera_embedding/lact_llm/.cache_inductor/4w/c4w774ylihulpp5eyiqyav7i366gvn6miybbufzs3q7btwv5veej.py":22:23)
#loc12 = loc("/NHNHOME/WORKSPACE/26msit001_A/jinhyeok/TTT_camera_embedding/lact_llm/.cache_inductor/4w/c4w774ylihulpp5eyiqyav7i366gvn6miybbufzs3q7btwv5veej.py":24:28)
#loc13 = loc("/NHNHOME/WORKSPACE/26msit001_A/jinhyeok/TTT_camera_embedding/lact_llm/.cache_inductor/4w/c4w774ylihulpp5eyiqyav7i366gvn6miybbufzs3q7btwv5veej.py":28:19)
#loc14 = loc("/NHNHOME/WORKSPACE/26msit001_A/jinhyeok/TTT_camera_embedding/lact_llm/.cache_inductor/4w/c4w774ylihulpp5eyiqyav7i366gvn6miybbufzs3q7btwv5veej.py":29:19)
#loc15 = loc("/NHNHOME/WORKSPACE/26msit001_A/jinhyeok/TTT_camera_embedding/lact_llm/.cache_inductor/4w/c4w774ylihulpp5eyiqyav7i366gvn6miybbufzs3q7btwv5veej.py":31:38)
#loc16 = loc("/NHNHOME/WORKSPACE/26msit001_A/jinhyeok/TTT_camera_embedding/lact_llm/.cache_inductor/4w/c4w774ylihulpp5eyiqyav7i366gvn6miybbufzs3q7btwv5veej.py":31:31)
#loc17 = loc("/NHNHOME/WORKSPACE/26msit001_A/jinhyeok/TTT_camera_embedding/lact_llm/.cache_inductor/4w/c4w774ylihulpp5eyiqyav7i366gvn6miybbufzs3q7btwv5veej.py":31:49)
#loc18 = loc("/NHNHOME/WORKSPACE/26msit001_A/jinhyeok/TTT_camera_embedding/lact_llm/.cache_inductor/4w/c4w774ylihulpp5eyiqyav7i366gvn6miybbufzs3q7btwv5veej.py":36:18)
#loc19 = loc("/NHNHOME/WORKSPACE/26msit001_A/jinhyeok/TTT_camera_embedding/lact_llm/.cache_inductor/4w/c4w774ylihulpp5eyiqyav7i366gvn6miybbufzs3q7btwv5veej.py":37:41)
#loc20 = loc("/NHNHOME/WORKSPACE/26msit001_A/jinhyeok/TTT_camera_embedding/lact_llm/.cache_inductor/4w/c4w774ylihulpp5eyiqyav7i366gvn6miybbufzs3q7btwv5veej.py":37:35)
#loc21 = loc("/NHNHOME/WORKSPACE/26msit001_A/jinhyeok/TTT_camera_embedding/lact_llm/.cache_inductor/4w/c4w774ylihulpp5eyiqyav7i366gvn6miybbufzs3q7btwv5veej.py":37:53)
#loc22 = loc("/NHNHOME/WORKSPACE/26msit001_A/jinhyeok/TTT_camera_embedding/lact_llm/.cache_inductor/4w/c4w774ylihulpp5eyiqyav7i366gvn6miybbufzs3q7btwv5veej.py":37:47)
#loc23 = loc("/NHNHOME/WORKSPACE/26msit001_A/jinhyeok/TTT_camera_embedding/lact_llm/.cache_inductor/4w/c4w774ylihulpp5eyiqyav7i366gvn6miybbufzs3q7btwv5veej.py":37:30)
#loc24 = loc("/NHNHOME/WORKSPACE/26msit001_A/jinhyeok/TTT_camera_embedding/lact_llm/.cache_inductor/4w/c4w774ylihulpp5eyiqyav7i366gvn6miybbufzs3q7btwv5veej.py":37:65)
#loc25 = loc("/NHNHOME/WORKSPACE/26msit001_A/jinhyeok/TTT_camera_embedding/lact_llm/.cache_inductor/4w/c4w774ylihulpp5eyiqyav7i366gvn6miybbufzs3q7btwv5veej.py":37:58)
#loc26 = loc("/NHNHOME/WORKSPACE/26msit001_A/jinhyeok/TTT_camera_embedding/lact_llm/.cache_inductor/4w/c4w774ylihulpp5eyiqyav7i366gvn6miybbufzs3q7btwv5veej.py":40:32)
#loc27 = loc("/NHNHOME/WORKSPACE/26msit001_A/jinhyeok/TTT_camera_embedding/lact_llm/.cache_inductor/4w/c4w774ylihulpp5eyiqyav7i366gvn6miybbufzs3q7btwv5veej.py":41:19)
#loc28 = loc("/NHNHOME/WORKSPACE/26msit001_A/jinhyeok/TTT_camera_embedding/lact_llm/.cache_inductor/4w/c4w774ylihulpp5eyiqyav7i366gvn6miybbufzs3q7btwv5veej.py":44:39)
#loc29 = loc("/NHNHOME/WORKSPACE/26msit001_A/jinhyeok/TTT_camera_embedding/lact_llm/.cache_inductor/4w/c4w774ylihulpp5eyiqyav7i366gvn6miybbufzs3q7btwv5veej.py":44:58)
#loc30 = loc("/NHNHOME/WORKSPACE/26msit001_A/jinhyeok/TTT_camera_embedding/lact_llm/.cache_inductor/4w/c4w774ylihulpp5eyiqyav7i366gvn6miybbufzs3q7btwv5veej.py":44:50)
#loc31 = loc("/NHNHOME/WORKSPACE/26msit001_A/jinhyeok/TTT_camera_embedding/lact_llm/.cache_inductor/4w/c4w774ylihulpp5eyiqyav7i366gvn6miybbufzs3q7btwv5veej.py":44:44)
#loc32 = loc("/NHNHOME/WORKSPACE/26msit001_A/jinhyeok/TTT_camera_embedding/lact_llm/.cache_inductor/4w/c4w774ylihulpp5eyiqyav7i366gvn6miybbufzs3q7btwv5veej.py":44:71)
#loc33 = loc("/NHNHOME/WORKSPACE/26msit001_A/jinhyeok/TTT_camera_embedding/lact_llm/.cache_inductor/4w/c4w774ylihulpp5eyiqyav7i366gvn6miybbufzs3q7btwv5veej.py":44:64)
#loc34 = loc("/NHNHOME/WORKSPACE/26msit001_A/jinhyeok/TTT_camera_embedding/lact_llm/.cache_inductor/4w/c4w774ylihulpp5eyiqyav7i366gvn6miybbufzs3q7btwv5veej.py":44:31)
#loc35 = loc("/NHNHOME/WORKSPACE/26msit001_A/jinhyeok/TTT_camera_embedding/lact_llm/.cache_inductor/4w/c4w774ylihulpp5eyiqyav7i366gvn6miybbufzs3q7btwv5veej.py":44:83)
#loc36 = loc("/NHNHOME/WORKSPACE/26msit001_A/jinhyeok/TTT_camera_embedding/lact_llm/.cache_inductor/4w/c4w774ylihulpp5eyiqyav7i366gvn6miybbufzs3q7btwv5veej.py":44:76)
#loc37 = loc("/NHNHOME/WORKSPACE/26msit001_A/jinhyeok/TTT_camera_embedding/lact_llm/.cache_inductor/4w/c4w774ylihulpp5eyiqyav7i366gvn6miybbufzs3q7btwv5veej.py":44:134)
#loc38 = loc("/NHNHOME/WORKSPACE/26msit001_A/jinhyeok/TTT_camera_embedding/.venv_llm/lib/python3.12/site-packages/triton/language/standard.py":48:30)
#loc39 = loc("/NHNHOME/WORKSPACE/26msit001_A/jinhyeok/TTT_camera_embedding/.venv_llm/lib/python3.12/site-packages/triton/language/standard.py":48:29)
#loc40 = loc("/NHNHOME/WORKSPACE/26msit001_A/jinhyeok/TTT_camera_embedding/.venv_llm/lib/python3.12/site-packages/triton/language/standard.py":48:20)
#loc41 = loc("/NHNHOME/WORKSPACE/26msit001_A/jinhyeok/TTT_camera_embedding/.venv_llm/lib/python3.12/site-packages/triton/language/standard.py":48:16)
#loc42 = loc("/NHNHOME/WORKSPACE/26msit001_A/jinhyeok/TTT_camera_embedding/lact_llm/.cache_inductor/4w/c4w774ylihulpp5eyiqyav7i366gvn6miybbufzs3q7btwv5veej.py":47:20)
#loc43 = loc("/NHNHOME/WORKSPACE/26msit001_A/jinhyeok/TTT_camera_embedding/lact_llm/.cache_inductor/4w/c4w774ylihulpp5eyiqyav7i366gvn6miybbufzs3q7btwv5veej.py":49:31)
#loc44 = loc("/NHNHOME/WORKSPACE/26msit001_A/jinhyeok/TTT_camera_embedding/lact_llm/.cache_inductor/4w/c4w774ylihulpp5eyiqyav7i366gvn6miybbufzs3q7btwv5veej.py":49:76)
#loc45 = loc("/NHNHOME/WORKSPACE/26msit001_A/jinhyeok/TTT_camera_embedding/lact_llm/.cache_inductor/4w/c4w774ylihulpp5eyiqyav7i366gvn6miybbufzs3q7btwv5veej.py":49:134)
#loc46 = loc("/NHNHOME/WORKSPACE/26msit001_A/jinhyeok/TTT_camera_embedding/lact_llm/.cache_inductor/4w/c4w774ylihulpp5eyiqyav7i366gvn6miybbufzs3q7btwv5veej.py":50:20)
#loc47 = loc("/NHNHOME/WORKSPACE/26msit001_A/jinhyeok/TTT_camera_embedding/lact_llm/.cache_inductor/4w/c4w774ylihulpp5eyiqyav7i366gvn6miybbufzs3q7btwv5veej.py":52:34)
#loc48 = loc("/NHNHOME/WORKSPACE/26msit001_A/jinhyeok/TTT_camera_embedding/lact_llm/.cache_inductor/4w/c4w774ylihulpp5eyiqyav7i366gvn6miybbufzs3q7btwv5veej.py":53:33)
#loc49 = loc("/NHNHOME/WORKSPACE/26msit001_A/jinhyeok/TTT_camera_embedding/lact_llm/.cache_inductor/4w/c4w774ylihulpp5eyiqyav7i366gvn6miybbufzs3q7btwv5veej.py":55:20)
#loc50 = loc("/NHNHOME/WORKSPACE/26msit001_A/jinhyeok/TTT_camera_embedding/lact_llm/.cache_inductor/4w/c4w774ylihulpp5eyiqyav7i366gvn6miybbufzs3q7btwv5veej.py":57:30)
#loc51 = loc("/NHNHOME/WORKSPACE/26msit001_A/jinhyeok/TTT_camera_embedding/lact_llm/.cache_inductor/4w/c4w774ylihulpp5eyiqyav7i366gvn6miybbufzs3q7btwv5veej.py":25:23)
#loc52 = loc("/NHNHOME/WORKSPACE/26msit001_A/jinhyeok/TTT_camera_embedding/lact_llm/.cache_inductor/4w/c4w774ylihulpp5eyiqyav7i366gvn6miybbufzs3q7btwv5veej.py":57:25)
#loc53 = loc("/NHNHOME/WORKSPACE/26msit001_A/jinhyeok/TTT_camera_embedding/lact_llm/.cache_inductor/4w/c4w774ylihulpp5eyiqyav7i366gvn6miybbufzs3q7btwv5veej.py":57:46)
#loc54 = loc("/NHNHOME/WORKSPACE/26msit001_A/jinhyeok/TTT_camera_embedding/lact_llm/.cache_inductor/4w/c4w774ylihulpp5eyiqyav7i366gvn6miybbufzs3q7btwv5veej.py":57:4)
#loc62 = loc("xmask"(#loc2))
#loc63 = loc("tmp14"(#loc3))
#loc64 = loc("tmp23"(#loc5))
#loc65 = loc("tmp23"(#loc6))
#loc66 = loc("yoffset"(#loc7))
#loc67 = loc("yoffset"(#loc8))
#loc68 = loc("yindex"(#loc9))
#loc69 = loc("yindex"(#loc10))
#loc70 = loc("yindex"(#loc11))
#loc71 = loc("xoffset"(#loc12))
#loc72 = loc("y0"(#loc13))
#loc73 = loc("y1"(#loc14))
#loc74 = loc("tmp23"(#loc15))
#loc75 = loc("tmp23"(#loc16))
#loc76 = loc("tmp23"(#loc17))
#loc77 = loc("tmp4"(#loc18))
#loc78 = loc("tmp5"(#loc19))
#loc79 = loc("tmp5"(#loc20))
#loc80 = loc("tmp5"(#loc21))
#loc81 = loc("tmp5"(#loc22))
#loc82 = loc("tmp5"(#loc23))
#loc83 = loc("tmp5"(#loc24))
#loc84 = loc("tmp5"(#loc25))
#loc85 = loc("tmp8"(#loc26))
#loc86 = loc("tmp9"(#loc27))
#loc87 = loc("tmp12"(#loc28))
#loc88 = loc("tmp12"(#loc29))
#loc89 = loc("tmp12"(#loc30))
#loc90 = loc("tmp12"(#loc31))
#loc91 = loc("tmp12"(#loc32))
#loc92 = loc("tmp12"(#loc33))
#loc93 = loc("tmp12"(#loc34))
#loc94 = loc("tmp12"(#loc35))
#loc95 = loc("tmp12"(#loc36))
#loc96 = loc("tmp12"(#loc37))
#loc97 = loc("tmp15"(#loc42))
#loc98 = loc("tmp17"(#loc43))
#loc99 = loc("tmp17"(#loc44))
#loc100 = loc("tmp17"(#loc45))
#loc101 = loc("tmp18"(#loc46))
#loc102 = loc("tmp20"(#loc47))
#loc103 = loc("tmp21"(#loc48))
#loc104 = loc("tmp24"(#loc49))
#loc105 = loc("xindex"(#loc51))
#loc106 = loc(callsite(#loc1 at #loc63))
#loc107 = loc(fused[#loc79, #loc78])
#loc108 = loc(fused[#loc84, #loc83])
#loc109 = loc(fused[#loc85, #loc77])
#loc110 = loc(fused[#loc90, #loc89])
#loc111 = loc(fused[#loc95, #loc94])
#loc112 = loc(callsite(#loc38 at #loc63))
#loc113 = loc(callsite(#loc39 at #loc63))
#loc114 = loc(callsite(#loc40 at #loc63))
#loc115 = loc(callsite(#loc41 at #loc63))
#loc116 = loc(fused[#loc102, #loc86])
#loc117 = loc(fused[#loc50, #loc105])
#loc118 = loc(fused[#loc53, #loc62])
