#loc = loc("/NHNHOME/WORKSPACE/26msit001_A/jinhyeok/loop_TTT/lact/.cache_inductor_llm/nf/cnfsjjfm2dry72d5rczvgusu47ivihrjqc3yazib6cclfhhjhus3.py":18:0)
#loc46 = loc("in_ptr0"(#loc))
#loc47 = loc("in_ptr1"(#loc))
#loc48 = loc("in_ptr2"(#loc))
#loc49 = loc("in_ptr3"(#loc))
#loc50 = loc("in_ptr4"(#loc))
#loc51 = loc("in_ptr5"(#loc))
#loc52 = loc("out_ptr0"(#loc))
#loc53 = loc("out_ptr1"(#loc))
#loc54 = loc("out_ptr2"(#loc))
#loc55 = loc("out_ptr3"(#loc))
#loc56 = loc("xnumel"(#loc))
module {
  tt.func public @triton_poi_fused__to_copy_add_div_mul_transpose_zeros_like_13(%in_ptr0: !tt.ptr<bf16> {tt.divisibility = 16 : i32} loc("in_ptr0"(#loc)), %in_ptr1: !tt.ptr<f32> {tt.divisibility = 16 : i32} loc("in_ptr1"(#loc)), %in_ptr2: !tt.ptr<f32> {tt.divisibility = 16 : i32} loc("in_ptr2"(#loc)), %in_ptr3: !tt.ptr<bf16> {tt.divisibility = 16 : i32} loc("in_ptr3"(#loc)), %in_ptr4: !tt.ptr<bf16> {tt.divisibility = 16 : i32} loc("in_ptr4"(#loc)), %in_ptr5: !tt.ptr<bf16> {tt.divisibility = 16 : i32} loc("in_ptr5"(#loc)), %out_ptr0: !tt.ptr<f32> {tt.divisibility = 16 : i32} loc("out_ptr0"(#loc)), %out_ptr1: !tt.ptr<bf16> {tt.divisibility = 16 : i32} loc("out_ptr1"(#loc)), %out_ptr2: !tt.ptr<bf16> {tt.divisibility = 16 : i32} loc("out_ptr2"(#loc)), %out_ptr3: !tt.ptr<bf16> {tt.divisibility = 16 : i32} loc("out_ptr3"(#loc)), %xnumel: i32 {tt.divisibility = 16 : i32} loc("xnumel"(#loc))) attributes {noinline = false} {
    %xnumel_0 = arith.constant 294912 : i32 loc(#loc57)
    %xoffset = tt.get_program_id x : i32 loc(#loc58)
    %xoffset_1 = arith.constant 1024 : i32 loc(#loc59)
    %xoffset_2 = arith.constant 1024 : i32 loc(#loc59)
    %xoffset_3 = arith.muli %xoffset, %xoffset_2 : i32 loc(#loc59)
    %xindex = tt.make_range {end = 1024 : i32, start = 0 : i32} : tensor<1024xi32> loc(#loc60)
    %xindex_4 = tt.splat %xoffset_3 : i32 -> tensor<1024xi32> loc(#loc61)
    %xindex_5 = arith.addi %xindex_4, %xindex : tensor<1024xi32> loc(#loc61)
    %xmask = arith.constant true loc(#loc62)
    %xmask_6 = arith.constant dense<true> : tensor<1024xi1> loc(#loc62)
    %x1 = arith.constant 36864 : i32 loc(#loc63)
    %x1_7 = arith.constant 36864 : i32 loc(#loc63)
    %x1_8 = arith.constant dense<36864> : tensor<1024xi32> loc(#loc63)
    %x1_9 = arith.divsi %xindex_5, %x1_8 : tensor<1024xi32> loc(#loc63)
    %tmp0 = tt.splat %in_ptr0 : !tt.ptr<bf16> -> tensor<1024x!tt.ptr<bf16>> loc(#loc64)
    %tmp0_10 = tt.addptr %tmp0, %xindex_5 : tensor<1024x!tt.ptr<bf16>>, tensor<1024xi32> loc(#loc64)
    %tmp0_11 = tt.load %tmp0_10 : tensor<1024x!tt.ptr<bf16>> loc(#loc65)
    %tmp0_12 = arith.extf %tmp0_11 : tensor<1024xbf16> to tensor<1024xf32> loc(#loc66)
    %tmp2 = tt.splat %in_ptr1 : !tt.ptr<f32> -> tensor<1024x!tt.ptr<f32>> loc(#loc67)
    %tmp2_13 = tt.addptr %tmp2, %x1_9 : tensor<1024x!tt.ptr<f32>>, tensor<1024xi32> loc(#loc67)
    %tmp2_14 = tt.load %tmp2_13 evictionPolicy = evict_last : tensor<1024x!tt.ptr<f32>> loc(#loc68)
    %tmp8 = tt.splat %in_ptr2 : !tt.ptr<f32> -> tensor<1024x!tt.ptr<f32>> loc(#loc69)
    %tmp8_15 = tt.addptr %tmp8, %x1_9 : tensor<1024x!tt.ptr<f32>>, tensor<1024xi32> loc(#loc69)
    %tmp8_16 = tt.load %tmp8_15 evictionPolicy = evict_last : tensor<1024x!tt.ptr<f32>> loc(#loc70)
    %tmp14 = tt.splat %in_ptr3 : !tt.ptr<bf16> -> tensor<1024x!tt.ptr<bf16>> loc(#loc71)
    %tmp14_17 = tt.addptr %tmp14, %xindex_5 : tensor<1024x!tt.ptr<bf16>>, tensor<1024xi32> loc(#loc71)
    %tmp14_18 = tt.load %tmp14_17 : tensor<1024x!tt.ptr<bf16>> loc(#loc72)
    %tmp14_19 = arith.extf %tmp14_18 : tensor<1024xbf16> to tensor<1024xf32> loc(#loc73)
    %tmp19 = tt.splat %in_ptr4 : !tt.ptr<bf16> -> tensor<1024x!tt.ptr<bf16>> loc(#loc74)
    %tmp19_20 = tt.addptr %tmp19, %xindex_5 : tensor<1024x!tt.ptr<bf16>>, tensor<1024xi32> loc(#loc74)
    %tmp19_21 = tt.load %tmp19_20 : tensor<1024x!tt.ptr<bf16>> loc(#loc75)
    %tmp19_22 = arith.extf %tmp19_21 : tensor<1024xbf16> to tensor<1024xf32> loc(#loc76)
    %tmp23 = tt.splat %in_ptr5 : !tt.ptr<bf16> -> tensor<1024x!tt.ptr<bf16>> loc(#loc77)
    %tmp23_23 = tt.addptr %tmp23, %xindex_5 : tensor<1024x!tt.ptr<bf16>>, tensor<1024xi32> loc(#loc77)
    %tmp23_24 = tt.load %tmp23_23 : tensor<1024x!tt.ptr<bf16>> loc(#loc78)
    %tmp23_25 = arith.extf %tmp23_24 : tensor<1024xbf16> to tensor<1024xf32> loc(#loc79)
    %tmp3 = arith.constant 0.000000e+00 : f32 loc(#loc80)
    %tmp4 = arith.constant dense<0.000000e+00> : tensor<1024xf32> loc(#loc81)
    %tmp4_26 = arith.mulf %tmp4, %tmp2_14 : tensor<1024xf32> loc(#loc81)
    %tmp5 = arith.addf %tmp0_12, %tmp4_26 : tensor<1024xf32> loc(#loc82)
    %tmp9 = arith.constant 1.000000e-07 : f32 loc(#loc83)
    %tmp10 = arith.constant dense<1.000000e-07> : tensor<1024xf32> loc(#loc84)
    %tmp10_27 = arith.addf %tmp8_16, %tmp10 : tensor<1024xf32> loc(#loc84)
    %tmp11 = arith.divf %tmp5, %tmp10_27 : tensor<1024xf32> loc(#loc85)
    %tmp12 = arith.constant 4.084800e+00 : f32 loc(#loc86)
    %tmp13 = arith.constant dense<4.084800e+00> : tensor<1024xf32> loc(#loc87)
    %tmp13_28 = arith.mulf %tmp11, %tmp13 : tensor<1024xf32> loc(#loc87)
    %tmp16 = arith.addf %tmp13_28, %tmp14_19 : tensor<1024xf32> loc(#loc88)
    %tmp17 = arith.constant 3.950500e+00 : f32 loc(#loc89)
    %tmp18 = arith.constant dense<3.950500e+00> : tensor<1024xf32> loc(#loc90)
    %tmp18_29 = arith.mulf %tmp16, %tmp18 : tensor<1024xf32> loc(#loc90)
    %tmp21 = arith.addf %tmp18_29, %tmp19_22 : tensor<1024xf32> loc(#loc91)
    %tmp25 = arith.addf %tmp23_25, %tmp4_26 : tensor<1024xf32> loc(#loc92)
    %0 = tt.splat %out_ptr0 : !tt.ptr<f32> -> tensor<1024x!tt.ptr<f32>> loc(#loc37)
    %1 = tt.addptr %0, %xindex_5 : tensor<1024x!tt.ptr<f32>>, tensor<1024xi32> loc(#loc37)
    tt.store %1, %tmp21 : tensor<1024x!tt.ptr<f32>> loc(#loc38)
    %2 = tt.splat %out_ptr1 : !tt.ptr<bf16> -> tensor<1024x!tt.ptr<bf16>> loc(#loc39)
    %3 = tt.addptr %2, %xindex_5 : tensor<1024x!tt.ptr<bf16>>, tensor<1024xi32> loc(#loc39)
    %4 = arith.truncf %tmp21 : tensor<1024xf32> to tensor<1024xbf16> loc(#loc40)
    tt.store %3, %4 : tensor<1024x!tt.ptr<bf16>> loc(#loc40)
    %5 = tt.splat %out_ptr2 : !tt.ptr<bf16> -> tensor<1024x!tt.ptr<bf16>> loc(#loc41)
    %6 = tt.addptr %5, %xindex_5 : tensor<1024x!tt.ptr<bf16>>, tensor<1024xi32> loc(#loc41)
    %7 = arith.truncf %tmp21 : tensor<1024xf32> to tensor<1024xbf16> loc(#loc42)
    tt.store %6, %7 : tensor<1024x!tt.ptr<bf16>> loc(#loc42)
    %8 = tt.splat %out_ptr3 : !tt.ptr<bf16> -> tensor<1024x!tt.ptr<bf16>> loc(#loc43)
    %9 = tt.addptr %8, %xindex_5 : tensor<1024x!tt.ptr<bf16>>, tensor<1024xi32> loc(#loc43)
    %10 = arith.truncf %tmp25 : tensor<1024xf32> to tensor<1024xbf16> loc(#loc44)
    tt.store %9, %10 : tensor<1024x!tt.ptr<bf16>> loc(#loc44)
    tt.return loc(#loc45)
  } loc(#loc)
} loc(#loc)
#loc1 = loc("/NHNHOME/WORKSPACE/26msit001_A/jinhyeok/loop_TTT/lact/.cache_inductor_llm/nf/cnfsjjfm2dry72d5rczvgusu47ivihrjqc3yazib6cclfhhjhus3.py":19:13)
#loc2 = loc("/NHNHOME/WORKSPACE/26msit001_A/jinhyeok/loop_TTT/lact/.cache_inductor_llm/nf/cnfsjjfm2dry72d5rczvgusu47ivihrjqc3yazib6cclfhhjhus3.py":20:28)
#loc3 = loc("/NHNHOME/WORKSPACE/26msit001_A/jinhyeok/loop_TTT/lact/.cache_inductor_llm/nf/cnfsjjfm2dry72d5rczvgusu47ivihrjqc3yazib6cclfhhjhus3.py":20:33)
#loc4 = loc("/NHNHOME/WORKSPACE/26msit001_A/jinhyeok/loop_TTT/lact/.cache_inductor_llm/nf/cnfsjjfm2dry72d5rczvgusu47ivihrjqc3yazib6cclfhhjhus3.py":21:36)
#loc5 = loc("/NHNHOME/WORKSPACE/26msit001_A/jinhyeok/loop_TTT/lact/.cache_inductor_llm/nf/cnfsjjfm2dry72d5rczvgusu47ivihrjqc3yazib6cclfhhjhus3.py":21:23)
#loc6 = loc("/NHNHOME/WORKSPACE/26msit001_A/jinhyeok/loop_TTT/lact/.cache_inductor_llm/nf/cnfsjjfm2dry72d5rczvgusu47ivihrjqc3yazib6cclfhhjhus3.py":22:36)
#loc7 = loc("/NHNHOME/WORKSPACE/26msit001_A/jinhyeok/loop_TTT/lact/.cache_inductor_llm/nf/cnfsjjfm2dry72d5rczvgusu47ivihrjqc3yazib6cclfhhjhus3.py":24:19)
#loc8 = loc("/NHNHOME/WORKSPACE/26msit001_A/jinhyeok/loop_TTT/lact/.cache_inductor_llm/nf/cnfsjjfm2dry72d5rczvgusu47ivihrjqc3yazib6cclfhhjhus3.py":25:30)
#loc9 = loc("/NHNHOME/WORKSPACE/26msit001_A/jinhyeok/loop_TTT/lact/.cache_inductor_llm/nf/cnfsjjfm2dry72d5rczvgusu47ivihrjqc3yazib6cclfhhjhus3.py":25:35)
#loc10 = loc("/NHNHOME/WORKSPACE/26msit001_A/jinhyeok/loop_TTT/lact/.cache_inductor_llm/nf/cnfsjjfm2dry72d5rczvgusu47ivihrjqc3yazib6cclfhhjhus3.py":25:44)
#loc11 = loc("/NHNHOME/WORKSPACE/26msit001_A/jinhyeok/loop_TTT/lact/.cache_inductor_llm/nf/cnfsjjfm2dry72d5rczvgusu47ivihrjqc3yazib6cclfhhjhus3.py":26:30)
#loc12 = loc("/NHNHOME/WORKSPACE/26msit001_A/jinhyeok/loop_TTT/lact/.cache_inductor_llm/nf/cnfsjjfm2dry72d5rczvgusu47ivihrjqc3yazib6cclfhhjhus3.py":26:35)
#loc13 = loc("/NHNHOME/WORKSPACE/26msit001_A/jinhyeok/loop_TTT/lact/.cache_inductor_llm/nf/cnfsjjfm2dry72d5rczvgusu47ivihrjqc3yazib6cclfhhjhus3.py":27:30)
#loc14 = loc("/NHNHOME/WORKSPACE/26msit001_A/jinhyeok/loop_TTT/lact/.cache_inductor_llm/nf/cnfsjjfm2dry72d5rczvgusu47ivihrjqc3yazib6cclfhhjhus3.py":27:35)
#loc15 = loc("/NHNHOME/WORKSPACE/26msit001_A/jinhyeok/loop_TTT/lact/.cache_inductor_llm/nf/cnfsjjfm2dry72d5rczvgusu47ivihrjqc3yazib6cclfhhjhus3.py":28:31)
#loc16 = loc("/NHNHOME/WORKSPACE/26msit001_A/jinhyeok/loop_TTT/lact/.cache_inductor_llm/nf/cnfsjjfm2dry72d5rczvgusu47ivihrjqc3yazib6cclfhhjhus3.py":28:36)
#loc17 = loc("/NHNHOME/WORKSPACE/26msit001_A/jinhyeok/loop_TTT/lact/.cache_inductor_llm/nf/cnfsjjfm2dry72d5rczvgusu47ivihrjqc3yazib6cclfhhjhus3.py":28:45)
#loc18 = loc("/NHNHOME/WORKSPACE/26msit001_A/jinhyeok/loop_TTT/lact/.cache_inductor_llm/nf/cnfsjjfm2dry72d5rczvgusu47ivihrjqc3yazib6cclfhhjhus3.py":29:31)
#loc19 = loc("/NHNHOME/WORKSPACE/26msit001_A/jinhyeok/loop_TTT/lact/.cache_inductor_llm/nf/cnfsjjfm2dry72d5rczvgusu47ivihrjqc3yazib6cclfhhjhus3.py":29:36)
#loc20 = loc("/NHNHOME/WORKSPACE/26msit001_A/jinhyeok/loop_TTT/lact/.cache_inductor_llm/nf/cnfsjjfm2dry72d5rczvgusu47ivihrjqc3yazib6cclfhhjhus3.py":29:45)
#loc21 = loc("/NHNHOME/WORKSPACE/26msit001_A/jinhyeok/loop_TTT/lact/.cache_inductor_llm/nf/cnfsjjfm2dry72d5rczvgusu47ivihrjqc3yazib6cclfhhjhus3.py":30:31)
#loc22 = loc("/NHNHOME/WORKSPACE/26msit001_A/jinhyeok/loop_TTT/lact/.cache_inductor_llm/nf/cnfsjjfm2dry72d5rczvgusu47ivihrjqc3yazib6cclfhhjhus3.py":30:36)
#loc23 = loc("/NHNHOME/WORKSPACE/26msit001_A/jinhyeok/loop_TTT/lact/.cache_inductor_llm/nf/cnfsjjfm2dry72d5rczvgusu47ivihrjqc3yazib6cclfhhjhus3.py":30:45)
#loc24 = loc("/NHNHOME/WORKSPACE/26msit001_A/jinhyeok/loop_TTT/lact/.cache_inductor_llm/nf/cnfsjjfm2dry72d5rczvgusu47ivihrjqc3yazib6cclfhhjhus3.py":32:11)
#loc25 = loc("/NHNHOME/WORKSPACE/26msit001_A/jinhyeok/loop_TTT/lact/.cache_inductor_llm/nf/cnfsjjfm2dry72d5rczvgusu47ivihrjqc3yazib6cclfhhjhus3.py":33:18)
#loc26 = loc("/NHNHOME/WORKSPACE/26msit001_A/jinhyeok/loop_TTT/lact/.cache_inductor_llm/nf/cnfsjjfm2dry72d5rczvgusu47ivihrjqc3yazib6cclfhhjhus3.py":34:18)
#loc27 = loc("/NHNHOME/WORKSPACE/26msit001_A/jinhyeok/loop_TTT/lact/.cache_inductor_llm/nf/cnfsjjfm2dry72d5rczvgusu47ivihrjqc3yazib6cclfhhjhus3.py":37:11)
#loc28 = loc("/NHNHOME/WORKSPACE/26msit001_A/jinhyeok/loop_TTT/lact/.cache_inductor_llm/nf/cnfsjjfm2dry72d5rczvgusu47ivihrjqc3yazib6cclfhhjhus3.py":38:19)
#loc29 = loc("/NHNHOME/WORKSPACE/26msit001_A/jinhyeok/loop_TTT/lact/.cache_inductor_llm/nf/cnfsjjfm2dry72d5rczvgusu47ivihrjqc3yazib6cclfhhjhus3.py":39:20)
#loc30 = loc("/NHNHOME/WORKSPACE/26msit001_A/jinhyeok/loop_TTT/lact/.cache_inductor_llm/nf/cnfsjjfm2dry72d5rczvgusu47ivihrjqc3yazib6cclfhhjhus3.py":40:12)
#loc31 = loc("/NHNHOME/WORKSPACE/26msit001_A/jinhyeok/loop_TTT/lact/.cache_inductor_llm/nf/cnfsjjfm2dry72d5rczvgusu47ivihrjqc3yazib6cclfhhjhus3.py":41:20)
#loc32 = loc("/NHNHOME/WORKSPACE/26msit001_A/jinhyeok/loop_TTT/lact/.cache_inductor_llm/nf/cnfsjjfm2dry72d5rczvgusu47ivihrjqc3yazib6cclfhhjhus3.py":43:20)
#loc33 = loc("/NHNHOME/WORKSPACE/26msit001_A/jinhyeok/loop_TTT/lact/.cache_inductor_llm/nf/cnfsjjfm2dry72d5rczvgusu47ivihrjqc3yazib6cclfhhjhus3.py":44:12)
#loc34 = loc("/NHNHOME/WORKSPACE/26msit001_A/jinhyeok/loop_TTT/lact/.cache_inductor_llm/nf/cnfsjjfm2dry72d5rczvgusu47ivihrjqc3yazib6cclfhhjhus3.py":45:20)
#loc35 = loc("/NHNHOME/WORKSPACE/26msit001_A/jinhyeok/loop_TTT/lact/.cache_inductor_llm/nf/cnfsjjfm2dry72d5rczvgusu47ivihrjqc3yazib6cclfhhjhus3.py":47:20)
#loc36 = loc("/NHNHOME/WORKSPACE/26msit001_A/jinhyeok/loop_TTT/lact/.cache_inductor_llm/nf/cnfsjjfm2dry72d5rczvgusu47ivihrjqc3yazib6cclfhhjhus3.py":50:20)
#loc37 = loc("/NHNHOME/WORKSPACE/26msit001_A/jinhyeok/loop_TTT/lact/.cache_inductor_llm/nf/cnfsjjfm2dry72d5rczvgusu47ivihrjqc3yazib6cclfhhjhus3.py":52:25)
#loc38 = loc("/NHNHOME/WORKSPACE/26msit001_A/jinhyeok/loop_TTT/lact/.cache_inductor_llm/nf/cnfsjjfm2dry72d5rczvgusu47ivihrjqc3yazib6cclfhhjhus3.py":52:37)
#loc39 = loc("/NHNHOME/WORKSPACE/26msit001_A/jinhyeok/loop_TTT/lact/.cache_inductor_llm/nf/cnfsjjfm2dry72d5rczvgusu47ivihrjqc3yazib6cclfhhjhus3.py":53:25)
#loc40 = loc("/NHNHOME/WORKSPACE/26msit001_A/jinhyeok/loop_TTT/lact/.cache_inductor_llm/nf/cnfsjjfm2dry72d5rczvgusu47ivihrjqc3yazib6cclfhhjhus3.py":53:37)
#loc41 = loc("/NHNHOME/WORKSPACE/26msit001_A/jinhyeok/loop_TTT/lact/.cache_inductor_llm/nf/cnfsjjfm2dry72d5rczvgusu47ivihrjqc3yazib6cclfhhjhus3.py":54:25)
#loc42 = loc("/NHNHOME/WORKSPACE/26msit001_A/jinhyeok/loop_TTT/lact/.cache_inductor_llm/nf/cnfsjjfm2dry72d5rczvgusu47ivihrjqc3yazib6cclfhhjhus3.py":54:37)
#loc43 = loc("/NHNHOME/WORKSPACE/26msit001_A/jinhyeok/loop_TTT/lact/.cache_inductor_llm/nf/cnfsjjfm2dry72d5rczvgusu47ivihrjqc3yazib6cclfhhjhus3.py":55:25)
#loc44 = loc("/NHNHOME/WORKSPACE/26msit001_A/jinhyeok/loop_TTT/lact/.cache_inductor_llm/nf/cnfsjjfm2dry72d5rczvgusu47ivihrjqc3yazib6cclfhhjhus3.py":55:37)
#loc45 = loc("/NHNHOME/WORKSPACE/26msit001_A/jinhyeok/loop_TTT/lact/.cache_inductor_llm/nf/cnfsjjfm2dry72d5rczvgusu47ivihrjqc3yazib6cclfhhjhus3.py":55:4)
#loc57 = loc("xnumel"(#loc1))
#loc58 = loc("xoffset"(#loc2))
#loc59 = loc("xoffset"(#loc3))
#loc60 = loc("xindex"(#loc4))
#loc61 = loc("xindex"(#loc5))
#loc62 = loc("xmask"(#loc6))
#loc63 = loc("x1"(#loc7))
#loc64 = loc("tmp0"(#loc8))
#loc65 = loc("tmp0"(#loc9))
#loc66 = loc("tmp0"(#loc10))
#loc67 = loc("tmp2"(#loc11))
#loc68 = loc("tmp2"(#loc12))
#loc69 = loc("tmp8"(#loc13))
#loc70 = loc("tmp8"(#loc14))
#loc71 = loc("tmp14"(#loc15))
#loc72 = loc("tmp14"(#loc16))
#loc73 = loc("tmp14"(#loc17))
#loc74 = loc("tmp19"(#loc18))
#loc75 = loc("tmp19"(#loc19))
#loc76 = loc("tmp19"(#loc20))
#loc77 = loc("tmp23"(#loc21))
#loc78 = loc("tmp23"(#loc22))
#loc79 = loc("tmp23"(#loc23))
#loc80 = loc("tmp3"(#loc24))
#loc81 = loc("tmp4"(#loc25))
#loc82 = loc("tmp5"(#loc26))
#loc83 = loc("tmp9"(#loc27))
#loc84 = loc("tmp10"(#loc28))
#loc85 = loc("tmp11"(#loc29))
#loc86 = loc("tmp12"(#loc30))
#loc87 = loc("tmp13"(#loc31))
#loc88 = loc("tmp16"(#loc32))
#loc89 = loc("tmp17"(#loc33))
#loc90 = loc("tmp18"(#loc34))
#loc91 = loc("tmp21"(#loc35))
#loc92 = loc("tmp25"(#loc36))
