#loc = loc("/NHNHOME/WORKSPACE/26msit001_A/jinhyeok/TTT_camera_embedding/lact_llm/.cache_inductor/lu/clurafxhgo67a6rjbjqylrvxtxorfj4kuo4exwyc4pljf37lr5mb.py":18:0)
#loc24 = loc("/NHNHOME/WORKSPACE/26msit001_A/jinhyeok/TTT_camera_embedding/.venv_llm/lib/python3.12/site-packages/triton/language/standard.py":285:0)
#loc26 = loc(unknown)
#loc29 = loc("/NHNHOME/WORKSPACE/26msit001_A/jinhyeok/TTT_camera_embedding/.venv_llm/lib/python3.12/site-packages/triton/language/standard.py":260:0)
#loc33 = loc("in_ptr0"(#loc))
#loc34 = loc("out_ptr0"(#loc))
#loc35 = loc("xnumel"(#loc))
#loc36 = loc("r0_numel"(#loc))
#loc57 = loc("input"(#loc24))
#loc58 = loc("a"(#loc29))
#loc59 = loc("b"(#loc29))
module {
  tt.func public @triton_per_fused_mean_slice_43(%in_ptr0: !tt.ptr<f32> {tt.divisibility = 16 : i32} loc("in_ptr0"(#loc)), %out_ptr0: !tt.ptr<f32> {tt.divisibility = 16 : i32} loc("out_ptr0"(#loc)), %xnumel: i32 {tt.divisibility = 16 : i32} loc("xnumel"(#loc)), %r0_numel: i32 {tt.divisibility = 16 : i32} loc("r0_numel"(#loc))) attributes {noinline = false} {
    %xnumel_0 = arith.constant 32 : i32 loc(#loc37)
    %r0_numel_1 = arith.constant 1024 : i32 loc(#loc38)
    %xoffset = tt.get_program_id x : i32 loc(#loc39)
    %xoffset_2 = arith.constant 1 : i32 loc(#loc40)
    %xoffset_3 = arith.constant 1 : i32 loc(#loc40)
    %xoffset_4 = arith.muli %xoffset, %xoffset_3 : i32 loc(#loc40)
    %xindex = tt.make_range {end = 1 : i32, start = 0 : i32} : tensor<1xi32> loc(#loc41)
    %xindex_5 = tt.expand_dims %xindex {axis = 1 : i32} : tensor<1xi32> -> tensor<1x1xi32> loc(#loc42)
    %xindex_6 = tt.splat %xoffset_4 : i32 -> tensor<1x1xi32> loc(#loc43)
    %xindex_7 = arith.addi %xindex_6, %xindex_5 : tensor<1x1xi32> loc(#loc43)
    %xmask = arith.constant dense<32> : tensor<1x1xi32> loc(#loc44)
    %xmask_8 = arith.cmpi slt, %xindex_7, %xmask : tensor<1x1xi32> loc(#loc44)
    %r0_index = tt.make_range {end = 1024 : i32, start = 0 : i32} : tensor<1024xi32> loc(#loc45)
    %r0_index_9 = tt.expand_dims %r0_index {axis = 0 : i32} : tensor<1024xi32> -> tensor<1x1024xi32> loc(#loc46)
    %r0_offset = arith.constant 0 : i32 loc(#loc47)
    %r0_mask = arith.constant true loc(#loc48)
    %r0_mask_10 = arith.constant dense<true> : tensor<1x1024xi1> loc(#loc48)
    %tmp0 = arith.constant 2048 : i32 loc(#loc49)
    %tmp0_11 = arith.constant 2048 : i32 loc(#loc49)
    %tmp0_12 = arith.constant dense<2048> : tensor<1x1024xi32> loc(#loc49)
    %tmp0_13 = arith.addi %tmp0_12, %r0_index_9 : tensor<1x1024xi32> loc(#loc49)
    %tmp0_14 = arith.constant 4096 : i32 loc(#loc50)
    %tmp0_15 = arith.constant 4096 : i32 loc(#loc50)
    %tmp0_16 = arith.constant dense<4096> : tensor<1x1xi32> loc(#loc50)
    %tmp0_17 = arith.muli %tmp0_16, %xindex_7 : tensor<1x1xi32> loc(#loc50)
    %tmp0_18 = tt.broadcast %tmp0_17 : tensor<1x1xi32> -> tensor<1x1024xi32> loc(#loc51)
    %tmp0_19 = arith.addi %tmp0_13, %tmp0_18 : tensor<1x1024xi32> loc(#loc51)
    %tmp0_20 = tt.splat %in_ptr0 : !tt.ptr<f32> -> tensor<1x1024x!tt.ptr<f32>> loc(#loc52)
    %tmp0_21 = tt.addptr %tmp0_20, %tmp0_19 : tensor<1x1024x!tt.ptr<f32>>, tensor<1x1024xi32> loc(#loc52)
    %tmp0_22 = arith.constant 0.000000e+00 : f32 loc(#loc53)
    %tmp0_23 = tt.broadcast %xmask_8 : tensor<1x1xi1> -> tensor<1x1024xi1> loc(#loc53)
    %tmp0_24 = arith.constant dense<0.000000e+00> : tensor<1x1024xf32> loc(#loc53)
    %tmp0_25 = tt.load %tmp0_21, %tmp0_23, %tmp0_24 : tensor<1x1024x!tt.ptr<f32>> loc(#loc53)
    %tmp3 = arith.constant 0 : i32 loc(#loc54)
    %tmp3_26 = arith.constant 0.000000e+00 : f32 loc(#loc54)
    %tmp3_27 = arith.constant dense<0.000000e+00> : tensor<1x1024xf32> loc(#loc54)
    %tmp3_28 = tt.broadcast %xmask_8 : tensor<1x1xi1> -> tensor<1x1024xi1> loc(#loc54)
    %tmp3_29 = arith.select %tmp3_28, %tmp0_25, %tmp3_27 : tensor<1x1024xi1>, tensor<1x1024xf32> loc(#loc54)
    %tmp4 = tt.call @"triton.language.standard.sum__fp32S1_1024S__(1,)cconstexpr_1__(2,)cconstexpr_False__(3,)cNone"(%tmp3_29) : (tensor<1x1024xf32>) -> tensor<1xf32> loc(#loc55)
    %tmp4_30 = tt.expand_dims %tmp4 {axis = 1 : i32} : tensor<1xf32> -> tensor<1x1xf32> loc(#loc56)
    %0 = tt.splat %out_ptr0 : !tt.ptr<f32> -> tensor<1x1x!tt.ptr<f32>> loc(#loc21)
    %1 = tt.addptr %0, %xindex_7 : tensor<1x1x!tt.ptr<f32>>, tensor<1x1xi32> loc(#loc21)
    tt.store %1, %tmp4_30, %xmask_8 : tensor<1x1x!tt.ptr<f32>> loc(#loc22)
    tt.return loc(#loc23)
  } loc(#loc)
  tt.func private @"triton.language.standard.sum__fp32S1_1024S__(1,)cconstexpr_1__(2,)cconstexpr_False__(3,)cNone"(%input: tensor<1x1024xf32> loc("input"(#loc24))) -> tensor<1xf32> attributes {noinline = false} {
    %0 = "tt.reduce"(%input) <{axis = 1 : i32}> ({
    ^bb0(%arg1: f32 loc(unknown), %arg2: f32 loc(unknown)):
      %2 = tt.call @triton.language.standard._sum_combine__fp32_fp32__(%arg1, %arg2) : (f32, f32) -> f32 loc(#loc25)
      tt.reduce.return %2 : f32 loc(#loc25)
    }) : (tensor<1x1024xf32>) -> tensor<1xf32> loc(#loc25)
    tt.return %0 : tensor<1xf32> loc(#loc27)
  ^bb1:  // no predecessors
    %1 = ub.poison : tensor<1xf32> loc(#loc28)
    tt.return %1 : tensor<1xf32> loc(#loc28)
  } loc(#loc24)
  tt.func private @triton.language.standard._sum_combine__fp32_fp32__(%a: f32 loc("a"(#loc29)), %b: f32 loc("b"(#loc29))) -> f32 attributes {noinline = false} {
    %0 = arith.addf %a, %b : f32 loc(#loc30)
    tt.return %0 : f32 loc(#loc31)
  ^bb1:  // no predecessors
    %1 = ub.poison : f32 loc(#loc32)
    tt.return %1 : f32 loc(#loc32)
  } loc(#loc29)
} loc(#loc)
#loc1 = loc("/NHNHOME/WORKSPACE/26msit001_A/jinhyeok/TTT_camera_embedding/lact_llm/.cache_inductor/lu/clurafxhgo67a6rjbjqylrvxtxorfj4kuo4exwyc4pljf37lr5mb.py":19:13)
#loc2 = loc("/NHNHOME/WORKSPACE/26msit001_A/jinhyeok/TTT_camera_embedding/lact_llm/.cache_inductor/lu/clurafxhgo67a6rjbjqylrvxtxorfj4kuo4exwyc4pljf37lr5mb.py":20:15)
#loc3 = loc("/NHNHOME/WORKSPACE/26msit001_A/jinhyeok/TTT_camera_embedding/lact_llm/.cache_inductor/lu/clurafxhgo67a6rjbjqylrvxtxorfj4kuo4exwyc4pljf37lr5mb.py":24:28)
#loc4 = loc("/NHNHOME/WORKSPACE/26msit001_A/jinhyeok/TTT_camera_embedding/lact_llm/.cache_inductor/lu/clurafxhgo67a6rjbjqylrvxtxorfj4kuo4exwyc4pljf37lr5mb.py":24:33)
#loc5 = loc("/NHNHOME/WORKSPACE/26msit001_A/jinhyeok/TTT_camera_embedding/lact_llm/.cache_inductor/lu/clurafxhgo67a6rjbjqylrvxtxorfj4kuo4exwyc4pljf37lr5mb.py":25:36)
#loc6 = loc("/NHNHOME/WORKSPACE/26msit001_A/jinhyeok/TTT_camera_embedding/lact_llm/.cache_inductor/lu/clurafxhgo67a6rjbjqylrvxtxorfj4kuo4exwyc4pljf37lr5mb.py":25:44)
#loc7 = loc("/NHNHOME/WORKSPACE/26msit001_A/jinhyeok/TTT_camera_embedding/lact_llm/.cache_inductor/lu/clurafxhgo67a6rjbjqylrvxtxorfj4kuo4exwyc4pljf37lr5mb.py":25:23)
#loc8 = loc("/NHNHOME/WORKSPACE/26msit001_A/jinhyeok/TTT_camera_embedding/lact_llm/.cache_inductor/lu/clurafxhgo67a6rjbjqylrvxtxorfj4kuo4exwyc4pljf37lr5mb.py":26:21)
#loc9 = loc("/NHNHOME/WORKSPACE/26msit001_A/jinhyeok/TTT_camera_embedding/lact_llm/.cache_inductor/lu/clurafxhgo67a6rjbjqylrvxtxorfj4kuo4exwyc4pljf37lr5mb.py":27:28)
#loc10 = loc("/NHNHOME/WORKSPACE/26msit001_A/jinhyeok/TTT_camera_embedding/lact_llm/.cache_inductor/lu/clurafxhgo67a6rjbjqylrvxtxorfj4kuo4exwyc4pljf37lr5mb.py":27:38)
#loc11 = loc("/NHNHOME/WORKSPACE/26msit001_A/jinhyeok/TTT_camera_embedding/lact_llm/.cache_inductor/lu/clurafxhgo67a6rjbjqylrvxtxorfj4kuo4exwyc4pljf37lr5mb.py":28:16)
#loc12 = loc("/NHNHOME/WORKSPACE/26msit001_A/jinhyeok/TTT_camera_embedding/lact_llm/.cache_inductor/lu/clurafxhgo67a6rjbjqylrvxtxorfj4kuo4exwyc4pljf37lr5mb.py":29:48)
#loc13 = loc("/NHNHOME/WORKSPACE/26msit001_A/jinhyeok/TTT_camera_embedding/lact_llm/.cache_inductor/lu/clurafxhgo67a6rjbjqylrvxtxorfj4kuo4exwyc4pljf37lr5mb.py":34:37)
#loc14 = loc("/NHNHOME/WORKSPACE/26msit001_A/jinhyeok/TTT_camera_embedding/lact_llm/.cache_inductor/lu/clurafxhgo67a6rjbjqylrvxtxorfj4kuo4exwyc4pljf37lr5mb.py":34:49)
#loc15 = loc("/NHNHOME/WORKSPACE/26msit001_A/jinhyeok/TTT_camera_embedding/lact_llm/.cache_inductor/lu/clurafxhgo67a6rjbjqylrvxtxorfj4kuo4exwyc4pljf37lr5mb.py":34:44)
#loc16 = loc("/NHNHOME/WORKSPACE/26msit001_A/jinhyeok/TTT_camera_embedding/lact_llm/.cache_inductor/lu/clurafxhgo67a6rjbjqylrvxtxorfj4kuo4exwyc4pljf37lr5mb.py":34:30)
#loc17 = loc("/NHNHOME/WORKSPACE/26msit001_A/jinhyeok/TTT_camera_embedding/lact_llm/.cache_inductor/lu/clurafxhgo67a6rjbjqylrvxtxorfj4kuo4exwyc4pljf37lr5mb.py":34:54)
#loc18 = loc("/NHNHOME/WORKSPACE/26msit001_A/jinhyeok/TTT_camera_embedding/lact_llm/.cache_inductor/lu/clurafxhgo67a6rjbjqylrvxtxorfj4kuo4exwyc4pljf37lr5mb.py":36:33)
#loc19 = loc("/NHNHOME/WORKSPACE/26msit001_A/jinhyeok/TTT_camera_embedding/lact_llm/.cache_inductor/lu/clurafxhgo67a6rjbjqylrvxtxorfj4kuo4exwyc4pljf37lr5mb.py":37:24)
#loc20 = loc("/NHNHOME/WORKSPACE/26msit001_A/jinhyeok/TTT_camera_embedding/lact_llm/.cache_inductor/lu/clurafxhgo67a6rjbjqylrvxtxorfj4kuo4exwyc4pljf37lr5mb.py":37:27)
#loc21 = loc("/NHNHOME/WORKSPACE/26msit001_A/jinhyeok/TTT_camera_embedding/lact_llm/.cache_inductor/lu/clurafxhgo67a6rjbjqylrvxtxorfj4kuo4exwyc4pljf37lr5mb.py":38:25)
#loc22 = loc("/NHNHOME/WORKSPACE/26msit001_A/jinhyeok/TTT_camera_embedding/lact_llm/.cache_inductor/lu/clurafxhgo67a6rjbjqylrvxtxorfj4kuo4exwyc4pljf37lr5mb.py":38:36)
#loc23 = loc("/NHNHOME/WORKSPACE/26msit001_A/jinhyeok/TTT_camera_embedding/lact_llm/.cache_inductor/lu/clurafxhgo67a6rjbjqylrvxtxorfj4kuo4exwyc4pljf37lr5mb.py":38:4)
#loc25 = loc("/NHNHOME/WORKSPACE/26msit001_A/jinhyeok/TTT_camera_embedding/.venv_llm/lib/python3.12/site-packages/triton/language/standard.py":291:36)
#loc27 = loc("/NHNHOME/WORKSPACE/26msit001_A/jinhyeok/TTT_camera_embedding/.venv_llm/lib/python3.12/site-packages/triton/language/standard.py":291:11)
#loc28 = loc("/NHNHOME/WORKSPACE/26msit001_A/jinhyeok/TTT_camera_embedding/.venv_llm/lib/python3.12/site-packages/triton/language/standard.py":291:4)
#loc30 = loc("/NHNHOME/WORKSPACE/26msit001_A/jinhyeok/TTT_camera_embedding/.venv_llm/lib/python3.12/site-packages/triton/language/standard.py":261:15)
#loc31 = loc("/NHNHOME/WORKSPACE/26msit001_A/jinhyeok/TTT_camera_embedding/.venv_llm/lib/python3.12/site-packages/triton/language/standard.py":261:11)
#loc32 = loc("/NHNHOME/WORKSPACE/26msit001_A/jinhyeok/TTT_camera_embedding/.venv_llm/lib/python3.12/site-packages/triton/language/standard.py":261:4)
#loc37 = loc("xnumel"(#loc1))
#loc38 = loc("r0_numel"(#loc2))
#loc39 = loc("xoffset"(#loc3))
#loc40 = loc("xoffset"(#loc4))
#loc41 = loc("xindex"(#loc5))
#loc42 = loc("xindex"(#loc6))
#loc43 = loc("xindex"(#loc7))
#loc44 = loc("xmask"(#loc8))
#loc45 = loc("r0_index"(#loc9))
#loc46 = loc("r0_index"(#loc10))
#loc47 = loc("r0_offset"(#loc11))
#loc48 = loc("r0_mask"(#loc12))
#loc49 = loc("tmp0"(#loc13))
#loc50 = loc("tmp0"(#loc14))
#loc51 = loc("tmp0"(#loc15))
#loc52 = loc("tmp0"(#loc16))
#loc53 = loc("tmp0"(#loc17))
#loc54 = loc("tmp3"(#loc18))
#loc55 = loc("tmp4"(#loc19))
#loc56 = loc("tmp4"(#loc20))
