#loc = loc("/NHNHOME/WORKSPACE/26msit001_A/jinhyeok/loop_TTT/lact/.cache_inductor_llm/yw/cyw7k7qbvmdrodsh7n4pbvorzrkzqu6ft7rniobtiyt7rr5xlsgd.py":18:0)
#loc1 = loc(unknown)
#loc31 = loc("/NHNHOME/WORKSPACE/26msit001_A/jinhyeok/loop_TTT/lact/.cache_inductor_llm/yw/cyw7k7qbvmdrodsh7n4pbvorzrkzqu6ft7rniobtiyt7rr5xlsgd.py":49:26)
#loc39 = loc("/NHNHOME/WORKSPACE/26msit001_A/jinhyeok/loop_TTT/lact/.cache_inductor_llm/yw/cyw7k7qbvmdrodsh7n4pbvorzrkzqu6ft7rniobtiyt7rr5xlsgd.py":56:26)
#loc53 = loc("in_out_ptr0"(#loc))
#loc54 = loc("in_ptr0"(#loc))
#loc55 = loc("in_ptr1"(#loc))
#loc56 = loc("in_ptr2"(#loc))
#loc57 = loc("in_ptr3"(#loc))
#loc58 = loc("in_ptr4"(#loc))
#loc59 = loc("out_ptr0"(#loc))
#loc60 = loc("out_ptr2"(#loc))
#loc61 = loc("xnumel"(#loc))
#loc62 = loc("r0_numel"(#loc))
#loc91 = loc("tmp14"(#loc31))
#loc98 = loc("tmp23"(#loc39))
#loc109 = loc(callsite(#loc1 at #loc91))
#loc111 = loc(callsite(#loc1 at #loc98))
module {
  tt.func public @triton_per_fused__to_copy_add_div_eq_masked_fill_mul_neg_sum_22(%in_out_ptr0: !tt.ptr<f32> {tt.divisibility = 16 : i32} loc("in_out_ptr0"(#loc)), %in_ptr0: !tt.ptr<bf16> {tt.divisibility = 16 : i32} loc("in_ptr0"(#loc)), %in_ptr1: !tt.ptr<bf16> {tt.divisibility = 16 : i32} loc("in_ptr1"(#loc)), %in_ptr2: !tt.ptr<f32> {tt.divisibility = 16 : i32} loc("in_ptr2"(#loc)), %in_ptr3: !tt.ptr<f32> {tt.divisibility = 16 : i32} loc("in_ptr3"(#loc)), %in_ptr4: !tt.ptr<f32> {tt.divisibility = 16 : i32} loc("in_ptr4"(#loc)), %out_ptr0: !tt.ptr<f32> {tt.divisibility = 16 : i32} loc("out_ptr0"(#loc)), %out_ptr2: !tt.ptr<bf16> {tt.divisibility = 16 : i32} loc("out_ptr2"(#loc)), %xnumel: i32 {tt.divisibility = 16 : i32} loc("xnumel"(#loc)), %r0_numel: i32 {tt.divisibility = 16 : i32} loc("r0_numel"(#loc))) attributes {noinline = false} {
    %c192_i32 = arith.constant 192 : i32 loc(#loc1)
    %xmask = arith.constant 1536 : i32 loc(#loc63)
    %cst = arith.constant dense<0.000000e+00> : tensor<1x256xbf16> loc(#loc1)
    %tmp28 = arith.constant dense<0.000000e+00> : tensor<1x1xf32> loc(#loc64)
    %tmp8 = arith.constant dense<9.99999974E-6> : tensor<1x1xf32> loc(#loc65)
    %cst_0 = arith.constant dense<0.000000e+00> : tensor<1x256xf32> loc(#loc1)
    %r0_mask = arith.constant dense<192> : tensor<1x256xi32> loc(#loc66)
    %xoffset = tt.get_program_id x : i32 loc(#loc67)
    %xmask_1 = arith.cmpi slt, %xoffset, %xmask : i32 loc(#loc63)
    %xmask_2 = tt.splat %xmask_1 : i1 -> tensor<1x1xi1> loc(#loc63)
    %r0_index = tt.make_range {end = 256 : i32, start = 0 : i32} : tensor<256xi32> loc(#loc68)
    %r0_index_3 = tt.expand_dims %r0_index {axis = 0 : i32} : tensor<256xi32> -> tensor<1x256xi32> loc(#loc69)
    %r0_mask_4 = arith.cmpi slt, %r0_index_3, %r0_mask : tensor<1x256xi32> loc(#loc66)
    %tmp0 = arith.muli %xoffset, %c192_i32 : i32 loc(#loc70)
    %tmp0_5 = tt.splat %tmp0 : i32 -> tensor<1x256xi32> loc(#loc106)
    %tmp0_6 = arith.addi %r0_index_3, %tmp0_5 : tensor<1x256xi32> loc(#loc71)
    %tmp0_7 = tt.splat %in_ptr0 : !tt.ptr<bf16> -> tensor<1x256x!tt.ptr<bf16>> loc(#loc72)
    %tmp0_8 = tt.addptr %tmp0_7, %tmp0_6 : tensor<1x256x!tt.ptr<bf16>>, tensor<1x256xi32> loc(#loc72)
    %tmp0_9 = tt.splat %xmask_1 : i1 -> tensor<1x256xi1> loc(#loc107)
    %tmp0_10 = arith.andi %r0_mask_4, %tmp0_9 : tensor<1x256xi1> loc(#loc73)
    %tmp0_11 = tt.load %tmp0_8, %tmp0_10, %cst : tensor<1x256x!tt.ptr<bf16>> loc(#loc74)
    %tmp0_12 = arith.extf %tmp0_11 : tensor<1x256xbf16> to tensor<1x256xf32> loc(#loc75)
    %tmp2 = tt.splat %in_ptr1 : !tt.ptr<bf16> -> tensor<1x256x!tt.ptr<bf16>> loc(#loc76)
    %tmp2_13 = tt.addptr %tmp2, %tmp0_6 : tensor<1x256x!tt.ptr<bf16>>, tensor<1x256xi32> loc(#loc76)
    %tmp2_14 = tt.load %tmp2_13, %tmp0_10, %cst : tensor<1x256x!tt.ptr<bf16>> loc(#loc77)
    %tmp2_15 = arith.extf %tmp2_14 : tensor<1x256xbf16> to tensor<1x256xf32> loc(#loc78)
    %tmp5 = tt.splat %in_ptr2 : !tt.ptr<f32> -> tensor<1x256x!tt.ptr<f32>> loc(#loc79)
    %tmp5_16 = tt.addptr %tmp5, %tmp0_6 : tensor<1x256x!tt.ptr<f32>>, tensor<1x256xi32> loc(#loc79)
    %tmp5_17 = tt.load %tmp5_16, %tmp0_10, %cst_0 : tensor<1x256x!tt.ptr<f32>> loc(#loc80)
    %tmp6 = tt.addptr %in_ptr3, %xoffset : !tt.ptr<f32>, i32 loc(#loc81)
    %tmp6_18 = tt.splat %tmp6 : !tt.ptr<f32> -> tensor<1x1x!tt.ptr<f32>> loc(#loc81)
    %tmp6_19 = tt.load %tmp6_18, %xmask_2 evictionPolicy = evict_last : tensor<1x1x!tt.ptr<f32>> loc(#loc82)
    %tmp15 = tt.addptr %in_ptr4, %xoffset : !tt.ptr<f32>, i32 loc(#loc83)
    %tmp15_20 = tt.splat %tmp15 : !tt.ptr<f32> -> tensor<1x1x!tt.ptr<f32>> loc(#loc83)
    %tmp15_21 = tt.load %tmp15_20, %xmask_2 evictionPolicy = evict_last : tensor<1x1x!tt.ptr<f32>> loc(#loc84)
    %tmp24 = tt.splat %in_out_ptr0 : !tt.ptr<f32> -> tensor<1x256x!tt.ptr<f32>> loc(#loc85)
    %tmp24_22 = tt.addptr %tmp24, %tmp0_6 : tensor<1x256x!tt.ptr<f32>>, tensor<1x256xi32> loc(#loc85)
    %tmp24_23 = tt.load %tmp24_22, %tmp0_10, %cst_0 : tensor<1x256x!tt.ptr<f32>> loc(#loc86)
    %tmp4 = arith.addf %tmp0_12, %tmp2_15 : tensor<1x256xf32> loc(#loc87)
    %tmp8_24 = arith.addf %tmp6_19, %tmp8 : tensor<1x1xf32> loc(#loc65)
    %tmp9 = tt.broadcast %tmp8_24 : tensor<1x1xf32> -> tensor<1x256xf32> loc(#loc88)
    %tmp9_25 = arith.divf %tmp5_17, %tmp9 : tensor<1x256xf32> loc(#loc88)
    %tmp10 = arith.mulf %tmp4, %tmp9_25 : tensor<1x256xf32> loc(#loc89)
    %tmp13 = arith.select %tmp0_10, %tmp10, %cst_0 : tensor<1x256xi1>, tensor<1x256xf32> loc(#loc90)
    %tmp14 = "tt.reduce"(%tmp13) <{axis = 1 : i32}> ({
    ^bb0(%tmp14_33: f32 loc(callsite(#loc1 at #loc91)), %tmp14_34: f32 loc(callsite(#loc1 at #loc91))):
      %tmp14_35 = arith.addf %tmp14_33, %tmp14_34 : f32 loc(#loc112)
      tt.reduce.return %tmp14_35 : f32 loc(#loc108)
    }) : (tensor<1x256xf32>) -> tensor<1xf32> loc(#loc108)
    %tmp14_26 = tt.expand_dims %tmp14 {axis = 1 : i32} : tensor<1xf32> -> tensor<1x1xf32> loc(#loc92)
    %tmp16 = tt.broadcast %tmp15_21 : tensor<1x1xf32> -> tensor<1x256xf32> loc(#loc93)
    %tmp16_27 = arith.mulf %tmp4, %tmp16 : tensor<1x256xf32> loc(#loc93)
    %tmp17 = arith.subf %cst_0, %tmp16_27 : tensor<1x256xf32> loc(#loc94)
    %tmp18 = arith.divf %tmp9_25, %tmp9 : tensor<1x256xf32> loc(#loc95)
    %tmp19 = arith.mulf %tmp17, %tmp18 : tensor<1x256xf32> loc(#loc96)
    %tmp22 = arith.select %tmp0_10, %tmp19, %cst_0 : tensor<1x256xi1>, tensor<1x256xf32> loc(#loc97)
    %tmp23 = "tt.reduce"(%tmp22) <{axis = 1 : i32}> ({
    ^bb0(%tmp23_33: f32 loc(callsite(#loc1 at #loc98)), %tmp23_34: f32 loc(callsite(#loc1 at #loc98))):
      %tmp23_35 = arith.addf %tmp23_33, %tmp23_34 : f32 loc(#loc113)
      tt.reduce.return %tmp23_35 : f32 loc(#loc110)
    }) : (tensor<1x256xf32>) -> tensor<1xf32> loc(#loc110)
    %tmp23_28 = tt.expand_dims %tmp23 {axis = 1 : i32} : tensor<1xf32> -> tensor<1x1xf32> loc(#loc99)
    %tmp25 = arith.divf %tmp16_27, %tmp9 : tensor<1x256xf32> loc(#loc100)
    %tmp26 = arith.addf %tmp24_23, %tmp25 : tensor<1x256xf32> loc(#loc101)
    %tmp28_29 = arith.cmpf oeq, %tmp6_19, %tmp28 : tensor<1x1xf32> loc(#loc64)
    %tmp29 = tt.broadcast %tmp6_19 : tensor<1x1xf32> -> tensor<1x256xf32> loc(#loc102)
    %tmp29_30 = arith.divf %tmp5_17, %tmp29 : tensor<1x256xf32> loc(#loc102)
    %tmp30 = tt.broadcast %tmp28_29 : tensor<1x1xi1> -> tensor<1x256xi1> loc(#loc103)
    %tmp30_31 = arith.select %tmp30, %cst_0, %tmp29_30 : tensor<1x256xi1>, tensor<1x256xf32> loc(#loc103)
    %tmp31 = tt.broadcast %tmp23_28 : tensor<1x1xf32> -> tensor<1x256xf32> loc(#loc104)
    %tmp31_32 = arith.mulf %tmp31, %tmp30_31 : tensor<1x256xf32> loc(#loc104)
    %tmp32 = arith.addf %tmp26, %tmp31_32 : tensor<1x256xf32> loc(#loc105)
    tt.store %tmp24_22, %tmp32, %tmp0_10 : tensor<1x256x!tt.ptr<f32>> loc(#loc47)
    %0 = tt.splat %out_ptr2 : !tt.ptr<bf16> -> tensor<1x256x!tt.ptr<bf16>> loc(#loc48)
    %1 = tt.addptr %0, %tmp0_6 : tensor<1x256x!tt.ptr<bf16>>, tensor<1x256xi32> loc(#loc48)
    %2 = arith.truncf %tmp32 : tensor<1x256xf32> to tensor<1x256xbf16> loc(#loc49)
    tt.store %1, %2, %tmp0_10 : tensor<1x256x!tt.ptr<bf16>> loc(#loc49)
    %3 = tt.addptr %out_ptr0, %xoffset : !tt.ptr<f32>, i32 loc(#loc50)
    %4 = tt.splat %3 : !tt.ptr<f32> -> tensor<1x1x!tt.ptr<f32>> loc(#loc50)
    tt.store %4, %tmp14_26, %xmask_2 : tensor<1x1x!tt.ptr<f32>> loc(#loc51)
    tt.return loc(#loc52)
  } loc(#loc)
} loc(#loc)
#loc2 = loc("/NHNHOME/WORKSPACE/26msit001_A/jinhyeok/loop_TTT/lact/.cache_inductor_llm/yw/cyw7k7qbvmdrodsh7n4pbvorzrkzqu6ft7rniobtiyt7rr5xlsgd.py":26:21)
#loc3 = loc("/NHNHOME/WORKSPACE/26msit001_A/jinhyeok/loop_TTT/lact/.cache_inductor_llm/yw/cyw7k7qbvmdrodsh7n4pbvorzrkzqu6ft7rniobtiyt7rr5xlsgd.py":60:20)
#loc4 = loc("/NHNHOME/WORKSPACE/26msit001_A/jinhyeok/loop_TTT/lact/.cache_inductor_llm/yw/cyw7k7qbvmdrodsh7n4pbvorzrkzqu6ft7rniobtiyt7rr5xlsgd.py":44:18)
#loc5 = loc("/NHNHOME/WORKSPACE/26msit001_A/jinhyeok/loop_TTT/lact/.cache_inductor_llm/yw/cyw7k7qbvmdrodsh7n4pbvorzrkzqu6ft7rniobtiyt7rr5xlsgd.py":29:25)
#loc6 = loc("/NHNHOME/WORKSPACE/26msit001_A/jinhyeok/loop_TTT/lact/.cache_inductor_llm/yw/cyw7k7qbvmdrodsh7n4pbvorzrkzqu6ft7rniobtiyt7rr5xlsgd.py":24:28)
#loc7 = loc("/NHNHOME/WORKSPACE/26msit001_A/jinhyeok/loop_TTT/lact/.cache_inductor_llm/yw/cyw7k7qbvmdrodsh7n4pbvorzrkzqu6ft7rniobtiyt7rr5xlsgd.py":27:28)
#loc8 = loc("/NHNHOME/WORKSPACE/26msit001_A/jinhyeok/loop_TTT/lact/.cache_inductor_llm/yw/cyw7k7qbvmdrodsh7n4pbvorzrkzqu6ft7rniobtiyt7rr5xlsgd.py":27:38)
#loc9 = loc("/NHNHOME/WORKSPACE/26msit001_A/jinhyeok/loop_TTT/lact/.cache_inductor_llm/yw/cyw7k7qbvmdrodsh7n4pbvorzrkzqu6ft7rniobtiyt7rr5xlsgd.py":34:41)
#loc10 = loc("/NHNHOME/WORKSPACE/26msit001_A/jinhyeok/loop_TTT/lact/.cache_inductor_llm/yw/cyw7k7qbvmdrodsh7n4pbvorzrkzqu6ft7rniobtiyt7rr5xlsgd.py":34:37)
#loc11 = loc("/NHNHOME/WORKSPACE/26msit001_A/jinhyeok/loop_TTT/lact/.cache_inductor_llm/yw/cyw7k7qbvmdrodsh7n4pbvorzrkzqu6ft7rniobtiyt7rr5xlsgd.py":34:30)
#loc12 = loc("/NHNHOME/WORKSPACE/26msit001_A/jinhyeok/loop_TTT/lact/.cache_inductor_llm/yw/cyw7k7qbvmdrodsh7n4pbvorzrkzqu6ft7rniobtiyt7rr5xlsgd.py":34:56)
#loc13 = loc("/NHNHOME/WORKSPACE/26msit001_A/jinhyeok/loop_TTT/lact/.cache_inductor_llm/yw/cyw7k7qbvmdrodsh7n4pbvorzrkzqu6ft7rniobtiyt7rr5xlsgd.py":34:46)
#loc14 = loc("/NHNHOME/WORKSPACE/26msit001_A/jinhyeok/loop_TTT/lact/.cache_inductor_llm/yw/cyw7k7qbvmdrodsh7n4pbvorzrkzqu6ft7rniobtiyt7rr5xlsgd.py":34:77)
#loc15 = loc("/NHNHOME/WORKSPACE/26msit001_A/jinhyeok/loop_TTT/lact/.cache_inductor_llm/yw/cyw7k7qbvmdrodsh7n4pbvorzrkzqu6ft7rniobtiyt7rr5xlsgd.py":35:30)
#loc16 = loc("/NHNHOME/WORKSPACE/26msit001_A/jinhyeok/loop_TTT/lact/.cache_inductor_llm/yw/cyw7k7qbvmdrodsh7n4pbvorzrkzqu6ft7rniobtiyt7rr5xlsgd.py":35:46)
#loc17 = loc("/NHNHOME/WORKSPACE/26msit001_A/jinhyeok/loop_TTT/lact/.cache_inductor_llm/yw/cyw7k7qbvmdrodsh7n4pbvorzrkzqu6ft7rniobtiyt7rr5xlsgd.py":35:77)
#loc18 = loc("/NHNHOME/WORKSPACE/26msit001_A/jinhyeok/loop_TTT/lact/.cache_inductor_llm/yw/cyw7k7qbvmdrodsh7n4pbvorzrkzqu6ft7rniobtiyt7rr5xlsgd.py":36:30)
#loc19 = loc("/NHNHOME/WORKSPACE/26msit001_A/jinhyeok/loop_TTT/lact/.cache_inductor_llm/yw/cyw7k7qbvmdrodsh7n4pbvorzrkzqu6ft7rniobtiyt7rr5xlsgd.py":36:46)
#loc20 = loc("/NHNHOME/WORKSPACE/26msit001_A/jinhyeok/loop_TTT/lact/.cache_inductor_llm/yw/cyw7k7qbvmdrodsh7n4pbvorzrkzqu6ft7rniobtiyt7rr5xlsgd.py":37:30)
#loc21 = loc("/NHNHOME/WORKSPACE/26msit001_A/jinhyeok/loop_TTT/lact/.cache_inductor_llm/yw/cyw7k7qbvmdrodsh7n4pbvorzrkzqu6ft7rniobtiyt7rr5xlsgd.py":37:35)
#loc22 = loc("/NHNHOME/WORKSPACE/26msit001_A/jinhyeok/loop_TTT/lact/.cache_inductor_llm/yw/cyw7k7qbvmdrodsh7n4pbvorzrkzqu6ft7rniobtiyt7rr5xlsgd.py":38:31)
#loc23 = loc("/NHNHOME/WORKSPACE/26msit001_A/jinhyeok/loop_TTT/lact/.cache_inductor_llm/yw/cyw7k7qbvmdrodsh7n4pbvorzrkzqu6ft7rniobtiyt7rr5xlsgd.py":38:36)
#loc24 = loc("/NHNHOME/WORKSPACE/26msit001_A/jinhyeok/loop_TTT/lact/.cache_inductor_llm/yw/cyw7k7qbvmdrodsh7n4pbvorzrkzqu6ft7rniobtiyt7rr5xlsgd.py":39:35)
#loc25 = loc("/NHNHOME/WORKSPACE/26msit001_A/jinhyeok/loop_TTT/lact/.cache_inductor_llm/yw/cyw7k7qbvmdrodsh7n4pbvorzrkzqu6ft7rniobtiyt7rr5xlsgd.py":39:51)
#loc26 = loc("/NHNHOME/WORKSPACE/26msit001_A/jinhyeok/loop_TTT/lact/.cache_inductor_llm/yw/cyw7k7qbvmdrodsh7n4pbvorzrkzqu6ft7rniobtiyt7rr5xlsgd.py":42:18)
#loc27 = loc("/NHNHOME/WORKSPACE/26msit001_A/jinhyeok/loop_TTT/lact/.cache_inductor_llm/yw/cyw7k7qbvmdrodsh7n4pbvorzrkzqu6ft7rniobtiyt7rr5xlsgd.py":45:19)
#loc28 = loc("/NHNHOME/WORKSPACE/26msit001_A/jinhyeok/loop_TTT/lact/.cache_inductor_llm/yw/cyw7k7qbvmdrodsh7n4pbvorzrkzqu6ft7rniobtiyt7rr5xlsgd.py":46:19)
#loc29 = loc("/NHNHOME/WORKSPACE/26msit001_A/jinhyeok/loop_TTT/lact/.cache_inductor_llm/yw/cyw7k7qbvmdrodsh7n4pbvorzrkzqu6ft7rniobtiyt7rr5xlsgd.py":48:45)
#loc30 = loc("/NHNHOME/WORKSPACE/26msit001_A/jinhyeok/TTT_camera_embedding/.venv_llm/lib/python3.12/site-packages/triton/language/standard.py":291:36)
#loc32 = loc("/NHNHOME/WORKSPACE/26msit001_A/jinhyeok/TTT_camera_embedding/.venv_llm/lib/python3.12/site-packages/triton/language/standard.py":261:15)
#loc33 = loc("/NHNHOME/WORKSPACE/26msit001_A/jinhyeok/loop_TTT/lact/.cache_inductor_llm/yw/cyw7k7qbvmdrodsh7n4pbvorzrkzqu6ft7rniobtiyt7rr5xlsgd.py":49:29)
#loc34 = loc("/NHNHOME/WORKSPACE/26msit001_A/jinhyeok/loop_TTT/lact/.cache_inductor_llm/yw/cyw7k7qbvmdrodsh7n4pbvorzrkzqu6ft7rniobtiyt7rr5xlsgd.py":50:19)
#loc35 = loc("/NHNHOME/WORKSPACE/26msit001_A/jinhyeok/loop_TTT/lact/.cache_inductor_llm/yw/cyw7k7qbvmdrodsh7n4pbvorzrkzqu6ft7rniobtiyt7rr5xlsgd.py":51:13)
#loc36 = loc("/NHNHOME/WORKSPACE/26msit001_A/jinhyeok/loop_TTT/lact/.cache_inductor_llm/yw/cyw7k7qbvmdrodsh7n4pbvorzrkzqu6ft7rniobtiyt7rr5xlsgd.py":52:20)
#loc37 = loc("/NHNHOME/WORKSPACE/26msit001_A/jinhyeok/loop_TTT/lact/.cache_inductor_llm/yw/cyw7k7qbvmdrodsh7n4pbvorzrkzqu6ft7rniobtiyt7rr5xlsgd.py":53:20)
#loc38 = loc("/NHNHOME/WORKSPACE/26msit001_A/jinhyeok/loop_TTT/lact/.cache_inductor_llm/yw/cyw7k7qbvmdrodsh7n4pbvorzrkzqu6ft7rniobtiyt7rr5xlsgd.py":55:45)
#loc40 = loc("/NHNHOME/WORKSPACE/26msit001_A/jinhyeok/loop_TTT/lact/.cache_inductor_llm/yw/cyw7k7qbvmdrodsh7n4pbvorzrkzqu6ft7rniobtiyt7rr5xlsgd.py":56:29)
#loc41 = loc("/NHNHOME/WORKSPACE/26msit001_A/jinhyeok/loop_TTT/lact/.cache_inductor_llm/yw/cyw7k7qbvmdrodsh7n4pbvorzrkzqu6ft7rniobtiyt7rr5xlsgd.py":57:21)
#loc42 = loc("/NHNHOME/WORKSPACE/26msit001_A/jinhyeok/loop_TTT/lact/.cache_inductor_llm/yw/cyw7k7qbvmdrodsh7n4pbvorzrkzqu6ft7rniobtiyt7rr5xlsgd.py":58:20)
#loc43 = loc("/NHNHOME/WORKSPACE/26msit001_A/jinhyeok/loop_TTT/lact/.cache_inductor_llm/yw/cyw7k7qbvmdrodsh7n4pbvorzrkzqu6ft7rniobtiyt7rr5xlsgd.py":61:20)
#loc44 = loc("/NHNHOME/WORKSPACE/26msit001_A/jinhyeok/loop_TTT/lact/.cache_inductor_llm/yw/cyw7k7qbvmdrodsh7n4pbvorzrkzqu6ft7rniobtiyt7rr5xlsgd.py":62:35)
#loc45 = loc("/NHNHOME/WORKSPACE/26msit001_A/jinhyeok/loop_TTT/lact/.cache_inductor_llm/yw/cyw7k7qbvmdrodsh7n4pbvorzrkzqu6ft7rniobtiyt7rr5xlsgd.py":63:20)
#loc46 = loc("/NHNHOME/WORKSPACE/26msit001_A/jinhyeok/loop_TTT/lact/.cache_inductor_llm/yw/cyw7k7qbvmdrodsh7n4pbvorzrkzqu6ft7rniobtiyt7rr5xlsgd.py":64:20)
#loc47 = loc("/NHNHOME/WORKSPACE/26msit001_A/jinhyeok/loop_TTT/lact/.cache_inductor_llm/yw/cyw7k7qbvmdrodsh7n4pbvorzrkzqu6ft7rniobtiyt7rr5xlsgd.py":66:51)
#loc48 = loc("/NHNHOME/WORKSPACE/26msit001_A/jinhyeok/loop_TTT/lact/.cache_inductor_llm/yw/cyw7k7qbvmdrodsh7n4pbvorzrkzqu6ft7rniobtiyt7rr5xlsgd.py":67:25)
#loc49 = loc("/NHNHOME/WORKSPACE/26msit001_A/jinhyeok/loop_TTT/lact/.cache_inductor_llm/yw/cyw7k7qbvmdrodsh7n4pbvorzrkzqu6ft7rniobtiyt7rr5xlsgd.py":67:48)
#loc50 = loc("/NHNHOME/WORKSPACE/26msit001_A/jinhyeok/loop_TTT/lact/.cache_inductor_llm/yw/cyw7k7qbvmdrodsh7n4pbvorzrkzqu6ft7rniobtiyt7rr5xlsgd.py":68:25)
#loc51 = loc("/NHNHOME/WORKSPACE/26msit001_A/jinhyeok/loop_TTT/lact/.cache_inductor_llm/yw/cyw7k7qbvmdrodsh7n4pbvorzrkzqu6ft7rniobtiyt7rr5xlsgd.py":68:37)
#loc52 = loc("/NHNHOME/WORKSPACE/26msit001_A/jinhyeok/loop_TTT/lact/.cache_inductor_llm/yw/cyw7k7qbvmdrodsh7n4pbvorzrkzqu6ft7rniobtiyt7rr5xlsgd.py":68:4)
#loc63 = loc("xmask"(#loc2))
#loc64 = loc("tmp28"(#loc3))
#loc65 = loc("tmp8"(#loc4))
#loc66 = loc("r0_mask"(#loc5))
#loc67 = loc("xoffset"(#loc6))
#loc68 = loc("r0_index"(#loc7))
#loc69 = loc("r0_index"(#loc8))
#loc70 = loc("tmp0"(#loc9))
#loc71 = loc("tmp0"(#loc10))
#loc72 = loc("tmp0"(#loc11))
#loc73 = loc("tmp0"(#loc12))
#loc74 = loc("tmp0"(#loc13))
#loc75 = loc("tmp0"(#loc14))
#loc76 = loc("tmp2"(#loc15))
#loc77 = loc("tmp2"(#loc16))
#loc78 = loc("tmp2"(#loc17))
#loc79 = loc("tmp5"(#loc18))
#loc80 = loc("tmp5"(#loc19))
#loc81 = loc("tmp6"(#loc20))
#loc82 = loc("tmp6"(#loc21))
#loc83 = loc("tmp15"(#loc22))
#loc84 = loc("tmp15"(#loc23))
#loc85 = loc("tmp24"(#loc24))
#loc86 = loc("tmp24"(#loc25))
#loc87 = loc("tmp4"(#loc26))
#loc88 = loc("tmp9"(#loc27))
#loc89 = loc("tmp10"(#loc28))
#loc90 = loc("tmp13"(#loc29))
#loc92 = loc("tmp14"(#loc33))
#loc93 = loc("tmp16"(#loc34))
#loc94 = loc("tmp17"(#loc35))
#loc95 = loc("tmp18"(#loc36))
#loc96 = loc("tmp19"(#loc37))
#loc97 = loc("tmp22"(#loc38))
#loc99 = loc("tmp23"(#loc40))
#loc100 = loc("tmp25"(#loc41))
#loc101 = loc("tmp26"(#loc42))
#loc102 = loc("tmp29"(#loc43))
#loc103 = loc("tmp30"(#loc44))
#loc104 = loc("tmp31"(#loc45))
#loc105 = loc("tmp32"(#loc46))
#loc106 = loc(fused[#loc71, #loc70])
#loc107 = loc(fused[#loc73, #loc63])
#loc108 = loc(callsite(#loc30 at #loc91))
#loc110 = loc(callsite(#loc30 at #loc98))
#loc112 = loc(callsite(#loc32 at #loc108))
#loc113 = loc(callsite(#loc32 at #loc110))
