#loc = loc("/NHNHOME/WORKSPACE/26msit001_A/jinhyeok/loop_TTT/lact/.cache_inductor_llm/q4/cq46rfimetqtnn4t5jqdd326aiuzhrd7ry25akaqpw5pxvr6sogc.py":18:0)
#loc26 = loc("/NHNHOME/WORKSPACE/26msit001_A/jinhyeok/TTT_camera_embedding/.venv_llm/lib/python3.12/site-packages/triton/language/standard.py":285:0)
#loc28 = loc(unknown)
#loc31 = loc("/NHNHOME/WORKSPACE/26msit001_A/jinhyeok/TTT_camera_embedding/.venv_llm/lib/python3.12/site-packages/triton/language/standard.py":260:0)
#loc35 = loc("in_ptr0"(#loc))
#loc36 = loc("out_ptr0"(#loc))
#loc37 = loc("xnumel"(#loc))
#loc38 = loc("r0_numel"(#loc))
#loc61 = loc("input"(#loc26))
#loc62 = loc("a"(#loc31))
#loc63 = loc("b"(#loc31))
module {
  tt.func public @triton_per_fused__to_copy_mul_silu_sum_transpose_19(%in_ptr0: !tt.ptr<f32> {tt.divisibility = 16 : i32} loc("in_ptr0"(#loc)), %out_ptr0: !tt.ptr<f32> {tt.divisibility = 16 : i32} loc("out_ptr0"(#loc)), %xnumel: i32 {tt.divisibility = 16 : i32} loc("xnumel"(#loc)), %r0_numel: i32 loc("r0_numel"(#loc))) attributes {noinline = false} {
    %xnumel_0 = arith.constant 8192 : i32 loc(#loc39)
    %r0_numel_1 = arith.constant 2 : i32 loc(#loc40)
    %xoffset = tt.get_program_id x : i32 loc(#loc41)
    %xoffset_2 = arith.constant 128 : i32 loc(#loc42)
    %xoffset_3 = arith.constant 128 : i32 loc(#loc42)
    %xoffset_4 = arith.muli %xoffset, %xoffset_3 : i32 loc(#loc42)
    %xindex = tt.make_range {end = 128 : i32, start = 0 : i32} : tensor<128xi32> loc(#loc43)
    %xindex_5 = tt.expand_dims %xindex {axis = 1 : i32} : tensor<128xi32> -> tensor<128x1xi32> loc(#loc44)
    %xindex_6 = tt.splat %xoffset_4 : i32 -> tensor<128x1xi32> loc(#loc45)
    %xindex_7 = arith.addi %xindex_6, %xindex_5 : tensor<128x1xi32> loc(#loc45)
    %xmask = arith.constant true loc(#loc46)
    %xmask_8 = arith.constant dense<true> : tensor<128x2xi1> loc(#loc46)
    %r0_index = tt.make_range {end = 2 : i32, start = 0 : i32} : tensor<2xi32> loc(#loc47)
    %r0_index_9 = tt.expand_dims %r0_index {axis = 0 : i32} : tensor<2xi32> -> tensor<1x2xi32> loc(#loc48)
    %r0_offset = arith.constant 0 : i32 loc(#loc49)
    %r0_mask = arith.constant true loc(#loc50)
    %r0_mask_10 = arith.constant dense<true> : tensor<128x2xi1> loc(#loc50)
    %x0 = arith.constant 1024 : i32 loc(#loc51)
    %x0_11 = arith.constant 1024 : i32 loc(#loc51)
    %x0_12 = arith.constant dense<1024> : tensor<128x1xi32> loc(#loc51)
    %x0_13 = arith.remsi %xindex_7, %x0_12 : tensor<128x1xi32> loc(#loc51)
    %x1 = arith.constant 1024 : i32 loc(#loc52)
    %x1_14 = arith.constant 1024 : i32 loc(#loc52)
    %x1_15 = arith.constant dense<1024> : tensor<128x1xi32> loc(#loc52)
    %x1_16 = arith.divsi %xindex_7, %x1_15 : tensor<128x1xi32> loc(#loc52)
    %tmp0 = arith.constant 1024 : i32 loc(#loc53)
    %tmp0_17 = arith.constant 1024 : i32 loc(#loc53)
    %tmp0_18 = arith.constant dense<1024> : tensor<1x2xi32> loc(#loc53)
    %tmp0_19 = arith.muli %tmp0_18, %r0_index_9 : tensor<1x2xi32> loc(#loc53)
    %tmp0_20 = tt.broadcast %x0_13 : tensor<128x1xi32> -> tensor<128x2xi32> loc(#loc54)
    %tmp0_21 = tt.broadcast %tmp0_19 : tensor<1x2xi32> -> tensor<128x2xi32> loc(#loc54)
    %tmp0_22 = arith.addi %tmp0_20, %tmp0_21 : tensor<128x2xi32> loc(#loc54)
    %tmp0_23 = arith.constant 2048 : i32 loc(#loc55)
    %tmp0_24 = arith.constant 2048 : i32 loc(#loc55)
    %tmp0_25 = arith.constant dense<2048> : tensor<128x1xi32> loc(#loc55)
    %tmp0_26 = arith.muli %tmp0_25, %x1_16 : tensor<128x1xi32> loc(#loc55)
    %tmp0_27 = tt.broadcast %tmp0_26 : tensor<128x1xi32> -> tensor<128x2xi32> loc(#loc56)
    %tmp0_28 = arith.addi %tmp0_22, %tmp0_27 : tensor<128x2xi32> loc(#loc56)
    %tmp0_29 = tt.splat %in_ptr0 : !tt.ptr<f32> -> tensor<128x2x!tt.ptr<f32>> loc(#loc57)
    %tmp0_30 = tt.addptr %tmp0_29, %tmp0_28 : tensor<128x2x!tt.ptr<f32>>, tensor<128x2xi32> loc(#loc57)
    %tmp0_31 = tt.load %tmp0_30 : tensor<128x2x!tt.ptr<f32>> loc(#loc58)
    %tmp3 = tt.call @"triton.language.standard.sum__fp32S128_2S__(1,)cconstexpr_1__(2,)cconstexpr_False__(3,)cNone"(%tmp0_31) : (tensor<128x2xf32>) -> tensor<128xf32> loc(#loc59)
    %tmp3_32 = tt.expand_dims %tmp3 {axis = 1 : i32} : tensor<128xf32> -> tensor<128x1xf32> loc(#loc60)
    %0 = tt.splat %out_ptr0 : !tt.ptr<f32> -> tensor<128x1x!tt.ptr<f32>> loc(#loc23)
    %1 = tt.addptr %0, %xindex_7 : tensor<128x1x!tt.ptr<f32>>, tensor<128x1xi32> loc(#loc23)
    tt.store %1, %tmp3_32 : tensor<128x1x!tt.ptr<f32>> loc(#loc24)
    tt.return loc(#loc25)
  } loc(#loc)
  tt.func private @"triton.language.standard.sum__fp32S128_2S__(1,)cconstexpr_1__(2,)cconstexpr_False__(3,)cNone"(%input: tensor<128x2xf32> loc("input"(#loc26))) -> tensor<128xf32> attributes {noinline = false} {
    %0 = "tt.reduce"(%input) <{axis = 1 : i32}> ({
    ^bb0(%arg1: f32 loc(unknown), %arg2: f32 loc(unknown)):
      %2 = tt.call @triton.language.standard._sum_combine__fp32_fp32__(%arg1, %arg2) : (f32, f32) -> f32 loc(#loc27)
      tt.reduce.return %2 : f32 loc(#loc27)
    }) : (tensor<128x2xf32>) -> tensor<128xf32> loc(#loc27)
    tt.return %0 : tensor<128xf32> loc(#loc29)
  ^bb1:  // no predecessors
    %1 = ub.poison : tensor<128xf32> loc(#loc30)
    tt.return %1 : tensor<128xf32> loc(#loc30)
  } loc(#loc26)
  tt.func private @triton.language.standard._sum_combine__fp32_fp32__(%a: f32 loc("a"(#loc31)), %b: f32 loc("b"(#loc31))) -> f32 attributes {noinline = false} {
    %0 = arith.addf %a, %b : f32 loc(#loc32)
    tt.return %0 : f32 loc(#loc33)
  ^bb1:  // no predecessors
    %1 = ub.poison : f32 loc(#loc34)
    tt.return %1 : f32 loc(#loc34)
  } loc(#loc31)
} loc(#loc)
#loc1 = loc("/NHNHOME/WORKSPACE/26msit001_A/jinhyeok/loop_TTT/lact/.cache_inductor_llm/q4/cq46rfimetqtnn4t5jqdd326aiuzhrd7ry25akaqpw5pxvr6sogc.py":19:13)
#loc2 = loc("/NHNHOME/WORKSPACE/26msit001_A/jinhyeok/loop_TTT/lact/.cache_inductor_llm/q4/cq46rfimetqtnn4t5jqdd326aiuzhrd7ry25akaqpw5pxvr6sogc.py":20:15)
#loc3 = loc("/NHNHOME/WORKSPACE/26msit001_A/jinhyeok/loop_TTT/lact/.cache_inductor_llm/q4/cq46rfimetqtnn4t5jqdd326aiuzhrd7ry25akaqpw5pxvr6sogc.py":24:28)
#loc4 = loc("/NHNHOME/WORKSPACE/26msit001_A/jinhyeok/loop_TTT/lact/.cache_inductor_llm/q4/cq46rfimetqtnn4t5jqdd326aiuzhrd7ry25akaqpw5pxvr6sogc.py":24:33)
#loc5 = loc("/NHNHOME/WORKSPACE/26msit001_A/jinhyeok/loop_TTT/lact/.cache_inductor_llm/q4/cq46rfimetqtnn4t5jqdd326aiuzhrd7ry25akaqpw5pxvr6sogc.py":25:36)
#loc6 = loc("/NHNHOME/WORKSPACE/26msit001_A/jinhyeok/loop_TTT/lact/.cache_inductor_llm/q4/cq46rfimetqtnn4t5jqdd326aiuzhrd7ry25akaqpw5pxvr6sogc.py":25:44)
#loc7 = loc("/NHNHOME/WORKSPACE/26msit001_A/jinhyeok/loop_TTT/lact/.cache_inductor_llm/q4/cq46rfimetqtnn4t5jqdd326aiuzhrd7ry25akaqpw5pxvr6sogc.py":25:23)
#loc8 = loc("/NHNHOME/WORKSPACE/26msit001_A/jinhyeok/loop_TTT/lact/.cache_inductor_llm/q4/cq46rfimetqtnn4t5jqdd326aiuzhrd7ry25akaqpw5pxvr6sogc.py":26:46)
#loc9 = loc("/NHNHOME/WORKSPACE/26msit001_A/jinhyeok/loop_TTT/lact/.cache_inductor_llm/q4/cq46rfimetqtnn4t5jqdd326aiuzhrd7ry25akaqpw5pxvr6sogc.py":27:28)
#loc10 = loc("/NHNHOME/WORKSPACE/26msit001_A/jinhyeok/loop_TTT/lact/.cache_inductor_llm/q4/cq46rfimetqtnn4t5jqdd326aiuzhrd7ry25akaqpw5pxvr6sogc.py":27:38)
#loc11 = loc("/NHNHOME/WORKSPACE/26msit001_A/jinhyeok/loop_TTT/lact/.cache_inductor_llm/q4/cq46rfimetqtnn4t5jqdd326aiuzhrd7ry25akaqpw5pxvr6sogc.py":28:16)
#loc12 = loc("/NHNHOME/WORKSPACE/26msit001_A/jinhyeok/loop_TTT/lact/.cache_inductor_llm/q4/cq46rfimetqtnn4t5jqdd326aiuzhrd7ry25akaqpw5pxvr6sogc.py":29:48)
#loc13 = loc("/NHNHOME/WORKSPACE/26msit001_A/jinhyeok/loop_TTT/lact/.cache_inductor_llm/q4/cq46rfimetqtnn4t5jqdd326aiuzhrd7ry25akaqpw5pxvr6sogc.py":33:19)
#loc14 = loc("/NHNHOME/WORKSPACE/26msit001_A/jinhyeok/loop_TTT/lact/.cache_inductor_llm/q4/cq46rfimetqtnn4t5jqdd326aiuzhrd7ry25akaqpw5pxvr6sogc.py":34:19)
#loc15 = loc("/NHNHOME/WORKSPACE/26msit001_A/jinhyeok/loop_TTT/lact/.cache_inductor_llm/q4/cq46rfimetqtnn4t5jqdd326aiuzhrd7ry25akaqpw5pxvr6sogc.py":36:40)
#loc16 = loc("/NHNHOME/WORKSPACE/26msit001_A/jinhyeok/loop_TTT/lact/.cache_inductor_llm/q4/cq46rfimetqtnn4t5jqdd326aiuzhrd7ry25akaqpw5pxvr6sogc.py":36:35)
#loc17 = loc("/NHNHOME/WORKSPACE/26msit001_A/jinhyeok/loop_TTT/lact/.cache_inductor_llm/q4/cq46rfimetqtnn4t5jqdd326aiuzhrd7ry25akaqpw5pxvr6sogc.py":36:52)
#loc18 = loc("/NHNHOME/WORKSPACE/26msit001_A/jinhyeok/loop_TTT/lact/.cache_inductor_llm/q4/cq46rfimetqtnn4t5jqdd326aiuzhrd7ry25akaqpw5pxvr6sogc.py":36:47)
#loc19 = loc("/NHNHOME/WORKSPACE/26msit001_A/jinhyeok/loop_TTT/lact/.cache_inductor_llm/q4/cq46rfimetqtnn4t5jqdd326aiuzhrd7ry25akaqpw5pxvr6sogc.py":36:30)
#loc20 = loc("/NHNHOME/WORKSPACE/26msit001_A/jinhyeok/loop_TTT/lact/.cache_inductor_llm/q4/cq46rfimetqtnn4t5jqdd326aiuzhrd7ry25akaqpw5pxvr6sogc.py":36:57)
#loc21 = loc("/NHNHOME/WORKSPACE/26msit001_A/jinhyeok/loop_TTT/lact/.cache_inductor_llm/q4/cq46rfimetqtnn4t5jqdd326aiuzhrd7ry25akaqpw5pxvr6sogc.py":38:24)
#loc22 = loc("/NHNHOME/WORKSPACE/26msit001_A/jinhyeok/loop_TTT/lact/.cache_inductor_llm/q4/cq46rfimetqtnn4t5jqdd326aiuzhrd7ry25akaqpw5pxvr6sogc.py":38:27)
#loc23 = loc("/NHNHOME/WORKSPACE/26msit001_A/jinhyeok/loop_TTT/lact/.cache_inductor_llm/q4/cq46rfimetqtnn4t5jqdd326aiuzhrd7ry25akaqpw5pxvr6sogc.py":39:25)
#loc24 = loc("/NHNHOME/WORKSPACE/26msit001_A/jinhyeok/loop_TTT/lact/.cache_inductor_llm/q4/cq46rfimetqtnn4t5jqdd326aiuzhrd7ry25akaqpw5pxvr6sogc.py":39:36)
#loc25 = loc("/NHNHOME/WORKSPACE/26msit001_A/jinhyeok/loop_TTT/lact/.cache_inductor_llm/q4/cq46rfimetqtnn4t5jqdd326aiuzhrd7ry25akaqpw5pxvr6sogc.py":39:4)
#loc27 = loc("/NHNHOME/WORKSPACE/26msit001_A/jinhyeok/TTT_camera_embedding/.venv_llm/lib/python3.12/site-packages/triton/language/standard.py":291:36)
#loc29 = loc("/NHNHOME/WORKSPACE/26msit001_A/jinhyeok/TTT_camera_embedding/.venv_llm/lib/python3.12/site-packages/triton/language/standard.py":291:11)
#loc30 = loc("/NHNHOME/WORKSPACE/26msit001_A/jinhyeok/TTT_camera_embedding/.venv_llm/lib/python3.12/site-packages/triton/language/standard.py":291:4)
#loc32 = loc("/NHNHOME/WORKSPACE/26msit001_A/jinhyeok/TTT_camera_embedding/.venv_llm/lib/python3.12/site-packages/triton/language/standard.py":261:15)
#loc33 = loc("/NHNHOME/WORKSPACE/26msit001_A/jinhyeok/TTT_camera_embedding/.venv_llm/lib/python3.12/site-packages/triton/language/standard.py":261:11)
#loc34 = loc("/NHNHOME/WORKSPACE/26msit001_A/jinhyeok/TTT_camera_embedding/.venv_llm/lib/python3.12/site-packages/triton/language/standard.py":261:4)
#loc39 = loc("xnumel"(#loc1))
#loc40 = loc("r0_numel"(#loc2))
#loc41 = loc("xoffset"(#loc3))
#loc42 = loc("xoffset"(#loc4))
#loc43 = loc("xindex"(#loc5))
#loc44 = loc("xindex"(#loc6))
#loc45 = loc("xindex"(#loc7))
#loc46 = loc("xmask"(#loc8))
#loc47 = loc("r0_index"(#loc9))
#loc48 = loc("r0_index"(#loc10))
#loc49 = loc("r0_offset"(#loc11))
#loc50 = loc("r0_mask"(#loc12))
#loc51 = loc("x0"(#loc13))
#loc52 = loc("x1"(#loc14))
#loc53 = loc("tmp0"(#loc15))
#loc54 = loc("tmp0"(#loc16))
#loc55 = loc("tmp0"(#loc17))
#loc56 = loc("tmp0"(#loc18))
#loc57 = loc("tmp0"(#loc19))
#loc58 = loc("tmp0"(#loc20))
#loc59 = loc("tmp3"(#loc21))
#loc60 = loc("tmp3"(#loc22))
