#loc = loc("/NHNHOME/WORKSPACE/26msit001_A/jinhyeok/loop_TTT/lact/.cache_inductor_llm/q4/cq46rfimetqtnn4t5jqdd326aiuzhrd7ry25akaqpw5pxvr6sogc.py":18:0)
#loc3 = loc(unknown)
#loc18 = loc("/NHNHOME/WORKSPACE/26msit001_A/jinhyeok/loop_TTT/lact/.cache_inductor_llm/q4/cq46rfimetqtnn4t5jqdd326aiuzhrd7ry25akaqpw5pxvr6sogc.py":38:24)
#loc24 = loc("in_ptr0"(#loc))
#loc25 = loc("out_ptr0"(#loc))
#loc26 = loc("xnumel"(#loc))
#loc27 = loc("r0_numel"(#loc))
#loc43 = loc("tmp3"(#loc18))
#loc46 = loc(callsite(#loc3 at #loc43))
module {
  tt.func public @triton_per_fused__to_copy_mul_silu_sum_transpose_19(%in_ptr0: !tt.ptr<f32> {tt.divisibility = 16 : i32} loc("in_ptr0"(#loc)), %out_ptr0: !tt.ptr<f32> {tt.divisibility = 16 : i32} loc("out_ptr0"(#loc)), %xnumel: i32 {tt.divisibility = 16 : i32} loc("xnumel"(#loc)), %r0_numel: i32 loc("r0_numel"(#loc))) attributes {noinline = false} {
    %tmp0 = arith.constant dense<2048> : tensor<128x1xi32> loc(#loc28)
    %tmp0_0 = arith.constant dense<1024> : tensor<1x2xi32> loc(#loc29)
    %cst = arith.constant dense<1024> : tensor<128x1xi32> loc(#loc3)
    %c128_i32 = arith.constant 128 : i32 loc(#loc3)
    %xoffset = tt.get_program_id x : i32 loc(#loc30)
    %xoffset_1 = arith.muli %xoffset, %c128_i32 : i32 loc(#loc31)
    %xindex = tt.make_range {end = 128 : i32, start = 0 : i32} : tensor<128xi32> loc(#loc32)
    %xindex_2 = tt.expand_dims %xindex {axis = 1 : i32} : tensor<128xi32> -> tensor<128x1xi32> loc(#loc33)
    %xindex_3 = tt.splat %xoffset_1 : i32 -> tensor<128x1xi32> loc(#loc34)
    %xindex_4 = arith.addi %xindex_3, %xindex_2 : tensor<128x1xi32> loc(#loc34)
    %r0_index = tt.make_range {end = 2 : i32, start = 0 : i32} : tensor<2xi32> loc(#loc35)
    %r0_index_5 = tt.expand_dims %r0_index {axis = 0 : i32} : tensor<2xi32> -> tensor<1x2xi32> loc(#loc36)
    %x0 = arith.remsi %xindex_4, %cst : tensor<128x1xi32> loc(#loc37)
    %x1 = arith.divsi %xindex_4, %cst : tensor<128x1xi32> loc(#loc38)
    %tmp0_6 = arith.muli %r0_index_5, %tmp0_0 : tensor<1x2xi32> loc(#loc29)
    %tmp0_7 = tt.broadcast %x0 : tensor<128x1xi32> -> tensor<128x2xi32> loc(#loc39)
    %tmp0_8 = tt.broadcast %tmp0_6 : tensor<1x2xi32> -> tensor<128x2xi32> loc(#loc39)
    %tmp0_9 = arith.addi %tmp0_7, %tmp0_8 : tensor<128x2xi32> loc(#loc39)
    %tmp0_10 = arith.muli %x1, %tmp0 : tensor<128x1xi32> loc(#loc28)
    %tmp0_11 = tt.broadcast %tmp0_10 : tensor<128x1xi32> -> tensor<128x2xi32> loc(#loc40)
    %tmp0_12 = arith.addi %tmp0_9, %tmp0_11 : tensor<128x2xi32> loc(#loc40)
    %tmp0_13 = tt.splat %in_ptr0 : !tt.ptr<f32> -> tensor<128x2x!tt.ptr<f32>> loc(#loc41)
    %tmp0_14 = tt.addptr %tmp0_13, %tmp0_12 : tensor<128x2x!tt.ptr<f32>>, tensor<128x2xi32> loc(#loc41)
    %tmp0_15 = tt.load %tmp0_14 : tensor<128x2x!tt.ptr<f32>> loc(#loc42)
    %tmp3 = "tt.reduce"(%tmp0_15) <{axis = 1 : i32}> ({
    ^bb0(%tmp3_17: f32 loc(callsite(#loc3 at #loc43)), %tmp3_18: f32 loc(callsite(#loc3 at #loc43))):
      %tmp3_19 = arith.addf %tmp3_17, %tmp3_18 : f32 loc(#loc47)
      tt.reduce.return %tmp3_19 : f32 loc(#loc45)
    }) : (tensor<128x2xf32>) -> tensor<128xf32> loc(#loc45)
    %tmp3_16 = tt.expand_dims %tmp3 {axis = 1 : i32} : tensor<128xf32> -> tensor<128x1xf32> loc(#loc44)
    %0 = tt.splat %out_ptr0 : !tt.ptr<f32> -> tensor<128x1x!tt.ptr<f32>> loc(#loc21)
    %1 = tt.addptr %0, %xindex_4 : tensor<128x1x!tt.ptr<f32>>, tensor<128x1xi32> loc(#loc21)
    tt.store %1, %tmp3_16 : tensor<128x1x!tt.ptr<f32>> loc(#loc22)
    tt.return loc(#loc23)
  } loc(#loc)
} loc(#loc)
#loc1 = loc("/NHNHOME/WORKSPACE/26msit001_A/jinhyeok/loop_TTT/lact/.cache_inductor_llm/q4/cq46rfimetqtnn4t5jqdd326aiuzhrd7ry25akaqpw5pxvr6sogc.py":36:52)
#loc2 = loc("/NHNHOME/WORKSPACE/26msit001_A/jinhyeok/loop_TTT/lact/.cache_inductor_llm/q4/cq46rfimetqtnn4t5jqdd326aiuzhrd7ry25akaqpw5pxvr6sogc.py":36:40)
#loc4 = loc("/NHNHOME/WORKSPACE/26msit001_A/jinhyeok/loop_TTT/lact/.cache_inductor_llm/q4/cq46rfimetqtnn4t5jqdd326aiuzhrd7ry25akaqpw5pxvr6sogc.py":24:28)
#loc5 = loc("/NHNHOME/WORKSPACE/26msit001_A/jinhyeok/loop_TTT/lact/.cache_inductor_llm/q4/cq46rfimetqtnn4t5jqdd326aiuzhrd7ry25akaqpw5pxvr6sogc.py":24:33)
#loc6 = loc("/NHNHOME/WORKSPACE/26msit001_A/jinhyeok/loop_TTT/lact/.cache_inductor_llm/q4/cq46rfimetqtnn4t5jqdd326aiuzhrd7ry25akaqpw5pxvr6sogc.py":25:36)
#loc7 = loc("/NHNHOME/WORKSPACE/26msit001_A/jinhyeok/loop_TTT/lact/.cache_inductor_llm/q4/cq46rfimetqtnn4t5jqdd326aiuzhrd7ry25akaqpw5pxvr6sogc.py":25:44)
#loc8 = loc("/NHNHOME/WORKSPACE/26msit001_A/jinhyeok/loop_TTT/lact/.cache_inductor_llm/q4/cq46rfimetqtnn4t5jqdd326aiuzhrd7ry25akaqpw5pxvr6sogc.py":25:23)
#loc9 = loc("/NHNHOME/WORKSPACE/26msit001_A/jinhyeok/loop_TTT/lact/.cache_inductor_llm/q4/cq46rfimetqtnn4t5jqdd326aiuzhrd7ry25akaqpw5pxvr6sogc.py":27:28)
#loc10 = loc("/NHNHOME/WORKSPACE/26msit001_A/jinhyeok/loop_TTT/lact/.cache_inductor_llm/q4/cq46rfimetqtnn4t5jqdd326aiuzhrd7ry25akaqpw5pxvr6sogc.py":27:38)
#loc11 = loc("/NHNHOME/WORKSPACE/26msit001_A/jinhyeok/loop_TTT/lact/.cache_inductor_llm/q4/cq46rfimetqtnn4t5jqdd326aiuzhrd7ry25akaqpw5pxvr6sogc.py":33:19)
#loc12 = loc("/NHNHOME/WORKSPACE/26msit001_A/jinhyeok/loop_TTT/lact/.cache_inductor_llm/q4/cq46rfimetqtnn4t5jqdd326aiuzhrd7ry25akaqpw5pxvr6sogc.py":34:19)
#loc13 = loc("/NHNHOME/WORKSPACE/26msit001_A/jinhyeok/loop_TTT/lact/.cache_inductor_llm/q4/cq46rfimetqtnn4t5jqdd326aiuzhrd7ry25akaqpw5pxvr6sogc.py":36:35)
#loc14 = loc("/NHNHOME/WORKSPACE/26msit001_A/jinhyeok/loop_TTT/lact/.cache_inductor_llm/q4/cq46rfimetqtnn4t5jqdd326aiuzhrd7ry25akaqpw5pxvr6sogc.py":36:47)
#loc15 = loc("/NHNHOME/WORKSPACE/26msit001_A/jinhyeok/loop_TTT/lact/.cache_inductor_llm/q4/cq46rfimetqtnn4t5jqdd326aiuzhrd7ry25akaqpw5pxvr6sogc.py":36:30)
#loc16 = loc("/NHNHOME/WORKSPACE/26msit001_A/jinhyeok/loop_TTT/lact/.cache_inductor_llm/q4/cq46rfimetqtnn4t5jqdd326aiuzhrd7ry25akaqpw5pxvr6sogc.py":36:57)
#loc17 = loc("/NHNHOME/WORKSPACE/26msit001_A/jinhyeok/TTT_camera_embedding/.venv_llm/lib/python3.12/site-packages/triton/language/standard.py":291:36)
#loc19 = loc("/NHNHOME/WORKSPACE/26msit001_A/jinhyeok/TTT_camera_embedding/.venv_llm/lib/python3.12/site-packages/triton/language/standard.py":261:15)
#loc20 = loc("/NHNHOME/WORKSPACE/26msit001_A/jinhyeok/loop_TTT/lact/.cache_inductor_llm/q4/cq46rfimetqtnn4t5jqdd326aiuzhrd7ry25akaqpw5pxvr6sogc.py":38:27)
#loc21 = loc("/NHNHOME/WORKSPACE/26msit001_A/jinhyeok/loop_TTT/lact/.cache_inductor_llm/q4/cq46rfimetqtnn4t5jqdd326aiuzhrd7ry25akaqpw5pxvr6sogc.py":39:25)
#loc22 = loc("/NHNHOME/WORKSPACE/26msit001_A/jinhyeok/loop_TTT/lact/.cache_inductor_llm/q4/cq46rfimetqtnn4t5jqdd326aiuzhrd7ry25akaqpw5pxvr6sogc.py":39:36)
#loc23 = loc("/NHNHOME/WORKSPACE/26msit001_A/jinhyeok/loop_TTT/lact/.cache_inductor_llm/q4/cq46rfimetqtnn4t5jqdd326aiuzhrd7ry25akaqpw5pxvr6sogc.py":39:4)
#loc28 = loc("tmp0"(#loc1))
#loc29 = loc("tmp0"(#loc2))
#loc30 = loc("xoffset"(#loc4))
#loc31 = loc("xoffset"(#loc5))
#loc32 = loc("xindex"(#loc6))
#loc33 = loc("xindex"(#loc7))
#loc34 = loc("xindex"(#loc8))
#loc35 = loc("r0_index"(#loc9))
#loc36 = loc("r0_index"(#loc10))
#loc37 = loc("x0"(#loc11))
#loc38 = loc("x1"(#loc12))
#loc39 = loc("tmp0"(#loc13))
#loc40 = loc("tmp0"(#loc14))
#loc41 = loc("tmp0"(#loc15))
#loc42 = loc("tmp0"(#loc16))
#loc44 = loc("tmp3"(#loc20))
#loc45 = loc(callsite(#loc17 at #loc43))
#loc47 = loc(callsite(#loc19 at #loc45))
