#loc = loc("/NHNHOME/WORKSPACE/26msit001_A/jinhyeok/loop_TTT/lact/.cache_inductor_llm/bs/cbsap2r6km5hr3ufwnzdomljx6gpd46uud43nj4ufad26i7xlhk7.py":18:0)
#loc81 = loc("in_out_ptr0"(#loc))
#loc82 = loc("in_ptr0"(#loc))
#loc83 = loc("in_ptr1"(#loc))
#loc84 = loc("in_ptr2"(#loc))
#loc85 = loc("in_ptr3"(#loc))
#loc86 = loc("in_ptr4"(#loc))
#loc87 = loc("in_ptr5"(#loc))
#loc88 = loc("in_ptr6"(#loc))
#loc89 = loc("out_ptr0"(#loc))
#loc90 = loc("out_ptr1"(#loc))
#loc91 = loc("xnumel"(#loc))
module {
  tt.func public @triton_poi_fused__to_copy_add_fill_mul_neg_rsub_sigmoid_sigmoid_backward_silu_slice_sub_transpose_27(%in_out_ptr0: !tt.ptr<bf16> {tt.divisibility = 16 : i32} loc("in_out_ptr0"(#loc)), %in_ptr0: !tt.ptr<bf16> {tt.divisibility = 16 : i32} loc("in_ptr0"(#loc)), %in_ptr1: !tt.ptr<bf16> {tt.divisibility = 16 : i32} loc("in_ptr1"(#loc)), %in_ptr2: !tt.ptr<bf16> {tt.divisibility = 16 : i32} loc("in_ptr2"(#loc)), %in_ptr3: !tt.ptr<bf16> {tt.divisibility = 16 : i32} loc("in_ptr3"(#loc)), %in_ptr4: !tt.ptr<bf16> {tt.divisibility = 16 : i32} loc("in_ptr4"(#loc)), %in_ptr5: !tt.ptr<bf16> {tt.divisibility = 16 : i32} loc("in_ptr5"(#loc)), %in_ptr6: !tt.ptr<f32> loc("in_ptr6"(#loc)), %out_ptr0: !tt.ptr<bf16> {tt.divisibility = 16 : i32} loc("out_ptr0"(#loc)), %out_ptr1: !tt.ptr<bf16> {tt.divisibility = 16 : i32} loc("out_ptr1"(#loc)), %xnumel: i32 {tt.divisibility = 16 : i32} loc("xnumel"(#loc))) attributes {noinline = false} {
    %cst = arith.constant dense<0.000000e+00> : tensor<512xf32> loc(#loc1)
    %cst_0 = arith.constant dense<1.000000e+00> : tensor<512xf32> loc(#loc1)
    %tmp41 = arith.constant dense<12288> : tensor<512xi32> loc(#loc92)
    %tmp41_1 = arith.constant dense<3072> : tensor<512xi32> loc(#loc93)
    %tmp41_2 = arith.constant dense<3> : tensor<512xi32> loc(#loc94)
    %cst_3 = arith.constant dense<196608> : tensor<512xi32> loc(#loc1)
    %cst_4 = arith.constant dense<192> : tensor<512xi32> loc(#loc1)
    %cst_5 = arith.constant dense<1024> : tensor<512xi32> loc(#loc1)
    %c512_i32 = arith.constant 512 : i32 loc(#loc1)
    %xoffset = tt.get_program_id x : i32 loc(#loc95)
    %xoffset_6 = arith.muli %xoffset, %c512_i32 : i32 loc(#loc96)
    %xindex = tt.make_range {end = 512 : i32, start = 0 : i32} : tensor<512xi32> loc(#loc97)
    %xindex_7 = tt.splat %xoffset_6 : i32 -> tensor<512xi32> loc(#loc98)
    %xindex_8 = arith.addi %xindex_7, %xindex : tensor<512xi32> loc(#loc98)
    %x1 = arith.remsi %xindex_8, %cst_5 : tensor<512xi32> loc(#loc99)
    %x2 = arith.divsi %xindex_8, %cst_5 : tensor<512xi32> loc(#loc100)
    %x2_9 = arith.remsi %x2, %cst_4 : tensor<512xi32> loc(#loc101)
    %x3 = arith.divsi %xindex_8, %cst_3 : tensor<512xi32> loc(#loc102)
    %tmp0 = tt.splat %in_ptr0 : !tt.ptr<bf16> -> tensor<512x!tt.ptr<bf16>> loc(#loc103)
    %tmp0_10 = tt.addptr %tmp0, %xindex_8 : tensor<512x!tt.ptr<bf16>>, tensor<512xi32> loc(#loc103)
    %tmp0_11 = tt.load %tmp0_10 : tensor<512x!tt.ptr<bf16>> loc(#loc104)
    %tmp0_12 = arith.extf %tmp0_11 : tensor<512xbf16> to tensor<512xf32> loc(#loc105)
    %tmp1 = tt.splat %in_ptr1 : !tt.ptr<bf16> -> tensor<512x!tt.ptr<bf16>> loc(#loc106)
    %tmp1_13 = tt.addptr %tmp1, %xindex_8 : tensor<512x!tt.ptr<bf16>>, tensor<512xi32> loc(#loc106)
    %tmp1_14 = tt.load %tmp1_13 : tensor<512x!tt.ptr<bf16>> loc(#loc107)
    %tmp1_15 = arith.extf %tmp1_14 : tensor<512xbf16> to tensor<512xf32> loc(#loc108)
    %tmp9 = tt.splat %in_ptr2 : !tt.ptr<bf16> -> tensor<512x!tt.ptr<bf16>> loc(#loc109)
    %tmp9_16 = tt.addptr %tmp9, %xindex_8 : tensor<512x!tt.ptr<bf16>>, tensor<512xi32> loc(#loc109)
    %tmp9_17 = tt.load %tmp9_16 : tensor<512x!tt.ptr<bf16>> loc(#loc110)
    %tmp9_18 = arith.extf %tmp9_17 : tensor<512xbf16> to tensor<512xf32> loc(#loc111)
    %tmp11 = tt.splat %in_ptr3 : !tt.ptr<bf16> -> tensor<512x!tt.ptr<bf16>> loc(#loc112)
    %tmp11_19 = tt.addptr %tmp11, %xindex_8 : tensor<512x!tt.ptr<bf16>>, tensor<512xi32> loc(#loc112)
    %tmp11_20 = tt.load %tmp11_19 : tensor<512x!tt.ptr<bf16>> loc(#loc113)
    %tmp11_21 = arith.extf %tmp11_20 : tensor<512xbf16> to tensor<512xf32> loc(#loc114)
    %tmp18 = tt.splat %in_ptr4 : !tt.ptr<bf16> -> tensor<512x!tt.ptr<bf16>> loc(#loc115)
    %tmp18_22 = tt.addptr %tmp18, %xindex_8 : tensor<512x!tt.ptr<bf16>>, tensor<512xi32> loc(#loc115)
    %tmp18_23 = tt.load %tmp18_22 : tensor<512x!tt.ptr<bf16>> loc(#loc116)
    %tmp18_24 = arith.extf %tmp18_23 : tensor<512xbf16> to tensor<512xf32> loc(#loc117)
    %tmp39 = arith.muli %x1, %cst_4 : tensor<512xi32> loc(#loc118)
    %tmp39_25 = arith.addi %x2_9, %tmp39 : tensor<512xi32> loc(#loc119)
    %tmp39_26 = arith.muli %x3, %cst_3 : tensor<512xi32> loc(#loc120)
    %tmp39_27 = arith.addi %tmp39_25, %tmp39_26 : tensor<512xi32> loc(#loc121)
    %tmp39_28 = tt.splat %in_ptr5 : !tt.ptr<bf16> -> tensor<512x!tt.ptr<bf16>> loc(#loc122)
    %tmp39_29 = tt.addptr %tmp39_28, %tmp39_27 : tensor<512x!tt.ptr<bf16>>, tensor<512xi32> loc(#loc122)
    %tmp39_30 = tt.load %tmp39_29 evictionPolicy = evict_last : tensor<512x!tt.ptr<bf16>> loc(#loc123)
    %tmp39_31 = arith.extf %tmp39_30 : tensor<512xbf16> to tensor<512xf32> loc(#loc124)
    %tmp41_32 = arith.muli %x1, %tmp41_2 : tensor<512xi32> loc(#loc94)
    %tmp41_33 = arith.addi %tmp41_32, %tmp41_1 : tensor<512xi32> loc(#loc93)
    %tmp41_34 = arith.muli %x3, %tmp41 : tensor<512xi32> loc(#loc92)
    %tmp41_35 = arith.addi %tmp41_33, %tmp41_34 : tensor<512xi32> loc(#loc125)
    %tmp41_36 = tt.splat %in_ptr6 : !tt.ptr<f32> -> tensor<512x!tt.ptr<f32>> loc(#loc126)
    %tmp41_37 = tt.addptr %tmp41_36, %tmp41_35 : tensor<512x!tt.ptr<f32>>, tensor<512xi32> loc(#loc126)
    %tmp41_38 = tt.load %tmp41_37 evictionPolicy = evict_last : tensor<512x!tt.ptr<f32>> loc(#loc127)
    %tmp2 = arith.subf %cst, %tmp1_15 : tensor<512xf32> loc(#loc160)
    %tmp2_39 = math.exp %tmp2 : tensor<512xf32> loc(#loc161)
    %tmp2_40 = arith.addf %tmp2_39, %cst_0 : tensor<512xf32> loc(#loc162)
    %tmp2_41 = arith.divf %cst_0, %tmp2_40 : tensor<512xf32> loc(#loc163)
    %tmp4 = arith.subf %cst_0, %tmp2_41 : tensor<512xf32> loc(#loc129)
    %tmp5 = arith.mulf %tmp1_15, %tmp4 : tensor<512xf32> loc(#loc130)
    %tmp6 = arith.addf %tmp5, %cst_0 : tensor<512xf32> loc(#loc131)
    %tmp7 = arith.mulf %tmp0_12, %tmp6 : tensor<512xf32> loc(#loc132)
    %tmp8 = arith.mulf %tmp7, %tmp2_41 : tensor<512xf32> loc(#loc133)
    %tmp10 = arith.mulf %tmp8, %tmp9_18 : tensor<512xf32> loc(#loc134)
    %tmp14 = arith.mulf %tmp1_15, %tmp2_41 : tensor<512xf32> loc(#loc135)
    %tmp16 = arith.mulf %tmp11_21, %tmp14 : tensor<512xf32> loc(#loc136)
    %tmp17 = arith.addf %tmp10, %tmp16 : tensor<512xf32> loc(#loc137)
    %tmp19 = arith.mulf %tmp18_24, %tmp9_18 : tensor<512xf32> loc(#loc138)
    %tmp20 = arith.mulf %tmp19, %tmp2_41 : tensor<512xf32> loc(#loc139)
    %tmp21 = arith.mulf %tmp0_12, %tmp20 : tensor<512xf32> loc(#loc140)
    %tmp22 = arith.mulf %tmp21, %tmp4 : tensor<512xf32> loc(#loc141)
    %tmp23 = arith.mulf %tmp21, %tmp1_15 : tensor<512xf32> loc(#loc142)
    %tmp24 = arith.subf %cst, %tmp23 : tensor<512xf32> loc(#loc143)
    %tmp25 = arith.mulf %tmp7, %tmp19 : tensor<512xf32> loc(#loc144)
    %tmp26 = arith.addf %tmp24, %tmp25 : tensor<512xf32> loc(#loc145)
    %tmp30 = arith.mulf %tmp2_41, %tmp4 : tensor<512xf32> loc(#loc146)
    %tmp31 = arith.mulf %tmp26, %tmp30 : tensor<512xf32> loc(#loc147)
    %tmp33 = arith.addf %tmp22, %tmp31 : tensor<512xf32> loc(#loc148)
    %tmp34 = arith.mulf %tmp11_21, %tmp18_24 : tensor<512xf32> loc(#loc149)
    %tmp35 = arith.mulf %tmp2_41, %tmp6 : tensor<512xf32> loc(#loc150)
    %tmp36 = arith.mulf %tmp34, %tmp35 : tensor<512xf32> loc(#loc151)
    %tmp37 = arith.addf %tmp33, %tmp36 : tensor<512xf32> loc(#loc152)
    %tmp38 = arith.mulf %tmp8, %tmp18_24 : tensor<512xf32> loc(#loc153)
    %tmp42 = arith.mulf %tmp39_31, %tmp41_38 : tensor<512xf32> loc(#loc154)
    %tmp44 = arith.mulf %tmp42, %tmp14 : tensor<512xf32> loc(#loc155)
    %tmp45 = arith.addf %tmp38, %tmp44 : tensor<512xf32> loc(#loc156)
    %tmp46 = arith.mulf %tmp42, %tmp9_18 : tensor<512xf32> loc(#loc157)
    %tmp47 = arith.mulf %tmp46, %tmp35 : tensor<512xf32> loc(#loc158)
    %tmp48 = arith.addf %tmp37, %tmp47 : tensor<512xf32> loc(#loc159)
    %0 = tt.splat %out_ptr0 : !tt.ptr<bf16> -> tensor<512x!tt.ptr<bf16>> loc(#loc74)
    %1 = tt.addptr %0, %xindex_8 : tensor<512x!tt.ptr<bf16>>, tensor<512xi32> loc(#loc74)
    %2 = arith.truncf %tmp17 : tensor<512xf32> to tensor<512xbf16> loc(#loc75)
    tt.store %1, %2 : tensor<512x!tt.ptr<bf16>> loc(#loc75)
    %3 = tt.splat %out_ptr1 : !tt.ptr<bf16> -> tensor<512x!tt.ptr<bf16>> loc(#loc76)
    %4 = tt.addptr %3, %xindex_8 : tensor<512x!tt.ptr<bf16>>, tensor<512xi32> loc(#loc76)
    %5 = arith.truncf %tmp45 : tensor<512xf32> to tensor<512xbf16> loc(#loc77)
    tt.store %4, %5 : tensor<512x!tt.ptr<bf16>> loc(#loc77)
    %6 = tt.splat %in_out_ptr0 : !tt.ptr<bf16> -> tensor<512x!tt.ptr<bf16>> loc(#loc78)
    %7 = tt.addptr %6, %xindex_8 : tensor<512x!tt.ptr<bf16>>, tensor<512xi32> loc(#loc78)
    %8 = arith.truncf %tmp48 : tensor<512xf32> to tensor<512xbf16> loc(#loc79)
    tt.store %7, %8 : tensor<512x!tt.ptr<bf16>> loc(#loc79)
    tt.return loc(#loc80)
  } loc(#loc)
} loc(#loc)
#loc1 = loc(unknown)
#loc2 = loc("/NHNHOME/WORKSPACE/26msit001_A/jinhyeok/loop_TTT/lact/.cache_inductor_llm/bs/cbsap2r6km5hr3ufwnzdomljx6gpd46uud43nj4ufad26i7xlhk7.py":33:51)
#loc3 = loc("/NHNHOME/WORKSPACE/26msit001_A/jinhyeok/loop_TTT/lact/.cache_inductor_llm/bs/cbsap2r6km5hr3ufwnzdomljx6gpd46uud43nj4ufad26i7xlhk7.py":33:38)
#loc4 = loc("/NHNHOME/WORKSPACE/26msit001_A/jinhyeok/loop_TTT/lact/.cache_inductor_llm/bs/cbsap2r6km5hr3ufwnzdomljx6gpd46uud43nj4ufad26i7xlhk7.py":33:40)
#loc5 = loc("/NHNHOME/WORKSPACE/26msit001_A/jinhyeok/loop_TTT/lact/.cache_inductor_llm/bs/cbsap2r6km5hr3ufwnzdomljx6gpd46uud43nj4ufad26i7xlhk7.py":20:28)
#loc6 = loc("/NHNHOME/WORKSPACE/26msit001_A/jinhyeok/loop_TTT/lact/.cache_inductor_llm/bs/cbsap2r6km5hr3ufwnzdomljx6gpd46uud43nj4ufad26i7xlhk7.py":20:33)
#loc7 = loc("/NHNHOME/WORKSPACE/26msit001_A/jinhyeok/loop_TTT/lact/.cache_inductor_llm/bs/cbsap2r6km5hr3ufwnzdomljx6gpd46uud43nj4ufad26i7xlhk7.py":21:36)
#loc8 = loc("/NHNHOME/WORKSPACE/26msit001_A/jinhyeok/loop_TTT/lact/.cache_inductor_llm/bs/cbsap2r6km5hr3ufwnzdomljx6gpd46uud43nj4ufad26i7xlhk7.py":21:23)
#loc9 = loc("/NHNHOME/WORKSPACE/26msit001_A/jinhyeok/loop_TTT/lact/.cache_inductor_llm/bs/cbsap2r6km5hr3ufwnzdomljx6gpd46uud43nj4ufad26i7xlhk7.py":24:19)
#loc10 = loc("/NHNHOME/WORKSPACE/26msit001_A/jinhyeok/loop_TTT/lact/.cache_inductor_llm/bs/cbsap2r6km5hr3ufwnzdomljx6gpd46uud43nj4ufad26i7xlhk7.py":25:21)
#loc11 = loc("/NHNHOME/WORKSPACE/26msit001_A/jinhyeok/loop_TTT/lact/.cache_inductor_llm/bs/cbsap2r6km5hr3ufwnzdomljx6gpd46uud43nj4ufad26i7xlhk7.py":25:29)
#loc12 = loc("/NHNHOME/WORKSPACE/26msit001_A/jinhyeok/loop_TTT/lact/.cache_inductor_llm/bs/cbsap2r6km5hr3ufwnzdomljx6gpd46uud43nj4ufad26i7xlhk7.py":26:19)
#loc13 = loc("/NHNHOME/WORKSPACE/26msit001_A/jinhyeok/loop_TTT/lact/.cache_inductor_llm/bs/cbsap2r6km5hr3ufwnzdomljx6gpd46uud43nj4ufad26i7xlhk7.py":27:30)
#loc14 = loc("/NHNHOME/WORKSPACE/26msit001_A/jinhyeok/loop_TTT/lact/.cache_inductor_llm/bs/cbsap2r6km5hr3ufwnzdomljx6gpd46uud43nj4ufad26i7xlhk7.py":27:35)
#loc15 = loc("/NHNHOME/WORKSPACE/26msit001_A/jinhyeok/loop_TTT/lact/.cache_inductor_llm/bs/cbsap2r6km5hr3ufwnzdomljx6gpd46uud43nj4ufad26i7xlhk7.py":27:44)
#loc16 = loc("/NHNHOME/WORKSPACE/26msit001_A/jinhyeok/loop_TTT/lact/.cache_inductor_llm/bs/cbsap2r6km5hr3ufwnzdomljx6gpd46uud43nj4ufad26i7xlhk7.py":28:30)
#loc17 = loc("/NHNHOME/WORKSPACE/26msit001_A/jinhyeok/loop_TTT/lact/.cache_inductor_llm/bs/cbsap2r6km5hr3ufwnzdomljx6gpd46uud43nj4ufad26i7xlhk7.py":28:35)
#loc18 = loc("/NHNHOME/WORKSPACE/26msit001_A/jinhyeok/loop_TTT/lact/.cache_inductor_llm/bs/cbsap2r6km5hr3ufwnzdomljx6gpd46uud43nj4ufad26i7xlhk7.py":28:44)
#loc19 = loc("/NHNHOME/WORKSPACE/26msit001_A/jinhyeok/loop_TTT/lact/.cache_inductor_llm/bs/cbsap2r6km5hr3ufwnzdomljx6gpd46uud43nj4ufad26i7xlhk7.py":29:30)
#loc20 = loc("/NHNHOME/WORKSPACE/26msit001_A/jinhyeok/loop_TTT/lact/.cache_inductor_llm/bs/cbsap2r6km5hr3ufwnzdomljx6gpd46uud43nj4ufad26i7xlhk7.py":29:35)
#loc21 = loc("/NHNHOME/WORKSPACE/26msit001_A/jinhyeok/loop_TTT/lact/.cache_inductor_llm/bs/cbsap2r6km5hr3ufwnzdomljx6gpd46uud43nj4ufad26i7xlhk7.py":29:44)
#loc22 = loc("/NHNHOME/WORKSPACE/26msit001_A/jinhyeok/loop_TTT/lact/.cache_inductor_llm/bs/cbsap2r6km5hr3ufwnzdomljx6gpd46uud43nj4ufad26i7xlhk7.py":30:31)
#loc23 = loc("/NHNHOME/WORKSPACE/26msit001_A/jinhyeok/loop_TTT/lact/.cache_inductor_llm/bs/cbsap2r6km5hr3ufwnzdomljx6gpd46uud43nj4ufad26i7xlhk7.py":30:36)
#loc24 = loc("/NHNHOME/WORKSPACE/26msit001_A/jinhyeok/loop_TTT/lact/.cache_inductor_llm/bs/cbsap2r6km5hr3ufwnzdomljx6gpd46uud43nj4ufad26i7xlhk7.py":30:45)
#loc25 = loc("/NHNHOME/WORKSPACE/26msit001_A/jinhyeok/loop_TTT/lact/.cache_inductor_llm/bs/cbsap2r6km5hr3ufwnzdomljx6gpd46uud43nj4ufad26i7xlhk7.py":31:31)
#loc26 = loc("/NHNHOME/WORKSPACE/26msit001_A/jinhyeok/loop_TTT/lact/.cache_inductor_llm/bs/cbsap2r6km5hr3ufwnzdomljx6gpd46uud43nj4ufad26i7xlhk7.py":31:36)
#loc27 = loc("/NHNHOME/WORKSPACE/26msit001_A/jinhyeok/loop_TTT/lact/.cache_inductor_llm/bs/cbsap2r6km5hr3ufwnzdomljx6gpd46uud43nj4ufad26i7xlhk7.py":31:45)
#loc28 = loc("/NHNHOME/WORKSPACE/26msit001_A/jinhyeok/loop_TTT/lact/.cache_inductor_llm/bs/cbsap2r6km5hr3ufwnzdomljx6gpd46uud43nj4ufad26i7xlhk7.py":32:40)
#loc29 = loc("/NHNHOME/WORKSPACE/26msit001_A/jinhyeok/loop_TTT/lact/.cache_inductor_llm/bs/cbsap2r6km5hr3ufwnzdomljx6gpd46uud43nj4ufad26i7xlhk7.py":32:36)
#loc30 = loc("/NHNHOME/WORKSPACE/26msit001_A/jinhyeok/loop_TTT/lact/.cache_inductor_llm/bs/cbsap2r6km5hr3ufwnzdomljx6gpd46uud43nj4ufad26i7xlhk7.py":32:52)
#loc31 = loc("/NHNHOME/WORKSPACE/26msit001_A/jinhyeok/loop_TTT/lact/.cache_inductor_llm/bs/cbsap2r6km5hr3ufwnzdomljx6gpd46uud43nj4ufad26i7xlhk7.py":32:45)
#loc32 = loc("/NHNHOME/WORKSPACE/26msit001_A/jinhyeok/loop_TTT/lact/.cache_inductor_llm/bs/cbsap2r6km5hr3ufwnzdomljx6gpd46uud43nj4ufad26i7xlhk7.py":32:31)
#loc33 = loc("/NHNHOME/WORKSPACE/26msit001_A/jinhyeok/loop_TTT/lact/.cache_inductor_llm/bs/cbsap2r6km5hr3ufwnzdomljx6gpd46uud43nj4ufad26i7xlhk7.py":32:57)
#loc34 = loc("/NHNHOME/WORKSPACE/26msit001_A/jinhyeok/loop_TTT/lact/.cache_inductor_llm/bs/cbsap2r6km5hr3ufwnzdomljx6gpd46uud43nj4ufad26i7xlhk7.py":32:96)
#loc35 = loc("/NHNHOME/WORKSPACE/26msit001_A/jinhyeok/loop_TTT/lact/.cache_inductor_llm/bs/cbsap2r6km5hr3ufwnzdomljx6gpd46uud43nj4ufad26i7xlhk7.py":33:45)
#loc36 = loc("/NHNHOME/WORKSPACE/26msit001_A/jinhyeok/loop_TTT/lact/.cache_inductor_llm/bs/cbsap2r6km5hr3ufwnzdomljx6gpd46uud43nj4ufad26i7xlhk7.py":33:31)
#loc37 = loc("/NHNHOME/WORKSPACE/26msit001_A/jinhyeok/loop_TTT/lact/.cache_inductor_llm/bs/cbsap2r6km5hr3ufwnzdomljx6gpd46uud43nj4ufad26i7xlhk7.py":33:56)
#loc38 = loc("/NHNHOME/WORKSPACE/26msit001_A/jinhyeok/TTT_camera_embedding/.venv_llm/lib/python3.12/site-packages/triton/language/standard.py":48:30)
#loc39 = loc("/NHNHOME/WORKSPACE/26msit001_A/jinhyeok/loop_TTT/lact/.cache_inductor_llm/bs/cbsap2r6km5hr3ufwnzdomljx6gpd46uud43nj4ufad26i7xlhk7.py":34:22)
#loc40 = loc("/NHNHOME/WORKSPACE/26msit001_A/jinhyeok/TTT_camera_embedding/.venv_llm/lib/python3.12/site-packages/triton/language/standard.py":48:29)
#loc41 = loc("/NHNHOME/WORKSPACE/26msit001_A/jinhyeok/TTT_camera_embedding/.venv_llm/lib/python3.12/site-packages/triton/language/standard.py":48:20)
#loc42 = loc("/NHNHOME/WORKSPACE/26msit001_A/jinhyeok/TTT_camera_embedding/.venv_llm/lib/python3.12/site-packages/triton/language/standard.py":48:16)
#loc43 = loc("/NHNHOME/WORKSPACE/26msit001_A/jinhyeok/loop_TTT/lact/.cache_inductor_llm/bs/cbsap2r6km5hr3ufwnzdomljx6gpd46uud43nj4ufad26i7xlhk7.py":36:18)
#loc44 = loc("/NHNHOME/WORKSPACE/26msit001_A/jinhyeok/loop_TTT/lact/.cache_inductor_llm/bs/cbsap2r6km5hr3ufwnzdomljx6gpd46uud43nj4ufad26i7xlhk7.py":37:18)
#loc45 = loc("/NHNHOME/WORKSPACE/26msit001_A/jinhyeok/loop_TTT/lact/.cache_inductor_llm/bs/cbsap2r6km5hr3ufwnzdomljx6gpd46uud43nj4ufad26i7xlhk7.py":38:18)
#loc46 = loc("/NHNHOME/WORKSPACE/26msit001_A/jinhyeok/loop_TTT/lact/.cache_inductor_llm/bs/cbsap2r6km5hr3ufwnzdomljx6gpd46uud43nj4ufad26i7xlhk7.py":39:18)
#loc47 = loc("/NHNHOME/WORKSPACE/26msit001_A/jinhyeok/loop_TTT/lact/.cache_inductor_llm/bs/cbsap2r6km5hr3ufwnzdomljx6gpd46uud43nj4ufad26i7xlhk7.py":40:18)
#loc48 = loc("/NHNHOME/WORKSPACE/26msit001_A/jinhyeok/loop_TTT/lact/.cache_inductor_llm/bs/cbsap2r6km5hr3ufwnzdomljx6gpd46uud43nj4ufad26i7xlhk7.py":41:19)
#loc49 = loc("/NHNHOME/WORKSPACE/26msit001_A/jinhyeok/loop_TTT/lact/.cache_inductor_llm/bs/cbsap2r6km5hr3ufwnzdomljx6gpd46uud43nj4ufad26i7xlhk7.py":44:20)
#loc50 = loc("/NHNHOME/WORKSPACE/26msit001_A/jinhyeok/loop_TTT/lact/.cache_inductor_llm/bs/cbsap2r6km5hr3ufwnzdomljx6gpd46uud43nj4ufad26i7xlhk7.py":46:20)
#loc51 = loc("/NHNHOME/WORKSPACE/26msit001_A/jinhyeok/loop_TTT/lact/.cache_inductor_llm/bs/cbsap2r6km5hr3ufwnzdomljx6gpd46uud43nj4ufad26i7xlhk7.py":47:20)
#loc52 = loc("/NHNHOME/WORKSPACE/26msit001_A/jinhyeok/loop_TTT/lact/.cache_inductor_llm/bs/cbsap2r6km5hr3ufwnzdomljx6gpd46uud43nj4ufad26i7xlhk7.py":48:20)
#loc53 = loc("/NHNHOME/WORKSPACE/26msit001_A/jinhyeok/loop_TTT/lact/.cache_inductor_llm/bs/cbsap2r6km5hr3ufwnzdomljx6gpd46uud43nj4ufad26i7xlhk7.py":49:20)
#loc54 = loc("/NHNHOME/WORKSPACE/26msit001_A/jinhyeok/loop_TTT/lact/.cache_inductor_llm/bs/cbsap2r6km5hr3ufwnzdomljx6gpd46uud43nj4ufad26i7xlhk7.py":50:19)
#loc55 = loc("/NHNHOME/WORKSPACE/26msit001_A/jinhyeok/loop_TTT/lact/.cache_inductor_llm/bs/cbsap2r6km5hr3ufwnzdomljx6gpd46uud43nj4ufad26i7xlhk7.py":51:20)
#loc56 = loc("/NHNHOME/WORKSPACE/26msit001_A/jinhyeok/loop_TTT/lact/.cache_inductor_llm/bs/cbsap2r6km5hr3ufwnzdomljx6gpd46uud43nj4ufad26i7xlhk7.py":52:20)
#loc57 = loc("/NHNHOME/WORKSPACE/26msit001_A/jinhyeok/loop_TTT/lact/.cache_inductor_llm/bs/cbsap2r6km5hr3ufwnzdomljx6gpd46uud43nj4ufad26i7xlhk7.py":53:13)
#loc58 = loc("/NHNHOME/WORKSPACE/26msit001_A/jinhyeok/loop_TTT/lact/.cache_inductor_llm/bs/cbsap2r6km5hr3ufwnzdomljx6gpd46uud43nj4ufad26i7xlhk7.py":54:19)
#loc59 = loc("/NHNHOME/WORKSPACE/26msit001_A/jinhyeok/loop_TTT/lact/.cache_inductor_llm/bs/cbsap2r6km5hr3ufwnzdomljx6gpd46uud43nj4ufad26i7xlhk7.py":55:20)
#loc60 = loc("/NHNHOME/WORKSPACE/26msit001_A/jinhyeok/loop_TTT/lact/.cache_inductor_llm/bs/cbsap2r6km5hr3ufwnzdomljx6gpd46uud43nj4ufad26i7xlhk7.py":59:20)
#loc61 = loc("/NHNHOME/WORKSPACE/26msit001_A/jinhyeok/loop_TTT/lact/.cache_inductor_llm/bs/cbsap2r6km5hr3ufwnzdomljx6gpd46uud43nj4ufad26i7xlhk7.py":60:20)
#loc62 = loc("/NHNHOME/WORKSPACE/26msit001_A/jinhyeok/loop_TTT/lact/.cache_inductor_llm/bs/cbsap2r6km5hr3ufwnzdomljx6gpd46uud43nj4ufad26i7xlhk7.py":62:20)
#loc63 = loc("/NHNHOME/WORKSPACE/26msit001_A/jinhyeok/loop_TTT/lact/.cache_inductor_llm/bs/cbsap2r6km5hr3ufwnzdomljx6gpd46uud43nj4ufad26i7xlhk7.py":63:20)
#loc64 = loc("/NHNHOME/WORKSPACE/26msit001_A/jinhyeok/loop_TTT/lact/.cache_inductor_llm/bs/cbsap2r6km5hr3ufwnzdomljx6gpd46uud43nj4ufad26i7xlhk7.py":64:19)
#loc65 = loc("/NHNHOME/WORKSPACE/26msit001_A/jinhyeok/loop_TTT/lact/.cache_inductor_llm/bs/cbsap2r6km5hr3ufwnzdomljx6gpd46uud43nj4ufad26i7xlhk7.py":65:20)
#loc66 = loc("/NHNHOME/WORKSPACE/26msit001_A/jinhyeok/loop_TTT/lact/.cache_inductor_llm/bs/cbsap2r6km5hr3ufwnzdomljx6gpd46uud43nj4ufad26i7xlhk7.py":66:20)
#loc67 = loc("/NHNHOME/WORKSPACE/26msit001_A/jinhyeok/loop_TTT/lact/.cache_inductor_llm/bs/cbsap2r6km5hr3ufwnzdomljx6gpd46uud43nj4ufad26i7xlhk7.py":67:19)
#loc68 = loc("/NHNHOME/WORKSPACE/26msit001_A/jinhyeok/loop_TTT/lact/.cache_inductor_llm/bs/cbsap2r6km5hr3ufwnzdomljx6gpd46uud43nj4ufad26i7xlhk7.py":69:20)
#loc69 = loc("/NHNHOME/WORKSPACE/26msit001_A/jinhyeok/loop_TTT/lact/.cache_inductor_llm/bs/cbsap2r6km5hr3ufwnzdomljx6gpd46uud43nj4ufad26i7xlhk7.py":71:20)
#loc70 = loc("/NHNHOME/WORKSPACE/26msit001_A/jinhyeok/loop_TTT/lact/.cache_inductor_llm/bs/cbsap2r6km5hr3ufwnzdomljx6gpd46uud43nj4ufad26i7xlhk7.py":72:20)
#loc71 = loc("/NHNHOME/WORKSPACE/26msit001_A/jinhyeok/loop_TTT/lact/.cache_inductor_llm/bs/cbsap2r6km5hr3ufwnzdomljx6gpd46uud43nj4ufad26i7xlhk7.py":73:20)
#loc72 = loc("/NHNHOME/WORKSPACE/26msit001_A/jinhyeok/loop_TTT/lact/.cache_inductor_llm/bs/cbsap2r6km5hr3ufwnzdomljx6gpd46uud43nj4ufad26i7xlhk7.py":74:20)
#loc73 = loc("/NHNHOME/WORKSPACE/26msit001_A/jinhyeok/loop_TTT/lact/.cache_inductor_llm/bs/cbsap2r6km5hr3ufwnzdomljx6gpd46uud43nj4ufad26i7xlhk7.py":75:20)
#loc74 = loc("/NHNHOME/WORKSPACE/26msit001_A/jinhyeok/loop_TTT/lact/.cache_inductor_llm/bs/cbsap2r6km5hr3ufwnzdomljx6gpd46uud43nj4ufad26i7xlhk7.py":76:25)
#loc75 = loc("/NHNHOME/WORKSPACE/26msit001_A/jinhyeok/loop_TTT/lact/.cache_inductor_llm/bs/cbsap2r6km5hr3ufwnzdomljx6gpd46uud43nj4ufad26i7xlhk7.py":76:37)
#loc76 = loc("/NHNHOME/WORKSPACE/26msit001_A/jinhyeok/loop_TTT/lact/.cache_inductor_llm/bs/cbsap2r6km5hr3ufwnzdomljx6gpd46uud43nj4ufad26i7xlhk7.py":77:25)
#loc77 = loc("/NHNHOME/WORKSPACE/26msit001_A/jinhyeok/loop_TTT/lact/.cache_inductor_llm/bs/cbsap2r6km5hr3ufwnzdomljx6gpd46uud43nj4ufad26i7xlhk7.py":77:37)
#loc78 = loc("/NHNHOME/WORKSPACE/26msit001_A/jinhyeok/loop_TTT/lact/.cache_inductor_llm/bs/cbsap2r6km5hr3ufwnzdomljx6gpd46uud43nj4ufad26i7xlhk7.py":78:28)
#loc79 = loc("/NHNHOME/WORKSPACE/26msit001_A/jinhyeok/loop_TTT/lact/.cache_inductor_llm/bs/cbsap2r6km5hr3ufwnzdomljx6gpd46uud43nj4ufad26i7xlhk7.py":78:40)
#loc80 = loc("/NHNHOME/WORKSPACE/26msit001_A/jinhyeok/loop_TTT/lact/.cache_inductor_llm/bs/cbsap2r6km5hr3ufwnzdomljx6gpd46uud43nj4ufad26i7xlhk7.py":78:4)
#loc92 = loc("tmp41"(#loc2))
#loc93 = loc("tmp41"(#loc3))
#loc94 = loc("tmp41"(#loc4))
#loc95 = loc("xoffset"(#loc5))
#loc96 = loc("xoffset"(#loc6))
#loc97 = loc("xindex"(#loc7))
#loc98 = loc("xindex"(#loc8))
#loc99 = loc("x1"(#loc9))
#loc100 = loc("x2"(#loc10))
#loc101 = loc("x2"(#loc11))
#loc102 = loc("x3"(#loc12))
#loc103 = loc("tmp0"(#loc13))
#loc104 = loc("tmp0"(#loc14))
#loc105 = loc("tmp0"(#loc15))
#loc106 = loc("tmp1"(#loc16))
#loc107 = loc("tmp1"(#loc17))
#loc108 = loc("tmp1"(#loc18))
#loc109 = loc("tmp9"(#loc19))
#loc110 = loc("tmp9"(#loc20))
#loc111 = loc("tmp9"(#loc21))
#loc112 = loc("tmp11"(#loc22))
#loc113 = loc("tmp11"(#loc23))
#loc114 = loc("tmp11"(#loc24))
#loc115 = loc("tmp18"(#loc25))
#loc116 = loc("tmp18"(#loc26))
#loc117 = loc("tmp18"(#loc27))
#loc118 = loc("tmp39"(#loc28))
#loc119 = loc("tmp39"(#loc29))
#loc120 = loc("tmp39"(#loc30))
#loc121 = loc("tmp39"(#loc31))
#loc122 = loc("tmp39"(#loc32))
#loc123 = loc("tmp39"(#loc33))
#loc124 = loc("tmp39"(#loc34))
#loc125 = loc("tmp41"(#loc35))
#loc126 = loc("tmp41"(#loc36))
#loc127 = loc("tmp41"(#loc37))
#loc128 = loc("tmp2"(#loc39))
#loc129 = loc("tmp4"(#loc43))
#loc130 = loc("tmp5"(#loc44))
#loc131 = loc("tmp6"(#loc45))
#loc132 = loc("tmp7"(#loc46))
#loc133 = loc("tmp8"(#loc47))
#loc134 = loc("tmp10"(#loc48))
#loc135 = loc("tmp14"(#loc49))
#loc136 = loc("tmp16"(#loc50))
#loc137 = loc("tmp17"(#loc51))
#loc138 = loc("tmp19"(#loc52))
#loc139 = loc("tmp20"(#loc53))
#loc140 = loc("tmp21"(#loc54))
#loc141 = loc("tmp22"(#loc55))
#loc142 = loc("tmp23"(#loc56))
#loc143 = loc("tmp24"(#loc57))
#loc144 = loc("tmp25"(#loc58))
#loc145 = loc("tmp26"(#loc59))
#loc146 = loc("tmp30"(#loc60))
#loc147 = loc("tmp31"(#loc61))
#loc148 = loc("tmp33"(#loc62))
#loc149 = loc("tmp34"(#loc63))
#loc150 = loc("tmp35"(#loc64))
#loc151 = loc("tmp36"(#loc65))
#loc152 = loc("tmp37"(#loc66))
#loc153 = loc("tmp38"(#loc67))
#loc154 = loc("tmp42"(#loc68))
#loc155 = loc("tmp44"(#loc69))
#loc156 = loc("tmp45"(#loc70))
#loc157 = loc("tmp46"(#loc71))
#loc158 = loc("tmp47"(#loc72))
#loc159 = loc("tmp48"(#loc73))
#loc160 = loc(callsite(#loc38 at #loc128))
#loc161 = loc(callsite(#loc40 at #loc128))
#loc162 = loc(callsite(#loc41 at #loc128))
#loc163 = loc(callsite(#loc42 at #loc128))
