#loc = loc("/NHNHOME/WORKSPACE/26msit001_A/jinhyeok/loop_TTT/lact/.cache_inductor_llm/kw/ckw3vrvslvaswswu4xm5vdkclvwdp3vjgr5h2df3suawit4tft4d.py":18:0)
#loc56 = loc("/NHNHOME/WORKSPACE/26msit001_A/jinhyeok/TTT_camera_embedding/.venv_llm/lib/python3.12/site-packages/triton/language/standard.py":285:0)
#loc58 = loc(unknown)
#loc61 = loc("/NHNHOME/WORKSPACE/26msit001_A/jinhyeok/TTT_camera_embedding/.venv_llm/lib/python3.12/site-packages/triton/language/standard.py":260:0)
#loc65 = loc("in_ptr0"(#loc))
#loc66 = loc("in_ptr1"(#loc))
#loc67 = loc("in_ptr2"(#loc))
#loc68 = loc("in_ptr3"(#loc))
#loc69 = loc("out_ptr2"(#loc))
#loc70 = loc("out_ptr3"(#loc))
#loc71 = loc("xnumel"(#loc))
#loc72 = loc("r0_numel"(#loc))
#loc117 = loc("input"(#loc56))
#loc118 = loc("a"(#loc61))
#loc119 = loc("b"(#loc61))
module {
  tt.func public @triton_per_fused__to_copy_add_div_linalg_vector_norm_mul_transpose_43(%in_ptr0: !tt.ptr<f32> {tt.divisibility = 16 : i32} loc("in_ptr0"(#loc)), %in_ptr1: !tt.ptr<f32> {tt.divisibility = 16 : i32} loc("in_ptr1"(#loc)), %in_ptr2: !tt.ptr<bf16> {tt.divisibility = 16 : i32} loc("in_ptr2"(#loc)), %in_ptr3: !tt.ptr<f32> {tt.divisibility = 16 : i32} loc("in_ptr3"(#loc)), %out_ptr2: !tt.ptr<bf16> {tt.divisibility = 16 : i32} loc("out_ptr2"(#loc)), %out_ptr3: !tt.ptr<bf16> {tt.divisibility = 16 : i32} loc("out_ptr3"(#loc)), %xnumel: i32 {tt.divisibility = 16 : i32} loc("xnumel"(#loc)), %r0_numel: i32 {tt.divisibility = 16 : i32} loc("r0_numel"(#loc))) attributes {noinline = false} {
    %r0_numel_0 = arith.constant 192 : i32 loc(#loc73)
    %xoffset = tt.get_program_id x : i32 loc(#loc74)
    %xoffset_1 = arith.constant 1 : i32 loc(#loc75)
    %xoffset_2 = arith.constant 1 : i32 loc(#loc75)
    %xoffset_3 = arith.muli %xoffset, %xoffset_2 : i32 loc(#loc75)
    %xindex = tt.make_range {end = 1 : i32, start = 0 : i32} : tensor<1xi32> loc(#loc76)
    %xindex_4 = tt.expand_dims %xindex {axis = 1 : i32} : tensor<1xi32> -> tensor<1x1xi32> loc(#loc77)
    %xindex_5 = tt.splat %xoffset_3 : i32 -> tensor<1x1xi32> loc(#loc78)
    %xindex_6 = arith.addi %xindex_5, %xindex_4 : tensor<1x1xi32> loc(#loc78)
    %xmask = tt.splat %xnumel : i32 -> tensor<1x1xi32> loc(#loc79)
    %xmask_7 = arith.cmpi slt, %xindex_6, %xmask : tensor<1x1xi32> loc(#loc79)
    %r0_index = tt.make_range {end = 256 : i32, start = 0 : i32} : tensor<256xi32> loc(#loc80)
    %r0_index_8 = tt.expand_dims %r0_index {axis = 0 : i32} : tensor<256xi32> -> tensor<1x256xi32> loc(#loc81)
    %r0_offset = arith.constant 0 : i32 loc(#loc82)
    %r0_mask = arith.constant dense<192> : tensor<1x256xi32> loc(#loc83)
    %r0_mask_9 = arith.cmpi slt, %r0_index_8, %r0_mask : tensor<1x256xi32> loc(#loc83)
    %tmp0 = arith.constant 192 : i32 loc(#loc84)
    %tmp0_10 = arith.constant 192 : i32 loc(#loc84)
    %tmp0_11 = arith.constant dense<192> : tensor<1x1xi32> loc(#loc84)
    %tmp0_12 = arith.muli %tmp0_11, %xindex_6 : tensor<1x1xi32> loc(#loc84)
    %tmp0_13 = tt.broadcast %tmp0_12 : tensor<1x1xi32> -> tensor<1x256xi32> loc(#loc85)
    %tmp0_14 = arith.addi %r0_index_8, %tmp0_13 : tensor<1x256xi32> loc(#loc85)
    %tmp0_15 = tt.splat %in_ptr0 : !tt.ptr<f32> -> tensor<1x256x!tt.ptr<f32>> loc(#loc86)
    %tmp0_16 = tt.addptr %tmp0_15, %tmp0_14 : tensor<1x256x!tt.ptr<f32>>, tensor<1x256xi32> loc(#loc86)
    %tmp0_17 = tt.broadcast %xmask_7 : tensor<1x1xi1> -> tensor<1x256xi1> loc(#loc87)
    %tmp0_18 = arith.andi %r0_mask_9, %tmp0_17 : tensor<1x256xi1> loc(#loc87)
    %tmp0_19 = arith.constant 0.000000e+00 : f32 loc(#loc88)
    %tmp0_20 = arith.constant dense<0.000000e+00> : tensor<1x256xf32> loc(#loc88)
    %tmp0_21 = tt.load %tmp0_16, %tmp0_18, %tmp0_20 : tensor<1x256x!tt.ptr<f32>> loc(#loc88)
    %tmp1 = arith.constant 192 : i32 loc(#loc89)
    %tmp1_22 = arith.constant 192 : i32 loc(#loc89)
    %tmp1_23 = arith.constant dense<192> : tensor<1x1xi32> loc(#loc89)
    %tmp1_24 = arith.muli %tmp1_23, %xindex_6 : tensor<1x1xi32> loc(#loc89)
    %tmp1_25 = tt.broadcast %tmp1_24 : tensor<1x1xi32> -> tensor<1x256xi32> loc(#loc90)
    %tmp1_26 = arith.addi %r0_index_8, %tmp1_25 : tensor<1x256xi32> loc(#loc90)
    %tmp1_27 = tt.splat %in_ptr1 : !tt.ptr<f32> -> tensor<1x256x!tt.ptr<f32>> loc(#loc91)
    %tmp1_28 = tt.addptr %tmp1_27, %tmp1_26 : tensor<1x256x!tt.ptr<f32>>, tensor<1x256xi32> loc(#loc91)
    %tmp1_29 = tt.broadcast %xmask_7 : tensor<1x1xi1> -> tensor<1x256xi1> loc(#loc92)
    %tmp1_30 = arith.andi %r0_mask_9, %tmp1_29 : tensor<1x256xi1> loc(#loc92)
    %tmp1_31 = arith.constant 0.000000e+00 : f32 loc(#loc93)
    %tmp1_32 = arith.constant dense<0.000000e+00> : tensor<1x256xf32> loc(#loc93)
    %tmp1_33 = tt.load %tmp1_28, %tmp1_30, %tmp1_32 : tensor<1x256x!tt.ptr<f32>> loc(#loc93)
    %tmp4 = arith.constant 192 : i32 loc(#loc94)
    %tmp4_34 = arith.constant 192 : i32 loc(#loc94)
    %tmp4_35 = arith.constant dense<192> : tensor<1x1xi32> loc(#loc94)
    %tmp4_36 = arith.muli %tmp4_35, %xindex_6 : tensor<1x1xi32> loc(#loc94)
    %tmp4_37 = tt.broadcast %tmp4_36 : tensor<1x1xi32> -> tensor<1x256xi32> loc(#loc95)
    %tmp4_38 = arith.addi %r0_index_8, %tmp4_37 : tensor<1x256xi32> loc(#loc95)
    %tmp4_39 = tt.splat %in_ptr2 : !tt.ptr<bf16> -> tensor<1x256x!tt.ptr<bf16>> loc(#loc96)
    %tmp4_40 = tt.addptr %tmp4_39, %tmp4_38 : tensor<1x256x!tt.ptr<bf16>>, tensor<1x256xi32> loc(#loc96)
    %tmp4_41 = tt.broadcast %xmask_7 : tensor<1x1xi1> -> tensor<1x256xi1> loc(#loc97)
    %tmp4_42 = arith.andi %r0_mask_9, %tmp4_41 : tensor<1x256xi1> loc(#loc97)
    %tmp4_43 = arith.constant 0.000000e+00 : f32 loc(#loc98)
    %tmp4_44 = arith.constant dense<0.000000e+00> : tensor<1x256xf32> loc(#loc98)
    %tmp4_45 = arith.truncf %tmp4_44 : tensor<1x256xf32> to tensor<1x256xbf16> loc(#loc98)
    %tmp4_46 = tt.load %tmp4_40, %tmp4_42, %tmp4_45 : tensor<1x256x!tt.ptr<bf16>> loc(#loc98)
    %tmp4_47 = arith.extf %tmp4_46 : tensor<1x256xbf16> to tensor<1x256xf32> loc(#loc99)
    %tmp17 = tt.splat %in_ptr3 : !tt.ptr<f32> -> tensor<1x1x!tt.ptr<f32>> loc(#loc100)
    %tmp17_48 = tt.addptr %tmp17, %xindex_6 : tensor<1x1x!tt.ptr<f32>>, tensor<1x1xi32> loc(#loc100)
    %tmp17_49 = tt.load %tmp17_48, %xmask_7 evictionPolicy = evict_last : tensor<1x1x!tt.ptr<f32>> loc(#loc101)
    %tmp2 = arith.constant 2.836600e+00 : f32 loc(#loc102)
    %tmp3 = arith.constant dense<2.836600e+00> : tensor<1x256xf32> loc(#loc103)
    %tmp3_50 = arith.mulf %tmp1_33, %tmp3 : tensor<1x256xf32> loc(#loc103)
    %tmp6 = arith.addf %tmp3_50, %tmp4_47 : tensor<1x256xf32> loc(#loc104)
    %tmp7 = arith.addf %tmp0_21, %tmp6 : tensor<1x256xf32> loc(#loc105)
    %tmp8 = arith.mulf %tmp7, %tmp7 : tensor<1x256xf32> loc(#loc106)
    %tmp11 = tt.broadcast %xmask_7 : tensor<1x1xi1> -> tensor<1x256xi1> loc(#loc107)
    %tmp11_51 = arith.andi %r0_mask_9, %tmp11 : tensor<1x256xi1> loc(#loc107)
    %tmp11_52 = arith.constant 0 : i32 loc(#loc108)
    %tmp11_53 = arith.constant 0.000000e+00 : f32 loc(#loc108)
    %tmp11_54 = arith.constant dense<0.000000e+00> : tensor<1x256xf32> loc(#loc108)
    %tmp11_55 = arith.select %tmp11_51, %tmp8, %tmp11_54 : tensor<1x256xi1>, tensor<1x256xf32> loc(#loc108)
    %tmp12 = tt.call @"triton.language.standard.sum__fp32S1_256S__(1,)cconstexpr_1__(2,)cconstexpr_False__(3,)cNone"(%tmp11_55) : (tensor<1x256xf32>) -> tensor<1xf32> loc(#loc109)
    %tmp12_56 = tt.expand_dims %tmp12 {axis = 1 : i32} : tensor<1xf32> -> tensor<1x1xf32> loc(#loc110)
    %tmp13 = tt.extern_elementwise %tmp12_56 {libname = "", libpath = "", pure = true, symbol = "__nv_sqrtf"} : (tensor<1x1xf32>) -> tensor<1x1xf32> loc(#loc111)
    %tmp14 = arith.constant 9.99999974E-6 : f32 loc(#loc112)
    %tmp15 = arith.constant dense<9.99999974E-6> : tensor<1x1xf32> loc(#loc113)
    %tmp15_57 = arith.addf %tmp13, %tmp15 : tensor<1x1xf32> loc(#loc113)
    %tmp16 = tt.broadcast %tmp15_57 : tensor<1x1xf32> -> tensor<1x256xf32> loc(#loc114)
    %tmp16_58 = arith.divf %tmp7, %tmp16 : tensor<1x256xf32> loc(#loc114)
    %tmp18 = tt.extern_elementwise %tmp17_49 {libname = "", libpath = "", pure = true, symbol = "__nv_sqrtf"} : (tensor<1x1xf32>) -> tensor<1x1xf32> loc(#loc115)
    %tmp19 = tt.broadcast %tmp18 : tensor<1x1xf32> -> tensor<1x256xf32> loc(#loc116)
    %tmp19_59 = arith.mulf %tmp16_58, %tmp19 : tensor<1x256xf32> loc(#loc116)
    %c192_i32 = arith.constant 192 : i32 loc(#loc45)
    %c192_i32_60 = arith.constant 192 : i32 loc(#loc45)
    %cst = arith.constant dense<192> : tensor<1x1xi32> loc(#loc45)
    %0 = arith.muli %cst, %xindex_6 : tensor<1x1xi32> loc(#loc45)
    %1 = tt.broadcast %0 : tensor<1x1xi32> -> tensor<1x256xi32> loc(#loc46)
    %2 = arith.addi %r0_index_8, %1 : tensor<1x256xi32> loc(#loc46)
    %3 = tt.splat %out_ptr2 : !tt.ptr<bf16> -> tensor<1x256x!tt.ptr<bf16>> loc(#loc47)
    %4 = tt.addptr %3, %2 : tensor<1x256x!tt.ptr<bf16>>, tensor<1x256xi32> loc(#loc47)
    %5 = tt.broadcast %xmask_7 : tensor<1x1xi1> -> tensor<1x256xi1> loc(#loc48)
    %6 = arith.andi %r0_mask_9, %5 : tensor<1x256xi1> loc(#loc48)
    %7 = arith.truncf %tmp19_59 : tensor<1x256xf32> to tensor<1x256xbf16> loc(#loc49)
    tt.store %4, %7, %6 : tensor<1x256x!tt.ptr<bf16>> loc(#loc49)
    %c192_i32_61 = arith.constant 192 : i32 loc(#loc50)
    %c192_i32_62 = arith.constant 192 : i32 loc(#loc50)
    %cst_63 = arith.constant dense<192> : tensor<1x1xi32> loc(#loc50)
    %8 = arith.muli %cst_63, %xindex_6 : tensor<1x1xi32> loc(#loc50)
    %9 = tt.broadcast %8 : tensor<1x1xi32> -> tensor<1x256xi32> loc(#loc51)
    %10 = arith.addi %r0_index_8, %9 : tensor<1x256xi32> loc(#loc51)
    %11 = tt.splat %out_ptr3 : !tt.ptr<bf16> -> tensor<1x256x!tt.ptr<bf16>> loc(#loc52)
    %12 = tt.addptr %11, %10 : tensor<1x256x!tt.ptr<bf16>>, tensor<1x256xi32> loc(#loc52)
    %13 = tt.broadcast %xmask_7 : tensor<1x1xi1> -> tensor<1x256xi1> loc(#loc53)
    %14 = arith.andi %r0_mask_9, %13 : tensor<1x256xi1> loc(#loc53)
    %15 = arith.truncf %tmp19_59 : tensor<1x256xf32> to tensor<1x256xbf16> loc(#loc54)
    tt.store %12, %15, %14 : tensor<1x256x!tt.ptr<bf16>> loc(#loc54)
    tt.return loc(#loc55)
  } loc(#loc)
  tt.func private @"triton.language.standard.sum__fp32S1_256S__(1,)cconstexpr_1__(2,)cconstexpr_False__(3,)cNone"(%input: tensor<1x256xf32> loc("input"(#loc56))) -> tensor<1xf32> attributes {noinline = false} {
    %0 = "tt.reduce"(%input) <{axis = 1 : i32}> ({
    ^bb0(%arg1: f32 loc(unknown), %arg2: f32 loc(unknown)):
      %2 = tt.call @triton.language.standard._sum_combine__fp32_fp32__(%arg1, %arg2) : (f32, f32) -> f32 loc(#loc57)
      tt.reduce.return %2 : f32 loc(#loc57)
    }) : (tensor<1x256xf32>) -> tensor<1xf32> loc(#loc57)
    tt.return %0 : tensor<1xf32> loc(#loc59)
  ^bb1:  // no predecessors
    %1 = ub.poison : tensor<1xf32> loc(#loc60)
    tt.return %1 : tensor<1xf32> loc(#loc60)
  } loc(#loc56)
  tt.func private @triton.language.standard._sum_combine__fp32_fp32__(%a: f32 loc("a"(#loc61)), %b: f32 loc("b"(#loc61))) -> f32 attributes {noinline = false} {
    %0 = arith.addf %a, %b : f32 loc(#loc62)
    tt.return %0 : f32 loc(#loc63)
  ^bb1:  // no predecessors
    %1 = ub.poison : f32 loc(#loc64)
    tt.return %1 : f32 loc(#loc64)
  } loc(#loc61)
} loc(#loc)
#loc1 = loc("/NHNHOME/WORKSPACE/26msit001_A/jinhyeok/loop_TTT/lact/.cache_inductor_llm/kw/ckw3vrvslvaswswu4xm5vdkclvwdp3vjgr5h2df3suawit4tft4d.py":19:15)
#loc2 = loc("/NHNHOME/WORKSPACE/26msit001_A/jinhyeok/loop_TTT/lact/.cache_inductor_llm/kw/ckw3vrvslvaswswu4xm5vdkclvwdp3vjgr5h2df3suawit4tft4d.py":23:28)
#loc3 = loc("/NHNHOME/WORKSPACE/26msit001_A/jinhyeok/loop_TTT/lact/.cache_inductor_llm/kw/ckw3vrvslvaswswu4xm5vdkclvwdp3vjgr5h2df3suawit4tft4d.py":23:33)
#loc4 = loc("/NHNHOME/WORKSPACE/26msit001_A/jinhyeok/loop_TTT/lact/.cache_inductor_llm/kw/ckw3vrvslvaswswu4xm5vdkclvwdp3vjgr5h2df3suawit4tft4d.py":24:36)
#loc5 = loc("/NHNHOME/WORKSPACE/26msit001_A/jinhyeok/loop_TTT/lact/.cache_inductor_llm/kw/ckw3vrvslvaswswu4xm5vdkclvwdp3vjgr5h2df3suawit4tft4d.py":24:44)
#loc6 = loc("/NHNHOME/WORKSPACE/26msit001_A/jinhyeok/loop_TTT/lact/.cache_inductor_llm/kw/ckw3vrvslvaswswu4xm5vdkclvwdp3vjgr5h2df3suawit4tft4d.py":24:23)
#loc7 = loc("/NHNHOME/WORKSPACE/26msit001_A/jinhyeok/loop_TTT/lact/.cache_inductor_llm/kw/ckw3vrvslvaswswu4xm5vdkclvwdp3vjgr5h2df3suawit4tft4d.py":25:21)
#loc8 = loc("/NHNHOME/WORKSPACE/26msit001_A/jinhyeok/loop_TTT/lact/.cache_inductor_llm/kw/ckw3vrvslvaswswu4xm5vdkclvwdp3vjgr5h2df3suawit4tft4d.py":26:28)
#loc9 = loc("/NHNHOME/WORKSPACE/26msit001_A/jinhyeok/loop_TTT/lact/.cache_inductor_llm/kw/ckw3vrvslvaswswu4xm5vdkclvwdp3vjgr5h2df3suawit4tft4d.py":26:38)
#loc10 = loc("/NHNHOME/WORKSPACE/26msit001_A/jinhyeok/loop_TTT/lact/.cache_inductor_llm/kw/ckw3vrvslvaswswu4xm5vdkclvwdp3vjgr5h2df3suawit4tft4d.py":27:16)
#loc11 = loc("/NHNHOME/WORKSPACE/26msit001_A/jinhyeok/loop_TTT/lact/.cache_inductor_llm/kw/ckw3vrvslvaswswu4xm5vdkclvwdp3vjgr5h2df3suawit4tft4d.py":28:25)
#loc12 = loc("/NHNHOME/WORKSPACE/26msit001_A/jinhyeok/loop_TTT/lact/.cache_inductor_llm/kw/ckw3vrvslvaswswu4xm5vdkclvwdp3vjgr5h2df3suawit4tft4d.py":33:41)
#loc13 = loc("/NHNHOME/WORKSPACE/26msit001_A/jinhyeok/loop_TTT/lact/.cache_inductor_llm/kw/ckw3vrvslvaswswu4xm5vdkclvwdp3vjgr5h2df3suawit4tft4d.py":33:37)
#loc14 = loc("/NHNHOME/WORKSPACE/26msit001_A/jinhyeok/loop_TTT/lact/.cache_inductor_llm/kw/ckw3vrvslvaswswu4xm5vdkclvwdp3vjgr5h2df3suawit4tft4d.py":33:30)
#loc15 = loc("/NHNHOME/WORKSPACE/26msit001_A/jinhyeok/loop_TTT/lact/.cache_inductor_llm/kw/ckw3vrvslvaswswu4xm5vdkclvwdp3vjgr5h2df3suawit4tft4d.py":33:56)
#loc16 = loc("/NHNHOME/WORKSPACE/26msit001_A/jinhyeok/loop_TTT/lact/.cache_inductor_llm/kw/ckw3vrvslvaswswu4xm5vdkclvwdp3vjgr5h2df3suawit4tft4d.py":33:46)
#loc17 = loc("/NHNHOME/WORKSPACE/26msit001_A/jinhyeok/loop_TTT/lact/.cache_inductor_llm/kw/ckw3vrvslvaswswu4xm5vdkclvwdp3vjgr5h2df3suawit4tft4d.py":34:41)
#loc18 = loc("/NHNHOME/WORKSPACE/26msit001_A/jinhyeok/loop_TTT/lact/.cache_inductor_llm/kw/ckw3vrvslvaswswu4xm5vdkclvwdp3vjgr5h2df3suawit4tft4d.py":34:37)
#loc19 = loc("/NHNHOME/WORKSPACE/26msit001_A/jinhyeok/loop_TTT/lact/.cache_inductor_llm/kw/ckw3vrvslvaswswu4xm5vdkclvwdp3vjgr5h2df3suawit4tft4d.py":34:30)
#loc20 = loc("/NHNHOME/WORKSPACE/26msit001_A/jinhyeok/loop_TTT/lact/.cache_inductor_llm/kw/ckw3vrvslvaswswu4xm5vdkclvwdp3vjgr5h2df3suawit4tft4d.py":34:56)
#loc21 = loc("/NHNHOME/WORKSPACE/26msit001_A/jinhyeok/loop_TTT/lact/.cache_inductor_llm/kw/ckw3vrvslvaswswu4xm5vdkclvwdp3vjgr5h2df3suawit4tft4d.py":34:46)
#loc22 = loc("/NHNHOME/WORKSPACE/26msit001_A/jinhyeok/loop_TTT/lact/.cache_inductor_llm/kw/ckw3vrvslvaswswu4xm5vdkclvwdp3vjgr5h2df3suawit4tft4d.py":35:41)
#loc23 = loc("/NHNHOME/WORKSPACE/26msit001_A/jinhyeok/loop_TTT/lact/.cache_inductor_llm/kw/ckw3vrvslvaswswu4xm5vdkclvwdp3vjgr5h2df3suawit4tft4d.py":35:37)
#loc24 = loc("/NHNHOME/WORKSPACE/26msit001_A/jinhyeok/loop_TTT/lact/.cache_inductor_llm/kw/ckw3vrvslvaswswu4xm5vdkclvwdp3vjgr5h2df3suawit4tft4d.py":35:30)
#loc25 = loc("/NHNHOME/WORKSPACE/26msit001_A/jinhyeok/loop_TTT/lact/.cache_inductor_llm/kw/ckw3vrvslvaswswu4xm5vdkclvwdp3vjgr5h2df3suawit4tft4d.py":35:56)
#loc26 = loc("/NHNHOME/WORKSPACE/26msit001_A/jinhyeok/loop_TTT/lact/.cache_inductor_llm/kw/ckw3vrvslvaswswu4xm5vdkclvwdp3vjgr5h2df3suawit4tft4d.py":35:46)
#loc27 = loc("/NHNHOME/WORKSPACE/26msit001_A/jinhyeok/loop_TTT/lact/.cache_inductor_llm/kw/ckw3vrvslvaswswu4xm5vdkclvwdp3vjgr5h2df3suawit4tft4d.py":35:77)
#loc28 = loc("/NHNHOME/WORKSPACE/26msit001_A/jinhyeok/loop_TTT/lact/.cache_inductor_llm/kw/ckw3vrvslvaswswu4xm5vdkclvwdp3vjgr5h2df3suawit4tft4d.py":36:31)
#loc29 = loc("/NHNHOME/WORKSPACE/26msit001_A/jinhyeok/loop_TTT/lact/.cache_inductor_llm/kw/ckw3vrvslvaswswu4xm5vdkclvwdp3vjgr5h2df3suawit4tft4d.py":36:36)
#loc30 = loc("/NHNHOME/WORKSPACE/26msit001_A/jinhyeok/loop_TTT/lact/.cache_inductor_llm/kw/ckw3vrvslvaswswu4xm5vdkclvwdp3vjgr5h2df3suawit4tft4d.py":37:11)
#loc31 = loc("/NHNHOME/WORKSPACE/26msit001_A/jinhyeok/loop_TTT/lact/.cache_inductor_llm/kw/ckw3vrvslvaswswu4xm5vdkclvwdp3vjgr5h2df3suawit4tft4d.py":38:18)
#loc32 = loc("/NHNHOME/WORKSPACE/26msit001_A/jinhyeok/loop_TTT/lact/.cache_inductor_llm/kw/ckw3vrvslvaswswu4xm5vdkclvwdp3vjgr5h2df3suawit4tft4d.py":40:18)
#loc33 = loc("/NHNHOME/WORKSPACE/26msit001_A/jinhyeok/loop_TTT/lact/.cache_inductor_llm/kw/ckw3vrvslvaswswu4xm5vdkclvwdp3vjgr5h2df3suawit4tft4d.py":41:18)
#loc34 = loc("/NHNHOME/WORKSPACE/26msit001_A/jinhyeok/loop_TTT/lact/.cache_inductor_llm/kw/ckw3vrvslvaswswu4xm5vdkclvwdp3vjgr5h2df3suawit4tft4d.py":42:18)
#loc35 = loc("/NHNHOME/WORKSPACE/26msit001_A/jinhyeok/loop_TTT/lact/.cache_inductor_llm/kw/ckw3vrvslvaswswu4xm5vdkclvwdp3vjgr5h2df3suawit4tft4d.py":44:31)
#loc36 = loc("/NHNHOME/WORKSPACE/26msit001_A/jinhyeok/loop_TTT/lact/.cache_inductor_llm/kw/ckw3vrvslvaswswu4xm5vdkclvwdp3vjgr5h2df3suawit4tft4d.py":44:44)
#loc37 = loc("/NHNHOME/WORKSPACE/26msit001_A/jinhyeok/loop_TTT/lact/.cache_inductor_llm/kw/ckw3vrvslvaswswu4xm5vdkclvwdp3vjgr5h2df3suawit4tft4d.py":45:26)
#loc38 = loc("/NHNHOME/WORKSPACE/26msit001_A/jinhyeok/loop_TTT/lact/.cache_inductor_llm/kw/ckw3vrvslvaswswu4xm5vdkclvwdp3vjgr5h2df3suawit4tft4d.py":45:29)
#loc39 = loc("/NHNHOME/WORKSPACE/26msit001_A/jinhyeok/loop_TTT/lact/.cache_inductor_llm/kw/ckw3vrvslvaswswu4xm5vdkclvwdp3vjgr5h2df3suawit4tft4d.py":46:27)
#loc40 = loc("/NHNHOME/WORKSPACE/26msit001_A/jinhyeok/loop_TTT/lact/.cache_inductor_llm/kw/ckw3vrvslvaswswu4xm5vdkclvwdp3vjgr5h2df3suawit4tft4d.py":47:12)
#loc41 = loc("/NHNHOME/WORKSPACE/26msit001_A/jinhyeok/loop_TTT/lact/.cache_inductor_llm/kw/ckw3vrvslvaswswu4xm5vdkclvwdp3vjgr5h2df3suawit4tft4d.py":48:20)
#loc42 = loc("/NHNHOME/WORKSPACE/26msit001_A/jinhyeok/loop_TTT/lact/.cache_inductor_llm/kw/ckw3vrvslvaswswu4xm5vdkclvwdp3vjgr5h2df3suawit4tft4d.py":49:20)
#loc43 = loc("/NHNHOME/WORKSPACE/26msit001_A/jinhyeok/loop_TTT/lact/.cache_inductor_llm/kw/ckw3vrvslvaswswu4xm5vdkclvwdp3vjgr5h2df3suawit4tft4d.py":50:27)
#loc44 = loc("/NHNHOME/WORKSPACE/26msit001_A/jinhyeok/loop_TTT/lact/.cache_inductor_llm/kw/ckw3vrvslvaswswu4xm5vdkclvwdp3vjgr5h2df3suawit4tft4d.py":51:20)
#loc45 = loc("/NHNHOME/WORKSPACE/26msit001_A/jinhyeok/loop_TTT/lact/.cache_inductor_llm/kw/ckw3vrvslvaswswu4xm5vdkclvwdp3vjgr5h2df3suawit4tft4d.py":53:36)
#loc46 = loc("/NHNHOME/WORKSPACE/26msit001_A/jinhyeok/loop_TTT/lact/.cache_inductor_llm/kw/ckw3vrvslvaswswu4xm5vdkclvwdp3vjgr5h2df3suawit4tft4d.py":53:32)
#loc47 = loc("/NHNHOME/WORKSPACE/26msit001_A/jinhyeok/loop_TTT/lact/.cache_inductor_llm/kw/ckw3vrvslvaswswu4xm5vdkclvwdp3vjgr5h2df3suawit4tft4d.py":53:25)
#loc48 = loc("/NHNHOME/WORKSPACE/26msit001_A/jinhyeok/loop_TTT/lact/.cache_inductor_llm/kw/ckw3vrvslvaswswu4xm5vdkclvwdp3vjgr5h2df3suawit4tft4d.py":53:58)
#loc49 = loc("/NHNHOME/WORKSPACE/26msit001_A/jinhyeok/loop_TTT/lact/.cache_inductor_llm/kw/ckw3vrvslvaswswu4xm5vdkclvwdp3vjgr5h2df3suawit4tft4d.py":53:48)
#loc50 = loc("/NHNHOME/WORKSPACE/26msit001_A/jinhyeok/loop_TTT/lact/.cache_inductor_llm/kw/ckw3vrvslvaswswu4xm5vdkclvwdp3vjgr5h2df3suawit4tft4d.py":54:36)
#loc51 = loc("/NHNHOME/WORKSPACE/26msit001_A/jinhyeok/loop_TTT/lact/.cache_inductor_llm/kw/ckw3vrvslvaswswu4xm5vdkclvwdp3vjgr5h2df3suawit4tft4d.py":54:32)
#loc52 = loc("/NHNHOME/WORKSPACE/26msit001_A/jinhyeok/loop_TTT/lact/.cache_inductor_llm/kw/ckw3vrvslvaswswu4xm5vdkclvwdp3vjgr5h2df3suawit4tft4d.py":54:25)
#loc53 = loc("/NHNHOME/WORKSPACE/26msit001_A/jinhyeok/loop_TTT/lact/.cache_inductor_llm/kw/ckw3vrvslvaswswu4xm5vdkclvwdp3vjgr5h2df3suawit4tft4d.py":54:58)
#loc54 = loc("/NHNHOME/WORKSPACE/26msit001_A/jinhyeok/loop_TTT/lact/.cache_inductor_llm/kw/ckw3vrvslvaswswu4xm5vdkclvwdp3vjgr5h2df3suawit4tft4d.py":54:48)
#loc55 = loc("/NHNHOME/WORKSPACE/26msit001_A/jinhyeok/loop_TTT/lact/.cache_inductor_llm/kw/ckw3vrvslvaswswu4xm5vdkclvwdp3vjgr5h2df3suawit4tft4d.py":54:4)
#loc57 = loc("/NHNHOME/WORKSPACE/26msit001_A/jinhyeok/TTT_camera_embedding/.venv_llm/lib/python3.12/site-packages/triton/language/standard.py":291:36)
#loc59 = loc("/NHNHOME/WORKSPACE/26msit001_A/jinhyeok/TTT_camera_embedding/.venv_llm/lib/python3.12/site-packages/triton/language/standard.py":291:11)
#loc60 = loc("/NHNHOME/WORKSPACE/26msit001_A/jinhyeok/TTT_camera_embedding/.venv_llm/lib/python3.12/site-packages/triton/language/standard.py":291:4)
#loc62 = loc("/NHNHOME/WORKSPACE/26msit001_A/jinhyeok/TTT_camera_embedding/.venv_llm/lib/python3.12/site-packages/triton/language/standard.py":261:15)
#loc63 = loc("/NHNHOME/WORKSPACE/26msit001_A/jinhyeok/TTT_camera_embedding/.venv_llm/lib/python3.12/site-packages/triton/language/standard.py":261:11)
#loc64 = loc("/NHNHOME/WORKSPACE/26msit001_A/jinhyeok/TTT_camera_embedding/.venv_llm/lib/python3.12/site-packages/triton/language/standard.py":261:4)
#loc73 = loc("r0_numel"(#loc1))
#loc74 = loc("xoffset"(#loc2))
#loc75 = loc("xoffset"(#loc3))
#loc76 = loc("xindex"(#loc4))
#loc77 = loc("xindex"(#loc5))
#loc78 = loc("xindex"(#loc6))
#loc79 = loc("xmask"(#loc7))
#loc80 = loc("r0_index"(#loc8))
#loc81 = loc("r0_index"(#loc9))
#loc82 = loc("r0_offset"(#loc10))
#loc83 = loc("r0_mask"(#loc11))
#loc84 = loc("tmp0"(#loc12))
#loc85 = loc("tmp0"(#loc13))
#loc86 = loc("tmp0"(#loc14))
#loc87 = loc("tmp0"(#loc15))
#loc88 = loc("tmp0"(#loc16))
#loc89 = loc("tmp1"(#loc17))
#loc90 = loc("tmp1"(#loc18))
#loc91 = loc("tmp1"(#loc19))
#loc92 = loc("tmp1"(#loc20))
#loc93 = loc("tmp1"(#loc21))
#loc94 = loc("tmp4"(#loc22))
#loc95 = loc("tmp4"(#loc23))
#loc96 = loc("tmp4"(#loc24))
#loc97 = loc("tmp4"(#loc25))
#loc98 = loc("tmp4"(#loc26))
#loc99 = loc("tmp4"(#loc27))
#loc100 = loc("tmp17"(#loc28))
#loc101 = loc("tmp17"(#loc29))
#loc102 = loc("tmp2"(#loc30))
#loc103 = loc("tmp3"(#loc31))
#loc104 = loc("tmp6"(#loc32))
#loc105 = loc("tmp7"(#loc33))
#loc106 = loc("tmp8"(#loc34))
#loc107 = loc("tmp11"(#loc35))
#loc108 = loc("tmp11"(#loc36))
#loc109 = loc("tmp12"(#loc37))
#loc110 = loc("tmp12"(#loc38))
#loc111 = loc("tmp13"(#loc39))
#loc112 = loc("tmp14"(#loc40))
#loc113 = loc("tmp15"(#loc41))
#loc114 = loc("tmp16"(#loc42))
#loc115 = loc("tmp18"(#loc43))
#loc116 = loc("tmp19"(#loc44))
