#loc = loc("/NHNHOME/WORKSPACE/26msit001_A/jinhyeok/loop_TTT/lact/.cache_inductor_llm/r5/cr5llldhomlxny275fz3zdfla6r62yi2rtdkhhdidh2fncc6nhv4.py":18:0)
#loc66 = loc("in_out_ptr0"(#loc))
#loc67 = loc("in_ptr0"(#loc))
#loc68 = loc("in_ptr1"(#loc))
#loc69 = loc("in_ptr2"(#loc))
#loc70 = loc("in_ptr3"(#loc))
#loc71 = loc("in_ptr4"(#loc))
#loc72 = loc("in_ptr5"(#loc))
#loc73 = loc("in_ptr6"(#loc))
#loc74 = loc("ynumel"(#loc))
#loc75 = loc("xnumel"(#loc))
module {
  tt.func public @triton_poi_fused__to_copy_add_div_eq_masked_fill_mul_transpose_41(%in_out_ptr0: !tt.ptr<f32> {tt.divisibility = 16 : i32} loc("in_out_ptr0"(#loc)), %in_ptr0: !tt.ptr<bf16> {tt.divisibility = 16 : i32} loc("in_ptr0"(#loc)), %in_ptr1: !tt.ptr<bf16> {tt.divisibility = 16 : i32} loc("in_ptr1"(#loc)), %in_ptr2: !tt.ptr<f32> {tt.divisibility = 16 : i32} loc("in_ptr2"(#loc)), %in_ptr3: !tt.ptr<f32> {tt.divisibility = 16 : i32} loc("in_ptr3"(#loc)), %in_ptr4: !tt.ptr<f32> {tt.divisibility = 16 : i32} loc("in_ptr4"(#loc)), %in_ptr5: !tt.ptr<f32> {tt.divisibility = 16 : i32} loc("in_ptr5"(#loc)), %in_ptr6: !tt.ptr<f32> {tt.divisibility = 16 : i32} loc("in_ptr6"(#loc)), %ynumel: i32 {tt.divisibility = 16 : i32} loc("ynumel"(#loc)), %xnumel: i32 {tt.divisibility = 16 : i32} loc("xnumel"(#loc))) attributes {noinline = false} {
    %ynumel_0 = arith.constant 1536 : i32 loc(#loc76)
    %xnumel_1 = arith.constant 192 : i32 loc(#loc77)
    %yoffset = tt.get_program_id y : i32 loc(#loc78)
    %yoffset_2 = arith.constant 1024 : i32 loc(#loc79)
    %yoffset_3 = arith.constant 1024 : i32 loc(#loc79)
    %yoffset_4 = arith.muli %yoffset, %yoffset_3 : i32 loc(#loc79)
    %yindex = tt.make_range {end = 1024 : i32, start = 0 : i32} : tensor<1024xi32> loc(#loc80)
    %yindex_5 = tt.expand_dims %yindex {axis = 1 : i32} : tensor<1024xi32> -> tensor<1024x1xi32> loc(#loc81)
    %yindex_6 = tt.splat %yoffset_4 : i32 -> tensor<1024x1xi32> loc(#loc82)
    %yindex_7 = arith.addi %yindex_6, %yindex_5 : tensor<1024x1xi32> loc(#loc82)
    %ymask = arith.constant dense<1536> : tensor<1024x1xi32> loc(#loc83)
    %ymask_8 = arith.cmpi slt, %yindex_7, %ymask : tensor<1024x1xi32> loc(#loc83)
    %xoffset = tt.get_program_id x : i32 loc(#loc84)
    %xoffset_9 = arith.constant 1 : i32 loc(#loc85)
    %xoffset_10 = arith.constant 1 : i32 loc(#loc85)
    %xoffset_11 = arith.muli %xoffset, %xoffset_10 : i32 loc(#loc85)
    %xindex = tt.make_range {end = 1 : i32, start = 0 : i32} : tensor<1xi32> loc(#loc86)
    %xindex_12 = tt.expand_dims %xindex {axis = 0 : i32} : tensor<1xi32> -> tensor<1x1xi32> loc(#loc87)
    %xindex_13 = tt.splat %xoffset_11 : i32 -> tensor<1x1xi32> loc(#loc88)
    %xindex_14 = arith.addi %xindex_13, %xindex_12 : tensor<1x1xi32> loc(#loc88)
    %xmask = arith.constant dense<192> : tensor<1x1xi32> loc(#loc89)
    %xmask_15 = arith.cmpi slt, %xindex_14, %xmask : tensor<1x1xi32> loc(#loc89)
    %y0 = arith.constant 192 : i32 loc(#loc90)
    %y0_16 = arith.constant 192 : i32 loc(#loc90)
    %y0_17 = arith.constant dense<192> : tensor<1024x1xi32> loc(#loc90)
    %y0_18 = arith.remsi %yindex_7, %y0_17 : tensor<1024x1xi32> loc(#loc90)
    %y1 = arith.constant 192 : i32 loc(#loc91)
    %y1_19 = arith.constant 192 : i32 loc(#loc91)
    %y1_20 = arith.constant dense<192> : tensor<1024x1xi32> loc(#loc91)
    %y1_21 = arith.divsi %yindex_7, %y1_20 : tensor<1024x1xi32> loc(#loc91)
    %tmp0 = arith.constant 192 : i32 loc(#loc92)
    %tmp0_22 = arith.constant 192 : i32 loc(#loc92)
    %tmp0_23 = arith.constant dense<192> : tensor<1024x1xi32> loc(#loc92)
    %tmp0_24 = arith.muli %tmp0_23, %yindex_7 : tensor<1024x1xi32> loc(#loc92)
    %tmp0_25 = tt.broadcast %xindex_14 : tensor<1x1xi32> -> tensor<1024x1xi32> loc(#loc93)
    %tmp0_26 = arith.addi %tmp0_25, %tmp0_24 : tensor<1024x1xi32> loc(#loc93)
    %tmp0_27 = tt.splat %in_out_ptr0 : !tt.ptr<f32> -> tensor<1024x1x!tt.ptr<f32>> loc(#loc94)
    %tmp0_28 = tt.addptr %tmp0_27, %tmp0_26 : tensor<1024x1x!tt.ptr<f32>>, tensor<1024x1xi32> loc(#loc94)
    %tmp0_29 = tt.broadcast %xmask_15 : tensor<1x1xi1> -> tensor<1024x1xi1> loc(#loc95)
    %tmp0_30 = arith.andi %tmp0_29, %ymask_8 : tensor<1024x1xi1> loc(#loc95)
    %tmp0_31 = tt.load %tmp0_28, %tmp0_30 evictionPolicy = evict_last : tensor<1024x1x!tt.ptr<f32>> loc(#loc96)
    %tmp1 = arith.constant 192 : i32 loc(#loc97)
    %tmp1_32 = arith.constant 192 : i32 loc(#loc97)
    %tmp1_33 = arith.constant dense<192> : tensor<1x1xi32> loc(#loc97)
    %tmp1_34 = arith.muli %tmp1_33, %xindex_14 : tensor<1x1xi32> loc(#loc97)
    %tmp1_35 = tt.broadcast %tmp1_34 : tensor<1x1xi32> -> tensor<1024x1xi32> loc(#loc98)
    %tmp1_36 = arith.addi %y0_18, %tmp1_35 : tensor<1024x1xi32> loc(#loc98)
    %tmp1_37 = arith.constant 36864 : i32 loc(#loc99)
    %tmp1_38 = arith.constant 36864 : i32 loc(#loc99)
    %tmp1_39 = arith.constant dense<36864> : tensor<1024x1xi32> loc(#loc99)
    %tmp1_40 = arith.muli %tmp1_39, %y1_21 : tensor<1024x1xi32> loc(#loc99)
    %tmp1_41 = arith.addi %tmp1_36, %tmp1_40 : tensor<1024x1xi32> loc(#loc100)
    %tmp1_42 = tt.splat %in_ptr0 : !tt.ptr<bf16> -> tensor<1024x1x!tt.ptr<bf16>> loc(#loc101)
    %tmp1_43 = tt.addptr %tmp1_42, %tmp1_41 : tensor<1024x1x!tt.ptr<bf16>>, tensor<1024x1xi32> loc(#loc101)
    %tmp1_44 = tt.broadcast %xmask_15 : tensor<1x1xi1> -> tensor<1024x1xi1> loc(#loc102)
    %tmp1_45 = arith.andi %tmp1_44, %ymask_8 : tensor<1024x1xi1> loc(#loc102)
    %tmp1_46 = tt.load %tmp1_43, %tmp1_45 evictionPolicy = evict_last : tensor<1024x1x!tt.ptr<bf16>> loc(#loc103)
    %tmp1_47 = arith.extf %tmp1_46 : tensor<1024x1xbf16> to tensor<1024x1xf32> loc(#loc104)
    %tmp4 = arith.constant 192 : i32 loc(#loc105)
    %tmp4_48 = arith.constant 192 : i32 loc(#loc105)
    %tmp4_49 = arith.constant dense<192> : tensor<1024x1xi32> loc(#loc105)
    %tmp4_50 = arith.muli %tmp4_49, %yindex_7 : tensor<1024x1xi32> loc(#loc105)
    %tmp4_51 = tt.broadcast %xindex_14 : tensor<1x1xi32> -> tensor<1024x1xi32> loc(#loc106)
    %tmp4_52 = arith.addi %tmp4_51, %tmp4_50 : tensor<1024x1xi32> loc(#loc106)
    %tmp4_53 = tt.splat %in_ptr1 : !tt.ptr<bf16> -> tensor<1024x1x!tt.ptr<bf16>> loc(#loc107)
    %tmp4_54 = tt.addptr %tmp4_53, %tmp4_52 : tensor<1024x1x!tt.ptr<bf16>>, tensor<1024x1xi32> loc(#loc107)
    %tmp4_55 = tt.broadcast %xmask_15 : tensor<1x1xi1> -> tensor<1024x1xi1> loc(#loc108)
    %tmp4_56 = arith.andi %tmp4_55, %ymask_8 : tensor<1024x1xi1> loc(#loc108)
    %tmp4_57 = tt.load %tmp4_54, %tmp4_56 evictionPolicy = evict_last : tensor<1024x1x!tt.ptr<bf16>> loc(#loc109)
    %tmp4_58 = arith.extf %tmp4_57 : tensor<1024x1xbf16> to tensor<1024x1xf32> loc(#loc110)
    %tmp7 = tt.splat %in_ptr2 : !tt.ptr<f32> -> tensor<1024x1x!tt.ptr<f32>> loc(#loc111)
    %tmp7_59 = tt.addptr %tmp7, %yindex_7 : tensor<1024x1x!tt.ptr<f32>>, tensor<1024x1xi32> loc(#loc111)
    %tmp7_60 = tt.load %tmp7_59, %ymask_8 evictionPolicy = evict_last : tensor<1024x1x!tt.ptr<f32>> loc(#loc112)
    %tmp8 = tt.splat %in_ptr3 : !tt.ptr<f32> -> tensor<1024x1x!tt.ptr<f32>> loc(#loc113)
    %tmp8_61 = tt.addptr %tmp8, %yindex_7 : tensor<1024x1x!tt.ptr<f32>>, tensor<1024x1xi32> loc(#loc113)
    %tmp8_62 = tt.load %tmp8_61, %ymask_8 evictionPolicy = evict_last : tensor<1024x1x!tt.ptr<f32>> loc(#loc114)
    %tmp10 = tt.splat %in_ptr4 : !tt.ptr<f32> -> tensor<1024x1x!tt.ptr<f32>> loc(#loc115)
    %tmp10_63 = tt.addptr %tmp10, %yindex_7 : tensor<1024x1x!tt.ptr<f32>>, tensor<1024x1xi32> loc(#loc115)
    %tmp10_64 = tt.load %tmp10_63, %ymask_8 evictionPolicy = evict_last : tensor<1024x1x!tt.ptr<f32>> loc(#loc116)
    %tmp12 = tt.splat %in_ptr5 : !tt.ptr<f32> -> tensor<1024x1x!tt.ptr<f32>> loc(#loc117)
    %tmp12_65 = tt.addptr %tmp12, %yindex_7 : tensor<1024x1x!tt.ptr<f32>>, tensor<1024x1xi32> loc(#loc117)
    %tmp12_66 = tt.load %tmp12_65, %ymask_8 evictionPolicy = evict_last : tensor<1024x1x!tt.ptr<f32>> loc(#loc118)
    %tmp15 = arith.constant 192 : i32 loc(#loc119)
    %tmp15_67 = arith.constant 192 : i32 loc(#loc119)
    %tmp15_68 = arith.constant dense<192> : tensor<1024x1xi32> loc(#loc119)
    %tmp15_69 = arith.muli %tmp15_68, %yindex_7 : tensor<1024x1xi32> loc(#loc119)
    %tmp15_70 = tt.broadcast %xindex_14 : tensor<1x1xi32> -> tensor<1024x1xi32> loc(#loc120)
    %tmp15_71 = arith.addi %tmp15_70, %tmp15_69 : tensor<1024x1xi32> loc(#loc120)
    %tmp15_72 = tt.splat %in_ptr6 : !tt.ptr<f32> -> tensor<1024x1x!tt.ptr<f32>> loc(#loc121)
    %tmp15_73 = tt.addptr %tmp15_72, %tmp15_71 : tensor<1024x1x!tt.ptr<f32>>, tensor<1024x1xi32> loc(#loc121)
    %tmp15_74 = tt.broadcast %xmask_15 : tensor<1x1xi1> -> tensor<1024x1xi1> loc(#loc122)
    %tmp15_75 = arith.andi %tmp15_74, %ymask_8 : tensor<1024x1xi1> loc(#loc122)
    %tmp15_76 = tt.load %tmp15_73, %tmp15_75 evictionPolicy = evict_last : tensor<1024x1x!tt.ptr<f32>> loc(#loc123)
    %tmp3 = arith.addf %tmp0_31, %tmp1_47 : tensor<1024x1xf32> loc(#loc124)
    %tmp6 = arith.addf %tmp3, %tmp4_58 : tensor<1024x1xf32> loc(#loc125)
    %tmp9 = arith.addf %tmp7_60, %tmp8_62 : tensor<1024x1xf32> loc(#loc126)
    %tmp11 = arith.addf %tmp9, %tmp10_64 : tensor<1024x1xf32> loc(#loc127)
    %tmp13 = arith.constant 0.000000e+00 : f32 loc(#loc128)
    %tmp14 = arith.constant dense<0.000000e+00> : tensor<1024x1xf32> loc(#loc129)
    %tmp14_77 = arith.cmpf oeq, %tmp12_66, %tmp14 : tensor<1024x1xf32> loc(#loc129)
    %tmp16 = arith.divf %tmp15_76, %tmp12_66 : tensor<1024x1xf32> loc(#loc130)
    %tmp17 = arith.constant dense<0.000000e+00> : tensor<1024x1xf32> loc(#loc131)
    %tmp17_78 = arith.select %tmp14_77, %tmp17, %tmp16 : tensor<1024x1xi1>, tensor<1024x1xf32> loc(#loc131)
    %tmp18 = arith.mulf %tmp11, %tmp17_78 : tensor<1024x1xf32> loc(#loc132)
    %tmp19 = arith.addf %tmp6, %tmp18 : tensor<1024x1xf32> loc(#loc133)
    gpu.barrier loc(#loc59)
    %c192_i32 = arith.constant 192 : i32 loc(#loc60)
    %c192_i32_79 = arith.constant 192 : i32 loc(#loc60)
    %cst = arith.constant dense<192> : tensor<1024x1xi32> loc(#loc60)
    %0 = arith.muli %cst, %yindex_7 : tensor<1024x1xi32> loc(#loc60)
    %1 = tt.broadcast %xindex_14 : tensor<1x1xi32> -> tensor<1024x1xi32> loc(#loc61)
    %2 = arith.addi %1, %0 : tensor<1024x1xi32> loc(#loc61)
    %3 = tt.splat %in_out_ptr0 : !tt.ptr<f32> -> tensor<1024x1x!tt.ptr<f32>> loc(#loc62)
    %4 = tt.addptr %3, %2 : tensor<1024x1x!tt.ptr<f32>>, tensor<1024x1xi32> loc(#loc62)
    %5 = tt.broadcast %xmask_15 : tensor<1x1xi1> -> tensor<1024x1xi1> loc(#loc63)
    %6 = arith.andi %5, %ymask_8 : tensor<1024x1xi1> loc(#loc63)
    tt.store %4, %tmp19, %6 : tensor<1024x1x!tt.ptr<f32>> loc(#loc64)
    tt.return loc(#loc65)
  } loc(#loc)
} loc(#loc)
#loc1 = loc("/NHNHOME/WORKSPACE/26msit001_A/jinhyeok/loop_TTT/lact/.cache_inductor_llm/r5/cr5llldhomlxny275fz3zdfla6r62yi2rtdkhhdidh2fncc6nhv4.py":19:13)
#loc2 = loc("/NHNHOME/WORKSPACE/26msit001_A/jinhyeok/loop_TTT/lact/.cache_inductor_llm/r5/cr5llldhomlxny275fz3zdfla6r62yi2rtdkhhdidh2fncc6nhv4.py":20:13)
#loc3 = loc("/NHNHOME/WORKSPACE/26msit001_A/jinhyeok/loop_TTT/lact/.cache_inductor_llm/r5/cr5llldhomlxny275fz3zdfla6r62yi2rtdkhhdidh2fncc6nhv4.py":21:28)
#loc4 = loc("/NHNHOME/WORKSPACE/26msit001_A/jinhyeok/loop_TTT/lact/.cache_inductor_llm/r5/cr5llldhomlxny275fz3zdfla6r62yi2rtdkhhdidh2fncc6nhv4.py":21:33)
#loc5 = loc("/NHNHOME/WORKSPACE/26msit001_A/jinhyeok/loop_TTT/lact/.cache_inductor_llm/r5/cr5llldhomlxny275fz3zdfla6r62yi2rtdkhhdidh2fncc6nhv4.py":22:36)
#loc6 = loc("/NHNHOME/WORKSPACE/26msit001_A/jinhyeok/loop_TTT/lact/.cache_inductor_llm/r5/cr5llldhomlxny275fz3zdfla6r62yi2rtdkhhdidh2fncc6nhv4.py":22:44)
#loc7 = loc("/NHNHOME/WORKSPACE/26msit001_A/jinhyeok/loop_TTT/lact/.cache_inductor_llm/r5/cr5llldhomlxny275fz3zdfla6r62yi2rtdkhhdidh2fncc6nhv4.py":22:23)
#loc8 = loc("/NHNHOME/WORKSPACE/26msit001_A/jinhyeok/loop_TTT/lact/.cache_inductor_llm/r5/cr5llldhomlxny275fz3zdfla6r62yi2rtdkhhdidh2fncc6nhv4.py":23:21)
#loc9 = loc("/NHNHOME/WORKSPACE/26msit001_A/jinhyeok/loop_TTT/lact/.cache_inductor_llm/r5/cr5llldhomlxny275fz3zdfla6r62yi2rtdkhhdidh2fncc6nhv4.py":24:28)
#loc10 = loc("/NHNHOME/WORKSPACE/26msit001_A/jinhyeok/loop_TTT/lact/.cache_inductor_llm/r5/cr5llldhomlxny275fz3zdfla6r62yi2rtdkhhdidh2fncc6nhv4.py":24:33)
#loc11 = loc("/NHNHOME/WORKSPACE/26msit001_A/jinhyeok/loop_TTT/lact/.cache_inductor_llm/r5/cr5llldhomlxny275fz3zdfla6r62yi2rtdkhhdidh2fncc6nhv4.py":25:36)
#loc12 = loc("/NHNHOME/WORKSPACE/26msit001_A/jinhyeok/loop_TTT/lact/.cache_inductor_llm/r5/cr5llldhomlxny275fz3zdfla6r62yi2rtdkhhdidh2fncc6nhv4.py":25:44)
#loc13 = loc("/NHNHOME/WORKSPACE/26msit001_A/jinhyeok/loop_TTT/lact/.cache_inductor_llm/r5/cr5llldhomlxny275fz3zdfla6r62yi2rtdkhhdidh2fncc6nhv4.py":25:23)
#loc14 = loc("/NHNHOME/WORKSPACE/26msit001_A/jinhyeok/loop_TTT/lact/.cache_inductor_llm/r5/cr5llldhomlxny275fz3zdfla6r62yi2rtdkhhdidh2fncc6nhv4.py":26:21)
#loc15 = loc("/NHNHOME/WORKSPACE/26msit001_A/jinhyeok/loop_TTT/lact/.cache_inductor_llm/r5/cr5llldhomlxny275fz3zdfla6r62yi2rtdkhhdidh2fncc6nhv4.py":29:19)
#loc16 = loc("/NHNHOME/WORKSPACE/26msit001_A/jinhyeok/loop_TTT/lact/.cache_inductor_llm/r5/cr5llldhomlxny275fz3zdfla6r62yi2rtdkhhdidh2fncc6nhv4.py":30:19)
#loc17 = loc("/NHNHOME/WORKSPACE/26msit001_A/jinhyeok/loop_TTT/lact/.cache_inductor_llm/r5/cr5llldhomlxny275fz3zdfla6r62yi2rtdkhhdidh2fncc6nhv4.py":31:43)
#loc18 = loc("/NHNHOME/WORKSPACE/26msit001_A/jinhyeok/loop_TTT/lact/.cache_inductor_llm/r5/cr5llldhomlxny275fz3zdfla6r62yi2rtdkhhdidh2fncc6nhv4.py":31:39)
#loc19 = loc("/NHNHOME/WORKSPACE/26msit001_A/jinhyeok/loop_TTT/lact/.cache_inductor_llm/r5/cr5llldhomlxny275fz3zdfla6r62yi2rtdkhhdidh2fncc6nhv4.py":31:34)
#loc20 = loc("/NHNHOME/WORKSPACE/26msit001_A/jinhyeok/loop_TTT/lact/.cache_inductor_llm/r5/cr5llldhomlxny275fz3zdfla6r62yi2rtdkhhdidh2fncc6nhv4.py":31:56)
#loc21 = loc("/NHNHOME/WORKSPACE/26msit001_A/jinhyeok/loop_TTT/lact/.cache_inductor_llm/r5/cr5llldhomlxny275fz3zdfla6r62yi2rtdkhhdidh2fncc6nhv4.py":31:48)
#loc22 = loc("/NHNHOME/WORKSPACE/26msit001_A/jinhyeok/loop_TTT/lact/.cache_inductor_llm/r5/cr5llldhomlxny275fz3zdfla6r62yi2rtdkhhdidh2fncc6nhv4.py":32:39)
#loc23 = loc("/NHNHOME/WORKSPACE/26msit001_A/jinhyeok/loop_TTT/lact/.cache_inductor_llm/r5/cr5llldhomlxny275fz3zdfla6r62yi2rtdkhhdidh2fncc6nhv4.py":32:35)
#loc24 = loc("/NHNHOME/WORKSPACE/26msit001_A/jinhyeok/loop_TTT/lact/.cache_inductor_llm/r5/cr5llldhomlxny275fz3zdfla6r62yi2rtdkhhdidh2fncc6nhv4.py":32:50)
#loc25 = loc("/NHNHOME/WORKSPACE/26msit001_A/jinhyeok/loop_TTT/lact/.cache_inductor_llm/r5/cr5llldhomlxny275fz3zdfla6r62yi2rtdkhhdidh2fncc6nhv4.py":32:44)
#loc26 = loc("/NHNHOME/WORKSPACE/26msit001_A/jinhyeok/loop_TTT/lact/.cache_inductor_llm/r5/cr5llldhomlxny275fz3zdfla6r62yi2rtdkhhdidh2fncc6nhv4.py":32:30)
#loc27 = loc("/NHNHOME/WORKSPACE/26msit001_A/jinhyeok/loop_TTT/lact/.cache_inductor_llm/r5/cr5llldhomlxny275fz3zdfla6r62yi2rtdkhhdidh2fncc6nhv4.py":32:63)
#loc28 = loc("/NHNHOME/WORKSPACE/26msit001_A/jinhyeok/loop_TTT/lact/.cache_inductor_llm/r5/cr5llldhomlxny275fz3zdfla6r62yi2rtdkhhdidh2fncc6nhv4.py":32:55)
#loc29 = loc("/NHNHOME/WORKSPACE/26msit001_A/jinhyeok/loop_TTT/lact/.cache_inductor_llm/r5/cr5llldhomlxny275fz3zdfla6r62yi2rtdkhhdidh2fncc6nhv4.py":32:103)
#loc30 = loc("/NHNHOME/WORKSPACE/26msit001_A/jinhyeok/loop_TTT/lact/.cache_inductor_llm/r5/cr5llldhomlxny275fz3zdfla6r62yi2rtdkhhdidh2fncc6nhv4.py":33:39)
#loc31 = loc("/NHNHOME/WORKSPACE/26msit001_A/jinhyeok/loop_TTT/lact/.cache_inductor_llm/r5/cr5llldhomlxny275fz3zdfla6r62yi2rtdkhhdidh2fncc6nhv4.py":33:35)
#loc32 = loc("/NHNHOME/WORKSPACE/26msit001_A/jinhyeok/loop_TTT/lact/.cache_inductor_llm/r5/cr5llldhomlxny275fz3zdfla6r62yi2rtdkhhdidh2fncc6nhv4.py":33:30)
#loc33 = loc("/NHNHOME/WORKSPACE/26msit001_A/jinhyeok/loop_TTT/lact/.cache_inductor_llm/r5/cr5llldhomlxny275fz3zdfla6r62yi2rtdkhhdidh2fncc6nhv4.py":33:52)
#loc34 = loc("/NHNHOME/WORKSPACE/26msit001_A/jinhyeok/loop_TTT/lact/.cache_inductor_llm/r5/cr5llldhomlxny275fz3zdfla6r62yi2rtdkhhdidh2fncc6nhv4.py":33:44)
#loc35 = loc("/NHNHOME/WORKSPACE/26msit001_A/jinhyeok/loop_TTT/lact/.cache_inductor_llm/r5/cr5llldhomlxny275fz3zdfla6r62yi2rtdkhhdidh2fncc6nhv4.py":33:92)
#loc36 = loc("/NHNHOME/WORKSPACE/26msit001_A/jinhyeok/loop_TTT/lact/.cache_inductor_llm/r5/cr5llldhomlxny275fz3zdfla6r62yi2rtdkhhdidh2fncc6nhv4.py":34:30)
#loc37 = loc("/NHNHOME/WORKSPACE/26msit001_A/jinhyeok/loop_TTT/lact/.cache_inductor_llm/r5/cr5llldhomlxny275fz3zdfla6r62yi2rtdkhhdidh2fncc6nhv4.py":34:35)
#loc38 = loc("/NHNHOME/WORKSPACE/26msit001_A/jinhyeok/loop_TTT/lact/.cache_inductor_llm/r5/cr5llldhomlxny275fz3zdfla6r62yi2rtdkhhdidh2fncc6nhv4.py":35:30)
#loc39 = loc("/NHNHOME/WORKSPACE/26msit001_A/jinhyeok/loop_TTT/lact/.cache_inductor_llm/r5/cr5llldhomlxny275fz3zdfla6r62yi2rtdkhhdidh2fncc6nhv4.py":35:35)
#loc40 = loc("/NHNHOME/WORKSPACE/26msit001_A/jinhyeok/loop_TTT/lact/.cache_inductor_llm/r5/cr5llldhomlxny275fz3zdfla6r62yi2rtdkhhdidh2fncc6nhv4.py":36:31)
#loc41 = loc("/NHNHOME/WORKSPACE/26msit001_A/jinhyeok/loop_TTT/lact/.cache_inductor_llm/r5/cr5llldhomlxny275fz3zdfla6r62yi2rtdkhhdidh2fncc6nhv4.py":36:36)
#loc42 = loc("/NHNHOME/WORKSPACE/26msit001_A/jinhyeok/loop_TTT/lact/.cache_inductor_llm/r5/cr5llldhomlxny275fz3zdfla6r62yi2rtdkhhdidh2fncc6nhv4.py":37:31)
#loc43 = loc("/NHNHOME/WORKSPACE/26msit001_A/jinhyeok/loop_TTT/lact/.cache_inductor_llm/r5/cr5llldhomlxny275fz3zdfla6r62yi2rtdkhhdidh2fncc6nhv4.py":37:36)
#loc44 = loc("/NHNHOME/WORKSPACE/26msit001_A/jinhyeok/loop_TTT/lact/.cache_inductor_llm/r5/cr5llldhomlxny275fz3zdfla6r62yi2rtdkhhdidh2fncc6nhv4.py":38:40)
#loc45 = loc("/NHNHOME/WORKSPACE/26msit001_A/jinhyeok/loop_TTT/lact/.cache_inductor_llm/r5/cr5llldhomlxny275fz3zdfla6r62yi2rtdkhhdidh2fncc6nhv4.py":38:36)
#loc46 = loc("/NHNHOME/WORKSPACE/26msit001_A/jinhyeok/loop_TTT/lact/.cache_inductor_llm/r5/cr5llldhomlxny275fz3zdfla6r62yi2rtdkhhdidh2fncc6nhv4.py":38:31)
#loc47 = loc("/NHNHOME/WORKSPACE/26msit001_A/jinhyeok/loop_TTT/lact/.cache_inductor_llm/r5/cr5llldhomlxny275fz3zdfla6r62yi2rtdkhhdidh2fncc6nhv4.py":38:53)
#loc48 = loc("/NHNHOME/WORKSPACE/26msit001_A/jinhyeok/loop_TTT/lact/.cache_inductor_llm/r5/cr5llldhomlxny275fz3zdfla6r62yi2rtdkhhdidh2fncc6nhv4.py":38:45)
#loc49 = loc("/NHNHOME/WORKSPACE/26msit001_A/jinhyeok/loop_TTT/lact/.cache_inductor_llm/r5/cr5llldhomlxny275fz3zdfla6r62yi2rtdkhhdidh2fncc6nhv4.py":40:18)
#loc50 = loc("/NHNHOME/WORKSPACE/26msit001_A/jinhyeok/loop_TTT/lact/.cache_inductor_llm/r5/cr5llldhomlxny275fz3zdfla6r62yi2rtdkhhdidh2fncc6nhv4.py":42:18)
#loc51 = loc("/NHNHOME/WORKSPACE/26msit001_A/jinhyeok/loop_TTT/lact/.cache_inductor_llm/r5/cr5llldhomlxny275fz3zdfla6r62yi2rtdkhhdidh2fncc6nhv4.py":43:18)
#loc52 = loc("/NHNHOME/WORKSPACE/26msit001_A/jinhyeok/loop_TTT/lact/.cache_inductor_llm/r5/cr5llldhomlxny275fz3zdfla6r62yi2rtdkhhdidh2fncc6nhv4.py":44:19)
#loc53 = loc("/NHNHOME/WORKSPACE/26msit001_A/jinhyeok/loop_TTT/lact/.cache_inductor_llm/r5/cr5llldhomlxny275fz3zdfla6r62yi2rtdkhhdidh2fncc6nhv4.py":45:12)
#loc54 = loc("/NHNHOME/WORKSPACE/26msit001_A/jinhyeok/loop_TTT/lact/.cache_inductor_llm/r5/cr5llldhomlxny275fz3zdfla6r62yi2rtdkhhdidh2fncc6nhv4.py":46:21)
#loc55 = loc("/NHNHOME/WORKSPACE/26msit001_A/jinhyeok/loop_TTT/lact/.cache_inductor_llm/r5/cr5llldhomlxny275fz3zdfla6r62yi2rtdkhhdidh2fncc6nhv4.py":47:21)
#loc56 = loc("/NHNHOME/WORKSPACE/26msit001_A/jinhyeok/loop_TTT/lact/.cache_inductor_llm/r5/cr5llldhomlxny275fz3zdfla6r62yi2rtdkhhdidh2fncc6nhv4.py":48:35)
#loc57 = loc("/NHNHOME/WORKSPACE/26msit001_A/jinhyeok/loop_TTT/lact/.cache_inductor_llm/r5/cr5llldhomlxny275fz3zdfla6r62yi2rtdkhhdidh2fncc6nhv4.py":49:20)
#loc58 = loc("/NHNHOME/WORKSPACE/26msit001_A/jinhyeok/loop_TTT/lact/.cache_inductor_llm/r5/cr5llldhomlxny275fz3zdfla6r62yi2rtdkhhdidh2fncc6nhv4.py":50:19)
#loc59 = loc("/NHNHOME/WORKSPACE/26msit001_A/jinhyeok/loop_TTT/lact/.cache_inductor_llm/r5/cr5llldhomlxny275fz3zdfla6r62yi2rtdkhhdidh2fncc6nhv4.py":51:4)
#loc60 = loc("/NHNHOME/WORKSPACE/26msit001_A/jinhyeok/loop_TTT/lact/.cache_inductor_llm/r5/cr5llldhomlxny275fz3zdfla6r62yi2rtdkhhdidh2fncc6nhv4.py":52:37)
#loc61 = loc("/NHNHOME/WORKSPACE/26msit001_A/jinhyeok/loop_TTT/lact/.cache_inductor_llm/r5/cr5llldhomlxny275fz3zdfla6r62yi2rtdkhhdidh2fncc6nhv4.py":52:33)
#loc62 = loc("/NHNHOME/WORKSPACE/26msit001_A/jinhyeok/loop_TTT/lact/.cache_inductor_llm/r5/cr5llldhomlxny275fz3zdfla6r62yi2rtdkhhdidh2fncc6nhv4.py":52:28)
#loc63 = loc("/NHNHOME/WORKSPACE/26msit001_A/jinhyeok/loop_TTT/lact/.cache_inductor_llm/r5/cr5llldhomlxny275fz3zdfla6r62yi2rtdkhhdidh2fncc6nhv4.py":52:57)
#loc64 = loc("/NHNHOME/WORKSPACE/26msit001_A/jinhyeok/loop_TTT/lact/.cache_inductor_llm/r5/cr5llldhomlxny275fz3zdfla6r62yi2rtdkhhdidh2fncc6nhv4.py":52:49)
#loc65 = loc("/NHNHOME/WORKSPACE/26msit001_A/jinhyeok/loop_TTT/lact/.cache_inductor_llm/r5/cr5llldhomlxny275fz3zdfla6r62yi2rtdkhhdidh2fncc6nhv4.py":52:4)
#loc76 = loc("ynumel"(#loc1))
#loc77 = loc("xnumel"(#loc2))
#loc78 = loc("yoffset"(#loc3))
#loc79 = loc("yoffset"(#loc4))
#loc80 = loc("yindex"(#loc5))
#loc81 = loc("yindex"(#loc6))
#loc82 = loc("yindex"(#loc7))
#loc83 = loc("ymask"(#loc8))
#loc84 = loc("xoffset"(#loc9))
#loc85 = loc("xoffset"(#loc10))
#loc86 = loc("xindex"(#loc11))
#loc87 = loc("xindex"(#loc12))
#loc88 = loc("xindex"(#loc13))
#loc89 = loc("xmask"(#loc14))
#loc90 = loc("y0"(#loc15))
#loc91 = loc("y1"(#loc16))
#loc92 = loc("tmp0"(#loc17))
#loc93 = loc("tmp0"(#loc18))
#loc94 = loc("tmp0"(#loc19))
#loc95 = loc("tmp0"(#loc20))
#loc96 = loc("tmp0"(#loc21))
#loc97 = loc("tmp1"(#loc22))
#loc98 = loc("tmp1"(#loc23))
#loc99 = loc("tmp1"(#loc24))
#loc100 = loc("tmp1"(#loc25))
#loc101 = loc("tmp1"(#loc26))
#loc102 = loc("tmp1"(#loc27))
#loc103 = loc("tmp1"(#loc28))
#loc104 = loc("tmp1"(#loc29))
#loc105 = loc("tmp4"(#loc30))
#loc106 = loc("tmp4"(#loc31))
#loc107 = loc("tmp4"(#loc32))
#loc108 = loc("tmp4"(#loc33))
#loc109 = loc("tmp4"(#loc34))
#loc110 = loc("tmp4"(#loc35))
#loc111 = loc("tmp7"(#loc36))
#loc112 = loc("tmp7"(#loc37))
#loc113 = loc("tmp8"(#loc38))
#loc114 = loc("tmp8"(#loc39))
#loc115 = loc("tmp10"(#loc40))
#loc116 = loc("tmp10"(#loc41))
#loc117 = loc("tmp12"(#loc42))
#loc118 = loc("tmp12"(#loc43))
#loc119 = loc("tmp15"(#loc44))
#loc120 = loc("tmp15"(#loc45))
#loc121 = loc("tmp15"(#loc46))
#loc122 = loc("tmp15"(#loc47))
#loc123 = loc("tmp15"(#loc48))
#loc124 = loc("tmp3"(#loc49))
#loc125 = loc("tmp6"(#loc50))
#loc126 = loc("tmp9"(#loc51))
#loc127 = loc("tmp11"(#loc52))
#loc128 = loc("tmp13"(#loc53))
#loc129 = loc("tmp14"(#loc54))
#loc130 = loc("tmp16"(#loc55))
#loc131 = loc("tmp17"(#loc56))
#loc132 = loc("tmp18"(#loc57))
#loc133 = loc("tmp19"(#loc58))
