#loc = loc("/NHNHOME/WORKSPACE/26msit001_A/jinhyeok/loop_TTT/lact/.cache_inductor_llm/uf/cuftsmrr5izsr23hjk2bsfvmizqoxkcku6xbplb5zhyoxp36hurt.py":18:0)
#loc85 = loc("/NHNHOME/WORKSPACE/26msit001_A/jinhyeok/TTT_camera_embedding/.venv_llm/lib/python3.12/site-packages/triton/language/standard.py":285:0)
#loc87 = loc(unknown)
#loc90 = loc("/NHNHOME/WORKSPACE/26msit001_A/jinhyeok/TTT_camera_embedding/.venv_llm/lib/python3.12/site-packages/triton/language/standard.py":260:0)
#loc94 = loc("in_out_ptr0"(#loc))
#loc95 = loc("in_out_ptr1"(#loc))
#loc96 = loc("in_out_ptr2"(#loc))
#loc97 = loc("in_ptr0"(#loc))
#loc98 = loc("in_ptr1"(#loc))
#loc99 = loc("in_ptr2"(#loc))
#loc100 = loc("in_ptr3"(#loc))
#loc101 = loc("out_ptr0"(#loc))
#loc102 = loc("xnumel"(#loc))
#loc103 = loc("r0_numel"(#loc))
#loc171 = loc("input"(#loc85))
#loc172 = loc("a"(#loc90))
#loc173 = loc("b"(#loc90))
module {
  tt.func public @triton_per_fused__to_copy_add_div_linalg_vector_norm_mul_22(%in_out_ptr0: !tt.ptr<f32> {tt.divisibility = 16 : i32} loc("in_out_ptr0"(#loc)), %in_out_ptr1: !tt.ptr<f32> {tt.divisibility = 16 : i32} loc("in_out_ptr1"(#loc)), %in_out_ptr2: !tt.ptr<f32> {tt.divisibility = 16 : i32} loc("in_out_ptr2"(#loc)), %in_ptr0: !tt.ptr<bf16> {tt.divisibility = 16 : i32} loc("in_ptr0"(#loc)), %in_ptr1: !tt.ptr<bf16> {tt.divisibility = 16 : i32} loc("in_ptr1"(#loc)), %in_ptr2: !tt.ptr<bf16> {tt.divisibility = 16 : i32} loc("in_ptr2"(#loc)), %in_ptr3: !tt.ptr<bf16> {tt.divisibility = 16 : i32} loc("in_ptr3"(#loc)), %out_ptr0: !tt.ptr<bf16> {tt.divisibility = 16 : i32} loc("out_ptr0"(#loc)), %xnumel: i32 {tt.divisibility = 16 : i32} loc("xnumel"(#loc)), %r0_numel: i32 {tt.divisibility = 16 : i32} loc("r0_numel"(#loc))) attributes {noinline = false} {
    %xnumel_0 = arith.constant 6144 : i32 loc(#loc104)
    %r0_numel_1 = arith.constant 192 : i32 loc(#loc105)
    %xoffset = tt.get_program_id x : i32 loc(#loc106)
    %xoffset_2 = arith.constant 1 : i32 loc(#loc107)
    %xoffset_3 = arith.constant 1 : i32 loc(#loc107)
    %xoffset_4 = arith.muli %xoffset, %xoffset_3 : i32 loc(#loc107)
    %xindex = tt.make_range {end = 1 : i32, start = 0 : i32} : tensor<1xi32> loc(#loc108)
    %xindex_5 = tt.expand_dims %xindex {axis = 1 : i32} : tensor<1xi32> -> tensor<1x1xi32> loc(#loc109)
    %xindex_6 = tt.splat %xoffset_4 : i32 -> tensor<1x1xi32> loc(#loc110)
    %xindex_7 = arith.addi %xindex_6, %xindex_5 : tensor<1x1xi32> loc(#loc110)
    %xmask = arith.constant dense<6144> : tensor<1x1xi32> loc(#loc111)
    %xmask_8 = arith.cmpi slt, %xindex_7, %xmask : tensor<1x1xi32> loc(#loc111)
    %r0_index = tt.make_range {end = 256 : i32, start = 0 : i32} : tensor<256xi32> loc(#loc112)
    %r0_index_9 = tt.expand_dims %r0_index {axis = 0 : i32} : tensor<256xi32> -> tensor<1x256xi32> loc(#loc113)
    %r0_offset = arith.constant 0 : i32 loc(#loc114)
    %r0_mask = arith.constant dense<192> : tensor<1x256xi32> loc(#loc115)
    %r0_mask_10 = arith.cmpi slt, %r0_index_9, %r0_mask : tensor<1x256xi32> loc(#loc115)
    %tmp0 = arith.constant 192 : i32 loc(#loc116)
    %tmp0_11 = arith.constant 192 : i32 loc(#loc116)
    %tmp0_12 = arith.constant dense<192> : tensor<1x1xi32> loc(#loc116)
    %tmp0_13 = arith.muli %tmp0_12, %xindex_7 : tensor<1x1xi32> loc(#loc116)
    %tmp0_14 = tt.broadcast %tmp0_13 : tensor<1x1xi32> -> tensor<1x256xi32> loc(#loc117)
    %tmp0_15 = arith.addi %r0_index_9, %tmp0_14 : tensor<1x256xi32> loc(#loc117)
    %tmp0_16 = tt.splat %in_ptr0 : !tt.ptr<bf16> -> tensor<1x256x!tt.ptr<bf16>> loc(#loc118)
    %tmp0_17 = tt.addptr %tmp0_16, %tmp0_15 : tensor<1x256x!tt.ptr<bf16>>, tensor<1x256xi32> loc(#loc118)
    %tmp0_18 = tt.broadcast %xmask_8 : tensor<1x1xi1> -> tensor<1x256xi1> loc(#loc119)
    %tmp0_19 = arith.andi %r0_mask_10, %tmp0_18 : tensor<1x256xi1> loc(#loc119)
    %tmp0_20 = arith.constant 0.000000e+00 : f32 loc(#loc120)
    %tmp0_21 = arith.constant dense<0.000000e+00> : tensor<1x256xf32> loc(#loc120)
    %tmp0_22 = arith.truncf %tmp0_21 : tensor<1x256xf32> to tensor<1x256xbf16> loc(#loc120)
    %tmp0_23 = tt.load %tmp0_17, %tmp0_19, %tmp0_22 : tensor<1x256x!tt.ptr<bf16>> loc(#loc120)
    %tmp0_24 = arith.extf %tmp0_23 : tensor<1x256xbf16> to tensor<1x256xf32> loc(#loc121)
    %tmp8 = arith.constant 192 : i32 loc(#loc122)
    %tmp8_25 = arith.constant 192 : i32 loc(#loc122)
    %tmp8_26 = arith.constant dense<192> : tensor<1x1xi32> loc(#loc122)
    %tmp8_27 = arith.muli %tmp8_26, %xindex_7 : tensor<1x1xi32> loc(#loc122)
    %tmp8_28 = tt.broadcast %tmp8_27 : tensor<1x1xi32> -> tensor<1x256xi32> loc(#loc123)
    %tmp8_29 = arith.addi %r0_index_9, %tmp8_28 : tensor<1x256xi32> loc(#loc123)
    %tmp8_30 = tt.splat %in_out_ptr1 : !tt.ptr<f32> -> tensor<1x256x!tt.ptr<f32>> loc(#loc124)
    %tmp8_31 = tt.addptr %tmp8_30, %tmp8_29 : tensor<1x256x!tt.ptr<f32>>, tensor<1x256xi32> loc(#loc124)
    %tmp8_32 = tt.broadcast %xmask_8 : tensor<1x1xi1> -> tensor<1x256xi1> loc(#loc125)
    %tmp8_33 = arith.andi %r0_mask_10, %tmp8_32 : tensor<1x256xi1> loc(#loc125)
    %tmp8_34 = arith.constant 0.000000e+00 : f32 loc(#loc126)
    %tmp8_35 = arith.constant dense<0.000000e+00> : tensor<1x256xf32> loc(#loc126)
    %tmp8_36 = tt.load %tmp8_31, %tmp8_33, %tmp8_35 : tensor<1x256x!tt.ptr<f32>> loc(#loc126)
    %tmp11 = arith.constant 192 : i32 loc(#loc127)
    %tmp11_37 = arith.constant 192 : i32 loc(#loc127)
    %tmp11_38 = arith.constant dense<192> : tensor<1x1xi32> loc(#loc127)
    %tmp11_39 = arith.muli %tmp11_38, %xindex_7 : tensor<1x1xi32> loc(#loc127)
    %tmp11_40 = tt.broadcast %tmp11_39 : tensor<1x1xi32> -> tensor<1x256xi32> loc(#loc128)
    %tmp11_41 = arith.addi %r0_index_9, %tmp11_40 : tensor<1x256xi32> loc(#loc128)
    %tmp11_42 = tt.splat %in_ptr1 : !tt.ptr<bf16> -> tensor<1x256x!tt.ptr<bf16>> loc(#loc129)
    %tmp11_43 = tt.addptr %tmp11_42, %tmp11_41 : tensor<1x256x!tt.ptr<bf16>>, tensor<1x256xi32> loc(#loc129)
    %tmp11_44 = tt.broadcast %xmask_8 : tensor<1x1xi1> -> tensor<1x256xi1> loc(#loc130)
    %tmp11_45 = arith.andi %r0_mask_10, %tmp11_44 : tensor<1x256xi1> loc(#loc130)
    %tmp11_46 = arith.constant 0.000000e+00 : f32 loc(#loc131)
    %tmp11_47 = arith.constant dense<0.000000e+00> : tensor<1x256xf32> loc(#loc131)
    %tmp11_48 = arith.truncf %tmp11_47 : tensor<1x256xf32> to tensor<1x256xbf16> loc(#loc131)
    %tmp11_49 = tt.load %tmp11_43, %tmp11_45, %tmp11_48 : tensor<1x256x!tt.ptr<bf16>> loc(#loc131)
    %tmp11_50 = arith.extf %tmp11_49 : tensor<1x256xbf16> to tensor<1x256xf32> loc(#loc132)
    %tmp16 = arith.constant 192 : i32 loc(#loc133)
    %tmp16_51 = arith.constant 192 : i32 loc(#loc133)
    %tmp16_52 = arith.constant dense<192> : tensor<1x1xi32> loc(#loc133)
    %tmp16_53 = arith.muli %tmp16_52, %xindex_7 : tensor<1x1xi32> loc(#loc133)
    %tmp16_54 = tt.broadcast %tmp16_53 : tensor<1x1xi32> -> tensor<1x256xi32> loc(#loc134)
    %tmp16_55 = arith.addi %r0_index_9, %tmp16_54 : tensor<1x256xi32> loc(#loc134)
    %tmp16_56 = tt.splat %in_ptr2 : !tt.ptr<bf16> -> tensor<1x256x!tt.ptr<bf16>> loc(#loc135)
    %tmp16_57 = tt.addptr %tmp16_56, %tmp16_55 : tensor<1x256x!tt.ptr<bf16>>, tensor<1x256xi32> loc(#loc135)
    %tmp16_58 = tt.broadcast %xmask_8 : tensor<1x1xi1> -> tensor<1x256xi1> loc(#loc136)
    %tmp16_59 = arith.andi %r0_mask_10, %tmp16_58 : tensor<1x256xi1> loc(#loc136)
    %tmp16_60 = arith.constant 0.000000e+00 : f32 loc(#loc137)
    %tmp16_61 = arith.constant dense<0.000000e+00> : tensor<1x256xf32> loc(#loc137)
    %tmp16_62 = arith.truncf %tmp16_61 : tensor<1x256xf32> to tensor<1x256xbf16> loc(#loc137)
    %tmp16_63 = tt.load %tmp16_57, %tmp16_59, %tmp16_62 : tensor<1x256x!tt.ptr<bf16>> loc(#loc137)
    %tmp16_64 = arith.extf %tmp16_63 : tensor<1x256xbf16> to tensor<1x256xf32> loc(#loc138)
    %tmp21 = arith.constant 192 : i32 loc(#loc139)
    %tmp21_65 = arith.constant 192 : i32 loc(#loc139)
    %tmp21_66 = arith.constant dense<192> : tensor<1x1xi32> loc(#loc139)
    %tmp21_67 = arith.muli %tmp21_66, %xindex_7 : tensor<1x1xi32> loc(#loc139)
    %tmp21_68 = tt.broadcast %tmp21_67 : tensor<1x1xi32> -> tensor<1x256xi32> loc(#loc140)
    %tmp21_69 = arith.addi %r0_index_9, %tmp21_68 : tensor<1x256xi32> loc(#loc140)
    %tmp21_70 = tt.splat %in_ptr3 : !tt.ptr<bf16> -> tensor<1x256x!tt.ptr<bf16>> loc(#loc141)
    %tmp21_71 = tt.addptr %tmp21_70, %tmp21_69 : tensor<1x256x!tt.ptr<bf16>>, tensor<1x256xi32> loc(#loc141)
    %tmp21_72 = tt.broadcast %xmask_8 : tensor<1x1xi1> -> tensor<1x256xi1> loc(#loc142)
    %tmp21_73 = arith.andi %r0_mask_10, %tmp21_72 : tensor<1x256xi1> loc(#loc142)
    %tmp21_74 = arith.constant 0.000000e+00 : f32 loc(#loc143)
    %tmp21_75 = arith.constant dense<0.000000e+00> : tensor<1x256xf32> loc(#loc143)
    %tmp21_76 = arith.truncf %tmp21_75 : tensor<1x256xf32> to tensor<1x256xbf16> loc(#loc143)
    %tmp21_77 = tt.load %tmp21_71, %tmp21_73, %tmp21_76 : tensor<1x256x!tt.ptr<bf16>> loc(#loc143)
    %tmp21_78 = arith.extf %tmp21_77 : tensor<1x256xbf16> to tensor<1x256xf32> loc(#loc144)
    %tmp2 = arith.mulf %tmp0_24, %tmp0_24 : tensor<1x256xf32> loc(#loc145)
    %tmp5 = tt.broadcast %xmask_8 : tensor<1x1xi1> -> tensor<1x256xi1> loc(#loc146)
    %tmp5_79 = arith.andi %r0_mask_10, %tmp5 : tensor<1x256xi1> loc(#loc146)
    %tmp5_80 = arith.constant 0 : i32 loc(#loc147)
    %tmp5_81 = arith.constant 0.000000e+00 : f32 loc(#loc147)
    %tmp5_82 = arith.constant dense<0.000000e+00> : tensor<1x256xf32> loc(#loc147)
    %tmp5_83 = arith.select %tmp5_79, %tmp2, %tmp5_82 : tensor<1x256xi1>, tensor<1x256xf32> loc(#loc147)
    %tmp6 = tt.call @"triton.language.standard.sum__fp32S1_256S__(1,)cconstexpr_1__(2,)cconstexpr_False__(3,)cNone"(%tmp5_83) : (tensor<1x256xf32>) -> tensor<1xf32> loc(#loc148)
    %tmp6_84 = tt.expand_dims %tmp6 {axis = 1 : i32} : tensor<1xf32> -> tensor<1x1xf32> loc(#loc149)
    %tmp7 = tt.extern_elementwise %tmp6_84 {libname = "", libpath = "", pure = true, symbol = "__nv_sqrtf"} : (tensor<1x1xf32>) -> tensor<1x1xf32> loc(#loc150)
    %tmp9 = arith.constant 3.741800e+00 : f32 loc(#loc151)
    %tmp10 = arith.constant dense<3.741800e+00> : tensor<1x256xf32> loc(#loc152)
    %tmp10_85 = arith.mulf %tmp8_36, %tmp10 : tensor<1x256xf32> loc(#loc152)
    %tmp13 = arith.addf %tmp10_85, %tmp11_50 : tensor<1x256xf32> loc(#loc153)
    %tmp14 = arith.constant 2.876900e+00 : f32 loc(#loc154)
    %tmp15 = arith.constant dense<2.876900e+00> : tensor<1x256xf32> loc(#loc155)
    %tmp15_86 = arith.mulf %tmp13, %tmp15 : tensor<1x256xf32> loc(#loc155)
    %tmp18 = arith.addf %tmp15_86, %tmp16_64 : tensor<1x256xf32> loc(#loc156)
    %tmp19 = arith.constant 2.836600e+00 : f32 loc(#loc157)
    %tmp20 = arith.constant dense<2.836600e+00> : tensor<1x256xf32> loc(#loc158)
    %tmp20_87 = arith.mulf %tmp18, %tmp20 : tensor<1x256xf32> loc(#loc158)
    %tmp23 = arith.addf %tmp20_87, %tmp21_78 : tensor<1x256xf32> loc(#loc159)
    %tmp24 = arith.addf %tmp0_24, %tmp23 : tensor<1x256xf32> loc(#loc160)
    %tmp25 = arith.mulf %tmp24, %tmp24 : tensor<1x256xf32> loc(#loc161)
    %tmp28 = tt.broadcast %xmask_8 : tensor<1x1xi1> -> tensor<1x256xi1> loc(#loc162)
    %tmp28_88 = arith.andi %r0_mask_10, %tmp28 : tensor<1x256xi1> loc(#loc162)
    %tmp28_89 = arith.constant 0 : i32 loc(#loc163)
    %tmp28_90 = arith.constant 0.000000e+00 : f32 loc(#loc163)
    %tmp28_91 = arith.constant dense<0.000000e+00> : tensor<1x256xf32> loc(#loc163)
    %tmp28_92 = arith.select %tmp28_88, %tmp25, %tmp28_91 : tensor<1x256xi1>, tensor<1x256xf32> loc(#loc163)
    %tmp29 = tt.call @"triton.language.standard.sum__fp32S1_256S__(1,)cconstexpr_1__(2,)cconstexpr_False__(3,)cNone"(%tmp28_92) : (tensor<1x256xf32>) -> tensor<1xf32> loc(#loc164)
    %tmp29_93 = tt.expand_dims %tmp29 {axis = 1 : i32} : tensor<1xf32> -> tensor<1x1xf32> loc(#loc165)
    %tmp30 = tt.extern_elementwise %tmp29_93 {libname = "", libpath = "", pure = true, symbol = "__nv_sqrtf"} : (tensor<1x1xf32>) -> tensor<1x1xf32> loc(#loc166)
    %tmp31 = arith.constant 9.99999974E-6 : f32 loc(#loc167)
    %tmp32 = arith.constant dense<9.99999974E-6> : tensor<1x1xf32> loc(#loc168)
    %tmp32_94 = arith.addf %tmp30, %tmp32 : tensor<1x1xf32> loc(#loc168)
    %tmp33 = tt.broadcast %tmp32_94 : tensor<1x1xf32> -> tensor<1x256xf32> loc(#loc169)
    %tmp33_95 = arith.divf %tmp24, %tmp33 : tensor<1x256xf32> loc(#loc169)
    %tmp34 = tt.broadcast %tmp7 : tensor<1x1xf32> -> tensor<1x256xf32> loc(#loc170)
    %tmp34_96 = arith.mulf %tmp33_95, %tmp34 : tensor<1x256xf32> loc(#loc170)
    gpu.barrier loc(#loc68)
    %0 = tt.splat %in_out_ptr0 : !tt.ptr<f32> -> tensor<1x1x!tt.ptr<f32>> loc(#loc69)
    %1 = tt.addptr %0, %xindex_7 : tensor<1x1x!tt.ptr<f32>>, tensor<1x1xi32> loc(#loc69)
    tt.store %1, %tmp7, %xmask_8 : tensor<1x1x!tt.ptr<f32>> loc(#loc70)
    %c192_i32 = arith.constant 192 : i32 loc(#loc71)
    %c192_i32_97 = arith.constant 192 : i32 loc(#loc71)
    %cst = arith.constant dense<192> : tensor<1x1xi32> loc(#loc71)
    %2 = arith.muli %cst, %xindex_7 : tensor<1x1xi32> loc(#loc71)
    %3 = tt.broadcast %2 : tensor<1x1xi32> -> tensor<1x256xi32> loc(#loc72)
    %4 = arith.addi %r0_index_9, %3 : tensor<1x256xi32> loc(#loc72)
    %5 = tt.splat %in_out_ptr1 : !tt.ptr<f32> -> tensor<1x256x!tt.ptr<f32>> loc(#loc73)
    %6 = tt.addptr %5, %4 : tensor<1x256x!tt.ptr<f32>>, tensor<1x256xi32> loc(#loc73)
    %7 = tt.broadcast %xmask_8 : tensor<1x1xi1> -> tensor<1x256xi1> loc(#loc74)
    %8 = arith.andi %r0_mask_10, %7 : tensor<1x256xi1> loc(#loc74)
    tt.store %6, %tmp24, %8 : tensor<1x256x!tt.ptr<f32>> loc(#loc75)
    gpu.barrier loc(#loc76)
    %9 = tt.splat %in_out_ptr2 : !tt.ptr<f32> -> tensor<1x1x!tt.ptr<f32>> loc(#loc77)
    %10 = tt.addptr %9, %xindex_7 : tensor<1x1x!tt.ptr<f32>>, tensor<1x1xi32> loc(#loc77)
    tt.store %10, %tmp30, %xmask_8 : tensor<1x1x!tt.ptr<f32>> loc(#loc78)
    %c192_i32_98 = arith.constant 192 : i32 loc(#loc79)
    %c192_i32_99 = arith.constant 192 : i32 loc(#loc79)
    %cst_100 = arith.constant dense<192> : tensor<1x1xi32> loc(#loc79)
    %11 = arith.muli %cst_100, %xindex_7 : tensor<1x1xi32> loc(#loc79)
    %12 = tt.broadcast %11 : tensor<1x1xi32> -> tensor<1x256xi32> loc(#loc80)
    %13 = arith.addi %r0_index_9, %12 : tensor<1x256xi32> loc(#loc80)
    %14 = tt.splat %out_ptr0 : !tt.ptr<bf16> -> tensor<1x256x!tt.ptr<bf16>> loc(#loc81)
    %15 = tt.addptr %14, %13 : tensor<1x256x!tt.ptr<bf16>>, tensor<1x256xi32> loc(#loc81)
    %16 = tt.broadcast %xmask_8 : tensor<1x1xi1> -> tensor<1x256xi1> loc(#loc82)
    %17 = arith.andi %r0_mask_10, %16 : tensor<1x256xi1> loc(#loc82)
    %18 = arith.truncf %tmp34_96 : tensor<1x256xf32> to tensor<1x256xbf16> loc(#loc83)
    tt.store %15, %18, %17 : tensor<1x256x!tt.ptr<bf16>> loc(#loc83)
    tt.return loc(#loc84)
  } loc(#loc)
  tt.func private @"triton.language.standard.sum__fp32S1_256S__(1,)cconstexpr_1__(2,)cconstexpr_False__(3,)cNone"(%input: tensor<1x256xf32> loc("input"(#loc85))) -> tensor<1xf32> attributes {noinline = false} {
    %0 = "tt.reduce"(%input) <{axis = 1 : i32}> ({
    ^bb0(%arg1: f32 loc(unknown), %arg2: f32 loc(unknown)):
      %2 = tt.call @triton.language.standard._sum_combine__fp32_fp32__(%arg1, %arg2) : (f32, f32) -> f32 loc(#loc86)
      tt.reduce.return %2 : f32 loc(#loc86)
    }) : (tensor<1x256xf32>) -> tensor<1xf32> loc(#loc86)
    tt.return %0 : tensor<1xf32> loc(#loc88)
  ^bb1:  // no predecessors
    %1 = ub.poison : tensor<1xf32> loc(#loc89)
    tt.return %1 : tensor<1xf32> loc(#loc89)
  } loc(#loc85)
  tt.func private @triton.language.standard._sum_combine__fp32_fp32__(%a: f32 loc("a"(#loc90)), %b: f32 loc("b"(#loc90))) -> f32 attributes {noinline = false} {
    %0 = arith.addf %a, %b : f32 loc(#loc91)
    tt.return %0 : f32 loc(#loc92)
  ^bb1:  // no predecessors
    %1 = ub.poison : f32 loc(#loc93)
    tt.return %1 : f32 loc(#loc93)
  } loc(#loc90)
} loc(#loc)
#loc1 = loc("/NHNHOME/WORKSPACE/26msit001_A/jinhyeok/loop_TTT/lact/.cache_inductor_llm/uf/cuftsmrr5izsr23hjk2bsfvmizqoxkcku6xbplb5zhyoxp36hurt.py":19:13)
#loc2 = loc("/NHNHOME/WORKSPACE/26msit001_A/jinhyeok/loop_TTT/lact/.cache_inductor_llm/uf/cuftsmrr5izsr23hjk2bsfvmizqoxkcku6xbplb5zhyoxp36hurt.py":20:15)
#loc3 = loc("/NHNHOME/WORKSPACE/26msit001_A/jinhyeok/loop_TTT/lact/.cache_inductor_llm/uf/cuftsmrr5izsr23hjk2bsfvmizqoxkcku6xbplb5zhyoxp36hurt.py":24:28)
#loc4 = loc("/NHNHOME/WORKSPACE/26msit001_A/jinhyeok/loop_TTT/lact/.cache_inductor_llm/uf/cuftsmrr5izsr23hjk2bsfvmizqoxkcku6xbplb5zhyoxp36hurt.py":24:33)
#loc5 = loc("/NHNHOME/WORKSPACE/26msit001_A/jinhyeok/loop_TTT/lact/.cache_inductor_llm/uf/cuftsmrr5izsr23hjk2bsfvmizqoxkcku6xbplb5zhyoxp36hurt.py":25:36)
#loc6 = loc("/NHNHOME/WORKSPACE/26msit001_A/jinhyeok/loop_TTT/lact/.cache_inductor_llm/uf/cuftsmrr5izsr23hjk2bsfvmizqoxkcku6xbplb5zhyoxp36hurt.py":25:44)
#loc7 = loc("/NHNHOME/WORKSPACE/26msit001_A/jinhyeok/loop_TTT/lact/.cache_inductor_llm/uf/cuftsmrr5izsr23hjk2bsfvmizqoxkcku6xbplb5zhyoxp36hurt.py":25:23)
#loc8 = loc("/NHNHOME/WORKSPACE/26msit001_A/jinhyeok/loop_TTT/lact/.cache_inductor_llm/uf/cuftsmrr5izsr23hjk2bsfvmizqoxkcku6xbplb5zhyoxp36hurt.py":26:21)
#loc9 = loc("/NHNHOME/WORKSPACE/26msit001_A/jinhyeok/loop_TTT/lact/.cache_inductor_llm/uf/cuftsmrr5izsr23hjk2bsfvmizqoxkcku6xbplb5zhyoxp36hurt.py":27:28)
#loc10 = loc("/NHNHOME/WORKSPACE/26msit001_A/jinhyeok/loop_TTT/lact/.cache_inductor_llm/uf/cuftsmrr5izsr23hjk2bsfvmizqoxkcku6xbplb5zhyoxp36hurt.py":27:38)
#loc11 = loc("/NHNHOME/WORKSPACE/26msit001_A/jinhyeok/loop_TTT/lact/.cache_inductor_llm/uf/cuftsmrr5izsr23hjk2bsfvmizqoxkcku6xbplb5zhyoxp36hurt.py":28:16)
#loc12 = loc("/NHNHOME/WORKSPACE/26msit001_A/jinhyeok/loop_TTT/lact/.cache_inductor_llm/uf/cuftsmrr5izsr23hjk2bsfvmizqoxkcku6xbplb5zhyoxp36hurt.py":29:25)
#loc13 = loc("/NHNHOME/WORKSPACE/26msit001_A/jinhyeok/loop_TTT/lact/.cache_inductor_llm/uf/cuftsmrr5izsr23hjk2bsfvmizqoxkcku6xbplb5zhyoxp36hurt.py":34:41)
#loc14 = loc("/NHNHOME/WORKSPACE/26msit001_A/jinhyeok/loop_TTT/lact/.cache_inductor_llm/uf/cuftsmrr5izsr23hjk2bsfvmizqoxkcku6xbplb5zhyoxp36hurt.py":34:37)
#loc15 = loc("/NHNHOME/WORKSPACE/26msit001_A/jinhyeok/loop_TTT/lact/.cache_inductor_llm/uf/cuftsmrr5izsr23hjk2bsfvmizqoxkcku6xbplb5zhyoxp36hurt.py":34:30)
#loc16 = loc("/NHNHOME/WORKSPACE/26msit001_A/jinhyeok/loop_TTT/lact/.cache_inductor_llm/uf/cuftsmrr5izsr23hjk2bsfvmizqoxkcku6xbplb5zhyoxp36hurt.py":34:56)
#loc17 = loc("/NHNHOME/WORKSPACE/26msit001_A/jinhyeok/loop_TTT/lact/.cache_inductor_llm/uf/cuftsmrr5izsr23hjk2bsfvmizqoxkcku6xbplb5zhyoxp36hurt.py":34:46)
#loc18 = loc("/NHNHOME/WORKSPACE/26msit001_A/jinhyeok/loop_TTT/lact/.cache_inductor_llm/uf/cuftsmrr5izsr23hjk2bsfvmizqoxkcku6xbplb5zhyoxp36hurt.py":34:77)
#loc19 = loc("/NHNHOME/WORKSPACE/26msit001_A/jinhyeok/loop_TTT/lact/.cache_inductor_llm/uf/cuftsmrr5izsr23hjk2bsfvmizqoxkcku6xbplb5zhyoxp36hurt.py":35:45)
#loc20 = loc("/NHNHOME/WORKSPACE/26msit001_A/jinhyeok/loop_TTT/lact/.cache_inductor_llm/uf/cuftsmrr5izsr23hjk2bsfvmizqoxkcku6xbplb5zhyoxp36hurt.py":35:41)
#loc21 = loc("/NHNHOME/WORKSPACE/26msit001_A/jinhyeok/loop_TTT/lact/.cache_inductor_llm/uf/cuftsmrr5izsr23hjk2bsfvmizqoxkcku6xbplb5zhyoxp36hurt.py":35:34)
#loc22 = loc("/NHNHOME/WORKSPACE/26msit001_A/jinhyeok/loop_TTT/lact/.cache_inductor_llm/uf/cuftsmrr5izsr23hjk2bsfvmizqoxkcku6xbplb5zhyoxp36hurt.py":35:60)
#loc23 = loc("/NHNHOME/WORKSPACE/26msit001_A/jinhyeok/loop_TTT/lact/.cache_inductor_llm/uf/cuftsmrr5izsr23hjk2bsfvmizqoxkcku6xbplb5zhyoxp36hurt.py":35:50)
#loc24 = loc("/NHNHOME/WORKSPACE/26msit001_A/jinhyeok/loop_TTT/lact/.cache_inductor_llm/uf/cuftsmrr5izsr23hjk2bsfvmizqoxkcku6xbplb5zhyoxp36hurt.py":36:42)
#loc25 = loc("/NHNHOME/WORKSPACE/26msit001_A/jinhyeok/loop_TTT/lact/.cache_inductor_llm/uf/cuftsmrr5izsr23hjk2bsfvmizqoxkcku6xbplb5zhyoxp36hurt.py":36:38)
#loc26 = loc("/NHNHOME/WORKSPACE/26msit001_A/jinhyeok/loop_TTT/lact/.cache_inductor_llm/uf/cuftsmrr5izsr23hjk2bsfvmizqoxkcku6xbplb5zhyoxp36hurt.py":36:31)
#loc27 = loc("/NHNHOME/WORKSPACE/26msit001_A/jinhyeok/loop_TTT/lact/.cache_inductor_llm/uf/cuftsmrr5izsr23hjk2bsfvmizqoxkcku6xbplb5zhyoxp36hurt.py":36:57)
#loc28 = loc("/NHNHOME/WORKSPACE/26msit001_A/jinhyeok/loop_TTT/lact/.cache_inductor_llm/uf/cuftsmrr5izsr23hjk2bsfvmizqoxkcku6xbplb5zhyoxp36hurt.py":36:47)
#loc29 = loc("/NHNHOME/WORKSPACE/26msit001_A/jinhyeok/loop_TTT/lact/.cache_inductor_llm/uf/cuftsmrr5izsr23hjk2bsfvmizqoxkcku6xbplb5zhyoxp36hurt.py":36:78)
#loc30 = loc("/NHNHOME/WORKSPACE/26msit001_A/jinhyeok/loop_TTT/lact/.cache_inductor_llm/uf/cuftsmrr5izsr23hjk2bsfvmizqoxkcku6xbplb5zhyoxp36hurt.py":37:42)
#loc31 = loc("/NHNHOME/WORKSPACE/26msit001_A/jinhyeok/loop_TTT/lact/.cache_inductor_llm/uf/cuftsmrr5izsr23hjk2bsfvmizqoxkcku6xbplb5zhyoxp36hurt.py":37:38)
#loc32 = loc("/NHNHOME/WORKSPACE/26msit001_A/jinhyeok/loop_TTT/lact/.cache_inductor_llm/uf/cuftsmrr5izsr23hjk2bsfvmizqoxkcku6xbplb5zhyoxp36hurt.py":37:31)
#loc33 = loc("/NHNHOME/WORKSPACE/26msit001_A/jinhyeok/loop_TTT/lact/.cache_inductor_llm/uf/cuftsmrr5izsr23hjk2bsfvmizqoxkcku6xbplb5zhyoxp36hurt.py":37:57)
#loc34 = loc("/NHNHOME/WORKSPACE/26msit001_A/jinhyeok/loop_TTT/lact/.cache_inductor_llm/uf/cuftsmrr5izsr23hjk2bsfvmizqoxkcku6xbplb5zhyoxp36hurt.py":37:47)
#loc35 = loc("/NHNHOME/WORKSPACE/26msit001_A/jinhyeok/loop_TTT/lact/.cache_inductor_llm/uf/cuftsmrr5izsr23hjk2bsfvmizqoxkcku6xbplb5zhyoxp36hurt.py":37:78)
#loc36 = loc("/NHNHOME/WORKSPACE/26msit001_A/jinhyeok/loop_TTT/lact/.cache_inductor_llm/uf/cuftsmrr5izsr23hjk2bsfvmizqoxkcku6xbplb5zhyoxp36hurt.py":38:42)
#loc37 = loc("/NHNHOME/WORKSPACE/26msit001_A/jinhyeok/loop_TTT/lact/.cache_inductor_llm/uf/cuftsmrr5izsr23hjk2bsfvmizqoxkcku6xbplb5zhyoxp36hurt.py":38:38)
#loc38 = loc("/NHNHOME/WORKSPACE/26msit001_A/jinhyeok/loop_TTT/lact/.cache_inductor_llm/uf/cuftsmrr5izsr23hjk2bsfvmizqoxkcku6xbplb5zhyoxp36hurt.py":38:31)
#loc39 = loc("/NHNHOME/WORKSPACE/26msit001_A/jinhyeok/loop_TTT/lact/.cache_inductor_llm/uf/cuftsmrr5izsr23hjk2bsfvmizqoxkcku6xbplb5zhyoxp36hurt.py":38:57)
#loc40 = loc("/NHNHOME/WORKSPACE/26msit001_A/jinhyeok/loop_TTT/lact/.cache_inductor_llm/uf/cuftsmrr5izsr23hjk2bsfvmizqoxkcku6xbplb5zhyoxp36hurt.py":38:47)
#loc41 = loc("/NHNHOME/WORKSPACE/26msit001_A/jinhyeok/loop_TTT/lact/.cache_inductor_llm/uf/cuftsmrr5izsr23hjk2bsfvmizqoxkcku6xbplb5zhyoxp36hurt.py":38:78)
#loc42 = loc("/NHNHOME/WORKSPACE/26msit001_A/jinhyeok/loop_TTT/lact/.cache_inductor_llm/uf/cuftsmrr5izsr23hjk2bsfvmizqoxkcku6xbplb5zhyoxp36hurt.py":40:18)
#loc43 = loc("/NHNHOME/WORKSPACE/26msit001_A/jinhyeok/loop_TTT/lact/.cache_inductor_llm/uf/cuftsmrr5izsr23hjk2bsfvmizqoxkcku6xbplb5zhyoxp36hurt.py":42:30)
#loc44 = loc("/NHNHOME/WORKSPACE/26msit001_A/jinhyeok/loop_TTT/lact/.cache_inductor_llm/uf/cuftsmrr5izsr23hjk2bsfvmizqoxkcku6xbplb5zhyoxp36hurt.py":42:43)
#loc45 = loc("/NHNHOME/WORKSPACE/26msit001_A/jinhyeok/loop_TTT/lact/.cache_inductor_llm/uf/cuftsmrr5izsr23hjk2bsfvmizqoxkcku6xbplb5zhyoxp36hurt.py":43:24)
#loc46 = loc("/NHNHOME/WORKSPACE/26msit001_A/jinhyeok/loop_TTT/lact/.cache_inductor_llm/uf/cuftsmrr5izsr23hjk2bsfvmizqoxkcku6xbplb5zhyoxp36hurt.py":43:27)
#loc47 = loc("/NHNHOME/WORKSPACE/26msit001_A/jinhyeok/loop_TTT/lact/.cache_inductor_llm/uf/cuftsmrr5izsr23hjk2bsfvmizqoxkcku6xbplb5zhyoxp36hurt.py":44:26)
#loc48 = loc("/NHNHOME/WORKSPACE/26msit001_A/jinhyeok/loop_TTT/lact/.cache_inductor_llm/uf/cuftsmrr5izsr23hjk2bsfvmizqoxkcku6xbplb5zhyoxp36hurt.py":45:11)
#loc49 = loc("/NHNHOME/WORKSPACE/26msit001_A/jinhyeok/loop_TTT/lact/.cache_inductor_llm/uf/cuftsmrr5izsr23hjk2bsfvmizqoxkcku6xbplb5zhyoxp36hurt.py":46:19)
#loc50 = loc("/NHNHOME/WORKSPACE/26msit001_A/jinhyeok/loop_TTT/lact/.cache_inductor_llm/uf/cuftsmrr5izsr23hjk2bsfvmizqoxkcku6xbplb5zhyoxp36hurt.py":48:20)
#loc51 = loc("/NHNHOME/WORKSPACE/26msit001_A/jinhyeok/loop_TTT/lact/.cache_inductor_llm/uf/cuftsmrr5izsr23hjk2bsfvmizqoxkcku6xbplb5zhyoxp36hurt.py":49:12)
#loc52 = loc("/NHNHOME/WORKSPACE/26msit001_A/jinhyeok/loop_TTT/lact/.cache_inductor_llm/uf/cuftsmrr5izsr23hjk2bsfvmizqoxkcku6xbplb5zhyoxp36hurt.py":50:20)
#loc53 = loc("/NHNHOME/WORKSPACE/26msit001_A/jinhyeok/loop_TTT/lact/.cache_inductor_llm/uf/cuftsmrr5izsr23hjk2bsfvmizqoxkcku6xbplb5zhyoxp36hurt.py":52:20)
#loc54 = loc("/NHNHOME/WORKSPACE/26msit001_A/jinhyeok/loop_TTT/lact/.cache_inductor_llm/uf/cuftsmrr5izsr23hjk2bsfvmizqoxkcku6xbplb5zhyoxp36hurt.py":53:12)
#loc55 = loc("/NHNHOME/WORKSPACE/26msit001_A/jinhyeok/loop_TTT/lact/.cache_inductor_llm/uf/cuftsmrr5izsr23hjk2bsfvmizqoxkcku6xbplb5zhyoxp36hurt.py":54:20)
#loc56 = loc("/NHNHOME/WORKSPACE/26msit001_A/jinhyeok/loop_TTT/lact/.cache_inductor_llm/uf/cuftsmrr5izsr23hjk2bsfvmizqoxkcku6xbplb5zhyoxp36hurt.py":56:20)
#loc57 = loc("/NHNHOME/WORKSPACE/26msit001_A/jinhyeok/loop_TTT/lact/.cache_inductor_llm/uf/cuftsmrr5izsr23hjk2bsfvmizqoxkcku6xbplb5zhyoxp36hurt.py":57:19)
#loc58 = loc("/NHNHOME/WORKSPACE/26msit001_A/jinhyeok/loop_TTT/lact/.cache_inductor_llm/uf/cuftsmrr5izsr23hjk2bsfvmizqoxkcku6xbplb5zhyoxp36hurt.py":58:20)
#loc59 = loc("/NHNHOME/WORKSPACE/26msit001_A/jinhyeok/loop_TTT/lact/.cache_inductor_llm/uf/cuftsmrr5izsr23hjk2bsfvmizqoxkcku6xbplb5zhyoxp36hurt.py":60:31)
#loc60 = loc("/NHNHOME/WORKSPACE/26msit001_A/jinhyeok/loop_TTT/lact/.cache_inductor_llm/uf/cuftsmrr5izsr23hjk2bsfvmizqoxkcku6xbplb5zhyoxp36hurt.py":60:45)
#loc61 = loc("/NHNHOME/WORKSPACE/26msit001_A/jinhyeok/loop_TTT/lact/.cache_inductor_llm/uf/cuftsmrr5izsr23hjk2bsfvmizqoxkcku6xbplb5zhyoxp36hurt.py":61:26)
#loc62 = loc("/NHNHOME/WORKSPACE/26msit001_A/jinhyeok/loop_TTT/lact/.cache_inductor_llm/uf/cuftsmrr5izsr23hjk2bsfvmizqoxkcku6xbplb5zhyoxp36hurt.py":61:29)
#loc63 = loc("/NHNHOME/WORKSPACE/26msit001_A/jinhyeok/loop_TTT/lact/.cache_inductor_llm/uf/cuftsmrr5izsr23hjk2bsfvmizqoxkcku6xbplb5zhyoxp36hurt.py":62:27)
#loc64 = loc("/NHNHOME/WORKSPACE/26msit001_A/jinhyeok/loop_TTT/lact/.cache_inductor_llm/uf/cuftsmrr5izsr23hjk2bsfvmizqoxkcku6xbplb5zhyoxp36hurt.py":63:12)
#loc65 = loc("/NHNHOME/WORKSPACE/26msit001_A/jinhyeok/loop_TTT/lact/.cache_inductor_llm/uf/cuftsmrr5izsr23hjk2bsfvmizqoxkcku6xbplb5zhyoxp36hurt.py":64:20)
#loc66 = loc("/NHNHOME/WORKSPACE/26msit001_A/jinhyeok/loop_TTT/lact/.cache_inductor_llm/uf/cuftsmrr5izsr23hjk2bsfvmizqoxkcku6xbplb5zhyoxp36hurt.py":65:21)
#loc67 = loc("/NHNHOME/WORKSPACE/26msit001_A/jinhyeok/loop_TTT/lact/.cache_inductor_llm/uf/cuftsmrr5izsr23hjk2bsfvmizqoxkcku6xbplb5zhyoxp36hurt.py":66:20)
#loc68 = loc("/NHNHOME/WORKSPACE/26msit001_A/jinhyeok/loop_TTT/lact/.cache_inductor_llm/uf/cuftsmrr5izsr23hjk2bsfvmizqoxkcku6xbplb5zhyoxp36hurt.py":68:4)
#loc69 = loc("/NHNHOME/WORKSPACE/26msit001_A/jinhyeok/loop_TTT/lact/.cache_inductor_llm/uf/cuftsmrr5izsr23hjk2bsfvmizqoxkcku6xbplb5zhyoxp36hurt.py":69:28)
#loc70 = loc("/NHNHOME/WORKSPACE/26msit001_A/jinhyeok/loop_TTT/lact/.cache_inductor_llm/uf/cuftsmrr5izsr23hjk2bsfvmizqoxkcku6xbplb5zhyoxp36hurt.py":69:39)
#loc71 = loc("/NHNHOME/WORKSPACE/26msit001_A/jinhyeok/loop_TTT/lact/.cache_inductor_llm/uf/cuftsmrr5izsr23hjk2bsfvmizqoxkcku6xbplb5zhyoxp36hurt.py":70:39)
#loc72 = loc("/NHNHOME/WORKSPACE/26msit001_A/jinhyeok/loop_TTT/lact/.cache_inductor_llm/uf/cuftsmrr5izsr23hjk2bsfvmizqoxkcku6xbplb5zhyoxp36hurt.py":70:35)
#loc73 = loc("/NHNHOME/WORKSPACE/26msit001_A/jinhyeok/loop_TTT/lact/.cache_inductor_llm/uf/cuftsmrr5izsr23hjk2bsfvmizqoxkcku6xbplb5zhyoxp36hurt.py":70:28)
#loc74 = loc("/NHNHOME/WORKSPACE/26msit001_A/jinhyeok/loop_TTT/lact/.cache_inductor_llm/uf/cuftsmrr5izsr23hjk2bsfvmizqoxkcku6xbplb5zhyoxp36hurt.py":70:61)
#loc75 = loc("/NHNHOME/WORKSPACE/26msit001_A/jinhyeok/loop_TTT/lact/.cache_inductor_llm/uf/cuftsmrr5izsr23hjk2bsfvmizqoxkcku6xbplb5zhyoxp36hurt.py":70:51)
#loc76 = loc("/NHNHOME/WORKSPACE/26msit001_A/jinhyeok/loop_TTT/lact/.cache_inductor_llm/uf/cuftsmrr5izsr23hjk2bsfvmizqoxkcku6xbplb5zhyoxp36hurt.py":71:4)
#loc77 = loc("/NHNHOME/WORKSPACE/26msit001_A/jinhyeok/loop_TTT/lact/.cache_inductor_llm/uf/cuftsmrr5izsr23hjk2bsfvmizqoxkcku6xbplb5zhyoxp36hurt.py":72:28)
#loc78 = loc("/NHNHOME/WORKSPACE/26msit001_A/jinhyeok/loop_TTT/lact/.cache_inductor_llm/uf/cuftsmrr5izsr23hjk2bsfvmizqoxkcku6xbplb5zhyoxp36hurt.py":72:40)
#loc79 = loc("/NHNHOME/WORKSPACE/26msit001_A/jinhyeok/loop_TTT/lact/.cache_inductor_llm/uf/cuftsmrr5izsr23hjk2bsfvmizqoxkcku6xbplb5zhyoxp36hurt.py":73:36)
#loc80 = loc("/NHNHOME/WORKSPACE/26msit001_A/jinhyeok/loop_TTT/lact/.cache_inductor_llm/uf/cuftsmrr5izsr23hjk2bsfvmizqoxkcku6xbplb5zhyoxp36hurt.py":73:32)
#loc81 = loc("/NHNHOME/WORKSPACE/26msit001_A/jinhyeok/loop_TTT/lact/.cache_inductor_llm/uf/cuftsmrr5izsr23hjk2bsfvmizqoxkcku6xbplb5zhyoxp36hurt.py":73:25)
#loc82 = loc("/NHNHOME/WORKSPACE/26msit001_A/jinhyeok/loop_TTT/lact/.cache_inductor_llm/uf/cuftsmrr5izsr23hjk2bsfvmizqoxkcku6xbplb5zhyoxp36hurt.py":73:58)
#loc83 = loc("/NHNHOME/WORKSPACE/26msit001_A/jinhyeok/loop_TTT/lact/.cache_inductor_llm/uf/cuftsmrr5izsr23hjk2bsfvmizqoxkcku6xbplb5zhyoxp36hurt.py":73:48)
#loc84 = loc("/NHNHOME/WORKSPACE/26msit001_A/jinhyeok/loop_TTT/lact/.cache_inductor_llm/uf/cuftsmrr5izsr23hjk2bsfvmizqoxkcku6xbplb5zhyoxp36hurt.py":73:4)
#loc86 = loc("/NHNHOME/WORKSPACE/26msit001_A/jinhyeok/TTT_camera_embedding/.venv_llm/lib/python3.12/site-packages/triton/language/standard.py":291:36)
#loc88 = loc("/NHNHOME/WORKSPACE/26msit001_A/jinhyeok/TTT_camera_embedding/.venv_llm/lib/python3.12/site-packages/triton/language/standard.py":291:11)
#loc89 = loc("/NHNHOME/WORKSPACE/26msit001_A/jinhyeok/TTT_camera_embedding/.venv_llm/lib/python3.12/site-packages/triton/language/standard.py":291:4)
#loc91 = loc("/NHNHOME/WORKSPACE/26msit001_A/jinhyeok/TTT_camera_embedding/.venv_llm/lib/python3.12/site-packages/triton/language/standard.py":261:15)
#loc92 = loc("/NHNHOME/WORKSPACE/26msit001_A/jinhyeok/TTT_camera_embedding/.venv_llm/lib/python3.12/site-packages/triton/language/standard.py":261:11)
#loc93 = loc("/NHNHOME/WORKSPACE/26msit001_A/jinhyeok/TTT_camera_embedding/.venv_llm/lib/python3.12/site-packages/triton/language/standard.py":261:4)
#loc104 = loc("xnumel"(#loc1))
#loc105 = loc("r0_numel"(#loc2))
#loc106 = loc("xoffset"(#loc3))
#loc107 = loc("xoffset"(#loc4))
#loc108 = loc("xindex"(#loc5))
#loc109 = loc("xindex"(#loc6))
#loc110 = loc("xindex"(#loc7))
#loc111 = loc("xmask"(#loc8))
#loc112 = loc("r0_index"(#loc9))
#loc113 = loc("r0_index"(#loc10))
#loc114 = loc("r0_offset"(#loc11))
#loc115 = loc("r0_mask"(#loc12))
#loc116 = loc("tmp0"(#loc13))
#loc117 = loc("tmp0"(#loc14))
#loc118 = loc("tmp0"(#loc15))
#loc119 = loc("tmp0"(#loc16))
#loc120 = loc("tmp0"(#loc17))
#loc121 = loc("tmp0"(#loc18))
#loc122 = loc("tmp8"(#loc19))
#loc123 = loc("tmp8"(#loc20))
#loc124 = loc("tmp8"(#loc21))
#loc125 = loc("tmp8"(#loc22))
#loc126 = loc("tmp8"(#loc23))
#loc127 = loc("tmp11"(#loc24))
#loc128 = loc("tmp11"(#loc25))
#loc129 = loc("tmp11"(#loc26))
#loc130 = loc("tmp11"(#loc27))
#loc131 = loc("tmp11"(#loc28))
#loc132 = loc("tmp11"(#loc29))
#loc133 = loc("tmp16"(#loc30))
#loc134 = loc("tmp16"(#loc31))
#loc135 = loc("tmp16"(#loc32))
#loc136 = loc("tmp16"(#loc33))
#loc137 = loc("tmp16"(#loc34))
#loc138 = loc("tmp16"(#loc35))
#loc139 = loc("tmp21"(#loc36))
#loc140 = loc("tmp21"(#loc37))
#loc141 = loc("tmp21"(#loc38))
#loc142 = loc("tmp21"(#loc39))
#loc143 = loc("tmp21"(#loc40))
#loc144 = loc("tmp21"(#loc41))
#loc145 = loc("tmp2"(#loc42))
#loc146 = loc("tmp5"(#loc43))
#loc147 = loc("tmp5"(#loc44))
#loc148 = loc("tmp6"(#loc45))
#loc149 = loc("tmp6"(#loc46))
#loc150 = loc("tmp7"(#loc47))
#loc151 = loc("tmp9"(#loc48))
#loc152 = loc("tmp10"(#loc49))
#loc153 = loc("tmp13"(#loc50))
#loc154 = loc("tmp14"(#loc51))
#loc155 = loc("tmp15"(#loc52))
#loc156 = loc("tmp18"(#loc53))
#loc157 = loc("tmp19"(#loc54))
#loc158 = loc("tmp20"(#loc55))
#loc159 = loc("tmp23"(#loc56))
#loc160 = loc("tmp24"(#loc57))
#loc161 = loc("tmp25"(#loc58))
#loc162 = loc("tmp28"(#loc59))
#loc163 = loc("tmp28"(#loc60))
#loc164 = loc("tmp29"(#loc61))
#loc165 = loc("tmp29"(#loc62))
#loc166 = loc("tmp30"(#loc63))
#loc167 = loc("tmp31"(#loc64))
#loc168 = loc("tmp32"(#loc65))
#loc169 = loc("tmp33"(#loc66))
#loc170 = loc("tmp34"(#loc67))
