#loc = loc("/NHNHOME/WORKSPACE/26msit001_A/jinhyeok/loop_TTT/lact/.cache_inductor_llm/gz/cgzvap6qgjauj2lo2uy74pzvfhebtmujbowjlkfd3k42zcbbi3am.py":18:0)
#loc140 = loc("in_out_ptr0"(#loc))
#loc141 = loc("in_out_ptr1"(#loc))
#loc142 = loc("in_ptr0"(#loc))
#loc143 = loc("in_ptr1"(#loc))
#loc144 = loc("in_ptr2"(#loc))
#loc145 = loc("in_ptr3"(#loc))
#loc146 = loc("in_ptr4"(#loc))
#loc147 = loc("in_ptr5"(#loc))
#loc148 = loc("in_ptr6"(#loc))
#loc149 = loc("in_ptr7"(#loc))
#loc150 = loc("in_ptr8"(#loc))
#loc151 = loc("in_ptr9"(#loc))
#loc152 = loc("in_ptr10"(#loc))
#loc153 = loc("in_ptr11"(#loc))
#loc154 = loc("in_ptr12"(#loc))
#loc155 = loc("in_ptr13"(#loc))
#loc156 = loc("in_ptr14"(#loc))
#loc157 = loc("in_ptr15"(#loc))
#loc158 = loc("out_ptr0"(#loc))
#loc159 = loc("out_ptr1"(#loc))
#loc160 = loc("ynumel"(#loc))
#loc161 = loc("xnumel"(#loc))
module {
  tt.func public @triton_poi_fused__to_copy_add_div_eq_masked_fill_mul_transpose_zeros_like_33(%in_out_ptr0: !tt.ptr<bf16> {tt.divisibility = 16 : i32} loc("in_out_ptr0"(#loc)), %in_out_ptr1: !tt.ptr<bf16> {tt.divisibility = 16 : i32} loc("in_out_ptr1"(#loc)), %in_ptr0: !tt.ptr<f32> {tt.divisibility = 16 : i32} loc("in_ptr0"(#loc)), %in_ptr1: !tt.ptr<bf16> {tt.divisibility = 16 : i32} loc("in_ptr1"(#loc)), %in_ptr2: !tt.ptr<bf16> {tt.divisibility = 16 : i32} loc("in_ptr2"(#loc)), %in_ptr3: !tt.ptr<f32> {tt.divisibility = 16 : i32} loc("in_ptr3"(#loc)), %in_ptr4: !tt.ptr<f32> {tt.divisibility = 16 : i32} loc("in_ptr4"(#loc)), %in_ptr5: !tt.ptr<bf16> {tt.divisibility = 16 : i32} loc("in_ptr5"(#loc)), %in_ptr6: !tt.ptr<f32> {tt.divisibility = 16 : i32} loc("in_ptr6"(#loc)), %in_ptr7: !tt.ptr<f32> {tt.divisibility = 16 : i32} loc("in_ptr7"(#loc)), %in_ptr8: !tt.ptr<f32> {tt.divisibility = 16 : i32} loc("in_ptr8"(#loc)), %in_ptr9: !tt.ptr<f32> {tt.divisibility = 16 : i32} loc("in_ptr9"(#loc)), %in_ptr10: !tt.ptr<bf16> {tt.divisibility = 16 : i32} loc("in_ptr10"(#loc)), %in_ptr11: !tt.ptr<bf16> {tt.divisibility = 16 : i32} loc("in_ptr11"(#loc)), %in_ptr12: !tt.ptr<f32> {tt.divisibility = 16 : i32} loc("in_ptr12"(#loc)), %in_ptr13: !tt.ptr<f32> {tt.divisibility = 16 : i32} loc("in_ptr13"(#loc)), %in_ptr14: !tt.ptr<bf16> {tt.divisibility = 16 : i32} loc("in_ptr14"(#loc)), %in_ptr15: !tt.ptr<f32> {tt.divisibility = 16 : i32} loc("in_ptr15"(#loc)), %out_ptr0: !tt.ptr<bf16> {tt.divisibility = 16 : i32} loc("out_ptr0"(#loc)), %out_ptr1: !tt.ptr<bf16> {tt.divisibility = 16 : i32} loc("out_ptr1"(#loc)), %ynumel: i32 {tt.divisibility = 16 : i32} loc("ynumel"(#loc)), %xnumel: i32 {tt.divisibility = 16 : i32} loc("xnumel"(#loc))) attributes {noinline = false} {
    %ynumel_0 = arith.constant 18432 : i32 loc(#loc162)
    %xnumel_1 = arith.constant 192 : i32 loc(#loc163)
    %yoffset = tt.get_program_id y : i32 loc(#loc164)
    %yoffset_2 = arith.constant 1024 : i32 loc(#loc165)
    %yoffset_3 = arith.constant 1024 : i32 loc(#loc165)
    %yoffset_4 = arith.muli %yoffset, %yoffset_3 : i32 loc(#loc165)
    %yindex = tt.make_range {end = 1024 : i32, start = 0 : i32} : tensor<1024xi32> loc(#loc166)
    %yindex_5 = tt.expand_dims %yindex {axis = 1 : i32} : tensor<1024xi32> -> tensor<1024x1xi32> loc(#loc167)
    %yindex_6 = tt.splat %yoffset_4 : i32 -> tensor<1024x1xi32> loc(#loc168)
    %yindex_7 = arith.addi %yindex_6, %yindex_5 : tensor<1024x1xi32> loc(#loc168)
    %ymask = arith.constant true loc(#loc169)
    %ymask_8 = arith.constant dense<true> : tensor<1024x1xi1> loc(#loc169)
    %xoffset = tt.get_program_id x : i32 loc(#loc170)
    %xoffset_9 = arith.constant 1 : i32 loc(#loc171)
    %xoffset_10 = arith.constant 1 : i32 loc(#loc171)
    %xoffset_11 = arith.muli %xoffset, %xoffset_10 : i32 loc(#loc171)
    %xindex = tt.make_range {end = 1 : i32, start = 0 : i32} : tensor<1xi32> loc(#loc172)
    %xindex_12 = tt.expand_dims %xindex {axis = 0 : i32} : tensor<1xi32> -> tensor<1x1xi32> loc(#loc173)
    %xindex_13 = tt.splat %xoffset_11 : i32 -> tensor<1x1xi32> loc(#loc174)
    %xindex_14 = arith.addi %xindex_13, %xindex_12 : tensor<1x1xi32> loc(#loc174)
    %xmask = arith.constant dense<192> : tensor<1x1xi32> loc(#loc175)
    %xmask_15 = arith.cmpi slt, %xindex_14, %xmask : tensor<1x1xi32> loc(#loc175)
    %y0 = arith.constant 192 : i32 loc(#loc176)
    %y0_16 = arith.constant 192 : i32 loc(#loc176)
    %y0_17 = arith.constant dense<192> : tensor<1024x1xi32> loc(#loc176)
    %y0_18 = arith.remsi %yindex_7, %y0_17 : tensor<1024x1xi32> loc(#loc176)
    %y1 = arith.constant 192 : i32 loc(#loc177)
    %y1_19 = arith.constant 192 : i32 loc(#loc177)
    %y1_20 = arith.constant dense<192> : tensor<1024x1xi32> loc(#loc177)
    %y1_21 = arith.divsi %yindex_7, %y1_20 : tensor<1024x1xi32> loc(#loc177)
    %tmp0 = arith.constant 192 : i32 loc(#loc178)
    %tmp0_22 = arith.constant 192 : i32 loc(#loc178)
    %tmp0_23 = arith.constant dense<192> : tensor<1024x1xi32> loc(#loc178)
    %tmp0_24 = arith.muli %tmp0_23, %yindex_7 : tensor<1024x1xi32> loc(#loc178)
    %tmp0_25 = tt.broadcast %xindex_14 : tensor<1x1xi32> -> tensor<1024x1xi32> loc(#loc179)
    %tmp0_26 = arith.addi %tmp0_25, %tmp0_24 : tensor<1024x1xi32> loc(#loc179)
    %tmp0_27 = tt.splat %in_out_ptr0 : !tt.ptr<bf16> -> tensor<1024x1x!tt.ptr<bf16>> loc(#loc180)
    %tmp0_28 = tt.addptr %tmp0_27, %tmp0_26 : tensor<1024x1x!tt.ptr<bf16>>, tensor<1024x1xi32> loc(#loc180)
    %tmp0_29 = tt.broadcast %xmask_15 : tensor<1x1xi1> -> tensor<1024x1xi1> loc(#loc181)
    %tmp0_30 = tt.load %tmp0_28, %tmp0_29 evictionPolicy = evict_last : tensor<1024x1x!tt.ptr<bf16>> loc(#loc181)
    %tmp0_31 = arith.extf %tmp0_30 : tensor<1024x1xbf16> to tensor<1024x1xf32> loc(#loc182)
    %tmp2 = arith.constant 192 : i32 loc(#loc183)
    %tmp2_32 = arith.constant 192 : i32 loc(#loc183)
    %tmp2_33 = arith.constant dense<192> : tensor<1024x1xi32> loc(#loc183)
    %tmp2_34 = arith.muli %tmp2_33, %yindex_7 : tensor<1024x1xi32> loc(#loc183)
    %tmp2_35 = tt.broadcast %xindex_14 : tensor<1x1xi32> -> tensor<1024x1xi32> loc(#loc184)
    %tmp2_36 = arith.addi %tmp2_35, %tmp2_34 : tensor<1024x1xi32> loc(#loc184)
    %tmp2_37 = tt.splat %in_ptr0 : !tt.ptr<f32> -> tensor<1024x1x!tt.ptr<f32>> loc(#loc185)
    %tmp2_38 = tt.addptr %tmp2_37, %tmp2_36 : tensor<1024x1x!tt.ptr<f32>>, tensor<1024x1xi32> loc(#loc185)
    %tmp2_39 = tt.broadcast %xmask_15 : tensor<1x1xi1> -> tensor<1024x1xi1> loc(#loc186)
    %tmp2_40 = tt.load %tmp2_38, %tmp2_39 evictionPolicy = evict_last : tensor<1024x1x!tt.ptr<f32>> loc(#loc186)
    %tmp6 = arith.constant 192 : i32 loc(#loc187)
    %tmp6_41 = arith.constant 192 : i32 loc(#loc187)
    %tmp6_42 = arith.constant dense<192> : tensor<1024x1xi32> loc(#loc187)
    %tmp6_43 = arith.muli %tmp6_42, %yindex_7 : tensor<1024x1xi32> loc(#loc187)
    %tmp6_44 = tt.broadcast %xindex_14 : tensor<1x1xi32> -> tensor<1024x1xi32> loc(#loc188)
    %tmp6_45 = arith.addi %tmp6_44, %tmp6_43 : tensor<1024x1xi32> loc(#loc188)
    %tmp6_46 = tt.splat %in_ptr1 : !tt.ptr<bf16> -> tensor<1024x1x!tt.ptr<bf16>> loc(#loc189)
    %tmp6_47 = tt.addptr %tmp6_46, %tmp6_45 : tensor<1024x1x!tt.ptr<bf16>>, tensor<1024x1xi32> loc(#loc189)
    %tmp6_48 = tt.broadcast %xmask_15 : tensor<1x1xi1> -> tensor<1024x1xi1> loc(#loc190)
    %tmp6_49 = tt.load %tmp6_47, %tmp6_48 evictionPolicy = evict_last : tensor<1024x1x!tt.ptr<bf16>> loc(#loc190)
    %tmp6_50 = arith.extf %tmp6_49 : tensor<1024x1xbf16> to tensor<1024x1xf32> loc(#loc191)
    %tmp9 = arith.constant 192 : i32 loc(#loc192)
    %tmp9_51 = arith.constant 192 : i32 loc(#loc192)
    %tmp9_52 = arith.constant dense<192> : tensor<1x1xi32> loc(#loc192)
    %tmp9_53 = arith.muli %tmp9_52, %xindex_14 : tensor<1x1xi32> loc(#loc192)
    %tmp9_54 = tt.broadcast %tmp9_53 : tensor<1x1xi32> -> tensor<1024x1xi32> loc(#loc193)
    %tmp9_55 = arith.addi %y0_18, %tmp9_54 : tensor<1024x1xi32> loc(#loc193)
    %tmp9_56 = arith.constant 36864 : i32 loc(#loc194)
    %tmp9_57 = arith.constant 36864 : i32 loc(#loc194)
    %tmp9_58 = arith.constant dense<36864> : tensor<1024x1xi32> loc(#loc194)
    %tmp9_59 = arith.muli %tmp9_58, %y1_21 : tensor<1024x1xi32> loc(#loc194)
    %tmp9_60 = arith.addi %tmp9_55, %tmp9_59 : tensor<1024x1xi32> loc(#loc195)
    %tmp9_61 = tt.splat %in_ptr2 : !tt.ptr<bf16> -> tensor<1024x1x!tt.ptr<bf16>> loc(#loc196)
    %tmp9_62 = tt.addptr %tmp9_61, %tmp9_60 : tensor<1024x1x!tt.ptr<bf16>>, tensor<1024x1xi32> loc(#loc196)
    %tmp9_63 = tt.broadcast %xmask_15 : tensor<1x1xi1> -> tensor<1024x1xi1> loc(#loc197)
    %tmp9_64 = tt.load %tmp9_62, %tmp9_63 evictionPolicy = evict_last : tensor<1024x1x!tt.ptr<bf16>> loc(#loc197)
    %tmp9_65 = arith.extf %tmp9_64 : tensor<1024x1xbf16> to tensor<1024x1xf32> loc(#loc198)
    %tmp12 = tt.splat %in_ptr3 : !tt.ptr<f32> -> tensor<1024x1x!tt.ptr<f32>> loc(#loc199)
    %tmp12_66 = tt.addptr %tmp12, %y1_21 : tensor<1024x1x!tt.ptr<f32>>, tensor<1024x1xi32> loc(#loc199)
    %tmp12_67 = tt.load %tmp12_66 evictionPolicy = evict_last : tensor<1024x1x!tt.ptr<f32>> loc(#loc200)
    %tmp17 = tt.splat %in_ptr4 : !tt.ptr<f32> -> tensor<1024x1x!tt.ptr<f32>> loc(#loc201)
    %tmp17_68 = tt.addptr %tmp17, %y1_21 : tensor<1024x1x!tt.ptr<f32>>, tensor<1024x1xi32> loc(#loc201)
    %tmp17_69 = tt.load %tmp17_68 evictionPolicy = evict_last : tensor<1024x1x!tt.ptr<f32>> loc(#loc202)
    %tmp20 = arith.constant 192 : i32 loc(#loc203)
    %tmp20_70 = arith.constant 192 : i32 loc(#loc203)
    %tmp20_71 = arith.constant dense<192> : tensor<1024x1xi32> loc(#loc203)
    %tmp20_72 = arith.muli %tmp20_71, %yindex_7 : tensor<1024x1xi32> loc(#loc203)
    %tmp20_73 = tt.broadcast %xindex_14 : tensor<1x1xi32> -> tensor<1024x1xi32> loc(#loc204)
    %tmp20_74 = arith.addi %tmp20_73, %tmp20_72 : tensor<1024x1xi32> loc(#loc204)
    %tmp20_75 = tt.splat %in_ptr5 : !tt.ptr<bf16> -> tensor<1024x1x!tt.ptr<bf16>> loc(#loc205)
    %tmp20_76 = tt.addptr %tmp20_75, %tmp20_74 : tensor<1024x1x!tt.ptr<bf16>>, tensor<1024x1xi32> loc(#loc205)
    %tmp20_77 = tt.broadcast %xmask_15 : tensor<1x1xi1> -> tensor<1024x1xi1> loc(#loc206)
    %tmp20_78 = tt.load %tmp20_76, %tmp20_77 evictionPolicy = evict_last : tensor<1024x1x!tt.ptr<bf16>> loc(#loc206)
    %tmp20_79 = arith.extf %tmp20_78 : tensor<1024x1xbf16> to tensor<1024x1xf32> loc(#loc207)
    %tmp22 = tt.splat %in_ptr6 : !tt.ptr<f32> -> tensor<1024x1x!tt.ptr<f32>> loc(#loc208)
    %tmp22_80 = tt.addptr %tmp22, %y1_21 : tensor<1024x1x!tt.ptr<f32>>, tensor<1024x1xi32> loc(#loc208)
    %tmp22_81 = tt.load %tmp22_80 evictionPolicy = evict_last : tensor<1024x1x!tt.ptr<f32>> loc(#loc209)
    %tmp32 = arith.constant 192 : i32 loc(#loc210)
    %tmp32_82 = arith.constant 192 : i32 loc(#loc210)
    %tmp32_83 = arith.constant dense<192> : tensor<1024x1xi32> loc(#loc210)
    %tmp32_84 = arith.muli %tmp32_83, %yindex_7 : tensor<1024x1xi32> loc(#loc210)
    %tmp32_85 = tt.broadcast %xindex_14 : tensor<1x1xi32> -> tensor<1024x1xi32> loc(#loc211)
    %tmp32_86 = arith.addi %tmp32_85, %tmp32_84 : tensor<1024x1xi32> loc(#loc211)
    %tmp32_87 = tt.splat %in_ptr7 : !tt.ptr<f32> -> tensor<1024x1x!tt.ptr<f32>> loc(#loc212)
    %tmp32_88 = tt.addptr %tmp32_87, %tmp32_86 : tensor<1024x1x!tt.ptr<f32>>, tensor<1024x1xi32> loc(#loc212)
    %tmp32_89 = tt.broadcast %xmask_15 : tensor<1x1xi1> -> tensor<1024x1xi1> loc(#loc213)
    %tmp32_90 = tt.load %tmp32_88, %tmp32_89 evictionPolicy = evict_last : tensor<1024x1x!tt.ptr<f32>> loc(#loc213)
    %tmp33 = tt.splat %in_ptr8 : !tt.ptr<f32> -> tensor<1024x1x!tt.ptr<f32>> loc(#loc214)
    %tmp33_91 = tt.addptr %tmp33, %y1_21 : tensor<1024x1x!tt.ptr<f32>>, tensor<1024x1xi32> loc(#loc214)
    %tmp33_92 = tt.load %tmp33_91 evictionPolicy = evict_last : tensor<1024x1x!tt.ptr<f32>> loc(#loc215)
    %tmp38 = arith.constant 192 : i32 loc(#loc216)
    %tmp38_93 = arith.constant 192 : i32 loc(#loc216)
    %tmp38_94 = arith.constant dense<192> : tensor<1024x1xi32> loc(#loc216)
    %tmp38_95 = arith.muli %tmp38_94, %yindex_7 : tensor<1024x1xi32> loc(#loc216)
    %tmp38_96 = tt.broadcast %xindex_14 : tensor<1x1xi32> -> tensor<1024x1xi32> loc(#loc217)
    %tmp38_97 = arith.addi %tmp38_96, %tmp38_95 : tensor<1024x1xi32> loc(#loc217)
    %tmp38_98 = tt.splat %in_out_ptr1 : !tt.ptr<bf16> -> tensor<1024x1x!tt.ptr<bf16>> loc(#loc218)
    %tmp38_99 = tt.addptr %tmp38_98, %tmp38_97 : tensor<1024x1x!tt.ptr<bf16>>, tensor<1024x1xi32> loc(#loc218)
    %tmp38_100 = tt.broadcast %xmask_15 : tensor<1x1xi1> -> tensor<1024x1xi1> loc(#loc219)
    %tmp38_101 = tt.load %tmp38_99, %tmp38_100 evictionPolicy = evict_last : tensor<1024x1x!tt.ptr<bf16>> loc(#loc219)
    %tmp38_102 = arith.extf %tmp38_101 : tensor<1024x1xbf16> to tensor<1024x1xf32> loc(#loc220)
    %tmp40 = arith.constant 192 : i32 loc(#loc221)
    %tmp40_103 = arith.constant 192 : i32 loc(#loc221)
    %tmp40_104 = arith.constant dense<192> : tensor<1024x1xi32> loc(#loc221)
    %tmp40_105 = arith.muli %tmp40_104, %yindex_7 : tensor<1024x1xi32> loc(#loc221)
    %tmp40_106 = tt.broadcast %xindex_14 : tensor<1x1xi32> -> tensor<1024x1xi32> loc(#loc222)
    %tmp40_107 = arith.addi %tmp40_106, %tmp40_105 : tensor<1024x1xi32> loc(#loc222)
    %tmp40_108 = tt.splat %in_ptr9 : !tt.ptr<f32> -> tensor<1024x1x!tt.ptr<f32>> loc(#loc223)
    %tmp40_109 = tt.addptr %tmp40_108, %tmp40_107 : tensor<1024x1x!tt.ptr<f32>>, tensor<1024x1xi32> loc(#loc223)
    %tmp40_110 = tt.broadcast %xmask_15 : tensor<1x1xi1> -> tensor<1024x1xi1> loc(#loc224)
    %tmp40_111 = tt.load %tmp40_109, %tmp40_110 evictionPolicy = evict_last : tensor<1024x1x!tt.ptr<f32>> loc(#loc224)
    %tmp43 = arith.constant 192 : i32 loc(#loc225)
    %tmp43_112 = arith.constant 192 : i32 loc(#loc225)
    %tmp43_113 = arith.constant dense<192> : tensor<1024x1xi32> loc(#loc225)
    %tmp43_114 = arith.muli %tmp43_113, %yindex_7 : tensor<1024x1xi32> loc(#loc225)
    %tmp43_115 = tt.broadcast %xindex_14 : tensor<1x1xi32> -> tensor<1024x1xi32> loc(#loc226)
    %tmp43_116 = arith.addi %tmp43_115, %tmp43_114 : tensor<1024x1xi32> loc(#loc226)
    %tmp43_117 = tt.splat %in_ptr10 : !tt.ptr<bf16> -> tensor<1024x1x!tt.ptr<bf16>> loc(#loc227)
    %tmp43_118 = tt.addptr %tmp43_117, %tmp43_116 : tensor<1024x1x!tt.ptr<bf16>>, tensor<1024x1xi32> loc(#loc227)
    %tmp43_119 = tt.broadcast %xmask_15 : tensor<1x1xi1> -> tensor<1024x1xi1> loc(#loc228)
    %tmp43_120 = tt.load %tmp43_118, %tmp43_119 evictionPolicy = evict_last : tensor<1024x1x!tt.ptr<bf16>> loc(#loc228)
    %tmp43_121 = arith.extf %tmp43_120 : tensor<1024x1xbf16> to tensor<1024x1xf32> loc(#loc229)
    %tmp46 = arith.constant 192 : i32 loc(#loc230)
    %tmp46_122 = arith.constant 192 : i32 loc(#loc230)
    %tmp46_123 = arith.constant dense<192> : tensor<1x1xi32> loc(#loc230)
    %tmp46_124 = arith.muli %tmp46_123, %xindex_14 : tensor<1x1xi32> loc(#loc230)
    %tmp46_125 = tt.broadcast %tmp46_124 : tensor<1x1xi32> -> tensor<1024x1xi32> loc(#loc231)
    %tmp46_126 = arith.addi %y0_18, %tmp46_125 : tensor<1024x1xi32> loc(#loc231)
    %tmp46_127 = arith.constant 36864 : i32 loc(#loc232)
    %tmp46_128 = arith.constant 36864 : i32 loc(#loc232)
    %tmp46_129 = arith.constant dense<36864> : tensor<1024x1xi32> loc(#loc232)
    %tmp46_130 = arith.muli %tmp46_129, %y1_21 : tensor<1024x1xi32> loc(#loc232)
    %tmp46_131 = arith.addi %tmp46_126, %tmp46_130 : tensor<1024x1xi32> loc(#loc233)
    %tmp46_132 = tt.splat %in_ptr11 : !tt.ptr<bf16> -> tensor<1024x1x!tt.ptr<bf16>> loc(#loc234)
    %tmp46_133 = tt.addptr %tmp46_132, %tmp46_131 : tensor<1024x1x!tt.ptr<bf16>>, tensor<1024x1xi32> loc(#loc234)
    %tmp46_134 = tt.broadcast %xmask_15 : tensor<1x1xi1> -> tensor<1024x1xi1> loc(#loc235)
    %tmp46_135 = tt.load %tmp46_133, %tmp46_134 evictionPolicy = evict_last : tensor<1024x1x!tt.ptr<bf16>> loc(#loc235)
    %tmp46_136 = arith.extf %tmp46_135 : tensor<1024x1xbf16> to tensor<1024x1xf32> loc(#loc236)
    %tmp49 = tt.splat %in_ptr12 : !tt.ptr<f32> -> tensor<1024x1x!tt.ptr<f32>> loc(#loc237)
    %tmp49_137 = tt.addptr %tmp49, %y1_21 : tensor<1024x1x!tt.ptr<f32>>, tensor<1024x1xi32> loc(#loc237)
    %tmp49_138 = tt.load %tmp49_137 evictionPolicy = evict_last : tensor<1024x1x!tt.ptr<f32>> loc(#loc238)
    %tmp53 = tt.splat %in_ptr13 : !tt.ptr<f32> -> tensor<1024x1x!tt.ptr<f32>> loc(#loc239)
    %tmp53_139 = tt.addptr %tmp53, %y1_21 : tensor<1024x1x!tt.ptr<f32>>, tensor<1024x1xi32> loc(#loc239)
    %tmp53_140 = tt.load %tmp53_139 evictionPolicy = evict_last : tensor<1024x1x!tt.ptr<f32>> loc(#loc240)
    %tmp55 = arith.constant 192 : i32 loc(#loc241)
    %tmp55_141 = arith.constant 192 : i32 loc(#loc241)
    %tmp55_142 = arith.constant dense<192> : tensor<1024x1xi32> loc(#loc241)
    %tmp55_143 = arith.muli %tmp55_142, %yindex_7 : tensor<1024x1xi32> loc(#loc241)
    %tmp55_144 = tt.broadcast %xindex_14 : tensor<1x1xi32> -> tensor<1024x1xi32> loc(#loc242)
    %tmp55_145 = arith.addi %tmp55_144, %tmp55_143 : tensor<1024x1xi32> loc(#loc242)
    %tmp55_146 = tt.splat %in_ptr14 : !tt.ptr<bf16> -> tensor<1024x1x!tt.ptr<bf16>> loc(#loc243)
    %tmp55_147 = tt.addptr %tmp55_146, %tmp55_145 : tensor<1024x1x!tt.ptr<bf16>>, tensor<1024x1xi32> loc(#loc243)
    %tmp55_148 = tt.broadcast %xmask_15 : tensor<1x1xi1> -> tensor<1024x1xi1> loc(#loc244)
    %tmp55_149 = tt.load %tmp55_147, %tmp55_148 evictionPolicy = evict_last : tensor<1024x1x!tt.ptr<bf16>> loc(#loc244)
    %tmp55_150 = arith.extf %tmp55_149 : tensor<1024x1xbf16> to tensor<1024x1xf32> loc(#loc245)
    %tmp65 = arith.constant 192 : i32 loc(#loc246)
    %tmp65_151 = arith.constant 192 : i32 loc(#loc246)
    %tmp65_152 = arith.constant dense<192> : tensor<1024x1xi32> loc(#loc246)
    %tmp65_153 = arith.muli %tmp65_152, %yindex_7 : tensor<1024x1xi32> loc(#loc246)
    %tmp65_154 = tt.broadcast %xindex_14 : tensor<1x1xi32> -> tensor<1024x1xi32> loc(#loc247)
    %tmp65_155 = arith.addi %tmp65_154, %tmp65_153 : tensor<1024x1xi32> loc(#loc247)
    %tmp65_156 = tt.splat %in_ptr15 : !tt.ptr<f32> -> tensor<1024x1x!tt.ptr<f32>> loc(#loc248)
    %tmp65_157 = tt.addptr %tmp65_156, %tmp65_155 : tensor<1024x1x!tt.ptr<f32>>, tensor<1024x1xi32> loc(#loc248)
    %tmp65_158 = tt.broadcast %xmask_15 : tensor<1x1xi1> -> tensor<1024x1xi1> loc(#loc249)
    %tmp65_159 = tt.load %tmp65_157, %tmp65_158 evictionPolicy = evict_last : tensor<1024x1x!tt.ptr<f32>> loc(#loc249)
    %tmp3 = arith.constant 4.084800e+00 : f32 loc(#loc250)
    %tmp4 = arith.constant dense<4.084800e+00> : tensor<1024x1xf32> loc(#loc251)
    %tmp4_160 = arith.mulf %tmp2_40, %tmp4 : tensor<1024x1xf32> loc(#loc251)
    %tmp5 = arith.addf %tmp0_31, %tmp4_160 : tensor<1024x1xf32> loc(#loc252)
    %tmp8 = arith.addf %tmp5, %tmp6_50 : tensor<1024x1xf32> loc(#loc253)
    %tmp11 = arith.addf %tmp8, %tmp9_65 : tensor<1024x1xf32> loc(#loc254)
    %tmp13 = arith.constant 1.000000e-07 : f32 loc(#loc255)
    %tmp14 = arith.constant dense<1.000000e-07> : tensor<1024x1xf32> loc(#loc256)
    %tmp14_161 = arith.addf %tmp12_67, %tmp14 : tensor<1024x1xf32> loc(#loc256)
    %tmp15 = arith.divf %tmp11, %tmp14_161 : tensor<1024x1xf32> loc(#loc257)
    %tmp18 = arith.constant 0.000000e+00 : f32 loc(#loc258)
    %tmp19 = arith.constant dense<0.000000e+00> : tensor<1024x1xf32> loc(#loc259)
    %tmp19_162 = arith.cmpf oeq, %tmp12_67, %tmp19 : tensor<1024x1xf32> loc(#loc259)
    %tmp23 = arith.constant dense<0.000000e+00> : tensor<1024x1xf32> loc(#loc260)
    %tmp23_163 = arith.mulf %tmp23, %tmp22_81 : tensor<1024x1xf32> loc(#loc260)
    %tmp24 = arith.addf %tmp20_79, %tmp23_163 : tensor<1024x1xf32> loc(#loc261)
    %tmp27 = arith.divf %tmp24, %tmp12_67 : tensor<1024x1xf32> loc(#loc262)
    %tmp28 = arith.constant dense<0.000000e+00> : tensor<1024x1xf32> loc(#loc263)
    %tmp28_164 = arith.select %tmp19_162, %tmp28, %tmp27 : tensor<1024x1xi1>, tensor<1024x1xf32> loc(#loc263)
    %tmp29 = arith.mulf %tmp17_69, %tmp28_164 : tensor<1024x1xf32> loc(#loc264)
    %tmp31 = arith.addf %tmp15, %tmp29 : tensor<1024x1xf32> loc(#loc265)
    %tmp34 = arith.mulf %tmp32_90, %tmp33_92 : tensor<1024x1xf32> loc(#loc266)
    %tmp36 = arith.addf %tmp34, %tmp31 : tensor<1024x1xf32> loc(#loc267)
    %tmp41 = arith.constant dense<4.084800e+00> : tensor<1024x1xf32> loc(#loc268)
    %tmp41_165 = arith.mulf %tmp40_111, %tmp41 : tensor<1024x1xf32> loc(#loc268)
    %tmp42 = arith.addf %tmp38_102, %tmp41_165 : tensor<1024x1xf32> loc(#loc269)
    %tmp45 = arith.addf %tmp42, %tmp43_121 : tensor<1024x1xf32> loc(#loc270)
    %tmp48 = arith.addf %tmp45, %tmp46_136 : tensor<1024x1xf32> loc(#loc271)
    %tmp50 = arith.constant dense<1.000000e-07> : tensor<1024x1xf32> loc(#loc272)
    %tmp50_166 = arith.addf %tmp49_138, %tmp50 : tensor<1024x1xf32> loc(#loc272)
    %tmp51 = arith.divf %tmp48, %tmp50_166 : tensor<1024x1xf32> loc(#loc273)
    %tmp54 = arith.constant dense<0.000000e+00> : tensor<1024x1xf32> loc(#loc274)
    %tmp54_167 = arith.cmpf oeq, %tmp49_138, %tmp54 : tensor<1024x1xf32> loc(#loc274)
    %tmp57 = arith.addf %tmp55_150, %tmp23_163 : tensor<1024x1xf32> loc(#loc275)
    %tmp60 = arith.divf %tmp57, %tmp49_138 : tensor<1024x1xf32> loc(#loc276)
    %tmp61 = arith.constant dense<0.000000e+00> : tensor<1024x1xf32> loc(#loc277)
    %tmp61_168 = arith.select %tmp54_167, %tmp61, %tmp60 : tensor<1024x1xi1>, tensor<1024x1xf32> loc(#loc277)
    %tmp62 = arith.mulf %tmp53_140, %tmp61_168 : tensor<1024x1xf32> loc(#loc278)
    %tmp64 = arith.addf %tmp51, %tmp62 : tensor<1024x1xf32> loc(#loc279)
    %tmp66 = arith.mulf %tmp65_159, %tmp33_92 : tensor<1024x1xf32> loc(#loc280)
    %tmp68 = arith.addf %tmp66, %tmp64 : tensor<1024x1xf32> loc(#loc281)
    gpu.barrier loc(#loc121)
    %c192_i32 = arith.constant 192 : i32 loc(#loc122)
    %c192_i32_169 = arith.constant 192 : i32 loc(#loc122)
    %cst = arith.constant dense<192> : tensor<1024x1xi32> loc(#loc122)
    %0 = arith.muli %cst, %yindex_7 : tensor<1024x1xi32> loc(#loc122)
    %1 = tt.broadcast %xindex_14 : tensor<1x1xi32> -> tensor<1024x1xi32> loc(#loc123)
    %2 = arith.addi %1, %0 : tensor<1024x1xi32> loc(#loc123)
    %3 = tt.splat %in_out_ptr0 : !tt.ptr<bf16> -> tensor<1024x1x!tt.ptr<bf16>> loc(#loc124)
    %4 = tt.addptr %3, %2 : tensor<1024x1x!tt.ptr<bf16>>, tensor<1024x1xi32> loc(#loc124)
    %5 = tt.broadcast %xmask_15 : tensor<1x1xi1> -> tensor<1024x1xi1> loc(#loc125)
    %6 = arith.truncf %tmp31 : tensor<1024x1xf32> to tensor<1024x1xbf16> loc(#loc125)
    tt.store %4, %6, %5 : tensor<1024x1x!tt.ptr<bf16>> loc(#loc125)
    %c192_i32_170 = arith.constant 192 : i32 loc(#loc126)
    %c192_i32_171 = arith.constant 192 : i32 loc(#loc126)
    %cst_172 = arith.constant dense<192> : tensor<1024x1xi32> loc(#loc126)
    %7 = arith.muli %cst_172, %yindex_7 : tensor<1024x1xi32> loc(#loc126)
    %8 = tt.broadcast %xindex_14 : tensor<1x1xi32> -> tensor<1024x1xi32> loc(#loc127)
    %9 = arith.addi %8, %7 : tensor<1024x1xi32> loc(#loc127)
    %10 = tt.splat %out_ptr0 : !tt.ptr<bf16> -> tensor<1024x1x!tt.ptr<bf16>> loc(#loc128)
    %11 = tt.addptr %10, %9 : tensor<1024x1x!tt.ptr<bf16>>, tensor<1024x1xi32> loc(#loc128)
    %12 = tt.broadcast %xmask_15 : tensor<1x1xi1> -> tensor<1024x1xi1> loc(#loc129)
    %13 = arith.truncf %tmp36 : tensor<1024x1xf32> to tensor<1024x1xbf16> loc(#loc129)
    tt.store %11, %13, %12 : tensor<1024x1x!tt.ptr<bf16>> loc(#loc129)
    gpu.barrier loc(#loc130)
    %c192_i32_173 = arith.constant 192 : i32 loc(#loc131)
    %c192_i32_174 = arith.constant 192 : i32 loc(#loc131)
    %cst_175 = arith.constant dense<192> : tensor<1024x1xi32> loc(#loc131)
    %14 = arith.muli %cst_175, %yindex_7 : tensor<1024x1xi32> loc(#loc131)
    %15 = tt.broadcast %xindex_14 : tensor<1x1xi32> -> tensor<1024x1xi32> loc(#loc132)
    %16 = arith.addi %15, %14 : tensor<1024x1xi32> loc(#loc132)
    %17 = tt.splat %in_out_ptr1 : !tt.ptr<bf16> -> tensor<1024x1x!tt.ptr<bf16>> loc(#loc133)
    %18 = tt.addptr %17, %16 : tensor<1024x1x!tt.ptr<bf16>>, tensor<1024x1xi32> loc(#loc133)
    %19 = tt.broadcast %xmask_15 : tensor<1x1xi1> -> tensor<1024x1xi1> loc(#loc134)
    %20 = arith.truncf %tmp64 : tensor<1024x1xf32> to tensor<1024x1xbf16> loc(#loc134)
    tt.store %18, %20, %19 : tensor<1024x1x!tt.ptr<bf16>> loc(#loc134)
    %c192_i32_176 = arith.constant 192 : i32 loc(#loc135)
    %c192_i32_177 = arith.constant 192 : i32 loc(#loc135)
    %cst_178 = arith.constant dense<192> : tensor<1024x1xi32> loc(#loc135)
    %21 = arith.muli %cst_178, %yindex_7 : tensor<1024x1xi32> loc(#loc135)
    %22 = tt.broadcast %xindex_14 : tensor<1x1xi32> -> tensor<1024x1xi32> loc(#loc136)
    %23 = arith.addi %22, %21 : tensor<1024x1xi32> loc(#loc136)
    %24 = tt.splat %out_ptr1 : !tt.ptr<bf16> -> tensor<1024x1x!tt.ptr<bf16>> loc(#loc137)
    %25 = tt.addptr %24, %23 : tensor<1024x1x!tt.ptr<bf16>>, tensor<1024x1xi32> loc(#loc137)
    %26 = tt.broadcast %xmask_15 : tensor<1x1xi1> -> tensor<1024x1xi1> loc(#loc138)
    %27 = arith.truncf %tmp68 : tensor<1024x1xf32> to tensor<1024x1xbf16> loc(#loc138)
    tt.store %25, %27, %26 : tensor<1024x1x!tt.ptr<bf16>> loc(#loc138)
    tt.return loc(#loc139)
  } loc(#loc)
} loc(#loc)
#loc1 = loc("/NHNHOME/WORKSPACE/26msit001_A/jinhyeok/loop_TTT/lact/.cache_inductor_llm/gz/cgzvap6qgjauj2lo2uy74pzvfhebtmujbowjlkfd3k42zcbbi3am.py":19:13)
#loc2 = loc("/NHNHOME/WORKSPACE/26msit001_A/jinhyeok/loop_TTT/lact/.cache_inductor_llm/gz/cgzvap6qgjauj2lo2uy74pzvfhebtmujbowjlkfd3k42zcbbi3am.py":20:13)
#loc3 = loc("/NHNHOME/WORKSPACE/26msit001_A/jinhyeok/loop_TTT/lact/.cache_inductor_llm/gz/cgzvap6qgjauj2lo2uy74pzvfhebtmujbowjlkfd3k42zcbbi3am.py":21:28)
#loc4 = loc("/NHNHOME/WORKSPACE/26msit001_A/jinhyeok/loop_TTT/lact/.cache_inductor_llm/gz/cgzvap6qgjauj2lo2uy74pzvfhebtmujbowjlkfd3k42zcbbi3am.py":21:33)
#loc5 = loc("/NHNHOME/WORKSPACE/26msit001_A/jinhyeok/loop_TTT/lact/.cache_inductor_llm/gz/cgzvap6qgjauj2lo2uy74pzvfhebtmujbowjlkfd3k42zcbbi3am.py":22:36)
#loc6 = loc("/NHNHOME/WORKSPACE/26msit001_A/jinhyeok/loop_TTT/lact/.cache_inductor_llm/gz/cgzvap6qgjauj2lo2uy74pzvfhebtmujbowjlkfd3k42zcbbi3am.py":22:44)
#loc7 = loc("/NHNHOME/WORKSPACE/26msit001_A/jinhyeok/loop_TTT/lact/.cache_inductor_llm/gz/cgzvap6qgjauj2lo2uy74pzvfhebtmujbowjlkfd3k42zcbbi3am.py":22:23)
#loc8 = loc("/NHNHOME/WORKSPACE/26msit001_A/jinhyeok/loop_TTT/lact/.cache_inductor_llm/gz/cgzvap6qgjauj2lo2uy74pzvfhebtmujbowjlkfd3k42zcbbi3am.py":23:44)
#loc9 = loc("/NHNHOME/WORKSPACE/26msit001_A/jinhyeok/loop_TTT/lact/.cache_inductor_llm/gz/cgzvap6qgjauj2lo2uy74pzvfhebtmujbowjlkfd3k42zcbbi3am.py":24:28)
#loc10 = loc("/NHNHOME/WORKSPACE/26msit001_A/jinhyeok/loop_TTT/lact/.cache_inductor_llm/gz/cgzvap6qgjauj2lo2uy74pzvfhebtmujbowjlkfd3k42zcbbi3am.py":24:33)
#loc11 = loc("/NHNHOME/WORKSPACE/26msit001_A/jinhyeok/loop_TTT/lact/.cache_inductor_llm/gz/cgzvap6qgjauj2lo2uy74pzvfhebtmujbowjlkfd3k42zcbbi3am.py":25:36)
#loc12 = loc("/NHNHOME/WORKSPACE/26msit001_A/jinhyeok/loop_TTT/lact/.cache_inductor_llm/gz/cgzvap6qgjauj2lo2uy74pzvfhebtmujbowjlkfd3k42zcbbi3am.py":25:44)
#loc13 = loc("/NHNHOME/WORKSPACE/26msit001_A/jinhyeok/loop_TTT/lact/.cache_inductor_llm/gz/cgzvap6qgjauj2lo2uy74pzvfhebtmujbowjlkfd3k42zcbbi3am.py":25:23)
#loc14 = loc("/NHNHOME/WORKSPACE/26msit001_A/jinhyeok/loop_TTT/lact/.cache_inductor_llm/gz/cgzvap6qgjauj2lo2uy74pzvfhebtmujbowjlkfd3k42zcbbi3am.py":26:21)
#loc15 = loc("/NHNHOME/WORKSPACE/26msit001_A/jinhyeok/loop_TTT/lact/.cache_inductor_llm/gz/cgzvap6qgjauj2lo2uy74pzvfhebtmujbowjlkfd3k42zcbbi3am.py":29:19)
#loc16 = loc("/NHNHOME/WORKSPACE/26msit001_A/jinhyeok/loop_TTT/lact/.cache_inductor_llm/gz/cgzvap6qgjauj2lo2uy74pzvfhebtmujbowjlkfd3k42zcbbi3am.py":30:19)
#loc17 = loc("/NHNHOME/WORKSPACE/26msit001_A/jinhyeok/loop_TTT/lact/.cache_inductor_llm/gz/cgzvap6qgjauj2lo2uy74pzvfhebtmujbowjlkfd3k42zcbbi3am.py":31:43)
#loc18 = loc("/NHNHOME/WORKSPACE/26msit001_A/jinhyeok/loop_TTT/lact/.cache_inductor_llm/gz/cgzvap6qgjauj2lo2uy74pzvfhebtmujbowjlkfd3k42zcbbi3am.py":31:39)
#loc19 = loc("/NHNHOME/WORKSPACE/26msit001_A/jinhyeok/loop_TTT/lact/.cache_inductor_llm/gz/cgzvap6qgjauj2lo2uy74pzvfhebtmujbowjlkfd3k42zcbbi3am.py":31:34)
#loc20 = loc("/NHNHOME/WORKSPACE/26msit001_A/jinhyeok/loop_TTT/lact/.cache_inductor_llm/gz/cgzvap6qgjauj2lo2uy74pzvfhebtmujbowjlkfd3k42zcbbi3am.py":31:48)
#loc21 = loc("/NHNHOME/WORKSPACE/26msit001_A/jinhyeok/loop_TTT/lact/.cache_inductor_llm/gz/cgzvap6qgjauj2lo2uy74pzvfhebtmujbowjlkfd3k42zcbbi3am.py":31:88)
#loc22 = loc("/NHNHOME/WORKSPACE/26msit001_A/jinhyeok/loop_TTT/lact/.cache_inductor_llm/gz/cgzvap6qgjauj2lo2uy74pzvfhebtmujbowjlkfd3k42zcbbi3am.py":32:39)
#loc23 = loc("/NHNHOME/WORKSPACE/26msit001_A/jinhyeok/loop_TTT/lact/.cache_inductor_llm/gz/cgzvap6qgjauj2lo2uy74pzvfhebtmujbowjlkfd3k42zcbbi3am.py":32:35)
#loc24 = loc("/NHNHOME/WORKSPACE/26msit001_A/jinhyeok/loop_TTT/lact/.cache_inductor_llm/gz/cgzvap6qgjauj2lo2uy74pzvfhebtmujbowjlkfd3k42zcbbi3am.py":32:30)
#loc25 = loc("/NHNHOME/WORKSPACE/26msit001_A/jinhyeok/loop_TTT/lact/.cache_inductor_llm/gz/cgzvap6qgjauj2lo2uy74pzvfhebtmujbowjlkfd3k42zcbbi3am.py":32:44)
#loc26 = loc("/NHNHOME/WORKSPACE/26msit001_A/jinhyeok/loop_TTT/lact/.cache_inductor_llm/gz/cgzvap6qgjauj2lo2uy74pzvfhebtmujbowjlkfd3k42zcbbi3am.py":33:39)
#loc27 = loc("/NHNHOME/WORKSPACE/26msit001_A/jinhyeok/loop_TTT/lact/.cache_inductor_llm/gz/cgzvap6qgjauj2lo2uy74pzvfhebtmujbowjlkfd3k42zcbbi3am.py":33:35)
#loc28 = loc("/NHNHOME/WORKSPACE/26msit001_A/jinhyeok/loop_TTT/lact/.cache_inductor_llm/gz/cgzvap6qgjauj2lo2uy74pzvfhebtmujbowjlkfd3k42zcbbi3am.py":33:30)
#loc29 = loc("/NHNHOME/WORKSPACE/26msit001_A/jinhyeok/loop_TTT/lact/.cache_inductor_llm/gz/cgzvap6qgjauj2lo2uy74pzvfhebtmujbowjlkfd3k42zcbbi3am.py":33:44)
#loc30 = loc("/NHNHOME/WORKSPACE/26msit001_A/jinhyeok/loop_TTT/lact/.cache_inductor_llm/gz/cgzvap6qgjauj2lo2uy74pzvfhebtmujbowjlkfd3k42zcbbi3am.py":33:84)
#loc31 = loc("/NHNHOME/WORKSPACE/26msit001_A/jinhyeok/loop_TTT/lact/.cache_inductor_llm/gz/cgzvap6qgjauj2lo2uy74pzvfhebtmujbowjlkfd3k42zcbbi3am.py":34:39)
#loc32 = loc("/NHNHOME/WORKSPACE/26msit001_A/jinhyeok/loop_TTT/lact/.cache_inductor_llm/gz/cgzvap6qgjauj2lo2uy74pzvfhebtmujbowjlkfd3k42zcbbi3am.py":34:35)
#loc33 = loc("/NHNHOME/WORKSPACE/26msit001_A/jinhyeok/loop_TTT/lact/.cache_inductor_llm/gz/cgzvap6qgjauj2lo2uy74pzvfhebtmujbowjlkfd3k42zcbbi3am.py":34:50)
#loc34 = loc("/NHNHOME/WORKSPACE/26msit001_A/jinhyeok/loop_TTT/lact/.cache_inductor_llm/gz/cgzvap6qgjauj2lo2uy74pzvfhebtmujbowjlkfd3k42zcbbi3am.py":34:44)
#loc35 = loc("/NHNHOME/WORKSPACE/26msit001_A/jinhyeok/loop_TTT/lact/.cache_inductor_llm/gz/cgzvap6qgjauj2lo2uy74pzvfhebtmujbowjlkfd3k42zcbbi3am.py":34:30)
#loc36 = loc("/NHNHOME/WORKSPACE/26msit001_A/jinhyeok/loop_TTT/lact/.cache_inductor_llm/gz/cgzvap6qgjauj2lo2uy74pzvfhebtmujbowjlkfd3k42zcbbi3am.py":34:55)
#loc37 = loc("/NHNHOME/WORKSPACE/26msit001_A/jinhyeok/loop_TTT/lact/.cache_inductor_llm/gz/cgzvap6qgjauj2lo2uy74pzvfhebtmujbowjlkfd3k42zcbbi3am.py":34:95)
#loc38 = loc("/NHNHOME/WORKSPACE/26msit001_A/jinhyeok/loop_TTT/lact/.cache_inductor_llm/gz/cgzvap6qgjauj2lo2uy74pzvfhebtmujbowjlkfd3k42zcbbi3am.py":35:31)
#loc39 = loc("/NHNHOME/WORKSPACE/26msit001_A/jinhyeok/loop_TTT/lact/.cache_inductor_llm/gz/cgzvap6qgjauj2lo2uy74pzvfhebtmujbowjlkfd3k42zcbbi3am.py":35:36)
#loc40 = loc("/NHNHOME/WORKSPACE/26msit001_A/jinhyeok/loop_TTT/lact/.cache_inductor_llm/gz/cgzvap6qgjauj2lo2uy74pzvfhebtmujbowjlkfd3k42zcbbi3am.py":36:31)
#loc41 = loc("/NHNHOME/WORKSPACE/26msit001_A/jinhyeok/loop_TTT/lact/.cache_inductor_llm/gz/cgzvap6qgjauj2lo2uy74pzvfhebtmujbowjlkfd3k42zcbbi3am.py":36:36)
#loc42 = loc("/NHNHOME/WORKSPACE/26msit001_A/jinhyeok/loop_TTT/lact/.cache_inductor_llm/gz/cgzvap6qgjauj2lo2uy74pzvfhebtmujbowjlkfd3k42zcbbi3am.py":37:40)
#loc43 = loc("/NHNHOME/WORKSPACE/26msit001_A/jinhyeok/loop_TTT/lact/.cache_inductor_llm/gz/cgzvap6qgjauj2lo2uy74pzvfhebtmujbowjlkfd3k42zcbbi3am.py":37:36)
#loc44 = loc("/NHNHOME/WORKSPACE/26msit001_A/jinhyeok/loop_TTT/lact/.cache_inductor_llm/gz/cgzvap6qgjauj2lo2uy74pzvfhebtmujbowjlkfd3k42zcbbi3am.py":37:31)
#loc45 = loc("/NHNHOME/WORKSPACE/26msit001_A/jinhyeok/loop_TTT/lact/.cache_inductor_llm/gz/cgzvap6qgjauj2lo2uy74pzvfhebtmujbowjlkfd3k42zcbbi3am.py":37:45)
#loc46 = loc("/NHNHOME/WORKSPACE/26msit001_A/jinhyeok/loop_TTT/lact/.cache_inductor_llm/gz/cgzvap6qgjauj2lo2uy74pzvfhebtmujbowjlkfd3k42zcbbi3am.py":37:85)
#loc47 = loc("/NHNHOME/WORKSPACE/26msit001_A/jinhyeok/loop_TTT/lact/.cache_inductor_llm/gz/cgzvap6qgjauj2lo2uy74pzvfhebtmujbowjlkfd3k42zcbbi3am.py":38:31)
#loc48 = loc("/NHNHOME/WORKSPACE/26msit001_A/jinhyeok/loop_TTT/lact/.cache_inductor_llm/gz/cgzvap6qgjauj2lo2uy74pzvfhebtmujbowjlkfd3k42zcbbi3am.py":38:36)
#loc49 = loc("/NHNHOME/WORKSPACE/26msit001_A/jinhyeok/loop_TTT/lact/.cache_inductor_llm/gz/cgzvap6qgjauj2lo2uy74pzvfhebtmujbowjlkfd3k42zcbbi3am.py":39:40)
#loc50 = loc("/NHNHOME/WORKSPACE/26msit001_A/jinhyeok/loop_TTT/lact/.cache_inductor_llm/gz/cgzvap6qgjauj2lo2uy74pzvfhebtmujbowjlkfd3k42zcbbi3am.py":39:36)
#loc51 = loc("/NHNHOME/WORKSPACE/26msit001_A/jinhyeok/loop_TTT/lact/.cache_inductor_llm/gz/cgzvap6qgjauj2lo2uy74pzvfhebtmujbowjlkfd3k42zcbbi3am.py":39:31)
#loc52 = loc("/NHNHOME/WORKSPACE/26msit001_A/jinhyeok/loop_TTT/lact/.cache_inductor_llm/gz/cgzvap6qgjauj2lo2uy74pzvfhebtmujbowjlkfd3k42zcbbi3am.py":39:45)
#loc53 = loc("/NHNHOME/WORKSPACE/26msit001_A/jinhyeok/loop_TTT/lact/.cache_inductor_llm/gz/cgzvap6qgjauj2lo2uy74pzvfhebtmujbowjlkfd3k42zcbbi3am.py":40:31)
#loc54 = loc("/NHNHOME/WORKSPACE/26msit001_A/jinhyeok/loop_TTT/lact/.cache_inductor_llm/gz/cgzvap6qgjauj2lo2uy74pzvfhebtmujbowjlkfd3k42zcbbi3am.py":40:36)
#loc55 = loc("/NHNHOME/WORKSPACE/26msit001_A/jinhyeok/loop_TTT/lact/.cache_inductor_llm/gz/cgzvap6qgjauj2lo2uy74pzvfhebtmujbowjlkfd3k42zcbbi3am.py":41:44)
#loc56 = loc("/NHNHOME/WORKSPACE/26msit001_A/jinhyeok/loop_TTT/lact/.cache_inductor_llm/gz/cgzvap6qgjauj2lo2uy74pzvfhebtmujbowjlkfd3k42zcbbi3am.py":41:40)
#loc57 = loc("/NHNHOME/WORKSPACE/26msit001_A/jinhyeok/loop_TTT/lact/.cache_inductor_llm/gz/cgzvap6qgjauj2lo2uy74pzvfhebtmujbowjlkfd3k42zcbbi3am.py":41:35)
#loc58 = loc("/NHNHOME/WORKSPACE/26msit001_A/jinhyeok/loop_TTT/lact/.cache_inductor_llm/gz/cgzvap6qgjauj2lo2uy74pzvfhebtmujbowjlkfd3k42zcbbi3am.py":41:49)
#loc59 = loc("/NHNHOME/WORKSPACE/26msit001_A/jinhyeok/loop_TTT/lact/.cache_inductor_llm/gz/cgzvap6qgjauj2lo2uy74pzvfhebtmujbowjlkfd3k42zcbbi3am.py":41:89)
#loc60 = loc("/NHNHOME/WORKSPACE/26msit001_A/jinhyeok/loop_TTT/lact/.cache_inductor_llm/gz/cgzvap6qgjauj2lo2uy74pzvfhebtmujbowjlkfd3k42zcbbi3am.py":42:40)
#loc61 = loc("/NHNHOME/WORKSPACE/26msit001_A/jinhyeok/loop_TTT/lact/.cache_inductor_llm/gz/cgzvap6qgjauj2lo2uy74pzvfhebtmujbowjlkfd3k42zcbbi3am.py":42:36)
#loc62 = loc("/NHNHOME/WORKSPACE/26msit001_A/jinhyeok/loop_TTT/lact/.cache_inductor_llm/gz/cgzvap6qgjauj2lo2uy74pzvfhebtmujbowjlkfd3k42zcbbi3am.py":42:31)
#loc63 = loc("/NHNHOME/WORKSPACE/26msit001_A/jinhyeok/loop_TTT/lact/.cache_inductor_llm/gz/cgzvap6qgjauj2lo2uy74pzvfhebtmujbowjlkfd3k42zcbbi3am.py":42:45)
#loc64 = loc("/NHNHOME/WORKSPACE/26msit001_A/jinhyeok/loop_TTT/lact/.cache_inductor_llm/gz/cgzvap6qgjauj2lo2uy74pzvfhebtmujbowjlkfd3k42zcbbi3am.py":43:41)
#loc65 = loc("/NHNHOME/WORKSPACE/26msit001_A/jinhyeok/loop_TTT/lact/.cache_inductor_llm/gz/cgzvap6qgjauj2lo2uy74pzvfhebtmujbowjlkfd3k42zcbbi3am.py":43:37)
#loc66 = loc("/NHNHOME/WORKSPACE/26msit001_A/jinhyeok/loop_TTT/lact/.cache_inductor_llm/gz/cgzvap6qgjauj2lo2uy74pzvfhebtmujbowjlkfd3k42zcbbi3am.py":43:32)
#loc67 = loc("/NHNHOME/WORKSPACE/26msit001_A/jinhyeok/loop_TTT/lact/.cache_inductor_llm/gz/cgzvap6qgjauj2lo2uy74pzvfhebtmujbowjlkfd3k42zcbbi3am.py":43:46)
#loc68 = loc("/NHNHOME/WORKSPACE/26msit001_A/jinhyeok/loop_TTT/lact/.cache_inductor_llm/gz/cgzvap6qgjauj2lo2uy74pzvfhebtmujbowjlkfd3k42zcbbi3am.py":43:86)
#loc69 = loc("/NHNHOME/WORKSPACE/26msit001_A/jinhyeok/loop_TTT/lact/.cache_inductor_llm/gz/cgzvap6qgjauj2lo2uy74pzvfhebtmujbowjlkfd3k42zcbbi3am.py":44:41)
#loc70 = loc("/NHNHOME/WORKSPACE/26msit001_A/jinhyeok/loop_TTT/lact/.cache_inductor_llm/gz/cgzvap6qgjauj2lo2uy74pzvfhebtmujbowjlkfd3k42zcbbi3am.py":44:37)
#loc71 = loc("/NHNHOME/WORKSPACE/26msit001_A/jinhyeok/loop_TTT/lact/.cache_inductor_llm/gz/cgzvap6qgjauj2lo2uy74pzvfhebtmujbowjlkfd3k42zcbbi3am.py":44:52)
#loc72 = loc("/NHNHOME/WORKSPACE/26msit001_A/jinhyeok/loop_TTT/lact/.cache_inductor_llm/gz/cgzvap6qgjauj2lo2uy74pzvfhebtmujbowjlkfd3k42zcbbi3am.py":44:46)
#loc73 = loc("/NHNHOME/WORKSPACE/26msit001_A/jinhyeok/loop_TTT/lact/.cache_inductor_llm/gz/cgzvap6qgjauj2lo2uy74pzvfhebtmujbowjlkfd3k42zcbbi3am.py":44:32)
#loc74 = loc("/NHNHOME/WORKSPACE/26msit001_A/jinhyeok/loop_TTT/lact/.cache_inductor_llm/gz/cgzvap6qgjauj2lo2uy74pzvfhebtmujbowjlkfd3k42zcbbi3am.py":44:57)
#loc75 = loc("/NHNHOME/WORKSPACE/26msit001_A/jinhyeok/loop_TTT/lact/.cache_inductor_llm/gz/cgzvap6qgjauj2lo2uy74pzvfhebtmujbowjlkfd3k42zcbbi3am.py":44:97)
#loc76 = loc("/NHNHOME/WORKSPACE/26msit001_A/jinhyeok/loop_TTT/lact/.cache_inductor_llm/gz/cgzvap6qgjauj2lo2uy74pzvfhebtmujbowjlkfd3k42zcbbi3am.py":45:32)
#loc77 = loc("/NHNHOME/WORKSPACE/26msit001_A/jinhyeok/loop_TTT/lact/.cache_inductor_llm/gz/cgzvap6qgjauj2lo2uy74pzvfhebtmujbowjlkfd3k42zcbbi3am.py":45:37)
#loc78 = loc("/NHNHOME/WORKSPACE/26msit001_A/jinhyeok/loop_TTT/lact/.cache_inductor_llm/gz/cgzvap6qgjauj2lo2uy74pzvfhebtmujbowjlkfd3k42zcbbi3am.py":46:32)
#loc79 = loc("/NHNHOME/WORKSPACE/26msit001_A/jinhyeok/loop_TTT/lact/.cache_inductor_llm/gz/cgzvap6qgjauj2lo2uy74pzvfhebtmujbowjlkfd3k42zcbbi3am.py":46:37)
#loc80 = loc("/NHNHOME/WORKSPACE/26msit001_A/jinhyeok/loop_TTT/lact/.cache_inductor_llm/gz/cgzvap6qgjauj2lo2uy74pzvfhebtmujbowjlkfd3k42zcbbi3am.py":47:41)
#loc81 = loc("/NHNHOME/WORKSPACE/26msit001_A/jinhyeok/loop_TTT/lact/.cache_inductor_llm/gz/cgzvap6qgjauj2lo2uy74pzvfhebtmujbowjlkfd3k42zcbbi3am.py":47:37)
#loc82 = loc("/NHNHOME/WORKSPACE/26msit001_A/jinhyeok/loop_TTT/lact/.cache_inductor_llm/gz/cgzvap6qgjauj2lo2uy74pzvfhebtmujbowjlkfd3k42zcbbi3am.py":47:32)
#loc83 = loc("/NHNHOME/WORKSPACE/26msit001_A/jinhyeok/loop_TTT/lact/.cache_inductor_llm/gz/cgzvap6qgjauj2lo2uy74pzvfhebtmujbowjlkfd3k42zcbbi3am.py":47:46)
#loc84 = loc("/NHNHOME/WORKSPACE/26msit001_A/jinhyeok/loop_TTT/lact/.cache_inductor_llm/gz/cgzvap6qgjauj2lo2uy74pzvfhebtmujbowjlkfd3k42zcbbi3am.py":47:86)
#loc85 = loc("/NHNHOME/WORKSPACE/26msit001_A/jinhyeok/loop_TTT/lact/.cache_inductor_llm/gz/cgzvap6qgjauj2lo2uy74pzvfhebtmujbowjlkfd3k42zcbbi3am.py":48:41)
#loc86 = loc("/NHNHOME/WORKSPACE/26msit001_A/jinhyeok/loop_TTT/lact/.cache_inductor_llm/gz/cgzvap6qgjauj2lo2uy74pzvfhebtmujbowjlkfd3k42zcbbi3am.py":48:37)
#loc87 = loc("/NHNHOME/WORKSPACE/26msit001_A/jinhyeok/loop_TTT/lact/.cache_inductor_llm/gz/cgzvap6qgjauj2lo2uy74pzvfhebtmujbowjlkfd3k42zcbbi3am.py":48:32)
#loc88 = loc("/NHNHOME/WORKSPACE/26msit001_A/jinhyeok/loop_TTT/lact/.cache_inductor_llm/gz/cgzvap6qgjauj2lo2uy74pzvfhebtmujbowjlkfd3k42zcbbi3am.py":48:46)
#loc89 = loc("/NHNHOME/WORKSPACE/26msit001_A/jinhyeok/loop_TTT/lact/.cache_inductor_llm/gz/cgzvap6qgjauj2lo2uy74pzvfhebtmujbowjlkfd3k42zcbbi3am.py":50:11)
#loc90 = loc("/NHNHOME/WORKSPACE/26msit001_A/jinhyeok/loop_TTT/lact/.cache_inductor_llm/gz/cgzvap6qgjauj2lo2uy74pzvfhebtmujbowjlkfd3k42zcbbi3am.py":51:18)
#loc91 = loc("/NHNHOME/WORKSPACE/26msit001_A/jinhyeok/loop_TTT/lact/.cache_inductor_llm/gz/cgzvap6qgjauj2lo2uy74pzvfhebtmujbowjlkfd3k42zcbbi3am.py":52:18)
#loc92 = loc("/NHNHOME/WORKSPACE/26msit001_A/jinhyeok/loop_TTT/lact/.cache_inductor_llm/gz/cgzvap6qgjauj2lo2uy74pzvfhebtmujbowjlkfd3k42zcbbi3am.py":54:18)
#loc93 = loc("/NHNHOME/WORKSPACE/26msit001_A/jinhyeok/loop_TTT/lact/.cache_inductor_llm/gz/cgzvap6qgjauj2lo2uy74pzvfhebtmujbowjlkfd3k42zcbbi3am.py":56:19)
#loc94 = loc("/NHNHOME/WORKSPACE/26msit001_A/jinhyeok/loop_TTT/lact/.cache_inductor_llm/gz/cgzvap6qgjauj2lo2uy74pzvfhebtmujbowjlkfd3k42zcbbi3am.py":57:12)
#loc95 = loc("/NHNHOME/WORKSPACE/26msit001_A/jinhyeok/loop_TTT/lact/.cache_inductor_llm/gz/cgzvap6qgjauj2lo2uy74pzvfhebtmujbowjlkfd3k42zcbbi3am.py":58:20)
#loc96 = loc("/NHNHOME/WORKSPACE/26msit001_A/jinhyeok/loop_TTT/lact/.cache_inductor_llm/gz/cgzvap6qgjauj2lo2uy74pzvfhebtmujbowjlkfd3k42zcbbi3am.py":59:21)
#loc97 = loc("/NHNHOME/WORKSPACE/26msit001_A/jinhyeok/loop_TTT/lact/.cache_inductor_llm/gz/cgzvap6qgjauj2lo2uy74pzvfhebtmujbowjlkfd3k42zcbbi3am.py":61:12)
#loc98 = loc("/NHNHOME/WORKSPACE/26msit001_A/jinhyeok/loop_TTT/lact/.cache_inductor_llm/gz/cgzvap6qgjauj2lo2uy74pzvfhebtmujbowjlkfd3k42zcbbi3am.py":62:21)
#loc99 = loc("/NHNHOME/WORKSPACE/26msit001_A/jinhyeok/loop_TTT/lact/.cache_inductor_llm/gz/cgzvap6qgjauj2lo2uy74pzvfhebtmujbowjlkfd3k42zcbbi3am.py":64:20)
#loc100 = loc("/NHNHOME/WORKSPACE/26msit001_A/jinhyeok/loop_TTT/lact/.cache_inductor_llm/gz/cgzvap6qgjauj2lo2uy74pzvfhebtmujbowjlkfd3k42zcbbi3am.py":65:20)
#loc101 = loc("/NHNHOME/WORKSPACE/26msit001_A/jinhyeok/loop_TTT/lact/.cache_inductor_llm/gz/cgzvap6qgjauj2lo2uy74pzvfhebtmujbowjlkfd3k42zcbbi3am.py":68:21)
#loc102 = loc("/NHNHOME/WORKSPACE/26msit001_A/jinhyeok/loop_TTT/lact/.cache_inductor_llm/gz/cgzvap6qgjauj2lo2uy74pzvfhebtmujbowjlkfd3k42zcbbi3am.py":69:35)
#loc103 = loc("/NHNHOME/WORKSPACE/26msit001_A/jinhyeok/loop_TTT/lact/.cache_inductor_llm/gz/cgzvap6qgjauj2lo2uy74pzvfhebtmujbowjlkfd3k42zcbbi3am.py":70:20)
#loc104 = loc("/NHNHOME/WORKSPACE/26msit001_A/jinhyeok/loop_TTT/lact/.cache_inductor_llm/gz/cgzvap6qgjauj2lo2uy74pzvfhebtmujbowjlkfd3k42zcbbi3am.py":72:20)
#loc105 = loc("/NHNHOME/WORKSPACE/26msit001_A/jinhyeok/loop_TTT/lact/.cache_inductor_llm/gz/cgzvap6qgjauj2lo2uy74pzvfhebtmujbowjlkfd3k42zcbbi3am.py":73:20)
#loc106 = loc("/NHNHOME/WORKSPACE/26msit001_A/jinhyeok/loop_TTT/lact/.cache_inductor_llm/gz/cgzvap6qgjauj2lo2uy74pzvfhebtmujbowjlkfd3k42zcbbi3am.py":75:20)
#loc107 = loc("/NHNHOME/WORKSPACE/26msit001_A/jinhyeok/loop_TTT/lact/.cache_inductor_llm/gz/cgzvap6qgjauj2lo2uy74pzvfhebtmujbowjlkfd3k42zcbbi3am.py":78:20)
#loc108 = loc("/NHNHOME/WORKSPACE/26msit001_A/jinhyeok/loop_TTT/lact/.cache_inductor_llm/gz/cgzvap6qgjauj2lo2uy74pzvfhebtmujbowjlkfd3k42zcbbi3am.py":79:20)
#loc109 = loc("/NHNHOME/WORKSPACE/26msit001_A/jinhyeok/loop_TTT/lact/.cache_inductor_llm/gz/cgzvap6qgjauj2lo2uy74pzvfhebtmujbowjlkfd3k42zcbbi3am.py":81:20)
#loc110 = loc("/NHNHOME/WORKSPACE/26msit001_A/jinhyeok/loop_TTT/lact/.cache_inductor_llm/gz/cgzvap6qgjauj2lo2uy74pzvfhebtmujbowjlkfd3k42zcbbi3am.py":83:20)
#loc111 = loc("/NHNHOME/WORKSPACE/26msit001_A/jinhyeok/loop_TTT/lact/.cache_inductor_llm/gz/cgzvap6qgjauj2lo2uy74pzvfhebtmujbowjlkfd3k42zcbbi3am.py":84:20)
#loc112 = loc("/NHNHOME/WORKSPACE/26msit001_A/jinhyeok/loop_TTT/lact/.cache_inductor_llm/gz/cgzvap6qgjauj2lo2uy74pzvfhebtmujbowjlkfd3k42zcbbi3am.py":85:21)
#loc113 = loc("/NHNHOME/WORKSPACE/26msit001_A/jinhyeok/loop_TTT/lact/.cache_inductor_llm/gz/cgzvap6qgjauj2lo2uy74pzvfhebtmujbowjlkfd3k42zcbbi3am.py":87:21)
#loc114 = loc("/NHNHOME/WORKSPACE/26msit001_A/jinhyeok/loop_TTT/lact/.cache_inductor_llm/gz/cgzvap6qgjauj2lo2uy74pzvfhebtmujbowjlkfd3k42zcbbi3am.py":89:20)
#loc115 = loc("/NHNHOME/WORKSPACE/26msit001_A/jinhyeok/loop_TTT/lact/.cache_inductor_llm/gz/cgzvap6qgjauj2lo2uy74pzvfhebtmujbowjlkfd3k42zcbbi3am.py":92:21)
#loc116 = loc("/NHNHOME/WORKSPACE/26msit001_A/jinhyeok/loop_TTT/lact/.cache_inductor_llm/gz/cgzvap6qgjauj2lo2uy74pzvfhebtmujbowjlkfd3k42zcbbi3am.py":93:35)
#loc117 = loc("/NHNHOME/WORKSPACE/26msit001_A/jinhyeok/loop_TTT/lact/.cache_inductor_llm/gz/cgzvap6qgjauj2lo2uy74pzvfhebtmujbowjlkfd3k42zcbbi3am.py":94:20)
#loc118 = loc("/NHNHOME/WORKSPACE/26msit001_A/jinhyeok/loop_TTT/lact/.cache_inductor_llm/gz/cgzvap6qgjauj2lo2uy74pzvfhebtmujbowjlkfd3k42zcbbi3am.py":96:20)
#loc119 = loc("/NHNHOME/WORKSPACE/26msit001_A/jinhyeok/loop_TTT/lact/.cache_inductor_llm/gz/cgzvap6qgjauj2lo2uy74pzvfhebtmujbowjlkfd3k42zcbbi3am.py":97:20)
#loc120 = loc("/NHNHOME/WORKSPACE/26msit001_A/jinhyeok/loop_TTT/lact/.cache_inductor_llm/gz/cgzvap6qgjauj2lo2uy74pzvfhebtmujbowjlkfd3k42zcbbi3am.py":99:20)
#loc121 = loc("/NHNHOME/WORKSPACE/26msit001_A/jinhyeok/loop_TTT/lact/.cache_inductor_llm/gz/cgzvap6qgjauj2lo2uy74pzvfhebtmujbowjlkfd3k42zcbbi3am.py":101:4)
#loc122 = loc("/NHNHOME/WORKSPACE/26msit001_A/jinhyeok/loop_TTT/lact/.cache_inductor_llm/gz/cgzvap6qgjauj2lo2uy74pzvfhebtmujbowjlkfd3k42zcbbi3am.py":102:37)
#loc123 = loc("/NHNHOME/WORKSPACE/26msit001_A/jinhyeok/loop_TTT/lact/.cache_inductor_llm/gz/cgzvap6qgjauj2lo2uy74pzvfhebtmujbowjlkfd3k42zcbbi3am.py":102:33)
#loc124 = loc("/NHNHOME/WORKSPACE/26msit001_A/jinhyeok/loop_TTT/lact/.cache_inductor_llm/gz/cgzvap6qgjauj2lo2uy74pzvfhebtmujbowjlkfd3k42zcbbi3am.py":102:28)
#loc125 = loc("/NHNHOME/WORKSPACE/26msit001_A/jinhyeok/loop_TTT/lact/.cache_inductor_llm/gz/cgzvap6qgjauj2lo2uy74pzvfhebtmujbowjlkfd3k42zcbbi3am.py":102:49)
#loc126 = loc("/NHNHOME/WORKSPACE/26msit001_A/jinhyeok/loop_TTT/lact/.cache_inductor_llm/gz/cgzvap6qgjauj2lo2uy74pzvfhebtmujbowjlkfd3k42zcbbi3am.py":103:34)
#loc127 = loc("/NHNHOME/WORKSPACE/26msit001_A/jinhyeok/loop_TTT/lact/.cache_inductor_llm/gz/cgzvap6qgjauj2lo2uy74pzvfhebtmujbowjlkfd3k42zcbbi3am.py":103:30)
#loc128 = loc("/NHNHOME/WORKSPACE/26msit001_A/jinhyeok/loop_TTT/lact/.cache_inductor_llm/gz/cgzvap6qgjauj2lo2uy74pzvfhebtmujbowjlkfd3k42zcbbi3am.py":103:25)
#loc129 = loc("/NHNHOME/WORKSPACE/26msit001_A/jinhyeok/loop_TTT/lact/.cache_inductor_llm/gz/cgzvap6qgjauj2lo2uy74pzvfhebtmujbowjlkfd3k42zcbbi3am.py":103:46)
#loc130 = loc("/NHNHOME/WORKSPACE/26msit001_A/jinhyeok/loop_TTT/lact/.cache_inductor_llm/gz/cgzvap6qgjauj2lo2uy74pzvfhebtmujbowjlkfd3k42zcbbi3am.py":104:4)
#loc131 = loc("/NHNHOME/WORKSPACE/26msit001_A/jinhyeok/loop_TTT/lact/.cache_inductor_llm/gz/cgzvap6qgjauj2lo2uy74pzvfhebtmujbowjlkfd3k42zcbbi3am.py":105:37)
#loc132 = loc("/NHNHOME/WORKSPACE/26msit001_A/jinhyeok/loop_TTT/lact/.cache_inductor_llm/gz/cgzvap6qgjauj2lo2uy74pzvfhebtmujbowjlkfd3k42zcbbi3am.py":105:33)
#loc133 = loc("/NHNHOME/WORKSPACE/26msit001_A/jinhyeok/loop_TTT/lact/.cache_inductor_llm/gz/cgzvap6qgjauj2lo2uy74pzvfhebtmujbowjlkfd3k42zcbbi3am.py":105:28)
#loc134 = loc("/NHNHOME/WORKSPACE/26msit001_A/jinhyeok/loop_TTT/lact/.cache_inductor_llm/gz/cgzvap6qgjauj2lo2uy74pzvfhebtmujbowjlkfd3k42zcbbi3am.py":105:49)
#loc135 = loc("/NHNHOME/WORKSPACE/26msit001_A/jinhyeok/loop_TTT/lact/.cache_inductor_llm/gz/cgzvap6qgjauj2lo2uy74pzvfhebtmujbowjlkfd3k42zcbbi3am.py":106:34)
#loc136 = loc("/NHNHOME/WORKSPACE/26msit001_A/jinhyeok/loop_TTT/lact/.cache_inductor_llm/gz/cgzvap6qgjauj2lo2uy74pzvfhebtmujbowjlkfd3k42zcbbi3am.py":106:30)
#loc137 = loc("/NHNHOME/WORKSPACE/26msit001_A/jinhyeok/loop_TTT/lact/.cache_inductor_llm/gz/cgzvap6qgjauj2lo2uy74pzvfhebtmujbowjlkfd3k42zcbbi3am.py":106:25)
#loc138 = loc("/NHNHOME/WORKSPACE/26msit001_A/jinhyeok/loop_TTT/lact/.cache_inductor_llm/gz/cgzvap6qgjauj2lo2uy74pzvfhebtmujbowjlkfd3k42zcbbi3am.py":106:46)
#loc139 = loc("/NHNHOME/WORKSPACE/26msit001_A/jinhyeok/loop_TTT/lact/.cache_inductor_llm/gz/cgzvap6qgjauj2lo2uy74pzvfhebtmujbowjlkfd3k42zcbbi3am.py":106:4)
#loc162 = loc("ynumel"(#loc1))
#loc163 = loc("xnumel"(#loc2))
#loc164 = loc("yoffset"(#loc3))
#loc165 = loc("yoffset"(#loc4))
#loc166 = loc("yindex"(#loc5))
#loc167 = loc("yindex"(#loc6))
#loc168 = loc("yindex"(#loc7))
#loc169 = loc("ymask"(#loc8))
#loc170 = loc("xoffset"(#loc9))
#loc171 = loc("xoffset"(#loc10))
#loc172 = loc("xindex"(#loc11))
#loc173 = loc("xindex"(#loc12))
#loc174 = loc("xindex"(#loc13))
#loc175 = loc("xmask"(#loc14))
#loc176 = loc("y0"(#loc15))
#loc177 = loc("y1"(#loc16))
#loc178 = loc("tmp0"(#loc17))
#loc179 = loc("tmp0"(#loc18))
#loc180 = loc("tmp0"(#loc19))
#loc181 = loc("tmp0"(#loc20))
#loc182 = loc("tmp0"(#loc21))
#loc183 = loc("tmp2"(#loc22))
#loc184 = loc("tmp2"(#loc23))
#loc185 = loc("tmp2"(#loc24))
#loc186 = loc("tmp2"(#loc25))
#loc187 = loc("tmp6"(#loc26))
#loc188 = loc("tmp6"(#loc27))
#loc189 = loc("tmp6"(#loc28))
#loc190 = loc("tmp6"(#loc29))
#loc191 = loc("tmp6"(#loc30))
#loc192 = loc("tmp9"(#loc31))
#loc193 = loc("tmp9"(#loc32))
#loc194 = loc("tmp9"(#loc33))
#loc195 = loc("tmp9"(#loc34))
#loc196 = loc("tmp9"(#loc35))
#loc197 = loc("tmp9"(#loc36))
#loc198 = loc("tmp9"(#loc37))
#loc199 = loc("tmp12"(#loc38))
#loc200 = loc("tmp12"(#loc39))
#loc201 = loc("tmp17"(#loc40))
#loc202 = loc("tmp17"(#loc41))
#loc203 = loc("tmp20"(#loc42))
#loc204 = loc("tmp20"(#loc43))
#loc205 = loc("tmp20"(#loc44))
#loc206 = loc("tmp20"(#loc45))
#loc207 = loc("tmp20"(#loc46))
#loc208 = loc("tmp22"(#loc47))
#loc209 = loc("tmp22"(#loc48))
#loc210 = loc("tmp32"(#loc49))
#loc211 = loc("tmp32"(#loc50))
#loc212 = loc("tmp32"(#loc51))
#loc213 = loc("tmp32"(#loc52))
#loc214 = loc("tmp33"(#loc53))
#loc215 = loc("tmp33"(#loc54))
#loc216 = loc("tmp38"(#loc55))
#loc217 = loc("tmp38"(#loc56))
#loc218 = loc("tmp38"(#loc57))
#loc219 = loc("tmp38"(#loc58))
#loc220 = loc("tmp38"(#loc59))
#loc221 = loc("tmp40"(#loc60))
#loc222 = loc("tmp40"(#loc61))
#loc223 = loc("tmp40"(#loc62))
#loc224 = loc("tmp40"(#loc63))
#loc225 = loc("tmp43"(#loc64))
#loc226 = loc("tmp43"(#loc65))
#loc227 = loc("tmp43"(#loc66))
#loc228 = loc("tmp43"(#loc67))
#loc229 = loc("tmp43"(#loc68))
#loc230 = loc("tmp46"(#loc69))
#loc231 = loc("tmp46"(#loc70))
#loc232 = loc("tmp46"(#loc71))
#loc233 = loc("tmp46"(#loc72))
#loc234 = loc("tmp46"(#loc73))
#loc235 = loc("tmp46"(#loc74))
#loc236 = loc("tmp46"(#loc75))
#loc237 = loc("tmp49"(#loc76))
#loc238 = loc("tmp49"(#loc77))
#loc239 = loc("tmp53"(#loc78))
#loc240 = loc("tmp53"(#loc79))
#loc241 = loc("tmp55"(#loc80))
#loc242 = loc("tmp55"(#loc81))
#loc243 = loc("tmp55"(#loc82))
#loc244 = loc("tmp55"(#loc83))
#loc245 = loc("tmp55"(#loc84))
#loc246 = loc("tmp65"(#loc85))
#loc247 = loc("tmp65"(#loc86))
#loc248 = loc("tmp65"(#loc87))
#loc249 = loc("tmp65"(#loc88))
#loc250 = loc("tmp3"(#loc89))
#loc251 = loc("tmp4"(#loc90))
#loc252 = loc("tmp5"(#loc91))
#loc253 = loc("tmp8"(#loc92))
#loc254 = loc("tmp11"(#loc93))
#loc255 = loc("tmp13"(#loc94))
#loc256 = loc("tmp14"(#loc95))
#loc257 = loc("tmp15"(#loc96))
#loc258 = loc("tmp18"(#loc97))
#loc259 = loc("tmp19"(#loc98))
#loc260 = loc("tmp23"(#loc99))
#loc261 = loc("tmp24"(#loc100))
#loc262 = loc("tmp27"(#loc101))
#loc263 = loc("tmp28"(#loc102))
#loc264 = loc("tmp29"(#loc103))
#loc265 = loc("tmp31"(#loc104))
#loc266 = loc("tmp34"(#loc105))
#loc267 = loc("tmp36"(#loc106))
#loc268 = loc("tmp41"(#loc107))
#loc269 = loc("tmp42"(#loc108))
#loc270 = loc("tmp45"(#loc109))
#loc271 = loc("tmp48"(#loc110))
#loc272 = loc("tmp50"(#loc111))
#loc273 = loc("tmp51"(#loc112))
#loc274 = loc("tmp54"(#loc113))
#loc275 = loc("tmp57"(#loc114))
#loc276 = loc("tmp60"(#loc115))
#loc277 = loc("tmp61"(#loc116))
#loc278 = loc("tmp62"(#loc117))
#loc279 = loc("tmp64"(#loc118))
#loc280 = loc("tmp66"(#loc119))
#loc281 = loc("tmp68"(#loc120))
