#loc = loc("/NHNHOME/WORKSPACE/26msit001_A/jinhyeok/loop_TTT/lact/.cache_inductor_llm/z2/cz2txmfxx2i6appgz33bqnt6iqp4u346zprnn2id4z6iwnge73n2.py":18:0)
#loc1 = loc(unknown)
#loc31 = loc("/NHNHOME/WORKSPACE/26msit001_A/jinhyeok/loop_TTT/lact/.cache_inductor_llm/z2/cz2txmfxx2i6appgz33bqnt6iqp4u346zprnn2id4z6iwnge73n2.py":43:24)
#loc41 = loc("/NHNHOME/WORKSPACE/26msit001_A/jinhyeok/loop_TTT/lact/.cache_inductor_llm/z2/cz2txmfxx2i6appgz33bqnt6iqp4u346zprnn2id4z6iwnge73n2.py":61:26)
#loc56 = loc("in_out_ptr0"(#loc))
#loc57 = loc("in_out_ptr1"(#loc))
#loc58 = loc("in_out_ptr2"(#loc))
#loc59 = loc("in_ptr0"(#loc))
#loc60 = loc("in_ptr1"(#loc))
#loc61 = loc("in_ptr2"(#loc))
#loc62 = loc("in_ptr3"(#loc))
#loc63 = loc("out_ptr0"(#loc))
#loc64 = loc("xnumel"(#loc))
#loc65 = loc("r0_numel"(#loc))
#loc94 = loc("tmp6"(#loc31))
#loc103 = loc("tmp29"(#loc41))
#loc111 = loc(callsite(#loc1 at #loc94))
#loc113 = loc(callsite(#loc1 at #loc103))
module {
  tt.func public @triton_per_fused__to_copy_add_div_linalg_vector_norm_mul_22(%in_out_ptr0: !tt.ptr<f32> {tt.divisibility = 16 : i32} loc("in_out_ptr0"(#loc)), %in_out_ptr1: !tt.ptr<f32> {tt.divisibility = 16 : i32} loc("in_out_ptr1"(#loc)), %in_out_ptr2: !tt.ptr<f32> {tt.divisibility = 16 : i32} loc("in_out_ptr2"(#loc)), %in_ptr0: !tt.ptr<bf16> {tt.divisibility = 16 : i32} loc("in_ptr0"(#loc)), %in_ptr1: !tt.ptr<bf16> {tt.divisibility = 16 : i32} loc("in_ptr1"(#loc)), %in_ptr2: !tt.ptr<bf16> {tt.divisibility = 16 : i32} loc("in_ptr2"(#loc)), %in_ptr3: !tt.ptr<bf16> {tt.divisibility = 16 : i32} loc("in_ptr3"(#loc)), %out_ptr0: !tt.ptr<bf16> {tt.divisibility = 16 : i32} loc("out_ptr0"(#loc)), %xnumel: i32 {tt.divisibility = 16 : i32} loc("xnumel"(#loc)), %r0_numel: i32 {tt.divisibility = 16 : i32} loc("r0_numel"(#loc))) attributes {noinline = false} {
    %c192_i32 = arith.constant 192 : i32 loc(#loc1)
    %xmask = arith.constant 1536 : i32 loc(#loc66)
    %cst = arith.constant dense<0.000000e+00> : tensor<1x256xbf16> loc(#loc1)
    %tmp32 = arith.constant dense<9.99999974E-6> : tensor<1x1xf32> loc(#loc67)
    %tmp20 = arith.constant dense<2.836600e+00> : tensor<1x256xf32> loc(#loc68)
    %tmp15 = arith.constant dense<2.876900e+00> : tensor<1x256xf32> loc(#loc69)
    %tmp10 = arith.constant dense<3.741800e+00> : tensor<1x256xf32> loc(#loc70)
    %cst_0 = arith.constant dense<0.000000e+00> : tensor<1x256xf32> loc(#loc1)
    %r0_mask = arith.constant dense<192> : tensor<1x256xi32> loc(#loc71)
    %xoffset = tt.get_program_id x : i32 loc(#loc72)
    %xmask_1 = arith.cmpi slt, %xoffset, %xmask : i32 loc(#loc66)
    %xmask_2 = tt.splat %xmask_1 : i1 -> tensor<1x1xi1> loc(#loc66)
    %r0_index = tt.make_range {end = 256 : i32, start = 0 : i32} : tensor<256xi32> loc(#loc73)
    %r0_index_3 = tt.expand_dims %r0_index {axis = 0 : i32} : tensor<256xi32> -> tensor<1x256xi32> loc(#loc74)
    %r0_mask_4 = arith.cmpi slt, %r0_index_3, %r0_mask : tensor<1x256xi32> loc(#loc71)
    %tmp0 = arith.muli %xoffset, %c192_i32 : i32 loc(#loc75)
    %tmp0_5 = tt.splat %tmp0 : i32 -> tensor<1x256xi32> loc(#loc108)
    %tmp0_6 = arith.addi %r0_index_3, %tmp0_5 : tensor<1x256xi32> loc(#loc76)
    %tmp0_7 = tt.splat %in_ptr0 : !tt.ptr<bf16> -> tensor<1x256x!tt.ptr<bf16>> loc(#loc77)
    %tmp0_8 = tt.addptr %tmp0_7, %tmp0_6 : tensor<1x256x!tt.ptr<bf16>>, tensor<1x256xi32> loc(#loc77)
    %tmp0_9 = tt.splat %xmask_1 : i1 -> tensor<1x256xi1> loc(#loc109)
    %tmp0_10 = arith.andi %r0_mask_4, %tmp0_9 : tensor<1x256xi1> loc(#loc78)
    %tmp0_11 = tt.load %tmp0_8, %tmp0_10, %cst : tensor<1x256x!tt.ptr<bf16>> loc(#loc79)
    %tmp0_12 = arith.extf %tmp0_11 : tensor<1x256xbf16> to tensor<1x256xf32> loc(#loc80)
    %tmp8 = tt.splat %in_out_ptr1 : !tt.ptr<f32> -> tensor<1x256x!tt.ptr<f32>> loc(#loc81)
    %tmp8_13 = tt.addptr %tmp8, %tmp0_6 : tensor<1x256x!tt.ptr<f32>>, tensor<1x256xi32> loc(#loc81)
    %tmp8_14 = tt.load %tmp8_13, %tmp0_10, %cst_0 : tensor<1x256x!tt.ptr<f32>> loc(#loc82)
    %tmp11 = tt.splat %in_ptr1 : !tt.ptr<bf16> -> tensor<1x256x!tt.ptr<bf16>> loc(#loc83)
    %tmp11_15 = tt.addptr %tmp11, %tmp0_6 : tensor<1x256x!tt.ptr<bf16>>, tensor<1x256xi32> loc(#loc83)
    %tmp11_16 = tt.load %tmp11_15, %tmp0_10, %cst : tensor<1x256x!tt.ptr<bf16>> loc(#loc84)
    %tmp11_17 = arith.extf %tmp11_16 : tensor<1x256xbf16> to tensor<1x256xf32> loc(#loc85)
    %tmp16 = tt.splat %in_ptr2 : !tt.ptr<bf16> -> tensor<1x256x!tt.ptr<bf16>> loc(#loc86)
    %tmp16_18 = tt.addptr %tmp16, %tmp0_6 : tensor<1x256x!tt.ptr<bf16>>, tensor<1x256xi32> loc(#loc86)
    %tmp16_19 = tt.load %tmp16_18, %tmp0_10, %cst : tensor<1x256x!tt.ptr<bf16>> loc(#loc87)
    %tmp16_20 = arith.extf %tmp16_19 : tensor<1x256xbf16> to tensor<1x256xf32> loc(#loc88)
    %tmp21 = tt.splat %in_ptr3 : !tt.ptr<bf16> -> tensor<1x256x!tt.ptr<bf16>> loc(#loc89)
    %tmp21_21 = tt.addptr %tmp21, %tmp0_6 : tensor<1x256x!tt.ptr<bf16>>, tensor<1x256xi32> loc(#loc89)
    %tmp21_22 = tt.load %tmp21_21, %tmp0_10, %cst : tensor<1x256x!tt.ptr<bf16>> loc(#loc90)
    %tmp21_23 = arith.extf %tmp21_22 : tensor<1x256xbf16> to tensor<1x256xf32> loc(#loc91)
    %tmp2 = arith.mulf %tmp0_12, %tmp0_12 : tensor<1x256xf32> loc(#loc92)
    %tmp5 = arith.select %tmp0_10, %tmp2, %cst_0 : tensor<1x256xi1>, tensor<1x256xf32> loc(#loc93)
    %tmp6 = "tt.reduce"(%tmp5) <{axis = 1 : i32}> ({
    ^bb0(%tmp6_32: f32 loc(callsite(#loc1 at #loc94)), %tmp6_33: f32 loc(callsite(#loc1 at #loc94))):
      %tmp6_34 = arith.addf %tmp6_32, %tmp6_33 : f32 loc(#loc114)
      tt.reduce.return %tmp6_34 : f32 loc(#loc110)
    }) : (tensor<1x256xf32>) -> tensor<1xf32> loc(#loc110)
    %tmp6_24 = tt.expand_dims %tmp6 {axis = 1 : i32} : tensor<1xf32> -> tensor<1x1xf32> loc(#loc95)
    %tmp7 = tt.extern_elementwise %tmp6_24 {libname = "", libpath = "", pure = true, symbol = "__nv_sqrtf"} : (tensor<1x1xf32>) -> tensor<1x1xf32> loc(#loc96)
    %tmp10_25 = arith.mulf %tmp8_14, %tmp10 : tensor<1x256xf32> loc(#loc70)
    %tmp13 = arith.addf %tmp10_25, %tmp11_17 : tensor<1x256xf32> loc(#loc97)
    %tmp15_26 = arith.mulf %tmp13, %tmp15 : tensor<1x256xf32> loc(#loc69)
    %tmp18 = arith.addf %tmp15_26, %tmp16_20 : tensor<1x256xf32> loc(#loc98)
    %tmp20_27 = arith.mulf %tmp18, %tmp20 : tensor<1x256xf32> loc(#loc68)
    %tmp23 = arith.addf %tmp20_27, %tmp21_23 : tensor<1x256xf32> loc(#loc99)
    %tmp24 = arith.addf %tmp0_12, %tmp23 : tensor<1x256xf32> loc(#loc100)
    %tmp25 = arith.mulf %tmp24, %tmp24 : tensor<1x256xf32> loc(#loc101)
    %tmp28 = arith.select %tmp0_10, %tmp25, %cst_0 : tensor<1x256xi1>, tensor<1x256xf32> loc(#loc102)
    %tmp29 = "tt.reduce"(%tmp28) <{axis = 1 : i32}> ({
    ^bb0(%tmp29_32: f32 loc(callsite(#loc1 at #loc103)), %tmp29_33: f32 loc(callsite(#loc1 at #loc103))):
      %tmp29_34 = arith.addf %tmp29_32, %tmp29_33 : f32 loc(#loc115)
      tt.reduce.return %tmp29_34 : f32 loc(#loc112)
    }) : (tensor<1x256xf32>) -> tensor<1xf32> loc(#loc112)
    %tmp29_28 = tt.expand_dims %tmp29 {axis = 1 : i32} : tensor<1xf32> -> tensor<1x1xf32> loc(#loc104)
    %tmp30 = tt.extern_elementwise %tmp29_28 {libname = "", libpath = "", pure = true, symbol = "__nv_sqrtf"} : (tensor<1x1xf32>) -> tensor<1x1xf32> loc(#loc105)
    %tmp32_29 = arith.addf %tmp30, %tmp32 : tensor<1x1xf32> loc(#loc67)
    %tmp33 = tt.broadcast %tmp32_29 : tensor<1x1xf32> -> tensor<1x256xf32> loc(#loc106)
    %tmp33_30 = arith.divf %tmp24, %tmp33 : tensor<1x256xf32> loc(#loc106)
    %tmp34 = tt.broadcast %tmp7 : tensor<1x1xf32> -> tensor<1x256xf32> loc(#loc107)
    %tmp34_31 = arith.mulf %tmp33_30, %tmp34 : tensor<1x256xf32> loc(#loc107)
    gpu.barrier loc(#loc46)
    %0 = tt.addptr %in_out_ptr0, %xoffset : !tt.ptr<f32>, i32 loc(#loc47)
    %1 = tt.splat %0 : !tt.ptr<f32> -> tensor<1x1x!tt.ptr<f32>> loc(#loc47)
    tt.store %1, %tmp7, %xmask_2 : tensor<1x1x!tt.ptr<f32>> loc(#loc48)
    tt.store %tmp8_13, %tmp24, %tmp0_10 : tensor<1x256x!tt.ptr<f32>> loc(#loc49)
    gpu.barrier loc(#loc50)
    %2 = tt.addptr %in_out_ptr2, %xoffset : !tt.ptr<f32>, i32 loc(#loc51)
    %3 = tt.splat %2 : !tt.ptr<f32> -> tensor<1x1x!tt.ptr<f32>> loc(#loc51)
    tt.store %3, %tmp30, %xmask_2 : tensor<1x1x!tt.ptr<f32>> loc(#loc52)
    %4 = tt.splat %out_ptr0 : !tt.ptr<bf16> -> tensor<1x256x!tt.ptr<bf16>> loc(#loc53)
    %5 = tt.addptr %4, %tmp0_6 : tensor<1x256x!tt.ptr<bf16>>, tensor<1x256xi32> loc(#loc53)
    %6 = arith.truncf %tmp34_31 : tensor<1x256xf32> to tensor<1x256xbf16> loc(#loc54)
    tt.store %5, %6, %tmp0_10 : tensor<1x256x!tt.ptr<bf16>> loc(#loc54)
    tt.return loc(#loc55)
  } loc(#loc)
} loc(#loc)
#loc2 = loc("/NHNHOME/WORKSPACE/26msit001_A/jinhyeok/loop_TTT/lact/.cache_inductor_llm/z2/cz2txmfxx2i6appgz33bqnt6iqp4u346zprnn2id4z6iwnge73n2.py":26:21)
#loc3 = loc("/NHNHOME/WORKSPACE/26msit001_A/jinhyeok/loop_TTT/lact/.cache_inductor_llm/z2/cz2txmfxx2i6appgz33bqnt6iqp4u346zprnn2id4z6iwnge73n2.py":64:20)
#loc4 = loc("/NHNHOME/WORKSPACE/26msit001_A/jinhyeok/loop_TTT/lact/.cache_inductor_llm/z2/cz2txmfxx2i6appgz33bqnt6iqp4u346zprnn2id4z6iwnge73n2.py":54:20)
#loc5 = loc("/NHNHOME/WORKSPACE/26msit001_A/jinhyeok/loop_TTT/lact/.cache_inductor_llm/z2/cz2txmfxx2i6appgz33bqnt6iqp4u346zprnn2id4z6iwnge73n2.py":50:20)
#loc6 = loc("/NHNHOME/WORKSPACE/26msit001_A/jinhyeok/loop_TTT/lact/.cache_inductor_llm/z2/cz2txmfxx2i6appgz33bqnt6iqp4u346zprnn2id4z6iwnge73n2.py":46:19)
#loc7 = loc("/NHNHOME/WORKSPACE/26msit001_A/jinhyeok/loop_TTT/lact/.cache_inductor_llm/z2/cz2txmfxx2i6appgz33bqnt6iqp4u346zprnn2id4z6iwnge73n2.py":29:25)
#loc8 = loc("/NHNHOME/WORKSPACE/26msit001_A/jinhyeok/loop_TTT/lact/.cache_inductor_llm/z2/cz2txmfxx2i6appgz33bqnt6iqp4u346zprnn2id4z6iwnge73n2.py":24:28)
#loc9 = loc("/NHNHOME/WORKSPACE/26msit001_A/jinhyeok/loop_TTT/lact/.cache_inductor_llm/z2/cz2txmfxx2i6appgz33bqnt6iqp4u346zprnn2id4z6iwnge73n2.py":27:28)
#loc10 = loc("/NHNHOME/WORKSPACE/26msit001_A/jinhyeok/loop_TTT/lact/.cache_inductor_llm/z2/cz2txmfxx2i6appgz33bqnt6iqp4u346zprnn2id4z6iwnge73n2.py":27:38)
#loc11 = loc("/NHNHOME/WORKSPACE/26msit001_A/jinhyeok/loop_TTT/lact/.cache_inductor_llm/z2/cz2txmfxx2i6appgz33bqnt6iqp4u346zprnn2id4z6iwnge73n2.py":34:41)
#loc12 = loc("/NHNHOME/WORKSPACE/26msit001_A/jinhyeok/loop_TTT/lact/.cache_inductor_llm/z2/cz2txmfxx2i6appgz33bqnt6iqp4u346zprnn2id4z6iwnge73n2.py":34:37)
#loc13 = loc("/NHNHOME/WORKSPACE/26msit001_A/jinhyeok/loop_TTT/lact/.cache_inductor_llm/z2/cz2txmfxx2i6appgz33bqnt6iqp4u346zprnn2id4z6iwnge73n2.py":34:30)
#loc14 = loc("/NHNHOME/WORKSPACE/26msit001_A/jinhyeok/loop_TTT/lact/.cache_inductor_llm/z2/cz2txmfxx2i6appgz33bqnt6iqp4u346zprnn2id4z6iwnge73n2.py":34:56)
#loc15 = loc("/NHNHOME/WORKSPACE/26msit001_A/jinhyeok/loop_TTT/lact/.cache_inductor_llm/z2/cz2txmfxx2i6appgz33bqnt6iqp4u346zprnn2id4z6iwnge73n2.py":34:46)
#loc16 = loc("/NHNHOME/WORKSPACE/26msit001_A/jinhyeok/loop_TTT/lact/.cache_inductor_llm/z2/cz2txmfxx2i6appgz33bqnt6iqp4u346zprnn2id4z6iwnge73n2.py":34:77)
#loc17 = loc("/NHNHOME/WORKSPACE/26msit001_A/jinhyeok/loop_TTT/lact/.cache_inductor_llm/z2/cz2txmfxx2i6appgz33bqnt6iqp4u346zprnn2id4z6iwnge73n2.py":35:34)
#loc18 = loc("/NHNHOME/WORKSPACE/26msit001_A/jinhyeok/loop_TTT/lact/.cache_inductor_llm/z2/cz2txmfxx2i6appgz33bqnt6iqp4u346zprnn2id4z6iwnge73n2.py":35:50)
#loc19 = loc("/NHNHOME/WORKSPACE/26msit001_A/jinhyeok/loop_TTT/lact/.cache_inductor_llm/z2/cz2txmfxx2i6appgz33bqnt6iqp4u346zprnn2id4z6iwnge73n2.py":36:31)
#loc20 = loc("/NHNHOME/WORKSPACE/26msit001_A/jinhyeok/loop_TTT/lact/.cache_inductor_llm/z2/cz2txmfxx2i6appgz33bqnt6iqp4u346zprnn2id4z6iwnge73n2.py":36:47)
#loc21 = loc("/NHNHOME/WORKSPACE/26msit001_A/jinhyeok/loop_TTT/lact/.cache_inductor_llm/z2/cz2txmfxx2i6appgz33bqnt6iqp4u346zprnn2id4z6iwnge73n2.py":36:78)
#loc22 = loc("/NHNHOME/WORKSPACE/26msit001_A/jinhyeok/loop_TTT/lact/.cache_inductor_llm/z2/cz2txmfxx2i6appgz33bqnt6iqp4u346zprnn2id4z6iwnge73n2.py":37:31)
#loc23 = loc("/NHNHOME/WORKSPACE/26msit001_A/jinhyeok/loop_TTT/lact/.cache_inductor_llm/z2/cz2txmfxx2i6appgz33bqnt6iqp4u346zprnn2id4z6iwnge73n2.py":37:47)
#loc24 = loc("/NHNHOME/WORKSPACE/26msit001_A/jinhyeok/loop_TTT/lact/.cache_inductor_llm/z2/cz2txmfxx2i6appgz33bqnt6iqp4u346zprnn2id4z6iwnge73n2.py":37:78)
#loc25 = loc("/NHNHOME/WORKSPACE/26msit001_A/jinhyeok/loop_TTT/lact/.cache_inductor_llm/z2/cz2txmfxx2i6appgz33bqnt6iqp4u346zprnn2id4z6iwnge73n2.py":38:31)
#loc26 = loc("/NHNHOME/WORKSPACE/26msit001_A/jinhyeok/loop_TTT/lact/.cache_inductor_llm/z2/cz2txmfxx2i6appgz33bqnt6iqp4u346zprnn2id4z6iwnge73n2.py":38:47)
#loc27 = loc("/NHNHOME/WORKSPACE/26msit001_A/jinhyeok/loop_TTT/lact/.cache_inductor_llm/z2/cz2txmfxx2i6appgz33bqnt6iqp4u346zprnn2id4z6iwnge73n2.py":38:78)
#loc28 = loc("/NHNHOME/WORKSPACE/26msit001_A/jinhyeok/loop_TTT/lact/.cache_inductor_llm/z2/cz2txmfxx2i6appgz33bqnt6iqp4u346zprnn2id4z6iwnge73n2.py":40:18)
#loc29 = loc("/NHNHOME/WORKSPACE/26msit001_A/jinhyeok/loop_TTT/lact/.cache_inductor_llm/z2/cz2txmfxx2i6appgz33bqnt6iqp4u346zprnn2id4z6iwnge73n2.py":42:43)
#loc30 = loc("/NHNHOME/WORKSPACE/26msit001_A/jinhyeok/TTT_camera_embedding/.venv_llm/lib/python3.12/site-packages/triton/language/standard.py":291:36)
#loc32 = loc("/NHNHOME/WORKSPACE/26msit001_A/jinhyeok/TTT_camera_embedding/.venv_llm/lib/python3.12/site-packages/triton/language/standard.py":261:15)
#loc33 = loc("/NHNHOME/WORKSPACE/26msit001_A/jinhyeok/loop_TTT/lact/.cache_inductor_llm/z2/cz2txmfxx2i6appgz33bqnt6iqp4u346zprnn2id4z6iwnge73n2.py":43:27)
#loc34 = loc("/NHNHOME/WORKSPACE/26msit001_A/jinhyeok/loop_TTT/lact/.cache_inductor_llm/z2/cz2txmfxx2i6appgz33bqnt6iqp4u346zprnn2id4z6iwnge73n2.py":44:26)
#loc35 = loc("/NHNHOME/WORKSPACE/26msit001_A/jinhyeok/loop_TTT/lact/.cache_inductor_llm/z2/cz2txmfxx2i6appgz33bqnt6iqp4u346zprnn2id4z6iwnge73n2.py":48:20)
#loc36 = loc("/NHNHOME/WORKSPACE/26msit001_A/jinhyeok/loop_TTT/lact/.cache_inductor_llm/z2/cz2txmfxx2i6appgz33bqnt6iqp4u346zprnn2id4z6iwnge73n2.py":52:20)
#loc37 = loc("/NHNHOME/WORKSPACE/26msit001_A/jinhyeok/loop_TTT/lact/.cache_inductor_llm/z2/cz2txmfxx2i6appgz33bqnt6iqp4u346zprnn2id4z6iwnge73n2.py":56:20)
#loc38 = loc("/NHNHOME/WORKSPACE/26msit001_A/jinhyeok/loop_TTT/lact/.cache_inductor_llm/z2/cz2txmfxx2i6appgz33bqnt6iqp4u346zprnn2id4z6iwnge73n2.py":57:19)
#loc39 = loc("/NHNHOME/WORKSPACE/26msit001_A/jinhyeok/loop_TTT/lact/.cache_inductor_llm/z2/cz2txmfxx2i6appgz33bqnt6iqp4u346zprnn2id4z6iwnge73n2.py":58:20)
#loc40 = loc("/NHNHOME/WORKSPACE/26msit001_A/jinhyeok/loop_TTT/lact/.cache_inductor_llm/z2/cz2txmfxx2i6appgz33bqnt6iqp4u346zprnn2id4z6iwnge73n2.py":60:45)
#loc42 = loc("/NHNHOME/WORKSPACE/26msit001_A/jinhyeok/loop_TTT/lact/.cache_inductor_llm/z2/cz2txmfxx2i6appgz33bqnt6iqp4u346zprnn2id4z6iwnge73n2.py":61:29)
#loc43 = loc("/NHNHOME/WORKSPACE/26msit001_A/jinhyeok/loop_TTT/lact/.cache_inductor_llm/z2/cz2txmfxx2i6appgz33bqnt6iqp4u346zprnn2id4z6iwnge73n2.py":62:27)
#loc44 = loc("/NHNHOME/WORKSPACE/26msit001_A/jinhyeok/loop_TTT/lact/.cache_inductor_llm/z2/cz2txmfxx2i6appgz33bqnt6iqp4u346zprnn2id4z6iwnge73n2.py":65:21)
#loc45 = loc("/NHNHOME/WORKSPACE/26msit001_A/jinhyeok/loop_TTT/lact/.cache_inductor_llm/z2/cz2txmfxx2i6appgz33bqnt6iqp4u346zprnn2id4z6iwnge73n2.py":66:20)
#loc46 = loc("/NHNHOME/WORKSPACE/26msit001_A/jinhyeok/loop_TTT/lact/.cache_inductor_llm/z2/cz2txmfxx2i6appgz33bqnt6iqp4u346zprnn2id4z6iwnge73n2.py":68:4)
#loc47 = loc("/NHNHOME/WORKSPACE/26msit001_A/jinhyeok/loop_TTT/lact/.cache_inductor_llm/z2/cz2txmfxx2i6appgz33bqnt6iqp4u346zprnn2id4z6iwnge73n2.py":69:28)
#loc48 = loc("/NHNHOME/WORKSPACE/26msit001_A/jinhyeok/loop_TTT/lact/.cache_inductor_llm/z2/cz2txmfxx2i6appgz33bqnt6iqp4u346zprnn2id4z6iwnge73n2.py":69:39)
#loc49 = loc("/NHNHOME/WORKSPACE/26msit001_A/jinhyeok/loop_TTT/lact/.cache_inductor_llm/z2/cz2txmfxx2i6appgz33bqnt6iqp4u346zprnn2id4z6iwnge73n2.py":70:51)
#loc50 = loc("/NHNHOME/WORKSPACE/26msit001_A/jinhyeok/loop_TTT/lact/.cache_inductor_llm/z2/cz2txmfxx2i6appgz33bqnt6iqp4u346zprnn2id4z6iwnge73n2.py":71:4)
#loc51 = loc("/NHNHOME/WORKSPACE/26msit001_A/jinhyeok/loop_TTT/lact/.cache_inductor_llm/z2/cz2txmfxx2i6appgz33bqnt6iqp4u346zprnn2id4z6iwnge73n2.py":72:28)
#loc52 = loc("/NHNHOME/WORKSPACE/26msit001_A/jinhyeok/loop_TTT/lact/.cache_inductor_llm/z2/cz2txmfxx2i6appgz33bqnt6iqp4u346zprnn2id4z6iwnge73n2.py":72:40)
#loc53 = loc("/NHNHOME/WORKSPACE/26msit001_A/jinhyeok/loop_TTT/lact/.cache_inductor_llm/z2/cz2txmfxx2i6appgz33bqnt6iqp4u346zprnn2id4z6iwnge73n2.py":73:25)
#loc54 = loc("/NHNHOME/WORKSPACE/26msit001_A/jinhyeok/loop_TTT/lact/.cache_inductor_llm/z2/cz2txmfxx2i6appgz33bqnt6iqp4u346zprnn2id4z6iwnge73n2.py":73:48)
#loc55 = loc("/NHNHOME/WORKSPACE/26msit001_A/jinhyeok/loop_TTT/lact/.cache_inductor_llm/z2/cz2txmfxx2i6appgz33bqnt6iqp4u346zprnn2id4z6iwnge73n2.py":73:4)
#loc66 = loc("xmask"(#loc2))
#loc67 = loc("tmp32"(#loc3))
#loc68 = loc("tmp20"(#loc4))
#loc69 = loc("tmp15"(#loc5))
#loc70 = loc("tmp10"(#loc6))
#loc71 = loc("r0_mask"(#loc7))
#loc72 = loc("xoffset"(#loc8))
#loc73 = loc("r0_index"(#loc9))
#loc74 = loc("r0_index"(#loc10))
#loc75 = loc("tmp0"(#loc11))
#loc76 = loc("tmp0"(#loc12))
#loc77 = loc("tmp0"(#loc13))
#loc78 = loc("tmp0"(#loc14))
#loc79 = loc("tmp0"(#loc15))
#loc80 = loc("tmp0"(#loc16))
#loc81 = loc("tmp8"(#loc17))
#loc82 = loc("tmp8"(#loc18))
#loc83 = loc("tmp11"(#loc19))
#loc84 = loc("tmp11"(#loc20))
#loc85 = loc("tmp11"(#loc21))
#loc86 = loc("tmp16"(#loc22))
#loc87 = loc("tmp16"(#loc23))
#loc88 = loc("tmp16"(#loc24))
#loc89 = loc("tmp21"(#loc25))
#loc90 = loc("tmp21"(#loc26))
#loc91 = loc("tmp21"(#loc27))
#loc92 = loc("tmp2"(#loc28))
#loc93 = loc("tmp5"(#loc29))
#loc95 = loc("tmp6"(#loc33))
#loc96 = loc("tmp7"(#loc34))
#loc97 = loc("tmp13"(#loc35))
#loc98 = loc("tmp18"(#loc36))
#loc99 = loc("tmp23"(#loc37))
#loc100 = loc("tmp24"(#loc38))
#loc101 = loc("tmp25"(#loc39))
#loc102 = loc("tmp28"(#loc40))
#loc104 = loc("tmp29"(#loc42))
#loc105 = loc("tmp30"(#loc43))
#loc106 = loc("tmp33"(#loc44))
#loc107 = loc("tmp34"(#loc45))
#loc108 = loc(fused[#loc76, #loc75])
#loc109 = loc(fused[#loc78, #loc66])
#loc110 = loc(callsite(#loc30 at #loc94))
#loc112 = loc(callsite(#loc30 at #loc103))
#loc114 = loc(callsite(#loc32 at #loc110))
#loc115 = loc(callsite(#loc32 at #loc112))
