#loc = loc("/NHNHOME/WORKSPACE/26msit001_A/jinhyeok/loop_TTT/lact/.cache_inductor_llm/sr/csr63ytwkatmhstcb4mxq6y36466gqqxbeaqjckqxg6w3nfvmko5.py":18:0)
#loc1 = loc(unknown)
#loc40 = loc("/NHNHOME/WORKSPACE/26msit001_A/jinhyeok/loop_TTT/lact/.cache_inductor_llm/sr/csr63ytwkatmhstcb4mxq6y36466gqqxbeaqjckqxg6w3nfvmko5.py":52:27)
#loc46 = loc("in_ptr0"(#loc))
#loc47 = loc("in_ptr1"(#loc))
#loc48 = loc("in_ptr2"(#loc))
#loc49 = loc("out_ptr0"(#loc))
#loc50 = loc("xnumel"(#loc))
#loc51 = loc("r0_numel"(#loc))
#loc84 = loc("tmp12"(#loc40))
#loc91 = loc(callsite(#loc1 at #loc84))
module {
  tt.func public @triton_red_fused__to_copy_mul_silu_sum_transpose_18(%in_ptr0: !tt.ptr<bf16> {tt.divisibility = 16 : i32} loc("in_ptr0"(#loc)), %in_ptr1: !tt.ptr<bf16> {tt.divisibility = 16 : i32} loc("in_ptr1"(#loc)), %in_ptr2: !tt.ptr<bf16> {tt.divisibility = 16 : i32} loc("in_ptr2"(#loc)), %out_ptr0: !tt.ptr<f32> {tt.divisibility = 16 : i32} loc("out_ptr0"(#loc)), %xnumel: i32 {tt.divisibility = 16 : i32} loc("xnumel"(#loc)), %r0_numel: i32 {tt.divisibility = 16 : i32} loc("r0_numel"(#loc))) attributes {noinline = false} {
    %cst = arith.constant dense<1.000000e+00> : tensor<64x64xf32> loc(#loc1)
    %cst_0 = arith.constant dense<0.000000e+00> : tensor<64x64xbf16> loc(#loc1)
    %c192_i32 = arith.constant 192 : i32 loc(#loc2)
    %c0_i32 = arith.constant 0 : i32 loc(#loc2)
    %cst_1 = arith.constant dense<196608> : tensor<64x1xi32> loc(#loc1)
    %cst_2 = arith.constant dense<1024> : tensor<1x64xi32> loc(#loc1)
    %cst_3 = arith.constant dense<192> : tensor<64x1xi32> loc(#loc1)
    %cst_4 = arith.constant dense<192> : tensor<1x64xi32> loc(#loc1)
    %cst_5 = arith.constant dense<0.000000e+00> : tensor<64x64xf32> loc(#loc1)
    %cst_6 = arith.constant dense<1024> : tensor<64x1xi32> loc(#loc1)
    %c64_i32 = arith.constant 64 : i32 loc(#loc1)
    %xoffset = tt.get_program_id x : i32 loc(#loc52)
    %xoffset_7 = arith.muli %xoffset, %c64_i32 : i32 loc(#loc53)
    %xindex = tt.make_range {end = 64 : i32, start = 0 : i32} : tensor<64xi32> loc(#loc54)
    %xindex_8 = tt.expand_dims %xindex {axis = 1 : i32} : tensor<64xi32> -> tensor<64x1xi32> loc(#loc55)
    %xindex_9 = tt.splat %xoffset_7 : i32 -> tensor<64x1xi32> loc(#loc56)
    %xindex_10 = arith.addi %xindex_9, %xindex_8 : tensor<64x1xi32> loc(#loc56)
    %r0_base = tt.expand_dims %xindex {axis = 0 : i32} : tensor<64xi32> -> tensor<1x64xi32> loc(#loc57)
    %x0 = arith.remsi %xindex_10, %cst_6 : tensor<64x1xi32> loc(#loc58)
    %x1 = arith.divsi %xindex_10, %cst_6 : tensor<64x1xi32> loc(#loc59)
    %_tmp12 = scf.for %r0_offset = %c0_i32 to %c192_i32 step %c64_i32 iter_args(%_tmp12_12 = %cst_5) -> (tensor<64x64xf32>)  : i32 {
      %r0_index = tt.splat %r0_offset : i32 -> tensor<1x64xi32> loc(#loc61)
      %r0_index_13 = arith.addi %r0_index, %r0_base : tensor<1x64xi32> loc(#loc61)
      %r0_mask = arith.cmpi slt, %r0_index_13, %cst_4 : tensor<1x64xi32> loc(#loc62)
      %tmp0 = arith.muli %xindex_10, %cst_3 : tensor<64x1xi32> loc(#loc63)
      %tmp0_14 = tt.broadcast %r0_index_13 : tensor<1x64xi32> -> tensor<64x64xi32> loc(#loc64)
      %tmp0_15 = tt.broadcast %tmp0 : tensor<64x1xi32> -> tensor<64x64xi32> loc(#loc64)
      %tmp0_16 = arith.addi %tmp0_14, %tmp0_15 : tensor<64x64xi32> loc(#loc64)
      %tmp0_17 = tt.splat %in_ptr0 : !tt.ptr<bf16> -> tensor<64x64x!tt.ptr<bf16>> loc(#loc65)
      %tmp0_18 = tt.addptr %tmp0_17, %tmp0_16 : tensor<64x64x!tt.ptr<bf16>>, tensor<64x64xi32> loc(#loc65)
      %tmp0_19 = tt.broadcast %r0_mask : tensor<1x64xi1> -> tensor<64x64xi1> loc(#loc66)
      %tmp0_20 = tt.load %tmp0_18, %tmp0_19, %cst_0 evictionPolicy = evict_first : tensor<64x64x!tt.ptr<bf16>> loc(#loc66)
      %tmp0_21 = arith.extf %tmp0_20 : tensor<64x64xbf16> to tensor<64x64xf32> loc(#loc67)
      %tmp2 = arith.muli %r0_index_13, %cst_2 : tensor<1x64xi32> loc(#loc68)
      %tmp2_22 = tt.broadcast %x0 : tensor<64x1xi32> -> tensor<64x64xi32> loc(#loc69)
      %tmp2_23 = tt.broadcast %tmp2 : tensor<1x64xi32> -> tensor<64x64xi32> loc(#loc69)
      %tmp2_24 = arith.addi %tmp2_22, %tmp2_23 : tensor<64x64xi32> loc(#loc69)
      %tmp2_25 = arith.muli %x1, %cst_1 : tensor<64x1xi32> loc(#loc70)
      %tmp2_26 = tt.broadcast %tmp2_25 : tensor<64x1xi32> -> tensor<64x64xi32> loc(#loc71)
      %tmp2_27 = arith.addi %tmp2_24, %tmp2_26 : tensor<64x64xi32> loc(#loc71)
      %tmp2_28 = tt.splat %in_ptr1 : !tt.ptr<bf16> -> tensor<64x64x!tt.ptr<bf16>> loc(#loc72)
      %tmp2_29 = tt.addptr %tmp2_28, %tmp2_27 : tensor<64x64x!tt.ptr<bf16>>, tensor<64x64xi32> loc(#loc72)
      %tmp2_30 = tt.load %tmp2_29, %tmp0_19, %cst_0 evictionPolicy = evict_first : tensor<64x64x!tt.ptr<bf16>> loc(#loc73)
      %tmp2_31 = arith.extf %tmp2_30 : tensor<64x64xbf16> to tensor<64x64xf32> loc(#loc74)
      %tmp7 = tt.splat %in_ptr2 : !tt.ptr<bf16> -> tensor<64x64x!tt.ptr<bf16>> loc(#loc75)
      %tmp7_32 = tt.addptr %tmp7, %tmp2_27 : tensor<64x64x!tt.ptr<bf16>>, tensor<64x64xi32> loc(#loc75)
      %tmp7_33 = tt.load %tmp7_32, %tmp0_19, %cst_0 evictionPolicy = evict_first : tensor<64x64x!tt.ptr<bf16>> loc(#loc76)
      %tmp7_34 = arith.extf %tmp7_33 : tensor<64x64xbf16> to tensor<64x64xf32> loc(#loc77)
      %tmp4 = arith.subf %cst_5, %tmp2_31 : tensor<64x64xf32> loc(#loc86)
      %tmp4_35 = math.exp %tmp4 : tensor<64x64xf32> loc(#loc87)
      %tmp4_36 = arith.addf %tmp4_35, %cst : tensor<64x64xf32> loc(#loc88)
      %tmp4_37 = arith.divf %cst, %tmp4_36 : tensor<64x64xf32> loc(#loc89)
      %tmp5 = arith.mulf %tmp2_31, %tmp4_37 : tensor<64x64xf32> loc(#loc79)
      %tmp8 = arith.mulf %tmp5, %tmp7_34 : tensor<64x64xf32> loc(#loc80)
      %tmp10 = arith.mulf %tmp0_21, %tmp8 : tensor<64x64xf32> loc(#loc81)
      %tmp13 = arith.addf %_tmp12_12, %tmp10 : tensor<64x64xf32> loc(#loc82)
      %_tmp12_38 = arith.select %tmp0_19, %tmp13, %_tmp12_12 : tensor<64x64xi1>, tensor<64x64xf32> loc(#loc83)
      scf.yield %_tmp12_38 : tensor<64x64xf32> loc(#loc38)
    } loc(#loc60)
    %tmp12 = "tt.reduce"(%_tmp12) <{axis = 1 : i32}> ({
    ^bb0(%tmp12_12: f32 loc(callsite(#loc1 at #loc84)), %tmp12_13: f32 loc(callsite(#loc1 at #loc84))):
      %tmp12_14 = arith.addf %tmp12_12, %tmp12_13 : f32 loc(#loc92)
      tt.reduce.return %tmp12_14 : f32 loc(#loc90)
    }) : (tensor<64x64xf32>) -> tensor<64xf32> loc(#loc90)
    %tmp12_11 = tt.expand_dims %tmp12 {axis = 1 : i32} : tensor<64xf32> -> tensor<64x1xf32> loc(#loc85)
    %0 = tt.splat %out_ptr0 : !tt.ptr<f32> -> tensor<64x1x!tt.ptr<f32>> loc(#loc43)
    %1 = tt.addptr %0, %xindex_10 : tensor<64x1x!tt.ptr<f32>>, tensor<64x1xi32> loc(#loc43)
    tt.store %1, %tmp12_11 : tensor<64x1x!tt.ptr<f32>> loc(#loc44)
    tt.return loc(#loc45)
  } loc(#loc)
} loc(#loc)
#loc2 = loc("/NHNHOME/WORKSPACE/26msit001_A/jinhyeok/loop_TTT/lact/.cache_inductor_llm/sr/csr63ytwkatmhstcb4mxq6y36466gqqxbeaqjckqxg6w3nfvmko5.py":32:40)
#loc3 = loc("/NHNHOME/WORKSPACE/26msit001_A/jinhyeok/loop_TTT/lact/.cache_inductor_llm/sr/csr63ytwkatmhstcb4mxq6y36466gqqxbeaqjckqxg6w3nfvmko5.py":23:28)
#loc4 = loc("/NHNHOME/WORKSPACE/26msit001_A/jinhyeok/loop_TTT/lact/.cache_inductor_llm/sr/csr63ytwkatmhstcb4mxq6y36466gqqxbeaqjckqxg6w3nfvmko5.py":23:33)
#loc5 = loc("/NHNHOME/WORKSPACE/26msit001_A/jinhyeok/loop_TTT/lact/.cache_inductor_llm/sr/csr63ytwkatmhstcb4mxq6y36466gqqxbeaqjckqxg6w3nfvmko5.py":24:36)
#loc6 = loc("/NHNHOME/WORKSPACE/26msit001_A/jinhyeok/loop_TTT/lact/.cache_inductor_llm/sr/csr63ytwkatmhstcb4mxq6y36466gqqxbeaqjckqxg6w3nfvmko5.py":24:44)
#loc7 = loc("/NHNHOME/WORKSPACE/26msit001_A/jinhyeok/loop_TTT/lact/.cache_inductor_llm/sr/csr63ytwkatmhstcb4mxq6y36466gqqxbeaqjckqxg6w3nfvmko5.py":24:23)
#loc8 = loc("/NHNHOME/WORKSPACE/26msit001_A/jinhyeok/loop_TTT/lact/.cache_inductor_llm/sr/csr63ytwkatmhstcb4mxq6y36466gqqxbeaqjckqxg6w3nfvmko5.py":26:37)
#loc9 = loc("/NHNHOME/WORKSPACE/26msit001_A/jinhyeok/loop_TTT/lact/.cache_inductor_llm/sr/csr63ytwkatmhstcb4mxq6y36466gqqxbeaqjckqxg6w3nfvmko5.py":29:19)
#loc10 = loc("/NHNHOME/WORKSPACE/26msit001_A/jinhyeok/loop_TTT/lact/.cache_inductor_llm/sr/csr63ytwkatmhstcb4mxq6y36466gqqxbeaqjckqxg6w3nfvmko5.py":30:19)
#loc11 = loc("/NHNHOME/WORKSPACE/26msit001_A/jinhyeok/loop_TTT/lact/.cache_inductor_llm/sr/csr63ytwkatmhstcb4mxq6y36466gqqxbeaqjckqxg6w3nfvmko5.py":33:31)
#loc12 = loc("/NHNHOME/WORKSPACE/26msit001_A/jinhyeok/loop_TTT/lact/.cache_inductor_llm/sr/csr63ytwkatmhstcb4mxq6y36466gqqxbeaqjckqxg6w3nfvmko5.py":34:29)
#loc13 = loc("/NHNHOME/WORKSPACE/26msit001_A/jinhyeok/loop_TTT/lact/.cache_inductor_llm/sr/csr63ytwkatmhstcb4mxq6y36466gqqxbeaqjckqxg6w3nfvmko5.py":38:45)
#loc14 = loc("/NHNHOME/WORKSPACE/26msit001_A/jinhyeok/loop_TTT/lact/.cache_inductor_llm/sr/csr63ytwkatmhstcb4mxq6y36466gqqxbeaqjckqxg6w3nfvmko5.py":38:41)
#loc15 = loc("/NHNHOME/WORKSPACE/26msit001_A/jinhyeok/loop_TTT/lact/.cache_inductor_llm/sr/csr63ytwkatmhstcb4mxq6y36466gqqxbeaqjckqxg6w3nfvmko5.py":38:34)
#loc16 = loc("/NHNHOME/WORKSPACE/26msit001_A/jinhyeok/loop_TTT/lact/.cache_inductor_llm/sr/csr63ytwkatmhstcb4mxq6y36466gqqxbeaqjckqxg6w3nfvmko5.py":38:50)
#loc17 = loc("/NHNHOME/WORKSPACE/26msit001_A/jinhyeok/loop_TTT/lact/.cache_inductor_llm/sr/csr63ytwkatmhstcb4mxq6y36466gqqxbeaqjckqxg6w3nfvmko5.py":38:104)
#loc18 = loc("/NHNHOME/WORKSPACE/26msit001_A/jinhyeok/loop_TTT/lact/.cache_inductor_llm/sr/csr63ytwkatmhstcb4mxq6y36466gqqxbeaqjckqxg6w3nfvmko5.py":39:44)
#loc19 = loc("/NHNHOME/WORKSPACE/26msit001_A/jinhyeok/loop_TTT/lact/.cache_inductor_llm/sr/csr63ytwkatmhstcb4mxq6y36466gqqxbeaqjckqxg6w3nfvmko5.py":39:39)
#loc20 = loc("/NHNHOME/WORKSPACE/26msit001_A/jinhyeok/loop_TTT/lact/.cache_inductor_llm/sr/csr63ytwkatmhstcb4mxq6y36466gqqxbeaqjckqxg6w3nfvmko5.py":39:58)
#loc21 = loc("/NHNHOME/WORKSPACE/26msit001_A/jinhyeok/loop_TTT/lact/.cache_inductor_llm/sr/csr63ytwkatmhstcb4mxq6y36466gqqxbeaqjckqxg6w3nfvmko5.py":39:51)
#loc22 = loc("/NHNHOME/WORKSPACE/26msit001_A/jinhyeok/loop_TTT/lact/.cache_inductor_llm/sr/csr63ytwkatmhstcb4mxq6y36466gqqxbeaqjckqxg6w3nfvmko5.py":39:34)
#loc23 = loc("/NHNHOME/WORKSPACE/26msit001_A/jinhyeok/loop_TTT/lact/.cache_inductor_llm/sr/csr63ytwkatmhstcb4mxq6y36466gqqxbeaqjckqxg6w3nfvmko5.py":39:63)
#loc24 = loc("/NHNHOME/WORKSPACE/26msit001_A/jinhyeok/loop_TTT/lact/.cache_inductor_llm/sr/csr63ytwkatmhstcb4mxq6y36466gqqxbeaqjckqxg6w3nfvmko5.py":39:117)
#loc25 = loc("/NHNHOME/WORKSPACE/26msit001_A/jinhyeok/loop_TTT/lact/.cache_inductor_llm/sr/csr63ytwkatmhstcb4mxq6y36466gqqxbeaqjckqxg6w3nfvmko5.py":40:34)
#loc26 = loc("/NHNHOME/WORKSPACE/26msit001_A/jinhyeok/loop_TTT/lact/.cache_inductor_llm/sr/csr63ytwkatmhstcb4mxq6y36466gqqxbeaqjckqxg6w3nfvmko5.py":40:63)
#loc27 = loc("/NHNHOME/WORKSPACE/26msit001_A/jinhyeok/loop_TTT/lact/.cache_inductor_llm/sr/csr63ytwkatmhstcb4mxq6y36466gqqxbeaqjckqxg6w3nfvmko5.py":40:117)
#loc28 = loc("/NHNHOME/WORKSPACE/26msit001_A/jinhyeok/TTT_camera_embedding/.venv_llm/lib/python3.12/site-packages/triton/language/standard.py":48:30)
#loc29 = loc("/NHNHOME/WORKSPACE/26msit001_A/jinhyeok/loop_TTT/lact/.cache_inductor_llm/sr/csr63ytwkatmhstcb4mxq6y36466gqqxbeaqjckqxg6w3nfvmko5.py":43:26)
#loc30 = loc("/NHNHOME/WORKSPACE/26msit001_A/jinhyeok/TTT_camera_embedding/.venv_llm/lib/python3.12/site-packages/triton/language/standard.py":48:29)
#loc31 = loc("/NHNHOME/WORKSPACE/26msit001_A/jinhyeok/TTT_camera_embedding/.venv_llm/lib/python3.12/site-packages/triton/language/standard.py":48:20)
#loc32 = loc("/NHNHOME/WORKSPACE/26msit001_A/jinhyeok/TTT_camera_embedding/.venv_llm/lib/python3.12/site-packages/triton/language/standard.py":48:16)
#loc33 = loc("/NHNHOME/WORKSPACE/26msit001_A/jinhyeok/loop_TTT/lact/.cache_inductor_llm/sr/csr63ytwkatmhstcb4mxq6y36466gqqxbeaqjckqxg6w3nfvmko5.py":44:22)
#loc34 = loc("/NHNHOME/WORKSPACE/26msit001_A/jinhyeok/loop_TTT/lact/.cache_inductor_llm/sr/csr63ytwkatmhstcb4mxq6y36466gqqxbeaqjckqxg6w3nfvmko5.py":46:22)
#loc35 = loc("/NHNHOME/WORKSPACE/26msit001_A/jinhyeok/loop_TTT/lact/.cache_inductor_llm/sr/csr63ytwkatmhstcb4mxq6y36466gqqxbeaqjckqxg6w3nfvmko5.py":48:23)
#loc36 = loc("/NHNHOME/WORKSPACE/26msit001_A/jinhyeok/loop_TTT/lact/.cache_inductor_llm/sr/csr63ytwkatmhstcb4mxq6y36466gqqxbeaqjckqxg6w3nfvmko5.py":50:25)
#loc37 = loc("/NHNHOME/WORKSPACE/26msit001_A/jinhyeok/loop_TTT/lact/.cache_inductor_llm/sr/csr63ytwkatmhstcb4mxq6y36466gqqxbeaqjckqxg6w3nfvmko5.py":51:42)
#loc38 = loc("/NHNHOME/WORKSPACE/26msit001_A/jinhyeok/loop_TTT/lact/.cache_inductor_llm/sr/csr63ytwkatmhstcb4mxq6y36466gqqxbeaqjckqxg6w3nfvmko5.py":51:8)
#loc39 = loc("/NHNHOME/WORKSPACE/26msit001_A/jinhyeok/TTT_camera_embedding/.venv_llm/lib/python3.12/site-packages/triton/language/standard.py":291:36)
#loc41 = loc("/NHNHOME/WORKSPACE/26msit001_A/jinhyeok/TTT_camera_embedding/.venv_llm/lib/python3.12/site-packages/triton/language/standard.py":261:15)
#loc42 = loc("/NHNHOME/WORKSPACE/26msit001_A/jinhyeok/loop_TTT/lact/.cache_inductor_llm/sr/csr63ytwkatmhstcb4mxq6y36466gqqxbeaqjckqxg6w3nfvmko5.py":52:30)
#loc43 = loc("/NHNHOME/WORKSPACE/26msit001_A/jinhyeok/loop_TTT/lact/.cache_inductor_llm/sr/csr63ytwkatmhstcb4mxq6y36466gqqxbeaqjckqxg6w3nfvmko5.py":53:25)
#loc44 = loc("/NHNHOME/WORKSPACE/26msit001_A/jinhyeok/loop_TTT/lact/.cache_inductor_llm/sr/csr63ytwkatmhstcb4mxq6y36466gqqxbeaqjckqxg6w3nfvmko5.py":53:37)
#loc45 = loc("/NHNHOME/WORKSPACE/26msit001_A/jinhyeok/loop_TTT/lact/.cache_inductor_llm/sr/csr63ytwkatmhstcb4mxq6y36466gqqxbeaqjckqxg6w3nfvmko5.py":53:4)
#loc52 = loc("xoffset"(#loc3))
#loc53 = loc("xoffset"(#loc4))
#loc54 = loc("xindex"(#loc5))
#loc55 = loc("xindex"(#loc6))
#loc56 = loc("xindex"(#loc7))
#loc57 = loc("r0_base"(#loc8))
#loc58 = loc("x0"(#loc9))
#loc59 = loc("x1"(#loc10))
#loc60 = loc("_tmp12"(#loc2))
#loc61 = loc("r0_index"(#loc11))
#loc62 = loc("r0_mask"(#loc12))
#loc63 = loc("tmp0"(#loc13))
#loc64 = loc("tmp0"(#loc14))
#loc65 = loc("tmp0"(#loc15))
#loc66 = loc("tmp0"(#loc16))
#loc67 = loc("tmp0"(#loc17))
#loc68 = loc("tmp2"(#loc18))
#loc69 = loc("tmp2"(#loc19))
#loc70 = loc("tmp2"(#loc20))
#loc71 = loc("tmp2"(#loc21))
#loc72 = loc("tmp2"(#loc22))
#loc73 = loc("tmp2"(#loc23))
#loc74 = loc("tmp2"(#loc24))
#loc75 = loc("tmp7"(#loc25))
#loc76 = loc("tmp7"(#loc26))
#loc77 = loc("tmp7"(#loc27))
#loc78 = loc("tmp4"(#loc29))
#loc79 = loc("tmp5"(#loc33))
#loc80 = loc("tmp8"(#loc34))
#loc81 = loc("tmp10"(#loc35))
#loc82 = loc("tmp13"(#loc36))
#loc83 = loc("_tmp12"(#loc37))
#loc85 = loc("tmp12"(#loc42))
#loc86 = loc(callsite(#loc28 at #loc78))
#loc87 = loc(callsite(#loc30 at #loc78))
#loc88 = loc(callsite(#loc31 at #loc78))
#loc89 = loc(callsite(#loc32 at #loc78))
#loc90 = loc(callsite(#loc39 at #loc84))
#loc92 = loc(callsite(#loc41 at #loc90))
