#loc = loc("/NHNHOME/WORKSPACE/26msit001_A/jinhyeok/loop_TTT/lact/.cache_inductor_llm/6s/c6srnyzp27ixfaa7ix7j6pxppdpluzl7d6naxnckrhrt3m32xfde.py":18:0)
#loc103 = loc("in_out_ptr0"(#loc))
#loc104 = loc("in_out_ptr1"(#loc))
#loc105 = loc("in_ptr0"(#loc))
#loc106 = loc("in_ptr1"(#loc))
#loc107 = loc("in_ptr2"(#loc))
#loc108 = loc("in_ptr3"(#loc))
#loc109 = loc("in_ptr4"(#loc))
#loc110 = loc("in_ptr5"(#loc))
#loc111 = loc("in_ptr6"(#loc))
#loc112 = loc("in_ptr7"(#loc))
#loc113 = loc("in_ptr8"(#loc))
#loc114 = loc("in_ptr9"(#loc))
#loc115 = loc("in_ptr10"(#loc))
#loc116 = loc("in_ptr11"(#loc))
#loc117 = loc("in_ptr12"(#loc))
#loc118 = loc("in_ptr13"(#loc))
#loc119 = loc("in_ptr14"(#loc))
#loc120 = loc("in_ptr15"(#loc))
#loc121 = loc("out_ptr0"(#loc))
#loc122 = loc("out_ptr1"(#loc))
#loc123 = loc("ynumel"(#loc))
#loc124 = loc("xnumel"(#loc))
module {
  tt.func public @triton_poi_fused__to_copy_add_div_eq_masked_fill_mul_transpose_zeros_like_33(%in_out_ptr0: !tt.ptr<bf16> {tt.divisibility = 16 : i32} loc("in_out_ptr0"(#loc)), %in_out_ptr1: !tt.ptr<bf16> {tt.divisibility = 16 : i32} loc("in_out_ptr1"(#loc)), %in_ptr0: !tt.ptr<f32> {tt.divisibility = 16 : i32} loc("in_ptr0"(#loc)), %in_ptr1: !tt.ptr<bf16> {tt.divisibility = 16 : i32} loc("in_ptr1"(#loc)), %in_ptr2: !tt.ptr<bf16> {tt.divisibility = 16 : i32} loc("in_ptr2"(#loc)), %in_ptr3: !tt.ptr<f32> {tt.divisibility = 16 : i32} loc("in_ptr3"(#loc)), %in_ptr4: !tt.ptr<f32> {tt.divisibility = 16 : i32} loc("in_ptr4"(#loc)), %in_ptr5: !tt.ptr<bf16> {tt.divisibility = 16 : i32} loc("in_ptr5"(#loc)), %in_ptr6: !tt.ptr<f32> {tt.divisibility = 16 : i32} loc("in_ptr6"(#loc)), %in_ptr7: !tt.ptr<f32> {tt.divisibility = 16 : i32} loc("in_ptr7"(#loc)), %in_ptr8: !tt.ptr<f32> {tt.divisibility = 16 : i32} loc("in_ptr8"(#loc)), %in_ptr9: !tt.ptr<f32> {tt.divisibility = 16 : i32} loc("in_ptr9"(#loc)), %in_ptr10: !tt.ptr<bf16> {tt.divisibility = 16 : i32} loc("in_ptr10"(#loc)), %in_ptr11: !tt.ptr<bf16> {tt.divisibility = 16 : i32} loc("in_ptr11"(#loc)), %in_ptr12: !tt.ptr<f32> {tt.divisibility = 16 : i32} loc("in_ptr12"(#loc)), %in_ptr13: !tt.ptr<f32> {tt.divisibility = 16 : i32} loc("in_ptr13"(#loc)), %in_ptr14: !tt.ptr<bf16> {tt.divisibility = 16 : i32} loc("in_ptr14"(#loc)), %in_ptr15: !tt.ptr<f32> {tt.divisibility = 16 : i32} loc("in_ptr15"(#loc)), %out_ptr0: !tt.ptr<bf16> {tt.divisibility = 16 : i32} loc("out_ptr0"(#loc)), %out_ptr1: !tt.ptr<bf16> {tt.divisibility = 16 : i32} loc("out_ptr1"(#loc)), %ynumel: i32 {tt.divisibility = 16 : i32} loc("ynumel"(#loc)), %xnumel: i32 {tt.divisibility = 16 : i32} loc("xnumel"(#loc))) attributes {noinline = false} {
    %cst = arith.constant dense<0.000000e+00> : tensor<4x256xf32> loc(#loc1)
    %cst_0 = arith.constant dense<0.000000e+00> : tensor<4x1xf32> loc(#loc1)
    %cst_1 = arith.constant dense<1.000000e-07> : tensor<4x1xf32> loc(#loc1)
    %cst_2 = arith.constant dense<4.084800e+00> : tensor<4x256xf32> loc(#loc1)
    %cst_3 = arith.constant dense<36864> : tensor<4x1xi32> loc(#loc1)
    %cst_4 = arith.constant dense<192> : tensor<4x1xi32> loc(#loc1)
    %cst_5 = arith.constant dense<192> : tensor<1x256xi32> loc(#loc1)
    %c256_i32 = arith.constant 256 : i32 loc(#loc1)
    %c4_i32 = arith.constant 4 : i32 loc(#loc1)
    %yoffset = tt.get_program_id y : i32 loc(#loc125)
    %yoffset_6 = arith.muli %yoffset, %c4_i32 : i32 loc(#loc126)
    %yindex = tt.make_range {end = 4 : i32, start = 0 : i32} : tensor<4xi32> loc(#loc127)
    %yindex_7 = tt.expand_dims %yindex {axis = 1 : i32} : tensor<4xi32> -> tensor<4x1xi32> loc(#loc128)
    %yindex_8 = tt.splat %yoffset_6 : i32 -> tensor<4x1xi32> loc(#loc129)
    %yindex_9 = arith.addi %yindex_8, %yindex_7 : tensor<4x1xi32> loc(#loc129)
    %xoffset = tt.get_program_id x : i32 loc(#loc130)
    %xoffset_10 = arith.muli %xoffset, %c256_i32 : i32 loc(#loc131)
    %xindex = tt.make_range {end = 256 : i32, start = 0 : i32} : tensor<256xi32> loc(#loc132)
    %xindex_11 = tt.expand_dims %xindex {axis = 0 : i32} : tensor<256xi32> -> tensor<1x256xi32> loc(#loc133)
    %xindex_12 = tt.splat %xoffset_10 : i32 -> tensor<1x256xi32> loc(#loc134)
    %xindex_13 = arith.addi %xindex_12, %xindex_11 : tensor<1x256xi32> loc(#loc134)
    %xmask = arith.cmpi slt, %xindex_13, %cst_5 : tensor<1x256xi32> loc(#loc135)
    %y0 = arith.remsi %yindex_9, %cst_4 : tensor<4x1xi32> loc(#loc136)
    %y1 = arith.divsi %yindex_9, %cst_4 : tensor<4x1xi32> loc(#loc137)
    %tmp0 = arith.muli %yindex_9, %cst_4 : tensor<4x1xi32> loc(#loc138)
    %tmp0_14 = tt.broadcast %xindex_13 : tensor<1x256xi32> -> tensor<4x256xi32> loc(#loc139)
    %tmp0_15 = tt.broadcast %tmp0 : tensor<4x1xi32> -> tensor<4x256xi32> loc(#loc139)
    %tmp0_16 = arith.addi %tmp0_14, %tmp0_15 : tensor<4x256xi32> loc(#loc139)
    %tmp0_17 = tt.splat %in_out_ptr0 : !tt.ptr<bf16> -> tensor<4x256x!tt.ptr<bf16>> loc(#loc140)
    %tmp0_18 = tt.addptr %tmp0_17, %tmp0_16 : tensor<4x256x!tt.ptr<bf16>>, tensor<4x256xi32> loc(#loc140)
    %tmp0_19 = tt.broadcast %xmask : tensor<1x256xi1> -> tensor<4x256xi1> loc(#loc141)
    %tmp0_20 = tt.load %tmp0_18, %tmp0_19 evictionPolicy = evict_last : tensor<4x256x!tt.ptr<bf16>> loc(#loc141)
    %tmp0_21 = arith.extf %tmp0_20 : tensor<4x256xbf16> to tensor<4x256xf32> loc(#loc142)
    %tmp2 = tt.splat %in_ptr0 : !tt.ptr<f32> -> tensor<4x256x!tt.ptr<f32>> loc(#loc143)
    %tmp2_22 = tt.addptr %tmp2, %tmp0_16 : tensor<4x256x!tt.ptr<f32>>, tensor<4x256xi32> loc(#loc143)
    %tmp2_23 = tt.load %tmp2_22, %tmp0_19 evictionPolicy = evict_last : tensor<4x256x!tt.ptr<f32>> loc(#loc144)
    %tmp6 = tt.splat %in_ptr1 : !tt.ptr<bf16> -> tensor<4x256x!tt.ptr<bf16>> loc(#loc145)
    %tmp6_24 = tt.addptr %tmp6, %tmp0_16 : tensor<4x256x!tt.ptr<bf16>>, tensor<4x256xi32> loc(#loc145)
    %tmp6_25 = tt.load %tmp6_24, %tmp0_19 evictionPolicy = evict_last : tensor<4x256x!tt.ptr<bf16>> loc(#loc146)
    %tmp6_26 = arith.extf %tmp6_25 : tensor<4x256xbf16> to tensor<4x256xf32> loc(#loc147)
    %tmp9 = arith.muli %xindex_13, %cst_5 : tensor<1x256xi32> loc(#loc148)
    %tmp9_27 = tt.broadcast %y0 : tensor<4x1xi32> -> tensor<4x256xi32> loc(#loc149)
    %tmp9_28 = tt.broadcast %tmp9 : tensor<1x256xi32> -> tensor<4x256xi32> loc(#loc149)
    %tmp9_29 = arith.addi %tmp9_27, %tmp9_28 : tensor<4x256xi32> loc(#loc149)
    %tmp9_30 = arith.muli %y1, %cst_3 : tensor<4x1xi32> loc(#loc150)
    %tmp9_31 = tt.broadcast %tmp9_30 : tensor<4x1xi32> -> tensor<4x256xi32> loc(#loc151)
    %tmp9_32 = arith.addi %tmp9_29, %tmp9_31 : tensor<4x256xi32> loc(#loc151)
    %tmp9_33 = tt.splat %in_ptr2 : !tt.ptr<bf16> -> tensor<4x256x!tt.ptr<bf16>> loc(#loc152)
    %tmp9_34 = tt.addptr %tmp9_33, %tmp9_32 : tensor<4x256x!tt.ptr<bf16>>, tensor<4x256xi32> loc(#loc152)
    %tmp9_35 = tt.load %tmp9_34, %tmp0_19 evictionPolicy = evict_last : tensor<4x256x!tt.ptr<bf16>> loc(#loc153)
    %tmp9_36 = arith.extf %tmp9_35 : tensor<4x256xbf16> to tensor<4x256xf32> loc(#loc154)
    %tmp12 = tt.splat %in_ptr3 : !tt.ptr<f32> -> tensor<4x1x!tt.ptr<f32>> loc(#loc155)
    %tmp12_37 = tt.addptr %tmp12, %y1 : tensor<4x1x!tt.ptr<f32>>, tensor<4x1xi32> loc(#loc155)
    %tmp12_38 = tt.load %tmp12_37 evictionPolicy = evict_last : tensor<4x1x!tt.ptr<f32>> loc(#loc156)
    %tmp17 = tt.splat %in_ptr4 : !tt.ptr<f32> -> tensor<4x1x!tt.ptr<f32>> loc(#loc157)
    %tmp17_39 = tt.addptr %tmp17, %y1 : tensor<4x1x!tt.ptr<f32>>, tensor<4x1xi32> loc(#loc157)
    %tmp17_40 = tt.load %tmp17_39 evictionPolicy = evict_last : tensor<4x1x!tt.ptr<f32>> loc(#loc158)
    %tmp20 = tt.splat %in_ptr5 : !tt.ptr<bf16> -> tensor<4x256x!tt.ptr<bf16>> loc(#loc159)
    %tmp20_41 = tt.addptr %tmp20, %tmp0_16 : tensor<4x256x!tt.ptr<bf16>>, tensor<4x256xi32> loc(#loc159)
    %tmp20_42 = tt.load %tmp20_41, %tmp0_19 evictionPolicy = evict_last : tensor<4x256x!tt.ptr<bf16>> loc(#loc160)
    %tmp20_43 = arith.extf %tmp20_42 : tensor<4x256xbf16> to tensor<4x256xf32> loc(#loc161)
    %tmp22 = tt.splat %in_ptr6 : !tt.ptr<f32> -> tensor<4x1x!tt.ptr<f32>> loc(#loc162)
    %tmp22_44 = tt.addptr %tmp22, %y1 : tensor<4x1x!tt.ptr<f32>>, tensor<4x1xi32> loc(#loc162)
    %tmp22_45 = tt.load %tmp22_44 evictionPolicy = evict_last : tensor<4x1x!tt.ptr<f32>> loc(#loc163)
    %tmp32 = tt.splat %in_ptr7 : !tt.ptr<f32> -> tensor<4x256x!tt.ptr<f32>> loc(#loc164)
    %tmp32_46 = tt.addptr %tmp32, %tmp0_16 : tensor<4x256x!tt.ptr<f32>>, tensor<4x256xi32> loc(#loc164)
    %tmp32_47 = tt.load %tmp32_46, %tmp0_19 evictionPolicy = evict_last : tensor<4x256x!tt.ptr<f32>> loc(#loc165)
    %tmp33 = tt.splat %in_ptr8 : !tt.ptr<f32> -> tensor<4x1x!tt.ptr<f32>> loc(#loc166)
    %tmp33_48 = tt.addptr %tmp33, %y1 : tensor<4x1x!tt.ptr<f32>>, tensor<4x1xi32> loc(#loc166)
    %tmp33_49 = tt.load %tmp33_48 evictionPolicy = evict_last : tensor<4x1x!tt.ptr<f32>> loc(#loc167)
    %tmp38 = tt.splat %in_out_ptr1 : !tt.ptr<bf16> -> tensor<4x256x!tt.ptr<bf16>> loc(#loc168)
    %tmp38_50 = tt.addptr %tmp38, %tmp0_16 : tensor<4x256x!tt.ptr<bf16>>, tensor<4x256xi32> loc(#loc168)
    %tmp38_51 = tt.load %tmp38_50, %tmp0_19 evictionPolicy = evict_last : tensor<4x256x!tt.ptr<bf16>> loc(#loc169)
    %tmp38_52 = arith.extf %tmp38_51 : tensor<4x256xbf16> to tensor<4x256xf32> loc(#loc170)
    %tmp40 = tt.splat %in_ptr9 : !tt.ptr<f32> -> tensor<4x256x!tt.ptr<f32>> loc(#loc171)
    %tmp40_53 = tt.addptr %tmp40, %tmp0_16 : tensor<4x256x!tt.ptr<f32>>, tensor<4x256xi32> loc(#loc171)
    %tmp40_54 = tt.load %tmp40_53, %tmp0_19 evictionPolicy = evict_last : tensor<4x256x!tt.ptr<f32>> loc(#loc172)
    %tmp43 = tt.splat %in_ptr10 : !tt.ptr<bf16> -> tensor<4x256x!tt.ptr<bf16>> loc(#loc173)
    %tmp43_55 = tt.addptr %tmp43, %tmp0_16 : tensor<4x256x!tt.ptr<bf16>>, tensor<4x256xi32> loc(#loc173)
    %tmp43_56 = tt.load %tmp43_55, %tmp0_19 evictionPolicy = evict_last : tensor<4x256x!tt.ptr<bf16>> loc(#loc174)
    %tmp43_57 = arith.extf %tmp43_56 : tensor<4x256xbf16> to tensor<4x256xf32> loc(#loc175)
    %tmp46 = tt.splat %in_ptr11 : !tt.ptr<bf16> -> tensor<4x256x!tt.ptr<bf16>> loc(#loc176)
    %tmp46_58 = tt.addptr %tmp46, %tmp9_32 : tensor<4x256x!tt.ptr<bf16>>, tensor<4x256xi32> loc(#loc176)
    %tmp46_59 = tt.load %tmp46_58, %tmp0_19 evictionPolicy = evict_last : tensor<4x256x!tt.ptr<bf16>> loc(#loc177)
    %tmp46_60 = arith.extf %tmp46_59 : tensor<4x256xbf16> to tensor<4x256xf32> loc(#loc178)
    %tmp49 = tt.splat %in_ptr12 : !tt.ptr<f32> -> tensor<4x1x!tt.ptr<f32>> loc(#loc179)
    %tmp49_61 = tt.addptr %tmp49, %y1 : tensor<4x1x!tt.ptr<f32>>, tensor<4x1xi32> loc(#loc179)
    %tmp49_62 = tt.load %tmp49_61 evictionPolicy = evict_last : tensor<4x1x!tt.ptr<f32>> loc(#loc180)
    %tmp53 = tt.splat %in_ptr13 : !tt.ptr<f32> -> tensor<4x1x!tt.ptr<f32>> loc(#loc181)
    %tmp53_63 = tt.addptr %tmp53, %y1 : tensor<4x1x!tt.ptr<f32>>, tensor<4x1xi32> loc(#loc181)
    %tmp53_64 = tt.load %tmp53_63 evictionPolicy = evict_last : tensor<4x1x!tt.ptr<f32>> loc(#loc182)
    %tmp55 = tt.splat %in_ptr14 : !tt.ptr<bf16> -> tensor<4x256x!tt.ptr<bf16>> loc(#loc183)
    %tmp55_65 = tt.addptr %tmp55, %tmp0_16 : tensor<4x256x!tt.ptr<bf16>>, tensor<4x256xi32> loc(#loc183)
    %tmp55_66 = tt.load %tmp55_65, %tmp0_19 evictionPolicy = evict_last : tensor<4x256x!tt.ptr<bf16>> loc(#loc184)
    %tmp55_67 = arith.extf %tmp55_66 : tensor<4x256xbf16> to tensor<4x256xf32> loc(#loc185)
    %tmp65 = tt.splat %in_ptr15 : !tt.ptr<f32> -> tensor<4x256x!tt.ptr<f32>> loc(#loc186)
    %tmp65_68 = tt.addptr %tmp65, %tmp0_16 : tensor<4x256x!tt.ptr<f32>>, tensor<4x256xi32> loc(#loc186)
    %tmp65_69 = tt.load %tmp65_68, %tmp0_19 evictionPolicy = evict_last : tensor<4x256x!tt.ptr<f32>> loc(#loc187)
    %tmp4 = arith.mulf %tmp2_23, %cst_2 : tensor<4x256xf32> loc(#loc188)
    %tmp5 = arith.addf %tmp0_21, %tmp4 : tensor<4x256xf32> loc(#loc189)
    %tmp8 = arith.addf %tmp5, %tmp6_26 : tensor<4x256xf32> loc(#loc190)
    %tmp11 = arith.addf %tmp8, %tmp9_36 : tensor<4x256xf32> loc(#loc191)
    %tmp14 = arith.addf %tmp12_38, %cst_1 : tensor<4x1xf32> loc(#loc192)
    %tmp15 = tt.broadcast %tmp14 : tensor<4x1xf32> -> tensor<4x256xf32> loc(#loc193)
    %tmp15_70 = arith.divf %tmp11, %tmp15 : tensor<4x256xf32> loc(#loc193)
    %tmp19 = arith.cmpf oeq, %tmp12_38, %cst_0 : tensor<4x1xf32> loc(#loc194)
    %tmp23 = arith.mulf %tmp22_45, %cst_0 : tensor<4x1xf32> loc(#loc195)
    %tmp24 = tt.broadcast %tmp23 : tensor<4x1xf32> -> tensor<4x256xf32> loc(#loc196)
    %tmp24_71 = arith.addf %tmp20_43, %tmp24 : tensor<4x256xf32> loc(#loc196)
    %tmp27 = tt.broadcast %tmp12_38 : tensor<4x1xf32> -> tensor<4x256xf32> loc(#loc197)
    %tmp27_72 = arith.divf %tmp24_71, %tmp27 : tensor<4x256xf32> loc(#loc197)
    %tmp28 = tt.broadcast %tmp19 : tensor<4x1xi1> -> tensor<4x256xi1> loc(#loc198)
    %tmp28_73 = arith.select %tmp28, %cst, %tmp27_72 : tensor<4x256xi1>, tensor<4x256xf32> loc(#loc198)
    %tmp29 = tt.broadcast %tmp17_40 : tensor<4x1xf32> -> tensor<4x256xf32> loc(#loc199)
    %tmp29_74 = arith.mulf %tmp29, %tmp28_73 : tensor<4x256xf32> loc(#loc199)
    %tmp31 = arith.addf %tmp15_70, %tmp29_74 : tensor<4x256xf32> loc(#loc200)
    %tmp34 = tt.broadcast %tmp33_49 : tensor<4x1xf32> -> tensor<4x256xf32> loc(#loc201)
    %tmp34_75 = arith.mulf %tmp32_47, %tmp34 : tensor<4x256xf32> loc(#loc201)
    %tmp36 = arith.addf %tmp34_75, %tmp31 : tensor<4x256xf32> loc(#loc202)
    %tmp41 = arith.mulf %tmp40_54, %cst_2 : tensor<4x256xf32> loc(#loc203)
    %tmp42 = arith.addf %tmp38_52, %tmp41 : tensor<4x256xf32> loc(#loc204)
    %tmp45 = arith.addf %tmp42, %tmp43_57 : tensor<4x256xf32> loc(#loc205)
    %tmp48 = arith.addf %tmp45, %tmp46_60 : tensor<4x256xf32> loc(#loc206)
    %tmp50 = arith.addf %tmp49_62, %cst_1 : tensor<4x1xf32> loc(#loc207)
    %tmp51 = tt.broadcast %tmp50 : tensor<4x1xf32> -> tensor<4x256xf32> loc(#loc208)
    %tmp51_76 = arith.divf %tmp48, %tmp51 : tensor<4x256xf32> loc(#loc208)
    %tmp54 = arith.cmpf oeq, %tmp49_62, %cst_0 : tensor<4x1xf32> loc(#loc209)
    %tmp57 = arith.addf %tmp55_67, %tmp24 : tensor<4x256xf32> loc(#loc210)
    %tmp60 = tt.broadcast %tmp49_62 : tensor<4x1xf32> -> tensor<4x256xf32> loc(#loc211)
    %tmp60_77 = arith.divf %tmp57, %tmp60 : tensor<4x256xf32> loc(#loc211)
    %tmp61 = tt.broadcast %tmp54 : tensor<4x1xi1> -> tensor<4x256xi1> loc(#loc212)
    %tmp61_78 = arith.select %tmp61, %cst, %tmp60_77 : tensor<4x256xi1>, tensor<4x256xf32> loc(#loc212)
    %tmp62 = tt.broadcast %tmp53_64 : tensor<4x1xf32> -> tensor<4x256xf32> loc(#loc213)
    %tmp62_79 = arith.mulf %tmp62, %tmp61_78 : tensor<4x256xf32> loc(#loc213)
    %tmp64 = arith.addf %tmp51_76, %tmp62_79 : tensor<4x256xf32> loc(#loc214)
    %tmp66 = arith.mulf %tmp65_69, %tmp34 : tensor<4x256xf32> loc(#loc215)
    %tmp68 = arith.addf %tmp66, %tmp64 : tensor<4x256xf32> loc(#loc216)
    gpu.barrier loc(#loc94)
    %0 = arith.truncf %tmp31 : tensor<4x256xf32> to tensor<4x256xbf16> loc(#loc95)
    tt.store %tmp0_18, %0, %tmp0_19 : tensor<4x256x!tt.ptr<bf16>> loc(#loc95)
    %1 = tt.splat %out_ptr0 : !tt.ptr<bf16> -> tensor<4x256x!tt.ptr<bf16>> loc(#loc96)
    %2 = tt.addptr %1, %tmp0_16 : tensor<4x256x!tt.ptr<bf16>>, tensor<4x256xi32> loc(#loc96)
    %3 = arith.truncf %tmp36 : tensor<4x256xf32> to tensor<4x256xbf16> loc(#loc97)
    tt.store %2, %3, %tmp0_19 : tensor<4x256x!tt.ptr<bf16>> loc(#loc97)
    gpu.barrier loc(#loc98)
    %4 = arith.truncf %tmp64 : tensor<4x256xf32> to tensor<4x256xbf16> loc(#loc99)
    tt.store %tmp38_50, %4, %tmp0_19 : tensor<4x256x!tt.ptr<bf16>> loc(#loc99)
    %5 = tt.splat %out_ptr1 : !tt.ptr<bf16> -> tensor<4x256x!tt.ptr<bf16>> loc(#loc100)
    %6 = tt.addptr %5, %tmp0_16 : tensor<4x256x!tt.ptr<bf16>>, tensor<4x256xi32> loc(#loc100)
    %7 = arith.truncf %tmp68 : tensor<4x256xf32> to tensor<4x256xbf16> loc(#loc101)
    tt.store %6, %7, %tmp0_19 : tensor<4x256x!tt.ptr<bf16>> loc(#loc101)
    tt.return loc(#loc102)
  } loc(#loc)
} loc(#loc)
#loc1 = loc(unknown)
#loc2 = loc("/NHNHOME/WORKSPACE/26msit001_A/jinhyeok/loop_TTT/lact/.cache_inductor_llm/6s/c6srnyzp27ixfaa7ix7j6pxppdpluzl7d6naxnckrhrt3m32xfde.py":21:28)
#loc3 = loc("/NHNHOME/WORKSPACE/26msit001_A/jinhyeok/loop_TTT/lact/.cache_inductor_llm/6s/c6srnyzp27ixfaa7ix7j6pxppdpluzl7d6naxnckrhrt3m32xfde.py":21:33)
#loc4 = loc("/NHNHOME/WORKSPACE/26msit001_A/jinhyeok/loop_TTT/lact/.cache_inductor_llm/6s/c6srnyzp27ixfaa7ix7j6pxppdpluzl7d6naxnckrhrt3m32xfde.py":22:36)
#loc5 = loc("/NHNHOME/WORKSPACE/26msit001_A/jinhyeok/loop_TTT/lact/.cache_inductor_llm/6s/c6srnyzp27ixfaa7ix7j6pxppdpluzl7d6naxnckrhrt3m32xfde.py":22:44)
#loc6 = loc("/NHNHOME/WORKSPACE/26msit001_A/jinhyeok/loop_TTT/lact/.cache_inductor_llm/6s/c6srnyzp27ixfaa7ix7j6pxppdpluzl7d6naxnckrhrt3m32xfde.py":22:23)
#loc7 = loc("/NHNHOME/WORKSPACE/26msit001_A/jinhyeok/loop_TTT/lact/.cache_inductor_llm/6s/c6srnyzp27ixfaa7ix7j6pxppdpluzl7d6naxnckrhrt3m32xfde.py":24:28)
#loc8 = loc("/NHNHOME/WORKSPACE/26msit001_A/jinhyeok/loop_TTT/lact/.cache_inductor_llm/6s/c6srnyzp27ixfaa7ix7j6pxppdpluzl7d6naxnckrhrt3m32xfde.py":24:33)
#loc9 = loc("/NHNHOME/WORKSPACE/26msit001_A/jinhyeok/loop_TTT/lact/.cache_inductor_llm/6s/c6srnyzp27ixfaa7ix7j6pxppdpluzl7d6naxnckrhrt3m32xfde.py":25:36)
#loc10 = loc("/NHNHOME/WORKSPACE/26msit001_A/jinhyeok/loop_TTT/lact/.cache_inductor_llm/6s/c6srnyzp27ixfaa7ix7j6pxppdpluzl7d6naxnckrhrt3m32xfde.py":25:44)
#loc11 = loc("/NHNHOME/WORKSPACE/26msit001_A/jinhyeok/loop_TTT/lact/.cache_inductor_llm/6s/c6srnyzp27ixfaa7ix7j6pxppdpluzl7d6naxnckrhrt3m32xfde.py":25:23)
#loc12 = loc("/NHNHOME/WORKSPACE/26msit001_A/jinhyeok/loop_TTT/lact/.cache_inductor_llm/6s/c6srnyzp27ixfaa7ix7j6pxppdpluzl7d6naxnckrhrt3m32xfde.py":26:21)
#loc13 = loc("/NHNHOME/WORKSPACE/26msit001_A/jinhyeok/loop_TTT/lact/.cache_inductor_llm/6s/c6srnyzp27ixfaa7ix7j6pxppdpluzl7d6naxnckrhrt3m32xfde.py":29:19)
#loc14 = loc("/NHNHOME/WORKSPACE/26msit001_A/jinhyeok/loop_TTT/lact/.cache_inductor_llm/6s/c6srnyzp27ixfaa7ix7j6pxppdpluzl7d6naxnckrhrt3m32xfde.py":30:19)
#loc15 = loc("/NHNHOME/WORKSPACE/26msit001_A/jinhyeok/loop_TTT/lact/.cache_inductor_llm/6s/c6srnyzp27ixfaa7ix7j6pxppdpluzl7d6naxnckrhrt3m32xfde.py":31:43)
#loc16 = loc("/NHNHOME/WORKSPACE/26msit001_A/jinhyeok/loop_TTT/lact/.cache_inductor_llm/6s/c6srnyzp27ixfaa7ix7j6pxppdpluzl7d6naxnckrhrt3m32xfde.py":31:39)
#loc17 = loc("/NHNHOME/WORKSPACE/26msit001_A/jinhyeok/loop_TTT/lact/.cache_inductor_llm/6s/c6srnyzp27ixfaa7ix7j6pxppdpluzl7d6naxnckrhrt3m32xfde.py":31:34)
#loc18 = loc("/NHNHOME/WORKSPACE/26msit001_A/jinhyeok/loop_TTT/lact/.cache_inductor_llm/6s/c6srnyzp27ixfaa7ix7j6pxppdpluzl7d6naxnckrhrt3m32xfde.py":31:48)
#loc19 = loc("/NHNHOME/WORKSPACE/26msit001_A/jinhyeok/loop_TTT/lact/.cache_inductor_llm/6s/c6srnyzp27ixfaa7ix7j6pxppdpluzl7d6naxnckrhrt3m32xfde.py":31:88)
#loc20 = loc("/NHNHOME/WORKSPACE/26msit001_A/jinhyeok/loop_TTT/lact/.cache_inductor_llm/6s/c6srnyzp27ixfaa7ix7j6pxppdpluzl7d6naxnckrhrt3m32xfde.py":32:30)
#loc21 = loc("/NHNHOME/WORKSPACE/26msit001_A/jinhyeok/loop_TTT/lact/.cache_inductor_llm/6s/c6srnyzp27ixfaa7ix7j6pxppdpluzl7d6naxnckrhrt3m32xfde.py":32:44)
#loc22 = loc("/NHNHOME/WORKSPACE/26msit001_A/jinhyeok/loop_TTT/lact/.cache_inductor_llm/6s/c6srnyzp27ixfaa7ix7j6pxppdpluzl7d6naxnckrhrt3m32xfde.py":33:30)
#loc23 = loc("/NHNHOME/WORKSPACE/26msit001_A/jinhyeok/loop_TTT/lact/.cache_inductor_llm/6s/c6srnyzp27ixfaa7ix7j6pxppdpluzl7d6naxnckrhrt3m32xfde.py":33:44)
#loc24 = loc("/NHNHOME/WORKSPACE/26msit001_A/jinhyeok/loop_TTT/lact/.cache_inductor_llm/6s/c6srnyzp27ixfaa7ix7j6pxppdpluzl7d6naxnckrhrt3m32xfde.py":33:84)
#loc25 = loc("/NHNHOME/WORKSPACE/26msit001_A/jinhyeok/loop_TTT/lact/.cache_inductor_llm/6s/c6srnyzp27ixfaa7ix7j6pxppdpluzl7d6naxnckrhrt3m32xfde.py":34:39)
#loc26 = loc("/NHNHOME/WORKSPACE/26msit001_A/jinhyeok/loop_TTT/lact/.cache_inductor_llm/6s/c6srnyzp27ixfaa7ix7j6pxppdpluzl7d6naxnckrhrt3m32xfde.py":34:35)
#loc27 = loc("/NHNHOME/WORKSPACE/26msit001_A/jinhyeok/loop_TTT/lact/.cache_inductor_llm/6s/c6srnyzp27ixfaa7ix7j6pxppdpluzl7d6naxnckrhrt3m32xfde.py":34:50)
#loc28 = loc("/NHNHOME/WORKSPACE/26msit001_A/jinhyeok/loop_TTT/lact/.cache_inductor_llm/6s/c6srnyzp27ixfaa7ix7j6pxppdpluzl7d6naxnckrhrt3m32xfde.py":34:44)
#loc29 = loc("/NHNHOME/WORKSPACE/26msit001_A/jinhyeok/loop_TTT/lact/.cache_inductor_llm/6s/c6srnyzp27ixfaa7ix7j6pxppdpluzl7d6naxnckrhrt3m32xfde.py":34:30)
#loc30 = loc("/NHNHOME/WORKSPACE/26msit001_A/jinhyeok/loop_TTT/lact/.cache_inductor_llm/6s/c6srnyzp27ixfaa7ix7j6pxppdpluzl7d6naxnckrhrt3m32xfde.py":34:55)
#loc31 = loc("/NHNHOME/WORKSPACE/26msit001_A/jinhyeok/loop_TTT/lact/.cache_inductor_llm/6s/c6srnyzp27ixfaa7ix7j6pxppdpluzl7d6naxnckrhrt3m32xfde.py":34:95)
#loc32 = loc("/NHNHOME/WORKSPACE/26msit001_A/jinhyeok/loop_TTT/lact/.cache_inductor_llm/6s/c6srnyzp27ixfaa7ix7j6pxppdpluzl7d6naxnckrhrt3m32xfde.py":35:31)
#loc33 = loc("/NHNHOME/WORKSPACE/26msit001_A/jinhyeok/loop_TTT/lact/.cache_inductor_llm/6s/c6srnyzp27ixfaa7ix7j6pxppdpluzl7d6naxnckrhrt3m32xfde.py":35:36)
#loc34 = loc("/NHNHOME/WORKSPACE/26msit001_A/jinhyeok/loop_TTT/lact/.cache_inductor_llm/6s/c6srnyzp27ixfaa7ix7j6pxppdpluzl7d6naxnckrhrt3m32xfde.py":36:31)
#loc35 = loc("/NHNHOME/WORKSPACE/26msit001_A/jinhyeok/loop_TTT/lact/.cache_inductor_llm/6s/c6srnyzp27ixfaa7ix7j6pxppdpluzl7d6naxnckrhrt3m32xfde.py":36:36)
#loc36 = loc("/NHNHOME/WORKSPACE/26msit001_A/jinhyeok/loop_TTT/lact/.cache_inductor_llm/6s/c6srnyzp27ixfaa7ix7j6pxppdpluzl7d6naxnckrhrt3m32xfde.py":37:31)
#loc37 = loc("/NHNHOME/WORKSPACE/26msit001_A/jinhyeok/loop_TTT/lact/.cache_inductor_llm/6s/c6srnyzp27ixfaa7ix7j6pxppdpluzl7d6naxnckrhrt3m32xfde.py":37:45)
#loc38 = loc("/NHNHOME/WORKSPACE/26msit001_A/jinhyeok/loop_TTT/lact/.cache_inductor_llm/6s/c6srnyzp27ixfaa7ix7j6pxppdpluzl7d6naxnckrhrt3m32xfde.py":37:85)
#loc39 = loc("/NHNHOME/WORKSPACE/26msit001_A/jinhyeok/loop_TTT/lact/.cache_inductor_llm/6s/c6srnyzp27ixfaa7ix7j6pxppdpluzl7d6naxnckrhrt3m32xfde.py":38:31)
#loc40 = loc("/NHNHOME/WORKSPACE/26msit001_A/jinhyeok/loop_TTT/lact/.cache_inductor_llm/6s/c6srnyzp27ixfaa7ix7j6pxppdpluzl7d6naxnckrhrt3m32xfde.py":38:36)
#loc41 = loc("/NHNHOME/WORKSPACE/26msit001_A/jinhyeok/loop_TTT/lact/.cache_inductor_llm/6s/c6srnyzp27ixfaa7ix7j6pxppdpluzl7d6naxnckrhrt3m32xfde.py":39:31)
#loc42 = loc("/NHNHOME/WORKSPACE/26msit001_A/jinhyeok/loop_TTT/lact/.cache_inductor_llm/6s/c6srnyzp27ixfaa7ix7j6pxppdpluzl7d6naxnckrhrt3m32xfde.py":39:45)
#loc43 = loc("/NHNHOME/WORKSPACE/26msit001_A/jinhyeok/loop_TTT/lact/.cache_inductor_llm/6s/c6srnyzp27ixfaa7ix7j6pxppdpluzl7d6naxnckrhrt3m32xfde.py":40:31)
#loc44 = loc("/NHNHOME/WORKSPACE/26msit001_A/jinhyeok/loop_TTT/lact/.cache_inductor_llm/6s/c6srnyzp27ixfaa7ix7j6pxppdpluzl7d6naxnckrhrt3m32xfde.py":40:36)
#loc45 = loc("/NHNHOME/WORKSPACE/26msit001_A/jinhyeok/loop_TTT/lact/.cache_inductor_llm/6s/c6srnyzp27ixfaa7ix7j6pxppdpluzl7d6naxnckrhrt3m32xfde.py":41:35)
#loc46 = loc("/NHNHOME/WORKSPACE/26msit001_A/jinhyeok/loop_TTT/lact/.cache_inductor_llm/6s/c6srnyzp27ixfaa7ix7j6pxppdpluzl7d6naxnckrhrt3m32xfde.py":41:49)
#loc47 = loc("/NHNHOME/WORKSPACE/26msit001_A/jinhyeok/loop_TTT/lact/.cache_inductor_llm/6s/c6srnyzp27ixfaa7ix7j6pxppdpluzl7d6naxnckrhrt3m32xfde.py":41:89)
#loc48 = loc("/NHNHOME/WORKSPACE/26msit001_A/jinhyeok/loop_TTT/lact/.cache_inductor_llm/6s/c6srnyzp27ixfaa7ix7j6pxppdpluzl7d6naxnckrhrt3m32xfde.py":42:31)
#loc49 = loc("/NHNHOME/WORKSPACE/26msit001_A/jinhyeok/loop_TTT/lact/.cache_inductor_llm/6s/c6srnyzp27ixfaa7ix7j6pxppdpluzl7d6naxnckrhrt3m32xfde.py":42:45)
#loc50 = loc("/NHNHOME/WORKSPACE/26msit001_A/jinhyeok/loop_TTT/lact/.cache_inductor_llm/6s/c6srnyzp27ixfaa7ix7j6pxppdpluzl7d6naxnckrhrt3m32xfde.py":43:32)
#loc51 = loc("/NHNHOME/WORKSPACE/26msit001_A/jinhyeok/loop_TTT/lact/.cache_inductor_llm/6s/c6srnyzp27ixfaa7ix7j6pxppdpluzl7d6naxnckrhrt3m32xfde.py":43:46)
#loc52 = loc("/NHNHOME/WORKSPACE/26msit001_A/jinhyeok/loop_TTT/lact/.cache_inductor_llm/6s/c6srnyzp27ixfaa7ix7j6pxppdpluzl7d6naxnckrhrt3m32xfde.py":43:86)
#loc53 = loc("/NHNHOME/WORKSPACE/26msit001_A/jinhyeok/loop_TTT/lact/.cache_inductor_llm/6s/c6srnyzp27ixfaa7ix7j6pxppdpluzl7d6naxnckrhrt3m32xfde.py":44:32)
#loc54 = loc("/NHNHOME/WORKSPACE/26msit001_A/jinhyeok/loop_TTT/lact/.cache_inductor_llm/6s/c6srnyzp27ixfaa7ix7j6pxppdpluzl7d6naxnckrhrt3m32xfde.py":44:57)
#loc55 = loc("/NHNHOME/WORKSPACE/26msit001_A/jinhyeok/loop_TTT/lact/.cache_inductor_llm/6s/c6srnyzp27ixfaa7ix7j6pxppdpluzl7d6naxnckrhrt3m32xfde.py":44:97)
#loc56 = loc("/NHNHOME/WORKSPACE/26msit001_A/jinhyeok/loop_TTT/lact/.cache_inductor_llm/6s/c6srnyzp27ixfaa7ix7j6pxppdpluzl7d6naxnckrhrt3m32xfde.py":45:32)
#loc57 = loc("/NHNHOME/WORKSPACE/26msit001_A/jinhyeok/loop_TTT/lact/.cache_inductor_llm/6s/c6srnyzp27ixfaa7ix7j6pxppdpluzl7d6naxnckrhrt3m32xfde.py":45:37)
#loc58 = loc("/NHNHOME/WORKSPACE/26msit001_A/jinhyeok/loop_TTT/lact/.cache_inductor_llm/6s/c6srnyzp27ixfaa7ix7j6pxppdpluzl7d6naxnckrhrt3m32xfde.py":46:32)
#loc59 = loc("/NHNHOME/WORKSPACE/26msit001_A/jinhyeok/loop_TTT/lact/.cache_inductor_llm/6s/c6srnyzp27ixfaa7ix7j6pxppdpluzl7d6naxnckrhrt3m32xfde.py":46:37)
#loc60 = loc("/NHNHOME/WORKSPACE/26msit001_A/jinhyeok/loop_TTT/lact/.cache_inductor_llm/6s/c6srnyzp27ixfaa7ix7j6pxppdpluzl7d6naxnckrhrt3m32xfde.py":47:32)
#loc61 = loc("/NHNHOME/WORKSPACE/26msit001_A/jinhyeok/loop_TTT/lact/.cache_inductor_llm/6s/c6srnyzp27ixfaa7ix7j6pxppdpluzl7d6naxnckrhrt3m32xfde.py":47:46)
#loc62 = loc("/NHNHOME/WORKSPACE/26msit001_A/jinhyeok/loop_TTT/lact/.cache_inductor_llm/6s/c6srnyzp27ixfaa7ix7j6pxppdpluzl7d6naxnckrhrt3m32xfde.py":47:86)
#loc63 = loc("/NHNHOME/WORKSPACE/26msit001_A/jinhyeok/loop_TTT/lact/.cache_inductor_llm/6s/c6srnyzp27ixfaa7ix7j6pxppdpluzl7d6naxnckrhrt3m32xfde.py":48:32)
#loc64 = loc("/NHNHOME/WORKSPACE/26msit001_A/jinhyeok/loop_TTT/lact/.cache_inductor_llm/6s/c6srnyzp27ixfaa7ix7j6pxppdpluzl7d6naxnckrhrt3m32xfde.py":48:46)
#loc65 = loc("/NHNHOME/WORKSPACE/26msit001_A/jinhyeok/loop_TTT/lact/.cache_inductor_llm/6s/c6srnyzp27ixfaa7ix7j6pxppdpluzl7d6naxnckrhrt3m32xfde.py":51:18)
#loc66 = loc("/NHNHOME/WORKSPACE/26msit001_A/jinhyeok/loop_TTT/lact/.cache_inductor_llm/6s/c6srnyzp27ixfaa7ix7j6pxppdpluzl7d6naxnckrhrt3m32xfde.py":52:18)
#loc67 = loc("/NHNHOME/WORKSPACE/26msit001_A/jinhyeok/loop_TTT/lact/.cache_inductor_llm/6s/c6srnyzp27ixfaa7ix7j6pxppdpluzl7d6naxnckrhrt3m32xfde.py":54:18)
#loc68 = loc("/NHNHOME/WORKSPACE/26msit001_A/jinhyeok/loop_TTT/lact/.cache_inductor_llm/6s/c6srnyzp27ixfaa7ix7j6pxppdpluzl7d6naxnckrhrt3m32xfde.py":56:19)
#loc69 = loc("/NHNHOME/WORKSPACE/26msit001_A/jinhyeok/loop_TTT/lact/.cache_inductor_llm/6s/c6srnyzp27ixfaa7ix7j6pxppdpluzl7d6naxnckrhrt3m32xfde.py":58:20)
#loc70 = loc("/NHNHOME/WORKSPACE/26msit001_A/jinhyeok/loop_TTT/lact/.cache_inductor_llm/6s/c6srnyzp27ixfaa7ix7j6pxppdpluzl7d6naxnckrhrt3m32xfde.py":59:21)
#loc71 = loc("/NHNHOME/WORKSPACE/26msit001_A/jinhyeok/loop_TTT/lact/.cache_inductor_llm/6s/c6srnyzp27ixfaa7ix7j6pxppdpluzl7d6naxnckrhrt3m32xfde.py":62:21)
#loc72 = loc("/NHNHOME/WORKSPACE/26msit001_A/jinhyeok/loop_TTT/lact/.cache_inductor_llm/6s/c6srnyzp27ixfaa7ix7j6pxppdpluzl7d6naxnckrhrt3m32xfde.py":64:20)
#loc73 = loc("/NHNHOME/WORKSPACE/26msit001_A/jinhyeok/loop_TTT/lact/.cache_inductor_llm/6s/c6srnyzp27ixfaa7ix7j6pxppdpluzl7d6naxnckrhrt3m32xfde.py":65:20)
#loc74 = loc("/NHNHOME/WORKSPACE/26msit001_A/jinhyeok/loop_TTT/lact/.cache_inductor_llm/6s/c6srnyzp27ixfaa7ix7j6pxppdpluzl7d6naxnckrhrt3m32xfde.py":68:21)
#loc75 = loc("/NHNHOME/WORKSPACE/26msit001_A/jinhyeok/loop_TTT/lact/.cache_inductor_llm/6s/c6srnyzp27ixfaa7ix7j6pxppdpluzl7d6naxnckrhrt3m32xfde.py":69:35)
#loc76 = loc("/NHNHOME/WORKSPACE/26msit001_A/jinhyeok/loop_TTT/lact/.cache_inductor_llm/6s/c6srnyzp27ixfaa7ix7j6pxppdpluzl7d6naxnckrhrt3m32xfde.py":70:20)
#loc77 = loc("/NHNHOME/WORKSPACE/26msit001_A/jinhyeok/loop_TTT/lact/.cache_inductor_llm/6s/c6srnyzp27ixfaa7ix7j6pxppdpluzl7d6naxnckrhrt3m32xfde.py":72:20)
#loc78 = loc("/NHNHOME/WORKSPACE/26msit001_A/jinhyeok/loop_TTT/lact/.cache_inductor_llm/6s/c6srnyzp27ixfaa7ix7j6pxppdpluzl7d6naxnckrhrt3m32xfde.py":73:20)
#loc79 = loc("/NHNHOME/WORKSPACE/26msit001_A/jinhyeok/loop_TTT/lact/.cache_inductor_llm/6s/c6srnyzp27ixfaa7ix7j6pxppdpluzl7d6naxnckrhrt3m32xfde.py":75:20)
#loc80 = loc("/NHNHOME/WORKSPACE/26msit001_A/jinhyeok/loop_TTT/lact/.cache_inductor_llm/6s/c6srnyzp27ixfaa7ix7j6pxppdpluzl7d6naxnckrhrt3m32xfde.py":78:20)
#loc81 = loc("/NHNHOME/WORKSPACE/26msit001_A/jinhyeok/loop_TTT/lact/.cache_inductor_llm/6s/c6srnyzp27ixfaa7ix7j6pxppdpluzl7d6naxnckrhrt3m32xfde.py":79:20)
#loc82 = loc("/NHNHOME/WORKSPACE/26msit001_A/jinhyeok/loop_TTT/lact/.cache_inductor_llm/6s/c6srnyzp27ixfaa7ix7j6pxppdpluzl7d6naxnckrhrt3m32xfde.py":81:20)
#loc83 = loc("/NHNHOME/WORKSPACE/26msit001_A/jinhyeok/loop_TTT/lact/.cache_inductor_llm/6s/c6srnyzp27ixfaa7ix7j6pxppdpluzl7d6naxnckrhrt3m32xfde.py":83:20)
#loc84 = loc("/NHNHOME/WORKSPACE/26msit001_A/jinhyeok/loop_TTT/lact/.cache_inductor_llm/6s/c6srnyzp27ixfaa7ix7j6pxppdpluzl7d6naxnckrhrt3m32xfde.py":84:20)
#loc85 = loc("/NHNHOME/WORKSPACE/26msit001_A/jinhyeok/loop_TTT/lact/.cache_inductor_llm/6s/c6srnyzp27ixfaa7ix7j6pxppdpluzl7d6naxnckrhrt3m32xfde.py":85:21)
#loc86 = loc("/NHNHOME/WORKSPACE/26msit001_A/jinhyeok/loop_TTT/lact/.cache_inductor_llm/6s/c6srnyzp27ixfaa7ix7j6pxppdpluzl7d6naxnckrhrt3m32xfde.py":87:21)
#loc87 = loc("/NHNHOME/WORKSPACE/26msit001_A/jinhyeok/loop_TTT/lact/.cache_inductor_llm/6s/c6srnyzp27ixfaa7ix7j6pxppdpluzl7d6naxnckrhrt3m32xfde.py":89:20)
#loc88 = loc("/NHNHOME/WORKSPACE/26msit001_A/jinhyeok/loop_TTT/lact/.cache_inductor_llm/6s/c6srnyzp27ixfaa7ix7j6pxppdpluzl7d6naxnckrhrt3m32xfde.py":92:21)
#loc89 = loc("/NHNHOME/WORKSPACE/26msit001_A/jinhyeok/loop_TTT/lact/.cache_inductor_llm/6s/c6srnyzp27ixfaa7ix7j6pxppdpluzl7d6naxnckrhrt3m32xfde.py":93:35)
#loc90 = loc("/NHNHOME/WORKSPACE/26msit001_A/jinhyeok/loop_TTT/lact/.cache_inductor_llm/6s/c6srnyzp27ixfaa7ix7j6pxppdpluzl7d6naxnckrhrt3m32xfde.py":94:20)
#loc91 = loc("/NHNHOME/WORKSPACE/26msit001_A/jinhyeok/loop_TTT/lact/.cache_inductor_llm/6s/c6srnyzp27ixfaa7ix7j6pxppdpluzl7d6naxnckrhrt3m32xfde.py":96:20)
#loc92 = loc("/NHNHOME/WORKSPACE/26msit001_A/jinhyeok/loop_TTT/lact/.cache_inductor_llm/6s/c6srnyzp27ixfaa7ix7j6pxppdpluzl7d6naxnckrhrt3m32xfde.py":97:20)
#loc93 = loc("/NHNHOME/WORKSPACE/26msit001_A/jinhyeok/loop_TTT/lact/.cache_inductor_llm/6s/c6srnyzp27ixfaa7ix7j6pxppdpluzl7d6naxnckrhrt3m32xfde.py":99:20)
#loc94 = loc("/NHNHOME/WORKSPACE/26msit001_A/jinhyeok/loop_TTT/lact/.cache_inductor_llm/6s/c6srnyzp27ixfaa7ix7j6pxppdpluzl7d6naxnckrhrt3m32xfde.py":101:4)
#loc95 = loc("/NHNHOME/WORKSPACE/26msit001_A/jinhyeok/loop_TTT/lact/.cache_inductor_llm/6s/c6srnyzp27ixfaa7ix7j6pxppdpluzl7d6naxnckrhrt3m32xfde.py":102:49)
#loc96 = loc("/NHNHOME/WORKSPACE/26msit001_A/jinhyeok/loop_TTT/lact/.cache_inductor_llm/6s/c6srnyzp27ixfaa7ix7j6pxppdpluzl7d6naxnckrhrt3m32xfde.py":103:25)
#loc97 = loc("/NHNHOME/WORKSPACE/26msit001_A/jinhyeok/loop_TTT/lact/.cache_inductor_llm/6s/c6srnyzp27ixfaa7ix7j6pxppdpluzl7d6naxnckrhrt3m32xfde.py":103:46)
#loc98 = loc("/NHNHOME/WORKSPACE/26msit001_A/jinhyeok/loop_TTT/lact/.cache_inductor_llm/6s/c6srnyzp27ixfaa7ix7j6pxppdpluzl7d6naxnckrhrt3m32xfde.py":104:4)
#loc99 = loc("/NHNHOME/WORKSPACE/26msit001_A/jinhyeok/loop_TTT/lact/.cache_inductor_llm/6s/c6srnyzp27ixfaa7ix7j6pxppdpluzl7d6naxnckrhrt3m32xfde.py":105:49)
#loc100 = loc("/NHNHOME/WORKSPACE/26msit001_A/jinhyeok/loop_TTT/lact/.cache_inductor_llm/6s/c6srnyzp27ixfaa7ix7j6pxppdpluzl7d6naxnckrhrt3m32xfde.py":106:25)
#loc101 = loc("/NHNHOME/WORKSPACE/26msit001_A/jinhyeok/loop_TTT/lact/.cache_inductor_llm/6s/c6srnyzp27ixfaa7ix7j6pxppdpluzl7d6naxnckrhrt3m32xfde.py":106:46)
#loc102 = loc("/NHNHOME/WORKSPACE/26msit001_A/jinhyeok/loop_TTT/lact/.cache_inductor_llm/6s/c6srnyzp27ixfaa7ix7j6pxppdpluzl7d6naxnckrhrt3m32xfde.py":106:4)
#loc125 = loc("yoffset"(#loc2))
#loc126 = loc("yoffset"(#loc3))
#loc127 = loc("yindex"(#loc4))
#loc128 = loc("yindex"(#loc5))
#loc129 = loc("yindex"(#loc6))
#loc130 = loc("xoffset"(#loc7))
#loc131 = loc("xoffset"(#loc8))
#loc132 = loc("xindex"(#loc9))
#loc133 = loc("xindex"(#loc10))
#loc134 = loc("xindex"(#loc11))
#loc135 = loc("xmask"(#loc12))
#loc136 = loc("y0"(#loc13))
#loc137 = loc("y1"(#loc14))
#loc138 = loc("tmp0"(#loc15))
#loc139 = loc("tmp0"(#loc16))
#loc140 = loc("tmp0"(#loc17))
#loc141 = loc("tmp0"(#loc18))
#loc142 = loc("tmp0"(#loc19))
#loc143 = loc("tmp2"(#loc20))
#loc144 = loc("tmp2"(#loc21))
#loc145 = loc("tmp6"(#loc22))
#loc146 = loc("tmp6"(#loc23))
#loc147 = loc("tmp6"(#loc24))
#loc148 = loc("tmp9"(#loc25))
#loc149 = loc("tmp9"(#loc26))
#loc150 = loc("tmp9"(#loc27))
#loc151 = loc("tmp9"(#loc28))
#loc152 = loc("tmp9"(#loc29))
#loc153 = loc("tmp9"(#loc30))
#loc154 = loc("tmp9"(#loc31))
#loc155 = loc("tmp12"(#loc32))
#loc156 = loc("tmp12"(#loc33))
#loc157 = loc("tmp17"(#loc34))
#loc158 = loc("tmp17"(#loc35))
#loc159 = loc("tmp20"(#loc36))
#loc160 = loc("tmp20"(#loc37))
#loc161 = loc("tmp20"(#loc38))
#loc162 = loc("tmp22"(#loc39))
#loc163 = loc("tmp22"(#loc40))
#loc164 = loc("tmp32"(#loc41))
#loc165 = loc("tmp32"(#loc42))
#loc166 = loc("tmp33"(#loc43))
#loc167 = loc("tmp33"(#loc44))
#loc168 = loc("tmp38"(#loc45))
#loc169 = loc("tmp38"(#loc46))
#loc170 = loc("tmp38"(#loc47))
#loc171 = loc("tmp40"(#loc48))
#loc172 = loc("tmp40"(#loc49))
#loc173 = loc("tmp43"(#loc50))
#loc174 = loc("tmp43"(#loc51))
#loc175 = loc("tmp43"(#loc52))
#loc176 = loc("tmp46"(#loc53))
#loc177 = loc("tmp46"(#loc54))
#loc178 = loc("tmp46"(#loc55))
#loc179 = loc("tmp49"(#loc56))
#loc180 = loc("tmp49"(#loc57))
#loc181 = loc("tmp53"(#loc58))
#loc182 = loc("tmp53"(#loc59))
#loc183 = loc("tmp55"(#loc60))
#loc184 = loc("tmp55"(#loc61))
#loc185 = loc("tmp55"(#loc62))
#loc186 = loc("tmp65"(#loc63))
#loc187 = loc("tmp65"(#loc64))
#loc188 = loc("tmp4"(#loc65))
#loc189 = loc("tmp5"(#loc66))
#loc190 = loc("tmp8"(#loc67))
#loc191 = loc("tmp11"(#loc68))
#loc192 = loc("tmp14"(#loc69))
#loc193 = loc("tmp15"(#loc70))
#loc194 = loc("tmp19"(#loc71))
#loc195 = loc("tmp23"(#loc72))
#loc196 = loc("tmp24"(#loc73))
#loc197 = loc("tmp27"(#loc74))
#loc198 = loc("tmp28"(#loc75))
#loc199 = loc("tmp29"(#loc76))
#loc200 = loc("tmp31"(#loc77))
#loc201 = loc("tmp34"(#loc78))
#loc202 = loc("tmp36"(#loc79))
#loc203 = loc("tmp41"(#loc80))
#loc204 = loc("tmp42"(#loc81))
#loc205 = loc("tmp45"(#loc82))
#loc206 = loc("tmp48"(#loc83))
#loc207 = loc("tmp50"(#loc84))
#loc208 = loc("tmp51"(#loc85))
#loc209 = loc("tmp54"(#loc86))
#loc210 = loc("tmp57"(#loc87))
#loc211 = loc("tmp60"(#loc88))
#loc212 = loc("tmp61"(#loc89))
#loc213 = loc("tmp62"(#loc90))
#loc214 = loc("tmp64"(#loc91))
#loc215 = loc("tmp66"(#loc92))
#loc216 = loc("tmp68"(#loc93))
