#loc = loc("/NHNHOME/WORKSPACE/26msit001_A/jinhyeok/loop_TTT/lact/.cache_inductor_llm/fj/cfjzshwpmexhtigndgztjoti3i7aeqkf22bx4royxszxx4lntmry.py":18:0)
#loc118 = loc("in_out_ptr0"(#loc))
#loc119 = loc("in_ptr0"(#loc))
#loc120 = loc("in_ptr1"(#loc))
#loc121 = loc("in_ptr2"(#loc))
#loc122 = loc("in_ptr3"(#loc))
#loc123 = loc("in_ptr4"(#loc))
#loc124 = loc("in_ptr5"(#loc))
#loc125 = loc("in_ptr6"(#loc))
#loc126 = loc("in_ptr7"(#loc))
#loc127 = loc("in_ptr8"(#loc))
#loc128 = loc("in_ptr9"(#loc))
#loc129 = loc("in_ptr10"(#loc))
#loc130 = loc("in_ptr11"(#loc))
#loc131 = loc("in_ptr12"(#loc))
#loc132 = loc("in_ptr13"(#loc))
#loc133 = loc("ynumel"(#loc))
#loc134 = loc("xnumel"(#loc))
module {
  tt.func public @triton_poi_fused__to_copy_add_mul_slice_slice_backward_transpose_44(%in_out_ptr0: !tt.ptr<f32> {tt.divisibility = 16 : i32} loc("in_out_ptr0"(#loc)), %in_ptr0: !tt.ptr<bf16> {tt.divisibility = 16 : i32} loc("in_ptr0"(#loc)), %in_ptr1: !tt.ptr<f32> loc("in_ptr1"(#loc)), %in_ptr2: !tt.ptr<bf16> {tt.divisibility = 16 : i32} loc("in_ptr2"(#loc)), %in_ptr3: !tt.ptr<f32> {tt.divisibility = 16 : i32} loc("in_ptr3"(#loc)), %in_ptr4: !tt.ptr<bf16> {tt.divisibility = 16 : i32} loc("in_ptr4"(#loc)), %in_ptr5: !tt.ptr<bf16> {tt.divisibility = 16 : i32} loc("in_ptr5"(#loc)), %in_ptr6: !tt.ptr<bf16> {tt.divisibility = 16 : i32} loc("in_ptr6"(#loc)), %in_ptr7: !tt.ptr<bf16> {tt.divisibility = 16 : i32} loc("in_ptr7"(#loc)), %in_ptr8: !tt.ptr<bf16> {tt.divisibility = 16 : i32} loc("in_ptr8"(#loc)), %in_ptr9: !tt.ptr<bf16> {tt.divisibility = 16 : i32} loc("in_ptr9"(#loc)), %in_ptr10: !tt.ptr<bf16> {tt.divisibility = 16 : i32} loc("in_ptr10"(#loc)), %in_ptr11: !tt.ptr<bf16> {tt.divisibility = 16 : i32} loc("in_ptr11"(#loc)), %in_ptr12: !tt.ptr<bf16> {tt.divisibility = 16 : i32} loc("in_ptr12"(#loc)), %in_ptr13: !tt.ptr<bf16> {tt.divisibility = 16 : i32} loc("in_ptr13"(#loc)), %ynumel: i32 {tt.divisibility = 16 : i32} loc("ynumel"(#loc)), %xnumel: i32 {tt.divisibility = 16 : i32} loc("xnumel"(#loc))) attributes {noinline = false} {
    %cst = arith.constant dense<0.000000e+00> : tensor<4x256xbf16> loc(#loc1)
    %cst_0 = arith.constant dense<-1024> : tensor<4x1xi32> loc(#loc1)
    %cst_1 = arith.constant dense<-196608> : tensor<1x256xi32> loc(#loc1)
    %cst_2 = arith.constant dense<1024> : tensor<4x1xi64> loc(#loc1)
    %cst_3 = arith.constant dense<1024> : tensor<1x256xi32> loc(#loc1)
    %cst_4 = arith.constant dense<-2048> : tensor<4x1xi32> loc(#loc1)
    %cst_5 = arith.constant dense<3> : tensor<4x1xi32> loc(#loc1)
    %cst_6 = arith.constant dense<0.000000e+00> : tensor<4x256xf32> loc(#loc1)
    %cst_7 = arith.constant dense<196608> : tensor<4x1xi32> loc(#loc1)
    %cst_8 = arith.constant dense<192> : tensor<4x1xi32> loc(#loc1)
    %cst_9 = arith.constant dense<-393216> : tensor<1x256xi32> loc(#loc1)
    %tmp4 = arith.constant dense<3072> : tensor<4x1xi64> loc(#loc135)
    %cst_10 = arith.constant dense<2048> : tensor<4x1xi64> loc(#loc1)
    %cst_11 = arith.constant dense<4096> : tensor<4x1xi32> loc(#loc1)
    %xmask = arith.constant dense<192> : tensor<1x256xi32> loc(#loc136)
    %c256_i32 = arith.constant 256 : i32 loc(#loc1)
    %c4_i32 = arith.constant 4 : i32 loc(#loc1)
    %yoffset = tt.get_program_id y : i32 loc(#loc137)
    %yoffset_12 = arith.muli %yoffset, %c4_i32 : i32 loc(#loc138)
    %yindex = tt.make_range {end = 4 : i32, start = 0 : i32} : tensor<4xi32> loc(#loc139)
    %yindex_13 = tt.expand_dims %yindex {axis = 1 : i32} : tensor<4xi32> -> tensor<4x1xi32> loc(#loc140)
    %yindex_14 = tt.splat %yoffset_12 : i32 -> tensor<4x1xi32> loc(#loc141)
    %yindex_15 = arith.addi %yindex_14, %yindex_13 : tensor<4x1xi32> loc(#loc141)
    %xoffset = tt.get_program_id x : i32 loc(#loc142)
    %xoffset_16 = arith.muli %xoffset, %c256_i32 : i32 loc(#loc143)
    %xindex = tt.make_range {end = 256 : i32, start = 0 : i32} : tensor<256xi32> loc(#loc144)
    %xindex_17 = tt.expand_dims %xindex {axis = 0 : i32} : tensor<256xi32> -> tensor<1x256xi32> loc(#loc145)
    %xindex_18 = tt.splat %xoffset_16 : i32 -> tensor<1x256xi32> loc(#loc146)
    %xindex_19 = arith.addi %xindex_18, %xindex_17 : tensor<1x256xi32> loc(#loc146)
    %xmask_20 = arith.cmpi slt, %xindex_19, %xmask : tensor<1x256xi32> loc(#loc136)
    %y0 = arith.remsi %yindex_15, %cst_11 : tensor<4x1xi32> loc(#loc147)
    %y1 = arith.divsi %yindex_15, %cst_11 : tensor<4x1xi32> loc(#loc148)
    %tmp2 = arith.extsi %y0 : tensor<4x1xi32> to tensor<4x1xi64> loc(#loc149)
    %tmp2_21 = arith.cmpi sge, %tmp2, %cst_10 : tensor<4x1xi64> loc(#loc149)
    %tmp4_22 = arith.cmpi slt, %tmp2, %tmp4 : tensor<4x1xi64> loc(#loc135)
    %tmp5 = arith.andi %tmp2_21, %tmp4_22 : tensor<4x1xi1> loc(#loc150)
    %tmp6 = arith.addi %xindex_19, %cst_9 : tensor<1x256xi32> loc(#loc151)
    %tmp6_23 = arith.muli %y0, %cst_8 : tensor<4x1xi32> loc(#loc152)
    %tmp6_24 = tt.broadcast %tmp6 : tensor<1x256xi32> -> tensor<4x256xi32> loc(#loc153)
    %tmp6_25 = tt.broadcast %tmp6_23 : tensor<4x1xi32> -> tensor<4x256xi32> loc(#loc153)
    %tmp6_26 = arith.addi %tmp6_24, %tmp6_25 : tensor<4x256xi32> loc(#loc153)
    %tmp6_27 = arith.muli %y1, %cst_7 : tensor<4x1xi32> loc(#loc154)
    %tmp6_28 = tt.broadcast %tmp6_27 : tensor<4x1xi32> -> tensor<4x256xi32> loc(#loc155)
    %tmp6_29 = arith.addi %tmp6_26, %tmp6_28 : tensor<4x256xi32> loc(#loc155)
    %tmp6_30 = tt.splat %in_ptr0 : !tt.ptr<bf16> -> tensor<4x256x!tt.ptr<bf16>> loc(#loc156)
    %tmp6_31 = tt.addptr %tmp6_30, %tmp6_29 : tensor<4x256x!tt.ptr<bf16>>, tensor<4x256xi32> loc(#loc156)
    %tmp6_32 = tt.broadcast %tmp5 : tensor<4x1xi1> -> tensor<4x256xi1> loc(#loc157)
    %tmp6_33 = tt.broadcast %xmask_20 : tensor<1x256xi1> -> tensor<4x256xi1> loc(#loc157)
    %tmp6_34 = arith.andi %tmp6_32, %tmp6_33 : tensor<4x256xi1> loc(#loc157)
    %tmp6_35 = tt.load %tmp6_31, %tmp6_34, %cst evictionPolicy = evict_last : tensor<4x256x!tt.ptr<bf16>> loc(#loc158)
    %tmp6_36 = arith.extf %tmp6_35 : tensor<4x256xbf16> to tensor<4x256xf32> loc(#loc159)
    %tmp8 = arith.muli %yindex_15, %cst_5 : tensor<4x1xi32> loc(#loc160)
    %tmp8_37 = tt.splat %in_ptr1 : !tt.ptr<f32> -> tensor<4x1x!tt.ptr<f32>> loc(#loc161)
    %tmp8_38 = tt.addptr %tmp8_37, %tmp8 : tensor<4x1x!tt.ptr<f32>>, tensor<4x1xi32> loc(#loc161)
    %tmp8_39 = tt.broadcast %tmp8_38 : tensor<4x1x!tt.ptr<f32>> -> tensor<4x256x!tt.ptr<f32>> loc(#loc161)
    %tmp8_40 = tt.load %tmp8_39, %tmp6_34, %cst_6 evictionPolicy = evict_last : tensor<4x256x!tt.ptr<f32>> loc(#loc162)
    %tmp9 = arith.mulf %tmp6_36, %tmp8_40 : tensor<4x256xf32> loc(#loc163)
    %tmp10 = tt.splat %in_ptr2 : !tt.ptr<bf16> -> tensor<4x256x!tt.ptr<bf16>> loc(#loc164)
    %tmp10_41 = tt.addptr %tmp10, %tmp6_29 : tensor<4x256x!tt.ptr<bf16>>, tensor<4x256xi32> loc(#loc164)
    %tmp10_42 = tt.load %tmp10_41, %tmp6_34, %cst evictionPolicy = evict_last : tensor<4x256x!tt.ptr<bf16>> loc(#loc165)
    %tmp10_43 = arith.extf %tmp10_42 : tensor<4x256xbf16> to tensor<4x256xf32> loc(#loc166)
    %tmp12 = tt.splat %in_ptr3 : !tt.ptr<f32> -> tensor<4x1x!tt.ptr<f32>> loc(#loc167)
    %tmp12_44 = tt.addptr %tmp12, %tmp8 : tensor<4x1x!tt.ptr<f32>>, tensor<4x1xi32> loc(#loc167)
    %tmp12_45 = tt.broadcast %tmp12_44 : tensor<4x1x!tt.ptr<f32>> -> tensor<4x256x!tt.ptr<f32>> loc(#loc167)
    %tmp12_46 = tt.load %tmp12_45, %tmp6_34, %cst_6 evictionPolicy = evict_last : tensor<4x256x!tt.ptr<f32>> loc(#loc168)
    %tmp13 = arith.mulf %tmp10_43, %tmp12_46 : tensor<4x256xf32> loc(#loc169)
    %tmp14 = arith.addf %tmp9, %tmp13 : tensor<4x256xf32> loc(#loc170)
    %tmp15 = arith.addi %y0, %cst_4 : tensor<4x1xi32> loc(#loc171)
    %tmp15_47 = arith.muli %xindex_19, %cst_3 : tensor<1x256xi32> loc(#loc172)
    %tmp15_48 = tt.broadcast %tmp15 : tensor<4x1xi32> -> tensor<4x256xi32> loc(#loc173)
    %tmp15_49 = tt.broadcast %tmp15_47 : tensor<1x256xi32> -> tensor<4x256xi32> loc(#loc173)
    %tmp15_50 = arith.addi %tmp15_48, %tmp15_49 : tensor<4x256xi32> loc(#loc173)
    %tmp15_51 = arith.addi %tmp15_50, %tmp6_28 : tensor<4x256xi32> loc(#loc174)
    %tmp15_52 = tt.splat %in_ptr4 : !tt.ptr<bf16> -> tensor<4x256x!tt.ptr<bf16>> loc(#loc175)
    %tmp15_53 = tt.addptr %tmp15_52, %tmp15_51 : tensor<4x256x!tt.ptr<bf16>>, tensor<4x256xi32> loc(#loc175)
    %tmp15_54 = tt.load %tmp15_53, %tmp6_34, %cst evictionPolicy = evict_last : tensor<4x256x!tt.ptr<bf16>> loc(#loc176)
    %tmp15_55 = arith.extf %tmp15_54 : tensor<4x256xbf16> to tensor<4x256xf32> loc(#loc177)
    %tmp17 = arith.addf %tmp14, %tmp15_55 : tensor<4x256xf32> loc(#loc178)
    %tmp18 = tt.splat %in_ptr5 : !tt.ptr<bf16> -> tensor<4x256x!tt.ptr<bf16>> loc(#loc179)
    %tmp18_56 = tt.addptr %tmp18, %tmp15_51 : tensor<4x256x!tt.ptr<bf16>>, tensor<4x256xi32> loc(#loc179)
    %tmp18_57 = tt.load %tmp18_56, %tmp6_34, %cst evictionPolicy = evict_last : tensor<4x256x!tt.ptr<bf16>> loc(#loc180)
    %tmp18_58 = arith.extf %tmp18_57 : tensor<4x256xbf16> to tensor<4x256xf32> loc(#loc181)
    %tmp20 = arith.addf %tmp17, %tmp18_58 : tensor<4x256xf32> loc(#loc182)
    %tmp22 = arith.select %tmp6_32, %tmp20, %cst_6 : tensor<4x256xi1>, tensor<4x256xf32> loc(#loc183)
    %tmp24 = arith.select %tmp6_32, %tmp22, %cst_6 : tensor<4x256xi1>, tensor<4x256xf32> loc(#loc184)
    %tmp26 = arith.cmpi sge, %tmp2, %cst_2 : tensor<4x1xi64> loc(#loc185)
    %tmp27 = arith.cmpi slt, %tmp2, %cst_10 : tensor<4x1xi64> loc(#loc186)
    %tmp28 = arith.andi %tmp26, %tmp27 : tensor<4x1xi1> loc(#loc187)
    %tmp29 = arith.addi %xindex_19, %cst_1 : tensor<1x256xi32> loc(#loc188)
    %tmp29_59 = tt.broadcast %tmp29 : tensor<1x256xi32> -> tensor<4x256xi32> loc(#loc189)
    %tmp29_60 = arith.addi %tmp29_59, %tmp6_25 : tensor<4x256xi32> loc(#loc189)
    %tmp29_61 = arith.addi %tmp29_60, %tmp6_28 : tensor<4x256xi32> loc(#loc190)
    %tmp29_62 = tt.splat %in_ptr6 : !tt.ptr<bf16> -> tensor<4x256x!tt.ptr<bf16>> loc(#loc191)
    %tmp29_63 = tt.addptr %tmp29_62, %tmp29_61 : tensor<4x256x!tt.ptr<bf16>>, tensor<4x256xi32> loc(#loc191)
    %tmp29_64 = tt.broadcast %tmp28 : tensor<4x1xi1> -> tensor<4x256xi1> loc(#loc192)
    %tmp29_65 = arith.andi %tmp29_64, %tmp6_33 : tensor<4x256xi1> loc(#loc192)
    %tmp29_66 = tt.load %tmp29_63, %tmp29_65, %cst evictionPolicy = evict_last : tensor<4x256x!tt.ptr<bf16>> loc(#loc193)
    %tmp29_67 = arith.extf %tmp29_66 : tensor<4x256xbf16> to tensor<4x256xf32> loc(#loc194)
    %tmp31 = tt.load %tmp8_39, %tmp29_65, %cst_6 evictionPolicy = evict_last : tensor<4x256x!tt.ptr<f32>> loc(#loc195)
    %tmp32 = arith.mulf %tmp29_67, %tmp31 : tensor<4x256xf32> loc(#loc196)
    %tmp33 = tt.splat %in_ptr7 : !tt.ptr<bf16> -> tensor<4x256x!tt.ptr<bf16>> loc(#loc197)
    %tmp33_68 = tt.addptr %tmp33, %tmp29_61 : tensor<4x256x!tt.ptr<bf16>>, tensor<4x256xi32> loc(#loc197)
    %tmp33_69 = tt.load %tmp33_68, %tmp29_65, %cst evictionPolicy = evict_last : tensor<4x256x!tt.ptr<bf16>> loc(#loc198)
    %tmp33_70 = arith.extf %tmp33_69 : tensor<4x256xbf16> to tensor<4x256xf32> loc(#loc199)
    %tmp35 = tt.load %tmp12_45, %tmp29_65, %cst_6 evictionPolicy = evict_last : tensor<4x256x!tt.ptr<f32>> loc(#loc200)
    %tmp36 = arith.mulf %tmp33_70, %tmp35 : tensor<4x256xf32> loc(#loc201)
    %tmp37 = arith.addf %tmp32, %tmp36 : tensor<4x256xf32> loc(#loc202)
    %tmp38 = arith.addi %y0, %cst_0 : tensor<4x1xi32> loc(#loc203)
    %tmp38_71 = tt.broadcast %tmp38 : tensor<4x1xi32> -> tensor<4x256xi32> loc(#loc204)
    %tmp38_72 = arith.addi %tmp38_71, %tmp15_49 : tensor<4x256xi32> loc(#loc204)
    %tmp38_73 = arith.addi %tmp38_72, %tmp6_28 : tensor<4x256xi32> loc(#loc205)
    %tmp38_74 = tt.splat %in_ptr8 : !tt.ptr<bf16> -> tensor<4x256x!tt.ptr<bf16>> loc(#loc206)
    %tmp38_75 = tt.addptr %tmp38_74, %tmp38_73 : tensor<4x256x!tt.ptr<bf16>>, tensor<4x256xi32> loc(#loc206)
    %tmp38_76 = tt.load %tmp38_75, %tmp29_65, %cst evictionPolicy = evict_last : tensor<4x256x!tt.ptr<bf16>> loc(#loc207)
    %tmp38_77 = arith.extf %tmp38_76 : tensor<4x256xbf16> to tensor<4x256xf32> loc(#loc208)
    %tmp40 = arith.addf %tmp37, %tmp38_77 : tensor<4x256xf32> loc(#loc209)
    %tmp41 = tt.splat %in_ptr9 : !tt.ptr<bf16> -> tensor<4x256x!tt.ptr<bf16>> loc(#loc210)
    %tmp41_78 = tt.addptr %tmp41, %tmp38_73 : tensor<4x256x!tt.ptr<bf16>>, tensor<4x256xi32> loc(#loc210)
    %tmp41_79 = tt.load %tmp41_78, %tmp29_65, %cst evictionPolicy = evict_last : tensor<4x256x!tt.ptr<bf16>> loc(#loc211)
    %tmp41_80 = arith.extf %tmp41_79 : tensor<4x256xbf16> to tensor<4x256xf32> loc(#loc212)
    %tmp43 = arith.addf %tmp40, %tmp41_80 : tensor<4x256xf32> loc(#loc213)
    %tmp45 = arith.select %tmp29_64, %tmp43, %cst_6 : tensor<4x256xi1>, tensor<4x256xf32> loc(#loc214)
    %tmp46 = arith.select %tmp29_64, %tmp45, %cst_6 : tensor<4x256xi1>, tensor<4x256xf32> loc(#loc215)
    %tmp47 = arith.addf %tmp24, %tmp46 : tensor<4x256xf32> loc(#loc216)
    %tmp48 = arith.cmpi slt, %tmp2, %cst_2 : tensor<4x1xi64> loc(#loc217)
    %tmp49 = tt.broadcast %xindex_19 : tensor<1x256xi32> -> tensor<4x256xi32> loc(#loc218)
    %tmp49_81 = arith.addi %tmp49, %tmp6_25 : tensor<4x256xi32> loc(#loc218)
    %tmp49_82 = arith.addi %tmp49_81, %tmp6_28 : tensor<4x256xi32> loc(#loc219)
    %tmp49_83 = tt.splat %in_ptr10 : !tt.ptr<bf16> -> tensor<4x256x!tt.ptr<bf16>> loc(#loc220)
    %tmp49_84 = tt.addptr %tmp49_83, %tmp49_82 : tensor<4x256x!tt.ptr<bf16>>, tensor<4x256xi32> loc(#loc220)
    %tmp49_85 = tt.broadcast %tmp48 : tensor<4x1xi1> -> tensor<4x256xi1> loc(#loc221)
    %tmp49_86 = arith.andi %tmp49_85, %tmp6_33 : tensor<4x256xi1> loc(#loc221)
    %tmp49_87 = tt.load %tmp49_84, %tmp49_86, %cst evictionPolicy = evict_last : tensor<4x256x!tt.ptr<bf16>> loc(#loc222)
    %tmp49_88 = arith.extf %tmp49_87 : tensor<4x256xbf16> to tensor<4x256xf32> loc(#loc223)
    %tmp51 = tt.load %tmp8_39, %tmp49_86, %cst_6 evictionPolicy = evict_last : tensor<4x256x!tt.ptr<f32>> loc(#loc224)
    %tmp52 = arith.mulf %tmp49_88, %tmp51 : tensor<4x256xf32> loc(#loc225)
    %tmp53 = tt.splat %in_ptr11 : !tt.ptr<bf16> -> tensor<4x256x!tt.ptr<bf16>> loc(#loc226)
    %tmp53_89 = tt.addptr %tmp53, %tmp49_82 : tensor<4x256x!tt.ptr<bf16>>, tensor<4x256xi32> loc(#loc226)
    %tmp53_90 = tt.load %tmp53_89, %tmp49_86, %cst evictionPolicy = evict_last : tensor<4x256x!tt.ptr<bf16>> loc(#loc227)
    %tmp53_91 = arith.extf %tmp53_90 : tensor<4x256xbf16> to tensor<4x256xf32> loc(#loc228)
    %tmp55 = tt.load %tmp12_45, %tmp49_86, %cst_6 evictionPolicy = evict_last : tensor<4x256x!tt.ptr<f32>> loc(#loc229)
    %tmp56 = arith.mulf %tmp53_91, %tmp55 : tensor<4x256xf32> loc(#loc230)
    %tmp57 = arith.addf %tmp52, %tmp56 : tensor<4x256xf32> loc(#loc231)
    %tmp58 = tt.broadcast %y0 : tensor<4x1xi32> -> tensor<4x256xi32> loc(#loc232)
    %tmp58_92 = arith.addi %tmp58, %tmp15_49 : tensor<4x256xi32> loc(#loc232)
    %tmp58_93 = arith.addi %tmp58_92, %tmp6_28 : tensor<4x256xi32> loc(#loc233)
    %tmp58_94 = tt.splat %in_ptr12 : !tt.ptr<bf16> -> tensor<4x256x!tt.ptr<bf16>> loc(#loc234)
    %tmp58_95 = tt.addptr %tmp58_94, %tmp58_93 : tensor<4x256x!tt.ptr<bf16>>, tensor<4x256xi32> loc(#loc234)
    %tmp58_96 = tt.load %tmp58_95, %tmp49_86, %cst evictionPolicy = evict_last : tensor<4x256x!tt.ptr<bf16>> loc(#loc235)
    %tmp58_97 = arith.extf %tmp58_96 : tensor<4x256xbf16> to tensor<4x256xf32> loc(#loc236)
    %tmp60 = arith.addf %tmp57, %tmp58_97 : tensor<4x256xf32> loc(#loc237)
    %tmp61 = tt.splat %in_ptr13 : !tt.ptr<bf16> -> tensor<4x256x!tt.ptr<bf16>> loc(#loc238)
    %tmp61_98 = tt.addptr %tmp61, %tmp58_93 : tensor<4x256x!tt.ptr<bf16>>, tensor<4x256xi32> loc(#loc238)
    %tmp61_99 = tt.load %tmp61_98, %tmp49_86, %cst evictionPolicy = evict_last : tensor<4x256x!tt.ptr<bf16>> loc(#loc239)
    %tmp61_100 = arith.extf %tmp61_99 : tensor<4x256xbf16> to tensor<4x256xf32> loc(#loc240)
    %tmp63 = arith.addf %tmp60, %tmp61_100 : tensor<4x256xf32> loc(#loc241)
    %tmp65 = arith.select %tmp49_85, %tmp63, %cst_6 : tensor<4x256xi1>, tensor<4x256xf32> loc(#loc242)
    %tmp66 = arith.select %tmp49_85, %tmp65, %cst_6 : tensor<4x256xi1>, tensor<4x256xf32> loc(#loc243)
    %tmp67 = arith.addf %tmp47, %tmp66 : tensor<4x256xf32> loc(#loc244)
    gpu.barrier loc(#loc112)
    %0 = arith.muli %yindex_15, %cst_8 : tensor<4x1xi32> loc(#loc113)
    %1 = tt.broadcast %0 : tensor<4x1xi32> -> tensor<4x256xi32> loc(#loc114)
    %2 = arith.addi %tmp49, %1 : tensor<4x256xi32> loc(#loc114)
    %3 = tt.splat %in_out_ptr0 : !tt.ptr<f32> -> tensor<4x256x!tt.ptr<f32>> loc(#loc115)
    %4 = tt.addptr %3, %2 : tensor<4x256x!tt.ptr<f32>>, tensor<4x256xi32> loc(#loc115)
    tt.store %4, %tmp67, %tmp6_33 : tensor<4x256x!tt.ptr<f32>> loc(#loc116)
    tt.return loc(#loc117)
  } loc(#loc)
} loc(#loc)
#loc1 = loc(unknown)
#loc2 = loc("/NHNHOME/WORKSPACE/26msit001_A/jinhyeok/loop_TTT/lact/.cache_inductor_llm/fj/cfjzshwpmexhtigndgztjoti3i7aeqkf22bx4royxszxx4lntmry.py":35:18)
#loc3 = loc("/NHNHOME/WORKSPACE/26msit001_A/jinhyeok/loop_TTT/lact/.cache_inductor_llm/fj/cfjzshwpmexhtigndgztjoti3i7aeqkf22bx4royxszxx4lntmry.py":26:21)
#loc4 = loc("/NHNHOME/WORKSPACE/26msit001_A/jinhyeok/loop_TTT/lact/.cache_inductor_llm/fj/cfjzshwpmexhtigndgztjoti3i7aeqkf22bx4royxszxx4lntmry.py":21:28)
#loc5 = loc("/NHNHOME/WORKSPACE/26msit001_A/jinhyeok/loop_TTT/lact/.cache_inductor_llm/fj/cfjzshwpmexhtigndgztjoti3i7aeqkf22bx4royxszxx4lntmry.py":21:33)
#loc6 = loc("/NHNHOME/WORKSPACE/26msit001_A/jinhyeok/loop_TTT/lact/.cache_inductor_llm/fj/cfjzshwpmexhtigndgztjoti3i7aeqkf22bx4royxszxx4lntmry.py":22:36)
#loc7 = loc("/NHNHOME/WORKSPACE/26msit001_A/jinhyeok/loop_TTT/lact/.cache_inductor_llm/fj/cfjzshwpmexhtigndgztjoti3i7aeqkf22bx4royxszxx4lntmry.py":22:44)
#loc8 = loc("/NHNHOME/WORKSPACE/26msit001_A/jinhyeok/loop_TTT/lact/.cache_inductor_llm/fj/cfjzshwpmexhtigndgztjoti3i7aeqkf22bx4royxszxx4lntmry.py":22:23)
#loc9 = loc("/NHNHOME/WORKSPACE/26msit001_A/jinhyeok/loop_TTT/lact/.cache_inductor_llm/fj/cfjzshwpmexhtigndgztjoti3i7aeqkf22bx4royxszxx4lntmry.py":24:28)
#loc10 = loc("/NHNHOME/WORKSPACE/26msit001_A/jinhyeok/loop_TTT/lact/.cache_inductor_llm/fj/cfjzshwpmexhtigndgztjoti3i7aeqkf22bx4royxszxx4lntmry.py":24:33)
#loc11 = loc("/NHNHOME/WORKSPACE/26msit001_A/jinhyeok/loop_TTT/lact/.cache_inductor_llm/fj/cfjzshwpmexhtigndgztjoti3i7aeqkf22bx4royxszxx4lntmry.py":25:36)
#loc12 = loc("/NHNHOME/WORKSPACE/26msit001_A/jinhyeok/loop_TTT/lact/.cache_inductor_llm/fj/cfjzshwpmexhtigndgztjoti3i7aeqkf22bx4royxszxx4lntmry.py":25:44)
#loc13 = loc("/NHNHOME/WORKSPACE/26msit001_A/jinhyeok/loop_TTT/lact/.cache_inductor_llm/fj/cfjzshwpmexhtigndgztjoti3i7aeqkf22bx4royxszxx4lntmry.py":25:23)
#loc14 = loc("/NHNHOME/WORKSPACE/26msit001_A/jinhyeok/loop_TTT/lact/.cache_inductor_llm/fj/cfjzshwpmexhtigndgztjoti3i7aeqkf22bx4royxszxx4lntmry.py":27:19)
#loc15 = loc("/NHNHOME/WORKSPACE/26msit001_A/jinhyeok/loop_TTT/lact/.cache_inductor_llm/fj/cfjzshwpmexhtigndgztjoti3i7aeqkf22bx4royxszxx4lntmry.py":29:19)
#loc16 = loc("/NHNHOME/WORKSPACE/26msit001_A/jinhyeok/loop_TTT/lact/.cache_inductor_llm/fj/cfjzshwpmexhtigndgztjoti3i7aeqkf22bx4royxszxx4lntmry.py":33:19)
#loc17 = loc("/NHNHOME/WORKSPACE/26msit001_A/jinhyeok/loop_TTT/lact/.cache_inductor_llm/fj/cfjzshwpmexhtigndgztjoti3i7aeqkf22bx4royxszxx4lntmry.py":36:18)
#loc18 = loc("/NHNHOME/WORKSPACE/26msit001_A/jinhyeok/loop_TTT/lact/.cache_inductor_llm/fj/cfjzshwpmexhtigndgztjoti3i7aeqkf22bx4royxszxx4lntmry.py":37:42)
#loc19 = loc("/NHNHOME/WORKSPACE/26msit001_A/jinhyeok/loop_TTT/lact/.cache_inductor_llm/fj/cfjzshwpmexhtigndgztjoti3i7aeqkf22bx4royxszxx4lntmry.py":37:51)
#loc20 = loc("/NHNHOME/WORKSPACE/26msit001_A/jinhyeok/loop_TTT/lact/.cache_inductor_llm/fj/cfjzshwpmexhtigndgztjoti3i7aeqkf22bx4royxszxx4lntmry.py":37:47)
#loc21 = loc("/NHNHOME/WORKSPACE/26msit001_A/jinhyeok/loop_TTT/lact/.cache_inductor_llm/fj/cfjzshwpmexhtigndgztjoti3i7aeqkf22bx4royxszxx4lntmry.py":37:63)
#loc22 = loc("/NHNHOME/WORKSPACE/26msit001_A/jinhyeok/loop_TTT/lact/.cache_inductor_llm/fj/cfjzshwpmexhtigndgztjoti3i7aeqkf22bx4royxszxx4lntmry.py":37:56)
#loc23 = loc("/NHNHOME/WORKSPACE/26msit001_A/jinhyeok/loop_TTT/lact/.cache_inductor_llm/fj/cfjzshwpmexhtigndgztjoti3i7aeqkf22bx4royxszxx4lntmry.py":37:30)
#loc24 = loc("/NHNHOME/WORKSPACE/26msit001_A/jinhyeok/loop_TTT/lact/.cache_inductor_llm/fj/cfjzshwpmexhtigndgztjoti3i7aeqkf22bx4royxszxx4lntmry.py":37:75)
#loc25 = loc("/NHNHOME/WORKSPACE/26msit001_A/jinhyeok/loop_TTT/lact/.cache_inductor_llm/fj/cfjzshwpmexhtigndgztjoti3i7aeqkf22bx4royxszxx4lntmry.py":37:68)
#loc26 = loc("/NHNHOME/WORKSPACE/26msit001_A/jinhyeok/loop_TTT/lact/.cache_inductor_llm/fj/cfjzshwpmexhtigndgztjoti3i7aeqkf22bx4royxszxx4lntmry.py":37:126)
#loc27 = loc("/NHNHOME/WORKSPACE/26msit001_A/jinhyeok/loop_TTT/lact/.cache_inductor_llm/fj/cfjzshwpmexhtigndgztjoti3i7aeqkf22bx4royxszxx4lntmry.py":39:48)
#loc28 = loc("/NHNHOME/WORKSPACE/26msit001_A/jinhyeok/loop_TTT/lact/.cache_inductor_llm/fj/cfjzshwpmexhtigndgztjoti3i7aeqkf22bx4royxszxx4lntmry.py":39:30)
#loc29 = loc("/NHNHOME/WORKSPACE/26msit001_A/jinhyeok/loop_TTT/lact/.cache_inductor_llm/fj/cfjzshwpmexhtigndgztjoti3i7aeqkf22bx4royxszxx4lntmry.py":39:72)
#loc30 = loc("/NHNHOME/WORKSPACE/26msit001_A/jinhyeok/loop_TTT/lact/.cache_inductor_llm/fj/cfjzshwpmexhtigndgztjoti3i7aeqkf22bx4royxszxx4lntmry.py":40:18)
#loc31 = loc("/NHNHOME/WORKSPACE/26msit001_A/jinhyeok/loop_TTT/lact/.cache_inductor_llm/fj/cfjzshwpmexhtigndgztjoti3i7aeqkf22bx4royxszxx4lntmry.py":41:31)
#loc32 = loc("/NHNHOME/WORKSPACE/26msit001_A/jinhyeok/loop_TTT/lact/.cache_inductor_llm/fj/cfjzshwpmexhtigndgztjoti3i7aeqkf22bx4royxszxx4lntmry.py":41:69)
#loc33 = loc("/NHNHOME/WORKSPACE/26msit001_A/jinhyeok/loop_TTT/lact/.cache_inductor_llm/fj/cfjzshwpmexhtigndgztjoti3i7aeqkf22bx4royxszxx4lntmry.py":41:127)
#loc34 = loc("/NHNHOME/WORKSPACE/26msit001_A/jinhyeok/loop_TTT/lact/.cache_inductor_llm/fj/cfjzshwpmexhtigndgztjoti3i7aeqkf22bx4royxszxx4lntmry.py":43:31)
#loc35 = loc("/NHNHOME/WORKSPACE/26msit001_A/jinhyeok/loop_TTT/lact/.cache_inductor_llm/fj/cfjzshwpmexhtigndgztjoti3i7aeqkf22bx4royxszxx4lntmry.py":43:73)
#loc36 = loc("/NHNHOME/WORKSPACE/26msit001_A/jinhyeok/loop_TTT/lact/.cache_inductor_llm/fj/cfjzshwpmexhtigndgztjoti3i7aeqkf22bx4royxszxx4lntmry.py":44:20)
#loc37 = loc("/NHNHOME/WORKSPACE/26msit001_A/jinhyeok/loop_TTT/lact/.cache_inductor_llm/fj/cfjzshwpmexhtigndgztjoti3i7aeqkf22bx4royxszxx4lntmry.py":45:19)
#loc38 = loc("/NHNHOME/WORKSPACE/26msit001_A/jinhyeok/loop_TTT/lact/.cache_inductor_llm/fj/cfjzshwpmexhtigndgztjoti3i7aeqkf22bx4royxszxx4lntmry.py":46:41)
#loc39 = loc("/NHNHOME/WORKSPACE/26msit001_A/jinhyeok/loop_TTT/lact/.cache_inductor_llm/fj/cfjzshwpmexhtigndgztjoti3i7aeqkf22bx4royxszxx4lntmry.py":46:51)
#loc40 = loc("/NHNHOME/WORKSPACE/26msit001_A/jinhyeok/loop_TTT/lact/.cache_inductor_llm/fj/cfjzshwpmexhtigndgztjoti3i7aeqkf22bx4royxszxx4lntmry.py":46:46)
#loc41 = loc("/NHNHOME/WORKSPACE/26msit001_A/jinhyeok/loop_TTT/lact/.cache_inductor_llm/fj/cfjzshwpmexhtigndgztjoti3i7aeqkf22bx4royxszxx4lntmry.py":46:56)
#loc42 = loc("/NHNHOME/WORKSPACE/26msit001_A/jinhyeok/loop_TTT/lact/.cache_inductor_llm/fj/cfjzshwpmexhtigndgztjoti3i7aeqkf22bx4royxszxx4lntmry.py":46:31)
#loc43 = loc("/NHNHOME/WORKSPACE/26msit001_A/jinhyeok/loop_TTT/lact/.cache_inductor_llm/fj/cfjzshwpmexhtigndgztjoti3i7aeqkf22bx4royxszxx4lntmry.py":46:68)
#loc44 = loc("/NHNHOME/WORKSPACE/26msit001_A/jinhyeok/loop_TTT/lact/.cache_inductor_llm/fj/cfjzshwpmexhtigndgztjoti3i7aeqkf22bx4royxszxx4lntmry.py":46:126)
#loc45 = loc("/NHNHOME/WORKSPACE/26msit001_A/jinhyeok/loop_TTT/lact/.cache_inductor_llm/fj/cfjzshwpmexhtigndgztjoti3i7aeqkf22bx4royxszxx4lntmry.py":48:20)
#loc46 = loc("/NHNHOME/WORKSPACE/26msit001_A/jinhyeok/loop_TTT/lact/.cache_inductor_llm/fj/cfjzshwpmexhtigndgztjoti3i7aeqkf22bx4royxszxx4lntmry.py":49:31)
#loc47 = loc("/NHNHOME/WORKSPACE/26msit001_A/jinhyeok/loop_TTT/lact/.cache_inductor_llm/fj/cfjzshwpmexhtigndgztjoti3i7aeqkf22bx4royxszxx4lntmry.py":49:68)
#loc48 = loc("/NHNHOME/WORKSPACE/26msit001_A/jinhyeok/loop_TTT/lact/.cache_inductor_llm/fj/cfjzshwpmexhtigndgztjoti3i7aeqkf22bx4royxszxx4lntmry.py":49:126)
#loc49 = loc("/NHNHOME/WORKSPACE/26msit001_A/jinhyeok/loop_TTT/lact/.cache_inductor_llm/fj/cfjzshwpmexhtigndgztjoti3i7aeqkf22bx4royxszxx4lntmry.py":51:20)
#loc50 = loc("/NHNHOME/WORKSPACE/26msit001_A/jinhyeok/loop_TTT/lact/.cache_inductor_llm/fj/cfjzshwpmexhtigndgztjoti3i7aeqkf22bx4royxszxx4lntmry.py":53:34)
#loc51 = loc("/NHNHOME/WORKSPACE/26msit001_A/jinhyeok/loop_TTT/lact/.cache_inductor_llm/fj/cfjzshwpmexhtigndgztjoti3i7aeqkf22bx4royxszxx4lntmry.py":55:34)
#loc52 = loc("/NHNHOME/WORKSPACE/26msit001_A/jinhyeok/loop_TTT/lact/.cache_inductor_llm/fj/cfjzshwpmexhtigndgztjoti3i7aeqkf22bx4royxszxx4lntmry.py":57:20)
#loc53 = loc("/NHNHOME/WORKSPACE/26msit001_A/jinhyeok/loop_TTT/lact/.cache_inductor_llm/fj/cfjzshwpmexhtigndgztjoti3i7aeqkf22bx4royxszxx4lntmry.py":58:19)
#loc54 = loc("/NHNHOME/WORKSPACE/26msit001_A/jinhyeok/loop_TTT/lact/.cache_inductor_llm/fj/cfjzshwpmexhtigndgztjoti3i7aeqkf22bx4royxszxx4lntmry.py":59:20)
#loc55 = loc("/NHNHOME/WORKSPACE/26msit001_A/jinhyeok/loop_TTT/lact/.cache_inductor_llm/fj/cfjzshwpmexhtigndgztjoti3i7aeqkf22bx4royxszxx4lntmry.py":60:43)
#loc56 = loc("/NHNHOME/WORKSPACE/26msit001_A/jinhyeok/loop_TTT/lact/.cache_inductor_llm/fj/cfjzshwpmexhtigndgztjoti3i7aeqkf22bx4royxszxx4lntmry.py":60:48)
#loc57 = loc("/NHNHOME/WORKSPACE/26msit001_A/jinhyeok/loop_TTT/lact/.cache_inductor_llm/fj/cfjzshwpmexhtigndgztjoti3i7aeqkf22bx4royxszxx4lntmry.py":60:57)
#loc58 = loc("/NHNHOME/WORKSPACE/26msit001_A/jinhyeok/loop_TTT/lact/.cache_inductor_llm/fj/cfjzshwpmexhtigndgztjoti3i7aeqkf22bx4royxszxx4lntmry.py":60:31)
#loc59 = loc("/NHNHOME/WORKSPACE/26msit001_A/jinhyeok/loop_TTT/lact/.cache_inductor_llm/fj/cfjzshwpmexhtigndgztjoti3i7aeqkf22bx4royxszxx4lntmry.py":60:77)
#loc60 = loc("/NHNHOME/WORKSPACE/26msit001_A/jinhyeok/loop_TTT/lact/.cache_inductor_llm/fj/cfjzshwpmexhtigndgztjoti3i7aeqkf22bx4royxszxx4lntmry.py":60:69)
#loc61 = loc("/NHNHOME/WORKSPACE/26msit001_A/jinhyeok/loop_TTT/lact/.cache_inductor_llm/fj/cfjzshwpmexhtigndgztjoti3i7aeqkf22bx4royxszxx4lntmry.py":60:128)
#loc62 = loc("/NHNHOME/WORKSPACE/26msit001_A/jinhyeok/loop_TTT/lact/.cache_inductor_llm/fj/cfjzshwpmexhtigndgztjoti3i7aeqkf22bx4royxszxx4lntmry.py":62:73)
#loc63 = loc("/NHNHOME/WORKSPACE/26msit001_A/jinhyeok/loop_TTT/lact/.cache_inductor_llm/fj/cfjzshwpmexhtigndgztjoti3i7aeqkf22bx4royxszxx4lntmry.py":63:20)
#loc64 = loc("/NHNHOME/WORKSPACE/26msit001_A/jinhyeok/loop_TTT/lact/.cache_inductor_llm/fj/cfjzshwpmexhtigndgztjoti3i7aeqkf22bx4royxszxx4lntmry.py":64:31)
#loc65 = loc("/NHNHOME/WORKSPACE/26msit001_A/jinhyeok/loop_TTT/lact/.cache_inductor_llm/fj/cfjzshwpmexhtigndgztjoti3i7aeqkf22bx4royxszxx4lntmry.py":64:69)
#loc66 = loc("/NHNHOME/WORKSPACE/26msit001_A/jinhyeok/loop_TTT/lact/.cache_inductor_llm/fj/cfjzshwpmexhtigndgztjoti3i7aeqkf22bx4royxszxx4lntmry.py":64:128)
#loc67 = loc("/NHNHOME/WORKSPACE/26msit001_A/jinhyeok/loop_TTT/lact/.cache_inductor_llm/fj/cfjzshwpmexhtigndgztjoti3i7aeqkf22bx4royxszxx4lntmry.py":66:73)
#loc68 = loc("/NHNHOME/WORKSPACE/26msit001_A/jinhyeok/loop_TTT/lact/.cache_inductor_llm/fj/cfjzshwpmexhtigndgztjoti3i7aeqkf22bx4royxszxx4lntmry.py":67:20)
#loc69 = loc("/NHNHOME/WORKSPACE/26msit001_A/jinhyeok/loop_TTT/lact/.cache_inductor_llm/fj/cfjzshwpmexhtigndgztjoti3i7aeqkf22bx4royxszxx4lntmry.py":68:20)
#loc70 = loc("/NHNHOME/WORKSPACE/26msit001_A/jinhyeok/loop_TTT/lact/.cache_inductor_llm/fj/cfjzshwpmexhtigndgztjoti3i7aeqkf22bx4royxszxx4lntmry.py":69:41)
#loc71 = loc("/NHNHOME/WORKSPACE/26msit001_A/jinhyeok/loop_TTT/lact/.cache_inductor_llm/fj/cfjzshwpmexhtigndgztjoti3i7aeqkf22bx4royxszxx4lntmry.py":69:46)
#loc72 = loc("/NHNHOME/WORKSPACE/26msit001_A/jinhyeok/loop_TTT/lact/.cache_inductor_llm/fj/cfjzshwpmexhtigndgztjoti3i7aeqkf22bx4royxszxx4lntmry.py":69:56)
#loc73 = loc("/NHNHOME/WORKSPACE/26msit001_A/jinhyeok/loop_TTT/lact/.cache_inductor_llm/fj/cfjzshwpmexhtigndgztjoti3i7aeqkf22bx4royxszxx4lntmry.py":69:31)
#loc74 = loc("/NHNHOME/WORKSPACE/26msit001_A/jinhyeok/loop_TTT/lact/.cache_inductor_llm/fj/cfjzshwpmexhtigndgztjoti3i7aeqkf22bx4royxszxx4lntmry.py":69:68)
#loc75 = loc("/NHNHOME/WORKSPACE/26msit001_A/jinhyeok/loop_TTT/lact/.cache_inductor_llm/fj/cfjzshwpmexhtigndgztjoti3i7aeqkf22bx4royxszxx4lntmry.py":69:127)
#loc76 = loc("/NHNHOME/WORKSPACE/26msit001_A/jinhyeok/loop_TTT/lact/.cache_inductor_llm/fj/cfjzshwpmexhtigndgztjoti3i7aeqkf22bx4royxszxx4lntmry.py":71:20)
#loc77 = loc("/NHNHOME/WORKSPACE/26msit001_A/jinhyeok/loop_TTT/lact/.cache_inductor_llm/fj/cfjzshwpmexhtigndgztjoti3i7aeqkf22bx4royxszxx4lntmry.py":72:31)
#loc78 = loc("/NHNHOME/WORKSPACE/26msit001_A/jinhyeok/loop_TTT/lact/.cache_inductor_llm/fj/cfjzshwpmexhtigndgztjoti3i7aeqkf22bx4royxszxx4lntmry.py":72:68)
#loc79 = loc("/NHNHOME/WORKSPACE/26msit001_A/jinhyeok/loop_TTT/lact/.cache_inductor_llm/fj/cfjzshwpmexhtigndgztjoti3i7aeqkf22bx4royxszxx4lntmry.py":72:127)
#loc80 = loc("/NHNHOME/WORKSPACE/26msit001_A/jinhyeok/loop_TTT/lact/.cache_inductor_llm/fj/cfjzshwpmexhtigndgztjoti3i7aeqkf22bx4royxszxx4lntmry.py":74:20)
#loc81 = loc("/NHNHOME/WORKSPACE/26msit001_A/jinhyeok/loop_TTT/lact/.cache_inductor_llm/fj/cfjzshwpmexhtigndgztjoti3i7aeqkf22bx4royxszxx4lntmry.py":76:35)
#loc82 = loc("/NHNHOME/WORKSPACE/26msit001_A/jinhyeok/loop_TTT/lact/.cache_inductor_llm/fj/cfjzshwpmexhtigndgztjoti3i7aeqkf22bx4royxszxx4lntmry.py":77:35)
#loc83 = loc("/NHNHOME/WORKSPACE/26msit001_A/jinhyeok/loop_TTT/lact/.cache_inductor_llm/fj/cfjzshwpmexhtigndgztjoti3i7aeqkf22bx4royxszxx4lntmry.py":78:20)
#loc84 = loc("/NHNHOME/WORKSPACE/26msit001_A/jinhyeok/loop_TTT/lact/.cache_inductor_llm/fj/cfjzshwpmexhtigndgztjoti3i7aeqkf22bx4royxszxx4lntmry.py":79:19)
#loc85 = loc("/NHNHOME/WORKSPACE/26msit001_A/jinhyeok/loop_TTT/lact/.cache_inductor_llm/fj/cfjzshwpmexhtigndgztjoti3i7aeqkf22bx4royxszxx4lntmry.py":80:37)
#loc86 = loc("/NHNHOME/WORKSPACE/26msit001_A/jinhyeok/loop_TTT/lact/.cache_inductor_llm/fj/cfjzshwpmexhtigndgztjoti3i7aeqkf22bx4royxszxx4lntmry.py":80:46)
#loc87 = loc("/NHNHOME/WORKSPACE/26msit001_A/jinhyeok/loop_TTT/lact/.cache_inductor_llm/fj/cfjzshwpmexhtigndgztjoti3i7aeqkf22bx4royxszxx4lntmry.py":80:32)
#loc88 = loc("/NHNHOME/WORKSPACE/26msit001_A/jinhyeok/loop_TTT/lact/.cache_inductor_llm/fj/cfjzshwpmexhtigndgztjoti3i7aeqkf22bx4royxszxx4lntmry.py":80:66)
#loc89 = loc("/NHNHOME/WORKSPACE/26msit001_A/jinhyeok/loop_TTT/lact/.cache_inductor_llm/fj/cfjzshwpmexhtigndgztjoti3i7aeqkf22bx4royxszxx4lntmry.py":80:58)
#loc90 = loc("/NHNHOME/WORKSPACE/26msit001_A/jinhyeok/loop_TTT/lact/.cache_inductor_llm/fj/cfjzshwpmexhtigndgztjoti3i7aeqkf22bx4royxszxx4lntmry.py":80:117)
#loc91 = loc("/NHNHOME/WORKSPACE/26msit001_A/jinhyeok/loop_TTT/lact/.cache_inductor_llm/fj/cfjzshwpmexhtigndgztjoti3i7aeqkf22bx4royxszxx4lntmry.py":82:73)
#loc92 = loc("/NHNHOME/WORKSPACE/26msit001_A/jinhyeok/loop_TTT/lact/.cache_inductor_llm/fj/cfjzshwpmexhtigndgztjoti3i7aeqkf22bx4royxszxx4lntmry.py":83:20)
#loc93 = loc("/NHNHOME/WORKSPACE/26msit001_A/jinhyeok/loop_TTT/lact/.cache_inductor_llm/fj/cfjzshwpmexhtigndgztjoti3i7aeqkf22bx4royxszxx4lntmry.py":84:32)
#loc94 = loc("/NHNHOME/WORKSPACE/26msit001_A/jinhyeok/loop_TTT/lact/.cache_inductor_llm/fj/cfjzshwpmexhtigndgztjoti3i7aeqkf22bx4royxszxx4lntmry.py":84:58)
#loc95 = loc("/NHNHOME/WORKSPACE/26msit001_A/jinhyeok/loop_TTT/lact/.cache_inductor_llm/fj/cfjzshwpmexhtigndgztjoti3i7aeqkf22bx4royxszxx4lntmry.py":84:117)
#loc96 = loc("/NHNHOME/WORKSPACE/26msit001_A/jinhyeok/loop_TTT/lact/.cache_inductor_llm/fj/cfjzshwpmexhtigndgztjoti3i7aeqkf22bx4royxszxx4lntmry.py":86:73)
#loc97 = loc("/NHNHOME/WORKSPACE/26msit001_A/jinhyeok/loop_TTT/lact/.cache_inductor_llm/fj/cfjzshwpmexhtigndgztjoti3i7aeqkf22bx4royxszxx4lntmry.py":87:20)
#loc98 = loc("/NHNHOME/WORKSPACE/26msit001_A/jinhyeok/loop_TTT/lact/.cache_inductor_llm/fj/cfjzshwpmexhtigndgztjoti3i7aeqkf22bx4royxszxx4lntmry.py":88:20)
#loc99 = loc("/NHNHOME/WORKSPACE/26msit001_A/jinhyeok/loop_TTT/lact/.cache_inductor_llm/fj/cfjzshwpmexhtigndgztjoti3i7aeqkf22bx4royxszxx4lntmry.py":89:37)
#loc100 = loc("/NHNHOME/WORKSPACE/26msit001_A/jinhyeok/loop_TTT/lact/.cache_inductor_llm/fj/cfjzshwpmexhtigndgztjoti3i7aeqkf22bx4royxszxx4lntmry.py":89:47)
#loc101 = loc("/NHNHOME/WORKSPACE/26msit001_A/jinhyeok/loop_TTT/lact/.cache_inductor_llm/fj/cfjzshwpmexhtigndgztjoti3i7aeqkf22bx4royxszxx4lntmry.py":89:32)
#loc102 = loc("/NHNHOME/WORKSPACE/26msit001_A/jinhyeok/loop_TTT/lact/.cache_inductor_llm/fj/cfjzshwpmexhtigndgztjoti3i7aeqkf22bx4royxszxx4lntmry.py":89:59)
#loc103 = loc("/NHNHOME/WORKSPACE/26msit001_A/jinhyeok/loop_TTT/lact/.cache_inductor_llm/fj/cfjzshwpmexhtigndgztjoti3i7aeqkf22bx4royxszxx4lntmry.py":89:118)
#loc104 = loc("/NHNHOME/WORKSPACE/26msit001_A/jinhyeok/loop_TTT/lact/.cache_inductor_llm/fj/cfjzshwpmexhtigndgztjoti3i7aeqkf22bx4royxszxx4lntmry.py":91:20)
#loc105 = loc("/NHNHOME/WORKSPACE/26msit001_A/jinhyeok/loop_TTT/lact/.cache_inductor_llm/fj/cfjzshwpmexhtigndgztjoti3i7aeqkf22bx4royxszxx4lntmry.py":92:32)
#loc106 = loc("/NHNHOME/WORKSPACE/26msit001_A/jinhyeok/loop_TTT/lact/.cache_inductor_llm/fj/cfjzshwpmexhtigndgztjoti3i7aeqkf22bx4royxszxx4lntmry.py":92:59)
#loc107 = loc("/NHNHOME/WORKSPACE/26msit001_A/jinhyeok/loop_TTT/lact/.cache_inductor_llm/fj/cfjzshwpmexhtigndgztjoti3i7aeqkf22bx4royxszxx4lntmry.py":92:118)
#loc108 = loc("/NHNHOME/WORKSPACE/26msit001_A/jinhyeok/loop_TTT/lact/.cache_inductor_llm/fj/cfjzshwpmexhtigndgztjoti3i7aeqkf22bx4royxszxx4lntmry.py":94:20)
#loc109 = loc("/NHNHOME/WORKSPACE/26msit001_A/jinhyeok/loop_TTT/lact/.cache_inductor_llm/fj/cfjzshwpmexhtigndgztjoti3i7aeqkf22bx4royxszxx4lntmry.py":96:35)
#loc110 = loc("/NHNHOME/WORKSPACE/26msit001_A/jinhyeok/loop_TTT/lact/.cache_inductor_llm/fj/cfjzshwpmexhtigndgztjoti3i7aeqkf22bx4royxszxx4lntmry.py":97:35)
#loc111 = loc("/NHNHOME/WORKSPACE/26msit001_A/jinhyeok/loop_TTT/lact/.cache_inductor_llm/fj/cfjzshwpmexhtigndgztjoti3i7aeqkf22bx4royxszxx4lntmry.py":98:20)
#loc112 = loc("/NHNHOME/WORKSPACE/26msit001_A/jinhyeok/loop_TTT/lact/.cache_inductor_llm/fj/cfjzshwpmexhtigndgztjoti3i7aeqkf22bx4royxszxx4lntmry.py":99:4)
#loc113 = loc("/NHNHOME/WORKSPACE/26msit001_A/jinhyeok/loop_TTT/lact/.cache_inductor_llm/fj/cfjzshwpmexhtigndgztjoti3i7aeqkf22bx4royxszxx4lntmry.py":100:37)
#loc114 = loc("/NHNHOME/WORKSPACE/26msit001_A/jinhyeok/loop_TTT/lact/.cache_inductor_llm/fj/cfjzshwpmexhtigndgztjoti3i7aeqkf22bx4royxszxx4lntmry.py":100:33)
#loc115 = loc("/NHNHOME/WORKSPACE/26msit001_A/jinhyeok/loop_TTT/lact/.cache_inductor_llm/fj/cfjzshwpmexhtigndgztjoti3i7aeqkf22bx4royxszxx4lntmry.py":100:28)
#loc116 = loc("/NHNHOME/WORKSPACE/26msit001_A/jinhyeok/loop_TTT/lact/.cache_inductor_llm/fj/cfjzshwpmexhtigndgztjoti3i7aeqkf22bx4royxszxx4lntmry.py":100:49)
#loc117 = loc("/NHNHOME/WORKSPACE/26msit001_A/jinhyeok/loop_TTT/lact/.cache_inductor_llm/fj/cfjzshwpmexhtigndgztjoti3i7aeqkf22bx4royxszxx4lntmry.py":100:4)
#loc135 = loc("tmp4"(#loc2))
#loc136 = loc("xmask"(#loc3))
#loc137 = loc("yoffset"(#loc4))
#loc138 = loc("yoffset"(#loc5))
#loc139 = loc("yindex"(#loc6))
#loc140 = loc("yindex"(#loc7))
#loc141 = loc("yindex"(#loc8))
#loc142 = loc("xoffset"(#loc9))
#loc143 = loc("xoffset"(#loc10))
#loc144 = loc("xindex"(#loc11))
#loc145 = loc("xindex"(#loc12))
#loc146 = loc("xindex"(#loc13))
#loc147 = loc("y0"(#loc14))
#loc148 = loc("y1"(#loc15))
#loc149 = loc("tmp2"(#loc16))
#loc150 = loc("tmp5"(#loc17))
#loc151 = loc("tmp6"(#loc18))
#loc152 = loc("tmp6"(#loc19))
#loc153 = loc("tmp6"(#loc20))
#loc154 = loc("tmp6"(#loc21))
#loc155 = loc("tmp6"(#loc22))
#loc156 = loc("tmp6"(#loc23))
#loc157 = loc("tmp6"(#loc24))
#loc158 = loc("tmp6"(#loc25))
#loc159 = loc("tmp6"(#loc26))
#loc160 = loc("tmp8"(#loc27))
#loc161 = loc("tmp8"(#loc28))
#loc162 = loc("tmp8"(#loc29))
#loc163 = loc("tmp9"(#loc30))
#loc164 = loc("tmp10"(#loc31))
#loc165 = loc("tmp10"(#loc32))
#loc166 = loc("tmp10"(#loc33))
#loc167 = loc("tmp12"(#loc34))
#loc168 = loc("tmp12"(#loc35))
#loc169 = loc("tmp13"(#loc36))
#loc170 = loc("tmp14"(#loc37))
#loc171 = loc("tmp15"(#loc38))
#loc172 = loc("tmp15"(#loc39))
#loc173 = loc("tmp15"(#loc40))
#loc174 = loc("tmp15"(#loc41))
#loc175 = loc("tmp15"(#loc42))
#loc176 = loc("tmp15"(#loc43))
#loc177 = loc("tmp15"(#loc44))
#loc178 = loc("tmp17"(#loc45))
#loc179 = loc("tmp18"(#loc46))
#loc180 = loc("tmp18"(#loc47))
#loc181 = loc("tmp18"(#loc48))
#loc182 = loc("tmp20"(#loc49))
#loc183 = loc("tmp22"(#loc50))
#loc184 = loc("tmp24"(#loc51))
#loc185 = loc("tmp26"(#loc52))
#loc186 = loc("tmp27"(#loc53))
#loc187 = loc("tmp28"(#loc54))
#loc188 = loc("tmp29"(#loc55))
#loc189 = loc("tmp29"(#loc56))
#loc190 = loc("tmp29"(#loc57))
#loc191 = loc("tmp29"(#loc58))
#loc192 = loc("tmp29"(#loc59))
#loc193 = loc("tmp29"(#loc60))
#loc194 = loc("tmp29"(#loc61))
#loc195 = loc("tmp31"(#loc62))
#loc196 = loc("tmp32"(#loc63))
#loc197 = loc("tmp33"(#loc64))
#loc198 = loc("tmp33"(#loc65))
#loc199 = loc("tmp33"(#loc66))
#loc200 = loc("tmp35"(#loc67))
#loc201 = loc("tmp36"(#loc68))
#loc202 = loc("tmp37"(#loc69))
#loc203 = loc("tmp38"(#loc70))
#loc204 = loc("tmp38"(#loc71))
#loc205 = loc("tmp38"(#loc72))
#loc206 = loc("tmp38"(#loc73))
#loc207 = loc("tmp38"(#loc74))
#loc208 = loc("tmp38"(#loc75))
#loc209 = loc("tmp40"(#loc76))
#loc210 = loc("tmp41"(#loc77))
#loc211 = loc("tmp41"(#loc78))
#loc212 = loc("tmp41"(#loc79))
#loc213 = loc("tmp43"(#loc80))
#loc214 = loc("tmp45"(#loc81))
#loc215 = loc("tmp46"(#loc82))
#loc216 = loc("tmp47"(#loc83))
#loc217 = loc("tmp48"(#loc84))
#loc218 = loc("tmp49"(#loc85))
#loc219 = loc("tmp49"(#loc86))
#loc220 = loc("tmp49"(#loc87))
#loc221 = loc("tmp49"(#loc88))
#loc222 = loc("tmp49"(#loc89))
#loc223 = loc("tmp49"(#loc90))
#loc224 = loc("tmp51"(#loc91))
#loc225 = loc("tmp52"(#loc92))
#loc226 = loc("tmp53"(#loc93))
#loc227 = loc("tmp53"(#loc94))
#loc228 = loc("tmp53"(#loc95))
#loc229 = loc("tmp55"(#loc96))
#loc230 = loc("tmp56"(#loc97))
#loc231 = loc("tmp57"(#loc98))
#loc232 = loc("tmp58"(#loc99))
#loc233 = loc("tmp58"(#loc100))
#loc234 = loc("tmp58"(#loc101))
#loc235 = loc("tmp58"(#loc102))
#loc236 = loc("tmp58"(#loc103))
#loc237 = loc("tmp60"(#loc104))
#loc238 = loc("tmp61"(#loc105))
#loc239 = loc("tmp61"(#loc106))
#loc240 = loc("tmp61"(#loc107))
#loc241 = loc("tmp63"(#loc108))
#loc242 = loc("tmp65"(#loc109))
#loc243 = loc("tmp66"(#loc110))
#loc244 = loc("tmp67"(#loc111))
