#loc = loc("/NHNHOME/WORKSPACE/26msit001_A/jinhyeok/loop_TTT/lact/.cache_inductor_llm/y7/cy7gcefp63fp2a7dujc2wjobn7rf2cri5cnd4txfhn3fu4g2nkap.py":18:0)
#loc31 = loc("in_ptr0"(#loc))
#loc32 = loc("out_ptr0"(#loc))
#loc33 = loc("ynumel"(#loc))
#loc34 = loc("xnumel"(#loc))
module {
  tt.func public @triton_poi_fused__to_copy_transpose_14(%in_ptr0: !tt.ptr<f32> {tt.divisibility = 16 : i32} loc("in_ptr0"(#loc)), %out_ptr0: !tt.ptr<bf16> {tt.divisibility = 16 : i32} loc("out_ptr0"(#loc)), %ynumel: i32 {tt.divisibility = 16 : i32} loc("ynumel"(#loc)), %xnumel: i32 {tt.divisibility = 16 : i32} loc("xnumel"(#loc))) attributes {noinline = false} {
    %tmp0 = arith.constant dense<36864> : tensor<32x1xi32> loc(#loc35)
    %cst = arith.constant dense<192> : tensor<32x1xi32> loc(#loc2)
    %cst_0 = arith.constant dense<192> : tensor<1x32xi32> loc(#loc2)
    %c32_i32 = arith.constant 32 : i32 loc(#loc2)
    %yoffset = tt.get_program_id y : i32 loc(#loc36)
    %yoffset_1 = tt.get_program_id z : i32 loc(#loc37)
    %yoffset_2 = tt.get_num_programs y : i32 loc(#loc38)
    %yoffset_3 = arith.muli %yoffset_1, %yoffset_2 : i32 loc(#loc39)
    %yoffset_4 = arith.addi %yoffset, %yoffset_3 : i32 loc(#loc40)
    %yoffset_5 = arith.muli %yoffset_4, %c32_i32 : i32 loc(#loc41)
    %yindex = tt.make_range {end = 32 : i32, start = 0 : i32} : tensor<32xi32> loc(#loc42)
    %yindex_6 = tt.expand_dims %yindex {axis = 1 : i32} : tensor<32xi32> -> tensor<32x1xi32> loc(#loc43)
    %yindex_7 = tt.splat %yoffset_5 : i32 -> tensor<32x1xi32> loc(#loc44)
    %yindex_8 = arith.addi %yindex_7, %yindex_6 : tensor<32x1xi32> loc(#loc44)
    %ymask = tt.splat %ynumel : i32 -> tensor<32x1xi32> loc(#loc45)
    %ymask_9 = arith.cmpi slt, %yindex_8, %ymask : tensor<32x1xi32> loc(#loc45)
    %xoffset = tt.get_program_id x : i32 loc(#loc46)
    %xoffset_10 = arith.muli %xoffset, %c32_i32 : i32 loc(#loc47)
    %xindex = tt.expand_dims %yindex {axis = 0 : i32} : tensor<32xi32> -> tensor<1x32xi32> loc(#loc48)
    %xindex_11 = tt.splat %xoffset_10 : i32 -> tensor<1x32xi32> loc(#loc49)
    %xindex_12 = arith.addi %xindex_11, %xindex : tensor<1x32xi32> loc(#loc49)
    %xmask = arith.cmpi slt, %xindex_12, %cst_0 : tensor<1x32xi32> loc(#loc50)
    %y0 = arith.remsi %yindex_8, %cst : tensor<32x1xi32> loc(#loc51)
    %y1 = arith.divsi %yindex_8, %cst : tensor<32x1xi32> loc(#loc52)
    %tmp0_13 = arith.muli %xindex_12, %cst_0 : tensor<1x32xi32> loc(#loc53)
    %tmp0_14 = tt.broadcast %y0 : tensor<32x1xi32> -> tensor<32x32xi32> loc(#loc54)
    %tmp0_15 = tt.broadcast %tmp0_13 : tensor<1x32xi32> -> tensor<32x32xi32> loc(#loc54)
    %tmp0_16 = arith.addi %tmp0_14, %tmp0_15 : tensor<32x32xi32> loc(#loc54)
    %tmp0_17 = arith.muli %y1, %tmp0 : tensor<32x1xi32> loc(#loc35)
    %tmp0_18 = tt.broadcast %tmp0_17 : tensor<32x1xi32> -> tensor<32x32xi32> loc(#loc55)
    %tmp0_19 = arith.addi %tmp0_16, %tmp0_18 : tensor<32x32xi32> loc(#loc55)
    %tmp0_20 = tt.splat %in_ptr0 : !tt.ptr<f32> -> tensor<32x32x!tt.ptr<f32>> loc(#loc56)
    %tmp0_21 = tt.addptr %tmp0_20, %tmp0_19 : tensor<32x32x!tt.ptr<f32>>, tensor<32x32xi32> loc(#loc56)
    %tmp0_22 = tt.broadcast %xmask : tensor<1x32xi1> -> tensor<32x32xi1> loc(#loc57)
    %tmp0_23 = tt.broadcast %ymask_9 : tensor<32x1xi1> -> tensor<32x32xi1> loc(#loc57)
    %tmp0_24 = arith.andi %tmp0_22, %tmp0_23 : tensor<32x32xi1> loc(#loc57)
    %tmp0_25 = tt.load %tmp0_21, %tmp0_24 evictionPolicy = evict_last : tensor<32x32x!tt.ptr<f32>> loc(#loc58)
    %0 = arith.muli %yindex_8, %cst : tensor<32x1xi32> loc(#loc26)
    %1 = tt.broadcast %xindex_12 : tensor<1x32xi32> -> tensor<32x32xi32> loc(#loc27)
    %2 = tt.broadcast %0 : tensor<32x1xi32> -> tensor<32x32xi32> loc(#loc27)
    %3 = arith.addi %1, %2 : tensor<32x32xi32> loc(#loc27)
    %4 = tt.splat %out_ptr0 : !tt.ptr<bf16> -> tensor<32x32x!tt.ptr<bf16>> loc(#loc28)
    %5 = tt.addptr %4, %3 : tensor<32x32x!tt.ptr<bf16>>, tensor<32x32xi32> loc(#loc28)
    %6 = arith.truncf %tmp0_25 : tensor<32x32xf32> to tensor<32x32xbf16> loc(#loc29)
    tt.store %5, %6, %tmp0_24 : tensor<32x32x!tt.ptr<bf16>> loc(#loc29)
    tt.return loc(#loc30)
  } loc(#loc)
} loc(#loc)
#loc1 = loc("/NHNHOME/WORKSPACE/26msit001_A/jinhyeok/loop_TTT/lact/.cache_inductor_llm/y7/cy7gcefp63fp2a7dujc2wjobn7rf2cri5cnd4txfhn3fu4g2nkap.py":30:50)
#loc2 = loc(unknown)
#loc3 = loc("/NHNHOME/WORKSPACE/26msit001_A/jinhyeok/loop_TTT/lact/.cache_inductor_llm/y7/cy7gcefp63fp2a7dujc2wjobn7rf2cri5cnd4txfhn3fu4g2nkap.py":20:29)
#loc4 = loc("/NHNHOME/WORKSPACE/26msit001_A/jinhyeok/loop_TTT/lact/.cache_inductor_llm/y7/cy7gcefp63fp2a7dujc2wjobn7rf2cri5cnd4txfhn3fu4g2nkap.py":20:48)
#loc5 = loc("/NHNHOME/WORKSPACE/26msit001_A/jinhyeok/loop_TTT/lact/.cache_inductor_llm/y7/cy7gcefp63fp2a7dujc2wjobn7rf2cri5cnd4txfhn3fu4g2nkap.py":20:69)
#loc6 = loc("/NHNHOME/WORKSPACE/26msit001_A/jinhyeok/loop_TTT/lact/.cache_inductor_llm/y7/cy7gcefp63fp2a7dujc2wjobn7rf2cri5cnd4txfhn3fu4g2nkap.py":20:53)
#loc7 = loc("/NHNHOME/WORKSPACE/26msit001_A/jinhyeok/loop_TTT/lact/.cache_inductor_llm/y7/cy7gcefp63fp2a7dujc2wjobn7rf2cri5cnd4txfhn3fu4g2nkap.py":20:34)
#loc8 = loc("/NHNHOME/WORKSPACE/26msit001_A/jinhyeok/loop_TTT/lact/.cache_inductor_llm/y7/cy7gcefp63fp2a7dujc2wjobn7rf2cri5cnd4txfhn3fu4g2nkap.py":20:75)
#loc9 = loc("/NHNHOME/WORKSPACE/26msit001_A/jinhyeok/loop_TTT/lact/.cache_inductor_llm/y7/cy7gcefp63fp2a7dujc2wjobn7rf2cri5cnd4txfhn3fu4g2nkap.py":21:36)
#loc10 = loc("/NHNHOME/WORKSPACE/26msit001_A/jinhyeok/loop_TTT/lact/.cache_inductor_llm/y7/cy7gcefp63fp2a7dujc2wjobn7rf2cri5cnd4txfhn3fu4g2nkap.py":21:44)
#loc11 = loc("/NHNHOME/WORKSPACE/26msit001_A/jinhyeok/loop_TTT/lact/.cache_inductor_llm/y7/cy7gcefp63fp2a7dujc2wjobn7rf2cri5cnd4txfhn3fu4g2nkap.py":21:23)
#loc12 = loc("/NHNHOME/WORKSPACE/26msit001_A/jinhyeok/loop_TTT/lact/.cache_inductor_llm/y7/cy7gcefp63fp2a7dujc2wjobn7rf2cri5cnd4txfhn3fu4g2nkap.py":22:21)
#loc13 = loc("/NHNHOME/WORKSPACE/26msit001_A/jinhyeok/loop_TTT/lact/.cache_inductor_llm/y7/cy7gcefp63fp2a7dujc2wjobn7rf2cri5cnd4txfhn3fu4g2nkap.py":23:28)
#loc14 = loc("/NHNHOME/WORKSPACE/26msit001_A/jinhyeok/loop_TTT/lact/.cache_inductor_llm/y7/cy7gcefp63fp2a7dujc2wjobn7rf2cri5cnd4txfhn3fu4g2nkap.py":23:33)
#loc15 = loc("/NHNHOME/WORKSPACE/26msit001_A/jinhyeok/loop_TTT/lact/.cache_inductor_llm/y7/cy7gcefp63fp2a7dujc2wjobn7rf2cri5cnd4txfhn3fu4g2nkap.py":24:44)
#loc16 = loc("/NHNHOME/WORKSPACE/26msit001_A/jinhyeok/loop_TTT/lact/.cache_inductor_llm/y7/cy7gcefp63fp2a7dujc2wjobn7rf2cri5cnd4txfhn3fu4g2nkap.py":24:23)
#loc17 = loc("/NHNHOME/WORKSPACE/26msit001_A/jinhyeok/loop_TTT/lact/.cache_inductor_llm/y7/cy7gcefp63fp2a7dujc2wjobn7rf2cri5cnd4txfhn3fu4g2nkap.py":25:21)
#loc18 = loc("/NHNHOME/WORKSPACE/26msit001_A/jinhyeok/loop_TTT/lact/.cache_inductor_llm/y7/cy7gcefp63fp2a7dujc2wjobn7rf2cri5cnd4txfhn3fu4g2nkap.py":27:19)
#loc19 = loc("/NHNHOME/WORKSPACE/26msit001_A/jinhyeok/loop_TTT/lact/.cache_inductor_llm/y7/cy7gcefp63fp2a7dujc2wjobn7rf2cri5cnd4txfhn3fu4g2nkap.py":28:19)
#loc20 = loc("/NHNHOME/WORKSPACE/26msit001_A/jinhyeok/loop_TTT/lact/.cache_inductor_llm/y7/cy7gcefp63fp2a7dujc2wjobn7rf2cri5cnd4txfhn3fu4g2nkap.py":30:39)
#loc21 = loc("/NHNHOME/WORKSPACE/26msit001_A/jinhyeok/loop_TTT/lact/.cache_inductor_llm/y7/cy7gcefp63fp2a7dujc2wjobn7rf2cri5cnd4txfhn3fu4g2nkap.py":30:35)
#loc22 = loc("/NHNHOME/WORKSPACE/26msit001_A/jinhyeok/loop_TTT/lact/.cache_inductor_llm/y7/cy7gcefp63fp2a7dujc2wjobn7rf2cri5cnd4txfhn3fu4g2nkap.py":30:44)
#loc23 = loc("/NHNHOME/WORKSPACE/26msit001_A/jinhyeok/loop_TTT/lact/.cache_inductor_llm/y7/cy7gcefp63fp2a7dujc2wjobn7rf2cri5cnd4txfhn3fu4g2nkap.py":30:30)
#loc24 = loc("/NHNHOME/WORKSPACE/26msit001_A/jinhyeok/loop_TTT/lact/.cache_inductor_llm/y7/cy7gcefp63fp2a7dujc2wjobn7rf2cri5cnd4txfhn3fu4g2nkap.py":30:63)
#loc25 = loc("/NHNHOME/WORKSPACE/26msit001_A/jinhyeok/loop_TTT/lact/.cache_inductor_llm/y7/cy7gcefp63fp2a7dujc2wjobn7rf2cri5cnd4txfhn3fu4g2nkap.py":30:55)
#loc26 = loc("/NHNHOME/WORKSPACE/26msit001_A/jinhyeok/loop_TTT/lact/.cache_inductor_llm/y7/cy7gcefp63fp2a7dujc2wjobn7rf2cri5cnd4txfhn3fu4g2nkap.py":32:34)
#loc27 = loc("/NHNHOME/WORKSPACE/26msit001_A/jinhyeok/loop_TTT/lact/.cache_inductor_llm/y7/cy7gcefp63fp2a7dujc2wjobn7rf2cri5cnd4txfhn3fu4g2nkap.py":32:30)
#loc28 = loc("/NHNHOME/WORKSPACE/26msit001_A/jinhyeok/loop_TTT/lact/.cache_inductor_llm/y7/cy7gcefp63fp2a7dujc2wjobn7rf2cri5cnd4txfhn3fu4g2nkap.py":32:25)
#loc29 = loc("/NHNHOME/WORKSPACE/26msit001_A/jinhyeok/loop_TTT/lact/.cache_inductor_llm/y7/cy7gcefp63fp2a7dujc2wjobn7rf2cri5cnd4txfhn3fu4g2nkap.py":32:45)
#loc30 = loc("/NHNHOME/WORKSPACE/26msit001_A/jinhyeok/loop_TTT/lact/.cache_inductor_llm/y7/cy7gcefp63fp2a7dujc2wjobn7rf2cri5cnd4txfhn3fu4g2nkap.py":32:4)
#loc35 = loc("tmp0"(#loc1))
#loc36 = loc("yoffset"(#loc3))
#loc37 = loc("yoffset"(#loc4))
#loc38 = loc("yoffset"(#loc5))
#loc39 = loc("yoffset"(#loc6))
#loc40 = loc("yoffset"(#loc7))
#loc41 = loc("yoffset"(#loc8))
#loc42 = loc("yindex"(#loc9))
#loc43 = loc("yindex"(#loc10))
#loc44 = loc("yindex"(#loc11))
#loc45 = loc("ymask"(#loc12))
#loc46 = loc("xoffset"(#loc13))
#loc47 = loc("xoffset"(#loc14))
#loc48 = loc("xindex"(#loc15))
#loc49 = loc("xindex"(#loc16))
#loc50 = loc("xmask"(#loc17))
#loc51 = loc("y0"(#loc18))
#loc52 = loc("y1"(#loc19))
#loc53 = loc("tmp0"(#loc20))
#loc54 = loc("tmp0"(#loc21))
#loc55 = loc("tmp0"(#loc22))
#loc56 = loc("tmp0"(#loc23))
#loc57 = loc("tmp0"(#loc24))
#loc58 = loc("tmp0"(#loc25))
