#loc = loc("/NHNHOME/WORKSPACE/26msit001_A/jinhyeok/loop_TTT/lact/.cache_inductor_llm/gd/cgdxmfzhi4gpuovtgi56u5nmqedbz3t6nr3oporzxlz4iab4qijh.py":18:0)
#loc3 = loc(unknown)
#loc13 = loc("/NHNHOME/WORKSPACE/26msit001_A/jinhyeok/loop_TTT/lact/.cache_inductor_llm/gd/cgdxmfzhi4gpuovtgi56u5nmqedbz3t6nr3oporzxlz4iab4qijh.py":37:24)
#loc19 = loc("in_ptr0"(#loc))
#loc20 = loc("out_ptr0"(#loc))
#loc21 = loc("xnumel"(#loc))
#loc22 = loc("r0_numel"(#loc))
#loc33 = loc("tmp4"(#loc13))
#loc38 = loc(callsite(#loc3 at #loc33))
module {
  tt.func public @triton_per_fused_mean_slice_45(%in_ptr0: !tt.ptr<f32> {tt.divisibility = 16 : i32} loc("in_ptr0"(#loc)), %out_ptr0: !tt.ptr<f32> {tt.divisibility = 16 : i32} loc("out_ptr0"(#loc)), %xnumel: i32 {tt.divisibility = 16 : i32} loc("xnumel"(#loc)), %r0_numel: i32 {tt.divisibility = 16 : i32} loc("r0_numel"(#loc))) attributes {noinline = false} {
    %tmp0 = arith.constant 4096 : i32 loc(#loc23)
    %xmask = arith.constant 32 : i32 loc(#loc24)
    %cst = arith.constant dense<0.000000e+00> : tensor<1x1024xf32> loc(#loc3)
    %tmp0_0 = arith.constant dense<2048> : tensor<1x1024xi32> loc(#loc25)
    %xoffset = tt.get_program_id x : i32 loc(#loc26)
    %xmask_1 = arith.cmpi slt, %xoffset, %xmask : i32 loc(#loc24)
    %xmask_2 = tt.splat %xmask_1 : i1 -> tensor<1x1xi1> loc(#loc24)
    %r0_index = tt.make_range {end = 1024 : i32, start = 0 : i32} : tensor<1024xi32> loc(#loc27)
    %r0_index_3 = tt.expand_dims %r0_index {axis = 0 : i32} : tensor<1024xi32> -> tensor<1x1024xi32> loc(#loc28)
    %tmp0_4 = arith.addi %r0_index_3, %tmp0_0 : tensor<1x1024xi32> loc(#loc25)
    %tmp0_5 = arith.muli %xoffset, %tmp0 : i32 loc(#loc23)
    %tmp0_6 = tt.splat %tmp0_5 : i32 -> tensor<1x1024xi32> loc(#loc35)
    %tmp0_7 = arith.addi %tmp0_4, %tmp0_6 : tensor<1x1024xi32> loc(#loc29)
    %tmp0_8 = tt.splat %in_ptr0 : !tt.ptr<f32> -> tensor<1x1024x!tt.ptr<f32>> loc(#loc30)
    %tmp0_9 = tt.addptr %tmp0_8, %tmp0_7 : tensor<1x1024x!tt.ptr<f32>>, tensor<1x1024xi32> loc(#loc30)
    %tmp0_10 = tt.splat %xmask_1 : i1 -> tensor<1x1024xi1> loc(#loc36)
    %tmp0_11 = tt.load %tmp0_9, %tmp0_10, %cst : tensor<1x1024x!tt.ptr<f32>> loc(#loc31)
    %tmp3 = arith.select %tmp0_10, %tmp0_11, %cst : tensor<1x1024xi1>, tensor<1x1024xf32> loc(#loc32)
    %tmp4 = "tt.reduce"(%tmp3) <{axis = 1 : i32}> ({
    ^bb0(%tmp4_13: f32 loc(callsite(#loc3 at #loc33)), %tmp4_14: f32 loc(callsite(#loc3 at #loc33))):
      %tmp4_15 = arith.addf %tmp4_13, %tmp4_14 : f32 loc(#loc39)
      tt.reduce.return %tmp4_15 : f32 loc(#loc37)
    }) : (tensor<1x1024xf32>) -> tensor<1xf32> loc(#loc37)
    %tmp4_12 = tt.expand_dims %tmp4 {axis = 1 : i32} : tensor<1xf32> -> tensor<1x1xf32> loc(#loc34)
    %0 = tt.addptr %out_ptr0, %xoffset : !tt.ptr<f32>, i32 loc(#loc16)
    %1 = tt.splat %0 : !tt.ptr<f32> -> tensor<1x1x!tt.ptr<f32>> loc(#loc16)
    tt.store %1, %tmp4_12, %xmask_2 : tensor<1x1x!tt.ptr<f32>> loc(#loc17)
    tt.return loc(#loc18)
  } loc(#loc)
} loc(#loc)
#loc1 = loc("/NHNHOME/WORKSPACE/26msit001_A/jinhyeok/loop_TTT/lact/.cache_inductor_llm/gd/cgdxmfzhi4gpuovtgi56u5nmqedbz3t6nr3oporzxlz4iab4qijh.py":34:49)
#loc2 = loc("/NHNHOME/WORKSPACE/26msit001_A/jinhyeok/loop_TTT/lact/.cache_inductor_llm/gd/cgdxmfzhi4gpuovtgi56u5nmqedbz3t6nr3oporzxlz4iab4qijh.py":26:21)
#loc4 = loc("/NHNHOME/WORKSPACE/26msit001_A/jinhyeok/loop_TTT/lact/.cache_inductor_llm/gd/cgdxmfzhi4gpuovtgi56u5nmqedbz3t6nr3oporzxlz4iab4qijh.py":34:37)
#loc5 = loc("/NHNHOME/WORKSPACE/26msit001_A/jinhyeok/loop_TTT/lact/.cache_inductor_llm/gd/cgdxmfzhi4gpuovtgi56u5nmqedbz3t6nr3oporzxlz4iab4qijh.py":24:28)
#loc6 = loc("/NHNHOME/WORKSPACE/26msit001_A/jinhyeok/loop_TTT/lact/.cache_inductor_llm/gd/cgdxmfzhi4gpuovtgi56u5nmqedbz3t6nr3oporzxlz4iab4qijh.py":27:28)
#loc7 = loc("/NHNHOME/WORKSPACE/26msit001_A/jinhyeok/loop_TTT/lact/.cache_inductor_llm/gd/cgdxmfzhi4gpuovtgi56u5nmqedbz3t6nr3oporzxlz4iab4qijh.py":27:38)
#loc8 = loc("/NHNHOME/WORKSPACE/26msit001_A/jinhyeok/loop_TTT/lact/.cache_inductor_llm/gd/cgdxmfzhi4gpuovtgi56u5nmqedbz3t6nr3oporzxlz4iab4qijh.py":34:44)
#loc9 = loc("/NHNHOME/WORKSPACE/26msit001_A/jinhyeok/loop_TTT/lact/.cache_inductor_llm/gd/cgdxmfzhi4gpuovtgi56u5nmqedbz3t6nr3oporzxlz4iab4qijh.py":34:30)
#loc10 = loc("/NHNHOME/WORKSPACE/26msit001_A/jinhyeok/loop_TTT/lact/.cache_inductor_llm/gd/cgdxmfzhi4gpuovtgi56u5nmqedbz3t6nr3oporzxlz4iab4qijh.py":34:54)
#loc11 = loc("/NHNHOME/WORKSPACE/26msit001_A/jinhyeok/loop_TTT/lact/.cache_inductor_llm/gd/cgdxmfzhi4gpuovtgi56u5nmqedbz3t6nr3oporzxlz4iab4qijh.py":36:33)
#loc12 = loc("/NHNHOME/WORKSPACE/26msit001_A/jinhyeok/TTT_camera_embedding/.venv_llm/lib/python3.12/site-packages/triton/language/standard.py":291:36)
#loc14 = loc("/NHNHOME/WORKSPACE/26msit001_A/jinhyeok/TTT_camera_embedding/.venv_llm/lib/python3.12/site-packages/triton/language/standard.py":261:15)
#loc15 = loc("/NHNHOME/WORKSPACE/26msit001_A/jinhyeok/loop_TTT/lact/.cache_inductor_llm/gd/cgdxmfzhi4gpuovtgi56u5nmqedbz3t6nr3oporzxlz4iab4qijh.py":37:27)
#loc16 = loc("/NHNHOME/WORKSPACE/26msit001_A/jinhyeok/loop_TTT/lact/.cache_inductor_llm/gd/cgdxmfzhi4gpuovtgi56u5nmqedbz3t6nr3oporzxlz4iab4qijh.py":38:25)
#loc17 = loc("/NHNHOME/WORKSPACE/26msit001_A/jinhyeok/loop_TTT/lact/.cache_inductor_llm/gd/cgdxmfzhi4gpuovtgi56u5nmqedbz3t6nr3oporzxlz4iab4qijh.py":38:36)
#loc18 = loc("/NHNHOME/WORKSPACE/26msit001_A/jinhyeok/loop_TTT/lact/.cache_inductor_llm/gd/cgdxmfzhi4gpuovtgi56u5nmqedbz3t6nr3oporzxlz4iab4qijh.py":38:4)
#loc23 = loc("tmp0"(#loc1))
#loc24 = loc("xmask"(#loc2))
#loc25 = loc("tmp0"(#loc4))
#loc26 = loc("xoffset"(#loc5))
#loc27 = loc("r0_index"(#loc6))
#loc28 = loc("r0_index"(#loc7))
#loc29 = loc("tmp0"(#loc8))
#loc30 = loc("tmp0"(#loc9))
#loc31 = loc("tmp0"(#loc10))
#loc32 = loc("tmp3"(#loc11))
#loc34 = loc("tmp4"(#loc15))
#loc35 = loc(fused[#loc29, #loc23])
#loc36 = loc(fused[#loc31, #loc24])
#loc37 = loc(callsite(#loc12 at #loc33))
#loc39 = loc(callsite(#loc14 at #loc37))
