#loc = loc("/NHNHOME/WORKSPACE/26msit001_A/jinhyeok/loop_TTT/lact/.cache_inductor_llm/aa/caalhgahm3rbx6pn2wr2ardw6p2xczn37qs3hd5kuk7wugmvxox7.py":18:0)
#loc4 = loc(unknown)
#loc14 = loc("/NHNHOME/WORKSPACE/26msit001_A/jinhyeok/loop_TTT/lact/.cache_inductor_llm/aa/caalhgahm3rbx6pn2wr2ardw6p2xczn37qs3hd5kuk7wugmvxox7.py":37:24)
#loc21 = loc("in_out_ptr0"(#loc))
#loc22 = loc("in_ptr0"(#loc))
#loc23 = loc("xnumel"(#loc))
#loc24 = loc("r0_numel"(#loc))
#loc36 = loc("tmp4"(#loc14))
#loc41 = loc(callsite(#loc4 at #loc36))
module {
  tt.func public @triton_per_fused_mean_slice_36(%in_out_ptr0: !tt.ptr<f32> {tt.divisibility = 16 : i32} loc("in_out_ptr0"(#loc)), %in_ptr0: !tt.ptr<f32> {tt.divisibility = 16 : i32} loc("in_ptr0"(#loc)), %xnumel: i32 {tt.divisibility = 16 : i32} loc("xnumel"(#loc)), %r0_numel: i32 {tt.divisibility = 16 : i32} loc("r0_numel"(#loc))) attributes {noinline = false} {
    %tmp0 = arith.constant 4096 : i32 loc(#loc25)
    %xmask = arith.constant 32 : i32 loc(#loc26)
    %tmp6 = arith.constant dense<1.024000e+03> : tensor<1x1xf32> loc(#loc27)
    %cst = arith.constant dense<0.000000e+00> : tensor<1x1024xf32> loc(#loc4)
    %tmp0_0 = arith.constant dense<1024> : tensor<1x1024xi32> loc(#loc28)
    %xoffset = tt.get_program_id x : i32 loc(#loc29)
    %xmask_1 = arith.cmpi slt, %xoffset, %xmask : i32 loc(#loc26)
    %xmask_2 = tt.splat %xmask_1 : i1 -> tensor<1x1xi1> loc(#loc26)
    %r0_index = tt.make_range {end = 1024 : i32, start = 0 : i32} : tensor<1024xi32> loc(#loc30)
    %r0_index_3 = tt.expand_dims %r0_index {axis = 0 : i32} : tensor<1024xi32> -> tensor<1x1024xi32> loc(#loc31)
    %tmp0_4 = arith.addi %r0_index_3, %tmp0_0 : tensor<1x1024xi32> loc(#loc28)
    %tmp0_5 = arith.muli %xoffset, %tmp0 : i32 loc(#loc25)
    %tmp0_6 = tt.splat %tmp0_5 : i32 -> tensor<1x1024xi32> loc(#loc38)
    %tmp0_7 = arith.addi %tmp0_4, %tmp0_6 : tensor<1x1024xi32> loc(#loc32)
    %tmp0_8 = tt.splat %in_ptr0 : !tt.ptr<f32> -> tensor<1x1024x!tt.ptr<f32>> loc(#loc33)
    %tmp0_9 = tt.addptr %tmp0_8, %tmp0_7 : tensor<1x1024x!tt.ptr<f32>>, tensor<1x1024xi32> loc(#loc33)
    %tmp0_10 = tt.splat %xmask_1 : i1 -> tensor<1x1024xi1> loc(#loc39)
    %tmp0_11 = tt.load %tmp0_9, %tmp0_10, %cst : tensor<1x1024x!tt.ptr<f32>> loc(#loc34)
    %tmp3 = arith.select %tmp0_10, %tmp0_11, %cst : tensor<1x1024xi1>, tensor<1x1024xf32> loc(#loc35)
    %tmp4 = "tt.reduce"(%tmp3) <{axis = 1 : i32}> ({
    ^bb0(%tmp4_14: f32 loc(callsite(#loc4 at #loc36)), %tmp4_15: f32 loc(callsite(#loc4 at #loc36))):
      %tmp4_16 = arith.addf %tmp4_14, %tmp4_15 : f32 loc(#loc42)
      tt.reduce.return %tmp4_16 : f32 loc(#loc40)
    }) : (tensor<1x1024xf32>) -> tensor<1xf32> loc(#loc40)
    %tmp4_12 = tt.expand_dims %tmp4 {axis = 1 : i32} : tensor<1xf32> -> tensor<1x1xf32> loc(#loc37)
    %tmp6_13 = arith.divf %tmp4_12, %tmp6 : tensor<1x1xf32> loc(#loc27)
    gpu.barrier loc(#loc17)
    %0 = tt.addptr %in_out_ptr0, %xoffset : !tt.ptr<f32>, i32 loc(#loc18)
    %1 = tt.splat %0 : !tt.ptr<f32> -> tensor<1x1x!tt.ptr<f32>> loc(#loc18)
    tt.store %1, %tmp6_13, %xmask_2 : tensor<1x1x!tt.ptr<f32>> loc(#loc19)
    tt.return loc(#loc20)
  } loc(#loc)
} loc(#loc)
#loc1 = loc("/NHNHOME/WORKSPACE/26msit001_A/jinhyeok/loop_TTT/lact/.cache_inductor_llm/aa/caalhgahm3rbx6pn2wr2ardw6p2xczn37qs3hd5kuk7wugmvxox7.py":34:49)
#loc2 = loc("/NHNHOME/WORKSPACE/26msit001_A/jinhyeok/loop_TTT/lact/.cache_inductor_llm/aa/caalhgahm3rbx6pn2wr2ardw6p2xczn37qs3hd5kuk7wugmvxox7.py":26:21)
#loc3 = loc("/NHNHOME/WORKSPACE/26msit001_A/jinhyeok/loop_TTT/lact/.cache_inductor_llm/aa/caalhgahm3rbx6pn2wr2ardw6p2xczn37qs3hd5kuk7wugmvxox7.py":39:19)
#loc5 = loc("/NHNHOME/WORKSPACE/26msit001_A/jinhyeok/loop_TTT/lact/.cache_inductor_llm/aa/caalhgahm3rbx6pn2wr2ardw6p2xczn37qs3hd5kuk7wugmvxox7.py":34:37)
#loc6 = loc("/NHNHOME/WORKSPACE/26msit001_A/jinhyeok/loop_TTT/lact/.cache_inductor_llm/aa/caalhgahm3rbx6pn2wr2ardw6p2xczn37qs3hd5kuk7wugmvxox7.py":24:28)
#loc7 = loc("/NHNHOME/WORKSPACE/26msit001_A/jinhyeok/loop_TTT/lact/.cache_inductor_llm/aa/caalhgahm3rbx6pn2wr2ardw6p2xczn37qs3hd5kuk7wugmvxox7.py":27:28)
#loc8 = loc("/NHNHOME/WORKSPACE/26msit001_A/jinhyeok/loop_TTT/lact/.cache_inductor_llm/aa/caalhgahm3rbx6pn2wr2ardw6p2xczn37qs3hd5kuk7wugmvxox7.py":27:38)
#loc9 = loc("/NHNHOME/WORKSPACE/26msit001_A/jinhyeok/loop_TTT/lact/.cache_inductor_llm/aa/caalhgahm3rbx6pn2wr2ardw6p2xczn37qs3hd5kuk7wugmvxox7.py":34:44)
#loc10 = loc("/NHNHOME/WORKSPACE/26msit001_A/jinhyeok/loop_TTT/lact/.cache_inductor_llm/aa/caalhgahm3rbx6pn2wr2ardw6p2xczn37qs3hd5kuk7wugmvxox7.py":34:30)
#loc11 = loc("/NHNHOME/WORKSPACE/26msit001_A/jinhyeok/loop_TTT/lact/.cache_inductor_llm/aa/caalhgahm3rbx6pn2wr2ardw6p2xczn37qs3hd5kuk7wugmvxox7.py":34:54)
#loc12 = loc("/NHNHOME/WORKSPACE/26msit001_A/jinhyeok/loop_TTT/lact/.cache_inductor_llm/aa/caalhgahm3rbx6pn2wr2ardw6p2xczn37qs3hd5kuk7wugmvxox7.py":36:33)
#loc13 = loc("/NHNHOME/WORKSPACE/26msit001_A/jinhyeok/TTT_camera_embedding/.venv_llm/lib/python3.12/site-packages/triton/language/standard.py":291:36)
#loc15 = loc("/NHNHOME/WORKSPACE/26msit001_A/jinhyeok/TTT_camera_embedding/.venv_llm/lib/python3.12/site-packages/triton/language/standard.py":261:15)
#loc16 = loc("/NHNHOME/WORKSPACE/26msit001_A/jinhyeok/loop_TTT/lact/.cache_inductor_llm/aa/caalhgahm3rbx6pn2wr2ardw6p2xczn37qs3hd5kuk7wugmvxox7.py":37:27)
#loc17 = loc("/NHNHOME/WORKSPACE/26msit001_A/jinhyeok/loop_TTT/lact/.cache_inductor_llm/aa/caalhgahm3rbx6pn2wr2ardw6p2xczn37qs3hd5kuk7wugmvxox7.py":40:4)
#loc18 = loc("/NHNHOME/WORKSPACE/26msit001_A/jinhyeok/loop_TTT/lact/.cache_inductor_llm/aa/caalhgahm3rbx6pn2wr2ardw6p2xczn37qs3hd5kuk7wugmvxox7.py":41:28)
#loc19 = loc("/NHNHOME/WORKSPACE/26msit001_A/jinhyeok/loop_TTT/lact/.cache_inductor_llm/aa/caalhgahm3rbx6pn2wr2ardw6p2xczn37qs3hd5kuk7wugmvxox7.py":41:39)
#loc20 = loc("/NHNHOME/WORKSPACE/26msit001_A/jinhyeok/loop_TTT/lact/.cache_inductor_llm/aa/caalhgahm3rbx6pn2wr2ardw6p2xczn37qs3hd5kuk7wugmvxox7.py":41:4)
#loc25 = loc("tmp0"(#loc1))
#loc26 = loc("xmask"(#loc2))
#loc27 = loc("tmp6"(#loc3))
#loc28 = loc("tmp0"(#loc5))
#loc29 = loc("xoffset"(#loc6))
#loc30 = loc("r0_index"(#loc7))
#loc31 = loc("r0_index"(#loc8))
#loc32 = loc("tmp0"(#loc9))
#loc33 = loc("tmp0"(#loc10))
#loc34 = loc("tmp0"(#loc11))
#loc35 = loc("tmp3"(#loc12))
#loc37 = loc("tmp4"(#loc16))
#loc38 = loc(fused[#loc32, #loc25])
#loc39 = loc(fused[#loc34, #loc26])
#loc40 = loc(callsite(#loc13 at #loc36))
#loc42 = loc(callsite(#loc15 at #loc40))
