#loc = loc("/NHNHOME/WORKSPACE/26msit001_A/jinhyeok/TTT_camera_embedding/lact_llm/.cache_inductor/h4/ch4mu2vp76xtfrftmsqvpm2gd3zyrnjnorsjzkxi3b75niqku5fr.py":18:0)
#loc59 = loc("in_ptr0"(#loc))
#loc60 = loc("in_ptr1"(#loc))
#loc61 = loc("in_ptr2"(#loc))
#loc62 = loc("in_ptr3"(#loc))
#loc63 = loc("out_ptr0"(#loc))
#loc64 = loc("ynumel"(#loc))
#loc65 = loc("xnumel"(#loc))
module {
  tt.func public @triton_poi_fused__to_copy_cat_mul_silu_slice_stack_transpose_view_45(%in_ptr0: !tt.ptr<f32> {tt.divisibility = 16 : i32} loc("in_ptr0"(#loc)), %in_ptr1: !tt.ptr<bf16> {tt.divisibility = 16 : i32} loc("in_ptr1"(#loc)), %in_ptr2: !tt.ptr<bf16> {tt.divisibility = 16 : i32} loc("in_ptr2"(#loc)), %in_ptr3: !tt.ptr<f32> loc("in_ptr3"(#loc)), %out_ptr0: !tt.ptr<bf16> {tt.divisibility = 16 : i32} loc("out_ptr0"(#loc)), %ynumel: i32 {tt.divisibility = 16 : i32} loc("ynumel"(#loc)), %xnumel: i32 {tt.divisibility = 16 : i32} loc("xnumel"(#loc))) attributes {noinline = false} {
    %tmp14 = arith.constant dense<1.000000e+00> : tensor<16x256xf32> loc(#loc114)
    %cst = arith.constant dense<0.000000e+00> : tensor<16x256xbf16> loc(#loc1)
    %cst_0 = arith.constant dense<192> : tensor<16x1xi32> loc(#loc3)
    %cst_1 = arith.constant dense<196608> : tensor<16x1xi32> loc(#loc1)
    %cst_2 = arith.constant dense<-96> : tensor<1x256xi32> loc(#loc1)
    %cst_3 = arith.constant dense<0.000000e+00> : tensor<16x256xf32> loc(#loc1)
    %cst_4 = arith.constant dense<98304> : tensor<16x1xi32> loc(#loc1)
    %cst_5 = arith.constant dense<1024> : tensor<1x256xi32> loc(#loc1)
    %cst_6 = arith.constant dense<96> : tensor<1x256xi64> loc(#loc1)
    %tmp23 = arith.constant dense<12288> : tensor<16x1xi32> loc(#loc67)
    %tmp23_7 = arith.constant dense<6144> : tensor<16x1xi32> loc(#loc68)
    %tmp23_8 = arith.constant dense<3> : tensor<16x1xi32> loc(#loc69)
    %cst_9 = arith.constant dense<1024> : tensor<16x1xi32> loc(#loc1)
    %xmask = arith.constant dense<192> : tensor<1x256xi32> loc(#loc70)
    %c256_i32 = arith.constant 256 : i32 loc(#loc1)
    %c16_i32 = arith.constant 16 : i32 loc(#loc1)
    %yoffset = tt.get_program_id y : i32 loc(#loc71)
    %yoffset_10 = arith.muli %yoffset, %c16_i32 : i32 loc(#loc72)
    %yindex = tt.make_range {end = 16 : i32, start = 0 : i32} : tensor<16xi32> loc(#loc73)
    %yindex_11 = tt.expand_dims %yindex {axis = 1 : i32} : tensor<16xi32> -> tensor<16x1xi32> loc(#loc74)
    %yindex_12 = tt.splat %yoffset_10 : i32 -> tensor<16x1xi32> loc(#loc75)
    %yindex_13 = arith.addi %yindex_12, %yindex_11 : tensor<16x1xi32> loc(#loc75)
    %xoffset = tt.get_program_id x : i32 loc(#loc76)
    %xoffset_14 = arith.muli %xoffset, %c256_i32 : i32 loc(#loc77)
    %xindex = tt.make_range {end = 256 : i32, start = 0 : i32} : tensor<256xi32> loc(#loc78)
    %xindex_15 = tt.expand_dims %xindex {axis = 0 : i32} : tensor<256xi32> -> tensor<1x256xi32> loc(#loc79)
    %xindex_16 = tt.splat %xoffset_14 : i32 -> tensor<1x256xi32> loc(#loc80)
    %xindex_17 = arith.addi %xindex_16, %xindex_15 : tensor<1x256xi32> loc(#loc80)
    %xmask_18 = arith.cmpi slt, %xindex_17, %xmask : tensor<1x256xi32> loc(#loc70)
    %y0 = arith.remsi %yindex_13, %cst_9 : tensor<16x1xi32> loc(#loc81)
    %y1 = arith.divsi %yindex_13, %cst_9 : tensor<16x1xi32> loc(#loc82)
    %tmp23_19 = arith.muli %y0, %tmp23_8 : tensor<16x1xi32> loc(#loc69)
    %tmp23_20 = arith.addi %tmp23_19, %tmp23_7 : tensor<16x1xi32> loc(#loc68)
    %tmp23_21 = arith.muli %y1, %tmp23 : tensor<16x1xi32> loc(#loc67)
    %tmp23_22 = arith.addi %tmp23_20, %tmp23_21 : tensor<16x1xi32> loc(#loc83)
    %tmp23_23 = tt.splat %in_ptr3 : !tt.ptr<f32> -> tensor<16x1x!tt.ptr<f32>> loc(#loc84)
    %tmp23_24 = tt.addptr %tmp23_23, %tmp23_22 : tensor<16x1x!tt.ptr<f32>>, tensor<16x1xi32> loc(#loc84)
    %tmp23_25 = tt.load %tmp23_24 evictionPolicy = evict_last : tensor<16x1x!tt.ptr<f32>> loc(#loc85)
    %tmp4 = arith.extsi %xindex_17 : tensor<1x256xi32> to tensor<1x256xi64> loc(#loc86)
    %tmp4_26 = arith.cmpi slt, %tmp4, %cst_6 : tensor<1x256xi64> loc(#loc86)
    %tmp5 = arith.muli %xindex_17, %cst_5 : tensor<1x256xi32> loc(#loc87)
    %tmp5_27 = tt.broadcast %y0 : tensor<16x1xi32> -> tensor<16x256xi32> loc(#loc88)
    %tmp5_28 = tt.broadcast %tmp5 : tensor<1x256xi32> -> tensor<16x256xi32> loc(#loc88)
    %tmp5_29 = arith.addi %tmp5_27, %tmp5_28 : tensor<16x256xi32> loc(#loc88)
    %tmp5_30 = arith.muli %y1, %cst_4 : tensor<16x1xi32> loc(#loc89)
    %tmp5_31 = tt.broadcast %tmp5_30 : tensor<16x1xi32> -> tensor<16x256xi32> loc(#loc90)
    %tmp5_32 = arith.addi %tmp5_29, %tmp5_31 : tensor<16x256xi32> loc(#loc90)
    %tmp5_33 = tt.splat %in_ptr0 : !tt.ptr<f32> -> tensor<16x256x!tt.ptr<f32>> loc(#loc91)
    %tmp5_34 = tt.addptr %tmp5_33, %tmp5_32 : tensor<16x256x!tt.ptr<f32>>, tensor<16x256xi32> loc(#loc91)
    %tmp5_35 = arith.andi %tmp4_26, %xmask_18 : tensor<1x256xi1> loc(#loc92)
    %tmp5_36 = tt.broadcast %tmp5_35 : tensor<1x256xi1> -> tensor<16x256xi1> loc(#loc93)
    %tmp5_37 = tt.load %tmp5_34, %tmp5_36, %cst_3 evictionPolicy = evict_last : tensor<16x256x!tt.ptr<f32>> loc(#loc93)
    %tmp8 = tt.broadcast %tmp4_26 : tensor<1x256xi1> -> tensor<16x256xi1> loc(#loc94)
    %tmp8_38 = arith.select %tmp8, %tmp5_37, %cst_3 : tensor<16x256xi1>, tensor<16x256xf32> loc(#loc94)
    %tmp9 = arith.cmpi sge, %tmp4, %cst_6 : tensor<1x256xi64> loc(#loc95)
    %tmp12 = arith.addi %y0, %cst_4 : tensor<16x1xi32> loc(#loc96)
    %tmp12_39 = arith.addi %xindex_17, %cst_2 : tensor<1x256xi32> loc(#loc97)
    %tmp12_40 = arith.muli %tmp12_39, %cst_5 : tensor<1x256xi32> loc(#loc98)
    %tmp12_41 = tt.broadcast %tmp12 : tensor<16x1xi32> -> tensor<16x256xi32> loc(#loc99)
    %tmp12_42 = tt.broadcast %tmp12_40 : tensor<1x256xi32> -> tensor<16x256xi32> loc(#loc99)
    %tmp12_43 = arith.addi %tmp12_41, %tmp12_42 : tensor<16x256xi32> loc(#loc99)
    %tmp12_44 = arith.muli %y1, %cst_1 : tensor<16x1xi32> loc(#loc100)
    %tmp12_45 = tt.broadcast %tmp12_44 : tensor<16x1xi32> -> tensor<16x256xi32> loc(#loc101)
    %tmp12_46 = arith.addi %tmp12_43, %tmp12_45 : tensor<16x256xi32> loc(#loc101)
    %tmp12_47 = tt.splat %in_ptr1 : !tt.ptr<bf16> -> tensor<16x256x!tt.ptr<bf16>> loc(#loc102)
    %tmp12_48 = tt.addptr %tmp12_47, %tmp12_46 : tensor<16x256x!tt.ptr<bf16>>, tensor<16x256xi32> loc(#loc102)
    %tmp12_49 = arith.andi %tmp9, %xmask_18 : tensor<1x256xi1> loc(#loc103)
    %tmp12_50 = tt.broadcast %tmp12_49 : tensor<1x256xi1> -> tensor<16x256xi1> loc(#loc104)
    %tmp12_51 = tt.load %tmp12_48, %tmp12_50, %cst evictionPolicy = evict_last : tensor<16x256x!tt.ptr<bf16>> loc(#loc104)
    %tmp12_52 = arith.extf %tmp12_51 : tensor<16x256xbf16> to tensor<16x256xf32> loc(#loc105)
    %tmp14_53 = arith.subf %cst_3, %tmp12_52 : tensor<16x256xf32> loc(#loc115)
    %tmp14_54 = math.exp %tmp14_53 : tensor<16x256xf32> loc(#loc116)
    %tmp14_55 = arith.addf %tmp14_54, %tmp14 : tensor<16x256xf32> loc(#loc117)
    %tmp14_56 = arith.divf %tmp14, %tmp14_55 : tensor<16x256xf32> loc(#loc118)
    %tmp15 = arith.mulf %tmp12_52, %tmp14_56 : tensor<16x256xf32> loc(#loc106)
    %tmp17 = tt.splat %in_ptr2 : !tt.ptr<bf16> -> tensor<16x256x!tt.ptr<bf16>> loc(#loc107)
    %tmp17_57 = tt.addptr %tmp17, %tmp12_46 : tensor<16x256x!tt.ptr<bf16>>, tensor<16x256xi32> loc(#loc107)
    %tmp17_58 = tt.load %tmp17_57, %tmp12_50, %cst evictionPolicy = evict_last : tensor<16x256x!tt.ptr<bf16>> loc(#loc108)
    %tmp17_59 = arith.extf %tmp17_58 : tensor<16x256xbf16> to tensor<16x256xf32> loc(#loc109)
    %tmp18 = arith.mulf %tmp15, %tmp17_59 : tensor<16x256xf32> loc(#loc110)
    %tmp20 = tt.broadcast %tmp9 : tensor<1x256xi1> -> tensor<16x256xi1> loc(#loc111)
    %tmp20_60 = arith.select %tmp20, %tmp18, %cst_3 : tensor<16x256xi1>, tensor<16x256xf32> loc(#loc111)
    %tmp21 = arith.select %tmp8, %tmp8_38, %tmp20_60 : tensor<16x256xi1>, tensor<16x256xf32> loc(#loc112)
    %tmp24 = tt.broadcast %tmp23_25 : tensor<16x1xf32> -> tensor<16x256xf32> loc(#loc113)
    %tmp24_61 = arith.mulf %tmp21, %tmp24 : tensor<16x256xf32> loc(#loc113)
    %0 = arith.muli %yindex_13, %cst_0 : tensor<16x1xi32> loc(#loc3)
    %1 = tt.broadcast %xindex_17 : tensor<1x256xi32> -> tensor<16x256xi32> loc(#loc55)
    %2 = tt.broadcast %0 : tensor<16x1xi32> -> tensor<16x256xi32> loc(#loc55)
    %3 = arith.addi %1, %2 : tensor<16x256xi32> loc(#loc55)
    %4 = tt.splat %out_ptr0 : !tt.ptr<bf16> -> tensor<16x256x!tt.ptr<bf16>> loc(#loc56)
    %5 = tt.addptr %4, %3 : tensor<16x256x!tt.ptr<bf16>>, tensor<16x256xi32> loc(#loc56)
    %6 = tt.broadcast %xmask_18 : tensor<1x256xi1> -> tensor<16x256xi1> loc(#loc57)
    %7 = arith.truncf %tmp24_61 : tensor<16x256xf32> to tensor<16x256xbf16> loc(#loc57)
    tt.store %5, %7, %6 : tensor<16x256x!tt.ptr<bf16>> loc(#loc57)
    tt.return loc(#loc58)
  } loc(#loc)
} loc(#loc)
#loc1 = loc(unknown)
#loc2 = loc("/NHNHOME/WORKSPACE/26msit001_A/jinhyeok/TTT_camera_embedding/lact_llm/.cache_inductor/h4/ch4mu2vp76xtfrftmsqvpm2gd3zyrnjnorsjzkxi3b75niqku5fr.py":46:23)
#loc3 = loc("/NHNHOME/WORKSPACE/26msit001_A/jinhyeok/TTT_camera_embedding/lact_llm/.cache_inductor/h4/ch4mu2vp76xtfrftmsqvpm2gd3zyrnjnorsjzkxi3b75niqku5fr.py":57:34)
#loc4 = loc("/NHNHOME/WORKSPACE/26msit001_A/jinhyeok/TTT_camera_embedding/lact_llm/.cache_inductor/h4/ch4mu2vp76xtfrftmsqvpm2gd3zyrnjnorsjzkxi3b75niqku5fr.py":31:51)
#loc5 = loc("/NHNHOME/WORKSPACE/26msit001_A/jinhyeok/TTT_camera_embedding/lact_llm/.cache_inductor/h4/ch4mu2vp76xtfrftmsqvpm2gd3zyrnjnorsjzkxi3b75niqku5fr.py":31:38)
#loc6 = loc("/NHNHOME/WORKSPACE/26msit001_A/jinhyeok/TTT_camera_embedding/lact_llm/.cache_inductor/h4/ch4mu2vp76xtfrftmsqvpm2gd3zyrnjnorsjzkxi3b75niqku5fr.py":31:40)
#loc7 = loc("/NHNHOME/WORKSPACE/26msit001_A/jinhyeok/TTT_camera_embedding/lact_llm/.cache_inductor/h4/ch4mu2vp76xtfrftmsqvpm2gd3zyrnjnorsjzkxi3b75niqku5fr.py":26:21)
#loc8 = loc("/NHNHOME/WORKSPACE/26msit001_A/jinhyeok/TTT_camera_embedding/lact_llm/.cache_inductor/h4/ch4mu2vp76xtfrftmsqvpm2gd3zyrnjnorsjzkxi3b75niqku5fr.py":21:28)
#loc9 = loc("/NHNHOME/WORKSPACE/26msit001_A/jinhyeok/TTT_camera_embedding/lact_llm/.cache_inductor/h4/ch4mu2vp76xtfrftmsqvpm2gd3zyrnjnorsjzkxi3b75niqku5fr.py":21:33)
#loc10 = loc("/NHNHOME/WORKSPACE/26msit001_A/jinhyeok/TTT_camera_embedding/lact_llm/.cache_inductor/h4/ch4mu2vp76xtfrftmsqvpm2gd3zyrnjnorsjzkxi3b75niqku5fr.py":22:36)
#loc11 = loc("/NHNHOME/WORKSPACE/26msit001_A/jinhyeok/TTT_camera_embedding/lact_llm/.cache_inductor/h4/ch4mu2vp76xtfrftmsqvpm2gd3zyrnjnorsjzkxi3b75niqku5fr.py":22:44)
#loc12 = loc("/NHNHOME/WORKSPACE/26msit001_A/jinhyeok/TTT_camera_embedding/lact_llm/.cache_inductor/h4/ch4mu2vp76xtfrftmsqvpm2gd3zyrnjnorsjzkxi3b75niqku5fr.py":22:23)
#loc13 = loc("/NHNHOME/WORKSPACE/26msit001_A/jinhyeok/TTT_camera_embedding/lact_llm/.cache_inductor/h4/ch4mu2vp76xtfrftmsqvpm2gd3zyrnjnorsjzkxi3b75niqku5fr.py":24:28)
#loc14 = loc("/NHNHOME/WORKSPACE/26msit001_A/jinhyeok/TTT_camera_embedding/lact_llm/.cache_inductor/h4/ch4mu2vp76xtfrftmsqvpm2gd3zyrnjnorsjzkxi3b75niqku5fr.py":24:33)
#loc15 = loc("/NHNHOME/WORKSPACE/26msit001_A/jinhyeok/TTT_camera_embedding/lact_llm/.cache_inductor/h4/ch4mu2vp76xtfrftmsqvpm2gd3zyrnjnorsjzkxi3b75niqku5fr.py":25:36)
#loc16 = loc("/NHNHOME/WORKSPACE/26msit001_A/jinhyeok/TTT_camera_embedding/lact_llm/.cache_inductor/h4/ch4mu2vp76xtfrftmsqvpm2gd3zyrnjnorsjzkxi3b75niqku5fr.py":25:44)
#loc17 = loc("/NHNHOME/WORKSPACE/26msit001_A/jinhyeok/TTT_camera_embedding/lact_llm/.cache_inductor/h4/ch4mu2vp76xtfrftmsqvpm2gd3zyrnjnorsjzkxi3b75niqku5fr.py":25:23)
#loc18 = loc("/NHNHOME/WORKSPACE/26msit001_A/jinhyeok/TTT_camera_embedding/lact_llm/.cache_inductor/h4/ch4mu2vp76xtfrftmsqvpm2gd3zyrnjnorsjzkxi3b75niqku5fr.py":28:19)
#loc19 = loc("/NHNHOME/WORKSPACE/26msit001_A/jinhyeok/TTT_camera_embedding/lact_llm/.cache_inductor/h4/ch4mu2vp76xtfrftmsqvpm2gd3zyrnjnorsjzkxi3b75niqku5fr.py":29:19)
#loc20 = loc("/NHNHOME/WORKSPACE/26msit001_A/jinhyeok/TTT_camera_embedding/lact_llm/.cache_inductor/h4/ch4mu2vp76xtfrftmsqvpm2gd3zyrnjnorsjzkxi3b75niqku5fr.py":31:45)
#loc21 = loc("/NHNHOME/WORKSPACE/26msit001_A/jinhyeok/TTT_camera_embedding/lact_llm/.cache_inductor/h4/ch4mu2vp76xtfrftmsqvpm2gd3zyrnjnorsjzkxi3b75niqku5fr.py":31:31)
#loc22 = loc("/NHNHOME/WORKSPACE/26msit001_A/jinhyeok/TTT_camera_embedding/lact_llm/.cache_inductor/h4/ch4mu2vp76xtfrftmsqvpm2gd3zyrnjnorsjzkxi3b75niqku5fr.py":31:56)
#loc23 = loc("/NHNHOME/WORKSPACE/26msit001_A/jinhyeok/TTT_camera_embedding/lact_llm/.cache_inductor/h4/ch4mu2vp76xtfrftmsqvpm2gd3zyrnjnorsjzkxi3b75niqku5fr.py":36:18)
#loc24 = loc("/NHNHOME/WORKSPACE/26msit001_A/jinhyeok/TTT_camera_embedding/lact_llm/.cache_inductor/h4/ch4mu2vp76xtfrftmsqvpm2gd3zyrnjnorsjzkxi3b75niqku5fr.py":37:41)
#loc25 = loc("/NHNHOME/WORKSPACE/26msit001_A/jinhyeok/TTT_camera_embedding/lact_llm/.cache_inductor/h4/ch4mu2vp76xtfrftmsqvpm2gd3zyrnjnorsjzkxi3b75niqku5fr.py":37:35)
#loc26 = loc("/NHNHOME/WORKSPACE/26msit001_A/jinhyeok/TTT_camera_embedding/lact_llm/.cache_inductor/h4/ch4mu2vp76xtfrftmsqvpm2gd3zyrnjnorsjzkxi3b75niqku5fr.py":37:53)
#loc27 = loc("/NHNHOME/WORKSPACE/26msit001_A/jinhyeok/TTT_camera_embedding/lact_llm/.cache_inductor/h4/ch4mu2vp76xtfrftmsqvpm2gd3zyrnjnorsjzkxi3b75niqku5fr.py":37:47)
#loc28 = loc("/NHNHOME/WORKSPACE/26msit001_A/jinhyeok/TTT_camera_embedding/lact_llm/.cache_inductor/h4/ch4mu2vp76xtfrftmsqvpm2gd3zyrnjnorsjzkxi3b75niqku5fr.py":37:30)
#loc29 = loc("/NHNHOME/WORKSPACE/26msit001_A/jinhyeok/TTT_camera_embedding/lact_llm/.cache_inductor/h4/ch4mu2vp76xtfrftmsqvpm2gd3zyrnjnorsjzkxi3b75niqku5fr.py":37:65)
#loc30 = loc("/NHNHOME/WORKSPACE/26msit001_A/jinhyeok/TTT_camera_embedding/lact_llm/.cache_inductor/h4/ch4mu2vp76xtfrftmsqvpm2gd3zyrnjnorsjzkxi3b75niqku5fr.py":37:58)
#loc31 = loc("/NHNHOME/WORKSPACE/26msit001_A/jinhyeok/TTT_camera_embedding/lact_llm/.cache_inductor/h4/ch4mu2vp76xtfrftmsqvpm2gd3zyrnjnorsjzkxi3b75niqku5fr.py":40:32)
#loc32 = loc("/NHNHOME/WORKSPACE/26msit001_A/jinhyeok/TTT_camera_embedding/lact_llm/.cache_inductor/h4/ch4mu2vp76xtfrftmsqvpm2gd3zyrnjnorsjzkxi3b75niqku5fr.py":41:19)
#loc33 = loc("/NHNHOME/WORKSPACE/26msit001_A/jinhyeok/TTT_camera_embedding/lact_llm/.cache_inductor/h4/ch4mu2vp76xtfrftmsqvpm2gd3zyrnjnorsjzkxi3b75niqku5fr.py":44:39)
#loc34 = loc("/NHNHOME/WORKSPACE/26msit001_A/jinhyeok/TTT_camera_embedding/lact_llm/.cache_inductor/h4/ch4mu2vp76xtfrftmsqvpm2gd3zyrnjnorsjzkxi3b75niqku5fr.py":44:58)
#loc35 = loc("/NHNHOME/WORKSPACE/26msit001_A/jinhyeok/TTT_camera_embedding/lact_llm/.cache_inductor/h4/ch4mu2vp76xtfrftmsqvpm2gd3zyrnjnorsjzkxi3b75niqku5fr.py":44:50)
#loc36 = loc("/NHNHOME/WORKSPACE/26msit001_A/jinhyeok/TTT_camera_embedding/lact_llm/.cache_inductor/h4/ch4mu2vp76xtfrftmsqvpm2gd3zyrnjnorsjzkxi3b75niqku5fr.py":44:44)
#loc37 = loc("/NHNHOME/WORKSPACE/26msit001_A/jinhyeok/TTT_camera_embedding/lact_llm/.cache_inductor/h4/ch4mu2vp76xtfrftmsqvpm2gd3zyrnjnorsjzkxi3b75niqku5fr.py":44:71)
#loc38 = loc("/NHNHOME/WORKSPACE/26msit001_A/jinhyeok/TTT_camera_embedding/lact_llm/.cache_inductor/h4/ch4mu2vp76xtfrftmsqvpm2gd3zyrnjnorsjzkxi3b75niqku5fr.py":44:64)
#loc39 = loc("/NHNHOME/WORKSPACE/26msit001_A/jinhyeok/TTT_camera_embedding/lact_llm/.cache_inductor/h4/ch4mu2vp76xtfrftmsqvpm2gd3zyrnjnorsjzkxi3b75niqku5fr.py":44:31)
#loc40 = loc("/NHNHOME/WORKSPACE/26msit001_A/jinhyeok/TTT_camera_embedding/lact_llm/.cache_inductor/h4/ch4mu2vp76xtfrftmsqvpm2gd3zyrnjnorsjzkxi3b75niqku5fr.py":44:83)
#loc41 = loc("/NHNHOME/WORKSPACE/26msit001_A/jinhyeok/TTT_camera_embedding/lact_llm/.cache_inductor/h4/ch4mu2vp76xtfrftmsqvpm2gd3zyrnjnorsjzkxi3b75niqku5fr.py":44:76)
#loc42 = loc("/NHNHOME/WORKSPACE/26msit001_A/jinhyeok/TTT_camera_embedding/lact_llm/.cache_inductor/h4/ch4mu2vp76xtfrftmsqvpm2gd3zyrnjnorsjzkxi3b75niqku5fr.py":44:134)
#loc43 = loc("/NHNHOME/WORKSPACE/26msit001_A/jinhyeok/TTT_camera_embedding/.venv_llm/lib/python3.12/site-packages/triton/language/standard.py":48:30)
#loc44 = loc("/NHNHOME/WORKSPACE/26msit001_A/jinhyeok/TTT_camera_embedding/.venv_llm/lib/python3.12/site-packages/triton/language/standard.py":48:29)
#loc45 = loc("/NHNHOME/WORKSPACE/26msit001_A/jinhyeok/TTT_camera_embedding/.venv_llm/lib/python3.12/site-packages/triton/language/standard.py":48:20)
#loc46 = loc("/NHNHOME/WORKSPACE/26msit001_A/jinhyeok/TTT_camera_embedding/.venv_llm/lib/python3.12/site-packages/triton/language/standard.py":48:16)
#loc47 = loc("/NHNHOME/WORKSPACE/26msit001_A/jinhyeok/TTT_camera_embedding/lact_llm/.cache_inductor/h4/ch4mu2vp76xtfrftmsqvpm2gd3zyrnjnorsjzkxi3b75niqku5fr.py":47:20)
#loc48 = loc("/NHNHOME/WORKSPACE/26msit001_A/jinhyeok/TTT_camera_embedding/lact_llm/.cache_inductor/h4/ch4mu2vp76xtfrftmsqvpm2gd3zyrnjnorsjzkxi3b75niqku5fr.py":49:31)
#loc49 = loc("/NHNHOME/WORKSPACE/26msit001_A/jinhyeok/TTT_camera_embedding/lact_llm/.cache_inductor/h4/ch4mu2vp76xtfrftmsqvpm2gd3zyrnjnorsjzkxi3b75niqku5fr.py":49:76)
#loc50 = loc("/NHNHOME/WORKSPACE/26msit001_A/jinhyeok/TTT_camera_embedding/lact_llm/.cache_inductor/h4/ch4mu2vp76xtfrftmsqvpm2gd3zyrnjnorsjzkxi3b75niqku5fr.py":49:134)
#loc51 = loc("/NHNHOME/WORKSPACE/26msit001_A/jinhyeok/TTT_camera_embedding/lact_llm/.cache_inductor/h4/ch4mu2vp76xtfrftmsqvpm2gd3zyrnjnorsjzkxi3b75niqku5fr.py":50:20)
#loc52 = loc("/NHNHOME/WORKSPACE/26msit001_A/jinhyeok/TTT_camera_embedding/lact_llm/.cache_inductor/h4/ch4mu2vp76xtfrftmsqvpm2gd3zyrnjnorsjzkxi3b75niqku5fr.py":52:34)
#loc53 = loc("/NHNHOME/WORKSPACE/26msit001_A/jinhyeok/TTT_camera_embedding/lact_llm/.cache_inductor/h4/ch4mu2vp76xtfrftmsqvpm2gd3zyrnjnorsjzkxi3b75niqku5fr.py":53:33)
#loc54 = loc("/NHNHOME/WORKSPACE/26msit001_A/jinhyeok/TTT_camera_embedding/lact_llm/.cache_inductor/h4/ch4mu2vp76xtfrftmsqvpm2gd3zyrnjnorsjzkxi3b75niqku5fr.py":55:20)
#loc55 = loc("/NHNHOME/WORKSPACE/26msit001_A/jinhyeok/TTT_camera_embedding/lact_llm/.cache_inductor/h4/ch4mu2vp76xtfrftmsqvpm2gd3zyrnjnorsjzkxi3b75niqku5fr.py":57:30)
#loc56 = loc("/NHNHOME/WORKSPACE/26msit001_A/jinhyeok/TTT_camera_embedding/lact_llm/.cache_inductor/h4/ch4mu2vp76xtfrftmsqvpm2gd3zyrnjnorsjzkxi3b75niqku5fr.py":57:25)
#loc57 = loc("/NHNHOME/WORKSPACE/26msit001_A/jinhyeok/TTT_camera_embedding/lact_llm/.cache_inductor/h4/ch4mu2vp76xtfrftmsqvpm2gd3zyrnjnorsjzkxi3b75niqku5fr.py":57:46)
#loc58 = loc("/NHNHOME/WORKSPACE/26msit001_A/jinhyeok/TTT_camera_embedding/lact_llm/.cache_inductor/h4/ch4mu2vp76xtfrftmsqvpm2gd3zyrnjnorsjzkxi3b75niqku5fr.py":57:4)
#loc66 = loc("tmp14"(#loc2))
#loc67 = loc("tmp23"(#loc4))
#loc68 = loc("tmp23"(#loc5))
#loc69 = loc("tmp23"(#loc6))
#loc70 = loc("xmask"(#loc7))
#loc71 = loc("yoffset"(#loc8))
#loc72 = loc("yoffset"(#loc9))
#loc73 = loc("yindex"(#loc10))
#loc74 = loc("yindex"(#loc11))
#loc75 = loc("yindex"(#loc12))
#loc76 = loc("xoffset"(#loc13))
#loc77 = loc("xoffset"(#loc14))
#loc78 = loc("xindex"(#loc15))
#loc79 = loc("xindex"(#loc16))
#loc80 = loc("xindex"(#loc17))
#loc81 = loc("y0"(#loc18))
#loc82 = loc("y1"(#loc19))
#loc83 = loc("tmp23"(#loc20))
#loc84 = loc("tmp23"(#loc21))
#loc85 = loc("tmp23"(#loc22))
#loc86 = loc("tmp4"(#loc23))
#loc87 = loc("tmp5"(#loc24))
#loc88 = loc("tmp5"(#loc25))
#loc89 = loc("tmp5"(#loc26))
#loc90 = loc("tmp5"(#loc27))
#loc91 = loc("tmp5"(#loc28))
#loc92 = loc("tmp5"(#loc29))
#loc93 = loc("tmp5"(#loc30))
#loc94 = loc("tmp8"(#loc31))
#loc95 = loc("tmp9"(#loc32))
#loc96 = loc("tmp12"(#loc33))
#loc97 = loc("tmp12"(#loc34))
#loc98 = loc("tmp12"(#loc35))
#loc99 = loc("tmp12"(#loc36))
#loc100 = loc("tmp12"(#loc37))
#loc101 = loc("tmp12"(#loc38))
#loc102 = loc("tmp12"(#loc39))
#loc103 = loc("tmp12"(#loc40))
#loc104 = loc("tmp12"(#loc41))
#loc105 = loc("tmp12"(#loc42))
#loc106 = loc("tmp15"(#loc47))
#loc107 = loc("tmp17"(#loc48))
#loc108 = loc("tmp17"(#loc49))
#loc109 = loc("tmp17"(#loc50))
#loc110 = loc("tmp18"(#loc51))
#loc111 = loc("tmp20"(#loc52))
#loc112 = loc("tmp21"(#loc53))
#loc113 = loc("tmp24"(#loc54))
#loc114 = loc(callsite(#loc1 at #loc66))
#loc115 = loc(callsite(#loc43 at #loc66))
#loc116 = loc(callsite(#loc44 at #loc66))
#loc117 = loc(callsite(#loc45 at #loc66))
#loc118 = loc(callsite(#loc46 at #loc66))
