#loc = loc("/NHNHOME/WORKSPACE/26msit001_A/jinhyeok/TTT_camera_embedding/.venv_llm/lib/python3.12/site-packages/fla/modules/rotary.py":48:0)
#loc77 = loc("x"(#loc))
#loc78 = loc("cos"(#loc))
#loc79 = loc("sin"(#loc))
#loc80 = loc("y"(#loc))
#loc81 = loc("seq_offsets"(#loc))
#loc82 = loc("T"(#loc))
module {
  tt.func public @rotary_embedding_kernel(%x: !tt.ptr<bf16> {tt.divisibility = 16 : i32} loc("x"(#loc)), %cos: !tt.ptr<bf16> {tt.divisibility = 16 : i32} loc("cos"(#loc)), %sin: !tt.ptr<bf16> {tt.divisibility = 16 : i32} loc("sin"(#loc)), %y: !tt.ptr<bf16> {tt.divisibility = 16 : i32} loc("y"(#loc)), %seq_offsets: i32 {tt.divisibility = 16 : i32} loc("seq_offsets"(#loc)), %T: i32 loc("T"(#loc))) attributes {noinline = false} {
    %0 = tt.get_program_id x : i32 loc(#loc1)
    %1 = tt.get_program_id y : i32 loc(#loc2)
    %2 = tt.get_program_id z : i32 loc(#loc3)
    %x_0 = arith.extsi %1 : i32 to i64 loc(#loc83)
    %x_1 = arith.extsi %T : i32 to i64 loc(#loc83)
    %x_2 = arith.muli %x_0, %x_1 : i64 loc(#loc83)
    %x_3 = arith.constant 2147483647 : i64 loc(#loc83)
    %x_4 = arith.constant -2147483648 : i64 loc(#loc83)
    %x_5 = arith.cmpi sle, %x_2, %x_3 : i64 loc(#loc83)
    %x_6 = arith.cmpi sge, %x_2, %x_4 : i64 loc(#loc83)
    %x_7 = arith.andi %x_5, %x_6 : i1 loc(#loc83)
    %x_8 = arith.muli %1, %T : i32 loc(#loc83)
    %x_9 = arith.constant 12 : i32 loc(#loc84)
    %x_10 = arith.constant 12 : i32 loc(#loc84)
    %x_11 = arith.extsi %x_8 : i32 to i64 loc(#loc84)
    %x_12 = arith.extsi %x_10 : i32 to i64 loc(#loc84)
    %x_13 = arith.muli %x_11, %x_12 : i64 loc(#loc84)
    %x_14 = arith.constant 2147483647 : i64 loc(#loc84)
    %x_15 = arith.constant -2147483648 : i64 loc(#loc84)
    %x_16 = arith.cmpi sle, %x_13, %x_14 : i64 loc(#loc84)
    %x_17 = arith.cmpi sge, %x_13, %x_15 : i64 loc(#loc84)
    %x_18 = arith.andi %x_16, %x_17 : i1 loc(#loc84)
    %x_19 = arith.muli %x_8, %x_10 : i32 loc(#loc84)
    %x_20 = arith.constant 64 : i32 loc(#loc85)
    %x_21 = arith.constant 64 : i32 loc(#loc85)
    %x_22 = arith.extsi %x_19 : i32 to i64 loc(#loc85)
    %x_23 = arith.extsi %x_21 : i32 to i64 loc(#loc85)
    %x_24 = arith.muli %x_22, %x_23 : i64 loc(#loc85)
    %x_25 = arith.constant 2147483647 : i64 loc(#loc85)
    %x_26 = arith.constant -2147483648 : i64 loc(#loc85)
    %x_27 = arith.cmpi sle, %x_24, %x_25 : i64 loc(#loc85)
    %x_28 = arith.cmpi sge, %x_24, %x_26 : i64 loc(#loc85)
    %x_29 = arith.andi %x_27, %x_28 : i1 loc(#loc85)
    %x_30 = arith.muli %x_19, %x_21 : i32 loc(#loc85)
    %x_31 = tt.addptr %x, %x_30 : !tt.ptr<bf16>, i32 loc(#loc86)
    %x_32 = arith.constant 64 : i32 loc(#loc87)
    %x_33 = arith.constant 64 : i32 loc(#loc87)
    %x_34 = arith.extsi %2 : i32 to i64 loc(#loc87)
    %x_35 = arith.extsi %x_33 : i32 to i64 loc(#loc87)
    %x_36 = arith.muli %x_34, %x_35 : i64 loc(#loc87)
    %x_37 = arith.constant 2147483647 : i64 loc(#loc87)
    %x_38 = arith.constant -2147483648 : i64 loc(#loc87)
    %x_39 = arith.cmpi sle, %x_36, %x_37 : i64 loc(#loc87)
    %x_40 = arith.cmpi sge, %x_36, %x_38 : i64 loc(#loc87)
    %x_41 = arith.andi %x_39, %x_40 : i1 loc(#loc87)
    %x_42 = arith.muli %2, %x_33 : i32 loc(#loc87)
    %x_43 = tt.addptr %x_31, %x_42 : !tt.ptr<bf16>, i32 loc(#loc88)
    %y_44 = arith.extsi %1 : i32 to i64 loc(#loc89)
    %y_45 = arith.extsi %T : i32 to i64 loc(#loc89)
    %y_46 = arith.muli %y_44, %y_45 : i64 loc(#loc89)
    %y_47 = arith.constant 2147483647 : i64 loc(#loc89)
    %y_48 = arith.constant -2147483648 : i64 loc(#loc89)
    %y_49 = arith.cmpi sle, %y_46, %y_47 : i64 loc(#loc89)
    %y_50 = arith.cmpi sge, %y_46, %y_48 : i64 loc(#loc89)
    %y_51 = arith.andi %y_49, %y_50 : i1 loc(#loc89)
    %y_52 = arith.muli %1, %T : i32 loc(#loc89)
    %y_53 = arith.constant 12 : i32 loc(#loc90)
    %y_54 = arith.constant 12 : i32 loc(#loc90)
    %y_55 = arith.extsi %y_52 : i32 to i64 loc(#loc90)
    %y_56 = arith.extsi %y_54 : i32 to i64 loc(#loc90)
    %y_57 = arith.muli %y_55, %y_56 : i64 loc(#loc90)
    %y_58 = arith.constant 2147483647 : i64 loc(#loc90)
    %y_59 = arith.constant -2147483648 : i64 loc(#loc90)
    %y_60 = arith.cmpi sle, %y_57, %y_58 : i64 loc(#loc90)
    %y_61 = arith.cmpi sge, %y_57, %y_59 : i64 loc(#loc90)
    %y_62 = arith.andi %y_60, %y_61 : i1 loc(#loc90)
    %y_63 = arith.muli %y_52, %y_54 : i32 loc(#loc90)
    %y_64 = arith.constant 64 : i32 loc(#loc91)
    %y_65 = arith.constant 64 : i32 loc(#loc91)
    %y_66 = arith.extsi %y_63 : i32 to i64 loc(#loc91)
    %y_67 = arith.extsi %y_65 : i32 to i64 loc(#loc91)
    %y_68 = arith.muli %y_66, %y_67 : i64 loc(#loc91)
    %y_69 = arith.constant 2147483647 : i64 loc(#loc91)
    %y_70 = arith.constant -2147483648 : i64 loc(#loc91)
    %y_71 = arith.cmpi sle, %y_68, %y_69 : i64 loc(#loc91)
    %y_72 = arith.cmpi sge, %y_68, %y_70 : i64 loc(#loc91)
    %y_73 = arith.andi %y_71, %y_72 : i1 loc(#loc91)
    %y_74 = arith.muli %y_63, %y_65 : i32 loc(#loc91)
    %y_75 = tt.addptr %y, %y_74 : !tt.ptr<bf16>, i32 loc(#loc92)
    %y_76 = arith.constant 64 : i32 loc(#loc93)
    %y_77 = arith.constant 64 : i32 loc(#loc93)
    %y_78 = arith.extsi %2 : i32 to i64 loc(#loc93)
    %y_79 = arith.extsi %y_77 : i32 to i64 loc(#loc93)
    %y_80 = arith.muli %y_78, %y_79 : i64 loc(#loc93)
    %y_81 = arith.constant 2147483647 : i64 loc(#loc93)
    %y_82 = arith.constant -2147483648 : i64 loc(#loc93)
    %y_83 = arith.cmpi sle, %y_80, %y_81 : i64 loc(#loc93)
    %y_84 = arith.cmpi sge, %y_80, %y_82 : i64 loc(#loc93)
    %y_85 = arith.andi %y_83, %y_84 : i1 loc(#loc93)
    %y_86 = arith.muli %2, %y_77 : i32 loc(#loc93)
    %y_87 = tt.addptr %y_75, %y_86 : !tt.ptr<bf16>, i32 loc(#loc94)
    %c32_i32 = arith.constant 32 : i32 loc(#loc16)
    %c32_i32_88 = arith.constant 32 : i32 loc(#loc16)
    %3 = arith.extsi %0 : i32 to i64 loc(#loc16)
    %4 = arith.extsi %c32_i32_88 : i32 to i64 loc(#loc16)
    %5 = arith.muli %3, %4 : i64 loc(#loc16)
    %c2147483647_i64 = arith.constant 2147483647 : i64 loc(#loc16)
    %c-2147483648_i64 = arith.constant -2147483648 : i64 loc(#loc16)
    %6 = arith.cmpi sle, %5, %c2147483647_i64 : i64 loc(#loc16)
    %7 = arith.cmpi sge, %5, %c-2147483648_i64 : i64 loc(#loc16)
    %8 = arith.andi %6, %7 : i1 loc(#loc16)
    %9 = arith.muli %0, %c32_i32_88 : i32 loc(#loc16)
    %10 = arith.cmpi sge, %9, %T : i32 loc(#loc17)
    cf.cond_br %10, ^bb1, ^bb2 loc(#loc17)
  ^bb1:  // pred: ^bb0
    tt.return loc(#loc18)
  ^bb2:  // pred: ^bb0
    cf.br ^bb4 loc(#loc19)
  ^bb3:  // no predecessors
    cf.br ^bb4 loc(#loc19)
  ^bb4:  // 2 preds: ^bb2, ^bb3
    %o_t = arith.constant 32 : i32 loc(#loc95)
    %o_t_89 = arith.constant 32 : i32 loc(#loc95)
    %o_t_90 = arith.extsi %0 : i32 to i64 loc(#loc95)
    %o_t_91 = arith.extsi %o_t_89 : i32 to i64 loc(#loc95)
    %o_t_92 = arith.muli %o_t_90, %o_t_91 : i64 loc(#loc95)
    %o_t_93 = arith.constant 2147483647 : i64 loc(#loc95)
    %o_t_94 = arith.constant -2147483648 : i64 loc(#loc95)
    %o_t_95 = arith.cmpi sle, %o_t_92, %o_t_93 : i64 loc(#loc95)
    %o_t_96 = arith.cmpi sge, %o_t_92, %o_t_94 : i64 loc(#loc95)
    %o_t_97 = arith.andi %o_t_95, %o_t_96 : i1 loc(#loc95)
    %o_t_98 = arith.muli %0, %o_t_89 : i32 loc(#loc95)
    %o_t_99 = tt.make_range {end = 32 : i32, start = 0 : i32} : tensor<32xi32> loc(#loc96)
    %o_t_100 = tt.splat %o_t_98 : i32 -> tensor<32xi32> loc(#loc97)
    %o_t_101 = arith.extsi %o_t_100 : tensor<32xi32> to tensor<32xi64> loc(#loc97)
    %o_t_102 = arith.extsi %o_t_99 : tensor<32xi32> to tensor<32xi64> loc(#loc97)
    %o_t_103 = arith.addi %o_t_101, %o_t_102 : tensor<32xi64> loc(#loc97)
    %o_t_104 = arith.constant 2147483647 : i64 loc(#loc97)
    %o_t_105 = arith.constant -2147483648 : i64 loc(#loc97)
    %o_t_106 = arith.constant dense<2147483647> : tensor<32xi64> loc(#loc97)
    %o_t_107 = arith.cmpi sle, %o_t_103, %o_t_106 : tensor<32xi64> loc(#loc97)
    %o_t_108 = arith.constant dense<-2147483648> : tensor<32xi64> loc(#loc97)
    %o_t_109 = arith.cmpi sge, %o_t_103, %o_t_108 : tensor<32xi64> loc(#loc97)
    %o_t_110 = arith.andi %o_t_107, %o_t_109 : tensor<32xi1> loc(#loc97)
    %o_t_111 = arith.addi %o_t_100, %o_t_99 : tensor<32xi32> loc(#loc97)
    %o_cs = tt.splat %seq_offsets : i32 -> tensor<32xi32> loc(#loc98)
    %o_cs_112 = arith.extsi %o_t_111 : tensor<32xi32> to tensor<32xi64> loc(#loc98)
    %o_cs_113 = arith.extsi %o_cs : tensor<32xi32> to tensor<32xi64> loc(#loc98)
    %o_cs_114 = arith.addi %o_cs_112, %o_cs_113 : tensor<32xi64> loc(#loc98)
    %o_cs_115 = arith.constant 2147483647 : i64 loc(#loc98)
    %o_cs_116 = arith.constant -2147483648 : i64 loc(#loc98)
    %o_cs_117 = arith.constant dense<2147483647> : tensor<32xi64> loc(#loc98)
    %o_cs_118 = arith.cmpi sle, %o_cs_114, %o_cs_117 : tensor<32xi64> loc(#loc98)
    %o_cs_119 = arith.constant dense<-2147483648> : tensor<32xi64> loc(#loc98)
    %o_cs_120 = arith.cmpi sge, %o_cs_114, %o_cs_119 : tensor<32xi64> loc(#loc98)
    %o_cs_121 = arith.andi %o_cs_118, %o_cs_120 : tensor<32xi1> loc(#loc98)
    %o_cs_122 = arith.addi %o_t_111, %o_cs : tensor<32xi32> loc(#loc98)
    %m_t = arith.constant 0 : i32 loc(#loc99)
    %m_t_123 = arith.constant dense<0> : tensor<32xi32> loc(#loc99)
    %m_t_124 = arith.cmpi sge, %o_t_111, %m_t_123 : tensor<32xi32> loc(#loc99)
    %m_t_125 = tt.splat %T : i32 -> tensor<32xi32> loc(#loc100)
    %m_t_126 = arith.cmpi slt, %o_t_111, %m_t_125 : tensor<32xi32> loc(#loc100)
    %m_t_127 = arith.andi %m_t_124, %m_t_126 : tensor<32xi1> loc(#loc101)
    %m_t_128 = arith.constant 0 : i32 loc(#loc102)
    %m_t_129 = arith.constant dense<0> : tensor<32xi32> loc(#loc102)
    %m_t_130 = arith.cmpi sge, %o_cs_122, %m_t_129 : tensor<32xi32> loc(#loc102)
    %m_t_131 = arith.andi %m_t_127, %m_t_130 : tensor<32xi1> loc(#loc103)
    %m_t_132 = arith.constant 4096 : i32 loc(#loc104)
    %m_t_133 = arith.constant dense<4096> : tensor<32xi32> loc(#loc104)
    %m_t_134 = arith.cmpi slt, %o_cs_122, %m_t_133 : tensor<32xi32> loc(#loc104)
    %m_t_135 = arith.andi %m_t_131, %m_t_134 : tensor<32xi1> loc(#loc105)
    %o_r = tt.make_range {end = 32 : i32, start = 0 : i32} : tensor<32xi32> loc(#loc106)
    %p_x = tt.expand_dims %o_t_111 {axis = 1 : i32} : tensor<32xi32> -> tensor<32x1xi32> loc(#loc107)
    %p_x_136 = arith.constant 12 : i32 loc(#loc108)
    %p_x_137 = arith.constant 12 : i32 loc(#loc108)
    %p_x_138 = arith.constant dense<12> : tensor<32x1xi32> loc(#loc108)
    %p_x_139 = arith.extsi %p_x : tensor<32x1xi32> to tensor<32x1xi64> loc(#loc108)
    %p_x_140 = arith.extsi %p_x_138 : tensor<32x1xi32> to tensor<32x1xi64> loc(#loc108)
    %p_x_141 = arith.muli %p_x_139, %p_x_140 : tensor<32x1xi64> loc(#loc108)
    %p_x_142 = arith.constant 2147483647 : i64 loc(#loc108)
    %p_x_143 = arith.constant -2147483648 : i64 loc(#loc108)
    %p_x_144 = arith.constant dense<2147483647> : tensor<32x1xi64> loc(#loc108)
    %p_x_145 = arith.cmpi sle, %p_x_141, %p_x_144 : tensor<32x1xi64> loc(#loc108)
    %p_x_146 = arith.constant dense<-2147483648> : tensor<32x1xi64> loc(#loc108)
    %p_x_147 = arith.cmpi sge, %p_x_141, %p_x_146 : tensor<32x1xi64> loc(#loc108)
    %p_x_148 = arith.andi %p_x_145, %p_x_147 : tensor<32x1xi1> loc(#loc108)
    %p_x_149 = arith.muli %p_x, %p_x_138 : tensor<32x1xi32> loc(#loc108)
    %p_x_150 = arith.constant 64 : i32 loc(#loc109)
    %p_x_151 = arith.constant 64 : i32 loc(#loc109)
    %p_x_152 = arith.constant dense<64> : tensor<32x1xi32> loc(#loc109)
    %p_x_153 = arith.extsi %p_x_149 : tensor<32x1xi32> to tensor<32x1xi64> loc(#loc109)
    %p_x_154 = arith.extsi %p_x_152 : tensor<32x1xi32> to tensor<32x1xi64> loc(#loc109)
    %p_x_155 = arith.muli %p_x_153, %p_x_154 : tensor<32x1xi64> loc(#loc109)
    %p_x_156 = arith.constant 2147483647 : i64 loc(#loc109)
    %p_x_157 = arith.constant -2147483648 : i64 loc(#loc109)
    %p_x_158 = arith.constant dense<2147483647> : tensor<32x1xi64> loc(#loc109)
    %p_x_159 = arith.cmpi sle, %p_x_155, %p_x_158 : tensor<32x1xi64> loc(#loc109)
    %p_x_160 = arith.constant dense<-2147483648> : tensor<32x1xi64> loc(#loc109)
    %p_x_161 = arith.cmpi sge, %p_x_155, %p_x_160 : tensor<32x1xi64> loc(#loc109)
    %p_x_162 = arith.andi %p_x_159, %p_x_161 : tensor<32x1xi1> loc(#loc109)
    %p_x_163 = arith.muli %p_x_149, %p_x_152 : tensor<32x1xi32> loc(#loc109)
    %p_x_164 = tt.splat %x_43 : !tt.ptr<bf16> -> tensor<32x1x!tt.ptr<bf16>> loc(#loc110)
    %p_x_165 = tt.addptr %p_x_164, %p_x_163 : tensor<32x1x!tt.ptr<bf16>>, tensor<32x1xi32> loc(#loc110)
    %p_x_166 = tt.expand_dims %o_r {axis = 0 : i32} : tensor<32xi32> -> tensor<1x32xi32> loc(#loc111)
    %p_x_167 = tt.broadcast %p_x_165 : tensor<32x1x!tt.ptr<bf16>> -> tensor<32x32x!tt.ptr<bf16>> loc(#loc112)
    %p_x_168 = tt.broadcast %p_x_166 : tensor<1x32xi32> -> tensor<32x32xi32> loc(#loc112)
    %p_x_169 = tt.addptr %p_x_167, %p_x_168 : tensor<32x32x!tt.ptr<bf16>>, tensor<32x32xi32> loc(#loc112)
    %p_cos = tt.expand_dims %o_cs_122 {axis = 1 : i32} : tensor<32xi32> -> tensor<32x1xi32> loc(#loc113)
    %p_cos_170 = arith.constant 32 : i32 loc(#loc114)
    %p_cos_171 = arith.constant 32 : i32 loc(#loc114)
    %p_cos_172 = arith.constant dense<32> : tensor<32x1xi32> loc(#loc114)
    %p_cos_173 = arith.extsi %p_cos : tensor<32x1xi32> to tensor<32x1xi64> loc(#loc114)
    %p_cos_174 = arith.extsi %p_cos_172 : tensor<32x1xi32> to tensor<32x1xi64> loc(#loc114)
    %p_cos_175 = arith.muli %p_cos_173, %p_cos_174 : tensor<32x1xi64> loc(#loc114)
    %p_cos_176 = arith.constant 2147483647 : i64 loc(#loc114)
    %p_cos_177 = arith.constant -2147483648 : i64 loc(#loc114)
    %p_cos_178 = arith.constant dense<2147483647> : tensor<32x1xi64> loc(#loc114)
    %p_cos_179 = arith.cmpi sle, %p_cos_175, %p_cos_178 : tensor<32x1xi64> loc(#loc114)
    %p_cos_180 = arith.constant dense<-2147483648> : tensor<32x1xi64> loc(#loc114)
    %p_cos_181 = arith.cmpi sge, %p_cos_175, %p_cos_180 : tensor<32x1xi64> loc(#loc114)
    %p_cos_182 = arith.andi %p_cos_179, %p_cos_181 : tensor<32x1xi1> loc(#loc114)
    %p_cos_183 = arith.muli %p_cos, %p_cos_172 : tensor<32x1xi32> loc(#loc114)
    %p_cos_184 = tt.expand_dims %o_r {axis = 0 : i32} : tensor<32xi32> -> tensor<1x32xi32> loc(#loc115)
    %p_cos_185 = tt.broadcast %p_cos_183 : tensor<32x1xi32> -> tensor<32x32xi32> loc(#loc116)
    %p_cos_186 = tt.broadcast %p_cos_184 : tensor<1x32xi32> -> tensor<32x32xi32> loc(#loc116)
    %p_cos_187 = arith.extsi %p_cos_185 : tensor<32x32xi32> to tensor<32x32xi64> loc(#loc116)
    %p_cos_188 = arith.extsi %p_cos_186 : tensor<32x32xi32> to tensor<32x32xi64> loc(#loc116)
    %p_cos_189 = arith.addi %p_cos_187, %p_cos_188 : tensor<32x32xi64> loc(#loc116)
    %p_cos_190 = arith.constant 2147483647 : i64 loc(#loc116)
    %p_cos_191 = arith.constant -2147483648 : i64 loc(#loc116)
    %p_cos_192 = arith.constant dense<2147483647> : tensor<32x32xi64> loc(#loc116)
    %p_cos_193 = arith.cmpi sle, %p_cos_189, %p_cos_192 : tensor<32x32xi64> loc(#loc116)
    %p_cos_194 = arith.constant dense<-2147483648> : tensor<32x32xi64> loc(#loc116)
    %p_cos_195 = arith.cmpi sge, %p_cos_189, %p_cos_194 : tensor<32x32xi64> loc(#loc116)
    %p_cos_196 = arith.andi %p_cos_193, %p_cos_195 : tensor<32x32xi1> loc(#loc116)
    %p_cos_197 = arith.addi %p_cos_185, %p_cos_186 : tensor<32x32xi32> loc(#loc116)
    %p_cos_198 = tt.splat %cos : !tt.ptr<bf16> -> tensor<32x32x!tt.ptr<bf16>> loc(#loc117)
    %p_cos_199 = tt.addptr %p_cos_198, %p_cos_197 : tensor<32x32x!tt.ptr<bf16>>, tensor<32x32xi32> loc(#loc117)
    %p_sin = tt.expand_dims %o_cs_122 {axis = 1 : i32} : tensor<32xi32> -> tensor<32x1xi32> loc(#loc118)
    %p_sin_200 = arith.constant 32 : i32 loc(#loc119)
    %p_sin_201 = arith.constant 32 : i32 loc(#loc119)
    %p_sin_202 = arith.constant dense<32> : tensor<32x1xi32> loc(#loc119)
    %p_sin_203 = arith.extsi %p_sin : tensor<32x1xi32> to tensor<32x1xi64> loc(#loc119)
    %p_sin_204 = arith.extsi %p_sin_202 : tensor<32x1xi32> to tensor<32x1xi64> loc(#loc119)
    %p_sin_205 = arith.muli %p_sin_203, %p_sin_204 : tensor<32x1xi64> loc(#loc119)
    %p_sin_206 = arith.constant 2147483647 : i64 loc(#loc119)
    %p_sin_207 = arith.constant -2147483648 : i64 loc(#loc119)
    %p_sin_208 = arith.constant dense<2147483647> : tensor<32x1xi64> loc(#loc119)
    %p_sin_209 = arith.cmpi sle, %p_sin_205, %p_sin_208 : tensor<32x1xi64> loc(#loc119)
    %p_sin_210 = arith.constant dense<-2147483648> : tensor<32x1xi64> loc(#loc119)
    %p_sin_211 = arith.cmpi sge, %p_sin_205, %p_sin_210 : tensor<32x1xi64> loc(#loc119)
    %p_sin_212 = arith.andi %p_sin_209, %p_sin_211 : tensor<32x1xi1> loc(#loc119)
    %p_sin_213 = arith.muli %p_sin, %p_sin_202 : tensor<32x1xi32> loc(#loc119)
    %p_sin_214 = tt.expand_dims %o_r {axis = 0 : i32} : tensor<32xi32> -> tensor<1x32xi32> loc(#loc120)
    %p_sin_215 = tt.broadcast %p_sin_213 : tensor<32x1xi32> -> tensor<32x32xi32> loc(#loc121)
    %p_sin_216 = tt.broadcast %p_sin_214 : tensor<1x32xi32> -> tensor<32x32xi32> loc(#loc121)
    %p_sin_217 = arith.extsi %p_sin_215 : tensor<32x32xi32> to tensor<32x32xi64> loc(#loc121)
    %p_sin_218 = arith.extsi %p_sin_216 : tensor<32x32xi32> to tensor<32x32xi64> loc(#loc121)
    %p_sin_219 = arith.addi %p_sin_217, %p_sin_218 : tensor<32x32xi64> loc(#loc121)
    %p_sin_220 = arith.constant 2147483647 : i64 loc(#loc121)
    %p_sin_221 = arith.constant -2147483648 : i64 loc(#loc121)
    %p_sin_222 = arith.constant dense<2147483647> : tensor<32x32xi64> loc(#loc121)
    %p_sin_223 = arith.cmpi sle, %p_sin_219, %p_sin_222 : tensor<32x32xi64> loc(#loc121)
    %p_sin_224 = arith.constant dense<-2147483648> : tensor<32x32xi64> loc(#loc121)
    %p_sin_225 = arith.cmpi sge, %p_sin_219, %p_sin_224 : tensor<32x32xi64> loc(#loc121)
    %p_sin_226 = arith.andi %p_sin_223, %p_sin_225 : tensor<32x32xi1> loc(#loc121)
    %p_sin_227 = arith.addi %p_sin_215, %p_sin_216 : tensor<32x32xi32> loc(#loc121)
    %p_sin_228 = tt.splat %sin : !tt.ptr<bf16> -> tensor<32x32x!tt.ptr<bf16>> loc(#loc122)
    %p_sin_229 = tt.addptr %p_sin_228, %p_sin_227 : tensor<32x32x!tt.ptr<bf16>>, tensor<32x32xi32> loc(#loc122)
    %mask = tt.expand_dims %m_t_135 {axis = 1 : i32} : tensor<32xi1> -> tensor<32x1xi1> loc(#loc123)
    %mask_230 = arith.constant 32 : i32 loc(#loc124)
    %mask_231 = arith.constant dense<32> : tensor<32xi32> loc(#loc124)
    %mask_232 = arith.cmpi slt, %o_r, %mask_231 : tensor<32xi32> loc(#loc124)
    %mask_233 = tt.expand_dims %mask_232 {axis = 0 : i32} : tensor<32xi1> -> tensor<1x32xi1> loc(#loc125)
    %mask_234 = tt.broadcast %mask : tensor<32x1xi1> -> tensor<32x32xi1> loc(#loc126)
    %mask_235 = tt.broadcast %mask_233 : tensor<1x32xi1> -> tensor<32x32xi1> loc(#loc126)
    %mask_236 = arith.andi %mask_234, %mask_235 : tensor<32x32xi1> loc(#loc126)
    %b_cos = arith.constant 1.000000e+00 : f32 loc(#loc127)
    %b_cos_237 = arith.constant dense<1.000000e+00> : tensor<32x32xf32> loc(#loc127)
    %b_cos_238 = arith.truncf %b_cos_237 : tensor<32x32xf32> to tensor<32x32xbf16> loc(#loc127)
    %b_cos_239 = tt.load %p_cos_199, %mask_236, %b_cos_238 : tensor<32x32x!tt.ptr<bf16>> loc(#loc127)
    %b_cos_240 = arith.extf %b_cos_239 : tensor<32x32xbf16> to tensor<32x32xf32> loc(#loc128)
    %b_sin = arith.constant 0.000000e+00 : f32 loc(#loc129)
    %b_sin_241 = arith.constant dense<0.000000e+00> : tensor<32x32xf32> loc(#loc129)
    %b_sin_242 = arith.truncf %b_sin_241 : tensor<32x32xf32> to tensor<32x32xbf16> loc(#loc129)
    %b_sin_243 = tt.load %p_sin_229, %mask_236, %b_sin_242 : tensor<32x32x!tt.ptr<bf16>> loc(#loc129)
    %b_sin_244 = arith.extf %b_sin_243 : tensor<32x32xbf16> to tensor<32x32xf32> loc(#loc130)
    %b_x0 = arith.constant 0.000000e+00 : f32 loc(#loc131)
    %b_x0_245 = arith.constant dense<0.000000e+00> : tensor<32x32xf32> loc(#loc131)
    %b_x0_246 = arith.truncf %b_x0_245 : tensor<32x32xf32> to tensor<32x32xbf16> loc(#loc131)
    %b_x0_247 = tt.load %p_x_169, %mask_236, %b_x0_246 : tensor<32x32x!tt.ptr<bf16>> loc(#loc131)
    %b_x0_248 = arith.extf %b_x0_247 : tensor<32x32xbf16> to tensor<32x32xf32> loc(#loc132)
    %b_x1 = arith.constant 32 : i32 loc(#loc133)
    %b_x1_249 = arith.constant dense<32> : tensor<32x32xi32> loc(#loc133)
    %b_x1_250 = tt.addptr %p_x_169, %b_x1_249 : tensor<32x32x!tt.ptr<bf16>>, tensor<32x32xi32> loc(#loc133)
    %b_x1_251 = arith.constant 0.000000e+00 : f32 loc(#loc134)
    %b_x1_252 = arith.constant dense<0.000000e+00> : tensor<32x32xf32> loc(#loc134)
    %b_x1_253 = arith.truncf %b_x1_252 : tensor<32x32xf32> to tensor<32x32xbf16> loc(#loc134)
    %b_x1_254 = tt.load %b_x1_250, %mask_236, %b_x1_253 : tensor<32x32x!tt.ptr<bf16>> loc(#loc134)
    %b_x1_255 = arith.extf %b_x1_254 : tensor<32x32xbf16> to tensor<32x32xf32> loc(#loc135)
    %b_o0 = arith.mulf %b_x0_248, %b_cos_240 : tensor<32x32xf32> loc(#loc136)
    %b_o0_256 = arith.mulf %b_x1_255, %b_sin_244 : tensor<32x32xf32> loc(#loc137)
    %b_o0_257 = arith.subf %b_o0, %b_o0_256 : tensor<32x32xf32> loc(#loc138)
    %b_o1 = arith.mulf %b_x0_248, %b_sin_244 : tensor<32x32xf32> loc(#loc139)
    %b_o1_258 = arith.mulf %b_x1_255, %b_cos_240 : tensor<32x32xf32> loc(#loc140)
    %b_o1_259 = arith.addf %b_o1, %b_o1_258 : tensor<32x32xf32> loc(#loc141)
    %p_y = tt.expand_dims %o_t_111 {axis = 1 : i32} : tensor<32xi32> -> tensor<32x1xi32> loc(#loc142)
    %p_y_260 = arith.constant 12 : i32 loc(#loc143)
    %p_y_261 = arith.constant 12 : i32 loc(#loc143)
    %p_y_262 = arith.constant dense<12> : tensor<32x1xi32> loc(#loc143)
    %p_y_263 = arith.extsi %p_y : tensor<32x1xi32> to tensor<32x1xi64> loc(#loc143)
    %p_y_264 = arith.extsi %p_y_262 : tensor<32x1xi32> to tensor<32x1xi64> loc(#loc143)
    %p_y_265 = arith.muli %p_y_263, %p_y_264 : tensor<32x1xi64> loc(#loc143)
    %p_y_266 = arith.constant 2147483647 : i64 loc(#loc143)
    %p_y_267 = arith.constant -2147483648 : i64 loc(#loc143)
    %p_y_268 = arith.constant dense<2147483647> : tensor<32x1xi64> loc(#loc143)
    %p_y_269 = arith.cmpi sle, %p_y_265, %p_y_268 : tensor<32x1xi64> loc(#loc143)
    %p_y_270 = arith.constant dense<-2147483648> : tensor<32x1xi64> loc(#loc143)
    %p_y_271 = arith.cmpi sge, %p_y_265, %p_y_270 : tensor<32x1xi64> loc(#loc143)
    %p_y_272 = arith.andi %p_y_269, %p_y_271 : tensor<32x1xi1> loc(#loc143)
    %p_y_273 = arith.muli %p_y, %p_y_262 : tensor<32x1xi32> loc(#loc143)
    %p_y_274 = arith.constant 64 : i32 loc(#loc144)
    %p_y_275 = arith.constant 64 : i32 loc(#loc144)
    %p_y_276 = arith.constant dense<64> : tensor<32x1xi32> loc(#loc144)
    %p_y_277 = arith.extsi %p_y_273 : tensor<32x1xi32> to tensor<32x1xi64> loc(#loc144)
    %p_y_278 = arith.extsi %p_y_276 : tensor<32x1xi32> to tensor<32x1xi64> loc(#loc144)
    %p_y_279 = arith.muli %p_y_277, %p_y_278 : tensor<32x1xi64> loc(#loc144)
    %p_y_280 = arith.constant 2147483647 : i64 loc(#loc144)
    %p_y_281 = arith.constant -2147483648 : i64 loc(#loc144)
    %p_y_282 = arith.constant dense<2147483647> : tensor<32x1xi64> loc(#loc144)
    %p_y_283 = arith.cmpi sle, %p_y_279, %p_y_282 : tensor<32x1xi64> loc(#loc144)
    %p_y_284 = arith.constant dense<-2147483648> : tensor<32x1xi64> loc(#loc144)
    %p_y_285 = arith.cmpi sge, %p_y_279, %p_y_284 : tensor<32x1xi64> loc(#loc144)
    %p_y_286 = arith.andi %p_y_283, %p_y_285 : tensor<32x1xi1> loc(#loc144)
    %p_y_287 = arith.muli %p_y_273, %p_y_276 : tensor<32x1xi32> loc(#loc144)
    %p_y_288 = tt.expand_dims %o_r {axis = 0 : i32} : tensor<32xi32> -> tensor<1x32xi32> loc(#loc145)
    %p_y_289 = tt.broadcast %p_y_287 : tensor<32x1xi32> -> tensor<32x32xi32> loc(#loc146)
    %p_y_290 = tt.broadcast %p_y_288 : tensor<1x32xi32> -> tensor<32x32xi32> loc(#loc146)
    %p_y_291 = arith.extsi %p_y_289 : tensor<32x32xi32> to tensor<32x32xi64> loc(#loc146)
    %p_y_292 = arith.extsi %p_y_290 : tensor<32x32xi32> to tensor<32x32xi64> loc(#loc146)
    %p_y_293 = arith.addi %p_y_291, %p_y_292 : tensor<32x32xi64> loc(#loc146)
    %p_y_294 = arith.constant 2147483647 : i64 loc(#loc146)
    %p_y_295 = arith.constant -2147483648 : i64 loc(#loc146)
    %p_y_296 = arith.constant dense<2147483647> : tensor<32x32xi64> loc(#loc146)
    %p_y_297 = arith.cmpi sle, %p_y_293, %p_y_296 : tensor<32x32xi64> loc(#loc146)
    %p_y_298 = arith.constant dense<-2147483648> : tensor<32x32xi64> loc(#loc146)
    %p_y_299 = arith.cmpi sge, %p_y_293, %p_y_298 : tensor<32x32xi64> loc(#loc146)
    %p_y_300 = arith.andi %p_y_297, %p_y_299 : tensor<32x32xi1> loc(#loc146)
    %p_y_301 = arith.addi %p_y_289, %p_y_290 : tensor<32x32xi32> loc(#loc146)
    %p_y_302 = tt.splat %y_87 : !tt.ptr<bf16> -> tensor<32x32x!tt.ptr<bf16>> loc(#loc147)
    %p_y_303 = tt.addptr %p_y_302, %p_y_301 : tensor<32x32x!tt.ptr<bf16>>, tensor<32x32xi32> loc(#loc147)
    %11 = arith.truncf %b_o0_257 : tensor<32x32xf32> to tensor<32x32xbf16> loc(#loc73)
    tt.store %p_y_303, %11, %mask_236 : tensor<32x32x!tt.ptr<bf16>> loc(#loc73)
    %c32_i32_304 = arith.constant 32 : i32 loc(#loc74)
    %cst = arith.constant dense<32> : tensor<32x32xi32> loc(#loc74)
    %12 = tt.addptr %p_y_303, %cst : tensor<32x32x!tt.ptr<bf16>>, tensor<32x32xi32> loc(#loc74)
    %13 = arith.truncf %b_o1_259 : tensor<32x32xf32> to tensor<32x32xbf16> loc(#loc75)
    tt.store %12, %13, %mask_236 : tensor<32x32x!tt.ptr<bf16>> loc(#loc75)
    tt.return loc(#loc76)
  } loc(#loc)
} loc(#loc)
#loc1 = loc("/NHNHOME/WORKSPACE/26msit001_A/jinhyeok/TTT_camera_embedding/.venv_llm/lib/python3.12/site-packages/fla/modules/rotary.py":69:34)
#loc2 = loc("/NHNHOME/WORKSPACE/26msit001_A/jinhyeok/TTT_camera_embedding/.venv_llm/lib/python3.12/site-packages/fla/modules/rotary.py":69:52)
#loc3 = loc("/NHNHOME/WORKSPACE/26msit001_A/jinhyeok/TTT_camera_embedding/.venv_llm/lib/python3.12/site-packages/fla/modules/rotary.py":69:70)
#loc4 = loc("/NHNHOME/WORKSPACE/26msit001_A/jinhyeok/TTT_camera_embedding/.venv_llm/lib/python3.12/site-packages/fla/modules/rotary.py":79:22)
#loc5 = loc("/NHNHOME/WORKSPACE/26msit001_A/jinhyeok/TTT_camera_embedding/.venv_llm/lib/python3.12/site-packages/fla/modules/rotary.py":79:24)
#loc6 = loc("/NHNHOME/WORKSPACE/26msit001_A/jinhyeok/TTT_camera_embedding/.venv_llm/lib/python3.12/site-packages/fla/modules/rotary.py":79:26)
#loc7 = loc("/NHNHOME/WORKSPACE/26msit001_A/jinhyeok/TTT_camera_embedding/.venv_llm/lib/python3.12/site-packages/fla/modules/rotary.py":79:16)
#loc8 = loc("/NHNHOME/WORKSPACE/26msit001_A/jinhyeok/TTT_camera_embedding/.venv_llm/lib/python3.12/site-packages/fla/modules/rotary.py":79:36)
#loc9 = loc("/NHNHOME/WORKSPACE/26msit001_A/jinhyeok/TTT_camera_embedding/.venv_llm/lib/python3.12/site-packages/fla/modules/rotary.py":79:30)
#loc10 = loc("/NHNHOME/WORKSPACE/26msit001_A/jinhyeok/TTT_camera_embedding/.venv_llm/lib/python3.12/site-packages/fla/modules/rotary.py":80:22)
#loc11 = loc("/NHNHOME/WORKSPACE/26msit001_A/jinhyeok/TTT_camera_embedding/.venv_llm/lib/python3.12/site-packages/fla/modules/rotary.py":80:24)
#loc12 = loc("/NHNHOME/WORKSPACE/26msit001_A/jinhyeok/TTT_camera_embedding/.venv_llm/lib/python3.12/site-packages/fla/modules/rotary.py":80:26)
#loc13 = loc("/NHNHOME/WORKSPACE/26msit001_A/jinhyeok/TTT_camera_embedding/.venv_llm/lib/python3.12/site-packages/fla/modules/rotary.py":80:16)
#loc14 = loc("/NHNHOME/WORKSPACE/26msit001_A/jinhyeok/TTT_camera_embedding/.venv_llm/lib/python3.12/site-packages/fla/modules/rotary.py":80:36)
#loc15 = loc("/NHNHOME/WORKSPACE/26msit001_A/jinhyeok/TTT_camera_embedding/.venv_llm/lib/python3.12/site-packages/fla/modules/rotary.py":80:30)
#loc16 = loc("/NHNHOME/WORKSPACE/26msit001_A/jinhyeok/TTT_camera_embedding/.venv_llm/lib/python3.12/site-packages/fla/modules/rotary.py":82:13)
#loc17 = loc("/NHNHOME/WORKSPACE/26msit001_A/jinhyeok/TTT_camera_embedding/.venv_llm/lib/python3.12/site-packages/fla/modules/rotary.py":82:19)
#loc18 = loc("/NHNHOME/WORKSPACE/26msit001_A/jinhyeok/TTT_camera_embedding/.venv_llm/lib/python3.12/site-packages/fla/modules/rotary.py":83:8)
#loc19 = loc(unknown)
#loc20 = loc("/NHNHOME/WORKSPACE/26msit001_A/jinhyeok/TTT_camera_embedding/.venv_llm/lib/python3.12/site-packages/fla/modules/rotary.py":85:16)
#loc21 = loc("/NHNHOME/WORKSPACE/26msit001_A/jinhyeok/TTT_camera_embedding/.venv_llm/lib/python3.12/site-packages/fla/modules/rotary.py":85:34)
#loc22 = loc("/NHNHOME/WORKSPACE/26msit001_A/jinhyeok/TTT_camera_embedding/.venv_llm/lib/python3.12/site-packages/fla/modules/rotary.py":85:21)
#loc23 = loc("/NHNHOME/WORKSPACE/26msit001_A/jinhyeok/TTT_camera_embedding/.venv_llm/lib/python3.12/site-packages/fla/modules/rotary.py":87:21)
#loc24 = loc("/NHNHOME/WORKSPACE/26msit001_A/jinhyeok/TTT_camera_embedding/.venv_llm/lib/python3.12/site-packages/fla/modules/rotary.py":90:18)
#loc25 = loc("/NHNHOME/WORKSPACE/26msit001_A/jinhyeok/TTT_camera_embedding/.venv_llm/lib/python3.12/site-packages/fla/modules/rotary.py":90:30)
#loc26 = loc("/NHNHOME/WORKSPACE/26msit001_A/jinhyeok/TTT_camera_embedding/.venv_llm/lib/python3.12/site-packages/fla/modules/rotary.py":90:24)
#loc27 = loc("/NHNHOME/WORKSPACE/26msit001_A/jinhyeok/TTT_camera_embedding/.venv_llm/lib/python3.12/site-packages/fla/modules/rotary.py":90:44)
#loc28 = loc("/NHNHOME/WORKSPACE/26msit001_A/jinhyeok/TTT_camera_embedding/.venv_llm/lib/python3.12/site-packages/fla/modules/rotary.py":90:36)
#loc29 = loc("/NHNHOME/WORKSPACE/26msit001_A/jinhyeok/TTT_camera_embedding/.venv_llm/lib/python3.12/site-packages/fla/modules/rotary.py":90:57)
#loc30 = loc("/NHNHOME/WORKSPACE/26msit001_A/jinhyeok/TTT_camera_embedding/.venv_llm/lib/python3.12/site-packages/fla/modules/rotary.py":90:50)
#loc31 = loc("/NHNHOME/WORKSPACE/26msit001_A/jinhyeok/TTT_camera_embedding/.venv_llm/lib/python3.12/site-packages/fla/modules/rotary.py":94:27)
#loc32 = loc("/NHNHOME/WORKSPACE/26msit001_A/jinhyeok/TTT_camera_embedding/.venv_llm/lib/python3.12/site-packages/fla/modules/rotary.py":95:22)
#loc33 = loc("/NHNHOME/WORKSPACE/26msit001_A/jinhyeok/TTT_camera_embedding/.venv_llm/lib/python3.12/site-packages/fla/modules/rotary.py":95:33)
#loc34 = loc("/NHNHOME/WORKSPACE/26msit001_A/jinhyeok/TTT_camera_embedding/.venv_llm/lib/python3.12/site-packages/fla/modules/rotary.py":95:35)
#loc35 = loc("/NHNHOME/WORKSPACE/26msit001_A/jinhyeok/TTT_camera_embedding/.venv_llm/lib/python3.12/site-packages/fla/modules/rotary.py":95:18)
#loc36 = loc("/NHNHOME/WORKSPACE/26msit001_A/jinhyeok/TTT_camera_embedding/.venv_llm/lib/python3.12/site-packages/fla/modules/rotary.py":95:43)
#loc37 = loc("/NHNHOME/WORKSPACE/26msit001_A/jinhyeok/TTT_camera_embedding/.venv_llm/lib/python3.12/site-packages/fla/modules/rotary.py":95:39)
#loc38 = loc("/NHNHOME/WORKSPACE/26msit001_A/jinhyeok/TTT_camera_embedding/.venv_llm/lib/python3.12/site-packages/fla/modules/rotary.py":96:28)
#loc39 = loc("/NHNHOME/WORKSPACE/26msit001_A/jinhyeok/TTT_camera_embedding/.venv_llm/lib/python3.12/site-packages/fla/modules/rotary.py":96:39)
#loc40 = loc("/NHNHOME/WORKSPACE/26msit001_A/jinhyeok/TTT_camera_embedding/.venv_llm/lib/python3.12/site-packages/fla/modules/rotary.py":96:47)
#loc41 = loc("/NHNHOME/WORKSPACE/26msit001_A/jinhyeok/TTT_camera_embedding/.venv_llm/lib/python3.12/site-packages/fla/modules/rotary.py":96:43)
#loc42 = loc("/NHNHOME/WORKSPACE/26msit001_A/jinhyeok/TTT_camera_embedding/.venv_llm/lib/python3.12/site-packages/fla/modules/rotary.py":96:23)
#loc43 = loc("/NHNHOME/WORKSPACE/26msit001_A/jinhyeok/TTT_camera_embedding/.venv_llm/lib/python3.12/site-packages/fla/modules/rotary.py":97:28)
#loc44 = loc("/NHNHOME/WORKSPACE/26msit001_A/jinhyeok/TTT_camera_embedding/.venv_llm/lib/python3.12/site-packages/fla/modules/rotary.py":97:39)
#loc45 = loc("/NHNHOME/WORKSPACE/26msit001_A/jinhyeok/TTT_camera_embedding/.venv_llm/lib/python3.12/site-packages/fla/modules/rotary.py":97:47)
#loc46 = loc("/NHNHOME/WORKSPACE/26msit001_A/jinhyeok/TTT_camera_embedding/.venv_llm/lib/python3.12/site-packages/fla/modules/rotary.py":97:43)
#loc47 = loc("/NHNHOME/WORKSPACE/26msit001_A/jinhyeok/TTT_camera_embedding/.venv_llm/lib/python3.12/site-packages/fla/modules/rotary.py":97:23)
#loc48 = loc("/NHNHOME/WORKSPACE/26msit001_A/jinhyeok/TTT_camera_embedding/.venv_llm/lib/python3.12/site-packages/fla/modules/rotary.py":98:19)
#loc49 = loc("/NHNHOME/WORKSPACE/26msit001_A/jinhyeok/TTT_camera_embedding/.venv_llm/lib/python3.12/site-packages/fla/modules/rotary.py":98:37)
#loc50 = loc("/NHNHOME/WORKSPACE/26msit001_A/jinhyeok/TTT_camera_embedding/.venv_llm/lib/python3.12/site-packages/fla/modules/rotary.py":98:40)
#loc51 = loc("/NHNHOME/WORKSPACE/26msit001_A/jinhyeok/TTT_camera_embedding/.venv_llm/lib/python3.12/site-packages/fla/modules/rotary.py":98:30)
#loc52 = loc("/NHNHOME/WORKSPACE/26msit001_A/jinhyeok/TTT_camera_embedding/.venv_llm/lib/python3.12/site-packages/fla/modules/rotary.py":100:24)
#loc53 = loc("/NHNHOME/WORKSPACE/26msit001_A/jinhyeok/TTT_camera_embedding/.venv_llm/lib/python3.12/site-packages/fla/modules/rotary.py":100:56)
#loc54 = loc("/NHNHOME/WORKSPACE/26msit001_A/jinhyeok/TTT_camera_embedding/.venv_llm/lib/python3.12/site-packages/fla/modules/rotary.py":101:24)
#loc55 = loc("/NHNHOME/WORKSPACE/26msit001_A/jinhyeok/TTT_camera_embedding/.venv_llm/lib/python3.12/site-packages/fla/modules/rotary.py":101:56)
#loc56 = loc("/NHNHOME/WORKSPACE/26msit001_A/jinhyeok/TTT_camera_embedding/.venv_llm/lib/python3.12/site-packages/fla/modules/rotary.py":102:23)
#loc57 = loc("/NHNHOME/WORKSPACE/26msit001_A/jinhyeok/TTT_camera_embedding/.venv_llm/lib/python3.12/site-packages/fla/modules/rotary.py":102:53)
#loc58 = loc("/NHNHOME/WORKSPACE/26msit001_A/jinhyeok/TTT_camera_embedding/.venv_llm/lib/python3.12/site-packages/fla/modules/rotary.py":103:29)
#loc59 = loc("/NHNHOME/WORKSPACE/26msit001_A/jinhyeok/TTT_camera_embedding/.venv_llm/lib/python3.12/site-packages/fla/modules/rotary.py":103:23)
#loc60 = loc("/NHNHOME/WORKSPACE/26msit001_A/jinhyeok/TTT_camera_embedding/.venv_llm/lib/python3.12/site-packages/fla/modules/rotary.py":103:57)
#loc61 = loc("/NHNHOME/WORKSPACE/26msit001_A/jinhyeok/TTT_camera_embedding/.venv_llm/lib/python3.12/site-packages/fla/modules/rotary.py":106:22)
#loc62 = loc("/NHNHOME/WORKSPACE/26msit001_A/jinhyeok/TTT_camera_embedding/.venv_llm/lib/python3.12/site-packages/fla/modules/rotary.py":106:37)
#loc63 = loc("/NHNHOME/WORKSPACE/26msit001_A/jinhyeok/TTT_camera_embedding/.venv_llm/lib/python3.12/site-packages/fla/modules/rotary.py":106:30)
#loc64 = loc("/NHNHOME/WORKSPACE/26msit001_A/jinhyeok/TTT_camera_embedding/.venv_llm/lib/python3.12/site-packages/fla/modules/rotary.py":107:22)
#loc65 = loc("/NHNHOME/WORKSPACE/26msit001_A/jinhyeok/TTT_camera_embedding/.venv_llm/lib/python3.12/site-packages/fla/modules/rotary.py":107:37)
#loc66 = loc("/NHNHOME/WORKSPACE/26msit001_A/jinhyeok/TTT_camera_embedding/.venv_llm/lib/python3.12/site-packages/fla/modules/rotary.py":107:30)
#loc67 = loc("/NHNHOME/WORKSPACE/26msit001_A/jinhyeok/TTT_camera_embedding/.venv_llm/lib/python3.12/site-packages/fla/modules/rotary.py":109:23)
#loc68 = loc("/NHNHOME/WORKSPACE/26msit001_A/jinhyeok/TTT_camera_embedding/.venv_llm/lib/python3.12/site-packages/fla/modules/rotary.py":109:34)
#loc69 = loc("/NHNHOME/WORKSPACE/26msit001_A/jinhyeok/TTT_camera_embedding/.venv_llm/lib/python3.12/site-packages/fla/modules/rotary.py":109:36)
#loc70 = loc("/NHNHOME/WORKSPACE/26msit001_A/jinhyeok/TTT_camera_embedding/.venv_llm/lib/python3.12/site-packages/fla/modules/rotary.py":109:44)
#loc71 = loc("/NHNHOME/WORKSPACE/26msit001_A/jinhyeok/TTT_camera_embedding/.venv_llm/lib/python3.12/site-packages/fla/modules/rotary.py":109:40)
#loc72 = loc("/NHNHOME/WORKSPACE/26msit001_A/jinhyeok/TTT_camera_embedding/.venv_llm/lib/python3.12/site-packages/fla/modules/rotary.py":109:19)
#loc73 = loc("/NHNHOME/WORKSPACE/26msit001_A/jinhyeok/TTT_camera_embedding/.venv_llm/lib/python3.12/site-packages/fla/modules/rotary.py":110:22)
#loc74 = loc("/NHNHOME/WORKSPACE/26msit001_A/jinhyeok/TTT_camera_embedding/.venv_llm/lib/python3.12/site-packages/fla/modules/rotary.py":111:23)
#loc75 = loc("/NHNHOME/WORKSPACE/26msit001_A/jinhyeok/TTT_camera_embedding/.venv_llm/lib/python3.12/site-packages/fla/modules/rotary.py":111:26)
#loc76 = loc("/NHNHOME/WORKSPACE/26msit001_A/jinhyeok/TTT_camera_embedding/.venv_llm/lib/python3.12/site-packages/fla/modules/rotary.py":92:4)
#loc83 = loc("x"(#loc4))
#loc84 = loc("x"(#loc5))
#loc85 = loc("x"(#loc6))
#loc86 = loc("x"(#loc7))
#loc87 = loc("x"(#loc8))
#loc88 = loc("x"(#loc9))
#loc89 = loc("y"(#loc10))
#loc90 = loc("y"(#loc11))
#loc91 = loc("y"(#loc12))
#loc92 = loc("y"(#loc13))
#loc93 = loc("y"(#loc14))
#loc94 = loc("y"(#loc15))
#loc95 = loc("o_t"(#loc20))
#loc96 = loc("o_t"(#loc21))
#loc97 = loc("o_t"(#loc22))
#loc98 = loc("o_cs"(#loc23))
#loc99 = loc("m_t"(#loc24))
#loc100 = loc("m_t"(#loc25))
#loc101 = loc("m_t"(#loc26))
#loc102 = loc("m_t"(#loc27))
#loc103 = loc("m_t"(#loc28))
#loc104 = loc("m_t"(#loc29))
#loc105 = loc("m_t"(#loc30))
#loc106 = loc("o_r"(#loc31))
#loc107 = loc("p_x"(#loc32))
#loc108 = loc("p_x"(#loc33))
#loc109 = loc("p_x"(#loc34))
#loc110 = loc("p_x"(#loc35))
#loc111 = loc("p_x"(#loc36))
#loc112 = loc("p_x"(#loc37))
#loc113 = loc("p_cos"(#loc38))
#loc114 = loc("p_cos"(#loc39))
#loc115 = loc("p_cos"(#loc40))
#loc116 = loc("p_cos"(#loc41))
#loc117 = loc("p_cos"(#loc42))
#loc118 = loc("p_sin"(#loc43))
#loc119 = loc("p_sin"(#loc44))
#loc120 = loc("p_sin"(#loc45))
#loc121 = loc("p_sin"(#loc46))
#loc122 = loc("p_sin"(#loc47))
#loc123 = loc("mask"(#loc48))
#loc124 = loc("mask"(#loc49))
#loc125 = loc("mask"(#loc50))
#loc126 = loc("mask"(#loc51))
#loc127 = loc("b_cos"(#loc52))
#loc128 = loc("b_cos"(#loc53))
#loc129 = loc("b_sin"(#loc54))
#loc130 = loc("b_sin"(#loc55))
#loc131 = loc("b_x0"(#loc56))
#loc132 = loc("b_x0"(#loc57))
#loc133 = loc("b_x1"(#loc58))
#loc134 = loc("b_x1"(#loc59))
#loc135 = loc("b_x1"(#loc60))
#loc136 = loc("b_o0"(#loc61))
#loc137 = loc("b_o0"(#loc62))
#loc138 = loc("b_o0"(#loc63))
#loc139 = loc("b_o1"(#loc64))
#loc140 = loc("b_o1"(#loc65))
#loc141 = loc("b_o1"(#loc66))
#loc142 = loc("p_y"(#loc67))
#loc143 = loc("p_y"(#loc68))
#loc144 = loc("p_y"(#loc69))
#loc145 = loc("p_y"(#loc70))
#loc146 = loc("p_y"(#loc71))
#loc147 = loc("p_y"(#loc72))
