#loc = loc("/NHNHOME/WORKSPACE/26msit001_A/jinhyeok/TTT_camera_embedding/lact_llm/.cache_inductor/6r/c6r7qao7xct6zfiz365y4hpl7zbrqwzlevv4t2wp3tklayfau4en.py":18:0)
#loc1 = loc(unknown)
#loc23 = loc("/NHNHOME/WORKSPACE/26msit001_A/jinhyeok/TTT_camera_embedding/lact_llm/.cache_inductor/6r/c6r7qao7xct6zfiz365y4hpl7zbrqwzlevv4t2wp3tklayfau4en.py":41:24)
#loc30 = loc("/NHNHOME/WORKSPACE/26msit001_A/jinhyeok/TTT_camera_embedding/lact_llm/.cache_inductor/6r/c6r7qao7xct6zfiz365y4hpl7zbrqwzlevv4t2wp3tklayfau4en.py":50:26)
#loc50 = loc("in_ptr0"(#loc))
#loc51 = loc("in_ptr1"(#loc))
#loc52 = loc("in_ptr2"(#loc))
#loc53 = loc("in_ptr3"(#loc))
#loc54 = loc("out_ptr3"(#loc))
#loc55 = loc("out_ptr4"(#loc))
#loc56 = loc("out_ptr5"(#loc))
#loc57 = loc("out_ptr6"(#loc))
#loc58 = loc("xnumel"(#loc))
#loc59 = loc("r0_numel"(#loc))
#loc80 = loc("tmp5"(#loc23))
#loc86 = loc("tmp17"(#loc30))
#loc100 = loc(callsite(#loc1 at #loc80))
#loc102 = loc(callsite(#loc1 at #loc86))
module {
  tt.func public @triton_per_fused__to_copy_add_div_linalg_vector_norm_mul_transpose_38(%in_ptr0: !tt.ptr<f32> {tt.divisibility = 16 : i32} loc("in_ptr0"(#loc)), %in_ptr1: !tt.ptr<f32> {tt.divisibility = 16 : i32} loc("in_ptr1"(#loc)), %in_ptr2: !tt.ptr<bf16> {tt.divisibility = 16 : i32} loc("in_ptr2"(#loc)), %in_ptr3: !tt.ptr<f32> {tt.divisibility = 16 : i32} loc("in_ptr3"(#loc)), %out_ptr3: !tt.ptr<bf16> {tt.divisibility = 16 : i32} loc("out_ptr3"(#loc)), %out_ptr4: !tt.ptr<bf16> {tt.divisibility = 16 : i32} loc("out_ptr4"(#loc)), %out_ptr5: !tt.ptr<bf16> {tt.divisibility = 16 : i32} loc("out_ptr5"(#loc)), %out_ptr6: !tt.ptr<bf16> {tt.divisibility = 16 : i32} loc("out_ptr6"(#loc)), %xnumel: i32 {tt.divisibility = 16 : i32} loc("xnumel"(#loc)), %r0_numel: i32 {tt.divisibility = 16 : i32} loc("r0_numel"(#loc))) attributes {noinline = false} {
    %c192_i32 = arith.constant 192 : i32 loc(#loc1)
    %xmask = arith.constant 6144 : i32 loc(#loc60)
    %tmp9 = arith.constant dense<0.000000e+00> : tensor<1x256xbf16> loc(#loc61)
    %cst = arith.constant dense<9.99999974E-6> : tensor<1x1xf32> loc(#loc1)
    %tmp8 = arith.constant dense<2.836600e+00> : tensor<1x256xf32> loc(#loc62)
    %cst_0 = arith.constant dense<0.000000e+00> : tensor<1x256xf32> loc(#loc1)
    %r0_mask = arith.constant dense<192> : tensor<1x256xi32> loc(#loc63)
    %xoffset = tt.get_program_id x : i32 loc(#loc64)
    %xmask_1 = arith.cmpi slt, %xoffset, %xmask : i32 loc(#loc60)
    %xmask_2 = tt.splat %xmask_1 : i1 -> tensor<1x1xi1> loc(#loc60)
    %r0_index = tt.make_range {end = 256 : i32, start = 0 : i32} : tensor<256xi32> loc(#loc65)
    %r0_index_3 = tt.expand_dims %r0_index {axis = 0 : i32} : tensor<256xi32> -> tensor<1x256xi32> loc(#loc66)
    %r0_mask_4 = arith.cmpi slt, %r0_index_3, %r0_mask : tensor<1x256xi32> loc(#loc63)
    %tmp0 = arith.muli %xoffset, %c192_i32 : i32 loc(#loc67)
    %tmp0_5 = tt.splat %tmp0 : i32 -> tensor<1x256xi32> loc(#loc97)
    %tmp0_6 = arith.addi %r0_index_3, %tmp0_5 : tensor<1x256xi32> loc(#loc68)
    %tmp0_7 = tt.splat %in_ptr0 : !tt.ptr<f32> -> tensor<1x256x!tt.ptr<f32>> loc(#loc69)
    %tmp0_8 = tt.addptr %tmp0_7, %tmp0_6 : tensor<1x256x!tt.ptr<f32>>, tensor<1x256xi32> loc(#loc69)
    %tmp0_9 = tt.splat %xmask_1 : i1 -> tensor<1x256xi1> loc(#loc98)
    %tmp0_10 = arith.andi %r0_mask_4, %tmp0_9 : tensor<1x256xi1> loc(#loc70)
    %tmp0_11 = tt.load %tmp0_8, %tmp0_10, %cst_0 : tensor<1x256x!tt.ptr<f32>> loc(#loc71)
    %tmp6 = tt.splat %in_ptr1 : !tt.ptr<f32> -> tensor<1x256x!tt.ptr<f32>> loc(#loc72)
    %tmp6_12 = tt.addptr %tmp6, %tmp0_6 : tensor<1x256x!tt.ptr<f32>>, tensor<1x256xi32> loc(#loc72)
    %tmp6_13 = tt.load %tmp6_12, %tmp0_10, %cst_0 : tensor<1x256x!tt.ptr<f32>> loc(#loc73)
    %tmp9_14 = tt.splat %in_ptr2 : !tt.ptr<bf16> -> tensor<1x256x!tt.ptr<bf16>> loc(#loc74)
    %tmp9_15 = tt.addptr %tmp9_14, %tmp0_6 : tensor<1x256x!tt.ptr<bf16>>, tensor<1x256xi32> loc(#loc74)
    %tmp9_16 = tt.load %tmp9_15, %tmp0_10, %tmp9 : tensor<1x256x!tt.ptr<bf16>> loc(#loc61)
    %tmp9_17 = arith.extf %tmp9_16 : tensor<1x256xbf16> to tensor<1x256xf32> loc(#loc75)
    %tmp22 = tt.addptr %in_ptr3, %xoffset : !tt.ptr<f32>, i32 loc(#loc76)
    %tmp22_18 = tt.splat %tmp22 : !tt.ptr<f32> -> tensor<1x1x!tt.ptr<f32>> loc(#loc76)
    %tmp22_19 = tt.load %tmp22_18, %xmask_2 evictionPolicy = evict_last : tensor<1x1x!tt.ptr<f32>> loc(#loc77)
    %tmp1 = arith.mulf %tmp0_11, %tmp0_11 : tensor<1x256xf32> loc(#loc78)
    %tmp4 = arith.select %tmp0_10, %tmp1, %cst_0 : tensor<1x256xi1>, tensor<1x256xf32> loc(#loc79)
    %tmp5 = "tt.reduce"(%tmp4) <{axis = 1 : i32}> ({
    ^bb0(%tmp5_26: f32 loc(callsite(#loc1 at #loc80)), %tmp5_27: f32 loc(callsite(#loc1 at #loc80))):
      %tmp5_28 = arith.addf %tmp5_26, %tmp5_27 : f32 loc(#loc103)
      tt.reduce.return %tmp5_28 : f32 loc(#loc99)
    }) : (tensor<1x256xf32>) -> tensor<1xf32> loc(#loc99)
    %tmp5_20 = tt.expand_dims %tmp5 {axis = 1 : i32} : tensor<1xf32> -> tensor<1x1xf32> loc(#loc81)
    %tmp8_21 = arith.mulf %tmp6_13, %tmp8 : tensor<1x256xf32> loc(#loc62)
    %tmp11 = arith.addf %tmp8_21, %tmp9_17 : tensor<1x256xf32> loc(#loc82)
    %tmp12 = arith.addf %tmp0_11, %tmp11 : tensor<1x256xf32> loc(#loc83)
    %tmp13 = arith.mulf %tmp12, %tmp12 : tensor<1x256xf32> loc(#loc84)
    %tmp16 = arith.select %tmp0_10, %tmp13, %cst_0 : tensor<1x256xi1>, tensor<1x256xf32> loc(#loc85)
    %tmp17 = "tt.reduce"(%tmp16) <{axis = 1 : i32}> ({
    ^bb0(%tmp17_26: f32 loc(callsite(#loc1 at #loc86)), %tmp17_27: f32 loc(callsite(#loc1 at #loc86))):
      %tmp17_28 = arith.addf %tmp17_26, %tmp17_27 : f32 loc(#loc104)
      tt.reduce.return %tmp17_28 : f32 loc(#loc101)
    }) : (tensor<1x256xf32>) -> tensor<1xf32> loc(#loc101)
    %tmp17_22 = tt.expand_dims %tmp17 {axis = 1 : i32} : tensor<1xf32> -> tensor<1x1xf32> loc(#loc87)
    %tmp18 = tt.extern_elementwise %tmp17_22 {libname = "", libpath = "", pure = true, symbol = "__nv_sqrtf"} : (tensor<1x1xf32>) -> tensor<1x1xf32> loc(#loc88)
    %tmp20 = arith.addf %tmp18, %cst : tensor<1x1xf32> loc(#loc89)
    %tmp21 = tt.broadcast %tmp20 : tensor<1x1xf32> -> tensor<1x256xf32> loc(#loc90)
    %tmp21_23 = arith.divf %tmp12, %tmp21 : tensor<1x256xf32> loc(#loc90)
    %tmp23 = tt.extern_elementwise %tmp22_19 {libname = "", libpath = "", pure = true, symbol = "__nv_sqrtf"} : (tensor<1x1xf32>) -> tensor<1x1xf32> loc(#loc91)
    %tmp24 = tt.broadcast %tmp23 : tensor<1x1xf32> -> tensor<1x256xf32> loc(#loc92)
    %tmp24_24 = arith.mulf %tmp21_23, %tmp24 : tensor<1x256xf32> loc(#loc92)
    %tmp25 = tt.extern_elementwise %tmp5_20 {libname = "", libpath = "", pure = true, symbol = "__nv_sqrtf"} : (tensor<1x1xf32>) -> tensor<1x1xf32> loc(#loc93)
    %tmp26 = arith.addf %tmp25, %cst : tensor<1x1xf32> loc(#loc94)
    %tmp27 = tt.broadcast %tmp26 : tensor<1x1xf32> -> tensor<1x256xf32> loc(#loc95)
    %tmp27_25 = arith.divf %tmp0_11, %tmp27 : tensor<1x256xf32> loc(#loc95)
    %tmp28 = arith.mulf %tmp27_25, %tmp24 : tensor<1x256xf32> loc(#loc96)
    %0 = tt.splat %out_ptr3 : !tt.ptr<bf16> -> tensor<1x256x!tt.ptr<bf16>> loc(#loc41)
    %1 = tt.addptr %0, %tmp0_6 : tensor<1x256x!tt.ptr<bf16>>, tensor<1x256xi32> loc(#loc41)
    %2 = arith.truncf %tmp28 : tensor<1x256xf32> to tensor<1x256xbf16> loc(#loc42)
    tt.store %1, %2, %tmp0_10 : tensor<1x256x!tt.ptr<bf16>> loc(#loc42)
    %3 = tt.splat %out_ptr4 : !tt.ptr<bf16> -> tensor<1x256x!tt.ptr<bf16>> loc(#loc43)
    %4 = tt.addptr %3, %tmp0_6 : tensor<1x256x!tt.ptr<bf16>>, tensor<1x256xi32> loc(#loc43)
    tt.store %4, %2, %tmp0_10 : tensor<1x256x!tt.ptr<bf16>> loc(#loc44)
    %5 = tt.splat %out_ptr5 : !tt.ptr<bf16> -> tensor<1x256x!tt.ptr<bf16>> loc(#loc45)
    %6 = tt.addptr %5, %tmp0_6 : tensor<1x256x!tt.ptr<bf16>>, tensor<1x256xi32> loc(#loc45)
    %7 = arith.truncf %tmp24_24 : tensor<1x256xf32> to tensor<1x256xbf16> loc(#loc46)
    tt.store %6, %7, %tmp0_10 : tensor<1x256x!tt.ptr<bf16>> loc(#loc46)
    %8 = tt.splat %out_ptr6 : !tt.ptr<bf16> -> tensor<1x256x!tt.ptr<bf16>> loc(#loc47)
    %9 = tt.addptr %8, %tmp0_6 : tensor<1x256x!tt.ptr<bf16>>, tensor<1x256xi32> loc(#loc47)
    tt.store %9, %7, %tmp0_10 : tensor<1x256x!tt.ptr<bf16>> loc(#loc48)
    tt.return loc(#loc49)
  } loc(#loc)
} loc(#loc)
#loc2 = loc("/NHNHOME/WORKSPACE/26msit001_A/jinhyeok/TTT_camera_embedding/lact_llm/.cache_inductor/6r/c6r7qao7xct6zfiz365y4hpl7zbrqwzlevv4t2wp3tklayfau4en.py":26:21)
#loc3 = loc("/NHNHOME/WORKSPACE/26msit001_A/jinhyeok/TTT_camera_embedding/lact_llm/.cache_inductor/6r/c6r7qao7xct6zfiz365y4hpl7zbrqwzlevv4t2wp3tklayfau4en.py":36:46)
#loc4 = loc("/NHNHOME/WORKSPACE/26msit001_A/jinhyeok/TTT_camera_embedding/lact_llm/.cache_inductor/6r/c6r7qao7xct6zfiz365y4hpl7zbrqwzlevv4t2wp3tklayfau4en.py":43:18)
#loc5 = loc("/NHNHOME/WORKSPACE/26msit001_A/jinhyeok/TTT_camera_embedding/lact_llm/.cache_inductor/6r/c6r7qao7xct6zfiz365y4hpl7zbrqwzlevv4t2wp3tklayfau4en.py":29:25)
#loc6 = loc("/NHNHOME/WORKSPACE/26msit001_A/jinhyeok/TTT_camera_embedding/lact_llm/.cache_inductor/6r/c6r7qao7xct6zfiz365y4hpl7zbrqwzlevv4t2wp3tklayfau4en.py":24:28)
#loc7 = loc("/NHNHOME/WORKSPACE/26msit001_A/jinhyeok/TTT_camera_embedding/lact_llm/.cache_inductor/6r/c6r7qao7xct6zfiz365y4hpl7zbrqwzlevv4t2wp3tklayfau4en.py":27:28)
#loc8 = loc("/NHNHOME/WORKSPACE/26msit001_A/jinhyeok/TTT_camera_embedding/lact_llm/.cache_inductor/6r/c6r7qao7xct6zfiz365y4hpl7zbrqwzlevv4t2wp3tklayfau4en.py":27:38)
#loc9 = loc("/NHNHOME/WORKSPACE/26msit001_A/jinhyeok/TTT_camera_embedding/lact_llm/.cache_inductor/6r/c6r7qao7xct6zfiz365y4hpl7zbrqwzlevv4t2wp3tklayfau4en.py":34:41)
#loc10 = loc("/NHNHOME/WORKSPACE/26msit001_A/jinhyeok/TTT_camera_embedding/lact_llm/.cache_inductor/6r/c6r7qao7xct6zfiz365y4hpl7zbrqwzlevv4t2wp3tklayfau4en.py":34:37)
#loc11 = loc("/NHNHOME/WORKSPACE/26msit001_A/jinhyeok/TTT_camera_embedding/lact_llm/.cache_inductor/6r/c6r7qao7xct6zfiz365y4hpl7zbrqwzlevv4t2wp3tklayfau4en.py":34:30)
#loc12 = loc("/NHNHOME/WORKSPACE/26msit001_A/jinhyeok/TTT_camera_embedding/lact_llm/.cache_inductor/6r/c6r7qao7xct6zfiz365y4hpl7zbrqwzlevv4t2wp3tklayfau4en.py":34:56)
#loc13 = loc("/NHNHOME/WORKSPACE/26msit001_A/jinhyeok/TTT_camera_embedding/lact_llm/.cache_inductor/6r/c6r7qao7xct6zfiz365y4hpl7zbrqwzlevv4t2wp3tklayfau4en.py":34:46)
#loc14 = loc("/NHNHOME/WORKSPACE/26msit001_A/jinhyeok/TTT_camera_embedding/lact_llm/.cache_inductor/6r/c6r7qao7xct6zfiz365y4hpl7zbrqwzlevv4t2wp3tklayfau4en.py":35:30)
#loc15 = loc("/NHNHOME/WORKSPACE/26msit001_A/jinhyeok/TTT_camera_embedding/lact_llm/.cache_inductor/6r/c6r7qao7xct6zfiz365y4hpl7zbrqwzlevv4t2wp3tklayfau4en.py":35:46)
#loc16 = loc("/NHNHOME/WORKSPACE/26msit001_A/jinhyeok/TTT_camera_embedding/lact_llm/.cache_inductor/6r/c6r7qao7xct6zfiz365y4hpl7zbrqwzlevv4t2wp3tklayfau4en.py":36:30)
#loc17 = loc("/NHNHOME/WORKSPACE/26msit001_A/jinhyeok/TTT_camera_embedding/lact_llm/.cache_inductor/6r/c6r7qao7xct6zfiz365y4hpl7zbrqwzlevv4t2wp3tklayfau4en.py":36:77)
#loc18 = loc("/NHNHOME/WORKSPACE/26msit001_A/jinhyeok/TTT_camera_embedding/lact_llm/.cache_inductor/6r/c6r7qao7xct6zfiz365y4hpl7zbrqwzlevv4t2wp3tklayfau4en.py":37:31)
#loc19 = loc("/NHNHOME/WORKSPACE/26msit001_A/jinhyeok/TTT_camera_embedding/lact_llm/.cache_inductor/6r/c6r7qao7xct6zfiz365y4hpl7zbrqwzlevv4t2wp3tklayfau4en.py":37:36)
#loc20 = loc("/NHNHOME/WORKSPACE/26msit001_A/jinhyeok/TTT_camera_embedding/lact_llm/.cache_inductor/6r/c6r7qao7xct6zfiz365y4hpl7zbrqwzlevv4t2wp3tklayfau4en.py":38:18)
#loc21 = loc("/NHNHOME/WORKSPACE/26msit001_A/jinhyeok/TTT_camera_embedding/lact_llm/.cache_inductor/6r/c6r7qao7xct6zfiz365y4hpl7zbrqwzlevv4t2wp3tklayfau4en.py":40:43)
#loc22 = loc("/NHNHOME/WORKSPACE/26msit001_A/jinhyeok/TTT_camera_embedding/.venv_llm/lib/python3.12/site-packages/triton/language/standard.py":291:36)
#loc24 = loc("/NHNHOME/WORKSPACE/26msit001_A/jinhyeok/TTT_camera_embedding/.venv_llm/lib/python3.12/site-packages/triton/language/standard.py":261:15)
#loc25 = loc("/NHNHOME/WORKSPACE/26msit001_A/jinhyeok/TTT_camera_embedding/lact_llm/.cache_inductor/6r/c6r7qao7xct6zfiz365y4hpl7zbrqwzlevv4t2wp3tklayfau4en.py":41:27)
#loc26 = loc("/NHNHOME/WORKSPACE/26msit001_A/jinhyeok/TTT_camera_embedding/lact_llm/.cache_inductor/6r/c6r7qao7xct6zfiz365y4hpl7zbrqwzlevv4t2wp3tklayfau4en.py":45:19)
#loc27 = loc("/NHNHOME/WORKSPACE/26msit001_A/jinhyeok/TTT_camera_embedding/lact_llm/.cache_inductor/6r/c6r7qao7xct6zfiz365y4hpl7zbrqwzlevv4t2wp3tklayfau4en.py":46:19)
#loc28 = loc("/NHNHOME/WORKSPACE/26msit001_A/jinhyeok/TTT_camera_embedding/lact_llm/.cache_inductor/6r/c6r7qao7xct6zfiz365y4hpl7zbrqwzlevv4t2wp3tklayfau4en.py":47:20)
#loc29 = loc("/NHNHOME/WORKSPACE/26msit001_A/jinhyeok/TTT_camera_embedding/lact_llm/.cache_inductor/6r/c6r7qao7xct6zfiz365y4hpl7zbrqwzlevv4t2wp3tklayfau4en.py":49:45)
#loc31 = loc("/NHNHOME/WORKSPACE/26msit001_A/jinhyeok/TTT_camera_embedding/lact_llm/.cache_inductor/6r/c6r7qao7xct6zfiz365y4hpl7zbrqwzlevv4t2wp3tklayfau4en.py":50:29)
#loc32 = loc("/NHNHOME/WORKSPACE/26msit001_A/jinhyeok/TTT_camera_embedding/lact_llm/.cache_inductor/6r/c6r7qao7xct6zfiz365y4hpl7zbrqwzlevv4t2wp3tklayfau4en.py":51:27)
#loc33 = loc("/NHNHOME/WORKSPACE/26msit001_A/jinhyeok/TTT_camera_embedding/lact_llm/.cache_inductor/6r/c6r7qao7xct6zfiz365y4hpl7zbrqwzlevv4t2wp3tklayfau4en.py":53:20)
#loc34 = loc("/NHNHOME/WORKSPACE/26msit001_A/jinhyeok/TTT_camera_embedding/lact_llm/.cache_inductor/6r/c6r7qao7xct6zfiz365y4hpl7zbrqwzlevv4t2wp3tklayfau4en.py":54:21)
#loc35 = loc("/NHNHOME/WORKSPACE/26msit001_A/jinhyeok/TTT_camera_embedding/lact_llm/.cache_inductor/6r/c6r7qao7xct6zfiz365y4hpl7zbrqwzlevv4t2wp3tklayfau4en.py":55:27)
#loc36 = loc("/NHNHOME/WORKSPACE/26msit001_A/jinhyeok/TTT_camera_embedding/lact_llm/.cache_inductor/6r/c6r7qao7xct6zfiz365y4hpl7zbrqwzlevv4t2wp3tklayfau4en.py":56:20)
#loc37 = loc("/NHNHOME/WORKSPACE/26msit001_A/jinhyeok/TTT_camera_embedding/lact_llm/.cache_inductor/6r/c6r7qao7xct6zfiz365y4hpl7zbrqwzlevv4t2wp3tklayfau4en.py":57:27)
#loc38 = loc("/NHNHOME/WORKSPACE/26msit001_A/jinhyeok/TTT_camera_embedding/lact_llm/.cache_inductor/6r/c6r7qao7xct6zfiz365y4hpl7zbrqwzlevv4t2wp3tklayfau4en.py":58:20)
#loc39 = loc("/NHNHOME/WORKSPACE/26msit001_A/jinhyeok/TTT_camera_embedding/lact_llm/.cache_inductor/6r/c6r7qao7xct6zfiz365y4hpl7zbrqwzlevv4t2wp3tklayfau4en.py":59:20)
#loc40 = loc("/NHNHOME/WORKSPACE/26msit001_A/jinhyeok/TTT_camera_embedding/lact_llm/.cache_inductor/6r/c6r7qao7xct6zfiz365y4hpl7zbrqwzlevv4t2wp3tklayfau4en.py":60:20)
#loc41 = loc("/NHNHOME/WORKSPACE/26msit001_A/jinhyeok/TTT_camera_embedding/lact_llm/.cache_inductor/6r/c6r7qao7xct6zfiz365y4hpl7zbrqwzlevv4t2wp3tklayfau4en.py":63:25)
#loc42 = loc("/NHNHOME/WORKSPACE/26msit001_A/jinhyeok/TTT_camera_embedding/lact_llm/.cache_inductor/6r/c6r7qao7xct6zfiz365y4hpl7zbrqwzlevv4t2wp3tklayfau4en.py":63:48)
#loc43 = loc("/NHNHOME/WORKSPACE/26msit001_A/jinhyeok/TTT_camera_embedding/lact_llm/.cache_inductor/6r/c6r7qao7xct6zfiz365y4hpl7zbrqwzlevv4t2wp3tklayfau4en.py":64:25)
#loc44 = loc("/NHNHOME/WORKSPACE/26msit001_A/jinhyeok/TTT_camera_embedding/lact_llm/.cache_inductor/6r/c6r7qao7xct6zfiz365y4hpl7zbrqwzlevv4t2wp3tklayfau4en.py":64:48)
#loc45 = loc("/NHNHOME/WORKSPACE/26msit001_A/jinhyeok/TTT_camera_embedding/lact_llm/.cache_inductor/6r/c6r7qao7xct6zfiz365y4hpl7zbrqwzlevv4t2wp3tklayfau4en.py":65:25)
#loc46 = loc("/NHNHOME/WORKSPACE/26msit001_A/jinhyeok/TTT_camera_embedding/lact_llm/.cache_inductor/6r/c6r7qao7xct6zfiz365y4hpl7zbrqwzlevv4t2wp3tklayfau4en.py":65:48)
#loc47 = loc("/NHNHOME/WORKSPACE/26msit001_A/jinhyeok/TTT_camera_embedding/lact_llm/.cache_inductor/6r/c6r7qao7xct6zfiz365y4hpl7zbrqwzlevv4t2wp3tklayfau4en.py":66:25)
#loc48 = loc("/NHNHOME/WORKSPACE/26msit001_A/jinhyeok/TTT_camera_embedding/lact_llm/.cache_inductor/6r/c6r7qao7xct6zfiz365y4hpl7zbrqwzlevv4t2wp3tklayfau4en.py":66:48)
#loc49 = loc("/NHNHOME/WORKSPACE/26msit001_A/jinhyeok/TTT_camera_embedding/lact_llm/.cache_inductor/6r/c6r7qao7xct6zfiz365y4hpl7zbrqwzlevv4t2wp3tklayfau4en.py":66:4)
#loc60 = loc("xmask"(#loc2))
#loc61 = loc("tmp9"(#loc3))
#loc62 = loc("tmp8"(#loc4))
#loc63 = loc("r0_mask"(#loc5))
#loc64 = loc("xoffset"(#loc6))
#loc65 = loc("r0_index"(#loc7))
#loc66 = loc("r0_index"(#loc8))
#loc67 = loc("tmp0"(#loc9))
#loc68 = loc("tmp0"(#loc10))
#loc69 = loc("tmp0"(#loc11))
#loc70 = loc("tmp0"(#loc12))
#loc71 = loc("tmp0"(#loc13))
#loc72 = loc("tmp6"(#loc14))
#loc73 = loc("tmp6"(#loc15))
#loc74 = loc("tmp9"(#loc16))
#loc75 = loc("tmp9"(#loc17))
#loc76 = loc("tmp22"(#loc18))
#loc77 = loc("tmp22"(#loc19))
#loc78 = loc("tmp1"(#loc20))
#loc79 = loc("tmp4"(#loc21))
#loc81 = loc("tmp5"(#loc25))
#loc82 = loc("tmp11"(#loc26))
#loc83 = loc("tmp12"(#loc27))
#loc84 = loc("tmp13"(#loc28))
#loc85 = loc("tmp16"(#loc29))
#loc87 = loc("tmp17"(#loc31))
#loc88 = loc("tmp18"(#loc32))
#loc89 = loc("tmp20"(#loc33))
#loc90 = loc("tmp21"(#loc34))
#loc91 = loc("tmp23"(#loc35))
#loc92 = loc("tmp24"(#loc36))
#loc93 = loc("tmp25"(#loc37))
#loc94 = loc("tmp26"(#loc38))
#loc95 = loc("tmp27"(#loc39))
#loc96 = loc("tmp28"(#loc40))
#loc97 = loc(fused[#loc68, #loc67])
#loc98 = loc(fused[#loc70, #loc60])
#loc99 = loc(callsite(#loc22 at #loc80))
#loc101 = loc(callsite(#loc22 at #loc86))
#loc103 = loc(callsite(#loc24 at #loc99))
#loc104 = loc(callsite(#loc24 at #loc101))
