#loc = loc("/NHNHOME/WORKSPACE/26msit001_A/jinhyeok/loop_TTT/lact/.cache_inductor_llm/c7/cc72fdrvokch72ujtjd5m7l7gcsag23mkvzimpeg76hdgl6z7f5b.py":18:0)
#loc20 = loc("in_out_ptr0"(#loc))
#loc21 = loc("in_ptr0"(#loc))
#loc22 = loc("in_ptr1"(#loc))
#loc23 = loc("xnumel"(#loc))
module {
  tt.func public @triton_poi_fused__to_copy_add_mul_50(%in_out_ptr0: !tt.ptr<bf16> {tt.divisibility = 16 : i32} loc("in_out_ptr0"(#loc)), %in_ptr0: !tt.ptr<f32> {tt.divisibility = 16 : i32} loc("in_ptr0"(#loc)), %in_ptr1: !tt.ptr<f32> {tt.divisibility = 16 : i32} loc("in_ptr1"(#loc)), %xnumel: i32 {tt.divisibility = 16 : i32} loc("xnumel"(#loc))) attributes {noinline = false} {
    %xnumel_0 = arith.constant 1179648 : i32 loc(#loc24)
    %xoffset = tt.get_program_id x : i32 loc(#loc25)
    %xoffset_1 = arith.constant 1024 : i32 loc(#loc26)
    %xoffset_2 = arith.constant 1024 : i32 loc(#loc26)
    %xoffset_3 = arith.muli %xoffset, %xoffset_2 : i32 loc(#loc26)
    %xindex = tt.make_range {end = 1024 : i32, start = 0 : i32} : tensor<1024xi32> loc(#loc27)
    %xindex_4 = tt.splat %xoffset_3 : i32 -> tensor<1024xi32> loc(#loc28)
    %xindex_5 = arith.addi %xindex_4, %xindex : tensor<1024xi32> loc(#loc28)
    %xmask = arith.constant true loc(#loc29)
    %xmask_6 = arith.constant dense<true> : tensor<1024xi1> loc(#loc29)
    %x1 = arith.constant 36864 : i32 loc(#loc30)
    %x1_7 = arith.constant 36864 : i32 loc(#loc30)
    %x1_8 = arith.constant dense<36864> : tensor<1024xi32> loc(#loc30)
    %x1_9 = arith.divsi %xindex_5, %x1_8 : tensor<1024xi32> loc(#loc30)
    %tmp0 = tt.splat %in_out_ptr0 : !tt.ptr<bf16> -> tensor<1024x!tt.ptr<bf16>> loc(#loc31)
    %tmp0_10 = tt.addptr %tmp0, %xindex_5 : tensor<1024x!tt.ptr<bf16>>, tensor<1024xi32> loc(#loc31)
    %tmp0_11 = tt.load %tmp0_10 : tensor<1024x!tt.ptr<bf16>> loc(#loc32)
    %tmp0_12 = arith.extf %tmp0_11 : tensor<1024xbf16> to tensor<1024xf32> loc(#loc33)
    %tmp2 = tt.splat %in_ptr0 : !tt.ptr<f32> -> tensor<1024x!tt.ptr<f32>> loc(#loc34)
    %tmp2_13 = tt.addptr %tmp2, %xindex_5 : tensor<1024x!tt.ptr<f32>>, tensor<1024xi32> loc(#loc34)
    %tmp2_14 = tt.load %tmp2_13 : tensor<1024x!tt.ptr<f32>> loc(#loc35)
    %tmp3 = tt.splat %in_ptr1 : !tt.ptr<f32> -> tensor<1024x!tt.ptr<f32>> loc(#loc36)
    %tmp3_15 = tt.addptr %tmp3, %x1_9 : tensor<1024x!tt.ptr<f32>>, tensor<1024xi32> loc(#loc36)
    %tmp3_16 = tt.load %tmp3_15 evictionPolicy = evict_last : tensor<1024x!tt.ptr<f32>> loc(#loc37)
    %tmp4 = arith.mulf %tmp2_14, %tmp3_16 : tensor<1024xf32> loc(#loc38)
    %tmp5 = arith.addf %tmp0_12, %tmp4 : tensor<1024xf32> loc(#loc39)
    %0 = tt.splat %in_out_ptr0 : !tt.ptr<bf16> -> tensor<1024x!tt.ptr<bf16>> loc(#loc17)
    %1 = tt.addptr %0, %xindex_5 : tensor<1024x!tt.ptr<bf16>>, tensor<1024xi32> loc(#loc17)
    %2 = arith.truncf %tmp5 : tensor<1024xf32> to tensor<1024xbf16> loc(#loc18)
    tt.store %1, %2 : tensor<1024x!tt.ptr<bf16>> loc(#loc18)
    tt.return loc(#loc19)
  } loc(#loc)
} loc(#loc)
#loc1 = loc("/NHNHOME/WORKSPACE/26msit001_A/jinhyeok/loop_TTT/lact/.cache_inductor_llm/c7/cc72fdrvokch72ujtjd5m7l7gcsag23mkvzimpeg76hdgl6z7f5b.py":19:13)
#loc2 = loc("/NHNHOME/WORKSPACE/26msit001_A/jinhyeok/loop_TTT/lact/.cache_inductor_llm/c7/cc72fdrvokch72ujtjd5m7l7gcsag23mkvzimpeg76hdgl6z7f5b.py":20:28)
#loc3 = loc("/NHNHOME/WORKSPACE/26msit001_A/jinhyeok/loop_TTT/lact/.cache_inductor_llm/c7/cc72fdrvokch72ujtjd5m7l7gcsag23mkvzimpeg76hdgl6z7f5b.py":20:33)
#loc4 = loc("/NHNHOME/WORKSPACE/26msit001_A/jinhyeok/loop_TTT/lact/.cache_inductor_llm/c7/cc72fdrvokch72ujtjd5m7l7gcsag23mkvzimpeg76hdgl6z7f5b.py":21:36)
#loc5 = loc("/NHNHOME/WORKSPACE/26msit001_A/jinhyeok/loop_TTT/lact/.cache_inductor_llm/c7/cc72fdrvokch72ujtjd5m7l7gcsag23mkvzimpeg76hdgl6z7f5b.py":21:23)
#loc6 = loc("/NHNHOME/WORKSPACE/26msit001_A/jinhyeok/loop_TTT/lact/.cache_inductor_llm/c7/cc72fdrvokch72ujtjd5m7l7gcsag23mkvzimpeg76hdgl6z7f5b.py":22:36)
#loc7 = loc("/NHNHOME/WORKSPACE/26msit001_A/jinhyeok/loop_TTT/lact/.cache_inductor_llm/c7/cc72fdrvokch72ujtjd5m7l7gcsag23mkvzimpeg76hdgl6z7f5b.py":24:19)
#loc8 = loc("/NHNHOME/WORKSPACE/26msit001_A/jinhyeok/loop_TTT/lact/.cache_inductor_llm/c7/cc72fdrvokch72ujtjd5m7l7gcsag23mkvzimpeg76hdgl6z7f5b.py":25:34)
#loc9 = loc("/NHNHOME/WORKSPACE/26msit001_A/jinhyeok/loop_TTT/lact/.cache_inductor_llm/c7/cc72fdrvokch72ujtjd5m7l7gcsag23mkvzimpeg76hdgl6z7f5b.py":25:39)
#loc10 = loc("/NHNHOME/WORKSPACE/26msit001_A/jinhyeok/loop_TTT/lact/.cache_inductor_llm/c7/cc72fdrvokch72ujtjd5m7l7gcsag23mkvzimpeg76hdgl6z7f5b.py":25:48)
#loc11 = loc("/NHNHOME/WORKSPACE/26msit001_A/jinhyeok/loop_TTT/lact/.cache_inductor_llm/c7/cc72fdrvokch72ujtjd5m7l7gcsag23mkvzimpeg76hdgl6z7f5b.py":26:30)
#loc12 = loc("/NHNHOME/WORKSPACE/26msit001_A/jinhyeok/loop_TTT/lact/.cache_inductor_llm/c7/cc72fdrvokch72ujtjd5m7l7gcsag23mkvzimpeg76hdgl6z7f5b.py":26:35)
#loc13 = loc("/NHNHOME/WORKSPACE/26msit001_A/jinhyeok/loop_TTT/lact/.cache_inductor_llm/c7/cc72fdrvokch72ujtjd5m7l7gcsag23mkvzimpeg76hdgl6z7f5b.py":27:30)
#loc14 = loc("/NHNHOME/WORKSPACE/26msit001_A/jinhyeok/loop_TTT/lact/.cache_inductor_llm/c7/cc72fdrvokch72ujtjd5m7l7gcsag23mkvzimpeg76hdgl6z7f5b.py":27:35)
#loc15 = loc("/NHNHOME/WORKSPACE/26msit001_A/jinhyeok/loop_TTT/lact/.cache_inductor_llm/c7/cc72fdrvokch72ujtjd5m7l7gcsag23mkvzimpeg76hdgl6z7f5b.py":29:18)
#loc16 = loc("/NHNHOME/WORKSPACE/26msit001_A/jinhyeok/loop_TTT/lact/.cache_inductor_llm/c7/cc72fdrvokch72ujtjd5m7l7gcsag23mkvzimpeg76hdgl6z7f5b.py":30:18)
#loc17 = loc("/NHNHOME/WORKSPACE/26msit001_A/jinhyeok/loop_TTT/lact/.cache_inductor_llm/c7/cc72fdrvokch72ujtjd5m7l7gcsag23mkvzimpeg76hdgl6z7f5b.py":32:28)
#loc18 = loc("/NHNHOME/WORKSPACE/26msit001_A/jinhyeok/loop_TTT/lact/.cache_inductor_llm/c7/cc72fdrvokch72ujtjd5m7l7gcsag23mkvzimpeg76hdgl6z7f5b.py":32:39)
#loc19 = loc("/NHNHOME/WORKSPACE/26msit001_A/jinhyeok/loop_TTT/lact/.cache_inductor_llm/c7/cc72fdrvokch72ujtjd5m7l7gcsag23mkvzimpeg76hdgl6z7f5b.py":32:4)
#loc24 = loc("xnumel"(#loc1))
#loc25 = loc("xoffset"(#loc2))
#loc26 = loc("xoffset"(#loc3))
#loc27 = loc("xindex"(#loc4))
#loc28 = loc("xindex"(#loc5))
#loc29 = loc("xmask"(#loc6))
#loc30 = loc("x1"(#loc7))
#loc31 = loc("tmp0"(#loc8))
#loc32 = loc("tmp0"(#loc9))
#loc33 = loc("tmp0"(#loc10))
#loc34 = loc("tmp2"(#loc11))
#loc35 = loc("tmp2"(#loc12))
#loc36 = loc("tmp3"(#loc13))
#loc37 = loc("tmp3"(#loc14))
#loc38 = loc("tmp4"(#loc15))
#loc39 = loc("tmp5"(#loc16))
