#loc = loc("/NHNHOME/WORKSPACE/26msit001_A/jinhyeok/loop_TTT/lact/.cache_inductor_llm/ri/crixdctabj6ydpsi7ugrknmmoygrxr7k3xn32dbjtobvtorrqvlt.py":18:0)
#loc32 = loc("in_ptr0"(#loc))
#loc33 = loc("in_ptr1"(#loc))
#loc34 = loc("in_ptr2"(#loc))
#loc35 = loc("out_ptr0"(#loc))
#loc36 = loc("out_ptr1"(#loc))
#loc37 = loc("ks0"(#loc))
#loc38 = loc("xnumel"(#loc))
module {
  tt.func public @triton_poi_fused__to_copy_mul_slice_47(%in_ptr0: !tt.ptr<f32> {tt.divisibility = 16 : i32} loc("in_ptr0"(#loc)), %in_ptr1: !tt.ptr<f32> {tt.divisibility = 16 : i32} loc("in_ptr1"(#loc)), %in_ptr2: !tt.ptr<f32> loc("in_ptr2"(#loc)), %out_ptr0: !tt.ptr<bf16> {tt.divisibility = 16 : i32} loc("out_ptr0"(#loc)), %out_ptr1: !tt.ptr<bf16> {tt.divisibility = 16 : i32} loc("out_ptr1"(#loc)), %ks0: i64 loc("ks0"(#loc)), %xnumel: i32 {tt.divisibility = 16 : i32} loc("xnumel"(#loc))) attributes {noinline = false} {
    %c4096_i64 = arith.constant 4096 : i64 loc(#loc1)
    %c2048_i64 = arith.constant 2048 : i64 loc(#loc1)
    %tmp0 = arith.constant dense<786432> : tensor<1024xi32> loc(#loc39)
    %tmp0_0 = arith.constant dense<393216> : tensor<1024xi32> loc(#loc40)
    %x1 = arith.constant dense<1024> : tensor<1024xi32> loc(#loc41)
    %x1_1 = arith.constant dense<192> : tensor<1024xi32> loc(#loc42)
    %cst = arith.constant dense<196608> : tensor<1024xi32> loc(#loc1)
    %c1024_i32 = arith.constant 1024 : i32 loc(#loc1)
    %xoffset = tt.get_program_id x : i32 loc(#loc43)
    %xoffset_2 = arith.muli %xoffset, %c1024_i32 : i32 loc(#loc44)
    %xindex = tt.make_range {end = 1024 : i32, start = 0 : i32} : tensor<1024xi32> loc(#loc45)
    %xindex_3 = tt.splat %xoffset_2 : i32 -> tensor<1024xi32> loc(#loc46)
    %xindex_4 = arith.addi %xindex_3, %xindex : tensor<1024xi32> loc(#loc46)
    %x2 = arith.divsi %xindex_4, %cst : tensor<1024xi32> loc(#loc47)
    %x3 = arith.remsi %xindex_4, %cst : tensor<1024xi32> loc(#loc48)
    %x1_5 = arith.divsi %xindex_4, %x1_1 : tensor<1024xi32> loc(#loc42)
    %x1_6 = arith.remsi %x1_5, %x1 : tensor<1024xi32> loc(#loc41)
    %tmp0_7 = arith.addi %x3, %tmp0_0 : tensor<1024xi32> loc(#loc40)
    %tmp0_8 = arith.muli %x2, %tmp0 : tensor<1024xi32> loc(#loc39)
    %tmp0_9 = arith.addi %tmp0_7, %tmp0_8 : tensor<1024xi32> loc(#loc49)
    %tmp0_10 = tt.splat %in_ptr0 : !tt.ptr<f32> -> tensor<1024x!tt.ptr<f32>> loc(#loc50)
    %tmp0_11 = tt.addptr %tmp0_10, %tmp0_9 : tensor<1024x!tt.ptr<f32>>, tensor<1024xi32> loc(#loc50)
    %tmp0_12 = tt.load %tmp0_11 : tensor<1024x!tt.ptr<f32>> loc(#loc51)
    %tmp1 = arith.muli %ks0, %c2048_i64 : i64 loc(#loc52)
    %tmp1_13 = arith.extsi %x1_6 : tensor<1024xi32> to tensor<1024xi64> loc(#loc53)
    %tmp1_14 = tt.splat %ks0 : i64 -> tensor<1024xi64> loc(#loc53)
    %tmp1_15 = arith.muli %tmp1_14, %tmp1_13 : tensor<1024xi64> loc(#loc53)
    %tmp1_16 = tt.splat %tmp1 : i64 -> tensor<1024xi64> loc(#loc54)
    %tmp1_17 = arith.addi %tmp1_16, %tmp1_15 : tensor<1024xi64> loc(#loc54)
    %tmp1_18 = arith.muli %ks0, %c4096_i64 : i64 loc(#loc55)
    %tmp1_19 = arith.extsi %x2 : tensor<1024xi32> to tensor<1024xi64> loc(#loc56)
    %tmp1_20 = tt.splat %tmp1_18 : i64 -> tensor<1024xi64> loc(#loc56)
    %tmp1_21 = arith.muli %tmp1_20, %tmp1_19 : tensor<1024xi64> loc(#loc56)
    %tmp1_22 = arith.addi %tmp1_17, %tmp1_21 : tensor<1024xi64> loc(#loc57)
    %tmp1_23 = tt.splat %in_ptr1 : !tt.ptr<f32> -> tensor<1024x!tt.ptr<f32>> loc(#loc58)
    %tmp1_24 = tt.addptr %tmp1_23, %tmp1_22 : tensor<1024x!tt.ptr<f32>>, tensor<1024xi64> loc(#loc58)
    %tmp1_25 = tt.load %tmp1_24 evictionPolicy = evict_last : tensor<1024x!tt.ptr<f32>> loc(#loc59)
    %tmp4 = tt.splat %in_ptr2 : !tt.ptr<f32> -> tensor<1024x!tt.ptr<f32>> loc(#loc60)
    %tmp4_26 = tt.addptr %tmp4, %tmp1_22 : tensor<1024x!tt.ptr<f32>>, tensor<1024xi64> loc(#loc60)
    %tmp4_27 = tt.load %tmp4_26 evictionPolicy = evict_last : tensor<1024x!tt.ptr<f32>> loc(#loc61)
    %tmp2 = arith.mulf %tmp0_12, %tmp1_25 : tensor<1024xf32> loc(#loc62)
    %tmp5 = arith.mulf %tmp0_12, %tmp4_27 : tensor<1024xf32> loc(#loc63)
    %0 = tt.splat %out_ptr0 : !tt.ptr<bf16> -> tensor<1024x!tt.ptr<bf16>> loc(#loc27)
    %1 = tt.addptr %0, %xindex_4 : tensor<1024x!tt.ptr<bf16>>, tensor<1024xi32> loc(#loc27)
    %2 = arith.truncf %tmp2 : tensor<1024xf32> to tensor<1024xbf16> loc(#loc28)
    tt.store %1, %2 : tensor<1024x!tt.ptr<bf16>> loc(#loc28)
    %3 = tt.splat %out_ptr1 : !tt.ptr<bf16> -> tensor<1024x!tt.ptr<bf16>> loc(#loc29)
    %4 = tt.addptr %3, %xindex_4 : tensor<1024x!tt.ptr<bf16>>, tensor<1024xi32> loc(#loc29)
    %5 = arith.truncf %tmp5 : tensor<1024xf32> to tensor<1024xbf16> loc(#loc30)
    tt.store %4, %5 : tensor<1024x!tt.ptr<bf16>> loc(#loc30)
    tt.return loc(#loc31)
  } loc(#loc)
} loc(#loc)
#loc1 = loc(unknown)
#loc2 = loc("/NHNHOME/WORKSPACE/26msit001_A/jinhyeok/loop_TTT/lact/.cache_inductor_llm/ri/crixdctabj6ydpsi7ugrknmmoygrxr7k3xn32dbjtobvtorrqvlt.py":26:51)
#loc3 = loc("/NHNHOME/WORKSPACE/26msit001_A/jinhyeok/loop_TTT/lact/.cache_inductor_llm/ri/crixdctabj6ydpsi7ugrknmmoygrxr7k3xn32dbjtobvtorrqvlt.py":26:39)
#loc4 = loc("/NHNHOME/WORKSPACE/26msit001_A/jinhyeok/loop_TTT/lact/.cache_inductor_llm/ri/crixdctabj6ydpsi7ugrknmmoygrxr7k3xn32dbjtobvtorrqvlt.py":24:28)
#loc5 = loc("/NHNHOME/WORKSPACE/26msit001_A/jinhyeok/loop_TTT/lact/.cache_inductor_llm/ri/crixdctabj6ydpsi7ugrknmmoygrxr7k3xn32dbjtobvtorrqvlt.py":24:21)
#loc6 = loc("/NHNHOME/WORKSPACE/26msit001_A/jinhyeok/loop_TTT/lact/.cache_inductor_llm/ri/crixdctabj6ydpsi7ugrknmmoygrxr7k3xn32dbjtobvtorrqvlt.py":19:28)
#loc7 = loc("/NHNHOME/WORKSPACE/26msit001_A/jinhyeok/loop_TTT/lact/.cache_inductor_llm/ri/crixdctabj6ydpsi7ugrknmmoygrxr7k3xn32dbjtobvtorrqvlt.py":19:33)
#loc8 = loc("/NHNHOME/WORKSPACE/26msit001_A/jinhyeok/loop_TTT/lact/.cache_inductor_llm/ri/crixdctabj6ydpsi7ugrknmmoygrxr7k3xn32dbjtobvtorrqvlt.py":20:36)
#loc9 = loc("/NHNHOME/WORKSPACE/26msit001_A/jinhyeok/loop_TTT/lact/.cache_inductor_llm/ri/crixdctabj6ydpsi7ugrknmmoygrxr7k3xn32dbjtobvtorrqvlt.py":20:23)
#loc10 = loc("/NHNHOME/WORKSPACE/26msit001_A/jinhyeok/loop_TTT/lact/.cache_inductor_llm/ri/crixdctabj6ydpsi7ugrknmmoygrxr7k3xn32dbjtobvtorrqvlt.py":22:19)
#loc11 = loc("/NHNHOME/WORKSPACE/26msit001_A/jinhyeok/loop_TTT/lact/.cache_inductor_llm/ri/crixdctabj6ydpsi7ugrknmmoygrxr7k3xn32dbjtobvtorrqvlt.py":23:19)
#loc12 = loc("/NHNHOME/WORKSPACE/26msit001_A/jinhyeok/loop_TTT/lact/.cache_inductor_llm/ri/crixdctabj6ydpsi7ugrknmmoygrxr7k3xn32dbjtobvtorrqvlt.py":26:44)
#loc13 = loc("/NHNHOME/WORKSPACE/26msit001_A/jinhyeok/loop_TTT/lact/.cache_inductor_llm/ri/crixdctabj6ydpsi7ugrknmmoygrxr7k3xn32dbjtobvtorrqvlt.py":26:30)
#loc14 = loc("/NHNHOME/WORKSPACE/26msit001_A/jinhyeok/loop_TTT/lact/.cache_inductor_llm/ri/crixdctabj6ydpsi7ugrknmmoygrxr7k3xn32dbjtobvtorrqvlt.py":26:56)
#loc15 = loc("/NHNHOME/WORKSPACE/26msit001_A/jinhyeok/loop_TTT/lact/.cache_inductor_llm/ri/crixdctabj6ydpsi7ugrknmmoygrxr7k3xn32dbjtobvtorrqvlt.py":27:35)
#loc16 = loc("/NHNHOME/WORKSPACE/26msit001_A/jinhyeok/loop_TTT/lact/.cache_inductor_llm/ri/crixdctabj6ydpsi7ugrknmmoygrxr7k3xn32dbjtobvtorrqvlt.py":27:45)
#loc17 = loc("/NHNHOME/WORKSPACE/26msit001_A/jinhyeok/loop_TTT/lact/.cache_inductor_llm/ri/crixdctabj6ydpsi7ugrknmmoygrxr7k3xn32dbjtobvtorrqvlt.py":27:41)
#loc18 = loc("/NHNHOME/WORKSPACE/26msit001_A/jinhyeok/loop_TTT/lact/.cache_inductor_llm/ri/crixdctabj6ydpsi7ugrknmmoygrxr7k3xn32dbjtobvtorrqvlt.py":27:55)
#loc19 = loc("/NHNHOME/WORKSPACE/26msit001_A/jinhyeok/loop_TTT/lact/.cache_inductor_llm/ri/crixdctabj6ydpsi7ugrknmmoygrxr7k3xn32dbjtobvtorrqvlt.py":27:59)
#loc20 = loc("/NHNHOME/WORKSPACE/26msit001_A/jinhyeok/loop_TTT/lact/.cache_inductor_llm/ri/crixdctabj6ydpsi7ugrknmmoygrxr7k3xn32dbjtobvtorrqvlt.py":27:50)
#loc21 = loc("/NHNHOME/WORKSPACE/26msit001_A/jinhyeok/loop_TTT/lact/.cache_inductor_llm/ri/crixdctabj6ydpsi7ugrknmmoygrxr7k3xn32dbjtobvtorrqvlt.py":27:30)
#loc22 = loc("/NHNHOME/WORKSPACE/26msit001_A/jinhyeok/loop_TTT/lact/.cache_inductor_llm/ri/crixdctabj6ydpsi7ugrknmmoygrxr7k3xn32dbjtobvtorrqvlt.py":27:64)
#loc23 = loc("/NHNHOME/WORKSPACE/26msit001_A/jinhyeok/loop_TTT/lact/.cache_inductor_llm/ri/crixdctabj6ydpsi7ugrknmmoygrxr7k3xn32dbjtobvtorrqvlt.py":28:30)
#loc24 = loc("/NHNHOME/WORKSPACE/26msit001_A/jinhyeok/loop_TTT/lact/.cache_inductor_llm/ri/crixdctabj6ydpsi7ugrknmmoygrxr7k3xn32dbjtobvtorrqvlt.py":28:64)
#loc25 = loc("/NHNHOME/WORKSPACE/26msit001_A/jinhyeok/loop_TTT/lact/.cache_inductor_llm/ri/crixdctabj6ydpsi7ugrknmmoygrxr7k3xn32dbjtobvtorrqvlt.py":29:18)
#loc26 = loc("/NHNHOME/WORKSPACE/26msit001_A/jinhyeok/loop_TTT/lact/.cache_inductor_llm/ri/crixdctabj6ydpsi7ugrknmmoygrxr7k3xn32dbjtobvtorrqvlt.py":31:18)
#loc27 = loc("/NHNHOME/WORKSPACE/26msit001_A/jinhyeok/loop_TTT/lact/.cache_inductor_llm/ri/crixdctabj6ydpsi7ugrknmmoygrxr7k3xn32dbjtobvtorrqvlt.py":33:25)
#loc28 = loc("/NHNHOME/WORKSPACE/26msit001_A/jinhyeok/loop_TTT/lact/.cache_inductor_llm/ri/crixdctabj6ydpsi7ugrknmmoygrxr7k3xn32dbjtobvtorrqvlt.py":33:36)
#loc29 = loc("/NHNHOME/WORKSPACE/26msit001_A/jinhyeok/loop_TTT/lact/.cache_inductor_llm/ri/crixdctabj6ydpsi7ugrknmmoygrxr7k3xn32dbjtobvtorrqvlt.py":34:25)
#loc30 = loc("/NHNHOME/WORKSPACE/26msit001_A/jinhyeok/loop_TTT/lact/.cache_inductor_llm/ri/crixdctabj6ydpsi7ugrknmmoygrxr7k3xn32dbjtobvtorrqvlt.py":34:36)
#loc31 = loc("/NHNHOME/WORKSPACE/26msit001_A/jinhyeok/loop_TTT/lact/.cache_inductor_llm/ri/crixdctabj6ydpsi7ugrknmmoygrxr7k3xn32dbjtobvtorrqvlt.py":34:4)
#loc39 = loc("tmp0"(#loc2))
#loc40 = loc("tmp0"(#loc3))
#loc41 = loc("x1"(#loc4))
#loc42 = loc("x1"(#loc5))
#loc43 = loc("xoffset"(#loc6))
#loc44 = loc("xoffset"(#loc7))
#loc45 = loc("xindex"(#loc8))
#loc46 = loc("xindex"(#loc9))
#loc47 = loc("x2"(#loc10))
#loc48 = loc("x3"(#loc11))
#loc49 = loc("tmp0"(#loc12))
#loc50 = loc("tmp0"(#loc13))
#loc51 = loc("tmp0"(#loc14))
#loc52 = loc("tmp1"(#loc15))
#loc53 = loc("tmp1"(#loc16))
#loc54 = loc("tmp1"(#loc17))
#loc55 = loc("tmp1"(#loc18))
#loc56 = loc("tmp1"(#loc19))
#loc57 = loc("tmp1"(#loc20))
#loc58 = loc("tmp1"(#loc21))
#loc59 = loc("tmp1"(#loc22))
#loc60 = loc("tmp4"(#loc23))
#loc61 = loc("tmp4"(#loc24))
#loc62 = loc("tmp2"(#loc25))
#loc63 = loc("tmp5"(#loc26))
