#loc = loc("/NHNHOME/WORKSPACE/26msit001_A/jinhyeok/loop_TTT/lact/.cache_inductor_llm/ry/cryn4x2hh6nwfpolpkyxmasbm5zuevbm53mli3booh6qhsrtmvcs.py":18:0)
#loc1 = loc(unknown)
#loc22 = loc("/NHNHOME/WORKSPACE/26msit001_A/jinhyeok/loop_TTT/lact/.cache_inductor_llm/ry/cryn4x2hh6nwfpolpkyxmasbm5zuevbm53mli3booh6qhsrtmvcs.py":45:26)
#loc33 = loc("in_ptr0"(#loc))
#loc34 = loc("in_ptr1"(#loc))
#loc35 = loc("in_ptr2"(#loc))
#loc36 = loc("out_ptr1"(#loc))
#loc37 = loc("xnumel"(#loc))
#loc38 = loc("r0_numel"(#loc))
#loc58 = loc("tmp12"(#loc22))
#loc67 = loc(callsite(#loc1 at #loc58))
module {
  tt.func public @triton_per_fused_add_div_eq_masked_fill_mul_neg_sum_0(%in_ptr0: !tt.ptr<f32> {tt.divisibility = 16 : i32} loc("in_ptr0"(#loc)), %in_ptr1: !tt.ptr<f32> {tt.divisibility = 16 : i32} loc("in_ptr1"(#loc)), %in_ptr2: !tt.ptr<f32> {tt.divisibility = 16 : i32} loc("in_ptr2"(#loc)), %out_ptr1: !tt.ptr<f32> {tt.divisibility = 16 : i32} loc("out_ptr1"(#loc)), %xnumel: i32 {tt.divisibility = 16 : i32} loc("xnumel"(#loc)), %r0_numel: i32 {tt.divisibility = 16 : i32} loc("r0_numel"(#loc))) attributes {noinline = false} {
    %c192_i32 = arith.constant 192 : i32 loc(#loc1)
    %tmp15 = arith.constant dense<0.000000e+00> : tensor<1x1xf32> loc(#loc39)
    %tmp5 = arith.constant dense<9.99999974E-6> : tensor<1x1xf32> loc(#loc40)
    %cst = arith.constant dense<0.000000e+00> : tensor<1x256xf32> loc(#loc1)
    %r0_mask = arith.constant dense<192> : tensor<1x256xi32> loc(#loc41)
    %xoffset = tt.get_program_id x : i32 loc(#loc42)
    %r0_index = tt.make_range {end = 256 : i32, start = 0 : i32} : tensor<256xi32> loc(#loc43)
    %r0_index_0 = tt.expand_dims %r0_index {axis = 0 : i32} : tensor<256xi32> -> tensor<1x256xi32> loc(#loc44)
    %r0_mask_1 = arith.cmpi slt, %r0_index_0, %r0_mask : tensor<1x256xi32> loc(#loc41)
    %tmp0 = arith.muli %xoffset, %c192_i32 : i32 loc(#loc45)
    %tmp0_2 = tt.splat %tmp0 : i32 -> tensor<1x256xi32> loc(#loc65)
    %tmp0_3 = arith.addi %r0_index_0, %tmp0_2 : tensor<1x256xi32> loc(#loc46)
    %tmp0_4 = tt.splat %in_ptr0 : !tt.ptr<f32> -> tensor<1x256x!tt.ptr<f32>> loc(#loc47)
    %tmp0_5 = tt.addptr %tmp0_4, %tmp0_3 : tensor<1x256x!tt.ptr<f32>>, tensor<1x256xi32> loc(#loc47)
    %tmp0_6 = tt.load %tmp0_5, %r0_mask_1, %cst : tensor<1x256x!tt.ptr<f32>> loc(#loc48)
    %tmp2 = tt.splat %in_ptr1 : !tt.ptr<f32> -> tensor<1x256x!tt.ptr<f32>> loc(#loc49)
    %tmp2_7 = tt.addptr %tmp2, %tmp0_3 : tensor<1x256x!tt.ptr<f32>>, tensor<1x256xi32> loc(#loc49)
    %tmp2_8 = tt.load %tmp2_7, %r0_mask_1, %cst : tensor<1x256x!tt.ptr<f32>> loc(#loc50)
    %tmp3 = tt.addptr %in_ptr2, %xoffset : !tt.ptr<f32>, i32 loc(#loc51)
    %tmp3_9 = tt.splat %tmp3 : !tt.ptr<f32> -> tensor<1x1x!tt.ptr<f32>> loc(#loc51)
    %tmp3_10 = tt.load %tmp3_9 evictionPolicy = evict_last : tensor<1x1x!tt.ptr<f32>> loc(#loc52)
    %tmp1 = arith.subf %cst, %tmp0_6 : tensor<1x256xf32> loc(#loc53)
    %tmp5_11 = arith.addf %tmp3_10, %tmp5 : tensor<1x1xf32> loc(#loc40)
    %tmp6 = tt.broadcast %tmp5_11 : tensor<1x1xf32> -> tensor<1x256xf32> loc(#loc54)
    %tmp6_12 = arith.divf %tmp2_8, %tmp6 : tensor<1x256xf32> loc(#loc54)
    %tmp7 = arith.divf %tmp6_12, %tmp6 : tensor<1x256xf32> loc(#loc55)
    %tmp8 = arith.mulf %tmp1, %tmp7 : tensor<1x256xf32> loc(#loc56)
    %tmp11 = arith.select %r0_mask_1, %tmp8, %cst : tensor<1x256xi1>, tensor<1x256xf32> loc(#loc57)
    %tmp12 = "tt.reduce"(%tmp11) <{axis = 1 : i32}> ({
    ^bb0(%tmp12_18: f32 loc(callsite(#loc1 at #loc58)), %tmp12_19: f32 loc(callsite(#loc1 at #loc58))):
      %tmp12_20 = arith.addf %tmp12_18, %tmp12_19 : f32 loc(#loc68)
      tt.reduce.return %tmp12_20 : f32 loc(#loc66)
    }) : (tensor<1x256xf32>) -> tensor<1xf32> loc(#loc66)
    %tmp12_13 = tt.expand_dims %tmp12 {axis = 1 : i32} : tensor<1xf32> -> tensor<1x1xf32> loc(#loc59)
    %tmp13 = arith.divf %tmp0_6, %tmp6 : tensor<1x256xf32> loc(#loc60)
    %tmp15_14 = arith.cmpf oeq, %tmp3_10, %tmp15 : tensor<1x1xf32> loc(#loc39)
    %tmp16 = tt.broadcast %tmp3_10 : tensor<1x1xf32> -> tensor<1x256xf32> loc(#loc61)
    %tmp16_15 = arith.divf %tmp2_8, %tmp16 : tensor<1x256xf32> loc(#loc61)
    %tmp17 = tt.broadcast %tmp15_14 : tensor<1x1xi1> -> tensor<1x256xi1> loc(#loc62)
    %tmp17_16 = arith.select %tmp17, %cst, %tmp16_15 : tensor<1x256xi1>, tensor<1x256xf32> loc(#loc62)
    %tmp18 = tt.broadcast %tmp12_13 : tensor<1x1xf32> -> tensor<1x256xf32> loc(#loc63)
    %tmp18_17 = arith.mulf %tmp18, %tmp17_16 : tensor<1x256xf32> loc(#loc63)
    %tmp19 = arith.addf %tmp13, %tmp18_17 : tensor<1x256xf32> loc(#loc64)
    %0 = tt.splat %out_ptr1 : !tt.ptr<f32> -> tensor<1x256x!tt.ptr<f32>> loc(#loc30)
    %1 = tt.addptr %0, %tmp0_3 : tensor<1x256x!tt.ptr<f32>>, tensor<1x256xi32> loc(#loc30)
    tt.store %1, %tmp19, %r0_mask_1 : tensor<1x256x!tt.ptr<f32>> loc(#loc31)
    tt.return loc(#loc32)
  } loc(#loc)
} loc(#loc)
#loc2 = loc("/NHNHOME/WORKSPACE/26msit001_A/jinhyeok/loop_TTT/lact/.cache_inductor_llm/ry/cryn4x2hh6nwfpolpkyxmasbm5zuevbm53mli3booh6qhsrtmvcs.py":48:20)
#loc3 = loc("/NHNHOME/WORKSPACE/26msit001_A/jinhyeok/loop_TTT/lact/.cache_inductor_llm/ry/cryn4x2hh6nwfpolpkyxmasbm5zuevbm53mli3booh6qhsrtmvcs.py":39:18)
#loc4 = loc("/NHNHOME/WORKSPACE/26msit001_A/jinhyeok/loop_TTT/lact/.cache_inductor_llm/ry/cryn4x2hh6nwfpolpkyxmasbm5zuevbm53mli3booh6qhsrtmvcs.py":29:25)
#loc5 = loc("/NHNHOME/WORKSPACE/26msit001_A/jinhyeok/loop_TTT/lact/.cache_inductor_llm/ry/cryn4x2hh6nwfpolpkyxmasbm5zuevbm53mli3booh6qhsrtmvcs.py":24:28)
#loc6 = loc("/NHNHOME/WORKSPACE/26msit001_A/jinhyeok/loop_TTT/lact/.cache_inductor_llm/ry/cryn4x2hh6nwfpolpkyxmasbm5zuevbm53mli3booh6qhsrtmvcs.py":27:28)
#loc7 = loc("/NHNHOME/WORKSPACE/26msit001_A/jinhyeok/loop_TTT/lact/.cache_inductor_llm/ry/cryn4x2hh6nwfpolpkyxmasbm5zuevbm53mli3booh6qhsrtmvcs.py":27:38)
#loc8 = loc("/NHNHOME/WORKSPACE/26msit001_A/jinhyeok/loop_TTT/lact/.cache_inductor_llm/ry/cryn4x2hh6nwfpolpkyxmasbm5zuevbm53mli3booh6qhsrtmvcs.py":34:41)
#loc9 = loc("/NHNHOME/WORKSPACE/26msit001_A/jinhyeok/loop_TTT/lact/.cache_inductor_llm/ry/cryn4x2hh6nwfpolpkyxmasbm5zuevbm53mli3booh6qhsrtmvcs.py":34:37)
#loc10 = loc("/NHNHOME/WORKSPACE/26msit001_A/jinhyeok/loop_TTT/lact/.cache_inductor_llm/ry/cryn4x2hh6nwfpolpkyxmasbm5zuevbm53mli3booh6qhsrtmvcs.py":34:30)
#loc11 = loc("/NHNHOME/WORKSPACE/26msit001_A/jinhyeok/loop_TTT/lact/.cache_inductor_llm/ry/cryn4x2hh6nwfpolpkyxmasbm5zuevbm53mli3booh6qhsrtmvcs.py":34:46)
#loc12 = loc("/NHNHOME/WORKSPACE/26msit001_A/jinhyeok/loop_TTT/lact/.cache_inductor_llm/ry/cryn4x2hh6nwfpolpkyxmasbm5zuevbm53mli3booh6qhsrtmvcs.py":35:30)
#loc13 = loc("/NHNHOME/WORKSPACE/26msit001_A/jinhyeok/loop_TTT/lact/.cache_inductor_llm/ry/cryn4x2hh6nwfpolpkyxmasbm5zuevbm53mli3booh6qhsrtmvcs.py":35:46)
#loc14 = loc("/NHNHOME/WORKSPACE/26msit001_A/jinhyeok/loop_TTT/lact/.cache_inductor_llm/ry/cryn4x2hh6nwfpolpkyxmasbm5zuevbm53mli3booh6qhsrtmvcs.py":36:30)
#loc15 = loc("/NHNHOME/WORKSPACE/26msit001_A/jinhyeok/loop_TTT/lact/.cache_inductor_llm/ry/cryn4x2hh6nwfpolpkyxmasbm5zuevbm53mli3booh6qhsrtmvcs.py":36:35)
#loc16 = loc("/NHNHOME/WORKSPACE/26msit001_A/jinhyeok/loop_TTT/lact/.cache_inductor_llm/ry/cryn4x2hh6nwfpolpkyxmasbm5zuevbm53mli3booh6qhsrtmvcs.py":37:12)
#loc17 = loc("/NHNHOME/WORKSPACE/26msit001_A/jinhyeok/loop_TTT/lact/.cache_inductor_llm/ry/cryn4x2hh6nwfpolpkyxmasbm5zuevbm53mli3booh6qhsrtmvcs.py":40:19)
#loc18 = loc("/NHNHOME/WORKSPACE/26msit001_A/jinhyeok/loop_TTT/lact/.cache_inductor_llm/ry/cryn4x2hh6nwfpolpkyxmasbm5zuevbm53mli3booh6qhsrtmvcs.py":41:19)
#loc19 = loc("/NHNHOME/WORKSPACE/26msit001_A/jinhyeok/loop_TTT/lact/.cache_inductor_llm/ry/cryn4x2hh6nwfpolpkyxmasbm5zuevbm53mli3booh6qhsrtmvcs.py":42:18)
#loc20 = loc("/NHNHOME/WORKSPACE/26msit001_A/jinhyeok/loop_TTT/lact/.cache_inductor_llm/ry/cryn4x2hh6nwfpolpkyxmasbm5zuevbm53mli3booh6qhsrtmvcs.py":44:36)
#loc21 = loc("/NHNHOME/WORKSPACE/26msit001_A/jinhyeok/TTT_camera_embedding/.venv_llm/lib/python3.12/site-packages/triton/language/standard.py":291:36)
#loc23 = loc("/NHNHOME/WORKSPACE/26msit001_A/jinhyeok/TTT_camera_embedding/.venv_llm/lib/python3.12/site-packages/triton/language/standard.py":261:15)
#loc24 = loc("/NHNHOME/WORKSPACE/26msit001_A/jinhyeok/loop_TTT/lact/.cache_inductor_llm/ry/cryn4x2hh6nwfpolpkyxmasbm5zuevbm53mli3booh6qhsrtmvcs.py":45:29)
#loc25 = loc("/NHNHOME/WORKSPACE/26msit001_A/jinhyeok/loop_TTT/lact/.cache_inductor_llm/ry/cryn4x2hh6nwfpolpkyxmasbm5zuevbm53mli3booh6qhsrtmvcs.py":46:20)
#loc26 = loc("/NHNHOME/WORKSPACE/26msit001_A/jinhyeok/loop_TTT/lact/.cache_inductor_llm/ry/cryn4x2hh6nwfpolpkyxmasbm5zuevbm53mli3booh6qhsrtmvcs.py":49:20)
#loc27 = loc("/NHNHOME/WORKSPACE/26msit001_A/jinhyeok/loop_TTT/lact/.cache_inductor_llm/ry/cryn4x2hh6nwfpolpkyxmasbm5zuevbm53mli3booh6qhsrtmvcs.py":50:35)
#loc28 = loc("/NHNHOME/WORKSPACE/26msit001_A/jinhyeok/loop_TTT/lact/.cache_inductor_llm/ry/cryn4x2hh6nwfpolpkyxmasbm5zuevbm53mli3booh6qhsrtmvcs.py":51:20)
#loc29 = loc("/NHNHOME/WORKSPACE/26msit001_A/jinhyeok/loop_TTT/lact/.cache_inductor_llm/ry/cryn4x2hh6nwfpolpkyxmasbm5zuevbm53mli3booh6qhsrtmvcs.py":52:20)
#loc30 = loc("/NHNHOME/WORKSPACE/26msit001_A/jinhyeok/loop_TTT/lact/.cache_inductor_llm/ry/cryn4x2hh6nwfpolpkyxmasbm5zuevbm53mli3booh6qhsrtmvcs.py":53:25)
#loc31 = loc("/NHNHOME/WORKSPACE/26msit001_A/jinhyeok/loop_TTT/lact/.cache_inductor_llm/ry/cryn4x2hh6nwfpolpkyxmasbm5zuevbm53mli3booh6qhsrtmvcs.py":53:48)
#loc32 = loc("/NHNHOME/WORKSPACE/26msit001_A/jinhyeok/loop_TTT/lact/.cache_inductor_llm/ry/cryn4x2hh6nwfpolpkyxmasbm5zuevbm53mli3booh6qhsrtmvcs.py":53:4)
#loc39 = loc("tmp15"(#loc2))
#loc40 = loc("tmp5"(#loc3))
#loc41 = loc("r0_mask"(#loc4))
#loc42 = loc("xoffset"(#loc5))
#loc43 = loc("r0_index"(#loc6))
#loc44 = loc("r0_index"(#loc7))
#loc45 = loc("tmp0"(#loc8))
#loc46 = loc("tmp0"(#loc9))
#loc47 = loc("tmp0"(#loc10))
#loc48 = loc("tmp0"(#loc11))
#loc49 = loc("tmp2"(#loc12))
#loc50 = loc("tmp2"(#loc13))
#loc51 = loc("tmp3"(#loc14))
#loc52 = loc("tmp3"(#loc15))
#loc53 = loc("tmp1"(#loc16))
#loc54 = loc("tmp6"(#loc17))
#loc55 = loc("tmp7"(#loc18))
#loc56 = loc("tmp8"(#loc19))
#loc57 = loc("tmp11"(#loc20))
#loc59 = loc("tmp12"(#loc24))
#loc60 = loc("tmp13"(#loc25))
#loc61 = loc("tmp16"(#loc26))
#loc62 = loc("tmp17"(#loc27))
#loc63 = loc("tmp18"(#loc28))
#loc64 = loc("tmp19"(#loc29))
#loc65 = loc(fused[#loc46, #loc45])
#loc66 = loc(callsite(#loc21 at #loc58))
#loc68 = loc(callsite(#loc23 at #loc66))
