#loc = loc("/NHNHOME/WORKSPACE/26msit001_A/jinhyeok/loop_TTT/lact/.cache_inductor_llm/yv/cyvrnhv5dtd62uwei3sxrh7jmotdj4ces4bzd42ry7fh3ukhefu5.py":18:0)
#loc35 = loc("in_ptr0"(#loc))
#loc36 = loc("in_ptr1"(#loc))
#loc37 = loc("in_ptr2"(#loc))
#loc38 = loc("in_ptr3"(#loc))
#loc39 = loc("in_ptr4"(#loc))
#loc40 = loc("out_ptr0"(#loc))
#loc41 = loc("out_ptr1"(#loc))
#loc42 = loc("out_ptr2"(#loc))
#loc43 = loc("xnumel"(#loc))
module {
  tt.func public @triton_poi_fused__to_copy_add_div_linalg_vector_norm_mean_mul_slice_zeros_like_34(%in_ptr0: !tt.ptr<bf16> {tt.divisibility = 16 : i32} loc("in_ptr0"(#loc)), %in_ptr1: !tt.ptr<bf16> {tt.divisibility = 16 : i32} loc("in_ptr1"(#loc)), %in_ptr2: !tt.ptr<f32> {tt.divisibility = 16 : i32} loc("in_ptr2"(#loc)), %in_ptr3: !tt.ptr<f32> {tt.divisibility = 16 : i32} loc("in_ptr3"(#loc)), %in_ptr4: !tt.ptr<f32> {tt.divisibility = 16 : i32} loc("in_ptr4"(#loc)), %out_ptr0: !tt.ptr<f32> {tt.divisibility = 16 : i32} loc("out_ptr0"(#loc)), %out_ptr1: !tt.ptr<bf16> {tt.divisibility = 16 : i32} loc("out_ptr1"(#loc)), %out_ptr2: !tt.ptr<bf16> {tt.divisibility = 16 : i32} loc("out_ptr2"(#loc)), %xnumel: i32 {tt.divisibility = 16 : i32} loc("xnumel"(#loc))) attributes {noinline = false} {
    %tmp19 = arith.constant dense<1.000000e-07> : tensor<512xf32> loc(#loc44)
    %tmp8 = arith.constant dense<0.000000e+00> : tensor<512xf32> loc(#loc45)
    %cst = arith.constant dense<1.024000e+03> : tensor<512xf32> loc(#loc3)
    %x1 = arith.constant dense<36864> : tensor<512xi32> loc(#loc46)
    %c512_i32 = arith.constant 512 : i32 loc(#loc3)
    %xoffset = tt.get_program_id x : i32 loc(#loc47)
    %xoffset_0 = arith.muli %xoffset, %c512_i32 : i32 loc(#loc48)
    %xindex = tt.make_range {end = 512 : i32, start = 0 : i32} : tensor<512xi32> loc(#loc49)
    %xindex_1 = tt.splat %xoffset_0 : i32 -> tensor<512xi32> loc(#loc50)
    %xindex_2 = arith.addi %xindex_1, %xindex : tensor<512xi32> loc(#loc50)
    %x1_3 = arith.divsi %xindex_2, %x1 : tensor<512xi32> loc(#loc46)
    %tmp0 = tt.splat %in_ptr0 : !tt.ptr<bf16> -> tensor<512x!tt.ptr<bf16>> loc(#loc51)
    %tmp0_4 = tt.addptr %tmp0, %xindex_2 : tensor<512x!tt.ptr<bf16>>, tensor<512xi32> loc(#loc51)
    %tmp0_5 = tt.load %tmp0_4 : tensor<512x!tt.ptr<bf16>> loc(#loc52)
    %tmp0_6 = arith.extf %tmp0_5 : tensor<512xbf16> to tensor<512xf32> loc(#loc53)
    %tmp2 = tt.splat %in_ptr1 : !tt.ptr<bf16> -> tensor<512x!tt.ptr<bf16>> loc(#loc54)
    %tmp2_7 = tt.addptr %tmp2, %xindex_2 : tensor<512x!tt.ptr<bf16>>, tensor<512xi32> loc(#loc54)
    %tmp2_8 = tt.load %tmp2_7 : tensor<512x!tt.ptr<bf16>> loc(#loc55)
    %tmp2_9 = arith.extf %tmp2_8 : tensor<512xbf16> to tensor<512xf32> loc(#loc56)
    %tmp4 = tt.splat %in_ptr2 : !tt.ptr<f32> -> tensor<512x!tt.ptr<f32>> loc(#loc57)
    %tmp4_10 = tt.addptr %tmp4, %x1_3 : tensor<512x!tt.ptr<f32>>, tensor<512xi32> loc(#loc57)
    %tmp4_11 = tt.load %tmp4_10 evictionPolicy = evict_last : tensor<512x!tt.ptr<f32>> loc(#loc58)
    %tmp10 = tt.splat %in_ptr3 : !tt.ptr<f32> -> tensor<512x!tt.ptr<f32>> loc(#loc59)
    %tmp10_12 = tt.addptr %tmp10, %x1_3 : tensor<512x!tt.ptr<f32>>, tensor<512xi32> loc(#loc59)
    %tmp10_13 = tt.load %tmp10_12 evictionPolicy = evict_last : tensor<512x!tt.ptr<f32>> loc(#loc60)
    %tmp16 = tt.splat %in_ptr4 : !tt.ptr<f32> -> tensor<512x!tt.ptr<f32>> loc(#loc61)
    %tmp16_14 = tt.addptr %tmp16, %x1_3 : tensor<512x!tt.ptr<f32>>, tensor<512xi32> loc(#loc61)
    %tmp16_15 = tt.load %tmp16_14 evictionPolicy = evict_last : tensor<512x!tt.ptr<f32>> loc(#loc62)
    %tmp6 = arith.divf %tmp4_11, %cst : tensor<512xf32> loc(#loc63)
    %tmp8_16 = arith.mulf %tmp6, %tmp8 : tensor<512xf32> loc(#loc45)
    %tmp9 = arith.addf %tmp2_9, %tmp8_16 : tensor<512xf32> loc(#loc64)
    %tmp11 = arith.divf %tmp10_13, %cst : tensor<512xf32> loc(#loc65)
    %tmp12 = arith.mulf %tmp9, %tmp11 : tensor<512xf32> loc(#loc66)
    %tmp13 = arith.addf %tmp0_6, %tmp12 : tensor<512xf32> loc(#loc67)
    %tmp17 = tt.extern_elementwise %tmp16_15 {libname = "", libpath = "", pure = true, symbol = "__nv_sqrtf"} : (tensor<512xf32>) -> tensor<512xf32> loc(#loc68)
    %tmp19_17 = arith.addf %tmp17, %tmp19 : tensor<512xf32> loc(#loc44)
    %tmp20 = arith.divf %tmp13, %tmp19_17 : tensor<512xf32> loc(#loc69)
    %0 = tt.splat %out_ptr0 : !tt.ptr<f32> -> tensor<512x!tt.ptr<f32>> loc(#loc28)
    %1 = tt.addptr %0, %xindex_2 : tensor<512x!tt.ptr<f32>>, tensor<512xi32> loc(#loc28)
    tt.store %1, %tmp20 : tensor<512x!tt.ptr<f32>> loc(#loc29)
    %2 = tt.splat %out_ptr1 : !tt.ptr<bf16> -> tensor<512x!tt.ptr<bf16>> loc(#loc30)
    %3 = tt.addptr %2, %xindex_2 : tensor<512x!tt.ptr<bf16>>, tensor<512xi32> loc(#loc30)
    %4 = arith.truncf %tmp20 : tensor<512xf32> to tensor<512xbf16> loc(#loc31)
    tt.store %3, %4 : tensor<512x!tt.ptr<bf16>> loc(#loc31)
    %5 = tt.splat %out_ptr2 : !tt.ptr<bf16> -> tensor<512x!tt.ptr<bf16>> loc(#loc32)
    %6 = tt.addptr %5, %xindex_2 : tensor<512x!tt.ptr<bf16>>, tensor<512xi32> loc(#loc32)
    tt.store %6, %4 : tensor<512x!tt.ptr<bf16>> loc(#loc33)
    tt.return loc(#loc34)
  } loc(#loc)
} loc(#loc)
#loc1 = loc("/NHNHOME/WORKSPACE/26msit001_A/jinhyeok/loop_TTT/lact/.cache_inductor_llm/yv/cyvrnhv5dtd62uwei3sxrh7jmotdj4ces4bzd42ry7fh3ukhefu5.py":43:20)
#loc2 = loc("/NHNHOME/WORKSPACE/26msit001_A/jinhyeok/loop_TTT/lact/.cache_inductor_llm/yv/cyvrnhv5dtd62uwei3sxrh7jmotdj4ces4bzd42ry7fh3ukhefu5.py":34:18)
#loc3 = loc(unknown)
#loc4 = loc("/NHNHOME/WORKSPACE/26msit001_A/jinhyeok/loop_TTT/lact/.cache_inductor_llm/yv/cyvrnhv5dtd62uwei3sxrh7jmotdj4ces4bzd42ry7fh3ukhefu5.py":23:19)
#loc5 = loc("/NHNHOME/WORKSPACE/26msit001_A/jinhyeok/loop_TTT/lact/.cache_inductor_llm/yv/cyvrnhv5dtd62uwei3sxrh7jmotdj4ces4bzd42ry7fh3ukhefu5.py":19:28)
#loc6 = loc("/NHNHOME/WORKSPACE/26msit001_A/jinhyeok/loop_TTT/lact/.cache_inductor_llm/yv/cyvrnhv5dtd62uwei3sxrh7jmotdj4ces4bzd42ry7fh3ukhefu5.py":19:33)
#loc7 = loc("/NHNHOME/WORKSPACE/26msit001_A/jinhyeok/loop_TTT/lact/.cache_inductor_llm/yv/cyvrnhv5dtd62uwei3sxrh7jmotdj4ces4bzd42ry7fh3ukhefu5.py":20:36)
#loc8 = loc("/NHNHOME/WORKSPACE/26msit001_A/jinhyeok/loop_TTT/lact/.cache_inductor_llm/yv/cyvrnhv5dtd62uwei3sxrh7jmotdj4ces4bzd42ry7fh3ukhefu5.py":20:23)
#loc9 = loc("/NHNHOME/WORKSPACE/26msit001_A/jinhyeok/loop_TTT/lact/.cache_inductor_llm/yv/cyvrnhv5dtd62uwei3sxrh7jmotdj4ces4bzd42ry7fh3ukhefu5.py":24:30)
#loc10 = loc("/NHNHOME/WORKSPACE/26msit001_A/jinhyeok/loop_TTT/lact/.cache_inductor_llm/yv/cyvrnhv5dtd62uwei3sxrh7jmotdj4ces4bzd42ry7fh3ukhefu5.py":24:35)
#loc11 = loc("/NHNHOME/WORKSPACE/26msit001_A/jinhyeok/loop_TTT/lact/.cache_inductor_llm/yv/cyvrnhv5dtd62uwei3sxrh7jmotdj4ces4bzd42ry7fh3ukhefu5.py":24:44)
#loc12 = loc("/NHNHOME/WORKSPACE/26msit001_A/jinhyeok/loop_TTT/lact/.cache_inductor_llm/yv/cyvrnhv5dtd62uwei3sxrh7jmotdj4ces4bzd42ry7fh3ukhefu5.py":25:30)
#loc13 = loc("/NHNHOME/WORKSPACE/26msit001_A/jinhyeok/loop_TTT/lact/.cache_inductor_llm/yv/cyvrnhv5dtd62uwei3sxrh7jmotdj4ces4bzd42ry7fh3ukhefu5.py":25:35)
#loc14 = loc("/NHNHOME/WORKSPACE/26msit001_A/jinhyeok/loop_TTT/lact/.cache_inductor_llm/yv/cyvrnhv5dtd62uwei3sxrh7jmotdj4ces4bzd42ry7fh3ukhefu5.py":25:44)
#loc15 = loc("/NHNHOME/WORKSPACE/26msit001_A/jinhyeok/loop_TTT/lact/.cache_inductor_llm/yv/cyvrnhv5dtd62uwei3sxrh7jmotdj4ces4bzd42ry7fh3ukhefu5.py":26:30)
#loc16 = loc("/NHNHOME/WORKSPACE/26msit001_A/jinhyeok/loop_TTT/lact/.cache_inductor_llm/yv/cyvrnhv5dtd62uwei3sxrh7jmotdj4ces4bzd42ry7fh3ukhefu5.py":26:35)
#loc17 = loc("/NHNHOME/WORKSPACE/26msit001_A/jinhyeok/loop_TTT/lact/.cache_inductor_llm/yv/cyvrnhv5dtd62uwei3sxrh7jmotdj4ces4bzd42ry7fh3ukhefu5.py":27:31)
#loc18 = loc("/NHNHOME/WORKSPACE/26msit001_A/jinhyeok/loop_TTT/lact/.cache_inductor_llm/yv/cyvrnhv5dtd62uwei3sxrh7jmotdj4ces4bzd42ry7fh3ukhefu5.py":27:36)
#loc19 = loc("/NHNHOME/WORKSPACE/26msit001_A/jinhyeok/loop_TTT/lact/.cache_inductor_llm/yv/cyvrnhv5dtd62uwei3sxrh7jmotdj4ces4bzd42ry7fh3ukhefu5.py":28:31)
#loc20 = loc("/NHNHOME/WORKSPACE/26msit001_A/jinhyeok/loop_TTT/lact/.cache_inductor_llm/yv/cyvrnhv5dtd62uwei3sxrh7jmotdj4ces4bzd42ry7fh3ukhefu5.py":28:36)
#loc21 = loc("/NHNHOME/WORKSPACE/26msit001_A/jinhyeok/loop_TTT/lact/.cache_inductor_llm/yv/cyvrnhv5dtd62uwei3sxrh7jmotdj4ces4bzd42ry7fh3ukhefu5.py":32:19)
#loc22 = loc("/NHNHOME/WORKSPACE/26msit001_A/jinhyeok/loop_TTT/lact/.cache_inductor_llm/yv/cyvrnhv5dtd62uwei3sxrh7jmotdj4ces4bzd42ry7fh3ukhefu5.py":35:18)
#loc23 = loc("/NHNHOME/WORKSPACE/26msit001_A/jinhyeok/loop_TTT/lact/.cache_inductor_llm/yv/cyvrnhv5dtd62uwei3sxrh7jmotdj4ces4bzd42ry7fh3ukhefu5.py":36:21)
#loc24 = loc("/NHNHOME/WORKSPACE/26msit001_A/jinhyeok/loop_TTT/lact/.cache_inductor_llm/yv/cyvrnhv5dtd62uwei3sxrh7jmotdj4ces4bzd42ry7fh3ukhefu5.py":37:19)
#loc25 = loc("/NHNHOME/WORKSPACE/26msit001_A/jinhyeok/loop_TTT/lact/.cache_inductor_llm/yv/cyvrnhv5dtd62uwei3sxrh7jmotdj4ces4bzd42ry7fh3ukhefu5.py":38:19)
#loc26 = loc("/NHNHOME/WORKSPACE/26msit001_A/jinhyeok/loop_TTT/lact/.cache_inductor_llm/yv/cyvrnhv5dtd62uwei3sxrh7jmotdj4ces4bzd42ry7fh3ukhefu5.py":41:27)
#loc27 = loc("/NHNHOME/WORKSPACE/26msit001_A/jinhyeok/loop_TTT/lact/.cache_inductor_llm/yv/cyvrnhv5dtd62uwei3sxrh7jmotdj4ces4bzd42ry7fh3ukhefu5.py":44:21)
#loc28 = loc("/NHNHOME/WORKSPACE/26msit001_A/jinhyeok/loop_TTT/lact/.cache_inductor_llm/yv/cyvrnhv5dtd62uwei3sxrh7jmotdj4ces4bzd42ry7fh3ukhefu5.py":46:25)
#loc29 = loc("/NHNHOME/WORKSPACE/26msit001_A/jinhyeok/loop_TTT/lact/.cache_inductor_llm/yv/cyvrnhv5dtd62uwei3sxrh7jmotdj4ces4bzd42ry7fh3ukhefu5.py":46:37)
#loc30 = loc("/NHNHOME/WORKSPACE/26msit001_A/jinhyeok/loop_TTT/lact/.cache_inductor_llm/yv/cyvrnhv5dtd62uwei3sxrh7jmotdj4ces4bzd42ry7fh3ukhefu5.py":47:25)
#loc31 = loc("/NHNHOME/WORKSPACE/26msit001_A/jinhyeok/loop_TTT/lact/.cache_inductor_llm/yv/cyvrnhv5dtd62uwei3sxrh7jmotdj4ces4bzd42ry7fh3ukhefu5.py":47:37)
#loc32 = loc("/NHNHOME/WORKSPACE/26msit001_A/jinhyeok/loop_TTT/lact/.cache_inductor_llm/yv/cyvrnhv5dtd62uwei3sxrh7jmotdj4ces4bzd42ry7fh3ukhefu5.py":48:25)
#loc33 = loc("/NHNHOME/WORKSPACE/26msit001_A/jinhyeok/loop_TTT/lact/.cache_inductor_llm/yv/cyvrnhv5dtd62uwei3sxrh7jmotdj4ces4bzd42ry7fh3ukhefu5.py":48:37)
#loc34 = loc("/NHNHOME/WORKSPACE/26msit001_A/jinhyeok/loop_TTT/lact/.cache_inductor_llm/yv/cyvrnhv5dtd62uwei3sxrh7jmotdj4ces4bzd42ry7fh3ukhefu5.py":48:4)
#loc44 = loc("tmp19"(#loc1))
#loc45 = loc("tmp8"(#loc2))
#loc46 = loc("x1"(#loc4))
#loc47 = loc("xoffset"(#loc5))
#loc48 = loc("xoffset"(#loc6))
#loc49 = loc("xindex"(#loc7))
#loc50 = loc("xindex"(#loc8))
#loc51 = loc("tmp0"(#loc9))
#loc52 = loc("tmp0"(#loc10))
#loc53 = loc("tmp0"(#loc11))
#loc54 = loc("tmp2"(#loc12))
#loc55 = loc("tmp2"(#loc13))
#loc56 = loc("tmp2"(#loc14))
#loc57 = loc("tmp4"(#loc15))
#loc58 = loc("tmp4"(#loc16))
#loc59 = loc("tmp10"(#loc17))
#loc60 = loc("tmp10"(#loc18))
#loc61 = loc("tmp16"(#loc19))
#loc62 = loc("tmp16"(#loc20))
#loc63 = loc("tmp6"(#loc21))
#loc64 = loc("tmp9"(#loc22))
#loc65 = loc("tmp11"(#loc23))
#loc66 = loc("tmp12"(#loc24))
#loc67 = loc("tmp13"(#loc25))
#loc68 = loc("tmp17"(#loc26))
#loc69 = loc("tmp20"(#loc27))
