#loc = loc("/NHNHOME/WORKSPACE/26msit001_A/jinhyeok/loop_TTT/lact/.cache_inductor_llm/yv/cyvrnhv5dtd62uwei3sxrh7jmotdj4ces4bzd42ry7fh3ukhefu5.py":18:0)
#loc38 = loc("in_ptr0"(#loc))
#loc39 = loc("in_ptr1"(#loc))
#loc40 = loc("in_ptr2"(#loc))
#loc41 = loc("in_ptr3"(#loc))
#loc42 = loc("in_ptr4"(#loc))
#loc43 = loc("out_ptr0"(#loc))
#loc44 = loc("out_ptr1"(#loc))
#loc45 = loc("out_ptr2"(#loc))
#loc46 = loc("xnumel"(#loc))
module {
  tt.func public @triton_poi_fused__to_copy_add_div_linalg_vector_norm_mean_mul_slice_zeros_like_34(%in_ptr0: !tt.ptr<bf16> {tt.divisibility = 16 : i32} loc("in_ptr0"(#loc)), %in_ptr1: !tt.ptr<bf16> {tt.divisibility = 16 : i32} loc("in_ptr1"(#loc)), %in_ptr2: !tt.ptr<f32> {tt.divisibility = 16 : i32} loc("in_ptr2"(#loc)), %in_ptr3: !tt.ptr<f32> {tt.divisibility = 16 : i32} loc("in_ptr3"(#loc)), %in_ptr4: !tt.ptr<f32> {tt.divisibility = 16 : i32} loc("in_ptr4"(#loc)), %out_ptr0: !tt.ptr<f32> {tt.divisibility = 16 : i32} loc("out_ptr0"(#loc)), %out_ptr1: !tt.ptr<bf16> {tt.divisibility = 16 : i32} loc("out_ptr1"(#loc)), %out_ptr2: !tt.ptr<bf16> {tt.divisibility = 16 : i32} loc("out_ptr2"(#loc)), %xnumel: i32 {tt.divisibility = 16 : i32} loc("xnumel"(#loc))) attributes {noinline = false} {
    %xoffset = tt.get_program_id x : i32 loc(#loc47)
    %xoffset_0 = arith.constant 512 : i32 loc(#loc48)
    %xoffset_1 = arith.constant 512 : i32 loc(#loc48)
    %xoffset_2 = arith.muli %xoffset, %xoffset_1 : i32 loc(#loc48)
    %xindex = tt.make_range {end = 512 : i32, start = 0 : i32} : tensor<512xi32> loc(#loc49)
    %xindex_3 = tt.splat %xoffset_2 : i32 -> tensor<512xi32> loc(#loc50)
    %xindex_4 = arith.addi %xindex_3, %xindex : tensor<512xi32> loc(#loc50)
    %xmask = arith.constant true loc(#loc51)
    %xmask_5 = arith.constant dense<true> : tensor<512xi1> loc(#loc51)
    %x1 = arith.constant 36864 : i32 loc(#loc52)
    %x1_6 = arith.constant 36864 : i32 loc(#loc52)
    %x1_7 = arith.constant dense<36864> : tensor<512xi32> loc(#loc52)
    %x1_8 = arith.divsi %xindex_4, %x1_7 : tensor<512xi32> loc(#loc52)
    %tmp0 = tt.splat %in_ptr0 : !tt.ptr<bf16> -> tensor<512x!tt.ptr<bf16>> loc(#loc53)
    %tmp0_9 = tt.addptr %tmp0, %xindex_4 : tensor<512x!tt.ptr<bf16>>, tensor<512xi32> loc(#loc53)
    %tmp0_10 = tt.load %tmp0_9 : tensor<512x!tt.ptr<bf16>> loc(#loc54)
    %tmp0_11 = arith.extf %tmp0_10 : tensor<512xbf16> to tensor<512xf32> loc(#loc55)
    %tmp2 = tt.splat %in_ptr1 : !tt.ptr<bf16> -> tensor<512x!tt.ptr<bf16>> loc(#loc56)
    %tmp2_12 = tt.addptr %tmp2, %xindex_4 : tensor<512x!tt.ptr<bf16>>, tensor<512xi32> loc(#loc56)
    %tmp2_13 = tt.load %tmp2_12 : tensor<512x!tt.ptr<bf16>> loc(#loc57)
    %tmp2_14 = arith.extf %tmp2_13 : tensor<512xbf16> to tensor<512xf32> loc(#loc58)
    %tmp4 = tt.splat %in_ptr2 : !tt.ptr<f32> -> tensor<512x!tt.ptr<f32>> loc(#loc59)
    %tmp4_15 = tt.addptr %tmp4, %x1_8 : tensor<512x!tt.ptr<f32>>, tensor<512xi32> loc(#loc59)
    %tmp4_16 = tt.load %tmp4_15 evictionPolicy = evict_last : tensor<512x!tt.ptr<f32>> loc(#loc60)
    %tmp10 = tt.splat %in_ptr3 : !tt.ptr<f32> -> tensor<512x!tt.ptr<f32>> loc(#loc61)
    %tmp10_17 = tt.addptr %tmp10, %x1_8 : tensor<512x!tt.ptr<f32>>, tensor<512xi32> loc(#loc61)
    %tmp10_18 = tt.load %tmp10_17 evictionPolicy = evict_last : tensor<512x!tt.ptr<f32>> loc(#loc62)
    %tmp16 = tt.splat %in_ptr4 : !tt.ptr<f32> -> tensor<512x!tt.ptr<f32>> loc(#loc63)
    %tmp16_19 = tt.addptr %tmp16, %x1_8 : tensor<512x!tt.ptr<f32>>, tensor<512xi32> loc(#loc63)
    %tmp16_20 = tt.load %tmp16_19 evictionPolicy = evict_last : tensor<512x!tt.ptr<f32>> loc(#loc64)
    %tmp5 = arith.constant 1.024000e+03 : f32 loc(#loc65)
    %tmp6 = arith.constant dense<1.024000e+03> : tensor<512xf32> loc(#loc66)
    %tmp6_21 = arith.divf %tmp4_16, %tmp6 : tensor<512xf32> loc(#loc66)
    %tmp7 = arith.constant 0.000000e+00 : f32 loc(#loc67)
    %tmp8 = arith.constant dense<0.000000e+00> : tensor<512xf32> loc(#loc68)
    %tmp8_22 = arith.mulf %tmp8, %tmp6_21 : tensor<512xf32> loc(#loc68)
    %tmp9 = arith.addf %tmp2_14, %tmp8_22 : tensor<512xf32> loc(#loc69)
    %tmp11 = arith.constant dense<1.024000e+03> : tensor<512xf32> loc(#loc70)
    %tmp11_23 = arith.divf %tmp10_18, %tmp11 : tensor<512xf32> loc(#loc70)
    %tmp12 = arith.mulf %tmp9, %tmp11_23 : tensor<512xf32> loc(#loc71)
    %tmp13 = arith.addf %tmp0_11, %tmp12 : tensor<512xf32> loc(#loc72)
    %tmp17 = tt.extern_elementwise %tmp16_20 {libname = "", libpath = "", pure = true, symbol = "__nv_sqrtf"} : (tensor<512xf32>) -> tensor<512xf32> loc(#loc73)
    %tmp18 = arith.constant 1.000000e-07 : f32 loc(#loc74)
    %tmp19 = arith.constant dense<1.000000e-07> : tensor<512xf32> loc(#loc75)
    %tmp19_24 = arith.addf %tmp17, %tmp19 : tensor<512xf32> loc(#loc75)
    %tmp20 = arith.divf %tmp13, %tmp19_24 : tensor<512xf32> loc(#loc76)
    %0 = tt.splat %out_ptr0 : !tt.ptr<f32> -> tensor<512x!tt.ptr<f32>> loc(#loc31)
    %1 = tt.addptr %0, %xindex_4 : tensor<512x!tt.ptr<f32>>, tensor<512xi32> loc(#loc31)
    tt.store %1, %tmp20 : tensor<512x!tt.ptr<f32>> loc(#loc32)
    %2 = tt.splat %out_ptr1 : !tt.ptr<bf16> -> tensor<512x!tt.ptr<bf16>> loc(#loc33)
    %3 = tt.addptr %2, %xindex_4 : tensor<512x!tt.ptr<bf16>>, tensor<512xi32> loc(#loc33)
    %4 = arith.truncf %tmp20 : tensor<512xf32> to tensor<512xbf16> loc(#loc34)
    tt.store %3, %4 : tensor<512x!tt.ptr<bf16>> loc(#loc34)
    %5 = tt.splat %out_ptr2 : !tt.ptr<bf16> -> tensor<512x!tt.ptr<bf16>> loc(#loc35)
    %6 = tt.addptr %5, %xindex_4 : tensor<512x!tt.ptr<bf16>>, tensor<512xi32> loc(#loc35)
    %7 = arith.truncf %tmp20 : tensor<512xf32> to tensor<512xbf16> loc(#loc36)
    tt.store %6, %7 : tensor<512x!tt.ptr<bf16>> loc(#loc36)
    tt.return loc(#loc37)
  } loc(#loc)
} loc(#loc)
#loc1 = loc("/NHNHOME/WORKSPACE/26msit001_A/jinhyeok/loop_TTT/lact/.cache_inductor_llm/yv/cyvrnhv5dtd62uwei3sxrh7jmotdj4ces4bzd42ry7fh3ukhefu5.py":19:28)
#loc2 = loc("/NHNHOME/WORKSPACE/26msit001_A/jinhyeok/loop_TTT/lact/.cache_inductor_llm/yv/cyvrnhv5dtd62uwei3sxrh7jmotdj4ces4bzd42ry7fh3ukhefu5.py":19:33)
#loc3 = loc("/NHNHOME/WORKSPACE/26msit001_A/jinhyeok/loop_TTT/lact/.cache_inductor_llm/yv/cyvrnhv5dtd62uwei3sxrh7jmotdj4ces4bzd42ry7fh3ukhefu5.py":20:36)
#loc4 = loc("/NHNHOME/WORKSPACE/26msit001_A/jinhyeok/loop_TTT/lact/.cache_inductor_llm/yv/cyvrnhv5dtd62uwei3sxrh7jmotdj4ces4bzd42ry7fh3ukhefu5.py":20:23)
#loc5 = loc("/NHNHOME/WORKSPACE/26msit001_A/jinhyeok/loop_TTT/lact/.cache_inductor_llm/yv/cyvrnhv5dtd62uwei3sxrh7jmotdj4ces4bzd42ry7fh3ukhefu5.py":21:36)
#loc6 = loc("/NHNHOME/WORKSPACE/26msit001_A/jinhyeok/loop_TTT/lact/.cache_inductor_llm/yv/cyvrnhv5dtd62uwei3sxrh7jmotdj4ces4bzd42ry7fh3ukhefu5.py":23:19)
#loc7 = loc("/NHNHOME/WORKSPACE/26msit001_A/jinhyeok/loop_TTT/lact/.cache_inductor_llm/yv/cyvrnhv5dtd62uwei3sxrh7jmotdj4ces4bzd42ry7fh3ukhefu5.py":24:30)
#loc8 = loc("/NHNHOME/WORKSPACE/26msit001_A/jinhyeok/loop_TTT/lact/.cache_inductor_llm/yv/cyvrnhv5dtd62uwei3sxrh7jmotdj4ces4bzd42ry7fh3ukhefu5.py":24:35)
#loc9 = loc("/NHNHOME/WORKSPACE/26msit001_A/jinhyeok/loop_TTT/lact/.cache_inductor_llm/yv/cyvrnhv5dtd62uwei3sxrh7jmotdj4ces4bzd42ry7fh3ukhefu5.py":24:44)
#loc10 = loc("/NHNHOME/WORKSPACE/26msit001_A/jinhyeok/loop_TTT/lact/.cache_inductor_llm/yv/cyvrnhv5dtd62uwei3sxrh7jmotdj4ces4bzd42ry7fh3ukhefu5.py":25:30)
#loc11 = loc("/NHNHOME/WORKSPACE/26msit001_A/jinhyeok/loop_TTT/lact/.cache_inductor_llm/yv/cyvrnhv5dtd62uwei3sxrh7jmotdj4ces4bzd42ry7fh3ukhefu5.py":25:35)
#loc12 = loc("/NHNHOME/WORKSPACE/26msit001_A/jinhyeok/loop_TTT/lact/.cache_inductor_llm/yv/cyvrnhv5dtd62uwei3sxrh7jmotdj4ces4bzd42ry7fh3ukhefu5.py":25:44)
#loc13 = loc("/NHNHOME/WORKSPACE/26msit001_A/jinhyeok/loop_TTT/lact/.cache_inductor_llm/yv/cyvrnhv5dtd62uwei3sxrh7jmotdj4ces4bzd42ry7fh3ukhefu5.py":26:30)
#loc14 = loc("/NHNHOME/WORKSPACE/26msit001_A/jinhyeok/loop_TTT/lact/.cache_inductor_llm/yv/cyvrnhv5dtd62uwei3sxrh7jmotdj4ces4bzd42ry7fh3ukhefu5.py":26:35)
#loc15 = loc("/NHNHOME/WORKSPACE/26msit001_A/jinhyeok/loop_TTT/lact/.cache_inductor_llm/yv/cyvrnhv5dtd62uwei3sxrh7jmotdj4ces4bzd42ry7fh3ukhefu5.py":27:31)
#loc16 = loc("/NHNHOME/WORKSPACE/26msit001_A/jinhyeok/loop_TTT/lact/.cache_inductor_llm/yv/cyvrnhv5dtd62uwei3sxrh7jmotdj4ces4bzd42ry7fh3ukhefu5.py":27:36)
#loc17 = loc("/NHNHOME/WORKSPACE/26msit001_A/jinhyeok/loop_TTT/lact/.cache_inductor_llm/yv/cyvrnhv5dtd62uwei3sxrh7jmotdj4ces4bzd42ry7fh3ukhefu5.py":28:31)
#loc18 = loc("/NHNHOME/WORKSPACE/26msit001_A/jinhyeok/loop_TTT/lact/.cache_inductor_llm/yv/cyvrnhv5dtd62uwei3sxrh7jmotdj4ces4bzd42ry7fh3ukhefu5.py":28:36)
#loc19 = loc("/NHNHOME/WORKSPACE/26msit001_A/jinhyeok/loop_TTT/lact/.cache_inductor_llm/yv/cyvrnhv5dtd62uwei3sxrh7jmotdj4ces4bzd42ry7fh3ukhefu5.py":31:11)
#loc20 = loc("/NHNHOME/WORKSPACE/26msit001_A/jinhyeok/loop_TTT/lact/.cache_inductor_llm/yv/cyvrnhv5dtd62uwei3sxrh7jmotdj4ces4bzd42ry7fh3ukhefu5.py":32:19)
#loc21 = loc("/NHNHOME/WORKSPACE/26msit001_A/jinhyeok/loop_TTT/lact/.cache_inductor_llm/yv/cyvrnhv5dtd62uwei3sxrh7jmotdj4ces4bzd42ry7fh3ukhefu5.py":33:11)
#loc22 = loc("/NHNHOME/WORKSPACE/26msit001_A/jinhyeok/loop_TTT/lact/.cache_inductor_llm/yv/cyvrnhv5dtd62uwei3sxrh7jmotdj4ces4bzd42ry7fh3ukhefu5.py":34:18)
#loc23 = loc("/NHNHOME/WORKSPACE/26msit001_A/jinhyeok/loop_TTT/lact/.cache_inductor_llm/yv/cyvrnhv5dtd62uwei3sxrh7jmotdj4ces4bzd42ry7fh3ukhefu5.py":35:18)
#loc24 = loc("/NHNHOME/WORKSPACE/26msit001_A/jinhyeok/loop_TTT/lact/.cache_inductor_llm/yv/cyvrnhv5dtd62uwei3sxrh7jmotdj4ces4bzd42ry7fh3ukhefu5.py":36:21)
#loc25 = loc("/NHNHOME/WORKSPACE/26msit001_A/jinhyeok/loop_TTT/lact/.cache_inductor_llm/yv/cyvrnhv5dtd62uwei3sxrh7jmotdj4ces4bzd42ry7fh3ukhefu5.py":37:19)
#loc26 = loc("/NHNHOME/WORKSPACE/26msit001_A/jinhyeok/loop_TTT/lact/.cache_inductor_llm/yv/cyvrnhv5dtd62uwei3sxrh7jmotdj4ces4bzd42ry7fh3ukhefu5.py":38:19)
#loc27 = loc("/NHNHOME/WORKSPACE/26msit001_A/jinhyeok/loop_TTT/lact/.cache_inductor_llm/yv/cyvrnhv5dtd62uwei3sxrh7jmotdj4ces4bzd42ry7fh3ukhefu5.py":41:27)
#loc28 = loc("/NHNHOME/WORKSPACE/26msit001_A/jinhyeok/loop_TTT/lact/.cache_inductor_llm/yv/cyvrnhv5dtd62uwei3sxrh7jmotdj4ces4bzd42ry7fh3ukhefu5.py":42:12)
#loc29 = loc("/NHNHOME/WORKSPACE/26msit001_A/jinhyeok/loop_TTT/lact/.cache_inductor_llm/yv/cyvrnhv5dtd62uwei3sxrh7jmotdj4ces4bzd42ry7fh3ukhefu5.py":43:20)
#loc30 = loc("/NHNHOME/WORKSPACE/26msit001_A/jinhyeok/loop_TTT/lact/.cache_inductor_llm/yv/cyvrnhv5dtd62uwei3sxrh7jmotdj4ces4bzd42ry7fh3ukhefu5.py":44:21)
#loc31 = loc("/NHNHOME/WORKSPACE/26msit001_A/jinhyeok/loop_TTT/lact/.cache_inductor_llm/yv/cyvrnhv5dtd62uwei3sxrh7jmotdj4ces4bzd42ry7fh3ukhefu5.py":46:25)
#loc32 = loc("/NHNHOME/WORKSPACE/26msit001_A/jinhyeok/loop_TTT/lact/.cache_inductor_llm/yv/cyvrnhv5dtd62uwei3sxrh7jmotdj4ces4bzd42ry7fh3ukhefu5.py":46:37)
#loc33 = loc("/NHNHOME/WORKSPACE/26msit001_A/jinhyeok/loop_TTT/lact/.cache_inductor_llm/yv/cyvrnhv5dtd62uwei3sxrh7jmotdj4ces4bzd42ry7fh3ukhefu5.py":47:25)
#loc34 = loc("/NHNHOME/WORKSPACE/26msit001_A/jinhyeok/loop_TTT/lact/.cache_inductor_llm/yv/cyvrnhv5dtd62uwei3sxrh7jmotdj4ces4bzd42ry7fh3ukhefu5.py":47:37)
#loc35 = loc("/NHNHOME/WORKSPACE/26msit001_A/jinhyeok/loop_TTT/lact/.cache_inductor_llm/yv/cyvrnhv5dtd62uwei3sxrh7jmotdj4ces4bzd42ry7fh3ukhefu5.py":48:25)
#loc36 = loc("/NHNHOME/WORKSPACE/26msit001_A/jinhyeok/loop_TTT/lact/.cache_inductor_llm/yv/cyvrnhv5dtd62uwei3sxrh7jmotdj4ces4bzd42ry7fh3ukhefu5.py":48:37)
#loc37 = loc("/NHNHOME/WORKSPACE/26msit001_A/jinhyeok/loop_TTT/lact/.cache_inductor_llm/yv/cyvrnhv5dtd62uwei3sxrh7jmotdj4ces4bzd42ry7fh3ukhefu5.py":48:4)
#loc47 = loc("xoffset"(#loc1))
#loc48 = loc("xoffset"(#loc2))
#loc49 = loc("xindex"(#loc3))
#loc50 = loc("xindex"(#loc4))
#loc51 = loc("xmask"(#loc5))
#loc52 = loc("x1"(#loc6))
#loc53 = loc("tmp0"(#loc7))
#loc54 = loc("tmp0"(#loc8))
#loc55 = loc("tmp0"(#loc9))
#loc56 = loc("tmp2"(#loc10))
#loc57 = loc("tmp2"(#loc11))
#loc58 = loc("tmp2"(#loc12))
#loc59 = loc("tmp4"(#loc13))
#loc60 = loc("tmp4"(#loc14))
#loc61 = loc("tmp10"(#loc15))
#loc62 = loc("tmp10"(#loc16))
#loc63 = loc("tmp16"(#loc17))
#loc64 = loc("tmp16"(#loc18))
#loc65 = loc("tmp5"(#loc19))
#loc66 = loc("tmp6"(#loc20))
#loc67 = loc("tmp7"(#loc21))
#loc68 = loc("tmp8"(#loc22))
#loc69 = loc("tmp9"(#loc23))
#loc70 = loc("tmp11"(#loc24))
#loc71 = loc("tmp12"(#loc25))
#loc72 = loc("tmp13"(#loc26))
#loc73 = loc("tmp17"(#loc27))
#loc74 = loc("tmp18"(#loc28))
#loc75 = loc("tmp19"(#loc29))
#loc76 = loc("tmp20"(#loc30))
