#loc = loc("/NHNHOME/WORKSPACE/26msit001_A/jinhyeok/loop_TTT/lact/.cache_inductor_llm/rt/crt2olmzycwcjprnjc6q77y4s3qjindgk2k363h5heqfpuhc3mns.py":18:0)
#loc57 = loc("/NHNHOME/WORKSPACE/26msit001_A/jinhyeok/TTT_camera_embedding/.venv_llm/lib/python3.12/site-packages/triton/language/standard.py":285:0)
#loc59 = loc(unknown)
#loc62 = loc("/NHNHOME/WORKSPACE/26msit001_A/jinhyeok/TTT_camera_embedding/.venv_llm/lib/python3.12/site-packages/triton/language/standard.py":260:0)
#loc66 = loc("in_ptr0"(#loc))
#loc67 = loc("in_ptr1"(#loc))
#loc68 = loc("in_ptr2"(#loc))
#loc69 = loc("in_ptr3"(#loc))
#loc70 = loc("out_ptr2"(#loc))
#loc71 = loc("out_ptr3"(#loc))
#loc72 = loc("xnumel"(#loc))
#loc73 = loc("r0_numel"(#loc))
#loc119 = loc("input"(#loc57))
#loc120 = loc("a"(#loc62))
#loc121 = loc("b"(#loc62))
module {
  tt.func public @triton_per_fused__to_copy_add_div_linalg_vector_norm_mul_transpose_42(%in_ptr0: !tt.ptr<f32> {tt.divisibility = 16 : i32} loc("in_ptr0"(#loc)), %in_ptr1: !tt.ptr<f32> {tt.divisibility = 16 : i32} loc("in_ptr1"(#loc)), %in_ptr2: !tt.ptr<bf16> {tt.divisibility = 16 : i32} loc("in_ptr2"(#loc)), %in_ptr3: !tt.ptr<f32> {tt.divisibility = 16 : i32} loc("in_ptr3"(#loc)), %out_ptr2: !tt.ptr<bf16> {tt.divisibility = 16 : i32} loc("out_ptr2"(#loc)), %out_ptr3: !tt.ptr<bf16> {tt.divisibility = 16 : i32} loc("out_ptr3"(#loc)), %xnumel: i32 {tt.divisibility = 16 : i32} loc("xnumel"(#loc)), %r0_numel: i32 {tt.divisibility = 16 : i32} loc("r0_numel"(#loc))) attributes {noinline = false} {
    %xnumel_0 = arith.constant 6144 : i32 loc(#loc74)
    %r0_numel_1 = arith.constant 192 : i32 loc(#loc75)
    %xoffset = tt.get_program_id x : i32 loc(#loc76)
    %xoffset_2 = arith.constant 1 : i32 loc(#loc77)
    %xoffset_3 = arith.constant 1 : i32 loc(#loc77)
    %xoffset_4 = arith.muli %xoffset, %xoffset_3 : i32 loc(#loc77)
    %xindex = tt.make_range {end = 1 : i32, start = 0 : i32} : tensor<1xi32> loc(#loc78)
    %xindex_5 = tt.expand_dims %xindex {axis = 1 : i32} : tensor<1xi32> -> tensor<1x1xi32> loc(#loc79)
    %xindex_6 = tt.splat %xoffset_4 : i32 -> tensor<1x1xi32> loc(#loc80)
    %xindex_7 = arith.addi %xindex_6, %xindex_5 : tensor<1x1xi32> loc(#loc80)
    %xmask = arith.constant dense<6144> : tensor<1x1xi32> loc(#loc81)
    %xmask_8 = arith.cmpi slt, %xindex_7, %xmask : tensor<1x1xi32> loc(#loc81)
    %r0_index = tt.make_range {end = 256 : i32, start = 0 : i32} : tensor<256xi32> loc(#loc82)
    %r0_index_9 = tt.expand_dims %r0_index {axis = 0 : i32} : tensor<256xi32> -> tensor<1x256xi32> loc(#loc83)
    %r0_offset = arith.constant 0 : i32 loc(#loc84)
    %r0_mask = arith.constant dense<192> : tensor<1x256xi32> loc(#loc85)
    %r0_mask_10 = arith.cmpi slt, %r0_index_9, %r0_mask : tensor<1x256xi32> loc(#loc85)
    %tmp0 = arith.constant 192 : i32 loc(#loc86)
    %tmp0_11 = arith.constant 192 : i32 loc(#loc86)
    %tmp0_12 = arith.constant dense<192> : tensor<1x1xi32> loc(#loc86)
    %tmp0_13 = arith.muli %tmp0_12, %xindex_7 : tensor<1x1xi32> loc(#loc86)
    %tmp0_14 = tt.broadcast %tmp0_13 : tensor<1x1xi32> -> tensor<1x256xi32> loc(#loc87)
    %tmp0_15 = arith.addi %r0_index_9, %tmp0_14 : tensor<1x256xi32> loc(#loc87)
    %tmp0_16 = tt.splat %in_ptr0 : !tt.ptr<f32> -> tensor<1x256x!tt.ptr<f32>> loc(#loc88)
    %tmp0_17 = tt.addptr %tmp0_16, %tmp0_15 : tensor<1x256x!tt.ptr<f32>>, tensor<1x256xi32> loc(#loc88)
    %tmp0_18 = tt.broadcast %xmask_8 : tensor<1x1xi1> -> tensor<1x256xi1> loc(#loc89)
    %tmp0_19 = arith.andi %r0_mask_10, %tmp0_18 : tensor<1x256xi1> loc(#loc89)
    %tmp0_20 = arith.constant 0.000000e+00 : f32 loc(#loc90)
    %tmp0_21 = arith.constant dense<0.000000e+00> : tensor<1x256xf32> loc(#loc90)
    %tmp0_22 = tt.load %tmp0_17, %tmp0_19, %tmp0_21 : tensor<1x256x!tt.ptr<f32>> loc(#loc90)
    %tmp1 = arith.constant 192 : i32 loc(#loc91)
    %tmp1_23 = arith.constant 192 : i32 loc(#loc91)
    %tmp1_24 = arith.constant dense<192> : tensor<1x1xi32> loc(#loc91)
    %tmp1_25 = arith.muli %tmp1_24, %xindex_7 : tensor<1x1xi32> loc(#loc91)
    %tmp1_26 = tt.broadcast %tmp1_25 : tensor<1x1xi32> -> tensor<1x256xi32> loc(#loc92)
    %tmp1_27 = arith.addi %r0_index_9, %tmp1_26 : tensor<1x256xi32> loc(#loc92)
    %tmp1_28 = tt.splat %in_ptr1 : !tt.ptr<f32> -> tensor<1x256x!tt.ptr<f32>> loc(#loc93)
    %tmp1_29 = tt.addptr %tmp1_28, %tmp1_27 : tensor<1x256x!tt.ptr<f32>>, tensor<1x256xi32> loc(#loc93)
    %tmp1_30 = tt.broadcast %xmask_8 : tensor<1x1xi1> -> tensor<1x256xi1> loc(#loc94)
    %tmp1_31 = arith.andi %r0_mask_10, %tmp1_30 : tensor<1x256xi1> loc(#loc94)
    %tmp1_32 = arith.constant 0.000000e+00 : f32 loc(#loc95)
    %tmp1_33 = arith.constant dense<0.000000e+00> : tensor<1x256xf32> loc(#loc95)
    %tmp1_34 = tt.load %tmp1_29, %tmp1_31, %tmp1_33 : tensor<1x256x!tt.ptr<f32>> loc(#loc95)
    %tmp4 = arith.constant 192 : i32 loc(#loc96)
    %tmp4_35 = arith.constant 192 : i32 loc(#loc96)
    %tmp4_36 = arith.constant dense<192> : tensor<1x1xi32> loc(#loc96)
    %tmp4_37 = arith.muli %tmp4_36, %xindex_7 : tensor<1x1xi32> loc(#loc96)
    %tmp4_38 = tt.broadcast %tmp4_37 : tensor<1x1xi32> -> tensor<1x256xi32> loc(#loc97)
    %tmp4_39 = arith.addi %r0_index_9, %tmp4_38 : tensor<1x256xi32> loc(#loc97)
    %tmp4_40 = tt.splat %in_ptr2 : !tt.ptr<bf16> -> tensor<1x256x!tt.ptr<bf16>> loc(#loc98)
    %tmp4_41 = tt.addptr %tmp4_40, %tmp4_39 : tensor<1x256x!tt.ptr<bf16>>, tensor<1x256xi32> loc(#loc98)
    %tmp4_42 = tt.broadcast %xmask_8 : tensor<1x1xi1> -> tensor<1x256xi1> loc(#loc99)
    %tmp4_43 = arith.andi %r0_mask_10, %tmp4_42 : tensor<1x256xi1> loc(#loc99)
    %tmp4_44 = arith.constant 0.000000e+00 : f32 loc(#loc100)
    %tmp4_45 = arith.constant dense<0.000000e+00> : tensor<1x256xf32> loc(#loc100)
    %tmp4_46 = arith.truncf %tmp4_45 : tensor<1x256xf32> to tensor<1x256xbf16> loc(#loc100)
    %tmp4_47 = tt.load %tmp4_41, %tmp4_43, %tmp4_46 : tensor<1x256x!tt.ptr<bf16>> loc(#loc100)
    %tmp4_48 = arith.extf %tmp4_47 : tensor<1x256xbf16> to tensor<1x256xf32> loc(#loc101)
    %tmp17 = tt.splat %in_ptr3 : !tt.ptr<f32> -> tensor<1x1x!tt.ptr<f32>> loc(#loc102)
    %tmp17_49 = tt.addptr %tmp17, %xindex_7 : tensor<1x1x!tt.ptr<f32>>, tensor<1x1xi32> loc(#loc102)
    %tmp17_50 = tt.load %tmp17_49, %xmask_8 evictionPolicy = evict_last : tensor<1x1x!tt.ptr<f32>> loc(#loc103)
    %tmp2 = arith.constant 2.836600e+00 : f32 loc(#loc104)
    %tmp3 = arith.constant dense<2.836600e+00> : tensor<1x256xf32> loc(#loc105)
    %tmp3_51 = arith.mulf %tmp1_34, %tmp3 : tensor<1x256xf32> loc(#loc105)
    %tmp6 = arith.addf %tmp3_51, %tmp4_48 : tensor<1x256xf32> loc(#loc106)
    %tmp7 = arith.addf %tmp0_22, %tmp6 : tensor<1x256xf32> loc(#loc107)
    %tmp8 = arith.mulf %tmp7, %tmp7 : tensor<1x256xf32> loc(#loc108)
    %tmp11 = tt.broadcast %xmask_8 : tensor<1x1xi1> -> tensor<1x256xi1> loc(#loc109)
    %tmp11_52 = arith.andi %r0_mask_10, %tmp11 : tensor<1x256xi1> loc(#loc109)
    %tmp11_53 = arith.constant 0 : i32 loc(#loc110)
    %tmp11_54 = arith.constant 0.000000e+00 : f32 loc(#loc110)
    %tmp11_55 = arith.constant dense<0.000000e+00> : tensor<1x256xf32> loc(#loc110)
    %tmp11_56 = arith.select %tmp11_52, %tmp8, %tmp11_55 : tensor<1x256xi1>, tensor<1x256xf32> loc(#loc110)
    %tmp12 = tt.call @"triton.language.standard.sum__fp32S1_256S__(1,)cconstexpr_1__(2,)cconstexpr_False__(3,)cNone"(%tmp11_56) : (tensor<1x256xf32>) -> tensor<1xf32> loc(#loc111)
    %tmp12_57 = tt.expand_dims %tmp12 {axis = 1 : i32} : tensor<1xf32> -> tensor<1x1xf32> loc(#loc112)
    %tmp13 = tt.extern_elementwise %tmp12_57 {libname = "", libpath = "", pure = true, symbol = "__nv_sqrtf"} : (tensor<1x1xf32>) -> tensor<1x1xf32> loc(#loc113)
    %tmp14 = arith.constant 9.99999974E-6 : f32 loc(#loc114)
    %tmp15 = arith.constant dense<9.99999974E-6> : tensor<1x1xf32> loc(#loc115)
    %tmp15_58 = arith.addf %tmp13, %tmp15 : tensor<1x1xf32> loc(#loc115)
    %tmp16 = tt.broadcast %tmp15_58 : tensor<1x1xf32> -> tensor<1x256xf32> loc(#loc116)
    %tmp16_59 = arith.divf %tmp7, %tmp16 : tensor<1x256xf32> loc(#loc116)
    %tmp18 = tt.extern_elementwise %tmp17_50 {libname = "", libpath = "", pure = true, symbol = "__nv_sqrtf"} : (tensor<1x1xf32>) -> tensor<1x1xf32> loc(#loc117)
    %tmp19 = tt.broadcast %tmp18 : tensor<1x1xf32> -> tensor<1x256xf32> loc(#loc118)
    %tmp19_60 = arith.mulf %tmp16_59, %tmp19 : tensor<1x256xf32> loc(#loc118)
    %c192_i32 = arith.constant 192 : i32 loc(#loc46)
    %c192_i32_61 = arith.constant 192 : i32 loc(#loc46)
    %cst = arith.constant dense<192> : tensor<1x1xi32> loc(#loc46)
    %0 = arith.muli %cst, %xindex_7 : tensor<1x1xi32> loc(#loc46)
    %1 = tt.broadcast %0 : tensor<1x1xi32> -> tensor<1x256xi32> loc(#loc47)
    %2 = arith.addi %r0_index_9, %1 : tensor<1x256xi32> loc(#loc47)
    %3 = tt.splat %out_ptr2 : !tt.ptr<bf16> -> tensor<1x256x!tt.ptr<bf16>> loc(#loc48)
    %4 = tt.addptr %3, %2 : tensor<1x256x!tt.ptr<bf16>>, tensor<1x256xi32> loc(#loc48)
    %5 = tt.broadcast %xmask_8 : tensor<1x1xi1> -> tensor<1x256xi1> loc(#loc49)
    %6 = arith.andi %r0_mask_10, %5 : tensor<1x256xi1> loc(#loc49)
    %7 = arith.truncf %tmp19_60 : tensor<1x256xf32> to tensor<1x256xbf16> loc(#loc50)
    tt.store %4, %7, %6 : tensor<1x256x!tt.ptr<bf16>> loc(#loc50)
    %c192_i32_62 = arith.constant 192 : i32 loc(#loc51)
    %c192_i32_63 = arith.constant 192 : i32 loc(#loc51)
    %cst_64 = arith.constant dense<192> : tensor<1x1xi32> loc(#loc51)
    %8 = arith.muli %cst_64, %xindex_7 : tensor<1x1xi32> loc(#loc51)
    %9 = tt.broadcast %8 : tensor<1x1xi32> -> tensor<1x256xi32> loc(#loc52)
    %10 = arith.addi %r0_index_9, %9 : tensor<1x256xi32> loc(#loc52)
    %11 = tt.splat %out_ptr3 : !tt.ptr<bf16> -> tensor<1x256x!tt.ptr<bf16>> loc(#loc53)
    %12 = tt.addptr %11, %10 : tensor<1x256x!tt.ptr<bf16>>, tensor<1x256xi32> loc(#loc53)
    %13 = tt.broadcast %xmask_8 : tensor<1x1xi1> -> tensor<1x256xi1> loc(#loc54)
    %14 = arith.andi %r0_mask_10, %13 : tensor<1x256xi1> loc(#loc54)
    %15 = arith.truncf %tmp19_60 : tensor<1x256xf32> to tensor<1x256xbf16> loc(#loc55)
    tt.store %12, %15, %14 : tensor<1x256x!tt.ptr<bf16>> loc(#loc55)
    tt.return loc(#loc56)
  } loc(#loc)
  tt.func private @"triton.language.standard.sum__fp32S1_256S__(1,)cconstexpr_1__(2,)cconstexpr_False__(3,)cNone"(%input: tensor<1x256xf32> loc("input"(#loc57))) -> tensor<1xf32> attributes {noinline = false} {
    %0 = "tt.reduce"(%input) <{axis = 1 : i32}> ({
    ^bb0(%arg1: f32 loc(unknown), %arg2: f32 loc(unknown)):
      %2 = tt.call @triton.language.standard._sum_combine__fp32_fp32__(%arg1, %arg2) : (f32, f32) -> f32 loc(#loc58)
      tt.reduce.return %2 : f32 loc(#loc58)
    }) : (tensor<1x256xf32>) -> tensor<1xf32> loc(#loc58)
    tt.return %0 : tensor<1xf32> loc(#loc60)
  ^bb1:  // no predecessors
    %1 = ub.poison : tensor<1xf32> loc(#loc61)
    tt.return %1 : tensor<1xf32> loc(#loc61)
  } loc(#loc57)
  tt.func private @triton.language.standard._sum_combine__fp32_fp32__(%a: f32 loc("a"(#loc62)), %b: f32 loc("b"(#loc62))) -> f32 attributes {noinline = false} {
    %0 = arith.addf %a, %b : f32 loc(#loc63)
    tt.return %0 : f32 loc(#loc64)
  ^bb1:  // no predecessors
    %1 = ub.poison : f32 loc(#loc65)
    tt.return %1 : f32 loc(#loc65)
  } loc(#loc62)
} loc(#loc)
#loc1 = loc("/NHNHOME/WORKSPACE/26msit001_A/jinhyeok/loop_TTT/lact/.cache_inductor_llm/rt/crt2olmzycwcjprnjc6q77y4s3qjindgk2k363h5heqfpuhc3mns.py":19:13)
#loc2 = loc("/NHNHOME/WORKSPACE/26msit001_A/jinhyeok/loop_TTT/lact/.cache_inductor_llm/rt/crt2olmzycwcjprnjc6q77y4s3qjindgk2k363h5heqfpuhc3mns.py":20:15)
#loc3 = loc("/NHNHOME/WORKSPACE/26msit001_A/jinhyeok/loop_TTT/lact/.cache_inductor_llm/rt/crt2olmzycwcjprnjc6q77y4s3qjindgk2k363h5heqfpuhc3mns.py":24:28)
#loc4 = loc("/NHNHOME/WORKSPACE/26msit001_A/jinhyeok/loop_TTT/lact/.cache_inductor_llm/rt/crt2olmzycwcjprnjc6q77y4s3qjindgk2k363h5heqfpuhc3mns.py":24:33)
#loc5 = loc("/NHNHOME/WORKSPACE/26msit001_A/jinhyeok/loop_TTT/lact/.cache_inductor_llm/rt/crt2olmzycwcjprnjc6q77y4s3qjindgk2k363h5heqfpuhc3mns.py":25:36)
#loc6 = loc("/NHNHOME/WORKSPACE/26msit001_A/jinhyeok/loop_TTT/lact/.cache_inductor_llm/rt/crt2olmzycwcjprnjc6q77y4s3qjindgk2k363h5heqfpuhc3mns.py":25:44)
#loc7 = loc("/NHNHOME/WORKSPACE/26msit001_A/jinhyeok/loop_TTT/lact/.cache_inductor_llm/rt/crt2olmzycwcjprnjc6q77y4s3qjindgk2k363h5heqfpuhc3mns.py":25:23)
#loc8 = loc("/NHNHOME/WORKSPACE/26msit001_A/jinhyeok/loop_TTT/lact/.cache_inductor_llm/rt/crt2olmzycwcjprnjc6q77y4s3qjindgk2k363h5heqfpuhc3mns.py":26:21)
#loc9 = loc("/NHNHOME/WORKSPACE/26msit001_A/jinhyeok/loop_TTT/lact/.cache_inductor_llm/rt/crt2olmzycwcjprnjc6q77y4s3qjindgk2k363h5heqfpuhc3mns.py":27:28)
#loc10 = loc("/NHNHOME/WORKSPACE/26msit001_A/jinhyeok/loop_TTT/lact/.cache_inductor_llm/rt/crt2olmzycwcjprnjc6q77y4s3qjindgk2k363h5heqfpuhc3mns.py":27:38)
#loc11 = loc("/NHNHOME/WORKSPACE/26msit001_A/jinhyeok/loop_TTT/lact/.cache_inductor_llm/rt/crt2olmzycwcjprnjc6q77y4s3qjindgk2k363h5heqfpuhc3mns.py":28:16)
#loc12 = loc("/NHNHOME/WORKSPACE/26msit001_A/jinhyeok/loop_TTT/lact/.cache_inductor_llm/rt/crt2olmzycwcjprnjc6q77y4s3qjindgk2k363h5heqfpuhc3mns.py":29:25)
#loc13 = loc("/NHNHOME/WORKSPACE/26msit001_A/jinhyeok/loop_TTT/lact/.cache_inductor_llm/rt/crt2olmzycwcjprnjc6q77y4s3qjindgk2k363h5heqfpuhc3mns.py":34:41)
#loc14 = loc("/NHNHOME/WORKSPACE/26msit001_A/jinhyeok/loop_TTT/lact/.cache_inductor_llm/rt/crt2olmzycwcjprnjc6q77y4s3qjindgk2k363h5heqfpuhc3mns.py":34:37)
#loc15 = loc("/NHNHOME/WORKSPACE/26msit001_A/jinhyeok/loop_TTT/lact/.cache_inductor_llm/rt/crt2olmzycwcjprnjc6q77y4s3qjindgk2k363h5heqfpuhc3mns.py":34:30)
#loc16 = loc("/NHNHOME/WORKSPACE/26msit001_A/jinhyeok/loop_TTT/lact/.cache_inductor_llm/rt/crt2olmzycwcjprnjc6q77y4s3qjindgk2k363h5heqfpuhc3mns.py":34:56)
#loc17 = loc("/NHNHOME/WORKSPACE/26msit001_A/jinhyeok/loop_TTT/lact/.cache_inductor_llm/rt/crt2olmzycwcjprnjc6q77y4s3qjindgk2k363h5heqfpuhc3mns.py":34:46)
#loc18 = loc("/NHNHOME/WORKSPACE/26msit001_A/jinhyeok/loop_TTT/lact/.cache_inductor_llm/rt/crt2olmzycwcjprnjc6q77y4s3qjindgk2k363h5heqfpuhc3mns.py":35:41)
#loc19 = loc("/NHNHOME/WORKSPACE/26msit001_A/jinhyeok/loop_TTT/lact/.cache_inductor_llm/rt/crt2olmzycwcjprnjc6q77y4s3qjindgk2k363h5heqfpuhc3mns.py":35:37)
#loc20 = loc("/NHNHOME/WORKSPACE/26msit001_A/jinhyeok/loop_TTT/lact/.cache_inductor_llm/rt/crt2olmzycwcjprnjc6q77y4s3qjindgk2k363h5heqfpuhc3mns.py":35:30)
#loc21 = loc("/NHNHOME/WORKSPACE/26msit001_A/jinhyeok/loop_TTT/lact/.cache_inductor_llm/rt/crt2olmzycwcjprnjc6q77y4s3qjindgk2k363h5heqfpuhc3mns.py":35:56)
#loc22 = loc("/NHNHOME/WORKSPACE/26msit001_A/jinhyeok/loop_TTT/lact/.cache_inductor_llm/rt/crt2olmzycwcjprnjc6q77y4s3qjindgk2k363h5heqfpuhc3mns.py":35:46)
#loc23 = loc("/NHNHOME/WORKSPACE/26msit001_A/jinhyeok/loop_TTT/lact/.cache_inductor_llm/rt/crt2olmzycwcjprnjc6q77y4s3qjindgk2k363h5heqfpuhc3mns.py":36:41)
#loc24 = loc("/NHNHOME/WORKSPACE/26msit001_A/jinhyeok/loop_TTT/lact/.cache_inductor_llm/rt/crt2olmzycwcjprnjc6q77y4s3qjindgk2k363h5heqfpuhc3mns.py":36:37)
#loc25 = loc("/NHNHOME/WORKSPACE/26msit001_A/jinhyeok/loop_TTT/lact/.cache_inductor_llm/rt/crt2olmzycwcjprnjc6q77y4s3qjindgk2k363h5heqfpuhc3mns.py":36:30)
#loc26 = loc("/NHNHOME/WORKSPACE/26msit001_A/jinhyeok/loop_TTT/lact/.cache_inductor_llm/rt/crt2olmzycwcjprnjc6q77y4s3qjindgk2k363h5heqfpuhc3mns.py":36:56)
#loc27 = loc("/NHNHOME/WORKSPACE/26msit001_A/jinhyeok/loop_TTT/lact/.cache_inductor_llm/rt/crt2olmzycwcjprnjc6q77y4s3qjindgk2k363h5heqfpuhc3mns.py":36:46)
#loc28 = loc("/NHNHOME/WORKSPACE/26msit001_A/jinhyeok/loop_TTT/lact/.cache_inductor_llm/rt/crt2olmzycwcjprnjc6q77y4s3qjindgk2k363h5heqfpuhc3mns.py":36:77)
#loc29 = loc("/NHNHOME/WORKSPACE/26msit001_A/jinhyeok/loop_TTT/lact/.cache_inductor_llm/rt/crt2olmzycwcjprnjc6q77y4s3qjindgk2k363h5heqfpuhc3mns.py":37:31)
#loc30 = loc("/NHNHOME/WORKSPACE/26msit001_A/jinhyeok/loop_TTT/lact/.cache_inductor_llm/rt/crt2olmzycwcjprnjc6q77y4s3qjindgk2k363h5heqfpuhc3mns.py":37:36)
#loc31 = loc("/NHNHOME/WORKSPACE/26msit001_A/jinhyeok/loop_TTT/lact/.cache_inductor_llm/rt/crt2olmzycwcjprnjc6q77y4s3qjindgk2k363h5heqfpuhc3mns.py":38:11)
#loc32 = loc("/NHNHOME/WORKSPACE/26msit001_A/jinhyeok/loop_TTT/lact/.cache_inductor_llm/rt/crt2olmzycwcjprnjc6q77y4s3qjindgk2k363h5heqfpuhc3mns.py":39:18)
#loc33 = loc("/NHNHOME/WORKSPACE/26msit001_A/jinhyeok/loop_TTT/lact/.cache_inductor_llm/rt/crt2olmzycwcjprnjc6q77y4s3qjindgk2k363h5heqfpuhc3mns.py":41:18)
#loc34 = loc("/NHNHOME/WORKSPACE/26msit001_A/jinhyeok/loop_TTT/lact/.cache_inductor_llm/rt/crt2olmzycwcjprnjc6q77y4s3qjindgk2k363h5heqfpuhc3mns.py":42:18)
#loc35 = loc("/NHNHOME/WORKSPACE/26msit001_A/jinhyeok/loop_TTT/lact/.cache_inductor_llm/rt/crt2olmzycwcjprnjc6q77y4s3qjindgk2k363h5heqfpuhc3mns.py":43:18)
#loc36 = loc("/NHNHOME/WORKSPACE/26msit001_A/jinhyeok/loop_TTT/lact/.cache_inductor_llm/rt/crt2olmzycwcjprnjc6q77y4s3qjindgk2k363h5heqfpuhc3mns.py":45:31)
#loc37 = loc("/NHNHOME/WORKSPACE/26msit001_A/jinhyeok/loop_TTT/lact/.cache_inductor_llm/rt/crt2olmzycwcjprnjc6q77y4s3qjindgk2k363h5heqfpuhc3mns.py":45:44)
#loc38 = loc("/NHNHOME/WORKSPACE/26msit001_A/jinhyeok/loop_TTT/lact/.cache_inductor_llm/rt/crt2olmzycwcjprnjc6q77y4s3qjindgk2k363h5heqfpuhc3mns.py":46:26)
#loc39 = loc("/NHNHOME/WORKSPACE/26msit001_A/jinhyeok/loop_TTT/lact/.cache_inductor_llm/rt/crt2olmzycwcjprnjc6q77y4s3qjindgk2k363h5heqfpuhc3mns.py":46:29)
#loc40 = loc("/NHNHOME/WORKSPACE/26msit001_A/jinhyeok/loop_TTT/lact/.cache_inductor_llm/rt/crt2olmzycwcjprnjc6q77y4s3qjindgk2k363h5heqfpuhc3mns.py":47:27)
#loc41 = loc("/NHNHOME/WORKSPACE/26msit001_A/jinhyeok/loop_TTT/lact/.cache_inductor_llm/rt/crt2olmzycwcjprnjc6q77y4s3qjindgk2k363h5heqfpuhc3mns.py":48:12)
#loc42 = loc("/NHNHOME/WORKSPACE/26msit001_A/jinhyeok/loop_TTT/lact/.cache_inductor_llm/rt/crt2olmzycwcjprnjc6q77y4s3qjindgk2k363h5heqfpuhc3mns.py":49:20)
#loc43 = loc("/NHNHOME/WORKSPACE/26msit001_A/jinhyeok/loop_TTT/lact/.cache_inductor_llm/rt/crt2olmzycwcjprnjc6q77y4s3qjindgk2k363h5heqfpuhc3mns.py":50:20)
#loc44 = loc("/NHNHOME/WORKSPACE/26msit001_A/jinhyeok/loop_TTT/lact/.cache_inductor_llm/rt/crt2olmzycwcjprnjc6q77y4s3qjindgk2k363h5heqfpuhc3mns.py":51:27)
#loc45 = loc("/NHNHOME/WORKSPACE/26msit001_A/jinhyeok/loop_TTT/lact/.cache_inductor_llm/rt/crt2olmzycwcjprnjc6q77y4s3qjindgk2k363h5heqfpuhc3mns.py":52:20)
#loc46 = loc("/NHNHOME/WORKSPACE/26msit001_A/jinhyeok/loop_TTT/lact/.cache_inductor_llm/rt/crt2olmzycwcjprnjc6q77y4s3qjindgk2k363h5heqfpuhc3mns.py":54:36)
#loc47 = loc("/NHNHOME/WORKSPACE/26msit001_A/jinhyeok/loop_TTT/lact/.cache_inductor_llm/rt/crt2olmzycwcjprnjc6q77y4s3qjindgk2k363h5heqfpuhc3mns.py":54:32)
#loc48 = loc("/NHNHOME/WORKSPACE/26msit001_A/jinhyeok/loop_TTT/lact/.cache_inductor_llm/rt/crt2olmzycwcjprnjc6q77y4s3qjindgk2k363h5heqfpuhc3mns.py":54:25)
#loc49 = loc("/NHNHOME/WORKSPACE/26msit001_A/jinhyeok/loop_TTT/lact/.cache_inductor_llm/rt/crt2olmzycwcjprnjc6q77y4s3qjindgk2k363h5heqfpuhc3mns.py":54:58)
#loc50 = loc("/NHNHOME/WORKSPACE/26msit001_A/jinhyeok/loop_TTT/lact/.cache_inductor_llm/rt/crt2olmzycwcjprnjc6q77y4s3qjindgk2k363h5heqfpuhc3mns.py":54:48)
#loc51 = loc("/NHNHOME/WORKSPACE/26msit001_A/jinhyeok/loop_TTT/lact/.cache_inductor_llm/rt/crt2olmzycwcjprnjc6q77y4s3qjindgk2k363h5heqfpuhc3mns.py":55:36)
#loc52 = loc("/NHNHOME/WORKSPACE/26msit001_A/jinhyeok/loop_TTT/lact/.cache_inductor_llm/rt/crt2olmzycwcjprnjc6q77y4s3qjindgk2k363h5heqfpuhc3mns.py":55:32)
#loc53 = loc("/NHNHOME/WORKSPACE/26msit001_A/jinhyeok/loop_TTT/lact/.cache_inductor_llm/rt/crt2olmzycwcjprnjc6q77y4s3qjindgk2k363h5heqfpuhc3mns.py":55:25)
#loc54 = loc("/NHNHOME/WORKSPACE/26msit001_A/jinhyeok/loop_TTT/lact/.cache_inductor_llm/rt/crt2olmzycwcjprnjc6q77y4s3qjindgk2k363h5heqfpuhc3mns.py":55:58)
#loc55 = loc("/NHNHOME/WORKSPACE/26msit001_A/jinhyeok/loop_TTT/lact/.cache_inductor_llm/rt/crt2olmzycwcjprnjc6q77y4s3qjindgk2k363h5heqfpuhc3mns.py":55:48)
#loc56 = loc("/NHNHOME/WORKSPACE/26msit001_A/jinhyeok/loop_TTT/lact/.cache_inductor_llm/rt/crt2olmzycwcjprnjc6q77y4s3qjindgk2k363h5heqfpuhc3mns.py":55:4)
#loc58 = loc("/NHNHOME/WORKSPACE/26msit001_A/jinhyeok/TTT_camera_embedding/.venv_llm/lib/python3.12/site-packages/triton/language/standard.py":291:36)
#loc60 = loc("/NHNHOME/WORKSPACE/26msit001_A/jinhyeok/TTT_camera_embedding/.venv_llm/lib/python3.12/site-packages/triton/language/standard.py":291:11)
#loc61 = loc("/NHNHOME/WORKSPACE/26msit001_A/jinhyeok/TTT_camera_embedding/.venv_llm/lib/python3.12/site-packages/triton/language/standard.py":291:4)
#loc63 = loc("/NHNHOME/WORKSPACE/26msit001_A/jinhyeok/TTT_camera_embedding/.venv_llm/lib/python3.12/site-packages/triton/language/standard.py":261:15)
#loc64 = loc("/NHNHOME/WORKSPACE/26msit001_A/jinhyeok/TTT_camera_embedding/.venv_llm/lib/python3.12/site-packages/triton/language/standard.py":261:11)
#loc65 = loc("/NHNHOME/WORKSPACE/26msit001_A/jinhyeok/TTT_camera_embedding/.venv_llm/lib/python3.12/site-packages/triton/language/standard.py":261:4)
#loc74 = loc("xnumel"(#loc1))
#loc75 = loc("r0_numel"(#loc2))
#loc76 = loc("xoffset"(#loc3))
#loc77 = loc("xoffset"(#loc4))
#loc78 = loc("xindex"(#loc5))
#loc79 = loc("xindex"(#loc6))
#loc80 = loc("xindex"(#loc7))
#loc81 = loc("xmask"(#loc8))
#loc82 = loc("r0_index"(#loc9))
#loc83 = loc("r0_index"(#loc10))
#loc84 = loc("r0_offset"(#loc11))
#loc85 = loc("r0_mask"(#loc12))
#loc86 = loc("tmp0"(#loc13))
#loc87 = loc("tmp0"(#loc14))
#loc88 = loc("tmp0"(#loc15))
#loc89 = loc("tmp0"(#loc16))
#loc90 = loc("tmp0"(#loc17))
#loc91 = loc("tmp1"(#loc18))
#loc92 = loc("tmp1"(#loc19))
#loc93 = loc("tmp1"(#loc20))
#loc94 = loc("tmp1"(#loc21))
#loc95 = loc("tmp1"(#loc22))
#loc96 = loc("tmp4"(#loc23))
#loc97 = loc("tmp4"(#loc24))
#loc98 = loc("tmp4"(#loc25))
#loc99 = loc("tmp4"(#loc26))
#loc100 = loc("tmp4"(#loc27))
#loc101 = loc("tmp4"(#loc28))
#loc102 = loc("tmp17"(#loc29))
#loc103 = loc("tmp17"(#loc30))
#loc104 = loc("tmp2"(#loc31))
#loc105 = loc("tmp3"(#loc32))
#loc106 = loc("tmp6"(#loc33))
#loc107 = loc("tmp7"(#loc34))
#loc108 = loc("tmp8"(#loc35))
#loc109 = loc("tmp11"(#loc36))
#loc110 = loc("tmp11"(#loc37))
#loc111 = loc("tmp12"(#loc38))
#loc112 = loc("tmp12"(#loc39))
#loc113 = loc("tmp13"(#loc40))
#loc114 = loc("tmp14"(#loc41))
#loc115 = loc("tmp15"(#loc42))
#loc116 = loc("tmp16"(#loc43))
#loc117 = loc("tmp18"(#loc44))
#loc118 = loc("tmp19"(#loc45))
