#loc = loc("/NHNHOME/WORKSPACE/26msit001_A/jinhyeok/loop_TTT/lact/.cache_inductor_llm/sz/cszygph4c56xjrxqmep2jzzcu57sa3ybxiivt5fr4nzlhlsm5qk2.py":18:0)
#loc53 = loc("in_ptr0"(#loc))
#loc54 = loc("in_ptr1"(#loc))
#loc55 = loc("in_ptr2"(#loc))
#loc56 = loc("in_ptr3"(#loc))
#loc57 = loc("out_ptr0"(#loc))
#loc58 = loc("ynumel"(#loc))
#loc59 = loc("xnumel"(#loc))
module {
  tt.func public @triton_poi_fused__to_copy_add_mul_transpose_8(%in_ptr0: !tt.ptr<bf16> {tt.divisibility = 16 : i32} loc("in_ptr0"(#loc)), %in_ptr1: !tt.ptr<f32> {tt.divisibility = 16 : i32} loc("in_ptr1"(#loc)), %in_ptr2: !tt.ptr<bf16> {tt.divisibility = 16 : i32} loc("in_ptr2"(#loc)), %in_ptr3: !tt.ptr<bf16> {tt.divisibility = 16 : i32} loc("in_ptr3"(#loc)), %out_ptr0: !tt.ptr<bf16> {tt.divisibility = 16 : i32} loc("out_ptr0"(#loc)), %ynumel: i32 {tt.divisibility = 16 : i32} loc("ynumel"(#loc)), %xnumel: i32 {tt.divisibility = 16 : i32} loc("xnumel"(#loc))) attributes {noinline = false} {
    %ynumel_0 = arith.constant 1536 : i32 loc(#loc60)
    %xnumel_1 = arith.constant 192 : i32 loc(#loc61)
    %yoffset = tt.get_program_id y : i32 loc(#loc62)
    %yoffset_2 = arith.constant 1024 : i32 loc(#loc63)
    %yoffset_3 = arith.constant 1024 : i32 loc(#loc63)
    %yoffset_4 = arith.muli %yoffset, %yoffset_3 : i32 loc(#loc63)
    %yindex = tt.make_range {end = 1024 : i32, start = 0 : i32} : tensor<1024xi32> loc(#loc64)
    %yindex_5 = tt.expand_dims %yindex {axis = 1 : i32} : tensor<1024xi32> -> tensor<1024x1xi32> loc(#loc65)
    %yindex_6 = tt.splat %yoffset_4 : i32 -> tensor<1024x1xi32> loc(#loc66)
    %yindex_7 = arith.addi %yindex_6, %yindex_5 : tensor<1024x1xi32> loc(#loc66)
    %ymask = arith.constant dense<1536> : tensor<1024x1xi32> loc(#loc67)
    %ymask_8 = arith.cmpi slt, %yindex_7, %ymask : tensor<1024x1xi32> loc(#loc67)
    %xoffset = tt.get_program_id x : i32 loc(#loc68)
    %xoffset_9 = arith.constant 1 : i32 loc(#loc69)
    %xoffset_10 = arith.constant 1 : i32 loc(#loc69)
    %xoffset_11 = arith.muli %xoffset, %xoffset_10 : i32 loc(#loc69)
    %xindex = tt.make_range {end = 1 : i32, start = 0 : i32} : tensor<1xi32> loc(#loc70)
    %xindex_12 = tt.expand_dims %xindex {axis = 0 : i32} : tensor<1xi32> -> tensor<1x1xi32> loc(#loc71)
    %xindex_13 = tt.splat %xoffset_11 : i32 -> tensor<1x1xi32> loc(#loc72)
    %xindex_14 = arith.addi %xindex_13, %xindex_12 : tensor<1x1xi32> loc(#loc72)
    %xmask = arith.constant dense<192> : tensor<1x1xi32> loc(#loc73)
    %xmask_15 = arith.cmpi slt, %xindex_14, %xmask : tensor<1x1xi32> loc(#loc73)
    %y0 = arith.constant 192 : i32 loc(#loc74)
    %y0_16 = arith.constant 192 : i32 loc(#loc74)
    %y0_17 = arith.constant dense<192> : tensor<1024x1xi32> loc(#loc74)
    %y0_18 = arith.remsi %yindex_7, %y0_17 : tensor<1024x1xi32> loc(#loc74)
    %y1 = arith.constant 192 : i32 loc(#loc75)
    %y1_19 = arith.constant 192 : i32 loc(#loc75)
    %y1_20 = arith.constant dense<192> : tensor<1024x1xi32> loc(#loc75)
    %y1_21 = arith.divsi %yindex_7, %y1_20 : tensor<1024x1xi32> loc(#loc75)
    %tmp0 = arith.constant 192 : i32 loc(#loc76)
    %tmp0_22 = arith.constant 192 : i32 loc(#loc76)
    %tmp0_23 = arith.constant dense<192> : tensor<1024x1xi32> loc(#loc76)
    %tmp0_24 = arith.muli %tmp0_23, %yindex_7 : tensor<1024x1xi32> loc(#loc76)
    %tmp0_25 = tt.broadcast %xindex_14 : tensor<1x1xi32> -> tensor<1024x1xi32> loc(#loc77)
    %tmp0_26 = arith.addi %tmp0_25, %tmp0_24 : tensor<1024x1xi32> loc(#loc77)
    %tmp0_27 = tt.splat %in_ptr0 : !tt.ptr<bf16> -> tensor<1024x1x!tt.ptr<bf16>> loc(#loc78)
    %tmp0_28 = tt.addptr %tmp0_27, %tmp0_26 : tensor<1024x1x!tt.ptr<bf16>>, tensor<1024x1xi32> loc(#loc78)
    %tmp0_29 = tt.broadcast %xmask_15 : tensor<1x1xi1> -> tensor<1024x1xi1> loc(#loc79)
    %tmp0_30 = arith.andi %tmp0_29, %ymask_8 : tensor<1024x1xi1> loc(#loc79)
    %tmp0_31 = tt.load %tmp0_28, %tmp0_30 evictionPolicy = evict_last : tensor<1024x1x!tt.ptr<bf16>> loc(#loc80)
    %tmp0_32 = arith.extf %tmp0_31 : tensor<1024x1xbf16> to tensor<1024x1xf32> loc(#loc81)
    %tmp2 = arith.constant 192 : i32 loc(#loc82)
    %tmp2_33 = arith.constant 192 : i32 loc(#loc82)
    %tmp2_34 = arith.constant dense<192> : tensor<1024x1xi32> loc(#loc82)
    %tmp2_35 = arith.muli %tmp2_34, %yindex_7 : tensor<1024x1xi32> loc(#loc82)
    %tmp2_36 = tt.broadcast %xindex_14 : tensor<1x1xi32> -> tensor<1024x1xi32> loc(#loc83)
    %tmp2_37 = arith.addi %tmp2_36, %tmp2_35 : tensor<1024x1xi32> loc(#loc83)
    %tmp2_38 = tt.splat %in_ptr1 : !tt.ptr<f32> -> tensor<1024x1x!tt.ptr<f32>> loc(#loc84)
    %tmp2_39 = tt.addptr %tmp2_38, %tmp2_37 : tensor<1024x1x!tt.ptr<f32>>, tensor<1024x1xi32> loc(#loc84)
    %tmp2_40 = tt.broadcast %xmask_15 : tensor<1x1xi1> -> tensor<1024x1xi1> loc(#loc85)
    %tmp2_41 = arith.andi %tmp2_40, %ymask_8 : tensor<1024x1xi1> loc(#loc85)
    %tmp2_42 = tt.load %tmp2_39, %tmp2_41 evictionPolicy = evict_last : tensor<1024x1x!tt.ptr<f32>> loc(#loc86)
    %tmp6 = arith.constant 192 : i32 loc(#loc87)
    %tmp6_43 = arith.constant 192 : i32 loc(#loc87)
    %tmp6_44 = arith.constant dense<192> : tensor<1024x1xi32> loc(#loc87)
    %tmp6_45 = arith.muli %tmp6_44, %yindex_7 : tensor<1024x1xi32> loc(#loc87)
    %tmp6_46 = tt.broadcast %xindex_14 : tensor<1x1xi32> -> tensor<1024x1xi32> loc(#loc88)
    %tmp6_47 = arith.addi %tmp6_46, %tmp6_45 : tensor<1024x1xi32> loc(#loc88)
    %tmp6_48 = tt.splat %in_ptr2 : !tt.ptr<bf16> -> tensor<1024x1x!tt.ptr<bf16>> loc(#loc89)
    %tmp6_49 = tt.addptr %tmp6_48, %tmp6_47 : tensor<1024x1x!tt.ptr<bf16>>, tensor<1024x1xi32> loc(#loc89)
    %tmp6_50 = tt.broadcast %xmask_15 : tensor<1x1xi1> -> tensor<1024x1xi1> loc(#loc90)
    %tmp6_51 = arith.andi %tmp6_50, %ymask_8 : tensor<1024x1xi1> loc(#loc90)
    %tmp6_52 = tt.load %tmp6_49, %tmp6_51 evictionPolicy = evict_last : tensor<1024x1x!tt.ptr<bf16>> loc(#loc91)
    %tmp6_53 = arith.extf %tmp6_52 : tensor<1024x1xbf16> to tensor<1024x1xf32> loc(#loc92)
    %tmp9 = arith.constant 192 : i32 loc(#loc93)
    %tmp9_54 = arith.constant 192 : i32 loc(#loc93)
    %tmp9_55 = arith.constant dense<192> : tensor<1x1xi32> loc(#loc93)
    %tmp9_56 = arith.muli %tmp9_55, %xindex_14 : tensor<1x1xi32> loc(#loc93)
    %tmp9_57 = tt.broadcast %tmp9_56 : tensor<1x1xi32> -> tensor<1024x1xi32> loc(#loc94)
    %tmp9_58 = arith.addi %y0_18, %tmp9_57 : tensor<1024x1xi32> loc(#loc94)
    %tmp9_59 = arith.constant 36864 : i32 loc(#loc95)
    %tmp9_60 = arith.constant 36864 : i32 loc(#loc95)
    %tmp9_61 = arith.constant dense<36864> : tensor<1024x1xi32> loc(#loc95)
    %tmp9_62 = arith.muli %tmp9_61, %y1_21 : tensor<1024x1xi32> loc(#loc95)
    %tmp9_63 = arith.addi %tmp9_58, %tmp9_62 : tensor<1024x1xi32> loc(#loc96)
    %tmp9_64 = tt.splat %in_ptr3 : !tt.ptr<bf16> -> tensor<1024x1x!tt.ptr<bf16>> loc(#loc97)
    %tmp9_65 = tt.addptr %tmp9_64, %tmp9_63 : tensor<1024x1x!tt.ptr<bf16>>, tensor<1024x1xi32> loc(#loc97)
    %tmp9_66 = tt.broadcast %xmask_15 : tensor<1x1xi1> -> tensor<1024x1xi1> loc(#loc98)
    %tmp9_67 = arith.andi %tmp9_66, %ymask_8 : tensor<1024x1xi1> loc(#loc98)
    %tmp9_68 = tt.load %tmp9_65, %tmp9_67 evictionPolicy = evict_last : tensor<1024x1x!tt.ptr<bf16>> loc(#loc99)
    %tmp9_69 = arith.extf %tmp9_68 : tensor<1024x1xbf16> to tensor<1024x1xf32> loc(#loc100)
    %tmp3 = arith.constant 3.741800e+00 : f32 loc(#loc101)
    %tmp4 = arith.constant dense<3.741800e+00> : tensor<1024x1xf32> loc(#loc102)
    %tmp4_70 = arith.mulf %tmp2_42, %tmp4 : tensor<1024x1xf32> loc(#loc102)
    %tmp5 = arith.addf %tmp0_32, %tmp4_70 : tensor<1024x1xf32> loc(#loc103)
    %tmp8 = arith.addf %tmp5, %tmp6_53 : tensor<1024x1xf32> loc(#loc104)
    %tmp11 = arith.addf %tmp8, %tmp9_69 : tensor<1024x1xf32> loc(#loc105)
    %c192_i32 = arith.constant 192 : i32 loc(#loc47)
    %c192_i32_71 = arith.constant 192 : i32 loc(#loc47)
    %cst = arith.constant dense<192> : tensor<1024x1xi32> loc(#loc47)
    %0 = arith.muli %cst, %yindex_7 : tensor<1024x1xi32> loc(#loc47)
    %1 = tt.broadcast %xindex_14 : tensor<1x1xi32> -> tensor<1024x1xi32> loc(#loc48)
    %2 = arith.addi %1, %0 : tensor<1024x1xi32> loc(#loc48)
    %3 = tt.splat %out_ptr0 : !tt.ptr<bf16> -> tensor<1024x1x!tt.ptr<bf16>> loc(#loc49)
    %4 = tt.addptr %3, %2 : tensor<1024x1x!tt.ptr<bf16>>, tensor<1024x1xi32> loc(#loc49)
    %5 = tt.broadcast %xmask_15 : tensor<1x1xi1> -> tensor<1024x1xi1> loc(#loc50)
    %6 = arith.andi %5, %ymask_8 : tensor<1024x1xi1> loc(#loc50)
    %7 = arith.truncf %tmp11 : tensor<1024x1xf32> to tensor<1024x1xbf16> loc(#loc51)
    tt.store %4, %7, %6 : tensor<1024x1x!tt.ptr<bf16>> loc(#loc51)
    tt.return loc(#loc52)
  } loc(#loc)
} loc(#loc)
#loc1 = loc("/NHNHOME/WORKSPACE/26msit001_A/jinhyeok/loop_TTT/lact/.cache_inductor_llm/sz/cszygph4c56xjrxqmep2jzzcu57sa3ybxiivt5fr4nzlhlsm5qk2.py":19:13)
#loc2 = loc("/NHNHOME/WORKSPACE/26msit001_A/jinhyeok/loop_TTT/lact/.cache_inductor_llm/sz/cszygph4c56xjrxqmep2jzzcu57sa3ybxiivt5fr4nzlhlsm5qk2.py":20:13)
#loc3 = loc("/NHNHOME/WORKSPACE/26msit001_A/jinhyeok/loop_TTT/lact/.cache_inductor_llm/sz/cszygph4c56xjrxqmep2jzzcu57sa3ybxiivt5fr4nzlhlsm5qk2.py":21:28)
#loc4 = loc("/NHNHOME/WORKSPACE/26msit001_A/jinhyeok/loop_TTT/lact/.cache_inductor_llm/sz/cszygph4c56xjrxqmep2jzzcu57sa3ybxiivt5fr4nzlhlsm5qk2.py":21:33)
#loc5 = loc("/NHNHOME/WORKSPACE/26msit001_A/jinhyeok/loop_TTT/lact/.cache_inductor_llm/sz/cszygph4c56xjrxqmep2jzzcu57sa3ybxiivt5fr4nzlhlsm5qk2.py":22:36)
#loc6 = loc("/NHNHOME/WORKSPACE/26msit001_A/jinhyeok/loop_TTT/lact/.cache_inductor_llm/sz/cszygph4c56xjrxqmep2jzzcu57sa3ybxiivt5fr4nzlhlsm5qk2.py":22:44)
#loc7 = loc("/NHNHOME/WORKSPACE/26msit001_A/jinhyeok/loop_TTT/lact/.cache_inductor_llm/sz/cszygph4c56xjrxqmep2jzzcu57sa3ybxiivt5fr4nzlhlsm5qk2.py":22:23)
#loc8 = loc("/NHNHOME/WORKSPACE/26msit001_A/jinhyeok/loop_TTT/lact/.cache_inductor_llm/sz/cszygph4c56xjrxqmep2jzzcu57sa3ybxiivt5fr4nzlhlsm5qk2.py":23:21)
#loc9 = loc("/NHNHOME/WORKSPACE/26msit001_A/jinhyeok/loop_TTT/lact/.cache_inductor_llm/sz/cszygph4c56xjrxqmep2jzzcu57sa3ybxiivt5fr4nzlhlsm5qk2.py":24:28)
#loc10 = loc("/NHNHOME/WORKSPACE/26msit001_A/jinhyeok/loop_TTT/lact/.cache_inductor_llm/sz/cszygph4c56xjrxqmep2jzzcu57sa3ybxiivt5fr4nzlhlsm5qk2.py":24:33)
#loc11 = loc("/NHNHOME/WORKSPACE/26msit001_A/jinhyeok/loop_TTT/lact/.cache_inductor_llm/sz/cszygph4c56xjrxqmep2jzzcu57sa3ybxiivt5fr4nzlhlsm5qk2.py":25:36)
#loc12 = loc("/NHNHOME/WORKSPACE/26msit001_A/jinhyeok/loop_TTT/lact/.cache_inductor_llm/sz/cszygph4c56xjrxqmep2jzzcu57sa3ybxiivt5fr4nzlhlsm5qk2.py":25:44)
#loc13 = loc("/NHNHOME/WORKSPACE/26msit001_A/jinhyeok/loop_TTT/lact/.cache_inductor_llm/sz/cszygph4c56xjrxqmep2jzzcu57sa3ybxiivt5fr4nzlhlsm5qk2.py":25:23)
#loc14 = loc("/NHNHOME/WORKSPACE/26msit001_A/jinhyeok/loop_TTT/lact/.cache_inductor_llm/sz/cszygph4c56xjrxqmep2jzzcu57sa3ybxiivt5fr4nzlhlsm5qk2.py":26:21)
#loc15 = loc("/NHNHOME/WORKSPACE/26msit001_A/jinhyeok/loop_TTT/lact/.cache_inductor_llm/sz/cszygph4c56xjrxqmep2jzzcu57sa3ybxiivt5fr4nzlhlsm5qk2.py":29:19)
#loc16 = loc("/NHNHOME/WORKSPACE/26msit001_A/jinhyeok/loop_TTT/lact/.cache_inductor_llm/sz/cszygph4c56xjrxqmep2jzzcu57sa3ybxiivt5fr4nzlhlsm5qk2.py":30:19)
#loc17 = loc("/NHNHOME/WORKSPACE/26msit001_A/jinhyeok/loop_TTT/lact/.cache_inductor_llm/sz/cszygph4c56xjrxqmep2jzzcu57sa3ybxiivt5fr4nzlhlsm5qk2.py":31:39)
#loc18 = loc("/NHNHOME/WORKSPACE/26msit001_A/jinhyeok/loop_TTT/lact/.cache_inductor_llm/sz/cszygph4c56xjrxqmep2jzzcu57sa3ybxiivt5fr4nzlhlsm5qk2.py":31:35)
#loc19 = loc("/NHNHOME/WORKSPACE/26msit001_A/jinhyeok/loop_TTT/lact/.cache_inductor_llm/sz/cszygph4c56xjrxqmep2jzzcu57sa3ybxiivt5fr4nzlhlsm5qk2.py":31:30)
#loc20 = loc("/NHNHOME/WORKSPACE/26msit001_A/jinhyeok/loop_TTT/lact/.cache_inductor_llm/sz/cszygph4c56xjrxqmep2jzzcu57sa3ybxiivt5fr4nzlhlsm5qk2.py":31:52)
#loc21 = loc("/NHNHOME/WORKSPACE/26msit001_A/jinhyeok/loop_TTT/lact/.cache_inductor_llm/sz/cszygph4c56xjrxqmep2jzzcu57sa3ybxiivt5fr4nzlhlsm5qk2.py":31:44)
#loc22 = loc("/NHNHOME/WORKSPACE/26msit001_A/jinhyeok/loop_TTT/lact/.cache_inductor_llm/sz/cszygph4c56xjrxqmep2jzzcu57sa3ybxiivt5fr4nzlhlsm5qk2.py":31:92)
#loc23 = loc("/NHNHOME/WORKSPACE/26msit001_A/jinhyeok/loop_TTT/lact/.cache_inductor_llm/sz/cszygph4c56xjrxqmep2jzzcu57sa3ybxiivt5fr4nzlhlsm5qk2.py":32:39)
#loc24 = loc("/NHNHOME/WORKSPACE/26msit001_A/jinhyeok/loop_TTT/lact/.cache_inductor_llm/sz/cszygph4c56xjrxqmep2jzzcu57sa3ybxiivt5fr4nzlhlsm5qk2.py":32:35)
#loc25 = loc("/NHNHOME/WORKSPACE/26msit001_A/jinhyeok/loop_TTT/lact/.cache_inductor_llm/sz/cszygph4c56xjrxqmep2jzzcu57sa3ybxiivt5fr4nzlhlsm5qk2.py":32:30)
#loc26 = loc("/NHNHOME/WORKSPACE/26msit001_A/jinhyeok/loop_TTT/lact/.cache_inductor_llm/sz/cszygph4c56xjrxqmep2jzzcu57sa3ybxiivt5fr4nzlhlsm5qk2.py":32:52)
#loc27 = loc("/NHNHOME/WORKSPACE/26msit001_A/jinhyeok/loop_TTT/lact/.cache_inductor_llm/sz/cszygph4c56xjrxqmep2jzzcu57sa3ybxiivt5fr4nzlhlsm5qk2.py":32:44)
#loc28 = loc("/NHNHOME/WORKSPACE/26msit001_A/jinhyeok/loop_TTT/lact/.cache_inductor_llm/sz/cszygph4c56xjrxqmep2jzzcu57sa3ybxiivt5fr4nzlhlsm5qk2.py":33:39)
#loc29 = loc("/NHNHOME/WORKSPACE/26msit001_A/jinhyeok/loop_TTT/lact/.cache_inductor_llm/sz/cszygph4c56xjrxqmep2jzzcu57sa3ybxiivt5fr4nzlhlsm5qk2.py":33:35)
#loc30 = loc("/NHNHOME/WORKSPACE/26msit001_A/jinhyeok/loop_TTT/lact/.cache_inductor_llm/sz/cszygph4c56xjrxqmep2jzzcu57sa3ybxiivt5fr4nzlhlsm5qk2.py":33:30)
#loc31 = loc("/NHNHOME/WORKSPACE/26msit001_A/jinhyeok/loop_TTT/lact/.cache_inductor_llm/sz/cszygph4c56xjrxqmep2jzzcu57sa3ybxiivt5fr4nzlhlsm5qk2.py":33:52)
#loc32 = loc("/NHNHOME/WORKSPACE/26msit001_A/jinhyeok/loop_TTT/lact/.cache_inductor_llm/sz/cszygph4c56xjrxqmep2jzzcu57sa3ybxiivt5fr4nzlhlsm5qk2.py":33:44)
#loc33 = loc("/NHNHOME/WORKSPACE/26msit001_A/jinhyeok/loop_TTT/lact/.cache_inductor_llm/sz/cszygph4c56xjrxqmep2jzzcu57sa3ybxiivt5fr4nzlhlsm5qk2.py":33:92)
#loc34 = loc("/NHNHOME/WORKSPACE/26msit001_A/jinhyeok/loop_TTT/lact/.cache_inductor_llm/sz/cszygph4c56xjrxqmep2jzzcu57sa3ybxiivt5fr4nzlhlsm5qk2.py":34:39)
#loc35 = loc("/NHNHOME/WORKSPACE/26msit001_A/jinhyeok/loop_TTT/lact/.cache_inductor_llm/sz/cszygph4c56xjrxqmep2jzzcu57sa3ybxiivt5fr4nzlhlsm5qk2.py":34:35)
#loc36 = loc("/NHNHOME/WORKSPACE/26msit001_A/jinhyeok/loop_TTT/lact/.cache_inductor_llm/sz/cszygph4c56xjrxqmep2jzzcu57sa3ybxiivt5fr4nzlhlsm5qk2.py":34:50)
#loc37 = loc("/NHNHOME/WORKSPACE/26msit001_A/jinhyeok/loop_TTT/lact/.cache_inductor_llm/sz/cszygph4c56xjrxqmep2jzzcu57sa3ybxiivt5fr4nzlhlsm5qk2.py":34:44)
#loc38 = loc("/NHNHOME/WORKSPACE/26msit001_A/jinhyeok/loop_TTT/lact/.cache_inductor_llm/sz/cszygph4c56xjrxqmep2jzzcu57sa3ybxiivt5fr4nzlhlsm5qk2.py":34:30)
#loc39 = loc("/NHNHOME/WORKSPACE/26msit001_A/jinhyeok/loop_TTT/lact/.cache_inductor_llm/sz/cszygph4c56xjrxqmep2jzzcu57sa3ybxiivt5fr4nzlhlsm5qk2.py":34:63)
#loc40 = loc("/NHNHOME/WORKSPACE/26msit001_A/jinhyeok/loop_TTT/lact/.cache_inductor_llm/sz/cszygph4c56xjrxqmep2jzzcu57sa3ybxiivt5fr4nzlhlsm5qk2.py":34:55)
#loc41 = loc("/NHNHOME/WORKSPACE/26msit001_A/jinhyeok/loop_TTT/lact/.cache_inductor_llm/sz/cszygph4c56xjrxqmep2jzzcu57sa3ybxiivt5fr4nzlhlsm5qk2.py":34:103)
#loc42 = loc("/NHNHOME/WORKSPACE/26msit001_A/jinhyeok/loop_TTT/lact/.cache_inductor_llm/sz/cszygph4c56xjrxqmep2jzzcu57sa3ybxiivt5fr4nzlhlsm5qk2.py":36:11)
#loc43 = loc("/NHNHOME/WORKSPACE/26msit001_A/jinhyeok/loop_TTT/lact/.cache_inductor_llm/sz/cszygph4c56xjrxqmep2jzzcu57sa3ybxiivt5fr4nzlhlsm5qk2.py":37:18)
#loc44 = loc("/NHNHOME/WORKSPACE/26msit001_A/jinhyeok/loop_TTT/lact/.cache_inductor_llm/sz/cszygph4c56xjrxqmep2jzzcu57sa3ybxiivt5fr4nzlhlsm5qk2.py":38:18)
#loc45 = loc("/NHNHOME/WORKSPACE/26msit001_A/jinhyeok/loop_TTT/lact/.cache_inductor_llm/sz/cszygph4c56xjrxqmep2jzzcu57sa3ybxiivt5fr4nzlhlsm5qk2.py":40:18)
#loc46 = loc("/NHNHOME/WORKSPACE/26msit001_A/jinhyeok/loop_TTT/lact/.cache_inductor_llm/sz/cszygph4c56xjrxqmep2jzzcu57sa3ybxiivt5fr4nzlhlsm5qk2.py":42:19)
#loc47 = loc("/NHNHOME/WORKSPACE/26msit001_A/jinhyeok/loop_TTT/lact/.cache_inductor_llm/sz/cszygph4c56xjrxqmep2jzzcu57sa3ybxiivt5fr4nzlhlsm5qk2.py":44:34)
#loc48 = loc("/NHNHOME/WORKSPACE/26msit001_A/jinhyeok/loop_TTT/lact/.cache_inductor_llm/sz/cszygph4c56xjrxqmep2jzzcu57sa3ybxiivt5fr4nzlhlsm5qk2.py":44:30)
#loc49 = loc("/NHNHOME/WORKSPACE/26msit001_A/jinhyeok/loop_TTT/lact/.cache_inductor_llm/sz/cszygph4c56xjrxqmep2jzzcu57sa3ybxiivt5fr4nzlhlsm5qk2.py":44:25)
#loc50 = loc("/NHNHOME/WORKSPACE/26msit001_A/jinhyeok/loop_TTT/lact/.cache_inductor_llm/sz/cszygph4c56xjrxqmep2jzzcu57sa3ybxiivt5fr4nzlhlsm5qk2.py":44:54)
#loc51 = loc("/NHNHOME/WORKSPACE/26msit001_A/jinhyeok/loop_TTT/lact/.cache_inductor_llm/sz/cszygph4c56xjrxqmep2jzzcu57sa3ybxiivt5fr4nzlhlsm5qk2.py":44:46)
#loc52 = loc("/NHNHOME/WORKSPACE/26msit001_A/jinhyeok/loop_TTT/lact/.cache_inductor_llm/sz/cszygph4c56xjrxqmep2jzzcu57sa3ybxiivt5fr4nzlhlsm5qk2.py":44:4)
#loc60 = loc("ynumel"(#loc1))
#loc61 = loc("xnumel"(#loc2))
#loc62 = loc("yoffset"(#loc3))
#loc63 = loc("yoffset"(#loc4))
#loc64 = loc("yindex"(#loc5))
#loc65 = loc("yindex"(#loc6))
#loc66 = loc("yindex"(#loc7))
#loc67 = loc("ymask"(#loc8))
#loc68 = loc("xoffset"(#loc9))
#loc69 = loc("xoffset"(#loc10))
#loc70 = loc("xindex"(#loc11))
#loc71 = loc("xindex"(#loc12))
#loc72 = loc("xindex"(#loc13))
#loc73 = loc("xmask"(#loc14))
#loc74 = loc("y0"(#loc15))
#loc75 = loc("y1"(#loc16))
#loc76 = loc("tmp0"(#loc17))
#loc77 = loc("tmp0"(#loc18))
#loc78 = loc("tmp0"(#loc19))
#loc79 = loc("tmp0"(#loc20))
#loc80 = loc("tmp0"(#loc21))
#loc81 = loc("tmp0"(#loc22))
#loc82 = loc("tmp2"(#loc23))
#loc83 = loc("tmp2"(#loc24))
#loc84 = loc("tmp2"(#loc25))
#loc85 = loc("tmp2"(#loc26))
#loc86 = loc("tmp2"(#loc27))
#loc87 = loc("tmp6"(#loc28))
#loc88 = loc("tmp6"(#loc29))
#loc89 = loc("tmp6"(#loc30))
#loc90 = loc("tmp6"(#loc31))
#loc91 = loc("tmp6"(#loc32))
#loc92 = loc("tmp6"(#loc33))
#loc93 = loc("tmp9"(#loc34))
#loc94 = loc("tmp9"(#loc35))
#loc95 = loc("tmp9"(#loc36))
#loc96 = loc("tmp9"(#loc37))
#loc97 = loc("tmp9"(#loc38))
#loc98 = loc("tmp9"(#loc39))
#loc99 = loc("tmp9"(#loc40))
#loc100 = loc("tmp9"(#loc41))
#loc101 = loc("tmp3"(#loc42))
#loc102 = loc("tmp4"(#loc43))
#loc103 = loc("tmp5"(#loc44))
#loc104 = loc("tmp8"(#loc45))
#loc105 = loc("tmp11"(#loc46))
