#loc = loc("/NHNHOME/WORKSPACE/26msit001_A/jinhyeok/loop_TTT/lact/.cache_inductor_llm/4h/c4hnimmozkttutngotp4izuawn34zq2qwaxz2os6vqc6ysgetr4c.py":18:0)
#loc21 = loc("in_out_ptr0"(#loc))
#loc22 = loc("in_ptr0"(#loc))
#loc23 = loc("in_ptr1"(#loc))
#loc24 = loc("xnumel"(#loc))
module {
  tt.func public @triton_poi_fused_add_mul_11(%in_out_ptr0: !tt.ptr<bf16> {tt.divisibility = 16 : i32} loc("in_out_ptr0"(#loc)), %in_ptr0: !tt.ptr<bf16> {tt.divisibility = 16 : i32} loc("in_ptr0"(#loc)), %in_ptr1: !tt.ptr<bf16> {tt.divisibility = 16 : i32} loc("in_ptr1"(#loc)), %xnumel: i32 {tt.divisibility = 16 : i32} loc("xnumel"(#loc))) attributes {noinline = false} {
    %tmp7 = arith.constant dense<-6.89459991> : tensor<1024xf32> loc(#loc25)
    %tmp3 = arith.constant dense<2.927000e+00> : tensor<1024xf32> loc(#loc26)
    %c1024_i32 = arith.constant 1024 : i32 loc(#loc3)
    %xoffset = tt.get_program_id x : i32 loc(#loc27)
    %xoffset_0 = arith.muli %xoffset, %c1024_i32 : i32 loc(#loc28)
    %xindex = tt.make_range {end = 1024 : i32, start = 0 : i32} : tensor<1024xi32> loc(#loc29)
    %xindex_1 = tt.splat %xoffset_0 : i32 -> tensor<1024xi32> loc(#loc30)
    %xindex_2 = arith.addi %xindex_1, %xindex : tensor<1024xi32> loc(#loc30)
    %tmp0 = tt.splat %in_out_ptr0 : !tt.ptr<bf16> -> tensor<1024x!tt.ptr<bf16>> loc(#loc31)
    %tmp0_3 = tt.addptr %tmp0, %xindex_2 : tensor<1024x!tt.ptr<bf16>>, tensor<1024xi32> loc(#loc31)
    %tmp0_4 = tt.load %tmp0_3 : tensor<1024x!tt.ptr<bf16>> loc(#loc32)
    %tmp0_5 = arith.extf %tmp0_4 : tensor<1024xbf16> to tensor<1024xf32> loc(#loc33)
    %tmp1 = tt.splat %in_ptr0 : !tt.ptr<bf16> -> tensor<1024x!tt.ptr<bf16>> loc(#loc34)
    %tmp1_6 = tt.addptr %tmp1, %xindex_2 : tensor<1024x!tt.ptr<bf16>>, tensor<1024xi32> loc(#loc34)
    %tmp1_7 = tt.load %tmp1_6 : tensor<1024x!tt.ptr<bf16>> loc(#loc35)
    %tmp1_8 = arith.extf %tmp1_7 : tensor<1024xbf16> to tensor<1024xf32> loc(#loc36)
    %tmp5 = tt.splat %in_ptr1 : !tt.ptr<bf16> -> tensor<1024x!tt.ptr<bf16>> loc(#loc37)
    %tmp5_9 = tt.addptr %tmp5, %xindex_2 : tensor<1024x!tt.ptr<bf16>>, tensor<1024xi32> loc(#loc37)
    %tmp5_10 = tt.load %tmp5_9 : tensor<1024x!tt.ptr<bf16>> loc(#loc38)
    %tmp5_11 = arith.extf %tmp5_10 : tensor<1024xbf16> to tensor<1024xf32> loc(#loc39)
    %tmp3_12 = arith.mulf %tmp1_8, %tmp3 : tensor<1024xf32> loc(#loc26)
    %tmp4 = arith.addf %tmp0_5, %tmp3_12 : tensor<1024xf32> loc(#loc40)
    %tmp7_13 = arith.mulf %tmp5_11, %tmp7 : tensor<1024xf32> loc(#loc25)
    %tmp8 = arith.addf %tmp4, %tmp7_13 : tensor<1024xf32> loc(#loc41)
    %0 = arith.truncf %tmp8 : tensor<1024xf32> to tensor<1024xbf16> loc(#loc19)
    tt.store %tmp0_3, %0 : tensor<1024x!tt.ptr<bf16>> loc(#loc19)
    tt.return loc(#loc20)
  } loc(#loc)
} loc(#loc)
#loc1 = loc("/NHNHOME/WORKSPACE/26msit001_A/jinhyeok/loop_TTT/lact/.cache_inductor_llm/4h/c4hnimmozkttutngotp4izuawn34zq2qwaxz2os6vqc6ysgetr4c.py":31:18)
#loc2 = loc("/NHNHOME/WORKSPACE/26msit001_A/jinhyeok/loop_TTT/lact/.cache_inductor_llm/4h/c4hnimmozkttutngotp4izuawn34zq2qwaxz2os6vqc6ysgetr4c.py":28:18)
#loc3 = loc(unknown)
#loc4 = loc("/NHNHOME/WORKSPACE/26msit001_A/jinhyeok/loop_TTT/lact/.cache_inductor_llm/4h/c4hnimmozkttutngotp4izuawn34zq2qwaxz2os6vqc6ysgetr4c.py":20:28)
#loc5 = loc("/NHNHOME/WORKSPACE/26msit001_A/jinhyeok/loop_TTT/lact/.cache_inductor_llm/4h/c4hnimmozkttutngotp4izuawn34zq2qwaxz2os6vqc6ysgetr4c.py":20:33)
#loc6 = loc("/NHNHOME/WORKSPACE/26msit001_A/jinhyeok/loop_TTT/lact/.cache_inductor_llm/4h/c4hnimmozkttutngotp4izuawn34zq2qwaxz2os6vqc6ysgetr4c.py":21:36)
#loc7 = loc("/NHNHOME/WORKSPACE/26msit001_A/jinhyeok/loop_TTT/lact/.cache_inductor_llm/4h/c4hnimmozkttutngotp4izuawn34zq2qwaxz2os6vqc6ysgetr4c.py":21:23)
#loc8 = loc("/NHNHOME/WORKSPACE/26msit001_A/jinhyeok/loop_TTT/lact/.cache_inductor_llm/4h/c4hnimmozkttutngotp4izuawn34zq2qwaxz2os6vqc6ysgetr4c.py":24:34)
#loc9 = loc("/NHNHOME/WORKSPACE/26msit001_A/jinhyeok/loop_TTT/lact/.cache_inductor_llm/4h/c4hnimmozkttutngotp4izuawn34zq2qwaxz2os6vqc6ysgetr4c.py":24:39)
#loc10 = loc("/NHNHOME/WORKSPACE/26msit001_A/jinhyeok/loop_TTT/lact/.cache_inductor_llm/4h/c4hnimmozkttutngotp4izuawn34zq2qwaxz2os6vqc6ysgetr4c.py":24:48)
#loc11 = loc("/NHNHOME/WORKSPACE/26msit001_A/jinhyeok/loop_TTT/lact/.cache_inductor_llm/4h/c4hnimmozkttutngotp4izuawn34zq2qwaxz2os6vqc6ysgetr4c.py":25:30)
#loc12 = loc("/NHNHOME/WORKSPACE/26msit001_A/jinhyeok/loop_TTT/lact/.cache_inductor_llm/4h/c4hnimmozkttutngotp4izuawn34zq2qwaxz2os6vqc6ysgetr4c.py":25:35)
#loc13 = loc("/NHNHOME/WORKSPACE/26msit001_A/jinhyeok/loop_TTT/lact/.cache_inductor_llm/4h/c4hnimmozkttutngotp4izuawn34zq2qwaxz2os6vqc6ysgetr4c.py":25:44)
#loc14 = loc("/NHNHOME/WORKSPACE/26msit001_A/jinhyeok/loop_TTT/lact/.cache_inductor_llm/4h/c4hnimmozkttutngotp4izuawn34zq2qwaxz2os6vqc6ysgetr4c.py":26:30)
#loc15 = loc("/NHNHOME/WORKSPACE/26msit001_A/jinhyeok/loop_TTT/lact/.cache_inductor_llm/4h/c4hnimmozkttutngotp4izuawn34zq2qwaxz2os6vqc6ysgetr4c.py":26:35)
#loc16 = loc("/NHNHOME/WORKSPACE/26msit001_A/jinhyeok/loop_TTT/lact/.cache_inductor_llm/4h/c4hnimmozkttutngotp4izuawn34zq2qwaxz2os6vqc6ysgetr4c.py":26:44)
#loc17 = loc("/NHNHOME/WORKSPACE/26msit001_A/jinhyeok/loop_TTT/lact/.cache_inductor_llm/4h/c4hnimmozkttutngotp4izuawn34zq2qwaxz2os6vqc6ysgetr4c.py":29:18)
#loc18 = loc("/NHNHOME/WORKSPACE/26msit001_A/jinhyeok/loop_TTT/lact/.cache_inductor_llm/4h/c4hnimmozkttutngotp4izuawn34zq2qwaxz2os6vqc6ysgetr4c.py":32:18)
#loc19 = loc("/NHNHOME/WORKSPACE/26msit001_A/jinhyeok/loop_TTT/lact/.cache_inductor_llm/4h/c4hnimmozkttutngotp4izuawn34zq2qwaxz2os6vqc6ysgetr4c.py":33:39)
#loc20 = loc("/NHNHOME/WORKSPACE/26msit001_A/jinhyeok/loop_TTT/lact/.cache_inductor_llm/4h/c4hnimmozkttutngotp4izuawn34zq2qwaxz2os6vqc6ysgetr4c.py":33:4)
#loc25 = loc("tmp7"(#loc1))
#loc26 = loc("tmp3"(#loc2))
#loc27 = loc("xoffset"(#loc4))
#loc28 = loc("xoffset"(#loc5))
#loc29 = loc("xindex"(#loc6))
#loc30 = loc("xindex"(#loc7))
#loc31 = loc("tmp0"(#loc8))
#loc32 = loc("tmp0"(#loc9))
#loc33 = loc("tmp0"(#loc10))
#loc34 = loc("tmp1"(#loc11))
#loc35 = loc("tmp1"(#loc12))
#loc36 = loc("tmp1"(#loc13))
#loc37 = loc("tmp5"(#loc14))
#loc38 = loc("tmp5"(#loc15))
#loc39 = loc("tmp5"(#loc16))
#loc40 = loc("tmp4"(#loc17))
#loc41 = loc("tmp8"(#loc18))
