#loc = loc("/NHNHOME/WORKSPACE/26msit001_A/jinhyeok/loop_TTT/lact/.cache_inductor_llm/wk/cwkq7mcajnbsd47m4t6m3vjv6i2tenuhmaossmtmwljcw3t3qpe3.py":18:0)
#loc52 = loc("in_ptr0"(#loc))
#loc53 = loc("in_ptr1"(#loc))
#loc54 = loc("out_ptr0"(#loc))
#loc55 = loc("out_ptr1"(#loc))
#loc56 = loc("out_ptr2"(#loc))
#loc57 = loc("ynumel"(#loc))
#loc58 = loc("xnumel"(#loc))
module {
  tt.func public @triton_poi_fused__to_copy_add_mul_transpose_17(%in_ptr0: !tt.ptr<f32> {tt.divisibility = 16 : i32} loc("in_ptr0"(#loc)), %in_ptr1: !tt.ptr<bf16> {tt.divisibility = 16 : i32} loc("in_ptr1"(#loc)), %out_ptr0: !tt.ptr<bf16> {tt.divisibility = 16 : i32} loc("out_ptr0"(#loc)), %out_ptr1: !tt.ptr<bf16> {tt.divisibility = 16 : i32} loc("out_ptr1"(#loc)), %out_ptr2: !tt.ptr<bf16> {tt.divisibility = 16 : i32} loc("out_ptr2"(#loc)), %ynumel: i32 {tt.divisibility = 16 : i32} loc("ynumel"(#loc)), %xnumel: i32 {tt.divisibility = 16 : i32} loc("xnumel"(#loc))) attributes {noinline = false} {
    %xnumel_0 = arith.constant 192 : i32 loc(#loc59)
    %yoffset = tt.get_program_id y : i32 loc(#loc60)
    %yoffset_1 = tt.get_program_id z : i32 loc(#loc61)
    %yoffset_2 = tt.get_num_programs y : i32 loc(#loc62)
    %yoffset_3 = arith.muli %yoffset_1, %yoffset_2 : i32 loc(#loc63)
    %yoffset_4 = arith.addi %yoffset, %yoffset_3 : i32 loc(#loc64)
    %yoffset_5 = arith.constant 1024 : i32 loc(#loc65)
    %yoffset_6 = arith.constant 1024 : i32 loc(#loc65)
    %yoffset_7 = arith.muli %yoffset_4, %yoffset_6 : i32 loc(#loc65)
    %yindex = tt.make_range {end = 1024 : i32, start = 0 : i32} : tensor<1024xi32> loc(#loc66)
    %yindex_8 = tt.expand_dims %yindex {axis = 1 : i32} : tensor<1024xi32> -> tensor<1024x1xi32> loc(#loc67)
    %yindex_9 = tt.splat %yoffset_7 : i32 -> tensor<1024x1xi32> loc(#loc68)
    %yindex_10 = arith.addi %yindex_9, %yindex_8 : tensor<1024x1xi32> loc(#loc68)
    %ymask = tt.splat %ynumel : i32 -> tensor<1024x1xi32> loc(#loc69)
    %ymask_11 = arith.cmpi slt, %yindex_10, %ymask : tensor<1024x1xi32> loc(#loc69)
    %xoffset = tt.get_program_id x : i32 loc(#loc70)
    %xoffset_12 = arith.constant 1 : i32 loc(#loc71)
    %xoffset_13 = arith.constant 1 : i32 loc(#loc71)
    %xoffset_14 = arith.muli %xoffset, %xoffset_13 : i32 loc(#loc71)
    %xindex = tt.make_range {end = 1 : i32, start = 0 : i32} : tensor<1xi32> loc(#loc72)
    %xindex_15 = tt.expand_dims %xindex {axis = 0 : i32} : tensor<1xi32> -> tensor<1x1xi32> loc(#loc73)
    %xindex_16 = tt.splat %xoffset_14 : i32 -> tensor<1x1xi32> loc(#loc74)
    %xindex_17 = arith.addi %xindex_16, %xindex_15 : tensor<1x1xi32> loc(#loc74)
    %xmask = arith.constant dense<192> : tensor<1x1xi32> loc(#loc75)
    %xmask_18 = arith.cmpi slt, %xindex_17, %xmask : tensor<1x1xi32> loc(#loc75)
    %y2 = arith.constant 192 : i32 loc(#loc76)
    %y2_19 = arith.constant 192 : i32 loc(#loc76)
    %y2_20 = arith.constant dense<192> : tensor<1024x1xi32> loc(#loc76)
    %y2_21 = arith.remsi %yindex_10, %y2_20 : tensor<1024x1xi32> loc(#loc76)
    %y3 = arith.constant 192 : i32 loc(#loc77)
    %y3_22 = arith.constant 192 : i32 loc(#loc77)
    %y3_23 = arith.constant dense<192> : tensor<1024x1xi32> loc(#loc77)
    %y3_24 = arith.divsi %yindex_10, %y3_23 : tensor<1024x1xi32> loc(#loc77)
    %tmp0 = arith.constant 192 : i32 loc(#loc78)
    %tmp0_25 = arith.constant 192 : i32 loc(#loc78)
    %tmp0_26 = arith.constant dense<192> : tensor<1024x1xi32> loc(#loc78)
    %tmp0_27 = arith.muli %tmp0_26, %yindex_10 : tensor<1024x1xi32> loc(#loc78)
    %tmp0_28 = tt.broadcast %xindex_17 : tensor<1x1xi32> -> tensor<1024x1xi32> loc(#loc79)
    %tmp0_29 = arith.addi %tmp0_28, %tmp0_27 : tensor<1024x1xi32> loc(#loc79)
    %tmp0_30 = tt.splat %in_ptr0 : !tt.ptr<f32> -> tensor<1024x1x!tt.ptr<f32>> loc(#loc80)
    %tmp0_31 = tt.addptr %tmp0_30, %tmp0_29 : tensor<1024x1x!tt.ptr<f32>>, tensor<1024x1xi32> loc(#loc80)
    %tmp0_32 = tt.broadcast %xmask_18 : tensor<1x1xi1> -> tensor<1024x1xi1> loc(#loc81)
    %tmp0_33 = arith.andi %tmp0_32, %ymask_11 : tensor<1024x1xi1> loc(#loc81)
    %tmp0_34 = tt.load %tmp0_31, %tmp0_33 evictionPolicy = evict_last : tensor<1024x1x!tt.ptr<f32>> loc(#loc82)
    %tmp3 = arith.constant 192 : i32 loc(#loc83)
    %tmp3_35 = arith.constant 192 : i32 loc(#loc83)
    %tmp3_36 = arith.constant dense<192> : tensor<1024x1xi32> loc(#loc83)
    %tmp3_37 = arith.muli %tmp3_36, %yindex_10 : tensor<1024x1xi32> loc(#loc83)
    %tmp3_38 = tt.broadcast %xindex_17 : tensor<1x1xi32> -> tensor<1024x1xi32> loc(#loc84)
    %tmp3_39 = arith.addi %tmp3_38, %tmp3_37 : tensor<1024x1xi32> loc(#loc84)
    %tmp3_40 = tt.splat %in_ptr1 : !tt.ptr<bf16> -> tensor<1024x1x!tt.ptr<bf16>> loc(#loc85)
    %tmp3_41 = tt.addptr %tmp3_40, %tmp3_39 : tensor<1024x1x!tt.ptr<bf16>>, tensor<1024x1xi32> loc(#loc85)
    %tmp3_42 = tt.broadcast %xmask_18 : tensor<1x1xi1> -> tensor<1024x1xi1> loc(#loc86)
    %tmp3_43 = arith.andi %tmp3_42, %ymask_11 : tensor<1024x1xi1> loc(#loc86)
    %tmp3_44 = tt.load %tmp3_41, %tmp3_43 evictionPolicy = evict_last : tensor<1024x1x!tt.ptr<bf16>> loc(#loc87)
    %tmp3_45 = arith.extf %tmp3_44 : tensor<1024x1xbf16> to tensor<1024x1xf32> loc(#loc88)
    %tmp1 = arith.constant 3.741800e+00 : f32 loc(#loc89)
    %tmp2 = arith.constant dense<3.741800e+00> : tensor<1024x1xf32> loc(#loc90)
    %tmp2_46 = arith.mulf %tmp0_34, %tmp2 : tensor<1024x1xf32> loc(#loc90)
    %tmp5 = arith.addf %tmp2_46, %tmp3_45 : tensor<1024x1xf32> loc(#loc91)
    %c192_i32 = arith.constant 192 : i32 loc(#loc34)
    %c192_i32_47 = arith.constant 192 : i32 loc(#loc34)
    %cst = arith.constant dense<192> : tensor<1024x1xi32> loc(#loc34)
    %0 = arith.muli %cst, %yindex_10 : tensor<1024x1xi32> loc(#loc34)
    %1 = tt.broadcast %xindex_17 : tensor<1x1xi32> -> tensor<1024x1xi32> loc(#loc35)
    %2 = arith.addi %1, %0 : tensor<1024x1xi32> loc(#loc35)
    %3 = tt.splat %out_ptr0 : !tt.ptr<bf16> -> tensor<1024x1x!tt.ptr<bf16>> loc(#loc36)
    %4 = tt.addptr %3, %2 : tensor<1024x1x!tt.ptr<bf16>>, tensor<1024x1xi32> loc(#loc36)
    %5 = tt.broadcast %xmask_18 : tensor<1x1xi1> -> tensor<1024x1xi1> loc(#loc37)
    %6 = arith.andi %5, %ymask_11 : tensor<1024x1xi1> loc(#loc37)
    %7 = arith.truncf %tmp5 : tensor<1024x1xf32> to tensor<1024x1xbf16> loc(#loc38)
    tt.store %4, %7, %6 : tensor<1024x1x!tt.ptr<bf16>> loc(#loc38)
    %c192_i32_48 = arith.constant 192 : i32 loc(#loc39)
    %c192_i32_49 = arith.constant 192 : i32 loc(#loc39)
    %cst_50 = arith.constant dense<192> : tensor<1x1xi32> loc(#loc39)
    %8 = arith.muli %cst_50, %xindex_17 : tensor<1x1xi32> loc(#loc39)
    %9 = tt.broadcast %8 : tensor<1x1xi32> -> tensor<1024x1xi32> loc(#loc40)
    %10 = arith.addi %y2_21, %9 : tensor<1024x1xi32> loc(#loc40)
    %c36864_i32 = arith.constant 36864 : i32 loc(#loc41)
    %c36864_i32_51 = arith.constant 36864 : i32 loc(#loc41)
    %cst_52 = arith.constant dense<36864> : tensor<1024x1xi32> loc(#loc41)
    %11 = arith.muli %cst_52, %y3_24 : tensor<1024x1xi32> loc(#loc41)
    %12 = arith.addi %10, %11 : tensor<1024x1xi32> loc(#loc42)
    %13 = tt.splat %out_ptr1 : !tt.ptr<bf16> -> tensor<1024x1x!tt.ptr<bf16>> loc(#loc43)
    %14 = tt.addptr %13, %12 : tensor<1024x1x!tt.ptr<bf16>>, tensor<1024x1xi32> loc(#loc43)
    %15 = tt.broadcast %xmask_18 : tensor<1x1xi1> -> tensor<1024x1xi1> loc(#loc44)
    %16 = arith.andi %15, %ymask_11 : tensor<1024x1xi1> loc(#loc44)
    %17 = arith.truncf %tmp5 : tensor<1024x1xf32> to tensor<1024x1xbf16> loc(#loc45)
    tt.store %14, %17, %16 : tensor<1024x1x!tt.ptr<bf16>> loc(#loc45)
    %c192_i32_53 = arith.constant 192 : i32 loc(#loc46)
    %c192_i32_54 = arith.constant 192 : i32 loc(#loc46)
    %cst_55 = arith.constant dense<192> : tensor<1024x1xi32> loc(#loc46)
    %18 = arith.muli %cst_55, %yindex_10 : tensor<1024x1xi32> loc(#loc46)
    %19 = tt.broadcast %xindex_17 : tensor<1x1xi32> -> tensor<1024x1xi32> loc(#loc47)
    %20 = arith.addi %19, %18 : tensor<1024x1xi32> loc(#loc47)
    %21 = tt.splat %out_ptr2 : !tt.ptr<bf16> -> tensor<1024x1x!tt.ptr<bf16>> loc(#loc48)
    %22 = tt.addptr %21, %20 : tensor<1024x1x!tt.ptr<bf16>>, tensor<1024x1xi32> loc(#loc48)
    %23 = tt.broadcast %xmask_18 : tensor<1x1xi1> -> tensor<1024x1xi1> loc(#loc49)
    %24 = arith.andi %23, %ymask_11 : tensor<1024x1xi1> loc(#loc49)
    %25 = arith.truncf %tmp5 : tensor<1024x1xf32> to tensor<1024x1xbf16> loc(#loc50)
    tt.store %22, %25, %24 : tensor<1024x1x!tt.ptr<bf16>> loc(#loc50)
    tt.return loc(#loc51)
  } loc(#loc)
} loc(#loc)
#loc1 = loc("/NHNHOME/WORKSPACE/26msit001_A/jinhyeok/loop_TTT/lact/.cache_inductor_llm/wk/cwkq7mcajnbsd47m4t6m3vjv6i2tenuhmaossmtmwljcw3t3qpe3.py":19:13)
#loc2 = loc("/NHNHOME/WORKSPACE/26msit001_A/jinhyeok/loop_TTT/lact/.cache_inductor_llm/wk/cwkq7mcajnbsd47m4t6m3vjv6i2tenuhmaossmtmwljcw3t3qpe3.py":20:29)
#loc3 = loc("/NHNHOME/WORKSPACE/26msit001_A/jinhyeok/loop_TTT/lact/.cache_inductor_llm/wk/cwkq7mcajnbsd47m4t6m3vjv6i2tenuhmaossmtmwljcw3t3qpe3.py":20:48)
#loc4 = loc("/NHNHOME/WORKSPACE/26msit001_A/jinhyeok/loop_TTT/lact/.cache_inductor_llm/wk/cwkq7mcajnbsd47m4t6m3vjv6i2tenuhmaossmtmwljcw3t3qpe3.py":20:69)
#loc5 = loc("/NHNHOME/WORKSPACE/26msit001_A/jinhyeok/loop_TTT/lact/.cache_inductor_llm/wk/cwkq7mcajnbsd47m4t6m3vjv6i2tenuhmaossmtmwljcw3t3qpe3.py":20:53)
#loc6 = loc("/NHNHOME/WORKSPACE/26msit001_A/jinhyeok/loop_TTT/lact/.cache_inductor_llm/wk/cwkq7mcajnbsd47m4t6m3vjv6i2tenuhmaossmtmwljcw3t3qpe3.py":20:34)
#loc7 = loc("/NHNHOME/WORKSPACE/26msit001_A/jinhyeok/loop_TTT/lact/.cache_inductor_llm/wk/cwkq7mcajnbsd47m4t6m3vjv6i2tenuhmaossmtmwljcw3t3qpe3.py":20:75)
#loc8 = loc("/NHNHOME/WORKSPACE/26msit001_A/jinhyeok/loop_TTT/lact/.cache_inductor_llm/wk/cwkq7mcajnbsd47m4t6m3vjv6i2tenuhmaossmtmwljcw3t3qpe3.py":21:36)
#loc9 = loc("/NHNHOME/WORKSPACE/26msit001_A/jinhyeok/loop_TTT/lact/.cache_inductor_llm/wk/cwkq7mcajnbsd47m4t6m3vjv6i2tenuhmaossmtmwljcw3t3qpe3.py":21:44)
#loc10 = loc("/NHNHOME/WORKSPACE/26msit001_A/jinhyeok/loop_TTT/lact/.cache_inductor_llm/wk/cwkq7mcajnbsd47m4t6m3vjv6i2tenuhmaossmtmwljcw3t3qpe3.py":21:23)
#loc11 = loc("/NHNHOME/WORKSPACE/26msit001_A/jinhyeok/loop_TTT/lact/.cache_inductor_llm/wk/cwkq7mcajnbsd47m4t6m3vjv6i2tenuhmaossmtmwljcw3t3qpe3.py":22:21)
#loc12 = loc("/NHNHOME/WORKSPACE/26msit001_A/jinhyeok/loop_TTT/lact/.cache_inductor_llm/wk/cwkq7mcajnbsd47m4t6m3vjv6i2tenuhmaossmtmwljcw3t3qpe3.py":23:28)
#loc13 = loc("/NHNHOME/WORKSPACE/26msit001_A/jinhyeok/loop_TTT/lact/.cache_inductor_llm/wk/cwkq7mcajnbsd47m4t6m3vjv6i2tenuhmaossmtmwljcw3t3qpe3.py":23:33)
#loc14 = loc("/NHNHOME/WORKSPACE/26msit001_A/jinhyeok/loop_TTT/lact/.cache_inductor_llm/wk/cwkq7mcajnbsd47m4t6m3vjv6i2tenuhmaossmtmwljcw3t3qpe3.py":24:36)
#loc15 = loc("/NHNHOME/WORKSPACE/26msit001_A/jinhyeok/loop_TTT/lact/.cache_inductor_llm/wk/cwkq7mcajnbsd47m4t6m3vjv6i2tenuhmaossmtmwljcw3t3qpe3.py":24:44)
#loc16 = loc("/NHNHOME/WORKSPACE/26msit001_A/jinhyeok/loop_TTT/lact/.cache_inductor_llm/wk/cwkq7mcajnbsd47m4t6m3vjv6i2tenuhmaossmtmwljcw3t3qpe3.py":24:23)
#loc17 = loc("/NHNHOME/WORKSPACE/26msit001_A/jinhyeok/loop_TTT/lact/.cache_inductor_llm/wk/cwkq7mcajnbsd47m4t6m3vjv6i2tenuhmaossmtmwljcw3t3qpe3.py":25:21)
#loc18 = loc("/NHNHOME/WORKSPACE/26msit001_A/jinhyeok/loop_TTT/lact/.cache_inductor_llm/wk/cwkq7mcajnbsd47m4t6m3vjv6i2tenuhmaossmtmwljcw3t3qpe3.py":28:19)
#loc19 = loc("/NHNHOME/WORKSPACE/26msit001_A/jinhyeok/loop_TTT/lact/.cache_inductor_llm/wk/cwkq7mcajnbsd47m4t6m3vjv6i2tenuhmaossmtmwljcw3t3qpe3.py":29:19)
#loc20 = loc("/NHNHOME/WORKSPACE/26msit001_A/jinhyeok/loop_TTT/lact/.cache_inductor_llm/wk/cwkq7mcajnbsd47m4t6m3vjv6i2tenuhmaossmtmwljcw3t3qpe3.py":30:39)
#loc21 = loc("/NHNHOME/WORKSPACE/26msit001_A/jinhyeok/loop_TTT/lact/.cache_inductor_llm/wk/cwkq7mcajnbsd47m4t6m3vjv6i2tenuhmaossmtmwljcw3t3qpe3.py":30:35)
#loc22 = loc("/NHNHOME/WORKSPACE/26msit001_A/jinhyeok/loop_TTT/lact/.cache_inductor_llm/wk/cwkq7mcajnbsd47m4t6m3vjv6i2tenuhmaossmtmwljcw3t3qpe3.py":30:30)
#loc23 = loc("/NHNHOME/WORKSPACE/26msit001_A/jinhyeok/loop_TTT/lact/.cache_inductor_llm/wk/cwkq7mcajnbsd47m4t6m3vjv6i2tenuhmaossmtmwljcw3t3qpe3.py":30:52)
#loc24 = loc("/NHNHOME/WORKSPACE/26msit001_A/jinhyeok/loop_TTT/lact/.cache_inductor_llm/wk/cwkq7mcajnbsd47m4t6m3vjv6i2tenuhmaossmtmwljcw3t3qpe3.py":30:44)
#loc25 = loc("/NHNHOME/WORKSPACE/26msit001_A/jinhyeok/loop_TTT/lact/.cache_inductor_llm/wk/cwkq7mcajnbsd47m4t6m3vjv6i2tenuhmaossmtmwljcw3t3qpe3.py":31:39)
#loc26 = loc("/NHNHOME/WORKSPACE/26msit001_A/jinhyeok/loop_TTT/lact/.cache_inductor_llm/wk/cwkq7mcajnbsd47m4t6m3vjv6i2tenuhmaossmtmwljcw3t3qpe3.py":31:35)
#loc27 = loc("/NHNHOME/WORKSPACE/26msit001_A/jinhyeok/loop_TTT/lact/.cache_inductor_llm/wk/cwkq7mcajnbsd47m4t6m3vjv6i2tenuhmaossmtmwljcw3t3qpe3.py":31:30)
#loc28 = loc("/NHNHOME/WORKSPACE/26msit001_A/jinhyeok/loop_TTT/lact/.cache_inductor_llm/wk/cwkq7mcajnbsd47m4t6m3vjv6i2tenuhmaossmtmwljcw3t3qpe3.py":31:52)
#loc29 = loc("/NHNHOME/WORKSPACE/26msit001_A/jinhyeok/loop_TTT/lact/.cache_inductor_llm/wk/cwkq7mcajnbsd47m4t6m3vjv6i2tenuhmaossmtmwljcw3t3qpe3.py":31:44)
#loc30 = loc("/NHNHOME/WORKSPACE/26msit001_A/jinhyeok/loop_TTT/lact/.cache_inductor_llm/wk/cwkq7mcajnbsd47m4t6m3vjv6i2tenuhmaossmtmwljcw3t3qpe3.py":31:92)
#loc31 = loc("/NHNHOME/WORKSPACE/26msit001_A/jinhyeok/loop_TTT/lact/.cache_inductor_llm/wk/cwkq7mcajnbsd47m4t6m3vjv6i2tenuhmaossmtmwljcw3t3qpe3.py":32:11)
#loc32 = loc("/NHNHOME/WORKSPACE/26msit001_A/jinhyeok/loop_TTT/lact/.cache_inductor_llm/wk/cwkq7mcajnbsd47m4t6m3vjv6i2tenuhmaossmtmwljcw3t3qpe3.py":33:18)
#loc33 = loc("/NHNHOME/WORKSPACE/26msit001_A/jinhyeok/loop_TTT/lact/.cache_inductor_llm/wk/cwkq7mcajnbsd47m4t6m3vjv6i2tenuhmaossmtmwljcw3t3qpe3.py":35:18)
#loc34 = loc("/NHNHOME/WORKSPACE/26msit001_A/jinhyeok/loop_TTT/lact/.cache_inductor_llm/wk/cwkq7mcajnbsd47m4t6m3vjv6i2tenuhmaossmtmwljcw3t3qpe3.py":37:34)
#loc35 = loc("/NHNHOME/WORKSPACE/26msit001_A/jinhyeok/loop_TTT/lact/.cache_inductor_llm/wk/cwkq7mcajnbsd47m4t6m3vjv6i2tenuhmaossmtmwljcw3t3qpe3.py":37:30)
#loc36 = loc("/NHNHOME/WORKSPACE/26msit001_A/jinhyeok/loop_TTT/lact/.cache_inductor_llm/wk/cwkq7mcajnbsd47m4t6m3vjv6i2tenuhmaossmtmwljcw3t3qpe3.py":37:25)
#loc37 = loc("/NHNHOME/WORKSPACE/26msit001_A/jinhyeok/loop_TTT/lact/.cache_inductor_llm/wk/cwkq7mcajnbsd47m4t6m3vjv6i2tenuhmaossmtmwljcw3t3qpe3.py":37:53)
#loc38 = loc("/NHNHOME/WORKSPACE/26msit001_A/jinhyeok/loop_TTT/lact/.cache_inductor_llm/wk/cwkq7mcajnbsd47m4t6m3vjv6i2tenuhmaossmtmwljcw3t3qpe3.py":37:45)
#loc39 = loc("/NHNHOME/WORKSPACE/26msit001_A/jinhyeok/loop_TTT/lact/.cache_inductor_llm/wk/cwkq7mcajnbsd47m4t6m3vjv6i2tenuhmaossmtmwljcw3t3qpe3.py":38:34)
#loc40 = loc("/NHNHOME/WORKSPACE/26msit001_A/jinhyeok/loop_TTT/lact/.cache_inductor_llm/wk/cwkq7mcajnbsd47m4t6m3vjv6i2tenuhmaossmtmwljcw3t3qpe3.py":38:30)
#loc41 = loc("/NHNHOME/WORKSPACE/26msit001_A/jinhyeok/loop_TTT/lact/.cache_inductor_llm/wk/cwkq7mcajnbsd47m4t6m3vjv6i2tenuhmaossmtmwljcw3t3qpe3.py":38:45)
#loc42 = loc("/NHNHOME/WORKSPACE/26msit001_A/jinhyeok/loop_TTT/lact/.cache_inductor_llm/wk/cwkq7mcajnbsd47m4t6m3vjv6i2tenuhmaossmtmwljcw3t3qpe3.py":38:39)
#loc43 = loc("/NHNHOME/WORKSPACE/26msit001_A/jinhyeok/loop_TTT/lact/.cache_inductor_llm/wk/cwkq7mcajnbsd47m4t6m3vjv6i2tenuhmaossmtmwljcw3t3qpe3.py":38:25)
#loc44 = loc("/NHNHOME/WORKSPACE/26msit001_A/jinhyeok/loop_TTT/lact/.cache_inductor_llm/wk/cwkq7mcajnbsd47m4t6m3vjv6i2tenuhmaossmtmwljcw3t3qpe3.py":38:64)
#loc45 = loc("/NHNHOME/WORKSPACE/26msit001_A/jinhyeok/loop_TTT/lact/.cache_inductor_llm/wk/cwkq7mcajnbsd47m4t6m3vjv6i2tenuhmaossmtmwljcw3t3qpe3.py":38:56)
#loc46 = loc("/NHNHOME/WORKSPACE/26msit001_A/jinhyeok/loop_TTT/lact/.cache_inductor_llm/wk/cwkq7mcajnbsd47m4t6m3vjv6i2tenuhmaossmtmwljcw3t3qpe3.py":39:34)
#loc47 = loc("/NHNHOME/WORKSPACE/26msit001_A/jinhyeok/loop_TTT/lact/.cache_inductor_llm/wk/cwkq7mcajnbsd47m4t6m3vjv6i2tenuhmaossmtmwljcw3t3qpe3.py":39:30)
#loc48 = loc("/NHNHOME/WORKSPACE/26msit001_A/jinhyeok/loop_TTT/lact/.cache_inductor_llm/wk/cwkq7mcajnbsd47m4t6m3vjv6i2tenuhmaossmtmwljcw3t3qpe3.py":39:25)
#loc49 = loc("/NHNHOME/WORKSPACE/26msit001_A/jinhyeok/loop_TTT/lact/.cache_inductor_llm/wk/cwkq7mcajnbsd47m4t6m3vjv6i2tenuhmaossmtmwljcw3t3qpe3.py":39:53)
#loc50 = loc("/NHNHOME/WORKSPACE/26msit001_A/jinhyeok/loop_TTT/lact/.cache_inductor_llm/wk/cwkq7mcajnbsd47m4t6m3vjv6i2tenuhmaossmtmwljcw3t3qpe3.py":39:45)
#loc51 = loc("/NHNHOME/WORKSPACE/26msit001_A/jinhyeok/loop_TTT/lact/.cache_inductor_llm/wk/cwkq7mcajnbsd47m4t6m3vjv6i2tenuhmaossmtmwljcw3t3qpe3.py":39:4)
#loc59 = loc("xnumel"(#loc1))
#loc60 = loc("yoffset"(#loc2))
#loc61 = loc("yoffset"(#loc3))
#loc62 = loc("yoffset"(#loc4))
#loc63 = loc("yoffset"(#loc5))
#loc64 = loc("yoffset"(#loc6))
#loc65 = loc("yoffset"(#loc7))
#loc66 = loc("yindex"(#loc8))
#loc67 = loc("yindex"(#loc9))
#loc68 = loc("yindex"(#loc10))
#loc69 = loc("ymask"(#loc11))
#loc70 = loc("xoffset"(#loc12))
#loc71 = loc("xoffset"(#loc13))
#loc72 = loc("xindex"(#loc14))
#loc73 = loc("xindex"(#loc15))
#loc74 = loc("xindex"(#loc16))
#loc75 = loc("xmask"(#loc17))
#loc76 = loc("y2"(#loc18))
#loc77 = loc("y3"(#loc19))
#loc78 = loc("tmp0"(#loc20))
#loc79 = loc("tmp0"(#loc21))
#loc80 = loc("tmp0"(#loc22))
#loc81 = loc("tmp0"(#loc23))
#loc82 = loc("tmp0"(#loc24))
#loc83 = loc("tmp3"(#loc25))
#loc84 = loc("tmp3"(#loc26))
#loc85 = loc("tmp3"(#loc27))
#loc86 = loc("tmp3"(#loc28))
#loc87 = loc("tmp3"(#loc29))
#loc88 = loc("tmp3"(#loc30))
#loc89 = loc("tmp1"(#loc31))
#loc90 = loc("tmp2"(#loc32))
#loc91 = loc("tmp5"(#loc33))
