#loc = loc("/NHNHOME/WORKSPACE/26msit001_A/jinhyeok/TTT_camera_embedding/lact_llm/.cache_inductor/nq/cnq3ounvko2ylhdxwzhuz5cjtj4xizx36puz4f6tl6xhgn546gti.py":18:0)
#loc75 = loc("/NHNHOME/WORKSPACE/26msit001_A/jinhyeok/TTT_camera_embedding/.venv_llm/lib/python3.12/site-packages/triton/language/standard.py":285:0)
#loc77 = loc(unknown)
#loc80 = loc("/NHNHOME/WORKSPACE/26msit001_A/jinhyeok/TTT_camera_embedding/.venv_llm/lib/python3.12/site-packages/triton/language/standard.py":260:0)
#loc84 = loc("in_ptr0"(#loc))
#loc85 = loc("in_ptr1"(#loc))
#loc86 = loc("in_ptr2"(#loc))
#loc87 = loc("out_ptr0"(#loc))
#loc88 = loc("out_ptr1"(#loc))
#loc89 = loc("xnumel"(#loc))
#loc90 = loc("r0_numel"(#loc))
#loc159 = loc("input"(#loc75))
#loc160 = loc("a"(#loc80))
#loc161 = loc("b"(#loc80))
module {
  tt.func public @triton_red_fused__to_copy_add_linalg_vector_norm_mean_mul_slice_zeros_like_5(%in_ptr0: !tt.ptr<bf16> {tt.divisibility = 16 : i32} loc("in_ptr0"(#loc)), %in_ptr1: !tt.ptr<f32> {tt.divisibility = 16 : i32} loc("in_ptr1"(#loc)), %in_ptr2: !tt.ptr<bf16> {tt.divisibility = 16 : i32} loc("in_ptr2"(#loc)), %out_ptr0: !tt.ptr<f32> {tt.divisibility = 16 : i32} loc("out_ptr0"(#loc)), %out_ptr1: !tt.ptr<f32> {tt.divisibility = 16 : i32} loc("out_ptr1"(#loc)), %xnumel: i32 {tt.divisibility = 16 : i32} loc("xnumel"(#loc)), %r0_numel: i32 loc("r0_numel"(#loc))) attributes {noinline = false} {
    %xnumel_0 = arith.constant 160 : i32 loc(#loc91)
    %r0_numel_1 = arith.constant 7373 : i32 loc(#loc92)
    %xoffset = tt.get_program_id x : i32 loc(#loc93)
    %xoffset_2 = arith.constant 1 : i32 loc(#loc94)
    %xoffset_3 = arith.constant 1 : i32 loc(#loc94)
    %xoffset_4 = arith.muli %xoffset, %xoffset_3 : i32 loc(#loc94)
    %xindex = tt.make_range {end = 1 : i32, start = 0 : i32} : tensor<1xi32> loc(#loc95)
    %xindex_5 = tt.expand_dims %xindex {axis = 1 : i32} : tensor<1xi32> -> tensor<1x1xi32> loc(#loc96)
    %xindex_6 = tt.splat %xoffset_4 : i32 -> tensor<1x1xi32> loc(#loc97)
    %xindex_7 = arith.addi %xindex_6, %xindex_5 : tensor<1x1xi32> loc(#loc97)
    %xmask = arith.constant dense<160> : tensor<1x1xi32> loc(#loc98)
    %xmask_8 = arith.cmpi slt, %xindex_7, %xmask : tensor<1x1xi32> loc(#loc98)
    %r0_base = tt.make_range {end = 2048 : i32, start = 0 : i32} : tensor<2048xi32> loc(#loc99)
    %r0_base_9 = tt.expand_dims %r0_base {axis = 0 : i32} : tensor<2048xi32> -> tensor<1x2048xi32> loc(#loc100)
    %x0 = arith.constant 5 : i32 loc(#loc101)
    %x0_10 = arith.constant 5 : i32 loc(#loc101)
    %x0_11 = arith.constant dense<5> : tensor<1x1xi32> loc(#loc101)
    %x0_12 = arith.remsi %xindex_7, %x0_11 : tensor<1x1xi32> loc(#loc101)
    %x1 = arith.constant 5 : i32 loc(#loc102)
    %x1_13 = arith.constant 5 : i32 loc(#loc102)
    %x1_14 = arith.constant dense<5> : tensor<1x1xi32> loc(#loc102)
    %x1_15 = arith.divsi %xindex_7, %x1_14 : tensor<1x1xi32> loc(#loc102)
    %_tmp17 = arith.constant 0.000000e+00 : f32 loc(#loc103)
    %_tmp17_16 = arith.constant dense<0.000000e+00> : tensor<1x2048xf32> loc(#loc103)
    %_tmp28 = arith.constant 0.000000e+00 : f32 loc(#loc104)
    %_tmp28_17 = arith.constant dense<0.000000e+00> : tensor<1x2048xf32> loc(#loc104)
    %c0_i32 = arith.constant 0 : i32 loc(#loc15)
    %c2048_i32 = arith.constant 2048 : i32 loc(#loc15)
    %0 = arith.bitcast %c0_i32 : i32 to i32 loc(#loc15)
    %1 = arith.bitcast %r0_numel_1 : i32 to i32 loc(#loc15)
    %2 = arith.bitcast %c2048_i32 : i32 to i32 loc(#loc15)
    %3 = ub.poison : i32 loc(#loc15)
    %_tmp28_18:2 = scf.for %r0_offset = %0 to %1 step %2 iter_args(%_tmp17_21 = %_tmp17_16, %_tmp28_22 = %_tmp28_17) -> (tensor<1x2048xf32>, tensor<1x2048xf32>)  : i32 {
      %r0_index = tt.splat %r0_offset : i32 -> tensor<1x2048xi32> loc(#loc106)
      %r0_index_23 = arith.addi %r0_index, %r0_base_9 : tensor<1x2048xi32> loc(#loc106)
      %r0_mask = arith.constant dense<7373> : tensor<1x2048xi32> loc(#loc107)
      %r0_mask_24 = arith.cmpi slt, %r0_index_23, %r0_mask : tensor<1x2048xi32> loc(#loc107)
      %tmp0 = arith.constant 7373 : i32 loc(#loc108)
      %tmp0_25 = arith.constant 7373 : i32 loc(#loc108)
      %tmp0_26 = arith.constant dense<7373> : tensor<1x1xi32> loc(#loc108)
      %tmp0_27 = arith.muli %tmp0_26, %x0_12 : tensor<1x1xi32> loc(#loc108)
      %tmp0_28 = tt.broadcast %tmp0_27 : tensor<1x1xi32> -> tensor<1x2048xi32> loc(#loc109)
      %tmp0_29 = arith.addi %r0_index_23, %tmp0_28 : tensor<1x2048xi32> loc(#loc109)
      %tmp1 = arith.constant 36864 : i32 loc(#loc110)
      %tmp1_30 = arith.constant dense<36864> : tensor<1x1xi32> loc(#loc110)
      %tmp2 = arith.constant dense<36864> : tensor<1x2048xi32> loc(#loc111)
      %tmp2_31 = arith.cmpi slt, %tmp0_29, %tmp2 : tensor<1x2048xi32> loc(#loc111)
      %tmp3 = arith.constant 36864 : i32 loc(#loc112)
      %tmp3_32 = arith.constant 36864 : i32 loc(#loc112)
      %tmp3_33 = arith.constant dense<36864> : tensor<1x1xi32> loc(#loc112)
      %tmp3_34 = arith.muli %tmp3_33, %x1_15 : tensor<1x1xi32> loc(#loc112)
      %tmp3_35 = arith.constant 7373 : i32 loc(#loc113)
      %tmp3_36 = arith.constant 7373 : i32 loc(#loc113)
      %tmp3_37 = arith.constant dense<7373> : tensor<1x1xi32> loc(#loc113)
      %tmp3_38 = arith.muli %tmp3_37, %x0_12 : tensor<1x1xi32> loc(#loc113)
      %tmp3_39 = tt.broadcast %tmp3_38 : tensor<1x1xi32> -> tensor<1x2048xi32> loc(#loc114)
      %tmp3_40 = arith.addi %r0_index_23, %tmp3_39 : tensor<1x2048xi32> loc(#loc114)
      %tmp3_41 = arith.constant 36864 : i32 loc(#loc115)
      %tmp3_42 = arith.constant 36864 : i32 loc(#loc115)
      %tmp3_43 = arith.constant dense<36864> : tensor<1x2048xi32> loc(#loc115)
      %tmp3_44 = arith.remsi %tmp3_40, %tmp3_43 : tensor<1x2048xi32> loc(#loc115)
      %tmp3_45 = tt.broadcast %tmp3_34 : tensor<1x1xi32> -> tensor<1x2048xi32> loc(#loc116)
      %tmp3_46 = arith.addi %tmp3_45, %tmp3_44 : tensor<1x2048xi32> loc(#loc116)
      %tmp3_47 = tt.splat %in_ptr0 : !tt.ptr<bf16> -> tensor<1x2048x!tt.ptr<bf16>> loc(#loc117)
      %tmp3_48 = tt.addptr %tmp3_47, %tmp3_46 : tensor<1x2048x!tt.ptr<bf16>>, tensor<1x2048xi32> loc(#loc117)
      %tmp3_49 = arith.andi %r0_mask_24, %tmp2_31 : tensor<1x2048xi1> loc(#loc118)
      %tmp3_50 = tt.broadcast %xmask_8 : tensor<1x1xi1> -> tensor<1x2048xi1> loc(#loc119)
      %tmp3_51 = arith.andi %tmp3_49, %tmp3_50 : tensor<1x2048xi1> loc(#loc119)
      %tmp3_52 = arith.constant 0.000000e+00 : f32 loc(#loc120)
      %tmp3_53 = arith.constant dense<0.000000e+00> : tensor<1x2048xf32> loc(#loc120)
      %tmp3_54 = arith.truncf %tmp3_53 : tensor<1x2048xf32> to tensor<1x2048xbf16> loc(#loc120)
      %tmp3_55 = tt.load %tmp3_48, %tmp3_51, %tmp3_54 evictionPolicy = evict_last : tensor<1x2048x!tt.ptr<bf16>> loc(#loc120)
      %tmp3_56 = arith.extf %tmp3_55 : tensor<1x2048xbf16> to tensor<1x2048xf32> loc(#loc121)
      %tmp5 = tt.broadcast %x1_15 : tensor<1x1xi32> -> tensor<1x2048xi32> loc(#loc122)
      %tmp5_57 = tt.splat %in_ptr1 : !tt.ptr<f32> -> tensor<1x2048x!tt.ptr<f32>> loc(#loc123)
      %tmp5_58 = tt.addptr %tmp5_57, %tmp5 : tensor<1x2048x!tt.ptr<f32>>, tensor<1x2048xi32> loc(#loc123)
      %tmp5_59 = arith.andi %r0_mask_24, %tmp2_31 : tensor<1x2048xi1> loc(#loc124)
      %tmp5_60 = tt.broadcast %xmask_8 : tensor<1x1xi1> -> tensor<1x2048xi1> loc(#loc125)
      %tmp5_61 = arith.andi %tmp5_59, %tmp5_60 : tensor<1x2048xi1> loc(#loc125)
      %tmp5_62 = arith.constant 0.000000e+00 : f32 loc(#loc126)
      %tmp5_63 = arith.constant dense<0.000000e+00> : tensor<1x2048xf32> loc(#loc126)
      %tmp5_64 = tt.load %tmp5_58, %tmp5_61, %tmp5_63 evictionPolicy = evict_last : tensor<1x2048x!tt.ptr<f32>> loc(#loc126)
      %tmp6 = arith.constant 1.024000e+03 : f32 loc(#loc127)
      %tmp7 = arith.constant dense<1.024000e+03> : tensor<1x2048xf32> loc(#loc128)
      %tmp7_65 = arith.divf %tmp5_64, %tmp7 : tensor<1x2048xf32> loc(#loc128)
      %tmp8 = arith.constant 0.000000e+00 : f32 loc(#loc129)
      %tmp9 = arith.constant dense<0.000000e+00> : tensor<1x2048xf32> loc(#loc130)
      %tmp9_66 = arith.mulf %tmp9, %tmp7_65 : tensor<1x2048xf32> loc(#loc130)
      %tmp10 = arith.addf %tmp3_56, %tmp9_66 : tensor<1x2048xf32> loc(#loc131)
      %tmp13 = arith.mulf %tmp10, %tmp10 : tensor<1x2048xf32> loc(#loc132)
      %tmp14 = arith.constant 0.000000e+00 : f32 loc(#loc133)
      %tmp14_67 = arith.constant dense<0.000000e+00> : tensor<1x2048xf32> loc(#loc133)
      %tmp15 = arith.select %tmp2_31, %tmp13, %tmp14_67 : tensor<1x2048xi1>, tensor<1x2048xf32> loc(#loc134)
      %tmp18 = arith.addf %_tmp17_21, %tmp15 : tensor<1x2048xf32> loc(#loc135)
      %_tmp17_68 = tt.broadcast %xmask_8 : tensor<1x1xi1> -> tensor<1x2048xi1> loc(#loc136)
      %_tmp17_69 = arith.andi %r0_mask_24, %_tmp17_68 : tensor<1x2048xi1> loc(#loc136)
      %_tmp17_70 = arith.select %_tmp17_69, %tmp18, %_tmp17_21 : tensor<1x2048xi1>, tensor<1x2048xf32> loc(#loc137)
      %tmp19 = arith.constant 36864 : i32 loc(#loc138)
      %tmp19_71 = arith.constant 36864 : i32 loc(#loc138)
      %tmp19_72 = arith.constant dense<36864> : tensor<1x1xi32> loc(#loc138)
      %tmp19_73 = arith.muli %tmp19_72, %x1_15 : tensor<1x1xi32> loc(#loc138)
      %tmp19_74 = arith.constant 7373 : i32 loc(#loc139)
      %tmp19_75 = arith.constant 7373 : i32 loc(#loc139)
      %tmp19_76 = arith.constant dense<7373> : tensor<1x1xi32> loc(#loc139)
      %tmp19_77 = arith.muli %tmp19_76, %x0_12 : tensor<1x1xi32> loc(#loc139)
      %tmp19_78 = tt.broadcast %tmp19_77 : tensor<1x1xi32> -> tensor<1x2048xi32> loc(#loc140)
      %tmp19_79 = arith.addi %r0_index_23, %tmp19_78 : tensor<1x2048xi32> loc(#loc140)
      %tmp19_80 = arith.constant 36864 : i32 loc(#loc141)
      %tmp19_81 = arith.constant 36864 : i32 loc(#loc141)
      %tmp19_82 = arith.constant dense<36864> : tensor<1x2048xi32> loc(#loc141)
      %tmp19_83 = arith.remsi %tmp19_79, %tmp19_82 : tensor<1x2048xi32> loc(#loc141)
      %tmp19_84 = tt.broadcast %tmp19_73 : tensor<1x1xi32> -> tensor<1x2048xi32> loc(#loc142)
      %tmp19_85 = arith.addi %tmp19_84, %tmp19_83 : tensor<1x2048xi32> loc(#loc142)
      %tmp19_86 = tt.splat %in_ptr2 : !tt.ptr<bf16> -> tensor<1x2048x!tt.ptr<bf16>> loc(#loc143)
      %tmp19_87 = tt.addptr %tmp19_86, %tmp19_85 : tensor<1x2048x!tt.ptr<bf16>>, tensor<1x2048xi32> loc(#loc143)
      %tmp19_88 = arith.andi %r0_mask_24, %tmp2_31 : tensor<1x2048xi1> loc(#loc144)
      %tmp19_89 = tt.broadcast %xmask_8 : tensor<1x1xi1> -> tensor<1x2048xi1> loc(#loc145)
      %tmp19_90 = arith.andi %tmp19_88, %tmp19_89 : tensor<1x2048xi1> loc(#loc145)
      %tmp19_91 = arith.constant 0.000000e+00 : f32 loc(#loc146)
      %tmp19_92 = arith.constant dense<0.000000e+00> : tensor<1x2048xf32> loc(#loc146)
      %tmp19_93 = arith.truncf %tmp19_92 : tensor<1x2048xf32> to tensor<1x2048xbf16> loc(#loc146)
      %tmp19_94 = tt.load %tmp19_87, %tmp19_90, %tmp19_93 evictionPolicy = evict_last : tensor<1x2048x!tt.ptr<bf16>> loc(#loc146)
      %tmp19_95 = arith.extf %tmp19_94 : tensor<1x2048xbf16> to tensor<1x2048xf32> loc(#loc147)
      %tmp21 = arith.addf %tmp19_95, %tmp9_66 : tensor<1x2048xf32> loc(#loc148)
      %tmp24 = arith.mulf %tmp21, %tmp21 : tensor<1x2048xf32> loc(#loc149)
      %tmp25 = arith.constant 0.000000e+00 : f32 loc(#loc150)
      %tmp25_96 = arith.constant dense<0.000000e+00> : tensor<1x2048xf32> loc(#loc150)
      %tmp26 = arith.select %tmp2_31, %tmp24, %tmp25_96 : tensor<1x2048xi1>, tensor<1x2048xf32> loc(#loc151)
      %tmp29 = arith.addf %_tmp28_22, %tmp26 : tensor<1x2048xf32> loc(#loc152)
      %_tmp28_97 = tt.broadcast %xmask_8 : tensor<1x1xi1> -> tensor<1x2048xi1> loc(#loc153)
      %_tmp28_98 = arith.andi %r0_mask_24, %_tmp28_97 : tensor<1x2048xi1> loc(#loc153)
      %_tmp28_99 = arith.select %_tmp28_98, %tmp29, %_tmp28_22 : tensor<1x2048xi1>, tensor<1x2048xf32> loc(#loc154)
      scf.yield %_tmp17_70, %_tmp28_99 : tensor<1x2048xf32>, tensor<1x2048xf32> loc(#loc65)
    } loc(#loc162)
    %tmp17 = tt.call @"triton.language.standard.sum__fp32S1_2048S__(1,)cconstexpr_1__(2,)cconstexpr_False__(3,)cNone"(%_tmp28_18#0) : (tensor<1x2048xf32>) -> tensor<1xf32> loc(#loc155)
    %tmp17_19 = tt.expand_dims %tmp17 {axis = 1 : i32} : tensor<1xf32> -> tensor<1x1xf32> loc(#loc156)
    %tmp28 = tt.call @"triton.language.standard.sum__fp32S1_2048S__(1,)cconstexpr_1__(2,)cconstexpr_False__(3,)cNone"(%_tmp28_18#1) : (tensor<1x2048xf32>) -> tensor<1xf32> loc(#loc157)
    %tmp28_20 = tt.expand_dims %tmp28 {axis = 1 : i32} : tensor<1xf32> -> tensor<1x1xf32> loc(#loc158)
    %4 = tt.splat %out_ptr0 : !tt.ptr<f32> -> tensor<1x1x!tt.ptr<f32>> loc(#loc70)
    %5 = tt.addptr %4, %xindex_7 : tensor<1x1x!tt.ptr<f32>>, tensor<1x1xi32> loc(#loc70)
    tt.store %5, %tmp17_19, %xmask_8 : tensor<1x1x!tt.ptr<f32>> loc(#loc71)
    %6 = tt.splat %out_ptr1 : !tt.ptr<f32> -> tensor<1x1x!tt.ptr<f32>> loc(#loc72)
    %7 = tt.addptr %6, %xindex_7 : tensor<1x1x!tt.ptr<f32>>, tensor<1x1xi32> loc(#loc72)
    tt.store %7, %tmp28_20, %xmask_8 : tensor<1x1x!tt.ptr<f32>> loc(#loc73)
    tt.return loc(#loc74)
  } loc(#loc)
  tt.func private @"triton.language.standard.sum__fp32S1_2048S__(1,)cconstexpr_1__(2,)cconstexpr_False__(3,)cNone"(%input: tensor<1x2048xf32> loc("input"(#loc75))) -> tensor<1xf32> attributes {noinline = false} {
    %0 = "tt.reduce"(%input) <{axis = 1 : i32}> ({
    ^bb0(%arg1: f32 loc(unknown), %arg2: f32 loc(unknown)):
      %2 = tt.call @triton.language.standard._sum_combine__fp32_fp32__(%arg1, %arg2) : (f32, f32) -> f32 loc(#loc76)
      tt.reduce.return %2 : f32 loc(#loc76)
    }) : (tensor<1x2048xf32>) -> tensor<1xf32> loc(#loc76)
    tt.return %0 : tensor<1xf32> loc(#loc78)
  ^bb1:  // no predecessors
    %1 = ub.poison : tensor<1xf32> loc(#loc79)
    tt.return %1 : tensor<1xf32> loc(#loc79)
  } loc(#loc75)
  tt.func private @triton.language.standard._sum_combine__fp32_fp32__(%a: f32 loc("a"(#loc80)), %b: f32 loc("b"(#loc80))) -> f32 attributes {noinline = false} {
    %0 = arith.addf %a, %b : f32 loc(#loc81)
    tt.return %0 : f32 loc(#loc82)
  ^bb1:  // no predecessors
    %1 = ub.poison : f32 loc(#loc83)
    tt.return %1 : f32 loc(#loc83)
  } loc(#loc80)
} loc(#loc)
#loc1 = loc("/NHNHOME/WORKSPACE/26msit001_A/jinhyeok/TTT_camera_embedding/lact_llm/.cache_inductor/nq/cnq3ounvko2ylhdxwzhuz5cjtj4xizx36puz4f6tl6xhgn546gti.py":19:13)
#loc2 = loc("/NHNHOME/WORKSPACE/26msit001_A/jinhyeok/TTT_camera_embedding/lact_llm/.cache_inductor/nq/cnq3ounvko2ylhdxwzhuz5cjtj4xizx36puz4f6tl6xhgn546gti.py":20:15)
#loc3 = loc("/NHNHOME/WORKSPACE/26msit001_A/jinhyeok/TTT_camera_embedding/lact_llm/.cache_inductor/nq/cnq3ounvko2ylhdxwzhuz5cjtj4xizx36puz4f6tl6xhgn546gti.py":23:28)
#loc4 = loc("/NHNHOME/WORKSPACE/26msit001_A/jinhyeok/TTT_camera_embedding/lact_llm/.cache_inductor/nq/cnq3ounvko2ylhdxwzhuz5cjtj4xizx36puz4f6tl6xhgn546gti.py":23:33)
#loc5 = loc("/NHNHOME/WORKSPACE/26msit001_A/jinhyeok/TTT_camera_embedding/lact_llm/.cache_inductor/nq/cnq3ounvko2ylhdxwzhuz5cjtj4xizx36puz4f6tl6xhgn546gti.py":24:36)
#loc6 = loc("/NHNHOME/WORKSPACE/26msit001_A/jinhyeok/TTT_camera_embedding/lact_llm/.cache_inductor/nq/cnq3ounvko2ylhdxwzhuz5cjtj4xizx36puz4f6tl6xhgn546gti.py":24:44)
#loc7 = loc("/NHNHOME/WORKSPACE/26msit001_A/jinhyeok/TTT_camera_embedding/lact_llm/.cache_inductor/nq/cnq3ounvko2ylhdxwzhuz5cjtj4xizx36puz4f6tl6xhgn546gti.py":24:23)
#loc8 = loc("/NHNHOME/WORKSPACE/26msit001_A/jinhyeok/TTT_camera_embedding/lact_llm/.cache_inductor/nq/cnq3ounvko2ylhdxwzhuz5cjtj4xizx36puz4f6tl6xhgn546gti.py":25:21)
#loc9 = loc("/NHNHOME/WORKSPACE/26msit001_A/jinhyeok/TTT_camera_embedding/lact_llm/.cache_inductor/nq/cnq3ounvko2ylhdxwzhuz5cjtj4xizx36puz4f6tl6xhgn546gti.py":26:27)
#loc10 = loc("/NHNHOME/WORKSPACE/26msit001_A/jinhyeok/TTT_camera_embedding/lact_llm/.cache_inductor/nq/cnq3ounvko2ylhdxwzhuz5cjtj4xizx36puz4f6tl6xhgn546gti.py":26:37)
#loc11 = loc("/NHNHOME/WORKSPACE/26msit001_A/jinhyeok/TTT_camera_embedding/lact_llm/.cache_inductor/nq/cnq3ounvko2ylhdxwzhuz5cjtj4xizx36puz4f6tl6xhgn546gti.py":28:19)
#loc12 = loc("/NHNHOME/WORKSPACE/26msit001_A/jinhyeok/TTT_camera_embedding/lact_llm/.cache_inductor/nq/cnq3ounvko2ylhdxwzhuz5cjtj4xizx36puz4f6tl6xhgn546gti.py":29:19)
#loc13 = loc("/NHNHOME/WORKSPACE/26msit001_A/jinhyeok/TTT_camera_embedding/lact_llm/.cache_inductor/nq/cnq3ounvko2ylhdxwzhuz5cjtj4xizx36puz4f6tl6xhgn546gti.py":30:44)
#loc14 = loc("/NHNHOME/WORKSPACE/26msit001_A/jinhyeok/TTT_camera_embedding/lact_llm/.cache_inductor/nq/cnq3ounvko2ylhdxwzhuz5cjtj4xizx36puz4f6tl6xhgn546gti.py":32:44)
#loc15 = loc("/NHNHOME/WORKSPACE/26msit001_A/jinhyeok/TTT_camera_embedding/lact_llm/.cache_inductor/nq/cnq3ounvko2ylhdxwzhuz5cjtj4xizx36puz4f6tl6xhgn546gti.py":33:40)
#loc16 = loc("/NHNHOME/WORKSPACE/26msit001_A/jinhyeok/TTT_camera_embedding/lact_llm/.cache_inductor/nq/cnq3ounvko2ylhdxwzhuz5cjtj4xizx36puz4f6tl6xhgn546gti.py":34:31)
#loc17 = loc("/NHNHOME/WORKSPACE/26msit001_A/jinhyeok/TTT_camera_embedding/lact_llm/.cache_inductor/nq/cnq3ounvko2ylhdxwzhuz5cjtj4xizx36puz4f6tl6xhgn546gti.py":35:29)
#loc18 = loc("/NHNHOME/WORKSPACE/26msit001_A/jinhyeok/TTT_camera_embedding/lact_llm/.cache_inductor/nq/cnq3ounvko2ylhdxwzhuz5cjtj4xizx36puz4f6tl6xhgn546gti.py":39:27)
#loc19 = loc("/NHNHOME/WORKSPACE/26msit001_A/jinhyeok/TTT_camera_embedding/lact_llm/.cache_inductor/nq/cnq3ounvko2ylhdxwzhuz5cjtj4xizx36puz4f6tl6xhgn546gti.py":39:22)
#loc20 = loc("/NHNHOME/WORKSPACE/26msit001_A/jinhyeok/TTT_camera_embedding/lact_llm/.cache_inductor/nq/cnq3ounvko2ylhdxwzhuz5cjtj4xizx36puz4f6tl6xhgn546gti.py":40:38)
#loc21 = loc("/NHNHOME/WORKSPACE/26msit001_A/jinhyeok/TTT_camera_embedding/lact_llm/.cache_inductor/nq/cnq3ounvko2ylhdxwzhuz5cjtj4xizx36puz4f6tl6xhgn546gti.py":41:22)
#loc22 = loc("/NHNHOME/WORKSPACE/26msit001_A/jinhyeok/TTT_camera_embedding/lact_llm/.cache_inductor/nq/cnq3ounvko2ylhdxwzhuz5cjtj4xizx36puz4f6tl6xhgn546gti.py":42:40)
#loc23 = loc("/NHNHOME/WORKSPACE/26msit001_A/jinhyeok/TTT_camera_embedding/lact_llm/.cache_inductor/nq/cnq3ounvko2ylhdxwzhuz5cjtj4xizx36puz4f6tl6xhgn546gti.py":42:60)
#loc24 = loc("/NHNHOME/WORKSPACE/26msit001_A/jinhyeok/TTT_camera_embedding/lact_llm/.cache_inductor/nq/cnq3ounvko2ylhdxwzhuz5cjtj4xizx36puz4f6tl6xhgn546gti.py":42:55)
#loc25 = loc("/NHNHOME/WORKSPACE/26msit001_A/jinhyeok/TTT_camera_embedding/lact_llm/.cache_inductor/nq/cnq3ounvko2ylhdxwzhuz5cjtj4xizx36puz4f6tl6xhgn546gti.py":42:66)
#loc26 = loc("/NHNHOME/WORKSPACE/26msit001_A/jinhyeok/TTT_camera_embedding/lact_llm/.cache_inductor/nq/cnq3ounvko2ylhdxwzhuz5cjtj4xizx36puz4f6tl6xhgn546gti.py":42:47)
#loc27 = loc("/NHNHOME/WORKSPACE/26msit001_A/jinhyeok/TTT_camera_embedding/lact_llm/.cache_inductor/nq/cnq3ounvko2ylhdxwzhuz5cjtj4xizx36puz4f6tl6xhgn546gti.py":42:34)
#loc28 = loc("/NHNHOME/WORKSPACE/26msit001_A/jinhyeok/TTT_camera_embedding/lact_llm/.cache_inductor/nq/cnq3ounvko2ylhdxwzhuz5cjtj4xizx36puz4f6tl6xhgn546gti.py":42:86)
#loc29 = loc("/NHNHOME/WORKSPACE/26msit001_A/jinhyeok/TTT_camera_embedding/lact_llm/.cache_inductor/nq/cnq3ounvko2ylhdxwzhuz5cjtj4xizx36puz4f6tl6xhgn546gti.py":42:93)
#loc30 = loc("/NHNHOME/WORKSPACE/26msit001_A/jinhyeok/TTT_camera_embedding/lact_llm/.cache_inductor/nq/cnq3ounvko2ylhdxwzhuz5cjtj4xizx36puz4f6tl6xhgn546gti.py":42:76)
#loc31 = loc("/NHNHOME/WORKSPACE/26msit001_A/jinhyeok/TTT_camera_embedding/lact_llm/.cache_inductor/nq/cnq3ounvko2ylhdxwzhuz5cjtj4xizx36puz4f6tl6xhgn546gti.py":42:144)
#loc32 = loc("/NHNHOME/WORKSPACE/26msit001_A/jinhyeok/TTT_camera_embedding/lact_llm/.cache_inductor/nq/cnq3ounvko2ylhdxwzhuz5cjtj4xizx36puz4f6tl6xhgn546gti.py":44:54)
#loc33 = loc("/NHNHOME/WORKSPACE/26msit001_A/jinhyeok/TTT_camera_embedding/lact_llm/.cache_inductor/nq/cnq3ounvko2ylhdxwzhuz5cjtj4xizx36puz4f6tl6xhgn546gti.py":44:34)
#loc34 = loc("/NHNHOME/WORKSPACE/26msit001_A/jinhyeok/TTT_camera_embedding/lact_llm/.cache_inductor/nq/cnq3ounvko2ylhdxwzhuz5cjtj4xizx36puz4f6tl6xhgn546gti.py":44:86)
#loc35 = loc("/NHNHOME/WORKSPACE/26msit001_A/jinhyeok/TTT_camera_embedding/lact_llm/.cache_inductor/nq/cnq3ounvko2ylhdxwzhuz5cjtj4xizx36puz4f6tl6xhgn546gti.py":44:93)
#loc36 = loc("/NHNHOME/WORKSPACE/26msit001_A/jinhyeok/TTT_camera_embedding/lact_llm/.cache_inductor/nq/cnq3ounvko2ylhdxwzhuz5cjtj4xizx36puz4f6tl6xhgn546gti.py":44:76)
#loc37 = loc("/NHNHOME/WORKSPACE/26msit001_A/jinhyeok/TTT_camera_embedding/lact_llm/.cache_inductor/nq/cnq3ounvko2ylhdxwzhuz5cjtj4xizx36puz4f6tl6xhgn546gti.py":45:15)
#loc38 = loc("/NHNHOME/WORKSPACE/26msit001_A/jinhyeok/TTT_camera_embedding/lact_llm/.cache_inductor/nq/cnq3ounvko2ylhdxwzhuz5cjtj4xizx36puz4f6tl6xhgn546gti.py":46:23)
#loc39 = loc("/NHNHOME/WORKSPACE/26msit001_A/jinhyeok/TTT_camera_embedding/lact_llm/.cache_inductor/nq/cnq3ounvko2ylhdxwzhuz5cjtj4xizx36puz4f6tl6xhgn546gti.py":47:15)
#loc40 = loc("/NHNHOME/WORKSPACE/26msit001_A/jinhyeok/TTT_camera_embedding/lact_llm/.cache_inductor/nq/cnq3ounvko2ylhdxwzhuz5cjtj4xizx36puz4f6tl6xhgn546gti.py":48:22)
#loc41 = loc("/NHNHOME/WORKSPACE/26msit001_A/jinhyeok/TTT_camera_embedding/lact_llm/.cache_inductor/nq/cnq3ounvko2ylhdxwzhuz5cjtj4xizx36puz4f6tl6xhgn546gti.py":49:23)
#loc42 = loc("/NHNHOME/WORKSPACE/26msit001_A/jinhyeok/TTT_camera_embedding/lact_llm/.cache_inductor/nq/cnq3ounvko2ylhdxwzhuz5cjtj4xizx36puz4f6tl6xhgn546gti.py":52:24)
#loc43 = loc("/NHNHOME/WORKSPACE/26msit001_A/jinhyeok/TTT_camera_embedding/lact_llm/.cache_inductor/nq/cnq3ounvko2ylhdxwzhuz5cjtj4xizx36puz4f6tl6xhgn546gti.py":53:40)
#loc44 = loc("/NHNHOME/WORKSPACE/26msit001_A/jinhyeok/TTT_camera_embedding/lact_llm/.cache_inductor/nq/cnq3ounvko2ylhdxwzhuz5cjtj4xizx36puz4f6tl6xhgn546gti.py":54:38)
#loc45 = loc("/NHNHOME/WORKSPACE/26msit001_A/jinhyeok/TTT_camera_embedding/lact_llm/.cache_inductor/nq/cnq3ounvko2ylhdxwzhuz5cjtj4xizx36puz4f6tl6xhgn546gti.py":56:25)
#loc46 = loc("/NHNHOME/WORKSPACE/26msit001_A/jinhyeok/TTT_camera_embedding/lact_llm/.cache_inductor/nq/cnq3ounvko2ylhdxwzhuz5cjtj4xizx36puz4f6tl6xhgn546gti.py":57:36)
#loc47 = loc("/NHNHOME/WORKSPACE/26msit001_A/jinhyeok/TTT_camera_embedding/lact_llm/.cache_inductor/nq/cnq3ounvko2ylhdxwzhuz5cjtj4xizx36puz4f6tl6xhgn546gti.py":57:50)
#loc48 = loc("/NHNHOME/WORKSPACE/26msit001_A/jinhyeok/TTT_camera_embedding/lact_llm/.cache_inductor/nq/cnq3ounvko2ylhdxwzhuz5cjtj4xizx36puz4f6tl6xhgn546gti.py":58:41)
#loc49 = loc("/NHNHOME/WORKSPACE/26msit001_A/jinhyeok/TTT_camera_embedding/lact_llm/.cache_inductor/nq/cnq3ounvko2ylhdxwzhuz5cjtj4xizx36puz4f6tl6xhgn546gti.py":58:61)
#loc50 = loc("/NHNHOME/WORKSPACE/26msit001_A/jinhyeok/TTT_camera_embedding/lact_llm/.cache_inductor/nq/cnq3ounvko2ylhdxwzhuz5cjtj4xizx36puz4f6tl6xhgn546gti.py":58:56)
#loc51 = loc("/NHNHOME/WORKSPACE/26msit001_A/jinhyeok/TTT_camera_embedding/lact_llm/.cache_inductor/nq/cnq3ounvko2ylhdxwzhuz5cjtj4xizx36puz4f6tl6xhgn546gti.py":58:67)
#loc52 = loc("/NHNHOME/WORKSPACE/26msit001_A/jinhyeok/TTT_camera_embedding/lact_llm/.cache_inductor/nq/cnq3ounvko2ylhdxwzhuz5cjtj4xizx36puz4f6tl6xhgn546gti.py":58:48)
#loc53 = loc("/NHNHOME/WORKSPACE/26msit001_A/jinhyeok/TTT_camera_embedding/lact_llm/.cache_inductor/nq/cnq3ounvko2ylhdxwzhuz5cjtj4xizx36puz4f6tl6xhgn546gti.py":58:35)
#loc54 = loc("/NHNHOME/WORKSPACE/26msit001_A/jinhyeok/TTT_camera_embedding/lact_llm/.cache_inductor/nq/cnq3ounvko2ylhdxwzhuz5cjtj4xizx36puz4f6tl6xhgn546gti.py":58:87)
#loc55 = loc("/NHNHOME/WORKSPACE/26msit001_A/jinhyeok/TTT_camera_embedding/lact_llm/.cache_inductor/nq/cnq3ounvko2ylhdxwzhuz5cjtj4xizx36puz4f6tl6xhgn546gti.py":58:94)
#loc56 = loc("/NHNHOME/WORKSPACE/26msit001_A/jinhyeok/TTT_camera_embedding/lact_llm/.cache_inductor/nq/cnq3ounvko2ylhdxwzhuz5cjtj4xizx36puz4f6tl6xhgn546gti.py":58:77)
#loc57 = loc("/NHNHOME/WORKSPACE/26msit001_A/jinhyeok/TTT_camera_embedding/lact_llm/.cache_inductor/nq/cnq3ounvko2ylhdxwzhuz5cjtj4xizx36puz4f6tl6xhgn546gti.py":58:145)
#loc58 = loc("/NHNHOME/WORKSPACE/26msit001_A/jinhyeok/TTT_camera_embedding/lact_llm/.cache_inductor/nq/cnq3ounvko2ylhdxwzhuz5cjtj4xizx36puz4f6tl6xhgn546gti.py":60:24)
#loc59 = loc("/NHNHOME/WORKSPACE/26msit001_A/jinhyeok/TTT_camera_embedding/lact_llm/.cache_inductor/nq/cnq3ounvko2ylhdxwzhuz5cjtj4xizx36puz4f6tl6xhgn546gti.py":63:24)
#loc60 = loc("/NHNHOME/WORKSPACE/26msit001_A/jinhyeok/TTT_camera_embedding/lact_llm/.cache_inductor/nq/cnq3ounvko2ylhdxwzhuz5cjtj4xizx36puz4f6tl6xhgn546gti.py":64:40)
#loc61 = loc("/NHNHOME/WORKSPACE/26msit001_A/jinhyeok/TTT_camera_embedding/lact_llm/.cache_inductor/nq/cnq3ounvko2ylhdxwzhuz5cjtj4xizx36puz4f6tl6xhgn546gti.py":65:38)
#loc62 = loc("/NHNHOME/WORKSPACE/26msit001_A/jinhyeok/TTT_camera_embedding/lact_llm/.cache_inductor/nq/cnq3ounvko2ylhdxwzhuz5cjtj4xizx36puz4f6tl6xhgn546gti.py":67:25)
#loc63 = loc("/NHNHOME/WORKSPACE/26msit001_A/jinhyeok/TTT_camera_embedding/lact_llm/.cache_inductor/nq/cnq3ounvko2ylhdxwzhuz5cjtj4xizx36puz4f6tl6xhgn546gti.py":68:36)
#loc64 = loc("/NHNHOME/WORKSPACE/26msit001_A/jinhyeok/TTT_camera_embedding/lact_llm/.cache_inductor/nq/cnq3ounvko2ylhdxwzhuz5cjtj4xizx36puz4f6tl6xhgn546gti.py":68:50)
#loc65 = loc("/NHNHOME/WORKSPACE/26msit001_A/jinhyeok/TTT_camera_embedding/lact_llm/.cache_inductor/nq/cnq3ounvko2ylhdxwzhuz5cjtj4xizx36puz4f6tl6xhgn546gti.py":68:8)
#loc66 = loc("/NHNHOME/WORKSPACE/26msit001_A/jinhyeok/TTT_camera_embedding/lact_llm/.cache_inductor/nq/cnq3ounvko2ylhdxwzhuz5cjtj4xizx36puz4f6tl6xhgn546gti.py":69:27)
#loc67 = loc("/NHNHOME/WORKSPACE/26msit001_A/jinhyeok/TTT_camera_embedding/lact_llm/.cache_inductor/nq/cnq3ounvko2ylhdxwzhuz5cjtj4xizx36puz4f6tl6xhgn546gti.py":69:30)
#loc68 = loc("/NHNHOME/WORKSPACE/26msit001_A/jinhyeok/TTT_camera_embedding/lact_llm/.cache_inductor/nq/cnq3ounvko2ylhdxwzhuz5cjtj4xizx36puz4f6tl6xhgn546gti.py":70:27)
#loc69 = loc("/NHNHOME/WORKSPACE/26msit001_A/jinhyeok/TTT_camera_embedding/lact_llm/.cache_inductor/nq/cnq3ounvko2ylhdxwzhuz5cjtj4xizx36puz4f6tl6xhgn546gti.py":70:30)
#loc70 = loc("/NHNHOME/WORKSPACE/26msit001_A/jinhyeok/TTT_camera_embedding/lact_llm/.cache_inductor/nq/cnq3ounvko2ylhdxwzhuz5cjtj4xizx36puz4f6tl6xhgn546gti.py":71:25)
#loc71 = loc("/NHNHOME/WORKSPACE/26msit001_A/jinhyeok/TTT_camera_embedding/lact_llm/.cache_inductor/nq/cnq3ounvko2ylhdxwzhuz5cjtj4xizx36puz4f6tl6xhgn546gti.py":71:37)
#loc72 = loc("/NHNHOME/WORKSPACE/26msit001_A/jinhyeok/TTT_camera_embedding/lact_llm/.cache_inductor/nq/cnq3ounvko2ylhdxwzhuz5cjtj4xizx36puz4f6tl6xhgn546gti.py":72:25)
#loc73 = loc("/NHNHOME/WORKSPACE/26msit001_A/jinhyeok/TTT_camera_embedding/lact_llm/.cache_inductor/nq/cnq3ounvko2ylhdxwzhuz5cjtj4xizx36puz4f6tl6xhgn546gti.py":72:37)
#loc74 = loc("/NHNHOME/WORKSPACE/26msit001_A/jinhyeok/TTT_camera_embedding/lact_llm/.cache_inductor/nq/cnq3ounvko2ylhdxwzhuz5cjtj4xizx36puz4f6tl6xhgn546gti.py":72:4)
#loc76 = loc("/NHNHOME/WORKSPACE/26msit001_A/jinhyeok/TTT_camera_embedding/.venv_llm/lib/python3.12/site-packages/triton/language/standard.py":291:36)
#loc78 = loc("/NHNHOME/WORKSPACE/26msit001_A/jinhyeok/TTT_camera_embedding/.venv_llm/lib/python3.12/site-packages/triton/language/standard.py":291:11)
#loc79 = loc("/NHNHOME/WORKSPACE/26msit001_A/jinhyeok/TTT_camera_embedding/.venv_llm/lib/python3.12/site-packages/triton/language/standard.py":291:4)
#loc81 = loc("/NHNHOME/WORKSPACE/26msit001_A/jinhyeok/TTT_camera_embedding/.venv_llm/lib/python3.12/site-packages/triton/language/standard.py":261:15)
#loc82 = loc("/NHNHOME/WORKSPACE/26msit001_A/jinhyeok/TTT_camera_embedding/.venv_llm/lib/python3.12/site-packages/triton/language/standard.py":261:11)
#loc83 = loc("/NHNHOME/WORKSPACE/26msit001_A/jinhyeok/TTT_camera_embedding/.venv_llm/lib/python3.12/site-packages/triton/language/standard.py":261:4)
#loc91 = loc("xnumel"(#loc1))
#loc92 = loc("r0_numel"(#loc2))
#loc93 = loc("xoffset"(#loc3))
#loc94 = loc("xoffset"(#loc4))
#loc95 = loc("xindex"(#loc5))
#loc96 = loc("xindex"(#loc6))
#loc97 = loc("xindex"(#loc7))
#loc98 = loc("xmask"(#loc8))
#loc99 = loc("r0_base"(#loc9))
#loc100 = loc("r0_base"(#loc10))
#loc101 = loc("x0"(#loc11))
#loc102 = loc("x1"(#loc12))
#loc103 = loc("_tmp17"(#loc13))
#loc104 = loc("_tmp28"(#loc14))
#loc105 = loc("_tmp17"(#loc15))
#loc106 = loc("r0_index"(#loc16))
#loc107 = loc("r0_mask"(#loc17))
#loc108 = loc("tmp0"(#loc18))
#loc109 = loc("tmp0"(#loc19))
#loc110 = loc("tmp1"(#loc20))
#loc111 = loc("tmp2"(#loc21))
#loc112 = loc("tmp3"(#loc22))
#loc113 = loc("tmp3"(#loc23))
#loc114 = loc("tmp3"(#loc24))
#loc115 = loc("tmp3"(#loc25))
#loc116 = loc("tmp3"(#loc26))
#loc117 = loc("tmp3"(#loc27))
#loc118 = loc("tmp3"(#loc28))
#loc119 = loc("tmp3"(#loc29))
#loc120 = loc("tmp3"(#loc30))
#loc121 = loc("tmp3"(#loc31))
#loc122 = loc("tmp5"(#loc32))
#loc123 = loc("tmp5"(#loc33))
#loc124 = loc("tmp5"(#loc34))
#loc125 = loc("tmp5"(#loc35))
#loc126 = loc("tmp5"(#loc36))
#loc127 = loc("tmp6"(#loc37))
#loc128 = loc("tmp7"(#loc38))
#loc129 = loc("tmp8"(#loc39))
#loc130 = loc("tmp9"(#loc40))
#loc131 = loc("tmp10"(#loc41))
#loc132 = loc("tmp13"(#loc42))
#loc133 = loc("tmp14"(#loc43))
#loc134 = loc("tmp15"(#loc44))
#loc135 = loc("tmp18"(#loc45))
#loc136 = loc("_tmp17"(#loc46))
#loc137 = loc("_tmp17"(#loc47))
#loc138 = loc("tmp19"(#loc48))
#loc139 = loc("tmp19"(#loc49))
#loc140 = loc("tmp19"(#loc50))
#loc141 = loc("tmp19"(#loc51))
#loc142 = loc("tmp19"(#loc52))
#loc143 = loc("tmp19"(#loc53))
#loc144 = loc("tmp19"(#loc54))
#loc145 = loc("tmp19"(#loc55))
#loc146 = loc("tmp19"(#loc56))
#loc147 = loc("tmp19"(#loc57))
#loc148 = loc("tmp21"(#loc58))
#loc149 = loc("tmp24"(#loc59))
#loc150 = loc("tmp25"(#loc60))
#loc151 = loc("tmp26"(#loc61))
#loc152 = loc("tmp29"(#loc62))
#loc153 = loc("_tmp28"(#loc63))
#loc154 = loc("_tmp28"(#loc64))
#loc155 = loc("tmp17"(#loc66))
#loc156 = loc("tmp17"(#loc67))
#loc157 = loc("tmp28"(#loc68))
#loc158 = loc("tmp28"(#loc69))
#loc162 = loc("_tmp28"(#loc105))
