#loc = loc("/NHNHOME/WORKSPACE/26msit001_A/jinhyeok/loop_TTT/lact/.cache_inductor_llm/4t/c4t3kpgcrnls25yvvi4fjzbke2s2u3oegsqmztshjuubamkhr4a7.py":18:0)
#loc118 = loc("/NHNHOME/WORKSPACE/26msit001_A/jinhyeok/TTT_camera_embedding/.venv_llm/lib/python3.12/site-packages/triton/language/standard.py":285:0)
#loc120 = loc(unknown)
#loc123 = loc("/NHNHOME/WORKSPACE/26msit001_A/jinhyeok/TTT_camera_embedding/.venv_llm/lib/python3.12/site-packages/triton/language/standard.py":260:0)
#loc127 = loc("in_out_ptr0"(#loc))
#loc128 = loc("in_ptr0"(#loc))
#loc129 = loc("in_ptr1"(#loc))
#loc130 = loc("in_ptr2"(#loc))
#loc131 = loc("in_ptr3"(#loc))
#loc132 = loc("in_ptr4"(#loc))
#loc133 = loc("in_ptr5"(#loc))
#loc134 = loc("out_ptr0"(#loc))
#loc135 = loc("out_ptr2"(#loc))
#loc136 = loc("out_ptr3"(#loc))
#loc137 = loc("out_ptr6"(#loc))
#loc138 = loc("out_ptr7"(#loc))
#loc139 = loc("xnumel"(#loc))
#loc140 = loc("r0_numel"(#loc))
#loc230 = loc("input"(#loc118))
#loc231 = loc("a"(#loc123))
#loc232 = loc("b"(#loc123))
module {
  tt.func public @triton_per_fused__to_copy_add_div_linalg_vector_norm_mul_39(%in_out_ptr0: !tt.ptr<f32> {tt.divisibility = 16 : i32} loc("in_out_ptr0"(#loc)), %in_ptr0: !tt.ptr<bf16> {tt.divisibility = 16 : i32} loc("in_ptr0"(#loc)), %in_ptr1: !tt.ptr<bf16> {tt.divisibility = 16 : i32} loc("in_ptr1"(#loc)), %in_ptr2: !tt.ptr<bf16> {tt.divisibility = 16 : i32} loc("in_ptr2"(#loc)), %in_ptr3: !tt.ptr<bf16> {tt.divisibility = 16 : i32} loc("in_ptr3"(#loc)), %in_ptr4: !tt.ptr<f32> {tt.divisibility = 16 : i32} loc("in_ptr4"(#loc)), %in_ptr5: !tt.ptr<bf16> {tt.divisibility = 16 : i32} loc("in_ptr5"(#loc)), %out_ptr0: !tt.ptr<f32> {tt.divisibility = 16 : i32} loc("out_ptr0"(#loc)), %out_ptr2: !tt.ptr<bf16> {tt.divisibility = 16 : i32} loc("out_ptr2"(#loc)), %out_ptr3: !tt.ptr<bf16> {tt.divisibility = 16 : i32} loc("out_ptr3"(#loc)), %out_ptr6: !tt.ptr<bf16> {tt.divisibility = 16 : i32} loc("out_ptr6"(#loc)), %out_ptr7: !tt.ptr<bf16> {tt.divisibility = 16 : i32} loc("out_ptr7"(#loc)), %xnumel: i32 {tt.divisibility = 16 : i32} loc("xnumel"(#loc)), %r0_numel: i32 {tt.divisibility = 16 : i32} loc("r0_numel"(#loc))) attributes {noinline = false} {
    %r0_numel_0 = arith.constant 192 : i32 loc(#loc141)
    %xoffset = tt.get_program_id x : i32 loc(#loc142)
    %xoffset_1 = arith.constant 1 : i32 loc(#loc143)
    %xoffset_2 = arith.constant 1 : i32 loc(#loc143)
    %xoffset_3 = arith.muli %xoffset, %xoffset_2 : i32 loc(#loc143)
    %xindex = tt.make_range {end = 1 : i32, start = 0 : i32} : tensor<1xi32> loc(#loc144)
    %xindex_4 = tt.expand_dims %xindex {axis = 1 : i32} : tensor<1xi32> -> tensor<1x1xi32> loc(#loc145)
    %xindex_5 = tt.splat %xoffset_3 : i32 -> tensor<1x1xi32> loc(#loc146)
    %xindex_6 = arith.addi %xindex_5, %xindex_4 : tensor<1x1xi32> loc(#loc146)
    %xmask = tt.splat %xnumel : i32 -> tensor<1x1xi32> loc(#loc147)
    %xmask_7 = arith.cmpi slt, %xindex_6, %xmask : tensor<1x1xi32> loc(#loc147)
    %r0_index = tt.make_range {end = 256 : i32, start = 0 : i32} : tensor<256xi32> loc(#loc148)
    %r0_index_8 = tt.expand_dims %r0_index {axis = 0 : i32} : tensor<256xi32> -> tensor<1x256xi32> loc(#loc149)
    %r0_offset = arith.constant 0 : i32 loc(#loc150)
    %r0_mask = arith.constant dense<192> : tensor<1x256xi32> loc(#loc151)
    %r0_mask_9 = arith.cmpi slt, %r0_index_8, %r0_mask : tensor<1x256xi32> loc(#loc151)
    %tmp0 = arith.constant 192 : i32 loc(#loc152)
    %tmp0_10 = arith.constant 192 : i32 loc(#loc152)
    %tmp0_11 = arith.constant dense<192> : tensor<1x1xi32> loc(#loc152)
    %tmp0_12 = arith.muli %tmp0_11, %xindex_6 : tensor<1x1xi32> loc(#loc152)
    %tmp0_13 = tt.broadcast %tmp0_12 : tensor<1x1xi32> -> tensor<1x256xi32> loc(#loc153)
    %tmp0_14 = arith.addi %r0_index_8, %tmp0_13 : tensor<1x256xi32> loc(#loc153)
    %tmp0_15 = tt.splat %in_ptr0 : !tt.ptr<bf16> -> tensor<1x256x!tt.ptr<bf16>> loc(#loc154)
    %tmp0_16 = tt.addptr %tmp0_15, %tmp0_14 : tensor<1x256x!tt.ptr<bf16>>, tensor<1x256xi32> loc(#loc154)
    %tmp0_17 = tt.broadcast %xmask_7 : tensor<1x1xi1> -> tensor<1x256xi1> loc(#loc155)
    %tmp0_18 = arith.andi %r0_mask_9, %tmp0_17 : tensor<1x256xi1> loc(#loc155)
    %tmp0_19 = arith.constant 0.000000e+00 : f32 loc(#loc156)
    %tmp0_20 = arith.constant dense<0.000000e+00> : tensor<1x256xf32> loc(#loc156)
    %tmp0_21 = arith.truncf %tmp0_20 : tensor<1x256xf32> to tensor<1x256xbf16> loc(#loc156)
    %tmp0_22 = tt.load %tmp0_16, %tmp0_18, %tmp0_21 : tensor<1x256x!tt.ptr<bf16>> loc(#loc156)
    %tmp0_23 = arith.extf %tmp0_22 : tensor<1x256xbf16> to tensor<1x256xf32> loc(#loc157)
    %tmp7 = arith.constant 192 : i32 loc(#loc158)
    %tmp7_24 = arith.constant 192 : i32 loc(#loc158)
    %tmp7_25 = arith.constant dense<192> : tensor<1x1xi32> loc(#loc158)
    %tmp7_26 = arith.muli %tmp7_25, %xindex_6 : tensor<1x1xi32> loc(#loc158)
    %tmp7_27 = tt.broadcast %tmp7_26 : tensor<1x1xi32> -> tensor<1x256xi32> loc(#loc159)
    %tmp7_28 = arith.addi %r0_index_8, %tmp7_27 : tensor<1x256xi32> loc(#loc159)
    %tmp7_29 = tt.splat %in_out_ptr0 : !tt.ptr<f32> -> tensor<1x256x!tt.ptr<f32>> loc(#loc160)
    %tmp7_30 = tt.addptr %tmp7_29, %tmp7_28 : tensor<1x256x!tt.ptr<f32>>, tensor<1x256xi32> loc(#loc160)
    %tmp7_31 = tt.broadcast %xmask_7 : tensor<1x1xi1> -> tensor<1x256xi1> loc(#loc161)
    %tmp7_32 = arith.andi %r0_mask_9, %tmp7_31 : tensor<1x256xi1> loc(#loc161)
    %tmp7_33 = arith.constant 0.000000e+00 : f32 loc(#loc162)
    %tmp7_34 = arith.constant dense<0.000000e+00> : tensor<1x256xf32> loc(#loc162)
    %tmp7_35 = tt.load %tmp7_30, %tmp7_32, %tmp7_34 : tensor<1x256x!tt.ptr<f32>> loc(#loc162)
    %tmp10 = arith.constant 192 : i32 loc(#loc163)
    %tmp10_36 = arith.constant 192 : i32 loc(#loc163)
    %tmp10_37 = arith.constant dense<192> : tensor<1x1xi32> loc(#loc163)
    %tmp10_38 = arith.muli %tmp10_37, %xindex_6 : tensor<1x1xi32> loc(#loc163)
    %tmp10_39 = tt.broadcast %tmp10_38 : tensor<1x1xi32> -> tensor<1x256xi32> loc(#loc164)
    %tmp10_40 = arith.addi %r0_index_8, %tmp10_39 : tensor<1x256xi32> loc(#loc164)
    %tmp10_41 = tt.splat %in_ptr1 : !tt.ptr<bf16> -> tensor<1x256x!tt.ptr<bf16>> loc(#loc165)
    %tmp10_42 = tt.addptr %tmp10_41, %tmp10_40 : tensor<1x256x!tt.ptr<bf16>>, tensor<1x256xi32> loc(#loc165)
    %tmp10_43 = tt.broadcast %xmask_7 : tensor<1x1xi1> -> tensor<1x256xi1> loc(#loc166)
    %tmp10_44 = arith.andi %r0_mask_9, %tmp10_43 : tensor<1x256xi1> loc(#loc166)
    %tmp10_45 = arith.constant 0.000000e+00 : f32 loc(#loc167)
    %tmp10_46 = arith.constant dense<0.000000e+00> : tensor<1x256xf32> loc(#loc167)
    %tmp10_47 = arith.truncf %tmp10_46 : tensor<1x256xf32> to tensor<1x256xbf16> loc(#loc167)
    %tmp10_48 = tt.load %tmp10_42, %tmp10_44, %tmp10_47 : tensor<1x256x!tt.ptr<bf16>> loc(#loc167)
    %tmp10_49 = arith.extf %tmp10_48 : tensor<1x256xbf16> to tensor<1x256xf32> loc(#loc168)
    %tmp15 = arith.constant 192 : i32 loc(#loc169)
    %tmp15_50 = arith.constant 192 : i32 loc(#loc169)
    %tmp15_51 = arith.constant dense<192> : tensor<1x1xi32> loc(#loc169)
    %tmp15_52 = arith.muli %tmp15_51, %xindex_6 : tensor<1x1xi32> loc(#loc169)
    %tmp15_53 = tt.broadcast %tmp15_52 : tensor<1x1xi32> -> tensor<1x256xi32> loc(#loc170)
    %tmp15_54 = arith.addi %r0_index_8, %tmp15_53 : tensor<1x256xi32> loc(#loc170)
    %tmp15_55 = tt.splat %in_ptr2 : !tt.ptr<bf16> -> tensor<1x256x!tt.ptr<bf16>> loc(#loc171)
    %tmp15_56 = tt.addptr %tmp15_55, %tmp15_54 : tensor<1x256x!tt.ptr<bf16>>, tensor<1x256xi32> loc(#loc171)
    %tmp15_57 = tt.broadcast %xmask_7 : tensor<1x1xi1> -> tensor<1x256xi1> loc(#loc172)
    %tmp15_58 = arith.andi %r0_mask_9, %tmp15_57 : tensor<1x256xi1> loc(#loc172)
    %tmp15_59 = arith.constant 0.000000e+00 : f32 loc(#loc173)
    %tmp15_60 = arith.constant dense<0.000000e+00> : tensor<1x256xf32> loc(#loc173)
    %tmp15_61 = arith.truncf %tmp15_60 : tensor<1x256xf32> to tensor<1x256xbf16> loc(#loc173)
    %tmp15_62 = tt.load %tmp15_56, %tmp15_58, %tmp15_61 : tensor<1x256x!tt.ptr<bf16>> loc(#loc173)
    %tmp15_63 = arith.extf %tmp15_62 : tensor<1x256xbf16> to tensor<1x256xf32> loc(#loc174)
    %tmp20 = arith.constant 192 : i32 loc(#loc175)
    %tmp20_64 = arith.constant 192 : i32 loc(#loc175)
    %tmp20_65 = arith.constant dense<192> : tensor<1x1xi32> loc(#loc175)
    %tmp20_66 = arith.muli %tmp20_65, %xindex_6 : tensor<1x1xi32> loc(#loc175)
    %tmp20_67 = tt.broadcast %tmp20_66 : tensor<1x1xi32> -> tensor<1x256xi32> loc(#loc176)
    %tmp20_68 = arith.addi %r0_index_8, %tmp20_67 : tensor<1x256xi32> loc(#loc176)
    %tmp20_69 = tt.splat %in_ptr3 : !tt.ptr<bf16> -> tensor<1x256x!tt.ptr<bf16>> loc(#loc177)
    %tmp20_70 = tt.addptr %tmp20_69, %tmp20_68 : tensor<1x256x!tt.ptr<bf16>>, tensor<1x256xi32> loc(#loc177)
    %tmp20_71 = tt.broadcast %xmask_7 : tensor<1x1xi1> -> tensor<1x256xi1> loc(#loc178)
    %tmp20_72 = arith.andi %r0_mask_9, %tmp20_71 : tensor<1x256xi1> loc(#loc178)
    %tmp20_73 = arith.constant 0.000000e+00 : f32 loc(#loc179)
    %tmp20_74 = arith.constant dense<0.000000e+00> : tensor<1x256xf32> loc(#loc179)
    %tmp20_75 = arith.truncf %tmp20_74 : tensor<1x256xf32> to tensor<1x256xbf16> loc(#loc179)
    %tmp20_76 = tt.load %tmp20_70, %tmp20_72, %tmp20_75 : tensor<1x256x!tt.ptr<bf16>> loc(#loc179)
    %tmp20_77 = arith.extf %tmp20_76 : tensor<1x256xbf16> to tensor<1x256xf32> loc(#loc180)
    %tmp36 = arith.constant 192 : i32 loc(#loc181)
    %tmp36_78 = arith.constant 192 : i32 loc(#loc181)
    %tmp36_79 = arith.constant dense<192> : tensor<1x1xi32> loc(#loc181)
    %tmp36_80 = arith.muli %tmp36_79, %xindex_6 : tensor<1x1xi32> loc(#loc181)
    %tmp36_81 = tt.broadcast %tmp36_80 : tensor<1x1xi32> -> tensor<1x256xi32> loc(#loc182)
    %tmp36_82 = arith.addi %r0_index_8, %tmp36_81 : tensor<1x256xi32> loc(#loc182)
    %tmp36_83 = tt.splat %in_ptr4 : !tt.ptr<f32> -> tensor<1x256x!tt.ptr<f32>> loc(#loc183)
    %tmp36_84 = tt.addptr %tmp36_83, %tmp36_82 : tensor<1x256x!tt.ptr<f32>>, tensor<1x256xi32> loc(#loc183)
    %tmp36_85 = tt.broadcast %xmask_7 : tensor<1x1xi1> -> tensor<1x256xi1> loc(#loc184)
    %tmp36_86 = arith.andi %r0_mask_9, %tmp36_85 : tensor<1x256xi1> loc(#loc184)
    %tmp36_87 = arith.constant 0.000000e+00 : f32 loc(#loc185)
    %tmp36_88 = arith.constant dense<0.000000e+00> : tensor<1x256xf32> loc(#loc185)
    %tmp36_89 = tt.load %tmp36_84, %tmp36_86, %tmp36_88 : tensor<1x256x!tt.ptr<f32>> loc(#loc185)
    %tmp38 = arith.constant 192 : i32 loc(#loc186)
    %tmp38_90 = arith.constant 192 : i32 loc(#loc186)
    %tmp38_91 = arith.constant dense<192> : tensor<1x1xi32> loc(#loc186)
    %tmp38_92 = arith.muli %tmp38_91, %xindex_6 : tensor<1x1xi32> loc(#loc186)
    %tmp38_93 = tt.broadcast %tmp38_92 : tensor<1x1xi32> -> tensor<1x256xi32> loc(#loc187)
    %tmp38_94 = arith.addi %r0_index_8, %tmp38_93 : tensor<1x256xi32> loc(#loc187)
    %tmp38_95 = tt.splat %in_ptr5 : !tt.ptr<bf16> -> tensor<1x256x!tt.ptr<bf16>> loc(#loc188)
    %tmp38_96 = tt.addptr %tmp38_95, %tmp38_94 : tensor<1x256x!tt.ptr<bf16>>, tensor<1x256xi32> loc(#loc188)
    %tmp38_97 = tt.broadcast %xmask_7 : tensor<1x1xi1> -> tensor<1x256xi1> loc(#loc189)
    %tmp38_98 = arith.andi %r0_mask_9, %tmp38_97 : tensor<1x256xi1> loc(#loc189)
    %tmp38_99 = arith.constant 0.000000e+00 : f32 loc(#loc190)
    %tmp38_100 = arith.constant dense<0.000000e+00> : tensor<1x256xf32> loc(#loc190)
    %tmp38_101 = arith.truncf %tmp38_100 : tensor<1x256xf32> to tensor<1x256xbf16> loc(#loc190)
    %tmp38_102 = tt.load %tmp38_96, %tmp38_98, %tmp38_101 : tensor<1x256x!tt.ptr<bf16>> loc(#loc190)
    %tmp38_103 = arith.extf %tmp38_102 : tensor<1x256xbf16> to tensor<1x256xf32> loc(#loc191)
    %tmp2 = arith.mulf %tmp0_23, %tmp0_23 : tensor<1x256xf32> loc(#loc192)
    %tmp5 = tt.broadcast %xmask_7 : tensor<1x1xi1> -> tensor<1x256xi1> loc(#loc193)
    %tmp5_104 = arith.andi %r0_mask_9, %tmp5 : tensor<1x256xi1> loc(#loc193)
    %tmp5_105 = arith.constant 0 : i32 loc(#loc194)
    %tmp5_106 = arith.constant 0.000000e+00 : f32 loc(#loc194)
    %tmp5_107 = arith.constant dense<0.000000e+00> : tensor<1x256xf32> loc(#loc194)
    %tmp5_108 = arith.select %tmp5_104, %tmp2, %tmp5_107 : tensor<1x256xi1>, tensor<1x256xf32> loc(#loc194)
    %tmp6 = tt.call @"triton.language.standard.sum__fp32S1_256S__(1,)cconstexpr_1__(2,)cconstexpr_False__(3,)cNone"(%tmp5_108) : (tensor<1x256xf32>) -> tensor<1xf32> loc(#loc195)
    %tmp6_109 = tt.expand_dims %tmp6 {axis = 1 : i32} : tensor<1xf32> -> tensor<1x1xf32> loc(#loc196)
    %tmp8 = arith.constant 3.741800e+00 : f32 loc(#loc197)
    %tmp9 = arith.constant dense<3.741800e+00> : tensor<1x256xf32> loc(#loc198)
    %tmp9_110 = arith.mulf %tmp7_35, %tmp9 : tensor<1x256xf32> loc(#loc198)
    %tmp12 = arith.addf %tmp9_110, %tmp10_49 : tensor<1x256xf32> loc(#loc199)
    %tmp13 = arith.constant 2.876900e+00 : f32 loc(#loc200)
    %tmp14 = arith.constant dense<2.876900e+00> : tensor<1x256xf32> loc(#loc201)
    %tmp14_111 = arith.mulf %tmp12, %tmp14 : tensor<1x256xf32> loc(#loc201)
    %tmp17 = arith.addf %tmp14_111, %tmp15_63 : tensor<1x256xf32> loc(#loc202)
    %tmp18 = arith.constant 2.836600e+00 : f32 loc(#loc203)
    %tmp19 = arith.constant dense<2.836600e+00> : tensor<1x256xf32> loc(#loc204)
    %tmp19_112 = arith.mulf %tmp17, %tmp19 : tensor<1x256xf32> loc(#loc204)
    %tmp22 = arith.addf %tmp19_112, %tmp20_77 : tensor<1x256xf32> loc(#loc205)
    %tmp23 = arith.addf %tmp0_23, %tmp22 : tensor<1x256xf32> loc(#loc206)
    %tmp24 = arith.mulf %tmp23, %tmp23 : tensor<1x256xf32> loc(#loc207)
    %tmp27 = tt.broadcast %xmask_7 : tensor<1x1xi1> -> tensor<1x256xi1> loc(#loc208)
    %tmp27_113 = arith.andi %r0_mask_9, %tmp27 : tensor<1x256xi1> loc(#loc208)
    %tmp27_114 = arith.constant 0 : i32 loc(#loc209)
    %tmp27_115 = arith.constant 0.000000e+00 : f32 loc(#loc209)
    %tmp27_116 = arith.constant dense<0.000000e+00> : tensor<1x256xf32> loc(#loc209)
    %tmp27_117 = arith.select %tmp27_113, %tmp24, %tmp27_116 : tensor<1x256xi1>, tensor<1x256xf32> loc(#loc209)
    %tmp28 = tt.call @"triton.language.standard.sum__fp32S1_256S__(1,)cconstexpr_1__(2,)cconstexpr_False__(3,)cNone"(%tmp27_117) : (tensor<1x256xf32>) -> tensor<1xf32> loc(#loc210)
    %tmp28_118 = tt.expand_dims %tmp28 {axis = 1 : i32} : tensor<1xf32> -> tensor<1x1xf32> loc(#loc211)
    %tmp29 = tt.extern_elementwise %tmp28_118 {libname = "", libpath = "", pure = true, symbol = "__nv_sqrtf"} : (tensor<1x1xf32>) -> tensor<1x1xf32> loc(#loc212)
    %tmp30 = arith.constant 9.99999974E-6 : f32 loc(#loc213)
    %tmp31 = arith.constant dense<9.99999974E-6> : tensor<1x1xf32> loc(#loc214)
    %tmp31_119 = arith.addf %tmp29, %tmp31 : tensor<1x1xf32> loc(#loc214)
    %tmp32 = tt.broadcast %tmp31_119 : tensor<1x1xf32> -> tensor<1x256xf32> loc(#loc215)
    %tmp32_120 = arith.divf %tmp23, %tmp32 : tensor<1x256xf32> loc(#loc215)
    %tmp33 = tt.extern_elementwise %tmp6_109 {libname = "", libpath = "", pure = true, symbol = "__nv_sqrtf"} : (tensor<1x1xf32>) -> tensor<1x1xf32> loc(#loc216)
    %tmp34 = tt.broadcast %tmp33 : tensor<1x1xf32> -> tensor<1x256xf32> loc(#loc217)
    %tmp34_121 = arith.mulf %tmp32_120, %tmp34 : tensor<1x256xf32> loc(#loc217)
    %tmp37 = arith.constant dense<2.836600e+00> : tensor<1x256xf32> loc(#loc218)
    %tmp37_122 = arith.mulf %tmp36_89, %tmp37 : tensor<1x256xf32> loc(#loc218)
    %tmp40 = arith.addf %tmp37_122, %tmp38_103 : tensor<1x256xf32> loc(#loc219)
    %tmp41 = arith.addf %tmp23, %tmp40 : tensor<1x256xf32> loc(#loc220)
    %tmp42 = arith.mulf %tmp41, %tmp41 : tensor<1x256xf32> loc(#loc221)
    %tmp45 = tt.broadcast %xmask_7 : tensor<1x1xi1> -> tensor<1x256xi1> loc(#loc222)
    %tmp45_123 = arith.andi %r0_mask_9, %tmp45 : tensor<1x256xi1> loc(#loc222)
    %tmp45_124 = arith.constant 0 : i32 loc(#loc223)
    %tmp45_125 = arith.constant 0.000000e+00 : f32 loc(#loc223)
    %tmp45_126 = arith.constant dense<0.000000e+00> : tensor<1x256xf32> loc(#loc223)
    %tmp45_127 = arith.select %tmp45_123, %tmp42, %tmp45_126 : tensor<1x256xi1>, tensor<1x256xf32> loc(#loc223)
    %tmp46 = tt.call @"triton.language.standard.sum__fp32S1_256S__(1,)cconstexpr_1__(2,)cconstexpr_False__(3,)cNone"(%tmp45_127) : (tensor<1x256xf32>) -> tensor<1xf32> loc(#loc224)
    %tmp46_128 = tt.expand_dims %tmp46 {axis = 1 : i32} : tensor<1xf32> -> tensor<1x1xf32> loc(#loc225)
    %tmp47 = tt.extern_elementwise %tmp46_128 {libname = "", libpath = "", pure = true, symbol = "__nv_sqrtf"} : (tensor<1x1xf32>) -> tensor<1x1xf32> loc(#loc226)
    %tmp48 = arith.constant dense<9.99999974E-6> : tensor<1x1xf32> loc(#loc227)
    %tmp48_129 = arith.addf %tmp47, %tmp48 : tensor<1x1xf32> loc(#loc227)
    %tmp49 = tt.broadcast %tmp48_129 : tensor<1x1xf32> -> tensor<1x256xf32> loc(#loc228)
    %tmp49_130 = arith.divf %tmp41, %tmp49 : tensor<1x256xf32> loc(#loc228)
    %tmp50 = tt.broadcast %tmp33 : tensor<1x1xf32> -> tensor<1x256xf32> loc(#loc229)
    %tmp50_131 = arith.mulf %tmp49_130, %tmp50 : tensor<1x256xf32> loc(#loc229)
    %c192_i32 = arith.constant 192 : i32 loc(#loc90)
    %c192_i32_132 = arith.constant 192 : i32 loc(#loc90)
    %cst = arith.constant dense<192> : tensor<1x1xi32> loc(#loc90)
    %0 = arith.muli %cst, %xindex_6 : tensor<1x1xi32> loc(#loc90)
    %1 = tt.broadcast %0 : tensor<1x1xi32> -> tensor<1x256xi32> loc(#loc91)
    %2 = arith.addi %r0_index_8, %1 : tensor<1x256xi32> loc(#loc91)
    %3 = tt.splat %in_out_ptr0 : !tt.ptr<f32> -> tensor<1x256x!tt.ptr<f32>> loc(#loc92)
    %4 = tt.addptr %3, %2 : tensor<1x256x!tt.ptr<f32>>, tensor<1x256xi32> loc(#loc92)
    %5 = tt.broadcast %xmask_7 : tensor<1x1xi1> -> tensor<1x256xi1> loc(#loc93)
    %6 = arith.andi %r0_mask_9, %5 : tensor<1x256xi1> loc(#loc93)
    tt.store %4, %tmp23, %6 : tensor<1x256x!tt.ptr<f32>> loc(#loc94)
    %c192_i32_133 = arith.constant 192 : i32 loc(#loc95)
    %c192_i32_134 = arith.constant 192 : i32 loc(#loc95)
    %cst_135 = arith.constant dense<192> : tensor<1x1xi32> loc(#loc95)
    %7 = arith.muli %cst_135, %xindex_6 : tensor<1x1xi32> loc(#loc95)
    %8 = tt.broadcast %7 : tensor<1x1xi32> -> tensor<1x256xi32> loc(#loc96)
    %9 = arith.addi %r0_index_8, %8 : tensor<1x256xi32> loc(#loc96)
    %10 = tt.splat %out_ptr2 : !tt.ptr<bf16> -> tensor<1x256x!tt.ptr<bf16>> loc(#loc97)
    %11 = tt.addptr %10, %9 : tensor<1x256x!tt.ptr<bf16>>, tensor<1x256xi32> loc(#loc97)
    %12 = tt.broadcast %xmask_7 : tensor<1x1xi1> -> tensor<1x256xi1> loc(#loc98)
    %13 = arith.andi %r0_mask_9, %12 : tensor<1x256xi1> loc(#loc98)
    %14 = arith.truncf %tmp34_121 : tensor<1x256xf32> to tensor<1x256xbf16> loc(#loc99)
    tt.store %11, %14, %13 : tensor<1x256x!tt.ptr<bf16>> loc(#loc99)
    %c192_i32_136 = arith.constant 192 : i32 loc(#loc100)
    %c192_i32_137 = arith.constant 192 : i32 loc(#loc100)
    %cst_138 = arith.constant dense<192> : tensor<1x1xi32> loc(#loc100)
    %15 = arith.muli %cst_138, %xindex_6 : tensor<1x1xi32> loc(#loc100)
    %16 = tt.broadcast %15 : tensor<1x1xi32> -> tensor<1x256xi32> loc(#loc101)
    %17 = arith.addi %r0_index_8, %16 : tensor<1x256xi32> loc(#loc101)
    %18 = tt.splat %out_ptr3 : !tt.ptr<bf16> -> tensor<1x256x!tt.ptr<bf16>> loc(#loc102)
    %19 = tt.addptr %18, %17 : tensor<1x256x!tt.ptr<bf16>>, tensor<1x256xi32> loc(#loc102)
    %20 = tt.broadcast %xmask_7 : tensor<1x1xi1> -> tensor<1x256xi1> loc(#loc103)
    %21 = arith.andi %r0_mask_9, %20 : tensor<1x256xi1> loc(#loc103)
    %22 = arith.truncf %tmp34_121 : tensor<1x256xf32> to tensor<1x256xbf16> loc(#loc104)
    tt.store %19, %22, %21 : tensor<1x256x!tt.ptr<bf16>> loc(#loc104)
    %c192_i32_139 = arith.constant 192 : i32 loc(#loc105)
    %c192_i32_140 = arith.constant 192 : i32 loc(#loc105)
    %cst_141 = arith.constant dense<192> : tensor<1x1xi32> loc(#loc105)
    %23 = arith.muli %cst_141, %xindex_6 : tensor<1x1xi32> loc(#loc105)
    %24 = tt.broadcast %23 : tensor<1x1xi32> -> tensor<1x256xi32> loc(#loc106)
    %25 = arith.addi %r0_index_8, %24 : tensor<1x256xi32> loc(#loc106)
    %26 = tt.splat %out_ptr6 : !tt.ptr<bf16> -> tensor<1x256x!tt.ptr<bf16>> loc(#loc107)
    %27 = tt.addptr %26, %25 : tensor<1x256x!tt.ptr<bf16>>, tensor<1x256xi32> loc(#loc107)
    %28 = tt.broadcast %xmask_7 : tensor<1x1xi1> -> tensor<1x256xi1> loc(#loc108)
    %29 = arith.andi %r0_mask_9, %28 : tensor<1x256xi1> loc(#loc108)
    %30 = arith.truncf %tmp50_131 : tensor<1x256xf32> to tensor<1x256xbf16> loc(#loc109)
    tt.store %27, %30, %29 : tensor<1x256x!tt.ptr<bf16>> loc(#loc109)
    %c192_i32_142 = arith.constant 192 : i32 loc(#loc110)
    %c192_i32_143 = arith.constant 192 : i32 loc(#loc110)
    %cst_144 = arith.constant dense<192> : tensor<1x1xi32> loc(#loc110)
    %31 = arith.muli %cst_144, %xindex_6 : tensor<1x1xi32> loc(#loc110)
    %32 = tt.broadcast %31 : tensor<1x1xi32> -> tensor<1x256xi32> loc(#loc111)
    %33 = arith.addi %r0_index_8, %32 : tensor<1x256xi32> loc(#loc111)
    %34 = tt.splat %out_ptr7 : !tt.ptr<bf16> -> tensor<1x256x!tt.ptr<bf16>> loc(#loc112)
    %35 = tt.addptr %34, %33 : tensor<1x256x!tt.ptr<bf16>>, tensor<1x256xi32> loc(#loc112)
    %36 = tt.broadcast %xmask_7 : tensor<1x1xi1> -> tensor<1x256xi1> loc(#loc113)
    %37 = arith.andi %r0_mask_9, %36 : tensor<1x256xi1> loc(#loc113)
    %38 = arith.truncf %tmp50_131 : tensor<1x256xf32> to tensor<1x256xbf16> loc(#loc114)
    tt.store %35, %38, %37 : tensor<1x256x!tt.ptr<bf16>> loc(#loc114)
    %39 = tt.splat %out_ptr0 : !tt.ptr<f32> -> tensor<1x1x!tt.ptr<f32>> loc(#loc115)
    %40 = tt.addptr %39, %xindex_6 : tensor<1x1x!tt.ptr<f32>>, tensor<1x1xi32> loc(#loc115)
    tt.store %40, %tmp6_109, %xmask_7 : tensor<1x1x!tt.ptr<f32>> loc(#loc116)
    tt.return loc(#loc117)
  } loc(#loc)
  tt.func private @"triton.language.standard.sum__fp32S1_256S__(1,)cconstexpr_1__(2,)cconstexpr_False__(3,)cNone"(%input: tensor<1x256xf32> loc("input"(#loc118))) -> tensor<1xf32> attributes {noinline = false} {
    %0 = "tt.reduce"(%input) <{axis = 1 : i32}> ({
    ^bb0(%arg1: f32 loc(unknown), %arg2: f32 loc(unknown)):
      %2 = tt.call @triton.language.standard._sum_combine__fp32_fp32__(%arg1, %arg2) : (f32, f32) -> f32 loc(#loc119)
      tt.reduce.return %2 : f32 loc(#loc119)
    }) : (tensor<1x256xf32>) -> tensor<1xf32> loc(#loc119)
    tt.return %0 : tensor<1xf32> loc(#loc121)
  ^bb1:  // no predecessors
    %1 = ub.poison : tensor<1xf32> loc(#loc122)
    tt.return %1 : tensor<1xf32> loc(#loc122)
  } loc(#loc118)
  tt.func private @triton.language.standard._sum_combine__fp32_fp32__(%a: f32 loc("a"(#loc123)), %b: f32 loc("b"(#loc123))) -> f32 attributes {noinline = false} {
    %0 = arith.addf %a, %b : f32 loc(#loc124)
    tt.return %0 : f32 loc(#loc125)
  ^bb1:  // no predecessors
    %1 = ub.poison : f32 loc(#loc126)
    tt.return %1 : f32 loc(#loc126)
  } loc(#loc123)
} loc(#loc)
#loc1 = loc("/NHNHOME/WORKSPACE/26msit001_A/jinhyeok/loop_TTT/lact/.cache_inductor_llm/4t/c4t3kpgcrnls25yvvi4fjzbke2s2u3oegsqmztshjuubamkhr4a7.py":19:15)
#loc2 = loc("/NHNHOME/WORKSPACE/26msit001_A/jinhyeok/loop_TTT/lact/.cache_inductor_llm/4t/c4t3kpgcrnls25yvvi4fjzbke2s2u3oegsqmztshjuubamkhr4a7.py":23:28)
#loc3 = loc("/NHNHOME/WORKSPACE/26msit001_A/jinhyeok/loop_TTT/lact/.cache_inductor_llm/4t/c4t3kpgcrnls25yvvi4fjzbke2s2u3oegsqmztshjuubamkhr4a7.py":23:33)
#loc4 = loc("/NHNHOME/WORKSPACE/26msit001_A/jinhyeok/loop_TTT/lact/.cache_inductor_llm/4t/c4t3kpgcrnls25yvvi4fjzbke2s2u3oegsqmztshjuubamkhr4a7.py":24:36)
#loc5 = loc("/NHNHOME/WORKSPACE/26msit001_A/jinhyeok/loop_TTT/lact/.cache_inductor_llm/4t/c4t3kpgcrnls25yvvi4fjzbke2s2u3oegsqmztshjuubamkhr4a7.py":24:44)
#loc6 = loc("/NHNHOME/WORKSPACE/26msit001_A/jinhyeok/loop_TTT/lact/.cache_inductor_llm/4t/c4t3kpgcrnls25yvvi4fjzbke2s2u3oegsqmztshjuubamkhr4a7.py":24:23)
#loc7 = loc("/NHNHOME/WORKSPACE/26msit001_A/jinhyeok/loop_TTT/lact/.cache_inductor_llm/4t/c4t3kpgcrnls25yvvi4fjzbke2s2u3oegsqmztshjuubamkhr4a7.py":25:21)
#loc8 = loc("/NHNHOME/WORKSPACE/26msit001_A/jinhyeok/loop_TTT/lact/.cache_inductor_llm/4t/c4t3kpgcrnls25yvvi4fjzbke2s2u3oegsqmztshjuubamkhr4a7.py":26:28)
#loc9 = loc("/NHNHOME/WORKSPACE/26msit001_A/jinhyeok/loop_TTT/lact/.cache_inductor_llm/4t/c4t3kpgcrnls25yvvi4fjzbke2s2u3oegsqmztshjuubamkhr4a7.py":26:38)
#loc10 = loc("/NHNHOME/WORKSPACE/26msit001_A/jinhyeok/loop_TTT/lact/.cache_inductor_llm/4t/c4t3kpgcrnls25yvvi4fjzbke2s2u3oegsqmztshjuubamkhr4a7.py":27:16)
#loc11 = loc("/NHNHOME/WORKSPACE/26msit001_A/jinhyeok/loop_TTT/lact/.cache_inductor_llm/4t/c4t3kpgcrnls25yvvi4fjzbke2s2u3oegsqmztshjuubamkhr4a7.py":28:25)
#loc12 = loc("/NHNHOME/WORKSPACE/26msit001_A/jinhyeok/loop_TTT/lact/.cache_inductor_llm/4t/c4t3kpgcrnls25yvvi4fjzbke2s2u3oegsqmztshjuubamkhr4a7.py":33:41)
#loc13 = loc("/NHNHOME/WORKSPACE/26msit001_A/jinhyeok/loop_TTT/lact/.cache_inductor_llm/4t/c4t3kpgcrnls25yvvi4fjzbke2s2u3oegsqmztshjuubamkhr4a7.py":33:37)
#loc14 = loc("/NHNHOME/WORKSPACE/26msit001_A/jinhyeok/loop_TTT/lact/.cache_inductor_llm/4t/c4t3kpgcrnls25yvvi4fjzbke2s2u3oegsqmztshjuubamkhr4a7.py":33:30)
#loc15 = loc("/NHNHOME/WORKSPACE/26msit001_A/jinhyeok/loop_TTT/lact/.cache_inductor_llm/4t/c4t3kpgcrnls25yvvi4fjzbke2s2u3oegsqmztshjuubamkhr4a7.py":33:56)
#loc16 = loc("/NHNHOME/WORKSPACE/26msit001_A/jinhyeok/loop_TTT/lact/.cache_inductor_llm/4t/c4t3kpgcrnls25yvvi4fjzbke2s2u3oegsqmztshjuubamkhr4a7.py":33:46)
#loc17 = loc("/NHNHOME/WORKSPACE/26msit001_A/jinhyeok/loop_TTT/lact/.cache_inductor_llm/4t/c4t3kpgcrnls25yvvi4fjzbke2s2u3oegsqmztshjuubamkhr4a7.py":33:77)
#loc18 = loc("/NHNHOME/WORKSPACE/26msit001_A/jinhyeok/loop_TTT/lact/.cache_inductor_llm/4t/c4t3kpgcrnls25yvvi4fjzbke2s2u3oegsqmztshjuubamkhr4a7.py":34:45)
#loc19 = loc("/NHNHOME/WORKSPACE/26msit001_A/jinhyeok/loop_TTT/lact/.cache_inductor_llm/4t/c4t3kpgcrnls25yvvi4fjzbke2s2u3oegsqmztshjuubamkhr4a7.py":34:41)
#loc20 = loc("/NHNHOME/WORKSPACE/26msit001_A/jinhyeok/loop_TTT/lact/.cache_inductor_llm/4t/c4t3kpgcrnls25yvvi4fjzbke2s2u3oegsqmztshjuubamkhr4a7.py":34:34)
#loc21 = loc("/NHNHOME/WORKSPACE/26msit001_A/jinhyeok/loop_TTT/lact/.cache_inductor_llm/4t/c4t3kpgcrnls25yvvi4fjzbke2s2u3oegsqmztshjuubamkhr4a7.py":34:60)
#loc22 = loc("/NHNHOME/WORKSPACE/26msit001_A/jinhyeok/loop_TTT/lact/.cache_inductor_llm/4t/c4t3kpgcrnls25yvvi4fjzbke2s2u3oegsqmztshjuubamkhr4a7.py":34:50)
#loc23 = loc("/NHNHOME/WORKSPACE/26msit001_A/jinhyeok/loop_TTT/lact/.cache_inductor_llm/4t/c4t3kpgcrnls25yvvi4fjzbke2s2u3oegsqmztshjuubamkhr4a7.py":35:42)
#loc24 = loc("/NHNHOME/WORKSPACE/26msit001_A/jinhyeok/loop_TTT/lact/.cache_inductor_llm/4t/c4t3kpgcrnls25yvvi4fjzbke2s2u3oegsqmztshjuubamkhr4a7.py":35:38)
#loc25 = loc("/NHNHOME/WORKSPACE/26msit001_A/jinhyeok/loop_TTT/lact/.cache_inductor_llm/4t/c4t3kpgcrnls25yvvi4fjzbke2s2u3oegsqmztshjuubamkhr4a7.py":35:31)
#loc26 = loc("/NHNHOME/WORKSPACE/26msit001_A/jinhyeok/loop_TTT/lact/.cache_inductor_llm/4t/c4t3kpgcrnls25yvvi4fjzbke2s2u3oegsqmztshjuubamkhr4a7.py":35:57)
#loc27 = loc("/NHNHOME/WORKSPACE/26msit001_A/jinhyeok/loop_TTT/lact/.cache_inductor_llm/4t/c4t3kpgcrnls25yvvi4fjzbke2s2u3oegsqmztshjuubamkhr4a7.py":35:47)
#loc28 = loc("/NHNHOME/WORKSPACE/26msit001_A/jinhyeok/loop_TTT/lact/.cache_inductor_llm/4t/c4t3kpgcrnls25yvvi4fjzbke2s2u3oegsqmztshjuubamkhr4a7.py":35:78)
#loc29 = loc("/NHNHOME/WORKSPACE/26msit001_A/jinhyeok/loop_TTT/lact/.cache_inductor_llm/4t/c4t3kpgcrnls25yvvi4fjzbke2s2u3oegsqmztshjuubamkhr4a7.py":36:42)
#loc30 = loc("/NHNHOME/WORKSPACE/26msit001_A/jinhyeok/loop_TTT/lact/.cache_inductor_llm/4t/c4t3kpgcrnls25yvvi4fjzbke2s2u3oegsqmztshjuubamkhr4a7.py":36:38)
#loc31 = loc("/NHNHOME/WORKSPACE/26msit001_A/jinhyeok/loop_TTT/lact/.cache_inductor_llm/4t/c4t3kpgcrnls25yvvi4fjzbke2s2u3oegsqmztshjuubamkhr4a7.py":36:31)
#loc32 = loc("/NHNHOME/WORKSPACE/26msit001_A/jinhyeok/loop_TTT/lact/.cache_inductor_llm/4t/c4t3kpgcrnls25yvvi4fjzbke2s2u3oegsqmztshjuubamkhr4a7.py":36:57)
#loc33 = loc("/NHNHOME/WORKSPACE/26msit001_A/jinhyeok/loop_TTT/lact/.cache_inductor_llm/4t/c4t3kpgcrnls25yvvi4fjzbke2s2u3oegsqmztshjuubamkhr4a7.py":36:47)
#loc34 = loc("/NHNHOME/WORKSPACE/26msit001_A/jinhyeok/loop_TTT/lact/.cache_inductor_llm/4t/c4t3kpgcrnls25yvvi4fjzbke2s2u3oegsqmztshjuubamkhr4a7.py":36:78)
#loc35 = loc("/NHNHOME/WORKSPACE/26msit001_A/jinhyeok/loop_TTT/lact/.cache_inductor_llm/4t/c4t3kpgcrnls25yvvi4fjzbke2s2u3oegsqmztshjuubamkhr4a7.py":37:42)
#loc36 = loc("/NHNHOME/WORKSPACE/26msit001_A/jinhyeok/loop_TTT/lact/.cache_inductor_llm/4t/c4t3kpgcrnls25yvvi4fjzbke2s2u3oegsqmztshjuubamkhr4a7.py":37:38)
#loc37 = loc("/NHNHOME/WORKSPACE/26msit001_A/jinhyeok/loop_TTT/lact/.cache_inductor_llm/4t/c4t3kpgcrnls25yvvi4fjzbke2s2u3oegsqmztshjuubamkhr4a7.py":37:31)
#loc38 = loc("/NHNHOME/WORKSPACE/26msit001_A/jinhyeok/loop_TTT/lact/.cache_inductor_llm/4t/c4t3kpgcrnls25yvvi4fjzbke2s2u3oegsqmztshjuubamkhr4a7.py":37:57)
#loc39 = loc("/NHNHOME/WORKSPACE/26msit001_A/jinhyeok/loop_TTT/lact/.cache_inductor_llm/4t/c4t3kpgcrnls25yvvi4fjzbke2s2u3oegsqmztshjuubamkhr4a7.py":37:47)
#loc40 = loc("/NHNHOME/WORKSPACE/26msit001_A/jinhyeok/loop_TTT/lact/.cache_inductor_llm/4t/c4t3kpgcrnls25yvvi4fjzbke2s2u3oegsqmztshjuubamkhr4a7.py":37:78)
#loc41 = loc("/NHNHOME/WORKSPACE/26msit001_A/jinhyeok/loop_TTT/lact/.cache_inductor_llm/4t/c4t3kpgcrnls25yvvi4fjzbke2s2u3oegsqmztshjuubamkhr4a7.py":38:42)
#loc42 = loc("/NHNHOME/WORKSPACE/26msit001_A/jinhyeok/loop_TTT/lact/.cache_inductor_llm/4t/c4t3kpgcrnls25yvvi4fjzbke2s2u3oegsqmztshjuubamkhr4a7.py":38:38)
#loc43 = loc("/NHNHOME/WORKSPACE/26msit001_A/jinhyeok/loop_TTT/lact/.cache_inductor_llm/4t/c4t3kpgcrnls25yvvi4fjzbke2s2u3oegsqmztshjuubamkhr4a7.py":38:31)
#loc44 = loc("/NHNHOME/WORKSPACE/26msit001_A/jinhyeok/loop_TTT/lact/.cache_inductor_llm/4t/c4t3kpgcrnls25yvvi4fjzbke2s2u3oegsqmztshjuubamkhr4a7.py":38:57)
#loc45 = loc("/NHNHOME/WORKSPACE/26msit001_A/jinhyeok/loop_TTT/lact/.cache_inductor_llm/4t/c4t3kpgcrnls25yvvi4fjzbke2s2u3oegsqmztshjuubamkhr4a7.py":38:47)
#loc46 = loc("/NHNHOME/WORKSPACE/26msit001_A/jinhyeok/loop_TTT/lact/.cache_inductor_llm/4t/c4t3kpgcrnls25yvvi4fjzbke2s2u3oegsqmztshjuubamkhr4a7.py":39:42)
#loc47 = loc("/NHNHOME/WORKSPACE/26msit001_A/jinhyeok/loop_TTT/lact/.cache_inductor_llm/4t/c4t3kpgcrnls25yvvi4fjzbke2s2u3oegsqmztshjuubamkhr4a7.py":39:38)
#loc48 = loc("/NHNHOME/WORKSPACE/26msit001_A/jinhyeok/loop_TTT/lact/.cache_inductor_llm/4t/c4t3kpgcrnls25yvvi4fjzbke2s2u3oegsqmztshjuubamkhr4a7.py":39:31)
#loc49 = loc("/NHNHOME/WORKSPACE/26msit001_A/jinhyeok/loop_TTT/lact/.cache_inductor_llm/4t/c4t3kpgcrnls25yvvi4fjzbke2s2u3oegsqmztshjuubamkhr4a7.py":39:57)
#loc50 = loc("/NHNHOME/WORKSPACE/26msit001_A/jinhyeok/loop_TTT/lact/.cache_inductor_llm/4t/c4t3kpgcrnls25yvvi4fjzbke2s2u3oegsqmztshjuubamkhr4a7.py":39:47)
#loc51 = loc("/NHNHOME/WORKSPACE/26msit001_A/jinhyeok/loop_TTT/lact/.cache_inductor_llm/4t/c4t3kpgcrnls25yvvi4fjzbke2s2u3oegsqmztshjuubamkhr4a7.py":39:78)
#loc52 = loc("/NHNHOME/WORKSPACE/26msit001_A/jinhyeok/loop_TTT/lact/.cache_inductor_llm/4t/c4t3kpgcrnls25yvvi4fjzbke2s2u3oegsqmztshjuubamkhr4a7.py":41:18)
#loc53 = loc("/NHNHOME/WORKSPACE/26msit001_A/jinhyeok/loop_TTT/lact/.cache_inductor_llm/4t/c4t3kpgcrnls25yvvi4fjzbke2s2u3oegsqmztshjuubamkhr4a7.py":43:30)
#loc54 = loc("/NHNHOME/WORKSPACE/26msit001_A/jinhyeok/loop_TTT/lact/.cache_inductor_llm/4t/c4t3kpgcrnls25yvvi4fjzbke2s2u3oegsqmztshjuubamkhr4a7.py":43:43)
#loc55 = loc("/NHNHOME/WORKSPACE/26msit001_A/jinhyeok/loop_TTT/lact/.cache_inductor_llm/4t/c4t3kpgcrnls25yvvi4fjzbke2s2u3oegsqmztshjuubamkhr4a7.py":44:24)
#loc56 = loc("/NHNHOME/WORKSPACE/26msit001_A/jinhyeok/loop_TTT/lact/.cache_inductor_llm/4t/c4t3kpgcrnls25yvvi4fjzbke2s2u3oegsqmztshjuubamkhr4a7.py":44:27)
#loc57 = loc("/NHNHOME/WORKSPACE/26msit001_A/jinhyeok/loop_TTT/lact/.cache_inductor_llm/4t/c4t3kpgcrnls25yvvi4fjzbke2s2u3oegsqmztshjuubamkhr4a7.py":45:11)
#loc58 = loc("/NHNHOME/WORKSPACE/26msit001_A/jinhyeok/loop_TTT/lact/.cache_inductor_llm/4t/c4t3kpgcrnls25yvvi4fjzbke2s2u3oegsqmztshjuubamkhr4a7.py":46:18)
#loc59 = loc("/NHNHOME/WORKSPACE/26msit001_A/jinhyeok/loop_TTT/lact/.cache_inductor_llm/4t/c4t3kpgcrnls25yvvi4fjzbke2s2u3oegsqmztshjuubamkhr4a7.py":48:19)
#loc60 = loc("/NHNHOME/WORKSPACE/26msit001_A/jinhyeok/loop_TTT/lact/.cache_inductor_llm/4t/c4t3kpgcrnls25yvvi4fjzbke2s2u3oegsqmztshjuubamkhr4a7.py":49:12)
#loc61 = loc("/NHNHOME/WORKSPACE/26msit001_A/jinhyeok/loop_TTT/lact/.cache_inductor_llm/4t/c4t3kpgcrnls25yvvi4fjzbke2s2u3oegsqmztshjuubamkhr4a7.py":50:20)
#loc62 = loc("/NHNHOME/WORKSPACE/26msit001_A/jinhyeok/loop_TTT/lact/.cache_inductor_llm/4t/c4t3kpgcrnls25yvvi4fjzbke2s2u3oegsqmztshjuubamkhr4a7.py":52:20)
#loc63 = loc("/NHNHOME/WORKSPACE/26msit001_A/jinhyeok/loop_TTT/lact/.cache_inductor_llm/4t/c4t3kpgcrnls25yvvi4fjzbke2s2u3oegsqmztshjuubamkhr4a7.py":53:12)
#loc64 = loc("/NHNHOME/WORKSPACE/26msit001_A/jinhyeok/loop_TTT/lact/.cache_inductor_llm/4t/c4t3kpgcrnls25yvvi4fjzbke2s2u3oegsqmztshjuubamkhr4a7.py":54:20)
#loc65 = loc("/NHNHOME/WORKSPACE/26msit001_A/jinhyeok/loop_TTT/lact/.cache_inductor_llm/4t/c4t3kpgcrnls25yvvi4fjzbke2s2u3oegsqmztshjuubamkhr4a7.py":56:20)
#loc66 = loc("/NHNHOME/WORKSPACE/26msit001_A/jinhyeok/loop_TTT/lact/.cache_inductor_llm/4t/c4t3kpgcrnls25yvvi4fjzbke2s2u3oegsqmztshjuubamkhr4a7.py":57:19)
#loc67 = loc("/NHNHOME/WORKSPACE/26msit001_A/jinhyeok/loop_TTT/lact/.cache_inductor_llm/4t/c4t3kpgcrnls25yvvi4fjzbke2s2u3oegsqmztshjuubamkhr4a7.py":58:20)
#loc68 = loc("/NHNHOME/WORKSPACE/26msit001_A/jinhyeok/loop_TTT/lact/.cache_inductor_llm/4t/c4t3kpgcrnls25yvvi4fjzbke2s2u3oegsqmztshjuubamkhr4a7.py":60:31)
#loc69 = loc("/NHNHOME/WORKSPACE/26msit001_A/jinhyeok/loop_TTT/lact/.cache_inductor_llm/4t/c4t3kpgcrnls25yvvi4fjzbke2s2u3oegsqmztshjuubamkhr4a7.py":60:45)
#loc70 = loc("/NHNHOME/WORKSPACE/26msit001_A/jinhyeok/loop_TTT/lact/.cache_inductor_llm/4t/c4t3kpgcrnls25yvvi4fjzbke2s2u3oegsqmztshjuubamkhr4a7.py":61:26)
#loc71 = loc("/NHNHOME/WORKSPACE/26msit001_A/jinhyeok/loop_TTT/lact/.cache_inductor_llm/4t/c4t3kpgcrnls25yvvi4fjzbke2s2u3oegsqmztshjuubamkhr4a7.py":61:29)
#loc72 = loc("/NHNHOME/WORKSPACE/26msit001_A/jinhyeok/loop_TTT/lact/.cache_inductor_llm/4t/c4t3kpgcrnls25yvvi4fjzbke2s2u3oegsqmztshjuubamkhr4a7.py":62:27)
#loc73 = loc("/NHNHOME/WORKSPACE/26msit001_A/jinhyeok/loop_TTT/lact/.cache_inductor_llm/4t/c4t3kpgcrnls25yvvi4fjzbke2s2u3oegsqmztshjuubamkhr4a7.py":63:12)
#loc74 = loc("/NHNHOME/WORKSPACE/26msit001_A/jinhyeok/loop_TTT/lact/.cache_inductor_llm/4t/c4t3kpgcrnls25yvvi4fjzbke2s2u3oegsqmztshjuubamkhr4a7.py":64:20)
#loc75 = loc("/NHNHOME/WORKSPACE/26msit001_A/jinhyeok/loop_TTT/lact/.cache_inductor_llm/4t/c4t3kpgcrnls25yvvi4fjzbke2s2u3oegsqmztshjuubamkhr4a7.py":65:21)
#loc76 = loc("/NHNHOME/WORKSPACE/26msit001_A/jinhyeok/loop_TTT/lact/.cache_inductor_llm/4t/c4t3kpgcrnls25yvvi4fjzbke2s2u3oegsqmztshjuubamkhr4a7.py":66:27)
#loc77 = loc("/NHNHOME/WORKSPACE/26msit001_A/jinhyeok/loop_TTT/lact/.cache_inductor_llm/4t/c4t3kpgcrnls25yvvi4fjzbke2s2u3oegsqmztshjuubamkhr4a7.py":67:20)
#loc78 = loc("/NHNHOME/WORKSPACE/26msit001_A/jinhyeok/loop_TTT/lact/.cache_inductor_llm/4t/c4t3kpgcrnls25yvvi4fjzbke2s2u3oegsqmztshjuubamkhr4a7.py":69:20)
#loc79 = loc("/NHNHOME/WORKSPACE/26msit001_A/jinhyeok/loop_TTT/lact/.cache_inductor_llm/4t/c4t3kpgcrnls25yvvi4fjzbke2s2u3oegsqmztshjuubamkhr4a7.py":71:20)
#loc80 = loc("/NHNHOME/WORKSPACE/26msit001_A/jinhyeok/loop_TTT/lact/.cache_inductor_llm/4t/c4t3kpgcrnls25yvvi4fjzbke2s2u3oegsqmztshjuubamkhr4a7.py":72:20)
#loc81 = loc("/NHNHOME/WORKSPACE/26msit001_A/jinhyeok/loop_TTT/lact/.cache_inductor_llm/4t/c4t3kpgcrnls25yvvi4fjzbke2s2u3oegsqmztshjuubamkhr4a7.py":73:20)
#loc82 = loc("/NHNHOME/WORKSPACE/26msit001_A/jinhyeok/loop_TTT/lact/.cache_inductor_llm/4t/c4t3kpgcrnls25yvvi4fjzbke2s2u3oegsqmztshjuubamkhr4a7.py":75:31)
#loc83 = loc("/NHNHOME/WORKSPACE/26msit001_A/jinhyeok/loop_TTT/lact/.cache_inductor_llm/4t/c4t3kpgcrnls25yvvi4fjzbke2s2u3oegsqmztshjuubamkhr4a7.py":75:45)
#loc84 = loc("/NHNHOME/WORKSPACE/26msit001_A/jinhyeok/loop_TTT/lact/.cache_inductor_llm/4t/c4t3kpgcrnls25yvvi4fjzbke2s2u3oegsqmztshjuubamkhr4a7.py":76:26)
#loc85 = loc("/NHNHOME/WORKSPACE/26msit001_A/jinhyeok/loop_TTT/lact/.cache_inductor_llm/4t/c4t3kpgcrnls25yvvi4fjzbke2s2u3oegsqmztshjuubamkhr4a7.py":76:29)
#loc86 = loc("/NHNHOME/WORKSPACE/26msit001_A/jinhyeok/loop_TTT/lact/.cache_inductor_llm/4t/c4t3kpgcrnls25yvvi4fjzbke2s2u3oegsqmztshjuubamkhr4a7.py":77:27)
#loc87 = loc("/NHNHOME/WORKSPACE/26msit001_A/jinhyeok/loop_TTT/lact/.cache_inductor_llm/4t/c4t3kpgcrnls25yvvi4fjzbke2s2u3oegsqmztshjuubamkhr4a7.py":78:20)
#loc88 = loc("/NHNHOME/WORKSPACE/26msit001_A/jinhyeok/loop_TTT/lact/.cache_inductor_llm/4t/c4t3kpgcrnls25yvvi4fjzbke2s2u3oegsqmztshjuubamkhr4a7.py":79:21)
#loc89 = loc("/NHNHOME/WORKSPACE/26msit001_A/jinhyeok/loop_TTT/lact/.cache_inductor_llm/4t/c4t3kpgcrnls25yvvi4fjzbke2s2u3oegsqmztshjuubamkhr4a7.py":80:20)
#loc90 = loc("/NHNHOME/WORKSPACE/26msit001_A/jinhyeok/loop_TTT/lact/.cache_inductor_llm/4t/c4t3kpgcrnls25yvvi4fjzbke2s2u3oegsqmztshjuubamkhr4a7.py":82:39)
#loc91 = loc("/NHNHOME/WORKSPACE/26msit001_A/jinhyeok/loop_TTT/lact/.cache_inductor_llm/4t/c4t3kpgcrnls25yvvi4fjzbke2s2u3oegsqmztshjuubamkhr4a7.py":82:35)
#loc92 = loc("/NHNHOME/WORKSPACE/26msit001_A/jinhyeok/loop_TTT/lact/.cache_inductor_llm/4t/c4t3kpgcrnls25yvvi4fjzbke2s2u3oegsqmztshjuubamkhr4a7.py":82:28)
#loc93 = loc("/NHNHOME/WORKSPACE/26msit001_A/jinhyeok/loop_TTT/lact/.cache_inductor_llm/4t/c4t3kpgcrnls25yvvi4fjzbke2s2u3oegsqmztshjuubamkhr4a7.py":82:61)
#loc94 = loc("/NHNHOME/WORKSPACE/26msit001_A/jinhyeok/loop_TTT/lact/.cache_inductor_llm/4t/c4t3kpgcrnls25yvvi4fjzbke2s2u3oegsqmztshjuubamkhr4a7.py":82:51)
#loc95 = loc("/NHNHOME/WORKSPACE/26msit001_A/jinhyeok/loop_TTT/lact/.cache_inductor_llm/4t/c4t3kpgcrnls25yvvi4fjzbke2s2u3oegsqmztshjuubamkhr4a7.py":83:36)
#loc96 = loc("/NHNHOME/WORKSPACE/26msit001_A/jinhyeok/loop_TTT/lact/.cache_inductor_llm/4t/c4t3kpgcrnls25yvvi4fjzbke2s2u3oegsqmztshjuubamkhr4a7.py":83:32)
#loc97 = loc("/NHNHOME/WORKSPACE/26msit001_A/jinhyeok/loop_TTT/lact/.cache_inductor_llm/4t/c4t3kpgcrnls25yvvi4fjzbke2s2u3oegsqmztshjuubamkhr4a7.py":83:25)
#loc98 = loc("/NHNHOME/WORKSPACE/26msit001_A/jinhyeok/loop_TTT/lact/.cache_inductor_llm/4t/c4t3kpgcrnls25yvvi4fjzbke2s2u3oegsqmztshjuubamkhr4a7.py":83:58)
#loc99 = loc("/NHNHOME/WORKSPACE/26msit001_A/jinhyeok/loop_TTT/lact/.cache_inductor_llm/4t/c4t3kpgcrnls25yvvi4fjzbke2s2u3oegsqmztshjuubamkhr4a7.py":83:48)
#loc100 = loc("/NHNHOME/WORKSPACE/26msit001_A/jinhyeok/loop_TTT/lact/.cache_inductor_llm/4t/c4t3kpgcrnls25yvvi4fjzbke2s2u3oegsqmztshjuubamkhr4a7.py":84:36)
#loc101 = loc("/NHNHOME/WORKSPACE/26msit001_A/jinhyeok/loop_TTT/lact/.cache_inductor_llm/4t/c4t3kpgcrnls25yvvi4fjzbke2s2u3oegsqmztshjuubamkhr4a7.py":84:32)
#loc102 = loc("/NHNHOME/WORKSPACE/26msit001_A/jinhyeok/loop_TTT/lact/.cache_inductor_llm/4t/c4t3kpgcrnls25yvvi4fjzbke2s2u3oegsqmztshjuubamkhr4a7.py":84:25)
#loc103 = loc("/NHNHOME/WORKSPACE/26msit001_A/jinhyeok/loop_TTT/lact/.cache_inductor_llm/4t/c4t3kpgcrnls25yvvi4fjzbke2s2u3oegsqmztshjuubamkhr4a7.py":84:58)
#loc104 = loc("/NHNHOME/WORKSPACE/26msit001_A/jinhyeok/loop_TTT/lact/.cache_inductor_llm/4t/c4t3kpgcrnls25yvvi4fjzbke2s2u3oegsqmztshjuubamkhr4a7.py":84:48)
#loc105 = loc("/NHNHOME/WORKSPACE/26msit001_A/jinhyeok/loop_TTT/lact/.cache_inductor_llm/4t/c4t3kpgcrnls25yvvi4fjzbke2s2u3oegsqmztshjuubamkhr4a7.py":85:36)
#loc106 = loc("/NHNHOME/WORKSPACE/26msit001_A/jinhyeok/loop_TTT/lact/.cache_inductor_llm/4t/c4t3kpgcrnls25yvvi4fjzbke2s2u3oegsqmztshjuubamkhr4a7.py":85:32)
#loc107 = loc("/NHNHOME/WORKSPACE/26msit001_A/jinhyeok/loop_TTT/lact/.cache_inductor_llm/4t/c4t3kpgcrnls25yvvi4fjzbke2s2u3oegsqmztshjuubamkhr4a7.py":85:25)
#loc108 = loc("/NHNHOME/WORKSPACE/26msit001_A/jinhyeok/loop_TTT/lact/.cache_inductor_llm/4t/c4t3kpgcrnls25yvvi4fjzbke2s2u3oegsqmztshjuubamkhr4a7.py":85:58)
#loc109 = loc("/NHNHOME/WORKSPACE/26msit001_A/jinhyeok/loop_TTT/lact/.cache_inductor_llm/4t/c4t3kpgcrnls25yvvi4fjzbke2s2u3oegsqmztshjuubamkhr4a7.py":85:48)
#loc110 = loc("/NHNHOME/WORKSPACE/26msit001_A/jinhyeok/loop_TTT/lact/.cache_inductor_llm/4t/c4t3kpgcrnls25yvvi4fjzbke2s2u3oegsqmztshjuubamkhr4a7.py":86:36)
#loc111 = loc("/NHNHOME/WORKSPACE/26msit001_A/jinhyeok/loop_TTT/lact/.cache_inductor_llm/4t/c4t3kpgcrnls25yvvi4fjzbke2s2u3oegsqmztshjuubamkhr4a7.py":86:32)
#loc112 = loc("/NHNHOME/WORKSPACE/26msit001_A/jinhyeok/loop_TTT/lact/.cache_inductor_llm/4t/c4t3kpgcrnls25yvvi4fjzbke2s2u3oegsqmztshjuubamkhr4a7.py":86:25)
#loc113 = loc("/NHNHOME/WORKSPACE/26msit001_A/jinhyeok/loop_TTT/lact/.cache_inductor_llm/4t/c4t3kpgcrnls25yvvi4fjzbke2s2u3oegsqmztshjuubamkhr4a7.py":86:58)
#loc114 = loc("/NHNHOME/WORKSPACE/26msit001_A/jinhyeok/loop_TTT/lact/.cache_inductor_llm/4t/c4t3kpgcrnls25yvvi4fjzbke2s2u3oegsqmztshjuubamkhr4a7.py":86:48)
#loc115 = loc("/NHNHOME/WORKSPACE/26msit001_A/jinhyeok/loop_TTT/lact/.cache_inductor_llm/4t/c4t3kpgcrnls25yvvi4fjzbke2s2u3oegsqmztshjuubamkhr4a7.py":87:25)
#loc116 = loc("/NHNHOME/WORKSPACE/26msit001_A/jinhyeok/loop_TTT/lact/.cache_inductor_llm/4t/c4t3kpgcrnls25yvvi4fjzbke2s2u3oegsqmztshjuubamkhr4a7.py":87:36)
#loc117 = loc("/NHNHOME/WORKSPACE/26msit001_A/jinhyeok/loop_TTT/lact/.cache_inductor_llm/4t/c4t3kpgcrnls25yvvi4fjzbke2s2u3oegsqmztshjuubamkhr4a7.py":87:4)
#loc119 = loc("/NHNHOME/WORKSPACE/26msit001_A/jinhyeok/TTT_camera_embedding/.venv_llm/lib/python3.12/site-packages/triton/language/standard.py":291:36)
#loc121 = loc("/NHNHOME/WORKSPACE/26msit001_A/jinhyeok/TTT_camera_embedding/.venv_llm/lib/python3.12/site-packages/triton/language/standard.py":291:11)
#loc122 = loc("/NHNHOME/WORKSPACE/26msit001_A/jinhyeok/TTT_camera_embedding/.venv_llm/lib/python3.12/site-packages/triton/language/standard.py":291:4)
#loc124 = loc("/NHNHOME/WORKSPACE/26msit001_A/jinhyeok/TTT_camera_embedding/.venv_llm/lib/python3.12/site-packages/triton/language/standard.py":261:15)
#loc125 = loc("/NHNHOME/WORKSPACE/26msit001_A/jinhyeok/TTT_camera_embedding/.venv_llm/lib/python3.12/site-packages/triton/language/standard.py":261:11)
#loc126 = loc("/NHNHOME/WORKSPACE/26msit001_A/jinhyeok/TTT_camera_embedding/.venv_llm/lib/python3.12/site-packages/triton/language/standard.py":261:4)
#loc141 = loc("r0_numel"(#loc1))
#loc142 = loc("xoffset"(#loc2))
#loc143 = loc("xoffset"(#loc3))
#loc144 = loc("xindex"(#loc4))
#loc145 = loc("xindex"(#loc5))
#loc146 = loc("xindex"(#loc6))
#loc147 = loc("xmask"(#loc7))
#loc148 = loc("r0_index"(#loc8))
#loc149 = loc("r0_index"(#loc9))
#loc150 = loc("r0_offset"(#loc10))
#loc151 = loc("r0_mask"(#loc11))
#loc152 = loc("tmp0"(#loc12))
#loc153 = loc("tmp0"(#loc13))
#loc154 = loc("tmp0"(#loc14))
#loc155 = loc("tmp0"(#loc15))
#loc156 = loc("tmp0"(#loc16))
#loc157 = loc("tmp0"(#loc17))
#loc158 = loc("tmp7"(#loc18))
#loc159 = loc("tmp7"(#loc19))
#loc160 = loc("tmp7"(#loc20))
#loc161 = loc("tmp7"(#loc21))
#loc162 = loc("tmp7"(#loc22))
#loc163 = loc("tmp10"(#loc23))
#loc164 = loc("tmp10"(#loc24))
#loc165 = loc("tmp10"(#loc25))
#loc166 = loc("tmp10"(#loc26))
#loc167 = loc("tmp10"(#loc27))
#loc168 = loc("tmp10"(#loc28))
#loc169 = loc("tmp15"(#loc29))
#loc170 = loc("tmp15"(#loc30))
#loc171 = loc("tmp15"(#loc31))
#loc172 = loc("tmp15"(#loc32))
#loc173 = loc("tmp15"(#loc33))
#loc174 = loc("tmp15"(#loc34))
#loc175 = loc("tmp20"(#loc35))
#loc176 = loc("tmp20"(#loc36))
#loc177 = loc("tmp20"(#loc37))
#loc178 = loc("tmp20"(#loc38))
#loc179 = loc("tmp20"(#loc39))
#loc180 = loc("tmp20"(#loc40))
#loc181 = loc("tmp36"(#loc41))
#loc182 = loc("tmp36"(#loc42))
#loc183 = loc("tmp36"(#loc43))
#loc184 = loc("tmp36"(#loc44))
#loc185 = loc("tmp36"(#loc45))
#loc186 = loc("tmp38"(#loc46))
#loc187 = loc("tmp38"(#loc47))
#loc188 = loc("tmp38"(#loc48))
#loc189 = loc("tmp38"(#loc49))
#loc190 = loc("tmp38"(#loc50))
#loc191 = loc("tmp38"(#loc51))
#loc192 = loc("tmp2"(#loc52))
#loc193 = loc("tmp5"(#loc53))
#loc194 = loc("tmp5"(#loc54))
#loc195 = loc("tmp6"(#loc55))
#loc196 = loc("tmp6"(#loc56))
#loc197 = loc("tmp8"(#loc57))
#loc198 = loc("tmp9"(#loc58))
#loc199 = loc("tmp12"(#loc59))
#loc200 = loc("tmp13"(#loc60))
#loc201 = loc("tmp14"(#loc61))
#loc202 = loc("tmp17"(#loc62))
#loc203 = loc("tmp18"(#loc63))
#loc204 = loc("tmp19"(#loc64))
#loc205 = loc("tmp22"(#loc65))
#loc206 = loc("tmp23"(#loc66))
#loc207 = loc("tmp24"(#loc67))
#loc208 = loc("tmp27"(#loc68))
#loc209 = loc("tmp27"(#loc69))
#loc210 = loc("tmp28"(#loc70))
#loc211 = loc("tmp28"(#loc71))
#loc212 = loc("tmp29"(#loc72))
#loc213 = loc("tmp30"(#loc73))
#loc214 = loc("tmp31"(#loc74))
#loc215 = loc("tmp32"(#loc75))
#loc216 = loc("tmp33"(#loc76))
#loc217 = loc("tmp34"(#loc77))
#loc218 = loc("tmp37"(#loc78))
#loc219 = loc("tmp40"(#loc79))
#loc220 = loc("tmp41"(#loc80))
#loc221 = loc("tmp42"(#loc81))
#loc222 = loc("tmp45"(#loc82))
#loc223 = loc("tmp45"(#loc83))
#loc224 = loc("tmp46"(#loc84))
#loc225 = loc("tmp46"(#loc85))
#loc226 = loc("tmp47"(#loc86))
#loc227 = loc("tmp48"(#loc87))
#loc228 = loc("tmp49"(#loc88))
#loc229 = loc("tmp50"(#loc89))
