#loc = loc("/NHNHOME/WORKSPACE/26msit001_A/jinhyeok/TTT_camera_embedding/lact_llm/.cache_inductor/kd/ckd62c6ifnc437t5elenbxxrqa3sd2nqpji2exkbxtp2np53wf5q.py":18:0)
#loc29 = loc("in_ptr0"(#loc))
#loc30 = loc("in_ptr1"(#loc))
#loc31 = loc("in_ptr2"(#loc))
#loc32 = loc("out_ptr0"(#loc))
#loc33 = loc("out_ptr1"(#loc))
#loc34 = loc("out_ptr2"(#loc))
#loc35 = loc("xnumel"(#loc))
module {
  tt.func public @triton_poi_fused__to_copy_add_div_linalg_vector_norm_mul_transpose_5(%in_ptr0: !tt.ptr<f32> {tt.divisibility = 16 : i32} loc("in_ptr0"(#loc)), %in_ptr1: !tt.ptr<f32> {tt.divisibility = 16 : i32} loc("in_ptr1"(#loc)), %in_ptr2: !tt.ptr<bf16> {tt.divisibility = 16 : i32} loc("in_ptr2"(#loc)), %out_ptr0: !tt.ptr<bf16> {tt.divisibility = 16 : i32} loc("out_ptr0"(#loc)), %out_ptr1: !tt.ptr<bf16> {tt.divisibility = 16 : i32} loc("out_ptr1"(#loc)), %out_ptr2: !tt.ptr<bf16> {tt.divisibility = 16 : i32} loc("out_ptr2"(#loc)), %xnumel: i32 {tt.divisibility = 16 : i32} loc("xnumel"(#loc))) attributes {noinline = false} {
    %xnumel_0 = arith.constant 1179648 : i32 loc(#loc36)
    %xoffset = tt.get_program_id x : i32 loc(#loc37)
    %xoffset_1 = arith.constant 1024 : i32 loc(#loc38)
    %xoffset_2 = arith.constant 1024 : i32 loc(#loc38)
    %xoffset_3 = arith.muli %xoffset, %xoffset_2 : i32 loc(#loc38)
    %xindex = tt.make_range {end = 1024 : i32, start = 0 : i32} : tensor<1024xi32> loc(#loc39)
    %xindex_4 = tt.splat %xoffset_3 : i32 -> tensor<1024xi32> loc(#loc40)
    %xindex_5 = arith.addi %xindex_4, %xindex : tensor<1024xi32> loc(#loc40)
    %xmask = arith.constant true loc(#loc41)
    %xmask_6 = arith.constant dense<true> : tensor<1024xi1> loc(#loc41)
    %x1 = arith.constant 36864 : i32 loc(#loc42)
    %x1_7 = arith.constant 36864 : i32 loc(#loc42)
    %x1_8 = arith.constant dense<36864> : tensor<1024xi32> loc(#loc42)
    %x1_9 = arith.divsi %xindex_5, %x1_8 : tensor<1024xi32> loc(#loc42)
    %tmp0 = tt.splat %in_ptr0 : !tt.ptr<f32> -> tensor<1024x!tt.ptr<f32>> loc(#loc43)
    %tmp0_10 = tt.addptr %tmp0, %xindex_5 : tensor<1024x!tt.ptr<f32>>, tensor<1024xi32> loc(#loc43)
    %tmp0_11 = tt.load %tmp0_10 : tensor<1024x!tt.ptr<f32>> loc(#loc44)
    %tmp3 = tt.splat %in_ptr1 : !tt.ptr<f32> -> tensor<1024x!tt.ptr<f32>> loc(#loc45)
    %tmp3_12 = tt.addptr %tmp3, %x1_9 : tensor<1024x!tt.ptr<f32>>, tensor<1024xi32> loc(#loc45)
    %tmp3_13 = tt.load %tmp3_12 evictionPolicy = evict_last : tensor<1024x!tt.ptr<f32>> loc(#loc46)
    %tmp10 = tt.splat %in_ptr2 : !tt.ptr<bf16> -> tensor<1024x!tt.ptr<bf16>> loc(#loc47)
    %tmp10_14 = tt.addptr %tmp10, %xindex_5 : tensor<1024x!tt.ptr<bf16>>, tensor<1024xi32> loc(#loc47)
    %tmp10_15 = tt.load %tmp10_14 : tensor<1024x!tt.ptr<bf16>> loc(#loc48)
    %tmp10_16 = arith.extf %tmp10_15 : tensor<1024xbf16> to tensor<1024xf32> loc(#loc49)
    %tmp4 = tt.extern_elementwise %tmp3_13 {libname = "", libpath = "", pure = true, symbol = "__nv_sqrtf"} : (tensor<1024xf32>) -> tensor<1024xf32> loc(#loc50)
    %tmp5 = arith.constant 1.000000e-07 : f32 loc(#loc51)
    %tmp6 = arith.constant dense<1.000000e-07> : tensor<1024xf32> loc(#loc52)
    %tmp6_17 = arith.addf %tmp4, %tmp6 : tensor<1024xf32> loc(#loc52)
    %tmp7 = arith.divf %tmp0_11, %tmp6_17 : tensor<1024xf32> loc(#loc53)
    %tmp8 = arith.constant 4.084800e+00 : f32 loc(#loc54)
    %tmp9 = arith.constant dense<4.084800e+00> : tensor<1024xf32> loc(#loc55)
    %tmp9_18 = arith.mulf %tmp7, %tmp9 : tensor<1024xf32> loc(#loc55)
    %tmp12 = arith.addf %tmp9_18, %tmp10_16 : tensor<1024xf32> loc(#loc56)
    %0 = tt.splat %out_ptr0 : !tt.ptr<bf16> -> tensor<1024x!tt.ptr<bf16>> loc(#loc22)
    %1 = tt.addptr %0, %xindex_5 : tensor<1024x!tt.ptr<bf16>>, tensor<1024xi32> loc(#loc22)
    %2 = arith.truncf %tmp12 : tensor<1024xf32> to tensor<1024xbf16> loc(#loc23)
    tt.store %1, %2 : tensor<1024x!tt.ptr<bf16>> loc(#loc23)
    %3 = tt.splat %out_ptr1 : !tt.ptr<bf16> -> tensor<1024x!tt.ptr<bf16>> loc(#loc24)
    %4 = tt.addptr %3, %xindex_5 : tensor<1024x!tt.ptr<bf16>>, tensor<1024xi32> loc(#loc24)
    %5 = arith.truncf %tmp12 : tensor<1024xf32> to tensor<1024xbf16> loc(#loc25)
    tt.store %4, %5 : tensor<1024x!tt.ptr<bf16>> loc(#loc25)
    %6 = tt.splat %out_ptr2 : !tt.ptr<bf16> -> tensor<1024x!tt.ptr<bf16>> loc(#loc26)
    %7 = tt.addptr %6, %xindex_5 : tensor<1024x!tt.ptr<bf16>>, tensor<1024xi32> loc(#loc26)
    %8 = arith.truncf %tmp12 : tensor<1024xf32> to tensor<1024xbf16> loc(#loc27)
    tt.store %7, %8 : tensor<1024x!tt.ptr<bf16>> loc(#loc27)
    tt.return loc(#loc28)
  } loc(#loc)
} loc(#loc)
#loc1 = loc("/NHNHOME/WORKSPACE/26msit001_A/jinhyeok/TTT_camera_embedding/lact_llm/.cache_inductor/kd/ckd62c6ifnc437t5elenbxxrqa3sd2nqpji2exkbxtp2np53wf5q.py":19:13)
#loc2 = loc("/NHNHOME/WORKSPACE/26msit001_A/jinhyeok/TTT_camera_embedding/lact_llm/.cache_inductor/kd/ckd62c6ifnc437t5elenbxxrqa3sd2nqpji2exkbxtp2np53wf5q.py":20:28)
#loc3 = loc("/NHNHOME/WORKSPACE/26msit001_A/jinhyeok/TTT_camera_embedding/lact_llm/.cache_inductor/kd/ckd62c6ifnc437t5elenbxxrqa3sd2nqpji2exkbxtp2np53wf5q.py":20:33)
#loc4 = loc("/NHNHOME/WORKSPACE/26msit001_A/jinhyeok/TTT_camera_embedding/lact_llm/.cache_inductor/kd/ckd62c6ifnc437t5elenbxxrqa3sd2nqpji2exkbxtp2np53wf5q.py":21:36)
#loc5 = loc("/NHNHOME/WORKSPACE/26msit001_A/jinhyeok/TTT_camera_embedding/lact_llm/.cache_inductor/kd/ckd62c6ifnc437t5elenbxxrqa3sd2nqpji2exkbxtp2np53wf5q.py":21:23)
#loc6 = loc("/NHNHOME/WORKSPACE/26msit001_A/jinhyeok/TTT_camera_embedding/lact_llm/.cache_inductor/kd/ckd62c6ifnc437t5elenbxxrqa3sd2nqpji2exkbxtp2np53wf5q.py":22:36)
#loc7 = loc("/NHNHOME/WORKSPACE/26msit001_A/jinhyeok/TTT_camera_embedding/lact_llm/.cache_inductor/kd/ckd62c6ifnc437t5elenbxxrqa3sd2nqpji2exkbxtp2np53wf5q.py":24:19)
#loc8 = loc("/NHNHOME/WORKSPACE/26msit001_A/jinhyeok/TTT_camera_embedding/lact_llm/.cache_inductor/kd/ckd62c6ifnc437t5elenbxxrqa3sd2nqpji2exkbxtp2np53wf5q.py":25:30)
#loc9 = loc("/NHNHOME/WORKSPACE/26msit001_A/jinhyeok/TTT_camera_embedding/lact_llm/.cache_inductor/kd/ckd62c6ifnc437t5elenbxxrqa3sd2nqpji2exkbxtp2np53wf5q.py":25:35)
#loc10 = loc("/NHNHOME/WORKSPACE/26msit001_A/jinhyeok/TTT_camera_embedding/lact_llm/.cache_inductor/kd/ckd62c6ifnc437t5elenbxxrqa3sd2nqpji2exkbxtp2np53wf5q.py":26:30)
#loc11 = loc("/NHNHOME/WORKSPACE/26msit001_A/jinhyeok/TTT_camera_embedding/lact_llm/.cache_inductor/kd/ckd62c6ifnc437t5elenbxxrqa3sd2nqpji2exkbxtp2np53wf5q.py":26:35)
#loc12 = loc("/NHNHOME/WORKSPACE/26msit001_A/jinhyeok/TTT_camera_embedding/lact_llm/.cache_inductor/kd/ckd62c6ifnc437t5elenbxxrqa3sd2nqpji2exkbxtp2np53wf5q.py":27:31)
#loc13 = loc("/NHNHOME/WORKSPACE/26msit001_A/jinhyeok/TTT_camera_embedding/lact_llm/.cache_inductor/kd/ckd62c6ifnc437t5elenbxxrqa3sd2nqpji2exkbxtp2np53wf5q.py":27:36)
#loc14 = loc("/NHNHOME/WORKSPACE/26msit001_A/jinhyeok/TTT_camera_embedding/lact_llm/.cache_inductor/kd/ckd62c6ifnc437t5elenbxxrqa3sd2nqpji2exkbxtp2np53wf5q.py":27:45)
#loc15 = loc("/NHNHOME/WORKSPACE/26msit001_A/jinhyeok/TTT_camera_embedding/lact_llm/.cache_inductor/kd/ckd62c6ifnc437t5elenbxxrqa3sd2nqpji2exkbxtp2np53wf5q.py":30:26)
#loc16 = loc("/NHNHOME/WORKSPACE/26msit001_A/jinhyeok/TTT_camera_embedding/lact_llm/.cache_inductor/kd/ckd62c6ifnc437t5elenbxxrqa3sd2nqpji2exkbxtp2np53wf5q.py":31:11)
#loc17 = loc("/NHNHOME/WORKSPACE/26msit001_A/jinhyeok/TTT_camera_embedding/lact_llm/.cache_inductor/kd/ckd62c6ifnc437t5elenbxxrqa3sd2nqpji2exkbxtp2np53wf5q.py":32:18)
#loc18 = loc("/NHNHOME/WORKSPACE/26msit001_A/jinhyeok/TTT_camera_embedding/lact_llm/.cache_inductor/kd/ckd62c6ifnc437t5elenbxxrqa3sd2nqpji2exkbxtp2np53wf5q.py":33:19)
#loc19 = loc("/NHNHOME/WORKSPACE/26msit001_A/jinhyeok/TTT_camera_embedding/lact_llm/.cache_inductor/kd/ckd62c6ifnc437t5elenbxxrqa3sd2nqpji2exkbxtp2np53wf5q.py":34:11)
#loc20 = loc("/NHNHOME/WORKSPACE/26msit001_A/jinhyeok/TTT_camera_embedding/lact_llm/.cache_inductor/kd/ckd62c6ifnc437t5elenbxxrqa3sd2nqpji2exkbxtp2np53wf5q.py":35:18)
#loc21 = loc("/NHNHOME/WORKSPACE/26msit001_A/jinhyeok/TTT_camera_embedding/lact_llm/.cache_inductor/kd/ckd62c6ifnc437t5elenbxxrqa3sd2nqpji2exkbxtp2np53wf5q.py":37:19)
#loc22 = loc("/NHNHOME/WORKSPACE/26msit001_A/jinhyeok/TTT_camera_embedding/lact_llm/.cache_inductor/kd/ckd62c6ifnc437t5elenbxxrqa3sd2nqpji2exkbxtp2np53wf5q.py":39:25)
#loc23 = loc("/NHNHOME/WORKSPACE/26msit001_A/jinhyeok/TTT_camera_embedding/lact_llm/.cache_inductor/kd/ckd62c6ifnc437t5elenbxxrqa3sd2nqpji2exkbxtp2np53wf5q.py":39:37)
#loc24 = loc("/NHNHOME/WORKSPACE/26msit001_A/jinhyeok/TTT_camera_embedding/lact_llm/.cache_inductor/kd/ckd62c6ifnc437t5elenbxxrqa3sd2nqpji2exkbxtp2np53wf5q.py":40:25)
#loc25 = loc("/NHNHOME/WORKSPACE/26msit001_A/jinhyeok/TTT_camera_embedding/lact_llm/.cache_inductor/kd/ckd62c6ifnc437t5elenbxxrqa3sd2nqpji2exkbxtp2np53wf5q.py":40:37)
#loc26 = loc("/NHNHOME/WORKSPACE/26msit001_A/jinhyeok/TTT_camera_embedding/lact_llm/.cache_inductor/kd/ckd62c6ifnc437t5elenbxxrqa3sd2nqpji2exkbxtp2np53wf5q.py":41:25)
#loc27 = loc("/NHNHOME/WORKSPACE/26msit001_A/jinhyeok/TTT_camera_embedding/lact_llm/.cache_inductor/kd/ckd62c6ifnc437t5elenbxxrqa3sd2nqpji2exkbxtp2np53wf5q.py":41:37)
#loc28 = loc("/NHNHOME/WORKSPACE/26msit001_A/jinhyeok/TTT_camera_embedding/lact_llm/.cache_inductor/kd/ckd62c6ifnc437t5elenbxxrqa3sd2nqpji2exkbxtp2np53wf5q.py":41:4)
#loc36 = loc("xnumel"(#loc1))
#loc37 = loc("xoffset"(#loc2))
#loc38 = loc("xoffset"(#loc3))
#loc39 = loc("xindex"(#loc4))
#loc40 = loc("xindex"(#loc5))
#loc41 = loc("xmask"(#loc6))
#loc42 = loc("x1"(#loc7))
#loc43 = loc("tmp0"(#loc8))
#loc44 = loc("tmp0"(#loc9))
#loc45 = loc("tmp3"(#loc10))
#loc46 = loc("tmp3"(#loc11))
#loc47 = loc("tmp10"(#loc12))
#loc48 = loc("tmp10"(#loc13))
#loc49 = loc("tmp10"(#loc14))
#loc50 = loc("tmp4"(#loc15))
#loc51 = loc("tmp5"(#loc16))
#loc52 = loc("tmp6"(#loc17))
#loc53 = loc("tmp7"(#loc18))
#loc54 = loc("tmp8"(#loc19))
#loc55 = loc("tmp9"(#loc20))
#loc56 = loc("tmp12"(#loc21))
