#loc = loc("/NHNHOME/WORKSPACE/26msit001_A/jinhyeok/loop_TTT/lact/.cache_inductor_llm/yq/cyq6a5t4gdusbm456cx5oog2ai7iqiezsfrdhxyytbc2ffd4yhqi.py":18:0)
#loc33 = loc("in_ptr0"(#loc))
#loc34 = loc("in_ptr1"(#loc))
#loc35 = loc("in_ptr2"(#loc))
#loc36 = loc("in_ptr3"(#loc))
#loc37 = loc("out_ptr0"(#loc))
#loc38 = loc("out_ptr1"(#loc))
#loc39 = loc("xnumel"(#loc))
module {
  tt.func public @triton_poi_fused__to_copy_add_div_mul_transpose_26(%in_ptr0: !tt.ptr<bf16> {tt.divisibility = 16 : i32} loc("in_ptr0"(#loc)), %in_ptr1: !tt.ptr<f32> {tt.divisibility = 16 : i32} loc("in_ptr1"(#loc)), %in_ptr2: !tt.ptr<bf16> {tt.divisibility = 16 : i32} loc("in_ptr2"(#loc)), %in_ptr3: !tt.ptr<bf16> {tt.divisibility = 16 : i32} loc("in_ptr3"(#loc)), %out_ptr0: !tt.ptr<bf16> {tt.divisibility = 16 : i32} loc("out_ptr0"(#loc)), %out_ptr1: !tt.ptr<bf16> {tt.divisibility = 16 : i32} loc("out_ptr1"(#loc)), %xnumel: i32 {tt.divisibility = 16 : i32} loc("xnumel"(#loc))) attributes {noinline = false} {
    %xnumel_0 = arith.constant 294912 : i32 loc(#loc40)
    %xoffset = tt.get_program_id x : i32 loc(#loc41)
    %xoffset_1 = arith.constant 1024 : i32 loc(#loc42)
    %xoffset_2 = arith.constant 1024 : i32 loc(#loc42)
    %xoffset_3 = arith.muli %xoffset, %xoffset_2 : i32 loc(#loc42)
    %xindex = tt.make_range {end = 1024 : i32, start = 0 : i32} : tensor<1024xi32> loc(#loc43)
    %xindex_4 = tt.splat %xoffset_3 : i32 -> tensor<1024xi32> loc(#loc44)
    %xindex_5 = arith.addi %xindex_4, %xindex : tensor<1024xi32> loc(#loc44)
    %xmask = arith.constant true loc(#loc45)
    %xmask_6 = arith.constant dense<true> : tensor<1024xi1> loc(#loc45)
    %x1 = arith.constant 36864 : i32 loc(#loc46)
    %x1_7 = arith.constant 36864 : i32 loc(#loc46)
    %x1_8 = arith.constant dense<36864> : tensor<1024xi32> loc(#loc46)
    %x1_9 = arith.divsi %xindex_5, %x1_8 : tensor<1024xi32> loc(#loc46)
    %tmp0 = tt.splat %in_ptr0 : !tt.ptr<bf16> -> tensor<1024x!tt.ptr<bf16>> loc(#loc47)
    %tmp0_10 = tt.addptr %tmp0, %xindex_5 : tensor<1024x!tt.ptr<bf16>>, tensor<1024xi32> loc(#loc47)
    %tmp0_11 = tt.load %tmp0_10 : tensor<1024x!tt.ptr<bf16>> loc(#loc48)
    %tmp0_12 = arith.extf %tmp0_11 : tensor<1024xbf16> to tensor<1024xf32> loc(#loc49)
    %tmp2 = tt.splat %in_ptr1 : !tt.ptr<f32> -> tensor<1024x!tt.ptr<f32>> loc(#loc50)
    %tmp2_13 = tt.addptr %tmp2, %x1_9 : tensor<1024x!tt.ptr<f32>>, tensor<1024xi32> loc(#loc50)
    %tmp2_14 = tt.load %tmp2_13 evictionPolicy = evict_last : tensor<1024x!tt.ptr<f32>> loc(#loc51)
    %tmp8 = tt.splat %in_ptr2 : !tt.ptr<bf16> -> tensor<1024x!tt.ptr<bf16>> loc(#loc52)
    %tmp8_15 = tt.addptr %tmp8, %xindex_5 : tensor<1024x!tt.ptr<bf16>>, tensor<1024xi32> loc(#loc52)
    %tmp8_16 = tt.load %tmp8_15 : tensor<1024x!tt.ptr<bf16>> loc(#loc53)
    %tmp8_17 = arith.extf %tmp8_16 : tensor<1024xbf16> to tensor<1024xf32> loc(#loc54)
    %tmp13 = tt.splat %in_ptr3 : !tt.ptr<bf16> -> tensor<1024x!tt.ptr<bf16>> loc(#loc55)
    %tmp13_18 = tt.addptr %tmp13, %xindex_5 : tensor<1024x!tt.ptr<bf16>>, tensor<1024xi32> loc(#loc55)
    %tmp13_19 = tt.load %tmp13_18 : tensor<1024x!tt.ptr<bf16>> loc(#loc56)
    %tmp13_20 = arith.extf %tmp13_19 : tensor<1024xbf16> to tensor<1024xf32> loc(#loc57)
    %tmp3 = arith.constant 1.000000e-07 : f32 loc(#loc58)
    %tmp4 = arith.constant dense<1.000000e-07> : tensor<1024xf32> loc(#loc59)
    %tmp4_21 = arith.addf %tmp2_14, %tmp4 : tensor<1024xf32> loc(#loc59)
    %tmp5 = arith.divf %tmp0_12, %tmp4_21 : tensor<1024xf32> loc(#loc60)
    %tmp6 = arith.constant 4.084800e+00 : f32 loc(#loc61)
    %tmp7 = arith.constant dense<4.084800e+00> : tensor<1024xf32> loc(#loc62)
    %tmp7_22 = arith.mulf %tmp5, %tmp7 : tensor<1024xf32> loc(#loc62)
    %tmp10 = arith.addf %tmp7_22, %tmp8_17 : tensor<1024xf32> loc(#loc63)
    %tmp11 = arith.constant 3.950500e+00 : f32 loc(#loc64)
    %tmp12 = arith.constant dense<3.950500e+00> : tensor<1024xf32> loc(#loc65)
    %tmp12_23 = arith.mulf %tmp10, %tmp12 : tensor<1024xf32> loc(#loc65)
    %tmp15 = arith.addf %tmp12_23, %tmp13_20 : tensor<1024xf32> loc(#loc66)
    %0 = tt.splat %out_ptr0 : !tt.ptr<bf16> -> tensor<1024x!tt.ptr<bf16>> loc(#loc28)
    %1 = tt.addptr %0, %xindex_5 : tensor<1024x!tt.ptr<bf16>>, tensor<1024xi32> loc(#loc28)
    %2 = arith.truncf %tmp15 : tensor<1024xf32> to tensor<1024xbf16> loc(#loc29)
    tt.store %1, %2 : tensor<1024x!tt.ptr<bf16>> loc(#loc29)
    %3 = tt.splat %out_ptr1 : !tt.ptr<bf16> -> tensor<1024x!tt.ptr<bf16>> loc(#loc30)
    %4 = tt.addptr %3, %xindex_5 : tensor<1024x!tt.ptr<bf16>>, tensor<1024xi32> loc(#loc30)
    %5 = arith.truncf %tmp15 : tensor<1024xf32> to tensor<1024xbf16> loc(#loc31)
    tt.store %4, %5 : tensor<1024x!tt.ptr<bf16>> loc(#loc31)
    tt.return loc(#loc32)
  } loc(#loc)
} loc(#loc)
#loc1 = loc("/NHNHOME/WORKSPACE/26msit001_A/jinhyeok/loop_TTT/lact/.cache_inductor_llm/yq/cyq6a5t4gdusbm456cx5oog2ai7iqiezsfrdhxyytbc2ffd4yhqi.py":19:13)
#loc2 = loc("/NHNHOME/WORKSPACE/26msit001_A/jinhyeok/loop_TTT/lact/.cache_inductor_llm/yq/cyq6a5t4gdusbm456cx5oog2ai7iqiezsfrdhxyytbc2ffd4yhqi.py":20:28)
#loc3 = loc("/NHNHOME/WORKSPACE/26msit001_A/jinhyeok/loop_TTT/lact/.cache_inductor_llm/yq/cyq6a5t4gdusbm456cx5oog2ai7iqiezsfrdhxyytbc2ffd4yhqi.py":20:33)
#loc4 = loc("/NHNHOME/WORKSPACE/26msit001_A/jinhyeok/loop_TTT/lact/.cache_inductor_llm/yq/cyq6a5t4gdusbm456cx5oog2ai7iqiezsfrdhxyytbc2ffd4yhqi.py":21:36)
#loc5 = loc("/NHNHOME/WORKSPACE/26msit001_A/jinhyeok/loop_TTT/lact/.cache_inductor_llm/yq/cyq6a5t4gdusbm456cx5oog2ai7iqiezsfrdhxyytbc2ffd4yhqi.py":21:23)
#loc6 = loc("/NHNHOME/WORKSPACE/26msit001_A/jinhyeok/loop_TTT/lact/.cache_inductor_llm/yq/cyq6a5t4gdusbm456cx5oog2ai7iqiezsfrdhxyytbc2ffd4yhqi.py":22:36)
#loc7 = loc("/NHNHOME/WORKSPACE/26msit001_A/jinhyeok/loop_TTT/lact/.cache_inductor_llm/yq/cyq6a5t4gdusbm456cx5oog2ai7iqiezsfrdhxyytbc2ffd4yhqi.py":24:19)
#loc8 = loc("/NHNHOME/WORKSPACE/26msit001_A/jinhyeok/loop_TTT/lact/.cache_inductor_llm/yq/cyq6a5t4gdusbm456cx5oog2ai7iqiezsfrdhxyytbc2ffd4yhqi.py":25:30)
#loc9 = loc("/NHNHOME/WORKSPACE/26msit001_A/jinhyeok/loop_TTT/lact/.cache_inductor_llm/yq/cyq6a5t4gdusbm456cx5oog2ai7iqiezsfrdhxyytbc2ffd4yhqi.py":25:35)
#loc10 = loc("/NHNHOME/WORKSPACE/26msit001_A/jinhyeok/loop_TTT/lact/.cache_inductor_llm/yq/cyq6a5t4gdusbm456cx5oog2ai7iqiezsfrdhxyytbc2ffd4yhqi.py":25:44)
#loc11 = loc("/NHNHOME/WORKSPACE/26msit001_A/jinhyeok/loop_TTT/lact/.cache_inductor_llm/yq/cyq6a5t4gdusbm456cx5oog2ai7iqiezsfrdhxyytbc2ffd4yhqi.py":26:30)
#loc12 = loc("/NHNHOME/WORKSPACE/26msit001_A/jinhyeok/loop_TTT/lact/.cache_inductor_llm/yq/cyq6a5t4gdusbm456cx5oog2ai7iqiezsfrdhxyytbc2ffd4yhqi.py":26:35)
#loc13 = loc("/NHNHOME/WORKSPACE/26msit001_A/jinhyeok/loop_TTT/lact/.cache_inductor_llm/yq/cyq6a5t4gdusbm456cx5oog2ai7iqiezsfrdhxyytbc2ffd4yhqi.py":27:30)
#loc14 = loc("/NHNHOME/WORKSPACE/26msit001_A/jinhyeok/loop_TTT/lact/.cache_inductor_llm/yq/cyq6a5t4gdusbm456cx5oog2ai7iqiezsfrdhxyytbc2ffd4yhqi.py":27:35)
#loc15 = loc("/NHNHOME/WORKSPACE/26msit001_A/jinhyeok/loop_TTT/lact/.cache_inductor_llm/yq/cyq6a5t4gdusbm456cx5oog2ai7iqiezsfrdhxyytbc2ffd4yhqi.py":27:44)
#loc16 = loc("/NHNHOME/WORKSPACE/26msit001_A/jinhyeok/loop_TTT/lact/.cache_inductor_llm/yq/cyq6a5t4gdusbm456cx5oog2ai7iqiezsfrdhxyytbc2ffd4yhqi.py":28:31)
#loc17 = loc("/NHNHOME/WORKSPACE/26msit001_A/jinhyeok/loop_TTT/lact/.cache_inductor_llm/yq/cyq6a5t4gdusbm456cx5oog2ai7iqiezsfrdhxyytbc2ffd4yhqi.py":28:36)
#loc18 = loc("/NHNHOME/WORKSPACE/26msit001_A/jinhyeok/loop_TTT/lact/.cache_inductor_llm/yq/cyq6a5t4gdusbm456cx5oog2ai7iqiezsfrdhxyytbc2ffd4yhqi.py":28:45)
#loc19 = loc("/NHNHOME/WORKSPACE/26msit001_A/jinhyeok/loop_TTT/lact/.cache_inductor_llm/yq/cyq6a5t4gdusbm456cx5oog2ai7iqiezsfrdhxyytbc2ffd4yhqi.py":30:11)
#loc20 = loc("/NHNHOME/WORKSPACE/26msit001_A/jinhyeok/loop_TTT/lact/.cache_inductor_llm/yq/cyq6a5t4gdusbm456cx5oog2ai7iqiezsfrdhxyytbc2ffd4yhqi.py":31:18)
#loc21 = loc("/NHNHOME/WORKSPACE/26msit001_A/jinhyeok/loop_TTT/lact/.cache_inductor_llm/yq/cyq6a5t4gdusbm456cx5oog2ai7iqiezsfrdhxyytbc2ffd4yhqi.py":32:19)
#loc22 = loc("/NHNHOME/WORKSPACE/26msit001_A/jinhyeok/loop_TTT/lact/.cache_inductor_llm/yq/cyq6a5t4gdusbm456cx5oog2ai7iqiezsfrdhxyytbc2ffd4yhqi.py":33:11)
#loc23 = loc("/NHNHOME/WORKSPACE/26msit001_A/jinhyeok/loop_TTT/lact/.cache_inductor_llm/yq/cyq6a5t4gdusbm456cx5oog2ai7iqiezsfrdhxyytbc2ffd4yhqi.py":34:18)
#loc24 = loc("/NHNHOME/WORKSPACE/26msit001_A/jinhyeok/loop_TTT/lact/.cache_inductor_llm/yq/cyq6a5t4gdusbm456cx5oog2ai7iqiezsfrdhxyytbc2ffd4yhqi.py":36:19)
#loc25 = loc("/NHNHOME/WORKSPACE/26msit001_A/jinhyeok/loop_TTT/lact/.cache_inductor_llm/yq/cyq6a5t4gdusbm456cx5oog2ai7iqiezsfrdhxyytbc2ffd4yhqi.py":37:12)
#loc26 = loc("/NHNHOME/WORKSPACE/26msit001_A/jinhyeok/loop_TTT/lact/.cache_inductor_llm/yq/cyq6a5t4gdusbm456cx5oog2ai7iqiezsfrdhxyytbc2ffd4yhqi.py":38:20)
#loc27 = loc("/NHNHOME/WORKSPACE/26msit001_A/jinhyeok/loop_TTT/lact/.cache_inductor_llm/yq/cyq6a5t4gdusbm456cx5oog2ai7iqiezsfrdhxyytbc2ffd4yhqi.py":40:20)
#loc28 = loc("/NHNHOME/WORKSPACE/26msit001_A/jinhyeok/loop_TTT/lact/.cache_inductor_llm/yq/cyq6a5t4gdusbm456cx5oog2ai7iqiezsfrdhxyytbc2ffd4yhqi.py":42:25)
#loc29 = loc("/NHNHOME/WORKSPACE/26msit001_A/jinhyeok/loop_TTT/lact/.cache_inductor_llm/yq/cyq6a5t4gdusbm456cx5oog2ai7iqiezsfrdhxyytbc2ffd4yhqi.py":42:37)
#loc30 = loc("/NHNHOME/WORKSPACE/26msit001_A/jinhyeok/loop_TTT/lact/.cache_inductor_llm/yq/cyq6a5t4gdusbm456cx5oog2ai7iqiezsfrdhxyytbc2ffd4yhqi.py":43:25)
#loc31 = loc("/NHNHOME/WORKSPACE/26msit001_A/jinhyeok/loop_TTT/lact/.cache_inductor_llm/yq/cyq6a5t4gdusbm456cx5oog2ai7iqiezsfrdhxyytbc2ffd4yhqi.py":43:37)
#loc32 = loc("/NHNHOME/WORKSPACE/26msit001_A/jinhyeok/loop_TTT/lact/.cache_inductor_llm/yq/cyq6a5t4gdusbm456cx5oog2ai7iqiezsfrdhxyytbc2ffd4yhqi.py":43:4)
#loc40 = loc("xnumel"(#loc1))
#loc41 = loc("xoffset"(#loc2))
#loc42 = loc("xoffset"(#loc3))
#loc43 = loc("xindex"(#loc4))
#loc44 = loc("xindex"(#loc5))
#loc45 = loc("xmask"(#loc6))
#loc46 = loc("x1"(#loc7))
#loc47 = loc("tmp0"(#loc8))
#loc48 = loc("tmp0"(#loc9))
#loc49 = loc("tmp0"(#loc10))
#loc50 = loc("tmp2"(#loc11))
#loc51 = loc("tmp2"(#loc12))
#loc52 = loc("tmp8"(#loc13))
#loc53 = loc("tmp8"(#loc14))
#loc54 = loc("tmp8"(#loc15))
#loc55 = loc("tmp13"(#loc16))
#loc56 = loc("tmp13"(#loc17))
#loc57 = loc("tmp13"(#loc18))
#loc58 = loc("tmp3"(#loc19))
#loc59 = loc("tmp4"(#loc20))
#loc60 = loc("tmp5"(#loc21))
#loc61 = loc("tmp6"(#loc22))
#loc62 = loc("tmp7"(#loc23))
#loc63 = loc("tmp10"(#loc24))
#loc64 = loc("tmp11"(#loc25))
#loc65 = loc("tmp12"(#loc26))
#loc66 = loc("tmp15"(#loc27))
