#loc = loc("/NHNHOME/WORKSPACE/26msit001_A/jinhyeok/loop_TTT/lact/.cache_inductor_llm/pb/cpbby7fucwlqyksbk5ms4j5pnjk2pdr4wmyi6yxfo44amp7nb47y.py":18:0)
#loc191 = loc("/NHNHOME/WORKSPACE/26msit001_A/jinhyeok/TTT_camera_embedding/.venv_llm/lib/python3.12/site-packages/triton/language/standard.py":285:0)
#loc193 = loc(unknown)
#loc196 = loc("/NHNHOME/WORKSPACE/26msit001_A/jinhyeok/TTT_camera_embedding/.venv_llm/lib/python3.12/site-packages/triton/language/standard.py":260:0)
#loc200 = loc("in_ptr0"(#loc))
#loc201 = loc("in_ptr1"(#loc))
#loc202 = loc("in_ptr2"(#loc))
#loc203 = loc("in_ptr3"(#loc))
#loc204 = loc("in_ptr4"(#loc))
#loc205 = loc("in_ptr5"(#loc))
#loc206 = loc("in_ptr6"(#loc))
#loc207 = loc("in_ptr7"(#loc))
#loc208 = loc("in_ptr8"(#loc))
#loc209 = loc("in_ptr9"(#loc))
#loc210 = loc("in_ptr10"(#loc))
#loc211 = loc("in_ptr11"(#loc))
#loc212 = loc("in_ptr12"(#loc))
#loc213 = loc("out_ptr0"(#loc))
#loc214 = loc("out_ptr1"(#loc))
#loc215 = loc("xnumel"(#loc))
#loc216 = loc("r0_numel"(#loc))
#loc401 = loc("input"(#loc191))
#loc402 = loc("a"(#loc196))
#loc403 = loc("b"(#loc196))
module {
  tt.func public @triton_red_fused__to_copy_add_div_mul_neg_sum_transpose_zeros_like_32(%in_ptr0: !tt.ptr<bf16> {tt.divisibility = 16 : i32} loc("in_ptr0"(#loc)), %in_ptr1: !tt.ptr<f32> {tt.divisibility = 16 : i32} loc("in_ptr1"(#loc)), %in_ptr2: !tt.ptr<bf16> {tt.divisibility = 16 : i32} loc("in_ptr2"(#loc)), %in_ptr3: !tt.ptr<bf16> {tt.divisibility = 16 : i32} loc("in_ptr3"(#loc)), %in_ptr4: !tt.ptr<bf16> {tt.divisibility = 16 : i32} loc("in_ptr4"(#loc)), %in_ptr5: !tt.ptr<f32> {tt.divisibility = 16 : i32} loc("in_ptr5"(#loc)), %in_ptr6: !tt.ptr<f32> {tt.divisibility = 16 : i32} loc("in_ptr6"(#loc)), %in_ptr7: !tt.ptr<bf16> {tt.divisibility = 16 : i32} loc("in_ptr7"(#loc)), %in_ptr8: !tt.ptr<f32> {tt.divisibility = 16 : i32} loc("in_ptr8"(#loc)), %in_ptr9: !tt.ptr<bf16> {tt.divisibility = 16 : i32} loc("in_ptr9"(#loc)), %in_ptr10: !tt.ptr<bf16> {tt.divisibility = 16 : i32} loc("in_ptr10"(#loc)), %in_ptr11: !tt.ptr<bf16> {tt.divisibility = 16 : i32} loc("in_ptr11"(#loc)), %in_ptr12: !tt.ptr<f32> {tt.divisibility = 16 : i32} loc("in_ptr12"(#loc)), %out_ptr0: !tt.ptr<f32> {tt.divisibility = 16 : i32} loc("out_ptr0"(#loc)), %out_ptr1: !tt.ptr<f32> {tt.divisibility = 16 : i32} loc("out_ptr1"(#loc)), %xnumel: i32 {tt.divisibility = 16 : i32} loc("xnumel"(#loc)), %r0_numel: i32 loc("r0_numel"(#loc))) attributes {noinline = false} {
    %xnumel_0 = arith.constant 480 : i32 loc(#loc217)
    %r0_numel_1 = arith.constant 7373 : i32 loc(#loc218)
    %xoffset = tt.get_program_id x : i32 loc(#loc219)
    %xoffset_2 = arith.constant 1 : i32 loc(#loc220)
    %xoffset_3 = arith.constant 1 : i32 loc(#loc220)
    %xoffset_4 = arith.muli %xoffset, %xoffset_3 : i32 loc(#loc220)
    %xindex = tt.make_range {end = 1 : i32, start = 0 : i32} : tensor<1xi32> loc(#loc221)
    %xindex_5 = tt.expand_dims %xindex {axis = 1 : i32} : tensor<1xi32> -> tensor<1x1xi32> loc(#loc222)
    %xindex_6 = tt.splat %xoffset_4 : i32 -> tensor<1x1xi32> loc(#loc223)
    %xindex_7 = arith.addi %xindex_6, %xindex_5 : tensor<1x1xi32> loc(#loc223)
    %xmask = arith.constant dense<480> : tensor<1x1xi32> loc(#loc224)
    %xmask_8 = arith.cmpi slt, %xindex_7, %xmask : tensor<1x1xi32> loc(#loc224)
    %r0_base = tt.make_range {end = 1024 : i32, start = 0 : i32} : tensor<1024xi32> loc(#loc225)
    %r0_base_9 = tt.expand_dims %r0_base {axis = 0 : i32} : tensor<1024xi32> -> tensor<1x1024xi32> loc(#loc226)
    %x0 = arith.constant 5 : i32 loc(#loc227)
    %x0_10 = arith.constant 5 : i32 loc(#loc227)
    %x0_11 = arith.constant dense<5> : tensor<1x1xi32> loc(#loc227)
    %x0_12 = arith.remsi %xindex_7, %x0_11 : tensor<1x1xi32> loc(#loc227)
    %x1 = arith.constant 5 : i32 loc(#loc228)
    %x1_13 = arith.constant 5 : i32 loc(#loc228)
    %x1_14 = arith.constant dense<5> : tensor<1x1xi32> loc(#loc228)
    %x1_15 = arith.divsi %xindex_7, %x1_14 : tensor<1x1xi32> loc(#loc228)
    %_tmp33 = arith.constant 0.000000e+00 : f32 loc(#loc229)
    %_tmp33_16 = arith.constant dense<0.000000e+00> : tensor<1x1024xf32> loc(#loc229)
    %_tmp60 = arith.constant 0.000000e+00 : f32 loc(#loc230)
    %_tmp60_17 = arith.constant dense<0.000000e+00> : tensor<1x1024xf32> loc(#loc230)
    %c0_i32 = arith.constant 0 : i32 loc(#loc15)
    %c1024_i32 = arith.constant 1024 : i32 loc(#loc15)
    %0 = arith.bitcast %c0_i32 : i32 to i32 loc(#loc15)
    %1 = arith.bitcast %r0_numel_1 : i32 to i32 loc(#loc15)
    %2 = arith.bitcast %c1024_i32 : i32 to i32 loc(#loc15)
    %3 = ub.poison : i32 loc(#loc15)
    %_tmp60_18:2 = scf.for %r0_offset = %0 to %1 step %2 iter_args(%_tmp33_21 = %_tmp33_16, %_tmp60_22 = %_tmp60_17) -> (tensor<1x1024xf32>, tensor<1x1024xf32>)  : i32 {
      %r0_index = tt.splat %r0_offset : i32 -> tensor<1x1024xi32> loc(#loc232)
      %r0_index_23 = arith.addi %r0_index, %r0_base_9 : tensor<1x1024xi32> loc(#loc232)
      %r0_mask = arith.constant dense<7373> : tensor<1x1024xi32> loc(#loc233)
      %r0_mask_24 = arith.cmpi slt, %r0_index_23, %r0_mask : tensor<1x1024xi32> loc(#loc233)
      %tmp0 = arith.constant 7373 : i32 loc(#loc234)
      %tmp0_25 = arith.constant 7373 : i32 loc(#loc234)
      %tmp0_26 = arith.constant dense<7373> : tensor<1x1xi32> loc(#loc234)
      %tmp0_27 = arith.muli %tmp0_26, %x0_12 : tensor<1x1xi32> loc(#loc234)
      %tmp0_28 = tt.broadcast %tmp0_27 : tensor<1x1xi32> -> tensor<1x1024xi32> loc(#loc235)
      %tmp0_29 = arith.addi %r0_index_23, %tmp0_28 : tensor<1x1024xi32> loc(#loc235)
      %tmp1 = arith.constant 36864 : i32 loc(#loc236)
      %tmp1_30 = arith.constant dense<36864> : tensor<1x1xi32> loc(#loc236)
      %tmp2 = arith.constant dense<36864> : tensor<1x1024xi32> loc(#loc237)
      %tmp2_31 = arith.cmpi slt, %tmp0_29, %tmp2 : tensor<1x1024xi32> loc(#loc237)
      %tmp3 = arith.constant 36864 : i32 loc(#loc238)
      %tmp3_32 = arith.constant 36864 : i32 loc(#loc238)
      %tmp3_33 = arith.constant dense<36864> : tensor<1x1xi32> loc(#loc238)
      %tmp3_34 = arith.muli %tmp3_33, %x1_15 : tensor<1x1xi32> loc(#loc238)
      %tmp3_35 = arith.constant 7373 : i32 loc(#loc239)
      %tmp3_36 = arith.constant 7373 : i32 loc(#loc239)
      %tmp3_37 = arith.constant dense<7373> : tensor<1x1xi32> loc(#loc239)
      %tmp3_38 = arith.muli %tmp3_37, %x0_12 : tensor<1x1xi32> loc(#loc239)
      %tmp3_39 = tt.broadcast %tmp3_38 : tensor<1x1xi32> -> tensor<1x1024xi32> loc(#loc240)
      %tmp3_40 = arith.addi %r0_index_23, %tmp3_39 : tensor<1x1024xi32> loc(#loc240)
      %tmp3_41 = arith.constant 36864 : i32 loc(#loc241)
      %tmp3_42 = arith.constant 36864 : i32 loc(#loc241)
      %tmp3_43 = arith.constant dense<36864> : tensor<1x1024xi32> loc(#loc241)
      %tmp3_44 = arith.remsi %tmp3_40, %tmp3_43 : tensor<1x1024xi32> loc(#loc241)
      %tmp3_45 = tt.broadcast %tmp3_34 : tensor<1x1xi32> -> tensor<1x1024xi32> loc(#loc242)
      %tmp3_46 = arith.addi %tmp3_45, %tmp3_44 : tensor<1x1024xi32> loc(#loc242)
      %tmp3_47 = tt.splat %in_ptr0 : !tt.ptr<bf16> -> tensor<1x1024x!tt.ptr<bf16>> loc(#loc243)
      %tmp3_48 = tt.addptr %tmp3_47, %tmp3_46 : tensor<1x1024x!tt.ptr<bf16>>, tensor<1x1024xi32> loc(#loc243)
      %tmp3_49 = arith.andi %r0_mask_24, %tmp2_31 : tensor<1x1024xi1> loc(#loc244)
      %tmp3_50 = tt.broadcast %xmask_8 : tensor<1x1xi1> -> tensor<1x1024xi1> loc(#loc245)
      %tmp3_51 = arith.andi %tmp3_49, %tmp3_50 : tensor<1x1024xi1> loc(#loc245)
      %tmp3_52 = arith.constant 0.000000e+00 : f32 loc(#loc246)
      %tmp3_53 = arith.constant dense<0.000000e+00> : tensor<1x1024xf32> loc(#loc246)
      %tmp3_54 = arith.truncf %tmp3_53 : tensor<1x1024xf32> to tensor<1x1024xbf16> loc(#loc246)
      %tmp3_55 = tt.load %tmp3_48, %tmp3_51, %tmp3_54 evictionPolicy = evict_last : tensor<1x1024x!tt.ptr<bf16>> loc(#loc246)
      %tmp3_56 = arith.extf %tmp3_55 : tensor<1x1024xbf16> to tensor<1x1024xf32> loc(#loc247)
      %tmp5 = arith.constant 36864 : i32 loc(#loc248)
      %tmp5_57 = arith.constant 36864 : i32 loc(#loc248)
      %tmp5_58 = arith.constant dense<36864> : tensor<1x1xi32> loc(#loc248)
      %tmp5_59 = arith.muli %tmp5_58, %x1_15 : tensor<1x1xi32> loc(#loc248)
      %tmp5_60 = arith.constant 7373 : i32 loc(#loc249)
      %tmp5_61 = arith.constant 7373 : i32 loc(#loc249)
      %tmp5_62 = arith.constant dense<7373> : tensor<1x1xi32> loc(#loc249)
      %tmp5_63 = arith.muli %tmp5_62, %x0_12 : tensor<1x1xi32> loc(#loc249)
      %tmp5_64 = tt.broadcast %tmp5_63 : tensor<1x1xi32> -> tensor<1x1024xi32> loc(#loc250)
      %tmp5_65 = arith.addi %r0_index_23, %tmp5_64 : tensor<1x1024xi32> loc(#loc250)
      %tmp5_66 = arith.constant 36864 : i32 loc(#loc251)
      %tmp5_67 = arith.constant 36864 : i32 loc(#loc251)
      %tmp5_68 = arith.constant dense<36864> : tensor<1x1024xi32> loc(#loc251)
      %tmp5_69 = arith.remsi %tmp5_65, %tmp5_68 : tensor<1x1024xi32> loc(#loc251)
      %tmp5_70 = tt.broadcast %tmp5_59 : tensor<1x1xi32> -> tensor<1x1024xi32> loc(#loc252)
      %tmp5_71 = arith.addi %tmp5_70, %tmp5_69 : tensor<1x1024xi32> loc(#loc252)
      %tmp5_72 = tt.splat %in_ptr1 : !tt.ptr<f32> -> tensor<1x1024x!tt.ptr<f32>> loc(#loc253)
      %tmp5_73 = tt.addptr %tmp5_72, %tmp5_71 : tensor<1x1024x!tt.ptr<f32>>, tensor<1x1024xi32> loc(#loc253)
      %tmp5_74 = arith.andi %r0_mask_24, %tmp2_31 : tensor<1x1024xi1> loc(#loc254)
      %tmp5_75 = tt.broadcast %xmask_8 : tensor<1x1xi1> -> tensor<1x1024xi1> loc(#loc255)
      %tmp5_76 = arith.andi %tmp5_74, %tmp5_75 : tensor<1x1024xi1> loc(#loc255)
      %tmp5_77 = arith.constant 0.000000e+00 : f32 loc(#loc256)
      %tmp5_78 = arith.constant dense<0.000000e+00> : tensor<1x1024xf32> loc(#loc256)
      %tmp5_79 = tt.load %tmp5_73, %tmp5_76, %tmp5_78 evictionPolicy = evict_last : tensor<1x1024x!tt.ptr<f32>> loc(#loc256)
      %tmp6 = arith.constant 4.084800e+00 : f32 loc(#loc257)
      %tmp7 = arith.constant dense<4.084800e+00> : tensor<1x1024xf32> loc(#loc258)
      %tmp7_80 = arith.mulf %tmp5_79, %tmp7 : tensor<1x1024xf32> loc(#loc258)
      %tmp8 = arith.addf %tmp3_56, %tmp7_80 : tensor<1x1024xf32> loc(#loc259)
      %tmp9 = arith.constant 36864 : i32 loc(#loc260)
      %tmp9_81 = arith.constant 36864 : i32 loc(#loc260)
      %tmp9_82 = arith.constant dense<36864> : tensor<1x1xi32> loc(#loc260)
      %tmp9_83 = arith.muli %tmp9_82, %x1_15 : tensor<1x1xi32> loc(#loc260)
      %tmp9_84 = arith.constant 7373 : i32 loc(#loc261)
      %tmp9_85 = arith.constant 7373 : i32 loc(#loc261)
      %tmp9_86 = arith.constant dense<7373> : tensor<1x1xi32> loc(#loc261)
      %tmp9_87 = arith.muli %tmp9_86, %x0_12 : tensor<1x1xi32> loc(#loc261)
      %tmp9_88 = tt.broadcast %tmp9_87 : tensor<1x1xi32> -> tensor<1x1024xi32> loc(#loc262)
      %tmp9_89 = arith.addi %r0_index_23, %tmp9_88 : tensor<1x1024xi32> loc(#loc262)
      %tmp9_90 = arith.constant 36864 : i32 loc(#loc263)
      %tmp9_91 = arith.constant 36864 : i32 loc(#loc263)
      %tmp9_92 = arith.constant dense<36864> : tensor<1x1024xi32> loc(#loc263)
      %tmp9_93 = arith.remsi %tmp9_89, %tmp9_92 : tensor<1x1024xi32> loc(#loc263)
      %tmp9_94 = tt.broadcast %tmp9_83 : tensor<1x1xi32> -> tensor<1x1024xi32> loc(#loc264)
      %tmp9_95 = arith.addi %tmp9_94, %tmp9_93 : tensor<1x1024xi32> loc(#loc264)
      %tmp9_96 = tt.splat %in_ptr2 : !tt.ptr<bf16> -> tensor<1x1024x!tt.ptr<bf16>> loc(#loc265)
      %tmp9_97 = tt.addptr %tmp9_96, %tmp9_95 : tensor<1x1024x!tt.ptr<bf16>>, tensor<1x1024xi32> loc(#loc265)
      %tmp9_98 = arith.andi %r0_mask_24, %tmp2_31 : tensor<1x1024xi1> loc(#loc266)
      %tmp9_99 = tt.broadcast %xmask_8 : tensor<1x1xi1> -> tensor<1x1024xi1> loc(#loc267)
      %tmp9_100 = arith.andi %tmp9_98, %tmp9_99 : tensor<1x1024xi1> loc(#loc267)
      %tmp9_101 = arith.constant 0.000000e+00 : f32 loc(#loc268)
      %tmp9_102 = arith.constant dense<0.000000e+00> : tensor<1x1024xf32> loc(#loc268)
      %tmp9_103 = arith.truncf %tmp9_102 : tensor<1x1024xf32> to tensor<1x1024xbf16> loc(#loc268)
      %tmp9_104 = tt.load %tmp9_97, %tmp9_100, %tmp9_103 evictionPolicy = evict_last : tensor<1x1024x!tt.ptr<bf16>> loc(#loc268)
      %tmp9_105 = arith.extf %tmp9_104 : tensor<1x1024xbf16> to tensor<1x1024xf32> loc(#loc269)
      %tmp11 = arith.addf %tmp8, %tmp9_105 : tensor<1x1024xf32> loc(#loc270)
      %tmp12 = arith.constant 7373 : i32 loc(#loc271)
      %tmp12_106 = arith.constant 7373 : i32 loc(#loc271)
      %tmp12_107 = arith.constant dense<7373> : tensor<1x1xi32> loc(#loc271)
      %tmp12_108 = arith.muli %tmp12_107, %x0_12 : tensor<1x1xi32> loc(#loc271)
      %tmp12_109 = tt.broadcast %tmp12_108 : tensor<1x1xi32> -> tensor<1x1024xi32> loc(#loc272)
      %tmp12_110 = arith.addi %r0_index_23, %tmp12_109 : tensor<1x1024xi32> loc(#loc272)
      %tmp12_111 = arith.constant 192 : i32 loc(#loc273)
      %tmp12_112 = arith.constant 192 : i32 loc(#loc273)
      %tmp12_113 = arith.constant dense<192> : tensor<1x1024xi32> loc(#loc273)
      %tmp12_114 = arith.remsi %tmp12_110, %tmp12_113 : tensor<1x1024xi32> loc(#loc273)
      %tmp12_115 = arith.constant 192 : i32 loc(#loc274)
      %tmp12_116 = arith.constant 192 : i32 loc(#loc274)
      %tmp12_117 = arith.constant dense<192> : tensor<1x1024xi32> loc(#loc274)
      %tmp12_118 = arith.muli %tmp12_117, %tmp12_114 : tensor<1x1024xi32> loc(#loc274)
      %tmp12_119 = arith.constant 36864 : i32 loc(#loc275)
      %tmp12_120 = arith.constant 36864 : i32 loc(#loc275)
      %tmp12_121 = arith.constant dense<36864> : tensor<1x1xi32> loc(#loc275)
      %tmp12_122 = arith.muli %tmp12_121, %x1_15 : tensor<1x1xi32> loc(#loc275)
      %tmp12_123 = tt.broadcast %tmp12_122 : tensor<1x1xi32> -> tensor<1x1024xi32> loc(#loc276)
      %tmp12_124 = arith.addi %tmp12_118, %tmp12_123 : tensor<1x1024xi32> loc(#loc276)
      %tmp12_125 = arith.constant 7373 : i32 loc(#loc277)
      %tmp12_126 = arith.constant 7373 : i32 loc(#loc277)
      %tmp12_127 = arith.constant dense<7373> : tensor<1x1xi32> loc(#loc277)
      %tmp12_128 = arith.muli %tmp12_127, %x0_12 : tensor<1x1xi32> loc(#loc277)
      %tmp12_129 = tt.broadcast %tmp12_128 : tensor<1x1xi32> -> tensor<1x1024xi32> loc(#loc278)
      %tmp12_130 = arith.addi %r0_index_23, %tmp12_129 : tensor<1x1024xi32> loc(#loc278)
      %tmp12_131 = arith.constant 192 : i32 loc(#loc279)
      %tmp12_132 = arith.constant 192 : i32 loc(#loc279)
      %tmp12_133 = arith.constant dense<192> : tensor<1x1024xi32> loc(#loc279)
      %tmp12_134 = arith.divsi %tmp12_130, %tmp12_133 : tensor<1x1024xi32> loc(#loc279)
      %tmp12_135 = arith.constant 192 : i32 loc(#loc280)
      %tmp12_136 = arith.constant 192 : i32 loc(#loc280)
      %tmp12_137 = arith.constant dense<192> : tensor<1x1024xi32> loc(#loc280)
      %tmp12_138 = arith.remsi %tmp12_134, %tmp12_137 : tensor<1x1024xi32> loc(#loc280)
      %tmp12_139 = arith.addi %tmp12_124, %tmp12_138 : tensor<1x1024xi32> loc(#loc281)
      %tmp12_140 = tt.splat %in_ptr3 : !tt.ptr<bf16> -> tensor<1x1024x!tt.ptr<bf16>> loc(#loc282)
      %tmp12_141 = tt.addptr %tmp12_140, %tmp12_139 : tensor<1x1024x!tt.ptr<bf16>>, tensor<1x1024xi32> loc(#loc282)
      %tmp12_142 = arith.andi %r0_mask_24, %tmp2_31 : tensor<1x1024xi1> loc(#loc283)
      %tmp12_143 = tt.broadcast %xmask_8 : tensor<1x1xi1> -> tensor<1x1024xi1> loc(#loc284)
      %tmp12_144 = arith.andi %tmp12_142, %tmp12_143 : tensor<1x1024xi1> loc(#loc284)
      %tmp12_145 = arith.constant 0.000000e+00 : f32 loc(#loc285)
      %tmp12_146 = arith.constant dense<0.000000e+00> : tensor<1x1024xf32> loc(#loc285)
      %tmp12_147 = arith.truncf %tmp12_146 : tensor<1x1024xf32> to tensor<1x1024xbf16> loc(#loc285)
      %tmp12_148 = tt.load %tmp12_141, %tmp12_144, %tmp12_147 evictionPolicy = evict_last : tensor<1x1024x!tt.ptr<bf16>> loc(#loc285)
      %tmp12_149 = arith.extf %tmp12_148 : tensor<1x1024xbf16> to tensor<1x1024xf32> loc(#loc286)
      %tmp14 = arith.addf %tmp11, %tmp12_149 : tensor<1x1024xf32> loc(#loc287)
      %tmp15 = arith.constant 0.000000e+00 : f32 loc(#loc288)
      %tmp15_150 = arith.constant dense<0.000000e+00> : tensor<1x1024xf32> loc(#loc288)
      %tmp15_151 = arith.subf %tmp15_150, %tmp14 : tensor<1x1024xf32> loc(#loc288)
      %tmp16 = arith.constant 36864 : i32 loc(#loc289)
      %tmp16_152 = arith.constant 36864 : i32 loc(#loc289)
      %tmp16_153 = arith.constant dense<36864> : tensor<1x1xi32> loc(#loc289)
      %tmp16_154 = arith.muli %tmp16_153, %x1_15 : tensor<1x1xi32> loc(#loc289)
      %tmp16_155 = arith.constant 7373 : i32 loc(#loc290)
      %tmp16_156 = arith.constant 7373 : i32 loc(#loc290)
      %tmp16_157 = arith.constant dense<7373> : tensor<1x1xi32> loc(#loc290)
      %tmp16_158 = arith.muli %tmp16_157, %x0_12 : tensor<1x1xi32> loc(#loc290)
      %tmp16_159 = tt.broadcast %tmp16_158 : tensor<1x1xi32> -> tensor<1x1024xi32> loc(#loc291)
      %tmp16_160 = arith.addi %r0_index_23, %tmp16_159 : tensor<1x1024xi32> loc(#loc291)
      %tmp16_161 = arith.constant 36864 : i32 loc(#loc292)
      %tmp16_162 = arith.constant 36864 : i32 loc(#loc292)
      %tmp16_163 = arith.constant dense<36864> : tensor<1x1024xi32> loc(#loc292)
      %tmp16_164 = arith.remsi %tmp16_160, %tmp16_163 : tensor<1x1024xi32> loc(#loc292)
      %tmp16_165 = tt.broadcast %tmp16_154 : tensor<1x1xi32> -> tensor<1x1024xi32> loc(#loc293)
      %tmp16_166 = arith.addi %tmp16_165, %tmp16_164 : tensor<1x1024xi32> loc(#loc293)
      %tmp16_167 = tt.splat %in_ptr4 : !tt.ptr<bf16> -> tensor<1x1024x!tt.ptr<bf16>> loc(#loc294)
      %tmp16_168 = tt.addptr %tmp16_167, %tmp16_166 : tensor<1x1024x!tt.ptr<bf16>>, tensor<1x1024xi32> loc(#loc294)
      %tmp16_169 = arith.andi %r0_mask_24, %tmp2_31 : tensor<1x1024xi1> loc(#loc295)
      %tmp16_170 = tt.broadcast %xmask_8 : tensor<1x1xi1> -> tensor<1x1024xi1> loc(#loc296)
      %tmp16_171 = arith.andi %tmp16_169, %tmp16_170 : tensor<1x1024xi1> loc(#loc296)
      %tmp16_172 = arith.constant 0.000000e+00 : f32 loc(#loc297)
      %tmp16_173 = arith.constant dense<0.000000e+00> : tensor<1x1024xf32> loc(#loc297)
      %tmp16_174 = arith.truncf %tmp16_173 : tensor<1x1024xf32> to tensor<1x1024xbf16> loc(#loc297)
      %tmp16_175 = tt.load %tmp16_168, %tmp16_171, %tmp16_174 evictionPolicy = evict_last : tensor<1x1024x!tt.ptr<bf16>> loc(#loc297)
      %tmp16_176 = arith.extf %tmp16_175 : tensor<1x1024xbf16> to tensor<1x1024xf32> loc(#loc298)
      %tmp18 = tt.broadcast %x1_15 : tensor<1x1xi32> -> tensor<1x1024xi32> loc(#loc299)
      %tmp18_177 = tt.splat %in_ptr5 : !tt.ptr<f32> -> tensor<1x1024x!tt.ptr<f32>> loc(#loc300)
      %tmp18_178 = tt.addptr %tmp18_177, %tmp18 : tensor<1x1024x!tt.ptr<f32>>, tensor<1x1024xi32> loc(#loc300)
      %tmp18_179 = arith.andi %r0_mask_24, %tmp2_31 : tensor<1x1024xi1> loc(#loc301)
      %tmp18_180 = tt.broadcast %xmask_8 : tensor<1x1xi1> -> tensor<1x1024xi1> loc(#loc302)
      %tmp18_181 = arith.andi %tmp18_179, %tmp18_180 : tensor<1x1024xi1> loc(#loc302)
      %tmp18_182 = arith.constant 0.000000e+00 : f32 loc(#loc303)
      %tmp18_183 = arith.constant dense<0.000000e+00> : tensor<1x1024xf32> loc(#loc303)
      %tmp18_184 = tt.load %tmp18_178, %tmp18_181, %tmp18_183 evictionPolicy = evict_last : tensor<1x1024x!tt.ptr<f32>> loc(#loc303)
      %tmp19 = arith.constant 0.000000e+00 : f32 loc(#loc304)
      %tmp20 = arith.constant dense<0.000000e+00> : tensor<1x1024xf32> loc(#loc305)
      %tmp20_185 = arith.mulf %tmp20, %tmp18_184 : tensor<1x1024xf32> loc(#loc305)
      %tmp21 = arith.addf %tmp16_176, %tmp20_185 : tensor<1x1024xf32> loc(#loc306)
      %tmp24 = tt.broadcast %x1_15 : tensor<1x1xi32> -> tensor<1x1024xi32> loc(#loc307)
      %tmp24_186 = tt.splat %in_ptr6 : !tt.ptr<f32> -> tensor<1x1024x!tt.ptr<f32>> loc(#loc308)
      %tmp24_187 = tt.addptr %tmp24_186, %tmp24 : tensor<1x1024x!tt.ptr<f32>>, tensor<1x1024xi32> loc(#loc308)
      %tmp24_188 = arith.andi %r0_mask_24, %tmp2_31 : tensor<1x1024xi1> loc(#loc309)
      %tmp24_189 = tt.broadcast %xmask_8 : tensor<1x1xi1> -> tensor<1x1024xi1> loc(#loc310)
      %tmp24_190 = arith.andi %tmp24_188, %tmp24_189 : tensor<1x1024xi1> loc(#loc310)
      %tmp24_191 = arith.constant 0.000000e+00 : f32 loc(#loc311)
      %tmp24_192 = arith.constant dense<0.000000e+00> : tensor<1x1024xf32> loc(#loc311)
      %tmp24_193 = tt.load %tmp24_187, %tmp24_190, %tmp24_192 evictionPolicy = evict_last : tensor<1x1024x!tt.ptr<f32>> loc(#loc311)
      %tmp25 = arith.constant 1.000000e-07 : f32 loc(#loc312)
      %tmp26 = arith.constant dense<1.000000e-07> : tensor<1x1024xf32> loc(#loc313)
      %tmp26_194 = arith.addf %tmp24_193, %tmp26 : tensor<1x1024xf32> loc(#loc313)
      %tmp27 = arith.divf %tmp21, %tmp26_194 : tensor<1x1024xf32> loc(#loc314)
      %tmp28 = arith.divf %tmp27, %tmp26_194 : tensor<1x1024xf32> loc(#loc315)
      %tmp29 = arith.mulf %tmp15_151, %tmp28 : tensor<1x1024xf32> loc(#loc316)
      %tmp30 = arith.constant 0.000000e+00 : f32 loc(#loc317)
      %tmp30_195 = arith.constant dense<0.000000e+00> : tensor<1x1024xf32> loc(#loc317)
      %tmp31 = arith.select %tmp2_31, %tmp29, %tmp30_195 : tensor<1x1024xi1>, tensor<1x1024xf32> loc(#loc318)
      %tmp34 = arith.addf %_tmp33_21, %tmp31 : tensor<1x1024xf32> loc(#loc319)
      %_tmp33_196 = tt.broadcast %xmask_8 : tensor<1x1xi1> -> tensor<1x1024xi1> loc(#loc320)
      %_tmp33_197 = arith.andi %r0_mask_24, %_tmp33_196 : tensor<1x1024xi1> loc(#loc320)
      %_tmp33_198 = arith.select %_tmp33_197, %tmp34, %_tmp33_21 : tensor<1x1024xi1>, tensor<1x1024xf32> loc(#loc321)
      %tmp35 = arith.constant 36864 : i32 loc(#loc322)
      %tmp35_199 = arith.constant 36864 : i32 loc(#loc322)
      %tmp35_200 = arith.constant dense<36864> : tensor<1x1xi32> loc(#loc322)
      %tmp35_201 = arith.muli %tmp35_200, %x1_15 : tensor<1x1xi32> loc(#loc322)
      %tmp35_202 = arith.constant 7373 : i32 loc(#loc323)
      %tmp35_203 = arith.constant 7373 : i32 loc(#loc323)
      %tmp35_204 = arith.constant dense<7373> : tensor<1x1xi32> loc(#loc323)
      %tmp35_205 = arith.muli %tmp35_204, %x0_12 : tensor<1x1xi32> loc(#loc323)
      %tmp35_206 = tt.broadcast %tmp35_205 : tensor<1x1xi32> -> tensor<1x1024xi32> loc(#loc324)
      %tmp35_207 = arith.addi %r0_index_23, %tmp35_206 : tensor<1x1024xi32> loc(#loc324)
      %tmp35_208 = arith.constant 36864 : i32 loc(#loc325)
      %tmp35_209 = arith.constant 36864 : i32 loc(#loc325)
      %tmp35_210 = arith.constant dense<36864> : tensor<1x1024xi32> loc(#loc325)
      %tmp35_211 = arith.remsi %tmp35_207, %tmp35_210 : tensor<1x1024xi32> loc(#loc325)
      %tmp35_212 = tt.broadcast %tmp35_201 : tensor<1x1xi32> -> tensor<1x1024xi32> loc(#loc326)
      %tmp35_213 = arith.addi %tmp35_212, %tmp35_211 : tensor<1x1024xi32> loc(#loc326)
      %tmp35_214 = tt.splat %in_ptr7 : !tt.ptr<bf16> -> tensor<1x1024x!tt.ptr<bf16>> loc(#loc327)
      %tmp35_215 = tt.addptr %tmp35_214, %tmp35_213 : tensor<1x1024x!tt.ptr<bf16>>, tensor<1x1024xi32> loc(#loc327)
      %tmp35_216 = arith.andi %r0_mask_24, %tmp2_31 : tensor<1x1024xi1> loc(#loc328)
      %tmp35_217 = tt.broadcast %xmask_8 : tensor<1x1xi1> -> tensor<1x1024xi1> loc(#loc329)
      %tmp35_218 = arith.andi %tmp35_216, %tmp35_217 : tensor<1x1024xi1> loc(#loc329)
      %tmp35_219 = arith.constant 0.000000e+00 : f32 loc(#loc330)
      %tmp35_220 = arith.constant dense<0.000000e+00> : tensor<1x1024xf32> loc(#loc330)
      %tmp35_221 = arith.truncf %tmp35_220 : tensor<1x1024xf32> to tensor<1x1024xbf16> loc(#loc330)
      %tmp35_222 = tt.load %tmp35_215, %tmp35_218, %tmp35_221 evictionPolicy = evict_last : tensor<1x1024x!tt.ptr<bf16>> loc(#loc330)
      %tmp35_223 = arith.extf %tmp35_222 : tensor<1x1024xbf16> to tensor<1x1024xf32> loc(#loc331)
      %tmp37 = arith.constant 36864 : i32 loc(#loc332)
      %tmp37_224 = arith.constant 36864 : i32 loc(#loc332)
      %tmp37_225 = arith.constant dense<36864> : tensor<1x1xi32> loc(#loc332)
      %tmp37_226 = arith.muli %tmp37_225, %x1_15 : tensor<1x1xi32> loc(#loc332)
      %tmp37_227 = arith.constant 7373 : i32 loc(#loc333)
      %tmp37_228 = arith.constant 7373 : i32 loc(#loc333)
      %tmp37_229 = arith.constant dense<7373> : tensor<1x1xi32> loc(#loc333)
      %tmp37_230 = arith.muli %tmp37_229, %x0_12 : tensor<1x1xi32> loc(#loc333)
      %tmp37_231 = tt.broadcast %tmp37_230 : tensor<1x1xi32> -> tensor<1x1024xi32> loc(#loc334)
      %tmp37_232 = arith.addi %r0_index_23, %tmp37_231 : tensor<1x1024xi32> loc(#loc334)
      %tmp37_233 = arith.constant 36864 : i32 loc(#loc335)
      %tmp37_234 = arith.constant 36864 : i32 loc(#loc335)
      %tmp37_235 = arith.constant dense<36864> : tensor<1x1024xi32> loc(#loc335)
      %tmp37_236 = arith.remsi %tmp37_232, %tmp37_235 : tensor<1x1024xi32> loc(#loc335)
      %tmp37_237 = tt.broadcast %tmp37_226 : tensor<1x1xi32> -> tensor<1x1024xi32> loc(#loc336)
      %tmp37_238 = arith.addi %tmp37_237, %tmp37_236 : tensor<1x1024xi32> loc(#loc336)
      %tmp37_239 = tt.splat %in_ptr8 : !tt.ptr<f32> -> tensor<1x1024x!tt.ptr<f32>> loc(#loc337)
      %tmp37_240 = tt.addptr %tmp37_239, %tmp37_238 : tensor<1x1024x!tt.ptr<f32>>, tensor<1x1024xi32> loc(#loc337)
      %tmp37_241 = arith.andi %r0_mask_24, %tmp2_31 : tensor<1x1024xi1> loc(#loc338)
      %tmp37_242 = tt.broadcast %xmask_8 : tensor<1x1xi1> -> tensor<1x1024xi1> loc(#loc339)
      %tmp37_243 = arith.andi %tmp37_241, %tmp37_242 : tensor<1x1024xi1> loc(#loc339)
      %tmp37_244 = arith.constant 0.000000e+00 : f32 loc(#loc340)
      %tmp37_245 = arith.constant dense<0.000000e+00> : tensor<1x1024xf32> loc(#loc340)
      %tmp37_246 = tt.load %tmp37_240, %tmp37_243, %tmp37_245 evictionPolicy = evict_last : tensor<1x1024x!tt.ptr<f32>> loc(#loc340)
      %tmp38 = arith.constant dense<4.084800e+00> : tensor<1x1024xf32> loc(#loc341)
      %tmp38_247 = arith.mulf %tmp37_246, %tmp38 : tensor<1x1024xf32> loc(#loc341)
      %tmp39 = arith.addf %tmp35_223, %tmp38_247 : tensor<1x1024xf32> loc(#loc342)
      %tmp40 = arith.constant 36864 : i32 loc(#loc343)
      %tmp40_248 = arith.constant 36864 : i32 loc(#loc343)
      %tmp40_249 = arith.constant dense<36864> : tensor<1x1xi32> loc(#loc343)
      %tmp40_250 = arith.muli %tmp40_249, %x1_15 : tensor<1x1xi32> loc(#loc343)
      %tmp40_251 = arith.constant 7373 : i32 loc(#loc344)
      %tmp40_252 = arith.constant 7373 : i32 loc(#loc344)
      %tmp40_253 = arith.constant dense<7373> : tensor<1x1xi32> loc(#loc344)
      %tmp40_254 = arith.muli %tmp40_253, %x0_12 : tensor<1x1xi32> loc(#loc344)
      %tmp40_255 = tt.broadcast %tmp40_254 : tensor<1x1xi32> -> tensor<1x1024xi32> loc(#loc345)
      %tmp40_256 = arith.addi %r0_index_23, %tmp40_255 : tensor<1x1024xi32> loc(#loc345)
      %tmp40_257 = arith.constant 36864 : i32 loc(#loc346)
      %tmp40_258 = arith.constant 36864 : i32 loc(#loc346)
      %tmp40_259 = arith.constant dense<36864> : tensor<1x1024xi32> loc(#loc346)
      %tmp40_260 = arith.remsi %tmp40_256, %tmp40_259 : tensor<1x1024xi32> loc(#loc346)
      %tmp40_261 = tt.broadcast %tmp40_250 : tensor<1x1xi32> -> tensor<1x1024xi32> loc(#loc347)
      %tmp40_262 = arith.addi %tmp40_261, %tmp40_260 : tensor<1x1024xi32> loc(#loc347)
      %tmp40_263 = tt.splat %in_ptr9 : !tt.ptr<bf16> -> tensor<1x1024x!tt.ptr<bf16>> loc(#loc348)
      %tmp40_264 = tt.addptr %tmp40_263, %tmp40_262 : tensor<1x1024x!tt.ptr<bf16>>, tensor<1x1024xi32> loc(#loc348)
      %tmp40_265 = arith.andi %r0_mask_24, %tmp2_31 : tensor<1x1024xi1> loc(#loc349)
      %tmp40_266 = tt.broadcast %xmask_8 : tensor<1x1xi1> -> tensor<1x1024xi1> loc(#loc350)
      %tmp40_267 = arith.andi %tmp40_265, %tmp40_266 : tensor<1x1024xi1> loc(#loc350)
      %tmp40_268 = arith.constant 0.000000e+00 : f32 loc(#loc351)
      %tmp40_269 = arith.constant dense<0.000000e+00> : tensor<1x1024xf32> loc(#loc351)
      %tmp40_270 = arith.truncf %tmp40_269 : tensor<1x1024xf32> to tensor<1x1024xbf16> loc(#loc351)
      %tmp40_271 = tt.load %tmp40_264, %tmp40_267, %tmp40_270 evictionPolicy = evict_last : tensor<1x1024x!tt.ptr<bf16>> loc(#loc351)
      %tmp40_272 = arith.extf %tmp40_271 : tensor<1x1024xbf16> to tensor<1x1024xf32> loc(#loc352)
      %tmp42 = arith.addf %tmp39, %tmp40_272 : tensor<1x1024xf32> loc(#loc353)
      %tmp43 = arith.constant 7373 : i32 loc(#loc354)
      %tmp43_273 = arith.constant 7373 : i32 loc(#loc354)
      %tmp43_274 = arith.constant dense<7373> : tensor<1x1xi32> loc(#loc354)
      %tmp43_275 = arith.muli %tmp43_274, %x0_12 : tensor<1x1xi32> loc(#loc354)
      %tmp43_276 = tt.broadcast %tmp43_275 : tensor<1x1xi32> -> tensor<1x1024xi32> loc(#loc355)
      %tmp43_277 = arith.addi %r0_index_23, %tmp43_276 : tensor<1x1024xi32> loc(#loc355)
      %tmp43_278 = arith.constant 192 : i32 loc(#loc356)
      %tmp43_279 = arith.constant 192 : i32 loc(#loc356)
      %tmp43_280 = arith.constant dense<192> : tensor<1x1024xi32> loc(#loc356)
      %tmp43_281 = arith.remsi %tmp43_277, %tmp43_280 : tensor<1x1024xi32> loc(#loc356)
      %tmp43_282 = arith.constant 192 : i32 loc(#loc357)
      %tmp43_283 = arith.constant 192 : i32 loc(#loc357)
      %tmp43_284 = arith.constant dense<192> : tensor<1x1024xi32> loc(#loc357)
      %tmp43_285 = arith.muli %tmp43_284, %tmp43_281 : tensor<1x1024xi32> loc(#loc357)
      %tmp43_286 = arith.constant 36864 : i32 loc(#loc358)
      %tmp43_287 = arith.constant 36864 : i32 loc(#loc358)
      %tmp43_288 = arith.constant dense<36864> : tensor<1x1xi32> loc(#loc358)
      %tmp43_289 = arith.muli %tmp43_288, %x1_15 : tensor<1x1xi32> loc(#loc358)
      %tmp43_290 = tt.broadcast %tmp43_289 : tensor<1x1xi32> -> tensor<1x1024xi32> loc(#loc359)
      %tmp43_291 = arith.addi %tmp43_285, %tmp43_290 : tensor<1x1024xi32> loc(#loc359)
      %tmp43_292 = arith.constant 7373 : i32 loc(#loc360)
      %tmp43_293 = arith.constant 7373 : i32 loc(#loc360)
      %tmp43_294 = arith.constant dense<7373> : tensor<1x1xi32> loc(#loc360)
      %tmp43_295 = arith.muli %tmp43_294, %x0_12 : tensor<1x1xi32> loc(#loc360)
      %tmp43_296 = tt.broadcast %tmp43_295 : tensor<1x1xi32> -> tensor<1x1024xi32> loc(#loc361)
      %tmp43_297 = arith.addi %r0_index_23, %tmp43_296 : tensor<1x1024xi32> loc(#loc361)
      %tmp43_298 = arith.constant 192 : i32 loc(#loc362)
      %tmp43_299 = arith.constant 192 : i32 loc(#loc362)
      %tmp43_300 = arith.constant dense<192> : tensor<1x1024xi32> loc(#loc362)
      %tmp43_301 = arith.divsi %tmp43_297, %tmp43_300 : tensor<1x1024xi32> loc(#loc362)
      %tmp43_302 = arith.constant 192 : i32 loc(#loc363)
      %tmp43_303 = arith.constant 192 : i32 loc(#loc363)
      %tmp43_304 = arith.constant dense<192> : tensor<1x1024xi32> loc(#loc363)
      %tmp43_305 = arith.remsi %tmp43_301, %tmp43_304 : tensor<1x1024xi32> loc(#loc363)
      %tmp43_306 = arith.addi %tmp43_291, %tmp43_305 : tensor<1x1024xi32> loc(#loc364)
      %tmp43_307 = tt.splat %in_ptr10 : !tt.ptr<bf16> -> tensor<1x1024x!tt.ptr<bf16>> loc(#loc365)
      %tmp43_308 = tt.addptr %tmp43_307, %tmp43_306 : tensor<1x1024x!tt.ptr<bf16>>, tensor<1x1024xi32> loc(#loc365)
      %tmp43_309 = arith.andi %r0_mask_24, %tmp2_31 : tensor<1x1024xi1> loc(#loc366)
      %tmp43_310 = tt.broadcast %xmask_8 : tensor<1x1xi1> -> tensor<1x1024xi1> loc(#loc367)
      %tmp43_311 = arith.andi %tmp43_309, %tmp43_310 : tensor<1x1024xi1> loc(#loc367)
      %tmp43_312 = arith.constant 0.000000e+00 : f32 loc(#loc368)
      %tmp43_313 = arith.constant dense<0.000000e+00> : tensor<1x1024xf32> loc(#loc368)
      %tmp43_314 = arith.truncf %tmp43_313 : tensor<1x1024xf32> to tensor<1x1024xbf16> loc(#loc368)
      %tmp43_315 = tt.load %tmp43_308, %tmp43_311, %tmp43_314 evictionPolicy = evict_last : tensor<1x1024x!tt.ptr<bf16>> loc(#loc368)
      %tmp43_316 = arith.extf %tmp43_315 : tensor<1x1024xbf16> to tensor<1x1024xf32> loc(#loc369)
      %tmp45 = arith.addf %tmp42, %tmp43_316 : tensor<1x1024xf32> loc(#loc370)
      %tmp46 = arith.constant 0.000000e+00 : f32 loc(#loc371)
      %tmp46_317 = arith.constant dense<0.000000e+00> : tensor<1x1024xf32> loc(#loc371)
      %tmp46_318 = arith.subf %tmp46_317, %tmp45 : tensor<1x1024xf32> loc(#loc371)
      %tmp47 = arith.constant 36864 : i32 loc(#loc372)
      %tmp47_319 = arith.constant 36864 : i32 loc(#loc372)
      %tmp47_320 = arith.constant dense<36864> : tensor<1x1xi32> loc(#loc372)
      %tmp47_321 = arith.muli %tmp47_320, %x1_15 : tensor<1x1xi32> loc(#loc372)
      %tmp47_322 = arith.constant 7373 : i32 loc(#loc373)
      %tmp47_323 = arith.constant 7373 : i32 loc(#loc373)
      %tmp47_324 = arith.constant dense<7373> : tensor<1x1xi32> loc(#loc373)
      %tmp47_325 = arith.muli %tmp47_324, %x0_12 : tensor<1x1xi32> loc(#loc373)
      %tmp47_326 = tt.broadcast %tmp47_325 : tensor<1x1xi32> -> tensor<1x1024xi32> loc(#loc374)
      %tmp47_327 = arith.addi %r0_index_23, %tmp47_326 : tensor<1x1024xi32> loc(#loc374)
      %tmp47_328 = arith.constant 36864 : i32 loc(#loc375)
      %tmp47_329 = arith.constant 36864 : i32 loc(#loc375)
      %tmp47_330 = arith.constant dense<36864> : tensor<1x1024xi32> loc(#loc375)
      %tmp47_331 = arith.remsi %tmp47_327, %tmp47_330 : tensor<1x1024xi32> loc(#loc375)
      %tmp47_332 = tt.broadcast %tmp47_321 : tensor<1x1xi32> -> tensor<1x1024xi32> loc(#loc376)
      %tmp47_333 = arith.addi %tmp47_332, %tmp47_331 : tensor<1x1024xi32> loc(#loc376)
      %tmp47_334 = tt.splat %in_ptr11 : !tt.ptr<bf16> -> tensor<1x1024x!tt.ptr<bf16>> loc(#loc377)
      %tmp47_335 = tt.addptr %tmp47_334, %tmp47_333 : tensor<1x1024x!tt.ptr<bf16>>, tensor<1x1024xi32> loc(#loc377)
      %tmp47_336 = arith.andi %r0_mask_24, %tmp2_31 : tensor<1x1024xi1> loc(#loc378)
      %tmp47_337 = tt.broadcast %xmask_8 : tensor<1x1xi1> -> tensor<1x1024xi1> loc(#loc379)
      %tmp47_338 = arith.andi %tmp47_336, %tmp47_337 : tensor<1x1024xi1> loc(#loc379)
      %tmp47_339 = arith.constant 0.000000e+00 : f32 loc(#loc380)
      %tmp47_340 = arith.constant dense<0.000000e+00> : tensor<1x1024xf32> loc(#loc380)
      %tmp47_341 = arith.truncf %tmp47_340 : tensor<1x1024xf32> to tensor<1x1024xbf16> loc(#loc380)
      %tmp47_342 = tt.load %tmp47_335, %tmp47_338, %tmp47_341 evictionPolicy = evict_last : tensor<1x1024x!tt.ptr<bf16>> loc(#loc380)
      %tmp47_343 = arith.extf %tmp47_342 : tensor<1x1024xbf16> to tensor<1x1024xf32> loc(#loc381)
      %tmp49 = arith.addf %tmp47_343, %tmp20_185 : tensor<1x1024xf32> loc(#loc382)
      %tmp52 = tt.broadcast %x1_15 : tensor<1x1xi32> -> tensor<1x1024xi32> loc(#loc383)
      %tmp52_344 = tt.splat %in_ptr12 : !tt.ptr<f32> -> tensor<1x1024x!tt.ptr<f32>> loc(#loc384)
      %tmp52_345 = tt.addptr %tmp52_344, %tmp52 : tensor<1x1024x!tt.ptr<f32>>, tensor<1x1024xi32> loc(#loc384)
      %tmp52_346 = arith.andi %r0_mask_24, %tmp2_31 : tensor<1x1024xi1> loc(#loc385)
      %tmp52_347 = tt.broadcast %xmask_8 : tensor<1x1xi1> -> tensor<1x1024xi1> loc(#loc386)
      %tmp52_348 = arith.andi %tmp52_346, %tmp52_347 : tensor<1x1024xi1> loc(#loc386)
      %tmp52_349 = arith.constant 0.000000e+00 : f32 loc(#loc387)
      %tmp52_350 = arith.constant dense<0.000000e+00> : tensor<1x1024xf32> loc(#loc387)
      %tmp52_351 = tt.load %tmp52_345, %tmp52_348, %tmp52_350 evictionPolicy = evict_last : tensor<1x1024x!tt.ptr<f32>> loc(#loc387)
      %tmp53 = arith.constant dense<1.000000e-07> : tensor<1x1024xf32> loc(#loc388)
      %tmp53_352 = arith.addf %tmp52_351, %tmp53 : tensor<1x1024xf32> loc(#loc388)
      %tmp54 = arith.divf %tmp49, %tmp53_352 : tensor<1x1024xf32> loc(#loc389)
      %tmp55 = arith.divf %tmp54, %tmp53_352 : tensor<1x1024xf32> loc(#loc390)
      %tmp56 = arith.mulf %tmp46_318, %tmp55 : tensor<1x1024xf32> loc(#loc391)
      %tmp57 = arith.constant 0.000000e+00 : f32 loc(#loc392)
      %tmp57_353 = arith.constant dense<0.000000e+00> : tensor<1x1024xf32> loc(#loc392)
      %tmp58 = arith.select %tmp2_31, %tmp56, %tmp57_353 : tensor<1x1024xi1>, tensor<1x1024xf32> loc(#loc393)
      %tmp61 = arith.addf %_tmp60_22, %tmp58 : tensor<1x1024xf32> loc(#loc394)
      %_tmp60_354 = tt.broadcast %xmask_8 : tensor<1x1xi1> -> tensor<1x1024xi1> loc(#loc395)
      %_tmp60_355 = arith.andi %r0_mask_24, %_tmp60_354 : tensor<1x1024xi1> loc(#loc395)
      %_tmp60_356 = arith.select %_tmp60_355, %tmp61, %_tmp60_22 : tensor<1x1024xi1>, tensor<1x1024xf32> loc(#loc396)
      scf.yield %_tmp33_198, %_tmp60_356 : tensor<1x1024xf32>, tensor<1x1024xf32> loc(#loc181)
    } loc(#loc404)
    %tmp33 = tt.call @"triton.language.standard.sum__fp32S1_1024S__(1,)cconstexpr_1__(2,)cconstexpr_False__(3,)cNone"(%_tmp60_18#0) : (tensor<1x1024xf32>) -> tensor<1xf32> loc(#loc397)
    %tmp33_19 = tt.expand_dims %tmp33 {axis = 1 : i32} : tensor<1xf32> -> tensor<1x1xf32> loc(#loc398)
    %tmp60 = tt.call @"triton.language.standard.sum__fp32S1_1024S__(1,)cconstexpr_1__(2,)cconstexpr_False__(3,)cNone"(%_tmp60_18#1) : (tensor<1x1024xf32>) -> tensor<1xf32> loc(#loc399)
    %tmp60_20 = tt.expand_dims %tmp60 {axis = 1 : i32} : tensor<1xf32> -> tensor<1x1xf32> loc(#loc400)
    %4 = tt.splat %out_ptr0 : !tt.ptr<f32> -> tensor<1x1x!tt.ptr<f32>> loc(#loc186)
    %5 = tt.addptr %4, %xindex_7 : tensor<1x1x!tt.ptr<f32>>, tensor<1x1xi32> loc(#loc186)
    tt.store %5, %tmp33_19, %xmask_8 : tensor<1x1x!tt.ptr<f32>> loc(#loc187)
    %6 = tt.splat %out_ptr1 : !tt.ptr<f32> -> tensor<1x1x!tt.ptr<f32>> loc(#loc188)
    %7 = tt.addptr %6, %xindex_7 : tensor<1x1x!tt.ptr<f32>>, tensor<1x1xi32> loc(#loc188)
    tt.store %7, %tmp60_20, %xmask_8 : tensor<1x1x!tt.ptr<f32>> loc(#loc189)
    tt.return loc(#loc190)
  } loc(#loc)
  tt.func private @"triton.language.standard.sum__fp32S1_1024S__(1,)cconstexpr_1__(2,)cconstexpr_False__(3,)cNone"(%input: tensor<1x1024xf32> loc("input"(#loc191))) -> tensor<1xf32> attributes {noinline = false} {
    %0 = "tt.reduce"(%input) <{axis = 1 : i32}> ({
    ^bb0(%arg1: f32 loc(unknown), %arg2: f32 loc(unknown)):
      %2 = tt.call @triton.language.standard._sum_combine__fp32_fp32__(%arg1, %arg2) : (f32, f32) -> f32 loc(#loc192)
      tt.reduce.return %2 : f32 loc(#loc192)
    }) : (tensor<1x1024xf32>) -> tensor<1xf32> loc(#loc192)
    tt.return %0 : tensor<1xf32> loc(#loc194)
  ^bb1:  // no predecessors
    %1 = ub.poison : tensor<1xf32> loc(#loc195)
    tt.return %1 : tensor<1xf32> loc(#loc195)
  } loc(#loc191)
  tt.func private @triton.language.standard._sum_combine__fp32_fp32__(%a: f32 loc("a"(#loc196)), %b: f32 loc("b"(#loc196))) -> f32 attributes {noinline = false} {
    %0 = arith.addf %a, %b : f32 loc(#loc197)
    tt.return %0 : f32 loc(#loc198)
  ^bb1:  // no predecessors
    %1 = ub.poison : f32 loc(#loc199)
    tt.return %1 : f32 loc(#loc199)
  } loc(#loc196)
} loc(#loc)
#loc1 = loc("/NHNHOME/WORKSPACE/26msit001_A/jinhyeok/loop_TTT/lact/.cache_inductor_llm/pb/cpbby7fucwlqyksbk5ms4j5pnjk2pdr4wmyi6yxfo44amp7nb47y.py":19:13)
#loc2 = loc("/NHNHOME/WORKSPACE/26msit001_A/jinhyeok/loop_TTT/lact/.cache_inductor_llm/pb/cpbby7fucwlqyksbk5ms4j5pnjk2pdr4wmyi6yxfo44amp7nb47y.py":20:15)
#loc3 = loc("/NHNHOME/WORKSPACE/26msit001_A/jinhyeok/loop_TTT/lact/.cache_inductor_llm/pb/cpbby7fucwlqyksbk5ms4j5pnjk2pdr4wmyi6yxfo44amp7nb47y.py":23:28)
#loc4 = loc("/NHNHOME/WORKSPACE/26msit001_A/jinhyeok/loop_TTT/lact/.cache_inductor_llm/pb/cpbby7fucwlqyksbk5ms4j5pnjk2pdr4wmyi6yxfo44amp7nb47y.py":23:33)
#loc5 = loc("/NHNHOME/WORKSPACE/26msit001_A/jinhyeok/loop_TTT/lact/.cache_inductor_llm/pb/cpbby7fucwlqyksbk5ms4j5pnjk2pdr4wmyi6yxfo44amp7nb47y.py":24:36)
#loc6 = loc("/NHNHOME/WORKSPACE/26msit001_A/jinhyeok/loop_TTT/lact/.cache_inductor_llm/pb/cpbby7fucwlqyksbk5ms4j5pnjk2pdr4wmyi6yxfo44amp7nb47y.py":24:44)
#loc7 = loc("/NHNHOME/WORKSPACE/26msit001_A/jinhyeok/loop_TTT/lact/.cache_inductor_llm/pb/cpbby7fucwlqyksbk5ms4j5pnjk2pdr4wmyi6yxfo44amp7nb47y.py":24:23)
#loc8 = loc("/NHNHOME/WORKSPACE/26msit001_A/jinhyeok/loop_TTT/lact/.cache_inductor_llm/pb/cpbby7fucwlqyksbk5ms4j5pnjk2pdr4wmyi6yxfo44amp7nb47y.py":25:21)
#loc9 = loc("/NHNHOME/WORKSPACE/26msit001_A/jinhyeok/loop_TTT/lact/.cache_inductor_llm/pb/cpbby7fucwlqyksbk5ms4j5pnjk2pdr4wmyi6yxfo44amp7nb47y.py":26:27)
#loc10 = loc("/NHNHOME/WORKSPACE/26msit001_A/jinhyeok/loop_TTT/lact/.cache_inductor_llm/pb/cpbby7fucwlqyksbk5ms4j5pnjk2pdr4wmyi6yxfo44amp7nb47y.py":26:37)
#loc11 = loc("/NHNHOME/WORKSPACE/26msit001_A/jinhyeok/loop_TTT/lact/.cache_inductor_llm/pb/cpbby7fucwlqyksbk5ms4j5pnjk2pdr4wmyi6yxfo44amp7nb47y.py":28:19)
#loc12 = loc("/NHNHOME/WORKSPACE/26msit001_A/jinhyeok/loop_TTT/lact/.cache_inductor_llm/pb/cpbby7fucwlqyksbk5ms4j5pnjk2pdr4wmyi6yxfo44amp7nb47y.py":29:19)
#loc13 = loc("/NHNHOME/WORKSPACE/26msit001_A/jinhyeok/loop_TTT/lact/.cache_inductor_llm/pb/cpbby7fucwlqyksbk5ms4j5pnjk2pdr4wmyi6yxfo44amp7nb47y.py":30:44)
#loc14 = loc("/NHNHOME/WORKSPACE/26msit001_A/jinhyeok/loop_TTT/lact/.cache_inductor_llm/pb/cpbby7fucwlqyksbk5ms4j5pnjk2pdr4wmyi6yxfo44amp7nb47y.py":32:44)
#loc15 = loc("/NHNHOME/WORKSPACE/26msit001_A/jinhyeok/loop_TTT/lact/.cache_inductor_llm/pb/cpbby7fucwlqyksbk5ms4j5pnjk2pdr4wmyi6yxfo44amp7nb47y.py":33:40)
#loc16 = loc("/NHNHOME/WORKSPACE/26msit001_A/jinhyeok/loop_TTT/lact/.cache_inductor_llm/pb/cpbby7fucwlqyksbk5ms4j5pnjk2pdr4wmyi6yxfo44amp7nb47y.py":34:31)
#loc17 = loc("/NHNHOME/WORKSPACE/26msit001_A/jinhyeok/loop_TTT/lact/.cache_inductor_llm/pb/cpbby7fucwlqyksbk5ms4j5pnjk2pdr4wmyi6yxfo44amp7nb47y.py":35:29)
#loc18 = loc("/NHNHOME/WORKSPACE/26msit001_A/jinhyeok/loop_TTT/lact/.cache_inductor_llm/pb/cpbby7fucwlqyksbk5ms4j5pnjk2pdr4wmyi6yxfo44amp7nb47y.py":39:27)
#loc19 = loc("/NHNHOME/WORKSPACE/26msit001_A/jinhyeok/loop_TTT/lact/.cache_inductor_llm/pb/cpbby7fucwlqyksbk5ms4j5pnjk2pdr4wmyi6yxfo44amp7nb47y.py":39:22)
#loc20 = loc("/NHNHOME/WORKSPACE/26msit001_A/jinhyeok/loop_TTT/lact/.cache_inductor_llm/pb/cpbby7fucwlqyksbk5ms4j5pnjk2pdr4wmyi6yxfo44amp7nb47y.py":40:38)
#loc21 = loc("/NHNHOME/WORKSPACE/26msit001_A/jinhyeok/loop_TTT/lact/.cache_inductor_llm/pb/cpbby7fucwlqyksbk5ms4j5pnjk2pdr4wmyi6yxfo44amp7nb47y.py":41:22)
#loc22 = loc("/NHNHOME/WORKSPACE/26msit001_A/jinhyeok/loop_TTT/lact/.cache_inductor_llm/pb/cpbby7fucwlqyksbk5ms4j5pnjk2pdr4wmyi6yxfo44amp7nb47y.py":42:40)
#loc23 = loc("/NHNHOME/WORKSPACE/26msit001_A/jinhyeok/loop_TTT/lact/.cache_inductor_llm/pb/cpbby7fucwlqyksbk5ms4j5pnjk2pdr4wmyi6yxfo44amp7nb47y.py":42:60)
#loc24 = loc("/NHNHOME/WORKSPACE/26msit001_A/jinhyeok/loop_TTT/lact/.cache_inductor_llm/pb/cpbby7fucwlqyksbk5ms4j5pnjk2pdr4wmyi6yxfo44amp7nb47y.py":42:55)
#loc25 = loc("/NHNHOME/WORKSPACE/26msit001_A/jinhyeok/loop_TTT/lact/.cache_inductor_llm/pb/cpbby7fucwlqyksbk5ms4j5pnjk2pdr4wmyi6yxfo44amp7nb47y.py":42:66)
#loc26 = loc("/NHNHOME/WORKSPACE/26msit001_A/jinhyeok/loop_TTT/lact/.cache_inductor_llm/pb/cpbby7fucwlqyksbk5ms4j5pnjk2pdr4wmyi6yxfo44amp7nb47y.py":42:47)
#loc27 = loc("/NHNHOME/WORKSPACE/26msit001_A/jinhyeok/loop_TTT/lact/.cache_inductor_llm/pb/cpbby7fucwlqyksbk5ms4j5pnjk2pdr4wmyi6yxfo44amp7nb47y.py":42:34)
#loc28 = loc("/NHNHOME/WORKSPACE/26msit001_A/jinhyeok/loop_TTT/lact/.cache_inductor_llm/pb/cpbby7fucwlqyksbk5ms4j5pnjk2pdr4wmyi6yxfo44amp7nb47y.py":42:86)
#loc29 = loc("/NHNHOME/WORKSPACE/26msit001_A/jinhyeok/loop_TTT/lact/.cache_inductor_llm/pb/cpbby7fucwlqyksbk5ms4j5pnjk2pdr4wmyi6yxfo44amp7nb47y.py":42:93)
#loc30 = loc("/NHNHOME/WORKSPACE/26msit001_A/jinhyeok/loop_TTT/lact/.cache_inductor_llm/pb/cpbby7fucwlqyksbk5ms4j5pnjk2pdr4wmyi6yxfo44amp7nb47y.py":42:76)
#loc31 = loc("/NHNHOME/WORKSPACE/26msit001_A/jinhyeok/loop_TTT/lact/.cache_inductor_llm/pb/cpbby7fucwlqyksbk5ms4j5pnjk2pdr4wmyi6yxfo44amp7nb47y.py":42:144)
#loc32 = loc("/NHNHOME/WORKSPACE/26msit001_A/jinhyeok/loop_TTT/lact/.cache_inductor_llm/pb/cpbby7fucwlqyksbk5ms4j5pnjk2pdr4wmyi6yxfo44amp7nb47y.py":44:40)
#loc33 = loc("/NHNHOME/WORKSPACE/26msit001_A/jinhyeok/loop_TTT/lact/.cache_inductor_llm/pb/cpbby7fucwlqyksbk5ms4j5pnjk2pdr4wmyi6yxfo44amp7nb47y.py":44:60)
#loc34 = loc("/NHNHOME/WORKSPACE/26msit001_A/jinhyeok/loop_TTT/lact/.cache_inductor_llm/pb/cpbby7fucwlqyksbk5ms4j5pnjk2pdr4wmyi6yxfo44amp7nb47y.py":44:55)
#loc35 = loc("/NHNHOME/WORKSPACE/26msit001_A/jinhyeok/loop_TTT/lact/.cache_inductor_llm/pb/cpbby7fucwlqyksbk5ms4j5pnjk2pdr4wmyi6yxfo44amp7nb47y.py":44:66)
#loc36 = loc("/NHNHOME/WORKSPACE/26msit001_A/jinhyeok/loop_TTT/lact/.cache_inductor_llm/pb/cpbby7fucwlqyksbk5ms4j5pnjk2pdr4wmyi6yxfo44amp7nb47y.py":44:47)
#loc37 = loc("/NHNHOME/WORKSPACE/26msit001_A/jinhyeok/loop_TTT/lact/.cache_inductor_llm/pb/cpbby7fucwlqyksbk5ms4j5pnjk2pdr4wmyi6yxfo44amp7nb47y.py":44:34)
#loc38 = loc("/NHNHOME/WORKSPACE/26msit001_A/jinhyeok/loop_TTT/lact/.cache_inductor_llm/pb/cpbby7fucwlqyksbk5ms4j5pnjk2pdr4wmyi6yxfo44amp7nb47y.py":44:86)
#loc39 = loc("/NHNHOME/WORKSPACE/26msit001_A/jinhyeok/loop_TTT/lact/.cache_inductor_llm/pb/cpbby7fucwlqyksbk5ms4j5pnjk2pdr4wmyi6yxfo44amp7nb47y.py":44:93)
#loc40 = loc("/NHNHOME/WORKSPACE/26msit001_A/jinhyeok/loop_TTT/lact/.cache_inductor_llm/pb/cpbby7fucwlqyksbk5ms4j5pnjk2pdr4wmyi6yxfo44amp7nb47y.py":44:76)
#loc41 = loc("/NHNHOME/WORKSPACE/26msit001_A/jinhyeok/loop_TTT/lact/.cache_inductor_llm/pb/cpbby7fucwlqyksbk5ms4j5pnjk2pdr4wmyi6yxfo44amp7nb47y.py":45:15)
#loc42 = loc("/NHNHOME/WORKSPACE/26msit001_A/jinhyeok/loop_TTT/lact/.cache_inductor_llm/pb/cpbby7fucwlqyksbk5ms4j5pnjk2pdr4wmyi6yxfo44amp7nb47y.py":46:22)
#loc43 = loc("/NHNHOME/WORKSPACE/26msit001_A/jinhyeok/loop_TTT/lact/.cache_inductor_llm/pb/cpbby7fucwlqyksbk5ms4j5pnjk2pdr4wmyi6yxfo44amp7nb47y.py":47:22)
#loc44 = loc("/NHNHOME/WORKSPACE/26msit001_A/jinhyeok/loop_TTT/lact/.cache_inductor_llm/pb/cpbby7fucwlqyksbk5ms4j5pnjk2pdr4wmyi6yxfo44amp7nb47y.py":48:40)
#loc45 = loc("/NHNHOME/WORKSPACE/26msit001_A/jinhyeok/loop_TTT/lact/.cache_inductor_llm/pb/cpbby7fucwlqyksbk5ms4j5pnjk2pdr4wmyi6yxfo44amp7nb47y.py":48:60)
#loc46 = loc("/NHNHOME/WORKSPACE/26msit001_A/jinhyeok/loop_TTT/lact/.cache_inductor_llm/pb/cpbby7fucwlqyksbk5ms4j5pnjk2pdr4wmyi6yxfo44amp7nb47y.py":48:55)
#loc47 = loc("/NHNHOME/WORKSPACE/26msit001_A/jinhyeok/loop_TTT/lact/.cache_inductor_llm/pb/cpbby7fucwlqyksbk5ms4j5pnjk2pdr4wmyi6yxfo44amp7nb47y.py":48:66)
#loc48 = loc("/NHNHOME/WORKSPACE/26msit001_A/jinhyeok/loop_TTT/lact/.cache_inductor_llm/pb/cpbby7fucwlqyksbk5ms4j5pnjk2pdr4wmyi6yxfo44amp7nb47y.py":48:47)
#loc49 = loc("/NHNHOME/WORKSPACE/26msit001_A/jinhyeok/loop_TTT/lact/.cache_inductor_llm/pb/cpbby7fucwlqyksbk5ms4j5pnjk2pdr4wmyi6yxfo44amp7nb47y.py":48:34)
#loc50 = loc("/NHNHOME/WORKSPACE/26msit001_A/jinhyeok/loop_TTT/lact/.cache_inductor_llm/pb/cpbby7fucwlqyksbk5ms4j5pnjk2pdr4wmyi6yxfo44amp7nb47y.py":48:86)
#loc51 = loc("/NHNHOME/WORKSPACE/26msit001_A/jinhyeok/loop_TTT/lact/.cache_inductor_llm/pb/cpbby7fucwlqyksbk5ms4j5pnjk2pdr4wmyi6yxfo44amp7nb47y.py":48:93)
#loc52 = loc("/NHNHOME/WORKSPACE/26msit001_A/jinhyeok/loop_TTT/lact/.cache_inductor_llm/pb/cpbby7fucwlqyksbk5ms4j5pnjk2pdr4wmyi6yxfo44amp7nb47y.py":48:76)
#loc53 = loc("/NHNHOME/WORKSPACE/26msit001_A/jinhyeok/loop_TTT/lact/.cache_inductor_llm/pb/cpbby7fucwlqyksbk5ms4j5pnjk2pdr4wmyi6yxfo44amp7nb47y.py":48:144)
#loc54 = loc("/NHNHOME/WORKSPACE/26msit001_A/jinhyeok/loop_TTT/lact/.cache_inductor_llm/pb/cpbby7fucwlqyksbk5ms4j5pnjk2pdr4wmyi6yxfo44amp7nb47y.py":50:23)
#loc55 = loc("/NHNHOME/WORKSPACE/26msit001_A/jinhyeok/loop_TTT/lact/.cache_inductor_llm/pb/cpbby7fucwlqyksbk5ms4j5pnjk2pdr4wmyi6yxfo44amp7nb47y.py":51:54)
#loc56 = loc("/NHNHOME/WORKSPACE/26msit001_A/jinhyeok/loop_TTT/lact/.cache_inductor_llm/pb/cpbby7fucwlqyksbk5ms4j5pnjk2pdr4wmyi6yxfo44amp7nb47y.py":51:49)
#loc57 = loc("/NHNHOME/WORKSPACE/26msit001_A/jinhyeok/loop_TTT/lact/.cache_inductor_llm/pb/cpbby7fucwlqyksbk5ms4j5pnjk2pdr4wmyi6yxfo44amp7nb47y.py":51:60)
#loc58 = loc("/NHNHOME/WORKSPACE/26msit001_A/jinhyeok/loop_TTT/lact/.cache_inductor_llm/pb/cpbby7fucwlqyksbk5ms4j5pnjk2pdr4wmyi6yxfo44amp7nb47y.py":51:41)
#loc59 = loc("/NHNHOME/WORKSPACE/26msit001_A/jinhyeok/loop_TTT/lact/.cache_inductor_llm/pb/cpbby7fucwlqyksbk5ms4j5pnjk2pdr4wmyi6yxfo44amp7nb47y.py":51:74)
#loc60 = loc("/NHNHOME/WORKSPACE/26msit001_A/jinhyeok/loop_TTT/lact/.cache_inductor_llm/pb/cpbby7fucwlqyksbk5ms4j5pnjk2pdr4wmyi6yxfo44amp7nb47y.py":51:68)
#loc61 = loc("/NHNHOME/WORKSPACE/26msit001_A/jinhyeok/loop_TTT/lact/.cache_inductor_llm/pb/cpbby7fucwlqyksbk5ms4j5pnjk2pdr4wmyi6yxfo44amp7nb47y.py":51:95)
#loc62 = loc("/NHNHOME/WORKSPACE/26msit001_A/jinhyeok/loop_TTT/lact/.cache_inductor_llm/pb/cpbby7fucwlqyksbk5ms4j5pnjk2pdr4wmyi6yxfo44amp7nb47y.py":51:90)
#loc63 = loc("/NHNHOME/WORKSPACE/26msit001_A/jinhyeok/loop_TTT/lact/.cache_inductor_llm/pb/cpbby7fucwlqyksbk5ms4j5pnjk2pdr4wmyi6yxfo44amp7nb47y.py":51:102)
#loc64 = loc("/NHNHOME/WORKSPACE/26msit001_A/jinhyeok/loop_TTT/lact/.cache_inductor_llm/pb/cpbby7fucwlqyksbk5ms4j5pnjk2pdr4wmyi6yxfo44amp7nb47y.py":51:109)
#loc65 = loc("/NHNHOME/WORKSPACE/26msit001_A/jinhyeok/loop_TTT/lact/.cache_inductor_llm/pb/cpbby7fucwlqyksbk5ms4j5pnjk2pdr4wmyi6yxfo44amp7nb47y.py":51:81)
#loc66 = loc("/NHNHOME/WORKSPACE/26msit001_A/jinhyeok/loop_TTT/lact/.cache_inductor_llm/pb/cpbby7fucwlqyksbk5ms4j5pnjk2pdr4wmyi6yxfo44amp7nb47y.py":51:35)
#loc67 = loc("/NHNHOME/WORKSPACE/26msit001_A/jinhyeok/loop_TTT/lact/.cache_inductor_llm/pb/cpbby7fucwlqyksbk5ms4j5pnjk2pdr4wmyi6yxfo44amp7nb47y.py":51:127)
#loc68 = loc("/NHNHOME/WORKSPACE/26msit001_A/jinhyeok/loop_TTT/lact/.cache_inductor_llm/pb/cpbby7fucwlqyksbk5ms4j5pnjk2pdr4wmyi6yxfo44amp7nb47y.py":51:134)
#loc69 = loc("/NHNHOME/WORKSPACE/26msit001_A/jinhyeok/loop_TTT/lact/.cache_inductor_llm/pb/cpbby7fucwlqyksbk5ms4j5pnjk2pdr4wmyi6yxfo44amp7nb47y.py":51:117)
#loc70 = loc("/NHNHOME/WORKSPACE/26msit001_A/jinhyeok/loop_TTT/lact/.cache_inductor_llm/pb/cpbby7fucwlqyksbk5ms4j5pnjk2pdr4wmyi6yxfo44amp7nb47y.py":51:185)
#loc71 = loc("/NHNHOME/WORKSPACE/26msit001_A/jinhyeok/loop_TTT/lact/.cache_inductor_llm/pb/cpbby7fucwlqyksbk5ms4j5pnjk2pdr4wmyi6yxfo44amp7nb47y.py":53:24)
#loc72 = loc("/NHNHOME/WORKSPACE/26msit001_A/jinhyeok/loop_TTT/lact/.cache_inductor_llm/pb/cpbby7fucwlqyksbk5ms4j5pnjk2pdr4wmyi6yxfo44amp7nb47y.py":54:17)
#loc73 = loc("/NHNHOME/WORKSPACE/26msit001_A/jinhyeok/loop_TTT/lact/.cache_inductor_llm/pb/cpbby7fucwlqyksbk5ms4j5pnjk2pdr4wmyi6yxfo44amp7nb47y.py":55:41)
#loc74 = loc("/NHNHOME/WORKSPACE/26msit001_A/jinhyeok/loop_TTT/lact/.cache_inductor_llm/pb/cpbby7fucwlqyksbk5ms4j5pnjk2pdr4wmyi6yxfo44amp7nb47y.py":55:61)
#loc75 = loc("/NHNHOME/WORKSPACE/26msit001_A/jinhyeok/loop_TTT/lact/.cache_inductor_llm/pb/cpbby7fucwlqyksbk5ms4j5pnjk2pdr4wmyi6yxfo44amp7nb47y.py":55:56)
#loc76 = loc("/NHNHOME/WORKSPACE/26msit001_A/jinhyeok/loop_TTT/lact/.cache_inductor_llm/pb/cpbby7fucwlqyksbk5ms4j5pnjk2pdr4wmyi6yxfo44amp7nb47y.py":55:67)
#loc77 = loc("/NHNHOME/WORKSPACE/26msit001_A/jinhyeok/loop_TTT/lact/.cache_inductor_llm/pb/cpbby7fucwlqyksbk5ms4j5pnjk2pdr4wmyi6yxfo44amp7nb47y.py":55:48)
#loc78 = loc("/NHNHOME/WORKSPACE/26msit001_A/jinhyeok/loop_TTT/lact/.cache_inductor_llm/pb/cpbby7fucwlqyksbk5ms4j5pnjk2pdr4wmyi6yxfo44amp7nb47y.py":55:35)
#loc79 = loc("/NHNHOME/WORKSPACE/26msit001_A/jinhyeok/loop_TTT/lact/.cache_inductor_llm/pb/cpbby7fucwlqyksbk5ms4j5pnjk2pdr4wmyi6yxfo44amp7nb47y.py":55:87)
#loc80 = loc("/NHNHOME/WORKSPACE/26msit001_A/jinhyeok/loop_TTT/lact/.cache_inductor_llm/pb/cpbby7fucwlqyksbk5ms4j5pnjk2pdr4wmyi6yxfo44amp7nb47y.py":55:94)
#loc81 = loc("/NHNHOME/WORKSPACE/26msit001_A/jinhyeok/loop_TTT/lact/.cache_inductor_llm/pb/cpbby7fucwlqyksbk5ms4j5pnjk2pdr4wmyi6yxfo44amp7nb47y.py":55:77)
#loc82 = loc("/NHNHOME/WORKSPACE/26msit001_A/jinhyeok/loop_TTT/lact/.cache_inductor_llm/pb/cpbby7fucwlqyksbk5ms4j5pnjk2pdr4wmyi6yxfo44amp7nb47y.py":55:145)
#loc83 = loc("/NHNHOME/WORKSPACE/26msit001_A/jinhyeok/loop_TTT/lact/.cache_inductor_llm/pb/cpbby7fucwlqyksbk5ms4j5pnjk2pdr4wmyi6yxfo44amp7nb47y.py":57:55)
#loc84 = loc("/NHNHOME/WORKSPACE/26msit001_A/jinhyeok/loop_TTT/lact/.cache_inductor_llm/pb/cpbby7fucwlqyksbk5ms4j5pnjk2pdr4wmyi6yxfo44amp7nb47y.py":57:35)
#loc85 = loc("/NHNHOME/WORKSPACE/26msit001_A/jinhyeok/loop_TTT/lact/.cache_inductor_llm/pb/cpbby7fucwlqyksbk5ms4j5pnjk2pdr4wmyi6yxfo44amp7nb47y.py":57:87)
#loc86 = loc("/NHNHOME/WORKSPACE/26msit001_A/jinhyeok/loop_TTT/lact/.cache_inductor_llm/pb/cpbby7fucwlqyksbk5ms4j5pnjk2pdr4wmyi6yxfo44amp7nb47y.py":57:94)
#loc87 = loc("/NHNHOME/WORKSPACE/26msit001_A/jinhyeok/loop_TTT/lact/.cache_inductor_llm/pb/cpbby7fucwlqyksbk5ms4j5pnjk2pdr4wmyi6yxfo44amp7nb47y.py":57:77)
#loc88 = loc("/NHNHOME/WORKSPACE/26msit001_A/jinhyeok/loop_TTT/lact/.cache_inductor_llm/pb/cpbby7fucwlqyksbk5ms4j5pnjk2pdr4wmyi6yxfo44amp7nb47y.py":58:16)
#loc89 = loc("/NHNHOME/WORKSPACE/26msit001_A/jinhyeok/loop_TTT/lact/.cache_inductor_llm/pb/cpbby7fucwlqyksbk5ms4j5pnjk2pdr4wmyi6yxfo44amp7nb47y.py":59:24)
#loc90 = loc("/NHNHOME/WORKSPACE/26msit001_A/jinhyeok/loop_TTT/lact/.cache_inductor_llm/pb/cpbby7fucwlqyksbk5ms4j5pnjk2pdr4wmyi6yxfo44amp7nb47y.py":60:24)
#loc91 = loc("/NHNHOME/WORKSPACE/26msit001_A/jinhyeok/loop_TTT/lact/.cache_inductor_llm/pb/cpbby7fucwlqyksbk5ms4j5pnjk2pdr4wmyi6yxfo44amp7nb47y.py":63:55)
#loc92 = loc("/NHNHOME/WORKSPACE/26msit001_A/jinhyeok/loop_TTT/lact/.cache_inductor_llm/pb/cpbby7fucwlqyksbk5ms4j5pnjk2pdr4wmyi6yxfo44amp7nb47y.py":63:35)
#loc93 = loc("/NHNHOME/WORKSPACE/26msit001_A/jinhyeok/loop_TTT/lact/.cache_inductor_llm/pb/cpbby7fucwlqyksbk5ms4j5pnjk2pdr4wmyi6yxfo44amp7nb47y.py":63:87)
#loc94 = loc("/NHNHOME/WORKSPACE/26msit001_A/jinhyeok/loop_TTT/lact/.cache_inductor_llm/pb/cpbby7fucwlqyksbk5ms4j5pnjk2pdr4wmyi6yxfo44amp7nb47y.py":63:94)
#loc95 = loc("/NHNHOME/WORKSPACE/26msit001_A/jinhyeok/loop_TTT/lact/.cache_inductor_llm/pb/cpbby7fucwlqyksbk5ms4j5pnjk2pdr4wmyi6yxfo44amp7nb47y.py":63:77)
#loc96 = loc("/NHNHOME/WORKSPACE/26msit001_A/jinhyeok/loop_TTT/lact/.cache_inductor_llm/pb/cpbby7fucwlqyksbk5ms4j5pnjk2pdr4wmyi6yxfo44amp7nb47y.py":64:16)
#loc97 = loc("/NHNHOME/WORKSPACE/26msit001_A/jinhyeok/loop_TTT/lact/.cache_inductor_llm/pb/cpbby7fucwlqyksbk5ms4j5pnjk2pdr4wmyi6yxfo44amp7nb47y.py":65:24)
#loc98 = loc("/NHNHOME/WORKSPACE/26msit001_A/jinhyeok/loop_TTT/lact/.cache_inductor_llm/pb/cpbby7fucwlqyksbk5ms4j5pnjk2pdr4wmyi6yxfo44amp7nb47y.py":66:25)
#loc99 = loc("/NHNHOME/WORKSPACE/26msit001_A/jinhyeok/loop_TTT/lact/.cache_inductor_llm/pb/cpbby7fucwlqyksbk5ms4j5pnjk2pdr4wmyi6yxfo44amp7nb47y.py":67:25)
#loc100 = loc("/NHNHOME/WORKSPACE/26msit001_A/jinhyeok/loop_TTT/lact/.cache_inductor_llm/pb/cpbby7fucwlqyksbk5ms4j5pnjk2pdr4wmyi6yxfo44amp7nb47y.py":68:24)
#loc101 = loc("/NHNHOME/WORKSPACE/26msit001_A/jinhyeok/loop_TTT/lact/.cache_inductor_llm/pb/cpbby7fucwlqyksbk5ms4j5pnjk2pdr4wmyi6yxfo44amp7nb47y.py":69:40)
#loc102 = loc("/NHNHOME/WORKSPACE/26msit001_A/jinhyeok/loop_TTT/lact/.cache_inductor_llm/pb/cpbby7fucwlqyksbk5ms4j5pnjk2pdr4wmyi6yxfo44amp7nb47y.py":70:38)
#loc103 = loc("/NHNHOME/WORKSPACE/26msit001_A/jinhyeok/loop_TTT/lact/.cache_inductor_llm/pb/cpbby7fucwlqyksbk5ms4j5pnjk2pdr4wmyi6yxfo44amp7nb47y.py":72:25)
#loc104 = loc("/NHNHOME/WORKSPACE/26msit001_A/jinhyeok/loop_TTT/lact/.cache_inductor_llm/pb/cpbby7fucwlqyksbk5ms4j5pnjk2pdr4wmyi6yxfo44amp7nb47y.py":73:36)
#loc105 = loc("/NHNHOME/WORKSPACE/26msit001_A/jinhyeok/loop_TTT/lact/.cache_inductor_llm/pb/cpbby7fucwlqyksbk5ms4j5pnjk2pdr4wmyi6yxfo44amp7nb47y.py":73:50)
#loc106 = loc("/NHNHOME/WORKSPACE/26msit001_A/jinhyeok/loop_TTT/lact/.cache_inductor_llm/pb/cpbby7fucwlqyksbk5ms4j5pnjk2pdr4wmyi6yxfo44amp7nb47y.py":74:41)
#loc107 = loc("/NHNHOME/WORKSPACE/26msit001_A/jinhyeok/loop_TTT/lact/.cache_inductor_llm/pb/cpbby7fucwlqyksbk5ms4j5pnjk2pdr4wmyi6yxfo44amp7nb47y.py":74:61)
#loc108 = loc("/NHNHOME/WORKSPACE/26msit001_A/jinhyeok/loop_TTT/lact/.cache_inductor_llm/pb/cpbby7fucwlqyksbk5ms4j5pnjk2pdr4wmyi6yxfo44amp7nb47y.py":74:56)
#loc109 = loc("/NHNHOME/WORKSPACE/26msit001_A/jinhyeok/loop_TTT/lact/.cache_inductor_llm/pb/cpbby7fucwlqyksbk5ms4j5pnjk2pdr4wmyi6yxfo44amp7nb47y.py":74:67)
#loc110 = loc("/NHNHOME/WORKSPACE/26msit001_A/jinhyeok/loop_TTT/lact/.cache_inductor_llm/pb/cpbby7fucwlqyksbk5ms4j5pnjk2pdr4wmyi6yxfo44amp7nb47y.py":74:48)
#loc111 = loc("/NHNHOME/WORKSPACE/26msit001_A/jinhyeok/loop_TTT/lact/.cache_inductor_llm/pb/cpbby7fucwlqyksbk5ms4j5pnjk2pdr4wmyi6yxfo44amp7nb47y.py":74:35)
#loc112 = loc("/NHNHOME/WORKSPACE/26msit001_A/jinhyeok/loop_TTT/lact/.cache_inductor_llm/pb/cpbby7fucwlqyksbk5ms4j5pnjk2pdr4wmyi6yxfo44amp7nb47y.py":74:87)
#loc113 = loc("/NHNHOME/WORKSPACE/26msit001_A/jinhyeok/loop_TTT/lact/.cache_inductor_llm/pb/cpbby7fucwlqyksbk5ms4j5pnjk2pdr4wmyi6yxfo44amp7nb47y.py":74:94)
#loc114 = loc("/NHNHOME/WORKSPACE/26msit001_A/jinhyeok/loop_TTT/lact/.cache_inductor_llm/pb/cpbby7fucwlqyksbk5ms4j5pnjk2pdr4wmyi6yxfo44amp7nb47y.py":74:77)
#loc115 = loc("/NHNHOME/WORKSPACE/26msit001_A/jinhyeok/loop_TTT/lact/.cache_inductor_llm/pb/cpbby7fucwlqyksbk5ms4j5pnjk2pdr4wmyi6yxfo44amp7nb47y.py":74:145)
#loc116 = loc("/NHNHOME/WORKSPACE/26msit001_A/jinhyeok/loop_TTT/lact/.cache_inductor_llm/pb/cpbby7fucwlqyksbk5ms4j5pnjk2pdr4wmyi6yxfo44amp7nb47y.py":76:41)
#loc117 = loc("/NHNHOME/WORKSPACE/26msit001_A/jinhyeok/loop_TTT/lact/.cache_inductor_llm/pb/cpbby7fucwlqyksbk5ms4j5pnjk2pdr4wmyi6yxfo44amp7nb47y.py":76:61)
#loc118 = loc("/NHNHOME/WORKSPACE/26msit001_A/jinhyeok/loop_TTT/lact/.cache_inductor_llm/pb/cpbby7fucwlqyksbk5ms4j5pnjk2pdr4wmyi6yxfo44amp7nb47y.py":76:56)
#loc119 = loc("/NHNHOME/WORKSPACE/26msit001_A/jinhyeok/loop_TTT/lact/.cache_inductor_llm/pb/cpbby7fucwlqyksbk5ms4j5pnjk2pdr4wmyi6yxfo44amp7nb47y.py":76:67)
#loc120 = loc("/NHNHOME/WORKSPACE/26msit001_A/jinhyeok/loop_TTT/lact/.cache_inductor_llm/pb/cpbby7fucwlqyksbk5ms4j5pnjk2pdr4wmyi6yxfo44amp7nb47y.py":76:48)
#loc121 = loc("/NHNHOME/WORKSPACE/26msit001_A/jinhyeok/loop_TTT/lact/.cache_inductor_llm/pb/cpbby7fucwlqyksbk5ms4j5pnjk2pdr4wmyi6yxfo44amp7nb47y.py":76:35)
#loc122 = loc("/NHNHOME/WORKSPACE/26msit001_A/jinhyeok/loop_TTT/lact/.cache_inductor_llm/pb/cpbby7fucwlqyksbk5ms4j5pnjk2pdr4wmyi6yxfo44amp7nb47y.py":76:87)
#loc123 = loc("/NHNHOME/WORKSPACE/26msit001_A/jinhyeok/loop_TTT/lact/.cache_inductor_llm/pb/cpbby7fucwlqyksbk5ms4j5pnjk2pdr4wmyi6yxfo44amp7nb47y.py":76:94)
#loc124 = loc("/NHNHOME/WORKSPACE/26msit001_A/jinhyeok/loop_TTT/lact/.cache_inductor_llm/pb/cpbby7fucwlqyksbk5ms4j5pnjk2pdr4wmyi6yxfo44amp7nb47y.py":76:77)
#loc125 = loc("/NHNHOME/WORKSPACE/26msit001_A/jinhyeok/loop_TTT/lact/.cache_inductor_llm/pb/cpbby7fucwlqyksbk5ms4j5pnjk2pdr4wmyi6yxfo44amp7nb47y.py":77:24)
#loc126 = loc("/NHNHOME/WORKSPACE/26msit001_A/jinhyeok/loop_TTT/lact/.cache_inductor_llm/pb/cpbby7fucwlqyksbk5ms4j5pnjk2pdr4wmyi6yxfo44amp7nb47y.py":78:24)
#loc127 = loc("/NHNHOME/WORKSPACE/26msit001_A/jinhyeok/loop_TTT/lact/.cache_inductor_llm/pb/cpbby7fucwlqyksbk5ms4j5pnjk2pdr4wmyi6yxfo44amp7nb47y.py":79:41)
#loc128 = loc("/NHNHOME/WORKSPACE/26msit001_A/jinhyeok/loop_TTT/lact/.cache_inductor_llm/pb/cpbby7fucwlqyksbk5ms4j5pnjk2pdr4wmyi6yxfo44amp7nb47y.py":79:61)
#loc129 = loc("/NHNHOME/WORKSPACE/26msit001_A/jinhyeok/loop_TTT/lact/.cache_inductor_llm/pb/cpbby7fucwlqyksbk5ms4j5pnjk2pdr4wmyi6yxfo44amp7nb47y.py":79:56)
#loc130 = loc("/NHNHOME/WORKSPACE/26msit001_A/jinhyeok/loop_TTT/lact/.cache_inductor_llm/pb/cpbby7fucwlqyksbk5ms4j5pnjk2pdr4wmyi6yxfo44amp7nb47y.py":79:67)
#loc131 = loc("/NHNHOME/WORKSPACE/26msit001_A/jinhyeok/loop_TTT/lact/.cache_inductor_llm/pb/cpbby7fucwlqyksbk5ms4j5pnjk2pdr4wmyi6yxfo44amp7nb47y.py":79:48)
#loc132 = loc("/NHNHOME/WORKSPACE/26msit001_A/jinhyeok/loop_TTT/lact/.cache_inductor_llm/pb/cpbby7fucwlqyksbk5ms4j5pnjk2pdr4wmyi6yxfo44amp7nb47y.py":79:35)
#loc133 = loc("/NHNHOME/WORKSPACE/26msit001_A/jinhyeok/loop_TTT/lact/.cache_inductor_llm/pb/cpbby7fucwlqyksbk5ms4j5pnjk2pdr4wmyi6yxfo44amp7nb47y.py":79:87)
#loc134 = loc("/NHNHOME/WORKSPACE/26msit001_A/jinhyeok/loop_TTT/lact/.cache_inductor_llm/pb/cpbby7fucwlqyksbk5ms4j5pnjk2pdr4wmyi6yxfo44amp7nb47y.py":79:94)
#loc135 = loc("/NHNHOME/WORKSPACE/26msit001_A/jinhyeok/loop_TTT/lact/.cache_inductor_llm/pb/cpbby7fucwlqyksbk5ms4j5pnjk2pdr4wmyi6yxfo44amp7nb47y.py":79:77)
#loc136 = loc("/NHNHOME/WORKSPACE/26msit001_A/jinhyeok/loop_TTT/lact/.cache_inductor_llm/pb/cpbby7fucwlqyksbk5ms4j5pnjk2pdr4wmyi6yxfo44amp7nb47y.py":79:145)
#loc137 = loc("/NHNHOME/WORKSPACE/26msit001_A/jinhyeok/loop_TTT/lact/.cache_inductor_llm/pb/cpbby7fucwlqyksbk5ms4j5pnjk2pdr4wmyi6yxfo44amp7nb47y.py":81:24)
#loc138 = loc("/NHNHOME/WORKSPACE/26msit001_A/jinhyeok/loop_TTT/lact/.cache_inductor_llm/pb/cpbby7fucwlqyksbk5ms4j5pnjk2pdr4wmyi6yxfo44amp7nb47y.py":82:55)
#loc139 = loc("/NHNHOME/WORKSPACE/26msit001_A/jinhyeok/loop_TTT/lact/.cache_inductor_llm/pb/cpbby7fucwlqyksbk5ms4j5pnjk2pdr4wmyi6yxfo44amp7nb47y.py":82:50)
#loc140 = loc("/NHNHOME/WORKSPACE/26msit001_A/jinhyeok/loop_TTT/lact/.cache_inductor_llm/pb/cpbby7fucwlqyksbk5ms4j5pnjk2pdr4wmyi6yxfo44amp7nb47y.py":82:61)
#loc141 = loc("/NHNHOME/WORKSPACE/26msit001_A/jinhyeok/loop_TTT/lact/.cache_inductor_llm/pb/cpbby7fucwlqyksbk5ms4j5pnjk2pdr4wmyi6yxfo44amp7nb47y.py":82:42)
#loc142 = loc("/NHNHOME/WORKSPACE/26msit001_A/jinhyeok/loop_TTT/lact/.cache_inductor_llm/pb/cpbby7fucwlqyksbk5ms4j5pnjk2pdr4wmyi6yxfo44amp7nb47y.py":82:75)
#loc143 = loc("/NHNHOME/WORKSPACE/26msit001_A/jinhyeok/loop_TTT/lact/.cache_inductor_llm/pb/cpbby7fucwlqyksbk5ms4j5pnjk2pdr4wmyi6yxfo44amp7nb47y.py":82:69)
#loc144 = loc("/NHNHOME/WORKSPACE/26msit001_A/jinhyeok/loop_TTT/lact/.cache_inductor_llm/pb/cpbby7fucwlqyksbk5ms4j5pnjk2pdr4wmyi6yxfo44amp7nb47y.py":82:96)
#loc145 = loc("/NHNHOME/WORKSPACE/26msit001_A/jinhyeok/loop_TTT/lact/.cache_inductor_llm/pb/cpbby7fucwlqyksbk5ms4j5pnjk2pdr4wmyi6yxfo44amp7nb47y.py":82:91)
#loc146 = loc("/NHNHOME/WORKSPACE/26msit001_A/jinhyeok/loop_TTT/lact/.cache_inductor_llm/pb/cpbby7fucwlqyksbk5ms4j5pnjk2pdr4wmyi6yxfo44amp7nb47y.py":82:103)
#loc147 = loc("/NHNHOME/WORKSPACE/26msit001_A/jinhyeok/loop_TTT/lact/.cache_inductor_llm/pb/cpbby7fucwlqyksbk5ms4j5pnjk2pdr4wmyi6yxfo44amp7nb47y.py":82:110)
#loc148 = loc("/NHNHOME/WORKSPACE/26msit001_A/jinhyeok/loop_TTT/lact/.cache_inductor_llm/pb/cpbby7fucwlqyksbk5ms4j5pnjk2pdr4wmyi6yxfo44amp7nb47y.py":82:82)
#loc149 = loc("/NHNHOME/WORKSPACE/26msit001_A/jinhyeok/loop_TTT/lact/.cache_inductor_llm/pb/cpbby7fucwlqyksbk5ms4j5pnjk2pdr4wmyi6yxfo44amp7nb47y.py":82:36)
#loc150 = loc("/NHNHOME/WORKSPACE/26msit001_A/jinhyeok/loop_TTT/lact/.cache_inductor_llm/pb/cpbby7fucwlqyksbk5ms4j5pnjk2pdr4wmyi6yxfo44amp7nb47y.py":82:128)
#loc151 = loc("/NHNHOME/WORKSPACE/26msit001_A/jinhyeok/loop_TTT/lact/.cache_inductor_llm/pb/cpbby7fucwlqyksbk5ms4j5pnjk2pdr4wmyi6yxfo44amp7nb47y.py":82:135)
#loc152 = loc("/NHNHOME/WORKSPACE/26msit001_A/jinhyeok/loop_TTT/lact/.cache_inductor_llm/pb/cpbby7fucwlqyksbk5ms4j5pnjk2pdr4wmyi6yxfo44amp7nb47y.py":82:118)
#loc153 = loc("/NHNHOME/WORKSPACE/26msit001_A/jinhyeok/loop_TTT/lact/.cache_inductor_llm/pb/cpbby7fucwlqyksbk5ms4j5pnjk2pdr4wmyi6yxfo44amp7nb47y.py":82:186)
#loc154 = loc("/NHNHOME/WORKSPACE/26msit001_A/jinhyeok/loop_TTT/lact/.cache_inductor_llm/pb/cpbby7fucwlqyksbk5ms4j5pnjk2pdr4wmyi6yxfo44amp7nb47y.py":84:24)
#loc155 = loc("/NHNHOME/WORKSPACE/26msit001_A/jinhyeok/loop_TTT/lact/.cache_inductor_llm/pb/cpbby7fucwlqyksbk5ms4j5pnjk2pdr4wmyi6yxfo44amp7nb47y.py":85:17)
#loc156 = loc("/NHNHOME/WORKSPACE/26msit001_A/jinhyeok/loop_TTT/lact/.cache_inductor_llm/pb/cpbby7fucwlqyksbk5ms4j5pnjk2pdr4wmyi6yxfo44amp7nb47y.py":86:42)
#loc157 = loc("/NHNHOME/WORKSPACE/26msit001_A/jinhyeok/loop_TTT/lact/.cache_inductor_llm/pb/cpbby7fucwlqyksbk5ms4j5pnjk2pdr4wmyi6yxfo44amp7nb47y.py":86:62)
#loc158 = loc("/NHNHOME/WORKSPACE/26msit001_A/jinhyeok/loop_TTT/lact/.cache_inductor_llm/pb/cpbby7fucwlqyksbk5ms4j5pnjk2pdr4wmyi6yxfo44amp7nb47y.py":86:57)
#loc159 = loc("/NHNHOME/WORKSPACE/26msit001_A/jinhyeok/loop_TTT/lact/.cache_inductor_llm/pb/cpbby7fucwlqyksbk5ms4j5pnjk2pdr4wmyi6yxfo44amp7nb47y.py":86:68)
#loc160 = loc("/NHNHOME/WORKSPACE/26msit001_A/jinhyeok/loop_TTT/lact/.cache_inductor_llm/pb/cpbby7fucwlqyksbk5ms4j5pnjk2pdr4wmyi6yxfo44amp7nb47y.py":86:49)
#loc161 = loc("/NHNHOME/WORKSPACE/26msit001_A/jinhyeok/loop_TTT/lact/.cache_inductor_llm/pb/cpbby7fucwlqyksbk5ms4j5pnjk2pdr4wmyi6yxfo44amp7nb47y.py":86:36)
#loc162 = loc("/NHNHOME/WORKSPACE/26msit001_A/jinhyeok/loop_TTT/lact/.cache_inductor_llm/pb/cpbby7fucwlqyksbk5ms4j5pnjk2pdr4wmyi6yxfo44amp7nb47y.py":86:88)
#loc163 = loc("/NHNHOME/WORKSPACE/26msit001_A/jinhyeok/loop_TTT/lact/.cache_inductor_llm/pb/cpbby7fucwlqyksbk5ms4j5pnjk2pdr4wmyi6yxfo44amp7nb47y.py":86:95)
#loc164 = loc("/NHNHOME/WORKSPACE/26msit001_A/jinhyeok/loop_TTT/lact/.cache_inductor_llm/pb/cpbby7fucwlqyksbk5ms4j5pnjk2pdr4wmyi6yxfo44amp7nb47y.py":86:78)
#loc165 = loc("/NHNHOME/WORKSPACE/26msit001_A/jinhyeok/loop_TTT/lact/.cache_inductor_llm/pb/cpbby7fucwlqyksbk5ms4j5pnjk2pdr4wmyi6yxfo44amp7nb47y.py":86:146)
#loc166 = loc("/NHNHOME/WORKSPACE/26msit001_A/jinhyeok/loop_TTT/lact/.cache_inductor_llm/pb/cpbby7fucwlqyksbk5ms4j5pnjk2pdr4wmyi6yxfo44amp7nb47y.py":88:24)
#loc167 = loc("/NHNHOME/WORKSPACE/26msit001_A/jinhyeok/loop_TTT/lact/.cache_inductor_llm/pb/cpbby7fucwlqyksbk5ms4j5pnjk2pdr4wmyi6yxfo44amp7nb47y.py":91:56)
#loc168 = loc("/NHNHOME/WORKSPACE/26msit001_A/jinhyeok/loop_TTT/lact/.cache_inductor_llm/pb/cpbby7fucwlqyksbk5ms4j5pnjk2pdr4wmyi6yxfo44amp7nb47y.py":91:36)
#loc169 = loc("/NHNHOME/WORKSPACE/26msit001_A/jinhyeok/loop_TTT/lact/.cache_inductor_llm/pb/cpbby7fucwlqyksbk5ms4j5pnjk2pdr4wmyi6yxfo44amp7nb47y.py":91:88)
#loc170 = loc("/NHNHOME/WORKSPACE/26msit001_A/jinhyeok/loop_TTT/lact/.cache_inductor_llm/pb/cpbby7fucwlqyksbk5ms4j5pnjk2pdr4wmyi6yxfo44amp7nb47y.py":91:95)
#loc171 = loc("/NHNHOME/WORKSPACE/26msit001_A/jinhyeok/loop_TTT/lact/.cache_inductor_llm/pb/cpbby7fucwlqyksbk5ms4j5pnjk2pdr4wmyi6yxfo44amp7nb47y.py":91:78)
#loc172 = loc("/NHNHOME/WORKSPACE/26msit001_A/jinhyeok/loop_TTT/lact/.cache_inductor_llm/pb/cpbby7fucwlqyksbk5ms4j5pnjk2pdr4wmyi6yxfo44amp7nb47y.py":92:24)
#loc173 = loc("/NHNHOME/WORKSPACE/26msit001_A/jinhyeok/loop_TTT/lact/.cache_inductor_llm/pb/cpbby7fucwlqyksbk5ms4j5pnjk2pdr4wmyi6yxfo44amp7nb47y.py":93:25)
#loc174 = loc("/NHNHOME/WORKSPACE/26msit001_A/jinhyeok/loop_TTT/lact/.cache_inductor_llm/pb/cpbby7fucwlqyksbk5ms4j5pnjk2pdr4wmyi6yxfo44amp7nb47y.py":94:25)
#loc175 = loc("/NHNHOME/WORKSPACE/26msit001_A/jinhyeok/loop_TTT/lact/.cache_inductor_llm/pb/cpbby7fucwlqyksbk5ms4j5pnjk2pdr4wmyi6yxfo44amp7nb47y.py":95:24)
#loc176 = loc("/NHNHOME/WORKSPACE/26msit001_A/jinhyeok/loop_TTT/lact/.cache_inductor_llm/pb/cpbby7fucwlqyksbk5ms4j5pnjk2pdr4wmyi6yxfo44amp7nb47y.py":96:40)
#loc177 = loc("/NHNHOME/WORKSPACE/26msit001_A/jinhyeok/loop_TTT/lact/.cache_inductor_llm/pb/cpbby7fucwlqyksbk5ms4j5pnjk2pdr4wmyi6yxfo44amp7nb47y.py":97:38)
#loc178 = loc("/NHNHOME/WORKSPACE/26msit001_A/jinhyeok/loop_TTT/lact/.cache_inductor_llm/pb/cpbby7fucwlqyksbk5ms4j5pnjk2pdr4wmyi6yxfo44amp7nb47y.py":99:25)
#loc179 = loc("/NHNHOME/WORKSPACE/26msit001_A/jinhyeok/loop_TTT/lact/.cache_inductor_llm/pb/cpbby7fucwlqyksbk5ms4j5pnjk2pdr4wmyi6yxfo44amp7nb47y.py":100:36)
#loc180 = loc("/NHNHOME/WORKSPACE/26msit001_A/jinhyeok/loop_TTT/lact/.cache_inductor_llm/pb/cpbby7fucwlqyksbk5ms4j5pnjk2pdr4wmyi6yxfo44amp7nb47y.py":100:50)
#loc181 = loc("/NHNHOME/WORKSPACE/26msit001_A/jinhyeok/loop_TTT/lact/.cache_inductor_llm/pb/cpbby7fucwlqyksbk5ms4j5pnjk2pdr4wmyi6yxfo44amp7nb47y.py":100:8)
#loc182 = loc("/NHNHOME/WORKSPACE/26msit001_A/jinhyeok/loop_TTT/lact/.cache_inductor_llm/pb/cpbby7fucwlqyksbk5ms4j5pnjk2pdr4wmyi6yxfo44amp7nb47y.py":101:27)
#loc183 = loc("/NHNHOME/WORKSPACE/26msit001_A/jinhyeok/loop_TTT/lact/.cache_inductor_llm/pb/cpbby7fucwlqyksbk5ms4j5pnjk2pdr4wmyi6yxfo44amp7nb47y.py":101:30)
#loc184 = loc("/NHNHOME/WORKSPACE/26msit001_A/jinhyeok/loop_TTT/lact/.cache_inductor_llm/pb/cpbby7fucwlqyksbk5ms4j5pnjk2pdr4wmyi6yxfo44amp7nb47y.py":102:27)
#loc185 = loc("/NHNHOME/WORKSPACE/26msit001_A/jinhyeok/loop_TTT/lact/.cache_inductor_llm/pb/cpbby7fucwlqyksbk5ms4j5pnjk2pdr4wmyi6yxfo44amp7nb47y.py":102:30)
#loc186 = loc("/NHNHOME/WORKSPACE/26msit001_A/jinhyeok/loop_TTT/lact/.cache_inductor_llm/pb/cpbby7fucwlqyksbk5ms4j5pnjk2pdr4wmyi6yxfo44amp7nb47y.py":103:25)
#loc187 = loc("/NHNHOME/WORKSPACE/26msit001_A/jinhyeok/loop_TTT/lact/.cache_inductor_llm/pb/cpbby7fucwlqyksbk5ms4j5pnjk2pdr4wmyi6yxfo44amp7nb47y.py":103:37)
#loc188 = loc("/NHNHOME/WORKSPACE/26msit001_A/jinhyeok/loop_TTT/lact/.cache_inductor_llm/pb/cpbby7fucwlqyksbk5ms4j5pnjk2pdr4wmyi6yxfo44amp7nb47y.py":104:25)
#loc189 = loc("/NHNHOME/WORKSPACE/26msit001_A/jinhyeok/loop_TTT/lact/.cache_inductor_llm/pb/cpbby7fucwlqyksbk5ms4j5pnjk2pdr4wmyi6yxfo44amp7nb47y.py":104:37)
#loc190 = loc("/NHNHOME/WORKSPACE/26msit001_A/jinhyeok/loop_TTT/lact/.cache_inductor_llm/pb/cpbby7fucwlqyksbk5ms4j5pnjk2pdr4wmyi6yxfo44amp7nb47y.py":104:4)
#loc192 = loc("/NHNHOME/WORKSPACE/26msit001_A/jinhyeok/TTT_camera_embedding/.venv_llm/lib/python3.12/site-packages/triton/language/standard.py":291:36)
#loc194 = loc("/NHNHOME/WORKSPACE/26msit001_A/jinhyeok/TTT_camera_embedding/.venv_llm/lib/python3.12/site-packages/triton/language/standard.py":291:11)
#loc195 = loc("/NHNHOME/WORKSPACE/26msit001_A/jinhyeok/TTT_camera_embedding/.venv_llm/lib/python3.12/site-packages/triton/language/standard.py":291:4)
#loc197 = loc("/NHNHOME/WORKSPACE/26msit001_A/jinhyeok/TTT_camera_embedding/.venv_llm/lib/python3.12/site-packages/triton/language/standard.py":261:15)
#loc198 = loc("/NHNHOME/WORKSPACE/26msit001_A/jinhyeok/TTT_camera_embedding/.venv_llm/lib/python3.12/site-packages/triton/language/standard.py":261:11)
#loc199 = loc("/NHNHOME/WORKSPACE/26msit001_A/jinhyeok/TTT_camera_embedding/.venv_llm/lib/python3.12/site-packages/triton/language/standard.py":261:4)
#loc217 = loc("xnumel"(#loc1))
#loc218 = loc("r0_numel"(#loc2))
#loc219 = loc("xoffset"(#loc3))
#loc220 = loc("xoffset"(#loc4))
#loc221 = loc("xindex"(#loc5))
#loc222 = loc("xindex"(#loc6))
#loc223 = loc("xindex"(#loc7))
#loc224 = loc("xmask"(#loc8))
#loc225 = loc("r0_base"(#loc9))
#loc226 = loc("r0_base"(#loc10))
#loc227 = loc("x0"(#loc11))
#loc228 = loc("x1"(#loc12))
#loc229 = loc("_tmp33"(#loc13))
#loc230 = loc("_tmp60"(#loc14))
#loc231 = loc("_tmp33"(#loc15))
#loc232 = loc("r0_index"(#loc16))
#loc233 = loc("r0_mask"(#loc17))
#loc234 = loc("tmp0"(#loc18))
#loc235 = loc("tmp0"(#loc19))
#loc236 = loc("tmp1"(#loc20))
#loc237 = loc("tmp2"(#loc21))
#loc238 = loc("tmp3"(#loc22))
#loc239 = loc("tmp3"(#loc23))
#loc240 = loc("tmp3"(#loc24))
#loc241 = loc("tmp3"(#loc25))
#loc242 = loc("tmp3"(#loc26))
#loc243 = loc("tmp3"(#loc27))
#loc244 = loc("tmp3"(#loc28))
#loc245 = loc("tmp3"(#loc29))
#loc246 = loc("tmp3"(#loc30))
#loc247 = loc("tmp3"(#loc31))
#loc248 = loc("tmp5"(#loc32))
#loc249 = loc("tmp5"(#loc33))
#loc250 = loc("tmp5"(#loc34))
#loc251 = loc("tmp5"(#loc35))
#loc252 = loc("tmp5"(#loc36))
#loc253 = loc("tmp5"(#loc37))
#loc254 = loc("tmp5"(#loc38))
#loc255 = loc("tmp5"(#loc39))
#loc256 = loc("tmp5"(#loc40))
#loc257 = loc("tmp6"(#loc41))
#loc258 = loc("tmp7"(#loc42))
#loc259 = loc("tmp8"(#loc43))
#loc260 = loc("tmp9"(#loc44))
#loc261 = loc("tmp9"(#loc45))
#loc262 = loc("tmp9"(#loc46))
#loc263 = loc("tmp9"(#loc47))
#loc264 = loc("tmp9"(#loc48))
#loc265 = loc("tmp9"(#loc49))
#loc266 = loc("tmp9"(#loc50))
#loc267 = loc("tmp9"(#loc51))
#loc268 = loc("tmp9"(#loc52))
#loc269 = loc("tmp9"(#loc53))
#loc270 = loc("tmp11"(#loc54))
#loc271 = loc("tmp12"(#loc55))
#loc272 = loc("tmp12"(#loc56))
#loc273 = loc("tmp12"(#loc57))
#loc274 = loc("tmp12"(#loc58))
#loc275 = loc("tmp12"(#loc59))
#loc276 = loc("tmp12"(#loc60))
#loc277 = loc("tmp12"(#loc61))
#loc278 = loc("tmp12"(#loc62))
#loc279 = loc("tmp12"(#loc63))
#loc280 = loc("tmp12"(#loc64))
#loc281 = loc("tmp12"(#loc65))
#loc282 = loc("tmp12"(#loc66))
#loc283 = loc("tmp12"(#loc67))
#loc284 = loc("tmp12"(#loc68))
#loc285 = loc("tmp12"(#loc69))
#loc286 = loc("tmp12"(#loc70))
#loc287 = loc("tmp14"(#loc71))
#loc288 = loc("tmp15"(#loc72))
#loc289 = loc("tmp16"(#loc73))
#loc290 = loc("tmp16"(#loc74))
#loc291 = loc("tmp16"(#loc75))
#loc292 = loc("tmp16"(#loc76))
#loc293 = loc("tmp16"(#loc77))
#loc294 = loc("tmp16"(#loc78))
#loc295 = loc("tmp16"(#loc79))
#loc296 = loc("tmp16"(#loc80))
#loc297 = loc("tmp16"(#loc81))
#loc298 = loc("tmp16"(#loc82))
#loc299 = loc("tmp18"(#loc83))
#loc300 = loc("tmp18"(#loc84))
#loc301 = loc("tmp18"(#loc85))
#loc302 = loc("tmp18"(#loc86))
#loc303 = loc("tmp18"(#loc87))
#loc304 = loc("tmp19"(#loc88))
#loc305 = loc("tmp20"(#loc89))
#loc306 = loc("tmp21"(#loc90))
#loc307 = loc("tmp24"(#loc91))
#loc308 = loc("tmp24"(#loc92))
#loc309 = loc("tmp24"(#loc93))
#loc310 = loc("tmp24"(#loc94))
#loc311 = loc("tmp24"(#loc95))
#loc312 = loc("tmp25"(#loc96))
#loc313 = loc("tmp26"(#loc97))
#loc314 = loc("tmp27"(#loc98))
#loc315 = loc("tmp28"(#loc99))
#loc316 = loc("tmp29"(#loc100))
#loc317 = loc("tmp30"(#loc101))
#loc318 = loc("tmp31"(#loc102))
#loc319 = loc("tmp34"(#loc103))
#loc320 = loc("_tmp33"(#loc104))
#loc321 = loc("_tmp33"(#loc105))
#loc322 = loc("tmp35"(#loc106))
#loc323 = loc("tmp35"(#loc107))
#loc324 = loc("tmp35"(#loc108))
#loc325 = loc("tmp35"(#loc109))
#loc326 = loc("tmp35"(#loc110))
#loc327 = loc("tmp35"(#loc111))
#loc328 = loc("tmp35"(#loc112))
#loc329 = loc("tmp35"(#loc113))
#loc330 = loc("tmp35"(#loc114))
#loc331 = loc("tmp35"(#loc115))
#loc332 = loc("tmp37"(#loc116))
#loc333 = loc("tmp37"(#loc117))
#loc334 = loc("tmp37"(#loc118))
#loc335 = loc("tmp37"(#loc119))
#loc336 = loc("tmp37"(#loc120))
#loc337 = loc("tmp37"(#loc121))
#loc338 = loc("tmp37"(#loc122))
#loc339 = loc("tmp37"(#loc123))
#loc340 = loc("tmp37"(#loc124))
#loc341 = loc("tmp38"(#loc125))
#loc342 = loc("tmp39"(#loc126))
#loc343 = loc("tmp40"(#loc127))
#loc344 = loc("tmp40"(#loc128))
#loc345 = loc("tmp40"(#loc129))
#loc346 = loc("tmp40"(#loc130))
#loc347 = loc("tmp40"(#loc131))
#loc348 = loc("tmp40"(#loc132))
#loc349 = loc("tmp40"(#loc133))
#loc350 = loc("tmp40"(#loc134))
#loc351 = loc("tmp40"(#loc135))
#loc352 = loc("tmp40"(#loc136))
#loc353 = loc("tmp42"(#loc137))
#loc354 = loc("tmp43"(#loc138))
#loc355 = loc("tmp43"(#loc139))
#loc356 = loc("tmp43"(#loc140))
#loc357 = loc("tmp43"(#loc141))
#loc358 = loc("tmp43"(#loc142))
#loc359 = loc("tmp43"(#loc143))
#loc360 = loc("tmp43"(#loc144))
#loc361 = loc("tmp43"(#loc145))
#loc362 = loc("tmp43"(#loc146))
#loc363 = loc("tmp43"(#loc147))
#loc364 = loc("tmp43"(#loc148))
#loc365 = loc("tmp43"(#loc149))
#loc366 = loc("tmp43"(#loc150))
#loc367 = loc("tmp43"(#loc151))
#loc368 = loc("tmp43"(#loc152))
#loc369 = loc("tmp43"(#loc153))
#loc370 = loc("tmp45"(#loc154))
#loc371 = loc("tmp46"(#loc155))
#loc372 = loc("tmp47"(#loc156))
#loc373 = loc("tmp47"(#loc157))
#loc374 = loc("tmp47"(#loc158))
#loc375 = loc("tmp47"(#loc159))
#loc376 = loc("tmp47"(#loc160))
#loc377 = loc("tmp47"(#loc161))
#loc378 = loc("tmp47"(#loc162))
#loc379 = loc("tmp47"(#loc163))
#loc380 = loc("tmp47"(#loc164))
#loc381 = loc("tmp47"(#loc165))
#loc382 = loc("tmp49"(#loc166))
#loc383 = loc("tmp52"(#loc167))
#loc384 = loc("tmp52"(#loc168))
#loc385 = loc("tmp52"(#loc169))
#loc386 = loc("tmp52"(#loc170))
#loc387 = loc("tmp52"(#loc171))
#loc388 = loc("tmp53"(#loc172))
#loc389 = loc("tmp54"(#loc173))
#loc390 = loc("tmp55"(#loc174))
#loc391 = loc("tmp56"(#loc175))
#loc392 = loc("tmp57"(#loc176))
#loc393 = loc("tmp58"(#loc177))
#loc394 = loc("tmp61"(#loc178))
#loc395 = loc("_tmp60"(#loc179))
#loc396 = loc("_tmp60"(#loc180))
#loc397 = loc("tmp33"(#loc182))
#loc398 = loc("tmp33"(#loc183))
#loc399 = loc("tmp60"(#loc184))
#loc400 = loc("tmp60"(#loc185))
#loc404 = loc("_tmp60"(#loc231))
