#loc = loc("/NHNHOME/WORKSPACE/26msit001_A/jinhyeok/loop_TTT/lact/.cache_inductor_llm/vx/cvxewkbkikmvdmephgxgvhfeupqa5hik73nim6nxcvp47o6ktboy.py":18:0)
#loc119 = loc("/NHNHOME/WORKSPACE/26msit001_A/jinhyeok/TTT_camera_embedding/.venv_llm/lib/python3.12/site-packages/triton/language/standard.py":285:0)
#loc121 = loc(unknown)
#loc124 = loc("/NHNHOME/WORKSPACE/26msit001_A/jinhyeok/TTT_camera_embedding/.venv_llm/lib/python3.12/site-packages/triton/language/standard.py":260:0)
#loc128 = loc("in_out_ptr0"(#loc))
#loc129 = loc("in_ptr0"(#loc))
#loc130 = loc("in_ptr1"(#loc))
#loc131 = loc("in_ptr2"(#loc))
#loc132 = loc("in_ptr3"(#loc))
#loc133 = loc("in_ptr4"(#loc))
#loc134 = loc("in_ptr5"(#loc))
#loc135 = loc("out_ptr0"(#loc))
#loc136 = loc("out_ptr2"(#loc))
#loc137 = loc("out_ptr3"(#loc))
#loc138 = loc("out_ptr6"(#loc))
#loc139 = loc("out_ptr7"(#loc))
#loc140 = loc("xnumel"(#loc))
#loc141 = loc("r0_numel"(#loc))
#loc232 = loc("input"(#loc119))
#loc233 = loc("a"(#loc124))
#loc234 = loc("b"(#loc124))
module {
  tt.func public @triton_per_fused__to_copy_add_div_linalg_vector_norm_mul_38(%in_out_ptr0: !tt.ptr<f32> {tt.divisibility = 16 : i32} loc("in_out_ptr0"(#loc)), %in_ptr0: !tt.ptr<bf16> {tt.divisibility = 16 : i32} loc("in_ptr0"(#loc)), %in_ptr1: !tt.ptr<bf16> {tt.divisibility = 16 : i32} loc("in_ptr1"(#loc)), %in_ptr2: !tt.ptr<bf16> {tt.divisibility = 16 : i32} loc("in_ptr2"(#loc)), %in_ptr3: !tt.ptr<bf16> {tt.divisibility = 16 : i32} loc("in_ptr3"(#loc)), %in_ptr4: !tt.ptr<f32> {tt.divisibility = 16 : i32} loc("in_ptr4"(#loc)), %in_ptr5: !tt.ptr<bf16> {tt.divisibility = 16 : i32} loc("in_ptr5"(#loc)), %out_ptr0: !tt.ptr<f32> {tt.divisibility = 16 : i32} loc("out_ptr0"(#loc)), %out_ptr2: !tt.ptr<bf16> {tt.divisibility = 16 : i32} loc("out_ptr2"(#loc)), %out_ptr3: !tt.ptr<bf16> {tt.divisibility = 16 : i32} loc("out_ptr3"(#loc)), %out_ptr6: !tt.ptr<bf16> {tt.divisibility = 16 : i32} loc("out_ptr6"(#loc)), %out_ptr7: !tt.ptr<bf16> {tt.divisibility = 16 : i32} loc("out_ptr7"(#loc)), %xnumel: i32 {tt.divisibility = 16 : i32} loc("xnumel"(#loc)), %r0_numel: i32 {tt.divisibility = 16 : i32} loc("r0_numel"(#loc))) attributes {noinline = false} {
    %xnumel_0 = arith.constant 6144 : i32 loc(#loc142)
    %r0_numel_1 = arith.constant 192 : i32 loc(#loc143)
    %xoffset = tt.get_program_id x : i32 loc(#loc144)
    %xoffset_2 = arith.constant 1 : i32 loc(#loc145)
    %xoffset_3 = arith.constant 1 : i32 loc(#loc145)
    %xoffset_4 = arith.muli %xoffset, %xoffset_3 : i32 loc(#loc145)
    %xindex = tt.make_range {end = 1 : i32, start = 0 : i32} : tensor<1xi32> loc(#loc146)
    %xindex_5 = tt.expand_dims %xindex {axis = 1 : i32} : tensor<1xi32> -> tensor<1x1xi32> loc(#loc147)
    %xindex_6 = tt.splat %xoffset_4 : i32 -> tensor<1x1xi32> loc(#loc148)
    %xindex_7 = arith.addi %xindex_6, %xindex_5 : tensor<1x1xi32> loc(#loc148)
    %xmask = arith.constant dense<6144> : tensor<1x1xi32> loc(#loc149)
    %xmask_8 = arith.cmpi slt, %xindex_7, %xmask : tensor<1x1xi32> loc(#loc149)
    %r0_index = tt.make_range {end = 256 : i32, start = 0 : i32} : tensor<256xi32> loc(#loc150)
    %r0_index_9 = tt.expand_dims %r0_index {axis = 0 : i32} : tensor<256xi32> -> tensor<1x256xi32> loc(#loc151)
    %r0_offset = arith.constant 0 : i32 loc(#loc152)
    %r0_mask = arith.constant dense<192> : tensor<1x256xi32> loc(#loc153)
    %r0_mask_10 = arith.cmpi slt, %r0_index_9, %r0_mask : tensor<1x256xi32> loc(#loc153)
    %tmp0 = arith.constant 192 : i32 loc(#loc154)
    %tmp0_11 = arith.constant 192 : i32 loc(#loc154)
    %tmp0_12 = arith.constant dense<192> : tensor<1x1xi32> loc(#loc154)
    %tmp0_13 = arith.muli %tmp0_12, %xindex_7 : tensor<1x1xi32> loc(#loc154)
    %tmp0_14 = tt.broadcast %tmp0_13 : tensor<1x1xi32> -> tensor<1x256xi32> loc(#loc155)
    %tmp0_15 = arith.addi %r0_index_9, %tmp0_14 : tensor<1x256xi32> loc(#loc155)
    %tmp0_16 = tt.splat %in_ptr0 : !tt.ptr<bf16> -> tensor<1x256x!tt.ptr<bf16>> loc(#loc156)
    %tmp0_17 = tt.addptr %tmp0_16, %tmp0_15 : tensor<1x256x!tt.ptr<bf16>>, tensor<1x256xi32> loc(#loc156)
    %tmp0_18 = tt.broadcast %xmask_8 : tensor<1x1xi1> -> tensor<1x256xi1> loc(#loc157)
    %tmp0_19 = arith.andi %r0_mask_10, %tmp0_18 : tensor<1x256xi1> loc(#loc157)
    %tmp0_20 = arith.constant 0.000000e+00 : f32 loc(#loc158)
    %tmp0_21 = arith.constant dense<0.000000e+00> : tensor<1x256xf32> loc(#loc158)
    %tmp0_22 = arith.truncf %tmp0_21 : tensor<1x256xf32> to tensor<1x256xbf16> loc(#loc158)
    %tmp0_23 = tt.load %tmp0_17, %tmp0_19, %tmp0_22 : tensor<1x256x!tt.ptr<bf16>> loc(#loc158)
    %tmp0_24 = arith.extf %tmp0_23 : tensor<1x256xbf16> to tensor<1x256xf32> loc(#loc159)
    %tmp7 = arith.constant 192 : i32 loc(#loc160)
    %tmp7_25 = arith.constant 192 : i32 loc(#loc160)
    %tmp7_26 = arith.constant dense<192> : tensor<1x1xi32> loc(#loc160)
    %tmp7_27 = arith.muli %tmp7_26, %xindex_7 : tensor<1x1xi32> loc(#loc160)
    %tmp7_28 = tt.broadcast %tmp7_27 : tensor<1x1xi32> -> tensor<1x256xi32> loc(#loc161)
    %tmp7_29 = arith.addi %r0_index_9, %tmp7_28 : tensor<1x256xi32> loc(#loc161)
    %tmp7_30 = tt.splat %in_out_ptr0 : !tt.ptr<f32> -> tensor<1x256x!tt.ptr<f32>> loc(#loc162)
    %tmp7_31 = tt.addptr %tmp7_30, %tmp7_29 : tensor<1x256x!tt.ptr<f32>>, tensor<1x256xi32> loc(#loc162)
    %tmp7_32 = tt.broadcast %xmask_8 : tensor<1x1xi1> -> tensor<1x256xi1> loc(#loc163)
    %tmp7_33 = arith.andi %r0_mask_10, %tmp7_32 : tensor<1x256xi1> loc(#loc163)
    %tmp7_34 = arith.constant 0.000000e+00 : f32 loc(#loc164)
    %tmp7_35 = arith.constant dense<0.000000e+00> : tensor<1x256xf32> loc(#loc164)
    %tmp7_36 = tt.load %tmp7_31, %tmp7_33, %tmp7_35 : tensor<1x256x!tt.ptr<f32>> loc(#loc164)
    %tmp10 = arith.constant 192 : i32 loc(#loc165)
    %tmp10_37 = arith.constant 192 : i32 loc(#loc165)
    %tmp10_38 = arith.constant dense<192> : tensor<1x1xi32> loc(#loc165)
    %tmp10_39 = arith.muli %tmp10_38, %xindex_7 : tensor<1x1xi32> loc(#loc165)
    %tmp10_40 = tt.broadcast %tmp10_39 : tensor<1x1xi32> -> tensor<1x256xi32> loc(#loc166)
    %tmp10_41 = arith.addi %r0_index_9, %tmp10_40 : tensor<1x256xi32> loc(#loc166)
    %tmp10_42 = tt.splat %in_ptr1 : !tt.ptr<bf16> -> tensor<1x256x!tt.ptr<bf16>> loc(#loc167)
    %tmp10_43 = tt.addptr %tmp10_42, %tmp10_41 : tensor<1x256x!tt.ptr<bf16>>, tensor<1x256xi32> loc(#loc167)
    %tmp10_44 = tt.broadcast %xmask_8 : tensor<1x1xi1> -> tensor<1x256xi1> loc(#loc168)
    %tmp10_45 = arith.andi %r0_mask_10, %tmp10_44 : tensor<1x256xi1> loc(#loc168)
    %tmp10_46 = arith.constant 0.000000e+00 : f32 loc(#loc169)
    %tmp10_47 = arith.constant dense<0.000000e+00> : tensor<1x256xf32> loc(#loc169)
    %tmp10_48 = arith.truncf %tmp10_47 : tensor<1x256xf32> to tensor<1x256xbf16> loc(#loc169)
    %tmp10_49 = tt.load %tmp10_43, %tmp10_45, %tmp10_48 : tensor<1x256x!tt.ptr<bf16>> loc(#loc169)
    %tmp10_50 = arith.extf %tmp10_49 : tensor<1x256xbf16> to tensor<1x256xf32> loc(#loc170)
    %tmp15 = arith.constant 192 : i32 loc(#loc171)
    %tmp15_51 = arith.constant 192 : i32 loc(#loc171)
    %tmp15_52 = arith.constant dense<192> : tensor<1x1xi32> loc(#loc171)
    %tmp15_53 = arith.muli %tmp15_52, %xindex_7 : tensor<1x1xi32> loc(#loc171)
    %tmp15_54 = tt.broadcast %tmp15_53 : tensor<1x1xi32> -> tensor<1x256xi32> loc(#loc172)
    %tmp15_55 = arith.addi %r0_index_9, %tmp15_54 : tensor<1x256xi32> loc(#loc172)
    %tmp15_56 = tt.splat %in_ptr2 : !tt.ptr<bf16> -> tensor<1x256x!tt.ptr<bf16>> loc(#loc173)
    %tmp15_57 = tt.addptr %tmp15_56, %tmp15_55 : tensor<1x256x!tt.ptr<bf16>>, tensor<1x256xi32> loc(#loc173)
    %tmp15_58 = tt.broadcast %xmask_8 : tensor<1x1xi1> -> tensor<1x256xi1> loc(#loc174)
    %tmp15_59 = arith.andi %r0_mask_10, %tmp15_58 : tensor<1x256xi1> loc(#loc174)
    %tmp15_60 = arith.constant 0.000000e+00 : f32 loc(#loc175)
    %tmp15_61 = arith.constant dense<0.000000e+00> : tensor<1x256xf32> loc(#loc175)
    %tmp15_62 = arith.truncf %tmp15_61 : tensor<1x256xf32> to tensor<1x256xbf16> loc(#loc175)
    %tmp15_63 = tt.load %tmp15_57, %tmp15_59, %tmp15_62 : tensor<1x256x!tt.ptr<bf16>> loc(#loc175)
    %tmp15_64 = arith.extf %tmp15_63 : tensor<1x256xbf16> to tensor<1x256xf32> loc(#loc176)
    %tmp20 = arith.constant 192 : i32 loc(#loc177)
    %tmp20_65 = arith.constant 192 : i32 loc(#loc177)
    %tmp20_66 = arith.constant dense<192> : tensor<1x1xi32> loc(#loc177)
    %tmp20_67 = arith.muli %tmp20_66, %xindex_7 : tensor<1x1xi32> loc(#loc177)
    %tmp20_68 = tt.broadcast %tmp20_67 : tensor<1x1xi32> -> tensor<1x256xi32> loc(#loc178)
    %tmp20_69 = arith.addi %r0_index_9, %tmp20_68 : tensor<1x256xi32> loc(#loc178)
    %tmp20_70 = tt.splat %in_ptr3 : !tt.ptr<bf16> -> tensor<1x256x!tt.ptr<bf16>> loc(#loc179)
    %tmp20_71 = tt.addptr %tmp20_70, %tmp20_69 : tensor<1x256x!tt.ptr<bf16>>, tensor<1x256xi32> loc(#loc179)
    %tmp20_72 = tt.broadcast %xmask_8 : tensor<1x1xi1> -> tensor<1x256xi1> loc(#loc180)
    %tmp20_73 = arith.andi %r0_mask_10, %tmp20_72 : tensor<1x256xi1> loc(#loc180)
    %tmp20_74 = arith.constant 0.000000e+00 : f32 loc(#loc181)
    %tmp20_75 = arith.constant dense<0.000000e+00> : tensor<1x256xf32> loc(#loc181)
    %tmp20_76 = arith.truncf %tmp20_75 : tensor<1x256xf32> to tensor<1x256xbf16> loc(#loc181)
    %tmp20_77 = tt.load %tmp20_71, %tmp20_73, %tmp20_76 : tensor<1x256x!tt.ptr<bf16>> loc(#loc181)
    %tmp20_78 = arith.extf %tmp20_77 : tensor<1x256xbf16> to tensor<1x256xf32> loc(#loc182)
    %tmp36 = arith.constant 192 : i32 loc(#loc183)
    %tmp36_79 = arith.constant 192 : i32 loc(#loc183)
    %tmp36_80 = arith.constant dense<192> : tensor<1x1xi32> loc(#loc183)
    %tmp36_81 = arith.muli %tmp36_80, %xindex_7 : tensor<1x1xi32> loc(#loc183)
    %tmp36_82 = tt.broadcast %tmp36_81 : tensor<1x1xi32> -> tensor<1x256xi32> loc(#loc184)
    %tmp36_83 = arith.addi %r0_index_9, %tmp36_82 : tensor<1x256xi32> loc(#loc184)
    %tmp36_84 = tt.splat %in_ptr4 : !tt.ptr<f32> -> tensor<1x256x!tt.ptr<f32>> loc(#loc185)
    %tmp36_85 = tt.addptr %tmp36_84, %tmp36_83 : tensor<1x256x!tt.ptr<f32>>, tensor<1x256xi32> loc(#loc185)
    %tmp36_86 = tt.broadcast %xmask_8 : tensor<1x1xi1> -> tensor<1x256xi1> loc(#loc186)
    %tmp36_87 = arith.andi %r0_mask_10, %tmp36_86 : tensor<1x256xi1> loc(#loc186)
    %tmp36_88 = arith.constant 0.000000e+00 : f32 loc(#loc187)
    %tmp36_89 = arith.constant dense<0.000000e+00> : tensor<1x256xf32> loc(#loc187)
    %tmp36_90 = tt.load %tmp36_85, %tmp36_87, %tmp36_89 : tensor<1x256x!tt.ptr<f32>> loc(#loc187)
    %tmp38 = arith.constant 192 : i32 loc(#loc188)
    %tmp38_91 = arith.constant 192 : i32 loc(#loc188)
    %tmp38_92 = arith.constant dense<192> : tensor<1x1xi32> loc(#loc188)
    %tmp38_93 = arith.muli %tmp38_92, %xindex_7 : tensor<1x1xi32> loc(#loc188)
    %tmp38_94 = tt.broadcast %tmp38_93 : tensor<1x1xi32> -> tensor<1x256xi32> loc(#loc189)
    %tmp38_95 = arith.addi %r0_index_9, %tmp38_94 : tensor<1x256xi32> loc(#loc189)
    %tmp38_96 = tt.splat %in_ptr5 : !tt.ptr<bf16> -> tensor<1x256x!tt.ptr<bf16>> loc(#loc190)
    %tmp38_97 = tt.addptr %tmp38_96, %tmp38_95 : tensor<1x256x!tt.ptr<bf16>>, tensor<1x256xi32> loc(#loc190)
    %tmp38_98 = tt.broadcast %xmask_8 : tensor<1x1xi1> -> tensor<1x256xi1> loc(#loc191)
    %tmp38_99 = arith.andi %r0_mask_10, %tmp38_98 : tensor<1x256xi1> loc(#loc191)
    %tmp38_100 = arith.constant 0.000000e+00 : f32 loc(#loc192)
    %tmp38_101 = arith.constant dense<0.000000e+00> : tensor<1x256xf32> loc(#loc192)
    %tmp38_102 = arith.truncf %tmp38_101 : tensor<1x256xf32> to tensor<1x256xbf16> loc(#loc192)
    %tmp38_103 = tt.load %tmp38_97, %tmp38_99, %tmp38_102 : tensor<1x256x!tt.ptr<bf16>> loc(#loc192)
    %tmp38_104 = arith.extf %tmp38_103 : tensor<1x256xbf16> to tensor<1x256xf32> loc(#loc193)
    %tmp2 = arith.mulf %tmp0_24, %tmp0_24 : tensor<1x256xf32> loc(#loc194)
    %tmp5 = tt.broadcast %xmask_8 : tensor<1x1xi1> -> tensor<1x256xi1> loc(#loc195)
    %tmp5_105 = arith.andi %r0_mask_10, %tmp5 : tensor<1x256xi1> loc(#loc195)
    %tmp5_106 = arith.constant 0 : i32 loc(#loc196)
    %tmp5_107 = arith.constant 0.000000e+00 : f32 loc(#loc196)
    %tmp5_108 = arith.constant dense<0.000000e+00> : tensor<1x256xf32> loc(#loc196)
    %tmp5_109 = arith.select %tmp5_105, %tmp2, %tmp5_108 : tensor<1x256xi1>, tensor<1x256xf32> loc(#loc196)
    %tmp6 = tt.call @"triton.language.standard.sum__fp32S1_256S__(1,)cconstexpr_1__(2,)cconstexpr_False__(3,)cNone"(%tmp5_109) : (tensor<1x256xf32>) -> tensor<1xf32> loc(#loc197)
    %tmp6_110 = tt.expand_dims %tmp6 {axis = 1 : i32} : tensor<1xf32> -> tensor<1x1xf32> loc(#loc198)
    %tmp8 = arith.constant 3.741800e+00 : f32 loc(#loc199)
    %tmp9 = arith.constant dense<3.741800e+00> : tensor<1x256xf32> loc(#loc200)
    %tmp9_111 = arith.mulf %tmp7_36, %tmp9 : tensor<1x256xf32> loc(#loc200)
    %tmp12 = arith.addf %tmp9_111, %tmp10_50 : tensor<1x256xf32> loc(#loc201)
    %tmp13 = arith.constant 2.876900e+00 : f32 loc(#loc202)
    %tmp14 = arith.constant dense<2.876900e+00> : tensor<1x256xf32> loc(#loc203)
    %tmp14_112 = arith.mulf %tmp12, %tmp14 : tensor<1x256xf32> loc(#loc203)
    %tmp17 = arith.addf %tmp14_112, %tmp15_64 : tensor<1x256xf32> loc(#loc204)
    %tmp18 = arith.constant 2.836600e+00 : f32 loc(#loc205)
    %tmp19 = arith.constant dense<2.836600e+00> : tensor<1x256xf32> loc(#loc206)
    %tmp19_113 = arith.mulf %tmp17, %tmp19 : tensor<1x256xf32> loc(#loc206)
    %tmp22 = arith.addf %tmp19_113, %tmp20_78 : tensor<1x256xf32> loc(#loc207)
    %tmp23 = arith.addf %tmp0_24, %tmp22 : tensor<1x256xf32> loc(#loc208)
    %tmp24 = arith.mulf %tmp23, %tmp23 : tensor<1x256xf32> loc(#loc209)
    %tmp27 = tt.broadcast %xmask_8 : tensor<1x1xi1> -> tensor<1x256xi1> loc(#loc210)
    %tmp27_114 = arith.andi %r0_mask_10, %tmp27 : tensor<1x256xi1> loc(#loc210)
    %tmp27_115 = arith.constant 0 : i32 loc(#loc211)
    %tmp27_116 = arith.constant 0.000000e+00 : f32 loc(#loc211)
    %tmp27_117 = arith.constant dense<0.000000e+00> : tensor<1x256xf32> loc(#loc211)
    %tmp27_118 = arith.select %tmp27_114, %tmp24, %tmp27_117 : tensor<1x256xi1>, tensor<1x256xf32> loc(#loc211)
    %tmp28 = tt.call @"triton.language.standard.sum__fp32S1_256S__(1,)cconstexpr_1__(2,)cconstexpr_False__(3,)cNone"(%tmp27_118) : (tensor<1x256xf32>) -> tensor<1xf32> loc(#loc212)
    %tmp28_119 = tt.expand_dims %tmp28 {axis = 1 : i32} : tensor<1xf32> -> tensor<1x1xf32> loc(#loc213)
    %tmp29 = tt.extern_elementwise %tmp28_119 {libname = "", libpath = "", pure = true, symbol = "__nv_sqrtf"} : (tensor<1x1xf32>) -> tensor<1x1xf32> loc(#loc214)
    %tmp30 = arith.constant 9.99999974E-6 : f32 loc(#loc215)
    %tmp31 = arith.constant dense<9.99999974E-6> : tensor<1x1xf32> loc(#loc216)
    %tmp31_120 = arith.addf %tmp29, %tmp31 : tensor<1x1xf32> loc(#loc216)
    %tmp32 = tt.broadcast %tmp31_120 : tensor<1x1xf32> -> tensor<1x256xf32> loc(#loc217)
    %tmp32_121 = arith.divf %tmp23, %tmp32 : tensor<1x256xf32> loc(#loc217)
    %tmp33 = tt.extern_elementwise %tmp6_110 {libname = "", libpath = "", pure = true, symbol = "__nv_sqrtf"} : (tensor<1x1xf32>) -> tensor<1x1xf32> loc(#loc218)
    %tmp34 = tt.broadcast %tmp33 : tensor<1x1xf32> -> tensor<1x256xf32> loc(#loc219)
    %tmp34_122 = arith.mulf %tmp32_121, %tmp34 : tensor<1x256xf32> loc(#loc219)
    %tmp37 = arith.constant dense<2.836600e+00> : tensor<1x256xf32> loc(#loc220)
    %tmp37_123 = arith.mulf %tmp36_90, %tmp37 : tensor<1x256xf32> loc(#loc220)
    %tmp40 = arith.addf %tmp37_123, %tmp38_104 : tensor<1x256xf32> loc(#loc221)
    %tmp41 = arith.addf %tmp23, %tmp40 : tensor<1x256xf32> loc(#loc222)
    %tmp42 = arith.mulf %tmp41, %tmp41 : tensor<1x256xf32> loc(#loc223)
    %tmp45 = tt.broadcast %xmask_8 : tensor<1x1xi1> -> tensor<1x256xi1> loc(#loc224)
    %tmp45_124 = arith.andi %r0_mask_10, %tmp45 : tensor<1x256xi1> loc(#loc224)
    %tmp45_125 = arith.constant 0 : i32 loc(#loc225)
    %tmp45_126 = arith.constant 0.000000e+00 : f32 loc(#loc225)
    %tmp45_127 = arith.constant dense<0.000000e+00> : tensor<1x256xf32> loc(#loc225)
    %tmp45_128 = arith.select %tmp45_124, %tmp42, %tmp45_127 : tensor<1x256xi1>, tensor<1x256xf32> loc(#loc225)
    %tmp46 = tt.call @"triton.language.standard.sum__fp32S1_256S__(1,)cconstexpr_1__(2,)cconstexpr_False__(3,)cNone"(%tmp45_128) : (tensor<1x256xf32>) -> tensor<1xf32> loc(#loc226)
    %tmp46_129 = tt.expand_dims %tmp46 {axis = 1 : i32} : tensor<1xf32> -> tensor<1x1xf32> loc(#loc227)
    %tmp47 = tt.extern_elementwise %tmp46_129 {libname = "", libpath = "", pure = true, symbol = "__nv_sqrtf"} : (tensor<1x1xf32>) -> tensor<1x1xf32> loc(#loc228)
    %tmp48 = arith.constant dense<9.99999974E-6> : tensor<1x1xf32> loc(#loc229)
    %tmp48_130 = arith.addf %tmp47, %tmp48 : tensor<1x1xf32> loc(#loc229)
    %tmp49 = tt.broadcast %tmp48_130 : tensor<1x1xf32> -> tensor<1x256xf32> loc(#loc230)
    %tmp49_131 = arith.divf %tmp41, %tmp49 : tensor<1x256xf32> loc(#loc230)
    %tmp50 = tt.broadcast %tmp33 : tensor<1x1xf32> -> tensor<1x256xf32> loc(#loc231)
    %tmp50_132 = arith.mulf %tmp49_131, %tmp50 : tensor<1x256xf32> loc(#loc231)
    %c192_i32 = arith.constant 192 : i32 loc(#loc91)
    %c192_i32_133 = arith.constant 192 : i32 loc(#loc91)
    %cst = arith.constant dense<192> : tensor<1x1xi32> loc(#loc91)
    %0 = arith.muli %cst, %xindex_7 : tensor<1x1xi32> loc(#loc91)
    %1 = tt.broadcast %0 : tensor<1x1xi32> -> tensor<1x256xi32> loc(#loc92)
    %2 = arith.addi %r0_index_9, %1 : tensor<1x256xi32> loc(#loc92)
    %3 = tt.splat %in_out_ptr0 : !tt.ptr<f32> -> tensor<1x256x!tt.ptr<f32>> loc(#loc93)
    %4 = tt.addptr %3, %2 : tensor<1x256x!tt.ptr<f32>>, tensor<1x256xi32> loc(#loc93)
    %5 = tt.broadcast %xmask_8 : tensor<1x1xi1> -> tensor<1x256xi1> loc(#loc94)
    %6 = arith.andi %r0_mask_10, %5 : tensor<1x256xi1> loc(#loc94)
    tt.store %4, %tmp23, %6 : tensor<1x256x!tt.ptr<f32>> loc(#loc95)
    %c192_i32_134 = arith.constant 192 : i32 loc(#loc96)
    %c192_i32_135 = arith.constant 192 : i32 loc(#loc96)
    %cst_136 = arith.constant dense<192> : tensor<1x1xi32> loc(#loc96)
    %7 = arith.muli %cst_136, %xindex_7 : tensor<1x1xi32> loc(#loc96)
    %8 = tt.broadcast %7 : tensor<1x1xi32> -> tensor<1x256xi32> loc(#loc97)
    %9 = arith.addi %r0_index_9, %8 : tensor<1x256xi32> loc(#loc97)
    %10 = tt.splat %out_ptr2 : !tt.ptr<bf16> -> tensor<1x256x!tt.ptr<bf16>> loc(#loc98)
    %11 = tt.addptr %10, %9 : tensor<1x256x!tt.ptr<bf16>>, tensor<1x256xi32> loc(#loc98)
    %12 = tt.broadcast %xmask_8 : tensor<1x1xi1> -> tensor<1x256xi1> loc(#loc99)
    %13 = arith.andi %r0_mask_10, %12 : tensor<1x256xi1> loc(#loc99)
    %14 = arith.truncf %tmp34_122 : tensor<1x256xf32> to tensor<1x256xbf16> loc(#loc100)
    tt.store %11, %14, %13 : tensor<1x256x!tt.ptr<bf16>> loc(#loc100)
    %c192_i32_137 = arith.constant 192 : i32 loc(#loc101)
    %c192_i32_138 = arith.constant 192 : i32 loc(#loc101)
    %cst_139 = arith.constant dense<192> : tensor<1x1xi32> loc(#loc101)
    %15 = arith.muli %cst_139, %xindex_7 : tensor<1x1xi32> loc(#loc101)
    %16 = tt.broadcast %15 : tensor<1x1xi32> -> tensor<1x256xi32> loc(#loc102)
    %17 = arith.addi %r0_index_9, %16 : tensor<1x256xi32> loc(#loc102)
    %18 = tt.splat %out_ptr3 : !tt.ptr<bf16> -> tensor<1x256x!tt.ptr<bf16>> loc(#loc103)
    %19 = tt.addptr %18, %17 : tensor<1x256x!tt.ptr<bf16>>, tensor<1x256xi32> loc(#loc103)
    %20 = tt.broadcast %xmask_8 : tensor<1x1xi1> -> tensor<1x256xi1> loc(#loc104)
    %21 = arith.andi %r0_mask_10, %20 : tensor<1x256xi1> loc(#loc104)
    %22 = arith.truncf %tmp34_122 : tensor<1x256xf32> to tensor<1x256xbf16> loc(#loc105)
    tt.store %19, %22, %21 : tensor<1x256x!tt.ptr<bf16>> loc(#loc105)
    %c192_i32_140 = arith.constant 192 : i32 loc(#loc106)
    %c192_i32_141 = arith.constant 192 : i32 loc(#loc106)
    %cst_142 = arith.constant dense<192> : tensor<1x1xi32> loc(#loc106)
    %23 = arith.muli %cst_142, %xindex_7 : tensor<1x1xi32> loc(#loc106)
    %24 = tt.broadcast %23 : tensor<1x1xi32> -> tensor<1x256xi32> loc(#loc107)
    %25 = arith.addi %r0_index_9, %24 : tensor<1x256xi32> loc(#loc107)
    %26 = tt.splat %out_ptr6 : !tt.ptr<bf16> -> tensor<1x256x!tt.ptr<bf16>> loc(#loc108)
    %27 = tt.addptr %26, %25 : tensor<1x256x!tt.ptr<bf16>>, tensor<1x256xi32> loc(#loc108)
    %28 = tt.broadcast %xmask_8 : tensor<1x1xi1> -> tensor<1x256xi1> loc(#loc109)
    %29 = arith.andi %r0_mask_10, %28 : tensor<1x256xi1> loc(#loc109)
    %30 = arith.truncf %tmp50_132 : tensor<1x256xf32> to tensor<1x256xbf16> loc(#loc110)
    tt.store %27, %30, %29 : tensor<1x256x!tt.ptr<bf16>> loc(#loc110)
    %c192_i32_143 = arith.constant 192 : i32 loc(#loc111)
    %c192_i32_144 = arith.constant 192 : i32 loc(#loc111)
    %cst_145 = arith.constant dense<192> : tensor<1x1xi32> loc(#loc111)
    %31 = arith.muli %cst_145, %xindex_7 : tensor<1x1xi32> loc(#loc111)
    %32 = tt.broadcast %31 : tensor<1x1xi32> -> tensor<1x256xi32> loc(#loc112)
    %33 = arith.addi %r0_index_9, %32 : tensor<1x256xi32> loc(#loc112)
    %34 = tt.splat %out_ptr7 : !tt.ptr<bf16> -> tensor<1x256x!tt.ptr<bf16>> loc(#loc113)
    %35 = tt.addptr %34, %33 : tensor<1x256x!tt.ptr<bf16>>, tensor<1x256xi32> loc(#loc113)
    %36 = tt.broadcast %xmask_8 : tensor<1x1xi1> -> tensor<1x256xi1> loc(#loc114)
    %37 = arith.andi %r0_mask_10, %36 : tensor<1x256xi1> loc(#loc114)
    %38 = arith.truncf %tmp50_132 : tensor<1x256xf32> to tensor<1x256xbf16> loc(#loc115)
    tt.store %35, %38, %37 : tensor<1x256x!tt.ptr<bf16>> loc(#loc115)
    %39 = tt.splat %out_ptr0 : !tt.ptr<f32> -> tensor<1x1x!tt.ptr<f32>> loc(#loc116)
    %40 = tt.addptr %39, %xindex_7 : tensor<1x1x!tt.ptr<f32>>, tensor<1x1xi32> loc(#loc116)
    tt.store %40, %tmp6_110, %xmask_8 : tensor<1x1x!tt.ptr<f32>> loc(#loc117)
    tt.return loc(#loc118)
  } loc(#loc)
  tt.func private @"triton.language.standard.sum__fp32S1_256S__(1,)cconstexpr_1__(2,)cconstexpr_False__(3,)cNone"(%input: tensor<1x256xf32> loc("input"(#loc119))) -> tensor<1xf32> attributes {noinline = false} {
    %0 = "tt.reduce"(%input) <{axis = 1 : i32}> ({
    ^bb0(%arg1: f32 loc(unknown), %arg2: f32 loc(unknown)):
      %2 = tt.call @triton.language.standard._sum_combine__fp32_fp32__(%arg1, %arg2) : (f32, f32) -> f32 loc(#loc120)
      tt.reduce.return %2 : f32 loc(#loc120)
    }) : (tensor<1x256xf32>) -> tensor<1xf32> loc(#loc120)
    tt.return %0 : tensor<1xf32> loc(#loc122)
  ^bb1:  // no predecessors
    %1 = ub.poison : tensor<1xf32> loc(#loc123)
    tt.return %1 : tensor<1xf32> loc(#loc123)
  } loc(#loc119)
  tt.func private @triton.language.standard._sum_combine__fp32_fp32__(%a: f32 loc("a"(#loc124)), %b: f32 loc("b"(#loc124))) -> f32 attributes {noinline = false} {
    %0 = arith.addf %a, %b : f32 loc(#loc125)
    tt.return %0 : f32 loc(#loc126)
  ^bb1:  // no predecessors
    %1 = ub.poison : f32 loc(#loc127)
    tt.return %1 : f32 loc(#loc127)
  } loc(#loc124)
} loc(#loc)
#loc1 = loc("/NHNHOME/WORKSPACE/26msit001_A/jinhyeok/loop_TTT/lact/.cache_inductor_llm/vx/cvxewkbkikmvdmephgxgvhfeupqa5hik73nim6nxcvp47o6ktboy.py":19:13)
#loc2 = loc("/NHNHOME/WORKSPACE/26msit001_A/jinhyeok/loop_TTT/lact/.cache_inductor_llm/vx/cvxewkbkikmvdmephgxgvhfeupqa5hik73nim6nxcvp47o6ktboy.py":20:15)
#loc3 = loc("/NHNHOME/WORKSPACE/26msit001_A/jinhyeok/loop_TTT/lact/.cache_inductor_llm/vx/cvxewkbkikmvdmephgxgvhfeupqa5hik73nim6nxcvp47o6ktboy.py":24:28)
#loc4 = loc("/NHNHOME/WORKSPACE/26msit001_A/jinhyeok/loop_TTT/lact/.cache_inductor_llm/vx/cvxewkbkikmvdmephgxgvhfeupqa5hik73nim6nxcvp47o6ktboy.py":24:33)
#loc5 = loc("/NHNHOME/WORKSPACE/26msit001_A/jinhyeok/loop_TTT/lact/.cache_inductor_llm/vx/cvxewkbkikmvdmephgxgvhfeupqa5hik73nim6nxcvp47o6ktboy.py":25:36)
#loc6 = loc("/NHNHOME/WORKSPACE/26msit001_A/jinhyeok/loop_TTT/lact/.cache_inductor_llm/vx/cvxewkbkikmvdmephgxgvhfeupqa5hik73nim6nxcvp47o6ktboy.py":25:44)
#loc7 = loc("/NHNHOME/WORKSPACE/26msit001_A/jinhyeok/loop_TTT/lact/.cache_inductor_llm/vx/cvxewkbkikmvdmephgxgvhfeupqa5hik73nim6nxcvp47o6ktboy.py":25:23)
#loc8 = loc("/NHNHOME/WORKSPACE/26msit001_A/jinhyeok/loop_TTT/lact/.cache_inductor_llm/vx/cvxewkbkikmvdmephgxgvhfeupqa5hik73nim6nxcvp47o6ktboy.py":26:21)
#loc9 = loc("/NHNHOME/WORKSPACE/26msit001_A/jinhyeok/loop_TTT/lact/.cache_inductor_llm/vx/cvxewkbkikmvdmephgxgvhfeupqa5hik73nim6nxcvp47o6ktboy.py":27:28)
#loc10 = loc("/NHNHOME/WORKSPACE/26msit001_A/jinhyeok/loop_TTT/lact/.cache_inductor_llm/vx/cvxewkbkikmvdmephgxgvhfeupqa5hik73nim6nxcvp47o6ktboy.py":27:38)
#loc11 = loc("/NHNHOME/WORKSPACE/26msit001_A/jinhyeok/loop_TTT/lact/.cache_inductor_llm/vx/cvxewkbkikmvdmephgxgvhfeupqa5hik73nim6nxcvp47o6ktboy.py":28:16)
#loc12 = loc("/NHNHOME/WORKSPACE/26msit001_A/jinhyeok/loop_TTT/lact/.cache_inductor_llm/vx/cvxewkbkikmvdmephgxgvhfeupqa5hik73nim6nxcvp47o6ktboy.py":29:25)
#loc13 = loc("/NHNHOME/WORKSPACE/26msit001_A/jinhyeok/loop_TTT/lact/.cache_inductor_llm/vx/cvxewkbkikmvdmephgxgvhfeupqa5hik73nim6nxcvp47o6ktboy.py":34:41)
#loc14 = loc("/NHNHOME/WORKSPACE/26msit001_A/jinhyeok/loop_TTT/lact/.cache_inductor_llm/vx/cvxewkbkikmvdmephgxgvhfeupqa5hik73nim6nxcvp47o6ktboy.py":34:37)
#loc15 = loc("/NHNHOME/WORKSPACE/26msit001_A/jinhyeok/loop_TTT/lact/.cache_inductor_llm/vx/cvxewkbkikmvdmephgxgvhfeupqa5hik73nim6nxcvp47o6ktboy.py":34:30)
#loc16 = loc("/NHNHOME/WORKSPACE/26msit001_A/jinhyeok/loop_TTT/lact/.cache_inductor_llm/vx/cvxewkbkikmvdmephgxgvhfeupqa5hik73nim6nxcvp47o6ktboy.py":34:56)
#loc17 = loc("/NHNHOME/WORKSPACE/26msit001_A/jinhyeok/loop_TTT/lact/.cache_inductor_llm/vx/cvxewkbkikmvdmephgxgvhfeupqa5hik73nim6nxcvp47o6ktboy.py":34:46)
#loc18 = loc("/NHNHOME/WORKSPACE/26msit001_A/jinhyeok/loop_TTT/lact/.cache_inductor_llm/vx/cvxewkbkikmvdmephgxgvhfeupqa5hik73nim6nxcvp47o6ktboy.py":34:77)
#loc19 = loc("/NHNHOME/WORKSPACE/26msit001_A/jinhyeok/loop_TTT/lact/.cache_inductor_llm/vx/cvxewkbkikmvdmephgxgvhfeupqa5hik73nim6nxcvp47o6ktboy.py":35:45)
#loc20 = loc("/NHNHOME/WORKSPACE/26msit001_A/jinhyeok/loop_TTT/lact/.cache_inductor_llm/vx/cvxewkbkikmvdmephgxgvhfeupqa5hik73nim6nxcvp47o6ktboy.py":35:41)
#loc21 = loc("/NHNHOME/WORKSPACE/26msit001_A/jinhyeok/loop_TTT/lact/.cache_inductor_llm/vx/cvxewkbkikmvdmephgxgvhfeupqa5hik73nim6nxcvp47o6ktboy.py":35:34)
#loc22 = loc("/NHNHOME/WORKSPACE/26msit001_A/jinhyeok/loop_TTT/lact/.cache_inductor_llm/vx/cvxewkbkikmvdmephgxgvhfeupqa5hik73nim6nxcvp47o6ktboy.py":35:60)
#loc23 = loc("/NHNHOME/WORKSPACE/26msit001_A/jinhyeok/loop_TTT/lact/.cache_inductor_llm/vx/cvxewkbkikmvdmephgxgvhfeupqa5hik73nim6nxcvp47o6ktboy.py":35:50)
#loc24 = loc("/NHNHOME/WORKSPACE/26msit001_A/jinhyeok/loop_TTT/lact/.cache_inductor_llm/vx/cvxewkbkikmvdmephgxgvhfeupqa5hik73nim6nxcvp47o6ktboy.py":36:42)
#loc25 = loc("/NHNHOME/WORKSPACE/26msit001_A/jinhyeok/loop_TTT/lact/.cache_inductor_llm/vx/cvxewkbkikmvdmephgxgvhfeupqa5hik73nim6nxcvp47o6ktboy.py":36:38)
#loc26 = loc("/NHNHOME/WORKSPACE/26msit001_A/jinhyeok/loop_TTT/lact/.cache_inductor_llm/vx/cvxewkbkikmvdmephgxgvhfeupqa5hik73nim6nxcvp47o6ktboy.py":36:31)
#loc27 = loc("/NHNHOME/WORKSPACE/26msit001_A/jinhyeok/loop_TTT/lact/.cache_inductor_llm/vx/cvxewkbkikmvdmephgxgvhfeupqa5hik73nim6nxcvp47o6ktboy.py":36:57)
#loc28 = loc("/NHNHOME/WORKSPACE/26msit001_A/jinhyeok/loop_TTT/lact/.cache_inductor_llm/vx/cvxewkbkikmvdmephgxgvhfeupqa5hik73nim6nxcvp47o6ktboy.py":36:47)
#loc29 = loc("/NHNHOME/WORKSPACE/26msit001_A/jinhyeok/loop_TTT/lact/.cache_inductor_llm/vx/cvxewkbkikmvdmephgxgvhfeupqa5hik73nim6nxcvp47o6ktboy.py":36:78)
#loc30 = loc("/NHNHOME/WORKSPACE/26msit001_A/jinhyeok/loop_TTT/lact/.cache_inductor_llm/vx/cvxewkbkikmvdmephgxgvhfeupqa5hik73nim6nxcvp47o6ktboy.py":37:42)
#loc31 = loc("/NHNHOME/WORKSPACE/26msit001_A/jinhyeok/loop_TTT/lact/.cache_inductor_llm/vx/cvxewkbkikmvdmephgxgvhfeupqa5hik73nim6nxcvp47o6ktboy.py":37:38)
#loc32 = loc("/NHNHOME/WORKSPACE/26msit001_A/jinhyeok/loop_TTT/lact/.cache_inductor_llm/vx/cvxewkbkikmvdmephgxgvhfeupqa5hik73nim6nxcvp47o6ktboy.py":37:31)
#loc33 = loc("/NHNHOME/WORKSPACE/26msit001_A/jinhyeok/loop_TTT/lact/.cache_inductor_llm/vx/cvxewkbkikmvdmephgxgvhfeupqa5hik73nim6nxcvp47o6ktboy.py":37:57)
#loc34 = loc("/NHNHOME/WORKSPACE/26msit001_A/jinhyeok/loop_TTT/lact/.cache_inductor_llm/vx/cvxewkbkikmvdmephgxgvhfeupqa5hik73nim6nxcvp47o6ktboy.py":37:47)
#loc35 = loc("/NHNHOME/WORKSPACE/26msit001_A/jinhyeok/loop_TTT/lact/.cache_inductor_llm/vx/cvxewkbkikmvdmephgxgvhfeupqa5hik73nim6nxcvp47o6ktboy.py":37:78)
#loc36 = loc("/NHNHOME/WORKSPACE/26msit001_A/jinhyeok/loop_TTT/lact/.cache_inductor_llm/vx/cvxewkbkikmvdmephgxgvhfeupqa5hik73nim6nxcvp47o6ktboy.py":38:42)
#loc37 = loc("/NHNHOME/WORKSPACE/26msit001_A/jinhyeok/loop_TTT/lact/.cache_inductor_llm/vx/cvxewkbkikmvdmephgxgvhfeupqa5hik73nim6nxcvp47o6ktboy.py":38:38)
#loc38 = loc("/NHNHOME/WORKSPACE/26msit001_A/jinhyeok/loop_TTT/lact/.cache_inductor_llm/vx/cvxewkbkikmvdmephgxgvhfeupqa5hik73nim6nxcvp47o6ktboy.py":38:31)
#loc39 = loc("/NHNHOME/WORKSPACE/26msit001_A/jinhyeok/loop_TTT/lact/.cache_inductor_llm/vx/cvxewkbkikmvdmephgxgvhfeupqa5hik73nim6nxcvp47o6ktboy.py":38:57)
#loc40 = loc("/NHNHOME/WORKSPACE/26msit001_A/jinhyeok/loop_TTT/lact/.cache_inductor_llm/vx/cvxewkbkikmvdmephgxgvhfeupqa5hik73nim6nxcvp47o6ktboy.py":38:47)
#loc41 = loc("/NHNHOME/WORKSPACE/26msit001_A/jinhyeok/loop_TTT/lact/.cache_inductor_llm/vx/cvxewkbkikmvdmephgxgvhfeupqa5hik73nim6nxcvp47o6ktboy.py":38:78)
#loc42 = loc("/NHNHOME/WORKSPACE/26msit001_A/jinhyeok/loop_TTT/lact/.cache_inductor_llm/vx/cvxewkbkikmvdmephgxgvhfeupqa5hik73nim6nxcvp47o6ktboy.py":39:42)
#loc43 = loc("/NHNHOME/WORKSPACE/26msit001_A/jinhyeok/loop_TTT/lact/.cache_inductor_llm/vx/cvxewkbkikmvdmephgxgvhfeupqa5hik73nim6nxcvp47o6ktboy.py":39:38)
#loc44 = loc("/NHNHOME/WORKSPACE/26msit001_A/jinhyeok/loop_TTT/lact/.cache_inductor_llm/vx/cvxewkbkikmvdmephgxgvhfeupqa5hik73nim6nxcvp47o6ktboy.py":39:31)
#loc45 = loc("/NHNHOME/WORKSPACE/26msit001_A/jinhyeok/loop_TTT/lact/.cache_inductor_llm/vx/cvxewkbkikmvdmephgxgvhfeupqa5hik73nim6nxcvp47o6ktboy.py":39:57)
#loc46 = loc("/NHNHOME/WORKSPACE/26msit001_A/jinhyeok/loop_TTT/lact/.cache_inductor_llm/vx/cvxewkbkikmvdmephgxgvhfeupqa5hik73nim6nxcvp47o6ktboy.py":39:47)
#loc47 = loc("/NHNHOME/WORKSPACE/26msit001_A/jinhyeok/loop_TTT/lact/.cache_inductor_llm/vx/cvxewkbkikmvdmephgxgvhfeupqa5hik73nim6nxcvp47o6ktboy.py":40:42)
#loc48 = loc("/NHNHOME/WORKSPACE/26msit001_A/jinhyeok/loop_TTT/lact/.cache_inductor_llm/vx/cvxewkbkikmvdmephgxgvhfeupqa5hik73nim6nxcvp47o6ktboy.py":40:38)
#loc49 = loc("/NHNHOME/WORKSPACE/26msit001_A/jinhyeok/loop_TTT/lact/.cache_inductor_llm/vx/cvxewkbkikmvdmephgxgvhfeupqa5hik73nim6nxcvp47o6ktboy.py":40:31)
#loc50 = loc("/NHNHOME/WORKSPACE/26msit001_A/jinhyeok/loop_TTT/lact/.cache_inductor_llm/vx/cvxewkbkikmvdmephgxgvhfeupqa5hik73nim6nxcvp47o6ktboy.py":40:57)
#loc51 = loc("/NHNHOME/WORKSPACE/26msit001_A/jinhyeok/loop_TTT/lact/.cache_inductor_llm/vx/cvxewkbkikmvdmephgxgvhfeupqa5hik73nim6nxcvp47o6ktboy.py":40:47)
#loc52 = loc("/NHNHOME/WORKSPACE/26msit001_A/jinhyeok/loop_TTT/lact/.cache_inductor_llm/vx/cvxewkbkikmvdmephgxgvhfeupqa5hik73nim6nxcvp47o6ktboy.py":40:78)
#loc53 = loc("/NHNHOME/WORKSPACE/26msit001_A/jinhyeok/loop_TTT/lact/.cache_inductor_llm/vx/cvxewkbkikmvdmephgxgvhfeupqa5hik73nim6nxcvp47o6ktboy.py":42:18)
#loc54 = loc("/NHNHOME/WORKSPACE/26msit001_A/jinhyeok/loop_TTT/lact/.cache_inductor_llm/vx/cvxewkbkikmvdmephgxgvhfeupqa5hik73nim6nxcvp47o6ktboy.py":44:30)
#loc55 = loc("/NHNHOME/WORKSPACE/26msit001_A/jinhyeok/loop_TTT/lact/.cache_inductor_llm/vx/cvxewkbkikmvdmephgxgvhfeupqa5hik73nim6nxcvp47o6ktboy.py":44:43)
#loc56 = loc("/NHNHOME/WORKSPACE/26msit001_A/jinhyeok/loop_TTT/lact/.cache_inductor_llm/vx/cvxewkbkikmvdmephgxgvhfeupqa5hik73nim6nxcvp47o6ktboy.py":45:24)
#loc57 = loc("/NHNHOME/WORKSPACE/26msit001_A/jinhyeok/loop_TTT/lact/.cache_inductor_llm/vx/cvxewkbkikmvdmephgxgvhfeupqa5hik73nim6nxcvp47o6ktboy.py":45:27)
#loc58 = loc("/NHNHOME/WORKSPACE/26msit001_A/jinhyeok/loop_TTT/lact/.cache_inductor_llm/vx/cvxewkbkikmvdmephgxgvhfeupqa5hik73nim6nxcvp47o6ktboy.py":46:11)
#loc59 = loc("/NHNHOME/WORKSPACE/26msit001_A/jinhyeok/loop_TTT/lact/.cache_inductor_llm/vx/cvxewkbkikmvdmephgxgvhfeupqa5hik73nim6nxcvp47o6ktboy.py":47:18)
#loc60 = loc("/NHNHOME/WORKSPACE/26msit001_A/jinhyeok/loop_TTT/lact/.cache_inductor_llm/vx/cvxewkbkikmvdmephgxgvhfeupqa5hik73nim6nxcvp47o6ktboy.py":49:19)
#loc61 = loc("/NHNHOME/WORKSPACE/26msit001_A/jinhyeok/loop_TTT/lact/.cache_inductor_llm/vx/cvxewkbkikmvdmephgxgvhfeupqa5hik73nim6nxcvp47o6ktboy.py":50:12)
#loc62 = loc("/NHNHOME/WORKSPACE/26msit001_A/jinhyeok/loop_TTT/lact/.cache_inductor_llm/vx/cvxewkbkikmvdmephgxgvhfeupqa5hik73nim6nxcvp47o6ktboy.py":51:20)
#loc63 = loc("/NHNHOME/WORKSPACE/26msit001_A/jinhyeok/loop_TTT/lact/.cache_inductor_llm/vx/cvxewkbkikmvdmephgxgvhfeupqa5hik73nim6nxcvp47o6ktboy.py":53:20)
#loc64 = loc("/NHNHOME/WORKSPACE/26msit001_A/jinhyeok/loop_TTT/lact/.cache_inductor_llm/vx/cvxewkbkikmvdmephgxgvhfeupqa5hik73nim6nxcvp47o6ktboy.py":54:12)
#loc65 = loc("/NHNHOME/WORKSPACE/26msit001_A/jinhyeok/loop_TTT/lact/.cache_inductor_llm/vx/cvxewkbkikmvdmephgxgvhfeupqa5hik73nim6nxcvp47o6ktboy.py":55:20)
#loc66 = loc("/NHNHOME/WORKSPACE/26msit001_A/jinhyeok/loop_TTT/lact/.cache_inductor_llm/vx/cvxewkbkikmvdmephgxgvhfeupqa5hik73nim6nxcvp47o6ktboy.py":57:20)
#loc67 = loc("/NHNHOME/WORKSPACE/26msit001_A/jinhyeok/loop_TTT/lact/.cache_inductor_llm/vx/cvxewkbkikmvdmephgxgvhfeupqa5hik73nim6nxcvp47o6ktboy.py":58:19)
#loc68 = loc("/NHNHOME/WORKSPACE/26msit001_A/jinhyeok/loop_TTT/lact/.cache_inductor_llm/vx/cvxewkbkikmvdmephgxgvhfeupqa5hik73nim6nxcvp47o6ktboy.py":59:20)
#loc69 = loc("/NHNHOME/WORKSPACE/26msit001_A/jinhyeok/loop_TTT/lact/.cache_inductor_llm/vx/cvxewkbkikmvdmephgxgvhfeupqa5hik73nim6nxcvp47o6ktboy.py":61:31)
#loc70 = loc("/NHNHOME/WORKSPACE/26msit001_A/jinhyeok/loop_TTT/lact/.cache_inductor_llm/vx/cvxewkbkikmvdmephgxgvhfeupqa5hik73nim6nxcvp47o6ktboy.py":61:45)
#loc71 = loc("/NHNHOME/WORKSPACE/26msit001_A/jinhyeok/loop_TTT/lact/.cache_inductor_llm/vx/cvxewkbkikmvdmephgxgvhfeupqa5hik73nim6nxcvp47o6ktboy.py":62:26)
#loc72 = loc("/NHNHOME/WORKSPACE/26msit001_A/jinhyeok/loop_TTT/lact/.cache_inductor_llm/vx/cvxewkbkikmvdmephgxgvhfeupqa5hik73nim6nxcvp47o6ktboy.py":62:29)
#loc73 = loc("/NHNHOME/WORKSPACE/26msit001_A/jinhyeok/loop_TTT/lact/.cache_inductor_llm/vx/cvxewkbkikmvdmephgxgvhfeupqa5hik73nim6nxcvp47o6ktboy.py":63:27)
#loc74 = loc("/NHNHOME/WORKSPACE/26msit001_A/jinhyeok/loop_TTT/lact/.cache_inductor_llm/vx/cvxewkbkikmvdmephgxgvhfeupqa5hik73nim6nxcvp47o6ktboy.py":64:12)
#loc75 = loc("/NHNHOME/WORKSPACE/26msit001_A/jinhyeok/loop_TTT/lact/.cache_inductor_llm/vx/cvxewkbkikmvdmephgxgvhfeupqa5hik73nim6nxcvp47o6ktboy.py":65:20)
#loc76 = loc("/NHNHOME/WORKSPACE/26msit001_A/jinhyeok/loop_TTT/lact/.cache_inductor_llm/vx/cvxewkbkikmvdmephgxgvhfeupqa5hik73nim6nxcvp47o6ktboy.py":66:21)
#loc77 = loc("/NHNHOME/WORKSPACE/26msit001_A/jinhyeok/loop_TTT/lact/.cache_inductor_llm/vx/cvxewkbkikmvdmephgxgvhfeupqa5hik73nim6nxcvp47o6ktboy.py":67:27)
#loc78 = loc("/NHNHOME/WORKSPACE/26msit001_A/jinhyeok/loop_TTT/lact/.cache_inductor_llm/vx/cvxewkbkikmvdmephgxgvhfeupqa5hik73nim6nxcvp47o6ktboy.py":68:20)
#loc79 = loc("/NHNHOME/WORKSPACE/26msit001_A/jinhyeok/loop_TTT/lact/.cache_inductor_llm/vx/cvxewkbkikmvdmephgxgvhfeupqa5hik73nim6nxcvp47o6ktboy.py":70:20)
#loc80 = loc("/NHNHOME/WORKSPACE/26msit001_A/jinhyeok/loop_TTT/lact/.cache_inductor_llm/vx/cvxewkbkikmvdmephgxgvhfeupqa5hik73nim6nxcvp47o6ktboy.py":72:20)
#loc81 = loc("/NHNHOME/WORKSPACE/26msit001_A/jinhyeok/loop_TTT/lact/.cache_inductor_llm/vx/cvxewkbkikmvdmephgxgvhfeupqa5hik73nim6nxcvp47o6ktboy.py":73:20)
#loc82 = loc("/NHNHOME/WORKSPACE/26msit001_A/jinhyeok/loop_TTT/lact/.cache_inductor_llm/vx/cvxewkbkikmvdmephgxgvhfeupqa5hik73nim6nxcvp47o6ktboy.py":74:20)
#loc83 = loc("/NHNHOME/WORKSPACE/26msit001_A/jinhyeok/loop_TTT/lact/.cache_inductor_llm/vx/cvxewkbkikmvdmephgxgvhfeupqa5hik73nim6nxcvp47o6ktboy.py":76:31)
#loc84 = loc("/NHNHOME/WORKSPACE/26msit001_A/jinhyeok/loop_TTT/lact/.cache_inductor_llm/vx/cvxewkbkikmvdmephgxgvhfeupqa5hik73nim6nxcvp47o6ktboy.py":76:45)
#loc85 = loc("/NHNHOME/WORKSPACE/26msit001_A/jinhyeok/loop_TTT/lact/.cache_inductor_llm/vx/cvxewkbkikmvdmephgxgvhfeupqa5hik73nim6nxcvp47o6ktboy.py":77:26)
#loc86 = loc("/NHNHOME/WORKSPACE/26msit001_A/jinhyeok/loop_TTT/lact/.cache_inductor_llm/vx/cvxewkbkikmvdmephgxgvhfeupqa5hik73nim6nxcvp47o6ktboy.py":77:29)
#loc87 = loc("/NHNHOME/WORKSPACE/26msit001_A/jinhyeok/loop_TTT/lact/.cache_inductor_llm/vx/cvxewkbkikmvdmephgxgvhfeupqa5hik73nim6nxcvp47o6ktboy.py":78:27)
#loc88 = loc("/NHNHOME/WORKSPACE/26msit001_A/jinhyeok/loop_TTT/lact/.cache_inductor_llm/vx/cvxewkbkikmvdmephgxgvhfeupqa5hik73nim6nxcvp47o6ktboy.py":79:20)
#loc89 = loc("/NHNHOME/WORKSPACE/26msit001_A/jinhyeok/loop_TTT/lact/.cache_inductor_llm/vx/cvxewkbkikmvdmephgxgvhfeupqa5hik73nim6nxcvp47o6ktboy.py":80:21)
#loc90 = loc("/NHNHOME/WORKSPACE/26msit001_A/jinhyeok/loop_TTT/lact/.cache_inductor_llm/vx/cvxewkbkikmvdmephgxgvhfeupqa5hik73nim6nxcvp47o6ktboy.py":81:20)
#loc91 = loc("/NHNHOME/WORKSPACE/26msit001_A/jinhyeok/loop_TTT/lact/.cache_inductor_llm/vx/cvxewkbkikmvdmephgxgvhfeupqa5hik73nim6nxcvp47o6ktboy.py":83:39)
#loc92 = loc("/NHNHOME/WORKSPACE/26msit001_A/jinhyeok/loop_TTT/lact/.cache_inductor_llm/vx/cvxewkbkikmvdmephgxgvhfeupqa5hik73nim6nxcvp47o6ktboy.py":83:35)
#loc93 = loc("/NHNHOME/WORKSPACE/26msit001_A/jinhyeok/loop_TTT/lact/.cache_inductor_llm/vx/cvxewkbkikmvdmephgxgvhfeupqa5hik73nim6nxcvp47o6ktboy.py":83:28)
#loc94 = loc("/NHNHOME/WORKSPACE/26msit001_A/jinhyeok/loop_TTT/lact/.cache_inductor_llm/vx/cvxewkbkikmvdmephgxgvhfeupqa5hik73nim6nxcvp47o6ktboy.py":83:61)
#loc95 = loc("/NHNHOME/WORKSPACE/26msit001_A/jinhyeok/loop_TTT/lact/.cache_inductor_llm/vx/cvxewkbkikmvdmephgxgvhfeupqa5hik73nim6nxcvp47o6ktboy.py":83:51)
#loc96 = loc("/NHNHOME/WORKSPACE/26msit001_A/jinhyeok/loop_TTT/lact/.cache_inductor_llm/vx/cvxewkbkikmvdmephgxgvhfeupqa5hik73nim6nxcvp47o6ktboy.py":84:36)
#loc97 = loc("/NHNHOME/WORKSPACE/26msit001_A/jinhyeok/loop_TTT/lact/.cache_inductor_llm/vx/cvxewkbkikmvdmephgxgvhfeupqa5hik73nim6nxcvp47o6ktboy.py":84:32)
#loc98 = loc("/NHNHOME/WORKSPACE/26msit001_A/jinhyeok/loop_TTT/lact/.cache_inductor_llm/vx/cvxewkbkikmvdmephgxgvhfeupqa5hik73nim6nxcvp47o6ktboy.py":84:25)
#loc99 = loc("/NHNHOME/WORKSPACE/26msit001_A/jinhyeok/loop_TTT/lact/.cache_inductor_llm/vx/cvxewkbkikmvdmephgxgvhfeupqa5hik73nim6nxcvp47o6ktboy.py":84:58)
#loc100 = loc("/NHNHOME/WORKSPACE/26msit001_A/jinhyeok/loop_TTT/lact/.cache_inductor_llm/vx/cvxewkbkikmvdmephgxgvhfeupqa5hik73nim6nxcvp47o6ktboy.py":84:48)
#loc101 = loc("/NHNHOME/WORKSPACE/26msit001_A/jinhyeok/loop_TTT/lact/.cache_inductor_llm/vx/cvxewkbkikmvdmephgxgvhfeupqa5hik73nim6nxcvp47o6ktboy.py":85:36)
#loc102 = loc("/NHNHOME/WORKSPACE/26msit001_A/jinhyeok/loop_TTT/lact/.cache_inductor_llm/vx/cvxewkbkikmvdmephgxgvhfeupqa5hik73nim6nxcvp47o6ktboy.py":85:32)
#loc103 = loc("/NHNHOME/WORKSPACE/26msit001_A/jinhyeok/loop_TTT/lact/.cache_inductor_llm/vx/cvxewkbkikmvdmephgxgvhfeupqa5hik73nim6nxcvp47o6ktboy.py":85:25)
#loc104 = loc("/NHNHOME/WORKSPACE/26msit001_A/jinhyeok/loop_TTT/lact/.cache_inductor_llm/vx/cvxewkbkikmvdmephgxgvhfeupqa5hik73nim6nxcvp47o6ktboy.py":85:58)
#loc105 = loc("/NHNHOME/WORKSPACE/26msit001_A/jinhyeok/loop_TTT/lact/.cache_inductor_llm/vx/cvxewkbkikmvdmephgxgvhfeupqa5hik73nim6nxcvp47o6ktboy.py":85:48)
#loc106 = loc("/NHNHOME/WORKSPACE/26msit001_A/jinhyeok/loop_TTT/lact/.cache_inductor_llm/vx/cvxewkbkikmvdmephgxgvhfeupqa5hik73nim6nxcvp47o6ktboy.py":86:36)
#loc107 = loc("/NHNHOME/WORKSPACE/26msit001_A/jinhyeok/loop_TTT/lact/.cache_inductor_llm/vx/cvxewkbkikmvdmephgxgvhfeupqa5hik73nim6nxcvp47o6ktboy.py":86:32)
#loc108 = loc("/NHNHOME/WORKSPACE/26msit001_A/jinhyeok/loop_TTT/lact/.cache_inductor_llm/vx/cvxewkbkikmvdmephgxgvhfeupqa5hik73nim6nxcvp47o6ktboy.py":86:25)
#loc109 = loc("/NHNHOME/WORKSPACE/26msit001_A/jinhyeok/loop_TTT/lact/.cache_inductor_llm/vx/cvxewkbkikmvdmephgxgvhfeupqa5hik73nim6nxcvp47o6ktboy.py":86:58)
#loc110 = loc("/NHNHOME/WORKSPACE/26msit001_A/jinhyeok/loop_TTT/lact/.cache_inductor_llm/vx/cvxewkbkikmvdmephgxgvhfeupqa5hik73nim6nxcvp47o6ktboy.py":86:48)
#loc111 = loc("/NHNHOME/WORKSPACE/26msit001_A/jinhyeok/loop_TTT/lact/.cache_inductor_llm/vx/cvxewkbkikmvdmephgxgvhfeupqa5hik73nim6nxcvp47o6ktboy.py":87:36)
#loc112 = loc("/NHNHOME/WORKSPACE/26msit001_A/jinhyeok/loop_TTT/lact/.cache_inductor_llm/vx/cvxewkbkikmvdmephgxgvhfeupqa5hik73nim6nxcvp47o6ktboy.py":87:32)
#loc113 = loc("/NHNHOME/WORKSPACE/26msit001_A/jinhyeok/loop_TTT/lact/.cache_inductor_llm/vx/cvxewkbkikmvdmephgxgvhfeupqa5hik73nim6nxcvp47o6ktboy.py":87:25)
#loc114 = loc("/NHNHOME/WORKSPACE/26msit001_A/jinhyeok/loop_TTT/lact/.cache_inductor_llm/vx/cvxewkbkikmvdmephgxgvhfeupqa5hik73nim6nxcvp47o6ktboy.py":87:58)
#loc115 = loc("/NHNHOME/WORKSPACE/26msit001_A/jinhyeok/loop_TTT/lact/.cache_inductor_llm/vx/cvxewkbkikmvdmephgxgvhfeupqa5hik73nim6nxcvp47o6ktboy.py":87:48)
#loc116 = loc("/NHNHOME/WORKSPACE/26msit001_A/jinhyeok/loop_TTT/lact/.cache_inductor_llm/vx/cvxewkbkikmvdmephgxgvhfeupqa5hik73nim6nxcvp47o6ktboy.py":88:25)
#loc117 = loc("/NHNHOME/WORKSPACE/26msit001_A/jinhyeok/loop_TTT/lact/.cache_inductor_llm/vx/cvxewkbkikmvdmephgxgvhfeupqa5hik73nim6nxcvp47o6ktboy.py":88:36)
#loc118 = loc("/NHNHOME/WORKSPACE/26msit001_A/jinhyeok/loop_TTT/lact/.cache_inductor_llm/vx/cvxewkbkikmvdmephgxgvhfeupqa5hik73nim6nxcvp47o6ktboy.py":88:4)
#loc120 = loc("/NHNHOME/WORKSPACE/26msit001_A/jinhyeok/TTT_camera_embedding/.venv_llm/lib/python3.12/site-packages/triton/language/standard.py":291:36)
#loc122 = loc("/NHNHOME/WORKSPACE/26msit001_A/jinhyeok/TTT_camera_embedding/.venv_llm/lib/python3.12/site-packages/triton/language/standard.py":291:11)
#loc123 = loc("/NHNHOME/WORKSPACE/26msit001_A/jinhyeok/TTT_camera_embedding/.venv_llm/lib/python3.12/site-packages/triton/language/standard.py":291:4)
#loc125 = loc("/NHNHOME/WORKSPACE/26msit001_A/jinhyeok/TTT_camera_embedding/.venv_llm/lib/python3.12/site-packages/triton/language/standard.py":261:15)
#loc126 = loc("/NHNHOME/WORKSPACE/26msit001_A/jinhyeok/TTT_camera_embedding/.venv_llm/lib/python3.12/site-packages/triton/language/standard.py":261:11)
#loc127 = loc("/NHNHOME/WORKSPACE/26msit001_A/jinhyeok/TTT_camera_embedding/.venv_llm/lib/python3.12/site-packages/triton/language/standard.py":261:4)
#loc142 = loc("xnumel"(#loc1))
#loc143 = loc("r0_numel"(#loc2))
#loc144 = loc("xoffset"(#loc3))
#loc145 = loc("xoffset"(#loc4))
#loc146 = loc("xindex"(#loc5))
#loc147 = loc("xindex"(#loc6))
#loc148 = loc("xindex"(#loc7))
#loc149 = loc("xmask"(#loc8))
#loc150 = loc("r0_index"(#loc9))
#loc151 = loc("r0_index"(#loc10))
#loc152 = loc("r0_offset"(#loc11))
#loc153 = loc("r0_mask"(#loc12))
#loc154 = loc("tmp0"(#loc13))
#loc155 = loc("tmp0"(#loc14))
#loc156 = loc("tmp0"(#loc15))
#loc157 = loc("tmp0"(#loc16))
#loc158 = loc("tmp0"(#loc17))
#loc159 = loc("tmp0"(#loc18))
#loc160 = loc("tmp7"(#loc19))
#loc161 = loc("tmp7"(#loc20))
#loc162 = loc("tmp7"(#loc21))
#loc163 = loc("tmp7"(#loc22))
#loc164 = loc("tmp7"(#loc23))
#loc165 = loc("tmp10"(#loc24))
#loc166 = loc("tmp10"(#loc25))
#loc167 = loc("tmp10"(#loc26))
#loc168 = loc("tmp10"(#loc27))
#loc169 = loc("tmp10"(#loc28))
#loc170 = loc("tmp10"(#loc29))
#loc171 = loc("tmp15"(#loc30))
#loc172 = loc("tmp15"(#loc31))
#loc173 = loc("tmp15"(#loc32))
#loc174 = loc("tmp15"(#loc33))
#loc175 = loc("tmp15"(#loc34))
#loc176 = loc("tmp15"(#loc35))
#loc177 = loc("tmp20"(#loc36))
#loc178 = loc("tmp20"(#loc37))
#loc179 = loc("tmp20"(#loc38))
#loc180 = loc("tmp20"(#loc39))
#loc181 = loc("tmp20"(#loc40))
#loc182 = loc("tmp20"(#loc41))
#loc183 = loc("tmp36"(#loc42))
#loc184 = loc("tmp36"(#loc43))
#loc185 = loc("tmp36"(#loc44))
#loc186 = loc("tmp36"(#loc45))
#loc187 = loc("tmp36"(#loc46))
#loc188 = loc("tmp38"(#loc47))
#loc189 = loc("tmp38"(#loc48))
#loc190 = loc("tmp38"(#loc49))
#loc191 = loc("tmp38"(#loc50))
#loc192 = loc("tmp38"(#loc51))
#loc193 = loc("tmp38"(#loc52))
#loc194 = loc("tmp2"(#loc53))
#loc195 = loc("tmp5"(#loc54))
#loc196 = loc("tmp5"(#loc55))
#loc197 = loc("tmp6"(#loc56))
#loc198 = loc("tmp6"(#loc57))
#loc199 = loc("tmp8"(#loc58))
#loc200 = loc("tmp9"(#loc59))
#loc201 = loc("tmp12"(#loc60))
#loc202 = loc("tmp13"(#loc61))
#loc203 = loc("tmp14"(#loc62))
#loc204 = loc("tmp17"(#loc63))
#loc205 = loc("tmp18"(#loc64))
#loc206 = loc("tmp19"(#loc65))
#loc207 = loc("tmp22"(#loc66))
#loc208 = loc("tmp23"(#loc67))
#loc209 = loc("tmp24"(#loc68))
#loc210 = loc("tmp27"(#loc69))
#loc211 = loc("tmp27"(#loc70))
#loc212 = loc("tmp28"(#loc71))
#loc213 = loc("tmp28"(#loc72))
#loc214 = loc("tmp29"(#loc73))
#loc215 = loc("tmp30"(#loc74))
#loc216 = loc("tmp31"(#loc75))
#loc217 = loc("tmp32"(#loc76))
#loc218 = loc("tmp33"(#loc77))
#loc219 = loc("tmp34"(#loc78))
#loc220 = loc("tmp37"(#loc79))
#loc221 = loc("tmp40"(#loc80))
#loc222 = loc("tmp41"(#loc81))
#loc223 = loc("tmp42"(#loc82))
#loc224 = loc("tmp45"(#loc83))
#loc225 = loc("tmp45"(#loc84))
#loc226 = loc("tmp46"(#loc85))
#loc227 = loc("tmp46"(#loc86))
#loc228 = loc("tmp47"(#loc87))
#loc229 = loc("tmp48"(#loc88))
#loc230 = loc("tmp49"(#loc89))
#loc231 = loc("tmp50"(#loc90))
