#loc = loc("/NHNHOME/WORKSPACE/26msit001_A/jinhyeok/loop_TTT/lact/.cache_inductor_llm/vx/cvxewkbkikmvdmephgxgvhfeupqa5hik73nim6nxcvp47o6ktboy.py":18:0)
#loc1 = loc(unknown)
#loc34 = loc("/NHNHOME/WORKSPACE/26msit001_A/jinhyeok/loop_TTT/lact/.cache_inductor_llm/vx/cvxewkbkikmvdmephgxgvhfeupqa5hik73nim6nxcvp47o6ktboy.py":45:24)
#loc44 = loc("/NHNHOME/WORKSPACE/26msit001_A/jinhyeok/loop_TTT/lact/.cache_inductor_llm/vx/cvxewkbkikmvdmephgxgvhfeupqa5hik73nim6nxcvp47o6ktboy.py":62:26)
#loc56 = loc("/NHNHOME/WORKSPACE/26msit001_A/jinhyeok/loop_TTT/lact/.cache_inductor_llm/vx/cvxewkbkikmvdmephgxgvhfeupqa5hik73nim6nxcvp47o6ktboy.py":77:26)
#loc74 = loc("in_out_ptr0"(#loc))
#loc75 = loc("in_ptr0"(#loc))
#loc76 = loc("in_ptr1"(#loc))
#loc77 = loc("in_ptr2"(#loc))
#loc78 = loc("in_ptr3"(#loc))
#loc79 = loc("in_ptr4"(#loc))
#loc80 = loc("in_ptr5"(#loc))
#loc81 = loc("out_ptr0"(#loc))
#loc82 = loc("out_ptr2"(#loc))
#loc83 = loc("out_ptr3"(#loc))
#loc84 = loc("out_ptr6"(#loc))
#loc85 = loc("out_ptr7"(#loc))
#loc86 = loc("xnumel"(#loc))
#loc87 = loc("r0_numel"(#loc))
#loc119 = loc("tmp6"(#loc34))
#loc128 = loc("tmp28"(#loc44))
#loc140 = loc("tmp46"(#loc56))
#loc149 = loc(callsite(#loc1 at #loc119))
#loc151 = loc(callsite(#loc1 at #loc128))
#loc153 = loc(callsite(#loc1 at #loc140))
module {
  tt.func public @triton_per_fused__to_copy_add_div_linalg_vector_norm_mul_38(%in_out_ptr0: !tt.ptr<f32> {tt.divisibility = 16 : i32} loc("in_out_ptr0"(#loc)), %in_ptr0: !tt.ptr<bf16> {tt.divisibility = 16 : i32} loc("in_ptr0"(#loc)), %in_ptr1: !tt.ptr<bf16> {tt.divisibility = 16 : i32} loc("in_ptr1"(#loc)), %in_ptr2: !tt.ptr<bf16> {tt.divisibility = 16 : i32} loc("in_ptr2"(#loc)), %in_ptr3: !tt.ptr<bf16> {tt.divisibility = 16 : i32} loc("in_ptr3"(#loc)), %in_ptr4: !tt.ptr<f32> {tt.divisibility = 16 : i32} loc("in_ptr4"(#loc)), %in_ptr5: !tt.ptr<bf16> {tt.divisibility = 16 : i32} loc("in_ptr5"(#loc)), %out_ptr0: !tt.ptr<f32> {tt.divisibility = 16 : i32} loc("out_ptr0"(#loc)), %out_ptr2: !tt.ptr<bf16> {tt.divisibility = 16 : i32} loc("out_ptr2"(#loc)), %out_ptr3: !tt.ptr<bf16> {tt.divisibility = 16 : i32} loc("out_ptr3"(#loc)), %out_ptr6: !tt.ptr<bf16> {tt.divisibility = 16 : i32} loc("out_ptr6"(#loc)), %out_ptr7: !tt.ptr<bf16> {tt.divisibility = 16 : i32} loc("out_ptr7"(#loc)), %xnumel: i32 {tt.divisibility = 16 : i32} loc("xnumel"(#loc)), %r0_numel: i32 {tt.divisibility = 16 : i32} loc("r0_numel"(#loc))) attributes {noinline = false} {
    %c192_i32 = arith.constant 192 : i32 loc(#loc1)
    %xmask = arith.constant 6144 : i32 loc(#loc88)
    %cst = arith.constant dense<0.000000e+00> : tensor<1x256xbf16> loc(#loc1)
    %cst_0 = arith.constant dense<9.99999974E-6> : tensor<1x1xf32> loc(#loc1)
    %cst_1 = arith.constant dense<2.836600e+00> : tensor<1x256xf32> loc(#loc1)
    %tmp14 = arith.constant dense<2.876900e+00> : tensor<1x256xf32> loc(#loc89)
    %tmp9 = arith.constant dense<3.741800e+00> : tensor<1x256xf32> loc(#loc90)
    %cst_2 = arith.constant dense<0.000000e+00> : tensor<1x256xf32> loc(#loc1)
    %r0_mask = arith.constant dense<192> : tensor<1x256xi32> loc(#loc91)
    %xoffset = tt.get_program_id x : i32 loc(#loc92)
    %xmask_3 = arith.cmpi slt, %xoffset, %xmask : i32 loc(#loc88)
    %xmask_4 = tt.splat %xmask_3 : i1 -> tensor<1x1xi1> loc(#loc88)
    %r0_index = tt.make_range {end = 256 : i32, start = 0 : i32} : tensor<256xi32> loc(#loc93)
    %r0_index_5 = tt.expand_dims %r0_index {axis = 0 : i32} : tensor<256xi32> -> tensor<1x256xi32> loc(#loc94)
    %r0_mask_6 = arith.cmpi slt, %r0_index_5, %r0_mask : tensor<1x256xi32> loc(#loc91)
    %tmp0 = arith.muli %xoffset, %c192_i32 : i32 loc(#loc95)
    %tmp0_7 = tt.splat %tmp0 : i32 -> tensor<1x256xi32> loc(#loc146)
    %tmp0_8 = arith.addi %r0_index_5, %tmp0_7 : tensor<1x256xi32> loc(#loc96)
    %tmp0_9 = tt.splat %in_ptr0 : !tt.ptr<bf16> -> tensor<1x256x!tt.ptr<bf16>> loc(#loc97)
    %tmp0_10 = tt.addptr %tmp0_9, %tmp0_8 : tensor<1x256x!tt.ptr<bf16>>, tensor<1x256xi32> loc(#loc97)
    %tmp0_11 = tt.splat %xmask_3 : i1 -> tensor<1x256xi1> loc(#loc147)
    %tmp0_12 = arith.andi %r0_mask_6, %tmp0_11 : tensor<1x256xi1> loc(#loc98)
    %tmp0_13 = tt.load %tmp0_10, %tmp0_12, %cst : tensor<1x256x!tt.ptr<bf16>> loc(#loc99)
    %tmp0_14 = arith.extf %tmp0_13 : tensor<1x256xbf16> to tensor<1x256xf32> loc(#loc100)
    %tmp7 = tt.splat %in_out_ptr0 : !tt.ptr<f32> -> tensor<1x256x!tt.ptr<f32>> loc(#loc101)
    %tmp7_15 = tt.addptr %tmp7, %tmp0_8 : tensor<1x256x!tt.ptr<f32>>, tensor<1x256xi32> loc(#loc101)
    %tmp7_16 = tt.load %tmp7_15, %tmp0_12, %cst_2 : tensor<1x256x!tt.ptr<f32>> loc(#loc102)
    %tmp10 = tt.splat %in_ptr1 : !tt.ptr<bf16> -> tensor<1x256x!tt.ptr<bf16>> loc(#loc103)
    %tmp10_17 = tt.addptr %tmp10, %tmp0_8 : tensor<1x256x!tt.ptr<bf16>>, tensor<1x256xi32> loc(#loc103)
    %tmp10_18 = tt.load %tmp10_17, %tmp0_12, %cst : tensor<1x256x!tt.ptr<bf16>> loc(#loc104)
    %tmp10_19 = arith.extf %tmp10_18 : tensor<1x256xbf16> to tensor<1x256xf32> loc(#loc105)
    %tmp15 = tt.splat %in_ptr2 : !tt.ptr<bf16> -> tensor<1x256x!tt.ptr<bf16>> loc(#loc106)
    %tmp15_20 = tt.addptr %tmp15, %tmp0_8 : tensor<1x256x!tt.ptr<bf16>>, tensor<1x256xi32> loc(#loc106)
    %tmp15_21 = tt.load %tmp15_20, %tmp0_12, %cst : tensor<1x256x!tt.ptr<bf16>> loc(#loc107)
    %tmp15_22 = arith.extf %tmp15_21 : tensor<1x256xbf16> to tensor<1x256xf32> loc(#loc108)
    %tmp20 = tt.splat %in_ptr3 : !tt.ptr<bf16> -> tensor<1x256x!tt.ptr<bf16>> loc(#loc109)
    %tmp20_23 = tt.addptr %tmp20, %tmp0_8 : tensor<1x256x!tt.ptr<bf16>>, tensor<1x256xi32> loc(#loc109)
    %tmp20_24 = tt.load %tmp20_23, %tmp0_12, %cst : tensor<1x256x!tt.ptr<bf16>> loc(#loc110)
    %tmp20_25 = arith.extf %tmp20_24 : tensor<1x256xbf16> to tensor<1x256xf32> loc(#loc111)
    %tmp36 = tt.splat %in_ptr4 : !tt.ptr<f32> -> tensor<1x256x!tt.ptr<f32>> loc(#loc112)
    %tmp36_26 = tt.addptr %tmp36, %tmp0_8 : tensor<1x256x!tt.ptr<f32>>, tensor<1x256xi32> loc(#loc112)
    %tmp36_27 = tt.load %tmp36_26, %tmp0_12, %cst_2 : tensor<1x256x!tt.ptr<f32>> loc(#loc113)
    %tmp38 = tt.splat %in_ptr5 : !tt.ptr<bf16> -> tensor<1x256x!tt.ptr<bf16>> loc(#loc114)
    %tmp38_28 = tt.addptr %tmp38, %tmp0_8 : tensor<1x256x!tt.ptr<bf16>>, tensor<1x256xi32> loc(#loc114)
    %tmp38_29 = tt.load %tmp38_28, %tmp0_12, %cst : tensor<1x256x!tt.ptr<bf16>> loc(#loc115)
    %tmp38_30 = arith.extf %tmp38_29 : tensor<1x256xbf16> to tensor<1x256xf32> loc(#loc116)
    %tmp2 = arith.mulf %tmp0_14, %tmp0_14 : tensor<1x256xf32> loc(#loc117)
    %tmp5 = arith.select %tmp0_12, %tmp2, %cst_2 : tensor<1x256xi1>, tensor<1x256xf32> loc(#loc118)
    %tmp6 = "tt.reduce"(%tmp5) <{axis = 1 : i32}> ({
    ^bb0(%tmp6_39: f32 loc(callsite(#loc1 at #loc119)), %tmp6_40: f32 loc(callsite(#loc1 at #loc119))):
      %tmp6_41 = arith.addf %tmp6_39, %tmp6_40 : f32 loc(#loc154)
      tt.reduce.return %tmp6_41 : f32 loc(#loc148)
    }) : (tensor<1x256xf32>) -> tensor<1xf32> loc(#loc148)
    %tmp6_31 = tt.expand_dims %tmp6 {axis = 1 : i32} : tensor<1xf32> -> tensor<1x1xf32> loc(#loc120)
    %tmp9_32 = arith.mulf %tmp7_16, %tmp9 : tensor<1x256xf32> loc(#loc90)
    %tmp12 = arith.addf %tmp9_32, %tmp10_19 : tensor<1x256xf32> loc(#loc121)
    %tmp14_33 = arith.mulf %tmp12, %tmp14 : tensor<1x256xf32> loc(#loc89)
    %tmp17 = arith.addf %tmp14_33, %tmp15_22 : tensor<1x256xf32> loc(#loc122)
    %tmp19 = arith.mulf %tmp17, %cst_1 : tensor<1x256xf32> loc(#loc123)
    %tmp22 = arith.addf %tmp19, %tmp20_25 : tensor<1x256xf32> loc(#loc124)
    %tmp23 = arith.addf %tmp0_14, %tmp22 : tensor<1x256xf32> loc(#loc125)
    %tmp24 = arith.mulf %tmp23, %tmp23 : tensor<1x256xf32> loc(#loc126)
    %tmp27 = arith.select %tmp0_12, %tmp24, %cst_2 : tensor<1x256xi1>, tensor<1x256xf32> loc(#loc127)
    %tmp28 = "tt.reduce"(%tmp27) <{axis = 1 : i32}> ({
    ^bb0(%tmp28_39: f32 loc(callsite(#loc1 at #loc128)), %tmp28_40: f32 loc(callsite(#loc1 at #loc128))):
      %tmp28_41 = arith.addf %tmp28_39, %tmp28_40 : f32 loc(#loc155)
      tt.reduce.return %tmp28_41 : f32 loc(#loc150)
    }) : (tensor<1x256xf32>) -> tensor<1xf32> loc(#loc150)
    %tmp28_34 = tt.expand_dims %tmp28 {axis = 1 : i32} : tensor<1xf32> -> tensor<1x1xf32> loc(#loc129)
    %tmp29 = tt.extern_elementwise %tmp28_34 {libname = "", libpath = "", pure = true, symbol = "__nv_sqrtf"} : (tensor<1x1xf32>) -> tensor<1x1xf32> loc(#loc130)
    %tmp31 = arith.addf %tmp29, %cst_0 : tensor<1x1xf32> loc(#loc131)
    %tmp32 = tt.broadcast %tmp31 : tensor<1x1xf32> -> tensor<1x256xf32> loc(#loc132)
    %tmp32_35 = arith.divf %tmp23, %tmp32 : tensor<1x256xf32> loc(#loc132)
    %tmp33 = tt.extern_elementwise %tmp6_31 {libname = "", libpath = "", pure = true, symbol = "__nv_sqrtf"} : (tensor<1x1xf32>) -> tensor<1x1xf32> loc(#loc133)
    %tmp34 = tt.broadcast %tmp33 : tensor<1x1xf32> -> tensor<1x256xf32> loc(#loc134)
    %tmp34_36 = arith.mulf %tmp32_35, %tmp34 : tensor<1x256xf32> loc(#loc134)
    %tmp37 = arith.mulf %tmp36_27, %cst_1 : tensor<1x256xf32> loc(#loc135)
    %tmp40 = arith.addf %tmp37, %tmp38_30 : tensor<1x256xf32> loc(#loc136)
    %tmp41 = arith.addf %tmp23, %tmp40 : tensor<1x256xf32> loc(#loc137)
    %tmp42 = arith.mulf %tmp41, %tmp41 : tensor<1x256xf32> loc(#loc138)
    %tmp45 = arith.select %tmp0_12, %tmp42, %cst_2 : tensor<1x256xi1>, tensor<1x256xf32> loc(#loc139)
    %tmp46 = "tt.reduce"(%tmp45) <{axis = 1 : i32}> ({
    ^bb0(%tmp46_39: f32 loc(callsite(#loc1 at #loc140)), %tmp46_40: f32 loc(callsite(#loc1 at #loc140))):
      %tmp46_41 = arith.addf %tmp46_39, %tmp46_40 : f32 loc(#loc156)
      tt.reduce.return %tmp46_41 : f32 loc(#loc152)
    }) : (tensor<1x256xf32>) -> tensor<1xf32> loc(#loc152)
    %tmp46_37 = tt.expand_dims %tmp46 {axis = 1 : i32} : tensor<1xf32> -> tensor<1x1xf32> loc(#loc141)
    %tmp47 = tt.extern_elementwise %tmp46_37 {libname = "", libpath = "", pure = true, symbol = "__nv_sqrtf"} : (tensor<1x1xf32>) -> tensor<1x1xf32> loc(#loc142)
    %tmp48 = arith.addf %tmp47, %cst_0 : tensor<1x1xf32> loc(#loc143)
    %tmp49 = tt.broadcast %tmp48 : tensor<1x1xf32> -> tensor<1x256xf32> loc(#loc144)
    %tmp49_38 = arith.divf %tmp41, %tmp49 : tensor<1x256xf32> loc(#loc144)
    %tmp50 = arith.mulf %tmp49_38, %tmp34 : tensor<1x256xf32> loc(#loc145)
    tt.store %tmp7_15, %tmp23, %tmp0_12 : tensor<1x256x!tt.ptr<f32>> loc(#loc62)
    %0 = tt.splat %out_ptr2 : !tt.ptr<bf16> -> tensor<1x256x!tt.ptr<bf16>> loc(#loc63)
    %1 = tt.addptr %0, %tmp0_8 : tensor<1x256x!tt.ptr<bf16>>, tensor<1x256xi32> loc(#loc63)
    %2 = arith.truncf %tmp34_36 : tensor<1x256xf32> to tensor<1x256xbf16> loc(#loc64)
    tt.store %1, %2, %tmp0_12 : tensor<1x256x!tt.ptr<bf16>> loc(#loc64)
    %3 = tt.splat %out_ptr3 : !tt.ptr<bf16> -> tensor<1x256x!tt.ptr<bf16>> loc(#loc65)
    %4 = tt.addptr %3, %tmp0_8 : tensor<1x256x!tt.ptr<bf16>>, tensor<1x256xi32> loc(#loc65)
    tt.store %4, %2, %tmp0_12 : tensor<1x256x!tt.ptr<bf16>> loc(#loc66)
    %5 = tt.splat %out_ptr6 : !tt.ptr<bf16> -> tensor<1x256x!tt.ptr<bf16>> loc(#loc67)
    %6 = tt.addptr %5, %tmp0_8 : tensor<1x256x!tt.ptr<bf16>>, tensor<1x256xi32> loc(#loc67)
    %7 = arith.truncf %tmp50 : tensor<1x256xf32> to tensor<1x256xbf16> loc(#loc68)
    tt.store %6, %7, %tmp0_12 : tensor<1x256x!tt.ptr<bf16>> loc(#loc68)
    %8 = tt.splat %out_ptr7 : !tt.ptr<bf16> -> tensor<1x256x!tt.ptr<bf16>> loc(#loc69)
    %9 = tt.addptr %8, %tmp0_8 : tensor<1x256x!tt.ptr<bf16>>, tensor<1x256xi32> loc(#loc69)
    tt.store %9, %7, %tmp0_12 : tensor<1x256x!tt.ptr<bf16>> loc(#loc70)
    %10 = tt.addptr %out_ptr0, %xoffset : !tt.ptr<f32>, i32 loc(#loc71)
    %11 = tt.splat %10 : !tt.ptr<f32> -> tensor<1x1x!tt.ptr<f32>> loc(#loc71)
    tt.store %11, %tmp6_31, %xmask_4 : tensor<1x1x!tt.ptr<f32>> loc(#loc72)
    tt.return loc(#loc73)
  } loc(#loc)
} loc(#loc)
#loc2 = loc("/NHNHOME/WORKSPACE/26msit001_A/jinhyeok/loop_TTT/lact/.cache_inductor_llm/vx/cvxewkbkikmvdmephgxgvhfeupqa5hik73nim6nxcvp47o6ktboy.py":26:21)
#loc3 = loc("/NHNHOME/WORKSPACE/26msit001_A/jinhyeok/loop_TTT/lact/.cache_inductor_llm/vx/cvxewkbkikmvdmephgxgvhfeupqa5hik73nim6nxcvp47o6ktboy.py":51:20)
#loc4 = loc("/NHNHOME/WORKSPACE/26msit001_A/jinhyeok/loop_TTT/lact/.cache_inductor_llm/vx/cvxewkbkikmvdmephgxgvhfeupqa5hik73nim6nxcvp47o6ktboy.py":47:18)
#loc5 = loc("/NHNHOME/WORKSPACE/26msit001_A/jinhyeok/loop_TTT/lact/.cache_inductor_llm/vx/cvxewkbkikmvdmephgxgvhfeupqa5hik73nim6nxcvp47o6ktboy.py":29:25)
#loc6 = loc("/NHNHOME/WORKSPACE/26msit001_A/jinhyeok/loop_TTT/lact/.cache_inductor_llm/vx/cvxewkbkikmvdmephgxgvhfeupqa5hik73nim6nxcvp47o6ktboy.py":24:28)
#loc7 = loc("/NHNHOME/WORKSPACE/26msit001_A/jinhyeok/loop_TTT/lact/.cache_inductor_llm/vx/cvxewkbkikmvdmephgxgvhfeupqa5hik73nim6nxcvp47o6ktboy.py":27:28)
#loc8 = loc("/NHNHOME/WORKSPACE/26msit001_A/jinhyeok/loop_TTT/lact/.cache_inductor_llm/vx/cvxewkbkikmvdmephgxgvhfeupqa5hik73nim6nxcvp47o6ktboy.py":27:38)
#loc9 = loc("/NHNHOME/WORKSPACE/26msit001_A/jinhyeok/loop_TTT/lact/.cache_inductor_llm/vx/cvxewkbkikmvdmephgxgvhfeupqa5hik73nim6nxcvp47o6ktboy.py":34:41)
#loc10 = loc("/NHNHOME/WORKSPACE/26msit001_A/jinhyeok/loop_TTT/lact/.cache_inductor_llm/vx/cvxewkbkikmvdmephgxgvhfeupqa5hik73nim6nxcvp47o6ktboy.py":34:37)
#loc11 = loc("/NHNHOME/WORKSPACE/26msit001_A/jinhyeok/loop_TTT/lact/.cache_inductor_llm/vx/cvxewkbkikmvdmephgxgvhfeupqa5hik73nim6nxcvp47o6ktboy.py":34:30)
#loc12 = loc("/NHNHOME/WORKSPACE/26msit001_A/jinhyeok/loop_TTT/lact/.cache_inductor_llm/vx/cvxewkbkikmvdmephgxgvhfeupqa5hik73nim6nxcvp47o6ktboy.py":34:56)
#loc13 = loc("/NHNHOME/WORKSPACE/26msit001_A/jinhyeok/loop_TTT/lact/.cache_inductor_llm/vx/cvxewkbkikmvdmephgxgvhfeupqa5hik73nim6nxcvp47o6ktboy.py":34:46)
#loc14 = loc("/NHNHOME/WORKSPACE/26msit001_A/jinhyeok/loop_TTT/lact/.cache_inductor_llm/vx/cvxewkbkikmvdmephgxgvhfeupqa5hik73nim6nxcvp47o6ktboy.py":34:77)
#loc15 = loc("/NHNHOME/WORKSPACE/26msit001_A/jinhyeok/loop_TTT/lact/.cache_inductor_llm/vx/cvxewkbkikmvdmephgxgvhfeupqa5hik73nim6nxcvp47o6ktboy.py":35:34)
#loc16 = loc("/NHNHOME/WORKSPACE/26msit001_A/jinhyeok/loop_TTT/lact/.cache_inductor_llm/vx/cvxewkbkikmvdmephgxgvhfeupqa5hik73nim6nxcvp47o6ktboy.py":35:50)
#loc17 = loc("/NHNHOME/WORKSPACE/26msit001_A/jinhyeok/loop_TTT/lact/.cache_inductor_llm/vx/cvxewkbkikmvdmephgxgvhfeupqa5hik73nim6nxcvp47o6ktboy.py":36:31)
#loc18 = loc("/NHNHOME/WORKSPACE/26msit001_A/jinhyeok/loop_TTT/lact/.cache_inductor_llm/vx/cvxewkbkikmvdmephgxgvhfeupqa5hik73nim6nxcvp47o6ktboy.py":36:47)
#loc19 = loc("/NHNHOME/WORKSPACE/26msit001_A/jinhyeok/loop_TTT/lact/.cache_inductor_llm/vx/cvxewkbkikmvdmephgxgvhfeupqa5hik73nim6nxcvp47o6ktboy.py":36:78)
#loc20 = loc("/NHNHOME/WORKSPACE/26msit001_A/jinhyeok/loop_TTT/lact/.cache_inductor_llm/vx/cvxewkbkikmvdmephgxgvhfeupqa5hik73nim6nxcvp47o6ktboy.py":37:31)
#loc21 = loc("/NHNHOME/WORKSPACE/26msit001_A/jinhyeok/loop_TTT/lact/.cache_inductor_llm/vx/cvxewkbkikmvdmephgxgvhfeupqa5hik73nim6nxcvp47o6ktboy.py":37:47)
#loc22 = loc("/NHNHOME/WORKSPACE/26msit001_A/jinhyeok/loop_TTT/lact/.cache_inductor_llm/vx/cvxewkbkikmvdmephgxgvhfeupqa5hik73nim6nxcvp47o6ktboy.py":37:78)
#loc23 = loc("/NHNHOME/WORKSPACE/26msit001_A/jinhyeok/loop_TTT/lact/.cache_inductor_llm/vx/cvxewkbkikmvdmephgxgvhfeupqa5hik73nim6nxcvp47o6ktboy.py":38:31)
#loc24 = loc("/NHNHOME/WORKSPACE/26msit001_A/jinhyeok/loop_TTT/lact/.cache_inductor_llm/vx/cvxewkbkikmvdmephgxgvhfeupqa5hik73nim6nxcvp47o6ktboy.py":38:47)
#loc25 = loc("/NHNHOME/WORKSPACE/26msit001_A/jinhyeok/loop_TTT/lact/.cache_inductor_llm/vx/cvxewkbkikmvdmephgxgvhfeupqa5hik73nim6nxcvp47o6ktboy.py":38:78)
#loc26 = loc("/NHNHOME/WORKSPACE/26msit001_A/jinhyeok/loop_TTT/lact/.cache_inductor_llm/vx/cvxewkbkikmvdmephgxgvhfeupqa5hik73nim6nxcvp47o6ktboy.py":39:31)
#loc27 = loc("/NHNHOME/WORKSPACE/26msit001_A/jinhyeok/loop_TTT/lact/.cache_inductor_llm/vx/cvxewkbkikmvdmephgxgvhfeupqa5hik73nim6nxcvp47o6ktboy.py":39:47)
#loc28 = loc("/NHNHOME/WORKSPACE/26msit001_A/jinhyeok/loop_TTT/lact/.cache_inductor_llm/vx/cvxewkbkikmvdmephgxgvhfeupqa5hik73nim6nxcvp47o6ktboy.py":40:31)
#loc29 = loc("/NHNHOME/WORKSPACE/26msit001_A/jinhyeok/loop_TTT/lact/.cache_inductor_llm/vx/cvxewkbkikmvdmephgxgvhfeupqa5hik73nim6nxcvp47o6ktboy.py":40:47)
#loc30 = loc("/NHNHOME/WORKSPACE/26msit001_A/jinhyeok/loop_TTT/lact/.cache_inductor_llm/vx/cvxewkbkikmvdmephgxgvhfeupqa5hik73nim6nxcvp47o6ktboy.py":40:78)
#loc31 = loc("/NHNHOME/WORKSPACE/26msit001_A/jinhyeok/loop_TTT/lact/.cache_inductor_llm/vx/cvxewkbkikmvdmephgxgvhfeupqa5hik73nim6nxcvp47o6ktboy.py":42:18)
#loc32 = loc("/NHNHOME/WORKSPACE/26msit001_A/jinhyeok/loop_TTT/lact/.cache_inductor_llm/vx/cvxewkbkikmvdmephgxgvhfeupqa5hik73nim6nxcvp47o6ktboy.py":44:43)
#loc33 = loc("/NHNHOME/WORKSPACE/26msit001_A/jinhyeok/TTT_camera_embedding/.venv_llm/lib/python3.12/site-packages/triton/language/standard.py":291:36)
#loc35 = loc("/NHNHOME/WORKSPACE/26msit001_A/jinhyeok/TTT_camera_embedding/.venv_llm/lib/python3.12/site-packages/triton/language/standard.py":261:15)
#loc36 = loc("/NHNHOME/WORKSPACE/26msit001_A/jinhyeok/loop_TTT/lact/.cache_inductor_llm/vx/cvxewkbkikmvdmephgxgvhfeupqa5hik73nim6nxcvp47o6ktboy.py":45:27)
#loc37 = loc("/NHNHOME/WORKSPACE/26msit001_A/jinhyeok/loop_TTT/lact/.cache_inductor_llm/vx/cvxewkbkikmvdmephgxgvhfeupqa5hik73nim6nxcvp47o6ktboy.py":49:19)
#loc38 = loc("/NHNHOME/WORKSPACE/26msit001_A/jinhyeok/loop_TTT/lact/.cache_inductor_llm/vx/cvxewkbkikmvdmephgxgvhfeupqa5hik73nim6nxcvp47o6ktboy.py":53:20)
#loc39 = loc("/NHNHOME/WORKSPACE/26msit001_A/jinhyeok/loop_TTT/lact/.cache_inductor_llm/vx/cvxewkbkikmvdmephgxgvhfeupqa5hik73nim6nxcvp47o6ktboy.py":55:20)
#loc40 = loc("/NHNHOME/WORKSPACE/26msit001_A/jinhyeok/loop_TTT/lact/.cache_inductor_llm/vx/cvxewkbkikmvdmephgxgvhfeupqa5hik73nim6nxcvp47o6ktboy.py":57:20)
#loc41 = loc("/NHNHOME/WORKSPACE/26msit001_A/jinhyeok/loop_TTT/lact/.cache_inductor_llm/vx/cvxewkbkikmvdmephgxgvhfeupqa5hik73nim6nxcvp47o6ktboy.py":58:19)
#loc42 = loc("/NHNHOME/WORKSPACE/26msit001_A/jinhyeok/loop_TTT/lact/.cache_inductor_llm/vx/cvxewkbkikmvdmephgxgvhfeupqa5hik73nim6nxcvp47o6ktboy.py":59:20)
#loc43 = loc("/NHNHOME/WORKSPACE/26msit001_A/jinhyeok/loop_TTT/lact/.cache_inductor_llm/vx/cvxewkbkikmvdmephgxgvhfeupqa5hik73nim6nxcvp47o6ktboy.py":61:45)
#loc45 = loc("/NHNHOME/WORKSPACE/26msit001_A/jinhyeok/loop_TTT/lact/.cache_inductor_llm/vx/cvxewkbkikmvdmephgxgvhfeupqa5hik73nim6nxcvp47o6ktboy.py":62:29)
#loc46 = loc("/NHNHOME/WORKSPACE/26msit001_A/jinhyeok/loop_TTT/lact/.cache_inductor_llm/vx/cvxewkbkikmvdmephgxgvhfeupqa5hik73nim6nxcvp47o6ktboy.py":63:27)
#loc47 = loc("/NHNHOME/WORKSPACE/26msit001_A/jinhyeok/loop_TTT/lact/.cache_inductor_llm/vx/cvxewkbkikmvdmephgxgvhfeupqa5hik73nim6nxcvp47o6ktboy.py":65:20)
#loc48 = loc("/NHNHOME/WORKSPACE/26msit001_A/jinhyeok/loop_TTT/lact/.cache_inductor_llm/vx/cvxewkbkikmvdmephgxgvhfeupqa5hik73nim6nxcvp47o6ktboy.py":66:21)
#loc49 = loc("/NHNHOME/WORKSPACE/26msit001_A/jinhyeok/loop_TTT/lact/.cache_inductor_llm/vx/cvxewkbkikmvdmephgxgvhfeupqa5hik73nim6nxcvp47o6ktboy.py":67:27)
#loc50 = loc("/NHNHOME/WORKSPACE/26msit001_A/jinhyeok/loop_TTT/lact/.cache_inductor_llm/vx/cvxewkbkikmvdmephgxgvhfeupqa5hik73nim6nxcvp47o6ktboy.py":68:20)
#loc51 = loc("/NHNHOME/WORKSPACE/26msit001_A/jinhyeok/loop_TTT/lact/.cache_inductor_llm/vx/cvxewkbkikmvdmephgxgvhfeupqa5hik73nim6nxcvp47o6ktboy.py":70:20)
#loc52 = loc("/NHNHOME/WORKSPACE/26msit001_A/jinhyeok/loop_TTT/lact/.cache_inductor_llm/vx/cvxewkbkikmvdmephgxgvhfeupqa5hik73nim6nxcvp47o6ktboy.py":72:20)
#loc53 = loc("/NHNHOME/WORKSPACE/26msit001_A/jinhyeok/loop_TTT/lact/.cache_inductor_llm/vx/cvxewkbkikmvdmephgxgvhfeupqa5hik73nim6nxcvp47o6ktboy.py":73:20)
#loc54 = loc("/NHNHOME/WORKSPACE/26msit001_A/jinhyeok/loop_TTT/lact/.cache_inductor_llm/vx/cvxewkbkikmvdmephgxgvhfeupqa5hik73nim6nxcvp47o6ktboy.py":74:20)
#loc55 = loc("/NHNHOME/WORKSPACE/26msit001_A/jinhyeok/loop_TTT/lact/.cache_inductor_llm/vx/cvxewkbkikmvdmephgxgvhfeupqa5hik73nim6nxcvp47o6ktboy.py":76:45)
#loc57 = loc("/NHNHOME/WORKSPACE/26msit001_A/jinhyeok/loop_TTT/lact/.cache_inductor_llm/vx/cvxewkbkikmvdmephgxgvhfeupqa5hik73nim6nxcvp47o6ktboy.py":77:29)
#loc58 = loc("/NHNHOME/WORKSPACE/26msit001_A/jinhyeok/loop_TTT/lact/.cache_inductor_llm/vx/cvxewkbkikmvdmephgxgvhfeupqa5hik73nim6nxcvp47o6ktboy.py":78:27)
#loc59 = loc("/NHNHOME/WORKSPACE/26msit001_A/jinhyeok/loop_TTT/lact/.cache_inductor_llm/vx/cvxewkbkikmvdmephgxgvhfeupqa5hik73nim6nxcvp47o6ktboy.py":79:20)
#loc60 = loc("/NHNHOME/WORKSPACE/26msit001_A/jinhyeok/loop_TTT/lact/.cache_inductor_llm/vx/cvxewkbkikmvdmephgxgvhfeupqa5hik73nim6nxcvp47o6ktboy.py":80:21)
#loc61 = loc("/NHNHOME/WORKSPACE/26msit001_A/jinhyeok/loop_TTT/lact/.cache_inductor_llm/vx/cvxewkbkikmvdmephgxgvhfeupqa5hik73nim6nxcvp47o6ktboy.py":81:20)
#loc62 = loc("/NHNHOME/WORKSPACE/26msit001_A/jinhyeok/loop_TTT/lact/.cache_inductor_llm/vx/cvxewkbkikmvdmephgxgvhfeupqa5hik73nim6nxcvp47o6ktboy.py":83:51)
#loc63 = loc("/NHNHOME/WORKSPACE/26msit001_A/jinhyeok/loop_TTT/lact/.cache_inductor_llm/vx/cvxewkbkikmvdmephgxgvhfeupqa5hik73nim6nxcvp47o6ktboy.py":84:25)
#loc64 = loc("/NHNHOME/WORKSPACE/26msit001_A/jinhyeok/loop_TTT/lact/.cache_inductor_llm/vx/cvxewkbkikmvdmephgxgvhfeupqa5hik73nim6nxcvp47o6ktboy.py":84:48)
#loc65 = loc("/NHNHOME/WORKSPACE/26msit001_A/jinhyeok/loop_TTT/lact/.cache_inductor_llm/vx/cvxewkbkikmvdmephgxgvhfeupqa5hik73nim6nxcvp47o6ktboy.py":85:25)
#loc66 = loc("/NHNHOME/WORKSPACE/26msit001_A/jinhyeok/loop_TTT/lact/.cache_inductor_llm/vx/cvxewkbkikmvdmephgxgvhfeupqa5hik73nim6nxcvp47o6ktboy.py":85:48)
#loc67 = loc("/NHNHOME/WORKSPACE/26msit001_A/jinhyeok/loop_TTT/lact/.cache_inductor_llm/vx/cvxewkbkikmvdmephgxgvhfeupqa5hik73nim6nxcvp47o6ktboy.py":86:25)
#loc68 = loc("/NHNHOME/WORKSPACE/26msit001_A/jinhyeok/loop_TTT/lact/.cache_inductor_llm/vx/cvxewkbkikmvdmephgxgvhfeupqa5hik73nim6nxcvp47o6ktboy.py":86:48)
#loc69 = loc("/NHNHOME/WORKSPACE/26msit001_A/jinhyeok/loop_TTT/lact/.cache_inductor_llm/vx/cvxewkbkikmvdmephgxgvhfeupqa5hik73nim6nxcvp47o6ktboy.py":87:25)
#loc70 = loc("/NHNHOME/WORKSPACE/26msit001_A/jinhyeok/loop_TTT/lact/.cache_inductor_llm/vx/cvxewkbkikmvdmephgxgvhfeupqa5hik73nim6nxcvp47o6ktboy.py":87:48)
#loc71 = loc("/NHNHOME/WORKSPACE/26msit001_A/jinhyeok/loop_TTT/lact/.cache_inductor_llm/vx/cvxewkbkikmvdmephgxgvhfeupqa5hik73nim6nxcvp47o6ktboy.py":88:25)
#loc72 = loc("/NHNHOME/WORKSPACE/26msit001_A/jinhyeok/loop_TTT/lact/.cache_inductor_llm/vx/cvxewkbkikmvdmephgxgvhfeupqa5hik73nim6nxcvp47o6ktboy.py":88:36)
#loc73 = loc("/NHNHOME/WORKSPACE/26msit001_A/jinhyeok/loop_TTT/lact/.cache_inductor_llm/vx/cvxewkbkikmvdmephgxgvhfeupqa5hik73nim6nxcvp47o6ktboy.py":88:4)
#loc88 = loc("xmask"(#loc2))
#loc89 = loc("tmp14"(#loc3))
#loc90 = loc("tmp9"(#loc4))
#loc91 = loc("r0_mask"(#loc5))
#loc92 = loc("xoffset"(#loc6))
#loc93 = loc("r0_index"(#loc7))
#loc94 = loc("r0_index"(#loc8))
#loc95 = loc("tmp0"(#loc9))
#loc96 = loc("tmp0"(#loc10))
#loc97 = loc("tmp0"(#loc11))
#loc98 = loc("tmp0"(#loc12))
#loc99 = loc("tmp0"(#loc13))
#loc100 = loc("tmp0"(#loc14))
#loc101 = loc("tmp7"(#loc15))
#loc102 = loc("tmp7"(#loc16))
#loc103 = loc("tmp10"(#loc17))
#loc104 = loc("tmp10"(#loc18))
#loc105 = loc("tmp10"(#loc19))
#loc106 = loc("tmp15"(#loc20))
#loc107 = loc("tmp15"(#loc21))
#loc108 = loc("tmp15"(#loc22))
#loc109 = loc("tmp20"(#loc23))
#loc110 = loc("tmp20"(#loc24))
#loc111 = loc("tmp20"(#loc25))
#loc112 = loc("tmp36"(#loc26))
#loc113 = loc("tmp36"(#loc27))
#loc114 = loc("tmp38"(#loc28))
#loc115 = loc("tmp38"(#loc29))
#loc116 = loc("tmp38"(#loc30))
#loc117 = loc("tmp2"(#loc31))
#loc118 = loc("tmp5"(#loc32))
#loc120 = loc("tmp6"(#loc36))
#loc121 = loc("tmp12"(#loc37))
#loc122 = loc("tmp17"(#loc38))
#loc123 = loc("tmp19"(#loc39))
#loc124 = loc("tmp22"(#loc40))
#loc125 = loc("tmp23"(#loc41))
#loc126 = loc("tmp24"(#loc42))
#loc127 = loc("tmp27"(#loc43))
#loc129 = loc("tmp28"(#loc45))
#loc130 = loc("tmp29"(#loc46))
#loc131 = loc("tmp31"(#loc47))
#loc132 = loc("tmp32"(#loc48))
#loc133 = loc("tmp33"(#loc49))
#loc134 = loc("tmp34"(#loc50))
#loc135 = loc("tmp37"(#loc51))
#loc136 = loc("tmp40"(#loc52))
#loc137 = loc("tmp41"(#loc53))
#loc138 = loc("tmp42"(#loc54))
#loc139 = loc("tmp45"(#loc55))
#loc141 = loc("tmp46"(#loc57))
#loc142 = loc("tmp47"(#loc58))
#loc143 = loc("tmp48"(#loc59))
#loc144 = loc("tmp49"(#loc60))
#loc145 = loc("tmp50"(#loc61))
#loc146 = loc(fused[#loc96, #loc95])
#loc147 = loc(fused[#loc98, #loc88])
#loc148 = loc(callsite(#loc33 at #loc119))
#loc150 = loc(callsite(#loc33 at #loc128))
#loc152 = loc(callsite(#loc33 at #loc140))
#loc154 = loc(callsite(#loc35 at #loc148))
#loc155 = loc(callsite(#loc35 at #loc150))
#loc156 = loc(callsite(#loc35 at #loc152))
