#loc = loc("/NHNHOME/WORKSPACE/26msit001_A/jinhyeok/loop_TTT/lact/.cache_inductor_llm/c6/cc63xa47i4o4onmrowtp7pxiboif2rkjnlsg42tvy463xt6bfy56.py":18:0)
#loc76 = loc("/NHNHOME/WORKSPACE/26msit001_A/jinhyeok/TTT_camera_embedding/.venv_llm/lib/python3.12/site-packages/triton/language/standard.py":285:0)
#loc78 = loc(unknown)
#loc81 = loc("/NHNHOME/WORKSPACE/26msit001_A/jinhyeok/TTT_camera_embedding/.venv_llm/lib/python3.12/site-packages/triton/language/standard.py":260:0)
#loc85 = loc("in_out_ptr0"(#loc))
#loc86 = loc("in_out_ptr1"(#loc))
#loc87 = loc("in_out_ptr2"(#loc))
#loc88 = loc("in_ptr0"(#loc))
#loc89 = loc("in_ptr1"(#loc))
#loc90 = loc("in_ptr2"(#loc))
#loc91 = loc("out_ptr0"(#loc))
#loc92 = loc("xnumel"(#loc))
#loc93 = loc("r0_numel"(#loc))
#loc152 = loc("input"(#loc76))
#loc153 = loc("a"(#loc81))
#loc154 = loc("b"(#loc81))
module {
  tt.func public @triton_per_fused__to_copy_add_div_linalg_vector_norm_mul_29(%in_out_ptr0: !tt.ptr<f32> {tt.divisibility = 16 : i32} loc("in_out_ptr0"(#loc)), %in_out_ptr1: !tt.ptr<f32> {tt.divisibility = 16 : i32} loc("in_out_ptr1"(#loc)), %in_out_ptr2: !tt.ptr<f32> {tt.divisibility = 16 : i32} loc("in_out_ptr2"(#loc)), %in_ptr0: !tt.ptr<bf16> {tt.divisibility = 16 : i32} loc("in_ptr0"(#loc)), %in_ptr1: !tt.ptr<bf16> {tt.divisibility = 16 : i32} loc("in_ptr1"(#loc)), %in_ptr2: !tt.ptr<bf16> {tt.divisibility = 16 : i32} loc("in_ptr2"(#loc)), %out_ptr0: !tt.ptr<bf16> {tt.divisibility = 16 : i32} loc("out_ptr0"(#loc)), %xnumel: i32 {tt.divisibility = 16 : i32} loc("xnumel"(#loc)), %r0_numel: i32 {tt.divisibility = 16 : i32} loc("r0_numel"(#loc))) attributes {noinline = false} {
    %xnumel_0 = arith.constant 1536 : i32 loc(#loc94)
    %r0_numel_1 = arith.constant 192 : i32 loc(#loc95)
    %xoffset = tt.get_program_id x : i32 loc(#loc96)
    %xoffset_2 = arith.constant 1 : i32 loc(#loc97)
    %xoffset_3 = arith.constant 1 : i32 loc(#loc97)
    %xoffset_4 = arith.muli %xoffset, %xoffset_3 : i32 loc(#loc97)
    %xindex = tt.make_range {end = 1 : i32, start = 0 : i32} : tensor<1xi32> loc(#loc98)
    %xindex_5 = tt.expand_dims %xindex {axis = 1 : i32} : tensor<1xi32> -> tensor<1x1xi32> loc(#loc99)
    %xindex_6 = tt.splat %xoffset_4 : i32 -> tensor<1x1xi32> loc(#loc100)
    %xindex_7 = arith.addi %xindex_6, %xindex_5 : tensor<1x1xi32> loc(#loc100)
    %xmask = arith.constant dense<1536> : tensor<1x1xi32> loc(#loc101)
    %xmask_8 = arith.cmpi slt, %xindex_7, %xmask : tensor<1x1xi32> loc(#loc101)
    %r0_index = tt.make_range {end = 256 : i32, start = 0 : i32} : tensor<256xi32> loc(#loc102)
    %r0_index_9 = tt.expand_dims %r0_index {axis = 0 : i32} : tensor<256xi32> -> tensor<1x256xi32> loc(#loc103)
    %r0_offset = arith.constant 0 : i32 loc(#loc104)
    %r0_mask = arith.constant dense<192> : tensor<1x256xi32> loc(#loc105)
    %r0_mask_10 = arith.cmpi slt, %r0_index_9, %r0_mask : tensor<1x256xi32> loc(#loc105)
    %tmp0 = arith.constant 192 : i32 loc(#loc106)
    %tmp0_11 = arith.constant 192 : i32 loc(#loc106)
    %tmp0_12 = arith.constant dense<192> : tensor<1x1xi32> loc(#loc106)
    %tmp0_13 = arith.muli %tmp0_12, %xindex_7 : tensor<1x1xi32> loc(#loc106)
    %tmp0_14 = tt.broadcast %tmp0_13 : tensor<1x1xi32> -> tensor<1x256xi32> loc(#loc107)
    %tmp0_15 = arith.addi %r0_index_9, %tmp0_14 : tensor<1x256xi32> loc(#loc107)
    %tmp0_16 = tt.splat %in_ptr0 : !tt.ptr<bf16> -> tensor<1x256x!tt.ptr<bf16>> loc(#loc108)
    %tmp0_17 = tt.addptr %tmp0_16, %tmp0_15 : tensor<1x256x!tt.ptr<bf16>>, tensor<1x256xi32> loc(#loc108)
    %tmp0_18 = tt.broadcast %xmask_8 : tensor<1x1xi1> -> tensor<1x256xi1> loc(#loc109)
    %tmp0_19 = arith.andi %r0_mask_10, %tmp0_18 : tensor<1x256xi1> loc(#loc109)
    %tmp0_20 = arith.constant 0.000000e+00 : f32 loc(#loc110)
    %tmp0_21 = arith.constant dense<0.000000e+00> : tensor<1x256xf32> loc(#loc110)
    %tmp0_22 = arith.truncf %tmp0_21 : tensor<1x256xf32> to tensor<1x256xbf16> loc(#loc110)
    %tmp0_23 = tt.load %tmp0_17, %tmp0_19, %tmp0_22 : tensor<1x256x!tt.ptr<bf16>> loc(#loc110)
    %tmp0_24 = arith.extf %tmp0_23 : tensor<1x256xbf16> to tensor<1x256xf32> loc(#loc111)
    %tmp8 = arith.constant 192 : i32 loc(#loc112)
    %tmp8_25 = arith.constant 192 : i32 loc(#loc112)
    %tmp8_26 = arith.constant dense<192> : tensor<1x1xi32> loc(#loc112)
    %tmp8_27 = arith.muli %tmp8_26, %xindex_7 : tensor<1x1xi32> loc(#loc112)
    %tmp8_28 = tt.broadcast %tmp8_27 : tensor<1x1xi32> -> tensor<1x256xi32> loc(#loc113)
    %tmp8_29 = arith.addi %r0_index_9, %tmp8_28 : tensor<1x256xi32> loc(#loc113)
    %tmp8_30 = tt.splat %in_out_ptr1 : !tt.ptr<f32> -> tensor<1x256x!tt.ptr<f32>> loc(#loc114)
    %tmp8_31 = tt.addptr %tmp8_30, %tmp8_29 : tensor<1x256x!tt.ptr<f32>>, tensor<1x256xi32> loc(#loc114)
    %tmp8_32 = tt.broadcast %xmask_8 : tensor<1x1xi1> -> tensor<1x256xi1> loc(#loc115)
    %tmp8_33 = arith.andi %r0_mask_10, %tmp8_32 : tensor<1x256xi1> loc(#loc115)
    %tmp8_34 = arith.constant 0.000000e+00 : f32 loc(#loc116)
    %tmp8_35 = arith.constant dense<0.000000e+00> : tensor<1x256xf32> loc(#loc116)
    %tmp8_36 = tt.load %tmp8_31, %tmp8_33, %tmp8_35 : tensor<1x256x!tt.ptr<f32>> loc(#loc116)
    %tmp11 = arith.constant 192 : i32 loc(#loc117)
    %tmp11_37 = arith.constant 192 : i32 loc(#loc117)
    %tmp11_38 = arith.constant dense<192> : tensor<1x1xi32> loc(#loc117)
    %tmp11_39 = arith.muli %tmp11_38, %xindex_7 : tensor<1x1xi32> loc(#loc117)
    %tmp11_40 = tt.broadcast %tmp11_39 : tensor<1x1xi32> -> tensor<1x256xi32> loc(#loc118)
    %tmp11_41 = arith.addi %r0_index_9, %tmp11_40 : tensor<1x256xi32> loc(#loc118)
    %tmp11_42 = tt.splat %in_ptr1 : !tt.ptr<bf16> -> tensor<1x256x!tt.ptr<bf16>> loc(#loc119)
    %tmp11_43 = tt.addptr %tmp11_42, %tmp11_41 : tensor<1x256x!tt.ptr<bf16>>, tensor<1x256xi32> loc(#loc119)
    %tmp11_44 = tt.broadcast %xmask_8 : tensor<1x1xi1> -> tensor<1x256xi1> loc(#loc120)
    %tmp11_45 = arith.andi %r0_mask_10, %tmp11_44 : tensor<1x256xi1> loc(#loc120)
    %tmp11_46 = arith.constant 0.000000e+00 : f32 loc(#loc121)
    %tmp11_47 = arith.constant dense<0.000000e+00> : tensor<1x256xf32> loc(#loc121)
    %tmp11_48 = arith.truncf %tmp11_47 : tensor<1x256xf32> to tensor<1x256xbf16> loc(#loc121)
    %tmp11_49 = tt.load %tmp11_43, %tmp11_45, %tmp11_48 : tensor<1x256x!tt.ptr<bf16>> loc(#loc121)
    %tmp11_50 = arith.extf %tmp11_49 : tensor<1x256xbf16> to tensor<1x256xf32> loc(#loc122)
    %tmp16 = arith.constant 192 : i32 loc(#loc123)
    %tmp16_51 = arith.constant 192 : i32 loc(#loc123)
    %tmp16_52 = arith.constant dense<192> : tensor<1x1xi32> loc(#loc123)
    %tmp16_53 = arith.muli %tmp16_52, %xindex_7 : tensor<1x1xi32> loc(#loc123)
    %tmp16_54 = tt.broadcast %tmp16_53 : tensor<1x1xi32> -> tensor<1x256xi32> loc(#loc124)
    %tmp16_55 = arith.addi %r0_index_9, %tmp16_54 : tensor<1x256xi32> loc(#loc124)
    %tmp16_56 = tt.splat %in_ptr2 : !tt.ptr<bf16> -> tensor<1x256x!tt.ptr<bf16>> loc(#loc125)
    %tmp16_57 = tt.addptr %tmp16_56, %tmp16_55 : tensor<1x256x!tt.ptr<bf16>>, tensor<1x256xi32> loc(#loc125)
    %tmp16_58 = tt.broadcast %xmask_8 : tensor<1x1xi1> -> tensor<1x256xi1> loc(#loc126)
    %tmp16_59 = arith.andi %r0_mask_10, %tmp16_58 : tensor<1x256xi1> loc(#loc126)
    %tmp16_60 = arith.constant 0.000000e+00 : f32 loc(#loc127)
    %tmp16_61 = arith.constant dense<0.000000e+00> : tensor<1x256xf32> loc(#loc127)
    %tmp16_62 = arith.truncf %tmp16_61 : tensor<1x256xf32> to tensor<1x256xbf16> loc(#loc127)
    %tmp16_63 = tt.load %tmp16_57, %tmp16_59, %tmp16_62 : tensor<1x256x!tt.ptr<bf16>> loc(#loc127)
    %tmp16_64 = arith.extf %tmp16_63 : tensor<1x256xbf16> to tensor<1x256xf32> loc(#loc128)
    %tmp2 = arith.mulf %tmp0_24, %tmp0_24 : tensor<1x256xf32> loc(#loc129)
    %tmp5 = tt.broadcast %xmask_8 : tensor<1x1xi1> -> tensor<1x256xi1> loc(#loc130)
    %tmp5_65 = arith.andi %r0_mask_10, %tmp5 : tensor<1x256xi1> loc(#loc130)
    %tmp5_66 = arith.constant 0 : i32 loc(#loc131)
    %tmp5_67 = arith.constant 0.000000e+00 : f32 loc(#loc131)
    %tmp5_68 = arith.constant dense<0.000000e+00> : tensor<1x256xf32> loc(#loc131)
    %tmp5_69 = arith.select %tmp5_65, %tmp2, %tmp5_68 : tensor<1x256xi1>, tensor<1x256xf32> loc(#loc131)
    %tmp6 = tt.call @"triton.language.standard.sum__fp32S1_256S__(1,)cconstexpr_1__(2,)cconstexpr_False__(3,)cNone"(%tmp5_69) : (tensor<1x256xf32>) -> tensor<1xf32> loc(#loc132)
    %tmp6_70 = tt.expand_dims %tmp6 {axis = 1 : i32} : tensor<1xf32> -> tensor<1x1xf32> loc(#loc133)
    %tmp7 = tt.extern_elementwise %tmp6_70 {libname = "", libpath = "", pure = true, symbol = "__nv_sqrtf"} : (tensor<1x1xf32>) -> tensor<1x1xf32> loc(#loc134)
    %tmp9 = arith.constant 2.876900e+00 : f32 loc(#loc135)
    %tmp10 = arith.constant dense<2.876900e+00> : tensor<1x256xf32> loc(#loc136)
    %tmp10_71 = arith.mulf %tmp8_36, %tmp10 : tensor<1x256xf32> loc(#loc136)
    %tmp13 = arith.addf %tmp10_71, %tmp11_50 : tensor<1x256xf32> loc(#loc137)
    %tmp14 = arith.constant 2.836600e+00 : f32 loc(#loc138)
    %tmp15 = arith.constant dense<2.836600e+00> : tensor<1x256xf32> loc(#loc139)
    %tmp15_72 = arith.mulf %tmp13, %tmp15 : tensor<1x256xf32> loc(#loc139)
    %tmp18 = arith.addf %tmp15_72, %tmp16_64 : tensor<1x256xf32> loc(#loc140)
    %tmp19 = arith.addf %tmp0_24, %tmp18 : tensor<1x256xf32> loc(#loc141)
    %tmp20 = arith.mulf %tmp19, %tmp19 : tensor<1x256xf32> loc(#loc142)
    %tmp23 = tt.broadcast %xmask_8 : tensor<1x1xi1> -> tensor<1x256xi1> loc(#loc143)
    %tmp23_73 = arith.andi %r0_mask_10, %tmp23 : tensor<1x256xi1> loc(#loc143)
    %tmp23_74 = arith.constant 0 : i32 loc(#loc144)
    %tmp23_75 = arith.constant 0.000000e+00 : f32 loc(#loc144)
    %tmp23_76 = arith.constant dense<0.000000e+00> : tensor<1x256xf32> loc(#loc144)
    %tmp23_77 = arith.select %tmp23_73, %tmp20, %tmp23_76 : tensor<1x256xi1>, tensor<1x256xf32> loc(#loc144)
    %tmp24 = tt.call @"triton.language.standard.sum__fp32S1_256S__(1,)cconstexpr_1__(2,)cconstexpr_False__(3,)cNone"(%tmp23_77) : (tensor<1x256xf32>) -> tensor<1xf32> loc(#loc145)
    %tmp24_78 = tt.expand_dims %tmp24 {axis = 1 : i32} : tensor<1xf32> -> tensor<1x1xf32> loc(#loc146)
    %tmp25 = tt.extern_elementwise %tmp24_78 {libname = "", libpath = "", pure = true, symbol = "__nv_sqrtf"} : (tensor<1x1xf32>) -> tensor<1x1xf32> loc(#loc147)
    %tmp26 = arith.constant 9.99999974E-6 : f32 loc(#loc148)
    %tmp27 = arith.constant dense<9.99999974E-6> : tensor<1x1xf32> loc(#loc149)
    %tmp27_79 = arith.addf %tmp25, %tmp27 : tensor<1x1xf32> loc(#loc149)
    %tmp28 = tt.broadcast %tmp27_79 : tensor<1x1xf32> -> tensor<1x256xf32> loc(#loc150)
    %tmp28_80 = arith.divf %tmp19, %tmp28 : tensor<1x256xf32> loc(#loc150)
    %tmp29 = tt.broadcast %tmp7 : tensor<1x1xf32> -> tensor<1x256xf32> loc(#loc151)
    %tmp29_81 = arith.mulf %tmp28_80, %tmp29 : tensor<1x256xf32> loc(#loc151)
    gpu.barrier loc(#loc59)
    %0 = tt.splat %in_out_ptr0 : !tt.ptr<f32> -> tensor<1x1x!tt.ptr<f32>> loc(#loc60)
    %1 = tt.addptr %0, %xindex_7 : tensor<1x1x!tt.ptr<f32>>, tensor<1x1xi32> loc(#loc60)
    tt.store %1, %tmp7, %xmask_8 : tensor<1x1x!tt.ptr<f32>> loc(#loc61)
    %c192_i32 = arith.constant 192 : i32 loc(#loc62)
    %c192_i32_82 = arith.constant 192 : i32 loc(#loc62)
    %cst = arith.constant dense<192> : tensor<1x1xi32> loc(#loc62)
    %2 = arith.muli %cst, %xindex_7 : tensor<1x1xi32> loc(#loc62)
    %3 = tt.broadcast %2 : tensor<1x1xi32> -> tensor<1x256xi32> loc(#loc63)
    %4 = arith.addi %r0_index_9, %3 : tensor<1x256xi32> loc(#loc63)
    %5 = tt.splat %in_out_ptr1 : !tt.ptr<f32> -> tensor<1x256x!tt.ptr<f32>> loc(#loc64)
    %6 = tt.addptr %5, %4 : tensor<1x256x!tt.ptr<f32>>, tensor<1x256xi32> loc(#loc64)
    %7 = tt.broadcast %xmask_8 : tensor<1x1xi1> -> tensor<1x256xi1> loc(#loc65)
    %8 = arith.andi %r0_mask_10, %7 : tensor<1x256xi1> loc(#loc65)
    tt.store %6, %tmp19, %8 : tensor<1x256x!tt.ptr<f32>> loc(#loc66)
    gpu.barrier loc(#loc67)
    %9 = tt.splat %in_out_ptr2 : !tt.ptr<f32> -> tensor<1x1x!tt.ptr<f32>> loc(#loc68)
    %10 = tt.addptr %9, %xindex_7 : tensor<1x1x!tt.ptr<f32>>, tensor<1x1xi32> loc(#loc68)
    tt.store %10, %tmp25, %xmask_8 : tensor<1x1x!tt.ptr<f32>> loc(#loc69)
    %c192_i32_83 = arith.constant 192 : i32 loc(#loc70)
    %c192_i32_84 = arith.constant 192 : i32 loc(#loc70)
    %cst_85 = arith.constant dense<192> : tensor<1x1xi32> loc(#loc70)
    %11 = arith.muli %cst_85, %xindex_7 : tensor<1x1xi32> loc(#loc70)
    %12 = tt.broadcast %11 : tensor<1x1xi32> -> tensor<1x256xi32> loc(#loc71)
    %13 = arith.addi %r0_index_9, %12 : tensor<1x256xi32> loc(#loc71)
    %14 = tt.splat %out_ptr0 : !tt.ptr<bf16> -> tensor<1x256x!tt.ptr<bf16>> loc(#loc72)
    %15 = tt.addptr %14, %13 : tensor<1x256x!tt.ptr<bf16>>, tensor<1x256xi32> loc(#loc72)
    %16 = tt.broadcast %xmask_8 : tensor<1x1xi1> -> tensor<1x256xi1> loc(#loc73)
    %17 = arith.andi %r0_mask_10, %16 : tensor<1x256xi1> loc(#loc73)
    %18 = arith.truncf %tmp29_81 : tensor<1x256xf32> to tensor<1x256xbf16> loc(#loc74)
    tt.store %15, %18, %17 : tensor<1x256x!tt.ptr<bf16>> loc(#loc74)
    tt.return loc(#loc75)
  } loc(#loc)
  tt.func private @"triton.language.standard.sum__fp32S1_256S__(1,)cconstexpr_1__(2,)cconstexpr_False__(3,)cNone"(%input: tensor<1x256xf32> loc("input"(#loc76))) -> tensor<1xf32> attributes {noinline = false} {
    %0 = "tt.reduce"(%input) <{axis = 1 : i32}> ({
    ^bb0(%arg1: f32 loc(unknown), %arg2: f32 loc(unknown)):
      %2 = tt.call @triton.language.standard._sum_combine__fp32_fp32__(%arg1, %arg2) : (f32, f32) -> f32 loc(#loc77)
      tt.reduce.return %2 : f32 loc(#loc77)
    }) : (tensor<1x256xf32>) -> tensor<1xf32> loc(#loc77)
    tt.return %0 : tensor<1xf32> loc(#loc79)
  ^bb1:  // no predecessors
    %1 = ub.poison : tensor<1xf32> loc(#loc80)
    tt.return %1 : tensor<1xf32> loc(#loc80)
  } loc(#loc76)
  tt.func private @triton.language.standard._sum_combine__fp32_fp32__(%a: f32 loc("a"(#loc81)), %b: f32 loc("b"(#loc81))) -> f32 attributes {noinline = false} {
    %0 = arith.addf %a, %b : f32 loc(#loc82)
    tt.return %0 : f32 loc(#loc83)
  ^bb1:  // no predecessors
    %1 = ub.poison : f32 loc(#loc84)
    tt.return %1 : f32 loc(#loc84)
  } loc(#loc81)
} loc(#loc)
#loc1 = loc("/NHNHOME/WORKSPACE/26msit001_A/jinhyeok/loop_TTT/lact/.cache_inductor_llm/c6/cc63xa47i4o4onmrowtp7pxiboif2rkjnlsg42tvy463xt6bfy56.py":19:13)
#loc2 = loc("/NHNHOME/WORKSPACE/26msit001_A/jinhyeok/loop_TTT/lact/.cache_inductor_llm/c6/cc63xa47i4o4onmrowtp7pxiboif2rkjnlsg42tvy463xt6bfy56.py":20:15)
#loc3 = loc("/NHNHOME/WORKSPACE/26msit001_A/jinhyeok/loop_TTT/lact/.cache_inductor_llm/c6/cc63xa47i4o4onmrowtp7pxiboif2rkjnlsg42tvy463xt6bfy56.py":24:28)
#loc4 = loc("/NHNHOME/WORKSPACE/26msit001_A/jinhyeok/loop_TTT/lact/.cache_inductor_llm/c6/cc63xa47i4o4onmrowtp7pxiboif2rkjnlsg42tvy463xt6bfy56.py":24:33)
#loc5 = loc("/NHNHOME/WORKSPACE/26msit001_A/jinhyeok/loop_TTT/lact/.cache_inductor_llm/c6/cc63xa47i4o4onmrowtp7pxiboif2rkjnlsg42tvy463xt6bfy56.py":25:36)
#loc6 = loc("/NHNHOME/WORKSPACE/26msit001_A/jinhyeok/loop_TTT/lact/.cache_inductor_llm/c6/cc63xa47i4o4onmrowtp7pxiboif2rkjnlsg42tvy463xt6bfy56.py":25:44)
#loc7 = loc("/NHNHOME/WORKSPACE/26msit001_A/jinhyeok/loop_TTT/lact/.cache_inductor_llm/c6/cc63xa47i4o4onmrowtp7pxiboif2rkjnlsg42tvy463xt6bfy56.py":25:23)
#loc8 = loc("/NHNHOME/WORKSPACE/26msit001_A/jinhyeok/loop_TTT/lact/.cache_inductor_llm/c6/cc63xa47i4o4onmrowtp7pxiboif2rkjnlsg42tvy463xt6bfy56.py":26:21)
#loc9 = loc("/NHNHOME/WORKSPACE/26msit001_A/jinhyeok/loop_TTT/lact/.cache_inductor_llm/c6/cc63xa47i4o4onmrowtp7pxiboif2rkjnlsg42tvy463xt6bfy56.py":27:28)
#loc10 = loc("/NHNHOME/WORKSPACE/26msit001_A/jinhyeok/loop_TTT/lact/.cache_inductor_llm/c6/cc63xa47i4o4onmrowtp7pxiboif2rkjnlsg42tvy463xt6bfy56.py":27:38)
#loc11 = loc("/NHNHOME/WORKSPACE/26msit001_A/jinhyeok/loop_TTT/lact/.cache_inductor_llm/c6/cc63xa47i4o4onmrowtp7pxiboif2rkjnlsg42tvy463xt6bfy56.py":28:16)
#loc12 = loc("/NHNHOME/WORKSPACE/26msit001_A/jinhyeok/loop_TTT/lact/.cache_inductor_llm/c6/cc63xa47i4o4onmrowtp7pxiboif2rkjnlsg42tvy463xt6bfy56.py":29:25)
#loc13 = loc("/NHNHOME/WORKSPACE/26msit001_A/jinhyeok/loop_TTT/lact/.cache_inductor_llm/c6/cc63xa47i4o4onmrowtp7pxiboif2rkjnlsg42tvy463xt6bfy56.py":34:41)
#loc14 = loc("/NHNHOME/WORKSPACE/26msit001_A/jinhyeok/loop_TTT/lact/.cache_inductor_llm/c6/cc63xa47i4o4onmrowtp7pxiboif2rkjnlsg42tvy463xt6bfy56.py":34:37)
#loc15 = loc("/NHNHOME/WORKSPACE/26msit001_A/jinhyeok/loop_TTT/lact/.cache_inductor_llm/c6/cc63xa47i4o4onmrowtp7pxiboif2rkjnlsg42tvy463xt6bfy56.py":34:30)
#loc16 = loc("/NHNHOME/WORKSPACE/26msit001_A/jinhyeok/loop_TTT/lact/.cache_inductor_llm/c6/cc63xa47i4o4onmrowtp7pxiboif2rkjnlsg42tvy463xt6bfy56.py":34:56)
#loc17 = loc("/NHNHOME/WORKSPACE/26msit001_A/jinhyeok/loop_TTT/lact/.cache_inductor_llm/c6/cc63xa47i4o4onmrowtp7pxiboif2rkjnlsg42tvy463xt6bfy56.py":34:46)
#loc18 = loc("/NHNHOME/WORKSPACE/26msit001_A/jinhyeok/loop_TTT/lact/.cache_inductor_llm/c6/cc63xa47i4o4onmrowtp7pxiboif2rkjnlsg42tvy463xt6bfy56.py":34:77)
#loc19 = loc("/NHNHOME/WORKSPACE/26msit001_A/jinhyeok/loop_TTT/lact/.cache_inductor_llm/c6/cc63xa47i4o4onmrowtp7pxiboif2rkjnlsg42tvy463xt6bfy56.py":35:45)
#loc20 = loc("/NHNHOME/WORKSPACE/26msit001_A/jinhyeok/loop_TTT/lact/.cache_inductor_llm/c6/cc63xa47i4o4onmrowtp7pxiboif2rkjnlsg42tvy463xt6bfy56.py":35:41)
#loc21 = loc("/NHNHOME/WORKSPACE/26msit001_A/jinhyeok/loop_TTT/lact/.cache_inductor_llm/c6/cc63xa47i4o4onmrowtp7pxiboif2rkjnlsg42tvy463xt6bfy56.py":35:34)
#loc22 = loc("/NHNHOME/WORKSPACE/26msit001_A/jinhyeok/loop_TTT/lact/.cache_inductor_llm/c6/cc63xa47i4o4onmrowtp7pxiboif2rkjnlsg42tvy463xt6bfy56.py":35:60)
#loc23 = loc("/NHNHOME/WORKSPACE/26msit001_A/jinhyeok/loop_TTT/lact/.cache_inductor_llm/c6/cc63xa47i4o4onmrowtp7pxiboif2rkjnlsg42tvy463xt6bfy56.py":35:50)
#loc24 = loc("/NHNHOME/WORKSPACE/26msit001_A/jinhyeok/loop_TTT/lact/.cache_inductor_llm/c6/cc63xa47i4o4onmrowtp7pxiboif2rkjnlsg42tvy463xt6bfy56.py":36:42)
#loc25 = loc("/NHNHOME/WORKSPACE/26msit001_A/jinhyeok/loop_TTT/lact/.cache_inductor_llm/c6/cc63xa47i4o4onmrowtp7pxiboif2rkjnlsg42tvy463xt6bfy56.py":36:38)
#loc26 = loc("/NHNHOME/WORKSPACE/26msit001_A/jinhyeok/loop_TTT/lact/.cache_inductor_llm/c6/cc63xa47i4o4onmrowtp7pxiboif2rkjnlsg42tvy463xt6bfy56.py":36:31)
#loc27 = loc("/NHNHOME/WORKSPACE/26msit001_A/jinhyeok/loop_TTT/lact/.cache_inductor_llm/c6/cc63xa47i4o4onmrowtp7pxiboif2rkjnlsg42tvy463xt6bfy56.py":36:57)
#loc28 = loc("/NHNHOME/WORKSPACE/26msit001_A/jinhyeok/loop_TTT/lact/.cache_inductor_llm/c6/cc63xa47i4o4onmrowtp7pxiboif2rkjnlsg42tvy463xt6bfy56.py":36:47)
#loc29 = loc("/NHNHOME/WORKSPACE/26msit001_A/jinhyeok/loop_TTT/lact/.cache_inductor_llm/c6/cc63xa47i4o4onmrowtp7pxiboif2rkjnlsg42tvy463xt6bfy56.py":36:78)
#loc30 = loc("/NHNHOME/WORKSPACE/26msit001_A/jinhyeok/loop_TTT/lact/.cache_inductor_llm/c6/cc63xa47i4o4onmrowtp7pxiboif2rkjnlsg42tvy463xt6bfy56.py":37:42)
#loc31 = loc("/NHNHOME/WORKSPACE/26msit001_A/jinhyeok/loop_TTT/lact/.cache_inductor_llm/c6/cc63xa47i4o4onmrowtp7pxiboif2rkjnlsg42tvy463xt6bfy56.py":37:38)
#loc32 = loc("/NHNHOME/WORKSPACE/26msit001_A/jinhyeok/loop_TTT/lact/.cache_inductor_llm/c6/cc63xa47i4o4onmrowtp7pxiboif2rkjnlsg42tvy463xt6bfy56.py":37:31)
#loc33 = loc("/NHNHOME/WORKSPACE/26msit001_A/jinhyeok/loop_TTT/lact/.cache_inductor_llm/c6/cc63xa47i4o4onmrowtp7pxiboif2rkjnlsg42tvy463xt6bfy56.py":37:57)
#loc34 = loc("/NHNHOME/WORKSPACE/26msit001_A/jinhyeok/loop_TTT/lact/.cache_inductor_llm/c6/cc63xa47i4o4onmrowtp7pxiboif2rkjnlsg42tvy463xt6bfy56.py":37:47)
#loc35 = loc("/NHNHOME/WORKSPACE/26msit001_A/jinhyeok/loop_TTT/lact/.cache_inductor_llm/c6/cc63xa47i4o4onmrowtp7pxiboif2rkjnlsg42tvy463xt6bfy56.py":37:78)
#loc36 = loc("/NHNHOME/WORKSPACE/26msit001_A/jinhyeok/loop_TTT/lact/.cache_inductor_llm/c6/cc63xa47i4o4onmrowtp7pxiboif2rkjnlsg42tvy463xt6bfy56.py":39:18)
#loc37 = loc("/NHNHOME/WORKSPACE/26msit001_A/jinhyeok/loop_TTT/lact/.cache_inductor_llm/c6/cc63xa47i4o4onmrowtp7pxiboif2rkjnlsg42tvy463xt6bfy56.py":41:30)
#loc38 = loc("/NHNHOME/WORKSPACE/26msit001_A/jinhyeok/loop_TTT/lact/.cache_inductor_llm/c6/cc63xa47i4o4onmrowtp7pxiboif2rkjnlsg42tvy463xt6bfy56.py":41:43)
#loc39 = loc("/NHNHOME/WORKSPACE/26msit001_A/jinhyeok/loop_TTT/lact/.cache_inductor_llm/c6/cc63xa47i4o4onmrowtp7pxiboif2rkjnlsg42tvy463xt6bfy56.py":42:24)
#loc40 = loc("/NHNHOME/WORKSPACE/26msit001_A/jinhyeok/loop_TTT/lact/.cache_inductor_llm/c6/cc63xa47i4o4onmrowtp7pxiboif2rkjnlsg42tvy463xt6bfy56.py":42:27)
#loc41 = loc("/NHNHOME/WORKSPACE/26msit001_A/jinhyeok/loop_TTT/lact/.cache_inductor_llm/c6/cc63xa47i4o4onmrowtp7pxiboif2rkjnlsg42tvy463xt6bfy56.py":43:26)
#loc42 = loc("/NHNHOME/WORKSPACE/26msit001_A/jinhyeok/loop_TTT/lact/.cache_inductor_llm/c6/cc63xa47i4o4onmrowtp7pxiboif2rkjnlsg42tvy463xt6bfy56.py":44:11)
#loc43 = loc("/NHNHOME/WORKSPACE/26msit001_A/jinhyeok/loop_TTT/lact/.cache_inductor_llm/c6/cc63xa47i4o4onmrowtp7pxiboif2rkjnlsg42tvy463xt6bfy56.py":45:19)
#loc44 = loc("/NHNHOME/WORKSPACE/26msit001_A/jinhyeok/loop_TTT/lact/.cache_inductor_llm/c6/cc63xa47i4o4onmrowtp7pxiboif2rkjnlsg42tvy463xt6bfy56.py":47:20)
#loc45 = loc("/NHNHOME/WORKSPACE/26msit001_A/jinhyeok/loop_TTT/lact/.cache_inductor_llm/c6/cc63xa47i4o4onmrowtp7pxiboif2rkjnlsg42tvy463xt6bfy56.py":48:12)
#loc46 = loc("/NHNHOME/WORKSPACE/26msit001_A/jinhyeok/loop_TTT/lact/.cache_inductor_llm/c6/cc63xa47i4o4onmrowtp7pxiboif2rkjnlsg42tvy463xt6bfy56.py":49:20)
#loc47 = loc("/NHNHOME/WORKSPACE/26msit001_A/jinhyeok/loop_TTT/lact/.cache_inductor_llm/c6/cc63xa47i4o4onmrowtp7pxiboif2rkjnlsg42tvy463xt6bfy56.py":51:20)
#loc48 = loc("/NHNHOME/WORKSPACE/26msit001_A/jinhyeok/loop_TTT/lact/.cache_inductor_llm/c6/cc63xa47i4o4onmrowtp7pxiboif2rkjnlsg42tvy463xt6bfy56.py":52:19)
#loc49 = loc("/NHNHOME/WORKSPACE/26msit001_A/jinhyeok/loop_TTT/lact/.cache_inductor_llm/c6/cc63xa47i4o4onmrowtp7pxiboif2rkjnlsg42tvy463xt6bfy56.py":53:20)
#loc50 = loc("/NHNHOME/WORKSPACE/26msit001_A/jinhyeok/loop_TTT/lact/.cache_inductor_llm/c6/cc63xa47i4o4onmrowtp7pxiboif2rkjnlsg42tvy463xt6bfy56.py":55:31)
#loc51 = loc("/NHNHOME/WORKSPACE/26msit001_A/jinhyeok/loop_TTT/lact/.cache_inductor_llm/c6/cc63xa47i4o4onmrowtp7pxiboif2rkjnlsg42tvy463xt6bfy56.py":55:45)
#loc52 = loc("/NHNHOME/WORKSPACE/26msit001_A/jinhyeok/loop_TTT/lact/.cache_inductor_llm/c6/cc63xa47i4o4onmrowtp7pxiboif2rkjnlsg42tvy463xt6bfy56.py":56:26)
#loc53 = loc("/NHNHOME/WORKSPACE/26msit001_A/jinhyeok/loop_TTT/lact/.cache_inductor_llm/c6/cc63xa47i4o4onmrowtp7pxiboif2rkjnlsg42tvy463xt6bfy56.py":56:29)
#loc54 = loc("/NHNHOME/WORKSPACE/26msit001_A/jinhyeok/loop_TTT/lact/.cache_inductor_llm/c6/cc63xa47i4o4onmrowtp7pxiboif2rkjnlsg42tvy463xt6bfy56.py":57:27)
#loc55 = loc("/NHNHOME/WORKSPACE/26msit001_A/jinhyeok/loop_TTT/lact/.cache_inductor_llm/c6/cc63xa47i4o4onmrowtp7pxiboif2rkjnlsg42tvy463xt6bfy56.py":58:12)
#loc56 = loc("/NHNHOME/WORKSPACE/26msit001_A/jinhyeok/loop_TTT/lact/.cache_inductor_llm/c6/cc63xa47i4o4onmrowtp7pxiboif2rkjnlsg42tvy463xt6bfy56.py":59:20)
#loc57 = loc("/NHNHOME/WORKSPACE/26msit001_A/jinhyeok/loop_TTT/lact/.cache_inductor_llm/c6/cc63xa47i4o4onmrowtp7pxiboif2rkjnlsg42tvy463xt6bfy56.py":60:21)
#loc58 = loc("/NHNHOME/WORKSPACE/26msit001_A/jinhyeok/loop_TTT/lact/.cache_inductor_llm/c6/cc63xa47i4o4onmrowtp7pxiboif2rkjnlsg42tvy463xt6bfy56.py":61:20)
#loc59 = loc("/NHNHOME/WORKSPACE/26msit001_A/jinhyeok/loop_TTT/lact/.cache_inductor_llm/c6/cc63xa47i4o4onmrowtp7pxiboif2rkjnlsg42tvy463xt6bfy56.py":63:4)
#loc60 = loc("/NHNHOME/WORKSPACE/26msit001_A/jinhyeok/loop_TTT/lact/.cache_inductor_llm/c6/cc63xa47i4o4onmrowtp7pxiboif2rkjnlsg42tvy463xt6bfy56.py":64:28)
#loc61 = loc("/NHNHOME/WORKSPACE/26msit001_A/jinhyeok/loop_TTT/lact/.cache_inductor_llm/c6/cc63xa47i4o4onmrowtp7pxiboif2rkjnlsg42tvy463xt6bfy56.py":64:39)
#loc62 = loc("/NHNHOME/WORKSPACE/26msit001_A/jinhyeok/loop_TTT/lact/.cache_inductor_llm/c6/cc63xa47i4o4onmrowtp7pxiboif2rkjnlsg42tvy463xt6bfy56.py":65:39)
#loc63 = loc("/NHNHOME/WORKSPACE/26msit001_A/jinhyeok/loop_TTT/lact/.cache_inductor_llm/c6/cc63xa47i4o4onmrowtp7pxiboif2rkjnlsg42tvy463xt6bfy56.py":65:35)
#loc64 = loc("/NHNHOME/WORKSPACE/26msit001_A/jinhyeok/loop_TTT/lact/.cache_inductor_llm/c6/cc63xa47i4o4onmrowtp7pxiboif2rkjnlsg42tvy463xt6bfy56.py":65:28)
#loc65 = loc("/NHNHOME/WORKSPACE/26msit001_A/jinhyeok/loop_TTT/lact/.cache_inductor_llm/c6/cc63xa47i4o4onmrowtp7pxiboif2rkjnlsg42tvy463xt6bfy56.py":65:61)
#loc66 = loc("/NHNHOME/WORKSPACE/26msit001_A/jinhyeok/loop_TTT/lact/.cache_inductor_llm/c6/cc63xa47i4o4onmrowtp7pxiboif2rkjnlsg42tvy463xt6bfy56.py":65:51)
#loc67 = loc("/NHNHOME/WORKSPACE/26msit001_A/jinhyeok/loop_TTT/lact/.cache_inductor_llm/c6/cc63xa47i4o4onmrowtp7pxiboif2rkjnlsg42tvy463xt6bfy56.py":66:4)
#loc68 = loc("/NHNHOME/WORKSPACE/26msit001_A/jinhyeok/loop_TTT/lact/.cache_inductor_llm/c6/cc63xa47i4o4onmrowtp7pxiboif2rkjnlsg42tvy463xt6bfy56.py":67:28)
#loc69 = loc("/NHNHOME/WORKSPACE/26msit001_A/jinhyeok/loop_TTT/lact/.cache_inductor_llm/c6/cc63xa47i4o4onmrowtp7pxiboif2rkjnlsg42tvy463xt6bfy56.py":67:40)
#loc70 = loc("/NHNHOME/WORKSPACE/26msit001_A/jinhyeok/loop_TTT/lact/.cache_inductor_llm/c6/cc63xa47i4o4onmrowtp7pxiboif2rkjnlsg42tvy463xt6bfy56.py":68:36)
#loc71 = loc("/NHNHOME/WORKSPACE/26msit001_A/jinhyeok/loop_TTT/lact/.cache_inductor_llm/c6/cc63xa47i4o4onmrowtp7pxiboif2rkjnlsg42tvy463xt6bfy56.py":68:32)
#loc72 = loc("/NHNHOME/WORKSPACE/26msit001_A/jinhyeok/loop_TTT/lact/.cache_inductor_llm/c6/cc63xa47i4o4onmrowtp7pxiboif2rkjnlsg42tvy463xt6bfy56.py":68:25)
#loc73 = loc("/NHNHOME/WORKSPACE/26msit001_A/jinhyeok/loop_TTT/lact/.cache_inductor_llm/c6/cc63xa47i4o4onmrowtp7pxiboif2rkjnlsg42tvy463xt6bfy56.py":68:58)
#loc74 = loc("/NHNHOME/WORKSPACE/26msit001_A/jinhyeok/loop_TTT/lact/.cache_inductor_llm/c6/cc63xa47i4o4onmrowtp7pxiboif2rkjnlsg42tvy463xt6bfy56.py":68:48)
#loc75 = loc("/NHNHOME/WORKSPACE/26msit001_A/jinhyeok/loop_TTT/lact/.cache_inductor_llm/c6/cc63xa47i4o4onmrowtp7pxiboif2rkjnlsg42tvy463xt6bfy56.py":68:4)
#loc77 = loc("/NHNHOME/WORKSPACE/26msit001_A/jinhyeok/TTT_camera_embedding/.venv_llm/lib/python3.12/site-packages/triton/language/standard.py":291:36)
#loc79 = loc("/NHNHOME/WORKSPACE/26msit001_A/jinhyeok/TTT_camera_embedding/.venv_llm/lib/python3.12/site-packages/triton/language/standard.py":291:11)
#loc80 = loc("/NHNHOME/WORKSPACE/26msit001_A/jinhyeok/TTT_camera_embedding/.venv_llm/lib/python3.12/site-packages/triton/language/standard.py":291:4)
#loc82 = loc("/NHNHOME/WORKSPACE/26msit001_A/jinhyeok/TTT_camera_embedding/.venv_llm/lib/python3.12/site-packages/triton/language/standard.py":261:15)
#loc83 = loc("/NHNHOME/WORKSPACE/26msit001_A/jinhyeok/TTT_camera_embedding/.venv_llm/lib/python3.12/site-packages/triton/language/standard.py":261:11)
#loc84 = loc("/NHNHOME/WORKSPACE/26msit001_A/jinhyeok/TTT_camera_embedding/.venv_llm/lib/python3.12/site-packages/triton/language/standard.py":261:4)
#loc94 = loc("xnumel"(#loc1))
#loc95 = loc("r0_numel"(#loc2))
#loc96 = loc("xoffset"(#loc3))
#loc97 = loc("xoffset"(#loc4))
#loc98 = loc("xindex"(#loc5))
#loc99 = loc("xindex"(#loc6))
#loc100 = loc("xindex"(#loc7))
#loc101 = loc("xmask"(#loc8))
#loc102 = loc("r0_index"(#loc9))
#loc103 = loc("r0_index"(#loc10))
#loc104 = loc("r0_offset"(#loc11))
#loc105 = loc("r0_mask"(#loc12))
#loc106 = loc("tmp0"(#loc13))
#loc107 = loc("tmp0"(#loc14))
#loc108 = loc("tmp0"(#loc15))
#loc109 = loc("tmp0"(#loc16))
#loc110 = loc("tmp0"(#loc17))
#loc111 = loc("tmp0"(#loc18))
#loc112 = loc("tmp8"(#loc19))
#loc113 = loc("tmp8"(#loc20))
#loc114 = loc("tmp8"(#loc21))
#loc115 = loc("tmp8"(#loc22))
#loc116 = loc("tmp8"(#loc23))
#loc117 = loc("tmp11"(#loc24))
#loc118 = loc("tmp11"(#loc25))
#loc119 = loc("tmp11"(#loc26))
#loc120 = loc("tmp11"(#loc27))
#loc121 = loc("tmp11"(#loc28))
#loc122 = loc("tmp11"(#loc29))
#loc123 = loc("tmp16"(#loc30))
#loc124 = loc("tmp16"(#loc31))
#loc125 = loc("tmp16"(#loc32))
#loc126 = loc("tmp16"(#loc33))
#loc127 = loc("tmp16"(#loc34))
#loc128 = loc("tmp16"(#loc35))
#loc129 = loc("tmp2"(#loc36))
#loc130 = loc("tmp5"(#loc37))
#loc131 = loc("tmp5"(#loc38))
#loc132 = loc("tmp6"(#loc39))
#loc133 = loc("tmp6"(#loc40))
#loc134 = loc("tmp7"(#loc41))
#loc135 = loc("tmp9"(#loc42))
#loc136 = loc("tmp10"(#loc43))
#loc137 = loc("tmp13"(#loc44))
#loc138 = loc("tmp14"(#loc45))
#loc139 = loc("tmp15"(#loc46))
#loc140 = loc("tmp18"(#loc47))
#loc141 = loc("tmp19"(#loc48))
#loc142 = loc("tmp20"(#loc49))
#loc143 = loc("tmp23"(#loc50))
#loc144 = loc("tmp23"(#loc51))
#loc145 = loc("tmp24"(#loc52))
#loc146 = loc("tmp24"(#loc53))
#loc147 = loc("tmp25"(#loc54))
#loc148 = loc("tmp26"(#loc55))
#loc149 = loc("tmp27"(#loc56))
#loc150 = loc("tmp28"(#loc57))
#loc151 = loc("tmp29"(#loc58))
