#loc = loc("/NHNHOME/WORKSPACE/26msit001_A/jinhyeok/TTT_camera_embedding/lact_llm/.cache_inductor/5x/c5xnj44u3zl2c6hqlcgs4doip5jrzd5c6wdnc5igarthmgr4ixei.py":18:0)
#loc84 = loc("in_ptr0"(#loc))
#loc85 = loc("in_ptr1"(#loc))
#loc86 = loc("in_ptr2"(#loc))
#loc87 = loc("out_ptr0"(#loc))
#loc88 = loc("xnumel"(#loc))
module {
  tt.func public @triton_poi_fused__to_copy_add_mul_neg_select_slice_stack_sub_unsqueeze_view_23(%in_ptr0: !tt.ptr<bf16> {tt.divisibility = 16 : i32} loc("in_ptr0"(#loc)), %in_ptr1: !tt.ptr<f32> {tt.divisibility = 16 : i32} loc("in_ptr1"(#loc)), %in_ptr2: !tt.ptr<f32> {tt.divisibility = 16 : i32} loc("in_ptr2"(#loc)), %out_ptr0: !tt.ptr<f32> {tt.divisibility = 16 : i32} loc("out_ptr0"(#loc)), %xnumel: i32 {tt.divisibility = 16 : i32} loc("xnumel"(#loc))) attributes {noinline = false} {
    %xnumel_0 = arith.constant 3145728 : i32 loc(#loc89)
    %xoffset = tt.get_program_id x : i32 loc(#loc90)
    %xoffset_1 = arith.constant 512 : i32 loc(#loc91)
    %xoffset_2 = arith.constant 512 : i32 loc(#loc91)
    %xoffset_3 = arith.muli %xoffset, %xoffset_2 : i32 loc(#loc91)
    %xindex = tt.make_range {end = 512 : i32, start = 0 : i32} : tensor<512xi32> loc(#loc92)
    %xindex_4 = tt.splat %xoffset_3 : i32 -> tensor<512xi32> loc(#loc93)
    %xindex_5 = arith.addi %xindex_4, %xindex : tensor<512xi32> loc(#loc93)
    %xmask = arith.constant true loc(#loc94)
    %xmask_6 = arith.constant dense<true> : tensor<512xi1> loc(#loc94)
    %x0 = arith.constant 2048 : i32 loc(#loc95)
    %x0_7 = arith.constant 2048 : i32 loc(#loc95)
    %x0_8 = arith.constant dense<2048> : tensor<512xi32> loc(#loc95)
    %x0_9 = arith.remsi %xindex_5, %x0_8 : tensor<512xi32> loc(#loc95)
    %x1 = arith.constant 2048 : i32 loc(#loc96)
    %x1_10 = arith.constant 2048 : i32 loc(#loc96)
    %x1_11 = arith.constant dense<2048> : tensor<512xi32> loc(#loc96)
    %x1_12 = arith.divsi %xindex_5, %x1_11 : tensor<512xi32> loc(#loc96)
    %x1_13 = arith.constant 48 : i32 loc(#loc97)
    %x1_14 = arith.constant 48 : i32 loc(#loc97)
    %x1_15 = arith.constant dense<48> : tensor<512xi32> loc(#loc97)
    %x1_16 = arith.remsi %x1_12, %x1_15 : tensor<512xi32> loc(#loc97)
    %x2 = arith.constant 98304 : i32 loc(#loc98)
    %x2_17 = arith.constant 98304 : i32 loc(#loc98)
    %x2_18 = arith.constant dense<98304> : tensor<512xi32> loc(#loc98)
    %x2_19 = arith.divsi %xindex_5, %x2_18 : tensor<512xi32> loc(#loc98)
    %tmp1 = arith.constant 0 : i64 loc(#loc99)
    %tmp1_20 = arith.constant dense<0> : tensor<1xi64> loc(#loc99)
    %tmp2 = arith.extsi %x0_9 : tensor<512xi32> to tensor<512xi64> loc(#loc100)
    %tmp2_21 = arith.constant dense<0> : tensor<512xi64> loc(#loc100)
    %tmp2_22 = arith.cmpi sge, %tmp2, %tmp2_21 : tensor<512xi64> loc(#loc100)
    %tmp3 = arith.constant 1024 : i64 loc(#loc101)
    %tmp3_23 = arith.constant dense<1024> : tensor<1xi64> loc(#loc101)
    %tmp4 = arith.extsi %x0_9 : tensor<512xi32> to tensor<512xi64> loc(#loc102)
    %tmp4_24 = arith.constant dense<1024> : tensor<512xi64> loc(#loc102)
    %tmp4_25 = arith.cmpi slt, %tmp4, %tmp4_24 : tensor<512xi64> loc(#loc102)
    %tmp5 = arith.constant 2048 : i32 loc(#loc103)
    %tmp5_26 = arith.constant 2048 : i32 loc(#loc103)
    %tmp5_27 = arith.constant dense<2048> : tensor<512xi32> loc(#loc103)
    %tmp5_28 = arith.muli %tmp5_27, %x1_16 : tensor<512xi32> loc(#loc103)
    %tmp5_29 = arith.constant 196608 : i32 loc(#loc104)
    %tmp5_30 = arith.constant 196608 : i32 loc(#loc104)
    %tmp5_31 = arith.constant dense<196608> : tensor<512xi32> loc(#loc104)
    %tmp5_32 = arith.muli %tmp5_31, %x2_19 : tensor<512xi32> loc(#loc104)
    %tmp5_33 = arith.addi %tmp5_28, %tmp5_32 : tensor<512xi32> loc(#loc105)
    %tmp5_34 = arith.addi %tmp5_33, %x0_9 : tensor<512xi32> loc(#loc106)
    %tmp5_35 = tt.splat %in_ptr0 : !tt.ptr<bf16> -> tensor<512x!tt.ptr<bf16>> loc(#loc107)
    %tmp5_36 = tt.addptr %tmp5_35, %tmp5_34 : tensor<512x!tt.ptr<bf16>>, tensor<512xi32> loc(#loc107)
    %tmp5_37 = arith.constant 0.000000e+00 : f32 loc(#loc108)
    %tmp5_38 = arith.constant dense<0.000000e+00> : tensor<512xf32> loc(#loc108)
    %tmp5_39 = arith.truncf %tmp5_38 : tensor<512xf32> to tensor<512xbf16> loc(#loc108)
    %tmp5_40 = tt.load %tmp5_36, %tmp4_25, %tmp5_39 evictionPolicy = evict_last : tensor<512x!tt.ptr<bf16>> loc(#loc108)
    %tmp5_41 = arith.extf %tmp5_40 : tensor<512xbf16> to tensor<512xf32> loc(#loc109)
    %tmp7 = arith.constant 4096 : i32 loc(#loc110)
    %tmp7_42 = arith.constant 4096 : i32 loc(#loc110)
    %tmp7_43 = arith.constant dense<4096> : tensor<512xi32> loc(#loc110)
    %tmp7_44 = arith.muli %tmp7_43, %x1_16 : tensor<512xi32> loc(#loc110)
    %tmp7_45 = arith.addi %tmp7_44, %x0_9 : tensor<512xi32> loc(#loc111)
    %tmp7_46 = tt.splat %in_ptr1 : !tt.ptr<f32> -> tensor<512x!tt.ptr<f32>> loc(#loc112)
    %tmp7_47 = tt.addptr %tmp7_46, %tmp7_45 : tensor<512x!tt.ptr<f32>>, tensor<512xi32> loc(#loc112)
    %tmp7_48 = arith.constant 0.000000e+00 : f32 loc(#loc113)
    %tmp7_49 = arith.constant dense<0.000000e+00> : tensor<512xf32> loc(#loc113)
    %tmp7_50 = tt.load %tmp7_47, %tmp4_25, %tmp7_49 evictionPolicy = evict_last : tensor<512x!tt.ptr<f32>> loc(#loc113)
    %tmp8 = arith.mulf %tmp5_41, %tmp7_50 : tensor<512xf32> loc(#loc114)
    %tmp9 = arith.constant 2048 : i32 loc(#loc115)
    %tmp9_51 = arith.constant 2048 : i32 loc(#loc115)
    %tmp9_52 = arith.constant dense<2048> : tensor<512xi32> loc(#loc115)
    %tmp9_53 = arith.muli %tmp9_52, %x1_16 : tensor<512xi32> loc(#loc115)
    %tmp9_54 = arith.constant 1024 : i32 loc(#loc116)
    %tmp9_55 = arith.constant 1024 : i32 loc(#loc116)
    %tmp9_56 = arith.constant dense<1024> : tensor<512xi32> loc(#loc116)
    %tmp9_57 = arith.addi %tmp9_56, %tmp9_53 : tensor<512xi32> loc(#loc116)
    %tmp9_58 = arith.constant 196608 : i32 loc(#loc117)
    %tmp9_59 = arith.constant 196608 : i32 loc(#loc117)
    %tmp9_60 = arith.constant dense<196608> : tensor<512xi32> loc(#loc117)
    %tmp9_61 = arith.muli %tmp9_60, %x2_19 : tensor<512xi32> loc(#loc117)
    %tmp9_62 = arith.addi %tmp9_57, %tmp9_61 : tensor<512xi32> loc(#loc118)
    %tmp9_63 = arith.addi %tmp9_62, %x0_9 : tensor<512xi32> loc(#loc119)
    %tmp9_64 = tt.splat %in_ptr0 : !tt.ptr<bf16> -> tensor<512x!tt.ptr<bf16>> loc(#loc120)
    %tmp9_65 = tt.addptr %tmp9_64, %tmp9_63 : tensor<512x!tt.ptr<bf16>>, tensor<512xi32> loc(#loc120)
    %tmp9_66 = arith.constant 0.000000e+00 : f32 loc(#loc121)
    %tmp9_67 = arith.constant dense<0.000000e+00> : tensor<512xf32> loc(#loc121)
    %tmp9_68 = arith.truncf %tmp9_67 : tensor<512xf32> to tensor<512xbf16> loc(#loc121)
    %tmp9_69 = tt.load %tmp9_65, %tmp4_25, %tmp9_68 evictionPolicy = evict_last : tensor<512x!tt.ptr<bf16>> loc(#loc121)
    %tmp9_70 = arith.extf %tmp9_69 : tensor<512xbf16> to tensor<512xf32> loc(#loc122)
    %tmp11 = arith.constant 4096 : i32 loc(#loc123)
    %tmp11_71 = arith.constant 4096 : i32 loc(#loc123)
    %tmp11_72 = arith.constant dense<4096> : tensor<512xi32> loc(#loc123)
    %tmp11_73 = arith.muli %tmp11_72, %x1_16 : tensor<512xi32> loc(#loc123)
    %tmp11_74 = arith.addi %tmp11_73, %x0_9 : tensor<512xi32> loc(#loc124)
    %tmp11_75 = tt.splat %in_ptr2 : !tt.ptr<f32> -> tensor<512x!tt.ptr<f32>> loc(#loc125)
    %tmp11_76 = tt.addptr %tmp11_75, %tmp11_74 : tensor<512x!tt.ptr<f32>>, tensor<512xi32> loc(#loc125)
    %tmp11_77 = arith.constant 0.000000e+00 : f32 loc(#loc126)
    %tmp11_78 = arith.constant dense<0.000000e+00> : tensor<512xf32> loc(#loc126)
    %tmp11_79 = tt.load %tmp11_76, %tmp4_25, %tmp11_78 evictionPolicy = evict_last : tensor<512x!tt.ptr<f32>> loc(#loc126)
    %tmp12 = arith.constant 0.000000e+00 : f32 loc(#loc127)
    %tmp12_80 = arith.constant dense<0.000000e+00> : tensor<512xf32> loc(#loc127)
    %tmp12_81 = arith.subf %tmp12_80, %tmp11_79 : tensor<512xf32> loc(#loc127)
    %tmp13 = arith.mulf %tmp9_70, %tmp12_81 : tensor<512xf32> loc(#loc128)
    %tmp14 = arith.subf %tmp8, %tmp13 : tensor<512xf32> loc(#loc129)
    %tmp15 = arith.constant 0.000000e+00 : f32 loc(#loc130)
    %tmp15_82 = arith.constant dense<0.000000e+00> : tensor<512xf32> loc(#loc130)
    %tmp16 = arith.select %tmp4_25, %tmp14, %tmp15_82 : tensor<512xi1>, tensor<512xf32> loc(#loc131)
    %tmp17 = arith.extsi %x0_9 : tensor<512xi32> to tensor<512xi64> loc(#loc132)
    %tmp17_83 = arith.constant dense<1024> : tensor<512xi64> loc(#loc132)
    %tmp17_84 = arith.cmpi sge, %tmp17, %tmp17_83 : tensor<512xi64> loc(#loc132)
    %tmp18 = arith.constant 2048 : i64 loc(#loc133)
    %tmp18_85 = arith.constant dense<2048> : tensor<1xi64> loc(#loc133)
    %tmp19 = arith.extsi %x0_9 : tensor<512xi32> to tensor<512xi64> loc(#loc134)
    %tmp19_86 = arith.constant dense<2048> : tensor<512xi64> loc(#loc134)
    %tmp19_87 = arith.cmpi slt, %tmp19, %tmp19_86 : tensor<512xi64> loc(#loc134)
    %tmp20 = arith.constant 2048 : i32 loc(#loc135)
    %tmp20_88 = arith.constant 2048 : i32 loc(#loc135)
    %tmp20_89 = arith.constant dense<2048> : tensor<512xi32> loc(#loc135)
    %tmp20_90 = arith.muli %tmp20_89, %x1_16 : tensor<512xi32> loc(#loc135)
    %tmp20_91 = arith.constant 196608 : i32 loc(#loc136)
    %tmp20_92 = arith.constant 196608 : i32 loc(#loc136)
    %tmp20_93 = arith.constant dense<196608> : tensor<512xi32> loc(#loc136)
    %tmp20_94 = arith.muli %tmp20_93, %x2_19 : tensor<512xi32> loc(#loc136)
    %tmp20_95 = arith.addi %tmp20_90, %tmp20_94 : tensor<512xi32> loc(#loc137)
    %tmp20_96 = arith.constant -1024 : i32 loc(#loc138)
    %tmp20_97 = arith.constant -1024 : i32 loc(#loc138)
    %tmp20_98 = arith.constant dense<-1024> : tensor<512xi32> loc(#loc138)
    %tmp20_99 = arith.addi %tmp20_98, %x0_9 : tensor<512xi32> loc(#loc138)
    %tmp20_100 = arith.addi %tmp20_95, %tmp20_99 : tensor<512xi32> loc(#loc139)
    %tmp20_101 = tt.splat %in_ptr0 : !tt.ptr<bf16> -> tensor<512x!tt.ptr<bf16>> loc(#loc140)
    %tmp20_102 = tt.addptr %tmp20_101, %tmp20_100 : tensor<512x!tt.ptr<bf16>>, tensor<512xi32> loc(#loc140)
    %tmp20_103 = arith.constant 0.000000e+00 : f32 loc(#loc141)
    %tmp20_104 = arith.constant dense<0.000000e+00> : tensor<512xf32> loc(#loc141)
    %tmp20_105 = arith.truncf %tmp20_104 : tensor<512xf32> to tensor<512xbf16> loc(#loc141)
    %tmp20_106 = tt.load %tmp20_102, %tmp17_84, %tmp20_105 evictionPolicy = evict_last : tensor<512x!tt.ptr<bf16>> loc(#loc141)
    %tmp20_107 = arith.extf %tmp20_106 : tensor<512xbf16> to tensor<512xf32> loc(#loc142)
    %tmp22 = arith.constant 4096 : i32 loc(#loc143)
    %tmp22_108 = arith.constant 4096 : i32 loc(#loc143)
    %tmp22_109 = arith.constant dense<4096> : tensor<512xi32> loc(#loc143)
    %tmp22_110 = arith.muli %tmp22_109, %x1_16 : tensor<512xi32> loc(#loc143)
    %tmp22_111 = arith.constant -1024 : i32 loc(#loc144)
    %tmp22_112 = arith.constant -1024 : i32 loc(#loc144)
    %tmp22_113 = arith.constant dense<-1024> : tensor<512xi32> loc(#loc144)
    %tmp22_114 = arith.addi %tmp22_113, %x0_9 : tensor<512xi32> loc(#loc144)
    %tmp22_115 = arith.addi %tmp22_110, %tmp22_114 : tensor<512xi32> loc(#loc145)
    %tmp22_116 = tt.splat %in_ptr2 : !tt.ptr<f32> -> tensor<512x!tt.ptr<f32>> loc(#loc146)
    %tmp22_117 = tt.addptr %tmp22_116, %tmp22_115 : tensor<512x!tt.ptr<f32>>, tensor<512xi32> loc(#loc146)
    %tmp22_118 = arith.constant 0.000000e+00 : f32 loc(#loc147)
    %tmp22_119 = arith.constant dense<0.000000e+00> : tensor<512xf32> loc(#loc147)
    %tmp22_120 = tt.load %tmp22_117, %tmp17_84, %tmp22_119 evictionPolicy = evict_last : tensor<512x!tt.ptr<f32>> loc(#loc147)
    %tmp23 = arith.constant 0.000000e+00 : f32 loc(#loc148)
    %tmp23_121 = arith.constant dense<0.000000e+00> : tensor<512xf32> loc(#loc148)
    %tmp23_122 = arith.subf %tmp23_121, %tmp22_120 : tensor<512xf32> loc(#loc148)
    %tmp24 = arith.mulf %tmp20_107, %tmp23_122 : tensor<512xf32> loc(#loc149)
    %tmp25 = arith.constant 2048 : i32 loc(#loc150)
    %tmp25_123 = arith.constant 2048 : i32 loc(#loc150)
    %tmp25_124 = arith.constant dense<2048> : tensor<512xi32> loc(#loc150)
    %tmp25_125 = arith.muli %tmp25_124, %x1_16 : tensor<512xi32> loc(#loc150)
    %tmp25_126 = arith.constant 1024 : i32 loc(#loc151)
    %tmp25_127 = arith.constant 1024 : i32 loc(#loc151)
    %tmp25_128 = arith.constant dense<1024> : tensor<512xi32> loc(#loc151)
    %tmp25_129 = arith.addi %tmp25_128, %tmp25_125 : tensor<512xi32> loc(#loc151)
    %tmp25_130 = arith.constant 196608 : i32 loc(#loc152)
    %tmp25_131 = arith.constant 196608 : i32 loc(#loc152)
    %tmp25_132 = arith.constant dense<196608> : tensor<512xi32> loc(#loc152)
    %tmp25_133 = arith.muli %tmp25_132, %x2_19 : tensor<512xi32> loc(#loc152)
    %tmp25_134 = arith.addi %tmp25_129, %tmp25_133 : tensor<512xi32> loc(#loc153)
    %tmp25_135 = arith.constant -1024 : i32 loc(#loc154)
    %tmp25_136 = arith.constant -1024 : i32 loc(#loc154)
    %tmp25_137 = arith.constant dense<-1024> : tensor<512xi32> loc(#loc154)
    %tmp25_138 = arith.addi %tmp25_137, %x0_9 : tensor<512xi32> loc(#loc154)
    %tmp25_139 = arith.addi %tmp25_134, %tmp25_138 : tensor<512xi32> loc(#loc155)
    %tmp25_140 = tt.splat %in_ptr0 : !tt.ptr<bf16> -> tensor<512x!tt.ptr<bf16>> loc(#loc156)
    %tmp25_141 = tt.addptr %tmp25_140, %tmp25_139 : tensor<512x!tt.ptr<bf16>>, tensor<512xi32> loc(#loc156)
    %tmp25_142 = arith.constant 0.000000e+00 : f32 loc(#loc157)
    %tmp25_143 = arith.constant dense<0.000000e+00> : tensor<512xf32> loc(#loc157)
    %tmp25_144 = arith.truncf %tmp25_143 : tensor<512xf32> to tensor<512xbf16> loc(#loc157)
    %tmp25_145 = tt.load %tmp25_141, %tmp17_84, %tmp25_144 evictionPolicy = evict_last : tensor<512x!tt.ptr<bf16>> loc(#loc157)
    %tmp25_146 = arith.extf %tmp25_145 : tensor<512xbf16> to tensor<512xf32> loc(#loc158)
    %tmp27 = arith.constant 4096 : i32 loc(#loc159)
    %tmp27_147 = arith.constant 4096 : i32 loc(#loc159)
    %tmp27_148 = arith.constant dense<4096> : tensor<512xi32> loc(#loc159)
    %tmp27_149 = arith.muli %tmp27_148, %x1_16 : tensor<512xi32> loc(#loc159)
    %tmp27_150 = arith.constant -1024 : i32 loc(#loc160)
    %tmp27_151 = arith.constant -1024 : i32 loc(#loc160)
    %tmp27_152 = arith.constant dense<-1024> : tensor<512xi32> loc(#loc160)
    %tmp27_153 = arith.addi %tmp27_152, %x0_9 : tensor<512xi32> loc(#loc160)
    %tmp27_154 = arith.addi %tmp27_149, %tmp27_153 : tensor<512xi32> loc(#loc161)
    %tmp27_155 = tt.splat %in_ptr1 : !tt.ptr<f32> -> tensor<512x!tt.ptr<f32>> loc(#loc162)
    %tmp27_156 = tt.addptr %tmp27_155, %tmp27_154 : tensor<512x!tt.ptr<f32>>, tensor<512xi32> loc(#loc162)
    %tmp27_157 = arith.constant 0.000000e+00 : f32 loc(#loc163)
    %tmp27_158 = arith.constant dense<0.000000e+00> : tensor<512xf32> loc(#loc163)
    %tmp27_159 = tt.load %tmp27_156, %tmp17_84, %tmp27_158 evictionPolicy = evict_last : tensor<512x!tt.ptr<f32>> loc(#loc163)
    %tmp28 = arith.mulf %tmp25_146, %tmp27_159 : tensor<512xf32> loc(#loc164)
    %tmp29 = arith.addf %tmp24, %tmp28 : tensor<512xf32> loc(#loc165)
    %tmp30 = arith.constant 0.000000e+00 : f32 loc(#loc166)
    %tmp30_160 = arith.constant dense<0.000000e+00> : tensor<512xf32> loc(#loc166)
    %tmp31 = arith.select %tmp17_84, %tmp29, %tmp30_160 : tensor<512xi1>, tensor<512xf32> loc(#loc167)
    %tmp32 = arith.select %tmp4_25, %tmp16, %tmp31 : tensor<512xi1>, tensor<512xf32> loc(#loc168)
    %0 = tt.splat %out_ptr0 : !tt.ptr<f32> -> tensor<512x!tt.ptr<f32>> loc(#loc81)
    %1 = tt.addptr %0, %xindex_5 : tensor<512x!tt.ptr<f32>>, tensor<512xi32> loc(#loc81)
    tt.store %1, %tmp32 : tensor<512x!tt.ptr<f32>> loc(#loc82)
    tt.return loc(#loc83)
  } loc(#loc)
} loc(#loc)
#loc1 = loc("/NHNHOME/WORKSPACE/26msit001_A/jinhyeok/TTT_camera_embedding/lact_llm/.cache_inductor/5x/c5xnj44u3zl2c6hqlcgs4doip5jrzd5c6wdnc5igarthmgr4ixei.py":19:13)
#loc2 = loc("/NHNHOME/WORKSPACE/26msit001_A/jinhyeok/TTT_camera_embedding/lact_llm/.cache_inductor/5x/c5xnj44u3zl2c6hqlcgs4doip5jrzd5c6wdnc5igarthmgr4ixei.py":20:28)
#loc3 = loc("/NHNHOME/WORKSPACE/26msit001_A/jinhyeok/TTT_camera_embedding/lact_llm/.cache_inductor/5x/c5xnj44u3zl2c6hqlcgs4doip5jrzd5c6wdnc5igarthmgr4ixei.py":20:33)
#loc4 = loc("/NHNHOME/WORKSPACE/26msit001_A/jinhyeok/TTT_camera_embedding/lact_llm/.cache_inductor/5x/c5xnj44u3zl2c6hqlcgs4doip5jrzd5c6wdnc5igarthmgr4ixei.py":21:36)
#loc5 = loc("/NHNHOME/WORKSPACE/26msit001_A/jinhyeok/TTT_camera_embedding/lact_llm/.cache_inductor/5x/c5xnj44u3zl2c6hqlcgs4doip5jrzd5c6wdnc5igarthmgr4ixei.py":21:23)
#loc6 = loc("/NHNHOME/WORKSPACE/26msit001_A/jinhyeok/TTT_camera_embedding/lact_llm/.cache_inductor/5x/c5xnj44u3zl2c6hqlcgs4doip5jrzd5c6wdnc5igarthmgr4ixei.py":22:36)
#loc7 = loc("/NHNHOME/WORKSPACE/26msit001_A/jinhyeok/TTT_camera_embedding/lact_llm/.cache_inductor/5x/c5xnj44u3zl2c6hqlcgs4doip5jrzd5c6wdnc5igarthmgr4ixei.py":23:19)
#loc8 = loc("/NHNHOME/WORKSPACE/26msit001_A/jinhyeok/TTT_camera_embedding/lact_llm/.cache_inductor/5x/c5xnj44u3zl2c6hqlcgs4doip5jrzd5c6wdnc5igarthmgr4ixei.py":24:21)
#loc9 = loc("/NHNHOME/WORKSPACE/26msit001_A/jinhyeok/TTT_camera_embedding/lact_llm/.cache_inductor/5x/c5xnj44u3zl2c6hqlcgs4doip5jrzd5c6wdnc5igarthmgr4ixei.py":24:29)
#loc10 = loc("/NHNHOME/WORKSPACE/26msit001_A/jinhyeok/TTT_camera_embedding/lact_llm/.cache_inductor/5x/c5xnj44u3zl2c6hqlcgs4doip5jrzd5c6wdnc5igarthmgr4ixei.py":25:19)
#loc11 = loc("/NHNHOME/WORKSPACE/26msit001_A/jinhyeok/TTT_camera_embedding/lact_llm/.cache_inductor/5x/c5xnj44u3zl2c6hqlcgs4doip5jrzd5c6wdnc5igarthmgr4ixei.py":28:27)
#loc12 = loc("/NHNHOME/WORKSPACE/26msit001_A/jinhyeok/TTT_camera_embedding/lact_llm/.cache_inductor/5x/c5xnj44u3zl2c6hqlcgs4doip5jrzd5c6wdnc5igarthmgr4ixei.py":29:19)
#loc13 = loc("/NHNHOME/WORKSPACE/26msit001_A/jinhyeok/TTT_camera_embedding/lact_llm/.cache_inductor/5x/c5xnj44u3zl2c6hqlcgs4doip5jrzd5c6wdnc5igarthmgr4ixei.py":30:30)
#loc14 = loc("/NHNHOME/WORKSPACE/26msit001_A/jinhyeok/TTT_camera_embedding/lact_llm/.cache_inductor/5x/c5xnj44u3zl2c6hqlcgs4doip5jrzd5c6wdnc5igarthmgr4ixei.py":31:18)
#loc15 = loc("/NHNHOME/WORKSPACE/26msit001_A/jinhyeok/TTT_camera_embedding/lact_llm/.cache_inductor/5x/c5xnj44u3zl2c6hqlcgs4doip5jrzd5c6wdnc5igarthmgr4ixei.py":32:35)
#loc16 = loc("/NHNHOME/WORKSPACE/26msit001_A/jinhyeok/TTT_camera_embedding/lact_llm/.cache_inductor/5x/c5xnj44u3zl2c6hqlcgs4doip5jrzd5c6wdnc5igarthmgr4ixei.py":32:47)
#loc17 = loc("/NHNHOME/WORKSPACE/26msit001_A/jinhyeok/TTT_camera_embedding/lact_llm/.cache_inductor/5x/c5xnj44u3zl2c6hqlcgs4doip5jrzd5c6wdnc5igarthmgr4ixei.py":32:40)
#loc18 = loc("/NHNHOME/WORKSPACE/26msit001_A/jinhyeok/TTT_camera_embedding/lact_llm/.cache_inductor/5x/c5xnj44u3zl2c6hqlcgs4doip5jrzd5c6wdnc5igarthmgr4ixei.py":32:53)
#loc19 = loc("/NHNHOME/WORKSPACE/26msit001_A/jinhyeok/TTT_camera_embedding/lact_llm/.cache_inductor/5x/c5xnj44u3zl2c6hqlcgs4doip5jrzd5c6wdnc5igarthmgr4ixei.py":32:30)
#loc20 = loc("/NHNHOME/WORKSPACE/26msit001_A/jinhyeok/TTT_camera_embedding/lact_llm/.cache_inductor/5x/c5xnj44u3zl2c6hqlcgs4doip5jrzd5c6wdnc5igarthmgr4ixei.py":32:59)
#loc21 = loc("/NHNHOME/WORKSPACE/26msit001_A/jinhyeok/TTT_camera_embedding/lact_llm/.cache_inductor/5x/c5xnj44u3zl2c6hqlcgs4doip5jrzd5c6wdnc5igarthmgr4ixei.py":32:109)
#loc22 = loc("/NHNHOME/WORKSPACE/26msit001_A/jinhyeok/TTT_camera_embedding/lact_llm/.cache_inductor/5x/c5xnj44u3zl2c6hqlcgs4doip5jrzd5c6wdnc5igarthmgr4ixei.py":34:35)
#loc23 = loc("/NHNHOME/WORKSPACE/26msit001_A/jinhyeok/TTT_camera_embedding/lact_llm/.cache_inductor/5x/c5xnj44u3zl2c6hqlcgs4doip5jrzd5c6wdnc5igarthmgr4ixei.py":34:41)
#loc24 = loc("/NHNHOME/WORKSPACE/26msit001_A/jinhyeok/TTT_camera_embedding/lact_llm/.cache_inductor/5x/c5xnj44u3zl2c6hqlcgs4doip5jrzd5c6wdnc5igarthmgr4ixei.py":34:30)
#loc25 = loc("/NHNHOME/WORKSPACE/26msit001_A/jinhyeok/TTT_camera_embedding/lact_llm/.cache_inductor/5x/c5xnj44u3zl2c6hqlcgs4doip5jrzd5c6wdnc5igarthmgr4ixei.py":34:47)
#loc26 = loc("/NHNHOME/WORKSPACE/26msit001_A/jinhyeok/TTT_camera_embedding/lact_llm/.cache_inductor/5x/c5xnj44u3zl2c6hqlcgs4doip5jrzd5c6wdnc5igarthmgr4ixei.py":35:18)
#loc27 = loc("/NHNHOME/WORKSPACE/26msit001_A/jinhyeok/TTT_camera_embedding/lact_llm/.cache_inductor/5x/c5xnj44u3zl2c6hqlcgs4doip5jrzd5c6wdnc5igarthmgr4ixei.py":36:42)
#loc28 = loc("/NHNHOME/WORKSPACE/26msit001_A/jinhyeok/TTT_camera_embedding/lact_llm/.cache_inductor/5x/c5xnj44u3zl2c6hqlcgs4doip5jrzd5c6wdnc5igarthmgr4ixei.py":36:37)
#loc29 = loc("/NHNHOME/WORKSPACE/26msit001_A/jinhyeok/TTT_camera_embedding/lact_llm/.cache_inductor/5x/c5xnj44u3zl2c6hqlcgs4doip5jrzd5c6wdnc5igarthmgr4ixei.py":36:54)
#loc30 = loc("/NHNHOME/WORKSPACE/26msit001_A/jinhyeok/TTT_camera_embedding/lact_llm/.cache_inductor/5x/c5xnj44u3zl2c6hqlcgs4doip5jrzd5c6wdnc5igarthmgr4ixei.py":36:47)
#loc31 = loc("/NHNHOME/WORKSPACE/26msit001_A/jinhyeok/TTT_camera_embedding/lact_llm/.cache_inductor/5x/c5xnj44u3zl2c6hqlcgs4doip5jrzd5c6wdnc5igarthmgr4ixei.py":36:60)
#loc32 = loc("/NHNHOME/WORKSPACE/26msit001_A/jinhyeok/TTT_camera_embedding/lact_llm/.cache_inductor/5x/c5xnj44u3zl2c6hqlcgs4doip5jrzd5c6wdnc5igarthmgr4ixei.py":36:30)
#loc33 = loc("/NHNHOME/WORKSPACE/26msit001_A/jinhyeok/TTT_camera_embedding/lact_llm/.cache_inductor/5x/c5xnj44u3zl2c6hqlcgs4doip5jrzd5c6wdnc5igarthmgr4ixei.py":36:66)
#loc34 = loc("/NHNHOME/WORKSPACE/26msit001_A/jinhyeok/TTT_camera_embedding/lact_llm/.cache_inductor/5x/c5xnj44u3zl2c6hqlcgs4doip5jrzd5c6wdnc5igarthmgr4ixei.py":36:116)
#loc35 = loc("/NHNHOME/WORKSPACE/26msit001_A/jinhyeok/TTT_camera_embedding/lact_llm/.cache_inductor/5x/c5xnj44u3zl2c6hqlcgs4doip5jrzd5c6wdnc5igarthmgr4ixei.py":38:36)
#loc36 = loc("/NHNHOME/WORKSPACE/26msit001_A/jinhyeok/TTT_camera_embedding/lact_llm/.cache_inductor/5x/c5xnj44u3zl2c6hqlcgs4doip5jrzd5c6wdnc5igarthmgr4ixei.py":38:42)
#loc37 = loc("/NHNHOME/WORKSPACE/26msit001_A/jinhyeok/TTT_camera_embedding/lact_llm/.cache_inductor/5x/c5xnj44u3zl2c6hqlcgs4doip5jrzd5c6wdnc5igarthmgr4ixei.py":38:31)
#loc38 = loc("/NHNHOME/WORKSPACE/26msit001_A/jinhyeok/TTT_camera_embedding/lact_llm/.cache_inductor/5x/c5xnj44u3zl2c6hqlcgs4doip5jrzd5c6wdnc5igarthmgr4ixei.py":38:48)
#loc39 = loc("/NHNHOME/WORKSPACE/26msit001_A/jinhyeok/TTT_camera_embedding/lact_llm/.cache_inductor/5x/c5xnj44u3zl2c6hqlcgs4doip5jrzd5c6wdnc5igarthmgr4ixei.py":39:13)
#loc40 = loc("/NHNHOME/WORKSPACE/26msit001_A/jinhyeok/TTT_camera_embedding/lact_llm/.cache_inductor/5x/c5xnj44u3zl2c6hqlcgs4doip5jrzd5c6wdnc5igarthmgr4ixei.py":40:20)
#loc41 = loc("/NHNHOME/WORKSPACE/26msit001_A/jinhyeok/TTT_camera_embedding/lact_llm/.cache_inductor/5x/c5xnj44u3zl2c6hqlcgs4doip5jrzd5c6wdnc5igarthmgr4ixei.py":41:19)
#loc42 = loc("/NHNHOME/WORKSPACE/26msit001_A/jinhyeok/TTT_camera_embedding/lact_llm/.cache_inductor/5x/c5xnj44u3zl2c6hqlcgs4doip5jrzd5c6wdnc5igarthmgr4ixei.py":42:38)
#loc43 = loc("/NHNHOME/WORKSPACE/26msit001_A/jinhyeok/TTT_camera_embedding/lact_llm/.cache_inductor/5x/c5xnj44u3zl2c6hqlcgs4doip5jrzd5c6wdnc5igarthmgr4ixei.py":43:34)
#loc44 = loc("/NHNHOME/WORKSPACE/26msit001_A/jinhyeok/TTT_camera_embedding/lact_llm/.cache_inductor/5x/c5xnj44u3zl2c6hqlcgs4doip5jrzd5c6wdnc5igarthmgr4ixei.py":44:20)
#loc45 = loc("/NHNHOME/WORKSPACE/26msit001_A/jinhyeok/TTT_camera_embedding/lact_llm/.cache_inductor/5x/c5xnj44u3zl2c6hqlcgs4doip5jrzd5c6wdnc5igarthmgr4ixei.py":45:31)
#loc46 = loc("/NHNHOME/WORKSPACE/26msit001_A/jinhyeok/TTT_camera_embedding/lact_llm/.cache_inductor/5x/c5xnj44u3zl2c6hqlcgs4doip5jrzd5c6wdnc5igarthmgr4ixei.py":46:19)
#loc47 = loc("/NHNHOME/WORKSPACE/26msit001_A/jinhyeok/TTT_camera_embedding/lact_llm/.cache_inductor/5x/c5xnj44u3zl2c6hqlcgs4doip5jrzd5c6wdnc5igarthmgr4ixei.py":47:36)
#loc48 = loc("/NHNHOME/WORKSPACE/26msit001_A/jinhyeok/TTT_camera_embedding/lact_llm/.cache_inductor/5x/c5xnj44u3zl2c6hqlcgs4doip5jrzd5c6wdnc5igarthmgr4ixei.py":47:48)
#loc49 = loc("/NHNHOME/WORKSPACE/26msit001_A/jinhyeok/TTT_camera_embedding/lact_llm/.cache_inductor/5x/c5xnj44u3zl2c6hqlcgs4doip5jrzd5c6wdnc5igarthmgr4ixei.py":47:41)
#loc50 = loc("/NHNHOME/WORKSPACE/26msit001_A/jinhyeok/TTT_camera_embedding/lact_llm/.cache_inductor/5x/c5xnj44u3zl2c6hqlcgs4doip5jrzd5c6wdnc5igarthmgr4ixei.py":47:64)
#loc51 = loc("/NHNHOME/WORKSPACE/26msit001_A/jinhyeok/TTT_camera_embedding/lact_llm/.cache_inductor/5x/c5xnj44u3zl2c6hqlcgs4doip5jrzd5c6wdnc5igarthmgr4ixei.py":47:54)
#loc52 = loc("/NHNHOME/WORKSPACE/26msit001_A/jinhyeok/TTT_camera_embedding/lact_llm/.cache_inductor/5x/c5xnj44u3zl2c6hqlcgs4doip5jrzd5c6wdnc5igarthmgr4ixei.py":47:31)
#loc53 = loc("/NHNHOME/WORKSPACE/26msit001_A/jinhyeok/TTT_camera_embedding/lact_llm/.cache_inductor/5x/c5xnj44u3zl2c6hqlcgs4doip5jrzd5c6wdnc5igarthmgr4ixei.py":47:70)
#loc54 = loc("/NHNHOME/WORKSPACE/26msit001_A/jinhyeok/TTT_camera_embedding/lact_llm/.cache_inductor/5x/c5xnj44u3zl2c6hqlcgs4doip5jrzd5c6wdnc5igarthmgr4ixei.py":47:121)
#loc55 = loc("/NHNHOME/WORKSPACE/26msit001_A/jinhyeok/TTT_camera_embedding/lact_llm/.cache_inductor/5x/c5xnj44u3zl2c6hqlcgs4doip5jrzd5c6wdnc5igarthmgr4ixei.py":49:36)
#loc56 = loc("/NHNHOME/WORKSPACE/26msit001_A/jinhyeok/TTT_camera_embedding/lact_llm/.cache_inductor/5x/c5xnj44u3zl2c6hqlcgs4doip5jrzd5c6wdnc5igarthmgr4ixei.py":49:52)
#loc57 = loc("/NHNHOME/WORKSPACE/26msit001_A/jinhyeok/TTT_camera_embedding/lact_llm/.cache_inductor/5x/c5xnj44u3zl2c6hqlcgs4doip5jrzd5c6wdnc5igarthmgr4ixei.py":49:42)
#loc58 = loc("/NHNHOME/WORKSPACE/26msit001_A/jinhyeok/TTT_camera_embedding/lact_llm/.cache_inductor/5x/c5xnj44u3zl2c6hqlcgs4doip5jrzd5c6wdnc5igarthmgr4ixei.py":49:31)
#loc59 = loc("/NHNHOME/WORKSPACE/26msit001_A/jinhyeok/TTT_camera_embedding/lact_llm/.cache_inductor/5x/c5xnj44u3zl2c6hqlcgs4doip5jrzd5c6wdnc5igarthmgr4ixei.py":49:58)
#loc60 = loc("/NHNHOME/WORKSPACE/26msit001_A/jinhyeok/TTT_camera_embedding/lact_llm/.cache_inductor/5x/c5xnj44u3zl2c6hqlcgs4doip5jrzd5c6wdnc5igarthmgr4ixei.py":50:13)
#loc61 = loc("/NHNHOME/WORKSPACE/26msit001_A/jinhyeok/TTT_camera_embedding/lact_llm/.cache_inductor/5x/c5xnj44u3zl2c6hqlcgs4doip5jrzd5c6wdnc5igarthmgr4ixei.py":51:20)
#loc62 = loc("/NHNHOME/WORKSPACE/26msit001_A/jinhyeok/TTT_camera_embedding/lact_llm/.cache_inductor/5x/c5xnj44u3zl2c6hqlcgs4doip5jrzd5c6wdnc5igarthmgr4ixei.py":52:43)
#loc63 = loc("/NHNHOME/WORKSPACE/26msit001_A/jinhyeok/TTT_camera_embedding/lact_llm/.cache_inductor/5x/c5xnj44u3zl2c6hqlcgs4doip5jrzd5c6wdnc5igarthmgr4ixei.py":52:38)
#loc64 = loc("/NHNHOME/WORKSPACE/26msit001_A/jinhyeok/TTT_camera_embedding/lact_llm/.cache_inductor/5x/c5xnj44u3zl2c6hqlcgs4doip5jrzd5c6wdnc5igarthmgr4ixei.py":52:55)
#loc65 = loc("/NHNHOME/WORKSPACE/26msit001_A/jinhyeok/TTT_camera_embedding/lact_llm/.cache_inductor/5x/c5xnj44u3zl2c6hqlcgs4doip5jrzd5c6wdnc5igarthmgr4ixei.py":52:48)
#loc66 = loc("/NHNHOME/WORKSPACE/26msit001_A/jinhyeok/TTT_camera_embedding/lact_llm/.cache_inductor/5x/c5xnj44u3zl2c6hqlcgs4doip5jrzd5c6wdnc5igarthmgr4ixei.py":52:71)
#loc67 = loc("/NHNHOME/WORKSPACE/26msit001_A/jinhyeok/TTT_camera_embedding/lact_llm/.cache_inductor/5x/c5xnj44u3zl2c6hqlcgs4doip5jrzd5c6wdnc5igarthmgr4ixei.py":52:61)
#loc68 = loc("/NHNHOME/WORKSPACE/26msit001_A/jinhyeok/TTT_camera_embedding/lact_llm/.cache_inductor/5x/c5xnj44u3zl2c6hqlcgs4doip5jrzd5c6wdnc5igarthmgr4ixei.py":52:31)
#loc69 = loc("/NHNHOME/WORKSPACE/26msit001_A/jinhyeok/TTT_camera_embedding/lact_llm/.cache_inductor/5x/c5xnj44u3zl2c6hqlcgs4doip5jrzd5c6wdnc5igarthmgr4ixei.py":52:77)
#loc70 = loc("/NHNHOME/WORKSPACE/26msit001_A/jinhyeok/TTT_camera_embedding/lact_llm/.cache_inductor/5x/c5xnj44u3zl2c6hqlcgs4doip5jrzd5c6wdnc5igarthmgr4ixei.py":52:128)
#loc71 = loc("/NHNHOME/WORKSPACE/26msit001_A/jinhyeok/TTT_camera_embedding/lact_llm/.cache_inductor/5x/c5xnj44u3zl2c6hqlcgs4doip5jrzd5c6wdnc5igarthmgr4ixei.py":54:36)
#loc72 = loc("/NHNHOME/WORKSPACE/26msit001_A/jinhyeok/TTT_camera_embedding/lact_llm/.cache_inductor/5x/c5xnj44u3zl2c6hqlcgs4doip5jrzd5c6wdnc5igarthmgr4ixei.py":54:52)
#loc73 = loc("/NHNHOME/WORKSPACE/26msit001_A/jinhyeok/TTT_camera_embedding/lact_llm/.cache_inductor/5x/c5xnj44u3zl2c6hqlcgs4doip5jrzd5c6wdnc5igarthmgr4ixei.py":54:42)
#loc74 = loc("/NHNHOME/WORKSPACE/26msit001_A/jinhyeok/TTT_camera_embedding/lact_llm/.cache_inductor/5x/c5xnj44u3zl2c6hqlcgs4doip5jrzd5c6wdnc5igarthmgr4ixei.py":54:31)
#loc75 = loc("/NHNHOME/WORKSPACE/26msit001_A/jinhyeok/TTT_camera_embedding/lact_llm/.cache_inductor/5x/c5xnj44u3zl2c6hqlcgs4doip5jrzd5c6wdnc5igarthmgr4ixei.py":54:58)
#loc76 = loc("/NHNHOME/WORKSPACE/26msit001_A/jinhyeok/TTT_camera_embedding/lact_llm/.cache_inductor/5x/c5xnj44u3zl2c6hqlcgs4doip5jrzd5c6wdnc5igarthmgr4ixei.py":55:20)
#loc77 = loc("/NHNHOME/WORKSPACE/26msit001_A/jinhyeok/TTT_camera_embedding/lact_llm/.cache_inductor/5x/c5xnj44u3zl2c6hqlcgs4doip5jrzd5c6wdnc5igarthmgr4ixei.py":56:20)
#loc78 = loc("/NHNHOME/WORKSPACE/26msit001_A/jinhyeok/TTT_camera_embedding/lact_llm/.cache_inductor/5x/c5xnj44u3zl2c6hqlcgs4doip5jrzd5c6wdnc5igarthmgr4ixei.py":57:38)
#loc79 = loc("/NHNHOME/WORKSPACE/26msit001_A/jinhyeok/TTT_camera_embedding/lact_llm/.cache_inductor/5x/c5xnj44u3zl2c6hqlcgs4doip5jrzd5c6wdnc5igarthmgr4ixei.py":58:35)
#loc80 = loc("/NHNHOME/WORKSPACE/26msit001_A/jinhyeok/TTT_camera_embedding/lact_llm/.cache_inductor/5x/c5xnj44u3zl2c6hqlcgs4doip5jrzd5c6wdnc5igarthmgr4ixei.py":59:34)
#loc81 = loc("/NHNHOME/WORKSPACE/26msit001_A/jinhyeok/TTT_camera_embedding/lact_llm/.cache_inductor/5x/c5xnj44u3zl2c6hqlcgs4doip5jrzd5c6wdnc5igarthmgr4ixei.py":60:25)
#loc82 = loc("/NHNHOME/WORKSPACE/26msit001_A/jinhyeok/TTT_camera_embedding/lact_llm/.cache_inductor/5x/c5xnj44u3zl2c6hqlcgs4doip5jrzd5c6wdnc5igarthmgr4ixei.py":60:37)
#loc83 = loc("/NHNHOME/WORKSPACE/26msit001_A/jinhyeok/TTT_camera_embedding/lact_llm/.cache_inductor/5x/c5xnj44u3zl2c6hqlcgs4doip5jrzd5c6wdnc5igarthmgr4ixei.py":60:4)
#loc89 = loc("xnumel"(#loc1))
#loc90 = loc("xoffset"(#loc2))
#loc91 = loc("xoffset"(#loc3))
#loc92 = loc("xindex"(#loc4))
#loc93 = loc("xindex"(#loc5))
#loc94 = loc("xmask"(#loc6))
#loc95 = loc("x0"(#loc7))
#loc96 = loc("x1"(#loc8))
#loc97 = loc("x1"(#loc9))
#loc98 = loc("x2"(#loc10))
#loc99 = loc("tmp1"(#loc11))
#loc100 = loc("tmp2"(#loc12))
#loc101 = loc("tmp3"(#loc13))
#loc102 = loc("tmp4"(#loc14))
#loc103 = loc("tmp5"(#loc15))
#loc104 = loc("tmp5"(#loc16))
#loc105 = loc("tmp5"(#loc17))
#loc106 = loc("tmp5"(#loc18))
#loc107 = loc("tmp5"(#loc19))
#loc108 = loc("tmp5"(#loc20))
#loc109 = loc("tmp5"(#loc21))
#loc110 = loc("tmp7"(#loc22))
#loc111 = loc("tmp7"(#loc23))
#loc112 = loc("tmp7"(#loc24))
#loc113 = loc("tmp7"(#loc25))
#loc114 = loc("tmp8"(#loc26))
#loc115 = loc("tmp9"(#loc27))
#loc116 = loc("tmp9"(#loc28))
#loc117 = loc("tmp9"(#loc29))
#loc118 = loc("tmp9"(#loc30))
#loc119 = loc("tmp9"(#loc31))
#loc120 = loc("tmp9"(#loc32))
#loc121 = loc("tmp9"(#loc33))
#loc122 = loc("tmp9"(#loc34))
#loc123 = loc("tmp11"(#loc35))
#loc124 = loc("tmp11"(#loc36))
#loc125 = loc("tmp11"(#loc37))
#loc126 = loc("tmp11"(#loc38))
#loc127 = loc("tmp12"(#loc39))
#loc128 = loc("tmp13"(#loc40))
#loc129 = loc("tmp14"(#loc41))
#loc130 = loc("tmp15"(#loc42))
#loc131 = loc("tmp16"(#loc43))
#loc132 = loc("tmp17"(#loc44))
#loc133 = loc("tmp18"(#loc45))
#loc134 = loc("tmp19"(#loc46))
#loc135 = loc("tmp20"(#loc47))
#loc136 = loc("tmp20"(#loc48))
#loc137 = loc("tmp20"(#loc49))
#loc138 = loc("tmp20"(#loc50))
#loc139 = loc("tmp20"(#loc51))
#loc140 = loc("tmp20"(#loc52))
#loc141 = loc("tmp20"(#loc53))
#loc142 = loc("tmp20"(#loc54))
#loc143 = loc("tmp22"(#loc55))
#loc144 = loc("tmp22"(#loc56))
#loc145 = loc("tmp22"(#loc57))
#loc146 = loc("tmp22"(#loc58))
#loc147 = loc("tmp22"(#loc59))
#loc148 = loc("tmp23"(#loc60))
#loc149 = loc("tmp24"(#loc61))
#loc150 = loc("tmp25"(#loc62))
#loc151 = loc("tmp25"(#loc63))
#loc152 = loc("tmp25"(#loc64))
#loc153 = loc("tmp25"(#loc65))
#loc154 = loc("tmp25"(#loc66))
#loc155 = loc("tmp25"(#loc67))
#loc156 = loc("tmp25"(#loc68))
#loc157 = loc("tmp25"(#loc69))
#loc158 = loc("tmp25"(#loc70))
#loc159 = loc("tmp27"(#loc71))
#loc160 = loc("tmp27"(#loc72))
#loc161 = loc("tmp27"(#loc73))
#loc162 = loc("tmp27"(#loc74))
#loc163 = loc("tmp27"(#loc75))
#loc164 = loc("tmp28"(#loc76))
#loc165 = loc("tmp29"(#loc77))
#loc166 = loc("tmp30"(#loc78))
#loc167 = loc("tmp31"(#loc79))
#loc168 = loc("tmp32"(#loc80))
