#loc = loc("/NHNHOME/WORKSPACE/26msit001_A/jinhyeok/TTT_camera_embedding/lact_llm/.cache_inductor/tw/ctwzuib7wgtgk6shntswj43zglduq6fh5bx53qqum62ct44jhyo4.py":18:0)
#loc130 = loc("/NHNHOME/WORKSPACE/26msit001_A/jinhyeok/TTT_camera_embedding/.venv_llm/lib/python3.12/site-packages/triton/language/standard.py":47:0)
#loc137 = loc("in_ptr0"(#loc))
#loc138 = loc("in_ptr1"(#loc))
#loc139 = loc("in_ptr2"(#loc))
#loc140 = loc("in_ptr3"(#loc))
#loc141 = loc("out_ptr0"(#loc))
#loc142 = loc("xnumel"(#loc))
#loc269 = loc("x"(#loc130))
module {
  tt.func public @triton_poi_fused__to_copy_add_mul_select_silu_slice_stack_sub_unsqueeze_view_56(%in_ptr0: !tt.ptr<bf16> {tt.divisibility = 16 : i32} loc("in_ptr0"(#loc)), %in_ptr1: !tt.ptr<bf16> {tt.divisibility = 16 : i32} loc("in_ptr1"(#loc)), %in_ptr2: !tt.ptr<f32> {tt.divisibility = 16 : i32} loc("in_ptr2"(#loc)), %in_ptr3: !tt.ptr<f32> {tt.divisibility = 16 : i32} loc("in_ptr3"(#loc)), %out_ptr0: !tt.ptr<f32> {tt.divisibility = 16 : i32} loc("out_ptr0"(#loc)), %xnumel: i32 {tt.divisibility = 16 : i32} loc("xnumel"(#loc))) attributes {noinline = false} {
    %xnumel_0 = arith.constant 3145728 : i32 loc(#loc143)
    %xoffset = tt.get_program_id x : i32 loc(#loc144)
    %xoffset_1 = arith.constant 1024 : i32 loc(#loc145)
    %xoffset_2 = arith.constant 1024 : i32 loc(#loc145)
    %xoffset_3 = arith.muli %xoffset, %xoffset_2 : i32 loc(#loc145)
    %xindex = tt.make_range {end = 1024 : i32, start = 0 : i32} : tensor<1024xi32> loc(#loc146)
    %xindex_4 = tt.splat %xoffset_3 : i32 -> tensor<1024xi32> loc(#loc147)
    %xindex_5 = arith.addi %xindex_4, %xindex : tensor<1024xi32> loc(#loc147)
    %xmask = arith.constant true loc(#loc148)
    %xmask_6 = arith.constant dense<true> : tensor<1024xi1> loc(#loc148)
    %x0 = arith.constant 2048 : i32 loc(#loc149)
    %x0_7 = arith.constant 2048 : i32 loc(#loc149)
    %x0_8 = arith.constant dense<2048> : tensor<1024xi32> loc(#loc149)
    %x0_9 = arith.remsi %xindex_5, %x0_8 : tensor<1024xi32> loc(#loc149)
    %x1 = arith.constant 2048 : i32 loc(#loc150)
    %x1_10 = arith.constant 2048 : i32 loc(#loc150)
    %x1_11 = arith.constant dense<2048> : tensor<1024xi32> loc(#loc150)
    %x1_12 = arith.divsi %xindex_5, %x1_11 : tensor<1024xi32> loc(#loc150)
    %x1_13 = arith.constant 48 : i32 loc(#loc151)
    %x1_14 = arith.constant 48 : i32 loc(#loc151)
    %x1_15 = arith.constant dense<48> : tensor<1024xi32> loc(#loc151)
    %x1_16 = arith.remsi %x1_12, %x1_15 : tensor<1024xi32> loc(#loc151)
    %x2 = arith.constant 98304 : i32 loc(#loc152)
    %x2_17 = arith.constant 98304 : i32 loc(#loc152)
    %x2_18 = arith.constant dense<98304> : tensor<1024xi32> loc(#loc152)
    %x2_19 = arith.divsi %xindex_5, %x2_18 : tensor<1024xi32> loc(#loc152)
    %tmp1 = arith.constant 0 : i64 loc(#loc153)
    %tmp1_20 = arith.constant dense<0> : tensor<1xi64> loc(#loc153)
    %tmp2 = arith.extsi %x0_9 : tensor<1024xi32> to tensor<1024xi64> loc(#loc154)
    %tmp2_21 = arith.constant dense<0> : tensor<1024xi64> loc(#loc154)
    %tmp2_22 = arith.cmpi sge, %tmp2, %tmp2_21 : tensor<1024xi64> loc(#loc154)
    %tmp3 = arith.constant 1024 : i64 loc(#loc155)
    %tmp3_23 = arith.constant dense<1024> : tensor<1xi64> loc(#loc155)
    %tmp4 = arith.extsi %x0_9 : tensor<1024xi32> to tensor<1024xi64> loc(#loc156)
    %tmp4_24 = arith.constant dense<1024> : tensor<1024xi64> loc(#loc156)
    %tmp4_25 = arith.cmpi slt, %tmp4, %tmp4_24 : tensor<1024xi64> loc(#loc156)
    %tmp5 = arith.constant 2048 : i32 loc(#loc157)
    %tmp5_26 = arith.constant 2048 : i32 loc(#loc157)
    %tmp5_27 = arith.constant dense<2048> : tensor<1024xi32> loc(#loc157)
    %tmp5_28 = arith.muli %tmp5_27, %x1_16 : tensor<1024xi32> loc(#loc157)
    %tmp5_29 = arith.constant 196608 : i32 loc(#loc158)
    %tmp5_30 = arith.constant 196608 : i32 loc(#loc158)
    %tmp5_31 = arith.constant dense<196608> : tensor<1024xi32> loc(#loc158)
    %tmp5_32 = arith.muli %tmp5_31, %x2_19 : tensor<1024xi32> loc(#loc158)
    %tmp5_33 = arith.addi %tmp5_28, %tmp5_32 : tensor<1024xi32> loc(#loc159)
    %tmp5_34 = arith.addi %tmp5_33, %x0_9 : tensor<1024xi32> loc(#loc160)
    %tmp5_35 = tt.splat %in_ptr0 : !tt.ptr<bf16> -> tensor<1024x!tt.ptr<bf16>> loc(#loc161)
    %tmp5_36 = tt.addptr %tmp5_35, %tmp5_34 : tensor<1024x!tt.ptr<bf16>>, tensor<1024xi32> loc(#loc161)
    %tmp5_37 = arith.constant 0.000000e+00 : f32 loc(#loc162)
    %tmp5_38 = arith.constant dense<0.000000e+00> : tensor<1024xf32> loc(#loc162)
    %tmp5_39 = arith.truncf %tmp5_38 : tensor<1024xf32> to tensor<1024xbf16> loc(#loc162)
    %tmp5_40 = tt.load %tmp5_36, %tmp4_25, %tmp5_39 evictionPolicy = evict_last : tensor<1024x!tt.ptr<bf16>> loc(#loc162)
    %tmp5_41 = arith.extf %tmp5_40 : tensor<1024xbf16> to tensor<1024xf32> loc(#loc163)
    %tmp7 = tt.call @triton.language.standard.sigmoid__fp32S1024S__(%tmp5_41) : (tensor<1024xf32>) -> tensor<1024xf32> loc(#loc164)
    %tmp8 = arith.mulf %tmp5_41, %tmp7 : tensor<1024xf32> loc(#loc165)
    %tmp10 = arith.constant 2048 : i32 loc(#loc166)
    %tmp10_42 = arith.constant 2048 : i32 loc(#loc166)
    %tmp10_43 = arith.constant dense<2048> : tensor<1024xi32> loc(#loc166)
    %tmp10_44 = arith.muli %tmp10_43, %x1_16 : tensor<1024xi32> loc(#loc166)
    %tmp10_45 = arith.constant 196608 : i32 loc(#loc167)
    %tmp10_46 = arith.constant 196608 : i32 loc(#loc167)
    %tmp10_47 = arith.constant dense<196608> : tensor<1024xi32> loc(#loc167)
    %tmp10_48 = arith.muli %tmp10_47, %x2_19 : tensor<1024xi32> loc(#loc167)
    %tmp10_49 = arith.addi %tmp10_44, %tmp10_48 : tensor<1024xi32> loc(#loc168)
    %tmp10_50 = arith.addi %tmp10_49, %x0_9 : tensor<1024xi32> loc(#loc169)
    %tmp10_51 = tt.splat %in_ptr1 : !tt.ptr<bf16> -> tensor<1024x!tt.ptr<bf16>> loc(#loc170)
    %tmp10_52 = tt.addptr %tmp10_51, %tmp10_50 : tensor<1024x!tt.ptr<bf16>>, tensor<1024xi32> loc(#loc170)
    %tmp10_53 = arith.constant 0.000000e+00 : f32 loc(#loc171)
    %tmp10_54 = arith.constant dense<0.000000e+00> : tensor<1024xf32> loc(#loc171)
    %tmp10_55 = arith.truncf %tmp10_54 : tensor<1024xf32> to tensor<1024xbf16> loc(#loc171)
    %tmp10_56 = tt.load %tmp10_52, %tmp4_25, %tmp10_55 evictionPolicy = evict_last : tensor<1024x!tt.ptr<bf16>> loc(#loc171)
    %tmp10_57 = arith.extf %tmp10_56 : tensor<1024xbf16> to tensor<1024xf32> loc(#loc172)
    %tmp11 = arith.mulf %tmp8, %tmp10_57 : tensor<1024xf32> loc(#loc173)
    %tmp13 = arith.constant 4096 : i32 loc(#loc174)
    %tmp13_58 = arith.constant 4096 : i32 loc(#loc174)
    %tmp13_59 = arith.constant dense<4096> : tensor<1024xi32> loc(#loc174)
    %tmp13_60 = arith.muli %tmp13_59, %x1_16 : tensor<1024xi32> loc(#loc174)
    %tmp13_61 = arith.constant 3072 : i32 loc(#loc175)
    %tmp13_62 = arith.constant 3072 : i32 loc(#loc175)
    %tmp13_63 = arith.constant dense<3072> : tensor<1024xi32> loc(#loc175)
    %tmp13_64 = arith.addi %tmp13_63, %tmp13_60 : tensor<1024xi32> loc(#loc175)
    %tmp13_65 = arith.addi %tmp13_64, %x0_9 : tensor<1024xi32> loc(#loc176)
    %tmp13_66 = tt.splat %in_ptr2 : !tt.ptr<f32> -> tensor<1024x!tt.ptr<f32>> loc(#loc177)
    %tmp13_67 = tt.addptr %tmp13_66, %tmp13_65 : tensor<1024x!tt.ptr<f32>>, tensor<1024xi32> loc(#loc177)
    %tmp13_68 = arith.constant 0.000000e+00 : f32 loc(#loc178)
    %tmp13_69 = arith.constant dense<0.000000e+00> : tensor<1024xf32> loc(#loc178)
    %tmp13_70 = tt.load %tmp13_67, %tmp4_25, %tmp13_69 evictionPolicy = evict_last : tensor<1024x!tt.ptr<f32>> loc(#loc178)
    %tmp14 = arith.mulf %tmp11, %tmp13_70 : tensor<1024xf32> loc(#loc179)
    %tmp15 = arith.constant 2048 : i32 loc(#loc180)
    %tmp15_71 = arith.constant 2048 : i32 loc(#loc180)
    %tmp15_72 = arith.constant dense<2048> : tensor<1024xi32> loc(#loc180)
    %tmp15_73 = arith.muli %tmp15_72, %x1_16 : tensor<1024xi32> loc(#loc180)
    %tmp15_74 = arith.constant 1024 : i32 loc(#loc181)
    %tmp15_75 = arith.constant 1024 : i32 loc(#loc181)
    %tmp15_76 = arith.constant dense<1024> : tensor<1024xi32> loc(#loc181)
    %tmp15_77 = arith.addi %tmp15_76, %tmp15_73 : tensor<1024xi32> loc(#loc181)
    %tmp15_78 = arith.constant 196608 : i32 loc(#loc182)
    %tmp15_79 = arith.constant 196608 : i32 loc(#loc182)
    %tmp15_80 = arith.constant dense<196608> : tensor<1024xi32> loc(#loc182)
    %tmp15_81 = arith.muli %tmp15_80, %x2_19 : tensor<1024xi32> loc(#loc182)
    %tmp15_82 = arith.addi %tmp15_77, %tmp15_81 : tensor<1024xi32> loc(#loc183)
    %tmp15_83 = arith.addi %tmp15_82, %x0_9 : tensor<1024xi32> loc(#loc184)
    %tmp15_84 = tt.splat %in_ptr0 : !tt.ptr<bf16> -> tensor<1024x!tt.ptr<bf16>> loc(#loc185)
    %tmp15_85 = tt.addptr %tmp15_84, %tmp15_83 : tensor<1024x!tt.ptr<bf16>>, tensor<1024xi32> loc(#loc185)
    %tmp15_86 = arith.constant 0.000000e+00 : f32 loc(#loc186)
    %tmp15_87 = arith.constant dense<0.000000e+00> : tensor<1024xf32> loc(#loc186)
    %tmp15_88 = arith.truncf %tmp15_87 : tensor<1024xf32> to tensor<1024xbf16> loc(#loc186)
    %tmp15_89 = tt.load %tmp15_85, %tmp4_25, %tmp15_88 evictionPolicy = evict_last : tensor<1024x!tt.ptr<bf16>> loc(#loc186)
    %tmp15_90 = arith.extf %tmp15_89 : tensor<1024xbf16> to tensor<1024xf32> loc(#loc187)
    %tmp17 = tt.call @triton.language.standard.sigmoid__fp32S1024S__(%tmp15_90) : (tensor<1024xf32>) -> tensor<1024xf32> loc(#loc188)
    %tmp18 = arith.mulf %tmp15_90, %tmp17 : tensor<1024xf32> loc(#loc189)
    %tmp20 = arith.constant 2048 : i32 loc(#loc190)
    %tmp20_91 = arith.constant 2048 : i32 loc(#loc190)
    %tmp20_92 = arith.constant dense<2048> : tensor<1024xi32> loc(#loc190)
    %tmp20_93 = arith.muli %tmp20_92, %x1_16 : tensor<1024xi32> loc(#loc190)
    %tmp20_94 = arith.constant 1024 : i32 loc(#loc191)
    %tmp20_95 = arith.constant 1024 : i32 loc(#loc191)
    %tmp20_96 = arith.constant dense<1024> : tensor<1024xi32> loc(#loc191)
    %tmp20_97 = arith.addi %tmp20_96, %tmp20_93 : tensor<1024xi32> loc(#loc191)
    %tmp20_98 = arith.constant 196608 : i32 loc(#loc192)
    %tmp20_99 = arith.constant 196608 : i32 loc(#loc192)
    %tmp20_100 = arith.constant dense<196608> : tensor<1024xi32> loc(#loc192)
    %tmp20_101 = arith.muli %tmp20_100, %x2_19 : tensor<1024xi32> loc(#loc192)
    %tmp20_102 = arith.addi %tmp20_97, %tmp20_101 : tensor<1024xi32> loc(#loc193)
    %tmp20_103 = arith.addi %tmp20_102, %x0_9 : tensor<1024xi32> loc(#loc194)
    %tmp20_104 = tt.splat %in_ptr1 : !tt.ptr<bf16> -> tensor<1024x!tt.ptr<bf16>> loc(#loc195)
    %tmp20_105 = tt.addptr %tmp20_104, %tmp20_103 : tensor<1024x!tt.ptr<bf16>>, tensor<1024xi32> loc(#loc195)
    %tmp20_106 = arith.constant 0.000000e+00 : f32 loc(#loc196)
    %tmp20_107 = arith.constant dense<0.000000e+00> : tensor<1024xf32> loc(#loc196)
    %tmp20_108 = arith.truncf %tmp20_107 : tensor<1024xf32> to tensor<1024xbf16> loc(#loc196)
    %tmp20_109 = tt.load %tmp20_105, %tmp4_25, %tmp20_108 evictionPolicy = evict_last : tensor<1024x!tt.ptr<bf16>> loc(#loc196)
    %tmp20_110 = arith.extf %tmp20_109 : tensor<1024xbf16> to tensor<1024xf32> loc(#loc197)
    %tmp21 = arith.mulf %tmp18, %tmp20_110 : tensor<1024xf32> loc(#loc198)
    %tmp23 = arith.constant 4096 : i32 loc(#loc199)
    %tmp23_111 = arith.constant 4096 : i32 loc(#loc199)
    %tmp23_112 = arith.constant dense<4096> : tensor<1024xi32> loc(#loc199)
    %tmp23_113 = arith.muli %tmp23_112, %x1_16 : tensor<1024xi32> loc(#loc199)
    %tmp23_114 = arith.constant 3072 : i32 loc(#loc200)
    %tmp23_115 = arith.constant 3072 : i32 loc(#loc200)
    %tmp23_116 = arith.constant dense<3072> : tensor<1024xi32> loc(#loc200)
    %tmp23_117 = arith.addi %tmp23_116, %tmp23_113 : tensor<1024xi32> loc(#loc200)
    %tmp23_118 = arith.addi %tmp23_117, %x0_9 : tensor<1024xi32> loc(#loc201)
    %tmp23_119 = tt.splat %in_ptr3 : !tt.ptr<f32> -> tensor<1024x!tt.ptr<f32>> loc(#loc202)
    %tmp23_120 = tt.addptr %tmp23_119, %tmp23_118 : tensor<1024x!tt.ptr<f32>>, tensor<1024xi32> loc(#loc202)
    %tmp23_121 = arith.constant 0.000000e+00 : f32 loc(#loc203)
    %tmp23_122 = arith.constant dense<0.000000e+00> : tensor<1024xf32> loc(#loc203)
    %tmp23_123 = tt.load %tmp23_120, %tmp4_25, %tmp23_122 evictionPolicy = evict_last : tensor<1024x!tt.ptr<f32>> loc(#loc203)
    %tmp24 = arith.mulf %tmp21, %tmp23_123 : tensor<1024xf32> loc(#loc204)
    %tmp25 = arith.subf %tmp14, %tmp24 : tensor<1024xf32> loc(#loc205)
    %tmp26 = arith.constant 0.000000e+00 : f32 loc(#loc206)
    %tmp26_124 = arith.constant dense<0.000000e+00> : tensor<1024xf32> loc(#loc206)
    %tmp27 = arith.select %tmp4_25, %tmp25, %tmp26_124 : tensor<1024xi1>, tensor<1024xf32> loc(#loc207)
    %tmp28 = arith.extsi %x0_9 : tensor<1024xi32> to tensor<1024xi64> loc(#loc208)
    %tmp28_125 = arith.constant dense<1024> : tensor<1024xi64> loc(#loc208)
    %tmp28_126 = arith.cmpi sge, %tmp28, %tmp28_125 : tensor<1024xi64> loc(#loc208)
    %tmp29 = arith.constant 2048 : i64 loc(#loc209)
    %tmp29_127 = arith.constant dense<2048> : tensor<1xi64> loc(#loc209)
    %tmp30 = arith.extsi %x0_9 : tensor<1024xi32> to tensor<1024xi64> loc(#loc210)
    %tmp30_128 = arith.constant dense<2048> : tensor<1024xi64> loc(#loc210)
    %tmp30_129 = arith.cmpi slt, %tmp30, %tmp30_128 : tensor<1024xi64> loc(#loc210)
    %tmp31 = arith.constant 2048 : i32 loc(#loc211)
    %tmp31_130 = arith.constant 2048 : i32 loc(#loc211)
    %tmp31_131 = arith.constant dense<2048> : tensor<1024xi32> loc(#loc211)
    %tmp31_132 = arith.muli %tmp31_131, %x1_16 : tensor<1024xi32> loc(#loc211)
    %tmp31_133 = arith.constant 196608 : i32 loc(#loc212)
    %tmp31_134 = arith.constant 196608 : i32 loc(#loc212)
    %tmp31_135 = arith.constant dense<196608> : tensor<1024xi32> loc(#loc212)
    %tmp31_136 = arith.muli %tmp31_135, %x2_19 : tensor<1024xi32> loc(#loc212)
    %tmp31_137 = arith.addi %tmp31_132, %tmp31_136 : tensor<1024xi32> loc(#loc213)
    %tmp31_138 = arith.constant -1024 : i32 loc(#loc214)
    %tmp31_139 = arith.constant -1024 : i32 loc(#loc214)
    %tmp31_140 = arith.constant dense<-1024> : tensor<1024xi32> loc(#loc214)
    %tmp31_141 = arith.addi %tmp31_140, %x0_9 : tensor<1024xi32> loc(#loc214)
    %tmp31_142 = arith.addi %tmp31_137, %tmp31_141 : tensor<1024xi32> loc(#loc215)
    %tmp31_143 = tt.splat %in_ptr0 : !tt.ptr<bf16> -> tensor<1024x!tt.ptr<bf16>> loc(#loc216)
    %tmp31_144 = tt.addptr %tmp31_143, %tmp31_142 : tensor<1024x!tt.ptr<bf16>>, tensor<1024xi32> loc(#loc216)
    %tmp31_145 = arith.constant 0.000000e+00 : f32 loc(#loc217)
    %tmp31_146 = arith.constant dense<0.000000e+00> : tensor<1024xf32> loc(#loc217)
    %tmp31_147 = arith.truncf %tmp31_146 : tensor<1024xf32> to tensor<1024xbf16> loc(#loc217)
    %tmp31_148 = tt.load %tmp31_144, %tmp28_126, %tmp31_147 evictionPolicy = evict_last : tensor<1024x!tt.ptr<bf16>> loc(#loc217)
    %tmp31_149 = arith.extf %tmp31_148 : tensor<1024xbf16> to tensor<1024xf32> loc(#loc218)
    %tmp33 = tt.call @triton.language.standard.sigmoid__fp32S1024S__(%tmp31_149) : (tensor<1024xf32>) -> tensor<1024xf32> loc(#loc219)
    %tmp34 = arith.mulf %tmp31_149, %tmp33 : tensor<1024xf32> loc(#loc220)
    %tmp36 = arith.constant 2048 : i32 loc(#loc221)
    %tmp36_150 = arith.constant 2048 : i32 loc(#loc221)
    %tmp36_151 = arith.constant dense<2048> : tensor<1024xi32> loc(#loc221)
    %tmp36_152 = arith.muli %tmp36_151, %x1_16 : tensor<1024xi32> loc(#loc221)
    %tmp36_153 = arith.constant 196608 : i32 loc(#loc222)
    %tmp36_154 = arith.constant 196608 : i32 loc(#loc222)
    %tmp36_155 = arith.constant dense<196608> : tensor<1024xi32> loc(#loc222)
    %tmp36_156 = arith.muli %tmp36_155, %x2_19 : tensor<1024xi32> loc(#loc222)
    %tmp36_157 = arith.addi %tmp36_152, %tmp36_156 : tensor<1024xi32> loc(#loc223)
    %tmp36_158 = arith.constant -1024 : i32 loc(#loc224)
    %tmp36_159 = arith.constant -1024 : i32 loc(#loc224)
    %tmp36_160 = arith.constant dense<-1024> : tensor<1024xi32> loc(#loc224)
    %tmp36_161 = arith.addi %tmp36_160, %x0_9 : tensor<1024xi32> loc(#loc224)
    %tmp36_162 = arith.addi %tmp36_157, %tmp36_161 : tensor<1024xi32> loc(#loc225)
    %tmp36_163 = tt.splat %in_ptr1 : !tt.ptr<bf16> -> tensor<1024x!tt.ptr<bf16>> loc(#loc226)
    %tmp36_164 = tt.addptr %tmp36_163, %tmp36_162 : tensor<1024x!tt.ptr<bf16>>, tensor<1024xi32> loc(#loc226)
    %tmp36_165 = arith.constant 0.000000e+00 : f32 loc(#loc227)
    %tmp36_166 = arith.constant dense<0.000000e+00> : tensor<1024xf32> loc(#loc227)
    %tmp36_167 = arith.truncf %tmp36_166 : tensor<1024xf32> to tensor<1024xbf16> loc(#loc227)
    %tmp36_168 = tt.load %tmp36_164, %tmp28_126, %tmp36_167 evictionPolicy = evict_last : tensor<1024x!tt.ptr<bf16>> loc(#loc227)
    %tmp36_169 = arith.extf %tmp36_168 : tensor<1024xbf16> to tensor<1024xf32> loc(#loc228)
    %tmp37 = arith.mulf %tmp34, %tmp36_169 : tensor<1024xf32> loc(#loc229)
    %tmp39 = arith.constant 4096 : i32 loc(#loc230)
    %tmp39_170 = arith.constant 4096 : i32 loc(#loc230)
    %tmp39_171 = arith.constant dense<4096> : tensor<1024xi32> loc(#loc230)
    %tmp39_172 = arith.muli %tmp39_171, %x1_16 : tensor<1024xi32> loc(#loc230)
    %tmp39_173 = arith.constant 3072 : i32 loc(#loc231)
    %tmp39_174 = arith.constant 3072 : i32 loc(#loc231)
    %tmp39_175 = arith.constant dense<3072> : tensor<1024xi32> loc(#loc231)
    %tmp39_176 = arith.addi %tmp39_175, %tmp39_172 : tensor<1024xi32> loc(#loc231)
    %tmp39_177 = arith.constant -1024 : i32 loc(#loc232)
    %tmp39_178 = arith.constant -1024 : i32 loc(#loc232)
    %tmp39_179 = arith.constant dense<-1024> : tensor<1024xi32> loc(#loc232)
    %tmp39_180 = arith.addi %tmp39_179, %x0_9 : tensor<1024xi32> loc(#loc232)
    %tmp39_181 = arith.addi %tmp39_176, %tmp39_180 : tensor<1024xi32> loc(#loc233)
    %tmp39_182 = tt.splat %in_ptr3 : !tt.ptr<f32> -> tensor<1024x!tt.ptr<f32>> loc(#loc234)
    %tmp39_183 = tt.addptr %tmp39_182, %tmp39_181 : tensor<1024x!tt.ptr<f32>>, tensor<1024xi32> loc(#loc234)
    %tmp39_184 = arith.constant 0.000000e+00 : f32 loc(#loc235)
    %tmp39_185 = arith.constant dense<0.000000e+00> : tensor<1024xf32> loc(#loc235)
    %tmp39_186 = tt.load %tmp39_183, %tmp28_126, %tmp39_185 evictionPolicy = evict_last : tensor<1024x!tt.ptr<f32>> loc(#loc235)
    %tmp40 = arith.mulf %tmp37, %tmp39_186 : tensor<1024xf32> loc(#loc236)
    %tmp41 = arith.constant 2048 : i32 loc(#loc237)
    %tmp41_187 = arith.constant 2048 : i32 loc(#loc237)
    %tmp41_188 = arith.constant dense<2048> : tensor<1024xi32> loc(#loc237)
    %tmp41_189 = arith.muli %tmp41_188, %x1_16 : tensor<1024xi32> loc(#loc237)
    %tmp41_190 = arith.constant 1024 : i32 loc(#loc238)
    %tmp41_191 = arith.constant 1024 : i32 loc(#loc238)
    %tmp41_192 = arith.constant dense<1024> : tensor<1024xi32> loc(#loc238)
    %tmp41_193 = arith.addi %tmp41_192, %tmp41_189 : tensor<1024xi32> loc(#loc238)
    %tmp41_194 = arith.constant 196608 : i32 loc(#loc239)
    %tmp41_195 = arith.constant 196608 : i32 loc(#loc239)
    %tmp41_196 = arith.constant dense<196608> : tensor<1024xi32> loc(#loc239)
    %tmp41_197 = arith.muli %tmp41_196, %x2_19 : tensor<1024xi32> loc(#loc239)
    %tmp41_198 = arith.addi %tmp41_193, %tmp41_197 : tensor<1024xi32> loc(#loc240)
    %tmp41_199 = arith.constant -1024 : i32 loc(#loc241)
    %tmp41_200 = arith.constant -1024 : i32 loc(#loc241)
    %tmp41_201 = arith.constant dense<-1024> : tensor<1024xi32> loc(#loc241)
    %tmp41_202 = arith.addi %tmp41_201, %x0_9 : tensor<1024xi32> loc(#loc241)
    %tmp41_203 = arith.addi %tmp41_198, %tmp41_202 : tensor<1024xi32> loc(#loc242)
    %tmp41_204 = tt.splat %in_ptr0 : !tt.ptr<bf16> -> tensor<1024x!tt.ptr<bf16>> loc(#loc243)
    %tmp41_205 = tt.addptr %tmp41_204, %tmp41_203 : tensor<1024x!tt.ptr<bf16>>, tensor<1024xi32> loc(#loc243)
    %tmp41_206 = arith.constant 0.000000e+00 : f32 loc(#loc244)
    %tmp41_207 = arith.constant dense<0.000000e+00> : tensor<1024xf32> loc(#loc244)
    %tmp41_208 = arith.truncf %tmp41_207 : tensor<1024xf32> to tensor<1024xbf16> loc(#loc244)
    %tmp41_209 = tt.load %tmp41_205, %tmp28_126, %tmp41_208 evictionPolicy = evict_last : tensor<1024x!tt.ptr<bf16>> loc(#loc244)
    %tmp41_210 = arith.extf %tmp41_209 : tensor<1024xbf16> to tensor<1024xf32> loc(#loc245)
    %tmp43 = tt.call @triton.language.standard.sigmoid__fp32S1024S__(%tmp41_210) : (tensor<1024xf32>) -> tensor<1024xf32> loc(#loc246)
    %tmp44 = arith.mulf %tmp41_210, %tmp43 : tensor<1024xf32> loc(#loc247)
    %tmp46 = arith.constant 2048 : i32 loc(#loc248)
    %tmp46_211 = arith.constant 2048 : i32 loc(#loc248)
    %tmp46_212 = arith.constant dense<2048> : tensor<1024xi32> loc(#loc248)
    %tmp46_213 = arith.muli %tmp46_212, %x1_16 : tensor<1024xi32> loc(#loc248)
    %tmp46_214 = arith.constant 1024 : i32 loc(#loc249)
    %tmp46_215 = arith.constant 1024 : i32 loc(#loc249)
    %tmp46_216 = arith.constant dense<1024> : tensor<1024xi32> loc(#loc249)
    %tmp46_217 = arith.addi %tmp46_216, %tmp46_213 : tensor<1024xi32> loc(#loc249)
    %tmp46_218 = arith.constant 196608 : i32 loc(#loc250)
    %tmp46_219 = arith.constant 196608 : i32 loc(#loc250)
    %tmp46_220 = arith.constant dense<196608> : tensor<1024xi32> loc(#loc250)
    %tmp46_221 = arith.muli %tmp46_220, %x2_19 : tensor<1024xi32> loc(#loc250)
    %tmp46_222 = arith.addi %tmp46_217, %tmp46_221 : tensor<1024xi32> loc(#loc251)
    %tmp46_223 = arith.constant -1024 : i32 loc(#loc252)
    %tmp46_224 = arith.constant -1024 : i32 loc(#loc252)
    %tmp46_225 = arith.constant dense<-1024> : tensor<1024xi32> loc(#loc252)
    %tmp46_226 = arith.addi %tmp46_225, %x0_9 : tensor<1024xi32> loc(#loc252)
    %tmp46_227 = arith.addi %tmp46_222, %tmp46_226 : tensor<1024xi32> loc(#loc253)
    %tmp46_228 = tt.splat %in_ptr1 : !tt.ptr<bf16> -> tensor<1024x!tt.ptr<bf16>> loc(#loc254)
    %tmp46_229 = tt.addptr %tmp46_228, %tmp46_227 : tensor<1024x!tt.ptr<bf16>>, tensor<1024xi32> loc(#loc254)
    %tmp46_230 = arith.constant 0.000000e+00 : f32 loc(#loc255)
    %tmp46_231 = arith.constant dense<0.000000e+00> : tensor<1024xf32> loc(#loc255)
    %tmp46_232 = arith.truncf %tmp46_231 : tensor<1024xf32> to tensor<1024xbf16> loc(#loc255)
    %tmp46_233 = tt.load %tmp46_229, %tmp28_126, %tmp46_232 evictionPolicy = evict_last : tensor<1024x!tt.ptr<bf16>> loc(#loc255)
    %tmp46_234 = arith.extf %tmp46_233 : tensor<1024xbf16> to tensor<1024xf32> loc(#loc256)
    %tmp47 = arith.mulf %tmp44, %tmp46_234 : tensor<1024xf32> loc(#loc257)
    %tmp49 = arith.constant 4096 : i32 loc(#loc258)
    %tmp49_235 = arith.constant 4096 : i32 loc(#loc258)
    %tmp49_236 = arith.constant dense<4096> : tensor<1024xi32> loc(#loc258)
    %tmp49_237 = arith.muli %tmp49_236, %x1_16 : tensor<1024xi32> loc(#loc258)
    %tmp49_238 = arith.constant 3072 : i32 loc(#loc259)
    %tmp49_239 = arith.constant 3072 : i32 loc(#loc259)
    %tmp49_240 = arith.constant dense<3072> : tensor<1024xi32> loc(#loc259)
    %tmp49_241 = arith.addi %tmp49_240, %tmp49_237 : tensor<1024xi32> loc(#loc259)
    %tmp49_242 = arith.constant -1024 : i32 loc(#loc260)
    %tmp49_243 = arith.constant -1024 : i32 loc(#loc260)
    %tmp49_244 = arith.constant dense<-1024> : tensor<1024xi32> loc(#loc260)
    %tmp49_245 = arith.addi %tmp49_244, %x0_9 : tensor<1024xi32> loc(#loc260)
    %tmp49_246 = arith.addi %tmp49_241, %tmp49_245 : tensor<1024xi32> loc(#loc261)
    %tmp49_247 = tt.splat %in_ptr2 : !tt.ptr<f32> -> tensor<1024x!tt.ptr<f32>> loc(#loc262)
    %tmp49_248 = tt.addptr %tmp49_247, %tmp49_246 : tensor<1024x!tt.ptr<f32>>, tensor<1024xi32> loc(#loc262)
    %tmp49_249 = arith.constant 0.000000e+00 : f32 loc(#loc263)
    %tmp49_250 = arith.constant dense<0.000000e+00> : tensor<1024xf32> loc(#loc263)
    %tmp49_251 = tt.load %tmp49_248, %tmp28_126, %tmp49_250 evictionPolicy = evict_last : tensor<1024x!tt.ptr<f32>> loc(#loc263)
    %tmp50 = arith.mulf %tmp47, %tmp49_251 : tensor<1024xf32> loc(#loc264)
    %tmp51 = arith.addf %tmp40, %tmp50 : tensor<1024xf32> loc(#loc265)
    %tmp52 = arith.constant 0.000000e+00 : f32 loc(#loc266)
    %tmp52_252 = arith.constant dense<0.000000e+00> : tensor<1024xf32> loc(#loc266)
    %tmp53 = arith.select %tmp28_126, %tmp51, %tmp52_252 : tensor<1024xi1>, tensor<1024xf32> loc(#loc267)
    %tmp54 = arith.select %tmp4_25, %tmp27, %tmp53 : tensor<1024xi1>, tensor<1024xf32> loc(#loc268)
    %0 = tt.splat %out_ptr0 : !tt.ptr<f32> -> tensor<1024x!tt.ptr<f32>> loc(#loc127)
    %1 = tt.addptr %0, %xindex_5 : tensor<1024x!tt.ptr<f32>>, tensor<1024xi32> loc(#loc127)
    tt.store %1, %tmp54 : tensor<1024x!tt.ptr<f32>> loc(#loc128)
    tt.return loc(#loc129)
  } loc(#loc)
  tt.func private @triton.language.standard.sigmoid__fp32S1024S__(%x: tensor<1024xf32> loc("x"(#loc130))) -> tensor<1024xf32> attributes {noinline = false} {
    %cst = arith.constant 0.000000e+00 : f32 loc(#loc131)
    %cst_0 = arith.constant dense<0.000000e+00> : tensor<1024xf32> loc(#loc131)
    %0 = arith.subf %cst_0, %x : tensor<1024xf32> loc(#loc131)
    %1 = math.exp %0 : tensor<1024xf32> loc(#loc132)
    %c1_i32 = arith.constant 1 : i32 loc(#loc133)
    %cst_1 = arith.constant 1.000000e+00 : f32 loc(#loc133)
    %cst_2 = arith.constant dense<1.000000e+00> : tensor<1024xf32> loc(#loc133)
    %2 = arith.addf %cst_2, %1 : tensor<1024xf32> loc(#loc133)
    %c1_i32_3 = arith.constant 1 : i32 loc(#loc134)
    %cst_4 = arith.constant 1.000000e+00 : f32 loc(#loc134)
    %cst_5 = arith.constant dense<1.000000e+00> : tensor<1024xf32> loc(#loc134)
    %3 = arith.divf %cst_5, %2 : tensor<1024xf32> loc(#loc134)
    tt.return %3 : tensor<1024xf32> loc(#loc135)
  ^bb1:  // no predecessors
    %4 = ub.poison : tensor<1024xf32> loc(#loc136)
    tt.return %4 : tensor<1024xf32> loc(#loc136)
  } loc(#loc130)
} loc(#loc)
#loc1 = loc("/NHNHOME/WORKSPACE/26msit001_A/jinhyeok/TTT_camera_embedding/lact_llm/.cache_inductor/tw/ctwzuib7wgtgk6shntswj43zglduq6fh5bx53qqum62ct44jhyo4.py":19:13)
#loc2 = loc("/NHNHOME/WORKSPACE/26msit001_A/jinhyeok/TTT_camera_embedding/lact_llm/.cache_inductor/tw/ctwzuib7wgtgk6shntswj43zglduq6fh5bx53qqum62ct44jhyo4.py":20:28)
#loc3 = loc("/NHNHOME/WORKSPACE/26msit001_A/jinhyeok/TTT_camera_embedding/lact_llm/.cache_inductor/tw/ctwzuib7wgtgk6shntswj43zglduq6fh5bx53qqum62ct44jhyo4.py":20:33)
#loc4 = loc("/NHNHOME/WORKSPACE/26msit001_A/jinhyeok/TTT_camera_embedding/lact_llm/.cache_inductor/tw/ctwzuib7wgtgk6shntswj43zglduq6fh5bx53qqum62ct44jhyo4.py":21:36)
#loc5 = loc("/NHNHOME/WORKSPACE/26msit001_A/jinhyeok/TTT_camera_embedding/lact_llm/.cache_inductor/tw/ctwzuib7wgtgk6shntswj43zglduq6fh5bx53qqum62ct44jhyo4.py":21:23)
#loc6 = loc("/NHNHOME/WORKSPACE/26msit001_A/jinhyeok/TTT_camera_embedding/lact_llm/.cache_inductor/tw/ctwzuib7wgtgk6shntswj43zglduq6fh5bx53qqum62ct44jhyo4.py":22:36)
#loc7 = loc("/NHNHOME/WORKSPACE/26msit001_A/jinhyeok/TTT_camera_embedding/lact_llm/.cache_inductor/tw/ctwzuib7wgtgk6shntswj43zglduq6fh5bx53qqum62ct44jhyo4.py":23:19)
#loc8 = loc("/NHNHOME/WORKSPACE/26msit001_A/jinhyeok/TTT_camera_embedding/lact_llm/.cache_inductor/tw/ctwzuib7wgtgk6shntswj43zglduq6fh5bx53qqum62ct44jhyo4.py":24:21)
#loc9 = loc("/NHNHOME/WORKSPACE/26msit001_A/jinhyeok/TTT_camera_embedding/lact_llm/.cache_inductor/tw/ctwzuib7wgtgk6shntswj43zglduq6fh5bx53qqum62ct44jhyo4.py":24:29)
#loc10 = loc("/NHNHOME/WORKSPACE/26msit001_A/jinhyeok/TTT_camera_embedding/lact_llm/.cache_inductor/tw/ctwzuib7wgtgk6shntswj43zglduq6fh5bx53qqum62ct44jhyo4.py":25:19)
#loc11 = loc("/NHNHOME/WORKSPACE/26msit001_A/jinhyeok/TTT_camera_embedding/lact_llm/.cache_inductor/tw/ctwzuib7wgtgk6shntswj43zglduq6fh5bx53qqum62ct44jhyo4.py":28:27)
#loc12 = loc("/NHNHOME/WORKSPACE/26msit001_A/jinhyeok/TTT_camera_embedding/lact_llm/.cache_inductor/tw/ctwzuib7wgtgk6shntswj43zglduq6fh5bx53qqum62ct44jhyo4.py":29:19)
#loc13 = loc("/NHNHOME/WORKSPACE/26msit001_A/jinhyeok/TTT_camera_embedding/lact_llm/.cache_inductor/tw/ctwzuib7wgtgk6shntswj43zglduq6fh5bx53qqum62ct44jhyo4.py":30:30)
#loc14 = loc("/NHNHOME/WORKSPACE/26msit001_A/jinhyeok/TTT_camera_embedding/lact_llm/.cache_inductor/tw/ctwzuib7wgtgk6shntswj43zglduq6fh5bx53qqum62ct44jhyo4.py":31:18)
#loc15 = loc("/NHNHOME/WORKSPACE/26msit001_A/jinhyeok/TTT_camera_embedding/lact_llm/.cache_inductor/tw/ctwzuib7wgtgk6shntswj43zglduq6fh5bx53qqum62ct44jhyo4.py":32:35)
#loc16 = loc("/NHNHOME/WORKSPACE/26msit001_A/jinhyeok/TTT_camera_embedding/lact_llm/.cache_inductor/tw/ctwzuib7wgtgk6shntswj43zglduq6fh5bx53qqum62ct44jhyo4.py":32:47)
#loc17 = loc("/NHNHOME/WORKSPACE/26msit001_A/jinhyeok/TTT_camera_embedding/lact_llm/.cache_inductor/tw/ctwzuib7wgtgk6shntswj43zglduq6fh5bx53qqum62ct44jhyo4.py":32:40)
#loc18 = loc("/NHNHOME/WORKSPACE/26msit001_A/jinhyeok/TTT_camera_embedding/lact_llm/.cache_inductor/tw/ctwzuib7wgtgk6shntswj43zglduq6fh5bx53qqum62ct44jhyo4.py":32:53)
#loc19 = loc("/NHNHOME/WORKSPACE/26msit001_A/jinhyeok/TTT_camera_embedding/lact_llm/.cache_inductor/tw/ctwzuib7wgtgk6shntswj43zglduq6fh5bx53qqum62ct44jhyo4.py":32:30)
#loc20 = loc("/NHNHOME/WORKSPACE/26msit001_A/jinhyeok/TTT_camera_embedding/lact_llm/.cache_inductor/tw/ctwzuib7wgtgk6shntswj43zglduq6fh5bx53qqum62ct44jhyo4.py":32:59)
#loc21 = loc("/NHNHOME/WORKSPACE/26msit001_A/jinhyeok/TTT_camera_embedding/lact_llm/.cache_inductor/tw/ctwzuib7wgtgk6shntswj43zglduq6fh5bx53qqum62ct44jhyo4.py":32:109)
#loc22 = loc("/NHNHOME/WORKSPACE/26msit001_A/jinhyeok/TTT_camera_embedding/lact_llm/.cache_inductor/tw/ctwzuib7wgtgk6shntswj43zglduq6fh5bx53qqum62ct44jhyo4.py":34:22)
#loc23 = loc("/NHNHOME/WORKSPACE/26msit001_A/jinhyeok/TTT_camera_embedding/lact_llm/.cache_inductor/tw/ctwzuib7wgtgk6shntswj43zglduq6fh5bx53qqum62ct44jhyo4.py":35:18)
#loc24 = loc("/NHNHOME/WORKSPACE/26msit001_A/jinhyeok/TTT_camera_embedding/lact_llm/.cache_inductor/tw/ctwzuib7wgtgk6shntswj43zglduq6fh5bx53qqum62ct44jhyo4.py":37:36)
#loc25 = loc("/NHNHOME/WORKSPACE/26msit001_A/jinhyeok/TTT_camera_embedding/lact_llm/.cache_inductor/tw/ctwzuib7wgtgk6shntswj43zglduq6fh5bx53qqum62ct44jhyo4.py":37:48)
#loc26 = loc("/NHNHOME/WORKSPACE/26msit001_A/jinhyeok/TTT_camera_embedding/lact_llm/.cache_inductor/tw/ctwzuib7wgtgk6shntswj43zglduq6fh5bx53qqum62ct44jhyo4.py":37:41)
#loc27 = loc("/NHNHOME/WORKSPACE/26msit001_A/jinhyeok/TTT_camera_embedding/lact_llm/.cache_inductor/tw/ctwzuib7wgtgk6shntswj43zglduq6fh5bx53qqum62ct44jhyo4.py":37:54)
#loc28 = loc("/NHNHOME/WORKSPACE/26msit001_A/jinhyeok/TTT_camera_embedding/lact_llm/.cache_inductor/tw/ctwzuib7wgtgk6shntswj43zglduq6fh5bx53qqum62ct44jhyo4.py":37:31)
#loc29 = loc("/NHNHOME/WORKSPACE/26msit001_A/jinhyeok/TTT_camera_embedding/lact_llm/.cache_inductor/tw/ctwzuib7wgtgk6shntswj43zglduq6fh5bx53qqum62ct44jhyo4.py":37:60)
#loc30 = loc("/NHNHOME/WORKSPACE/26msit001_A/jinhyeok/TTT_camera_embedding/lact_llm/.cache_inductor/tw/ctwzuib7wgtgk6shntswj43zglduq6fh5bx53qqum62ct44jhyo4.py":37:110)
#loc31 = loc("/NHNHOME/WORKSPACE/26msit001_A/jinhyeok/TTT_camera_embedding/lact_llm/.cache_inductor/tw/ctwzuib7wgtgk6shntswj43zglduq6fh5bx53qqum62ct44jhyo4.py":38:19)
#loc32 = loc("/NHNHOME/WORKSPACE/26msit001_A/jinhyeok/TTT_camera_embedding/lact_llm/.cache_inductor/tw/ctwzuib7wgtgk6shntswj43zglduq6fh5bx53qqum62ct44jhyo4.py":40:43)
#loc33 = loc("/NHNHOME/WORKSPACE/26msit001_A/jinhyeok/TTT_camera_embedding/lact_llm/.cache_inductor/tw/ctwzuib7wgtgk6shntswj43zglduq6fh5bx53qqum62ct44jhyo4.py":40:38)
#loc34 = loc("/NHNHOME/WORKSPACE/26msit001_A/jinhyeok/TTT_camera_embedding/lact_llm/.cache_inductor/tw/ctwzuib7wgtgk6shntswj43zglduq6fh5bx53qqum62ct44jhyo4.py":40:49)
#loc35 = loc("/NHNHOME/WORKSPACE/26msit001_A/jinhyeok/TTT_camera_embedding/lact_llm/.cache_inductor/tw/ctwzuib7wgtgk6shntswj43zglduq6fh5bx53qqum62ct44jhyo4.py":40:31)
#loc36 = loc("/NHNHOME/WORKSPACE/26msit001_A/jinhyeok/TTT_camera_embedding/lact_llm/.cache_inductor/tw/ctwzuib7wgtgk6shntswj43zglduq6fh5bx53qqum62ct44jhyo4.py":40:55)
#loc37 = loc("/NHNHOME/WORKSPACE/26msit001_A/jinhyeok/TTT_camera_embedding/lact_llm/.cache_inductor/tw/ctwzuib7wgtgk6shntswj43zglduq6fh5bx53qqum62ct44jhyo4.py":41:20)
#loc38 = loc("/NHNHOME/WORKSPACE/26msit001_A/jinhyeok/TTT_camera_embedding/lact_llm/.cache_inductor/tw/ctwzuib7wgtgk6shntswj43zglduq6fh5bx53qqum62ct44jhyo4.py":42:43)
#loc39 = loc("/NHNHOME/WORKSPACE/26msit001_A/jinhyeok/TTT_camera_embedding/lact_llm/.cache_inductor/tw/ctwzuib7wgtgk6shntswj43zglduq6fh5bx53qqum62ct44jhyo4.py":42:38)
#loc40 = loc("/NHNHOME/WORKSPACE/26msit001_A/jinhyeok/TTT_camera_embedding/lact_llm/.cache_inductor/tw/ctwzuib7wgtgk6shntswj43zglduq6fh5bx53qqum62ct44jhyo4.py":42:55)
#loc41 = loc("/NHNHOME/WORKSPACE/26msit001_A/jinhyeok/TTT_camera_embedding/lact_llm/.cache_inductor/tw/ctwzuib7wgtgk6shntswj43zglduq6fh5bx53qqum62ct44jhyo4.py":42:48)
#loc42 = loc("/NHNHOME/WORKSPACE/26msit001_A/jinhyeok/TTT_camera_embedding/lact_llm/.cache_inductor/tw/ctwzuib7wgtgk6shntswj43zglduq6fh5bx53qqum62ct44jhyo4.py":42:61)
#loc43 = loc("/NHNHOME/WORKSPACE/26msit001_A/jinhyeok/TTT_camera_embedding/lact_llm/.cache_inductor/tw/ctwzuib7wgtgk6shntswj43zglduq6fh5bx53qqum62ct44jhyo4.py":42:31)
#loc44 = loc("/NHNHOME/WORKSPACE/26msit001_A/jinhyeok/TTT_camera_embedding/lact_llm/.cache_inductor/tw/ctwzuib7wgtgk6shntswj43zglduq6fh5bx53qqum62ct44jhyo4.py":42:67)
#loc45 = loc("/NHNHOME/WORKSPACE/26msit001_A/jinhyeok/TTT_camera_embedding/lact_llm/.cache_inductor/tw/ctwzuib7wgtgk6shntswj43zglduq6fh5bx53qqum62ct44jhyo4.py":42:117)
#loc46 = loc("/NHNHOME/WORKSPACE/26msit001_A/jinhyeok/TTT_camera_embedding/lact_llm/.cache_inductor/tw/ctwzuib7wgtgk6shntswj43zglduq6fh5bx53qqum62ct44jhyo4.py":44:23)
#loc47 = loc("/NHNHOME/WORKSPACE/26msit001_A/jinhyeok/TTT_camera_embedding/lact_llm/.cache_inductor/tw/ctwzuib7wgtgk6shntswj43zglduq6fh5bx53qqum62ct44jhyo4.py":45:20)
#loc48 = loc("/NHNHOME/WORKSPACE/26msit001_A/jinhyeok/TTT_camera_embedding/lact_llm/.cache_inductor/tw/ctwzuib7wgtgk6shntswj43zglduq6fh5bx53qqum62ct44jhyo4.py":47:43)
#loc49 = loc("/NHNHOME/WORKSPACE/26msit001_A/jinhyeok/TTT_camera_embedding/lact_llm/.cache_inductor/tw/ctwzuib7wgtgk6shntswj43zglduq6fh5bx53qqum62ct44jhyo4.py":47:38)
#loc50 = loc("/NHNHOME/WORKSPACE/26msit001_A/jinhyeok/TTT_camera_embedding/lact_llm/.cache_inductor/tw/ctwzuib7wgtgk6shntswj43zglduq6fh5bx53qqum62ct44jhyo4.py":47:55)
#loc51 = loc("/NHNHOME/WORKSPACE/26msit001_A/jinhyeok/TTT_camera_embedding/lact_llm/.cache_inductor/tw/ctwzuib7wgtgk6shntswj43zglduq6fh5bx53qqum62ct44jhyo4.py":47:48)
#loc52 = loc("/NHNHOME/WORKSPACE/26msit001_A/jinhyeok/TTT_camera_embedding/lact_llm/.cache_inductor/tw/ctwzuib7wgtgk6shntswj43zglduq6fh5bx53qqum62ct44jhyo4.py":47:61)
#loc53 = loc("/NHNHOME/WORKSPACE/26msit001_A/jinhyeok/TTT_camera_embedding/lact_llm/.cache_inductor/tw/ctwzuib7wgtgk6shntswj43zglduq6fh5bx53qqum62ct44jhyo4.py":47:31)
#loc54 = loc("/NHNHOME/WORKSPACE/26msit001_A/jinhyeok/TTT_camera_embedding/lact_llm/.cache_inductor/tw/ctwzuib7wgtgk6shntswj43zglduq6fh5bx53qqum62ct44jhyo4.py":47:67)
#loc55 = loc("/NHNHOME/WORKSPACE/26msit001_A/jinhyeok/TTT_camera_embedding/lact_llm/.cache_inductor/tw/ctwzuib7wgtgk6shntswj43zglduq6fh5bx53qqum62ct44jhyo4.py":47:117)
#loc56 = loc("/NHNHOME/WORKSPACE/26msit001_A/jinhyeok/TTT_camera_embedding/lact_llm/.cache_inductor/tw/ctwzuib7wgtgk6shntswj43zglduq6fh5bx53qqum62ct44jhyo4.py":48:20)
#loc57 = loc("/NHNHOME/WORKSPACE/26msit001_A/jinhyeok/TTT_camera_embedding/lact_llm/.cache_inductor/tw/ctwzuib7wgtgk6shntswj43zglduq6fh5bx53qqum62ct44jhyo4.py":50:43)
#loc58 = loc("/NHNHOME/WORKSPACE/26msit001_A/jinhyeok/TTT_camera_embedding/lact_llm/.cache_inductor/tw/ctwzuib7wgtgk6shntswj43zglduq6fh5bx53qqum62ct44jhyo4.py":50:38)
#loc59 = loc("/NHNHOME/WORKSPACE/26msit001_A/jinhyeok/TTT_camera_embedding/lact_llm/.cache_inductor/tw/ctwzuib7wgtgk6shntswj43zglduq6fh5bx53qqum62ct44jhyo4.py":50:49)
#loc60 = loc("/NHNHOME/WORKSPACE/26msit001_A/jinhyeok/TTT_camera_embedding/lact_llm/.cache_inductor/tw/ctwzuib7wgtgk6shntswj43zglduq6fh5bx53qqum62ct44jhyo4.py":50:31)
#loc61 = loc("/NHNHOME/WORKSPACE/26msit001_A/jinhyeok/TTT_camera_embedding/lact_llm/.cache_inductor/tw/ctwzuib7wgtgk6shntswj43zglduq6fh5bx53qqum62ct44jhyo4.py":50:55)
#loc62 = loc("/NHNHOME/WORKSPACE/26msit001_A/jinhyeok/TTT_camera_embedding/lact_llm/.cache_inductor/tw/ctwzuib7wgtgk6shntswj43zglduq6fh5bx53qqum62ct44jhyo4.py":51:20)
#loc63 = loc("/NHNHOME/WORKSPACE/26msit001_A/jinhyeok/TTT_camera_embedding/lact_llm/.cache_inductor/tw/ctwzuib7wgtgk6shntswj43zglduq6fh5bx53qqum62ct44jhyo4.py":52:20)
#loc64 = loc("/NHNHOME/WORKSPACE/26msit001_A/jinhyeok/TTT_camera_embedding/lact_llm/.cache_inductor/tw/ctwzuib7wgtgk6shntswj43zglduq6fh5bx53qqum62ct44jhyo4.py":53:38)
#loc65 = loc("/NHNHOME/WORKSPACE/26msit001_A/jinhyeok/TTT_camera_embedding/lact_llm/.cache_inductor/tw/ctwzuib7wgtgk6shntswj43zglduq6fh5bx53qqum62ct44jhyo4.py":54:34)
#loc66 = loc("/NHNHOME/WORKSPACE/26msit001_A/jinhyeok/TTT_camera_embedding/lact_llm/.cache_inductor/tw/ctwzuib7wgtgk6shntswj43zglduq6fh5bx53qqum62ct44jhyo4.py":55:20)
#loc67 = loc("/NHNHOME/WORKSPACE/26msit001_A/jinhyeok/TTT_camera_embedding/lact_llm/.cache_inductor/tw/ctwzuib7wgtgk6shntswj43zglduq6fh5bx53qqum62ct44jhyo4.py":56:31)
#loc68 = loc("/NHNHOME/WORKSPACE/26msit001_A/jinhyeok/TTT_camera_embedding/lact_llm/.cache_inductor/tw/ctwzuib7wgtgk6shntswj43zglduq6fh5bx53qqum62ct44jhyo4.py":57:19)
#loc69 = loc("/NHNHOME/WORKSPACE/26msit001_A/jinhyeok/TTT_camera_embedding/lact_llm/.cache_inductor/tw/ctwzuib7wgtgk6shntswj43zglduq6fh5bx53qqum62ct44jhyo4.py":58:36)
#loc70 = loc("/NHNHOME/WORKSPACE/26msit001_A/jinhyeok/TTT_camera_embedding/lact_llm/.cache_inductor/tw/ctwzuib7wgtgk6shntswj43zglduq6fh5bx53qqum62ct44jhyo4.py":58:48)
#loc71 = loc("/NHNHOME/WORKSPACE/26msit001_A/jinhyeok/TTT_camera_embedding/lact_llm/.cache_inductor/tw/ctwzuib7wgtgk6shntswj43zglduq6fh5bx53qqum62ct44jhyo4.py":58:41)
#loc72 = loc("/NHNHOME/WORKSPACE/26msit001_A/jinhyeok/TTT_camera_embedding/lact_llm/.cache_inductor/tw/ctwzuib7wgtgk6shntswj43zglduq6fh5bx53qqum62ct44jhyo4.py":58:64)
#loc73 = loc("/NHNHOME/WORKSPACE/26msit001_A/jinhyeok/TTT_camera_embedding/lact_llm/.cache_inductor/tw/ctwzuib7wgtgk6shntswj43zglduq6fh5bx53qqum62ct44jhyo4.py":58:54)
#loc74 = loc("/NHNHOME/WORKSPACE/26msit001_A/jinhyeok/TTT_camera_embedding/lact_llm/.cache_inductor/tw/ctwzuib7wgtgk6shntswj43zglduq6fh5bx53qqum62ct44jhyo4.py":58:31)
#loc75 = loc("/NHNHOME/WORKSPACE/26msit001_A/jinhyeok/TTT_camera_embedding/lact_llm/.cache_inductor/tw/ctwzuib7wgtgk6shntswj43zglduq6fh5bx53qqum62ct44jhyo4.py":58:70)
#loc76 = loc("/NHNHOME/WORKSPACE/26msit001_A/jinhyeok/TTT_camera_embedding/lact_llm/.cache_inductor/tw/ctwzuib7wgtgk6shntswj43zglduq6fh5bx53qqum62ct44jhyo4.py":58:121)
#loc77 = loc("/NHNHOME/WORKSPACE/26msit001_A/jinhyeok/TTT_camera_embedding/lact_llm/.cache_inductor/tw/ctwzuib7wgtgk6shntswj43zglduq6fh5bx53qqum62ct44jhyo4.py":60:23)
#loc78 = loc("/NHNHOME/WORKSPACE/26msit001_A/jinhyeok/TTT_camera_embedding/lact_llm/.cache_inductor/tw/ctwzuib7wgtgk6shntswj43zglduq6fh5bx53qqum62ct44jhyo4.py":61:20)
#loc79 = loc("/NHNHOME/WORKSPACE/26msit001_A/jinhyeok/TTT_camera_embedding/lact_llm/.cache_inductor/tw/ctwzuib7wgtgk6shntswj43zglduq6fh5bx53qqum62ct44jhyo4.py":63:36)
#loc80 = loc("/NHNHOME/WORKSPACE/26msit001_A/jinhyeok/TTT_camera_embedding/lact_llm/.cache_inductor/tw/ctwzuib7wgtgk6shntswj43zglduq6fh5bx53qqum62ct44jhyo4.py":63:48)
#loc81 = loc("/NHNHOME/WORKSPACE/26msit001_A/jinhyeok/TTT_camera_embedding/lact_llm/.cache_inductor/tw/ctwzuib7wgtgk6shntswj43zglduq6fh5bx53qqum62ct44jhyo4.py":63:41)
#loc82 = loc("/NHNHOME/WORKSPACE/26msit001_A/jinhyeok/TTT_camera_embedding/lact_llm/.cache_inductor/tw/ctwzuib7wgtgk6shntswj43zglduq6fh5bx53qqum62ct44jhyo4.py":63:64)
#loc83 = loc("/NHNHOME/WORKSPACE/26msit001_A/jinhyeok/TTT_camera_embedding/lact_llm/.cache_inductor/tw/ctwzuib7wgtgk6shntswj43zglduq6fh5bx53qqum62ct44jhyo4.py":63:54)
#loc84 = loc("/NHNHOME/WORKSPACE/26msit001_A/jinhyeok/TTT_camera_embedding/lact_llm/.cache_inductor/tw/ctwzuib7wgtgk6shntswj43zglduq6fh5bx53qqum62ct44jhyo4.py":63:31)
#loc85 = loc("/NHNHOME/WORKSPACE/26msit001_A/jinhyeok/TTT_camera_embedding/lact_llm/.cache_inductor/tw/ctwzuib7wgtgk6shntswj43zglduq6fh5bx53qqum62ct44jhyo4.py":63:70)
#loc86 = loc("/NHNHOME/WORKSPACE/26msit001_A/jinhyeok/TTT_camera_embedding/lact_llm/.cache_inductor/tw/ctwzuib7wgtgk6shntswj43zglduq6fh5bx53qqum62ct44jhyo4.py":63:121)
#loc87 = loc("/NHNHOME/WORKSPACE/26msit001_A/jinhyeok/TTT_camera_embedding/lact_llm/.cache_inductor/tw/ctwzuib7wgtgk6shntswj43zglduq6fh5bx53qqum62ct44jhyo4.py":64:20)
#loc88 = loc("/NHNHOME/WORKSPACE/26msit001_A/jinhyeok/TTT_camera_embedding/lact_llm/.cache_inductor/tw/ctwzuib7wgtgk6shntswj43zglduq6fh5bx53qqum62ct44jhyo4.py":66:43)
#loc89 = loc("/NHNHOME/WORKSPACE/26msit001_A/jinhyeok/TTT_camera_embedding/lact_llm/.cache_inductor/tw/ctwzuib7wgtgk6shntswj43zglduq6fh5bx53qqum62ct44jhyo4.py":66:38)
#loc90 = loc("/NHNHOME/WORKSPACE/26msit001_A/jinhyeok/TTT_camera_embedding/lact_llm/.cache_inductor/tw/ctwzuib7wgtgk6shntswj43zglduq6fh5bx53qqum62ct44jhyo4.py":66:59)
#loc91 = loc("/NHNHOME/WORKSPACE/26msit001_A/jinhyeok/TTT_camera_embedding/lact_llm/.cache_inductor/tw/ctwzuib7wgtgk6shntswj43zglduq6fh5bx53qqum62ct44jhyo4.py":66:49)
#loc92 = loc("/NHNHOME/WORKSPACE/26msit001_A/jinhyeok/TTT_camera_embedding/lact_llm/.cache_inductor/tw/ctwzuib7wgtgk6shntswj43zglduq6fh5bx53qqum62ct44jhyo4.py":66:31)
#loc93 = loc("/NHNHOME/WORKSPACE/26msit001_A/jinhyeok/TTT_camera_embedding/lact_llm/.cache_inductor/tw/ctwzuib7wgtgk6shntswj43zglduq6fh5bx53qqum62ct44jhyo4.py":66:65)
#loc94 = loc("/NHNHOME/WORKSPACE/26msit001_A/jinhyeok/TTT_camera_embedding/lact_llm/.cache_inductor/tw/ctwzuib7wgtgk6shntswj43zglduq6fh5bx53qqum62ct44jhyo4.py":67:20)
#loc95 = loc("/NHNHOME/WORKSPACE/26msit001_A/jinhyeok/TTT_camera_embedding/lact_llm/.cache_inductor/tw/ctwzuib7wgtgk6shntswj43zglduq6fh5bx53qqum62ct44jhyo4.py":68:43)
#loc96 = loc("/NHNHOME/WORKSPACE/26msit001_A/jinhyeok/TTT_camera_embedding/lact_llm/.cache_inductor/tw/ctwzuib7wgtgk6shntswj43zglduq6fh5bx53qqum62ct44jhyo4.py":68:38)
#loc97 = loc("/NHNHOME/WORKSPACE/26msit001_A/jinhyeok/TTT_camera_embedding/lact_llm/.cache_inductor/tw/ctwzuib7wgtgk6shntswj43zglduq6fh5bx53qqum62ct44jhyo4.py":68:55)
#loc98 = loc("/NHNHOME/WORKSPACE/26msit001_A/jinhyeok/TTT_camera_embedding/lact_llm/.cache_inductor/tw/ctwzuib7wgtgk6shntswj43zglduq6fh5bx53qqum62ct44jhyo4.py":68:48)
#loc99 = loc("/NHNHOME/WORKSPACE/26msit001_A/jinhyeok/TTT_camera_embedding/lact_llm/.cache_inductor/tw/ctwzuib7wgtgk6shntswj43zglduq6fh5bx53qqum62ct44jhyo4.py":68:71)
#loc100 = loc("/NHNHOME/WORKSPACE/26msit001_A/jinhyeok/TTT_camera_embedding/lact_llm/.cache_inductor/tw/ctwzuib7wgtgk6shntswj43zglduq6fh5bx53qqum62ct44jhyo4.py":68:61)
#loc101 = loc("/NHNHOME/WORKSPACE/26msit001_A/jinhyeok/TTT_camera_embedding/lact_llm/.cache_inductor/tw/ctwzuib7wgtgk6shntswj43zglduq6fh5bx53qqum62ct44jhyo4.py":68:31)
#loc102 = loc("/NHNHOME/WORKSPACE/26msit001_A/jinhyeok/TTT_camera_embedding/lact_llm/.cache_inductor/tw/ctwzuib7wgtgk6shntswj43zglduq6fh5bx53qqum62ct44jhyo4.py":68:77)
#loc103 = loc("/NHNHOME/WORKSPACE/26msit001_A/jinhyeok/TTT_camera_embedding/lact_llm/.cache_inductor/tw/ctwzuib7wgtgk6shntswj43zglduq6fh5bx53qqum62ct44jhyo4.py":68:128)
#loc104 = loc("/NHNHOME/WORKSPACE/26msit001_A/jinhyeok/TTT_camera_embedding/lact_llm/.cache_inductor/tw/ctwzuib7wgtgk6shntswj43zglduq6fh5bx53qqum62ct44jhyo4.py":70:23)
#loc105 = loc("/NHNHOME/WORKSPACE/26msit001_A/jinhyeok/TTT_camera_embedding/lact_llm/.cache_inductor/tw/ctwzuib7wgtgk6shntswj43zglduq6fh5bx53qqum62ct44jhyo4.py":71:20)
#loc106 = loc("/NHNHOME/WORKSPACE/26msit001_A/jinhyeok/TTT_camera_embedding/lact_llm/.cache_inductor/tw/ctwzuib7wgtgk6shntswj43zglduq6fh5bx53qqum62ct44jhyo4.py":73:43)
#loc107 = loc("/NHNHOME/WORKSPACE/26msit001_A/jinhyeok/TTT_camera_embedding/lact_llm/.cache_inductor/tw/ctwzuib7wgtgk6shntswj43zglduq6fh5bx53qqum62ct44jhyo4.py":73:38)
#loc108 = loc("/NHNHOME/WORKSPACE/26msit001_A/jinhyeok/TTT_camera_embedding/lact_llm/.cache_inductor/tw/ctwzuib7wgtgk6shntswj43zglduq6fh5bx53qqum62ct44jhyo4.py":73:55)
#loc109 = loc("/NHNHOME/WORKSPACE/26msit001_A/jinhyeok/TTT_camera_embedding/lact_llm/.cache_inductor/tw/ctwzuib7wgtgk6shntswj43zglduq6fh5bx53qqum62ct44jhyo4.py":73:48)
#loc110 = loc("/NHNHOME/WORKSPACE/26msit001_A/jinhyeok/TTT_camera_embedding/lact_llm/.cache_inductor/tw/ctwzuib7wgtgk6shntswj43zglduq6fh5bx53qqum62ct44jhyo4.py":73:71)
#loc111 = loc("/NHNHOME/WORKSPACE/26msit001_A/jinhyeok/TTT_camera_embedding/lact_llm/.cache_inductor/tw/ctwzuib7wgtgk6shntswj43zglduq6fh5bx53qqum62ct44jhyo4.py":73:61)
#loc112 = loc("/NHNHOME/WORKSPACE/26msit001_A/jinhyeok/TTT_camera_embedding/lact_llm/.cache_inductor/tw/ctwzuib7wgtgk6shntswj43zglduq6fh5bx53qqum62ct44jhyo4.py":73:31)
#loc113 = loc("/NHNHOME/WORKSPACE/26msit001_A/jinhyeok/TTT_camera_embedding/lact_llm/.cache_inductor/tw/ctwzuib7wgtgk6shntswj43zglduq6fh5bx53qqum62ct44jhyo4.py":73:77)
#loc114 = loc("/NHNHOME/WORKSPACE/26msit001_A/jinhyeok/TTT_camera_embedding/lact_llm/.cache_inductor/tw/ctwzuib7wgtgk6shntswj43zglduq6fh5bx53qqum62ct44jhyo4.py":73:128)
#loc115 = loc("/NHNHOME/WORKSPACE/26msit001_A/jinhyeok/TTT_camera_embedding/lact_llm/.cache_inductor/tw/ctwzuib7wgtgk6shntswj43zglduq6fh5bx53qqum62ct44jhyo4.py":74:20)
#loc116 = loc("/NHNHOME/WORKSPACE/26msit001_A/jinhyeok/TTT_camera_embedding/lact_llm/.cache_inductor/tw/ctwzuib7wgtgk6shntswj43zglduq6fh5bx53qqum62ct44jhyo4.py":76:43)
#loc117 = loc("/NHNHOME/WORKSPACE/26msit001_A/jinhyeok/TTT_camera_embedding/lact_llm/.cache_inductor/tw/ctwzuib7wgtgk6shntswj43zglduq6fh5bx53qqum62ct44jhyo4.py":76:38)
#loc118 = loc("/NHNHOME/WORKSPACE/26msit001_A/jinhyeok/TTT_camera_embedding/lact_llm/.cache_inductor/tw/ctwzuib7wgtgk6shntswj43zglduq6fh5bx53qqum62ct44jhyo4.py":76:59)
#loc119 = loc("/NHNHOME/WORKSPACE/26msit001_A/jinhyeok/TTT_camera_embedding/lact_llm/.cache_inductor/tw/ctwzuib7wgtgk6shntswj43zglduq6fh5bx53qqum62ct44jhyo4.py":76:49)
#loc120 = loc("/NHNHOME/WORKSPACE/26msit001_A/jinhyeok/TTT_camera_embedding/lact_llm/.cache_inductor/tw/ctwzuib7wgtgk6shntswj43zglduq6fh5bx53qqum62ct44jhyo4.py":76:31)
#loc121 = loc("/NHNHOME/WORKSPACE/26msit001_A/jinhyeok/TTT_camera_embedding/lact_llm/.cache_inductor/tw/ctwzuib7wgtgk6shntswj43zglduq6fh5bx53qqum62ct44jhyo4.py":76:65)
#loc122 = loc("/NHNHOME/WORKSPACE/26msit001_A/jinhyeok/TTT_camera_embedding/lact_llm/.cache_inductor/tw/ctwzuib7wgtgk6shntswj43zglduq6fh5bx53qqum62ct44jhyo4.py":77:20)
#loc123 = loc("/NHNHOME/WORKSPACE/26msit001_A/jinhyeok/TTT_camera_embedding/lact_llm/.cache_inductor/tw/ctwzuib7wgtgk6shntswj43zglduq6fh5bx53qqum62ct44jhyo4.py":78:20)
#loc124 = loc("/NHNHOME/WORKSPACE/26msit001_A/jinhyeok/TTT_camera_embedding/lact_llm/.cache_inductor/tw/ctwzuib7wgtgk6shntswj43zglduq6fh5bx53qqum62ct44jhyo4.py":79:38)
#loc125 = loc("/NHNHOME/WORKSPACE/26msit001_A/jinhyeok/TTT_camera_embedding/lact_llm/.cache_inductor/tw/ctwzuib7wgtgk6shntswj43zglduq6fh5bx53qqum62ct44jhyo4.py":80:35)
#loc126 = loc("/NHNHOME/WORKSPACE/26msit001_A/jinhyeok/TTT_camera_embedding/lact_llm/.cache_inductor/tw/ctwzuib7wgtgk6shntswj43zglduq6fh5bx53qqum62ct44jhyo4.py":81:34)
#loc127 = loc("/NHNHOME/WORKSPACE/26msit001_A/jinhyeok/TTT_camera_embedding/lact_llm/.cache_inductor/tw/ctwzuib7wgtgk6shntswj43zglduq6fh5bx53qqum62ct44jhyo4.py":82:25)
#loc128 = loc("/NHNHOME/WORKSPACE/26msit001_A/jinhyeok/TTT_camera_embedding/lact_llm/.cache_inductor/tw/ctwzuib7wgtgk6shntswj43zglduq6fh5bx53qqum62ct44jhyo4.py":82:37)
#loc129 = loc("/NHNHOME/WORKSPACE/26msit001_A/jinhyeok/TTT_camera_embedding/lact_llm/.cache_inductor/tw/ctwzuib7wgtgk6shntswj43zglduq6fh5bx53qqum62ct44jhyo4.py":82:4)
#loc131 = loc("/NHNHOME/WORKSPACE/26msit001_A/jinhyeok/TTT_camera_embedding/.venv_llm/lib/python3.12/site-packages/triton/language/standard.py":48:30)
#loc132 = loc("/NHNHOME/WORKSPACE/26msit001_A/jinhyeok/TTT_camera_embedding/.venv_llm/lib/python3.12/site-packages/triton/language/standard.py":48:29)
#loc133 = loc("/NHNHOME/WORKSPACE/26msit001_A/jinhyeok/TTT_camera_embedding/.venv_llm/lib/python3.12/site-packages/triton/language/standard.py":48:20)
#loc134 = loc("/NHNHOME/WORKSPACE/26msit001_A/jinhyeok/TTT_camera_embedding/.venv_llm/lib/python3.12/site-packages/triton/language/standard.py":48:16)
#loc135 = loc("/NHNHOME/WORKSPACE/26msit001_A/jinhyeok/TTT_camera_embedding/.venv_llm/lib/python3.12/site-packages/triton/language/standard.py":48:11)
#loc136 = loc("/NHNHOME/WORKSPACE/26msit001_A/jinhyeok/TTT_camera_embedding/.venv_llm/lib/python3.12/site-packages/triton/language/standard.py":48:4)
#loc143 = loc("xnumel"(#loc1))
#loc144 = loc("xoffset"(#loc2))
#loc145 = loc("xoffset"(#loc3))
#loc146 = loc("xindex"(#loc4))
#loc147 = loc("xindex"(#loc5))
#loc148 = loc("xmask"(#loc6))
#loc149 = loc("x0"(#loc7))
#loc150 = loc("x1"(#loc8))
#loc151 = loc("x1"(#loc9))
#loc152 = loc("x2"(#loc10))
#loc153 = loc("tmp1"(#loc11))
#loc154 = loc("tmp2"(#loc12))
#loc155 = loc("tmp3"(#loc13))
#loc156 = loc("tmp4"(#loc14))
#loc157 = loc("tmp5"(#loc15))
#loc158 = loc("tmp5"(#loc16))
#loc159 = loc("tmp5"(#loc17))
#loc160 = loc("tmp5"(#loc18))
#loc161 = loc("tmp5"(#loc19))
#loc162 = loc("tmp5"(#loc20))
#loc163 = loc("tmp5"(#loc21))
#loc164 = loc("tmp7"(#loc22))
#loc165 = loc("tmp8"(#loc23))
#loc166 = loc("tmp10"(#loc24))
#loc167 = loc("tmp10"(#loc25))
#loc168 = loc("tmp10"(#loc26))
#loc169 = loc("tmp10"(#loc27))
#loc170 = loc("tmp10"(#loc28))
#loc171 = loc("tmp10"(#loc29))
#loc172 = loc("tmp10"(#loc30))
#loc173 = loc("tmp11"(#loc31))
#loc174 = loc("tmp13"(#loc32))
#loc175 = loc("tmp13"(#loc33))
#loc176 = loc("tmp13"(#loc34))
#loc177 = loc("tmp13"(#loc35))
#loc178 = loc("tmp13"(#loc36))
#loc179 = loc("tmp14"(#loc37))
#loc180 = loc("tmp15"(#loc38))
#loc181 = loc("tmp15"(#loc39))
#loc182 = loc("tmp15"(#loc40))
#loc183 = loc("tmp15"(#loc41))
#loc184 = loc("tmp15"(#loc42))
#loc185 = loc("tmp15"(#loc43))
#loc186 = loc("tmp15"(#loc44))
#loc187 = loc("tmp15"(#loc45))
#loc188 = loc("tmp17"(#loc46))
#loc189 = loc("tmp18"(#loc47))
#loc190 = loc("tmp20"(#loc48))
#loc191 = loc("tmp20"(#loc49))
#loc192 = loc("tmp20"(#loc50))
#loc193 = loc("tmp20"(#loc51))
#loc194 = loc("tmp20"(#loc52))
#loc195 = loc("tmp20"(#loc53))
#loc196 = loc("tmp20"(#loc54))
#loc197 = loc("tmp20"(#loc55))
#loc198 = loc("tmp21"(#loc56))
#loc199 = loc("tmp23"(#loc57))
#loc200 = loc("tmp23"(#loc58))
#loc201 = loc("tmp23"(#loc59))
#loc202 = loc("tmp23"(#loc60))
#loc203 = loc("tmp23"(#loc61))
#loc204 = loc("tmp24"(#loc62))
#loc205 = loc("tmp25"(#loc63))
#loc206 = loc("tmp26"(#loc64))
#loc207 = loc("tmp27"(#loc65))
#loc208 = loc("tmp28"(#loc66))
#loc209 = loc("tmp29"(#loc67))
#loc210 = loc("tmp30"(#loc68))
#loc211 = loc("tmp31"(#loc69))
#loc212 = loc("tmp31"(#loc70))
#loc213 = loc("tmp31"(#loc71))
#loc214 = loc("tmp31"(#loc72))
#loc215 = loc("tmp31"(#loc73))
#loc216 = loc("tmp31"(#loc74))
#loc217 = loc("tmp31"(#loc75))
#loc218 = loc("tmp31"(#loc76))
#loc219 = loc("tmp33"(#loc77))
#loc220 = loc("tmp34"(#loc78))
#loc221 = loc("tmp36"(#loc79))
#loc222 = loc("tmp36"(#loc80))
#loc223 = loc("tmp36"(#loc81))
#loc224 = loc("tmp36"(#loc82))
#loc225 = loc("tmp36"(#loc83))
#loc226 = loc("tmp36"(#loc84))
#loc227 = loc("tmp36"(#loc85))
#loc228 = loc("tmp36"(#loc86))
#loc229 = loc("tmp37"(#loc87))
#loc230 = loc("tmp39"(#loc88))
#loc231 = loc("tmp39"(#loc89))
#loc232 = loc("tmp39"(#loc90))
#loc233 = loc("tmp39"(#loc91))
#loc234 = loc("tmp39"(#loc92))
#loc235 = loc("tmp39"(#loc93))
#loc236 = loc("tmp40"(#loc94))
#loc237 = loc("tmp41"(#loc95))
#loc238 = loc("tmp41"(#loc96))
#loc239 = loc("tmp41"(#loc97))
#loc240 = loc("tmp41"(#loc98))
#loc241 = loc("tmp41"(#loc99))
#loc242 = loc("tmp41"(#loc100))
#loc243 = loc("tmp41"(#loc101))
#loc244 = loc("tmp41"(#loc102))
#loc245 = loc("tmp41"(#loc103))
#loc246 = loc("tmp43"(#loc104))
#loc247 = loc("tmp44"(#loc105))
#loc248 = loc("tmp46"(#loc106))
#loc249 = loc("tmp46"(#loc107))
#loc250 = loc("tmp46"(#loc108))
#loc251 = loc("tmp46"(#loc109))
#loc252 = loc("tmp46"(#loc110))
#loc253 = loc("tmp46"(#loc111))
#loc254 = loc("tmp46"(#loc112))
#loc255 = loc("tmp46"(#loc113))
#loc256 = loc("tmp46"(#loc114))
#loc257 = loc("tmp47"(#loc115))
#loc258 = loc("tmp49"(#loc116))
#loc259 = loc("tmp49"(#loc117))
#loc260 = loc("tmp49"(#loc118))
#loc261 = loc("tmp49"(#loc119))
#loc262 = loc("tmp49"(#loc120))
#loc263 = loc("tmp49"(#loc121))
#loc264 = loc("tmp50"(#loc122))
#loc265 = loc("tmp51"(#loc123))
#loc266 = loc("tmp52"(#loc124))
#loc267 = loc("tmp53"(#loc125))
#loc268 = loc("tmp54"(#loc126))
