#loc = loc("/NHNHOME/WORKSPACE/26msit001_A/jinhyeok/loop_TTT/lact/.cache_inductor_llm/r5/cr5luztcslpznryaiiyrchdfsp4xwhsay5pm4xgztry5w46qpztt.py":18:0)
#loc39 = loc("in_out_ptr0"(#loc))
#loc40 = loc("in_ptr0"(#loc))
#loc41 = loc("in_ptr1"(#loc))
#loc42 = loc("in_ptr2"(#loc))
#loc43 = loc("in_ptr3"(#loc))
#loc44 = loc("out_ptr0"(#loc))
#loc45 = loc("out_ptr1"(#loc))
#loc46 = loc("xnumel"(#loc))
module {
  tt.func public @triton_poi_fused__to_copy_add_mul_38(%in_out_ptr0: !tt.ptr<f32> {tt.divisibility = 16 : i32} loc("in_out_ptr0"(#loc)), %in_ptr0: !tt.ptr<bf16> {tt.divisibility = 16 : i32} loc("in_ptr0"(#loc)), %in_ptr1: !tt.ptr<bf16> {tt.divisibility = 16 : i32} loc("in_ptr1"(#loc)), %in_ptr2: !tt.ptr<bf16> {tt.divisibility = 16 : i32} loc("in_ptr2"(#loc)), %in_ptr3: !tt.ptr<bf16> {tt.divisibility = 16 : i32} loc("in_ptr3"(#loc)), %out_ptr0: !tt.ptr<bf16> {tt.divisibility = 16 : i32} loc("out_ptr0"(#loc)), %out_ptr1: !tt.ptr<bf16> {tt.divisibility = 16 : i32} loc("out_ptr1"(#loc)), %xnumel: i32 {tt.divisibility = 16 : i32} loc("xnumel"(#loc))) attributes {noinline = false} {
    %xoffset = tt.get_program_id x : i32 loc(#loc47)
    %xoffset_0 = arith.constant 1024 : i32 loc(#loc48)
    %xoffset_1 = arith.constant 1024 : i32 loc(#loc48)
    %xoffset_2 = arith.muli %xoffset, %xoffset_1 : i32 loc(#loc48)
    %xindex = tt.make_range {end = 1024 : i32, start = 0 : i32} : tensor<1024xi32> loc(#loc49)
    %xindex_3 = tt.splat %xoffset_2 : i32 -> tensor<1024xi32> loc(#loc50)
    %xindex_4 = arith.addi %xindex_3, %xindex : tensor<1024xi32> loc(#loc50)
    %xmask = arith.constant true loc(#loc51)
    %xmask_5 = arith.constant dense<true> : tensor<1024xi1> loc(#loc51)
    %tmp0 = tt.splat %in_out_ptr0 : !tt.ptr<f32> -> tensor<1024x!tt.ptr<f32>> loc(#loc52)
    %tmp0_6 = tt.addptr %tmp0, %xindex_4 : tensor<1024x!tt.ptr<f32>>, tensor<1024xi32> loc(#loc52)
    %tmp0_7 = tt.load %tmp0_6 : tensor<1024x!tt.ptr<f32>> loc(#loc53)
    %tmp3 = tt.splat %in_ptr0 : !tt.ptr<bf16> -> tensor<1024x!tt.ptr<bf16>> loc(#loc54)
    %tmp3_8 = tt.addptr %tmp3, %xindex_4 : tensor<1024x!tt.ptr<bf16>>, tensor<1024xi32> loc(#loc54)
    %tmp3_9 = tt.load %tmp3_8 : tensor<1024x!tt.ptr<bf16>> loc(#loc55)
    %tmp3_10 = arith.extf %tmp3_9 : tensor<1024xbf16> to tensor<1024xf32> loc(#loc56)
    %tmp8 = tt.splat %in_ptr1 : !tt.ptr<bf16> -> tensor<1024x!tt.ptr<bf16>> loc(#loc57)
    %tmp8_11 = tt.addptr %tmp8, %xindex_4 : tensor<1024x!tt.ptr<bf16>>, tensor<1024xi32> loc(#loc57)
    %tmp8_12 = tt.load %tmp8_11 : tensor<1024x!tt.ptr<bf16>> loc(#loc58)
    %tmp8_13 = arith.extf %tmp8_12 : tensor<1024xbf16> to tensor<1024xf32> loc(#loc59)
    %tmp13 = tt.splat %in_ptr2 : !tt.ptr<bf16> -> tensor<1024x!tt.ptr<bf16>> loc(#loc60)
    %tmp13_14 = tt.addptr %tmp13, %xindex_4 : tensor<1024x!tt.ptr<bf16>>, tensor<1024xi32> loc(#loc60)
    %tmp13_15 = tt.load %tmp13_14 : tensor<1024x!tt.ptr<bf16>> loc(#loc61)
    %tmp13_16 = arith.extf %tmp13_15 : tensor<1024xbf16> to tensor<1024xf32> loc(#loc62)
    %tmp18 = tt.splat %in_ptr3 : !tt.ptr<bf16> -> tensor<1024x!tt.ptr<bf16>> loc(#loc63)
    %tmp18_17 = tt.addptr %tmp18, %xindex_4 : tensor<1024x!tt.ptr<bf16>>, tensor<1024xi32> loc(#loc63)
    %tmp18_18 = tt.load %tmp18_17 : tensor<1024x!tt.ptr<bf16>> loc(#loc64)
    %tmp18_19 = arith.extf %tmp18_18 : tensor<1024xbf16> to tensor<1024xf32> loc(#loc65)
    %tmp1 = arith.constant 4.084800e+00 : f32 loc(#loc66)
    %tmp2 = arith.constant dense<4.084800e+00> : tensor<1024xf32> loc(#loc67)
    %tmp2_20 = arith.mulf %tmp0_7, %tmp2 : tensor<1024xf32> loc(#loc67)
    %tmp5 = arith.addf %tmp2_20, %tmp3_10 : tensor<1024xf32> loc(#loc68)
    %tmp6 = arith.constant 3.950500e+00 : f32 loc(#loc69)
    %tmp7 = arith.constant dense<3.950500e+00> : tensor<1024xf32> loc(#loc70)
    %tmp7_21 = arith.mulf %tmp5, %tmp7 : tensor<1024xf32> loc(#loc70)
    %tmp10 = arith.addf %tmp7_21, %tmp8_13 : tensor<1024xf32> loc(#loc71)
    %tmp11 = arith.constant 3.741800e+00 : f32 loc(#loc72)
    %tmp12 = arith.constant dense<3.741800e+00> : tensor<1024xf32> loc(#loc73)
    %tmp12_22 = arith.mulf %tmp10, %tmp12 : tensor<1024xf32> loc(#loc73)
    %tmp15 = arith.addf %tmp12_22, %tmp13_16 : tensor<1024xf32> loc(#loc74)
    %tmp16 = arith.constant 2.876900e+00 : f32 loc(#loc75)
    %tmp17 = arith.constant dense<2.876900e+00> : tensor<1024xf32> loc(#loc76)
    %tmp17_23 = arith.mulf %tmp15, %tmp17 : tensor<1024xf32> loc(#loc76)
    %tmp20 = arith.addf %tmp17_23, %tmp18_19 : tensor<1024xf32> loc(#loc77)
    %0 = tt.splat %in_out_ptr0 : !tt.ptr<f32> -> tensor<1024x!tt.ptr<f32>> loc(#loc32)
    %1 = tt.addptr %0, %xindex_4 : tensor<1024x!tt.ptr<f32>>, tensor<1024xi32> loc(#loc32)
    tt.store %1, %tmp20 : tensor<1024x!tt.ptr<f32>> loc(#loc33)
    %2 = tt.splat %out_ptr0 : !tt.ptr<bf16> -> tensor<1024x!tt.ptr<bf16>> loc(#loc34)
    %3 = tt.addptr %2, %xindex_4 : tensor<1024x!tt.ptr<bf16>>, tensor<1024xi32> loc(#loc34)
    %4 = arith.truncf %tmp20 : tensor<1024xf32> to tensor<1024xbf16> loc(#loc35)
    tt.store %3, %4 : tensor<1024x!tt.ptr<bf16>> loc(#loc35)
    %5 = tt.splat %out_ptr1 : !tt.ptr<bf16> -> tensor<1024x!tt.ptr<bf16>> loc(#loc36)
    %6 = tt.addptr %5, %xindex_4 : tensor<1024x!tt.ptr<bf16>>, tensor<1024xi32> loc(#loc36)
    %7 = arith.truncf %tmp20 : tensor<1024xf32> to tensor<1024xbf16> loc(#loc37)
    tt.store %6, %7 : tensor<1024x!tt.ptr<bf16>> loc(#loc37)
    tt.return loc(#loc38)
  } loc(#loc)
} loc(#loc)
#loc1 = loc("/NHNHOME/WORKSPACE/26msit001_A/jinhyeok/loop_TTT/lact/.cache_inductor_llm/r5/cr5luztcslpznryaiiyrchdfsp4xwhsay5pm4xgztry5w46qpztt.py":19:28)
#loc2 = loc("/NHNHOME/WORKSPACE/26msit001_A/jinhyeok/loop_TTT/lact/.cache_inductor_llm/r5/cr5luztcslpznryaiiyrchdfsp4xwhsay5pm4xgztry5w46qpztt.py":19:33)
#loc3 = loc("/NHNHOME/WORKSPACE/26msit001_A/jinhyeok/loop_TTT/lact/.cache_inductor_llm/r5/cr5luztcslpznryaiiyrchdfsp4xwhsay5pm4xgztry5w46qpztt.py":20:36)
#loc4 = loc("/NHNHOME/WORKSPACE/26msit001_A/jinhyeok/loop_TTT/lact/.cache_inductor_llm/r5/cr5luztcslpznryaiiyrchdfsp4xwhsay5pm4xgztry5w46qpztt.py":20:23)
#loc5 = loc("/NHNHOME/WORKSPACE/26msit001_A/jinhyeok/loop_TTT/lact/.cache_inductor_llm/r5/cr5luztcslpznryaiiyrchdfsp4xwhsay5pm4xgztry5w46qpztt.py":21:36)
#loc6 = loc("/NHNHOME/WORKSPACE/26msit001_A/jinhyeok/loop_TTT/lact/.cache_inductor_llm/r5/cr5luztcslpznryaiiyrchdfsp4xwhsay5pm4xgztry5w46qpztt.py":23:34)
#loc7 = loc("/NHNHOME/WORKSPACE/26msit001_A/jinhyeok/loop_TTT/lact/.cache_inductor_llm/r5/cr5luztcslpznryaiiyrchdfsp4xwhsay5pm4xgztry5w46qpztt.py":23:39)
#loc8 = loc("/NHNHOME/WORKSPACE/26msit001_A/jinhyeok/loop_TTT/lact/.cache_inductor_llm/r5/cr5luztcslpznryaiiyrchdfsp4xwhsay5pm4xgztry5w46qpztt.py":24:30)
#loc9 = loc("/NHNHOME/WORKSPACE/26msit001_A/jinhyeok/loop_TTT/lact/.cache_inductor_llm/r5/cr5luztcslpznryaiiyrchdfsp4xwhsay5pm4xgztry5w46qpztt.py":24:35)
#loc10 = loc("/NHNHOME/WORKSPACE/26msit001_A/jinhyeok/loop_TTT/lact/.cache_inductor_llm/r5/cr5luztcslpznryaiiyrchdfsp4xwhsay5pm4xgztry5w46qpztt.py":24:44)
#loc11 = loc("/NHNHOME/WORKSPACE/26msit001_A/jinhyeok/loop_TTT/lact/.cache_inductor_llm/r5/cr5luztcslpznryaiiyrchdfsp4xwhsay5pm4xgztry5w46qpztt.py":25:30)
#loc12 = loc("/NHNHOME/WORKSPACE/26msit001_A/jinhyeok/loop_TTT/lact/.cache_inductor_llm/r5/cr5luztcslpznryaiiyrchdfsp4xwhsay5pm4xgztry5w46qpztt.py":25:35)
#loc13 = loc("/NHNHOME/WORKSPACE/26msit001_A/jinhyeok/loop_TTT/lact/.cache_inductor_llm/r5/cr5luztcslpznryaiiyrchdfsp4xwhsay5pm4xgztry5w46qpztt.py":25:44)
#loc14 = loc("/NHNHOME/WORKSPACE/26msit001_A/jinhyeok/loop_TTT/lact/.cache_inductor_llm/r5/cr5luztcslpznryaiiyrchdfsp4xwhsay5pm4xgztry5w46qpztt.py":26:31)
#loc15 = loc("/NHNHOME/WORKSPACE/26msit001_A/jinhyeok/loop_TTT/lact/.cache_inductor_llm/r5/cr5luztcslpznryaiiyrchdfsp4xwhsay5pm4xgztry5w46qpztt.py":26:36)
#loc16 = loc("/NHNHOME/WORKSPACE/26msit001_A/jinhyeok/loop_TTT/lact/.cache_inductor_llm/r5/cr5luztcslpznryaiiyrchdfsp4xwhsay5pm4xgztry5w46qpztt.py":26:45)
#loc17 = loc("/NHNHOME/WORKSPACE/26msit001_A/jinhyeok/loop_TTT/lact/.cache_inductor_llm/r5/cr5luztcslpznryaiiyrchdfsp4xwhsay5pm4xgztry5w46qpztt.py":27:31)
#loc18 = loc("/NHNHOME/WORKSPACE/26msit001_A/jinhyeok/loop_TTT/lact/.cache_inductor_llm/r5/cr5luztcslpznryaiiyrchdfsp4xwhsay5pm4xgztry5w46qpztt.py":27:36)
#loc19 = loc("/NHNHOME/WORKSPACE/26msit001_A/jinhyeok/loop_TTT/lact/.cache_inductor_llm/r5/cr5luztcslpznryaiiyrchdfsp4xwhsay5pm4xgztry5w46qpztt.py":27:45)
#loc20 = loc("/NHNHOME/WORKSPACE/26msit001_A/jinhyeok/loop_TTT/lact/.cache_inductor_llm/r5/cr5luztcslpznryaiiyrchdfsp4xwhsay5pm4xgztry5w46qpztt.py":28:11)
#loc21 = loc("/NHNHOME/WORKSPACE/26msit001_A/jinhyeok/loop_TTT/lact/.cache_inductor_llm/r5/cr5luztcslpznryaiiyrchdfsp4xwhsay5pm4xgztry5w46qpztt.py":29:18)
#loc22 = loc("/NHNHOME/WORKSPACE/26msit001_A/jinhyeok/loop_TTT/lact/.cache_inductor_llm/r5/cr5luztcslpznryaiiyrchdfsp4xwhsay5pm4xgztry5w46qpztt.py":31:18)
#loc23 = loc("/NHNHOME/WORKSPACE/26msit001_A/jinhyeok/loop_TTT/lact/.cache_inductor_llm/r5/cr5luztcslpznryaiiyrchdfsp4xwhsay5pm4xgztry5w46qpztt.py":32:11)
#loc24 = loc("/NHNHOME/WORKSPACE/26msit001_A/jinhyeok/loop_TTT/lact/.cache_inductor_llm/r5/cr5luztcslpznryaiiyrchdfsp4xwhsay5pm4xgztry5w46qpztt.py":33:18)
#loc25 = loc("/NHNHOME/WORKSPACE/26msit001_A/jinhyeok/loop_TTT/lact/.cache_inductor_llm/r5/cr5luztcslpznryaiiyrchdfsp4xwhsay5pm4xgztry5w46qpztt.py":35:19)
#loc26 = loc("/NHNHOME/WORKSPACE/26msit001_A/jinhyeok/loop_TTT/lact/.cache_inductor_llm/r5/cr5luztcslpznryaiiyrchdfsp4xwhsay5pm4xgztry5w46qpztt.py":36:12)
#loc27 = loc("/NHNHOME/WORKSPACE/26msit001_A/jinhyeok/loop_TTT/lact/.cache_inductor_llm/r5/cr5luztcslpznryaiiyrchdfsp4xwhsay5pm4xgztry5w46qpztt.py":37:20)
#loc28 = loc("/NHNHOME/WORKSPACE/26msit001_A/jinhyeok/loop_TTT/lact/.cache_inductor_llm/r5/cr5luztcslpznryaiiyrchdfsp4xwhsay5pm4xgztry5w46qpztt.py":39:20)
#loc29 = loc("/NHNHOME/WORKSPACE/26msit001_A/jinhyeok/loop_TTT/lact/.cache_inductor_llm/r5/cr5luztcslpznryaiiyrchdfsp4xwhsay5pm4xgztry5w46qpztt.py":40:12)
#loc30 = loc("/NHNHOME/WORKSPACE/26msit001_A/jinhyeok/loop_TTT/lact/.cache_inductor_llm/r5/cr5luztcslpznryaiiyrchdfsp4xwhsay5pm4xgztry5w46qpztt.py":41:20)
#loc31 = loc("/NHNHOME/WORKSPACE/26msit001_A/jinhyeok/loop_TTT/lact/.cache_inductor_llm/r5/cr5luztcslpznryaiiyrchdfsp4xwhsay5pm4xgztry5w46qpztt.py":43:20)
#loc32 = loc("/NHNHOME/WORKSPACE/26msit001_A/jinhyeok/loop_TTT/lact/.cache_inductor_llm/r5/cr5luztcslpznryaiiyrchdfsp4xwhsay5pm4xgztry5w46qpztt.py":45:28)
#loc33 = loc("/NHNHOME/WORKSPACE/26msit001_A/jinhyeok/loop_TTT/lact/.cache_inductor_llm/r5/cr5luztcslpznryaiiyrchdfsp4xwhsay5pm4xgztry5w46qpztt.py":45:40)
#loc34 = loc("/NHNHOME/WORKSPACE/26msit001_A/jinhyeok/loop_TTT/lact/.cache_inductor_llm/r5/cr5luztcslpznryaiiyrchdfsp4xwhsay5pm4xgztry5w46qpztt.py":46:25)
#loc35 = loc("/NHNHOME/WORKSPACE/26msit001_A/jinhyeok/loop_TTT/lact/.cache_inductor_llm/r5/cr5luztcslpznryaiiyrchdfsp4xwhsay5pm4xgztry5w46qpztt.py":46:37)
#loc36 = loc("/NHNHOME/WORKSPACE/26msit001_A/jinhyeok/loop_TTT/lact/.cache_inductor_llm/r5/cr5luztcslpznryaiiyrchdfsp4xwhsay5pm4xgztry5w46qpztt.py":47:25)
#loc37 = loc("/NHNHOME/WORKSPACE/26msit001_A/jinhyeok/loop_TTT/lact/.cache_inductor_llm/r5/cr5luztcslpznryaiiyrchdfsp4xwhsay5pm4xgztry5w46qpztt.py":47:37)
#loc38 = loc("/NHNHOME/WORKSPACE/26msit001_A/jinhyeok/loop_TTT/lact/.cache_inductor_llm/r5/cr5luztcslpznryaiiyrchdfsp4xwhsay5pm4xgztry5w46qpztt.py":47:4)
#loc47 = loc("xoffset"(#loc1))
#loc48 = loc("xoffset"(#loc2))
#loc49 = loc("xindex"(#loc3))
#loc50 = loc("xindex"(#loc4))
#loc51 = loc("xmask"(#loc5))
#loc52 = loc("tmp0"(#loc6))
#loc53 = loc("tmp0"(#loc7))
#loc54 = loc("tmp3"(#loc8))
#loc55 = loc("tmp3"(#loc9))
#loc56 = loc("tmp3"(#loc10))
#loc57 = loc("tmp8"(#loc11))
#loc58 = loc("tmp8"(#loc12))
#loc59 = loc("tmp8"(#loc13))
#loc60 = loc("tmp13"(#loc14))
#loc61 = loc("tmp13"(#loc15))
#loc62 = loc("tmp13"(#loc16))
#loc63 = loc("tmp18"(#loc17))
#loc64 = loc("tmp18"(#loc18))
#loc65 = loc("tmp18"(#loc19))
#loc66 = loc("tmp1"(#loc20))
#loc67 = loc("tmp2"(#loc21))
#loc68 = loc("tmp5"(#loc22))
#loc69 = loc("tmp6"(#loc23))
#loc70 = loc("tmp7"(#loc24))
#loc71 = loc("tmp10"(#loc25))
#loc72 = loc("tmp11"(#loc26))
#loc73 = loc("tmp12"(#loc27))
#loc74 = loc("tmp15"(#loc28))
#loc75 = loc("tmp16"(#loc29))
#loc76 = loc("tmp17"(#loc30))
#loc77 = loc("tmp20"(#loc31))
