#loc = loc("/NHNHOME/WORKSPACE/26msit001_A/jinhyeok/loop_TTT/lact/.cache_inductor_llm/r3/cr3dte3fgimn5b3jiguypgynen3tfwqelo7r7wznap3zixri3bgp.py":18:0)
#loc30 = loc("in_ptr0"(#loc))
#loc31 = loc("in_ptr1"(#loc))
#loc32 = loc("in_ptr2"(#loc))
#loc33 = loc("out_ptr0"(#loc))
#loc34 = loc("out_ptr1"(#loc))
#loc35 = loc("out_ptr2"(#loc))
#loc36 = loc("xnumel"(#loc))
module {
  tt.func public @triton_poi_fused__to_copy_mul_slice_transpose_0(%in_ptr0: !tt.ptr<f32> {tt.divisibility = 16 : i32} loc("in_ptr0"(#loc)), %in_ptr1: !tt.ptr<f32> {tt.divisibility = 16 : i32} loc("in_ptr1"(#loc)), %in_ptr2: !tt.ptr<f32> loc("in_ptr2"(#loc)), %out_ptr0: !tt.ptr<bf16> {tt.divisibility = 16 : i32} loc("out_ptr0"(#loc)), %out_ptr1: !tt.ptr<bf16> {tt.divisibility = 16 : i32} loc("out_ptr1"(#loc)), %out_ptr2: !tt.ptr<bf16> {tt.divisibility = 16 : i32} loc("out_ptr2"(#loc)), %xnumel: i32 {tt.divisibility = 16 : i32} loc("xnumel"(#loc))) attributes {noinline = false} {
    %cst = arith.constant dense<12288> : tensor<1024xi32> loc(#loc1)
    %cst_0 = arith.constant dense<3> : tensor<1024xi32> loc(#loc1)
    %tmp0 = arith.constant dense<786432> : tensor<1024xi32> loc(#loc37)
    %x3 = arith.constant dense<1024> : tensor<1024xi32> loc(#loc38)
    %x3_1 = arith.constant dense<192> : tensor<1024xi32> loc(#loc39)
    %cst_2 = arith.constant dense<196608> : tensor<1024xi32> loc(#loc1)
    %c1024_i32 = arith.constant 1024 : i32 loc(#loc1)
    %xoffset = tt.get_program_id x : i32 loc(#loc40)
    %xoffset_3 = arith.muli %xoffset, %c1024_i32 : i32 loc(#loc41)
    %xindex = tt.make_range {end = 1024 : i32, start = 0 : i32} : tensor<1024xi32> loc(#loc42)
    %xindex_4 = tt.splat %xoffset_3 : i32 -> tensor<1024xi32> loc(#loc43)
    %xindex_5 = arith.addi %xindex_4, %xindex : tensor<1024xi32> loc(#loc43)
    %x0 = arith.remsi %xindex_5, %cst_2 : tensor<1024xi32> loc(#loc44)
    %x1 = arith.divsi %xindex_5, %cst_2 : tensor<1024xi32> loc(#loc45)
    %x3_6 = arith.divsi %xindex_5, %x3_1 : tensor<1024xi32> loc(#loc39)
    %x3_7 = arith.remsi %x3_6, %x3 : tensor<1024xi32> loc(#loc38)
    %tmp0_8 = arith.muli %x1, %tmp0 : tensor<1024xi32> loc(#loc37)
    %tmp0_9 = arith.addi %x0, %tmp0_8 : tensor<1024xi32> loc(#loc46)
    %tmp0_10 = tt.splat %in_ptr0 : !tt.ptr<f32> -> tensor<1024x!tt.ptr<f32>> loc(#loc47)
    %tmp0_11 = tt.addptr %tmp0_10, %tmp0_9 : tensor<1024x!tt.ptr<f32>>, tensor<1024xi32> loc(#loc47)
    %tmp0_12 = tt.load %tmp0_11 : tensor<1024x!tt.ptr<f32>> loc(#loc48)
    %tmp2 = arith.muli %x3_7, %cst_0 : tensor<1024xi32> loc(#loc49)
    %tmp2_13 = arith.muli %x1, %cst : tensor<1024xi32> loc(#loc50)
    %tmp2_14 = arith.addi %tmp2, %tmp2_13 : tensor<1024xi32> loc(#loc51)
    %tmp2_15 = tt.splat %in_ptr1 : !tt.ptr<f32> -> tensor<1024x!tt.ptr<f32>> loc(#loc52)
    %tmp2_16 = tt.addptr %tmp2_15, %tmp2_14 : tensor<1024x!tt.ptr<f32>>, tensor<1024xi32> loc(#loc52)
    %tmp2_17 = tt.load %tmp2_16 evictionPolicy = evict_last : tensor<1024x!tt.ptr<f32>> loc(#loc53)
    %tmp5 = tt.splat %in_ptr2 : !tt.ptr<f32> -> tensor<1024x!tt.ptr<f32>> loc(#loc54)
    %tmp5_18 = tt.addptr %tmp5, %tmp2_14 : tensor<1024x!tt.ptr<f32>>, tensor<1024xi32> loc(#loc54)
    %tmp5_19 = tt.load %tmp5_18 evictionPolicy = evict_last : tensor<1024x!tt.ptr<f32>> loc(#loc55)
    %tmp3 = arith.mulf %tmp0_12, %tmp2_17 : tensor<1024xf32> loc(#loc56)
    %tmp6 = arith.mulf %tmp0_12, %tmp5_19 : tensor<1024xf32> loc(#loc57)
    %0 = tt.splat %out_ptr0 : !tt.ptr<bf16> -> tensor<1024x!tt.ptr<bf16>> loc(#loc23)
    %1 = tt.addptr %0, %xindex_5 : tensor<1024x!tt.ptr<bf16>>, tensor<1024xi32> loc(#loc23)
    %2 = arith.truncf %tmp0_12 : tensor<1024xf32> to tensor<1024xbf16> loc(#loc24)
    tt.store %1, %2 : tensor<1024x!tt.ptr<bf16>> loc(#loc24)
    %3 = tt.splat %out_ptr1 : !tt.ptr<bf16> -> tensor<1024x!tt.ptr<bf16>> loc(#loc25)
    %4 = tt.addptr %3, %xindex_5 : tensor<1024x!tt.ptr<bf16>>, tensor<1024xi32> loc(#loc25)
    %5 = arith.truncf %tmp3 : tensor<1024xf32> to tensor<1024xbf16> loc(#loc26)
    tt.store %4, %5 : tensor<1024x!tt.ptr<bf16>> loc(#loc26)
    %6 = tt.splat %out_ptr2 : !tt.ptr<bf16> -> tensor<1024x!tt.ptr<bf16>> loc(#loc27)
    %7 = tt.addptr %6, %xindex_5 : tensor<1024x!tt.ptr<bf16>>, tensor<1024xi32> loc(#loc27)
    %8 = arith.truncf %tmp6 : tensor<1024xf32> to tensor<1024xbf16> loc(#loc28)
    tt.store %7, %8 : tensor<1024x!tt.ptr<bf16>> loc(#loc28)
    tt.return loc(#loc29)
  } loc(#loc)
} loc(#loc)
#loc1 = loc(unknown)
#loc2 = loc("/NHNHOME/WORKSPACE/26msit001_A/jinhyeok/loop_TTT/lact/.cache_inductor_llm/r3/cr3dte3fgimn5b3jiguypgynen3tfwqelo7r7wznap3zixri3bgp.py":27:42)
#loc3 = loc("/NHNHOME/WORKSPACE/26msit001_A/jinhyeok/loop_TTT/lact/.cache_inductor_llm/r3/cr3dte3fgimn5b3jiguypgynen3tfwqelo7r7wznap3zixri3bgp.py":26:28)
#loc4 = loc("/NHNHOME/WORKSPACE/26msit001_A/jinhyeok/loop_TTT/lact/.cache_inductor_llm/r3/cr3dte3fgimn5b3jiguypgynen3tfwqelo7r7wznap3zixri3bgp.py":26:21)
#loc5 = loc("/NHNHOME/WORKSPACE/26msit001_A/jinhyeok/loop_TTT/lact/.cache_inductor_llm/r3/cr3dte3fgimn5b3jiguypgynen3tfwqelo7r7wznap3zixri3bgp.py":20:28)
#loc6 = loc("/NHNHOME/WORKSPACE/26msit001_A/jinhyeok/loop_TTT/lact/.cache_inductor_llm/r3/cr3dte3fgimn5b3jiguypgynen3tfwqelo7r7wznap3zixri3bgp.py":20:33)
#loc7 = loc("/NHNHOME/WORKSPACE/26msit001_A/jinhyeok/loop_TTT/lact/.cache_inductor_llm/r3/cr3dte3fgimn5b3jiguypgynen3tfwqelo7r7wznap3zixri3bgp.py":21:36)
#loc8 = loc("/NHNHOME/WORKSPACE/26msit001_A/jinhyeok/loop_TTT/lact/.cache_inductor_llm/r3/cr3dte3fgimn5b3jiguypgynen3tfwqelo7r7wznap3zixri3bgp.py":21:23)
#loc9 = loc("/NHNHOME/WORKSPACE/26msit001_A/jinhyeok/loop_TTT/lact/.cache_inductor_llm/r3/cr3dte3fgimn5b3jiguypgynen3tfwqelo7r7wznap3zixri3bgp.py":23:19)
#loc10 = loc("/NHNHOME/WORKSPACE/26msit001_A/jinhyeok/loop_TTT/lact/.cache_inductor_llm/r3/cr3dte3fgimn5b3jiguypgynen3tfwqelo7r7wznap3zixri3bgp.py":24:19)
#loc11 = loc("/NHNHOME/WORKSPACE/26msit001_A/jinhyeok/loop_TTT/lact/.cache_inductor_llm/r3/cr3dte3fgimn5b3jiguypgynen3tfwqelo7r7wznap3zixri3bgp.py":27:35)
#loc12 = loc("/NHNHOME/WORKSPACE/26msit001_A/jinhyeok/loop_TTT/lact/.cache_inductor_llm/r3/cr3dte3fgimn5b3jiguypgynen3tfwqelo7r7wznap3zixri3bgp.py":27:30)
#loc13 = loc("/NHNHOME/WORKSPACE/26msit001_A/jinhyeok/loop_TTT/lact/.cache_inductor_llm/r3/cr3dte3fgimn5b3jiguypgynen3tfwqelo7r7wznap3zixri3bgp.py":27:47)
#loc14 = loc("/NHNHOME/WORKSPACE/26msit001_A/jinhyeok/loop_TTT/lact/.cache_inductor_llm/r3/cr3dte3fgimn5b3jiguypgynen3tfwqelo7r7wznap3zixri3bgp.py":28:32)
#loc15 = loc("/NHNHOME/WORKSPACE/26msit001_A/jinhyeok/loop_TTT/lact/.cache_inductor_llm/r3/cr3dte3fgimn5b3jiguypgynen3tfwqelo7r7wznap3zixri3bgp.py":28:43)
#loc16 = loc("/NHNHOME/WORKSPACE/26msit001_A/jinhyeok/loop_TTT/lact/.cache_inductor_llm/r3/cr3dte3fgimn5b3jiguypgynen3tfwqelo7r7wznap3zixri3bgp.py":28:37)
#loc17 = loc("/NHNHOME/WORKSPACE/26msit001_A/jinhyeok/loop_TTT/lact/.cache_inductor_llm/r3/cr3dte3fgimn5b3jiguypgynen3tfwqelo7r7wznap3zixri3bgp.py":28:30)
#loc18 = loc("/NHNHOME/WORKSPACE/26msit001_A/jinhyeok/loop_TTT/lact/.cache_inductor_llm/r3/cr3dte3fgimn5b3jiguypgynen3tfwqelo7r7wznap3zixri3bgp.py":28:48)
#loc19 = loc("/NHNHOME/WORKSPACE/26msit001_A/jinhyeok/loop_TTT/lact/.cache_inductor_llm/r3/cr3dte3fgimn5b3jiguypgynen3tfwqelo7r7wznap3zixri3bgp.py":29:30)
#loc20 = loc("/NHNHOME/WORKSPACE/26msit001_A/jinhyeok/loop_TTT/lact/.cache_inductor_llm/r3/cr3dte3fgimn5b3jiguypgynen3tfwqelo7r7wznap3zixri3bgp.py":29:48)
#loc21 = loc("/NHNHOME/WORKSPACE/26msit001_A/jinhyeok/loop_TTT/lact/.cache_inductor_llm/r3/cr3dte3fgimn5b3jiguypgynen3tfwqelo7r7wznap3zixri3bgp.py":31:18)
#loc22 = loc("/NHNHOME/WORKSPACE/26msit001_A/jinhyeok/loop_TTT/lact/.cache_inductor_llm/r3/cr3dte3fgimn5b3jiguypgynen3tfwqelo7r7wznap3zixri3bgp.py":33:18)
#loc23 = loc("/NHNHOME/WORKSPACE/26msit001_A/jinhyeok/loop_TTT/lact/.cache_inductor_llm/r3/cr3dte3fgimn5b3jiguypgynen3tfwqelo7r7wznap3zixri3bgp.py":35:25)
#loc24 = loc("/NHNHOME/WORKSPACE/26msit001_A/jinhyeok/loop_TTT/lact/.cache_inductor_llm/r3/cr3dte3fgimn5b3jiguypgynen3tfwqelo7r7wznap3zixri3bgp.py":35:36)
#loc25 = loc("/NHNHOME/WORKSPACE/26msit001_A/jinhyeok/loop_TTT/lact/.cache_inductor_llm/r3/cr3dte3fgimn5b3jiguypgynen3tfwqelo7r7wznap3zixri3bgp.py":36:25)
#loc26 = loc("/NHNHOME/WORKSPACE/26msit001_A/jinhyeok/loop_TTT/lact/.cache_inductor_llm/r3/cr3dte3fgimn5b3jiguypgynen3tfwqelo7r7wznap3zixri3bgp.py":36:36)
#loc27 = loc("/NHNHOME/WORKSPACE/26msit001_A/jinhyeok/loop_TTT/lact/.cache_inductor_llm/r3/cr3dte3fgimn5b3jiguypgynen3tfwqelo7r7wznap3zixri3bgp.py":37:25)
#loc28 = loc("/NHNHOME/WORKSPACE/26msit001_A/jinhyeok/loop_TTT/lact/.cache_inductor_llm/r3/cr3dte3fgimn5b3jiguypgynen3tfwqelo7r7wznap3zixri3bgp.py":37:36)
#loc29 = loc("/NHNHOME/WORKSPACE/26msit001_A/jinhyeok/loop_TTT/lact/.cache_inductor_llm/r3/cr3dte3fgimn5b3jiguypgynen3tfwqelo7r7wznap3zixri3bgp.py":37:4)
#loc37 = loc("tmp0"(#loc2))
#loc38 = loc("x3"(#loc3))
#loc39 = loc("x3"(#loc4))
#loc40 = loc("xoffset"(#loc5))
#loc41 = loc("xoffset"(#loc6))
#loc42 = loc("xindex"(#loc7))
#loc43 = loc("xindex"(#loc8))
#loc44 = loc("x0"(#loc9))
#loc45 = loc("x1"(#loc10))
#loc46 = loc("tmp0"(#loc11))
#loc47 = loc("tmp0"(#loc12))
#loc48 = loc("tmp0"(#loc13))
#loc49 = loc("tmp2"(#loc14))
#loc50 = loc("tmp2"(#loc15))
#loc51 = loc("tmp2"(#loc16))
#loc52 = loc("tmp2"(#loc17))
#loc53 = loc("tmp2"(#loc18))
#loc54 = loc("tmp5"(#loc19))
#loc55 = loc("tmp5"(#loc20))
#loc56 = loc("tmp3"(#loc21))
#loc57 = loc("tmp6"(#loc22))
