#loc = loc("/NHNHOME/WORKSPACE/26msit001_A/jinhyeok/loop_TTT/lact/.cache_inductor_llm/6c/c6cnh44a76w7mtp77tecrq5jy3ohri4oqn6hvyptrlhzn2fouj5v.py":18:0)
#loc1 = loc(unknown)
#loc33 = loc("/NHNHOME/WORKSPACE/26msit001_A/jinhyeok/loop_TTT/lact/.cache_inductor_llm/6c/c6cnh44a76w7mtp77tecrq5jy3ohri4oqn6hvyptrlhzn2fouj5v.py":52:25)
#loc36 = loc("/NHNHOME/WORKSPACE/26msit001_A/jinhyeok/loop_TTT/lact/.cache_inductor_llm/6c/c6cnh44a76w7mtp77tecrq5jy3ohri4oqn6hvyptrlhzn2fouj5v.py":53:27)
#loc43 = loc("in_ptr0"(#loc))
#loc44 = loc("in_ptr1"(#loc))
#loc45 = loc("in_ptr2"(#loc))
#loc46 = loc("out_ptr0"(#loc))
#loc47 = loc("out_ptr1"(#loc))
#loc48 = loc("xnumel"(#loc))
#loc49 = loc("r0_numel"(#loc))
#loc80 = loc("tmp5"(#loc33))
#loc82 = loc("tmp11"(#loc36))
#loc85 = loc(callsite(#loc1 at #loc80))
#loc87 = loc(callsite(#loc1 at #loc82))
module {
  tt.func public @triton_red_fused__to_copy_mul_slice_sum_35(%in_ptr0: !tt.ptr<bf16> {tt.divisibility = 16 : i32} loc("in_ptr0"(#loc)), %in_ptr1: !tt.ptr<f32> {tt.divisibility = 16 : i32} loc("in_ptr1"(#loc)), %in_ptr2: !tt.ptr<bf16> {tt.divisibility = 16 : i32} loc("in_ptr2"(#loc)), %out_ptr0: !tt.ptr<f32> {tt.divisibility = 16 : i32} loc("out_ptr0"(#loc)), %out_ptr1: !tt.ptr<f32> {tt.divisibility = 16 : i32} loc("out_ptr1"(#loc)), %xnumel: i32 {tt.divisibility = 16 : i32} loc("xnumel"(#loc)), %r0_numel: i32 {tt.divisibility = 16 : i32} loc("r0_numel"(#loc))) attributes {noinline = false} {
    %cst = arith.constant dense<0.000000e+00> : tensor<8x256xbf16> loc(#loc1)
    %cst_0 = arith.constant dense<786432> : tensor<8x1xi32> loc(#loc1)
    %cst_1 = arith.constant dense<192> : tensor<8x1xi32> loc(#loc1)
    %cst_2 = arith.constant dense<192> : tensor<1x256xi32> loc(#loc1)
    %cst_3 = arith.constant dense<0.000000e+00> : tensor<8x256xf32> loc(#loc1)
    %cst_4 = arith.constant dense<1024> : tensor<8x1xi32> loc(#loc1)
    %c8_i32 = arith.constant 8 : i32 loc(#loc1)
    %xoffset = tt.get_program_id x : i32 loc(#loc50)
    %xoffset_5 = arith.muli %xoffset, %c8_i32 : i32 loc(#loc51)
    %xindex = tt.make_range {end = 8 : i32, start = 0 : i32} : tensor<8xi32> loc(#loc52)
    %xindex_6 = tt.expand_dims %xindex {axis = 1 : i32} : tensor<8xi32> -> tensor<8x1xi32> loc(#loc53)
    %xindex_7 = tt.splat %xoffset_5 : i32 -> tensor<8x1xi32> loc(#loc54)
    %xindex_8 = arith.addi %xindex_7, %xindex_6 : tensor<8x1xi32> loc(#loc54)
    %r0_base = tt.make_range {end = 256 : i32, start = 0 : i32} : tensor<256xi32> loc(#loc55)
    %r0_base_9 = tt.expand_dims %r0_base {axis = 0 : i32} : tensor<256xi32> -> tensor<1x256xi32> loc(#loc56)
    %x0 = arith.remsi %xindex_8, %cst_4 : tensor<8x1xi32> loc(#loc57)
    %x1 = arith.divsi %xindex_8, %cst_4 : tensor<8x1xi32> loc(#loc58)
    %r0_mask = arith.cmpi slt, %r0_base_9, %cst_2 : tensor<1x256xi32> loc(#loc59)
    %tmp0 = arith.muli %xindex_8, %cst_1 : tensor<8x1xi32> loc(#loc60)
    %tmp0_10 = tt.broadcast %r0_base_9 : tensor<1x256xi32> -> tensor<8x256xi32> loc(#loc61)
    %tmp0_11 = tt.broadcast %tmp0 : tensor<8x1xi32> -> tensor<8x256xi32> loc(#loc61)
    %tmp0_12 = arith.addi %tmp0_10, %tmp0_11 : tensor<8x256xi32> loc(#loc61)
    %tmp0_13 = tt.splat %in_ptr0 : !tt.ptr<bf16> -> tensor<8x256x!tt.ptr<bf16>> loc(#loc62)
    %tmp0_14 = tt.addptr %tmp0_13, %tmp0_12 : tensor<8x256x!tt.ptr<bf16>>, tensor<8x256xi32> loc(#loc62)
    %tmp0_15 = tt.broadcast %r0_mask : tensor<1x256xi1> -> tensor<8x256xi1> loc(#loc63)
    %tmp0_16 = tt.load %tmp0_14, %tmp0_15, %cst evictionPolicy = evict_first : tensor<8x256x!tt.ptr<bf16>> loc(#loc63)
    %tmp0_17 = arith.extf %tmp0_16 : tensor<8x256xbf16> to tensor<8x256xf32> loc(#loc64)
    %tmp2 = arith.muli %x0, %cst_1 : tensor<8x1xi32> loc(#loc65)
    %tmp2_18 = tt.broadcast %tmp2 : tensor<8x1xi32> -> tensor<8x256xi32> loc(#loc66)
    %tmp2_19 = arith.addi %tmp0_10, %tmp2_18 : tensor<8x256xi32> loc(#loc66)
    %tmp2_20 = arith.muli %x1, %cst_0 : tensor<8x1xi32> loc(#loc67)
    %tmp2_21 = tt.broadcast %tmp2_20 : tensor<8x1xi32> -> tensor<8x256xi32> loc(#loc68)
    %tmp2_22 = arith.addi %tmp2_19, %tmp2_21 : tensor<8x256xi32> loc(#loc68)
    %tmp2_23 = tt.splat %in_ptr1 : !tt.ptr<f32> -> tensor<8x256x!tt.ptr<f32>> loc(#loc69)
    %tmp2_24 = tt.addptr %tmp2_23, %tmp2_22 : tensor<8x256x!tt.ptr<f32>>, tensor<8x256xi32> loc(#loc69)
    %tmp2_25 = tt.load %tmp2_24, %tmp0_15, %cst_3 evictionPolicy = evict_first : tensor<8x256x!tt.ptr<f32>> loc(#loc70)
    %tmp7 = tt.splat %in_ptr2 : !tt.ptr<bf16> -> tensor<8x256x!tt.ptr<bf16>> loc(#loc71)
    %tmp7_26 = tt.addptr %tmp7, %tmp0_12 : tensor<8x256x!tt.ptr<bf16>>, tensor<8x256xi32> loc(#loc71)
    %tmp7_27 = tt.load %tmp7_26, %tmp0_15, %cst evictionPolicy = evict_first : tensor<8x256x!tt.ptr<bf16>> loc(#loc72)
    %tmp7_28 = arith.extf %tmp7_27 : tensor<8x256xbf16> to tensor<8x256xf32> loc(#loc73)
    %tmp3 = arith.mulf %tmp0_17, %tmp2_25 : tensor<8x256xf32> loc(#loc74)
    %tmp6 = arith.addf %tmp3, %cst_3 : tensor<8x256xf32> loc(#loc75)
    %_tmp5 = arith.select %tmp0_15, %tmp6, %cst_3 : tensor<8x256xi1>, tensor<8x256xf32> loc(#loc76)
    %tmp9 = arith.mulf %tmp7_28, %tmp2_25 : tensor<8x256xf32> loc(#loc77)
    %tmp12 = arith.addf %tmp9, %cst_3 : tensor<8x256xf32> loc(#loc78)
    %_tmp11 = arith.select %tmp0_15, %tmp12, %cst_3 : tensor<8x256xi1>, tensor<8x256xf32> loc(#loc79)
    %tmp5 = "tt.reduce"(%_tmp5) <{axis = 1 : i32}> ({
    ^bb0(%tmp5_31: f32 loc(callsite(#loc1 at #loc80)), %tmp5_32: f32 loc(callsite(#loc1 at #loc80))):
      %tmp5_33 = arith.addf %tmp5_31, %tmp5_32 : f32 loc(#loc88)
      tt.reduce.return %tmp5_33 : f32 loc(#loc84)
    }) : (tensor<8x256xf32>) -> tensor<8xf32> loc(#loc84)
    %tmp5_29 = tt.expand_dims %tmp5 {axis = 1 : i32} : tensor<8xf32> -> tensor<8x1xf32> loc(#loc81)
    %tmp11 = "tt.reduce"(%_tmp11) <{axis = 1 : i32}> ({
    ^bb0(%tmp11_31: f32 loc(callsite(#loc1 at #loc82)), %tmp11_32: f32 loc(callsite(#loc1 at #loc82))):
      %tmp11_33 = arith.addf %tmp11_31, %tmp11_32 : f32 loc(#loc89)
      tt.reduce.return %tmp11_33 : f32 loc(#loc86)
    }) : (tensor<8x256xf32>) -> tensor<8xf32> loc(#loc86)
    %tmp11_30 = tt.expand_dims %tmp11 {axis = 1 : i32} : tensor<8xf32> -> tensor<8x1xf32> loc(#loc83)
    %0 = tt.splat %out_ptr0 : !tt.ptr<f32> -> tensor<8x1x!tt.ptr<f32>> loc(#loc38)
    %1 = tt.addptr %0, %xindex_8 : tensor<8x1x!tt.ptr<f32>>, tensor<8x1xi32> loc(#loc38)
    tt.store %1, %tmp5_29 : tensor<8x1x!tt.ptr<f32>> loc(#loc39)
    %2 = tt.splat %out_ptr1 : !tt.ptr<f32> -> tensor<8x1x!tt.ptr<f32>> loc(#loc40)
    %3 = tt.addptr %2, %xindex_8 : tensor<8x1x!tt.ptr<f32>>, tensor<8x1xi32> loc(#loc40)
    tt.store %3, %tmp11_30 : tensor<8x1x!tt.ptr<f32>> loc(#loc41)
    tt.return loc(#loc42)
  } loc(#loc)
} loc(#loc)
#loc2 = loc("/NHNHOME/WORKSPACE/26msit001_A/jinhyeok/loop_TTT/lact/.cache_inductor_llm/6c/c6cnh44a76w7mtp77tecrq5jy3ohri4oqn6hvyptrlhzn2fouj5v.py":23:28)
#loc3 = loc("/NHNHOME/WORKSPACE/26msit001_A/jinhyeok/loop_TTT/lact/.cache_inductor_llm/6c/c6cnh44a76w7mtp77tecrq5jy3ohri4oqn6hvyptrlhzn2fouj5v.py":23:33)
#loc4 = loc("/NHNHOME/WORKSPACE/26msit001_A/jinhyeok/loop_TTT/lact/.cache_inductor_llm/6c/c6cnh44a76w7mtp77tecrq5jy3ohri4oqn6hvyptrlhzn2fouj5v.py":24:36)
#loc5 = loc("/NHNHOME/WORKSPACE/26msit001_A/jinhyeok/loop_TTT/lact/.cache_inductor_llm/6c/c6cnh44a76w7mtp77tecrq5jy3ohri4oqn6hvyptrlhzn2fouj5v.py":24:44)
#loc6 = loc("/NHNHOME/WORKSPACE/26msit001_A/jinhyeok/loop_TTT/lact/.cache_inductor_llm/6c/c6cnh44a76w7mtp77tecrq5jy3ohri4oqn6hvyptrlhzn2fouj5v.py":24:23)
#loc7 = loc("/NHNHOME/WORKSPACE/26msit001_A/jinhyeok/loop_TTT/lact/.cache_inductor_llm/6c/c6cnh44a76w7mtp77tecrq5jy3ohri4oqn6hvyptrlhzn2fouj5v.py":26:27)
#loc8 = loc("/NHNHOME/WORKSPACE/26msit001_A/jinhyeok/loop_TTT/lact/.cache_inductor_llm/6c/c6cnh44a76w7mtp77tecrq5jy3ohri4oqn6hvyptrlhzn2fouj5v.py":26:37)
#loc9 = loc("/NHNHOME/WORKSPACE/26msit001_A/jinhyeok/loop_TTT/lact/.cache_inductor_llm/6c/c6cnh44a76w7mtp77tecrq5jy3ohri4oqn6hvyptrlhzn2fouj5v.py":29:19)
#loc10 = loc("/NHNHOME/WORKSPACE/26msit001_A/jinhyeok/loop_TTT/lact/.cache_inductor_llm/6c/c6cnh44a76w7mtp77tecrq5jy3ohri4oqn6hvyptrlhzn2fouj5v.py":30:19)
#loc11 = loc("/NHNHOME/WORKSPACE/26msit001_A/jinhyeok/loop_TTT/lact/.cache_inductor_llm/6c/c6cnh44a76w7mtp77tecrq5jy3ohri4oqn6hvyptrlhzn2fouj5v.py":35:29)
#loc12 = loc("/NHNHOME/WORKSPACE/26msit001_A/jinhyeok/loop_TTT/lact/.cache_inductor_llm/6c/c6cnh44a76w7mtp77tecrq5jy3ohri4oqn6hvyptrlhzn2fouj5v.py":39:45)
#loc13 = loc("/NHNHOME/WORKSPACE/26msit001_A/jinhyeok/loop_TTT/lact/.cache_inductor_llm/6c/c6cnh44a76w7mtp77tecrq5jy3ohri4oqn6hvyptrlhzn2fouj5v.py":39:41)
#loc14 = loc("/NHNHOME/WORKSPACE/26msit001_A/jinhyeok/loop_TTT/lact/.cache_inductor_llm/6c/c6cnh44a76w7mtp77tecrq5jy3ohri4oqn6hvyptrlhzn2fouj5v.py":39:34)
#loc15 = loc("/NHNHOME/WORKSPACE/26msit001_A/jinhyeok/loop_TTT/lact/.cache_inductor_llm/6c/c6cnh44a76w7mtp77tecrq5jy3ohri4oqn6hvyptrlhzn2fouj5v.py":39:50)
#loc16 = loc("/NHNHOME/WORKSPACE/26msit001_A/jinhyeok/loop_TTT/lact/.cache_inductor_llm/6c/c6cnh44a76w7mtp77tecrq5jy3ohri4oqn6hvyptrlhzn2fouj5v.py":39:104)
#loc17 = loc("/NHNHOME/WORKSPACE/26msit001_A/jinhyeok/loop_TTT/lact/.cache_inductor_llm/6c/c6cnh44a76w7mtp77tecrq5jy3ohri4oqn6hvyptrlhzn2fouj5v.py":40:45)
#loc18 = loc("/NHNHOME/WORKSPACE/26msit001_A/jinhyeok/loop_TTT/lact/.cache_inductor_llm/6c/c6cnh44a76w7mtp77tecrq5jy3ohri4oqn6hvyptrlhzn2fouj5v.py":40:41)
#loc19 = loc("/NHNHOME/WORKSPACE/26msit001_A/jinhyeok/loop_TTT/lact/.cache_inductor_llm/6c/c6cnh44a76w7mtp77tecrq5jy3ohri4oqn6hvyptrlhzn2fouj5v.py":40:57)
#loc20 = loc("/NHNHOME/WORKSPACE/26msit001_A/jinhyeok/loop_TTT/lact/.cache_inductor_llm/6c/c6cnh44a76w7mtp77tecrq5jy3ohri4oqn6hvyptrlhzn2fouj5v.py":40:50)
#loc21 = loc("/NHNHOME/WORKSPACE/26msit001_A/jinhyeok/loop_TTT/lact/.cache_inductor_llm/6c/c6cnh44a76w7mtp77tecrq5jy3ohri4oqn6hvyptrlhzn2fouj5v.py":40:34)
#loc22 = loc("/NHNHOME/WORKSPACE/26msit001_A/jinhyeok/loop_TTT/lact/.cache_inductor_llm/6c/c6cnh44a76w7mtp77tecrq5jy3ohri4oqn6hvyptrlhzn2fouj5v.py":40:62)
#loc23 = loc("/NHNHOME/WORKSPACE/26msit001_A/jinhyeok/loop_TTT/lact/.cache_inductor_llm/6c/c6cnh44a76w7mtp77tecrq5jy3ohri4oqn6hvyptrlhzn2fouj5v.py":41:34)
#loc24 = loc("/NHNHOME/WORKSPACE/26msit001_A/jinhyeok/loop_TTT/lact/.cache_inductor_llm/6c/c6cnh44a76w7mtp77tecrq5jy3ohri4oqn6hvyptrlhzn2fouj5v.py":41:50)
#loc25 = loc("/NHNHOME/WORKSPACE/26msit001_A/jinhyeok/loop_TTT/lact/.cache_inductor_llm/6c/c6cnh44a76w7mtp77tecrq5jy3ohri4oqn6hvyptrlhzn2fouj5v.py":41:104)
#loc26 = loc("/NHNHOME/WORKSPACE/26msit001_A/jinhyeok/loop_TTT/lact/.cache_inductor_llm/6c/c6cnh44a76w7mtp77tecrq5jy3ohri4oqn6hvyptrlhzn2fouj5v.py":43:22)
#loc27 = loc("/NHNHOME/WORKSPACE/26msit001_A/jinhyeok/loop_TTT/lact/.cache_inductor_llm/6c/c6cnh44a76w7mtp77tecrq5jy3ohri4oqn6hvyptrlhzn2fouj5v.py":45:23)
#loc28 = loc("/NHNHOME/WORKSPACE/26msit001_A/jinhyeok/loop_TTT/lact/.cache_inductor_llm/6c/c6cnh44a76w7mtp77tecrq5jy3ohri4oqn6hvyptrlhzn2fouj5v.py":46:40)
#loc29 = loc("/NHNHOME/WORKSPACE/26msit001_A/jinhyeok/loop_TTT/lact/.cache_inductor_llm/6c/c6cnh44a76w7mtp77tecrq5jy3ohri4oqn6hvyptrlhzn2fouj5v.py":48:22)
#loc30 = loc("/NHNHOME/WORKSPACE/26msit001_A/jinhyeok/loop_TTT/lact/.cache_inductor_llm/6c/c6cnh44a76w7mtp77tecrq5jy3ohri4oqn6hvyptrlhzn2fouj5v.py":50:25)
#loc31 = loc("/NHNHOME/WORKSPACE/26msit001_A/jinhyeok/loop_TTT/lact/.cache_inductor_llm/6c/c6cnh44a76w7mtp77tecrq5jy3ohri4oqn6hvyptrlhzn2fouj5v.py":51:42)
#loc32 = loc("/NHNHOME/WORKSPACE/26msit001_A/jinhyeok/TTT_camera_embedding/.venv_llm/lib/python3.12/site-packages/triton/language/standard.py":291:36)
#loc34 = loc("/NHNHOME/WORKSPACE/26msit001_A/jinhyeok/TTT_camera_embedding/.venv_llm/lib/python3.12/site-packages/triton/language/standard.py":261:15)
#loc35 = loc("/NHNHOME/WORKSPACE/26msit001_A/jinhyeok/loop_TTT/lact/.cache_inductor_llm/6c/c6cnh44a76w7mtp77tecrq5jy3ohri4oqn6hvyptrlhzn2fouj5v.py":52:28)
#loc37 = loc("/NHNHOME/WORKSPACE/26msit001_A/jinhyeok/loop_TTT/lact/.cache_inductor_llm/6c/c6cnh44a76w7mtp77tecrq5jy3ohri4oqn6hvyptrlhzn2fouj5v.py":53:30)
#loc38 = loc("/NHNHOME/WORKSPACE/26msit001_A/jinhyeok/loop_TTT/lact/.cache_inductor_llm/6c/c6cnh44a76w7mtp77tecrq5jy3ohri4oqn6hvyptrlhzn2fouj5v.py":54:25)
#loc39 = loc("/NHNHOME/WORKSPACE/26msit001_A/jinhyeok/loop_TTT/lact/.cache_inductor_llm/6c/c6cnh44a76w7mtp77tecrq5jy3ohri4oqn6hvyptrlhzn2fouj5v.py":54:36)
#loc40 = loc("/NHNHOME/WORKSPACE/26msit001_A/jinhyeok/loop_TTT/lact/.cache_inductor_llm/6c/c6cnh44a76w7mtp77tecrq5jy3ohri4oqn6hvyptrlhzn2fouj5v.py":55:25)
#loc41 = loc("/NHNHOME/WORKSPACE/26msit001_A/jinhyeok/loop_TTT/lact/.cache_inductor_llm/6c/c6cnh44a76w7mtp77tecrq5jy3ohri4oqn6hvyptrlhzn2fouj5v.py":55:37)
#loc42 = loc("/NHNHOME/WORKSPACE/26msit001_A/jinhyeok/loop_TTT/lact/.cache_inductor_llm/6c/c6cnh44a76w7mtp77tecrq5jy3ohri4oqn6hvyptrlhzn2fouj5v.py":55:4)
#loc50 = loc("xoffset"(#loc2))
#loc51 = loc("xoffset"(#loc3))
#loc52 = loc("xindex"(#loc4))
#loc53 = loc("xindex"(#loc5))
#loc54 = loc("xindex"(#loc6))
#loc55 = loc("r0_base"(#loc7))
#loc56 = loc("r0_base"(#loc8))
#loc57 = loc("x0"(#loc9))
#loc58 = loc("x1"(#loc10))
#loc59 = loc("r0_mask"(#loc11))
#loc60 = loc("tmp0"(#loc12))
#loc61 = loc("tmp0"(#loc13))
#loc62 = loc("tmp0"(#loc14))
#loc63 = loc("tmp0"(#loc15))
#loc64 = loc("tmp0"(#loc16))
#loc65 = loc("tmp2"(#loc17))
#loc66 = loc("tmp2"(#loc18))
#loc67 = loc("tmp2"(#loc19))
#loc68 = loc("tmp2"(#loc20))
#loc69 = loc("tmp2"(#loc21))
#loc70 = loc("tmp2"(#loc22))
#loc71 = loc("tmp7"(#loc23))
#loc72 = loc("tmp7"(#loc24))
#loc73 = loc("tmp7"(#loc25))
#loc74 = loc("tmp3"(#loc26))
#loc75 = loc("tmp6"(#loc27))
#loc76 = loc("_tmp5"(#loc28))
#loc77 = loc("tmp9"(#loc29))
#loc78 = loc("tmp12"(#loc30))
#loc79 = loc("_tmp11"(#loc31))
#loc81 = loc("tmp5"(#loc35))
#loc83 = loc("tmp11"(#loc37))
#loc84 = loc(callsite(#loc32 at #loc80))
#loc86 = loc(callsite(#loc32 at #loc82))
#loc88 = loc(callsite(#loc34 at #loc84))
#loc89 = loc(callsite(#loc34 at #loc86))
