#loc = loc("/NHNHOME/WORKSPACE/26msit001_A/jinhyeok/loop_TTT/lact/.cache_inductor_llm/ie/cietuhj5jkjvx7ygwvr4pcw4kde67pfdphjmfjad7hzvtlx37tis.py":18:0)
#loc21 = loc("in_out_ptr0"(#loc))
#loc22 = loc("in_ptr0"(#loc))
#loc23 = loc("xnumel"(#loc))
module {
  tt.func public @triton_poi_fused_mul_silu_23(%in_out_ptr0: !tt.ptr<bf16> {tt.divisibility = 16 : i32} loc("in_out_ptr0"(#loc)), %in_ptr0: !tt.ptr<bf16> {tt.divisibility = 16 : i32} loc("in_ptr0"(#loc)), %xnumel: i32 {tt.divisibility = 16 : i32} loc("xnumel"(#loc))) attributes {noinline = false} {
    %tmp2 = arith.constant dense<0.000000e+00> : tensor<1024xf32> loc(#loc37)
    %tmp2_0 = arith.constant dense<1.000000e+00> : tensor<1024xf32> loc(#loc38)
    %c1024_i32 = arith.constant 1024 : i32 loc(#loc3)
    %xoffset = tt.get_program_id x : i32 loc(#loc25)
    %xoffset_1 = arith.muli %xoffset, %c1024_i32 : i32 loc(#loc26)
    %xindex = tt.make_range {end = 1024 : i32, start = 0 : i32} : tensor<1024xi32> loc(#loc27)
    %xindex_2 = tt.splat %xoffset_1 : i32 -> tensor<1024xi32> loc(#loc28)
    %xindex_3 = arith.addi %xindex_2, %xindex : tensor<1024xi32> loc(#loc28)
    %tmp0 = tt.splat %in_out_ptr0 : !tt.ptr<bf16> -> tensor<1024x!tt.ptr<bf16>> loc(#loc29)
    %tmp0_4 = tt.addptr %tmp0, %xindex_3 : tensor<1024x!tt.ptr<bf16>>, tensor<1024xi32> loc(#loc29)
    %tmp0_5 = tt.load %tmp0_4 : tensor<1024x!tt.ptr<bf16>> loc(#loc30)
    %tmp0_6 = arith.extf %tmp0_5 : tensor<1024xbf16> to tensor<1024xf32> loc(#loc31)
    %tmp5 = tt.splat %in_ptr0 : !tt.ptr<bf16> -> tensor<1024x!tt.ptr<bf16>> loc(#loc32)
    %tmp5_7 = tt.addptr %tmp5, %xindex_3 : tensor<1024x!tt.ptr<bf16>>, tensor<1024xi32> loc(#loc32)
    %tmp5_8 = tt.load %tmp5_7 : tensor<1024x!tt.ptr<bf16>> loc(#loc33)
    %tmp5_9 = arith.extf %tmp5_8 : tensor<1024xbf16> to tensor<1024xf32> loc(#loc34)
    %tmp2_10 = arith.subf %tmp2, %tmp0_6 : tensor<1024xf32> loc(#loc37)
    %tmp2_11 = math.exp %tmp2_10 : tensor<1024xf32> loc(#loc39)
    %tmp2_12 = arith.addf %tmp2_11, %tmp2_0 : tensor<1024xf32> loc(#loc40)
    %tmp2_13 = arith.divf %tmp2_0, %tmp2_12 : tensor<1024xf32> loc(#loc41)
    %tmp3 = arith.mulf %tmp0_6, %tmp2_13 : tensor<1024xf32> loc(#loc35)
    %tmp6 = arith.mulf %tmp3, %tmp5_9 : tensor<1024xf32> loc(#loc36)
    %0 = arith.truncf %tmp6 : tensor<1024xf32> to tensor<1024xbf16> loc(#loc19)
    tt.store %tmp0_4, %0 : tensor<1024x!tt.ptr<bf16>> loc(#loc19)
    tt.return loc(#loc20)
  } loc(#loc)
} loc(#loc)
#loc1 = loc("/NHNHOME/WORKSPACE/26msit001_A/jinhyeok/TTT_camera_embedding/.venv_llm/lib/python3.12/site-packages/triton/language/standard.py":48:30)
#loc2 = loc("/NHNHOME/WORKSPACE/26msit001_A/jinhyeok/loop_TTT/lact/.cache_inductor_llm/ie/cietuhj5jkjvx7ygwvr4pcw4kde67pfdphjmfjad7hzvtlx37tis.py":27:22)
#loc3 = loc(unknown)
#loc4 = loc("/NHNHOME/WORKSPACE/26msit001_A/jinhyeok/loop_TTT/lact/.cache_inductor_llm/ie/cietuhj5jkjvx7ygwvr4pcw4kde67pfdphjmfjad7hzvtlx37tis.py":20:28)
#loc5 = loc("/NHNHOME/WORKSPACE/26msit001_A/jinhyeok/loop_TTT/lact/.cache_inductor_llm/ie/cietuhj5jkjvx7ygwvr4pcw4kde67pfdphjmfjad7hzvtlx37tis.py":20:33)
#loc6 = loc("/NHNHOME/WORKSPACE/26msit001_A/jinhyeok/loop_TTT/lact/.cache_inductor_llm/ie/cietuhj5jkjvx7ygwvr4pcw4kde67pfdphjmfjad7hzvtlx37tis.py":21:36)
#loc7 = loc("/NHNHOME/WORKSPACE/26msit001_A/jinhyeok/loop_TTT/lact/.cache_inductor_llm/ie/cietuhj5jkjvx7ygwvr4pcw4kde67pfdphjmfjad7hzvtlx37tis.py":21:23)
#loc8 = loc("/NHNHOME/WORKSPACE/26msit001_A/jinhyeok/loop_TTT/lact/.cache_inductor_llm/ie/cietuhj5jkjvx7ygwvr4pcw4kde67pfdphjmfjad7hzvtlx37tis.py":24:34)
#loc9 = loc("/NHNHOME/WORKSPACE/26msit001_A/jinhyeok/loop_TTT/lact/.cache_inductor_llm/ie/cietuhj5jkjvx7ygwvr4pcw4kde67pfdphjmfjad7hzvtlx37tis.py":24:39)
#loc10 = loc("/NHNHOME/WORKSPACE/26msit001_A/jinhyeok/loop_TTT/lact/.cache_inductor_llm/ie/cietuhj5jkjvx7ygwvr4pcw4kde67pfdphjmfjad7hzvtlx37tis.py":24:48)
#loc11 = loc("/NHNHOME/WORKSPACE/26msit001_A/jinhyeok/loop_TTT/lact/.cache_inductor_llm/ie/cietuhj5jkjvx7ygwvr4pcw4kde67pfdphjmfjad7hzvtlx37tis.py":25:30)
#loc12 = loc("/NHNHOME/WORKSPACE/26msit001_A/jinhyeok/loop_TTT/lact/.cache_inductor_llm/ie/cietuhj5jkjvx7ygwvr4pcw4kde67pfdphjmfjad7hzvtlx37tis.py":25:35)
#loc13 = loc("/NHNHOME/WORKSPACE/26msit001_A/jinhyeok/loop_TTT/lact/.cache_inductor_llm/ie/cietuhj5jkjvx7ygwvr4pcw4kde67pfdphjmfjad7hzvtlx37tis.py":25:44)
#loc14 = loc("/NHNHOME/WORKSPACE/26msit001_A/jinhyeok/TTT_camera_embedding/.venv_llm/lib/python3.12/site-packages/triton/language/standard.py":48:29)
#loc15 = loc("/NHNHOME/WORKSPACE/26msit001_A/jinhyeok/TTT_camera_embedding/.venv_llm/lib/python3.12/site-packages/triton/language/standard.py":48:20)
#loc16 = loc("/NHNHOME/WORKSPACE/26msit001_A/jinhyeok/TTT_camera_embedding/.venv_llm/lib/python3.12/site-packages/triton/language/standard.py":48:16)
#loc17 = loc("/NHNHOME/WORKSPACE/26msit001_A/jinhyeok/loop_TTT/lact/.cache_inductor_llm/ie/cietuhj5jkjvx7ygwvr4pcw4kde67pfdphjmfjad7hzvtlx37tis.py":28:18)
#loc18 = loc("/NHNHOME/WORKSPACE/26msit001_A/jinhyeok/loop_TTT/lact/.cache_inductor_llm/ie/cietuhj5jkjvx7ygwvr4pcw4kde67pfdphjmfjad7hzvtlx37tis.py":30:18)
#loc19 = loc("/NHNHOME/WORKSPACE/26msit001_A/jinhyeok/loop_TTT/lact/.cache_inductor_llm/ie/cietuhj5jkjvx7ygwvr4pcw4kde67pfdphjmfjad7hzvtlx37tis.py":31:39)
#loc20 = loc("/NHNHOME/WORKSPACE/26msit001_A/jinhyeok/loop_TTT/lact/.cache_inductor_llm/ie/cietuhj5jkjvx7ygwvr4pcw4kde67pfdphjmfjad7hzvtlx37tis.py":31:4)
#loc24 = loc("tmp2"(#loc2))
#loc25 = loc("xoffset"(#loc4))
#loc26 = loc("xoffset"(#loc5))
#loc27 = loc("xindex"(#loc6))
#loc28 = loc("xindex"(#loc7))
#loc29 = loc("tmp0"(#loc8))
#loc30 = loc("tmp0"(#loc9))
#loc31 = loc("tmp0"(#loc10))
#loc32 = loc("tmp5"(#loc11))
#loc33 = loc("tmp5"(#loc12))
#loc34 = loc("tmp5"(#loc13))
#loc35 = loc("tmp3"(#loc17))
#loc36 = loc("tmp6"(#loc18))
#loc37 = loc(callsite(#loc1 at #loc24))
#loc38 = loc(callsite(#loc3 at #loc24))
#loc39 = loc(callsite(#loc14 at #loc24))
#loc40 = loc(callsite(#loc15 at #loc24))
#loc41 = loc(callsite(#loc16 at #loc24))
