#loc = loc("/NHNHOME/WORKSPACE/26msit001_A/jinhyeok/TTT_camera_embedding/lact_llm/.cache_inductor/l2/cl2bumxh66fbjouioicd5htlbvgwhr6eypyq2nod4ftrb4fm2njt.py":18:0)
#loc1 = loc(unknown)
#loc18 = loc("/NHNHOME/WORKSPACE/26msit001_A/jinhyeok/TTT_camera_embedding/lact_llm/.cache_inductor/l2/cl2bumxh66fbjouioicd5htlbvgwhr6eypyq2nod4ftrb4fm2njt.py":37:24)
#loc24 = loc("in_ptr0"(#loc))
#loc25 = loc("out_ptr0"(#loc))
#loc26 = loc("xnumel"(#loc))
#loc27 = loc("r0_numel"(#loc))
#loc43 = loc("tmp4"(#loc18))
#loc46 = loc(callsite(#loc1 at #loc43))
module {
  tt.func public @triton_per_fused__to_copy_linalg_vector_norm_1(%in_ptr0: !tt.ptr<f32> {tt.divisibility = 16 : i32} loc("in_ptr0"(#loc)), %out_ptr0: !tt.ptr<f32> {tt.divisibility = 16 : i32} loc("out_ptr0"(#loc)), %xnumel: i32 {tt.divisibility = 16 : i32} loc("xnumel"(#loc)), %r0_numel: i32 loc("r0_numel"(#loc))) attributes {noinline = false} {
    %cst = arith.constant dense<0.000000e+00> : tensor<32x8xf32> loc(#loc1)
    %tmp0 = arith.constant dense<5> : tensor<32x1xi32> loc(#loc28)
    %r0_mask = arith.constant dense<5> : tensor<1x8xi32> loc(#loc29)
    %xmask = arith.constant dense<32> : tensor<32x1xi32> loc(#loc30)
    %c32_i32 = arith.constant 32 : i32 loc(#loc1)
    %xoffset = tt.get_program_id x : i32 loc(#loc31)
    %xoffset_0 = arith.muli %xoffset, %c32_i32 : i32 loc(#loc32)
    %xindex = tt.make_range {end = 32 : i32, start = 0 : i32} : tensor<32xi32> loc(#loc33)
    %xindex_1 = tt.expand_dims %xindex {axis = 1 : i32} : tensor<32xi32> -> tensor<32x1xi32> loc(#loc34)
    %xindex_2 = tt.splat %xoffset_0 : i32 -> tensor<32x1xi32> loc(#loc35)
    %xindex_3 = arith.addi %xindex_2, %xindex_1 : tensor<32x1xi32> loc(#loc35)
    %xmask_4 = arith.cmpi slt, %xindex_3, %xmask : tensor<32x1xi32> loc(#loc30)
    %r0_index = tt.make_range {end = 8 : i32, start = 0 : i32} : tensor<8xi32> loc(#loc36)
    %r0_index_5 = tt.expand_dims %r0_index {axis = 0 : i32} : tensor<8xi32> -> tensor<1x8xi32> loc(#loc37)
    %r0_mask_6 = arith.cmpi slt, %r0_index_5, %r0_mask : tensor<1x8xi32> loc(#loc29)
    %tmp0_7 = arith.muli %xindex_3, %tmp0 : tensor<32x1xi32> loc(#loc28)
    %tmp0_8 = tt.broadcast %r0_index_5 : tensor<1x8xi32> -> tensor<32x8xi32> loc(#loc38)
    %tmp0_9 = tt.broadcast %tmp0_7 : tensor<32x1xi32> -> tensor<32x8xi32> loc(#loc38)
    %tmp0_10 = arith.addi %tmp0_8, %tmp0_9 : tensor<32x8xi32> loc(#loc38)
    %tmp0_11 = tt.splat %in_ptr0 : !tt.ptr<f32> -> tensor<32x8x!tt.ptr<f32>> loc(#loc39)
    %tmp0_12 = tt.addptr %tmp0_11, %tmp0_10 : tensor<32x8x!tt.ptr<f32>>, tensor<32x8xi32> loc(#loc39)
    %tmp0_13 = tt.broadcast %r0_mask_6 : tensor<1x8xi1> -> tensor<32x8xi1> loc(#loc40)
    %tmp0_14 = tt.broadcast %xmask_4 : tensor<32x1xi1> -> tensor<32x8xi1> loc(#loc40)
    %tmp0_15 = arith.andi %tmp0_13, %tmp0_14 : tensor<32x8xi1> loc(#loc40)
    %tmp0_16 = tt.load %tmp0_12, %tmp0_15, %cst : tensor<32x8x!tt.ptr<f32>> loc(#loc41)
    %tmp3 = arith.select %tmp0_15, %tmp0_16, %cst : tensor<32x8xi1>, tensor<32x8xf32> loc(#loc42)
    %tmp4 = "tt.reduce"(%tmp3) <{axis = 1 : i32}> ({
    ^bb0(%tmp4_18: f32 loc(callsite(#loc1 at #loc43)), %tmp4_19: f32 loc(callsite(#loc1 at #loc43))):
      %tmp4_20 = arith.addf %tmp4_18, %tmp4_19 : f32 loc(#loc47)
      tt.reduce.return %tmp4_20 : f32 loc(#loc45)
    }) : (tensor<32x8xf32>) -> tensor<32xf32> loc(#loc45)
    %tmp4_17 = tt.expand_dims %tmp4 {axis = 1 : i32} : tensor<32xf32> -> tensor<32x1xf32> loc(#loc44)
    %0 = tt.splat %out_ptr0 : !tt.ptr<f32> -> tensor<32x1x!tt.ptr<f32>> loc(#loc21)
    %1 = tt.addptr %0, %xindex_3 : tensor<32x1x!tt.ptr<f32>>, tensor<32x1xi32> loc(#loc21)
    tt.store %1, %tmp4_17, %xmask_4 : tensor<32x1x!tt.ptr<f32>> loc(#loc22)
    tt.return loc(#loc23)
  } loc(#loc)
} loc(#loc)
#loc2 = loc("/NHNHOME/WORKSPACE/26msit001_A/jinhyeok/TTT_camera_embedding/lact_llm/.cache_inductor/l2/cl2bumxh66fbjouioicd5htlbvgwhr6eypyq2nod4ftrb4fm2njt.py":34:39)
#loc3 = loc("/NHNHOME/WORKSPACE/26msit001_A/jinhyeok/TTT_camera_embedding/lact_llm/.cache_inductor/l2/cl2bumxh66fbjouioicd5htlbvgwhr6eypyq2nod4ftrb4fm2njt.py":29:25)
#loc4 = loc("/NHNHOME/WORKSPACE/26msit001_A/jinhyeok/TTT_camera_embedding/lact_llm/.cache_inductor/l2/cl2bumxh66fbjouioicd5htlbvgwhr6eypyq2nod4ftrb4fm2njt.py":26:21)
#loc5 = loc("/NHNHOME/WORKSPACE/26msit001_A/jinhyeok/TTT_camera_embedding/lact_llm/.cache_inductor/l2/cl2bumxh66fbjouioicd5htlbvgwhr6eypyq2nod4ftrb4fm2njt.py":24:28)
#loc6 = loc("/NHNHOME/WORKSPACE/26msit001_A/jinhyeok/TTT_camera_embedding/lact_llm/.cache_inductor/l2/cl2bumxh66fbjouioicd5htlbvgwhr6eypyq2nod4ftrb4fm2njt.py":24:33)
#loc7 = loc("/NHNHOME/WORKSPACE/26msit001_A/jinhyeok/TTT_camera_embedding/lact_llm/.cache_inductor/l2/cl2bumxh66fbjouioicd5htlbvgwhr6eypyq2nod4ftrb4fm2njt.py":25:36)
#loc8 = loc("/NHNHOME/WORKSPACE/26msit001_A/jinhyeok/TTT_camera_embedding/lact_llm/.cache_inductor/l2/cl2bumxh66fbjouioicd5htlbvgwhr6eypyq2nod4ftrb4fm2njt.py":25:44)
#loc9 = loc("/NHNHOME/WORKSPACE/26msit001_A/jinhyeok/TTT_camera_embedding/lact_llm/.cache_inductor/l2/cl2bumxh66fbjouioicd5htlbvgwhr6eypyq2nod4ftrb4fm2njt.py":25:23)
#loc10 = loc("/NHNHOME/WORKSPACE/26msit001_A/jinhyeok/TTT_camera_embedding/lact_llm/.cache_inductor/l2/cl2bumxh66fbjouioicd5htlbvgwhr6eypyq2nod4ftrb4fm2njt.py":27:28)
#loc11 = loc("/NHNHOME/WORKSPACE/26msit001_A/jinhyeok/TTT_camera_embedding/lact_llm/.cache_inductor/l2/cl2bumxh66fbjouioicd5htlbvgwhr6eypyq2nod4ftrb4fm2njt.py":27:38)
#loc12 = loc("/NHNHOME/WORKSPACE/26msit001_A/jinhyeok/TTT_camera_embedding/lact_llm/.cache_inductor/l2/cl2bumxh66fbjouioicd5htlbvgwhr6eypyq2nod4ftrb4fm2njt.py":34:37)
#loc13 = loc("/NHNHOME/WORKSPACE/26msit001_A/jinhyeok/TTT_camera_embedding/lact_llm/.cache_inductor/l2/cl2bumxh66fbjouioicd5htlbvgwhr6eypyq2nod4ftrb4fm2njt.py":34:30)
#loc14 = loc("/NHNHOME/WORKSPACE/26msit001_A/jinhyeok/TTT_camera_embedding/lact_llm/.cache_inductor/l2/cl2bumxh66fbjouioicd5htlbvgwhr6eypyq2nod4ftrb4fm2njt.py":34:54)
#loc15 = loc("/NHNHOME/WORKSPACE/26msit001_A/jinhyeok/TTT_camera_embedding/lact_llm/.cache_inductor/l2/cl2bumxh66fbjouioicd5htlbvgwhr6eypyq2nod4ftrb4fm2njt.py":34:44)
#loc16 = loc("/NHNHOME/WORKSPACE/26msit001_A/jinhyeok/TTT_camera_embedding/lact_llm/.cache_inductor/l2/cl2bumxh66fbjouioicd5htlbvgwhr6eypyq2nod4ftrb4fm2njt.py":36:43)
#loc17 = loc("/NHNHOME/WORKSPACE/26msit001_A/jinhyeok/TTT_camera_embedding/.venv_llm/lib/python3.12/site-packages/triton/language/standard.py":291:36)
#loc19 = loc("/NHNHOME/WORKSPACE/26msit001_A/jinhyeok/TTT_camera_embedding/.venv_llm/lib/python3.12/site-packages/triton/language/standard.py":261:15)
#loc20 = loc("/NHNHOME/WORKSPACE/26msit001_A/jinhyeok/TTT_camera_embedding/lact_llm/.cache_inductor/l2/cl2bumxh66fbjouioicd5htlbvgwhr6eypyq2nod4ftrb4fm2njt.py":37:27)
#loc21 = loc("/NHNHOME/WORKSPACE/26msit001_A/jinhyeok/TTT_camera_embedding/lact_llm/.cache_inductor/l2/cl2bumxh66fbjouioicd5htlbvgwhr6eypyq2nod4ftrb4fm2njt.py":38:25)
#loc22 = loc("/NHNHOME/WORKSPACE/26msit001_A/jinhyeok/TTT_camera_embedding/lact_llm/.cache_inductor/l2/cl2bumxh66fbjouioicd5htlbvgwhr6eypyq2nod4ftrb4fm2njt.py":38:36)
#loc23 = loc("/NHNHOME/WORKSPACE/26msit001_A/jinhyeok/TTT_camera_embedding/lact_llm/.cache_inductor/l2/cl2bumxh66fbjouioicd5htlbvgwhr6eypyq2nod4ftrb4fm2njt.py":38:4)
#loc28 = loc("tmp0"(#loc2))
#loc29 = loc("r0_mask"(#loc3))
#loc30 = loc("xmask"(#loc4))
#loc31 = loc("xoffset"(#loc5))
#loc32 = loc("xoffset"(#loc6))
#loc33 = loc("xindex"(#loc7))
#loc34 = loc("xindex"(#loc8))
#loc35 = loc("xindex"(#loc9))
#loc36 = loc("r0_index"(#loc10))
#loc37 = loc("r0_index"(#loc11))
#loc38 = loc("tmp0"(#loc12))
#loc39 = loc("tmp0"(#loc13))
#loc40 = loc("tmp0"(#loc14))
#loc41 = loc("tmp0"(#loc15))
#loc42 = loc("tmp3"(#loc16))
#loc44 = loc("tmp4"(#loc20))
#loc45 = loc(callsite(#loc17 at #loc43))
#loc47 = loc(callsite(#loc19 at #loc45))
