#loc = loc("/NHNHOME/WORKSPACE/26msit001_A/jinhyeok/loop_TTT/lact/.cache_inductor_llm/eh/cehjb47zyogfs4qdjzjatr66jioipqznzbbfvkowg6hpa55iekuc.py":18:0)
#loc48 = loc("in_out_ptr0"(#loc))
#loc49 = loc("in_out_ptr1"(#loc))
#loc50 = loc("in_ptr0"(#loc))
#loc51 = loc("in_ptr1"(#loc))
#loc52 = loc("in_ptr2"(#loc))
#loc53 = loc("in_ptr3"(#loc))
#loc54 = loc("in_ptr4"(#loc))
#loc55 = loc("in_ptr5"(#loc))
#loc56 = loc("in_ptr6"(#loc))
#loc57 = loc("xnumel"(#loc))
module {
  tt.func public @triton_poi_fused__to_copy_add_mean_mul_slice_zeros_like_48(%in_out_ptr0: !tt.ptr<bf16> {tt.divisibility = 16 : i32} loc("in_out_ptr0"(#loc)), %in_out_ptr1: !tt.ptr<bf16> {tt.divisibility = 16 : i32} loc("in_out_ptr1"(#loc)), %in_ptr0: !tt.ptr<bf16> {tt.divisibility = 16 : i32} loc("in_ptr0"(#loc)), %in_ptr1: !tt.ptr<bf16> {tt.divisibility = 16 : i32} loc("in_ptr1"(#loc)), %in_ptr2: !tt.ptr<f32> {tt.divisibility = 16 : i32} loc("in_ptr2"(#loc)), %in_ptr3: !tt.ptr<f32> {tt.divisibility = 16 : i32} loc("in_ptr3"(#loc)), %in_ptr4: !tt.ptr<f32> {tt.divisibility = 16 : i32} loc("in_ptr4"(#loc)), %in_ptr5: !tt.ptr<bf16> {tt.divisibility = 16 : i32} loc("in_ptr5"(#loc)), %in_ptr6: !tt.ptr<bf16> {tt.divisibility = 16 : i32} loc("in_ptr6"(#loc)), %xnumel: i32 {tt.divisibility = 16 : i32} loc("xnumel"(#loc))) attributes {noinline = false} {
    %tmp10 = arith.constant dense<0.000000e+00> : tensor<512xf32> loc(#loc58)
    %cst = arith.constant dense<1.024000e+03> : tensor<512xf32> loc(#loc2)
    %x1 = arith.constant dense<36864> : tensor<512xi32> loc(#loc59)
    %c512_i32 = arith.constant 512 : i32 loc(#loc2)
    %xoffset = tt.get_program_id x : i32 loc(#loc60)
    %xoffset_0 = arith.muli %xoffset, %c512_i32 : i32 loc(#loc61)
    %xindex = tt.make_range {end = 512 : i32, start = 0 : i32} : tensor<512xi32> loc(#loc62)
    %xindex_1 = tt.splat %xoffset_0 : i32 -> tensor<512xi32> loc(#loc63)
    %xindex_2 = arith.addi %xindex_1, %xindex : tensor<512xi32> loc(#loc63)
    %x1_3 = arith.divsi %xindex_2, %x1 : tensor<512xi32> loc(#loc59)
    %tmp0 = tt.splat %in_out_ptr0 : !tt.ptr<bf16> -> tensor<512x!tt.ptr<bf16>> loc(#loc64)
    %tmp0_4 = tt.addptr %tmp0, %xindex_2 : tensor<512x!tt.ptr<bf16>>, tensor<512xi32> loc(#loc64)
    %tmp0_5 = tt.load %tmp0_4 : tensor<512x!tt.ptr<bf16>> loc(#loc65)
    %tmp0_6 = arith.extf %tmp0_5 : tensor<512xbf16> to tensor<512xf32> loc(#loc66)
    %tmp2 = tt.splat %in_ptr0 : !tt.ptr<bf16> -> tensor<512x!tt.ptr<bf16>> loc(#loc67)
    %tmp2_7 = tt.addptr %tmp2, %xindex_2 : tensor<512x!tt.ptr<bf16>>, tensor<512xi32> loc(#loc67)
    %tmp2_8 = tt.load %tmp2_7 : tensor<512x!tt.ptr<bf16>> loc(#loc68)
    %tmp2_9 = arith.extf %tmp2_8 : tensor<512xbf16> to tensor<512xf32> loc(#loc69)
    %tmp4 = tt.splat %in_ptr1 : !tt.ptr<bf16> -> tensor<512x!tt.ptr<bf16>> loc(#loc70)
    %tmp4_10 = tt.addptr %tmp4, %xindex_2 : tensor<512x!tt.ptr<bf16>>, tensor<512xi32> loc(#loc70)
    %tmp4_11 = tt.load %tmp4_10 : tensor<512x!tt.ptr<bf16>> loc(#loc71)
    %tmp4_12 = arith.extf %tmp4_11 : tensor<512xbf16> to tensor<512xf32> loc(#loc72)
    %tmp6 = tt.splat %in_ptr2 : !tt.ptr<f32> -> tensor<512x!tt.ptr<f32>> loc(#loc73)
    %tmp6_13 = tt.addptr %tmp6, %x1_3 : tensor<512x!tt.ptr<f32>>, tensor<512xi32> loc(#loc73)
    %tmp6_14 = tt.load %tmp6_13 evictionPolicy = evict_last : tensor<512x!tt.ptr<f32>> loc(#loc74)
    %tmp12 = tt.splat %in_ptr3 : !tt.ptr<f32> -> tensor<512x!tt.ptr<f32>> loc(#loc75)
    %tmp12_15 = tt.addptr %tmp12, %x1_3 : tensor<512x!tt.ptr<f32>>, tensor<512xi32> loc(#loc75)
    %tmp12_16 = tt.load %tmp12_15 evictionPolicy = evict_last : tensor<512x!tt.ptr<f32>> loc(#loc76)
    %tmp16 = tt.splat %in_ptr4 : !tt.ptr<f32> -> tensor<512x!tt.ptr<f32>> loc(#loc77)
    %tmp16_17 = tt.addptr %tmp16, %x1_3 : tensor<512x!tt.ptr<f32>>, tensor<512xi32> loc(#loc77)
    %tmp16_18 = tt.load %tmp16_17 evictionPolicy = evict_last : tensor<512x!tt.ptr<f32>> loc(#loc78)
    %tmp21 = tt.splat %in_out_ptr1 : !tt.ptr<bf16> -> tensor<512x!tt.ptr<bf16>> loc(#loc79)
    %tmp21_19 = tt.addptr %tmp21, %xindex_2 : tensor<512x!tt.ptr<bf16>>, tensor<512xi32> loc(#loc79)
    %tmp21_20 = tt.load %tmp21_19 : tensor<512x!tt.ptr<bf16>> loc(#loc80)
    %tmp21_21 = arith.extf %tmp21_20 : tensor<512xbf16> to tensor<512xf32> loc(#loc81)
    %tmp23 = tt.splat %in_ptr5 : !tt.ptr<bf16> -> tensor<512x!tt.ptr<bf16>> loc(#loc82)
    %tmp23_22 = tt.addptr %tmp23, %xindex_2 : tensor<512x!tt.ptr<bf16>>, tensor<512xi32> loc(#loc82)
    %tmp23_23 = tt.load %tmp23_22 : tensor<512x!tt.ptr<bf16>> loc(#loc83)
    %tmp23_24 = arith.extf %tmp23_23 : tensor<512xbf16> to tensor<512xf32> loc(#loc84)
    %tmp25 = tt.splat %in_ptr6 : !tt.ptr<bf16> -> tensor<512x!tt.ptr<bf16>> loc(#loc85)
    %tmp25_25 = tt.addptr %tmp25, %xindex_2 : tensor<512x!tt.ptr<bf16>>, tensor<512xi32> loc(#loc85)
    %tmp25_26 = tt.load %tmp25_25 : tensor<512x!tt.ptr<bf16>> loc(#loc86)
    %tmp25_27 = arith.extf %tmp25_26 : tensor<512xbf16> to tensor<512xf32> loc(#loc87)
    %tmp8 = arith.divf %tmp6_14, %cst : tensor<512xf32> loc(#loc88)
    %tmp10_28 = arith.mulf %tmp8, %tmp10 : tensor<512xf32> loc(#loc58)
    %tmp11 = arith.addf %tmp4_12, %tmp10_28 : tensor<512xf32> loc(#loc89)
    %tmp13 = arith.divf %tmp12_16, %cst : tensor<512xf32> loc(#loc90)
    %tmp14 = arith.mulf %tmp11, %tmp13 : tensor<512xf32> loc(#loc91)
    %tmp15 = arith.addf %tmp2_9, %tmp14 : tensor<512xf32> loc(#loc92)
    %tmp17 = arith.divf %tmp16_18, %cst : tensor<512xf32> loc(#loc93)
    %tmp18 = arith.mulf %tmp15, %tmp17 : tensor<512xf32> loc(#loc94)
    %tmp19 = arith.addf %tmp0_6, %tmp18 : tensor<512xf32> loc(#loc95)
    %tmp27 = arith.addf %tmp25_27, %tmp10_28 : tensor<512xf32> loc(#loc96)
    %tmp28 = arith.mulf %tmp27, %tmp13 : tensor<512xf32> loc(#loc97)
    %tmp29 = arith.addf %tmp23_24, %tmp28 : tensor<512xf32> loc(#loc98)
    %tmp30 = arith.mulf %tmp29, %tmp17 : tensor<512xf32> loc(#loc99)
    %tmp31 = arith.addf %tmp21_21, %tmp30 : tensor<512xf32> loc(#loc100)
    %0 = arith.truncf %tmp19 : tensor<512xf32> to tensor<512xbf16> loc(#loc45)
    tt.store %tmp0_4, %0 : tensor<512x!tt.ptr<bf16>> loc(#loc45)
    %1 = arith.truncf %tmp31 : tensor<512xf32> to tensor<512xbf16> loc(#loc46)
    tt.store %tmp21_19, %1 : tensor<512x!tt.ptr<bf16>> loc(#loc46)
    tt.return loc(#loc47)
  } loc(#loc)
} loc(#loc)
#loc1 = loc("/NHNHOME/WORKSPACE/26msit001_A/jinhyeok/loop_TTT/lact/.cache_inductor_llm/eh/cehjb47zyogfs4qdjzjatr66jioipqznzbbfvkowg6hpa55iekuc.py":39:19)
#loc2 = loc(unknown)
#loc3 = loc("/NHNHOME/WORKSPACE/26msit001_A/jinhyeok/loop_TTT/lact/.cache_inductor_llm/eh/cehjb47zyogfs4qdjzjatr66jioipqznzbbfvkowg6hpa55iekuc.py":23:19)
#loc4 = loc("/NHNHOME/WORKSPACE/26msit001_A/jinhyeok/loop_TTT/lact/.cache_inductor_llm/eh/cehjb47zyogfs4qdjzjatr66jioipqznzbbfvkowg6hpa55iekuc.py":19:28)
#loc5 = loc("/NHNHOME/WORKSPACE/26msit001_A/jinhyeok/loop_TTT/lact/.cache_inductor_llm/eh/cehjb47zyogfs4qdjzjatr66jioipqznzbbfvkowg6hpa55iekuc.py":19:33)
#loc6 = loc("/NHNHOME/WORKSPACE/26msit001_A/jinhyeok/loop_TTT/lact/.cache_inductor_llm/eh/cehjb47zyogfs4qdjzjatr66jioipqznzbbfvkowg6hpa55iekuc.py":20:36)
#loc7 = loc("/NHNHOME/WORKSPACE/26msit001_A/jinhyeok/loop_TTT/lact/.cache_inductor_llm/eh/cehjb47zyogfs4qdjzjatr66jioipqznzbbfvkowg6hpa55iekuc.py":20:23)
#loc8 = loc("/NHNHOME/WORKSPACE/26msit001_A/jinhyeok/loop_TTT/lact/.cache_inductor_llm/eh/cehjb47zyogfs4qdjzjatr66jioipqznzbbfvkowg6hpa55iekuc.py":24:34)
#loc9 = loc("/NHNHOME/WORKSPACE/26msit001_A/jinhyeok/loop_TTT/lact/.cache_inductor_llm/eh/cehjb47zyogfs4qdjzjatr66jioipqznzbbfvkowg6hpa55iekuc.py":24:39)
#loc10 = loc("/NHNHOME/WORKSPACE/26msit001_A/jinhyeok/loop_TTT/lact/.cache_inductor_llm/eh/cehjb47zyogfs4qdjzjatr66jioipqznzbbfvkowg6hpa55iekuc.py":24:48)
#loc11 = loc("/NHNHOME/WORKSPACE/26msit001_A/jinhyeok/loop_TTT/lact/.cache_inductor_llm/eh/cehjb47zyogfs4qdjzjatr66jioipqznzbbfvkowg6hpa55iekuc.py":25:30)
#loc12 = loc("/NHNHOME/WORKSPACE/26msit001_A/jinhyeok/loop_TTT/lact/.cache_inductor_llm/eh/cehjb47zyogfs4qdjzjatr66jioipqznzbbfvkowg6hpa55iekuc.py":25:35)
#loc13 = loc("/NHNHOME/WORKSPACE/26msit001_A/jinhyeok/loop_TTT/lact/.cache_inductor_llm/eh/cehjb47zyogfs4qdjzjatr66jioipqznzbbfvkowg6hpa55iekuc.py":25:44)
#loc14 = loc("/NHNHOME/WORKSPACE/26msit001_A/jinhyeok/loop_TTT/lact/.cache_inductor_llm/eh/cehjb47zyogfs4qdjzjatr66jioipqznzbbfvkowg6hpa55iekuc.py":26:30)
#loc15 = loc("/NHNHOME/WORKSPACE/26msit001_A/jinhyeok/loop_TTT/lact/.cache_inductor_llm/eh/cehjb47zyogfs4qdjzjatr66jioipqznzbbfvkowg6hpa55iekuc.py":26:35)
#loc16 = loc("/NHNHOME/WORKSPACE/26msit001_A/jinhyeok/loop_TTT/lact/.cache_inductor_llm/eh/cehjb47zyogfs4qdjzjatr66jioipqznzbbfvkowg6hpa55iekuc.py":26:44)
#loc17 = loc("/NHNHOME/WORKSPACE/26msit001_A/jinhyeok/loop_TTT/lact/.cache_inductor_llm/eh/cehjb47zyogfs4qdjzjatr66jioipqznzbbfvkowg6hpa55iekuc.py":27:30)
#loc18 = loc("/NHNHOME/WORKSPACE/26msit001_A/jinhyeok/loop_TTT/lact/.cache_inductor_llm/eh/cehjb47zyogfs4qdjzjatr66jioipqznzbbfvkowg6hpa55iekuc.py":27:35)
#loc19 = loc("/NHNHOME/WORKSPACE/26msit001_A/jinhyeok/loop_TTT/lact/.cache_inductor_llm/eh/cehjb47zyogfs4qdjzjatr66jioipqznzbbfvkowg6hpa55iekuc.py":28:31)
#loc20 = loc("/NHNHOME/WORKSPACE/26msit001_A/jinhyeok/loop_TTT/lact/.cache_inductor_llm/eh/cehjb47zyogfs4qdjzjatr66jioipqznzbbfvkowg6hpa55iekuc.py":28:36)
#loc21 = loc("/NHNHOME/WORKSPACE/26msit001_A/jinhyeok/loop_TTT/lact/.cache_inductor_llm/eh/cehjb47zyogfs4qdjzjatr66jioipqznzbbfvkowg6hpa55iekuc.py":29:31)
#loc22 = loc("/NHNHOME/WORKSPACE/26msit001_A/jinhyeok/loop_TTT/lact/.cache_inductor_llm/eh/cehjb47zyogfs4qdjzjatr66jioipqznzbbfvkowg6hpa55iekuc.py":29:36)
#loc23 = loc("/NHNHOME/WORKSPACE/26msit001_A/jinhyeok/loop_TTT/lact/.cache_inductor_llm/eh/cehjb47zyogfs4qdjzjatr66jioipqznzbbfvkowg6hpa55iekuc.py":30:35)
#loc24 = loc("/NHNHOME/WORKSPACE/26msit001_A/jinhyeok/loop_TTT/lact/.cache_inductor_llm/eh/cehjb47zyogfs4qdjzjatr66jioipqznzbbfvkowg6hpa55iekuc.py":30:40)
#loc25 = loc("/NHNHOME/WORKSPACE/26msit001_A/jinhyeok/loop_TTT/lact/.cache_inductor_llm/eh/cehjb47zyogfs4qdjzjatr66jioipqznzbbfvkowg6hpa55iekuc.py":30:49)
#loc26 = loc("/NHNHOME/WORKSPACE/26msit001_A/jinhyeok/loop_TTT/lact/.cache_inductor_llm/eh/cehjb47zyogfs4qdjzjatr66jioipqznzbbfvkowg6hpa55iekuc.py":31:31)
#loc27 = loc("/NHNHOME/WORKSPACE/26msit001_A/jinhyeok/loop_TTT/lact/.cache_inductor_llm/eh/cehjb47zyogfs4qdjzjatr66jioipqznzbbfvkowg6hpa55iekuc.py":31:36)
#loc28 = loc("/NHNHOME/WORKSPACE/26msit001_A/jinhyeok/loop_TTT/lact/.cache_inductor_llm/eh/cehjb47zyogfs4qdjzjatr66jioipqznzbbfvkowg6hpa55iekuc.py":31:45)
#loc29 = loc("/NHNHOME/WORKSPACE/26msit001_A/jinhyeok/loop_TTT/lact/.cache_inductor_llm/eh/cehjb47zyogfs4qdjzjatr66jioipqznzbbfvkowg6hpa55iekuc.py":32:31)
#loc30 = loc("/NHNHOME/WORKSPACE/26msit001_A/jinhyeok/loop_TTT/lact/.cache_inductor_llm/eh/cehjb47zyogfs4qdjzjatr66jioipqznzbbfvkowg6hpa55iekuc.py":32:36)
#loc31 = loc("/NHNHOME/WORKSPACE/26msit001_A/jinhyeok/loop_TTT/lact/.cache_inductor_llm/eh/cehjb47zyogfs4qdjzjatr66jioipqznzbbfvkowg6hpa55iekuc.py":32:45)
#loc32 = loc("/NHNHOME/WORKSPACE/26msit001_A/jinhyeok/loop_TTT/lact/.cache_inductor_llm/eh/cehjb47zyogfs4qdjzjatr66jioipqznzbbfvkowg6hpa55iekuc.py":37:19)
#loc33 = loc("/NHNHOME/WORKSPACE/26msit001_A/jinhyeok/loop_TTT/lact/.cache_inductor_llm/eh/cehjb47zyogfs4qdjzjatr66jioipqznzbbfvkowg6hpa55iekuc.py":40:19)
#loc34 = loc("/NHNHOME/WORKSPACE/26msit001_A/jinhyeok/loop_TTT/lact/.cache_inductor_llm/eh/cehjb47zyogfs4qdjzjatr66jioipqznzbbfvkowg6hpa55iekuc.py":41:21)
#loc35 = loc("/NHNHOME/WORKSPACE/26msit001_A/jinhyeok/loop_TTT/lact/.cache_inductor_llm/eh/cehjb47zyogfs4qdjzjatr66jioipqznzbbfvkowg6hpa55iekuc.py":42:20)
#loc36 = loc("/NHNHOME/WORKSPACE/26msit001_A/jinhyeok/loop_TTT/lact/.cache_inductor_llm/eh/cehjb47zyogfs4qdjzjatr66jioipqznzbbfvkowg6hpa55iekuc.py":43:19)
#loc37 = loc("/NHNHOME/WORKSPACE/26msit001_A/jinhyeok/loop_TTT/lact/.cache_inductor_llm/eh/cehjb47zyogfs4qdjzjatr66jioipqznzbbfvkowg6hpa55iekuc.py":44:21)
#loc38 = loc("/NHNHOME/WORKSPACE/26msit001_A/jinhyeok/loop_TTT/lact/.cache_inductor_llm/eh/cehjb47zyogfs4qdjzjatr66jioipqznzbbfvkowg6hpa55iekuc.py":45:20)
#loc39 = loc("/NHNHOME/WORKSPACE/26msit001_A/jinhyeok/loop_TTT/lact/.cache_inductor_llm/eh/cehjb47zyogfs4qdjzjatr66jioipqznzbbfvkowg6hpa55iekuc.py":46:19)
#loc40 = loc("/NHNHOME/WORKSPACE/26msit001_A/jinhyeok/loop_TTT/lact/.cache_inductor_llm/eh/cehjb47zyogfs4qdjzjatr66jioipqznzbbfvkowg6hpa55iekuc.py":51:20)
#loc41 = loc("/NHNHOME/WORKSPACE/26msit001_A/jinhyeok/loop_TTT/lact/.cache_inductor_llm/eh/cehjb47zyogfs4qdjzjatr66jioipqznzbbfvkowg6hpa55iekuc.py":52:20)
#loc42 = loc("/NHNHOME/WORKSPACE/26msit001_A/jinhyeok/loop_TTT/lact/.cache_inductor_llm/eh/cehjb47zyogfs4qdjzjatr66jioipqznzbbfvkowg6hpa55iekuc.py":53:20)
#loc43 = loc("/NHNHOME/WORKSPACE/26msit001_A/jinhyeok/loop_TTT/lact/.cache_inductor_llm/eh/cehjb47zyogfs4qdjzjatr66jioipqznzbbfvkowg6hpa55iekuc.py":54:20)
#loc44 = loc("/NHNHOME/WORKSPACE/26msit001_A/jinhyeok/loop_TTT/lact/.cache_inductor_llm/eh/cehjb47zyogfs4qdjzjatr66jioipqznzbbfvkowg6hpa55iekuc.py":55:20)
#loc45 = loc("/NHNHOME/WORKSPACE/26msit001_A/jinhyeok/loop_TTT/lact/.cache_inductor_llm/eh/cehjb47zyogfs4qdjzjatr66jioipqznzbbfvkowg6hpa55iekuc.py":57:40)
#loc46 = loc("/NHNHOME/WORKSPACE/26msit001_A/jinhyeok/loop_TTT/lact/.cache_inductor_llm/eh/cehjb47zyogfs4qdjzjatr66jioipqznzbbfvkowg6hpa55iekuc.py":58:40)
#loc47 = loc("/NHNHOME/WORKSPACE/26msit001_A/jinhyeok/loop_TTT/lact/.cache_inductor_llm/eh/cehjb47zyogfs4qdjzjatr66jioipqznzbbfvkowg6hpa55iekuc.py":58:4)
#loc58 = loc("tmp10"(#loc1))
#loc59 = loc("x1"(#loc3))
#loc60 = loc("xoffset"(#loc4))
#loc61 = loc("xoffset"(#loc5))
#loc62 = loc("xindex"(#loc6))
#loc63 = loc("xindex"(#loc7))
#loc64 = loc("tmp0"(#loc8))
#loc65 = loc("tmp0"(#loc9))
#loc66 = loc("tmp0"(#loc10))
#loc67 = loc("tmp2"(#loc11))
#loc68 = loc("tmp2"(#loc12))
#loc69 = loc("tmp2"(#loc13))
#loc70 = loc("tmp4"(#loc14))
#loc71 = loc("tmp4"(#loc15))
#loc72 = loc("tmp4"(#loc16))
#loc73 = loc("tmp6"(#loc17))
#loc74 = loc("tmp6"(#loc18))
#loc75 = loc("tmp12"(#loc19))
#loc76 = loc("tmp12"(#loc20))
#loc77 = loc("tmp16"(#loc21))
#loc78 = loc("tmp16"(#loc22))
#loc79 = loc("tmp21"(#loc23))
#loc80 = loc("tmp21"(#loc24))
#loc81 = loc("tmp21"(#loc25))
#loc82 = loc("tmp23"(#loc26))
#loc83 = loc("tmp23"(#loc27))
#loc84 = loc("tmp23"(#loc28))
#loc85 = loc("tmp25"(#loc29))
#loc86 = loc("tmp25"(#loc30))
#loc87 = loc("tmp25"(#loc31))
#loc88 = loc("tmp8"(#loc32))
#loc89 = loc("tmp11"(#loc33))
#loc90 = loc("tmp13"(#loc34))
#loc91 = loc("tmp14"(#loc35))
#loc92 = loc("tmp15"(#loc36))
#loc93 = loc("tmp17"(#loc37))
#loc94 = loc("tmp18"(#loc38))
#loc95 = loc("tmp19"(#loc39))
#loc96 = loc("tmp27"(#loc40))
#loc97 = loc("tmp28"(#loc41))
#loc98 = loc("tmp29"(#loc42))
#loc99 = loc("tmp30"(#loc43))
#loc100 = loc("tmp31"(#loc44))
