#loc = loc("/NHNHOME/WORKSPACE/26msit001_A/jinhyeok/loop_TTT/lact/.cache_inductor_llm/ij/cijaioduboiyjgokbkm7xej5slikfvcc6fkrmo6cojhvdvwuig2l.py":18:0)
#loc22 = loc("in_ptr0"(#loc))
#loc23 = loc("out_ptr0"(#loc))
#loc24 = loc("xnumel"(#loc))
module {
  tt.func public @triton_poi_fused_clone_copy_slice_transpose_zeros_like_20(%in_ptr0: !tt.ptr<bf16> {tt.divisibility = 16 : i32} loc("in_ptr0"(#loc)), %out_ptr0: !tt.ptr<bf16> {tt.divisibility = 16 : i32} loc("out_ptr0"(#loc)), %xnumel: i32 {tt.divisibility = 16 : i32} loc("xnumel"(#loc))) attributes {noinline = false} {
    %cst = arith.constant dense<0.000000e+00> : tensor<512xf32> loc(#loc1)
    %tmp2 = arith.constant dense<3072> : tensor<512xi64> loc(#loc25)
    %tmp0 = arith.constant dense<2048> : tensor<512xi32> loc(#loc26)
    %tmp6 = arith.constant dense<786432> : tensor<512xi32> loc(#loc27)
    %tmp6_0 = arith.constant dense<393216> : tensor<512xi32> loc(#loc28)
    %cst_1 = arith.constant dense<196608> : tensor<512xi32> loc(#loc1)
    %x1 = arith.constant dense<1024> : tensor<512xi32> loc(#loc29)
    %x1_2 = arith.constant dense<192> : tensor<512xi32> loc(#loc30)
    %c512_i32 = arith.constant 512 : i32 loc(#loc1)
    %xoffset = tt.get_program_id x : i32 loc(#loc31)
    %xoffset_3 = arith.muli %xoffset, %c512_i32 : i32 loc(#loc32)
    %xindex = tt.make_range {end = 512 : i32, start = 0 : i32} : tensor<512xi32> loc(#loc33)
    %xindex_4 = tt.splat %xoffset_3 : i32 -> tensor<512xi32> loc(#loc34)
    %xindex_5 = arith.addi %xindex_4, %xindex : tensor<512xi32> loc(#loc34)
    %x1_6 = arith.divsi %xindex_5, %x1_2 : tensor<512xi32> loc(#loc30)
    %x1_7 = arith.remsi %x1_6, %x1 : tensor<512xi32> loc(#loc29)
    %x2 = arith.divsi %xindex_5, %cst_1 : tensor<512xi32> loc(#loc35)
    %x3 = arith.remsi %xindex_5, %cst_1 : tensor<512xi32> loc(#loc36)
    %tmp6_8 = arith.addi %x3, %tmp6_0 : tensor<512xi32> loc(#loc28)
    %tmp6_9 = arith.muli %x2, %tmp6 : tensor<512xi32> loc(#loc27)
    %tmp6_10 = arith.addi %tmp6_8, %tmp6_9 : tensor<512xi32> loc(#loc37)
    %tmp6_11 = tt.splat %in_ptr0 : !tt.ptr<bf16> -> tensor<512x!tt.ptr<bf16>> loc(#loc38)
    %tmp6_12 = tt.addptr %tmp6_11, %tmp6_10 : tensor<512x!tt.ptr<bf16>>, tensor<512xi32> loc(#loc38)
    %tmp6_13 = tt.load %tmp6_12 : tensor<512x!tt.ptr<bf16>> loc(#loc39)
    %tmp6_14 = arith.extf %tmp6_13 : tensor<512xbf16> to tensor<512xf32> loc(#loc40)
    %tmp0_15 = arith.addi %x1_7, %tmp0 : tensor<512xi32> loc(#loc26)
    %tmp2_16 = arith.extsi %tmp0_15 : tensor<512xi32> to tensor<512xi64> loc(#loc25)
    %tmp2_17 = arith.cmpi sge, %tmp2_16, %tmp2 : tensor<512xi64> loc(#loc25)
    %tmp7 = arith.select %tmp2_17, %cst, %tmp6_14 : tensor<512xi1>, tensor<512xf32> loc(#loc41)
    %0 = tt.splat %out_ptr0 : !tt.ptr<bf16> -> tensor<512x!tt.ptr<bf16>> loc(#loc19)
    %1 = tt.addptr %0, %xindex_5 : tensor<512x!tt.ptr<bf16>>, tensor<512xi32> loc(#loc19)
    %2 = arith.truncf %tmp7 : tensor<512xf32> to tensor<512xbf16> loc(#loc20)
    tt.store %1, %2 : tensor<512x!tt.ptr<bf16>> loc(#loc20)
    tt.return loc(#loc21)
  } loc(#loc)
} loc(#loc)
#loc1 = loc(unknown)
#loc2 = loc("/NHNHOME/WORKSPACE/26msit001_A/jinhyeok/loop_TTT/lact/.cache_inductor_llm/ij/cijaioduboiyjgokbkm7xej5slikfvcc6fkrmo6cojhvdvwuig2l.py":30:19)
#loc3 = loc("/NHNHOME/WORKSPACE/26msit001_A/jinhyeok/loop_TTT/lact/.cache_inductor_llm/ij/cijaioduboiyjgokbkm7xej5slikfvcc6fkrmo6cojhvdvwuig2l.py":28:18)
#loc4 = loc("/NHNHOME/WORKSPACE/26msit001_A/jinhyeok/loop_TTT/lact/.cache_inductor_llm/ij/cijaioduboiyjgokbkm7xej5slikfvcc6fkrmo6cojhvdvwuig2l.py":27:51)
#loc5 = loc("/NHNHOME/WORKSPACE/26msit001_A/jinhyeok/loop_TTT/lact/.cache_inductor_llm/ij/cijaioduboiyjgokbkm7xej5slikfvcc6fkrmo6cojhvdvwuig2l.py":27:39)
#loc6 = loc("/NHNHOME/WORKSPACE/26msit001_A/jinhyeok/loop_TTT/lact/.cache_inductor_llm/ij/cijaioduboiyjgokbkm7xej5slikfvcc6fkrmo6cojhvdvwuig2l.py":23:28)
#loc7 = loc("/NHNHOME/WORKSPACE/26msit001_A/jinhyeok/loop_TTT/lact/.cache_inductor_llm/ij/cijaioduboiyjgokbkm7xej5slikfvcc6fkrmo6cojhvdvwuig2l.py":23:21)
#loc8 = loc("/NHNHOME/WORKSPACE/26msit001_A/jinhyeok/loop_TTT/lact/.cache_inductor_llm/ij/cijaioduboiyjgokbkm7xej5slikfvcc6fkrmo6cojhvdvwuig2l.py":20:28)
#loc9 = loc("/NHNHOME/WORKSPACE/26msit001_A/jinhyeok/loop_TTT/lact/.cache_inductor_llm/ij/cijaioduboiyjgokbkm7xej5slikfvcc6fkrmo6cojhvdvwuig2l.py":20:33)
#loc10 = loc("/NHNHOME/WORKSPACE/26msit001_A/jinhyeok/loop_TTT/lact/.cache_inductor_llm/ij/cijaioduboiyjgokbkm7xej5slikfvcc6fkrmo6cojhvdvwuig2l.py":21:36)
#loc11 = loc("/NHNHOME/WORKSPACE/26msit001_A/jinhyeok/loop_TTT/lact/.cache_inductor_llm/ij/cijaioduboiyjgokbkm7xej5slikfvcc6fkrmo6cojhvdvwuig2l.py":21:23)
#loc12 = loc("/NHNHOME/WORKSPACE/26msit001_A/jinhyeok/loop_TTT/lact/.cache_inductor_llm/ij/cijaioduboiyjgokbkm7xej5slikfvcc6fkrmo6cojhvdvwuig2l.py":24:19)
#loc13 = loc("/NHNHOME/WORKSPACE/26msit001_A/jinhyeok/loop_TTT/lact/.cache_inductor_llm/ij/cijaioduboiyjgokbkm7xej5slikfvcc6fkrmo6cojhvdvwuig2l.py":25:19)
#loc14 = loc("/NHNHOME/WORKSPACE/26msit001_A/jinhyeok/loop_TTT/lact/.cache_inductor_llm/ij/cijaioduboiyjgokbkm7xej5slikfvcc6fkrmo6cojhvdvwuig2l.py":27:44)
#loc15 = loc("/NHNHOME/WORKSPACE/26msit001_A/jinhyeok/loop_TTT/lact/.cache_inductor_llm/ij/cijaioduboiyjgokbkm7xej5slikfvcc6fkrmo6cojhvdvwuig2l.py":27:30)
#loc16 = loc("/NHNHOME/WORKSPACE/26msit001_A/jinhyeok/loop_TTT/lact/.cache_inductor_llm/ij/cijaioduboiyjgokbkm7xej5slikfvcc6fkrmo6cojhvdvwuig2l.py":27:56)
#loc17 = loc("/NHNHOME/WORKSPACE/26msit001_A/jinhyeok/loop_TTT/lact/.cache_inductor_llm/ij/cijaioduboiyjgokbkm7xej5slikfvcc6fkrmo6cojhvdvwuig2l.py":27:65)
#loc18 = loc("/NHNHOME/WORKSPACE/26msit001_A/jinhyeok/loop_TTT/lact/.cache_inductor_llm/ij/cijaioduboiyjgokbkm7xej5slikfvcc6fkrmo6cojhvdvwuig2l.py":34:32)
#loc19 = loc("/NHNHOME/WORKSPACE/26msit001_A/jinhyeok/loop_TTT/lact/.cache_inductor_llm/ij/cijaioduboiyjgokbkm7xej5slikfvcc6fkrmo6cojhvdvwuig2l.py":35:25)
#loc20 = loc("/NHNHOME/WORKSPACE/26msit001_A/jinhyeok/loop_TTT/lact/.cache_inductor_llm/ij/cijaioduboiyjgokbkm7xej5slikfvcc6fkrmo6cojhvdvwuig2l.py":35:36)
#loc21 = loc("/NHNHOME/WORKSPACE/26msit001_A/jinhyeok/loop_TTT/lact/.cache_inductor_llm/ij/cijaioduboiyjgokbkm7xej5slikfvcc6fkrmo6cojhvdvwuig2l.py":35:4)
#loc25 = loc("tmp2"(#loc2))
#loc26 = loc("tmp0"(#loc3))
#loc27 = loc("tmp6"(#loc4))
#loc28 = loc("tmp6"(#loc5))
#loc29 = loc("x1"(#loc6))
#loc30 = loc("x1"(#loc7))
#loc31 = loc("xoffset"(#loc8))
#loc32 = loc("xoffset"(#loc9))
#loc33 = loc("xindex"(#loc10))
#loc34 = loc("xindex"(#loc11))
#loc35 = loc("x2"(#loc12))
#loc36 = loc("x3"(#loc13))
#loc37 = loc("tmp6"(#loc14))
#loc38 = loc("tmp6"(#loc15))
#loc39 = loc("tmp6"(#loc16))
#loc40 = loc("tmp6"(#loc17))
#loc41 = loc("tmp7"(#loc18))
