#loc = loc("/NHNHOME/WORKSPACE/26msit001_A/jinhyeok/loop_TTT/lact/.cache_inductor_llm/4h/c4hzknt5ofxhsyrka22xhjakzuvm6rt6wp3mrn2dut6ibqiypior.py":18:0)
#loc1 = loc(unknown)
#loc25 = loc("/NHNHOME/WORKSPACE/26msit001_A/jinhyeok/loop_TTT/lact/.cache_inductor_llm/4h/c4hzknt5ofxhsyrka22xhjakzuvm6rt6wp3mrn2dut6ibqiypior.py":45:26)
#loc33 = loc("/NHNHOME/WORKSPACE/26msit001_A/jinhyeok/loop_TTT/lact/.cache_inductor_llm/4h/c4hzknt5ofxhsyrka22xhjakzuvm6rt6wp3mrn2dut6ibqiypior.py":52:26)
#loc47 = loc("in_ptr0"(#loc))
#loc48 = loc("in_ptr1"(#loc))
#loc49 = loc("in_ptr2"(#loc))
#loc50 = loc("in_ptr3"(#loc))
#loc51 = loc("out_ptr0"(#loc))
#loc52 = loc("out_ptr2"(#loc))
#loc53 = loc("out_ptr3"(#loc))
#loc54 = loc("xnumel"(#loc))
#loc55 = loc("r0_numel"(#loc))
#loc78 = loc("tmp11"(#loc25))
#loc85 = loc("tmp20"(#loc33))
#loc95 = loc(callsite(#loc1 at #loc78))
#loc97 = loc(callsite(#loc1 at #loc85))
module {
  tt.func public @triton_per_fused__to_copy_add_div_eq_masked_fill_mul_neg_sum_1(%in_ptr0: !tt.ptr<bf16> {tt.divisibility = 16 : i32} loc("in_ptr0"(#loc)), %in_ptr1: !tt.ptr<f32> {tt.divisibility = 16 : i32} loc("in_ptr1"(#loc)), %in_ptr2: !tt.ptr<f32> {tt.divisibility = 16 : i32} loc("in_ptr2"(#loc)), %in_ptr3: !tt.ptr<f32> {tt.divisibility = 16 : i32} loc("in_ptr3"(#loc)), %out_ptr0: !tt.ptr<f32> {tt.divisibility = 16 : i32} loc("out_ptr0"(#loc)), %out_ptr2: !tt.ptr<f32> {tt.divisibility = 16 : i32} loc("out_ptr2"(#loc)), %out_ptr3: !tt.ptr<bf16> {tt.divisibility = 16 : i32} loc("out_ptr3"(#loc)), %xnumel: i32 {tt.divisibility = 16 : i32} loc("xnumel"(#loc)), %r0_numel: i32 {tt.divisibility = 16 : i32} loc("r0_numel"(#loc))) attributes {noinline = false} {
    %c192_i32 = arith.constant 192 : i32 loc(#loc1)
    %xmask = arith.constant 18432 : i32 loc(#loc56)
    %tmp0 = arith.constant dense<0.000000e+00> : tensor<1x256xbf16> loc(#loc57)
    %tmp23 = arith.constant dense<0.000000e+00> : tensor<1x1xf32> loc(#loc58)
    %tmp5 = arith.constant dense<9.99999974E-6> : tensor<1x1xf32> loc(#loc59)
    %cst = arith.constant dense<0.000000e+00> : tensor<1x256xf32> loc(#loc1)
    %r0_mask = arith.constant dense<192> : tensor<1x256xi32> loc(#loc60)
    %xoffset = tt.get_program_id x : i32 loc(#loc61)
    %xmask_0 = arith.cmpi slt, %xoffset, %xmask : i32 loc(#loc56)
    %xmask_1 = tt.splat %xmask_0 : i1 -> tensor<1x1xi1> loc(#loc56)
    %r0_index = tt.make_range {end = 256 : i32, start = 0 : i32} : tensor<256xi32> loc(#loc62)
    %r0_index_2 = tt.expand_dims %r0_index {axis = 0 : i32} : tensor<256xi32> -> tensor<1x256xi32> loc(#loc63)
    %r0_mask_3 = arith.cmpi slt, %r0_index_2, %r0_mask : tensor<1x256xi32> loc(#loc60)
    %tmp0_4 = arith.muli %xoffset, %c192_i32 : i32 loc(#loc64)
    %tmp0_5 = tt.splat %tmp0_4 : i32 -> tensor<1x256xi32> loc(#loc92)
    %tmp0_6 = arith.addi %r0_index_2, %tmp0_5 : tensor<1x256xi32> loc(#loc65)
    %tmp0_7 = tt.splat %in_ptr0 : !tt.ptr<bf16> -> tensor<1x256x!tt.ptr<bf16>> loc(#loc66)
    %tmp0_8 = tt.addptr %tmp0_7, %tmp0_6 : tensor<1x256x!tt.ptr<bf16>>, tensor<1x256xi32> loc(#loc66)
    %tmp0_9 = tt.splat %xmask_0 : i1 -> tensor<1x256xi1> loc(#loc93)
    %tmp0_10 = arith.andi %r0_mask_3, %tmp0_9 : tensor<1x256xi1> loc(#loc67)
    %tmp0_11 = tt.load %tmp0_8, %tmp0_10, %tmp0 : tensor<1x256x!tt.ptr<bf16>> loc(#loc57)
    %tmp0_12 = arith.extf %tmp0_11 : tensor<1x256xbf16> to tensor<1x256xf32> loc(#loc68)
    %tmp2 = tt.splat %in_ptr1 : !tt.ptr<f32> -> tensor<1x256x!tt.ptr<f32>> loc(#loc69)
    %tmp2_13 = tt.addptr %tmp2, %tmp0_6 : tensor<1x256x!tt.ptr<f32>>, tensor<1x256xi32> loc(#loc69)
    %tmp2_14 = tt.load %tmp2_13, %tmp0_10, %cst : tensor<1x256x!tt.ptr<f32>> loc(#loc70)
    %tmp3 = tt.addptr %in_ptr2, %xoffset : !tt.ptr<f32>, i32 loc(#loc71)
    %tmp3_15 = tt.splat %tmp3 : !tt.ptr<f32> -> tensor<1x1x!tt.ptr<f32>> loc(#loc71)
    %tmp3_16 = tt.load %tmp3_15, %xmask_1 evictionPolicy = evict_last : tensor<1x1x!tt.ptr<f32>> loc(#loc72)
    %tmp12 = tt.addptr %in_ptr3, %xoffset : !tt.ptr<f32>, i32 loc(#loc73)
    %tmp12_17 = tt.splat %tmp12 : !tt.ptr<f32> -> tensor<1x1x!tt.ptr<f32>> loc(#loc73)
    %tmp12_18 = tt.load %tmp12_17, %xmask_1 evictionPolicy = evict_last : tensor<1x1x!tt.ptr<f32>> loc(#loc74)
    %tmp5_19 = arith.addf %tmp3_16, %tmp5 : tensor<1x1xf32> loc(#loc59)
    %tmp6 = tt.broadcast %tmp5_19 : tensor<1x1xf32> -> tensor<1x256xf32> loc(#loc75)
    %tmp6_20 = arith.divf %tmp2_14, %tmp6 : tensor<1x256xf32> loc(#loc75)
    %tmp7 = arith.mulf %tmp0_12, %tmp6_20 : tensor<1x256xf32> loc(#loc76)
    %tmp10 = arith.select %tmp0_10, %tmp7, %cst : tensor<1x256xi1>, tensor<1x256xf32> loc(#loc77)
    %tmp11 = "tt.reduce"(%tmp10) <{axis = 1 : i32}> ({
    ^bb0(%tmp11_28: f32 loc(callsite(#loc1 at #loc78)), %tmp11_29: f32 loc(callsite(#loc1 at #loc78))):
      %tmp11_30 = arith.addf %tmp11_28, %tmp11_29 : f32 loc(#loc98)
      tt.reduce.return %tmp11_30 : f32 loc(#loc94)
    }) : (tensor<1x256xf32>) -> tensor<1xf32> loc(#loc94)
    %tmp11_21 = tt.expand_dims %tmp11 {axis = 1 : i32} : tensor<1xf32> -> tensor<1x1xf32> loc(#loc79)
    %tmp13 = tt.broadcast %tmp12_18 : tensor<1x1xf32> -> tensor<1x256xf32> loc(#loc80)
    %tmp13_22 = arith.mulf %tmp0_12, %tmp13 : tensor<1x256xf32> loc(#loc80)
    %tmp14 = arith.subf %cst, %tmp13_22 : tensor<1x256xf32> loc(#loc81)
    %tmp15 = arith.divf %tmp6_20, %tmp6 : tensor<1x256xf32> loc(#loc82)
    %tmp16 = arith.mulf %tmp14, %tmp15 : tensor<1x256xf32> loc(#loc83)
    %tmp19 = arith.select %tmp0_10, %tmp16, %cst : tensor<1x256xi1>, tensor<1x256xf32> loc(#loc84)
    %tmp20 = "tt.reduce"(%tmp19) <{axis = 1 : i32}> ({
    ^bb0(%tmp20_28: f32 loc(callsite(#loc1 at #loc85)), %tmp20_29: f32 loc(callsite(#loc1 at #loc85))):
      %tmp20_30 = arith.addf %tmp20_28, %tmp20_29 : f32 loc(#loc99)
      tt.reduce.return %tmp20_30 : f32 loc(#loc96)
    }) : (tensor<1x256xf32>) -> tensor<1xf32> loc(#loc96)
    %tmp20_23 = tt.expand_dims %tmp20 {axis = 1 : i32} : tensor<1xf32> -> tensor<1x1xf32> loc(#loc86)
    %tmp21 = arith.divf %tmp13_22, %tmp6 : tensor<1x256xf32> loc(#loc87)
    %tmp23_24 = arith.cmpf oeq, %tmp3_16, %tmp23 : tensor<1x1xf32> loc(#loc58)
    %tmp24 = tt.broadcast %tmp3_16 : tensor<1x1xf32> -> tensor<1x256xf32> loc(#loc88)
    %tmp24_25 = arith.divf %tmp2_14, %tmp24 : tensor<1x256xf32> loc(#loc88)
    %tmp25 = tt.broadcast %tmp23_24 : tensor<1x1xi1> -> tensor<1x256xi1> loc(#loc89)
    %tmp25_26 = arith.select %tmp25, %cst, %tmp24_25 : tensor<1x256xi1>, tensor<1x256xf32> loc(#loc89)
    %tmp26 = tt.broadcast %tmp20_23 : tensor<1x1xf32> -> tensor<1x256xf32> loc(#loc90)
    %tmp26_27 = arith.mulf %tmp26, %tmp25_26 : tensor<1x256xf32> loc(#loc90)
    %tmp27 = arith.addf %tmp21, %tmp26_27 : tensor<1x256xf32> loc(#loc91)
    %0 = tt.splat %out_ptr2 : !tt.ptr<f32> -> tensor<1x256x!tt.ptr<f32>> loc(#loc40)
    %1 = tt.addptr %0, %tmp0_6 : tensor<1x256x!tt.ptr<f32>>, tensor<1x256xi32> loc(#loc40)
    tt.store %1, %tmp27, %tmp0_10 : tensor<1x256x!tt.ptr<f32>> loc(#loc41)
    %2 = tt.splat %out_ptr3 : !tt.ptr<bf16> -> tensor<1x256x!tt.ptr<bf16>> loc(#loc42)
    %3 = tt.addptr %2, %tmp0_6 : tensor<1x256x!tt.ptr<bf16>>, tensor<1x256xi32> loc(#loc42)
    %4 = arith.truncf %tmp27 : tensor<1x256xf32> to tensor<1x256xbf16> loc(#loc43)
    tt.store %3, %4, %tmp0_10 : tensor<1x256x!tt.ptr<bf16>> loc(#loc43)
    %5 = tt.addptr %out_ptr0, %xoffset : !tt.ptr<f32>, i32 loc(#loc44)
    %6 = tt.splat %5 : !tt.ptr<f32> -> tensor<1x1x!tt.ptr<f32>> loc(#loc44)
    tt.store %6, %tmp11_21, %xmask_1 : tensor<1x1x!tt.ptr<f32>> loc(#loc45)
    tt.return loc(#loc46)
  } loc(#loc)
} loc(#loc)
#loc2 = loc("/NHNHOME/WORKSPACE/26msit001_A/jinhyeok/loop_TTT/lact/.cache_inductor_llm/4h/c4hzknt5ofxhsyrka22xhjakzuvm6rt6wp3mrn2dut6ibqiypior.py":26:21)
#loc3 = loc("/NHNHOME/WORKSPACE/26msit001_A/jinhyeok/loop_TTT/lact/.cache_inductor_llm/4h/c4hzknt5ofxhsyrka22xhjakzuvm6rt6wp3mrn2dut6ibqiypior.py":34:46)
#loc4 = loc("/NHNHOME/WORKSPACE/26msit001_A/jinhyeok/loop_TTT/lact/.cache_inductor_llm/4h/c4hzknt5ofxhsyrka22xhjakzuvm6rt6wp3mrn2dut6ibqiypior.py":55:20)
#loc5 = loc("/NHNHOME/WORKSPACE/26msit001_A/jinhyeok/loop_TTT/lact/.cache_inductor_llm/4h/c4hzknt5ofxhsyrka22xhjakzuvm6rt6wp3mrn2dut6ibqiypior.py":40:18)
#loc6 = loc("/NHNHOME/WORKSPACE/26msit001_A/jinhyeok/loop_TTT/lact/.cache_inductor_llm/4h/c4hzknt5ofxhsyrka22xhjakzuvm6rt6wp3mrn2dut6ibqiypior.py":29:25)
#loc7 = loc("/NHNHOME/WORKSPACE/26msit001_A/jinhyeok/loop_TTT/lact/.cache_inductor_llm/4h/c4hzknt5ofxhsyrka22xhjakzuvm6rt6wp3mrn2dut6ibqiypior.py":24:28)
#loc8 = loc("/NHNHOME/WORKSPACE/26msit001_A/jinhyeok/loop_TTT/lact/.cache_inductor_llm/4h/c4hzknt5ofxhsyrka22xhjakzuvm6rt6wp3mrn2dut6ibqiypior.py":27:28)
#loc9 = loc("/NHNHOME/WORKSPACE/26msit001_A/jinhyeok/loop_TTT/lact/.cache_inductor_llm/4h/c4hzknt5ofxhsyrka22xhjakzuvm6rt6wp3mrn2dut6ibqiypior.py":27:38)
#loc10 = loc("/NHNHOME/WORKSPACE/26msit001_A/jinhyeok/loop_TTT/lact/.cache_inductor_llm/4h/c4hzknt5ofxhsyrka22xhjakzuvm6rt6wp3mrn2dut6ibqiypior.py":34:41)
#loc11 = loc("/NHNHOME/WORKSPACE/26msit001_A/jinhyeok/loop_TTT/lact/.cache_inductor_llm/4h/c4hzknt5ofxhsyrka22xhjakzuvm6rt6wp3mrn2dut6ibqiypior.py":34:37)
#loc12 = loc("/NHNHOME/WORKSPACE/26msit001_A/jinhyeok/loop_TTT/lact/.cache_inductor_llm/4h/c4hzknt5ofxhsyrka22xhjakzuvm6rt6wp3mrn2dut6ibqiypior.py":34:30)
#loc13 = loc("/NHNHOME/WORKSPACE/26msit001_A/jinhyeok/loop_TTT/lact/.cache_inductor_llm/4h/c4hzknt5ofxhsyrka22xhjakzuvm6rt6wp3mrn2dut6ibqiypior.py":34:56)
#loc14 = loc("/NHNHOME/WORKSPACE/26msit001_A/jinhyeok/loop_TTT/lact/.cache_inductor_llm/4h/c4hzknt5ofxhsyrka22xhjakzuvm6rt6wp3mrn2dut6ibqiypior.py":34:77)
#loc15 = loc("/NHNHOME/WORKSPACE/26msit001_A/jinhyeok/loop_TTT/lact/.cache_inductor_llm/4h/c4hzknt5ofxhsyrka22xhjakzuvm6rt6wp3mrn2dut6ibqiypior.py":35:30)
#loc16 = loc("/NHNHOME/WORKSPACE/26msit001_A/jinhyeok/loop_TTT/lact/.cache_inductor_llm/4h/c4hzknt5ofxhsyrka22xhjakzuvm6rt6wp3mrn2dut6ibqiypior.py":35:46)
#loc17 = loc("/NHNHOME/WORKSPACE/26msit001_A/jinhyeok/loop_TTT/lact/.cache_inductor_llm/4h/c4hzknt5ofxhsyrka22xhjakzuvm6rt6wp3mrn2dut6ibqiypior.py":36:30)
#loc18 = loc("/NHNHOME/WORKSPACE/26msit001_A/jinhyeok/loop_TTT/lact/.cache_inductor_llm/4h/c4hzknt5ofxhsyrka22xhjakzuvm6rt6wp3mrn2dut6ibqiypior.py":36:35)
#loc19 = loc("/NHNHOME/WORKSPACE/26msit001_A/jinhyeok/loop_TTT/lact/.cache_inductor_llm/4h/c4hzknt5ofxhsyrka22xhjakzuvm6rt6wp3mrn2dut6ibqiypior.py":37:31)
#loc20 = loc("/NHNHOME/WORKSPACE/26msit001_A/jinhyeok/loop_TTT/lact/.cache_inductor_llm/4h/c4hzknt5ofxhsyrka22xhjakzuvm6rt6wp3mrn2dut6ibqiypior.py":37:36)
#loc21 = loc("/NHNHOME/WORKSPACE/26msit001_A/jinhyeok/loop_TTT/lact/.cache_inductor_llm/4h/c4hzknt5ofxhsyrka22xhjakzuvm6rt6wp3mrn2dut6ibqiypior.py":41:19)
#loc22 = loc("/NHNHOME/WORKSPACE/26msit001_A/jinhyeok/loop_TTT/lact/.cache_inductor_llm/4h/c4hzknt5ofxhsyrka22xhjakzuvm6rt6wp3mrn2dut6ibqiypior.py":42:18)
#loc23 = loc("/NHNHOME/WORKSPACE/26msit001_A/jinhyeok/loop_TTT/lact/.cache_inductor_llm/4h/c4hzknt5ofxhsyrka22xhjakzuvm6rt6wp3mrn2dut6ibqiypior.py":44:44)
#loc24 = loc("/NHNHOME/WORKSPACE/26msit001_A/jinhyeok/TTT_camera_embedding/.venv_llm/lib/python3.12/site-packages/triton/language/standard.py":291:36)
#loc26 = loc("/NHNHOME/WORKSPACE/26msit001_A/jinhyeok/TTT_camera_embedding/.venv_llm/lib/python3.12/site-packages/triton/language/standard.py":261:15)
#loc27 = loc("/NHNHOME/WORKSPACE/26msit001_A/jinhyeok/loop_TTT/lact/.cache_inductor_llm/4h/c4hzknt5ofxhsyrka22xhjakzuvm6rt6wp3mrn2dut6ibqiypior.py":45:29)
#loc28 = loc("/NHNHOME/WORKSPACE/26msit001_A/jinhyeok/loop_TTT/lact/.cache_inductor_llm/4h/c4hzknt5ofxhsyrka22xhjakzuvm6rt6wp3mrn2dut6ibqiypior.py":46:19)
#loc29 = loc("/NHNHOME/WORKSPACE/26msit001_A/jinhyeok/loop_TTT/lact/.cache_inductor_llm/4h/c4hzknt5ofxhsyrka22xhjakzuvm6rt6wp3mrn2dut6ibqiypior.py":47:13)
#loc30 = loc("/NHNHOME/WORKSPACE/26msit001_A/jinhyeok/loop_TTT/lact/.cache_inductor_llm/4h/c4hzknt5ofxhsyrka22xhjakzuvm6rt6wp3mrn2dut6ibqiypior.py":48:20)
#loc31 = loc("/NHNHOME/WORKSPACE/26msit001_A/jinhyeok/loop_TTT/lact/.cache_inductor_llm/4h/c4hzknt5ofxhsyrka22xhjakzuvm6rt6wp3mrn2dut6ibqiypior.py":49:20)
#loc32 = loc("/NHNHOME/WORKSPACE/26msit001_A/jinhyeok/loop_TTT/lact/.cache_inductor_llm/4h/c4hzknt5ofxhsyrka22xhjakzuvm6rt6wp3mrn2dut6ibqiypior.py":51:45)
#loc34 = loc("/NHNHOME/WORKSPACE/26msit001_A/jinhyeok/loop_TTT/lact/.cache_inductor_llm/4h/c4hzknt5ofxhsyrka22xhjakzuvm6rt6wp3mrn2dut6ibqiypior.py":52:29)
#loc35 = loc("/NHNHOME/WORKSPACE/26msit001_A/jinhyeok/loop_TTT/lact/.cache_inductor_llm/4h/c4hzknt5ofxhsyrka22xhjakzuvm6rt6wp3mrn2dut6ibqiypior.py":53:21)
#loc36 = loc("/NHNHOME/WORKSPACE/26msit001_A/jinhyeok/loop_TTT/lact/.cache_inductor_llm/4h/c4hzknt5ofxhsyrka22xhjakzuvm6rt6wp3mrn2dut6ibqiypior.py":56:20)
#loc37 = loc("/NHNHOME/WORKSPACE/26msit001_A/jinhyeok/loop_TTT/lact/.cache_inductor_llm/4h/c4hzknt5ofxhsyrka22xhjakzuvm6rt6wp3mrn2dut6ibqiypior.py":57:35)
#loc38 = loc("/NHNHOME/WORKSPACE/26msit001_A/jinhyeok/loop_TTT/lact/.cache_inductor_llm/4h/c4hzknt5ofxhsyrka22xhjakzuvm6rt6wp3mrn2dut6ibqiypior.py":58:20)
#loc39 = loc("/NHNHOME/WORKSPACE/26msit001_A/jinhyeok/loop_TTT/lact/.cache_inductor_llm/4h/c4hzknt5ofxhsyrka22xhjakzuvm6rt6wp3mrn2dut6ibqiypior.py":59:20)
#loc40 = loc("/NHNHOME/WORKSPACE/26msit001_A/jinhyeok/loop_TTT/lact/.cache_inductor_llm/4h/c4hzknt5ofxhsyrka22xhjakzuvm6rt6wp3mrn2dut6ibqiypior.py":61:25)
#loc41 = loc("/NHNHOME/WORKSPACE/26msit001_A/jinhyeok/loop_TTT/lact/.cache_inductor_llm/4h/c4hzknt5ofxhsyrka22xhjakzuvm6rt6wp3mrn2dut6ibqiypior.py":61:48)
#loc42 = loc("/NHNHOME/WORKSPACE/26msit001_A/jinhyeok/loop_TTT/lact/.cache_inductor_llm/4h/c4hzknt5ofxhsyrka22xhjakzuvm6rt6wp3mrn2dut6ibqiypior.py":62:25)
#loc43 = loc("/NHNHOME/WORKSPACE/26msit001_A/jinhyeok/loop_TTT/lact/.cache_inductor_llm/4h/c4hzknt5ofxhsyrka22xhjakzuvm6rt6wp3mrn2dut6ibqiypior.py":62:48)
#loc44 = loc("/NHNHOME/WORKSPACE/26msit001_A/jinhyeok/loop_TTT/lact/.cache_inductor_llm/4h/c4hzknt5ofxhsyrka22xhjakzuvm6rt6wp3mrn2dut6ibqiypior.py":63:25)
#loc45 = loc("/NHNHOME/WORKSPACE/26msit001_A/jinhyeok/loop_TTT/lact/.cache_inductor_llm/4h/c4hzknt5ofxhsyrka22xhjakzuvm6rt6wp3mrn2dut6ibqiypior.py":63:37)
#loc46 = loc("/NHNHOME/WORKSPACE/26msit001_A/jinhyeok/loop_TTT/lact/.cache_inductor_llm/4h/c4hzknt5ofxhsyrka22xhjakzuvm6rt6wp3mrn2dut6ibqiypior.py":63:4)
#loc56 = loc("xmask"(#loc2))
#loc57 = loc("tmp0"(#loc3))
#loc58 = loc("tmp23"(#loc4))
#loc59 = loc("tmp5"(#loc5))
#loc60 = loc("r0_mask"(#loc6))
#loc61 = loc("xoffset"(#loc7))
#loc62 = loc("r0_index"(#loc8))
#loc63 = loc("r0_index"(#loc9))
#loc64 = loc("tmp0"(#loc10))
#loc65 = loc("tmp0"(#loc11))
#loc66 = loc("tmp0"(#loc12))
#loc67 = loc("tmp0"(#loc13))
#loc68 = loc("tmp0"(#loc14))
#loc69 = loc("tmp2"(#loc15))
#loc70 = loc("tmp2"(#loc16))
#loc71 = loc("tmp3"(#loc17))
#loc72 = loc("tmp3"(#loc18))
#loc73 = loc("tmp12"(#loc19))
#loc74 = loc("tmp12"(#loc20))
#loc75 = loc("tmp6"(#loc21))
#loc76 = loc("tmp7"(#loc22))
#loc77 = loc("tmp10"(#loc23))
#loc79 = loc("tmp11"(#loc27))
#loc80 = loc("tmp13"(#loc28))
#loc81 = loc("tmp14"(#loc29))
#loc82 = loc("tmp15"(#loc30))
#loc83 = loc("tmp16"(#loc31))
#loc84 = loc("tmp19"(#loc32))
#loc86 = loc("tmp20"(#loc34))
#loc87 = loc("tmp21"(#loc35))
#loc88 = loc("tmp24"(#loc36))
#loc89 = loc("tmp25"(#loc37))
#loc90 = loc("tmp26"(#loc38))
#loc91 = loc("tmp27"(#loc39))
#loc92 = loc(fused[#loc65, #loc64])
#loc93 = loc(fused[#loc67, #loc56])
#loc94 = loc(callsite(#loc24 at #loc78))
#loc96 = loc(callsite(#loc24 at #loc85))
#loc98 = loc(callsite(#loc26 at #loc94))
#loc99 = loc(callsite(#loc26 at #loc96))
