#loc = loc("/NHNHOME/WORKSPACE/26msit001_A/jinhyeok/TTT_camera_embedding/.venv_llm/lib/python3.12/site-packages/fla/modules/fused_linear_cross_entropy.py":97:0)
#loc61 = loc("/NHNHOME/WORKSPACE/26msit001_A/jinhyeok/TTT_camera_embedding/.venv_llm/lib/python3.12/site-packages/fla/ops/utils/op.py":29:0)
#loc65 = loc("logits"(#loc))
#loc66 = loc("lse"(#loc))
#loc67 = loc("target"(#loc))
#loc68 = loc("loss"(#loc))
#loc69 = loc("total"(#loc))
#loc70 = loc("ignore_index"(#loc))
#loc110 = loc("x"(#loc61))
module {
  tt.func public @cross_entropy_kernel(%logits: !tt.ptr<bf16> {tt.divisibility = 16 : i32} loc("logits"(#loc)), %lse: !tt.ptr<f32> {tt.divisibility = 16 : i32} loc("lse"(#loc)), %target: !tt.ptr<i64> {tt.divisibility = 16 : i32} loc("target"(#loc)), %loss: !tt.ptr<f32> {tt.divisibility = 16 : i32} loc("loss"(#loc)), %total: i32 loc("total"(#loc)), %ignore_index: i32 loc("ignore_index"(#loc))) attributes {noinline = false} {
    %i_n = tt.get_program_id x : i32 loc(#loc71)
    %i_n_0 = arith.extsi %i_n : i32 to i64 loc(#loc72)
    %NV = tt.call @"triton.language.standard.cdiv____(0,)cconstexpr_32000__(1,)cconstexpr_32768_"() : () -> i32 loc(#loc73)
    %b_y = tt.addptr %target, %i_n_0 : !tt.ptr<i64>, i64 loc(#loc74)
    %b_y_1 = tt.load %b_y : !tt.ptr<i64> loc(#loc75)
    %logits_2 = arith.constant 32000 : i32 loc(#loc76)
    %logits_3 = arith.constant 32000 : i64 loc(#loc76)
    %logits_4 = arith.muli %i_n_0, %logits_3 : i64 loc(#loc76)
    %logits_5 = tt.addptr %logits, %logits_4 : !tt.ptr<bf16>, i64 loc(#loc77)
    %0 = arith.extsi %ignore_index : i32 to i64 loc(#loc8)
    %1 = arith.cmpi eq, %b_y_1, %0 : i64 loc(#loc8)
    cf.cond_br %1, ^bb1, ^bb2 loc(#loc8)
  ^bb1:  // pred: ^bb0
    %c0_i32 = arith.constant 0 : i32 loc(#loc9)
    %c32000_i32 = arith.constant 32000 : i32 loc(#loc9)
    %c32768_i32 = arith.constant 32768 : i32 loc(#loc9)
    %2 = arith.bitcast %c0_i32 : i32 to i32 loc(#loc9)
    %3 = arith.bitcast %c32000_i32 : i32 to i32 loc(#loc9)
    %4 = arith.bitcast %c32768_i32 : i32 to i32 loc(#loc9)
    %5 = ub.poison : i32 loc(#loc9)
    scf.for %i = %2 to %3 step %4  : i32 {
      %o_v = tt.make_range {end = 32768 : i32, start = 0 : i32} : tensor<32768xi32> loc(#loc78)
      %o_v_27 = tt.splat %i : i32 -> tensor<32768xi32> loc(#loc79)
      %o_v_28 = arith.extsi %o_v_27 : tensor<32768xi32> to tensor<32768xi64> loc(#loc79)
      %o_v_29 = arith.extsi %o_v : tensor<32768xi32> to tensor<32768xi64> loc(#loc79)
      %o_v_30 = arith.addi %o_v_28, %o_v_29 : tensor<32768xi64> loc(#loc79)
      %o_v_31 = arith.constant 2147483647 : i64 loc(#loc79)
      %o_v_32 = arith.constant -2147483648 : i64 loc(#loc79)
      %o_v_33 = arith.constant dense<2147483647> : tensor<32768xi64> loc(#loc79)
      %o_v_34 = arith.cmpi sle, %o_v_30, %o_v_33 : tensor<32768xi64> loc(#loc79)
      %o_v_35 = arith.constant dense<-2147483648> : tensor<32768xi64> loc(#loc79)
      %o_v_36 = arith.cmpi sge, %o_v_30, %o_v_35 : tensor<32768xi64> loc(#loc79)
      %o_v_37 = arith.andi %o_v_34, %o_v_36 : tensor<32768xi1> loc(#loc79)
      %o_v_38 = arith.addi %o_v_27, %o_v : tensor<32768xi32> loc(#loc79)
      %c32000_i32_39 = arith.constant 32000 : i32 loc(#loc12)
      %cst = arith.constant dense<32000> : tensor<32768xi32> loc(#loc12)
      %13 = arith.cmpi slt, %o_v_38, %cst : tensor<32768xi32> loc(#loc12)
      %14 = tt.splat %logits_5 : !tt.ptr<bf16> -> tensor<32768x!tt.ptr<bf16>> loc(#loc13)
      %15 = tt.addptr %14, %o_v_38 : tensor<32768x!tt.ptr<bf16>>, tensor<32768xi32> loc(#loc13)
      %cst_40 = arith.constant 0.000000e+00 : f32 loc(#loc14)
      %cst_41 = arith.constant dense<0.000000e+00> : tensor<32768xf32> loc(#loc14)
      %16 = arith.truncf %cst_41 : tensor<32768xf32> to tensor<32768xbf16> loc(#loc14)
      tt.store %15, %16, %13 : tensor<32768x!tt.ptr<bf16>> loc(#loc14)
    } loc(#loc9)
    tt.return loc(#loc15)
  ^bb2:  // pred: ^bb0
    cf.br ^bb4 loc(#loc16)
  ^bb3:  // no predecessors
    cf.br ^bb4 loc(#loc16)
  ^bb4:  // 2 preds: ^bb2, ^bb3
    %b_l = tt.addptr %logits_5, %b_y_1 : !tt.ptr<bf16>, i64 loc(#loc80)
    %b_l_6 = tt.load %b_l : !tt.ptr<bf16> loc(#loc81)
    %b_l_7 = arith.extf %b_l_6 : bf16 to f32 loc(#loc82)
    %b_l_8 = arith.constant 1.000000e+00 : f32 loc(#loc83)
    %b_l_9 = arith.constant 1.000000e+00 : f32 loc(#loc83)
    %b_l_10 = arith.mulf %b_l_7, %b_l_9 : f32 loc(#loc83)
    %b_lse = tt.addptr %lse, %i_n_0 : !tt.ptr<f32>, i64 loc(#loc84)
    %b_lse_11 = tt.load %b_lse : !tt.ptr<f32> loc(#loc85)
    %b_loss = arith.subf %b_lse_11, %b_l_10 : f32 loc(#loc86)
    %b_z = arith.constant 0.000000e+00 : f32 loc(#loc87)
    %eps = arith.constant 0.000000e+00 : f32 loc(#loc88)
    gpu.barrier loc(#loc26)
    %c0_i32_12 = arith.constant 0 : i32 loc(#loc27)
    %c1_i32 = arith.constant 1 : i32 loc(#loc27)
    %6 = arith.bitcast %c0_i32_12 : i32 to i32 loc(#loc27)
    %7 = arith.bitcast %NV : i32 to i32 loc(#loc27)
    %8 = arith.bitcast %c1_i32 : i32 to i32 loc(#loc27)
    %9 = ub.poison : i32 loc(#loc27)
    scf.for %iv = %6 to %7 step %8  : i32 {
      %o_v = arith.constant 32768 : i32 loc(#loc89)
      %o_v_27 = arith.constant 32768 : i32 loc(#loc89)
      %o_v_28 = arith.extsi %iv : i32 to i64 loc(#loc89)
      %o_v_29 = arith.extsi %o_v_27 : i32 to i64 loc(#loc89)
      %o_v_30 = arith.muli %o_v_28, %o_v_29 : i64 loc(#loc89)
      %o_v_31 = arith.constant 2147483647 : i64 loc(#loc89)
      %o_v_32 = arith.constant -2147483648 : i64 loc(#loc89)
      %o_v_33 = arith.cmpi sle, %o_v_30, %o_v_31 : i64 loc(#loc89)
      %o_v_34 = arith.cmpi sge, %o_v_30, %o_v_32 : i64 loc(#loc89)
      %o_v_35 = arith.andi %o_v_33, %o_v_34 : i1 loc(#loc89)
      %o_v_36 = arith.muli %iv, %o_v_27 : i32 loc(#loc89)
      %o_v_37 = tt.make_range {end = 32768 : i32, start = 0 : i32} : tensor<32768xi32> loc(#loc90)
      %o_v_38 = tt.splat %o_v_36 : i32 -> tensor<32768xi32> loc(#loc91)
      %o_v_39 = arith.extsi %o_v_38 : tensor<32768xi32> to tensor<32768xi64> loc(#loc91)
      %o_v_40 = arith.extsi %o_v_37 : tensor<32768xi32> to tensor<32768xi64> loc(#loc91)
      %o_v_41 = arith.addi %o_v_39, %o_v_40 : tensor<32768xi64> loc(#loc91)
      %o_v_42 = arith.constant 2147483647 : i64 loc(#loc91)
      %o_v_43 = arith.constant -2147483648 : i64 loc(#loc91)
      %o_v_44 = arith.constant dense<2147483647> : tensor<32768xi64> loc(#loc91)
      %o_v_45 = arith.cmpi sle, %o_v_41, %o_v_44 : tensor<32768xi64> loc(#loc91)
      %o_v_46 = arith.constant dense<-2147483648> : tensor<32768xi64> loc(#loc91)
      %o_v_47 = arith.cmpi sge, %o_v_41, %o_v_46 : tensor<32768xi64> loc(#loc91)
      %o_v_48 = arith.andi %o_v_45, %o_v_47 : tensor<32768xi1> loc(#loc91)
      %o_v_49 = arith.addi %o_v_38, %o_v_37 : tensor<32768xi32> loc(#loc91)
      %b_logits = arith.constant 32000 : i32 loc(#loc92)
      %b_logits_50 = arith.constant dense<32000> : tensor<32768xi32> loc(#loc92)
      %b_logits_51 = arith.cmpi slt, %o_v_49, %b_logits_50 : tensor<32768xi32> loc(#loc92)
      %b_logits_52 = tt.splat %logits_5 : !tt.ptr<bf16> -> tensor<32768x!tt.ptr<bf16>> loc(#loc93)
      %b_logits_53 = tt.addptr %b_logits_52, %o_v_49 : tensor<32768x!tt.ptr<bf16>>, tensor<32768xi32> loc(#loc93)
      %b_logits_54 = arith.constant 0xFF800000 : f32 loc(#loc94)
      %b_logits_55 = arith.constant dense<0xFF800000> : tensor<32768xf32> loc(#loc94)
      %b_logits_56 = arith.truncf %b_logits_55 : tensor<32768xf32> to tensor<32768xbf16> loc(#loc94)
      %b_logits_57 = tt.load %b_logits_53, %b_logits_51, %b_logits_56 : tensor<32768x!tt.ptr<bf16>> loc(#loc94)
      %b_logits_58 = arith.extf %b_logits_57 : tensor<32768xbf16> to tensor<32768xf32> loc(#loc95)
      %b_logits_59 = arith.constant 1.000000e+00 : f32 loc(#loc96)
      %b_logits_60 = arith.constant 1.000000e+00 : f32 loc(#loc96)
      %b_logits_61 = arith.constant dense<1.000000e+00> : tensor<32768xf32> loc(#loc96)
      %b_logits_62 = arith.mulf %b_logits_58, %b_logits_61 : tensor<32768xf32> loc(#loc96)
      %b_p = tt.splat %b_lse_11 : f32 -> tensor<32768xf32> loc(#loc97)
      %b_p_63 = arith.subf %b_logits_62, %b_p : tensor<32768xf32> loc(#loc97)
      %b_p_64 = tt.call @fla.ops.utils.op.exp__fp32S32768S__(%b_p_63) : (tensor<32768xf32>) -> tensor<32768xf32> loc(#loc98)
      %b_p_65 = arith.constant dense<0.000000e+00> : tensor<32768xf32> loc(#loc99)
      %b_p_66 = arith.subf %b_p_64, %b_p_65 : tensor<32768xf32> loc(#loc99)
      %b_p_67 = arith.constant 1.000000e+00 : f32 loc(#loc100)
      %b_p_68 = arith.constant 1.000000e+00 : f32 loc(#loc100)
      %b_p_69 = arith.constant dense<1.000000e+00> : tensor<32768xf32> loc(#loc100)
      %b_p_70 = arith.mulf %b_p_66, %b_p_69 : tensor<32768xf32> loc(#loc100)
      %b_p_71 = arith.sitofp %total : i32 to f32 loc(#loc101)
      %b_p_72 = tt.splat %b_p_71 : f32 -> tensor<32768xf32> loc(#loc101)
      %b_p_73 = arith.divf %b_p_70, %b_p_72 : tensor<32768xf32> loc(#loc101)
      %c32000_i32_74 = arith.constant 32000 : i32 loc(#loc41)
      %cst = arith.constant dense<32000> : tensor<32768xi32> loc(#loc41)
      %13 = arith.cmpi slt, %o_v_49, %cst : tensor<32768xi32> loc(#loc41)
      %14 = tt.splat %logits_5 : !tt.ptr<bf16> -> tensor<32768x!tt.ptr<bf16>> loc(#loc42)
      %15 = tt.addptr %14, %o_v_49 : tensor<32768x!tt.ptr<bf16>>, tensor<32768xi32> loc(#loc42)
      %16 = arith.truncf %b_p_73 : tensor<32768xf32> to tensor<32768xbf16> loc(#loc43)
      tt.store %15, %16, %13 : tensor<32768x!tt.ptr<bf16>> loc(#loc43)
      gpu.barrier loc(#loc44)
    } loc(#loc27)
    %b_l_13 = tt.addptr %logits_5, %b_y_1 : !tt.ptr<bf16>, i64 loc(#loc102)
    %b_l_14 = tt.load %b_l_13 : !tt.ptr<bf16> loc(#loc103)
    %b_sc_factor = arith.constant 1.000000e+00 : f32 loc(#loc104)
    %b_loss_15 = arith.sitofp %total : i32 to f32 loc(#loc105)
    %b_loss_16 = arith.divf %b_loss, %b_loss_15 : f32 loc(#loc105)
    %b_l_17 = arith.constant -1.000000e+00 : f32 loc(#loc106)
    %b_l_18 = arith.constant -1.000000e+00 : f32 loc(#loc106)
    %b_l_19 = arith.sitofp %total : i32 to f32 loc(#loc106)
    %b_l_20 = arith.divf %b_l_18, %b_l_19 : f32 loc(#loc106)
    %b_l_21 = arith.constant 1.000000e+00 : f32 loc(#loc107)
    %b_l_22 = arith.constant 1.000000e+00 : f32 loc(#loc107)
    %b_l_23 = arith.mulf %b_l_20, %b_l_22 : f32 loc(#loc107)
    %b_l_24 = arith.mulf %b_l_23, %b_sc_factor : f32 loc(#loc108)
    %b_l_25 = arith.extf %b_l_14 : bf16 to f32 loc(#loc109)
    %b_l_26 = arith.addf %b_l_25, %b_l_24 : f32 loc(#loc109)
    %10 = tt.addptr %loss, %i_n_0 : !tt.ptr<f32>, i64 loc(#loc53)
    tt.store %10, %b_loss_16 : !tt.ptr<f32> loc(#loc54)
    %11 = tt.addptr %logits_5, %b_y_1 : !tt.ptr<bf16>, i64 loc(#loc55)
    %12 = arith.truncf %b_l_26 : f32 to bf16 loc(#loc56)
    tt.store %11, %12 : !tt.ptr<bf16> loc(#loc56)
    tt.return loc(#loc57)
  } loc(#loc)
  tt.func private @"triton.language.standard.cdiv____(0,)cconstexpr_32000__(1,)cconstexpr_32768_"() -> i32 attributes {noinline = false} {
    %c1_i32 = arith.constant 1 : i32 loc(#loc59)
    tt.return %c1_i32 : i32 loc(#loc59)
  ^bb1:  // no predecessors
    %0 = ub.poison : i32 loc(#loc60)
    tt.return %0 : i32 loc(#loc60)
  } loc(#loc58)
  tt.func private @fla.ops.utils.op.exp__fp32S32768S__(%x: tensor<32768xf32> loc("x"(#loc61))) -> tensor<32768xf32> attributes {noinline = false} {
    %0 = math.exp %x : tensor<32768xf32> loc(#loc62)
    tt.return %0 : tensor<32768xf32> loc(#loc63)
  ^bb1:  // no predecessors
    %1 = ub.poison : tensor<32768xf32> loc(#loc64)
    tt.return %1 : tensor<32768xf32> loc(#loc64)
  } loc(#loc61)
} loc(#loc)
#loc1 = loc("/NHNHOME/WORKSPACE/26msit001_A/jinhyeok/TTT_camera_embedding/.venv_llm/lib/python3.12/site-packages/fla/modules/fused_linear_cross_entropy.py":140:24)
#loc2 = loc("/NHNHOME/WORKSPACE/26msit001_A/jinhyeok/TTT_camera_embedding/.venv_llm/lib/python3.12/site-packages/fla/modules/fused_linear_cross_entropy.py":140:30)
#loc3 = loc("/NHNHOME/WORKSPACE/26msit001_A/jinhyeok/TTT_camera_embedding/.venv_llm/lib/python3.12/site-packages/fla/modules/fused_linear_cross_entropy.py":141:20)
#loc4 = loc("/NHNHOME/WORKSPACE/26msit001_A/jinhyeok/TTT_camera_embedding/.venv_llm/lib/python3.12/site-packages/fla/modules/fused_linear_cross_entropy.py":144:27)
#loc5 = loc("/NHNHOME/WORKSPACE/26msit001_A/jinhyeok/TTT_camera_embedding/.venv_llm/lib/python3.12/site-packages/fla/modules/fused_linear_cross_entropy.py":144:18)
#loc6 = loc("/NHNHOME/WORKSPACE/26msit001_A/jinhyeok/TTT_camera_embedding/.venv_llm/lib/python3.12/site-packages/fla/modules/fused_linear_cross_entropy.py":147:20)
#loc7 = loc("/NHNHOME/WORKSPACE/26msit001_A/jinhyeok/TTT_camera_embedding/.venv_llm/lib/python3.12/site-packages/fla/modules/fused_linear_cross_entropy.py":147:14)
#loc8 = loc("/NHNHOME/WORKSPACE/26msit001_A/jinhyeok/TTT_camera_embedding/.venv_llm/lib/python3.12/site-packages/fla/modules/fused_linear_cross_entropy.py":149:14)
#loc9 = loc("/NHNHOME/WORKSPACE/26msit001_A/jinhyeok/TTT_camera_embedding/.venv_llm/lib/python3.12/site-packages/fla/modules/fused_linear_cross_entropy.py":151:29)
#loc10 = loc("/NHNHOME/WORKSPACE/26msit001_A/jinhyeok/TTT_camera_embedding/.venv_llm/lib/python3.12/site-packages/fla/modules/fused_linear_cross_entropy.py":152:35)
#loc11 = loc("/NHNHOME/WORKSPACE/26msit001_A/jinhyeok/TTT_camera_embedding/.venv_llm/lib/python3.12/site-packages/fla/modules/fused_linear_cross_entropy.py":152:22)
#loc12 = loc("/NHNHOME/WORKSPACE/26msit001_A/jinhyeok/TTT_camera_embedding/.venv_llm/lib/python3.12/site-packages/fla/modules/fused_linear_cross_entropy.py":153:51)
#loc13 = loc("/NHNHOME/WORKSPACE/26msit001_A/jinhyeok/TTT_camera_embedding/.venv_llm/lib/python3.12/site-packages/fla/modules/fused_linear_cross_entropy.py":153:30)
#loc14 = loc("/NHNHOME/WORKSPACE/26msit001_A/jinhyeok/TTT_camera_embedding/.venv_llm/lib/python3.12/site-packages/fla/modules/fused_linear_cross_entropy.py":153:35)
#loc15 = loc("/NHNHOME/WORKSPACE/26msit001_A/jinhyeok/TTT_camera_embedding/.venv_llm/lib/python3.12/site-packages/fla/modules/fused_linear_cross_entropy.py":154:8)
#loc16 = loc(unknown)
#loc17 = loc("/NHNHOME/WORKSPACE/26msit001_A/jinhyeok/TTT_camera_embedding/.venv_llm/lib/python3.12/site-packages/fla/modules/fused_linear_cross_entropy.py":161:27)
#loc18 = loc("/NHNHOME/WORKSPACE/26msit001_A/jinhyeok/TTT_camera_embedding/.venv_llm/lib/python3.12/site-packages/fla/modules/fused_linear_cross_entropy.py":161:18)
#loc19 = loc("/NHNHOME/WORKSPACE/26msit001_A/jinhyeok/TTT_camera_embedding/.venv_llm/lib/python3.12/site-packages/fla/modules/fused_linear_cross_entropy.py":161:35)
#loc20 = loc("/NHNHOME/WORKSPACE/26msit001_A/jinhyeok/TTT_camera_embedding/.venv_llm/lib/python3.12/site-packages/fla/modules/fused_linear_cross_entropy.py":161:49)
#loc21 = loc("/NHNHOME/WORKSPACE/26msit001_A/jinhyeok/TTT_camera_embedding/.venv_llm/lib/python3.12/site-packages/fla/modules/fused_linear_cross_entropy.py":167:26)
#loc22 = loc("/NHNHOME/WORKSPACE/26msit001_A/jinhyeok/TTT_camera_embedding/.venv_llm/lib/python3.12/site-packages/fla/modules/fused_linear_cross_entropy.py":167:20)
#loc23 = loc("/NHNHOME/WORKSPACE/26msit001_A/jinhyeok/TTT_camera_embedding/.venv_llm/lib/python3.12/site-packages/fla/modules/fused_linear_cross_entropy.py":171:21)
#loc24 = loc("/NHNHOME/WORKSPACE/26msit001_A/jinhyeok/TTT_camera_embedding/.venv_llm/lib/python3.12/site-packages/fla/modules/fused_linear_cross_entropy.py":175:10)
#loc25 = loc("/NHNHOME/WORKSPACE/26msit001_A/jinhyeok/TTT_camera_embedding/.venv_llm/lib/python3.12/site-packages/fla/modules/fused_linear_cross_entropy.py":176:10)
#loc26 = loc("/NHNHOME/WORKSPACE/26msit001_A/jinhyeok/TTT_camera_embedding/.venv_llm/lib/python3.12/site-packages/fla/modules/fused_linear_cross_entropy.py":180:4)
#loc27 = loc("/NHNHOME/WORKSPACE/26msit001_A/jinhyeok/TTT_camera_embedding/.venv_llm/lib/python3.12/site-packages/fla/modules/fused_linear_cross_entropy.py":190:23)
#loc28 = loc("/NHNHOME/WORKSPACE/26msit001_A/jinhyeok/TTT_camera_embedding/.venv_llm/lib/python3.12/site-packages/fla/modules/fused_linear_cross_entropy.py":191:19)
#loc29 = loc("/NHNHOME/WORKSPACE/26msit001_A/jinhyeok/TTT_camera_embedding/.venv_llm/lib/python3.12/site-packages/fla/modules/fused_linear_cross_entropy.py":191:37)
#loc30 = loc("/NHNHOME/WORKSPACE/26msit001_A/jinhyeok/TTT_camera_embedding/.venv_llm/lib/python3.12/site-packages/fla/modules/fused_linear_cross_entropy.py":191:24)
#loc31 = loc("/NHNHOME/WORKSPACE/26msit001_A/jinhyeok/TTT_camera_embedding/.venv_llm/lib/python3.12/site-packages/fla/modules/fused_linear_cross_entropy.py":192:52)
#loc32 = loc("/NHNHOME/WORKSPACE/26msit001_A/jinhyeok/TTT_camera_embedding/.venv_llm/lib/python3.12/site-packages/fla/modules/fused_linear_cross_entropy.py":192:36)
#loc33 = loc("/NHNHOME/WORKSPACE/26msit001_A/jinhyeok/TTT_camera_embedding/.venv_llm/lib/python3.12/site-packages/fla/modules/fused_linear_cross_entropy.py":192:27)
#loc34 = loc("/NHNHOME/WORKSPACE/26msit001_A/jinhyeok/TTT_camera_embedding/.venv_llm/lib/python3.12/site-packages/fla/modules/fused_linear_cross_entropy.py":192:79)
#loc35 = loc("/NHNHOME/WORKSPACE/26msit001_A/jinhyeok/TTT_camera_embedding/.venv_llm/lib/python3.12/site-packages/fla/modules/fused_linear_cross_entropy.py":192:93)
#loc36 = loc("/NHNHOME/WORKSPACE/26msit001_A/jinhyeok/TTT_camera_embedding/.venv_llm/lib/python3.12/site-packages/fla/modules/fused_linear_cross_entropy.py":201:30)
#loc37 = loc("/NHNHOME/WORKSPACE/26msit001_A/jinhyeok/TTT_camera_embedding/.venv_llm/lib/python3.12/site-packages/fla/modules/fused_linear_cross_entropy.py":201:19)
#loc38 = loc("/NHNHOME/WORKSPACE/26msit001_A/jinhyeok/TTT_camera_embedding/.venv_llm/lib/python3.12/site-packages/fla/modules/fused_linear_cross_entropy.py":201:39)
#loc39 = loc("/NHNHOME/WORKSPACE/26msit001_A/jinhyeok/TTT_camera_embedding/.venv_llm/lib/python3.12/site-packages/fla/modules/fused_linear_cross_entropy.py":201:46)
#loc40 = loc("/NHNHOME/WORKSPACE/26msit001_A/jinhyeok/TTT_camera_embedding/.venv_llm/lib/python3.12/site-packages/fla/modules/fused_linear_cross_entropy.py":206:24)
#loc41 = loc("/NHNHOME/WORKSPACE/26msit001_A/jinhyeok/TTT_camera_embedding/.venv_llm/lib/python3.12/site-packages/fla/modules/fused_linear_cross_entropy.py":207:47)
#loc42 = loc("/NHNHOME/WORKSPACE/26msit001_A/jinhyeok/TTT_camera_embedding/.venv_llm/lib/python3.12/site-packages/fla/modules/fused_linear_cross_entropy.py":207:26)
#loc43 = loc("/NHNHOME/WORKSPACE/26msit001_A/jinhyeok/TTT_camera_embedding/.venv_llm/lib/python3.12/site-packages/fla/modules/fused_linear_cross_entropy.py":207:31)
#loc44 = loc("/NHNHOME/WORKSPACE/26msit001_A/jinhyeok/TTT_camera_embedding/.venv_llm/lib/python3.12/site-packages/fla/modules/fused_linear_cross_entropy.py":209:8)
#loc45 = loc("/NHNHOME/WORKSPACE/26msit001_A/jinhyeok/TTT_camera_embedding/.venv_llm/lib/python3.12/site-packages/fla/modules/fused_linear_cross_entropy.py":225:27)
#loc46 = loc("/NHNHOME/WORKSPACE/26msit001_A/jinhyeok/TTT_camera_embedding/.venv_llm/lib/python3.12/site-packages/fla/modules/fused_linear_cross_entropy.py":225:18)
#loc47 = loc("/NHNHOME/WORKSPACE/26msit001_A/jinhyeok/TTT_camera_embedding/.venv_llm/lib/python3.12/site-packages/fla/modules/fused_linear_cross_entropy.py":231:22)
#loc48 = loc("/NHNHOME/WORKSPACE/26msit001_A/jinhyeok/TTT_camera_embedding/.venv_llm/lib/python3.12/site-packages/fla/modules/fused_linear_cross_entropy.py":235:26)
#loc49 = loc("/NHNHOME/WORKSPACE/26msit001_A/jinhyeok/TTT_camera_embedding/.venv_llm/lib/python3.12/site-packages/fla/modules/fused_linear_cross_entropy.py":236:39)
#loc50 = loc("/NHNHOME/WORKSPACE/26msit001_A/jinhyeok/TTT_camera_embedding/.venv_llm/lib/python3.12/site-packages/fla/modules/fused_linear_cross_entropy.py":236:47)
#loc51 = loc("/NHNHOME/WORKSPACE/26msit001_A/jinhyeok/TTT_camera_embedding/.venv_llm/lib/python3.12/site-packages/fla/modules/fused_linear_cross_entropy.py":236:61)
#loc52 = loc("/NHNHOME/WORKSPACE/26msit001_A/jinhyeok/TTT_camera_embedding/.venv_llm/lib/python3.12/site-packages/fla/modules/fused_linear_cross_entropy.py":236:15)
#loc53 = loc("/NHNHOME/WORKSPACE/26msit001_A/jinhyeok/TTT_camera_embedding/.venv_llm/lib/python3.12/site-packages/fla/modules/fused_linear_cross_entropy.py":240:20)
#loc54 = loc("/NHNHOME/WORKSPACE/26msit001_A/jinhyeok/TTT_camera_embedding/.venv_llm/lib/python3.12/site-packages/fla/modules/fused_linear_cross_entropy.py":240:25)
#loc55 = loc("/NHNHOME/WORKSPACE/26msit001_A/jinhyeok/TTT_camera_embedding/.venv_llm/lib/python3.12/site-packages/fla/modules/fused_linear_cross_entropy.py":241:22)
#loc56 = loc("/NHNHOME/WORKSPACE/26msit001_A/jinhyeok/TTT_camera_embedding/.venv_llm/lib/python3.12/site-packages/fla/modules/fused_linear_cross_entropy.py":241:27)
#loc57 = loc("/NHNHOME/WORKSPACE/26msit001_A/jinhyeok/TTT_camera_embedding/.venv_llm/lib/python3.12/site-packages/fla/modules/fused_linear_cross_entropy.py":241:4)
#loc58 = loc("/NHNHOME/WORKSPACE/26msit001_A/jinhyeok/TTT_camera_embedding/.venv_llm/lib/python3.12/site-packages/triton/language/standard.py":32:0)
#loc59 = loc("/NHNHOME/WORKSPACE/26msit001_A/jinhyeok/TTT_camera_embedding/.venv_llm/lib/python3.12/site-packages/triton/language/standard.py":41:11)
#loc60 = loc("/NHNHOME/WORKSPACE/26msit001_A/jinhyeok/TTT_camera_embedding/.venv_llm/lib/python3.12/site-packages/triton/language/standard.py":41:4)
#loc62 = loc("/NHNHOME/WORKSPACE/26msit001_A/jinhyeok/TTT_camera_embedding/.venv_llm/lib/python3.12/site-packages/fla/ops/utils/op.py":29:26)
#loc63 = loc("/NHNHOME/WORKSPACE/26msit001_A/jinhyeok/TTT_camera_embedding/.venv_llm/lib/python3.12/site-packages/fla/ops/utils/op.py":29:19)
#loc64 = loc("/NHNHOME/WORKSPACE/26msit001_A/jinhyeok/TTT_camera_embedding/.venv_llm/lib/python3.12/site-packages/fla/ops/utils/op.py":29:12)
#loc71 = loc("i_n"(#loc1))
#loc72 = loc("i_n"(#loc2))
#loc73 = loc("NV"(#loc3))
#loc74 = loc("b_y"(#loc4))
#loc75 = loc("b_y"(#loc5))
#loc76 = loc("logits"(#loc6))
#loc77 = loc("logits"(#loc7))
#loc78 = loc("o_v"(#loc10))
#loc79 = loc("o_v"(#loc11))
#loc80 = loc("b_l"(#loc17))
#loc81 = loc("b_l"(#loc18))
#loc82 = loc("b_l"(#loc19))
#loc83 = loc("b_l"(#loc20))
#loc84 = loc("b_lse"(#loc21))
#loc85 = loc("b_lse"(#loc22))
#loc86 = loc("b_loss"(#loc23))
#loc87 = loc("b_z"(#loc24))
#loc88 = loc("eps"(#loc25))
#loc89 = loc("o_v"(#loc28))
#loc90 = loc("o_v"(#loc29))
#loc91 = loc("o_v"(#loc30))
#loc92 = loc("b_logits"(#loc31))
#loc93 = loc("b_logits"(#loc32))
#loc94 = loc("b_logits"(#loc33))
#loc95 = loc("b_logits"(#loc34))
#loc96 = loc("b_logits"(#loc35))
#loc97 = loc("b_p"(#loc36))
#loc98 = loc("b_p"(#loc37))
#loc99 = loc("b_p"(#loc38))
#loc100 = loc("b_p"(#loc39))
#loc101 = loc("b_p"(#loc40))
#loc102 = loc("b_l"(#loc45))
#loc103 = loc("b_l"(#loc46))
#loc104 = loc("b_sc_factor"(#loc47))
#loc105 = loc("b_loss"(#loc48))
#loc106 = loc("b_l"(#loc49))
#loc107 = loc("b_l"(#loc50))
#loc108 = loc("b_l"(#loc51))
#loc109 = loc("b_l"(#loc52))
