#loc = loc("/NHNHOME/WORKSPACE/26msit001_A/jinhyeok/loop_TTT/lact/.cache_inductor_llm/gg/cggb4ugzspqpqifoegimazjnlav5hwl6nduvqsibhsqlttcwj4ks.py":18:0)
#loc64 = loc("in_ptr0"(#loc))
#loc65 = loc("in_ptr1"(#loc))
#loc66 = loc("in_ptr2"(#loc))
#loc67 = loc("in_ptr3"(#loc))
#loc68 = loc("in_ptr4"(#loc))
#loc69 = loc("in_ptr5"(#loc))
#loc70 = loc("in_ptr6"(#loc))
#loc71 = loc("in_ptr7"(#loc))
#loc72 = loc("in_ptr8"(#loc))
#loc73 = loc("out_ptr0"(#loc))
#loc74 = loc("xnumel"(#loc))
module {
  tt.func public @triton_poi_fused_add_div_expand_slice_backward_38(%in_ptr0: !tt.ptr<f32> {tt.divisibility = 16 : i32} loc("in_ptr0"(#loc)), %in_ptr1: !tt.ptr<f32> {tt.divisibility = 16 : i32} loc("in_ptr1"(#loc)), %in_ptr2: !tt.ptr<f32> {tt.divisibility = 16 : i32} loc("in_ptr2"(#loc)), %in_ptr3: !tt.ptr<f32> {tt.divisibility = 16 : i32} loc("in_ptr3"(#loc)), %in_ptr4: !tt.ptr<f32> {tt.divisibility = 16 : i32} loc("in_ptr4"(#loc)), %in_ptr5: !tt.ptr<f32> {tt.divisibility = 16 : i32} loc("in_ptr5"(#loc)), %in_ptr6: !tt.ptr<f32> {tt.divisibility = 16 : i32} loc("in_ptr6"(#loc)), %in_ptr7: !tt.ptr<f32> {tt.divisibility = 16 : i32} loc("in_ptr7"(#loc)), %in_ptr8: !tt.ptr<f32> {tt.divisibility = 16 : i32} loc("in_ptr8"(#loc)), %out_ptr0: !tt.ptr<f32> {tt.divisibility = 16 : i32} loc("out_ptr0"(#loc)), %xnumel: i32 {tt.divisibility = 16 : i32} loc("xnumel"(#loc))) attributes {noinline = false} {
    %xnumel_0 = arith.constant 32768 : i32 loc(#loc75)
    %xoffset = tt.get_program_id x : i32 loc(#loc76)
    %xoffset_1 = arith.constant 128 : i32 loc(#loc77)
    %xoffset_2 = arith.constant 128 : i32 loc(#loc77)
    %xoffset_3 = arith.muli %xoffset, %xoffset_2 : i32 loc(#loc77)
    %xindex = tt.make_range {end = 128 : i32, start = 0 : i32} : tensor<128xi32> loc(#loc78)
    %xindex_4 = tt.splat %xoffset_3 : i32 -> tensor<128xi32> loc(#loc79)
    %xindex_5 = arith.addi %xindex_4, %xindex : tensor<128xi32> loc(#loc79)
    %xmask = arith.constant true loc(#loc80)
    %xmask_6 = arith.constant dense<true> : tensor<128xi1> loc(#loc80)
    %x0 = arith.constant 4096 : i32 loc(#loc81)
    %x0_7 = arith.constant 4096 : i32 loc(#loc81)
    %x0_8 = arith.constant dense<4096> : tensor<128xi32> loc(#loc81)
    %x0_9 = arith.remsi %xindex_5, %x0_8 : tensor<128xi32> loc(#loc81)
    %x1 = arith.constant 4096 : i32 loc(#loc82)
    %x1_10 = arith.constant 4096 : i32 loc(#loc82)
    %x1_11 = arith.constant dense<4096> : tensor<128xi32> loc(#loc82)
    %x1_12 = arith.divsi %xindex_5, %x1_11 : tensor<128xi32> loc(#loc82)
    %tmp1 = arith.constant 2048 : i64 loc(#loc83)
    %tmp1_13 = arith.constant dense<2048> : tensor<1xi64> loc(#loc83)
    %tmp2 = arith.extsi %x0_9 : tensor<128xi32> to tensor<128xi64> loc(#loc84)
    %tmp2_14 = arith.constant dense<2048> : tensor<128xi64> loc(#loc84)
    %tmp2_15 = arith.cmpi sge, %tmp2, %tmp2_14 : tensor<128xi64> loc(#loc84)
    %tmp3 = arith.constant 3072 : i64 loc(#loc85)
    %tmp3_16 = arith.constant dense<3072> : tensor<1xi64> loc(#loc85)
    %tmp4 = arith.extsi %x0_9 : tensor<128xi32> to tensor<128xi64> loc(#loc86)
    %tmp4_17 = arith.constant dense<3072> : tensor<128xi64> loc(#loc86)
    %tmp4_18 = arith.cmpi slt, %tmp4, %tmp4_17 : tensor<128xi64> loc(#loc86)
    %tmp5 = arith.andi %tmp2_15, %tmp4_18 : tensor<128xi1> loc(#loc87)
    %tmp6 = tt.splat %in_ptr0 : !tt.ptr<f32> -> tensor<128x!tt.ptr<f32>> loc(#loc88)
    %tmp6_19 = tt.addptr %tmp6, %x1_12 : tensor<128x!tt.ptr<f32>>, tensor<128xi32> loc(#loc88)
    %tmp6_20 = arith.constant 0.000000e+00 : f32 loc(#loc89)
    %tmp6_21 = arith.constant dense<0.000000e+00> : tensor<128xf32> loc(#loc89)
    %tmp6_22 = tt.load %tmp6_19, %tmp5, %tmp6_21 evictionPolicy = evict_last : tensor<128x!tt.ptr<f32>> loc(#loc89)
    %tmp7 = tt.splat %in_ptr1 : !tt.ptr<f32> -> tensor<128x!tt.ptr<f32>> loc(#loc90)
    %tmp7_23 = tt.addptr %tmp7, %x1_12 : tensor<128x!tt.ptr<f32>>, tensor<128xi32> loc(#loc90)
    %tmp7_24 = arith.constant 0.000000e+00 : f32 loc(#loc91)
    %tmp7_25 = arith.constant dense<0.000000e+00> : tensor<128xf32> loc(#loc91)
    %tmp7_26 = tt.load %tmp7_23, %tmp5, %tmp7_25 evictionPolicy = evict_last : tensor<128x!tt.ptr<f32>> loc(#loc91)
    %tmp8 = arith.addf %tmp6_22, %tmp7_26 : tensor<128xf32> loc(#loc92)
    %tmp9 = tt.splat %in_ptr2 : !tt.ptr<f32> -> tensor<128x!tt.ptr<f32>> loc(#loc93)
    %tmp9_27 = tt.addptr %tmp9, %x1_12 : tensor<128x!tt.ptr<f32>>, tensor<128xi32> loc(#loc93)
    %tmp9_28 = arith.constant 0.000000e+00 : f32 loc(#loc94)
    %tmp9_29 = arith.constant dense<0.000000e+00> : tensor<128xf32> loc(#loc94)
    %tmp9_30 = tt.load %tmp9_27, %tmp5, %tmp9_29 evictionPolicy = evict_last : tensor<128x!tt.ptr<f32>> loc(#loc94)
    %tmp10 = arith.addf %tmp8, %tmp9_30 : tensor<128xf32> loc(#loc95)
    %tmp11 = arith.constant 9.765625E-4 : f32 loc(#loc96)
    %tmp12 = arith.constant dense<9.765625E-4> : tensor<128xf32> loc(#loc97)
    %tmp12_31 = arith.mulf %tmp10, %tmp12 : tensor<128xf32> loc(#loc97)
    %tmp13 = arith.constant 0.000000e+00 : f32 loc(#loc98)
    %tmp13_32 = arith.constant dense<0.000000e+00> : tensor<128xf32> loc(#loc98)
    %tmp14 = arith.select %tmp5, %tmp12_31, %tmp13_32 : tensor<128xi1>, tensor<128xf32> loc(#loc99)
    %tmp15 = arith.constant 0.000000e+00 : f32 loc(#loc100)
    %tmp16 = arith.constant dense<0.000000e+00> : tensor<128xf32> loc(#loc101)
    %tmp16_33 = arith.select %tmp5, %tmp14, %tmp16 : tensor<128xi1>, tensor<128xf32> loc(#loc101)
    %tmp17 = arith.constant 1024 : i64 loc(#loc102)
    %tmp17_34 = arith.constant dense<1024> : tensor<1xi64> loc(#loc102)
    %tmp18 = arith.extsi %x0_9 : tensor<128xi32> to tensor<128xi64> loc(#loc103)
    %tmp18_35 = arith.constant dense<1024> : tensor<128xi64> loc(#loc103)
    %tmp18_36 = arith.cmpi sge, %tmp18, %tmp18_35 : tensor<128xi64> loc(#loc103)
    %tmp19 = arith.extsi %x0_9 : tensor<128xi32> to tensor<128xi64> loc(#loc104)
    %tmp19_37 = arith.constant dense<2048> : tensor<128xi64> loc(#loc104)
    %tmp19_38 = arith.cmpi slt, %tmp19, %tmp19_37 : tensor<128xi64> loc(#loc104)
    %tmp20 = arith.andi %tmp18_36, %tmp19_38 : tensor<128xi1> loc(#loc105)
    %tmp21 = tt.splat %in_ptr3 : !tt.ptr<f32> -> tensor<128x!tt.ptr<f32>> loc(#loc106)
    %tmp21_39 = tt.addptr %tmp21, %x1_12 : tensor<128x!tt.ptr<f32>>, tensor<128xi32> loc(#loc106)
    %tmp21_40 = arith.constant 0.000000e+00 : f32 loc(#loc107)
    %tmp21_41 = arith.constant dense<0.000000e+00> : tensor<128xf32> loc(#loc107)
    %tmp21_42 = tt.load %tmp21_39, %tmp20, %tmp21_41 evictionPolicy = evict_last : tensor<128x!tt.ptr<f32>> loc(#loc107)
    %tmp22 = tt.splat %in_ptr4 : !tt.ptr<f32> -> tensor<128x!tt.ptr<f32>> loc(#loc108)
    %tmp22_43 = tt.addptr %tmp22, %x1_12 : tensor<128x!tt.ptr<f32>>, tensor<128xi32> loc(#loc108)
    %tmp22_44 = arith.constant 0.000000e+00 : f32 loc(#loc109)
    %tmp22_45 = arith.constant dense<0.000000e+00> : tensor<128xf32> loc(#loc109)
    %tmp22_46 = tt.load %tmp22_43, %tmp20, %tmp22_45 evictionPolicy = evict_last : tensor<128x!tt.ptr<f32>> loc(#loc109)
    %tmp23 = arith.addf %tmp21_42, %tmp22_46 : tensor<128xf32> loc(#loc110)
    %tmp24 = tt.splat %in_ptr5 : !tt.ptr<f32> -> tensor<128x!tt.ptr<f32>> loc(#loc111)
    %tmp24_47 = tt.addptr %tmp24, %x1_12 : tensor<128x!tt.ptr<f32>>, tensor<128xi32> loc(#loc111)
    %tmp24_48 = arith.constant 0.000000e+00 : f32 loc(#loc112)
    %tmp24_49 = arith.constant dense<0.000000e+00> : tensor<128xf32> loc(#loc112)
    %tmp24_50 = tt.load %tmp24_47, %tmp20, %tmp24_49 evictionPolicy = evict_last : tensor<128x!tt.ptr<f32>> loc(#loc112)
    %tmp25 = arith.addf %tmp23, %tmp24_50 : tensor<128xf32> loc(#loc113)
    %tmp26 = arith.constant 9.765625E-4 : f32 loc(#loc114)
    %tmp27 = arith.constant dense<9.765625E-4> : tensor<128xf32> loc(#loc115)
    %tmp27_51 = arith.mulf %tmp25, %tmp27 : tensor<128xf32> loc(#loc115)
    %tmp28 = arith.constant 0.000000e+00 : f32 loc(#loc116)
    %tmp28_52 = arith.constant dense<0.000000e+00> : tensor<128xf32> loc(#loc116)
    %tmp29 = arith.select %tmp20, %tmp27_51, %tmp28_52 : tensor<128xi1>, tensor<128xf32> loc(#loc117)
    %tmp30 = arith.constant dense<0.000000e+00> : tensor<128xf32> loc(#loc118)
    %tmp30_53 = arith.select %tmp20, %tmp29, %tmp30 : tensor<128xi1>, tensor<128xf32> loc(#loc118)
    %tmp31 = arith.addf %tmp16_33, %tmp30_53 : tensor<128xf32> loc(#loc119)
    %tmp32 = arith.extsi %x0_9 : tensor<128xi32> to tensor<128xi64> loc(#loc120)
    %tmp32_54 = arith.constant dense<1024> : tensor<128xi64> loc(#loc120)
    %tmp32_55 = arith.cmpi slt, %tmp32, %tmp32_54 : tensor<128xi64> loc(#loc120)
    %tmp33 = tt.splat %in_ptr6 : !tt.ptr<f32> -> tensor<128x!tt.ptr<f32>> loc(#loc121)
    %tmp33_56 = tt.addptr %tmp33, %x1_12 : tensor<128x!tt.ptr<f32>>, tensor<128xi32> loc(#loc121)
    %tmp33_57 = arith.constant 0.000000e+00 : f32 loc(#loc122)
    %tmp33_58 = arith.constant dense<0.000000e+00> : tensor<128xf32> loc(#loc122)
    %tmp33_59 = tt.load %tmp33_56, %tmp32_55, %tmp33_58 evictionPolicy = evict_last : tensor<128x!tt.ptr<f32>> loc(#loc122)
    %tmp34 = tt.splat %in_ptr7 : !tt.ptr<f32> -> tensor<128x!tt.ptr<f32>> loc(#loc123)
    %tmp34_60 = tt.addptr %tmp34, %x1_12 : tensor<128x!tt.ptr<f32>>, tensor<128xi32> loc(#loc123)
    %tmp34_61 = arith.constant 0.000000e+00 : f32 loc(#loc124)
    %tmp34_62 = arith.constant dense<0.000000e+00> : tensor<128xf32> loc(#loc124)
    %tmp34_63 = tt.load %tmp34_60, %tmp32_55, %tmp34_62 evictionPolicy = evict_last : tensor<128x!tt.ptr<f32>> loc(#loc124)
    %tmp35 = arith.addf %tmp33_59, %tmp34_63 : tensor<128xf32> loc(#loc125)
    %tmp36 = tt.splat %in_ptr8 : !tt.ptr<f32> -> tensor<128x!tt.ptr<f32>> loc(#loc126)
    %tmp36_64 = tt.addptr %tmp36, %x1_12 : tensor<128x!tt.ptr<f32>>, tensor<128xi32> loc(#loc126)
    %tmp36_65 = arith.constant 0.000000e+00 : f32 loc(#loc127)
    %tmp36_66 = arith.constant dense<0.000000e+00> : tensor<128xf32> loc(#loc127)
    %tmp36_67 = tt.load %tmp36_64, %tmp32_55, %tmp36_66 evictionPolicy = evict_last : tensor<128x!tt.ptr<f32>> loc(#loc127)
    %tmp37 = arith.addf %tmp35, %tmp36_67 : tensor<128xf32> loc(#loc128)
    %tmp38 = arith.constant 9.765625E-4 : f32 loc(#loc129)
    %tmp39 = arith.constant dense<9.765625E-4> : tensor<128xf32> loc(#loc130)
    %tmp39_68 = arith.mulf %tmp37, %tmp39 : tensor<128xf32> loc(#loc130)
    %tmp40 = arith.constant 0.000000e+00 : f32 loc(#loc131)
    %tmp40_69 = arith.constant dense<0.000000e+00> : tensor<128xf32> loc(#loc131)
    %tmp41 = arith.select %tmp32_55, %tmp39_68, %tmp40_69 : tensor<128xi1>, tensor<128xf32> loc(#loc132)
    %tmp42 = arith.constant dense<0.000000e+00> : tensor<128xf32> loc(#loc133)
    %tmp42_70 = arith.select %tmp32_55, %tmp41, %tmp42 : tensor<128xi1>, tensor<128xf32> loc(#loc133)
    %tmp43 = arith.addf %tmp31, %tmp42_70 : tensor<128xf32> loc(#loc134)
    %0 = tt.splat %out_ptr0 : !tt.ptr<f32> -> tensor<128x!tt.ptr<f32>> loc(#loc61)
    %1 = tt.addptr %0, %xindex_5 : tensor<128x!tt.ptr<f32>>, tensor<128xi32> loc(#loc61)
    tt.store %1, %tmp43 : tensor<128x!tt.ptr<f32>> loc(#loc62)
    tt.return loc(#loc63)
  } loc(#loc)
} loc(#loc)
#loc1 = loc("/NHNHOME/WORKSPACE/26msit001_A/jinhyeok/loop_TTT/lact/.cache_inductor_llm/gg/cggb4ugzspqpqifoegimazjnlav5hwl6nduvqsibhsqlttcwj4ks.py":19:13)
#loc2 = loc("/NHNHOME/WORKSPACE/26msit001_A/jinhyeok/loop_TTT/lact/.cache_inductor_llm/gg/cggb4ugzspqpqifoegimazjnlav5hwl6nduvqsibhsqlttcwj4ks.py":20:28)
#loc3 = loc("/NHNHOME/WORKSPACE/26msit001_A/jinhyeok/loop_TTT/lact/.cache_inductor_llm/gg/cggb4ugzspqpqifoegimazjnlav5hwl6nduvqsibhsqlttcwj4ks.py":20:33)
#loc4 = loc("/NHNHOME/WORKSPACE/26msit001_A/jinhyeok/loop_TTT/lact/.cache_inductor_llm/gg/cggb4ugzspqpqifoegimazjnlav5hwl6nduvqsibhsqlttcwj4ks.py":21:36)
#loc5 = loc("/NHNHOME/WORKSPACE/26msit001_A/jinhyeok/loop_TTT/lact/.cache_inductor_llm/gg/cggb4ugzspqpqifoegimazjnlav5hwl6nduvqsibhsqlttcwj4ks.py":21:23)
#loc6 = loc("/NHNHOME/WORKSPACE/26msit001_A/jinhyeok/loop_TTT/lact/.cache_inductor_llm/gg/cggb4ugzspqpqifoegimazjnlav5hwl6nduvqsibhsqlttcwj4ks.py":22:36)
#loc7 = loc("/NHNHOME/WORKSPACE/26msit001_A/jinhyeok/loop_TTT/lact/.cache_inductor_llm/gg/cggb4ugzspqpqifoegimazjnlav5hwl6nduvqsibhsqlttcwj4ks.py":23:19)
#loc8 = loc("/NHNHOME/WORKSPACE/26msit001_A/jinhyeok/loop_TTT/lact/.cache_inductor_llm/gg/cggb4ugzspqpqifoegimazjnlav5hwl6nduvqsibhsqlttcwj4ks.py":24:19)
#loc9 = loc("/NHNHOME/WORKSPACE/26msit001_A/jinhyeok/loop_TTT/lact/.cache_inductor_llm/gg/cggb4ugzspqpqifoegimazjnlav5hwl6nduvqsibhsqlttcwj4ks.py":27:30)
#loc10 = loc("/NHNHOME/WORKSPACE/26msit001_A/jinhyeok/loop_TTT/lact/.cache_inductor_llm/gg/cggb4ugzspqpqifoegimazjnlav5hwl6nduvqsibhsqlttcwj4ks.py":28:19)
#loc11 = loc("/NHNHOME/WORKSPACE/26msit001_A/jinhyeok/loop_TTT/lact/.cache_inductor_llm/gg/cggb4ugzspqpqifoegimazjnlav5hwl6nduvqsibhsqlttcwj4ks.py":29:30)
#loc12 = loc("/NHNHOME/WORKSPACE/26msit001_A/jinhyeok/loop_TTT/lact/.cache_inductor_llm/gg/cggb4ugzspqpqifoegimazjnlav5hwl6nduvqsibhsqlttcwj4ks.py":30:18)
#loc13 = loc("/NHNHOME/WORKSPACE/26msit001_A/jinhyeok/loop_TTT/lact/.cache_inductor_llm/gg/cggb4ugzspqpqifoegimazjnlav5hwl6nduvqsibhsqlttcwj4ks.py":31:18)
#loc14 = loc("/NHNHOME/WORKSPACE/26msit001_A/jinhyeok/loop_TTT/lact/.cache_inductor_llm/gg/cggb4ugzspqpqifoegimazjnlav5hwl6nduvqsibhsqlttcwj4ks.py":32:30)
#loc15 = loc("/NHNHOME/WORKSPACE/26msit001_A/jinhyeok/loop_TTT/lact/.cache_inductor_llm/gg/cggb4ugzspqpqifoegimazjnlav5hwl6nduvqsibhsqlttcwj4ks.py":32:35)
#loc16 = loc("/NHNHOME/WORKSPACE/26msit001_A/jinhyeok/loop_TTT/lact/.cache_inductor_llm/gg/cggb4ugzspqpqifoegimazjnlav5hwl6nduvqsibhsqlttcwj4ks.py":33:30)
#loc17 = loc("/NHNHOME/WORKSPACE/26msit001_A/jinhyeok/loop_TTT/lact/.cache_inductor_llm/gg/cggb4ugzspqpqifoegimazjnlav5hwl6nduvqsibhsqlttcwj4ks.py":33:35)
#loc18 = loc("/NHNHOME/WORKSPACE/26msit001_A/jinhyeok/loop_TTT/lact/.cache_inductor_llm/gg/cggb4ugzspqpqifoegimazjnlav5hwl6nduvqsibhsqlttcwj4ks.py":34:18)
#loc19 = loc("/NHNHOME/WORKSPACE/26msit001_A/jinhyeok/loop_TTT/lact/.cache_inductor_llm/gg/cggb4ugzspqpqifoegimazjnlav5hwl6nduvqsibhsqlttcwj4ks.py":35:30)
#loc20 = loc("/NHNHOME/WORKSPACE/26msit001_A/jinhyeok/loop_TTT/lact/.cache_inductor_llm/gg/cggb4ugzspqpqifoegimazjnlav5hwl6nduvqsibhsqlttcwj4ks.py":35:35)
#loc21 = loc("/NHNHOME/WORKSPACE/26msit001_A/jinhyeok/loop_TTT/lact/.cache_inductor_llm/gg/cggb4ugzspqpqifoegimazjnlav5hwl6nduvqsibhsqlttcwj4ks.py":36:19)
#loc22 = loc("/NHNHOME/WORKSPACE/26msit001_A/jinhyeok/loop_TTT/lact/.cache_inductor_llm/gg/cggb4ugzspqpqifoegimazjnlav5hwl6nduvqsibhsqlttcwj4ks.py":37:12)
#loc23 = loc("/NHNHOME/WORKSPACE/26msit001_A/jinhyeok/loop_TTT/lact/.cache_inductor_llm/gg/cggb4ugzspqpqifoegimazjnlav5hwl6nduvqsibhsqlttcwj4ks.py":38:20)
#loc24 = loc("/NHNHOME/WORKSPACE/26msit001_A/jinhyeok/loop_TTT/lact/.cache_inductor_llm/gg/cggb4ugzspqpqifoegimazjnlav5hwl6nduvqsibhsqlttcwj4ks.py":39:38)
#loc25 = loc("/NHNHOME/WORKSPACE/26msit001_A/jinhyeok/loop_TTT/lact/.cache_inductor_llm/gg/cggb4ugzspqpqifoegimazjnlav5hwl6nduvqsibhsqlttcwj4ks.py":40:34)
#loc26 = loc("/NHNHOME/WORKSPACE/26msit001_A/jinhyeok/loop_TTT/lact/.cache_inductor_llm/gg/cggb4ugzspqpqifoegimazjnlav5hwl6nduvqsibhsqlttcwj4ks.py":41:12)
#loc27 = loc("/NHNHOME/WORKSPACE/26msit001_A/jinhyeok/loop_TTT/lact/.cache_inductor_llm/gg/cggb4ugzspqpqifoegimazjnlav5hwl6nduvqsibhsqlttcwj4ks.py":42:34)
#loc28 = loc("/NHNHOME/WORKSPACE/26msit001_A/jinhyeok/loop_TTT/lact/.cache_inductor_llm/gg/cggb4ugzspqpqifoegimazjnlav5hwl6nduvqsibhsqlttcwj4ks.py":43:31)
#loc29 = loc("/NHNHOME/WORKSPACE/26msit001_A/jinhyeok/loop_TTT/lact/.cache_inductor_llm/gg/cggb4ugzspqpqifoegimazjnlav5hwl6nduvqsibhsqlttcwj4ks.py":44:20)
#loc30 = loc("/NHNHOME/WORKSPACE/26msit001_A/jinhyeok/loop_TTT/lact/.cache_inductor_llm/gg/cggb4ugzspqpqifoegimazjnlav5hwl6nduvqsibhsqlttcwj4ks.py":45:19)
#loc31 = loc("/NHNHOME/WORKSPACE/26msit001_A/jinhyeok/loop_TTT/lact/.cache_inductor_llm/gg/cggb4ugzspqpqifoegimazjnlav5hwl6nduvqsibhsqlttcwj4ks.py":46:20)
#loc32 = loc("/NHNHOME/WORKSPACE/26msit001_A/jinhyeok/loop_TTT/lact/.cache_inductor_llm/gg/cggb4ugzspqpqifoegimazjnlav5hwl6nduvqsibhsqlttcwj4ks.py":47:31)
#loc33 = loc("/NHNHOME/WORKSPACE/26msit001_A/jinhyeok/loop_TTT/lact/.cache_inductor_llm/gg/cggb4ugzspqpqifoegimazjnlav5hwl6nduvqsibhsqlttcwj4ks.py":47:36)
#loc34 = loc("/NHNHOME/WORKSPACE/26msit001_A/jinhyeok/loop_TTT/lact/.cache_inductor_llm/gg/cggb4ugzspqpqifoegimazjnlav5hwl6nduvqsibhsqlttcwj4ks.py":48:31)
#loc35 = loc("/NHNHOME/WORKSPACE/26msit001_A/jinhyeok/loop_TTT/lact/.cache_inductor_llm/gg/cggb4ugzspqpqifoegimazjnlav5hwl6nduvqsibhsqlttcwj4ks.py":48:36)
#loc36 = loc("/NHNHOME/WORKSPACE/26msit001_A/jinhyeok/loop_TTT/lact/.cache_inductor_llm/gg/cggb4ugzspqpqifoegimazjnlav5hwl6nduvqsibhsqlttcwj4ks.py":49:20)
#loc37 = loc("/NHNHOME/WORKSPACE/26msit001_A/jinhyeok/loop_TTT/lact/.cache_inductor_llm/gg/cggb4ugzspqpqifoegimazjnlav5hwl6nduvqsibhsqlttcwj4ks.py":50:31)
#loc38 = loc("/NHNHOME/WORKSPACE/26msit001_A/jinhyeok/loop_TTT/lact/.cache_inductor_llm/gg/cggb4ugzspqpqifoegimazjnlav5hwl6nduvqsibhsqlttcwj4ks.py":50:36)
#loc39 = loc("/NHNHOME/WORKSPACE/26msit001_A/jinhyeok/loop_TTT/lact/.cache_inductor_llm/gg/cggb4ugzspqpqifoegimazjnlav5hwl6nduvqsibhsqlttcwj4ks.py":51:20)
#loc40 = loc("/NHNHOME/WORKSPACE/26msit001_A/jinhyeok/loop_TTT/lact/.cache_inductor_llm/gg/cggb4ugzspqpqifoegimazjnlav5hwl6nduvqsibhsqlttcwj4ks.py":52:12)
#loc41 = loc("/NHNHOME/WORKSPACE/26msit001_A/jinhyeok/loop_TTT/lact/.cache_inductor_llm/gg/cggb4ugzspqpqifoegimazjnlav5hwl6nduvqsibhsqlttcwj4ks.py":53:20)
#loc42 = loc("/NHNHOME/WORKSPACE/26msit001_A/jinhyeok/loop_TTT/lact/.cache_inductor_llm/gg/cggb4ugzspqpqifoegimazjnlav5hwl6nduvqsibhsqlttcwj4ks.py":54:38)
#loc43 = loc("/NHNHOME/WORKSPACE/26msit001_A/jinhyeok/loop_TTT/lact/.cache_inductor_llm/gg/cggb4ugzspqpqifoegimazjnlav5hwl6nduvqsibhsqlttcwj4ks.py":55:35)
#loc44 = loc("/NHNHOME/WORKSPACE/26msit001_A/jinhyeok/loop_TTT/lact/.cache_inductor_llm/gg/cggb4ugzspqpqifoegimazjnlav5hwl6nduvqsibhsqlttcwj4ks.py":56:35)
#loc45 = loc("/NHNHOME/WORKSPACE/26msit001_A/jinhyeok/loop_TTT/lact/.cache_inductor_llm/gg/cggb4ugzspqpqifoegimazjnlav5hwl6nduvqsibhsqlttcwj4ks.py":57:20)
#loc46 = loc("/NHNHOME/WORKSPACE/26msit001_A/jinhyeok/loop_TTT/lact/.cache_inductor_llm/gg/cggb4ugzspqpqifoegimazjnlav5hwl6nduvqsibhsqlttcwj4ks.py":58:19)
#loc47 = loc("/NHNHOME/WORKSPACE/26msit001_A/jinhyeok/loop_TTT/lact/.cache_inductor_llm/gg/cggb4ugzspqpqifoegimazjnlav5hwl6nduvqsibhsqlttcwj4ks.py":59:31)
#loc48 = loc("/NHNHOME/WORKSPACE/26msit001_A/jinhyeok/loop_TTT/lact/.cache_inductor_llm/gg/cggb4ugzspqpqifoegimazjnlav5hwl6nduvqsibhsqlttcwj4ks.py":59:36)
#loc49 = loc("/NHNHOME/WORKSPACE/26msit001_A/jinhyeok/loop_TTT/lact/.cache_inductor_llm/gg/cggb4ugzspqpqifoegimazjnlav5hwl6nduvqsibhsqlttcwj4ks.py":60:31)
#loc50 = loc("/NHNHOME/WORKSPACE/26msit001_A/jinhyeok/loop_TTT/lact/.cache_inductor_llm/gg/cggb4ugzspqpqifoegimazjnlav5hwl6nduvqsibhsqlttcwj4ks.py":60:36)
#loc51 = loc("/NHNHOME/WORKSPACE/26msit001_A/jinhyeok/loop_TTT/lact/.cache_inductor_llm/gg/cggb4ugzspqpqifoegimazjnlav5hwl6nduvqsibhsqlttcwj4ks.py":61:20)
#loc52 = loc("/NHNHOME/WORKSPACE/26msit001_A/jinhyeok/loop_TTT/lact/.cache_inductor_llm/gg/cggb4ugzspqpqifoegimazjnlav5hwl6nduvqsibhsqlttcwj4ks.py":62:31)
#loc53 = loc("/NHNHOME/WORKSPACE/26msit001_A/jinhyeok/loop_TTT/lact/.cache_inductor_llm/gg/cggb4ugzspqpqifoegimazjnlav5hwl6nduvqsibhsqlttcwj4ks.py":62:36)
#loc54 = loc("/NHNHOME/WORKSPACE/26msit001_A/jinhyeok/loop_TTT/lact/.cache_inductor_llm/gg/cggb4ugzspqpqifoegimazjnlav5hwl6nduvqsibhsqlttcwj4ks.py":63:20)
#loc55 = loc("/NHNHOME/WORKSPACE/26msit001_A/jinhyeok/loop_TTT/lact/.cache_inductor_llm/gg/cggb4ugzspqpqifoegimazjnlav5hwl6nduvqsibhsqlttcwj4ks.py":64:12)
#loc56 = loc("/NHNHOME/WORKSPACE/26msit001_A/jinhyeok/loop_TTT/lact/.cache_inductor_llm/gg/cggb4ugzspqpqifoegimazjnlav5hwl6nduvqsibhsqlttcwj4ks.py":65:20)
#loc57 = loc("/NHNHOME/WORKSPACE/26msit001_A/jinhyeok/loop_TTT/lact/.cache_inductor_llm/gg/cggb4ugzspqpqifoegimazjnlav5hwl6nduvqsibhsqlttcwj4ks.py":66:38)
#loc58 = loc("/NHNHOME/WORKSPACE/26msit001_A/jinhyeok/loop_TTT/lact/.cache_inductor_llm/gg/cggb4ugzspqpqifoegimazjnlav5hwl6nduvqsibhsqlttcwj4ks.py":67:35)
#loc59 = loc("/NHNHOME/WORKSPACE/26msit001_A/jinhyeok/loop_TTT/lact/.cache_inductor_llm/gg/cggb4ugzspqpqifoegimazjnlav5hwl6nduvqsibhsqlttcwj4ks.py":68:35)
#loc60 = loc("/NHNHOME/WORKSPACE/26msit001_A/jinhyeok/loop_TTT/lact/.cache_inductor_llm/gg/cggb4ugzspqpqifoegimazjnlav5hwl6nduvqsibhsqlttcwj4ks.py":69:20)
#loc61 = loc("/NHNHOME/WORKSPACE/26msit001_A/jinhyeok/loop_TTT/lact/.cache_inductor_llm/gg/cggb4ugzspqpqifoegimazjnlav5hwl6nduvqsibhsqlttcwj4ks.py":70:25)
#loc62 = loc("/NHNHOME/WORKSPACE/26msit001_A/jinhyeok/loop_TTT/lact/.cache_inductor_llm/gg/cggb4ugzspqpqifoegimazjnlav5hwl6nduvqsibhsqlttcwj4ks.py":70:37)
#loc63 = loc("/NHNHOME/WORKSPACE/26msit001_A/jinhyeok/loop_TTT/lact/.cache_inductor_llm/gg/cggb4ugzspqpqifoegimazjnlav5hwl6nduvqsibhsqlttcwj4ks.py":70:4)
#loc75 = loc("xnumel"(#loc1))
#loc76 = loc("xoffset"(#loc2))
#loc77 = loc("xoffset"(#loc3))
#loc78 = loc("xindex"(#loc4))
#loc79 = loc("xindex"(#loc5))
#loc80 = loc("xmask"(#loc6))
#loc81 = loc("x0"(#loc7))
#loc82 = loc("x1"(#loc8))
#loc83 = loc("tmp1"(#loc9))
#loc84 = loc("tmp2"(#loc10))
#loc85 = loc("tmp3"(#loc11))
#loc86 = loc("tmp4"(#loc12))
#loc87 = loc("tmp5"(#loc13))
#loc88 = loc("tmp6"(#loc14))
#loc89 = loc("tmp6"(#loc15))
#loc90 = loc("tmp7"(#loc16))
#loc91 = loc("tmp7"(#loc17))
#loc92 = loc("tmp8"(#loc18))
#loc93 = loc("tmp9"(#loc19))
#loc94 = loc("tmp9"(#loc20))
#loc95 = loc("tmp10"(#loc21))
#loc96 = loc("tmp11"(#loc22))
#loc97 = loc("tmp12"(#loc23))
#loc98 = loc("tmp13"(#loc24))
#loc99 = loc("tmp14"(#loc25))
#loc100 = loc("tmp15"(#loc26))
#loc101 = loc("tmp16"(#loc27))
#loc102 = loc("tmp17"(#loc28))
#loc103 = loc("tmp18"(#loc29))
#loc104 = loc("tmp19"(#loc30))
#loc105 = loc("tmp20"(#loc31))
#loc106 = loc("tmp21"(#loc32))
#loc107 = loc("tmp21"(#loc33))
#loc108 = loc("tmp22"(#loc34))
#loc109 = loc("tmp22"(#loc35))
#loc110 = loc("tmp23"(#loc36))
#loc111 = loc("tmp24"(#loc37))
#loc112 = loc("tmp24"(#loc38))
#loc113 = loc("tmp25"(#loc39))
#loc114 = loc("tmp26"(#loc40))
#loc115 = loc("tmp27"(#loc41))
#loc116 = loc("tmp28"(#loc42))
#loc117 = loc("tmp29"(#loc43))
#loc118 = loc("tmp30"(#loc44))
#loc119 = loc("tmp31"(#loc45))
#loc120 = loc("tmp32"(#loc46))
#loc121 = loc("tmp33"(#loc47))
#loc122 = loc("tmp33"(#loc48))
#loc123 = loc("tmp34"(#loc49))
#loc124 = loc("tmp34"(#loc50))
#loc125 = loc("tmp35"(#loc51))
#loc126 = loc("tmp36"(#loc52))
#loc127 = loc("tmp36"(#loc53))
#loc128 = loc("tmp37"(#loc54))
#loc129 = loc("tmp38"(#loc55))
#loc130 = loc("tmp39"(#loc56))
#loc131 = loc("tmp40"(#loc57))
#loc132 = loc("tmp41"(#loc58))
#loc133 = loc("tmp42"(#loc59))
#loc134 = loc("tmp43"(#loc60))
