#loc = loc("/NHNHOME/WORKSPACE/26msit001_A/jinhyeok/loop_TTT/lact/.cache_inductor_llm/my/cmyo3czkiqysgusvi25eq7oid27skm2bqtke3djt5nhtx5cptze4.py":18:0)
#loc47 = loc("in_out_ptr0"(#loc))
#loc48 = loc("in_ptr0"(#loc))
#loc49 = loc("in_ptr1"(#loc))
#loc50 = loc("in_ptr2"(#loc))
#loc51 = loc("in_ptr3"(#loc))
#loc52 = loc("in_ptr4"(#loc))
#loc53 = loc("in_ptr5"(#loc))
#loc54 = loc("out_ptr0"(#loc))
#loc55 = loc("xnumel"(#loc))
module {
  tt.func public @triton_poi_fused__to_copy_add_div_eq_masked_fill_mul_transpose_14(%in_out_ptr0: !tt.ptr<f32> {tt.divisibility = 16 : i32} loc("in_out_ptr0"(#loc)), %in_ptr0: !tt.ptr<bf16> {tt.divisibility = 16 : i32} loc("in_ptr0"(#loc)), %in_ptr1: !tt.ptr<bf16> {tt.divisibility = 16 : i32} loc("in_ptr1"(#loc)), %in_ptr2: !tt.ptr<bf16> {tt.divisibility = 16 : i32} loc("in_ptr2"(#loc)), %in_ptr3: !tt.ptr<f32> {tt.divisibility = 16 : i32} loc("in_ptr3"(#loc)), %in_ptr4: !tt.ptr<f32> {tt.divisibility = 16 : i32} loc("in_ptr4"(#loc)), %in_ptr5: !tt.ptr<bf16> {tt.divisibility = 16 : i32} loc("in_ptr5"(#loc)), %out_ptr0: !tt.ptr<bf16> {tt.divisibility = 16 : i32} loc("out_ptr0"(#loc)), %xnumel: i32 {tt.divisibility = 16 : i32} loc("xnumel"(#loc))) attributes {noinline = false} {
    %cst = arith.constant dense<0.000000e+00> : tensor<1024xf32> loc(#loc1)
    %tmp14 = arith.constant dense<1.000000e-07> : tensor<1024xf32> loc(#loc56)
    %tmp4 = arith.constant dense<4.084800e+00> : tensor<1024xf32> loc(#loc57)
    %cst_0 = arith.constant dense<36864> : tensor<1024xi32> loc(#loc1)
    %cst_1 = arith.constant dense<192> : tensor<1024xi32> loc(#loc1)
    %c1024_i32 = arith.constant 1024 : i32 loc(#loc1)
    %xoffset = tt.get_program_id x : i32 loc(#loc58)
    %xoffset_2 = arith.muli %xoffset, %c1024_i32 : i32 loc(#loc59)
    %xindex = tt.make_range {end = 1024 : i32, start = 0 : i32} : tensor<1024xi32> loc(#loc60)
    %xindex_3 = tt.splat %xoffset_2 : i32 -> tensor<1024xi32> loc(#loc61)
    %xindex_4 = arith.addi %xindex_3, %xindex : tensor<1024xi32> loc(#loc61)
    %x0 = arith.remsi %xindex_4, %cst_1 : tensor<1024xi32> loc(#loc62)
    %x1 = arith.divsi %xindex_4, %cst_1 : tensor<1024xi32> loc(#loc63)
    %x1_5 = arith.remsi %x1, %cst_1 : tensor<1024xi32> loc(#loc64)
    %x2 = arith.divsi %xindex_4, %cst_0 : tensor<1024xi32> loc(#loc65)
    %tmp0 = tt.splat %in_ptr0 : !tt.ptr<bf16> -> tensor<1024x!tt.ptr<bf16>> loc(#loc66)
    %tmp0_6 = tt.addptr %tmp0, %xindex_4 : tensor<1024x!tt.ptr<bf16>>, tensor<1024xi32> loc(#loc66)
    %tmp0_7 = tt.load %tmp0_6 : tensor<1024x!tt.ptr<bf16>> loc(#loc67)
    %tmp0_8 = arith.extf %tmp0_7 : tensor<1024xbf16> to tensor<1024xf32> loc(#loc68)
    %tmp2 = tt.splat %in_out_ptr0 : !tt.ptr<f32> -> tensor<1024x!tt.ptr<f32>> loc(#loc69)
    %tmp2_9 = tt.addptr %tmp2, %xindex_4 : tensor<1024x!tt.ptr<f32>>, tensor<1024xi32> loc(#loc69)
    %tmp2_10 = tt.load %tmp2_9 : tensor<1024x!tt.ptr<f32>> loc(#loc70)
    %tmp6 = tt.splat %in_ptr1 : !tt.ptr<bf16> -> tensor<1024x!tt.ptr<bf16>> loc(#loc71)
    %tmp6_11 = tt.addptr %tmp6, %xindex_4 : tensor<1024x!tt.ptr<bf16>>, tensor<1024xi32> loc(#loc71)
    %tmp6_12 = tt.load %tmp6_11 : tensor<1024x!tt.ptr<bf16>> loc(#loc72)
    %tmp6_13 = arith.extf %tmp6_12 : tensor<1024xbf16> to tensor<1024xf32> loc(#loc73)
    %tmp9 = arith.muli %x0, %cst_1 : tensor<1024xi32> loc(#loc74)
    %tmp9_14 = arith.addi %x1_5, %tmp9 : tensor<1024xi32> loc(#loc75)
    %tmp9_15 = arith.muli %x2, %cst_0 : tensor<1024xi32> loc(#loc76)
    %tmp9_16 = arith.addi %tmp9_14, %tmp9_15 : tensor<1024xi32> loc(#loc77)
    %tmp9_17 = tt.splat %in_ptr2 : !tt.ptr<bf16> -> tensor<1024x!tt.ptr<bf16>> loc(#loc78)
    %tmp9_18 = tt.addptr %tmp9_17, %tmp9_16 : tensor<1024x!tt.ptr<bf16>>, tensor<1024xi32> loc(#loc78)
    %tmp9_19 = tt.load %tmp9_18 evictionPolicy = evict_last : tensor<1024x!tt.ptr<bf16>> loc(#loc79)
    %tmp9_20 = arith.extf %tmp9_19 : tensor<1024xbf16> to tensor<1024xf32> loc(#loc80)
    %tmp12 = tt.splat %in_ptr3 : !tt.ptr<f32> -> tensor<1024x!tt.ptr<f32>> loc(#loc81)
    %tmp12_21 = tt.addptr %tmp12, %x2 : tensor<1024x!tt.ptr<f32>>, tensor<1024xi32> loc(#loc81)
    %tmp12_22 = tt.load %tmp12_21 evictionPolicy = evict_last : tensor<1024x!tt.ptr<f32>> loc(#loc82)
    %tmp17 = tt.splat %in_ptr4 : !tt.ptr<f32> -> tensor<1024x!tt.ptr<f32>> loc(#loc83)
    %tmp17_23 = tt.addptr %tmp17, %x2 : tensor<1024x!tt.ptr<f32>>, tensor<1024xi32> loc(#loc83)
    %tmp17_24 = tt.load %tmp17_23 evictionPolicy = evict_last : tensor<1024x!tt.ptr<f32>> loc(#loc84)
    %tmp20 = tt.splat %in_ptr5 : !tt.ptr<bf16> -> tensor<1024x!tt.ptr<bf16>> loc(#loc85)
    %tmp20_25 = tt.addptr %tmp20, %xindex_4 : tensor<1024x!tt.ptr<bf16>>, tensor<1024xi32> loc(#loc85)
    %tmp20_26 = tt.load %tmp20_25 : tensor<1024x!tt.ptr<bf16>> loc(#loc86)
    %tmp20_27 = arith.extf %tmp20_26 : tensor<1024xbf16> to tensor<1024xf32> loc(#loc87)
    %tmp4_28 = arith.mulf %tmp2_10, %tmp4 : tensor<1024xf32> loc(#loc57)
    %tmp5 = arith.addf %tmp0_8, %tmp4_28 : tensor<1024xf32> loc(#loc88)
    %tmp8 = arith.addf %tmp5, %tmp6_13 : tensor<1024xf32> loc(#loc89)
    %tmp11 = arith.addf %tmp8, %tmp9_20 : tensor<1024xf32> loc(#loc90)
    %tmp14_29 = arith.addf %tmp12_22, %tmp14 : tensor<1024xf32> loc(#loc56)
    %tmp15 = arith.divf %tmp11, %tmp14_29 : tensor<1024xf32> loc(#loc91)
    %tmp19 = arith.cmpf oeq, %tmp12_22, %cst : tensor<1024xf32> loc(#loc92)
    %tmp22 = arith.divf %tmp20_27, %tmp12_22 : tensor<1024xf32> loc(#loc93)
    %tmp23 = arith.select %tmp19, %cst, %tmp22 : tensor<1024xi1>, tensor<1024xf32> loc(#loc94)
    %tmp24 = arith.mulf %tmp17_24, %tmp23 : tensor<1024xf32> loc(#loc95)
    %tmp26 = arith.addf %tmp15, %tmp24 : tensor<1024xf32> loc(#loc96)
    tt.store %tmp2_9, %tmp26 : tensor<1024x!tt.ptr<f32>> loc(#loc43)
    %0 = tt.splat %out_ptr0 : !tt.ptr<bf16> -> tensor<1024x!tt.ptr<bf16>> loc(#loc44)
    %1 = tt.addptr %0, %xindex_4 : tensor<1024x!tt.ptr<bf16>>, tensor<1024xi32> loc(#loc44)
    %2 = arith.truncf %tmp26 : tensor<1024xf32> to tensor<1024xbf16> loc(#loc45)
    tt.store %1, %2 : tensor<1024x!tt.ptr<bf16>> loc(#loc45)
    tt.return loc(#loc46)
  } loc(#loc)
} loc(#loc)
#loc1 = loc(unknown)
#loc2 = loc("/NHNHOME/WORKSPACE/26msit001_A/jinhyeok/loop_TTT/lact/.cache_inductor_llm/my/cmyo3czkiqysgusvi25eq7oid27skm2bqtke3djt5nhtx5cptze4.py":43:20)
#loc3 = loc("/NHNHOME/WORKSPACE/26msit001_A/jinhyeok/loop_TTT/lact/.cache_inductor_llm/my/cmyo3czkiqysgusvi25eq7oid27skm2bqtke3djt5nhtx5cptze4.py":36:18)
#loc4 = loc("/NHNHOME/WORKSPACE/26msit001_A/jinhyeok/loop_TTT/lact/.cache_inductor_llm/my/cmyo3czkiqysgusvi25eq7oid27skm2bqtke3djt5nhtx5cptze4.py":20:28)
#loc5 = loc("/NHNHOME/WORKSPACE/26msit001_A/jinhyeok/loop_TTT/lact/.cache_inductor_llm/my/cmyo3czkiqysgusvi25eq7oid27skm2bqtke3djt5nhtx5cptze4.py":20:33)
#loc6 = loc("/NHNHOME/WORKSPACE/26msit001_A/jinhyeok/loop_TTT/lact/.cache_inductor_llm/my/cmyo3czkiqysgusvi25eq7oid27skm2bqtke3djt5nhtx5cptze4.py":21:36)
#loc7 = loc("/NHNHOME/WORKSPACE/26msit001_A/jinhyeok/loop_TTT/lact/.cache_inductor_llm/my/cmyo3czkiqysgusvi25eq7oid27skm2bqtke3djt5nhtx5cptze4.py":21:23)
#loc8 = loc("/NHNHOME/WORKSPACE/26msit001_A/jinhyeok/loop_TTT/lact/.cache_inductor_llm/my/cmyo3czkiqysgusvi25eq7oid27skm2bqtke3djt5nhtx5cptze4.py":24:19)
#loc9 = loc("/NHNHOME/WORKSPACE/26msit001_A/jinhyeok/loop_TTT/lact/.cache_inductor_llm/my/cmyo3czkiqysgusvi25eq7oid27skm2bqtke3djt5nhtx5cptze4.py":25:21)
#loc10 = loc("/NHNHOME/WORKSPACE/26msit001_A/jinhyeok/loop_TTT/lact/.cache_inductor_llm/my/cmyo3czkiqysgusvi25eq7oid27skm2bqtke3djt5nhtx5cptze4.py":25:28)
#loc11 = loc("/NHNHOME/WORKSPACE/26msit001_A/jinhyeok/loop_TTT/lact/.cache_inductor_llm/my/cmyo3czkiqysgusvi25eq7oid27skm2bqtke3djt5nhtx5cptze4.py":26:19)
#loc12 = loc("/NHNHOME/WORKSPACE/26msit001_A/jinhyeok/loop_TTT/lact/.cache_inductor_llm/my/cmyo3czkiqysgusvi25eq7oid27skm2bqtke3djt5nhtx5cptze4.py":27:30)
#loc13 = loc("/NHNHOME/WORKSPACE/26msit001_A/jinhyeok/loop_TTT/lact/.cache_inductor_llm/my/cmyo3czkiqysgusvi25eq7oid27skm2bqtke3djt5nhtx5cptze4.py":27:35)
#loc14 = loc("/NHNHOME/WORKSPACE/26msit001_A/jinhyeok/loop_TTT/lact/.cache_inductor_llm/my/cmyo3czkiqysgusvi25eq7oid27skm2bqtke3djt5nhtx5cptze4.py":27:44)
#loc15 = loc("/NHNHOME/WORKSPACE/26msit001_A/jinhyeok/loop_TTT/lact/.cache_inductor_llm/my/cmyo3czkiqysgusvi25eq7oid27skm2bqtke3djt5nhtx5cptze4.py":28:34)
#loc16 = loc("/NHNHOME/WORKSPACE/26msit001_A/jinhyeok/loop_TTT/lact/.cache_inductor_llm/my/cmyo3czkiqysgusvi25eq7oid27skm2bqtke3djt5nhtx5cptze4.py":28:39)
#loc17 = loc("/NHNHOME/WORKSPACE/26msit001_A/jinhyeok/loop_TTT/lact/.cache_inductor_llm/my/cmyo3czkiqysgusvi25eq7oid27skm2bqtke3djt5nhtx5cptze4.py":29:30)
#loc18 = loc("/NHNHOME/WORKSPACE/26msit001_A/jinhyeok/loop_TTT/lact/.cache_inductor_llm/my/cmyo3czkiqysgusvi25eq7oid27skm2bqtke3djt5nhtx5cptze4.py":29:35)
#loc19 = loc("/NHNHOME/WORKSPACE/26msit001_A/jinhyeok/loop_TTT/lact/.cache_inductor_llm/my/cmyo3czkiqysgusvi25eq7oid27skm2bqtke3djt5nhtx5cptze4.py":29:44)
#loc20 = loc("/NHNHOME/WORKSPACE/26msit001_A/jinhyeok/loop_TTT/lact/.cache_inductor_llm/my/cmyo3czkiqysgusvi25eq7oid27skm2bqtke3djt5nhtx5cptze4.py":30:39)
#loc21 = loc("/NHNHOME/WORKSPACE/26msit001_A/jinhyeok/loop_TTT/lact/.cache_inductor_llm/my/cmyo3czkiqysgusvi25eq7oid27skm2bqtke3djt5nhtx5cptze4.py":30:35)
#loc22 = loc("/NHNHOME/WORKSPACE/26msit001_A/jinhyeok/loop_TTT/lact/.cache_inductor_llm/my/cmyo3czkiqysgusvi25eq7oid27skm2bqtke3djt5nhtx5cptze4.py":30:50)
#loc23 = loc("/NHNHOME/WORKSPACE/26msit001_A/jinhyeok/loop_TTT/lact/.cache_inductor_llm/my/cmyo3czkiqysgusvi25eq7oid27skm2bqtke3djt5nhtx5cptze4.py":30:44)
#loc24 = loc("/NHNHOME/WORKSPACE/26msit001_A/jinhyeok/loop_TTT/lact/.cache_inductor_llm/my/cmyo3czkiqysgusvi25eq7oid27skm2bqtke3djt5nhtx5cptze4.py":30:30)
#loc25 = loc("/NHNHOME/WORKSPACE/26msit001_A/jinhyeok/loop_TTT/lact/.cache_inductor_llm/my/cmyo3czkiqysgusvi25eq7oid27skm2bqtke3djt5nhtx5cptze4.py":30:55)
#loc26 = loc("/NHNHOME/WORKSPACE/26msit001_A/jinhyeok/loop_TTT/lact/.cache_inductor_llm/my/cmyo3czkiqysgusvi25eq7oid27skm2bqtke3djt5nhtx5cptze4.py":30:94)
#loc27 = loc("/NHNHOME/WORKSPACE/26msit001_A/jinhyeok/loop_TTT/lact/.cache_inductor_llm/my/cmyo3czkiqysgusvi25eq7oid27skm2bqtke3djt5nhtx5cptze4.py":31:31)
#loc28 = loc("/NHNHOME/WORKSPACE/26msit001_A/jinhyeok/loop_TTT/lact/.cache_inductor_llm/my/cmyo3czkiqysgusvi25eq7oid27skm2bqtke3djt5nhtx5cptze4.py":31:36)
#loc29 = loc("/NHNHOME/WORKSPACE/26msit001_A/jinhyeok/loop_TTT/lact/.cache_inductor_llm/my/cmyo3czkiqysgusvi25eq7oid27skm2bqtke3djt5nhtx5cptze4.py":32:31)
#loc30 = loc("/NHNHOME/WORKSPACE/26msit001_A/jinhyeok/loop_TTT/lact/.cache_inductor_llm/my/cmyo3czkiqysgusvi25eq7oid27skm2bqtke3djt5nhtx5cptze4.py":32:36)
#loc31 = loc("/NHNHOME/WORKSPACE/26msit001_A/jinhyeok/loop_TTT/lact/.cache_inductor_llm/my/cmyo3czkiqysgusvi25eq7oid27skm2bqtke3djt5nhtx5cptze4.py":33:31)
#loc32 = loc("/NHNHOME/WORKSPACE/26msit001_A/jinhyeok/loop_TTT/lact/.cache_inductor_llm/my/cmyo3czkiqysgusvi25eq7oid27skm2bqtke3djt5nhtx5cptze4.py":33:36)
#loc33 = loc("/NHNHOME/WORKSPACE/26msit001_A/jinhyeok/loop_TTT/lact/.cache_inductor_llm/my/cmyo3czkiqysgusvi25eq7oid27skm2bqtke3djt5nhtx5cptze4.py":33:45)
#loc34 = loc("/NHNHOME/WORKSPACE/26msit001_A/jinhyeok/loop_TTT/lact/.cache_inductor_llm/my/cmyo3czkiqysgusvi25eq7oid27skm2bqtke3djt5nhtx5cptze4.py":37:18)
#loc35 = loc("/NHNHOME/WORKSPACE/26msit001_A/jinhyeok/loop_TTT/lact/.cache_inductor_llm/my/cmyo3czkiqysgusvi25eq7oid27skm2bqtke3djt5nhtx5cptze4.py":39:18)
#loc36 = loc("/NHNHOME/WORKSPACE/26msit001_A/jinhyeok/loop_TTT/lact/.cache_inductor_llm/my/cmyo3czkiqysgusvi25eq7oid27skm2bqtke3djt5nhtx5cptze4.py":41:19)
#loc37 = loc("/NHNHOME/WORKSPACE/26msit001_A/jinhyeok/loop_TTT/lact/.cache_inductor_llm/my/cmyo3czkiqysgusvi25eq7oid27skm2bqtke3djt5nhtx5cptze4.py":44:21)
#loc38 = loc("/NHNHOME/WORKSPACE/26msit001_A/jinhyeok/loop_TTT/lact/.cache_inductor_llm/my/cmyo3czkiqysgusvi25eq7oid27skm2bqtke3djt5nhtx5cptze4.py":47:21)
#loc39 = loc("/NHNHOME/WORKSPACE/26msit001_A/jinhyeok/loop_TTT/lact/.cache_inductor_llm/my/cmyo3czkiqysgusvi25eq7oid27skm2bqtke3djt5nhtx5cptze4.py":49:21)
#loc40 = loc("/NHNHOME/WORKSPACE/26msit001_A/jinhyeok/loop_TTT/lact/.cache_inductor_llm/my/cmyo3czkiqysgusvi25eq7oid27skm2bqtke3djt5nhtx5cptze4.py":50:35)
#loc41 = loc("/NHNHOME/WORKSPACE/26msit001_A/jinhyeok/loop_TTT/lact/.cache_inductor_llm/my/cmyo3czkiqysgusvi25eq7oid27skm2bqtke3djt5nhtx5cptze4.py":51:20)
#loc42 = loc("/NHNHOME/WORKSPACE/26msit001_A/jinhyeok/loop_TTT/lact/.cache_inductor_llm/my/cmyo3czkiqysgusvi25eq7oid27skm2bqtke3djt5nhtx5cptze4.py":53:20)
#loc43 = loc("/NHNHOME/WORKSPACE/26msit001_A/jinhyeok/loop_TTT/lact/.cache_inductor_llm/my/cmyo3czkiqysgusvi25eq7oid27skm2bqtke3djt5nhtx5cptze4.py":56:40)
#loc44 = loc("/NHNHOME/WORKSPACE/26msit001_A/jinhyeok/loop_TTT/lact/.cache_inductor_llm/my/cmyo3czkiqysgusvi25eq7oid27skm2bqtke3djt5nhtx5cptze4.py":57:25)
#loc45 = loc("/NHNHOME/WORKSPACE/26msit001_A/jinhyeok/loop_TTT/lact/.cache_inductor_llm/my/cmyo3czkiqysgusvi25eq7oid27skm2bqtke3djt5nhtx5cptze4.py":57:37)
#loc46 = loc("/NHNHOME/WORKSPACE/26msit001_A/jinhyeok/loop_TTT/lact/.cache_inductor_llm/my/cmyo3czkiqysgusvi25eq7oid27skm2bqtke3djt5nhtx5cptze4.py":57:4)
#loc56 = loc("tmp14"(#loc2))
#loc57 = loc("tmp4"(#loc3))
#loc58 = loc("xoffset"(#loc4))
#loc59 = loc("xoffset"(#loc5))
#loc60 = loc("xindex"(#loc6))
#loc61 = loc("xindex"(#loc7))
#loc62 = loc("x0"(#loc8))
#loc63 = loc("x1"(#loc9))
#loc64 = loc("x1"(#loc10))
#loc65 = loc("x2"(#loc11))
#loc66 = loc("tmp0"(#loc12))
#loc67 = loc("tmp0"(#loc13))
#loc68 = loc("tmp0"(#loc14))
#loc69 = loc("tmp2"(#loc15))
#loc70 = loc("tmp2"(#loc16))
#loc71 = loc("tmp6"(#loc17))
#loc72 = loc("tmp6"(#loc18))
#loc73 = loc("tmp6"(#loc19))
#loc74 = loc("tmp9"(#loc20))
#loc75 = loc("tmp9"(#loc21))
#loc76 = loc("tmp9"(#loc22))
#loc77 = loc("tmp9"(#loc23))
#loc78 = loc("tmp9"(#loc24))
#loc79 = loc("tmp9"(#loc25))
#loc80 = loc("tmp9"(#loc26))
#loc81 = loc("tmp12"(#loc27))
#loc82 = loc("tmp12"(#loc28))
#loc83 = loc("tmp17"(#loc29))
#loc84 = loc("tmp17"(#loc30))
#loc85 = loc("tmp20"(#loc31))
#loc86 = loc("tmp20"(#loc32))
#loc87 = loc("tmp20"(#loc33))
#loc88 = loc("tmp5"(#loc34))
#loc89 = loc("tmp8"(#loc35))
#loc90 = loc("tmp11"(#loc36))
#loc91 = loc("tmp15"(#loc37))
#loc92 = loc("tmp19"(#loc38))
#loc93 = loc("tmp22"(#loc39))
#loc94 = loc("tmp23"(#loc40))
#loc95 = loc("tmp24"(#loc41))
#loc96 = loc("tmp26"(#loc42))
