#loc = loc("/NHNHOME/WORKSPACE/26msit001_A/jinhyeok/TTT_camera_embedding/lact_llm/.cache_inductor/gg/cggfcufjykpaa47h5p6cxsxydgmanbpeuvqbux7jtq27wuh4c6gj.py":18:0)
#loc43 = loc("in_ptr0"(#loc))
#loc44 = loc("in_ptr1"(#loc))
#loc45 = loc("in_ptr2"(#loc))
#loc46 = loc("out_ptr0"(#loc))
#loc47 = loc("xnumel"(#loc))
module {
  tt.func public @triton_poi_fused__to_copy_cat_mul_silu_slice_stack_view_22(%in_ptr0: !tt.ptr<f32> {tt.divisibility = 16 : i32} loc("in_ptr0"(#loc)), %in_ptr1: !tt.ptr<bf16> {tt.divisibility = 16 : i32} loc("in_ptr1"(#loc)), %in_ptr2: !tt.ptr<bf16> {tt.divisibility = 16 : i32} loc("in_ptr2"(#loc)), %out_ptr0: !tt.ptr<bf16> {tt.divisibility = 16 : i32} loc("out_ptr0"(#loc)), %xnumel: i32 {tt.divisibility = 16 : i32} loc("xnumel"(#loc))) attributes {noinline = false} {
    %tmp14 = arith.constant dense<1.000000e+00> : tensor<1024xf32> loc(#loc82)
    %cst = arith.constant dense<0.000000e+00> : tensor<1024xbf16> loc(#loc1)
    %cst_0 = arith.constant dense<-96> : tensor<1024xi32> loc(#loc1)
    %cst_1 = arith.constant dense<0.000000e+00> : tensor<1024xf32> loc(#loc1)
    %cst_2 = arith.constant dense<98304> : tensor<1024xi32> loc(#loc1)
    %cst_3 = arith.constant dense<96> : tensor<1024xi64> loc(#loc1)
    %cst_4 = arith.constant dense<196608> : tensor<1024xi32> loc(#loc1)
    %x1 = arith.constant dense<192> : tensor<1024xi32> loc(#loc49)
    %cst_5 = arith.constant dense<1024> : tensor<1024xi32> loc(#loc1)
    %c1024_i32 = arith.constant 1024 : i32 loc(#loc1)
    %xoffset = tt.get_program_id x : i32 loc(#loc50)
    %xoffset_6 = arith.muli %xoffset, %c1024_i32 : i32 loc(#loc51)
    %xindex = tt.make_range {end = 1024 : i32, start = 0 : i32} : tensor<1024xi32> loc(#loc52)
    %xindex_7 = tt.splat %xoffset_6 : i32 -> tensor<1024xi32> loc(#loc53)
    %xindex_8 = arith.addi %xindex_7, %xindex : tensor<1024xi32> loc(#loc53)
    %x1_9 = arith.divsi %xindex_8, %cst_5 : tensor<1024xi32> loc(#loc54)
    %x1_10 = arith.remsi %x1_9, %x1 : tensor<1024xi32> loc(#loc49)
    %x0 = arith.remsi %xindex_8, %cst_5 : tensor<1024xi32> loc(#loc55)
    %x2 = arith.divsi %xindex_8, %cst_4 : tensor<1024xi32> loc(#loc56)
    %tmp4 = arith.extsi %x1_10 : tensor<1024xi32> to tensor<1024xi64> loc(#loc57)
    %tmp4_11 = arith.cmpi slt, %tmp4, %cst_3 : tensor<1024xi64> loc(#loc57)
    %tmp5 = arith.muli %x1_10, %cst_5 : tensor<1024xi32> loc(#loc58)
    %tmp5_12 = arith.addi %x0, %tmp5 : tensor<1024xi32> loc(#loc59)
    %tmp5_13 = arith.muli %x2, %cst_2 : tensor<1024xi32> loc(#loc60)
    %tmp5_14 = arith.addi %tmp5_12, %tmp5_13 : tensor<1024xi32> loc(#loc61)
    %tmp5_15 = tt.splat %in_ptr0 : !tt.ptr<f32> -> tensor<1024x!tt.ptr<f32>> loc(#loc62)
    %tmp5_16 = tt.addptr %tmp5_15, %tmp5_14 : tensor<1024x!tt.ptr<f32>>, tensor<1024xi32> loc(#loc62)
    %tmp5_17 = tt.load %tmp5_16, %tmp4_11, %cst_1 : tensor<1024x!tt.ptr<f32>> loc(#loc63)
    %tmp9 = arith.cmpi sge, %tmp4, %cst_3 : tensor<1024xi64> loc(#loc64)
    %tmp12 = arith.addi %x0, %cst_2 : tensor<1024xi32> loc(#loc65)
    %tmp12_18 = arith.addi %x1_10, %cst_0 : tensor<1024xi32> loc(#loc66)
    %tmp12_19 = arith.muli %tmp12_18, %cst_5 : tensor<1024xi32> loc(#loc67)
    %tmp12_20 = arith.addi %tmp12, %tmp12_19 : tensor<1024xi32> loc(#loc68)
    %tmp12_21 = arith.muli %x2, %cst_4 : tensor<1024xi32> loc(#loc69)
    %tmp12_22 = arith.addi %tmp12_20, %tmp12_21 : tensor<1024xi32> loc(#loc70)
    %tmp12_23 = tt.splat %in_ptr1 : !tt.ptr<bf16> -> tensor<1024x!tt.ptr<bf16>> loc(#loc71)
    %tmp12_24 = tt.addptr %tmp12_23, %tmp12_22 : tensor<1024x!tt.ptr<bf16>>, tensor<1024xi32> loc(#loc71)
    %tmp12_25 = tt.load %tmp12_24, %tmp9, %cst : tensor<1024x!tt.ptr<bf16>> loc(#loc72)
    %tmp12_26 = arith.extf %tmp12_25 : tensor<1024xbf16> to tensor<1024xf32> loc(#loc73)
    %tmp14_27 = arith.subf %cst_1, %tmp12_26 : tensor<1024xf32> loc(#loc83)
    %tmp14_28 = math.exp %tmp14_27 : tensor<1024xf32> loc(#loc84)
    %tmp14_29 = arith.addf %tmp14_28, %tmp14 : tensor<1024xf32> loc(#loc85)
    %tmp14_30 = arith.divf %tmp14, %tmp14_29 : tensor<1024xf32> loc(#loc86)
    %tmp15 = arith.mulf %tmp12_26, %tmp14_30 : tensor<1024xf32> loc(#loc74)
    %tmp17 = tt.splat %in_ptr2 : !tt.ptr<bf16> -> tensor<1024x!tt.ptr<bf16>> loc(#loc75)
    %tmp17_31 = tt.addptr %tmp17, %tmp12_22 : tensor<1024x!tt.ptr<bf16>>, tensor<1024xi32> loc(#loc75)
    %tmp17_32 = tt.load %tmp17_31, %tmp9, %cst : tensor<1024x!tt.ptr<bf16>> loc(#loc76)
    %tmp17_33 = arith.extf %tmp17_32 : tensor<1024xbf16> to tensor<1024xf32> loc(#loc77)
    %tmp18 = arith.mulf %tmp15, %tmp17_33 : tensor<1024xf32> loc(#loc78)
    %tmp20 = arith.select %tmp9, %tmp18, %cst_1 : tensor<1024xi1>, tensor<1024xf32> loc(#loc79)
    %tmp21 = arith.select %tmp4_11, %tmp5_17, %tmp20 : tensor<1024xi1>, tensor<1024xf32> loc(#loc87)
    %0 = tt.splat %out_ptr0 : !tt.ptr<bf16> -> tensor<1024x!tt.ptr<bf16>> loc(#loc40)
    %1 = tt.addptr %0, %xindex_8 : tensor<1024x!tt.ptr<bf16>>, tensor<1024xi32> loc(#loc40)
    %2 = arith.truncf %tmp21 : tensor<1024xf32> to tensor<1024xbf16> loc(#loc41)
    tt.store %1, %2 : tensor<1024x!tt.ptr<bf16>> loc(#loc41)
    tt.return loc(#loc42)
  } loc(#loc)
} loc(#loc)
#loc1 = loc(unknown)
#loc2 = loc("/NHNHOME/WORKSPACE/26msit001_A/jinhyeok/TTT_camera_embedding/lact_llm/.cache_inductor/gg/cggfcufjykpaa47h5p6cxsxydgmanbpeuvqbux7jtq27wuh4c6gj.py":41:23)
#loc3 = loc("/NHNHOME/WORKSPACE/26msit001_A/jinhyeok/TTT_camera_embedding/lact_llm/.cache_inductor/gg/cggfcufjykpaa47h5p6cxsxydgmanbpeuvqbux7jtq27wuh4c6gj.py":23:29)
#loc4 = loc("/NHNHOME/WORKSPACE/26msit001_A/jinhyeok/TTT_camera_embedding/lact_llm/.cache_inductor/gg/cggfcufjykpaa47h5p6cxsxydgmanbpeuvqbux7jtq27wuh4c6gj.py":20:28)
#loc5 = loc("/NHNHOME/WORKSPACE/26msit001_A/jinhyeok/TTT_camera_embedding/lact_llm/.cache_inductor/gg/cggfcufjykpaa47h5p6cxsxydgmanbpeuvqbux7jtq27wuh4c6gj.py":20:33)
#loc6 = loc("/NHNHOME/WORKSPACE/26msit001_A/jinhyeok/TTT_camera_embedding/lact_llm/.cache_inductor/gg/cggfcufjykpaa47h5p6cxsxydgmanbpeuvqbux7jtq27wuh4c6gj.py":21:36)
#loc7 = loc("/NHNHOME/WORKSPACE/26msit001_A/jinhyeok/TTT_camera_embedding/lact_llm/.cache_inductor/gg/cggfcufjykpaa47h5p6cxsxydgmanbpeuvqbux7jtq27wuh4c6gj.py":21:23)
#loc8 = loc("/NHNHOME/WORKSPACE/26msit001_A/jinhyeok/TTT_camera_embedding/lact_llm/.cache_inductor/gg/cggfcufjykpaa47h5p6cxsxydgmanbpeuvqbux7jtq27wuh4c6gj.py":23:21)
#loc9 = loc("/NHNHOME/WORKSPACE/26msit001_A/jinhyeok/TTT_camera_embedding/lact_llm/.cache_inductor/gg/cggfcufjykpaa47h5p6cxsxydgmanbpeuvqbux7jtq27wuh4c6gj.py":24:19)
#loc10 = loc("/NHNHOME/WORKSPACE/26msit001_A/jinhyeok/TTT_camera_embedding/lact_llm/.cache_inductor/gg/cggfcufjykpaa47h5p6cxsxydgmanbpeuvqbux7jtq27wuh4c6gj.py":25:19)
#loc11 = loc("/NHNHOME/WORKSPACE/26msit001_A/jinhyeok/TTT_camera_embedding/lact_llm/.cache_inductor/gg/cggfcufjykpaa47h5p6cxsxydgmanbpeuvqbux7jtq27wuh4c6gj.py":31:18)
#loc12 = loc("/NHNHOME/WORKSPACE/26msit001_A/jinhyeok/TTT_camera_embedding/lact_llm/.cache_inductor/gg/cggfcufjykpaa47h5p6cxsxydgmanbpeuvqbux7jtq27wuh4c6gj.py":32:41)
#loc13 = loc("/NHNHOME/WORKSPACE/26msit001_A/jinhyeok/TTT_camera_embedding/lact_llm/.cache_inductor/gg/cggfcufjykpaa47h5p6cxsxydgmanbpeuvqbux7jtq27wuh4c6gj.py":32:35)
#loc14 = loc("/NHNHOME/WORKSPACE/26msit001_A/jinhyeok/TTT_camera_embedding/lact_llm/.cache_inductor/gg/cggfcufjykpaa47h5p6cxsxydgmanbpeuvqbux7jtq27wuh4c6gj.py":32:53)
#loc15 = loc("/NHNHOME/WORKSPACE/26msit001_A/jinhyeok/TTT_camera_embedding/lact_llm/.cache_inductor/gg/cggfcufjykpaa47h5p6cxsxydgmanbpeuvqbux7jtq27wuh4c6gj.py":32:47)
#loc16 = loc("/NHNHOME/WORKSPACE/26msit001_A/jinhyeok/TTT_camera_embedding/lact_llm/.cache_inductor/gg/cggfcufjykpaa47h5p6cxsxydgmanbpeuvqbux7jtq27wuh4c6gj.py":32:30)
#loc17 = loc("/NHNHOME/WORKSPACE/26msit001_A/jinhyeok/TTT_camera_embedding/lact_llm/.cache_inductor/gg/cggfcufjykpaa47h5p6cxsxydgmanbpeuvqbux7jtq27wuh4c6gj.py":32:58)
#loc18 = loc("/NHNHOME/WORKSPACE/26msit001_A/jinhyeok/TTT_camera_embedding/lact_llm/.cache_inductor/gg/cggfcufjykpaa47h5p6cxsxydgmanbpeuvqbux7jtq27wuh4c6gj.py":36:19)
#loc19 = loc("/NHNHOME/WORKSPACE/26msit001_A/jinhyeok/TTT_camera_embedding/lact_llm/.cache_inductor/gg/cggfcufjykpaa47h5p6cxsxydgmanbpeuvqbux7jtq27wuh4c6gj.py":39:39)
#loc20 = loc("/NHNHOME/WORKSPACE/26msit001_A/jinhyeok/TTT_camera_embedding/lact_llm/.cache_inductor/gg/cggfcufjykpaa47h5p6cxsxydgmanbpeuvqbux7jtq27wuh4c6gj.py":39:58)
#loc21 = loc("/NHNHOME/WORKSPACE/26msit001_A/jinhyeok/TTT_camera_embedding/lact_llm/.cache_inductor/gg/cggfcufjykpaa47h5p6cxsxydgmanbpeuvqbux7jtq27wuh4c6gj.py":39:50)
#loc22 = loc("/NHNHOME/WORKSPACE/26msit001_A/jinhyeok/TTT_camera_embedding/lact_llm/.cache_inductor/gg/cggfcufjykpaa47h5p6cxsxydgmanbpeuvqbux7jtq27wuh4c6gj.py":39:44)
#loc23 = loc("/NHNHOME/WORKSPACE/26msit001_A/jinhyeok/TTT_camera_embedding/lact_llm/.cache_inductor/gg/cggfcufjykpaa47h5p6cxsxydgmanbpeuvqbux7jtq27wuh4c6gj.py":39:71)
#loc24 = loc("/NHNHOME/WORKSPACE/26msit001_A/jinhyeok/TTT_camera_embedding/lact_llm/.cache_inductor/gg/cggfcufjykpaa47h5p6cxsxydgmanbpeuvqbux7jtq27wuh4c6gj.py":39:64)
#loc25 = loc("/NHNHOME/WORKSPACE/26msit001_A/jinhyeok/TTT_camera_embedding/lact_llm/.cache_inductor/gg/cggfcufjykpaa47h5p6cxsxydgmanbpeuvqbux7jtq27wuh4c6gj.py":39:31)
#loc26 = loc("/NHNHOME/WORKSPACE/26msit001_A/jinhyeok/TTT_camera_embedding/lact_llm/.cache_inductor/gg/cggfcufjykpaa47h5p6cxsxydgmanbpeuvqbux7jtq27wuh4c6gj.py":39:76)
#loc27 = loc("/NHNHOME/WORKSPACE/26msit001_A/jinhyeok/TTT_camera_embedding/lact_llm/.cache_inductor/gg/cggfcufjykpaa47h5p6cxsxydgmanbpeuvqbux7jtq27wuh4c6gj.py":39:96)
#loc28 = loc("/NHNHOME/WORKSPACE/26msit001_A/jinhyeok/TTT_camera_embedding/.venv_llm/lib/python3.12/site-packages/triton/language/standard.py":48:30)
#loc29 = loc("/NHNHOME/WORKSPACE/26msit001_A/jinhyeok/TTT_camera_embedding/.venv_llm/lib/python3.12/site-packages/triton/language/standard.py":48:29)
#loc30 = loc("/NHNHOME/WORKSPACE/26msit001_A/jinhyeok/TTT_camera_embedding/.venv_llm/lib/python3.12/site-packages/triton/language/standard.py":48:20)
#loc31 = loc("/NHNHOME/WORKSPACE/26msit001_A/jinhyeok/TTT_camera_embedding/.venv_llm/lib/python3.12/site-packages/triton/language/standard.py":48:16)
#loc32 = loc("/NHNHOME/WORKSPACE/26msit001_A/jinhyeok/TTT_camera_embedding/lact_llm/.cache_inductor/gg/cggfcufjykpaa47h5p6cxsxydgmanbpeuvqbux7jtq27wuh4c6gj.py":42:20)
#loc33 = loc("/NHNHOME/WORKSPACE/26msit001_A/jinhyeok/TTT_camera_embedding/lact_llm/.cache_inductor/gg/cggfcufjykpaa47h5p6cxsxydgmanbpeuvqbux7jtq27wuh4c6gj.py":44:31)
#loc34 = loc("/NHNHOME/WORKSPACE/26msit001_A/jinhyeok/TTT_camera_embedding/lact_llm/.cache_inductor/gg/cggfcufjykpaa47h5p6cxsxydgmanbpeuvqbux7jtq27wuh4c6gj.py":44:76)
#loc35 = loc("/NHNHOME/WORKSPACE/26msit001_A/jinhyeok/TTT_camera_embedding/lact_llm/.cache_inductor/gg/cggfcufjykpaa47h5p6cxsxydgmanbpeuvqbux7jtq27wuh4c6gj.py":44:96)
#loc36 = loc("/NHNHOME/WORKSPACE/26msit001_A/jinhyeok/TTT_camera_embedding/lact_llm/.cache_inductor/gg/cggfcufjykpaa47h5p6cxsxydgmanbpeuvqbux7jtq27wuh4c6gj.py":45:20)
#loc37 = loc("/NHNHOME/WORKSPACE/26msit001_A/jinhyeok/TTT_camera_embedding/lact_llm/.cache_inductor/gg/cggfcufjykpaa47h5p6cxsxydgmanbpeuvqbux7jtq27wuh4c6gj.py":47:34)
#loc38 = loc("/NHNHOME/WORKSPACE/26msit001_A/jinhyeok/TTT_camera_embedding/lact_llm/.cache_inductor/gg/cggfcufjykpaa47h5p6cxsxydgmanbpeuvqbux7jtq27wuh4c6gj.py":48:33)
#loc39 = loc("/NHNHOME/WORKSPACE/26msit001_A/jinhyeok/TTT_camera_embedding/lact_llm/.cache_inductor/gg/cggfcufjykpaa47h5p6cxsxydgmanbpeuvqbux7jtq27wuh4c6gj.py":35:32)
#loc40 = loc("/NHNHOME/WORKSPACE/26msit001_A/jinhyeok/TTT_camera_embedding/lact_llm/.cache_inductor/gg/cggfcufjykpaa47h5p6cxsxydgmanbpeuvqbux7jtq27wuh4c6gj.py":49:25)
#loc41 = loc("/NHNHOME/WORKSPACE/26msit001_A/jinhyeok/TTT_camera_embedding/lact_llm/.cache_inductor/gg/cggfcufjykpaa47h5p6cxsxydgmanbpeuvqbux7jtq27wuh4c6gj.py":49:37)
#loc42 = loc("/NHNHOME/WORKSPACE/26msit001_A/jinhyeok/TTT_camera_embedding/lact_llm/.cache_inductor/gg/cggfcufjykpaa47h5p6cxsxydgmanbpeuvqbux7jtq27wuh4c6gj.py":49:4)
#loc48 = loc("tmp14"(#loc2))
#loc49 = loc("x1"(#loc3))
#loc50 = loc("xoffset"(#loc4))
#loc51 = loc("xoffset"(#loc5))
#loc52 = loc("xindex"(#loc6))
#loc53 = loc("xindex"(#loc7))
#loc54 = loc("x1"(#loc8))
#loc55 = loc("x0"(#loc9))
#loc56 = loc("x2"(#loc10))
#loc57 = loc("tmp4"(#loc11))
#loc58 = loc("tmp5"(#loc12))
#loc59 = loc("tmp5"(#loc13))
#loc60 = loc("tmp5"(#loc14))
#loc61 = loc("tmp5"(#loc15))
#loc62 = loc("tmp5"(#loc16))
#loc63 = loc("tmp5"(#loc17))
#loc64 = loc("tmp9"(#loc18))
#loc65 = loc("tmp12"(#loc19))
#loc66 = loc("tmp12"(#loc20))
#loc67 = loc("tmp12"(#loc21))
#loc68 = loc("tmp12"(#loc22))
#loc69 = loc("tmp12"(#loc23))
#loc70 = loc("tmp12"(#loc24))
#loc71 = loc("tmp12"(#loc25))
#loc72 = loc("tmp12"(#loc26))
#loc73 = loc("tmp12"(#loc27))
#loc74 = loc("tmp15"(#loc32))
#loc75 = loc("tmp17"(#loc33))
#loc76 = loc("tmp17"(#loc34))
#loc77 = loc("tmp17"(#loc35))
#loc78 = loc("tmp18"(#loc36))
#loc79 = loc("tmp20"(#loc37))
#loc80 = loc("tmp21"(#loc38))
#loc81 = loc("tmp8"(#loc39))
#loc82 = loc(callsite(#loc1 at #loc48))
#loc83 = loc(callsite(#loc28 at #loc48))
#loc84 = loc(callsite(#loc29 at #loc48))
#loc85 = loc(callsite(#loc30 at #loc48))
#loc86 = loc(callsite(#loc31 at #loc48))
#loc87 = loc(fused[#loc80, #loc81])
