#loc = loc("/NHNHOME/WORKSPACE/26msit001_A/jinhyeok/TTT_camera_embedding/lact_llm/.cache_inductor/gg/cggfcufjykpaa47h5p6cxsxydgmanbpeuvqbux7jtq27wuh4c6gj.py":18:0)
#loc53 = loc("/NHNHOME/WORKSPACE/26msit001_A/jinhyeok/TTT_camera_embedding/.venv_llm/lib/python3.12/site-packages/triton/language/standard.py":47:0)
#loc60 = loc("in_ptr0"(#loc))
#loc61 = loc("in_ptr1"(#loc))
#loc62 = loc("in_ptr2"(#loc))
#loc63 = loc("out_ptr0"(#loc))
#loc64 = loc("xnumel"(#loc))
#loc114 = loc("x"(#loc53))
module {
  tt.func public @triton_poi_fused__to_copy_cat_mul_silu_slice_stack_view_22(%in_ptr0: !tt.ptr<f32> {tt.divisibility = 16 : i32} loc("in_ptr0"(#loc)), %in_ptr1: !tt.ptr<bf16> {tt.divisibility = 16 : i32} loc("in_ptr1"(#loc)), %in_ptr2: !tt.ptr<bf16> {tt.divisibility = 16 : i32} loc("in_ptr2"(#loc)), %out_ptr0: !tt.ptr<bf16> {tt.divisibility = 16 : i32} loc("out_ptr0"(#loc)), %xnumel: i32 {tt.divisibility = 16 : i32} loc("xnumel"(#loc))) attributes {noinline = false} {
    %xnumel_0 = arith.constant 6291456 : i32 loc(#loc65)
    %xoffset = tt.get_program_id x : i32 loc(#loc66)
    %xoffset_1 = arith.constant 1024 : i32 loc(#loc67)
    %xoffset_2 = arith.constant 1024 : i32 loc(#loc67)
    %xoffset_3 = arith.muli %xoffset, %xoffset_2 : i32 loc(#loc67)
    %xindex = tt.make_range {end = 1024 : i32, start = 0 : i32} : tensor<1024xi32> loc(#loc68)
    %xindex_4 = tt.splat %xoffset_3 : i32 -> tensor<1024xi32> loc(#loc69)
    %xindex_5 = arith.addi %xindex_4, %xindex : tensor<1024xi32> loc(#loc69)
    %xmask = arith.constant true loc(#loc70)
    %xmask_6 = arith.constant dense<true> : tensor<1024xi1> loc(#loc70)
    %x1 = arith.constant 1024 : i32 loc(#loc71)
    %x1_7 = arith.constant 1024 : i32 loc(#loc71)
    %x1_8 = arith.constant dense<1024> : tensor<1024xi32> loc(#loc71)
    %x1_9 = arith.divsi %xindex_5, %x1_8 : tensor<1024xi32> loc(#loc71)
    %x1_10 = arith.constant 192 : i32 loc(#loc72)
    %x1_11 = arith.constant 192 : i32 loc(#loc72)
    %x1_12 = arith.constant dense<192> : tensor<1024xi32> loc(#loc72)
    %x1_13 = arith.remsi %x1_9, %x1_12 : tensor<1024xi32> loc(#loc72)
    %x0 = arith.constant 1024 : i32 loc(#loc73)
    %x0_14 = arith.constant 1024 : i32 loc(#loc73)
    %x0_15 = arith.constant dense<1024> : tensor<1024xi32> loc(#loc73)
    %x0_16 = arith.remsi %xindex_5, %x0_15 : tensor<1024xi32> loc(#loc73)
    %x2 = arith.constant 196608 : i32 loc(#loc74)
    %x2_17 = arith.constant 196608 : i32 loc(#loc74)
    %x2_18 = arith.constant dense<196608> : tensor<1024xi32> loc(#loc74)
    %x2_19 = arith.divsi %xindex_5, %x2_18 : tensor<1024xi32> loc(#loc74)
    %tmp1 = arith.constant 0 : i64 loc(#loc75)
    %tmp1_20 = arith.constant dense<0> : tensor<1xi64> loc(#loc75)
    %tmp2 = arith.extsi %x1_13 : tensor<1024xi32> to tensor<1024xi64> loc(#loc76)
    %tmp2_21 = arith.constant dense<0> : tensor<1024xi64> loc(#loc76)
    %tmp2_22 = arith.cmpi sge, %tmp2, %tmp2_21 : tensor<1024xi64> loc(#loc76)
    %tmp3 = arith.constant 96 : i64 loc(#loc77)
    %tmp3_23 = arith.constant dense<96> : tensor<1xi64> loc(#loc77)
    %tmp4 = arith.extsi %x1_13 : tensor<1024xi32> to tensor<1024xi64> loc(#loc78)
    %tmp4_24 = arith.constant dense<96> : tensor<1024xi64> loc(#loc78)
    %tmp4_25 = arith.cmpi slt, %tmp4, %tmp4_24 : tensor<1024xi64> loc(#loc78)
    %tmp5 = arith.constant 1024 : i32 loc(#loc79)
    %tmp5_26 = arith.constant 1024 : i32 loc(#loc79)
    %tmp5_27 = arith.constant dense<1024> : tensor<1024xi32> loc(#loc79)
    %tmp5_28 = arith.muli %tmp5_27, %x1_13 : tensor<1024xi32> loc(#loc79)
    %tmp5_29 = arith.addi %x0_16, %tmp5_28 : tensor<1024xi32> loc(#loc80)
    %tmp5_30 = arith.constant 98304 : i32 loc(#loc81)
    %tmp5_31 = arith.constant 98304 : i32 loc(#loc81)
    %tmp5_32 = arith.constant dense<98304> : tensor<1024xi32> loc(#loc81)
    %tmp5_33 = arith.muli %tmp5_32, %x2_19 : tensor<1024xi32> loc(#loc81)
    %tmp5_34 = arith.addi %tmp5_29, %tmp5_33 : tensor<1024xi32> loc(#loc82)
    %tmp5_35 = tt.splat %in_ptr0 : !tt.ptr<f32> -> tensor<1024x!tt.ptr<f32>> loc(#loc83)
    %tmp5_36 = tt.addptr %tmp5_35, %tmp5_34 : tensor<1024x!tt.ptr<f32>>, tensor<1024xi32> loc(#loc83)
    %tmp5_37 = arith.constant 0.000000e+00 : f32 loc(#loc84)
    %tmp5_38 = arith.constant dense<0.000000e+00> : tensor<1024xf32> loc(#loc84)
    %tmp5_39 = tt.load %tmp5_36, %tmp4_25, %tmp5_38 : tensor<1024x!tt.ptr<f32>> loc(#loc84)
    %tmp7 = arith.constant 0.000000e+00 : f32 loc(#loc85)
    %tmp7_40 = arith.constant dense<0.000000e+00> : tensor<1024xf32> loc(#loc85)
    %tmp8 = arith.select %tmp4_25, %tmp5_39, %tmp7_40 : tensor<1024xi1>, tensor<1024xf32> loc(#loc86)
    %tmp9 = arith.extsi %x1_13 : tensor<1024xi32> to tensor<1024xi64> loc(#loc87)
    %tmp9_41 = arith.constant dense<96> : tensor<1024xi64> loc(#loc87)
    %tmp9_42 = arith.cmpi sge, %tmp9, %tmp9_41 : tensor<1024xi64> loc(#loc87)
    %tmp10 = arith.constant 192 : i64 loc(#loc88)
    %tmp10_43 = arith.constant dense<192> : tensor<1xi64> loc(#loc88)
    %tmp11 = arith.extsi %x1_13 : tensor<1024xi32> to tensor<1024xi64> loc(#loc89)
    %tmp11_44 = arith.constant dense<192> : tensor<1024xi64> loc(#loc89)
    %tmp11_45 = arith.cmpi slt, %tmp11, %tmp11_44 : tensor<1024xi64> loc(#loc89)
    %tmp12 = arith.constant 98304 : i32 loc(#loc90)
    %tmp12_46 = arith.constant 98304 : i32 loc(#loc90)
    %tmp12_47 = arith.constant dense<98304> : tensor<1024xi32> loc(#loc90)
    %tmp12_48 = arith.addi %tmp12_47, %x0_16 : tensor<1024xi32> loc(#loc90)
    %tmp12_49 = arith.constant -96 : i32 loc(#loc91)
    %tmp12_50 = arith.constant -96 : i32 loc(#loc91)
    %tmp12_51 = arith.constant dense<-96> : tensor<1024xi32> loc(#loc91)
    %tmp12_52 = arith.addi %tmp12_51, %x1_13 : tensor<1024xi32> loc(#loc91)
    %tmp12_53 = arith.constant 1024 : i32 loc(#loc92)
    %tmp12_54 = arith.constant 1024 : i32 loc(#loc92)
    %tmp12_55 = arith.constant dense<1024> : tensor<1024xi32> loc(#loc92)
    %tmp12_56 = arith.muli %tmp12_55, %tmp12_52 : tensor<1024xi32> loc(#loc92)
    %tmp12_57 = arith.addi %tmp12_48, %tmp12_56 : tensor<1024xi32> loc(#loc93)
    %tmp12_58 = arith.constant 196608 : i32 loc(#loc94)
    %tmp12_59 = arith.constant 196608 : i32 loc(#loc94)
    %tmp12_60 = arith.constant dense<196608> : tensor<1024xi32> loc(#loc94)
    %tmp12_61 = arith.muli %tmp12_60, %x2_19 : tensor<1024xi32> loc(#loc94)
    %tmp12_62 = arith.addi %tmp12_57, %tmp12_61 : tensor<1024xi32> loc(#loc95)
    %tmp12_63 = tt.splat %in_ptr1 : !tt.ptr<bf16> -> tensor<1024x!tt.ptr<bf16>> loc(#loc96)
    %tmp12_64 = tt.addptr %tmp12_63, %tmp12_62 : tensor<1024x!tt.ptr<bf16>>, tensor<1024xi32> loc(#loc96)
    %tmp12_65 = arith.constant 0.000000e+00 : f32 loc(#loc97)
    %tmp12_66 = arith.constant dense<0.000000e+00> : tensor<1024xf32> loc(#loc97)
    %tmp12_67 = arith.truncf %tmp12_66 : tensor<1024xf32> to tensor<1024xbf16> loc(#loc97)
    %tmp12_68 = tt.load %tmp12_64, %tmp9_42, %tmp12_67 : tensor<1024x!tt.ptr<bf16>> loc(#loc97)
    %tmp12_69 = arith.extf %tmp12_68 : tensor<1024xbf16> to tensor<1024xf32> loc(#loc98)
    %tmp14 = tt.call @triton.language.standard.sigmoid__fp32S1024S__(%tmp12_69) : (tensor<1024xf32>) -> tensor<1024xf32> loc(#loc99)
    %tmp15 = arith.mulf %tmp12_69, %tmp14 : tensor<1024xf32> loc(#loc100)
    %tmp17 = arith.constant 98304 : i32 loc(#loc101)
    %tmp17_70 = arith.constant 98304 : i32 loc(#loc101)
    %tmp17_71 = arith.constant dense<98304> : tensor<1024xi32> loc(#loc101)
    %tmp17_72 = arith.addi %tmp17_71, %x0_16 : tensor<1024xi32> loc(#loc101)
    %tmp17_73 = arith.constant -96 : i32 loc(#loc102)
    %tmp17_74 = arith.constant -96 : i32 loc(#loc102)
    %tmp17_75 = arith.constant dense<-96> : tensor<1024xi32> loc(#loc102)
    %tmp17_76 = arith.addi %tmp17_75, %x1_13 : tensor<1024xi32> loc(#loc102)
    %tmp17_77 = arith.constant 1024 : i32 loc(#loc103)
    %tmp17_78 = arith.constant 1024 : i32 loc(#loc103)
    %tmp17_79 = arith.constant dense<1024> : tensor<1024xi32> loc(#loc103)
    %tmp17_80 = arith.muli %tmp17_79, %tmp17_76 : tensor<1024xi32> loc(#loc103)
    %tmp17_81 = arith.addi %tmp17_72, %tmp17_80 : tensor<1024xi32> loc(#loc104)
    %tmp17_82 = arith.constant 196608 : i32 loc(#loc105)
    %tmp17_83 = arith.constant 196608 : i32 loc(#loc105)
    %tmp17_84 = arith.constant dense<196608> : tensor<1024xi32> loc(#loc105)
    %tmp17_85 = arith.muli %tmp17_84, %x2_19 : tensor<1024xi32> loc(#loc105)
    %tmp17_86 = arith.addi %tmp17_81, %tmp17_85 : tensor<1024xi32> loc(#loc106)
    %tmp17_87 = tt.splat %in_ptr2 : !tt.ptr<bf16> -> tensor<1024x!tt.ptr<bf16>> loc(#loc107)
    %tmp17_88 = tt.addptr %tmp17_87, %tmp17_86 : tensor<1024x!tt.ptr<bf16>>, tensor<1024xi32> loc(#loc107)
    %tmp17_89 = arith.constant 0.000000e+00 : f32 loc(#loc108)
    %tmp17_90 = arith.constant dense<0.000000e+00> : tensor<1024xf32> loc(#loc108)
    %tmp17_91 = arith.truncf %tmp17_90 : tensor<1024xf32> to tensor<1024xbf16> loc(#loc108)
    %tmp17_92 = tt.load %tmp17_88, %tmp9_42, %tmp17_91 : tensor<1024x!tt.ptr<bf16>> loc(#loc108)
    %tmp17_93 = arith.extf %tmp17_92 : tensor<1024xbf16> to tensor<1024xf32> loc(#loc109)
    %tmp18 = arith.mulf %tmp15, %tmp17_93 : tensor<1024xf32> loc(#loc110)
    %tmp19 = arith.constant 0.000000e+00 : f32 loc(#loc111)
    %tmp19_94 = arith.constant dense<0.000000e+00> : tensor<1024xf32> loc(#loc111)
    %tmp20 = arith.select %tmp9_42, %tmp18, %tmp19_94 : tensor<1024xi1>, tensor<1024xf32> loc(#loc112)
    %tmp21 = arith.select %tmp4_25, %tmp8, %tmp20 : tensor<1024xi1>, tensor<1024xf32> loc(#loc113)
    %0 = tt.splat %out_ptr0 : !tt.ptr<bf16> -> tensor<1024x!tt.ptr<bf16>> loc(#loc50)
    %1 = tt.addptr %0, %xindex_5 : tensor<1024x!tt.ptr<bf16>>, tensor<1024xi32> loc(#loc50)
    %2 = arith.truncf %tmp21 : tensor<1024xf32> to tensor<1024xbf16> loc(#loc51)
    tt.store %1, %2 : tensor<1024x!tt.ptr<bf16>> loc(#loc51)
    tt.return loc(#loc52)
  } loc(#loc)
  tt.func private @triton.language.standard.sigmoid__fp32S1024S__(%x: tensor<1024xf32> loc("x"(#loc53))) -> tensor<1024xf32> attributes {noinline = false} {
    %cst = arith.constant 0.000000e+00 : f32 loc(#loc54)
    %cst_0 = arith.constant dense<0.000000e+00> : tensor<1024xf32> loc(#loc54)
    %0 = arith.subf %cst_0, %x : tensor<1024xf32> loc(#loc54)
    %1 = math.exp %0 : tensor<1024xf32> loc(#loc55)
    %c1_i32 = arith.constant 1 : i32 loc(#loc56)
    %cst_1 = arith.constant 1.000000e+00 : f32 loc(#loc56)
    %cst_2 = arith.constant dense<1.000000e+00> : tensor<1024xf32> loc(#loc56)
    %2 = arith.addf %cst_2, %1 : tensor<1024xf32> loc(#loc56)
    %c1_i32_3 = arith.constant 1 : i32 loc(#loc57)
    %cst_4 = arith.constant 1.000000e+00 : f32 loc(#loc57)
    %cst_5 = arith.constant dense<1.000000e+00> : tensor<1024xf32> loc(#loc57)
    %3 = arith.divf %cst_5, %2 : tensor<1024xf32> loc(#loc57)
    tt.return %3 : tensor<1024xf32> loc(#loc58)
  ^bb1:  // no predecessors
    %4 = ub.poison : tensor<1024xf32> loc(#loc59)
    tt.return %4 : tensor<1024xf32> loc(#loc59)
  } loc(#loc53)
} loc(#loc)
#loc1 = loc("/NHNHOME/WORKSPACE/26msit001_A/jinhyeok/TTT_camera_embedding/lact_llm/.cache_inductor/gg/cggfcufjykpaa47h5p6cxsxydgmanbpeuvqbux7jtq27wuh4c6gj.py":19:13)
#loc2 = loc("/NHNHOME/WORKSPACE/26msit001_A/jinhyeok/TTT_camera_embedding/lact_llm/.cache_inductor/gg/cggfcufjykpaa47h5p6cxsxydgmanbpeuvqbux7jtq27wuh4c6gj.py":20:28)
#loc3 = loc("/NHNHOME/WORKSPACE/26msit001_A/jinhyeok/TTT_camera_embedding/lact_llm/.cache_inductor/gg/cggfcufjykpaa47h5p6cxsxydgmanbpeuvqbux7jtq27wuh4c6gj.py":20:33)
#loc4 = loc("/NHNHOME/WORKSPACE/26msit001_A/jinhyeok/TTT_camera_embedding/lact_llm/.cache_inductor/gg/cggfcufjykpaa47h5p6cxsxydgmanbpeuvqbux7jtq27wuh4c6gj.py":21:36)
#loc5 = loc("/NHNHOME/WORKSPACE/26msit001_A/jinhyeok/TTT_camera_embedding/lact_llm/.cache_inductor/gg/cggfcufjykpaa47h5p6cxsxydgmanbpeuvqbux7jtq27wuh4c6gj.py":21:23)
#loc6 = loc("/NHNHOME/WORKSPACE/26msit001_A/jinhyeok/TTT_camera_embedding/lact_llm/.cache_inductor/gg/cggfcufjykpaa47h5p6cxsxydgmanbpeuvqbux7jtq27wuh4c6gj.py":22:36)
#loc7 = loc("/NHNHOME/WORKSPACE/26msit001_A/jinhyeok/TTT_camera_embedding/lact_llm/.cache_inductor/gg/cggfcufjykpaa47h5p6cxsxydgmanbpeuvqbux7jtq27wuh4c6gj.py":23:21)
#loc8 = loc("/NHNHOME/WORKSPACE/26msit001_A/jinhyeok/TTT_camera_embedding/lact_llm/.cache_inductor/gg/cggfcufjykpaa47h5p6cxsxydgmanbpeuvqbux7jtq27wuh4c6gj.py":23:29)
#loc9 = loc("/NHNHOME/WORKSPACE/26msit001_A/jinhyeok/TTT_camera_embedding/lact_llm/.cache_inductor/gg/cggfcufjykpaa47h5p6cxsxydgmanbpeuvqbux7jtq27wuh4c6gj.py":24:19)
#loc10 = loc("/NHNHOME/WORKSPACE/26msit001_A/jinhyeok/TTT_camera_embedding/lact_llm/.cache_inductor/gg/cggfcufjykpaa47h5p6cxsxydgmanbpeuvqbux7jtq27wuh4c6gj.py":25:19)
#loc11 = loc("/NHNHOME/WORKSPACE/26msit001_A/jinhyeok/TTT_camera_embedding/lact_llm/.cache_inductor/gg/cggfcufjykpaa47h5p6cxsxydgmanbpeuvqbux7jtq27wuh4c6gj.py":28:27)
#loc12 = loc("/NHNHOME/WORKSPACE/26msit001_A/jinhyeok/TTT_camera_embedding/lact_llm/.cache_inductor/gg/cggfcufjykpaa47h5p6cxsxydgmanbpeuvqbux7jtq27wuh4c6gj.py":29:19)
#loc13 = loc("/NHNHOME/WORKSPACE/26msit001_A/jinhyeok/TTT_camera_embedding/lact_llm/.cache_inductor/gg/cggfcufjykpaa47h5p6cxsxydgmanbpeuvqbux7jtq27wuh4c6gj.py":30:28)
#loc14 = loc("/NHNHOME/WORKSPACE/26msit001_A/jinhyeok/TTT_camera_embedding/lact_llm/.cache_inductor/gg/cggfcufjykpaa47h5p6cxsxydgmanbpeuvqbux7jtq27wuh4c6gj.py":31:18)
#loc15 = loc("/NHNHOME/WORKSPACE/26msit001_A/jinhyeok/TTT_camera_embedding/lact_llm/.cache_inductor/gg/cggfcufjykpaa47h5p6cxsxydgmanbpeuvqbux7jtq27wuh4c6gj.py":32:41)
#loc16 = loc("/NHNHOME/WORKSPACE/26msit001_A/jinhyeok/TTT_camera_embedding/lact_llm/.cache_inductor/gg/cggfcufjykpaa47h5p6cxsxydgmanbpeuvqbux7jtq27wuh4c6gj.py":32:35)
#loc17 = loc("/NHNHOME/WORKSPACE/26msit001_A/jinhyeok/TTT_camera_embedding/lact_llm/.cache_inductor/gg/cggfcufjykpaa47h5p6cxsxydgmanbpeuvqbux7jtq27wuh4c6gj.py":32:53)
#loc18 = loc("/NHNHOME/WORKSPACE/26msit001_A/jinhyeok/TTT_camera_embedding/lact_llm/.cache_inductor/gg/cggfcufjykpaa47h5p6cxsxydgmanbpeuvqbux7jtq27wuh4c6gj.py":32:47)
#loc19 = loc("/NHNHOME/WORKSPACE/26msit001_A/jinhyeok/TTT_camera_embedding/lact_llm/.cache_inductor/gg/cggfcufjykpaa47h5p6cxsxydgmanbpeuvqbux7jtq27wuh4c6gj.py":32:30)
#loc20 = loc("/NHNHOME/WORKSPACE/26msit001_A/jinhyeok/TTT_camera_embedding/lact_llm/.cache_inductor/gg/cggfcufjykpaa47h5p6cxsxydgmanbpeuvqbux7jtq27wuh4c6gj.py":32:58)
#loc21 = loc("/NHNHOME/WORKSPACE/26msit001_A/jinhyeok/TTT_camera_embedding/lact_llm/.cache_inductor/gg/cggfcufjykpaa47h5p6cxsxydgmanbpeuvqbux7jtq27wuh4c6gj.py":34:36)
#loc22 = loc("/NHNHOME/WORKSPACE/26msit001_A/jinhyeok/TTT_camera_embedding/lact_llm/.cache_inductor/gg/cggfcufjykpaa47h5p6cxsxydgmanbpeuvqbux7jtq27wuh4c6gj.py":35:32)
#loc23 = loc("/NHNHOME/WORKSPACE/26msit001_A/jinhyeok/TTT_camera_embedding/lact_llm/.cache_inductor/gg/cggfcufjykpaa47h5p6cxsxydgmanbpeuvqbux7jtq27wuh4c6gj.py":36:19)
#loc24 = loc("/NHNHOME/WORKSPACE/26msit001_A/jinhyeok/TTT_camera_embedding/lact_llm/.cache_inductor/gg/cggfcufjykpaa47h5p6cxsxydgmanbpeuvqbux7jtq27wuh4c6gj.py":37:30)
#loc25 = loc("/NHNHOME/WORKSPACE/26msit001_A/jinhyeok/TTT_camera_embedding/lact_llm/.cache_inductor/gg/cggfcufjykpaa47h5p6cxsxydgmanbpeuvqbux7jtq27wuh4c6gj.py":38:19)
#loc26 = loc("/NHNHOME/WORKSPACE/26msit001_A/jinhyeok/TTT_camera_embedding/lact_llm/.cache_inductor/gg/cggfcufjykpaa47h5p6cxsxydgmanbpeuvqbux7jtq27wuh4c6gj.py":39:39)
#loc27 = loc("/NHNHOME/WORKSPACE/26msit001_A/jinhyeok/TTT_camera_embedding/lact_llm/.cache_inductor/gg/cggfcufjykpaa47h5p6cxsxydgmanbpeuvqbux7jtq27wuh4c6gj.py":39:58)
#loc28 = loc("/NHNHOME/WORKSPACE/26msit001_A/jinhyeok/TTT_camera_embedding/lact_llm/.cache_inductor/gg/cggfcufjykpaa47h5p6cxsxydgmanbpeuvqbux7jtq27wuh4c6gj.py":39:50)
#loc29 = loc("/NHNHOME/WORKSPACE/26msit001_A/jinhyeok/TTT_camera_embedding/lact_llm/.cache_inductor/gg/cggfcufjykpaa47h5p6cxsxydgmanbpeuvqbux7jtq27wuh4c6gj.py":39:44)
#loc30 = loc("/NHNHOME/WORKSPACE/26msit001_A/jinhyeok/TTT_camera_embedding/lact_llm/.cache_inductor/gg/cggfcufjykpaa47h5p6cxsxydgmanbpeuvqbux7jtq27wuh4c6gj.py":39:71)
#loc31 = loc("/NHNHOME/WORKSPACE/26msit001_A/jinhyeok/TTT_camera_embedding/lact_llm/.cache_inductor/gg/cggfcufjykpaa47h5p6cxsxydgmanbpeuvqbux7jtq27wuh4c6gj.py":39:64)
#loc32 = loc("/NHNHOME/WORKSPACE/26msit001_A/jinhyeok/TTT_camera_embedding/lact_llm/.cache_inductor/gg/cggfcufjykpaa47h5p6cxsxydgmanbpeuvqbux7jtq27wuh4c6gj.py":39:31)
#loc33 = loc("/NHNHOME/WORKSPACE/26msit001_A/jinhyeok/TTT_camera_embedding/lact_llm/.cache_inductor/gg/cggfcufjykpaa47h5p6cxsxydgmanbpeuvqbux7jtq27wuh4c6gj.py":39:76)
#loc34 = loc("/NHNHOME/WORKSPACE/26msit001_A/jinhyeok/TTT_camera_embedding/lact_llm/.cache_inductor/gg/cggfcufjykpaa47h5p6cxsxydgmanbpeuvqbux7jtq27wuh4c6gj.py":39:96)
#loc35 = loc("/NHNHOME/WORKSPACE/26msit001_A/jinhyeok/TTT_camera_embedding/lact_llm/.cache_inductor/gg/cggfcufjykpaa47h5p6cxsxydgmanbpeuvqbux7jtq27wuh4c6gj.py":41:23)
#loc36 = loc("/NHNHOME/WORKSPACE/26msit001_A/jinhyeok/TTT_camera_embedding/lact_llm/.cache_inductor/gg/cggfcufjykpaa47h5p6cxsxydgmanbpeuvqbux7jtq27wuh4c6gj.py":42:20)
#loc37 = loc("/NHNHOME/WORKSPACE/26msit001_A/jinhyeok/TTT_camera_embedding/lact_llm/.cache_inductor/gg/cggfcufjykpaa47h5p6cxsxydgmanbpeuvqbux7jtq27wuh4c6gj.py":44:39)
#loc38 = loc("/NHNHOME/WORKSPACE/26msit001_A/jinhyeok/TTT_camera_embedding/lact_llm/.cache_inductor/gg/cggfcufjykpaa47h5p6cxsxydgmanbpeuvqbux7jtq27wuh4c6gj.py":44:58)
#loc39 = loc("/NHNHOME/WORKSPACE/26msit001_A/jinhyeok/TTT_camera_embedding/lact_llm/.cache_inductor/gg/cggfcufjykpaa47h5p6cxsxydgmanbpeuvqbux7jtq27wuh4c6gj.py":44:50)
#loc40 = loc("/NHNHOME/WORKSPACE/26msit001_A/jinhyeok/TTT_camera_embedding/lact_llm/.cache_inductor/gg/cggfcufjykpaa47h5p6cxsxydgmanbpeuvqbux7jtq27wuh4c6gj.py":44:44)
#loc41 = loc("/NHNHOME/WORKSPACE/26msit001_A/jinhyeok/TTT_camera_embedding/lact_llm/.cache_inductor/gg/cggfcufjykpaa47h5p6cxsxydgmanbpeuvqbux7jtq27wuh4c6gj.py":44:71)
#loc42 = loc("/NHNHOME/WORKSPACE/26msit001_A/jinhyeok/TTT_camera_embedding/lact_llm/.cache_inductor/gg/cggfcufjykpaa47h5p6cxsxydgmanbpeuvqbux7jtq27wuh4c6gj.py":44:64)
#loc43 = loc("/NHNHOME/WORKSPACE/26msit001_A/jinhyeok/TTT_camera_embedding/lact_llm/.cache_inductor/gg/cggfcufjykpaa47h5p6cxsxydgmanbpeuvqbux7jtq27wuh4c6gj.py":44:31)
#loc44 = loc("/NHNHOME/WORKSPACE/26msit001_A/jinhyeok/TTT_camera_embedding/lact_llm/.cache_inductor/gg/cggfcufjykpaa47h5p6cxsxydgmanbpeuvqbux7jtq27wuh4c6gj.py":44:76)
#loc45 = loc("/NHNHOME/WORKSPACE/26msit001_A/jinhyeok/TTT_camera_embedding/lact_llm/.cache_inductor/gg/cggfcufjykpaa47h5p6cxsxydgmanbpeuvqbux7jtq27wuh4c6gj.py":44:96)
#loc46 = loc("/NHNHOME/WORKSPACE/26msit001_A/jinhyeok/TTT_camera_embedding/lact_llm/.cache_inductor/gg/cggfcufjykpaa47h5p6cxsxydgmanbpeuvqbux7jtq27wuh4c6gj.py":45:20)
#loc47 = loc("/NHNHOME/WORKSPACE/26msit001_A/jinhyeok/TTT_camera_embedding/lact_llm/.cache_inductor/gg/cggfcufjykpaa47h5p6cxsxydgmanbpeuvqbux7jtq27wuh4c6gj.py":46:38)
#loc48 = loc("/NHNHOME/WORKSPACE/26msit001_A/jinhyeok/TTT_camera_embedding/lact_llm/.cache_inductor/gg/cggfcufjykpaa47h5p6cxsxydgmanbpeuvqbux7jtq27wuh4c6gj.py":47:34)
#loc49 = loc("/NHNHOME/WORKSPACE/26msit001_A/jinhyeok/TTT_camera_embedding/lact_llm/.cache_inductor/gg/cggfcufjykpaa47h5p6cxsxydgmanbpeuvqbux7jtq27wuh4c6gj.py":48:33)
#loc50 = loc("/NHNHOME/WORKSPACE/26msit001_A/jinhyeok/TTT_camera_embedding/lact_llm/.cache_inductor/gg/cggfcufjykpaa47h5p6cxsxydgmanbpeuvqbux7jtq27wuh4c6gj.py":49:25)
#loc51 = loc("/NHNHOME/WORKSPACE/26msit001_A/jinhyeok/TTT_camera_embedding/lact_llm/.cache_inductor/gg/cggfcufjykpaa47h5p6cxsxydgmanbpeuvqbux7jtq27wuh4c6gj.py":49:37)
#loc52 = loc("/NHNHOME/WORKSPACE/26msit001_A/jinhyeok/TTT_camera_embedding/lact_llm/.cache_inductor/gg/cggfcufjykpaa47h5p6cxsxydgmanbpeuvqbux7jtq27wuh4c6gj.py":49:4)
#loc54 = loc("/NHNHOME/WORKSPACE/26msit001_A/jinhyeok/TTT_camera_embedding/.venv_llm/lib/python3.12/site-packages/triton/language/standard.py":48:30)
#loc55 = loc("/NHNHOME/WORKSPACE/26msit001_A/jinhyeok/TTT_camera_embedding/.venv_llm/lib/python3.12/site-packages/triton/language/standard.py":48:29)
#loc56 = loc("/NHNHOME/WORKSPACE/26msit001_A/jinhyeok/TTT_camera_embedding/.venv_llm/lib/python3.12/site-packages/triton/language/standard.py":48:20)
#loc57 = loc("/NHNHOME/WORKSPACE/26msit001_A/jinhyeok/TTT_camera_embedding/.venv_llm/lib/python3.12/site-packages/triton/language/standard.py":48:16)
#loc58 = loc("/NHNHOME/WORKSPACE/26msit001_A/jinhyeok/TTT_camera_embedding/.venv_llm/lib/python3.12/site-packages/triton/language/standard.py":48:11)
#loc59 = loc("/NHNHOME/WORKSPACE/26msit001_A/jinhyeok/TTT_camera_embedding/.venv_llm/lib/python3.12/site-packages/triton/language/standard.py":48:4)
#loc65 = loc("xnumel"(#loc1))
#loc66 = loc("xoffset"(#loc2))
#loc67 = loc("xoffset"(#loc3))
#loc68 = loc("xindex"(#loc4))
#loc69 = loc("xindex"(#loc5))
#loc70 = loc("xmask"(#loc6))
#loc71 = loc("x1"(#loc7))
#loc72 = loc("x1"(#loc8))
#loc73 = loc("x0"(#loc9))
#loc74 = loc("x2"(#loc10))
#loc75 = loc("tmp1"(#loc11))
#loc76 = loc("tmp2"(#loc12))
#loc77 = loc("tmp3"(#loc13))
#loc78 = loc("tmp4"(#loc14))
#loc79 = loc("tmp5"(#loc15))
#loc80 = loc("tmp5"(#loc16))
#loc81 = loc("tmp5"(#loc17))
#loc82 = loc("tmp5"(#loc18))
#loc83 = loc("tmp5"(#loc19))
#loc84 = loc("tmp5"(#loc20))
#loc85 = loc("tmp7"(#loc21))
#loc86 = loc("tmp8"(#loc22))
#loc87 = loc("tmp9"(#loc23))
#loc88 = loc("tmp10"(#loc24))
#loc89 = loc("tmp11"(#loc25))
#loc90 = loc("tmp12"(#loc26))
#loc91 = loc("tmp12"(#loc27))
#loc92 = loc("tmp12"(#loc28))
#loc93 = loc("tmp12"(#loc29))
#loc94 = loc("tmp12"(#loc30))
#loc95 = loc("tmp12"(#loc31))
#loc96 = loc("tmp12"(#loc32))
#loc97 = loc("tmp12"(#loc33))
#loc98 = loc("tmp12"(#loc34))
#loc99 = loc("tmp14"(#loc35))
#loc100 = loc("tmp15"(#loc36))
#loc101 = loc("tmp17"(#loc37))
#loc102 = loc("tmp17"(#loc38))
#loc103 = loc("tmp17"(#loc39))
#loc104 = loc("tmp17"(#loc40))
#loc105 = loc("tmp17"(#loc41))
#loc106 = loc("tmp17"(#loc42))
#loc107 = loc("tmp17"(#loc43))
#loc108 = loc("tmp17"(#loc44))
#loc109 = loc("tmp17"(#loc45))
#loc110 = loc("tmp18"(#loc46))
#loc111 = loc("tmp19"(#loc47))
#loc112 = loc("tmp20"(#loc48))
#loc113 = loc("tmp21"(#loc49))
