#loc = loc("/NHNHOME/WORKSPACE/26msit001_A/jinhyeok/TTT_camera_embedding/lact_llm/.cache_inductor/7s/c7sy264at5bjm3hxwqvsylrnoxxheqrfgkkyfih2xlg4sqx7qfdw.py":18:0)
#loc16 = loc("in_out_ptr0"(#loc))
#loc17 = loc("in_ptr0"(#loc))
#loc18 = loc("xnumel"(#loc))
module {
  tt.func public @triton_poi_fused_add_mul_16(%in_out_ptr0: !tt.ptr<bf16> {tt.divisibility = 16 : i32} loc("in_out_ptr0"(#loc)), %in_ptr0: !tt.ptr<bf16> {tt.divisibility = 16 : i32} loc("in_ptr0"(#loc)), %xnumel: i32 {tt.divisibility = 16 : i32} loc("xnumel"(#loc))) attributes {noinline = false} {
    %tmp2 = arith.constant dense<-3.052500e+00> : tensor<512xf32> loc(#loc19)
    %c512_i32 = arith.constant 512 : i32 loc(#loc2)
    %xoffset = tt.get_program_id x : i32 loc(#loc20)
    %xoffset_0 = arith.muli %xoffset, %c512_i32 : i32 loc(#loc21)
    %xindex = tt.make_range {end = 512 : i32, start = 0 : i32} : tensor<512xi32> loc(#loc22)
    %xindex_1 = tt.splat %xoffset_0 : i32 -> tensor<512xi32> loc(#loc23)
    %xindex_2 = arith.addi %xindex_1, %xindex : tensor<512xi32> loc(#loc23)
    %tmp0 = tt.splat %in_out_ptr0 : !tt.ptr<bf16> -> tensor<512x!tt.ptr<bf16>> loc(#loc24)
    %tmp0_3 = tt.addptr %tmp0, %xindex_2 : tensor<512x!tt.ptr<bf16>>, tensor<512xi32> loc(#loc24)
    %tmp0_4 = tt.load %tmp0_3 : tensor<512x!tt.ptr<bf16>> loc(#loc25)
    %tmp0_5 = arith.extf %tmp0_4 : tensor<512xbf16> to tensor<512xf32> loc(#loc26)
    %tmp3 = tt.splat %in_ptr0 : !tt.ptr<bf16> -> tensor<512x!tt.ptr<bf16>> loc(#loc27)
    %tmp3_6 = tt.addptr %tmp3, %xindex_2 : tensor<512x!tt.ptr<bf16>>, tensor<512xi32> loc(#loc27)
    %tmp3_7 = tt.load %tmp3_6 : tensor<512x!tt.ptr<bf16>> loc(#loc28)
    %tmp3_8 = arith.extf %tmp3_7 : tensor<512xbf16> to tensor<512xf32> loc(#loc29)
    %tmp2_9 = arith.mulf %tmp0_5, %tmp2 : tensor<512xf32> loc(#loc19)
    %tmp4 = arith.addf %tmp2_9, %tmp3_8 : tensor<512xf32> loc(#loc30)
    %0 = arith.truncf %tmp4 : tensor<512xf32> to tensor<512xbf16> loc(#loc14)
    tt.store %tmp0_3, %0 : tensor<512x!tt.ptr<bf16>> loc(#loc14)
    tt.return loc(#loc15)
  } loc(#loc)
} loc(#loc)
#loc1 = loc("/NHNHOME/WORKSPACE/26msit001_A/jinhyeok/TTT_camera_embedding/lact_llm/.cache_inductor/7s/c7sy264at5bjm3hxwqvsylrnoxxheqrfgkkyfih2xlg4sqx7qfdw.py":27:18)
#loc2 = loc(unknown)
#loc3 = loc("/NHNHOME/WORKSPACE/26msit001_A/jinhyeok/TTT_camera_embedding/lact_llm/.cache_inductor/7s/c7sy264at5bjm3hxwqvsylrnoxxheqrfgkkyfih2xlg4sqx7qfdw.py":20:28)
#loc4 = loc("/NHNHOME/WORKSPACE/26msit001_A/jinhyeok/TTT_camera_embedding/lact_llm/.cache_inductor/7s/c7sy264at5bjm3hxwqvsylrnoxxheqrfgkkyfih2xlg4sqx7qfdw.py":20:33)
#loc5 = loc("/NHNHOME/WORKSPACE/26msit001_A/jinhyeok/TTT_camera_embedding/lact_llm/.cache_inductor/7s/c7sy264at5bjm3hxwqvsylrnoxxheqrfgkkyfih2xlg4sqx7qfdw.py":21:36)
#loc6 = loc("/NHNHOME/WORKSPACE/26msit001_A/jinhyeok/TTT_camera_embedding/lact_llm/.cache_inductor/7s/c7sy264at5bjm3hxwqvsylrnoxxheqrfgkkyfih2xlg4sqx7qfdw.py":21:23)
#loc7 = loc("/NHNHOME/WORKSPACE/26msit001_A/jinhyeok/TTT_camera_embedding/lact_llm/.cache_inductor/7s/c7sy264at5bjm3hxwqvsylrnoxxheqrfgkkyfih2xlg4sqx7qfdw.py":24:34)
#loc8 = loc("/NHNHOME/WORKSPACE/26msit001_A/jinhyeok/TTT_camera_embedding/lact_llm/.cache_inductor/7s/c7sy264at5bjm3hxwqvsylrnoxxheqrfgkkyfih2xlg4sqx7qfdw.py":24:39)
#loc9 = loc("/NHNHOME/WORKSPACE/26msit001_A/jinhyeok/TTT_camera_embedding/lact_llm/.cache_inductor/7s/c7sy264at5bjm3hxwqvsylrnoxxheqrfgkkyfih2xlg4sqx7qfdw.py":24:48)
#loc10 = loc("/NHNHOME/WORKSPACE/26msit001_A/jinhyeok/TTT_camera_embedding/lact_llm/.cache_inductor/7s/c7sy264at5bjm3hxwqvsylrnoxxheqrfgkkyfih2xlg4sqx7qfdw.py":25:30)
#loc11 = loc("/NHNHOME/WORKSPACE/26msit001_A/jinhyeok/TTT_camera_embedding/lact_llm/.cache_inductor/7s/c7sy264at5bjm3hxwqvsylrnoxxheqrfgkkyfih2xlg4sqx7qfdw.py":25:35)
#loc12 = loc("/NHNHOME/WORKSPACE/26msit001_A/jinhyeok/TTT_camera_embedding/lact_llm/.cache_inductor/7s/c7sy264at5bjm3hxwqvsylrnoxxheqrfgkkyfih2xlg4sqx7qfdw.py":25:44)
#loc13 = loc("/NHNHOME/WORKSPACE/26msit001_A/jinhyeok/TTT_camera_embedding/lact_llm/.cache_inductor/7s/c7sy264at5bjm3hxwqvsylrnoxxheqrfgkkyfih2xlg4sqx7qfdw.py":28:18)
#loc14 = loc("/NHNHOME/WORKSPACE/26msit001_A/jinhyeok/TTT_camera_embedding/lact_llm/.cache_inductor/7s/c7sy264at5bjm3hxwqvsylrnoxxheqrfgkkyfih2xlg4sqx7qfdw.py":29:39)
#loc15 = loc("/NHNHOME/WORKSPACE/26msit001_A/jinhyeok/TTT_camera_embedding/lact_llm/.cache_inductor/7s/c7sy264at5bjm3hxwqvsylrnoxxheqrfgkkyfih2xlg4sqx7qfdw.py":29:4)
#loc19 = loc("tmp2"(#loc1))
#loc20 = loc("xoffset"(#loc3))
#loc21 = loc("xoffset"(#loc4))
#loc22 = loc("xindex"(#loc5))
#loc23 = loc("xindex"(#loc6))
#loc24 = loc("tmp0"(#loc7))
#loc25 = loc("tmp0"(#loc8))
#loc26 = loc("tmp0"(#loc9))
#loc27 = loc("tmp3"(#loc10))
#loc28 = loc("tmp3"(#loc11))
#loc29 = loc("tmp3"(#loc12))
#loc30 = loc("tmp4"(#loc13))
