#loc = loc("/NHNHOME/WORKSPACE/26msit001_A/jinhyeok/TTT_camera_embedding/lact_llm/.cache_inductor/qs/cqs2cu5pzaxjbhpi5bwakoi37tjpiaffjpuwd4vpbr2azp5o3eo3.py":18:0)
#loc31 = loc("in_ptr0"(#loc))
#loc32 = loc("in_ptr1"(#loc))
#loc33 = loc("in_ptr2"(#loc))
#loc34 = loc("out_ptr0"(#loc))
#loc35 = loc("out_ptr1"(#loc))
#loc36 = loc("xnumel"(#loc))
module {
  tt.func public @triton_poi_fused__to_copy_mul_slice_55(%in_ptr0: !tt.ptr<bf16> {tt.divisibility = 16 : i32} loc("in_ptr0"(#loc)), %in_ptr1: !tt.ptr<f32> {tt.divisibility = 16 : i32} loc("in_ptr1"(#loc)), %in_ptr2: !tt.ptr<f32> loc("in_ptr2"(#loc)), %out_ptr0: !tt.ptr<bf16> {tt.divisibility = 16 : i32} loc("out_ptr0"(#loc)), %out_ptr1: !tt.ptr<bf16> {tt.divisibility = 16 : i32} loc("out_ptr1"(#loc)), %xnumel: i32 {tt.divisibility = 16 : i32} loc("xnumel"(#loc))) attributes {noinline = false} {
    %cst = arith.constant dense<12288> : tensor<1024xi32> loc(#loc1)
    %cst_0 = arith.constant dense<6144> : tensor<1024xi32> loc(#loc1)
    %cst_1 = arith.constant dense<3> : tensor<1024xi32> loc(#loc1)
    %tmp0 = arith.constant dense<786432> : tensor<1024xi32> loc(#loc37)
    %tmp0_2 = arith.constant dense<393216> : tensor<1024xi32> loc(#loc38)
    %x1 = arith.constant dense<1024> : tensor<1024xi32> loc(#loc39)
    %x1_3 = arith.constant dense<192> : tensor<1024xi32> loc(#loc40)
    %cst_4 = arith.constant dense<196608> : tensor<1024xi32> loc(#loc1)
    %c1024_i32 = arith.constant 1024 : i32 loc(#loc1)
    %xoffset = tt.get_program_id x : i32 loc(#loc41)
    %xoffset_5 = arith.muli %xoffset, %c1024_i32 : i32 loc(#loc42)
    %xindex = tt.make_range {end = 1024 : i32, start = 0 : i32} : tensor<1024xi32> loc(#loc43)
    %xindex_6 = tt.splat %xoffset_5 : i32 -> tensor<1024xi32> loc(#loc44)
    %xindex_7 = arith.addi %xindex_6, %xindex : tensor<1024xi32> loc(#loc44)
    %x2 = arith.divsi %xindex_7, %cst_4 : tensor<1024xi32> loc(#loc45)
    %x3 = arith.remsi %xindex_7, %cst_4 : tensor<1024xi32> loc(#loc46)
    %x1_8 = arith.divsi %xindex_7, %x1_3 : tensor<1024xi32> loc(#loc40)
    %x1_9 = arith.remsi %x1_8, %x1 : tensor<1024xi32> loc(#loc39)
    %tmp0_10 = arith.addi %x3, %tmp0_2 : tensor<1024xi32> loc(#loc38)
    %tmp0_11 = arith.muli %x2, %tmp0 : tensor<1024xi32> loc(#loc37)
    %tmp0_12 = arith.addi %tmp0_10, %tmp0_11 : tensor<1024xi32> loc(#loc47)
    %tmp0_13 = tt.splat %in_ptr0 : !tt.ptr<bf16> -> tensor<1024x!tt.ptr<bf16>> loc(#loc48)
    %tmp0_14 = tt.addptr %tmp0_13, %tmp0_12 : tensor<1024x!tt.ptr<bf16>>, tensor<1024xi32> loc(#loc48)
    %tmp0_15 = tt.load %tmp0_14 : tensor<1024x!tt.ptr<bf16>> loc(#loc49)
    %tmp0_16 = arith.extf %tmp0_15 : tensor<1024xbf16> to tensor<1024xf32> loc(#loc50)
    %tmp2 = arith.muli %x1_9, %cst_1 : tensor<1024xi32> loc(#loc51)
    %tmp2_17 = arith.addi %tmp2, %cst_0 : tensor<1024xi32> loc(#loc52)
    %tmp2_18 = arith.muli %x2, %cst : tensor<1024xi32> loc(#loc53)
    %tmp2_19 = arith.addi %tmp2_17, %tmp2_18 : tensor<1024xi32> loc(#loc54)
    %tmp2_20 = tt.splat %in_ptr1 : !tt.ptr<f32> -> tensor<1024x!tt.ptr<f32>> loc(#loc55)
    %tmp2_21 = tt.addptr %tmp2_20, %tmp2_19 : tensor<1024x!tt.ptr<f32>>, tensor<1024xi32> loc(#loc55)
    %tmp2_22 = tt.load %tmp2_21 evictionPolicy = evict_last : tensor<1024x!tt.ptr<f32>> loc(#loc56)
    %tmp5 = tt.splat %in_ptr2 : !tt.ptr<f32> -> tensor<1024x!tt.ptr<f32>> loc(#loc57)
    %tmp5_23 = tt.addptr %tmp5, %tmp2_19 : tensor<1024x!tt.ptr<f32>>, tensor<1024xi32> loc(#loc57)
    %tmp5_24 = tt.load %tmp5_23 evictionPolicy = evict_last : tensor<1024x!tt.ptr<f32>> loc(#loc58)
    %tmp3 = arith.mulf %tmp0_16, %tmp2_22 : tensor<1024xf32> loc(#loc59)
    %tmp6 = arith.mulf %tmp0_16, %tmp5_24 : tensor<1024xf32> loc(#loc60)
    %0 = tt.splat %out_ptr0 : !tt.ptr<bf16> -> tensor<1024x!tt.ptr<bf16>> loc(#loc26)
    %1 = tt.addptr %0, %xindex_7 : tensor<1024x!tt.ptr<bf16>>, tensor<1024xi32> loc(#loc26)
    %2 = arith.truncf %tmp3 : tensor<1024xf32> to tensor<1024xbf16> loc(#loc27)
    tt.store %1, %2 : tensor<1024x!tt.ptr<bf16>> loc(#loc27)
    %3 = tt.splat %out_ptr1 : !tt.ptr<bf16> -> tensor<1024x!tt.ptr<bf16>> loc(#loc28)
    %4 = tt.addptr %3, %xindex_7 : tensor<1024x!tt.ptr<bf16>>, tensor<1024xi32> loc(#loc28)
    %5 = arith.truncf %tmp6 : tensor<1024xf32> to tensor<1024xbf16> loc(#loc29)
    tt.store %4, %5 : tensor<1024x!tt.ptr<bf16>> loc(#loc29)
    tt.return loc(#loc30)
  } loc(#loc)
} loc(#loc)
#loc1 = loc(unknown)
#loc2 = loc("/NHNHOME/WORKSPACE/26msit001_A/jinhyeok/TTT_camera_embedding/lact_llm/.cache_inductor/qs/cqs2cu5pzaxjbhpi5bwakoi37tjpiaffjpuwd4vpbr2azp5o3eo3.py":27:51)
#loc3 = loc("/NHNHOME/WORKSPACE/26msit001_A/jinhyeok/TTT_camera_embedding/lact_llm/.cache_inductor/qs/cqs2cu5pzaxjbhpi5bwakoi37tjpiaffjpuwd4vpbr2azp5o3eo3.py":27:39)
#loc4 = loc("/NHNHOME/WORKSPACE/26msit001_A/jinhyeok/TTT_camera_embedding/lact_llm/.cache_inductor/qs/cqs2cu5pzaxjbhpi5bwakoi37tjpiaffjpuwd4vpbr2azp5o3eo3.py":25:28)
#loc5 = loc("/NHNHOME/WORKSPACE/26msit001_A/jinhyeok/TTT_camera_embedding/lact_llm/.cache_inductor/qs/cqs2cu5pzaxjbhpi5bwakoi37tjpiaffjpuwd4vpbr2azp5o3eo3.py":25:21)
#loc6 = loc("/NHNHOME/WORKSPACE/26msit001_A/jinhyeok/TTT_camera_embedding/lact_llm/.cache_inductor/qs/cqs2cu5pzaxjbhpi5bwakoi37tjpiaffjpuwd4vpbr2azp5o3eo3.py":20:28)
#loc7 = loc("/NHNHOME/WORKSPACE/26msit001_A/jinhyeok/TTT_camera_embedding/lact_llm/.cache_inductor/qs/cqs2cu5pzaxjbhpi5bwakoi37tjpiaffjpuwd4vpbr2azp5o3eo3.py":20:33)
#loc8 = loc("/NHNHOME/WORKSPACE/26msit001_A/jinhyeok/TTT_camera_embedding/lact_llm/.cache_inductor/qs/cqs2cu5pzaxjbhpi5bwakoi37tjpiaffjpuwd4vpbr2azp5o3eo3.py":21:36)
#loc9 = loc("/NHNHOME/WORKSPACE/26msit001_A/jinhyeok/TTT_camera_embedding/lact_llm/.cache_inductor/qs/cqs2cu5pzaxjbhpi5bwakoi37tjpiaffjpuwd4vpbr2azp5o3eo3.py":21:23)
#loc10 = loc("/NHNHOME/WORKSPACE/26msit001_A/jinhyeok/TTT_camera_embedding/lact_llm/.cache_inductor/qs/cqs2cu5pzaxjbhpi5bwakoi37tjpiaffjpuwd4vpbr2azp5o3eo3.py":23:19)
#loc11 = loc("/NHNHOME/WORKSPACE/26msit001_A/jinhyeok/TTT_camera_embedding/lact_llm/.cache_inductor/qs/cqs2cu5pzaxjbhpi5bwakoi37tjpiaffjpuwd4vpbr2azp5o3eo3.py":24:19)
#loc12 = loc("/NHNHOME/WORKSPACE/26msit001_A/jinhyeok/TTT_camera_embedding/lact_llm/.cache_inductor/qs/cqs2cu5pzaxjbhpi5bwakoi37tjpiaffjpuwd4vpbr2azp5o3eo3.py":27:44)
#loc13 = loc("/NHNHOME/WORKSPACE/26msit001_A/jinhyeok/TTT_camera_embedding/lact_llm/.cache_inductor/qs/cqs2cu5pzaxjbhpi5bwakoi37tjpiaffjpuwd4vpbr2azp5o3eo3.py":27:30)
#loc14 = loc("/NHNHOME/WORKSPACE/26msit001_A/jinhyeok/TTT_camera_embedding/lact_llm/.cache_inductor/qs/cqs2cu5pzaxjbhpi5bwakoi37tjpiaffjpuwd4vpbr2azp5o3eo3.py":27:56)
#loc15 = loc("/NHNHOME/WORKSPACE/26msit001_A/jinhyeok/TTT_camera_embedding/lact_llm/.cache_inductor/qs/cqs2cu5pzaxjbhpi5bwakoi37tjpiaffjpuwd4vpbr2azp5o3eo3.py":27:65)
#loc16 = loc("/NHNHOME/WORKSPACE/26msit001_A/jinhyeok/TTT_camera_embedding/lact_llm/.cache_inductor/qs/cqs2cu5pzaxjbhpi5bwakoi37tjpiaffjpuwd4vpbr2azp5o3eo3.py":28:39)
#loc17 = loc("/NHNHOME/WORKSPACE/26msit001_A/jinhyeok/TTT_camera_embedding/lact_llm/.cache_inductor/qs/cqs2cu5pzaxjbhpi5bwakoi37tjpiaffjpuwd4vpbr2azp5o3eo3.py":28:37)
#loc18 = loc("/NHNHOME/WORKSPACE/26msit001_A/jinhyeok/TTT_camera_embedding/lact_llm/.cache_inductor/qs/cqs2cu5pzaxjbhpi5bwakoi37tjpiaffjpuwd4vpbr2azp5o3eo3.py":28:50)
#loc19 = loc("/NHNHOME/WORKSPACE/26msit001_A/jinhyeok/TTT_camera_embedding/lact_llm/.cache_inductor/qs/cqs2cu5pzaxjbhpi5bwakoi37tjpiaffjpuwd4vpbr2azp5o3eo3.py":28:44)
#loc20 = loc("/NHNHOME/WORKSPACE/26msit001_A/jinhyeok/TTT_camera_embedding/lact_llm/.cache_inductor/qs/cqs2cu5pzaxjbhpi5bwakoi37tjpiaffjpuwd4vpbr2azp5o3eo3.py":28:30)
#loc21 = loc("/NHNHOME/WORKSPACE/26msit001_A/jinhyeok/TTT_camera_embedding/lact_llm/.cache_inductor/qs/cqs2cu5pzaxjbhpi5bwakoi37tjpiaffjpuwd4vpbr2azp5o3eo3.py":28:55)
#loc22 = loc("/NHNHOME/WORKSPACE/26msit001_A/jinhyeok/TTT_camera_embedding/lact_llm/.cache_inductor/qs/cqs2cu5pzaxjbhpi5bwakoi37tjpiaffjpuwd4vpbr2azp5o3eo3.py":29:30)
#loc23 = loc("/NHNHOME/WORKSPACE/26msit001_A/jinhyeok/TTT_camera_embedding/lact_llm/.cache_inductor/qs/cqs2cu5pzaxjbhpi5bwakoi37tjpiaffjpuwd4vpbr2azp5o3eo3.py":29:55)
#loc24 = loc("/NHNHOME/WORKSPACE/26msit001_A/jinhyeok/TTT_camera_embedding/lact_llm/.cache_inductor/qs/cqs2cu5pzaxjbhpi5bwakoi37tjpiaffjpuwd4vpbr2azp5o3eo3.py":31:18)
#loc25 = loc("/NHNHOME/WORKSPACE/26msit001_A/jinhyeok/TTT_camera_embedding/lact_llm/.cache_inductor/qs/cqs2cu5pzaxjbhpi5bwakoi37tjpiaffjpuwd4vpbr2azp5o3eo3.py":33:18)
#loc26 = loc("/NHNHOME/WORKSPACE/26msit001_A/jinhyeok/TTT_camera_embedding/lact_llm/.cache_inductor/qs/cqs2cu5pzaxjbhpi5bwakoi37tjpiaffjpuwd4vpbr2azp5o3eo3.py":35:25)
#loc27 = loc("/NHNHOME/WORKSPACE/26msit001_A/jinhyeok/TTT_camera_embedding/lact_llm/.cache_inductor/qs/cqs2cu5pzaxjbhpi5bwakoi37tjpiaffjpuwd4vpbr2azp5o3eo3.py":35:36)
#loc28 = loc("/NHNHOME/WORKSPACE/26msit001_A/jinhyeok/TTT_camera_embedding/lact_llm/.cache_inductor/qs/cqs2cu5pzaxjbhpi5bwakoi37tjpiaffjpuwd4vpbr2azp5o3eo3.py":36:25)
#loc29 = loc("/NHNHOME/WORKSPACE/26msit001_A/jinhyeok/TTT_camera_embedding/lact_llm/.cache_inductor/qs/cqs2cu5pzaxjbhpi5bwakoi37tjpiaffjpuwd4vpbr2azp5o3eo3.py":36:36)
#loc30 = loc("/NHNHOME/WORKSPACE/26msit001_A/jinhyeok/TTT_camera_embedding/lact_llm/.cache_inductor/qs/cqs2cu5pzaxjbhpi5bwakoi37tjpiaffjpuwd4vpbr2azp5o3eo3.py":36:4)
#loc37 = loc("tmp0"(#loc2))
#loc38 = loc("tmp0"(#loc3))
#loc39 = loc("x1"(#loc4))
#loc40 = loc("x1"(#loc5))
#loc41 = loc("xoffset"(#loc6))
#loc42 = loc("xoffset"(#loc7))
#loc43 = loc("xindex"(#loc8))
#loc44 = loc("xindex"(#loc9))
#loc45 = loc("x2"(#loc10))
#loc46 = loc("x3"(#loc11))
#loc47 = loc("tmp0"(#loc12))
#loc48 = loc("tmp0"(#loc13))
#loc49 = loc("tmp0"(#loc14))
#loc50 = loc("tmp0"(#loc15))
#loc51 = loc("tmp2"(#loc16))
#loc52 = loc("tmp2"(#loc17))
#loc53 = loc("tmp2"(#loc18))
#loc54 = loc("tmp2"(#loc19))
#loc55 = loc("tmp2"(#loc20))
#loc56 = loc("tmp2"(#loc21))
#loc57 = loc("tmp5"(#loc22))
#loc58 = loc("tmp5"(#loc23))
#loc59 = loc("tmp3"(#loc24))
#loc60 = loc("tmp6"(#loc25))
