#loc = loc("/NHNHOME/WORKSPACE/26msit001_A/jinhyeok/loop_TTT/lact/.cache_inductor_llm/6c/c6cnh44a76w7mtp77tecrq5jy3ohri4oqn6hvyptrlhzn2fouj5v.py":18:0)
#loc50 = loc("/NHNHOME/WORKSPACE/26msit001_A/jinhyeok/TTT_camera_embedding/.venv_llm/lib/python3.12/site-packages/triton/language/standard.py":285:0)
#loc52 = loc(unknown)
#loc55 = loc("/NHNHOME/WORKSPACE/26msit001_A/jinhyeok/TTT_camera_embedding/.venv_llm/lib/python3.12/site-packages/triton/language/standard.py":260:0)
#loc59 = loc("in_ptr0"(#loc))
#loc60 = loc("in_ptr1"(#loc))
#loc61 = loc("in_ptr2"(#loc))
#loc62 = loc("out_ptr0"(#loc))
#loc63 = loc("out_ptr1"(#loc))
#loc64 = loc("xnumel"(#loc))
#loc65 = loc("r0_numel"(#loc))
#loc109 = loc("input"(#loc50))
#loc110 = loc("a"(#loc55))
#loc111 = loc("b"(#loc55))
module {
  tt.func public @triton_red_fused__to_copy_mul_slice_sum_35(%in_ptr0: !tt.ptr<bf16> {tt.divisibility = 16 : i32} loc("in_ptr0"(#loc)), %in_ptr1: !tt.ptr<f32> {tt.divisibility = 16 : i32} loc("in_ptr1"(#loc)), %in_ptr2: !tt.ptr<bf16> {tt.divisibility = 16 : i32} loc("in_ptr2"(#loc)), %out_ptr0: !tt.ptr<f32> {tt.divisibility = 16 : i32} loc("out_ptr0"(#loc)), %out_ptr1: !tt.ptr<f32> {tt.divisibility = 16 : i32} loc("out_ptr1"(#loc)), %xnumel: i32 {tt.divisibility = 16 : i32} loc("xnumel"(#loc)), %r0_numel: i32 {tt.divisibility = 16 : i32} loc("r0_numel"(#loc))) attributes {noinline = false} {
    %xnumel_0 = arith.constant 98304 : i32 loc(#loc66)
    %r0_numel_1 = arith.constant 192 : i32 loc(#loc67)
    %xoffset = tt.get_program_id x : i32 loc(#loc68)
    %xoffset_2 = arith.constant 64 : i32 loc(#loc69)
    %xoffset_3 = arith.constant 64 : i32 loc(#loc69)
    %xoffset_4 = arith.muli %xoffset, %xoffset_3 : i32 loc(#loc69)
    %xindex = tt.make_range {end = 64 : i32, start = 0 : i32} : tensor<64xi32> loc(#loc70)
    %xindex_5 = tt.expand_dims %xindex {axis = 1 : i32} : tensor<64xi32> -> tensor<64x1xi32> loc(#loc71)
    %xindex_6 = tt.splat %xoffset_4 : i32 -> tensor<64x1xi32> loc(#loc72)
    %xindex_7 = arith.addi %xindex_6, %xindex_5 : tensor<64x1xi32> loc(#loc72)
    %xmask = arith.constant true loc(#loc73)
    %xmask_8 = arith.constant dense<true> : tensor<64x4xi1> loc(#loc73)
    %r0_base = tt.make_range {end = 4 : i32, start = 0 : i32} : tensor<4xi32> loc(#loc74)
    %r0_base_9 = tt.expand_dims %r0_base {axis = 0 : i32} : tensor<4xi32> -> tensor<1x4xi32> loc(#loc75)
    %x0 = arith.constant 1024 : i32 loc(#loc76)
    %x0_10 = arith.constant 1024 : i32 loc(#loc76)
    %x0_11 = arith.constant dense<1024> : tensor<64x1xi32> loc(#loc76)
    %x0_12 = arith.remsi %xindex_7, %x0_11 : tensor<64x1xi32> loc(#loc76)
    %x1 = arith.constant 1024 : i32 loc(#loc77)
    %x1_13 = arith.constant 1024 : i32 loc(#loc77)
    %x1_14 = arith.constant dense<1024> : tensor<64x1xi32> loc(#loc77)
    %x1_15 = arith.divsi %xindex_7, %x1_14 : tensor<64x1xi32> loc(#loc77)
    %_tmp5 = arith.constant 0.000000e+00 : f32 loc(#loc78)
    %_tmp5_16 = arith.constant dense<0.000000e+00> : tensor<64x4xf32> loc(#loc78)
    %_tmp11 = arith.constant 0.000000e+00 : f32 loc(#loc79)
    %_tmp11_17 = arith.constant dense<0.000000e+00> : tensor<64x4xf32> loc(#loc79)
    %c0_i32 = arith.constant 0 : i32 loc(#loc15)
    %c4_i32 = arith.constant 4 : i32 loc(#loc15)
    %0 = arith.bitcast %c0_i32 : i32 to i32 loc(#loc15)
    %1 = arith.bitcast %r0_numel_1 : i32 to i32 loc(#loc15)
    %2 = arith.bitcast %c4_i32 : i32 to i32 loc(#loc15)
    %3 = ub.poison : i32 loc(#loc15)
    %_tmp11_18:2 = scf.for %r0_offset = %0 to %1 step %2 iter_args(%_tmp5_21 = %_tmp5_16, %_tmp11_22 = %_tmp11_17) -> (tensor<64x4xf32>, tensor<64x4xf32>)  : i32 {
      %r0_index = tt.splat %r0_offset : i32 -> tensor<1x4xi32> loc(#loc81)
      %r0_index_23 = arith.addi %r0_index, %r0_base_9 : tensor<1x4xi32> loc(#loc81)
      %r0_mask = arith.constant dense<192> : tensor<1x4xi32> loc(#loc82)
      %r0_mask_24 = arith.cmpi slt, %r0_index_23, %r0_mask : tensor<1x4xi32> loc(#loc82)
      %tmp0 = arith.constant 192 : i32 loc(#loc83)
      %tmp0_25 = arith.constant 192 : i32 loc(#loc83)
      %tmp0_26 = arith.constant dense<192> : tensor<64x1xi32> loc(#loc83)
      %tmp0_27 = arith.muli %tmp0_26, %xindex_7 : tensor<64x1xi32> loc(#loc83)
      %tmp0_28 = tt.broadcast %r0_index_23 : tensor<1x4xi32> -> tensor<64x4xi32> loc(#loc84)
      %tmp0_29 = tt.broadcast %tmp0_27 : tensor<64x1xi32> -> tensor<64x4xi32> loc(#loc84)
      %tmp0_30 = arith.addi %tmp0_28, %tmp0_29 : tensor<64x4xi32> loc(#loc84)
      %tmp0_31 = tt.splat %in_ptr0 : !tt.ptr<bf16> -> tensor<64x4x!tt.ptr<bf16>> loc(#loc85)
      %tmp0_32 = tt.addptr %tmp0_31, %tmp0_30 : tensor<64x4x!tt.ptr<bf16>>, tensor<64x4xi32> loc(#loc85)
      %tmp0_33 = arith.constant 0.000000e+00 : f32 loc(#loc86)
      %tmp0_34 = tt.broadcast %r0_mask_24 : tensor<1x4xi1> -> tensor<64x4xi1> loc(#loc86)
      %tmp0_35 = arith.constant dense<0.000000e+00> : tensor<64x4xf32> loc(#loc86)
      %tmp0_36 = arith.truncf %tmp0_35 : tensor<64x4xf32> to tensor<64x4xbf16> loc(#loc86)
      %tmp0_37 = tt.load %tmp0_32, %tmp0_34, %tmp0_36 evictionPolicy = evict_first : tensor<64x4x!tt.ptr<bf16>> loc(#loc86)
      %tmp0_38 = arith.extf %tmp0_37 : tensor<64x4xbf16> to tensor<64x4xf32> loc(#loc87)
      %tmp2 = arith.constant 192 : i32 loc(#loc88)
      %tmp2_39 = arith.constant 192 : i32 loc(#loc88)
      %tmp2_40 = arith.constant dense<192> : tensor<64x1xi32> loc(#loc88)
      %tmp2_41 = arith.muli %tmp2_40, %x0_12 : tensor<64x1xi32> loc(#loc88)
      %tmp2_42 = tt.broadcast %r0_index_23 : tensor<1x4xi32> -> tensor<64x4xi32> loc(#loc89)
      %tmp2_43 = tt.broadcast %tmp2_41 : tensor<64x1xi32> -> tensor<64x4xi32> loc(#loc89)
      %tmp2_44 = arith.addi %tmp2_42, %tmp2_43 : tensor<64x4xi32> loc(#loc89)
      %tmp2_45 = arith.constant 786432 : i32 loc(#loc90)
      %tmp2_46 = arith.constant 786432 : i32 loc(#loc90)
      %tmp2_47 = arith.constant dense<786432> : tensor<64x1xi32> loc(#loc90)
      %tmp2_48 = arith.muli %tmp2_47, %x1_15 : tensor<64x1xi32> loc(#loc90)
      %tmp2_49 = tt.broadcast %tmp2_48 : tensor<64x1xi32> -> tensor<64x4xi32> loc(#loc91)
      %tmp2_50 = arith.addi %tmp2_44, %tmp2_49 : tensor<64x4xi32> loc(#loc91)
      %tmp2_51 = tt.splat %in_ptr1 : !tt.ptr<f32> -> tensor<64x4x!tt.ptr<f32>> loc(#loc92)
      %tmp2_52 = tt.addptr %tmp2_51, %tmp2_50 : tensor<64x4x!tt.ptr<f32>>, tensor<64x4xi32> loc(#loc92)
      %tmp2_53 = arith.constant 0.000000e+00 : f32 loc(#loc93)
      %tmp2_54 = tt.broadcast %r0_mask_24 : tensor<1x4xi1> -> tensor<64x4xi1> loc(#loc93)
      %tmp2_55 = arith.constant dense<0.000000e+00> : tensor<64x4xf32> loc(#loc93)
      %tmp2_56 = tt.load %tmp2_52, %tmp2_54, %tmp2_55 evictionPolicy = evict_first : tensor<64x4x!tt.ptr<f32>> loc(#loc93)
      %tmp7 = arith.constant 192 : i32 loc(#loc94)
      %tmp7_57 = arith.constant 192 : i32 loc(#loc94)
      %tmp7_58 = arith.constant dense<192> : tensor<64x1xi32> loc(#loc94)
      %tmp7_59 = arith.muli %tmp7_58, %xindex_7 : tensor<64x1xi32> loc(#loc94)
      %tmp7_60 = tt.broadcast %r0_index_23 : tensor<1x4xi32> -> tensor<64x4xi32> loc(#loc95)
      %tmp7_61 = tt.broadcast %tmp7_59 : tensor<64x1xi32> -> tensor<64x4xi32> loc(#loc95)
      %tmp7_62 = arith.addi %tmp7_60, %tmp7_61 : tensor<64x4xi32> loc(#loc95)
      %tmp7_63 = tt.splat %in_ptr2 : !tt.ptr<bf16> -> tensor<64x4x!tt.ptr<bf16>> loc(#loc96)
      %tmp7_64 = tt.addptr %tmp7_63, %tmp7_62 : tensor<64x4x!tt.ptr<bf16>>, tensor<64x4xi32> loc(#loc96)
      %tmp7_65 = arith.constant 0.000000e+00 : f32 loc(#loc97)
      %tmp7_66 = tt.broadcast %r0_mask_24 : tensor<1x4xi1> -> tensor<64x4xi1> loc(#loc97)
      %tmp7_67 = arith.constant dense<0.000000e+00> : tensor<64x4xf32> loc(#loc97)
      %tmp7_68 = arith.truncf %tmp7_67 : tensor<64x4xf32> to tensor<64x4xbf16> loc(#loc97)
      %tmp7_69 = tt.load %tmp7_64, %tmp7_66, %tmp7_68 evictionPolicy = evict_first : tensor<64x4x!tt.ptr<bf16>> loc(#loc97)
      %tmp7_70 = arith.extf %tmp7_69 : tensor<64x4xbf16> to tensor<64x4xf32> loc(#loc98)
      %tmp3 = arith.mulf %tmp0_38, %tmp2_56 : tensor<64x4xf32> loc(#loc99)
      %tmp6 = arith.addf %_tmp5_21, %tmp3 : tensor<64x4xf32> loc(#loc100)
      %_tmp5_71 = tt.broadcast %r0_mask_24 : tensor<1x4xi1> -> tensor<64x4xi1> loc(#loc101)
      %_tmp5_72 = arith.select %_tmp5_71, %tmp6, %_tmp5_21 : tensor<64x4xi1>, tensor<64x4xf32> loc(#loc101)
      %tmp9 = arith.mulf %tmp7_70, %tmp2_56 : tensor<64x4xf32> loc(#loc102)
      %tmp12 = arith.addf %_tmp11_22, %tmp9 : tensor<64x4xf32> loc(#loc103)
      %_tmp11_73 = tt.broadcast %r0_mask_24 : tensor<1x4xi1> -> tensor<64x4xi1> loc(#loc104)
      %_tmp11_74 = arith.select %_tmp11_73, %tmp12, %_tmp11_22 : tensor<64x4xi1>, tensor<64x4xf32> loc(#loc104)
      scf.yield %_tmp5_72, %_tmp11_74 : tensor<64x4xf32>, tensor<64x4xf32> loc(#loc40)
    } loc(#loc112)
    %tmp5 = tt.call @"triton.language.standard.sum__fp32S64_4S__(1,)cconstexpr_1__(2,)cconstexpr_False__(3,)cNone"(%_tmp11_18#0) : (tensor<64x4xf32>) -> tensor<64xf32> loc(#loc105)
    %tmp5_19 = tt.expand_dims %tmp5 {axis = 1 : i32} : tensor<64xf32> -> tensor<64x1xf32> loc(#loc106)
    %tmp11 = tt.call @"triton.language.standard.sum__fp32S64_4S__(1,)cconstexpr_1__(2,)cconstexpr_False__(3,)cNone"(%_tmp11_18#1) : (tensor<64x4xf32>) -> tensor<64xf32> loc(#loc107)
    %tmp11_20 = tt.expand_dims %tmp11 {axis = 1 : i32} : tensor<64xf32> -> tensor<64x1xf32> loc(#loc108)
    %4 = tt.splat %out_ptr0 : !tt.ptr<f32> -> tensor<64x1x!tt.ptr<f32>> loc(#loc45)
    %5 = tt.addptr %4, %xindex_7 : tensor<64x1x!tt.ptr<f32>>, tensor<64x1xi32> loc(#loc45)
    tt.store %5, %tmp5_19 : tensor<64x1x!tt.ptr<f32>> loc(#loc46)
    %6 = tt.splat %out_ptr1 : !tt.ptr<f32> -> tensor<64x1x!tt.ptr<f32>> loc(#loc47)
    %7 = tt.addptr %6, %xindex_7 : tensor<64x1x!tt.ptr<f32>>, tensor<64x1xi32> loc(#loc47)
    tt.store %7, %tmp11_20 : tensor<64x1x!tt.ptr<f32>> loc(#loc48)
    tt.return loc(#loc49)
  } loc(#loc)
  tt.func private @"triton.language.standard.sum__fp32S64_4S__(1,)cconstexpr_1__(2,)cconstexpr_False__(3,)cNone"(%input: tensor<64x4xf32> loc("input"(#loc50))) -> tensor<64xf32> attributes {noinline = false} {
    %0 = "tt.reduce"(%input) <{axis = 1 : i32}> ({
    ^bb0(%arg1: f32 loc(unknown), %arg2: f32 loc(unknown)):
      %2 = tt.call @triton.language.standard._sum_combine__fp32_fp32__(%arg1, %arg2) : (f32, f32) -> f32 loc(#loc51)
      tt.reduce.return %2 : f32 loc(#loc51)
    }) : (tensor<64x4xf32>) -> tensor<64xf32> loc(#loc51)
    tt.return %0 : tensor<64xf32> loc(#loc53)
  ^bb1:  // no predecessors
    %1 = ub.poison : tensor<64xf32> loc(#loc54)
    tt.return %1 : tensor<64xf32> loc(#loc54)
  } loc(#loc50)
  tt.func private @triton.language.standard._sum_combine__fp32_fp32__(%a: f32 loc("a"(#loc55)), %b: f32 loc("b"(#loc55))) -> f32 attributes {noinline = false} {
    %0 = arith.addf %a, %b : f32 loc(#loc56)
    tt.return %0 : f32 loc(#loc57)
  ^bb1:  // no predecessors
    %1 = ub.poison : f32 loc(#loc58)
    tt.return %1 : f32 loc(#loc58)
  } loc(#loc55)
} loc(#loc)
#loc1 = loc("/NHNHOME/WORKSPACE/26msit001_A/jinhyeok/loop_TTT/lact/.cache_inductor_llm/6c/c6cnh44a76w7mtp77tecrq5jy3ohri4oqn6hvyptrlhzn2fouj5v.py":19:13)
#loc2 = loc("/NHNHOME/WORKSPACE/26msit001_A/jinhyeok/loop_TTT/lact/.cache_inductor_llm/6c/c6cnh44a76w7mtp77tecrq5jy3ohri4oqn6hvyptrlhzn2fouj5v.py":20:15)
#loc3 = loc("/NHNHOME/WORKSPACE/26msit001_A/jinhyeok/loop_TTT/lact/.cache_inductor_llm/6c/c6cnh44a76w7mtp77tecrq5jy3ohri4oqn6hvyptrlhzn2fouj5v.py":23:28)
#loc4 = loc("/NHNHOME/WORKSPACE/26msit001_A/jinhyeok/loop_TTT/lact/.cache_inductor_llm/6c/c6cnh44a76w7mtp77tecrq5jy3ohri4oqn6hvyptrlhzn2fouj5v.py":23:33)
#loc5 = loc("/NHNHOME/WORKSPACE/26msit001_A/jinhyeok/loop_TTT/lact/.cache_inductor_llm/6c/c6cnh44a76w7mtp77tecrq5jy3ohri4oqn6hvyptrlhzn2fouj5v.py":24:36)
#loc6 = loc("/NHNHOME/WORKSPACE/26msit001_A/jinhyeok/loop_TTT/lact/.cache_inductor_llm/6c/c6cnh44a76w7mtp77tecrq5jy3ohri4oqn6hvyptrlhzn2fouj5v.py":24:44)
#loc7 = loc("/NHNHOME/WORKSPACE/26msit001_A/jinhyeok/loop_TTT/lact/.cache_inductor_llm/6c/c6cnh44a76w7mtp77tecrq5jy3ohri4oqn6hvyptrlhzn2fouj5v.py":24:23)
#loc8 = loc("/NHNHOME/WORKSPACE/26msit001_A/jinhyeok/loop_TTT/lact/.cache_inductor_llm/6c/c6cnh44a76w7mtp77tecrq5jy3ohri4oqn6hvyptrlhzn2fouj5v.py":25:46)
#loc9 = loc("/NHNHOME/WORKSPACE/26msit001_A/jinhyeok/loop_TTT/lact/.cache_inductor_llm/6c/c6cnh44a76w7mtp77tecrq5jy3ohri4oqn6hvyptrlhzn2fouj5v.py":26:27)
#loc10 = loc("/NHNHOME/WORKSPACE/26msit001_A/jinhyeok/loop_TTT/lact/.cache_inductor_llm/6c/c6cnh44a76w7mtp77tecrq5jy3ohri4oqn6hvyptrlhzn2fouj5v.py":26:37)
#loc11 = loc("/NHNHOME/WORKSPACE/26msit001_A/jinhyeok/loop_TTT/lact/.cache_inductor_llm/6c/c6cnh44a76w7mtp77tecrq5jy3ohri4oqn6hvyptrlhzn2fouj5v.py":29:19)
#loc12 = loc("/NHNHOME/WORKSPACE/26msit001_A/jinhyeok/loop_TTT/lact/.cache_inductor_llm/6c/c6cnh44a76w7mtp77tecrq5jy3ohri4oqn6hvyptrlhzn2fouj5v.py":30:19)
#loc13 = loc("/NHNHOME/WORKSPACE/26msit001_A/jinhyeok/loop_TTT/lact/.cache_inductor_llm/6c/c6cnh44a76w7mtp77tecrq5jy3ohri4oqn6hvyptrlhzn2fouj5v.py":31:43)
#loc14 = loc("/NHNHOME/WORKSPACE/26msit001_A/jinhyeok/loop_TTT/lact/.cache_inductor_llm/6c/c6cnh44a76w7mtp77tecrq5jy3ohri4oqn6hvyptrlhzn2fouj5v.py":32:44)
#loc15 = loc("/NHNHOME/WORKSPACE/26msit001_A/jinhyeok/loop_TTT/lact/.cache_inductor_llm/6c/c6cnh44a76w7mtp77tecrq5jy3ohri4oqn6hvyptrlhzn2fouj5v.py":33:40)
#loc16 = loc("/NHNHOME/WORKSPACE/26msit001_A/jinhyeok/loop_TTT/lact/.cache_inductor_llm/6c/c6cnh44a76w7mtp77tecrq5jy3ohri4oqn6hvyptrlhzn2fouj5v.py":34:31)
#loc17 = loc("/NHNHOME/WORKSPACE/26msit001_A/jinhyeok/loop_TTT/lact/.cache_inductor_llm/6c/c6cnh44a76w7mtp77tecrq5jy3ohri4oqn6hvyptrlhzn2fouj5v.py":35:29)
#loc18 = loc("/NHNHOME/WORKSPACE/26msit001_A/jinhyeok/loop_TTT/lact/.cache_inductor_llm/6c/c6cnh44a76w7mtp77tecrq5jy3ohri4oqn6hvyptrlhzn2fouj5v.py":39:45)
#loc19 = loc("/NHNHOME/WORKSPACE/26msit001_A/jinhyeok/loop_TTT/lact/.cache_inductor_llm/6c/c6cnh44a76w7mtp77tecrq5jy3ohri4oqn6hvyptrlhzn2fouj5v.py":39:41)
#loc20 = loc("/NHNHOME/WORKSPACE/26msit001_A/jinhyeok/loop_TTT/lact/.cache_inductor_llm/6c/c6cnh44a76w7mtp77tecrq5jy3ohri4oqn6hvyptrlhzn2fouj5v.py":39:34)
#loc21 = loc("/NHNHOME/WORKSPACE/26msit001_A/jinhyeok/loop_TTT/lact/.cache_inductor_llm/6c/c6cnh44a76w7mtp77tecrq5jy3ohri4oqn6hvyptrlhzn2fouj5v.py":39:50)
#loc22 = loc("/NHNHOME/WORKSPACE/26msit001_A/jinhyeok/loop_TTT/lact/.cache_inductor_llm/6c/c6cnh44a76w7mtp77tecrq5jy3ohri4oqn6hvyptrlhzn2fouj5v.py":39:104)
#loc23 = loc("/NHNHOME/WORKSPACE/26msit001_A/jinhyeok/loop_TTT/lact/.cache_inductor_llm/6c/c6cnh44a76w7mtp77tecrq5jy3ohri4oqn6hvyptrlhzn2fouj5v.py":40:45)
#loc24 = loc("/NHNHOME/WORKSPACE/26msit001_A/jinhyeok/loop_TTT/lact/.cache_inductor_llm/6c/c6cnh44a76w7mtp77tecrq5jy3ohri4oqn6hvyptrlhzn2fouj5v.py":40:41)
#loc25 = loc("/NHNHOME/WORKSPACE/26msit001_A/jinhyeok/loop_TTT/lact/.cache_inductor_llm/6c/c6cnh44a76w7mtp77tecrq5jy3ohri4oqn6hvyptrlhzn2fouj5v.py":40:57)
#loc26 = loc("/NHNHOME/WORKSPACE/26msit001_A/jinhyeok/loop_TTT/lact/.cache_inductor_llm/6c/c6cnh44a76w7mtp77tecrq5jy3ohri4oqn6hvyptrlhzn2fouj5v.py":40:50)
#loc27 = loc("/NHNHOME/WORKSPACE/26msit001_A/jinhyeok/loop_TTT/lact/.cache_inductor_llm/6c/c6cnh44a76w7mtp77tecrq5jy3ohri4oqn6hvyptrlhzn2fouj5v.py":40:34)
#loc28 = loc("/NHNHOME/WORKSPACE/26msit001_A/jinhyeok/loop_TTT/lact/.cache_inductor_llm/6c/c6cnh44a76w7mtp77tecrq5jy3ohri4oqn6hvyptrlhzn2fouj5v.py":40:62)
#loc29 = loc("/NHNHOME/WORKSPACE/26msit001_A/jinhyeok/loop_TTT/lact/.cache_inductor_llm/6c/c6cnh44a76w7mtp77tecrq5jy3ohri4oqn6hvyptrlhzn2fouj5v.py":41:45)
#loc30 = loc("/NHNHOME/WORKSPACE/26msit001_A/jinhyeok/loop_TTT/lact/.cache_inductor_llm/6c/c6cnh44a76w7mtp77tecrq5jy3ohri4oqn6hvyptrlhzn2fouj5v.py":41:41)
#loc31 = loc("/NHNHOME/WORKSPACE/26msit001_A/jinhyeok/loop_TTT/lact/.cache_inductor_llm/6c/c6cnh44a76w7mtp77tecrq5jy3ohri4oqn6hvyptrlhzn2fouj5v.py":41:34)
#loc32 = loc("/NHNHOME/WORKSPACE/26msit001_A/jinhyeok/loop_TTT/lact/.cache_inductor_llm/6c/c6cnh44a76w7mtp77tecrq5jy3ohri4oqn6hvyptrlhzn2fouj5v.py":41:50)
#loc33 = loc("/NHNHOME/WORKSPACE/26msit001_A/jinhyeok/loop_TTT/lact/.cache_inductor_llm/6c/c6cnh44a76w7mtp77tecrq5jy3ohri4oqn6hvyptrlhzn2fouj5v.py":41:104)
#loc34 = loc("/NHNHOME/WORKSPACE/26msit001_A/jinhyeok/loop_TTT/lact/.cache_inductor_llm/6c/c6cnh44a76w7mtp77tecrq5jy3ohri4oqn6hvyptrlhzn2fouj5v.py":43:22)
#loc35 = loc("/NHNHOME/WORKSPACE/26msit001_A/jinhyeok/loop_TTT/lact/.cache_inductor_llm/6c/c6cnh44a76w7mtp77tecrq5jy3ohri4oqn6hvyptrlhzn2fouj5v.py":45:23)
#loc36 = loc("/NHNHOME/WORKSPACE/26msit001_A/jinhyeok/loop_TTT/lact/.cache_inductor_llm/6c/c6cnh44a76w7mtp77tecrq5jy3ohri4oqn6hvyptrlhzn2fouj5v.py":46:40)
#loc37 = loc("/NHNHOME/WORKSPACE/26msit001_A/jinhyeok/loop_TTT/lact/.cache_inductor_llm/6c/c6cnh44a76w7mtp77tecrq5jy3ohri4oqn6hvyptrlhzn2fouj5v.py":48:22)
#loc38 = loc("/NHNHOME/WORKSPACE/26msit001_A/jinhyeok/loop_TTT/lact/.cache_inductor_llm/6c/c6cnh44a76w7mtp77tecrq5jy3ohri4oqn6hvyptrlhzn2fouj5v.py":50:25)
#loc39 = loc("/NHNHOME/WORKSPACE/26msit001_A/jinhyeok/loop_TTT/lact/.cache_inductor_llm/6c/c6cnh44a76w7mtp77tecrq5jy3ohri4oqn6hvyptrlhzn2fouj5v.py":51:42)
#loc40 = loc("/NHNHOME/WORKSPACE/26msit001_A/jinhyeok/loop_TTT/lact/.cache_inductor_llm/6c/c6cnh44a76w7mtp77tecrq5jy3ohri4oqn6hvyptrlhzn2fouj5v.py":51:8)
#loc41 = loc("/NHNHOME/WORKSPACE/26msit001_A/jinhyeok/loop_TTT/lact/.cache_inductor_llm/6c/c6cnh44a76w7mtp77tecrq5jy3ohri4oqn6hvyptrlhzn2fouj5v.py":52:25)
#loc42 = loc("/NHNHOME/WORKSPACE/26msit001_A/jinhyeok/loop_TTT/lact/.cache_inductor_llm/6c/c6cnh44a76w7mtp77tecrq5jy3ohri4oqn6hvyptrlhzn2fouj5v.py":52:28)
#loc43 = loc("/NHNHOME/WORKSPACE/26msit001_A/jinhyeok/loop_TTT/lact/.cache_inductor_llm/6c/c6cnh44a76w7mtp77tecrq5jy3ohri4oqn6hvyptrlhzn2fouj5v.py":53:27)
#loc44 = loc("/NHNHOME/WORKSPACE/26msit001_A/jinhyeok/loop_TTT/lact/.cache_inductor_llm/6c/c6cnh44a76w7mtp77tecrq5jy3ohri4oqn6hvyptrlhzn2fouj5v.py":53:30)
#loc45 = loc("/NHNHOME/WORKSPACE/26msit001_A/jinhyeok/loop_TTT/lact/.cache_inductor_llm/6c/c6cnh44a76w7mtp77tecrq5jy3ohri4oqn6hvyptrlhzn2fouj5v.py":54:25)
#loc46 = loc("/NHNHOME/WORKSPACE/26msit001_A/jinhyeok/loop_TTT/lact/.cache_inductor_llm/6c/c6cnh44a76w7mtp77tecrq5jy3ohri4oqn6hvyptrlhzn2fouj5v.py":54:36)
#loc47 = loc("/NHNHOME/WORKSPACE/26msit001_A/jinhyeok/loop_TTT/lact/.cache_inductor_llm/6c/c6cnh44a76w7mtp77tecrq5jy3ohri4oqn6hvyptrlhzn2fouj5v.py":55:25)
#loc48 = loc("/NHNHOME/WORKSPACE/26msit001_A/jinhyeok/loop_TTT/lact/.cache_inductor_llm/6c/c6cnh44a76w7mtp77tecrq5jy3ohri4oqn6hvyptrlhzn2fouj5v.py":55:37)
#loc49 = loc("/NHNHOME/WORKSPACE/26msit001_A/jinhyeok/loop_TTT/lact/.cache_inductor_llm/6c/c6cnh44a76w7mtp77tecrq5jy3ohri4oqn6hvyptrlhzn2fouj5v.py":55:4)
#loc51 = loc("/NHNHOME/WORKSPACE/26msit001_A/jinhyeok/TTT_camera_embedding/.venv_llm/lib/python3.12/site-packages/triton/language/standard.py":291:36)
#loc53 = loc("/NHNHOME/WORKSPACE/26msit001_A/jinhyeok/TTT_camera_embedding/.venv_llm/lib/python3.12/site-packages/triton/language/standard.py":291:11)
#loc54 = loc("/NHNHOME/WORKSPACE/26msit001_A/jinhyeok/TTT_camera_embedding/.venv_llm/lib/python3.12/site-packages/triton/language/standard.py":291:4)
#loc56 = loc("/NHNHOME/WORKSPACE/26msit001_A/jinhyeok/TTT_camera_embedding/.venv_llm/lib/python3.12/site-packages/triton/language/standard.py":261:15)
#loc57 = loc("/NHNHOME/WORKSPACE/26msit001_A/jinhyeok/TTT_camera_embedding/.venv_llm/lib/python3.12/site-packages/triton/language/standard.py":261:11)
#loc58 = loc("/NHNHOME/WORKSPACE/26msit001_A/jinhyeok/TTT_camera_embedding/.venv_llm/lib/python3.12/site-packages/triton/language/standard.py":261:4)
#loc66 = loc("xnumel"(#loc1))
#loc67 = loc("r0_numel"(#loc2))
#loc68 = loc("xoffset"(#loc3))
#loc69 = loc("xoffset"(#loc4))
#loc70 = loc("xindex"(#loc5))
#loc71 = loc("xindex"(#loc6))
#loc72 = loc("xindex"(#loc7))
#loc73 = loc("xmask"(#loc8))
#loc74 = loc("r0_base"(#loc9))
#loc75 = loc("r0_base"(#loc10))
#loc76 = loc("x0"(#loc11))
#loc77 = loc("x1"(#loc12))
#loc78 = loc("_tmp5"(#loc13))
#loc79 = loc("_tmp11"(#loc14))
#loc80 = loc("_tmp5"(#loc15))
#loc81 = loc("r0_index"(#loc16))
#loc82 = loc("r0_mask"(#loc17))
#loc83 = loc("tmp0"(#loc18))
#loc84 = loc("tmp0"(#loc19))
#loc85 = loc("tmp0"(#loc20))
#loc86 = loc("tmp0"(#loc21))
#loc87 = loc("tmp0"(#loc22))
#loc88 = loc("tmp2"(#loc23))
#loc89 = loc("tmp2"(#loc24))
#loc90 = loc("tmp2"(#loc25))
#loc91 = loc("tmp2"(#loc26))
#loc92 = loc("tmp2"(#loc27))
#loc93 = loc("tmp2"(#loc28))
#loc94 = loc("tmp7"(#loc29))
#loc95 = loc("tmp7"(#loc30))
#loc96 = loc("tmp7"(#loc31))
#loc97 = loc("tmp7"(#loc32))
#loc98 = loc("tmp7"(#loc33))
#loc99 = loc("tmp3"(#loc34))
#loc100 = loc("tmp6"(#loc35))
#loc101 = loc("_tmp5"(#loc36))
#loc102 = loc("tmp9"(#loc37))
#loc103 = loc("tmp12"(#loc38))
#loc104 = loc("_tmp11"(#loc39))
#loc105 = loc("tmp5"(#loc41))
#loc106 = loc("tmp5"(#loc42))
#loc107 = loc("tmp11"(#loc43))
#loc108 = loc("tmp11"(#loc44))
#loc112 = loc("_tmp11"(#loc80))
