#loc = loc("/NHNHOME/WORKSPACE/26msit001_A/jinhyeok/TTT_camera_embedding/lact_llm/.cache_inductor/f2/cf2ub52ory36upf65ax7qrxf2ufynzjgdwl4v2h2zfakiq4br6ld.py":18:0)
#loc118 = loc("/NHNHOME/WORKSPACE/26msit001_A/jinhyeok/TTT_camera_embedding/.venv_llm/lib/python3.12/site-packages/triton/language/standard.py":285:0)
#loc120 = loc(unknown)
#loc123 = loc("/NHNHOME/WORKSPACE/26msit001_A/jinhyeok/TTT_camera_embedding/.venv_llm/lib/python3.12/site-packages/triton/language/standard.py":260:0)
#loc127 = loc("in_out_ptr0"(#loc))
#loc128 = loc("in_ptr0"(#loc))
#loc129 = loc("in_ptr1"(#loc))
#loc130 = loc("in_ptr2"(#loc))
#loc131 = loc("in_ptr3"(#loc))
#loc132 = loc("in_ptr4"(#loc))
#loc133 = loc("in_ptr5"(#loc))
#loc134 = loc("out_ptr0"(#loc))
#loc135 = loc("out_ptr2"(#loc))
#loc136 = loc("out_ptr3"(#loc))
#loc137 = loc("out_ptr6"(#loc))
#loc138 = loc("out_ptr7"(#loc))
#loc139 = loc("xnumel"(#loc))
#loc140 = loc("r0_numel"(#loc))
#loc230 = loc("input"(#loc118))
#loc231 = loc("a"(#loc123))
#loc232 = loc("b"(#loc123))
module {
  tt.func public @triton_per_fused__to_copy_add_div_linalg_vector_norm_mul_37(%in_out_ptr0: !tt.ptr<f32> {tt.divisibility = 16 : i32} loc("in_out_ptr0"(#loc)), %in_ptr0: !tt.ptr<f32> {tt.divisibility = 16 : i32} loc("in_ptr0"(#loc)), %in_ptr1: !tt.ptr<bf16> {tt.divisibility = 16 : i32} loc("in_ptr1"(#loc)), %in_ptr2: !tt.ptr<bf16> {tt.divisibility = 16 : i32} loc("in_ptr2"(#loc)), %in_ptr3: !tt.ptr<bf16> {tt.divisibility = 16 : i32} loc("in_ptr3"(#loc)), %in_ptr4: !tt.ptr<f32> {tt.divisibility = 16 : i32} loc("in_ptr4"(#loc)), %in_ptr5: !tt.ptr<bf16> {tt.divisibility = 16 : i32} loc("in_ptr5"(#loc)), %out_ptr0: !tt.ptr<f32> {tt.divisibility = 16 : i32} loc("out_ptr0"(#loc)), %out_ptr2: !tt.ptr<bf16> {tt.divisibility = 16 : i32} loc("out_ptr2"(#loc)), %out_ptr3: !tt.ptr<bf16> {tt.divisibility = 16 : i32} loc("out_ptr3"(#loc)), %out_ptr6: !tt.ptr<bf16> {tt.divisibility = 16 : i32} loc("out_ptr6"(#loc)), %out_ptr7: !tt.ptr<bf16> {tt.divisibility = 16 : i32} loc("out_ptr7"(#loc)), %xnumel: i32 {tt.divisibility = 16 : i32} loc("xnumel"(#loc)), %r0_numel: i32 {tt.divisibility = 16 : i32} loc("r0_numel"(#loc))) attributes {noinline = false} {
    %xnumel_0 = arith.constant 6144 : i32 loc(#loc141)
    %r0_numel_1 = arith.constant 192 : i32 loc(#loc142)
    %xoffset = tt.get_program_id x : i32 loc(#loc143)
    %xoffset_2 = arith.constant 1 : i32 loc(#loc144)
    %xoffset_3 = arith.constant 1 : i32 loc(#loc144)
    %xoffset_4 = arith.muli %xoffset, %xoffset_3 : i32 loc(#loc144)
    %xindex = tt.make_range {end = 1 : i32, start = 0 : i32} : tensor<1xi32> loc(#loc145)
    %xindex_5 = tt.expand_dims %xindex {axis = 1 : i32} : tensor<1xi32> -> tensor<1x1xi32> loc(#loc146)
    %xindex_6 = tt.splat %xoffset_4 : i32 -> tensor<1x1xi32> loc(#loc147)
    %xindex_7 = arith.addi %xindex_6, %xindex_5 : tensor<1x1xi32> loc(#loc147)
    %xmask = arith.constant dense<6144> : tensor<1x1xi32> loc(#loc148)
    %xmask_8 = arith.cmpi slt, %xindex_7, %xmask : tensor<1x1xi32> loc(#loc148)
    %r0_index = tt.make_range {end = 256 : i32, start = 0 : i32} : tensor<256xi32> loc(#loc149)
    %r0_index_9 = tt.expand_dims %r0_index {axis = 0 : i32} : tensor<256xi32> -> tensor<1x256xi32> loc(#loc150)
    %r0_offset = arith.constant 0 : i32 loc(#loc151)
    %r0_mask = arith.constant dense<192> : tensor<1x256xi32> loc(#loc152)
    %r0_mask_10 = arith.cmpi slt, %r0_index_9, %r0_mask : tensor<1x256xi32> loc(#loc152)
    %tmp0 = arith.constant 192 : i32 loc(#loc153)
    %tmp0_11 = arith.constant 192 : i32 loc(#loc153)
    %tmp0_12 = arith.constant dense<192> : tensor<1x1xi32> loc(#loc153)
    %tmp0_13 = arith.muli %tmp0_12, %xindex_7 : tensor<1x1xi32> loc(#loc153)
    %tmp0_14 = tt.broadcast %tmp0_13 : tensor<1x1xi32> -> tensor<1x256xi32> loc(#loc154)
    %tmp0_15 = arith.addi %r0_index_9, %tmp0_14 : tensor<1x256xi32> loc(#loc154)
    %tmp0_16 = tt.splat %in_ptr0 : !tt.ptr<f32> -> tensor<1x256x!tt.ptr<f32>> loc(#loc155)
    %tmp0_17 = tt.addptr %tmp0_16, %tmp0_15 : tensor<1x256x!tt.ptr<f32>>, tensor<1x256xi32> loc(#loc155)
    %tmp0_18 = tt.broadcast %xmask_8 : tensor<1x1xi1> -> tensor<1x256xi1> loc(#loc156)
    %tmp0_19 = arith.andi %r0_mask_10, %tmp0_18 : tensor<1x256xi1> loc(#loc156)
    %tmp0_20 = arith.constant 0.000000e+00 : f32 loc(#loc157)
    %tmp0_21 = arith.constant dense<0.000000e+00> : tensor<1x256xf32> loc(#loc157)
    %tmp0_22 = tt.load %tmp0_17, %tmp0_19, %tmp0_21 : tensor<1x256x!tt.ptr<f32>> loc(#loc157)
    %tmp6 = arith.constant 192 : i32 loc(#loc158)
    %tmp6_23 = arith.constant 192 : i32 loc(#loc158)
    %tmp6_24 = arith.constant dense<192> : tensor<1x1xi32> loc(#loc158)
    %tmp6_25 = arith.muli %tmp6_24, %xindex_7 : tensor<1x1xi32> loc(#loc158)
    %tmp6_26 = tt.broadcast %tmp6_25 : tensor<1x1xi32> -> tensor<1x256xi32> loc(#loc159)
    %tmp6_27 = arith.addi %r0_index_9, %tmp6_26 : tensor<1x256xi32> loc(#loc159)
    %tmp6_28 = tt.splat %in_out_ptr0 : !tt.ptr<f32> -> tensor<1x256x!tt.ptr<f32>> loc(#loc160)
    %tmp6_29 = tt.addptr %tmp6_28, %tmp6_27 : tensor<1x256x!tt.ptr<f32>>, tensor<1x256xi32> loc(#loc160)
    %tmp6_30 = tt.broadcast %xmask_8 : tensor<1x1xi1> -> tensor<1x256xi1> loc(#loc161)
    %tmp6_31 = arith.andi %r0_mask_10, %tmp6_30 : tensor<1x256xi1> loc(#loc161)
    %tmp6_32 = arith.constant 0.000000e+00 : f32 loc(#loc162)
    %tmp6_33 = arith.constant dense<0.000000e+00> : tensor<1x256xf32> loc(#loc162)
    %tmp6_34 = tt.load %tmp6_29, %tmp6_31, %tmp6_33 : tensor<1x256x!tt.ptr<f32>> loc(#loc162)
    %tmp9 = arith.constant 192 : i32 loc(#loc163)
    %tmp9_35 = arith.constant 192 : i32 loc(#loc163)
    %tmp9_36 = arith.constant dense<192> : tensor<1x1xi32> loc(#loc163)
    %tmp9_37 = arith.muli %tmp9_36, %xindex_7 : tensor<1x1xi32> loc(#loc163)
    %tmp9_38 = tt.broadcast %tmp9_37 : tensor<1x1xi32> -> tensor<1x256xi32> loc(#loc164)
    %tmp9_39 = arith.addi %r0_index_9, %tmp9_38 : tensor<1x256xi32> loc(#loc164)
    %tmp9_40 = tt.splat %in_ptr1 : !tt.ptr<bf16> -> tensor<1x256x!tt.ptr<bf16>> loc(#loc165)
    %tmp9_41 = tt.addptr %tmp9_40, %tmp9_39 : tensor<1x256x!tt.ptr<bf16>>, tensor<1x256xi32> loc(#loc165)
    %tmp9_42 = tt.broadcast %xmask_8 : tensor<1x1xi1> -> tensor<1x256xi1> loc(#loc166)
    %tmp9_43 = arith.andi %r0_mask_10, %tmp9_42 : tensor<1x256xi1> loc(#loc166)
    %tmp9_44 = arith.constant 0.000000e+00 : f32 loc(#loc167)
    %tmp9_45 = arith.constant dense<0.000000e+00> : tensor<1x256xf32> loc(#loc167)
    %tmp9_46 = arith.truncf %tmp9_45 : tensor<1x256xf32> to tensor<1x256xbf16> loc(#loc167)
    %tmp9_47 = tt.load %tmp9_41, %tmp9_43, %tmp9_46 : tensor<1x256x!tt.ptr<bf16>> loc(#loc167)
    %tmp9_48 = arith.extf %tmp9_47 : tensor<1x256xbf16> to tensor<1x256xf32> loc(#loc168)
    %tmp14 = arith.constant 192 : i32 loc(#loc169)
    %tmp14_49 = arith.constant 192 : i32 loc(#loc169)
    %tmp14_50 = arith.constant dense<192> : tensor<1x1xi32> loc(#loc169)
    %tmp14_51 = arith.muli %tmp14_50, %xindex_7 : tensor<1x1xi32> loc(#loc169)
    %tmp14_52 = tt.broadcast %tmp14_51 : tensor<1x1xi32> -> tensor<1x256xi32> loc(#loc170)
    %tmp14_53 = arith.addi %r0_index_9, %tmp14_52 : tensor<1x256xi32> loc(#loc170)
    %tmp14_54 = tt.splat %in_ptr2 : !tt.ptr<bf16> -> tensor<1x256x!tt.ptr<bf16>> loc(#loc171)
    %tmp14_55 = tt.addptr %tmp14_54, %tmp14_53 : tensor<1x256x!tt.ptr<bf16>>, tensor<1x256xi32> loc(#loc171)
    %tmp14_56 = tt.broadcast %xmask_8 : tensor<1x1xi1> -> tensor<1x256xi1> loc(#loc172)
    %tmp14_57 = arith.andi %r0_mask_10, %tmp14_56 : tensor<1x256xi1> loc(#loc172)
    %tmp14_58 = arith.constant 0.000000e+00 : f32 loc(#loc173)
    %tmp14_59 = arith.constant dense<0.000000e+00> : tensor<1x256xf32> loc(#loc173)
    %tmp14_60 = arith.truncf %tmp14_59 : tensor<1x256xf32> to tensor<1x256xbf16> loc(#loc173)
    %tmp14_61 = tt.load %tmp14_55, %tmp14_57, %tmp14_60 : tensor<1x256x!tt.ptr<bf16>> loc(#loc173)
    %tmp14_62 = arith.extf %tmp14_61 : tensor<1x256xbf16> to tensor<1x256xf32> loc(#loc174)
    %tmp19 = arith.constant 192 : i32 loc(#loc175)
    %tmp19_63 = arith.constant 192 : i32 loc(#loc175)
    %tmp19_64 = arith.constant dense<192> : tensor<1x1xi32> loc(#loc175)
    %tmp19_65 = arith.muli %tmp19_64, %xindex_7 : tensor<1x1xi32> loc(#loc175)
    %tmp19_66 = tt.broadcast %tmp19_65 : tensor<1x1xi32> -> tensor<1x256xi32> loc(#loc176)
    %tmp19_67 = arith.addi %r0_index_9, %tmp19_66 : tensor<1x256xi32> loc(#loc176)
    %tmp19_68 = tt.splat %in_ptr3 : !tt.ptr<bf16> -> tensor<1x256x!tt.ptr<bf16>> loc(#loc177)
    %tmp19_69 = tt.addptr %tmp19_68, %tmp19_67 : tensor<1x256x!tt.ptr<bf16>>, tensor<1x256xi32> loc(#loc177)
    %tmp19_70 = tt.broadcast %xmask_8 : tensor<1x1xi1> -> tensor<1x256xi1> loc(#loc178)
    %tmp19_71 = arith.andi %r0_mask_10, %tmp19_70 : tensor<1x256xi1> loc(#loc178)
    %tmp19_72 = arith.constant 0.000000e+00 : f32 loc(#loc179)
    %tmp19_73 = arith.constant dense<0.000000e+00> : tensor<1x256xf32> loc(#loc179)
    %tmp19_74 = arith.truncf %tmp19_73 : tensor<1x256xf32> to tensor<1x256xbf16> loc(#loc179)
    %tmp19_75 = tt.load %tmp19_69, %tmp19_71, %tmp19_74 : tensor<1x256x!tt.ptr<bf16>> loc(#loc179)
    %tmp19_76 = arith.extf %tmp19_75 : tensor<1x256xbf16> to tensor<1x256xf32> loc(#loc180)
    %tmp35 = arith.constant 192 : i32 loc(#loc181)
    %tmp35_77 = arith.constant 192 : i32 loc(#loc181)
    %tmp35_78 = arith.constant dense<192> : tensor<1x1xi32> loc(#loc181)
    %tmp35_79 = arith.muli %tmp35_78, %xindex_7 : tensor<1x1xi32> loc(#loc181)
    %tmp35_80 = tt.broadcast %tmp35_79 : tensor<1x1xi32> -> tensor<1x256xi32> loc(#loc182)
    %tmp35_81 = arith.addi %r0_index_9, %tmp35_80 : tensor<1x256xi32> loc(#loc182)
    %tmp35_82 = tt.splat %in_ptr4 : !tt.ptr<f32> -> tensor<1x256x!tt.ptr<f32>> loc(#loc183)
    %tmp35_83 = tt.addptr %tmp35_82, %tmp35_81 : tensor<1x256x!tt.ptr<f32>>, tensor<1x256xi32> loc(#loc183)
    %tmp35_84 = tt.broadcast %xmask_8 : tensor<1x1xi1> -> tensor<1x256xi1> loc(#loc184)
    %tmp35_85 = arith.andi %r0_mask_10, %tmp35_84 : tensor<1x256xi1> loc(#loc184)
    %tmp35_86 = arith.constant 0.000000e+00 : f32 loc(#loc185)
    %tmp35_87 = arith.constant dense<0.000000e+00> : tensor<1x256xf32> loc(#loc185)
    %tmp35_88 = tt.load %tmp35_83, %tmp35_85, %tmp35_87 : tensor<1x256x!tt.ptr<f32>> loc(#loc185)
    %tmp37 = arith.constant 192 : i32 loc(#loc186)
    %tmp37_89 = arith.constant 192 : i32 loc(#loc186)
    %tmp37_90 = arith.constant dense<192> : tensor<1x1xi32> loc(#loc186)
    %tmp37_91 = arith.muli %tmp37_90, %xindex_7 : tensor<1x1xi32> loc(#loc186)
    %tmp37_92 = tt.broadcast %tmp37_91 : tensor<1x1xi32> -> tensor<1x256xi32> loc(#loc187)
    %tmp37_93 = arith.addi %r0_index_9, %tmp37_92 : tensor<1x256xi32> loc(#loc187)
    %tmp37_94 = tt.splat %in_ptr5 : !tt.ptr<bf16> -> tensor<1x256x!tt.ptr<bf16>> loc(#loc188)
    %tmp37_95 = tt.addptr %tmp37_94, %tmp37_93 : tensor<1x256x!tt.ptr<bf16>>, tensor<1x256xi32> loc(#loc188)
    %tmp37_96 = tt.broadcast %xmask_8 : tensor<1x1xi1> -> tensor<1x256xi1> loc(#loc189)
    %tmp37_97 = arith.andi %r0_mask_10, %tmp37_96 : tensor<1x256xi1> loc(#loc189)
    %tmp37_98 = arith.constant 0.000000e+00 : f32 loc(#loc190)
    %tmp37_99 = arith.constant dense<0.000000e+00> : tensor<1x256xf32> loc(#loc190)
    %tmp37_100 = arith.truncf %tmp37_99 : tensor<1x256xf32> to tensor<1x256xbf16> loc(#loc190)
    %tmp37_101 = tt.load %tmp37_95, %tmp37_97, %tmp37_100 : tensor<1x256x!tt.ptr<bf16>> loc(#loc190)
    %tmp37_102 = arith.extf %tmp37_101 : tensor<1x256xbf16> to tensor<1x256xf32> loc(#loc191)
    %tmp1 = arith.mulf %tmp0_22, %tmp0_22 : tensor<1x256xf32> loc(#loc192)
    %tmp4 = tt.broadcast %xmask_8 : tensor<1x1xi1> -> tensor<1x256xi1> loc(#loc193)
    %tmp4_103 = arith.andi %r0_mask_10, %tmp4 : tensor<1x256xi1> loc(#loc193)
    %tmp4_104 = arith.constant 0 : i32 loc(#loc194)
    %tmp4_105 = arith.constant 0.000000e+00 : f32 loc(#loc194)
    %tmp4_106 = arith.constant dense<0.000000e+00> : tensor<1x256xf32> loc(#loc194)
    %tmp4_107 = arith.select %tmp4_103, %tmp1, %tmp4_106 : tensor<1x256xi1>, tensor<1x256xf32> loc(#loc194)
    %tmp5 = tt.call @"triton.language.standard.sum__fp32S1_256S__(1,)cconstexpr_1__(2,)cconstexpr_False__(3,)cNone"(%tmp4_107) : (tensor<1x256xf32>) -> tensor<1xf32> loc(#loc195)
    %tmp5_108 = tt.expand_dims %tmp5 {axis = 1 : i32} : tensor<1xf32> -> tensor<1x1xf32> loc(#loc196)
    %tmp7 = arith.constant 3.741800e+00 : f32 loc(#loc197)
    %tmp8 = arith.constant dense<3.741800e+00> : tensor<1x256xf32> loc(#loc198)
    %tmp8_109 = arith.mulf %tmp6_34, %tmp8 : tensor<1x256xf32> loc(#loc198)
    %tmp11 = arith.addf %tmp8_109, %tmp9_48 : tensor<1x256xf32> loc(#loc199)
    %tmp12 = arith.constant 2.876900e+00 : f32 loc(#loc200)
    %tmp13 = arith.constant dense<2.876900e+00> : tensor<1x256xf32> loc(#loc201)
    %tmp13_110 = arith.mulf %tmp11, %tmp13 : tensor<1x256xf32> loc(#loc201)
    %tmp16 = arith.addf %tmp13_110, %tmp14_62 : tensor<1x256xf32> loc(#loc202)
    %tmp17 = arith.constant 2.836600e+00 : f32 loc(#loc203)
    %tmp18 = arith.constant dense<2.836600e+00> : tensor<1x256xf32> loc(#loc204)
    %tmp18_111 = arith.mulf %tmp16, %tmp18 : tensor<1x256xf32> loc(#loc204)
    %tmp21 = arith.addf %tmp18_111, %tmp19_76 : tensor<1x256xf32> loc(#loc205)
    %tmp22 = arith.addf %tmp0_22, %tmp21 : tensor<1x256xf32> loc(#loc206)
    %tmp23 = arith.mulf %tmp22, %tmp22 : tensor<1x256xf32> loc(#loc207)
    %tmp26 = tt.broadcast %xmask_8 : tensor<1x1xi1> -> tensor<1x256xi1> loc(#loc208)
    %tmp26_112 = arith.andi %r0_mask_10, %tmp26 : tensor<1x256xi1> loc(#loc208)
    %tmp26_113 = arith.constant 0 : i32 loc(#loc209)
    %tmp26_114 = arith.constant 0.000000e+00 : f32 loc(#loc209)
    %tmp26_115 = arith.constant dense<0.000000e+00> : tensor<1x256xf32> loc(#loc209)
    %tmp26_116 = arith.select %tmp26_112, %tmp23, %tmp26_115 : tensor<1x256xi1>, tensor<1x256xf32> loc(#loc209)
    %tmp27 = tt.call @"triton.language.standard.sum__fp32S1_256S__(1,)cconstexpr_1__(2,)cconstexpr_False__(3,)cNone"(%tmp26_116) : (tensor<1x256xf32>) -> tensor<1xf32> loc(#loc210)
    %tmp27_117 = tt.expand_dims %tmp27 {axis = 1 : i32} : tensor<1xf32> -> tensor<1x1xf32> loc(#loc211)
    %tmp28 = tt.extern_elementwise %tmp27_117 {libname = "", libpath = "", pure = true, symbol = "__nv_sqrtf"} : (tensor<1x1xf32>) -> tensor<1x1xf32> loc(#loc212)
    %tmp29 = arith.constant 9.99999974E-6 : f32 loc(#loc213)
    %tmp30 = arith.constant dense<9.99999974E-6> : tensor<1x1xf32> loc(#loc214)
    %tmp30_118 = arith.addf %tmp28, %tmp30 : tensor<1x1xf32> loc(#loc214)
    %tmp31 = tt.broadcast %tmp30_118 : tensor<1x1xf32> -> tensor<1x256xf32> loc(#loc215)
    %tmp31_119 = arith.divf %tmp22, %tmp31 : tensor<1x256xf32> loc(#loc215)
    %tmp32 = tt.extern_elementwise %tmp5_108 {libname = "", libpath = "", pure = true, symbol = "__nv_sqrtf"} : (tensor<1x1xf32>) -> tensor<1x1xf32> loc(#loc216)
    %tmp33 = tt.broadcast %tmp32 : tensor<1x1xf32> -> tensor<1x256xf32> loc(#loc217)
    %tmp33_120 = arith.mulf %tmp31_119, %tmp33 : tensor<1x256xf32> loc(#loc217)
    %tmp36 = arith.constant dense<2.836600e+00> : tensor<1x256xf32> loc(#loc218)
    %tmp36_121 = arith.mulf %tmp35_88, %tmp36 : tensor<1x256xf32> loc(#loc218)
    %tmp39 = arith.addf %tmp36_121, %tmp37_102 : tensor<1x256xf32> loc(#loc219)
    %tmp40 = arith.addf %tmp22, %tmp39 : tensor<1x256xf32> loc(#loc220)
    %tmp41 = arith.mulf %tmp40, %tmp40 : tensor<1x256xf32> loc(#loc221)
    %tmp44 = tt.broadcast %xmask_8 : tensor<1x1xi1> -> tensor<1x256xi1> loc(#loc222)
    %tmp44_122 = arith.andi %r0_mask_10, %tmp44 : tensor<1x256xi1> loc(#loc222)
    %tmp44_123 = arith.constant 0 : i32 loc(#loc223)
    %tmp44_124 = arith.constant 0.000000e+00 : f32 loc(#loc223)
    %tmp44_125 = arith.constant dense<0.000000e+00> : tensor<1x256xf32> loc(#loc223)
    %tmp44_126 = arith.select %tmp44_122, %tmp41, %tmp44_125 : tensor<1x256xi1>, tensor<1x256xf32> loc(#loc223)
    %tmp45 = tt.call @"triton.language.standard.sum__fp32S1_256S__(1,)cconstexpr_1__(2,)cconstexpr_False__(3,)cNone"(%tmp44_126) : (tensor<1x256xf32>) -> tensor<1xf32> loc(#loc224)
    %tmp45_127 = tt.expand_dims %tmp45 {axis = 1 : i32} : tensor<1xf32> -> tensor<1x1xf32> loc(#loc225)
    %tmp46 = tt.extern_elementwise %tmp45_127 {libname = "", libpath = "", pure = true, symbol = "__nv_sqrtf"} : (tensor<1x1xf32>) -> tensor<1x1xf32> loc(#loc226)
    %tmp47 = arith.constant dense<9.99999974E-6> : tensor<1x1xf32> loc(#loc227)
    %tmp47_128 = arith.addf %tmp46, %tmp47 : tensor<1x1xf32> loc(#loc227)
    %tmp48 = tt.broadcast %tmp47_128 : tensor<1x1xf32> -> tensor<1x256xf32> loc(#loc228)
    %tmp48_129 = arith.divf %tmp40, %tmp48 : tensor<1x256xf32> loc(#loc228)
    %tmp49 = tt.broadcast %tmp32 : tensor<1x1xf32> -> tensor<1x256xf32> loc(#loc229)
    %tmp49_130 = arith.mulf %tmp48_129, %tmp49 : tensor<1x256xf32> loc(#loc229)
    %c192_i32 = arith.constant 192 : i32 loc(#loc90)
    %c192_i32_131 = arith.constant 192 : i32 loc(#loc90)
    %cst = arith.constant dense<192> : tensor<1x1xi32> loc(#loc90)
    %0 = arith.muli %cst, %xindex_7 : tensor<1x1xi32> loc(#loc90)
    %1 = tt.broadcast %0 : tensor<1x1xi32> -> tensor<1x256xi32> loc(#loc91)
    %2 = arith.addi %r0_index_9, %1 : tensor<1x256xi32> loc(#loc91)
    %3 = tt.splat %in_out_ptr0 : !tt.ptr<f32> -> tensor<1x256x!tt.ptr<f32>> loc(#loc92)
    %4 = tt.addptr %3, %2 : tensor<1x256x!tt.ptr<f32>>, tensor<1x256xi32> loc(#loc92)
    %5 = tt.broadcast %xmask_8 : tensor<1x1xi1> -> tensor<1x256xi1> loc(#loc93)
    %6 = arith.andi %r0_mask_10, %5 : tensor<1x256xi1> loc(#loc93)
    tt.store %4, %tmp22, %6 : tensor<1x256x!tt.ptr<f32>> loc(#loc94)
    %c192_i32_132 = arith.constant 192 : i32 loc(#loc95)
    %c192_i32_133 = arith.constant 192 : i32 loc(#loc95)
    %cst_134 = arith.constant dense<192> : tensor<1x1xi32> loc(#loc95)
    %7 = arith.muli %cst_134, %xindex_7 : tensor<1x1xi32> loc(#loc95)
    %8 = tt.broadcast %7 : tensor<1x1xi32> -> tensor<1x256xi32> loc(#loc96)
    %9 = arith.addi %r0_index_9, %8 : tensor<1x256xi32> loc(#loc96)
    %10 = tt.splat %out_ptr2 : !tt.ptr<bf16> -> tensor<1x256x!tt.ptr<bf16>> loc(#loc97)
    %11 = tt.addptr %10, %9 : tensor<1x256x!tt.ptr<bf16>>, tensor<1x256xi32> loc(#loc97)
    %12 = tt.broadcast %xmask_8 : tensor<1x1xi1> -> tensor<1x256xi1> loc(#loc98)
    %13 = arith.andi %r0_mask_10, %12 : tensor<1x256xi1> loc(#loc98)
    %14 = arith.truncf %tmp33_120 : tensor<1x256xf32> to tensor<1x256xbf16> loc(#loc99)
    tt.store %11, %14, %13 : tensor<1x256x!tt.ptr<bf16>> loc(#loc99)
    %c192_i32_135 = arith.constant 192 : i32 loc(#loc100)
    %c192_i32_136 = arith.constant 192 : i32 loc(#loc100)
    %cst_137 = arith.constant dense<192> : tensor<1x1xi32> loc(#loc100)
    %15 = arith.muli %cst_137, %xindex_7 : tensor<1x1xi32> loc(#loc100)
    %16 = tt.broadcast %15 : tensor<1x1xi32> -> tensor<1x256xi32> loc(#loc101)
    %17 = arith.addi %r0_index_9, %16 : tensor<1x256xi32> loc(#loc101)
    %18 = tt.splat %out_ptr3 : !tt.ptr<bf16> -> tensor<1x256x!tt.ptr<bf16>> loc(#loc102)
    %19 = tt.addptr %18, %17 : tensor<1x256x!tt.ptr<bf16>>, tensor<1x256xi32> loc(#loc102)
    %20 = tt.broadcast %xmask_8 : tensor<1x1xi1> -> tensor<1x256xi1> loc(#loc103)
    %21 = arith.andi %r0_mask_10, %20 : tensor<1x256xi1> loc(#loc103)
    %22 = arith.truncf %tmp33_120 : tensor<1x256xf32> to tensor<1x256xbf16> loc(#loc104)
    tt.store %19, %22, %21 : tensor<1x256x!tt.ptr<bf16>> loc(#loc104)
    %c192_i32_138 = arith.constant 192 : i32 loc(#loc105)
    %c192_i32_139 = arith.constant 192 : i32 loc(#loc105)
    %cst_140 = arith.constant dense<192> : tensor<1x1xi32> loc(#loc105)
    %23 = arith.muli %cst_140, %xindex_7 : tensor<1x1xi32> loc(#loc105)
    %24 = tt.broadcast %23 : tensor<1x1xi32> -> tensor<1x256xi32> loc(#loc106)
    %25 = arith.addi %r0_index_9, %24 : tensor<1x256xi32> loc(#loc106)
    %26 = tt.splat %out_ptr6 : !tt.ptr<bf16> -> tensor<1x256x!tt.ptr<bf16>> loc(#loc107)
    %27 = tt.addptr %26, %25 : tensor<1x256x!tt.ptr<bf16>>, tensor<1x256xi32> loc(#loc107)
    %28 = tt.broadcast %xmask_8 : tensor<1x1xi1> -> tensor<1x256xi1> loc(#loc108)
    %29 = arith.andi %r0_mask_10, %28 : tensor<1x256xi1> loc(#loc108)
    %30 = arith.truncf %tmp49_130 : tensor<1x256xf32> to tensor<1x256xbf16> loc(#loc109)
    tt.store %27, %30, %29 : tensor<1x256x!tt.ptr<bf16>> loc(#loc109)
    %c192_i32_141 = arith.constant 192 : i32 loc(#loc110)
    %c192_i32_142 = arith.constant 192 : i32 loc(#loc110)
    %cst_143 = arith.constant dense<192> : tensor<1x1xi32> loc(#loc110)
    %31 = arith.muli %cst_143, %xindex_7 : tensor<1x1xi32> loc(#loc110)
    %32 = tt.broadcast %31 : tensor<1x1xi32> -> tensor<1x256xi32> loc(#loc111)
    %33 = arith.addi %r0_index_9, %32 : tensor<1x256xi32> loc(#loc111)
    %34 = tt.splat %out_ptr7 : !tt.ptr<bf16> -> tensor<1x256x!tt.ptr<bf16>> loc(#loc112)
    %35 = tt.addptr %34, %33 : tensor<1x256x!tt.ptr<bf16>>, tensor<1x256xi32> loc(#loc112)
    %36 = tt.broadcast %xmask_8 : tensor<1x1xi1> -> tensor<1x256xi1> loc(#loc113)
    %37 = arith.andi %r0_mask_10, %36 : tensor<1x256xi1> loc(#loc113)
    %38 = arith.truncf %tmp49_130 : tensor<1x256xf32> to tensor<1x256xbf16> loc(#loc114)
    tt.store %35, %38, %37 : tensor<1x256x!tt.ptr<bf16>> loc(#loc114)
    %39 = tt.splat %out_ptr0 : !tt.ptr<f32> -> tensor<1x1x!tt.ptr<f32>> loc(#loc115)
    %40 = tt.addptr %39, %xindex_7 : tensor<1x1x!tt.ptr<f32>>, tensor<1x1xi32> loc(#loc115)
    tt.store %40, %tmp5_108, %xmask_8 : tensor<1x1x!tt.ptr<f32>> loc(#loc116)
    tt.return loc(#loc117)
  } loc(#loc)
  tt.func private @"triton.language.standard.sum__fp32S1_256S__(1,)cconstexpr_1__(2,)cconstexpr_False__(3,)cNone"(%input: tensor<1x256xf32> loc("input"(#loc118))) -> tensor<1xf32> attributes {noinline = false} {
    %0 = "tt.reduce"(%input) <{axis = 1 : i32}> ({
    ^bb0(%arg1: f32 loc(unknown), %arg2: f32 loc(unknown)):
      %2 = tt.call @triton.language.standard._sum_combine__fp32_fp32__(%arg1, %arg2) : (f32, f32) -> f32 loc(#loc119)
      tt.reduce.return %2 : f32 loc(#loc119)
    }) : (tensor<1x256xf32>) -> tensor<1xf32> loc(#loc119)
    tt.return %0 : tensor<1xf32> loc(#loc121)
  ^bb1:  // no predecessors
    %1 = ub.poison : tensor<1xf32> loc(#loc122)
    tt.return %1 : tensor<1xf32> loc(#loc122)
  } loc(#loc118)
  tt.func private @triton.language.standard._sum_combine__fp32_fp32__(%a: f32 loc("a"(#loc123)), %b: f32 loc("b"(#loc123))) -> f32 attributes {noinline = false} {
    %0 = arith.addf %a, %b : f32 loc(#loc124)
    tt.return %0 : f32 loc(#loc125)
  ^bb1:  // no predecessors
    %1 = ub.poison : f32 loc(#loc126)
    tt.return %1 : f32 loc(#loc126)
  } loc(#loc123)
} loc(#loc)
#loc1 = loc("/NHNHOME/WORKSPACE/26msit001_A/jinhyeok/TTT_camera_embedding/lact_llm/.cache_inductor/f2/cf2ub52ory36upf65ax7qrxf2ufynzjgdwl4v2h2zfakiq4br6ld.py":19:13)
#loc2 = loc("/NHNHOME/WORKSPACE/26msit001_A/jinhyeok/TTT_camera_embedding/lact_llm/.cache_inductor/f2/cf2ub52ory36upf65ax7qrxf2ufynzjgdwl4v2h2zfakiq4br6ld.py":20:15)
#loc3 = loc("/NHNHOME/WORKSPACE/26msit001_A/jinhyeok/TTT_camera_embedding/lact_llm/.cache_inductor/f2/cf2ub52ory36upf65ax7qrxf2ufynzjgdwl4v2h2zfakiq4br6ld.py":24:28)
#loc4 = loc("/NHNHOME/WORKSPACE/26msit001_A/jinhyeok/TTT_camera_embedding/lact_llm/.cache_inductor/f2/cf2ub52ory36upf65ax7qrxf2ufynzjgdwl4v2h2zfakiq4br6ld.py":24:33)
#loc5 = loc("/NHNHOME/WORKSPACE/26msit001_A/jinhyeok/TTT_camera_embedding/lact_llm/.cache_inductor/f2/cf2ub52ory36upf65ax7qrxf2ufynzjgdwl4v2h2zfakiq4br6ld.py":25:36)
#loc6 = loc("/NHNHOME/WORKSPACE/26msit001_A/jinhyeok/TTT_camera_embedding/lact_llm/.cache_inductor/f2/cf2ub52ory36upf65ax7qrxf2ufynzjgdwl4v2h2zfakiq4br6ld.py":25:44)
#loc7 = loc("/NHNHOME/WORKSPACE/26msit001_A/jinhyeok/TTT_camera_embedding/lact_llm/.cache_inductor/f2/cf2ub52ory36upf65ax7qrxf2ufynzjgdwl4v2h2zfakiq4br6ld.py":25:23)
#loc8 = loc("/NHNHOME/WORKSPACE/26msit001_A/jinhyeok/TTT_camera_embedding/lact_llm/.cache_inductor/f2/cf2ub52ory36upf65ax7qrxf2ufynzjgdwl4v2h2zfakiq4br6ld.py":26:21)
#loc9 = loc("/NHNHOME/WORKSPACE/26msit001_A/jinhyeok/TTT_camera_embedding/lact_llm/.cache_inductor/f2/cf2ub52ory36upf65ax7qrxf2ufynzjgdwl4v2h2zfakiq4br6ld.py":27:28)
#loc10 = loc("/NHNHOME/WORKSPACE/26msit001_A/jinhyeok/TTT_camera_embedding/lact_llm/.cache_inductor/f2/cf2ub52ory36upf65ax7qrxf2ufynzjgdwl4v2h2zfakiq4br6ld.py":27:38)
#loc11 = loc("/NHNHOME/WORKSPACE/26msit001_A/jinhyeok/TTT_camera_embedding/lact_llm/.cache_inductor/f2/cf2ub52ory36upf65ax7qrxf2ufynzjgdwl4v2h2zfakiq4br6ld.py":28:16)
#loc12 = loc("/NHNHOME/WORKSPACE/26msit001_A/jinhyeok/TTT_camera_embedding/lact_llm/.cache_inductor/f2/cf2ub52ory36upf65ax7qrxf2ufynzjgdwl4v2h2zfakiq4br6ld.py":29:25)
#loc13 = loc("/NHNHOME/WORKSPACE/26msit001_A/jinhyeok/TTT_camera_embedding/lact_llm/.cache_inductor/f2/cf2ub52ory36upf65ax7qrxf2ufynzjgdwl4v2h2zfakiq4br6ld.py":34:41)
#loc14 = loc("/NHNHOME/WORKSPACE/26msit001_A/jinhyeok/TTT_camera_embedding/lact_llm/.cache_inductor/f2/cf2ub52ory36upf65ax7qrxf2ufynzjgdwl4v2h2zfakiq4br6ld.py":34:37)
#loc15 = loc("/NHNHOME/WORKSPACE/26msit001_A/jinhyeok/TTT_camera_embedding/lact_llm/.cache_inductor/f2/cf2ub52ory36upf65ax7qrxf2ufynzjgdwl4v2h2zfakiq4br6ld.py":34:30)
#loc16 = loc("/NHNHOME/WORKSPACE/26msit001_A/jinhyeok/TTT_camera_embedding/lact_llm/.cache_inductor/f2/cf2ub52ory36upf65ax7qrxf2ufynzjgdwl4v2h2zfakiq4br6ld.py":34:56)
#loc17 = loc("/NHNHOME/WORKSPACE/26msit001_A/jinhyeok/TTT_camera_embedding/lact_llm/.cache_inductor/f2/cf2ub52ory36upf65ax7qrxf2ufynzjgdwl4v2h2zfakiq4br6ld.py":34:46)
#loc18 = loc("/NHNHOME/WORKSPACE/26msit001_A/jinhyeok/TTT_camera_embedding/lact_llm/.cache_inductor/f2/cf2ub52ory36upf65ax7qrxf2ufynzjgdwl4v2h2zfakiq4br6ld.py":35:45)
#loc19 = loc("/NHNHOME/WORKSPACE/26msit001_A/jinhyeok/TTT_camera_embedding/lact_llm/.cache_inductor/f2/cf2ub52ory36upf65ax7qrxf2ufynzjgdwl4v2h2zfakiq4br6ld.py":35:41)
#loc20 = loc("/NHNHOME/WORKSPACE/26msit001_A/jinhyeok/TTT_camera_embedding/lact_llm/.cache_inductor/f2/cf2ub52ory36upf65ax7qrxf2ufynzjgdwl4v2h2zfakiq4br6ld.py":35:34)
#loc21 = loc("/NHNHOME/WORKSPACE/26msit001_A/jinhyeok/TTT_camera_embedding/lact_llm/.cache_inductor/f2/cf2ub52ory36upf65ax7qrxf2ufynzjgdwl4v2h2zfakiq4br6ld.py":35:60)
#loc22 = loc("/NHNHOME/WORKSPACE/26msit001_A/jinhyeok/TTT_camera_embedding/lact_llm/.cache_inductor/f2/cf2ub52ory36upf65ax7qrxf2ufynzjgdwl4v2h2zfakiq4br6ld.py":35:50)
#loc23 = loc("/NHNHOME/WORKSPACE/26msit001_A/jinhyeok/TTT_camera_embedding/lact_llm/.cache_inductor/f2/cf2ub52ory36upf65ax7qrxf2ufynzjgdwl4v2h2zfakiq4br6ld.py":36:41)
#loc24 = loc("/NHNHOME/WORKSPACE/26msit001_A/jinhyeok/TTT_camera_embedding/lact_llm/.cache_inductor/f2/cf2ub52ory36upf65ax7qrxf2ufynzjgdwl4v2h2zfakiq4br6ld.py":36:37)
#loc25 = loc("/NHNHOME/WORKSPACE/26msit001_A/jinhyeok/TTT_camera_embedding/lact_llm/.cache_inductor/f2/cf2ub52ory36upf65ax7qrxf2ufynzjgdwl4v2h2zfakiq4br6ld.py":36:30)
#loc26 = loc("/NHNHOME/WORKSPACE/26msit001_A/jinhyeok/TTT_camera_embedding/lact_llm/.cache_inductor/f2/cf2ub52ory36upf65ax7qrxf2ufynzjgdwl4v2h2zfakiq4br6ld.py":36:56)
#loc27 = loc("/NHNHOME/WORKSPACE/26msit001_A/jinhyeok/TTT_camera_embedding/lact_llm/.cache_inductor/f2/cf2ub52ory36upf65ax7qrxf2ufynzjgdwl4v2h2zfakiq4br6ld.py":36:46)
#loc28 = loc("/NHNHOME/WORKSPACE/26msit001_A/jinhyeok/TTT_camera_embedding/lact_llm/.cache_inductor/f2/cf2ub52ory36upf65ax7qrxf2ufynzjgdwl4v2h2zfakiq4br6ld.py":36:77)
#loc29 = loc("/NHNHOME/WORKSPACE/26msit001_A/jinhyeok/TTT_camera_embedding/lact_llm/.cache_inductor/f2/cf2ub52ory36upf65ax7qrxf2ufynzjgdwl4v2h2zfakiq4br6ld.py":37:42)
#loc30 = loc("/NHNHOME/WORKSPACE/26msit001_A/jinhyeok/TTT_camera_embedding/lact_llm/.cache_inductor/f2/cf2ub52ory36upf65ax7qrxf2ufynzjgdwl4v2h2zfakiq4br6ld.py":37:38)
#loc31 = loc("/NHNHOME/WORKSPACE/26msit001_A/jinhyeok/TTT_camera_embedding/lact_llm/.cache_inductor/f2/cf2ub52ory36upf65ax7qrxf2ufynzjgdwl4v2h2zfakiq4br6ld.py":37:31)
#loc32 = loc("/NHNHOME/WORKSPACE/26msit001_A/jinhyeok/TTT_camera_embedding/lact_llm/.cache_inductor/f2/cf2ub52ory36upf65ax7qrxf2ufynzjgdwl4v2h2zfakiq4br6ld.py":37:57)
#loc33 = loc("/NHNHOME/WORKSPACE/26msit001_A/jinhyeok/TTT_camera_embedding/lact_llm/.cache_inductor/f2/cf2ub52ory36upf65ax7qrxf2ufynzjgdwl4v2h2zfakiq4br6ld.py":37:47)
#loc34 = loc("/NHNHOME/WORKSPACE/26msit001_A/jinhyeok/TTT_camera_embedding/lact_llm/.cache_inductor/f2/cf2ub52ory36upf65ax7qrxf2ufynzjgdwl4v2h2zfakiq4br6ld.py":37:78)
#loc35 = loc("/NHNHOME/WORKSPACE/26msit001_A/jinhyeok/TTT_camera_embedding/lact_llm/.cache_inductor/f2/cf2ub52ory36upf65ax7qrxf2ufynzjgdwl4v2h2zfakiq4br6ld.py":38:42)
#loc36 = loc("/NHNHOME/WORKSPACE/26msit001_A/jinhyeok/TTT_camera_embedding/lact_llm/.cache_inductor/f2/cf2ub52ory36upf65ax7qrxf2ufynzjgdwl4v2h2zfakiq4br6ld.py":38:38)
#loc37 = loc("/NHNHOME/WORKSPACE/26msit001_A/jinhyeok/TTT_camera_embedding/lact_llm/.cache_inductor/f2/cf2ub52ory36upf65ax7qrxf2ufynzjgdwl4v2h2zfakiq4br6ld.py":38:31)
#loc38 = loc("/NHNHOME/WORKSPACE/26msit001_A/jinhyeok/TTT_camera_embedding/lact_llm/.cache_inductor/f2/cf2ub52ory36upf65ax7qrxf2ufynzjgdwl4v2h2zfakiq4br6ld.py":38:57)
#loc39 = loc("/NHNHOME/WORKSPACE/26msit001_A/jinhyeok/TTT_camera_embedding/lact_llm/.cache_inductor/f2/cf2ub52ory36upf65ax7qrxf2ufynzjgdwl4v2h2zfakiq4br6ld.py":38:47)
#loc40 = loc("/NHNHOME/WORKSPACE/26msit001_A/jinhyeok/TTT_camera_embedding/lact_llm/.cache_inductor/f2/cf2ub52ory36upf65ax7qrxf2ufynzjgdwl4v2h2zfakiq4br6ld.py":38:78)
#loc41 = loc("/NHNHOME/WORKSPACE/26msit001_A/jinhyeok/TTT_camera_embedding/lact_llm/.cache_inductor/f2/cf2ub52ory36upf65ax7qrxf2ufynzjgdwl4v2h2zfakiq4br6ld.py":39:42)
#loc42 = loc("/NHNHOME/WORKSPACE/26msit001_A/jinhyeok/TTT_camera_embedding/lact_llm/.cache_inductor/f2/cf2ub52ory36upf65ax7qrxf2ufynzjgdwl4v2h2zfakiq4br6ld.py":39:38)
#loc43 = loc("/NHNHOME/WORKSPACE/26msit001_A/jinhyeok/TTT_camera_embedding/lact_llm/.cache_inductor/f2/cf2ub52ory36upf65ax7qrxf2ufynzjgdwl4v2h2zfakiq4br6ld.py":39:31)
#loc44 = loc("/NHNHOME/WORKSPACE/26msit001_A/jinhyeok/TTT_camera_embedding/lact_llm/.cache_inductor/f2/cf2ub52ory36upf65ax7qrxf2ufynzjgdwl4v2h2zfakiq4br6ld.py":39:57)
#loc45 = loc("/NHNHOME/WORKSPACE/26msit001_A/jinhyeok/TTT_camera_embedding/lact_llm/.cache_inductor/f2/cf2ub52ory36upf65ax7qrxf2ufynzjgdwl4v2h2zfakiq4br6ld.py":39:47)
#loc46 = loc("/NHNHOME/WORKSPACE/26msit001_A/jinhyeok/TTT_camera_embedding/lact_llm/.cache_inductor/f2/cf2ub52ory36upf65ax7qrxf2ufynzjgdwl4v2h2zfakiq4br6ld.py":40:42)
#loc47 = loc("/NHNHOME/WORKSPACE/26msit001_A/jinhyeok/TTT_camera_embedding/lact_llm/.cache_inductor/f2/cf2ub52ory36upf65ax7qrxf2ufynzjgdwl4v2h2zfakiq4br6ld.py":40:38)
#loc48 = loc("/NHNHOME/WORKSPACE/26msit001_A/jinhyeok/TTT_camera_embedding/lact_llm/.cache_inductor/f2/cf2ub52ory36upf65ax7qrxf2ufynzjgdwl4v2h2zfakiq4br6ld.py":40:31)
#loc49 = loc("/NHNHOME/WORKSPACE/26msit001_A/jinhyeok/TTT_camera_embedding/lact_llm/.cache_inductor/f2/cf2ub52ory36upf65ax7qrxf2ufynzjgdwl4v2h2zfakiq4br6ld.py":40:57)
#loc50 = loc("/NHNHOME/WORKSPACE/26msit001_A/jinhyeok/TTT_camera_embedding/lact_llm/.cache_inductor/f2/cf2ub52ory36upf65ax7qrxf2ufynzjgdwl4v2h2zfakiq4br6ld.py":40:47)
#loc51 = loc("/NHNHOME/WORKSPACE/26msit001_A/jinhyeok/TTT_camera_embedding/lact_llm/.cache_inductor/f2/cf2ub52ory36upf65ax7qrxf2ufynzjgdwl4v2h2zfakiq4br6ld.py":40:78)
#loc52 = loc("/NHNHOME/WORKSPACE/26msit001_A/jinhyeok/TTT_camera_embedding/lact_llm/.cache_inductor/f2/cf2ub52ory36upf65ax7qrxf2ufynzjgdwl4v2h2zfakiq4br6ld.py":41:18)
#loc53 = loc("/NHNHOME/WORKSPACE/26msit001_A/jinhyeok/TTT_camera_embedding/lact_llm/.cache_inductor/f2/cf2ub52ory36upf65ax7qrxf2ufynzjgdwl4v2h2zfakiq4br6ld.py":43:30)
#loc54 = loc("/NHNHOME/WORKSPACE/26msit001_A/jinhyeok/TTT_camera_embedding/lact_llm/.cache_inductor/f2/cf2ub52ory36upf65ax7qrxf2ufynzjgdwl4v2h2zfakiq4br6ld.py":43:43)
#loc55 = loc("/NHNHOME/WORKSPACE/26msit001_A/jinhyeok/TTT_camera_embedding/lact_llm/.cache_inductor/f2/cf2ub52ory36upf65ax7qrxf2ufynzjgdwl4v2h2zfakiq4br6ld.py":44:24)
#loc56 = loc("/NHNHOME/WORKSPACE/26msit001_A/jinhyeok/TTT_camera_embedding/lact_llm/.cache_inductor/f2/cf2ub52ory36upf65ax7qrxf2ufynzjgdwl4v2h2zfakiq4br6ld.py":44:27)
#loc57 = loc("/NHNHOME/WORKSPACE/26msit001_A/jinhyeok/TTT_camera_embedding/lact_llm/.cache_inductor/f2/cf2ub52ory36upf65ax7qrxf2ufynzjgdwl4v2h2zfakiq4br6ld.py":45:11)
#loc58 = loc("/NHNHOME/WORKSPACE/26msit001_A/jinhyeok/TTT_camera_embedding/lact_llm/.cache_inductor/f2/cf2ub52ory36upf65ax7qrxf2ufynzjgdwl4v2h2zfakiq4br6ld.py":46:18)
#loc59 = loc("/NHNHOME/WORKSPACE/26msit001_A/jinhyeok/TTT_camera_embedding/lact_llm/.cache_inductor/f2/cf2ub52ory36upf65ax7qrxf2ufynzjgdwl4v2h2zfakiq4br6ld.py":48:19)
#loc60 = loc("/NHNHOME/WORKSPACE/26msit001_A/jinhyeok/TTT_camera_embedding/lact_llm/.cache_inductor/f2/cf2ub52ory36upf65ax7qrxf2ufynzjgdwl4v2h2zfakiq4br6ld.py":49:12)
#loc61 = loc("/NHNHOME/WORKSPACE/26msit001_A/jinhyeok/TTT_camera_embedding/lact_llm/.cache_inductor/f2/cf2ub52ory36upf65ax7qrxf2ufynzjgdwl4v2h2zfakiq4br6ld.py":50:20)
#loc62 = loc("/NHNHOME/WORKSPACE/26msit001_A/jinhyeok/TTT_camera_embedding/lact_llm/.cache_inductor/f2/cf2ub52ory36upf65ax7qrxf2ufynzjgdwl4v2h2zfakiq4br6ld.py":52:20)
#loc63 = loc("/NHNHOME/WORKSPACE/26msit001_A/jinhyeok/TTT_camera_embedding/lact_llm/.cache_inductor/f2/cf2ub52ory36upf65ax7qrxf2ufynzjgdwl4v2h2zfakiq4br6ld.py":53:12)
#loc64 = loc("/NHNHOME/WORKSPACE/26msit001_A/jinhyeok/TTT_camera_embedding/lact_llm/.cache_inductor/f2/cf2ub52ory36upf65ax7qrxf2ufynzjgdwl4v2h2zfakiq4br6ld.py":54:20)
#loc65 = loc("/NHNHOME/WORKSPACE/26msit001_A/jinhyeok/TTT_camera_embedding/lact_llm/.cache_inductor/f2/cf2ub52ory36upf65ax7qrxf2ufynzjgdwl4v2h2zfakiq4br6ld.py":56:20)
#loc66 = loc("/NHNHOME/WORKSPACE/26msit001_A/jinhyeok/TTT_camera_embedding/lact_llm/.cache_inductor/f2/cf2ub52ory36upf65ax7qrxf2ufynzjgdwl4v2h2zfakiq4br6ld.py":57:19)
#loc67 = loc("/NHNHOME/WORKSPACE/26msit001_A/jinhyeok/TTT_camera_embedding/lact_llm/.cache_inductor/f2/cf2ub52ory36upf65ax7qrxf2ufynzjgdwl4v2h2zfakiq4br6ld.py":58:20)
#loc68 = loc("/NHNHOME/WORKSPACE/26msit001_A/jinhyeok/TTT_camera_embedding/lact_llm/.cache_inductor/f2/cf2ub52ory36upf65ax7qrxf2ufynzjgdwl4v2h2zfakiq4br6ld.py":60:31)
#loc69 = loc("/NHNHOME/WORKSPACE/26msit001_A/jinhyeok/TTT_camera_embedding/lact_llm/.cache_inductor/f2/cf2ub52ory36upf65ax7qrxf2ufynzjgdwl4v2h2zfakiq4br6ld.py":60:45)
#loc70 = loc("/NHNHOME/WORKSPACE/26msit001_A/jinhyeok/TTT_camera_embedding/lact_llm/.cache_inductor/f2/cf2ub52ory36upf65ax7qrxf2ufynzjgdwl4v2h2zfakiq4br6ld.py":61:26)
#loc71 = loc("/NHNHOME/WORKSPACE/26msit001_A/jinhyeok/TTT_camera_embedding/lact_llm/.cache_inductor/f2/cf2ub52ory36upf65ax7qrxf2ufynzjgdwl4v2h2zfakiq4br6ld.py":61:29)
#loc72 = loc("/NHNHOME/WORKSPACE/26msit001_A/jinhyeok/TTT_camera_embedding/lact_llm/.cache_inductor/f2/cf2ub52ory36upf65ax7qrxf2ufynzjgdwl4v2h2zfakiq4br6ld.py":62:27)
#loc73 = loc("/NHNHOME/WORKSPACE/26msit001_A/jinhyeok/TTT_camera_embedding/lact_llm/.cache_inductor/f2/cf2ub52ory36upf65ax7qrxf2ufynzjgdwl4v2h2zfakiq4br6ld.py":63:12)
#loc74 = loc("/NHNHOME/WORKSPACE/26msit001_A/jinhyeok/TTT_camera_embedding/lact_llm/.cache_inductor/f2/cf2ub52ory36upf65ax7qrxf2ufynzjgdwl4v2h2zfakiq4br6ld.py":64:20)
#loc75 = loc("/NHNHOME/WORKSPACE/26msit001_A/jinhyeok/TTT_camera_embedding/lact_llm/.cache_inductor/f2/cf2ub52ory36upf65ax7qrxf2ufynzjgdwl4v2h2zfakiq4br6ld.py":65:21)
#loc76 = loc("/NHNHOME/WORKSPACE/26msit001_A/jinhyeok/TTT_camera_embedding/lact_llm/.cache_inductor/f2/cf2ub52ory36upf65ax7qrxf2ufynzjgdwl4v2h2zfakiq4br6ld.py":66:27)
#loc77 = loc("/NHNHOME/WORKSPACE/26msit001_A/jinhyeok/TTT_camera_embedding/lact_llm/.cache_inductor/f2/cf2ub52ory36upf65ax7qrxf2ufynzjgdwl4v2h2zfakiq4br6ld.py":67:20)
#loc78 = loc("/NHNHOME/WORKSPACE/26msit001_A/jinhyeok/TTT_camera_embedding/lact_llm/.cache_inductor/f2/cf2ub52ory36upf65ax7qrxf2ufynzjgdwl4v2h2zfakiq4br6ld.py":69:20)
#loc79 = loc("/NHNHOME/WORKSPACE/26msit001_A/jinhyeok/TTT_camera_embedding/lact_llm/.cache_inductor/f2/cf2ub52ory36upf65ax7qrxf2ufynzjgdwl4v2h2zfakiq4br6ld.py":71:20)
#loc80 = loc("/NHNHOME/WORKSPACE/26msit001_A/jinhyeok/TTT_camera_embedding/lact_llm/.cache_inductor/f2/cf2ub52ory36upf65ax7qrxf2ufynzjgdwl4v2h2zfakiq4br6ld.py":72:20)
#loc81 = loc("/NHNHOME/WORKSPACE/26msit001_A/jinhyeok/TTT_camera_embedding/lact_llm/.cache_inductor/f2/cf2ub52ory36upf65ax7qrxf2ufynzjgdwl4v2h2zfakiq4br6ld.py":73:20)
#loc82 = loc("/NHNHOME/WORKSPACE/26msit001_A/jinhyeok/TTT_camera_embedding/lact_llm/.cache_inductor/f2/cf2ub52ory36upf65ax7qrxf2ufynzjgdwl4v2h2zfakiq4br6ld.py":75:31)
#loc83 = loc("/NHNHOME/WORKSPACE/26msit001_A/jinhyeok/TTT_camera_embedding/lact_llm/.cache_inductor/f2/cf2ub52ory36upf65ax7qrxf2ufynzjgdwl4v2h2zfakiq4br6ld.py":75:45)
#loc84 = loc("/NHNHOME/WORKSPACE/26msit001_A/jinhyeok/TTT_camera_embedding/lact_llm/.cache_inductor/f2/cf2ub52ory36upf65ax7qrxf2ufynzjgdwl4v2h2zfakiq4br6ld.py":76:26)
#loc85 = loc("/NHNHOME/WORKSPACE/26msit001_A/jinhyeok/TTT_camera_embedding/lact_llm/.cache_inductor/f2/cf2ub52ory36upf65ax7qrxf2ufynzjgdwl4v2h2zfakiq4br6ld.py":76:29)
#loc86 = loc("/NHNHOME/WORKSPACE/26msit001_A/jinhyeok/TTT_camera_embedding/lact_llm/.cache_inductor/f2/cf2ub52ory36upf65ax7qrxf2ufynzjgdwl4v2h2zfakiq4br6ld.py":77:27)
#loc87 = loc("/NHNHOME/WORKSPACE/26msit001_A/jinhyeok/TTT_camera_embedding/lact_llm/.cache_inductor/f2/cf2ub52ory36upf65ax7qrxf2ufynzjgdwl4v2h2zfakiq4br6ld.py":78:20)
#loc88 = loc("/NHNHOME/WORKSPACE/26msit001_A/jinhyeok/TTT_camera_embedding/lact_llm/.cache_inductor/f2/cf2ub52ory36upf65ax7qrxf2ufynzjgdwl4v2h2zfakiq4br6ld.py":79:21)
#loc89 = loc("/NHNHOME/WORKSPACE/26msit001_A/jinhyeok/TTT_camera_embedding/lact_llm/.cache_inductor/f2/cf2ub52ory36upf65ax7qrxf2ufynzjgdwl4v2h2zfakiq4br6ld.py":80:20)
#loc90 = loc("/NHNHOME/WORKSPACE/26msit001_A/jinhyeok/TTT_camera_embedding/lact_llm/.cache_inductor/f2/cf2ub52ory36upf65ax7qrxf2ufynzjgdwl4v2h2zfakiq4br6ld.py":82:39)
#loc91 = loc("/NHNHOME/WORKSPACE/26msit001_A/jinhyeok/TTT_camera_embedding/lact_llm/.cache_inductor/f2/cf2ub52ory36upf65ax7qrxf2ufynzjgdwl4v2h2zfakiq4br6ld.py":82:35)
#loc92 = loc("/NHNHOME/WORKSPACE/26msit001_A/jinhyeok/TTT_camera_embedding/lact_llm/.cache_inductor/f2/cf2ub52ory36upf65ax7qrxf2ufynzjgdwl4v2h2zfakiq4br6ld.py":82:28)
#loc93 = loc("/NHNHOME/WORKSPACE/26msit001_A/jinhyeok/TTT_camera_embedding/lact_llm/.cache_inductor/f2/cf2ub52ory36upf65ax7qrxf2ufynzjgdwl4v2h2zfakiq4br6ld.py":82:61)
#loc94 = loc("/NHNHOME/WORKSPACE/26msit001_A/jinhyeok/TTT_camera_embedding/lact_llm/.cache_inductor/f2/cf2ub52ory36upf65ax7qrxf2ufynzjgdwl4v2h2zfakiq4br6ld.py":82:51)
#loc95 = loc("/NHNHOME/WORKSPACE/26msit001_A/jinhyeok/TTT_camera_embedding/lact_llm/.cache_inductor/f2/cf2ub52ory36upf65ax7qrxf2ufynzjgdwl4v2h2zfakiq4br6ld.py":83:36)
#loc96 = loc("/NHNHOME/WORKSPACE/26msit001_A/jinhyeok/TTT_camera_embedding/lact_llm/.cache_inductor/f2/cf2ub52ory36upf65ax7qrxf2ufynzjgdwl4v2h2zfakiq4br6ld.py":83:32)
#loc97 = loc("/NHNHOME/WORKSPACE/26msit001_A/jinhyeok/TTT_camera_embedding/lact_llm/.cache_inductor/f2/cf2ub52ory36upf65ax7qrxf2ufynzjgdwl4v2h2zfakiq4br6ld.py":83:25)
#loc98 = loc("/NHNHOME/WORKSPACE/26msit001_A/jinhyeok/TTT_camera_embedding/lact_llm/.cache_inductor/f2/cf2ub52ory36upf65ax7qrxf2ufynzjgdwl4v2h2zfakiq4br6ld.py":83:58)
#loc99 = loc("/NHNHOME/WORKSPACE/26msit001_A/jinhyeok/TTT_camera_embedding/lact_llm/.cache_inductor/f2/cf2ub52ory36upf65ax7qrxf2ufynzjgdwl4v2h2zfakiq4br6ld.py":83:48)
#loc100 = loc("/NHNHOME/WORKSPACE/26msit001_A/jinhyeok/TTT_camera_embedding/lact_llm/.cache_inductor/f2/cf2ub52ory36upf65ax7qrxf2ufynzjgdwl4v2h2zfakiq4br6ld.py":84:36)
#loc101 = loc("/NHNHOME/WORKSPACE/26msit001_A/jinhyeok/TTT_camera_embedding/lact_llm/.cache_inductor/f2/cf2ub52ory36upf65ax7qrxf2ufynzjgdwl4v2h2zfakiq4br6ld.py":84:32)
#loc102 = loc("/NHNHOME/WORKSPACE/26msit001_A/jinhyeok/TTT_camera_embedding/lact_llm/.cache_inductor/f2/cf2ub52ory36upf65ax7qrxf2ufynzjgdwl4v2h2zfakiq4br6ld.py":84:25)
#loc103 = loc("/NHNHOME/WORKSPACE/26msit001_A/jinhyeok/TTT_camera_embedding/lact_llm/.cache_inductor/f2/cf2ub52ory36upf65ax7qrxf2ufynzjgdwl4v2h2zfakiq4br6ld.py":84:58)
#loc104 = loc("/NHNHOME/WORKSPACE/26msit001_A/jinhyeok/TTT_camera_embedding/lact_llm/.cache_inductor/f2/cf2ub52ory36upf65ax7qrxf2ufynzjgdwl4v2h2zfakiq4br6ld.py":84:48)
#loc105 = loc("/NHNHOME/WORKSPACE/26msit001_A/jinhyeok/TTT_camera_embedding/lact_llm/.cache_inductor/f2/cf2ub52ory36upf65ax7qrxf2ufynzjgdwl4v2h2zfakiq4br6ld.py":85:36)
#loc106 = loc("/NHNHOME/WORKSPACE/26msit001_A/jinhyeok/TTT_camera_embedding/lact_llm/.cache_inductor/f2/cf2ub52ory36upf65ax7qrxf2ufynzjgdwl4v2h2zfakiq4br6ld.py":85:32)
#loc107 = loc("/NHNHOME/WORKSPACE/26msit001_A/jinhyeok/TTT_camera_embedding/lact_llm/.cache_inductor/f2/cf2ub52ory36upf65ax7qrxf2ufynzjgdwl4v2h2zfakiq4br6ld.py":85:25)
#loc108 = loc("/NHNHOME/WORKSPACE/26msit001_A/jinhyeok/TTT_camera_embedding/lact_llm/.cache_inductor/f2/cf2ub52ory36upf65ax7qrxf2ufynzjgdwl4v2h2zfakiq4br6ld.py":85:58)
#loc109 = loc("/NHNHOME/WORKSPACE/26msit001_A/jinhyeok/TTT_camera_embedding/lact_llm/.cache_inductor/f2/cf2ub52ory36upf65ax7qrxf2ufynzjgdwl4v2h2zfakiq4br6ld.py":85:48)
#loc110 = loc("/NHNHOME/WORKSPACE/26msit001_A/jinhyeok/TTT_camera_embedding/lact_llm/.cache_inductor/f2/cf2ub52ory36upf65ax7qrxf2ufynzjgdwl4v2h2zfakiq4br6ld.py":86:36)
#loc111 = loc("/NHNHOME/WORKSPACE/26msit001_A/jinhyeok/TTT_camera_embedding/lact_llm/.cache_inductor/f2/cf2ub52ory36upf65ax7qrxf2ufynzjgdwl4v2h2zfakiq4br6ld.py":86:32)
#loc112 = loc("/NHNHOME/WORKSPACE/26msit001_A/jinhyeok/TTT_camera_embedding/lact_llm/.cache_inductor/f2/cf2ub52ory36upf65ax7qrxf2ufynzjgdwl4v2h2zfakiq4br6ld.py":86:25)
#loc113 = loc("/NHNHOME/WORKSPACE/26msit001_A/jinhyeok/TTT_camera_embedding/lact_llm/.cache_inductor/f2/cf2ub52ory36upf65ax7qrxf2ufynzjgdwl4v2h2zfakiq4br6ld.py":86:58)
#loc114 = loc("/NHNHOME/WORKSPACE/26msit001_A/jinhyeok/TTT_camera_embedding/lact_llm/.cache_inductor/f2/cf2ub52ory36upf65ax7qrxf2ufynzjgdwl4v2h2zfakiq4br6ld.py":86:48)
#loc115 = loc("/NHNHOME/WORKSPACE/26msit001_A/jinhyeok/TTT_camera_embedding/lact_llm/.cache_inductor/f2/cf2ub52ory36upf65ax7qrxf2ufynzjgdwl4v2h2zfakiq4br6ld.py":87:25)
#loc116 = loc("/NHNHOME/WORKSPACE/26msit001_A/jinhyeok/TTT_camera_embedding/lact_llm/.cache_inductor/f2/cf2ub52ory36upf65ax7qrxf2ufynzjgdwl4v2h2zfakiq4br6ld.py":87:36)
#loc117 = loc("/NHNHOME/WORKSPACE/26msit001_A/jinhyeok/TTT_camera_embedding/lact_llm/.cache_inductor/f2/cf2ub52ory36upf65ax7qrxf2ufynzjgdwl4v2h2zfakiq4br6ld.py":87:4)
#loc119 = loc("/NHNHOME/WORKSPACE/26msit001_A/jinhyeok/TTT_camera_embedding/.venv_llm/lib/python3.12/site-packages/triton/language/standard.py":291:36)
#loc121 = loc("/NHNHOME/WORKSPACE/26msit001_A/jinhyeok/TTT_camera_embedding/.venv_llm/lib/python3.12/site-packages/triton/language/standard.py":291:11)
#loc122 = loc("/NHNHOME/WORKSPACE/26msit001_A/jinhyeok/TTT_camera_embedding/.venv_llm/lib/python3.12/site-packages/triton/language/standard.py":291:4)
#loc124 = loc("/NHNHOME/WORKSPACE/26msit001_A/jinhyeok/TTT_camera_embedding/.venv_llm/lib/python3.12/site-packages/triton/language/standard.py":261:15)
#loc125 = loc("/NHNHOME/WORKSPACE/26msit001_A/jinhyeok/TTT_camera_embedding/.venv_llm/lib/python3.12/site-packages/triton/language/standard.py":261:11)
#loc126 = loc("/NHNHOME/WORKSPACE/26msit001_A/jinhyeok/TTT_camera_embedding/.venv_llm/lib/python3.12/site-packages/triton/language/standard.py":261:4)
#loc141 = loc("xnumel"(#loc1))
#loc142 = loc("r0_numel"(#loc2))
#loc143 = loc("xoffset"(#loc3))
#loc144 = loc("xoffset"(#loc4))
#loc145 = loc("xindex"(#loc5))
#loc146 = loc("xindex"(#loc6))
#loc147 = loc("xindex"(#loc7))
#loc148 = loc("xmask"(#loc8))
#loc149 = loc("r0_index"(#loc9))
#loc150 = loc("r0_index"(#loc10))
#loc151 = loc("r0_offset"(#loc11))
#loc152 = loc("r0_mask"(#loc12))
#loc153 = loc("tmp0"(#loc13))
#loc154 = loc("tmp0"(#loc14))
#loc155 = loc("tmp0"(#loc15))
#loc156 = loc("tmp0"(#loc16))
#loc157 = loc("tmp0"(#loc17))
#loc158 = loc("tmp6"(#loc18))
#loc159 = loc("tmp6"(#loc19))
#loc160 = loc("tmp6"(#loc20))
#loc161 = loc("tmp6"(#loc21))
#loc162 = loc("tmp6"(#loc22))
#loc163 = loc("tmp9"(#loc23))
#loc164 = loc("tmp9"(#loc24))
#loc165 = loc("tmp9"(#loc25))
#loc166 = loc("tmp9"(#loc26))
#loc167 = loc("tmp9"(#loc27))
#loc168 = loc("tmp9"(#loc28))
#loc169 = loc("tmp14"(#loc29))
#loc170 = loc("tmp14"(#loc30))
#loc171 = loc("tmp14"(#loc31))
#loc172 = loc("tmp14"(#loc32))
#loc173 = loc("tmp14"(#loc33))
#loc174 = loc("tmp14"(#loc34))
#loc175 = loc("tmp19"(#loc35))
#loc176 = loc("tmp19"(#loc36))
#loc177 = loc("tmp19"(#loc37))
#loc178 = loc("tmp19"(#loc38))
#loc179 = loc("tmp19"(#loc39))
#loc180 = loc("tmp19"(#loc40))
#loc181 = loc("tmp35"(#loc41))
#loc182 = loc("tmp35"(#loc42))
#loc183 = loc("tmp35"(#loc43))
#loc184 = loc("tmp35"(#loc44))
#loc185 = loc("tmp35"(#loc45))
#loc186 = loc("tmp37"(#loc46))
#loc187 = loc("tmp37"(#loc47))
#loc188 = loc("tmp37"(#loc48))
#loc189 = loc("tmp37"(#loc49))
#loc190 = loc("tmp37"(#loc50))
#loc191 = loc("tmp37"(#loc51))
#loc192 = loc("tmp1"(#loc52))
#loc193 = loc("tmp4"(#loc53))
#loc194 = loc("tmp4"(#loc54))
#loc195 = loc("tmp5"(#loc55))
#loc196 = loc("tmp5"(#loc56))
#loc197 = loc("tmp7"(#loc57))
#loc198 = loc("tmp8"(#loc58))
#loc199 = loc("tmp11"(#loc59))
#loc200 = loc("tmp12"(#loc60))
#loc201 = loc("tmp13"(#loc61))
#loc202 = loc("tmp16"(#loc62))
#loc203 = loc("tmp17"(#loc63))
#loc204 = loc("tmp18"(#loc64))
#loc205 = loc("tmp21"(#loc65))
#loc206 = loc("tmp22"(#loc66))
#loc207 = loc("tmp23"(#loc67))
#loc208 = loc("tmp26"(#loc68))
#loc209 = loc("tmp26"(#loc69))
#loc210 = loc("tmp27"(#loc70))
#loc211 = loc("tmp27"(#loc71))
#loc212 = loc("tmp28"(#loc72))
#loc213 = loc("tmp29"(#loc73))
#loc214 = loc("tmp30"(#loc74))
#loc215 = loc("tmp31"(#loc75))
#loc216 = loc("tmp32"(#loc76))
#loc217 = loc("tmp33"(#loc77))
#loc218 = loc("tmp36"(#loc78))
#loc219 = loc("tmp39"(#loc79))
#loc220 = loc("tmp40"(#loc80))
#loc221 = loc("tmp41"(#loc81))
#loc222 = loc("tmp44"(#loc82))
#loc223 = loc("tmp44"(#loc83))
#loc224 = loc("tmp45"(#loc84))
#loc225 = loc("tmp45"(#loc85))
#loc226 = loc("tmp46"(#loc86))
#loc227 = loc("tmp47"(#loc87))
#loc228 = loc("tmp48"(#loc88))
#loc229 = loc("tmp49"(#loc89))
