#loc = loc("/NHNHOME/WORKSPACE/26msit001_A/jinhyeok/loop_TTT/lact/.cache_inductor_llm/gh/cgh3g3prvufv6aunpsyoszn6ehy3ioz5x6uy6q7y35hum3rf6niw.py":18:0)
#loc65 = loc("in_ptr0"(#loc))
#loc66 = loc("in_ptr1"(#loc))
#loc67 = loc("in_ptr2"(#loc))
#loc68 = loc("out_ptr0"(#loc))
#loc69 = loc("out_ptr1"(#loc))
#loc70 = loc("out_ptr2"(#loc))
#loc71 = loc("ynumel"(#loc))
#loc72 = loc("xnumel"(#loc))
module {
  tt.func public @triton_poi_fused__to_copy_add_div_linalg_vector_norm_mean_mul_slice_transpose_zeros_like_7(%in_ptr0: !tt.ptr<bf16> {tt.divisibility = 16 : i32} loc("in_ptr0"(#loc)), %in_ptr1: !tt.ptr<f32> {tt.divisibility = 16 : i32} loc("in_ptr1"(#loc)), %in_ptr2: !tt.ptr<f32> {tt.divisibility = 16 : i32} loc("in_ptr2"(#loc)), %out_ptr0: !tt.ptr<bf16> {tt.divisibility = 16 : i32} loc("out_ptr0"(#loc)), %out_ptr1: !tt.ptr<bf16> {tt.divisibility = 16 : i32} loc("out_ptr1"(#loc)), %out_ptr2: !tt.ptr<bf16> {tt.divisibility = 16 : i32} loc("out_ptr2"(#loc)), %ynumel: i32 {tt.divisibility = 16 : i32} loc("ynumel"(#loc)), %xnumel: i32 {tt.divisibility = 16 : i32} loc("xnumel"(#loc))) attributes {noinline = false} {
    %xnumel_0 = arith.constant 192 : i32 loc(#loc73)
    %yoffset = tt.get_program_id y : i32 loc(#loc74)
    %yoffset_1 = tt.get_program_id z : i32 loc(#loc75)
    %yoffset_2 = tt.get_num_programs y : i32 loc(#loc76)
    %yoffset_3 = arith.muli %yoffset_1, %yoffset_2 : i32 loc(#loc77)
    %yoffset_4 = arith.addi %yoffset, %yoffset_3 : i32 loc(#loc78)
    %yoffset_5 = arith.constant 256 : i32 loc(#loc79)
    %yoffset_6 = arith.constant 256 : i32 loc(#loc79)
    %yoffset_7 = arith.muli %yoffset_4, %yoffset_6 : i32 loc(#loc79)
    %yindex = tt.make_range {end = 256 : i32, start = 0 : i32} : tensor<256xi32> loc(#loc80)
    %yindex_8 = tt.expand_dims %yindex {axis = 1 : i32} : tensor<256xi32> -> tensor<256x1xi32> loc(#loc81)
    %yindex_9 = tt.splat %yoffset_7 : i32 -> tensor<256x1xi32> loc(#loc82)
    %yindex_10 = arith.addi %yindex_9, %yindex_8 : tensor<256x1xi32> loc(#loc82)
    %ymask = tt.splat %ynumel : i32 -> tensor<256x1xi32> loc(#loc83)
    %ymask_11 = arith.cmpi slt, %yindex_10, %ymask : tensor<256x1xi32> loc(#loc83)
    %xoffset = tt.get_program_id x : i32 loc(#loc84)
    %xoffset_12 = arith.constant 16 : i32 loc(#loc85)
    %xoffset_13 = arith.constant 16 : i32 loc(#loc85)
    %xoffset_14 = arith.muli %xoffset, %xoffset_13 : i32 loc(#loc85)
    %xindex = tt.make_range {end = 16 : i32, start = 0 : i32} : tensor<16xi32> loc(#loc86)
    %xindex_15 = tt.expand_dims %xindex {axis = 0 : i32} : tensor<16xi32> -> tensor<1x16xi32> loc(#loc87)
    %xindex_16 = tt.splat %xoffset_14 : i32 -> tensor<1x16xi32> loc(#loc88)
    %xindex_17 = arith.addi %xindex_16, %xindex_15 : tensor<1x16xi32> loc(#loc88)
    %xmask = arith.constant dense<192> : tensor<1x16xi32> loc(#loc89)
    %xmask_18 = arith.cmpi slt, %xindex_17, %xmask : tensor<1x16xi32> loc(#loc89)
    %y1 = arith.constant 192 : i32 loc(#loc90)
    %y1_19 = arith.constant 192 : i32 loc(#loc90)
    %y1_20 = arith.constant dense<192> : tensor<256x1xi32> loc(#loc90)
    %y1_21 = arith.divsi %yindex_10, %y1_20 : tensor<256x1xi32> loc(#loc90)
    %y0 = arith.constant 192 : i32 loc(#loc91)
    %y0_22 = arith.constant 192 : i32 loc(#loc91)
    %y0_23 = arith.constant dense<192> : tensor<256x1xi32> loc(#loc91)
    %y0_24 = arith.remsi %yindex_10, %y0_23 : tensor<256x1xi32> loc(#loc91)
    %tmp0 = arith.constant 192 : i32 loc(#loc92)
    %tmp0_25 = arith.constant 192 : i32 loc(#loc92)
    %tmp0_26 = arith.constant dense<192> : tensor<256x1xi32> loc(#loc92)
    %tmp0_27 = arith.muli %tmp0_26, %yindex_10 : tensor<256x1xi32> loc(#loc92)
    %tmp0_28 = tt.broadcast %xindex_17 : tensor<1x16xi32> -> tensor<256x16xi32> loc(#loc93)
    %tmp0_29 = tt.broadcast %tmp0_27 : tensor<256x1xi32> -> tensor<256x16xi32> loc(#loc93)
    %tmp0_30 = arith.addi %tmp0_28, %tmp0_29 : tensor<256x16xi32> loc(#loc93)
    %tmp0_31 = tt.splat %in_ptr0 : !tt.ptr<bf16> -> tensor<256x16x!tt.ptr<bf16>> loc(#loc94)
    %tmp0_32 = tt.addptr %tmp0_31, %tmp0_30 : tensor<256x16x!tt.ptr<bf16>>, tensor<256x16xi32> loc(#loc94)
    %tmp0_33 = tt.broadcast %xmask_18 : tensor<1x16xi1> -> tensor<256x16xi1> loc(#loc95)
    %tmp0_34 = tt.broadcast %ymask_11 : tensor<256x1xi1> -> tensor<256x16xi1> loc(#loc95)
    %tmp0_35 = arith.andi %tmp0_33, %tmp0_34 : tensor<256x16xi1> loc(#loc95)
    %tmp0_36 = tt.load %tmp0_32, %tmp0_35 evictionPolicy = evict_last : tensor<256x16x!tt.ptr<bf16>> loc(#loc96)
    %tmp0_37 = arith.extf %tmp0_36 : tensor<256x16xbf16> to tensor<256x16xf32> loc(#loc97)
    %tmp2 = tt.splat %in_ptr1 : !tt.ptr<f32> -> tensor<256x1x!tt.ptr<f32>> loc(#loc98)
    %tmp2_38 = tt.addptr %tmp2, %y1_21 : tensor<256x1x!tt.ptr<f32>>, tensor<256x1xi32> loc(#loc98)
    %tmp2_39 = tt.load %tmp2_38, %ymask_11 evictionPolicy = evict_last : tensor<256x1x!tt.ptr<f32>> loc(#loc99)
    %tmp10 = tt.splat %in_ptr2 : !tt.ptr<f32> -> tensor<256x1x!tt.ptr<f32>> loc(#loc100)
    %tmp10_40 = tt.addptr %tmp10, %y1_21 : tensor<256x1x!tt.ptr<f32>>, tensor<256x1xi32> loc(#loc100)
    %tmp10_41 = tt.load %tmp10_40, %ymask_11 evictionPolicy = evict_last : tensor<256x1x!tt.ptr<f32>> loc(#loc101)
    %tmp16 = arith.constant 192 : i32 loc(#loc102)
    %tmp16_42 = arith.constant 192 : i32 loc(#loc102)
    %tmp16_43 = arith.constant dense<192> : tensor<1x16xi32> loc(#loc102)
    %tmp16_44 = arith.muli %tmp16_43, %xindex_17 : tensor<1x16xi32> loc(#loc102)
    %tmp16_45 = tt.broadcast %y0_24 : tensor<256x1xi32> -> tensor<256x16xi32> loc(#loc103)
    %tmp16_46 = tt.broadcast %tmp16_44 : tensor<1x16xi32> -> tensor<256x16xi32> loc(#loc103)
    %tmp16_47 = arith.addi %tmp16_45, %tmp16_46 : tensor<256x16xi32> loc(#loc103)
    %tmp16_48 = arith.constant 36864 : i32 loc(#loc104)
    %tmp16_49 = arith.constant 36864 : i32 loc(#loc104)
    %tmp16_50 = arith.constant dense<36864> : tensor<256x1xi32> loc(#loc104)
    %tmp16_51 = arith.muli %tmp16_50, %y1_21 : tensor<256x1xi32> loc(#loc104)
    %tmp16_52 = tt.broadcast %tmp16_51 : tensor<256x1xi32> -> tensor<256x16xi32> loc(#loc105)
    %tmp16_53 = arith.addi %tmp16_47, %tmp16_52 : tensor<256x16xi32> loc(#loc105)
    %tmp16_54 = tt.splat %in_ptr0 : !tt.ptr<bf16> -> tensor<256x16x!tt.ptr<bf16>> loc(#loc106)
    %tmp16_55 = tt.addptr %tmp16_54, %tmp16_53 : tensor<256x16x!tt.ptr<bf16>>, tensor<256x16xi32> loc(#loc106)
    %tmp16_56 = tt.broadcast %xmask_18 : tensor<1x16xi1> -> tensor<256x16xi1> loc(#loc107)
    %tmp16_57 = tt.broadcast %ymask_11 : tensor<256x1xi1> -> tensor<256x16xi1> loc(#loc107)
    %tmp16_58 = arith.andi %tmp16_56, %tmp16_57 : tensor<256x16xi1> loc(#loc107)
    %tmp16_59 = tt.load %tmp16_55, %tmp16_58 evictionPolicy = evict_last : tensor<256x16x!tt.ptr<bf16>> loc(#loc108)
    %tmp16_60 = arith.extf %tmp16_59 : tensor<256x16xbf16> to tensor<256x16xf32> loc(#loc109)
    %tmp3 = arith.constant 1.024000e+03 : f32 loc(#loc110)
    %tmp4 = arith.constant dense<1.024000e+03> : tensor<256x1xf32> loc(#loc111)
    %tmp4_61 = arith.divf %tmp2_39, %tmp4 : tensor<256x1xf32> loc(#loc111)
    %tmp5 = arith.constant 0.000000e+00 : f32 loc(#loc112)
    %tmp6 = arith.constant dense<0.000000e+00> : tensor<256x1xf32> loc(#loc113)
    %tmp6_62 = arith.mulf %tmp6, %tmp4_61 : tensor<256x1xf32> loc(#loc113)
    %tmp7 = tt.broadcast %tmp6_62 : tensor<256x1xf32> -> tensor<256x16xf32> loc(#loc114)
    %tmp7_63 = arith.addf %tmp0_37, %tmp7 : tensor<256x16xf32> loc(#loc114)
    %tmp11 = tt.extern_elementwise %tmp10_41 {libname = "", libpath = "", pure = true, symbol = "__nv_sqrtf"} : (tensor<256x1xf32>) -> tensor<256x1xf32> loc(#loc115)
    %tmp12 = arith.constant 1.000000e-07 : f32 loc(#loc116)
    %tmp13 = arith.constant dense<1.000000e-07> : tensor<256x1xf32> loc(#loc117)
    %tmp13_64 = arith.addf %tmp11, %tmp13 : tensor<256x1xf32> loc(#loc117)
    %tmp14 = tt.broadcast %tmp13_64 : tensor<256x1xf32> -> tensor<256x16xf32> loc(#loc118)
    %tmp14_65 = arith.divf %tmp7_63, %tmp14 : tensor<256x16xf32> loc(#loc118)
    %tmp18 = tt.broadcast %tmp6_62 : tensor<256x1xf32> -> tensor<256x16xf32> loc(#loc119)
    %tmp18_66 = arith.addf %tmp16_60, %tmp18 : tensor<256x16xf32> loc(#loc119)
    %tmp21 = tt.broadcast %tmp13_64 : tensor<256x1xf32> -> tensor<256x16xf32> loc(#loc120)
    %tmp21_67 = arith.divf %tmp18_66, %tmp21 : tensor<256x16xf32> loc(#loc120)
    %c192_i32 = arith.constant 192 : i32 loc(#loc49)
    %c192_i32_68 = arith.constant 192 : i32 loc(#loc49)
    %cst = arith.constant dense<192> : tensor<256x1xi32> loc(#loc49)
    %0 = arith.muli %cst, %yindex_10 : tensor<256x1xi32> loc(#loc49)
    %1 = tt.broadcast %xindex_17 : tensor<1x16xi32> -> tensor<256x16xi32> loc(#loc50)
    %2 = tt.broadcast %0 : tensor<256x1xi32> -> tensor<256x16xi32> loc(#loc50)
    %3 = arith.addi %1, %2 : tensor<256x16xi32> loc(#loc50)
    %4 = tt.splat %out_ptr0 : !tt.ptr<bf16> -> tensor<256x16x!tt.ptr<bf16>> loc(#loc51)
    %5 = tt.addptr %4, %3 : tensor<256x16x!tt.ptr<bf16>>, tensor<256x16xi32> loc(#loc51)
    %6 = tt.broadcast %xmask_18 : tensor<1x16xi1> -> tensor<256x16xi1> loc(#loc52)
    %7 = tt.broadcast %ymask_11 : tensor<256x1xi1> -> tensor<256x16xi1> loc(#loc52)
    %8 = arith.andi %6, %7 : tensor<256x16xi1> loc(#loc52)
    %9 = arith.truncf %tmp14_65 : tensor<256x16xf32> to tensor<256x16xbf16> loc(#loc53)
    tt.store %5, %9, %8 : tensor<256x16x!tt.ptr<bf16>> loc(#loc53)
    %c192_i32_69 = arith.constant 192 : i32 loc(#loc54)
    %c192_i32_70 = arith.constant 192 : i32 loc(#loc54)
    %cst_71 = arith.constant dense<192> : tensor<256x1xi32> loc(#loc54)
    %10 = arith.muli %cst_71, %yindex_10 : tensor<256x1xi32> loc(#loc54)
    %11 = tt.broadcast %xindex_17 : tensor<1x16xi32> -> tensor<256x16xi32> loc(#loc55)
    %12 = tt.broadcast %10 : tensor<256x1xi32> -> tensor<256x16xi32> loc(#loc55)
    %13 = arith.addi %11, %12 : tensor<256x16xi32> loc(#loc55)
    %14 = tt.splat %out_ptr1 : !tt.ptr<bf16> -> tensor<256x16x!tt.ptr<bf16>> loc(#loc56)
    %15 = tt.addptr %14, %13 : tensor<256x16x!tt.ptr<bf16>>, tensor<256x16xi32> loc(#loc56)
    %16 = tt.broadcast %xmask_18 : tensor<1x16xi1> -> tensor<256x16xi1> loc(#loc57)
    %17 = tt.broadcast %ymask_11 : tensor<256x1xi1> -> tensor<256x16xi1> loc(#loc57)
    %18 = arith.andi %16, %17 : tensor<256x16xi1> loc(#loc57)
    %19 = arith.truncf %tmp14_65 : tensor<256x16xf32> to tensor<256x16xbf16> loc(#loc58)
    tt.store %15, %19, %18 : tensor<256x16x!tt.ptr<bf16>> loc(#loc58)
    %c192_i32_72 = arith.constant 192 : i32 loc(#loc59)
    %c192_i32_73 = arith.constant 192 : i32 loc(#loc59)
    %cst_74 = arith.constant dense<192> : tensor<256x1xi32> loc(#loc59)
    %20 = arith.muli %cst_74, %yindex_10 : tensor<256x1xi32> loc(#loc59)
    %21 = tt.broadcast %xindex_17 : tensor<1x16xi32> -> tensor<256x16xi32> loc(#loc60)
    %22 = tt.broadcast %20 : tensor<256x1xi32> -> tensor<256x16xi32> loc(#loc60)
    %23 = arith.addi %21, %22 : tensor<256x16xi32> loc(#loc60)
    %24 = tt.splat %out_ptr2 : !tt.ptr<bf16> -> tensor<256x16x!tt.ptr<bf16>> loc(#loc61)
    %25 = tt.addptr %24, %23 : tensor<256x16x!tt.ptr<bf16>>, tensor<256x16xi32> loc(#loc61)
    %26 = tt.broadcast %xmask_18 : tensor<1x16xi1> -> tensor<256x16xi1> loc(#loc62)
    %27 = tt.broadcast %ymask_11 : tensor<256x1xi1> -> tensor<256x16xi1> loc(#loc62)
    %28 = arith.andi %26, %27 : tensor<256x16xi1> loc(#loc62)
    %29 = arith.truncf %tmp21_67 : tensor<256x16xf32> to tensor<256x16xbf16> loc(#loc63)
    tt.store %25, %29, %28 : tensor<256x16x!tt.ptr<bf16>> loc(#loc63)
    tt.return loc(#loc64)
  } loc(#loc)
} loc(#loc)
#loc1 = loc("/NHNHOME/WORKSPACE/26msit001_A/jinhyeok/loop_TTT/lact/.cache_inductor_llm/gh/cgh3g3prvufv6aunpsyoszn6ehy3ioz5x6uy6q7y35hum3rf6niw.py":19:13)
#loc2 = loc("/NHNHOME/WORKSPACE/26msit001_A/jinhyeok/loop_TTT/lact/.cache_inductor_llm/gh/cgh3g3prvufv6aunpsyoszn6ehy3ioz5x6uy6q7y35hum3rf6niw.py":20:29)
#loc3 = loc("/NHNHOME/WORKSPACE/26msit001_A/jinhyeok/loop_TTT/lact/.cache_inductor_llm/gh/cgh3g3prvufv6aunpsyoszn6ehy3ioz5x6uy6q7y35hum3rf6niw.py":20:48)
#loc4 = loc("/NHNHOME/WORKSPACE/26msit001_A/jinhyeok/loop_TTT/lact/.cache_inductor_llm/gh/cgh3g3prvufv6aunpsyoszn6ehy3ioz5x6uy6q7y35hum3rf6niw.py":20:69)
#loc5 = loc("/NHNHOME/WORKSPACE/26msit001_A/jinhyeok/loop_TTT/lact/.cache_inductor_llm/gh/cgh3g3prvufv6aunpsyoszn6ehy3ioz5x6uy6q7y35hum3rf6niw.py":20:53)
#loc6 = loc("/NHNHOME/WORKSPACE/26msit001_A/jinhyeok/loop_TTT/lact/.cache_inductor_llm/gh/cgh3g3prvufv6aunpsyoszn6ehy3ioz5x6uy6q7y35hum3rf6niw.py":20:34)
#loc7 = loc("/NHNHOME/WORKSPACE/26msit001_A/jinhyeok/loop_TTT/lact/.cache_inductor_llm/gh/cgh3g3prvufv6aunpsyoszn6ehy3ioz5x6uy6q7y35hum3rf6niw.py":20:75)
#loc8 = loc("/NHNHOME/WORKSPACE/26msit001_A/jinhyeok/loop_TTT/lact/.cache_inductor_llm/gh/cgh3g3prvufv6aunpsyoszn6ehy3ioz5x6uy6q7y35hum3rf6niw.py":21:36)
#loc9 = loc("/NHNHOME/WORKSPACE/26msit001_A/jinhyeok/loop_TTT/lact/.cache_inductor_llm/gh/cgh3g3prvufv6aunpsyoszn6ehy3ioz5x6uy6q7y35hum3rf6niw.py":21:44)
#loc10 = loc("/NHNHOME/WORKSPACE/26msit001_A/jinhyeok/loop_TTT/lact/.cache_inductor_llm/gh/cgh3g3prvufv6aunpsyoszn6ehy3ioz5x6uy6q7y35hum3rf6niw.py":21:23)
#loc11 = loc("/NHNHOME/WORKSPACE/26msit001_A/jinhyeok/loop_TTT/lact/.cache_inductor_llm/gh/cgh3g3prvufv6aunpsyoszn6ehy3ioz5x6uy6q7y35hum3rf6niw.py":22:21)
#loc12 = loc("/NHNHOME/WORKSPACE/26msit001_A/jinhyeok/loop_TTT/lact/.cache_inductor_llm/gh/cgh3g3prvufv6aunpsyoszn6ehy3ioz5x6uy6q7y35hum3rf6niw.py":23:28)
#loc13 = loc("/NHNHOME/WORKSPACE/26msit001_A/jinhyeok/loop_TTT/lact/.cache_inductor_llm/gh/cgh3g3prvufv6aunpsyoszn6ehy3ioz5x6uy6q7y35hum3rf6niw.py":23:33)
#loc14 = loc("/NHNHOME/WORKSPACE/26msit001_A/jinhyeok/loop_TTT/lact/.cache_inductor_llm/gh/cgh3g3prvufv6aunpsyoszn6ehy3ioz5x6uy6q7y35hum3rf6niw.py":24:36)
#loc15 = loc("/NHNHOME/WORKSPACE/26msit001_A/jinhyeok/loop_TTT/lact/.cache_inductor_llm/gh/cgh3g3prvufv6aunpsyoszn6ehy3ioz5x6uy6q7y35hum3rf6niw.py":24:44)
#loc16 = loc("/NHNHOME/WORKSPACE/26msit001_A/jinhyeok/loop_TTT/lact/.cache_inductor_llm/gh/cgh3g3prvufv6aunpsyoszn6ehy3ioz5x6uy6q7y35hum3rf6niw.py":24:23)
#loc17 = loc("/NHNHOME/WORKSPACE/26msit001_A/jinhyeok/loop_TTT/lact/.cache_inductor_llm/gh/cgh3g3prvufv6aunpsyoszn6ehy3ioz5x6uy6q7y35hum3rf6niw.py":25:21)
#loc18 = loc("/NHNHOME/WORKSPACE/26msit001_A/jinhyeok/loop_TTT/lact/.cache_inductor_llm/gh/cgh3g3prvufv6aunpsyoszn6ehy3ioz5x6uy6q7y35hum3rf6niw.py":28:19)
#loc19 = loc("/NHNHOME/WORKSPACE/26msit001_A/jinhyeok/loop_TTT/lact/.cache_inductor_llm/gh/cgh3g3prvufv6aunpsyoszn6ehy3ioz5x6uy6q7y35hum3rf6niw.py":29:19)
#loc20 = loc("/NHNHOME/WORKSPACE/26msit001_A/jinhyeok/loop_TTT/lact/.cache_inductor_llm/gh/cgh3g3prvufv6aunpsyoszn6ehy3ioz5x6uy6q7y35hum3rf6niw.py":30:39)
#loc21 = loc("/NHNHOME/WORKSPACE/26msit001_A/jinhyeok/loop_TTT/lact/.cache_inductor_llm/gh/cgh3g3prvufv6aunpsyoszn6ehy3ioz5x6uy6q7y35hum3rf6niw.py":30:35)
#loc22 = loc("/NHNHOME/WORKSPACE/26msit001_A/jinhyeok/loop_TTT/lact/.cache_inductor_llm/gh/cgh3g3prvufv6aunpsyoszn6ehy3ioz5x6uy6q7y35hum3rf6niw.py":30:30)
#loc23 = loc("/NHNHOME/WORKSPACE/26msit001_A/jinhyeok/loop_TTT/lact/.cache_inductor_llm/gh/cgh3g3prvufv6aunpsyoszn6ehy3ioz5x6uy6q7y35hum3rf6niw.py":30:52)
#loc24 = loc("/NHNHOME/WORKSPACE/26msit001_A/jinhyeok/loop_TTT/lact/.cache_inductor_llm/gh/cgh3g3prvufv6aunpsyoszn6ehy3ioz5x6uy6q7y35hum3rf6niw.py":30:44)
#loc25 = loc("/NHNHOME/WORKSPACE/26msit001_A/jinhyeok/loop_TTT/lact/.cache_inductor_llm/gh/cgh3g3prvufv6aunpsyoszn6ehy3ioz5x6uy6q7y35hum3rf6niw.py":30:92)
#loc26 = loc("/NHNHOME/WORKSPACE/26msit001_A/jinhyeok/loop_TTT/lact/.cache_inductor_llm/gh/cgh3g3prvufv6aunpsyoszn6ehy3ioz5x6uy6q7y35hum3rf6niw.py":31:30)
#loc27 = loc("/NHNHOME/WORKSPACE/26msit001_A/jinhyeok/loop_TTT/lact/.cache_inductor_llm/gh/cgh3g3prvufv6aunpsyoszn6ehy3ioz5x6uy6q7y35hum3rf6niw.py":31:35)
#loc28 = loc("/NHNHOME/WORKSPACE/26msit001_A/jinhyeok/loop_TTT/lact/.cache_inductor_llm/gh/cgh3g3prvufv6aunpsyoszn6ehy3ioz5x6uy6q7y35hum3rf6niw.py":32:31)
#loc29 = loc("/NHNHOME/WORKSPACE/26msit001_A/jinhyeok/loop_TTT/lact/.cache_inductor_llm/gh/cgh3g3prvufv6aunpsyoszn6ehy3ioz5x6uy6q7y35hum3rf6niw.py":32:36)
#loc30 = loc("/NHNHOME/WORKSPACE/26msit001_A/jinhyeok/loop_TTT/lact/.cache_inductor_llm/gh/cgh3g3prvufv6aunpsyoszn6ehy3ioz5x6uy6q7y35hum3rf6niw.py":33:40)
#loc31 = loc("/NHNHOME/WORKSPACE/26msit001_A/jinhyeok/loop_TTT/lact/.cache_inductor_llm/gh/cgh3g3prvufv6aunpsyoszn6ehy3ioz5x6uy6q7y35hum3rf6niw.py":33:36)
#loc32 = loc("/NHNHOME/WORKSPACE/26msit001_A/jinhyeok/loop_TTT/lact/.cache_inductor_llm/gh/cgh3g3prvufv6aunpsyoszn6ehy3ioz5x6uy6q7y35hum3rf6niw.py":33:51)
#loc33 = loc("/NHNHOME/WORKSPACE/26msit001_A/jinhyeok/loop_TTT/lact/.cache_inductor_llm/gh/cgh3g3prvufv6aunpsyoszn6ehy3ioz5x6uy6q7y35hum3rf6niw.py":33:45)
#loc34 = loc("/NHNHOME/WORKSPACE/26msit001_A/jinhyeok/loop_TTT/lact/.cache_inductor_llm/gh/cgh3g3prvufv6aunpsyoszn6ehy3ioz5x6uy6q7y35hum3rf6niw.py":33:31)
#loc35 = loc("/NHNHOME/WORKSPACE/26msit001_A/jinhyeok/loop_TTT/lact/.cache_inductor_llm/gh/cgh3g3prvufv6aunpsyoszn6ehy3ioz5x6uy6q7y35hum3rf6niw.py":33:64)
#loc36 = loc("/NHNHOME/WORKSPACE/26msit001_A/jinhyeok/loop_TTT/lact/.cache_inductor_llm/gh/cgh3g3prvufv6aunpsyoszn6ehy3ioz5x6uy6q7y35hum3rf6niw.py":33:56)
#loc37 = loc("/NHNHOME/WORKSPACE/26msit001_A/jinhyeok/loop_TTT/lact/.cache_inductor_llm/gh/cgh3g3prvufv6aunpsyoszn6ehy3ioz5x6uy6q7y35hum3rf6niw.py":33:104)
#loc38 = loc("/NHNHOME/WORKSPACE/26msit001_A/jinhyeok/loop_TTT/lact/.cache_inductor_llm/gh/cgh3g3prvufv6aunpsyoszn6ehy3ioz5x6uy6q7y35hum3rf6niw.py":35:11)
#loc39 = loc("/NHNHOME/WORKSPACE/26msit001_A/jinhyeok/loop_TTT/lact/.cache_inductor_llm/gh/cgh3g3prvufv6aunpsyoszn6ehy3ioz5x6uy6q7y35hum3rf6niw.py":36:19)
#loc40 = loc("/NHNHOME/WORKSPACE/26msit001_A/jinhyeok/loop_TTT/lact/.cache_inductor_llm/gh/cgh3g3prvufv6aunpsyoszn6ehy3ioz5x6uy6q7y35hum3rf6niw.py":37:11)
#loc41 = loc("/NHNHOME/WORKSPACE/26msit001_A/jinhyeok/loop_TTT/lact/.cache_inductor_llm/gh/cgh3g3prvufv6aunpsyoszn6ehy3ioz5x6uy6q7y35hum3rf6niw.py":38:18)
#loc42 = loc("/NHNHOME/WORKSPACE/26msit001_A/jinhyeok/loop_TTT/lact/.cache_inductor_llm/gh/cgh3g3prvufv6aunpsyoszn6ehy3ioz5x6uy6q7y35hum3rf6niw.py":39:18)
#loc43 = loc("/NHNHOME/WORKSPACE/26msit001_A/jinhyeok/loop_TTT/lact/.cache_inductor_llm/gh/cgh3g3prvufv6aunpsyoszn6ehy3ioz5x6uy6q7y35hum3rf6niw.py":42:27)
#loc44 = loc("/NHNHOME/WORKSPACE/26msit001_A/jinhyeok/loop_TTT/lact/.cache_inductor_llm/gh/cgh3g3prvufv6aunpsyoszn6ehy3ioz5x6uy6q7y35hum3rf6niw.py":43:12)
#loc45 = loc("/NHNHOME/WORKSPACE/26msit001_A/jinhyeok/loop_TTT/lact/.cache_inductor_llm/gh/cgh3g3prvufv6aunpsyoszn6ehy3ioz5x6uy6q7y35hum3rf6niw.py":44:20)
#loc46 = loc("/NHNHOME/WORKSPACE/26msit001_A/jinhyeok/loop_TTT/lact/.cache_inductor_llm/gh/cgh3g3prvufv6aunpsyoszn6ehy3ioz5x6uy6q7y35hum3rf6niw.py":45:20)
#loc47 = loc("/NHNHOME/WORKSPACE/26msit001_A/jinhyeok/loop_TTT/lact/.cache_inductor_llm/gh/cgh3g3prvufv6aunpsyoszn6ehy3ioz5x6uy6q7y35hum3rf6niw.py":48:20)
#loc48 = loc("/NHNHOME/WORKSPACE/26msit001_A/jinhyeok/loop_TTT/lact/.cache_inductor_llm/gh/cgh3g3prvufv6aunpsyoszn6ehy3ioz5x6uy6q7y35hum3rf6niw.py":51:21)
#loc49 = loc("/NHNHOME/WORKSPACE/26msit001_A/jinhyeok/loop_TTT/lact/.cache_inductor_llm/gh/cgh3g3prvufv6aunpsyoszn6ehy3ioz5x6uy6q7y35hum3rf6niw.py":53:34)
#loc50 = loc("/NHNHOME/WORKSPACE/26msit001_A/jinhyeok/loop_TTT/lact/.cache_inductor_llm/gh/cgh3g3prvufv6aunpsyoszn6ehy3ioz5x6uy6q7y35hum3rf6niw.py":53:30)
#loc51 = loc("/NHNHOME/WORKSPACE/26msit001_A/jinhyeok/loop_TTT/lact/.cache_inductor_llm/gh/cgh3g3prvufv6aunpsyoszn6ehy3ioz5x6uy6q7y35hum3rf6niw.py":53:25)
#loc52 = loc("/NHNHOME/WORKSPACE/26msit001_A/jinhyeok/loop_TTT/lact/.cache_inductor_llm/gh/cgh3g3prvufv6aunpsyoszn6ehy3ioz5x6uy6q7y35hum3rf6niw.py":53:54)
#loc53 = loc("/NHNHOME/WORKSPACE/26msit001_A/jinhyeok/loop_TTT/lact/.cache_inductor_llm/gh/cgh3g3prvufv6aunpsyoszn6ehy3ioz5x6uy6q7y35hum3rf6niw.py":53:46)
#loc54 = loc("/NHNHOME/WORKSPACE/26msit001_A/jinhyeok/loop_TTT/lact/.cache_inductor_llm/gh/cgh3g3prvufv6aunpsyoszn6ehy3ioz5x6uy6q7y35hum3rf6niw.py":54:34)
#loc55 = loc("/NHNHOME/WORKSPACE/26msit001_A/jinhyeok/loop_TTT/lact/.cache_inductor_llm/gh/cgh3g3prvufv6aunpsyoszn6ehy3ioz5x6uy6q7y35hum3rf6niw.py":54:30)
#loc56 = loc("/NHNHOME/WORKSPACE/26msit001_A/jinhyeok/loop_TTT/lact/.cache_inductor_llm/gh/cgh3g3prvufv6aunpsyoszn6ehy3ioz5x6uy6q7y35hum3rf6niw.py":54:25)
#loc57 = loc("/NHNHOME/WORKSPACE/26msit001_A/jinhyeok/loop_TTT/lact/.cache_inductor_llm/gh/cgh3g3prvufv6aunpsyoszn6ehy3ioz5x6uy6q7y35hum3rf6niw.py":54:54)
#loc58 = loc("/NHNHOME/WORKSPACE/26msit001_A/jinhyeok/loop_TTT/lact/.cache_inductor_llm/gh/cgh3g3prvufv6aunpsyoszn6ehy3ioz5x6uy6q7y35hum3rf6niw.py":54:46)
#loc59 = loc("/NHNHOME/WORKSPACE/26msit001_A/jinhyeok/loop_TTT/lact/.cache_inductor_llm/gh/cgh3g3prvufv6aunpsyoszn6ehy3ioz5x6uy6q7y35hum3rf6niw.py":55:34)
#loc60 = loc("/NHNHOME/WORKSPACE/26msit001_A/jinhyeok/loop_TTT/lact/.cache_inductor_llm/gh/cgh3g3prvufv6aunpsyoszn6ehy3ioz5x6uy6q7y35hum3rf6niw.py":55:30)
#loc61 = loc("/NHNHOME/WORKSPACE/26msit001_A/jinhyeok/loop_TTT/lact/.cache_inductor_llm/gh/cgh3g3prvufv6aunpsyoszn6ehy3ioz5x6uy6q7y35hum3rf6niw.py":55:25)
#loc62 = loc("/NHNHOME/WORKSPACE/26msit001_A/jinhyeok/loop_TTT/lact/.cache_inductor_llm/gh/cgh3g3prvufv6aunpsyoszn6ehy3ioz5x6uy6q7y35hum3rf6niw.py":55:54)
#loc63 = loc("/NHNHOME/WORKSPACE/26msit001_A/jinhyeok/loop_TTT/lact/.cache_inductor_llm/gh/cgh3g3prvufv6aunpsyoszn6ehy3ioz5x6uy6q7y35hum3rf6niw.py":55:46)
#loc64 = loc("/NHNHOME/WORKSPACE/26msit001_A/jinhyeok/loop_TTT/lact/.cache_inductor_llm/gh/cgh3g3prvufv6aunpsyoszn6ehy3ioz5x6uy6q7y35hum3rf6niw.py":55:4)
#loc73 = loc("xnumel"(#loc1))
#loc74 = loc("yoffset"(#loc2))
#loc75 = loc("yoffset"(#loc3))
#loc76 = loc("yoffset"(#loc4))
#loc77 = loc("yoffset"(#loc5))
#loc78 = loc("yoffset"(#loc6))
#loc79 = loc("yoffset"(#loc7))
#loc80 = loc("yindex"(#loc8))
#loc81 = loc("yindex"(#loc9))
#loc82 = loc("yindex"(#loc10))
#loc83 = loc("ymask"(#loc11))
#loc84 = loc("xoffset"(#loc12))
#loc85 = loc("xoffset"(#loc13))
#loc86 = loc("xindex"(#loc14))
#loc87 = loc("xindex"(#loc15))
#loc88 = loc("xindex"(#loc16))
#loc89 = loc("xmask"(#loc17))
#loc90 = loc("y1"(#loc18))
#loc91 = loc("y0"(#loc19))
#loc92 = loc("tmp0"(#loc20))
#loc93 = loc("tmp0"(#loc21))
#loc94 = loc("tmp0"(#loc22))
#loc95 = loc("tmp0"(#loc23))
#loc96 = loc("tmp0"(#loc24))
#loc97 = loc("tmp0"(#loc25))
#loc98 = loc("tmp2"(#loc26))
#loc99 = loc("tmp2"(#loc27))
#loc100 = loc("tmp10"(#loc28))
#loc101 = loc("tmp10"(#loc29))
#loc102 = loc("tmp16"(#loc30))
#loc103 = loc("tmp16"(#loc31))
#loc104 = loc("tmp16"(#loc32))
#loc105 = loc("tmp16"(#loc33))
#loc106 = loc("tmp16"(#loc34))
#loc107 = loc("tmp16"(#loc35))
#loc108 = loc("tmp16"(#loc36))
#loc109 = loc("tmp16"(#loc37))
#loc110 = loc("tmp3"(#loc38))
#loc111 = loc("tmp4"(#loc39))
#loc112 = loc("tmp5"(#loc40))
#loc113 = loc("tmp6"(#loc41))
#loc114 = loc("tmp7"(#loc42))
#loc115 = loc("tmp11"(#loc43))
#loc116 = loc("tmp12"(#loc44))
#loc117 = loc("tmp13"(#loc45))
#loc118 = loc("tmp14"(#loc46))
#loc119 = loc("tmp18"(#loc47))
#loc120 = loc("tmp21"(#loc48))
